…
I0403 15:24:05.343818  3039 net.cpp:313] The NetState phase (1) differed from the phase (0) specified by a rule in layer data
I0403 15:24:05.345046  3039 net.cpp:49] Initializing net from parameters: 
state {
  phase: TEST
}
layer {
  name: "data"
  type: "Data"
  top: "data"
  top: "label"
  include {
    phase: TEST
  }
  transform_param {
    mirror: false
    crop_size: 224
    mean_file: "/home/mohanty/data/final_dataset/lmdb/segmented-60-40/mean.binaryproto"
  }
  data_param {
    source: "/home/mohanty/data/final_dataset/lmdb/segmented-60-40/test_db"
    batch_size: 24
    backend: LMDB
  }
}
layer {
  name: "conv1/7x7_s2"
  type: "Convolution"
  bottom: "data"
  top: "conv1/7x7_s2"
  param {
    lr_mult: 1
    decay_mult: 1
  }
  param {
    lr_mult: 2
    decay_mult: 0
  }
  convolution_param {
    num_output: 64
    pad: 3
    kernel_size: 7
    stride: 2
    weight_filler {
      type: "xavier"
      std: 0.1
    }
    bias_filler {
      type: "constant"
      value: 0.2
    }
  }
}
layer {
  name: "conv1/relu_7x7"
  type: "ReLU"
  bottom: "conv1/7x7_s2"
  top: "conv1/7x7_s2"
}
layer {
  name: "pool1/3x3_s2"
  type: "Pooling"
  bottom: "conv1/7x7_s2"
  top: "pool1/3x3_s2"
  pooling_param {
    pool: MAX
    kernel_size: 3
    stride: 2
  }
}
layer {
  name: "pool1/norm1"
  type: "LRN"
  bottom: "pool1/3x3_s2"
  top: "pool1/norm1"
  lrn_param {
    local_size: 5
    alpha: 0.0001
    beta: 0.75
  }
}
layer {
  name: "conv2/3x3_reduce"
  type: "Convolution"
  bottom: "pool1/norm1"
  top: "conv2/3x3_reduce"
  param {
    lr_mult: 1
    decay_mult: 1
  }
  param {
    lr_mult: 2
    decay_mult: 0
  }
  convolution_param {
    num_output: 64
    kernel_size: 1
    weight_filler {
      type: "xavier"
      std: 0.1
    }
    bias_filler {
      type: "constant"
      value: 0.2
    }
  }
}
layer {
  name: "conv2/relu_3x3_reduce"
  type: "ReLU"
  bottom: "conv2/3x3_reduce"
  top: "conv2/3x3_reduce"
}
layer {
  name: "conv2/3x3"
  type: "Convolution"
  bottom: "conv2/3x3_reduce"
  top: "conv2/3x3"
  param {
    lr_mult: 1
    decay_mult: 1
  }
  param {
    lr_mult: 2
    decay_mult: 0
  }
  convolution_param {
    num_output: 192
    pad: 1
    kernel_size: 3
    weight_filler {
      type: "xavier"
      std: 0.03
    }
    bias_filler {
      type: "constant"
      value: 0.2
    }
  }
}
layer {
  name: "conv2/relu_3x3"
  type: "ReLU"
  bottom: "conv2/3x3"
  top: "conv2/3x3"
}
layer {
  name: "conv2/norm2"
  type: "LRN"
  bottom: "conv2/3x3"
  top: "conv2/norm2"
  lrn_param {
    local_size: 5
    alpha: 0.0001
    beta: 0.75
  }
}
layer {
  name: "pool2/3x3_s2"
  type: "Pooling"
  bottom: "conv2/norm2"
  top: "pool2/3x3_s2"
  pooling_param {
    pool: MAX
    kernel_size: 3
    stride: 2
  }
}
layer {
  name: "inception_3a/1x1"
  type: "Convolution"
  bottom: "pool2/3x3_s2"
  top: "inception_3a/1x1"
  param {
    lr_mult: 1
    decay_mult: 1
  }
  param {
    lr_mult: 2
    decay_mult: 0
  }
  convolution_param {
    num_output: 64
    kernel_size: 1
    weight_filler {
      type: "xavier"
      std: 0.03
    }
    bias_filler {
      type: "constant"
      value: 0.2
    }
  }
}
layer {
  name: "inception_3a/relu_1x1"
  type: "ReLU"
  bottom: "inception_3a/1x1"
  top: "inception_3a/1x1"
}
layer {
  name: "inception_3a/3x3_reduce"
  type: "Convolution"
  bottom: "pool2/3x3_s2"
  top: "inception_3a/3x3_reduce"
  param {
    lr_mult: 1
    decay_mult: 1
  }
  param {
    lr_mult: 2
    decay_mult: 0
  }
  convolution_param {
    num_output: 96
    kernel_size: 1
    weight_filler {
      type: "xavier"
      std: 0.09
    }
    bias_filler {
      type: "constant"
      value: 0.2
    }
  }
}
layer {
  name: "inception_3a/relu_3x3_reduce"
  type: "ReLU"
  bottom: "inception_3a/3x3_reduce"
  top: "inception_3a/3x3_reduce"
}
layer {
  name: "inception_3a/3x3"
  type: "Convolution"
  bottom: "inception_3a/3x3_reduce"
  top: "inception_3a/3x3"
  param {
    lr_mult: 1
    decay_mult: 1
  }
  param {
    lr_mult: 2
    decay_mult: 0
  }
  convolution_param {
    num_output: 128
    pad: 1
    kernel_size: 3
    weight_filler {
      type: "xavier"
      std: 0.03
    }
    bias_filler {
      type: "constant"
      value: 0.2
    }
  }
}
layer {
  name: "inception_3a/relu_3x3"
  type: "ReLU"
  bottom: "inception_3a/3x3"
  top: "inception_3a/3x3"
}
layer {
  name: "inception_3a/5x5_reduce"
  type: "Convolution"
  bottom: "pool2/3x3_s2"
  top: "inception_3a/5x5_reduce"
  param {
    lr_mult: 1
    decay_mult: 1
  }
  param {
    lr_mult: 2
    decay_mult: 0
  }
  convolution_param {
    num_output: 16
    kernel_size: 1
    weight_filler {
      type: "xavier"
      std: 0.2
    }
    bias_filler {
      type: "constant"
      value: 0.2
    }
  }
}
layer {
  name: "inception_3a/relu_5x5_reduce"
  type: "ReLU"
  bottom: "inception_3a/5x5_reduce"
  top: "inception_3a/5x5_reduce"
}
layer {
  name: "inception_3a/5x5"
  type: "Convolution"
  bottom: "inception_3a/5x5_reduce"
  top: "inception_3a/5x5"
  param {
    lr_mult: 1
    decay_mult: 1
  }
  param {
    lr_mult: 2
    decay_mult: 0
  }
  convolution_param {
    num_output: 32
    pad: 2
    kernel_size: 5
    weight_filler {
      type: "xavier"
      std: 0.03
    }
    bias_filler {
      type: "constant"
      value: 0.2
    }
  }
}
layer {
  name: "inception_3a/relu_5x5"
  type: "ReLU"
  bottom: "inception_3a/5x5"
  top: "inception_3a/5x5"
}
layer {
  name: "inception_3a/pool"
  type: "Pooling"
  bottom: "pool2/3x3_s2"
  top: "inception_3a/pool"
  pooling_param {
    pool: MAX
    kernel_size: 3
    stride: 1
    pad: 1
  }
}
layer {
  name: "inception_3a/pool_proj"
  type: "Convolution"
  bottom: "inception_3a/pool"
  top: "inception_3a/pool_proj"
  param {
    lr_mult: 1
    decay_mult: 1
  }
  param {
    lr_mult: 2
    decay_mult: 0
  }
  convolution_param {
    num_output: 32
    kernel_size: 1
    weight_filler {
      type: "xavier"
      std: 0.1
    }
    bias_filler {
      type: "constant"
      value: 0.2
    }
  }
}
layer {
  name: "inception_3a/relu_pool_proj"
  type: "ReLU"
  bottom: "inception_3a/pool_proj"
  top: "inception_3a/pool_proj"
}
layer {
  name: "inception_3a/output"
  type: "Concat"
  bottom: "inception_3a/1x1"
  bottom: "inception_3a/3x3"
  bottom: "inception_3a/5x5"
  bottom: "inception_3a/pool_proj"
  top: "inception_3a/output"
}
layer {
  name: "inception_3b/1x1"
  type: "Convolution"
  bottom: "inception_3a/output"
  top: "inception_3b/1x1"
  param {
    lr_mult: 1
    decay_mult: 1
  }
  param {
    lr_mult: 2
    decay_mult: 0
  }
  convolution_param {
    num_output: 128
    kernel_size: 1
    weight_filler {
      type: "xavier"
      std: 0.03
    }
    bias_filler {
      type: "constant"
      value: 0.2
    }
  }
}
layer {
  name: "inception_3b/relu_1x1"
  type: "ReLU"
  bottom: "inception_3b/1x1"
  top: "inception_3b/1x1"
}
layer {
  name: "inception_3b/3x3_reduce"
  type: "Convolution"
  bottom: "inception_3a/output"
  top: "inception_3b/3x3_reduce"
  param {
    lr_mult: 1
    decay_mult: 1
  }
  param {
    lr_mult: 2
    decay_mult: 0
  }
  convolution_param {
    num_output: 128
    kernel_size: 1
    weight_filler {
      type: "xavier"
      std: 0.09
    }
    bias_filler {
      type: "constant"
      value: 0.2
    }
  }
}
layer {
  name: "inception_3b/relu_3x3_reduce"
  type: "ReLU"
  bottom: "inception_3b/3x3_reduce"
  top: "inception_3b/3x3_reduce"
}
layer {
  name: "inception_3b/3x3"
  type: "Convolution"
  bottom: "inception_3b/3x3_reduce"
  top: "inception_3b/3x3"
  param {
    lr_mult: 1
    decay_mult: 1
  }
  param {
    lr_mult: 2
    decay_mult: 0
  }
  convolution_param {
    num_output: 192
    pad: 1
    kernel_size: 3
    weight_filler {
      type: "xavier"
      std: 0.03
    }
    bias_filler {
      type: "constant"
      value: 0.2
    }
  }
}
layer {
  name: "inception_3b/relu_3x3"
  type: "ReLU"
  bottom: "inception_3b/3x3"
  top: "inception_3b/3x3"
}
layer {
  name: "inception_3b/5x5_reduce"
  type: "Convolution"
  bottom: "inception_3a/output"
  top: "inception_3b/5x5_reduce"
  param {
    lr_mult: 1
    decay_mult: 1
  }
  param {
    lr_mult: 2
    decay_mult: 0
  }
  convolution_param {
    num_output: 32
    kernel_size: 1
    weight_filler {
      type: "xavier"
      std: 0.2
    }
    bias_filler {
      type: "constant"
      value: 0.2
    }
  }
}
layer {
  name: "inception_3b/relu_5x5_reduce"
  type: "ReLU"
  bottom: "inception_3b/5x5_reduce"
  top: "inception_3b/5x5_reduce"
}
layer {
  name: "inception_3b/5x5"
  type: "Convolution"
  bottom: "inception_3b/5x5_reduce"
  top: "inception_3b/5x5"
  param {
    lr_mult: 1
    decay_mult: 1
  }
  param {
    lr_mult: 2
    decay_mult: 0
  }
  convolution_param {
    num_output: 96
    pad: 2
    kernel_size: 5
    weight_filler {
      type: "xavier"
      std: 0.03
    }
    bias_filler {
      type: "constant"
      value: 0.2
    }
  }
}
layer {
  name: "inception_3b/relu_5x5"
  type: "ReLU"
  bottom: "inception_3b/5x5"
  top: "inception_3b/5x5"
}
layer {
  name: "inception_3b/pool"
  type: "Pooling"
  bottom: "inception_3a/output"
  top: "inception_3b/pool"
  pooling_param {
    pool: MAX
    kernel_size: 3
    stride: 1
    pad: 1
  }
}
layer {
  name: "inception_3b/pool_proj"
  type: "Convolution"
  bottom: "inception_3b/pool"
  top: "inception_3b/pool_proj"
  param {
    lr_mult: 1
    decay_mult: 1
  }
  param {
    lr_mult: 2
    decay_mult: 0
  }
  convolution_param {
    num_output: 64
    kernel_size: 1
    weight_filler {
      type: "xavier"
      std: 0.1
    }
    bias_filler {
      type: "constant"
      value: 0.2
    }
  }
}
layer {
  name: "inception_3b/relu_pool_proj"
  type: "ReLU"
  bottom: "inception_3b/pool_proj"
  top: "inception_3b/pool_proj"
}
layer {
  name: "inception_3b/output"
  type: "Concat"
  bottom: "inception_3b/1x1"
  bottom: "inception_3b/3x3"
  bottom: "inception_3b/5x5"
  bottom: "inception_3b/pool_proj"
  top: "inception_3b/output"
}
layer {
  name: "pool3/3x3_s2"
  type: "Pooling"
  bottom: "inception_3b/output"
  top: "pool3/3x3_s2"
  pooling_param {
    pool: MAX
    kernel_size: 3
    stride: 2
  }
}
layer {
  name: "inception_4a/1x1"
  type: "Convolution"
  bottom: "pool3/3x3_s2"
  top: "inception_4a/1x1"
  param {
    lr_mult: 1
    decay_mult: 1
  }
  param {
    lr_mult: 2
    decay_mult: 0
  }
  convolution_param {
    num_output: 192
    kernel_size: 1
    weight_filler {
      type: "xavier"
      std: 0.03
    }
    bias_filler {
      type: "constant"
      value: 0.2
    }
  }
}
layer {
  name: "inception_4a/relu_1x1"
  type: "ReLU"
  bottom: "inception_4a/1x1"
  top: "inception_4a/1x1"
}
layer {
  name: "inception_4a/3x3_reduce"
  type: "Convolution"
  bottom: "pool3/3x3_s2"
  top: "inception_4a/3x3_reduce"
  param {
    lr_mult: 1
    decay_mult: 1
  }
  param {
    lr_mult: 2
    decay_mult: 0
  }
  convolution_param {
    num_output: 96
    kernel_size: 1
    weight_filler {
      type: "xavier"
      std: 0.09
    }
    bias_filler {
      type: "constant"
      value: 0.2
    }
  }
}
layer {
  name: "inception_4a/relu_3x3_reduce"
  type: "ReLU"
  bottom: "inception_4a/3x3_reduce"
  top: "inception_4a/3x3_reduce"
}
layer {
  name: "inception_4a/3x3"
  type: "Convolution"
  bottom: "inception_4a/3x3_reduce"
  top: "inception_4a/3x3"
  param {
    lr_mult: 1
    decay_mult: 1
  }
  param {
    lr_mult: 2
    decay_mult: 0
  }
  convolution_param {
    num_output: 208
    pad: 1
    kernel_size: 3
    weight_filler {
      type: "xavier"
      std: 0.03
    }
    bias_filler {
      type: "constant"
      value: 0.2
    }
  }
}
layer {
  name: "inception_4a/relu_3x3"
  type: "ReLU"
  bottom: "inception_4a/3x3"
  top: "inception_4a/3x3"
}
layer {
  name: "inception_4a/5x5_reduce"
  type: "Convolution"
  bottom: "pool3/3x3_s2"
  top: "inception_4a/5x5_reduce"
  param {
    lr_mult: 1
    decay_mult: 1
  }
  param {
    lr_mult: 2
    decay_mult: 0
  }
  convolution_param {
    num_output: 16
    kernel_size: 1
    weight_filler {
      type: "xavier"
      std: 0.2
    }
    bias_filler {
      type: "constant"
      value: 0.2
    }
  }
}
layer {
  name: "inception_4a/relu_5x5_reduce"
  type: "ReLU"
  bottom: "inception_4a/5x5_reduce"
  top: "inception_4a/5x5_reduce"
}
layer {
  name: "inception_4a/5x5"
  type: "Convolution"
  bottom: "inception_4a/5x5_reduce"
  top: "inception_4a/5x5"
  param {
    lr_mult: 1
    decay_mult: 1
  }
  param {
    lr_mult: 2
    decay_mult: 0
  }
  convolution_param {
    num_output: 48
    pad: 2
    kernel_size: 5
    weight_filler {
      type: "xavier"
      std: 0.03
    }
    bias_filler {
      type: "constant"
      value: 0.2
    }
  }
}
layer {
  name: "inception_4a/relu_5x5"
  type: "ReLU"
  bottom: "inception_4a/5x5"
  top: "inception_4a/5x5"
}
layer {
  name: "inception_4a/pool"
  type: "Pooling"
  bottom: "pool3/3x3_s2"
  top: "inception_4a/pool"
  pooling_param {
    pool: MAX
    kernel_size: 3
    stride: 1
    pad: 1
  }
}
layer {
  name: "inception_4a/pool_proj"
  type: "Convolution"
  bottom: "inception_4a/pool"
  top: "inception_4a/pool_proj"
  param {
    lr_mult: 1
    decay_mult: 1
  }
  param {
    lr_mult: 2
    decay_mult: 0
  }
  convolution_param {
    num_output: 64
    kernel_size: 1
    weight_filler {
      type: "xavier"
      std: 0.1
    }
    bias_filler {
      type: "constant"
      value: 0.2
    }
  }
}
layer {
  name: "inception_4a/relu_pool_proj"
  type: "ReLU"
  bottom: "inception_4a/pool_proj"
  top: "inception_4a/pool_proj"
}
layer {
  name: "inception_4a/output"
  type: "Concat"
  bottom: "inception_4a/1x1"
  bottom: "inception_4a/3x3"
  bottom: "inception_4a/5x5"
  bottom: "inception_4a/pool_proj"
  top: "inception_4a/output"
}
layer {
  name: "loss1/ave_pool"
  type: "Pooling"
  bottom: "inception_4a/output"
  top: "loss1/ave_pool"
  pooling_param {
    pool: AVE
    kernel_size: 5
    stride: 3
  }
}
layer {
  name: "loss1/conv"
  type: "Convolution"
  bottom: "loss1/ave_pool"
  top: "loss1/conv"
  param {
    lr_mult: 1
    decay_mult: 1
  }
  param {
    lr_mult: 2
    decay_mult: 0
  }
  convolution_param {
    num_output: 128
    kernel_size: 1
    weight_filler {
      type: "xavier"
      std: 0.08
    }
    bias_filler {
      type: "constant"
      value: 0.2
    }
  }
}
layer {
  name: "loss1/relu_conv"
  type: "ReLU"
  bottom: "loss1/conv"
  top: "loss1/conv"
}
layer {
  name: "loss1/fc"
  type: "InnerProduct"
  bottom: "loss1/conv"
  top: "loss1/fc"
  param {
    lr_mult: 1
    decay_mult: 1
  }
  param {
    lr_mult: 2
    decay_mult: 0
  }
  inner_product_param {
    num_output: 1024
    weight_filler {
      type: "xavier"
      std: 0.02
    }
    bias_filler {
      type: "constant"
      value: 0.2
    }
  }
}
layer {
  name: "loss1/relu_fc"
  type: "ReLU"
  bottom: "loss1/fc"
  top: "loss1/fc"
}
layer {
  name: "loss1/drop_fc"
  type: "Dropout"
  bottom: "loss1/fc"
  top: "loss1/fc"
  dropout_param {
    dropout_ratio: 0.7
  }
}
layer {
  name: "loss1/classifier_plantvillage"
  type: "InnerProduct"
  bottom: "loss1/fc"
  top: "loss1/classifier_plantvillage"
  param {
    lr_mult: 1
    decay_mult: 1
  }
  param {
    lr_mult: 2
    decay_mult: 0
  }
  inner_product_param {
    num_output: 38
    weight_filler {
      type: "xavier"
      std: 0.0009765625
    }
    bias_filler {
      type: "constant"
      value: 0
    }
  }
}
layer {
  name: "inception_4b/1x1"
  type: "Convolution"
  bottom: "inception_4a/output"
  top: "inception_4b/1x1"
  param {
    lr_mult: 1
    decay_mult: 1
  }
  param {
    lr_mult: 2
    decay_mult: 0
  }
  convolution_param {
    num_output: 160
    kernel_size: 1
    weight_filler {
      type: "xavier"
      std: 0.03
    }
    bias_filler {
      type: "constant"
      value: 0.2
    }
  }
}
layer {
  name: "inception_4b/relu_1x1"
  type: "ReLU"
  bottom: "inception_4b/1x1"
  top: "inception_4b/1x1"
}
layer {
  name: "inception_4b/3x3_reduce"
  type: "Convolution"
  bottom: "inception_4a/output"
  top: "inception_4b/3x3_reduce"
  param {
    lr_mult: 1
    decay_mult: 1
  }
  param {
    lr_mult: 2
    decay_mult: 0
  }
  convolution_param {
    num_output: 112
    kernel_size: 1
    weight_filler {
      type: "xavier"
      std: 0.09
    }
    bias_filler {
      type: "constant"
      value: 0.2
    }
  }
}
layer {
  name: "inception_4b/relu_3x3_reduce"
  type: "ReLU"
  bottom: "inception_4b/3x3_reduce"
  top: "inception_4b/3x3_reduce"
}
layer {
  name: "inception_4b/3x3"
  type: "Convolution"
  bottom: "inception_4b/3x3_reduce"
  top: "inception_4b/3x3"
  param {
    lr_mult: 1
    decay_mult: 1
  }
  param {
    lr_mult: 2
    decay_mult: 0
  }
  convolution_param {
    num_output: 224
    pad: 1
    kernel_size: 3
    weight_filler {
      type: "xavier"
      std: 0.03
    }
    bias_filler {
      type: "constant"
      value: 0.2
    }
  }
}
layer {
  name: "inception_4b/relu_3x3"
  type: "ReLU"
  bottom: "inception_4b/3x3"
  top: "inception_4b/3x3"
}
layer {
  name: "inception_4b/5x5_reduce"
  type: "Convolution"
  bottom: "inception_4a/output"
  top: "inception_4b/5x5_reduce"
  param {
    lr_mult: 1
    decay_mult: 1
  }
  param {
    lr_mult: 2
    decay_mult: 0
  }
  convolution_param {
    num_output: 24
    kernel_size: 1
    weight_filler {
      type: "xavier"
      std: 0.2
    }
    bias_filler {
      type: "constant"
      value: 0.2
    }
  }
}
layer {
  name: "inception_4b/relu_5x5_reduce"
  type: "ReLU"
  bottom: "inception_4b/5x5_reduce"
  top: "inception_4b/5x5_reduce"
}
layer {
  name: "inception_4b/5x5"
  type: "Convolution"
  bottom: "inception_4b/5x5_reduce"
  top: "inception_4b/5x5"
  param {
    lr_mult: 1
    decay_mult: 1
  }
  param {
    lr_mult: 2
    decay_mult: 0
  }
  convolution_param {
    num_output: 64
    pad: 2
    kernel_size: 5
    weight_filler {
      type: "xavier"
      std: 0.03
    }
    bias_filler {
      type: "constant"
      value: 0.2
    }
  }
}
layer {
  name: "inception_4b/relu_5x5"
  type: "ReLU"
  bottom: "inception_4b/5x5"
  top: "inception_4b/5x5"
}
layer {
  name: "inception_4b/pool"
  type: "Pooling"
  bottom: "inception_4a/output"
  top: "inception_4b/pool"
  pooling_param {
    pool: MAX
    kernel_size: 3
    stride: 1
    pad: 1
  }
}
layer {
  name: "inception_4b/pool_proj"
  type: "Convolution"
  bottom: "inception_4b/pool"
  top: "inception_4b/pool_proj"
  param {
    lr_mult: 1
    decay_mult: 1
  }
  param {
    lr_mult: 2
    decay_mult: 0
  }
  convolution_param {
    num_output: 64
    kernel_size: 1
    weight_filler {
      type: "xavier"
      std: 0.1
    }
    bias_filler {
      type: "constant"
      value: 0.2
    }
  }
}
layer {
  name: "inception_4b/relu_pool_proj"
  type: "ReLU"
  bottom: "inception_4b/pool_proj"
  top: "inception_4b/pool_proj"
}
layer {
  name: "inception_4b/output"
  type: "Concat"
  bottom: "inception_4b/1x1"
  bottom: "inception_4b/3x3"
  bottom: "inception_4b/5x5"
  bottom: "inception_4b/pool_proj"
  top: "inception_4b/output"
}
layer {
  name: "inception_4c/1x1"
  type: "Convolution"
  bottom: "inception_4b/output"
  top: "inception_4c/1x1"
  param {
    lr_mult: 1
    decay_mult: 1
  }
  param {
    lr_mult: 2
    decay_mult: 0
  }
  convolution_param {
    num_output: 128
    kernel_size: 1
    weight_filler {
      type: "xavier"
      std: 0.03
    }
    bias_filler {
      type: "constant"
      value: 0.2
    }
  }
}
layer {
  name: "inception_4c/relu_1x1"
  type: "ReLU"
  bottom: "inception_4c/1x1"
  top: "inception_4c/1x1"
}
layer {
  name: "inception_4c/3x3_reduce"
  type: "Convolution"
  bottom: "inception_4b/output"
  top: "inception_4c/3x3_reduce"
  param {
    lr_mult: 1
    decay_mult: 1
  }
  param {
    lr_mult: 2
    decay_mult: 0
  }
  convolution_param {
    num_output: 128
    kernel_size: 1
    weight_filler {
      type: "xavier"
      std: 0.09
    }
    bias_filler {
      type: "constant"
      value: 0.2
    }
  }
}
layer {
  name: "inception_4c/relu_3x3_reduce"
  type: "ReLU"
  bottom: "inception_4c/3x3_reduce"
  top: "inception_4c/3x3_reduce"
}
layer {
  name: "inception_4c/3x3"
  type: "Convolution"
  bottom: "inception_4c/3x3_reduce"
  top: "inception_4c/3x3"
  param {
    lr_mult: 1
    decay_mult: 1
  }
  param {
    lr_mult: 2
    decay_mult: 0
  }
  convolution_param {
    num_output: 256
    pad: 1
    kernel_size: 3
    weight_filler {
      type: "xavier"
      std: 0.03
    }
    bias_filler {
      type: "constant"
      value: 0.2
    }
  }
}
layer {
  name: "inception_4c/relu_3x3"
  type: "ReLU"
  bottom: "inception_4c/3x3"
  top: "inception_4c/3x3"
}
layer {
  name: "inception_4c/5x5_reduce"
  type: "Convolution"
  bottom: "inception_4b/output"
  top: "inception_4c/5x5_reduce"
  param {
    lr_mult: 1
    decay_mult: 1
  }
  param {
    lr_mult: 2
    decay_mult: 0
  }
  convolution_param {
    num_output: 24
    kernel_size: 1
    weight_filler {
      type: "xavier"
      std: 0.2
    }
    bias_filler {
      type: "constant"
      value: 0.2
    }
  }
}
layer {
  name: "inception_4c/relu_5x5_reduce"
  type: "ReLU"
  bottom: "inception_4c/5x5_reduce"
  top: "inception_4c/5x5_reduce"
}
layer {
  name: "inception_4c/5x5"
  type: "Convolution"
  bottom: "inception_4c/5x5_reduce"
  top: "inception_4c/5x5"
  param {
    lr_mult: 1
    decay_mult: 1
  }
  param {
    lr_mult: 2
    decay_mult: 0
  }
  convolution_param {
    num_output: 64
    pad: 2
    kernel_size: 5
    weight_filler {
      type: "xavier"
      std: 0.03
    }
    bias_filler {
      type: "constant"
      value: 0.2
    }
  }
}
layer {
  name: "inception_4c/relu_5x5"
  type: "ReLU"
  bottom: "inception_4c/5x5"
  top: "inception_4c/5x5"
}
layer {
  name: "inception_4c/pool"
  type: "Pooling"
  bottom: "inception_4b/output"
  top: "inception_4c/pool"
  pooling_param {
    pool: MAX
    kernel_size: 3
    stride: 1
    pad: 1
  }
}
layer {
  name: "inception_4c/pool_proj"
  type: "Convolution"
  bottom: "inception_4c/pool"
  top: "inception_4c/pool_proj"
  param {
    lr_mult: 1
    decay_mult: 1
  }
  param {
    lr_mult: 2
    decay_mult: 0
  }
  convolution_param {
    num_output: 64
    kernel_size: 1
    weight_filler {
      type: "xavier"
      std: 0.1
    }
    bias_filler {
      type: "constant"
      value: 0.2
    }
  }
}
layer {
  name: "inception_4c/relu_pool_proj"
  type: "ReLU"
  bottom: "inception_4c/pool_proj"
  top: "inception_4c/pool_proj"
}
layer {
  name: "inception_4c/output"
  type: "Concat"
  bottom: "inception_4c/1x1"
  bottom: "inception_4c/3x3"
  bottom: "inception_4c/5x5"
  bottom: "inception_4c/pool_proj"
  top: "inception_4c/output"
}
layer {
  name: "inception_4d/1x1"
  type: "Convolution"
  bottom: "inception_4c/output"
  top: "inception_4d/1x1"
  param {
    lr_mult: 1
    decay_mult: 1
  }
  param {
    lr_mult: 2
    decay_mult: 0
  }
  convolution_param {
    num_output: 112
    kernel_size: 1
    weight_filler {
      type: "xavier"
      std: 0.03
    }
    bias_filler {
      type: "constant"
      value: 0.2
    }
  }
}
layer {
  name: "inception_4d/relu_1x1"
  type: "ReLU"
  bottom: "inception_4d/1x1"
  top: "inception_4d/1x1"
}
layer {
  name: "inception_4d/3x3_reduce"
  type: "Convolution"
  bottom: "inception_4c/output"
  top: "inception_4d/3x3_reduce"
  param {
    lr_mult: 1
    decay_mult: 1
  }
  param {
    lr_mult: 2
    decay_mult: 0
  }
  convolution_param {
    num_output: 144
    kernel_size: 1
    weight_filler {
      type: "xavier"
      std: 0.09
    }
    bias_filler {
      type: "constant"
      value: 0.2
    }
  }
}
layer {
  name: "inception_4d/relu_3x3_reduce"
  type: "ReLU"
  bottom: "inception_4d/3x3_reduce"
  top: "inception_4d/3x3_reduce"
}
layer {
  name: "inception_4d/3x3"
  type: "Convolution"
  bottom: "inception_4d/3x3_reduce"
  top: "inception_4d/3x3"
  param {
    lr_mult: 1
    decay_mult: 1
  }
  param {
    lr_mult: 2
    decay_mult: 0
  }
  convolution_param {
    num_output: 288
    pad: 1
    kernel_size: 3
    weight_filler {
      type: "xavier"
      std: 0.03
    }
    bias_filler {
      type: "constant"
      value: 0.2
    }
  }
}
layer {
  name: "inception_4d/relu_3x3"
  type: "ReLU"
  bottom: "inception_4d/3x3"
  top: "inception_4d/3x3"
}
layer {
  name: "inception_4d/5x5_reduce"
  type: "Convolution"
  bottom: "inception_4c/output"
  top: "inception_4d/5x5_reduce"
  param {
    lr_mult: 1
    decay_mult: 1
  }
  param {
    lr_mult: 2
    decay_mult: 0
  }
  convolution_param {
    num_output: 32
    kernel_size: 1
    weight_filler {
      type: "xavier"
      std: 0.2
    }
    bias_filler {
      type: "constant"
      value: 0.2
    }
  }
}
layer {
  name: "inception_4d/relu_5x5_reduce"
  type: "ReLU"
  bottom: "inception_4d/5x5_reduce"
  top: "inception_4d/5x5_reduce"
}
layer {
  name: "inception_4d/5x5"
  type: "Convolution"
  bottom: "inception_4d/5x5_reduce"
  top: "inception_4d/5x5"
  param {
    lr_mult: 1
    decay_mult: 1
  }
  param {
    lr_mult: 2
    decay_mult: 0
  }
  convolution_param {
    num_output: 64
    pad: 2
    kernel_size: 5
    weight_filler {
      type: "xavier"
      std: 0.03
    }
    bias_filler {
      type: "constant"
      value: 0.2
    }
  }
}
layer {
  name: "inception_4d/relu_5x5"
  type: "ReLU"
  bottom: "inception_4d/5x5"
  top: "inception_4d/5x5"
}
layer {
  name: "inception_4d/pool"
  type: "Pooling"
  bottom: "inception_4c/output"
  top: "inception_4d/pool"
  pooling_param {
    pool: MAX
    kernel_size: 3
    stride: 1
    pad: 1
  }
}
layer {
  name: "inception_4d/pool_proj"
  type: "Convolution"
  bottom: "inception_4d/pool"
  top: "inception_4d/pool_proj"
  param {
    lr_mult: 1
    decay_mult: 1
  }
  param {
    lr_mult: 2
    decay_mult: 0
  }
  convolution_param {
    num_output: 64
    kernel_size: 1
    weight_filler {
      type: "xavier"
      std: 0.1
    }
    bias_filler {
      type: "constant"
      value: 0.2
    }
  }
}
layer {
  name: "inception_4d/relu_pool_proj"
  type: "ReLU"
  bottom: "inception_4d/pool_proj"
  top: "inception_4d/pool_proj"
}
layer {
  name: "inception_4d/output"
  type: "Concat"
  bottom: "inception_4d/1x1"
  bottom: "inception_4d/3x3"
  bottom: "inception_4d/5x5"
  bottom: "inception_4d/pool_proj"
  top: "inception_4d/output"
}
layer {
  name: "loss2/ave_pool"
  type: "Pooling"
  bottom: "inception_4d/output"
  top: "loss2/ave_pool"
  pooling_param {
    pool: AVE
    kernel_size: 5
    stride: 3
  }
}
layer {
  name: "loss2/conv"
  type: "Convolution"
  bottom: "loss2/ave_pool"
  top: "loss2/conv"
  param {
    lr_mult: 1
    decay_mult: 1
  }
  param {
    lr_mult: 2
    decay_mult: 0
  }
  convolution_param {
    num_output: 128
    kernel_size: 1
    weight_filler {
      type: "xavier"
      std: 0.08
    }
    bias_filler {
      type: "constant"
      value: 0.2
    }
  }
}
layer {
  name: "loss2/relu_conv"
  type: "ReLU"
  bottom: "loss2/conv"
  top: "loss2/conv"
}
layer {
  name: "loss2/fc"
  type: "InnerProduct"
  bottom: "loss2/conv"
  top: "loss2/fc"
  param {
    lr_mult: 1
    decay_mult: 1
  }
  param {
    lr_mult: 2
    decay_mult: 0
  }
  inner_product_param {
    num_output: 1024
    weight_filler {
      type: "xavier"
      std: 0.02
    }
    bias_filler {
      type: "constant"
      value: 0.2
    }
  }
}
layer {
  name: "loss2/relu_fc"
  type: "ReLU"
  bottom: "loss2/fc"
  top: "loss2/fc"
}
layer {
  name: "loss2/drop_fc"
  type: "Dropout"
  bottom: "loss2/fc"
  top: "loss2/fc"
  dropout_param {
    dropout_ratio: 0.7
  }
}
layer {
  name: "loss2/classifier_plantvillage"
  type: "InnerProduct"
  bottom: "loss2/fc"
  top: "loss2/classifier_plantvillage"
  param {
    lr_mult: 1
    decay_mult: 1
  }
  param {
    lr_mult: 2
    decay_mult: 0
  }
  inner_product_param {
    num_output: 38
    weight_filler {
      type: "xavier"
      std: 0.0009765625
    }
    bias_filler {
      type: "constant"
      value: 0
    }
  }
}
layer {
  name: "inception_4e/1x1"
  type: "Convolution"
  bottom: "inception_4d/output"
  top: "inception_4e/1x1"
  param {
    lr_mult: 1
    decay_mult: 1
  }
  param {
    lr_mult: 2
    decay_mult: 0
  }
  convolution_param {
    num_output: 256
    kernel_size: 1
    weight_filler {
      type: "xavier"
      std: 0.03
    }
    bias_filler {
      type: "constant"
      value: 0.2
    }
  }
}
layer {
  name: "inception_4e/relu_1x1"
  type: "ReLU"
  bottom: "inception_4e/1x1"
  top: "inception_4e/1x1"
}
layer {
  name: "inception_4e/3x3_reduce"
  type: "Convolution"
  bottom: "inception_4d/output"
  top: "inception_4e/3x3_reduce"
  param {
    lr_mult: 1
    decay_mult: 1
  }
  param {
    lr_mult: 2
    decay_mult: 0
  }
  convolution_param {
    num_output: 160
    kernel_size: 1
    weight_filler {
      type: "xavier"
      std: 0.09
    }
    bias_filler {
      type: "constant"
      value: 0.2
    }
  }
}
layer {
  name: "inception_4e/relu_3x3_reduce"
  type: "ReLU"
  bottom: "inception_4e/3x3_reduce"
  top: "inception_4e/3x3_reduce"
}
layer {
  name: "inception_4e/3x3"
  type: "Convolution"
  bottom: "inception_4e/3x3_reduce"
  top: "inception_4e/3x3"
  param {
    lr_mult: 1
    decay_mult: 1
  }
  param {
    lr_mult: 2
    decay_mult: 0
  }
  convolution_param {
    num_output: 320
    pad: 1
    kernel_size: 3
    weight_filler {
      type: "xavier"
      std: 0.03
    }
    bias_filler {
      type: "constant"
      value: 0.2
    }
  }
}
layer {
  name: "inception_4e/relu_3x3"
  type: "ReLU"
  bottom: "inception_4e/3x3"
  top: "inception_4e/3x3"
}
layer {
  name: "inception_4e/5x5_reduce"
  type: "Convolution"
  bottom: "inception_4d/output"
  top: "inception_4e/5x5_reduce"
  param {
    lr_mult: 1
    decay_mult: 1
  }
  param {
    lr_mult: 2
    decay_mult: 0
  }
  convolution_param {
    num_output: 32
    kernel_size: 1
    weight_filler {
      type: "xavier"
      std: 0.2
    }
    bias_filler {
      type: "constant"
      value: 0.2
    }
  }
}
layer {
  name: "inception_4e/relu_5x5_reduce"
  type: "ReLU"
  bottom: "inception_4e/5x5_reduce"
  top: "inception_4e/5x5_reduce"
}
layer {
  name: "inception_4e/5x5"
  type: "Convolution"
  bottom: "inception_4e/5x5_reduce"
  top: "inception_4e/
I0403 15:24:05.346359  3039 layer_factory.hpp:77] Creating layer data
I0403 15:24:05.346994  3039 net.cpp:91] Creating Layer data
I0403 15:24:05.347028  3039 net.cpp:399] data -> data
I0403 15:24:05.347080  3039 net.cpp:399] data -> label
I0403 15:24:05.347116  3039 data_transformer.cpp:25] Loading mean file from: /home/mohanty/data/final_dataset/lmdb/segmented-60-40/mean.binaryproto
I0403 15:24:05.349647  3042 db_lmdb.cpp:38] Opened lmdb /home/mohanty/data/final_dataset/lmdb/segmented-60-40/test_db
I0403 15:24:05.360283  3039 data_layer.cpp:41] output data size: 24,3,224,224
I0403 15:24:05.388774  3039 net.cpp:141] Setting up data
I0403 15:24:05.388861  3039 net.cpp:148] Top shape: 24 3 224 224 (3612672)
I0403 15:24:05.388885  3039 net.cpp:148] Top shape: 24 (24)
I0403 15:24:05.388900  3039 net.cpp:156] Memory required for data: 14450784
I0403 15:24:05.388927  3039 layer_factory.hpp:77] Creating layer label_data_1_split
I0403 15:24:05.388954  3039 net.cpp:91] Creating Layer label_data_1_split
I0403 15:24:05.388972  3039 net.cpp:425] label_data_1_split <- label
I0403 15:24:05.389005  3039 net.cpp:399] label_data_1_split -> label_data_1_split_0
I0403 15:24:05.389034  3039 net.cpp:399] label_data_1_split -> label_data_1_split_1
I0403 15:24:05.389055  3039 net.cpp:399] label_data_1_split -> label_data_1_split_2
I0403 15:24:05.389077  3039 net.cpp:399] label_data_1_split -> label_data_1_split_3
I0403 15:24:05.389097  3039 net.cpp:399] label_data_1_split -> label_data_1_split_4
I0403 15:24:05.389118  3039 net.cpp:399] label_data_1_split -> label_data_1_split_5
I0403 15:24:05.389139  3039 net.cpp:399] label_data_1_split -> label_data_1_split_6
I0403 15:24:05.389161  3039 net.cpp:399] label_data_1_split -> label_data_1_split_7
I0403 15:24:05.389183  3039 net.cpp:399] label_data_1_split -> label_data_1_split_8
I0403 15:24:05.389204  3039 net.cpp:399] label_data_1_split -> label_data_1_split_9
I0403 15:24:05.389343  3039 net.cpp:141] Setting up label_data_1_split
I0403 15:24:05.389367  3039 net.cpp:148] Top shape: 24 (24)
I0403 15:24:05.389386  3039 net.cpp:148] Top shape: 24 (24)
I0403 15:24:05.389403  3039 net.cpp:148] Top shape: 24 (24)
I0403 15:24:05.389420  3039 net.cpp:148] Top shape: 24 (24)
I0403 15:24:05.389437  3039 net.cpp:148] Top shape: 24 (24)
I0403 15:24:05.389453  3039 net.cpp:148] Top shape: 24 (24)
I0403 15:24:05.389470  3039 net.cpp:148] Top shape: 24 (24)
I0403 15:24:05.389487  3039 net.cpp:148] Top shape: 24 (24)
I0403 15:24:05.389503  3039 net.cpp:148] Top shape: 24 (24)
I0403 15:24:05.389521  3039 net.cpp:148] Top shape: 24 (24)
I0403 15:24:05.389560  3039 net.cpp:156] Memory required for data: 14451744
I0403 15:24:05.389576  3039 layer_factory.hpp:77] Creating layer conv1/7x7_s2
I0403 15:24:05.389610  3039 net.cpp:91] Creating Layer conv1/7x7_s2
I0403 15:24:05.389628  3039 net.cpp:425] conv1/7x7_s2 <- data
I0403 15:24:05.389649  3039 net.cpp:399] conv1/7x7_s2 -> conv1/7x7_s2
I0403 15:24:05.533728  3039 net.cpp:141] Setting up conv1/7x7_s2
I0403 15:24:05.533854  3039 net.cpp:148] Top shape: 24 64 112 112 (19267584)
I0403 15:24:05.533874  3039 net.cpp:156] Memory required for data: 91522080
I0403 15:24:05.533905  3039 layer_factory.hpp:77] Creating layer conv1/relu_7x7
I0403 15:24:05.533933  3039 net.cpp:91] Creating Layer conv1/relu_7x7
I0403 15:24:05.533951  3039 net.cpp:425] conv1/relu_7x7 <- conv1/7x7_s2
I0403 15:24:05.533970  3039 net.cpp:386] conv1/relu_7x7 -> conv1/7x7_s2 (in-place)
I0403 15:24:05.534229  3039 net.cpp:141] Setting up conv1/relu_7x7
I0403 15:24:05.534256  3039 net.cpp:148] Top shape: 24 64 112 112 (19267584)
I0403 15:24:05.534271  3039 net.cpp:156] Memory required for data: 168592416
I0403 15:24:05.534287  3039 layer_factory.hpp:77] Creating layer pool1/3x3_s2
I0403 15:24:05.534313  3039 net.cpp:91] Creating Layer pool1/3x3_s2
I0403 15:24:05.534330  3039 net.cpp:425] pool1/3x3_s2 <- conv1/7x7_s2
I0403 15:24:05.534349  3039 net.cpp:399] pool1/3x3_s2 -> pool1/3x3_s2
I0403 15:24:05.534420  3039 net.cpp:141] Setting up pool1/3x3_s2
I0403 15:24:05.534446  3039 net.cpp:148] Top shape: 24 64 56 56 (4816896)
I0403 15:24:05.534461  3039 net.cpp:156] Memory required for data: 187860000
I0403 15:24:05.534476  3039 layer_factory.hpp:77] Creating layer pool1/norm1
I0403 15:24:05.534499  3039 net.cpp:91] Creating Layer pool1/norm1
I0403 15:24:05.534517  3039 net.cpp:425] pool1/norm1 <- pool1/3x3_s2
I0403 15:24:05.534533  3039 net.cpp:399] pool1/norm1 -> pool1/norm1
I0403 15:24:05.534812  3039 net.cpp:141] Setting up pool1/norm1
I0403 15:24:05.534839  3039 net.cpp:148] Top shape: 24 64 56 56 (4816896)
I0403 15:24:05.534854  3039 net.cpp:156] Memory required for data: 207127584
I0403 15:24:05.534869  3039 layer_factory.hpp:77] Creating layer conv2/3x3_reduce
I0403 15:24:05.534894  3039 net.cpp:91] Creating Layer conv2/3x3_reduce
I0403 15:24:05.534910  3039 net.cpp:425] conv2/3x3_reduce <- pool1/norm1
I0403 15:24:05.534929  3039 net.cpp:399] conv2/3x3_reduce -> conv2/3x3_reduce
I0403 15:24:05.536285  3039 net.cpp:141] Setting up conv2/3x3_reduce
I0403 15:24:05.536315  3039 net.cpp:148] Top shape: 24 64 56 56 (4816896)
I0403 15:24:05.536331  3039 net.cpp:156] Memory required for data: 226395168
I0403 15:24:05.536356  3039 layer_factory.hpp:77] Creating layer conv2/relu_3x3_reduce
I0403 15:24:05.536376  3039 net.cpp:91] Creating Layer conv2/relu_3x3_reduce
I0403 15:24:05.536393  3039 net.cpp:425] conv2/relu_3x3_reduce <- conv2/3x3_reduce
I0403 15:24:05.536412  3039 net.cpp:386] conv2/relu_3x3_reduce -> conv2/3x3_reduce (in-place)
I0403 15:24:05.536689  3039 net.cpp:141] Setting up conv2/relu_3x3_reduce
I0403 15:24:05.536715  3039 net.cpp:148] Top shape: 24 64 56 56 (4816896)
I0403 15:24:05.536732  3039 net.cpp:156] Memory required for data: 245662752
I0403 15:24:05.536748  3039 layer_factory.hpp:77] Creating layer conv2/3x3
I0403 15:24:05.536774  3039 net.cpp:91] Creating Layer conv2/3x3
I0403 15:24:05.536792  3039 net.cpp:425] conv2/3x3 <- conv2/3x3_reduce
I0403 15:24:05.536813  3039 net.cpp:399] conv2/3x3 -> conv2/3x3
I0403 15:24:05.539188  3039 net.cpp:141] Setting up conv2/3x3
I0403 15:24:05.539225  3039 net.cpp:148] Top shape: 24 192 56 56 (14450688)
I0403 15:24:05.539243  3039 net.cpp:156] Memory required for data: 303465504
I0403 15:24:05.539265  3039 layer_factory.hpp:77] Creating layer conv2/relu_3x3
I0403 15:24:05.539285  3039 net.cpp:91] Creating Layer conv2/relu_3x3
I0403 15:24:05.539302  3039 net.cpp:425] conv2/relu_3x3 <- conv2/3x3
I0403 15:24:05.539320  3039 net.cpp:386] conv2/relu_3x3 -> conv2/3x3 (in-place)
I0403 15:24:05.539501  3039 net.cpp:141] Setting up conv2/relu_3x3
I0403 15:24:05.539526  3039 net.cpp:148] Top shape: 24 192 56 56 (14450688)
I0403 15:24:05.539573  3039 net.cpp:156] Memory required for data: 361268256
I0403 15:24:05.539589  3039 layer_factory.hpp:77] Creating layer conv2/norm2
I0403 15:24:05.539613  3039 net.cpp:91] Creating Layer conv2/norm2
I0403 15:24:05.539628  3039 net.cpp:425] conv2/norm2 <- conv2/3x3
I0403 15:24:05.539647  3039 net.cpp:399] conv2/norm2 -> conv2/norm2
I0403 15:24:05.539958  3039 net.cpp:141] Setting up conv2/norm2
I0403 15:24:05.539986  3039 net.cpp:148] Top shape: 24 192 56 56 (14450688)
I0403 15:24:05.540002  3039 net.cpp:156] Memory required for data: 419071008
I0403 15:24:05.540019  3039 layer_factory.hpp:77] Creating layer pool2/3x3_s2
I0403 15:24:05.540040  3039 net.cpp:91] Creating Layer pool2/3x3_s2
I0403 15:24:05.540056  3039 net.cpp:425] pool2/3x3_s2 <- conv2/norm2
I0403 15:24:05.540074  3039 net.cpp:399] pool2/3x3_s2 -> pool2/3x3_s2
I0403 15:24:05.540132  3039 net.cpp:141] Setting up pool2/3x3_s2
I0403 15:24:05.540155  3039 net.cpp:148] Top shape: 24 192 28 28 (3612672)
I0403 15:24:05.540170  3039 net.cpp:156] Memory required for data: 433521696
I0403 15:24:05.540186  3039 layer_factory.hpp:77] Creating layer pool2/3x3_s2_pool2/3x3_s2_0_split
I0403 15:24:05.540205  3039 net.cpp:91] Creating Layer pool2/3x3_s2_pool2/3x3_s2_0_split
I0403 15:24:05.540225  3039 net.cpp:425] pool2/3x3_s2_pool2/3x3_s2_0_split <- pool2/3x3_s2
I0403 15:24:05.540246  3039 net.cpp:399] pool2/3x3_s2_pool2/3x3_s2_0_split -> pool2/3x3_s2_pool2/3x3_s2_0_split_0
I0403 15:24:05.540268  3039 net.cpp:399] pool2/3x3_s2_pool2/3x3_s2_0_split -> pool2/3x3_s2_pool2/3x3_s2_0_split_1
I0403 15:24:05.540288  3039 net.cpp:399] pool2/3x3_s2_pool2/3x3_s2_0_split -> pool2/3x3_s2_pool2/3x3_s2_0_split_2
I0403 15:24:05.540309  3039 net.cpp:399] pool2/3x3_s2_pool2/3x3_s2_0_split -> pool2/3x3_s2_pool2/3x3_s2_0_split_3
I0403 15:24:05.540382  3039 net.cpp:141] Setting up pool2/3x3_s2_pool2/3x3_s2_0_split
I0403 15:24:05.540408  3039 net.cpp:148] Top shape: 24 192 28 28 (3612672)
I0403 15:24:05.540426  3039 net.cpp:148] Top shape: 24 192 28 28 (3612672)
I0403 15:24:05.540444  3039 net.cpp:148] Top shape: 24 192 28 28 (3612672)
I0403 15:24:05.540462  3039 net.cpp:148] Top shape: 24 192 28 28 (3612672)
I0403 15:24:05.540475  3039 net.cpp:156] Memory required for data: 491324448
I0403 15:24:05.540491  3039 layer_factory.hpp:77] Creating layer inception_3a/1x1
I0403 15:24:05.540514  3039 net.cpp:91] Creating Layer inception_3a/1x1
I0403 15:24:05.540532  3039 net.cpp:425] inception_3a/1x1 <- pool2/3x3_s2_pool2/3x3_s2_0_split_0
I0403 15:24:05.540551  3039 net.cpp:399] inception_3a/1x1 -> inception_3a/1x1
I0403 15:24:05.542152  3039 net.cpp:141] Setting up inception_3a/1x1
I0403 15:24:05.542182  3039 net.cpp:148] Top shape: 24 64 28 28 (1204224)
I0403 15:24:05.542199  3039 net.cpp:156] Memory required for data: 496141344
I0403 15:24:05.542224  3039 layer_factory.hpp:77] Creating layer inception_3a/relu_1x1
I0403 15:24:05.542246  3039 net.cpp:91] Creating Layer inception_3a/relu_1x1
I0403 15:24:05.542263  3039 net.cpp:425] inception_3a/relu_1x1 <- inception_3a/1x1
I0403 15:24:05.542282  3039 net.cpp:386] inception_3a/relu_1x1 -> inception_3a/1x1 (in-place)
I0403 15:24:05.542464  3039 net.cpp:141] Setting up inception_3a/relu_1x1
I0403 15:24:05.542492  3039 net.cpp:148] Top shape: 24 64 28 28 (1204224)
I0403 15:24:05.542508  3039 net.cpp:156] Memory required for data: 500958240
I0403 15:24:05.542523  3039 layer_factory.hpp:77] Creating layer inception_3a/3x3_reduce
I0403 15:24:05.542546  3039 net.cpp:91] Creating Layer inception_3a/3x3_reduce
I0403 15:24:05.542564  3039 net.cpp:425] inception_3a/3x3_reduce <- pool2/3x3_s2_pool2/3x3_s2_0_split_1
I0403 15:24:05.542583  3039 net.cpp:399] inception_3a/3x3_reduce -> inception_3a/3x3_reduce
I0403 15:24:05.544330  3039 net.cpp:141] Setting up inception_3a/3x3_reduce
I0403 15:24:05.544360  3039 net.cpp:148] Top shape: 24 96 28 28 (1806336)
I0403 15:24:05.544378  3039 net.cpp:156] Memory required for data: 508183584
I0403 15:24:05.544402  3039 layer_factory.hpp:77] Creating layer inception_3a/relu_3x3_reduce
I0403 15:24:05.544440  3039 net.cpp:91] Creating Layer inception_3a/relu_3x3_reduce
I0403 15:24:05.544458  3039 net.cpp:425] inception_3a/relu_3x3_reduce <- inception_3a/3x3_reduce
I0403 15:24:05.544479  3039 net.cpp:386] inception_3a/relu_3x3_reduce -> inception_3a/3x3_reduce (in-place)
I0403 15:24:05.544666  3039 net.cpp:141] Setting up inception_3a/relu_3x3_reduce
I0403 15:24:05.544692  3039 net.cpp:148] Top shape: 24 96 28 28 (1806336)
I0403 15:24:05.544708  3039 net.cpp:156] Memory required for data: 515408928
I0403 15:24:05.544723  3039 layer_factory.hpp:77] Creating layer inception_3a/3x3
I0403 15:24:05.544746  3039 net.cpp:91] Creating Layer inception_3a/3x3
I0403 15:24:05.544764  3039 net.cpp:425] inception_3a/3x3 <- inception_3a/3x3_reduce
I0403 15:24:05.544786  3039 net.cpp:399] inception_3a/3x3 -> inception_3a/3x3
I0403 15:24:05.546483  3039 net.cpp:141] Setting up inception_3a/3x3
I0403 15:24:05.546516  3039 net.cpp:148] Top shape: 24 128 28 28 (2408448)
I0403 15:24:05.546535  3039 net.cpp:156] Memory required for data: 525042720
I0403 15:24:05.546555  3039 layer_factory.hpp:77] Creating layer inception_3a/relu_3x3
I0403 15:24:05.546572  3039 net.cpp:91] Creating Layer inception_3a/relu_3x3
I0403 15:24:05.546589  3039 net.cpp:425] inception_3a/relu_3x3 <- inception_3a/3x3
I0403 15:24:05.546609  3039 net.cpp:386] inception_3a/relu_3x3 -> inception_3a/3x3 (in-place)
I0403 15:24:05.546890  3039 net.cpp:141] Setting up inception_3a/relu_3x3
I0403 15:24:05.546918  3039 net.cpp:148] Top shape: 24 128 28 28 (2408448)
I0403 15:24:05.546936  3039 net.cpp:156] Memory required for data: 534676512
I0403 15:24:05.546952  3039 layer_factory.hpp:77] Creating layer inception_3a/5x5_reduce
I0403 15:24:05.546974  3039 net.cpp:91] Creating Layer inception_3a/5x5_reduce
I0403 15:24:05.546993  3039 net.cpp:425] inception_3a/5x5_reduce <- pool2/3x3_s2_pool2/3x3_s2_0_split_2
I0403 15:24:05.547013  3039 net.cpp:399] inception_3a/5x5_reduce -> inception_3a/5x5_reduce
I0403 15:24:05.547996  3039 net.cpp:141] Setting up inception_3a/5x5_reduce
I0403 15:24:05.548027  3039 net.cpp:148] Top shape: 24 16 28 28 (301056)
I0403 15:24:05.548044  3039 net.cpp:156] Memory required for data: 535880736
I0403 15:24:05.548063  3039 layer_factory.hpp:77] Creating layer inception_3a/relu_5x5_reduce
I0403 15:24:05.548082  3039 net.cpp:91] Creating Layer inception_3a/relu_5x5_reduce
I0403 15:24:05.548099  3039 net.cpp:425] inception_3a/relu_5x5_reduce <- inception_3a/5x5_reduce
I0403 15:24:05.548121  3039 net.cpp:386] inception_3a/relu_5x5_reduce -> inception_3a/5x5_reduce (in-place)
I0403 15:24:05.548430  3039 net.cpp:141] Setting up inception_3a/relu_5x5_reduce
I0403 15:24:05.548459  3039 net.cpp:148] Top shape: 24 16 28 28 (301056)
I0403 15:24:05.548473  3039 net.cpp:156] Memory required for data: 537084960
I0403 15:24:05.548490  3039 layer_factory.hpp:77] Creating layer inception_3a/5x5
I0403 15:24:05.548512  3039 net.cpp:91] Creating Layer inception_3a/5x5
I0403 15:24:05.548532  3039 net.cpp:425] inception_3a/5x5 <- inception_3a/5x5_reduce
I0403 15:24:05.548553  3039 net.cpp:399] inception_3a/5x5 -> inception_3a/5x5
I0403 15:24:05.549589  3039 net.cpp:141] Setting up inception_3a/5x5
I0403 15:24:05.549618  3039 net.cpp:148] Top shape: 24 32 28 28 (602112)
I0403 15:24:05.549634  3039 net.cpp:156] Memory required for data: 539493408
I0403 15:24:05.549654  3039 layer_factory.hpp:77] Creating layer inception_3a/relu_5x5
I0403 15:24:05.549677  3039 net.cpp:91] Creating Layer inception_3a/relu_5x5
I0403 15:24:05.549695  3039 net.cpp:425] inception_3a/relu_5x5 <- inception_3a/5x5
I0403 15:24:05.549715  3039 net.cpp:386] inception_3a/relu_5x5 -> inception_3a/5x5 (in-place)
I0403 15:24:05.549895  3039 net.cpp:141] Setting up inception_3a/relu_5x5
I0403 15:24:05.549919  3039 net.cpp:148] Top shape: 24 32 28 28 (602112)
I0403 15:24:05.549935  3039 net.cpp:156] Memory required for data: 541901856
I0403 15:24:05.549952  3039 layer_factory.hpp:77] Creating layer inception_3a/pool
I0403 15:24:05.549969  3039 net.cpp:91] Creating Layer inception_3a/pool
I0403 15:24:05.550000  3039 net.cpp:425] inception_3a/pool <- pool2/3x3_s2_pool2/3x3_s2_0_split_3
I0403 15:24:05.550022  3039 net.cpp:399] inception_3a/pool -> inception_3a/pool
I0403 15:24:05.550081  3039 net.cpp:141] Setting up inception_3a/pool
I0403 15:24:05.550106  3039 net.cpp:148] Top shape: 24 192 28 28 (3612672)
I0403 15:24:05.550120  3039 net.cpp:156] Memory required for data: 556352544
I0403 15:24:05.550137  3039 layer_factory.hpp:77] Creating layer inception_3a/pool_proj
I0403 15:24:05.550163  3039 net.cpp:91] Creating Layer inception_3a/pool_proj
I0403 15:24:05.550180  3039 net.cpp:425] inception_3a/pool_proj <- inception_3a/pool
I0403 15:24:05.550200  3039 net.cpp:399] inception_3a/pool_proj -> inception_3a/pool_proj
I0403 15:24:05.551187  3039 net.cpp:141] Setting up inception_3a/pool_proj
I0403 15:24:05.551218  3039 net.cpp:148] Top shape: 24 32 28 28 (602112)
I0403 15:24:05.551235  3039 net.cpp:156] Memory required for data: 558760992
I0403 15:24:05.551261  3039 layer_factory.hpp:77] Creating layer inception_3a/relu_pool_proj
I0403 15:24:05.551281  3039 net.cpp:91] Creating Layer inception_3a/relu_pool_proj
I0403 15:24:05.551298  3039 net.cpp:425] inception_3a/relu_pool_proj <- inception_3a/pool_proj
I0403 15:24:05.551318  3039 net.cpp:386] inception_3a/relu_pool_proj -> inception_3a/pool_proj (in-place)
I0403 15:24:05.551602  3039 net.cpp:141] Setting up inception_3a/relu_pool_proj
I0403 15:24:05.551631  3039 net.cpp:148] Top shape: 24 32 28 28 (602112)
I0403 15:24:05.551648  3039 net.cpp:156] Memory required for data: 561169440
I0403 15:24:05.551663  3039 layer_factory.hpp:77] Creating layer inception_3a/output
I0403 15:24:05.551682  3039 net.cpp:91] Creating Layer inception_3a/output
I0403 15:24:05.551698  3039 net.cpp:425] inception_3a/output <- inception_3a/1x1
I0403 15:24:05.551715  3039 net.cpp:425] inception_3a/output <- inception_3a/3x3
I0403 15:24:05.551731  3039 net.cpp:425] inception_3a/output <- inception_3a/5x5
I0403 15:24:05.551748  3039 net.cpp:425] inception_3a/output <- inception_3a/pool_proj
I0403 15:24:05.551765  3039 net.cpp:399] inception_3a/output -> inception_3a/output
I0403 15:24:05.551813  3039 net.cpp:141] Setting up inception_3a/output
I0403 15:24:05.551836  3039 net.cpp:148] Top shape: 24 256 28 28 (4816896)
I0403 15:24:05.551852  3039 net.cpp:156] Memory required for data: 580437024
I0403 15:24:05.551867  3039 layer_factory.hpp:77] Creating layer inception_3a/output_inception_3a/output_0_split
I0403 15:24:05.551884  3039 net.cpp:91] Creating Layer inception_3a/output_inception_3a/output_0_split
I0403 15:24:05.551900  3039 net.cpp:425] inception_3a/output_inception_3a/output_0_split <- inception_3a/output
I0403 15:24:05.551921  3039 net.cpp:399] inception_3a/output_inception_3a/output_0_split -> inception_3a/output_inception_3a/output_0_split_0
I0403 15:24:05.551944  3039 net.cpp:399] inception_3a/output_inception_3a/output_0_split -> inception_3a/output_inception_3a/output_0_split_1
I0403 15:24:05.551969  3039 net.cpp:399] inception_3a/output_inception_3a/output_0_split -> inception_3a/output_inception_3a/output_0_split_2
I0403 15:24:05.551991  3039 net.cpp:399] inception_3a/output_inception_3a/output_0_split -> inception_3a/output_inception_3a/output_0_split_3
I0403 15:24:05.552068  3039 net.cpp:141] Setting up inception_3a/output_inception_3a/output_0_split
I0403 15:24:05.552091  3039 net.cpp:148] Top shape: 24 256 28 28 (4816896)
I0403 15:24:05.552112  3039 net.cpp:148] Top shape: 24 256 28 28 (4816896)
I0403 15:24:05.552130  3039 net.cpp:148] Top shape: 24 256 28 28 (4816896)
I0403 15:24:05.552147  3039 net.cpp:148] Top shape: 24 256 28 28 (4816896)
I0403 15:24:05.552161  3039 net.cpp:156] Memory required for data: 657507360
I0403 15:24:05.552177  3039 layer_factory.hpp:77] Creating layer inception_3b/1x1
I0403 15:24:05.552198  3039 net.cpp:91] Creating Layer inception_3b/1x1
I0403 15:24:05.552222  3039 net.cpp:425] inception_3b/1x1 <- inception_3a/output_inception_3a/output_0_split_0
I0403 15:24:05.552248  3039 net.cpp:399] inception_3b/1x1 -> inception_3b/1x1
I0403 15:24:05.553457  3039 net.cpp:141] Setting up inception_3b/1x1
I0403 15:24:05.553513  3039 net.cpp:148] Top shape: 24 128 28 28 (2408448)
I0403 15:24:05.553529  3039 net.cpp:156] Memory required for data: 667141152
I0403 15:24:05.553549  3039 layer_factory.hpp:77] Creating layer inception_3b/relu_1x1
I0403 15:24:05.553570  3039 net.cpp:91] Creating Layer inception_3b/relu_1x1
I0403 15:24:05.553587  3039 net.cpp:425] inception_3b/relu_1x1 <- inception_3b/1x1
I0403 15:24:05.553606  3039 net.cpp:386] inception_3b/relu_1x1 -> inception_3b/1x1 (in-place)
I0403 15:24:05.553787  3039 net.cpp:141] Setting up inception_3b/relu_1x1
I0403 15:24:05.553815  3039 net.cpp:148] Top shape: 24 128 28 28 (2408448)
I0403 15:24:05.553833  3039 net.cpp:156] Memory required for data: 676774944
I0403 15:24:05.553848  3039 layer_factory.hpp:77] Creating layer inception_3b/3x3_reduce
I0403 15:24:05.553872  3039 net.cpp:91] Creating Layer inception_3b/3x3_reduce
I0403 15:24:05.553890  3039 net.cpp:425] inception_3b/3x3_reduce <- inception_3a/output_inception_3a/output_0_split_1
I0403 15:24:05.553910  3039 net.cpp:399] inception_3b/3x3_reduce -> inception_3b/3x3_reduce
I0403 15:24:05.555116  3039 net.cpp:141] Setting up inception_3b/3x3_reduce
I0403 15:24:05.555145  3039 net.cpp:148] Top shape: 24 128 28 28 (2408448)
I0403 15:24:05.555160  3039 net.cpp:156] Memory required for data: 686408736
I0403 15:24:05.555179  3039 layer_factory.hpp:77] Creating layer inception_3b/relu_3x3_reduce
I0403 15:24:05.555199  3039 net.cpp:91] Creating Layer inception_3b/relu_3x3_reduce
I0403 15:24:05.555222  3039 net.cpp:425] inception_3b/relu_3x3_reduce <- inception_3b/3x3_reduce
I0403 15:24:05.555239  3039 net.cpp:386] inception_3b/relu_3x3_reduce -> inception_3b/3x3_reduce (in-place)
I0403 15:24:05.555413  3039 net.cpp:141] Setting up inception_3b/relu_3x3_reduce
I0403 15:24:05.555441  3039 net.cpp:148] Top shape: 24 128 28 28 (2408448)
I0403 15:24:05.555457  3039 net.cpp:156] Memory required for data: 696042528
I0403 15:24:05.555474  3039 layer_factory.hpp:77] Creating layer inception_3b/3x3
I0403 15:24:05.555498  3039 net.cpp:91] Creating Layer inception_3b/3x3
I0403 15:24:05.555517  3039 net.cpp:425] inception_3b/3x3 <- inception_3b/3x3_reduce
I0403 15:24:05.555539  3039 net.cpp:399] inception_3b/3x3 -> inception_3b/3x3
I0403 15:24:05.558432  3039 net.cpp:141] Setting up inception_3b/3x3
I0403 15:24:05.558464  3039 net.cpp:148] Top shape: 24 192 28 28 (3612672)
I0403 15:24:05.558480  3039 net.cpp:156] Memory required for data: 710493216
I0403 15:24:05.558500  3039 layer_factory.hpp:77] Creating layer inception_3b/relu_3x3
I0403 15:24:05.558518  3039 net.cpp:91] Creating Layer inception_3b/relu_3x3
I0403 15:24:05.558534  3039 net.cpp:425] inception_3b/relu_3x3 <- inception_3b/3x3
I0403 15:24:05.558554  3039 net.cpp:386] inception_3b/relu_3x3 -> inception_3b/3x3 (in-place)
I0403 15:24:05.558832  3039 net.cpp:141] Setting up inception_3b/relu_3x3
I0403 15:24:05.558861  3039 net.cpp:148] Top shape: 24 192 28 28 (3612672)
I0403 15:24:05.558877  3039 net.cpp:156] Memory required for data: 724943904
I0403 15:24:05.558892  3039 layer_factory.hpp:77] Creating layer inception_3b/5x5_reduce
I0403 15:24:05.558915  3039 net.cpp:91] Creating Layer inception_3b/5x5_reduce
I0403 15:24:05.558933  3039 net.cpp:425] inception_3b/5x5_reduce <- inception_3a/output_inception_3a/output_0_split_2
I0403 15:24:05.558954  3039 net.cpp:399] inception_3b/5x5_reduce -> inception_3b/5x5_reduce
I0403 15:24:05.559950  3039 net.cpp:141] Setting up inception_3b/5x5_reduce
I0403 15:24:05.559979  3039 net.cpp:148] Top shape: 24 32 28 28 (602112)
I0403 15:24:05.559995  3039 net.cpp:156] Memory required for data: 727352352
I0403 15:24:05.560014  3039 layer_factory.hpp:77] Creating layer inception_3b/relu_5x5_reduce
I0403 15:24:05.560034  3039 net.cpp:91] Creating Layer inception_3b/relu_5x5_reduce
I0403 15:24:05.560051  3039 net.cpp:425] inception_3b/relu_5x5_reduce <- inception_3b/5x5_reduce
I0403 15:24:05.560070  3039 net.cpp:386] inception_3b/relu_5x5_reduce -> inception_3b/5x5_reduce (in-place)
I0403 15:24:05.560268  3039 net.cpp:141] Setting up inception_3b/relu_5x5_reduce
I0403 15:24:05.560293  3039 net.cpp:148] Top shape: 24 32 28 28 (602112)
I0403 15:24:05.560308  3039 net.cpp:156] Memory required for data: 729760800
I0403 15:24:05.560323  3039 layer_factory.hpp:77] Creating layer inception_3b/5x5
I0403 15:24:05.560345  3039 net.cpp:91] Creating Layer inception_3b/5x5
I0403 15:24:05.560364  3039 net.cpp:425] inception_3b/5x5 <- inception_3b/5x5_reduce
I0403 15:24:05.560386  3039 net.cpp:399] inception_3b/5x5 -> inception_3b/5x5
I0403 15:24:05.562382  3039 net.cpp:141] Setting up inception_3b/5x5
I0403 15:24:05.562412  3039 net.cpp:148] Top shape: 24 96 28 28 (1806336)
I0403 15:24:05.562427  3039 net.cpp:156] Memory required for data: 736986144
I0403 15:24:05.562446  3039 layer_factory.hpp:77] Creating layer inception_3b/relu_5x5
I0403 15:24:05.562466  3039 net.cpp:91] Creating Layer inception_3b/relu_5x5
I0403 15:24:05.562484  3039 net.cpp:425] inception_3b/relu_5x5 <- inception_3b/5x5
I0403 15:24:05.562501  3039 net.cpp:386] inception_3b/relu_5x5 -> inception_3b/5x5 (in-place)
I0403 15:24:05.562693  3039 net.cpp:141] Setting up inception_3b/relu_5x5
I0403 15:24:05.562721  3039 net.cpp:148] Top shape: 24 96 28 28 (1806336)
I0403 15:24:05.562736  3039 net.cpp:156] Memory required for data: 744211488
I0403 15:24:05.562752  3039 layer_factory.hpp:77] Creating layer inception_3b/pool
I0403 15:24:05.562769  3039 net.cpp:91] Creating Layer inception_3b/pool
I0403 15:24:05.562785  3039 net.cpp:425] inception_3b/pool <- inception_3a/output_inception_3a/output_0_split_3
I0403 15:24:05.562803  3039 net.cpp:399] inception_3b/pool -> inception_3b/pool
I0403 15:24:05.562860  3039 net.cpp:141] Setting up inception_3b/pool
I0403 15:24:05.562883  3039 net.cpp:148] Top shape: 24 256 28 28 (4816896)
I0403 15:24:05.562898  3039 net.cpp:156] Memory required for data: 763479072
I0403 15:24:05.562913  3039 layer_factory.hpp:77] Creating layer inception_3b/pool_proj
I0403 15:24:05.562938  3039 net.cpp:91] Creating Layer inception_3b/pool_proj
I0403 15:24:05.562958  3039 net.cpp:425] inception_3b/pool_proj <- inception_3b/pool
I0403 15:24:05.562979  3039 net.cpp:399] inception_3b/pool_proj -> inception_3b/pool_proj
I0403 15:24:05.564040  3039 net.cpp:141] Setting up inception_3b/pool_proj
I0403 15:24:05.564069  3039 net.cpp:148] Top shape: 24 64 28 28 (1204224)
I0403 15:24:05.564085  3039 net.cpp:156] Memory required for data: 768295968
I0403 15:24:05.564103  3039 layer_factory.hpp:77] Creating layer inception_3b/relu_pool_proj
I0403 15:24:05.564121  3039 net.cpp:91] Creating Layer inception_3b/relu_pool_proj
I0403 15:24:05.564138  3039 net.cpp:425] inception_3b/relu_pool_proj <- inception_3b/pool_proj
I0403 15:24:05.564157  3039 net.cpp:386] inception_3b/relu_pool_proj -> inception_3b/pool_proj (in-place)
I0403 15:24:05.564559  3039 net.cpp:141] Setting up inception_3b/relu_pool_proj
I0403 15:24:05.564589  3039 net.cpp:148] Top shape: 24 64 28 28 (1204224)
I0403 15:24:05.564605  3039 net.cpp:156] Memory required for data: 773112864
I0403 15:24:05.564621  3039 layer_factory.hpp:77] Creating layer inception_3b/output
I0403 15:24:05.564640  3039 net.cpp:91] Creating Layer inception_3b/output
I0403 15:24:05.564654  3039 net.cpp:425] inception_3b/output <- inception_3b/1x1
I0403 15:24:05.564671  3039 net.cpp:425] inception_3b/output <- inception_3b/3x3
I0403 15:24:05.564689  3039 net.cpp:425] inception_3b/output <- inception_3b/5x5
I0403 15:24:05.564705  3039 net.cpp:425] inception_3b/output <- inception_3b/pool_proj
I0403 15:24:05.564725  3039 net.cpp:399] inception_3b/output -> inception_3b/output
I0403 15:24:05.564769  3039 net.cpp:141] Setting up inception_3b/output
I0403 15:24:05.564792  3039 net.cpp:148] Top shape: 24 480 28 28 (9031680)
I0403 15:24:05.564807  3039 net.cpp:156] Memory required for data: 809239584
I0403 15:24:05.564822  3039 layer_factory.hpp:77] Creating layer pool3/3x3_s2
I0403 15:24:05.564842  3039 net.cpp:91] Creating Layer pool3/3x3_s2
I0403 15:24:05.564858  3039 net.cpp:425] pool3/3x3_s2 <- inception_3b/output
I0403 15:24:05.564891  3039 net.cpp:399] pool3/3x3_s2 -> pool3/3x3_s2
I0403 15:24:05.564951  3039 net.cpp:141] Setting up pool3/3x3_s2
I0403 15:24:05.564975  3039 net.cpp:148] Top shape: 24 480 14 14 (2257920)
I0403 15:24:05.564990  3039 net.cpp:156] Memory required for data: 818271264
I0403 15:24:05.565004  3039 layer_factory.hpp:77] Creating layer pool3/3x3_s2_pool3/3x3_s2_0_split
I0403 15:24:05.565022  3039 net.cpp:91] Creating Layer pool3/3x3_s2_pool3/3x3_s2_0_split
I0403 15:24:05.565037  3039 net.cpp:425] pool3/3x3_s2_pool3/3x3_s2_0_split <- pool3/3x3_s2
I0403 15:24:05.565057  3039 net.cpp:399] pool3/3x3_s2_pool3/3x3_s2_0_split -> pool3/3x3_s2_pool3/3x3_s2_0_split_0
I0403 15:24:05.565078  3039 net.cpp:399] pool3/3x3_s2_pool3/3x3_s2_0_split -> pool3/3x3_s2_pool3/3x3_s2_0_split_1
I0403 15:24:05.565099  3039 net.cpp:399] pool3/3x3_s2_pool3/3x3_s2_0_split -> pool3/3x3_s2_pool3/3x3_s2_0_split_2
I0403 15:24:05.565119  3039 net.cpp:399] pool3/3x3_s2_pool3/3x3_s2_0_split -> pool3/3x3_s2_pool3/3x3_s2_0_split_3
I0403 15:24:05.565196  3039 net.cpp:141] Setting up pool3/3x3_s2_pool3/3x3_s2_0_split
I0403 15:24:05.565223  3039 net.cpp:148] Top shape: 24 480 14 14 (2257920)
I0403 15:24:05.565242  3039 net.cpp:148] Top shape: 24 480 14 14 (2257920)
I0403 15:24:05.565258  3039 net.cpp:148] Top shape: 24 480 14 14 (2257920)
I0403 15:24:05.565274  3039 net.cpp:148] Top shape: 24 480 14 14 (2257920)
I0403 15:24:05.565289  3039 net.cpp:156] Memory required for data: 854397984
I0403 15:24:05.565304  3039 layer_factory.hpp:77] Creating layer inception_4a/1x1
I0403 15:24:05.565325  3039 net.cpp:91] Creating Layer inception_4a/1x1
I0403 15:24:05.565343  3039 net.cpp:425] inception_4a/1x1 <- pool3/3x3_s2_pool3/3x3_s2_0_split_0
I0403 15:24:05.565366  3039 net.cpp:399] inception_4a/1x1 -> inception_4a/1x1
I0403 15:24:05.566997  3039 net.cpp:141] Setting up inception_4a/1x1
I0403 15:24:05.567025  3039 net.cpp:148] Top shape: 24 192 14 14 (903168)
I0403 15:24:05.567042  3039 net.cpp:156] Memory required for data: 858010656
I0403 15:24:05.567062  3039 layer_factory.hpp:77] Creating layer inception_4a/relu_1x1
I0403 15:24:05.567080  3039 net.cpp:91] Creating Layer inception_4a/relu_1x1
I0403 15:24:05.567097  3039 net.cpp:425] inception_4a/relu_1x1 <- inception_4a/1x1
I0403 15:24:05.567117  3039 net.cpp:386] inception_4a/relu_1x1 -> inception_4a/1x1 (in-place)
I0403 15:24:05.567308  3039 net.cpp:141] Setting up inception_4a/relu_1x1
I0403 15:24:05.567334  3039 net.cpp:148] Top shape: 24 192 14 14 (903168)
I0403 15:24:05.567350  3039 net.cpp:156] Memory required for data: 861623328
I0403 15:24:05.567366  3039 layer_factory.hpp:77] Creating layer inception_4a/3x3_reduce
I0403 15:24:05.567389  3039 net.cpp:91] Creating Layer inception_4a/3x3_reduce
I0403 15:24:05.567409  3039 net.cpp:425] inception_4a/3x3_reduce <- pool3/3x3_s2_pool3/3x3_s2_0_split_1
I0403 15:24:05.567431  3039 net.cpp:399] inception_4a/3x3_reduce -> inception_4a/3x3_reduce
I0403 15:24:05.568743  3039 net.cpp:141] Setting up inception_4a/3x3_reduce
I0403 15:24:05.568771  3039 net.cpp:148] Top shape: 24 96 14 14 (451584)
I0403 15:24:05.568788  3039 net.cpp:156] Memory required for data: 863429664
I0403 15:24:05.568814  3039 layer_factory.hpp:77] Creating layer inception_4a/relu_3x3_reduce
I0403 15:24:05.568835  3039 net.cpp:91] Creating Layer inception_4a/relu_3x3_reduce
I0403 15:24:05.568851  3039 net.cpp:425] inception_4a/relu_3x3_reduce <- inception_4a/3x3_reduce
I0403 15:24:05.568871  3039 net.cpp:386] inception_4a/relu_3x3_reduce -> inception_4a/3x3_reduce (in-place)
I0403 15:24:05.569072  3039 net.cpp:141] Setting up inception_4a/relu_3x3_reduce
I0403 15:24:05.569098  3039 net.cpp:148] Top shape: 24 96 14 14 (451584)
I0403 15:24:05.569114  3039 net.cpp:156] Memory required for data: 865236000
I0403 15:24:05.569130  3039 layer_factory.hpp:77] Creating layer inception_4a/3x3
I0403 15:24:05.569154  3039 net.cpp:91] Creating Layer inception_4a/3x3
I0403 15:24:05.569174  3039 net.cpp:425] inception_4a/3x3 <- inception_4a/3x3_reduce
I0403 15:24:05.569195  3039 net.cpp:399] inception_4a/3x3 -> inception_4a/3x3
I0403 15:24:05.572024  3039 net.cpp:141] Setting up inception_4a/3x3
I0403 15:24:05.572055  3039 net.cpp:148] Top shape: 24 208 14 14 (978432)
I0403 15:24:05.572073  3039 net.cpp:156] Memory required for data: 869149728
I0403 15:24:05.572093  3039 layer_factory.hpp:77] Creating layer inception_4a/relu_3x3
I0403 15:24:05.572114  3039 net.cpp:91] Creating Layer inception_4a/relu_3x3
I0403 15:24:05.572134  3039 net.cpp:425] inception_4a/relu_3x3 <- inception_4a/3x3
I0403 15:24:05.572152  3039 net.cpp:386] inception_4a/relu_3x3 -> inception_4a/3x3 (in-place)
I0403 15:24:05.572456  3039 net.cpp:141] Setting up inception_4a/relu_3x3
I0403 15:24:05.572485  3039 net.cpp:148] Top shape: 24 208 14 14 (978432)
I0403 15:24:05.572501  3039 net.cpp:156] Memory required for data: 873063456
I0403 15:24:05.572517  3039 layer_factory.hpp:77] Creating layer inception_4a/5x5_reduce
I0403 15:24:05.572541  3039 net.cpp:91] Creating Layer inception_4a/5x5_reduce
I0403 15:24:05.572561  3039 net.cpp:425] inception_4a/5x5_reduce <- pool3/3x3_s2_pool3/3x3_s2_0_split_2
I0403 15:24:05.572587  3039 net.cpp:399] inception_4a/5x5_reduce -> inception_4a/5x5_reduce
I0403 15:24:05.573679  3039 net.cpp:141] Setting up inception_4a/5x5_reduce
I0403 15:24:05.573709  3039 net.cpp:148] Top shape: 24 16 14 14 (75264)
I0403 15:24:05.573726  3039 net.cpp:156] Memory required for data: 873364512
I0403 15:24:05.573746  3039 layer_factory.hpp:77] Creating layer inception_4a/relu_5x5_reduce
I0403 15:24:05.573768  3039 net.cpp:91] Creating Layer inception_4a/relu_5x5_reduce
I0403 15:24:05.573786  3039 net.cpp:425] inception_4a/relu_5x5_reduce <- inception_4a/5x5_reduce
I0403 15:24:05.573806  3039 net.cpp:386] inception_4a/relu_5x5_reduce -> inception_4a/5x5_reduce (in-place)
I0403 15:24:05.573993  3039 net.cpp:141] Setting up inception_4a/relu_5x5_reduce
I0403 15:24:05.574021  3039 net.cpp:148] Top shape: 24 16 14 14 (75264)
I0403 15:24:05.574038  3039 net.cpp:156] Memory required for data: 873665568
I0403 15:24:05.574054  3039 layer_factory.hpp:77] Creating layer inception_4a/5x5
I0403 15:24:05.574077  3039 net.cpp:91] Creating Layer inception_4a/5x5
I0403 15:24:05.574098  3039 net.cpp:425] inception_4a/5x5 <- inception_4a/5x5_reduce
I0403 15:24:05.574121  3039 net.cpp:399] inception_4a/5x5 -> inception_4a/5x5
I0403 15:24:05.575287  3039 net.cpp:141] Setting up inception_4a/5x5
I0403 15:24:05.575320  3039 net.cpp:148] Top shape: 24 48 14 14 (225792)
I0403 15:24:05.575336  3039 net.cpp:156] Memory required for data: 874568736
I0403 15:24:05.575356  3039 layer_factory.hpp:77] Creating layer inception_4a/relu_5x5
I0403 15:24:05.575376  3039 net.cpp:91] Creating Layer inception_4a/relu_5x5
I0403 15:24:05.575394  3039 net.cpp:425] inception_4a/relu_5x5 <- inception_4a/5x5
I0403 15:24:05.575415  3039 net.cpp:386] inception_4a/relu_5x5 -> inception_4a/5x5 (in-place)
I0403 15:24:05.575609  3039 net.cpp:141] Setting up inception_4a/relu_5x5
I0403 15:24:05.575635  3039 net.cpp:148] Top shape: 24 48 14 14 (225792)
I0403 15:24:05.575651  3039 net.cpp:156] Memory required for data: 875471904
I0403 15:24:05.575667  3039 layer_factory.hpp:77] Creating layer inception_4a/pool
I0403 15:24:05.575686  3039 net.cpp:91] Creating Layer inception_4a/pool
I0403 15:24:05.575703  3039 net.cpp:425] inception_4a/pool <- pool3/3x3_s2_pool3/3x3_s2_0_split_3
I0403 15:24:05.575726  3039 net.cpp:399] inception_4a/pool -> inception_4a/pool
I0403 15:24:05.575793  3039 net.cpp:141] Setting up inception_4a/pool
I0403 15:24:05.575819  3039 net.cpp:148] Top shape: 24 480 14 14 (2257920)
I0403 15:24:05.575834  3039 net.cpp:156] Memory required for data: 884503584
I0403 15:24:05.575850  3039 layer_factory.hpp:77] Creating layer inception_4a/pool_proj
I0403 15:24:05.575873  3039 net.cpp:91] Creating Layer inception_4a/pool_proj
I0403 15:24:05.575892  3039 net.cpp:425] inception_4a/pool_proj <- inception_4a/pool
I0403 15:24:05.575917  3039 net.cpp:399] inception_4a/pool_proj -> inception_4a/pool_proj
I0403 15:24:05.577148  3039 net.cpp:141] Setting up inception_4a/pool_proj
I0403 15:24:05.577178  3039 net.cpp:148] Top shape: 24 64 14 14 (301056)
I0403 15:24:05.577215  3039 net.cpp:156] Memory required for data: 885707808
I0403 15:24:05.577237  3039 layer_factory.hpp:77] Creating layer inception_4a/relu_pool_proj
I0403 15:24:05.577261  3039 net.cpp:91] Creating Layer inception_4a/relu_pool_proj
I0403 15:24:05.577280  3039 net.cpp:425] inception_4a/relu_pool_proj <- inception_4a/pool_proj
I0403 15:24:05.577298  3039 net.cpp:386] inception_4a/relu_pool_proj -> inception_4a/pool_proj (in-place)
I0403 15:24:05.577597  3039 net.cpp:141] Setting up inception_4a/relu_pool_proj
I0403 15:24:05.577626  3039 net.cpp:148] Top shape: 24 64 14 14 (301056)
I0403 15:24:05.577643  3039 net.cpp:156] Memory required for data: 886912032
I0403 15:24:05.577659  3039 layer_factory.hpp:77] Creating layer inception_4a/output
I0403 15:24:05.577677  3039 net.cpp:91] Creating Layer inception_4a/output
I0403 15:24:05.577694  3039 net.cpp:425] inception_4a/output <- inception_4a/1x1
I0403 15:24:05.577713  3039 net.cpp:425] inception_4a/output <- inception_4a/3x3
I0403 15:24:05.577730  3039 net.cpp:425] inception_4a/output <- inception_4a/5x5
I0403 15:24:05.577747  3039 net.cpp:425] inception_4a/output <- inception_4a/pool_proj
I0403 15:24:05.577767  3039 net.cpp:399] inception_4a/output -> inception_4a/output
I0403 15:24:05.577816  3039 net.cpp:141] Setting up inception_4a/output
I0403 15:24:05.577842  3039 net.cpp:148] Top shape: 24 512 14 14 (2408448)
I0403 15:24:05.577860  3039 net.cpp:156] Memory required for data: 896545824
I0403 15:24:05.577877  3039 layer_factory.hpp:77] Creating layer inception_4a/output_inception_4a/output_0_split
I0403 15:24:05.577895  3039 net.cpp:91] Creating Layer inception_4a/output_inception_4a/output_0_split
I0403 15:24:05.577913  3039 net.cpp:425] inception_4a/output_inception_4a/output_0_split <- inception_4a/output
I0403 15:24:05.577934  3039 net.cpp:399] inception_4a/output_inception_4a/output_0_split -> inception_4a/output_inception_4a/output_0_split_0
I0403 15:24:05.577958  3039 net.cpp:399] inception_4a/output_inception_4a/output_0_split -> inception_4a/output_inception_4a/output_0_split_1
I0403 15:24:05.577981  3039 net.cpp:399] inception_4a/output_inception_4a/output_0_split -> inception_4a/output_inception_4a/output_0_split_2
I0403 15:24:05.578004  3039 net.cpp:399] inception_4a/output_inception_4a/output_0_split -> inception_4a/output_inception_4a/output_0_split_3
I0403 15:24:05.578025  3039 net.cpp:399] inception_4a/output_inception_4a/output_0_split -> inception_4a/output_inception_4a/output_0_split_4
I0403 15:24:05.578122  3039 net.cpp:141] Setting up inception_4a/output_inception_4a/output_0_split
I0403 15:24:05.578148  3039 net.cpp:148] Top shape: 24 512 14 14 (2408448)
I0403 15:24:05.578166  3039 net.cpp:148] Top shape: 24 512 14 14 (2408448)
I0403 15:24:05.578183  3039 net.cpp:148] Top shape: 24 512 14 14 (2408448)
I0403 15:24:05.578199  3039 net.cpp:148] Top shape: 24 512 14 14 (2408448)
I0403 15:24:05.578222  3039 net.cpp:148] Top shape: 24 512 14 14 (2408448)
I0403 15:24:05.578238  3039 net.cpp:156] Memory required for data: 944714784
I0403 15:24:05.578253  3039 layer_factory.hpp:77] Creating layer loss1/ave_pool
I0403 15:24:05.578275  3039 net.cpp:91] Creating Layer loss1/ave_pool
I0403 15:24:05.578292  3039 net.cpp:425] loss1/ave_pool <- inception_4a/output_inception_4a/output_0_split_0
I0403 15:24:05.578312  3039 net.cpp:399] loss1/ave_pool -> loss1/ave_pool
I0403 15:24:05.578536  3039 net.cpp:141] Setting up loss1/ave_pool
I0403 15:24:05.578564  3039 net.cpp:148] Top shape: 24 512 4 4 (196608)
I0403 15:24:05.578580  3039 net.cpp:156] Memory required for data: 945501216
I0403 15:24:05.578596  3039 layer_factory.hpp:77] Creating layer loss1/conv
I0403 15:24:05.578620  3039 net.cpp:91] Creating Layer loss1/conv
I0403 15:24:05.578639  3039 net.cpp:425] loss1/conv <- loss1/ave_pool
I0403 15:24:05.578662  3039 net.cpp:399] loss1/conv -> loss1/conv
I0403 15:24:05.580157  3039 net.cpp:141] Setting up loss1/conv
I0403 15:24:05.580188  3039 net.cpp:148] Top shape: 24 128 4 4 (49152)
I0403 15:24:05.580224  3039 net.cpp:156] Memory required for data: 945697824
I0403 15:24:05.580245  3039 layer_factory.hpp:77] Creating layer loss1/relu_conv
I0403 15:24:05.580267  3039 net.cpp:91] Creating Layer loss1/relu_conv
I0403 15:24:05.580286  3039 net.cpp:425] loss1/relu_conv <- loss1/conv
I0403 15:24:05.580303  3039 net.cpp:386] loss1/relu_conv -> loss1/conv (in-place)
I0403 15:24:05.580602  3039 net.cpp:141] Setting up loss1/relu_conv
I0403 15:24:05.580631  3039 net.cpp:148] Top shape: 24 128 4 4 (49152)
I0403 15:24:05.580647  3039 net.cpp:156] Memory required for data: 945894432
I0403 15:24:05.580663  3039 layer_factory.hpp:77] Creating layer loss1/fc
I0403 15:24:05.580690  3039 net.cpp:91] Creating Layer loss1/fc
I0403 15:24:05.580710  3039 net.cpp:425] loss1/fc <- loss1/conv
I0403 15:24:05.580732  3039 net.cpp:399] loss1/fc -> loss1/fc
I0403 15:24:05.599187  3039 net.cpp:141] Setting up loss1/fc
I0403 15:24:05.599248  3039 net.cpp:148] Top shape: 24 1024 (24576)
I0403 15:24:05.599266  3039 net.cpp:156] Memory required for data: 945992736
I0403 15:24:05.599287  3039 layer_factory.hpp:77] Creating layer loss1/relu_fc
I0403 15:24:05.599306  3039 net.cpp:91] Creating Layer loss1/relu_fc
I0403 15:24:05.599324  3039 net.cpp:425] loss1/relu_fc <- loss1/fc
I0403 15:24:05.599345  3039 net.cpp:386] loss1/relu_fc -> loss1/fc (in-place)
I0403 15:24:05.599565  3039 net.cpp:141] Setting up loss1/relu_fc
I0403 15:24:05.599592  3039 net.cpp:148] Top shape: 24 1024 (24576)
I0403 15:24:05.599607  3039 net.cpp:156] Memory required for data: 946091040
I0403 15:24:05.599623  3039 layer_factory.hpp:77] Creating layer loss1/drop_fc
I0403 15:24:05.599654  3039 net.cpp:91] Creating Layer loss1/drop_fc
I0403 15:24:05.599674  3039 net.cpp:425] loss1/drop_fc <- loss1/fc
I0403 15:24:05.599694  3039 net.cpp:386] loss1/drop_fc -> loss1/fc (in-place)
I0403 15:24:05.599750  3039 net.cpp:141] Setting up loss1/drop_fc
I0403 15:24:05.599774  3039 net.cpp:148] Top shape: 24 1024 (24576)
I0403 15:24:05.599789  3039 net.cpp:156] Memory required for data: 946189344
I0403 15:24:05.599805  3039 layer_factory.hpp:77] Creating layer loss1/classifier_plantvillage
I0403 15:24:05.599827  3039 net.cpp:91] Creating Layer loss1/classifier_plantvillage
I0403 15:24:05.599843  3039 net.cpp:425] loss1/classifier_plantvillage <- loss1/fc
I0403 15:24:05.599865  3039 net.cpp:399] loss1/classifier_plantvillage -> loss1/classifier_plantvillage
I0403 15:24:05.600821  3039 net.cpp:141] Setting up loss1/classifier_plantvillage
I0403 15:24:05.600849  3039 net.cpp:148] Top shape: 24 38 (912)
I0403 15:24:05.600867  3039 net.cpp:156] Memory required for data: 946192992
I0403 15:24:05.600888  3039 layer_factory.hpp:77] Creating layer loss1/classifier_plantvillage_loss1/classifier_plantvillage_0_split
I0403 15:24:05.600909  3039 net.cpp:91] Creating Layer loss1/classifier_plantvillage_loss1/classifier_plantvillage_0_split
I0403 15:24:05.600926  3039 net.cpp:425] loss1/classifier_plantvillage_loss1/classifier_plantvillage_0_split <- loss1/classifier_plantvillage
I0403 15:24:05.600945  3039 net.cpp:399] loss1/classifier_plantvillage_loss1/classifier_plantvillage_0_split -> loss1/classifier_plantvillage_loss1/classifier_plantvillage_0_split_0
I0403 15:24:05.600966  3039 net.cpp:399] loss1/classifier_plantvillage_loss1/classifier_plantvillage_0_split -> loss1/classifier_plantvillage_loss1/classifier_plantvillage_0_split_1
I0403 15:24:05.600987  3039 net.cpp:399] loss1/classifier_plantvillage_loss1/classifier_plantvillage_0_split -> loss1/classifier_plantvillage_loss1/classifier_plantvillage_0_split_2
I0403 15:24:05.601058  3039 net.cpp:141] Setting up loss1/classifier_plantvillage_loss1/classifier_plantvillage_0_split
I0403 15:24:05.601081  3039 net.cpp:148] Top shape: 24 38 (912)
I0403 15:24:05.601099  3039 net.cpp:148] Top shape: 24 38 (912)
I0403 15:24:05.601115  3039 net.cpp:148] Top shape: 24 38 (912)
I0403 15:24:05.601130  3039 net.cpp:156] Memory required for data: 946203936
I0403 15:24:05.601145  3039 layer_factory.hpp:77] Creating layer inception_4b/1x1
I0403 15:24:05.601169  3039 net.cpp:91] Creating Layer inception_4b/1x1
I0403 15:24:05.601207  3039 net.cpp:425] inception_4b/1x1 <- inception_4a/output_inception_4a/output_0_split_1
I0403 15:24:05.601234  3039 net.cpp:399] inception_4b/1x1 -> inception_4b/1x1
I0403 15:24:05.603013  3039 net.cpp:141] Setting up inception_4b/1x1
I0403 15:24:05.603041  3039 net.cpp:148] Top shape: 24 160 14 14 (752640)
I0403 15:24:05.603058  3039 net.cpp:156] Memory required for data: 949214496
I0403 15:24:05.603077  3039 layer_factory.hpp:77] Creating layer inception_4b/relu_1x1
I0403 15:24:05.603098  3039 net.cpp:91] Creating Layer inception_4b/relu_1x1
I0403 15:24:05.603117  3039 net.cpp:425] inception_4b/relu_1x1 <- inception_4b/1x1
I0403 15:24:05.603138  3039 net.cpp:386] inception_4b/relu_1x1 -> inception_4b/1x1 (in-place)
I0403 15:24:05.603339  3039 net.cpp:141] Setting up inception_4b/relu_1x1
I0403 15:24:05.603368  3039 net.cpp:148] Top shape: 24 160 14 14 (752640)
I0403 15:24:05.603384  3039 net.cpp:156] Memory required for data: 952225056
I0403 15:24:05.603400  3039 layer_factory.hpp:77] Creating layer inception_4b/3x3_reduce
I0403 15:24:05.603425  3039 net.cpp:91] Creating Layer inception_4b/3x3_reduce
I0403 15:24:05.603445  3039 net.cpp:425] inception_4b/3x3_reduce <- inception_4a/output_inception_4a/output_0_split_2
I0403 15:24:05.603466  3039 net.cpp:399] inception_4b/3x3_reduce -> inception_4b/3x3_reduce
I0403 15:24:05.604868  3039 net.cpp:141] Setting up inception_4b/3x3_reduce
I0403 15:24:05.604902  3039 net.cpp:148] Top shape: 24 112 14 14 (526848)
I0403 15:24:05.604918  3039 net.cpp:156] Memory required for data: 954332448
I0403 15:24:05.604938  3039 layer_factory.hpp:77] Creating layer inception_4b/relu_3x3_reduce
I0403 15:24:05.604956  3039 net.cpp:91] Creating Layer inception_4b/relu_3x3_reduce
I0403 15:24:05.604974  3039 net.cpp:425] inception_4b/relu_3x3_reduce <- inception_4b/3x3_reduce
I0403 15:24:05.604993  3039 net.cpp:386] inception_4b/relu_3x3_reduce -> inception_4b/3x3_reduce (in-place)
I0403 15:24:05.605293  3039 net.cpp:141] Setting up inception_4b/relu_3x3_reduce
I0403 15:24:05.605321  3039 net.cpp:148] Top shape: 24 112 14 14 (526848)
I0403 15:24:05.605339  3039 net.cpp:156] Memory required for data: 956439840
I0403 15:24:05.605355  3039 layer_factory.hpp:77] Creating layer inception_4b/3x3
I0403 15:24:05.605378  3039 net.cpp:91] Creating Layer inception_4b/3x3
I0403 15:24:05.605396  3039 net.cpp:425] inception_4b/3x3 <- inception_4b/3x3_reduce
I0403 15:24:05.605415  3039 net.cpp:399] inception_4b/3x3 -> inception_4b/3x3
I0403 15:24:05.608495  3039 net.cpp:141] Setting up inception_4b/3x3
I0403 15:24:05.608526  3039 net.cpp:148] Top shape: 24 224 14 14 (1053696)
I0403 15:24:05.608542  3039 net.cpp:156] Memory required for data: 960654624
I0403 15:24:05.608561  3039 layer_factory.hpp:77] Creating layer inception_4b/relu_3x3
I0403 15:24:05.608580  3039 net.cpp:91] Creating Layer inception_4b/relu_3x3
I0403 15:24:05.608597  3039 net.cpp:425] inception_4b/relu_3x3 <- inception_4b/3x3
I0403 15:24:05.608618  3039 net.cpp:386] inception_4b/relu_3x3 -> inception_4b/3x3 (in-place)
I0403 15:24:05.608804  3039 net.cpp:141] Setting up inception_4b/relu_3x3
I0403 15:24:05.608830  3039 net.cpp:148] Top shape: 24 224 14 14 (1053696)
I0403 15:24:05.608846  3039 net.cpp:156] Memory required for data: 964869408
I0403 15:24:05.608861  3039 layer_factory.hpp:77] Creating layer inception_4b/5x5_reduce
I0403 15:24:05.608885  3039 net.cpp:91] Creating Layer inception_4b/5x5_reduce
I0403 15:24:05.608904  3039 net.cpp:425] inception_4b/5x5_reduce <- inception_4a/output_inception_4a/output_0_split_3
I0403 15:24:05.608928  3039 net.cpp:399] inception_4b/5x5_reduce -> inception_4b/5x5_reduce
I0403 15:24:05.610054  3039 net.cpp:141] Setting up inception_4b/5x5_reduce
I0403 15:24:05.610085  3039 net.cpp:148] Top shape: 24 24 14 14 (112896)
I0403 15:24:05.610101  3039 net.cpp:156] Memory required for data: 965320992
I0403 15:24:05.610122  3039 layer_factory.hpp:77] Creating layer inception_4b/relu_5x5_reduce
I0403 15:24:05.610141  3039 net.cpp:91] Creating Layer inception_4b/relu_5x5_reduce
I0403 15:24:05.610173  3039 net.cpp:425] inception_4b/relu_5x5_reduce <- inception_4b/5x5_reduce
I0403 15:24:05.610193  3039 net.cpp:386] inception_4b/relu_5x5_reduce -> inception_4b/5x5_reduce (in-place)
I0403 15:24:05.610391  3039 net.cpp:141] Setting up inception_4b/relu_5x5_reduce
I0403 15:24:05.610419  3039 net.cpp:148] Top shape: 24 24 14 14 (112896)
I0403 15:24:05.610437  3039 net.cpp:156] Memory required for data: 965772576
I0403 15:24:05.610453  3039 layer_factory.hpp:77] Creating layer inception_4b/5x5
I0403 15:24:05.610476  3039 net.cpp:91] Creating Layer inception_4b/5x5
I0403 15:24:05.610496  3039 net.cpp:425] inception_4b/5x5 <- inception_4b/5x5_reduce
I0403 15:24:05.610518  3039 net.cpp:399] inception_4b/5x5 -> inception_4b/5x5
I0403 15:24:05.611785  3039 net.cpp:141] Setting up inception_4b/5x5
I0403 15:24:05.611814  3039 net.cpp:148] Top shape: 24 64 14 14 (301056)
I0403 15:24:05.611830  3039 net.cpp:156] Memory required for data: 966976800
I0403 15:24:05.611850  3039 layer_factory.hpp:77] Creating layer inception_4b/relu_5x5
I0403 15:24:05.611871  3039 net.cpp:91] Creating Layer inception_4b/relu_5x5
I0403 15:24:05.611887  3039 net.cpp:425] inception_4b/relu_5x5 <- inception_4b/5x5
I0403 15:24:05.611907  3039 net.cpp:386] inception_4b/relu_5x5 -> inception_4b/5x5 (in-place)
I0403 15:24:05.612202  3039 net.cpp:141] Setting up inception_4b/relu_5x5
I0403 15:24:05.612232  3039 net.cpp:148] Top shape: 24 64 14 14 (301056)
I0403 15:24:05.612248  3039 net.cpp:156] Memory required for data: 968181024
I0403 15:24:05.612264  3039 layer_factory.hpp:77] Creating layer inception_4b/pool
I0403 15:24:05.612287  3039 net.cpp:91] Creating Layer inception_4b/pool
I0403 15:24:05.612304  3039 net.cpp:425] inception_4b/pool <- inception_4a/output_inception_4a/output_0_split_4
I0403 15:24:05.612323  3039 net.cpp:399] inception_4b/pool -> inception_4b/pool
I0403 15:24:05.612391  3039 net.cpp:141] Setting up inception_4b/pool
I0403 15:24:05.612416  3039 net.cpp:148] Top shape: 24 512 14 14 (2408448)
I0403 15:24:05.612433  3039 net.cpp:156] Memory required for data: 977814816
I0403 15:24:05.612448  3039 layer_factory.hpp:77] Creating layer inception_4b/pool_proj
I0403 15:24:05.612471  3039 net.cpp:91] Creating Layer inception_4b/pool_proj
I0403 15:24:05.612489  3039 net.cpp:425] inception_4b/pool_proj <- inception_4b/pool
I0403 15:24:05.612512  3039 net.cpp:399] inception_4b/pool_proj -> inception_4b/pool_proj
I0403 15:24:05.613766  3039 net.cpp:141] Setting up inception_4b/pool_proj
I0403 15:24:05.613795  3039 net.cpp:148] Top shape: 24 64 14 14 (301056)
I0403 15:24:05.613811  3039 net.cpp:156] Memory required for data: 979019040
I0403 15:24:05.613831  3039 layer_factory.hpp:77] Creating layer inception_4b/relu_pool_proj
I0403 15:24:05.613852  3039 net.cpp:91] Creating Layer inception_4b/relu_pool_proj
I0403 15:24:05.613869  3039 net.cpp:425] inception_4b/relu_pool_proj <- inception_4b/pool_proj
I0403 15:24:05.613888  3039 net.cpp:386] inception_4b/relu_pool_proj -> inception_4b/pool_proj (in-place)
I0403 15:24:05.614084  3039 net.cpp:141] Setting up inception_4b/relu_pool_proj
I0403 15:24:05.614109  3039 net.cpp:148] Top shape: 24 64 14 14 (301056)
I0403 15:24:05.614123  3039 net.cpp:156] Memory required for data: 980223264
I0403 15:24:05.614140  3039 layer_factory.hpp:77] Creating layer inception_4b/output
I0403 15:24:05.614157  3039 net.cpp:91] Creating Layer inception_4b/output
I0403 15:24:05.614173  3039 net.cpp:425] inception_4b/output <- inception_4b/1x1
I0403 15:24:05.614190  3039 net.cpp:425] inception_4b/output <- inception_4b/3x3
I0403 15:24:05.614207  3039 net.cpp:425] inception_4b/output <- inception_4b/5x5
I0403 15:24:05.614228  3039 net.cpp:425] inception_4b/output <- inception_4b/pool_proj
I0403 15:24:05.614248  3039 net.cpp:399] inception_4b/output -> inception_4b/output
I0403 15:24:05.614295  3039 net.cpp:141] Setting up inception_4b/output
I0403 15:24:05.614321  3039 net.cpp:148] Top shape: 24 512 14 14 (2408448)
I0403 15:24:05.614337  3039 net.cpp:156] Memory required for data: 989857056
I0403 15:24:05.614367  3039 layer_factory.hpp:77] Creating layer inception_4b/output_inception_4b/output_0_split
I0403 15:24:05.614384  3039 net.cpp:91] Creating Layer inception_4b/output_inception_4b/output_0_split
I0403 15:24:05.614400  3039 net.cpp:425] inception_4b/output_inception_4b/output_0_split <- inception_4b/output
I0403 15:24:05.614418  3039 net.cpp:399] inception_4b/output_inception_4b/output_0_split -> inception_4b/output_inception_4b/output_0_split_0
I0403 15:24:05.614440  3039 net.cpp:399] inception_4b/output_inception_4b/output_0_split -> inception_4b/output_inception_4b/output_0_split_1
I0403 15:24:05.614464  3039 net.cpp:399] inception_4b/output_inception_4b/output_0_split -> inception_4b/output_inception_4b/output_0_split_2
I0403 15:24:05.614485  3039 net.cpp:399] inception_4b/output_inception_4b/output_0_split -> inception_4b/output_inception_4b/output_0_split_3
I0403 15:24:05.614572  3039 net.cpp:141] Setting up inception_4b/output_inception_4b/output_0_split
I0403 15:24:05.614594  3039 net.cpp:148] Top shape: 24 512 14 14 (2408448)
I0403 15:24:05.614611  3039 net.cpp:148] Top shape: 24 512 14 14 (2408448)
I0403 15:24:05.614627  3039 net.cpp:148] Top shape: 24 512 14 14 (2408448)
I0403 15:24:05.614644  3039 net.cpp:148] Top shape: 24 512 14 14 (2408448)
I0403 15:24:05.614656  3039 net.cpp:156] Memory required for data: 1028392224
I0403 15:24:05.614671  3039 layer_factory.hpp:77] Creating layer inception_4c/1x1
I0403 15:24:05.614693  3039 net.cpp:91] Creating Layer inception_4c/1x1
I0403 15:24:05.614711  3039 net.cpp:425] inception_4c/1x1 <- inception_4b/output_inception_4b/output_0_split_0
I0403 15:24:05.614734  3039 net.cpp:399] inception_4c/1x1 -> inception_4c/1x1
I0403 15:24:05.616255  3039 net.cpp:141] Setting up inception_4c/1x1
I0403 15:24:05.616284  3039 net.cpp:148] Top shape: 24 128 14 14 (602112)
I0403 15:24:05.616300  3039 net.cpp:156] Memory required for data: 1030800672
I0403 15:24:05.616319  3039 layer_factory.hpp:77] Creating layer inception_4c/relu_1x1
I0403 15:24:05.616338  3039 net.cpp:91] Creating Layer inception_4c/relu_1x1
I0403 15:24:05.616355  3039 net.cpp:425] inception_4c/relu_1x1 <- inception_4c/1x1
I0403 15:24:05.616376  3039 net.cpp:386] inception_4c/relu_1x1 -> inception_4c/1x1 (in-place)
I0403 15:24:05.616564  3039 net.cpp:141] Setting up inception_4c/relu_1x1
I0403 15:24:05.616590  3039 net.cpp:148] Top shape: 24 128 14 14 (602112)
I0403 15:24:05.616605  3039 net.cpp:156] Memory required for data: 1033209120
I0403 15:24:05.616621  3039 layer_factory.hpp:77] Creating layer inception_4c/3x3_reduce
I0403 15:24:05.616644  3039 net.cpp:91] Creating Layer inception_4c/3x3_reduce
I0403 15:24:05.616663  3039 net.cpp:425] inception_4c/3x3_reduce <- inception_4b/output_inception_4b/output_0_split_1
I0403 15:24:05.616685  3039 net.cpp:399] inception_4c/3x3_reduce -> inception_4c/3x3_reduce
I0403 15:24:05.618708  3039 net.cpp:141] Setting up inception_4c/3x3_reduce
I0403 15:24:05.618737  3039 net.cpp:148] Top shape: 24 128 14 14 (602112)
I0403 15:24:05.618753  3039 net.cpp:156] Memory required for data: 1035617568
I0403 15:24:05.618773  3039 layer_factory.hpp:77] Creating layer inception_4c/relu_3x3_reduce
I0403 15:24:05.618798  3039 net.cpp:91] Creating Layer inception_4c/relu_3x3_reduce
I0403 15:24:05.618814  3039 net.cpp:425] inception_4c/relu_3x3_reduce <- inception_4c/3x3_reduce
I0403 15:24:05.618832  3039 net.cpp:386] inception_4c/relu_3x3_reduce -> inception_4c/3x3_reduce (in-place)
I0403 15:24:05.619133  3039 net.cpp:141] Setting up inception_4c/relu_3x3_reduce
I0403 15:24:05.619161  3039 net.cpp:148] Top shape: 24 128 14 14 (602112)
I0403 15:24:05.619176  3039 net.cpp:156] Memory required for data: 1038026016
I0403 15:24:05.619194  3039 layer_factory.hpp:77] Creating layer inception_4c/3x3
I0403 15:24:05.619221  3039 net.cpp:91] Creating Layer inception_4c/3x3
I0403 15:24:05.619243  3039 net.cpp:425] inception_4c/3x3 <- inception_4c/3x3_reduce
I0403 15:24:05.619266  3039 net.cpp:399] inception_4c/3x3 -> inception_4c/3x3
I0403 15:24:05.623075  3039 net.cpp:141] Setting up inception_4c/3x3
I0403 15:24:05.623118  3039 net.cpp:148] Top shape: 24 256 14 14 (1204224)
I0403 15:24:05.623136  3039 net.cpp:156] Memory required for data: 1042842912
I0403 15:24:05.623170  3039 layer_factory.hpp:77] Creating layer inception_4c/relu_3x3
I0403 15:24:05.623193  3039 net.cpp:91] Creating Layer inception_4c/relu_3x3
I0403 15:24:05.623221  3039 net.cpp:425] inception_4c/relu_3x3 <- inception_4c/3x3
I0403 15:24:05.623242  3039 net.cpp:386] inception_4c/relu_3x3 -> inception_4c/3x3 (in-place)
I0403 15:24:05.623433  3039 net.cpp:141] Setting up inception_4c/relu_3x3
I0403 15:24:05.623461  3039 net.cpp:148] Top shape: 24 256 14 14 (1204224)
I0403 15:24:05.623478  3039 net.cpp:156] Memory required for data: 1047659808
I0403 15:24:05.623494  3039 layer_factory.hpp:77] Creating layer inception_4c/5x5_reduce
I0403 15:24:05.623518  3039 net.cpp:91] Creating Layer inception_4c/5x5_reduce
I0403 15:24:05.623538  3039 net.cpp:425] inception_4c/5x5_reduce <- inception_4b/output_inception_4b/output_0_split_2
I0403 15:24:05.623558  3039 net.cpp:399] inception_4c/5x5_reduce -> inception_4c/5x5_reduce
I0403 15:24:05.624696  3039 net.cpp:141] Setting up inception_4c/5x5_reduce
I0403 15:24:05.624729  3039 net.cpp:148] Top shape: 24 24 14 14 (112896)
I0403 15:24:05.624747  3039 net.cpp:156] Memory required for data: 1048111392
I0403 15:24:05.624765  3039 layer_factory.hpp:77] Creating layer inception_4c/relu_5x5_reduce
I0403 15:24:05.624784  3039 net.cpp:91] Creating Layer inception_4c/relu_5x5_reduce
I0403 15:24:05.624800  3039 net.cpp:425] inception_4c/relu_5x5_reduce <- inception_4c/5x5_reduce
I0403 15:24:05.624819  3039 net.cpp:386] inception_4c/relu_5x5_reduce -> inception_4c/5x5_reduce (in-place)
I0403 15:24:05.625013  3039 net.cpp:141] Setting up inception_4c/relu_5x5_reduce
I0403 15:24:05.625041  3039 net.cpp:148] Top shape: 24 24 14 14 (112896)
I0403 15:24:05.625057  3039 net.cpp:156] Memory required for data: 1048562976
I0403 15:24:05.625072  3039 layer_factory.hpp:77] Creating layer inception_4c/5x5
I0403 15:24:05.625095  3039 net.cpp:91] Creating Layer inception_4c/5x5
I0403 15:24:05.625113  3039 net.cpp:425] inception_4c/5x5 <- inception_4c/5x5_reduce
I0403 15:24:05.625135  3039 net.cpp:399] inception_4c/5x5 -> inception_4c/5x5
I0403 15:24:05.626430  3039 net.cpp:141] Setting up inception_4c/5x5
I0403 15:24:05.626459  3039 net.cpp:148] Top shape: 24 64 14 14 (301056)
I0403 15:24:05.626476  3039 net.cpp:156] Memory required for data: 1049767200
I0403 15:24:05.626494  3039 layer_factory.hpp:77] Creating layer inception_4c/relu_5x5
I0403 15:24:05.626513  3039 net.cpp:91] Creating Layer inception_4c/relu_5x5
I0403 15:24:05.626530  3039 net.cpp:425] inception_4c/relu_5x5 <- inception_4c/5x5
I0403 15:24:05.626552  3039 net.cpp:386] inception_4c/relu_5x5 -> inception_4c/5x5 (in-place)
I0403 15:24:05.626855  3039 net.cpp:141] Setting up inception_4c/relu_5x5
I0403 15:24:05.626883  3039 net.cpp:148] Top shape: 24 64 14 14 (301056)
I0403 15:24:05.626899  3039 net.cpp:156] Memory required for data: 1050971424
I0403 15:24:05.626914  3039 layer_factory.hpp:77] Creating layer inception_4c/pool
I0403 15:24:05.626934  3039 net.cpp:91] Creating Layer inception_4c/pool
I0403 15:24:05.626950  3039 net.cpp:425] inception_4c/pool <- inception_4b/output_inception_4b/output_0_split_3
I0403 15:24:05.626971  3039 net.cpp:399] inception_4c/pool -> inception_4c/pool
I0403 15:24:05.627039  3039 net.cpp:141] Setting up inception_4c/pool
I0403 15:24:05.627064  3039 net.cpp:148] Top shape: 24 512 14 14 (2408448)
I0403 15:24:05.627079  3039 net.cpp:156] Memory required for data: 1060605216
I0403 15:24:05.627094  3039 layer_factory.hpp:77] Creating layer inception_4c/pool_proj
I0403 15:24:05.627120  3039 net.cpp:91] Creating Layer inception_4c/pool_proj
I0403 15:24:05.627137  3039 net.cpp:425] inception_4c/pool_proj <- inception_4c/pool
I0403 15:24:05.627157  3039 net.cpp:399] inception_4c/pool_proj -> inception_4c/pool_proj
I0403 15:24:05.628474  3039 net.cpp:141] Setting up inception_4c/pool_proj
I0403 15:24:05.628504  3039 net.cpp:148] Top shape: 24 64 14 14 (301056)
I0403 15:24:05.628535  3039 net.cpp:156] Memory required for data: 1061809440
I0403 15:24:05.628556  3039 layer_factory.hpp:77] Creating layer inception_4c/relu_pool_proj
I0403 15:24:05.628576  3039 net.cpp:91] Creating Layer inception_4c/relu_pool_proj
I0403 15:24:05.628593  3039 net.cpp:425] inception_4c/relu_pool_proj <- inception_4c/pool_proj
I0403 15:24:05.628612  3039 net.cpp:386] inception_4c/relu_pool_proj -> inception_4c/pool_proj (in-place)
I0403 15:24:05.628801  3039 net.cpp:141] Setting up inception_4c/relu_pool_proj
I0403 15:24:05.628828  3039 net.cpp:148] Top shape: 24 64 14 14 (301056)
I0403 15:24:05.628842  3039 net.cpp:156] Memory required for data: 1063013664
I0403 15:24:05.628859  3039 layer_factory.hpp:77] Creating layer inception_4c/output
I0403 15:24:05.628876  3039 net.cpp:91] Creating Layer inception_4c/output
I0403 15:24:05.628892  3039 net.cpp:425] inception_4c/output <- inception_4c/1x1
I0403 15:24:05.628909  3039 net.cpp:425] inception_4c/output <- inception_4c/3x3
I0403 15:24:05.628926  3039 net.cpp:425] inception_4c/output <- inception_4c/5x5
I0403 15:24:05.628942  3039 net.cpp:425] inception_4c/output <- inception_4c/pool_proj
I0403 15:24:05.628962  3039 net.cpp:399] inception_4c/output -> inception_4c/output
I0403 15:24:05.629010  3039 net.cpp:141] Setting up inception_4c/output
I0403 15:24:05.629037  3039 net.cpp:148] Top shape: 24 512 14 14 (2408448)
I0403 15:24:05.629053  3039 net.cpp:156] Memory required for data: 1072647456
I0403 15:24:05.629068  3039 layer_factory.hpp:77] Creating layer inception_4c/output_inception_4c/output_0_split
I0403 15:24:05.629086  3039 net.cpp:91] Creating Layer inception_4c/output_inception_4c/output_0_split
I0403 15:24:05.629102  3039 net.cpp:425] inception_4c/output_inception_4c/output_0_split <- inception_4c/output
I0403 15:24:05.629120  3039 net.cpp:399] inception_4c/output_inception_4c/output_0_split -> inception_4c/output_inception_4c/output_0_split_0
I0403 15:24:05.629142  3039 net.cpp:399] inception_4c/output_inception_4c/output_0_split -> inception_4c/output_inception_4c/output_0_split_1
I0403 15:24:05.629164  3039 net.cpp:399] inception_4c/output_inception_4c/output_0_split -> inception_4c/output_inception_4c/output_0_split_2
I0403 15:24:05.629187  3039 net.cpp:399] inception_4c/output_inception_4c/output_0_split -> inception_4c/output_inception_4c/output_0_split_3
I0403 15:24:05.629283  3039 net.cpp:141] Setting up inception_4c/output_inception_4c/output_0_split
I0403 15:24:05.629309  3039 net.cpp:148] Top shape: 24 512 14 14 (2408448)
I0403 15:24:05.629326  3039 net.cpp:148] Top shape: 24 512 14 14 (2408448)
I0403 15:24:05.629343  3039 net.cpp:148] Top shape: 24 512 14 14 (2408448)
I0403 15:24:05.629359  3039 net.cpp:148] Top shape: 24 512 14 14 (2408448)
I0403 15:24:05.629374  3039 net.cpp:156] Memory required for data: 1111182624
I0403 15:24:05.629387  3039 layer_factory.hpp:77] Creating layer inception_4d/1x1
I0403 15:24:05.629410  3039 net.cpp:91] Creating Layer inception_4d/1x1
I0403 15:24:05.629429  3039 net.cpp:425] inception_4d/1x1 <- inception_4c/output_inception_4c/output_0_split_0
I0403 15:24:05.629451  3039 net.cpp:399] inception_4d/1x1 -> inception_4d/1x1
I0403 15:24:05.630883  3039 net.cpp:141] Setting up inception_4d/1x1
I0403 15:24:05.630911  3039 net.cpp:148] Top shape: 24 112 14 14 (526848)
I0403 15:24:05.630928  3039 net.cpp:156] Memory required for data: 1113290016
I0403 15:24:05.630947  3039 layer_factory.hpp:77] Creating layer inception_4d/relu_1x1
I0403 15:24:05.630969  3039 net.cpp:91] Creating Layer inception_4d/relu_1x1
I0403 15:24:05.630986  3039 net.cpp:425] inception_4d/relu_1x1 <- inception_4d/1x1
I0403 15:24:05.631005  3039 net.cpp:386] inception_4d/relu_1x1 -> inception_4d/1x1 (in-place)
I0403 15:24:05.631201  3039 net.cpp:141] Setting up inception_4d/relu_1x1
I0403 15:24:05.631232  3039 net.cpp:148] Top shape: 24 112 14 14 (526848)
I0403 15:24:05.631249  3039 net.cpp:156] Memory required for data: 1115397408
I0403 15:24:05.631264  3039 layer_factory.hpp:77] Creating layer inception_4d/3x3_reduce
I0403 15:24:05.631299  3039 net.cpp:91] Creating Layer inception_4d/3x3_reduce
I0403 15:24:05.631319  3039 net.cpp:425] inception_4d/3x3_reduce <- inception_4c/output_inception_4c/output_0_split_1
I0403 15:24:05.631340  3039 net.cpp:399] inception_4d/3x3_reduce -> inception_4d/3x3_reduce
I0403 15:24:05.632915  3039 net.cpp:141] Setting up inception_4d/3x3_reduce
I0403 15:24:05.632943  3039 net.cpp:148] Top shape: 24 144 14 14 (677376)
I0403 15:24:05.632959  3039 net.cpp:156] Memory required for data: 1118106912
I0403 15:24:05.632979  3039 layer_factory.hpp:77] Creating layer inception_4d/relu_3x3_reduce
I0403 15:24:05.632997  3039 net.cpp:91] Creating Layer inception_4d/relu_3x3_reduce
I0403 15:24:05.633013  3039 net.cpp:425] inception_4d/relu_3x3_reduce <- inception_4d/3x3_reduce
I0403 15:24:05.633034  3039 net.cpp:386] inception_4d/relu_3x3_reduce -> inception_4d/3x3_reduce (in-place)
I0403 15:24:05.633352  3039 net.cpp:141] Setting up inception_4d/relu_3x3_reduce
I0403 15:24:05.633378  3039 net.cpp:148] Top shape: 24 144 14 14 (677376)
I0403 15:24:05.633394  3039 net.cpp:156] Memory required for data: 1120816416
I0403 15:24:05.633409  3039 layer_factory.hpp:77] Creating layer inception_4d/3x3
I0403 15:24:05.633432  3039 net.cpp:91] Creating Layer inception_4d/3x3
I0403 15:24:05.633451  3039 net.cpp:425] inception_4d/3x3 <- inception_4d/3x3_reduce
I0403 15:24:05.633473  3039 net.cpp:399] inception_4d/3x3 -> inception_4d/3x3
I0403 15:24:05.637811  3039 net.cpp:141] Setting up inception_4d/3x3
I0403 15:24:05.637840  3039 net.cpp:148] Top shape: 24 288 14 14 (1354752)
I0403 15:24:05.637856  3039 net.cpp:156] Memory required for data: 1126235424
I0403 15:24:05.637873  3039 layer_factory.hpp:77] Creating layer inception_4d/relu_3x3
I0403 15:24:05.637894  3039 net.cpp:91] Creating Layer inception_4d/relu_3x3
I0403 15:24:05.637912  3039 net.cpp:425] inception_4d/relu_3x3 <- inception_4d/3x3
I0403 15:24:05.637929  3039 net.cpp:386] inception_4d/relu_3x3 -> inception_4d/3x3 (in-place)
I0403 15:24:05.638114  3039 net.cpp:141] Setting up inception_4d/relu_3x3
I0403 15:24:05.638141  3039 net.cpp:148] Top shape: 24 288 14 14 (1354752)
I0403 15:24:05.638157  3039 net.cpp:156] Memory required for data: 1131654432
I0403 15:24:05.638171  3039 layer_factory.hpp:77] Creating layer inception_4d/5x5_reduce
I0403 15:24:05.638195  3039 net.cpp:91] Creating Layer inception_4d/5x5_reduce
I0403 15:24:05.638216  3039 net.cpp:425] inception_4d/5x5_reduce <- inception_4c/output_inception_4c/output_0_split_2
I0403 15:24:05.638237  3039 net.cpp:399] inception_4d/5x5_reduce -> inception_4d/5x5_reduce
I0403 15:24:05.639392  3039 net.cpp:141] Setting up inception_4d/5x5_reduce
I0403 15:24:05.639420  3039 net.cpp:148] Top shape: 24 32 14 14 (150528)
I0403 15:24:05.639437  3039 net.cpp:156] Memory required for data: 1132256544
I0403 15:24:05.639456  3039 layer_factory.hpp:77] Creating layer inception_4d/relu_5x5_reduce
I0403 15:24:05.639478  3039 net.cpp:91] Creating Layer inception_4d/relu_5x5_reduce
I0403 15:24:05.639495  3039 net.cpp:425] inception_4d/relu_5x5_reduce <- inception_4d/5x5_reduce
I0403 15:24:05.639514  3039 net.cpp:386] inception_4d/relu_5x5_reduce -> inception_4d/5x5_reduce (in-place)
I0403 15:24:05.639699  3039 net.cpp:141] Setting up inception_4d/relu_5x5_reduce
I0403 15:24:05.639727  3039 net.cpp:148] Top shape: 24 32 14 14 (150528)
I0403 15:24:05.639744  3039 net.cpp:156] Memory required for data: 1132858656
I0403 15:24:05.639758  3039 layer_factory.hpp:77] Creating layer inception_4d/5x5
I0403 15:24:05.639780  3039 net.cpp:91] Creating Layer inception_4d/5x5
I0403 15:24:05.639798  3039 net.cpp:425] inception_4d/5x5 <- inception_4d/5x5_reduce
I0403 15:24:05.639817  3039 net.cpp:399] inception_4d/5x5 -> inception_4d/5x5
I0403 15:24:05.641305  3039 net.cpp:141] Setting up inception_4d/5x5
I0403 15:24:05.641335  3039 net.cpp:148] Top shape: 24 64 14 14 (301056)
I0403 15:24:05.641352  3039 net.cpp:156] Memory required for data: 1134062880
I0403 15:24:05.641371  3039 layer_factory.hpp:77] Creating layer inception_4d/relu_5x5
I0403 15:24:05.641404  3039 net.cpp:91] Creating Layer inception_4d/relu_5x5
I0403 15:24:05.641422  3039 net.cpp:425] inception_4d/relu_5x5 <- inception_4d/5x5
I0403 15:24:05.641440  3039 net.cpp:386] inception_4d/relu_5x5 -> inception_4d/5x5 (in-place)
I0403 15:24:05.641743  3039 net.cpp:141] Setting up inception_4d/relu_5x5
I0403 15:24:05.641772  3039 net.cpp:148] Top shape: 24 64 14 14 (301056)
I0403 15:24:05.641788  3039 net.cpp:156] Memory required for data: 1135267104
I0403 15:24:05.641803  3039 layer_factory.hpp:77] Creating layer inception_4d/pool
I0403 15:24:05.641821  3039 net.cpp:91] Creating Layer inception_4d/pool
I0403 15:24:05.641837  3039 net.cpp:425] inception_4d/pool <- inception_4c/output_inception_4c/output_0_split_3
I0403 15:24:05.641858  3039 net.cpp:399] inception_4d/pool -> inception_4d/pool
I0403 15:24:05.641927  3039 net.cpp:141] Setting up inception_4d/pool
I0403 15:24:05.641949  3039 net.cpp:148] Top shape: 24 512 14 14 (2408448)
I0403 15:24:05.641964  3039 net.cpp:156] Memory required for data: 1144900896
I0403 15:24:05.641979  3039 layer_factory.hpp:77] Creating layer inception_4d/pool_proj
I0403 15:24:05.642001  3039 net.cpp:91] Creating Layer inception_4d/pool_proj
I0403 15:24:05.642021  3039 net.cpp:425] inception_4d/pool_proj <- inception_4d/pool
I0403 15:24:05.642041  3039 net.cpp:399] inception_4d/pool_proj -> inception_4d/pool_proj
I0403 15:24:05.643901  3039 net.cpp:141] Setting up inception_4d/pool_proj
I0403 15:24:05.643931  3039 net.cpp:148] Top shape: 24 64 14 14 (301056)
I0403 15:24:05.643947  3039 net.cpp:156] Memory required for data: 1146105120
I0403 15:24:05.643967  3039 layer_factory.hpp:77] Creating layer inception_4d/relu_pool_proj
I0403 15:24:05.643988  3039 net.cpp:91] Creating Layer inception_4d/relu_pool_proj
I0403 15:24:05.644008  3039 net.cpp:425] inception_4d/relu_pool_proj <- inception_4d/pool_proj
I0403 15:24:05.644028  3039 net.cpp:386] inception_4d/relu_pool_proj -> inception_4d/pool_proj (in-place)
I0403 15:24:05.644230  3039 net.cpp:141] Setting up inception_4d/relu_pool_proj
I0403 15:24:05.644259  3039 net.cpp:148] Top shape: 24 64 14 14 (301056)
I0403 15:24:05.644275  3039 net.cpp:156] Memory required for data: 1147309344
I0403 15:24:05.644291  3039 layer_factory.hpp:77] Creating layer inception_4d/output
I0403 15:24:05.644309  3039 net.cpp:91] Creating Layer inception_4d/output
I0403 15:24:05.644325  3039 net.cpp:425] inception_4d/output <- inception_4d/1x1
I0403 15:24:05.644343  3039 net.cpp:425] inception_4d/output <- inception_4d/3x3
I0403 15:24:05.644361  3039 net.cpp:425] inception_4d/output <- inception_4d/5x5
I0403 15:24:05.644377  3039 net.cpp:425] inception_4d/output <- inception_4d/pool_proj
I0403 15:24:05.644394  3039 net.cpp:399] inception_4d/output -> inception_4d/output
I0403 15:24:05.644456  3039 net.cpp:141] Setting up inception_4d/output
I0403 15:24:05.644479  3039 net.cpp:148] Top shape: 24 528 14 14 (2483712)
I0403 15:24:05.644495  3039 net.cpp:156] Memory required for data: 1157244192
I0403 15:24:05.644510  3039 layer_factory.hpp:77] Creating layer inception_4d/output_inception_4d/output_0_split
I0403 15:24:05.644527  3039 net.cpp:91] Creating Layer inception_4d/output_inception_4d/output_0_split
I0403 15:24:05.644543  3039 net.cpp:425] inception_4d/output_inception_4d/output_0_split <- inception_4d/output
I0403 15:24:05.644564  3039 net.cpp:399] inception_4d/output_inception_4d/output_0_split -> inception_4d/output_inception_4d/output_0_split_0
I0403 15:24:05.644585  3039 net.cpp:399] inception_4d/output_inception_4d/output_0_split -> inception_4d/output_inception_4d/output_0_split_1
I0403 15:24:05.644606  3039 net.cpp:399] inception_4d/output_inception_4d/output_0_split -> inception_4d/output_inception_4d/output_0_split_2
I0403 15:24:05.644631  3039 net.cpp:399] inception_4d/output_inception_4d/output_0_split -> inception_4d/output_inception_4d/output_0_split_3
I0403 15:24:05.644654  3039 net.cpp:399] inception_4d/output_inception_4d/output_0_split -> inception_4d/output_inception_4d/output_0_split_4
I0403 15:24:05.644755  3039 net.cpp:141] Setting up inception_4d/output_inception_4d/output_0_split
I0403 15:24:05.644791  3039 net.cpp:148] Top shape: 24 528 14 14 (2483712)
I0403 15:24:05.644809  3039 net.cpp:148] Top shape: 24 528 14 14 (2483712)
I0403 15:24:05.644825  3039 net.cpp:148] Top shape: 24 528 14 14 (2483712)
I0403 15:24:05.644841  3039 net.cpp:148] Top shape: 24 528 14 14 (2483712)
I0403 15:24:05.644857  3039 net.cpp:148] Top shape: 24 528 14 14 (2483712)
I0403 15:24:05.644871  3039 net.cpp:156] Memory required for data: 1206918432
I0403 15:24:05.644886  3039 layer_factory.hpp:77] Creating layer loss2/ave_pool
I0403 15:24:05.644903  3039 net.cpp:91] Creating Layer loss2/ave_pool
I0403 15:24:05.644919  3039 net.cpp:425] loss2/ave_pool <- inception_4d/output_inception_4d/output_0_split_0
I0403 15:24:05.644940  3039 net.cpp:399] loss2/ave_pool -> loss2/ave_pool
I0403 15:24:05.645262  3039 net.cpp:141] Setting up loss2/ave_pool
I0403 15:24:05.645288  3039 net.cpp:148] Top shape: 24 528 4 4 (202752)
I0403 15:24:05.645304  3039 net.cpp:156] Memory required for data: 1207729440
I0403 15:24:05.645319  3039 layer_factory.hpp:77] Creating layer loss2/conv
I0403 15:24:05.645342  3039 net.cpp:91] Creating Layer loss2/conv
I0403 15:24:05.645360  3039 net.cpp:425] loss2/conv <- loss2/ave_pool
I0403 15:24:05.645385  3039 net.cpp:399] loss2/conv -> loss2/conv
I0403 15:24:05.647294  3039 net.cpp:141] Setting up loss2/conv
I0403 15:24:05.647325  3039 net.cpp:148] Top shape: 24 128 4 4 (49152)
I0403 15:24:05.647341  3039 net.cpp:156] Memory required for data: 1207926048
I0403 15:24:05.647359  3039 layer_factory.hpp:77] Creating layer loss2/relu_conv
I0403 15:24:05.647378  3039 net.cpp:91] Creating Layer loss2/relu_conv
I0403 15:24:05.647394  3039 net.cpp:425] loss2/relu_conv <- loss2/conv
I0403 15:24:05.647414  3039 net.cpp:386] loss2/relu_conv -> loss2/conv (in-place)
I0403 15:24:05.647701  3039 net.cpp:141] Setting up loss2/relu_conv
I0403 15:24:05.647729  3039 net.cpp:148] Top shape: 24 128 4 4 (49152)
I0403 15:24:05.647745  3039 net.cpp:156] Memory required for data: 1208122656
I0403 15:24:05.647760  3039 layer_factory.hpp:77] Creating layer loss2/fc
I0403 15:24:05.647780  3039 net.cpp:91] Creating Layer loss2/fc
I0403 15:24:05.647799  3039 net.cpp:425] loss2/fc <- loss2/conv
I0403 15:24:05.647821  3039 net.cpp:399] loss2/fc -> loss2/fc
I0403 15:24:05.665794  3039 net.cpp:141] Setting up loss2/fc
I0403 15:24:05.665827  3039 net.cpp:148] Top shape: 24 1024 (24576)
I0403 15:24:05.665843  3039 net.cpp:156] Memory required for data: 1208220960
I0403 15:24:05.665863  3039 layer_factory.hpp:77] Creating layer loss2/relu_fc
I0403 15:24:05.665884  3039 net.cpp:91] Creating Layer loss2/relu_fc
I0403 15:24:05.665904  3039 net.cpp:425] loss2/relu_fc <- loss2/fc
I0403 15:24:05.665922  3039 net.cpp:386] loss2/relu_fc -> loss2/fc (in-place)
I0403 15:24:05.666259  3039 net.cpp:141] Setting up loss2/relu_fc
I0403 15:24:05.666286  3039 net.cpp:148] Top shape: 24 1024 (24576)
I0403 15:24:05.666302  3039 net.cpp:156] Memory required for data: 1208319264
I0403 15:24:05.666318  3039 layer_factory.hpp:77] Creating layer loss2/drop_fc
I0403 15:24:05.666340  3039 net.cpp:91] Creating Layer loss2/drop_fc
I0403 15:24:05.666358  3039 net.cpp:425] loss2/drop_fc <- loss2/fc
I0403 15:24:05.666378  3039 net.cpp:386] loss2/drop_fc -> loss2/fc (in-place)
I0403 15:24:05.666431  3039 net.cpp:141] Setting up loss2/drop_fc
I0403 15:24:05.666455  3039 net.cpp:148] Top shape: 24 1024 (24576)
I0403 15:24:05.666470  3039 net.cpp:156] Memory required for data: 1208417568
I0403 15:24:05.666484  3039 layer_factory.hpp:77] Creating layer loss2/classifier_plantvillage
I0403 15:24:05.666504  3039 net.cpp:91] Creating Layer loss2/classifier_plantvillage
I0403 15:24:05.666520  3039 net.cpp:425] loss2/classifier_plantvillage <- loss2/fc
I0403 15:24:05.666543  3039 net.cpp:399] loss2/classifier_plantvillage -> loss2/classifier_plantvillage
I0403 15:24:05.666966  3039 net.cpp:141] Setting up loss2/classifier_plantvillage
I0403 15:24:05.666993  3039 net.cpp:148] Top shape: 24 38 (912)
I0403 15:24:05.667031  3039 net.cpp:156] Memory required for data: 1208421216
I0403 15:24:05.667050  3039 layer_factory.hpp:77] Creating layer loss2/classifier_plantvillage_loss2/classifier_plantvillage_0_split
I0403 15:24:05.667069  3039 net.cpp:91] Creating Layer loss2/classifier_plantvillage_loss2/classifier_plantvillage_0_split
I0403 15:24:05.667086  3039 net.cpp:425] loss2/classifier_plantvillage_loss2/classifier_plantvillage_0_split <- loss2/classifier_plantvillage
I0403 15:24:05.667107  3039 net.cpp:399] loss2/classifier_plantvillage_loss2/classifier_plantvillage_0_split -> loss2/classifier_plantvillage_loss2/classifier_plantvillage_0_split_0
I0403 15:24:05.667129  3039 net.cpp:399] loss2/classifier_plantvillage_loss2/classifier_plantvillage_0_split -> loss2/classifier_plantvillage_loss2/classifier_plantvillage_0_split_1
I0403 15:24:05.667152  3039 net.cpp:399] loss2/classifier_plantvillage_loss2/classifier_plantvillage_0_split -> loss2/classifier_plantvillage_loss2/classifier_plantvillage_0_split_2
I0403 15:24:05.667238  3039 net.cpp:141] Setting up loss2/classifier_plantvillage_loss2/classifier_plantvillage_0_split
I0403 15:24:05.667265  3039 net.cpp:148] Top shape: 24 38 (912)
I0403 15:24:05.667282  3039 net.cpp:148] Top shape: 24 38 (912)
I0403 15:24:05.667301  3039 net.cpp:148] Top shape: 24 38 (912)
I0403 15:24:05.667315  3039 net.cpp:156] Memory required for data: 1208432160
I0403 15:24:05.667330  3039 layer_factory.hpp:77] Creating layer inception_4e/1x1
I0403 15:24:05.667351  3039 net.cpp:91] Creating Layer inception_4e/1x1
I0403 15:24:05.667368  3039 net.cpp:425] inception_4e/1x1 <- inception_4d/output_inception_4d/output_0_split_1
I0403 15:24:05.667388  3039 net.cpp:399] inception_4e/1x1 -> inception_4e/1x1
I0403 15:24:05.669353  3039 net.cpp:141] Setting up inception_4e/1x1
I0403 15:24:05.669383  3039 net.cpp:148] Top shape: 24 256 14 14 (1204224)
I0403 15:24:05.669399  3039 net.cpp:156] Memory required for data: 1213249056
I0403 15:24:05.669419  3039 layer_factory.hpp:77] Creating layer inception_4e/relu_1x1
I0403 15:24:05.669440  3039 net.cpp:91] Creating Layer inception_4e/relu_1x1
I0403 15:24:05.669456  3039 net.cpp:425] inception_4e/relu_1x1 <- inception_4e/1x1
I0403 15:24:05.669477  3039 net.cpp:386] inception_4e/relu_1x1 -> inception_4e/1x1 (in-place)
I0403 15:24:05.669796  3039 net.cpp:141] Setting up inception_4e/relu_1x1
I0403 15:24:05.669824  3039 net.cpp:148] Top shape: 24 256 14 14 (1204224)
I0403 15:24:05.669842  3039 net.cpp:156] Memory required for data: 1218065952
I0403 15:24:05.669857  3039 layer_factory.hpp:77] Creating layer inception_4e/3x3_reduce
I0403 15:24:05.669881  3039 net.cpp:91] Creating Layer inception_4e/3x3_reduce
I0403 15:24:05.669900  3039 net.cpp:425] inception_4e/3x3_reduce <- inception_4d/output_inception_4d/output_0_split_2
I0403 15:24:05.669924  3039 net.cpp:399] inception_4e/3x3_reduce -> inception_4e/3x3_reduce
I0403 15:24:05.672211  3039 net.cpp:141] Setting up inception_4e/3x3_reduce
I0403 15:24:05.672245  3039 net.cpp:148] Top shape: 24 160 14 14 (752640)
I0403 15:24:05.672262  3039 net.cpp:156] Memory required for data: 1221076512
I0403 15:24:05.672283  3039 layer_factory.hpp:77] Creating layer inception_4e/relu_3x3_reduce
I0403 15:24:05.672302  3039 net.cpp:91] Creating Layer inception_4e/relu_3x3_reduce
I0403 15:24:05.672320  3039 net.cpp:425] inception_4e/relu_3x3_reduce <- inception_4e/3x3_reduce
I0403 15:24:05.672341  3039 net.cpp:386] inception_4e/relu_3x3_reduce -> inception_4e/3x3_reduce (in-place)
I0403 15:24:05.672544  3039 net.cpp:141] Setting up inception_4e/relu_3x3_reduce
I0403 15:24:05.672570  3039 net.cpp:148] Top shape: 24 160 14 14 (752640)
I0403 15:24:05.672586  3039 net.cpp:156] Memory required for data: 1224087072
I0403 15:24:05.672601  3039 layer_factory.hpp:77] Creating layer inception_4e/3x3
I0403 15:24:05.672626  3039 net.cpp:91] Creating Layer inception_4e/3x3
I0403 15:24:05.672646  3039 net.cpp:425] inception_4e/3x3 <- inception_4e/3x3_reduce
I0403 15:24:05.672668  3039 net.cpp:399] inception_4e/3x3 -> inception_4e/3x3
I0403 15:24:05.678031  3039 net.cpp:141] Setting up inception_4e/3x3
I0403 15:24:05.678076  3039 net.cpp:148] Top shape: 24 320 14 14 (1505280)
I0403 15:24:05.678094  3039 net.cpp:156] Memory required for data: 1230108192
I0403 15:24:05.678114  3039 layer_factory.hpp:77] Creating layer inception_4e/relu_3x3
I0403 15:24:05.678133  3039 net.cpp:91] Creating Layer inception_4e/relu_3x3
I0403 15:24:05.678151  3039 net.cpp:425] inception_4e/relu_3x3 <- inception_4e/3x3
I0403 15:24:05.678172  3039 net.cpp:386] inception_4e/relu_3x3 -> inception_4e/3x3 (in-place)
I0403 15:24:05.678506  3039 net.cpp:141] Setting up inception_4e/relu_3x3
I0403 15:24:05.678535  3039 net.cpp:148] Top shape: 24 320 14 14 (1505280)
I0403 15:24:05.678551  3039 net.cpp:156] Memory required for data: 1236129312
I0403 15:24:05.678568  3039 layer_factory.hpp:77] Creating layer inception_4e/5x5_reduce
I0403 15:24:05.678596  3039 net.cpp:91] Creating Layer inception_4e/5x5_reduce
I0403 15:24:05.678616  3039 net.cpp:425] inception_4e/5x5_reduce <- inception_4d/output_inception_4d/output_0_split_3
I0403 15:24:05.678639  3039 net.cpp:399] inception_4e/5x5_reduce -> inception_4e/5x5_reduce
I0403 15:24:05.679806  3039 net.cpp:141] Setting up inception_4e/5x5_reduce
I0403 15:24:05.679838  3039 net.cpp:148] Top shape: 24 32 14 14 (150528)
I0403 15:24:05.679855  3039 net.cpp:156] Memory required for data: 1236731424
I0403 15:24:05.679877  3039 layer_factory.hpp:77] Creating layer inception_4e/relu_5x5_reduce
I0403 15:24:05.679895  3039 net.cpp:91] Creating Layer inception_4e/relu_5x5_reduce
I0403 15:24:05.679913  3039 net.cpp:425] inception_4e/relu_5x5_reduce <- inception_4e/5x5_reduce
I0403 15:24:05.679931  3039 net.cpp:386] inception_4e/relu_5x5_reduce -> inception_4e/5x5_reduce (in-place)
I0403 15:24:05.680264  3039 net.cpp:141] Setting up inception_4e/relu_5x5_reduce
I0403 15:24:05.680296  3039 net.cpp:148] Top shape: 24 32 14 14 (150528)
I0403 15:24:05.680315  3039 net.cpp:156] Memory required for data: 1237333536
I0403 15:24:05.680330  3039 layer_factory.hpp:77] Creating layer inception_4e/5x5
I0403 15:24:05.680373  3039 net.cpp:91] Creating Layer inception_4e/5x5
I0403 15:24:05.680394  3039 net.cpp:425] inception_4e/5x5 <- inception_4e/5x5_reduce
I0403 15:24:05.680415  3039 net.cpp:399] inception_4e/5x5 -> inception_4e/5x5
I0403 15:24:05.682417  3039 net.cpp:141] Setting up inception_4e/5x5
I0403 15:24:05.682449  3039 net.cpp:148] Top shape: 24 128 14 14 (602112)
I0403 15:24:05.682466  3039 net.cpp:156] Memory required for data: 1239741984
I0403 15:24:05.682487  3039 layer_factory.hpp:77] Creating layer inception_4e/relu_5x5
I0403 15:24:05.682508  3039 net.cpp:91] Creating Layer inception_4e/relu_5x5
I0403 15:24:05.682526  3039 net.cpp:425] inception_4e/relu_5x5 <- inception_4e/5x5
I0403 15:24:05.682545  3039 net.cpp:386] inception_4e/relu_5x5 -> inception_4e/5x5 (in-place)
I0403 15:24:05.682760  3039 net.cpp:141] Setting up inception_4e/relu_5x5
I0403 15:24:05.682788  3039 net.cpp:148] Top shape: 24 128 14 14 (602112)
I0403 15:24:05.682804  3039 net.cpp:156] Memory required for data: 1242150432
I0403 15:24:05.682821  3039 layer_factory.hpp:77] Creating layer inception_4e/pool
I0403 15:24:05.682840  3039 net.cpp:91] Creating Layer inception_4e/pool
I0403 15:24:05.682858  3039 net.cpp:425] inception_4e/pool <- inception_4d/output_inception_4d/output_0_split_4
I0403 15:24:05.682879  3039 net.cpp:399] inception_4e/pool -> inception_4e/pool
I0403 15:24:05.682956  3039 net.cpp:141] Setting up inception_4e/pool
I0403 15:24:05.682982  3039 net.cpp:148] Top shape: 24 528 14 14 (2483712)
I0403 15:24:05.682998  3039 net.cpp:156] Memory required for data: 1252085280
I0403 15:24:05.683014  3039 layer_factory.hpp:77] Creating layer inception_4e/pool_proj
I0403 15:24:05.683038  3039 net.cpp:91] Creating Layer inception_4e/pool_proj
I0403 15:24:05.683056  3039 net.cpp:425] inception_4e/pool_proj <- inception_4e/pool
I0403 15:24:05.683079  3039 net.cpp:399] inception_4e/pool_proj -> inception_4e/pool_proj
I0403 15:24:05.684720  3039 net.cpp:141] Setting up inception_4e/pool_proj
I0403 15:24:05.684762  3039 net.cpp:148] Top shape: 24 128 14 14 (602112)
I0403 15:24:05.684779  3039 net.cpp:156] Memory required for data: 1254493728
I0403 15:24:05.684798  3039 layer_factory.hpp:77] Creating layer inception_4e/relu_pool_proj
I0403 15:24:05.684820  3039 net.cpp:91] Creating Layer inception_4e/relu_pool_proj
I0403 15:24:05.684839  3039 net.cpp:425] inception_4e/relu_pool_proj <- inception_4e/pool_proj
I0403 15:24:05.684857  3039 net.cpp:386] inception_4e/relu_pool_proj -> inception_4e/pool_proj (in-place)
I0403 15:24:05.685175  3039 net.cpp:141] Setting up inception_4e/relu_pool_proj
I0403 15:24:05.685204  3039 net.cpp:148] Top shape: 24 128 14 14 (602112)
I0403 15:24:05.685225  3039 net.cpp:156] Memory required for data: 1256902176
I0403 15:24:05.685241  3039 layer_factory.hpp:77] Creating layer inception_4e/output
I0403 15:24:05.685263  3039 net.cpp:91] Creating Layer inception_4e/output
I0403 15:24:05.685281  3039 net.cpp:425] inception_4e/output <- inception_4e/1x1
I0403 15:24:05.685299  3039 net.cpp:425] inception_4e/output <- inception_4e/3x3
I0403 15:24:05.685317  3039 net.cpp:425] inception_4e/output <- inception_4e/5x5
I0403 15:24:05.685334  3039 net.cpp:425] inception_4e/output <- inception_4e/pool_proj
I0403 15:24:05.685353  3039 net.cpp:399] inception_4e/output -> inception_4e/output
I0403 15:24:05.685407  3039 net.cpp:141] Setting up inception_4e/output
I0403 15:24:05.685432  3039 net.cpp:148] Top shape: 24 832 14 14 (3913728)
I0403 15:24:05.685448  3039 net.cpp:156] Memory required for data: 1272557088
I0403 15:24:05.685463  3039 layer_factory.hpp:77] Creating layer pool4/3x3_s2
I0403 15:24:05.685482  3039 net.cpp:91] Creating Layer pool4/3x3_s2
I0403 15:24:05.685498  3039 net.cpp:425] pool4/3x3_s2 <- inception_4e/output
I0403 15:24:05.685521  3039 net.cpp:399] pool4/3x3_s2 -> pool4/3x3_s2
I0403 15:24:05.685595  3039 net.cpp:141] Setting up pool4/3x3_s2
I0403 15:24:05.685622  3039 net.cpp:148] Top shape: 24 832 7 7 (978432)
I0403 15:24:05.685638  3039 net.cpp:156] Memory required for data: 1276470816
I0403 15:24:05.685655  3039 layer_factory.hpp:77] Creating layer pool4/3x3_s2_pool4/3x3_s2_0_split
I0403 15:24:05.685674  3039 net.cpp:91] Creating Layer pool4/3x3_s2_pool4/3x3_s2_0_split
I0403 15:24:05.685690  3039 net.cpp:425] pool4/3x3_s2_pool4/3x3_s2_0_split <- pool4/3x3_s2
I0403 15:24:05.685709  3039 net.cpp:399] pool4/3x3_s2_pool4/3x3_s2_0_split -> pool4/3x3_s2_pool4/3x3_s2_0_split_0
I0403 15:24:05.685734  3039 net.cpp:399] pool4/3x3_s2_pool4/3x3_s2_0_split -> pool4/3x3_s2_pool4/3x3_s2_0_split_1
I0403 15:24:05.685756  3039 net.cpp:399] pool4/3x3_s2_pool4/3x3_s2_0_split -> pool4/3x3_s2_pool4/3x3_s2_0_split_2
I0403 15:24:05.685778  3039 net.cpp:399] pool4/3x3_s2_pool4/3x3_s2_0_split -> pool4/3x3_s2_pool4/3x3_s2_0_split_3
I0403 15:24:05.685878  3039 net.cpp:141] Setting up pool4/3x3_s2_pool4/3x3_s2_0_split
I0403 15:24:05.685904  3039 net.cpp:148] Top shape: 24 832 7 7 (978432)
I0403 15:24:05.685921  3039 net.cpp:148] Top shape: 24 832 7 7 (978432)
I0403 15:24:05.685938  3039 net.cpp:148] Top shape: 24 832 7 7 (978432)
I0403 15:24:05.685956  3039 net.cpp:148] Top shape: 24 832 7 7 (978432)
I0403 15:24:05.685971  3039 net.cpp:156] Memory required for data: 1292125728
I0403 15:24:05.685986  3039 layer_factory.hpp:77] Creating layer inception_5a/1x1
I0403 15:24:05.686009  3039 net.cpp:91] Creating Layer inception_5a/1x1
I0403 15:24:05.686030  3039 net.cpp:425] inception_5a/1x1 <- pool4/3x3_s2_pool4/3x3_s2_0_split_0
I0403 15:24:05.686050  3039 net.cpp:399] inception_5a/1x1 -> inception_5a/1x1
I0403 15:24:05.689067  3039 net.cpp:141] Setting up inception_5a/1x1
I0403 15:24:05.689097  3039 net.cpp:148] Top shape: 24 256 7 7 (301056)
I0403 15:24:05.689115  3039 net.cpp:156] Memory required for data: 1293329952
I0403 15:24:05.689133  3039 layer_factory.hpp:77] Creating layer inception_5a/relu_1x1
I0403 15:24:05.689154  3039 net.cpp:91] Creating Layer inception_5a/relu_1x1
I0403 15:24:05.689173  3039 net.cpp:425] inception_5a/relu_1x1 <- inception_5a/1x1
I0403 15:24:05.689193  3039 net.cpp:386] inception_5a/relu_1x1 -> inception_5a/1x1 (in-place)
I0403 15:24:05.689527  3039 net.cpp:141] Setting up inception_5a/relu_1x1
I0403 15:24:05.689554  3039 net.cpp:148] Top shape: 24 256 7 7 (301056)
I0403 15:24:05.689570  3039 net.cpp:156] Memory required for data: 1294534176
I0403 15:24:05.689586  3039 layer_factory.hpp:77] Creating layer inception_5a/3x3_reduce
I0403 15:24:05.689613  3039 net.cpp:91] Creating Layer inception_5a/3x3_reduce
I0403 15:24:05.689632  3039 net.cpp:425] inception_5a/3x3_reduce <- pool4/3x3_s2_pool4/3x3_s2_0_split_1
I0403 15:24:05.689652  3039 net.cpp:399] inception_5a/3x3_reduce -> inception_5a/3x3_reduce
I0403 15:24:05.692199  3039 net.cpp:141] Setting up inception_5a/3x3_reduce
I0403 15:24:05.692232  3039 net.cpp:148] Top shape: 24 160 7 7 (188160)
I0403 15:24:05.692250  3039 net.cpp:156] Memory required for data: 1295286816
I0403 15:24:05.692270  3039 layer_factory.hpp:77] Creating layer inception_5a/relu_3x3_reduce
I0403 15:24:05.692291  3039 net.cpp:91] Creating Layer inception_5a/relu_3x3_reduce
I0403 15:24:05.692308  3039 net.cpp:425] inception_5a/relu_3x3_reduce <- inception_5a/3x3_reduce
I0403 15:24:05.692327  3039 net.cpp:386] inception_5a/relu_3x3_reduce -> inception_5a/3x3_reduce (in-place)
I0403 15:24:05.692523  3039 net.cpp:141] Setting up inception_5a/relu_3x3_reduce
I0403 15:24:05.692549  3039 net.cpp:148] Top shape: 24 160 7 7 (188160)
I0403 15:24:05.692564  3039 net.cpp:156] Memory required for data: 1296039456
I0403 15:24:05.692580  3039 layer_factory.hpp:77] Creating layer inception_5a/3x3
I0403 15:24:05.692605  3039 net.cpp:91] Creating Layer inception_5a/3x3
I0403 15:24:05.692625  3039 net.cpp:425] inception_5a/3x3 <- inception_5a/3x3_reduce
I0403 15:24:05.692644  3039 net.cpp:399] inception_5a/3x3 -> inception_5a/3x3
I0403 15:24:05.697907  3039 net.cpp:141] Setting up inception_5a/3x3
I0403 15:24:05.697940  3039 net.cpp:148] Top shape: 24 320 7 7 (376320)
I0403 15:24:05.697958  3039 net.cpp:156] Memory required for data: 1297544736
I0403 15:24:05.697978  3039 layer_factory.hpp:77] Creating layer inception_5a/relu_3x3
I0403 15:24:05.697996  3039 net.cpp:91] Creating Layer inception_5a/relu_3x3
I0403 15:24:05.698014  3039 net.cpp:425] inception_5a/relu_3x3 <- inception_5a/3x3
I0403 15:24:05.698031  3039 net.cpp:386] inception_5a/relu_3x3 -> inception_5a/3x3 (in-place)
I0403 15:24:05.698343  3039 net.cpp:141] Setting up inception_5a/relu_3x3
I0403 15:24:05.698374  3039 net.cpp:148] Top shape: 24 320 7 7 (376320)
I0403 15:24:05.698390  3039 net.cpp:156] Memory required for data: 1299050016
I0403 15:24:05.698405  3039 layer_factory.hpp:77] Creating layer inception_5a/5x5_reduce
I0403 15:24:05.698427  3039 net.cpp:91] Creating Layer inception_5a/5x5_reduce
I0403 15:24:05.698446  3039 net.cpp:425] inception_5a/5x5_reduce <- pool4/3x3_s2_pool4/3x3_s2_0_split_2
I0403 15:24:05.698468  3039 net.cpp:399] inception_5a/5x5_reduce -> inception_5a/5x5_reduce
I0403 15:24:05.699700  3039 net.cpp:141] Setting up inception_5a/5x5_reduce
I0403 15:24:05.699731  3039 net.cpp:148] Top shape: 24 32 7 7 (37632)
I0403 15:24:05.699748  3039 net.cpp:156] Memory required for data: 1299200544
I0403 15:24:05.699769  3039 layer_factory.hpp:77] Creating layer inception_5a/relu_5x5_reduce
I0403 15:24:05.699787  3039 net.cpp:91] Creating Layer inception_5a/relu_5x5_reduce
I0403 15:24:05.699805  3039 net.cpp:425] inception_5a/relu_5x5_reduce <- inception_5a/5x5_reduce
I0403 15:24:05.699825  3039 net.cpp:386] inception_5a/relu_5x5_reduce -> inception_5a/5x5_reduce (in-place)
I0403 15:24:05.700136  3039 net.cpp:141] Setting up inception_5a/relu_5x5_reduce
I0403 15:24:05.700166  3039 net.cpp:148] Top shape: 24 32 7 7 (37632)
I0403 15:24:05.700183  3039 net.cpp:156] Memory required for data: 1299351072
I0403 15:24:05.700201  3039 layer_factory.hpp:77] Creating layer inception_5a/5x5
I0403 15:24:05.700230  3039 net.cpp:91] Creating Layer inception_5a/5x5
I0403 15:24:05.700249  3039 net.cpp:425] inception_5a/5x5 <- inception_5a/5x5_reduce
I0403 15:24:05.700269  3039 net.cpp:399] inception_5a/5x5 -> inception_5a/5x5
I0403 15:24:05.702062  3039 net.cpp:141] Setting up inception_5a/5x5
I0403 15:24:05.702108  3039 net.cpp:148] Top shape: 24 128 7 7 (150528)
I0403 15:24:05.702126  3039 net.cpp:156] Memory required for data: 1299953184
I0403 15:24:05.702145  3039 layer_factory.hpp:77] Creating layer inception_5a/relu_5x5
I0403 15:24:05.702163  3039 net.cpp:91] Creating Layer inception_5a/relu_5x5
I0403 15:24:05.702180  3039 net.cpp:425] inception_5a/relu_5x5 <- inception_5a/5x5
I0403 15:24:05.702198  3039 net.cpp:386] inception_5a/relu_5x5 -> inception_5a/5x5 (in-place)
I0403 15:24:05.702415  3039 net.cpp:141] Setting up inception_5a/relu_5x5
I0403 15:24:05.702445  3039 net.cpp:148] Top shape: 24 128 7 7 (150528)
I0403 15:24:05.702461  3039 net.cpp:156] Memory required for data: 1300555296
I0403 15:24:05.702474  3039 layer_factory.hpp:77] Creating layer inception_5a/pool
I0403 15:24:05.702492  3039 net.cpp:91] Creating Layer inception_5a/pool
I0403 15:24:05.702509  3039 net.cpp:425] inception_5a/pool <- pool4/3x3_s2_pool4/3x3_s2_0_split_3
I0403 15:24:05.702529  3039 net.cpp:399] inception_5a/pool -> inception_5a/pool
I0403 15:24:05.702602  3039 net.cpp:141] Setting up inception_5a/pool
I0403 15:24:05.702628  3039 net.cpp:148] Top shape: 24 832 7 7 (978432)
I0403 15:24:05.702644  3039 net.cpp:156] Memory required for data: 1304469024
I0403 15:24:05.702658  3039 layer_factory.hpp:77] Creating layer inception_5a/pool_proj
I0403 15:24:05.702678  3039 net.cpp:91] Creating Layer inception_5a/pool_proj
I0403 15:24:05.702697  3039 net.cpp:425] inception_5a/pool_proj <- inception_5a/pool
I0403 15:24:05.702718  3039 net.cpp:399] inception_5a/pool_proj -> inception_5a/pool_proj
I0403 15:24:05.705031  3039 net.cpp:141] Setting up inception_5a/pool_proj
I0403 15:24:05.705060  3039 net.cpp:148] Top shape: 24 128 7 7 (150528)
I0403 15:24:05.705076  3039 net.cpp:156] Memory required for data: 1305071136
I0403 15:24:05.705095  3039 layer_factory.hpp:77] Creating layer inception_5a/relu_pool_proj
I0403 15:24:05.705116  3039 net.cpp:91] Creating Layer inception_5a/relu_pool_proj
I0403 15:24:05.705132  3039 net.cpp:425] inception_5a/relu_pool_proj <- inception_5a/pool_proj
I0403 15:24:05.705150  3039 net.cpp:386] inception_5a/relu_pool_proj -> inception_5a/pool_proj (in-place)
I0403 15:24:05.705456  3039 net.cpp:141] Setting up inception_5a/relu_pool_proj
I0403 15:24:05.705482  3039 net.cpp:148] Top shape: 24 128 7 7 (150528)
I0403 15:24:05.705497  3039 net.cpp:156] Memory required for data: 1305673248
I0403 15:24:05.705512  3039 layer_factory.hpp:77] Creating layer inception_5a/output
I0403 15:24:05.705531  3039 net.cpp:91] Creating Layer inception_5a/output
I0403 15:24:05.705549  3039 net.cpp:425] inception_5a/output <- inception_5a/1x1
I0403 15:24:05.705566  3039 net.cpp:425] inception_5a/output <- inception_5a/3x3
I0403 15:24:05.705584  3039 net.cpp:425] inception_5a/output <- inception_5a/5x5
I0403 15:24:05.705600  3039 net.cpp:425] inception_5a/output <- inception_5a/pool_proj
I0403 15:24:05.705616  3039 net.cpp:399] inception_5a/output -> inception_5a/output
I0403 15:24:05.705669  3039 net.cpp:141] Setting up inception_5a/output
I0403 15:24:05.705693  3039 net.cpp:148] Top shape: 24 832 7 7 (978432)
I0403 15:24:05.705708  3039 net.cpp:156] Memory required for data: 1309586976
I0403 15:24:05.705723  3039 layer_factory.hpp:77] Creating layer inception_5a/output_inception_5a/output_0_split
I0403 15:24:05.705739  3039 net.cpp:91] Creating Layer inception_5a/output_inception_5a/output_0_split
I0403 15:24:05.705755  3039 net.cpp:425] inception_5a/output_inception_5a/output_0_split <- inception_5a/output
I0403 15:24:05.705775  3039 net.cpp:399] inception_5a/output_inception_5a/output_0_split -> inception_5a/output_inception_5a/output_0_split_0
I0403 15:24:05.705796  3039 net.cpp:399] inception_5a/output_inception_5a/output_0_split -> inception_5a/output_inception_5a/output_0_split_1
I0403 15:24:05.705817  3039 net.cpp:399] inception_5a/output_inception_5a/output_0_split -> inception_5a/output_inception_5a/output_0_split_2
I0403 15:24:05.705837  3039 net.cpp:399] inception_5a/output_inception_5a/output_0_split -> inception_5a/output_inception_5a/output_0_split_3
I0403 15:24:05.705952  3039 net.cpp:141] Setting up inception_5a/output_inception_5a/output_0_split
I0403 15:24:05.705978  3039 net.cpp:148] Top shape: 24 832 7 7 (978432)
I0403 15:24:05.705996  3039 net.cpp:148] Top shape: 24 832 7 7 (978432)
I0403 15:24:05.706012  3039 net.cpp:148] Top shape: 24 832 7 7 (978432)
I0403 15:24:05.706027  3039 net.cpp:148] Top shape: 24 832 7 7 (978432)
I0403 15:24:05.706042  3039 net.cpp:156] Memory required for data: 1325241888
I0403 15:24:05.706056  3039 layer_factory.hpp:77] Creating layer inception_5b/1x1
I0403 15:24:05.706079  3039 net.cpp:91] Creating Layer inception_5b/1x1
I0403 15:24:05.706097  3039 net.cpp:425] inception_5b/1x1 <- inception_5a/output_inception_5a/output_0_split_0
I0403 15:24:05.706117  3039 net.cpp:399] inception_5b/1x1 -> inception_5b/1x1
I0403 15:24:05.709967  3039 net.cpp:141] Setting up inception_5b/1x1
I0403 15:24:05.709998  3039 net.cpp:148] Top shape: 24 384 7 7 (451584)
I0403 15:24:05.710016  3039 net.cpp:156] Memory required for data: 1327048224
I0403 15:24:05.710034  3039 layer_factory.hpp:77] Creating layer inception_5b/relu_1x1
I0403 15:24:05.710055  3039 net.cpp:91] Creating Layer inception_5b/relu_1x1
I0403 15:24:05.710073  3039 net.cpp:425] inception_5b/relu_1x1 <- inception_5b/1x1
I0403 15:24:05.710091  3039 net.cpp:386] inception_5b/relu_1x1 -> inception_5b/1x1 (in-place)
I0403 15:24:05.710413  3039 net.cpp:141] Setting up inception_5b/relu_1x1
I0403 15:24:05.710443  3039 net.cpp:148] Top shape: 24 384 7 7 (451584)
I0403 15:24:05.710459  3039 net.cpp:156] Memory required for data: 1328854560
I0403 15:24:05.710474  3039 layer_factory.hpp:77] Creating layer inception_5b/3x3_reduce
I0403 15:24:05.710499  3039 net.cpp:91] Creating Layer inception_5b/3x3_reduce
I0403 15:24:05.710517  3039 net.cpp:425] inception_5b/3x3_reduce <- inception_5a/output_inception_5a/output_0_split_1
I0403 15:24:05.710539  3039 net.cpp:399] inception_5b/3x3_reduce -> inception_5b/3x3_reduce
I0403 15:24:05.713264  3039 net.cpp:141] Setting up inception_5b/3x3_reduce
I0403 15:24:05.713294  3039 net.cpp:148] Top shape: 24 192 7 7 (225792)
I0403 15:24:05.713310  3039 net.cpp:156] Memory required for data: 1329757728
I0403 15:24:05.713330  3039 layer_factory.hpp:77] Creating layer inception_5b/relu_3x3_reduce
I0403 15:24:05.713349  3039 net.cpp:91] Creating Layer inception_5b/relu_3x3_reduce
I0403 15:24:05.713367  3039 net.cpp:425] inception_5b/relu_3x3_reduce <- inception_5b/3x3_reduce
I0403 15:24:05.713385  3039 net.cpp:386] inception_5b/relu_3x3_reduce -> inception_5b/3x3_reduce (in-place)
I0403 15:24:05.713579  3039 net.cpp:141] Setting up inception_5b/relu_3x3_reduce
I0403 15:24:05.713606  3039 net.cpp:148] Top shape: 24 192 7 7 (225792)
I0403 15:24:05.713623  3039 net.cpp:156] Memory required for data: 1330660896
I0403 15:24:05.713637  3039 layer_factory.hpp:77] Creating layer inception_5b/3x3
I0403 15:24:05.713660  3039 net.cpp:91] Creating Layer inception_5b/3x3
I0403 15:24:05.713677  3039 net.cpp:425] inception_5b/3x3 <- inception_5b/3x3_reduce
I0403 15:24:05.713696  3039 net.cpp:399] inception_5b/3x3 -> inception_5b/3x3
I0403 15:24:05.720448  3039 net.cpp:141] Setting up inception_5b/3x3
I0403 15:24:05.720476  3039 net.cpp:148] Top shape: 24 384 7 7 (451584)
I0403 15:24:05.720492  3039 net.cpp:156] Memory required for data: 1332467232
I0403 15:24:05.720511  3039 layer_factory.hpp:77] Creating layer inception_5b/relu_3x3
I0403 15:24:05.720531  3039 net.cpp:91] Creating Layer inception_5b/relu_3x3
I0403 15:24:05.720548  3039 net.cpp:425] inception_5b/relu_3x3 <- inception_5b/3x3
I0403 15:24:05.720566  3039 net.cpp:386] inception_5b/relu_3x3 -> inception_5b/3x3 (in-place)
I0403 15:24:05.720871  3039 net.cpp:141] Setting up inception_5b/relu_3x3
I0403 15:24:05.720898  3039 net.cpp:148] Top shape: 24 384 7 7 (451584)
I0403 15:24:05.720913  3039 net.cpp:156] Memory required for data: 1334273568
I0403 15:24:05.720928  3039 layer_factory.hpp:77] Creating layer inception_5b/5x5_reduce
I0403 15:24:05.720966  3039 net.cpp:91] Creating Layer inception_5b/5x5_reduce
I0403 15:24:05.720985  3039 net.cpp:425] inception_5b/5x5_reduce <- inception_5a/output_inception_5a/output_0_split_2
I0403 15:24:05.721009  3039 net.cpp:399] inception_5b/5x5_reduce -> inception_5b/5x5_reduce
I0403 15:24:05.722309  3039 net.cpp:141] Setting up inception_5b/5x5_reduce
I0403 15:24:05.722337  3039 net.cpp:148] Top shape: 24 48 7 7 (56448)
I0403 15:24:05.722353  3039 net.cpp:156] Memory required for data: 1334499360
I0403 15:24:05.722373  3039 layer_factory.hpp:77] Creating layer inception_5b/relu_5x5_reduce
I0403 15:24:05.722394  3039 net.cpp:91] Creating Layer inception_5b/relu_5x5_reduce
I0403 15:24:05.722412  3039 net.cpp:425] inception_5b/relu_5x5_reduce <- inception_5b/5x5_reduce
I0403 15:24:05.722429  3039 net.cpp:386] inception_5b/relu_5x5_reduce -> inception_5b/5x5_reduce (in-place)
I0403 15:24:05.722810  3039 net.cpp:141] Setting up inception_5b/relu_5x5_reduce
I0403 15:24:05.722838  3039 net.cpp:148] Top shape: 24 48 7 7 (56448)
I0403 15:24:05.722853  3039 net.cpp:156] Memory required for data: 1334725152
I0403 15:24:05.722868  3039 layer_factory.hpp:77] Creating layer inception_5b/5x5
I0403 15:24:05.722889  3039 net.cpp:91] Creating Layer inception_5b/5x5
I0403 15:24:05.722906  3039 net.cpp:425] inception_5b/5x5 <- inception_5b/5x5_reduce
I0403 15:24:05.722925  3039 net.cpp:399] inception_5b/5x5 -> inception_5b/5x5
I0403 15:24:05.725112  3039 net.cpp:141] Setting up inception_5b/5x5
I0403 15:24:05.725142  3039 net.cpp:148] Top shape: 24 128 7 7 (150528)
I0403 15:24:05.725157  3039 net.cpp:156] Memory required for data: 1335327264
I0403 15:24:05.725177  3039 layer_factory.hpp:77] Creating layer inception_5b/relu_5x5
I0403 15:24:05.725198  3039 net.cpp:91] Creating Layer inception_5b/relu_5x5
I0403 15:24:05.725220  3039 net.cpp:425] inception_5b/relu_5x5 <- inception_5b/5x5
I0403 15:24:05.725239  3039 net.cpp:386] inception_5b/relu_5x5 -> inception_5b/5x5 (in-place)
I0403 15:24:05.725446  3039 net.cpp:141] Setting up inception_5b/relu_5x5
I0403 15:24:05.725472  3039 net.cpp:148] Top shape: 24 128 7 7 (150528)
I0403 15:24:05.725487  3039 net.cpp:156] Memory required for data: 1335929376
I0403 15:24:05.725503  3039 layer_factory.hpp:77] Creating layer inception_5b/pool
I0403 15:24:05.725522  3039 net.cpp:91] Creating Layer inception_5b/pool
I0403 15:24:05.725538  3039 net.cpp:425] inception_5b/pool <- inception_5a/output_inception_5a/output_0_split_3
I0403 15:24:05.725561  3039 net.cpp:399] inception_5b/pool -> inception_5b/pool
I0403 15:24:05.725637  3039 net.cpp:141] Setting up inception_5b/pool
I0403 15:24:05.725662  3039 net.cpp:148] Top shape: 24 832 7 7 (978432)
I0403 15:24:05.725677  3039 net.cpp:156] Memory required for data: 1339843104
I0403 15:24:05.725693  3039 layer_factory.hpp:77] Creating layer inception_5b/pool_proj
I0403 15:24:05.725718  3039 net.cpp:91] Creating Layer inception_5b/pool_proj
I0403 15:24:05.725736  3039 net.cpp:425] inception_5b/pool_proj <- inception_5b/pool
I0403 15:24:05.725755  3039 net.cpp:399] inception_5b/pool_proj -> inception_5b/pool_proj
I0403 15:24:05.728166  3039 net.cpp:141] Setting up inception_5b/pool_proj
I0403 15:24:05.728196  3039 net.cpp:148] Top shape: 24 128 7 7 (150528)
I0403 15:24:05.728217  3039 net.cpp:156] Memory required for data: 1340445216
I0403 15:24:05.728238  3039 layer_factory.hpp:77] Creating layer inception_5b/relu_pool_proj
I0403 15:24:05.728260  3039 net.cpp:91] Creating Layer inception_5b/relu_pool_proj
I0403 15:24:05.728279  3039 net.cpp:425] inception_5b/relu_pool_proj <- inception_5b/pool_proj
I0403 15:24:05.728297  3039 net.cpp:386] inception_5b/relu_pool_proj -> inception_5b/pool_proj (in-place)
I0403 15:24:05.728610  3039 net.cpp:141] Setting up inception_5b/relu_pool_proj
I0403 15:24:05.728637  3039 net.cpp:148] Top shape: 24 128 7 7 (150528)
I0403 15:24:05.728653  3039 net.cpp:156] Memory required for data: 1341047328
I0403 15:24:05.728669  3039 layer_factory.hpp:77] Creating layer inception_5b/output
I0403 15:24:05.728690  3039 net.cpp:91] Creating Layer inception_5b/output
I0403 15:24:05.728721  3039 net.cpp:425] inception_5b/output <- inception_5b/1x1
I0403 15:24:05.728740  3039 net.cpp:425] inception_5b/output <- inception_5b/3x3
I0403 15:24:05.728757  3039 net.cpp:425] inception_5b/output <- inception_5b/5x5
I0403 15:24:05.728775  3039 net.cpp:425] inception_5b/output <- inception_5b/pool_proj
I0403 15:24:05.728792  3039 net.cpp:399] inception_5b/output -> inception_5b/output
I0403 15:24:05.728847  3039 net.cpp:141] Setting up inception_5b/output
I0403 15:24:05.728873  3039 net.cpp:148] Top shape: 24 1024 7 7 (1204224)
I0403 15:24:05.728888  3039 net.cpp:156] Memory required for data: 1345864224
I0403 15:24:05.728904  3039 layer_factory.hpp:77] Creating layer pool5/7x7_s1
I0403 15:24:05.728921  3039 net.cpp:91] Creating Layer pool5/7x7_s1
I0403 15:24:05.728938  3039 net.cpp:425] pool5/7x7_s1 <- inception_5b/output
I0403 15:24:05.728960  3039 net.cpp:399] pool5/7x7_s1 -> pool5/7x7_s1
I0403 15:24:05.729187  3039 net.cpp:141] Setting up pool5/7x7_s1
I0403 15:24:05.729220  3039 net.cpp:148] Top shape: 24 1024 1 1 (24576)
I0403 15:24:05.729238  3039 net.cpp:156] Memory required for data: 1345962528
I0403 15:24:05.729254  3039 layer_factory.hpp:77] Creating layer pool5/drop_7x7_s1
I0403 15:24:05.729272  3039 net.cpp:91] Creating Layer pool5/drop_7x7_s1
I0403 15:24:05.729290  3039 net.cpp:425] pool5/drop_7x7_s1 <- pool5/7x7_s1
I0403 15:24:05.729307  3039 net.cpp:386] pool5/drop_7x7_s1 -> pool5/7x7_s1 (in-place)
I0403 15:24:05.729360  3039 net.cpp:141] Setting up pool5/drop_7x7_s1
I0403 15:24:05.729384  3039 net.cpp:148] Top shape: 24 1024 1 1 (24576)
I0403 15:24:05.729399  3039 net.cpp:156] Memory required for data: 1346060832
I0403 15:24:05.729414  3039 layer_factory.hpp:77] Creating layer loss3/classifier_plantvillage
I0403 15:24:05.729437  3039 net.cpp:91] Creating Layer loss3/classifier_plantvillage
I0403 15:24:05.729454  3039 net.cpp:425] loss3/classifier_plantvillage <- pool5/7x7_s1
I0403 15:24:05.729475  3039 net.cpp:399] loss3/classifier_plantvillage -> loss3/classifier_plantvillage
I0403 15:24:05.729915  3039 net.cpp:141] Setting up loss3/classifier_plantvillage
I0403 15:24:05.729941  3039 net.cpp:148] Top shape: 24 38 (912)
I0403 15:24:05.729957  3039 net.cpp:156] Memory required for data: 1346064480
I0403 15:24:05.729976  3039 layer_factory.hpp:77] Creating layer loss3/classifier_plantvillage_loss3/classifier_plantvillage_0_split
I0403 15:24:05.729995  3039 net.cpp:91] Creating Layer loss3/classifier_plantvillage_loss3/classifier_plantvillage_0_split
I0403 15:24:05.730011  3039 net.cpp:425] loss3/classifier_plantvillage_loss3/classifier_plantvillage_0_split <- loss3/classifier_plantvillage
I0403 15:24:05.730033  3039 net.cpp:399] loss3/classifier_plantvillage_loss3/classifier_plantvillage_0_split -> loss3/classifier_plantvillage_loss3/classifier_plantvillage_0_split_0
I0403 15:24:05.730056  3039 net.cpp:399] loss3/classifier_plantvillage_loss3/classifier_plantvillage_0_split -> loss3/classifier_plantvillage_loss3/classifier_plantvillage_0_split_1
I0403 15:24:05.730077  3039 net.cpp:399] loss3/classifier_plantvillage_loss3/classifier_plantvillage_0_split -> loss3/classifier_plantvillage_loss3/classifier_plantvillage_0_split_2
I0403 15:24:05.730098  3039 net.cpp:399] loss3/classifier_plantvillage_loss3/classifier_plantvillage_0_split -> loss3/classifier_plantvillage_loss3/classifier_plantvillage_0_split_3
I0403 15:24:05.730211  3039 net.cpp:141] Setting up loss3/classifier_plantvillage_loss3/classifier_plantvillage_0_split
I0403 15:24:05.730238  3039 net.cpp:148] Top shape: 24 38 (912)
I0403 15:24:05.730257  3039 net.cpp:148] Top shape: 24 38 (912)
I0403 15:24:05.730273  3039 net.cpp:148] Top shape: 24 38 (912)
I0403 15:24:05.730289  3039 net.cpp:148] Top shape: 24 38 (912)
I0403 15:24:05.730304  3039 net.cpp:156] Memory required for data: 1346079072
I0403 15:24:05.730319  3039 layer_factory.hpp:77] Creating layer loss1/loss
I0403 15:24:05.730341  3039 net.cpp:91] Creating Layer loss1/loss
I0403 15:24:05.730360  3039 net.cpp:425] loss1/loss <- loss1/classifier_plantvillage_loss1/classifier_plantvillage_0_split_0
I0403 15:24:05.730392  3039 net.cpp:425] loss1/loss <- label_data_1_split_0
…
