…
I0403 15:08:35.301870  2715 net.cpp:313] The NetState phase (1) differed from the phase (0) specified by a rule in layer data
I0403 15:08:35.303086  2715 net.cpp:49] Initializing net from parameters: 
state {
  phase: TEST
}
layer {
  name: "data"
  type: "Data"
  top: "data"
  top: "label"
  include {
    phase: TEST
  }
  transform_param {
    mirror: false
    crop_size: 224
    mean_file: "/home/mohanty/data/final_dataset/lmdb/segmented-60-40/mean.binaryproto"
  }
  data_param {
    source: "/home/mohanty/data/final_dataset/lmdb/segmented-60-40/test_db"
    batch_size: 24
    backend: LMDB
  }
}
layer {
  name: "conv1/7x7_s2"
  type: "Convolution"
  bottom: "data"
  top: "conv1/7x7_s2"
  param {
    lr_mult: 1
    decay_mult: 1
  }
  param {
    lr_mult: 2
    decay_mult: 0
  }
  convolution_param {
    num_output: 64
    pad: 3
    kernel_size: 7
    stride: 2
    weight_filler {
      type: "xavier"
      std: 0.1
    }
    bias_filler {
      type: "constant"
      value: 0.2
    }
  }
}
layer {
  name: "conv1/relu_7x7"
  type: "ReLU"
  bottom: "conv1/7x7_s2"
  top: "conv1/7x7_s2"
}
layer {
  name: "pool1/3x3_s2"
  type: "Pooling"
  bottom: "conv1/7x7_s2"
  top: "pool1/3x3_s2"
  pooling_param {
    pool: MAX
    kernel_size: 3
    stride: 2
  }
}
layer {
  name: "pool1/norm1"
  type: "LRN"
  bottom: "pool1/3x3_s2"
  top: "pool1/norm1"
  lrn_param {
    local_size: 5
    alpha: 0.0001
    beta: 0.75
  }
}
layer {
  name: "conv2/3x3_reduce"
  type: "Convolution"
  bottom: "pool1/norm1"
  top: "conv2/3x3_reduce"
  param {
    lr_mult: 1
    decay_mult: 1
  }
  param {
    lr_mult: 2
    decay_mult: 0
  }
  convolution_param {
    num_output: 64
    kernel_size: 1
    weight_filler {
      type: "xavier"
      std: 0.1
    }
    bias_filler {
      type: "constant"
      value: 0.2
    }
  }
}
layer {
  name: "conv2/relu_3x3_reduce"
  type: "ReLU"
  bottom: "conv2/3x3_reduce"
  top: "conv2/3x3_reduce"
}
layer {
  name: "conv2/3x3"
  type: "Convolution"
  bottom: "conv2/3x3_reduce"
  top: "conv2/3x3"
  param {
    lr_mult: 1
    decay_mult: 1
  }
  param {
    lr_mult: 2
    decay_mult: 0
  }
  convolution_param {
    num_output: 192
    pad: 1
    kernel_size: 3
    weight_filler {
      type: "xavier"
      std: 0.03
    }
    bias_filler {
      type: "constant"
      value: 0.2
    }
  }
}
layer {
  name: "conv2/relu_3x3"
  type: "ReLU"
  bottom: "conv2/3x3"
  top: "conv2/3x3"
}
layer {
  name: "conv2/norm2"
  type: "LRN"
  bottom: "conv2/3x3"
  top: "conv2/norm2"
  lrn_param {
    local_size: 5
    alpha: 0.0001
    beta: 0.75
  }
}
layer {
  name: "pool2/3x3_s2"
  type: "Pooling"
  bottom: "conv2/norm2"
  top: "pool2/3x3_s2"
  pooling_param {
    pool: MAX
    kernel_size: 3
    stride: 2
  }
}
layer {
  name: "inception_3a/1x1"
  type: "Convolution"
  bottom: "pool2/3x3_s2"
  top: "inception_3a/1x1"
  param {
    lr_mult: 1
    decay_mult: 1
  }
  param {
    lr_mult: 2
    decay_mult: 0
  }
  convolution_param {
    num_output: 64
    kernel_size: 1
    weight_filler {
      type: "xavier"
      std: 0.03
    }
    bias_filler {
      type: "constant"
      value: 0.2
    }
  }
}
layer {
  name: "inception_3a/relu_1x1"
  type: "ReLU"
  bottom: "inception_3a/1x1"
  top: "inception_3a/1x1"
}
layer {
  name: "inception_3a/3x3_reduce"
  type: "Convolution"
  bottom: "pool2/3x3_s2"
  top: "inception_3a/3x3_reduce"
  param {
    lr_mult: 1
    decay_mult: 1
  }
  param {
    lr_mult: 2
    decay_mult: 0
  }
  convolution_param {
    num_output: 96
    kernel_size: 1
    weight_filler {
      type: "xavier"
      std: 0.09
    }
    bias_filler {
      type: "constant"
      value: 0.2
    }
  }
}
layer {
  name: "inception_3a/relu_3x3_reduce"
  type: "ReLU"
  bottom: "inception_3a/3x3_reduce"
  top: "inception_3a/3x3_reduce"
}
layer {
  name: "inception_3a/3x3"
  type: "Convolution"
  bottom: "inception_3a/3x3_reduce"
  top: "inception_3a/3x3"
  param {
    lr_mult: 1
    decay_mult: 1
  }
  param {
    lr_mult: 2
    decay_mult: 0
  }
  convolution_param {
    num_output: 128
    pad: 1
    kernel_size: 3
    weight_filler {
      type: "xavier"
      std: 0.03
    }
    bias_filler {
      type: "constant"
      value: 0.2
    }
  }
}
layer {
  name: "inception_3a/relu_3x3"
  type: "ReLU"
  bottom: "inception_3a/3x3"
  top: "inception_3a/3x3"
}
layer {
  name: "inception_3a/5x5_reduce"
  type: "Convolution"
  bottom: "pool2/3x3_s2"
  top: "inception_3a/5x5_reduce"
  param {
    lr_mult: 1
    decay_mult: 1
  }
  param {
    lr_mult: 2
    decay_mult: 0
  }
  convolution_param {
    num_output: 16
    kernel_size: 1
    weight_filler {
      type: "xavier"
      std: 0.2
    }
    bias_filler {
      type: "constant"
      value: 0.2
    }
  }
}
layer {
  name: "inception_3a/relu_5x5_reduce"
  type: "ReLU"
  bottom: "inception_3a/5x5_reduce"
  top: "inception_3a/5x5_reduce"
}
layer {
  name: "inception_3a/5x5"
  type: "Convolution"
  bottom: "inception_3a/5x5_reduce"
  top: "inception_3a/5x5"
  param {
    lr_mult: 1
    decay_mult: 1
  }
  param {
    lr_mult: 2
    decay_mult: 0
  }
  convolution_param {
    num_output: 32
    pad: 2
    kernel_size: 5
    weight_filler {
      type: "xavier"
      std: 0.03
    }
    bias_filler {
      type: "constant"
      value: 0.2
    }
  }
}
layer {
  name: "inception_3a/relu_5x5"
  type: "ReLU"
  bottom: "inception_3a/5x5"
  top: "inception_3a/5x5"
}
layer {
  name: "inception_3a/pool"
  type: "Pooling"
  bottom: "pool2/3x3_s2"
  top: "inception_3a/pool"
  pooling_param {
    pool: MAX
    kernel_size: 3
    stride: 1
    pad: 1
  }
}
layer {
  name: "inception_3a/pool_proj"
  type: "Convolution"
  bottom: "inception_3a/pool"
  top: "inception_3a/pool_proj"
  param {
    lr_mult: 1
    decay_mult: 1
  }
  param {
    lr_mult: 2
    decay_mult: 0
  }
  convolution_param {
    num_output: 32
    kernel_size: 1
    weight_filler {
      type: "xavier"
      std: 0.1
    }
    bias_filler {
      type: "constant"
      value: 0.2
    }
  }
}
layer {
  name: "inception_3a/relu_pool_proj"
  type: "ReLU"
  bottom: "inception_3a/pool_proj"
  top: "inception_3a/pool_proj"
}
layer {
  name: "inception_3a/output"
  type: "Concat"
  bottom: "inception_3a/1x1"
  bottom: "inception_3a/3x3"
  bottom: "inception_3a/5x5"
  bottom: "inception_3a/pool_proj"
  top: "inception_3a/output"
}
layer {
  name: "inception_3b/1x1"
  type: "Convolution"
  bottom: "inception_3a/output"
  top: "inception_3b/1x1"
  param {
    lr_mult: 1
    decay_mult: 1
  }
  param {
    lr_mult: 2
    decay_mult: 0
  }
  convolution_param {
    num_output: 128
    kernel_size: 1
    weight_filler {
      type: "xavier"
      std: 0.03
    }
    bias_filler {
      type: "constant"
      value: 0.2
    }
  }
}
layer {
  name: "inception_3b/relu_1x1"
  type: "ReLU"
  bottom: "inception_3b/1x1"
  top: "inception_3b/1x1"
}
layer {
  name: "inception_3b/3x3_reduce"
  type: "Convolution"
  bottom: "inception_3a/output"
  top: "inception_3b/3x3_reduce"
  param {
    lr_mult: 1
    decay_mult: 1
  }
  param {
    lr_mult: 2
    decay_mult: 0
  }
  convolution_param {
    num_output: 128
    kernel_size: 1
    weight_filler {
      type: "xavier"
      std: 0.09
    }
    bias_filler {
      type: "constant"
      value: 0.2
    }
  }
}
layer {
  name: "inception_3b/relu_3x3_reduce"
  type: "ReLU"
  bottom: "inception_3b/3x3_reduce"
  top: "inception_3b/3x3_reduce"
}
layer {
  name: "inception_3b/3x3"
  type: "Convolution"
  bottom: "inception_3b/3x3_reduce"
  top: "inception_3b/3x3"
  param {
    lr_mult: 1
    decay_mult: 1
  }
  param {
    lr_mult: 2
    decay_mult: 0
  }
  convolution_param {
    num_output: 192
    pad: 1
    kernel_size: 3
    weight_filler {
      type: "xavier"
      std: 0.03
    }
    bias_filler {
      type: "constant"
      value: 0.2
    }
  }
}
layer {
  name: "inception_3b/relu_3x3"
  type: "ReLU"
  bottom: "inception_3b/3x3"
  top: "inception_3b/3x3"
}
layer {
  name: "inception_3b/5x5_reduce"
  type: "Convolution"
  bottom: "inception_3a/output"
  top: "inception_3b/5x5_reduce"
  param {
    lr_mult: 1
    decay_mult: 1
  }
  param {
    lr_mult: 2
    decay_mult: 0
  }
  convolution_param {
    num_output: 32
    kernel_size: 1
    weight_filler {
      type: "xavier"
      std: 0.2
    }
    bias_filler {
      type: "constant"
      value: 0.2
    }
  }
}
layer {
  name: "inception_3b/relu_5x5_reduce"
  type: "ReLU"
  bottom: "inception_3b/5x5_reduce"
  top: "inception_3b/5x5_reduce"
}
layer {
  name: "inception_3b/5x5"
  type: "Convolution"
  bottom: "inception_3b/5x5_reduce"
  top: "inception_3b/5x5"
  param {
    lr_mult: 1
    decay_mult: 1
  }
  param {
    lr_mult: 2
    decay_mult: 0
  }
  convolution_param {
    num_output: 96
    pad: 2
    kernel_size: 5
    weight_filler {
      type: "xavier"
      std: 0.03
    }
    bias_filler {
      type: "constant"
      value: 0.2
    }
  }
}
layer {
  name: "inception_3b/relu_5x5"
  type: "ReLU"
  bottom: "inception_3b/5x5"
  top: "inception_3b/5x5"
}
layer {
  name: "inception_3b/pool"
  type: "Pooling"
  bottom: "inception_3a/output"
  top: "inception_3b/pool"
  pooling_param {
    pool: MAX
    kernel_size: 3
    stride: 1
    pad: 1
  }
}
layer {
  name: "inception_3b/pool_proj"
  type: "Convolution"
  bottom: "inception_3b/pool"
  top: "inception_3b/pool_proj"
  param {
    lr_mult: 1
    decay_mult: 1
  }
  param {
    lr_mult: 2
    decay_mult: 0
  }
  convolution_param {
    num_output: 64
    kernel_size: 1
    weight_filler {
      type: "xavier"
      std: 0.1
    }
    bias_filler {
      type: "constant"
      value: 0.2
    }
  }
}
layer {
  name: "inception_3b/relu_pool_proj"
  type: "ReLU"
  bottom: "inception_3b/pool_proj"
  top: "inception_3b/pool_proj"
}
layer {
  name: "inception_3b/output"
  type: "Concat"
  bottom: "inception_3b/1x1"
  bottom: "inception_3b/3x3"
  bottom: "inception_3b/5x5"
  bottom: "inception_3b/pool_proj"
  top: "inception_3b/output"
}
layer {
  name: "pool3/3x3_s2"
  type: "Pooling"
  bottom: "inception_3b/output"
  top: "pool3/3x3_s2"
  pooling_param {
    pool: MAX
    kernel_size: 3
    stride: 2
  }
}
layer {
  name: "inception_4a/1x1"
  type: "Convolution"
  bottom: "pool3/3x3_s2"
  top: "inception_4a/1x1"
  param {
    lr_mult: 1
    decay_mult: 1
  }
  param {
    lr_mult: 2
    decay_mult: 0
  }
  convolution_param {
    num_output: 192
    kernel_size: 1
    weight_filler {
      type: "xavier"
      std: 0.03
    }
    bias_filler {
      type: "constant"
      value: 0.2
    }
  }
}
layer {
  name: "inception_4a/relu_1x1"
  type: "ReLU"
  bottom: "inception_4a/1x1"
  top: "inception_4a/1x1"
}
layer {
  name: "inception_4a/3x3_reduce"
  type: "Convolution"
  bottom: "pool3/3x3_s2"
  top: "inception_4a/3x3_reduce"
  param {
    lr_mult: 1
    decay_mult: 1
  }
  param {
    lr_mult: 2
    decay_mult: 0
  }
  convolution_param {
    num_output: 96
    kernel_size: 1
    weight_filler {
      type: "xavier"
      std: 0.09
    }
    bias_filler {
      type: "constant"
      value: 0.2
    }
  }
}
layer {
  name: "inception_4a/relu_3x3_reduce"
  type: "ReLU"
  bottom: "inception_4a/3x3_reduce"
  top: "inception_4a/3x3_reduce"
}
layer {
  name: "inception_4a/3x3"
  type: "Convolution"
  bottom: "inception_4a/3x3_reduce"
  top: "inception_4a/3x3"
  param {
    lr_mult: 1
    decay_mult: 1
  }
  param {
    lr_mult: 2
    decay_mult: 0
  }
  convolution_param {
    num_output: 208
    pad: 1
    kernel_size: 3
    weight_filler {
      type: "xavier"
      std: 0.03
    }
    bias_filler {
      type: "constant"
      value: 0.2
    }
  }
}
layer {
  name: "inception_4a/relu_3x3"
  type: "ReLU"
  bottom: "inception_4a/3x3"
  top: "inception_4a/3x3"
}
layer {
  name: "inception_4a/5x5_reduce"
  type: "Convolution"
  bottom: "pool3/3x3_s2"
  top: "inception_4a/5x5_reduce"
  param {
    lr_mult: 1
    decay_mult: 1
  }
  param {
    lr_mult: 2
    decay_mult: 0
  }
  convolution_param {
    num_output: 16
    kernel_size: 1
    weight_filler {
      type: "xavier"
      std: 0.2
    }
    bias_filler {
      type: "constant"
      value: 0.2
    }
  }
}
layer {
  name: "inception_4a/relu_5x5_reduce"
  type: "ReLU"
  bottom: "inception_4a/5x5_reduce"
  top: "inception_4a/5x5_reduce"
}
layer {
  name: "inception_4a/5x5"
  type: "Convolution"
  bottom: "inception_4a/5x5_reduce"
  top: "inception_4a/5x5"
  param {
    lr_mult: 1
    decay_mult: 1
  }
  param {
    lr_mult: 2
    decay_mult: 0
  }
  convolution_param {
    num_output: 48
    pad: 2
    kernel_size: 5
    weight_filler {
      type: "xavier"
      std: 0.03
    }
    bias_filler {
      type: "constant"
      value: 0.2
    }
  }
}
layer {
  name: "inception_4a/relu_5x5"
  type: "ReLU"
  bottom: "inception_4a/5x5"
  top: "inception_4a/5x5"
}
layer {
  name: "inception_4a/pool"
  type: "Pooling"
  bottom: "pool3/3x3_s2"
  top: "inception_4a/pool"
  pooling_param {
    pool: MAX
    kernel_size: 3
    stride: 1
    pad: 1
  }
}
layer {
  name: "inception_4a/pool_proj"
  type: "Convolution"
  bottom: "inception_4a/pool"
  top: "inception_4a/pool_proj"
  param {
    lr_mult: 1
    decay_mult: 1
  }
  param {
    lr_mult: 2
    decay_mult: 0
  }
  convolution_param {
    num_output: 64
    kernel_size: 1
    weight_filler {
      type: "xavier"
      std: 0.1
    }
    bias_filler {
      type: "constant"
      value: 0.2
    }
  }
}
layer {
  name: "inception_4a/relu_pool_proj"
  type: "ReLU"
  bottom: "inception_4a/pool_proj"
  top: "inception_4a/pool_proj"
}
layer {
  name: "inception_4a/output"
  type: "Concat"
  bottom: "inception_4a/1x1"
  bottom: "inception_4a/3x3"
  bottom: "inception_4a/5x5"
  bottom: "inception_4a/pool_proj"
  top: "inception_4a/output"
}
layer {
  name: "loss1/ave_pool"
  type: "Pooling"
  bottom: "inception_4a/output"
  top: "loss1/ave_pool"
  pooling_param {
    pool: AVE
    kernel_size: 5
    stride: 3
  }
}
layer {
  name: "loss1/conv"
  type: "Convolution"
  bottom: "loss1/ave_pool"
  top: "loss1/conv"
  param {
    lr_mult: 1
    decay_mult: 1
  }
  param {
    lr_mult: 2
    decay_mult: 0
  }
  convolution_param {
    num_output: 128
    kernel_size: 1
    weight_filler {
      type: "xavier"
      std: 0.08
    }
    bias_filler {
      type: "constant"
      value: 0.2
    }
  }
}
layer {
  name: "loss1/relu_conv"
  type: "ReLU"
  bottom: "loss1/conv"
  top: "loss1/conv"
}
layer {
  name: "loss1/fc"
  type: "InnerProduct"
  bottom: "loss1/conv"
  top: "loss1/fc"
  param {
    lr_mult: 1
    decay_mult: 1
  }
  param {
    lr_mult: 2
    decay_mult: 0
  }
  inner_product_param {
    num_output: 1024
    weight_filler {
      type: "xavier"
      std: 0.02
    }
    bias_filler {
      type: "constant"
      value: 0.2
    }
  }
}
layer {
  name: "loss1/relu_fc"
  type: "ReLU"
  bottom: "loss1/fc"
  top: "loss1/fc"
}
layer {
  name: "loss1/drop_fc"
  type: "Dropout"
  bottom: "loss1/fc"
  top: "loss1/fc"
  dropout_param {
    dropout_ratio: 0.7
  }
}
layer {
  name: "loss1/classifier_plantvillage"
  type: "InnerProduct"
  bottom: "loss1/fc"
  top: "loss1/classifier_plantvillage"
  param {
    lr_mult: 1
    decay_mult: 1
  }
  param {
    lr_mult: 2
    decay_mult: 0
  }
  inner_product_param {
    num_output: 38
    weight_filler {
      type: "xavier"
      std: 0.0009765625
    }
    bias_filler {
      type: "constant"
      value: 0
    }
  }
}
layer {
  name: "inception_4b/1x1"
  type: "Convolution"
  bottom: "inception_4a/output"
  top: "inception_4b/1x1"
  param {
    lr_mult: 1
    decay_mult: 1
  }
  param {
    lr_mult: 2
    decay_mult: 0
  }
  convolution_param {
    num_output: 160
    kernel_size: 1
    weight_filler {
      type: "xavier"
      std: 0.03
    }
    bias_filler {
      type: "constant"
      value: 0.2
    }
  }
}
layer {
  name: "inception_4b/relu_1x1"
  type: "ReLU"
  bottom: "inception_4b/1x1"
  top: "inception_4b/1x1"
}
layer {
  name: "inception_4b/3x3_reduce"
  type: "Convolution"
  bottom: "inception_4a/output"
  top: "inception_4b/3x3_reduce"
  param {
    lr_mult: 1
    decay_mult: 1
  }
  param {
    lr_mult: 2
    decay_mult: 0
  }
  convolution_param {
    num_output: 112
    kernel_size: 1
    weight_filler {
      type: "xavier"
      std: 0.09
    }
    bias_filler {
      type: "constant"
      value: 0.2
    }
  }
}
layer {
  name: "inception_4b/relu_3x3_reduce"
  type: "ReLU"
  bottom: "inception_4b/3x3_reduce"
  top: "inception_4b/3x3_reduce"
}
layer {
  name: "inception_4b/3x3"
  type: "Convolution"
  bottom: "inception_4b/3x3_reduce"
  top: "inception_4b/3x3"
  param {
    lr_mult: 1
    decay_mult: 1
  }
  param {
    lr_mult: 2
    decay_mult: 0
  }
  convolution_param {
    num_output: 224
    pad: 1
    kernel_size: 3
    weight_filler {
      type: "xavier"
      std: 0.03
    }
    bias_filler {
      type: "constant"
      value: 0.2
    }
  }
}
layer {
  name: "inception_4b/relu_3x3"
  type: "ReLU"
  bottom: "inception_4b/3x3"
  top: "inception_4b/3x3"
}
layer {
  name: "inception_4b/5x5_reduce"
  type: "Convolution"
  bottom: "inception_4a/output"
  top: "inception_4b/5x5_reduce"
  param {
    lr_mult: 1
    decay_mult: 1
  }
  param {
    lr_mult: 2
    decay_mult: 0
  }
  convolution_param {
    num_output: 24
    kernel_size: 1
    weight_filler {
      type: "xavier"
      std: 0.2
    }
    bias_filler {
      type: "constant"
      value: 0.2
    }
  }
}
layer {
  name: "inception_4b/relu_5x5_reduce"
  type: "ReLU"
  bottom: "inception_4b/5x5_reduce"
  top: "inception_4b/5x5_reduce"
}
layer {
  name: "inception_4b/5x5"
  type: "Convolution"
  bottom: "inception_4b/5x5_reduce"
  top: "inception_4b/5x5"
  param {
    lr_mult: 1
    decay_mult: 1
  }
  param {
    lr_mult: 2
    decay_mult: 0
  }
  convolution_param {
    num_output: 64
    pad: 2
    kernel_size: 5
    weight_filler {
      type: "xavier"
      std: 0.03
    }
    bias_filler {
      type: "constant"
      value: 0.2
    }
  }
}
layer {
  name: "inception_4b/relu_5x5"
  type: "ReLU"
  bottom: "inception_4b/5x5"
  top: "inception_4b/5x5"
}
layer {
  name: "inception_4b/pool"
  type: "Pooling"
  bottom: "inception_4a/output"
  top: "inception_4b/pool"
  pooling_param {
    pool: MAX
    kernel_size: 3
    stride: 1
    pad: 1
  }
}
layer {
  name: "inception_4b/pool_proj"
  type: "Convolution"
  bottom: "inception_4b/pool"
  top: "inception_4b/pool_proj"
  param {
    lr_mult: 1
    decay_mult: 1
  }
  param {
    lr_mult: 2
    decay_mult: 0
  }
  convolution_param {
    num_output: 64
    kernel_size: 1
    weight_filler {
      type: "xavier"
      std: 0.1
    }
    bias_filler {
      type: "constant"
      value: 0.2
    }
  }
}
layer {
  name: "inception_4b/relu_pool_proj"
  type: "ReLU"
  bottom: "inception_4b/pool_proj"
  top: "inception_4b/pool_proj"
}
layer {
  name: "inception_4b/output"
  type: "Concat"
  bottom: "inception_4b/1x1"
  bottom: "inception_4b/3x3"
  bottom: "inception_4b/5x5"
  bottom: "inception_4b/pool_proj"
  top: "inception_4b/output"
}
layer {
  name: "inception_4c/1x1"
  type: "Convolution"
  bottom: "inception_4b/output"
  top: "inception_4c/1x1"
  param {
    lr_mult: 1
    decay_mult: 1
  }
  param {
    lr_mult: 2
    decay_mult: 0
  }
  convolution_param {
    num_output: 128
    kernel_size: 1
    weight_filler {
      type: "xavier"
      std: 0.03
    }
    bias_filler {
      type: "constant"
      value: 0.2
    }
  }
}
layer {
  name: "inception_4c/relu_1x1"
  type: "ReLU"
  bottom: "inception_4c/1x1"
  top: "inception_4c/1x1"
}
layer {
  name: "inception_4c/3x3_reduce"
  type: "Convolution"
  bottom: "inception_4b/output"
  top: "inception_4c/3x3_reduce"
  param {
    lr_mult: 1
    decay_mult: 1
  }
  param {
    lr_mult: 2
    decay_mult: 0
  }
  convolution_param {
    num_output: 128
    kernel_size: 1
    weight_filler {
      type: "xavier"
      std: 0.09
    }
    bias_filler {
      type: "constant"
      value: 0.2
    }
  }
}
layer {
  name: "inception_4c/relu_3x3_reduce"
  type: "ReLU"
  bottom: "inception_4c/3x3_reduce"
  top: "inception_4c/3x3_reduce"
}
layer {
  name: "inception_4c/3x3"
  type: "Convolution"
  bottom: "inception_4c/3x3_reduce"
  top: "inception_4c/3x3"
  param {
    lr_mult: 1
    decay_mult: 1
  }
  param {
    lr_mult: 2
    decay_mult: 0
  }
  convolution_param {
    num_output: 256
    pad: 1
    kernel_size: 3
    weight_filler {
      type: "xavier"
      std: 0.03
    }
    bias_filler {
      type: "constant"
      value: 0.2
    }
  }
}
layer {
  name: "inception_4c/relu_3x3"
  type: "ReLU"
  bottom: "inception_4c/3x3"
  top: "inception_4c/3x3"
}
layer {
  name: "inception_4c/5x5_reduce"
  type: "Convolution"
  bottom: "inception_4b/output"
  top: "inception_4c/5x5_reduce"
  param {
    lr_mult: 1
    decay_mult: 1
  }
  param {
    lr_mult: 2
    decay_mult: 0
  }
  convolution_param {
    num_output: 24
    kernel_size: 1
    weight_filler {
      type: "xavier"
      std: 0.2
    }
    bias_filler {
      type: "constant"
      value: 0.2
    }
  }
}
layer {
  name: "inception_4c/relu_5x5_reduce"
  type: "ReLU"
  bottom: "inception_4c/5x5_reduce"
  top: "inception_4c/5x5_reduce"
}
layer {
  name: "inception_4c/5x5"
  type: "Convolution"
  bottom: "inception_4c/5x5_reduce"
  top: "inception_4c/5x5"
  param {
    lr_mult: 1
    decay_mult: 1
  }
  param {
    lr_mult: 2
    decay_mult: 0
  }
  convolution_param {
    num_output: 64
    pad: 2
    kernel_size: 5
    weight_filler {
      type: "xavier"
      std: 0.03
    }
    bias_filler {
      type: "constant"
      value: 0.2
    }
  }
}
layer {
  name: "inception_4c/relu_5x5"
  type: "ReLU"
  bottom: "inception_4c/5x5"
  top: "inception_4c/5x5"
}
layer {
  name: "inception_4c/pool"
  type: "Pooling"
  bottom: "inception_4b/output"
  top: "inception_4c/pool"
  pooling_param {
    pool: MAX
    kernel_size: 3
    stride: 1
    pad: 1
  }
}
layer {
  name: "inception_4c/pool_proj"
  type: "Convolution"
  bottom: "inception_4c/pool"
  top: "inception_4c/pool_proj"
  param {
    lr_mult: 1
    decay_mult: 1
  }
  param {
    lr_mult: 2
    decay_mult: 0
  }
  convolution_param {
    num_output: 64
    kernel_size: 1
    weight_filler {
      type: "xavier"
      std: 0.1
    }
    bias_filler {
      type: "constant"
      value: 0.2
    }
  }
}
layer {
  name: "inception_4c/relu_pool_proj"
  type: "ReLU"
  bottom: "inception_4c/pool_proj"
  top: "inception_4c/pool_proj"
}
layer {
  name: "inception_4c/output"
  type: "Concat"
  bottom: "inception_4c/1x1"
  bottom: "inception_4c/3x3"
  bottom: "inception_4c/5x5"
  bottom: "inception_4c/pool_proj"
  top: "inception_4c/output"
}
layer {
  name: "inception_4d/1x1"
  type: "Convolution"
  bottom: "inception_4c/output"
  top: "inception_4d/1x1"
  param {
    lr_mult: 1
    decay_mult: 1
  }
  param {
    lr_mult: 2
    decay_mult: 0
  }
  convolution_param {
    num_output: 112
    kernel_size: 1
    weight_filler {
      type: "xavier"
      std: 0.03
    }
    bias_filler {
      type: "constant"
      value: 0.2
    }
  }
}
layer {
  name: "inception_4d/relu_1x1"
  type: "ReLU"
  bottom: "inception_4d/1x1"
  top: "inception_4d/1x1"
}
layer {
  name: "inception_4d/3x3_reduce"
  type: "Convolution"
  bottom: "inception_4c/output"
  top: "inception_4d/3x3_reduce"
  param {
    lr_mult: 1
    decay_mult: 1
  }
  param {
    lr_mult: 2
    decay_mult: 0
  }
  convolution_param {
    num_output: 144
    kernel_size: 1
    weight_filler {
      type: "xavier"
      std: 0.09
    }
    bias_filler {
      type: "constant"
      value: 0.2
    }
  }
}
layer {
  name: "inception_4d/relu_3x3_reduce"
  type: "ReLU"
  bottom: "inception_4d/3x3_reduce"
  top: "inception_4d/3x3_reduce"
}
layer {
  name: "inception_4d/3x3"
  type: "Convolution"
  bottom: "inception_4d/3x3_reduce"
  top: "inception_4d/3x3"
  param {
    lr_mult: 1
    decay_mult: 1
  }
  param {
    lr_mult: 2
    decay_mult: 0
  }
  convolution_param {
    num_output: 288
    pad: 1
    kernel_size: 3
    weight_filler {
      type: "xavier"
      std: 0.03
    }
    bias_filler {
      type: "constant"
      value: 0.2
    }
  }
}
layer {
  name: "inception_4d/relu_3x3"
  type: "ReLU"
  bottom: "inception_4d/3x3"
  top: "inception_4d/3x3"
}
layer {
  name: "inception_4d/5x5_reduce"
  type: "Convolution"
  bottom: "inception_4c/output"
  top: "inception_4d/5x5_reduce"
  param {
    lr_mult: 1
    decay_mult: 1
  }
  param {
    lr_mult: 2
    decay_mult: 0
  }
  convolution_param {
    num_output: 32
    kernel_size: 1
    weight_filler {
      type: "xavier"
      std: 0.2
    }
    bias_filler {
      type: "constant"
      value: 0.2
    }
  }
}
layer {
  name: "inception_4d/relu_5x5_reduce"
  type: "ReLU"
  bottom: "inception_4d/5x5_reduce"
  top: "inception_4d/5x5_reduce"
}
layer {
  name: "inception_4d/5x5"
  type: "Convolution"
  bottom: "inception_4d/5x5_reduce"
  top: "inception_4d/5x5"
  param {
    lr_mult: 1
    decay_mult: 1
  }
  param {
    lr_mult: 2
    decay_mult: 0
  }
  convolution_param {
    num_output: 64
    pad: 2
    kernel_size: 5
    weight_filler {
      type: "xavier"
      std: 0.03
    }
    bias_filler {
      type: "constant"
      value: 0.2
    }
  }
}
layer {
  name: "inception_4d/relu_5x5"
  type: "ReLU"
  bottom: "inception_4d/5x5"
  top: "inception_4d/5x5"
}
layer {
  name: "inception_4d/pool"
  type: "Pooling"
  bottom: "inception_4c/output"
  top: "inception_4d/pool"
  pooling_param {
    pool: MAX
    kernel_size: 3
    stride: 1
    pad: 1
  }
}
layer {
  name: "inception_4d/pool_proj"
  type: "Convolution"
  bottom: "inception_4d/pool"
  top: "inception_4d/pool_proj"
  param {
    lr_mult: 1
    decay_mult: 1
  }
  param {
    lr_mult: 2
    decay_mult: 0
  }
  convolution_param {
    num_output: 64
    kernel_size: 1
    weight_filler {
      type: "xavier"
      std: 0.1
    }
    bias_filler {
      type: "constant"
      value: 0.2
    }
  }
}
layer {
  name: "inception_4d/relu_pool_proj"
  type: "ReLU"
  bottom: "inception_4d/pool_proj"
  top: "inception_4d/pool_proj"
}
layer {
  name: "inception_4d/output"
  type: "Concat"
  bottom: "inception_4d/1x1"
  bottom: "inception_4d/3x3"
  bottom: "inception_4d/5x5"
  bottom: "inception_4d/pool_proj"
  top: "inception_4d/output"
}
layer {
  name: "loss2/ave_pool"
  type: "Pooling"
  bottom: "inception_4d/output"
  top: "loss2/ave_pool"
  pooling_param {
    pool: AVE
    kernel_size: 5
    stride: 3
  }
}
layer {
  name: "loss2/conv"
  type: "Convolution"
  bottom: "loss2/ave_pool"
  top: "loss2/conv"
  param {
    lr_mult: 1
    decay_mult: 1
  }
  param {
    lr_mult: 2
    decay_mult: 0
  }
  convolution_param {
    num_output: 128
    kernel_size: 1
    weight_filler {
      type: "xavier"
      std: 0.08
    }
    bias_filler {
      type: "constant"
      value: 0.2
    }
  }
}
layer {
  name: "loss2/relu_conv"
  type: "ReLU"
  bottom: "loss2/conv"
  top: "loss2/conv"
}
layer {
  name: "loss2/fc"
  type: "InnerProduct"
  bottom: "loss2/conv"
  top: "loss2/fc"
  param {
    lr_mult: 1
    decay_mult: 1
  }
  param {
    lr_mult: 2
    decay_mult: 0
  }
  inner_product_param {
    num_output: 1024
    weight_filler {
      type: "xavier"
      std: 0.02
    }
    bias_filler {
      type: "constant"
      value: 0.2
    }
  }
}
layer {
  name: "loss2/relu_fc"
  type: "ReLU"
  bottom: "loss2/fc"
  top: "loss2/fc"
}
layer {
  name: "loss2/drop_fc"
  type: "Dropout"
  bottom: "loss2/fc"
  top: "loss2/fc"
  dropout_param {
    dropout_ratio: 0.7
  }
}
layer {
  name: "loss2/classifier_plantvillage"
  type: "InnerProduct"
  bottom: "loss2/fc"
  top: "loss2/classifier_plantvillage"
  param {
    lr_mult: 1
    decay_mult: 1
  }
  param {
    lr_mult: 2
    decay_mult: 0
  }
  inner_product_param {
    num_output: 38
    weight_filler {
      type: "xavier"
      std: 0.0009765625
    }
    bias_filler {
      type: "constant"
      value: 0
    }
  }
}
layer {
  name: "inception_4e/1x1"
  type: "Convolution"
  bottom: "inception_4d/output"
  top: "inception_4e/1x1"
  param {
    lr_mult: 1
    decay_mult: 1
  }
  param {
    lr_mult: 2
    decay_mult: 0
  }
  convolution_param {
    num_output: 256
    kernel_size: 1
    weight_filler {
      type: "xavier"
      std: 0.03
    }
    bias_filler {
      type: "constant"
      value: 0.2
    }
  }
}
layer {
  name: "inception_4e/relu_1x1"
  type: "ReLU"
  bottom: "inception_4e/1x1"
  top: "inception_4e/1x1"
}
layer {
  name: "inception_4e/3x3_reduce"
  type: "Convolution"
  bottom: "inception_4d/output"
  top: "inception_4e/3x3_reduce"
  param {
    lr_mult: 1
    decay_mult: 1
  }
  param {
    lr_mult: 2
    decay_mult: 0
  }
  convolution_param {
    num_output: 160
    kernel_size: 1
    weight_filler {
      type: "xavier"
      std: 0.09
    }
    bias_filler {
      type: "constant"
      value: 0.2
    }
  }
}
layer {
  name: "inception_4e/relu_3x3_reduce"
  type: "ReLU"
  bottom: "inception_4e/3x3_reduce"
  top: "inception_4e/3x3_reduce"
}
layer {
  name: "inception_4e/3x3"
  type: "Convolution"
  bottom: "inception_4e/3x3_reduce"
  top: "inception_4e/3x3"
  param {
    lr_mult: 1
    decay_mult: 1
  }
  param {
    lr_mult: 2
    decay_mult: 0
  }
  convolution_param {
    num_output: 320
    pad: 1
    kernel_size: 3
    weight_filler {
      type: "xavier"
      std: 0.03
    }
    bias_filler {
      type: "constant"
      value: 0.2
    }
  }
}
layer {
  name: "inception_4e/relu_3x3"
  type: "ReLU"
  bottom: "inception_4e/3x3"
  top: "inception_4e/3x3"
}
layer {
  name: "inception_4e/5x5_reduce"
  type: "Convolution"
  bottom: "inception_4d/output"
  top: "inception_4e/5x5_reduce"
  param {
    lr_mult: 1
    decay_mult: 1
  }
  param {
    lr_mult: 2
    decay_mult: 0
  }
  convolution_param {
    num_output: 32
    kernel_size: 1
    weight_filler {
      type: "xavier"
      std: 0.2
    }
    bias_filler {
      type: "constant"
      value: 0.2
    }
  }
}
layer {
  name: "inception_4e/relu_5x5_reduce"
  type: "ReLU"
  bottom: "inception_4e/5x5_reduce"
  top: "inception_4e/5x5_reduce"
}
layer {
  name: "inception_4e/5x5"
  type: "Convolution"
  bottom: "inception_4e/5x5_reduce"
  top: "inception_4e/
I0403 15:08:35.304461  2715 layer_factory.hpp:77] Creating layer data
I0403 15:08:35.305086  2715 net.cpp:91] Creating Layer data
I0403 15:08:35.305120  2715 net.cpp:399] data -> data
I0403 15:08:35.305172  2715 net.cpp:399] data -> label
I0403 15:08:35.305213  2715 data_transformer.cpp:25] Loading mean file from: /home/mohanty/data/final_dataset/lmdb/segmented-60-40/mean.binaryproto
I0403 15:08:35.307567  2718 db_lmdb.cpp:38] Opened lmdb /home/mohanty/data/final_dataset/lmdb/segmented-60-40/test_db
I0403 15:08:35.318572  2715 data_layer.cpp:41] output data size: 24,3,224,224
I0403 15:08:35.347164  2715 net.cpp:141] Setting up data
I0403 15:08:35.347272  2715 net.cpp:148] Top shape: 24 3 224 224 (3612672)
I0403 15:08:35.347297  2715 net.cpp:148] Top shape: 24 (24)
I0403 15:08:35.347314  2715 net.cpp:156] Memory required for data: 14450784
I0403 15:08:35.347343  2715 layer_factory.hpp:77] Creating layer label_data_1_split
I0403 15:08:35.347373  2715 net.cpp:91] Creating Layer label_data_1_split
I0403 15:08:35.347391  2715 net.cpp:425] label_data_1_split <- label
I0403 15:08:35.347424  2715 net.cpp:399] label_data_1_split -> label_data_1_split_0
I0403 15:08:35.347455  2715 net.cpp:399] label_data_1_split -> label_data_1_split_1
I0403 15:08:35.347477  2715 net.cpp:399] label_data_1_split -> label_data_1_split_2
I0403 15:08:35.347499  2715 net.cpp:399] label_data_1_split -> label_data_1_split_3
I0403 15:08:35.347520  2715 net.cpp:399] label_data_1_split -> label_data_1_split_4
I0403 15:08:35.347543  2715 net.cpp:399] label_data_1_split -> label_data_1_split_5
I0403 15:08:35.347564  2715 net.cpp:399] label_data_1_split -> label_data_1_split_6
I0403 15:08:35.347586  2715 net.cpp:399] label_data_1_split -> label_data_1_split_7
I0403 15:08:35.347609  2715 net.cpp:399] label_data_1_split -> label_data_1_split_8
I0403 15:08:35.347631  2715 net.cpp:399] label_data_1_split -> label_data_1_split_9
I0403 15:08:35.347754  2715 net.cpp:141] Setting up label_data_1_split
I0403 15:08:35.347779  2715 net.cpp:148] Top shape: 24 (24)
I0403 15:08:35.347797  2715 net.cpp:148] Top shape: 24 (24)
I0403 15:08:35.347815  2715 net.cpp:148] Top shape: 24 (24)
I0403 15:08:35.347831  2715 net.cpp:148] Top shape: 24 (24)
I0403 15:08:35.347847  2715 net.cpp:148] Top shape: 24 (24)
I0403 15:08:35.347863  2715 net.cpp:148] Top shape: 24 (24)
I0403 15:08:35.347880  2715 net.cpp:148] Top shape: 24 (24)
I0403 15:08:35.347897  2715 net.cpp:148] Top shape: 24 (24)
I0403 15:08:35.347913  2715 net.cpp:148] Top shape: 24 (24)
I0403 15:08:35.347930  2715 net.cpp:148] Top shape: 24 (24)
I0403 15:08:35.347975  2715 net.cpp:156] Memory required for data: 14451744
I0403 15:08:35.347993  2715 layer_factory.hpp:77] Creating layer conv1/7x7_s2
I0403 15:08:35.348026  2715 net.cpp:91] Creating Layer conv1/7x7_s2
I0403 15:08:35.348047  2715 net.cpp:425] conv1/7x7_s2 <- data
I0403 15:08:35.348067  2715 net.cpp:399] conv1/7x7_s2 -> conv1/7x7_s2
I0403 15:08:35.492694  2715 net.cpp:141] Setting up conv1/7x7_s2
I0403 15:08:35.492753  2715 net.cpp:148] Top shape: 24 64 112 112 (19267584)
I0403 15:08:35.492771  2715 net.cpp:156] Memory required for data: 91522080
I0403 15:08:35.492801  2715 layer_factory.hpp:77] Creating layer conv1/relu_7x7
I0403 15:08:35.492828  2715 net.cpp:91] Creating Layer conv1/relu_7x7
I0403 15:08:35.492847  2715 net.cpp:425] conv1/relu_7x7 <- conv1/7x7_s2
I0403 15:08:35.492866  2715 net.cpp:386] conv1/relu_7x7 -> conv1/7x7_s2 (in-place)
I0403 15:08:35.493119  2715 net.cpp:141] Setting up conv1/relu_7x7
I0403 15:08:35.493145  2715 net.cpp:148] Top shape: 24 64 112 112 (19267584)
I0403 15:08:35.493161  2715 net.cpp:156] Memory required for data: 168592416
I0403 15:08:35.493186  2715 layer_factory.hpp:77] Creating layer pool1/3x3_s2
I0403 15:08:35.493216  2715 net.cpp:91] Creating Layer pool1/3x3_s2
I0403 15:08:35.493233  2715 net.cpp:425] pool1/3x3_s2 <- conv1/7x7_s2
I0403 15:08:35.493252  2715 net.cpp:399] pool1/3x3_s2 -> pool1/3x3_s2
I0403 15:08:35.493337  2715 net.cpp:141] Setting up pool1/3x3_s2
I0403 15:08:35.493377  2715 net.cpp:148] Top shape: 24 64 56 56 (4816896)
I0403 15:08:35.493393  2715 net.cpp:156] Memory required for data: 187860000
I0403 15:08:35.493410  2715 layer_factory.hpp:77] Creating layer pool1/norm1
I0403 15:08:35.493435  2715 net.cpp:91] Creating Layer pool1/norm1
I0403 15:08:35.493454  2715 net.cpp:425] pool1/norm1 <- pool1/3x3_s2
I0403 15:08:35.493473  2715 net.cpp:399] pool1/norm1 -> pool1/norm1
I0403 15:08:35.493772  2715 net.cpp:141] Setting up pool1/norm1
I0403 15:08:35.493799  2715 net.cpp:148] Top shape: 24 64 56 56 (4816896)
I0403 15:08:35.493815  2715 net.cpp:156] Memory required for data: 207127584
I0403 15:08:35.493831  2715 layer_factory.hpp:77] Creating layer conv2/3x3_reduce
I0403 15:08:35.493856  2715 net.cpp:91] Creating Layer conv2/3x3_reduce
I0403 15:08:35.493872  2715 net.cpp:425] conv2/3x3_reduce <- pool1/norm1
I0403 15:08:35.493892  2715 net.cpp:399] conv2/3x3_reduce -> conv2/3x3_reduce
I0403 15:08:35.495270  2715 net.cpp:141] Setting up conv2/3x3_reduce
I0403 15:08:35.495301  2715 net.cpp:148] Top shape: 24 64 56 56 (4816896)
I0403 15:08:35.495319  2715 net.cpp:156] Memory required for data: 226395168
I0403 15:08:35.495340  2715 layer_factory.hpp:77] Creating layer conv2/relu_3x3_reduce
I0403 15:08:35.495360  2715 net.cpp:91] Creating Layer conv2/relu_3x3_reduce
I0403 15:08:35.495376  2715 net.cpp:425] conv2/relu_3x3_reduce <- conv2/3x3_reduce
I0403 15:08:35.495394  2715 net.cpp:386] conv2/relu_3x3_reduce -> conv2/3x3_reduce (in-place)
I0403 15:08:35.500288  2715 net.cpp:141] Setting up conv2/relu_3x3_reduce
I0403 15:08:35.500320  2715 net.cpp:148] Top shape: 24 64 56 56 (4816896)
I0403 15:08:35.500337  2715 net.cpp:156] Memory required for data: 245662752
I0403 15:08:35.500355  2715 layer_factory.hpp:77] Creating layer conv2/3x3
I0403 15:08:35.500380  2715 net.cpp:91] Creating Layer conv2/3x3
I0403 15:08:35.500401  2715 net.cpp:425] conv2/3x3 <- conv2/3x3_reduce
I0403 15:08:35.500424  2715 net.cpp:399] conv2/3x3 -> conv2/3x3
I0403 15:08:35.502805  2715 net.cpp:141] Setting up conv2/3x3
I0403 15:08:35.502840  2715 net.cpp:148] Top shape: 24 192 56 56 (14450688)
I0403 15:08:35.502859  2715 net.cpp:156] Memory required for data: 303465504
I0403 15:08:35.502882  2715 layer_factory.hpp:77] Creating layer conv2/relu_3x3
I0403 15:08:35.502903  2715 net.cpp:91] Creating Layer conv2/relu_3x3
I0403 15:08:35.502920  2715 net.cpp:425] conv2/relu_3x3 <- conv2/3x3
I0403 15:08:35.502941  2715 net.cpp:386] conv2/relu_3x3 -> conv2/3x3 (in-place)
I0403 15:08:35.503124  2715 net.cpp:141] Setting up conv2/relu_3x3
I0403 15:08:35.503151  2715 net.cpp:148] Top shape: 24 192 56 56 (14450688)
I0403 15:08:35.503224  2715 net.cpp:156] Memory required for data: 361268256
I0403 15:08:35.503242  2715 layer_factory.hpp:77] Creating layer conv2/norm2
I0403 15:08:35.503264  2715 net.cpp:91] Creating Layer conv2/norm2
I0403 15:08:35.503281  2715 net.cpp:425] conv2/norm2 <- conv2/3x3
I0403 15:08:35.503300  2715 net.cpp:399] conv2/norm2 -> conv2/norm2
I0403 15:08:35.503618  2715 net.cpp:141] Setting up conv2/norm2
I0403 15:08:35.503648  2715 net.cpp:148] Top shape: 24 192 56 56 (14450688)
I0403 15:08:35.503666  2715 net.cpp:156] Memory required for data: 419071008
I0403 15:08:35.503682  2715 layer_factory.hpp:77] Creating layer pool2/3x3_s2
I0403 15:08:35.503700  2715 net.cpp:91] Creating Layer pool2/3x3_s2
I0403 15:08:35.503716  2715 net.cpp:425] pool2/3x3_s2 <- conv2/norm2
I0403 15:08:35.503734  2715 net.cpp:399] pool2/3x3_s2 -> pool2/3x3_s2
I0403 15:08:35.503789  2715 net.cpp:141] Setting up pool2/3x3_s2
I0403 15:08:35.503813  2715 net.cpp:148] Top shape: 24 192 28 28 (3612672)
I0403 15:08:35.503828  2715 net.cpp:156] Memory required for data: 433521696
I0403 15:08:35.503844  2715 layer_factory.hpp:77] Creating layer pool2/3x3_s2_pool2/3x3_s2_0_split
I0403 15:08:35.503861  2715 net.cpp:91] Creating Layer pool2/3x3_s2_pool2/3x3_s2_0_split
I0403 15:08:35.503877  2715 net.cpp:425] pool2/3x3_s2_pool2/3x3_s2_0_split <- pool2/3x3_s2
I0403 15:08:35.503897  2715 net.cpp:399] pool2/3x3_s2_pool2/3x3_s2_0_split -> pool2/3x3_s2_pool2/3x3_s2_0_split_0
I0403 15:08:35.503919  2715 net.cpp:399] pool2/3x3_s2_pool2/3x3_s2_0_split -> pool2/3x3_s2_pool2/3x3_s2_0_split_1
I0403 15:08:35.503939  2715 net.cpp:399] pool2/3x3_s2_pool2/3x3_s2_0_split -> pool2/3x3_s2_pool2/3x3_s2_0_split_2
I0403 15:08:35.503959  2715 net.cpp:399] pool2/3x3_s2_pool2/3x3_s2_0_split -> pool2/3x3_s2_pool2/3x3_s2_0_split_3
I0403 15:08:35.504034  2715 net.cpp:141] Setting up pool2/3x3_s2_pool2/3x3_s2_0_split
I0403 15:08:35.504057  2715 net.cpp:148] Top shape: 24 192 28 28 (3612672)
I0403 15:08:35.504075  2715 net.cpp:148] Top shape: 24 192 28 28 (3612672)
I0403 15:08:35.504091  2715 net.cpp:148] Top shape: 24 192 28 28 (3612672)
I0403 15:08:35.504106  2715 net.cpp:148] Top shape: 24 192 28 28 (3612672)
I0403 15:08:35.504120  2715 net.cpp:156] Memory required for data: 491324448
I0403 15:08:35.504135  2715 layer_factory.hpp:77] Creating layer inception_3a/1x1
I0403 15:08:35.504158  2715 net.cpp:91] Creating Layer inception_3a/1x1
I0403 15:08:35.504180  2715 net.cpp:425] inception_3a/1x1 <- pool2/3x3_s2_pool2/3x3_s2_0_split_0
I0403 15:08:35.504204  2715 net.cpp:399] inception_3a/1x1 -> inception_3a/1x1
I0403 15:08:35.505800  2715 net.cpp:141] Setting up inception_3a/1x1
I0403 15:08:35.505832  2715 net.cpp:148] Top shape: 24 64 28 28 (1204224)
I0403 15:08:35.505851  2715 net.cpp:156] Memory required for data: 496141344
I0403 15:08:35.505869  2715 layer_factory.hpp:77] Creating layer inception_3a/relu_1x1
I0403 15:08:35.505888  2715 net.cpp:91] Creating Layer inception_3a/relu_1x1
I0403 15:08:35.505904  2715 net.cpp:425] inception_3a/relu_1x1 <- inception_3a/1x1
I0403 15:08:35.505925  2715 net.cpp:386] inception_3a/relu_1x1 -> inception_3a/1x1 (in-place)
I0403 15:08:35.506103  2715 net.cpp:141] Setting up inception_3a/relu_1x1
I0403 15:08:35.506129  2715 net.cpp:148] Top shape: 24 64 28 28 (1204224)
I0403 15:08:35.506145  2715 net.cpp:156] Memory required for data: 500958240
I0403 15:08:35.506160  2715 layer_factory.hpp:77] Creating layer inception_3a/3x3_reduce
I0403 15:08:35.506187  2715 net.cpp:91] Creating Layer inception_3a/3x3_reduce
I0403 15:08:35.506207  2715 net.cpp:425] inception_3a/3x3_reduce <- pool2/3x3_s2_pool2/3x3_s2_0_split_1
I0403 15:08:35.506229  2715 net.cpp:399] inception_3a/3x3_reduce -> inception_3a/3x3_reduce
I0403 15:08:35.508086  2715 net.cpp:141] Setting up inception_3a/3x3_reduce
I0403 15:08:35.508121  2715 net.cpp:148] Top shape: 24 96 28 28 (1806336)
I0403 15:08:35.508139  2715 net.cpp:156] Memory required for data: 508183584
I0403 15:08:35.508163  2715 layer_factory.hpp:77] Creating layer inception_3a/relu_3x3_reduce
I0403 15:08:35.508208  2715 net.cpp:91] Creating Layer inception_3a/relu_3x3_reduce
I0403 15:08:35.508226  2715 net.cpp:425] inception_3a/relu_3x3_reduce <- inception_3a/3x3_reduce
I0403 15:08:35.508246  2715 net.cpp:386] inception_3a/relu_3x3_reduce -> inception_3a/3x3_reduce (in-place)
I0403 15:08:35.508433  2715 net.cpp:141] Setting up inception_3a/relu_3x3_reduce
I0403 15:08:35.508463  2715 net.cpp:148] Top shape: 24 96 28 28 (1806336)
I0403 15:08:35.508481  2715 net.cpp:156] Memory required for data: 515408928
I0403 15:08:35.508497  2715 layer_factory.hpp:77] Creating layer inception_3a/3x3
I0403 15:08:35.508518  2715 net.cpp:91] Creating Layer inception_3a/3x3
I0403 15:08:35.508535  2715 net.cpp:425] inception_3a/3x3 <- inception_3a/3x3_reduce
I0403 15:08:35.508558  2715 net.cpp:399] inception_3a/3x3 -> inception_3a/3x3
I0403 15:08:35.510241  2715 net.cpp:141] Setting up inception_3a/3x3
I0403 15:08:35.510274  2715 net.cpp:148] Top shape: 24 128 28 28 (2408448)
I0403 15:08:35.510291  2715 net.cpp:156] Memory required for data: 525042720
I0403 15:08:35.510313  2715 layer_factory.hpp:77] Creating layer inception_3a/relu_3x3
I0403 15:08:35.510331  2715 net.cpp:91] Creating Layer inception_3a/relu_3x3
I0403 15:08:35.510349  2715 net.cpp:425] inception_3a/relu_3x3 <- inception_3a/3x3
I0403 15:08:35.510368  2715 net.cpp:386] inception_3a/relu_3x3 -> inception_3a/3x3 (in-place)
I0403 15:08:35.510648  2715 net.cpp:141] Setting up inception_3a/relu_3x3
I0403 15:08:35.510679  2715 net.cpp:148] Top shape: 24 128 28 28 (2408448)
I0403 15:08:35.510695  2715 net.cpp:156] Memory required for data: 534676512
I0403 15:08:35.510710  2715 layer_factory.hpp:77] Creating layer inception_3a/5x5_reduce
I0403 15:08:35.510733  2715 net.cpp:91] Creating Layer inception_3a/5x5_reduce
I0403 15:08:35.510751  2715 net.cpp:425] inception_3a/5x5_reduce <- pool2/3x3_s2_pool2/3x3_s2_0_split_2
I0403 15:08:35.510773  2715 net.cpp:399] inception_3a/5x5_reduce -> inception_3a/5x5_reduce
I0403 15:08:35.511754  2715 net.cpp:141] Setting up inception_3a/5x5_reduce
I0403 15:08:35.511785  2715 net.cpp:148] Top shape: 24 16 28 28 (301056)
I0403 15:08:35.511802  2715 net.cpp:156] Memory required for data: 535880736
I0403 15:08:35.511822  2715 layer_factory.hpp:77] Creating layer inception_3a/relu_5x5_reduce
I0403 15:08:35.511845  2715 net.cpp:91] Creating Layer inception_3a/relu_5x5_reduce
I0403 15:08:35.511863  2715 net.cpp:425] inception_3a/relu_5x5_reduce <- inception_3a/5x5_reduce
I0403 15:08:35.511883  2715 net.cpp:386] inception_3a/relu_5x5_reduce -> inception_3a/5x5_reduce (in-place)
I0403 15:08:35.512192  2715 net.cpp:141] Setting up inception_3a/relu_5x5_reduce
I0403 15:08:35.512223  2715 net.cpp:148] Top shape: 24 16 28 28 (301056)
I0403 15:08:35.512240  2715 net.cpp:156] Memory required for data: 537084960
I0403 15:08:35.512256  2715 layer_factory.hpp:77] Creating layer inception_3a/5x5
I0403 15:08:35.512281  2715 net.cpp:91] Creating Layer inception_3a/5x5
I0403 15:08:35.512301  2715 net.cpp:425] inception_3a/5x5 <- inception_3a/5x5_reduce
I0403 15:08:35.512323  2715 net.cpp:399] inception_3a/5x5 -> inception_3a/5x5
I0403 15:08:35.513370  2715 net.cpp:141] Setting up inception_3a/5x5
I0403 15:08:35.513402  2715 net.cpp:148] Top shape: 24 32 28 28 (602112)
I0403 15:08:35.513420  2715 net.cpp:156] Memory required for data: 539493408
I0403 15:08:35.513442  2715 layer_factory.hpp:77] Creating layer inception_3a/relu_5x5
I0403 15:08:35.513461  2715 net.cpp:91] Creating Layer inception_3a/relu_5x5
I0403 15:08:35.513485  2715 net.cpp:425] inception_3a/relu_5x5 <- inception_3a/5x5
I0403 15:08:35.513505  2715 net.cpp:386] inception_3a/relu_5x5 -> inception_3a/5x5 (in-place)
I0403 15:08:35.513680  2715 net.cpp:141] Setting up inception_3a/relu_5x5
I0403 15:08:35.513707  2715 net.cpp:148] Top shape: 24 32 28 28 (602112)
I0403 15:08:35.513722  2715 net.cpp:156] Memory required for data: 541901856
I0403 15:08:35.513739  2715 layer_factory.hpp:77] Creating layer inception_3a/pool
I0403 15:08:35.513761  2715 net.cpp:91] Creating Layer inception_3a/pool
I0403 15:08:35.513792  2715 net.cpp:425] inception_3a/pool <- pool2/3x3_s2_pool2/3x3_s2_0_split_3
I0403 15:08:35.513814  2715 net.cpp:399] inception_3a/pool -> inception_3a/pool
I0403 15:08:35.513875  2715 net.cpp:141] Setting up inception_3a/pool
I0403 15:08:35.513898  2715 net.cpp:148] Top shape: 24 192 28 28 (3612672)
I0403 15:08:35.513913  2715 net.cpp:156] Memory required for data: 556352544
I0403 15:08:35.513929  2715 layer_factory.hpp:77] Creating layer inception_3a/pool_proj
I0403 15:08:35.513955  2715 net.cpp:91] Creating Layer inception_3a/pool_proj
I0403 15:08:35.513973  2715 net.cpp:425] inception_3a/pool_proj <- inception_3a/pool
I0403 15:08:35.513993  2715 net.cpp:399] inception_3a/pool_proj -> inception_3a/pool_proj
I0403 15:08:35.514972  2715 net.cpp:141] Setting up inception_3a/pool_proj
I0403 15:08:35.515002  2715 net.cpp:148] Top shape: 24 32 28 28 (602112)
I0403 15:08:35.515019  2715 net.cpp:156] Memory required for data: 558760992
I0403 15:08:35.515045  2715 layer_factory.hpp:77] Creating layer inception_3a/relu_pool_proj
I0403 15:08:35.515070  2715 net.cpp:91] Creating Layer inception_3a/relu_pool_proj
I0403 15:08:35.515087  2715 net.cpp:425] inception_3a/relu_pool_proj <- inception_3a/pool_proj
I0403 15:08:35.515105  2715 net.cpp:386] inception_3a/relu_pool_proj -> inception_3a/pool_proj (in-place)
I0403 15:08:35.515398  2715 net.cpp:141] Setting up inception_3a/relu_pool_proj
I0403 15:08:35.515429  2715 net.cpp:148] Top shape: 24 32 28 28 (602112)
I0403 15:08:35.515450  2715 net.cpp:156] Memory required for data: 561169440
I0403 15:08:35.515466  2715 layer_factory.hpp:77] Creating layer inception_3a/output
I0403 15:08:35.515486  2715 net.cpp:91] Creating Layer inception_3a/output
I0403 15:08:35.515502  2715 net.cpp:425] inception_3a/output <- inception_3a/1x1
I0403 15:08:35.515519  2715 net.cpp:425] inception_3a/output <- inception_3a/3x3
I0403 15:08:35.515537  2715 net.cpp:425] inception_3a/output <- inception_3a/5x5
I0403 15:08:35.515554  2715 net.cpp:425] inception_3a/output <- inception_3a/pool_proj
I0403 15:08:35.515574  2715 net.cpp:399] inception_3a/output -> inception_3a/output
I0403 15:08:35.515622  2715 net.cpp:141] Setting up inception_3a/output
I0403 15:08:35.515646  2715 net.cpp:148] Top shape: 24 256 28 28 (4816896)
I0403 15:08:35.515661  2715 net.cpp:156] Memory required for data: 580437024
I0403 15:08:35.515676  2715 layer_factory.hpp:77] Creating layer inception_3a/output_inception_3a/output_0_split
I0403 15:08:35.515697  2715 net.cpp:91] Creating Layer inception_3a/output_inception_3a/output_0_split
I0403 15:08:35.515713  2715 net.cpp:425] inception_3a/output_inception_3a/output_0_split <- inception_3a/output
I0403 15:08:35.515732  2715 net.cpp:399] inception_3a/output_inception_3a/output_0_split -> inception_3a/output_inception_3a/output_0_split_0
I0403 15:08:35.515753  2715 net.cpp:399] inception_3a/output_inception_3a/output_0_split -> inception_3a/output_inception_3a/output_0_split_1
I0403 15:08:35.515779  2715 net.cpp:399] inception_3a/output_inception_3a/output_0_split -> inception_3a/output_inception_3a/output_0_split_2
I0403 15:08:35.515800  2715 net.cpp:399] inception_3a/output_inception_3a/output_0_split -> inception_3a/output_inception_3a/output_0_split_3
I0403 15:08:35.515874  2715 net.cpp:141] Setting up inception_3a/output_inception_3a/output_0_split
I0403 15:08:35.515899  2715 net.cpp:148] Top shape: 24 256 28 28 (4816896)
I0403 15:08:35.515918  2715 net.cpp:148] Top shape: 24 256 28 28 (4816896)
I0403 15:08:35.515934  2715 net.cpp:148] Top shape: 24 256 28 28 (4816896)
I0403 15:08:35.515950  2715 net.cpp:148] Top shape: 24 256 28 28 (4816896)
I0403 15:08:35.515965  2715 net.cpp:156] Memory required for data: 657507360
I0403 15:08:35.515980  2715 layer_factory.hpp:77] Creating layer inception_3b/1x1
I0403 15:08:35.516003  2715 net.cpp:91] Creating Layer inception_3b/1x1
I0403 15:08:35.516021  2715 net.cpp:425] inception_3b/1x1 <- inception_3a/output_inception_3a/output_0_split_0
I0403 15:08:35.516041  2715 net.cpp:399] inception_3b/1x1 -> inception_3b/1x1
I0403 15:08:35.517215  2715 net.cpp:141] Setting up inception_3b/1x1
I0403 15:08:35.517261  2715 net.cpp:148] Top shape: 24 128 28 28 (2408448)
I0403 15:08:35.517279  2715 net.cpp:156] Memory required for data: 667141152
I0403 15:08:35.517299  2715 layer_factory.hpp:77] Creating layer inception_3b/relu_1x1
I0403 15:08:35.517318  2715 net.cpp:91] Creating Layer inception_3b/relu_1x1
I0403 15:08:35.517335  2715 net.cpp:425] inception_3b/relu_1x1 <- inception_3b/1x1
I0403 15:08:35.517355  2715 net.cpp:386] inception_3b/relu_1x1 -> inception_3b/1x1 (in-place)
I0403 15:08:35.517539  2715 net.cpp:141] Setting up inception_3b/relu_1x1
I0403 15:08:35.517568  2715 net.cpp:148] Top shape: 24 128 28 28 (2408448)
I0403 15:08:35.517585  2715 net.cpp:156] Memory required for data: 676774944
I0403 15:08:35.517601  2715 layer_factory.hpp:77] Creating layer inception_3b/3x3_reduce
I0403 15:08:35.517623  2715 net.cpp:91] Creating Layer inception_3b/3x3_reduce
I0403 15:08:35.517642  2715 net.cpp:425] inception_3b/3x3_reduce <- inception_3a/output_inception_3a/output_0_split_1
I0403 15:08:35.517663  2715 net.cpp:399] inception_3b/3x3_reduce -> inception_3b/3x3_reduce
I0403 15:08:35.518822  2715 net.cpp:141] Setting up inception_3b/3x3_reduce
I0403 15:08:35.518852  2715 net.cpp:148] Top shape: 24 128 28 28 (2408448)
I0403 15:08:35.518868  2715 net.cpp:156] Memory required for data: 686408736
I0403 15:08:35.518888  2715 layer_factory.hpp:77] Creating layer inception_3b/relu_3x3_reduce
I0403 15:08:35.518911  2715 net.cpp:91] Creating Layer inception_3b/relu_3x3_reduce
I0403 15:08:35.518930  2715 net.cpp:425] inception_3b/relu_3x3_reduce <- inception_3b/3x3_reduce
I0403 15:08:35.518950  2715 net.cpp:386] inception_3b/relu_3x3_reduce -> inception_3b/3x3_reduce (in-place)
I0403 15:08:35.519127  2715 net.cpp:141] Setting up inception_3b/relu_3x3_reduce
I0403 15:08:35.519155  2715 net.cpp:148] Top shape: 24 128 28 28 (2408448)
I0403 15:08:35.519170  2715 net.cpp:156] Memory required for data: 696042528
I0403 15:08:35.519191  2715 layer_factory.hpp:77] Creating layer inception_3b/3x3
I0403 15:08:35.519217  2715 net.cpp:91] Creating Layer inception_3b/3x3
I0403 15:08:35.519239  2715 net.cpp:425] inception_3b/3x3 <- inception_3b/3x3_reduce
I0403 15:08:35.519260  2715 net.cpp:399] inception_3b/3x3 -> inception_3b/3x3
I0403 15:08:35.522256  2715 net.cpp:141] Setting up inception_3b/3x3
I0403 15:08:35.522289  2715 net.cpp:148] Top shape: 24 192 28 28 (3612672)
I0403 15:08:35.522307  2715 net.cpp:156] Memory required for data: 710493216
I0403 15:08:35.522327  2715 layer_factory.hpp:77] Creating layer inception_3b/relu_3x3
I0403 15:08:35.522346  2715 net.cpp:91] Creating Layer inception_3b/relu_3x3
I0403 15:08:35.522363  2715 net.cpp:425] inception_3b/relu_3x3 <- inception_3b/3x3
I0403 15:08:35.522385  2715 net.cpp:386] inception_3b/relu_3x3 -> inception_3b/3x3 (in-place)
I0403 15:08:35.522665  2715 net.cpp:141] Setting up inception_3b/relu_3x3
I0403 15:08:35.522694  2715 net.cpp:148] Top shape: 24 192 28 28 (3612672)
I0403 15:08:35.522711  2715 net.cpp:156] Memory required for data: 724943904
I0403 15:08:35.522727  2715 layer_factory.hpp:77] Creating layer inception_3b/5x5_reduce
I0403 15:08:35.522752  2715 net.cpp:91] Creating Layer inception_3b/5x5_reduce
I0403 15:08:35.522770  2715 net.cpp:425] inception_3b/5x5_reduce <- inception_3a/output_inception_3a/output_0_split_2
I0403 15:08:35.522794  2715 net.cpp:399] inception_3b/5x5_reduce -> inception_3b/5x5_reduce
I0403 15:08:35.523843  2715 net.cpp:141] Setting up inception_3b/5x5_reduce
I0403 15:08:35.523874  2715 net.cpp:148] Top shape: 24 32 28 28 (602112)
I0403 15:08:35.523892  2715 net.cpp:156] Memory required for data: 727352352
I0403 15:08:35.523911  2715 layer_factory.hpp:77] Creating layer inception_3b/relu_5x5_reduce
I0403 15:08:35.523931  2715 net.cpp:91] Creating Layer inception_3b/relu_5x5_reduce
I0403 15:08:35.523947  2715 net.cpp:425] inception_3b/relu_5x5_reduce <- inception_3b/5x5_reduce
I0403 15:08:35.523967  2715 net.cpp:386] inception_3b/relu_5x5_reduce -> inception_3b/5x5_reduce (in-place)
I0403 15:08:35.524164  2715 net.cpp:141] Setting up inception_3b/relu_5x5_reduce
I0403 15:08:35.524195  2715 net.cpp:148] Top shape: 24 32 28 28 (602112)
I0403 15:08:35.524211  2715 net.cpp:156] Memory required for data: 729760800
I0403 15:08:35.524227  2715 layer_factory.hpp:77] Creating layer inception_3b/5x5
I0403 15:08:35.524250  2715 net.cpp:91] Creating Layer inception_3b/5x5
I0403 15:08:35.524268  2715 net.cpp:425] inception_3b/5x5 <- inception_3b/5x5_reduce
I0403 15:08:35.524292  2715 net.cpp:399] inception_3b/5x5 -> inception_3b/5x5
I0403 15:08:35.526298  2715 net.cpp:141] Setting up inception_3b/5x5
I0403 15:08:35.526329  2715 net.cpp:148] Top shape: 24 96 28 28 (1806336)
I0403 15:08:35.526345  2715 net.cpp:156] Memory required for data: 736986144
I0403 15:08:35.526366  2715 layer_factory.hpp:77] Creating layer inception_3b/relu_5x5
I0403 15:08:35.526387  2715 net.cpp:91] Creating Layer inception_3b/relu_5x5
I0403 15:08:35.526406  2715 net.cpp:425] inception_3b/relu_5x5 <- inception_3b/5x5
I0403 15:08:35.526425  2715 net.cpp:386] inception_3b/relu_5x5 -> inception_3b/5x5 (in-place)
I0403 15:08:35.526621  2715 net.cpp:141] Setting up inception_3b/relu_5x5
I0403 15:08:35.526648  2715 net.cpp:148] Top shape: 24 96 28 28 (1806336)
I0403 15:08:35.526664  2715 net.cpp:156] Memory required for data: 744211488
I0403 15:08:35.526681  2715 layer_factory.hpp:77] Creating layer inception_3b/pool
I0403 15:08:35.526701  2715 net.cpp:91] Creating Layer inception_3b/pool
I0403 15:08:35.526718  2715 net.cpp:425] inception_3b/pool <- inception_3a/output_inception_3a/output_0_split_3
I0403 15:08:35.526736  2715 net.cpp:399] inception_3b/pool -> inception_3b/pool
I0403 15:08:35.526794  2715 net.cpp:141] Setting up inception_3b/pool
I0403 15:08:35.526818  2715 net.cpp:148] Top shape: 24 256 28 28 (4816896)
I0403 15:08:35.526834  2715 net.cpp:156] Memory required for data: 763479072
I0403 15:08:35.526849  2715 layer_factory.hpp:77] Creating layer inception_3b/pool_proj
I0403 15:08:35.526873  2715 net.cpp:91] Creating Layer inception_3b/pool_proj
I0403 15:08:35.526891  2715 net.cpp:425] inception_3b/pool_proj <- inception_3b/pool
I0403 15:08:35.526911  2715 net.cpp:399] inception_3b/pool_proj -> inception_3b/pool_proj
I0403 15:08:35.527989  2715 net.cpp:141] Setting up inception_3b/pool_proj
I0403 15:08:35.528018  2715 net.cpp:148] Top shape: 24 64 28 28 (1204224)
I0403 15:08:35.528034  2715 net.cpp:156] Memory required for data: 768295968
I0403 15:08:35.528053  2715 layer_factory.hpp:77] Creating layer inception_3b/relu_pool_proj
I0403 15:08:35.528074  2715 net.cpp:91] Creating Layer inception_3b/relu_pool_proj
I0403 15:08:35.528091  2715 net.cpp:425] inception_3b/relu_pool_proj <- inception_3b/pool_proj
I0403 15:08:35.528110  2715 net.cpp:386] inception_3b/relu_pool_proj -> inception_3b/pool_proj (in-place)
I0403 15:08:35.528519  2715 net.cpp:141] Setting up inception_3b/relu_pool_proj
I0403 15:08:35.528548  2715 net.cpp:148] Top shape: 24 64 28 28 (1204224)
I0403 15:08:35.528563  2715 net.cpp:156] Memory required for data: 773112864
I0403 15:08:35.528578  2715 layer_factory.hpp:77] Creating layer inception_3b/output
I0403 15:08:35.528596  2715 net.cpp:91] Creating Layer inception_3b/output
I0403 15:08:35.528612  2715 net.cpp:425] inception_3b/output <- inception_3b/1x1
I0403 15:08:35.528630  2715 net.cpp:425] inception_3b/output <- inception_3b/3x3
I0403 15:08:35.528646  2715 net.cpp:425] inception_3b/output <- inception_3b/5x5
I0403 15:08:35.528662  2715 net.cpp:425] inception_3b/output <- inception_3b/pool_proj
I0403 15:08:35.528682  2715 net.cpp:399] inception_3b/output -> inception_3b/output
I0403 15:08:35.528726  2715 net.cpp:141] Setting up inception_3b/output
I0403 15:08:35.528753  2715 net.cpp:148] Top shape: 24 480 28 28 (9031680)
I0403 15:08:35.528769  2715 net.cpp:156] Memory required for data: 809239584
I0403 15:08:35.528784  2715 layer_factory.hpp:77] Creating layer pool3/3x3_s2
I0403 15:08:35.528802  2715 net.cpp:91] Creating Layer pool3/3x3_s2
I0403 15:08:35.528818  2715 net.cpp:425] pool3/3x3_s2 <- inception_3b/output
I0403 15:08:35.528854  2715 net.cpp:399] pool3/3x3_s2 -> pool3/3x3_s2
I0403 15:08:35.528914  2715 net.cpp:141] Setting up pool3/3x3_s2
I0403 15:08:35.528939  2715 net.cpp:148] Top shape: 24 480 14 14 (2257920)
I0403 15:08:35.528954  2715 net.cpp:156] Memory required for data: 818271264
I0403 15:08:35.528969  2715 layer_factory.hpp:77] Creating layer pool3/3x3_s2_pool3/3x3_s2_0_split
I0403 15:08:35.528990  2715 net.cpp:91] Creating Layer pool3/3x3_s2_pool3/3x3_s2_0_split
I0403 15:08:35.529006  2715 net.cpp:425] pool3/3x3_s2_pool3/3x3_s2_0_split <- pool3/3x3_s2
I0403 15:08:35.529024  2715 net.cpp:399] pool3/3x3_s2_pool3/3x3_s2_0_split -> pool3/3x3_s2_pool3/3x3_s2_0_split_0
I0403 15:08:35.529043  2715 net.cpp:399] pool3/3x3_s2_pool3/3x3_s2_0_split -> pool3/3x3_s2_pool3/3x3_s2_0_split_1
I0403 15:08:35.529063  2715 net.cpp:399] pool3/3x3_s2_pool3/3x3_s2_0_split -> pool3/3x3_s2_pool3/3x3_s2_0_split_2
I0403 15:08:35.529085  2715 net.cpp:399] pool3/3x3_s2_pool3/3x3_s2_0_split -> pool3/3x3_s2_pool3/3x3_s2_0_split_3
I0403 15:08:35.529167  2715 net.cpp:141] Setting up pool3/3x3_s2_pool3/3x3_s2_0_split
I0403 15:08:35.529196  2715 net.cpp:148] Top shape: 24 480 14 14 (2257920)
I0403 15:08:35.529213  2715 net.cpp:148] Top shape: 24 480 14 14 (2257920)
I0403 15:08:35.529229  2715 net.cpp:148] Top shape: 24 480 14 14 (2257920)
I0403 15:08:35.529245  2715 net.cpp:148] Top shape: 24 480 14 14 (2257920)
I0403 15:08:35.529259  2715 net.cpp:156] Memory required for data: 854397984
I0403 15:08:35.529278  2715 layer_factory.hpp:77] Creating layer inception_4a/1x1
I0403 15:08:35.529301  2715 net.cpp:91] Creating Layer inception_4a/1x1
I0403 15:08:35.529320  2715 net.cpp:425] inception_4a/1x1 <- pool3/3x3_s2_pool3/3x3_s2_0_split_0
I0403 15:08:35.529342  2715 net.cpp:399] inception_4a/1x1 -> inception_4a/1x1
I0403 15:08:35.530916  2715 net.cpp:141] Setting up inception_4a/1x1
I0403 15:08:35.530946  2715 net.cpp:148] Top shape: 24 192 14 14 (903168)
I0403 15:08:35.530962  2715 net.cpp:156] Memory required for data: 858010656
I0403 15:08:35.530982  2715 layer_factory.hpp:77] Creating layer inception_4a/relu_1x1
I0403 15:08:35.531002  2715 net.cpp:91] Creating Layer inception_4a/relu_1x1
I0403 15:08:35.531020  2715 net.cpp:425] inception_4a/relu_1x1 <- inception_4a/1x1
I0403 15:08:35.531038  2715 net.cpp:386] inception_4a/relu_1x1 -> inception_4a/1x1 (in-place)
I0403 15:08:35.531214  2715 net.cpp:141] Setting up inception_4a/relu_1x1
I0403 15:08:35.531241  2715 net.cpp:148] Top shape: 24 192 14 14 (903168)
I0403 15:08:35.531257  2715 net.cpp:156] Memory required for data: 861623328
I0403 15:08:35.531272  2715 layer_factory.hpp:77] Creating layer inception_4a/3x3_reduce
I0403 15:08:35.531294  2715 net.cpp:91] Creating Layer inception_4a/3x3_reduce
I0403 15:08:35.531311  2715 net.cpp:425] inception_4a/3x3_reduce <- pool3/3x3_s2_pool3/3x3_s2_0_split_1
I0403 15:08:35.531330  2715 net.cpp:399] inception_4a/3x3_reduce -> inception_4a/3x3_reduce
I0403 15:08:35.532601  2715 net.cpp:141] Setting up inception_4a/3x3_reduce
I0403 15:08:35.532630  2715 net.cpp:148] Top shape: 24 96 14 14 (451584)
I0403 15:08:35.532646  2715 net.cpp:156] Memory required for data: 863429664
I0403 15:08:35.532673  2715 layer_factory.hpp:77] Creating layer inception_4a/relu_3x3_reduce
I0403 15:08:35.532693  2715 net.cpp:91] Creating Layer inception_4a/relu_3x3_reduce
I0403 15:08:35.532711  2715 net.cpp:425] inception_4a/relu_3x3_reduce <- inception_4a/3x3_reduce
I0403 15:08:35.532730  2715 net.cpp:386] inception_4a/relu_3x3_reduce -> inception_4a/3x3_reduce (in-place)
I0403 15:08:35.532902  2715 net.cpp:141] Setting up inception_4a/relu_3x3_reduce
I0403 15:08:35.532930  2715 net.cpp:148] Top shape: 24 96 14 14 (451584)
I0403 15:08:35.532948  2715 net.cpp:156] Memory required for data: 865236000
I0403 15:08:35.532963  2715 layer_factory.hpp:77] Creating layer inception_4a/3x3
I0403 15:08:35.532984  2715 net.cpp:91] Creating Layer inception_4a/3x3
I0403 15:08:35.533000  2715 net.cpp:425] inception_4a/3x3 <- inception_4a/3x3_reduce
I0403 15:08:35.533021  2715 net.cpp:399] inception_4a/3x3 -> inception_4a/3x3
I0403 15:08:35.535766  2715 net.cpp:141] Setting up inception_4a/3x3
I0403 15:08:35.535795  2715 net.cpp:148] Top shape: 24 208 14 14 (978432)
I0403 15:08:35.535811  2715 net.cpp:156] Memory required for data: 869149728
I0403 15:08:35.535832  2715 layer_factory.hpp:77] Creating layer inception_4a/relu_3x3
I0403 15:08:35.535851  2715 net.cpp:91] Creating Layer inception_4a/relu_3x3
I0403 15:08:35.535867  2715 net.cpp:425] inception_4a/relu_3x3 <- inception_4a/3x3
I0403 15:08:35.535886  2715 net.cpp:386] inception_4a/relu_3x3 -> inception_4a/3x3 (in-place)
I0403 15:08:35.536160  2715 net.cpp:141] Setting up inception_4a/relu_3x3
I0403 15:08:35.536191  2715 net.cpp:148] Top shape: 24 208 14 14 (978432)
I0403 15:08:35.536207  2715 net.cpp:156] Memory required for data: 873063456
I0403 15:08:35.536222  2715 layer_factory.hpp:77] Creating layer inception_4a/5x5_reduce
I0403 15:08:35.536248  2715 net.cpp:91] Creating Layer inception_4a/5x5_reduce
I0403 15:08:35.536267  2715 net.cpp:425] inception_4a/5x5_reduce <- pool3/3x3_s2_pool3/3x3_s2_0_split_2
I0403 15:08:35.536286  2715 net.cpp:399] inception_4a/5x5_reduce -> inception_4a/5x5_reduce
I0403 15:08:35.537307  2715 net.cpp:141] Setting up inception_4a/5x5_reduce
I0403 15:08:35.537338  2715 net.cpp:148] Top shape: 24 16 14 14 (75264)
I0403 15:08:35.537354  2715 net.cpp:156] Memory required for data: 873364512
I0403 15:08:35.537374  2715 layer_factory.hpp:77] Creating layer inception_4a/relu_5x5_reduce
I0403 15:08:35.537392  2715 net.cpp:91] Creating Layer inception_4a/relu_5x5_reduce
I0403 15:08:35.537408  2715 net.cpp:425] inception_4a/relu_5x5_reduce <- inception_4a/5x5_reduce
I0403 15:08:35.537428  2715 net.cpp:386] inception_4a/relu_5x5_reduce -> inception_4a/5x5_reduce (in-place)
I0403 15:08:35.537612  2715 net.cpp:141] Setting up inception_4a/relu_5x5_reduce
I0403 15:08:35.537637  2715 net.cpp:148] Top shape: 24 16 14 14 (75264)
I0403 15:08:35.537652  2715 net.cpp:156] Memory required for data: 873665568
I0403 15:08:35.537667  2715 layer_factory.hpp:77] Creating layer inception_4a/5x5
I0403 15:08:35.537688  2715 net.cpp:91] Creating Layer inception_4a/5x5
I0403 15:08:35.537705  2715 net.cpp:425] inception_4a/5x5 <- inception_4a/5x5_reduce
I0403 15:08:35.537726  2715 net.cpp:399] inception_4a/5x5 -> inception_4a/5x5
I0403 15:08:35.538802  2715 net.cpp:141] Setting up inception_4a/5x5
I0403 15:08:35.538831  2715 net.cpp:148] Top shape: 24 48 14 14 (225792)
I0403 15:08:35.538848  2715 net.cpp:156] Memory required for data: 874568736
I0403 15:08:35.538866  2715 layer_factory.hpp:77] Creating layer inception_4a/relu_5x5
I0403 15:08:35.538887  2715 net.cpp:91] Creating Layer inception_4a/relu_5x5
I0403 15:08:35.538905  2715 net.cpp:425] inception_4a/relu_5x5 <- inception_4a/5x5
I0403 15:08:35.538923  2715 net.cpp:386] inception_4a/relu_5x5 -> inception_4a/5x5 (in-place)
I0403 15:08:35.539096  2715 net.cpp:141] Setting up inception_4a/relu_5x5
I0403 15:08:35.539120  2715 net.cpp:148] Top shape: 24 48 14 14 (225792)
I0403 15:08:35.539135  2715 net.cpp:156] Memory required for data: 875471904
I0403 15:08:35.539149  2715 layer_factory.hpp:77] Creating layer inception_4a/pool
I0403 15:08:35.539170  2715 net.cpp:91] Creating Layer inception_4a/pool
I0403 15:08:35.539192  2715 net.cpp:425] inception_4a/pool <- pool3/3x3_s2_pool3/3x3_s2_0_split_3
I0403 15:08:35.539211  2715 net.cpp:399] inception_4a/pool -> inception_4a/pool
I0403 15:08:35.539273  2715 net.cpp:141] Setting up inception_4a/pool
I0403 15:08:35.539296  2715 net.cpp:148] Top shape: 24 480 14 14 (2257920)
I0403 15:08:35.539311  2715 net.cpp:156] Memory required for data: 884503584
I0403 15:08:35.539325  2715 layer_factory.hpp:77] Creating layer inception_4a/pool_proj
I0403 15:08:35.539347  2715 net.cpp:91] Creating Layer inception_4a/pool_proj
I0403 15:08:35.539363  2715 net.cpp:425] inception_4a/pool_proj <- inception_4a/pool
I0403 15:08:35.539386  2715 net.cpp:399] inception_4a/pool_proj -> inception_4a/pool_proj
I0403 15:08:35.540541  2715 net.cpp:141] Setting up inception_4a/pool_proj
I0403 15:08:35.540571  2715 net.cpp:148] Top shape: 24 64 14 14 (301056)
I0403 15:08:35.540602  2715 net.cpp:156] Memory required for data: 885707808
I0403 15:08:35.540623  2715 layer_factory.hpp:77] Creating layer inception_4a/relu_pool_proj
I0403 15:08:35.540647  2715 net.cpp:91] Creating Layer inception_4a/relu_pool_proj
I0403 15:08:35.540665  2715 net.cpp:425] inception_4a/relu_pool_proj <- inception_4a/pool_proj
I0403 15:08:35.540683  2715 net.cpp:386] inception_4a/relu_pool_proj -> inception_4a/pool_proj (in-place)
I0403 15:08:35.540963  2715 net.cpp:141] Setting up inception_4a/relu_pool_proj
I0403 15:08:35.540990  2715 net.cpp:148] Top shape: 24 64 14 14 (301056)
I0403 15:08:35.541007  2715 net.cpp:156] Memory required for data: 886912032
I0403 15:08:35.541023  2715 layer_factory.hpp:77] Creating layer inception_4a/output
I0403 15:08:35.541045  2715 net.cpp:91] Creating Layer inception_4a/output
I0403 15:08:35.541064  2715 net.cpp:425] inception_4a/output <- inception_4a/1x1
I0403 15:08:35.541080  2715 net.cpp:425] inception_4a/output <- inception_4a/3x3
I0403 15:08:35.541097  2715 net.cpp:425] inception_4a/output <- inception_4a/5x5
I0403 15:08:35.541113  2715 net.cpp:425] inception_4a/output <- inception_4a/pool_proj
I0403 15:08:35.541131  2715 net.cpp:399] inception_4a/output -> inception_4a/output
I0403 15:08:35.541182  2715 net.cpp:141] Setting up inception_4a/output
I0403 15:08:35.541208  2715 net.cpp:148] Top shape: 24 512 14 14 (2408448)
I0403 15:08:35.541224  2715 net.cpp:156] Memory required for data: 896545824
I0403 15:08:35.541239  2715 layer_factory.hpp:77] Creating layer inception_4a/output_inception_4a/output_0_split
I0403 15:08:35.541256  2715 net.cpp:91] Creating Layer inception_4a/output_inception_4a/output_0_split
I0403 15:08:35.541273  2715 net.cpp:425] inception_4a/output_inception_4a/output_0_split <- inception_4a/output
I0403 15:08:35.541295  2715 net.cpp:399] inception_4a/output_inception_4a/output_0_split -> inception_4a/output_inception_4a/output_0_split_0
I0403 15:08:35.541316  2715 net.cpp:399] inception_4a/output_inception_4a/output_0_split -> inception_4a/output_inception_4a/output_0_split_1
I0403 15:08:35.541337  2715 net.cpp:399] inception_4a/output_inception_4a/output_0_split -> inception_4a/output_inception_4a/output_0_split_2
I0403 15:08:35.541358  2715 net.cpp:399] inception_4a/output_inception_4a/output_0_split -> inception_4a/output_inception_4a/output_0_split_3
I0403 15:08:35.541378  2715 net.cpp:399] inception_4a/output_inception_4a/output_0_split -> inception_4a/output_inception_4a/output_0_split_4
I0403 15:08:35.541471  2715 net.cpp:141] Setting up inception_4a/output_inception_4a/output_0_split
I0403 15:08:35.541494  2715 net.cpp:148] Top shape: 24 512 14 14 (2408448)
I0403 15:08:35.541513  2715 net.cpp:148] Top shape: 24 512 14 14 (2408448)
I0403 15:08:35.541529  2715 net.cpp:148] Top shape: 24 512 14 14 (2408448)
I0403 15:08:35.541545  2715 net.cpp:148] Top shape: 24 512 14 14 (2408448)
I0403 15:08:35.541561  2715 net.cpp:148] Top shape: 24 512 14 14 (2408448)
I0403 15:08:35.541575  2715 net.cpp:156] Memory required for data: 944714784
I0403 15:08:35.541590  2715 layer_factory.hpp:77] Creating layer loss1/ave_pool
I0403 15:08:35.541607  2715 net.cpp:91] Creating Layer loss1/ave_pool
I0403 15:08:35.541622  2715 net.cpp:425] loss1/ave_pool <- inception_4a/output_inception_4a/output_0_split_0
I0403 15:08:35.541643  2715 net.cpp:399] loss1/ave_pool -> loss1/ave_pool
I0403 15:08:35.541846  2715 net.cpp:141] Setting up loss1/ave_pool
I0403 15:08:35.541872  2715 net.cpp:148] Top shape: 24 512 4 4 (196608)
I0403 15:08:35.541888  2715 net.cpp:156] Memory required for data: 945501216
I0403 15:08:35.541903  2715 layer_factory.hpp:77] Creating layer loss1/conv
I0403 15:08:35.541925  2715 net.cpp:91] Creating Layer loss1/conv
I0403 15:08:35.541942  2715 net.cpp:425] loss1/conv <- loss1/ave_pool
I0403 15:08:35.541963  2715 net.cpp:399] loss1/conv -> loss1/conv
I0403 15:08:35.543371  2715 net.cpp:141] Setting up loss1/conv
I0403 15:08:35.543403  2715 net.cpp:148] Top shape: 24 128 4 4 (49152)
I0403 15:08:35.543436  2715 net.cpp:156] Memory required for data: 945697824
I0403 15:08:35.543457  2715 layer_factory.hpp:77] Creating layer loss1/relu_conv
I0403 15:08:35.543475  2715 net.cpp:91] Creating Layer loss1/relu_conv
I0403 15:08:35.543493  2715 net.cpp:425] loss1/relu_conv <- loss1/conv
I0403 15:08:35.543514  2715 net.cpp:386] loss1/relu_conv -> loss1/conv (in-place)
I0403 15:08:35.543788  2715 net.cpp:141] Setting up loss1/relu_conv
I0403 15:08:35.543817  2715 net.cpp:148] Top shape: 24 128 4 4 (49152)
I0403 15:08:35.543833  2715 net.cpp:156] Memory required for data: 945894432
I0403 15:08:35.543848  2715 layer_factory.hpp:77] Creating layer loss1/fc
I0403 15:08:35.543871  2715 net.cpp:91] Creating Layer loss1/fc
I0403 15:08:35.543889  2715 net.cpp:425] loss1/fc <- loss1/conv
I0403 15:08:35.543911  2715 net.cpp:399] loss1/fc -> loss1/fc
I0403 15:08:35.561697  2715 net.cpp:141] Setting up loss1/fc
I0403 15:08:35.561733  2715 net.cpp:148] Top shape: 24 1024 (24576)
I0403 15:08:35.561749  2715 net.cpp:156] Memory required for data: 945992736
I0403 15:08:35.561769  2715 layer_factory.hpp:77] Creating layer loss1/relu_fc
I0403 15:08:35.561790  2715 net.cpp:91] Creating Layer loss1/relu_fc
I0403 15:08:35.561808  2715 net.cpp:425] loss1/relu_fc <- loss1/fc
I0403 15:08:35.561827  2715 net.cpp:386] loss1/relu_fc -> loss1/fc (in-place)
I0403 15:08:35.562014  2715 net.cpp:141] Setting up loss1/relu_fc
I0403 15:08:35.562043  2715 net.cpp:148] Top shape: 24 1024 (24576)
I0403 15:08:35.562059  2715 net.cpp:156] Memory required for data: 946091040
I0403 15:08:35.562074  2715 layer_factory.hpp:77] Creating layer loss1/drop_fc
I0403 15:08:35.562101  2715 net.cpp:91] Creating Layer loss1/drop_fc
I0403 15:08:35.562120  2715 net.cpp:425] loss1/drop_fc <- loss1/fc
I0403 15:08:35.562139  2715 net.cpp:386] loss1/drop_fc -> loss1/fc (in-place)
I0403 15:08:35.562196  2715 net.cpp:141] Setting up loss1/drop_fc
I0403 15:08:35.562221  2715 net.cpp:148] Top shape: 24 1024 (24576)
I0403 15:08:35.562235  2715 net.cpp:156] Memory required for data: 946189344
I0403 15:08:35.562252  2715 layer_factory.hpp:77] Creating layer loss1/classifier_plantvillage
I0403 15:08:35.562270  2715 net.cpp:91] Creating Layer loss1/classifier_plantvillage
I0403 15:08:35.562288  2715 net.cpp:425] loss1/classifier_plantvillage <- loss1/fc
I0403 15:08:35.562311  2715 net.cpp:399] loss1/classifier_plantvillage -> loss1/classifier_plantvillage
I0403 15:08:35.563367  2715 net.cpp:141] Setting up loss1/classifier_plantvillage
I0403 15:08:35.563396  2715 net.cpp:148] Top shape: 24 38 (912)
I0403 15:08:35.563412  2715 net.cpp:156] Memory required for data: 946192992
I0403 15:08:35.563431  2715 layer_factory.hpp:77] Creating layer loss1/classifier_plantvillage_loss1/classifier_plantvillage_0_split
I0403 15:08:35.563452  2715 net.cpp:91] Creating Layer loss1/classifier_plantvillage_loss1/classifier_plantvillage_0_split
I0403 15:08:35.563482  2715 net.cpp:425] loss1/classifier_plantvillage_loss1/classifier_plantvillage_0_split <- loss1/classifier_plantvillage
I0403 15:08:35.563500  2715 net.cpp:399] loss1/classifier_plantvillage_loss1/classifier_plantvillage_0_split -> loss1/classifier_plantvillage_loss1/classifier_plantvillage_0_split_0
I0403 15:08:35.563520  2715 net.cpp:399] loss1/classifier_plantvillage_loss1/classifier_plantvillage_0_split -> loss1/classifier_plantvillage_loss1/classifier_plantvillage_0_split_1
I0403 15:08:35.563544  2715 net.cpp:399] loss1/classifier_plantvillage_loss1/classifier_plantvillage_0_split -> loss1/classifier_plantvillage_loss1/classifier_plantvillage_0_split_2
I0403 15:08:35.563612  2715 net.cpp:141] Setting up loss1/classifier_plantvillage_loss1/classifier_plantvillage_0_split
I0403 15:08:35.563635  2715 net.cpp:148] Top shape: 24 38 (912)
I0403 15:08:35.563652  2715 net.cpp:148] Top shape: 24 38 (912)
I0403 15:08:35.563668  2715 net.cpp:148] Top shape: 24 38 (912)
I0403 15:08:35.563681  2715 net.cpp:156] Memory required for data: 946203936
I0403 15:08:35.563696  2715 layer_factory.hpp:77] Creating layer inception_4b/1x1
I0403 15:08:35.563719  2715 net.cpp:91] Creating Layer inception_4b/1x1
I0403 15:08:35.563751  2715 net.cpp:425] inception_4b/1x1 <- inception_4a/output_inception_4a/output_0_split_1
I0403 15:08:35.563772  2715 net.cpp:399] inception_4b/1x1 -> inception_4b/1x1
I0403 15:08:35.565415  2715 net.cpp:141] Setting up inception_4b/1x1
I0403 15:08:35.565450  2715 net.cpp:148] Top shape: 24 160 14 14 (752640)
I0403 15:08:35.565467  2715 net.cpp:156] Memory required for data: 949214496
I0403 15:08:35.565486  2715 layer_factory.hpp:77] Creating layer inception_4b/relu_1x1
I0403 15:08:35.565505  2715 net.cpp:91] Creating Layer inception_4b/relu_1x1
I0403 15:08:35.565521  2715 net.cpp:425] inception_4b/relu_1x1 <- inception_4b/1x1
I0403 15:08:35.565541  2715 net.cpp:386] inception_4b/relu_1x1 -> inception_4b/1x1 (in-place)
I0403 15:08:35.565717  2715 net.cpp:141] Setting up inception_4b/relu_1x1
I0403 15:08:35.565742  2715 net.cpp:148] Top shape: 24 160 14 14 (752640)
I0403 15:08:35.565757  2715 net.cpp:156] Memory required for data: 952225056
I0403 15:08:35.565773  2715 layer_factory.hpp:77] Creating layer inception_4b/3x3_reduce
I0403 15:08:35.565794  2715 net.cpp:91] Creating Layer inception_4b/3x3_reduce
I0403 15:08:35.565812  2715 net.cpp:425] inception_4b/3x3_reduce <- inception_4a/output_inception_4a/output_0_split_2
I0403 15:08:35.565834  2715 net.cpp:399] inception_4b/3x3_reduce -> inception_4b/3x3_reduce
I0403 15:08:35.567174  2715 net.cpp:141] Setting up inception_4b/3x3_reduce
I0403 15:08:35.567209  2715 net.cpp:148] Top shape: 24 112 14 14 (526848)
I0403 15:08:35.567224  2715 net.cpp:156] Memory required for data: 954332448
I0403 15:08:35.567245  2715 layer_factory.hpp:77] Creating layer inception_4b/relu_3x3_reduce
I0403 15:08:35.567262  2715 net.cpp:91] Creating Layer inception_4b/relu_3x3_reduce
I0403 15:08:35.567279  2715 net.cpp:425] inception_4b/relu_3x3_reduce <- inception_4b/3x3_reduce
I0403 15:08:35.567299  2715 net.cpp:386] inception_4b/relu_3x3_reduce -> inception_4b/3x3_reduce (in-place)
I0403 15:08:35.567579  2715 net.cpp:141] Setting up inception_4b/relu_3x3_reduce
I0403 15:08:35.567605  2715 net.cpp:148] Top shape: 24 112 14 14 (526848)
I0403 15:08:35.567620  2715 net.cpp:156] Memory required for data: 956439840
I0403 15:08:35.567636  2715 layer_factory.hpp:77] Creating layer inception_4b/3x3
I0403 15:08:35.567658  2715 net.cpp:91] Creating Layer inception_4b/3x3
I0403 15:08:35.567677  2715 net.cpp:425] inception_4b/3x3 <- inception_4b/3x3_reduce
I0403 15:08:35.567698  2715 net.cpp:399] inception_4b/3x3 -> inception_4b/3x3
I0403 15:08:35.570698  2715 net.cpp:141] Setting up inception_4b/3x3
I0403 15:08:35.570729  2715 net.cpp:148] Top shape: 24 224 14 14 (1053696)
I0403 15:08:35.570744  2715 net.cpp:156] Memory required for data: 960654624
I0403 15:08:35.570765  2715 layer_factory.hpp:77] Creating layer inception_4b/relu_3x3
I0403 15:08:35.570785  2715 net.cpp:91] Creating Layer inception_4b/relu_3x3
I0403 15:08:35.570803  2715 net.cpp:425] inception_4b/relu_3x3 <- inception_4b/3x3
I0403 15:08:35.570822  2715 net.cpp:386] inception_4b/relu_3x3 -> inception_4b/3x3 (in-place)
I0403 15:08:35.571007  2715 net.cpp:141] Setting up inception_4b/relu_3x3
I0403 15:08:35.571035  2715 net.cpp:148] Top shape: 24 224 14 14 (1053696)
I0403 15:08:35.571051  2715 net.cpp:156] Memory required for data: 964869408
I0403 15:08:35.571066  2715 layer_factory.hpp:77] Creating layer inception_4b/5x5_reduce
I0403 15:08:35.571090  2715 net.cpp:91] Creating Layer inception_4b/5x5_reduce
I0403 15:08:35.571110  2715 net.cpp:425] inception_4b/5x5_reduce <- inception_4a/output_inception_4a/output_0_split_3
I0403 15:08:35.571130  2715 net.cpp:399] inception_4b/5x5_reduce -> inception_4b/5x5_reduce
I0403 15:08:35.572257  2715 net.cpp:141] Setting up inception_4b/5x5_reduce
I0403 15:08:35.572285  2715 net.cpp:148] Top shape: 24 24 14 14 (112896)
I0403 15:08:35.572302  2715 net.cpp:156] Memory required for data: 965320992
I0403 15:08:35.572321  2715 layer_factory.hpp:77] Creating layer inception_4b/relu_5x5_reduce
I0403 15:08:35.572340  2715 net.cpp:91] Creating Layer inception_4b/relu_5x5_reduce
I0403 15:08:35.572371  2715 net.cpp:425] inception_4b/relu_5x5_reduce <- inception_4b/5x5_reduce
I0403 15:08:35.572393  2715 net.cpp:386] inception_4b/relu_5x5_reduce -> inception_4b/5x5_reduce (in-place)
I0403 15:08:35.572585  2715 net.cpp:141] Setting up inception_4b/relu_5x5_reduce
I0403 15:08:35.572612  2715 net.cpp:148] Top shape: 24 24 14 14 (112896)
I0403 15:08:35.572626  2715 net.cpp:156] Memory required for data: 965772576
I0403 15:08:35.572641  2715 layer_factory.hpp:77] Creating layer inception_4b/5x5
I0403 15:08:35.572664  2715 net.cpp:91] Creating Layer inception_4b/5x5
I0403 15:08:35.572682  2715 net.cpp:425] inception_4b/5x5 <- inception_4b/5x5_reduce
I0403 15:08:35.572705  2715 net.cpp:399] inception_4b/5x5 -> inception_4b/5x5
I0403 15:08:35.573972  2715 net.cpp:141] Setting up inception_4b/5x5
I0403 15:08:35.574004  2715 net.cpp:148] Top shape: 24 64 14 14 (301056)
I0403 15:08:35.574023  2715 net.cpp:156] Memory required for data: 966976800
I0403 15:08:35.574043  2715 layer_factory.hpp:77] Creating layer inception_4b/relu_5x5
I0403 15:08:35.574062  2715 net.cpp:91] Creating Layer inception_4b/relu_5x5
I0403 15:08:35.574080  2715 net.cpp:425] inception_4b/relu_5x5 <- inception_4b/5x5
I0403 15:08:35.574101  2715 net.cpp:386] inception_4b/relu_5x5 -> inception_4b/5x5 (in-place)
I0403 15:08:35.574399  2715 net.cpp:141] Setting up inception_4b/relu_5x5
I0403 15:08:35.574430  2715 net.cpp:148] Top shape: 24 64 14 14 (301056)
I0403 15:08:35.574447  2715 net.cpp:156] Memory required for data: 968181024
I0403 15:08:35.574463  2715 layer_factory.hpp:77] Creating layer inception_4b/pool
I0403 15:08:35.574482  2715 net.cpp:91] Creating Layer inception_4b/pool
I0403 15:08:35.574498  2715 net.cpp:425] inception_4b/pool <- inception_4a/output_inception_4a/output_0_split_4
I0403 15:08:35.574520  2715 net.cpp:399] inception_4b/pool -> inception_4b/pool
I0403 15:08:35.574586  2715 net.cpp:141] Setting up inception_4b/pool
I0403 15:08:35.574610  2715 net.cpp:148] Top shape: 24 512 14 14 (2408448)
I0403 15:08:35.574625  2715 net.cpp:156] Memory required for data: 977814816
I0403 15:08:35.574641  2715 layer_factory.hpp:77] Creating layer inception_4b/pool_proj
I0403 15:08:35.574663  2715 net.cpp:91] Creating Layer inception_4b/pool_proj
I0403 15:08:35.574681  2715 net.cpp:425] inception_4b/pool_proj <- inception_4b/pool
I0403 15:08:35.574703  2715 net.cpp:399] inception_4b/pool_proj -> inception_4b/pool_proj
I0403 15:08:35.575942  2715 net.cpp:141] Setting up inception_4b/pool_proj
I0403 15:08:35.575973  2715 net.cpp:148] Top shape: 24 64 14 14 (301056)
I0403 15:08:35.575990  2715 net.cpp:156] Memory required for data: 979019040
I0403 15:08:35.576009  2715 layer_factory.hpp:77] Creating layer inception_4b/relu_pool_proj
I0403 15:08:35.576027  2715 net.cpp:91] Creating Layer inception_4b/relu_pool_proj
I0403 15:08:35.576045  2715 net.cpp:425] inception_4b/relu_pool_proj <- inception_4b/pool_proj
I0403 15:08:35.576066  2715 net.cpp:386] inception_4b/relu_pool_proj -> inception_4b/pool_proj (in-place)
I0403 15:08:35.576256  2715 net.cpp:141] Setting up inception_4b/relu_pool_proj
I0403 15:08:35.576282  2715 net.cpp:148] Top shape: 24 64 14 14 (301056)
I0403 15:08:35.576297  2715 net.cpp:156] Memory required for data: 980223264
I0403 15:08:35.576313  2715 layer_factory.hpp:77] Creating layer inception_4b/output
I0403 15:08:35.576330  2715 net.cpp:91] Creating Layer inception_4b/output
I0403 15:08:35.576347  2715 net.cpp:425] inception_4b/output <- inception_4b/1x1
I0403 15:08:35.576364  2715 net.cpp:425] inception_4b/output <- inception_4b/3x3
I0403 15:08:35.576381  2715 net.cpp:425] inception_4b/output <- inception_4b/5x5
I0403 15:08:35.576397  2715 net.cpp:425] inception_4b/output <- inception_4b/pool_proj
I0403 15:08:35.576419  2715 net.cpp:399] inception_4b/output -> inception_4b/output
I0403 15:08:35.576472  2715 net.cpp:141] Setting up inception_4b/output
I0403 15:08:35.576496  2715 net.cpp:148] Top shape: 24 512 14 14 (2408448)
I0403 15:08:35.576511  2715 net.cpp:156] Memory required for data: 989857056
I0403 15:08:35.576541  2715 layer_factory.hpp:77] Creating layer inception_4b/output_inception_4b/output_0_split
I0403 15:08:35.576560  2715 net.cpp:91] Creating Layer inception_4b/output_inception_4b/output_0_split
I0403 15:08:35.576576  2715 net.cpp:425] inception_4b/output_inception_4b/output_0_split <- inception_4b/output
I0403 15:08:35.576597  2715 net.cpp:399] inception_4b/output_inception_4b/output_0_split -> inception_4b/output_inception_4b/output_0_split_0
I0403 15:08:35.576618  2715 net.cpp:399] inception_4b/output_inception_4b/output_0_split -> inception_4b/output_inception_4b/output_0_split_1
I0403 15:08:35.576640  2715 net.cpp:399] inception_4b/output_inception_4b/output_0_split -> inception_4b/output_inception_4b/output_0_split_2
I0403 15:08:35.576663  2715 net.cpp:399] inception_4b/output_inception_4b/output_0_split -> inception_4b/output_inception_4b/output_0_split_3
I0403 15:08:35.576750  2715 net.cpp:141] Setting up inception_4b/output_inception_4b/output_0_split
I0403 15:08:35.576774  2715 net.cpp:148] Top shape: 24 512 14 14 (2408448)
I0403 15:08:35.576792  2715 net.cpp:148] Top shape: 24 512 14 14 (2408448)
I0403 15:08:35.576808  2715 net.cpp:148] Top shape: 24 512 14 14 (2408448)
I0403 15:08:35.576824  2715 net.cpp:148] Top shape: 24 512 14 14 (2408448)
I0403 15:08:35.576839  2715 net.cpp:156] Memory required for data: 1028392224
I0403 15:08:35.576854  2715 layer_factory.hpp:77] Creating layer inception_4c/1x1
I0403 15:08:35.576879  2715 net.cpp:91] Creating Layer inception_4c/1x1
I0403 15:08:35.576897  2715 net.cpp:425] inception_4c/1x1 <- inception_4b/output_inception_4b/output_0_split_0
I0403 15:08:35.576917  2715 net.cpp:399] inception_4c/1x1 -> inception_4c/1x1
I0403 15:08:35.578410  2715 net.cpp:141] Setting up inception_4c/1x1
I0403 15:08:35.578443  2715 net.cpp:148] Top shape: 24 128 14 14 (602112)
I0403 15:08:35.578459  2715 net.cpp:156] Memory required for data: 1030800672
I0403 15:08:35.578480  2715 layer_factory.hpp:77] Creating layer inception_4c/relu_1x1
I0403 15:08:35.578501  2715 net.cpp:91] Creating Layer inception_4c/relu_1x1
I0403 15:08:35.578521  2715 net.cpp:425] inception_4c/relu_1x1 <- inception_4c/1x1
I0403 15:08:35.578538  2715 net.cpp:386] inception_4c/relu_1x1 -> inception_4c/1x1 (in-place)
I0403 15:08:35.578725  2715 net.cpp:141] Setting up inception_4c/relu_1x1
I0403 15:08:35.578754  2715 net.cpp:148] Top shape: 24 128 14 14 (602112)
I0403 15:08:35.578771  2715 net.cpp:156] Memory required for data: 1033209120
I0403 15:08:35.578788  2715 layer_factory.hpp:77] Creating layer inception_4c/3x3_reduce
I0403 15:08:35.578812  2715 net.cpp:91] Creating Layer inception_4c/3x3_reduce
I0403 15:08:35.578831  2715 net.cpp:425] inception_4c/3x3_reduce <- inception_4b/output_inception_4b/output_0_split_1
I0403 15:08:35.578851  2715 net.cpp:399] inception_4c/3x3_reduce -> inception_4c/3x3_reduce
I0403 15:08:35.580857  2715 net.cpp:141] Setting up inception_4c/3x3_reduce
I0403 15:08:35.580890  2715 net.cpp:148] Top shape: 24 128 14 14 (602112)
I0403 15:08:35.580909  2715 net.cpp:156] Memory required for data: 1035617568
I0403 15:08:35.580929  2715 layer_factory.hpp:77] Creating layer inception_4c/relu_3x3_reduce
I0403 15:08:35.580946  2715 net.cpp:91] Creating Layer inception_4c/relu_3x3_reduce
I0403 15:08:35.580962  2715 net.cpp:425] inception_4c/relu_3x3_reduce <- inception_4c/3x3_reduce
I0403 15:08:35.580981  2715 net.cpp:386] inception_4c/relu_3x3_reduce -> inception_4c/3x3_reduce (in-place)
I0403 15:08:35.581280  2715 net.cpp:141] Setting up inception_4c/relu_3x3_reduce
I0403 15:08:35.581310  2715 net.cpp:148] Top shape: 24 128 14 14 (602112)
I0403 15:08:35.581326  2715 net.cpp:156] Memory required for data: 1038026016
I0403 15:08:35.581342  2715 layer_factory.hpp:77] Creating layer inception_4c/3x3
I0403 15:08:35.581367  2715 net.cpp:91] Creating Layer inception_4c/3x3
I0403 15:08:35.581385  2715 net.cpp:425] inception_4c/3x3 <- inception_4c/3x3_reduce
I0403 15:08:35.581404  2715 net.cpp:399] inception_4c/3x3 -> inception_4c/3x3
I0403 15:08:35.585129  2715 net.cpp:141] Setting up inception_4c/3x3
I0403 15:08:35.585180  2715 net.cpp:148] Top shape: 24 256 14 14 (1204224)
I0403 15:08:35.585201  2715 net.cpp:156] Memory required for data: 1042842912
I0403 15:08:35.585235  2715 layer_factory.hpp:77] Creating layer inception_4c/relu_3x3
I0403 15:08:35.585258  2715 net.cpp:91] Creating Layer inception_4c/relu_3x3
I0403 15:08:35.585275  2715 net.cpp:425] inception_4c/relu_3x3 <- inception_4c/3x3
I0403 15:08:35.585295  2715 net.cpp:386] inception_4c/relu_3x3 -> inception_4c/3x3 (in-place)
I0403 15:08:35.585480  2715 net.cpp:141] Setting up inception_4c/relu_3x3
I0403 15:08:35.585506  2715 net.cpp:148] Top shape: 24 256 14 14 (1204224)
I0403 15:08:35.585522  2715 net.cpp:156] Memory required for data: 1047659808
I0403 15:08:35.585538  2715 layer_factory.hpp:77] Creating layer inception_4c/5x5_reduce
I0403 15:08:35.585563  2715 net.cpp:91] Creating Layer inception_4c/5x5_reduce
I0403 15:08:35.585583  2715 net.cpp:425] inception_4c/5x5_reduce <- inception_4b/output_inception_4b/output_0_split_2
I0403 15:08:35.585604  2715 net.cpp:399] inception_4c/5x5_reduce -> inception_4c/5x5_reduce
I0403 15:08:35.586727  2715 net.cpp:141] Setting up inception_4c/5x5_reduce
I0403 15:08:35.586757  2715 net.cpp:148] Top shape: 24 24 14 14 (112896)
I0403 15:08:35.586774  2715 net.cpp:156] Memory required for data: 1048111392
I0403 15:08:35.586793  2715 layer_factory.hpp:77] Creating layer inception_4c/relu_5x5_reduce
I0403 15:08:35.586813  2715 net.cpp:91] Creating Layer inception_4c/relu_5x5_reduce
I0403 15:08:35.586832  2715 net.cpp:425] inception_4c/relu_5x5_reduce <- inception_4c/5x5_reduce
I0403 15:08:35.586853  2715 net.cpp:386] inception_4c/relu_5x5_reduce -> inception_4c/5x5_reduce (in-place)
I0403 15:08:35.587043  2715 net.cpp:141] Setting up inception_4c/relu_5x5_reduce
I0403 15:08:35.587069  2715 net.cpp:148] Top shape: 24 24 14 14 (112896)
I0403 15:08:35.587083  2715 net.cpp:156] Memory required for data: 1048562976
I0403 15:08:35.587100  2715 layer_factory.hpp:77] Creating layer inception_4c/5x5
I0403 15:08:35.587123  2715 net.cpp:91] Creating Layer inception_4c/5x5
I0403 15:08:35.587141  2715 net.cpp:425] inception_4c/5x5 <- inception_4c/5x5_reduce
I0403 15:08:35.587162  2715 net.cpp:399] inception_4c/5x5 -> inception_4c/5x5
I0403 15:08:35.588479  2715 net.cpp:141] Setting up inception_4c/5x5
I0403 15:08:35.588508  2715 net.cpp:148] Top shape: 24 64 14 14 (301056)
I0403 15:08:35.588526  2715 net.cpp:156] Memory required for data: 1049767200
I0403 15:08:35.588546  2715 layer_factory.hpp:77] Creating layer inception_4c/relu_5x5
I0403 15:08:35.588569  2715 net.cpp:91] Creating Layer inception_4c/relu_5x5
I0403 15:08:35.588588  2715 net.cpp:425] inception_4c/relu_5x5 <- inception_4c/5x5
I0403 15:08:35.588608  2715 net.cpp:386] inception_4c/relu_5x5 -> inception_4c/5x5 (in-place)
I0403 15:08:35.588903  2715 net.cpp:141] Setting up inception_4c/relu_5x5
I0403 15:08:35.588932  2715 net.cpp:148] Top shape: 24 64 14 14 (301056)
I0403 15:08:35.588948  2715 net.cpp:156] Memory required for data: 1050971424
I0403 15:08:35.588963  2715 layer_factory.hpp:77] Creating layer inception_4c/pool
I0403 15:08:35.588984  2715 net.cpp:91] Creating Layer inception_4c/pool
I0403 15:08:35.589002  2715 net.cpp:425] inception_4c/pool <- inception_4b/output_inception_4b/output_0_split_3
I0403 15:08:35.589025  2715 net.cpp:399] inception_4c/pool -> inception_4c/pool
I0403 15:08:35.589097  2715 net.cpp:141] Setting up inception_4c/pool
I0403 15:08:35.589123  2715 net.cpp:148] Top shape: 24 512 14 14 (2408448)
I0403 15:08:35.589138  2715 net.cpp:156] Memory required for data: 1060605216
I0403 15:08:35.589153  2715 layer_factory.hpp:77] Creating layer inception_4c/pool_proj
I0403 15:08:35.589175  2715 net.cpp:91] Creating Layer inception_4c/pool_proj
I0403 15:08:35.589200  2715 net.cpp:425] inception_4c/pool_proj <- inception_4c/pool
I0403 15:08:35.589222  2715 net.cpp:399] inception_4c/pool_proj -> inception_4c/pool_proj
I0403 15:08:35.590482  2715 net.cpp:141] Setting up inception_4c/pool_proj
I0403 15:08:35.590514  2715 net.cpp:148] Top shape: 24 64 14 14 (301056)
I0403 15:08:35.590546  2715 net.cpp:156] Memory required for data: 1061809440
I0403 15:08:35.590569  2715 layer_factory.hpp:77] Creating layer inception_4c/relu_pool_proj
I0403 15:08:35.590586  2715 net.cpp:91] Creating Layer inception_4c/relu_pool_proj
I0403 15:08:35.590605  2715 net.cpp:425] inception_4c/relu_pool_proj <- inception_4c/pool_proj
I0403 15:08:35.590626  2715 net.cpp:386] inception_4c/relu_pool_proj -> inception_4c/pool_proj (in-place)
I0403 15:08:35.590816  2715 net.cpp:141] Setting up inception_4c/relu_pool_proj
I0403 15:08:35.590842  2715 net.cpp:148] Top shape: 24 64 14 14 (301056)
I0403 15:08:35.590857  2715 net.cpp:156] Memory required for data: 1063013664
I0403 15:08:35.590873  2715 layer_factory.hpp:77] Creating layer inception_4c/output
I0403 15:08:35.590890  2715 net.cpp:91] Creating Layer inception_4c/output
I0403 15:08:35.590908  2715 net.cpp:425] inception_4c/output <- inception_4c/1x1
I0403 15:08:35.590924  2715 net.cpp:425] inception_4c/output <- inception_4c/3x3
I0403 15:08:35.590941  2715 net.cpp:425] inception_4c/output <- inception_4c/5x5
I0403 15:08:35.590957  2715 net.cpp:425] inception_4c/output <- inception_4c/pool_proj
I0403 15:08:35.590977  2715 net.cpp:399] inception_4c/output -> inception_4c/output
I0403 15:08:35.591028  2715 net.cpp:141] Setting up inception_4c/output
I0403 15:08:35.591053  2715 net.cpp:148] Top shape: 24 512 14 14 (2408448)
I0403 15:08:35.591068  2715 net.cpp:156] Memory required for data: 1072647456
I0403 15:08:35.591084  2715 layer_factory.hpp:77] Creating layer inception_4c/output_inception_4c/output_0_split
I0403 15:08:35.591101  2715 net.cpp:91] Creating Layer inception_4c/output_inception_4c/output_0_split
I0403 15:08:35.591119  2715 net.cpp:425] inception_4c/output_inception_4c/output_0_split <- inception_4c/output
I0403 15:08:35.591138  2715 net.cpp:399] inception_4c/output_inception_4c/output_0_split -> inception_4c/output_inception_4c/output_0_split_0
I0403 15:08:35.591161  2715 net.cpp:399] inception_4c/output_inception_4c/output_0_split -> inception_4c/output_inception_4c/output_0_split_1
I0403 15:08:35.591188  2715 net.cpp:399] inception_4c/output_inception_4c/output_0_split -> inception_4c/output_inception_4c/output_0_split_2
I0403 15:08:35.591212  2715 net.cpp:399] inception_4c/output_inception_4c/output_0_split -> inception_4c/output_inception_4c/output_0_split_3
I0403 15:08:35.591301  2715 net.cpp:141] Setting up inception_4c/output_inception_4c/output_0_split
I0403 15:08:35.591325  2715 net.cpp:148] Top shape: 24 512 14 14 (2408448)
I0403 15:08:35.591342  2715 net.cpp:148] Top shape: 24 512 14 14 (2408448)
I0403 15:08:35.591359  2715 net.cpp:148] Top shape: 24 512 14 14 (2408448)
I0403 15:08:35.591375  2715 net.cpp:148] Top shape: 24 512 14 14 (2408448)
I0403 15:08:35.591390  2715 net.cpp:156] Memory required for data: 1111182624
I0403 15:08:35.591405  2715 layer_factory.hpp:77] Creating layer inception_4d/1x1
I0403 15:08:35.591434  2715 net.cpp:91] Creating Layer inception_4d/1x1
I0403 15:08:35.591452  2715 net.cpp:425] inception_4d/1x1 <- inception_4c/output_inception_4c/output_0_split_0
I0403 15:08:35.591472  2715 net.cpp:399] inception_4d/1x1 -> inception_4d/1x1
I0403 15:08:35.592900  2715 net.cpp:141] Setting up inception_4d/1x1
I0403 15:08:35.592932  2715 net.cpp:148] Top shape: 24 112 14 14 (526848)
I0403 15:08:35.592950  2715 net.cpp:156] Memory required for data: 1113290016
I0403 15:08:35.592969  2715 layer_factory.hpp:77] Creating layer inception_4d/relu_1x1
I0403 15:08:35.592991  2715 net.cpp:91] Creating Layer inception_4d/relu_1x1
I0403 15:08:35.593009  2715 net.cpp:425] inception_4d/relu_1x1 <- inception_4d/1x1
I0403 15:08:35.593029  2715 net.cpp:386] inception_4d/relu_1x1 -> inception_4d/1x1 (in-place)
I0403 15:08:35.593231  2715 net.cpp:141] Setting up inception_4d/relu_1x1
I0403 15:08:35.593258  2715 net.cpp:148] Top shape: 24 112 14 14 (526848)
I0403 15:08:35.593273  2715 net.cpp:156] Memory required for data: 1115397408
I0403 15:08:35.593289  2715 layer_factory.hpp:77] Creating layer inception_4d/3x3_reduce
I0403 15:08:35.593327  2715 net.cpp:91] Creating Layer inception_4d/3x3_reduce
I0403 15:08:35.593348  2715 net.cpp:425] inception_4d/3x3_reduce <- inception_4c/output_inception_4c/output_0_split_1
I0403 15:08:35.593371  2715 net.cpp:399] inception_4d/3x3_reduce -> inception_4d/3x3_reduce
I0403 15:08:35.594940  2715 net.cpp:141] Setting up inception_4d/3x3_reduce
I0403 15:08:35.594969  2715 net.cpp:148] Top shape: 24 144 14 14 (677376)
I0403 15:08:35.594986  2715 net.cpp:156] Memory required for data: 1118106912
I0403 15:08:35.595006  2715 layer_factory.hpp:77] Creating layer inception_4d/relu_3x3_reduce
I0403 15:08:35.595027  2715 net.cpp:91] Creating Layer inception_4d/relu_3x3_reduce
I0403 15:08:35.595046  2715 net.cpp:425] inception_4d/relu_3x3_reduce <- inception_4d/3x3_reduce
I0403 15:08:35.595064  2715 net.cpp:386] inception_4d/relu_3x3_reduce -> inception_4d/3x3_reduce (in-place)
I0403 15:08:35.595369  2715 net.cpp:141] Setting up inception_4d/relu_3x3_reduce
I0403 15:08:35.595397  2715 net.cpp:148] Top shape: 24 144 14 14 (677376)
I0403 15:08:35.595414  2715 net.cpp:156] Memory required for data: 1120816416
I0403 15:08:35.595432  2715 layer_factory.hpp:77] Creating layer inception_4d/3x3
I0403 15:08:35.595456  2715 net.cpp:91] Creating Layer inception_4d/3x3
I0403 15:08:35.595474  2715 net.cpp:425] inception_4d/3x3 <- inception_4d/3x3_reduce
I0403 15:08:35.595497  2715 net.cpp:399] inception_4d/3x3 -> inception_4d/3x3
I0403 15:08:35.600085  2715 net.cpp:141] Setting up inception_4d/3x3
I0403 15:08:35.600119  2715 net.cpp:148] Top shape: 24 288 14 14 (1354752)
I0403 15:08:35.600137  2715 net.cpp:156] Memory required for data: 1126235424
I0403 15:08:35.600157  2715 layer_factory.hpp:77] Creating layer inception_4d/relu_3x3
I0403 15:08:35.600199  2715 net.cpp:91] Creating Layer inception_4d/relu_3x3
I0403 15:08:35.600217  2715 net.cpp:425] inception_4d/relu_3x3 <- inception_4d/3x3
I0403 15:08:35.600236  2715 net.cpp:386] inception_4d/relu_3x3 -> inception_4d/3x3 (in-place)
I0403 15:08:35.600433  2715 net.cpp:141] Setting up inception_4d/relu_3x3
I0403 15:08:35.600462  2715 net.cpp:148] Top shape: 24 288 14 14 (1354752)
I0403 15:08:35.600492  2715 net.cpp:156] Memory required for data: 1131654432
I0403 15:08:35.600507  2715 layer_factory.hpp:77] Creating layer inception_4d/5x5_reduce
I0403 15:08:35.600530  2715 net.cpp:91] Creating Layer inception_4d/5x5_reduce
I0403 15:08:35.600548  2715 net.cpp:425] inception_4d/5x5_reduce <- inception_4c/output_inception_4c/output_0_split_2
I0403 15:08:35.600572  2715 net.cpp:399] inception_4d/5x5_reduce -> inception_4d/5x5_reduce
I0403 15:08:35.601759  2715 net.cpp:141] Setting up inception_4d/5x5_reduce
I0403 15:08:35.601789  2715 net.cpp:148] Top shape: 24 32 14 14 (150528)
I0403 15:08:35.601807  2715 net.cpp:156] Memory required for data: 1132256544
I0403 15:08:35.601827  2715 layer_factory.hpp:77] Creating layer inception_4d/relu_5x5_reduce
I0403 15:08:35.601850  2715 net.cpp:91] Creating Layer inception_4d/relu_5x5_reduce
I0403 15:08:35.601869  2715 net.cpp:425] inception_4d/relu_5x5_reduce <- inception_4d/5x5_reduce
I0403 15:08:35.601888  2715 net.cpp:386] inception_4d/relu_5x5_reduce -> inception_4d/5x5_reduce (in-place)
I0403 15:08:35.602083  2715 net.cpp:141] Setting up inception_4d/relu_5x5_reduce
I0403 15:08:35.602109  2715 net.cpp:148] Top shape: 24 32 14 14 (150528)
I0403 15:08:35.602125  2715 net.cpp:156] Memory required for data: 1132858656
I0403 15:08:35.602140  2715 layer_factory.hpp:77] Creating layer inception_4d/5x5
I0403 15:08:35.602164  2715 net.cpp:91] Creating Layer inception_4d/5x5
I0403 15:08:35.602190  2715 net.cpp:425] inception_4d/5x5 <- inception_4d/5x5_reduce
I0403 15:08:35.602213  2715 net.cpp:399] inception_4d/5x5 -> inception_4d/5x5
I0403 15:08:35.603757  2715 net.cpp:141] Setting up inception_4d/5x5
I0403 15:08:35.603788  2715 net.cpp:148] Top shape: 24 64 14 14 (301056)
I0403 15:08:35.603806  2715 net.cpp:156] Memory required for data: 1134062880
I0403 15:08:35.603826  2715 layer_factory.hpp:77] Creating layer inception_4d/relu_5x5
I0403 15:08:35.603862  2715 net.cpp:91] Creating Layer inception_4d/relu_5x5
I0403 15:08:35.603880  2715 net.cpp:425] inception_4d/relu_5x5 <- inception_4d/5x5
I0403 15:08:35.603901  2715 net.cpp:386] inception_4d/relu_5x5 -> inception_4d/5x5 (in-place)
I0403 15:08:35.604221  2715 net.cpp:141] Setting up inception_4d/relu_5x5
I0403 15:08:35.604249  2715 net.cpp:148] Top shape: 24 64 14 14 (301056)
I0403 15:08:35.604264  2715 net.cpp:156] Memory required for data: 1135267104
I0403 15:08:35.604280  2715 layer_factory.hpp:77] Creating layer inception_4d/pool
I0403 15:08:35.604300  2715 net.cpp:91] Creating Layer inception_4d/pool
I0403 15:08:35.604316  2715 net.cpp:425] inception_4d/pool <- inception_4c/output_inception_4c/output_0_split_3
I0403 15:08:35.604337  2715 net.cpp:399] inception_4d/pool -> inception_4d/pool
I0403 15:08:35.604408  2715 net.cpp:141] Setting up inception_4d/pool
I0403 15:08:35.604434  2715 net.cpp:148] Top shape: 24 512 14 14 (2408448)
I0403 15:08:35.604450  2715 net.cpp:156] Memory required for data: 1144900896
I0403 15:08:35.604465  2715 layer_factory.hpp:77] Creating layer inception_4d/pool_proj
I0403 15:08:35.604490  2715 net.cpp:91] Creating Layer inception_4d/pool_proj
I0403 15:08:35.604509  2715 net.cpp:425] inception_4d/pool_proj <- inception_4d/pool
I0403 15:08:35.604528  2715 net.cpp:399] inception_4d/pool_proj -> inception_4d/pool_proj
I0403 15:08:35.606420  2715 net.cpp:141] Setting up inception_4d/pool_proj
I0403 15:08:35.606457  2715 net.cpp:148] Top shape: 24 64 14 14 (301056)
I0403 15:08:35.606475  2715 net.cpp:156] Memory required for data: 1146105120
I0403 15:08:35.606495  2715 layer_factory.hpp:77] Creating layer inception_4d/relu_pool_proj
I0403 15:08:35.606514  2715 net.cpp:91] Creating Layer inception_4d/relu_pool_proj
I0403 15:08:35.606533  2715 net.cpp:425] inception_4d/relu_pool_proj <- inception_4d/pool_proj
I0403 15:08:35.606552  2715 net.cpp:386] inception_4d/relu_pool_proj -> inception_4d/pool_proj (in-place)
I0403 15:08:35.606746  2715 net.cpp:141] Setting up inception_4d/relu_pool_proj
I0403 15:08:35.606775  2715 net.cpp:148] Top shape: 24 64 14 14 (301056)
I0403 15:08:35.606791  2715 net.cpp:156] Memory required for data: 1147309344
I0403 15:08:35.606806  2715 layer_factory.hpp:77] Creating layer inception_4d/output
I0403 15:08:35.606825  2715 net.cpp:91] Creating Layer inception_4d/output
I0403 15:08:35.606842  2715 net.cpp:425] inception_4d/output <- inception_4d/1x1
I0403 15:08:35.606859  2715 net.cpp:425] inception_4d/output <- inception_4d/3x3
I0403 15:08:35.606875  2715 net.cpp:425] inception_4d/output <- inception_4d/5x5
I0403 15:08:35.606892  2715 net.cpp:425] inception_4d/output <- inception_4d/pool_proj
I0403 15:08:35.606914  2715 net.cpp:399] inception_4d/output -> inception_4d/output
I0403 15:08:35.606962  2715 net.cpp:141] Setting up inception_4d/output
I0403 15:08:35.606986  2715 net.cpp:148] Top shape: 24 528 14 14 (2483712)
I0403 15:08:35.607003  2715 net.cpp:156] Memory required for data: 1157244192
I0403 15:08:35.607019  2715 layer_factory.hpp:77] Creating layer inception_4d/output_inception_4d/output_0_split
I0403 15:08:35.607040  2715 net.cpp:91] Creating Layer inception_4d/output_inception_4d/output_0_split
I0403 15:08:35.607058  2715 net.cpp:425] inception_4d/output_inception_4d/output_0_split <- inception_4d/output
I0403 15:08:35.607076  2715 net.cpp:399] inception_4d/output_inception_4d/output_0_split -> inception_4d/output_inception_4d/output_0_split_0
I0403 15:08:35.607102  2715 net.cpp:399] inception_4d/output_inception_4d/output_0_split -> inception_4d/output_inception_4d/output_0_split_1
I0403 15:08:35.607125  2715 net.cpp:399] inception_4d/output_inception_4d/output_0_split -> inception_4d/output_inception_4d/output_0_split_2
I0403 15:08:35.607146  2715 net.cpp:399] inception_4d/output_inception_4d/output_0_split -> inception_4d/output_inception_4d/output_0_split_3
I0403 15:08:35.607167  2715 net.cpp:399] inception_4d/output_inception_4d/output_0_split -> inception_4d/output_inception_4d/output_0_split_4
I0403 15:08:35.607277  2715 net.cpp:141] Setting up inception_4d/output_inception_4d/output_0_split
I0403 15:08:35.607317  2715 net.cpp:148] Top shape: 24 528 14 14 (2483712)
I0403 15:08:35.607336  2715 net.cpp:148] Top shape: 24 528 14 14 (2483712)
I0403 15:08:35.607352  2715 net.cpp:148] Top shape: 24 528 14 14 (2483712)
I0403 15:08:35.607368  2715 net.cpp:148] Top shape: 24 528 14 14 (2483712)
I0403 15:08:35.607384  2715 net.cpp:148] Top shape: 24 528 14 14 (2483712)
I0403 15:08:35.607398  2715 net.cpp:156] Memory required for data: 1206918432
I0403 15:08:35.607414  2715 layer_factory.hpp:77] Creating layer loss2/ave_pool
I0403 15:08:35.607435  2715 net.cpp:91] Creating Layer loss2/ave_pool
I0403 15:08:35.607453  2715 net.cpp:425] loss2/ave_pool <- inception_4d/output_inception_4d/output_0_split_0
I0403 15:08:35.607472  2715 net.cpp:399] loss2/ave_pool -> loss2/ave_pool
I0403 15:08:35.607800  2715 net.cpp:141] Setting up loss2/ave_pool
I0403 15:08:35.607831  2715 net.cpp:148] Top shape: 24 528 4 4 (202752)
I0403 15:08:35.607846  2715 net.cpp:156] Memory required for data: 1207729440
I0403 15:08:35.607862  2715 layer_factory.hpp:77] Creating layer loss2/conv
I0403 15:08:35.607885  2715 net.cpp:91] Creating Layer loss2/conv
I0403 15:08:35.607904  2715 net.cpp:425] loss2/conv <- loss2/ave_pool
I0403 15:08:35.607924  2715 net.cpp:399] loss2/conv -> loss2/conv
I0403 15:08:35.609894  2715 net.cpp:141] Setting up loss2/conv
I0403 15:08:35.609927  2715 net.cpp:148] Top shape: 24 128 4 4 (49152)
I0403 15:08:35.609944  2715 net.cpp:156] Memory required for data: 1207926048
I0403 15:08:35.609964  2715 layer_factory.hpp:77] Creating layer loss2/relu_conv
I0403 15:08:35.609987  2715 net.cpp:91] Creating Layer loss2/relu_conv
I0403 15:08:35.610004  2715 net.cpp:425] loss2/relu_conv <- loss2/conv
I0403 15:08:35.610024  2715 net.cpp:386] loss2/relu_conv -> loss2/conv (in-place)
I0403 15:08:35.610327  2715 net.cpp:141] Setting up loss2/relu_conv
I0403 15:08:35.610355  2715 net.cpp:148] Top shape: 24 128 4 4 (49152)
I0403 15:08:35.610373  2715 net.cpp:156] Memory required for data: 1208122656
I0403 15:08:35.610388  2715 layer_factory.hpp:77] Creating layer loss2/fc
I0403 15:08:35.610415  2715 net.cpp:91] Creating Layer loss2/fc
I0403 15:08:35.610436  2715 net.cpp:425] loss2/fc <- loss2/conv
I0403 15:08:35.610456  2715 net.cpp:399] loss2/fc -> loss2/fc
I0403 15:08:35.628304  2715 net.cpp:141] Setting up loss2/fc
I0403 15:08:35.628343  2715 net.cpp:148] Top shape: 24 1024 (24576)
I0403 15:08:35.628360  2715 net.cpp:156] Memory required for data: 1208220960
I0403 15:08:35.628379  2715 layer_factory.hpp:77] Creating layer loss2/relu_fc
I0403 15:08:35.628401  2715 net.cpp:91] Creating Layer loss2/relu_fc
I0403 15:08:35.628418  2715 net.cpp:425] loss2/relu_fc <- loss2/fc
I0403 15:08:35.628440  2715 net.cpp:386] loss2/relu_fc -> loss2/fc (in-place)
I0403 15:08:35.628743  2715 net.cpp:141] Setting up loss2/relu_fc
I0403 15:08:35.628773  2715 net.cpp:148] Top shape: 24 1024 (24576)
I0403 15:08:35.628792  2715 net.cpp:156] Memory required for data: 1208319264
I0403 15:08:35.628806  2715 layer_factory.hpp:77] Creating layer loss2/drop_fc
I0403 15:08:35.628825  2715 net.cpp:91] Creating Layer loss2/drop_fc
I0403 15:08:35.628841  2715 net.cpp:425] loss2/drop_fc <- loss2/fc
I0403 15:08:35.628861  2715 net.cpp:386] loss2/drop_fc -> loss2/fc (in-place)
I0403 15:08:35.628912  2715 net.cpp:141] Setting up loss2/drop_fc
I0403 15:08:35.628936  2715 net.cpp:148] Top shape: 24 1024 (24576)
I0403 15:08:35.628949  2715 net.cpp:156] Memory required for data: 1208417568
I0403 15:08:35.628964  2715 layer_factory.hpp:77] Creating layer loss2/classifier_plantvillage
I0403 15:08:35.628986  2715 net.cpp:91] Creating Layer loss2/classifier_plantvillage
I0403 15:08:35.629004  2715 net.cpp:425] loss2/classifier_plantvillage <- loss2/fc
I0403 15:08:35.629024  2715 net.cpp:399] loss2/classifier_plantvillage -> loss2/classifier_plantvillage
I0403 15:08:35.629436  2715 net.cpp:141] Setting up loss2/classifier_plantvillage
I0403 15:08:35.629462  2715 net.cpp:148] Top shape: 24 38 (912)
I0403 15:08:35.629498  2715 net.cpp:156] Memory required for data: 1208421216
I0403 15:08:35.629518  2715 layer_factory.hpp:77] Creating layer loss2/classifier_plantvillage_loss2/classifier_plantvillage_0_split
I0403 15:08:35.629536  2715 net.cpp:91] Creating Layer loss2/classifier_plantvillage_loss2/classifier_plantvillage_0_split
I0403 15:08:35.629556  2715 net.cpp:425] loss2/classifier_plantvillage_loss2/classifier_plantvillage_0_split <- loss2/classifier_plantvillage
I0403 15:08:35.629575  2715 net.cpp:399] loss2/classifier_plantvillage_loss2/classifier_plantvillage_0_split -> loss2/classifier_plantvillage_loss2/classifier_plantvillage_0_split_0
I0403 15:08:35.629595  2715 net.cpp:399] loss2/classifier_plantvillage_loss2/classifier_plantvillage_0_split -> loss2/classifier_plantvillage_loss2/classifier_plantvillage_0_split_1
I0403 15:08:35.629616  2715 net.cpp:399] loss2/classifier_plantvillage_loss2/classifier_plantvillage_0_split -> loss2/classifier_plantvillage_loss2/classifier_plantvillage_0_split_2
I0403 15:08:35.629695  2715 net.cpp:141] Setting up loss2/classifier_plantvillage_loss2/classifier_plantvillage_0_split
I0403 15:08:35.629719  2715 net.cpp:148] Top shape: 24 38 (912)
I0403 15:08:35.629735  2715 net.cpp:148] Top shape: 24 38 (912)
I0403 15:08:35.629750  2715 net.cpp:148] Top shape: 24 38 (912)
I0403 15:08:35.629765  2715 net.cpp:156] Memory required for data: 1208432160
I0403 15:08:35.629779  2715 layer_factory.hpp:77] Creating layer inception_4e/1x1
I0403 15:08:35.629799  2715 net.cpp:91] Creating Layer inception_4e/1x1
I0403 15:08:35.629817  2715 net.cpp:425] inception_4e/1x1 <- inception_4d/output_inception_4d/output_0_split_1
I0403 15:08:35.629839  2715 net.cpp:399] inception_4e/1x1 -> inception_4e/1x1
I0403 15:08:35.631666  2715 net.cpp:141] Setting up inception_4e/1x1
I0403 15:08:35.631695  2715 net.cpp:148] Top shape: 24 256 14 14 (1204224)
I0403 15:08:35.631712  2715 net.cpp:156] Memory required for data: 1213249056
I0403 15:08:35.631731  2715 layer_factory.hpp:77] Creating layer inception_4e/relu_1x1
I0403 15:08:35.631752  2715 net.cpp:91] Creating Layer inception_4e/relu_1x1
I0403 15:08:35.631769  2715 net.cpp:425] inception_4e/relu_1x1 <- inception_4e/1x1
I0403 15:08:35.631789  2715 net.cpp:386] inception_4e/relu_1x1 -> inception_4e/1x1 (in-place)
I0403 15:08:35.632091  2715 net.cpp:141] Setting up inception_4e/relu_1x1
I0403 15:08:35.632117  2715 net.cpp:148] Top shape: 24 256 14 14 (1204224)
I0403 15:08:35.632133  2715 net.cpp:156] Memory required for data: 1218065952
I0403 15:08:35.632148  2715 layer_factory.hpp:77] Creating layer inception_4e/3x3_reduce
I0403 15:08:35.632169  2715 net.cpp:91] Creating Layer inception_4e/3x3_reduce
I0403 15:08:35.632194  2715 net.cpp:425] inception_4e/3x3_reduce <- inception_4d/output_inception_4d/output_0_split_2
I0403 15:08:35.632216  2715 net.cpp:399] inception_4e/3x3_reduce -> inception_4e/3x3_reduce
I0403 15:08:35.634356  2715 net.cpp:141] Setting up inception_4e/3x3_reduce
I0403 15:08:35.634387  2715 net.cpp:148] Top shape: 24 160 14 14 (752640)
I0403 15:08:35.634404  2715 net.cpp:156] Memory required for data: 1221076512
I0403 15:08:35.634423  2715 layer_factory.hpp:77] Creating layer inception_4e/relu_3x3_reduce
I0403 15:08:35.634443  2715 net.cpp:91] Creating Layer inception_4e/relu_3x3_reduce
I0403 15:08:35.634459  2715 net.cpp:425] inception_4e/relu_3x3_reduce <- inception_4e/3x3_reduce
I0403 15:08:35.634480  2715 net.cpp:386] inception_4e/relu_3x3_reduce -> inception_4e/3x3_reduce (in-place)
I0403 15:08:35.634667  2715 net.cpp:141] Setting up inception_4e/relu_3x3_reduce
I0403 15:08:35.634692  2715 net.cpp:148] Top shape: 24 160 14 14 (752640)
I0403 15:08:35.634707  2715 net.cpp:156] Memory required for data: 1224087072
I0403 15:08:35.634722  2715 layer_factory.hpp:77] Creating layer inception_4e/3x3
I0403 15:08:35.634745  2715 net.cpp:91] Creating Layer inception_4e/3x3
I0403 15:08:35.634763  2715 net.cpp:425] inception_4e/3x3 <- inception_4e/3x3_reduce
I0403 15:08:35.634784  2715 net.cpp:399] inception_4e/3x3 -> inception_4e/3x3
I0403 15:08:35.639801  2715 net.cpp:141] Setting up inception_4e/3x3
I0403 15:08:35.639845  2715 net.cpp:148] Top shape: 24 320 14 14 (1505280)
I0403 15:08:35.639863  2715 net.cpp:156] Memory required for data: 1230108192
I0403 15:08:35.639883  2715 layer_factory.hpp:77] Creating layer inception_4e/relu_3x3
I0403 15:08:35.639902  2715 net.cpp:91] Creating Layer inception_4e/relu_3x3
I0403 15:08:35.639921  2715 net.cpp:425] inception_4e/relu_3x3 <- inception_4e/3x3
I0403 15:08:35.639938  2715 net.cpp:386] inception_4e/relu_3x3 -> inception_4e/3x3 (in-place)
I0403 15:08:35.640244  2715 net.cpp:141] Setting up inception_4e/relu_3x3
I0403 15:08:35.640271  2715 net.cpp:148] Top shape: 24 320 14 14 (1505280)
I0403 15:08:35.640286  2715 net.cpp:156] Memory required for data: 1236129312
I0403 15:08:35.640302  2715 layer_factory.hpp:77] Creating layer inception_4e/5x5_reduce
I0403 15:08:35.640327  2715 net.cpp:91] Creating Layer inception_4e/5x5_reduce
I0403 15:08:35.640346  2715 net.cpp:425] inception_4e/5x5_reduce <- inception_4d/output_inception_4d/output_0_split_3
I0403 15:08:35.640365  2715 net.cpp:399] inception_4e/5x5_reduce -> inception_4e/5x5_reduce
I0403 15:08:35.641444  2715 net.cpp:141] Setting up inception_4e/5x5_reduce
I0403 15:08:35.641474  2715 net.cpp:148] Top shape: 24 32 14 14 (150528)
I0403 15:08:35.641489  2715 net.cpp:156] Memory required for data: 1236731424
I0403 15:08:35.641507  2715 layer_factory.hpp:77] Creating layer inception_4e/relu_5x5_reduce
I0403 15:08:35.641526  2715 net.cpp:91] Creating Layer inception_4e/relu_5x5_reduce
I0403 15:08:35.641542  2715 net.cpp:425] inception_4e/relu_5x5_reduce <- inception_4e/5x5_reduce
I0403 15:08:35.641561  2715 net.cpp:386] inception_4e/relu_5x5_reduce -> inception_4e/5x5_reduce (in-place)
I0403 15:08:35.641862  2715 net.cpp:141] Setting up inception_4e/relu_5x5_reduce
I0403 15:08:35.641888  2715 net.cpp:148] Top shape: 24 32 14 14 (150528)
I0403 15:08:35.641904  2715 net.cpp:156] Memory required for data: 1237333536
I0403 15:08:35.641919  2715 layer_factory.hpp:77] Creating layer inception_4e/5x5
I0403 15:08:35.641958  2715 net.cpp:91] Creating Layer inception_4e/5x5
I0403 15:08:35.641978  2715 net.cpp:425] inception_4e/5x5 <- inception_4e/5x5_reduce
I0403 15:08:35.641998  2715 net.cpp:399] inception_4e/5x5 -> inception_4e/5x5
I0403 15:08:35.643880  2715 net.cpp:141] Setting up inception_4e/5x5
I0403 15:08:35.643913  2715 net.cpp:148] Top shape: 24 128 14 14 (602112)
I0403 15:08:35.643931  2715 net.cpp:156] Memory required for data: 1239741984
I0403 15:08:35.643952  2715 layer_factory.hpp:77] Creating layer inception_4e/relu_5x5
I0403 15:08:35.643971  2715 net.cpp:91] Creating Layer inception_4e/relu_5x5
I0403 15:08:35.643988  2715 net.cpp:425] inception_4e/relu_5x5 <- inception_4e/5x5
I0403 15:08:35.644006  2715 net.cpp:386] inception_4e/relu_5x5 -> inception_4e/5x5 (in-place)
I0403 15:08:35.644212  2715 net.cpp:141] Setting up inception_4e/relu_5x5
I0403 15:08:35.644237  2715 net.cpp:148] Top shape: 24 128 14 14 (602112)
I0403 15:08:35.644251  2715 net.cpp:156] Memory required for data: 1242150432
I0403 15:08:35.644266  2715 layer_factory.hpp:77] Creating layer inception_4e/pool
I0403 15:08:35.644284  2715 net.cpp:91] Creating Layer inception_4e/pool
I0403 15:08:35.644300  2715 net.cpp:425] inception_4e/pool <- inception_4d/output_inception_4d/output_0_split_4
I0403 15:08:35.644321  2715 net.cpp:399] inception_4e/pool -> inception_4e/pool
I0403 15:08:35.644392  2715 net.cpp:141] Setting up inception_4e/pool
I0403 15:08:35.644418  2715 net.cpp:148] Top shape: 24 528 14 14 (2483712)
I0403 15:08:35.644434  2715 net.cpp:156] Memory required for data: 1252085280
I0403 15:08:35.644449  2715 layer_factory.hpp:77] Creating layer inception_4e/pool_proj
I0403 15:08:35.644471  2715 net.cpp:91] Creating Layer inception_4e/pool_proj
I0403 15:08:35.644490  2715 net.cpp:425] inception_4e/pool_proj <- inception_4e/pool
I0403 15:08:35.644511  2715 net.cpp:399] inception_4e/pool_proj -> inception_4e/pool_proj
I0403 15:08:35.646014  2715 net.cpp:141] Setting up inception_4e/pool_proj
I0403 15:08:35.646060  2715 net.cpp:148] Top shape: 24 128 14 14 (602112)
I0403 15:08:35.646080  2715 net.cpp:156] Memory required for data: 1254493728
I0403 15:08:35.646100  2715 layer_factory.hpp:77] Creating layer inception_4e/relu_pool_proj
I0403 15:08:35.646118  2715 net.cpp:91] Creating Layer inception_4e/relu_pool_proj
I0403 15:08:35.646136  2715 net.cpp:425] inception_4e/relu_pool_proj <- inception_4e/pool_proj
I0403 15:08:35.646155  2715 net.cpp:386] inception_4e/relu_pool_proj -> inception_4e/pool_proj (in-place)
I0403 15:08:35.646453  2715 net.cpp:141] Setting up inception_4e/relu_pool_proj
I0403 15:08:35.646482  2715 net.cpp:148] Top shape: 24 128 14 14 (602112)
I0403 15:08:35.646498  2715 net.cpp:156] Memory required for data: 1256902176
I0403 15:08:35.646513  2715 layer_factory.hpp:77] Creating layer inception_4e/output
I0403 15:08:35.646531  2715 net.cpp:91] Creating Layer inception_4e/output
I0403 15:08:35.646548  2715 net.cpp:425] inception_4e/output <- inception_4e/1x1
I0403 15:08:35.646564  2715 net.cpp:425] inception_4e/output <- inception_4e/3x3
I0403 15:08:35.646580  2715 net.cpp:425] inception_4e/output <- inception_4e/5x5
I0403 15:08:35.646595  2715 net.cpp:425] inception_4e/output <- inception_4e/pool_proj
I0403 15:08:35.646613  2715 net.cpp:399] inception_4e/output -> inception_4e/output
I0403 15:08:35.646666  2715 net.cpp:141] Setting up inception_4e/output
I0403 15:08:35.646688  2715 net.cpp:148] Top shape: 24 832 14 14 (3913728)
I0403 15:08:35.646703  2715 net.cpp:156] Memory required for data: 1272557088
I0403 15:08:35.646718  2715 layer_factory.hpp:77] Creating layer pool4/3x3_s2
I0403 15:08:35.646738  2715 net.cpp:91] Creating Layer pool4/3x3_s2
I0403 15:08:35.646754  2715 net.cpp:425] pool4/3x3_s2 <- inception_4e/output
I0403 15:08:35.646773  2715 net.cpp:399] pool4/3x3_s2 -> pool4/3x3_s2
I0403 15:08:35.646843  2715 net.cpp:141] Setting up pool4/3x3_s2
I0403 15:08:35.646867  2715 net.cpp:148] Top shape: 24 832 7 7 (978432)
I0403 15:08:35.646883  2715 net.cpp:156] Memory required for data: 1276470816
I0403 15:08:35.646896  2715 layer_factory.hpp:77] Creating layer pool4/3x3_s2_pool4/3x3_s2_0_split
I0403 15:08:35.646914  2715 net.cpp:91] Creating Layer pool4/3x3_s2_pool4/3x3_s2_0_split
I0403 15:08:35.646929  2715 net.cpp:425] pool4/3x3_s2_pool4/3x3_s2_0_split <- pool4/3x3_s2
I0403 15:08:35.646950  2715 net.cpp:399] pool4/3x3_s2_pool4/3x3_s2_0_split -> pool4/3x3_s2_pool4/3x3_s2_0_split_0
I0403 15:08:35.646971  2715 net.cpp:399] pool4/3x3_s2_pool4/3x3_s2_0_split -> pool4/3x3_s2_pool4/3x3_s2_0_split_1
I0403 15:08:35.646992  2715 net.cpp:399] pool4/3x3_s2_pool4/3x3_s2_0_split -> pool4/3x3_s2_pool4/3x3_s2_0_split_2
I0403 15:08:35.647012  2715 net.cpp:399] pool4/3x3_s2_pool4/3x3_s2_0_split -> pool4/3x3_s2_pool4/3x3_s2_0_split_3
I0403 15:08:35.647104  2715 net.cpp:141] Setting up pool4/3x3_s2_pool4/3x3_s2_0_split
I0403 15:08:35.647130  2715 net.cpp:148] Top shape: 24 832 7 7 (978432)
I0403 15:08:35.647148  2715 net.cpp:148] Top shape: 24 832 7 7 (978432)
I0403 15:08:35.647181  2715 net.cpp:148] Top shape: 24 832 7 7 (978432)
I0403 15:08:35.647199  2715 net.cpp:148] Top shape: 24 832 7 7 (978432)
I0403 15:08:35.647213  2715 net.cpp:156] Memory required for data: 1292125728
I0403 15:08:35.647228  2715 layer_factory.hpp:77] Creating layer inception_5a/1x1
I0403 15:08:35.647251  2715 net.cpp:91] Creating Layer inception_5a/1x1
I0403 15:08:35.647270  2715 net.cpp:425] inception_5a/1x1 <- pool4/3x3_s2_pool4/3x3_s2_0_split_0
I0403 15:08:35.647290  2715 net.cpp:399] inception_5a/1x1 -> inception_5a/1x1
I0403 15:08:35.650244  2715 net.cpp:141] Setting up inception_5a/1x1
I0403 15:08:35.650277  2715 net.cpp:148] Top shape: 24 256 7 7 (301056)
I0403 15:08:35.650307  2715 net.cpp:156] Memory required for data: 1293329952
I0403 15:08:35.650327  2715 layer_factory.hpp:77] Creating layer inception_5a/relu_1x1
I0403 15:08:35.650346  2715 net.cpp:91] Creating Layer inception_5a/relu_1x1
I0403 15:08:35.650365  2715 net.cpp:425] inception_5a/relu_1x1 <- inception_5a/1x1
I0403 15:08:35.650387  2715 net.cpp:386] inception_5a/relu_1x1 -> inception_5a/1x1 (in-place)
I0403 15:08:35.650717  2715 net.cpp:141] Setting up inception_5a/relu_1x1
I0403 15:08:35.650745  2715 net.cpp:148] Top shape: 24 256 7 7 (301056)
I0403 15:08:35.650761  2715 net.cpp:156] Memory required for data: 1294534176
I0403 15:08:35.650777  2715 layer_factory.hpp:77] Creating layer inception_5a/3x3_reduce
I0403 15:08:35.650800  2715 net.cpp:91] Creating Layer inception_5a/3x3_reduce
I0403 15:08:35.650818  2715 net.cpp:425] inception_5a/3x3_reduce <- pool4/3x3_s2_pool4/3x3_s2_0_split_1
I0403 15:08:35.650838  2715 net.cpp:399] inception_5a/3x3_reduce -> inception_5a/3x3_reduce
I0403 15:08:35.653416  2715 net.cpp:141] Setting up inception_5a/3x3_reduce
I0403 15:08:35.653450  2715 net.cpp:148] Top shape: 24 160 7 7 (188160)
I0403 15:08:35.653466  2715 net.cpp:156] Memory required for data: 1295286816
I0403 15:08:35.653486  2715 layer_factory.hpp:77] Creating layer inception_5a/relu_3x3_reduce
I0403 15:08:35.653507  2715 net.cpp:91] Creating Layer inception_5a/relu_3x3_reduce
I0403 15:08:35.653525  2715 net.cpp:425] inception_5a/relu_3x3_reduce <- inception_5a/3x3_reduce
I0403 15:08:35.653543  2715 net.cpp:386] inception_5a/relu_3x3_reduce -> inception_5a/3x3_reduce (in-place)
I0403 15:08:35.653760  2715 net.cpp:141] Setting up inception_5a/relu_3x3_reduce
I0403 15:08:35.653789  2715 net.cpp:148] Top shape: 24 160 7 7 (188160)
I0403 15:08:35.653805  2715 net.cpp:156] Memory required for data: 1296039456
I0403 15:08:35.653820  2715 layer_factory.hpp:77] Creating layer inception_5a/3x3
I0403 15:08:35.653847  2715 net.cpp:91] Creating Layer inception_5a/3x3
I0403 15:08:35.653867  2715 net.cpp:425] inception_5a/3x3 <- inception_5a/3x3_reduce
I0403 15:08:35.653887  2715 net.cpp:399] inception_5a/3x3 -> inception_5a/3x3
I0403 15:08:35.659090  2715 net.cpp:141] Setting up inception_5a/3x3
I0403 15:08:35.659122  2715 net.cpp:148] Top shape: 24 320 7 7 (376320)
I0403 15:08:35.659139  2715 net.cpp:156] Memory required for data: 1297544736
I0403 15:08:35.659158  2715 layer_factory.hpp:77] Creating layer inception_5a/relu_3x3
I0403 15:08:35.659181  2715 net.cpp:91] Creating Layer inception_5a/relu_3x3
I0403 15:08:35.659200  2715 net.cpp:425] inception_5a/relu_3x3 <- inception_5a/3x3
I0403 15:08:35.659221  2715 net.cpp:386] inception_5a/relu_3x3 -> inception_5a/3x3 (in-place)
I0403 15:08:35.659528  2715 net.cpp:141] Setting up inception_5a/relu_3x3
I0403 15:08:35.659557  2715 net.cpp:148] Top shape: 24 320 7 7 (376320)
I0403 15:08:35.659572  2715 net.cpp:156] Memory required for data: 1299050016
I0403 15:08:35.659589  2715 layer_factory.hpp:77] Creating layer inception_5a/5x5_reduce
I0403 15:08:35.659611  2715 net.cpp:91] Creating Layer inception_5a/5x5_reduce
I0403 15:08:35.659631  2715 net.cpp:425] inception_5a/5x5_reduce <- pool4/3x3_s2_pool4/3x3_s2_0_split_2
I0403 15:08:35.659657  2715 net.cpp:399] inception_5a/5x5_reduce -> inception_5a/5x5_reduce
I0403 15:08:35.660888  2715 net.cpp:141] Setting up inception_5a/5x5_reduce
I0403 15:08:35.660928  2715 net.cpp:148] Top shape: 24 32 7 7 (37632)
I0403 15:08:35.660945  2715 net.cpp:156] Memory required for data: 1299200544
I0403 15:08:35.660965  2715 layer_factory.hpp:77] Creating layer inception_5a/relu_5x5_reduce
I0403 15:08:35.660984  2715 net.cpp:91] Creating Layer inception_5a/relu_5x5_reduce
I0403 15:08:35.661005  2715 net.cpp:425] inception_5a/relu_5x5_reduce <- inception_5a/5x5_reduce
I0403 15:08:35.661023  2715 net.cpp:386] inception_5a/relu_5x5_reduce -> inception_5a/5x5_reduce (in-place)
I0403 15:08:35.661342  2715 net.cpp:141] Setting up inception_5a/relu_5x5_reduce
I0403 15:08:35.661370  2715 net.cpp:148] Top shape: 24 32 7 7 (37632)
I0403 15:08:35.661384  2715 net.cpp:156] Memory required for data: 1299351072
I0403 15:08:35.661401  2715 layer_factory.hpp:77] Creating layer inception_5a/5x5
I0403 15:08:35.661423  2715 net.cpp:91] Creating Layer inception_5a/5x5
I0403 15:08:35.661442  2715 net.cpp:425] inception_5a/5x5 <- inception_5a/5x5_reduce
I0403 15:08:35.661464  2715 net.cpp:399] inception_5a/5x5 -> inception_5a/5x5
I0403 15:08:35.663257  2715 net.cpp:141] Setting up inception_5a/5x5
I0403 15:08:35.663303  2715 net.cpp:148] Top shape: 24 128 7 7 (150528)
I0403 15:08:35.663322  2715 net.cpp:156] Memory required for data: 1299953184
I0403 15:08:35.663342  2715 layer_factory.hpp:77] Creating layer inception_5a/relu_5x5
I0403 15:08:35.663362  2715 net.cpp:91] Creating Layer inception_5a/relu_5x5
I0403 15:08:35.663379  2715 net.cpp:425] inception_5a/relu_5x5 <- inception_5a/5x5
I0403 15:08:35.663400  2715 net.cpp:386] inception_5a/relu_5x5 -> inception_5a/5x5 (in-place)
I0403 15:08:35.663600  2715 net.cpp:141] Setting up inception_5a/relu_5x5
I0403 15:08:35.663628  2715 net.cpp:148] Top shape: 24 128 7 7 (150528)
I0403 15:08:35.663645  2715 net.cpp:156] Memory required for data: 1300555296
I0403 15:08:35.663661  2715 layer_factory.hpp:77] Creating layer inception_5a/pool
I0403 15:08:35.663679  2715 net.cpp:91] Creating Layer inception_5a/pool
I0403 15:08:35.663699  2715 net.cpp:425] inception_5a/pool <- pool4/3x3_s2_pool4/3x3_s2_0_split_3
I0403 15:08:35.663719  2715 net.cpp:399] inception_5a/pool -> inception_5a/pool
I0403 15:08:35.663799  2715 net.cpp:141] Setting up inception_5a/pool
I0403 15:08:35.663822  2715 net.cpp:148] Top shape: 24 832 7 7 (978432)
I0403 15:08:35.663837  2715 net.cpp:156] Memory required for data: 1304469024
I0403 15:08:35.663853  2715 layer_factory.hpp:77] Creating layer inception_5a/pool_proj
I0403 15:08:35.663875  2715 net.cpp:91] Creating Layer inception_5a/pool_proj
I0403 15:08:35.663894  2715 net.cpp:425] inception_5a/pool_proj <- inception_5a/pool
I0403 15:08:35.663916  2715 net.cpp:399] inception_5a/pool_proj -> inception_5a/pool_proj
I0403 15:08:35.666322  2715 net.cpp:141] Setting up inception_5a/pool_proj
I0403 15:08:35.666355  2715 net.cpp:148] Top shape: 24 128 7 7 (150528)
I0403 15:08:35.666374  2715 net.cpp:156] Memory required for data: 1305071136
I0403 15:08:35.666394  2715 layer_factory.hpp:77] Creating layer inception_5a/relu_pool_proj
I0403 15:08:35.666414  2715 net.cpp:91] Creating Layer inception_5a/relu_pool_proj
I0403 15:08:35.666431  2715 net.cpp:425] inception_5a/relu_pool_proj <- inception_5a/pool_proj
I0403 15:08:35.666452  2715 net.cpp:386] inception_5a/relu_pool_proj -> inception_5a/pool_proj (in-place)
I0403 15:08:35.666765  2715 net.cpp:141] Setting up inception_5a/relu_pool_proj
I0403 15:08:35.666795  2715 net.cpp:148] Top shape: 24 128 7 7 (150528)
I0403 15:08:35.666810  2715 net.cpp:156] Memory required for data: 1305673248
I0403 15:08:35.666826  2715 layer_factory.hpp:77] Creating layer inception_5a/output
I0403 15:08:35.666846  2715 net.cpp:91] Creating Layer inception_5a/output
I0403 15:08:35.666862  2715 net.cpp:425] inception_5a/output <- inception_5a/1x1
I0403 15:08:35.666879  2715 net.cpp:425] inception_5a/output <- inception_5a/3x3
I0403 15:08:35.666896  2715 net.cpp:425] inception_5a/output <- inception_5a/5x5
I0403 15:08:35.666913  2715 net.cpp:425] inception_5a/output <- inception_5a/pool_proj
I0403 15:08:35.666929  2715 net.cpp:399] inception_5a/output -> inception_5a/output
I0403 15:08:35.666983  2715 net.cpp:141] Setting up inception_5a/output
I0403 15:08:35.667011  2715 net.cpp:148] Top shape: 24 832 7 7 (978432)
I0403 15:08:35.667026  2715 net.cpp:156] Memory required for data: 1309586976
I0403 15:08:35.667040  2715 layer_factory.hpp:77] Creating layer inception_5a/output_inception_5a/output_0_split
I0403 15:08:35.667058  2715 net.cpp:91] Creating Layer inception_5a/output_inception_5a/output_0_split
I0403 15:08:35.667074  2715 net.cpp:425] inception_5a/output_inception_5a/output_0_split <- inception_5a/output
I0403 15:08:35.667094  2715 net.cpp:399] inception_5a/output_inception_5a/output_0_split -> inception_5a/output_inception_5a/output_0_split_0
I0403 15:08:35.667116  2715 net.cpp:399] inception_5a/output_inception_5a/output_0_split -> inception_5a/output_inception_5a/output_0_split_1
I0403 15:08:35.667137  2715 net.cpp:399] inception_5a/output_inception_5a/output_0_split -> inception_5a/output_inception_5a/output_0_split_2
I0403 15:08:35.667162  2715 net.cpp:399] inception_5a/output_inception_5a/output_0_split -> inception_5a/output_inception_5a/output_0_split_3
I0403 15:08:35.667281  2715 net.cpp:141] Setting up inception_5a/output_inception_5a/output_0_split
I0403 15:08:35.667306  2715 net.cpp:148] Top shape: 24 832 7 7 (978432)
I0403 15:08:35.667323  2715 net.cpp:148] Top shape: 24 832 7 7 (978432)
I0403 15:08:35.667340  2715 net.cpp:148] Top shape: 24 832 7 7 (978432)
I0403 15:08:35.667356  2715 net.cpp:148] Top shape: 24 832 7 7 (978432)
I0403 15:08:35.667369  2715 net.cpp:156] Memory required for data: 1325241888
I0403 15:08:35.667385  2715 layer_factory.hpp:77] Creating layer inception_5b/1x1
I0403 15:08:35.667408  2715 net.cpp:91] Creating Layer inception_5b/1x1
I0403 15:08:35.667426  2715 net.cpp:425] inception_5b/1x1 <- inception_5a/output_inception_5a/output_0_split_0
I0403 15:08:35.667449  2715 net.cpp:399] inception_5b/1x1 -> inception_5b/1x1
I0403 15:08:35.671367  2715 net.cpp:141] Setting up inception_5b/1x1
I0403 15:08:35.671399  2715 net.cpp:148] Top shape: 24 384 7 7 (451584)
I0403 15:08:35.671416  2715 net.cpp:156] Memory required for data: 1327048224
I0403 15:08:35.671438  2715 layer_factory.hpp:77] Creating layer inception_5b/relu_1x1
I0403 15:08:35.671460  2715 net.cpp:91] Creating Layer inception_5b/relu_1x1
I0403 15:08:35.671478  2715 net.cpp:425] inception_5b/relu_1x1 <- inception_5b/1x1
I0403 15:08:35.671496  2715 net.cpp:386] inception_5b/relu_1x1 -> inception_5b/1x1 (in-place)
I0403 15:08:35.671813  2715 net.cpp:141] Setting up inception_5b/relu_1x1
I0403 15:08:35.671839  2715 net.cpp:148] Top shape: 24 384 7 7 (451584)
I0403 15:08:35.671854  2715 net.cpp:156] Memory required for data: 1328854560
I0403 15:08:35.671870  2715 layer_factory.hpp:77] Creating layer inception_5b/3x3_reduce
I0403 15:08:35.671895  2715 net.cpp:91] Creating Layer inception_5b/3x3_reduce
I0403 15:08:35.671913  2715 net.cpp:425] inception_5b/3x3_reduce <- inception_5a/output_inception_5a/output_0_split_1
I0403 15:08:35.671936  2715 net.cpp:399] inception_5b/3x3_reduce -> inception_5b/3x3_reduce
I0403 15:08:35.674721  2715 net.cpp:141] Setting up inception_5b/3x3_reduce
I0403 15:08:35.674752  2715 net.cpp:148] Top shape: 24 192 7 7 (225792)
I0403 15:08:35.674770  2715 net.cpp:156] Memory required for data: 1329757728
I0403 15:08:35.674792  2715 layer_factory.hpp:77] Creating layer inception_5b/relu_3x3_reduce
I0403 15:08:35.674814  2715 net.cpp:91] Creating Layer inception_5b/relu_3x3_reduce
I0403 15:08:35.674834  2715 net.cpp:425] inception_5b/relu_3x3_reduce <- inception_5b/3x3_reduce
I0403 15:08:35.674852  2715 net.cpp:386] inception_5b/relu_3x3_reduce -> inception_5b/3x3_reduce (in-place)
I0403 15:08:35.675053  2715 net.cpp:141] Setting up inception_5b/relu_3x3_reduce
I0403 15:08:35.675081  2715 net.cpp:148] Top shape: 24 192 7 7 (225792)
I0403 15:08:35.675097  2715 net.cpp:156] Memory required for data: 1330660896
I0403 15:08:35.675113  2715 layer_factory.hpp:77] Creating layer inception_5b/3x3
I0403 15:08:35.675137  2715 net.cpp:91] Creating Layer inception_5b/3x3
I0403 15:08:35.675154  2715 net.cpp:425] inception_5b/3x3 <- inception_5b/3x3_reduce
I0403 15:08:35.675181  2715 net.cpp:399] inception_5b/3x3 -> inception_5b/3x3
I0403 15:08:35.682132  2715 net.cpp:141] Setting up inception_5b/3x3
I0403 15:08:35.682166  2715 net.cpp:148] Top shape: 24 384 7 7 (451584)
I0403 15:08:35.682190  2715 net.cpp:156] Memory required for data: 1332467232
I0403 15:08:35.682212  2715 layer_factory.hpp:77] Creating layer inception_5b/relu_3x3
I0403 15:08:35.682232  2715 net.cpp:91] Creating Layer inception_5b/relu_3x3
I0403 15:08:35.682250  2715 net.cpp:425] inception_5b/relu_3x3 <- inception_5b/3x3
I0403 15:08:35.682273  2715 net.cpp:386] inception_5b/relu_3x3 -> inception_5b/3x3 (in-place)
I0403 15:08:35.682590  2715 net.cpp:141] Setting up inception_5b/relu_3x3
I0403 15:08:35.682621  2715 net.cpp:148] Top shape: 24 384 7 7 (451584)
I0403 15:08:35.682638  2715 net.cpp:156] Memory required for data: 1334273568
I0403 15:08:35.682654  2715 layer_factory.hpp:77] Creating layer inception_5b/5x5_reduce
I0403 15:08:35.682698  2715 net.cpp:91] Creating Layer inception_5b/5x5_reduce
I0403 15:08:35.682718  2715 net.cpp:425] inception_5b/5x5_reduce <- inception_5a/output_inception_5a/output_0_split_2
I0403 15:08:35.682741  2715 net.cpp:399] inception_5b/5x5_reduce -> inception_5b/5x5_reduce
I0403 15:08:35.684080  2715 net.cpp:141] Setting up inception_5b/5x5_reduce
I0403 15:08:35.684113  2715 net.cpp:148] Top shape: 24 48 7 7 (56448)
I0403 15:08:35.684130  2715 net.cpp:156] Memory required for data: 1334499360
I0403 15:08:35.684150  2715 layer_factory.hpp:77] Creating layer inception_5b/relu_5x5_reduce
I0403 15:08:35.684170  2715 net.cpp:91] Creating Layer inception_5b/relu_5x5_reduce
I0403 15:08:35.684193  2715 net.cpp:425] inception_5b/relu_5x5_reduce <- inception_5b/5x5_reduce
I0403 15:08:35.684214  2715 net.cpp:386] inception_5b/relu_5x5_reduce -> inception_5b/5x5_reduce (in-place)
I0403 15:08:35.684607  2715 net.cpp:141] Setting up inception_5b/relu_5x5_reduce
I0403 15:08:35.684634  2715 net.cpp:148] Top shape: 24 48 7 7 (56448)
I0403 15:08:35.684650  2715 net.cpp:156] Memory required for data: 1334725152
I0403 15:08:35.684666  2715 layer_factory.hpp:77] Creating layer inception_5b/5x5
I0403 15:08:35.684687  2715 net.cpp:91] Creating Layer inception_5b/5x5
I0403 15:08:35.684706  2715 net.cpp:425] inception_5b/5x5 <- inception_5b/5x5_reduce
I0403 15:08:35.684726  2715 net.cpp:399] inception_5b/5x5 -> inception_5b/5x5
I0403 15:08:35.686872  2715 net.cpp:141] Setting up inception_5b/5x5
I0403 15:08:35.686903  2715 net.cpp:148] Top shape: 24 128 7 7 (150528)
I0403 15:08:35.686921  2715 net.cpp:156] Memory required for data: 1335327264
I0403 15:08:35.686940  2715 layer_factory.hpp:77] Creating layer inception_5b/relu_5x5
I0403 15:08:35.686959  2715 net.cpp:91] Creating Layer inception_5b/relu_5x5
I0403 15:08:35.686976  2715 net.cpp:425] inception_5b/relu_5x5 <- inception_5b/5x5
I0403 15:08:35.686997  2715 net.cpp:386] inception_5b/relu_5x5 -> inception_5b/5x5 (in-place)
I0403 15:08:35.687203  2715 net.cpp:141] Setting up inception_5b/relu_5x5
I0403 15:08:35.687230  2715 net.cpp:148] Top shape: 24 128 7 7 (150528)
I0403 15:08:35.687245  2715 net.cpp:156] Memory required for data: 1335929376
I0403 15:08:35.687260  2715 layer_factory.hpp:77] Creating layer inception_5b/pool
I0403 15:08:35.687279  2715 net.cpp:91] Creating Layer inception_5b/pool
I0403 15:08:35.687296  2715 net.cpp:425] inception_5b/pool <- inception_5a/output_inception_5a/output_0_split_3
I0403 15:08:35.687319  2715 net.cpp:399] inception_5b/pool -> inception_5b/pool
I0403 15:08:35.687397  2715 net.cpp:141] Setting up inception_5b/pool
I0403 15:08:35.687422  2715 net.cpp:148] Top shape: 24 832 7 7 (978432)
I0403 15:08:35.687438  2715 net.cpp:156] Memory required for data: 1339843104
I0403 15:08:35.687453  2715 layer_factory.hpp:77] Creating layer inception_5b/pool_proj
I0403 15:08:35.687479  2715 net.cpp:91] Creating Layer inception_5b/pool_proj
I0403 15:08:35.687499  2715 net.cpp:425] inception_5b/pool_proj <- inception_5b/pool
I0403 15:08:35.687521  2715 net.cpp:399] inception_5b/pool_proj -> inception_5b/pool_proj
I0403 15:08:35.689909  2715 net.cpp:141] Setting up inception_5b/pool_proj
I0403 15:08:35.689944  2715 net.cpp:148] Top shape: 24 128 7 7 (150528)
I0403 15:08:35.689962  2715 net.cpp:156] Memory required for data: 1340445216
I0403 15:08:35.689983  2715 layer_factory.hpp:77] Creating layer inception_5b/relu_pool_proj
I0403 15:08:35.690002  2715 net.cpp:91] Creating Layer inception_5b/relu_pool_proj
I0403 15:08:35.690019  2715 net.cpp:425] inception_5b/relu_pool_proj <- inception_5b/pool_proj
I0403 15:08:35.690039  2715 net.cpp:386] inception_5b/relu_pool_proj -> inception_5b/pool_proj (in-place)
I0403 15:08:35.690352  2715 net.cpp:141] Setting up inception_5b/relu_pool_proj
I0403 15:08:35.690384  2715 net.cpp:148] Top shape: 24 128 7 7 (150528)
I0403 15:08:35.690402  2715 net.cpp:156] Memory required for data: 1341047328
I0403 15:08:35.690418  2715 layer_factory.hpp:77] Creating layer inception_5b/output
I0403 15:08:35.690438  2715 net.cpp:91] Creating Layer inception_5b/output
I0403 15:08:35.690470  2715 net.cpp:425] inception_5b/output <- inception_5b/1x1
I0403 15:08:35.690490  2715 net.cpp:425] inception_5b/output <- inception_5b/3x3
I0403 15:08:35.690508  2715 net.cpp:425] inception_5b/output <- inception_5b/5x5
I0403 15:08:35.690526  2715 net.cpp:425] inception_5b/output <- inception_5b/pool_proj
I0403 15:08:35.690543  2715 net.cpp:399] inception_5b/output -> inception_5b/output
I0403 15:08:35.690599  2715 net.cpp:141] Setting up inception_5b/output
I0403 15:08:35.690624  2715 net.cpp:148] Top shape: 24 1024 7 7 (1204224)
I0403 15:08:35.690639  2715 net.cpp:156] Memory required for data: 1345864224
I0403 15:08:35.690655  2715 layer_factory.hpp:77] Creating layer pool5/7x7_s1
I0403 15:08:35.690675  2715 net.cpp:91] Creating Layer pool5/7x7_s1
I0403 15:08:35.690692  2715 net.cpp:425] pool5/7x7_s1 <- inception_5b/output
I0403 15:08:35.690712  2715 net.cpp:399] pool5/7x7_s1 -> pool5/7x7_s1
I0403 15:08:35.690942  2715 net.cpp:141] Setting up pool5/7x7_s1
I0403 15:08:35.690968  2715 net.cpp:148] Top shape: 24 1024 1 1 (24576)
I0403 15:08:35.690984  2715 net.cpp:156] Memory required for data: 1345962528
I0403 15:08:35.690999  2715 layer_factory.hpp:77] Creating layer pool5/drop_7x7_s1
I0403 15:08:35.691017  2715 net.cpp:91] Creating Layer pool5/drop_7x7_s1
I0403 15:08:35.691033  2715 net.cpp:425] pool5/drop_7x7_s1 <- pool5/7x7_s1
I0403 15:08:35.691053  2715 net.cpp:386] pool5/drop_7x7_s1 -> pool5/7x7_s1 (in-place)
I0403 15:08:35.691105  2715 net.cpp:141] Setting up pool5/drop_7x7_s1
I0403 15:08:35.691129  2715 net.cpp:148] Top shape: 24 1024 1 1 (24576)
I0403 15:08:35.691144  2715 net.cpp:156] Memory required for data: 1346060832
I0403 15:08:35.691160  2715 layer_factory.hpp:77] Creating layer loss3/classifier_plantvillage
I0403 15:08:35.691186  2715 net.cpp:91] Creating Layer loss3/classifier_plantvillage
I0403 15:08:35.691206  2715 net.cpp:425] loss3/classifier_plantvillage <- pool5/7x7_s1
I0403 15:08:35.691231  2715 net.cpp:399] loss3/classifier_plantvillage -> loss3/classifier_plantvillage
I0403 15:08:35.691673  2715 net.cpp:141] Setting up loss3/classifier_plantvillage
I0403 15:08:35.691699  2715 net.cpp:148] Top shape: 24 38 (912)
I0403 15:08:35.691715  2715 net.cpp:156] Memory required for data: 1346064480
I0403 15:08:35.691735  2715 layer_factory.hpp:77] Creating layer loss3/classifier_plantvillage_loss3/classifier_plantvillage_0_split
I0403 15:08:35.691753  2715 net.cpp:91] Creating Layer loss3/classifier_plantvillage_loss3/classifier_plantvillage_0_split
I0403 15:08:35.691769  2715 net.cpp:425] loss3/classifier_plantvillage_loss3/classifier_plantvillage_0_split <- loss3/classifier_plantvillage
I0403 15:08:35.691792  2715 net.cpp:399] loss3/classifier_plantvillage_loss3/classifier_plantvillage_0_split -> loss3/classifier_plantvillage_loss3/classifier_plantvillage_0_split_0
I0403 15:08:35.691812  2715 net.cpp:399] loss3/classifier_plantvillage_loss3/classifier_plantvillage_0_split -> loss3/classifier_plantvillage_loss3/classifier_plantvillage_0_split_1
I0403 15:08:35.691833  2715 net.cpp:399] loss3/classifier_plantvillage_loss3/classifier_plantvillage_0_split -> loss3/classifier_plantvillage_loss3/classifier_plantvillage_0_split_2
I0403 15:08:35.691859  2715 net.cpp:399] loss3/classifier_plantvillage_loss3/classifier_plantvillage_0_split -> loss3/classifier_plantvillage_loss3/classifier_plantvillage_0_split_3
I0403 15:08:35.691967  2715 net.cpp:141] Setting up loss3/classifier_plantvillage_loss3/classifier_plantvillage_0_split
I0403 15:08:35.691992  2715 net.cpp:148] Top shape: 24 38 (912)
I0403 15:08:35.692008  2715 net.cpp:148] Top shape: 24 38 (912)
I0403 15:08:35.692024  2715 net.cpp:148] Top shape: 24 38 (912)
I0403 15:08:35.692040  2715 net.cpp:148] Top shape: 24 38 (912)
I0403 15:08:35.692055  2715 net.cpp:156] Memory required for data: 1346079072
I0403 15:08:35.692070  2715 layer_factory.hpp:77] Creating layer loss1/loss
I0403 15:08:35.692092  2715 net.cpp:91] Creating Layer loss1/loss
I0403 15:08:35.692111  2715 net.cpp:425] loss1/loss <- loss1/classifier_plantvillage_loss1/classifier_plantvillage_0_split_0
I0403 15:08:35.692142  2715 net.cpp:425] loss1/loss <- label_data_1_split_0
…
