…
I0403 15:26:54.287138  3099 net.cpp:313] The NetState phase (1) differed from the phase (0) specified by a rule in layer data
I0403 15:26:54.288267  3099 net.cpp:49] Initializing net from parameters: 
state {
  phase: TEST
}
layer {
  name: "data"
  type: "Data"
  top: "data"
  top: "label"
  include {
    phase: TEST
  }
  transform_param {
    mirror: false
    crop_size: 224
    mean_file: "/home/mohanty/data/final_dataset/lmdb/segmented-60-40/mean.binaryproto"
  }
  data_param {
    source: "/home/mohanty/data/final_dataset/lmdb/segmented-60-40/test_db"
    batch_size: 24
    backend: LMDB
  }
}
layer {
  name: "conv1/7x7_s2"
  type: "Convolution"
  bottom: "data"
  top: "conv1/7x7_s2"
  param {
    lr_mult: 1
    decay_mult: 1
  }
  param {
    lr_mult: 2
    decay_mult: 0
  }
  convolution_param {
    num_output: 64
    pad: 3
    kernel_size: 7
    stride: 2
    weight_filler {
      type: "xavier"
      std: 0.1
    }
    bias_filler {
      type: "constant"
      value: 0.2
    }
  }
}
layer {
  name: "conv1/relu_7x7"
  type: "ReLU"
  bottom: "conv1/7x7_s2"
  top: "conv1/7x7_s2"
}
layer {
  name: "pool1/3x3_s2"
  type: "Pooling"
  bottom: "conv1/7x7_s2"
  top: "pool1/3x3_s2"
  pooling_param {
    pool: MAX
    kernel_size: 3
    stride: 2
  }
}
layer {
  name: "pool1/norm1"
  type: "LRN"
  bottom: "pool1/3x3_s2"
  top: "pool1/norm1"
  lrn_param {
    local_size: 5
    alpha: 0.0001
    beta: 0.75
  }
}
layer {
  name: "conv2/3x3_reduce"
  type: "Convolution"
  bottom: "pool1/norm1"
  top: "conv2/3x3_reduce"
  param {
    lr_mult: 1
    decay_mult: 1
  }
  param {
    lr_mult: 2
    decay_mult: 0
  }
  convolution_param {
    num_output: 64
    kernel_size: 1
    weight_filler {
      type: "xavier"
      std: 0.1
    }
    bias_filler {
      type: "constant"
      value: 0.2
    }
  }
}
layer {
  name: "conv2/relu_3x3_reduce"
  type: "ReLU"
  bottom: "conv2/3x3_reduce"
  top: "conv2/3x3_reduce"
}
layer {
  name: "conv2/3x3"
  type: "Convolution"
  bottom: "conv2/3x3_reduce"
  top: "conv2/3x3"
  param {
    lr_mult: 1
    decay_mult: 1
  }
  param {
    lr_mult: 2
    decay_mult: 0
  }
  convolution_param {
    num_output: 192
    pad: 1
    kernel_size: 3
    weight_filler {
      type: "xavier"
      std: 0.03
    }
    bias_filler {
      type: "constant"
      value: 0.2
    }
  }
}
layer {
  name: "conv2/relu_3x3"
  type: "ReLU"
  bottom: "conv2/3x3"
  top: "conv2/3x3"
}
layer {
  name: "conv2/norm2"
  type: "LRN"
  bottom: "conv2/3x3"
  top: "conv2/norm2"
  lrn_param {
    local_size: 5
    alpha: 0.0001
    beta: 0.75
  }
}
layer {
  name: "pool2/3x3_s2"
  type: "Pooling"
  bottom: "conv2/norm2"
  top: "pool2/3x3_s2"
  pooling_param {
    pool: MAX
    kernel_size: 3
    stride: 2
  }
}
layer {
  name: "inception_3a/1x1"
  type: "Convolution"
  bottom: "pool2/3x3_s2"
  top: "inception_3a/1x1"
  param {
    lr_mult: 1
    decay_mult: 1
  }
  param {
    lr_mult: 2
    decay_mult: 0
  }
  convolution_param {
    num_output: 64
    kernel_size: 1
    weight_filler {
      type: "xavier"
      std: 0.03
    }
    bias_filler {
      type: "constant"
      value: 0.2
    }
  }
}
layer {
  name: "inception_3a/relu_1x1"
  type: "ReLU"
  bottom: "inception_3a/1x1"
  top: "inception_3a/1x1"
}
layer {
  name: "inception_3a/3x3_reduce"
  type: "Convolution"
  bottom: "pool2/3x3_s2"
  top: "inception_3a/3x3_reduce"
  param {
    lr_mult: 1
    decay_mult: 1
  }
  param {
    lr_mult: 2
    decay_mult: 0
  }
  convolution_param {
    num_output: 96
    kernel_size: 1
    weight_filler {
      type: "xavier"
      std: 0.09
    }
    bias_filler {
      type: "constant"
      value: 0.2
    }
  }
}
layer {
  name: "inception_3a/relu_3x3_reduce"
  type: "ReLU"
  bottom: "inception_3a/3x3_reduce"
  top: "inception_3a/3x3_reduce"
}
layer {
  name: "inception_3a/3x3"
  type: "Convolution"
  bottom: "inception_3a/3x3_reduce"
  top: "inception_3a/3x3"
  param {
    lr_mult: 1
    decay_mult: 1
  }
  param {
    lr_mult: 2
    decay_mult: 0
  }
  convolution_param {
    num_output: 128
    pad: 1
    kernel_size: 3
    weight_filler {
      type: "xavier"
      std: 0.03
    }
    bias_filler {
      type: "constant"
      value: 0.2
    }
  }
}
layer {
  name: "inception_3a/relu_3x3"
  type: "ReLU"
  bottom: "inception_3a/3x3"
  top: "inception_3a/3x3"
}
layer {
  name: "inception_3a/5x5_reduce"
  type: "Convolution"
  bottom: "pool2/3x3_s2"
  top: "inception_3a/5x5_reduce"
  param {
    lr_mult: 1
    decay_mult: 1
  }
  param {
    lr_mult: 2
    decay_mult: 0
  }
  convolution_param {
    num_output: 16
    kernel_size: 1
    weight_filler {
      type: "xavier"
      std: 0.2
    }
    bias_filler {
      type: "constant"
      value: 0.2
    }
  }
}
layer {
  name: "inception_3a/relu_5x5_reduce"
  type: "ReLU"
  bottom: "inception_3a/5x5_reduce"
  top: "inception_3a/5x5_reduce"
}
layer {
  name: "inception_3a/5x5"
  type: "Convolution"
  bottom: "inception_3a/5x5_reduce"
  top: "inception_3a/5x5"
  param {
    lr_mult: 1
    decay_mult: 1
  }
  param {
    lr_mult: 2
    decay_mult: 0
  }
  convolution_param {
    num_output: 32
    pad: 2
    kernel_size: 5
    weight_filler {
      type: "xavier"
      std: 0.03
    }
    bias_filler {
      type: "constant"
      value: 0.2
    }
  }
}
layer {
  name: "inception_3a/relu_5x5"
  type: "ReLU"
  bottom: "inception_3a/5x5"
  top: "inception_3a/5x5"
}
layer {
  name: "inception_3a/pool"
  type: "Pooling"
  bottom: "pool2/3x3_s2"
  top: "inception_3a/pool"
  pooling_param {
    pool: MAX
    kernel_size: 3
    stride: 1
    pad: 1
  }
}
layer {
  name: "inception_3a/pool_proj"
  type: "Convolution"
  bottom: "inception_3a/pool"
  top: "inception_3a/pool_proj"
  param {
    lr_mult: 1
    decay_mult: 1
  }
  param {
    lr_mult: 2
    decay_mult: 0
  }
  convolution_param {
    num_output: 32
    kernel_size: 1
    weight_filler {
      type: "xavier"
      std: 0.1
    }
    bias_filler {
      type: "constant"
      value: 0.2
    }
  }
}
layer {
  name: "inception_3a/relu_pool_proj"
  type: "ReLU"
  bottom: "inception_3a/pool_proj"
  top: "inception_3a/pool_proj"
}
layer {
  name: "inception_3a/output"
  type: "Concat"
  bottom: "inception_3a/1x1"
  bottom: "inception_3a/3x3"
  bottom: "inception_3a/5x5"
  bottom: "inception_3a/pool_proj"
  top: "inception_3a/output"
}
layer {
  name: "inception_3b/1x1"
  type: "Convolution"
  bottom: "inception_3a/output"
  top: "inception_3b/1x1"
  param {
    lr_mult: 1
    decay_mult: 1
  }
  param {
    lr_mult: 2
    decay_mult: 0
  }
  convolution_param {
    num_output: 128
    kernel_size: 1
    weight_filler {
      type: "xavier"
      std: 0.03
    }
    bias_filler {
      type: "constant"
      value: 0.2
    }
  }
}
layer {
  name: "inception_3b/relu_1x1"
  type: "ReLU"
  bottom: "inception_3b/1x1"
  top: "inception_3b/1x1"
}
layer {
  name: "inception_3b/3x3_reduce"
  type: "Convolution"
  bottom: "inception_3a/output"
  top: "inception_3b/3x3_reduce"
  param {
    lr_mult: 1
    decay_mult: 1
  }
  param {
    lr_mult: 2
    decay_mult: 0
  }
  convolution_param {
    num_output: 128
    kernel_size: 1
    weight_filler {
      type: "xavier"
      std: 0.09
    }
    bias_filler {
      type: "constant"
      value: 0.2
    }
  }
}
layer {
  name: "inception_3b/relu_3x3_reduce"
  type: "ReLU"
  bottom: "inception_3b/3x3_reduce"
  top: "inception_3b/3x3_reduce"
}
layer {
  name: "inception_3b/3x3"
  type: "Convolution"
  bottom: "inception_3b/3x3_reduce"
  top: "inception_3b/3x3"
  param {
    lr_mult: 1
    decay_mult: 1
  }
  param {
    lr_mult: 2
    decay_mult: 0
  }
  convolution_param {
    num_output: 192
    pad: 1
    kernel_size: 3
    weight_filler {
      type: "xavier"
      std: 0.03
    }
    bias_filler {
      type: "constant"
      value: 0.2
    }
  }
}
layer {
  name: "inception_3b/relu_3x3"
  type: "ReLU"
  bottom: "inception_3b/3x3"
  top: "inception_3b/3x3"
}
layer {
  name: "inception_3b/5x5_reduce"
  type: "Convolution"
  bottom: "inception_3a/output"
  top: "inception_3b/5x5_reduce"
  param {
    lr_mult: 1
    decay_mult: 1
  }
  param {
    lr_mult: 2
    decay_mult: 0
  }
  convolution_param {
    num_output: 32
    kernel_size: 1
    weight_filler {
      type: "xavier"
      std: 0.2
    }
    bias_filler {
      type: "constant"
      value: 0.2
    }
  }
}
layer {
  name: "inception_3b/relu_5x5_reduce"
  type: "ReLU"
  bottom: "inception_3b/5x5_reduce"
  top: "inception_3b/5x5_reduce"
}
layer {
  name: "inception_3b/5x5"
  type: "Convolution"
  bottom: "inception_3b/5x5_reduce"
  top: "inception_3b/5x5"
  param {
    lr_mult: 1
    decay_mult: 1
  }
  param {
    lr_mult: 2
    decay_mult: 0
  }
  convolution_param {
    num_output: 96
    pad: 2
    kernel_size: 5
    weight_filler {
      type: "xavier"
      std: 0.03
    }
    bias_filler {
      type: "constant"
      value: 0.2
    }
  }
}
layer {
  name: "inception_3b/relu_5x5"
  type: "ReLU"
  bottom: "inception_3b/5x5"
  top: "inception_3b/5x5"
}
layer {
  name: "inception_3b/pool"
  type: "Pooling"
  bottom: "inception_3a/output"
  top: "inception_3b/pool"
  pooling_param {
    pool: MAX
    kernel_size: 3
    stride: 1
    pad: 1
  }
}
layer {
  name: "inception_3b/pool_proj"
  type: "Convolution"
  bottom: "inception_3b/pool"
  top: "inception_3b/pool_proj"
  param {
    lr_mult: 1
    decay_mult: 1
  }
  param {
    lr_mult: 2
    decay_mult: 0
  }
  convolution_param {
    num_output: 64
    kernel_size: 1
    weight_filler {
      type: "xavier"
      std: 0.1
    }
    bias_filler {
      type: "constant"
      value: 0.2
    }
  }
}
layer {
  name: "inception_3b/relu_pool_proj"
  type: "ReLU"
  bottom: "inception_3b/pool_proj"
  top: "inception_3b/pool_proj"
}
layer {
  name: "inception_3b/output"
  type: "Concat"
  bottom: "inception_3b/1x1"
  bottom: "inception_3b/3x3"
  bottom: "inception_3b/5x5"
  bottom: "inception_3b/pool_proj"
  top: "inception_3b/output"
}
layer {
  name: "pool3/3x3_s2"
  type: "Pooling"
  bottom: "inception_3b/output"
  top: "pool3/3x3_s2"
  pooling_param {
    pool: MAX
    kernel_size: 3
    stride: 2
  }
}
layer {
  name: "inception_4a/1x1"
  type: "Convolution"
  bottom: "pool3/3x3_s2"
  top: "inception_4a/1x1"
  param {
    lr_mult: 1
    decay_mult: 1
  }
  param {
    lr_mult: 2
    decay_mult: 0
  }
  convolution_param {
    num_output: 192
    kernel_size: 1
    weight_filler {
      type: "xavier"
      std: 0.03
    }
    bias_filler {
      type: "constant"
      value: 0.2
    }
  }
}
layer {
  name: "inception_4a/relu_1x1"
  type: "ReLU"
  bottom: "inception_4a/1x1"
  top: "inception_4a/1x1"
}
layer {
  name: "inception_4a/3x3_reduce"
  type: "Convolution"
  bottom: "pool3/3x3_s2"
  top: "inception_4a/3x3_reduce"
  param {
    lr_mult: 1
    decay_mult: 1
  }
  param {
    lr_mult: 2
    decay_mult: 0
  }
  convolution_param {
    num_output: 96
    kernel_size: 1
    weight_filler {
      type: "xavier"
      std: 0.09
    }
    bias_filler {
      type: "constant"
      value: 0.2
    }
  }
}
layer {
  name: "inception_4a/relu_3x3_reduce"
  type: "ReLU"
  bottom: "inception_4a/3x3_reduce"
  top: "inception_4a/3x3_reduce"
}
layer {
  name: "inception_4a/3x3"
  type: "Convolution"
  bottom: "inception_4a/3x3_reduce"
  top: "inception_4a/3x3"
  param {
    lr_mult: 1
    decay_mult: 1
  }
  param {
    lr_mult: 2
    decay_mult: 0
  }
  convolution_param {
    num_output: 208
    pad: 1
    kernel_size: 3
    weight_filler {
      type: "xavier"
      std: 0.03
    }
    bias_filler {
      type: "constant"
      value: 0.2
    }
  }
}
layer {
  name: "inception_4a/relu_3x3"
  type: "ReLU"
  bottom: "inception_4a/3x3"
  top: "inception_4a/3x3"
}
layer {
  name: "inception_4a/5x5_reduce"
  type: "Convolution"
  bottom: "pool3/3x3_s2"
  top: "inception_4a/5x5_reduce"
  param {
    lr_mult: 1
    decay_mult: 1
  }
  param {
    lr_mult: 2
    decay_mult: 0
  }
  convolution_param {
    num_output: 16
    kernel_size: 1
    weight_filler {
      type: "xavier"
      std: 0.2
    }
    bias_filler {
      type: "constant"
      value: 0.2
    }
  }
}
layer {
  name: "inception_4a/relu_5x5_reduce"
  type: "ReLU"
  bottom: "inception_4a/5x5_reduce"
  top: "inception_4a/5x5_reduce"
}
layer {
  name: "inception_4a/5x5"
  type: "Convolution"
  bottom: "inception_4a/5x5_reduce"
  top: "inception_4a/5x5"
  param {
    lr_mult: 1
    decay_mult: 1
  }
  param {
    lr_mult: 2
    decay_mult: 0
  }
  convolution_param {
    num_output: 48
    pad: 2
    kernel_size: 5
    weight_filler {
      type: "xavier"
      std: 0.03
    }
    bias_filler {
      type: "constant"
      value: 0.2
    }
  }
}
layer {
  name: "inception_4a/relu_5x5"
  type: "ReLU"
  bottom: "inception_4a/5x5"
  top: "inception_4a/5x5"
}
layer {
  name: "inception_4a/pool"
  type: "Pooling"
  bottom: "pool3/3x3_s2"
  top: "inception_4a/pool"
  pooling_param {
    pool: MAX
    kernel_size: 3
    stride: 1
    pad: 1
  }
}
layer {
  name: "inception_4a/pool_proj"
  type: "Convolution"
  bottom: "inception_4a/pool"
  top: "inception_4a/pool_proj"
  param {
    lr_mult: 1
    decay_mult: 1
  }
  param {
    lr_mult: 2
    decay_mult: 0
  }
  convolution_param {
    num_output: 64
    kernel_size: 1
    weight_filler {
      type: "xavier"
      std: 0.1
    }
    bias_filler {
      type: "constant"
      value: 0.2
    }
  }
}
layer {
  name: "inception_4a/relu_pool_proj"
  type: "ReLU"
  bottom: "inception_4a/pool_proj"
  top: "inception_4a/pool_proj"
}
layer {
  name: "inception_4a/output"
  type: "Concat"
  bottom: "inception_4a/1x1"
  bottom: "inception_4a/3x3"
  bottom: "inception_4a/5x5"
  bottom: "inception_4a/pool_proj"
  top: "inception_4a/output"
}
layer {
  name: "loss1/ave_pool"
  type: "Pooling"
  bottom: "inception_4a/output"
  top: "loss1/ave_pool"
  pooling_param {
    pool: AVE
    kernel_size: 5
    stride: 3
  }
}
layer {
  name: "loss1/conv"
  type: "Convolution"
  bottom: "loss1/ave_pool"
  top: "loss1/conv"
  param {
    lr_mult: 1
    decay_mult: 1
  }
  param {
    lr_mult: 2
    decay_mult: 0
  }
  convolution_param {
    num_output: 128
    kernel_size: 1
    weight_filler {
      type: "xavier"
      std: 0.08
    }
    bias_filler {
      type: "constant"
      value: 0.2
    }
  }
}
layer {
  name: "loss1/relu_conv"
  type: "ReLU"
  bottom: "loss1/conv"
  top: "loss1/conv"
}
layer {
  name: "loss1/fc"
  type: "InnerProduct"
  bottom: "loss1/conv"
  top: "loss1/fc"
  param {
    lr_mult: 1
    decay_mult: 1
  }
  param {
    lr_mult: 2
    decay_mult: 0
  }
  inner_product_param {
    num_output: 1024
    weight_filler {
      type: "xavier"
      std: 0.02
    }
    bias_filler {
      type: "constant"
      value: 0.2
    }
  }
}
layer {
  name: "loss1/relu_fc"
  type: "ReLU"
  bottom: "loss1/fc"
  top: "loss1/fc"
}
layer {
  name: "loss1/drop_fc"
  type: "Dropout"
  bottom: "loss1/fc"
  top: "loss1/fc"
  dropout_param {
    dropout_ratio: 0.7
  }
}
layer {
  name: "loss1/classifier_plantvillage"
  type: "InnerProduct"
  bottom: "loss1/fc"
  top: "loss1/classifier_plantvillage"
  param {
    lr_mult: 1
    decay_mult: 1
  }
  param {
    lr_mult: 2
    decay_mult: 0
  }
  inner_product_param {
    num_output: 38
    weight_filler {
      type: "xavier"
      std: 0.0009765625
    }
    bias_filler {
      type: "constant"
      value: 0
    }
  }
}
layer {
  name: "inception_4b/1x1"
  type: "Convolution"
  bottom: "inception_4a/output"
  top: "inception_4b/1x1"
  param {
    lr_mult: 1
    decay_mult: 1
  }
  param {
    lr_mult: 2
    decay_mult: 0
  }
  convolution_param {
    num_output: 160
    kernel_size: 1
    weight_filler {
      type: "xavier"
      std: 0.03
    }
    bias_filler {
      type: "constant"
      value: 0.2
    }
  }
}
layer {
  name: "inception_4b/relu_1x1"
  type: "ReLU"
  bottom: "inception_4b/1x1"
  top: "inception_4b/1x1"
}
layer {
  name: "inception_4b/3x3_reduce"
  type: "Convolution"
  bottom: "inception_4a/output"
  top: "inception_4b/3x3_reduce"
  param {
    lr_mult: 1
    decay_mult: 1
  }
  param {
    lr_mult: 2
    decay_mult: 0
  }
  convolution_param {
    num_output: 112
    kernel_size: 1
    weight_filler {
      type: "xavier"
      std: 0.09
    }
    bias_filler {
      type: "constant"
      value: 0.2
    }
  }
}
layer {
  name: "inception_4b/relu_3x3_reduce"
  type: "ReLU"
  bottom: "inception_4b/3x3_reduce"
  top: "inception_4b/3x3_reduce"
}
layer {
  name: "inception_4b/3x3"
  type: "Convolution"
  bottom: "inception_4b/3x3_reduce"
  top: "inception_4b/3x3"
  param {
    lr_mult: 1
    decay_mult: 1
  }
  param {
    lr_mult: 2
    decay_mult: 0
  }
  convolution_param {
    num_output: 224
    pad: 1
    kernel_size: 3
    weight_filler {
      type: "xavier"
      std: 0.03
    }
    bias_filler {
      type: "constant"
      value: 0.2
    }
  }
}
layer {
  name: "inception_4b/relu_3x3"
  type: "ReLU"
  bottom: "inception_4b/3x3"
  top: "inception_4b/3x3"
}
layer {
  name: "inception_4b/5x5_reduce"
  type: "Convolution"
  bottom: "inception_4a/output"
  top: "inception_4b/5x5_reduce"
  param {
    lr_mult: 1
    decay_mult: 1
  }
  param {
    lr_mult: 2
    decay_mult: 0
  }
  convolution_param {
    num_output: 24
    kernel_size: 1
    weight_filler {
      type: "xavier"
      std: 0.2
    }
    bias_filler {
      type: "constant"
      value: 0.2
    }
  }
}
layer {
  name: "inception_4b/relu_5x5_reduce"
  type: "ReLU"
  bottom: "inception_4b/5x5_reduce"
  top: "inception_4b/5x5_reduce"
}
layer {
  name: "inception_4b/5x5"
  type: "Convolution"
  bottom: "inception_4b/5x5_reduce"
  top: "inception_4b/5x5"
  param {
    lr_mult: 1
    decay_mult: 1
  }
  param {
    lr_mult: 2
    decay_mult: 0
  }
  convolution_param {
    num_output: 64
    pad: 2
    kernel_size: 5
    weight_filler {
      type: "xavier"
      std: 0.03
    }
    bias_filler {
      type: "constant"
      value: 0.2
    }
  }
}
layer {
  name: "inception_4b/relu_5x5"
  type: "ReLU"
  bottom: "inception_4b/5x5"
  top: "inception_4b/5x5"
}
layer {
  name: "inception_4b/pool"
  type: "Pooling"
  bottom: "inception_4a/output"
  top: "inception_4b/pool"
  pooling_param {
    pool: MAX
    kernel_size: 3
    stride: 1
    pad: 1
  }
}
layer {
  name: "inception_4b/pool_proj"
  type: "Convolution"
  bottom: "inception_4b/pool"
  top: "inception_4b/pool_proj"
  param {
    lr_mult: 1
    decay_mult: 1
  }
  param {
    lr_mult: 2
    decay_mult: 0
  }
  convolution_param {
    num_output: 64
    kernel_size: 1
    weight_filler {
      type: "xavier"
      std: 0.1
    }
    bias_filler {
      type: "constant"
      value: 0.2
    }
  }
}
layer {
  name: "inception_4b/relu_pool_proj"
  type: "ReLU"
  bottom: "inception_4b/pool_proj"
  top: "inception_4b/pool_proj"
}
layer {
  name: "inception_4b/output"
  type: "Concat"
  bottom: "inception_4b/1x1"
  bottom: "inception_4b/3x3"
  bottom: "inception_4b/5x5"
  bottom: "inception_4b/pool_proj"
  top: "inception_4b/output"
}
layer {
  name: "inception_4c/1x1"
  type: "Convolution"
  bottom: "inception_4b/output"
  top: "inception_4c/1x1"
  param {
    lr_mult: 1
    decay_mult: 1
  }
  param {
    lr_mult: 2
    decay_mult: 0
  }
  convolution_param {
    num_output: 128
    kernel_size: 1
    weight_filler {
      type: "xavier"
      std: 0.03
    }
    bias_filler {
      type: "constant"
      value: 0.2
    }
  }
}
layer {
  name: "inception_4c/relu_1x1"
  type: "ReLU"
  bottom: "inception_4c/1x1"
  top: "inception_4c/1x1"
}
layer {
  name: "inception_4c/3x3_reduce"
  type: "Convolution"
  bottom: "inception_4b/output"
  top: "inception_4c/3x3_reduce"
  param {
    lr_mult: 1
    decay_mult: 1
  }
  param {
    lr_mult: 2
    decay_mult: 0
  }
  convolution_param {
    num_output: 128
    kernel_size: 1
    weight_filler {
      type: "xavier"
      std: 0.09
    }
    bias_filler {
      type: "constant"
      value: 0.2
    }
  }
}
layer {
  name: "inception_4c/relu_3x3_reduce"
  type: "ReLU"
  bottom: "inception_4c/3x3_reduce"
  top: "inception_4c/3x3_reduce"
}
layer {
  name: "inception_4c/3x3"
  type: "Convolution"
  bottom: "inception_4c/3x3_reduce"
  top: "inception_4c/3x3"
  param {
    lr_mult: 1
    decay_mult: 1
  }
  param {
    lr_mult: 2
    decay_mult: 0
  }
  convolution_param {
    num_output: 256
    pad: 1
    kernel_size: 3
    weight_filler {
      type: "xavier"
      std: 0.03
    }
    bias_filler {
      type: "constant"
      value: 0.2
    }
  }
}
layer {
  name: "inception_4c/relu_3x3"
  type: "ReLU"
  bottom: "inception_4c/3x3"
  top: "inception_4c/3x3"
}
layer {
  name: "inception_4c/5x5_reduce"
  type: "Convolution"
  bottom: "inception_4b/output"
  top: "inception_4c/5x5_reduce"
  param {
    lr_mult: 1
    decay_mult: 1
  }
  param {
    lr_mult: 2
    decay_mult: 0
  }
  convolution_param {
    num_output: 24
    kernel_size: 1
    weight_filler {
      type: "xavier"
      std: 0.2
    }
    bias_filler {
      type: "constant"
      value: 0.2
    }
  }
}
layer {
  name: "inception_4c/relu_5x5_reduce"
  type: "ReLU"
  bottom: "inception_4c/5x5_reduce"
  top: "inception_4c/5x5_reduce"
}
layer {
  name: "inception_4c/5x5"
  type: "Convolution"
  bottom: "inception_4c/5x5_reduce"
  top: "inception_4c/5x5"
  param {
    lr_mult: 1
    decay_mult: 1
  }
  param {
    lr_mult: 2
    decay_mult: 0
  }
  convolution_param {
    num_output: 64
    pad: 2
    kernel_size: 5
    weight_filler {
      type: "xavier"
      std: 0.03
    }
    bias_filler {
      type: "constant"
      value: 0.2
    }
  }
}
layer {
  name: "inception_4c/relu_5x5"
  type: "ReLU"
  bottom: "inception_4c/5x5"
  top: "inception_4c/5x5"
}
layer {
  name: "inception_4c/pool"
  type: "Pooling"
  bottom: "inception_4b/output"
  top: "inception_4c/pool"
  pooling_param {
    pool: MAX
    kernel_size: 3
    stride: 1
    pad: 1
  }
}
layer {
  name: "inception_4c/pool_proj"
  type: "Convolution"
  bottom: "inception_4c/pool"
  top: "inception_4c/pool_proj"
  param {
    lr_mult: 1
    decay_mult: 1
  }
  param {
    lr_mult: 2
    decay_mult: 0
  }
  convolution_param {
    num_output: 64
    kernel_size: 1
    weight_filler {
      type: "xavier"
      std: 0.1
    }
    bias_filler {
      type: "constant"
      value: 0.2
    }
  }
}
layer {
  name: "inception_4c/relu_pool_proj"
  type: "ReLU"
  bottom: "inception_4c/pool_proj"
  top: "inception_4c/pool_proj"
}
layer {
  name: "inception_4c/output"
  type: "Concat"
  bottom: "inception_4c/1x1"
  bottom: "inception_4c/3x3"
  bottom: "inception_4c/5x5"
  bottom: "inception_4c/pool_proj"
  top: "inception_4c/output"
}
layer {
  name: "inception_4d/1x1"
  type: "Convolution"
  bottom: "inception_4c/output"
  top: "inception_4d/1x1"
  param {
    lr_mult: 1
    decay_mult: 1
  }
  param {
    lr_mult: 2
    decay_mult: 0
  }
  convolution_param {
    num_output: 112
    kernel_size: 1
    weight_filler {
      type: "xavier"
      std: 0.03
    }
    bias_filler {
      type: "constant"
      value: 0.2
    }
  }
}
layer {
  name: "inception_4d/relu_1x1"
  type: "ReLU"
  bottom: "inception_4d/1x1"
  top: "inception_4d/1x1"
}
layer {
  name: "inception_4d/3x3_reduce"
  type: "Convolution"
  bottom: "inception_4c/output"
  top: "inception_4d/3x3_reduce"
  param {
    lr_mult: 1
    decay_mult: 1
  }
  param {
    lr_mult: 2
    decay_mult: 0
  }
  convolution_param {
    num_output: 144
    kernel_size: 1
    weight_filler {
      type: "xavier"
      std: 0.09
    }
    bias_filler {
      type: "constant"
      value: 0.2
    }
  }
}
layer {
  name: "inception_4d/relu_3x3_reduce"
  type: "ReLU"
  bottom: "inception_4d/3x3_reduce"
  top: "inception_4d/3x3_reduce"
}
layer {
  name: "inception_4d/3x3"
  type: "Convolution"
  bottom: "inception_4d/3x3_reduce"
  top: "inception_4d/3x3"
  param {
    lr_mult: 1
    decay_mult: 1
  }
  param {
    lr_mult: 2
    decay_mult: 0
  }
  convolution_param {
    num_output: 288
    pad: 1
    kernel_size: 3
    weight_filler {
      type: "xavier"
      std: 0.03
    }
    bias_filler {
      type: "constant"
      value: 0.2
    }
  }
}
layer {
  name: "inception_4d/relu_3x3"
  type: "ReLU"
  bottom: "inception_4d/3x3"
  top: "inception_4d/3x3"
}
layer {
  name: "inception_4d/5x5_reduce"
  type: "Convolution"
  bottom: "inception_4c/output"
  top: "inception_4d/5x5_reduce"
  param {
    lr_mult: 1
    decay_mult: 1
  }
  param {
    lr_mult: 2
    decay_mult: 0
  }
  convolution_param {
    num_output: 32
    kernel_size: 1
    weight_filler {
      type: "xavier"
      std: 0.2
    }
    bias_filler {
      type: "constant"
      value: 0.2
    }
  }
}
layer {
  name: "inception_4d/relu_5x5_reduce"
  type: "ReLU"
  bottom: "inception_4d/5x5_reduce"
  top: "inception_4d/5x5_reduce"
}
layer {
  name: "inception_4d/5x5"
  type: "Convolution"
  bottom: "inception_4d/5x5_reduce"
  top: "inception_4d/5x5"
  param {
    lr_mult: 1
    decay_mult: 1
  }
  param {
    lr_mult: 2
    decay_mult: 0
  }
  convolution_param {
    num_output: 64
    pad: 2
    kernel_size: 5
    weight_filler {
      type: "xavier"
      std: 0.03
    }
    bias_filler {
      type: "constant"
      value: 0.2
    }
  }
}
layer {
  name: "inception_4d/relu_5x5"
  type: "ReLU"
  bottom: "inception_4d/5x5"
  top: "inception_4d/5x5"
}
layer {
  name: "inception_4d/pool"
  type: "Pooling"
  bottom: "inception_4c/output"
  top: "inception_4d/pool"
  pooling_param {
    pool: MAX
    kernel_size: 3
    stride: 1
    pad: 1
  }
}
layer {
  name: "inception_4d/pool_proj"
  type: "Convolution"
  bottom: "inception_4d/pool"
  top: "inception_4d/pool_proj"
  param {
    lr_mult: 1
    decay_mult: 1
  }
  param {
    lr_mult: 2
    decay_mult: 0
  }
  convolution_param {
    num_output: 64
    kernel_size: 1
    weight_filler {
      type: "xavier"
      std: 0.1
    }
    bias_filler {
      type: "constant"
      value: 0.2
    }
  }
}
layer {
  name: "inception_4d/relu_pool_proj"
  type: "ReLU"
  bottom: "inception_4d/pool_proj"
  top: "inception_4d/pool_proj"
}
layer {
  name: "inception_4d/output"
  type: "Concat"
  bottom: "inception_4d/1x1"
  bottom: "inception_4d/3x3"
  bottom: "inception_4d/5x5"
  bottom: "inception_4d/pool_proj"
  top: "inception_4d/output"
}
layer {
  name: "loss2/ave_pool"
  type: "Pooling"
  bottom: "inception_4d/output"
  top: "loss2/ave_pool"
  pooling_param {
    pool: AVE
    kernel_size: 5
    stride: 3
  }
}
layer {
  name: "loss2/conv"
  type: "Convolution"
  bottom: "loss2/ave_pool"
  top: "loss2/conv"
  param {
    lr_mult: 1
    decay_mult: 1
  }
  param {
    lr_mult: 2
    decay_mult: 0
  }
  convolution_param {
    num_output: 128
    kernel_size: 1
    weight_filler {
      type: "xavier"
      std: 0.08
    }
    bias_filler {
      type: "constant"
      value: 0.2
    }
  }
}
layer {
  name: "loss2/relu_conv"
  type: "ReLU"
  bottom: "loss2/conv"
  top: "loss2/conv"
}
layer {
  name: "loss2/fc"
  type: "InnerProduct"
  bottom: "loss2/conv"
  top: "loss2/fc"
  param {
    lr_mult: 1
    decay_mult: 1
  }
  param {
    lr_mult: 2
    decay_mult: 0
  }
  inner_product_param {
    num_output: 1024
    weight_filler {
      type: "xavier"
      std: 0.02
    }
    bias_filler {
      type: "constant"
      value: 0.2
    }
  }
}
layer {
  name: "loss2/relu_fc"
  type: "ReLU"
  bottom: "loss2/fc"
  top: "loss2/fc"
}
layer {
  name: "loss2/drop_fc"
  type: "Dropout"
  bottom: "loss2/fc"
  top: "loss2/fc"
  dropout_param {
    dropout_ratio: 0.7
  }
}
layer {
  name: "loss2/classifier_plantvillage"
  type: "InnerProduct"
  bottom: "loss2/fc"
  top: "loss2/classifier_plantvillage"
  param {
    lr_mult: 1
    decay_mult: 1
  }
  param {
    lr_mult: 2
    decay_mult: 0
  }
  inner_product_param {
    num_output: 38
    weight_filler {
      type: "xavier"
      std: 0.0009765625
    }
    bias_filler {
      type: "constant"
      value: 0
    }
  }
}
layer {
  name: "inception_4e/1x1"
  type: "Convolution"
  bottom: "inception_4d/output"
  top: "inception_4e/1x1"
  param {
    lr_mult: 1
    decay_mult: 1
  }
  param {
    lr_mult: 2
    decay_mult: 0
  }
  convolution_param {
    num_output: 256
    kernel_size: 1
    weight_filler {
      type: "xavier"
      std: 0.03
    }
    bias_filler {
      type: "constant"
      value: 0.2
    }
  }
}
layer {
  name: "inception_4e/relu_1x1"
  type: "ReLU"
  bottom: "inception_4e/1x1"
  top: "inception_4e/1x1"
}
layer {
  name: "inception_4e/3x3_reduce"
  type: "Convolution"
  bottom: "inception_4d/output"
  top: "inception_4e/3x3_reduce"
  param {
    lr_mult: 1
    decay_mult: 1
  }
  param {
    lr_mult: 2
    decay_mult: 0
  }
  convolution_param {
    num_output: 160
    kernel_size: 1
    weight_filler {
      type: "xavier"
      std: 0.09
    }
    bias_filler {
      type: "constant"
      value: 0.2
    }
  }
}
layer {
  name: "inception_4e/relu_3x3_reduce"
  type: "ReLU"
  bottom: "inception_4e/3x3_reduce"
  top: "inception_4e/3x3_reduce"
}
layer {
  name: "inception_4e/3x3"
  type: "Convolution"
  bottom: "inception_4e/3x3_reduce"
  top: "inception_4e/3x3"
  param {
    lr_mult: 1
    decay_mult: 1
  }
  param {
    lr_mult: 2
    decay_mult: 0
  }
  convolution_param {
    num_output: 320
    pad: 1
    kernel_size: 3
    weight_filler {
      type: "xavier"
      std: 0.03
    }
    bias_filler {
      type: "constant"
      value: 0.2
    }
  }
}
layer {
  name: "inception_4e/relu_3x3"
  type: "ReLU"
  bottom: "inception_4e/3x3"
  top: "inception_4e/3x3"
}
layer {
  name: "inception_4e/5x5_reduce"
  type: "Convolution"
  bottom: "inception_4d/output"
  top: "inception_4e/5x5_reduce"
  param {
    lr_mult: 1
    decay_mult: 1
  }
  param {
    lr_mult: 2
    decay_mult: 0
  }
  convolution_param {
    num_output: 32
    kernel_size: 1
    weight_filler {
      type: "xavier"
      std: 0.2
    }
    bias_filler {
      type: "constant"
      value: 0.2
    }
  }
}
layer {
  name: "inception_4e/relu_5x5_reduce"
  type: "ReLU"
  bottom: "inception_4e/5x5_reduce"
  top: "inception_4e/5x5_reduce"
}
layer {
  name: "inception_4e/5x5"
  type: "Convolution"
  bottom: "inception_4e/5x5_reduce"
  top: "inception_4e/
I0403 15:26:54.289522  3099 layer_factory.hpp:77] Creating layer data
I0403 15:26:54.290107  3099 net.cpp:91] Creating Layer data
I0403 15:26:54.290138  3099 net.cpp:399] data -> data
I0403 15:26:54.290187  3099 net.cpp:399] data -> label
I0403 15:26:54.290226  3099 data_transformer.cpp:25] Loading mean file from: /home/mohanty/data/final_dataset/lmdb/segmented-60-40/mean.binaryproto
I0403 15:26:54.292695  3102 db_lmdb.cpp:38] Opened lmdb /home/mohanty/data/final_dataset/lmdb/segmented-60-40/test_db
I0403 15:26:54.302799  3099 data_layer.cpp:41] output data size: 24,3,224,224
I0403 15:26:54.329514  3099 net.cpp:141] Setting up data
I0403 15:26:54.329568  3099 net.cpp:148] Top shape: 24 3 224 224 (3612672)
I0403 15:26:54.329592  3099 net.cpp:148] Top shape: 24 (24)
I0403 15:26:54.329608  3099 net.cpp:156] Memory required for data: 14450784
I0403 15:26:54.329637  3099 layer_factory.hpp:77] Creating layer label_data_1_split
I0403 15:26:54.329663  3099 net.cpp:91] Creating Layer label_data_1_split
I0403 15:26:54.329684  3099 net.cpp:425] label_data_1_split <- label
I0403 15:26:54.329715  3099 net.cpp:399] label_data_1_split -> label_data_1_split_0
I0403 15:26:54.329752  3099 net.cpp:399] label_data_1_split -> label_data_1_split_1
I0403 15:26:54.329776  3099 net.cpp:399] label_data_1_split -> label_data_1_split_2
I0403 15:26:54.329797  3099 net.cpp:399] label_data_1_split -> label_data_1_split_3
I0403 15:26:54.329818  3099 net.cpp:399] label_data_1_split -> label_data_1_split_4
I0403 15:26:54.329838  3099 net.cpp:399] label_data_1_split -> label_data_1_split_5
I0403 15:26:54.329859  3099 net.cpp:399] label_data_1_split -> label_data_1_split_6
I0403 15:26:54.329880  3099 net.cpp:399] label_data_1_split -> label_data_1_split_7
I0403 15:26:54.329900  3099 net.cpp:399] label_data_1_split -> label_data_1_split_8
I0403 15:26:54.329921  3099 net.cpp:399] label_data_1_split -> label_data_1_split_9
I0403 15:26:54.330039  3099 net.cpp:141] Setting up label_data_1_split
I0403 15:26:54.330062  3099 net.cpp:148] Top shape: 24 (24)
I0403 15:26:54.330080  3099 net.cpp:148] Top shape: 24 (24)
I0403 15:26:54.330096  3099 net.cpp:148] Top shape: 24 (24)
I0403 15:26:54.330112  3099 net.cpp:148] Top shape: 24 (24)
I0403 15:26:54.330128  3099 net.cpp:148] Top shape: 24 (24)
I0403 15:26:54.330144  3099 net.cpp:148] Top shape: 24 (24)
I0403 15:26:54.330160  3099 net.cpp:148] Top shape: 24 (24)
I0403 15:26:54.330176  3099 net.cpp:148] Top shape: 24 (24)
I0403 15:26:54.330193  3099 net.cpp:148] Top shape: 24 (24)
I0403 15:26:54.330212  3099 net.cpp:148] Top shape: 24 (24)
I0403 15:26:54.330260  3099 net.cpp:156] Memory required for data: 14451744
I0403 15:26:54.330276  3099 layer_factory.hpp:77] Creating layer conv1/7x7_s2
I0403 15:26:54.330307  3099 net.cpp:91] Creating Layer conv1/7x7_s2
I0403 15:26:54.330327  3099 net.cpp:425] conv1/7x7_s2 <- data
I0403 15:26:54.330348  3099 net.cpp:399] conv1/7x7_s2 -> conv1/7x7_s2
I0403 15:26:54.466166  3099 net.cpp:141] Setting up conv1/7x7_s2
I0403 15:26:54.466275  3099 net.cpp:148] Top shape: 24 64 112 112 (19267584)
I0403 15:26:54.466296  3099 net.cpp:156] Memory required for data: 91522080
I0403 15:26:54.466330  3099 layer_factory.hpp:77] Creating layer conv1/relu_7x7
I0403 15:26:54.466361  3099 net.cpp:91] Creating Layer conv1/relu_7x7
I0403 15:26:54.466380  3099 net.cpp:425] conv1/relu_7x7 <- conv1/7x7_s2
I0403 15:26:54.466400  3099 net.cpp:386] conv1/relu_7x7 -> conv1/7x7_s2 (in-place)
I0403 15:26:54.466660  3099 net.cpp:141] Setting up conv1/relu_7x7
I0403 15:26:54.466689  3099 net.cpp:148] Top shape: 24 64 112 112 (19267584)
I0403 15:26:54.466706  3099 net.cpp:156] Memory required for data: 168592416
I0403 15:26:54.466722  3099 layer_factory.hpp:77] Creating layer pool1/3x3_s2
I0403 15:26:54.466761  3099 net.cpp:91] Creating Layer pool1/3x3_s2
I0403 15:26:54.466780  3099 net.cpp:425] pool1/3x3_s2 <- conv1/7x7_s2
I0403 15:26:54.466800  3099 net.cpp:399] pool1/3x3_s2 -> pool1/3x3_s2
I0403 15:26:54.466872  3099 net.cpp:141] Setting up pool1/3x3_s2
I0403 15:26:54.466898  3099 net.cpp:148] Top shape: 24 64 56 56 (4816896)
I0403 15:26:54.466914  3099 net.cpp:156] Memory required for data: 187860000
I0403 15:26:54.466930  3099 layer_factory.hpp:77] Creating layer pool1/norm1
I0403 15:26:54.466954  3099 net.cpp:91] Creating Layer pool1/norm1
I0403 15:26:54.466972  3099 net.cpp:425] pool1/norm1 <- pool1/3x3_s2
I0403 15:26:54.466991  3099 net.cpp:399] pool1/norm1 -> pool1/norm1
I0403 15:26:54.467275  3099 net.cpp:141] Setting up pool1/norm1
I0403 15:26:54.467303  3099 net.cpp:148] Top shape: 24 64 56 56 (4816896)
I0403 15:26:54.467320  3099 net.cpp:156] Memory required for data: 207127584
I0403 15:26:54.467336  3099 layer_factory.hpp:77] Creating layer conv2/3x3_reduce
I0403 15:26:54.467361  3099 net.cpp:91] Creating Layer conv2/3x3_reduce
I0403 15:26:54.467380  3099 net.cpp:425] conv2/3x3_reduce <- pool1/norm1
I0403 15:26:54.467399  3099 net.cpp:399] conv2/3x3_reduce -> conv2/3x3_reduce
I0403 15:26:54.468734  3099 net.cpp:141] Setting up conv2/3x3_reduce
I0403 15:26:54.468761  3099 net.cpp:148] Top shape: 24 64 56 56 (4816896)
I0403 15:26:54.468776  3099 net.cpp:156] Memory required for data: 226395168
I0403 15:26:54.468796  3099 layer_factory.hpp:77] Creating layer conv2/relu_3x3_reduce
I0403 15:26:54.468814  3099 net.cpp:91] Creating Layer conv2/relu_3x3_reduce
I0403 15:26:54.468829  3099 net.cpp:425] conv2/relu_3x3_reduce <- conv2/3x3_reduce
I0403 15:26:54.468847  3099 net.cpp:386] conv2/relu_3x3_reduce -> conv2/3x3_reduce (in-place)
I0403 15:26:54.469086  3099 net.cpp:141] Setting up conv2/relu_3x3_reduce
I0403 15:26:54.469111  3099 net.cpp:148] Top shape: 24 64 56 56 (4816896)
I0403 15:26:54.469126  3099 net.cpp:156] Memory required for data: 245662752
I0403 15:26:54.469141  3099 layer_factory.hpp:77] Creating layer conv2/3x3
I0403 15:26:54.469161  3099 net.cpp:91] Creating Layer conv2/3x3
I0403 15:26:54.469178  3099 net.cpp:425] conv2/3x3 <- conv2/3x3_reduce
I0403 15:26:54.469197  3099 net.cpp:399] conv2/3x3 -> conv2/3x3
I0403 15:26:54.471369  3099 net.cpp:141] Setting up conv2/3x3
I0403 15:26:54.471400  3099 net.cpp:148] Top shape: 24 192 56 56 (14450688)
I0403 15:26:54.471417  3099 net.cpp:156] Memory required for data: 303465504
I0403 15:26:54.471439  3099 layer_factory.hpp:77] Creating layer conv2/relu_3x3
I0403 15:26:54.471457  3099 net.cpp:91] Creating Layer conv2/relu_3x3
I0403 15:26:54.471472  3099 net.cpp:425] conv2/relu_3x3 <- conv2/3x3
I0403 15:26:54.471488  3099 net.cpp:386] conv2/relu_3x3 -> conv2/3x3 (in-place)
I0403 15:26:54.471642  3099 net.cpp:141] Setting up conv2/relu_3x3
I0403 15:26:54.471667  3099 net.cpp:148] Top shape: 24 192 56 56 (14450688)
I0403 15:26:54.471712  3099 net.cpp:156] Memory required for data: 361268256
I0403 15:26:54.471729  3099 layer_factory.hpp:77] Creating layer conv2/norm2
I0403 15:26:54.471745  3099 net.cpp:91] Creating Layer conv2/norm2
I0403 15:26:54.471761  3099 net.cpp:425] conv2/norm2 <- conv2/3x3
I0403 15:26:54.471778  3099 net.cpp:399] conv2/norm2 -> conv2/norm2
I0403 15:26:54.472054  3099 net.cpp:141] Setting up conv2/norm2
I0403 15:26:54.472079  3099 net.cpp:148] Top shape: 24 192 56 56 (14450688)
I0403 15:26:54.472095  3099 net.cpp:156] Memory required for data: 419071008
I0403 15:26:54.472108  3099 layer_factory.hpp:77] Creating layer pool2/3x3_s2
I0403 15:26:54.472126  3099 net.cpp:91] Creating Layer pool2/3x3_s2
I0403 15:26:54.472141  3099 net.cpp:425] pool2/3x3_s2 <- conv2/norm2
I0403 15:26:54.472159  3099 net.cpp:399] pool2/3x3_s2 -> pool2/3x3_s2
I0403 15:26:54.472206  3099 net.cpp:141] Setting up pool2/3x3_s2
I0403 15:26:54.472241  3099 net.cpp:148] Top shape: 24 192 28 28 (3612672)
I0403 15:26:54.472256  3099 net.cpp:156] Memory required for data: 433521696
I0403 15:26:54.472270  3099 layer_factory.hpp:77] Creating layer pool2/3x3_s2_pool2/3x3_s2_0_split
I0403 15:26:54.472288  3099 net.cpp:91] Creating Layer pool2/3x3_s2_pool2/3x3_s2_0_split
I0403 15:26:54.472303  3099 net.cpp:425] pool2/3x3_s2_pool2/3x3_s2_0_split <- pool2/3x3_s2
I0403 15:26:54.472321  3099 net.cpp:399] pool2/3x3_s2_pool2/3x3_s2_0_split -> pool2/3x3_s2_pool2/3x3_s2_0_split_0
I0403 15:26:54.472338  3099 net.cpp:399] pool2/3x3_s2_pool2/3x3_s2_0_split -> pool2/3x3_s2_pool2/3x3_s2_0_split_1
I0403 15:26:54.472357  3099 net.cpp:399] pool2/3x3_s2_pool2/3x3_s2_0_split -> pool2/3x3_s2_pool2/3x3_s2_0_split_2
I0403 15:26:54.472376  3099 net.cpp:399] pool2/3x3_s2_pool2/3x3_s2_0_split -> pool2/3x3_s2_pool2/3x3_s2_0_split_3
I0403 15:26:54.472436  3099 net.cpp:141] Setting up pool2/3x3_s2_pool2/3x3_s2_0_split
I0403 15:26:54.472458  3099 net.cpp:148] Top shape: 24 192 28 28 (3612672)
I0403 15:26:54.472476  3099 net.cpp:148] Top shape: 24 192 28 28 (3612672)
I0403 15:26:54.472502  3099 net.cpp:148] Top shape: 24 192 28 28 (3612672)
I0403 15:26:54.472527  3099 net.cpp:148] Top shape: 24 192 28 28 (3612672)
I0403 15:26:54.472540  3099 net.cpp:156] Memory required for data: 491324448
I0403 15:26:54.472555  3099 layer_factory.hpp:77] Creating layer inception_3a/1x1
I0403 15:26:54.472575  3099 net.cpp:91] Creating Layer inception_3a/1x1
I0403 15:26:54.472591  3099 net.cpp:425] inception_3a/1x1 <- pool2/3x3_s2_pool2/3x3_s2_0_split_0
I0403 15:26:54.472610  3099 net.cpp:399] inception_3a/1x1 -> inception_3a/1x1
I0403 15:26:54.474115  3099 net.cpp:141] Setting up inception_3a/1x1
I0403 15:26:54.474143  3099 net.cpp:148] Top shape: 24 64 28 28 (1204224)
I0403 15:26:54.474159  3099 net.cpp:156] Memory required for data: 496141344
I0403 15:26:54.474177  3099 layer_factory.hpp:77] Creating layer inception_3a/relu_1x1
I0403 15:26:54.474195  3099 net.cpp:91] Creating Layer inception_3a/relu_1x1
I0403 15:26:54.474215  3099 net.cpp:425] inception_3a/relu_1x1 <- inception_3a/1x1
I0403 15:26:54.474232  3099 net.cpp:386] inception_3a/relu_1x1 -> inception_3a/1x1 (in-place)
I0403 15:26:54.474383  3099 net.cpp:141] Setting up inception_3a/relu_1x1
I0403 15:26:54.474408  3099 net.cpp:148] Top shape: 24 64 28 28 (1204224)
I0403 15:26:54.474423  3099 net.cpp:156] Memory required for data: 500958240
I0403 15:26:54.474437  3099 layer_factory.hpp:77] Creating layer inception_3a/3x3_reduce
I0403 15:26:54.474460  3099 net.cpp:91] Creating Layer inception_3a/3x3_reduce
I0403 15:26:54.474478  3099 net.cpp:425] inception_3a/3x3_reduce <- pool2/3x3_s2_pool2/3x3_s2_0_split_1
I0403 15:26:54.474495  3099 net.cpp:399] inception_3a/3x3_reduce -> inception_3a/3x3_reduce
I0403 15:26:54.476178  3099 net.cpp:141] Setting up inception_3a/3x3_reduce
I0403 15:26:54.476217  3099 net.cpp:148] Top shape: 24 96 28 28 (1806336)
I0403 15:26:54.476234  3099 net.cpp:156] Memory required for data: 508183584
I0403 15:26:54.476255  3099 layer_factory.hpp:77] Creating layer inception_3a/relu_3x3_reduce
I0403 15:26:54.476289  3099 net.cpp:91] Creating Layer inception_3a/relu_3x3_reduce
I0403 15:26:54.476306  3099 net.cpp:425] inception_3a/relu_3x3_reduce <- inception_3a/3x3_reduce
I0403 15:26:54.476326  3099 net.cpp:386] inception_3a/relu_3x3_reduce -> inception_3a/3x3_reduce (in-place)
I0403 15:26:54.476500  3099 net.cpp:141] Setting up inception_3a/relu_3x3_reduce
I0403 15:26:54.476523  3099 net.cpp:148] Top shape: 24 96 28 28 (1806336)
I0403 15:26:54.476538  3099 net.cpp:156] Memory required for data: 515408928
I0403 15:26:54.476552  3099 layer_factory.hpp:77] Creating layer inception_3a/3x3
I0403 15:26:54.476574  3099 net.cpp:91] Creating Layer inception_3a/3x3
I0403 15:26:54.476591  3099 net.cpp:425] inception_3a/3x3 <- inception_3a/3x3_reduce
I0403 15:26:54.476611  3099 net.cpp:399] inception_3a/3x3 -> inception_3a/3x3
I0403 15:26:54.478204  3099 net.cpp:141] Setting up inception_3a/3x3
I0403 15:26:54.478236  3099 net.cpp:148] Top shape: 24 128 28 28 (2408448)
I0403 15:26:54.478252  3099 net.cpp:156] Memory required for data: 525042720
I0403 15:26:54.478271  3099 layer_factory.hpp:77] Creating layer inception_3a/relu_3x3
I0403 15:26:54.478288  3099 net.cpp:91] Creating Layer inception_3a/relu_3x3
I0403 15:26:54.478304  3099 net.cpp:425] inception_3a/relu_3x3 <- inception_3a/3x3
I0403 15:26:54.478323  3099 net.cpp:386] inception_3a/relu_3x3 -> inception_3a/3x3 (in-place)
I0403 15:26:54.478582  3099 net.cpp:141] Setting up inception_3a/relu_3x3
I0403 15:26:54.478610  3099 net.cpp:148] Top shape: 24 128 28 28 (2408448)
I0403 15:26:54.478626  3099 net.cpp:156] Memory required for data: 534676512
I0403 15:26:54.478641  3099 layer_factory.hpp:77] Creating layer inception_3a/5x5_reduce
I0403 15:26:54.478662  3099 net.cpp:91] Creating Layer inception_3a/5x5_reduce
I0403 15:26:54.478679  3099 net.cpp:425] inception_3a/5x5_reduce <- pool2/3x3_s2_pool2/3x3_s2_0_split_2
I0403 15:26:54.478698  3099 net.cpp:399] inception_3a/5x5_reduce -> inception_3a/5x5_reduce
I0403 15:26:54.479624  3099 net.cpp:141] Setting up inception_3a/5x5_reduce
I0403 15:26:54.479652  3099 net.cpp:148] Top shape: 24 16 28 28 (301056)
I0403 15:26:54.479668  3099 net.cpp:156] Memory required for data: 535880736
I0403 15:26:54.479687  3099 layer_factory.hpp:77] Creating layer inception_3a/relu_5x5_reduce
I0403 15:26:54.479704  3099 net.cpp:91] Creating Layer inception_3a/relu_5x5_reduce
I0403 15:26:54.479720  3099 net.cpp:425] inception_3a/relu_5x5_reduce <- inception_3a/5x5_reduce
I0403 15:26:54.479739  3099 net.cpp:386] inception_3a/relu_5x5_reduce -> inception_3a/5x5_reduce (in-place)
I0403 15:26:54.480026  3099 net.cpp:141] Setting up inception_3a/relu_5x5_reduce
I0403 15:26:54.480051  3099 net.cpp:148] Top shape: 24 16 28 28 (301056)
I0403 15:26:54.480065  3099 net.cpp:156] Memory required for data: 537084960
I0403 15:26:54.480080  3099 layer_factory.hpp:77] Creating layer inception_3a/5x5
I0403 15:26:54.480103  3099 net.cpp:91] Creating Layer inception_3a/5x5
I0403 15:26:54.480119  3099 net.cpp:425] inception_3a/5x5 <- inception_3a/5x5_reduce
I0403 15:26:54.480139  3099 net.cpp:399] inception_3a/5x5 -> inception_3a/5x5
I0403 15:26:54.481127  3099 net.cpp:141] Setting up inception_3a/5x5
I0403 15:26:54.481156  3099 net.cpp:148] Top shape: 24 32 28 28 (602112)
I0403 15:26:54.481171  3099 net.cpp:156] Memory required for data: 539493408
I0403 15:26:54.481189  3099 layer_factory.hpp:77] Creating layer inception_3a/relu_5x5
I0403 15:26:54.481207  3099 net.cpp:91] Creating Layer inception_3a/relu_5x5
I0403 15:26:54.481228  3099 net.cpp:425] inception_3a/relu_5x5 <- inception_3a/5x5
I0403 15:26:54.481250  3099 net.cpp:386] inception_3a/relu_5x5 -> inception_3a/5x5 (in-place)
I0403 15:26:54.481415  3099 net.cpp:141] Setting up inception_3a/relu_5x5
I0403 15:26:54.481439  3099 net.cpp:148] Top shape: 24 32 28 28 (602112)
I0403 15:26:54.481453  3099 net.cpp:156] Memory required for data: 541901856
I0403 15:26:54.481469  3099 layer_factory.hpp:77] Creating layer inception_3a/pool
I0403 15:26:54.481487  3099 net.cpp:91] Creating Layer inception_3a/pool
I0403 15:26:54.481515  3099 net.cpp:425] inception_3a/pool <- pool2/3x3_s2_pool2/3x3_s2_0_split_3
I0403 15:26:54.481536  3099 net.cpp:399] inception_3a/pool -> inception_3a/pool
I0403 15:26:54.481592  3099 net.cpp:141] Setting up inception_3a/pool
I0403 15:26:54.481616  3099 net.cpp:148] Top shape: 24 192 28 28 (3612672)
I0403 15:26:54.481628  3099 net.cpp:156] Memory required for data: 556352544
I0403 15:26:54.481642  3099 layer_factory.hpp:77] Creating layer inception_3a/pool_proj
I0403 15:26:54.481665  3099 net.cpp:91] Creating Layer inception_3a/pool_proj
I0403 15:26:54.481683  3099 net.cpp:425] inception_3a/pool_proj <- inception_3a/pool
I0403 15:26:54.481700  3099 net.cpp:399] inception_3a/pool_proj -> inception_3a/pool_proj
I0403 15:26:54.482630  3099 net.cpp:141] Setting up inception_3a/pool_proj
I0403 15:26:54.482656  3099 net.cpp:148] Top shape: 24 32 28 28 (602112)
I0403 15:26:54.482671  3099 net.cpp:156] Memory required for data: 558760992
I0403 15:26:54.482693  3099 layer_factory.hpp:77] Creating layer inception_3a/relu_pool_proj
I0403 15:26:54.482712  3099 net.cpp:91] Creating Layer inception_3a/relu_pool_proj
I0403 15:26:54.482728  3099 net.cpp:425] inception_3a/relu_pool_proj <- inception_3a/pool_proj
I0403 15:26:54.482748  3099 net.cpp:386] inception_3a/relu_pool_proj -> inception_3a/pool_proj (in-place)
I0403 15:26:54.483012  3099 net.cpp:141] Setting up inception_3a/relu_pool_proj
I0403 15:26:54.483039  3099 net.cpp:148] Top shape: 24 32 28 28 (602112)
I0403 15:26:54.483054  3099 net.cpp:156] Memory required for data: 561169440
I0403 15:26:54.483069  3099 layer_factory.hpp:77] Creating layer inception_3a/output
I0403 15:26:54.483086  3099 net.cpp:91] Creating Layer inception_3a/output
I0403 15:26:54.483103  3099 net.cpp:425] inception_3a/output <- inception_3a/1x1
I0403 15:26:54.483119  3099 net.cpp:425] inception_3a/output <- inception_3a/3x3
I0403 15:26:54.483134  3099 net.cpp:425] inception_3a/output <- inception_3a/5x5
I0403 15:26:54.483149  3099 net.cpp:425] inception_3a/output <- inception_3a/pool_proj
I0403 15:26:54.483168  3099 net.cpp:399] inception_3a/output -> inception_3a/output
I0403 15:26:54.483222  3099 net.cpp:141] Setting up inception_3a/output
I0403 15:26:54.483247  3099 net.cpp:148] Top shape: 24 256 28 28 (4816896)
I0403 15:26:54.483261  3099 net.cpp:156] Memory required for data: 580437024
I0403 15:26:54.483275  3099 layer_factory.hpp:77] Creating layer inception_3a/output_inception_3a/output_0_split
I0403 15:26:54.483295  3099 net.cpp:91] Creating Layer inception_3a/output_inception_3a/output_0_split
I0403 15:26:54.483312  3099 net.cpp:425] inception_3a/output_inception_3a/output_0_split <- inception_3a/output
I0403 15:26:54.483330  3099 net.cpp:399] inception_3a/output_inception_3a/output_0_split -> inception_3a/output_inception_3a/output_0_split_0
I0403 15:26:54.483348  3099 net.cpp:399] inception_3a/output_inception_3a/output_0_split -> inception_3a/output_inception_3a/output_0_split_1
I0403 15:26:54.483371  3099 net.cpp:399] inception_3a/output_inception_3a/output_0_split -> inception_3a/output_inception_3a/output_0_split_2
I0403 15:26:54.483392  3099 net.cpp:399] inception_3a/output_inception_3a/output_0_split -> inception_3a/output_inception_3a/output_0_split_3
I0403 15:26:54.483464  3099 net.cpp:141] Setting up inception_3a/output_inception_3a/output_0_split
I0403 15:26:54.483487  3099 net.cpp:148] Top shape: 24 256 28 28 (4816896)
I0403 15:26:54.483505  3099 net.cpp:148] Top shape: 24 256 28 28 (4816896)
I0403 15:26:54.483520  3099 net.cpp:148] Top shape: 24 256 28 28 (4816896)
I0403 15:26:54.483536  3099 net.cpp:148] Top shape: 24 256 28 28 (4816896)
I0403 15:26:54.483549  3099 net.cpp:156] Memory required for data: 657507360
I0403 15:26:54.483563  3099 layer_factory.hpp:77] Creating layer inception_3b/1x1
I0403 15:26:54.483584  3099 net.cpp:91] Creating Layer inception_3b/1x1
I0403 15:26:54.483600  3099 net.cpp:425] inception_3b/1x1 <- inception_3a/output_inception_3a/output_0_split_0
I0403 15:26:54.483619  3099 net.cpp:399] inception_3b/1x1 -> inception_3b/1x1
I0403 15:26:54.484724  3099 net.cpp:141] Setting up inception_3b/1x1
I0403 15:26:54.484762  3099 net.cpp:148] Top shape: 24 128 28 28 (2408448)
I0403 15:26:54.484778  3099 net.cpp:156] Memory required for data: 667141152
I0403 15:26:54.484796  3099 layer_factory.hpp:77] Creating layer inception_3b/relu_1x1
I0403 15:26:54.484815  3099 net.cpp:91] Creating Layer inception_3b/relu_1x1
I0403 15:26:54.484833  3099 net.cpp:425] inception_3b/relu_1x1 <- inception_3b/1x1
I0403 15:26:54.484849  3099 net.cpp:386] inception_3b/relu_1x1 -> inception_3b/1x1 (in-place)
I0403 15:26:54.485019  3099 net.cpp:141] Setting up inception_3b/relu_1x1
I0403 15:26:54.485045  3099 net.cpp:148] Top shape: 24 128 28 28 (2408448)
I0403 15:26:54.485060  3099 net.cpp:156] Memory required for data: 676774944
I0403 15:26:54.485074  3099 layer_factory.hpp:77] Creating layer inception_3b/3x3_reduce
I0403 15:26:54.485096  3099 net.cpp:91] Creating Layer inception_3b/3x3_reduce
I0403 15:26:54.485112  3099 net.cpp:425] inception_3b/3x3_reduce <- inception_3a/output_inception_3a/output_0_split_1
I0403 15:26:54.485131  3099 net.cpp:399] inception_3b/3x3_reduce -> inception_3b/3x3_reduce
I0403 15:26:54.486255  3099 net.cpp:141] Setting up inception_3b/3x3_reduce
I0403 15:26:54.486284  3099 net.cpp:148] Top shape: 24 128 28 28 (2408448)
I0403 15:26:54.486299  3099 net.cpp:156] Memory required for data: 686408736
I0403 15:26:54.486317  3099 layer_factory.hpp:77] Creating layer inception_3b/relu_3x3_reduce
I0403 15:26:54.486338  3099 net.cpp:91] Creating Layer inception_3b/relu_3x3_reduce
I0403 15:26:54.486356  3099 net.cpp:425] inception_3b/relu_3x3_reduce <- inception_3b/3x3_reduce
I0403 15:26:54.486373  3099 net.cpp:386] inception_3b/relu_3x3_reduce -> inception_3b/3x3_reduce (in-place)
I0403 15:26:54.486543  3099 net.cpp:141] Setting up inception_3b/relu_3x3_reduce
I0403 15:26:54.486568  3099 net.cpp:148] Top shape: 24 128 28 28 (2408448)
I0403 15:26:54.486583  3099 net.cpp:156] Memory required for data: 696042528
I0403 15:26:54.486598  3099 layer_factory.hpp:77] Creating layer inception_3b/3x3
I0403 15:26:54.486621  3099 net.cpp:91] Creating Layer inception_3b/3x3
I0403 15:26:54.486639  3099 net.cpp:425] inception_3b/3x3 <- inception_3b/3x3_reduce
I0403 15:26:54.486660  3099 net.cpp:399] inception_3b/3x3 -> inception_3b/3x3
I0403 15:26:54.489496  3099 net.cpp:141] Setting up inception_3b/3x3
I0403 15:26:54.489527  3099 net.cpp:148] Top shape: 24 192 28 28 (3612672)
I0403 15:26:54.489544  3099 net.cpp:156] Memory required for data: 710493216
I0403 15:26:54.489563  3099 layer_factory.hpp:77] Creating layer inception_3b/relu_3x3
I0403 15:26:54.489580  3099 net.cpp:91] Creating Layer inception_3b/relu_3x3
I0403 15:26:54.489595  3099 net.cpp:425] inception_3b/relu_3x3 <- inception_3b/3x3
I0403 15:26:54.489614  3099 net.cpp:386] inception_3b/relu_3x3 -> inception_3b/3x3 (in-place)
I0403 15:26:54.489881  3099 net.cpp:141] Setting up inception_3b/relu_3x3
I0403 15:26:54.489908  3099 net.cpp:148] Top shape: 24 192 28 28 (3612672)
I0403 15:26:54.489923  3099 net.cpp:156] Memory required for data: 724943904
I0403 15:26:54.489938  3099 layer_factory.hpp:77] Creating layer inception_3b/5x5_reduce
I0403 15:26:54.489961  3099 net.cpp:91] Creating Layer inception_3b/5x5_reduce
I0403 15:26:54.489979  3099 net.cpp:425] inception_3b/5x5_reduce <- inception_3a/output_inception_3a/output_0_split_2
I0403 15:26:54.489998  3099 net.cpp:399] inception_3b/5x5_reduce -> inception_3b/5x5_reduce
I0403 15:26:54.490968  3099 net.cpp:141] Setting up inception_3b/5x5_reduce
I0403 15:26:54.490998  3099 net.cpp:148] Top shape: 24 32 28 28 (602112)
I0403 15:26:54.491016  3099 net.cpp:156] Memory required for data: 727352352
I0403 15:26:54.491034  3099 layer_factory.hpp:77] Creating layer inception_3b/relu_5x5_reduce
I0403 15:26:54.491051  3099 net.cpp:91] Creating Layer inception_3b/relu_5x5_reduce
I0403 15:26:54.491066  3099 net.cpp:425] inception_3b/relu_5x5_reduce <- inception_3b/5x5_reduce
I0403 15:26:54.491086  3099 net.cpp:386] inception_3b/relu_5x5_reduce -> inception_3b/5x5_reduce (in-place)
I0403 15:26:54.491297  3099 net.cpp:141] Setting up inception_3b/relu_5x5_reduce
I0403 15:26:54.491323  3099 net.cpp:148] Top shape: 24 32 28 28 (602112)
I0403 15:26:54.491338  3099 net.cpp:156] Memory required for data: 729760800
I0403 15:26:54.491353  3099 layer_factory.hpp:77] Creating layer inception_3b/5x5
I0403 15:26:54.491375  3099 net.cpp:91] Creating Layer inception_3b/5x5
I0403 15:26:54.491392  3099 net.cpp:425] inception_3b/5x5 <- inception_3b/5x5_reduce
I0403 15:26:54.491413  3099 net.cpp:399] inception_3b/5x5 -> inception_3b/5x5
I0403 15:26:54.493387  3099 net.cpp:141] Setting up inception_3b/5x5
I0403 15:26:54.493417  3099 net.cpp:148] Top shape: 24 96 28 28 (1806336)
I0403 15:26:54.493433  3099 net.cpp:156] Memory required for data: 736986144
I0403 15:26:54.493450  3099 layer_factory.hpp:77] Creating layer inception_3b/relu_5x5
I0403 15:26:54.493471  3099 net.cpp:91] Creating Layer inception_3b/relu_5x5
I0403 15:26:54.493489  3099 net.cpp:425] inception_3b/relu_5x5 <- inception_3b/5x5
I0403 15:26:54.493505  3099 net.cpp:386] inception_3b/relu_5x5 -> inception_3b/5x5 (in-place)
I0403 15:26:54.493690  3099 net.cpp:141] Setting up inception_3b/relu_5x5
I0403 15:26:54.493715  3099 net.cpp:148] Top shape: 24 96 28 28 (1806336)
I0403 15:26:54.493728  3099 net.cpp:156] Memory required for data: 744211488
I0403 15:26:54.493742  3099 layer_factory.hpp:77] Creating layer inception_3b/pool
I0403 15:26:54.493760  3099 net.cpp:91] Creating Layer inception_3b/pool
I0403 15:26:54.493775  3099 net.cpp:425] inception_3b/pool <- inception_3a/output_inception_3a/output_0_split_3
I0403 15:26:54.493793  3099 net.cpp:399] inception_3b/pool -> inception_3b/pool
I0403 15:26:54.493846  3099 net.cpp:141] Setting up inception_3b/pool
I0403 15:26:54.493868  3099 net.cpp:148] Top shape: 24 256 28 28 (4816896)
I0403 15:26:54.493882  3099 net.cpp:156] Memory required for data: 763479072
I0403 15:26:54.493897  3099 layer_factory.hpp:77] Creating layer inception_3b/pool_proj
I0403 15:26:54.493919  3099 net.cpp:91] Creating Layer inception_3b/pool_proj
I0403 15:26:54.493938  3099 net.cpp:425] inception_3b/pool_proj <- inception_3b/pool
I0403 15:26:54.493957  3099 net.cpp:399] inception_3b/pool_proj -> inception_3b/pool_proj
I0403 15:26:54.494984  3099 net.cpp:141] Setting up inception_3b/pool_proj
I0403 15:26:54.495010  3099 net.cpp:148] Top shape: 24 64 28 28 (1204224)
I0403 15:26:54.495025  3099 net.cpp:156] Memory required for data: 768295968
I0403 15:26:54.495043  3099 layer_factory.hpp:77] Creating layer inception_3b/relu_pool_proj
I0403 15:26:54.495060  3099 net.cpp:91] Creating Layer inception_3b/relu_pool_proj
I0403 15:26:54.495076  3099 net.cpp:425] inception_3b/relu_pool_proj <- inception_3b/pool_proj
I0403 15:26:54.495095  3099 net.cpp:386] inception_3b/relu_pool_proj -> inception_3b/pool_proj (in-place)
I0403 15:26:54.495482  3099 net.cpp:141] Setting up inception_3b/relu_pool_proj
I0403 15:26:54.495508  3099 net.cpp:148] Top shape: 24 64 28 28 (1204224)
I0403 15:26:54.495522  3099 net.cpp:156] Memory required for data: 773112864
I0403 15:26:54.495537  3099 layer_factory.hpp:77] Creating layer inception_3b/output
I0403 15:26:54.495554  3099 net.cpp:91] Creating Layer inception_3b/output
I0403 15:26:54.495569  3099 net.cpp:425] inception_3b/output <- inception_3b/1x1
I0403 15:26:54.495585  3099 net.cpp:425] inception_3b/output <- inception_3b/3x3
I0403 15:26:54.495601  3099 net.cpp:425] inception_3b/output <- inception_3b/5x5
I0403 15:26:54.495616  3099 net.cpp:425] inception_3b/output <- inception_3b/pool_proj
I0403 15:26:54.495635  3099 net.cpp:399] inception_3b/output -> inception_3b/output
I0403 15:26:54.495678  3099 net.cpp:141] Setting up inception_3b/output
I0403 15:26:54.495705  3099 net.cpp:148] Top shape: 24 480 28 28 (9031680)
I0403 15:26:54.495721  3099 net.cpp:156] Memory required for data: 809239584
I0403 15:26:54.495735  3099 layer_factory.hpp:77] Creating layer pool3/3x3_s2
I0403 15:26:54.495753  3099 net.cpp:91] Creating Layer pool3/3x3_s2
I0403 15:26:54.495767  3099 net.cpp:425] pool3/3x3_s2 <- inception_3b/output
I0403 15:26:54.495802  3099 net.cpp:399] pool3/3x3_s2 -> pool3/3x3_s2
I0403 15:26:54.495860  3099 net.cpp:141] Setting up pool3/3x3_s2
I0403 15:26:54.495882  3099 net.cpp:148] Top shape: 24 480 14 14 (2257920)
I0403 15:26:54.495896  3099 net.cpp:156] Memory required for data: 818271264
I0403 15:26:54.495911  3099 layer_factory.hpp:77] Creating layer pool3/3x3_s2_pool3/3x3_s2_0_split
I0403 15:26:54.495930  3099 net.cpp:91] Creating Layer pool3/3x3_s2_pool3/3x3_s2_0_split
I0403 15:26:54.495946  3099 net.cpp:425] pool3/3x3_s2_pool3/3x3_s2_0_split <- pool3/3x3_s2
I0403 15:26:54.495962  3099 net.cpp:399] pool3/3x3_s2_pool3/3x3_s2_0_split -> pool3/3x3_s2_pool3/3x3_s2_0_split_0
I0403 15:26:54.495981  3099 net.cpp:399] pool3/3x3_s2_pool3/3x3_s2_0_split -> pool3/3x3_s2_pool3/3x3_s2_0_split_1
I0403 15:26:54.496000  3099 net.cpp:399] pool3/3x3_s2_pool3/3x3_s2_0_split -> pool3/3x3_s2_pool3/3x3_s2_0_split_2
I0403 15:26:54.496017  3099 net.cpp:399] pool3/3x3_s2_pool3/3x3_s2_0_split -> pool3/3x3_s2_pool3/3x3_s2_0_split_3
I0403 15:26:54.496093  3099 net.cpp:141] Setting up pool3/3x3_s2_pool3/3x3_s2_0_split
I0403 15:26:54.496115  3099 net.cpp:148] Top shape: 24 480 14 14 (2257920)
I0403 15:26:54.496131  3099 net.cpp:148] Top shape: 24 480 14 14 (2257920)
I0403 15:26:54.496146  3099 net.cpp:148] Top shape: 24 480 14 14 (2257920)
I0403 15:26:54.496160  3099 net.cpp:148] Top shape: 24 480 14 14 (2257920)
I0403 15:26:54.496175  3099 net.cpp:156] Memory required for data: 854397984
I0403 15:26:54.496188  3099 layer_factory.hpp:77] Creating layer inception_4a/1x1
I0403 15:26:54.496214  3099 net.cpp:91] Creating Layer inception_4a/1x1
I0403 15:26:54.496232  3099 net.cpp:425] inception_4a/1x1 <- pool3/3x3_s2_pool3/3x3_s2_0_split_0
I0403 15:26:54.496253  3099 net.cpp:399] inception_4a/1x1 -> inception_4a/1x1
I0403 15:26:54.497767  3099 net.cpp:141] Setting up inception_4a/1x1
I0403 15:26:54.497797  3099 net.cpp:148] Top shape: 24 192 14 14 (903168)
I0403 15:26:54.497812  3099 net.cpp:156] Memory required for data: 858010656
I0403 15:26:54.497829  3099 layer_factory.hpp:77] Creating layer inception_4a/relu_1x1
I0403 15:26:54.497849  3099 net.cpp:91] Creating Layer inception_4a/relu_1x1
I0403 15:26:54.497866  3099 net.cpp:425] inception_4a/relu_1x1 <- inception_4a/1x1
I0403 15:26:54.497884  3099 net.cpp:386] inception_4a/relu_1x1 -> inception_4a/1x1 (in-place)
I0403 15:26:54.498054  3099 net.cpp:141] Setting up inception_4a/relu_1x1
I0403 15:26:54.498080  3099 net.cpp:148] Top shape: 24 192 14 14 (903168)
I0403 15:26:54.498095  3099 net.cpp:156] Memory required for data: 861623328
I0403 15:26:54.498108  3099 layer_factory.hpp:77] Creating layer inception_4a/3x3_reduce
I0403 15:26:54.498127  3099 net.cpp:91] Creating Layer inception_4a/3x3_reduce
I0403 15:26:54.498143  3099 net.cpp:425] inception_4a/3x3_reduce <- pool3/3x3_s2_pool3/3x3_s2_0_split_1
I0403 15:26:54.498164  3099 net.cpp:399] inception_4a/3x3_reduce -> inception_4a/3x3_reduce
I0403 15:26:54.499407  3099 net.cpp:141] Setting up inception_4a/3x3_reduce
I0403 15:26:54.499434  3099 net.cpp:148] Top shape: 24 96 14 14 (451584)
I0403 15:26:54.499449  3099 net.cpp:156] Memory required for data: 863429664
I0403 15:26:54.499474  3099 layer_factory.hpp:77] Creating layer inception_4a/relu_3x3_reduce
I0403 15:26:54.499492  3099 net.cpp:91] Creating Layer inception_4a/relu_3x3_reduce
I0403 15:26:54.499508  3099 net.cpp:425] inception_4a/relu_3x3_reduce <- inception_4a/3x3_reduce
I0403 15:26:54.499531  3099 net.cpp:386] inception_4a/relu_3x3_reduce -> inception_4a/3x3_reduce (in-place)
I0403 15:26:54.499704  3099 net.cpp:141] Setting up inception_4a/relu_3x3_reduce
I0403 15:26:54.499732  3099 net.cpp:148] Top shape: 24 96 14 14 (451584)
I0403 15:26:54.499747  3099 net.cpp:156] Memory required for data: 865236000
I0403 15:26:54.499760  3099 layer_factory.hpp:77] Creating layer inception_4a/3x3
I0403 15:26:54.499789  3099 net.cpp:91] Creating Layer inception_4a/3x3
I0403 15:26:54.499811  3099 net.cpp:425] inception_4a/3x3 <- inception_4a/3x3_reduce
I0403 15:26:54.499832  3099 net.cpp:399] inception_4a/3x3 -> inception_4a/3x3
I0403 15:26:54.502605  3099 net.cpp:141] Setting up inception_4a/3x3
I0403 15:26:54.502635  3099 net.cpp:148] Top shape: 24 208 14 14 (978432)
I0403 15:26:54.502651  3099 net.cpp:156] Memory required for data: 869149728
I0403 15:26:54.502671  3099 layer_factory.hpp:77] Creating layer inception_4a/relu_3x3
I0403 15:26:54.502691  3099 net.cpp:91] Creating Layer inception_4a/relu_3x3
I0403 15:26:54.502707  3099 net.cpp:425] inception_4a/relu_3x3 <- inception_4a/3x3
I0403 15:26:54.502725  3099 net.cpp:386] inception_4a/relu_3x3 -> inception_4a/3x3 (in-place)
I0403 15:26:54.503000  3099 net.cpp:141] Setting up inception_4a/relu_3x3
I0403 15:26:54.503026  3099 net.cpp:148] Top shape: 24 208 14 14 (978432)
I0403 15:26:54.503041  3099 net.cpp:156] Memory required for data: 873063456
I0403 15:26:54.503057  3099 layer_factory.hpp:77] Creating layer inception_4a/5x5_reduce
I0403 15:26:54.503082  3099 net.cpp:91] Creating Layer inception_4a/5x5_reduce
I0403 15:26:54.503100  3099 net.cpp:425] inception_4a/5x5_reduce <- pool3/3x3_s2_pool3/3x3_s2_0_split_2
I0403 15:26:54.503119  3099 net.cpp:399] inception_4a/5x5_reduce -> inception_4a/5x5_reduce
I0403 15:26:54.504132  3099 net.cpp:141] Setting up inception_4a/5x5_reduce
I0403 15:26:54.504163  3099 net.cpp:148] Top shape: 24 16 14 14 (75264)
I0403 15:26:54.504179  3099 net.cpp:156] Memory required for data: 873364512
I0403 15:26:54.504199  3099 layer_factory.hpp:77] Creating layer inception_4a/relu_5x5_reduce
I0403 15:26:54.504230  3099 net.cpp:91] Creating Layer inception_4a/relu_5x5_reduce
I0403 15:26:54.504250  3099 net.cpp:425] inception_4a/relu_5x5_reduce <- inception_4a/5x5_reduce
I0403 15:26:54.504271  3099 net.cpp:386] inception_4a/relu_5x5_reduce -> inception_4a/5x5_reduce (in-place)
I0403 15:26:54.504448  3099 net.cpp:141] Setting up inception_4a/relu_5x5_reduce
I0403 15:26:54.504473  3099 net.cpp:148] Top shape: 24 16 14 14 (75264)
I0403 15:26:54.504488  3099 net.cpp:156] Memory required for data: 873665568
I0403 15:26:54.504503  3099 layer_factory.hpp:77] Creating layer inception_4a/5x5
I0403 15:26:54.504533  3099 net.cpp:91] Creating Layer inception_4a/5x5
I0403 15:26:54.504550  3099 net.cpp:425] inception_4a/5x5 <- inception_4a/5x5_reduce
I0403 15:26:54.504571  3099 net.cpp:399] inception_4a/5x5 -> inception_4a/5x5
I0403 15:26:54.505656  3099 net.cpp:141] Setting up inception_4a/5x5
I0403 15:26:54.505682  3099 net.cpp:148] Top shape: 24 48 14 14 (225792)
I0403 15:26:54.505698  3099 net.cpp:156] Memory required for data: 874568736
I0403 15:26:54.505717  3099 layer_factory.hpp:77] Creating layer inception_4a/relu_5x5
I0403 15:26:54.505735  3099 net.cpp:91] Creating Layer inception_4a/relu_5x5
I0403 15:26:54.505754  3099 net.cpp:425] inception_4a/relu_5x5 <- inception_4a/5x5
I0403 15:26:54.505772  3099 net.cpp:386] inception_4a/relu_5x5 -> inception_4a/5x5 (in-place)
I0403 15:26:54.505947  3099 net.cpp:141] Setting up inception_4a/relu_5x5
I0403 15:26:54.505971  3099 net.cpp:148] Top shape: 24 48 14 14 (225792)
I0403 15:26:54.505986  3099 net.cpp:156] Memory required for data: 875471904
I0403 15:26:54.506000  3099 layer_factory.hpp:77] Creating layer inception_4a/pool
I0403 15:26:54.506021  3099 net.cpp:91] Creating Layer inception_4a/pool
I0403 15:26:54.506037  3099 net.cpp:425] inception_4a/pool <- pool3/3x3_s2_pool3/3x3_s2_0_split_3
I0403 15:26:54.506055  3099 net.cpp:399] inception_4a/pool -> inception_4a/pool
I0403 15:26:54.506117  3099 net.cpp:141] Setting up inception_4a/pool
I0403 15:26:54.506140  3099 net.cpp:148] Top shape: 24 480 14 14 (2257920)
I0403 15:26:54.506155  3099 net.cpp:156] Memory required for data: 884503584
I0403 15:26:54.506168  3099 layer_factory.hpp:77] Creating layer inception_4a/pool_proj
I0403 15:26:54.506191  3099 net.cpp:91] Creating Layer inception_4a/pool_proj
I0403 15:26:54.506211  3099 net.cpp:425] inception_4a/pool_proj <- inception_4a/pool
I0403 15:26:54.506234  3099 net.cpp:399] inception_4a/pool_proj -> inception_4a/pool_proj
I0403 15:26:54.507395  3099 net.cpp:141] Setting up inception_4a/pool_proj
I0403 15:26:54.507422  3099 net.cpp:148] Top shape: 24 64 14 14 (301056)
I0403 15:26:54.507452  3099 net.cpp:156] Memory required for data: 885707808
I0403 15:26:54.507472  3099 layer_factory.hpp:77] Creating layer inception_4a/relu_pool_proj
I0403 15:26:54.507493  3099 net.cpp:91] Creating Layer inception_4a/relu_pool_proj
I0403 15:26:54.507519  3099 net.cpp:425] inception_4a/relu_pool_proj <- inception_4a/pool_proj
I0403 15:26:54.507535  3099 net.cpp:386] inception_4a/relu_pool_proj -> inception_4a/pool_proj (in-place)
I0403 15:26:54.507815  3099 net.cpp:141] Setting up inception_4a/relu_pool_proj
I0403 15:26:54.507843  3099 net.cpp:148] Top shape: 24 64 14 14 (301056)
I0403 15:26:54.507858  3099 net.cpp:156] Memory required for data: 886912032
I0403 15:26:54.507872  3099 layer_factory.hpp:77] Creating layer inception_4a/output
I0403 15:26:54.507889  3099 net.cpp:91] Creating Layer inception_4a/output
I0403 15:26:54.507905  3099 net.cpp:425] inception_4a/output <- inception_4a/1x1
I0403 15:26:54.507922  3099 net.cpp:425] inception_4a/output <- inception_4a/3x3
I0403 15:26:54.507941  3099 net.cpp:425] inception_4a/output <- inception_4a/5x5
I0403 15:26:54.507958  3099 net.cpp:425] inception_4a/output <- inception_4a/pool_proj
I0403 15:26:54.507974  3099 net.cpp:399] inception_4a/output -> inception_4a/output
I0403 15:26:54.508018  3099 net.cpp:141] Setting up inception_4a/output
I0403 15:26:54.508043  3099 net.cpp:148] Top shape: 24 512 14 14 (2408448)
I0403 15:26:54.508057  3099 net.cpp:156] Memory required for data: 896545824
I0403 15:26:54.508072  3099 layer_factory.hpp:77] Creating layer inception_4a/output_inception_4a/output_0_split
I0403 15:26:54.508090  3099 net.cpp:91] Creating Layer inception_4a/output_inception_4a/output_0_split
I0403 15:26:54.508105  3099 net.cpp:425] inception_4a/output_inception_4a/output_0_split <- inception_4a/output
I0403 15:26:54.508126  3099 net.cpp:399] inception_4a/output_inception_4a/output_0_split -> inception_4a/output_inception_4a/output_0_split_0
I0403 15:26:54.508146  3099 net.cpp:399] inception_4a/output_inception_4a/output_0_split -> inception_4a/output_inception_4a/output_0_split_1
I0403 15:26:54.508167  3099 net.cpp:399] inception_4a/output_inception_4a/output_0_split -> inception_4a/output_inception_4a/output_0_split_2
I0403 15:26:54.508188  3099 net.cpp:399] inception_4a/output_inception_4a/output_0_split -> inception_4a/output_inception_4a/output_0_split_3
I0403 15:26:54.508211  3099 net.cpp:399] inception_4a/output_inception_4a/output_0_split -> inception_4a/output_inception_4a/output_0_split_4
I0403 15:26:54.508307  3099 net.cpp:141] Setting up inception_4a/output_inception_4a/output_0_split
I0403 15:26:54.508332  3099 net.cpp:148] Top shape: 24 512 14 14 (2408448)
I0403 15:26:54.508349  3099 net.cpp:148] Top shape: 24 512 14 14 (2408448)
I0403 15:26:54.508366  3099 net.cpp:148] Top shape: 24 512 14 14 (2408448)
I0403 15:26:54.508383  3099 net.cpp:148] Top shape: 24 512 14 14 (2408448)
I0403 15:26:54.508399  3099 net.cpp:148] Top shape: 24 512 14 14 (2408448)
I0403 15:26:54.508411  3099 net.cpp:156] Memory required for data: 944714784
I0403 15:26:54.508426  3099 layer_factory.hpp:77] Creating layer loss1/ave_pool
I0403 15:26:54.508443  3099 net.cpp:91] Creating Layer loss1/ave_pool
I0403 15:26:54.508460  3099 net.cpp:425] loss1/ave_pool <- inception_4a/output_inception_4a/output_0_split_0
I0403 15:26:54.508481  3099 net.cpp:399] loss1/ave_pool -> loss1/ave_pool
I0403 15:26:54.508700  3099 net.cpp:141] Setting up loss1/ave_pool
I0403 15:26:54.508728  3099 net.cpp:148] Top shape: 24 512 4 4 (196608)
I0403 15:26:54.508743  3099 net.cpp:156] Memory required for data: 945501216
I0403 15:26:54.508757  3099 layer_factory.hpp:77] Creating layer loss1/conv
I0403 15:26:54.508780  3099 net.cpp:91] Creating Layer loss1/conv
I0403 15:26:54.508806  3099 net.cpp:425] loss1/conv <- loss1/ave_pool
I0403 15:26:54.508841  3099 net.cpp:399] loss1/conv -> loss1/conv
I0403 15:26:54.510293  3099 net.cpp:141] Setting up loss1/conv
I0403 15:26:54.510323  3099 net.cpp:148] Top shape: 24 128 4 4 (49152)
I0403 15:26:54.510354  3099 net.cpp:156] Memory required for data: 945697824
I0403 15:26:54.510375  3099 layer_factory.hpp:77] Creating layer loss1/relu_conv
I0403 15:26:54.510395  3099 net.cpp:91] Creating Layer loss1/relu_conv
I0403 15:26:54.510412  3099 net.cpp:425] loss1/relu_conv <- loss1/conv
I0403 15:26:54.510432  3099 net.cpp:386] loss1/relu_conv -> loss1/conv (in-place)
I0403 15:26:54.510715  3099 net.cpp:141] Setting up loss1/relu_conv
I0403 15:26:54.510740  3099 net.cpp:148] Top shape: 24 128 4 4 (49152)
I0403 15:26:54.510756  3099 net.cpp:156] Memory required for data: 945894432
I0403 15:26:54.510769  3099 layer_factory.hpp:77] Creating layer loss1/fc
I0403 15:26:54.510794  3099 net.cpp:91] Creating Layer loss1/fc
I0403 15:26:54.510813  3099 net.cpp:425] loss1/fc <- loss1/conv
I0403 15:26:54.510834  3099 net.cpp:399] loss1/fc -> loss1/fc
I0403 15:26:54.528561  3099 net.cpp:141] Setting up loss1/fc
I0403 15:26:54.528615  3099 net.cpp:148] Top shape: 24 1024 (24576)
I0403 15:26:54.528631  3099 net.cpp:156] Memory required for data: 945992736
I0403 15:26:54.528652  3099 layer_factory.hpp:77] Creating layer loss1/relu_fc
I0403 15:26:54.528672  3099 net.cpp:91] Creating Layer loss1/relu_fc
I0403 15:26:54.528688  3099 net.cpp:425] loss1/relu_fc <- loss1/fc
I0403 15:26:54.528708  3099 net.cpp:386] loss1/relu_fc -> loss1/fc (in-place)
I0403 15:26:54.528914  3099 net.cpp:141] Setting up loss1/relu_fc
I0403 15:26:54.528944  3099 net.cpp:148] Top shape: 24 1024 (24576)
I0403 15:26:54.528959  3099 net.cpp:156] Memory required for data: 946091040
I0403 15:26:54.528975  3099 layer_factory.hpp:77] Creating layer loss1/drop_fc
I0403 15:26:54.529003  3099 net.cpp:91] Creating Layer loss1/drop_fc
I0403 15:26:54.529021  3099 net.cpp:425] loss1/drop_fc <- loss1/fc
I0403 15:26:54.529039  3099 net.cpp:386] loss1/drop_fc -> loss1/fc (in-place)
I0403 15:26:54.529093  3099 net.cpp:141] Setting up loss1/drop_fc
I0403 15:26:54.529115  3099 net.cpp:148] Top shape: 24 1024 (24576)
I0403 15:26:54.529130  3099 net.cpp:156] Memory required for data: 946189344
I0403 15:26:54.529145  3099 layer_factory.hpp:77] Creating layer loss1/classifier_plantvillage
I0403 15:26:54.529165  3099 net.cpp:91] Creating Layer loss1/classifier_plantvillage
I0403 15:26:54.529181  3099 net.cpp:425] loss1/classifier_plantvillage <- loss1/fc
I0403 15:26:54.529202  3099 net.cpp:399] loss1/classifier_plantvillage -> loss1/classifier_plantvillage
I0403 15:26:54.530155  3099 net.cpp:141] Setting up loss1/classifier_plantvillage
I0403 15:26:54.530185  3099 net.cpp:148] Top shape: 24 38 (912)
I0403 15:26:54.530201  3099 net.cpp:156] Memory required for data: 946192992
I0403 15:26:54.530225  3099 layer_factory.hpp:77] Creating layer loss1/classifier_plantvillage_loss1/classifier_plantvillage_0_split
I0403 15:26:54.530257  3099 net.cpp:91] Creating Layer loss1/classifier_plantvillage_loss1/classifier_plantvillage_0_split
I0403 15:26:54.530274  3099 net.cpp:425] loss1/classifier_plantvillage_loss1/classifier_plantvillage_0_split <- loss1/classifier_plantvillage
I0403 15:26:54.530292  3099 net.cpp:399] loss1/classifier_plantvillage_loss1/classifier_plantvillage_0_split -> loss1/classifier_plantvillage_loss1/classifier_plantvillage_0_split_0
I0403 15:26:54.530313  3099 net.cpp:399] loss1/classifier_plantvillage_loss1/classifier_plantvillage_0_split -> loss1/classifier_plantvillage_loss1/classifier_plantvillage_0_split_1
I0403 15:26:54.530333  3099 net.cpp:399] loss1/classifier_plantvillage_loss1/classifier_plantvillage_0_split -> loss1/classifier_plantvillage_loss1/classifier_plantvillage_0_split_2
I0403 15:26:54.530401  3099 net.cpp:141] Setting up loss1/classifier_plantvillage_loss1/classifier_plantvillage_0_split
I0403 15:26:54.530426  3099 net.cpp:148] Top shape: 24 38 (912)
I0403 15:26:54.530441  3099 net.cpp:148] Top shape: 24 38 (912)
I0403 15:26:54.530457  3099 net.cpp:148] Top shape: 24 38 (912)
I0403 15:26:54.530472  3099 net.cpp:156] Memory required for data: 946203936
I0403 15:26:54.530486  3099 layer_factory.hpp:77] Creating layer inception_4b/1x1
I0403 15:26:54.530510  3099 net.cpp:91] Creating Layer inception_4b/1x1
I0403 15:26:54.530552  3099 net.cpp:425] inception_4b/1x1 <- inception_4a/output_inception_4a/output_0_split_1
I0403 15:26:54.530573  3099 net.cpp:399] inception_4b/1x1 -> inception_4b/1x1
I0403 15:26:54.532260  3099 net.cpp:141] Setting up inception_4b/1x1
I0403 15:26:54.532290  3099 net.cpp:148] Top shape: 24 160 14 14 (752640)
I0403 15:26:54.532306  3099 net.cpp:156] Memory required for data: 949214496
I0403 15:26:54.532325  3099 layer_factory.hpp:77] Creating layer inception_4b/relu_1x1
I0403 15:26:54.532346  3099 net.cpp:91] Creating Layer inception_4b/relu_1x1
I0403 15:26:54.532366  3099 net.cpp:425] inception_4b/relu_1x1 <- inception_4b/1x1
I0403 15:26:54.532384  3099 net.cpp:386] inception_4b/relu_1x1 -> inception_4b/1x1 (in-place)
I0403 15:26:54.532565  3099 net.cpp:141] Setting up inception_4b/relu_1x1
I0403 15:26:54.532591  3099 net.cpp:148] Top shape: 24 160 14 14 (752640)
I0403 15:26:54.532608  3099 net.cpp:156] Memory required for data: 952225056
I0403 15:26:54.532623  3099 layer_factory.hpp:77] Creating layer inception_4b/3x3_reduce
I0403 15:26:54.532646  3099 net.cpp:91] Creating Layer inception_4b/3x3_reduce
I0403 15:26:54.532667  3099 net.cpp:425] inception_4b/3x3_reduce <- inception_4a/output_inception_4a/output_0_split_2
I0403 15:26:54.532688  3099 net.cpp:399] inception_4b/3x3_reduce -> inception_4b/3x3_reduce
I0403 15:26:54.534045  3099 net.cpp:141] Setting up inception_4b/3x3_reduce
I0403 15:26:54.534075  3099 net.cpp:148] Top shape: 24 112 14 14 (526848)
I0403 15:26:54.534091  3099 net.cpp:156] Memory required for data: 954332448
I0403 15:26:54.534109  3099 layer_factory.hpp:77] Creating layer inception_4b/relu_3x3_reduce
I0403 15:26:54.534137  3099 net.cpp:91] Creating Layer inception_4b/relu_3x3_reduce
I0403 15:26:54.534155  3099 net.cpp:425] inception_4b/relu_3x3_reduce <- inception_4b/3x3_reduce
I0403 15:26:54.534175  3099 net.cpp:386] inception_4b/relu_3x3_reduce -> inception_4b/3x3_reduce (in-place)
I0403 15:26:54.534467  3099 net.cpp:141] Setting up inception_4b/relu_3x3_reduce
I0403 15:26:54.534495  3099 net.cpp:148] Top shape: 24 112 14 14 (526848)
I0403 15:26:54.534520  3099 net.cpp:156] Memory required for data: 956439840
I0403 15:26:54.534536  3099 layer_factory.hpp:77] Creating layer inception_4b/3x3
I0403 15:26:54.534559  3099 net.cpp:91] Creating Layer inception_4b/3x3
I0403 15:26:54.534579  3099 net.cpp:425] inception_4b/3x3 <- inception_4b/3x3_reduce
I0403 15:26:54.534600  3099 net.cpp:399] inception_4b/3x3 -> inception_4b/3x3
I0403 15:26:54.537629  3099 net.cpp:141] Setting up inception_4b/3x3
I0403 15:26:54.537660  3099 net.cpp:148] Top shape: 24 224 14 14 (1053696)
I0403 15:26:54.537678  3099 net.cpp:156] Memory required for data: 960654624
I0403 15:26:54.537698  3099 layer_factory.hpp:77] Creating layer inception_4b/relu_3x3
I0403 15:26:54.537719  3099 net.cpp:91] Creating Layer inception_4b/relu_3x3
I0403 15:26:54.537739  3099 net.cpp:425] inception_4b/relu_3x3 <- inception_4b/3x3
I0403 15:26:54.537756  3099 net.cpp:386] inception_4b/relu_3x3 -> inception_4b/3x3 (in-place)
I0403 15:26:54.537935  3099 net.cpp:141] Setting up inception_4b/relu_3x3
I0403 15:26:54.537963  3099 net.cpp:148] Top shape: 24 224 14 14 (1053696)
I0403 15:26:54.537979  3099 net.cpp:156] Memory required for data: 964869408
I0403 15:26:54.537995  3099 layer_factory.hpp:77] Creating layer inception_4b/5x5_reduce
I0403 15:26:54.538018  3099 net.cpp:91] Creating Layer inception_4b/5x5_reduce
I0403 15:26:54.538036  3099 net.cpp:425] inception_4b/5x5_reduce <- inception_4a/output_inception_4a/output_0_split_3
I0403 15:26:54.538055  3099 net.cpp:399] inception_4b/5x5_reduce -> inception_4b/5x5_reduce
I0403 15:26:54.539186  3099 net.cpp:141] Setting up inception_4b/5x5_reduce
I0403 15:26:54.539221  3099 net.cpp:148] Top shape: 24 24 14 14 (112896)
I0403 15:26:54.539238  3099 net.cpp:156] Memory required for data: 965320992
I0403 15:26:54.539258  3099 layer_factory.hpp:77] Creating layer inception_4b/relu_5x5_reduce
I0403 15:26:54.539278  3099 net.cpp:91] Creating Layer inception_4b/relu_5x5_reduce
I0403 15:26:54.539309  3099 net.cpp:425] inception_4b/relu_5x5_reduce <- inception_4b/5x5_reduce
I0403 15:26:54.539329  3099 net.cpp:386] inception_4b/relu_5x5_reduce -> inception_4b/5x5_reduce (in-place)
I0403 15:26:54.539516  3099 net.cpp:141] Setting up inception_4b/relu_5x5_reduce
I0403 15:26:54.539542  3099 net.cpp:148] Top shape: 24 24 14 14 (112896)
I0403 15:26:54.539557  3099 net.cpp:156] Memory required for data: 965772576
I0403 15:26:54.539573  3099 layer_factory.hpp:77] Creating layer inception_4b/5x5
I0403 15:26:54.539597  3099 net.cpp:91] Creating Layer inception_4b/5x5
I0403 15:26:54.539614  3099 net.cpp:425] inception_4b/5x5 <- inception_4b/5x5_reduce
I0403 15:26:54.539635  3099 net.cpp:399] inception_4b/5x5 -> inception_4b/5x5
I0403 15:26:54.540896  3099 net.cpp:141] Setting up inception_4b/5x5
I0403 15:26:54.540925  3099 net.cpp:148] Top shape: 24 64 14 14 (301056)
I0403 15:26:54.540940  3099 net.cpp:156] Memory required for data: 966976800
I0403 15:26:54.540959  3099 layer_factory.hpp:77] Creating layer inception_4b/relu_5x5
I0403 15:26:54.540980  3099 net.cpp:91] Creating Layer inception_4b/relu_5x5
I0403 15:26:54.540998  3099 net.cpp:425] inception_4b/relu_5x5 <- inception_4b/5x5
I0403 15:26:54.541018  3099 net.cpp:386] inception_4b/relu_5x5 -> inception_4b/5x5 (in-place)
I0403 15:26:54.541316  3099 net.cpp:141] Setting up inception_4b/relu_5x5
I0403 15:26:54.541343  3099 net.cpp:148] Top shape: 24 64 14 14 (301056)
I0403 15:26:54.541358  3099 net.cpp:156] Memory required for data: 968181024
I0403 15:26:54.541374  3099 layer_factory.hpp:77] Creating layer inception_4b/pool
I0403 15:26:54.541395  3099 net.cpp:91] Creating Layer inception_4b/pool
I0403 15:26:54.541412  3099 net.cpp:425] inception_4b/pool <- inception_4a/output_inception_4a/output_0_split_4
I0403 15:26:54.541432  3099 net.cpp:399] inception_4b/pool -> inception_4b/pool
I0403 15:26:54.541501  3099 net.cpp:141] Setting up inception_4b/pool
I0403 15:26:54.541525  3099 net.cpp:148] Top shape: 24 512 14 14 (2408448)
I0403 15:26:54.541540  3099 net.cpp:156] Memory required for data: 977814816
I0403 15:26:54.541556  3099 layer_factory.hpp:77] Creating layer inception_4b/pool_proj
I0403 15:26:54.541579  3099 net.cpp:91] Creating Layer inception_4b/pool_proj
I0403 15:26:54.541597  3099 net.cpp:425] inception_4b/pool_proj <- inception_4b/pool
I0403 15:26:54.541618  3099 net.cpp:399] inception_4b/pool_proj -> inception_4b/pool_proj
I0403 15:26:54.542852  3099 net.cpp:141] Setting up inception_4b/pool_proj
I0403 15:26:54.542882  3099 net.cpp:148] Top shape: 24 64 14 14 (301056)
I0403 15:26:54.542899  3099 net.cpp:156] Memory required for data: 979019040
I0403 15:26:54.542918  3099 layer_factory.hpp:77] Creating layer inception_4b/relu_pool_proj
I0403 15:26:54.542937  3099 net.cpp:91] Creating Layer inception_4b/relu_pool_proj
I0403 15:26:54.542955  3099 net.cpp:425] inception_4b/relu_pool_proj <- inception_4b/pool_proj
I0403 15:26:54.542987  3099 net.cpp:386] inception_4b/relu_pool_proj -> inception_4b/pool_proj (in-place)
I0403 15:26:54.543169  3099 net.cpp:141] Setting up inception_4b/relu_pool_proj
I0403 15:26:54.543193  3099 net.cpp:148] Top shape: 24 64 14 14 (301056)
I0403 15:26:54.543226  3099 net.cpp:156] Memory required for data: 980223264
I0403 15:26:54.543248  3099 layer_factory.hpp:77] Creating layer inception_4b/output
I0403 15:26:54.543267  3099 net.cpp:91] Creating Layer inception_4b/output
I0403 15:26:54.543282  3099 net.cpp:425] inception_4b/output <- inception_4b/1x1
I0403 15:26:54.543298  3099 net.cpp:425] inception_4b/output <- inception_4b/3x3
I0403 15:26:54.543315  3099 net.cpp:425] inception_4b/output <- inception_4b/5x5
I0403 15:26:54.543331  3099 net.cpp:425] inception_4b/output <- inception_4b/pool_proj
I0403 15:26:54.543351  3099 net.cpp:399] inception_4b/output -> inception_4b/output
I0403 15:26:54.543397  3099 net.cpp:141] Setting up inception_4b/output
I0403 15:26:54.543423  3099 net.cpp:148] Top shape: 24 512 14 14 (2408448)
I0403 15:26:54.543439  3099 net.cpp:156] Memory required for data: 989857056
I0403 15:26:54.543468  3099 layer_factory.hpp:77] Creating layer inception_4b/output_inception_4b/output_0_split
I0403 15:26:54.543486  3099 net.cpp:91] Creating Layer inception_4b/output_inception_4b/output_0_split
I0403 15:26:54.543501  3099 net.cpp:425] inception_4b/output_inception_4b/output_0_split <- inception_4b/output
I0403 15:26:54.543529  3099 net.cpp:399] inception_4b/output_inception_4b/output_0_split -> inception_4b/output_inception_4b/output_0_split_0
I0403 15:26:54.543552  3099 net.cpp:399] inception_4b/output_inception_4b/output_0_split -> inception_4b/output_inception_4b/output_0_split_1
I0403 15:26:54.543573  3099 net.cpp:399] inception_4b/output_inception_4b/output_0_split -> inception_4b/output_inception_4b/output_0_split_2
I0403 15:26:54.543594  3099 net.cpp:399] inception_4b/output_inception_4b/output_0_split -> inception_4b/output_inception_4b/output_0_split_3
I0403 15:26:54.543679  3099 net.cpp:141] Setting up inception_4b/output_inception_4b/output_0_split
I0403 15:26:54.543702  3099 net.cpp:148] Top shape: 24 512 14 14 (2408448)
I0403 15:26:54.543718  3099 net.cpp:148] Top shape: 24 512 14 14 (2408448)
I0403 15:26:54.543735  3099 net.cpp:148] Top shape: 24 512 14 14 (2408448)
I0403 15:26:54.543750  3099 net.cpp:148] Top shape: 24 512 14 14 (2408448)
I0403 15:26:54.543764  3099 net.cpp:156] Memory required for data: 1028392224
I0403 15:26:54.543778  3099 layer_factory.hpp:77] Creating layer inception_4c/1x1
I0403 15:26:54.543800  3099 net.cpp:91] Creating Layer inception_4c/1x1
I0403 15:26:54.543820  3099 net.cpp:425] inception_4c/1x1 <- inception_4b/output_inception_4b/output_0_split_0
I0403 15:26:54.543839  3099 net.cpp:399] inception_4c/1x1 -> inception_4c/1x1
I0403 15:26:54.545291  3099 net.cpp:141] Setting up inception_4c/1x1
I0403 15:26:54.545320  3099 net.cpp:148] Top shape: 24 128 14 14 (602112)
I0403 15:26:54.545336  3099 net.cpp:156] Memory required for data: 1030800672
I0403 15:26:54.545353  3099 layer_factory.hpp:77] Creating layer inception_4c/relu_1x1
I0403 15:26:54.545373  3099 net.cpp:91] Creating Layer inception_4c/relu_1x1
I0403 15:26:54.545392  3099 net.cpp:425] inception_4c/relu_1x1 <- inception_4c/1x1
I0403 15:26:54.545410  3099 net.cpp:386] inception_4c/relu_1x1 -> inception_4c/1x1 (in-place)
I0403 15:26:54.545594  3099 net.cpp:141] Setting up inception_4c/relu_1x1
I0403 15:26:54.545619  3099 net.cpp:148] Top shape: 24 128 14 14 (602112)
I0403 15:26:54.545634  3099 net.cpp:156] Memory required for data: 1033209120
I0403 15:26:54.545650  3099 layer_factory.hpp:77] Creating layer inception_4c/3x3_reduce
I0403 15:26:54.545671  3099 net.cpp:91] Creating Layer inception_4c/3x3_reduce
I0403 15:26:54.545688  3099 net.cpp:425] inception_4c/3x3_reduce <- inception_4b/output_inception_4b/output_0_split_1
I0403 15:26:54.545711  3099 net.cpp:399] inception_4c/3x3_reduce -> inception_4c/3x3_reduce
I0403 15:26:54.547722  3099 net.cpp:141] Setting up inception_4c/3x3_reduce
I0403 15:26:54.547755  3099 net.cpp:148] Top shape: 24 128 14 14 (602112)
I0403 15:26:54.547771  3099 net.cpp:156] Memory required for data: 1035617568
I0403 15:26:54.547791  3099 layer_factory.hpp:77] Creating layer inception_4c/relu_3x3_reduce
I0403 15:26:54.547811  3099 net.cpp:91] Creating Layer inception_4c/relu_3x3_reduce
I0403 15:26:54.547827  3099 net.cpp:425] inception_4c/relu_3x3_reduce <- inception_4c/3x3_reduce
I0403 15:26:54.547845  3099 net.cpp:386] inception_4c/relu_3x3_reduce -> inception_4c/3x3_reduce (in-place)
I0403 15:26:54.548130  3099 net.cpp:141] Setting up inception_4c/relu_3x3_reduce
I0403 15:26:54.548159  3099 net.cpp:148] Top shape: 24 128 14 14 (602112)
I0403 15:26:54.548177  3099 net.cpp:156] Memory required for data: 1038026016
I0403 15:26:54.548192  3099 layer_factory.hpp:77] Creating layer inception_4c/3x3
I0403 15:26:54.548218  3099 net.cpp:91] Creating Layer inception_4c/3x3
I0403 15:26:54.548236  3099 net.cpp:425] inception_4c/3x3 <- inception_4c/3x3_reduce
I0403 15:26:54.548259  3099 net.cpp:399] inception_4c/3x3 -> inception_4c/3x3
I0403 15:26:54.551877  3099 net.cpp:141] Setting up inception_4c/3x3
I0403 15:26:54.551923  3099 net.cpp:148] Top shape: 24 256 14 14 (1204224)
I0403 15:26:54.551941  3099 net.cpp:156] Memory required for data: 1042842912
I0403 15:26:54.551975  3099 layer_factory.hpp:77] Creating layer inception_4c/relu_3x3
I0403 15:26:54.551996  3099 net.cpp:91] Creating Layer inception_4c/relu_3x3
I0403 15:26:54.552013  3099 net.cpp:425] inception_4c/relu_3x3 <- inception_4c/3x3
I0403 15:26:54.552047  3099 net.cpp:386] inception_4c/relu_3x3 -> inception_4c/3x3 (in-place)
I0403 15:26:54.552248  3099 net.cpp:141] Setting up inception_4c/relu_3x3
I0403 15:26:54.552278  3099 net.cpp:148] Top shape: 24 256 14 14 (1204224)
I0403 15:26:54.552294  3099 net.cpp:156] Memory required for data: 1047659808
I0403 15:26:54.552310  3099 layer_factory.hpp:77] Creating layer inception_4c/5x5_reduce
I0403 15:26:54.552335  3099 net.cpp:91] Creating Layer inception_4c/5x5_reduce
I0403 15:26:54.552353  3099 net.cpp:425] inception_4c/5x5_reduce <- inception_4b/output_inception_4b/output_0_split_2
I0403 15:26:54.552374  3099 net.cpp:399] inception_4c/5x5_reduce -> inception_4c/5x5_reduce
I0403 15:26:54.553557  3099 net.cpp:141] Setting up inception_4c/5x5_reduce
I0403 15:26:54.553588  3099 net.cpp:148] Top shape: 24 24 14 14 (112896)
I0403 15:26:54.553606  3099 net.cpp:156] Memory required for data: 1048111392
I0403 15:26:54.553624  3099 layer_factory.hpp:77] Creating layer inception_4c/relu_5x5_reduce
I0403 15:26:54.553643  3099 net.cpp:91] Creating Layer inception_4c/relu_5x5_reduce
I0403 15:26:54.553660  3099 net.cpp:425] inception_4c/relu_5x5_reduce <- inception_4c/5x5_reduce
I0403 15:26:54.553678  3099 net.cpp:386] inception_4c/relu_5x5_reduce -> inception_4c/5x5_reduce (in-place)
I0403 15:26:54.553882  3099 net.cpp:141] Setting up inception_4c/relu_5x5_reduce
I0403 15:26:54.553907  3099 net.cpp:148] Top shape: 24 24 14 14 (112896)
I0403 15:26:54.553922  3099 net.cpp:156] Memory required for data: 1048562976
I0403 15:26:54.553937  3099 layer_factory.hpp:77] Creating layer inception_4c/5x5
I0403 15:26:54.553959  3099 net.cpp:91] Creating Layer inception_4c/5x5
I0403 15:26:54.553977  3099 net.cpp:425] inception_4c/5x5 <- inception_4c/5x5_reduce
I0403 15:26:54.553997  3099 net.cpp:399] inception_4c/5x5 -> inception_4c/5x5
I0403 15:26:54.555259  3099 net.cpp:141] Setting up inception_4c/5x5
I0403 15:26:54.555286  3099 net.cpp:148] Top shape: 24 64 14 14 (301056)
I0403 15:26:54.555302  3099 net.cpp:156] Memory required for data: 1049767200
I0403 15:26:54.555320  3099 layer_factory.hpp:77] Creating layer inception_4c/relu_5x5
I0403 15:26:54.555338  3099 net.cpp:91] Creating Layer inception_4c/relu_5x5
I0403 15:26:54.555356  3099 net.cpp:425] inception_4c/relu_5x5 <- inception_4c/5x5
I0403 15:26:54.555374  3099 net.cpp:386] inception_4c/relu_5x5 -> inception_4c/5x5 (in-place)
I0403 15:26:54.555671  3099 net.cpp:141] Setting up inception_4c/relu_5x5
I0403 15:26:54.555697  3099 net.cpp:148] Top shape: 24 64 14 14 (301056)
I0403 15:26:54.555712  3099 net.cpp:156] Memory required for data: 1050971424
I0403 15:26:54.555728  3099 layer_factory.hpp:77] Creating layer inception_4c/pool
I0403 15:26:54.555747  3099 net.cpp:91] Creating Layer inception_4c/pool
I0403 15:26:54.555763  3099 net.cpp:425] inception_4c/pool <- inception_4b/output_inception_4b/output_0_split_3
I0403 15:26:54.555783  3099 net.cpp:399] inception_4c/pool -> inception_4c/pool
I0403 15:26:54.555850  3099 net.cpp:141] Setting up inception_4c/pool
I0403 15:26:54.555872  3099 net.cpp:148] Top shape: 24 512 14 14 (2408448)
I0403 15:26:54.555887  3099 net.cpp:156] Memory required for data: 1060605216
I0403 15:26:54.555902  3099 layer_factory.hpp:77] Creating layer inception_4c/pool_proj
I0403 15:26:54.555925  3099 net.cpp:91] Creating Layer inception_4c/pool_proj
I0403 15:26:54.555943  3099 net.cpp:425] inception_4c/pool_proj <- inception_4c/pool
I0403 15:26:54.555960  3099 net.cpp:399] inception_4c/pool_proj -> inception_4c/pool_proj
I0403 15:26:54.557195  3099 net.cpp:141] Setting up inception_4c/pool_proj
I0403 15:26:54.557232  3099 net.cpp:148] Top shape: 24 64 14 14 (301056)
I0403 15:26:54.557263  3099 net.cpp:156] Memory required for data: 1061809440
I0403 15:26:54.557284  3099 layer_factory.hpp:77] Creating layer inception_4c/relu_pool_proj
I0403 15:26:54.557303  3099 net.cpp:91] Creating Layer inception_4c/relu_pool_proj
I0403 15:26:54.557320  3099 net.cpp:425] inception_4c/relu_pool_proj <- inception_4c/pool_proj
I0403 15:26:54.557340  3099 net.cpp:386] inception_4c/relu_pool_proj -> inception_4c/pool_proj (in-place)
I0403 15:26:54.557530  3099 net.cpp:141] Setting up inception_4c/relu_pool_proj
I0403 15:26:54.557555  3099 net.cpp:148] Top shape: 24 64 14 14 (301056)
I0403 15:26:54.557570  3099 net.cpp:156] Memory required for data: 1063013664
I0403 15:26:54.557585  3099 layer_factory.hpp:77] Creating layer inception_4c/output
I0403 15:26:54.557602  3099 net.cpp:91] Creating Layer inception_4c/output
I0403 15:26:54.557618  3099 net.cpp:425] inception_4c/output <- inception_4c/1x1
I0403 15:26:54.557634  3099 net.cpp:425] inception_4c/output <- inception_4c/3x3
I0403 15:26:54.557651  3099 net.cpp:425] inception_4c/output <- inception_4c/5x5
I0403 15:26:54.557667  3099 net.cpp:425] inception_4c/output <- inception_4c/pool_proj
I0403 15:26:54.557687  3099 net.cpp:399] inception_4c/output -> inception_4c/output
I0403 15:26:54.557734  3099 net.cpp:141] Setting up inception_4c/output
I0403 15:26:54.557760  3099 net.cpp:148] Top shape: 24 512 14 14 (2408448)
I0403 15:26:54.557775  3099 net.cpp:156] Memory required for data: 1072647456
I0403 15:26:54.557788  3099 layer_factory.hpp:77] Creating layer inception_4c/output_inception_4c/output_0_split
I0403 15:26:54.557806  3099 net.cpp:91] Creating Layer inception_4c/output_inception_4c/output_0_split
I0403 15:26:54.557821  3099 net.cpp:425] inception_4c/output_inception_4c/output_0_split <- inception_4c/output
I0403 15:26:54.557839  3099 net.cpp:399] inception_4c/output_inception_4c/output_0_split -> inception_4c/output_inception_4c/output_0_split_0
I0403 15:26:54.557859  3099 net.cpp:399] inception_4c/output_inception_4c/output_0_split -> inception_4c/output_inception_4c/output_0_split_1
I0403 15:26:54.557881  3099 net.cpp:399] inception_4c/output_inception_4c/output_0_split -> inception_4c/output_inception_4c/output_0_split_2
I0403 15:26:54.557903  3099 net.cpp:399] inception_4c/output_inception_4c/output_0_split -> inception_4c/output_inception_4c/output_0_split_3
I0403 15:26:54.557991  3099 net.cpp:141] Setting up inception_4c/output_inception_4c/output_0_split
I0403 15:26:54.558014  3099 net.cpp:148] Top shape: 24 512 14 14 (2408448)
I0403 15:26:54.558032  3099 net.cpp:148] Top shape: 24 512 14 14 (2408448)
I0403 15:26:54.558046  3099 net.cpp:148] Top shape: 24 512 14 14 (2408448)
I0403 15:26:54.558063  3099 net.cpp:148] Top shape: 24 512 14 14 (2408448)
I0403 15:26:54.558076  3099 net.cpp:156] Memory required for data: 1111182624
I0403 15:26:54.558090  3099 layer_factory.hpp:77] Creating layer inception_4d/1x1
I0403 15:26:54.558112  3099 net.cpp:91] Creating Layer inception_4d/1x1
I0403 15:26:54.558130  3099 net.cpp:425] inception_4d/1x1 <- inception_4c/output_inception_4c/output_0_split_0
I0403 15:26:54.558152  3099 net.cpp:399] inception_4d/1x1 -> inception_4d/1x1
I0403 15:26:54.559568  3099 net.cpp:141] Setting up inception_4d/1x1
I0403 15:26:54.559597  3099 net.cpp:148] Top shape: 24 112 14 14 (526848)
I0403 15:26:54.559613  3099 net.cpp:156] Memory required for data: 1113290016
I0403 15:26:54.559633  3099 layer_factory.hpp:77] Creating layer inception_4d/relu_1x1
I0403 15:26:54.559653  3099 net.cpp:91] Creating Layer inception_4d/relu_1x1
I0403 15:26:54.559671  3099 net.cpp:425] inception_4d/relu_1x1 <- inception_4d/1x1
I0403 15:26:54.559689  3099 net.cpp:386] inception_4d/relu_1x1 -> inception_4d/1x1 (in-place)
I0403 15:26:54.559875  3099 net.cpp:141] Setting up inception_4d/relu_1x1
I0403 15:26:54.559902  3099 net.cpp:148] Top shape: 24 112 14 14 (526848)
I0403 15:26:54.559918  3099 net.cpp:156] Memory required for data: 1115397408
I0403 15:26:54.559934  3099 layer_factory.hpp:77] Creating layer inception_4d/3x3_reduce
I0403 15:26:54.559970  3099 net.cpp:91] Creating Layer inception_4d/3x3_reduce
I0403 15:26:54.559990  3099 net.cpp:425] inception_4d/3x3_reduce <- inception_4c/output_inception_4c/output_0_split_1
I0403 15:26:54.560010  3099 net.cpp:399] inception_4d/3x3_reduce -> inception_4d/3x3_reduce
I0403 15:26:54.561550  3099 net.cpp:141] Setting up inception_4d/3x3_reduce
I0403 15:26:54.561579  3099 net.cpp:148] Top shape: 24 144 14 14 (677376)
I0403 15:26:54.561596  3099 net.cpp:156] Memory required for data: 1118106912
I0403 15:26:54.561617  3099 layer_factory.hpp:77] Creating layer inception_4d/relu_3x3_reduce
I0403 15:26:54.561638  3099 net.cpp:91] Creating Layer inception_4d/relu_3x3_reduce
I0403 15:26:54.561655  3099 net.cpp:425] inception_4d/relu_3x3_reduce <- inception_4d/3x3_reduce
I0403 15:26:54.561673  3099 net.cpp:386] inception_4d/relu_3x3_reduce -> inception_4d/3x3_reduce (in-place)
I0403 15:26:54.561964  3099 net.cpp:141] Setting up inception_4d/relu_3x3_reduce
I0403 15:26:54.561990  3099 net.cpp:148] Top shape: 24 144 14 14 (677376)
I0403 15:26:54.562005  3099 net.cpp:156] Memory required for data: 1120816416
I0403 15:26:54.562021  3099 layer_factory.hpp:77] Creating layer inception_4d/3x3
I0403 15:26:54.562043  3099 net.cpp:91] Creating Layer inception_4d/3x3
I0403 15:26:54.562062  3099 net.cpp:425] inception_4d/3x3 <- inception_4d/3x3_reduce
I0403 15:26:54.562083  3099 net.cpp:399] inception_4d/3x3 -> inception_4d/3x3
I0403 15:26:54.566398  3099 net.cpp:141] Setting up inception_4d/3x3
I0403 15:26:54.566429  3099 net.cpp:148] Top shape: 24 288 14 14 (1354752)
I0403 15:26:54.566445  3099 net.cpp:156] Memory required for data: 1126235424
I0403 15:26:54.566465  3099 layer_factory.hpp:77] Creating layer inception_4d/relu_3x3
I0403 15:26:54.566488  3099 net.cpp:91] Creating Layer inception_4d/relu_3x3
I0403 15:26:54.566507  3099 net.cpp:425] inception_4d/relu_3x3 <- inception_4d/3x3
I0403 15:26:54.566525  3099 net.cpp:386] inception_4d/relu_3x3 -> inception_4d/3x3 (in-place)
I0403 15:26:54.566720  3099 net.cpp:141] Setting up inception_4d/relu_3x3
I0403 15:26:54.566746  3099 net.cpp:148] Top shape: 24 288 14 14 (1354752)
I0403 15:26:54.566761  3099 net.cpp:156] Memory required for data: 1131654432
I0403 15:26:54.566776  3099 layer_factory.hpp:77] Creating layer inception_4d/5x5_reduce
I0403 15:26:54.566799  3099 net.cpp:91] Creating Layer inception_4d/5x5_reduce
I0403 15:26:54.566817  3099 net.cpp:425] inception_4d/5x5_reduce <- inception_4c/output_inception_4c/output_0_split_2
I0403 15:26:54.566835  3099 net.cpp:399] inception_4d/5x5_reduce -> inception_4d/5x5_reduce
I0403 15:26:54.568004  3099 net.cpp:141] Setting up inception_4d/5x5_reduce
I0403 15:26:54.568033  3099 net.cpp:148] Top shape: 24 32 14 14 (150528)
I0403 15:26:54.568049  3099 net.cpp:156] Memory required for data: 1132256544
I0403 15:26:54.568068  3099 layer_factory.hpp:77] Creating layer inception_4d/relu_5x5_reduce
I0403 15:26:54.568089  3099 net.cpp:91] Creating Layer inception_4d/relu_5x5_reduce
I0403 15:26:54.568105  3099 net.cpp:425] inception_4d/relu_5x5_reduce <- inception_4d/5x5_reduce
I0403 15:26:54.568123  3099 net.cpp:386] inception_4d/relu_5x5_reduce -> inception_4d/5x5_reduce (in-place)
I0403 15:26:54.568336  3099 net.cpp:141] Setting up inception_4d/relu_5x5_reduce
I0403 15:26:54.568364  3099 net.cpp:148] Top shape: 24 32 14 14 (150528)
I0403 15:26:54.568382  3099 net.cpp:156] Memory required for data: 1132858656
I0403 15:26:54.568397  3099 layer_factory.hpp:77] Creating layer inception_4d/5x5
I0403 15:26:54.568419  3099 net.cpp:91] Creating Layer inception_4d/5x5
I0403 15:26:54.568439  3099 net.cpp:425] inception_4d/5x5 <- inception_4d/5x5_reduce
I0403 15:26:54.568470  3099 net.cpp:399] inception_4d/5x5 -> inception_4d/5x5
I0403 15:26:54.569962  3099 net.cpp:141] Setting up inception_4d/5x5
I0403 15:26:54.569990  3099 net.cpp:148] Top shape: 24 64 14 14 (301056)
I0403 15:26:54.570006  3099 net.cpp:156] Memory required for data: 1134062880
I0403 15:26:54.570026  3099 layer_factory.hpp:77] Creating layer inception_4d/relu_5x5
I0403 15:26:54.570061  3099 net.cpp:91] Creating Layer inception_4d/relu_5x5
I0403 15:26:54.570080  3099 net.cpp:425] inception_4d/relu_5x5 <- inception_4d/5x5
I0403 15:26:54.570099  3099 net.cpp:386] inception_4d/relu_5x5 -> inception_4d/5x5 (in-place)
I0403 15:26:54.570412  3099 net.cpp:141] Setting up inception_4d/relu_5x5
I0403 15:26:54.570439  3099 net.cpp:148] Top shape: 24 64 14 14 (301056)
I0403 15:26:54.570454  3099 net.cpp:156] Memory required for data: 1135267104
I0403 15:26:54.570469  3099 layer_factory.hpp:77] Creating layer inception_4d/pool
I0403 15:26:54.570487  3099 net.cpp:91] Creating Layer inception_4d/pool
I0403 15:26:54.570503  3099 net.cpp:425] inception_4d/pool <- inception_4c/output_inception_4c/output_0_split_3
I0403 15:26:54.570523  3099 net.cpp:399] inception_4d/pool -> inception_4d/pool
I0403 15:26:54.570591  3099 net.cpp:141] Setting up inception_4d/pool
I0403 15:26:54.570614  3099 net.cpp:148] Top shape: 24 512 14 14 (2408448)
I0403 15:26:54.570631  3099 net.cpp:156] Memory required for data: 1144900896
I0403 15:26:54.570644  3099 layer_factory.hpp:77] Creating layer inception_4d/pool_proj
I0403 15:26:54.570668  3099 net.cpp:91] Creating Layer inception_4d/pool_proj
I0403 15:26:54.570685  3099 net.cpp:425] inception_4d/pool_proj <- inception_4d/pool
I0403 15:26:54.570704  3099 net.cpp:399] inception_4d/pool_proj -> inception_4d/pool_proj
I0403 15:26:54.572497  3099 net.cpp:141] Setting up inception_4d/pool_proj
I0403 15:26:54.572528  3099 net.cpp:148] Top shape: 24 64 14 14 (301056)
I0403 15:26:54.572546  3099 net.cpp:156] Memory required for data: 1146105120
I0403 15:26:54.572564  3099 layer_factory.hpp:77] Creating layer inception_4d/relu_pool_proj
I0403 15:26:54.572584  3099 net.cpp:91] Creating Layer inception_4d/relu_pool_proj
I0403 15:26:54.572602  3099 net.cpp:425] inception_4d/relu_pool_proj <- inception_4d/pool_proj
I0403 15:26:54.572618  3099 net.cpp:386] inception_4d/relu_pool_proj -> inception_4d/pool_proj (in-place)
I0403 15:26:54.572805  3099 net.cpp:141] Setting up inception_4d/relu_pool_proj
I0403 15:26:54.572834  3099 net.cpp:148] Top shape: 24 64 14 14 (301056)
I0403 15:26:54.572850  3099 net.cpp:156] Memory required for data: 1147309344
I0403 15:26:54.572865  3099 layer_factory.hpp:77] Creating layer inception_4d/output
I0403 15:26:54.572883  3099 net.cpp:91] Creating Layer inception_4d/output
I0403 15:26:54.572898  3099 net.cpp:425] inception_4d/output <- inception_4d/1x1
I0403 15:26:54.572916  3099 net.cpp:425] inception_4d/output <- inception_4d/3x3
I0403 15:26:54.572932  3099 net.cpp:425] inception_4d/output <- inception_4d/5x5
I0403 15:26:54.572948  3099 net.cpp:425] inception_4d/output <- inception_4d/pool_proj
I0403 15:26:54.572968  3099 net.cpp:399] inception_4d/output -> inception_4d/output
I0403 15:26:54.573015  3099 net.cpp:141] Setting up inception_4d/output
I0403 15:26:54.573038  3099 net.cpp:148] Top shape: 24 528 14 14 (2483712)
I0403 15:26:54.573052  3099 net.cpp:156] Memory required for data: 1157244192
I0403 15:26:54.573067  3099 layer_factory.hpp:77] Creating layer inception_4d/output_inception_4d/output_0_split
I0403 15:26:54.573087  3099 net.cpp:91] Creating Layer inception_4d/output_inception_4d/output_0_split
I0403 15:26:54.573103  3099 net.cpp:425] inception_4d/output_inception_4d/output_0_split <- inception_4d/output
I0403 15:26:54.573122  3099 net.cpp:399] inception_4d/output_inception_4d/output_0_split -> inception_4d/output_inception_4d/output_0_split_0
I0403 15:26:54.573143  3099 net.cpp:399] inception_4d/output_inception_4d/output_0_split -> inception_4d/output_inception_4d/output_0_split_1
I0403 15:26:54.573168  3099 net.cpp:399] inception_4d/output_inception_4d/output_0_split -> inception_4d/output_inception_4d/output_0_split_2
I0403 15:26:54.573189  3099 net.cpp:399] inception_4d/output_inception_4d/output_0_split -> inception_4d/output_inception_4d/output_0_split_3
I0403 15:26:54.573217  3099 net.cpp:399] inception_4d/output_inception_4d/output_0_split -> inception_4d/output_inception_4d/output_0_split_4
I0403 15:26:54.573330  3099 net.cpp:141] Setting up inception_4d/output_inception_4d/output_0_split
I0403 15:26:54.573366  3099 net.cpp:148] Top shape: 24 528 14 14 (2483712)
I0403 15:26:54.573384  3099 net.cpp:148] Top shape: 24 528 14 14 (2483712)
I0403 15:26:54.573398  3099 net.cpp:148] Top shape: 24 528 14 14 (2483712)
I0403 15:26:54.573415  3099 net.cpp:148] Top shape: 24 528 14 14 (2483712)
I0403 15:26:54.573431  3099 net.cpp:148] Top shape: 24 528 14 14 (2483712)
I0403 15:26:54.573444  3099 net.cpp:156] Memory required for data: 1206918432
I0403 15:26:54.573459  3099 layer_factory.hpp:77] Creating layer loss2/ave_pool
I0403 15:26:54.573479  3099 net.cpp:91] Creating Layer loss2/ave_pool
I0403 15:26:54.573498  3099 net.cpp:425] loss2/ave_pool <- inception_4d/output_inception_4d/output_0_split_0
I0403 15:26:54.573515  3099 net.cpp:399] loss2/ave_pool -> loss2/ave_pool
I0403 15:26:54.573827  3099 net.cpp:141] Setting up loss2/ave_pool
I0403 15:26:54.573853  3099 net.cpp:148] Top shape: 24 528 4 4 (202752)
I0403 15:26:54.573869  3099 net.cpp:156] Memory required for data: 1207729440
I0403 15:26:54.573884  3099 layer_factory.hpp:77] Creating layer loss2/conv
I0403 15:26:54.573920  3099 net.cpp:91] Creating Layer loss2/conv
I0403 15:26:54.573937  3099 net.cpp:425] loss2/conv <- loss2/ave_pool
I0403 15:26:54.573959  3099 net.cpp:399] loss2/conv -> loss2/conv
I0403 15:26:54.575901  3099 net.cpp:141] Setting up loss2/conv
I0403 15:26:54.575932  3099 net.cpp:148] Top shape: 24 128 4 4 (49152)
I0403 15:26:54.575952  3099 net.cpp:156] Memory required for data: 1207926048
I0403 15:26:54.575970  3099 layer_factory.hpp:77] Creating layer loss2/relu_conv
I0403 15:26:54.575990  3099 net.cpp:91] Creating Layer loss2/relu_conv
I0403 15:26:54.576007  3099 net.cpp:425] loss2/relu_conv <- loss2/conv
I0403 15:26:54.576028  3099 net.cpp:386] loss2/relu_conv -> loss2/conv (in-place)
I0403 15:26:54.576326  3099 net.cpp:141] Setting up loss2/relu_conv
I0403 15:26:54.576354  3099 net.cpp:148] Top shape: 24 128 4 4 (49152)
I0403 15:26:54.576370  3099 net.cpp:156] Memory required for data: 1208122656
I0403 15:26:54.576386  3099 layer_factory.hpp:77] Creating layer loss2/fc
I0403 15:26:54.576406  3099 net.cpp:91] Creating Layer loss2/fc
I0403 15:26:54.576422  3099 net.cpp:425] loss2/fc <- loss2/conv
I0403 15:26:54.576444  3099 net.cpp:399] loss2/fc -> loss2/fc
I0403 15:26:54.594563  3099 net.cpp:141] Setting up loss2/fc
I0403 15:26:54.594595  3099 net.cpp:148] Top shape: 24 1024 (24576)
I0403 15:26:54.594614  3099 net.cpp:156] Memory required for data: 1208220960
I0403 15:26:54.594633  3099 layer_factory.hpp:77] Creating layer loss2/relu_fc
I0403 15:26:54.594655  3099 net.cpp:91] Creating Layer loss2/relu_fc
I0403 15:26:54.594673  3099 net.cpp:425] loss2/relu_fc <- loss2/fc
I0403 15:26:54.594691  3099 net.cpp:386] loss2/relu_fc -> loss2/fc (in-place)
I0403 15:26:54.595008  3099 net.cpp:141] Setting up loss2/relu_fc
I0403 15:26:54.595036  3099 net.cpp:148] Top shape: 24 1024 (24576)
I0403 15:26:54.595052  3099 net.cpp:156] Memory required for data: 1208319264
I0403 15:26:54.595067  3099 layer_factory.hpp:77] Creating layer loss2/drop_fc
I0403 15:26:54.595088  3099 net.cpp:91] Creating Layer loss2/drop_fc
I0403 15:26:54.595105  3099 net.cpp:425] loss2/drop_fc <- loss2/fc
I0403 15:26:54.595124  3099 net.cpp:386] loss2/drop_fc -> loss2/fc (in-place)
I0403 15:26:54.595177  3099 net.cpp:141] Setting up loss2/drop_fc
I0403 15:26:54.595201  3099 net.cpp:148] Top shape: 24 1024 (24576)
I0403 15:26:54.595223  3099 net.cpp:156] Memory required for data: 1208417568
I0403 15:26:54.595239  3099 layer_factory.hpp:77] Creating layer loss2/classifier_plantvillage
I0403 15:26:54.595273  3099 net.cpp:91] Creating Layer loss2/classifier_plantvillage
I0403 15:26:54.595290  3099 net.cpp:425] loss2/classifier_plantvillage <- loss2/fc
I0403 15:26:54.595309  3099 net.cpp:399] loss2/classifier_plantvillage -> loss2/classifier_plantvillage
I0403 15:26:54.595732  3099 net.cpp:141] Setting up loss2/classifier_plantvillage
I0403 15:26:54.595758  3099 net.cpp:148] Top shape: 24 38 (912)
I0403 15:26:54.595789  3099 net.cpp:156] Memory required for data: 1208421216
I0403 15:26:54.595809  3099 layer_factory.hpp:77] Creating layer loss2/classifier_plantvillage_loss2/classifier_plantvillage_0_split
I0403 15:26:54.595827  3099 net.cpp:91] Creating Layer loss2/classifier_plantvillage_loss2/classifier_plantvillage_0_split
I0403 15:26:54.595844  3099 net.cpp:425] loss2/classifier_plantvillage_loss2/classifier_plantvillage_0_split <- loss2/classifier_plantvillage
I0403 15:26:54.595865  3099 net.cpp:399] loss2/classifier_plantvillage_loss2/classifier_plantvillage_0_split -> loss2/classifier_plantvillage_loss2/classifier_plantvillage_0_split_0
I0403 15:26:54.595886  3099 net.cpp:399] loss2/classifier_plantvillage_loss2/classifier_plantvillage_0_split -> loss2/classifier_plantvillage_loss2/classifier_plantvillage_0_split_1
I0403 15:26:54.595908  3099 net.cpp:399] loss2/classifier_plantvillage_loss2/classifier_plantvillage_0_split -> loss2/classifier_plantvillage_loss2/classifier_plantvillage_0_split_2
I0403 15:26:54.595991  3099 net.cpp:141] Setting up loss2/classifier_plantvillage_loss2/classifier_plantvillage_0_split
I0403 15:26:54.596019  3099 net.cpp:148] Top shape: 24 38 (912)
I0403 15:26:54.596035  3099 net.cpp:148] Top shape: 24 38 (912)
I0403 15:26:54.596051  3099 net.cpp:148] Top shape: 24 38 (912)
I0403 15:26:54.596065  3099 net.cpp:156] Memory required for data: 1208432160
I0403 15:26:54.596081  3099 layer_factory.hpp:77] Creating layer inception_4e/1x1
I0403 15:26:54.596101  3099 net.cpp:91] Creating Layer inception_4e/1x1
I0403 15:26:54.596118  3099 net.cpp:425] inception_4e/1x1 <- inception_4d/output_inception_4d/output_0_split_1
I0403 15:26:54.596138  3099 net.cpp:399] inception_4e/1x1 -> inception_4e/1x1
I0403 15:26:54.598038  3099 net.cpp:141] Setting up inception_4e/1x1
I0403 15:26:54.598068  3099 net.cpp:148] Top shape: 24 256 14 14 (1204224)
I0403 15:26:54.598086  3099 net.cpp:156] Memory required for data: 1213249056
I0403 15:26:54.598105  3099 layer_factory.hpp:77] Creating layer inception_4e/relu_1x1
I0403 15:26:54.598124  3099 net.cpp:91] Creating Layer inception_4e/relu_1x1
I0403 15:26:54.598141  3099 net.cpp:425] inception_4e/relu_1x1 <- inception_4e/1x1
I0403 15:26:54.598162  3099 net.cpp:386] inception_4e/relu_1x1 -> inception_4e/1x1 (in-place)
I0403 15:26:54.598476  3099 net.cpp:141] Setting up inception_4e/relu_1x1
I0403 15:26:54.598505  3099 net.cpp:148] Top shape: 24 256 14 14 (1204224)
I0403 15:26:54.598520  3099 net.cpp:156] Memory required for data: 1218065952
I0403 15:26:54.598543  3099 layer_factory.hpp:77] Creating layer inception_4e/3x3_reduce
I0403 15:26:54.598567  3099 net.cpp:91] Creating Layer inception_4e/3x3_reduce
I0403 15:26:54.598587  3099 net.cpp:425] inception_4e/3x3_reduce <- inception_4d/output_inception_4d/output_0_split_2
I0403 15:26:54.598609  3099 net.cpp:399] inception_4e/3x3_reduce -> inception_4e/3x3_reduce
I0403 15:26:54.600814  3099 net.cpp:141] Setting up inception_4e/3x3_reduce
I0403 15:26:54.600848  3099 net.cpp:148] Top shape: 24 160 14 14 (752640)
I0403 15:26:54.600867  3099 net.cpp:156] Memory required for data: 1221076512
I0403 15:26:54.600886  3099 layer_factory.hpp:77] Creating layer inception_4e/relu_3x3_reduce
I0403 15:26:54.600906  3099 net.cpp:91] Creating Layer inception_4e/relu_3x3_reduce
I0403 15:26:54.600924  3099 net.cpp:425] inception_4e/relu_3x3_reduce <- inception_4e/3x3_reduce
I0403 15:26:54.600946  3099 net.cpp:386] inception_4e/relu_3x3_reduce -> inception_4e/3x3_reduce (in-place)
I0403 15:26:54.601141  3099 net.cpp:141] Setting up inception_4e/relu_3x3_reduce
I0403 15:26:54.601168  3099 net.cpp:148] Top shape: 24 160 14 14 (752640)
I0403 15:26:54.601184  3099 net.cpp:156] Memory required for data: 1224087072
I0403 15:26:54.601200  3099 layer_factory.hpp:77] Creating layer inception_4e/3x3
I0403 15:26:54.601232  3099 net.cpp:91] Creating Layer inception_4e/3x3
I0403 15:26:54.601261  3099 net.cpp:425] inception_4e/3x3 <- inception_4e/3x3_reduce
I0403 15:26:54.601285  3099 net.cpp:399] inception_4e/3x3 -> inception_4e/3x3
I0403 15:26:54.606492  3099 net.cpp:141] Setting up inception_4e/3x3
I0403 15:26:54.606539  3099 net.cpp:148] Top shape: 24 320 14 14 (1505280)
I0403 15:26:54.606556  3099 net.cpp:156] Memory required for data: 1230108192
I0403 15:26:54.606576  3099 layer_factory.hpp:77] Creating layer inception_4e/relu_3x3
I0403 15:26:54.606597  3099 net.cpp:91] Creating Layer inception_4e/relu_3x3
I0403 15:26:54.606616  3099 net.cpp:425] inception_4e/relu_3x3 <- inception_4e/3x3
I0403 15:26:54.606637  3099 net.cpp:386] inception_4e/relu_3x3 -> inception_4e/3x3 (in-place)
I0403 15:26:54.606952  3099 net.cpp:141] Setting up inception_4e/relu_3x3
I0403 15:26:54.606979  3099 net.cpp:148] Top shape: 24 320 14 14 (1505280)
I0403 15:26:54.606995  3099 net.cpp:156] Memory required for data: 1236129312
I0403 15:26:54.607010  3099 layer_factory.hpp:77] Creating layer inception_4e/5x5_reduce
I0403 15:26:54.607036  3099 net.cpp:91] Creating Layer inception_4e/5x5_reduce
I0403 15:26:54.607054  3099 net.cpp:425] inception_4e/5x5_reduce <- inception_4d/output_inception_4d/output_0_split_3
I0403 15:26:54.607079  3099 net.cpp:399] inception_4e/5x5_reduce -> inception_4e/5x5_reduce
I0403 15:26:54.608202  3099 net.cpp:141] Setting up inception_4e/5x5_reduce
I0403 15:26:54.608238  3099 net.cpp:148] Top shape: 24 32 14 14 (150528)
I0403 15:26:54.608255  3099 net.cpp:156] Memory required for data: 1236731424
I0403 15:26:54.608275  3099 layer_factory.hpp:77] Creating layer inception_4e/relu_5x5_reduce
I0403 15:26:54.608295  3099 net.cpp:91] Creating Layer inception_4e/relu_5x5_reduce
I0403 15:26:54.608312  3099 net.cpp:425] inception_4e/relu_5x5_reduce <- inception_4e/5x5_reduce
I0403 15:26:54.608335  3099 net.cpp:386] inception_4e/relu_5x5_reduce -> inception_4e/5x5_reduce (in-place)
I0403 15:26:54.608640  3099 net.cpp:141] Setting up inception_4e/relu_5x5_reduce
I0403 15:26:54.608669  3099 net.cpp:148] Top shape: 24 32 14 14 (150528)
I0403 15:26:54.608685  3099 net.cpp:156] Memory required for data: 1237333536
I0403 15:26:54.608701  3099 layer_factory.hpp:77] Creating layer inception_4e/5x5
I0403 15:26:54.608741  3099 net.cpp:91] Creating Layer inception_4e/5x5
I0403 15:26:54.608762  3099 net.cpp:425] inception_4e/5x5 <- inception_4e/5x5_reduce
I0403 15:26:54.608783  3099 net.cpp:399] inception_4e/5x5 -> inception_4e/5x5
I0403 15:26:54.610697  3099 net.cpp:141] Setting up inception_4e/5x5
I0403 15:26:54.610729  3099 net.cpp:148] Top shape: 24 128 14 14 (602112)
I0403 15:26:54.610749  3099 net.cpp:156] Memory required for data: 1239741984
I0403 15:26:54.610767  3099 layer_factory.hpp:77] Creating layer inception_4e/relu_5x5
I0403 15:26:54.610786  3099 net.cpp:91] Creating Layer inception_4e/relu_5x5
I0403 15:26:54.610803  3099 net.cpp:425] inception_4e/relu_5x5 <- inception_4e/5x5
I0403 15:26:54.610821  3099 net.cpp:386] inception_4e/relu_5x5 -> inception_4e/5x5 (in-place)
I0403 15:26:54.611030  3099 net.cpp:141] Setting up inception_4e/relu_5x5
I0403 15:26:54.611058  3099 net.cpp:148] Top shape: 24 128 14 14 (602112)
I0403 15:26:54.611074  3099 net.cpp:156] Memory required for data: 1242150432
I0403 15:26:54.611090  3099 layer_factory.hpp:77] Creating layer inception_4e/pool
I0403 15:26:54.611109  3099 net.cpp:91] Creating Layer inception_4e/pool
I0403 15:26:54.611126  3099 net.cpp:425] inception_4e/pool <- inception_4d/output_inception_4d/output_0_split_4
I0403 15:26:54.611148  3099 net.cpp:399] inception_4e/pool -> inception_4e/pool
I0403 15:26:54.611227  3099 net.cpp:141] Setting up inception_4e/pool
I0403 15:26:54.611265  3099 net.cpp:148] Top shape: 24 528 14 14 (2483712)
I0403 15:26:54.611282  3099 net.cpp:156] Memory required for data: 1252085280
I0403 15:26:54.611297  3099 layer_factory.hpp:77] Creating layer inception_4e/pool_proj
I0403 15:26:54.611320  3099 net.cpp:91] Creating Layer inception_4e/pool_proj
I0403 15:26:54.611338  3099 net.cpp:425] inception_4e/pool_proj <- inception_4e/pool
I0403 15:26:54.611358  3099 net.cpp:399] inception_4e/pool_proj -> inception_4e/pool_proj
I0403 15:26:54.612918  3099 net.cpp:141] Setting up inception_4e/pool_proj
I0403 15:26:54.612960  3099 net.cpp:148] Top shape: 24 128 14 14 (602112)
I0403 15:26:54.612983  3099 net.cpp:156] Memory required for data: 1254493728
I0403 15:26:54.613004  3099 layer_factory.hpp:77] Creating layer inception_4e/relu_pool_proj
I0403 15:26:54.613028  3099 net.cpp:91] Creating Layer inception_4e/relu_pool_proj
I0403 15:26:54.613045  3099 net.cpp:425] inception_4e/relu_pool_proj <- inception_4e/pool_proj
I0403 15:26:54.613065  3099 net.cpp:386] inception_4e/relu_pool_proj -> inception_4e/pool_proj (in-place)
I0403 15:26:54.613373  3099 net.cpp:141] Setting up inception_4e/relu_pool_proj
I0403 15:26:54.613401  3099 net.cpp:148] Top shape: 24 128 14 14 (602112)
I0403 15:26:54.613417  3099 net.cpp:156] Memory required for data: 1256902176
I0403 15:26:54.613432  3099 layer_factory.hpp:77] Creating layer inception_4e/output
I0403 15:26:54.613453  3099 net.cpp:91] Creating Layer inception_4e/output
I0403 15:26:54.613471  3099 net.cpp:425] inception_4e/output <- inception_4e/1x1
I0403 15:26:54.613488  3099 net.cpp:425] inception_4e/output <- inception_4e/3x3
I0403 15:26:54.613505  3099 net.cpp:425] inception_4e/output <- inception_4e/5x5
I0403 15:26:54.613523  3099 net.cpp:425] inception_4e/output <- inception_4e/pool_proj
I0403 15:26:54.613540  3099 net.cpp:399] inception_4e/output -> inception_4e/output
I0403 15:26:54.613593  3099 net.cpp:141] Setting up inception_4e/output
I0403 15:26:54.613618  3099 net.cpp:148] Top shape: 24 832 14 14 (3913728)
I0403 15:26:54.613634  3099 net.cpp:156] Memory required for data: 1272557088
I0403 15:26:54.613649  3099 layer_factory.hpp:77] Creating layer pool4/3x3_s2
I0403 15:26:54.613667  3099 net.cpp:91] Creating Layer pool4/3x3_s2
I0403 15:26:54.613687  3099 net.cpp:425] pool4/3x3_s2 <- inception_4e/output
I0403 15:26:54.613706  3099 net.cpp:399] pool4/3x3_s2 -> pool4/3x3_s2
I0403 15:26:54.613776  3099 net.cpp:141] Setting up pool4/3x3_s2
I0403 15:26:54.613801  3099 net.cpp:148] Top shape: 24 832 7 7 (978432)
I0403 15:26:54.613816  3099 net.cpp:156] Memory required for data: 1276470816
I0403 15:26:54.613831  3099 layer_factory.hpp:77] Creating layer pool4/3x3_s2_pool4/3x3_s2_0_split
I0403 15:26:54.613849  3099 net.cpp:91] Creating Layer pool4/3x3_s2_pool4/3x3_s2_0_split
I0403 15:26:54.613865  3099 net.cpp:425] pool4/3x3_s2_pool4/3x3_s2_0_split <- pool4/3x3_s2
I0403 15:26:54.613885  3099 net.cpp:399] pool4/3x3_s2_pool4/3x3_s2_0_split -> pool4/3x3_s2_pool4/3x3_s2_0_split_0
I0403 15:26:54.613906  3099 net.cpp:399] pool4/3x3_s2_pool4/3x3_s2_0_split -> pool4/3x3_s2_pool4/3x3_s2_0_split_1
I0403 15:26:54.613927  3099 net.cpp:399] pool4/3x3_s2_pool4/3x3_s2_0_split -> pool4/3x3_s2_pool4/3x3_s2_0_split_2
I0403 15:26:54.613950  3099 net.cpp:399] pool4/3x3_s2_pool4/3x3_s2_0_split -> pool4/3x3_s2_pool4/3x3_s2_0_split_3
I0403 15:26:54.614044  3099 net.cpp:141] Setting up pool4/3x3_s2_pool4/3x3_s2_0_split
I0403 15:26:54.614068  3099 net.cpp:148] Top shape: 24 832 7 7 (978432)
I0403 15:26:54.614084  3099 net.cpp:148] Top shape: 24 832 7 7 (978432)
I0403 15:26:54.614100  3099 net.cpp:148] Top shape: 24 832 7 7 (978432)
I0403 15:26:54.614117  3099 net.cpp:148] Top shape: 24 832 7 7 (978432)
I0403 15:26:54.614131  3099 net.cpp:156] Memory required for data: 1292125728
I0403 15:26:54.614146  3099 layer_factory.hpp:77] Creating layer inception_5a/1x1
I0403 15:26:54.614171  3099 net.cpp:91] Creating Layer inception_5a/1x1
I0403 15:26:54.614188  3099 net.cpp:425] inception_5a/1x1 <- pool4/3x3_s2_pool4/3x3_s2_0_split_0
I0403 15:26:54.614212  3099 net.cpp:399] inception_5a/1x1 -> inception_5a/1x1
I0403 15:26:54.617171  3099 net.cpp:141] Setting up inception_5a/1x1
I0403 15:26:54.617204  3099 net.cpp:148] Top shape: 24 256 7 7 (301056)
I0403 15:26:54.617228  3099 net.cpp:156] Memory required for data: 1293329952
I0403 15:26:54.617249  3099 layer_factory.hpp:77] Creating layer inception_5a/relu_1x1
I0403 15:26:54.617269  3099 net.cpp:91] Creating Layer inception_5a/relu_1x1
I0403 15:26:54.617287  3099 net.cpp:425] inception_5a/relu_1x1 <- inception_5a/1x1
I0403 15:26:54.617308  3099 net.cpp:386] inception_5a/relu_1x1 -> inception_5a/1x1 (in-place)
I0403 15:26:54.617626  3099 net.cpp:141] Setting up inception_5a/relu_1x1
I0403 15:26:54.617656  3099 net.cpp:148] Top shape: 24 256 7 7 (301056)
I0403 15:26:54.617672  3099 net.cpp:156] Memory required for data: 1294534176
I0403 15:26:54.617687  3099 layer_factory.hpp:77] Creating layer inception_5a/3x3_reduce
I0403 15:26:54.617710  3099 net.cpp:91] Creating Layer inception_5a/3x3_reduce
I0403 15:26:54.617728  3099 net.cpp:425] inception_5a/3x3_reduce <- pool4/3x3_s2_pool4/3x3_s2_0_split_1
I0403 15:26:54.617748  3099 net.cpp:399] inception_5a/3x3_reduce -> inception_5a/3x3_reduce
I0403 15:26:54.620323  3099 net.cpp:141] Setting up inception_5a/3x3_reduce
I0403 15:26:54.620355  3099 net.cpp:148] Top shape: 24 160 7 7 (188160)
I0403 15:26:54.620373  3099 net.cpp:156] Memory required for data: 1295286816
I0403 15:26:54.620393  3099 layer_factory.hpp:77] Creating layer inception_5a/relu_3x3_reduce
I0403 15:26:54.620414  3099 net.cpp:91] Creating Layer inception_5a/relu_3x3_reduce
I0403 15:26:54.620434  3099 net.cpp:425] inception_5a/relu_3x3_reduce <- inception_5a/3x3_reduce
I0403 15:26:54.620455  3099 net.cpp:386] inception_5a/relu_3x3_reduce -> inception_5a/3x3_reduce (in-place)
I0403 15:26:54.620654  3099 net.cpp:141] Setting up inception_5a/relu_3x3_reduce
I0403 15:26:54.620684  3099 net.cpp:148] Top shape: 24 160 7 7 (188160)
I0403 15:26:54.620702  3099 net.cpp:156] Memory required for data: 1296039456
I0403 15:26:54.620718  3099 layer_factory.hpp:77] Creating layer inception_5a/3x3
I0403 15:26:54.620743  3099 net.cpp:91] Creating Layer inception_5a/3x3
I0403 15:26:54.620761  3099 net.cpp:425] inception_5a/3x3 <- inception_5a/3x3_reduce
I0403 15:26:54.620782  3099 net.cpp:399] inception_5a/3x3 -> inception_5a/3x3
I0403 15:26:54.626001  3099 net.cpp:141] Setting up inception_5a/3x3
I0403 15:26:54.626035  3099 net.cpp:148] Top shape: 24 320 7 7 (376320)
I0403 15:26:54.626054  3099 net.cpp:156] Memory required for data: 1297544736
I0403 15:26:54.626073  3099 layer_factory.hpp:77] Creating layer inception_5a/relu_3x3
I0403 15:26:54.626092  3099 net.cpp:91] Creating Layer inception_5a/relu_3x3
I0403 15:26:54.626111  3099 net.cpp:425] inception_5a/relu_3x3 <- inception_5a/3x3
I0403 15:26:54.626128  3099 net.cpp:386] inception_5a/relu_3x3 -> inception_5a/3x3 (in-place)
I0403 15:26:54.626446  3099 net.cpp:141] Setting up inception_5a/relu_3x3
I0403 15:26:54.626477  3099 net.cpp:148] Top shape: 24 320 7 7 (376320)
I0403 15:26:54.626494  3099 net.cpp:156] Memory required for data: 1299050016
I0403 15:26:54.626510  3099 layer_factory.hpp:77] Creating layer inception_5a/5x5_reduce
I0403 15:26:54.626535  3099 net.cpp:91] Creating Layer inception_5a/5x5_reduce
I0403 15:26:54.626554  3099 net.cpp:425] inception_5a/5x5_reduce <- pool4/3x3_s2_pool4/3x3_s2_0_split_2
I0403 15:26:54.626575  3099 net.cpp:399] inception_5a/5x5_reduce -> inception_5a/5x5_reduce
I0403 15:26:54.627799  3099 net.cpp:141] Setting up inception_5a/5x5_reduce
I0403 15:26:54.627835  3099 net.cpp:148] Top shape: 24 32 7 7 (37632)
I0403 15:26:54.627853  3099 net.cpp:156] Memory required for data: 1299200544
I0403 15:26:54.627873  3099 layer_factory.hpp:77] Creating layer inception_5a/relu_5x5_reduce
I0403 15:26:54.627893  3099 net.cpp:91] Creating Layer inception_5a/relu_5x5_reduce
I0403 15:26:54.627912  3099 net.cpp:425] inception_5a/relu_5x5_reduce <- inception_5a/5x5_reduce
I0403 15:26:54.627933  3099 net.cpp:386] inception_5a/relu_5x5_reduce -> inception_5a/5x5_reduce (in-place)
I0403 15:26:54.628248  3099 net.cpp:141] Setting up inception_5a/relu_5x5_reduce
I0403 15:26:54.628279  3099 net.cpp:148] Top shape: 24 32 7 7 (37632)
I0403 15:26:54.628295  3099 net.cpp:156] Memory required for data: 1299351072
I0403 15:26:54.628312  3099 layer_factory.hpp:77] Creating layer inception_5a/5x5
I0403 15:26:54.628336  3099 net.cpp:91] Creating Layer inception_5a/5x5
I0403 15:26:54.628355  3099 net.cpp:425] inception_5a/5x5 <- inception_5a/5x5_reduce
I0403 15:26:54.628376  3099 net.cpp:399] inception_5a/5x5 -> inception_5a/5x5
I0403 15:26:54.630161  3099 net.cpp:141] Setting up inception_5a/5x5
I0403 15:26:54.630204  3099 net.cpp:148] Top shape: 24 128 7 7 (150528)
I0403 15:26:54.630231  3099 net.cpp:156] Memory required for data: 1299953184
I0403 15:26:54.630251  3099 layer_factory.hpp:77] Creating layer inception_5a/relu_5x5
I0403 15:26:54.630272  3099 net.cpp:91] Creating Layer inception_5a/relu_5x5
I0403 15:26:54.630291  3099 net.cpp:425] inception_5a/relu_5x5 <- inception_5a/5x5
I0403 15:26:54.630309  3099 net.cpp:386] inception_5a/relu_5x5 -> inception_5a/5x5 (in-place)
I0403 15:26:54.630514  3099 net.cpp:141] Setting up inception_5a/relu_5x5
I0403 15:26:54.630548  3099 net.cpp:148] Top shape: 24 128 7 7 (150528)
I0403 15:26:54.630563  3099 net.cpp:156] Memory required for data: 1300555296
I0403 15:26:54.630579  3099 layer_factory.hpp:77] Creating layer inception_5a/pool
I0403 15:26:54.630597  3099 net.cpp:91] Creating Layer inception_5a/pool
I0403 15:26:54.630614  3099 net.cpp:425] inception_5a/pool <- pool4/3x3_s2_pool4/3x3_s2_0_split_3
I0403 15:26:54.630635  3099 net.cpp:399] inception_5a/pool -> inception_5a/pool
I0403 15:26:54.630708  3099 net.cpp:141] Setting up inception_5a/pool
I0403 15:26:54.630735  3099 net.cpp:148] Top shape: 24 832 7 7 (978432)
I0403 15:26:54.630751  3099 net.cpp:156] Memory required for data: 1304469024
I0403 15:26:54.630766  3099 layer_factory.hpp:77] Creating layer inception_5a/pool_proj
I0403 15:26:54.630789  3099 net.cpp:91] Creating Layer inception_5a/pool_proj
I0403 15:26:54.630807  3099 net.cpp:425] inception_5a/pool_proj <- inception_5a/pool
I0403 15:26:54.630826  3099 net.cpp:399] inception_5a/pool_proj -> inception_5a/pool_proj
I0403 15:26:54.633227  3099 net.cpp:141] Setting up inception_5a/pool_proj
I0403 15:26:54.633270  3099 net.cpp:148] Top shape: 24 128 7 7 (150528)
I0403 15:26:54.633287  3099 net.cpp:156] Memory required for data: 1305071136
I0403 15:26:54.633307  3099 layer_factory.hpp:77] Creating layer inception_5a/relu_pool_proj
I0403 15:26:54.633332  3099 net.cpp:91] Creating Layer inception_5a/relu_pool_proj
I0403 15:26:54.633360  3099 net.cpp:425] inception_5a/relu_pool_proj <- inception_5a/pool_proj
I0403 15:26:54.633379  3099 net.cpp:386] inception_5a/relu_pool_proj -> inception_5a/pool_proj (in-place)
I0403 15:26:54.633680  3099 net.cpp:141] Setting up inception_5a/relu_pool_proj
I0403 15:26:54.633708  3099 net.cpp:148] Top shape: 24 128 7 7 (150528)
I0403 15:26:54.633723  3099 net.cpp:156] Memory required for data: 1305673248
I0403 15:26:54.633739  3099 layer_factory.hpp:77] Creating layer inception_5a/output
I0403 15:26:54.633759  3099 net.cpp:91] Creating Layer inception_5a/output
I0403 15:26:54.633775  3099 net.cpp:425] inception_5a/output <- inception_5a/1x1
I0403 15:26:54.633792  3099 net.cpp:425] inception_5a/output <- inception_5a/3x3
I0403 15:26:54.633810  3099 net.cpp:425] inception_5a/output <- inception_5a/5x5
I0403 15:26:54.633826  3099 net.cpp:425] inception_5a/output <- inception_5a/pool_proj
I0403 15:26:54.633843  3099 net.cpp:399] inception_5a/output -> inception_5a/output
I0403 15:26:54.633896  3099 net.cpp:141] Setting up inception_5a/output
I0403 15:26:54.633919  3099 net.cpp:148] Top shape: 24 832 7 7 (978432)
I0403 15:26:54.633934  3099 net.cpp:156] Memory required for data: 1309586976
I0403 15:26:54.633949  3099 layer_factory.hpp:77] Creating layer inception_5a/output_inception_5a/output_0_split
I0403 15:26:54.633966  3099 net.cpp:91] Creating Layer inception_5a/output_inception_5a/output_0_split
I0403 15:26:54.633981  3099 net.cpp:425] inception_5a/output_inception_5a/output_0_split <- inception_5a/output
I0403 15:26:54.634002  3099 net.cpp:399] inception_5a/output_inception_5a/output_0_split -> inception_5a/output_inception_5a/output_0_split_0
I0403 15:26:54.634023  3099 net.cpp:399] inception_5a/output_inception_5a/output_0_split -> inception_5a/output_inception_5a/output_0_split_1
I0403 15:26:54.634043  3099 net.cpp:399] inception_5a/output_inception_5a/output_0_split -> inception_5a/output_inception_5a/output_0_split_2
I0403 15:26:54.634064  3099 net.cpp:399] inception_5a/output_inception_5a/output_0_split -> inception_5a/output_inception_5a/output_0_split_3
I0403 15:26:54.634183  3099 net.cpp:141] Setting up inception_5a/output_inception_5a/output_0_split
I0403 15:26:54.634217  3099 net.cpp:148] Top shape: 24 832 7 7 (978432)
I0403 15:26:54.634243  3099 net.cpp:148] Top shape: 24 832 7 7 (978432)
I0403 15:26:54.634260  3099 net.cpp:148] Top shape: 24 832 7 7 (978432)
I0403 15:26:54.634289  3099 net.cpp:148] Top shape: 24 832 7 7 (978432)
I0403 15:26:54.634302  3099 net.cpp:156] Memory required for data: 1325241888
I0403 15:26:54.634317  3099 layer_factory.hpp:77] Creating layer inception_5b/1x1
I0403 15:26:54.634341  3099 net.cpp:91] Creating Layer inception_5b/1x1
I0403 15:26:54.634358  3099 net.cpp:425] inception_5b/1x1 <- inception_5a/output_inception_5a/output_0_split_0
I0403 15:26:54.634378  3099 net.cpp:399] inception_5b/1x1 -> inception_5b/1x1
I0403 15:26:54.638206  3099 net.cpp:141] Setting up inception_5b/1x1
I0403 15:26:54.638242  3099 net.cpp:148] Top shape: 24 384 7 7 (451584)
I0403 15:26:54.638259  3099 net.cpp:156] Memory required for data: 1327048224
I0403 15:26:54.638278  3099 layer_factory.hpp:77] Creating layer inception_5b/relu_1x1
I0403 15:26:54.638300  3099 net.cpp:91] Creating Layer inception_5b/relu_1x1
I0403 15:26:54.638319  3099 net.cpp:425] inception_5b/relu_1x1 <- inception_5b/1x1
I0403 15:26:54.638336  3099 net.cpp:386] inception_5b/relu_1x1 -> inception_5b/1x1 (in-place)
I0403 15:26:54.638643  3099 net.cpp:141] Setting up inception_5b/relu_1x1
I0403 15:26:54.638669  3099 net.cpp:148] Top shape: 24 384 7 7 (451584)
I0403 15:26:54.638685  3099 net.cpp:156] Memory required for data: 1328854560
I0403 15:26:54.638700  3099 layer_factory.hpp:77] Creating layer inception_5b/3x3_reduce
I0403 15:26:54.638722  3099 net.cpp:91] Creating Layer inception_5b/3x3_reduce
I0403 15:26:54.638739  3099 net.cpp:425] inception_5b/3x3_reduce <- inception_5a/output_inception_5a/output_0_split_1
I0403 15:26:54.638762  3099 net.cpp:399] inception_5b/3x3_reduce -> inception_5b/3x3_reduce
I0403 15:26:54.641510  3099 net.cpp:141] Setting up inception_5b/3x3_reduce
I0403 15:26:54.641542  3099 net.cpp:148] Top shape: 24 192 7 7 (225792)
I0403 15:26:54.641559  3099 net.cpp:156] Memory required for data: 1329757728
I0403 15:26:54.641580  3099 layer_factory.hpp:77] Creating layer inception_5b/relu_3x3_reduce
I0403 15:26:54.641604  3099 net.cpp:91] Creating Layer inception_5b/relu_3x3_reduce
I0403 15:26:54.641623  3099 net.cpp:425] inception_5b/relu_3x3_reduce <- inception_5b/3x3_reduce
I0403 15:26:54.641643  3099 net.cpp:386] inception_5b/relu_3x3_reduce -> inception_5b/3x3_reduce (in-place)
I0403 15:26:54.641839  3099 net.cpp:141] Setting up inception_5b/relu_3x3_reduce
I0403 15:26:54.641868  3099 net.cpp:148] Top shape: 24 192 7 7 (225792)
I0403 15:26:54.641885  3099 net.cpp:156] Memory required for data: 1330660896
I0403 15:26:54.641902  3099 layer_factory.hpp:77] Creating layer inception_5b/3x3
I0403 15:26:54.641927  3099 net.cpp:91] Creating Layer inception_5b/3x3
I0403 15:26:54.641945  3099 net.cpp:425] inception_5b/3x3 <- inception_5b/3x3_reduce
I0403 15:26:54.641966  3099 net.cpp:399] inception_5b/3x3 -> inception_5b/3x3
I0403 15:26:54.648808  3099 net.cpp:141] Setting up inception_5b/3x3
I0403 15:26:54.648838  3099 net.cpp:148] Top shape: 24 384 7 7 (451584)
I0403 15:26:54.648854  3099 net.cpp:156] Memory required for data: 1332467232
I0403 15:26:54.648874  3099 layer_factory.hpp:77] Creating layer inception_5b/relu_3x3
I0403 15:26:54.648895  3099 net.cpp:91] Creating Layer inception_5b/relu_3x3
I0403 15:26:54.648911  3099 net.cpp:425] inception_5b/relu_3x3 <- inception_5b/3x3
I0403 15:26:54.648931  3099 net.cpp:386] inception_5b/relu_3x3 -> inception_5b/3x3 (in-place)
I0403 15:26:54.649235  3099 net.cpp:141] Setting up inception_5b/relu_3x3
I0403 15:26:54.649262  3099 net.cpp:148] Top shape: 24 384 7 7 (451584)
I0403 15:26:54.649277  3099 net.cpp:156] Memory required for data: 1334273568
I0403 15:26:54.649293  3099 layer_factory.hpp:77] Creating layer inception_5b/5x5_reduce
I0403 15:26:54.649333  3099 net.cpp:91] Creating Layer inception_5b/5x5_reduce
I0403 15:26:54.649353  3099 net.cpp:425] inception_5b/5x5_reduce <- inception_5a/output_inception_5a/output_0_split_2
I0403 15:26:54.649372  3099 net.cpp:399] inception_5b/5x5_reduce -> inception_5b/5x5_reduce
I0403 15:26:54.650656  3099 net.cpp:141] Setting up inception_5b/5x5_reduce
I0403 15:26:54.650686  3099 net.cpp:148] Top shape: 24 48 7 7 (56448)
I0403 15:26:54.650702  3099 net.cpp:156] Memory required for data: 1334499360
I0403 15:26:54.650722  3099 layer_factory.hpp:77] Creating layer inception_5b/relu_5x5_reduce
I0403 15:26:54.650744  3099 net.cpp:91] Creating Layer inception_5b/relu_5x5_reduce
I0403 15:26:54.650761  3099 net.cpp:425] inception_5b/relu_5x5_reduce <- inception_5b/5x5_reduce
I0403 15:26:54.650780  3099 net.cpp:386] inception_5b/relu_5x5_reduce -> inception_5b/5x5_reduce (in-place)
I0403 15:26:54.651163  3099 net.cpp:141] Setting up inception_5b/relu_5x5_reduce
I0403 15:26:54.651190  3099 net.cpp:148] Top shape: 24 48 7 7 (56448)
I0403 15:26:54.651206  3099 net.cpp:156] Memory required for data: 1334725152
I0403 15:26:54.651227  3099 layer_factory.hpp:77] Creating layer inception_5b/5x5
I0403 15:26:54.651248  3099 net.cpp:91] Creating Layer inception_5b/5x5
I0403 15:26:54.651273  3099 net.cpp:425] inception_5b/5x5 <- inception_5b/5x5_reduce
I0403 15:26:54.651293  3099 net.cpp:399] inception_5b/5x5 -> inception_5b/5x5
I0403 15:26:54.653421  3099 net.cpp:141] Setting up inception_5b/5x5
I0403 15:26:54.653451  3099 net.cpp:148] Top shape: 24 128 7 7 (150528)
I0403 15:26:54.653467  3099 net.cpp:156] Memory required for data: 1335327264
I0403 15:26:54.653486  3099 layer_factory.hpp:77] Creating layer inception_5b/relu_5x5
I0403 15:26:54.653504  3099 net.cpp:91] Creating Layer inception_5b/relu_5x5
I0403 15:26:54.653522  3099 net.cpp:425] inception_5b/relu_5x5 <- inception_5b/5x5
I0403 15:26:54.653542  3099 net.cpp:386] inception_5b/relu_5x5 -> inception_5b/5x5 (in-place)
I0403 15:26:54.653739  3099 net.cpp:141] Setting up inception_5b/relu_5x5
I0403 15:26:54.653764  3099 net.cpp:148] Top shape: 24 128 7 7 (150528)
I0403 15:26:54.653779  3099 net.cpp:156] Memory required for data: 1335929376
I0403 15:26:54.653795  3099 layer_factory.hpp:77] Creating layer inception_5b/pool
I0403 15:26:54.653812  3099 net.cpp:91] Creating Layer inception_5b/pool
I0403 15:26:54.653828  3099 net.cpp:425] inception_5b/pool <- inception_5a/output_inception_5a/output_0_split_3
I0403 15:26:54.653849  3099 net.cpp:399] inception_5b/pool -> inception_5b/pool
I0403 15:26:54.653923  3099 net.cpp:141] Setting up inception_5b/pool
I0403 15:26:54.653947  3099 net.cpp:148] Top shape: 24 832 7 7 (978432)
I0403 15:26:54.653962  3099 net.cpp:156] Memory required for data: 1339843104
I0403 15:26:54.653977  3099 layer_factory.hpp:77] Creating layer inception_5b/pool_proj
I0403 15:26:54.654001  3099 net.cpp:91] Creating Layer inception_5b/pool_proj
I0403 15:26:54.654019  3099 net.cpp:425] inception_5b/pool_proj <- inception_5b/pool
I0403 15:26:54.654038  3099 net.cpp:399] inception_5b/pool_proj -> inception_5b/pool_proj
I0403 15:26:54.656389  3099 net.cpp:141] Setting up inception_5b/pool_proj
I0403 15:26:54.656422  3099 net.cpp:148] Top shape: 24 128 7 7 (150528)
I0403 15:26:54.656440  3099 net.cpp:156] Memory required for data: 1340445216
I0403 15:26:54.656460  3099 layer_factory.hpp:77] Creating layer inception_5b/relu_pool_proj
I0403 15:26:54.656477  3099 net.cpp:91] Creating Layer inception_5b/relu_pool_proj
I0403 15:26:54.656493  3099 net.cpp:425] inception_5b/relu_pool_proj <- inception_5b/pool_proj
I0403 15:26:54.656510  3099 net.cpp:386] inception_5b/relu_pool_proj -> inception_5b/pool_proj (in-place)
I0403 15:26:54.656812  3099 net.cpp:141] Setting up inception_5b/relu_pool_proj
I0403 15:26:54.656841  3099 net.cpp:148] Top shape: 24 128 7 7 (150528)
I0403 15:26:54.656857  3099 net.cpp:156] Memory required for data: 1341047328
I0403 15:26:54.656872  3099 layer_factory.hpp:77] Creating layer inception_5b/output
I0403 15:26:54.656889  3099 net.cpp:91] Creating Layer inception_5b/output
I0403 15:26:54.656919  3099 net.cpp:425] inception_5b/output <- inception_5b/1x1
I0403 15:26:54.656939  3099 net.cpp:425] inception_5b/output <- inception_5b/3x3
I0403 15:26:54.656955  3099 net.cpp:425] inception_5b/output <- inception_5b/5x5
I0403 15:26:54.656970  3099 net.cpp:425] inception_5b/output <- inception_5b/pool_proj
I0403 15:26:54.656988  3099 net.cpp:399] inception_5b/output -> inception_5b/output
I0403 15:26:54.657042  3099 net.cpp:141] Setting up inception_5b/output
I0403 15:26:54.657065  3099 net.cpp:148] Top shape: 24 1024 7 7 (1204224)
I0403 15:26:54.657079  3099 net.cpp:156] Memory required for data: 1345864224
I0403 15:26:54.657094  3099 layer_factory.hpp:77] Creating layer pool5/7x7_s1
I0403 15:26:54.657114  3099 net.cpp:91] Creating Layer pool5/7x7_s1
I0403 15:26:54.657130  3099 net.cpp:425] pool5/7x7_s1 <- inception_5b/output
I0403 15:26:54.657150  3099 net.cpp:399] pool5/7x7_s1 -> pool5/7x7_s1
I0403 15:26:54.657377  3099 net.cpp:141] Setting up pool5/7x7_s1
I0403 15:26:54.657403  3099 net.cpp:148] Top shape: 24 1024 1 1 (24576)
I0403 15:26:54.657420  3099 net.cpp:156] Memory required for data: 1345962528
I0403 15:26:54.657434  3099 layer_factory.hpp:77] Creating layer pool5/drop_7x7_s1
I0403 15:26:54.657454  3099 net.cpp:91] Creating Layer pool5/drop_7x7_s1
I0403 15:26:54.657469  3099 net.cpp:425] pool5/drop_7x7_s1 <- pool5/7x7_s1
I0403 15:26:54.657485  3099 net.cpp:386] pool5/drop_7x7_s1 -> pool5/7x7_s1 (in-place)
I0403 15:26:54.657537  3099 net.cpp:141] Setting up pool5/drop_7x7_s1
I0403 15:26:54.657560  3099 net.cpp:148] Top shape: 24 1024 1 1 (24576)
I0403 15:26:54.657574  3099 net.cpp:156] Memory required for data: 1346060832
I0403 15:26:54.657589  3099 layer_factory.hpp:77] Creating layer loss3/classifier_plantvillage
I0403 15:26:54.657610  3099 net.cpp:91] Creating Layer loss3/classifier_plantvillage
I0403 15:26:54.657627  3099 net.cpp:425] loss3/classifier_plantvillage <- pool5/7x7_s1
I0403 15:26:54.657646  3099 net.cpp:399] loss3/classifier_plantvillage -> loss3/classifier_plantvillage
I0403 15:26:54.658074  3099 net.cpp:141] Setting up loss3/classifier_plantvillage
I0403 15:26:54.658099  3099 net.cpp:148] Top shape: 24 38 (912)
I0403 15:26:54.658114  3099 net.cpp:156] Memory required for data: 1346064480
I0403 15:26:54.658133  3099 layer_factory.hpp:77] Creating layer loss3/classifier_plantvillage_loss3/classifier_plantvillage_0_split
I0403 15:26:54.658151  3099 net.cpp:91] Creating Layer loss3/classifier_plantvillage_loss3/classifier_plantvillage_0_split
I0403 15:26:54.658167  3099 net.cpp:425] loss3/classifier_plantvillage_loss3/classifier_plantvillage_0_split <- loss3/classifier_plantvillage
I0403 15:26:54.658188  3099 net.cpp:399] loss3/classifier_plantvillage_loss3/classifier_plantvillage_0_split -> loss3/classifier_plantvillage_loss3/classifier_plantvillage_0_split_0
I0403 15:26:54.658215  3099 net.cpp:399] loss3/classifier_plantvillage_loss3/classifier_plantvillage_0_split -> loss3/classifier_plantvillage_loss3/classifier_plantvillage_0_split_1
I0403 15:26:54.658237  3099 net.cpp:399] loss3/classifier_plantvillage_loss3/classifier_plantvillage_0_split -> loss3/classifier_plantvillage_loss3/classifier_plantvillage_0_split_2
I0403 15:26:54.658258  3099 net.cpp:399] loss3/classifier_plantvillage_loss3/classifier_plantvillage_0_split -> loss3/classifier_plantvillage_loss3/classifier_plantvillage_0_split_3
I0403 15:26:54.658362  3099 net.cpp:141] Setting up loss3/classifier_plantvillage_loss3/classifier_plantvillage_0_split
I0403 15:26:54.658388  3099 net.cpp:148] Top shape: 24 38 (912)
I0403 15:26:54.658406  3099 net.cpp:148] Top shape: 24 38 (912)
I0403 15:26:54.658421  3099 net.cpp:148] Top shape: 24 38 (912)
I0403 15:26:54.658437  3099 net.cpp:148] Top shape: 24 38 (912)
I0403 15:26:54.658452  3099 net.cpp:156] Memory required for data: 1346079072
I0403 15:26:54.658466  3099 layer_factory.hpp:77] Creating layer loss1/loss
I0403 15:26:54.658488  3099 net.cpp:91] Creating Layer loss1/loss
I0403 15:26:54.658505  3099 net.cpp:425] loss1/loss <- loss1/classifier_plantvillage_loss1/classifier_plantvillage_0_split_0
I0403 15:26:54.658536  3099 net.cpp:425] loss1/loss <- label_data_1_split_0
…
