…
I0403 15:31:07.893960  3180 net.cpp:313] The NetState phase (1) differed from the phase (0) specified by a rule in layer data
I0403 15:31:07.895174  3180 net.cpp:49] Initializing net from parameters: 
state {
  phase: TEST
}
layer {
  name: "data"
  type: "Data"
  top: "data"
  top: "label"
  include {
    phase: TEST
  }
  transform_param {
    mirror: false
    crop_size: 224
    mean_file: "/home/mohanty/data/final_dataset/lmdb/segmented-60-40/mean.binaryproto"
  }
  data_param {
    source: "/home/mohanty/data/final_dataset/lmdb/segmented-60-40/test_db"
    batch_size: 24
    backend: LMDB
  }
}
layer {
  name: "conv1/7x7_s2"
  type: "Convolution"
  bottom: "data"
  top: "conv1/7x7_s2"
  param {
    lr_mult: 1
    decay_mult: 1
  }
  param {
    lr_mult: 2
    decay_mult: 0
  }
  convolution_param {
    num_output: 64
    pad: 3
    kernel_size: 7
    stride: 2
    weight_filler {
      type: "xavier"
      std: 0.1
    }
    bias_filler {
      type: "constant"
      value: 0.2
    }
  }
}
layer {
  name: "conv1/relu_7x7"
  type: "ReLU"
  bottom: "conv1/7x7_s2"
  top: "conv1/7x7_s2"
}
layer {
  name: "pool1/3x3_s2"
  type: "Pooling"
  bottom: "conv1/7x7_s2"
  top: "pool1/3x3_s2"
  pooling_param {
    pool: MAX
    kernel_size: 3
    stride: 2
  }
}
layer {
  name: "pool1/norm1"
  type: "LRN"
  bottom: "pool1/3x3_s2"
  top: "pool1/norm1"
  lrn_param {
    local_size: 5
    alpha: 0.0001
    beta: 0.75
  }
}
layer {
  name: "conv2/3x3_reduce"
  type: "Convolution"
  bottom: "pool1/norm1"
  top: "conv2/3x3_reduce"
  param {
    lr_mult: 1
    decay_mult: 1
  }
  param {
    lr_mult: 2
    decay_mult: 0
  }
  convolution_param {
    num_output: 64
    kernel_size: 1
    weight_filler {
      type: "xavier"
      std: 0.1
    }
    bias_filler {
      type: "constant"
      value: 0.2
    }
  }
}
layer {
  name: "conv2/relu_3x3_reduce"
  type: "ReLU"
  bottom: "conv2/3x3_reduce"
  top: "conv2/3x3_reduce"
}
layer {
  name: "conv2/3x3"
  type: "Convolution"
  bottom: "conv2/3x3_reduce"
  top: "conv2/3x3"
  param {
    lr_mult: 1
    decay_mult: 1
  }
  param {
    lr_mult: 2
    decay_mult: 0
  }
  convolution_param {
    num_output: 192
    pad: 1
    kernel_size: 3
    weight_filler {
      type: "xavier"
      std: 0.03
    }
    bias_filler {
      type: "constant"
      value: 0.2
    }
  }
}
layer {
  name: "conv2/relu_3x3"
  type: "ReLU"
  bottom: "conv2/3x3"
  top: "conv2/3x3"
}
layer {
  name: "conv2/norm2"
  type: "LRN"
  bottom: "conv2/3x3"
  top: "conv2/norm2"
  lrn_param {
    local_size: 5
    alpha: 0.0001
    beta: 0.75
  }
}
layer {
  name: "pool2/3x3_s2"
  type: "Pooling"
  bottom: "conv2/norm2"
  top: "pool2/3x3_s2"
  pooling_param {
    pool: MAX
    kernel_size: 3
    stride: 2
  }
}
layer {
  name: "inception_3a/1x1"
  type: "Convolution"
  bottom: "pool2/3x3_s2"
  top: "inception_3a/1x1"
  param {
    lr_mult: 1
    decay_mult: 1
  }
  param {
    lr_mult: 2
    decay_mult: 0
  }
  convolution_param {
    num_output: 64
    kernel_size: 1
    weight_filler {
      type: "xavier"
      std: 0.03
    }
    bias_filler {
      type: "constant"
      value: 0.2
    }
  }
}
layer {
  name: "inception_3a/relu_1x1"
  type: "ReLU"
  bottom: "inception_3a/1x1"
  top: "inception_3a/1x1"
}
layer {
  name: "inception_3a/3x3_reduce"
  type: "Convolution"
  bottom: "pool2/3x3_s2"
  top: "inception_3a/3x3_reduce"
  param {
    lr_mult: 1
    decay_mult: 1
  }
  param {
    lr_mult: 2
    decay_mult: 0
  }
  convolution_param {
    num_output: 96
    kernel_size: 1
    weight_filler {
      type: "xavier"
      std: 0.09
    }
    bias_filler {
      type: "constant"
      value: 0.2
    }
  }
}
layer {
  name: "inception_3a/relu_3x3_reduce"
  type: "ReLU"
  bottom: "inception_3a/3x3_reduce"
  top: "inception_3a/3x3_reduce"
}
layer {
  name: "inception_3a/3x3"
  type: "Convolution"
  bottom: "inception_3a/3x3_reduce"
  top: "inception_3a/3x3"
  param {
    lr_mult: 1
    decay_mult: 1
  }
  param {
    lr_mult: 2
    decay_mult: 0
  }
  convolution_param {
    num_output: 128
    pad: 1
    kernel_size: 3
    weight_filler {
      type: "xavier"
      std: 0.03
    }
    bias_filler {
      type: "constant"
      value: 0.2
    }
  }
}
layer {
  name: "inception_3a/relu_3x3"
  type: "ReLU"
  bottom: "inception_3a/3x3"
  top: "inception_3a/3x3"
}
layer {
  name: "inception_3a/5x5_reduce"
  type: "Convolution"
  bottom: "pool2/3x3_s2"
  top: "inception_3a/5x5_reduce"
  param {
    lr_mult: 1
    decay_mult: 1
  }
  param {
    lr_mult: 2
    decay_mult: 0
  }
  convolution_param {
    num_output: 16
    kernel_size: 1
    weight_filler {
      type: "xavier"
      std: 0.2
    }
    bias_filler {
      type: "constant"
      value: 0.2
    }
  }
}
layer {
  name: "inception_3a/relu_5x5_reduce"
  type: "ReLU"
  bottom: "inception_3a/5x5_reduce"
  top: "inception_3a/5x5_reduce"
}
layer {
  name: "inception_3a/5x5"
  type: "Convolution"
  bottom: "inception_3a/5x5_reduce"
  top: "inception_3a/5x5"
  param {
    lr_mult: 1
    decay_mult: 1
  }
  param {
    lr_mult: 2
    decay_mult: 0
  }
  convolution_param {
    num_output: 32
    pad: 2
    kernel_size: 5
    weight_filler {
      type: "xavier"
      std: 0.03
    }
    bias_filler {
      type: "constant"
      value: 0.2
    }
  }
}
layer {
  name: "inception_3a/relu_5x5"
  type: "ReLU"
  bottom: "inception_3a/5x5"
  top: "inception_3a/5x5"
}
layer {
  name: "inception_3a/pool"
  type: "Pooling"
  bottom: "pool2/3x3_s2"
  top: "inception_3a/pool"
  pooling_param {
    pool: MAX
    kernel_size: 3
    stride: 1
    pad: 1
  }
}
layer {
  name: "inception_3a/pool_proj"
  type: "Convolution"
  bottom: "inception_3a/pool"
  top: "inception_3a/pool_proj"
  param {
    lr_mult: 1
    decay_mult: 1
  }
  param {
    lr_mult: 2
    decay_mult: 0
  }
  convolution_param {
    num_output: 32
    kernel_size: 1
    weight_filler {
      type: "xavier"
      std: 0.1
    }
    bias_filler {
      type: "constant"
      value: 0.2
    }
  }
}
layer {
  name: "inception_3a/relu_pool_proj"
  type: "ReLU"
  bottom: "inception_3a/pool_proj"
  top: "inception_3a/pool_proj"
}
layer {
  name: "inception_3a/output"
  type: "Concat"
  bottom: "inception_3a/1x1"
  bottom: "inception_3a/3x3"
  bottom: "inception_3a/5x5"
  bottom: "inception_3a/pool_proj"
  top: "inception_3a/output"
}
layer {
  name: "inception_3b/1x1"
  type: "Convolution"
  bottom: "inception_3a/output"
  top: "inception_3b/1x1"
  param {
    lr_mult: 1
    decay_mult: 1
  }
  param {
    lr_mult: 2
    decay_mult: 0
  }
  convolution_param {
    num_output: 128
    kernel_size: 1
    weight_filler {
      type: "xavier"
      std: 0.03
    }
    bias_filler {
      type: "constant"
      value: 0.2
    }
  }
}
layer {
  name: "inception_3b/relu_1x1"
  type: "ReLU"
  bottom: "inception_3b/1x1"
  top: "inception_3b/1x1"
}
layer {
  name: "inception_3b/3x3_reduce"
  type: "Convolution"
  bottom: "inception_3a/output"
  top: "inception_3b/3x3_reduce"
  param {
    lr_mult: 1
    decay_mult: 1
  }
  param {
    lr_mult: 2
    decay_mult: 0
  }
  convolution_param {
    num_output: 128
    kernel_size: 1
    weight_filler {
      type: "xavier"
      std: 0.09
    }
    bias_filler {
      type: "constant"
      value: 0.2
    }
  }
}
layer {
  name: "inception_3b/relu_3x3_reduce"
  type: "ReLU"
  bottom: "inception_3b/3x3_reduce"
  top: "inception_3b/3x3_reduce"
}
layer {
  name: "inception_3b/3x3"
  type: "Convolution"
  bottom: "inception_3b/3x3_reduce"
  top: "inception_3b/3x3"
  param {
    lr_mult: 1
    decay_mult: 1
  }
  param {
    lr_mult: 2
    decay_mult: 0
  }
  convolution_param {
    num_output: 192
    pad: 1
    kernel_size: 3
    weight_filler {
      type: "xavier"
      std: 0.03
    }
    bias_filler {
      type: "constant"
      value: 0.2
    }
  }
}
layer {
  name: "inception_3b/relu_3x3"
  type: "ReLU"
  bottom: "inception_3b/3x3"
  top: "inception_3b/3x3"
}
layer {
  name: "inception_3b/5x5_reduce"
  type: "Convolution"
  bottom: "inception_3a/output"
  top: "inception_3b/5x5_reduce"
  param {
    lr_mult: 1
    decay_mult: 1
  }
  param {
    lr_mult: 2
    decay_mult: 0
  }
  convolution_param {
    num_output: 32
    kernel_size: 1
    weight_filler {
      type: "xavier"
      std: 0.2
    }
    bias_filler {
      type: "constant"
      value: 0.2
    }
  }
}
layer {
  name: "inception_3b/relu_5x5_reduce"
  type: "ReLU"
  bottom: "inception_3b/5x5_reduce"
  top: "inception_3b/5x5_reduce"
}
layer {
  name: "inception_3b/5x5"
  type: "Convolution"
  bottom: "inception_3b/5x5_reduce"
  top: "inception_3b/5x5"
  param {
    lr_mult: 1
    decay_mult: 1
  }
  param {
    lr_mult: 2
    decay_mult: 0
  }
  convolution_param {
    num_output: 96
    pad: 2
    kernel_size: 5
    weight_filler {
      type: "xavier"
      std: 0.03
    }
    bias_filler {
      type: "constant"
      value: 0.2
    }
  }
}
layer {
  name: "inception_3b/relu_5x5"
  type: "ReLU"
  bottom: "inception_3b/5x5"
  top: "inception_3b/5x5"
}
layer {
  name: "inception_3b/pool"
  type: "Pooling"
  bottom: "inception_3a/output"
  top: "inception_3b/pool"
  pooling_param {
    pool: MAX
    kernel_size: 3
    stride: 1
    pad: 1
  }
}
layer {
  name: "inception_3b/pool_proj"
  type: "Convolution"
  bottom: "inception_3b/pool"
  top: "inception_3b/pool_proj"
  param {
    lr_mult: 1
    decay_mult: 1
  }
  param {
    lr_mult: 2
    decay_mult: 0
  }
  convolution_param {
    num_output: 64
    kernel_size: 1
    weight_filler {
      type: "xavier"
      std: 0.1
    }
    bias_filler {
      type: "constant"
      value: 0.2
    }
  }
}
layer {
  name: "inception_3b/relu_pool_proj"
  type: "ReLU"
  bottom: "inception_3b/pool_proj"
  top: "inception_3b/pool_proj"
}
layer {
  name: "inception_3b/output"
  type: "Concat"
  bottom: "inception_3b/1x1"
  bottom: "inception_3b/3x3"
  bottom: "inception_3b/5x5"
  bottom: "inception_3b/pool_proj"
  top: "inception_3b/output"
}
layer {
  name: "pool3/3x3_s2"
  type: "Pooling"
  bottom: "inception_3b/output"
  top: "pool3/3x3_s2"
  pooling_param {
    pool: MAX
    kernel_size: 3
    stride: 2
  }
}
layer {
  name: "inception_4a/1x1"
  type: "Convolution"
  bottom: "pool3/3x3_s2"
  top: "inception_4a/1x1"
  param {
    lr_mult: 1
    decay_mult: 1
  }
  param {
    lr_mult: 2
    decay_mult: 0
  }
  convolution_param {
    num_output: 192
    kernel_size: 1
    weight_filler {
      type: "xavier"
      std: 0.03
    }
    bias_filler {
      type: "constant"
      value: 0.2
    }
  }
}
layer {
  name: "inception_4a/relu_1x1"
  type: "ReLU"
  bottom: "inception_4a/1x1"
  top: "inception_4a/1x1"
}
layer {
  name: "inception_4a/3x3_reduce"
  type: "Convolution"
  bottom: "pool3/3x3_s2"
  top: "inception_4a/3x3_reduce"
  param {
    lr_mult: 1
    decay_mult: 1
  }
  param {
    lr_mult: 2
    decay_mult: 0
  }
  convolution_param {
    num_output: 96
    kernel_size: 1
    weight_filler {
      type: "xavier"
      std: 0.09
    }
    bias_filler {
      type: "constant"
      value: 0.2
    }
  }
}
layer {
  name: "inception_4a/relu_3x3_reduce"
  type: "ReLU"
  bottom: "inception_4a/3x3_reduce"
  top: "inception_4a/3x3_reduce"
}
layer {
  name: "inception_4a/3x3"
  type: "Convolution"
  bottom: "inception_4a/3x3_reduce"
  top: "inception_4a/3x3"
  param {
    lr_mult: 1
    decay_mult: 1
  }
  param {
    lr_mult: 2
    decay_mult: 0
  }
  convolution_param {
    num_output: 208
    pad: 1
    kernel_size: 3
    weight_filler {
      type: "xavier"
      std: 0.03
    }
    bias_filler {
      type: "constant"
      value: 0.2
    }
  }
}
layer {
  name: "inception_4a/relu_3x3"
  type: "ReLU"
  bottom: "inception_4a/3x3"
  top: "inception_4a/3x3"
}
layer {
  name: "inception_4a/5x5_reduce"
  type: "Convolution"
  bottom: "pool3/3x3_s2"
  top: "inception_4a/5x5_reduce"
  param {
    lr_mult: 1
    decay_mult: 1
  }
  param {
    lr_mult: 2
    decay_mult: 0
  }
  convolution_param {
    num_output: 16
    kernel_size: 1
    weight_filler {
      type: "xavier"
      std: 0.2
    }
    bias_filler {
      type: "constant"
      value: 0.2
    }
  }
}
layer {
  name: "inception_4a/relu_5x5_reduce"
  type: "ReLU"
  bottom: "inception_4a/5x5_reduce"
  top: "inception_4a/5x5_reduce"
}
layer {
  name: "inception_4a/5x5"
  type: "Convolution"
  bottom: "inception_4a/5x5_reduce"
  top: "inception_4a/5x5"
  param {
    lr_mult: 1
    decay_mult: 1
  }
  param {
    lr_mult: 2
    decay_mult: 0
  }
  convolution_param {
    num_output: 48
    pad: 2
    kernel_size: 5
    weight_filler {
      type: "xavier"
      std: 0.03
    }
    bias_filler {
      type: "constant"
      value: 0.2
    }
  }
}
layer {
  name: "inception_4a/relu_5x5"
  type: "ReLU"
  bottom: "inception_4a/5x5"
  top: "inception_4a/5x5"
}
layer {
  name: "inception_4a/pool"
  type: "Pooling"
  bottom: "pool3/3x3_s2"
  top: "inception_4a/pool"
  pooling_param {
    pool: MAX
    kernel_size: 3
    stride: 1
    pad: 1
  }
}
layer {
  name: "inception_4a/pool_proj"
  type: "Convolution"
  bottom: "inception_4a/pool"
  top: "inception_4a/pool_proj"
  param {
    lr_mult: 1
    decay_mult: 1
  }
  param {
    lr_mult: 2
    decay_mult: 0
  }
  convolution_param {
    num_output: 64
    kernel_size: 1
    weight_filler {
      type: "xavier"
      std: 0.1
    }
    bias_filler {
      type: "constant"
      value: 0.2
    }
  }
}
layer {
  name: "inception_4a/relu_pool_proj"
  type: "ReLU"
  bottom: "inception_4a/pool_proj"
  top: "inception_4a/pool_proj"
}
layer {
  name: "inception_4a/output"
  type: "Concat"
  bottom: "inception_4a/1x1"
  bottom: "inception_4a/3x3"
  bottom: "inception_4a/5x5"
  bottom: "inception_4a/pool_proj"
  top: "inception_4a/output"
}
layer {
  name: "loss1/ave_pool"
  type: "Pooling"
  bottom: "inception_4a/output"
  top: "loss1/ave_pool"
  pooling_param {
    pool: AVE
    kernel_size: 5
    stride: 3
  }
}
layer {
  name: "loss1/conv"
  type: "Convolution"
  bottom: "loss1/ave_pool"
  top: "loss1/conv"
  param {
    lr_mult: 1
    decay_mult: 1
  }
  param {
    lr_mult: 2
    decay_mult: 0
  }
  convolution_param {
    num_output: 128
    kernel_size: 1
    weight_filler {
      type: "xavier"
      std: 0.08
    }
    bias_filler {
      type: "constant"
      value: 0.2
    }
  }
}
layer {
  name: "loss1/relu_conv"
  type: "ReLU"
  bottom: "loss1/conv"
  top: "loss1/conv"
}
layer {
  name: "loss1/fc"
  type: "InnerProduct"
  bottom: "loss1/conv"
  top: "loss1/fc"
  param {
    lr_mult: 1
    decay_mult: 1
  }
  param {
    lr_mult: 2
    decay_mult: 0
  }
  inner_product_param {
    num_output: 1024
    weight_filler {
      type: "xavier"
      std: 0.02
    }
    bias_filler {
      type: "constant"
      value: 0.2
    }
  }
}
layer {
  name: "loss1/relu_fc"
  type: "ReLU"
  bottom: "loss1/fc"
  top: "loss1/fc"
}
layer {
  name: "loss1/drop_fc"
  type: "Dropout"
  bottom: "loss1/fc"
  top: "loss1/fc"
  dropout_param {
    dropout_ratio: 0.7
  }
}
layer {
  name: "loss1/classifier_plantvillage"
  type: "InnerProduct"
  bottom: "loss1/fc"
  top: "loss1/classifier_plantvillage"
  param {
    lr_mult: 1
    decay_mult: 1
  }
  param {
    lr_mult: 2
    decay_mult: 0
  }
  inner_product_param {
    num_output: 38
    weight_filler {
      type: "xavier"
      std: 0.0009765625
    }
    bias_filler {
      type: "constant"
      value: 0
    }
  }
}
layer {
  name: "inception_4b/1x1"
  type: "Convolution"
  bottom: "inception_4a/output"
  top: "inception_4b/1x1"
  param {
    lr_mult: 1
    decay_mult: 1
  }
  param {
    lr_mult: 2
    decay_mult: 0
  }
  convolution_param {
    num_output: 160
    kernel_size: 1
    weight_filler {
      type: "xavier"
      std: 0.03
    }
    bias_filler {
      type: "constant"
      value: 0.2
    }
  }
}
layer {
  name: "inception_4b/relu_1x1"
  type: "ReLU"
  bottom: "inception_4b/1x1"
  top: "inception_4b/1x1"
}
layer {
  name: "inception_4b/3x3_reduce"
  type: "Convolution"
  bottom: "inception_4a/output"
  top: "inception_4b/3x3_reduce"
  param {
    lr_mult: 1
    decay_mult: 1
  }
  param {
    lr_mult: 2
    decay_mult: 0
  }
  convolution_param {
    num_output: 112
    kernel_size: 1
    weight_filler {
      type: "xavier"
      std: 0.09
    }
    bias_filler {
      type: "constant"
      value: 0.2
    }
  }
}
layer {
  name: "inception_4b/relu_3x3_reduce"
  type: "ReLU"
  bottom: "inception_4b/3x3_reduce"
  top: "inception_4b/3x3_reduce"
}
layer {
  name: "inception_4b/3x3"
  type: "Convolution"
  bottom: "inception_4b/3x3_reduce"
  top: "inception_4b/3x3"
  param {
    lr_mult: 1
    decay_mult: 1
  }
  param {
    lr_mult: 2
    decay_mult: 0
  }
  convolution_param {
    num_output: 224
    pad: 1
    kernel_size: 3
    weight_filler {
      type: "xavier"
      std: 0.03
    }
    bias_filler {
      type: "constant"
      value: 0.2
    }
  }
}
layer {
  name: "inception_4b/relu_3x3"
  type: "ReLU"
  bottom: "inception_4b/3x3"
  top: "inception_4b/3x3"
}
layer {
  name: "inception_4b/5x5_reduce"
  type: "Convolution"
  bottom: "inception_4a/output"
  top: "inception_4b/5x5_reduce"
  param {
    lr_mult: 1
    decay_mult: 1
  }
  param {
    lr_mult: 2
    decay_mult: 0
  }
  convolution_param {
    num_output: 24
    kernel_size: 1
    weight_filler {
      type: "xavier"
      std: 0.2
    }
    bias_filler {
      type: "constant"
      value: 0.2
    }
  }
}
layer {
  name: "inception_4b/relu_5x5_reduce"
  type: "ReLU"
  bottom: "inception_4b/5x5_reduce"
  top: "inception_4b/5x5_reduce"
}
layer {
  name: "inception_4b/5x5"
  type: "Convolution"
  bottom: "inception_4b/5x5_reduce"
  top: "inception_4b/5x5"
  param {
    lr_mult: 1
    decay_mult: 1
  }
  param {
    lr_mult: 2
    decay_mult: 0
  }
  convolution_param {
    num_output: 64
    pad: 2
    kernel_size: 5
    weight_filler {
      type: "xavier"
      std: 0.03
    }
    bias_filler {
      type: "constant"
      value: 0.2
    }
  }
}
layer {
  name: "inception_4b/relu_5x5"
  type: "ReLU"
  bottom: "inception_4b/5x5"
  top: "inception_4b/5x5"
}
layer {
  name: "inception_4b/pool"
  type: "Pooling"
  bottom: "inception_4a/output"
  top: "inception_4b/pool"
  pooling_param {
    pool: MAX
    kernel_size: 3
    stride: 1
    pad: 1
  }
}
layer {
  name: "inception_4b/pool_proj"
  type: "Convolution"
  bottom: "inception_4b/pool"
  top: "inception_4b/pool_proj"
  param {
    lr_mult: 1
    decay_mult: 1
  }
  param {
    lr_mult: 2
    decay_mult: 0
  }
  convolution_param {
    num_output: 64
    kernel_size: 1
    weight_filler {
      type: "xavier"
      std: 0.1
    }
    bias_filler {
      type: "constant"
      value: 0.2
    }
  }
}
layer {
  name: "inception_4b/relu_pool_proj"
  type: "ReLU"
  bottom: "inception_4b/pool_proj"
  top: "inception_4b/pool_proj"
}
layer {
  name: "inception_4b/output"
  type: "Concat"
  bottom: "inception_4b/1x1"
  bottom: "inception_4b/3x3"
  bottom: "inception_4b/5x5"
  bottom: "inception_4b/pool_proj"
  top: "inception_4b/output"
}
layer {
  name: "inception_4c/1x1"
  type: "Convolution"
  bottom: "inception_4b/output"
  top: "inception_4c/1x1"
  param {
    lr_mult: 1
    decay_mult: 1
  }
  param {
    lr_mult: 2
    decay_mult: 0
  }
  convolution_param {
    num_output: 128
    kernel_size: 1
    weight_filler {
      type: "xavier"
      std: 0.03
    }
    bias_filler {
      type: "constant"
      value: 0.2
    }
  }
}
layer {
  name: "inception_4c/relu_1x1"
  type: "ReLU"
  bottom: "inception_4c/1x1"
  top: "inception_4c/1x1"
}
layer {
  name: "inception_4c/3x3_reduce"
  type: "Convolution"
  bottom: "inception_4b/output"
  top: "inception_4c/3x3_reduce"
  param {
    lr_mult: 1
    decay_mult: 1
  }
  param {
    lr_mult: 2
    decay_mult: 0
  }
  convolution_param {
    num_output: 128
    kernel_size: 1
    weight_filler {
      type: "xavier"
      std: 0.09
    }
    bias_filler {
      type: "constant"
      value: 0.2
    }
  }
}
layer {
  name: "inception_4c/relu_3x3_reduce"
  type: "ReLU"
  bottom: "inception_4c/3x3_reduce"
  top: "inception_4c/3x3_reduce"
}
layer {
  name: "inception_4c/3x3"
  type: "Convolution"
  bottom: "inception_4c/3x3_reduce"
  top: "inception_4c/3x3"
  param {
    lr_mult: 1
    decay_mult: 1
  }
  param {
    lr_mult: 2
    decay_mult: 0
  }
  convolution_param {
    num_output: 256
    pad: 1
    kernel_size: 3
    weight_filler {
      type: "xavier"
      std: 0.03
    }
    bias_filler {
      type: "constant"
      value: 0.2
    }
  }
}
layer {
  name: "inception_4c/relu_3x3"
  type: "ReLU"
  bottom: "inception_4c/3x3"
  top: "inception_4c/3x3"
}
layer {
  name: "inception_4c/5x5_reduce"
  type: "Convolution"
  bottom: "inception_4b/output"
  top: "inception_4c/5x5_reduce"
  param {
    lr_mult: 1
    decay_mult: 1
  }
  param {
    lr_mult: 2
    decay_mult: 0
  }
  convolution_param {
    num_output: 24
    kernel_size: 1
    weight_filler {
      type: "xavier"
      std: 0.2
    }
    bias_filler {
      type: "constant"
      value: 0.2
    }
  }
}
layer {
  name: "inception_4c/relu_5x5_reduce"
  type: "ReLU"
  bottom: "inception_4c/5x5_reduce"
  top: "inception_4c/5x5_reduce"
}
layer {
  name: "inception_4c/5x5"
  type: "Convolution"
  bottom: "inception_4c/5x5_reduce"
  top: "inception_4c/5x5"
  param {
    lr_mult: 1
    decay_mult: 1
  }
  param {
    lr_mult: 2
    decay_mult: 0
  }
  convolution_param {
    num_output: 64
    pad: 2
    kernel_size: 5
    weight_filler {
      type: "xavier"
      std: 0.03
    }
    bias_filler {
      type: "constant"
      value: 0.2
    }
  }
}
layer {
  name: "inception_4c/relu_5x5"
  type: "ReLU"
  bottom: "inception_4c/5x5"
  top: "inception_4c/5x5"
}
layer {
  name: "inception_4c/pool"
  type: "Pooling"
  bottom: "inception_4b/output"
  top: "inception_4c/pool"
  pooling_param {
    pool: MAX
    kernel_size: 3
    stride: 1
    pad: 1
  }
}
layer {
  name: "inception_4c/pool_proj"
  type: "Convolution"
  bottom: "inception_4c/pool"
  top: "inception_4c/pool_proj"
  param {
    lr_mult: 1
    decay_mult: 1
  }
  param {
    lr_mult: 2
    decay_mult: 0
  }
  convolution_param {
    num_output: 64
    kernel_size: 1
    weight_filler {
      type: "xavier"
      std: 0.1
    }
    bias_filler {
      type: "constant"
      value: 0.2
    }
  }
}
layer {
  name: "inception_4c/relu_pool_proj"
  type: "ReLU"
  bottom: "inception_4c/pool_proj"
  top: "inception_4c/pool_proj"
}
layer {
  name: "inception_4c/output"
  type: "Concat"
  bottom: "inception_4c/1x1"
  bottom: "inception_4c/3x3"
  bottom: "inception_4c/5x5"
  bottom: "inception_4c/pool_proj"
  top: "inception_4c/output"
}
layer {
  name: "inception_4d/1x1"
  type: "Convolution"
  bottom: "inception_4c/output"
  top: "inception_4d/1x1"
  param {
    lr_mult: 1
    decay_mult: 1
  }
  param {
    lr_mult: 2
    decay_mult: 0
  }
  convolution_param {
    num_output: 112
    kernel_size: 1
    weight_filler {
      type: "xavier"
      std: 0.03
    }
    bias_filler {
      type: "constant"
      value: 0.2
    }
  }
}
layer {
  name: "inception_4d/relu_1x1"
  type: "ReLU"
  bottom: "inception_4d/1x1"
  top: "inception_4d/1x1"
}
layer {
  name: "inception_4d/3x3_reduce"
  type: "Convolution"
  bottom: "inception_4c/output"
  top: "inception_4d/3x3_reduce"
  param {
    lr_mult: 1
    decay_mult: 1
  }
  param {
    lr_mult: 2
    decay_mult: 0
  }
  convolution_param {
    num_output: 144
    kernel_size: 1
    weight_filler {
      type: "xavier"
      std: 0.09
    }
    bias_filler {
      type: "constant"
      value: 0.2
    }
  }
}
layer {
  name: "inception_4d/relu_3x3_reduce"
  type: "ReLU"
  bottom: "inception_4d/3x3_reduce"
  top: "inception_4d/3x3_reduce"
}
layer {
  name: "inception_4d/3x3"
  type: "Convolution"
  bottom: "inception_4d/3x3_reduce"
  top: "inception_4d/3x3"
  param {
    lr_mult: 1
    decay_mult: 1
  }
  param {
    lr_mult: 2
    decay_mult: 0
  }
  convolution_param {
    num_output: 288
    pad: 1
    kernel_size: 3
    weight_filler {
      type: "xavier"
      std: 0.03
    }
    bias_filler {
      type: "constant"
      value: 0.2
    }
  }
}
layer {
  name: "inception_4d/relu_3x3"
  type: "ReLU"
  bottom: "inception_4d/3x3"
  top: "inception_4d/3x3"
}
layer {
  name: "inception_4d/5x5_reduce"
  type: "Convolution"
  bottom: "inception_4c/output"
  top: "inception_4d/5x5_reduce"
  param {
    lr_mult: 1
    decay_mult: 1
  }
  param {
    lr_mult: 2
    decay_mult: 0
  }
  convolution_param {
    num_output: 32
    kernel_size: 1
    weight_filler {
      type: "xavier"
      std: 0.2
    }
    bias_filler {
      type: "constant"
      value: 0.2
    }
  }
}
layer {
  name: "inception_4d/relu_5x5_reduce"
  type: "ReLU"
  bottom: "inception_4d/5x5_reduce"
  top: "inception_4d/5x5_reduce"
}
layer {
  name: "inception_4d/5x5"
  type: "Convolution"
  bottom: "inception_4d/5x5_reduce"
  top: "inception_4d/5x5"
  param {
    lr_mult: 1
    decay_mult: 1
  }
  param {
    lr_mult: 2
    decay_mult: 0
  }
  convolution_param {
    num_output: 64
    pad: 2
    kernel_size: 5
    weight_filler {
      type: "xavier"
      std: 0.03
    }
    bias_filler {
      type: "constant"
      value: 0.2
    }
  }
}
layer {
  name: "inception_4d/relu_5x5"
  type: "ReLU"
  bottom: "inception_4d/5x5"
  top: "inception_4d/5x5"
}
layer {
  name: "inception_4d/pool"
  type: "Pooling"
  bottom: "inception_4c/output"
  top: "inception_4d/pool"
  pooling_param {
    pool: MAX
    kernel_size: 3
    stride: 1
    pad: 1
  }
}
layer {
  name: "inception_4d/pool_proj"
  type: "Convolution"
  bottom: "inception_4d/pool"
  top: "inception_4d/pool_proj"
  param {
    lr_mult: 1
    decay_mult: 1
  }
  param {
    lr_mult: 2
    decay_mult: 0
  }
  convolution_param {
    num_output: 64
    kernel_size: 1
    weight_filler {
      type: "xavier"
      std: 0.1
    }
    bias_filler {
      type: "constant"
      value: 0.2
    }
  }
}
layer {
  name: "inception_4d/relu_pool_proj"
  type: "ReLU"
  bottom: "inception_4d/pool_proj"
  top: "inception_4d/pool_proj"
}
layer {
  name: "inception_4d/output"
  type: "Concat"
  bottom: "inception_4d/1x1"
  bottom: "inception_4d/3x3"
  bottom: "inception_4d/5x5"
  bottom: "inception_4d/pool_proj"
  top: "inception_4d/output"
}
layer {
  name: "loss2/ave_pool"
  type: "Pooling"
  bottom: "inception_4d/output"
  top: "loss2/ave_pool"
  pooling_param {
    pool: AVE
    kernel_size: 5
    stride: 3
  }
}
layer {
  name: "loss2/conv"
  type: "Convolution"
  bottom: "loss2/ave_pool"
  top: "loss2/conv"
  param {
    lr_mult: 1
    decay_mult: 1
  }
  param {
    lr_mult: 2
    decay_mult: 0
  }
  convolution_param {
    num_output: 128
    kernel_size: 1
    weight_filler {
      type: "xavier"
      std: 0.08
    }
    bias_filler {
      type: "constant"
      value: 0.2
    }
  }
}
layer {
  name: "loss2/relu_conv"
  type: "ReLU"
  bottom: "loss2/conv"
  top: "loss2/conv"
}
layer {
  name: "loss2/fc"
  type: "InnerProduct"
  bottom: "loss2/conv"
  top: "loss2/fc"
  param {
    lr_mult: 1
    decay_mult: 1
  }
  param {
    lr_mult: 2
    decay_mult: 0
  }
  inner_product_param {
    num_output: 1024
    weight_filler {
      type: "xavier"
      std: 0.02
    }
    bias_filler {
      type: "constant"
      value: 0.2
    }
  }
}
layer {
  name: "loss2/relu_fc"
  type: "ReLU"
  bottom: "loss2/fc"
  top: "loss2/fc"
}
layer {
  name: "loss2/drop_fc"
  type: "Dropout"
  bottom: "loss2/fc"
  top: "loss2/fc"
  dropout_param {
    dropout_ratio: 0.7
  }
}
layer {
  name: "loss2/classifier_plantvillage"
  type: "InnerProduct"
  bottom: "loss2/fc"
  top: "loss2/classifier_plantvillage"
  param {
    lr_mult: 1
    decay_mult: 1
  }
  param {
    lr_mult: 2
    decay_mult: 0
  }
  inner_product_param {
    num_output: 38
    weight_filler {
      type: "xavier"
      std: 0.0009765625
    }
    bias_filler {
      type: "constant"
      value: 0
    }
  }
}
layer {
  name: "inception_4e/1x1"
  type: "Convolution"
  bottom: "inception_4d/output"
  top: "inception_4e/1x1"
  param {
    lr_mult: 1
    decay_mult: 1
  }
  param {
    lr_mult: 2
    decay_mult: 0
  }
  convolution_param {
    num_output: 256
    kernel_size: 1
    weight_filler {
      type: "xavier"
      std: 0.03
    }
    bias_filler {
      type: "constant"
      value: 0.2
    }
  }
}
layer {
  name: "inception_4e/relu_1x1"
  type: "ReLU"
  bottom: "inception_4e/1x1"
  top: "inception_4e/1x1"
}
layer {
  name: "inception_4e/3x3_reduce"
  type: "Convolution"
  bottom: "inception_4d/output"
  top: "inception_4e/3x3_reduce"
  param {
    lr_mult: 1
    decay_mult: 1
  }
  param {
    lr_mult: 2
    decay_mult: 0
  }
  convolution_param {
    num_output: 160
    kernel_size: 1
    weight_filler {
      type: "xavier"
      std: 0.09
    }
    bias_filler {
      type: "constant"
      value: 0.2
    }
  }
}
layer {
  name: "inception_4e/relu_3x3_reduce"
  type: "ReLU"
  bottom: "inception_4e/3x3_reduce"
  top: "inception_4e/3x3_reduce"
}
layer {
  name: "inception_4e/3x3"
  type: "Convolution"
  bottom: "inception_4e/3x3_reduce"
  top: "inception_4e/3x3"
  param {
    lr_mult: 1
    decay_mult: 1
  }
  param {
    lr_mult: 2
    decay_mult: 0
  }
  convolution_param {
    num_output: 320
    pad: 1
    kernel_size: 3
    weight_filler {
      type: "xavier"
      std: 0.03
    }
    bias_filler {
      type: "constant"
      value: 0.2
    }
  }
}
layer {
  name: "inception_4e/relu_3x3"
  type: "ReLU"
  bottom: "inception_4e/3x3"
  top: "inception_4e/3x3"
}
layer {
  name: "inception_4e/5x5_reduce"
  type: "Convolution"
  bottom: "inception_4d/output"
  top: "inception_4e/5x5_reduce"
  param {
    lr_mult: 1
    decay_mult: 1
  }
  param {
    lr_mult: 2
    decay_mult: 0
  }
  convolution_param {
    num_output: 32
    kernel_size: 1
    weight_filler {
      type: "xavier"
      std: 0.2
    }
    bias_filler {
      type: "constant"
      value: 0.2
    }
  }
}
layer {
  name: "inception_4e/relu_5x5_reduce"
  type: "ReLU"
  bottom: "inception_4e/5x5_reduce"
  top: "inception_4e/5x5_reduce"
}
layer {
  name: "inception_4e/5x5"
  type: "Convolution"
  bottom: "inception_4e/5x5_reduce"
  top: "inception_4e/
I0403 15:31:07.896507  3180 layer_factory.hpp:77] Creating layer data
I0403 15:31:07.897109  3180 net.cpp:91] Creating Layer data
I0403 15:31:07.897143  3180 net.cpp:399] data -> data
I0403 15:31:07.897194  3180 net.cpp:399] data -> label
I0403 15:31:07.897235  3180 data_transformer.cpp:25] Loading mean file from: /home/mohanty/data/final_dataset/lmdb/segmented-60-40/mean.binaryproto
I0403 15:31:07.900261  3183 db_lmdb.cpp:38] Opened lmdb /home/mohanty/data/final_dataset/lmdb/segmented-60-40/test_db
I0403 15:31:07.910552  3180 data_layer.cpp:41] output data size: 24,3,224,224
I0403 15:31:07.939070  3180 net.cpp:141] Setting up data
I0403 15:31:07.939172  3180 net.cpp:148] Top shape: 24 3 224 224 (3612672)
I0403 15:31:07.939194  3180 net.cpp:148] Top shape: 24 (24)
I0403 15:31:07.939213  3180 net.cpp:156] Memory required for data: 14450784
I0403 15:31:07.939244  3180 layer_factory.hpp:77] Creating layer label_data_1_split
I0403 15:31:07.939270  3180 net.cpp:91] Creating Layer label_data_1_split
I0403 15:31:07.939287  3180 net.cpp:425] label_data_1_split <- label
I0403 15:31:07.939321  3180 net.cpp:399] label_data_1_split -> label_data_1_split_0
I0403 15:31:07.939347  3180 net.cpp:399] label_data_1_split -> label_data_1_split_1
I0403 15:31:07.939368  3180 net.cpp:399] label_data_1_split -> label_data_1_split_2
I0403 15:31:07.939389  3180 net.cpp:399] label_data_1_split -> label_data_1_split_3
I0403 15:31:07.939409  3180 net.cpp:399] label_data_1_split -> label_data_1_split_4
I0403 15:31:07.939429  3180 net.cpp:399] label_data_1_split -> label_data_1_split_5
I0403 15:31:07.939448  3180 net.cpp:399] label_data_1_split -> label_data_1_split_6
I0403 15:31:07.939468  3180 net.cpp:399] label_data_1_split -> label_data_1_split_7
I0403 15:31:07.939488  3180 net.cpp:399] label_data_1_split -> label_data_1_split_8
I0403 15:31:07.939508  3180 net.cpp:399] label_data_1_split -> label_data_1_split_9
I0403 15:31:07.939630  3180 net.cpp:141] Setting up label_data_1_split
I0403 15:31:07.939654  3180 net.cpp:148] Top shape: 24 (24)
I0403 15:31:07.939671  3180 net.cpp:148] Top shape: 24 (24)
I0403 15:31:07.939687  3180 net.cpp:148] Top shape: 24 (24)
I0403 15:31:07.939703  3180 net.cpp:148] Top shape: 24 (24)
I0403 15:31:07.939719  3180 net.cpp:148] Top shape: 24 (24)
I0403 15:31:07.939734  3180 net.cpp:148] Top shape: 24 (24)
I0403 15:31:07.939750  3180 net.cpp:148] Top shape: 24 (24)
I0403 15:31:07.939765  3180 net.cpp:148] Top shape: 24 (24)
I0403 15:31:07.939781  3180 net.cpp:148] Top shape: 24 (24)
I0403 15:31:07.939798  3180 net.cpp:148] Top shape: 24 (24)
I0403 15:31:07.939843  3180 net.cpp:156] Memory required for data: 14451744
I0403 15:31:07.939860  3180 layer_factory.hpp:77] Creating layer conv1/7x7_s2
I0403 15:31:07.939893  3180 net.cpp:91] Creating Layer conv1/7x7_s2
I0403 15:31:07.939911  3180 net.cpp:425] conv1/7x7_s2 <- data
I0403 15:31:07.939931  3180 net.cpp:399] conv1/7x7_s2 -> conv1/7x7_s2
I0403 15:31:08.080059  3180 net.cpp:141] Setting up conv1/7x7_s2
I0403 15:31:08.080147  3180 net.cpp:148] Top shape: 24 64 112 112 (19267584)
I0403 15:31:08.080163  3180 net.cpp:156] Memory required for data: 91522080
I0403 15:31:08.080194  3180 layer_factory.hpp:77] Creating layer conv1/relu_7x7
I0403 15:31:08.080226  3180 net.cpp:91] Creating Layer conv1/relu_7x7
I0403 15:31:08.080246  3180 net.cpp:425] conv1/relu_7x7 <- conv1/7x7_s2
I0403 15:31:08.080265  3180 net.cpp:386] conv1/relu_7x7 -> conv1/7x7_s2 (in-place)
I0403 15:31:08.080519  3180 net.cpp:141] Setting up conv1/relu_7x7
I0403 15:31:08.080546  3180 net.cpp:148] Top shape: 24 64 112 112 (19267584)
I0403 15:31:08.080562  3180 net.cpp:156] Memory required for data: 168592416
I0403 15:31:08.080576  3180 layer_factory.hpp:77] Creating layer pool1/3x3_s2
I0403 15:31:08.080601  3180 net.cpp:91] Creating Layer pool1/3x3_s2
I0403 15:31:08.080618  3180 net.cpp:425] pool1/3x3_s2 <- conv1/7x7_s2
I0403 15:31:08.080636  3180 net.cpp:399] pool1/3x3_s2 -> pool1/3x3_s2
I0403 15:31:08.080708  3180 net.cpp:141] Setting up pool1/3x3_s2
I0403 15:31:08.080730  3180 net.cpp:148] Top shape: 24 64 56 56 (4816896)
I0403 15:31:08.080745  3180 net.cpp:156] Memory required for data: 187860000
I0403 15:31:08.080760  3180 layer_factory.hpp:77] Creating layer pool1/norm1
I0403 15:31:08.080785  3180 net.cpp:91] Creating Layer pool1/norm1
I0403 15:31:08.080801  3180 net.cpp:425] pool1/norm1 <- pool1/3x3_s2
I0403 15:31:08.080818  3180 net.cpp:399] pool1/norm1 -> pool1/norm1
I0403 15:31:08.081099  3180 net.cpp:141] Setting up pool1/norm1
I0403 15:31:08.081125  3180 net.cpp:148] Top shape: 24 64 56 56 (4816896)
I0403 15:31:08.081140  3180 net.cpp:156] Memory required for data: 207127584
I0403 15:31:08.081156  3180 layer_factory.hpp:77] Creating layer conv2/3x3_reduce
I0403 15:31:08.081179  3180 net.cpp:91] Creating Layer conv2/3x3_reduce
I0403 15:31:08.081194  3180 net.cpp:425] conv2/3x3_reduce <- pool1/norm1
I0403 15:31:08.081218  3180 net.cpp:399] conv2/3x3_reduce -> conv2/3x3_reduce
I0403 15:31:08.082528  3180 net.cpp:141] Setting up conv2/3x3_reduce
I0403 15:31:08.082557  3180 net.cpp:148] Top shape: 24 64 56 56 (4816896)
I0403 15:31:08.082573  3180 net.cpp:156] Memory required for data: 226395168
I0403 15:31:08.082594  3180 layer_factory.hpp:77] Creating layer conv2/relu_3x3_reduce
I0403 15:31:08.082612  3180 net.cpp:91] Creating Layer conv2/relu_3x3_reduce
I0403 15:31:08.082628  3180 net.cpp:425] conv2/relu_3x3_reduce <- conv2/3x3_reduce
I0403 15:31:08.082645  3180 net.cpp:386] conv2/relu_3x3_reduce -> conv2/3x3_reduce (in-place)
I0403 15:31:08.082891  3180 net.cpp:141] Setting up conv2/relu_3x3_reduce
I0403 15:31:08.082916  3180 net.cpp:148] Top shape: 24 64 56 56 (4816896)
I0403 15:31:08.082931  3180 net.cpp:156] Memory required for data: 245662752
I0403 15:31:08.082947  3180 layer_factory.hpp:77] Creating layer conv2/3x3
I0403 15:31:08.082968  3180 net.cpp:91] Creating Layer conv2/3x3
I0403 15:31:08.082984  3180 net.cpp:425] conv2/3x3 <- conv2/3x3_reduce
I0403 15:31:08.083003  3180 net.cpp:399] conv2/3x3 -> conv2/3x3
I0403 15:31:08.085256  3180 net.cpp:141] Setting up conv2/3x3
I0403 15:31:08.085286  3180 net.cpp:148] Top shape: 24 192 56 56 (14450688)
I0403 15:31:08.085302  3180 net.cpp:156] Memory required for data: 303465504
I0403 15:31:08.085325  3180 layer_factory.hpp:77] Creating layer conv2/relu_3x3
I0403 15:31:08.085343  3180 net.cpp:91] Creating Layer conv2/relu_3x3
I0403 15:31:08.085360  3180 net.cpp:425] conv2/relu_3x3 <- conv2/3x3
I0403 15:31:08.085376  3180 net.cpp:386] conv2/relu_3x3 -> conv2/3x3 (in-place)
I0403 15:31:08.085538  3180 net.cpp:141] Setting up conv2/relu_3x3
I0403 15:31:08.085563  3180 net.cpp:148] Top shape: 24 192 56 56 (14450688)
I0403 15:31:08.085610  3180 net.cpp:156] Memory required for data: 361268256
I0403 15:31:08.085626  3180 layer_factory.hpp:77] Creating layer conv2/norm2
I0403 15:31:08.085645  3180 net.cpp:91] Creating Layer conv2/norm2
I0403 15:31:08.085662  3180 net.cpp:425] conv2/norm2 <- conv2/3x3
I0403 15:31:08.085680  3180 net.cpp:399] conv2/norm2 -> conv2/norm2
I0403 15:31:08.085974  3180 net.cpp:141] Setting up conv2/norm2
I0403 15:31:08.086001  3180 net.cpp:148] Top shape: 24 192 56 56 (14450688)
I0403 15:31:08.086016  3180 net.cpp:156] Memory required for data: 419071008
I0403 15:31:08.086031  3180 layer_factory.hpp:77] Creating layer pool2/3x3_s2
I0403 15:31:08.086050  3180 net.cpp:91] Creating Layer pool2/3x3_s2
I0403 15:31:08.086066  3180 net.cpp:425] pool2/3x3_s2 <- conv2/norm2
I0403 15:31:08.086083  3180 net.cpp:399] pool2/3x3_s2 -> pool2/3x3_s2
I0403 15:31:08.086133  3180 net.cpp:141] Setting up pool2/3x3_s2
I0403 15:31:08.086156  3180 net.cpp:148] Top shape: 24 192 28 28 (3612672)
I0403 15:31:08.086170  3180 net.cpp:156] Memory required for data: 433521696
I0403 15:31:08.086185  3180 layer_factory.hpp:77] Creating layer pool2/3x3_s2_pool2/3x3_s2_0_split
I0403 15:31:08.086204  3180 net.cpp:91] Creating Layer pool2/3x3_s2_pool2/3x3_s2_0_split
I0403 15:31:08.086225  3180 net.cpp:425] pool2/3x3_s2_pool2/3x3_s2_0_split <- pool2/3x3_s2
I0403 15:31:08.086242  3180 net.cpp:399] pool2/3x3_s2_pool2/3x3_s2_0_split -> pool2/3x3_s2_pool2/3x3_s2_0_split_0
I0403 15:31:08.086262  3180 net.cpp:399] pool2/3x3_s2_pool2/3x3_s2_0_split -> pool2/3x3_s2_pool2/3x3_s2_0_split_1
I0403 15:31:08.086282  3180 net.cpp:399] pool2/3x3_s2_pool2/3x3_s2_0_split -> pool2/3x3_s2_pool2/3x3_s2_0_split_2
I0403 15:31:08.086302  3180 net.cpp:399] pool2/3x3_s2_pool2/3x3_s2_0_split -> pool2/3x3_s2_pool2/3x3_s2_0_split_3
I0403 15:31:08.086375  3180 net.cpp:141] Setting up pool2/3x3_s2_pool2/3x3_s2_0_split
I0403 15:31:08.086398  3180 net.cpp:148] Top shape: 24 192 28 28 (3612672)
I0403 15:31:08.086415  3180 net.cpp:148] Top shape: 24 192 28 28 (3612672)
I0403 15:31:08.086431  3180 net.cpp:148] Top shape: 24 192 28 28 (3612672)
I0403 15:31:08.086446  3180 net.cpp:148] Top shape: 24 192 28 28 (3612672)
I0403 15:31:08.086459  3180 net.cpp:156] Memory required for data: 491324448
I0403 15:31:08.086474  3180 layer_factory.hpp:77] Creating layer inception_3a/1x1
I0403 15:31:08.086498  3180 net.cpp:91] Creating Layer inception_3a/1x1
I0403 15:31:08.086514  3180 net.cpp:425] inception_3a/1x1 <- pool2/3x3_s2_pool2/3x3_s2_0_split_0
I0403 15:31:08.086535  3180 net.cpp:399] inception_3a/1x1 -> inception_3a/1x1
I0403 15:31:08.088115  3180 net.cpp:141] Setting up inception_3a/1x1
I0403 15:31:08.088147  3180 net.cpp:148] Top shape: 24 64 28 28 (1204224)
I0403 15:31:08.088165  3180 net.cpp:156] Memory required for data: 496141344
I0403 15:31:08.088183  3180 layer_factory.hpp:77] Creating layer inception_3a/relu_1x1
I0403 15:31:08.088202  3180 net.cpp:91] Creating Layer inception_3a/relu_1x1
I0403 15:31:08.088223  3180 net.cpp:425] inception_3a/relu_1x1 <- inception_3a/1x1
I0403 15:31:08.088244  3180 net.cpp:386] inception_3a/relu_1x1 -> inception_3a/1x1 (in-place)
I0403 15:31:08.088423  3180 net.cpp:141] Setting up inception_3a/relu_1x1
I0403 15:31:08.088449  3180 net.cpp:148] Top shape: 24 64 28 28 (1204224)
I0403 15:31:08.088464  3180 net.cpp:156] Memory required for data: 500958240
I0403 15:31:08.088479  3180 layer_factory.hpp:77] Creating layer inception_3a/3x3_reduce
I0403 15:31:08.088502  3180 net.cpp:91] Creating Layer inception_3a/3x3_reduce
I0403 15:31:08.088520  3180 net.cpp:425] inception_3a/3x3_reduce <- pool2/3x3_s2_pool2/3x3_s2_0_split_1
I0403 15:31:08.088541  3180 net.cpp:399] inception_3a/3x3_reduce -> inception_3a/3x3_reduce
I0403 15:31:08.090282  3180 net.cpp:141] Setting up inception_3a/3x3_reduce
I0403 15:31:08.090312  3180 net.cpp:148] Top shape: 24 96 28 28 (1806336)
I0403 15:31:08.090328  3180 net.cpp:156] Memory required for data: 508183584
I0403 15:31:08.090350  3180 layer_factory.hpp:77] Creating layer inception_3a/relu_3x3_reduce
I0403 15:31:08.090389  3180 net.cpp:91] Creating Layer inception_3a/relu_3x3_reduce
I0403 15:31:08.090407  3180 net.cpp:425] inception_3a/relu_3x3_reduce <- inception_3a/3x3_reduce
I0403 15:31:08.090426  3180 net.cpp:386] inception_3a/relu_3x3_reduce -> inception_3a/3x3_reduce (in-place)
I0403 15:31:08.090612  3180 net.cpp:141] Setting up inception_3a/relu_3x3_reduce
I0403 15:31:08.090641  3180 net.cpp:148] Top shape: 24 96 28 28 (1806336)
I0403 15:31:08.090656  3180 net.cpp:156] Memory required for data: 515408928
I0403 15:31:08.090672  3180 layer_factory.hpp:77] Creating layer inception_3a/3x3
I0403 15:31:08.090694  3180 net.cpp:91] Creating Layer inception_3a/3x3
I0403 15:31:08.090713  3180 net.cpp:425] inception_3a/3x3 <- inception_3a/3x3_reduce
I0403 15:31:08.090733  3180 net.cpp:399] inception_3a/3x3 -> inception_3a/3x3
I0403 15:31:08.092434  3180 net.cpp:141] Setting up inception_3a/3x3
I0403 15:31:08.092463  3180 net.cpp:148] Top shape: 24 128 28 28 (2408448)
I0403 15:31:08.092478  3180 net.cpp:156] Memory required for data: 525042720
I0403 15:31:08.092497  3180 layer_factory.hpp:77] Creating layer inception_3a/relu_3x3
I0403 15:31:08.092519  3180 net.cpp:91] Creating Layer inception_3a/relu_3x3
I0403 15:31:08.092538  3180 net.cpp:425] inception_3a/relu_3x3 <- inception_3a/3x3
I0403 15:31:08.092556  3180 net.cpp:386] inception_3a/relu_3x3 -> inception_3a/3x3 (in-place)
I0403 15:31:08.092838  3180 net.cpp:141] Setting up inception_3a/relu_3x3
I0403 15:31:08.092864  3180 net.cpp:148] Top shape: 24 128 28 28 (2408448)
I0403 15:31:08.092880  3180 net.cpp:156] Memory required for data: 534676512
I0403 15:31:08.092895  3180 layer_factory.hpp:77] Creating layer inception_3a/5x5_reduce
I0403 15:31:08.092917  3180 net.cpp:91] Creating Layer inception_3a/5x5_reduce
I0403 15:31:08.092934  3180 net.cpp:425] inception_3a/5x5_reduce <- pool2/3x3_s2_pool2/3x3_s2_0_split_2
I0403 15:31:08.092955  3180 net.cpp:399] inception_3a/5x5_reduce -> inception_3a/5x5_reduce
I0403 15:31:08.093986  3180 net.cpp:141] Setting up inception_3a/5x5_reduce
I0403 15:31:08.094015  3180 net.cpp:148] Top shape: 24 16 28 28 (301056)
I0403 15:31:08.094032  3180 net.cpp:156] Memory required for data: 535880736
I0403 15:31:08.094049  3180 layer_factory.hpp:77] Creating layer inception_3a/relu_5x5_reduce
I0403 15:31:08.094070  3180 net.cpp:91] Creating Layer inception_3a/relu_5x5_reduce
I0403 15:31:08.094087  3180 net.cpp:425] inception_3a/relu_5x5_reduce <- inception_3a/5x5_reduce
I0403 15:31:08.094105  3180 net.cpp:386] inception_3a/relu_5x5_reduce -> inception_3a/5x5_reduce (in-place)
I0403 15:31:08.094414  3180 net.cpp:141] Setting up inception_3a/relu_5x5_reduce
I0403 15:31:08.094441  3180 net.cpp:148] Top shape: 24 16 28 28 (301056)
I0403 15:31:08.094457  3180 net.cpp:156] Memory required for data: 537084960
I0403 15:31:08.094472  3180 layer_factory.hpp:77] Creating layer inception_3a/5x5
I0403 15:31:08.094496  3180 net.cpp:91] Creating Layer inception_3a/5x5
I0403 15:31:08.094512  3180 net.cpp:425] inception_3a/5x5 <- inception_3a/5x5_reduce
I0403 15:31:08.094534  3180 net.cpp:399] inception_3a/5x5 -> inception_3a/5x5
I0403 15:31:08.095615  3180 net.cpp:141] Setting up inception_3a/5x5
I0403 15:31:08.095645  3180 net.cpp:148] Top shape: 24 32 28 28 (602112)
I0403 15:31:08.095662  3180 net.cpp:156] Memory required for data: 539493408
I0403 15:31:08.095681  3180 layer_factory.hpp:77] Creating layer inception_3a/relu_5x5
I0403 15:31:08.095700  3180 net.cpp:91] Creating Layer inception_3a/relu_5x5
I0403 15:31:08.095716  3180 net.cpp:425] inception_3a/relu_5x5 <- inception_3a/5x5
I0403 15:31:08.095736  3180 net.cpp:386] inception_3a/relu_5x5 -> inception_3a/5x5 (in-place)
I0403 15:31:08.095916  3180 net.cpp:141] Setting up inception_3a/relu_5x5
I0403 15:31:08.095940  3180 net.cpp:148] Top shape: 24 32 28 28 (602112)
I0403 15:31:08.095955  3180 net.cpp:156] Memory required for data: 541901856
I0403 15:31:08.095970  3180 layer_factory.hpp:77] Creating layer inception_3a/pool
I0403 15:31:08.095990  3180 net.cpp:91] Creating Layer inception_3a/pool
I0403 15:31:08.096024  3180 net.cpp:425] inception_3a/pool <- pool2/3x3_s2_pool2/3x3_s2_0_split_3
I0403 15:31:08.096042  3180 net.cpp:399] inception_3a/pool -> inception_3a/pool
I0403 15:31:08.096102  3180 net.cpp:141] Setting up inception_3a/pool
I0403 15:31:08.096125  3180 net.cpp:148] Top shape: 24 192 28 28 (3612672)
I0403 15:31:08.096139  3180 net.cpp:156] Memory required for data: 556352544
I0403 15:31:08.096154  3180 layer_factory.hpp:77] Creating layer inception_3a/pool_proj
I0403 15:31:08.096176  3180 net.cpp:91] Creating Layer inception_3a/pool_proj
I0403 15:31:08.096194  3180 net.cpp:425] inception_3a/pool_proj <- inception_3a/pool
I0403 15:31:08.096222  3180 net.cpp:399] inception_3a/pool_proj -> inception_3a/pool_proj
I0403 15:31:08.097218  3180 net.cpp:141] Setting up inception_3a/pool_proj
I0403 15:31:08.097246  3180 net.cpp:148] Top shape: 24 32 28 28 (602112)
I0403 15:31:08.097262  3180 net.cpp:156] Memory required for data: 558760992
I0403 15:31:08.097287  3180 layer_factory.hpp:77] Creating layer inception_3a/relu_pool_proj
I0403 15:31:08.097309  3180 net.cpp:91] Creating Layer inception_3a/relu_pool_proj
I0403 15:31:08.097326  3180 net.cpp:425] inception_3a/relu_pool_proj <- inception_3a/pool_proj
I0403 15:31:08.097343  3180 net.cpp:386] inception_3a/relu_pool_proj -> inception_3a/pool_proj (in-place)
I0403 15:31:08.097635  3180 net.cpp:141] Setting up inception_3a/relu_pool_proj
I0403 15:31:08.097661  3180 net.cpp:148] Top shape: 24 32 28 28 (602112)
I0403 15:31:08.097676  3180 net.cpp:156] Memory required for data: 561169440
I0403 15:31:08.097692  3180 layer_factory.hpp:77] Creating layer inception_3a/output
I0403 15:31:08.097709  3180 net.cpp:91] Creating Layer inception_3a/output
I0403 15:31:08.097725  3180 net.cpp:425] inception_3a/output <- inception_3a/1x1
I0403 15:31:08.097741  3180 net.cpp:425] inception_3a/output <- inception_3a/3x3
I0403 15:31:08.097757  3180 net.cpp:425] inception_3a/output <- inception_3a/5x5
I0403 15:31:08.097774  3180 net.cpp:425] inception_3a/output <- inception_3a/pool_proj
I0403 15:31:08.097793  3180 net.cpp:399] inception_3a/output -> inception_3a/output
I0403 15:31:08.097841  3180 net.cpp:141] Setting up inception_3a/output
I0403 15:31:08.097865  3180 net.cpp:148] Top shape: 24 256 28 28 (4816896)
I0403 15:31:08.097882  3180 net.cpp:156] Memory required for data: 580437024
I0403 15:31:08.097908  3180 layer_factory.hpp:77] Creating layer inception_3a/output_inception_3a/output_0_split
I0403 15:31:08.097926  3180 net.cpp:91] Creating Layer inception_3a/output_inception_3a/output_0_split
I0403 15:31:08.097941  3180 net.cpp:425] inception_3a/output_inception_3a/output_0_split <- inception_3a/output
I0403 15:31:08.097981  3180 net.cpp:399] inception_3a/output_inception_3a/output_0_split -> inception_3a/output_inception_3a/output_0_split_0
I0403 15:31:08.098002  3180 net.cpp:399] inception_3a/output_inception_3a/output_0_split -> inception_3a/output_inception_3a/output_0_split_1
I0403 15:31:08.098033  3180 net.cpp:399] inception_3a/output_inception_3a/output_0_split -> inception_3a/output_inception_3a/output_0_split_2
I0403 15:31:08.098053  3180 net.cpp:399] inception_3a/output_inception_3a/output_0_split -> inception_3a/output_inception_3a/output_0_split_3
I0403 15:31:08.098129  3180 net.cpp:141] Setting up inception_3a/output_inception_3a/output_0_split
I0403 15:31:08.098153  3180 net.cpp:148] Top shape: 24 256 28 28 (4816896)
I0403 15:31:08.098170  3180 net.cpp:148] Top shape: 24 256 28 28 (4816896)
I0403 15:31:08.098186  3180 net.cpp:148] Top shape: 24 256 28 28 (4816896)
I0403 15:31:08.098202  3180 net.cpp:148] Top shape: 24 256 28 28 (4816896)
I0403 15:31:08.098223  3180 net.cpp:156] Memory required for data: 657507360
I0403 15:31:08.098239  3180 layer_factory.hpp:77] Creating layer inception_3b/1x1
I0403 15:31:08.098273  3180 net.cpp:91] Creating Layer inception_3b/1x1
I0403 15:31:08.098290  3180 net.cpp:425] inception_3b/1x1 <- inception_3a/output_inception_3a/output_0_split_0
I0403 15:31:08.098311  3180 net.cpp:399] inception_3b/1x1 -> inception_3b/1x1
I0403 15:31:08.099454  3180 net.cpp:141] Setting up inception_3b/1x1
I0403 15:31:08.099496  3180 net.cpp:148] Top shape: 24 128 28 28 (2408448)
I0403 15:31:08.099512  3180 net.cpp:156] Memory required for data: 667141152
I0403 15:31:08.099530  3180 layer_factory.hpp:77] Creating layer inception_3b/relu_1x1
I0403 15:31:08.099548  3180 net.cpp:91] Creating Layer inception_3b/relu_1x1
I0403 15:31:08.099563  3180 net.cpp:425] inception_3b/relu_1x1 <- inception_3b/1x1
I0403 15:31:08.099582  3180 net.cpp:386] inception_3b/relu_1x1 -> inception_3b/1x1 (in-place)
I0403 15:31:08.099761  3180 net.cpp:141] Setting up inception_3b/relu_1x1
I0403 15:31:08.099786  3180 net.cpp:148] Top shape: 24 128 28 28 (2408448)
I0403 15:31:08.099800  3180 net.cpp:156] Memory required for data: 676774944
I0403 15:31:08.099814  3180 layer_factory.hpp:77] Creating layer inception_3b/3x3_reduce
I0403 15:31:08.099838  3180 net.cpp:91] Creating Layer inception_3b/3x3_reduce
I0403 15:31:08.099853  3180 net.cpp:425] inception_3b/3x3_reduce <- inception_3a/output_inception_3a/output_0_split_1
I0403 15:31:08.099874  3180 net.cpp:399] inception_3b/3x3_reduce -> inception_3b/3x3_reduce
I0403 15:31:08.101007  3180 net.cpp:141] Setting up inception_3b/3x3_reduce
I0403 15:31:08.101037  3180 net.cpp:148] Top shape: 24 128 28 28 (2408448)
I0403 15:31:08.101052  3180 net.cpp:156] Memory required for data: 686408736
I0403 15:31:08.101071  3180 layer_factory.hpp:77] Creating layer inception_3b/relu_3x3_reduce
I0403 15:31:08.101089  3180 net.cpp:91] Creating Layer inception_3b/relu_3x3_reduce
I0403 15:31:08.101104  3180 net.cpp:425] inception_3b/relu_3x3_reduce <- inception_3b/3x3_reduce
I0403 15:31:08.101125  3180 net.cpp:386] inception_3b/relu_3x3_reduce -> inception_3b/3x3_reduce (in-place)
I0403 15:31:08.101305  3180 net.cpp:141] Setting up inception_3b/relu_3x3_reduce
I0403 15:31:08.101330  3180 net.cpp:148] Top shape: 24 128 28 28 (2408448)
I0403 15:31:08.101343  3180 net.cpp:156] Memory required for data: 696042528
I0403 15:31:08.101358  3180 layer_factory.hpp:77] Creating layer inception_3b/3x3
I0403 15:31:08.101384  3180 net.cpp:91] Creating Layer inception_3b/3x3
I0403 15:31:08.101402  3180 net.cpp:425] inception_3b/3x3 <- inception_3b/3x3_reduce
I0403 15:31:08.101420  3180 net.cpp:399] inception_3b/3x3 -> inception_3b/3x3
I0403 15:31:08.104351  3180 net.cpp:141] Setting up inception_3b/3x3
I0403 15:31:08.104380  3180 net.cpp:148] Top shape: 24 192 28 28 (3612672)
I0403 15:31:08.104396  3180 net.cpp:156] Memory required for data: 710493216
I0403 15:31:08.104415  3180 layer_factory.hpp:77] Creating layer inception_3b/relu_3x3
I0403 15:31:08.104435  3180 net.cpp:91] Creating Layer inception_3b/relu_3x3
I0403 15:31:08.104454  3180 net.cpp:425] inception_3b/relu_3x3 <- inception_3b/3x3
I0403 15:31:08.104482  3180 net.cpp:386] inception_3b/relu_3x3 -> inception_3b/3x3 (in-place)
I0403 15:31:08.104764  3180 net.cpp:141] Setting up inception_3b/relu_3x3
I0403 15:31:08.104790  3180 net.cpp:148] Top shape: 24 192 28 28 (3612672)
I0403 15:31:08.104804  3180 net.cpp:156] Memory required for data: 724943904
I0403 15:31:08.104820  3180 layer_factory.hpp:77] Creating layer inception_3b/5x5_reduce
I0403 15:31:08.104843  3180 net.cpp:91] Creating Layer inception_3b/5x5_reduce
I0403 15:31:08.104861  3180 net.cpp:425] inception_3b/5x5_reduce <- inception_3a/output_inception_3a/output_0_split_2
I0403 15:31:08.104882  3180 net.cpp:399] inception_3b/5x5_reduce -> inception_3b/5x5_reduce
I0403 15:31:08.105877  3180 net.cpp:141] Setting up inception_3b/5x5_reduce
I0403 15:31:08.105904  3180 net.cpp:148] Top shape: 24 32 28 28 (602112)
I0403 15:31:08.105921  3180 net.cpp:156] Memory required for data: 727352352
I0403 15:31:08.105938  3180 layer_factory.hpp:77] Creating layer inception_3b/relu_5x5_reduce
I0403 15:31:08.105957  3180 net.cpp:91] Creating Layer inception_3b/relu_5x5_reduce
I0403 15:31:08.105972  3180 net.cpp:425] inception_3b/relu_5x5_reduce <- inception_3b/5x5_reduce
I0403 15:31:08.105993  3180 net.cpp:386] inception_3b/relu_5x5_reduce -> inception_3b/5x5_reduce (in-place)
I0403 15:31:08.106179  3180 net.cpp:141] Setting up inception_3b/relu_5x5_reduce
I0403 15:31:08.106204  3180 net.cpp:148] Top shape: 24 32 28 28 (602112)
I0403 15:31:08.106225  3180 net.cpp:156] Memory required for data: 729760800
I0403 15:31:08.106240  3180 layer_factory.hpp:77] Creating layer inception_3b/5x5
I0403 15:31:08.106262  3180 net.cpp:91] Creating Layer inception_3b/5x5
I0403 15:31:08.106279  3180 net.cpp:425] inception_3b/5x5 <- inception_3b/5x5_reduce
I0403 15:31:08.106302  3180 net.cpp:399] inception_3b/5x5 -> inception_3b/5x5
I0403 15:31:08.108278  3180 net.cpp:141] Setting up inception_3b/5x5
I0403 15:31:08.108310  3180 net.cpp:148] Top shape: 24 96 28 28 (1806336)
I0403 15:31:08.108327  3180 net.cpp:156] Memory required for data: 736986144
I0403 15:31:08.108346  3180 layer_factory.hpp:77] Creating layer inception_3b/relu_5x5
I0403 15:31:08.108363  3180 net.cpp:91] Creating Layer inception_3b/relu_5x5
I0403 15:31:08.108379  3180 net.cpp:425] inception_3b/relu_5x5 <- inception_3b/5x5
I0403 15:31:08.108399  3180 net.cpp:386] inception_3b/relu_5x5 -> inception_3b/5x5 (in-place)
I0403 15:31:08.108603  3180 net.cpp:141] Setting up inception_3b/relu_5x5
I0403 15:31:08.108628  3180 net.cpp:148] Top shape: 24 96 28 28 (1806336)
I0403 15:31:08.108644  3180 net.cpp:156] Memory required for data: 744211488
I0403 15:31:08.108659  3180 layer_factory.hpp:77] Creating layer inception_3b/pool
I0403 15:31:08.108675  3180 net.cpp:91] Creating Layer inception_3b/pool
I0403 15:31:08.108691  3180 net.cpp:425] inception_3b/pool <- inception_3a/output_inception_3a/output_0_split_3
I0403 15:31:08.108710  3180 net.cpp:399] inception_3b/pool -> inception_3b/pool
I0403 15:31:08.108763  3180 net.cpp:141] Setting up inception_3b/pool
I0403 15:31:08.108785  3180 net.cpp:148] Top shape: 24 256 28 28 (4816896)
I0403 15:31:08.108799  3180 net.cpp:156] Memory required for data: 763479072
I0403 15:31:08.108814  3180 layer_factory.hpp:77] Creating layer inception_3b/pool_proj
I0403 15:31:08.108839  3180 net.cpp:91] Creating Layer inception_3b/pool_proj
I0403 15:31:08.108856  3180 net.cpp:425] inception_3b/pool_proj <- inception_3b/pool
I0403 15:31:08.108875  3180 net.cpp:399] inception_3b/pool_proj -> inception_3b/pool_proj
I0403 15:31:08.109935  3180 net.cpp:141] Setting up inception_3b/pool_proj
I0403 15:31:08.109962  3180 net.cpp:148] Top shape: 24 64 28 28 (1204224)
I0403 15:31:08.109977  3180 net.cpp:156] Memory required for data: 768295968
I0403 15:31:08.109995  3180 layer_factory.hpp:77] Creating layer inception_3b/relu_pool_proj
I0403 15:31:08.110015  3180 net.cpp:91] Creating Layer inception_3b/relu_pool_proj
I0403 15:31:08.110033  3180 net.cpp:425] inception_3b/relu_pool_proj <- inception_3b/pool_proj
I0403 15:31:08.110049  3180 net.cpp:386] inception_3b/relu_pool_proj -> inception_3b/pool_proj (in-place)
I0403 15:31:08.110452  3180 net.cpp:141] Setting up inception_3b/relu_pool_proj
I0403 15:31:08.110479  3180 net.cpp:148] Top shape: 24 64 28 28 (1204224)
I0403 15:31:08.110494  3180 net.cpp:156] Memory required for data: 773112864
I0403 15:31:08.110509  3180 layer_factory.hpp:77] Creating layer inception_3b/output
I0403 15:31:08.110530  3180 net.cpp:91] Creating Layer inception_3b/output
I0403 15:31:08.110546  3180 net.cpp:425] inception_3b/output <- inception_3b/1x1
I0403 15:31:08.110563  3180 net.cpp:425] inception_3b/output <- inception_3b/3x3
I0403 15:31:08.110579  3180 net.cpp:425] inception_3b/output <- inception_3b/5x5
I0403 15:31:08.110594  3180 net.cpp:425] inception_3b/output <- inception_3b/pool_proj
I0403 15:31:08.110611  3180 net.cpp:399] inception_3b/output -> inception_3b/output
I0403 15:31:08.110653  3180 net.cpp:141] Setting up inception_3b/output
I0403 15:31:08.110678  3180 net.cpp:148] Top shape: 24 480 28 28 (9031680)
I0403 15:31:08.110693  3180 net.cpp:156] Memory required for data: 809239584
I0403 15:31:08.110708  3180 layer_factory.hpp:77] Creating layer pool3/3x3_s2
I0403 15:31:08.110726  3180 net.cpp:91] Creating Layer pool3/3x3_s2
I0403 15:31:08.110741  3180 net.cpp:425] pool3/3x3_s2 <- inception_3b/output
I0403 15:31:08.110776  3180 net.cpp:399] pool3/3x3_s2 -> pool3/3x3_s2
I0403 15:31:08.110834  3180 net.cpp:141] Setting up pool3/3x3_s2
I0403 15:31:08.110858  3180 net.cpp:148] Top shape: 24 480 14 14 (2257920)
I0403 15:31:08.110873  3180 net.cpp:156] Memory required for data: 818271264
I0403 15:31:08.110888  3180 layer_factory.hpp:77] Creating layer pool3/3x3_s2_pool3/3x3_s2_0_split
I0403 15:31:08.110904  3180 net.cpp:91] Creating Layer pool3/3x3_s2_pool3/3x3_s2_0_split
I0403 15:31:08.110920  3180 net.cpp:425] pool3/3x3_s2_pool3/3x3_s2_0_split <- pool3/3x3_s2
I0403 15:31:08.110937  3180 net.cpp:399] pool3/3x3_s2_pool3/3x3_s2_0_split -> pool3/3x3_s2_pool3/3x3_s2_0_split_0
I0403 15:31:08.110955  3180 net.cpp:399] pool3/3x3_s2_pool3/3x3_s2_0_split -> pool3/3x3_s2_pool3/3x3_s2_0_split_1
I0403 15:31:08.110976  3180 net.cpp:399] pool3/3x3_s2_pool3/3x3_s2_0_split -> pool3/3x3_s2_pool3/3x3_s2_0_split_2
I0403 15:31:08.110996  3180 net.cpp:399] pool3/3x3_s2_pool3/3x3_s2_0_split -> pool3/3x3_s2_pool3/3x3_s2_0_split_3
I0403 15:31:08.111073  3180 net.cpp:141] Setting up pool3/3x3_s2_pool3/3x3_s2_0_split
I0403 15:31:08.111094  3180 net.cpp:148] Top shape: 24 480 14 14 (2257920)
I0403 15:31:08.111109  3180 net.cpp:148] Top shape: 24 480 14 14 (2257920)
I0403 15:31:08.111124  3180 net.cpp:148] Top shape: 24 480 14 14 (2257920)
I0403 15:31:08.111140  3180 net.cpp:148] Top shape: 24 480 14 14 (2257920)
I0403 15:31:08.111153  3180 net.cpp:156] Memory required for data: 854397984
I0403 15:31:08.111167  3180 layer_factory.hpp:77] Creating layer inception_4a/1x1
I0403 15:31:08.111189  3180 net.cpp:91] Creating Layer inception_4a/1x1
I0403 15:31:08.111207  3180 net.cpp:425] inception_4a/1x1 <- pool3/3x3_s2_pool3/3x3_s2_0_split_0
I0403 15:31:08.111250  3180 net.cpp:399] inception_4a/1x1 -> inception_4a/1x1
I0403 15:31:08.112886  3180 net.cpp:141] Setting up inception_4a/1x1
I0403 15:31:08.112915  3180 net.cpp:148] Top shape: 24 192 14 14 (903168)
I0403 15:31:08.112931  3180 net.cpp:156] Memory required for data: 858010656
I0403 15:31:08.112949  3180 layer_factory.hpp:77] Creating layer inception_4a/relu_1x1
I0403 15:31:08.112970  3180 net.cpp:91] Creating Layer inception_4a/relu_1x1
I0403 15:31:08.112987  3180 net.cpp:425] inception_4a/relu_1x1 <- inception_4a/1x1
I0403 15:31:08.113004  3180 net.cpp:386] inception_4a/relu_1x1 -> inception_4a/1x1 (in-place)
I0403 15:31:08.113186  3180 net.cpp:141] Setting up inception_4a/relu_1x1
I0403 15:31:08.113219  3180 net.cpp:148] Top shape: 24 192 14 14 (903168)
I0403 15:31:08.113234  3180 net.cpp:156] Memory required for data: 861623328
I0403 15:31:08.113250  3180 layer_factory.hpp:77] Creating layer inception_4a/3x3_reduce
I0403 15:31:08.113272  3180 net.cpp:91] Creating Layer inception_4a/3x3_reduce
I0403 15:31:08.113289  3180 net.cpp:425] inception_4a/3x3_reduce <- pool3/3x3_s2_pool3/3x3_s2_0_split_1
I0403 15:31:08.113312  3180 net.cpp:399] inception_4a/3x3_reduce -> inception_4a/3x3_reduce
I0403 15:31:08.114637  3180 net.cpp:141] Setting up inception_4a/3x3_reduce
I0403 15:31:08.114665  3180 net.cpp:148] Top shape: 24 96 14 14 (451584)
I0403 15:31:08.114681  3180 net.cpp:156] Memory required for data: 863429664
I0403 15:31:08.114706  3180 layer_factory.hpp:77] Creating layer inception_4a/relu_3x3_reduce
I0403 15:31:08.114729  3180 net.cpp:91] Creating Layer inception_4a/relu_3x3_reduce
I0403 15:31:08.114758  3180 net.cpp:425] inception_4a/relu_3x3_reduce <- inception_4a/3x3_reduce
I0403 15:31:08.114778  3180 net.cpp:386] inception_4a/relu_3x3_reduce -> inception_4a/3x3_reduce (in-place)
I0403 15:31:08.114965  3180 net.cpp:141] Setting up inception_4a/relu_3x3_reduce
I0403 15:31:08.114994  3180 net.cpp:148] Top shape: 24 96 14 14 (451584)
I0403 15:31:08.115010  3180 net.cpp:156] Memory required for data: 865236000
I0403 15:31:08.115025  3180 layer_factory.hpp:77] Creating layer inception_4a/3x3
I0403 15:31:08.115059  3180 net.cpp:91] Creating Layer inception_4a/3x3
I0403 15:31:08.115077  3180 net.cpp:425] inception_4a/3x3 <- inception_4a/3x3_reduce
I0403 15:31:08.115097  3180 net.cpp:399] inception_4a/3x3 -> inception_4a/3x3
I0403 15:31:08.117856  3180 net.cpp:141] Setting up inception_4a/3x3
I0403 15:31:08.117889  3180 net.cpp:148] Top shape: 24 208 14 14 (978432)
I0403 15:31:08.117907  3180 net.cpp:156] Memory required for data: 869149728
I0403 15:31:08.117924  3180 layer_factory.hpp:77] Creating layer inception_4a/relu_3x3
I0403 15:31:08.117944  3180 net.cpp:91] Creating Layer inception_4a/relu_3x3
I0403 15:31:08.117959  3180 net.cpp:425] inception_4a/relu_3x3 <- inception_4a/3x3
I0403 15:31:08.117980  3180 net.cpp:386] inception_4a/relu_3x3 -> inception_4a/3x3 (in-place)
I0403 15:31:08.118275  3180 net.cpp:141] Setting up inception_4a/relu_3x3
I0403 15:31:08.118307  3180 net.cpp:148] Top shape: 24 208 14 14 (978432)
I0403 15:31:08.118324  3180 net.cpp:156] Memory required for data: 873063456
I0403 15:31:08.118340  3180 layer_factory.hpp:77] Creating layer inception_4a/5x5_reduce
I0403 15:31:08.118363  3180 net.cpp:91] Creating Layer inception_4a/5x5_reduce
I0403 15:31:08.118381  3180 net.cpp:425] inception_4a/5x5_reduce <- pool3/3x3_s2_pool3/3x3_s2_0_split_2
I0403 15:31:08.118399  3180 net.cpp:399] inception_4a/5x5_reduce -> inception_4a/5x5_reduce
I0403 15:31:08.119463  3180 net.cpp:141] Setting up inception_4a/5x5_reduce
I0403 15:31:08.119494  3180 net.cpp:148] Top shape: 24 16 14 14 (75264)
I0403 15:31:08.119511  3180 net.cpp:156] Memory required for data: 873364512
I0403 15:31:08.119529  3180 layer_factory.hpp:77] Creating layer inception_4a/relu_5x5_reduce
I0403 15:31:08.119549  3180 net.cpp:91] Creating Layer inception_4a/relu_5x5_reduce
I0403 15:31:08.119563  3180 net.cpp:425] inception_4a/relu_5x5_reduce <- inception_4a/5x5_reduce
I0403 15:31:08.119583  3180 net.cpp:386] inception_4a/relu_5x5_reduce -> inception_4a/5x5_reduce (in-place)
I0403 15:31:08.119765  3180 net.cpp:141] Setting up inception_4a/relu_5x5_reduce
I0403 15:31:08.119789  3180 net.cpp:148] Top shape: 24 16 14 14 (75264)
I0403 15:31:08.119804  3180 net.cpp:156] Memory required for data: 873665568
I0403 15:31:08.119819  3180 layer_factory.hpp:77] Creating layer inception_4a/5x5
I0403 15:31:08.119842  3180 net.cpp:91] Creating Layer inception_4a/5x5
I0403 15:31:08.119858  3180 net.cpp:425] inception_4a/5x5 <- inception_4a/5x5_reduce
I0403 15:31:08.119879  3180 net.cpp:399] inception_4a/5x5 -> inception_4a/5x5
I0403 15:31:08.121003  3180 net.cpp:141] Setting up inception_4a/5x5
I0403 15:31:08.121031  3180 net.cpp:148] Top shape: 24 48 14 14 (225792)
I0403 15:31:08.121047  3180 net.cpp:156] Memory required for data: 874568736
I0403 15:31:08.121065  3180 layer_factory.hpp:77] Creating layer inception_4a/relu_5x5
I0403 15:31:08.121086  3180 net.cpp:91] Creating Layer inception_4a/relu_5x5
I0403 15:31:08.121104  3180 net.cpp:425] inception_4a/relu_5x5 <- inception_4a/5x5
I0403 15:31:08.121120  3180 net.cpp:386] inception_4a/relu_5x5 -> inception_4a/5x5 (in-place)
I0403 15:31:08.121311  3180 net.cpp:141] Setting up inception_4a/relu_5x5
I0403 15:31:08.121340  3180 net.cpp:148] Top shape: 24 48 14 14 (225792)
I0403 15:31:08.121354  3180 net.cpp:156] Memory required for data: 875471904
I0403 15:31:08.121371  3180 layer_factory.hpp:77] Creating layer inception_4a/pool
I0403 15:31:08.121390  3180 net.cpp:91] Creating Layer inception_4a/pool
I0403 15:31:08.121408  3180 net.cpp:425] inception_4a/pool <- pool3/3x3_s2_pool3/3x3_s2_0_split_3
I0403 15:31:08.121428  3180 net.cpp:399] inception_4a/pool -> inception_4a/pool
I0403 15:31:08.121490  3180 net.cpp:141] Setting up inception_4a/pool
I0403 15:31:08.121513  3180 net.cpp:148] Top shape: 24 480 14 14 (2257920)
I0403 15:31:08.121528  3180 net.cpp:156] Memory required for data: 884503584
I0403 15:31:08.121542  3180 layer_factory.hpp:77] Creating layer inception_4a/pool_proj
I0403 15:31:08.121567  3180 net.cpp:91] Creating Layer inception_4a/pool_proj
I0403 15:31:08.121585  3180 net.cpp:425] inception_4a/pool_proj <- inception_4a/pool
I0403 15:31:08.121606  3180 net.cpp:399] inception_4a/pool_proj -> inception_4a/pool_proj
I0403 15:31:08.122814  3180 net.cpp:141] Setting up inception_4a/pool_proj
I0403 15:31:08.122843  3180 net.cpp:148] Top shape: 24 64 14 14 (301056)
I0403 15:31:08.122874  3180 net.cpp:156] Memory required for data: 885707808
I0403 15:31:08.122895  3180 layer_factory.hpp:77] Creating layer inception_4a/relu_pool_proj
I0403 15:31:08.122946  3180 net.cpp:91] Creating Layer inception_4a/relu_pool_proj
I0403 15:31:08.122963  3180 net.cpp:425] inception_4a/relu_pool_proj <- inception_4a/pool_proj
I0403 15:31:08.122982  3180 net.cpp:386] inception_4a/relu_pool_proj -> inception_4a/pool_proj (in-place)
I0403 15:31:08.123296  3180 net.cpp:141] Setting up inception_4a/relu_pool_proj
I0403 15:31:08.123322  3180 net.cpp:148] Top shape: 24 64 14 14 (301056)
I0403 15:31:08.123337  3180 net.cpp:156] Memory required for data: 886912032
I0403 15:31:08.123353  3180 layer_factory.hpp:77] Creating layer inception_4a/output
I0403 15:31:08.123373  3180 net.cpp:91] Creating Layer inception_4a/output
I0403 15:31:08.123389  3180 net.cpp:425] inception_4a/output <- inception_4a/1x1
I0403 15:31:08.123405  3180 net.cpp:425] inception_4a/output <- inception_4a/3x3
I0403 15:31:08.123422  3180 net.cpp:425] inception_4a/output <- inception_4a/5x5
I0403 15:31:08.123437  3180 net.cpp:425] inception_4a/output <- inception_4a/pool_proj
I0403 15:31:08.123455  3180 net.cpp:399] inception_4a/output -> inception_4a/output
I0403 15:31:08.123502  3180 net.cpp:141] Setting up inception_4a/output
I0403 15:31:08.123524  3180 net.cpp:148] Top shape: 24 512 14 14 (2408448)
I0403 15:31:08.123539  3180 net.cpp:156] Memory required for data: 896545824
I0403 15:31:08.123554  3180 layer_factory.hpp:77] Creating layer inception_4a/output_inception_4a/output_0_split
I0403 15:31:08.123572  3180 net.cpp:91] Creating Layer inception_4a/output_inception_4a/output_0_split
I0403 15:31:08.123587  3180 net.cpp:425] inception_4a/output_inception_4a/output_0_split <- inception_4a/output
I0403 15:31:08.123608  3180 net.cpp:399] inception_4a/output_inception_4a/output_0_split -> inception_4a/output_inception_4a/output_0_split_0
I0403 15:31:08.123630  3180 net.cpp:399] inception_4a/output_inception_4a/output_0_split -> inception_4a/output_inception_4a/output_0_split_1
I0403 15:31:08.123651  3180 net.cpp:399] inception_4a/output_inception_4a/output_0_split -> inception_4a/output_inception_4a/output_0_split_2
I0403 15:31:08.123672  3180 net.cpp:399] inception_4a/output_inception_4a/output_0_split -> inception_4a/output_inception_4a/output_0_split_3
I0403 15:31:08.123692  3180 net.cpp:399] inception_4a/output_inception_4a/output_0_split -> inception_4a/output_inception_4a/output_0_split_4
I0403 15:31:08.123785  3180 net.cpp:141] Setting up inception_4a/output_inception_4a/output_0_split
I0403 15:31:08.123810  3180 net.cpp:148] Top shape: 24 512 14 14 (2408448)
I0403 15:31:08.123826  3180 net.cpp:148] Top shape: 24 512 14 14 (2408448)
I0403 15:31:08.123842  3180 net.cpp:148] Top shape: 24 512 14 14 (2408448)
I0403 15:31:08.123857  3180 net.cpp:148] Top shape: 24 512 14 14 (2408448)
I0403 15:31:08.123872  3180 net.cpp:148] Top shape: 24 512 14 14 (2408448)
I0403 15:31:08.123886  3180 net.cpp:156] Memory required for data: 944714784
I0403 15:31:08.123900  3180 layer_factory.hpp:77] Creating layer loss1/ave_pool
I0403 15:31:08.123919  3180 net.cpp:91] Creating Layer loss1/ave_pool
I0403 15:31:08.123934  3180 net.cpp:425] loss1/ave_pool <- inception_4a/output_inception_4a/output_0_split_0
I0403 15:31:08.123955  3180 net.cpp:399] loss1/ave_pool -> loss1/ave_pool
I0403 15:31:08.124167  3180 net.cpp:141] Setting up loss1/ave_pool
I0403 15:31:08.124193  3180 net.cpp:148] Top shape: 24 512 4 4 (196608)
I0403 15:31:08.124217  3180 net.cpp:156] Memory required for data: 945501216
I0403 15:31:08.124233  3180 layer_factory.hpp:77] Creating layer loss1/conv
I0403 15:31:08.124254  3180 net.cpp:91] Creating Layer loss1/conv
I0403 15:31:08.124271  3180 net.cpp:425] loss1/conv <- loss1/ave_pool
I0403 15:31:08.124292  3180 net.cpp:399] loss1/conv -> loss1/conv
I0403 15:31:08.125747  3180 net.cpp:141] Setting up loss1/conv
I0403 15:31:08.125778  3180 net.cpp:148] Top shape: 24 128 4 4 (49152)
I0403 15:31:08.125808  3180 net.cpp:156] Memory required for data: 945697824
I0403 15:31:08.125828  3180 layer_factory.hpp:77] Creating layer loss1/relu_conv
I0403 15:31:08.125846  3180 net.cpp:91] Creating Layer loss1/relu_conv
I0403 15:31:08.125862  3180 net.cpp:425] loss1/relu_conv <- loss1/conv
I0403 15:31:08.125882  3180 net.cpp:386] loss1/relu_conv -> loss1/conv (in-place)
I0403 15:31:08.126168  3180 net.cpp:141] Setting up loss1/relu_conv
I0403 15:31:08.126197  3180 net.cpp:148] Top shape: 24 128 4 4 (49152)
I0403 15:31:08.126220  3180 net.cpp:156] Memory required for data: 945894432
I0403 15:31:08.126237  3180 layer_factory.hpp:77] Creating layer loss1/fc
I0403 15:31:08.126261  3180 net.cpp:91] Creating Layer loss1/fc
I0403 15:31:08.126279  3180 net.cpp:425] loss1/fc <- loss1/conv
I0403 15:31:08.126301  3180 net.cpp:399] loss1/fc -> loss1/fc
I0403 15:31:08.143826  3180 net.cpp:141] Setting up loss1/fc
I0403 15:31:08.143863  3180 net.cpp:148] Top shape: 24 1024 (24576)
I0403 15:31:08.143878  3180 net.cpp:156] Memory required for data: 945992736
I0403 15:31:08.143898  3180 layer_factory.hpp:77] Creating layer loss1/relu_fc
I0403 15:31:08.143916  3180 net.cpp:91] Creating Layer loss1/relu_fc
I0403 15:31:08.143932  3180 net.cpp:425] loss1/relu_fc <- loss1/fc
I0403 15:31:08.143949  3180 net.cpp:386] loss1/relu_fc -> loss1/fc (in-place)
I0403 15:31:08.144136  3180 net.cpp:141] Setting up loss1/relu_fc
I0403 15:31:08.144160  3180 net.cpp:148] Top shape: 24 1024 (24576)
I0403 15:31:08.144175  3180 net.cpp:156] Memory required for data: 946091040
I0403 15:31:08.144188  3180 layer_factory.hpp:77] Creating layer loss1/drop_fc
I0403 15:31:08.144222  3180 net.cpp:91] Creating Layer loss1/drop_fc
I0403 15:31:08.144239  3180 net.cpp:425] loss1/drop_fc <- loss1/fc
I0403 15:31:08.144258  3180 net.cpp:386] loss1/drop_fc -> loss1/fc (in-place)
I0403 15:31:08.144307  3180 net.cpp:141] Setting up loss1/drop_fc
I0403 15:31:08.144330  3180 net.cpp:148] Top shape: 24 1024 (24576)
I0403 15:31:08.144343  3180 net.cpp:156] Memory required for data: 946189344
I0403 15:31:08.144357  3180 layer_factory.hpp:77] Creating layer loss1/classifier_plantvillage
I0403 15:31:08.144378  3180 net.cpp:91] Creating Layer loss1/classifier_plantvillage
I0403 15:31:08.144394  3180 net.cpp:425] loss1/classifier_plantvillage <- loss1/fc
I0403 15:31:08.144412  3180 net.cpp:399] loss1/classifier_plantvillage -> loss1/classifier_plantvillage
I0403 15:31:08.145333  3180 net.cpp:141] Setting up loss1/classifier_plantvillage
I0403 15:31:08.145359  3180 net.cpp:148] Top shape: 24 38 (912)
I0403 15:31:08.145373  3180 net.cpp:156] Memory required for data: 946192992
I0403 15:31:08.145390  3180 layer_factory.hpp:77] Creating layer loss1/classifier_plantvillage_loss1/classifier_plantvillage_0_split
I0403 15:31:08.145409  3180 net.cpp:91] Creating Layer loss1/classifier_plantvillage_loss1/classifier_plantvillage_0_split
I0403 15:31:08.145426  3180 net.cpp:425] loss1/classifier_plantvillage_loss1/classifier_plantvillage_0_split <- loss1/classifier_plantvillage
I0403 15:31:08.145442  3180 net.cpp:399] loss1/classifier_plantvillage_loss1/classifier_plantvillage_0_split -> loss1/classifier_plantvillage_loss1/classifier_plantvillage_0_split_0
I0403 15:31:08.145463  3180 net.cpp:399] loss1/classifier_plantvillage_loss1/classifier_plantvillage_0_split -> loss1/classifier_plantvillage_loss1/classifier_plantvillage_0_split_1
I0403 15:31:08.145483  3180 net.cpp:399] loss1/classifier_plantvillage_loss1/classifier_plantvillage_0_split -> loss1/classifier_plantvillage_loss1/classifier_plantvillage_0_split_2
I0403 15:31:08.145545  3180 net.cpp:141] Setting up loss1/classifier_plantvillage_loss1/classifier_plantvillage_0_split
I0403 15:31:08.145567  3180 net.cpp:148] Top shape: 24 38 (912)
I0403 15:31:08.145582  3180 net.cpp:148] Top shape: 24 38 (912)
I0403 15:31:08.145597  3180 net.cpp:148] Top shape: 24 38 (912)
I0403 15:31:08.145611  3180 net.cpp:156] Memory required for data: 946203936
I0403 15:31:08.145623  3180 layer_factory.hpp:77] Creating layer inception_4b/1x1
I0403 15:31:08.145645  3180 net.cpp:91] Creating Layer inception_4b/1x1
I0403 15:31:08.145695  3180 net.cpp:425] inception_4b/1x1 <- inception_4a/output_inception_4a/output_0_split_1
I0403 15:31:08.145715  3180 net.cpp:399] inception_4b/1x1 -> inception_4b/1x1
I0403 15:31:08.147409  3180 net.cpp:141] Setting up inception_4b/1x1
I0403 15:31:08.147440  3180 net.cpp:148] Top shape: 24 160 14 14 (752640)
I0403 15:31:08.147455  3180 net.cpp:156] Memory required for data: 949214496
I0403 15:31:08.147474  3180 layer_factory.hpp:77] Creating layer inception_4b/relu_1x1
I0403 15:31:08.147491  3180 net.cpp:91] Creating Layer inception_4b/relu_1x1
I0403 15:31:08.147506  3180 net.cpp:425] inception_4b/relu_1x1 <- inception_4b/1x1
I0403 15:31:08.147526  3180 net.cpp:386] inception_4b/relu_1x1 -> inception_4b/1x1 (in-place)
I0403 15:31:08.147706  3180 net.cpp:141] Setting up inception_4b/relu_1x1
I0403 15:31:08.147730  3180 net.cpp:148] Top shape: 24 160 14 14 (752640)
I0403 15:31:08.147744  3180 net.cpp:156] Memory required for data: 952225056
I0403 15:31:08.147758  3180 layer_factory.hpp:77] Creating layer inception_4b/3x3_reduce
I0403 15:31:08.147783  3180 net.cpp:91] Creating Layer inception_4b/3x3_reduce
I0403 15:31:08.147800  3180 net.cpp:425] inception_4b/3x3_reduce <- inception_4a/output_inception_4a/output_0_split_2
I0403 15:31:08.147821  3180 net.cpp:399] inception_4b/3x3_reduce -> inception_4b/3x3_reduce
I0403 15:31:08.149179  3180 net.cpp:141] Setting up inception_4b/3x3_reduce
I0403 15:31:08.149206  3180 net.cpp:148] Top shape: 24 112 14 14 (526848)
I0403 15:31:08.149230  3180 net.cpp:156] Memory required for data: 954332448
I0403 15:31:08.149248  3180 layer_factory.hpp:77] Creating layer inception_4b/relu_3x3_reduce
I0403 15:31:08.149268  3180 net.cpp:91] Creating Layer inception_4b/relu_3x3_reduce
I0403 15:31:08.149284  3180 net.cpp:425] inception_4b/relu_3x3_reduce <- inception_4b/3x3_reduce
I0403 15:31:08.149302  3180 net.cpp:386] inception_4b/relu_3x3_reduce -> inception_4b/3x3_reduce (in-place)
I0403 15:31:08.149588  3180 net.cpp:141] Setting up inception_4b/relu_3x3_reduce
I0403 15:31:08.149613  3180 net.cpp:148] Top shape: 24 112 14 14 (526848)
I0403 15:31:08.149628  3180 net.cpp:156] Memory required for data: 956439840
I0403 15:31:08.149643  3180 layer_factory.hpp:77] Creating layer inception_4b/3x3
I0403 15:31:08.149664  3180 net.cpp:91] Creating Layer inception_4b/3x3
I0403 15:31:08.149682  3180 net.cpp:425] inception_4b/3x3 <- inception_4b/3x3_reduce
I0403 15:31:08.149703  3180 net.cpp:399] inception_4b/3x3 -> inception_4b/3x3
I0403 15:31:08.152694  3180 net.cpp:141] Setting up inception_4b/3x3
I0403 15:31:08.152724  3180 net.cpp:148] Top shape: 24 224 14 14 (1053696)
I0403 15:31:08.152739  3180 net.cpp:156] Memory required for data: 960654624
I0403 15:31:08.152757  3180 layer_factory.hpp:77] Creating layer inception_4b/relu_3x3
I0403 15:31:08.152776  3180 net.cpp:91] Creating Layer inception_4b/relu_3x3
I0403 15:31:08.152792  3180 net.cpp:425] inception_4b/relu_3x3 <- inception_4b/3x3
I0403 15:31:08.152811  3180 net.cpp:386] inception_4b/relu_3x3 -> inception_4b/3x3 (in-place)
I0403 15:31:08.152993  3180 net.cpp:141] Setting up inception_4b/relu_3x3
I0403 15:31:08.153017  3180 net.cpp:148] Top shape: 24 224 14 14 (1053696)
I0403 15:31:08.153031  3180 net.cpp:156] Memory required for data: 964869408
I0403 15:31:08.153046  3180 layer_factory.hpp:77] Creating layer inception_4b/5x5_reduce
I0403 15:31:08.153070  3180 net.cpp:91] Creating Layer inception_4b/5x5_reduce
I0403 15:31:08.153089  3180 net.cpp:425] inception_4b/5x5_reduce <- inception_4a/output_inception_4a/output_0_split_3
I0403 15:31:08.153110  3180 net.cpp:399] inception_4b/5x5_reduce -> inception_4b/5x5_reduce
I0403 15:31:08.154198  3180 net.cpp:141] Setting up inception_4b/5x5_reduce
I0403 15:31:08.154232  3180 net.cpp:148] Top shape: 24 24 14 14 (112896)
I0403 15:31:08.154248  3180 net.cpp:156] Memory required for data: 965320992
I0403 15:31:08.154266  3180 layer_factory.hpp:77] Creating layer inception_4b/relu_5x5_reduce
I0403 15:31:08.154284  3180 net.cpp:91] Creating Layer inception_4b/relu_5x5_reduce
I0403 15:31:08.154315  3180 net.cpp:425] inception_4b/relu_5x5_reduce <- inception_4b/5x5_reduce
I0403 15:31:08.154335  3180 net.cpp:386] inception_4b/relu_5x5_reduce -> inception_4b/5x5_reduce (in-place)
I0403 15:31:08.154520  3180 net.cpp:141] Setting up inception_4b/relu_5x5_reduce
I0403 15:31:08.154546  3180 net.cpp:148] Top shape: 24 24 14 14 (112896)
I0403 15:31:08.154559  3180 net.cpp:156] Memory required for data: 965772576
I0403 15:31:08.154574  3180 layer_factory.hpp:77] Creating layer inception_4b/5x5
I0403 15:31:08.154595  3180 net.cpp:91] Creating Layer inception_4b/5x5
I0403 15:31:08.154613  3180 net.cpp:425] inception_4b/5x5 <- inception_4b/5x5_reduce
I0403 15:31:08.154633  3180 net.cpp:399] inception_4b/5x5 -> inception_4b/5x5
I0403 15:31:08.155879  3180 net.cpp:141] Setting up inception_4b/5x5
I0403 15:31:08.155908  3180 net.cpp:148] Top shape: 24 64 14 14 (301056)
I0403 15:31:08.155925  3180 net.cpp:156] Memory required for data: 966976800
I0403 15:31:08.155943  3180 layer_factory.hpp:77] Creating layer inception_4b/relu_5x5
I0403 15:31:08.155961  3180 net.cpp:91] Creating Layer inception_4b/relu_5x5
I0403 15:31:08.155975  3180 net.cpp:425] inception_4b/relu_5x5 <- inception_4b/5x5
I0403 15:31:08.155994  3180 net.cpp:386] inception_4b/relu_5x5 -> inception_4b/5x5 (in-place)
I0403 15:31:08.156286  3180 net.cpp:141] Setting up inception_4b/relu_5x5
I0403 15:31:08.156325  3180 net.cpp:148] Top shape: 24 64 14 14 (301056)
I0403 15:31:08.156340  3180 net.cpp:156] Memory required for data: 968181024
I0403 15:31:08.156355  3180 layer_factory.hpp:77] Creating layer inception_4b/pool
I0403 15:31:08.156373  3180 net.cpp:91] Creating Layer inception_4b/pool
I0403 15:31:08.156388  3180 net.cpp:425] inception_4b/pool <- inception_4a/output_inception_4a/output_0_split_4
I0403 15:31:08.156407  3180 net.cpp:399] inception_4b/pool -> inception_4b/pool
I0403 15:31:08.156467  3180 net.cpp:141] Setting up inception_4b/pool
I0403 15:31:08.156496  3180 net.cpp:148] Top shape: 24 512 14 14 (2408448)
I0403 15:31:08.156509  3180 net.cpp:156] Memory required for data: 977814816
I0403 15:31:08.156523  3180 layer_factory.hpp:77] Creating layer inception_4b/pool_proj
I0403 15:31:08.156544  3180 net.cpp:91] Creating Layer inception_4b/pool_proj
I0403 15:31:08.156560  3180 net.cpp:425] inception_4b/pool_proj <- inception_4b/pool
I0403 15:31:08.156579  3180 net.cpp:399] inception_4b/pool_proj -> inception_4b/pool_proj
I0403 15:31:08.157752  3180 net.cpp:141] Setting up inception_4b/pool_proj
I0403 15:31:08.157778  3180 net.cpp:148] Top shape: 24 64 14 14 (301056)
I0403 15:31:08.157793  3180 net.cpp:156] Memory required for data: 979019040
I0403 15:31:08.157810  3180 layer_factory.hpp:77] Creating layer inception_4b/relu_pool_proj
I0403 15:31:08.157827  3180 net.cpp:91] Creating Layer inception_4b/relu_pool_proj
I0403 15:31:08.157845  3180 net.cpp:425] inception_4b/relu_pool_proj <- inception_4b/pool_proj
I0403 15:31:08.157862  3180 net.cpp:386] inception_4b/relu_pool_proj -> inception_4b/pool_proj (in-place)
I0403 15:31:08.158037  3180 net.cpp:141] Setting up inception_4b/relu_pool_proj
I0403 15:31:08.158061  3180 net.cpp:148] Top shape: 24 64 14 14 (301056)
I0403 15:31:08.158074  3180 net.cpp:156] Memory required for data: 980223264
I0403 15:31:08.158088  3180 layer_factory.hpp:77] Creating layer inception_4b/output
I0403 15:31:08.158107  3180 net.cpp:91] Creating Layer inception_4b/output
I0403 15:31:08.158123  3180 net.cpp:425] inception_4b/output <- inception_4b/1x1
I0403 15:31:08.158139  3180 net.cpp:425] inception_4b/output <- inception_4b/3x3
I0403 15:31:08.158154  3180 net.cpp:425] inception_4b/output <- inception_4b/5x5
I0403 15:31:08.158169  3180 net.cpp:425] inception_4b/output <- inception_4b/pool_proj
I0403 15:31:08.158186  3180 net.cpp:399] inception_4b/output -> inception_4b/output
I0403 15:31:08.158252  3180 net.cpp:141] Setting up inception_4b/output
I0403 15:31:08.158279  3180 net.cpp:148] Top shape: 24 512 14 14 (2408448)
I0403 15:31:08.158294  3180 net.cpp:156] Memory required for data: 989857056
I0403 15:31:08.158323  3180 layer_factory.hpp:77] Creating layer inception_4b/output_inception_4b/output_0_split
I0403 15:31:08.158339  3180 net.cpp:91] Creating Layer inception_4b/output_inception_4b/output_0_split
I0403 15:31:08.158354  3180 net.cpp:425] inception_4b/output_inception_4b/output_0_split <- inception_4b/output
I0403 15:31:08.158373  3180 net.cpp:399] inception_4b/output_inception_4b/output_0_split -> inception_4b/output_inception_4b/output_0_split_0
I0403 15:31:08.158393  3180 net.cpp:399] inception_4b/output_inception_4b/output_0_split -> inception_4b/output_inception_4b/output_0_split_1
I0403 15:31:08.158413  3180 net.cpp:399] inception_4b/output_inception_4b/output_0_split -> inception_4b/output_inception_4b/output_0_split_2
I0403 15:31:08.158433  3180 net.cpp:399] inception_4b/output_inception_4b/output_0_split -> inception_4b/output_inception_4b/output_0_split_3
I0403 15:31:08.158516  3180 net.cpp:141] Setting up inception_4b/output_inception_4b/output_0_split
I0403 15:31:08.158542  3180 net.cpp:148] Top shape: 24 512 14 14 (2408448)
I0403 15:31:08.158560  3180 net.cpp:148] Top shape: 24 512 14 14 (2408448)
I0403 15:31:08.158576  3180 net.cpp:148] Top shape: 24 512 14 14 (2408448)
I0403 15:31:08.158591  3180 net.cpp:148] Top shape: 24 512 14 14 (2408448)
I0403 15:31:08.158604  3180 net.cpp:156] Memory required for data: 1028392224
I0403 15:31:08.158618  3180 layer_factory.hpp:77] Creating layer inception_4c/1x1
I0403 15:31:08.158640  3180 net.cpp:91] Creating Layer inception_4c/1x1
I0403 15:31:08.158658  3180 net.cpp:425] inception_4c/1x1 <- inception_4b/output_inception_4b/output_0_split_0
I0403 15:31:08.158675  3180 net.cpp:399] inception_4c/1x1 -> inception_4c/1x1
I0403 15:31:08.160111  3180 net.cpp:141] Setting up inception_4c/1x1
I0403 15:31:08.160138  3180 net.cpp:148] Top shape: 24 128 14 14 (602112)
I0403 15:31:08.160153  3180 net.cpp:156] Memory required for data: 1030800672
I0403 15:31:08.160171  3180 layer_factory.hpp:77] Creating layer inception_4c/relu_1x1
I0403 15:31:08.160192  3180 net.cpp:91] Creating Layer inception_4c/relu_1x1
I0403 15:31:08.160214  3180 net.cpp:425] inception_4c/relu_1x1 <- inception_4c/1x1
I0403 15:31:08.160233  3180 net.cpp:386] inception_4c/relu_1x1 -> inception_4c/1x1 (in-place)
I0403 15:31:08.160418  3180 net.cpp:141] Setting up inception_4c/relu_1x1
I0403 15:31:08.160444  3180 net.cpp:148] Top shape: 24 128 14 14 (602112)
I0403 15:31:08.160459  3180 net.cpp:156] Memory required for data: 1033209120
I0403 15:31:08.160473  3180 layer_factory.hpp:77] Creating layer inception_4c/3x3_reduce
I0403 15:31:08.160495  3180 net.cpp:91] Creating Layer inception_4c/3x3_reduce
I0403 15:31:08.160512  3180 net.cpp:425] inception_4c/3x3_reduce <- inception_4b/output_inception_4b/output_0_split_1
I0403 15:31:08.160531  3180 net.cpp:399] inception_4c/3x3_reduce -> inception_4c/3x3_reduce
I0403 15:31:08.162494  3180 net.cpp:141] Setting up inception_4c/3x3_reduce
I0403 15:31:08.162523  3180 net.cpp:148] Top shape: 24 128 14 14 (602112)
I0403 15:31:08.162539  3180 net.cpp:156] Memory required for data: 1035617568
I0403 15:31:08.162557  3180 layer_factory.hpp:77] Creating layer inception_4c/relu_3x3_reduce
I0403 15:31:08.162575  3180 net.cpp:91] Creating Layer inception_4c/relu_3x3_reduce
I0403 15:31:08.162591  3180 net.cpp:425] inception_4c/relu_3x3_reduce <- inception_4c/3x3_reduce
I0403 15:31:08.162611  3180 net.cpp:386] inception_4c/relu_3x3_reduce -> inception_4c/3x3_reduce (in-place)
I0403 15:31:08.162904  3180 net.cpp:141] Setting up inception_4c/relu_3x3_reduce
I0403 15:31:08.162930  3180 net.cpp:148] Top shape: 24 128 14 14 (602112)
I0403 15:31:08.162943  3180 net.cpp:156] Memory required for data: 1038026016
I0403 15:31:08.162958  3180 layer_factory.hpp:77] Creating layer inception_4c/3x3
I0403 15:31:08.162984  3180 net.cpp:91] Creating Layer inception_4c/3x3
I0403 15:31:08.163002  3180 net.cpp:425] inception_4c/3x3 <- inception_4c/3x3_reduce
I0403 15:31:08.163022  3180 net.cpp:399] inception_4c/3x3 -> inception_4c/3x3
I0403 15:31:08.166682  3180 net.cpp:141] Setting up inception_4c/3x3
I0403 15:31:08.166721  3180 net.cpp:148] Top shape: 24 256 14 14 (1204224)
I0403 15:31:08.166738  3180 net.cpp:156] Memory required for data: 1042842912
I0403 15:31:08.166769  3180 layer_factory.hpp:77] Creating layer inception_4c/relu_3x3
I0403 15:31:08.166790  3180 net.cpp:91] Creating Layer inception_4c/relu_3x3
I0403 15:31:08.166805  3180 net.cpp:425] inception_4c/relu_3x3 <- inception_4c/3x3
I0403 15:31:08.166824  3180 net.cpp:386] inception_4c/relu_3x3 -> inception_4c/3x3 (in-place)
I0403 15:31:08.167007  3180 net.cpp:141] Setting up inception_4c/relu_3x3
I0403 15:31:08.167032  3180 net.cpp:148] Top shape: 24 256 14 14 (1204224)
I0403 15:31:08.167047  3180 net.cpp:156] Memory required for data: 1047659808
I0403 15:31:08.167060  3180 layer_factory.hpp:77] Creating layer inception_4c/5x5_reduce
I0403 15:31:08.167083  3180 net.cpp:91] Creating Layer inception_4c/5x5_reduce
I0403 15:31:08.167101  3180 net.cpp:425] inception_4c/5x5_reduce <- inception_4b/output_inception_4b/output_0_split_2
I0403 15:31:08.167122  3180 net.cpp:399] inception_4c/5x5_reduce -> inception_4c/5x5_reduce
I0403 15:31:08.168265  3180 net.cpp:141] Setting up inception_4c/5x5_reduce
I0403 15:31:08.168292  3180 net.cpp:148] Top shape: 24 24 14 14 (112896)
I0403 15:31:08.168308  3180 net.cpp:156] Memory required for data: 1048111392
I0403 15:31:08.168325  3180 layer_factory.hpp:77] Creating layer inception_4c/relu_5x5_reduce
I0403 15:31:08.168344  3180 net.cpp:91] Creating Layer inception_4c/relu_5x5_reduce
I0403 15:31:08.168359  3180 net.cpp:425] inception_4c/relu_5x5_reduce <- inception_4c/5x5_reduce
I0403 15:31:08.168377  3180 net.cpp:386] inception_4c/relu_5x5_reduce -> inception_4c/5x5_reduce (in-place)
I0403 15:31:08.168567  3180 net.cpp:141] Setting up inception_4c/relu_5x5_reduce
I0403 15:31:08.168591  3180 net.cpp:148] Top shape: 24 24 14 14 (112896)
I0403 15:31:08.168606  3180 net.cpp:156] Memory required for data: 1048562976
I0403 15:31:08.168622  3180 layer_factory.hpp:77] Creating layer inception_4c/5x5
I0403 15:31:08.168643  3180 net.cpp:91] Creating Layer inception_4c/5x5
I0403 15:31:08.168660  3180 net.cpp:425] inception_4c/5x5 <- inception_4c/5x5_reduce
I0403 15:31:08.168680  3180 net.cpp:399] inception_4c/5x5 -> inception_4c/5x5
I0403 15:31:08.169934  3180 net.cpp:141] Setting up inception_4c/5x5
I0403 15:31:08.169960  3180 net.cpp:148] Top shape: 24 64 14 14 (301056)
I0403 15:31:08.169975  3180 net.cpp:156] Memory required for data: 1049767200
I0403 15:31:08.169993  3180 layer_factory.hpp:77] Creating layer inception_4c/relu_5x5
I0403 15:31:08.170013  3180 net.cpp:91] Creating Layer inception_4c/relu_5x5
I0403 15:31:08.170030  3180 net.cpp:425] inception_4c/relu_5x5 <- inception_4c/5x5
I0403 15:31:08.170047  3180 net.cpp:386] inception_4c/relu_5x5 -> inception_4c/5x5 (in-place)
I0403 15:31:08.170341  3180 net.cpp:141] Setting up inception_4c/relu_5x5
I0403 15:31:08.170367  3180 net.cpp:148] Top shape: 24 64 14 14 (301056)
I0403 15:31:08.170382  3180 net.cpp:156] Memory required for data: 1050971424
I0403 15:31:08.170397  3180 layer_factory.hpp:77] Creating layer inception_4c/pool
I0403 15:31:08.170416  3180 net.cpp:91] Creating Layer inception_4c/pool
I0403 15:31:08.170433  3180 net.cpp:425] inception_4c/pool <- inception_4b/output_inception_4b/output_0_split_3
I0403 15:31:08.170450  3180 net.cpp:399] inception_4c/pool -> inception_4c/pool
I0403 15:31:08.170516  3180 net.cpp:141] Setting up inception_4c/pool
I0403 15:31:08.170541  3180 net.cpp:148] Top shape: 24 512 14 14 (2408448)
I0403 15:31:08.170554  3180 net.cpp:156] Memory required for data: 1060605216
I0403 15:31:08.170568  3180 layer_factory.hpp:77] Creating layer inception_4c/pool_proj
I0403 15:31:08.170589  3180 net.cpp:91] Creating Layer inception_4c/pool_proj
I0403 15:31:08.170606  3180 net.cpp:425] inception_4c/pool_proj <- inception_4c/pool
I0403 15:31:08.170627  3180 net.cpp:399] inception_4c/pool_proj -> inception_4c/pool_proj
I0403 15:31:08.171861  3180 net.cpp:141] Setting up inception_4c/pool_proj
I0403 15:31:08.171888  3180 net.cpp:148] Top shape: 24 64 14 14 (301056)
I0403 15:31:08.171917  3180 net.cpp:156] Memory required for data: 1061809440
I0403 15:31:08.171936  3180 layer_factory.hpp:77] Creating layer inception_4c/relu_pool_proj
I0403 15:31:08.171954  3180 net.cpp:91] Creating Layer inception_4c/relu_pool_proj
I0403 15:31:08.171975  3180 net.cpp:425] inception_4c/relu_pool_proj <- inception_4c/pool_proj
I0403 15:31:08.171999  3180 net.cpp:386] inception_4c/relu_pool_proj -> inception_4c/pool_proj (in-place)
I0403 15:31:08.172188  3180 net.cpp:141] Setting up inception_4c/relu_pool_proj
I0403 15:31:08.172225  3180 net.cpp:148] Top shape: 24 64 14 14 (301056)
I0403 15:31:08.172242  3180 net.cpp:156] Memory required for data: 1063013664
I0403 15:31:08.172257  3180 layer_factory.hpp:77] Creating layer inception_4c/output
I0403 15:31:08.172274  3180 net.cpp:91] Creating Layer inception_4c/output
I0403 15:31:08.172289  3180 net.cpp:425] inception_4c/output <- inception_4c/1x1
I0403 15:31:08.172308  3180 net.cpp:425] inception_4c/output <- inception_4c/3x3
I0403 15:31:08.172324  3180 net.cpp:425] inception_4c/output <- inception_4c/5x5
I0403 15:31:08.172340  3180 net.cpp:425] inception_4c/output <- inception_4c/pool_proj
I0403 15:31:08.172358  3180 net.cpp:399] inception_4c/output -> inception_4c/output
I0403 15:31:08.172405  3180 net.cpp:141] Setting up inception_4c/output
I0403 15:31:08.172428  3180 net.cpp:148] Top shape: 24 512 14 14 (2408448)
I0403 15:31:08.172442  3180 net.cpp:156] Memory required for data: 1072647456
I0403 15:31:08.172461  3180 layer_factory.hpp:77] Creating layer inception_4c/output_inception_4c/output_0_split
I0403 15:31:08.172478  3180 net.cpp:91] Creating Layer inception_4c/output_inception_4c/output_0_split
I0403 15:31:08.172499  3180 net.cpp:425] inception_4c/output_inception_4c/output_0_split <- inception_4c/output
I0403 15:31:08.172528  3180 net.cpp:399] inception_4c/output_inception_4c/output_0_split -> inception_4c/output_inception_4c/output_0_split_0
I0403 15:31:08.172551  3180 net.cpp:399] inception_4c/output_inception_4c/output_0_split -> inception_4c/output_inception_4c/output_0_split_1
I0403 15:31:08.172572  3180 net.cpp:399] inception_4c/output_inception_4c/output_0_split -> inception_4c/output_inception_4c/output_0_split_2
I0403 15:31:08.172595  3180 net.cpp:399] inception_4c/output_inception_4c/output_0_split -> inception_4c/output_inception_4c/output_0_split_3
I0403 15:31:08.172688  3180 net.cpp:141] Setting up inception_4c/output_inception_4c/output_0_split
I0403 15:31:08.172713  3180 net.cpp:148] Top shape: 24 512 14 14 (2408448)
I0403 15:31:08.172729  3180 net.cpp:148] Top shape: 24 512 14 14 (2408448)
I0403 15:31:08.172744  3180 net.cpp:148] Top shape: 24 512 14 14 (2408448)
I0403 15:31:08.172760  3180 net.cpp:148] Top shape: 24 512 14 14 (2408448)
I0403 15:31:08.172772  3180 net.cpp:156] Memory required for data: 1111182624
I0403 15:31:08.172786  3180 layer_factory.hpp:77] Creating layer inception_4d/1x1
I0403 15:31:08.172808  3180 net.cpp:91] Creating Layer inception_4d/1x1
I0403 15:31:08.172826  3180 net.cpp:425] inception_4d/1x1 <- inception_4c/output_inception_4c/output_0_split_0
I0403 15:31:08.172857  3180 net.cpp:399] inception_4d/1x1 -> inception_4d/1x1
I0403 15:31:08.174301  3180 net.cpp:141] Setting up inception_4d/1x1
I0403 15:31:08.174331  3180 net.cpp:148] Top shape: 24 112 14 14 (526848)
I0403 15:31:08.174348  3180 net.cpp:156] Memory required for data: 1113290016
I0403 15:31:08.174367  3180 layer_factory.hpp:77] Creating layer inception_4d/relu_1x1
I0403 15:31:08.174386  3180 net.cpp:91] Creating Layer inception_4d/relu_1x1
I0403 15:31:08.174402  3180 net.cpp:425] inception_4d/relu_1x1 <- inception_4d/1x1
I0403 15:31:08.174422  3180 net.cpp:386] inception_4d/relu_1x1 -> inception_4d/1x1 (in-place)
I0403 15:31:08.174615  3180 net.cpp:141] Setting up inception_4d/relu_1x1
I0403 15:31:08.174640  3180 net.cpp:148] Top shape: 24 112 14 14 (526848)
I0403 15:31:08.174655  3180 net.cpp:156] Memory required for data: 1115397408
I0403 15:31:08.174670  3180 layer_factory.hpp:77] Creating layer inception_4d/3x3_reduce
I0403 15:31:08.174706  3180 net.cpp:91] Creating Layer inception_4d/3x3_reduce
I0403 15:31:08.174726  3180 net.cpp:425] inception_4d/3x3_reduce <- inception_4c/output_inception_4c/output_0_split_1
I0403 15:31:08.174746  3180 net.cpp:399] inception_4d/3x3_reduce -> inception_4d/3x3_reduce
I0403 15:31:08.176347  3180 net.cpp:141] Setting up inception_4d/3x3_reduce
I0403 15:31:08.176376  3180 net.cpp:148] Top shape: 24 144 14 14 (677376)
I0403 15:31:08.176393  3180 net.cpp:156] Memory required for data: 1118106912
I0403 15:31:08.176424  3180 layer_factory.hpp:77] Creating layer inception_4d/relu_3x3_reduce
I0403 15:31:08.176445  3180 net.cpp:91] Creating Layer inception_4d/relu_3x3_reduce
I0403 15:31:08.176486  3180 net.cpp:425] inception_4d/relu_3x3_reduce <- inception_4d/3x3_reduce
I0403 15:31:08.176506  3180 net.cpp:386] inception_4d/relu_3x3_reduce -> inception_4d/3x3_reduce (in-place)
I0403 15:31:08.176825  3180 net.cpp:141] Setting up inception_4d/relu_3x3_reduce
I0403 15:31:08.176851  3180 net.cpp:148] Top shape: 24 144 14 14 (677376)
I0403 15:31:08.176865  3180 net.cpp:156] Memory required for data: 1120816416
I0403 15:31:08.176880  3180 layer_factory.hpp:77] Creating layer inception_4d/3x3
I0403 15:31:08.176903  3180 net.cpp:91] Creating Layer inception_4d/3x3
I0403 15:31:08.176919  3180 net.cpp:425] inception_4d/3x3 <- inception_4d/3x3_reduce
I0403 15:31:08.176940  3180 net.cpp:399] inception_4d/3x3 -> inception_4d/3x3
I0403 15:31:08.181279  3180 net.cpp:141] Setting up inception_4d/3x3
I0403 15:31:08.181311  3180 net.cpp:148] Top shape: 24 288 14 14 (1354752)
I0403 15:31:08.181327  3180 net.cpp:156] Memory required for data: 1126235424
I0403 15:31:08.181346  3180 layer_factory.hpp:77] Creating layer inception_4d/relu_3x3
I0403 15:31:08.181365  3180 net.cpp:91] Creating Layer inception_4d/relu_3x3
I0403 15:31:08.181380  3180 net.cpp:425] inception_4d/relu_3x3 <- inception_4d/3x3
I0403 15:31:08.181397  3180 net.cpp:386] inception_4d/relu_3x3 -> inception_4d/3x3 (in-place)
I0403 15:31:08.181586  3180 net.cpp:141] Setting up inception_4d/relu_3x3
I0403 15:31:08.181610  3180 net.cpp:148] Top shape: 24 288 14 14 (1354752)
I0403 15:31:08.181625  3180 net.cpp:156] Memory required for data: 1131654432
I0403 15:31:08.181639  3180 layer_factory.hpp:77] Creating layer inception_4d/5x5_reduce
I0403 15:31:08.181660  3180 net.cpp:91] Creating Layer inception_4d/5x5_reduce
I0403 15:31:08.181679  3180 net.cpp:425] inception_4d/5x5_reduce <- inception_4c/output_inception_4c/output_0_split_2
I0403 15:31:08.181699  3180 net.cpp:399] inception_4d/5x5_reduce -> inception_4d/5x5_reduce
I0403 15:31:08.182904  3180 net.cpp:141] Setting up inception_4d/5x5_reduce
I0403 15:31:08.182935  3180 net.cpp:148] Top shape: 24 32 14 14 (150528)
I0403 15:31:08.182951  3180 net.cpp:156] Memory required for data: 1132256544
I0403 15:31:08.182970  3180 layer_factory.hpp:77] Creating layer inception_4d/relu_5x5_reduce
I0403 15:31:08.182987  3180 net.cpp:91] Creating Layer inception_4d/relu_5x5_reduce
I0403 15:31:08.183003  3180 net.cpp:425] inception_4d/relu_5x5_reduce <- inception_4d/5x5_reduce
I0403 15:31:08.183022  3180 net.cpp:386] inception_4d/relu_5x5_reduce -> inception_4d/5x5_reduce (in-place)
I0403 15:31:08.183218  3180 net.cpp:141] Setting up inception_4d/relu_5x5_reduce
I0403 15:31:08.183243  3180 net.cpp:148] Top shape: 24 32 14 14 (150528)
I0403 15:31:08.183257  3180 net.cpp:156] Memory required for data: 1132858656
I0403 15:31:08.183271  3180 layer_factory.hpp:77] Creating layer inception_4d/5x5
I0403 15:31:08.183293  3180 net.cpp:91] Creating Layer inception_4d/5x5
I0403 15:31:08.183310  3180 net.cpp:425] inception_4d/5x5 <- inception_4d/5x5_reduce
I0403 15:31:08.183333  3180 net.cpp:399] inception_4d/5x5 -> inception_4d/5x5
I0403 15:31:08.184828  3180 net.cpp:141] Setting up inception_4d/5x5
I0403 15:31:08.184855  3180 net.cpp:148] Top shape: 24 64 14 14 (301056)
I0403 15:31:08.184871  3180 net.cpp:156] Memory required for data: 1134062880
I0403 15:31:08.184890  3180 layer_factory.hpp:77] Creating layer inception_4d/relu_5x5
I0403 15:31:08.184924  3180 net.cpp:91] Creating Layer inception_4d/relu_5x5
I0403 15:31:08.184942  3180 net.cpp:425] inception_4d/relu_5x5 <- inception_4d/5x5
I0403 15:31:08.184959  3180 net.cpp:386] inception_4d/relu_5x5 -> inception_4d/5x5 (in-place)
I0403 15:31:08.185268  3180 net.cpp:141] Setting up inception_4d/relu_5x5
I0403 15:31:08.185295  3180 net.cpp:148] Top shape: 24 64 14 14 (301056)
I0403 15:31:08.185309  3180 net.cpp:156] Memory required for data: 1135267104
I0403 15:31:08.185324  3180 layer_factory.hpp:77] Creating layer inception_4d/pool
I0403 15:31:08.185341  3180 net.cpp:91] Creating Layer inception_4d/pool
I0403 15:31:08.185358  3180 net.cpp:425] inception_4d/pool <- inception_4c/output_inception_4c/output_0_split_3
I0403 15:31:08.185377  3180 net.cpp:399] inception_4d/pool -> inception_4d/pool
I0403 15:31:08.185446  3180 net.cpp:141] Setting up inception_4d/pool
I0403 15:31:08.185468  3180 net.cpp:148] Top shape: 24 512 14 14 (2408448)
I0403 15:31:08.185482  3180 net.cpp:156] Memory required for data: 1144900896
I0403 15:31:08.185497  3180 layer_factory.hpp:77] Creating layer inception_4d/pool_proj
I0403 15:31:08.185519  3180 net.cpp:91] Creating Layer inception_4d/pool_proj
I0403 15:31:08.185537  3180 net.cpp:425] inception_4d/pool_proj <- inception_4d/pool
I0403 15:31:08.185555  3180 net.cpp:399] inception_4d/pool_proj -> inception_4d/pool_proj
I0403 15:31:08.187342  3180 net.cpp:141] Setting up inception_4d/pool_proj
I0403 15:31:08.187374  3180 net.cpp:148] Top shape: 24 64 14 14 (301056)
I0403 15:31:08.187391  3180 net.cpp:156] Memory required for data: 1146105120
I0403 15:31:08.187409  3180 layer_factory.hpp:77] Creating layer inception_4d/relu_pool_proj
I0403 15:31:08.187427  3180 net.cpp:91] Creating Layer inception_4d/relu_pool_proj
I0403 15:31:08.187443  3180 net.cpp:425] inception_4d/relu_pool_proj <- inception_4d/pool_proj
I0403 15:31:08.187460  3180 net.cpp:386] inception_4d/relu_pool_proj -> inception_4d/pool_proj (in-place)
I0403 15:31:08.187652  3180 net.cpp:141] Setting up inception_4d/relu_pool_proj
I0403 15:31:08.187676  3180 net.cpp:148] Top shape: 24 64 14 14 (301056)
I0403 15:31:08.187693  3180 net.cpp:156] Memory required for data: 1147309344
I0403 15:31:08.187708  3180 layer_factory.hpp:77] Creating layer inception_4d/output
I0403 15:31:08.187724  3180 net.cpp:91] Creating Layer inception_4d/output
I0403 15:31:08.187741  3180 net.cpp:425] inception_4d/output <- inception_4d/1x1
I0403 15:31:08.187757  3180 net.cpp:425] inception_4d/output <- inception_4d/3x3
I0403 15:31:08.187772  3180 net.cpp:425] inception_4d/output <- inception_4d/5x5
I0403 15:31:08.187788  3180 net.cpp:425] inception_4d/output <- inception_4d/pool_proj
I0403 15:31:08.187806  3180 net.cpp:399] inception_4d/output -> inception_4d/output
I0403 15:31:08.187855  3180 net.cpp:141] Setting up inception_4d/output
I0403 15:31:08.187880  3180 net.cpp:148] Top shape: 24 528 14 14 (2483712)
I0403 15:31:08.187894  3180 net.cpp:156] Memory required for data: 1157244192
I0403 15:31:08.187909  3180 layer_factory.hpp:77] Creating layer inception_4d/output_inception_4d/output_0_split
I0403 15:31:08.187927  3180 net.cpp:91] Creating Layer inception_4d/output_inception_4d/output_0_split
I0403 15:31:08.187942  3180 net.cpp:425] inception_4d/output_inception_4d/output_0_split <- inception_4d/output
I0403 15:31:08.187963  3180 net.cpp:399] inception_4d/output_inception_4d/output_0_split -> inception_4d/output_inception_4d/output_0_split_0
I0403 15:31:08.187983  3180 net.cpp:399] inception_4d/output_inception_4d/output_0_split -> inception_4d/output_inception_4d/output_0_split_1
I0403 15:31:08.188002  3180 net.cpp:399] inception_4d/output_inception_4d/output_0_split -> inception_4d/output_inception_4d/output_0_split_2
I0403 15:31:08.188022  3180 net.cpp:399] inception_4d/output_inception_4d/output_0_split -> inception_4d/output_inception_4d/output_0_split_3
I0403 15:31:08.188041  3180 net.cpp:399] inception_4d/output_inception_4d/output_0_split -> inception_4d/output_inception_4d/output_0_split_4
I0403 15:31:08.188145  3180 net.cpp:141] Setting up inception_4d/output_inception_4d/output_0_split
I0403 15:31:08.188182  3180 net.cpp:148] Top shape: 24 528 14 14 (2483712)
I0403 15:31:08.188199  3180 net.cpp:148] Top shape: 24 528 14 14 (2483712)
I0403 15:31:08.188220  3180 net.cpp:148] Top shape: 24 528 14 14 (2483712)
I0403 15:31:08.188237  3180 net.cpp:148] Top shape: 24 528 14 14 (2483712)
I0403 15:31:08.188253  3180 net.cpp:148] Top shape: 24 528 14 14 (2483712)
I0403 15:31:08.188266  3180 net.cpp:156] Memory required for data: 1206918432
I0403 15:31:08.188282  3180 layer_factory.hpp:77] Creating layer loss2/ave_pool
I0403 15:31:08.188300  3180 net.cpp:91] Creating Layer loss2/ave_pool
I0403 15:31:08.188318  3180 net.cpp:425] loss2/ave_pool <- inception_4d/output_inception_4d/output_0_split_0
I0403 15:31:08.188335  3180 net.cpp:399] loss2/ave_pool -> loss2/ave_pool
I0403 15:31:08.188648  3180 net.cpp:141] Setting up loss2/ave_pool
I0403 15:31:08.188676  3180 net.cpp:148] Top shape: 24 528 4 4 (202752)
I0403 15:31:08.188693  3180 net.cpp:156] Memory required for data: 1207729440
I0403 15:31:08.188706  3180 layer_factory.hpp:77] Creating layer loss2/conv
I0403 15:31:08.188729  3180 net.cpp:91] Creating Layer loss2/conv
I0403 15:31:08.188745  3180 net.cpp:425] loss2/conv <- loss2/ave_pool
I0403 15:31:08.188765  3180 net.cpp:399] loss2/conv -> loss2/conv
I0403 15:31:08.190721  3180 net.cpp:141] Setting up loss2/conv
I0403 15:31:08.190749  3180 net.cpp:148] Top shape: 24 128 4 4 (49152)
I0403 15:31:08.190765  3180 net.cpp:156] Memory required for data: 1207926048
I0403 15:31:08.190784  3180 layer_factory.hpp:77] Creating layer loss2/relu_conv
I0403 15:31:08.190804  3180 net.cpp:91] Creating Layer loss2/relu_conv
I0403 15:31:08.190821  3180 net.cpp:425] loss2/relu_conv <- loss2/conv
I0403 15:31:08.190839  3180 net.cpp:386] loss2/relu_conv -> loss2/conv (in-place)
I0403 15:31:08.191124  3180 net.cpp:141] Setting up loss2/relu_conv
I0403 15:31:08.191150  3180 net.cpp:148] Top shape: 24 128 4 4 (49152)
I0403 15:31:08.191164  3180 net.cpp:156] Memory required for data: 1208122656
I0403 15:31:08.191179  3180 layer_factory.hpp:77] Creating layer loss2/fc
I0403 15:31:08.191200  3180 net.cpp:91] Creating Layer loss2/fc
I0403 15:31:08.191223  3180 net.cpp:425] loss2/fc <- loss2/conv
I0403 15:31:08.191242  3180 net.cpp:399] loss2/fc -> loss2/fc
I0403 15:31:08.209012  3180 net.cpp:141] Setting up loss2/fc
I0403 15:31:08.209065  3180 net.cpp:148] Top shape: 24 1024 (24576)
I0403 15:31:08.209080  3180 net.cpp:156] Memory required for data: 1208220960
I0403 15:31:08.209100  3180 layer_factory.hpp:77] Creating layer loss2/relu_fc
I0403 15:31:08.209120  3180 net.cpp:91] Creating Layer loss2/relu_fc
I0403 15:31:08.209137  3180 net.cpp:425] loss2/relu_fc <- loss2/fc
I0403 15:31:08.209157  3180 net.cpp:386] loss2/relu_fc -> loss2/fc (in-place)
I0403 15:31:08.209511  3180 net.cpp:141] Setting up loss2/relu_fc
I0403 15:31:08.209542  3180 net.cpp:148] Top shape: 24 1024 (24576)
I0403 15:31:08.209558  3180 net.cpp:156] Memory required for data: 1208319264
I0403 15:31:08.209573  3180 layer_factory.hpp:77] Creating layer loss2/drop_fc
I0403 15:31:08.209591  3180 net.cpp:91] Creating Layer loss2/drop_fc
I0403 15:31:08.209606  3180 net.cpp:425] loss2/drop_fc <- loss2/fc
I0403 15:31:08.209628  3180 net.cpp:386] loss2/drop_fc -> loss2/fc (in-place)
I0403 15:31:08.209678  3180 net.cpp:141] Setting up loss2/drop_fc
I0403 15:31:08.209700  3180 net.cpp:148] Top shape: 24 1024 (24576)
I0403 15:31:08.209715  3180 net.cpp:156] Memory required for data: 1208417568
I0403 15:31:08.209729  3180 layer_factory.hpp:77] Creating layer loss2/classifier_plantvillage
I0403 15:31:08.209750  3180 net.cpp:91] Creating Layer loss2/classifier_plantvillage
I0403 15:31:08.209766  3180 net.cpp:425] loss2/classifier_plantvillage <- loss2/fc
I0403 15:31:08.209786  3180 net.cpp:399] loss2/classifier_plantvillage -> loss2/classifier_plantvillage
I0403 15:31:08.210201  3180 net.cpp:141] Setting up loss2/classifier_plantvillage
I0403 15:31:08.210245  3180 net.cpp:148] Top shape: 24 38 (912)
I0403 15:31:08.210292  3180 net.cpp:156] Memory required for data: 1208421216
I0403 15:31:08.210311  3180 layer_factory.hpp:77] Creating layer loss2/classifier_plantvillage_loss2/classifier_plantvillage_0_split
I0403 15:31:08.210333  3180 net.cpp:91] Creating Layer loss2/classifier_plantvillage_loss2/classifier_plantvillage_0_split
I0403 15:31:08.210350  3180 net.cpp:425] loss2/classifier_plantvillage_loss2/classifier_plantvillage_0_split <- loss2/classifier_plantvillage
I0403 15:31:08.210367  3180 net.cpp:399] loss2/classifier_plantvillage_loss2/classifier_plantvillage_0_split -> loss2/classifier_plantvillage_loss2/classifier_plantvillage_0_split_0
I0403 15:31:08.210387  3180 net.cpp:399] loss2/classifier_plantvillage_loss2/classifier_plantvillage_0_split -> loss2/classifier_plantvillage_loss2/classifier_plantvillage_0_split_1
I0403 15:31:08.210408  3180 net.cpp:399] loss2/classifier_plantvillage_loss2/classifier_plantvillage_0_split -> loss2/classifier_plantvillage_loss2/classifier_plantvillage_0_split_2
I0403 15:31:08.210489  3180 net.cpp:141] Setting up loss2/classifier_plantvillage_loss2/classifier_plantvillage_0_split
I0403 15:31:08.210513  3180 net.cpp:148] Top shape: 24 38 (912)
I0403 15:31:08.210530  3180 net.cpp:148] Top shape: 24 38 (912)
I0403 15:31:08.210546  3180 net.cpp:148] Top shape: 24 38 (912)
I0403 15:31:08.210564  3180 net.cpp:156] Memory required for data: 1208432160
I0403 15:31:08.210579  3180 layer_factory.hpp:77] Creating layer inception_4e/1x1
I0403 15:31:08.210600  3180 net.cpp:91] Creating Layer inception_4e/1x1
I0403 15:31:08.210618  3180 net.cpp:425] inception_4e/1x1 <- inception_4d/output_inception_4d/output_0_split_1
I0403 15:31:08.210639  3180 net.cpp:399] inception_4e/1x1 -> inception_4e/1x1
I0403 15:31:08.212604  3180 net.cpp:141] Setting up inception_4e/1x1
I0403 15:31:08.212635  3180 net.cpp:148] Top shape: 24 256 14 14 (1204224)
I0403 15:31:08.212651  3180 net.cpp:156] Memory required for data: 1213249056
I0403 15:31:08.212669  3180 layer_factory.hpp:77] Creating layer inception_4e/relu_1x1
I0403 15:31:08.212690  3180 net.cpp:91] Creating Layer inception_4e/relu_1x1
I0403 15:31:08.212707  3180 net.cpp:425] inception_4e/relu_1x1 <- inception_4e/1x1
I0403 15:31:08.212725  3180 net.cpp:386] inception_4e/relu_1x1 -> inception_4e/1x1 (in-place)
I0403 15:31:08.213052  3180 net.cpp:141] Setting up inception_4e/relu_1x1
I0403 15:31:08.213078  3180 net.cpp:148] Top shape: 24 256 14 14 (1204224)
I0403 15:31:08.213094  3180 net.cpp:156] Memory required for data: 1218065952
I0403 15:31:08.213109  3180 layer_factory.hpp:77] Creating layer inception_4e/3x3_reduce
I0403 15:31:08.213131  3180 net.cpp:91] Creating Layer inception_4e/3x3_reduce
I0403 15:31:08.213150  3180 net.cpp:425] inception_4e/3x3_reduce <- inception_4d/output_inception_4d/output_0_split_2
I0403 15:31:08.213171  3180 net.cpp:399] inception_4e/3x3_reduce -> inception_4e/3x3_reduce
I0403 15:31:08.215392  3180 net.cpp:141] Setting up inception_4e/3x3_reduce
I0403 15:31:08.215421  3180 net.cpp:148] Top shape: 24 160 14 14 (752640)
I0403 15:31:08.215436  3180 net.cpp:156] Memory required for data: 1221076512
I0403 15:31:08.215454  3180 layer_factory.hpp:77] Creating layer inception_4e/relu_3x3_reduce
I0403 15:31:08.215476  3180 net.cpp:91] Creating Layer inception_4e/relu_3x3_reduce
I0403 15:31:08.215493  3180 net.cpp:425] inception_4e/relu_3x3_reduce <- inception_4e/3x3_reduce
I0403 15:31:08.215510  3180 net.cpp:386] inception_4e/relu_3x3_reduce -> inception_4e/3x3_reduce (in-place)
I0403 15:31:08.215698  3180 net.cpp:141] Setting up inception_4e/relu_3x3_reduce
I0403 15:31:08.215723  3180 net.cpp:148] Top shape: 24 160 14 14 (752640)
I0403 15:31:08.215737  3180 net.cpp:156] Memory required for data: 1224087072
I0403 15:31:08.215752  3180 layer_factory.hpp:77] Creating layer inception_4e/3x3
I0403 15:31:08.215775  3180 net.cpp:91] Creating Layer inception_4e/3x3
I0403 15:31:08.215790  3180 net.cpp:425] inception_4e/3x3 <- inception_4e/3x3_reduce
I0403 15:31:08.215811  3180 net.cpp:399] inception_4e/3x3 -> inception_4e/3x3
I0403 15:31:08.220935  3180 net.cpp:141] Setting up inception_4e/3x3
I0403 15:31:08.220976  3180 net.cpp:148] Top shape: 24 320 14 14 (1505280)
I0403 15:31:08.220993  3180 net.cpp:156] Memory required for data: 1230108192
I0403 15:31:08.221010  3180 layer_factory.hpp:77] Creating layer inception_4e/relu_3x3
I0403 15:31:08.221034  3180 net.cpp:91] Creating Layer inception_4e/relu_3x3
I0403 15:31:08.221050  3180 net.cpp:425] inception_4e/relu_3x3 <- inception_4e/3x3
I0403 15:31:08.221067  3180 net.cpp:386] inception_4e/relu_3x3 -> inception_4e/3x3 (in-place)
I0403 15:31:08.221377  3180 net.cpp:141] Setting up inception_4e/relu_3x3
I0403 15:31:08.221405  3180 net.cpp:148] Top shape: 24 320 14 14 (1505280)
I0403 15:31:08.221421  3180 net.cpp:156] Memory required for data: 1236129312
I0403 15:31:08.221436  3180 layer_factory.hpp:77] Creating layer inception_4e/5x5_reduce
I0403 15:31:08.221460  3180 net.cpp:91] Creating Layer inception_4e/5x5_reduce
I0403 15:31:08.221477  3180 net.cpp:425] inception_4e/5x5_reduce <- inception_4d/output_inception_4d/output_0_split_3
I0403 15:31:08.221496  3180 net.cpp:399] inception_4e/5x5_reduce -> inception_4e/5x5_reduce
I0403 15:31:08.222596  3180 net.cpp:141] Setting up inception_4e/5x5_reduce
I0403 15:31:08.222625  3180 net.cpp:148] Top shape: 24 32 14 14 (150528)
I0403 15:31:08.222640  3180 net.cpp:156] Memory required for data: 1236731424
I0403 15:31:08.222657  3180 layer_factory.hpp:77] Creating layer inception_4e/relu_5x5_reduce
I0403 15:31:08.222677  3180 net.cpp:91] Creating Layer inception_4e/relu_5x5_reduce
I0403 15:31:08.222693  3180 net.cpp:425] inception_4e/relu_5x5_reduce <- inception_4e/5x5_reduce
I0403 15:31:08.222710  3180 net.cpp:386] inception_4e/relu_5x5_reduce -> inception_4e/5x5_reduce (in-place)
I0403 15:31:08.223011  3180 net.cpp:141] Setting up inception_4e/relu_5x5_reduce
I0403 15:31:08.223037  3180 net.cpp:148] Top shape: 24 32 14 14 (150528)
I0403 15:31:08.223052  3180 net.cpp:156] Memory required for data: 1237333536
I0403 15:31:08.223067  3180 layer_factory.hpp:77] Creating layer inception_4e/5x5
I0403 15:31:08.223104  3180 net.cpp:91] Creating Layer inception_4e/5x5
I0403 15:31:08.223122  3180 net.cpp:425] inception_4e/5x5 <- inception_4e/5x5_reduce
I0403 15:31:08.223141  3180 net.cpp:399] inception_4e/5x5 -> inception_4e/5x5
I0403 15:31:08.225051  3180 net.cpp:141] Setting up inception_4e/5x5
I0403 15:31:08.225080  3180 net.cpp:148] Top shape: 24 128 14 14 (602112)
I0403 15:31:08.225095  3180 net.cpp:156] Memory required for data: 1239741984
I0403 15:31:08.225116  3180 layer_factory.hpp:77] Creating layer inception_4e/relu_5x5
I0403 15:31:08.225133  3180 net.cpp:91] Creating Layer inception_4e/relu_5x5
I0403 15:31:08.225150  3180 net.cpp:425] inception_4e/relu_5x5 <- inception_4e/5x5
I0403 15:31:08.225169  3180 net.cpp:386] inception_4e/relu_5x5 -> inception_4e/5x5 (in-place)
I0403 15:31:08.225383  3180 net.cpp:141] Setting up inception_4e/relu_5x5
I0403 15:31:08.225409  3180 net.cpp:148] Top shape: 24 128 14 14 (602112)
I0403 15:31:08.225425  3180 net.cpp:156] Memory required for data: 1242150432
I0403 15:31:08.225440  3180 layer_factory.hpp:77] Creating layer inception_4e/pool
I0403 15:31:08.225461  3180 net.cpp:91] Creating Layer inception_4e/pool
I0403 15:31:08.225478  3180 net.cpp:425] inception_4e/pool <- inception_4d/output_inception_4d/output_0_split_4
I0403 15:31:08.225497  3180 net.cpp:399] inception_4e/pool -> inception_4e/pool
I0403 15:31:08.225570  3180 net.cpp:141] Setting up inception_4e/pool
I0403 15:31:08.225594  3180 net.cpp:148] Top shape: 24 528 14 14 (2483712)
I0403 15:31:08.225608  3180 net.cpp:156] Memory required for data: 1252085280
I0403 15:31:08.225623  3180 layer_factory.hpp:77] Creating layer inception_4e/pool_proj
I0403 15:31:08.225646  3180 net.cpp:91] Creating Layer inception_4e/pool_proj
I0403 15:31:08.225663  3180 net.cpp:425] inception_4e/pool_proj <- inception_4e/pool
I0403 15:31:08.225684  3180 net.cpp:399] inception_4e/pool_proj -> inception_4e/pool_proj
I0403 15:31:08.227243  3180 net.cpp:141] Setting up inception_4e/pool_proj
I0403 15:31:08.227284  3180 net.cpp:148] Top shape: 24 128 14 14 (602112)
I0403 15:31:08.227300  3180 net.cpp:156] Memory required for data: 1254493728
I0403 15:31:08.227319  3180 layer_factory.hpp:77] Creating layer inception_4e/relu_pool_proj
I0403 15:31:08.227336  3180 net.cpp:91] Creating Layer inception_4e/relu_pool_proj
I0403 15:31:08.227352  3180 net.cpp:425] inception_4e/relu_pool_proj <- inception_4e/pool_proj
I0403 15:31:08.227370  3180 net.cpp:386] inception_4e/relu_pool_proj -> inception_4e/pool_proj (in-place)
I0403 15:31:08.227666  3180 net.cpp:141] Setting up inception_4e/relu_pool_proj
I0403 15:31:08.227694  3180 net.cpp:148] Top shape: 24 128 14 14 (602112)
I0403 15:31:08.227710  3180 net.cpp:156] Memory required for data: 1256902176
I0403 15:31:08.227725  3180 layer_factory.hpp:77] Creating layer inception_4e/output
I0403 15:31:08.227741  3180 net.cpp:91] Creating Layer inception_4e/output
I0403 15:31:08.227756  3180 net.cpp:425] inception_4e/output <- inception_4e/1x1
I0403 15:31:08.227772  3180 net.cpp:425] inception_4e/output <- inception_4e/3x3
I0403 15:31:08.227788  3180 net.cpp:425] inception_4e/output <- inception_4e/5x5
I0403 15:31:08.227803  3180 net.cpp:425] inception_4e/output <- inception_4e/pool_proj
I0403 15:31:08.227820  3180 net.cpp:399] inception_4e/output -> inception_4e/output
I0403 15:31:08.227871  3180 net.cpp:141] Setting up inception_4e/output
I0403 15:31:08.227895  3180 net.cpp:148] Top shape: 24 832 14 14 (3913728)
I0403 15:31:08.227908  3180 net.cpp:156] Memory required for data: 1272557088
I0403 15:31:08.227923  3180 layer_factory.hpp:77] Creating layer pool4/3x3_s2
I0403 15:31:08.227942  3180 net.cpp:91] Creating Layer pool4/3x3_s2
I0403 15:31:08.227958  3180 net.cpp:425] pool4/3x3_s2 <- inception_4e/output
I0403 15:31:08.227975  3180 net.cpp:399] pool4/3x3_s2 -> pool4/3x3_s2
I0403 15:31:08.228044  3180 net.cpp:141] Setting up pool4/3x3_s2
I0403 15:31:08.228066  3180 net.cpp:148] Top shape: 24 832 7 7 (978432)
I0403 15:31:08.228080  3180 net.cpp:156] Memory required for data: 1276470816
I0403 15:31:08.228094  3180 layer_factory.hpp:77] Creating layer pool4/3x3_s2_pool4/3x3_s2_0_split
I0403 15:31:08.228111  3180 net.cpp:91] Creating Layer pool4/3x3_s2_pool4/3x3_s2_0_split
I0403 15:31:08.228127  3180 net.cpp:425] pool4/3x3_s2_pool4/3x3_s2_0_split <- pool4/3x3_s2
I0403 15:31:08.228145  3180 net.cpp:399] pool4/3x3_s2_pool4/3x3_s2_0_split -> pool4/3x3_s2_pool4/3x3_s2_0_split_0
I0403 15:31:08.228164  3180 net.cpp:399] pool4/3x3_s2_pool4/3x3_s2_0_split -> pool4/3x3_s2_pool4/3x3_s2_0_split_1
I0403 15:31:08.228184  3180 net.cpp:399] pool4/3x3_s2_pool4/3x3_s2_0_split -> pool4/3x3_s2_pool4/3x3_s2_0_split_2
I0403 15:31:08.228204  3180 net.cpp:399] pool4/3x3_s2_pool4/3x3_s2_0_split -> pool4/3x3_s2_pool4/3x3_s2_0_split_3
I0403 15:31:08.228307  3180 net.cpp:141] Setting up pool4/3x3_s2_pool4/3x3_s2_0_split
I0403 15:31:08.228332  3180 net.cpp:148] Top shape: 24 832 7 7 (978432)
I0403 15:31:08.228348  3180 net.cpp:148] Top shape: 24 832 7 7 (978432)
I0403 15:31:08.228363  3180 net.cpp:148] Top shape: 24 832 7 7 (978432)
I0403 15:31:08.228379  3180 net.cpp:148] Top shape: 24 832 7 7 (978432)
I0403 15:31:08.228391  3180 net.cpp:156] Memory required for data: 1292125728
I0403 15:31:08.228405  3180 layer_factory.hpp:77] Creating layer inception_5a/1x1
I0403 15:31:08.228427  3180 net.cpp:91] Creating Layer inception_5a/1x1
I0403 15:31:08.228445  3180 net.cpp:425] inception_5a/1x1 <- pool4/3x3_s2_pool4/3x3_s2_0_split_0
I0403 15:31:08.228463  3180 net.cpp:399] inception_5a/1x1 -> inception_5a/1x1
I0403 15:31:08.231328  3180 net.cpp:141] Setting up inception_5a/1x1
I0403 15:31:08.231358  3180 net.cpp:148] Top shape: 24 256 7 7 (301056)
I0403 15:31:08.231372  3180 net.cpp:156] Memory required for data: 1293329952
I0403 15:31:08.231389  3180 layer_factory.hpp:77] Creating layer inception_5a/relu_1x1
I0403 15:31:08.231406  3180 net.cpp:91] Creating Layer inception_5a/relu_1x1
I0403 15:31:08.231426  3180 net.cpp:425] inception_5a/relu_1x1 <- inception_5a/1x1
I0403 15:31:08.231442  3180 net.cpp:386] inception_5a/relu_1x1 -> inception_5a/1x1 (in-place)
I0403 15:31:08.231747  3180 net.cpp:141] Setting up inception_5a/relu_1x1
I0403 15:31:08.231773  3180 net.cpp:148] Top shape: 24 256 7 7 (301056)
I0403 15:31:08.231786  3180 net.cpp:156] Memory required for data: 1294534176
I0403 15:31:08.231801  3180 layer_factory.hpp:77] Creating layer inception_5a/3x3_reduce
I0403 15:31:08.231822  3180 net.cpp:91] Creating Layer inception_5a/3x3_reduce
I0403 15:31:08.231839  3180 net.cpp:425] inception_5a/3x3_reduce <- pool4/3x3_s2_pool4/3x3_s2_0_split_1
I0403 15:31:08.231859  3180 net.cpp:399] inception_5a/3x3_reduce -> inception_5a/3x3_reduce
I0403 15:31:08.234277  3180 net.cpp:141] Setting up inception_5a/3x3_reduce
I0403 15:31:08.234307  3180 net.cpp:148] Top shape: 24 160 7 7 (188160)
I0403 15:31:08.234321  3180 net.cpp:156] Memory required for data: 1295286816
I0403 15:31:08.234339  3180 layer_factory.hpp:77] Creating layer inception_5a/relu_3x3_reduce
I0403 15:31:08.234356  3180 net.cpp:91] Creating Layer inception_5a/relu_3x3_reduce
I0403 15:31:08.234371  3180 net.cpp:425] inception_5a/relu_3x3_reduce <- inception_5a/3x3_reduce
I0403 15:31:08.234387  3180 net.cpp:386] inception_5a/relu_3x3_reduce -> inception_5a/3x3_reduce (in-place)
I0403 15:31:08.234576  3180 net.cpp:141] Setting up inception_5a/relu_3x3_reduce
I0403 15:31:08.234601  3180 net.cpp:148] Top shape: 24 160 7 7 (188160)
I0403 15:31:08.234614  3180 net.cpp:156] Memory required for data: 1296039456
I0403 15:31:08.234628  3180 layer_factory.hpp:77] Creating layer inception_5a/3x3
I0403 15:31:08.234648  3180 net.cpp:91] Creating Layer inception_5a/3x3
I0403 15:31:08.234665  3180 net.cpp:425] inception_5a/3x3 <- inception_5a/3x3_reduce
I0403 15:31:08.234686  3180 net.cpp:399] inception_5a/3x3 -> inception_5a/3x3
I0403 15:31:08.239634  3180 net.cpp:141] Setting up inception_5a/3x3
I0403 15:31:08.239662  3180 net.cpp:148] Top shape: 24 320 7 7 (376320)
I0403 15:31:08.239677  3180 net.cpp:156] Memory required for data: 1297544736
I0403 15:31:08.239694  3180 layer_factory.hpp:77] Creating layer inception_5a/relu_3x3
I0403 15:31:08.239711  3180 net.cpp:91] Creating Layer inception_5a/relu_3x3
I0403 15:31:08.239727  3180 net.cpp:425] inception_5a/relu_3x3 <- inception_5a/3x3
I0403 15:31:08.239745  3180 net.cpp:386] inception_5a/relu_3x3 -> inception_5a/3x3 (in-place)
I0403 15:31:08.240039  3180 net.cpp:141] Setting up inception_5a/relu_3x3
I0403 15:31:08.240066  3180 net.cpp:148] Top shape: 24 320 7 7 (376320)
I0403 15:31:08.240079  3180 net.cpp:156] Memory required for data: 1299050016
I0403 15:31:08.240093  3180 layer_factory.hpp:77] Creating layer inception_5a/5x5_reduce
I0403 15:31:08.240114  3180 net.cpp:91] Creating Layer inception_5a/5x5_reduce
I0403 15:31:08.240131  3180 net.cpp:425] inception_5a/5x5_reduce <- pool4/3x3_s2_pool4/3x3_s2_0_split_2
I0403 15:31:08.240151  3180 net.cpp:399] inception_5a/5x5_reduce -> inception_5a/5x5_reduce
I0403 15:31:08.241318  3180 net.cpp:141] Setting up inception_5a/5x5_reduce
I0403 15:31:08.241345  3180 net.cpp:148] Top shape: 24 32 7 7 (37632)
I0403 15:31:08.241360  3180 net.cpp:156] Memory required for data: 1299200544
I0403 15:31:08.241377  3180 layer_factory.hpp:77] Creating layer inception_5a/relu_5x5_reduce
I0403 15:31:08.241396  3180 net.cpp:91] Creating Layer inception_5a/relu_5x5_reduce
I0403 15:31:08.241413  3180 net.cpp:425] inception_5a/relu_5x5_reduce <- inception_5a/5x5_reduce
I0403 15:31:08.241430  3180 net.cpp:386] inception_5a/relu_5x5_reduce -> inception_5a/5x5_reduce (in-place)
I0403 15:31:08.241729  3180 net.cpp:141] Setting up inception_5a/relu_5x5_reduce
I0403 15:31:08.241755  3180 net.cpp:148] Top shape: 24 32 7 7 (37632)
I0403 15:31:08.241768  3180 net.cpp:156] Memory required for data: 1299351072
I0403 15:31:08.241782  3180 layer_factory.hpp:77] Creating layer inception_5a/5x5
I0403 15:31:08.241803  3180 net.cpp:91] Creating Layer inception_5a/5x5
I0403 15:31:08.241821  3180 net.cpp:425] inception_5a/5x5 <- inception_5a/5x5_reduce
I0403 15:31:08.241839  3180 net.cpp:399] inception_5a/5x5 -> inception_5a/5x5
I0403 15:31:08.243549  3180 net.cpp:141] Setting up inception_5a/5x5
I0403 15:31:08.243588  3180 net.cpp:148] Top shape: 24 128 7 7 (150528)
I0403 15:31:08.243603  3180 net.cpp:156] Memory required for data: 1299953184
I0403 15:31:08.243621  3180 layer_factory.hpp:77] Creating layer inception_5a/relu_5x5
I0403 15:31:08.243638  3180 net.cpp:91] Creating Layer inception_5a/relu_5x5
I0403 15:31:08.243654  3180 net.cpp:425] inception_5a/relu_5x5 <- inception_5a/5x5
I0403 15:31:08.243672  3180 net.cpp:386] inception_5a/relu_5x5 -> inception_5a/5x5 (in-place)
I0403 15:31:08.243862  3180 net.cpp:141] Setting up inception_5a/relu_5x5
I0403 15:31:08.243885  3180 net.cpp:148] Top shape: 24 128 7 7 (150528)
I0403 15:31:08.243901  3180 net.cpp:156] Memory required for data: 1300555296
I0403 15:31:08.243914  3180 layer_factory.hpp:77] Creating layer inception_5a/pool
I0403 15:31:08.243932  3180 net.cpp:91] Creating Layer inception_5a/pool
I0403 15:31:08.243948  3180 net.cpp:425] inception_5a/pool <- pool4/3x3_s2_pool4/3x3_s2_0_split_3
I0403 15:31:08.243965  3180 net.cpp:399] inception_5a/pool -> inception_5a/pool
I0403 15:31:08.244035  3180 net.cpp:141] Setting up inception_5a/pool
I0403 15:31:08.244056  3180 net.cpp:148] Top shape: 24 832 7 7 (978432)
I0403 15:31:08.244071  3180 net.cpp:156] Memory required for data: 1304469024
I0403 15:31:08.244084  3180 layer_factory.hpp:77] Creating layer inception_5a/pool_proj
I0403 15:31:08.244105  3180 net.cpp:91] Creating Layer inception_5a/pool_proj
I0403 15:31:08.244122  3180 net.cpp:425] inception_5a/pool_proj <- inception_5a/pool
I0403 15:31:08.244143  3180 net.cpp:399] inception_5a/pool_proj -> inception_5a/pool_proj
I0403 15:31:08.246456  3180 net.cpp:141] Setting up inception_5a/pool_proj
I0403 15:31:08.246486  3180 net.cpp:148] Top shape: 24 128 7 7 (150528)
I0403 15:31:08.246501  3180 net.cpp:156] Memory required for data: 1305071136
I0403 15:31:08.246520  3180 layer_factory.hpp:77] Creating layer inception_5a/relu_pool_proj
I0403 15:31:08.246537  3180 net.cpp:91] Creating Layer inception_5a/relu_pool_proj
I0403 15:31:08.246552  3180 net.cpp:425] inception_5a/relu_pool_proj <- inception_5a/pool_proj
I0403 15:31:08.246570  3180 net.cpp:386] inception_5a/relu_pool_proj -> inception_5a/pool_proj (in-place)
I0403 15:31:08.246863  3180 net.cpp:141] Setting up inception_5a/relu_pool_proj
I0403 15:31:08.246891  3180 net.cpp:148] Top shape: 24 128 7 7 (150528)
I0403 15:31:08.246906  3180 net.cpp:156] Memory required for data: 1305673248
I0403 15:31:08.246920  3180 layer_factory.hpp:77] Creating layer inception_5a/output
I0403 15:31:08.246937  3180 net.cpp:91] Creating Layer inception_5a/output
I0403 15:31:08.246951  3180 net.cpp:425] inception_5a/output <- inception_5a/1x1
I0403 15:31:08.246968  3180 net.cpp:425] inception_5a/output <- inception_5a/3x3
I0403 15:31:08.246983  3180 net.cpp:425] inception_5a/output <- inception_5a/5x5
I0403 15:31:08.246997  3180 net.cpp:425] inception_5a/output <- inception_5a/pool_proj
I0403 15:31:08.247015  3180 net.cpp:399] inception_5a/output -> inception_5a/output
I0403 15:31:08.247063  3180 net.cpp:141] Setting up inception_5a/output
I0403 15:31:08.247086  3180 net.cpp:148] Top shape: 24 832 7 7 (978432)
I0403 15:31:08.247099  3180 net.cpp:156] Memory required for data: 1309586976
I0403 15:31:08.247113  3180 layer_factory.hpp:77] Creating layer inception_5a/output_inception_5a/output_0_split
I0403 15:31:08.247133  3180 net.cpp:91] Creating Layer inception_5a/output_inception_5a/output_0_split
I0403 15:31:08.247148  3180 net.cpp:425] inception_5a/output_inception_5a/output_0_split <- inception_5a/output
I0403 15:31:08.247177  3180 net.cpp:399] inception_5a/output_inception_5a/output_0_split -> inception_5a/output_inception_5a/output_0_split_0
I0403 15:31:08.247200  3180 net.cpp:399] inception_5a/output_inception_5a/output_0_split -> inception_5a/output_inception_5a/output_0_split_1
I0403 15:31:08.247226  3180 net.cpp:399] inception_5a/output_inception_5a/output_0_split -> inception_5a/output_inception_5a/output_0_split_2
I0403 15:31:08.247249  3180 net.cpp:399] inception_5a/output_inception_5a/output_0_split -> inception_5a/output_inception_5a/output_0_split_3
I0403 15:31:08.247359  3180 net.cpp:141] Setting up inception_5a/output_inception_5a/output_0_split
I0403 15:31:08.247383  3180 net.cpp:148] Top shape: 24 832 7 7 (978432)
I0403 15:31:08.247400  3180 net.cpp:148] Top shape: 24 832 7 7 (978432)
I0403 15:31:08.247414  3180 net.cpp:148] Top shape: 24 832 7 7 (978432)
I0403 15:31:08.247431  3180 net.cpp:148] Top shape: 24 832 7 7 (978432)
I0403 15:31:08.247443  3180 net.cpp:156] Memory required for data: 1325241888
I0403 15:31:08.247457  3180 layer_factory.hpp:77] Creating layer inception_5b/1x1
I0403 15:31:08.247491  3180 net.cpp:91] Creating Layer inception_5b/1x1
I0403 15:31:08.247508  3180 net.cpp:425] inception_5b/1x1 <- inception_5a/output_inception_5a/output_0_split_0
I0403 15:31:08.247527  3180 net.cpp:399] inception_5b/1x1 -> inception_5b/1x1
I0403 15:31:08.251202  3180 net.cpp:141] Setting up inception_5b/1x1
I0403 15:31:08.251238  3180 net.cpp:148] Top shape: 24 384 7 7 (451584)
I0403 15:31:08.251255  3180 net.cpp:156] Memory required for data: 1327048224
I0403 15:31:08.251273  3180 layer_factory.hpp:77] Creating layer inception_5b/relu_1x1
I0403 15:31:08.251291  3180 net.cpp:91] Creating Layer inception_5b/relu_1x1
I0403 15:31:08.251307  3180 net.cpp:425] inception_5b/relu_1x1 <- inception_5b/1x1
I0403 15:31:08.251323  3180 net.cpp:386] inception_5b/relu_1x1 -> inception_5b/1x1 (in-place)
I0403 15:31:08.251623  3180 net.cpp:141] Setting up inception_5b/relu_1x1
I0403 15:31:08.251651  3180 net.cpp:148] Top shape: 24 384 7 7 (451584)
I0403 15:31:08.251665  3180 net.cpp:156] Memory required for data: 1328854560
I0403 15:31:08.251678  3180 layer_factory.hpp:77] Creating layer inception_5b/3x3_reduce
I0403 15:31:08.251700  3180 net.cpp:91] Creating Layer inception_5b/3x3_reduce
I0403 15:31:08.251716  3180 net.cpp:425] inception_5b/3x3_reduce <- inception_5a/output_inception_5a/output_0_split_1
I0403 15:31:08.251735  3180 net.cpp:399] inception_5b/3x3_reduce -> inception_5b/3x3_reduce
I0403 15:31:08.254367  3180 net.cpp:141] Setting up inception_5b/3x3_reduce
I0403 15:31:08.254397  3180 net.cpp:148] Top shape: 24 192 7 7 (225792)
I0403 15:31:08.254413  3180 net.cpp:156] Memory required for data: 1329757728
I0403 15:31:08.254431  3180 layer_factory.hpp:77] Creating layer inception_5b/relu_3x3_reduce
I0403 15:31:08.254449  3180 net.cpp:91] Creating Layer inception_5b/relu_3x3_reduce
I0403 15:31:08.254464  3180 net.cpp:425] inception_5b/relu_3x3_reduce <- inception_5b/3x3_reduce
I0403 15:31:08.254483  3180 net.cpp:386] inception_5b/relu_3x3_reduce -> inception_5b/3x3_reduce (in-place)
I0403 15:31:08.254672  3180 net.cpp:141] Setting up inception_5b/relu_3x3_reduce
I0403 15:31:08.254695  3180 net.cpp:148] Top shape: 24 192 7 7 (225792)
I0403 15:31:08.254709  3180 net.cpp:156] Memory required for data: 1330660896
I0403 15:31:08.254724  3180 layer_factory.hpp:77] Creating layer inception_5b/3x3
I0403 15:31:08.254745  3180 net.cpp:91] Creating Layer inception_5b/3x3
I0403 15:31:08.254761  3180 net.cpp:425] inception_5b/3x3 <- inception_5b/3x3_reduce
I0403 15:31:08.254783  3180 net.cpp:399] inception_5b/3x3 -> inception_5b/3x3
I0403 15:31:08.261371  3180 net.cpp:141] Setting up inception_5b/3x3
I0403 15:31:08.261402  3180 net.cpp:148] Top shape: 24 384 7 7 (451584)
I0403 15:31:08.261420  3180 net.cpp:156] Memory required for data: 1332467232
I0403 15:31:08.261437  3180 layer_factory.hpp:77] Creating layer inception_5b/relu_3x3
I0403 15:31:08.261456  3180 net.cpp:91] Creating Layer inception_5b/relu_3x3
I0403 15:31:08.261472  3180 net.cpp:425] inception_5b/relu_3x3 <- inception_5b/3x3
I0403 15:31:08.261492  3180 net.cpp:386] inception_5b/relu_3x3 -> inception_5b/3x3 (in-place)
I0403 15:31:08.261791  3180 net.cpp:141] Setting up inception_5b/relu_3x3
I0403 15:31:08.261821  3180 net.cpp:148] Top shape: 24 384 7 7 (451584)
I0403 15:31:08.261837  3180 net.cpp:156] Memory required for data: 1334273568
I0403 15:31:08.261852  3180 layer_factory.hpp:77] Creating layer inception_5b/5x5_reduce
I0403 15:31:08.261889  3180 net.cpp:91] Creating Layer inception_5b/5x5_reduce
I0403 15:31:08.261907  3180 net.cpp:425] inception_5b/5x5_reduce <- inception_5a/output_inception_5a/output_0_split_2
I0403 15:31:08.261926  3180 net.cpp:399] inception_5b/5x5_reduce -> inception_5b/5x5_reduce
I0403 15:31:08.263276  3180 net.cpp:141] Setting up inception_5b/5x5_reduce
I0403 15:31:08.263308  3180 net.cpp:148] Top shape: 24 48 7 7 (56448)
I0403 15:31:08.263324  3180 net.cpp:156] Memory required for data: 1334499360
I0403 15:31:08.263344  3180 layer_factory.hpp:77] Creating layer inception_5b/relu_5x5_reduce
I0403 15:31:08.263361  3180 net.cpp:91] Creating Layer inception_5b/relu_5x5_reduce
I0403 15:31:08.263376  3180 net.cpp:425] inception_5b/relu_5x5_reduce <- inception_5b/5x5_reduce
I0403 15:31:08.263396  3180 net.cpp:386] inception_5b/relu_5x5_reduce -> inception_5b/5x5_reduce (in-place)
I0403 15:31:08.263785  3180 net.cpp:141] Setting up inception_5b/relu_5x5_reduce
I0403 15:31:08.263813  3180 net.cpp:148] Top shape: 24 48 7 7 (56448)
I0403 15:31:08.263828  3180 net.cpp:156] Memory required for data: 1334725152
I0403 15:31:08.263842  3180 layer_factory.hpp:77] Creating layer inception_5b/5x5
I0403 15:31:08.263864  3180 net.cpp:91] Creating Layer inception_5b/5x5
I0403 15:31:08.263880  3180 net.cpp:425] inception_5b/5x5 <- inception_5b/5x5_reduce
I0403 15:31:08.263900  3180 net.cpp:399] inception_5b/5x5 -> inception_5b/5x5
I0403 15:31:08.266047  3180 net.cpp:141] Setting up inception_5b/5x5
I0403 15:31:08.266075  3180 net.cpp:148] Top shape: 24 128 7 7 (150528)
I0403 15:31:08.266091  3180 net.cpp:156] Memory required for data: 1335327264
I0403 15:31:08.266110  3180 layer_factory.hpp:77] Creating layer inception_5b/relu_5x5
I0403 15:31:08.266129  3180 net.cpp:91] Creating Layer inception_5b/relu_5x5
I0403 15:31:08.266147  3180 net.cpp:425] inception_5b/relu_5x5 <- inception_5b/5x5
I0403 15:31:08.266165  3180 net.cpp:386] inception_5b/relu_5x5 -> inception_5b/5x5 (in-place)
I0403 15:31:08.266376  3180 net.cpp:141] Setting up inception_5b/relu_5x5
I0403 15:31:08.266401  3180 net.cpp:148] Top shape: 24 128 7 7 (150528)
I0403 15:31:08.266415  3180 net.cpp:156] Memory required for data: 1335929376
I0403 15:31:08.266430  3180 layer_factory.hpp:77] Creating layer inception_5b/pool
I0403 15:31:08.266451  3180 net.cpp:91] Creating Layer inception_5b/pool
I0403 15:31:08.266469  3180 net.cpp:425] inception_5b/pool <- inception_5a/output_inception_5a/output_0_split_3
I0403 15:31:08.266487  3180 net.cpp:399] inception_5b/pool -> inception_5b/pool
I0403 15:31:08.266563  3180 net.cpp:141] Setting up inception_5b/pool
I0403 15:31:08.266587  3180 net.cpp:148] Top shape: 24 832 7 7 (978432)
I0403 15:31:08.266602  3180 net.cpp:156] Memory required for data: 1339843104
I0403 15:31:08.266616  3180 layer_factory.hpp:77] Creating layer inception_5b/pool_proj
I0403 15:31:08.266638  3180 net.cpp:91] Creating Layer inception_5b/pool_proj
I0403 15:31:08.266657  3180 net.cpp:425] inception_5b/pool_proj <- inception_5b/pool
I0403 15:31:08.266679  3180 net.cpp:399] inception_5b/pool_proj -> inception_5b/pool_proj
I0403 15:31:08.269132  3180 net.cpp:141] Setting up inception_5b/pool_proj
I0403 15:31:08.269163  3180 net.cpp:148] Top shape: 24 128 7 7 (150528)
I0403 15:31:08.269179  3180 net.cpp:156] Memory required for data: 1340445216
I0403 15:31:08.269198  3180 layer_factory.hpp:77] Creating layer inception_5b/relu_pool_proj
I0403 15:31:08.269224  3180 net.cpp:91] Creating Layer inception_5b/relu_pool_proj
I0403 15:31:08.269243  3180 net.cpp:425] inception_5b/relu_pool_proj <- inception_5b/pool_proj
I0403 15:31:08.269263  3180 net.cpp:386] inception_5b/relu_pool_proj -> inception_5b/pool_proj (in-place)
I0403 15:31:08.269600  3180 net.cpp:141] Setting up inception_5b/relu_pool_proj
I0403 15:31:08.269628  3180 net.cpp:148] Top shape: 24 128 7 7 (150528)
I0403 15:31:08.269642  3180 net.cpp:156] Memory required for data: 1341047328
I0403 15:31:08.269657  3180 layer_factory.hpp:77] Creating layer inception_5b/output
I0403 15:31:08.269675  3180 net.cpp:91] Creating Layer inception_5b/output
I0403 15:31:08.269706  3180 net.cpp:425] inception_5b/output <- inception_5b/1x1
I0403 15:31:08.269724  3180 net.cpp:425] inception_5b/output <- inception_5b/3x3
I0403 15:31:08.269740  3180 net.cpp:425] inception_5b/output <- inception_5b/5x5
I0403 15:31:08.269757  3180 net.cpp:425] inception_5b/output <- inception_5b/pool_proj
I0403 15:31:08.269776  3180 net.cpp:399] inception_5b/output -> inception_5b/output
I0403 15:31:08.269830  3180 net.cpp:141] Setting up inception_5b/output
I0403 15:31:08.269855  3180 net.cpp:148] Top shape: 24 1024 7 7 (1204224)
I0403 15:31:08.269872  3180 net.cpp:156] Memory required for data: 1345864224
I0403 15:31:08.269887  3180 layer_factory.hpp:77] Creating layer pool5/7x7_s1
I0403 15:31:08.269906  3180 net.cpp:91] Creating Layer pool5/7x7_s1
I0403 15:31:08.269920  3180 net.cpp:425] pool5/7x7_s1 <- inception_5b/output
I0403 15:31:08.269938  3180 net.cpp:399] pool5/7x7_s1 -> pool5/7x7_s1
I0403 15:31:08.270166  3180 net.cpp:141] Setting up pool5/7x7_s1
I0403 15:31:08.270192  3180 net.cpp:148] Top shape: 24 1024 1 1 (24576)
I0403 15:31:08.270215  3180 net.cpp:156] Memory required for data: 1345962528
I0403 15:31:08.270231  3180 layer_factory.hpp:77] Creating layer pool5/drop_7x7_s1
I0403 15:31:08.270249  3180 net.cpp:91] Creating Layer pool5/drop_7x7_s1
I0403 15:31:08.270265  3180 net.cpp:425] pool5/drop_7x7_s1 <- pool5/7x7_s1
I0403 15:31:08.270285  3180 net.cpp:386] pool5/drop_7x7_s1 -> pool5/7x7_s1 (in-place)
I0403 15:31:08.270336  3180 net.cpp:141] Setting up pool5/drop_7x7_s1
I0403 15:31:08.270362  3180 net.cpp:148] Top shape: 24 1024 1 1 (24576)
I0403 15:31:08.270377  3180 net.cpp:156] Memory required for data: 1346060832
I0403 15:31:08.270391  3180 layer_factory.hpp:77] Creating layer loss3/classifier_plantvillage
I0403 15:31:08.270411  3180 net.cpp:91] Creating Layer loss3/classifier_plantvillage
I0403 15:31:08.270427  3180 net.cpp:425] loss3/classifier_plantvillage <- pool5/7x7_s1
I0403 15:31:08.270448  3180 net.cpp:399] loss3/classifier_plantvillage -> loss3/classifier_plantvillage
I0403 15:31:08.270894  3180 net.cpp:141] Setting up loss3/classifier_plantvillage
I0403 15:31:08.270917  3180 net.cpp:148] Top shape: 24 38 (912)
I0403 15:31:08.270932  3180 net.cpp:156] Memory required for data: 1346064480
I0403 15:31:08.270951  3180 layer_factory.hpp:77] Creating layer loss3/classifier_plantvillage_loss3/classifier_plantvillage_0_split
I0403 15:31:08.270972  3180 net.cpp:91] Creating Layer loss3/classifier_plantvillage_loss3/classifier_plantvillage_0_split
I0403 15:31:08.270989  3180 net.cpp:425] loss3/classifier_plantvillage_loss3/classifier_plantvillage_0_split <- loss3/classifier_plantvillage
I0403 15:31:08.271006  3180 net.cpp:399] loss3/classifier_plantvillage_loss3/classifier_plantvillage_0_split -> loss3/classifier_plantvillage_loss3/classifier_plantvillage_0_split_0
I0403 15:31:08.271026  3180 net.cpp:399] loss3/classifier_plantvillage_loss3/classifier_plantvillage_0_split -> loss3/classifier_plantvillage_loss3/classifier_plantvillage_0_split_1
I0403 15:31:08.271050  3180 net.cpp:399] loss3/classifier_plantvillage_loss3/classifier_plantvillage_0_split -> loss3/classifier_plantvillage_loss3/classifier_plantvillage_0_split_2
I0403 15:31:08.271070  3180 net.cpp:399] loss3/classifier_plantvillage_loss3/classifier_plantvillage_0_split -> loss3/classifier_plantvillage_loss3/classifier_plantvillage_0_split_3
I0403 15:31:08.271176  3180 net.cpp:141] Setting up loss3/classifier_plantvillage_loss3/classifier_plantvillage_0_split
I0403 15:31:08.271200  3180 net.cpp:148] Top shape: 24 38 (912)
I0403 15:31:08.271224  3180 net.cpp:148] Top shape: 24 38 (912)
I0403 15:31:08.271241  3180 net.cpp:148] Top shape: 24 38 (912)
I0403 15:31:08.271256  3180 net.cpp:148] Top shape: 24 38 (912)
I0403 15:31:08.271270  3180 net.cpp:156] Memory required for data: 1346079072
I0403 15:31:08.271284  3180 layer_factory.hpp:77] Creating layer loss1/loss
I0403 15:31:08.271306  3180 net.cpp:91] Creating Layer loss1/loss
I0403 15:31:08.271324  3180 net.cpp:425] loss1/loss <- loss1/classifier_plantvillage_loss1/classifier_plantvillage_0_split_0
I0403 15:31:08.271355  3180 net.cpp:425] loss1/loss <- label_data_1_split_0
…
