…
I0403 15:02:55.107290  2585 net.cpp:313] The NetState phase (1) differed from the phase (0) specified by a rule in layer data
I0403 15:02:55.108450  2585 net.cpp:49] Initializing net from parameters: 
state {
  phase: TEST
}
layer {
  name: "data"
  type: "Data"
  top: "data"
  top: "label"
  include {
    phase: TEST
  }
  transform_param {
    mirror: false
    crop_size: 224
    mean_file: "/home/mohanty/data/final_dataset/lmdb/segmented-60-40/mean.binaryproto"
  }
  data_param {
    source: "/home/mohanty/data/final_dataset/lmdb/segmented-60-40/test_db"
    batch_size: 24
    backend: LMDB
  }
}
layer {
  name: "conv1/7x7_s2"
  type: "Convolution"
  bottom: "data"
  top: "conv1/7x7_s2"
  param {
    lr_mult: 1
    decay_mult: 1
  }
  param {
    lr_mult: 2
    decay_mult: 0
  }
  convolution_param {
    num_output: 64
    pad: 3
    kernel_size: 7
    stride: 2
    weight_filler {
      type: "xavier"
      std: 0.1
    }
    bias_filler {
      type: "constant"
      value: 0.2
    }
  }
}
layer {
  name: "conv1/relu_7x7"
  type: "ReLU"
  bottom: "conv1/7x7_s2"
  top: "conv1/7x7_s2"
}
layer {
  name: "pool1/3x3_s2"
  type: "Pooling"
  bottom: "conv1/7x7_s2"
  top: "pool1/3x3_s2"
  pooling_param {
    pool: MAX
    kernel_size: 3
    stride: 2
  }
}
layer {
  name: "pool1/norm1"
  type: "LRN"
  bottom: "pool1/3x3_s2"
  top: "pool1/norm1"
  lrn_param {
    local_size: 5
    alpha: 0.0001
    beta: 0.75
  }
}
layer {
  name: "conv2/3x3_reduce"
  type: "Convolution"
  bottom: "pool1/norm1"
  top: "conv2/3x3_reduce"
  param {
    lr_mult: 1
    decay_mult: 1
  }
  param {
    lr_mult: 2
    decay_mult: 0
  }
  convolution_param {
    num_output: 64
    kernel_size: 1
    weight_filler {
      type: "xavier"
      std: 0.1
    }
    bias_filler {
      type: "constant"
      value: 0.2
    }
  }
}
layer {
  name: "conv2/relu_3x3_reduce"
  type: "ReLU"
  bottom: "conv2/3x3_reduce"
  top: "conv2/3x3_reduce"
}
layer {
  name: "conv2/3x3"
  type: "Convolution"
  bottom: "conv2/3x3_reduce"
  top: "conv2/3x3"
  param {
    lr_mult: 1
    decay_mult: 1
  }
  param {
    lr_mult: 2
    decay_mult: 0
  }
  convolution_param {
    num_output: 192
    pad: 1
    kernel_size: 3
    weight_filler {
      type: "xavier"
      std: 0.03
    }
    bias_filler {
      type: "constant"
      value: 0.2
    }
  }
}
layer {
  name: "conv2/relu_3x3"
  type: "ReLU"
  bottom: "conv2/3x3"
  top: "conv2/3x3"
}
layer {
  name: "conv2/norm2"
  type: "LRN"
  bottom: "conv2/3x3"
  top: "conv2/norm2"
  lrn_param {
    local_size: 5
    alpha: 0.0001
    beta: 0.75
  }
}
layer {
  name: "pool2/3x3_s2"
  type: "Pooling"
  bottom: "conv2/norm2"
  top: "pool2/3x3_s2"
  pooling_param {
    pool: MAX
    kernel_size: 3
    stride: 2
  }
}
layer {
  name: "inception_3a/1x1"
  type: "Convolution"
  bottom: "pool2/3x3_s2"
  top: "inception_3a/1x1"
  param {
    lr_mult: 1
    decay_mult: 1
  }
  param {
    lr_mult: 2
    decay_mult: 0
  }
  convolution_param {
    num_output: 64
    kernel_size: 1
    weight_filler {
      type: "xavier"
      std: 0.03
    }
    bias_filler {
      type: "constant"
      value: 0.2
    }
  }
}
layer {
  name: "inception_3a/relu_1x1"
  type: "ReLU"
  bottom: "inception_3a/1x1"
  top: "inception_3a/1x1"
}
layer {
  name: "inception_3a/3x3_reduce"
  type: "Convolution"
  bottom: "pool2/3x3_s2"
  top: "inception_3a/3x3_reduce"
  param {
    lr_mult: 1
    decay_mult: 1
  }
  param {
    lr_mult: 2
    decay_mult: 0
  }
  convolution_param {
    num_output: 96
    kernel_size: 1
    weight_filler {
      type: "xavier"
      std: 0.09
    }
    bias_filler {
      type: "constant"
      value: 0.2
    }
  }
}
layer {
  name: "inception_3a/relu_3x3_reduce"
  type: "ReLU"
  bottom: "inception_3a/3x3_reduce"
  top: "inception_3a/3x3_reduce"
}
layer {
  name: "inception_3a/3x3"
  type: "Convolution"
  bottom: "inception_3a/3x3_reduce"
  top: "inception_3a/3x3"
  param {
    lr_mult: 1
    decay_mult: 1
  }
  param {
    lr_mult: 2
    decay_mult: 0
  }
  convolution_param {
    num_output: 128
    pad: 1
    kernel_size: 3
    weight_filler {
      type: "xavier"
      std: 0.03
    }
    bias_filler {
      type: "constant"
      value: 0.2
    }
  }
}
layer {
  name: "inception_3a/relu_3x3"
  type: "ReLU"
  bottom: "inception_3a/3x3"
  top: "inception_3a/3x3"
}
layer {
  name: "inception_3a/5x5_reduce"
  type: "Convolution"
  bottom: "pool2/3x3_s2"
  top: "inception_3a/5x5_reduce"
  param {
    lr_mult: 1
    decay_mult: 1
  }
  param {
    lr_mult: 2
    decay_mult: 0
  }
  convolution_param {
    num_output: 16
    kernel_size: 1
    weight_filler {
      type: "xavier"
      std: 0.2
    }
    bias_filler {
      type: "constant"
      value: 0.2
    }
  }
}
layer {
  name: "inception_3a/relu_5x5_reduce"
  type: "ReLU"
  bottom: "inception_3a/5x5_reduce"
  top: "inception_3a/5x5_reduce"
}
layer {
  name: "inception_3a/5x5"
  type: "Convolution"
  bottom: "inception_3a/5x5_reduce"
  top: "inception_3a/5x5"
  param {
    lr_mult: 1
    decay_mult: 1
  }
  param {
    lr_mult: 2
    decay_mult: 0
  }
  convolution_param {
    num_output: 32
    pad: 2
    kernel_size: 5
    weight_filler {
      type: "xavier"
      std: 0.03
    }
    bias_filler {
      type: "constant"
      value: 0.2
    }
  }
}
layer {
  name: "inception_3a/relu_5x5"
  type: "ReLU"
  bottom: "inception_3a/5x5"
  top: "inception_3a/5x5"
}
layer {
  name: "inception_3a/pool"
  type: "Pooling"
  bottom: "pool2/3x3_s2"
  top: "inception_3a/pool"
  pooling_param {
    pool: MAX
    kernel_size: 3
    stride: 1
    pad: 1
  }
}
layer {
  name: "inception_3a/pool_proj"
  type: "Convolution"
  bottom: "inception_3a/pool"
  top: "inception_3a/pool_proj"
  param {
    lr_mult: 1
    decay_mult: 1
  }
  param {
    lr_mult: 2
    decay_mult: 0
  }
  convolution_param {
    num_output: 32
    kernel_size: 1
    weight_filler {
      type: "xavier"
      std: 0.1
    }
    bias_filler {
      type: "constant"
      value: 0.2
    }
  }
}
layer {
  name: "inception_3a/relu_pool_proj"
  type: "ReLU"
  bottom: "inception_3a/pool_proj"
  top: "inception_3a/pool_proj"
}
layer {
  name: "inception_3a/output"
  type: "Concat"
  bottom: "inception_3a/1x1"
  bottom: "inception_3a/3x3"
  bottom: "inception_3a/5x5"
  bottom: "inception_3a/pool_proj"
  top: "inception_3a/output"
}
layer {
  name: "inception_3b/1x1"
  type: "Convolution"
  bottom: "inception_3a/output"
  top: "inception_3b/1x1"
  param {
    lr_mult: 1
    decay_mult: 1
  }
  param {
    lr_mult: 2
    decay_mult: 0
  }
  convolution_param {
    num_output: 128
    kernel_size: 1
    weight_filler {
      type: "xavier"
      std: 0.03
    }
    bias_filler {
      type: "constant"
      value: 0.2
    }
  }
}
layer {
  name: "inception_3b/relu_1x1"
  type: "ReLU"
  bottom: "inception_3b/1x1"
  top: "inception_3b/1x1"
}
layer {
  name: "inception_3b/3x3_reduce"
  type: "Convolution"
  bottom: "inception_3a/output"
  top: "inception_3b/3x3_reduce"
  param {
    lr_mult: 1
    decay_mult: 1
  }
  param {
    lr_mult: 2
    decay_mult: 0
  }
  convolution_param {
    num_output: 128
    kernel_size: 1
    weight_filler {
      type: "xavier"
      std: 0.09
    }
    bias_filler {
      type: "constant"
      value: 0.2
    }
  }
}
layer {
  name: "inception_3b/relu_3x3_reduce"
  type: "ReLU"
  bottom: "inception_3b/3x3_reduce"
  top: "inception_3b/3x3_reduce"
}
layer {
  name: "inception_3b/3x3"
  type: "Convolution"
  bottom: "inception_3b/3x3_reduce"
  top: "inception_3b/3x3"
  param {
    lr_mult: 1
    decay_mult: 1
  }
  param {
    lr_mult: 2
    decay_mult: 0
  }
  convolution_param {
    num_output: 192
    pad: 1
    kernel_size: 3
    weight_filler {
      type: "xavier"
      std: 0.03
    }
    bias_filler {
      type: "constant"
      value: 0.2
    }
  }
}
layer {
  name: "inception_3b/relu_3x3"
  type: "ReLU"
  bottom: "inception_3b/3x3"
  top: "inception_3b/3x3"
}
layer {
  name: "inception_3b/5x5_reduce"
  type: "Convolution"
  bottom: "inception_3a/output"
  top: "inception_3b/5x5_reduce"
  param {
    lr_mult: 1
    decay_mult: 1
  }
  param {
    lr_mult: 2
    decay_mult: 0
  }
  convolution_param {
    num_output: 32
    kernel_size: 1
    weight_filler {
      type: "xavier"
      std: 0.2
    }
    bias_filler {
      type: "constant"
      value: 0.2
    }
  }
}
layer {
  name: "inception_3b/relu_5x5_reduce"
  type: "ReLU"
  bottom: "inception_3b/5x5_reduce"
  top: "inception_3b/5x5_reduce"
}
layer {
  name: "inception_3b/5x5"
  type: "Convolution"
  bottom: "inception_3b/5x5_reduce"
  top: "inception_3b/5x5"
  param {
    lr_mult: 1
    decay_mult: 1
  }
  param {
    lr_mult: 2
    decay_mult: 0
  }
  convolution_param {
    num_output: 96
    pad: 2
    kernel_size: 5
    weight_filler {
      type: "xavier"
      std: 0.03
    }
    bias_filler {
      type: "constant"
      value: 0.2
    }
  }
}
layer {
  name: "inception_3b/relu_5x5"
  type: "ReLU"
  bottom: "inception_3b/5x5"
  top: "inception_3b/5x5"
}
layer {
  name: "inception_3b/pool"
  type: "Pooling"
  bottom: "inception_3a/output"
  top: "inception_3b/pool"
  pooling_param {
    pool: MAX
    kernel_size: 3
    stride: 1
    pad: 1
  }
}
layer {
  name: "inception_3b/pool_proj"
  type: "Convolution"
  bottom: "inception_3b/pool"
  top: "inception_3b/pool_proj"
  param {
    lr_mult: 1
    decay_mult: 1
  }
  param {
    lr_mult: 2
    decay_mult: 0
  }
  convolution_param {
    num_output: 64
    kernel_size: 1
    weight_filler {
      type: "xavier"
      std: 0.1
    }
    bias_filler {
      type: "constant"
      value: 0.2
    }
  }
}
layer {
  name: "inception_3b/relu_pool_proj"
  type: "ReLU"
  bottom: "inception_3b/pool_proj"
  top: "inception_3b/pool_proj"
}
layer {
  name: "inception_3b/output"
  type: "Concat"
  bottom: "inception_3b/1x1"
  bottom: "inception_3b/3x3"
  bottom: "inception_3b/5x5"
  bottom: "inception_3b/pool_proj"
  top: "inception_3b/output"
}
layer {
  name: "pool3/3x3_s2"
  type: "Pooling"
  bottom: "inception_3b/output"
  top: "pool3/3x3_s2"
  pooling_param {
    pool: MAX
    kernel_size: 3
    stride: 2
  }
}
layer {
  name: "inception_4a/1x1"
  type: "Convolution"
  bottom: "pool3/3x3_s2"
  top: "inception_4a/1x1"
  param {
    lr_mult: 1
    decay_mult: 1
  }
  param {
    lr_mult: 2
    decay_mult: 0
  }
  convolution_param {
    num_output: 192
    kernel_size: 1
    weight_filler {
      type: "xavier"
      std: 0.03
    }
    bias_filler {
      type: "constant"
      value: 0.2
    }
  }
}
layer {
  name: "inception_4a/relu_1x1"
  type: "ReLU"
  bottom: "inception_4a/1x1"
  top: "inception_4a/1x1"
}
layer {
  name: "inception_4a/3x3_reduce"
  type: "Convolution"
  bottom: "pool3/3x3_s2"
  top: "inception_4a/3x3_reduce"
  param {
    lr_mult: 1
    decay_mult: 1
  }
  param {
    lr_mult: 2
    decay_mult: 0
  }
  convolution_param {
    num_output: 96
    kernel_size: 1
    weight_filler {
      type: "xavier"
      std: 0.09
    }
    bias_filler {
      type: "constant"
      value: 0.2
    }
  }
}
layer {
  name: "inception_4a/relu_3x3_reduce"
  type: "ReLU"
  bottom: "inception_4a/3x3_reduce"
  top: "inception_4a/3x3_reduce"
}
layer {
  name: "inception_4a/3x3"
  type: "Convolution"
  bottom: "inception_4a/3x3_reduce"
  top: "inception_4a/3x3"
  param {
    lr_mult: 1
    decay_mult: 1
  }
  param {
    lr_mult: 2
    decay_mult: 0
  }
  convolution_param {
    num_output: 208
    pad: 1
    kernel_size: 3
    weight_filler {
      type: "xavier"
      std: 0.03
    }
    bias_filler {
      type: "constant"
      value: 0.2
    }
  }
}
layer {
  name: "inception_4a/relu_3x3"
  type: "ReLU"
  bottom: "inception_4a/3x3"
  top: "inception_4a/3x3"
}
layer {
  name: "inception_4a/5x5_reduce"
  type: "Convolution"
  bottom: "pool3/3x3_s2"
  top: "inception_4a/5x5_reduce"
  param {
    lr_mult: 1
    decay_mult: 1
  }
  param {
    lr_mult: 2
    decay_mult: 0
  }
  convolution_param {
    num_output: 16
    kernel_size: 1
    weight_filler {
      type: "xavier"
      std: 0.2
    }
    bias_filler {
      type: "constant"
      value: 0.2
    }
  }
}
layer {
  name: "inception_4a/relu_5x5_reduce"
  type: "ReLU"
  bottom: "inception_4a/5x5_reduce"
  top: "inception_4a/5x5_reduce"
}
layer {
  name: "inception_4a/5x5"
  type: "Convolution"
  bottom: "inception_4a/5x5_reduce"
  top: "inception_4a/5x5"
  param {
    lr_mult: 1
    decay_mult: 1
  }
  param {
    lr_mult: 2
    decay_mult: 0
  }
  convolution_param {
    num_output: 48
    pad: 2
    kernel_size: 5
    weight_filler {
      type: "xavier"
      std: 0.03
    }
    bias_filler {
      type: "constant"
      value: 0.2
    }
  }
}
layer {
  name: "inception_4a/relu_5x5"
  type: "ReLU"
  bottom: "inception_4a/5x5"
  top: "inception_4a/5x5"
}
layer {
  name: "inception_4a/pool"
  type: "Pooling"
  bottom: "pool3/3x3_s2"
  top: "inception_4a/pool"
  pooling_param {
    pool: MAX
    kernel_size: 3
    stride: 1
    pad: 1
  }
}
layer {
  name: "inception_4a/pool_proj"
  type: "Convolution"
  bottom: "inception_4a/pool"
  top: "inception_4a/pool_proj"
  param {
    lr_mult: 1
    decay_mult: 1
  }
  param {
    lr_mult: 2
    decay_mult: 0
  }
  convolution_param {
    num_output: 64
    kernel_size: 1
    weight_filler {
      type: "xavier"
      std: 0.1
    }
    bias_filler {
      type: "constant"
      value: 0.2
    }
  }
}
layer {
  name: "inception_4a/relu_pool_proj"
  type: "ReLU"
  bottom: "inception_4a/pool_proj"
  top: "inception_4a/pool_proj"
}
layer {
  name: "inception_4a/output"
  type: "Concat"
  bottom: "inception_4a/1x1"
  bottom: "inception_4a/3x3"
  bottom: "inception_4a/5x5"
  bottom: "inception_4a/pool_proj"
  top: "inception_4a/output"
}
layer {
  name: "loss1/ave_pool"
  type: "Pooling"
  bottom: "inception_4a/output"
  top: "loss1/ave_pool"
  pooling_param {
    pool: AVE
    kernel_size: 5
    stride: 3
  }
}
layer {
  name: "loss1/conv"
  type: "Convolution"
  bottom: "loss1/ave_pool"
  top: "loss1/conv"
  param {
    lr_mult: 1
    decay_mult: 1
  }
  param {
    lr_mult: 2
    decay_mult: 0
  }
  convolution_param {
    num_output: 128
    kernel_size: 1
    weight_filler {
      type: "xavier"
      std: 0.08
    }
    bias_filler {
      type: "constant"
      value: 0.2
    }
  }
}
layer {
  name: "loss1/relu_conv"
  type: "ReLU"
  bottom: "loss1/conv"
  top: "loss1/conv"
}
layer {
  name: "loss1/fc"
  type: "InnerProduct"
  bottom: "loss1/conv"
  top: "loss1/fc"
  param {
    lr_mult: 1
    decay_mult: 1
  }
  param {
    lr_mult: 2
    decay_mult: 0
  }
  inner_product_param {
    num_output: 1024
    weight_filler {
      type: "xavier"
      std: 0.02
    }
    bias_filler {
      type: "constant"
      value: 0.2
    }
  }
}
layer {
  name: "loss1/relu_fc"
  type: "ReLU"
  bottom: "loss1/fc"
  top: "loss1/fc"
}
layer {
  name: "loss1/drop_fc"
  type: "Dropout"
  bottom: "loss1/fc"
  top: "loss1/fc"
  dropout_param {
    dropout_ratio: 0.7
  }
}
layer {
  name: "loss1/classifier_plantvillage"
  type: "InnerProduct"
  bottom: "loss1/fc"
  top: "loss1/classifier_plantvillage"
  param {
    lr_mult: 1
    decay_mult: 1
  }
  param {
    lr_mult: 2
    decay_mult: 0
  }
  inner_product_param {
    num_output: 38
    weight_filler {
      type: "xavier"
      std: 0.0009765625
    }
    bias_filler {
      type: "constant"
      value: 0
    }
  }
}
layer {
  name: "inception_4b/1x1"
  type: "Convolution"
  bottom: "inception_4a/output"
  top: "inception_4b/1x1"
  param {
    lr_mult: 1
    decay_mult: 1
  }
  param {
    lr_mult: 2
    decay_mult: 0
  }
  convolution_param {
    num_output: 160
    kernel_size: 1
    weight_filler {
      type: "xavier"
      std: 0.03
    }
    bias_filler {
      type: "constant"
      value: 0.2
    }
  }
}
layer {
  name: "inception_4b/relu_1x1"
  type: "ReLU"
  bottom: "inception_4b/1x1"
  top: "inception_4b/1x1"
}
layer {
  name: "inception_4b/3x3_reduce"
  type: "Convolution"
  bottom: "inception_4a/output"
  top: "inception_4b/3x3_reduce"
  param {
    lr_mult: 1
    decay_mult: 1
  }
  param {
    lr_mult: 2
    decay_mult: 0
  }
  convolution_param {
    num_output: 112
    kernel_size: 1
    weight_filler {
      type: "xavier"
      std: 0.09
    }
    bias_filler {
      type: "constant"
      value: 0.2
    }
  }
}
layer {
  name: "inception_4b/relu_3x3_reduce"
  type: "ReLU"
  bottom: "inception_4b/3x3_reduce"
  top: "inception_4b/3x3_reduce"
}
layer {
  name: "inception_4b/3x3"
  type: "Convolution"
  bottom: "inception_4b/3x3_reduce"
  top: "inception_4b/3x3"
  param {
    lr_mult: 1
    decay_mult: 1
  }
  param {
    lr_mult: 2
    decay_mult: 0
  }
  convolution_param {
    num_output: 224
    pad: 1
    kernel_size: 3
    weight_filler {
      type: "xavier"
      std: 0.03
    }
    bias_filler {
      type: "constant"
      value: 0.2
    }
  }
}
layer {
  name: "inception_4b/relu_3x3"
  type: "ReLU"
  bottom: "inception_4b/3x3"
  top: "inception_4b/3x3"
}
layer {
  name: "inception_4b/5x5_reduce"
  type: "Convolution"
  bottom: "inception_4a/output"
  top: "inception_4b/5x5_reduce"
  param {
    lr_mult: 1
    decay_mult: 1
  }
  param {
    lr_mult: 2
    decay_mult: 0
  }
  convolution_param {
    num_output: 24
    kernel_size: 1
    weight_filler {
      type: "xavier"
      std: 0.2
    }
    bias_filler {
      type: "constant"
      value: 0.2
    }
  }
}
layer {
  name: "inception_4b/relu_5x5_reduce"
  type: "ReLU"
  bottom: "inception_4b/5x5_reduce"
  top: "inception_4b/5x5_reduce"
}
layer {
  name: "inception_4b/5x5"
  type: "Convolution"
  bottom: "inception_4b/5x5_reduce"
  top: "inception_4b/5x5"
  param {
    lr_mult: 1
    decay_mult: 1
  }
  param {
    lr_mult: 2
    decay_mult: 0
  }
  convolution_param {
    num_output: 64
    pad: 2
    kernel_size: 5
    weight_filler {
      type: "xavier"
      std: 0.03
    }
    bias_filler {
      type: "constant"
      value: 0.2
    }
  }
}
layer {
  name: "inception_4b/relu_5x5"
  type: "ReLU"
  bottom: "inception_4b/5x5"
  top: "inception_4b/5x5"
}
layer {
  name: "inception_4b/pool"
  type: "Pooling"
  bottom: "inception_4a/output"
  top: "inception_4b/pool"
  pooling_param {
    pool: MAX
    kernel_size: 3
    stride: 1
    pad: 1
  }
}
layer {
  name: "inception_4b/pool_proj"
  type: "Convolution"
  bottom: "inception_4b/pool"
  top: "inception_4b/pool_proj"
  param {
    lr_mult: 1
    decay_mult: 1
  }
  param {
    lr_mult: 2
    decay_mult: 0
  }
  convolution_param {
    num_output: 64
    kernel_size: 1
    weight_filler {
      type: "xavier"
      std: 0.1
    }
    bias_filler {
      type: "constant"
      value: 0.2
    }
  }
}
layer {
  name: "inception_4b/relu_pool_proj"
  type: "ReLU"
  bottom: "inception_4b/pool_proj"
  top: "inception_4b/pool_proj"
}
layer {
  name: "inception_4b/output"
  type: "Concat"
  bottom: "inception_4b/1x1"
  bottom: "inception_4b/3x3"
  bottom: "inception_4b/5x5"
  bottom: "inception_4b/pool_proj"
  top: "inception_4b/output"
}
layer {
  name: "inception_4c/1x1"
  type: "Convolution"
  bottom: "inception_4b/output"
  top: "inception_4c/1x1"
  param {
    lr_mult: 1
    decay_mult: 1
  }
  param {
    lr_mult: 2
    decay_mult: 0
  }
  convolution_param {
    num_output: 128
    kernel_size: 1
    weight_filler {
      type: "xavier"
      std: 0.03
    }
    bias_filler {
      type: "constant"
      value: 0.2
    }
  }
}
layer {
  name: "inception_4c/relu_1x1"
  type: "ReLU"
  bottom: "inception_4c/1x1"
  top: "inception_4c/1x1"
}
layer {
  name: "inception_4c/3x3_reduce"
  type: "Convolution"
  bottom: "inception_4b/output"
  top: "inception_4c/3x3_reduce"
  param {
    lr_mult: 1
    decay_mult: 1
  }
  param {
    lr_mult: 2
    decay_mult: 0
  }
  convolution_param {
    num_output: 128
    kernel_size: 1
    weight_filler {
      type: "xavier"
      std: 0.09
    }
    bias_filler {
      type: "constant"
      value: 0.2
    }
  }
}
layer {
  name: "inception_4c/relu_3x3_reduce"
  type: "ReLU"
  bottom: "inception_4c/3x3_reduce"
  top: "inception_4c/3x3_reduce"
}
layer {
  name: "inception_4c/3x3"
  type: "Convolution"
  bottom: "inception_4c/3x3_reduce"
  top: "inception_4c/3x3"
  param {
    lr_mult: 1
    decay_mult: 1
  }
  param {
    lr_mult: 2
    decay_mult: 0
  }
  convolution_param {
    num_output: 256
    pad: 1
    kernel_size: 3
    weight_filler {
      type: "xavier"
      std: 0.03
    }
    bias_filler {
      type: "constant"
      value: 0.2
    }
  }
}
layer {
  name: "inception_4c/relu_3x3"
  type: "ReLU"
  bottom: "inception_4c/3x3"
  top: "inception_4c/3x3"
}
layer {
  name: "inception_4c/5x5_reduce"
  type: "Convolution"
  bottom: "inception_4b/output"
  top: "inception_4c/5x5_reduce"
  param {
    lr_mult: 1
    decay_mult: 1
  }
  param {
    lr_mult: 2
    decay_mult: 0
  }
  convolution_param {
    num_output: 24
    kernel_size: 1
    weight_filler {
      type: "xavier"
      std: 0.2
    }
    bias_filler {
      type: "constant"
      value: 0.2
    }
  }
}
layer {
  name: "inception_4c/relu_5x5_reduce"
  type: "ReLU"
  bottom: "inception_4c/5x5_reduce"
  top: "inception_4c/5x5_reduce"
}
layer {
  name: "inception_4c/5x5"
  type: "Convolution"
  bottom: "inception_4c/5x5_reduce"
  top: "inception_4c/5x5"
  param {
    lr_mult: 1
    decay_mult: 1
  }
  param {
    lr_mult: 2
    decay_mult: 0
  }
  convolution_param {
    num_output: 64
    pad: 2
    kernel_size: 5
    weight_filler {
      type: "xavier"
      std: 0.03
    }
    bias_filler {
      type: "constant"
      value: 0.2
    }
  }
}
layer {
  name: "inception_4c/relu_5x5"
  type: "ReLU"
  bottom: "inception_4c/5x5"
  top: "inception_4c/5x5"
}
layer {
  name: "inception_4c/pool"
  type: "Pooling"
  bottom: "inception_4b/output"
  top: "inception_4c/pool"
  pooling_param {
    pool: MAX
    kernel_size: 3
    stride: 1
    pad: 1
  }
}
layer {
  name: "inception_4c/pool_proj"
  type: "Convolution"
  bottom: "inception_4c/pool"
  top: "inception_4c/pool_proj"
  param {
    lr_mult: 1
    decay_mult: 1
  }
  param {
    lr_mult: 2
    decay_mult: 0
  }
  convolution_param {
    num_output: 64
    kernel_size: 1
    weight_filler {
      type: "xavier"
      std: 0.1
    }
    bias_filler {
      type: "constant"
      value: 0.2
    }
  }
}
layer {
  name: "inception_4c/relu_pool_proj"
  type: "ReLU"
  bottom: "inception_4c/pool_proj"
  top: "inception_4c/pool_proj"
}
layer {
  name: "inception_4c/output"
  type: "Concat"
  bottom: "inception_4c/1x1"
  bottom: "inception_4c/3x3"
  bottom: "inception_4c/5x5"
  bottom: "inception_4c/pool_proj"
  top: "inception_4c/output"
}
layer {
  name: "inception_4d/1x1"
  type: "Convolution"
  bottom: "inception_4c/output"
  top: "inception_4d/1x1"
  param {
    lr_mult: 1
    decay_mult: 1
  }
  param {
    lr_mult: 2
    decay_mult: 0
  }
  convolution_param {
    num_output: 112
    kernel_size: 1
    weight_filler {
      type: "xavier"
      std: 0.03
    }
    bias_filler {
      type: "constant"
      value: 0.2
    }
  }
}
layer {
  name: "inception_4d/relu_1x1"
  type: "ReLU"
  bottom: "inception_4d/1x1"
  top: "inception_4d/1x1"
}
layer {
  name: "inception_4d/3x3_reduce"
  type: "Convolution"
  bottom: "inception_4c/output"
  top: "inception_4d/3x3_reduce"
  param {
    lr_mult: 1
    decay_mult: 1
  }
  param {
    lr_mult: 2
    decay_mult: 0
  }
  convolution_param {
    num_output: 144
    kernel_size: 1
    weight_filler {
      type: "xavier"
      std: 0.09
    }
    bias_filler {
      type: "constant"
      value: 0.2
    }
  }
}
layer {
  name: "inception_4d/relu_3x3_reduce"
  type: "ReLU"
  bottom: "inception_4d/3x3_reduce"
  top: "inception_4d/3x3_reduce"
}
layer {
  name: "inception_4d/3x3"
  type: "Convolution"
  bottom: "inception_4d/3x3_reduce"
  top: "inception_4d/3x3"
  param {
    lr_mult: 1
    decay_mult: 1
  }
  param {
    lr_mult: 2
    decay_mult: 0
  }
  convolution_param {
    num_output: 288
    pad: 1
    kernel_size: 3
    weight_filler {
      type: "xavier"
      std: 0.03
    }
    bias_filler {
      type: "constant"
      value: 0.2
    }
  }
}
layer {
  name: "inception_4d/relu_3x3"
  type: "ReLU"
  bottom: "inception_4d/3x3"
  top: "inception_4d/3x3"
}
layer {
  name: "inception_4d/5x5_reduce"
  type: "Convolution"
  bottom: "inception_4c/output"
  top: "inception_4d/5x5_reduce"
  param {
    lr_mult: 1
    decay_mult: 1
  }
  param {
    lr_mult: 2
    decay_mult: 0
  }
  convolution_param {
    num_output: 32
    kernel_size: 1
    weight_filler {
      type: "xavier"
      std: 0.2
    }
    bias_filler {
      type: "constant"
      value: 0.2
    }
  }
}
layer {
  name: "inception_4d/relu_5x5_reduce"
  type: "ReLU"
  bottom: "inception_4d/5x5_reduce"
  top: "inception_4d/5x5_reduce"
}
layer {
  name: "inception_4d/5x5"
  type: "Convolution"
  bottom: "inception_4d/5x5_reduce"
  top: "inception_4d/5x5"
  param {
    lr_mult: 1
    decay_mult: 1
  }
  param {
    lr_mult: 2
    decay_mult: 0
  }
  convolution_param {
    num_output: 64
    pad: 2
    kernel_size: 5
    weight_filler {
      type: "xavier"
      std: 0.03
    }
    bias_filler {
      type: "constant"
      value: 0.2
    }
  }
}
layer {
  name: "inception_4d/relu_5x5"
  type: "ReLU"
  bottom: "inception_4d/5x5"
  top: "inception_4d/5x5"
}
layer {
  name: "inception_4d/pool"
  type: "Pooling"
  bottom: "inception_4c/output"
  top: "inception_4d/pool"
  pooling_param {
    pool: MAX
    kernel_size: 3
    stride: 1
    pad: 1
  }
}
layer {
  name: "inception_4d/pool_proj"
  type: "Convolution"
  bottom: "inception_4d/pool"
  top: "inception_4d/pool_proj"
  param {
    lr_mult: 1
    decay_mult: 1
  }
  param {
    lr_mult: 2
    decay_mult: 0
  }
  convolution_param {
    num_output: 64
    kernel_size: 1
    weight_filler {
      type: "xavier"
      std: 0.1
    }
    bias_filler {
      type: "constant"
      value: 0.2
    }
  }
}
layer {
  name: "inception_4d/relu_pool_proj"
  type: "ReLU"
  bottom: "inception_4d/pool_proj"
  top: "inception_4d/pool_proj"
}
layer {
  name: "inception_4d/output"
  type: "Concat"
  bottom: "inception_4d/1x1"
  bottom: "inception_4d/3x3"
  bottom: "inception_4d/5x5"
  bottom: "inception_4d/pool_proj"
  top: "inception_4d/output"
}
layer {
  name: "loss2/ave_pool"
  type: "Pooling"
  bottom: "inception_4d/output"
  top: "loss2/ave_pool"
  pooling_param {
    pool: AVE
    kernel_size: 5
    stride: 3
  }
}
layer {
  name: "loss2/conv"
  type: "Convolution"
  bottom: "loss2/ave_pool"
  top: "loss2/conv"
  param {
    lr_mult: 1
    decay_mult: 1
  }
  param {
    lr_mult: 2
    decay_mult: 0
  }
  convolution_param {
    num_output: 128
    kernel_size: 1
    weight_filler {
      type: "xavier"
      std: 0.08
    }
    bias_filler {
      type: "constant"
      value: 0.2
    }
  }
}
layer {
  name: "loss2/relu_conv"
  type: "ReLU"
  bottom: "loss2/conv"
  top: "loss2/conv"
}
layer {
  name: "loss2/fc"
  type: "InnerProduct"
  bottom: "loss2/conv"
  top: "loss2/fc"
  param {
    lr_mult: 1
    decay_mult: 1
  }
  param {
    lr_mult: 2
    decay_mult: 0
  }
  inner_product_param {
    num_output: 1024
    weight_filler {
      type: "xavier"
      std: 0.02
    }
    bias_filler {
      type: "constant"
      value: 0.2
    }
  }
}
layer {
  name: "loss2/relu_fc"
  type: "ReLU"
  bottom: "loss2/fc"
  top: "loss2/fc"
}
layer {
  name: "loss2/drop_fc"
  type: "Dropout"
  bottom: "loss2/fc"
  top: "loss2/fc"
  dropout_param {
    dropout_ratio: 0.7
  }
}
layer {
  name: "loss2/classifier_plantvillage"
  type: "InnerProduct"
  bottom: "loss2/fc"
  top: "loss2/classifier_plantvillage"
  param {
    lr_mult: 1
    decay_mult: 1
  }
  param {
    lr_mult: 2
    decay_mult: 0
  }
  inner_product_param {
    num_output: 38
    weight_filler {
      type: "xavier"
      std: 0.0009765625
    }
    bias_filler {
      type: "constant"
      value: 0
    }
  }
}
layer {
  name: "inception_4e/1x1"
  type: "Convolution"
  bottom: "inception_4d/output"
  top: "inception_4e/1x1"
  param {
    lr_mult: 1
    decay_mult: 1
  }
  param {
    lr_mult: 2
    decay_mult: 0
  }
  convolution_param {
    num_output: 256
    kernel_size: 1
    weight_filler {
      type: "xavier"
      std: 0.03
    }
    bias_filler {
      type: "constant"
      value: 0.2
    }
  }
}
layer {
  name: "inception_4e/relu_1x1"
  type: "ReLU"
  bottom: "inception_4e/1x1"
  top: "inception_4e/1x1"
}
layer {
  name: "inception_4e/3x3_reduce"
  type: "Convolution"
  bottom: "inception_4d/output"
  top: "inception_4e/3x3_reduce"
  param {
    lr_mult: 1
    decay_mult: 1
  }
  param {
    lr_mult: 2
    decay_mult: 0
  }
  convolution_param {
    num_output: 160
    kernel_size: 1
    weight_filler {
      type: "xavier"
      std: 0.09
    }
    bias_filler {
      type: "constant"
      value: 0.2
    }
  }
}
layer {
  name: "inception_4e/relu_3x3_reduce"
  type: "ReLU"
  bottom: "inception_4e/3x3_reduce"
  top: "inception_4e/3x3_reduce"
}
layer {
  name: "inception_4e/3x3"
  type: "Convolution"
  bottom: "inception_4e/3x3_reduce"
  top: "inception_4e/3x3"
  param {
    lr_mult: 1
    decay_mult: 1
  }
  param {
    lr_mult: 2
    decay_mult: 0
  }
  convolution_param {
    num_output: 320
    pad: 1
    kernel_size: 3
    weight_filler {
      type: "xavier"
      std: 0.03
    }
    bias_filler {
      type: "constant"
      value: 0.2
    }
  }
}
layer {
  name: "inception_4e/relu_3x3"
  type: "ReLU"
  bottom: "inception_4e/3x3"
  top: "inception_4e/3x3"
}
layer {
  name: "inception_4e/5x5_reduce"
  type: "Convolution"
  bottom: "inception_4d/output"
  top: "inception_4e/5x5_reduce"
  param {
    lr_mult: 1
    decay_mult: 1
  }
  param {
    lr_mult: 2
    decay_mult: 0
  }
  convolution_param {
    num_output: 32
    kernel_size: 1
    weight_filler {
      type: "xavier"
      std: 0.2
    }
    bias_filler {
      type: "constant"
      value: 0.2
    }
  }
}
layer {
  name: "inception_4e/relu_5x5_reduce"
  type: "ReLU"
  bottom: "inception_4e/5x5_reduce"
  top: "inception_4e/5x5_reduce"
}
layer {
  name: "inception_4e/5x5"
  type: "Convolution"
  bottom: "inception_4e/5x5_reduce"
  top: "inception_4e/
I0403 15:02:55.109714  2585 layer_factory.hpp:77] Creating layer data
I0403 15:02:55.110327  2585 net.cpp:91] Creating Layer data
I0403 15:02:55.110360  2585 net.cpp:399] data -> data
I0403 15:02:55.110412  2585 net.cpp:399] data -> label
I0403 15:02:55.110448  2585 data_transformer.cpp:25] Loading mean file from: /home/mohanty/data/final_dataset/lmdb/segmented-60-40/mean.binaryproto
I0403 15:02:55.113400  2588 db_lmdb.cpp:38] Opened lmdb /home/mohanty/data/final_dataset/lmdb/segmented-60-40/test_db
I0403 15:02:55.123365  2585 data_layer.cpp:41] output data size: 24,3,224,224
I0403 15:02:55.150035  2585 net.cpp:141] Setting up data
I0403 15:02:55.150113  2585 net.cpp:148] Top shape: 24 3 224 224 (3612672)
I0403 15:02:55.150135  2585 net.cpp:148] Top shape: 24 (24)
I0403 15:02:55.150151  2585 net.cpp:156] Memory required for data: 14450784
I0403 15:02:55.150177  2585 layer_factory.hpp:77] Creating layer label_data_1_split
I0403 15:02:55.150202  2585 net.cpp:91] Creating Layer label_data_1_split
I0403 15:02:55.150224  2585 net.cpp:425] label_data_1_split <- label
I0403 15:02:55.150256  2585 net.cpp:399] label_data_1_split -> label_data_1_split_0
I0403 15:02:55.150284  2585 net.cpp:399] label_data_1_split -> label_data_1_split_1
I0403 15:02:55.150303  2585 net.cpp:399] label_data_1_split -> label_data_1_split_2
I0403 15:02:55.150323  2585 net.cpp:399] label_data_1_split -> label_data_1_split_3
I0403 15:02:55.150343  2585 net.cpp:399] label_data_1_split -> label_data_1_split_4
I0403 15:02:55.150362  2585 net.cpp:399] label_data_1_split -> label_data_1_split_5
I0403 15:02:55.150382  2585 net.cpp:399] label_data_1_split -> label_data_1_split_6
I0403 15:02:55.150403  2585 net.cpp:399] label_data_1_split -> label_data_1_split_7
I0403 15:02:55.150421  2585 net.cpp:399] label_data_1_split -> label_data_1_split_8
I0403 15:02:55.150441  2585 net.cpp:399] label_data_1_split -> label_data_1_split_9
I0403 15:02:55.150554  2585 net.cpp:141] Setting up label_data_1_split
I0403 15:02:55.150578  2585 net.cpp:148] Top shape: 24 (24)
I0403 15:02:55.150594  2585 net.cpp:148] Top shape: 24 (24)
I0403 15:02:55.150610  2585 net.cpp:148] Top shape: 24 (24)
I0403 15:02:55.150625  2585 net.cpp:148] Top shape: 24 (24)
I0403 15:02:55.150640  2585 net.cpp:148] Top shape: 24 (24)
I0403 15:02:55.150656  2585 net.cpp:148] Top shape: 24 (24)
I0403 15:02:55.150671  2585 net.cpp:148] Top shape: 24 (24)
I0403 15:02:55.150687  2585 net.cpp:148] Top shape: 24 (24)
I0403 15:02:55.150703  2585 net.cpp:148] Top shape: 24 (24)
I0403 15:02:55.150718  2585 net.cpp:148] Top shape: 24 (24)
I0403 15:02:55.150761  2585 net.cpp:156] Memory required for data: 14451744
I0403 15:02:55.150777  2585 layer_factory.hpp:77] Creating layer conv1/7x7_s2
I0403 15:02:55.150807  2585 net.cpp:91] Creating Layer conv1/7x7_s2
I0403 15:02:55.150825  2585 net.cpp:425] conv1/7x7_s2 <- data
I0403 15:02:55.150845  2585 net.cpp:399] conv1/7x7_s2 -> conv1/7x7_s2
I0403 15:02:55.290705  2585 net.cpp:141] Setting up conv1/7x7_s2
I0403 15:02:55.290750  2585 net.cpp:148] Top shape: 24 64 112 112 (19267584)
I0403 15:02:55.290768  2585 net.cpp:156] Memory required for data: 91522080
I0403 15:02:55.290799  2585 layer_factory.hpp:77] Creating layer conv1/relu_7x7
I0403 15:02:55.290827  2585 net.cpp:91] Creating Layer conv1/relu_7x7
I0403 15:02:55.290846  2585 net.cpp:425] conv1/relu_7x7 <- conv1/7x7_s2
I0403 15:02:55.290865  2585 net.cpp:386] conv1/relu_7x7 -> conv1/7x7_s2 (in-place)
I0403 15:02:55.291118  2585 net.cpp:141] Setting up conv1/relu_7x7
I0403 15:02:55.291146  2585 net.cpp:148] Top shape: 24 64 112 112 (19267584)
I0403 15:02:55.291160  2585 net.cpp:156] Memory required for data: 168592416
I0403 15:02:55.291175  2585 layer_factory.hpp:77] Creating layer pool1/3x3_s2
I0403 15:02:55.291200  2585 net.cpp:91] Creating Layer pool1/3x3_s2
I0403 15:02:55.291224  2585 net.cpp:425] pool1/3x3_s2 <- conv1/7x7_s2
I0403 15:02:55.291242  2585 net.cpp:399] pool1/3x3_s2 -> pool1/3x3_s2
I0403 15:02:55.291313  2585 net.cpp:141] Setting up pool1/3x3_s2
I0403 15:02:55.291337  2585 net.cpp:148] Top shape: 24 64 56 56 (4816896)
I0403 15:02:55.291352  2585 net.cpp:156] Memory required for data: 187860000
I0403 15:02:55.291368  2585 layer_factory.hpp:77] Creating layer pool1/norm1
I0403 15:02:55.291391  2585 net.cpp:91] Creating Layer pool1/norm1
I0403 15:02:55.291409  2585 net.cpp:425] pool1/norm1 <- pool1/3x3_s2
I0403 15:02:55.291426  2585 net.cpp:399] pool1/norm1 -> pool1/norm1
I0403 15:02:55.291707  2585 net.cpp:141] Setting up pool1/norm1
I0403 15:02:55.291734  2585 net.cpp:148] Top shape: 24 64 56 56 (4816896)
I0403 15:02:55.291749  2585 net.cpp:156] Memory required for data: 207127584
I0403 15:02:55.291765  2585 layer_factory.hpp:77] Creating layer conv2/3x3_reduce
I0403 15:02:55.291790  2585 net.cpp:91] Creating Layer conv2/3x3_reduce
I0403 15:02:55.291807  2585 net.cpp:425] conv2/3x3_reduce <- pool1/norm1
I0403 15:02:55.291824  2585 net.cpp:399] conv2/3x3_reduce -> conv2/3x3_reduce
I0403 15:02:55.293138  2585 net.cpp:141] Setting up conv2/3x3_reduce
I0403 15:02:55.293166  2585 net.cpp:148] Top shape: 24 64 56 56 (4816896)
I0403 15:02:55.293182  2585 net.cpp:156] Memory required for data: 226395168
I0403 15:02:55.293203  2585 layer_factory.hpp:77] Creating layer conv2/relu_3x3_reduce
I0403 15:02:55.293234  2585 net.cpp:91] Creating Layer conv2/relu_3x3_reduce
I0403 15:02:55.293252  2585 net.cpp:425] conv2/relu_3x3_reduce <- conv2/3x3_reduce
I0403 15:02:55.293270  2585 net.cpp:386] conv2/relu_3x3_reduce -> conv2/3x3_reduce (in-place)
I0403 15:02:55.293532  2585 net.cpp:141] Setting up conv2/relu_3x3_reduce
I0403 15:02:55.293558  2585 net.cpp:148] Top shape: 24 64 56 56 (4816896)
I0403 15:02:55.293573  2585 net.cpp:156] Memory required for data: 245662752
I0403 15:02:55.293588  2585 layer_factory.hpp:77] Creating layer conv2/3x3
I0403 15:02:55.293612  2585 net.cpp:91] Creating Layer conv2/3x3
I0403 15:02:55.293630  2585 net.cpp:425] conv2/3x3 <- conv2/3x3_reduce
I0403 15:02:55.293649  2585 net.cpp:399] conv2/3x3 -> conv2/3x3
I0403 15:02:55.295958  2585 net.cpp:141] Setting up conv2/3x3
I0403 15:02:55.295987  2585 net.cpp:148] Top shape: 24 192 56 56 (14450688)
I0403 15:02:55.296003  2585 net.cpp:156] Memory required for data: 303465504
I0403 15:02:55.296025  2585 layer_factory.hpp:77] Creating layer conv2/relu_3x3
I0403 15:02:55.296046  2585 net.cpp:91] Creating Layer conv2/relu_3x3
I0403 15:02:55.296075  2585 net.cpp:425] conv2/relu_3x3 <- conv2/3x3
I0403 15:02:55.296092  2585 net.cpp:386] conv2/relu_3x3 -> conv2/3x3 (in-place)
I0403 15:02:55.296263  2585 net.cpp:141] Setting up conv2/relu_3x3
I0403 15:02:55.296288  2585 net.cpp:148] Top shape: 24 192 56 56 (14450688)
I0403 15:02:55.296332  2585 net.cpp:156] Memory required for data: 361268256
I0403 15:02:55.296349  2585 layer_factory.hpp:77] Creating layer conv2/norm2
I0403 15:02:55.296365  2585 net.cpp:91] Creating Layer conv2/norm2
I0403 15:02:55.296381  2585 net.cpp:425] conv2/norm2 <- conv2/3x3
I0403 15:02:55.296401  2585 net.cpp:399] conv2/norm2 -> conv2/norm2
I0403 15:02:55.296694  2585 net.cpp:141] Setting up conv2/norm2
I0403 15:02:55.296720  2585 net.cpp:148] Top shape: 24 192 56 56 (14450688)
I0403 15:02:55.296735  2585 net.cpp:156] Memory required for data: 419071008
I0403 15:02:55.296749  2585 layer_factory.hpp:77] Creating layer pool2/3x3_s2
I0403 15:02:55.296767  2585 net.cpp:91] Creating Layer pool2/3x3_s2
I0403 15:02:55.296782  2585 net.cpp:425] pool2/3x3_s2 <- conv2/norm2
I0403 15:02:55.296802  2585 net.cpp:399] pool2/3x3_s2 -> pool2/3x3_s2
I0403 15:02:55.296854  2585 net.cpp:141] Setting up pool2/3x3_s2
I0403 15:02:55.296876  2585 net.cpp:148] Top shape: 24 192 28 28 (3612672)
I0403 15:02:55.296891  2585 net.cpp:156] Memory required for data: 433521696
I0403 15:02:55.296905  2585 layer_factory.hpp:77] Creating layer pool2/3x3_s2_pool2/3x3_s2_0_split
I0403 15:02:55.296922  2585 net.cpp:91] Creating Layer pool2/3x3_s2_pool2/3x3_s2_0_split
I0403 15:02:55.296937  2585 net.cpp:425] pool2/3x3_s2_pool2/3x3_s2_0_split <- pool2/3x3_s2
I0403 15:02:55.296957  2585 net.cpp:399] pool2/3x3_s2_pool2/3x3_s2_0_split -> pool2/3x3_s2_pool2/3x3_s2_0_split_0
I0403 15:02:55.296977  2585 net.cpp:399] pool2/3x3_s2_pool2/3x3_s2_0_split -> pool2/3x3_s2_pool2/3x3_s2_0_split_1
I0403 15:02:55.296996  2585 net.cpp:399] pool2/3x3_s2_pool2/3x3_s2_0_split -> pool2/3x3_s2_pool2/3x3_s2_0_split_2
I0403 15:02:55.297015  2585 net.cpp:399] pool2/3x3_s2_pool2/3x3_s2_0_split -> pool2/3x3_s2_pool2/3x3_s2_0_split_3
I0403 15:02:55.297086  2585 net.cpp:141] Setting up pool2/3x3_s2_pool2/3x3_s2_0_split
I0403 15:02:55.297109  2585 net.cpp:148] Top shape: 24 192 28 28 (3612672)
I0403 15:02:55.297127  2585 net.cpp:148] Top shape: 24 192 28 28 (3612672)
I0403 15:02:55.297142  2585 net.cpp:148] Top shape: 24 192 28 28 (3612672)
I0403 15:02:55.297159  2585 net.cpp:148] Top shape: 24 192 28 28 (3612672)
I0403 15:02:55.297173  2585 net.cpp:156] Memory required for data: 491324448
I0403 15:02:55.297186  2585 layer_factory.hpp:77] Creating layer inception_3a/1x1
I0403 15:02:55.297212  2585 net.cpp:91] Creating Layer inception_3a/1x1
I0403 15:02:55.297231  2585 net.cpp:425] inception_3a/1x1 <- pool2/3x3_s2_pool2/3x3_s2_0_split_0
I0403 15:02:55.297250  2585 net.cpp:399] inception_3a/1x1 -> inception_3a/1x1
I0403 15:02:55.298781  2585 net.cpp:141] Setting up inception_3a/1x1
I0403 15:02:55.298810  2585 net.cpp:148] Top shape: 24 64 28 28 (1204224)
I0403 15:02:55.298826  2585 net.cpp:156] Memory required for data: 496141344
I0403 15:02:55.298846  2585 layer_factory.hpp:77] Creating layer inception_3a/relu_1x1
I0403 15:02:55.298866  2585 net.cpp:91] Creating Layer inception_3a/relu_1x1
I0403 15:02:55.298882  2585 net.cpp:425] inception_3a/relu_1x1 <- inception_3a/1x1
I0403 15:02:55.298900  2585 net.cpp:386] inception_3a/relu_1x1 -> inception_3a/1x1 (in-place)
I0403 15:02:55.299084  2585 net.cpp:141] Setting up inception_3a/relu_1x1
I0403 15:02:55.299110  2585 net.cpp:148] Top shape: 24 64 28 28 (1204224)
I0403 15:02:55.299125  2585 net.cpp:156] Memory required for data: 500958240
I0403 15:02:55.299139  2585 layer_factory.hpp:77] Creating layer inception_3a/3x3_reduce
I0403 15:02:55.299161  2585 net.cpp:91] Creating Layer inception_3a/3x3_reduce
I0403 15:02:55.299177  2585 net.cpp:425] inception_3a/3x3_reduce <- pool2/3x3_s2_pool2/3x3_s2_0_split_1
I0403 15:02:55.299196  2585 net.cpp:399] inception_3a/3x3_reduce -> inception_3a/3x3_reduce
I0403 15:02:55.300823  2585 net.cpp:141] Setting up inception_3a/3x3_reduce
I0403 15:02:55.300853  2585 net.cpp:148] Top shape: 24 96 28 28 (1806336)
I0403 15:02:55.300868  2585 net.cpp:156] Memory required for data: 508183584
I0403 15:02:55.300889  2585 layer_factory.hpp:77] Creating layer inception_3a/relu_3x3_reduce
I0403 15:02:55.300923  2585 net.cpp:91] Creating Layer inception_3a/relu_3x3_reduce
I0403 15:02:55.300941  2585 net.cpp:425] inception_3a/relu_3x3_reduce <- inception_3a/3x3_reduce
I0403 15:02:55.300961  2585 net.cpp:386] inception_3a/relu_3x3_reduce -> inception_3a/3x3_reduce (in-place)
I0403 15:02:55.301151  2585 net.cpp:141] Setting up inception_3a/relu_3x3_reduce
I0403 15:02:55.301174  2585 net.cpp:148] Top shape: 24 96 28 28 (1806336)
I0403 15:02:55.301189  2585 net.cpp:156] Memory required for data: 515408928
I0403 15:02:55.301204  2585 layer_factory.hpp:77] Creating layer inception_3a/3x3
I0403 15:02:55.301232  2585 net.cpp:91] Creating Layer inception_3a/3x3
I0403 15:02:55.301250  2585 net.cpp:425] inception_3a/3x3 <- inception_3a/3x3_reduce
I0403 15:02:55.301272  2585 net.cpp:399] inception_3a/3x3 -> inception_3a/3x3
I0403 15:02:55.302911  2585 net.cpp:141] Setting up inception_3a/3x3
I0403 15:02:55.302939  2585 net.cpp:148] Top shape: 24 128 28 28 (2408448)
I0403 15:02:55.302954  2585 net.cpp:156] Memory required for data: 525042720
I0403 15:02:55.302973  2585 layer_factory.hpp:77] Creating layer inception_3a/relu_3x3
I0403 15:02:55.302990  2585 net.cpp:91] Creating Layer inception_3a/relu_3x3
I0403 15:02:55.303007  2585 net.cpp:425] inception_3a/relu_3x3 <- inception_3a/3x3
I0403 15:02:55.303025  2585 net.cpp:386] inception_3a/relu_3x3 -> inception_3a/3x3 (in-place)
I0403 15:02:55.303297  2585 net.cpp:141] Setting up inception_3a/relu_3x3
I0403 15:02:55.303338  2585 net.cpp:148] Top shape: 24 128 28 28 (2408448)
I0403 15:02:55.303354  2585 net.cpp:156] Memory required for data: 534676512
I0403 15:02:55.303369  2585 layer_factory.hpp:77] Creating layer inception_3a/5x5_reduce
I0403 15:02:55.303391  2585 net.cpp:91] Creating Layer inception_3a/5x5_reduce
I0403 15:02:55.303408  2585 net.cpp:425] inception_3a/5x5_reduce <- pool2/3x3_s2_pool2/3x3_s2_0_split_2
I0403 15:02:55.303427  2585 net.cpp:399] inception_3a/5x5_reduce -> inception_3a/5x5_reduce
I0403 15:02:55.304375  2585 net.cpp:141] Setting up inception_3a/5x5_reduce
I0403 15:02:55.304404  2585 net.cpp:148] Top shape: 24 16 28 28 (301056)
I0403 15:02:55.304420  2585 net.cpp:156] Memory required for data: 535880736
I0403 15:02:55.304440  2585 layer_factory.hpp:77] Creating layer inception_3a/relu_5x5_reduce
I0403 15:02:55.304457  2585 net.cpp:91] Creating Layer inception_3a/relu_5x5_reduce
I0403 15:02:55.304474  2585 net.cpp:425] inception_3a/relu_5x5_reduce <- inception_3a/5x5_reduce
I0403 15:02:55.304493  2585 net.cpp:386] inception_3a/relu_5x5_reduce -> inception_3a/5x5_reduce (in-place)
I0403 15:02:55.304793  2585 net.cpp:141] Setting up inception_3a/relu_5x5_reduce
I0403 15:02:55.304818  2585 net.cpp:148] Top shape: 24 16 28 28 (301056)
I0403 15:02:55.304833  2585 net.cpp:156] Memory required for data: 537084960
I0403 15:02:55.304848  2585 layer_factory.hpp:77] Creating layer inception_3a/5x5
I0403 15:02:55.304870  2585 net.cpp:91] Creating Layer inception_3a/5x5
I0403 15:02:55.304886  2585 net.cpp:425] inception_3a/5x5 <- inception_3a/5x5_reduce
I0403 15:02:55.304908  2585 net.cpp:399] inception_3a/5x5 -> inception_3a/5x5
I0403 15:02:55.305912  2585 net.cpp:141] Setting up inception_3a/5x5
I0403 15:02:55.305938  2585 net.cpp:148] Top shape: 24 32 28 28 (602112)
I0403 15:02:55.305953  2585 net.cpp:156] Memory required for data: 539493408
I0403 15:02:55.305971  2585 layer_factory.hpp:77] Creating layer inception_3a/relu_5x5
I0403 15:02:55.305991  2585 net.cpp:91] Creating Layer inception_3a/relu_5x5
I0403 15:02:55.306007  2585 net.cpp:425] inception_3a/relu_5x5 <- inception_3a/5x5
I0403 15:02:55.306025  2585 net.cpp:386] inception_3a/relu_5x5 -> inception_3a/5x5 (in-place)
I0403 15:02:55.306190  2585 net.cpp:141] Setting up inception_3a/relu_5x5
I0403 15:02:55.306221  2585 net.cpp:148] Top shape: 24 32 28 28 (602112)
I0403 15:02:55.306237  2585 net.cpp:156] Memory required for data: 541901856
I0403 15:02:55.306252  2585 layer_factory.hpp:77] Creating layer inception_3a/pool
I0403 15:02:55.306269  2585 net.cpp:91] Creating Layer inception_3a/pool
I0403 15:02:55.306298  2585 net.cpp:425] inception_3a/pool <- pool2/3x3_s2_pool2/3x3_s2_0_split_3
I0403 15:02:55.306334  2585 net.cpp:399] inception_3a/pool -> inception_3a/pool
I0403 15:02:55.306393  2585 net.cpp:141] Setting up inception_3a/pool
I0403 15:02:55.306416  2585 net.cpp:148] Top shape: 24 192 28 28 (3612672)
I0403 15:02:55.306432  2585 net.cpp:156] Memory required for data: 556352544
I0403 15:02:55.306447  2585 layer_factory.hpp:77] Creating layer inception_3a/pool_proj
I0403 15:02:55.306468  2585 net.cpp:91] Creating Layer inception_3a/pool_proj
I0403 15:02:55.306486  2585 net.cpp:425] inception_3a/pool_proj <- inception_3a/pool
I0403 15:02:55.306509  2585 net.cpp:399] inception_3a/pool_proj -> inception_3a/pool_proj
I0403 15:02:55.307471  2585 net.cpp:141] Setting up inception_3a/pool_proj
I0403 15:02:55.307498  2585 net.cpp:148] Top shape: 24 32 28 28 (602112)
I0403 15:02:55.307514  2585 net.cpp:156] Memory required for data: 558760992
I0403 15:02:55.307538  2585 layer_factory.hpp:77] Creating layer inception_3a/relu_pool_proj
I0403 15:02:55.307559  2585 net.cpp:91] Creating Layer inception_3a/relu_pool_proj
I0403 15:02:55.307574  2585 net.cpp:425] inception_3a/relu_pool_proj <- inception_3a/pool_proj
I0403 15:02:55.307593  2585 net.cpp:386] inception_3a/relu_pool_proj -> inception_3a/pool_proj (in-place)
I0403 15:02:55.307868  2585 net.cpp:141] Setting up inception_3a/relu_pool_proj
I0403 15:02:55.307898  2585 net.cpp:148] Top shape: 24 32 28 28 (602112)
I0403 15:02:55.307914  2585 net.cpp:156] Memory required for data: 561169440
I0403 15:02:55.307929  2585 layer_factory.hpp:77] Creating layer inception_3a/output
I0403 15:02:55.307946  2585 net.cpp:91] Creating Layer inception_3a/output
I0403 15:02:55.307962  2585 net.cpp:425] inception_3a/output <- inception_3a/1x1
I0403 15:02:55.307979  2585 net.cpp:425] inception_3a/output <- inception_3a/3x3
I0403 15:02:55.307994  2585 net.cpp:425] inception_3a/output <- inception_3a/5x5
I0403 15:02:55.308010  2585 net.cpp:425] inception_3a/output <- inception_3a/pool_proj
I0403 15:02:55.308027  2585 net.cpp:399] inception_3a/output -> inception_3a/output
I0403 15:02:55.308073  2585 net.cpp:141] Setting up inception_3a/output
I0403 15:02:55.308097  2585 net.cpp:148] Top shape: 24 256 28 28 (4816896)
I0403 15:02:55.308112  2585 net.cpp:156] Memory required for data: 580437024
I0403 15:02:55.308128  2585 layer_factory.hpp:77] Creating layer inception_3a/output_inception_3a/output_0_split
I0403 15:02:55.308145  2585 net.cpp:91] Creating Layer inception_3a/output_inception_3a/output_0_split
I0403 15:02:55.308161  2585 net.cpp:425] inception_3a/output_inception_3a/output_0_split <- inception_3a/output
I0403 15:02:55.308178  2585 net.cpp:399] inception_3a/output_inception_3a/output_0_split -> inception_3a/output_inception_3a/output_0_split_0
I0403 15:02:55.308198  2585 net.cpp:399] inception_3a/output_inception_3a/output_0_split -> inception_3a/output_inception_3a/output_0_split_1
I0403 15:02:55.308230  2585 net.cpp:399] inception_3a/output_inception_3a/output_0_split -> inception_3a/output_inception_3a/output_0_split_2
I0403 15:02:55.308254  2585 net.cpp:399] inception_3a/output_inception_3a/output_0_split -> inception_3a/output_inception_3a/output_0_split_3
I0403 15:02:55.308341  2585 net.cpp:141] Setting up inception_3a/output_inception_3a/output_0_split
I0403 15:02:55.308363  2585 net.cpp:148] Top shape: 24 256 28 28 (4816896)
I0403 15:02:55.308382  2585 net.cpp:148] Top shape: 24 256 28 28 (4816896)
I0403 15:02:55.308398  2585 net.cpp:148] Top shape: 24 256 28 28 (4816896)
I0403 15:02:55.308413  2585 net.cpp:148] Top shape: 24 256 28 28 (4816896)
I0403 15:02:55.308429  2585 net.cpp:156] Memory required for data: 657507360
I0403 15:02:55.308444  2585 layer_factory.hpp:77] Creating layer inception_3b/1x1
I0403 15:02:55.308465  2585 net.cpp:91] Creating Layer inception_3b/1x1
I0403 15:02:55.308483  2585 net.cpp:425] inception_3b/1x1 <- inception_3a/output_inception_3a/output_0_split_0
I0403 15:02:55.308506  2585 net.cpp:399] inception_3b/1x1 -> inception_3b/1x1
I0403 15:02:55.309686  2585 net.cpp:141] Setting up inception_3b/1x1
I0403 15:02:55.309725  2585 net.cpp:148] Top shape: 24 128 28 28 (2408448)
I0403 15:02:55.309741  2585 net.cpp:156] Memory required for data: 667141152
I0403 15:02:55.309758  2585 layer_factory.hpp:77] Creating layer inception_3b/relu_1x1
I0403 15:02:55.309778  2585 net.cpp:91] Creating Layer inception_3b/relu_1x1
I0403 15:02:55.309794  2585 net.cpp:425] inception_3b/relu_1x1 <- inception_3b/1x1
I0403 15:02:55.309810  2585 net.cpp:386] inception_3b/relu_1x1 -> inception_3b/1x1 (in-place)
I0403 15:02:55.309981  2585 net.cpp:141] Setting up inception_3b/relu_1x1
I0403 15:02:55.310008  2585 net.cpp:148] Top shape: 24 128 28 28 (2408448)
I0403 15:02:55.310022  2585 net.cpp:156] Memory required for data: 676774944
I0403 15:02:55.310036  2585 layer_factory.hpp:77] Creating layer inception_3b/3x3_reduce
I0403 15:02:55.310058  2585 net.cpp:91] Creating Layer inception_3b/3x3_reduce
I0403 15:02:55.310075  2585 net.cpp:425] inception_3b/3x3_reduce <- inception_3a/output_inception_3a/output_0_split_1
I0403 15:02:55.310094  2585 net.cpp:399] inception_3b/3x3_reduce -> inception_3b/3x3_reduce
I0403 15:02:55.311231  2585 net.cpp:141] Setting up inception_3b/3x3_reduce
I0403 15:02:55.311259  2585 net.cpp:148] Top shape: 24 128 28 28 (2408448)
I0403 15:02:55.311275  2585 net.cpp:156] Memory required for data: 686408736
I0403 15:02:55.311291  2585 layer_factory.hpp:77] Creating layer inception_3b/relu_3x3_reduce
I0403 15:02:55.311312  2585 net.cpp:91] Creating Layer inception_3b/relu_3x3_reduce
I0403 15:02:55.311328  2585 net.cpp:425] inception_3b/relu_3x3_reduce <- inception_3b/3x3_reduce
I0403 15:02:55.311347  2585 net.cpp:386] inception_3b/relu_3x3_reduce -> inception_3b/3x3_reduce (in-place)
I0403 15:02:55.311512  2585 net.cpp:141] Setting up inception_3b/relu_3x3_reduce
I0403 15:02:55.311537  2585 net.cpp:148] Top shape: 24 128 28 28 (2408448)
I0403 15:02:55.311550  2585 net.cpp:156] Memory required for data: 696042528
I0403 15:02:55.311564  2585 layer_factory.hpp:77] Creating layer inception_3b/3x3
I0403 15:02:55.311590  2585 net.cpp:91] Creating Layer inception_3b/3x3
I0403 15:02:55.311607  2585 net.cpp:425] inception_3b/3x3 <- inception_3b/3x3_reduce
I0403 15:02:55.311628  2585 net.cpp:399] inception_3b/3x3 -> inception_3b/3x3
I0403 15:02:55.314544  2585 net.cpp:141] Setting up inception_3b/3x3
I0403 15:02:55.314575  2585 net.cpp:148] Top shape: 24 192 28 28 (3612672)
I0403 15:02:55.314591  2585 net.cpp:156] Memory required for data: 710493216
I0403 15:02:55.314610  2585 layer_factory.hpp:77] Creating layer inception_3b/relu_3x3
I0403 15:02:55.314626  2585 net.cpp:91] Creating Layer inception_3b/relu_3x3
I0403 15:02:55.314642  2585 net.cpp:425] inception_3b/relu_3x3 <- inception_3b/3x3
I0403 15:02:55.314661  2585 net.cpp:386] inception_3b/relu_3x3 -> inception_3b/3x3 (in-place)
I0403 15:02:55.314929  2585 net.cpp:141] Setting up inception_3b/relu_3x3
I0403 15:02:55.314956  2585 net.cpp:148] Top shape: 24 192 28 28 (3612672)
I0403 15:02:55.314972  2585 net.cpp:156] Memory required for data: 724943904
I0403 15:02:55.314986  2585 layer_factory.hpp:77] Creating layer inception_3b/5x5_reduce
I0403 15:02:55.315009  2585 net.cpp:91] Creating Layer inception_3b/5x5_reduce
I0403 15:02:55.315026  2585 net.cpp:425] inception_3b/5x5_reduce <- inception_3a/output_inception_3a/output_0_split_2
I0403 15:02:55.315047  2585 net.cpp:399] inception_3b/5x5_reduce -> inception_3b/5x5_reduce
I0403 15:02:55.316007  2585 net.cpp:141] Setting up inception_3b/5x5_reduce
I0403 15:02:55.316037  2585 net.cpp:148] Top shape: 24 32 28 28 (602112)
I0403 15:02:55.316053  2585 net.cpp:156] Memory required for data: 727352352
I0403 15:02:55.316071  2585 layer_factory.hpp:77] Creating layer inception_3b/relu_5x5_reduce
I0403 15:02:55.316089  2585 net.cpp:91] Creating Layer inception_3b/relu_5x5_reduce
I0403 15:02:55.316105  2585 net.cpp:425] inception_3b/relu_5x5_reduce <- inception_3b/5x5_reduce
I0403 15:02:55.316123  2585 net.cpp:386] inception_3b/relu_5x5_reduce -> inception_3b/5x5_reduce (in-place)
I0403 15:02:55.316311  2585 net.cpp:141] Setting up inception_3b/relu_5x5_reduce
I0403 15:02:55.316337  2585 net.cpp:148] Top shape: 24 32 28 28 (602112)
I0403 15:02:55.316352  2585 net.cpp:156] Memory required for data: 729760800
I0403 15:02:55.316366  2585 layer_factory.hpp:77] Creating layer inception_3b/5x5
I0403 15:02:55.316388  2585 net.cpp:91] Creating Layer inception_3b/5x5
I0403 15:02:55.316406  2585 net.cpp:425] inception_3b/5x5 <- inception_3b/5x5_reduce
I0403 15:02:55.316424  2585 net.cpp:399] inception_3b/5x5 -> inception_3b/5x5
I0403 15:02:55.318312  2585 net.cpp:141] Setting up inception_3b/5x5
I0403 15:02:55.318341  2585 net.cpp:148] Top shape: 24 96 28 28 (1806336)
I0403 15:02:55.318356  2585 net.cpp:156] Memory required for data: 736986144
I0403 15:02:55.318373  2585 layer_factory.hpp:77] Creating layer inception_3b/relu_5x5
I0403 15:02:55.318392  2585 net.cpp:91] Creating Layer inception_3b/relu_5x5
I0403 15:02:55.318409  2585 net.cpp:425] inception_3b/relu_5x5 <- inception_3b/5x5
I0403 15:02:55.318426  2585 net.cpp:386] inception_3b/relu_5x5 -> inception_3b/5x5 (in-place)
I0403 15:02:55.318608  2585 net.cpp:141] Setting up inception_3b/relu_5x5
I0403 15:02:55.318632  2585 net.cpp:148] Top shape: 24 96 28 28 (1806336)
I0403 15:02:55.318646  2585 net.cpp:156] Memory required for data: 744211488
I0403 15:02:55.318661  2585 layer_factory.hpp:77] Creating layer inception_3b/pool
I0403 15:02:55.318678  2585 net.cpp:91] Creating Layer inception_3b/pool
I0403 15:02:55.318693  2585 net.cpp:425] inception_3b/pool <- inception_3a/output_inception_3a/output_0_split_3
I0403 15:02:55.318711  2585 net.cpp:399] inception_3b/pool -> inception_3b/pool
I0403 15:02:55.318764  2585 net.cpp:141] Setting up inception_3b/pool
I0403 15:02:55.318786  2585 net.cpp:148] Top shape: 24 256 28 28 (4816896)
I0403 15:02:55.318800  2585 net.cpp:156] Memory required for data: 763479072
I0403 15:02:55.318814  2585 layer_factory.hpp:77] Creating layer inception_3b/pool_proj
I0403 15:02:55.318836  2585 net.cpp:91] Creating Layer inception_3b/pool_proj
I0403 15:02:55.318853  2585 net.cpp:425] inception_3b/pool_proj <- inception_3b/pool
I0403 15:02:55.318873  2585 net.cpp:399] inception_3b/pool_proj -> inception_3b/pool_proj
I0403 15:02:55.319919  2585 net.cpp:141] Setting up inception_3b/pool_proj
I0403 15:02:55.319948  2585 net.cpp:148] Top shape: 24 64 28 28 (1204224)
I0403 15:02:55.319964  2585 net.cpp:156] Memory required for data: 768295968
I0403 15:02:55.319983  2585 layer_factory.hpp:77] Creating layer inception_3b/relu_pool_proj
I0403 15:02:55.319999  2585 net.cpp:91] Creating Layer inception_3b/relu_pool_proj
I0403 15:02:55.320015  2585 net.cpp:425] inception_3b/relu_pool_proj <- inception_3b/pool_proj
I0403 15:02:55.320034  2585 net.cpp:386] inception_3b/relu_pool_proj -> inception_3b/pool_proj (in-place)
I0403 15:02:55.320416  2585 net.cpp:141] Setting up inception_3b/relu_pool_proj
I0403 15:02:55.320443  2585 net.cpp:148] Top shape: 24 64 28 28 (1204224)
I0403 15:02:55.320458  2585 net.cpp:156] Memory required for data: 773112864
I0403 15:02:55.320473  2585 layer_factory.hpp:77] Creating layer inception_3b/output
I0403 15:02:55.320490  2585 net.cpp:91] Creating Layer inception_3b/output
I0403 15:02:55.320507  2585 net.cpp:425] inception_3b/output <- inception_3b/1x1
I0403 15:02:55.320523  2585 net.cpp:425] inception_3b/output <- inception_3b/3x3
I0403 15:02:55.320538  2585 net.cpp:425] inception_3b/output <- inception_3b/5x5
I0403 15:02:55.320554  2585 net.cpp:425] inception_3b/output <- inception_3b/pool_proj
I0403 15:02:55.320570  2585 net.cpp:399] inception_3b/output -> inception_3b/output
I0403 15:02:55.320613  2585 net.cpp:141] Setting up inception_3b/output
I0403 15:02:55.320636  2585 net.cpp:148] Top shape: 24 480 28 28 (9031680)
I0403 15:02:55.320649  2585 net.cpp:156] Memory required for data: 809239584
I0403 15:02:55.320663  2585 layer_factory.hpp:77] Creating layer pool3/3x3_s2
I0403 15:02:55.320683  2585 net.cpp:91] Creating Layer pool3/3x3_s2
I0403 15:02:55.320698  2585 net.cpp:425] pool3/3x3_s2 <- inception_3b/output
I0403 15:02:55.320730  2585 net.cpp:399] pool3/3x3_s2 -> pool3/3x3_s2
I0403 15:02:55.320787  2585 net.cpp:141] Setting up pool3/3x3_s2
I0403 15:02:55.320809  2585 net.cpp:148] Top shape: 24 480 14 14 (2257920)
I0403 15:02:55.320823  2585 net.cpp:156] Memory required for data: 818271264
I0403 15:02:55.320837  2585 layer_factory.hpp:77] Creating layer pool3/3x3_s2_pool3/3x3_s2_0_split
I0403 15:02:55.320853  2585 net.cpp:91] Creating Layer pool3/3x3_s2_pool3/3x3_s2_0_split
I0403 15:02:55.320869  2585 net.cpp:425] pool3/3x3_s2_pool3/3x3_s2_0_split <- pool3/3x3_s2
I0403 15:02:55.320888  2585 net.cpp:399] pool3/3x3_s2_pool3/3x3_s2_0_split -> pool3/3x3_s2_pool3/3x3_s2_0_split_0
I0403 15:02:55.320907  2585 net.cpp:399] pool3/3x3_s2_pool3/3x3_s2_0_split -> pool3/3x3_s2_pool3/3x3_s2_0_split_1
I0403 15:02:55.320926  2585 net.cpp:399] pool3/3x3_s2_pool3/3x3_s2_0_split -> pool3/3x3_s2_pool3/3x3_s2_0_split_2
I0403 15:02:55.320945  2585 net.cpp:399] pool3/3x3_s2_pool3/3x3_s2_0_split -> pool3/3x3_s2_pool3/3x3_s2_0_split_3
I0403 15:02:55.321019  2585 net.cpp:141] Setting up pool3/3x3_s2_pool3/3x3_s2_0_split
I0403 15:02:55.321043  2585 net.cpp:148] Top shape: 24 480 14 14 (2257920)
I0403 15:02:55.321059  2585 net.cpp:148] Top shape: 24 480 14 14 (2257920)
I0403 15:02:55.321075  2585 net.cpp:148] Top shape: 24 480 14 14 (2257920)
I0403 15:02:55.321090  2585 net.cpp:148] Top shape: 24 480 14 14 (2257920)
I0403 15:02:55.321105  2585 net.cpp:156] Memory required for data: 854397984
I0403 15:02:55.321118  2585 layer_factory.hpp:77] Creating layer inception_4a/1x1
I0403 15:02:55.321140  2585 net.cpp:91] Creating Layer inception_4a/1x1
I0403 15:02:55.321156  2585 net.cpp:425] inception_4a/1x1 <- pool3/3x3_s2_pool3/3x3_s2_0_split_0
I0403 15:02:55.321177  2585 net.cpp:399] inception_4a/1x1 -> inception_4a/1x1
I0403 15:02:55.322686  2585 net.cpp:141] Setting up inception_4a/1x1
I0403 15:02:55.322712  2585 net.cpp:148] Top shape: 24 192 14 14 (903168)
I0403 15:02:55.322727  2585 net.cpp:156] Memory required for data: 858010656
I0403 15:02:55.322746  2585 layer_factory.hpp:77] Creating layer inception_4a/relu_1x1
I0403 15:02:55.322765  2585 net.cpp:91] Creating Layer inception_4a/relu_1x1
I0403 15:02:55.322782  2585 net.cpp:425] inception_4a/relu_1x1 <- inception_4a/1x1
I0403 15:02:55.322798  2585 net.cpp:386] inception_4a/relu_1x1 -> inception_4a/1x1 (in-place)
I0403 15:02:55.322967  2585 net.cpp:141] Setting up inception_4a/relu_1x1
I0403 15:02:55.322989  2585 net.cpp:148] Top shape: 24 192 14 14 (903168)
I0403 15:02:55.323004  2585 net.cpp:156] Memory required for data: 861623328
I0403 15:02:55.323019  2585 layer_factory.hpp:77] Creating layer inception_4a/3x3_reduce
I0403 15:02:55.323040  2585 net.cpp:91] Creating Layer inception_4a/3x3_reduce
I0403 15:02:55.323057  2585 net.cpp:425] inception_4a/3x3_reduce <- pool3/3x3_s2_pool3/3x3_s2_0_split_1
I0403 15:02:55.323078  2585 net.cpp:399] inception_4a/3x3_reduce -> inception_4a/3x3_reduce
I0403 15:02:55.324307  2585 net.cpp:141] Setting up inception_4a/3x3_reduce
I0403 15:02:55.324334  2585 net.cpp:148] Top shape: 24 96 14 14 (451584)
I0403 15:02:55.324349  2585 net.cpp:156] Memory required for data: 863429664
I0403 15:02:55.324373  2585 layer_factory.hpp:77] Creating layer inception_4a/relu_3x3_reduce
I0403 15:02:55.324393  2585 net.cpp:91] Creating Layer inception_4a/relu_3x3_reduce
I0403 15:02:55.324409  2585 net.cpp:425] inception_4a/relu_3x3_reduce <- inception_4a/3x3_reduce
I0403 15:02:55.324427  2585 net.cpp:386] inception_4a/relu_3x3_reduce -> inception_4a/3x3_reduce (in-place)
I0403 15:02:55.324596  2585 net.cpp:141] Setting up inception_4a/relu_3x3_reduce
I0403 15:02:55.324620  2585 net.cpp:148] Top shape: 24 96 14 14 (451584)
I0403 15:02:55.324635  2585 net.cpp:156] Memory required for data: 865236000
I0403 15:02:55.324648  2585 layer_factory.hpp:77] Creating layer inception_4a/3x3
I0403 15:02:55.324671  2585 net.cpp:91] Creating Layer inception_4a/3x3
I0403 15:02:55.324687  2585 net.cpp:425] inception_4a/3x3 <- inception_4a/3x3_reduce
I0403 15:02:55.324708  2585 net.cpp:399] inception_4a/3x3 -> inception_4a/3x3
I0403 15:02:55.327339  2585 net.cpp:141] Setting up inception_4a/3x3
I0403 15:02:55.327368  2585 net.cpp:148] Top shape: 24 208 14 14 (978432)
I0403 15:02:55.327383  2585 net.cpp:156] Memory required for data: 869149728
I0403 15:02:55.327400  2585 layer_factory.hpp:77] Creating layer inception_4a/relu_3x3
I0403 15:02:55.327420  2585 net.cpp:91] Creating Layer inception_4a/relu_3x3
I0403 15:02:55.327437  2585 net.cpp:425] inception_4a/relu_3x3 <- inception_4a/3x3
I0403 15:02:55.327455  2585 net.cpp:386] inception_4a/relu_3x3 -> inception_4a/3x3 (in-place)
I0403 15:02:55.327734  2585 net.cpp:141] Setting up inception_4a/relu_3x3
I0403 15:02:55.327759  2585 net.cpp:148] Top shape: 24 208 14 14 (978432)
I0403 15:02:55.327775  2585 net.cpp:156] Memory required for data: 873063456
I0403 15:02:55.327788  2585 layer_factory.hpp:77] Creating layer inception_4a/5x5_reduce
I0403 15:02:55.327811  2585 net.cpp:91] Creating Layer inception_4a/5x5_reduce
I0403 15:02:55.327828  2585 net.cpp:425] inception_4a/5x5_reduce <- pool3/3x3_s2_pool3/3x3_s2_0_split_2
I0403 15:02:55.327850  2585 net.cpp:399] inception_4a/5x5_reduce -> inception_4a/5x5_reduce
I0403 15:02:55.328902  2585 net.cpp:141] Setting up inception_4a/5x5_reduce
I0403 15:02:55.328929  2585 net.cpp:148] Top shape: 24 16 14 14 (75264)
I0403 15:02:55.328943  2585 net.cpp:156] Memory required for data: 873364512
I0403 15:02:55.328961  2585 layer_factory.hpp:77] Creating layer inception_4a/relu_5x5_reduce
I0403 15:02:55.328982  2585 net.cpp:91] Creating Layer inception_4a/relu_5x5_reduce
I0403 15:02:55.328999  2585 net.cpp:425] inception_4a/relu_5x5_reduce <- inception_4a/5x5_reduce
I0403 15:02:55.329016  2585 net.cpp:386] inception_4a/relu_5x5_reduce -> inception_4a/5x5_reduce (in-place)
I0403 15:02:55.329191  2585 net.cpp:141] Setting up inception_4a/relu_5x5_reduce
I0403 15:02:55.329221  2585 net.cpp:148] Top shape: 24 16 14 14 (75264)
I0403 15:02:55.329237  2585 net.cpp:156] Memory required for data: 873665568
I0403 15:02:55.329252  2585 layer_factory.hpp:77] Creating layer inception_4a/5x5
I0403 15:02:55.329274  2585 net.cpp:91] Creating Layer inception_4a/5x5
I0403 15:02:55.329291  2585 net.cpp:425] inception_4a/5x5 <- inception_4a/5x5_reduce
I0403 15:02:55.329310  2585 net.cpp:399] inception_4a/5x5 -> inception_4a/5x5
I0403 15:02:55.330364  2585 net.cpp:141] Setting up inception_4a/5x5
I0403 15:02:55.330392  2585 net.cpp:148] Top shape: 24 48 14 14 (225792)
I0403 15:02:55.330406  2585 net.cpp:156] Memory required for data: 874568736
I0403 15:02:55.330425  2585 layer_factory.hpp:77] Creating layer inception_4a/relu_5x5
I0403 15:02:55.330442  2585 net.cpp:91] Creating Layer inception_4a/relu_5x5
I0403 15:02:55.330457  2585 net.cpp:425] inception_4a/relu_5x5 <- inception_4a/5x5
I0403 15:02:55.330476  2585 net.cpp:386] inception_4a/relu_5x5 -> inception_4a/5x5 (in-place)
I0403 15:02:55.330648  2585 net.cpp:141] Setting up inception_4a/relu_5x5
I0403 15:02:55.330672  2585 net.cpp:148] Top shape: 24 48 14 14 (225792)
I0403 15:02:55.330687  2585 net.cpp:156] Memory required for data: 875471904
I0403 15:02:55.330713  2585 layer_factory.hpp:77] Creating layer inception_4a/pool
I0403 15:02:55.330732  2585 net.cpp:91] Creating Layer inception_4a/pool
I0403 15:02:55.330749  2585 net.cpp:425] inception_4a/pool <- pool3/3x3_s2_pool3/3x3_s2_0_split_3
I0403 15:02:55.330767  2585 net.cpp:399] inception_4a/pool -> inception_4a/pool
I0403 15:02:55.330828  2585 net.cpp:141] Setting up inception_4a/pool
I0403 15:02:55.330852  2585 net.cpp:148] Top shape: 24 480 14 14 (2257920)
I0403 15:02:55.330865  2585 net.cpp:156] Memory required for data: 884503584
I0403 15:02:55.330880  2585 layer_factory.hpp:77] Creating layer inception_4a/pool_proj
I0403 15:02:55.330902  2585 net.cpp:91] Creating Layer inception_4a/pool_proj
I0403 15:02:55.330919  2585 net.cpp:425] inception_4a/pool_proj <- inception_4a/pool
I0403 15:02:55.330943  2585 net.cpp:399] inception_4a/pool_proj -> inception_4a/pool_proj
I0403 15:02:55.332082  2585 net.cpp:141] Setting up inception_4a/pool_proj
I0403 15:02:55.332110  2585 net.cpp:148] Top shape: 24 64 14 14 (301056)
I0403 15:02:55.332139  2585 net.cpp:156] Memory required for data: 885707808
I0403 15:02:55.332159  2585 layer_factory.hpp:77] Creating layer inception_4a/relu_pool_proj
I0403 15:02:55.332175  2585 net.cpp:91] Creating Layer inception_4a/relu_pool_proj
I0403 15:02:55.332190  2585 net.cpp:425] inception_4a/relu_pool_proj <- inception_4a/pool_proj
I0403 15:02:55.332213  2585 net.cpp:386] inception_4a/relu_pool_proj -> inception_4a/pool_proj (in-place)
I0403 15:02:55.332492  2585 net.cpp:141] Setting up inception_4a/relu_pool_proj
I0403 15:02:55.332518  2585 net.cpp:148] Top shape: 24 64 14 14 (301056)
I0403 15:02:55.332532  2585 net.cpp:156] Memory required for data: 886912032
I0403 15:02:55.332546  2585 layer_factory.hpp:77] Creating layer inception_4a/output
I0403 15:02:55.332563  2585 net.cpp:91] Creating Layer inception_4a/output
I0403 15:02:55.332578  2585 net.cpp:425] inception_4a/output <- inception_4a/1x1
I0403 15:02:55.332595  2585 net.cpp:425] inception_4a/output <- inception_4a/3x3
I0403 15:02:55.332612  2585 net.cpp:425] inception_4a/output <- inception_4a/5x5
I0403 15:02:55.332628  2585 net.cpp:425] inception_4a/output <- inception_4a/pool_proj
I0403 15:02:55.332646  2585 net.cpp:399] inception_4a/output -> inception_4a/output
I0403 15:02:55.332690  2585 net.cpp:141] Setting up inception_4a/output
I0403 15:02:55.332713  2585 net.cpp:148] Top shape: 24 512 14 14 (2408448)
I0403 15:02:55.332728  2585 net.cpp:156] Memory required for data: 896545824
I0403 15:02:55.332742  2585 layer_factory.hpp:77] Creating layer inception_4a/output_inception_4a/output_0_split
I0403 15:02:55.332761  2585 net.cpp:91] Creating Layer inception_4a/output_inception_4a/output_0_split
I0403 15:02:55.332777  2585 net.cpp:425] inception_4a/output_inception_4a/output_0_split <- inception_4a/output
I0403 15:02:55.332792  2585 net.cpp:399] inception_4a/output_inception_4a/output_0_split -> inception_4a/output_inception_4a/output_0_split_0
I0403 15:02:55.332815  2585 net.cpp:399] inception_4a/output_inception_4a/output_0_split -> inception_4a/output_inception_4a/output_0_split_1
I0403 15:02:55.332835  2585 net.cpp:399] inception_4a/output_inception_4a/output_0_split -> inception_4a/output_inception_4a/output_0_split_2
I0403 15:02:55.332856  2585 net.cpp:399] inception_4a/output_inception_4a/output_0_split -> inception_4a/output_inception_4a/output_0_split_3
I0403 15:02:55.332875  2585 net.cpp:399] inception_4a/output_inception_4a/output_0_split -> inception_4a/output_inception_4a/output_0_split_4
I0403 15:02:55.332965  2585 net.cpp:141] Setting up inception_4a/output_inception_4a/output_0_split
I0403 15:02:55.332988  2585 net.cpp:148] Top shape: 24 512 14 14 (2408448)
I0403 15:02:55.333005  2585 net.cpp:148] Top shape: 24 512 14 14 (2408448)
I0403 15:02:55.333021  2585 net.cpp:148] Top shape: 24 512 14 14 (2408448)
I0403 15:02:55.333037  2585 net.cpp:148] Top shape: 24 512 14 14 (2408448)
I0403 15:02:55.333053  2585 net.cpp:148] Top shape: 24 512 14 14 (2408448)
I0403 15:02:55.333066  2585 net.cpp:156] Memory required for data: 944714784
I0403 15:02:55.333081  2585 layer_factory.hpp:77] Creating layer loss1/ave_pool
I0403 15:02:55.333098  2585 net.cpp:91] Creating Layer loss1/ave_pool
I0403 15:02:55.333113  2585 net.cpp:425] loss1/ave_pool <- inception_4a/output_inception_4a/output_0_split_0
I0403 15:02:55.333132  2585 net.cpp:399] loss1/ave_pool -> loss1/ave_pool
I0403 15:02:55.333343  2585 net.cpp:141] Setting up loss1/ave_pool
I0403 15:02:55.333367  2585 net.cpp:148] Top shape: 24 512 4 4 (196608)
I0403 15:02:55.333381  2585 net.cpp:156] Memory required for data: 945501216
I0403 15:02:55.333396  2585 layer_factory.hpp:77] Creating layer loss1/conv
I0403 15:02:55.333417  2585 net.cpp:91] Creating Layer loss1/conv
I0403 15:02:55.333434  2585 net.cpp:425] loss1/conv <- loss1/ave_pool
I0403 15:02:55.333456  2585 net.cpp:399] loss1/conv -> loss1/conv
I0403 15:02:55.334812  2585 net.cpp:141] Setting up loss1/conv
I0403 15:02:55.334839  2585 net.cpp:148] Top shape: 24 128 4 4 (49152)
I0403 15:02:55.334867  2585 net.cpp:156] Memory required for data: 945697824
I0403 15:02:55.334885  2585 layer_factory.hpp:77] Creating layer loss1/relu_conv
I0403 15:02:55.334908  2585 net.cpp:91] Creating Layer loss1/relu_conv
I0403 15:02:55.334924  2585 net.cpp:425] loss1/relu_conv <- loss1/conv
I0403 15:02:55.334941  2585 net.cpp:386] loss1/relu_conv -> loss1/conv (in-place)
I0403 15:02:55.335217  2585 net.cpp:141] Setting up loss1/relu_conv
I0403 15:02:55.335242  2585 net.cpp:148] Top shape: 24 128 4 4 (49152)
I0403 15:02:55.335258  2585 net.cpp:156] Memory required for data: 945894432
I0403 15:02:55.335271  2585 layer_factory.hpp:77] Creating layer loss1/fc
I0403 15:02:55.335297  2585 net.cpp:91] Creating Layer loss1/fc
I0403 15:02:55.335315  2585 net.cpp:425] loss1/fc <- loss1/conv
I0403 15:02:55.335333  2585 net.cpp:399] loss1/fc -> loss1/fc
I0403 15:02:55.352968  2585 net.cpp:141] Setting up loss1/fc
I0403 15:02:55.353019  2585 net.cpp:148] Top shape: 24 1024 (24576)
I0403 15:02:55.353035  2585 net.cpp:156] Memory required for data: 945992736
I0403 15:02:55.353055  2585 layer_factory.hpp:77] Creating layer loss1/relu_fc
I0403 15:02:55.353075  2585 net.cpp:91] Creating Layer loss1/relu_fc
I0403 15:02:55.353091  2585 net.cpp:425] loss1/relu_fc <- loss1/fc
I0403 15:02:55.353112  2585 net.cpp:386] loss1/relu_fc -> loss1/fc (in-place)
I0403 15:02:55.353343  2585 net.cpp:141] Setting up loss1/relu_fc
I0403 15:02:55.353369  2585 net.cpp:148] Top shape: 24 1024 (24576)
I0403 15:02:55.353384  2585 net.cpp:156] Memory required for data: 946091040
I0403 15:02:55.353399  2585 layer_factory.hpp:77] Creating layer loss1/drop_fc
I0403 15:02:55.353426  2585 net.cpp:91] Creating Layer loss1/drop_fc
I0403 15:02:55.353445  2585 net.cpp:425] loss1/drop_fc <- loss1/fc
I0403 15:02:55.353462  2585 net.cpp:386] loss1/drop_fc -> loss1/fc (in-place)
I0403 15:02:55.353513  2585 net.cpp:141] Setting up loss1/drop_fc
I0403 15:02:55.353539  2585 net.cpp:148] Top shape: 24 1024 (24576)
I0403 15:02:55.353555  2585 net.cpp:156] Memory required for data: 946189344
I0403 15:02:55.353571  2585 layer_factory.hpp:77] Creating layer loss1/classifier_plantvillage
I0403 15:02:55.353590  2585 net.cpp:91] Creating Layer loss1/classifier_plantvillage
I0403 15:02:55.353606  2585 net.cpp:425] loss1/classifier_plantvillage <- loss1/fc
I0403 15:02:55.353626  2585 net.cpp:399] loss1/classifier_plantvillage -> loss1/classifier_plantvillage
I0403 15:02:55.354565  2585 net.cpp:141] Setting up loss1/classifier_plantvillage
I0403 15:02:55.354595  2585 net.cpp:148] Top shape: 24 38 (912)
I0403 15:02:55.354611  2585 net.cpp:156] Memory required for data: 946192992
I0403 15:02:55.354630  2585 layer_factory.hpp:77] Creating layer loss1/classifier_plantvillage_loss1/classifier_plantvillage_0_split
I0403 15:02:55.354651  2585 net.cpp:91] Creating Layer loss1/classifier_plantvillage_loss1/classifier_plantvillage_0_split
I0403 15:02:55.354681  2585 net.cpp:425] loss1/classifier_plantvillage_loss1/classifier_plantvillage_0_split <- loss1/classifier_plantvillage
I0403 15:02:55.354698  2585 net.cpp:399] loss1/classifier_plantvillage_loss1/classifier_plantvillage_0_split -> loss1/classifier_plantvillage_loss1/classifier_plantvillage_0_split_0
I0403 15:02:55.354718  2585 net.cpp:399] loss1/classifier_plantvillage_loss1/classifier_plantvillage_0_split -> loss1/classifier_plantvillage_loss1/classifier_plantvillage_0_split_1
I0403 15:02:55.354738  2585 net.cpp:399] loss1/classifier_plantvillage_loss1/classifier_plantvillage_0_split -> loss1/classifier_plantvillage_loss1/classifier_plantvillage_0_split_2
I0403 15:02:55.354804  2585 net.cpp:141] Setting up loss1/classifier_plantvillage_loss1/classifier_plantvillage_0_split
I0403 15:02:55.354828  2585 net.cpp:148] Top shape: 24 38 (912)
I0403 15:02:55.354846  2585 net.cpp:148] Top shape: 24 38 (912)
I0403 15:02:55.354861  2585 net.cpp:148] Top shape: 24 38 (912)
I0403 15:02:55.354874  2585 net.cpp:156] Memory required for data: 946203936
I0403 15:02:55.354888  2585 layer_factory.hpp:77] Creating layer inception_4b/1x1
I0403 15:02:55.354908  2585 net.cpp:91] Creating Layer inception_4b/1x1
I0403 15:02:55.354948  2585 net.cpp:425] inception_4b/1x1 <- inception_4a/output_inception_4a/output_0_split_1
I0403 15:02:55.354969  2585 net.cpp:399] inception_4b/1x1 -> inception_4b/1x1
I0403 15:02:55.356693  2585 net.cpp:141] Setting up inception_4b/1x1
I0403 15:02:55.356721  2585 net.cpp:148] Top shape: 24 160 14 14 (752640)
I0403 15:02:55.356737  2585 net.cpp:156] Memory required for data: 949214496
I0403 15:02:55.356756  2585 layer_factory.hpp:77] Creating layer inception_4b/relu_1x1
I0403 15:02:55.356776  2585 net.cpp:91] Creating Layer inception_4b/relu_1x1
I0403 15:02:55.356792  2585 net.cpp:425] inception_4b/relu_1x1 <- inception_4b/1x1
I0403 15:02:55.356811  2585 net.cpp:386] inception_4b/relu_1x1 -> inception_4b/1x1 (in-place)
I0403 15:02:55.356992  2585 net.cpp:141] Setting up inception_4b/relu_1x1
I0403 15:02:55.357019  2585 net.cpp:148] Top shape: 24 160 14 14 (752640)
I0403 15:02:55.357034  2585 net.cpp:156] Memory required for data: 952225056
I0403 15:02:55.357049  2585 layer_factory.hpp:77] Creating layer inception_4b/3x3_reduce
I0403 15:02:55.357071  2585 net.cpp:91] Creating Layer inception_4b/3x3_reduce
I0403 15:02:55.357089  2585 net.cpp:425] inception_4b/3x3_reduce <- inception_4a/output_inception_4a/output_0_split_2
I0403 15:02:55.357108  2585 net.cpp:399] inception_4b/3x3_reduce -> inception_4b/3x3_reduce
I0403 15:02:55.358469  2585 net.cpp:141] Setting up inception_4b/3x3_reduce
I0403 15:02:55.358500  2585 net.cpp:148] Top shape: 24 112 14 14 (526848)
I0403 15:02:55.358515  2585 net.cpp:156] Memory required for data: 954332448
I0403 15:02:55.358535  2585 layer_factory.hpp:77] Creating layer inception_4b/relu_3x3_reduce
I0403 15:02:55.358552  2585 net.cpp:91] Creating Layer inception_4b/relu_3x3_reduce
I0403 15:02:55.358568  2585 net.cpp:425] inception_4b/relu_3x3_reduce <- inception_4b/3x3_reduce
I0403 15:02:55.358588  2585 net.cpp:386] inception_4b/relu_3x3_reduce -> inception_4b/3x3_reduce (in-place)
I0403 15:02:55.358878  2585 net.cpp:141] Setting up inception_4b/relu_3x3_reduce
I0403 15:02:55.358906  2585 net.cpp:148] Top shape: 24 112 14 14 (526848)
I0403 15:02:55.358922  2585 net.cpp:156] Memory required for data: 956439840
I0403 15:02:55.358937  2585 layer_factory.hpp:77] Creating layer inception_4b/3x3
I0403 15:02:55.358959  2585 net.cpp:91] Creating Layer inception_4b/3x3
I0403 15:02:55.358978  2585 net.cpp:425] inception_4b/3x3 <- inception_4b/3x3_reduce
I0403 15:02:55.358995  2585 net.cpp:399] inception_4b/3x3 -> inception_4b/3x3
I0403 15:02:55.362036  2585 net.cpp:141] Setting up inception_4b/3x3
I0403 15:02:55.362066  2585 net.cpp:148] Top shape: 24 224 14 14 (1053696)
I0403 15:02:55.362082  2585 net.cpp:156] Memory required for data: 960654624
I0403 15:02:55.362100  2585 layer_factory.hpp:77] Creating layer inception_4b/relu_3x3
I0403 15:02:55.362121  2585 net.cpp:91] Creating Layer inception_4b/relu_3x3
I0403 15:02:55.362138  2585 net.cpp:425] inception_4b/relu_3x3 <- inception_4b/3x3
I0403 15:02:55.362155  2585 net.cpp:386] inception_4b/relu_3x3 -> inception_4b/3x3 (in-place)
I0403 15:02:55.362344  2585 net.cpp:141] Setting up inception_4b/relu_3x3
I0403 15:02:55.362368  2585 net.cpp:148] Top shape: 24 224 14 14 (1053696)
I0403 15:02:55.362383  2585 net.cpp:156] Memory required for data: 964869408
I0403 15:02:55.362398  2585 layer_factory.hpp:77] Creating layer inception_4b/5x5_reduce
I0403 15:02:55.362423  2585 net.cpp:91] Creating Layer inception_4b/5x5_reduce
I0403 15:02:55.362444  2585 net.cpp:425] inception_4b/5x5_reduce <- inception_4a/output_inception_4a/output_0_split_3
I0403 15:02:55.362464  2585 net.cpp:399] inception_4b/5x5_reduce -> inception_4b/5x5_reduce
I0403 15:02:55.363555  2585 net.cpp:141] Setting up inception_4b/5x5_reduce
I0403 15:02:55.363582  2585 net.cpp:148] Top shape: 24 24 14 14 (112896)
I0403 15:02:55.363598  2585 net.cpp:156] Memory required for data: 965320992
I0403 15:02:55.363616  2585 layer_factory.hpp:77] Creating layer inception_4b/relu_5x5_reduce
I0403 15:02:55.363636  2585 net.cpp:91] Creating Layer inception_4b/relu_5x5_reduce
I0403 15:02:55.363668  2585 net.cpp:425] inception_4b/relu_5x5_reduce <- inception_4b/5x5_reduce
I0403 15:02:55.363687  2585 net.cpp:386] inception_4b/relu_5x5_reduce -> inception_4b/5x5_reduce (in-place)
I0403 15:02:55.363873  2585 net.cpp:141] Setting up inception_4b/relu_5x5_reduce
I0403 15:02:55.363896  2585 net.cpp:148] Top shape: 24 24 14 14 (112896)
I0403 15:02:55.363911  2585 net.cpp:156] Memory required for data: 965772576
I0403 15:02:55.363926  2585 layer_factory.hpp:77] Creating layer inception_4b/5x5
I0403 15:02:55.363948  2585 net.cpp:91] Creating Layer inception_4b/5x5
I0403 15:02:55.363967  2585 net.cpp:425] inception_4b/5x5 <- inception_4b/5x5_reduce
I0403 15:02:55.363988  2585 net.cpp:399] inception_4b/5x5 -> inception_4b/5x5
I0403 15:02:55.365216  2585 net.cpp:141] Setting up inception_4b/5x5
I0403 15:02:55.365243  2585 net.cpp:148] Top shape: 24 64 14 14 (301056)
I0403 15:02:55.365258  2585 net.cpp:156] Memory required for data: 966976800
I0403 15:02:55.365277  2585 layer_factory.hpp:77] Creating layer inception_4b/relu_5x5
I0403 15:02:55.365298  2585 net.cpp:91] Creating Layer inception_4b/relu_5x5
I0403 15:02:55.365314  2585 net.cpp:425] inception_4b/relu_5x5 <- inception_4b/5x5
I0403 15:02:55.365332  2585 net.cpp:386] inception_4b/relu_5x5 -> inception_4b/5x5 (in-place)
I0403 15:02:55.365615  2585 net.cpp:141] Setting up inception_4b/relu_5x5
I0403 15:02:55.365641  2585 net.cpp:148] Top shape: 24 64 14 14 (301056)
I0403 15:02:55.365656  2585 net.cpp:156] Memory required for data: 968181024
I0403 15:02:55.365671  2585 layer_factory.hpp:77] Creating layer inception_4b/pool
I0403 15:02:55.365692  2585 net.cpp:91] Creating Layer inception_4b/pool
I0403 15:02:55.365710  2585 net.cpp:425] inception_4b/pool <- inception_4a/output_inception_4a/output_0_split_4
I0403 15:02:55.365728  2585 net.cpp:399] inception_4b/pool -> inception_4b/pool
I0403 15:02:55.365795  2585 net.cpp:141] Setting up inception_4b/pool
I0403 15:02:55.365818  2585 net.cpp:148] Top shape: 24 512 14 14 (2408448)
I0403 15:02:55.365833  2585 net.cpp:156] Memory required for data: 977814816
I0403 15:02:55.365849  2585 layer_factory.hpp:77] Creating layer inception_4b/pool_proj
I0403 15:02:55.365871  2585 net.cpp:91] Creating Layer inception_4b/pool_proj
I0403 15:02:55.365888  2585 net.cpp:425] inception_4b/pool_proj <- inception_4b/pool
I0403 15:02:55.365909  2585 net.cpp:399] inception_4b/pool_proj -> inception_4b/pool_proj
I0403 15:02:55.367111  2585 net.cpp:141] Setting up inception_4b/pool_proj
I0403 15:02:55.367142  2585 net.cpp:148] Top shape: 24 64 14 14 (301056)
I0403 15:02:55.367158  2585 net.cpp:156] Memory required for data: 979019040
I0403 15:02:55.367177  2585 layer_factory.hpp:77] Creating layer inception_4b/relu_pool_proj
I0403 15:02:55.367195  2585 net.cpp:91] Creating Layer inception_4b/relu_pool_proj
I0403 15:02:55.367215  2585 net.cpp:425] inception_4b/relu_pool_proj <- inception_4b/pool_proj
I0403 15:02:55.367234  2585 net.cpp:386] inception_4b/relu_pool_proj -> inception_4b/pool_proj (in-place)
I0403 15:02:55.367418  2585 net.cpp:141] Setting up inception_4b/relu_pool_proj
I0403 15:02:55.367444  2585 net.cpp:148] Top shape: 24 64 14 14 (301056)
I0403 15:02:55.367458  2585 net.cpp:156] Memory required for data: 980223264
I0403 15:02:55.367473  2585 layer_factory.hpp:77] Creating layer inception_4b/output
I0403 15:02:55.367491  2585 net.cpp:91] Creating Layer inception_4b/output
I0403 15:02:55.367507  2585 net.cpp:425] inception_4b/output <- inception_4b/1x1
I0403 15:02:55.367524  2585 net.cpp:425] inception_4b/output <- inception_4b/3x3
I0403 15:02:55.367540  2585 net.cpp:425] inception_4b/output <- inception_4b/5x5
I0403 15:02:55.367557  2585 net.cpp:425] inception_4b/output <- inception_4b/pool_proj
I0403 15:02:55.367578  2585 net.cpp:399] inception_4b/output -> inception_4b/output
I0403 15:02:55.367624  2585 net.cpp:141] Setting up inception_4b/output
I0403 15:02:55.367647  2585 net.cpp:148] Top shape: 24 512 14 14 (2408448)
I0403 15:02:55.367662  2585 net.cpp:156] Memory required for data: 989857056
I0403 15:02:55.367692  2585 layer_factory.hpp:77] Creating layer inception_4b/output_inception_4b/output_0_split
I0403 15:02:55.367713  2585 net.cpp:91] Creating Layer inception_4b/output_inception_4b/output_0_split
I0403 15:02:55.367732  2585 net.cpp:425] inception_4b/output_inception_4b/output_0_split <- inception_4b/output
I0403 15:02:55.367750  2585 net.cpp:399] inception_4b/output_inception_4b/output_0_split -> inception_4b/output_inception_4b/output_0_split_0
I0403 15:02:55.367772  2585 net.cpp:399] inception_4b/output_inception_4b/output_0_split -> inception_4b/output_inception_4b/output_0_split_1
I0403 15:02:55.367795  2585 net.cpp:399] inception_4b/output_inception_4b/output_0_split -> inception_4b/output_inception_4b/output_0_split_2
I0403 15:02:55.367815  2585 net.cpp:399] inception_4b/output_inception_4b/output_0_split -> inception_4b/output_inception_4b/output_0_split_3
I0403 15:02:55.367897  2585 net.cpp:141] Setting up inception_4b/output_inception_4b/output_0_split
I0403 15:02:55.367920  2585 net.cpp:148] Top shape: 24 512 14 14 (2408448)
I0403 15:02:55.367936  2585 net.cpp:148] Top shape: 24 512 14 14 (2408448)
I0403 15:02:55.367951  2585 net.cpp:148] Top shape: 24 512 14 14 (2408448)
I0403 15:02:55.367967  2585 net.cpp:148] Top shape: 24 512 14 14 (2408448)
I0403 15:02:55.367981  2585 net.cpp:156] Memory required for data: 1028392224
I0403 15:02:55.367996  2585 layer_factory.hpp:77] Creating layer inception_4c/1x1
I0403 15:02:55.368018  2585 net.cpp:91] Creating Layer inception_4c/1x1
I0403 15:02:55.368036  2585 net.cpp:425] inception_4c/1x1 <- inception_4b/output_inception_4b/output_0_split_0
I0403 15:02:55.368057  2585 net.cpp:399] inception_4c/1x1 -> inception_4c/1x1
I0403 15:02:55.369505  2585 net.cpp:141] Setting up inception_4c/1x1
I0403 15:02:55.369534  2585 net.cpp:148] Top shape: 24 128 14 14 (602112)
I0403 15:02:55.369551  2585 net.cpp:156] Memory required for data: 1030800672
I0403 15:02:55.369570  2585 layer_factory.hpp:77] Creating layer inception_4c/relu_1x1
I0403 15:02:55.369588  2585 net.cpp:91] Creating Layer inception_4c/relu_1x1
I0403 15:02:55.369606  2585 net.cpp:425] inception_4c/relu_1x1 <- inception_4c/1x1
I0403 15:02:55.369624  2585 net.cpp:386] inception_4c/relu_1x1 -> inception_4c/1x1 (in-place)
I0403 15:02:55.369808  2585 net.cpp:141] Setting up inception_4c/relu_1x1
I0403 15:02:55.369832  2585 net.cpp:148] Top shape: 24 128 14 14 (602112)
I0403 15:02:55.369848  2585 net.cpp:156] Memory required for data: 1033209120
I0403 15:02:55.369863  2585 layer_factory.hpp:77] Creating layer inception_4c/3x3_reduce
I0403 15:02:55.369885  2585 net.cpp:91] Creating Layer inception_4c/3x3_reduce
I0403 15:02:55.369902  2585 net.cpp:425] inception_4c/3x3_reduce <- inception_4b/output_inception_4b/output_0_split_1
I0403 15:02:55.369925  2585 net.cpp:399] inception_4c/3x3_reduce -> inception_4c/3x3_reduce
I0403 15:02:55.371887  2585 net.cpp:141] Setting up inception_4c/3x3_reduce
I0403 15:02:55.371918  2585 net.cpp:148] Top shape: 24 128 14 14 (602112)
I0403 15:02:55.371934  2585 net.cpp:156] Memory required for data: 1035617568
I0403 15:02:55.371954  2585 layer_factory.hpp:77] Creating layer inception_4c/relu_3x3_reduce
I0403 15:02:55.371976  2585 net.cpp:91] Creating Layer inception_4c/relu_3x3_reduce
I0403 15:02:55.371995  2585 net.cpp:425] inception_4c/relu_3x3_reduce <- inception_4c/3x3_reduce
I0403 15:02:55.372014  2585 net.cpp:386] inception_4c/relu_3x3_reduce -> inception_4c/3x3_reduce (in-place)
I0403 15:02:55.372308  2585 net.cpp:141] Setting up inception_4c/relu_3x3_reduce
I0403 15:02:55.372336  2585 net.cpp:148] Top shape: 24 128 14 14 (602112)
I0403 15:02:55.372352  2585 net.cpp:156] Memory required for data: 1038026016
I0403 15:02:55.372370  2585 layer_factory.hpp:77] Creating layer inception_4c/3x3
I0403 15:02:55.372391  2585 net.cpp:91] Creating Layer inception_4c/3x3
I0403 15:02:55.372409  2585 net.cpp:425] inception_4c/3x3 <- inception_4c/3x3_reduce
I0403 15:02:55.372432  2585 net.cpp:399] inception_4c/3x3 -> inception_4c/3x3
I0403 15:02:55.376061  2585 net.cpp:141] Setting up inception_4c/3x3
I0403 15:02:55.376106  2585 net.cpp:148] Top shape: 24 256 14 14 (1204224)
I0403 15:02:55.376123  2585 net.cpp:156] Memory required for data: 1042842912
I0403 15:02:55.376157  2585 layer_factory.hpp:77] Creating layer inception_4c/relu_3x3
I0403 15:02:55.376178  2585 net.cpp:91] Creating Layer inception_4c/relu_3x3
I0403 15:02:55.376194  2585 net.cpp:425] inception_4c/relu_3x3 <- inception_4c/3x3
I0403 15:02:55.376216  2585 net.cpp:386] inception_4c/relu_3x3 -> inception_4c/3x3 (in-place)
I0403 15:02:55.376404  2585 net.cpp:141] Setting up inception_4c/relu_3x3
I0403 15:02:55.376428  2585 net.cpp:148] Top shape: 24 256 14 14 (1204224)
I0403 15:02:55.376444  2585 net.cpp:156] Memory required for data: 1047659808
I0403 15:02:55.376458  2585 layer_factory.hpp:77] Creating layer inception_4c/5x5_reduce
I0403 15:02:55.376484  2585 net.cpp:91] Creating Layer inception_4c/5x5_reduce
I0403 15:02:55.376502  2585 net.cpp:425] inception_4c/5x5_reduce <- inception_4b/output_inception_4b/output_0_split_2
I0403 15:02:55.376521  2585 net.cpp:399] inception_4c/5x5_reduce -> inception_4c/5x5_reduce
I0403 15:02:55.377621  2585 net.cpp:141] Setting up inception_4c/5x5_reduce
I0403 15:02:55.377650  2585 net.cpp:148] Top shape: 24 24 14 14 (112896)
I0403 15:02:55.377665  2585 net.cpp:156] Memory required for data: 1048111392
I0403 15:02:55.377684  2585 layer_factory.hpp:77] Creating layer inception_4c/relu_5x5_reduce
I0403 15:02:55.377706  2585 net.cpp:91] Creating Layer inception_4c/relu_5x5_reduce
I0403 15:02:55.377725  2585 net.cpp:425] inception_4c/relu_5x5_reduce <- inception_4c/5x5_reduce
I0403 15:02:55.377744  2585 net.cpp:386] inception_4c/relu_5x5_reduce -> inception_4c/5x5_reduce (in-place)
I0403 15:02:55.377933  2585 net.cpp:141] Setting up inception_4c/relu_5x5_reduce
I0403 15:02:55.377957  2585 net.cpp:148] Top shape: 24 24 14 14 (112896)
I0403 15:02:55.377971  2585 net.cpp:156] Memory required for data: 1048562976
I0403 15:02:55.377986  2585 layer_factory.hpp:77] Creating layer inception_4c/5x5
I0403 15:02:55.378010  2585 net.cpp:91] Creating Layer inception_4c/5x5
I0403 15:02:55.378026  2585 net.cpp:425] inception_4c/5x5 <- inception_4c/5x5_reduce
I0403 15:02:55.378048  2585 net.cpp:399] inception_4c/5x5 -> inception_4c/5x5
I0403 15:02:55.379304  2585 net.cpp:141] Setting up inception_4c/5x5
I0403 15:02:55.379335  2585 net.cpp:148] Top shape: 24 64 14 14 (301056)
I0403 15:02:55.379354  2585 net.cpp:156] Memory required for data: 1049767200
I0403 15:02:55.379374  2585 layer_factory.hpp:77] Creating layer inception_4c/relu_5x5
I0403 15:02:55.379391  2585 net.cpp:91] Creating Layer inception_4c/relu_5x5
I0403 15:02:55.379408  2585 net.cpp:425] inception_4c/relu_5x5 <- inception_4c/5x5
I0403 15:02:55.379428  2585 net.cpp:386] inception_4c/relu_5x5 -> inception_4c/5x5 (in-place)
I0403 15:02:55.379715  2585 net.cpp:141] Setting up inception_4c/relu_5x5
I0403 15:02:55.379745  2585 net.cpp:148] Top shape: 24 64 14 14 (301056)
I0403 15:02:55.379762  2585 net.cpp:156] Memory required for data: 1050971424
I0403 15:02:55.379777  2585 layer_factory.hpp:77] Creating layer inception_4c/pool
I0403 15:02:55.379796  2585 net.cpp:91] Creating Layer inception_4c/pool
I0403 15:02:55.379812  2585 net.cpp:425] inception_4c/pool <- inception_4b/output_inception_4b/output_0_split_3
I0403 15:02:55.379833  2585 net.cpp:399] inception_4c/pool -> inception_4c/pool
I0403 15:02:55.379899  2585 net.cpp:141] Setting up inception_4c/pool
I0403 15:02:55.379925  2585 net.cpp:148] Top shape: 24 512 14 14 (2408448)
I0403 15:02:55.379940  2585 net.cpp:156] Memory required for data: 1060605216
I0403 15:02:55.379956  2585 layer_factory.hpp:77] Creating layer inception_4c/pool_proj
I0403 15:02:55.379978  2585 net.cpp:91] Creating Layer inception_4c/pool_proj
I0403 15:02:55.379995  2585 net.cpp:425] inception_4c/pool_proj <- inception_4c/pool
I0403 15:02:55.380014  2585 net.cpp:399] inception_4c/pool_proj -> inception_4c/pool_proj
I0403 15:02:55.381247  2585 net.cpp:141] Setting up inception_4c/pool_proj
I0403 15:02:55.381278  2585 net.cpp:148] Top shape: 24 64 14 14 (301056)
I0403 15:02:55.381309  2585 net.cpp:156] Memory required for data: 1061809440
I0403 15:02:55.381330  2585 layer_factory.hpp:77] Creating layer inception_4c/relu_pool_proj
I0403 15:02:55.381350  2585 net.cpp:91] Creating Layer inception_4c/relu_pool_proj
I0403 15:02:55.381367  2585 net.cpp:425] inception_4c/relu_pool_proj <- inception_4c/pool_proj
I0403 15:02:55.381386  2585 net.cpp:386] inception_4c/relu_pool_proj -> inception_4c/pool_proj (in-place)
I0403 15:02:55.381574  2585 net.cpp:141] Setting up inception_4c/relu_pool_proj
I0403 15:02:55.381602  2585 net.cpp:148] Top shape: 24 64 14 14 (301056)
I0403 15:02:55.381618  2585 net.cpp:156] Memory required for data: 1063013664
I0403 15:02:55.381633  2585 layer_factory.hpp:77] Creating layer inception_4c/output
I0403 15:02:55.381650  2585 net.cpp:91] Creating Layer inception_4c/output
I0403 15:02:55.381665  2585 net.cpp:425] inception_4c/output <- inception_4c/1x1
I0403 15:02:55.381682  2585 net.cpp:425] inception_4c/output <- inception_4c/3x3
I0403 15:02:55.381697  2585 net.cpp:425] inception_4c/output <- inception_4c/5x5
I0403 15:02:55.381713  2585 net.cpp:425] inception_4c/output <- inception_4c/pool_proj
I0403 15:02:55.381733  2585 net.cpp:399] inception_4c/output -> inception_4c/output
I0403 15:02:55.381780  2585 net.cpp:141] Setting up inception_4c/output
I0403 15:02:55.381803  2585 net.cpp:148] Top shape: 24 512 14 14 (2408448)
I0403 15:02:55.381817  2585 net.cpp:156] Memory required for data: 1072647456
I0403 15:02:55.381831  2585 layer_factory.hpp:77] Creating layer inception_4c/output_inception_4c/output_0_split
I0403 15:02:55.381851  2585 net.cpp:91] Creating Layer inception_4c/output_inception_4c/output_0_split
I0403 15:02:55.381868  2585 net.cpp:425] inception_4c/output_inception_4c/output_0_split <- inception_4c/output
I0403 15:02:55.381886  2585 net.cpp:399] inception_4c/output_inception_4c/output_0_split -> inception_4c/output_inception_4c/output_0_split_0
I0403 15:02:55.381906  2585 net.cpp:399] inception_4c/output_inception_4c/output_0_split -> inception_4c/output_inception_4c/output_0_split_1
I0403 15:02:55.381929  2585 net.cpp:399] inception_4c/output_inception_4c/output_0_split -> inception_4c/output_inception_4c/output_0_split_2
I0403 15:02:55.381949  2585 net.cpp:399] inception_4c/output_inception_4c/output_0_split -> inception_4c/output_inception_4c/output_0_split_3
I0403 15:02:55.382036  2585 net.cpp:141] Setting up inception_4c/output_inception_4c/output_0_split
I0403 15:02:55.382058  2585 net.cpp:148] Top shape: 24 512 14 14 (2408448)
I0403 15:02:55.382076  2585 net.cpp:148] Top shape: 24 512 14 14 (2408448)
I0403 15:02:55.382091  2585 net.cpp:148] Top shape: 24 512 14 14 (2408448)
I0403 15:02:55.382107  2585 net.cpp:148] Top shape: 24 512 14 14 (2408448)
I0403 15:02:55.382120  2585 net.cpp:156] Memory required for data: 1111182624
I0403 15:02:55.382135  2585 layer_factory.hpp:77] Creating layer inception_4d/1x1
I0403 15:02:55.382158  2585 net.cpp:91] Creating Layer inception_4d/1x1
I0403 15:02:55.382185  2585 net.cpp:425] inception_4d/1x1 <- inception_4c/output_inception_4c/output_0_split_0
I0403 15:02:55.382207  2585 net.cpp:399] inception_4d/1x1 -> inception_4d/1x1
I0403 15:02:55.383612  2585 net.cpp:141] Setting up inception_4d/1x1
I0403 15:02:55.383641  2585 net.cpp:148] Top shape: 24 112 14 14 (526848)
I0403 15:02:55.383656  2585 net.cpp:156] Memory required for data: 1113290016
I0403 15:02:55.383674  2585 layer_factory.hpp:77] Creating layer inception_4d/relu_1x1
I0403 15:02:55.383695  2585 net.cpp:91] Creating Layer inception_4d/relu_1x1
I0403 15:02:55.383713  2585 net.cpp:425] inception_4d/relu_1x1 <- inception_4d/1x1
I0403 15:02:55.383729  2585 net.cpp:386] inception_4d/relu_1x1 -> inception_4d/1x1 (in-place)
I0403 15:02:55.383909  2585 net.cpp:141] Setting up inception_4d/relu_1x1
I0403 15:02:55.383934  2585 net.cpp:148] Top shape: 24 112 14 14 (526848)
I0403 15:02:55.383949  2585 net.cpp:156] Memory required for data: 1115397408
I0403 15:02:55.383962  2585 layer_factory.hpp:77] Creating layer inception_4d/3x3_reduce
I0403 15:02:55.383998  2585 net.cpp:91] Creating Layer inception_4d/3x3_reduce
I0403 15:02:55.384017  2585 net.cpp:425] inception_4d/3x3_reduce <- inception_4c/output_inception_4c/output_0_split_1
I0403 15:02:55.384037  2585 net.cpp:399] inception_4d/3x3_reduce -> inception_4d/3x3_reduce
I0403 15:02:55.385520  2585 net.cpp:141] Setting up inception_4d/3x3_reduce
I0403 15:02:55.385548  2585 net.cpp:148] Top shape: 24 144 14 14 (677376)
I0403 15:02:55.385565  2585 net.cpp:156] Memory required for data: 1118106912
I0403 15:02:55.385582  2585 layer_factory.hpp:77] Creating layer inception_4d/relu_3x3_reduce
I0403 15:02:55.385602  2585 net.cpp:91] Creating Layer inception_4d/relu_3x3_reduce
I0403 15:02:55.385618  2585 net.cpp:425] inception_4d/relu_3x3_reduce <- inception_4d/3x3_reduce
I0403 15:02:55.385637  2585 net.cpp:386] inception_4d/relu_3x3_reduce -> inception_4d/3x3_reduce (in-place)
I0403 15:02:55.385931  2585 net.cpp:141] Setting up inception_4d/relu_3x3_reduce
I0403 15:02:55.385957  2585 net.cpp:148] Top shape: 24 144 14 14 (677376)
I0403 15:02:55.385970  2585 net.cpp:156] Memory required for data: 1120816416
I0403 15:02:55.385985  2585 layer_factory.hpp:77] Creating layer inception_4d/3x3
I0403 15:02:55.386008  2585 net.cpp:91] Creating Layer inception_4d/3x3
I0403 15:02:55.386024  2585 net.cpp:425] inception_4d/3x3 <- inception_4d/3x3_reduce
I0403 15:02:55.386045  2585 net.cpp:399] inception_4d/3x3 -> inception_4d/3x3
I0403 15:02:55.390223  2585 net.cpp:141] Setting up inception_4d/3x3
I0403 15:02:55.390254  2585 net.cpp:148] Top shape: 24 288 14 14 (1354752)
I0403 15:02:55.390269  2585 net.cpp:156] Memory required for data: 1126235424
I0403 15:02:55.390290  2585 layer_factory.hpp:77] Creating layer inception_4d/relu_3x3
I0403 15:02:55.390310  2585 net.cpp:91] Creating Layer inception_4d/relu_3x3
I0403 15:02:55.390326  2585 net.cpp:425] inception_4d/relu_3x3 <- inception_4d/3x3
I0403 15:02:55.390344  2585 net.cpp:386] inception_4d/relu_3x3 -> inception_4d/3x3 (in-place)
I0403 15:02:55.390522  2585 net.cpp:141] Setting up inception_4d/relu_3x3
I0403 15:02:55.390548  2585 net.cpp:148] Top shape: 24 288 14 14 (1354752)
I0403 15:02:55.390564  2585 net.cpp:156] Memory required for data: 1131654432
I0403 15:02:55.390579  2585 layer_factory.hpp:77] Creating layer inception_4d/5x5_reduce
I0403 15:02:55.390600  2585 net.cpp:91] Creating Layer inception_4d/5x5_reduce
I0403 15:02:55.390617  2585 net.cpp:425] inception_4d/5x5_reduce <- inception_4c/output_inception_4c/output_0_split_2
I0403 15:02:55.390637  2585 net.cpp:399] inception_4d/5x5_reduce -> inception_4d/5x5_reduce
I0403 15:02:55.391753  2585 net.cpp:141] Setting up inception_4d/5x5_reduce
I0403 15:02:55.391782  2585 net.cpp:148] Top shape: 24 32 14 14 (150528)
I0403 15:02:55.391798  2585 net.cpp:156] Memory required for data: 1132256544
I0403 15:02:55.391816  2585 layer_factory.hpp:77] Creating layer inception_4d/relu_5x5_reduce
I0403 15:02:55.391836  2585 net.cpp:91] Creating Layer inception_4d/relu_5x5_reduce
I0403 15:02:55.391854  2585 net.cpp:425] inception_4d/relu_5x5_reduce <- inception_4d/5x5_reduce
I0403 15:02:55.391870  2585 net.cpp:386] inception_4d/relu_5x5_reduce -> inception_4d/5x5_reduce (in-place)
I0403 15:02:55.392053  2585 net.cpp:141] Setting up inception_4d/relu_5x5_reduce
I0403 15:02:55.392078  2585 net.cpp:148] Top shape: 24 32 14 14 (150528)
I0403 15:02:55.392093  2585 net.cpp:156] Memory required for data: 1132858656
I0403 15:02:55.392108  2585 layer_factory.hpp:77] Creating layer inception_4d/5x5
I0403 15:02:55.392132  2585 net.cpp:91] Creating Layer inception_4d/5x5
I0403 15:02:55.392149  2585 net.cpp:425] inception_4d/5x5 <- inception_4d/5x5_reduce
I0403 15:02:55.392168  2585 net.cpp:399] inception_4d/5x5 -> inception_4d/5x5
I0403 15:02:55.393663  2585 net.cpp:141] Setting up inception_4d/5x5
I0403 15:02:55.393693  2585 net.cpp:148] Top shape: 24 64 14 14 (301056)
I0403 15:02:55.393710  2585 net.cpp:156] Memory required for data: 1134062880
I0403 15:02:55.393729  2585 layer_factory.hpp:77] Creating layer inception_4d/relu_5x5
I0403 15:02:55.393762  2585 net.cpp:91] Creating Layer inception_4d/relu_5x5
I0403 15:02:55.393779  2585 net.cpp:425] inception_4d/relu_5x5 <- inception_4d/5x5
I0403 15:02:55.393800  2585 net.cpp:386] inception_4d/relu_5x5 -> inception_4d/5x5 (in-place)
I0403 15:02:55.394093  2585 net.cpp:141] Setting up inception_4d/relu_5x5
I0403 15:02:55.394122  2585 net.cpp:148] Top shape: 24 64 14 14 (301056)
I0403 15:02:55.394139  2585 net.cpp:156] Memory required for data: 1135267104
I0403 15:02:55.394155  2585 layer_factory.hpp:77] Creating layer inception_4d/pool
I0403 15:02:55.394172  2585 net.cpp:91] Creating Layer inception_4d/pool
I0403 15:02:55.394191  2585 net.cpp:425] inception_4d/pool <- inception_4c/output_inception_4c/output_0_split_3
I0403 15:02:55.394217  2585 net.cpp:399] inception_4d/pool -> inception_4d/pool
I0403 15:02:55.394284  2585 net.cpp:141] Setting up inception_4d/pool
I0403 15:02:55.394309  2585 net.cpp:148] Top shape: 24 512 14 14 (2408448)
I0403 15:02:55.394325  2585 net.cpp:156] Memory required for data: 1144900896
I0403 15:02:55.394340  2585 layer_factory.hpp:77] Creating layer inception_4d/pool_proj
I0403 15:02:55.394361  2585 net.cpp:91] Creating Layer inception_4d/pool_proj
I0403 15:02:55.394378  2585 net.cpp:425] inception_4d/pool_proj <- inception_4d/pool
I0403 15:02:55.394399  2585 net.cpp:399] inception_4d/pool_proj -> inception_4d/pool_proj
I0403 15:02:55.396122  2585 net.cpp:141] Setting up inception_4d/pool_proj
I0403 15:02:55.396152  2585 net.cpp:148] Top shape: 24 64 14 14 (301056)
I0403 15:02:55.396167  2585 net.cpp:156] Memory required for data: 1146105120
I0403 15:02:55.396188  2585 layer_factory.hpp:77] Creating layer inception_4d/relu_pool_proj
I0403 15:02:55.396214  2585 net.cpp:91] Creating Layer inception_4d/relu_pool_proj
I0403 15:02:55.396234  2585 net.cpp:425] inception_4d/relu_pool_proj <- inception_4d/pool_proj
I0403 15:02:55.396253  2585 net.cpp:386] inception_4d/relu_pool_proj -> inception_4d/pool_proj (in-place)
I0403 15:02:55.396436  2585 net.cpp:141] Setting up inception_4d/relu_pool_proj
I0403 15:02:55.396464  2585 net.cpp:148] Top shape: 24 64 14 14 (301056)
I0403 15:02:55.396481  2585 net.cpp:156] Memory required for data: 1147309344
I0403 15:02:55.396495  2585 layer_factory.hpp:77] Creating layer inception_4d/output
I0403 15:02:55.396513  2585 net.cpp:91] Creating Layer inception_4d/output
I0403 15:02:55.396529  2585 net.cpp:425] inception_4d/output <- inception_4d/1x1
I0403 15:02:55.396545  2585 net.cpp:425] inception_4d/output <- inception_4d/3x3
I0403 15:02:55.396561  2585 net.cpp:425] inception_4d/output <- inception_4d/5x5
I0403 15:02:55.396579  2585 net.cpp:425] inception_4d/output <- inception_4d/pool_proj
I0403 15:02:55.396595  2585 net.cpp:399] inception_4d/output -> inception_4d/output
I0403 15:02:55.396643  2585 net.cpp:141] Setting up inception_4d/output
I0403 15:02:55.396667  2585 net.cpp:148] Top shape: 24 528 14 14 (2483712)
I0403 15:02:55.396682  2585 net.cpp:156] Memory required for data: 1157244192
I0403 15:02:55.396697  2585 layer_factory.hpp:77] Creating layer inception_4d/output_inception_4d/output_0_split
I0403 15:02:55.396716  2585 net.cpp:91] Creating Layer inception_4d/output_inception_4d/output_0_split
I0403 15:02:55.396733  2585 net.cpp:425] inception_4d/output_inception_4d/output_0_split <- inception_4d/output
I0403 15:02:55.396751  2585 net.cpp:399] inception_4d/output_inception_4d/output_0_split -> inception_4d/output_inception_4d/output_0_split_0
I0403 15:02:55.396772  2585 net.cpp:399] inception_4d/output_inception_4d/output_0_split -> inception_4d/output_inception_4d/output_0_split_1
I0403 15:02:55.396793  2585 net.cpp:399] inception_4d/output_inception_4d/output_0_split -> inception_4d/output_inception_4d/output_0_split_2
I0403 15:02:55.396816  2585 net.cpp:399] inception_4d/output_inception_4d/output_0_split -> inception_4d/output_inception_4d/output_0_split_3
I0403 15:02:55.396836  2585 net.cpp:399] inception_4d/output_inception_4d/output_0_split -> inception_4d/output_inception_4d/output_0_split_4
I0403 15:02:55.396939  2585 net.cpp:141] Setting up inception_4d/output_inception_4d/output_0_split
I0403 15:02:55.396972  2585 net.cpp:148] Top shape: 24 528 14 14 (2483712)
I0403 15:02:55.396991  2585 net.cpp:148] Top shape: 24 528 14 14 (2483712)
I0403 15:02:55.397006  2585 net.cpp:148] Top shape: 24 528 14 14 (2483712)
I0403 15:02:55.397020  2585 net.cpp:148] Top shape: 24 528 14 14 (2483712)
I0403 15:02:55.397035  2585 net.cpp:148] Top shape: 24 528 14 14 (2483712)
I0403 15:02:55.397048  2585 net.cpp:156] Memory required for data: 1206918432
I0403 15:02:55.397063  2585 layer_factory.hpp:77] Creating layer loss2/ave_pool
I0403 15:02:55.397083  2585 net.cpp:91] Creating Layer loss2/ave_pool
I0403 15:02:55.397099  2585 net.cpp:425] loss2/ave_pool <- inception_4d/output_inception_4d/output_0_split_0
I0403 15:02:55.397117  2585 net.cpp:399] loss2/ave_pool -> loss2/ave_pool
I0403 15:02:55.397426  2585 net.cpp:141] Setting up loss2/ave_pool
I0403 15:02:55.397452  2585 net.cpp:148] Top shape: 24 528 4 4 (202752)
I0403 15:02:55.397467  2585 net.cpp:156] Memory required for data: 1207729440
I0403 15:02:55.397482  2585 layer_factory.hpp:77] Creating layer loss2/conv
I0403 15:02:55.397505  2585 net.cpp:91] Creating Layer loss2/conv
I0403 15:02:55.397522  2585 net.cpp:425] loss2/conv <- loss2/ave_pool
I0403 15:02:55.397543  2585 net.cpp:399] loss2/conv -> loss2/conv
I0403 15:02:55.399431  2585 net.cpp:141] Setting up loss2/conv
I0403 15:02:55.399463  2585 net.cpp:148] Top shape: 24 128 4 4 (49152)
I0403 15:02:55.399480  2585 net.cpp:156] Memory required for data: 1207926048
I0403 15:02:55.399499  2585 layer_factory.hpp:77] Creating layer loss2/relu_conv
I0403 15:02:55.399518  2585 net.cpp:91] Creating Layer loss2/relu_conv
I0403 15:02:55.399533  2585 net.cpp:425] loss2/relu_conv <- loss2/conv
I0403 15:02:55.399552  2585 net.cpp:386] loss2/relu_conv -> loss2/conv (in-place)
I0403 15:02:55.399830  2585 net.cpp:141] Setting up loss2/relu_conv
I0403 15:02:55.399860  2585 net.cpp:148] Top shape: 24 128 4 4 (49152)
I0403 15:02:55.399878  2585 net.cpp:156] Memory required for data: 1208122656
I0403 15:02:55.399891  2585 layer_factory.hpp:77] Creating layer loss2/fc
I0403 15:02:55.399911  2585 net.cpp:91] Creating Layer loss2/fc
I0403 15:02:55.399927  2585 net.cpp:425] loss2/fc <- loss2/conv
I0403 15:02:55.399947  2585 net.cpp:399] loss2/fc -> loss2/fc
I0403 15:02:55.417258  2585 net.cpp:141] Setting up loss2/fc
I0403 15:02:55.417295  2585 net.cpp:148] Top shape: 24 1024 (24576)
I0403 15:02:55.417314  2585 net.cpp:156] Memory required for data: 1208220960
I0403 15:02:55.417332  2585 layer_factory.hpp:77] Creating layer loss2/relu_fc
I0403 15:02:55.417351  2585 net.cpp:91] Creating Layer loss2/relu_fc
I0403 15:02:55.417366  2585 net.cpp:425] loss2/relu_fc <- loss2/fc
I0403 15:02:55.417384  2585 net.cpp:386] loss2/relu_fc -> loss2/fc (in-place)
I0403 15:02:55.417681  2585 net.cpp:141] Setting up loss2/relu_fc
I0403 15:02:55.417706  2585 net.cpp:148] Top shape: 24 1024 (24576)
I0403 15:02:55.417721  2585 net.cpp:156] Memory required for data: 1208319264
I0403 15:02:55.417735  2585 layer_factory.hpp:77] Creating layer loss2/drop_fc
I0403 15:02:55.417755  2585 net.cpp:91] Creating Layer loss2/drop_fc
I0403 15:02:55.417771  2585 net.cpp:425] loss2/drop_fc <- loss2/fc
I0403 15:02:55.417788  2585 net.cpp:386] loss2/drop_fc -> loss2/fc (in-place)
I0403 15:02:55.417839  2585 net.cpp:141] Setting up loss2/drop_fc
I0403 15:02:55.417861  2585 net.cpp:148] Top shape: 24 1024 (24576)
I0403 15:02:55.417876  2585 net.cpp:156] Memory required for data: 1208417568
I0403 15:02:55.417889  2585 layer_factory.hpp:77] Creating layer loss2/classifier_plantvillage
I0403 15:02:55.417909  2585 net.cpp:91] Creating Layer loss2/classifier_plantvillage
I0403 15:02:55.417927  2585 net.cpp:425] loss2/classifier_plantvillage <- loss2/fc
I0403 15:02:55.417944  2585 net.cpp:399] loss2/classifier_plantvillage -> loss2/classifier_plantvillage
I0403 15:02:55.418345  2585 net.cpp:141] Setting up loss2/classifier_plantvillage
I0403 15:02:55.418370  2585 net.cpp:148] Top shape: 24 38 (912)
I0403 15:02:55.418401  2585 net.cpp:156] Memory required for data: 1208421216
I0403 15:02:55.418421  2585 layer_factory.hpp:77] Creating layer loss2/classifier_plantvillage_loss2/classifier_plantvillage_0_split
I0403 15:02:55.418438  2585 net.cpp:91] Creating Layer loss2/classifier_plantvillage_loss2/classifier_plantvillage_0_split
I0403 15:02:55.418454  2585 net.cpp:425] loss2/classifier_plantvillage_loss2/classifier_plantvillage_0_split <- loss2/classifier_plantvillage
I0403 15:02:55.418473  2585 net.cpp:399] loss2/classifier_plantvillage_loss2/classifier_plantvillage_0_split -> loss2/classifier_plantvillage_loss2/classifier_plantvillage_0_split_0
I0403 15:02:55.418494  2585 net.cpp:399] loss2/classifier_plantvillage_loss2/classifier_plantvillage_0_split -> loss2/classifier_plantvillage_loss2/classifier_plantvillage_0_split_1
I0403 15:02:55.418514  2585 net.cpp:399] loss2/classifier_plantvillage_loss2/classifier_plantvillage_0_split -> loss2/classifier_plantvillage_loss2/classifier_plantvillage_0_split_2
I0403 15:02:55.418589  2585 net.cpp:141] Setting up loss2/classifier_plantvillage_loss2/classifier_plantvillage_0_split
I0403 15:02:55.418614  2585 net.cpp:148] Top shape: 24 38 (912)
I0403 15:02:55.418632  2585 net.cpp:148] Top shape: 24 38 (912)
I0403 15:02:55.418647  2585 net.cpp:148] Top shape: 24 38 (912)
I0403 15:02:55.418660  2585 net.cpp:156] Memory required for data: 1208432160
I0403 15:02:55.418673  2585 layer_factory.hpp:77] Creating layer inception_4e/1x1
I0403 15:02:55.418695  2585 net.cpp:91] Creating Layer inception_4e/1x1
I0403 15:02:55.418712  2585 net.cpp:425] inception_4e/1x1 <- inception_4d/output_inception_4d/output_0_split_1
I0403 15:02:55.418730  2585 net.cpp:399] inception_4e/1x1 -> inception_4e/1x1
I0403 15:02:55.420547  2585 net.cpp:141] Setting up inception_4e/1x1
I0403 15:02:55.420578  2585 net.cpp:148] Top shape: 24 256 14 14 (1204224)
I0403 15:02:55.420595  2585 net.cpp:156] Memory required for data: 1213249056
I0403 15:02:55.420614  2585 layer_factory.hpp:77] Creating layer inception_4e/relu_1x1
I0403 15:02:55.420632  2585 net.cpp:91] Creating Layer inception_4e/relu_1x1
I0403 15:02:55.420650  2585 net.cpp:425] inception_4e/relu_1x1 <- inception_4e/1x1
I0403 15:02:55.420670  2585 net.cpp:386] inception_4e/relu_1x1 -> inception_4e/1x1 (in-place)
I0403 15:02:55.420956  2585 net.cpp:141] Setting up inception_4e/relu_1x1
I0403 15:02:55.420985  2585 net.cpp:148] Top shape: 24 256 14 14 (1204224)
I0403 15:02:55.421001  2585 net.cpp:156] Memory required for data: 1218065952
I0403 15:02:55.421016  2585 layer_factory.hpp:77] Creating layer inception_4e/3x3_reduce
I0403 15:02:55.421039  2585 net.cpp:91] Creating Layer inception_4e/3x3_reduce
I0403 15:02:55.421057  2585 net.cpp:425] inception_4e/3x3_reduce <- inception_4d/output_inception_4d/output_0_split_2
I0403 15:02:55.421077  2585 net.cpp:399] inception_4e/3x3_reduce -> inception_4e/3x3_reduce
I0403 15:02:55.423146  2585 net.cpp:141] Setting up inception_4e/3x3_reduce
I0403 15:02:55.423177  2585 net.cpp:148] Top shape: 24 160 14 14 (752640)
I0403 15:02:55.423193  2585 net.cpp:156] Memory required for data: 1221076512
I0403 15:02:55.423223  2585 layer_factory.hpp:77] Creating layer inception_4e/relu_3x3_reduce
I0403 15:02:55.423244  2585 net.cpp:91] Creating Layer inception_4e/relu_3x3_reduce
I0403 15:02:55.423262  2585 net.cpp:425] inception_4e/relu_3x3_reduce <- inception_4e/3x3_reduce
I0403 15:02:55.423281  2585 net.cpp:386] inception_4e/relu_3x3_reduce -> inception_4e/3x3_reduce (in-place)
I0403 15:02:55.423467  2585 net.cpp:141] Setting up inception_4e/relu_3x3_reduce
I0403 15:02:55.423491  2585 net.cpp:148] Top shape: 24 160 14 14 (752640)
I0403 15:02:55.423506  2585 net.cpp:156] Memory required for data: 1224087072
I0403 15:02:55.423519  2585 layer_factory.hpp:77] Creating layer inception_4e/3x3
I0403 15:02:55.423542  2585 net.cpp:91] Creating Layer inception_4e/3x3
I0403 15:02:55.423558  2585 net.cpp:425] inception_4e/3x3 <- inception_4e/3x3_reduce
I0403 15:02:55.423579  2585 net.cpp:399] inception_4e/3x3 -> inception_4e/3x3
I0403 15:02:55.428669  2585 net.cpp:141] Setting up inception_4e/3x3
I0403 15:02:55.428712  2585 net.cpp:148] Top shape: 24 320 14 14 (1505280)
I0403 15:02:55.428730  2585 net.cpp:156] Memory required for data: 1230108192
I0403 15:02:55.428750  2585 layer_factory.hpp:77] Creating layer inception_4e/relu_3x3
I0403 15:02:55.428768  2585 net.cpp:91] Creating Layer inception_4e/relu_3x3
I0403 15:02:55.428788  2585 net.cpp:425] inception_4e/relu_3x3 <- inception_4e/3x3
I0403 15:02:55.428807  2585 net.cpp:386] inception_4e/relu_3x3 -> inception_4e/3x3 (in-place)
I0403 15:02:55.429107  2585 net.cpp:141] Setting up inception_4e/relu_3x3
I0403 15:02:55.429134  2585 net.cpp:148] Top shape: 24 320 14 14 (1505280)
I0403 15:02:55.429150  2585 net.cpp:156] Memory required for data: 1236129312
I0403 15:02:55.429167  2585 layer_factory.hpp:77] Creating layer inception_4e/5x5_reduce
I0403 15:02:55.429189  2585 net.cpp:91] Creating Layer inception_4e/5x5_reduce
I0403 15:02:55.429208  2585 net.cpp:425] inception_4e/5x5_reduce <- inception_4d/output_inception_4d/output_0_split_3
I0403 15:02:55.429234  2585 net.cpp:399] inception_4e/5x5_reduce -> inception_4e/5x5_reduce
I0403 15:02:55.430311  2585 net.cpp:141] Setting up inception_4e/5x5_reduce
I0403 15:02:55.430341  2585 net.cpp:148] Top shape: 24 32 14 14 (150528)
I0403 15:02:55.430358  2585 net.cpp:156] Memory required for data: 1236731424
I0403 15:02:55.430377  2585 layer_factory.hpp:77] Creating layer inception_4e/relu_5x5_reduce
I0403 15:02:55.430395  2585 net.cpp:91] Creating Layer inception_4e/relu_5x5_reduce
I0403 15:02:55.430411  2585 net.cpp:425] inception_4e/relu_5x5_reduce <- inception_4e/5x5_reduce
I0403 15:02:55.430431  2585 net.cpp:386] inception_4e/relu_5x5_reduce -> inception_4e/5x5_reduce (in-place)
I0403 15:02:55.430728  2585 net.cpp:141] Setting up inception_4e/relu_5x5_reduce
I0403 15:02:55.430757  2585 net.cpp:148] Top shape: 24 32 14 14 (150528)
I0403 15:02:55.430773  2585 net.cpp:156] Memory required for data: 1237333536
I0403 15:02:55.430789  2585 layer_factory.hpp:77] Creating layer inception_4e/5x5
I0403 15:02:55.430829  2585 net.cpp:91] Creating Layer inception_4e/5x5
I0403 15:02:55.430848  2585 net.cpp:425] inception_4e/5x5 <- inception_4e/5x5_reduce
I0403 15:02:55.430867  2585 net.cpp:399] inception_4e/5x5 -> inception_4e/5x5
I0403 15:02:55.432729  2585 net.cpp:141] Setting up inception_4e/5x5
I0403 15:02:55.432757  2585 net.cpp:148] Top shape: 24 128 14 14 (602112)
I0403 15:02:55.432775  2585 net.cpp:156] Memory required for data: 1239741984
I0403 15:02:55.432795  2585 layer_factory.hpp:77] Creating layer inception_4e/relu_5x5
I0403 15:02:55.432816  2585 net.cpp:91] Creating Layer inception_4e/relu_5x5
I0403 15:02:55.432832  2585 net.cpp:425] inception_4e/relu_5x5 <- inception_4e/5x5
I0403 15:02:55.432852  2585 net.cpp:386] inception_4e/relu_5x5 -> inception_4e/5x5 (in-place)
I0403 15:02:55.433051  2585 net.cpp:141] Setting up inception_4e/relu_5x5
I0403 15:02:55.433081  2585 net.cpp:148] Top shape: 24 128 14 14 (602112)
I0403 15:02:55.433097  2585 net.cpp:156] Memory required for data: 1242150432
I0403 15:02:55.433112  2585 layer_factory.hpp:77] Creating layer inception_4e/pool
I0403 15:02:55.433130  2585 net.cpp:91] Creating Layer inception_4e/pool
I0403 15:02:55.433147  2585 net.cpp:425] inception_4e/pool <- inception_4d/output_inception_4d/output_0_split_4
I0403 15:02:55.433167  2585 net.cpp:399] inception_4e/pool -> inception_4e/pool
I0403 15:02:55.433253  2585 net.cpp:141] Setting up inception_4e/pool
I0403 15:02:55.433277  2585 net.cpp:148] Top shape: 24 528 14 14 (2483712)
I0403 15:02:55.433292  2585 net.cpp:156] Memory required for data: 1252085280
I0403 15:02:55.433308  2585 layer_factory.hpp:77] Creating layer inception_4e/pool_proj
I0403 15:02:55.433331  2585 net.cpp:91] Creating Layer inception_4e/pool_proj
I0403 15:02:55.433351  2585 net.cpp:425] inception_4e/pool_proj <- inception_4e/pool
I0403 15:02:55.433368  2585 net.cpp:399] inception_4e/pool_proj -> inception_4e/pool_proj
I0403 15:02:55.434888  2585 net.cpp:141] Setting up inception_4e/pool_proj
I0403 15:02:55.434928  2585 net.cpp:148] Top shape: 24 128 14 14 (602112)
I0403 15:02:55.434945  2585 net.cpp:156] Memory required for data: 1254493728
I0403 15:02:55.434967  2585 layer_factory.hpp:77] Creating layer inception_4e/relu_pool_proj
I0403 15:02:55.434988  2585 net.cpp:91] Creating Layer inception_4e/relu_pool_proj
I0403 15:02:55.435008  2585 net.cpp:425] inception_4e/relu_pool_proj <- inception_4e/pool_proj
I0403 15:02:55.435025  2585 net.cpp:386] inception_4e/relu_pool_proj -> inception_4e/pool_proj (in-place)
I0403 15:02:55.435323  2585 net.cpp:141] Setting up inception_4e/relu_pool_proj
I0403 15:02:55.435351  2585 net.cpp:148] Top shape: 24 128 14 14 (602112)
I0403 15:02:55.435367  2585 net.cpp:156] Memory required for data: 1256902176
I0403 15:02:55.435382  2585 layer_factory.hpp:77] Creating layer inception_4e/output
I0403 15:02:55.435405  2585 net.cpp:91] Creating Layer inception_4e/output
I0403 15:02:55.435422  2585 net.cpp:425] inception_4e/output <- inception_4e/1x1
I0403 15:02:55.435441  2585 net.cpp:425] inception_4e/output <- inception_4e/3x3
I0403 15:02:55.435457  2585 net.cpp:425] inception_4e/output <- inception_4e/5x5
I0403 15:02:55.435475  2585 net.cpp:425] inception_4e/output <- inception_4e/pool_proj
I0403 15:02:55.435492  2585 net.cpp:399] inception_4e/output -> inception_4e/output
I0403 15:02:55.435544  2585 net.cpp:141] Setting up inception_4e/output
I0403 15:02:55.435567  2585 net.cpp:148] Top shape: 24 832 14 14 (3913728)
I0403 15:02:55.435581  2585 net.cpp:156] Memory required for data: 1272557088
I0403 15:02:55.435596  2585 layer_factory.hpp:77] Creating layer pool4/3x3_s2
I0403 15:02:55.435614  2585 net.cpp:91] Creating Layer pool4/3x3_s2
I0403 15:02:55.435631  2585 net.cpp:425] pool4/3x3_s2 <- inception_4e/output
I0403 15:02:55.435650  2585 net.cpp:399] pool4/3x3_s2 -> pool4/3x3_s2
I0403 15:02:55.435717  2585 net.cpp:141] Setting up pool4/3x3_s2
I0403 15:02:55.435741  2585 net.cpp:148] Top shape: 24 832 7 7 (978432)
I0403 15:02:55.435755  2585 net.cpp:156] Memory required for data: 1276470816
I0403 15:02:55.435770  2585 layer_factory.hpp:77] Creating layer pool4/3x3_s2_pool4/3x3_s2_0_split
I0403 15:02:55.435791  2585 net.cpp:91] Creating Layer pool4/3x3_s2_pool4/3x3_s2_0_split
I0403 15:02:55.435807  2585 net.cpp:425] pool4/3x3_s2_pool4/3x3_s2_0_split <- pool4/3x3_s2
I0403 15:02:55.435828  2585 net.cpp:399] pool4/3x3_s2_pool4/3x3_s2_0_split -> pool4/3x3_s2_pool4/3x3_s2_0_split_0
I0403 15:02:55.435849  2585 net.cpp:399] pool4/3x3_s2_pool4/3x3_s2_0_split -> pool4/3x3_s2_pool4/3x3_s2_0_split_1
I0403 15:02:55.435869  2585 net.cpp:399] pool4/3x3_s2_pool4/3x3_s2_0_split -> pool4/3x3_s2_pool4/3x3_s2_0_split_2
I0403 15:02:55.435890  2585 net.cpp:399] pool4/3x3_s2_pool4/3x3_s2_0_split -> pool4/3x3_s2_pool4/3x3_s2_0_split_3
I0403 15:02:55.435981  2585 net.cpp:141] Setting up pool4/3x3_s2_pool4/3x3_s2_0_split
I0403 15:02:55.436003  2585 net.cpp:148] Top shape: 24 832 7 7 (978432)
I0403 15:02:55.436020  2585 net.cpp:148] Top shape: 24 832 7 7 (978432)
I0403 15:02:55.436036  2585 net.cpp:148] Top shape: 24 832 7 7 (978432)
I0403 15:02:55.436053  2585 net.cpp:148] Top shape: 24 832 7 7 (978432)
I0403 15:02:55.436067  2585 net.cpp:156] Memory required for data: 1292125728
I0403 15:02:55.436081  2585 layer_factory.hpp:77] Creating layer inception_5a/1x1
I0403 15:02:55.436105  2585 net.cpp:91] Creating Layer inception_5a/1x1
I0403 15:02:55.436121  2585 net.cpp:425] inception_5a/1x1 <- pool4/3x3_s2_pool4/3x3_s2_0_split_0
I0403 15:02:55.436146  2585 net.cpp:399] inception_5a/1x1 -> inception_5a/1x1
I0403 15:02:55.439013  2585 net.cpp:141] Setting up inception_5a/1x1
I0403 15:02:55.439045  2585 net.cpp:148] Top shape: 24 256 7 7 (301056)
I0403 15:02:55.439062  2585 net.cpp:156] Memory required for data: 1293329952
I0403 15:02:55.439082  2585 layer_factory.hpp:77] Creating layer inception_5a/relu_1x1
I0403 15:02:55.439100  2585 net.cpp:91] Creating Layer inception_5a/relu_1x1
I0403 15:02:55.439117  2585 net.cpp:425] inception_5a/relu_1x1 <- inception_5a/1x1
I0403 15:02:55.439134  2585 net.cpp:386] inception_5a/relu_1x1 -> inception_5a/1x1 (in-place)
I0403 15:02:55.439455  2585 net.cpp:141] Setting up inception_5a/relu_1x1
I0403 15:02:55.439484  2585 net.cpp:148] Top shape: 24 256 7 7 (301056)
I0403 15:02:55.439501  2585 net.cpp:156] Memory required for data: 1294534176
I0403 15:02:55.439515  2585 layer_factory.hpp:77] Creating layer inception_5a/3x3_reduce
I0403 15:02:55.439538  2585 net.cpp:91] Creating Layer inception_5a/3x3_reduce
I0403 15:02:55.439555  2585 net.cpp:425] inception_5a/3x3_reduce <- pool4/3x3_s2_pool4/3x3_s2_0_split_1
I0403 15:02:55.439574  2585 net.cpp:399] inception_5a/3x3_reduce -> inception_5a/3x3_reduce
I0403 15:02:55.442049  2585 net.cpp:141] Setting up inception_5a/3x3_reduce
I0403 15:02:55.442080  2585 net.cpp:148] Top shape: 24 160 7 7 (188160)
I0403 15:02:55.442098  2585 net.cpp:156] Memory required for data: 1295286816
I0403 15:02:55.442117  2585 layer_factory.hpp:77] Creating layer inception_5a/relu_3x3_reduce
I0403 15:02:55.442138  2585 net.cpp:91] Creating Layer inception_5a/relu_3x3_reduce
I0403 15:02:55.442155  2585 net.cpp:425] inception_5a/relu_3x3_reduce <- inception_5a/3x3_reduce
I0403 15:02:55.442173  2585 net.cpp:386] inception_5a/relu_3x3_reduce -> inception_5a/3x3_reduce (in-place)
I0403 15:02:55.442364  2585 net.cpp:141] Setting up inception_5a/relu_3x3_reduce
I0403 15:02:55.442389  2585 net.cpp:148] Top shape: 24 160 7 7 (188160)
I0403 15:02:55.442407  2585 net.cpp:156] Memory required for data: 1296039456
I0403 15:02:55.442425  2585 layer_factory.hpp:77] Creating layer inception_5a/3x3
I0403 15:02:55.442445  2585 net.cpp:91] Creating Layer inception_5a/3x3
I0403 15:02:55.442461  2585 net.cpp:425] inception_5a/3x3 <- inception_5a/3x3_reduce
I0403 15:02:55.442484  2585 net.cpp:399] inception_5a/3x3 -> inception_5a/3x3
I0403 15:02:55.447556  2585 net.cpp:141] Setting up inception_5a/3x3
I0403 15:02:55.447588  2585 net.cpp:148] Top shape: 24 320 7 7 (376320)
I0403 15:02:55.447607  2585 net.cpp:156] Memory required for data: 1297544736
I0403 15:02:55.447626  2585 layer_factory.hpp:77] Creating layer inception_5a/relu_3x3
I0403 15:02:55.447648  2585 net.cpp:91] Creating Layer inception_5a/relu_3x3
I0403 15:02:55.447664  2585 net.cpp:425] inception_5a/relu_3x3 <- inception_5a/3x3
I0403 15:02:55.447682  2585 net.cpp:386] inception_5a/relu_3x3 -> inception_5a/3x3 (in-place)
I0403 15:02:55.447985  2585 net.cpp:141] Setting up inception_5a/relu_3x3
I0403 15:02:55.448011  2585 net.cpp:148] Top shape: 24 320 7 7 (376320)
I0403 15:02:55.448026  2585 net.cpp:156] Memory required for data: 1299050016
I0403 15:02:55.448042  2585 layer_factory.hpp:77] Creating layer inception_5a/5x5_reduce
I0403 15:02:55.448067  2585 net.cpp:91] Creating Layer inception_5a/5x5_reduce
I0403 15:02:55.448086  2585 net.cpp:425] inception_5a/5x5_reduce <- pool4/3x3_s2_pool4/3x3_s2_0_split_2
I0403 15:02:55.448107  2585 net.cpp:399] inception_5a/5x5_reduce -> inception_5a/5x5_reduce
I0403 15:02:55.449300  2585 net.cpp:141] Setting up inception_5a/5x5_reduce
I0403 15:02:55.449331  2585 net.cpp:148] Top shape: 24 32 7 7 (37632)
I0403 15:02:55.449350  2585 net.cpp:156] Memory required for data: 1299200544
I0403 15:02:55.449370  2585 layer_factory.hpp:77] Creating layer inception_5a/relu_5x5_reduce
I0403 15:02:55.449388  2585 net.cpp:91] Creating Layer inception_5a/relu_5x5_reduce
I0403 15:02:55.449405  2585 net.cpp:425] inception_5a/relu_5x5_reduce <- inception_5a/5x5_reduce
I0403 15:02:55.449424  2585 net.cpp:386] inception_5a/relu_5x5_reduce -> inception_5a/5x5_reduce (in-place)
I0403 15:02:55.449729  2585 net.cpp:141] Setting up inception_5a/relu_5x5_reduce
I0403 15:02:55.449759  2585 net.cpp:148] Top shape: 24 32 7 7 (37632)
I0403 15:02:55.449777  2585 net.cpp:156] Memory required for data: 1299351072
I0403 15:02:55.449793  2585 layer_factory.hpp:77] Creating layer inception_5a/5x5
I0403 15:02:55.449817  2585 net.cpp:91] Creating Layer inception_5a/5x5
I0403 15:02:55.449836  2585 net.cpp:425] inception_5a/5x5 <- inception_5a/5x5_reduce
I0403 15:02:55.449856  2585 net.cpp:399] inception_5a/5x5 -> inception_5a/5x5
I0403 15:02:55.451588  2585 net.cpp:141] Setting up inception_5a/5x5
I0403 15:02:55.451632  2585 net.cpp:148] Top shape: 24 128 7 7 (150528)
I0403 15:02:55.451648  2585 net.cpp:156] Memory required for data: 1299953184
I0403 15:02:55.451668  2585 layer_factory.hpp:77] Creating layer inception_5a/relu_5x5
I0403 15:02:55.451691  2585 net.cpp:91] Creating Layer inception_5a/relu_5x5
I0403 15:02:55.451709  2585 net.cpp:425] inception_5a/relu_5x5 <- inception_5a/5x5
I0403 15:02:55.451730  2585 net.cpp:386] inception_5a/relu_5x5 -> inception_5a/5x5 (in-place)
I0403 15:02:55.451923  2585 net.cpp:141] Setting up inception_5a/relu_5x5
I0403 15:02:55.451951  2585 net.cpp:148] Top shape: 24 128 7 7 (150528)
I0403 15:02:55.451967  2585 net.cpp:156] Memory required for data: 1300555296
I0403 15:02:55.451982  2585 layer_factory.hpp:77] Creating layer inception_5a/pool
I0403 15:02:55.452002  2585 net.cpp:91] Creating Layer inception_5a/pool
I0403 15:02:55.452018  2585 net.cpp:425] inception_5a/pool <- pool4/3x3_s2_pool4/3x3_s2_0_split_3
I0403 15:02:55.452039  2585 net.cpp:399] inception_5a/pool -> inception_5a/pool
I0403 15:02:55.452111  2585 net.cpp:141] Setting up inception_5a/pool
I0403 15:02:55.452136  2585 net.cpp:148] Top shape: 24 832 7 7 (978432)
I0403 15:02:55.452150  2585 net.cpp:156] Memory required for data: 1304469024
I0403 15:02:55.452165  2585 layer_factory.hpp:77] Creating layer inception_5a/pool_proj
I0403 15:02:55.452188  2585 net.cpp:91] Creating Layer inception_5a/pool_proj
I0403 15:02:55.452206  2585 net.cpp:425] inception_5a/pool_proj <- inception_5a/pool
I0403 15:02:55.452230  2585 net.cpp:399] inception_5a/pool_proj -> inception_5a/pool_proj
I0403 15:02:55.454543  2585 net.cpp:141] Setting up inception_5a/pool_proj
I0403 15:02:55.454576  2585 net.cpp:148] Top shape: 24 128 7 7 (150528)
I0403 15:02:55.454592  2585 net.cpp:156] Memory required for data: 1305071136
I0403 15:02:55.454612  2585 layer_factory.hpp:77] Creating layer inception_5a/relu_pool_proj
I0403 15:02:55.454633  2585 net.cpp:91] Creating Layer inception_5a/relu_pool_proj
I0403 15:02:55.454651  2585 net.cpp:425] inception_5a/relu_pool_proj <- inception_5a/pool_proj
I0403 15:02:55.454670  2585 net.cpp:386] inception_5a/relu_pool_proj -> inception_5a/pool_proj (in-place)
I0403 15:02:55.454972  2585 net.cpp:141] Setting up inception_5a/relu_pool_proj
I0403 15:02:55.455000  2585 net.cpp:148] Top shape: 24 128 7 7 (150528)
I0403 15:02:55.455018  2585 net.cpp:156] Memory required for data: 1305673248
I0403 15:02:55.455034  2585 layer_factory.hpp:77] Creating layer inception_5a/output
I0403 15:02:55.455056  2585 net.cpp:91] Creating Layer inception_5a/output
I0403 15:02:55.455073  2585 net.cpp:425] inception_5a/output <- inception_5a/1x1
I0403 15:02:55.455091  2585 net.cpp:425] inception_5a/output <- inception_5a/3x3
I0403 15:02:55.455109  2585 net.cpp:425] inception_5a/output <- inception_5a/5x5
I0403 15:02:55.455127  2585 net.cpp:425] inception_5a/output <- inception_5a/pool_proj
I0403 15:02:55.455145  2585 net.cpp:399] inception_5a/output -> inception_5a/output
I0403 15:02:55.455198  2585 net.cpp:141] Setting up inception_5a/output
I0403 15:02:55.455225  2585 net.cpp:148] Top shape: 24 832 7 7 (978432)
I0403 15:02:55.455241  2585 net.cpp:156] Memory required for data: 1309586976
I0403 15:02:55.455256  2585 layer_factory.hpp:77] Creating layer inception_5a/output_inception_5a/output_0_split
I0403 15:02:55.455273  2585 net.cpp:91] Creating Layer inception_5a/output_inception_5a/output_0_split
I0403 15:02:55.455288  2585 net.cpp:425] inception_5a/output_inception_5a/output_0_split <- inception_5a/output
I0403 15:02:55.455308  2585 net.cpp:399] inception_5a/output_inception_5a/output_0_split -> inception_5a/output_inception_5a/output_0_split_0
I0403 15:02:55.455329  2585 net.cpp:399] inception_5a/output_inception_5a/output_0_split -> inception_5a/output_inception_5a/output_0_split_1
I0403 15:02:55.455350  2585 net.cpp:399] inception_5a/output_inception_5a/output_0_split -> inception_5a/output_inception_5a/output_0_split_2
I0403 15:02:55.455371  2585 net.cpp:399] inception_5a/output_inception_5a/output_0_split -> inception_5a/output_inception_5a/output_0_split_3
I0403 15:02:55.455485  2585 net.cpp:141] Setting up inception_5a/output_inception_5a/output_0_split
I0403 15:02:55.455513  2585 net.cpp:148] Top shape: 24 832 7 7 (978432)
I0403 15:02:55.455529  2585 net.cpp:148] Top shape: 24 832 7 7 (978432)
I0403 15:02:55.455545  2585 net.cpp:148] Top shape: 24 832 7 7 (978432)
I0403 15:02:55.455561  2585 net.cpp:148] Top shape: 24 832 7 7 (978432)
I0403 15:02:55.455574  2585 net.cpp:156] Memory required for data: 1325241888
I0403 15:02:55.455590  2585 layer_factory.hpp:77] Creating layer inception_5b/1x1
I0403 15:02:55.455612  2585 net.cpp:91] Creating Layer inception_5b/1x1
I0403 15:02:55.455631  2585 net.cpp:425] inception_5b/1x1 <- inception_5a/output_inception_5a/output_0_split_0
I0403 15:02:55.455649  2585 net.cpp:399] inception_5b/1x1 -> inception_5b/1x1
I0403 15:02:55.459463  2585 net.cpp:141] Setting up inception_5b/1x1
I0403 15:02:55.459494  2585 net.cpp:148] Top shape: 24 384 7 7 (451584)
I0403 15:02:55.459511  2585 net.cpp:156] Memory required for data: 1327048224
I0403 15:02:55.459530  2585 layer_factory.hpp:77] Creating layer inception_5b/relu_1x1
I0403 15:02:55.459552  2585 net.cpp:91] Creating Layer inception_5b/relu_1x1
I0403 15:02:55.459569  2585 net.cpp:425] inception_5b/relu_1x1 <- inception_5b/1x1
I0403 15:02:55.459589  2585 net.cpp:386] inception_5b/relu_1x1 -> inception_5b/1x1 (in-place)
I0403 15:02:55.459910  2585 net.cpp:141] Setting up inception_5b/relu_1x1
I0403 15:02:55.459938  2585 net.cpp:148] Top shape: 24 384 7 7 (451584)
I0403 15:02:55.459952  2585 net.cpp:156] Memory required for data: 1328854560
I0403 15:02:55.459967  2585 layer_factory.hpp:77] Creating layer inception_5b/3x3_reduce
I0403 15:02:55.459990  2585 net.cpp:91] Creating Layer inception_5b/3x3_reduce
I0403 15:02:55.460007  2585 net.cpp:425] inception_5b/3x3_reduce <- inception_5a/output_inception_5a/output_0_split_1
I0403 15:02:55.460031  2585 net.cpp:399] inception_5b/3x3_reduce -> inception_5b/3x3_reduce
I0403 15:02:55.462767  2585 net.cpp:141] Setting up inception_5b/3x3_reduce
I0403 15:02:55.462797  2585 net.cpp:148] Top shape: 24 192 7 7 (225792)
I0403 15:02:55.462812  2585 net.cpp:156] Memory required for data: 1329757728
I0403 15:02:55.462831  2585 layer_factory.hpp:77] Creating layer inception_5b/relu_3x3_reduce
I0403 15:02:55.462852  2585 net.cpp:91] Creating Layer inception_5b/relu_3x3_reduce
I0403 15:02:55.462869  2585 net.cpp:425] inception_5b/relu_3x3_reduce <- inception_5b/3x3_reduce
I0403 15:02:55.462887  2585 net.cpp:386] inception_5b/relu_3x3_reduce -> inception_5b/3x3_reduce (in-place)
I0403 15:02:55.463080  2585 net.cpp:141] Setting up inception_5b/relu_3x3_reduce
I0403 15:02:55.463105  2585 net.cpp:148] Top shape: 24 192 7 7 (225792)
I0403 15:02:55.463120  2585 net.cpp:156] Memory required for data: 1330660896
I0403 15:02:55.463135  2585 layer_factory.hpp:77] Creating layer inception_5b/3x3
I0403 15:02:55.463160  2585 net.cpp:91] Creating Layer inception_5b/3x3
I0403 15:02:55.463177  2585 net.cpp:425] inception_5b/3x3 <- inception_5b/3x3_reduce
I0403 15:02:55.463197  2585 net.cpp:399] inception_5b/3x3 -> inception_5b/3x3
I0403 15:02:55.470023  2585 net.cpp:141] Setting up inception_5b/3x3
I0403 15:02:55.470054  2585 net.cpp:148] Top shape: 24 384 7 7 (451584)
I0403 15:02:55.470072  2585 net.cpp:156] Memory required for data: 1332467232
I0403 15:02:55.470090  2585 layer_factory.hpp:77] Creating layer inception_5b/relu_3x3
I0403 15:02:55.470111  2585 net.cpp:91] Creating Layer inception_5b/relu_3x3
I0403 15:02:55.470129  2585 net.cpp:425] inception_5b/relu_3x3 <- inception_5b/3x3
I0403 15:02:55.470147  2585 net.cpp:386] inception_5b/relu_3x3 -> inception_5b/3x3 (in-place)
I0403 15:02:55.470453  2585 net.cpp:141] Setting up inception_5b/relu_3x3
I0403 15:02:55.470479  2585 net.cpp:148] Top shape: 24 384 7 7 (451584)
I0403 15:02:55.470494  2585 net.cpp:156] Memory required for data: 1334273568
I0403 15:02:55.470510  2585 layer_factory.hpp:77] Creating layer inception_5b/5x5_reduce
I0403 15:02:55.470551  2585 net.cpp:91] Creating Layer inception_5b/5x5_reduce
I0403 15:02:55.470571  2585 net.cpp:425] inception_5b/5x5_reduce <- inception_5a/output_inception_5a/output_0_split_2
I0403 15:02:55.470592  2585 net.cpp:399] inception_5b/5x5_reduce -> inception_5b/5x5_reduce
I0403 15:02:55.471873  2585 net.cpp:141] Setting up inception_5b/5x5_reduce
I0403 15:02:55.471899  2585 net.cpp:148] Top shape: 24 48 7 7 (56448)
I0403 15:02:55.471915  2585 net.cpp:156] Memory required for data: 1334499360
I0403 15:02:55.471935  2585 layer_factory.hpp:77] Creating layer inception_5b/relu_5x5_reduce
I0403 15:02:55.471954  2585 net.cpp:91] Creating Layer inception_5b/relu_5x5_reduce
I0403 15:02:55.471971  2585 net.cpp:425] inception_5b/relu_5x5_reduce <- inception_5b/5x5_reduce
I0403 15:02:55.471990  2585 net.cpp:386] inception_5b/relu_5x5_reduce -> inception_5b/5x5_reduce (in-place)
I0403 15:02:55.472359  2585 net.cpp:141] Setting up inception_5b/relu_5x5_reduce
I0403 15:02:55.472385  2585 net.cpp:148] Top shape: 24 48 7 7 (56448)
I0403 15:02:55.472400  2585 net.cpp:156] Memory required for data: 1334725152
I0403 15:02:55.472414  2585 layer_factory.hpp:77] Creating layer inception_5b/5x5
I0403 15:02:55.472434  2585 net.cpp:91] Creating Layer inception_5b/5x5
I0403 15:02:55.472451  2585 net.cpp:425] inception_5b/5x5 <- inception_5b/5x5_reduce
I0403 15:02:55.472470  2585 net.cpp:399] inception_5b/5x5 -> inception_5b/5x5
I0403 15:02:55.474510  2585 net.cpp:141] Setting up inception_5b/5x5
I0403 15:02:55.474540  2585 net.cpp:148] Top shape: 24 128 7 7 (150528)
I0403 15:02:55.474557  2585 net.cpp:156] Memory required for data: 1335327264
I0403 15:02:55.474576  2585 layer_factory.hpp:77] Creating layer inception_5b/relu_5x5
I0403 15:02:55.474594  2585 net.cpp:91] Creating Layer inception_5b/relu_5x5
I0403 15:02:55.474612  2585 net.cpp:425] inception_5b/relu_5x5 <- inception_5b/5x5
I0403 15:02:55.474630  2585 net.cpp:386] inception_5b/relu_5x5 -> inception_5b/5x5 (in-place)
I0403 15:02:55.474824  2585 net.cpp:141] Setting up inception_5b/relu_5x5
I0403 15:02:55.474850  2585 net.cpp:148] Top shape: 24 128 7 7 (150528)
I0403 15:02:55.474866  2585 net.cpp:156] Memory required for data: 1335929376
I0403 15:02:55.474880  2585 layer_factory.hpp:77] Creating layer inception_5b/pool
I0403 15:02:55.474898  2585 net.cpp:91] Creating Layer inception_5b/pool
I0403 15:02:55.474915  2585 net.cpp:425] inception_5b/pool <- inception_5a/output_inception_5a/output_0_split_3
I0403 15:02:55.474936  2585 net.cpp:399] inception_5b/pool -> inception_5b/pool
I0403 15:02:55.475005  2585 net.cpp:141] Setting up inception_5b/pool
I0403 15:02:55.475030  2585 net.cpp:148] Top shape: 24 832 7 7 (978432)
I0403 15:02:55.475045  2585 net.cpp:156] Memory required for data: 1339843104
I0403 15:02:55.475060  2585 layer_factory.hpp:77] Creating layer inception_5b/pool_proj
I0403 15:02:55.475081  2585 net.cpp:91] Creating Layer inception_5b/pool_proj
I0403 15:02:55.475100  2585 net.cpp:425] inception_5b/pool_proj <- inception_5b/pool
I0403 15:02:55.475117  2585 net.cpp:399] inception_5b/pool_proj -> inception_5b/pool_proj
I0403 15:02:55.477392  2585 net.cpp:141] Setting up inception_5b/pool_proj
I0403 15:02:55.477424  2585 net.cpp:148] Top shape: 24 128 7 7 (150528)
I0403 15:02:55.477440  2585 net.cpp:156] Memory required for data: 1340445216
I0403 15:02:55.477459  2585 layer_factory.hpp:77] Creating layer inception_5b/relu_pool_proj
I0403 15:02:55.477479  2585 net.cpp:91] Creating Layer inception_5b/relu_pool_proj
I0403 15:02:55.477496  2585 net.cpp:425] inception_5b/relu_pool_proj <- inception_5b/pool_proj
I0403 15:02:55.477515  2585 net.cpp:386] inception_5b/relu_pool_proj -> inception_5b/pool_proj (in-place)
I0403 15:02:55.477812  2585 net.cpp:141] Setting up inception_5b/relu_pool_proj
I0403 15:02:55.477838  2585 net.cpp:148] Top shape: 24 128 7 7 (150528)
I0403 15:02:55.477854  2585 net.cpp:156] Memory required for data: 1341047328
I0403 15:02:55.477870  2585 layer_factory.hpp:77] Creating layer inception_5b/output
I0403 15:02:55.477890  2585 net.cpp:91] Creating Layer inception_5b/output
I0403 15:02:55.477919  2585 net.cpp:425] inception_5b/output <- inception_5b/1x1
I0403 15:02:55.477936  2585 net.cpp:425] inception_5b/output <- inception_5b/3x3
I0403 15:02:55.477953  2585 net.cpp:425] inception_5b/output <- inception_5b/5x5
I0403 15:02:55.477969  2585 net.cpp:425] inception_5b/output <- inception_5b/pool_proj
I0403 15:02:55.477987  2585 net.cpp:399] inception_5b/output -> inception_5b/output
I0403 15:02:55.478039  2585 net.cpp:141] Setting up inception_5b/output
I0403 15:02:55.478060  2585 net.cpp:148] Top shape: 24 1024 7 7 (1204224)
I0403 15:02:55.478075  2585 net.cpp:156] Memory required for data: 1345864224
I0403 15:02:55.478088  2585 layer_factory.hpp:77] Creating layer pool5/7x7_s1
I0403 15:02:55.478106  2585 net.cpp:91] Creating Layer pool5/7x7_s1
I0403 15:02:55.478121  2585 net.cpp:425] pool5/7x7_s1 <- inception_5b/output
I0403 15:02:55.478142  2585 net.cpp:399] pool5/7x7_s1 -> pool5/7x7_s1
I0403 15:02:55.478356  2585 net.cpp:141] Setting up pool5/7x7_s1
I0403 15:02:55.478381  2585 net.cpp:148] Top shape: 24 1024 1 1 (24576)
I0403 15:02:55.478395  2585 net.cpp:156] Memory required for data: 1345962528
I0403 15:02:55.478410  2585 layer_factory.hpp:77] Creating layer pool5/drop_7x7_s1
I0403 15:02:55.478430  2585 net.cpp:91] Creating Layer pool5/drop_7x7_s1
I0403 15:02:55.478446  2585 net.cpp:425] pool5/drop_7x7_s1 <- pool5/7x7_s1
I0403 15:02:55.478462  2585 net.cpp:386] pool5/drop_7x7_s1 -> pool5/7x7_s1 (in-place)
I0403 15:02:55.478513  2585 net.cpp:141] Setting up pool5/drop_7x7_s1
I0403 15:02:55.478535  2585 net.cpp:148] Top shape: 24 1024 1 1 (24576)
I0403 15:02:55.478549  2585 net.cpp:156] Memory required for data: 1346060832
I0403 15:02:55.478564  2585 layer_factory.hpp:77] Creating layer loss3/classifier_plantvillage
I0403 15:02:55.478586  2585 net.cpp:91] Creating Layer loss3/classifier_plantvillage
I0403 15:02:55.478603  2585 net.cpp:425] loss3/classifier_plantvillage <- pool5/7x7_s1
I0403 15:02:55.478621  2585 net.cpp:399] loss3/classifier_plantvillage -> loss3/classifier_plantvillage
I0403 15:02:55.479043  2585 net.cpp:141] Setting up loss3/classifier_plantvillage
I0403 15:02:55.479068  2585 net.cpp:148] Top shape: 24 38 (912)
I0403 15:02:55.479081  2585 net.cpp:156] Memory required for data: 1346064480
I0403 15:02:55.479099  2585 layer_factory.hpp:77] Creating layer loss3/classifier_plantvillage_loss3/classifier_plantvillage_0_split
I0403 15:02:55.479117  2585 net.cpp:91] Creating Layer loss3/classifier_plantvillage_loss3/classifier_plantvillage_0_split
I0403 15:02:55.479133  2585 net.cpp:425] loss3/classifier_plantvillage_loss3/classifier_plantvillage_0_split <- loss3/classifier_plantvillage
I0403 15:02:55.479152  2585 net.cpp:399] loss3/classifier_plantvillage_loss3/classifier_plantvillage_0_split -> loss3/classifier_plantvillage_loss3/classifier_plantvillage_0_split_0
I0403 15:02:55.479173  2585 net.cpp:399] loss3/classifier_plantvillage_loss3/classifier_plantvillage_0_split -> loss3/classifier_plantvillage_loss3/classifier_plantvillage_0_split_1
I0403 15:02:55.479193  2585 net.cpp:399] loss3/classifier_plantvillage_loss3/classifier_plantvillage_0_split -> loss3/classifier_plantvillage_loss3/classifier_plantvillage_0_split_2
I0403 15:02:55.479218  2585 net.cpp:399] loss3/classifier_plantvillage_loss3/classifier_plantvillage_0_split -> loss3/classifier_plantvillage_loss3/classifier_plantvillage_0_split_3
I0403 15:02:55.479321  2585 net.cpp:141] Setting up loss3/classifier_plantvillage_loss3/classifier_plantvillage_0_split
I0403 15:02:55.479342  2585 net.cpp:148] Top shape: 24 38 (912)
I0403 15:02:55.479358  2585 net.cpp:148] Top shape: 24 38 (912)
I0403 15:02:55.479373  2585 net.cpp:148] Top shape: 24 38 (912)
I0403 15:02:55.479388  2585 net.cpp:148] Top shape: 24 38 (912)
I0403 15:02:55.479403  2585 net.cpp:156] Memory required for data: 1346079072
I0403 15:02:55.479416  2585 layer_factory.hpp:77] Creating layer loss1/loss
I0403 15:02:55.479439  2585 net.cpp:91] Creating Layer loss1/loss
I0403 15:02:55.479455  2585 net.cpp:425] loss1/loss <- loss1/classifier_plantvillage_loss1/classifier_plantvillage_0_split_0
I0403 15:02:55.479485  2585 net.cpp:425] loss1/loss <- label_data_1_split_0
…
