…
I0403 14:59:26.737036 30816 net.cpp:313] The NetState phase (1) differed from the phase (0) specified by a rule in layer data
I0403 14:59:26.737373 30816 net.cpp:49] Initializing net from parameters: 
state {
  phase: TEST
}
layer {
  name: "data"
  type: "Data"
  top: "data"
  top: "label"
  include {
    phase: TEST
  }
  transform_param {
    crop_size: 227
    mean_file: "/home/mohanty/data/final_dataset/lmdb/segmented-80-20/mean.binaryproto"
  }
  data_param {
    source: "/home/mohanty/data/final_dataset/lmdb/segmented-80-20/test_db"
    batch_size: 100
    backend: LMDB
  }
}
layer {
  name: "conv1"
  type: "Convolution"
  bottom: "data"
  top: "conv1"
  param {
    lr_mult: 1
    decay_mult: 1
  }
  param {
    lr_mult: 2
    decay_mult: 0
  }
  convolution_param {
    num_output: 96
    kernel_size: 11
    stride: 4
    weight_filler {
      type: "gaussian"
      std: 0.01
    }
    bias_filler {
      type: "constant"
      value: 0
    }
  }
}
layer {
  name: "relu1"
  type: "ReLU"
  bottom: "conv1"
  top: "conv1"
}
layer {
  name: "norm1"
  type: "LRN"
  bottom: "conv1"
  top: "norm1"
  lrn_param {
    local_size: 5
    alpha: 0.0001
    beta: 0.75
  }
}
layer {
  name: "pool1"
  type: "Pooling"
  bottom: "norm1"
  top: "pool1"
  pooling_param {
    pool: MAX
    kernel_size: 3
    stride: 2
  }
}
layer {
  name: "conv2"
  type: "Convolution"
  bottom: "pool1"
  top: "conv2"
  param {
    lr_mult: 1
    decay_mult: 1
  }
  param {
    lr_mult: 2
    decay_mult: 0
  }
  convolution_param {
    num_output: 256
    pad: 2
    kernel_size: 5
    group: 2
    weight_filler {
      type: "gaussian"
      std: 0.01
    }
    bias_filler {
      type: "constant"
      value: 0.1
    }
  }
}
layer {
  name: "relu2"
  type: "ReLU"
  bottom: "conv2"
  top: "conv2"
}
layer {
  name: "norm2"
  type: "LRN"
  bottom: "conv2"
  top: "norm2"
  lrn_param {
    local_size: 5
    alpha: 0.0001
    beta: 0.75
  }
}
layer {
  name: "pool2"
  type: "Pooling"
  bottom: "norm2"
  top: "pool2"
  pooling_param {
    pool: MAX
    kernel_size: 3
    stride: 2
  }
}
layer {
  name: "conv3"
  type: "Convolution"
  bottom: "pool2"
  top: "conv3"
  param {
    lr_mult: 1
    decay_mult: 1
  }
  param {
    lr_mult: 2
    decay_mult: 0
  }
  convolution_param {
    num_output: 384
    pad: 1
    kernel_size: 3
    weight_filler {
      type: "gaussian"
      std: 0.01
    }
    bias_filler {
      type: "constant"
      value: 0
    }
  }
}
layer {
  name: "relu3"
  type: "ReLU"
  bottom: "conv3"
  top: "conv3"
}
layer {
  name: "conv4"
  type: "Convolution"
  bottom: "conv3"
  top: "conv4"
  param {
    lr_mult: 1
    decay_mult: 1
  }
  param {
    lr_mult: 2
    decay_mult: 0
  }
  convolution_param {
    num_output: 384
    pad: 1
    kernel_size: 3
    group: 2
    weight_filler {
      type: "gaussian"
      std: 0.01
    }
    bias_filler {
      type: "constant"
      value: 0.1
    }
  }
}
layer {
  name: "relu4"
  type: "ReLU"
  bottom: "conv4"
  top: "conv4"
}
layer {
  name: "conv5"
  type: "Convolution"
  bottom: "conv4"
  top: "conv5"
  param {
    lr_mult: 1
    decay_mult: 1
  }
  param {
    lr_mult: 2
    decay_mult: 0
  }
  convolution_param {
    num_output: 256
    pad: 1
    kernel_size: 3
    group: 2
    weight_filler {
      type: "gaussian"
      std: 0.01
    }
    bias_filler {
      type: "constant"
      value: 0.1
    }
  }
}
layer {
  name: "relu5"
  type: "ReLU"
  bottom: "conv5"
  top: "conv5"
}
layer {
  name: "pool5"
  type: "Pooling"
  bottom: "conv5"
  top: "pool5"
  pooling_param {
    pool: MAX
    kernel_size: 3
    stride: 2
  }
}
layer {
  name: "fc6"
  type: "InnerProduct"
  bottom: "pool5"
  top: "fc6"
  param {
    lr_mult: 1
    decay_mult: 1
  }
  param {
    lr_mult: 2
    decay_mult: 0
  }
  inner_product_param {
    num_output: 4096
    weight_filler {
      type: "gaussian"
      std: 0.005
    }
    bias_filler {
      type: "constant"
      value: 0.1
    }
  }
}
layer {
  name: "relu6"
  type: "ReLU"
  bottom: "fc6"
  top: "fc6"
}
layer {
  name: "drop6"
  type: "Dropout"
  bottom: "fc6"
  top: "fc6"
  dropout_param {
    dropout_ratio: 0.5
  }
}
layer {
  name: "fc7"
  type: "InnerProduct"
  bottom: "fc6"
  top: "fc7"
  param {
    lr_mult: 1
    decay_mult: 1
  }
  param {
    lr_mult: 2
    decay_mult: 0
  }
  inner_product_param {
    num_output: 4096
    weight_filler {
      type: "gaussian"
      std: 0.005
    }
    bias_filler {
      type: "constant"
      value: 0.1
    }
  }
}
layer {
  name: "relu7"
  type: "ReLU"
  bottom: "fc7"
  top: "fc7"
}
layer {
  name: "drop7"
  type: "Dropout"
  bottom: "fc7"
  top: "fc7"
  dropout_param {
    dropout_ratio: 0.5
  }
}
layer {
  name: "fc8_plantvillage"
  type: "InnerProduct"
  bottom: "fc7"
  top: "fc8_plantvillage"
  param {
    lr_mult: 1
    decay_mult: 1
  }
  param {
    lr_mult: 2
    decay_mult: 0
  }
  inner_product_param {
    num_output: 38
    weight_filler {
      type: "gaussian"
      std: 0.01
    }
    bias_filler {
      type: "constant"
      value: 0
    }
  }
}
layer {
  name: "prob"
  type: "Softmax"
  bottom: "fc8_plantvillage"
  top: "prob"
  include {
    phase: TEST
  }
}
layer {
  name: "hdf5out"
  type: "HDF5Output"
  bottom: "prob"
  bottom: "label"
  include {
    phase: TEST
  }
  hdf5_output_param {
    file_name: "hdf5_dumps/iter_9135.h5"
  }
}
layer {
  name: "loss"
  type: "SoftmaxWithLoss"
  bottom: "fc8_plantvillage"
  bottom: "label"
  top: "loss"
}
layer {
  name: "accuracy"
  type: "Accuracy"
  bottom: "fc8_plantvillage"
  bottom: "label"
  top: "accuracy"
  include {
    phase: TEST
  }
}
I0403 14:59:26.737952 30816 layer_factory.hpp:77] Creating layer data
I0403 14:59:26.738607 30816 net.cpp:91] Creating Layer data
I0403 14:59:26.738643 30816 net.cpp:399] data -> data
I0403 14:59:26.738697 30816 net.cpp:399] data -> label
I0403 14:59:26.738734 30816 data_transformer.cpp:25] Loading mean file from: /home/mohanty/data/final_dataset/lmdb/segmented-80-20/mean.binaryproto
I0403 14:59:28.652482 30838 db_lmdb.cpp:38] Opened lmdb /home/mohanty/data/final_dataset/lmdb/segmented-80-20/test_db
I0403 14:59:28.663523 30816 data_layer.cpp:41] output data size: 100,3,227,227
I0403 14:59:28.853289 30816 net.cpp:141] Setting up data
I0403 14:59:28.853364 30816 net.cpp:148] Top shape: 100 3 227 227 (15458700)
I0403 14:59:28.853392 30816 net.cpp:148] Top shape: 100 (100)
I0403 14:59:28.853410 30816 net.cpp:156] Memory required for data: 61835200
I0403 14:59:28.853442 30816 layer_factory.hpp:77] Creating layer label_data_1_split
I0403 14:59:28.853472 30816 net.cpp:91] Creating Layer label_data_1_split
I0403 14:59:28.853493 30816 net.cpp:425] label_data_1_split <- label
I0403 14:59:28.853531 30816 net.cpp:399] label_data_1_split -> label_data_1_split_0
I0403 14:59:28.853564 30816 net.cpp:399] label_data_1_split -> label_data_1_split_1
I0403 14:59:28.853588 30816 net.cpp:399] label_data_1_split -> label_data_1_split_2
I0403 14:59:28.853662 30816 net.cpp:141] Setting up label_data_1_split
I0403 14:59:28.853690 30816 net.cpp:148] Top shape: 100 (100)
I0403 14:59:28.853711 30816 net.cpp:148] Top shape: 100 (100)
I0403 14:59:28.853731 30816 net.cpp:148] Top shape: 100 (100)
I0403 14:59:28.853749 30816 net.cpp:156] Memory required for data: 61836400
I0403 14:59:28.853767 30816 layer_factory.hpp:77] Creating layer conv1
I0403 14:59:28.853806 30816 net.cpp:91] Creating Layer conv1
I0403 14:59:28.853828 30816 net.cpp:425] conv1 <- data
I0403 14:59:28.853852 30816 net.cpp:399] conv1 -> conv1
I0403 14:59:29.029938 30816 net.cpp:141] Setting up conv1
I0403 14:59:29.030022 30816 net.cpp:148] Top shape: 100 96 55 55 (29040000)
I0403 14:59:29.030045 30816 net.cpp:156] Memory required for data: 177996400
I0403 14:59:29.030083 30816 layer_factory.hpp:77] Creating layer relu1
I0403 14:59:29.030115 30816 net.cpp:91] Creating Layer relu1
I0403 14:59:29.030138 30816 net.cpp:425] relu1 <- conv1
I0403 14:59:29.030160 30816 net.cpp:386] relu1 -> conv1 (in-place)
I0403 14:59:29.030524 30816 net.cpp:141] Setting up relu1
I0403 14:59:29.030557 30816 net.cpp:148] Top shape: 100 96 55 55 (29040000)
I0403 14:59:29.030614 30816 net.cpp:156] Memory required for data: 294156400
I0403 14:59:29.030635 30816 layer_factory.hpp:77] Creating layer norm1
I0403 14:59:29.030669 30816 net.cpp:91] Creating Layer norm1
I0403 14:59:29.030691 30816 net.cpp:425] norm1 <- conv1
I0403 14:59:29.030714 30816 net.cpp:399] norm1 -> norm1
I0403 14:59:29.031090 30816 net.cpp:141] Setting up norm1
I0403 14:59:29.031124 30816 net.cpp:148] Top shape: 100 96 55 55 (29040000)
I0403 14:59:29.031143 30816 net.cpp:156] Memory required for data: 410316400
I0403 14:59:29.031163 30816 layer_factory.hpp:77] Creating layer pool1
I0403 14:59:29.031190 30816 net.cpp:91] Creating Layer pool1
I0403 14:59:29.031211 30816 net.cpp:425] pool1 <- norm1
I0403 14:59:29.031231 30816 net.cpp:399] pool1 -> pool1
I0403 14:59:29.031316 30816 net.cpp:141] Setting up pool1
I0403 14:59:29.031347 30816 net.cpp:148] Top shape: 100 96 27 27 (6998400)
I0403 14:59:29.031364 30816 net.cpp:156] Memory required for data: 438310000
I0403 14:59:29.031383 30816 layer_factory.hpp:77] Creating layer conv2
I0403 14:59:29.031414 30816 net.cpp:91] Creating Layer conv2
I0403 14:59:29.031433 30816 net.cpp:425] conv2 <- pool1
I0403 14:59:29.031455 30816 net.cpp:399] conv2 -> conv2
I0403 14:59:29.049387 30816 net.cpp:141] Setting up conv2
I0403 14:59:29.049444 30816 net.cpp:148] Top shape: 100 256 27 27 (18662400)
I0403 14:59:29.049484 30816 net.cpp:156] Memory required for data: 512959600
I0403 14:59:29.049510 30816 layer_factory.hpp:77] Creating layer relu2
I0403 14:59:29.049535 30816 net.cpp:91] Creating Layer relu2
I0403 14:59:29.049613 30816 net.cpp:425] relu2 <- conv2
I0403 14:59:29.049666 30816 net.cpp:386] relu2 -> conv2 (in-place)
I0403 14:59:29.050019 30816 net.cpp:141] Setting up relu2
I0403 14:59:29.050074 30816 net.cpp:148] Top shape: 100 256 27 27 (18662400)
I0403 14:59:29.050107 30816 net.cpp:156] Memory required for data: 587609200
I0403 14:59:29.050124 30816 layer_factory.hpp:77] Creating layer norm2
I0403 14:59:29.050173 30816 net.cpp:91] Creating Layer norm2
I0403 14:59:29.050202 30816 net.cpp:425] norm2 <- conv2
I0403 14:59:29.050226 30816 net.cpp:399] norm2 -> norm2
I0403 14:59:29.050490 30816 net.cpp:141] Setting up norm2
I0403 14:59:29.050526 30816 net.cpp:148] Top shape: 100 256 27 27 (18662400)
I0403 14:59:29.050546 30816 net.cpp:156] Memory required for data: 662258800
I0403 14:59:29.050565 30816 layer_factory.hpp:77] Creating layer pool2
I0403 14:59:29.050586 30816 net.cpp:91] Creating Layer pool2
I0403 14:59:29.050604 30816 net.cpp:425] pool2 <- norm2
I0403 14:59:29.050627 30816 net.cpp:399] pool2 -> pool2
I0403 14:59:29.050689 30816 net.cpp:141] Setting up pool2
I0403 14:59:29.050719 30816 net.cpp:148] Top shape: 100 256 13 13 (4326400)
I0403 14:59:29.050740 30816 net.cpp:156] Memory required for data: 679564400
I0403 14:59:29.050757 30816 layer_factory.hpp:77] Creating layer conv3
I0403 14:59:29.050781 30816 net.cpp:91] Creating Layer conv3
I0403 14:59:29.050801 30816 net.cpp:425] conv3 <- pool2
I0403 14:59:29.050825 30816 net.cpp:399] conv3 -> conv3
I0403 14:59:29.097054 30816 net.cpp:141] Setting up conv3
I0403 14:59:29.097131 30816 net.cpp:148] Top shape: 100 384 13 13 (6489600)
I0403 14:59:29.097151 30816 net.cpp:156] Memory required for data: 705522800
I0403 14:59:29.097182 30816 layer_factory.hpp:77] Creating layer relu3
I0403 14:59:29.097208 30816 net.cpp:91] Creating Layer relu3
I0403 14:59:29.097229 30816 net.cpp:425] relu3 <- conv3
I0403 14:59:29.097259 30816 net.cpp:386] relu3 -> conv3 (in-place)
I0403 14:59:29.097627 30816 net.cpp:141] Setting up relu3
I0403 14:59:29.097663 30816 net.cpp:148] Top shape: 100 384 13 13 (6489600)
I0403 14:59:29.097682 30816 net.cpp:156] Memory required for data: 731481200
I0403 14:59:29.097700 30816 layer_factory.hpp:77] Creating layer conv4
I0403 14:59:29.097733 30816 net.cpp:91] Creating Layer conv4
I0403 14:59:29.097754 30816 net.cpp:425] conv4 <- conv3
I0403 14:59:29.097779 30816 net.cpp:399] conv4 -> conv4
I0403 14:59:29.133800 30816 net.cpp:141] Setting up conv4
I0403 14:59:29.133867 30816 net.cpp:148] Top shape: 100 384 13 13 (6489600)
I0403 14:59:29.133919 30816 net.cpp:156] Memory required for data: 757439600
I0403 14:59:29.133949 30816 layer_factory.hpp:77] Creating layer relu4
I0403 14:59:29.133975 30816 net.cpp:91] Creating Layer relu4
I0403 14:59:29.133998 30816 net.cpp:425] relu4 <- conv4
I0403 14:59:29.134021 30816 net.cpp:386] relu4 -> conv4 (in-place)
I0403 14:59:29.134369 30816 net.cpp:141] Setting up relu4
I0403 14:59:29.134407 30816 net.cpp:148] Top shape: 100 384 13 13 (6489600)
I0403 14:59:29.134428 30816 net.cpp:156] Memory required for data: 783398000
I0403 14:59:29.134445 30816 layer_factory.hpp:77] Creating layer conv5
I0403 14:59:29.134475 30816 net.cpp:91] Creating Layer conv5
I0403 14:59:29.134497 30816 net.cpp:425] conv5 <- conv4
I0403 14:59:29.134521 30816 net.cpp:399] conv5 -> conv5
I0403 14:59:29.159418 30816 net.cpp:141] Setting up conv5
I0403 14:59:29.159487 30816 net.cpp:148] Top shape: 100 256 13 13 (4326400)
I0403 14:59:29.159509 30816 net.cpp:156] Memory required for data: 800703600
I0403 14:59:29.159539 30816 layer_factory.hpp:77] Creating layer relu5
I0403 14:59:29.159565 30816 net.cpp:91] Creating Layer relu5
I0403 14:59:29.159587 30816 net.cpp:425] relu5 <- conv5
I0403 14:59:29.159612 30816 net.cpp:386] relu5 -> conv5 (in-place)
I0403 14:59:29.159946 30816 net.cpp:141] Setting up relu5
I0403 14:59:29.159981 30816 net.cpp:148] Top shape: 100 256 13 13 (4326400)
I0403 14:59:29.160001 30816 net.cpp:156] Memory required for data: 818009200
I0403 14:59:29.160022 30816 layer_factory.hpp:77] Creating layer pool5
I0403 14:59:29.160055 30816 net.cpp:91] Creating Layer pool5
I0403 14:59:29.160084 30816 net.cpp:425] pool5 <- conv5
I0403 14:59:29.160111 30816 net.cpp:399] pool5 -> pool5
I0403 14:59:29.160187 30816 net.cpp:141] Setting up pool5
I0403 14:59:29.160218 30816 net.cpp:148] Top shape: 100 256 6 6 (921600)
I0403 14:59:29.160238 30816 net.cpp:156] Memory required for data: 821695600
I0403 14:59:29.160256 30816 layer_factory.hpp:77] Creating layer fc6
I0403 14:59:29.160295 30816 net.cpp:91] Creating Layer fc6
I0403 14:59:29.160317 30816 net.cpp:425] fc6 <- pool5
I0403 14:59:29.160343 30816 net.cpp:399] fc6 -> fc6
I0403 14:59:30.834915 30816 net.cpp:141] Setting up fc6
I0403 14:59:30.834961 30816 net.cpp:148] Top shape: 100 4096 (409600)
I0403 14:59:30.834980 30816 net.cpp:156] Memory required for data: 823334000
I0403 14:59:30.835001 30816 layer_factory.hpp:77] Creating layer relu6
I0403 14:59:30.835023 30816 net.cpp:91] Creating Layer relu6
I0403 14:59:30.835041 30816 net.cpp:425] relu6 <- fc6
I0403 14:59:30.835062 30816 net.cpp:386] relu6 -> fc6 (in-place)
I0403 14:59:30.835290 30816 net.cpp:141] Setting up relu6
I0403 14:59:30.835331 30816 net.cpp:148] Top shape: 100 4096 (409600)
I0403 14:59:30.835350 30816 net.cpp:156] Memory required for data: 824972400
I0403 14:59:30.835366 30816 layer_factory.hpp:77] Creating layer drop6
I0403 14:59:30.835386 30816 net.cpp:91] Creating Layer drop6
I0403 14:59:30.835404 30816 net.cpp:425] drop6 <- fc6
I0403 14:59:30.835425 30816 net.cpp:386] drop6 -> fc6 (in-place)
I0403 14:59:30.835479 30816 net.cpp:141] Setting up drop6
I0403 14:59:30.835505 30816 net.cpp:148] Top shape: 100 4096 (409600)
I0403 14:59:30.835520 30816 net.cpp:156] Memory required for data: 826610800
I0403 14:59:30.835536 30816 layer_factory.hpp:77] Creating layer fc7
I0403 14:59:30.835559 30816 net.cpp:91] Creating Layer fc7
I0403 14:59:30.835590 30816 net.cpp:425] fc7 <- fc6
I0403 14:59:30.835620 30816 net.cpp:399] fc7 -> fc7
I0403 14:59:31.522291 30816 net.cpp:141] Setting up fc7
I0403 14:59:31.522359 30816 net.cpp:148] Top shape: 100 4096 (409600)
I0403 14:59:31.522377 30816 net.cpp:156] Memory required for data: 828249200
I0403 14:59:31.522397 30816 layer_factory.hpp:77] Creating layer relu7
I0403 14:59:31.522418 30816 net.cpp:91] Creating Layer relu7
I0403 14:59:31.522435 30816 net.cpp:425] relu7 <- fc7
I0403 14:59:31.522457 30816 net.cpp:386] relu7 -> fc7 (in-place)
I0403 14:59:31.522835 30816 net.cpp:141] Setting up relu7
I0403 14:59:31.522862 30816 net.cpp:148] Top shape: 100 4096 (409600)
I0403 14:59:31.522908 30816 net.cpp:156] Memory required for data: 829887600
I0403 14:59:31.522924 30816 layer_factory.hpp:77] Creating layer drop7
I0403 14:59:31.522943 30816 net.cpp:91] Creating Layer drop7
I0403 14:59:31.522958 30816 net.cpp:425] drop7 <- fc7
I0403 14:59:31.522977 30816 net.cpp:386] drop7 -> fc7 (in-place)
I0403 14:59:31.523020 30816 net.cpp:141] Setting up drop7
I0403 14:59:31.523042 30816 net.cpp:148] Top shape: 100 4096 (409600)
I0403 14:59:31.523059 30816 net.cpp:156] Memory required for data: 831526000
I0403 14:59:31.523073 30816 layer_factory.hpp:77] Creating layer fc8_plantvillage
I0403 14:59:31.523092 30816 net.cpp:91] Creating Layer fc8_plantvillage
I0403 14:59:31.523108 30816 net.cpp:425] fc8_plantvillage <- fc7
I0403 14:59:31.523128 30816 net.cpp:399] fc8_plantvillage -> fc8_plantvillage
I0403 14:59:31.529754 30816 net.cpp:141] Setting up fc8_plantvillage
I0403 14:59:31.529784 30816 net.cpp:148] Top shape: 100 38 (3800)
I0403 14:59:31.529800 30816 net.cpp:156] Memory required for data: 831541200
I0403 14:59:31.529819 30816 layer_factory.hpp:77] Creating layer fc8_plantvillage_fc8_plantvillage_0_split
I0403 14:59:31.529839 30816 net.cpp:91] Creating Layer fc8_plantvillage_fc8_plantvillage_0_split
I0403 14:59:31.529853 30816 net.cpp:425] fc8_plantvillage_fc8_plantvillage_0_split <- fc8_plantvillage
I0403 14:59:31.529873 30816 net.cpp:399] fc8_plantvillage_fc8_plantvillage_0_split -> fc8_plantvillage_fc8_plantvillage_0_split_0
I0403 14:59:31.529894 30816 net.cpp:399] fc8_plantvillage_fc8_plantvillage_0_split -> fc8_plantvillage_fc8_plantvillage_0_split_1
I0403 14:59:31.529913 30816 net.cpp:399] fc8_plantvillage_fc8_plantvillage_0_split -> fc8_plantvillage_fc8_plantvillage_0_split_2
I0403 14:59:31.529991 30816 net.cpp:141] Setting up fc8_plantvillage_fc8_plantvillage_0_split
I0403 14:59:31.530017 30816 net.cpp:148] Top shape: 100 38 (3800)
I0403 14:59:31.530035 30816 net.cpp:148] Top shape: 100 38 (3800)
I0403 14:59:31.530050 30816 net.cpp:148] Top shape: 100 38 (3800)
I0403 14:59:31.530063 30816 net.cpp:156] Memory required for data: 831586800
I0403 14:59:31.530078 30816 layer_factory.hpp:77] Creating layer prob
I0403 14:59:31.530097 30816 net.cpp:91] Creating Layer prob
I0403 14:59:31.530113 30816 net.cpp:425] prob <- fc8_plantvillage_fc8_plantvillage_0_split_0
I0403 14:59:31.530131 30816 net.cpp:399] prob -> prob
I0403 14:59:31.530361 30816 net.cpp:141] Setting up prob
I0403 14:59:31.530390 30816 net.cpp:148] Top shape: 100 38 (3800)
I0403 14:59:31.530405 30816 net.cpp:156] Memory required for data: 831602000
I0403 14:59:31.530421 30816 layer_factory.hpp:77] Creating layer hdf5out
I0403 14:59:31.530439 30816 net.cpp:91] Creating Layer hdf5out
I0403 14:59:31.530454 30816 net.cpp:425] hdf5out <- prob
I0403 14:59:31.530470 30816 net.cpp:425] hdf5out <- label_data_1_split_0
I0403 14:59:31.534778 30816 net.cpp:141] Setting up hdf5out
…
