…
I0403 14:51:47.304945 30503 net.cpp:313] The NetState phase (1) differed from the phase (0) specified by a rule in layer data
I0403 14:51:47.305238 30503 net.cpp:49] Initializing net from parameters: 
state {
  phase: TEST
}
layer {
  name: "data"
  type: "Data"
  top: "data"
  top: "label"
  include {
    phase: TEST
  }
  transform_param {
    crop_size: 227
    mean_file: "/home/mohanty/data/final_dataset/lmdb/segmented-80-20/mean.binaryproto"
  }
  data_param {
    source: "/home/mohanty/data/final_dataset/lmdb/segmented-80-20/test_db"
    batch_size: 100
    backend: LMDB
  }
}
layer {
  name: "conv1"
  type: "Convolution"
  bottom: "data"
  top: "conv1"
  param {
    lr_mult: 1
    decay_mult: 1
  }
  param {
    lr_mult: 2
    decay_mult: 0
  }
  convolution_param {
    num_output: 96
    kernel_size: 11
    stride: 4
    weight_filler {
      type: "gaussian"
      std: 0.01
    }
    bias_filler {
      type: "constant"
      value: 0
    }
  }
}
layer {
  name: "relu1"
  type: "ReLU"
  bottom: "conv1"
  top: "conv1"
}
layer {
  name: "norm1"
  type: "LRN"
  bottom: "conv1"
  top: "norm1"
  lrn_param {
    local_size: 5
    alpha: 0.0001
    beta: 0.75
  }
}
layer {
  name: "pool1"
  type: "Pooling"
  bottom: "norm1"
  top: "pool1"
  pooling_param {
    pool: MAX
    kernel_size: 3
    stride: 2
  }
}
layer {
  name: "conv2"
  type: "Convolution"
  bottom: "pool1"
  top: "conv2"
  param {
    lr_mult: 1
    decay_mult: 1
  }
  param {
    lr_mult: 2
    decay_mult: 0
  }
  convolution_param {
    num_output: 256
    pad: 2
    kernel_size: 5
    group: 2
    weight_filler {
      type: "gaussian"
      std: 0.01
    }
    bias_filler {
      type: "constant"
      value: 0.1
    }
  }
}
layer {
  name: "relu2"
  type: "ReLU"
  bottom: "conv2"
  top: "conv2"
}
layer {
  name: "norm2"
  type: "LRN"
  bottom: "conv2"
  top: "norm2"
  lrn_param {
    local_size: 5
    alpha: 0.0001
    beta: 0.75
  }
}
layer {
  name: "pool2"
  type: "Pooling"
  bottom: "norm2"
  top: "pool2"
  pooling_param {
    pool: MAX
    kernel_size: 3
    stride: 2
  }
}
layer {
  name: "conv3"
  type: "Convolution"
  bottom: "pool2"
  top: "conv3"
  param {
    lr_mult: 1
    decay_mult: 1
  }
  param {
    lr_mult: 2
    decay_mult: 0
  }
  convolution_param {
    num_output: 384
    pad: 1
    kernel_size: 3
    weight_filler {
      type: "gaussian"
      std: 0.01
    }
    bias_filler {
      type: "constant"
      value: 0
    }
  }
}
layer {
  name: "relu3"
  type: "ReLU"
  bottom: "conv3"
  top: "conv3"
}
layer {
  name: "conv4"
  type: "Convolution"
  bottom: "conv3"
  top: "conv4"
  param {
    lr_mult: 1
    decay_mult: 1
  }
  param {
    lr_mult: 2
    decay_mult: 0
  }
  convolution_param {
    num_output: 384
    pad: 1
    kernel_size: 3
    group: 2
    weight_filler {
      type: "gaussian"
      std: 0.01
    }
    bias_filler {
      type: "constant"
      value: 0.1
    }
  }
}
layer {
  name: "relu4"
  type: "ReLU"
  bottom: "conv4"
  top: "conv4"
}
layer {
  name: "conv5"
  type: "Convolution"
  bottom: "conv4"
  top: "conv5"
  param {
    lr_mult: 1
    decay_mult: 1
  }
  param {
    lr_mult: 2
    decay_mult: 0
  }
  convolution_param {
    num_output: 256
    pad: 1
    kernel_size: 3
    group: 2
    weight_filler {
      type: "gaussian"
      std: 0.01
    }
    bias_filler {
      type: "constant"
      value: 0.1
    }
  }
}
layer {
  name: "relu5"
  type: "ReLU"
  bottom: "conv5"
  top: "conv5"
}
layer {
  name: "pool5"
  type: "Pooling"
  bottom: "conv5"
  top: "pool5"
  pooling_param {
    pool: MAX
    kernel_size: 3
    stride: 2
  }
}
layer {
  name: "fc6"
  type: "InnerProduct"
  bottom: "pool5"
  top: "fc6"
  param {
    lr_mult: 1
    decay_mult: 1
  }
  param {
    lr_mult: 2
    decay_mult: 0
  }
  inner_product_param {
    num_output: 4096
    weight_filler {
      type: "gaussian"
      std: 0.005
    }
    bias_filler {
      type: "constant"
      value: 0.1
    }
  }
}
layer {
  name: "relu6"
  type: "ReLU"
  bottom: "fc6"
  top: "fc6"
}
layer {
  name: "drop6"
  type: "Dropout"
  bottom: "fc6"
  top: "fc6"
  dropout_param {
    dropout_ratio: 0.5
  }
}
layer {
  name: "fc7"
  type: "InnerProduct"
  bottom: "fc6"
  top: "fc7"
  param {
    lr_mult: 1
    decay_mult: 1
  }
  param {
    lr_mult: 2
    decay_mult: 0
  }
  inner_product_param {
    num_output: 4096
    weight_filler {
      type: "gaussian"
      std: 0.005
    }
    bias_filler {
      type: "constant"
      value: 0.1
    }
  }
}
layer {
  name: "relu7"
  type: "ReLU"
  bottom: "fc7"
  top: "fc7"
}
layer {
  name: "drop7"
  type: "Dropout"
  bottom: "fc7"
  top: "fc7"
  dropout_param {
    dropout_ratio: 0.5
  }
}
layer {
  name: "fc8_plantvillage"
  type: "InnerProduct"
  bottom: "fc7"
  top: "fc8_plantvillage"
  param {
    lr_mult: 1
    decay_mult: 1
  }
  param {
    lr_mult: 2
    decay_mult: 0
  }
  inner_product_param {
    num_output: 38
    weight_filler {
      type: "gaussian"
      std: 0.01
    }
    bias_filler {
      type: "constant"
      value: 0
    }
  }
}
layer {
  name: "prob"
  type: "Softmax"
  bottom: "fc8_plantvillage"
  top: "prob"
  include {
    phase: TEST
  }
}
layer {
  name: "hdf5out"
  type: "HDF5Output"
  bottom: "prob"
  bottom: "label"
  include {
    phase: TEST
  }
  hdf5_output_param {
    file_name: "hdf5_dumps/iter_870.h5"
  }
}
layer {
  name: "loss"
  type: "SoftmaxWithLoss"
  bottom: "fc8_plantvillage"
  bottom: "label"
  top: "loss"
}
layer {
  name: "accuracy"
  type: "Accuracy"
  bottom: "fc8_plantvillage"
  bottom: "label"
  top: "accuracy"
  include {
    phase: TEST
  }
}
I0403 14:51:47.305773 30503 layer_factory.hpp:77] Creating layer data
I0403 14:51:47.306390 30503 net.cpp:91] Creating Layer data
I0403 14:51:47.306419 30503 net.cpp:399] data -> data
I0403 14:51:47.306473 30503 net.cpp:399] data -> label
I0403 14:51:47.306509 30503 data_transformer.cpp:25] Loading mean file from: /home/mohanty/data/final_dataset/lmdb/segmented-80-20/mean.binaryproto
I0403 14:51:47.309207 30505 db_lmdb.cpp:38] Opened lmdb /home/mohanty/data/final_dataset/lmdb/segmented-80-20/test_db
I0403 14:51:47.320979 30503 data_layer.cpp:41] output data size: 100,3,227,227
I0403 14:51:47.454130 30503 net.cpp:141] Setting up data
I0403 14:51:47.454190 30503 net.cpp:148] Top shape: 100 3 227 227 (15458700)
I0403 14:51:47.454212 30503 net.cpp:148] Top shape: 100 (100)
I0403 14:51:47.454227 30503 net.cpp:156] Memory required for data: 61835200
I0403 14:51:47.454255 30503 layer_factory.hpp:77] Creating layer label_data_1_split
I0403 14:51:47.454280 30503 net.cpp:91] Creating Layer label_data_1_split
I0403 14:51:47.454310 30503 net.cpp:425] label_data_1_split <- label
I0403 14:51:47.454344 30503 net.cpp:399] label_data_1_split -> label_data_1_split_0
I0403 14:51:47.454370 30503 net.cpp:399] label_data_1_split -> label_data_1_split_1
I0403 14:51:47.454391 30503 net.cpp:399] label_data_1_split -> label_data_1_split_2
I0403 14:51:47.454450 30503 net.cpp:141] Setting up label_data_1_split
I0403 14:51:47.454475 30503 net.cpp:148] Top shape: 100 (100)
I0403 14:51:47.454491 30503 net.cpp:148] Top shape: 100 (100)
I0403 14:51:47.454507 30503 net.cpp:148] Top shape: 100 (100)
I0403 14:51:47.454521 30503 net.cpp:156] Memory required for data: 61836400
I0403 14:51:47.454536 30503 layer_factory.hpp:77] Creating layer conv1
I0403 14:51:47.454568 30503 net.cpp:91] Creating Layer conv1
I0403 14:51:47.454587 30503 net.cpp:425] conv1 <- data
I0403 14:51:47.454607 30503 net.cpp:399] conv1 -> conv1
I0403 14:51:47.599208 30503 net.cpp:141] Setting up conv1
I0403 14:51:47.599289 30503 net.cpp:148] Top shape: 100 96 55 55 (29040000)
I0403 14:51:47.599310 30503 net.cpp:156] Memory required for data: 177996400
I0403 14:51:47.599342 30503 layer_factory.hpp:77] Creating layer relu1
I0403 14:51:47.599373 30503 net.cpp:91] Creating Layer relu1
I0403 14:51:47.599393 30503 net.cpp:425] relu1 <- conv1
I0403 14:51:47.599413 30503 net.cpp:386] relu1 -> conv1 (in-place)
I0403 14:51:47.599694 30503 net.cpp:141] Setting up relu1
I0403 14:51:47.599721 30503 net.cpp:148] Top shape: 100 96 55 55 (29040000)
I0403 14:51:47.599771 30503 net.cpp:156] Memory required for data: 294156400
I0403 14:51:47.599787 30503 layer_factory.hpp:77] Creating layer norm1
I0403 14:51:47.599817 30503 net.cpp:91] Creating Layer norm1
I0403 14:51:47.599836 30503 net.cpp:425] norm1 <- conv1
I0403 14:51:47.599858 30503 net.cpp:399] norm1 -> norm1
I0403 14:51:47.600188 30503 net.cpp:141] Setting up norm1
I0403 14:51:47.600219 30503 net.cpp:148] Top shape: 100 96 55 55 (29040000)
I0403 14:51:47.600235 30503 net.cpp:156] Memory required for data: 410316400
I0403 14:51:47.600251 30503 layer_factory.hpp:77] Creating layer pool1
I0403 14:51:47.600275 30503 net.cpp:91] Creating Layer pool1
I0403 14:51:47.600297 30503 net.cpp:425] pool1 <- norm1
I0403 14:51:47.600347 30503 net.cpp:399] pool1 -> pool1
I0403 14:51:47.600424 30503 net.cpp:141] Setting up pool1
I0403 14:51:47.600450 30503 net.cpp:148] Top shape: 100 96 27 27 (6998400)
I0403 14:51:47.600464 30503 net.cpp:156] Memory required for data: 438310000
I0403 14:51:47.600479 30503 layer_factory.hpp:77] Creating layer conv2
I0403 14:51:47.600507 30503 net.cpp:91] Creating Layer conv2
I0403 14:51:47.600524 30503 net.cpp:425] conv2 <- pool1
I0403 14:51:47.600544 30503 net.cpp:399] conv2 -> conv2
I0403 14:51:47.615835 30503 net.cpp:141] Setting up conv2
I0403 14:51:47.615875 30503 net.cpp:148] Top shape: 100 256 27 27 (18662400)
I0403 14:51:47.615893 30503 net.cpp:156] Memory required for data: 512959600
I0403 14:51:47.615917 30503 layer_factory.hpp:77] Creating layer relu2
I0403 14:51:47.615938 30503 net.cpp:91] Creating Layer relu2
I0403 14:51:47.615957 30503 net.cpp:425] relu2 <- conv2
I0403 14:51:47.615975 30503 net.cpp:386] relu2 -> conv2 (in-place)
I0403 14:51:47.616257 30503 net.cpp:141] Setting up relu2
I0403 14:51:47.616288 30503 net.cpp:148] Top shape: 100 256 27 27 (18662400)
I0403 14:51:47.616307 30503 net.cpp:156] Memory required for data: 587609200
I0403 14:51:47.616322 30503 layer_factory.hpp:77] Creating layer norm2
I0403 14:51:47.616348 30503 net.cpp:91] Creating Layer norm2
I0403 14:51:47.616365 30503 net.cpp:425] norm2 <- conv2
I0403 14:51:47.616385 30503 net.cpp:399] norm2 -> norm2
I0403 14:51:47.616582 30503 net.cpp:141] Setting up norm2
I0403 14:51:47.616611 30503 net.cpp:148] Top shape: 100 256 27 27 (18662400)
I0403 14:51:47.616627 30503 net.cpp:156] Memory required for data: 662258800
I0403 14:51:47.616643 30503 layer_factory.hpp:77] Creating layer pool2
I0403 14:51:47.616663 30503 net.cpp:91] Creating Layer pool2
I0403 14:51:47.616678 30503 net.cpp:425] pool2 <- norm2
I0403 14:51:47.616695 30503 net.cpp:399] pool2 -> pool2
I0403 14:51:47.616750 30503 net.cpp:141] Setting up pool2
I0403 14:51:47.616775 30503 net.cpp:148] Top shape: 100 256 13 13 (4326400)
I0403 14:51:47.616791 30503 net.cpp:156] Memory required for data: 679564400
I0403 14:51:47.616806 30503 layer_factory.hpp:77] Creating layer conv3
I0403 14:51:47.616858 30503 net.cpp:91] Creating Layer conv3
I0403 14:51:47.616878 30503 net.cpp:425] conv3 <- pool2
I0403 14:51:47.616897 30503 net.cpp:399] conv3 -> conv3
I0403 14:51:47.654369 30503 net.cpp:141] Setting up conv3
I0403 14:51:47.654420 30503 net.cpp:148] Top shape: 100 384 13 13 (6489600)
I0403 14:51:47.654440 30503 net.cpp:156] Memory required for data: 705522800
I0403 14:51:47.654464 30503 layer_factory.hpp:77] Creating layer relu3
I0403 14:51:47.654484 30503 net.cpp:91] Creating Layer relu3
I0403 14:51:47.654500 30503 net.cpp:425] relu3 <- conv3
I0403 14:51:47.654520 30503 net.cpp:386] relu3 -> conv3 (in-place)
I0403 14:51:47.654799 30503 net.cpp:141] Setting up relu3
I0403 14:51:47.654829 30503 net.cpp:148] Top shape: 100 384 13 13 (6489600)
I0403 14:51:47.654845 30503 net.cpp:156] Memory required for data: 731481200
I0403 14:51:47.654860 30503 layer_factory.hpp:77] Creating layer conv4
I0403 14:51:47.654886 30503 net.cpp:91] Creating Layer conv4
I0403 14:51:47.654902 30503 net.cpp:425] conv4 <- conv3
I0403 14:51:47.654920 30503 net.cpp:399] conv4 -> conv4
I0403 14:51:47.684447 30503 net.cpp:141] Setting up conv4
I0403 14:51:47.684512 30503 net.cpp:148] Top shape: 100 384 13 13 (6489600)
I0403 14:51:47.684561 30503 net.cpp:156] Memory required for data: 757439600
I0403 14:51:47.684584 30503 layer_factory.hpp:77] Creating layer relu4
I0403 14:51:47.684608 30503 net.cpp:91] Creating Layer relu4
I0403 14:51:47.684629 30503 net.cpp:425] relu4 <- conv4
I0403 14:51:47.684648 30503 net.cpp:386] relu4 -> conv4 (in-place)
I0403 14:51:47.684936 30503 net.cpp:141] Setting up relu4
I0403 14:51:47.684963 30503 net.cpp:148] Top shape: 100 384 13 13 (6489600)
I0403 14:51:47.684979 30503 net.cpp:156] Memory required for data: 783398000
I0403 14:51:47.684994 30503 layer_factory.hpp:77] Creating layer conv5
I0403 14:51:47.685022 30503 net.cpp:91] Creating Layer conv5
I0403 14:51:47.685040 30503 net.cpp:425] conv5 <- conv4
I0403 14:51:47.685060 30503 net.cpp:399] conv5 -> conv5
I0403 14:51:47.705677 30503 net.cpp:141] Setting up conv5
I0403 14:51:47.705715 30503 net.cpp:148] Top shape: 100 256 13 13 (4326400)
I0403 14:51:47.705734 30503 net.cpp:156] Memory required for data: 800703600
I0403 14:51:47.705760 30503 layer_factory.hpp:77] Creating layer relu5
I0403 14:51:47.705781 30503 net.cpp:91] Creating Layer relu5
I0403 14:51:47.705799 30503 net.cpp:425] relu5 <- conv5
I0403 14:51:47.705818 30503 net.cpp:386] relu5 -> conv5 (in-place)
I0403 14:51:47.706099 30503 net.cpp:141] Setting up relu5
I0403 14:51:47.706127 30503 net.cpp:148] Top shape: 100 256 13 13 (4326400)
I0403 14:51:47.706142 30503 net.cpp:156] Memory required for data: 818009200
I0403 14:51:47.706158 30503 layer_factory.hpp:77] Creating layer pool5
I0403 14:51:47.706182 30503 net.cpp:91] Creating Layer pool5
I0403 14:51:47.706198 30503 net.cpp:425] pool5 <- conv5
I0403 14:51:47.706220 30503 net.cpp:399] pool5 -> pool5
I0403 14:51:47.706286 30503 net.cpp:141] Setting up pool5
I0403 14:51:47.706311 30503 net.cpp:148] Top shape: 100 256 6 6 (921600)
I0403 14:51:47.706327 30503 net.cpp:156] Memory required for data: 821695600
I0403 14:51:47.706342 30503 layer_factory.hpp:77] Creating layer fc6
I0403 14:51:47.706372 30503 net.cpp:91] Creating Layer fc6
I0403 14:51:47.706390 30503 net.cpp:425] fc6 <- pool5
I0403 14:51:47.706411 30503 net.cpp:399] fc6 -> fc6
I0403 14:51:49.238369 30503 net.cpp:141] Setting up fc6
I0403 14:51:49.238411 30503 net.cpp:148] Top shape: 100 4096 (409600)
I0403 14:51:49.238427 30503 net.cpp:156] Memory required for data: 823334000
I0403 14:51:49.238447 30503 layer_factory.hpp:77] Creating layer relu6
I0403 14:51:49.238472 30503 net.cpp:91] Creating Layer relu6
I0403 14:51:49.238490 30503 net.cpp:425] relu6 <- fc6
I0403 14:51:49.238509 30503 net.cpp:386] relu6 -> fc6 (in-place)
I0403 14:51:49.238721 30503 net.cpp:141] Setting up relu6
I0403 14:51:49.238747 30503 net.cpp:148] Top shape: 100 4096 (409600)
I0403 14:51:49.238764 30503 net.cpp:156] Memory required for data: 824972400
I0403 14:51:49.238778 30503 layer_factory.hpp:77] Creating layer drop6
I0403 14:51:49.238797 30503 net.cpp:91] Creating Layer drop6
I0403 14:51:49.238813 30503 net.cpp:425] drop6 <- fc6
I0403 14:51:49.238831 30503 net.cpp:386] drop6 -> fc6 (in-place)
I0403 14:51:49.238880 30503 net.cpp:141] Setting up drop6
I0403 14:51:49.238904 30503 net.cpp:148] Top shape: 100 4096 (409600)
I0403 14:51:49.238919 30503 net.cpp:156] Memory required for data: 826610800
I0403 14:51:49.238934 30503 layer_factory.hpp:77] Creating layer fc7
I0403 14:51:49.238956 30503 net.cpp:91] Creating Layer fc7
I0403 14:51:49.238972 30503 net.cpp:425] fc7 <- fc6
I0403 14:51:49.238989 30503 net.cpp:399] fc7 -> fc7
I0403 14:51:49.916260 30503 net.cpp:141] Setting up fc7
I0403 14:51:49.916306 30503 net.cpp:148] Top shape: 100 4096 (409600)
I0403 14:51:49.916324 30503 net.cpp:156] Memory required for data: 828249200
I0403 14:51:49.916345 30503 layer_factory.hpp:77] Creating layer relu7
I0403 14:51:49.916369 30503 net.cpp:91] Creating Layer relu7
I0403 14:51:49.916386 30503 net.cpp:425] relu7 <- fc7
I0403 14:51:49.916405 30503 net.cpp:386] relu7 -> fc7 (in-place)
I0403 14:51:49.916785 30503 net.cpp:141] Setting up relu7
I0403 14:51:49.916815 30503 net.cpp:148] Top shape: 100 4096 (409600)
I0403 14:51:49.916846 30503 net.cpp:156] Memory required for data: 829887600
I0403 14:51:49.916862 30503 layer_factory.hpp:77] Creating layer drop7
I0403 14:51:49.916880 30503 net.cpp:91] Creating Layer drop7
I0403 14:51:49.916896 30503 net.cpp:425] drop7 <- fc7
I0403 14:51:49.916915 30503 net.cpp:386] drop7 -> fc7 (in-place)
I0403 14:51:49.916959 30503 net.cpp:141] Setting up drop7
I0403 14:51:49.916980 30503 net.cpp:148] Top shape: 100 4096 (409600)
I0403 14:51:49.916995 30503 net.cpp:156] Memory required for data: 831526000
I0403 14:51:49.917008 30503 layer_factory.hpp:77] Creating layer fc8_plantvillage
I0403 14:51:49.917031 30503 net.cpp:91] Creating Layer fc8_plantvillage
I0403 14:51:49.917047 30503 net.cpp:425] fc8_plantvillage <- fc7
I0403 14:51:49.917068 30503 net.cpp:399] fc8_plantvillage -> fc8_plantvillage
I0403 14:51:49.923570 30503 net.cpp:141] Setting up fc8_plantvillage
I0403 14:51:49.923599 30503 net.cpp:148] Top shape: 100 38 (3800)
I0403 14:51:49.923614 30503 net.cpp:156] Memory required for data: 831541200
I0403 14:51:49.923632 30503 layer_factory.hpp:77] Creating layer fc8_plantvillage_fc8_plantvillage_0_split
I0403 14:51:49.923650 30503 net.cpp:91] Creating Layer fc8_plantvillage_fc8_plantvillage_0_split
I0403 14:51:49.923666 30503 net.cpp:425] fc8_plantvillage_fc8_plantvillage_0_split <- fc8_plantvillage
I0403 14:51:49.923689 30503 net.cpp:399] fc8_plantvillage_fc8_plantvillage_0_split -> fc8_plantvillage_fc8_plantvillage_0_split_0
I0403 14:51:49.923712 30503 net.cpp:399] fc8_plantvillage_fc8_plantvillage_0_split -> fc8_plantvillage_fc8_plantvillage_0_split_1
I0403 14:51:49.923732 30503 net.cpp:399] fc8_plantvillage_fc8_plantvillage_0_split -> fc8_plantvillage_fc8_plantvillage_0_split_2
I0403 14:51:49.923805 30503 net.cpp:141] Setting up fc8_plantvillage_fc8_plantvillage_0_split
I0403 14:51:49.923828 30503 net.cpp:148] Top shape: 100 38 (3800)
I0403 14:51:49.923845 30503 net.cpp:148] Top shape: 100 38 (3800)
I0403 14:51:49.923861 30503 net.cpp:148] Top shape: 100 38 (3800)
I0403 14:51:49.923873 30503 net.cpp:156] Memory required for data: 831586800
I0403 14:51:49.923887 30503 layer_factory.hpp:77] Creating layer prob
I0403 14:51:49.923907 30503 net.cpp:91] Creating Layer prob
I0403 14:51:49.923921 30503 net.cpp:425] prob <- fc8_plantvillage_fc8_plantvillage_0_split_0
I0403 14:51:49.923938 30503 net.cpp:399] prob -> prob
I0403 14:51:49.924151 30503 net.cpp:141] Setting up prob
I0403 14:51:49.924180 30503 net.cpp:148] Top shape: 100 38 (3800)
I0403 14:51:49.924195 30503 net.cpp:156] Memory required for data: 831602000
I0403 14:51:49.924209 30503 layer_factory.hpp:77] Creating layer hdf5out
I0403 14:51:49.924227 30503 net.cpp:91] Creating Layer hdf5out
I0403 14:51:49.924243 30503 net.cpp:425] hdf5out <- prob
I0403 14:51:49.924258 30503 net.cpp:425] hdf5out <- label_data_1_split_0
I0403 14:51:49.935230 30503 net.cpp:141] Setting up hdf5out
…
