…
I0403 14:58:38.933707 30703 net.cpp:313] The NetState phase (1) differed from the phase (0) specified by a rule in layer data
I0403 14:58:38.933995 30703 net.cpp:49] Initializing net from parameters: 
state {
  phase: TEST
}
layer {
  name: "data"
  type: "Data"
  top: "data"
  top: "label"
  include {
    phase: TEST
  }
  transform_param {
    crop_size: 227
    mean_file: "/home/mohanty/data/final_dataset/lmdb/segmented-80-20/mean.binaryproto"
  }
  data_param {
    source: "/home/mohanty/data/final_dataset/lmdb/segmented-80-20/test_db"
    batch_size: 100
    backend: LMDB
  }
}
layer {
  name: "conv1"
  type: "Convolution"
  bottom: "data"
  top: "conv1"
  param {
    lr_mult: 1
    decay_mult: 1
  }
  param {
    lr_mult: 2
    decay_mult: 0
  }
  convolution_param {
    num_output: 96
    kernel_size: 11
    stride: 4
    weight_filler {
      type: "gaussian"
      std: 0.01
    }
    bias_filler {
      type: "constant"
      value: 0
    }
  }
}
layer {
  name: "relu1"
  type: "ReLU"
  bottom: "conv1"
  top: "conv1"
}
layer {
  name: "norm1"
  type: "LRN"
  bottom: "conv1"
  top: "norm1"
  lrn_param {
    local_size: 5
    alpha: 0.0001
    beta: 0.75
  }
}
layer {
  name: "pool1"
  type: "Pooling"
  bottom: "norm1"
  top: "pool1"
  pooling_param {
    pool: MAX
    kernel_size: 3
    stride: 2
  }
}
layer {
  name: "conv2"
  type: "Convolution"
  bottom: "pool1"
  top: "conv2"
  param {
    lr_mult: 1
    decay_mult: 1
  }
  param {
    lr_mult: 2
    decay_mult: 0
  }
  convolution_param {
    num_output: 256
    pad: 2
    kernel_size: 5
    group: 2
    weight_filler {
      type: "gaussian"
      std: 0.01
    }
    bias_filler {
      type: "constant"
      value: 0.1
    }
  }
}
layer {
  name: "relu2"
  type: "ReLU"
  bottom: "conv2"
  top: "conv2"
}
layer {
  name: "norm2"
  type: "LRN"
  bottom: "conv2"
  top: "norm2"
  lrn_param {
    local_size: 5
    alpha: 0.0001
    beta: 0.75
  }
}
layer {
  name: "pool2"
  type: "Pooling"
  bottom: "norm2"
  top: "pool2"
  pooling_param {
    pool: MAX
    kernel_size: 3
    stride: 2
  }
}
layer {
  name: "conv3"
  type: "Convolution"
  bottom: "pool2"
  top: "conv3"
  param {
    lr_mult: 1
    decay_mult: 1
  }
  param {
    lr_mult: 2
    decay_mult: 0
  }
  convolution_param {
    num_output: 384
    pad: 1
    kernel_size: 3
    weight_filler {
      type: "gaussian"
      std: 0.01
    }
    bias_filler {
      type: "constant"
      value: 0
    }
  }
}
layer {
  name: "relu3"
  type: "ReLU"
  bottom: "conv3"
  top: "conv3"
}
layer {
  name: "conv4"
  type: "Convolution"
  bottom: "conv3"
  top: "conv4"
  param {
    lr_mult: 1
    decay_mult: 1
  }
  param {
    lr_mult: 2
    decay_mult: 0
  }
  convolution_param {
    num_output: 384
    pad: 1
    kernel_size: 3
    group: 2
    weight_filler {
      type: "gaussian"
      std: 0.01
    }
    bias_filler {
      type: "constant"
      value: 0.1
    }
  }
}
layer {
  name: "relu4"
  type: "ReLU"
  bottom: "conv4"
  top: "conv4"
}
layer {
  name: "conv5"
  type: "Convolution"
  bottom: "conv4"
  top: "conv5"
  param {
    lr_mult: 1
    decay_mult: 1
  }
  param {
    lr_mult: 2
    decay_mult: 0
  }
  convolution_param {
    num_output: 256
    pad: 1
    kernel_size: 3
    group: 2
    weight_filler {
      type: "gaussian"
      std: 0.01
    }
    bias_filler {
      type: "constant"
      value: 0.1
    }
  }
}
layer {
  name: "relu5"
  type: "ReLU"
  bottom: "conv5"
  top: "conv5"
}
layer {
  name: "pool5"
  type: "Pooling"
  bottom: "conv5"
  top: "pool5"
  pooling_param {
    pool: MAX
    kernel_size: 3
    stride: 2
  }
}
layer {
  name: "fc6"
  type: "InnerProduct"
  bottom: "pool5"
  top: "fc6"
  param {
    lr_mult: 1
    decay_mult: 1
  }
  param {
    lr_mult: 2
    decay_mult: 0
  }
  inner_product_param {
    num_output: 4096
    weight_filler {
      type: "gaussian"
      std: 0.005
    }
    bias_filler {
      type: "constant"
      value: 0.1
    }
  }
}
layer {
  name: "relu6"
  type: "ReLU"
  bottom: "fc6"
  top: "fc6"
}
layer {
  name: "drop6"
  type: "Dropout"
  bottom: "fc6"
  top: "fc6"
  dropout_param {
    dropout_ratio: 0.5
  }
}
layer {
  name: "fc7"
  type: "InnerProduct"
  bottom: "fc6"
  top: "fc7"
  param {
    lr_mult: 1
    decay_mult: 1
  }
  param {
    lr_mult: 2
    decay_mult: 0
  }
  inner_product_param {
    num_output: 4096
    weight_filler {
      type: "gaussian"
      std: 0.005
    }
    bias_filler {
      type: "constant"
      value: 0.1
    }
  }
}
layer {
  name: "relu7"
  type: "ReLU"
  bottom: "fc7"
  top: "fc7"
}
layer {
  name: "drop7"
  type: "Dropout"
  bottom: "fc7"
  top: "fc7"
  dropout_param {
    dropout_ratio: 0.5
  }
}
layer {
  name: "fc8_plantvillage"
  type: "InnerProduct"
  bottom: "fc7"
  top: "fc8_plantvillage"
  param {
    lr_mult: 1
    decay_mult: 1
  }
  param {
    lr_mult: 2
    decay_mult: 0
  }
  inner_product_param {
    num_output: 38
    weight_filler {
      type: "gaussian"
      std: 0.01
    }
    bias_filler {
      type: "constant"
      value: 0
    }
  }
}
layer {
  name: "prob"
  type: "Softmax"
  bottom: "fc8_plantvillage"
  top: "prob"
  include {
    phase: TEST
  }
}
layer {
  name: "hdf5out"
  type: "HDF5Output"
  bottom: "prob"
  bottom: "label"
  include {
    phase: TEST
  }
  hdf5_output_param {
    file_name: "hdf5_dumps/iter_8265.h5"
  }
}
layer {
  name: "loss"
  type: "SoftmaxWithLoss"
  bottom: "fc8_plantvillage"
  bottom: "label"
  top: "loss"
}
layer {
  name: "accuracy"
  type: "Accuracy"
  bottom: "fc8_plantvillage"
  bottom: "label"
  top: "accuracy"
  include {
    phase: TEST
  }
}
I0403 14:58:38.934516 30703 layer_factory.hpp:77] Creating layer data
I0403 14:58:38.935139 30703 net.cpp:91] Creating Layer data
I0403 14:58:38.935169 30703 net.cpp:399] data -> data
I0403 14:58:38.935222 30703 net.cpp:399] data -> label
I0403 14:58:38.935271 30703 data_transformer.cpp:25] Loading mean file from: /home/mohanty/data/final_dataset/lmdb/segmented-80-20/mean.binaryproto
I0403 14:58:38.938225 30705 db_lmdb.cpp:38] Opened lmdb /home/mohanty/data/final_dataset/lmdb/segmented-80-20/test_db
I0403 14:58:38.949259 30703 data_layer.cpp:41] output data size: 100,3,227,227
I0403 14:58:39.081403 30703 net.cpp:141] Setting up data
I0403 14:58:39.081476 30703 net.cpp:148] Top shape: 100 3 227 227 (15458700)
I0403 14:58:39.081501 30703 net.cpp:148] Top shape: 100 (100)
I0403 14:58:39.081516 30703 net.cpp:156] Memory required for data: 61835200
I0403 14:58:39.081544 30703 layer_factory.hpp:77] Creating layer label_data_1_split
I0403 14:58:39.081571 30703 net.cpp:91] Creating Layer label_data_1_split
I0403 14:58:39.081589 30703 net.cpp:425] label_data_1_split <- label
I0403 14:58:39.081620 30703 net.cpp:399] label_data_1_split -> label_data_1_split_0
I0403 14:58:39.081648 30703 net.cpp:399] label_data_1_split -> label_data_1_split_1
I0403 14:58:39.081670 30703 net.cpp:399] label_data_1_split -> label_data_1_split_2
I0403 14:58:39.081733 30703 net.cpp:141] Setting up label_data_1_split
I0403 14:58:39.081758 30703 net.cpp:148] Top shape: 100 (100)
I0403 14:58:39.081775 30703 net.cpp:148] Top shape: 100 (100)
I0403 14:58:39.081791 30703 net.cpp:148] Top shape: 100 (100)
I0403 14:58:39.081806 30703 net.cpp:156] Memory required for data: 61836400
I0403 14:58:39.081822 30703 layer_factory.hpp:77] Creating layer conv1
I0403 14:58:39.081853 30703 net.cpp:91] Creating Layer conv1
I0403 14:58:39.081872 30703 net.cpp:425] conv1 <- data
I0403 14:58:39.081892 30703 net.cpp:399] conv1 -> conv1
I0403 14:58:39.226518 30703 net.cpp:141] Setting up conv1
I0403 14:58:39.226613 30703 net.cpp:148] Top shape: 100 96 55 55 (29040000)
I0403 14:58:39.226635 30703 net.cpp:156] Memory required for data: 177996400
I0403 14:58:39.226668 30703 layer_factory.hpp:77] Creating layer relu1
I0403 14:58:39.226697 30703 net.cpp:91] Creating Layer relu1
I0403 14:58:39.226716 30703 net.cpp:425] relu1 <- conv1
I0403 14:58:39.226737 30703 net.cpp:386] relu1 -> conv1 (in-place)
I0403 14:58:39.226996 30703 net.cpp:141] Setting up relu1
I0403 14:58:39.227025 30703 net.cpp:148] Top shape: 100 96 55 55 (29040000)
I0403 14:58:39.227073 30703 net.cpp:156] Memory required for data: 294156400
I0403 14:58:39.227092 30703 layer_factory.hpp:77] Creating layer norm1
I0403 14:58:39.227120 30703 net.cpp:91] Creating Layer norm1
I0403 14:58:39.227139 30703 net.cpp:425] norm1 <- conv1
I0403 14:58:39.227157 30703 net.cpp:399] norm1 -> norm1
I0403 14:58:39.227468 30703 net.cpp:141] Setting up norm1
I0403 14:58:39.227499 30703 net.cpp:148] Top shape: 100 96 55 55 (29040000)
I0403 14:58:39.227514 30703 net.cpp:156] Memory required for data: 410316400
I0403 14:58:39.227531 30703 layer_factory.hpp:77] Creating layer pool1
I0403 14:58:39.227555 30703 net.cpp:91] Creating Layer pool1
I0403 14:58:39.227574 30703 net.cpp:425] pool1 <- norm1
I0403 14:58:39.227592 30703 net.cpp:399] pool1 -> pool1
I0403 14:58:39.227661 30703 net.cpp:141] Setting up pool1
I0403 14:58:39.227687 30703 net.cpp:148] Top shape: 100 96 27 27 (6998400)
I0403 14:58:39.227702 30703 net.cpp:156] Memory required for data: 438310000
I0403 14:58:39.227720 30703 layer_factory.hpp:77] Creating layer conv2
I0403 14:58:39.227744 30703 net.cpp:91] Creating Layer conv2
I0403 14:58:39.227761 30703 net.cpp:425] conv2 <- pool1
I0403 14:58:39.227779 30703 net.cpp:399] conv2 -> conv2
I0403 14:58:39.242880 30703 net.cpp:141] Setting up conv2
I0403 14:58:39.242930 30703 net.cpp:148] Top shape: 100 256 27 27 (18662400)
I0403 14:58:39.242949 30703 net.cpp:156] Memory required for data: 512959600
I0403 14:58:39.242974 30703 layer_factory.hpp:77] Creating layer relu2
I0403 14:58:39.242995 30703 net.cpp:91] Creating Layer relu2
I0403 14:58:39.243046 30703 net.cpp:425] relu2 <- conv2
I0403 14:58:39.243072 30703 net.cpp:386] relu2 -> conv2 (in-place)
I0403 14:58:39.243352 30703 net.cpp:141] Setting up relu2
I0403 14:58:39.243381 30703 net.cpp:148] Top shape: 100 256 27 27 (18662400)
I0403 14:58:39.243397 30703 net.cpp:156] Memory required for data: 587609200
I0403 14:58:39.243413 30703 layer_factory.hpp:77] Creating layer norm2
I0403 14:58:39.243435 30703 net.cpp:91] Creating Layer norm2
I0403 14:58:39.243453 30703 net.cpp:425] norm2 <- conv2
I0403 14:58:39.243473 30703 net.cpp:399] norm2 -> norm2
I0403 14:58:39.243660 30703 net.cpp:141] Setting up norm2
I0403 14:58:39.243687 30703 net.cpp:148] Top shape: 100 256 27 27 (18662400)
I0403 14:58:39.243705 30703 net.cpp:156] Memory required for data: 662258800
I0403 14:58:39.243721 30703 layer_factory.hpp:77] Creating layer pool2
I0403 14:58:39.243739 30703 net.cpp:91] Creating Layer pool2
I0403 14:58:39.243755 30703 net.cpp:425] pool2 <- norm2
I0403 14:58:39.243774 30703 net.cpp:399] pool2 -> pool2
I0403 14:58:39.243825 30703 net.cpp:141] Setting up pool2
I0403 14:58:39.243849 30703 net.cpp:148] Top shape: 100 256 13 13 (4326400)
I0403 14:58:39.243865 30703 net.cpp:156] Memory required for data: 679564400
I0403 14:58:39.243881 30703 layer_factory.hpp:77] Creating layer conv3
I0403 14:58:39.243904 30703 net.cpp:91] Creating Layer conv3
I0403 14:58:39.243921 30703 net.cpp:425] conv3 <- pool2
I0403 14:58:39.243940 30703 net.cpp:399] conv3 -> conv3
I0403 14:58:39.281839 30703 net.cpp:141] Setting up conv3
I0403 14:58:39.281899 30703 net.cpp:148] Top shape: 100 384 13 13 (6489600)
I0403 14:58:39.281918 30703 net.cpp:156] Memory required for data: 705522800
I0403 14:58:39.281942 30703 layer_factory.hpp:77] Creating layer relu3
I0403 14:58:39.281965 30703 net.cpp:91] Creating Layer relu3
I0403 14:58:39.281982 30703 net.cpp:425] relu3 <- conv3
I0403 14:58:39.282001 30703 net.cpp:386] relu3 -> conv3 (in-place)
I0403 14:58:39.282271 30703 net.cpp:141] Setting up relu3
I0403 14:58:39.282306 30703 net.cpp:148] Top shape: 100 384 13 13 (6489600)
I0403 14:58:39.282323 30703 net.cpp:156] Memory required for data: 731481200
I0403 14:58:39.282340 30703 layer_factory.hpp:77] Creating layer conv4
I0403 14:58:39.282364 30703 net.cpp:91] Creating Layer conv4
I0403 14:58:39.282382 30703 net.cpp:425] conv4 <- conv3
I0403 14:58:39.282402 30703 net.cpp:399] conv4 -> conv4
I0403 14:58:39.312182 30703 net.cpp:141] Setting up conv4
I0403 14:58:39.312227 30703 net.cpp:148] Top shape: 100 384 13 13 (6489600)
I0403 14:58:39.312279 30703 net.cpp:156] Memory required for data: 757439600
I0403 14:58:39.312307 30703 layer_factory.hpp:77] Creating layer relu4
I0403 14:58:39.312333 30703 net.cpp:91] Creating Layer relu4
I0403 14:58:39.312382 30703 net.cpp:425] relu4 <- conv4
I0403 14:58:39.312408 30703 net.cpp:386] relu4 -> conv4 (in-place)
I0403 14:58:39.312695 30703 net.cpp:141] Setting up relu4
I0403 14:58:39.312722 30703 net.cpp:148] Top shape: 100 384 13 13 (6489600)
I0403 14:58:39.312739 30703 net.cpp:156] Memory required for data: 783398000
I0403 14:58:39.312757 30703 layer_factory.hpp:77] Creating layer conv5
I0403 14:58:39.312783 30703 net.cpp:91] Creating Layer conv5
I0403 14:58:39.312801 30703 net.cpp:425] conv5 <- conv4
I0403 14:58:39.312822 30703 net.cpp:399] conv5 -> conv5
I0403 14:58:39.334513 30703 net.cpp:141] Setting up conv5
I0403 14:58:39.334574 30703 net.cpp:148] Top shape: 100 256 13 13 (4326400)
I0403 14:58:39.334591 30703 net.cpp:156] Memory required for data: 800703600
I0403 14:58:39.334619 30703 layer_factory.hpp:77] Creating layer relu5
I0403 14:58:39.334645 30703 net.cpp:91] Creating Layer relu5
I0403 14:58:39.334663 30703 net.cpp:425] relu5 <- conv5
I0403 14:58:39.334683 30703 net.cpp:386] relu5 -> conv5 (in-place)
I0403 14:58:39.335005 30703 net.cpp:141] Setting up relu5
I0403 14:58:39.335036 30703 net.cpp:148] Top shape: 100 256 13 13 (4326400)
I0403 14:58:39.335053 30703 net.cpp:156] Memory required for data: 818009200
I0403 14:58:39.335070 30703 layer_factory.hpp:77] Creating layer pool5
I0403 14:58:39.335093 30703 net.cpp:91] Creating Layer pool5
I0403 14:58:39.335110 30703 net.cpp:425] pool5 <- conv5
I0403 14:58:39.335132 30703 net.cpp:399] pool5 -> pool5
I0403 14:58:39.335196 30703 net.cpp:141] Setting up pool5
I0403 14:58:39.335222 30703 net.cpp:148] Top shape: 100 256 6 6 (921600)
I0403 14:58:39.335239 30703 net.cpp:156] Memory required for data: 821695600
I0403 14:58:39.335255 30703 layer_factory.hpp:77] Creating layer fc6
I0403 14:58:39.335288 30703 net.cpp:91] Creating Layer fc6
I0403 14:58:39.335307 30703 net.cpp:425] fc6 <- pool5
I0403 14:58:39.335330 30703 net.cpp:399] fc6 -> fc6
I0403 14:58:40.882820 30703 net.cpp:141] Setting up fc6
I0403 14:58:40.882896 30703 net.cpp:148] Top shape: 100 4096 (409600)
I0403 14:58:40.882915 30703 net.cpp:156] Memory required for data: 823334000
I0403 14:58:40.882937 30703 layer_factory.hpp:77] Creating layer relu6
I0403 14:58:40.882961 30703 net.cpp:91] Creating Layer relu6
I0403 14:58:40.882979 30703 net.cpp:425] relu6 <- fc6
I0403 14:58:40.882998 30703 net.cpp:386] relu6 -> fc6 (in-place)
I0403 14:58:40.883220 30703 net.cpp:141] Setting up relu6
I0403 14:58:40.883249 30703 net.cpp:148] Top shape: 100 4096 (409600)
I0403 14:58:40.883266 30703 net.cpp:156] Memory required for data: 824972400
I0403 14:58:40.883287 30703 layer_factory.hpp:77] Creating layer drop6
I0403 14:58:40.883308 30703 net.cpp:91] Creating Layer drop6
I0403 14:58:40.883325 30703 net.cpp:425] drop6 <- fc6
I0403 14:58:40.883347 30703 net.cpp:386] drop6 -> fc6 (in-place)
I0403 14:58:40.883400 30703 net.cpp:141] Setting up drop6
I0403 14:58:40.883425 30703 net.cpp:148] Top shape: 100 4096 (409600)
I0403 14:58:40.883440 30703 net.cpp:156] Memory required for data: 826610800
I0403 14:58:40.883456 30703 layer_factory.hpp:77] Creating layer fc7
I0403 14:58:40.883482 30703 net.cpp:91] Creating Layer fc7
I0403 14:58:40.883502 30703 net.cpp:425] fc7 <- fc6
I0403 14:58:40.883524 30703 net.cpp:399] fc7 -> fc7
I0403 14:58:41.580407 30703 net.cpp:141] Setting up fc7
I0403 14:58:41.580476 30703 net.cpp:148] Top shape: 100 4096 (409600)
I0403 14:58:41.580493 30703 net.cpp:156] Memory required for data: 828249200
I0403 14:58:41.580515 30703 layer_factory.hpp:77] Creating layer relu7
I0403 14:58:41.580538 30703 net.cpp:91] Creating Layer relu7
I0403 14:58:41.580556 30703 net.cpp:425] relu7 <- fc7
I0403 14:58:41.580577 30703 net.cpp:386] relu7 -> fc7 (in-place)
I0403 14:58:41.580968 30703 net.cpp:141] Setting up relu7
I0403 14:58:41.580998 30703 net.cpp:148] Top shape: 100 4096 (409600)
I0403 14:58:41.581043 30703 net.cpp:156] Memory required for data: 829887600
I0403 14:58:41.581060 30703 layer_factory.hpp:77] Creating layer drop7
I0403 14:58:41.581079 30703 net.cpp:91] Creating Layer drop7
I0403 14:58:41.581094 30703 net.cpp:425] drop7 <- fc7
I0403 14:58:41.581113 30703 net.cpp:386] drop7 -> fc7 (in-place)
I0403 14:58:41.581158 30703 net.cpp:141] Setting up drop7
I0403 14:58:41.581182 30703 net.cpp:148] Top shape: 100 4096 (409600)
I0403 14:58:41.581197 30703 net.cpp:156] Memory required for data: 831526000
I0403 14:58:41.581212 30703 layer_factory.hpp:77] Creating layer fc8_plantvillage
I0403 14:58:41.581233 30703 net.cpp:91] Creating Layer fc8_plantvillage
I0403 14:58:41.581248 30703 net.cpp:425] fc8_plantvillage <- fc7
I0403 14:58:41.581266 30703 net.cpp:399] fc8_plantvillage -> fc8_plantvillage
I0403 14:58:41.587983 30703 net.cpp:141] Setting up fc8_plantvillage
I0403 14:58:41.588014 30703 net.cpp:148] Top shape: 100 38 (3800)
I0403 14:58:41.588029 30703 net.cpp:156] Memory required for data: 831541200
I0403 14:58:41.588049 30703 layer_factory.hpp:77] Creating layer fc8_plantvillage_fc8_plantvillage_0_split
I0403 14:58:41.588069 30703 net.cpp:91] Creating Layer fc8_plantvillage_fc8_plantvillage_0_split
I0403 14:58:41.588085 30703 net.cpp:425] fc8_plantvillage_fc8_plantvillage_0_split <- fc8_plantvillage
I0403 14:58:41.588105 30703 net.cpp:399] fc8_plantvillage_fc8_plantvillage_0_split -> fc8_plantvillage_fc8_plantvillage_0_split_0
I0403 14:58:41.588127 30703 net.cpp:399] fc8_plantvillage_fc8_plantvillage_0_split -> fc8_plantvillage_fc8_plantvillage_0_split_1
I0403 14:58:41.588157 30703 net.cpp:399] fc8_plantvillage_fc8_plantvillage_0_split -> fc8_plantvillage_fc8_plantvillage_0_split_2
I0403 14:58:41.588233 30703 net.cpp:141] Setting up fc8_plantvillage_fc8_plantvillage_0_split
I0403 14:58:41.588258 30703 net.cpp:148] Top shape: 100 38 (3800)
I0403 14:58:41.588275 30703 net.cpp:148] Top shape: 100 38 (3800)
I0403 14:58:41.588295 30703 net.cpp:148] Top shape: 100 38 (3800)
I0403 14:58:41.588310 30703 net.cpp:156] Memory required for data: 831586800
I0403 14:58:41.588325 30703 layer_factory.hpp:77] Creating layer prob
I0403 14:58:41.588346 30703 net.cpp:91] Creating Layer prob
I0403 14:58:41.588362 30703 net.cpp:425] prob <- fc8_plantvillage_fc8_plantvillage_0_split_0
I0403 14:58:41.588382 30703 net.cpp:399] prob -> prob
I0403 14:58:41.588611 30703 net.cpp:141] Setting up prob
I0403 14:58:41.588642 30703 net.cpp:148] Top shape: 100 38 (3800)
I0403 14:58:41.588660 30703 net.cpp:156] Memory required for data: 831602000
I0403 14:58:41.588675 30703 layer_factory.hpp:77] Creating layer hdf5out
I0403 14:58:41.588696 30703 net.cpp:91] Creating Layer hdf5out
I0403 14:58:41.588711 30703 net.cpp:425] hdf5out <- prob
I0403 14:58:41.588728 30703 net.cpp:425] hdf5out <- label_data_1_split_0
I0403 14:58:41.592563 30703 net.cpp:141] Setting up hdf5out
…
