…
I0403 14:51:22.245118 30494 net.cpp:313] The NetState phase (1) differed from the phase (0) specified by a rule in layer data
I0403 14:51:22.245424 30494 net.cpp:49] Initializing net from parameters: 
state {
  phase: TEST
}
layer {
  name: "data"
  type: "Data"
  top: "data"
  top: "label"
  include {
    phase: TEST
  }
  transform_param {
    crop_size: 227
    mean_file: "/home/mohanty/data/final_dataset/lmdb/segmented-80-20/mean.binaryproto"
  }
  data_param {
    source: "/home/mohanty/data/final_dataset/lmdb/segmented-80-20/test_db"
    batch_size: 100
    backend: LMDB
  }
}
layer {
  name: "conv1"
  type: "Convolution"
  bottom: "data"
  top: "conv1"
  param {
    lr_mult: 1
    decay_mult: 1
  }
  param {
    lr_mult: 2
    decay_mult: 0
  }
  convolution_param {
    num_output: 96
    kernel_size: 11
    stride: 4
    weight_filler {
      type: "gaussian"
      std: 0.01
    }
    bias_filler {
      type: "constant"
      value: 0
    }
  }
}
layer {
  name: "relu1"
  type: "ReLU"
  bottom: "conv1"
  top: "conv1"
}
layer {
  name: "norm1"
  type: "LRN"
  bottom: "conv1"
  top: "norm1"
  lrn_param {
    local_size: 5
    alpha: 0.0001
    beta: 0.75
  }
}
layer {
  name: "pool1"
  type: "Pooling"
  bottom: "norm1"
  top: "pool1"
  pooling_param {
    pool: MAX
    kernel_size: 3
    stride: 2
  }
}
layer {
  name: "conv2"
  type: "Convolution"
  bottom: "pool1"
  top: "conv2"
  param {
    lr_mult: 1
    decay_mult: 1
  }
  param {
    lr_mult: 2
    decay_mult: 0
  }
  convolution_param {
    num_output: 256
    pad: 2
    kernel_size: 5
    group: 2
    weight_filler {
      type: "gaussian"
      std: 0.01
    }
    bias_filler {
      type: "constant"
      value: 0.1
    }
  }
}
layer {
  name: "relu2"
  type: "ReLU"
  bottom: "conv2"
  top: "conv2"
}
layer {
  name: "norm2"
  type: "LRN"
  bottom: "conv2"
  top: "norm2"
  lrn_param {
    local_size: 5
    alpha: 0.0001
    beta: 0.75
  }
}
layer {
  name: "pool2"
  type: "Pooling"
  bottom: "norm2"
  top: "pool2"
  pooling_param {
    pool: MAX
    kernel_size: 3
    stride: 2
  }
}
layer {
  name: "conv3"
  type: "Convolution"
  bottom: "pool2"
  top: "conv3"
  param {
    lr_mult: 1
    decay_mult: 1
  }
  param {
    lr_mult: 2
    decay_mult: 0
  }
  convolution_param {
    num_output: 384
    pad: 1
    kernel_size: 3
    weight_filler {
      type: "gaussian"
      std: 0.01
    }
    bias_filler {
      type: "constant"
      value: 0
    }
  }
}
layer {
  name: "relu3"
  type: "ReLU"
  bottom: "conv3"
  top: "conv3"
}
layer {
  name: "conv4"
  type: "Convolution"
  bottom: "conv3"
  top: "conv4"
  param {
    lr_mult: 1
    decay_mult: 1
  }
  param {
    lr_mult: 2
    decay_mult: 0
  }
  convolution_param {
    num_output: 384
    pad: 1
    kernel_size: 3
    group: 2
    weight_filler {
      type: "gaussian"
      std: 0.01
    }
    bias_filler {
      type: "constant"
      value: 0.1
    }
  }
}
layer {
  name: "relu4"
  type: "ReLU"
  bottom: "conv4"
  top: "conv4"
}
layer {
  name: "conv5"
  type: "Convolution"
  bottom: "conv4"
  top: "conv5"
  param {
    lr_mult: 1
    decay_mult: 1
  }
  param {
    lr_mult: 2
    decay_mult: 0
  }
  convolution_param {
    num_output: 256
    pad: 1
    kernel_size: 3
    group: 2
    weight_filler {
      type: "gaussian"
      std: 0.01
    }
    bias_filler {
      type: "constant"
      value: 0.1
    }
  }
}
layer {
  name: "relu5"
  type: "ReLU"
  bottom: "conv5"
  top: "conv5"
}
layer {
  name: "pool5"
  type: "Pooling"
  bottom: "conv5"
  top: "pool5"
  pooling_param {
    pool: MAX
    kernel_size: 3
    stride: 2
  }
}
layer {
  name: "fc6"
  type: "InnerProduct"
  bottom: "pool5"
  top: "fc6"
  param {
    lr_mult: 1
    decay_mult: 1
  }
  param {
    lr_mult: 2
    decay_mult: 0
  }
  inner_product_param {
    num_output: 4096
    weight_filler {
      type: "gaussian"
      std: 0.005
    }
    bias_filler {
      type: "constant"
      value: 0.1
    }
  }
}
layer {
  name: "relu6"
  type: "ReLU"
  bottom: "fc6"
  top: "fc6"
}
layer {
  name: "drop6"
  type: "Dropout"
  bottom: "fc6"
  top: "fc6"
  dropout_param {
    dropout_ratio: 0.5
  }
}
layer {
  name: "fc7"
  type: "InnerProduct"
  bottom: "fc6"
  top: "fc7"
  param {
    lr_mult: 1
    decay_mult: 1
  }
  param {
    lr_mult: 2
    decay_mult: 0
  }
  inner_product_param {
    num_output: 4096
    weight_filler {
      type: "gaussian"
      std: 0.005
    }
    bias_filler {
      type: "constant"
      value: 0.1
    }
  }
}
layer {
  name: "relu7"
  type: "ReLU"
  bottom: "fc7"
  top: "fc7"
}
layer {
  name: "drop7"
  type: "Dropout"
  bottom: "fc7"
  top: "fc7"
  dropout_param {
    dropout_ratio: 0.5
  }
}
layer {
  name: "fc8_plantvillage"
  type: "InnerProduct"
  bottom: "fc7"
  top: "fc8_plantvillage"
  param {
    lr_mult: 1
    decay_mult: 1
  }
  param {
    lr_mult: 2
    decay_mult: 0
  }
  inner_product_param {
    num_output: 38
    weight_filler {
      type: "gaussian"
      std: 0.01
    }
    bias_filler {
      type: "constant"
      value: 0
    }
  }
}
layer {
  name: "prob"
  type: "Softmax"
  bottom: "fc8_plantvillage"
  top: "prob"
  include {
    phase: TEST
  }
}
layer {
  name: "hdf5out"
  type: "HDF5Output"
  bottom: "prob"
  bottom: "label"
  include {
    phase: TEST
  }
  hdf5_output_param {
    file_name: "hdf5_dumps/iter_435.h5"
  }
}
layer {
  name: "loss"
  type: "SoftmaxWithLoss"
  bottom: "fc8_plantvillage"
  bottom: "label"
  top: "loss"
}
layer {
  name: "accuracy"
  type: "Accuracy"
  bottom: "fc8_plantvillage"
  bottom: "label"
  top: "accuracy"
  include {
    phase: TEST
  }
}
I0403 14:51:22.246034 30494 layer_factory.hpp:77] Creating layer data
I0403 14:51:22.246680 30494 net.cpp:91] Creating Layer data
I0403 14:51:22.246711 30494 net.cpp:399] data -> data
I0403 14:51:22.246762 30494 net.cpp:399] data -> label
I0403 14:51:22.246799 30494 data_transformer.cpp:25] Loading mean file from: /home/mohanty/data/final_dataset/lmdb/segmented-80-20/mean.binaryproto
I0403 14:51:22.284406 30496 db_lmdb.cpp:38] Opened lmdb /home/mohanty/data/final_dataset/lmdb/segmented-80-20/test_db
I0403 14:51:22.300249 30494 data_layer.cpp:41] output data size: 100,3,227,227
I0403 14:51:22.458533 30494 net.cpp:141] Setting up data
I0403 14:51:22.458598 30494 net.cpp:148] Top shape: 100 3 227 227 (15458700)
I0403 14:51:22.458623 30494 net.cpp:148] Top shape: 100 (100)
I0403 14:51:22.458641 30494 net.cpp:156] Memory required for data: 61835200
I0403 14:51:22.458670 30494 layer_factory.hpp:77] Creating layer label_data_1_split
I0403 14:51:22.458696 30494 net.cpp:91] Creating Layer label_data_1_split
I0403 14:51:22.458716 30494 net.cpp:425] label_data_1_split <- label
I0403 14:51:22.458750 30494 net.cpp:399] label_data_1_split -> label_data_1_split_0
I0403 14:51:22.458776 30494 net.cpp:399] label_data_1_split -> label_data_1_split_1
I0403 14:51:22.458799 30494 net.cpp:399] label_data_1_split -> label_data_1_split_2
I0403 14:51:22.458868 30494 net.cpp:141] Setting up label_data_1_split
I0403 14:51:22.458892 30494 net.cpp:148] Top shape: 100 (100)
I0403 14:51:22.458910 30494 net.cpp:148] Top shape: 100 (100)
I0403 14:51:22.458928 30494 net.cpp:148] Top shape: 100 (100)
I0403 14:51:22.458943 30494 net.cpp:156] Memory required for data: 61836400
I0403 14:51:22.458958 30494 layer_factory.hpp:77] Creating layer conv1
I0403 14:51:22.458992 30494 net.cpp:91] Creating Layer conv1
I0403 14:51:22.459012 30494 net.cpp:425] conv1 <- data
I0403 14:51:22.459033 30494 net.cpp:399] conv1 -> conv1
I0403 14:51:22.606006 30494 net.cpp:141] Setting up conv1
I0403 14:51:22.606070 30494 net.cpp:148] Top shape: 100 96 55 55 (29040000)
I0403 14:51:22.606086 30494 net.cpp:156] Memory required for data: 177996400
I0403 14:51:22.606117 30494 layer_factory.hpp:77] Creating layer relu1
I0403 14:51:22.606145 30494 net.cpp:91] Creating Layer relu1
I0403 14:51:22.606164 30494 net.cpp:425] relu1 <- conv1
I0403 14:51:22.606184 30494 net.cpp:386] relu1 -> conv1 (in-place)
I0403 14:51:22.606443 30494 net.cpp:141] Setting up relu1
I0403 14:51:22.606472 30494 net.cpp:148] Top shape: 100 96 55 55 (29040000)
I0403 14:51:22.606516 30494 net.cpp:156] Memory required for data: 294156400
I0403 14:51:22.606534 30494 layer_factory.hpp:77] Creating layer norm1
I0403 14:51:22.606562 30494 net.cpp:91] Creating Layer norm1
I0403 14:51:22.606580 30494 net.cpp:425] norm1 <- conv1
I0403 14:51:22.606600 30494 net.cpp:399] norm1 -> norm1
I0403 14:51:22.606897 30494 net.cpp:141] Setting up norm1
I0403 14:51:22.606925 30494 net.cpp:148] Top shape: 100 96 55 55 (29040000)
I0403 14:51:22.606941 30494 net.cpp:156] Memory required for data: 410316400
I0403 14:51:22.606957 30494 layer_factory.hpp:77] Creating layer pool1
I0403 14:51:22.606981 30494 net.cpp:91] Creating Layer pool1
I0403 14:51:22.606999 30494 net.cpp:425] pool1 <- norm1
I0403 14:51:22.607017 30494 net.cpp:399] pool1 -> pool1
I0403 14:51:22.607153 30494 net.cpp:141] Setting up pool1
I0403 14:51:22.607178 30494 net.cpp:148] Top shape: 100 96 27 27 (6998400)
I0403 14:51:22.607195 30494 net.cpp:156] Memory required for data: 438310000
I0403 14:51:22.607211 30494 layer_factory.hpp:77] Creating layer conv2
I0403 14:51:22.607236 30494 net.cpp:91] Creating Layer conv2
I0403 14:51:22.607256 30494 net.cpp:425] conv2 <- pool1
I0403 14:51:22.607276 30494 net.cpp:399] conv2 -> conv2
I0403 14:51:22.622638 30494 net.cpp:141] Setting up conv2
I0403 14:51:22.622675 30494 net.cpp:148] Top shape: 100 256 27 27 (18662400)
I0403 14:51:22.622694 30494 net.cpp:156] Memory required for data: 512959600
I0403 14:51:22.622716 30494 layer_factory.hpp:77] Creating layer relu2
I0403 14:51:22.622737 30494 net.cpp:91] Creating Layer relu2
I0403 14:51:22.622755 30494 net.cpp:425] relu2 <- conv2
I0403 14:51:22.622773 30494 net.cpp:386] relu2 -> conv2 (in-place)
I0403 14:51:22.623037 30494 net.cpp:141] Setting up relu2
I0403 14:51:22.623065 30494 net.cpp:148] Top shape: 100 256 27 27 (18662400)
I0403 14:51:22.623081 30494 net.cpp:156] Memory required for data: 587609200
I0403 14:51:22.623097 30494 layer_factory.hpp:77] Creating layer norm2
I0403 14:51:22.623121 30494 net.cpp:91] Creating Layer norm2
I0403 14:51:22.623138 30494 net.cpp:425] norm2 <- conv2
I0403 14:51:22.623157 30494 net.cpp:399] norm2 -> norm2
I0403 14:51:22.623350 30494 net.cpp:141] Setting up norm2
I0403 14:51:22.623378 30494 net.cpp:148] Top shape: 100 256 27 27 (18662400)
I0403 14:51:22.623394 30494 net.cpp:156] Memory required for data: 662258800
I0403 14:51:22.623410 30494 layer_factory.hpp:77] Creating layer pool2
I0403 14:51:22.623430 30494 net.cpp:91] Creating Layer pool2
I0403 14:51:22.623499 30494 net.cpp:425] pool2 <- norm2
I0403 14:51:22.623524 30494 net.cpp:399] pool2 -> pool2
I0403 14:51:22.623577 30494 net.cpp:141] Setting up pool2
I0403 14:51:22.623602 30494 net.cpp:148] Top shape: 100 256 13 13 (4326400)
I0403 14:51:22.623618 30494 net.cpp:156] Memory required for data: 679564400
I0403 14:51:22.623636 30494 layer_factory.hpp:77] Creating layer conv3
I0403 14:51:22.623656 30494 net.cpp:91] Creating Layer conv3
I0403 14:51:22.623673 30494 net.cpp:425] conv3 <- pool2
I0403 14:51:22.623692 30494 net.cpp:399] conv3 -> conv3
I0403 14:51:22.663347 30494 net.cpp:141] Setting up conv3
I0403 14:51:22.663404 30494 net.cpp:148] Top shape: 100 384 13 13 (6489600)
I0403 14:51:22.663422 30494 net.cpp:156] Memory required for data: 705522800
I0403 14:51:22.663450 30494 layer_factory.hpp:77] Creating layer relu3
I0403 14:51:22.663471 30494 net.cpp:91] Creating Layer relu3
I0403 14:51:22.663489 30494 net.cpp:425] relu3 <- conv3
I0403 14:51:22.663512 30494 net.cpp:386] relu3 -> conv3 (in-place)
I0403 14:51:22.663799 30494 net.cpp:141] Setting up relu3
I0403 14:51:22.663827 30494 net.cpp:148] Top shape: 100 384 13 13 (6489600)
I0403 14:51:22.663843 30494 net.cpp:156] Memory required for data: 731481200
I0403 14:51:22.663858 30494 layer_factory.hpp:77] Creating layer conv4
I0403 14:51:22.663885 30494 net.cpp:91] Creating Layer conv4
I0403 14:51:22.663904 30494 net.cpp:425] conv4 <- conv3
I0403 14:51:22.663926 30494 net.cpp:399] conv4 -> conv4
I0403 14:51:22.693378 30494 net.cpp:141] Setting up conv4
I0403 14:51:22.693421 30494 net.cpp:148] Top shape: 100 384 13 13 (6489600)
I0403 14:51:22.693460 30494 net.cpp:156] Memory required for data: 757439600
I0403 14:51:22.693481 30494 layer_factory.hpp:77] Creating layer relu4
I0403 14:51:22.693502 30494 net.cpp:91] Creating Layer relu4
I0403 14:51:22.693519 30494 net.cpp:425] relu4 <- conv4
I0403 14:51:22.693542 30494 net.cpp:386] relu4 -> conv4 (in-place)
I0403 14:51:22.693895 30494 net.cpp:141] Setting up relu4
I0403 14:51:22.693922 30494 net.cpp:148] Top shape: 100 384 13 13 (6489600)
I0403 14:51:22.693938 30494 net.cpp:156] Memory required for data: 783398000
I0403 14:51:22.693953 30494 layer_factory.hpp:77] Creating layer conv5
I0403 14:51:22.693979 30494 net.cpp:91] Creating Layer conv5
I0403 14:51:22.693996 30494 net.cpp:425] conv5 <- conv4
I0403 14:51:22.694018 30494 net.cpp:399] conv5 -> conv5
I0403 14:51:22.714411 30494 net.cpp:141] Setting up conv5
I0403 14:51:22.714454 30494 net.cpp:148] Top shape: 100 256 13 13 (4326400)
I0403 14:51:22.714474 30494 net.cpp:156] Memory required for data: 800703600
I0403 14:51:22.714499 30494 layer_factory.hpp:77] Creating layer relu5
I0403 14:51:22.714521 30494 net.cpp:91] Creating Layer relu5
I0403 14:51:22.714539 30494 net.cpp:425] relu5 <- conv5
I0403 14:51:22.714563 30494 net.cpp:386] relu5 -> conv5 (in-place)
I0403 14:51:22.714846 30494 net.cpp:141] Setting up relu5
I0403 14:51:22.714874 30494 net.cpp:148] Top shape: 100 256 13 13 (4326400)
I0403 14:51:22.714890 30494 net.cpp:156] Memory required for data: 818009200
I0403 14:51:22.714906 30494 layer_factory.hpp:77] Creating layer pool5
I0403 14:51:22.714931 30494 net.cpp:91] Creating Layer pool5
I0403 14:51:22.714949 30494 net.cpp:425] pool5 <- conv5
I0403 14:51:22.714969 30494 net.cpp:399] pool5 -> pool5
I0403 14:51:22.715031 30494 net.cpp:141] Setting up pool5
I0403 14:51:22.715056 30494 net.cpp:148] Top shape: 100 256 6 6 (921600)
I0403 14:51:22.715072 30494 net.cpp:156] Memory required for data: 821695600
I0403 14:51:22.715087 30494 layer_factory.hpp:77] Creating layer fc6
I0403 14:51:22.715116 30494 net.cpp:91] Creating Layer fc6
I0403 14:51:22.715134 30494 net.cpp:425] fc6 <- pool5
I0403 14:51:22.715157 30494 net.cpp:399] fc6 -> fc6
I0403 14:51:24.296466 30494 net.cpp:141] Setting up fc6
I0403 14:51:24.296512 30494 net.cpp:148] Top shape: 100 4096 (409600)
I0403 14:51:24.296542 30494 net.cpp:156] Memory required for data: 823334000
I0403 14:51:24.296566 30494 layer_factory.hpp:77] Creating layer relu6
I0403 14:51:24.296587 30494 net.cpp:91] Creating Layer relu6
I0403 14:51:24.296605 30494 net.cpp:425] relu6 <- fc6
I0403 14:51:24.296625 30494 net.cpp:386] relu6 -> fc6 (in-place)
I0403 14:51:24.296857 30494 net.cpp:141] Setting up relu6
I0403 14:51:24.296883 30494 net.cpp:148] Top shape: 100 4096 (409600)
I0403 14:51:24.296900 30494 net.cpp:156] Memory required for data: 824972400
I0403 14:51:24.296916 30494 layer_factory.hpp:77] Creating layer drop6
I0403 14:51:24.296936 30494 net.cpp:91] Creating Layer drop6
I0403 14:51:24.296950 30494 net.cpp:425] drop6 <- fc6
I0403 14:51:24.296970 30494 net.cpp:386] drop6 -> fc6 (in-place)
I0403 14:51:24.297021 30494 net.cpp:141] Setting up drop6
I0403 14:51:24.297049 30494 net.cpp:148] Top shape: 100 4096 (409600)
I0403 14:51:24.297066 30494 net.cpp:156] Memory required for data: 826610800
I0403 14:51:24.297083 30494 layer_factory.hpp:77] Creating layer fc7
I0403 14:51:24.297106 30494 net.cpp:91] Creating Layer fc7
I0403 14:51:24.297121 30494 net.cpp:425] fc7 <- fc6
I0403 14:51:24.297140 30494 net.cpp:399] fc7 -> fc7
I0403 14:51:24.976625 30494 net.cpp:141] Setting up fc7
I0403 14:51:24.976688 30494 net.cpp:148] Top shape: 100 4096 (409600)
I0403 14:51:24.976706 30494 net.cpp:156] Memory required for data: 828249200
I0403 14:51:24.976727 30494 layer_factory.hpp:77] Creating layer relu7
I0403 14:51:24.976749 30494 net.cpp:91] Creating Layer relu7
I0403 14:51:24.976768 30494 net.cpp:425] relu7 <- fc7
I0403 14:51:24.976788 30494 net.cpp:386] relu7 -> fc7 (in-place)
I0403 14:51:24.977180 30494 net.cpp:141] Setting up relu7
I0403 14:51:24.977207 30494 net.cpp:148] Top shape: 100 4096 (409600)
I0403 14:51:24.977251 30494 net.cpp:156] Memory required for data: 829887600
I0403 14:51:24.977273 30494 layer_factory.hpp:77] Creating layer drop7
I0403 14:51:24.977294 30494 net.cpp:91] Creating Layer drop7
I0403 14:51:24.977311 30494 net.cpp:425] drop7 <- fc7
I0403 14:51:24.977331 30494 net.cpp:386] drop7 -> fc7 (in-place)
I0403 14:51:24.977375 30494 net.cpp:141] Setting up drop7
I0403 14:51:24.977401 30494 net.cpp:148] Top shape: 100 4096 (409600)
I0403 14:51:24.977416 30494 net.cpp:156] Memory required for data: 831526000
I0403 14:51:24.977432 30494 layer_factory.hpp:77] Creating layer fc8_plantvillage
I0403 14:51:24.977452 30494 net.cpp:91] Creating Layer fc8_plantvillage
I0403 14:51:24.977468 30494 net.cpp:425] fc8_plantvillage <- fc7
I0403 14:51:24.977488 30494 net.cpp:399] fc8_plantvillage -> fc8_plantvillage
I0403 14:51:24.984450 30494 net.cpp:141] Setting up fc8_plantvillage
I0403 14:51:24.984479 30494 net.cpp:148] Top shape: 100 38 (3800)
I0403 14:51:24.984496 30494 net.cpp:156] Memory required for data: 831541200
I0403 14:51:24.984515 30494 layer_factory.hpp:77] Creating layer fc8_plantvillage_fc8_plantvillage_0_split
I0403 14:51:24.984535 30494 net.cpp:91] Creating Layer fc8_plantvillage_fc8_plantvillage_0_split
I0403 14:51:24.984556 30494 net.cpp:425] fc8_plantvillage_fc8_plantvillage_0_split <- fc8_plantvillage
I0403 14:51:24.984575 30494 net.cpp:399] fc8_plantvillage_fc8_plantvillage_0_split -> fc8_plantvillage_fc8_plantvillage_0_split_0
I0403 14:51:24.984596 30494 net.cpp:399] fc8_plantvillage_fc8_plantvillage_0_split -> fc8_plantvillage_fc8_plantvillage_0_split_1
I0403 14:51:24.984616 30494 net.cpp:399] fc8_plantvillage_fc8_plantvillage_0_split -> fc8_plantvillage_fc8_plantvillage_0_split_2
I0403 14:51:24.984694 30494 net.cpp:141] Setting up fc8_plantvillage_fc8_plantvillage_0_split
I0403 14:51:24.984719 30494 net.cpp:148] Top shape: 100 38 (3800)
I0403 14:51:24.984736 30494 net.cpp:148] Top shape: 100 38 (3800)
I0403 14:51:24.984753 30494 net.cpp:148] Top shape: 100 38 (3800)
I0403 14:51:24.984767 30494 net.cpp:156] Memory required for data: 831586800
I0403 14:51:24.984782 30494 layer_factory.hpp:77] Creating layer prob
I0403 14:51:24.984802 30494 net.cpp:91] Creating Layer prob
I0403 14:51:24.984817 30494 net.cpp:425] prob <- fc8_plantvillage_fc8_plantvillage_0_split_0
I0403 14:51:24.984836 30494 net.cpp:399] prob -> prob
I0403 14:51:24.985064 30494 net.cpp:141] Setting up prob
I0403 14:51:24.985090 30494 net.cpp:148] Top shape: 100 38 (3800)
I0403 14:51:24.985106 30494 net.cpp:156] Memory required for data: 831602000
I0403 14:51:24.985122 30494 layer_factory.hpp:77] Creating layer hdf5out
I0403 14:51:24.985141 30494 net.cpp:91] Creating Layer hdf5out
I0403 14:51:24.985157 30494 net.cpp:425] hdf5out <- prob
I0403 14:51:24.985174 30494 net.cpp:425] hdf5out <- label_data_1_split_0
I0403 14:51:24.997658 30494 net.cpp:141] Setting up hdf5out
…
