…
I0403 14:53:47.082880 30555 net.cpp:313] The NetState phase (1) differed from the phase (0) specified by a rule in layer data
I0403 14:53:47.083186 30555 net.cpp:49] Initializing net from parameters: 
state {
  phase: TEST
}
layer {
  name: "data"
  type: "Data"
  top: "data"
  top: "label"
  include {
    phase: TEST
  }
  transform_param {
    crop_size: 227
    mean_file: "/home/mohanty/data/final_dataset/lmdb/segmented-80-20/mean.binaryproto"
  }
  data_param {
    source: "/home/mohanty/data/final_dataset/lmdb/segmented-80-20/test_db"
    batch_size: 100
    backend: LMDB
  }
}
layer {
  name: "conv1"
  type: "Convolution"
  bottom: "data"
  top: "conv1"
  param {
    lr_mult: 1
    decay_mult: 1
  }
  param {
    lr_mult: 2
    decay_mult: 0
  }
  convolution_param {
    num_output: 96
    kernel_size: 11
    stride: 4
    weight_filler {
      type: "gaussian"
      std: 0.01
    }
    bias_filler {
      type: "constant"
      value: 0
    }
  }
}
layer {
  name: "relu1"
  type: "ReLU"
  bottom: "conv1"
  top: "conv1"
}
layer {
  name: "norm1"
  type: "LRN"
  bottom: "conv1"
  top: "norm1"
  lrn_param {
    local_size: 5
    alpha: 0.0001
    beta: 0.75
  }
}
layer {
  name: "pool1"
  type: "Pooling"
  bottom: "norm1"
  top: "pool1"
  pooling_param {
    pool: MAX
    kernel_size: 3
    stride: 2
  }
}
layer {
  name: "conv2"
  type: "Convolution"
  bottom: "pool1"
  top: "conv2"
  param {
    lr_mult: 1
    decay_mult: 1
  }
  param {
    lr_mult: 2
    decay_mult: 0
  }
  convolution_param {
    num_output: 256
    pad: 2
    kernel_size: 5
    group: 2
    weight_filler {
      type: "gaussian"
      std: 0.01
    }
    bias_filler {
      type: "constant"
      value: 0.1
    }
  }
}
layer {
  name: "relu2"
  type: "ReLU"
  bottom: "conv2"
  top: "conv2"
}
layer {
  name: "norm2"
  type: "LRN"
  bottom: "conv2"
  top: "norm2"
  lrn_param {
    local_size: 5
    alpha: 0.0001
    beta: 0.75
  }
}
layer {
  name: "pool2"
  type: "Pooling"
  bottom: "norm2"
  top: "pool2"
  pooling_param {
    pool: MAX
    kernel_size: 3
    stride: 2
  }
}
layer {
  name: "conv3"
  type: "Convolution"
  bottom: "pool2"
  top: "conv3"
  param {
    lr_mult: 1
    decay_mult: 1
  }
  param {
    lr_mult: 2
    decay_mult: 0
  }
  convolution_param {
    num_output: 384
    pad: 1
    kernel_size: 3
    weight_filler {
      type: "gaussian"
      std: 0.01
    }
    bias_filler {
      type: "constant"
      value: 0
    }
  }
}
layer {
  name: "relu3"
  type: "ReLU"
  bottom: "conv3"
  top: "conv3"
}
layer {
  name: "conv4"
  type: "Convolution"
  bottom: "conv3"
  top: "conv4"
  param {
    lr_mult: 1
    decay_mult: 1
  }
  param {
    lr_mult: 2
    decay_mult: 0
  }
  convolution_param {
    num_output: 384
    pad: 1
    kernel_size: 3
    group: 2
    weight_filler {
      type: "gaussian"
      std: 0.01
    }
    bias_filler {
      type: "constant"
      value: 0.1
    }
  }
}
layer {
  name: "relu4"
  type: "ReLU"
  bottom: "conv4"
  top: "conv4"
}
layer {
  name: "conv5"
  type: "Convolution"
  bottom: "conv4"
  top: "conv5"
  param {
    lr_mult: 1
    decay_mult: 1
  }
  param {
    lr_mult: 2
    decay_mult: 0
  }
  convolution_param {
    num_output: 256
    pad: 1
    kernel_size: 3
    group: 2
    weight_filler {
      type: "gaussian"
      std: 0.01
    }
    bias_filler {
      type: "constant"
      value: 0.1
    }
  }
}
layer {
  name: "relu5"
  type: "ReLU"
  bottom: "conv5"
  top: "conv5"
}
layer {
  name: "pool5"
  type: "Pooling"
  bottom: "conv5"
  top: "pool5"
  pooling_param {
    pool: MAX
    kernel_size: 3
    stride: 2
  }
}
layer {
  name: "fc6"
  type: "InnerProduct"
  bottom: "pool5"
  top: "fc6"
  param {
    lr_mult: 1
    decay_mult: 1
  }
  param {
    lr_mult: 2
    decay_mult: 0
  }
  inner_product_param {
    num_output: 4096
    weight_filler {
      type: "gaussian"
      std: 0.005
    }
    bias_filler {
      type: "constant"
      value: 0.1
    }
  }
}
layer {
  name: "relu6"
  type: "ReLU"
  bottom: "fc6"
  top: "fc6"
}
layer {
  name: "drop6"
  type: "Dropout"
  bottom: "fc6"
  top: "fc6"
  dropout_param {
    dropout_ratio: 0.5
  }
}
layer {
  name: "fc7"
  type: "InnerProduct"
  bottom: "fc6"
  top: "fc7"
  param {
    lr_mult: 1
    decay_mult: 1
  }
  param {
    lr_mult: 2
    decay_mult: 0
  }
  inner_product_param {
    num_output: 4096
    weight_filler {
      type: "gaussian"
      std: 0.005
    }
    bias_filler {
      type: "constant"
      value: 0.1
    }
  }
}
layer {
  name: "relu7"
  type: "ReLU"
  bottom: "fc7"
  top: "fc7"
}
layer {
  name: "drop7"
  type: "Dropout"
  bottom: "fc7"
  top: "fc7"
  dropout_param {
    dropout_ratio: 0.5
  }
}
layer {
  name: "fc8_plantvillage"
  type: "InnerProduct"
  bottom: "fc7"
  top: "fc8_plantvillage"
  param {
    lr_mult: 1
    decay_mult: 1
  }
  param {
    lr_mult: 2
    decay_mult: 0
  }
  inner_product_param {
    num_output: 38
    weight_filler {
      type: "gaussian"
      std: 0.01
    }
    bias_filler {
      type: "constant"
      value: 0
    }
  }
}
layer {
  name: "prob"
  type: "Softmax"
  bottom: "fc8_plantvillage"
  top: "prob"
  include {
    phase: TEST
  }
}
layer {
  name: "hdf5out"
  type: "HDF5Output"
  bottom: "prob"
  bottom: "label"
  include {
    phase: TEST
  }
  hdf5_output_param {
    file_name: "hdf5_dumps/iter_3045.h5"
  }
}
layer {
  name: "loss"
  type: "SoftmaxWithLoss"
  bottom: "fc8_plantvillage"
  bottom: "label"
  top: "loss"
}
layer {
  name: "accuracy"
  type: "Accuracy"
  bottom: "fc8_plantvillage"
  bottom: "label"
  top: "accuracy"
  include {
    phase: TEST
  }
}
I0403 14:53:47.083842 30555 layer_factory.hpp:77] Creating layer data
I0403 14:53:47.084522 30555 net.cpp:91] Creating Layer data
I0403 14:53:47.084554 30555 net.cpp:399] data -> data
I0403 14:53:47.084609 30555 net.cpp:399] data -> label
I0403 14:53:47.084648 30555 data_transformer.cpp:25] Loading mean file from: /home/mohanty/data/final_dataset/lmdb/segmented-80-20/mean.binaryproto
I0403 14:53:47.087141 30558 db_lmdb.cpp:38] Opened lmdb /home/mohanty/data/final_dataset/lmdb/segmented-80-20/test_db
I0403 14:53:47.099076 30555 data_layer.cpp:41] output data size: 100,3,227,227
I0403 14:53:47.235340 30555 net.cpp:141] Setting up data
I0403 14:53:47.235401 30555 net.cpp:148] Top shape: 100 3 227 227 (15458700)
I0403 14:53:47.235427 30555 net.cpp:148] Top shape: 100 (100)
I0403 14:53:47.235445 30555 net.cpp:156] Memory required for data: 61835200
I0403 14:53:47.235474 30555 layer_factory.hpp:77] Creating layer label_data_1_split
I0403 14:53:47.235502 30555 net.cpp:91] Creating Layer label_data_1_split
I0403 14:53:47.235522 30555 net.cpp:425] label_data_1_split <- label
I0403 14:53:47.235556 30555 net.cpp:399] label_data_1_split -> label_data_1_split_0
I0403 14:53:47.235586 30555 net.cpp:399] label_data_1_split -> label_data_1_split_1
I0403 14:53:47.235610 30555 net.cpp:399] label_data_1_split -> label_data_1_split_2
I0403 14:53:47.235676 30555 net.cpp:141] Setting up label_data_1_split
I0403 14:53:47.235702 30555 net.cpp:148] Top shape: 100 (100)
I0403 14:53:47.235720 30555 net.cpp:148] Top shape: 100 (100)
I0403 14:53:47.235738 30555 net.cpp:148] Top shape: 100 (100)
I0403 14:53:47.235754 30555 net.cpp:156] Memory required for data: 61836400
I0403 14:53:47.235772 30555 layer_factory.hpp:77] Creating layer conv1
I0403 14:53:47.235806 30555 net.cpp:91] Creating Layer conv1
I0403 14:53:47.235827 30555 net.cpp:425] conv1 <- data
I0403 14:53:47.235849 30555 net.cpp:399] conv1 -> conv1
I0403 14:53:47.385066 30555 net.cpp:141] Setting up conv1
I0403 14:53:47.385141 30555 net.cpp:148] Top shape: 100 96 55 55 (29040000)
I0403 14:53:47.385160 30555 net.cpp:156] Memory required for data: 177996400
I0403 14:53:47.385193 30555 layer_factory.hpp:77] Creating layer relu1
I0403 14:53:47.385223 30555 net.cpp:91] Creating Layer relu1
I0403 14:53:47.385244 30555 net.cpp:425] relu1 <- conv1
I0403 14:53:47.385270 30555 net.cpp:386] relu1 -> conv1 (in-place)
I0403 14:53:47.385561 30555 net.cpp:141] Setting up relu1
I0403 14:53:47.385591 30555 net.cpp:148] Top shape: 100 96 55 55 (29040000)
I0403 14:53:47.385643 30555 net.cpp:156] Memory required for data: 294156400
I0403 14:53:47.385661 30555 layer_factory.hpp:77] Creating layer norm1
I0403 14:53:47.385691 30555 net.cpp:91] Creating Layer norm1
I0403 14:53:47.385712 30555 net.cpp:425] norm1 <- conv1
I0403 14:53:47.385732 30555 net.cpp:399] norm1 -> norm1
I0403 14:53:47.386054 30555 net.cpp:141] Setting up norm1
I0403 14:53:47.386085 30555 net.cpp:148] Top shape: 100 96 55 55 (29040000)
I0403 14:53:47.386102 30555 net.cpp:156] Memory required for data: 410316400
I0403 14:53:47.386121 30555 layer_factory.hpp:77] Creating layer pool1
I0403 14:53:47.386145 30555 net.cpp:91] Creating Layer pool1
I0403 14:53:47.386164 30555 net.cpp:425] pool1 <- norm1
I0403 14:53:47.386184 30555 net.cpp:399] pool1 -> pool1
I0403 14:53:47.386260 30555 net.cpp:141] Setting up pool1
I0403 14:53:47.386286 30555 net.cpp:148] Top shape: 100 96 27 27 (6998400)
I0403 14:53:47.386307 30555 net.cpp:156] Memory required for data: 438310000
I0403 14:53:47.386323 30555 layer_factory.hpp:77] Creating layer conv2
I0403 14:53:47.386363 30555 net.cpp:91] Creating Layer conv2
I0403 14:53:47.386381 30555 net.cpp:425] conv2 <- pool1
I0403 14:53:47.386401 30555 net.cpp:399] conv2 -> conv2
I0403 14:53:47.401458 30555 net.cpp:141] Setting up conv2
I0403 14:53:47.401495 30555 net.cpp:148] Top shape: 100 256 27 27 (18662400)
I0403 14:53:47.401513 30555 net.cpp:156] Memory required for data: 512959600
I0403 14:53:47.401536 30555 layer_factory.hpp:77] Creating layer relu2
I0403 14:53:47.401558 30555 net.cpp:91] Creating Layer relu2
I0403 14:53:47.401578 30555 net.cpp:425] relu2 <- conv2
I0403 14:53:47.401598 30555 net.cpp:386] relu2 -> conv2 (in-place)
I0403 14:53:47.401865 30555 net.cpp:141] Setting up relu2
I0403 14:53:47.401917 30555 net.cpp:148] Top shape: 100 256 27 27 (18662400)
I0403 14:53:47.401938 30555 net.cpp:156] Memory required for data: 587609200
I0403 14:53:47.401954 30555 layer_factory.hpp:77] Creating layer norm2
I0403 14:53:47.401976 30555 net.cpp:91] Creating Layer norm2
I0403 14:53:47.401994 30555 net.cpp:425] norm2 <- conv2
I0403 14:53:47.402014 30555 net.cpp:399] norm2 -> norm2
I0403 14:53:47.402194 30555 net.cpp:141] Setting up norm2
I0403 14:53:47.402221 30555 net.cpp:148] Top shape: 100 256 27 27 (18662400)
I0403 14:53:47.402238 30555 net.cpp:156] Memory required for data: 662258800
I0403 14:53:47.402258 30555 layer_factory.hpp:77] Creating layer pool2
I0403 14:53:47.402279 30555 net.cpp:91] Creating Layer pool2
I0403 14:53:47.402297 30555 net.cpp:425] pool2 <- norm2
I0403 14:53:47.402315 30555 net.cpp:399] pool2 -> pool2
I0403 14:53:47.402366 30555 net.cpp:141] Setting up pool2
I0403 14:53:47.402390 30555 net.cpp:148] Top shape: 100 256 13 13 (4326400)
I0403 14:53:47.402406 30555 net.cpp:156] Memory required for data: 679564400
I0403 14:53:47.402422 30555 layer_factory.hpp:77] Creating layer conv3
I0403 14:53:47.402443 30555 net.cpp:91] Creating Layer conv3
I0403 14:53:47.402463 30555 net.cpp:425] conv3 <- pool2
I0403 14:53:47.402484 30555 net.cpp:399] conv3 -> conv3
I0403 14:53:47.441915 30555 net.cpp:141] Setting up conv3
I0403 14:53:47.441978 30555 net.cpp:148] Top shape: 100 384 13 13 (6489600)
I0403 14:53:47.441999 30555 net.cpp:156] Memory required for data: 705522800
I0403 14:53:47.442026 30555 layer_factory.hpp:77] Creating layer relu3
I0403 14:53:47.442050 30555 net.cpp:91] Creating Layer relu3
I0403 14:53:47.442070 30555 net.cpp:425] relu3 <- conv3
I0403 14:53:47.442091 30555 net.cpp:386] relu3 -> conv3 (in-place)
I0403 14:53:47.442394 30555 net.cpp:141] Setting up relu3
I0403 14:53:47.442425 30555 net.cpp:148] Top shape: 100 384 13 13 (6489600)
I0403 14:53:47.442443 30555 net.cpp:156] Memory required for data: 731481200
I0403 14:53:47.442461 30555 layer_factory.hpp:77] Creating layer conv4
I0403 14:53:47.442487 30555 net.cpp:91] Creating Layer conv4
I0403 14:53:47.442510 30555 net.cpp:425] conv4 <- conv3
I0403 14:53:47.442533 30555 net.cpp:399] conv4 -> conv4
I0403 14:53:47.472951 30555 net.cpp:141] Setting up conv4
I0403 14:53:47.473013 30555 net.cpp:148] Top shape: 100 384 13 13 (6489600)
I0403 14:53:47.473064 30555 net.cpp:156] Memory required for data: 757439600
I0403 14:53:47.473088 30555 layer_factory.hpp:77] Creating layer relu4
I0403 14:53:47.473115 30555 net.cpp:91] Creating Layer relu4
I0403 14:53:47.473137 30555 net.cpp:425] relu4 <- conv4
I0403 14:53:47.473158 30555 net.cpp:386] relu4 -> conv4 (in-place)
I0403 14:53:47.473450 30555 net.cpp:141] Setting up relu4
I0403 14:53:47.473480 30555 net.cpp:148] Top shape: 100 384 13 13 (6489600)
I0403 14:53:47.473498 30555 net.cpp:156] Memory required for data: 783398000
I0403 14:53:47.473515 30555 layer_factory.hpp:77] Creating layer conv5
I0403 14:53:47.473542 30555 net.cpp:91] Creating Layer conv5
I0403 14:53:47.473562 30555 net.cpp:425] conv5 <- conv4
I0403 14:53:47.473587 30555 net.cpp:399] conv5 -> conv5
I0403 14:53:47.494086 30555 net.cpp:141] Setting up conv5
I0403 14:53:47.494122 30555 net.cpp:148] Top shape: 100 256 13 13 (4326400)
I0403 14:53:47.494139 30555 net.cpp:156] Memory required for data: 800703600
I0403 14:53:47.494164 30555 layer_factory.hpp:77] Creating layer relu5
I0403 14:53:47.494190 30555 net.cpp:91] Creating Layer relu5
I0403 14:53:47.494210 30555 net.cpp:425] relu5 <- conv5
I0403 14:53:47.494230 30555 net.cpp:386] relu5 -> conv5 (in-place)
I0403 14:53:47.494526 30555 net.cpp:141] Setting up relu5
I0403 14:53:47.494557 30555 net.cpp:148] Top shape: 100 256 13 13 (4326400)
I0403 14:53:47.494577 30555 net.cpp:156] Memory required for data: 818009200
I0403 14:53:47.494595 30555 layer_factory.hpp:77] Creating layer pool5
I0403 14:53:47.494618 30555 net.cpp:91] Creating Layer pool5
I0403 14:53:47.494637 30555 net.cpp:425] pool5 <- conv5
I0403 14:53:47.494659 30555 net.cpp:399] pool5 -> pool5
I0403 14:53:47.494721 30555 net.cpp:141] Setting up pool5
I0403 14:53:47.494750 30555 net.cpp:148] Top shape: 100 256 6 6 (921600)
I0403 14:53:47.494765 30555 net.cpp:156] Memory required for data: 821695600
I0403 14:53:47.494783 30555 layer_factory.hpp:77] Creating layer fc6
I0403 14:53:47.494812 30555 net.cpp:91] Creating Layer fc6
I0403 14:53:47.494830 30555 net.cpp:425] fc6 <- pool5
I0403 14:53:47.494853 30555 net.cpp:399] fc6 -> fc6
I0403 14:53:49.046165 30555 net.cpp:141] Setting up fc6
I0403 14:53:49.046228 30555 net.cpp:148] Top shape: 100 4096 (409600)
I0403 14:53:49.046247 30555 net.cpp:156] Memory required for data: 823334000
I0403 14:53:49.046274 30555 layer_factory.hpp:77] Creating layer relu6
I0403 14:53:49.046303 30555 net.cpp:91] Creating Layer relu6
I0403 14:53:49.046324 30555 net.cpp:425] relu6 <- fc6
I0403 14:53:49.046344 30555 net.cpp:386] relu6 -> fc6 (in-place)
I0403 14:53:49.046566 30555 net.cpp:141] Setting up relu6
I0403 14:53:49.046592 30555 net.cpp:148] Top shape: 100 4096 (409600)
I0403 14:53:49.046610 30555 net.cpp:156] Memory required for data: 824972400
I0403 14:53:49.046627 30555 layer_factory.hpp:77] Creating layer drop6
I0403 14:53:49.046648 30555 net.cpp:91] Creating Layer drop6
I0403 14:53:49.046665 30555 net.cpp:425] drop6 <- fc6
I0403 14:53:49.046684 30555 net.cpp:386] drop6 -> fc6 (in-place)
I0403 14:53:49.046738 30555 net.cpp:141] Setting up drop6
I0403 14:53:49.046762 30555 net.cpp:148] Top shape: 100 4096 (409600)
I0403 14:53:49.046778 30555 net.cpp:156] Memory required for data: 826610800
I0403 14:53:49.046794 30555 layer_factory.hpp:77] Creating layer fc7
I0403 14:53:49.046818 30555 net.cpp:91] Creating Layer fc7
I0403 14:53:49.046836 30555 net.cpp:425] fc7 <- fc6
I0403 14:53:49.046854 30555 net.cpp:399] fc7 -> fc7
I0403 14:53:49.728523 30555 net.cpp:141] Setting up fc7
I0403 14:53:49.728569 30555 net.cpp:148] Top shape: 100 4096 (409600)
I0403 14:53:49.728586 30555 net.cpp:156] Memory required for data: 828249200
I0403 14:53:49.728610 30555 layer_factory.hpp:77] Creating layer relu7
I0403 14:53:49.728631 30555 net.cpp:91] Creating Layer relu7
I0403 14:53:49.728651 30555 net.cpp:425] relu7 <- fc7
I0403 14:53:49.728672 30555 net.cpp:386] relu7 -> fc7 (in-place)
I0403 14:53:49.729149 30555 net.cpp:141] Setting up relu7
I0403 14:53:49.729182 30555 net.cpp:148] Top shape: 100 4096 (409600)
I0403 14:53:49.729231 30555 net.cpp:156] Memory required for data: 829887600
I0403 14:53:49.729249 30555 layer_factory.hpp:77] Creating layer drop7
I0403 14:53:49.729274 30555 net.cpp:91] Creating Layer drop7
I0403 14:53:49.729291 30555 net.cpp:425] drop7 <- fc7
I0403 14:53:49.729310 30555 net.cpp:386] drop7 -> fc7 (in-place)
I0403 14:53:49.729358 30555 net.cpp:141] Setting up drop7
I0403 14:53:49.729384 30555 net.cpp:148] Top shape: 100 4096 (409600)
I0403 14:53:49.729400 30555 net.cpp:156] Memory required for data: 831526000
I0403 14:53:49.729415 30555 layer_factory.hpp:77] Creating layer fc8_plantvillage
I0403 14:53:49.729439 30555 net.cpp:91] Creating Layer fc8_plantvillage
I0403 14:53:49.729457 30555 net.cpp:425] fc8_plantvillage <- fc7
I0403 14:53:49.729477 30555 net.cpp:399] fc8_plantvillage -> fc8_plantvillage
I0403 14:53:49.736526 30555 net.cpp:141] Setting up fc8_plantvillage
I0403 14:53:49.736555 30555 net.cpp:148] Top shape: 100 38 (3800)
I0403 14:53:49.736574 30555 net.cpp:156] Memory required for data: 831541200
I0403 14:53:49.736594 30555 layer_factory.hpp:77] Creating layer fc8_plantvillage_fc8_plantvillage_0_split
I0403 14:53:49.736618 30555 net.cpp:91] Creating Layer fc8_plantvillage_fc8_plantvillage_0_split
I0403 14:53:49.736636 30555 net.cpp:425] fc8_plantvillage_fc8_plantvillage_0_split <- fc8_plantvillage
I0403 14:53:49.736659 30555 net.cpp:399] fc8_plantvillage_fc8_plantvillage_0_split -> fc8_plantvillage_fc8_plantvillage_0_split_0
I0403 14:53:49.736680 30555 net.cpp:399] fc8_plantvillage_fc8_plantvillage_0_split -> fc8_plantvillage_fc8_plantvillage_0_split_1
I0403 14:53:49.736701 30555 net.cpp:399] fc8_plantvillage_fc8_plantvillage_0_split -> fc8_plantvillage_fc8_plantvillage_0_split_2
I0403 14:53:49.736783 30555 net.cpp:141] Setting up fc8_plantvillage_fc8_plantvillage_0_split
I0403 14:53:49.736809 30555 net.cpp:148] Top shape: 100 38 (3800)
I0403 14:53:49.736826 30555 net.cpp:148] Top shape: 100 38 (3800)
I0403 14:53:49.736843 30555 net.cpp:148] Top shape: 100 38 (3800)
I0403 14:53:49.736858 30555 net.cpp:156] Memory required for data: 831586800
I0403 14:53:49.736874 30555 layer_factory.hpp:77] Creating layer prob
I0403 14:53:49.736896 30555 net.cpp:91] Creating Layer prob
I0403 14:53:49.736915 30555 net.cpp:425] prob <- fc8_plantvillage_fc8_plantvillage_0_split_0
I0403 14:53:49.736937 30555 net.cpp:399] prob -> prob
I0403 14:53:49.737167 30555 net.cpp:141] Setting up prob
I0403 14:53:49.737195 30555 net.cpp:148] Top shape: 100 38 (3800)
I0403 14:53:49.737215 30555 net.cpp:156] Memory required for data: 831602000
I0403 14:53:49.737232 30555 layer_factory.hpp:77] Creating layer hdf5out
I0403 14:53:49.737257 30555 net.cpp:91] Creating Layer hdf5out
I0403 14:53:49.737292 30555 net.cpp:425] hdf5out <- prob
I0403 14:53:49.737311 30555 net.cpp:425] hdf5out <- label_data_1_split_0
I0403 14:53:49.741166 30555 net.cpp:141] Setting up hdf5out
…
