…
I0403 15:01:06.632693 30898 net.cpp:313] The NetState phase (1) differed from the phase (0) specified by a rule in layer data
I0403 15:01:06.632982 30898 net.cpp:49] Initializing net from parameters: 
state {
  phase: TEST
}
layer {
  name: "data"
  type: "Data"
  top: "data"
  top: "label"
  include {
    phase: TEST
  }
  transform_param {
    crop_size: 227
    mean_file: "/home/mohanty/data/final_dataset/lmdb/segmented-80-20/mean.binaryproto"
  }
  data_param {
    source: "/home/mohanty/data/final_dataset/lmdb/segmented-80-20/test_db"
    batch_size: 100
    backend: LMDB
  }
}
layer {
  name: "conv1"
  type: "Convolution"
  bottom: "data"
  top: "conv1"
  param {
    lr_mult: 1
    decay_mult: 1
  }
  param {
    lr_mult: 2
    decay_mult: 0
  }
  convolution_param {
    num_output: 96
    kernel_size: 11
    stride: 4
    weight_filler {
      type: "gaussian"
      std: 0.01
    }
    bias_filler {
      type: "constant"
      value: 0
    }
  }
}
layer {
  name: "relu1"
  type: "ReLU"
  bottom: "conv1"
  top: "conv1"
}
layer {
  name: "norm1"
  type: "LRN"
  bottom: "conv1"
  top: "norm1"
  lrn_param {
    local_size: 5
    alpha: 0.0001
    beta: 0.75
  }
}
layer {
  name: "pool1"
  type: "Pooling"
  bottom: "norm1"
  top: "pool1"
  pooling_param {
    pool: MAX
    kernel_size: 3
    stride: 2
  }
}
layer {
  name: "conv2"
  type: "Convolution"
  bottom: "pool1"
  top: "conv2"
  param {
    lr_mult: 1
    decay_mult: 1
  }
  param {
    lr_mult: 2
    decay_mult: 0
  }
  convolution_param {
    num_output: 256
    pad: 2
    kernel_size: 5
    group: 2
    weight_filler {
      type: "gaussian"
      std: 0.01
    }
    bias_filler {
      type: "constant"
      value: 0.1
    }
  }
}
layer {
  name: "relu2"
  type: "ReLU"
  bottom: "conv2"
  top: "conv2"
}
layer {
  name: "norm2"
  type: "LRN"
  bottom: "conv2"
  top: "norm2"
  lrn_param {
    local_size: 5
    alpha: 0.0001
    beta: 0.75
  }
}
layer {
  name: "pool2"
  type: "Pooling"
  bottom: "norm2"
  top: "pool2"
  pooling_param {
    pool: MAX
    kernel_size: 3
    stride: 2
  }
}
layer {
  name: "conv3"
  type: "Convolution"
  bottom: "pool2"
  top: "conv3"
  param {
    lr_mult: 1
    decay_mult: 1
  }
  param {
    lr_mult: 2
    decay_mult: 0
  }
  convolution_param {
    num_output: 384
    pad: 1
    kernel_size: 3
    weight_filler {
      type: "gaussian"
      std: 0.01
    }
    bias_filler {
      type: "constant"
      value: 0
    }
  }
}
layer {
  name: "relu3"
  type: "ReLU"
  bottom: "conv3"
  top: "conv3"
}
layer {
  name: "conv4"
  type: "Convolution"
  bottom: "conv3"
  top: "conv4"
  param {
    lr_mult: 1
    decay_mult: 1
  }
  param {
    lr_mult: 2
    decay_mult: 0
  }
  convolution_param {
    num_output: 384
    pad: 1
    kernel_size: 3
    group: 2
    weight_filler {
      type: "gaussian"
      std: 0.01
    }
    bias_filler {
      type: "constant"
      value: 0.1
    }
  }
}
layer {
  name: "relu4"
  type: "ReLU"
  bottom: "conv4"
  top: "conv4"
}
layer {
  name: "conv5"
  type: "Convolution"
  bottom: "conv4"
  top: "conv5"
  param {
    lr_mult: 1
    decay_mult: 1
  }
  param {
    lr_mult: 2
    decay_mult: 0
  }
  convolution_param {
    num_output: 256
    pad: 1
    kernel_size: 3
    group: 2
    weight_filler {
      type: "gaussian"
      std: 0.01
    }
    bias_filler {
      type: "constant"
      value: 0.1
    }
  }
}
layer {
  name: "relu5"
  type: "ReLU"
  bottom: "conv5"
  top: "conv5"
}
layer {
  name: "pool5"
  type: "Pooling"
  bottom: "conv5"
  top: "pool5"
  pooling_param {
    pool: MAX
    kernel_size: 3
    stride: 2
  }
}
layer {
  name: "fc6"
  type: "InnerProduct"
  bottom: "pool5"
  top: "fc6"
  param {
    lr_mult: 1
    decay_mult: 1
  }
  param {
    lr_mult: 2
    decay_mult: 0
  }
  inner_product_param {
    num_output: 4096
    weight_filler {
      type: "gaussian"
      std: 0.005
    }
    bias_filler {
      type: "constant"
      value: 0.1
    }
  }
}
layer {
  name: "relu6"
  type: "ReLU"
  bottom: "fc6"
  top: "fc6"
}
layer {
  name: "drop6"
  type: "Dropout"
  bottom: "fc6"
  top: "fc6"
  dropout_param {
    dropout_ratio: 0.5
  }
}
layer {
  name: "fc7"
  type: "InnerProduct"
  bottom: "fc6"
  top: "fc7"
  param {
    lr_mult: 1
    decay_mult: 1
  }
  param {
    lr_mult: 2
    decay_mult: 0
  }
  inner_product_param {
    num_output: 4096
    weight_filler {
      type: "gaussian"
      std: 0.005
    }
    bias_filler {
      type: "constant"
      value: 0.1
    }
  }
}
layer {
  name: "relu7"
  type: "ReLU"
  bottom: "fc7"
  top: "fc7"
}
layer {
  name: "drop7"
  type: "Dropout"
  bottom: "fc7"
  top: "fc7"
  dropout_param {
    dropout_ratio: 0.5
  }
}
layer {
  name: "fc8_plantvillage"
  type: "InnerProduct"
  bottom: "fc7"
  top: "fc8_plantvillage"
  param {
    lr_mult: 1
    decay_mult: 1
  }
  param {
    lr_mult: 2
    decay_mult: 0
  }
  inner_product_param {
    num_output: 38
    weight_filler {
      type: "gaussian"
      std: 0.01
    }
    bias_filler {
      type: "constant"
      value: 0
    }
  }
}
layer {
  name: "prob"
  type: "Softmax"
  bottom: "fc8_plantvillage"
  top: "prob"
  include {
    phase: TEST
  }
}
layer {
  name: "hdf5out"
  type: "HDF5Output"
  bottom: "prob"
  bottom: "label"
  include {
    phase: TEST
  }
  hdf5_output_param {
    file_name: "hdf5_dumps/iter_10875.h5"
  }
}
layer {
  name: "loss"
  type: "SoftmaxWithLoss"
  bottom: "fc8_plantvillage"
  bottom: "label"
  top: "loss"
}
layer {
  name: "accuracy"
  type: "Accuracy"
  bottom: "fc8_plantvillage"
  bottom: "label"
  top: "accuracy"
  include {
    phase: TEST
  }
}
I0403 15:01:06.633591 30898 layer_factory.hpp:77] Creating layer data
I0403 15:01:06.634218 30898 net.cpp:91] Creating Layer data
I0403 15:01:06.634251 30898 net.cpp:399] data -> data
I0403 15:01:06.634315 30898 net.cpp:399] data -> label
I0403 15:01:06.634356 30898 data_transformer.cpp:25] Loading mean file from: /home/mohanty/data/final_dataset/lmdb/segmented-80-20/mean.binaryproto
I0403 15:01:06.637071 30900 db_lmdb.cpp:38] Opened lmdb /home/mohanty/data/final_dataset/lmdb/segmented-80-20/test_db
I0403 15:01:06.648311 30898 data_layer.cpp:41] output data size: 100,3,227,227
I0403 15:01:06.779559 30898 net.cpp:141] Setting up data
I0403 15:01:06.779628 30898 net.cpp:148] Top shape: 100 3 227 227 (15458700)
I0403 15:01:06.779652 30898 net.cpp:148] Top shape: 100 (100)
I0403 15:01:06.779669 30898 net.cpp:156] Memory required for data: 61835200
I0403 15:01:06.779696 30898 layer_factory.hpp:77] Creating layer label_data_1_split
I0403 15:01:06.779722 30898 net.cpp:91] Creating Layer label_data_1_split
I0403 15:01:06.779741 30898 net.cpp:425] label_data_1_split <- label
I0403 15:01:06.779773 30898 net.cpp:399] label_data_1_split -> label_data_1_split_0
I0403 15:01:06.779800 30898 net.cpp:399] label_data_1_split -> label_data_1_split_1
I0403 15:01:06.779822 30898 net.cpp:399] label_data_1_split -> label_data_1_split_2
I0403 15:01:06.779888 30898 net.cpp:141] Setting up label_data_1_split
I0403 15:01:06.779913 30898 net.cpp:148] Top shape: 100 (100)
I0403 15:01:06.779930 30898 net.cpp:148] Top shape: 100 (100)
I0403 15:01:06.779947 30898 net.cpp:148] Top shape: 100 (100)
I0403 15:01:06.779960 30898 net.cpp:156] Memory required for data: 61836400
I0403 15:01:06.779976 30898 layer_factory.hpp:77] Creating layer conv1
I0403 15:01:06.780009 30898 net.cpp:91] Creating Layer conv1
I0403 15:01:06.780028 30898 net.cpp:425] conv1 <- data
I0403 15:01:06.780047 30898 net.cpp:399] conv1 -> conv1
I0403 15:01:06.922032 30898 net.cpp:141] Setting up conv1
I0403 15:01:06.922080 30898 net.cpp:148] Top shape: 100 96 55 55 (29040000)
I0403 15:01:06.922098 30898 net.cpp:156] Memory required for data: 177996400
I0403 15:01:06.922130 30898 layer_factory.hpp:77] Creating layer relu1
I0403 15:01:06.922158 30898 net.cpp:91] Creating Layer relu1
I0403 15:01:06.922179 30898 net.cpp:425] relu1 <- conv1
I0403 15:01:06.922199 30898 net.cpp:386] relu1 -> conv1 (in-place)
I0403 15:01:06.922492 30898 net.cpp:141] Setting up relu1
I0403 15:01:06.922520 30898 net.cpp:148] Top shape: 100 96 55 55 (29040000)
I0403 15:01:06.922557 30898 net.cpp:156] Memory required for data: 294156400
I0403 15:01:06.922576 30898 layer_factory.hpp:77] Creating layer norm1
I0403 15:01:06.922605 30898 net.cpp:91] Creating Layer norm1
I0403 15:01:06.922626 30898 net.cpp:425] norm1 <- conv1
I0403 15:01:06.922644 30898 net.cpp:399] norm1 -> norm1
I0403 15:01:06.922971 30898 net.cpp:141] Setting up norm1
I0403 15:01:06.923001 30898 net.cpp:148] Top shape: 100 96 55 55 (29040000)
I0403 15:01:06.923017 30898 net.cpp:156] Memory required for data: 410316400
I0403 15:01:06.923034 30898 layer_factory.hpp:77] Creating layer pool1
I0403 15:01:06.923071 30898 net.cpp:91] Creating Layer pool1
I0403 15:01:06.923089 30898 net.cpp:425] pool1 <- norm1
I0403 15:01:06.923108 30898 net.cpp:399] pool1 -> pool1
I0403 15:01:06.923180 30898 net.cpp:141] Setting up pool1
I0403 15:01:06.923205 30898 net.cpp:148] Top shape: 100 96 27 27 (6998400)
I0403 15:01:06.923221 30898 net.cpp:156] Memory required for data: 438310000
I0403 15:01:06.923238 30898 layer_factory.hpp:77] Creating layer conv2
I0403 15:01:06.923277 30898 net.cpp:91] Creating Layer conv2
I0403 15:01:06.923310 30898 net.cpp:425] conv2 <- pool1
I0403 15:01:06.923336 30898 net.cpp:399] conv2 -> conv2
I0403 15:01:06.938675 30898 net.cpp:141] Setting up conv2
I0403 15:01:06.938724 30898 net.cpp:148] Top shape: 100 256 27 27 (18662400)
I0403 15:01:06.938741 30898 net.cpp:156] Memory required for data: 512959600
I0403 15:01:06.938766 30898 layer_factory.hpp:77] Creating layer relu2
I0403 15:01:06.938791 30898 net.cpp:91] Creating Layer relu2
I0403 15:01:06.938809 30898 net.cpp:425] relu2 <- conv2
I0403 15:01:06.938828 30898 net.cpp:386] relu2 -> conv2 (in-place)
I0403 15:01:06.939111 30898 net.cpp:141] Setting up relu2
I0403 15:01:06.939141 30898 net.cpp:148] Top shape: 100 256 27 27 (18662400)
I0403 15:01:06.939157 30898 net.cpp:156] Memory required for data: 587609200
I0403 15:01:06.939172 30898 layer_factory.hpp:77] Creating layer norm2
I0403 15:01:06.939196 30898 net.cpp:91] Creating Layer norm2
I0403 15:01:06.939214 30898 net.cpp:425] norm2 <- conv2
I0403 15:01:06.939236 30898 net.cpp:399] norm2 -> norm2
I0403 15:01:06.939441 30898 net.cpp:141] Setting up norm2
I0403 15:01:06.939468 30898 net.cpp:148] Top shape: 100 256 27 27 (18662400)
I0403 15:01:06.939484 30898 net.cpp:156] Memory required for data: 662258800
I0403 15:01:06.939501 30898 layer_factory.hpp:77] Creating layer pool2
I0403 15:01:06.939524 30898 net.cpp:91] Creating Layer pool2
I0403 15:01:06.939543 30898 net.cpp:425] pool2 <- norm2
I0403 15:01:06.939561 30898 net.cpp:399] pool2 -> pool2
I0403 15:01:06.939617 30898 net.cpp:141] Setting up pool2
I0403 15:01:06.939642 30898 net.cpp:148] Top shape: 100 256 13 13 (4326400)
I0403 15:01:06.939657 30898 net.cpp:156] Memory required for data: 679564400
I0403 15:01:06.939673 30898 layer_factory.hpp:77] Creating layer conv3
I0403 15:01:06.939697 30898 net.cpp:91] Creating Layer conv3
I0403 15:01:06.939715 30898 net.cpp:425] conv3 <- pool2
I0403 15:01:06.939738 30898 net.cpp:399] conv3 -> conv3
I0403 15:01:06.978929 30898 net.cpp:141] Setting up conv3
I0403 15:01:06.978988 30898 net.cpp:148] Top shape: 100 384 13 13 (6489600)
I0403 15:01:06.979006 30898 net.cpp:156] Memory required for data: 705522800
I0403 15:01:06.979033 30898 layer_factory.hpp:77] Creating layer relu3
I0403 15:01:06.979055 30898 net.cpp:91] Creating Layer relu3
I0403 15:01:06.979074 30898 net.cpp:425] relu3 <- conv3
I0403 15:01:06.979091 30898 net.cpp:386] relu3 -> conv3 (in-place)
I0403 15:01:06.979364 30898 net.cpp:141] Setting up relu3
I0403 15:01:06.979393 30898 net.cpp:148] Top shape: 100 384 13 13 (6489600)
I0403 15:01:06.979408 30898 net.cpp:156] Memory required for data: 731481200
I0403 15:01:06.979423 30898 layer_factory.hpp:77] Creating layer conv4
I0403 15:01:06.979449 30898 net.cpp:91] Creating Layer conv4
I0403 15:01:06.979466 30898 net.cpp:425] conv4 <- conv3
I0403 15:01:06.979487 30898 net.cpp:399] conv4 -> conv4
I0403 15:01:07.009241 30898 net.cpp:141] Setting up conv4
I0403 15:01:07.009294 30898 net.cpp:148] Top shape: 100 384 13 13 (6489600)
I0403 15:01:07.009342 30898 net.cpp:156] Memory required for data: 757439600
I0403 15:01:07.009366 30898 layer_factory.hpp:77] Creating layer relu4
I0403 15:01:07.009390 30898 net.cpp:91] Creating Layer relu4
I0403 15:01:07.009409 30898 net.cpp:425] relu4 <- conv4
I0403 15:01:07.009429 30898 net.cpp:386] relu4 -> conv4 (in-place)
I0403 15:01:07.009713 30898 net.cpp:141] Setting up relu4
I0403 15:01:07.009742 30898 net.cpp:148] Top shape: 100 384 13 13 (6489600)
I0403 15:01:07.009757 30898 net.cpp:156] Memory required for data: 783398000
I0403 15:01:07.009773 30898 layer_factory.hpp:77] Creating layer conv5
I0403 15:01:07.009799 30898 net.cpp:91] Creating Layer conv5
I0403 15:01:07.009817 30898 net.cpp:425] conv5 <- conv4
I0403 15:01:07.009842 30898 net.cpp:399] conv5 -> conv5
I0403 15:01:07.030838 30898 net.cpp:141] Setting up conv5
I0403 15:01:07.030891 30898 net.cpp:148] Top shape: 100 256 13 13 (4326400)
I0403 15:01:07.030907 30898 net.cpp:156] Memory required for data: 800703600
I0403 15:01:07.030933 30898 layer_factory.hpp:77] Creating layer relu5
I0403 15:01:07.030958 30898 net.cpp:91] Creating Layer relu5
I0403 15:01:07.030978 30898 net.cpp:425] relu5 <- conv5
I0403 15:01:07.030997 30898 net.cpp:386] relu5 -> conv5 (in-place)
I0403 15:01:07.031297 30898 net.cpp:141] Setting up relu5
I0403 15:01:07.031327 30898 net.cpp:148] Top shape: 100 256 13 13 (4326400)
I0403 15:01:07.031342 30898 net.cpp:156] Memory required for data: 818009200
I0403 15:01:07.031358 30898 layer_factory.hpp:77] Creating layer pool5
I0403 15:01:07.031384 30898 net.cpp:91] Creating Layer pool5
I0403 15:01:07.031404 30898 net.cpp:425] pool5 <- conv5
I0403 15:01:07.031435 30898 net.cpp:399] pool5 -> pool5
I0403 15:01:07.031504 30898 net.cpp:141] Setting up pool5
I0403 15:01:07.031530 30898 net.cpp:148] Top shape: 100 256 6 6 (921600)
I0403 15:01:07.031546 30898 net.cpp:156] Memory required for data: 821695600
I0403 15:01:07.031574 30898 layer_factory.hpp:77] Creating layer fc6
I0403 15:01:07.031605 30898 net.cpp:91] Creating Layer fc6
I0403 15:01:07.031625 30898 net.cpp:425] fc6 <- pool5
I0403 15:01:07.031643 30898 net.cpp:399] fc6 -> fc6
I0403 15:01:08.581780 30898 net.cpp:141] Setting up fc6
I0403 15:01:08.581846 30898 net.cpp:148] Top shape: 100 4096 (409600)
I0403 15:01:08.581862 30898 net.cpp:156] Memory required for data: 823334000
I0403 15:01:08.581883 30898 layer_factory.hpp:77] Creating layer relu6
I0403 15:01:08.581905 30898 net.cpp:91] Creating Layer relu6
I0403 15:01:08.581923 30898 net.cpp:425] relu6 <- fc6
I0403 15:01:08.581945 30898 net.cpp:386] relu6 -> fc6 (in-place)
I0403 15:01:08.582162 30898 net.cpp:141] Setting up relu6
I0403 15:01:08.582188 30898 net.cpp:148] Top shape: 100 4096 (409600)
I0403 15:01:08.582203 30898 net.cpp:156] Memory required for data: 824972400
I0403 15:01:08.582217 30898 layer_factory.hpp:77] Creating layer drop6
I0403 15:01:08.582238 30898 net.cpp:91] Creating Layer drop6
I0403 15:01:08.582255 30898 net.cpp:425] drop6 <- fc6
I0403 15:01:08.582273 30898 net.cpp:386] drop6 -> fc6 (in-place)
I0403 15:01:08.582329 30898 net.cpp:141] Setting up drop6
I0403 15:01:08.582353 30898 net.cpp:148] Top shape: 100 4096 (409600)
I0403 15:01:08.582368 30898 net.cpp:156] Memory required for data: 826610800
I0403 15:01:08.582383 30898 layer_factory.hpp:77] Creating layer fc7
I0403 15:01:08.582402 30898 net.cpp:91] Creating Layer fc7
I0403 15:01:08.582417 30898 net.cpp:425] fc7 <- fc6
I0403 15:01:08.582440 30898 net.cpp:399] fc7 -> fc7
I0403 15:01:09.260931 30898 net.cpp:141] Setting up fc7
I0403 15:01:09.261003 30898 net.cpp:148] Top shape: 100 4096 (409600)
I0403 15:01:09.261019 30898 net.cpp:156] Memory required for data: 828249200
I0403 15:01:09.261040 30898 layer_factory.hpp:77] Creating layer relu7
I0403 15:01:09.261065 30898 net.cpp:91] Creating Layer relu7
I0403 15:01:09.261085 30898 net.cpp:425] relu7 <- fc7
I0403 15:01:09.261103 30898 net.cpp:386] relu7 -> fc7 (in-place)
I0403 15:01:09.261492 30898 net.cpp:141] Setting up relu7
I0403 15:01:09.261518 30898 net.cpp:148] Top shape: 100 4096 (409600)
I0403 15:01:09.261567 30898 net.cpp:156] Memory required for data: 829887600
I0403 15:01:09.261584 30898 layer_factory.hpp:77] Creating layer drop7
I0403 15:01:09.261606 30898 net.cpp:91] Creating Layer drop7
I0403 15:01:09.261622 30898 net.cpp:425] drop7 <- fc7
I0403 15:01:09.261641 30898 net.cpp:386] drop7 -> fc7 (in-place)
I0403 15:01:09.261685 30898 net.cpp:141] Setting up drop7
I0403 15:01:09.261709 30898 net.cpp:148] Top shape: 100 4096 (409600)
I0403 15:01:09.261724 30898 net.cpp:156] Memory required for data: 831526000
I0403 15:01:09.261739 30898 layer_factory.hpp:77] Creating layer fc8_plantvillage
I0403 15:01:09.261759 30898 net.cpp:91] Creating Layer fc8_plantvillage
I0403 15:01:09.261773 30898 net.cpp:425] fc8_plantvillage <- fc7
I0403 15:01:09.261793 30898 net.cpp:399] fc8_plantvillage -> fc8_plantvillage
I0403 15:01:09.268354 30898 net.cpp:141] Setting up fc8_plantvillage
I0403 15:01:09.268384 30898 net.cpp:148] Top shape: 100 38 (3800)
I0403 15:01:09.268400 30898 net.cpp:156] Memory required for data: 831541200
I0403 15:01:09.268419 30898 layer_factory.hpp:77] Creating layer fc8_plantvillage_fc8_plantvillage_0_split
I0403 15:01:09.268441 30898 net.cpp:91] Creating Layer fc8_plantvillage_fc8_plantvillage_0_split
I0403 15:01:09.268460 30898 net.cpp:425] fc8_plantvillage_fc8_plantvillage_0_split <- fc8_plantvillage
I0403 15:01:09.268478 30898 net.cpp:399] fc8_plantvillage_fc8_plantvillage_0_split -> fc8_plantvillage_fc8_plantvillage_0_split_0
I0403 15:01:09.268499 30898 net.cpp:399] fc8_plantvillage_fc8_plantvillage_0_split -> fc8_plantvillage_fc8_plantvillage_0_split_1
I0403 15:01:09.268522 30898 net.cpp:399] fc8_plantvillage_fc8_plantvillage_0_split -> fc8_plantvillage_fc8_plantvillage_0_split_2
I0403 15:01:09.268600 30898 net.cpp:141] Setting up fc8_plantvillage_fc8_plantvillage_0_split
I0403 15:01:09.268625 30898 net.cpp:148] Top shape: 100 38 (3800)
I0403 15:01:09.268642 30898 net.cpp:148] Top shape: 100 38 (3800)
I0403 15:01:09.268658 30898 net.cpp:148] Top shape: 100 38 (3800)
I0403 15:01:09.268673 30898 net.cpp:156] Memory required for data: 831586800
I0403 15:01:09.268687 30898 layer_factory.hpp:77] Creating layer prob
I0403 15:01:09.268707 30898 net.cpp:91] Creating Layer prob
I0403 15:01:09.268723 30898 net.cpp:425] prob <- fc8_plantvillage_fc8_plantvillage_0_split_0
I0403 15:01:09.268744 30898 net.cpp:399] prob -> prob
I0403 15:01:09.268970 30898 net.cpp:141] Setting up prob
I0403 15:01:09.268996 30898 net.cpp:148] Top shape: 100 38 (3800)
I0403 15:01:09.269011 30898 net.cpp:156] Memory required for data: 831602000
I0403 15:01:09.269037 30898 layer_factory.hpp:77] Creating layer hdf5out
I0403 15:01:09.269058 30898 net.cpp:91] Creating Layer hdf5out
I0403 15:01:09.269075 30898 net.cpp:425] hdf5out <- prob
I0403 15:01:09.269091 30898 net.cpp:425] hdf5out <- label_data_1_split_0
I0403 15:01:09.283367 30898 net.cpp:141] Setting up hdf5out
…
