…
I0403 14:55:47.632788 30628 net.cpp:313] The NetState phase (1) differed from the phase (0) specified by a rule in layer data
I0403 14:55:47.633085 30628 net.cpp:49] Initializing net from parameters: 
state {
  phase: TEST
}
layer {
  name: "data"
  type: "Data"
  top: "data"
  top: "label"
  include {
    phase: TEST
  }
  transform_param {
    crop_size: 227
    mean_file: "/home/mohanty/data/final_dataset/lmdb/segmented-80-20/mean.binaryproto"
  }
  data_param {
    source: "/home/mohanty/data/final_dataset/lmdb/segmented-80-20/test_db"
    batch_size: 100
    backend: LMDB
  }
}
layer {
  name: "conv1"
  type: "Convolution"
  bottom: "data"
  top: "conv1"
  param {
    lr_mult: 1
    decay_mult: 1
  }
  param {
    lr_mult: 2
    decay_mult: 0
  }
  convolution_param {
    num_output: 96
    kernel_size: 11
    stride: 4
    weight_filler {
      type: "gaussian"
      std: 0.01
    }
    bias_filler {
      type: "constant"
      value: 0
    }
  }
}
layer {
  name: "relu1"
  type: "ReLU"
  bottom: "conv1"
  top: "conv1"
}
layer {
  name: "norm1"
  type: "LRN"
  bottom: "conv1"
  top: "norm1"
  lrn_param {
    local_size: 5
    alpha: 0.0001
    beta: 0.75
  }
}
layer {
  name: "pool1"
  type: "Pooling"
  bottom: "norm1"
  top: "pool1"
  pooling_param {
    pool: MAX
    kernel_size: 3
    stride: 2
  }
}
layer {
  name: "conv2"
  type: "Convolution"
  bottom: "pool1"
  top: "conv2"
  param {
    lr_mult: 1
    decay_mult: 1
  }
  param {
    lr_mult: 2
    decay_mult: 0
  }
  convolution_param {
    num_output: 256
    pad: 2
    kernel_size: 5
    group: 2
    weight_filler {
      type: "gaussian"
      std: 0.01
    }
    bias_filler {
      type: "constant"
      value: 0.1
    }
  }
}
layer {
  name: "relu2"
  type: "ReLU"
  bottom: "conv2"
  top: "conv2"
}
layer {
  name: "norm2"
  type: "LRN"
  bottom: "conv2"
  top: "norm2"
  lrn_param {
    local_size: 5
    alpha: 0.0001
    beta: 0.75
  }
}
layer {
  name: "pool2"
  type: "Pooling"
  bottom: "norm2"
  top: "pool2"
  pooling_param {
    pool: MAX
    kernel_size: 3
    stride: 2
  }
}
layer {
  name: "conv3"
  type: "Convolution"
  bottom: "pool2"
  top: "conv3"
  param {
    lr_mult: 1
    decay_mult: 1
  }
  param {
    lr_mult: 2
    decay_mult: 0
  }
  convolution_param {
    num_output: 384
    pad: 1
    kernel_size: 3
    weight_filler {
      type: "gaussian"
      std: 0.01
    }
    bias_filler {
      type: "constant"
      value: 0
    }
  }
}
layer {
  name: "relu3"
  type: "ReLU"
  bottom: "conv3"
  top: "conv3"
}
layer {
  name: "conv4"
  type: "Convolution"
  bottom: "conv3"
  top: "conv4"
  param {
    lr_mult: 1
    decay_mult: 1
  }
  param {
    lr_mult: 2
    decay_mult: 0
  }
  convolution_param {
    num_output: 384
    pad: 1
    kernel_size: 3
    group: 2
    weight_filler {
      type: "gaussian"
      std: 0.01
    }
    bias_filler {
      type: "constant"
      value: 0.1
    }
  }
}
layer {
  name: "relu4"
  type: "ReLU"
  bottom: "conv4"
  top: "conv4"
}
layer {
  name: "conv5"
  type: "Convolution"
  bottom: "conv4"
  top: "conv5"
  param {
    lr_mult: 1
    decay_mult: 1
  }
  param {
    lr_mult: 2
    decay_mult: 0
  }
  convolution_param {
    num_output: 256
    pad: 1
    kernel_size: 3
    group: 2
    weight_filler {
      type: "gaussian"
      std: 0.01
    }
    bias_filler {
      type: "constant"
      value: 0.1
    }
  }
}
layer {
  name: "relu5"
  type: "ReLU"
  bottom: "conv5"
  top: "conv5"
}
layer {
  name: "pool5"
  type: "Pooling"
  bottom: "conv5"
  top: "pool5"
  pooling_param {
    pool: MAX
    kernel_size: 3
    stride: 2
  }
}
layer {
  name: "fc6"
  type: "InnerProduct"
  bottom: "pool5"
  top: "fc6"
  param {
    lr_mult: 1
    decay_mult: 1
  }
  param {
    lr_mult: 2
    decay_mult: 0
  }
  inner_product_param {
    num_output: 4096
    weight_filler {
      type: "gaussian"
      std: 0.005
    }
    bias_filler {
      type: "constant"
      value: 0.1
    }
  }
}
layer {
  name: "relu6"
  type: "ReLU"
  bottom: "fc6"
  top: "fc6"
}
layer {
  name: "drop6"
  type: "Dropout"
  bottom: "fc6"
  top: "fc6"
  dropout_param {
    dropout_ratio: 0.5
  }
}
layer {
  name: "fc7"
  type: "InnerProduct"
  bottom: "fc6"
  top: "fc7"
  param {
    lr_mult: 1
    decay_mult: 1
  }
  param {
    lr_mult: 2
    decay_mult: 0
  }
  inner_product_param {
    num_output: 4096
    weight_filler {
      type: "gaussian"
      std: 0.005
    }
    bias_filler {
      type: "constant"
      value: 0.1
    }
  }
}
layer {
  name: "relu7"
  type: "ReLU"
  bottom: "fc7"
  top: "fc7"
}
layer {
  name: "drop7"
  type: "Dropout"
  bottom: "fc7"
  top: "fc7"
  dropout_param {
    dropout_ratio: 0.5
  }
}
layer {
  name: "fc8_plantvillage"
  type: "InnerProduct"
  bottom: "fc7"
  top: "fc8_plantvillage"
  param {
    lr_mult: 1
    decay_mult: 1
  }
  param {
    lr_mult: 2
    decay_mult: 0
  }
  inner_product_param {
    num_output: 38
    weight_filler {
      type: "gaussian"
      std: 0.01
    }
    bias_filler {
      type: "constant"
      value: 0
    }
  }
}
layer {
  name: "prob"
  type: "Softmax"
  bottom: "fc8_plantvillage"
  top: "prob"
  include {
    phase: TEST
  }
}
layer {
  name: "hdf5out"
  type: "HDF5Output"
  bottom: "prob"
  bottom: "label"
  include {
    phase: TEST
  }
  hdf5_output_param {
    file_name: "hdf5_dumps/iter_5220.h5"
  }
}
layer {
  name: "loss"
  type: "SoftmaxWithLoss"
  bottom: "fc8_plantvillage"
  bottom: "label"
  top: "loss"
}
layer {
  name: "accuracy"
  type: "Accuracy"
  bottom: "fc8_plantvillage"
  bottom: "label"
  top: "accuracy"
  include {
    phase: TEST
  }
}
I0403 14:55:47.633666 30628 layer_factory.hpp:77] Creating layer data
I0403 14:55:47.634333 30628 net.cpp:91] Creating Layer data
I0403 14:55:47.634366 30628 net.cpp:399] data -> data
I0403 14:55:47.634423 30628 net.cpp:399] data -> label
I0403 14:55:47.634461 30628 data_transformer.cpp:25] Loading mean file from: /home/mohanty/data/final_dataset/lmdb/segmented-80-20/mean.binaryproto
I0403 14:55:47.637529 30630 db_lmdb.cpp:38] Opened lmdb /home/mohanty/data/final_dataset/lmdb/segmented-80-20/test_db
I0403 14:55:47.648758 30628 data_layer.cpp:41] output data size: 100,3,227,227
I0403 14:55:47.781540 30628 net.cpp:141] Setting up data
I0403 14:55:47.781630 30628 net.cpp:148] Top shape: 100 3 227 227 (15458700)
I0403 14:55:47.781652 30628 net.cpp:148] Top shape: 100 (100)
I0403 14:55:47.781668 30628 net.cpp:156] Memory required for data: 61835200
I0403 14:55:47.781695 30628 layer_factory.hpp:77] Creating layer label_data_1_split
I0403 14:55:47.781723 30628 net.cpp:91] Creating Layer label_data_1_split
I0403 14:55:47.781740 30628 net.cpp:425] label_data_1_split <- label
I0403 14:55:47.781771 30628 net.cpp:399] label_data_1_split -> label_data_1_split_0
I0403 14:55:47.781798 30628 net.cpp:399] label_data_1_split -> label_data_1_split_1
I0403 14:55:47.781819 30628 net.cpp:399] label_data_1_split -> label_data_1_split_2
I0403 14:55:47.781883 30628 net.cpp:141] Setting up label_data_1_split
I0403 14:55:47.781906 30628 net.cpp:148] Top shape: 100 (100)
I0403 14:55:47.781934 30628 net.cpp:148] Top shape: 100 (100)
I0403 14:55:47.781950 30628 net.cpp:148] Top shape: 100 (100)
I0403 14:55:47.781965 30628 net.cpp:156] Memory required for data: 61836400
I0403 14:55:47.781980 30628 layer_factory.hpp:77] Creating layer conv1
I0403 14:55:47.782014 30628 net.cpp:91] Creating Layer conv1
I0403 14:55:47.782033 30628 net.cpp:425] conv1 <- data
I0403 14:55:47.782052 30628 net.cpp:399] conv1 -> conv1
I0403 14:55:47.927228 30628 net.cpp:141] Setting up conv1
I0403 14:55:47.927312 30628 net.cpp:148] Top shape: 100 96 55 55 (29040000)
I0403 14:55:47.927332 30628 net.cpp:156] Memory required for data: 177996400
I0403 14:55:47.927366 30628 layer_factory.hpp:77] Creating layer relu1
I0403 14:55:47.927400 30628 net.cpp:91] Creating Layer relu1
I0403 14:55:47.927420 30628 net.cpp:425] relu1 <- conv1
I0403 14:55:47.927440 30628 net.cpp:386] relu1 -> conv1 (in-place)
I0403 14:55:47.927701 30628 net.cpp:141] Setting up relu1
I0403 14:55:47.927729 30628 net.cpp:148] Top shape: 100 96 55 55 (29040000)
I0403 14:55:47.927779 30628 net.cpp:156] Memory required for data: 294156400
I0403 14:55:47.927798 30628 layer_factory.hpp:77] Creating layer norm1
I0403 14:55:47.927826 30628 net.cpp:91] Creating Layer norm1
I0403 14:55:47.927846 30628 net.cpp:425] norm1 <- conv1
I0403 14:55:47.927865 30628 net.cpp:399] norm1 -> norm1
I0403 14:55:47.928172 30628 net.cpp:141] Setting up norm1
I0403 14:55:47.928238 30628 net.cpp:148] Top shape: 100 96 55 55 (29040000)
I0403 14:55:47.928262 30628 net.cpp:156] Memory required for data: 410316400
I0403 14:55:47.928279 30628 layer_factory.hpp:77] Creating layer pool1
I0403 14:55:47.928308 30628 net.cpp:91] Creating Layer pool1
I0403 14:55:47.928326 30628 net.cpp:425] pool1 <- norm1
I0403 14:55:47.928344 30628 net.cpp:399] pool1 -> pool1
I0403 14:55:47.928414 30628 net.cpp:141] Setting up pool1
I0403 14:55:47.928441 30628 net.cpp:148] Top shape: 100 96 27 27 (6998400)
I0403 14:55:47.928457 30628 net.cpp:156] Memory required for data: 438310000
I0403 14:55:47.928472 30628 layer_factory.hpp:77] Creating layer conv2
I0403 14:55:47.928498 30628 net.cpp:91] Creating Layer conv2
I0403 14:55:47.928515 30628 net.cpp:425] conv2 <- pool1
I0403 14:55:47.928534 30628 net.cpp:399] conv2 -> conv2
I0403 14:55:47.943673 30628 net.cpp:141] Setting up conv2
I0403 14:55:47.943727 30628 net.cpp:148] Top shape: 100 256 27 27 (18662400)
I0403 14:55:47.943743 30628 net.cpp:156] Memory required for data: 512959600
I0403 14:55:47.943768 30628 layer_factory.hpp:77] Creating layer relu2
I0403 14:55:47.943789 30628 net.cpp:91] Creating Layer relu2
I0403 14:55:47.943805 30628 net.cpp:425] relu2 <- conv2
I0403 14:55:47.943824 30628 net.cpp:386] relu2 -> conv2 (in-place)
I0403 14:55:47.944100 30628 net.cpp:141] Setting up relu2
I0403 14:55:47.944128 30628 net.cpp:148] Top shape: 100 256 27 27 (18662400)
I0403 14:55:47.944144 30628 net.cpp:156] Memory required for data: 587609200
I0403 14:55:47.944159 30628 layer_factory.hpp:77] Creating layer norm2
I0403 14:55:47.944185 30628 net.cpp:91] Creating Layer norm2
I0403 14:55:47.944203 30628 net.cpp:425] norm2 <- conv2
I0403 14:55:47.944221 30628 net.cpp:399] norm2 -> norm2
I0403 14:55:47.944424 30628 net.cpp:141] Setting up norm2
I0403 14:55:47.944454 30628 net.cpp:148] Top shape: 100 256 27 27 (18662400)
I0403 14:55:47.944471 30628 net.cpp:156] Memory required for data: 662258800
I0403 14:55:47.944488 30628 layer_factory.hpp:77] Creating layer pool2
I0403 14:55:47.944505 30628 net.cpp:91] Creating Layer pool2
I0403 14:55:47.944522 30628 net.cpp:425] pool2 <- norm2
I0403 14:55:47.944541 30628 net.cpp:399] pool2 -> pool2
I0403 14:55:47.944594 30628 net.cpp:141] Setting up pool2
I0403 14:55:47.944670 30628 net.cpp:148] Top shape: 100 256 13 13 (4326400)
I0403 14:55:47.944689 30628 net.cpp:156] Memory required for data: 679564400
I0403 14:55:47.944705 30628 layer_factory.hpp:77] Creating layer conv3
I0403 14:55:47.944730 30628 net.cpp:91] Creating Layer conv3
I0403 14:55:47.944747 30628 net.cpp:425] conv3 <- pool2
I0403 14:55:47.944769 30628 net.cpp:399] conv3 -> conv3
I0403 14:55:47.983043 30628 net.cpp:141] Setting up conv3
I0403 14:55:47.983093 30628 net.cpp:148] Top shape: 100 384 13 13 (6489600)
I0403 14:55:47.983113 30628 net.cpp:156] Memory required for data: 705522800
I0403 14:55:47.983136 30628 layer_factory.hpp:77] Creating layer relu3
I0403 14:55:47.983170 30628 net.cpp:91] Creating Layer relu3
I0403 14:55:47.983186 30628 net.cpp:425] relu3 <- conv3
I0403 14:55:47.983208 30628 net.cpp:386] relu3 -> conv3 (in-place)
I0403 14:55:47.983512 30628 net.cpp:141] Setting up relu3
I0403 14:55:47.983544 30628 net.cpp:148] Top shape: 100 384 13 13 (6489600)
I0403 14:55:47.983561 30628 net.cpp:156] Memory required for data: 731481200
I0403 14:55:47.983577 30628 layer_factory.hpp:77] Creating layer conv4
I0403 14:55:47.983602 30628 net.cpp:91] Creating Layer conv4
I0403 14:55:47.983619 30628 net.cpp:425] conv4 <- conv3
I0403 14:55:47.983638 30628 net.cpp:399] conv4 -> conv4
I0403 14:55:48.014456 30628 net.cpp:141] Setting up conv4
I0403 14:55:48.014535 30628 net.cpp:148] Top shape: 100 384 13 13 (6489600)
I0403 14:55:48.014585 30628 net.cpp:156] Memory required for data: 757439600
I0403 14:55:48.014608 30628 layer_factory.hpp:77] Creating layer relu4
I0403 14:55:48.014634 30628 net.cpp:91] Creating Layer relu4
I0403 14:55:48.014653 30628 net.cpp:425] relu4 <- conv4
I0403 14:55:48.014674 30628 net.cpp:386] relu4 -> conv4 (in-place)
I0403 14:55:48.015017 30628 net.cpp:141] Setting up relu4
I0403 14:55:48.015046 30628 net.cpp:148] Top shape: 100 384 13 13 (6489600)
I0403 14:55:48.015063 30628 net.cpp:156] Memory required for data: 783398000
I0403 14:55:48.015079 30628 layer_factory.hpp:77] Creating layer conv5
I0403 14:55:48.015107 30628 net.cpp:91] Creating Layer conv5
I0403 14:55:48.015126 30628 net.cpp:425] conv5 <- conv4
I0403 14:55:48.015147 30628 net.cpp:399] conv5 -> conv5
I0403 14:55:48.035914 30628 net.cpp:141] Setting up conv5
I0403 14:55:48.035965 30628 net.cpp:148] Top shape: 100 256 13 13 (4326400)
I0403 14:55:48.035982 30628 net.cpp:156] Memory required for data: 800703600
I0403 14:55:48.036007 30628 layer_factory.hpp:77] Creating layer relu5
I0403 14:55:48.036028 30628 net.cpp:91] Creating Layer relu5
I0403 14:55:48.036046 30628 net.cpp:425] relu5 <- conv5
I0403 14:55:48.036062 30628 net.cpp:386] relu5 -> conv5 (in-place)
I0403 14:55:48.036342 30628 net.cpp:141] Setting up relu5
I0403 14:55:48.036372 30628 net.cpp:148] Top shape: 100 256 13 13 (4326400)
I0403 14:55:48.036389 30628 net.cpp:156] Memory required for data: 818009200
I0403 14:55:48.036406 30628 layer_factory.hpp:77] Creating layer pool5
I0403 14:55:48.036442 30628 net.cpp:91] Creating Layer pool5
I0403 14:55:48.036458 30628 net.cpp:425] pool5 <- conv5
I0403 14:55:48.036480 30628 net.cpp:399] pool5 -> pool5
I0403 14:55:48.036541 30628 net.cpp:141] Setting up pool5
I0403 14:55:48.036566 30628 net.cpp:148] Top shape: 100 256 6 6 (921600)
I0403 14:55:48.036582 30628 net.cpp:156] Memory required for data: 821695600
I0403 14:55:48.036598 30628 layer_factory.hpp:77] Creating layer fc6
I0403 14:55:48.036629 30628 net.cpp:91] Creating Layer fc6
I0403 14:55:48.036648 30628 net.cpp:425] fc6 <- pool5
I0403 14:55:48.036670 30628 net.cpp:399] fc6 -> fc6
I0403 14:55:49.581887 30628 net.cpp:141] Setting up fc6
I0403 14:55:49.581930 30628 net.cpp:148] Top shape: 100 4096 (409600)
I0403 14:55:49.581948 30628 net.cpp:156] Memory required for data: 823334000
I0403 14:55:49.581969 30628 layer_factory.hpp:77] Creating layer relu6
I0403 14:55:49.581995 30628 net.cpp:91] Creating Layer relu6
I0403 14:55:49.582013 30628 net.cpp:425] relu6 <- fc6
I0403 14:55:49.582034 30628 net.cpp:386] relu6 -> fc6 (in-place)
I0403 14:55:49.582245 30628 net.cpp:141] Setting up relu6
I0403 14:55:49.582274 30628 net.cpp:148] Top shape: 100 4096 (409600)
I0403 14:55:49.582294 30628 net.cpp:156] Memory required for data: 824972400
I0403 14:55:49.582309 30628 layer_factory.hpp:77] Creating layer drop6
I0403 14:55:49.582329 30628 net.cpp:91] Creating Layer drop6
I0403 14:55:49.582345 30628 net.cpp:425] drop6 <- fc6
I0403 14:55:49.582362 30628 net.cpp:386] drop6 -> fc6 (in-place)
I0403 14:55:49.582417 30628 net.cpp:141] Setting up drop6
I0403 14:55:49.582440 30628 net.cpp:148] Top shape: 100 4096 (409600)
I0403 14:55:49.582455 30628 net.cpp:156] Memory required for data: 826610800
I0403 14:55:49.582470 30628 layer_factory.hpp:77] Creating layer fc7
I0403 14:55:49.582492 30628 net.cpp:91] Creating Layer fc7
I0403 14:55:49.582509 30628 net.cpp:425] fc7 <- fc6
I0403 14:55:49.582528 30628 net.cpp:399] fc7 -> fc7
I0403 14:55:50.265120 30628 net.cpp:141] Setting up fc7
I0403 14:55:50.265190 30628 net.cpp:148] Top shape: 100 4096 (409600)
I0403 14:55:50.265207 30628 net.cpp:156] Memory required for data: 828249200
I0403 14:55:50.265228 30628 layer_factory.hpp:77] Creating layer relu7
I0403 14:55:50.265252 30628 net.cpp:91] Creating Layer relu7
I0403 14:55:50.265272 30628 net.cpp:425] relu7 <- fc7
I0403 14:55:50.265296 30628 net.cpp:386] relu7 -> fc7 (in-place)
I0403 14:55:50.265676 30628 net.cpp:141] Setting up relu7
I0403 14:55:50.265707 30628 net.cpp:148] Top shape: 100 4096 (409600)
I0403 14:55:50.265753 30628 net.cpp:156] Memory required for data: 829887600
I0403 14:55:50.265769 30628 layer_factory.hpp:77] Creating layer drop7
I0403 14:55:50.265789 30628 net.cpp:91] Creating Layer drop7
I0403 14:55:50.265805 30628 net.cpp:425] drop7 <- fc7
I0403 14:55:50.265823 30628 net.cpp:386] drop7 -> fc7 (in-place)
I0403 14:55:50.265867 30628 net.cpp:141] Setting up drop7
I0403 14:55:50.265890 30628 net.cpp:148] Top shape: 100 4096 (409600)
I0403 14:55:50.265904 30628 net.cpp:156] Memory required for data: 831526000
I0403 14:55:50.265919 30628 layer_factory.hpp:77] Creating layer fc8_plantvillage
I0403 14:55:50.265941 30628 net.cpp:91] Creating Layer fc8_plantvillage
I0403 14:55:50.265957 30628 net.cpp:425] fc8_plantvillage <- fc7
I0403 14:55:50.265975 30628 net.cpp:399] fc8_plantvillage -> fc8_plantvillage
I0403 14:55:50.272517 30628 net.cpp:141] Setting up fc8_plantvillage
I0403 14:55:50.272547 30628 net.cpp:148] Top shape: 100 38 (3800)
I0403 14:55:50.272563 30628 net.cpp:156] Memory required for data: 831541200
I0403 14:55:50.272580 30628 layer_factory.hpp:77] Creating layer fc8_plantvillage_fc8_plantvillage_0_split
I0403 14:55:50.272600 30628 net.cpp:91] Creating Layer fc8_plantvillage_fc8_plantvillage_0_split
I0403 14:55:50.272616 30628 net.cpp:425] fc8_plantvillage_fc8_plantvillage_0_split <- fc8_plantvillage
I0403 14:55:50.272634 30628 net.cpp:399] fc8_plantvillage_fc8_plantvillage_0_split -> fc8_plantvillage_fc8_plantvillage_0_split_0
I0403 14:55:50.272655 30628 net.cpp:399] fc8_plantvillage_fc8_plantvillage_0_split -> fc8_plantvillage_fc8_plantvillage_0_split_1
I0403 14:55:50.272677 30628 net.cpp:399] fc8_plantvillage_fc8_plantvillage_0_split -> fc8_plantvillage_fc8_plantvillage_0_split_2
I0403 14:55:50.272753 30628 net.cpp:141] Setting up fc8_plantvillage_fc8_plantvillage_0_split
I0403 14:55:50.272776 30628 net.cpp:148] Top shape: 100 38 (3800)
I0403 14:55:50.272794 30628 net.cpp:148] Top shape: 100 38 (3800)
I0403 14:55:50.272809 30628 net.cpp:148] Top shape: 100 38 (3800)
I0403 14:55:50.272822 30628 net.cpp:156] Memory required for data: 831586800
I0403 14:55:50.272836 30628 layer_factory.hpp:77] Creating layer prob
I0403 14:55:50.272855 30628 net.cpp:91] Creating Layer prob
I0403 14:55:50.272871 30628 net.cpp:425] prob <- fc8_plantvillage_fc8_plantvillage_0_split_0
I0403 14:55:50.272888 30628 net.cpp:399] prob -> prob
I0403 14:55:50.273105 30628 net.cpp:141] Setting up prob
I0403 14:55:50.273131 30628 net.cpp:148] Top shape: 100 38 (3800)
I0403 14:55:50.273145 30628 net.cpp:156] Memory required for data: 831602000
I0403 14:55:50.273160 30628 layer_factory.hpp:77] Creating layer hdf5out
I0403 14:55:50.273182 30628 net.cpp:91] Creating Layer hdf5out
I0403 14:55:50.273198 30628 net.cpp:425] hdf5out <- prob
I0403 14:55:50.273213 30628 net.cpp:425] hdf5out <- label_data_1_split_0
I0403 14:55:50.282798 30628 net.cpp:141] Setting up hdf5out
…
