…
I0403 14:57:23.406499 30666 net.cpp:313] The NetState phase (1) differed from the phase (0) specified by a rule in layer data
I0403 14:57:23.406800 30666 net.cpp:49] Initializing net from parameters: 
state {
  phase: TEST
}
layer {
  name: "data"
  type: "Data"
  top: "data"
  top: "label"
  include {
    phase: TEST
  }
  transform_param {
    crop_size: 227
    mean_file: "/home/mohanty/data/final_dataset/lmdb/segmented-80-20/mean.binaryproto"
  }
  data_param {
    source: "/home/mohanty/data/final_dataset/lmdb/segmented-80-20/test_db"
    batch_size: 100
    backend: LMDB
  }
}
layer {
  name: "conv1"
  type: "Convolution"
  bottom: "data"
  top: "conv1"
  param {
    lr_mult: 1
    decay_mult: 1
  }
  param {
    lr_mult: 2
    decay_mult: 0
  }
  convolution_param {
    num_output: 96
    kernel_size: 11
    stride: 4
    weight_filler {
      type: "gaussian"
      std: 0.01
    }
    bias_filler {
      type: "constant"
      value: 0
    }
  }
}
layer {
  name: "relu1"
  type: "ReLU"
  bottom: "conv1"
  top: "conv1"
}
layer {
  name: "norm1"
  type: "LRN"
  bottom: "conv1"
  top: "norm1"
  lrn_param {
    local_size: 5
    alpha: 0.0001
    beta: 0.75
  }
}
layer {
  name: "pool1"
  type: "Pooling"
  bottom: "norm1"
  top: "pool1"
  pooling_param {
    pool: MAX
    kernel_size: 3
    stride: 2
  }
}
layer {
  name: "conv2"
  type: "Convolution"
  bottom: "pool1"
  top: "conv2"
  param {
    lr_mult: 1
    decay_mult: 1
  }
  param {
    lr_mult: 2
    decay_mult: 0
  }
  convolution_param {
    num_output: 256
    pad: 2
    kernel_size: 5
    group: 2
    weight_filler {
      type: "gaussian"
      std: 0.01
    }
    bias_filler {
      type: "constant"
      value: 0.1
    }
  }
}
layer {
  name: "relu2"
  type: "ReLU"
  bottom: "conv2"
  top: "conv2"
}
layer {
  name: "norm2"
  type: "LRN"
  bottom: "conv2"
  top: "norm2"
  lrn_param {
    local_size: 5
    alpha: 0.0001
    beta: 0.75
  }
}
layer {
  name: "pool2"
  type: "Pooling"
  bottom: "norm2"
  top: "pool2"
  pooling_param {
    pool: MAX
    kernel_size: 3
    stride: 2
  }
}
layer {
  name: "conv3"
  type: "Convolution"
  bottom: "pool2"
  top: "conv3"
  param {
    lr_mult: 1
    decay_mult: 1
  }
  param {
    lr_mult: 2
    decay_mult: 0
  }
  convolution_param {
    num_output: 384
    pad: 1
    kernel_size: 3
    weight_filler {
      type: "gaussian"
      std: 0.01
    }
    bias_filler {
      type: "constant"
      value: 0
    }
  }
}
layer {
  name: "relu3"
  type: "ReLU"
  bottom: "conv3"
  top: "conv3"
}
layer {
  name: "conv4"
  type: "Convolution"
  bottom: "conv3"
  top: "conv4"
  param {
    lr_mult: 1
    decay_mult: 1
  }
  param {
    lr_mult: 2
    decay_mult: 0
  }
  convolution_param {
    num_output: 384
    pad: 1
    kernel_size: 3
    group: 2
    weight_filler {
      type: "gaussian"
      std: 0.01
    }
    bias_filler {
      type: "constant"
      value: 0.1
    }
  }
}
layer {
  name: "relu4"
  type: "ReLU"
  bottom: "conv4"
  top: "conv4"
}
layer {
  name: "conv5"
  type: "Convolution"
  bottom: "conv4"
  top: "conv5"
  param {
    lr_mult: 1
    decay_mult: 1
  }
  param {
    lr_mult: 2
    decay_mult: 0
  }
  convolution_param {
    num_output: 256
    pad: 1
    kernel_size: 3
    group: 2
    weight_filler {
      type: "gaussian"
      std: 0.01
    }
    bias_filler {
      type: "constant"
      value: 0.1
    }
  }
}
layer {
  name: "relu5"
  type: "ReLU"
  bottom: "conv5"
  top: "conv5"
}
layer {
  name: "pool5"
  type: "Pooling"
  bottom: "conv5"
  top: "pool5"
  pooling_param {
    pool: MAX
    kernel_size: 3
    stride: 2
  }
}
layer {
  name: "fc6"
  type: "InnerProduct"
  bottom: "pool5"
  top: "fc6"
  param {
    lr_mult: 1
    decay_mult: 1
  }
  param {
    lr_mult: 2
    decay_mult: 0
  }
  inner_product_param {
    num_output: 4096
    weight_filler {
      type: "gaussian"
      std: 0.005
    }
    bias_filler {
      type: "constant"
      value: 0.1
    }
  }
}
layer {
  name: "relu6"
  type: "ReLU"
  bottom: "fc6"
  top: "fc6"
}
layer {
  name: "drop6"
  type: "Dropout"
  bottom: "fc6"
  top: "fc6"
  dropout_param {
    dropout_ratio: 0.5
  }
}
layer {
  name: "fc7"
  type: "InnerProduct"
  bottom: "fc6"
  top: "fc7"
  param {
    lr_mult: 1
    decay_mult: 1
  }
  param {
    lr_mult: 2
    decay_mult: 0
  }
  inner_product_param {
    num_output: 4096
    weight_filler {
      type: "gaussian"
      std: 0.005
    }
    bias_filler {
      type: "constant"
      value: 0.1
    }
  }
}
layer {
  name: "relu7"
  type: "ReLU"
  bottom: "fc7"
  top: "fc7"
}
layer {
  name: "drop7"
  type: "Dropout"
  bottom: "fc7"
  top: "fc7"
  dropout_param {
    dropout_ratio: 0.5
  }
}
layer {
  name: "fc8_plantvillage"
  type: "InnerProduct"
  bottom: "fc7"
  top: "fc8_plantvillage"
  param {
    lr_mult: 1
    decay_mult: 1
  }
  param {
    lr_mult: 2
    decay_mult: 0
  }
  inner_product_param {
    num_output: 38
    weight_filler {
      type: "gaussian"
      std: 0.01
    }
    bias_filler {
      type: "constant"
      value: 0
    }
  }
}
layer {
  name: "prob"
  type: "Softmax"
  bottom: "fc8_plantvillage"
  top: "prob"
  include {
    phase: TEST
  }
}
layer {
  name: "hdf5out"
  type: "HDF5Output"
  bottom: "prob"
  bottom: "label"
  include {
    phase: TEST
  }
  hdf5_output_param {
    file_name: "hdf5_dumps/iter_6960.h5"
  }
}
layer {
  name: "loss"
  type: "SoftmaxWithLoss"
  bottom: "fc8_plantvillage"
  bottom: "label"
  top: "loss"
}
layer {
  name: "accuracy"
  type: "Accuracy"
  bottom: "fc8_plantvillage"
  bottom: "label"
  top: "accuracy"
  include {
    phase: TEST
  }
}
I0403 14:57:23.407382 30666 layer_factory.hpp:77] Creating layer data
I0403 14:57:23.408016 30666 net.cpp:91] Creating Layer data
I0403 14:57:23.408047 30666 net.cpp:399] data -> data
I0403 14:57:23.408102 30666 net.cpp:399] data -> label
I0403 14:57:23.408139 30666 data_transformer.cpp:25] Loading mean file from: /home/mohanty/data/final_dataset/lmdb/segmented-80-20/mean.binaryproto
I0403 14:57:23.420271 30668 db_lmdb.cpp:38] Opened lmdb /home/mohanty/data/final_dataset/lmdb/segmented-80-20/test_db
I0403 14:57:23.424376 30666 data_layer.cpp:41] output data size: 100,3,227,227
I0403 14:57:23.558898 30666 net.cpp:141] Setting up data
I0403 14:57:23.558960 30666 net.cpp:148] Top shape: 100 3 227 227 (15458700)
I0403 14:57:23.558985 30666 net.cpp:148] Top shape: 100 (100)
I0403 14:57:23.559001 30666 net.cpp:156] Memory required for data: 61835200
I0403 14:57:23.559031 30666 layer_factory.hpp:77] Creating layer label_data_1_split
I0403 14:57:23.559057 30666 net.cpp:91] Creating Layer label_data_1_split
I0403 14:57:23.559077 30666 net.cpp:425] label_data_1_split <- label
I0403 14:57:23.559109 30666 net.cpp:399] label_data_1_split -> label_data_1_split_0
I0403 14:57:23.559137 30666 net.cpp:399] label_data_1_split -> label_data_1_split_1
I0403 14:57:23.559160 30666 net.cpp:399] label_data_1_split -> label_data_1_split_2
I0403 14:57:23.559227 30666 net.cpp:141] Setting up label_data_1_split
I0403 14:57:23.559255 30666 net.cpp:148] Top shape: 100 (100)
I0403 14:57:23.559276 30666 net.cpp:148] Top shape: 100 (100)
I0403 14:57:23.559294 30666 net.cpp:148] Top shape: 100 (100)
I0403 14:57:23.559309 30666 net.cpp:156] Memory required for data: 61836400
I0403 14:57:23.559324 30666 layer_factory.hpp:77] Creating layer conv1
I0403 14:57:23.559357 30666 net.cpp:91] Creating Layer conv1
I0403 14:57:23.559376 30666 net.cpp:425] conv1 <- data
I0403 14:57:23.559397 30666 net.cpp:399] conv1 -> conv1
I0403 14:57:23.703241 30666 net.cpp:141] Setting up conv1
I0403 14:57:23.703308 30666 net.cpp:148] Top shape: 100 96 55 55 (29040000)
I0403 14:57:23.703327 30666 net.cpp:156] Memory required for data: 177996400
I0403 14:57:23.703367 30666 layer_factory.hpp:77] Creating layer relu1
I0403 14:57:23.703397 30666 net.cpp:91] Creating Layer relu1
I0403 14:57:23.703414 30666 net.cpp:425] relu1 <- conv1
I0403 14:57:23.703434 30666 net.cpp:386] relu1 -> conv1 (in-place)
I0403 14:57:23.703698 30666 net.cpp:141] Setting up relu1
I0403 14:57:23.703725 30666 net.cpp:148] Top shape: 100 96 55 55 (29040000)
I0403 14:57:23.703773 30666 net.cpp:156] Memory required for data: 294156400
I0403 14:57:23.703790 30666 layer_factory.hpp:77] Creating layer norm1
I0403 14:57:23.703817 30666 net.cpp:91] Creating Layer norm1
I0403 14:57:23.703835 30666 net.cpp:425] norm1 <- conv1
I0403 14:57:23.703855 30666 net.cpp:399] norm1 -> norm1
I0403 14:57:23.704159 30666 net.cpp:141] Setting up norm1
I0403 14:57:23.704187 30666 net.cpp:148] Top shape: 100 96 55 55 (29040000)
I0403 14:57:23.704205 30666 net.cpp:156] Memory required for data: 410316400
I0403 14:57:23.704219 30666 layer_factory.hpp:77] Creating layer pool1
I0403 14:57:23.704241 30666 net.cpp:91] Creating Layer pool1
I0403 14:57:23.704272 30666 net.cpp:425] pool1 <- norm1
I0403 14:57:23.704327 30666 net.cpp:399] pool1 -> pool1
I0403 14:57:23.704399 30666 net.cpp:141] Setting up pool1
I0403 14:57:23.704426 30666 net.cpp:148] Top shape: 100 96 27 27 (6998400)
I0403 14:57:23.704442 30666 net.cpp:156] Memory required for data: 438310000
I0403 14:57:23.704457 30666 layer_factory.hpp:77] Creating layer conv2
I0403 14:57:23.704483 30666 net.cpp:91] Creating Layer conv2
I0403 14:57:23.704499 30666 net.cpp:425] conv2 <- pool1
I0403 14:57:23.704519 30666 net.cpp:399] conv2 -> conv2
I0403 14:57:23.719720 30666 net.cpp:141] Setting up conv2
I0403 14:57:23.719760 30666 net.cpp:148] Top shape: 100 256 27 27 (18662400)
I0403 14:57:23.719780 30666 net.cpp:156] Memory required for data: 512959600
I0403 14:57:23.719804 30666 layer_factory.hpp:77] Creating layer relu2
I0403 14:57:23.719825 30666 net.cpp:91] Creating Layer relu2
I0403 14:57:23.719842 30666 net.cpp:425] relu2 <- conv2
I0403 14:57:23.719867 30666 net.cpp:386] relu2 -> conv2 (in-place)
I0403 14:57:23.720155 30666 net.cpp:141] Setting up relu2
I0403 14:57:23.720185 30666 net.cpp:148] Top shape: 100 256 27 27 (18662400)
I0403 14:57:23.720201 30666 net.cpp:156] Memory required for data: 587609200
I0403 14:57:23.720216 30666 layer_factory.hpp:77] Creating layer norm2
I0403 14:57:23.720240 30666 net.cpp:91] Creating Layer norm2
I0403 14:57:23.720263 30666 net.cpp:425] norm2 <- conv2
I0403 14:57:23.720283 30666 net.cpp:399] norm2 -> norm2
I0403 14:57:23.720489 30666 net.cpp:141] Setting up norm2
I0403 14:57:23.720520 30666 net.cpp:148] Top shape: 100 256 27 27 (18662400)
I0403 14:57:23.720536 30666 net.cpp:156] Memory required for data: 662258800
I0403 14:57:23.720552 30666 layer_factory.hpp:77] Creating layer pool2
I0403 14:57:23.720571 30666 net.cpp:91] Creating Layer pool2
I0403 14:57:23.720587 30666 net.cpp:425] pool2 <- norm2
I0403 14:57:23.720608 30666 net.cpp:399] pool2 -> pool2
I0403 14:57:23.720702 30666 net.cpp:141] Setting up pool2
I0403 14:57:23.720731 30666 net.cpp:148] Top shape: 100 256 13 13 (4326400)
I0403 14:57:23.720747 30666 net.cpp:156] Memory required for data: 679564400
I0403 14:57:23.720763 30666 layer_factory.hpp:77] Creating layer conv3
I0403 14:57:23.720787 30666 net.cpp:91] Creating Layer conv3
I0403 14:57:23.720804 30666 net.cpp:425] conv3 <- pool2
I0403 14:57:23.720825 30666 net.cpp:399] conv3 -> conv3
I0403 14:57:23.760215 30666 net.cpp:141] Setting up conv3
I0403 14:57:23.760285 30666 net.cpp:148] Top shape: 100 384 13 13 (6489600)
I0403 14:57:23.760303 30666 net.cpp:156] Memory required for data: 705522800
I0403 14:57:23.760330 30666 layer_factory.hpp:77] Creating layer relu3
I0403 14:57:23.760352 30666 net.cpp:91] Creating Layer relu3
I0403 14:57:23.760371 30666 net.cpp:425] relu3 <- conv3
I0403 14:57:23.760392 30666 net.cpp:386] relu3 -> conv3 (in-place)
I0403 14:57:23.760668 30666 net.cpp:141] Setting up relu3
I0403 14:57:23.760695 30666 net.cpp:148] Top shape: 100 384 13 13 (6489600)
I0403 14:57:23.760710 30666 net.cpp:156] Memory required for data: 731481200
I0403 14:57:23.760726 30666 layer_factory.hpp:77] Creating layer conv4
I0403 14:57:23.760751 30666 net.cpp:91] Creating Layer conv4
I0403 14:57:23.760771 30666 net.cpp:425] conv4 <- conv3
I0403 14:57:23.760790 30666 net.cpp:399] conv4 -> conv4
I0403 14:57:23.790753 30666 net.cpp:141] Setting up conv4
I0403 14:57:23.790805 30666 net.cpp:148] Top shape: 100 384 13 13 (6489600)
I0403 14:57:23.790853 30666 net.cpp:156] Memory required for data: 757439600
I0403 14:57:23.790875 30666 layer_factory.hpp:77] Creating layer relu4
I0403 14:57:23.790897 30666 net.cpp:91] Creating Layer relu4
I0403 14:57:23.790915 30666 net.cpp:425] relu4 <- conv4
I0403 14:57:23.790933 30666 net.cpp:386] relu4 -> conv4 (in-place)
I0403 14:57:23.791208 30666 net.cpp:141] Setting up relu4
I0403 14:57:23.791237 30666 net.cpp:148] Top shape: 100 384 13 13 (6489600)
I0403 14:57:23.791256 30666 net.cpp:156] Memory required for data: 783398000
I0403 14:57:23.791275 30666 layer_factory.hpp:77] Creating layer conv5
I0403 14:57:23.791301 30666 net.cpp:91] Creating Layer conv5
I0403 14:57:23.791318 30666 net.cpp:425] conv5 <- conv4
I0403 14:57:23.791337 30666 net.cpp:399] conv5 -> conv5
I0403 14:57:23.812376 30666 net.cpp:141] Setting up conv5
I0403 14:57:23.812417 30666 net.cpp:148] Top shape: 100 256 13 13 (4326400)
I0403 14:57:23.812436 30666 net.cpp:156] Memory required for data: 800703600
I0403 14:57:23.812460 30666 layer_factory.hpp:77] Creating layer relu5
I0403 14:57:23.812482 30666 net.cpp:91] Creating Layer relu5
I0403 14:57:23.812500 30666 net.cpp:425] relu5 <- conv5
I0403 14:57:23.812522 30666 net.cpp:386] relu5 -> conv5 (in-place)
I0403 14:57:23.812818 30666 net.cpp:141] Setting up relu5
I0403 14:57:23.812846 30666 net.cpp:148] Top shape: 100 256 13 13 (4326400)
I0403 14:57:23.812862 30666 net.cpp:156] Memory required for data: 818009200
I0403 14:57:23.812878 30666 layer_factory.hpp:77] Creating layer pool5
I0403 14:57:23.812904 30666 net.cpp:91] Creating Layer pool5
I0403 14:57:23.812922 30666 net.cpp:425] pool5 <- conv5
I0403 14:57:23.812942 30666 net.cpp:399] pool5 -> pool5
I0403 14:57:23.813004 30666 net.cpp:141] Setting up pool5
I0403 14:57:23.813031 30666 net.cpp:148] Top shape: 100 256 6 6 (921600)
I0403 14:57:23.813076 30666 net.cpp:156] Memory required for data: 821695600
I0403 14:57:23.813097 30666 layer_factory.hpp:77] Creating layer fc6
I0403 14:57:23.813123 30666 net.cpp:91] Creating Layer fc6
I0403 14:57:23.813141 30666 net.cpp:425] fc6 <- pool5
I0403 14:57:23.813164 30666 net.cpp:399] fc6 -> fc6
I0403 14:57:25.354286 30666 net.cpp:141] Setting up fc6
I0403 14:57:25.354367 30666 net.cpp:148] Top shape: 100 4096 (409600)
I0403 14:57:25.354387 30666 net.cpp:156] Memory required for data: 823334000
I0403 14:57:25.354413 30666 layer_factory.hpp:77] Creating layer relu6
I0403 14:57:25.354436 30666 net.cpp:91] Creating Layer relu6
I0403 14:57:25.354455 30666 net.cpp:425] relu6 <- fc6
I0403 14:57:25.354476 30666 net.cpp:386] relu6 -> fc6 (in-place)
I0403 14:57:25.354723 30666 net.cpp:141] Setting up relu6
I0403 14:57:25.354753 30666 net.cpp:148] Top shape: 100 4096 (409600)
I0403 14:57:25.354770 30666 net.cpp:156] Memory required for data: 824972400
I0403 14:57:25.354785 30666 layer_factory.hpp:77] Creating layer drop6
I0403 14:57:25.354806 30666 net.cpp:91] Creating Layer drop6
I0403 14:57:25.354823 30666 net.cpp:425] drop6 <- fc6
I0403 14:57:25.354845 30666 net.cpp:386] drop6 -> fc6 (in-place)
I0403 14:57:25.354897 30666 net.cpp:141] Setting up drop6
I0403 14:57:25.354923 30666 net.cpp:148] Top shape: 100 4096 (409600)
I0403 14:57:25.354938 30666 net.cpp:156] Memory required for data: 826610800
I0403 14:57:25.354953 30666 layer_factory.hpp:77] Creating layer fc7
I0403 14:57:25.354976 30666 net.cpp:91] Creating Layer fc7
I0403 14:57:25.354995 30666 net.cpp:425] fc7 <- fc6
I0403 14:57:25.355015 30666 net.cpp:399] fc7 -> fc7
I0403 14:57:26.095036 30666 net.cpp:141] Setting up fc7
I0403 14:57:26.095118 30666 net.cpp:148] Top shape: 100 4096 (409600)
I0403 14:57:26.095135 30666 net.cpp:156] Memory required for data: 828249200
I0403 14:57:26.095157 30666 layer_factory.hpp:77] Creating layer relu7
I0403 14:57:26.095180 30666 net.cpp:91] Creating Layer relu7
I0403 14:57:26.095197 30666 net.cpp:425] relu7 <- fc7
I0403 14:57:26.095219 30666 net.cpp:386] relu7 -> fc7 (in-place)
I0403 14:57:27.694978 30666 net.cpp:141] Setting up relu7
I0403 14:57:27.695127 30666 net.cpp:148] Top shape: 100 4096 (409600)
I0403 14:57:27.695233 30666 net.cpp:156] Memory required for data: 829887600
I0403 14:57:27.695294 30666 layer_factory.hpp:77] Creating layer drop7
I0403 14:57:27.695350 30666 net.cpp:91] Creating Layer drop7
I0403 14:57:27.695395 30666 net.cpp:425] drop7 <- fc7
I0403 14:57:27.695420 30666 net.cpp:386] drop7 -> fc7 (in-place)
I0403 14:57:27.695482 30666 net.cpp:141] Setting up drop7
I0403 14:57:27.695504 30666 net.cpp:148] Top shape: 100 4096 (409600)
I0403 14:57:27.695523 30666 net.cpp:156] Memory required for data: 831526000
I0403 14:57:27.695538 30666 layer_factory.hpp:77] Creating layer fc8_plantvillage
I0403 14:57:27.695559 30666 net.cpp:91] Creating Layer fc8_plantvillage
I0403 14:57:27.695575 30666 net.cpp:425] fc8_plantvillage <- fc7
I0403 14:57:27.695596 30666 net.cpp:399] fc8_plantvillage -> fc8_plantvillage
I0403 14:57:27.707581 30666 net.cpp:141] Setting up fc8_plantvillage
I0403 14:57:27.707612 30666 net.cpp:148] Top shape: 100 38 (3800)
I0403 14:57:27.707628 30666 net.cpp:156] Memory required for data: 831541200
I0403 14:57:27.707648 30666 layer_factory.hpp:77] Creating layer fc8_plantvillage_fc8_plantvillage_0_split
I0403 14:57:27.707667 30666 net.cpp:91] Creating Layer fc8_plantvillage_fc8_plantvillage_0_split
I0403 14:57:27.707684 30666 net.cpp:425] fc8_plantvillage_fc8_plantvillage_0_split <- fc8_plantvillage
I0403 14:57:27.707707 30666 net.cpp:399] fc8_plantvillage_fc8_plantvillage_0_split -> fc8_plantvillage_fc8_plantvillage_0_split_0
I0403 14:57:27.707728 30666 net.cpp:399] fc8_plantvillage_fc8_plantvillage_0_split -> fc8_plantvillage_fc8_plantvillage_0_split_1
I0403 14:57:27.707749 30666 net.cpp:399] fc8_plantvillage_fc8_plantvillage_0_split -> fc8_plantvillage_fc8_plantvillage_0_split_2
I0403 14:57:27.707825 30666 net.cpp:141] Setting up fc8_plantvillage_fc8_plantvillage_0_split
I0403 14:57:27.707852 30666 net.cpp:148] Top shape: 100 38 (3800)
I0403 14:57:27.707870 30666 net.cpp:148] Top shape: 100 38 (3800)
I0403 14:57:27.707886 30666 net.cpp:148] Top shape: 100 38 (3800)
I0403 14:57:27.707906 30666 net.cpp:156] Memory required for data: 831586800
I0403 14:57:27.707921 30666 layer_factory.hpp:77] Creating layer prob
I0403 14:57:27.707938 30666 net.cpp:91] Creating Layer prob
I0403 14:57:27.707954 30666 net.cpp:425] prob <- fc8_plantvillage_fc8_plantvillage_0_split_0
I0403 14:57:27.707973 30666 net.cpp:399] prob -> prob
I0403 14:57:27.708204 30666 net.cpp:141] Setting up prob
I0403 14:57:27.708230 30666 net.cpp:148] Top shape: 100 38 (3800)
I0403 14:57:27.708245 30666 net.cpp:156] Memory required for data: 831602000
I0403 14:57:27.708264 30666 layer_factory.hpp:77] Creating layer hdf5out
I0403 14:57:27.708286 30666 net.cpp:91] Creating Layer hdf5out
I0403 14:57:27.708302 30666 net.cpp:425] hdf5out <- prob
I0403 14:57:27.708317 30666 net.cpp:425] hdf5out <- label_data_1_split_0
I0403 14:57:27.712507 30666 net.cpp:141] Setting up hdf5out
…
