…
I0403 15:01:54.593055 30918 net.cpp:313] The NetState phase (1) differed from the phase (0) specified by a rule in layer data
I0403 15:01:54.593367 30918 net.cpp:49] Initializing net from parameters: 
state {
  phase: TEST
}
layer {
  name: "data"
  type: "Data"
  top: "data"
  top: "label"
  include {
    phase: TEST
  }
  transform_param {
    crop_size: 227
    mean_file: "/home/mohanty/data/final_dataset/lmdb/segmented-80-20/mean.binaryproto"
  }
  data_param {
    source: "/home/mohanty/data/final_dataset/lmdb/segmented-80-20/test_db"
    batch_size: 100
    backend: LMDB
  }
}
layer {
  name: "conv1"
  type: "Convolution"
  bottom: "data"
  top: "conv1"
  param {
    lr_mult: 1
    decay_mult: 1
  }
  param {
    lr_mult: 2
    decay_mult: 0
  }
  convolution_param {
    num_output: 96
    kernel_size: 11
    stride: 4
    weight_filler {
      type: "gaussian"
      std: 0.01
    }
    bias_filler {
      type: "constant"
      value: 0
    }
  }
}
layer {
  name: "relu1"
  type: "ReLU"
  bottom: "conv1"
  top: "conv1"
}
layer {
  name: "norm1"
  type: "LRN"
  bottom: "conv1"
  top: "norm1"
  lrn_param {
    local_size: 5
    alpha: 0.0001
    beta: 0.75
  }
}
layer {
  name: "pool1"
  type: "Pooling"
  bottom: "norm1"
  top: "pool1"
  pooling_param {
    pool: MAX
    kernel_size: 3
    stride: 2
  }
}
layer {
  name: "conv2"
  type: "Convolution"
  bottom: "pool1"
  top: "conv2"
  param {
    lr_mult: 1
    decay_mult: 1
  }
  param {
    lr_mult: 2
    decay_mult: 0
  }
  convolution_param {
    num_output: 256
    pad: 2
    kernel_size: 5
    group: 2
    weight_filler {
      type: "gaussian"
      std: 0.01
    }
    bias_filler {
      type: "constant"
      value: 0.1
    }
  }
}
layer {
  name: "relu2"
  type: "ReLU"
  bottom: "conv2"
  top: "conv2"
}
layer {
  name: "norm2"
  type: "LRN"
  bottom: "conv2"
  top: "norm2"
  lrn_param {
    local_size: 5
    alpha: 0.0001
    beta: 0.75
  }
}
layer {
  name: "pool2"
  type: "Pooling"
  bottom: "norm2"
  top: "pool2"
  pooling_param {
    pool: MAX
    kernel_size: 3
    stride: 2
  }
}
layer {
  name: "conv3"
  type: "Convolution"
  bottom: "pool2"
  top: "conv3"
  param {
    lr_mult: 1
    decay_mult: 1
  }
  param {
    lr_mult: 2
    decay_mult: 0
  }
  convolution_param {
    num_output: 384
    pad: 1
    kernel_size: 3
    weight_filler {
      type: "gaussian"
      std: 0.01
    }
    bias_filler {
      type: "constant"
      value: 0
    }
  }
}
layer {
  name: "relu3"
  type: "ReLU"
  bottom: "conv3"
  top: "conv3"
}
layer {
  name: "conv4"
  type: "Convolution"
  bottom: "conv3"
  top: "conv4"
  param {
    lr_mult: 1
    decay_mult: 1
  }
  param {
    lr_mult: 2
    decay_mult: 0
  }
  convolution_param {
    num_output: 384
    pad: 1
    kernel_size: 3
    group: 2
    weight_filler {
      type: "gaussian"
      std: 0.01
    }
    bias_filler {
      type: "constant"
      value: 0.1
    }
  }
}
layer {
  name: "relu4"
  type: "ReLU"
  bottom: "conv4"
  top: "conv4"
}
layer {
  name: "conv5"
  type: "Convolution"
  bottom: "conv4"
  top: "conv5"
  param {
    lr_mult: 1
    decay_mult: 1
  }
  param {
    lr_mult: 2
    decay_mult: 0
  }
  convolution_param {
    num_output: 256
    pad: 1
    kernel_size: 3
    group: 2
    weight_filler {
      type: "gaussian"
      std: 0.01
    }
    bias_filler {
      type: "constant"
      value: 0.1
    }
  }
}
layer {
  name: "relu5"
  type: "ReLU"
  bottom: "conv5"
  top: "conv5"
}
layer {
  name: "pool5"
  type: "Pooling"
  bottom: "conv5"
  top: "pool5"
  pooling_param {
    pool: MAX
    kernel_size: 3
    stride: 2
  }
}
layer {
  name: "fc6"
  type: "InnerProduct"
  bottom: "pool5"
  top: "fc6"
  param {
    lr_mult: 1
    decay_mult: 1
  }
  param {
    lr_mult: 2
    decay_mult: 0
  }
  inner_product_param {
    num_output: 4096
    weight_filler {
      type: "gaussian"
      std: 0.005
    }
    bias_filler {
      type: "constant"
      value: 0.1
    }
  }
}
layer {
  name: "relu6"
  type: "ReLU"
  bottom: "fc6"
  top: "fc6"
}
layer {
  name: "drop6"
  type: "Dropout"
  bottom: "fc6"
  top: "fc6"
  dropout_param {
    dropout_ratio: 0.5
  }
}
layer {
  name: "fc7"
  type: "InnerProduct"
  bottom: "fc6"
  top: "fc7"
  param {
    lr_mult: 1
    decay_mult: 1
  }
  param {
    lr_mult: 2
    decay_mult: 0
  }
  inner_product_param {
    num_output: 4096
    weight_filler {
      type: "gaussian"
      std: 0.005
    }
    bias_filler {
      type: "constant"
      value: 0.1
    }
  }
}
layer {
  name: "relu7"
  type: "ReLU"
  bottom: "fc7"
  top: "fc7"
}
layer {
  name: "drop7"
  type: "Dropout"
  bottom: "fc7"
  top: "fc7"
  dropout_param {
    dropout_ratio: 0.5
  }
}
layer {
  name: "fc8_plantvillage"
  type: "InnerProduct"
  bottom: "fc7"
  top: "fc8_plantvillage"
  param {
    lr_mult: 1
    decay_mult: 1
  }
  param {
    lr_mult: 2
    decay_mult: 0
  }
  inner_product_param {
    num_output: 38
    weight_filler {
      type: "gaussian"
      std: 0.01
    }
    bias_filler {
      type: "constant"
      value: 0
    }
  }
}
layer {
  name: "prob"
  type: "Softmax"
  bottom: "fc8_plantvillage"
  top: "prob"
  include {
    phase: TEST
  }
}
layer {
  name: "hdf5out"
  type: "HDF5Output"
  bottom: "prob"
  bottom: "label"
  include {
    phase: TEST
  }
  hdf5_output_param {
    file_name: "hdf5_dumps/iter_11745.h5"
  }
}
layer {
  name: "loss"
  type: "SoftmaxWithLoss"
  bottom: "fc8_plantvillage"
  bottom: "label"
  top: "loss"
}
layer {
  name: "accuracy"
  type: "Accuracy"
  bottom: "fc8_plantvillage"
  bottom: "label"
  top: "accuracy"
  include {
    phase: TEST
  }
}
I0403 15:01:54.593955 30918 layer_factory.hpp:77] Creating layer data
I0403 15:01:54.594588 30918 net.cpp:91] Creating Layer data
I0403 15:01:54.594622 30918 net.cpp:399] data -> data
I0403 15:01:54.594674 30918 net.cpp:399] data -> label
I0403 15:01:54.594714 30918 data_transformer.cpp:25] Loading mean file from: /home/mohanty/data/final_dataset/lmdb/segmented-80-20/mean.binaryproto
I0403 15:01:54.597534 30920 db_lmdb.cpp:38] Opened lmdb /home/mohanty/data/final_dataset/lmdb/segmented-80-20/test_db
I0403 15:01:54.609464 30918 data_layer.cpp:41] output data size: 100,3,227,227
I0403 15:01:54.745399 30918 net.cpp:141] Setting up data
I0403 15:01:54.745491 30918 net.cpp:148] Top shape: 100 3 227 227 (15458700)
I0403 15:01:54.745514 30918 net.cpp:148] Top shape: 100 (100)
I0403 15:01:54.745532 30918 net.cpp:156] Memory required for data: 61835200
I0403 15:01:54.745570 30918 layer_factory.hpp:77] Creating layer label_data_1_split
I0403 15:01:54.745597 30918 net.cpp:91] Creating Layer label_data_1_split
I0403 15:01:54.745615 30918 net.cpp:425] label_data_1_split <- label
I0403 15:01:54.745648 30918 net.cpp:399] label_data_1_split -> label_data_1_split_0
I0403 15:01:54.745677 30918 net.cpp:399] label_data_1_split -> label_data_1_split_1
I0403 15:01:54.745699 30918 net.cpp:399] label_data_1_split -> label_data_1_split_2
I0403 15:01:54.745764 30918 net.cpp:141] Setting up label_data_1_split
I0403 15:01:54.745790 30918 net.cpp:148] Top shape: 100 (100)
I0403 15:01:54.745807 30918 net.cpp:148] Top shape: 100 (100)
I0403 15:01:54.745826 30918 net.cpp:148] Top shape: 100 (100)
I0403 15:01:54.745841 30918 net.cpp:156] Memory required for data: 61836400
I0403 15:01:54.745857 30918 layer_factory.hpp:77] Creating layer conv1
I0403 15:01:54.745889 30918 net.cpp:91] Creating Layer conv1
I0403 15:01:54.745908 30918 net.cpp:425] conv1 <- data
I0403 15:01:54.745928 30918 net.cpp:399] conv1 -> conv1
I0403 15:01:54.892194 30918 net.cpp:141] Setting up conv1
I0403 15:01:54.892278 30918 net.cpp:148] Top shape: 100 96 55 55 (29040000)
I0403 15:01:54.892299 30918 net.cpp:156] Memory required for data: 177996400
I0403 15:01:54.892333 30918 layer_factory.hpp:77] Creating layer relu1
I0403 15:01:54.892361 30918 net.cpp:91] Creating Layer relu1
I0403 15:01:54.892379 30918 net.cpp:425] relu1 <- conv1
I0403 15:01:54.892402 30918 net.cpp:386] relu1 -> conv1 (in-place)
I0403 15:01:54.892674 30918 net.cpp:141] Setting up relu1
I0403 15:01:54.892724 30918 net.cpp:148] Top shape: 100 96 55 55 (29040000)
I0403 15:01:54.892776 30918 net.cpp:156] Memory required for data: 294156400
I0403 15:01:54.892792 30918 layer_factory.hpp:77] Creating layer norm1
I0403 15:01:54.892822 30918 net.cpp:91] Creating Layer norm1
I0403 15:01:54.892843 30918 net.cpp:425] norm1 <- conv1
I0403 15:01:54.892860 30918 net.cpp:399] norm1 -> norm1
I0403 15:01:54.893187 30918 net.cpp:141] Setting up norm1
I0403 15:01:54.893215 30918 net.cpp:148] Top shape: 100 96 55 55 (29040000)
I0403 15:01:54.893232 30918 net.cpp:156] Memory required for data: 410316400
I0403 15:01:54.893247 30918 layer_factory.hpp:77] Creating layer pool1
I0403 15:01:54.893277 30918 net.cpp:91] Creating Layer pool1
I0403 15:01:54.893297 30918 net.cpp:425] pool1 <- norm1
I0403 15:01:54.893316 30918 net.cpp:399] pool1 -> pool1
I0403 15:01:54.893390 30918 net.cpp:141] Setting up pool1
I0403 15:01:54.893416 30918 net.cpp:148] Top shape: 100 96 27 27 (6998400)
I0403 15:01:54.893432 30918 net.cpp:156] Memory required for data: 438310000
I0403 15:01:54.893450 30918 layer_factory.hpp:77] Creating layer conv2
I0403 15:01:54.893477 30918 net.cpp:91] Creating Layer conv2
I0403 15:01:54.893496 30918 net.cpp:425] conv2 <- pool1
I0403 15:01:54.893517 30918 net.cpp:399] conv2 -> conv2
I0403 15:01:54.908737 30918 net.cpp:141] Setting up conv2
I0403 15:01:54.908785 30918 net.cpp:148] Top shape: 100 256 27 27 (18662400)
I0403 15:01:54.908802 30918 net.cpp:156] Memory required for data: 512959600
I0403 15:01:54.908826 30918 layer_factory.hpp:77] Creating layer relu2
I0403 15:01:54.908849 30918 net.cpp:91] Creating Layer relu2
I0403 15:01:54.908867 30918 net.cpp:425] relu2 <- conv2
I0403 15:01:54.908885 30918 net.cpp:386] relu2 -> conv2 (in-place)
I0403 15:01:54.909196 30918 net.cpp:141] Setting up relu2
I0403 15:01:54.909224 30918 net.cpp:148] Top shape: 100 256 27 27 (18662400)
I0403 15:01:54.909238 30918 net.cpp:156] Memory required for data: 587609200
I0403 15:01:54.909258 30918 layer_factory.hpp:77] Creating layer norm2
I0403 15:01:54.909281 30918 net.cpp:91] Creating Layer norm2
I0403 15:01:54.909301 30918 net.cpp:425] norm2 <- conv2
I0403 15:01:54.909322 30918 net.cpp:399] norm2 -> norm2
I0403 15:01:54.909518 30918 net.cpp:141] Setting up norm2
I0403 15:01:54.909544 30918 net.cpp:148] Top shape: 100 256 27 27 (18662400)
I0403 15:01:54.909559 30918 net.cpp:156] Memory required for data: 662258800
I0403 15:01:54.909576 30918 layer_factory.hpp:77] Creating layer pool2
I0403 15:01:54.909595 30918 net.cpp:91] Creating Layer pool2
I0403 15:01:54.909610 30918 net.cpp:425] pool2 <- norm2
I0403 15:01:54.909631 30918 net.cpp:399] pool2 -> pool2
I0403 15:01:54.909682 30918 net.cpp:141] Setting up pool2
I0403 15:01:54.909705 30918 net.cpp:148] Top shape: 100 256 13 13 (4326400)
I0403 15:01:54.909721 30918 net.cpp:156] Memory required for data: 679564400
I0403 15:01:54.909736 30918 layer_factory.hpp:77] Creating layer conv3
I0403 15:01:54.909762 30918 net.cpp:91] Creating Layer conv3
I0403 15:01:54.909781 30918 net.cpp:425] conv3 <- pool2
I0403 15:01:54.909801 30918 net.cpp:399] conv3 -> conv3
I0403 15:01:54.947412 30918 net.cpp:141] Setting up conv3
I0403 15:01:54.947458 30918 net.cpp:148] Top shape: 100 384 13 13 (6489600)
I0403 15:01:54.947476 30918 net.cpp:156] Memory required for data: 705522800
I0403 15:01:54.947499 30918 layer_factory.hpp:77] Creating layer relu3
I0403 15:01:54.947546 30918 net.cpp:91] Creating Layer relu3
I0403 15:01:54.947566 30918 net.cpp:425] relu3 <- conv3
I0403 15:01:54.947583 30918 net.cpp:386] relu3 -> conv3 (in-place)
I0403 15:01:54.947852 30918 net.cpp:141] Setting up relu3
I0403 15:01:54.947880 30918 net.cpp:148] Top shape: 100 384 13 13 (6489600)
I0403 15:01:54.947895 30918 net.cpp:156] Memory required for data: 731481200
I0403 15:01:54.947911 30918 layer_factory.hpp:77] Creating layer conv4
I0403 15:01:54.947934 30918 net.cpp:91] Creating Layer conv4
I0403 15:01:54.947952 30918 net.cpp:425] conv4 <- conv3
I0403 15:01:54.947973 30918 net.cpp:399] conv4 -> conv4
I0403 15:01:54.978235 30918 net.cpp:141] Setting up conv4
I0403 15:01:54.978307 30918 net.cpp:148] Top shape: 100 384 13 13 (6489600)
I0403 15:01:54.978358 30918 net.cpp:156] Memory required for data: 757439600
I0403 15:01:54.978382 30918 layer_factory.hpp:77] Creating layer relu4
I0403 15:01:54.978405 30918 net.cpp:91] Creating Layer relu4
I0403 15:01:54.978430 30918 net.cpp:425] relu4 <- conv4
I0403 15:01:54.978451 30918 net.cpp:386] relu4 -> conv4 (in-place)
I0403 15:01:54.978739 30918 net.cpp:141] Setting up relu4
I0403 15:01:54.978812 30918 net.cpp:148] Top shape: 100 384 13 13 (6489600)
I0403 15:01:54.978833 30918 net.cpp:156] Memory required for data: 783398000
I0403 15:01:54.978850 30918 layer_factory.hpp:77] Creating layer conv5
I0403 15:01:54.978878 30918 net.cpp:91] Creating Layer conv5
I0403 15:01:54.978895 30918 net.cpp:425] conv5 <- conv4
I0403 15:01:54.978917 30918 net.cpp:399] conv5 -> conv5
I0403 15:01:54.999794 30918 net.cpp:141] Setting up conv5
I0403 15:01:54.999845 30918 net.cpp:148] Top shape: 100 256 13 13 (4326400)
I0403 15:01:54.999862 30918 net.cpp:156] Memory required for data: 800703600
I0403 15:01:54.999887 30918 layer_factory.hpp:77] Creating layer relu5
I0403 15:01:54.999912 30918 net.cpp:91] Creating Layer relu5
I0403 15:01:54.999932 30918 net.cpp:425] relu5 <- conv5
I0403 15:01:54.999950 30918 net.cpp:386] relu5 -> conv5 (in-place)
I0403 15:01:55.000221 30918 net.cpp:141] Setting up relu5
I0403 15:01:55.000249 30918 net.cpp:148] Top shape: 100 256 13 13 (4326400)
I0403 15:01:55.000282 30918 net.cpp:156] Memory required for data: 818009200
I0403 15:01:55.000298 30918 layer_factory.hpp:77] Creating layer pool5
I0403 15:01:55.000322 30918 net.cpp:91] Creating Layer pool5
I0403 15:01:55.000339 30918 net.cpp:425] pool5 <- conv5
I0403 15:01:55.000360 30918 net.cpp:399] pool5 -> pool5
I0403 15:01:55.000449 30918 net.cpp:141] Setting up pool5
I0403 15:01:55.000475 30918 net.cpp:148] Top shape: 100 256 6 6 (921600)
I0403 15:01:55.000490 30918 net.cpp:156] Memory required for data: 821695600
I0403 15:01:55.000504 30918 layer_factory.hpp:77] Creating layer fc6
I0403 15:01:55.000533 30918 net.cpp:91] Creating Layer fc6
I0403 15:01:55.000552 30918 net.cpp:425] fc6 <- pool5
I0403 15:01:55.000581 30918 net.cpp:399] fc6 -> fc6
I0403 15:01:56.535145 30918 net.cpp:141] Setting up fc6
I0403 15:01:56.535212 30918 net.cpp:148] Top shape: 100 4096 (409600)
I0403 15:01:56.535228 30918 net.cpp:156] Memory required for data: 823334000
I0403 15:01:56.535249 30918 layer_factory.hpp:77] Creating layer relu6
I0403 15:01:56.535276 30918 net.cpp:91] Creating Layer relu6
I0403 15:01:56.535295 30918 net.cpp:425] relu6 <- fc6
I0403 15:01:56.535317 30918 net.cpp:386] relu6 -> fc6 (in-place)
I0403 15:01:56.535527 30918 net.cpp:141] Setting up relu6
I0403 15:01:56.535552 30918 net.cpp:148] Top shape: 100 4096 (409600)
I0403 15:01:56.535567 30918 net.cpp:156] Memory required for data: 824972400
I0403 15:01:56.535583 30918 layer_factory.hpp:77] Creating layer drop6
I0403 15:01:56.535600 30918 net.cpp:91] Creating Layer drop6
I0403 15:01:56.535615 30918 net.cpp:425] drop6 <- fc6
I0403 15:01:56.535634 30918 net.cpp:386] drop6 -> fc6 (in-place)
I0403 15:01:56.535687 30918 net.cpp:141] Setting up drop6
I0403 15:01:56.535712 30918 net.cpp:148] Top shape: 100 4096 (409600)
I0403 15:01:56.535725 30918 net.cpp:156] Memory required for data: 826610800
I0403 15:01:56.535740 30918 layer_factory.hpp:77] Creating layer fc7
I0403 15:01:56.535760 30918 net.cpp:91] Creating Layer fc7
I0403 15:01:56.535775 30918 net.cpp:425] fc7 <- fc6
I0403 15:01:56.535794 30918 net.cpp:399] fc7 -> fc7
I0403 15:01:57.214670 30918 net.cpp:141] Setting up fc7
I0403 15:01:57.214735 30918 net.cpp:148] Top shape: 100 4096 (409600)
I0403 15:01:57.214751 30918 net.cpp:156] Memory required for data: 828249200
I0403 15:01:57.214772 30918 layer_factory.hpp:77] Creating layer relu7
I0403 15:01:57.214797 30918 net.cpp:91] Creating Layer relu7
I0403 15:01:57.214825 30918 net.cpp:425] relu7 <- fc7
I0403 15:01:57.214845 30918 net.cpp:386] relu7 -> fc7 (in-place)
I0403 15:01:57.215245 30918 net.cpp:141] Setting up relu7
I0403 15:01:57.215275 30918 net.cpp:148] Top shape: 100 4096 (409600)
I0403 15:01:57.215318 30918 net.cpp:156] Memory required for data: 829887600
I0403 15:01:57.215333 30918 layer_factory.hpp:77] Creating layer drop7
I0403 15:01:57.215355 30918 net.cpp:91] Creating Layer drop7
I0403 15:01:57.215373 30918 net.cpp:425] drop7 <- fc7
I0403 15:01:57.215389 30918 net.cpp:386] drop7 -> fc7 (in-place)
I0403 15:01:57.215431 30918 net.cpp:141] Setting up drop7
I0403 15:01:57.215456 30918 net.cpp:148] Top shape: 100 4096 (409600)
I0403 15:01:57.215471 30918 net.cpp:156] Memory required for data: 831526000
I0403 15:01:57.215487 30918 layer_factory.hpp:77] Creating layer fc8_plantvillage
I0403 15:01:57.215507 30918 net.cpp:91] Creating Layer fc8_plantvillage
I0403 15:01:57.215522 30918 net.cpp:425] fc8_plantvillage <- fc7
I0403 15:01:57.215541 30918 net.cpp:399] fc8_plantvillage -> fc8_plantvillage
I0403 15:01:57.222160 30918 net.cpp:141] Setting up fc8_plantvillage
I0403 15:01:57.222188 30918 net.cpp:148] Top shape: 100 38 (3800)
I0403 15:01:57.222204 30918 net.cpp:156] Memory required for data: 831541200
I0403 15:01:57.222223 30918 layer_factory.hpp:77] Creating layer fc8_plantvillage_fc8_plantvillage_0_split
I0403 15:01:57.222244 30918 net.cpp:91] Creating Layer fc8_plantvillage_fc8_plantvillage_0_split
I0403 15:01:57.222265 30918 net.cpp:425] fc8_plantvillage_fc8_plantvillage_0_split <- fc8_plantvillage
I0403 15:01:57.222282 30918 net.cpp:399] fc8_plantvillage_fc8_plantvillage_0_split -> fc8_plantvillage_fc8_plantvillage_0_split_0
I0403 15:01:57.222302 30918 net.cpp:399] fc8_plantvillage_fc8_plantvillage_0_split -> fc8_plantvillage_fc8_plantvillage_0_split_1
I0403 15:01:57.222321 30918 net.cpp:399] fc8_plantvillage_fc8_plantvillage_0_split -> fc8_plantvillage_fc8_plantvillage_0_split_2
I0403 15:01:57.222400 30918 net.cpp:141] Setting up fc8_plantvillage_fc8_plantvillage_0_split
I0403 15:01:57.222425 30918 net.cpp:148] Top shape: 100 38 (3800)
I0403 15:01:57.222441 30918 net.cpp:148] Top shape: 100 38 (3800)
I0403 15:01:57.222456 30918 net.cpp:148] Top shape: 100 38 (3800)
I0403 15:01:57.222470 30918 net.cpp:156] Memory required for data: 831586800
I0403 15:01:57.222483 30918 layer_factory.hpp:77] Creating layer prob
I0403 15:01:57.222502 30918 net.cpp:91] Creating Layer prob
I0403 15:01:57.222517 30918 net.cpp:425] prob <- fc8_plantvillage_fc8_plantvillage_0_split_0
I0403 15:01:57.222537 30918 net.cpp:399] prob -> prob
I0403 15:01:57.222754 30918 net.cpp:141] Setting up prob
I0403 15:01:57.222779 30918 net.cpp:148] Top shape: 100 38 (3800)
I0403 15:01:57.222795 30918 net.cpp:156] Memory required for data: 831602000
I0403 15:01:57.222808 30918 layer_factory.hpp:77] Creating layer hdf5out
I0403 15:01:57.222829 30918 net.cpp:91] Creating Layer hdf5out
I0403 15:01:57.222846 30918 net.cpp:425] hdf5out <- prob
I0403 15:01:57.222862 30918 net.cpp:425] hdf5out <- label_data_1_split_0
I0403 15:01:57.226703 30918 net.cpp:141] Setting up hdf5out
…
