…
I0403 14:57:49.031514 30683 net.cpp:313] The NetState phase (1) differed from the phase (0) specified by a rule in layer data
I0403 14:57:49.031803 30683 net.cpp:49] Initializing net from parameters: 
state {
  phase: TEST
}
layer {
  name: "data"
  type: "Data"
  top: "data"
  top: "label"
  include {
    phase: TEST
  }
  transform_param {
    crop_size: 227
    mean_file: "/home/mohanty/data/final_dataset/lmdb/segmented-80-20/mean.binaryproto"
  }
  data_param {
    source: "/home/mohanty/data/final_dataset/lmdb/segmented-80-20/test_db"
    batch_size: 100
    backend: LMDB
  }
}
layer {
  name: "conv1"
  type: "Convolution"
  bottom: "data"
  top: "conv1"
  param {
    lr_mult: 1
    decay_mult: 1
  }
  param {
    lr_mult: 2
    decay_mult: 0
  }
  convolution_param {
    num_output: 96
    kernel_size: 11
    stride: 4
    weight_filler {
      type: "gaussian"
      std: 0.01
    }
    bias_filler {
      type: "constant"
      value: 0
    }
  }
}
layer {
  name: "relu1"
  type: "ReLU"
  bottom: "conv1"
  top: "conv1"
}
layer {
  name: "norm1"
  type: "LRN"
  bottom: "conv1"
  top: "norm1"
  lrn_param {
    local_size: 5
    alpha: 0.0001
    beta: 0.75
  }
}
layer {
  name: "pool1"
  type: "Pooling"
  bottom: "norm1"
  top: "pool1"
  pooling_param {
    pool: MAX
    kernel_size: 3
    stride: 2
  }
}
layer {
  name: "conv2"
  type: "Convolution"
  bottom: "pool1"
  top: "conv2"
  param {
    lr_mult: 1
    decay_mult: 1
  }
  param {
    lr_mult: 2
    decay_mult: 0
  }
  convolution_param {
    num_output: 256
    pad: 2
    kernel_size: 5
    group: 2
    weight_filler {
      type: "gaussian"
      std: 0.01
    }
    bias_filler {
      type: "constant"
      value: 0.1
    }
  }
}
layer {
  name: "relu2"
  type: "ReLU"
  bottom: "conv2"
  top: "conv2"
}
layer {
  name: "norm2"
  type: "LRN"
  bottom: "conv2"
  top: "norm2"
  lrn_param {
    local_size: 5
    alpha: 0.0001
    beta: 0.75
  }
}
layer {
  name: "pool2"
  type: "Pooling"
  bottom: "norm2"
  top: "pool2"
  pooling_param {
    pool: MAX
    kernel_size: 3
    stride: 2
  }
}
layer {
  name: "conv3"
  type: "Convolution"
  bottom: "pool2"
  top: "conv3"
  param {
    lr_mult: 1
    decay_mult: 1
  }
  param {
    lr_mult: 2
    decay_mult: 0
  }
  convolution_param {
    num_output: 384
    pad: 1
    kernel_size: 3
    weight_filler {
      type: "gaussian"
      std: 0.01
    }
    bias_filler {
      type: "constant"
      value: 0
    }
  }
}
layer {
  name: "relu3"
  type: "ReLU"
  bottom: "conv3"
  top: "conv3"
}
layer {
  name: "conv4"
  type: "Convolution"
  bottom: "conv3"
  top: "conv4"
  param {
    lr_mult: 1
    decay_mult: 1
  }
  param {
    lr_mult: 2
    decay_mult: 0
  }
  convolution_param {
    num_output: 384
    pad: 1
    kernel_size: 3
    group: 2
    weight_filler {
      type: "gaussian"
      std: 0.01
    }
    bias_filler {
      type: "constant"
      value: 0.1
    }
  }
}
layer {
  name: "relu4"
  type: "ReLU"
  bottom: "conv4"
  top: "conv4"
}
layer {
  name: "conv5"
  type: "Convolution"
  bottom: "conv4"
  top: "conv5"
  param {
    lr_mult: 1
    decay_mult: 1
  }
  param {
    lr_mult: 2
    decay_mult: 0
  }
  convolution_param {
    num_output: 256
    pad: 1
    kernel_size: 3
    group: 2
    weight_filler {
      type: "gaussian"
      std: 0.01
    }
    bias_filler {
      type: "constant"
      value: 0.1
    }
  }
}
layer {
  name: "relu5"
  type: "ReLU"
  bottom: "conv5"
  top: "conv5"
}
layer {
  name: "pool5"
  type: "Pooling"
  bottom: "conv5"
  top: "pool5"
  pooling_param {
    pool: MAX
    kernel_size: 3
    stride: 2
  }
}
layer {
  name: "fc6"
  type: "InnerProduct"
  bottom: "pool5"
  top: "fc6"
  param {
    lr_mult: 1
    decay_mult: 1
  }
  param {
    lr_mult: 2
    decay_mult: 0
  }
  inner_product_param {
    num_output: 4096
    weight_filler {
      type: "gaussian"
      std: 0.005
    }
    bias_filler {
      type: "constant"
      value: 0.1
    }
  }
}
layer {
  name: "relu6"
  type: "ReLU"
  bottom: "fc6"
  top: "fc6"
}
layer {
  name: "drop6"
  type: "Dropout"
  bottom: "fc6"
  top: "fc6"
  dropout_param {
    dropout_ratio: 0.5
  }
}
layer {
  name: "fc7"
  type: "InnerProduct"
  bottom: "fc6"
  top: "fc7"
  param {
    lr_mult: 1
    decay_mult: 1
  }
  param {
    lr_mult: 2
    decay_mult: 0
  }
  inner_product_param {
    num_output: 4096
    weight_filler {
      type: "gaussian"
      std: 0.005
    }
    bias_filler {
      type: "constant"
      value: 0.1
    }
  }
}
layer {
  name: "relu7"
  type: "ReLU"
  bottom: "fc7"
  top: "fc7"
}
layer {
  name: "drop7"
  type: "Dropout"
  bottom: "fc7"
  top: "fc7"
  dropout_param {
    dropout_ratio: 0.5
  }
}
layer {
  name: "fc8_plantvillage"
  type: "InnerProduct"
  bottom: "fc7"
  top: "fc8_plantvillage"
  param {
    lr_mult: 1
    decay_mult: 1
  }
  param {
    lr_mult: 2
    decay_mult: 0
  }
  inner_product_param {
    num_output: 38
    weight_filler {
      type: "gaussian"
      std: 0.01
    }
    bias_filler {
      type: "constant"
      value: 0
    }
  }
}
layer {
  name: "prob"
  type: "Softmax"
  bottom: "fc8_plantvillage"
  top: "prob"
  include {
    phase: TEST
  }
}
layer {
  name: "hdf5out"
  type: "HDF5Output"
  bottom: "prob"
  bottom: "label"
  include {
    phase: TEST
  }
  hdf5_output_param {
    file_name: "hdf5_dumps/iter_7395.h5"
  }
}
layer {
  name: "loss"
  type: "SoftmaxWithLoss"
  bottom: "fc8_plantvillage"
  bottom: "label"
  top: "loss"
}
layer {
  name: "accuracy"
  type: "Accuracy"
  bottom: "fc8_plantvillage"
  bottom: "label"
  top: "accuracy"
  include {
    phase: TEST
  }
}
I0403 14:57:49.032392 30683 layer_factory.hpp:77] Creating layer data
I0403 14:57:49.033020 30683 net.cpp:91] Creating Layer data
I0403 14:57:49.033051 30683 net.cpp:399] data -> data
I0403 14:57:49.033100 30683 net.cpp:399] data -> label
I0403 14:57:49.033138 30683 data_transformer.cpp:25] Loading mean file from: /home/mohanty/data/final_dataset/lmdb/segmented-80-20/mean.binaryproto
I0403 14:57:49.035969 30685 db_lmdb.cpp:38] Opened lmdb /home/mohanty/data/final_dataset/lmdb/segmented-80-20/test_db
I0403 14:57:49.049397 30683 data_layer.cpp:41] output data size: 100,3,227,227
I0403 14:57:49.243881 30683 net.cpp:141] Setting up data
I0403 14:57:49.243945 30683 net.cpp:148] Top shape: 100 3 227 227 (15458700)
I0403 14:57:49.243970 30683 net.cpp:148] Top shape: 100 (100)
I0403 14:57:49.243986 30683 net.cpp:156] Memory required for data: 61835200
I0403 14:57:49.244015 30683 layer_factory.hpp:77] Creating layer label_data_1_split
I0403 14:57:49.244042 30683 net.cpp:91] Creating Layer label_data_1_split
I0403 14:57:49.244061 30683 net.cpp:425] label_data_1_split <- label
I0403 14:57:49.244094 30683 net.cpp:399] label_data_1_split -> label_data_1_split_0
I0403 14:57:49.244122 30683 net.cpp:399] label_data_1_split -> label_data_1_split_1
I0403 14:57:49.244144 30683 net.cpp:399] label_data_1_split -> label_data_1_split_2
I0403 14:57:49.244210 30683 net.cpp:141] Setting up label_data_1_split
I0403 14:57:49.244235 30683 net.cpp:148] Top shape: 100 (100)
I0403 14:57:49.244263 30683 net.cpp:148] Top shape: 100 (100)
I0403 14:57:49.244284 30683 net.cpp:148] Top shape: 100 (100)
I0403 14:57:49.244299 30683 net.cpp:156] Memory required for data: 61836400
I0403 14:57:49.244316 30683 layer_factory.hpp:77] Creating layer conv1
I0403 14:57:49.244350 30683 net.cpp:91] Creating Layer conv1
I0403 14:57:49.244369 30683 net.cpp:425] conv1 <- data
I0403 14:57:49.244390 30683 net.cpp:399] conv1 -> conv1
I0403 14:57:51.477502 30683 net.cpp:141] Setting up conv1
I0403 14:57:51.477581 30683 net.cpp:148] Top shape: 100 96 55 55 (29040000)
I0403 14:57:51.477599 30683 net.cpp:156] Memory required for data: 177996400
I0403 14:57:51.477634 30683 layer_factory.hpp:77] Creating layer relu1
I0403 14:57:51.477664 30683 net.cpp:91] Creating Layer relu1
I0403 14:57:51.477684 30683 net.cpp:425] relu1 <- conv1
I0403 14:57:51.477705 30683 net.cpp:386] relu1 -> conv1 (in-place)
I0403 14:57:51.478056 30683 net.cpp:141] Setting up relu1
I0403 14:57:51.478085 30683 net.cpp:148] Top shape: 100 96 55 55 (29040000)
I0403 14:57:51.478137 30683 net.cpp:156] Memory required for data: 294156400
I0403 14:57:51.478153 30683 layer_factory.hpp:77] Creating layer norm1
I0403 14:57:51.478183 30683 net.cpp:91] Creating Layer norm1
I0403 14:57:51.478202 30683 net.cpp:425] norm1 <- conv1
I0403 14:57:51.478222 30683 net.cpp:399] norm1 -> norm1
I0403 14:57:51.478590 30683 net.cpp:141] Setting up norm1
I0403 14:57:51.478621 30683 net.cpp:148] Top shape: 100 96 55 55 (29040000)
I0403 14:57:51.478637 30683 net.cpp:156] Memory required for data: 410316400
I0403 14:57:51.478652 30683 layer_factory.hpp:77] Creating layer pool1
I0403 14:57:51.478677 30683 net.cpp:91] Creating Layer pool1
I0403 14:57:51.478695 30683 net.cpp:425] pool1 <- norm1
I0403 14:57:51.478714 30683 net.cpp:399] pool1 -> pool1
I0403 14:57:51.478783 30683 net.cpp:141] Setting up pool1
I0403 14:57:51.478808 30683 net.cpp:148] Top shape: 100 96 27 27 (6998400)
I0403 14:57:51.478823 30683 net.cpp:156] Memory required for data: 438310000
I0403 14:57:51.478839 30683 layer_factory.hpp:77] Creating layer conv2
I0403 14:57:51.478865 30683 net.cpp:91] Creating Layer conv2
I0403 14:57:51.478883 30683 net.cpp:425] conv2 <- pool1
I0403 14:57:51.478902 30683 net.cpp:399] conv2 -> conv2
I0403 14:57:51.506567 30683 net.cpp:141] Setting up conv2
I0403 14:57:51.506644 30683 net.cpp:148] Top shape: 100 256 27 27 (18662400)
I0403 14:57:51.506665 30683 net.cpp:156] Memory required for data: 512959600
I0403 14:57:51.506692 30683 layer_factory.hpp:77] Creating layer relu2
I0403 14:57:51.506716 30683 net.cpp:91] Creating Layer relu2
I0403 14:57:51.506733 30683 net.cpp:425] relu2 <- conv2
I0403 14:57:51.506753 30683 net.cpp:386] relu2 -> conv2 (in-place)
I0403 14:57:51.507177 30683 net.cpp:141] Setting up relu2
I0403 14:57:51.507210 30683 net.cpp:148] Top shape: 100 256 27 27 (18662400)
I0403 14:57:51.507227 30683 net.cpp:156] Memory required for data: 587609200
I0403 14:57:51.507243 30683 layer_factory.hpp:77] Creating layer norm2
I0403 14:57:51.507267 30683 net.cpp:91] Creating Layer norm2
I0403 14:57:51.507288 30683 net.cpp:425] norm2 <- conv2
I0403 14:57:51.507311 30683 net.cpp:399] norm2 -> norm2
I0403 14:57:51.507562 30683 net.cpp:141] Setting up norm2
I0403 14:57:51.507591 30683 net.cpp:148] Top shape: 100 256 27 27 (18662400)
I0403 14:57:51.507614 30683 net.cpp:156] Memory required for data: 662258800
I0403 14:57:51.507632 30683 layer_factory.hpp:77] Creating layer pool2
I0403 14:57:51.507652 30683 net.cpp:91] Creating Layer pool2
I0403 14:57:51.507668 30683 net.cpp:425] pool2 <- norm2
I0403 14:57:51.507688 30683 net.cpp:399] pool2 -> pool2
I0403 14:57:51.507758 30683 net.cpp:141] Setting up pool2
I0403 14:57:51.507788 30683 net.cpp:148] Top shape: 100 256 13 13 (4326400)
I0403 14:57:51.507804 30683 net.cpp:156] Memory required for data: 679564400
I0403 14:57:51.507822 30683 layer_factory.hpp:77] Creating layer conv3
I0403 14:57:51.507848 30683 net.cpp:91] Creating Layer conv3
I0403 14:57:51.507866 30683 net.cpp:425] conv3 <- pool2
I0403 14:57:51.507889 30683 net.cpp:399] conv3 -> conv3
I0403 14:57:51.549523 30683 net.cpp:141] Setting up conv3
I0403 14:57:51.549569 30683 net.cpp:148] Top shape: 100 384 13 13 (6489600)
I0403 14:57:51.549587 30683 net.cpp:156] Memory required for data: 705522800
I0403 14:57:51.549619 30683 layer_factory.hpp:77] Creating layer relu3
I0403 14:57:51.549649 30683 net.cpp:91] Creating Layer relu3
I0403 14:57:51.549667 30683 net.cpp:425] relu3 <- conv3
I0403 14:57:51.549688 30683 net.cpp:386] relu3 -> conv3 (in-place)
I0403 14:57:51.549976 30683 net.cpp:141] Setting up relu3
I0403 14:57:51.550004 30683 net.cpp:148] Top shape: 100 384 13 13 (6489600)
I0403 14:57:51.550021 30683 net.cpp:156] Memory required for data: 731481200
I0403 14:57:51.550037 30683 layer_factory.hpp:77] Creating layer conv4
I0403 14:57:51.550066 30683 net.cpp:91] Creating Layer conv4
I0403 14:57:51.550086 30683 net.cpp:425] conv4 <- conv3
I0403 14:57:51.550107 30683 net.cpp:399] conv4 -> conv4
I0403 14:57:51.580844 30683 net.cpp:141] Setting up conv4
I0403 14:57:51.580916 30683 net.cpp:148] Top shape: 100 384 13 13 (6489600)
I0403 14:57:51.580965 30683 net.cpp:156] Memory required for data: 757439600
I0403 14:57:51.580991 30683 layer_factory.hpp:77] Creating layer relu4
I0403 14:57:51.581017 30683 net.cpp:91] Creating Layer relu4
I0403 14:57:51.581034 30683 net.cpp:425] relu4 <- conv4
I0403 14:57:51.581054 30683 net.cpp:386] relu4 -> conv4 (in-place)
I0403 14:57:51.581385 30683 net.cpp:141] Setting up relu4
I0403 14:57:51.581414 30683 net.cpp:148] Top shape: 100 384 13 13 (6489600)
I0403 14:57:51.581431 30683 net.cpp:156] Memory required for data: 783398000
I0403 14:57:51.581446 30683 layer_factory.hpp:77] Creating layer conv5
I0403 14:57:51.581472 30683 net.cpp:91] Creating Layer conv5
I0403 14:57:51.581490 30683 net.cpp:425] conv5 <- conv4
I0403 14:57:51.581514 30683 net.cpp:399] conv5 -> conv5
I0403 14:57:51.601896 30683 net.cpp:141] Setting up conv5
I0403 14:57:51.601935 30683 net.cpp:148] Top shape: 100 256 13 13 (4326400)
I0403 14:57:51.601953 30683 net.cpp:156] Memory required for data: 800703600
I0403 14:57:51.601979 30683 layer_factory.hpp:77] Creating layer relu5
I0403 14:57:51.601999 30683 net.cpp:91] Creating Layer relu5
I0403 14:57:51.602015 30683 net.cpp:425] relu5 <- conv5
I0403 14:57:51.602031 30683 net.cpp:386] relu5 -> conv5 (in-place)
I0403 14:57:51.602308 30683 net.cpp:141] Setting up relu5
I0403 14:57:51.602337 30683 net.cpp:148] Top shape: 100 256 13 13 (4326400)
I0403 14:57:51.602354 30683 net.cpp:156] Memory required for data: 818009200
I0403 14:57:51.602370 30683 layer_factory.hpp:77] Creating layer pool5
I0403 14:57:51.602391 30683 net.cpp:91] Creating Layer pool5
I0403 14:57:51.602406 30683 net.cpp:425] pool5 <- conv5
I0403 14:57:51.602428 30683 net.cpp:399] pool5 -> pool5
I0403 14:57:51.602486 30683 net.cpp:141] Setting up pool5
I0403 14:57:51.602510 30683 net.cpp:148] Top shape: 100 256 6 6 (921600)
I0403 14:57:51.602525 30683 net.cpp:156] Memory required for data: 821695600
I0403 14:57:51.602541 30683 layer_factory.hpp:77] Creating layer fc6
I0403 14:57:51.602571 30683 net.cpp:91] Creating Layer fc6
I0403 14:57:51.602591 30683 net.cpp:425] fc6 <- pool5
I0403 14:57:51.602612 30683 net.cpp:399] fc6 -> fc6
I0403 14:57:53.159669 30683 net.cpp:141] Setting up fc6
I0403 14:57:53.159721 30683 net.cpp:148] Top shape: 100 4096 (409600)
I0403 14:57:53.159739 30683 net.cpp:156] Memory required for data: 823334000
I0403 14:57:53.159762 30683 layer_factory.hpp:77] Creating layer relu6
I0403 14:57:53.159785 30683 net.cpp:91] Creating Layer relu6
I0403 14:57:53.159804 30683 net.cpp:425] relu6 <- fc6
I0403 14:57:53.159827 30683 net.cpp:386] relu6 -> fc6 (in-place)
I0403 14:57:53.160049 30683 net.cpp:141] Setting up relu6
I0403 14:57:53.160079 30683 net.cpp:148] Top shape: 100 4096 (409600)
I0403 14:57:53.160096 30683 net.cpp:156] Memory required for data: 824972400
I0403 14:57:53.160112 30683 layer_factory.hpp:77] Creating layer drop6
I0403 14:57:53.160132 30683 net.cpp:91] Creating Layer drop6
I0403 14:57:53.160148 30683 net.cpp:425] drop6 <- fc6
I0403 14:57:53.160167 30683 net.cpp:386] drop6 -> fc6 (in-place)
I0403 14:57:53.160221 30683 net.cpp:141] Setting up drop6
I0403 14:57:53.160244 30683 net.cpp:148] Top shape: 100 4096 (409600)
I0403 14:57:53.160259 30683 net.cpp:156] Memory required for data: 826610800
I0403 14:57:53.160275 30683 layer_factory.hpp:77] Creating layer fc7
I0403 14:57:53.160305 30683 net.cpp:91] Creating Layer fc7
I0403 14:57:53.160323 30683 net.cpp:425] fc7 <- fc6
I0403 14:57:53.160342 30683 net.cpp:399] fc7 -> fc7
I0403 14:57:53.844800 30683 net.cpp:141] Setting up fc7
I0403 14:57:53.844843 30683 net.cpp:148] Top shape: 100 4096 (409600)
I0403 14:57:53.844859 30683 net.cpp:156] Memory required for data: 828249200
I0403 14:57:53.844880 30683 layer_factory.hpp:77] Creating layer relu7
I0403 14:57:53.844905 30683 net.cpp:91] Creating Layer relu7
I0403 14:57:53.844923 30683 net.cpp:425] relu7 <- fc7
I0403 14:57:53.844943 30683 net.cpp:386] relu7 -> fc7 (in-place)
I0403 14:57:53.845337 30683 net.cpp:141] Setting up relu7
I0403 14:57:53.845366 30683 net.cpp:148] Top shape: 100 4096 (409600)
I0403 14:57:53.845410 30683 net.cpp:156] Memory required for data: 829887600
I0403 14:57:53.845427 30683 layer_factory.hpp:77] Creating layer drop7
I0403 14:57:53.845449 30683 net.cpp:91] Creating Layer drop7
I0403 14:57:53.845465 30683 net.cpp:425] drop7 <- fc7
I0403 14:57:53.845484 30683 net.cpp:386] drop7 -> fc7 (in-place)
I0403 14:57:53.845528 30683 net.cpp:141] Setting up drop7
I0403 14:57:53.845552 30683 net.cpp:148] Top shape: 100 4096 (409600)
I0403 14:57:53.845568 30683 net.cpp:156] Memory required for data: 831526000
I0403 14:57:53.845584 30683 layer_factory.hpp:77] Creating layer fc8_plantvillage
I0403 14:57:53.845603 30683 net.cpp:91] Creating Layer fc8_plantvillage
I0403 14:57:53.845619 30683 net.cpp:425] fc8_plantvillage <- fc7
I0403 14:57:53.845639 30683 net.cpp:399] fc8_plantvillage -> fc8_plantvillage
I0403 14:57:53.852356 30683 net.cpp:141] Setting up fc8_plantvillage
I0403 14:57:53.852388 30683 net.cpp:148] Top shape: 100 38 (3800)
I0403 14:57:53.852404 30683 net.cpp:156] Memory required for data: 831541200
I0403 14:57:53.852422 30683 layer_factory.hpp:77] Creating layer fc8_plantvillage_fc8_plantvillage_0_split
I0403 14:57:53.852440 30683 net.cpp:91] Creating Layer fc8_plantvillage_fc8_plantvillage_0_split
I0403 14:57:53.852455 30683 net.cpp:425] fc8_plantvillage_fc8_plantvillage_0_split <- fc8_plantvillage
I0403 14:57:53.852473 30683 net.cpp:399] fc8_plantvillage_fc8_plantvillage_0_split -> fc8_plantvillage_fc8_plantvillage_0_split_0
I0403 14:57:53.852494 30683 net.cpp:399] fc8_plantvillage_fc8_plantvillage_0_split -> fc8_plantvillage_fc8_plantvillage_0_split_1
I0403 14:57:53.852516 30683 net.cpp:399] fc8_plantvillage_fc8_plantvillage_0_split -> fc8_plantvillage_fc8_plantvillage_0_split_2
I0403 14:57:53.852594 30683 net.cpp:141] Setting up fc8_plantvillage_fc8_plantvillage_0_split
I0403 14:57:53.852619 30683 net.cpp:148] Top shape: 100 38 (3800)
I0403 14:57:53.852638 30683 net.cpp:148] Top shape: 100 38 (3800)
I0403 14:57:53.852653 30683 net.cpp:148] Top shape: 100 38 (3800)
I0403 14:57:53.852666 30683 net.cpp:156] Memory required for data: 831586800
I0403 14:57:53.852681 30683 layer_factory.hpp:77] Creating layer prob
I0403 14:57:53.852700 30683 net.cpp:91] Creating Layer prob
I0403 14:57:53.852715 30683 net.cpp:425] prob <- fc8_plantvillage_fc8_plantvillage_0_split_0
I0403 14:57:53.852733 30683 net.cpp:399] prob -> prob
I0403 14:57:53.852955 30683 net.cpp:141] Setting up prob
I0403 14:57:53.852982 30683 net.cpp:148] Top shape: 100 38 (3800)
I0403 14:57:53.852996 30683 net.cpp:156] Memory required for data: 831602000
I0403 14:57:53.853011 30683 layer_factory.hpp:77] Creating layer hdf5out
I0403 14:57:53.853034 30683 net.cpp:91] Creating Layer hdf5out
I0403 14:57:53.853050 30683 net.cpp:425] hdf5out <- prob
I0403 14:57:53.853067 30683 net.cpp:425] hdf5out <- label_data_1_split_0
I0403 14:57:53.856744 30683 net.cpp:141] Setting up hdf5out
…
