…
I0403 14:54:11.135974 30570 net.cpp:313] The NetState phase (1) differed from the phase (0) specified by a rule in layer data
I0403 14:54:11.136281 30570 net.cpp:49] Initializing net from parameters: 
state {
  phase: TEST
}
layer {
  name: "data"
  type: "Data"
  top: "data"
  top: "label"
  include {
    phase: TEST
  }
  transform_param {
    crop_size: 227
    mean_file: "/home/mohanty/data/final_dataset/lmdb/segmented-80-20/mean.binaryproto"
  }
  data_param {
    source: "/home/mohanty/data/final_dataset/lmdb/segmented-80-20/test_db"
    batch_size: 100
    backend: LMDB
  }
}
layer {
  name: "conv1"
  type: "Convolution"
  bottom: "data"
  top: "conv1"
  param {
    lr_mult: 1
    decay_mult: 1
  }
  param {
    lr_mult: 2
    decay_mult: 0
  }
  convolution_param {
    num_output: 96
    kernel_size: 11
    stride: 4
    weight_filler {
      type: "gaussian"
      std: 0.01
    }
    bias_filler {
      type: "constant"
      value: 0
    }
  }
}
layer {
  name: "relu1"
  type: "ReLU"
  bottom: "conv1"
  top: "conv1"
}
layer {
  name: "norm1"
  type: "LRN"
  bottom: "conv1"
  top: "norm1"
  lrn_param {
    local_size: 5
    alpha: 0.0001
    beta: 0.75
  }
}
layer {
  name: "pool1"
  type: "Pooling"
  bottom: "norm1"
  top: "pool1"
  pooling_param {
    pool: MAX
    kernel_size: 3
    stride: 2
  }
}
layer {
  name: "conv2"
  type: "Convolution"
  bottom: "pool1"
  top: "conv2"
  param {
    lr_mult: 1
    decay_mult: 1
  }
  param {
    lr_mult: 2
    decay_mult: 0
  }
  convolution_param {
    num_output: 256
    pad: 2
    kernel_size: 5
    group: 2
    weight_filler {
      type: "gaussian"
      std: 0.01
    }
    bias_filler {
      type: "constant"
      value: 0.1
    }
  }
}
layer {
  name: "relu2"
  type: "ReLU"
  bottom: "conv2"
  top: "conv2"
}
layer {
  name: "norm2"
  type: "LRN"
  bottom: "conv2"
  top: "norm2"
  lrn_param {
    local_size: 5
    alpha: 0.0001
    beta: 0.75
  }
}
layer {
  name: "pool2"
  type: "Pooling"
  bottom: "norm2"
  top: "pool2"
  pooling_param {
    pool: MAX
    kernel_size: 3
    stride: 2
  }
}
layer {
  name: "conv3"
  type: "Convolution"
  bottom: "pool2"
  top: "conv3"
  param {
    lr_mult: 1
    decay_mult: 1
  }
  param {
    lr_mult: 2
    decay_mult: 0
  }
  convolution_param {
    num_output: 384
    pad: 1
    kernel_size: 3
    weight_filler {
      type: "gaussian"
      std: 0.01
    }
    bias_filler {
      type: "constant"
      value: 0
    }
  }
}
layer {
  name: "relu3"
  type: "ReLU"
  bottom: "conv3"
  top: "conv3"
}
layer {
  name: "conv4"
  type: "Convolution"
  bottom: "conv3"
  top: "conv4"
  param {
    lr_mult: 1
    decay_mult: 1
  }
  param {
    lr_mult: 2
    decay_mult: 0
  }
  convolution_param {
    num_output: 384
    pad: 1
    kernel_size: 3
    group: 2
    weight_filler {
      type: "gaussian"
      std: 0.01
    }
    bias_filler {
      type: "constant"
      value: 0.1
    }
  }
}
layer {
  name: "relu4"
  type: "ReLU"
  bottom: "conv4"
  top: "conv4"
}
layer {
  name: "conv5"
  type: "Convolution"
  bottom: "conv4"
  top: "conv5"
  param {
    lr_mult: 1
    decay_mult: 1
  }
  param {
    lr_mult: 2
    decay_mult: 0
  }
  convolution_param {
    num_output: 256
    pad: 1
    kernel_size: 3
    group: 2
    weight_filler {
      type: "gaussian"
      std: 0.01
    }
    bias_filler {
      type: "constant"
      value: 0.1
    }
  }
}
layer {
  name: "relu5"
  type: "ReLU"
  bottom: "conv5"
  top: "conv5"
}
layer {
  name: "pool5"
  type: "Pooling"
  bottom: "conv5"
  top: "pool5"
  pooling_param {
    pool: MAX
    kernel_size: 3
    stride: 2
  }
}
layer {
  name: "fc6"
  type: "InnerProduct"
  bottom: "pool5"
  top: "fc6"
  param {
    lr_mult: 1
    decay_mult: 1
  }
  param {
    lr_mult: 2
    decay_mult: 0
  }
  inner_product_param {
    num_output: 4096
    weight_filler {
      type: "gaussian"
      std: 0.005
    }
    bias_filler {
      type: "constant"
      value: 0.1
    }
  }
}
layer {
  name: "relu6"
  type: "ReLU"
  bottom: "fc6"
  top: "fc6"
}
layer {
  name: "drop6"
  type: "Dropout"
  bottom: "fc6"
  top: "fc6"
  dropout_param {
    dropout_ratio: 0.5
  }
}
layer {
  name: "fc7"
  type: "InnerProduct"
  bottom: "fc6"
  top: "fc7"
  param {
    lr_mult: 1
    decay_mult: 1
  }
  param {
    lr_mult: 2
    decay_mult: 0
  }
  inner_product_param {
    num_output: 4096
    weight_filler {
      type: "gaussian"
      std: 0.005
    }
    bias_filler {
      type: "constant"
      value: 0.1
    }
  }
}
layer {
  name: "relu7"
  type: "ReLU"
  bottom: "fc7"
  top: "fc7"
}
layer {
  name: "drop7"
  type: "Dropout"
  bottom: "fc7"
  top: "fc7"
  dropout_param {
    dropout_ratio: 0.5
  }
}
layer {
  name: "fc8_plantvillage"
  type: "InnerProduct"
  bottom: "fc7"
  top: "fc8_plantvillage"
  param {
    lr_mult: 1
    decay_mult: 1
  }
  param {
    lr_mult: 2
    decay_mult: 0
  }
  inner_product_param {
    num_output: 38
    weight_filler {
      type: "gaussian"
      std: 0.01
    }
    bias_filler {
      type: "constant"
      value: 0
    }
  }
}
layer {
  name: "prob"
  type: "Softmax"
  bottom: "fc8_plantvillage"
  top: "prob"
  include {
    phase: TEST
  }
}
layer {
  name: "hdf5out"
  type: "HDF5Output"
  bottom: "prob"
  bottom: "label"
  include {
    phase: TEST
  }
  hdf5_output_param {
    file_name: "hdf5_dumps/iter_3480.h5"
  }
}
layer {
  name: "loss"
  type: "SoftmaxWithLoss"
  bottom: "fc8_plantvillage"
  bottom: "label"
  top: "loss"
}
layer {
  name: "accuracy"
  type: "Accuracy"
  bottom: "fc8_plantvillage"
  bottom: "label"
  top: "accuracy"
  include {
    phase: TEST
  }
}
I0403 14:54:11.136896 30570 layer_factory.hpp:77] Creating layer data
I0403 14:54:11.137575 30570 net.cpp:91] Creating Layer data
I0403 14:54:11.137614 30570 net.cpp:399] data -> data
I0403 14:54:11.137667 30570 net.cpp:399] data -> label
I0403 14:54:11.137706 30570 data_transformer.cpp:25] Loading mean file from: /home/mohanty/data/final_dataset/lmdb/segmented-80-20/mean.binaryproto
I0403 14:54:11.140324 30572 db_lmdb.cpp:38] Opened lmdb /home/mohanty/data/final_dataset/lmdb/segmented-80-20/test_db
I0403 14:54:11.151839 30570 data_layer.cpp:41] output data size: 100,3,227,227
I0403 14:54:11.287165 30570 net.cpp:141] Setting up data
I0403 14:54:11.287230 30570 net.cpp:148] Top shape: 100 3 227 227 (15458700)
I0403 14:54:11.287258 30570 net.cpp:148] Top shape: 100 (100)
I0403 14:54:11.287277 30570 net.cpp:156] Memory required for data: 61835200
I0403 14:54:11.287307 30570 layer_factory.hpp:77] Creating layer label_data_1_split
I0403 14:54:11.287335 30570 net.cpp:91] Creating Layer label_data_1_split
I0403 14:54:11.287356 30570 net.cpp:425] label_data_1_split <- label
I0403 14:54:11.287400 30570 net.cpp:399] label_data_1_split -> label_data_1_split_0
I0403 14:54:11.287432 30570 net.cpp:399] label_data_1_split -> label_data_1_split_1
I0403 14:54:11.287456 30570 net.cpp:399] label_data_1_split -> label_data_1_split_2
I0403 14:54:11.287521 30570 net.cpp:141] Setting up label_data_1_split
I0403 14:54:11.287546 30570 net.cpp:148] Top shape: 100 (100)
I0403 14:54:11.287564 30570 net.cpp:148] Top shape: 100 (100)
I0403 14:54:11.287581 30570 net.cpp:148] Top shape: 100 (100)
I0403 14:54:11.287596 30570 net.cpp:156] Memory required for data: 61836400
I0403 14:54:11.287612 30570 layer_factory.hpp:77] Creating layer conv1
I0403 14:54:11.287645 30570 net.cpp:91] Creating Layer conv1
I0403 14:54:11.287665 30570 net.cpp:425] conv1 <- data
I0403 14:54:11.287686 30570 net.cpp:399] conv1 -> conv1
I0403 14:54:11.433639 30570 net.cpp:141] Setting up conv1
I0403 14:54:11.433712 30570 net.cpp:148] Top shape: 100 96 55 55 (29040000)
I0403 14:54:11.433729 30570 net.cpp:156] Memory required for data: 177996400
I0403 14:54:11.433760 30570 layer_factory.hpp:77] Creating layer relu1
I0403 14:54:11.433787 30570 net.cpp:91] Creating Layer relu1
I0403 14:54:11.433807 30570 net.cpp:425] relu1 <- conv1
I0403 14:54:11.433827 30570 net.cpp:386] relu1 -> conv1 (in-place)
I0403 14:54:11.434080 30570 net.cpp:141] Setting up relu1
I0403 14:54:11.434108 30570 net.cpp:148] Top shape: 100 96 55 55 (29040000)
I0403 14:54:11.434156 30570 net.cpp:156] Memory required for data: 294156400
I0403 14:54:11.434173 30570 layer_factory.hpp:77] Creating layer norm1
I0403 14:54:11.434201 30570 net.cpp:91] Creating Layer norm1
I0403 14:54:11.434218 30570 net.cpp:425] norm1 <- conv1
I0403 14:54:11.434237 30570 net.cpp:399] norm1 -> norm1
I0403 14:54:11.434559 30570 net.cpp:141] Setting up norm1
I0403 14:54:11.434597 30570 net.cpp:148] Top shape: 100 96 55 55 (29040000)
I0403 14:54:11.434613 30570 net.cpp:156] Memory required for data: 410316400
I0403 14:54:11.434628 30570 layer_factory.hpp:77] Creating layer pool1
I0403 14:54:11.434653 30570 net.cpp:91] Creating Layer pool1
I0403 14:54:11.434669 30570 net.cpp:425] pool1 <- norm1
I0403 14:54:11.434689 30570 net.cpp:399] pool1 -> pool1
I0403 14:54:11.434756 30570 net.cpp:141] Setting up pool1
I0403 14:54:11.434780 30570 net.cpp:148] Top shape: 100 96 27 27 (6998400)
I0403 14:54:11.434795 30570 net.cpp:156] Memory required for data: 438310000
I0403 14:54:11.434810 30570 layer_factory.hpp:77] Creating layer conv2
I0403 14:54:11.434835 30570 net.cpp:91] Creating Layer conv2
I0403 14:54:11.434854 30570 net.cpp:425] conv2 <- pool1
I0403 14:54:11.434871 30570 net.cpp:399] conv2 -> conv2
I0403 14:54:11.449854 30570 net.cpp:141] Setting up conv2
I0403 14:54:11.449898 30570 net.cpp:148] Top shape: 100 256 27 27 (18662400)
I0403 14:54:11.449916 30570 net.cpp:156] Memory required for data: 512959600
I0403 14:54:11.449939 30570 layer_factory.hpp:77] Creating layer relu2
I0403 14:54:11.449961 30570 net.cpp:91] Creating Layer relu2
I0403 14:54:11.449978 30570 net.cpp:425] relu2 <- conv2
I0403 14:54:11.449998 30570 net.cpp:386] relu2 -> conv2 (in-place)
I0403 14:54:11.450284 30570 net.cpp:141] Setting up relu2
I0403 14:54:11.450312 30570 net.cpp:148] Top shape: 100 256 27 27 (18662400)
I0403 14:54:11.450328 30570 net.cpp:156] Memory required for data: 587609200
I0403 14:54:11.450345 30570 layer_factory.hpp:77] Creating layer norm2
I0403 14:54:11.450368 30570 net.cpp:91] Creating Layer norm2
I0403 14:54:11.450386 30570 net.cpp:425] norm2 <- conv2
I0403 14:54:11.450404 30570 net.cpp:399] norm2 -> norm2
I0403 14:54:11.450594 30570 net.cpp:141] Setting up norm2
I0403 14:54:11.450621 30570 net.cpp:148] Top shape: 100 256 27 27 (18662400)
I0403 14:54:11.450636 30570 net.cpp:156] Memory required for data: 662258800
I0403 14:54:11.450651 30570 layer_factory.hpp:77] Creating layer pool2
I0403 14:54:11.450671 30570 net.cpp:91] Creating Layer pool2
I0403 14:54:11.450687 30570 net.cpp:425] pool2 <- norm2
I0403 14:54:11.450706 30570 net.cpp:399] pool2 -> pool2
I0403 14:54:11.450757 30570 net.cpp:141] Setting up pool2
I0403 14:54:11.450780 30570 net.cpp:148] Top shape: 100 256 13 13 (4326400)
I0403 14:54:11.450796 30570 net.cpp:156] Memory required for data: 679564400
I0403 14:54:11.450811 30570 layer_factory.hpp:77] Creating layer conv3
I0403 14:54:11.450832 30570 net.cpp:91] Creating Layer conv3
I0403 14:54:11.450850 30570 net.cpp:425] conv3 <- pool2
I0403 14:54:11.450871 30570 net.cpp:399] conv3 -> conv3
I0403 14:54:11.489639 30570 net.cpp:141] Setting up conv3
I0403 14:54:11.489706 30570 net.cpp:148] Top shape: 100 384 13 13 (6489600)
I0403 14:54:11.489723 30570 net.cpp:156] Memory required for data: 705522800
I0403 14:54:11.489750 30570 layer_factory.hpp:77] Creating layer relu3
I0403 14:54:11.489774 30570 net.cpp:91] Creating Layer relu3
I0403 14:54:11.489792 30570 net.cpp:425] relu3 <- conv3
I0403 14:54:11.489812 30570 net.cpp:386] relu3 -> conv3 (in-place)
I0403 14:54:11.490082 30570 net.cpp:141] Setting up relu3
I0403 14:54:11.490111 30570 net.cpp:148] Top shape: 100 384 13 13 (6489600)
I0403 14:54:11.490128 30570 net.cpp:156] Memory required for data: 731481200
I0403 14:54:11.490141 30570 layer_factory.hpp:77] Creating layer conv4
I0403 14:54:11.490167 30570 net.cpp:91] Creating Layer conv4
I0403 14:54:11.490185 30570 net.cpp:425] conv4 <- conv3
I0403 14:54:11.490206 30570 net.cpp:399] conv4 -> conv4
I0403 14:54:11.519798 30570 net.cpp:141] Setting up conv4
I0403 14:54:11.519848 30570 net.cpp:148] Top shape: 100 384 13 13 (6489600)
I0403 14:54:11.519896 30570 net.cpp:156] Memory required for data: 757439600
I0403 14:54:11.519918 30570 layer_factory.hpp:77] Creating layer relu4
I0403 14:54:11.519939 30570 net.cpp:91] Creating Layer relu4
I0403 14:54:11.519958 30570 net.cpp:425] relu4 <- conv4
I0403 14:54:11.519976 30570 net.cpp:386] relu4 -> conv4 (in-place)
I0403 14:54:11.520256 30570 net.cpp:141] Setting up relu4
I0403 14:54:11.520287 30570 net.cpp:148] Top shape: 100 384 13 13 (6489600)
I0403 14:54:11.520303 30570 net.cpp:156] Memory required for data: 783398000
I0403 14:54:11.520319 30570 layer_factory.hpp:77] Creating layer conv5
I0403 14:54:11.520344 30570 net.cpp:91] Creating Layer conv5
I0403 14:54:11.520362 30570 net.cpp:425] conv5 <- conv4
I0403 14:54:11.520382 30570 net.cpp:399] conv5 -> conv5
I0403 14:54:11.541038 30570 net.cpp:141] Setting up conv5
I0403 14:54:11.541080 30570 net.cpp:148] Top shape: 100 256 13 13 (4326400)
I0403 14:54:11.541100 30570 net.cpp:156] Memory required for data: 800703600
I0403 14:54:11.541126 30570 layer_factory.hpp:77] Creating layer relu5
I0403 14:54:11.541146 30570 net.cpp:91] Creating Layer relu5
I0403 14:54:11.541163 30570 net.cpp:425] relu5 <- conv5
I0403 14:54:11.541185 30570 net.cpp:386] relu5 -> conv5 (in-place)
I0403 14:54:11.541476 30570 net.cpp:141] Setting up relu5
I0403 14:54:11.541506 30570 net.cpp:148] Top shape: 100 256 13 13 (4326400)
I0403 14:54:11.541522 30570 net.cpp:156] Memory required for data: 818009200
I0403 14:54:11.541538 30570 layer_factory.hpp:77] Creating layer pool5
I0403 14:54:11.541599 30570 net.cpp:91] Creating Layer pool5
I0403 14:54:11.541622 30570 net.cpp:425] pool5 <- conv5
I0403 14:54:11.541643 30570 net.cpp:399] pool5 -> pool5
I0403 14:54:11.541708 30570 net.cpp:141] Setting up pool5
I0403 14:54:11.541734 30570 net.cpp:148] Top shape: 100 256 6 6 (921600)
I0403 14:54:11.541750 30570 net.cpp:156] Memory required for data: 821695600
I0403 14:54:11.541766 30570 layer_factory.hpp:77] Creating layer fc6
I0403 14:54:11.541795 30570 net.cpp:91] Creating Layer fc6
I0403 14:54:11.541813 30570 net.cpp:425] fc6 <- pool5
I0403 14:54:11.541836 30570 net.cpp:399] fc6 -> fc6
I0403 14:54:13.084650 30570 net.cpp:141] Setting up fc6
I0403 14:54:13.084717 30570 net.cpp:148] Top shape: 100 4096 (409600)
I0403 14:54:13.084736 30570 net.cpp:156] Memory required for data: 823334000
I0403 14:54:13.084758 30570 layer_factory.hpp:77] Creating layer relu6
I0403 14:54:13.084779 30570 net.cpp:91] Creating Layer relu6
I0403 14:54:13.084797 30570 net.cpp:425] relu6 <- fc6
I0403 14:54:13.084823 30570 net.cpp:386] relu6 -> fc6 (in-place)
I0403 14:54:13.085062 30570 net.cpp:141] Setting up relu6
I0403 14:54:13.085090 30570 net.cpp:148] Top shape: 100 4096 (409600)
I0403 14:54:13.085108 30570 net.cpp:156] Memory required for data: 824972400
I0403 14:54:13.085131 30570 layer_factory.hpp:77] Creating layer drop6
I0403 14:54:13.085151 30570 net.cpp:91] Creating Layer drop6
I0403 14:54:13.085166 30570 net.cpp:425] drop6 <- fc6
I0403 14:54:13.085188 30570 net.cpp:386] drop6 -> fc6 (in-place)
I0403 14:54:13.085239 30570 net.cpp:141] Setting up drop6
I0403 14:54:13.085273 30570 net.cpp:148] Top shape: 100 4096 (409600)
I0403 14:54:13.085288 30570 net.cpp:156] Memory required for data: 826610800
I0403 14:54:13.085302 30570 layer_factory.hpp:77] Creating layer fc7
I0403 14:54:13.085327 30570 net.cpp:91] Creating Layer fc7
I0403 14:54:13.085345 30570 net.cpp:425] fc7 <- fc6
I0403 14:54:13.085364 30570 net.cpp:399] fc7 -> fc7
I0403 14:54:13.766207 30570 net.cpp:141] Setting up fc7
I0403 14:54:13.766257 30570 net.cpp:148] Top shape: 100 4096 (409600)
I0403 14:54:13.766289 30570 net.cpp:156] Memory required for data: 828249200
I0403 14:54:13.766312 30570 layer_factory.hpp:77] Creating layer relu7
I0403 14:54:13.766335 30570 net.cpp:91] Creating Layer relu7
I0403 14:54:13.766355 30570 net.cpp:425] relu7 <- fc7
I0403 14:54:13.766377 30570 net.cpp:386] relu7 -> fc7 (in-place)
I0403 14:54:13.766798 30570 net.cpp:141] Setting up relu7
I0403 14:54:13.766826 30570 net.cpp:148] Top shape: 100 4096 (409600)
I0403 14:54:13.766886 30570 net.cpp:156] Memory required for data: 829887600
I0403 14:54:13.766902 30570 layer_factory.hpp:77] Creating layer drop7
I0403 14:54:13.766921 30570 net.cpp:91] Creating Layer drop7
I0403 14:54:13.766937 30570 net.cpp:425] drop7 <- fc7
I0403 14:54:13.766957 30570 net.cpp:386] drop7 -> fc7 (in-place)
I0403 14:54:13.767002 30570 net.cpp:141] Setting up drop7
I0403 14:54:13.767026 30570 net.cpp:148] Top shape: 100 4096 (409600)
I0403 14:54:13.767045 30570 net.cpp:156] Memory required for data: 831526000
I0403 14:54:13.767060 30570 layer_factory.hpp:77] Creating layer fc8_plantvillage
I0403 14:54:13.767079 30570 net.cpp:91] Creating Layer fc8_plantvillage
I0403 14:54:13.767096 30570 net.cpp:425] fc8_plantvillage <- fc7
I0403 14:54:13.767117 30570 net.cpp:399] fc8_plantvillage -> fc8_plantvillage
I0403 14:54:13.773881 30570 net.cpp:141] Setting up fc8_plantvillage
I0403 14:54:13.773911 30570 net.cpp:148] Top shape: 100 38 (3800)
I0403 14:54:13.773926 30570 net.cpp:156] Memory required for data: 831541200
I0403 14:54:13.773946 30570 layer_factory.hpp:77] Creating layer fc8_plantvillage_fc8_plantvillage_0_split
I0403 14:54:13.773967 30570 net.cpp:91] Creating Layer fc8_plantvillage_fc8_plantvillage_0_split
I0403 14:54:13.773982 30570 net.cpp:425] fc8_plantvillage_fc8_plantvillage_0_split <- fc8_plantvillage
I0403 14:54:13.774003 30570 net.cpp:399] fc8_plantvillage_fc8_plantvillage_0_split -> fc8_plantvillage_fc8_plantvillage_0_split_0
I0403 14:54:13.774025 30570 net.cpp:399] fc8_plantvillage_fc8_plantvillage_0_split -> fc8_plantvillage_fc8_plantvillage_0_split_1
I0403 14:54:13.774045 30570 net.cpp:399] fc8_plantvillage_fc8_plantvillage_0_split -> fc8_plantvillage_fc8_plantvillage_0_split_2
I0403 14:54:13.774128 30570 net.cpp:141] Setting up fc8_plantvillage_fc8_plantvillage_0_split
I0403 14:54:13.774157 30570 net.cpp:148] Top shape: 100 38 (3800)
I0403 14:54:13.774174 30570 net.cpp:148] Top shape: 100 38 (3800)
I0403 14:54:13.774191 30570 net.cpp:148] Top shape: 100 38 (3800)
I0403 14:54:13.774204 30570 net.cpp:156] Memory required for data: 831586800
I0403 14:54:13.774219 30570 layer_factory.hpp:77] Creating layer prob
I0403 14:54:13.774240 30570 net.cpp:91] Creating Layer prob
I0403 14:54:13.774266 30570 net.cpp:425] prob <- fc8_plantvillage_fc8_plantvillage_0_split_0
I0403 14:54:13.774289 30570 net.cpp:399] prob -> prob
I0403 14:54:13.774515 30570 net.cpp:141] Setting up prob
I0403 14:54:13.774544 30570 net.cpp:148] Top shape: 100 38 (3800)
I0403 14:54:13.774559 30570 net.cpp:156] Memory required for data: 831602000
I0403 14:54:13.774576 30570 layer_factory.hpp:77] Creating layer hdf5out
I0403 14:54:13.774595 30570 net.cpp:91] Creating Layer hdf5out
I0403 14:54:13.774612 30570 net.cpp:425] hdf5out <- prob
I0403 14:54:13.774628 30570 net.cpp:425] hdf5out <- label_data_1_split_0
I0403 14:54:13.787344 30570 net.cpp:141] Setting up hdf5out
…
