…
I0403 15:03:32.806628 30967 net.cpp:313] The NetState phase (1) differed from the phase (0) specified by a rule in layer data
I0403 15:03:32.806927 30967 net.cpp:49] Initializing net from parameters: 
state {
  phase: TEST
}
layer {
  name: "data"
  type: "Data"
  top: "data"
  top: "label"
  include {
    phase: TEST
  }
  transform_param {
    crop_size: 227
    mean_file: "/home/mohanty/data/final_dataset/lmdb/segmented-80-20/mean.binaryproto"
  }
  data_param {
    source: "/home/mohanty/data/final_dataset/lmdb/segmented-80-20/test_db"
    batch_size: 100
    backend: LMDB
  }
}
layer {
  name: "conv1"
  type: "Convolution"
  bottom: "data"
  top: "conv1"
  param {
    lr_mult: 1
    decay_mult: 1
  }
  param {
    lr_mult: 2
    decay_mult: 0
  }
  convolution_param {
    num_output: 96
    kernel_size: 11
    stride: 4
    weight_filler {
      type: "gaussian"
      std: 0.01
    }
    bias_filler {
      type: "constant"
      value: 0
    }
  }
}
layer {
  name: "relu1"
  type: "ReLU"
  bottom: "conv1"
  top: "conv1"
}
layer {
  name: "norm1"
  type: "LRN"
  bottom: "conv1"
  top: "norm1"
  lrn_param {
    local_size: 5
    alpha: 0.0001
    beta: 0.75
  }
}
layer {
  name: "pool1"
  type: "Pooling"
  bottom: "norm1"
  top: "pool1"
  pooling_param {
    pool: MAX
    kernel_size: 3
    stride: 2
  }
}
layer {
  name: "conv2"
  type: "Convolution"
  bottom: "pool1"
  top: "conv2"
  param {
    lr_mult: 1
    decay_mult: 1
  }
  param {
    lr_mult: 2
    decay_mult: 0
  }
  convolution_param {
    num_output: 256
    pad: 2
    kernel_size: 5
    group: 2
    weight_filler {
      type: "gaussian"
      std: 0.01
    }
    bias_filler {
      type: "constant"
      value: 0.1
    }
  }
}
layer {
  name: "relu2"
  type: "ReLU"
  bottom: "conv2"
  top: "conv2"
}
layer {
  name: "norm2"
  type: "LRN"
  bottom: "conv2"
  top: "norm2"
  lrn_param {
    local_size: 5
    alpha: 0.0001
    beta: 0.75
  }
}
layer {
  name: "pool2"
  type: "Pooling"
  bottom: "norm2"
  top: "pool2"
  pooling_param {
    pool: MAX
    kernel_size: 3
    stride: 2
  }
}
layer {
  name: "conv3"
  type: "Convolution"
  bottom: "pool2"
  top: "conv3"
  param {
    lr_mult: 1
    decay_mult: 1
  }
  param {
    lr_mult: 2
    decay_mult: 0
  }
  convolution_param {
    num_output: 384
    pad: 1
    kernel_size: 3
    weight_filler {
      type: "gaussian"
      std: 0.01
    }
    bias_filler {
      type: "constant"
      value: 0
    }
  }
}
layer {
  name: "relu3"
  type: "ReLU"
  bottom: "conv3"
  top: "conv3"
}
layer {
  name: "conv4"
  type: "Convolution"
  bottom: "conv3"
  top: "conv4"
  param {
    lr_mult: 1
    decay_mult: 1
  }
  param {
    lr_mult: 2
    decay_mult: 0
  }
  convolution_param {
    num_output: 384
    pad: 1
    kernel_size: 3
    group: 2
    weight_filler {
      type: "gaussian"
      std: 0.01
    }
    bias_filler {
      type: "constant"
      value: 0.1
    }
  }
}
layer {
  name: "relu4"
  type: "ReLU"
  bottom: "conv4"
  top: "conv4"
}
layer {
  name: "conv5"
  type: "Convolution"
  bottom: "conv4"
  top: "conv5"
  param {
    lr_mult: 1
    decay_mult: 1
  }
  param {
    lr_mult: 2
    decay_mult: 0
  }
  convolution_param {
    num_output: 256
    pad: 1
    kernel_size: 3
    group: 2
    weight_filler {
      type: "gaussian"
      std: 0.01
    }
    bias_filler {
      type: "constant"
      value: 0.1
    }
  }
}
layer {
  name: "relu5"
  type: "ReLU"
  bottom: "conv5"
  top: "conv5"
}
layer {
  name: "pool5"
  type: "Pooling"
  bottom: "conv5"
  top: "pool5"
  pooling_param {
    pool: MAX
    kernel_size: 3
    stride: 2
  }
}
layer {
  name: "fc6"
  type: "InnerProduct"
  bottom: "pool5"
  top: "fc6"
  param {
    lr_mult: 1
    decay_mult: 1
  }
  param {
    lr_mult: 2
    decay_mult: 0
  }
  inner_product_param {
    num_output: 4096
    weight_filler {
      type: "gaussian"
      std: 0.005
    }
    bias_filler {
      type: "constant"
      value: 0.1
    }
  }
}
layer {
  name: "relu6"
  type: "ReLU"
  bottom: "fc6"
  top: "fc6"
}
layer {
  name: "drop6"
  type: "Dropout"
  bottom: "fc6"
  top: "fc6"
  dropout_param {
    dropout_ratio: 0.5
  }
}
layer {
  name: "fc7"
  type: "InnerProduct"
  bottom: "fc6"
  top: "fc7"
  param {
    lr_mult: 1
    decay_mult: 1
  }
  param {
    lr_mult: 2
    decay_mult: 0
  }
  inner_product_param {
    num_output: 4096
    weight_filler {
      type: "gaussian"
      std: 0.005
    }
    bias_filler {
      type: "constant"
      value: 0.1
    }
  }
}
layer {
  name: "relu7"
  type: "ReLU"
  bottom: "fc7"
  top: "fc7"
}
layer {
  name: "drop7"
  type: "Dropout"
  bottom: "fc7"
  top: "fc7"
  dropout_param {
    dropout_ratio: 0.5
  }
}
layer {
  name: "fc8_plantvillage"
  type: "InnerProduct"
  bottom: "fc7"
  top: "fc8_plantvillage"
  param {
    lr_mult: 1
    decay_mult: 1
  }
  param {
    lr_mult: 2
    decay_mult: 0
  }
  inner_product_param {
    num_output: 38
    weight_filler {
      type: "gaussian"
      std: 0.01
    }
    bias_filler {
      type: "constant"
      value: 0
    }
  }
}
layer {
  name: "prob"
  type: "Softmax"
  bottom: "fc8_plantvillage"
  top: "prob"
  include {
    phase: TEST
  }
}
layer {
  name: "hdf5out"
  type: "HDF5Output"
  bottom: "prob"
  bottom: "label"
  include {
    phase: TEST
  }
  hdf5_output_param {
    file_name: "hdf5_dumps/iter_13057.h5"
  }
}
layer {
  name: "loss"
  type: "SoftmaxWithLoss"
  bottom: "fc8_plantvillage"
  bottom: "label"
  top: "loss"
}
layer {
  name: "accuracy"
  type: "Accuracy"
  bottom: "fc8_plantvillage"
  bottom: "label"
  top: "accuracy"
  include {
    phase: TEST
  }
}
I0403 15:03:32.807493 30967 layer_factory.hpp:77] Creating layer data
I0403 15:03:32.808123 30967 net.cpp:91] Creating Layer data
I0403 15:03:32.808153 30967 net.cpp:399] data -> data
I0403 15:03:32.808203 30967 net.cpp:399] data -> label
I0403 15:03:32.808240 30967 data_transformer.cpp:25] Loading mean file from: /home/mohanty/data/final_dataset/lmdb/segmented-80-20/mean.binaryproto
I0403 15:03:32.810828 30969 db_lmdb.cpp:38] Opened lmdb /home/mohanty/data/final_dataset/lmdb/segmented-80-20/test_db
I0403 15:03:32.822207 30967 data_layer.cpp:41] output data size: 100,3,227,227
I0403 15:03:32.953483 30967 net.cpp:141] Setting up data
I0403 15:03:32.953543 30967 net.cpp:148] Top shape: 100 3 227 227 (15458700)
I0403 15:03:32.953567 30967 net.cpp:148] Top shape: 100 (100)
I0403 15:03:32.953584 30967 net.cpp:156] Memory required for data: 61835200
I0403 15:03:32.953613 30967 layer_factory.hpp:77] Creating layer label_data_1_split
I0403 15:03:32.953639 30967 net.cpp:91] Creating Layer label_data_1_split
I0403 15:03:32.953658 30967 net.cpp:425] label_data_1_split <- label
I0403 15:03:32.953690 30967 net.cpp:399] label_data_1_split -> label_data_1_split_0
I0403 15:03:32.953717 30967 net.cpp:399] label_data_1_split -> label_data_1_split_1
I0403 15:03:32.953739 30967 net.cpp:399] label_data_1_split -> label_data_1_split_2
I0403 15:03:32.953802 30967 net.cpp:141] Setting up label_data_1_split
I0403 15:03:32.953827 30967 net.cpp:148] Top shape: 100 (100)
I0403 15:03:32.953845 30967 net.cpp:148] Top shape: 100 (100)
I0403 15:03:32.953862 30967 net.cpp:148] Top shape: 100 (100)
I0403 15:03:32.953878 30967 net.cpp:156] Memory required for data: 61836400
I0403 15:03:32.953894 30967 layer_factory.hpp:77] Creating layer conv1
I0403 15:03:32.953927 30967 net.cpp:91] Creating Layer conv1
I0403 15:03:32.953948 30967 net.cpp:425] conv1 <- data
I0403 15:03:32.953968 30967 net.cpp:399] conv1 -> conv1
I0403 15:03:33.096971 30967 net.cpp:141] Setting up conv1
I0403 15:03:33.097043 30967 net.cpp:148] Top shape: 100 96 55 55 (29040000)
I0403 15:03:33.097061 30967 net.cpp:156] Memory required for data: 177996400
I0403 15:03:33.097095 30967 layer_factory.hpp:77] Creating layer relu1
I0403 15:03:33.097122 30967 net.cpp:91] Creating Layer relu1
I0403 15:03:33.097141 30967 net.cpp:425] relu1 <- conv1
I0403 15:03:33.097162 30967 net.cpp:386] relu1 -> conv1 (in-place)
I0403 15:03:33.097419 30967 net.cpp:141] Setting up relu1
I0403 15:03:33.097446 30967 net.cpp:148] Top shape: 100 96 55 55 (29040000)
I0403 15:03:33.097496 30967 net.cpp:156] Memory required for data: 294156400
I0403 15:03:33.097512 30967 layer_factory.hpp:77] Creating layer norm1
I0403 15:03:33.097539 30967 net.cpp:91] Creating Layer norm1
I0403 15:03:33.097558 30967 net.cpp:425] norm1 <- conv1
I0403 15:03:33.097579 30967 net.cpp:399] norm1 -> norm1
I0403 15:03:33.097918 30967 net.cpp:141] Setting up norm1
I0403 15:03:33.097945 30967 net.cpp:148] Top shape: 100 96 55 55 (29040000)
I0403 15:03:33.097961 30967 net.cpp:156] Memory required for data: 410316400
I0403 15:03:33.097978 30967 layer_factory.hpp:77] Creating layer pool1
I0403 15:03:33.098006 30967 net.cpp:91] Creating Layer pool1
I0403 15:03:33.098023 30967 net.cpp:425] pool1 <- norm1
I0403 15:03:33.098042 30967 net.cpp:399] pool1 -> pool1
I0403 15:03:33.098112 30967 net.cpp:141] Setting up pool1
I0403 15:03:33.098139 30967 net.cpp:148] Top shape: 100 96 27 27 (6998400)
I0403 15:03:33.098155 30967 net.cpp:156] Memory required for data: 438310000
I0403 15:03:33.098170 30967 layer_factory.hpp:77] Creating layer conv2
I0403 15:03:33.098198 30967 net.cpp:91] Creating Layer conv2
I0403 15:03:33.098217 30967 net.cpp:425] conv2 <- pool1
I0403 15:03:33.098237 30967 net.cpp:399] conv2 -> conv2
I0403 15:03:33.113188 30967 net.cpp:141] Setting up conv2
I0403 15:03:33.113224 30967 net.cpp:148] Top shape: 100 256 27 27 (18662400)
I0403 15:03:33.113243 30967 net.cpp:156] Memory required for data: 512959600
I0403 15:03:33.113270 30967 layer_factory.hpp:77] Creating layer relu2
I0403 15:03:33.113296 30967 net.cpp:91] Creating Layer relu2
I0403 15:03:33.113315 30967 net.cpp:425] relu2 <- conv2
I0403 15:03:33.113334 30967 net.cpp:386] relu2 -> conv2 (in-place)
I0403 15:03:33.113618 30967 net.cpp:141] Setting up relu2
I0403 15:03:33.113649 30967 net.cpp:148] Top shape: 100 256 27 27 (18662400)
I0403 15:03:33.113668 30967 net.cpp:156] Memory required for data: 587609200
I0403 15:03:33.113684 30967 layer_factory.hpp:77] Creating layer norm2
I0403 15:03:33.113706 30967 net.cpp:91] Creating Layer norm2
I0403 15:03:33.113725 30967 net.cpp:425] norm2 <- conv2
I0403 15:03:33.113745 30967 net.cpp:399] norm2 -> norm2
I0403 15:03:33.113986 30967 net.cpp:141] Setting up norm2
I0403 15:03:33.114013 30967 net.cpp:148] Top shape: 100 256 27 27 (18662400)
I0403 15:03:33.114030 30967 net.cpp:156] Memory required for data: 662258800
I0403 15:03:33.114047 30967 layer_factory.hpp:77] Creating layer pool2
I0403 15:03:33.114068 30967 net.cpp:91] Creating Layer pool2
I0403 15:03:33.114084 30967 net.cpp:425] pool2 <- norm2
I0403 15:03:33.114104 30967 net.cpp:399] pool2 -> pool2
I0403 15:03:33.114159 30967 net.cpp:141] Setting up pool2
I0403 15:03:33.114184 30967 net.cpp:148] Top shape: 100 256 13 13 (4326400)
I0403 15:03:33.114202 30967 net.cpp:156] Memory required for data: 679564400
I0403 15:03:33.114217 30967 layer_factory.hpp:77] Creating layer conv3
I0403 15:03:33.114250 30967 net.cpp:91] Creating Layer conv3
I0403 15:03:33.114269 30967 net.cpp:425] conv3 <- pool2
I0403 15:03:33.114300 30967 net.cpp:399] conv3 -> conv3
I0403 15:03:33.152875 30967 net.cpp:141] Setting up conv3
I0403 15:03:33.152940 30967 net.cpp:148] Top shape: 100 384 13 13 (6489600)
I0403 15:03:33.152957 30967 net.cpp:156] Memory required for data: 705522800
I0403 15:03:33.152983 30967 layer_factory.hpp:77] Creating layer relu3
I0403 15:03:33.153009 30967 net.cpp:91] Creating Layer relu3
I0403 15:03:33.153028 30967 net.cpp:425] relu3 <- conv3
I0403 15:03:33.153046 30967 net.cpp:386] relu3 -> conv3 (in-place)
I0403 15:03:33.153326 30967 net.cpp:141] Setting up relu3
I0403 15:03:33.153353 30967 net.cpp:148] Top shape: 100 384 13 13 (6489600)
I0403 15:03:33.153369 30967 net.cpp:156] Memory required for data: 731481200
I0403 15:03:33.153386 30967 layer_factory.hpp:77] Creating layer conv4
I0403 15:03:33.153414 30967 net.cpp:91] Creating Layer conv4
I0403 15:03:33.153432 30967 net.cpp:425] conv4 <- conv3
I0403 15:03:33.153453 30967 net.cpp:399] conv4 -> conv4
I0403 15:03:33.182884 30967 net.cpp:141] Setting up conv4
I0403 15:03:33.182931 30967 net.cpp:148] Top shape: 100 384 13 13 (6489600)
I0403 15:03:33.182981 30967 net.cpp:156] Memory required for data: 757439600
I0403 15:03:33.183003 30967 layer_factory.hpp:77] Creating layer relu4
I0403 15:03:33.183028 30967 net.cpp:91] Creating Layer relu4
I0403 15:03:33.183048 30967 net.cpp:425] relu4 <- conv4
I0403 15:03:33.183066 30967 net.cpp:386] relu4 -> conv4 (in-place)
I0403 15:03:33.183384 30967 net.cpp:141] Setting up relu4
I0403 15:03:33.183413 30967 net.cpp:148] Top shape: 100 384 13 13 (6489600)
I0403 15:03:33.183429 30967 net.cpp:156] Memory required for data: 783398000
I0403 15:03:33.183445 30967 layer_factory.hpp:77] Creating layer conv5
I0403 15:03:33.183470 30967 net.cpp:91] Creating Layer conv5
I0403 15:03:33.183490 30967 net.cpp:425] conv5 <- conv4
I0403 15:03:33.183511 30967 net.cpp:399] conv5 -> conv5
I0403 15:03:33.204133 30967 net.cpp:141] Setting up conv5
I0403 15:03:33.204170 30967 net.cpp:148] Top shape: 100 256 13 13 (4326400)
I0403 15:03:33.204187 30967 net.cpp:156] Memory required for data: 800703600
I0403 15:03:33.204216 30967 layer_factory.hpp:77] Creating layer relu5
I0403 15:03:33.204239 30967 net.cpp:91] Creating Layer relu5
I0403 15:03:33.204257 30967 net.cpp:425] relu5 <- conv5
I0403 15:03:33.204277 30967 net.cpp:386] relu5 -> conv5 (in-place)
I0403 15:03:33.204572 30967 net.cpp:141] Setting up relu5
I0403 15:03:33.204613 30967 net.cpp:148] Top shape: 100 256 13 13 (4326400)
I0403 15:03:33.204632 30967 net.cpp:156] Memory required for data: 818009200
I0403 15:03:33.204679 30967 layer_factory.hpp:77] Creating layer pool5
I0403 15:03:33.204710 30967 net.cpp:91] Creating Layer pool5
I0403 15:03:33.204731 30967 net.cpp:425] pool5 <- conv5
I0403 15:03:33.204753 30967 net.cpp:399] pool5 -> pool5
I0403 15:03:33.204818 30967 net.cpp:141] Setting up pool5
I0403 15:03:33.204843 30967 net.cpp:148] Top shape: 100 256 6 6 (921600)
I0403 15:03:33.204860 30967 net.cpp:156] Memory required for data: 821695600
I0403 15:03:33.204876 30967 layer_factory.hpp:77] Creating layer fc6
I0403 15:03:33.204905 30967 net.cpp:91] Creating Layer fc6
I0403 15:03:33.204926 30967 net.cpp:425] fc6 <- pool5
I0403 15:03:33.204947 30967 net.cpp:399] fc6 -> fc6
I0403 15:03:34.746696 30967 net.cpp:141] Setting up fc6
I0403 15:03:34.746758 30967 net.cpp:148] Top shape: 100 4096 (409600)
I0403 15:03:34.746775 30967 net.cpp:156] Memory required for data: 823334000
I0403 15:03:34.746796 30967 layer_factory.hpp:77] Creating layer relu6
I0403 15:03:34.746819 30967 net.cpp:91] Creating Layer relu6
I0403 15:03:34.746836 30967 net.cpp:425] relu6 <- fc6
I0403 15:03:34.746860 30967 net.cpp:386] relu6 -> fc6 (in-place)
I0403 15:03:34.747074 30967 net.cpp:141] Setting up relu6
I0403 15:03:34.747100 30967 net.cpp:148] Top shape: 100 4096 (409600)
I0403 15:03:34.747119 30967 net.cpp:156] Memory required for data: 824972400
I0403 15:03:34.747134 30967 layer_factory.hpp:77] Creating layer drop6
I0403 15:03:34.747153 30967 net.cpp:91] Creating Layer drop6
I0403 15:03:34.747169 30967 net.cpp:425] drop6 <- fc6
I0403 15:03:34.747186 30967 net.cpp:386] drop6 -> fc6 (in-place)
I0403 15:03:34.747239 30967 net.cpp:141] Setting up drop6
I0403 15:03:34.747262 30967 net.cpp:148] Top shape: 100 4096 (409600)
I0403 15:03:34.747277 30967 net.cpp:156] Memory required for data: 826610800
I0403 15:03:34.747298 30967 layer_factory.hpp:77] Creating layer fc7
I0403 15:03:34.747320 30967 net.cpp:91] Creating Layer fc7
I0403 15:03:34.747339 30967 net.cpp:425] fc7 <- fc6
I0403 15:03:34.747357 30967 net.cpp:399] fc7 -> fc7
I0403 15:03:35.435389 30967 net.cpp:141] Setting up fc7
I0403 15:03:35.435453 30967 net.cpp:148] Top shape: 100 4096 (409600)
I0403 15:03:35.435470 30967 net.cpp:156] Memory required for data: 828249200
I0403 15:03:35.435494 30967 layer_factory.hpp:77] Creating layer relu7
I0403 15:03:35.435519 30967 net.cpp:91] Creating Layer relu7
I0403 15:03:35.435539 30967 net.cpp:425] relu7 <- fc7
I0403 15:03:35.435559 30967 net.cpp:386] relu7 -> fc7 (in-place)
I0403 15:03:35.435938 30967 net.cpp:141] Setting up relu7
I0403 15:03:35.435964 30967 net.cpp:148] Top shape: 100 4096 (409600)
I0403 15:03:35.436013 30967 net.cpp:156] Memory required for data: 829887600
I0403 15:03:35.436029 30967 layer_factory.hpp:77] Creating layer drop7
I0403 15:03:35.436051 30967 net.cpp:91] Creating Layer drop7
I0403 15:03:35.436069 30967 net.cpp:425] drop7 <- fc7
I0403 15:03:35.436087 30967 net.cpp:386] drop7 -> fc7 (in-place)
I0403 15:03:35.436132 30967 net.cpp:141] Setting up drop7
I0403 15:03:35.436154 30967 net.cpp:148] Top shape: 100 4096 (409600)
I0403 15:03:35.436169 30967 net.cpp:156] Memory required for data: 831526000
I0403 15:03:35.436184 30967 layer_factory.hpp:77] Creating layer fc8_plantvillage
I0403 15:03:35.436204 30967 net.cpp:91] Creating Layer fc8_plantvillage
I0403 15:03:35.436219 30967 net.cpp:425] fc8_plantvillage <- fc7
I0403 15:03:35.436239 30967 net.cpp:399] fc8_plantvillage -> fc8_plantvillage
I0403 15:03:35.442756 30967 net.cpp:141] Setting up fc8_plantvillage
I0403 15:03:35.442787 30967 net.cpp:148] Top shape: 100 38 (3800)
I0403 15:03:35.442805 30967 net.cpp:156] Memory required for data: 831541200
I0403 15:03:35.442824 30967 layer_factory.hpp:77] Creating layer fc8_plantvillage_fc8_plantvillage_0_split
I0403 15:03:35.442843 30967 net.cpp:91] Creating Layer fc8_plantvillage_fc8_plantvillage_0_split
I0403 15:03:35.442858 30967 net.cpp:425] fc8_plantvillage_fc8_plantvillage_0_split <- fc8_plantvillage
I0403 15:03:35.442875 30967 net.cpp:399] fc8_plantvillage_fc8_plantvillage_0_split -> fc8_plantvillage_fc8_plantvillage_0_split_0
I0403 15:03:35.442895 30967 net.cpp:399] fc8_plantvillage_fc8_plantvillage_0_split -> fc8_plantvillage_fc8_plantvillage_0_split_1
I0403 15:03:35.442916 30967 net.cpp:399] fc8_plantvillage_fc8_plantvillage_0_split -> fc8_plantvillage_fc8_plantvillage_0_split_2
I0403 15:03:35.442992 30967 net.cpp:141] Setting up fc8_plantvillage_fc8_plantvillage_0_split
I0403 15:03:35.443017 30967 net.cpp:148] Top shape: 100 38 (3800)
I0403 15:03:35.443033 30967 net.cpp:148] Top shape: 100 38 (3800)
I0403 15:03:35.443048 30967 net.cpp:148] Top shape: 100 38 (3800)
I0403 15:03:35.443063 30967 net.cpp:156] Memory required for data: 831586800
I0403 15:03:35.443078 30967 layer_factory.hpp:77] Creating layer prob
I0403 15:03:35.443095 30967 net.cpp:91] Creating Layer prob
I0403 15:03:35.443110 30967 net.cpp:425] prob <- fc8_plantvillage_fc8_plantvillage_0_split_0
I0403 15:03:35.443130 30967 net.cpp:399] prob -> prob
I0403 15:03:35.443356 30967 net.cpp:141] Setting up prob
I0403 15:03:35.443382 30967 net.cpp:148] Top shape: 100 38 (3800)
I0403 15:03:35.443397 30967 net.cpp:156] Memory required for data: 831602000
I0403 15:03:35.443413 30967 layer_factory.hpp:77] Creating layer hdf5out
I0403 15:03:35.443434 30967 net.cpp:91] Creating Layer hdf5out
I0403 15:03:35.443451 30967 net.cpp:425] hdf5out <- prob
I0403 15:03:35.443467 30967 net.cpp:425] hdf5out <- label_data_1_split_0
I0403 15:03:35.447266 30967 net.cpp:141] Setting up hdf5out
…
