…
I0403 15:00:18.572924 30868 net.cpp:313] The NetState phase (1) differed from the phase (0) specified by a rule in layer data
I0403 15:00:18.573209 30868 net.cpp:49] Initializing net from parameters: 
state {
  phase: TEST
}
layer {
  name: "data"
  type: "Data"
  top: "data"
  top: "label"
  include {
    phase: TEST
  }
  transform_param {
    crop_size: 227
    mean_file: "/home/mohanty/data/final_dataset/lmdb/segmented-80-20/mean.binaryproto"
  }
  data_param {
    source: "/home/mohanty/data/final_dataset/lmdb/segmented-80-20/test_db"
    batch_size: 100
    backend: LMDB
  }
}
layer {
  name: "conv1"
  type: "Convolution"
  bottom: "data"
  top: "conv1"
  param {
    lr_mult: 1
    decay_mult: 1
  }
  param {
    lr_mult: 2
    decay_mult: 0
  }
  convolution_param {
    num_output: 96
    kernel_size: 11
    stride: 4
    weight_filler {
      type: "gaussian"
      std: 0.01
    }
    bias_filler {
      type: "constant"
      value: 0
    }
  }
}
layer {
  name: "relu1"
  type: "ReLU"
  bottom: "conv1"
  top: "conv1"
}
layer {
  name: "norm1"
  type: "LRN"
  bottom: "conv1"
  top: "norm1"
  lrn_param {
    local_size: 5
    alpha: 0.0001
    beta: 0.75
  }
}
layer {
  name: "pool1"
  type: "Pooling"
  bottom: "norm1"
  top: "pool1"
  pooling_param {
    pool: MAX
    kernel_size: 3
    stride: 2
  }
}
layer {
  name: "conv2"
  type: "Convolution"
  bottom: "pool1"
  top: "conv2"
  param {
    lr_mult: 1
    decay_mult: 1
  }
  param {
    lr_mult: 2
    decay_mult: 0
  }
  convolution_param {
    num_output: 256
    pad: 2
    kernel_size: 5
    group: 2
    weight_filler {
      type: "gaussian"
      std: 0.01
    }
    bias_filler {
      type: "constant"
      value: 0.1
    }
  }
}
layer {
  name: "relu2"
  type: "ReLU"
  bottom: "conv2"
  top: "conv2"
}
layer {
  name: "norm2"
  type: "LRN"
  bottom: "conv2"
  top: "norm2"
  lrn_param {
    local_size: 5
    alpha: 0.0001
    beta: 0.75
  }
}
layer {
  name: "pool2"
  type: "Pooling"
  bottom: "norm2"
  top: "pool2"
  pooling_param {
    pool: MAX
    kernel_size: 3
    stride: 2
  }
}
layer {
  name: "conv3"
  type: "Convolution"
  bottom: "pool2"
  top: "conv3"
  param {
    lr_mult: 1
    decay_mult: 1
  }
  param {
    lr_mult: 2
    decay_mult: 0
  }
  convolution_param {
    num_output: 384
    pad: 1
    kernel_size: 3
    weight_filler {
      type: "gaussian"
      std: 0.01
    }
    bias_filler {
      type: "constant"
      value: 0
    }
  }
}
layer {
  name: "relu3"
  type: "ReLU"
  bottom: "conv3"
  top: "conv3"
}
layer {
  name: "conv4"
  type: "Convolution"
  bottom: "conv3"
  top: "conv4"
  param {
    lr_mult: 1
    decay_mult: 1
  }
  param {
    lr_mult: 2
    decay_mult: 0
  }
  convolution_param {
    num_output: 384
    pad: 1
    kernel_size: 3
    group: 2
    weight_filler {
      type: "gaussian"
      std: 0.01
    }
    bias_filler {
      type: "constant"
      value: 0.1
    }
  }
}
layer {
  name: "relu4"
  type: "ReLU"
  bottom: "conv4"
  top: "conv4"
}
layer {
  name: "conv5"
  type: "Convolution"
  bottom: "conv4"
  top: "conv5"
  param {
    lr_mult: 1
    decay_mult: 1
  }
  param {
    lr_mult: 2
    decay_mult: 0
  }
  convolution_param {
    num_output: 256
    pad: 1
    kernel_size: 3
    group: 2
    weight_filler {
      type: "gaussian"
      std: 0.01
    }
    bias_filler {
      type: "constant"
      value: 0.1
    }
  }
}
layer {
  name: "relu5"
  type: "ReLU"
  bottom: "conv5"
  top: "conv5"
}
layer {
  name: "pool5"
  type: "Pooling"
  bottom: "conv5"
  top: "pool5"
  pooling_param {
    pool: MAX
    kernel_size: 3
    stride: 2
  }
}
layer {
  name: "fc6"
  type: "InnerProduct"
  bottom: "pool5"
  top: "fc6"
  param {
    lr_mult: 1
    decay_mult: 1
  }
  param {
    lr_mult: 2
    decay_mult: 0
  }
  inner_product_param {
    num_output: 4096
    weight_filler {
      type: "gaussian"
      std: 0.005
    }
    bias_filler {
      type: "constant"
      value: 0.1
    }
  }
}
layer {
  name: "relu6"
  type: "ReLU"
  bottom: "fc6"
  top: "fc6"
}
layer {
  name: "drop6"
  type: "Dropout"
  bottom: "fc6"
  top: "fc6"
  dropout_param {
    dropout_ratio: 0.5
  }
}
layer {
  name: "fc7"
  type: "InnerProduct"
  bottom: "fc6"
  top: "fc7"
  param {
    lr_mult: 1
    decay_mult: 1
  }
  param {
    lr_mult: 2
    decay_mult: 0
  }
  inner_product_param {
    num_output: 4096
    weight_filler {
      type: "gaussian"
      std: 0.005
    }
    bias_filler {
      type: "constant"
      value: 0.1
    }
  }
}
layer {
  name: "relu7"
  type: "ReLU"
  bottom: "fc7"
  top: "fc7"
}
layer {
  name: "drop7"
  type: "Dropout"
  bottom: "fc7"
  top: "fc7"
  dropout_param {
    dropout_ratio: 0.5
  }
}
layer {
  name: "fc8_plantvillage"
  type: "InnerProduct"
  bottom: "fc7"
  top: "fc8_plantvillage"
  param {
    lr_mult: 1
    decay_mult: 1
  }
  param {
    lr_mult: 2
    decay_mult: 0
  }
  inner_product_param {
    num_output: 38
    weight_filler {
      type: "gaussian"
      std: 0.01
    }
    bias_filler {
      type: "constant"
      value: 0
    }
  }
}
layer {
  name: "prob"
  type: "Softmax"
  bottom: "fc8_plantvillage"
  top: "prob"
  include {
    phase: TEST
  }
}
layer {
  name: "hdf5out"
  type: "HDF5Output"
  bottom: "prob"
  bottom: "label"
  include {
    phase: TEST
  }
  hdf5_output_param {
    file_name: "hdf5_dumps/iter_10005.h5"
  }
}
layer {
  name: "loss"
  type: "SoftmaxWithLoss"
  bottom: "fc8_plantvillage"
  bottom: "label"
  top: "loss"
}
layer {
  name: "accuracy"
  type: "Accuracy"
  bottom: "fc8_plantvillage"
  bottom: "label"
  top: "accuracy"
  include {
    phase: TEST
  }
}
I0403 15:00:18.573899 30868 layer_factory.hpp:77] Creating layer data
I0403 15:00:18.574573 30868 net.cpp:91] Creating Layer data
I0403 15:00:18.574605 30868 net.cpp:399] data -> data
I0403 15:00:18.574658 30868 net.cpp:399] data -> label
I0403 15:00:18.574697 30868 data_transformer.cpp:25] Loading mean file from: /home/mohanty/data/final_dataset/lmdb/segmented-80-20/mean.binaryproto
I0403 15:00:18.577669 30870 db_lmdb.cpp:38] Opened lmdb /home/mohanty/data/final_dataset/lmdb/segmented-80-20/test_db
I0403 15:00:18.589293 30868 data_layer.cpp:41] output data size: 100,3,227,227
I0403 15:00:18.723490 30868 net.cpp:141] Setting up data
I0403 15:00:18.723578 30868 net.cpp:148] Top shape: 100 3 227 227 (15458700)
I0403 15:00:18.723603 30868 net.cpp:148] Top shape: 100 (100)
I0403 15:00:18.723619 30868 net.cpp:156] Memory required for data: 61835200
I0403 15:00:18.723647 30868 layer_factory.hpp:77] Creating layer label_data_1_split
I0403 15:00:18.723673 30868 net.cpp:91] Creating Layer label_data_1_split
I0403 15:00:18.723691 30868 net.cpp:425] label_data_1_split <- label
I0403 15:00:18.723723 30868 net.cpp:399] label_data_1_split -> label_data_1_split_0
I0403 15:00:18.723752 30868 net.cpp:399] label_data_1_split -> label_data_1_split_1
I0403 15:00:18.723773 30868 net.cpp:399] label_data_1_split -> label_data_1_split_2
I0403 15:00:18.723839 30868 net.cpp:141] Setting up label_data_1_split
I0403 15:00:18.723863 30868 net.cpp:148] Top shape: 100 (100)
I0403 15:00:18.723881 30868 net.cpp:148] Top shape: 100 (100)
I0403 15:00:18.723898 30868 net.cpp:148] Top shape: 100 (100)
I0403 15:00:18.723912 30868 net.cpp:156] Memory required for data: 61836400
I0403 15:00:18.723928 30868 layer_factory.hpp:77] Creating layer conv1
I0403 15:00:18.723960 30868 net.cpp:91] Creating Layer conv1
I0403 15:00:18.723979 30868 net.cpp:425] conv1 <- data
I0403 15:00:18.723999 30868 net.cpp:399] conv1 -> conv1
I0403 15:00:18.867499 30868 net.cpp:141] Setting up conv1
I0403 15:00:18.867578 30868 net.cpp:148] Top shape: 100 96 55 55 (29040000)
I0403 15:00:18.867597 30868 net.cpp:156] Memory required for data: 177996400
I0403 15:00:18.867630 30868 layer_factory.hpp:77] Creating layer relu1
I0403 15:00:18.867657 30868 net.cpp:91] Creating Layer relu1
I0403 15:00:18.867677 30868 net.cpp:425] relu1 <- conv1
I0403 15:00:18.867698 30868 net.cpp:386] relu1 -> conv1 (in-place)
I0403 15:00:18.867956 30868 net.cpp:141] Setting up relu1
I0403 15:00:18.867985 30868 net.cpp:148] Top shape: 100 96 55 55 (29040000)
I0403 15:00:18.868033 30868 net.cpp:156] Memory required for data: 294156400
I0403 15:00:18.868051 30868 layer_factory.hpp:77] Creating layer norm1
I0403 15:00:18.868077 30868 net.cpp:91] Creating Layer norm1
I0403 15:00:18.868098 30868 net.cpp:425] norm1 <- conv1
I0403 15:00:18.868115 30868 net.cpp:399] norm1 -> norm1
I0403 15:00:18.868458 30868 net.cpp:141] Setting up norm1
I0403 15:00:18.868489 30868 net.cpp:148] Top shape: 100 96 55 55 (29040000)
I0403 15:00:18.868506 30868 net.cpp:156] Memory required for data: 410316400
I0403 15:00:18.868525 30868 layer_factory.hpp:77] Creating layer pool1
I0403 15:00:18.868551 30868 net.cpp:91] Creating Layer pool1
I0403 15:00:18.868571 30868 net.cpp:425] pool1 <- norm1
I0403 15:00:18.868592 30868 net.cpp:399] pool1 -> pool1
I0403 15:00:18.868669 30868 net.cpp:141] Setting up pool1
I0403 15:00:18.868700 30868 net.cpp:148] Top shape: 100 96 27 27 (6998400)
I0403 15:00:18.868716 30868 net.cpp:156] Memory required for data: 438310000
I0403 15:00:18.868732 30868 layer_factory.hpp:77] Creating layer conv2
I0403 15:00:18.868762 30868 net.cpp:91] Creating Layer conv2
I0403 15:00:18.868780 30868 net.cpp:425] conv2 <- pool1
I0403 15:00:18.868803 30868 net.cpp:399] conv2 -> conv2
I0403 15:00:18.883883 30868 net.cpp:141] Setting up conv2
I0403 15:00:18.883926 30868 net.cpp:148] Top shape: 100 256 27 27 (18662400)
I0403 15:00:18.883944 30868 net.cpp:156] Memory required for data: 512959600
I0403 15:00:18.883967 30868 layer_factory.hpp:77] Creating layer relu2
I0403 15:00:18.883990 30868 net.cpp:91] Creating Layer relu2
I0403 15:00:18.884006 30868 net.cpp:425] relu2 <- conv2
I0403 15:00:18.884026 30868 net.cpp:386] relu2 -> conv2 (in-place)
I0403 15:00:18.884318 30868 net.cpp:141] Setting up relu2
I0403 15:00:18.884346 30868 net.cpp:148] Top shape: 100 256 27 27 (18662400)
I0403 15:00:18.884363 30868 net.cpp:156] Memory required for data: 587609200
I0403 15:00:18.884379 30868 layer_factory.hpp:77] Creating layer norm2
I0403 15:00:18.884403 30868 net.cpp:91] Creating Layer norm2
I0403 15:00:18.884421 30868 net.cpp:425] norm2 <- conv2
I0403 15:00:18.884443 30868 net.cpp:399] norm2 -> norm2
I0403 15:00:18.884644 30868 net.cpp:141] Setting up norm2
I0403 15:00:18.884672 30868 net.cpp:148] Top shape: 100 256 27 27 (18662400)
I0403 15:00:18.884688 30868 net.cpp:156] Memory required for data: 662258800
I0403 15:00:18.884704 30868 layer_factory.hpp:77] Creating layer pool2
I0403 15:00:18.884722 30868 net.cpp:91] Creating Layer pool2
I0403 15:00:18.884738 30868 net.cpp:425] pool2 <- norm2
I0403 15:00:18.884759 30868 net.cpp:399] pool2 -> pool2
I0403 15:00:18.884814 30868 net.cpp:141] Setting up pool2
I0403 15:00:18.884838 30868 net.cpp:148] Top shape: 100 256 13 13 (4326400)
I0403 15:00:18.884855 30868 net.cpp:156] Memory required for data: 679564400
I0403 15:00:18.884871 30868 layer_factory.hpp:77] Creating layer conv3
I0403 15:00:18.884896 30868 net.cpp:91] Creating Layer conv3
I0403 15:00:18.884914 30868 net.cpp:425] conv3 <- pool2
I0403 15:00:18.884934 30868 net.cpp:399] conv3 -> conv3
I0403 15:00:18.922469 30868 net.cpp:141] Setting up conv3
I0403 15:00:18.922508 30868 net.cpp:148] Top shape: 100 384 13 13 (6489600)
I0403 15:00:18.922524 30868 net.cpp:156] Memory required for data: 705522800
I0403 15:00:18.922549 30868 layer_factory.hpp:77] Creating layer relu3
I0403 15:00:18.922574 30868 net.cpp:91] Creating Layer relu3
I0403 15:00:18.922592 30868 net.cpp:425] relu3 <- conv3
I0403 15:00:18.922612 30868 net.cpp:386] relu3 -> conv3 (in-place)
I0403 15:00:18.922885 30868 net.cpp:141] Setting up relu3
I0403 15:00:18.922914 30868 net.cpp:148] Top shape: 100 384 13 13 (6489600)
I0403 15:00:18.922931 30868 net.cpp:156] Memory required for data: 731481200
I0403 15:00:18.922946 30868 layer_factory.hpp:77] Creating layer conv4
I0403 15:00:18.922971 30868 net.cpp:91] Creating Layer conv4
I0403 15:00:18.922991 30868 net.cpp:425] conv4 <- conv3
I0403 15:00:18.923014 30868 net.cpp:399] conv4 -> conv4
I0403 15:00:18.952806 30868 net.cpp:141] Setting up conv4
I0403 15:00:18.952879 30868 net.cpp:148] Top shape: 100 384 13 13 (6489600)
I0403 15:00:18.952930 30868 net.cpp:156] Memory required for data: 757439600
I0403 15:00:18.952955 30868 layer_factory.hpp:77] Creating layer relu4
I0403 15:00:18.952977 30868 net.cpp:91] Creating Layer relu4
I0403 15:00:18.952996 30868 net.cpp:425] relu4 <- conv4
I0403 15:00:18.953018 30868 net.cpp:386] relu4 -> conv4 (in-place)
I0403 15:00:18.953306 30868 net.cpp:141] Setting up relu4
I0403 15:00:18.953336 30868 net.cpp:148] Top shape: 100 384 13 13 (6489600)
I0403 15:00:18.953354 30868 net.cpp:156] Memory required for data: 783398000
I0403 15:00:18.953371 30868 layer_factory.hpp:77] Creating layer conv5
I0403 15:00:18.953397 30868 net.cpp:91] Creating Layer conv5
I0403 15:00:18.953415 30868 net.cpp:425] conv5 <- conv4
I0403 15:00:18.953474 30868 net.cpp:399] conv5 -> conv5
I0403 15:00:18.974019 30868 net.cpp:141] Setting up conv5
I0403 15:00:18.974056 30868 net.cpp:148] Top shape: 100 256 13 13 (4326400)
I0403 15:00:18.974074 30868 net.cpp:156] Memory required for data: 800703600
I0403 15:00:18.974098 30868 layer_factory.hpp:77] Creating layer relu5
I0403 15:00:18.974117 30868 net.cpp:91] Creating Layer relu5
I0403 15:00:18.974134 30868 net.cpp:425] relu5 <- conv5
I0403 15:00:18.974155 30868 net.cpp:386] relu5 -> conv5 (in-place)
I0403 15:00:18.974448 30868 net.cpp:141] Setting up relu5
I0403 15:00:18.974477 30868 net.cpp:148] Top shape: 100 256 13 13 (4326400)
I0403 15:00:18.974493 30868 net.cpp:156] Memory required for data: 818009200
I0403 15:00:18.974508 30868 layer_factory.hpp:77] Creating layer pool5
I0403 15:00:18.974532 30868 net.cpp:91] Creating Layer pool5
I0403 15:00:18.974550 30868 net.cpp:425] pool5 <- conv5
I0403 15:00:18.974576 30868 net.cpp:399] pool5 -> pool5
I0403 15:00:18.974637 30868 net.cpp:141] Setting up pool5
I0403 15:00:18.974660 30868 net.cpp:148] Top shape: 100 256 6 6 (921600)
I0403 15:00:18.974675 30868 net.cpp:156] Memory required for data: 821695600
I0403 15:00:18.974689 30868 layer_factory.hpp:77] Creating layer fc6
I0403 15:00:18.974719 30868 net.cpp:91] Creating Layer fc6
I0403 15:00:18.974761 30868 net.cpp:425] fc6 <- pool5
I0403 15:00:18.974786 30868 net.cpp:399] fc6 -> fc6
I0403 15:00:20.516377 30868 net.cpp:141] Setting up fc6
I0403 15:00:20.516422 30868 net.cpp:148] Top shape: 100 4096 (409600)
I0403 15:00:20.516439 30868 net.cpp:156] Memory required for data: 823334000
I0403 15:00:20.516461 30868 layer_factory.hpp:77] Creating layer relu6
I0403 15:00:20.516484 30868 net.cpp:91] Creating Layer relu6
I0403 15:00:20.516502 30868 net.cpp:425] relu6 <- fc6
I0403 15:00:20.516525 30868 net.cpp:386] relu6 -> fc6 (in-place)
I0403 15:00:20.516741 30868 net.cpp:141] Setting up relu6
I0403 15:00:20.516767 30868 net.cpp:148] Top shape: 100 4096 (409600)
I0403 15:00:20.516782 30868 net.cpp:156] Memory required for data: 824972400
I0403 15:00:20.516799 30868 layer_factory.hpp:77] Creating layer drop6
I0403 15:00:20.516819 30868 net.cpp:91] Creating Layer drop6
I0403 15:00:20.516834 30868 net.cpp:425] drop6 <- fc6
I0403 15:00:20.516855 30868 net.cpp:386] drop6 -> fc6 (in-place)
I0403 15:00:20.516907 30868 net.cpp:141] Setting up drop6
I0403 15:00:20.516934 30868 net.cpp:148] Top shape: 100 4096 (409600)
I0403 15:00:20.516950 30868 net.cpp:156] Memory required for data: 826610800
I0403 15:00:20.516966 30868 layer_factory.hpp:77] Creating layer fc7
I0403 15:00:20.516986 30868 net.cpp:91] Creating Layer fc7
I0403 15:00:20.517001 30868 net.cpp:425] fc7 <- fc6
I0403 15:00:20.517022 30868 net.cpp:399] fc7 -> fc7
I0403 15:00:21.193351 30868 net.cpp:141] Setting up fc7
I0403 15:00:21.193418 30868 net.cpp:148] Top shape: 100 4096 (409600)
I0403 15:00:21.193434 30868 net.cpp:156] Memory required for data: 828249200
I0403 15:00:21.193455 30868 layer_factory.hpp:77] Creating layer relu7
I0403 15:00:21.193477 30868 net.cpp:91] Creating Layer relu7
I0403 15:00:21.193495 30868 net.cpp:425] relu7 <- fc7
I0403 15:00:21.193517 30868 net.cpp:386] relu7 -> fc7 (in-place)
I0403 15:00:21.193904 30868 net.cpp:141] Setting up relu7
I0403 15:00:21.193931 30868 net.cpp:148] Top shape: 100 4096 (409600)
I0403 15:00:21.193979 30868 net.cpp:156] Memory required for data: 829887600
I0403 15:00:21.193995 30868 layer_factory.hpp:77] Creating layer drop7
I0403 15:00:21.194015 30868 net.cpp:91] Creating Layer drop7
I0403 15:00:21.194030 30868 net.cpp:425] drop7 <- fc7
I0403 15:00:21.194049 30868 net.cpp:386] drop7 -> fc7 (in-place)
I0403 15:00:21.194092 30868 net.cpp:141] Setting up drop7
I0403 15:00:21.194115 30868 net.cpp:148] Top shape: 100 4096 (409600)
I0403 15:00:21.194130 30868 net.cpp:156] Memory required for data: 831526000
I0403 15:00:21.194146 30868 layer_factory.hpp:77] Creating layer fc8_plantvillage
I0403 15:00:21.194166 30868 net.cpp:91] Creating Layer fc8_plantvillage
I0403 15:00:21.194181 30868 net.cpp:425] fc8_plantvillage <- fc7
I0403 15:00:21.194201 30868 net.cpp:399] fc8_plantvillage -> fc8_plantvillage
I0403 15:00:21.200734 30868 net.cpp:141] Setting up fc8_plantvillage
I0403 15:00:21.200763 30868 net.cpp:148] Top shape: 100 38 (3800)
I0403 15:00:21.200779 30868 net.cpp:156] Memory required for data: 831541200
I0403 15:00:21.200798 30868 layer_factory.hpp:77] Creating layer fc8_plantvillage_fc8_plantvillage_0_split
I0403 15:00:21.200816 30868 net.cpp:91] Creating Layer fc8_plantvillage_fc8_plantvillage_0_split
I0403 15:00:21.200834 30868 net.cpp:425] fc8_plantvillage_fc8_plantvillage_0_split <- fc8_plantvillage
I0403 15:00:21.200856 30868 net.cpp:399] fc8_plantvillage_fc8_plantvillage_0_split -> fc8_plantvillage_fc8_plantvillage_0_split_0
I0403 15:00:21.200878 30868 net.cpp:399] fc8_plantvillage_fc8_plantvillage_0_split -> fc8_plantvillage_fc8_plantvillage_0_split_1
I0403 15:00:21.200899 30868 net.cpp:399] fc8_plantvillage_fc8_plantvillage_0_split -> fc8_plantvillage_fc8_plantvillage_0_split_2
I0403 15:00:21.200976 30868 net.cpp:141] Setting up fc8_plantvillage_fc8_plantvillage_0_split
I0403 15:00:21.201001 30868 net.cpp:148] Top shape: 100 38 (3800)
I0403 15:00:21.201019 30868 net.cpp:148] Top shape: 100 38 (3800)
I0403 15:00:21.201033 30868 net.cpp:148] Top shape: 100 38 (3800)
I0403 15:00:21.201047 30868 net.cpp:156] Memory required for data: 831586800
I0403 15:00:21.201062 30868 layer_factory.hpp:77] Creating layer prob
I0403 15:00:21.201081 30868 net.cpp:91] Creating Layer prob
I0403 15:00:21.201097 30868 net.cpp:425] prob <- fc8_plantvillage_fc8_plantvillage_0_split_0
I0403 15:00:21.201118 30868 net.cpp:399] prob -> prob
I0403 15:00:21.201339 30868 net.cpp:141] Setting up prob
I0403 15:00:21.201366 30868 net.cpp:148] Top shape: 100 38 (3800)
I0403 15:00:21.201381 30868 net.cpp:156] Memory required for data: 831602000
I0403 15:00:21.201396 30868 layer_factory.hpp:77] Creating layer hdf5out
I0403 15:00:21.201416 30868 net.cpp:91] Creating Layer hdf5out
I0403 15:00:21.201431 30868 net.cpp:425] hdf5out <- prob
I0403 15:00:21.201447 30868 net.cpp:425] hdf5out <- label_data_1_split_0
I0403 15:00:21.219039 30868 net.cpp:141] Setting up hdf5out
…
