…
I0403 15:03:08.818902 30957 net.cpp:313] The NetState phase (1) differed from the phase (0) specified by a rule in layer data
I0403 15:03:08.819200 30957 net.cpp:49] Initializing net from parameters: 
state {
  phase: TEST
}
layer {
  name: "data"
  type: "Data"
  top: "data"
  top: "label"
  include {
    phase: TEST
  }
  transform_param {
    crop_size: 227
    mean_file: "/home/mohanty/data/final_dataset/lmdb/segmented-80-20/mean.binaryproto"
  }
  data_param {
    source: "/home/mohanty/data/final_dataset/lmdb/segmented-80-20/test_db"
    batch_size: 100
    backend: LMDB
  }
}
layer {
  name: "conv1"
  type: "Convolution"
  bottom: "data"
  top: "conv1"
  param {
    lr_mult: 1
    decay_mult: 1
  }
  param {
    lr_mult: 2
    decay_mult: 0
  }
  convolution_param {
    num_output: 96
    kernel_size: 11
    stride: 4
    weight_filler {
      type: "gaussian"
      std: 0.01
    }
    bias_filler {
      type: "constant"
      value: 0
    }
  }
}
layer {
  name: "relu1"
  type: "ReLU"
  bottom: "conv1"
  top: "conv1"
}
layer {
  name: "norm1"
  type: "LRN"
  bottom: "conv1"
  top: "norm1"
  lrn_param {
    local_size: 5
    alpha: 0.0001
    beta: 0.75
  }
}
layer {
  name: "pool1"
  type: "Pooling"
  bottom: "norm1"
  top: "pool1"
  pooling_param {
    pool: MAX
    kernel_size: 3
    stride: 2
  }
}
layer {
  name: "conv2"
  type: "Convolution"
  bottom: "pool1"
  top: "conv2"
  param {
    lr_mult: 1
    decay_mult: 1
  }
  param {
    lr_mult: 2
    decay_mult: 0
  }
  convolution_param {
    num_output: 256
    pad: 2
    kernel_size: 5
    group: 2
    weight_filler {
      type: "gaussian"
      std: 0.01
    }
    bias_filler {
      type: "constant"
      value: 0.1
    }
  }
}
layer {
  name: "relu2"
  type: "ReLU"
  bottom: "conv2"
  top: "conv2"
}
layer {
  name: "norm2"
  type: "LRN"
  bottom: "conv2"
  top: "norm2"
  lrn_param {
    local_size: 5
    alpha: 0.0001
    beta: 0.75
  }
}
layer {
  name: "pool2"
  type: "Pooling"
  bottom: "norm2"
  top: "pool2"
  pooling_param {
    pool: MAX
    kernel_size: 3
    stride: 2
  }
}
layer {
  name: "conv3"
  type: "Convolution"
  bottom: "pool2"
  top: "conv3"
  param {
    lr_mult: 1
    decay_mult: 1
  }
  param {
    lr_mult: 2
    decay_mult: 0
  }
  convolution_param {
    num_output: 384
    pad: 1
    kernel_size: 3
    weight_filler {
      type: "gaussian"
      std: 0.01
    }
    bias_filler {
      type: "constant"
      value: 0
    }
  }
}
layer {
  name: "relu3"
  type: "ReLU"
  bottom: "conv3"
  top: "conv3"
}
layer {
  name: "conv4"
  type: "Convolution"
  bottom: "conv3"
  top: "conv4"
  param {
    lr_mult: 1
    decay_mult: 1
  }
  param {
    lr_mult: 2
    decay_mult: 0
  }
  convolution_param {
    num_output: 384
    pad: 1
    kernel_size: 3
    group: 2
    weight_filler {
      type: "gaussian"
      std: 0.01
    }
    bias_filler {
      type: "constant"
      value: 0.1
    }
  }
}
layer {
  name: "relu4"
  type: "ReLU"
  bottom: "conv4"
  top: "conv4"
}
layer {
  name: "conv5"
  type: "Convolution"
  bottom: "conv4"
  top: "conv5"
  param {
    lr_mult: 1
    decay_mult: 1
  }
  param {
    lr_mult: 2
    decay_mult: 0
  }
  convolution_param {
    num_output: 256
    pad: 1
    kernel_size: 3
    group: 2
    weight_filler {
      type: "gaussian"
      std: 0.01
    }
    bias_filler {
      type: "constant"
      value: 0.1
    }
  }
}
layer {
  name: "relu5"
  type: "ReLU"
  bottom: "conv5"
  top: "conv5"
}
layer {
  name: "pool5"
  type: "Pooling"
  bottom: "conv5"
  top: "pool5"
  pooling_param {
    pool: MAX
    kernel_size: 3
    stride: 2
  }
}
layer {
  name: "fc6"
  type: "InnerProduct"
  bottom: "pool5"
  top: "fc6"
  param {
    lr_mult: 1
    decay_mult: 1
  }
  param {
    lr_mult: 2
    decay_mult: 0
  }
  inner_product_param {
    num_output: 4096
    weight_filler {
      type: "gaussian"
      std: 0.005
    }
    bias_filler {
      type: "constant"
      value: 0.1
    }
  }
}
layer {
  name: "relu6"
  type: "ReLU"
  bottom: "fc6"
  top: "fc6"
}
layer {
  name: "drop6"
  type: "Dropout"
  bottom: "fc6"
  top: "fc6"
  dropout_param {
    dropout_ratio: 0.5
  }
}
layer {
  name: "fc7"
  type: "InnerProduct"
  bottom: "fc6"
  top: "fc7"
  param {
    lr_mult: 1
    decay_mult: 1
  }
  param {
    lr_mult: 2
    decay_mult: 0
  }
  inner_product_param {
    num_output: 4096
    weight_filler {
      type: "gaussian"
      std: 0.005
    }
    bias_filler {
      type: "constant"
      value: 0.1
    }
  }
}
layer {
  name: "relu7"
  type: "ReLU"
  bottom: "fc7"
  top: "fc7"
}
layer {
  name: "drop7"
  type: "Dropout"
  bottom: "fc7"
  top: "fc7"
  dropout_param {
    dropout_ratio: 0.5
  }
}
layer {
  name: "fc8_plantvillage"
  type: "InnerProduct"
  bottom: "fc7"
  top: "fc8_plantvillage"
  param {
    lr_mult: 1
    decay_mult: 1
  }
  param {
    lr_mult: 2
    decay_mult: 0
  }
  inner_product_param {
    num_output: 38
    weight_filler {
      type: "gaussian"
      std: 0.01
    }
    bias_filler {
      type: "constant"
      value: 0
    }
  }
}
layer {
  name: "prob"
  type: "Softmax"
  bottom: "fc8_plantvillage"
  top: "prob"
  include {
    phase: TEST
  }
}
layer {
  name: "hdf5out"
  type: "HDF5Output"
  bottom: "prob"
  bottom: "label"
  include {
    phase: TEST
  }
  hdf5_output_param {
    file_name: "hdf5_dumps/iter_13050.h5"
  }
}
layer {
  name: "loss"
  type: "SoftmaxWithLoss"
  bottom: "fc8_plantvillage"
  bottom: "label"
  top: "loss"
}
layer {
  name: "accuracy"
  type: "Accuracy"
  bottom: "fc8_plantvillage"
  bottom: "label"
  top: "accuracy"
  include {
    phase: TEST
  }
}
I0403 15:03:08.819906 30957 layer_factory.hpp:77] Creating layer data
I0403 15:03:08.820586 30957 net.cpp:91] Creating Layer data
I0403 15:03:08.820618 30957 net.cpp:399] data -> data
I0403 15:03:08.820672 30957 net.cpp:399] data -> label
I0403 15:03:08.820713 30957 data_transformer.cpp:25] Loading mean file from: /home/mohanty/data/final_dataset/lmdb/segmented-80-20/mean.binaryproto
I0403 15:03:08.824373 30961 db_lmdb.cpp:38] Opened lmdb /home/mohanty/data/final_dataset/lmdb/segmented-80-20/test_db
I0403 15:03:08.849850 30957 data_layer.cpp:41] output data size: 100,3,227,227
I0403 15:03:08.988307 30957 net.cpp:141] Setting up data
I0403 15:03:08.988379 30957 net.cpp:148] Top shape: 100 3 227 227 (15458700)
I0403 15:03:08.988411 30957 net.cpp:148] Top shape: 100 (100)
I0403 15:03:08.988435 30957 net.cpp:156] Memory required for data: 61835200
I0403 15:03:08.988471 30957 layer_factory.hpp:77] Creating layer label_data_1_split
I0403 15:03:08.988502 30957 net.cpp:91] Creating Layer label_data_1_split
I0403 15:03:08.988529 30957 net.cpp:425] label_data_1_split <- label
I0403 15:03:08.988571 30957 net.cpp:399] label_data_1_split -> label_data_1_split_0
I0403 15:03:08.988608 30957 net.cpp:399] label_data_1_split -> label_data_1_split_1
I0403 15:03:08.988637 30957 net.cpp:399] label_data_1_split -> label_data_1_split_2
I0403 15:03:08.988706 30957 net.cpp:141] Setting up label_data_1_split
I0403 15:03:08.988745 30957 net.cpp:148] Top shape: 100 (100)
I0403 15:03:08.988814 30957 net.cpp:148] Top shape: 100 (100)
I0403 15:03:08.988883 30957 net.cpp:148] Top shape: 100 (100)
I0403 15:03:08.988942 30957 net.cpp:156] Memory required for data: 61836400
I0403 15:03:08.988983 30957 layer_factory.hpp:77] Creating layer conv1
I0403 15:03:08.989028 30957 net.cpp:91] Creating Layer conv1
I0403 15:03:08.989056 30957 net.cpp:425] conv1 <- data
I0403 15:03:08.989085 30957 net.cpp:399] conv1 -> conv1
I0403 15:03:09.156373 30957 net.cpp:141] Setting up conv1
I0403 15:03:09.156430 30957 net.cpp:148] Top shape: 100 96 55 55 (29040000)
I0403 15:03:09.156460 30957 net.cpp:156] Memory required for data: 177996400
I0403 15:03:09.156491 30957 layer_factory.hpp:77] Creating layer relu1
I0403 15:03:09.156520 30957 net.cpp:91] Creating Layer relu1
I0403 15:03:09.156538 30957 net.cpp:425] relu1 <- conv1
I0403 15:03:09.156558 30957 net.cpp:386] relu1 -> conv1 (in-place)
I0403 15:03:09.156867 30957 net.cpp:141] Setting up relu1
I0403 15:03:09.156894 30957 net.cpp:148] Top shape: 100 96 55 55 (29040000)
I0403 15:03:09.156944 30957 net.cpp:156] Memory required for data: 294156400
I0403 15:03:09.156960 30957 layer_factory.hpp:77] Creating layer norm1
I0403 15:03:09.156990 30957 net.cpp:91] Creating Layer norm1
I0403 15:03:09.157008 30957 net.cpp:425] norm1 <- conv1
I0403 15:03:09.157027 30957 net.cpp:399] norm1 -> norm1
I0403 15:03:09.157366 30957 net.cpp:141] Setting up norm1
I0403 15:03:09.157395 30957 net.cpp:148] Top shape: 100 96 55 55 (29040000)
I0403 15:03:09.157413 30957 net.cpp:156] Memory required for data: 410316400
I0403 15:03:09.157428 30957 layer_factory.hpp:77] Creating layer pool1
I0403 15:03:09.157454 30957 net.cpp:91] Creating Layer pool1
I0403 15:03:09.157474 30957 net.cpp:425] pool1 <- norm1
I0403 15:03:09.157492 30957 net.cpp:399] pool1 -> pool1
I0403 15:03:09.157565 30957 net.cpp:141] Setting up pool1
I0403 15:03:09.157590 30957 net.cpp:148] Top shape: 100 96 27 27 (6998400)
I0403 15:03:09.157605 30957 net.cpp:156] Memory required for data: 438310000
I0403 15:03:09.157621 30957 layer_factory.hpp:77] Creating layer conv2
I0403 15:03:09.157649 30957 net.cpp:91] Creating Layer conv2
I0403 15:03:09.157666 30957 net.cpp:425] conv2 <- pool1
I0403 15:03:09.157687 30957 net.cpp:399] conv2 -> conv2
I0403 15:03:09.172691 30957 net.cpp:141] Setting up conv2
I0403 15:03:09.172740 30957 net.cpp:148] Top shape: 100 256 27 27 (18662400)
I0403 15:03:09.172757 30957 net.cpp:156] Memory required for data: 512959600
I0403 15:03:09.172783 30957 layer_factory.hpp:77] Creating layer relu2
I0403 15:03:09.172806 30957 net.cpp:91] Creating Layer relu2
I0403 15:03:09.172823 30957 net.cpp:425] relu2 <- conv2
I0403 15:03:09.172842 30957 net.cpp:386] relu2 -> conv2 (in-place)
I0403 15:03:09.173125 30957 net.cpp:141] Setting up relu2
I0403 15:03:09.173156 30957 net.cpp:148] Top shape: 100 256 27 27 (18662400)
I0403 15:03:09.173177 30957 net.cpp:156] Memory required for data: 587609200
I0403 15:03:09.173193 30957 layer_factory.hpp:77] Creating layer norm2
I0403 15:03:09.173216 30957 net.cpp:91] Creating Layer norm2
I0403 15:03:09.173234 30957 net.cpp:425] norm2 <- conv2
I0403 15:03:09.173260 30957 net.cpp:399] norm2 -> norm2
I0403 15:03:09.173465 30957 net.cpp:141] Setting up norm2
I0403 15:03:09.173491 30957 net.cpp:148] Top shape: 100 256 27 27 (18662400)
I0403 15:03:09.173506 30957 net.cpp:156] Memory required for data: 662258800
I0403 15:03:09.173521 30957 layer_factory.hpp:77] Creating layer pool2
I0403 15:03:09.173542 30957 net.cpp:91] Creating Layer pool2
I0403 15:03:09.173560 30957 net.cpp:425] pool2 <- norm2
I0403 15:03:09.173579 30957 net.cpp:399] pool2 -> pool2
I0403 15:03:09.173635 30957 net.cpp:141] Setting up pool2
I0403 15:03:09.173657 30957 net.cpp:148] Top shape: 100 256 13 13 (4326400)
I0403 15:03:09.173673 30957 net.cpp:156] Memory required for data: 679564400
I0403 15:03:09.173688 30957 layer_factory.hpp:77] Creating layer conv3
I0403 15:03:09.173712 30957 net.cpp:91] Creating Layer conv3
I0403 15:03:09.173732 30957 net.cpp:425] conv3 <- pool2
I0403 15:03:09.173753 30957 net.cpp:399] conv3 -> conv3
I0403 15:03:09.211871 30957 net.cpp:141] Setting up conv3
I0403 15:03:09.211930 30957 net.cpp:148] Top shape: 100 384 13 13 (6489600)
I0403 15:03:09.211946 30957 net.cpp:156] Memory required for data: 705522800
I0403 15:03:09.211971 30957 layer_factory.hpp:77] Creating layer relu3
I0403 15:03:09.211994 30957 net.cpp:91] Creating Layer relu3
I0403 15:03:09.212012 30957 net.cpp:425] relu3 <- conv3
I0403 15:03:09.212030 30957 net.cpp:386] relu3 -> conv3 (in-place)
I0403 15:03:09.212302 30957 net.cpp:141] Setting up relu3
I0403 15:03:09.212329 30957 net.cpp:148] Top shape: 100 384 13 13 (6489600)
I0403 15:03:09.212345 30957 net.cpp:156] Memory required for data: 731481200
I0403 15:03:09.212360 30957 layer_factory.hpp:77] Creating layer conv4
I0403 15:03:09.212386 30957 net.cpp:91] Creating Layer conv4
I0403 15:03:09.212404 30957 net.cpp:425] conv4 <- conv3
I0403 15:03:09.212425 30957 net.cpp:399] conv4 -> conv4
I0403 15:03:09.241374 30957 net.cpp:141] Setting up conv4
I0403 15:03:09.241408 30957 net.cpp:148] Top shape: 100 384 13 13 (6489600)
I0403 15:03:09.241458 30957 net.cpp:156] Memory required for data: 757439600
I0403 15:03:09.241480 30957 layer_factory.hpp:77] Creating layer relu4
I0403 15:03:09.241502 30957 net.cpp:91] Creating Layer relu4
I0403 15:03:09.241518 30957 net.cpp:425] relu4 <- conv4
I0403 15:03:09.241540 30957 net.cpp:386] relu4 -> conv4 (in-place)
I0403 15:03:09.241832 30957 net.cpp:141] Setting up relu4
I0403 15:03:09.241860 30957 net.cpp:148] Top shape: 100 384 13 13 (6489600)
I0403 15:03:09.241876 30957 net.cpp:156] Memory required for data: 783398000
I0403 15:03:09.241893 30957 layer_factory.hpp:77] Creating layer conv5
I0403 15:03:09.241916 30957 net.cpp:91] Creating Layer conv5
I0403 15:03:09.241935 30957 net.cpp:425] conv5 <- conv4
I0403 15:03:09.241956 30957 net.cpp:399] conv5 -> conv5
I0403 15:03:09.262648 30957 net.cpp:141] Setting up conv5
I0403 15:03:09.262704 30957 net.cpp:148] Top shape: 100 256 13 13 (4326400)
I0403 15:03:09.262722 30957 net.cpp:156] Memory required for data: 800703600
I0403 15:03:09.262749 30957 layer_factory.hpp:77] Creating layer relu5
I0403 15:03:09.262774 30957 net.cpp:91] Creating Layer relu5
I0403 15:03:09.262794 30957 net.cpp:425] relu5 <- conv5
I0403 15:03:09.262814 30957 net.cpp:386] relu5 -> conv5 (in-place)
I0403 15:03:09.263101 30957 net.cpp:141] Setting up relu5
I0403 15:03:09.263130 30957 net.cpp:148] Top shape: 100 256 13 13 (4326400)
I0403 15:03:09.263146 30957 net.cpp:156] Memory required for data: 818009200
I0403 15:03:09.263164 30957 layer_factory.hpp:77] Creating layer pool5
I0403 15:03:09.263190 30957 net.cpp:91] Creating Layer pool5
I0403 15:03:09.263207 30957 net.cpp:425] pool5 <- conv5
I0403 15:03:09.263226 30957 net.cpp:399] pool5 -> pool5
I0403 15:03:09.263298 30957 net.cpp:141] Setting up pool5
I0403 15:03:09.263324 30957 net.cpp:148] Top shape: 100 256 6 6 (921600)
I0403 15:03:09.263340 30957 net.cpp:156] Memory required for data: 821695600
I0403 15:03:09.263356 30957 layer_factory.hpp:77] Creating layer fc6
I0403 15:03:09.263386 30957 net.cpp:91] Creating Layer fc6
I0403 15:03:09.263406 30957 net.cpp:425] fc6 <- pool5
I0403 15:03:09.263427 30957 net.cpp:399] fc6 -> fc6
I0403 15:03:10.803427 30957 net.cpp:141] Setting up fc6
I0403 15:03:10.803493 30957 net.cpp:148] Top shape: 100 4096 (409600)
I0403 15:03:10.803508 30957 net.cpp:156] Memory required for data: 823334000
I0403 15:03:10.803529 30957 layer_factory.hpp:77] Creating layer relu6
I0403 15:03:10.803550 30957 net.cpp:91] Creating Layer relu6
I0403 15:03:10.803567 30957 net.cpp:425] relu6 <- fc6
I0403 15:03:10.803589 30957 net.cpp:386] relu6 -> fc6 (in-place)
I0403 15:03:10.803802 30957 net.cpp:141] Setting up relu6
I0403 15:03:10.803828 30957 net.cpp:148] Top shape: 100 4096 (409600)
I0403 15:03:10.803841 30957 net.cpp:156] Memory required for data: 824972400
I0403 15:03:10.803856 30957 layer_factory.hpp:77] Creating layer drop6
I0403 15:03:10.803877 30957 net.cpp:91] Creating Layer drop6
I0403 15:03:10.803892 30957 net.cpp:425] drop6 <- fc6
I0403 15:03:10.803910 30957 net.cpp:386] drop6 -> fc6 (in-place)
I0403 15:03:10.803961 30957 net.cpp:141] Setting up drop6
I0403 15:03:10.803984 30957 net.cpp:148] Top shape: 100 4096 (409600)
I0403 15:03:10.803998 30957 net.cpp:156] Memory required for data: 826610800
I0403 15:03:10.804013 30957 layer_factory.hpp:77] Creating layer fc7
I0403 15:03:10.804033 30957 net.cpp:91] Creating Layer fc7
I0403 15:03:10.804047 30957 net.cpp:425] fc7 <- fc6
I0403 15:03:10.804066 30957 net.cpp:399] fc7 -> fc7
I0403 15:03:11.511319 30957 net.cpp:141] Setting up fc7
I0403 15:03:11.511386 30957 net.cpp:148] Top shape: 100 4096 (409600)
I0403 15:03:11.511402 30957 net.cpp:156] Memory required for data: 828249200
I0403 15:03:11.511422 30957 layer_factory.hpp:77] Creating layer relu7
I0403 15:03:11.511446 30957 net.cpp:91] Creating Layer relu7
I0403 15:03:11.511464 30957 net.cpp:425] relu7 <- fc7
I0403 15:03:11.511485 30957 net.cpp:386] relu7 -> fc7 (in-place)
I0403 15:03:11.511878 30957 net.cpp:141] Setting up relu7
I0403 15:03:11.511904 30957 net.cpp:148] Top shape: 100 4096 (409600)
I0403 15:03:11.511961 30957 net.cpp:156] Memory required for data: 829887600
I0403 15:03:11.511977 30957 layer_factory.hpp:77] Creating layer drop7
I0403 15:03:11.511996 30957 net.cpp:91] Creating Layer drop7
I0403 15:03:11.512011 30957 net.cpp:425] drop7 <- fc7
I0403 15:03:11.512029 30957 net.cpp:386] drop7 -> fc7 (in-place)
I0403 15:03:11.512075 30957 net.cpp:141] Setting up drop7
I0403 15:03:11.512099 30957 net.cpp:148] Top shape: 100 4096 (409600)
I0403 15:03:11.512112 30957 net.cpp:156] Memory required for data: 831526000
I0403 15:03:11.512127 30957 layer_factory.hpp:77] Creating layer fc8_plantvillage
I0403 15:03:11.512146 30957 net.cpp:91] Creating Layer fc8_plantvillage
I0403 15:03:11.512161 30957 net.cpp:425] fc8_plantvillage <- fc7
I0403 15:03:11.512181 30957 net.cpp:399] fc8_plantvillage -> fc8_plantvillage
I0403 15:03:11.518725 30957 net.cpp:141] Setting up fc8_plantvillage
I0403 15:03:11.518757 30957 net.cpp:148] Top shape: 100 38 (3800)
I0403 15:03:11.518774 30957 net.cpp:156] Memory required for data: 831541200
I0403 15:03:11.518792 30957 layer_factory.hpp:77] Creating layer fc8_plantvillage_fc8_plantvillage_0_split
I0403 15:03:11.518811 30957 net.cpp:91] Creating Layer fc8_plantvillage_fc8_plantvillage_0_split
I0403 15:03:11.518827 30957 net.cpp:425] fc8_plantvillage_fc8_plantvillage_0_split <- fc8_plantvillage
I0403 15:03:11.518844 30957 net.cpp:399] fc8_plantvillage_fc8_plantvillage_0_split -> fc8_plantvillage_fc8_plantvillage_0_split_0
I0403 15:03:11.518863 30957 net.cpp:399] fc8_plantvillage_fc8_plantvillage_0_split -> fc8_plantvillage_fc8_plantvillage_0_split_1
I0403 15:03:11.518883 30957 net.cpp:399] fc8_plantvillage_fc8_plantvillage_0_split -> fc8_plantvillage_fc8_plantvillage_0_split_2
I0403 15:03:11.518960 30957 net.cpp:141] Setting up fc8_plantvillage_fc8_plantvillage_0_split
I0403 15:03:11.518983 30957 net.cpp:148] Top shape: 100 38 (3800)
I0403 15:03:11.518999 30957 net.cpp:148] Top shape: 100 38 (3800)
I0403 15:03:11.519014 30957 net.cpp:148] Top shape: 100 38 (3800)
I0403 15:03:11.519028 30957 net.cpp:156] Memory required for data: 831586800
I0403 15:03:11.519043 30957 layer_factory.hpp:77] Creating layer prob
I0403 15:03:11.519062 30957 net.cpp:91] Creating Layer prob
I0403 15:03:11.519076 30957 net.cpp:425] prob <- fc8_plantvillage_fc8_plantvillage_0_split_0
I0403 15:03:11.519093 30957 net.cpp:399] prob -> prob
I0403 15:03:11.519320 30957 net.cpp:141] Setting up prob
I0403 15:03:11.519350 30957 net.cpp:148] Top shape: 100 38 (3800)
I0403 15:03:11.519364 30957 net.cpp:156] Memory required for data: 831602000
I0403 15:03:11.519379 30957 layer_factory.hpp:77] Creating layer hdf5out
I0403 15:03:11.519402 30957 net.cpp:91] Creating Layer hdf5out
I0403 15:03:11.519418 30957 net.cpp:425] hdf5out <- prob
I0403 15:03:11.519434 30957 net.cpp:425] hdf5out <- label_data_1_split_0
I0403 15:03:11.523726 30957 net.cpp:141] Setting up hdf5out
…
