…
I0403 15:02:43.718011 30941 net.cpp:313] The NetState phase (1) differed from the phase (0) specified by a rule in layer data
I0403 15:02:43.718320 30941 net.cpp:49] Initializing net from parameters: 
state {
  phase: TEST
}
layer {
  name: "data"
  type: "Data"
  top: "data"
  top: "label"
  include {
    phase: TEST
  }
  transform_param {
    crop_size: 227
    mean_file: "/home/mohanty/data/final_dataset/lmdb/segmented-80-20/mean.binaryproto"
  }
  data_param {
    source: "/home/mohanty/data/final_dataset/lmdb/segmented-80-20/test_db"
    batch_size: 100
    backend: LMDB
  }
}
layer {
  name: "conv1"
  type: "Convolution"
  bottom: "data"
  top: "conv1"
  param {
    lr_mult: 1
    decay_mult: 1
  }
  param {
    lr_mult: 2
    decay_mult: 0
  }
  convolution_param {
    num_output: 96
    kernel_size: 11
    stride: 4
    weight_filler {
      type: "gaussian"
      std: 0.01
    }
    bias_filler {
      type: "constant"
      value: 0
    }
  }
}
layer {
  name: "relu1"
  type: "ReLU"
  bottom: "conv1"
  top: "conv1"
}
layer {
  name: "norm1"
  type: "LRN"
  bottom: "conv1"
  top: "norm1"
  lrn_param {
    local_size: 5
    alpha: 0.0001
    beta: 0.75
  }
}
layer {
  name: "pool1"
  type: "Pooling"
  bottom: "norm1"
  top: "pool1"
  pooling_param {
    pool: MAX
    kernel_size: 3
    stride: 2
  }
}
layer {
  name: "conv2"
  type: "Convolution"
  bottom: "pool1"
  top: "conv2"
  param {
    lr_mult: 1
    decay_mult: 1
  }
  param {
    lr_mult: 2
    decay_mult: 0
  }
  convolution_param {
    num_output: 256
    pad: 2
    kernel_size: 5
    group: 2
    weight_filler {
      type: "gaussian"
      std: 0.01
    }
    bias_filler {
      type: "constant"
      value: 0.1
    }
  }
}
layer {
  name: "relu2"
  type: "ReLU"
  bottom: "conv2"
  top: "conv2"
}
layer {
  name: "norm2"
  type: "LRN"
  bottom: "conv2"
  top: "norm2"
  lrn_param {
    local_size: 5
    alpha: 0.0001
    beta: 0.75
  }
}
layer {
  name: "pool2"
  type: "Pooling"
  bottom: "norm2"
  top: "pool2"
  pooling_param {
    pool: MAX
    kernel_size: 3
    stride: 2
  }
}
layer {
  name: "conv3"
  type: "Convolution"
  bottom: "pool2"
  top: "conv3"
  param {
    lr_mult: 1
    decay_mult: 1
  }
  param {
    lr_mult: 2
    decay_mult: 0
  }
  convolution_param {
    num_output: 384
    pad: 1
    kernel_size: 3
    weight_filler {
      type: "gaussian"
      std: 0.01
    }
    bias_filler {
      type: "constant"
      value: 0
    }
  }
}
layer {
  name: "relu3"
  type: "ReLU"
  bottom: "conv3"
  top: "conv3"
}
layer {
  name: "conv4"
  type: "Convolution"
  bottom: "conv3"
  top: "conv4"
  param {
    lr_mult: 1
    decay_mult: 1
  }
  param {
    lr_mult: 2
    decay_mult: 0
  }
  convolution_param {
    num_output: 384
    pad: 1
    kernel_size: 3
    group: 2
    weight_filler {
      type: "gaussian"
      std: 0.01
    }
    bias_filler {
      type: "constant"
      value: 0.1
    }
  }
}
layer {
  name: "relu4"
  type: "ReLU"
  bottom: "conv4"
  top: "conv4"
}
layer {
  name: "conv5"
  type: "Convolution"
  bottom: "conv4"
  top: "conv5"
  param {
    lr_mult: 1
    decay_mult: 1
  }
  param {
    lr_mult: 2
    decay_mult: 0
  }
  convolution_param {
    num_output: 256
    pad: 1
    kernel_size: 3
    group: 2
    weight_filler {
      type: "gaussian"
      std: 0.01
    }
    bias_filler {
      type: "constant"
      value: 0.1
    }
  }
}
layer {
  name: "relu5"
  type: "ReLU"
  bottom: "conv5"
  top: "conv5"
}
layer {
  name: "pool5"
  type: "Pooling"
  bottom: "conv5"
  top: "pool5"
  pooling_param {
    pool: MAX
    kernel_size: 3
    stride: 2
  }
}
layer {
  name: "fc6"
  type: "InnerProduct"
  bottom: "pool5"
  top: "fc6"
  param {
    lr_mult: 1
    decay_mult: 1
  }
  param {
    lr_mult: 2
    decay_mult: 0
  }
  inner_product_param {
    num_output: 4096
    weight_filler {
      type: "gaussian"
      std: 0.005
    }
    bias_filler {
      type: "constant"
      value: 0.1
    }
  }
}
layer {
  name: "relu6"
  type: "ReLU"
  bottom: "fc6"
  top: "fc6"
}
layer {
  name: "drop6"
  type: "Dropout"
  bottom: "fc6"
  top: "fc6"
  dropout_param {
    dropout_ratio: 0.5
  }
}
layer {
  name: "fc7"
  type: "InnerProduct"
  bottom: "fc6"
  top: "fc7"
  param {
    lr_mult: 1
    decay_mult: 1
  }
  param {
    lr_mult: 2
    decay_mult: 0
  }
  inner_product_param {
    num_output: 4096
    weight_filler {
      type: "gaussian"
      std: 0.005
    }
    bias_filler {
      type: "constant"
      value: 0.1
    }
  }
}
layer {
  name: "relu7"
  type: "ReLU"
  bottom: "fc7"
  top: "fc7"
}
layer {
  name: "drop7"
  type: "Dropout"
  bottom: "fc7"
  top: "fc7"
  dropout_param {
    dropout_ratio: 0.5
  }
}
layer {
  name: "fc8_plantvillage"
  type: "InnerProduct"
  bottom: "fc7"
  top: "fc8_plantvillage"
  param {
    lr_mult: 1
    decay_mult: 1
  }
  param {
    lr_mult: 2
    decay_mult: 0
  }
  inner_product_param {
    num_output: 38
    weight_filler {
      type: "gaussian"
      std: 0.01
    }
    bias_filler {
      type: "constant"
      value: 0
    }
  }
}
layer {
  name: "prob"
  type: "Softmax"
  bottom: "fc8_plantvillage"
  top: "prob"
  include {
    phase: TEST
  }
}
layer {
  name: "hdf5out"
  type: "HDF5Output"
  bottom: "prob"
  bottom: "label"
  include {
    phase: TEST
  }
  hdf5_output_param {
    file_name: "hdf5_dumps/iter_12615.h5"
  }
}
layer {
  name: "loss"
  type: "SoftmaxWithLoss"
  bottom: "fc8_plantvillage"
  bottom: "label"
  top: "loss"
}
layer {
  name: "accuracy"
  type: "Accuracy"
  bottom: "fc8_plantvillage"
  bottom: "label"
  top: "accuracy"
  include {
    phase: TEST
  }
}
I0403 15:02:43.718925 30941 layer_factory.hpp:77] Creating layer data
I0403 15:02:43.719564 30941 net.cpp:91] Creating Layer data
I0403 15:02:43.719597 30941 net.cpp:399] data -> data
I0403 15:02:43.719648 30941 net.cpp:399] data -> label
I0403 15:02:43.719684 30941 data_transformer.cpp:25] Loading mean file from: /home/mohanty/data/final_dataset/lmdb/segmented-80-20/mean.binaryproto
I0403 15:02:43.722463 30945 db_lmdb.cpp:38] Opened lmdb /home/mohanty/data/final_dataset/lmdb/segmented-80-20/test_db
I0403 15:02:43.734222 30941 data_layer.cpp:41] output data size: 100,3,227,227
I0403 15:02:43.866583 30941 net.cpp:141] Setting up data
I0403 15:02:43.866672 30941 net.cpp:148] Top shape: 100 3 227 227 (15458700)
I0403 15:02:43.866693 30941 net.cpp:148] Top shape: 100 (100)
I0403 15:02:43.866709 30941 net.cpp:156] Memory required for data: 61835200
I0403 15:02:43.866737 30941 layer_factory.hpp:77] Creating layer label_data_1_split
I0403 15:02:43.866762 30941 net.cpp:91] Creating Layer label_data_1_split
I0403 15:02:43.866780 30941 net.cpp:425] label_data_1_split <- label
I0403 15:02:43.866811 30941 net.cpp:399] label_data_1_split -> label_data_1_split_0
I0403 15:02:43.866838 30941 net.cpp:399] label_data_1_split -> label_data_1_split_1
I0403 15:02:43.866859 30941 net.cpp:399] label_data_1_split -> label_data_1_split_2
I0403 15:02:43.866920 30941 net.cpp:141] Setting up label_data_1_split
I0403 15:02:43.866945 30941 net.cpp:148] Top shape: 100 (100)
I0403 15:02:43.866961 30941 net.cpp:148] Top shape: 100 (100)
I0403 15:02:43.866976 30941 net.cpp:148] Top shape: 100 (100)
I0403 15:02:43.866989 30941 net.cpp:156] Memory required for data: 61836400
I0403 15:02:43.867004 30941 layer_factory.hpp:77] Creating layer conv1
I0403 15:02:43.867036 30941 net.cpp:91] Creating Layer conv1
I0403 15:02:43.867054 30941 net.cpp:425] conv1 <- data
I0403 15:02:43.867074 30941 net.cpp:399] conv1 -> conv1
I0403 15:02:44.010282 30941 net.cpp:141] Setting up conv1
I0403 15:02:44.010345 30941 net.cpp:148] Top shape: 100 96 55 55 (29040000)
I0403 15:02:44.010362 30941 net.cpp:156] Memory required for data: 177996400
I0403 15:02:44.010396 30941 layer_factory.hpp:77] Creating layer relu1
I0403 15:02:44.010424 30941 net.cpp:91] Creating Layer relu1
I0403 15:02:44.010444 30941 net.cpp:425] relu1 <- conv1
I0403 15:02:44.010463 30941 net.cpp:386] relu1 -> conv1 (in-place)
I0403 15:02:44.010727 30941 net.cpp:141] Setting up relu1
I0403 15:02:44.010756 30941 net.cpp:148] Top shape: 100 96 55 55 (29040000)
I0403 15:02:44.010802 30941 net.cpp:156] Memory required for data: 294156400
I0403 15:02:44.010820 30941 layer_factory.hpp:77] Creating layer norm1
I0403 15:02:44.010848 30941 net.cpp:91] Creating Layer norm1
I0403 15:02:44.010865 30941 net.cpp:425] norm1 <- conv1
I0403 15:02:44.010885 30941 net.cpp:399] norm1 -> norm1
I0403 15:02:44.011220 30941 net.cpp:141] Setting up norm1
I0403 15:02:44.011250 30941 net.cpp:148] Top shape: 100 96 55 55 (29040000)
I0403 15:02:44.011265 30941 net.cpp:156] Memory required for data: 410316400
I0403 15:02:44.011282 30941 layer_factory.hpp:77] Creating layer pool1
I0403 15:02:44.011313 30941 net.cpp:91] Creating Layer pool1
I0403 15:02:44.011332 30941 net.cpp:425] pool1 <- norm1
I0403 15:02:44.011350 30941 net.cpp:399] pool1 -> pool1
I0403 15:02:44.011421 30941 net.cpp:141] Setting up pool1
I0403 15:02:44.011447 30941 net.cpp:148] Top shape: 100 96 27 27 (6998400)
I0403 15:02:44.011463 30941 net.cpp:156] Memory required for data: 438310000
I0403 15:02:44.011478 30941 layer_factory.hpp:77] Creating layer conv2
I0403 15:02:44.011503 30941 net.cpp:91] Creating Layer conv2
I0403 15:02:44.011520 30941 net.cpp:425] conv2 <- pool1
I0403 15:02:44.011540 30941 net.cpp:399] conv2 -> conv2
I0403 15:02:44.026692 30941 net.cpp:141] Setting up conv2
I0403 15:02:44.026739 30941 net.cpp:148] Top shape: 100 256 27 27 (18662400)
I0403 15:02:44.026758 30941 net.cpp:156] Memory required for data: 512959600
I0403 15:02:44.026782 30941 layer_factory.hpp:77] Creating layer relu2
I0403 15:02:44.026803 30941 net.cpp:91] Creating Layer relu2
I0403 15:02:44.026820 30941 net.cpp:425] relu2 <- conv2
I0403 15:02:44.026839 30941 net.cpp:386] relu2 -> conv2 (in-place)
I0403 15:02:44.027114 30941 net.cpp:141] Setting up relu2
I0403 15:02:44.027143 30941 net.cpp:148] Top shape: 100 256 27 27 (18662400)
I0403 15:02:44.027159 30941 net.cpp:156] Memory required for data: 587609200
I0403 15:02:44.027174 30941 layer_factory.hpp:77] Creating layer norm2
I0403 15:02:44.027197 30941 net.cpp:91] Creating Layer norm2
I0403 15:02:44.027215 30941 net.cpp:425] norm2 <- conv2
I0403 15:02:44.027233 30941 net.cpp:399] norm2 -> norm2
I0403 15:02:44.027426 30941 net.cpp:141] Setting up norm2
I0403 15:02:44.027453 30941 net.cpp:148] Top shape: 100 256 27 27 (18662400)
I0403 15:02:44.027492 30941 net.cpp:156] Memory required for data: 662258800
I0403 15:02:44.027511 30941 layer_factory.hpp:77] Creating layer pool2
I0403 15:02:44.027532 30941 net.cpp:91] Creating Layer pool2
I0403 15:02:44.027549 30941 net.cpp:425] pool2 <- norm2
I0403 15:02:44.027567 30941 net.cpp:399] pool2 -> pool2
I0403 15:02:44.027619 30941 net.cpp:141] Setting up pool2
I0403 15:02:44.027657 30941 net.cpp:148] Top shape: 100 256 13 13 (4326400)
I0403 15:02:44.027672 30941 net.cpp:156] Memory required for data: 679564400
I0403 15:02:44.027688 30941 layer_factory.hpp:77] Creating layer conv3
I0403 15:02:44.027710 30941 net.cpp:91] Creating Layer conv3
I0403 15:02:44.027726 30941 net.cpp:425] conv3 <- pool2
I0403 15:02:44.027745 30941 net.cpp:399] conv3 -> conv3
I0403 15:02:44.065213 30941 net.cpp:141] Setting up conv3
I0403 15:02:44.065261 30941 net.cpp:148] Top shape: 100 384 13 13 (6489600)
I0403 15:02:44.065277 30941 net.cpp:156] Memory required for data: 705522800
I0403 15:02:44.065306 30941 layer_factory.hpp:77] Creating layer relu3
I0403 15:02:44.065327 30941 net.cpp:91] Creating Layer relu3
I0403 15:02:44.065346 30941 net.cpp:425] relu3 <- conv3
I0403 15:02:44.065366 30941 net.cpp:386] relu3 -> conv3 (in-place)
I0403 15:02:44.065632 30941 net.cpp:141] Setting up relu3
I0403 15:02:44.065659 30941 net.cpp:148] Top shape: 100 384 13 13 (6489600)
I0403 15:02:44.065675 30941 net.cpp:156] Memory required for data: 731481200
I0403 15:02:44.065690 30941 layer_factory.hpp:77] Creating layer conv4
I0403 15:02:44.065713 30941 net.cpp:91] Creating Layer conv4
I0403 15:02:44.065732 30941 net.cpp:425] conv4 <- conv3
I0403 15:02:44.065776 30941 net.cpp:399] conv4 -> conv4
I0403 15:02:44.096006 30941 net.cpp:141] Setting up conv4
I0403 15:02:44.096071 30941 net.cpp:148] Top shape: 100 384 13 13 (6489600)
I0403 15:02:44.096122 30941 net.cpp:156] Memory required for data: 757439600
I0403 15:02:44.096145 30941 layer_factory.hpp:77] Creating layer relu4
I0403 15:02:44.096168 30941 net.cpp:91] Creating Layer relu4
I0403 15:02:44.096186 30941 net.cpp:425] relu4 <- conv4
I0403 15:02:44.096207 30941 net.cpp:386] relu4 -> conv4 (in-place)
I0403 15:02:44.096493 30941 net.cpp:141] Setting up relu4
I0403 15:02:44.096525 30941 net.cpp:148] Top shape: 100 384 13 13 (6489600)
I0403 15:02:44.096544 30941 net.cpp:156] Memory required for data: 783398000
I0403 15:02:44.096560 30941 layer_factory.hpp:77] Creating layer conv5
I0403 15:02:44.096587 30941 net.cpp:91] Creating Layer conv5
I0403 15:02:44.096606 30941 net.cpp:425] conv5 <- conv4
I0403 15:02:44.096626 30941 net.cpp:399] conv5 -> conv5
I0403 15:02:44.117584 30941 net.cpp:141] Setting up conv5
I0403 15:02:44.117674 30941 net.cpp:148] Top shape: 100 256 13 13 (4326400)
I0403 15:02:44.117722 30941 net.cpp:156] Memory required for data: 800703600
I0403 15:02:44.117748 30941 layer_factory.hpp:77] Creating layer relu5
I0403 15:02:44.117769 30941 net.cpp:91] Creating Layer relu5
I0403 15:02:44.117786 30941 net.cpp:425] relu5 <- conv5
I0403 15:02:44.117807 30941 net.cpp:386] relu5 -> conv5 (in-place)
I0403 15:02:44.118085 30941 net.cpp:141] Setting up relu5
I0403 15:02:44.118113 30941 net.cpp:148] Top shape: 100 256 13 13 (4326400)
I0403 15:02:44.118127 30941 net.cpp:156] Memory required for data: 818009200
I0403 15:02:44.118144 30941 layer_factory.hpp:77] Creating layer pool5
I0403 15:02:44.118167 30941 net.cpp:91] Creating Layer pool5
I0403 15:02:44.118183 30941 net.cpp:425] pool5 <- conv5
I0403 15:02:44.118201 30941 net.cpp:399] pool5 -> pool5
I0403 15:02:44.118263 30941 net.cpp:141] Setting up pool5
I0403 15:02:44.118291 30941 net.cpp:148] Top shape: 100 256 6 6 (921600)
I0403 15:02:44.118307 30941 net.cpp:156] Memory required for data: 821695600
I0403 15:02:44.118324 30941 layer_factory.hpp:77] Creating layer fc6
I0403 15:02:44.118350 30941 net.cpp:91] Creating Layer fc6
I0403 15:02:44.118366 30941 net.cpp:425] fc6 <- pool5
I0403 15:02:44.118386 30941 net.cpp:399] fc6 -> fc6
I0403 15:02:45.660576 30941 net.cpp:141] Setting up fc6
I0403 15:02:45.660647 30941 net.cpp:148] Top shape: 100 4096 (409600)
I0403 15:02:45.660665 30941 net.cpp:156] Memory required for data: 823334000
I0403 15:02:45.660684 30941 layer_factory.hpp:77] Creating layer relu6
I0403 15:02:45.660706 30941 net.cpp:91] Creating Layer relu6
I0403 15:02:45.660724 30941 net.cpp:425] relu6 <- fc6
I0403 15:02:45.660743 30941 net.cpp:386] relu6 -> fc6 (in-place)
I0403 15:02:45.660954 30941 net.cpp:141] Setting up relu6
I0403 15:02:45.660979 30941 net.cpp:148] Top shape: 100 4096 (409600)
I0403 15:02:45.660995 30941 net.cpp:156] Memory required for data: 824972400
I0403 15:02:45.661008 30941 layer_factory.hpp:77] Creating layer drop6
I0403 15:02:45.661027 30941 net.cpp:91] Creating Layer drop6
I0403 15:02:45.661043 30941 net.cpp:425] drop6 <- fc6
I0403 15:02:45.661064 30941 net.cpp:386] drop6 -> fc6 (in-place)
I0403 15:02:45.661113 30941 net.cpp:141] Setting up drop6
I0403 15:02:45.661135 30941 net.cpp:148] Top shape: 100 4096 (409600)
I0403 15:02:45.661150 30941 net.cpp:156] Memory required for data: 826610800
I0403 15:02:45.661164 30941 layer_factory.hpp:77] Creating layer fc7
I0403 15:02:45.661187 30941 net.cpp:91] Creating Layer fc7
I0403 15:02:45.661203 30941 net.cpp:425] fc7 <- fc6
I0403 15:02:45.661231 30941 net.cpp:399] fc7 -> fc7
I0403 15:02:46.341640 30941 net.cpp:141] Setting up fc7
I0403 15:02:46.341713 30941 net.cpp:148] Top shape: 100 4096 (409600)
I0403 15:02:46.341738 30941 net.cpp:156] Memory required for data: 828249200
I0403 15:02:46.341759 30941 layer_factory.hpp:77] Creating layer relu7
I0403 15:02:46.341781 30941 net.cpp:91] Creating Layer relu7
I0403 15:02:46.341799 30941 net.cpp:425] relu7 <- fc7
I0403 15:02:46.341820 30941 net.cpp:386] relu7 -> fc7 (in-place)
I0403 15:02:46.342205 30941 net.cpp:141] Setting up relu7
I0403 15:02:46.342231 30941 net.cpp:148] Top shape: 100 4096 (409600)
I0403 15:02:46.342294 30941 net.cpp:156] Memory required for data: 829887600
I0403 15:02:46.342311 30941 layer_factory.hpp:77] Creating layer drop7
I0403 15:02:46.342331 30941 net.cpp:91] Creating Layer drop7
I0403 15:02:46.342347 30941 net.cpp:425] drop7 <- fc7
I0403 15:02:46.342370 30941 net.cpp:386] drop7 -> fc7 (in-place)
I0403 15:02:46.342411 30941 net.cpp:141] Setting up drop7
I0403 15:02:46.342437 30941 net.cpp:148] Top shape: 100 4096 (409600)
I0403 15:02:46.342452 30941 net.cpp:156] Memory required for data: 831526000
I0403 15:02:46.342465 30941 layer_factory.hpp:77] Creating layer fc8_plantvillage
I0403 15:02:46.342484 30941 net.cpp:91] Creating Layer fc8_plantvillage
I0403 15:02:46.342500 30941 net.cpp:425] fc8_plantvillage <- fc7
I0403 15:02:46.342521 30941 net.cpp:399] fc8_plantvillage -> fc8_plantvillage
I0403 15:02:46.349104 30941 net.cpp:141] Setting up fc8_plantvillage
I0403 15:02:46.349133 30941 net.cpp:148] Top shape: 100 38 (3800)
I0403 15:02:46.349149 30941 net.cpp:156] Memory required for data: 831541200
I0403 15:02:46.349166 30941 layer_factory.hpp:77] Creating layer fc8_plantvillage_fc8_plantvillage_0_split
I0403 15:02:46.349185 30941 net.cpp:91] Creating Layer fc8_plantvillage_fc8_plantvillage_0_split
I0403 15:02:46.349201 30941 net.cpp:425] fc8_plantvillage_fc8_plantvillage_0_split <- fc8_plantvillage
I0403 15:02:46.349220 30941 net.cpp:399] fc8_plantvillage_fc8_plantvillage_0_split -> fc8_plantvillage_fc8_plantvillage_0_split_0
I0403 15:02:46.349239 30941 net.cpp:399] fc8_plantvillage_fc8_plantvillage_0_split -> fc8_plantvillage_fc8_plantvillage_0_split_1
I0403 15:02:46.349257 30941 net.cpp:399] fc8_plantvillage_fc8_plantvillage_0_split -> fc8_plantvillage_fc8_plantvillage_0_split_2
I0403 15:02:46.349334 30941 net.cpp:141] Setting up fc8_plantvillage_fc8_plantvillage_0_split
I0403 15:02:46.349364 30941 net.cpp:148] Top shape: 100 38 (3800)
I0403 15:02:46.349380 30941 net.cpp:148] Top shape: 100 38 (3800)
I0403 15:02:46.349396 30941 net.cpp:148] Top shape: 100 38 (3800)
I0403 15:02:46.349411 30941 net.cpp:156] Memory required for data: 831586800
I0403 15:02:46.349424 30941 layer_factory.hpp:77] Creating layer prob
I0403 15:02:46.349443 30941 net.cpp:91] Creating Layer prob
I0403 15:02:46.349458 30941 net.cpp:425] prob <- fc8_plantvillage_fc8_plantvillage_0_split_0
I0403 15:02:46.349477 30941 net.cpp:399] prob -> prob
I0403 15:02:46.349690 30941 net.cpp:141] Setting up prob
I0403 15:02:46.349715 30941 net.cpp:148] Top shape: 100 38 (3800)
I0403 15:02:46.349730 30941 net.cpp:156] Memory required for data: 831602000
I0403 15:02:46.349745 30941 layer_factory.hpp:77] Creating layer hdf5out
I0403 15:02:46.349763 30941 net.cpp:91] Creating Layer hdf5out
I0403 15:02:46.349779 30941 net.cpp:425] hdf5out <- prob
I0403 15:02:46.349797 30941 net.cpp:425] hdf5out <- label_data_1_split_0
I0403 15:02:46.375504 30941 net.cpp:141] Setting up hdf5out
…
