…
I0403 14:59:02.843461 30791 net.cpp:313] The NetState phase (1) differed from the phase (0) specified by a rule in layer data
I0403 14:59:02.843762 30791 net.cpp:49] Initializing net from parameters: 
state {
  phase: TEST
}
layer {
  name: "data"
  type: "Data"
  top: "data"
  top: "label"
  include {
    phase: TEST
  }
  transform_param {
    crop_size: 227
    mean_file: "/home/mohanty/data/final_dataset/lmdb/segmented-80-20/mean.binaryproto"
  }
  data_param {
    source: "/home/mohanty/data/final_dataset/lmdb/segmented-80-20/test_db"
    batch_size: 100
    backend: LMDB
  }
}
layer {
  name: "conv1"
  type: "Convolution"
  bottom: "data"
  top: "conv1"
  param {
    lr_mult: 1
    decay_mult: 1
  }
  param {
    lr_mult: 2
    decay_mult: 0
  }
  convolution_param {
    num_output: 96
    kernel_size: 11
    stride: 4
    weight_filler {
      type: "gaussian"
      std: 0.01
    }
    bias_filler {
      type: "constant"
      value: 0
    }
  }
}
layer {
  name: "relu1"
  type: "ReLU"
  bottom: "conv1"
  top: "conv1"
}
layer {
  name: "norm1"
  type: "LRN"
  bottom: "conv1"
  top: "norm1"
  lrn_param {
    local_size: 5
    alpha: 0.0001
    beta: 0.75
  }
}
layer {
  name: "pool1"
  type: "Pooling"
  bottom: "norm1"
  top: "pool1"
  pooling_param {
    pool: MAX
    kernel_size: 3
    stride: 2
  }
}
layer {
  name: "conv2"
  type: "Convolution"
  bottom: "pool1"
  top: "conv2"
  param {
    lr_mult: 1
    decay_mult: 1
  }
  param {
    lr_mult: 2
    decay_mult: 0
  }
  convolution_param {
    num_output: 256
    pad: 2
    kernel_size: 5
    group: 2
    weight_filler {
      type: "gaussian"
      std: 0.01
    }
    bias_filler {
      type: "constant"
      value: 0.1
    }
  }
}
layer {
  name: "relu2"
  type: "ReLU"
  bottom: "conv2"
  top: "conv2"
}
layer {
  name: "norm2"
  type: "LRN"
  bottom: "conv2"
  top: "norm2"
  lrn_param {
    local_size: 5
    alpha: 0.0001
    beta: 0.75
  }
}
layer {
  name: "pool2"
  type: "Pooling"
  bottom: "norm2"
  top: "pool2"
  pooling_param {
    pool: MAX
    kernel_size: 3
    stride: 2
  }
}
layer {
  name: "conv3"
  type: "Convolution"
  bottom: "pool2"
  top: "conv3"
  param {
    lr_mult: 1
    decay_mult: 1
  }
  param {
    lr_mult: 2
    decay_mult: 0
  }
  convolution_param {
    num_output: 384
    pad: 1
    kernel_size: 3
    weight_filler {
      type: "gaussian"
      std: 0.01
    }
    bias_filler {
      type: "constant"
      value: 0
    }
  }
}
layer {
  name: "relu3"
  type: "ReLU"
  bottom: "conv3"
  top: "conv3"
}
layer {
  name: "conv4"
  type: "Convolution"
  bottom: "conv3"
  top: "conv4"
  param {
    lr_mult: 1
    decay_mult: 1
  }
  param {
    lr_mult: 2
    decay_mult: 0
  }
  convolution_param {
    num_output: 384
    pad: 1
    kernel_size: 3
    group: 2
    weight_filler {
      type: "gaussian"
      std: 0.01
    }
    bias_filler {
      type: "constant"
      value: 0.1
    }
  }
}
layer {
  name: "relu4"
  type: "ReLU"
  bottom: "conv4"
  top: "conv4"
}
layer {
  name: "conv5"
  type: "Convolution"
  bottom: "conv4"
  top: "conv5"
  param {
    lr_mult: 1
    decay_mult: 1
  }
  param {
    lr_mult: 2
    decay_mult: 0
  }
  convolution_param {
    num_output: 256
    pad: 1
    kernel_size: 3
    group: 2
    weight_filler {
      type: "gaussian"
      std: 0.01
    }
    bias_filler {
      type: "constant"
      value: 0.1
    }
  }
}
layer {
  name: "relu5"
  type: "ReLU"
  bottom: "conv5"
  top: "conv5"
}
layer {
  name: "pool5"
  type: "Pooling"
  bottom: "conv5"
  top: "pool5"
  pooling_param {
    pool: MAX
    kernel_size: 3
    stride: 2
  }
}
layer {
  name: "fc6"
  type: "InnerProduct"
  bottom: "pool5"
  top: "fc6"
  param {
    lr_mult: 1
    decay_mult: 1
  }
  param {
    lr_mult: 2
    decay_mult: 0
  }
  inner_product_param {
    num_output: 4096
    weight_filler {
      type: "gaussian"
      std: 0.005
    }
    bias_filler {
      type: "constant"
      value: 0.1
    }
  }
}
layer {
  name: "relu6"
  type: "ReLU"
  bottom: "fc6"
  top: "fc6"
}
layer {
  name: "drop6"
  type: "Dropout"
  bottom: "fc6"
  top: "fc6"
  dropout_param {
    dropout_ratio: 0.5
  }
}
layer {
  name: "fc7"
  type: "InnerProduct"
  bottom: "fc6"
  top: "fc7"
  param {
    lr_mult: 1
    decay_mult: 1
  }
  param {
    lr_mult: 2
    decay_mult: 0
  }
  inner_product_param {
    num_output: 4096
    weight_filler {
      type: "gaussian"
      std: 0.005
    }
    bias_filler {
      type: "constant"
      value: 0.1
    }
  }
}
layer {
  name: "relu7"
  type: "ReLU"
  bottom: "fc7"
  top: "fc7"
}
layer {
  name: "drop7"
  type: "Dropout"
  bottom: "fc7"
  top: "fc7"
  dropout_param {
    dropout_ratio: 0.5
  }
}
layer {
  name: "fc8_plantvillage"
  type: "InnerProduct"
  bottom: "fc7"
  top: "fc8_plantvillage"
  param {
    lr_mult: 1
    decay_mult: 1
  }
  param {
    lr_mult: 2
    decay_mult: 0
  }
  inner_product_param {
    num_output: 38
    weight_filler {
      type: "gaussian"
      std: 0.01
    }
    bias_filler {
      type: "constant"
      value: 0
    }
  }
}
layer {
  name: "prob"
  type: "Softmax"
  bottom: "fc8_plantvillage"
  top: "prob"
  include {
    phase: TEST
  }
}
layer {
  name: "hdf5out"
  type: "HDF5Output"
  bottom: "prob"
  bottom: "label"
  include {
    phase: TEST
  }
  hdf5_output_param {
    file_name: "hdf5_dumps/iter_8700.h5"
  }
}
layer {
  name: "loss"
  type: "SoftmaxWithLoss"
  bottom: "fc8_plantvillage"
  bottom: "label"
  top: "loss"
}
layer {
  name: "accuracy"
  type: "Accuracy"
  bottom: "fc8_plantvillage"
  bottom: "label"
  top: "accuracy"
  include {
    phase: TEST
  }
}
I0403 14:59:02.844377 30791 layer_factory.hpp:77] Creating layer data
I0403 14:59:02.845018 30791 net.cpp:91] Creating Layer data
I0403 14:59:02.845052 30791 net.cpp:399] data -> data
I0403 14:59:02.845104 30791 net.cpp:399] data -> label
I0403 14:59:02.845142 30791 data_transformer.cpp:25] Loading mean file from: /home/mohanty/data/final_dataset/lmdb/segmented-80-20/mean.binaryproto
I0403 14:59:02.848767 30795 db_lmdb.cpp:38] Opened lmdb /home/mohanty/data/final_dataset/lmdb/segmented-80-20/test_db
I0403 14:59:02.859592 30791 data_layer.cpp:41] output data size: 100,3,227,227
I0403 14:59:02.991351 30791 net.cpp:141] Setting up data
I0403 14:59:02.991454 30791 net.cpp:148] Top shape: 100 3 227 227 (15458700)
I0403 14:59:02.991478 30791 net.cpp:148] Top shape: 100 (100)
I0403 14:59:02.991494 30791 net.cpp:156] Memory required for data: 61835200
I0403 14:59:02.991521 30791 layer_factory.hpp:77] Creating layer label_data_1_split
I0403 14:59:02.991547 30791 net.cpp:91] Creating Layer label_data_1_split
I0403 14:59:02.991566 30791 net.cpp:425] label_data_1_split <- label
I0403 14:59:02.991600 30791 net.cpp:399] label_data_1_split -> label_data_1_split_0
I0403 14:59:02.991627 30791 net.cpp:399] label_data_1_split -> label_data_1_split_1
I0403 14:59:02.991648 30791 net.cpp:399] label_data_1_split -> label_data_1_split_2
I0403 14:59:02.991714 30791 net.cpp:141] Setting up label_data_1_split
I0403 14:59:02.991737 30791 net.cpp:148] Top shape: 100 (100)
I0403 14:59:02.991755 30791 net.cpp:148] Top shape: 100 (100)
I0403 14:59:02.991771 30791 net.cpp:148] Top shape: 100 (100)
I0403 14:59:02.991786 30791 net.cpp:156] Memory required for data: 61836400
I0403 14:59:02.991801 30791 layer_factory.hpp:77] Creating layer conv1
I0403 14:59:02.991834 30791 net.cpp:91] Creating Layer conv1
I0403 14:59:02.991853 30791 net.cpp:425] conv1 <- data
I0403 14:59:02.991874 30791 net.cpp:399] conv1 -> conv1
I0403 14:59:03.137492 30791 net.cpp:141] Setting up conv1
I0403 14:59:03.137596 30791 net.cpp:148] Top shape: 100 96 55 55 (29040000)
I0403 14:59:03.137614 30791 net.cpp:156] Memory required for data: 177996400
I0403 14:59:03.137647 30791 layer_factory.hpp:77] Creating layer relu1
I0403 14:59:03.137675 30791 net.cpp:91] Creating Layer relu1
I0403 14:59:03.137692 30791 net.cpp:425] relu1 <- conv1
I0403 14:59:03.137714 30791 net.cpp:386] relu1 -> conv1 (in-place)
I0403 14:59:03.137975 30791 net.cpp:141] Setting up relu1
I0403 14:59:03.138006 30791 net.cpp:148] Top shape: 100 96 55 55 (29040000)
I0403 14:59:03.138056 30791 net.cpp:156] Memory required for data: 294156400
I0403 14:59:03.138072 30791 layer_factory.hpp:77] Creating layer norm1
I0403 14:59:03.138099 30791 net.cpp:91] Creating Layer norm1
I0403 14:59:03.138118 30791 net.cpp:425] norm1 <- conv1
I0403 14:59:03.138140 30791 net.cpp:399] norm1 -> norm1
I0403 14:59:03.138469 30791 net.cpp:141] Setting up norm1
I0403 14:59:03.138499 30791 net.cpp:148] Top shape: 100 96 55 55 (29040000)
I0403 14:59:03.138514 30791 net.cpp:156] Memory required for data: 410316400
I0403 14:59:03.138530 30791 layer_factory.hpp:77] Creating layer pool1
I0403 14:59:03.138551 30791 net.cpp:91] Creating Layer pool1
I0403 14:59:03.138571 30791 net.cpp:425] pool1 <- norm1
I0403 14:59:03.138592 30791 net.cpp:399] pool1 -> pool1
I0403 14:59:03.138664 30791 net.cpp:141] Setting up pool1
I0403 14:59:03.138689 30791 net.cpp:148] Top shape: 100 96 27 27 (6998400)
I0403 14:59:03.138703 30791 net.cpp:156] Memory required for data: 438310000
I0403 14:59:03.138718 30791 layer_factory.hpp:77] Creating layer conv2
I0403 14:59:03.138746 30791 net.cpp:91] Creating Layer conv2
I0403 14:59:03.138763 30791 net.cpp:425] conv2 <- pool1
I0403 14:59:03.138782 30791 net.cpp:399] conv2 -> conv2
I0403 14:59:03.153602 30791 net.cpp:141] Setting up conv2
I0403 14:59:03.153657 30791 net.cpp:148] Top shape: 100 256 27 27 (18662400)
I0403 14:59:03.153677 30791 net.cpp:156] Memory required for data: 512959600
I0403 14:59:03.153699 30791 layer_factory.hpp:77] Creating layer relu2
I0403 14:59:03.153722 30791 net.cpp:91] Creating Layer relu2
I0403 14:59:03.153739 30791 net.cpp:425] relu2 <- conv2
I0403 14:59:03.153759 30791 net.cpp:386] relu2 -> conv2 (in-place)
I0403 14:59:03.154036 30791 net.cpp:141] Setting up relu2
I0403 14:59:03.154062 30791 net.cpp:148] Top shape: 100 256 27 27 (18662400)
I0403 14:59:03.154078 30791 net.cpp:156] Memory required for data: 587609200
I0403 14:59:03.154093 30791 layer_factory.hpp:77] Creating layer norm2
I0403 14:59:03.154114 30791 net.cpp:91] Creating Layer norm2
I0403 14:59:03.154134 30791 net.cpp:425] norm2 <- conv2
I0403 14:59:03.154151 30791 net.cpp:399] norm2 -> norm2
I0403 14:59:03.154361 30791 net.cpp:141] Setting up norm2
I0403 14:59:03.154388 30791 net.cpp:148] Top shape: 100 256 27 27 (18662400)
I0403 14:59:03.154403 30791 net.cpp:156] Memory required for data: 662258800
I0403 14:59:03.154418 30791 layer_factory.hpp:77] Creating layer pool2
I0403 14:59:03.154436 30791 net.cpp:91] Creating Layer pool2
I0403 14:59:03.154451 30791 net.cpp:425] pool2 <- norm2
I0403 14:59:03.154471 30791 net.cpp:399] pool2 -> pool2
I0403 14:59:03.154522 30791 net.cpp:141] Setting up pool2
I0403 14:59:03.154548 30791 net.cpp:148] Top shape: 100 256 13 13 (4326400)
I0403 14:59:03.154566 30791 net.cpp:156] Memory required for data: 679564400
I0403 14:59:03.154580 30791 layer_factory.hpp:77] Creating layer conv3
I0403 14:59:03.154603 30791 net.cpp:91] Creating Layer conv3
I0403 14:59:03.154620 30791 net.cpp:425] conv3 <- pool2
I0403 14:59:03.154639 30791 net.cpp:399] conv3 -> conv3
I0403 14:59:03.192872 30791 net.cpp:141] Setting up conv3
I0403 14:59:03.192934 30791 net.cpp:148] Top shape: 100 384 13 13 (6489600)
I0403 14:59:03.192950 30791 net.cpp:156] Memory required for data: 705522800
I0403 14:59:03.192975 30791 layer_factory.hpp:77] Creating layer relu3
I0403 14:59:03.192998 30791 net.cpp:91] Creating Layer relu3
I0403 14:59:03.193017 30791 net.cpp:425] relu3 <- conv3
I0403 14:59:03.193039 30791 net.cpp:386] relu3 -> conv3 (in-place)
I0403 14:59:03.193320 30791 net.cpp:141] Setting up relu3
I0403 14:59:03.193346 30791 net.cpp:148] Top shape: 100 384 13 13 (6489600)
I0403 14:59:03.193362 30791 net.cpp:156] Memory required for data: 731481200
I0403 14:59:03.193378 30791 layer_factory.hpp:77] Creating layer conv4
I0403 14:59:03.193404 30791 net.cpp:91] Creating Layer conv4
I0403 14:59:03.193423 30791 net.cpp:425] conv4 <- conv3
I0403 14:59:03.193447 30791 net.cpp:399] conv4 -> conv4
I0403 14:59:03.223088 30791 net.cpp:141] Setting up conv4
I0403 14:59:03.223137 30791 net.cpp:148] Top shape: 100 384 13 13 (6489600)
I0403 14:59:03.223186 30791 net.cpp:156] Memory required for data: 757439600
I0403 14:59:03.223208 30791 layer_factory.hpp:77] Creating layer relu4
I0403 14:59:03.223232 30791 net.cpp:91] Creating Layer relu4
I0403 14:59:03.223248 30791 net.cpp:425] relu4 <- conv4
I0403 14:59:03.223271 30791 net.cpp:386] relu4 -> conv4 (in-place)
I0403 14:59:03.223554 30791 net.cpp:141] Setting up relu4
I0403 14:59:03.223583 30791 net.cpp:148] Top shape: 100 384 13 13 (6489600)
I0403 14:59:03.223599 30791 net.cpp:156] Memory required for data: 783398000
I0403 14:59:03.223613 30791 layer_factory.hpp:77] Creating layer conv5
I0403 14:59:03.223641 30791 net.cpp:91] Creating Layer conv5
I0403 14:59:03.223659 30791 net.cpp:425] conv5 <- conv4
I0403 14:59:03.223682 30791 net.cpp:399] conv5 -> conv5
I0403 14:59:03.243690 30791 net.cpp:141] Setting up conv5
I0403 14:59:03.243726 30791 net.cpp:148] Top shape: 100 256 13 13 (4326400)
I0403 14:59:03.243743 30791 net.cpp:156] Memory required for data: 800703600
I0403 14:59:03.243768 30791 layer_factory.hpp:77] Creating layer relu5
I0403 14:59:03.243788 30791 net.cpp:91] Creating Layer relu5
I0403 14:59:03.243803 30791 net.cpp:425] relu5 <- conv5
I0403 14:59:03.243824 30791 net.cpp:386] relu5 -> conv5 (in-place)
I0403 14:59:03.244103 30791 net.cpp:141] Setting up relu5
I0403 14:59:03.244129 30791 net.cpp:148] Top shape: 100 256 13 13 (4326400)
I0403 14:59:03.244145 30791 net.cpp:156] Memory required for data: 818009200
I0403 14:59:03.244161 30791 layer_factory.hpp:77] Creating layer pool5
I0403 14:59:03.244186 30791 net.cpp:91] Creating Layer pool5
I0403 14:59:03.244204 30791 net.cpp:425] pool5 <- conv5
I0403 14:59:03.244225 30791 net.cpp:399] pool5 -> pool5
I0403 14:59:03.244287 30791 net.cpp:141] Setting up pool5
I0403 14:59:03.244313 30791 net.cpp:148] Top shape: 100 256 6 6 (921600)
I0403 14:59:03.244326 30791 net.cpp:156] Memory required for data: 821695600
I0403 14:59:03.244341 30791 layer_factory.hpp:77] Creating layer fc6
I0403 14:59:03.244369 30791 net.cpp:91] Creating Layer fc6
I0403 14:59:03.244386 30791 net.cpp:425] fc6 <- pool5
I0403 14:59:03.244407 30791 net.cpp:399] fc6 -> fc6
I0403 14:59:04.800364 30791 net.cpp:141] Setting up fc6
I0403 14:59:04.800405 30791 net.cpp:148] Top shape: 100 4096 (409600)
I0403 14:59:04.800421 30791 net.cpp:156] Memory required for data: 823334000
I0403 14:59:04.800442 30791 layer_factory.hpp:77] Creating layer relu6
I0403 14:59:04.800464 30791 net.cpp:91] Creating Layer relu6
I0403 14:59:04.800480 30791 net.cpp:425] relu6 <- fc6
I0403 14:59:04.800500 30791 net.cpp:386] relu6 -> fc6 (in-place)
I0403 14:59:04.800719 30791 net.cpp:141] Setting up relu6
I0403 14:59:04.800742 30791 net.cpp:148] Top shape: 100 4096 (409600)
I0403 14:59:04.800757 30791 net.cpp:156] Memory required for data: 824972400
I0403 14:59:04.800772 30791 layer_factory.hpp:77] Creating layer drop6
I0403 14:59:04.800791 30791 net.cpp:91] Creating Layer drop6
I0403 14:59:04.800806 30791 net.cpp:425] drop6 <- fc6
I0403 14:59:04.800824 30791 net.cpp:386] drop6 -> fc6 (in-place)
I0403 14:59:04.800874 30791 net.cpp:141] Setting up drop6
I0403 14:59:04.800901 30791 net.cpp:148] Top shape: 100 4096 (409600)
I0403 14:59:04.800917 30791 net.cpp:156] Memory required for data: 826610800
I0403 14:59:04.800932 30791 layer_factory.hpp:77] Creating layer fc7
I0403 14:59:04.800951 30791 net.cpp:91] Creating Layer fc7
I0403 14:59:04.800967 30791 net.cpp:425] fc7 <- fc6
I0403 14:59:04.800987 30791 net.cpp:399] fc7 -> fc7
I0403 14:59:05.514974 30791 net.cpp:141] Setting up fc7
I0403 14:59:05.515014 30791 net.cpp:148] Top shape: 100 4096 (409600)
I0403 14:59:05.515030 30791 net.cpp:156] Memory required for data: 828249200
I0403 14:59:05.515051 30791 layer_factory.hpp:77] Creating layer relu7
I0403 14:59:05.515072 30791 net.cpp:91] Creating Layer relu7
I0403 14:59:05.515089 30791 net.cpp:425] relu7 <- fc7
I0403 14:59:05.515111 30791 net.cpp:386] relu7 -> fc7 (in-place)
I0403 14:59:05.515501 30791 net.cpp:141] Setting up relu7
I0403 14:59:05.515525 30791 net.cpp:148] Top shape: 100 4096 (409600)
I0403 14:59:05.515573 30791 net.cpp:156] Memory required for data: 829887600
I0403 14:59:05.515588 30791 layer_factory.hpp:77] Creating layer drop7
I0403 14:59:05.515606 30791 net.cpp:91] Creating Layer drop7
I0403 14:59:05.515622 30791 net.cpp:425] drop7 <- fc7
I0403 14:59:05.515640 30791 net.cpp:386] drop7 -> fc7 (in-place)
I0403 14:59:05.515682 30791 net.cpp:141] Setting up drop7
I0403 14:59:05.515707 30791 net.cpp:148] Top shape: 100 4096 (409600)
I0403 14:59:05.515723 30791 net.cpp:156] Memory required for data: 831526000
I0403 14:59:05.515738 30791 layer_factory.hpp:77] Creating layer fc8_plantvillage
I0403 14:59:05.515756 30791 net.cpp:91] Creating Layer fc8_plantvillage
I0403 14:59:05.515772 30791 net.cpp:425] fc8_plantvillage <- fc7
I0403 14:59:05.515791 30791 net.cpp:399] fc8_plantvillage -> fc8_plantvillage
I0403 14:59:05.522361 30791 net.cpp:141] Setting up fc8_plantvillage
I0403 14:59:05.522392 30791 net.cpp:148] Top shape: 100 38 (3800)
I0403 14:59:05.522408 30791 net.cpp:156] Memory required for data: 831541200
I0403 14:59:05.522428 30791 layer_factory.hpp:77] Creating layer fc8_plantvillage_fc8_plantvillage_0_split
I0403 14:59:05.522445 30791 net.cpp:91] Creating Layer fc8_plantvillage_fc8_plantvillage_0_split
I0403 14:59:05.522464 30791 net.cpp:425] fc8_plantvillage_fc8_plantvillage_0_split <- fc8_plantvillage
I0403 14:59:05.522481 30791 net.cpp:399] fc8_plantvillage_fc8_plantvillage_0_split -> fc8_plantvillage_fc8_plantvillage_0_split_0
I0403 14:59:05.522500 30791 net.cpp:399] fc8_plantvillage_fc8_plantvillage_0_split -> fc8_plantvillage_fc8_plantvillage_0_split_1
I0403 14:59:05.522521 30791 net.cpp:399] fc8_plantvillage_fc8_plantvillage_0_split -> fc8_plantvillage_fc8_plantvillage_0_split_2
I0403 14:59:05.522595 30791 net.cpp:141] Setting up fc8_plantvillage_fc8_plantvillage_0_split
I0403 14:59:05.522621 30791 net.cpp:148] Top shape: 100 38 (3800)
I0403 14:59:05.522639 30791 net.cpp:148] Top shape: 100 38 (3800)
I0403 14:59:05.522655 30791 net.cpp:148] Top shape: 100 38 (3800)
I0403 14:59:05.522667 30791 net.cpp:156] Memory required for data: 831586800
I0403 14:59:05.522682 30791 layer_factory.hpp:77] Creating layer prob
I0403 14:59:05.522701 30791 net.cpp:91] Creating Layer prob
I0403 14:59:05.522714 30791 net.cpp:425] prob <- fc8_plantvillage_fc8_plantvillage_0_split_0
I0403 14:59:05.522732 30791 net.cpp:399] prob -> prob
I0403 14:59:05.522950 30791 net.cpp:141] Setting up prob
I0403 14:59:05.522975 30791 net.cpp:148] Top shape: 100 38 (3800)
I0403 14:59:05.522989 30791 net.cpp:156] Memory required for data: 831602000
I0403 14:59:05.523005 30791 layer_factory.hpp:77] Creating layer hdf5out
I0403 14:59:05.523022 30791 net.cpp:91] Creating Layer hdf5out
I0403 14:59:05.523038 30791 net.cpp:425] hdf5out <- prob
I0403 14:59:05.523054 30791 net.cpp:425] hdf5out <- label_data_1_split_0
I0403 14:59:05.608126 30791 net.cpp:141] Setting up hdf5out
…
