…
I0403 15:02:18.236179 30926 net.cpp:313] The NetState phase (1) differed from the phase (0) specified by a rule in layer data
I0403 15:02:18.236496 30926 net.cpp:49] Initializing net from parameters: 
state {
  phase: TEST
}
layer {
  name: "data"
  type: "Data"
  top: "data"
  top: "label"
  include {
    phase: TEST
  }
  transform_param {
    crop_size: 227
    mean_file: "/home/mohanty/data/final_dataset/lmdb/segmented-80-20/mean.binaryproto"
  }
  data_param {
    source: "/home/mohanty/data/final_dataset/lmdb/segmented-80-20/test_db"
    batch_size: 100
    backend: LMDB
  }
}
layer {
  name: "conv1"
  type: "Convolution"
  bottom: "data"
  top: "conv1"
  param {
    lr_mult: 1
    decay_mult: 1
  }
  param {
    lr_mult: 2
    decay_mult: 0
  }
  convolution_param {
    num_output: 96
    kernel_size: 11
    stride: 4
    weight_filler {
      type: "gaussian"
      std: 0.01
    }
    bias_filler {
      type: "constant"
      value: 0
    }
  }
}
layer {
  name: "relu1"
  type: "ReLU"
  bottom: "conv1"
  top: "conv1"
}
layer {
  name: "norm1"
  type: "LRN"
  bottom: "conv1"
  top: "norm1"
  lrn_param {
    local_size: 5
    alpha: 0.0001
    beta: 0.75
  }
}
layer {
  name: "pool1"
  type: "Pooling"
  bottom: "norm1"
  top: "pool1"
  pooling_param {
    pool: MAX
    kernel_size: 3
    stride: 2
  }
}
layer {
  name: "conv2"
  type: "Convolution"
  bottom: "pool1"
  top: "conv2"
  param {
    lr_mult: 1
    decay_mult: 1
  }
  param {
    lr_mult: 2
    decay_mult: 0
  }
  convolution_param {
    num_output: 256
    pad: 2
    kernel_size: 5
    group: 2
    weight_filler {
      type: "gaussian"
      std: 0.01
    }
    bias_filler {
      type: "constant"
      value: 0.1
    }
  }
}
layer {
  name: "relu2"
  type: "ReLU"
  bottom: "conv2"
  top: "conv2"
}
layer {
  name: "norm2"
  type: "LRN"
  bottom: "conv2"
  top: "norm2"
  lrn_param {
    local_size: 5
    alpha: 0.0001
    beta: 0.75
  }
}
layer {
  name: "pool2"
  type: "Pooling"
  bottom: "norm2"
  top: "pool2"
  pooling_param {
    pool: MAX
    kernel_size: 3
    stride: 2
  }
}
layer {
  name: "conv3"
  type: "Convolution"
  bottom: "pool2"
  top: "conv3"
  param {
    lr_mult: 1
    decay_mult: 1
  }
  param {
    lr_mult: 2
    decay_mult: 0
  }
  convolution_param {
    num_output: 384
    pad: 1
    kernel_size: 3
    weight_filler {
      type: "gaussian"
      std: 0.01
    }
    bias_filler {
      type: "constant"
      value: 0
    }
  }
}
layer {
  name: "relu3"
  type: "ReLU"
  bottom: "conv3"
  top: "conv3"
}
layer {
  name: "conv4"
  type: "Convolution"
  bottom: "conv3"
  top: "conv4"
  param {
    lr_mult: 1
    decay_mult: 1
  }
  param {
    lr_mult: 2
    decay_mult: 0
  }
  convolution_param {
    num_output: 384
    pad: 1
    kernel_size: 3
    group: 2
    weight_filler {
      type: "gaussian"
      std: 0.01
    }
    bias_filler {
      type: "constant"
      value: 0.1
    }
  }
}
layer {
  name: "relu4"
  type: "ReLU"
  bottom: "conv4"
  top: "conv4"
}
layer {
  name: "conv5"
  type: "Convolution"
  bottom: "conv4"
  top: "conv5"
  param {
    lr_mult: 1
    decay_mult: 1
  }
  param {
    lr_mult: 2
    decay_mult: 0
  }
  convolution_param {
    num_output: 256
    pad: 1
    kernel_size: 3
    group: 2
    weight_filler {
      type: "gaussian"
      std: 0.01
    }
    bias_filler {
      type: "constant"
      value: 0.1
    }
  }
}
layer {
  name: "relu5"
  type: "ReLU"
  bottom: "conv5"
  top: "conv5"
}
layer {
  name: "pool5"
  type: "Pooling"
  bottom: "conv5"
  top: "pool5"
  pooling_param {
    pool: MAX
    kernel_size: 3
    stride: 2
  }
}
layer {
  name: "fc6"
  type: "InnerProduct"
  bottom: "pool5"
  top: "fc6"
  param {
    lr_mult: 1
    decay_mult: 1
  }
  param {
    lr_mult: 2
    decay_mult: 0
  }
  inner_product_param {
    num_output: 4096
    weight_filler {
      type: "gaussian"
      std: 0.005
    }
    bias_filler {
      type: "constant"
      value: 0.1
    }
  }
}
layer {
  name: "relu6"
  type: "ReLU"
  bottom: "fc6"
  top: "fc6"
}
layer {
  name: "drop6"
  type: "Dropout"
  bottom: "fc6"
  top: "fc6"
  dropout_param {
    dropout_ratio: 0.5
  }
}
layer {
  name: "fc7"
  type: "InnerProduct"
  bottom: "fc6"
  top: "fc7"
  param {
    lr_mult: 1
    decay_mult: 1
  }
  param {
    lr_mult: 2
    decay_mult: 0
  }
  inner_product_param {
    num_output: 4096
    weight_filler {
      type: "gaussian"
      std: 0.005
    }
    bias_filler {
      type: "constant"
      value: 0.1
    }
  }
}
layer {
  name: "relu7"
  type: "ReLU"
  bottom: "fc7"
  top: "fc7"
}
layer {
  name: "drop7"
  type: "Dropout"
  bottom: "fc7"
  top: "fc7"
  dropout_param {
    dropout_ratio: 0.5
  }
}
layer {
  name: "fc8_plantvillage"
  type: "InnerProduct"
  bottom: "fc7"
  top: "fc8_plantvillage"
  param {
    lr_mult: 1
    decay_mult: 1
  }
  param {
    lr_mult: 2
    decay_mult: 0
  }
  inner_product_param {
    num_output: 38
    weight_filler {
      type: "gaussian"
      std: 0.01
    }
    bias_filler {
      type: "constant"
      value: 0
    }
  }
}
layer {
  name: "prob"
  type: "Softmax"
  bottom: "fc8_plantvillage"
  top: "prob"
  include {
    phase: TEST
  }
}
layer {
  name: "hdf5out"
  type: "HDF5Output"
  bottom: "prob"
  bottom: "label"
  include {
    phase: TEST
  }
  hdf5_output_param {
    file_name: "hdf5_dumps/iter_12180.h5"
  }
}
layer {
  name: "loss"
  type: "SoftmaxWithLoss"
  bottom: "fc8_plantvillage"
  bottom: "label"
  top: "loss"
}
layer {
  name: "accuracy"
  type: "Accuracy"
  bottom: "fc8_plantvillage"
  bottom: "label"
  top: "accuracy"
  include {
    phase: TEST
  }
}
I0403 15:02:18.237064 30926 layer_factory.hpp:77] Creating layer data
I0403 15:02:18.237725 30926 net.cpp:91] Creating Layer data
I0403 15:02:18.237756 30926 net.cpp:399] data -> data
I0403 15:02:18.237810 30926 net.cpp:399] data -> label
I0403 15:02:18.237848 30926 data_transformer.cpp:25] Loading mean file from: /home/mohanty/data/final_dataset/lmdb/segmented-80-20/mean.binaryproto
I0403 15:02:18.240525 30928 db_lmdb.cpp:38] Opened lmdb /home/mohanty/data/final_dataset/lmdb/segmented-80-20/test_db
I0403 15:02:18.252142 30926 data_layer.cpp:41] output data size: 100,3,227,227
I0403 15:02:18.384832 30926 net.cpp:141] Setting up data
I0403 15:02:18.384919 30926 net.cpp:148] Top shape: 100 3 227 227 (15458700)
I0403 15:02:18.384943 30926 net.cpp:148] Top shape: 100 (100)
I0403 15:02:18.384958 30926 net.cpp:156] Memory required for data: 61835200
I0403 15:02:18.384986 30926 layer_factory.hpp:77] Creating layer label_data_1_split
I0403 15:02:18.385012 30926 net.cpp:91] Creating Layer label_data_1_split
I0403 15:02:18.385030 30926 net.cpp:425] label_data_1_split <- label
I0403 15:02:18.385062 30926 net.cpp:399] label_data_1_split -> label_data_1_split_0
I0403 15:02:18.385089 30926 net.cpp:399] label_data_1_split -> label_data_1_split_1
I0403 15:02:18.385110 30926 net.cpp:399] label_data_1_split -> label_data_1_split_2
I0403 15:02:18.385172 30926 net.cpp:141] Setting up label_data_1_split
I0403 15:02:18.385195 30926 net.cpp:148] Top shape: 100 (100)
I0403 15:02:18.385212 30926 net.cpp:148] Top shape: 100 (100)
I0403 15:02:18.385229 30926 net.cpp:148] Top shape: 100 (100)
I0403 15:02:18.385244 30926 net.cpp:156] Memory required for data: 61836400
I0403 15:02:18.385260 30926 layer_factory.hpp:77] Creating layer conv1
I0403 15:02:18.385295 30926 net.cpp:91] Creating Layer conv1
I0403 15:02:18.385315 30926 net.cpp:425] conv1 <- data
I0403 15:02:18.385336 30926 net.cpp:399] conv1 -> conv1
I0403 15:02:18.529259 30926 net.cpp:141] Setting up conv1
I0403 15:02:18.529335 30926 net.cpp:148] Top shape: 100 96 55 55 (29040000)
I0403 15:02:18.529355 30926 net.cpp:156] Memory required for data: 177996400
I0403 15:02:18.529386 30926 layer_factory.hpp:77] Creating layer relu1
I0403 15:02:18.529412 30926 net.cpp:91] Creating Layer relu1
I0403 15:02:18.529433 30926 net.cpp:425] relu1 <- conv1
I0403 15:02:18.529453 30926 net.cpp:386] relu1 -> conv1 (in-place)
I0403 15:02:18.529721 30926 net.cpp:141] Setting up relu1
I0403 15:02:18.529748 30926 net.cpp:148] Top shape: 100 96 55 55 (29040000)
I0403 15:02:18.529799 30926 net.cpp:156] Memory required for data: 294156400
I0403 15:02:18.529816 30926 layer_factory.hpp:77] Creating layer norm1
I0403 15:02:18.529845 30926 net.cpp:91] Creating Layer norm1
I0403 15:02:18.529865 30926 net.cpp:425] norm1 <- conv1
I0403 15:02:18.529884 30926 net.cpp:399] norm1 -> norm1
I0403 15:02:18.530197 30926 net.cpp:141] Setting up norm1
I0403 15:02:18.530226 30926 net.cpp:148] Top shape: 100 96 55 55 (29040000)
I0403 15:02:18.530242 30926 net.cpp:156] Memory required for data: 410316400
I0403 15:02:18.530258 30926 layer_factory.hpp:77] Creating layer pool1
I0403 15:02:18.530287 30926 net.cpp:91] Creating Layer pool1
I0403 15:02:18.530308 30926 net.cpp:425] pool1 <- norm1
I0403 15:02:18.530328 30926 net.cpp:399] pool1 -> pool1
I0403 15:02:18.530407 30926 net.cpp:141] Setting up pool1
I0403 15:02:18.530460 30926 net.cpp:148] Top shape: 100 96 27 27 (6998400)
I0403 15:02:18.530481 30926 net.cpp:156] Memory required for data: 438310000
I0403 15:02:18.530498 30926 layer_factory.hpp:77] Creating layer conv2
I0403 15:02:18.530524 30926 net.cpp:91] Creating Layer conv2
I0403 15:02:18.530540 30926 net.cpp:425] conv2 <- pool1
I0403 15:02:18.530560 30926 net.cpp:399] conv2 -> conv2
I0403 15:02:18.545212 30926 net.cpp:141] Setting up conv2
I0403 15:02:18.545249 30926 net.cpp:148] Top shape: 100 256 27 27 (18662400)
I0403 15:02:18.545269 30926 net.cpp:156] Memory required for data: 512959600
I0403 15:02:18.545295 30926 layer_factory.hpp:77] Creating layer relu2
I0403 15:02:18.545316 30926 net.cpp:91] Creating Layer relu2
I0403 15:02:18.545334 30926 net.cpp:425] relu2 <- conv2
I0403 15:02:18.545356 30926 net.cpp:386] relu2 -> conv2 (in-place)
I0403 15:02:18.545629 30926 net.cpp:141] Setting up relu2
I0403 15:02:18.545660 30926 net.cpp:148] Top shape: 100 256 27 27 (18662400)
I0403 15:02:18.545676 30926 net.cpp:156] Memory required for data: 587609200
I0403 15:02:18.545692 30926 layer_factory.hpp:77] Creating layer norm2
I0403 15:02:18.545714 30926 net.cpp:91] Creating Layer norm2
I0403 15:02:18.545737 30926 net.cpp:425] norm2 <- conv2
I0403 15:02:18.545758 30926 net.cpp:399] norm2 -> norm2
I0403 15:02:18.545950 30926 net.cpp:141] Setting up norm2
I0403 15:02:18.545979 30926 net.cpp:148] Top shape: 100 256 27 27 (18662400)
I0403 15:02:18.545995 30926 net.cpp:156] Memory required for data: 662258800
I0403 15:02:18.546011 30926 layer_factory.hpp:77] Creating layer pool2
I0403 15:02:18.546030 30926 net.cpp:91] Creating Layer pool2
I0403 15:02:18.546046 30926 net.cpp:425] pool2 <- norm2
I0403 15:02:18.546066 30926 net.cpp:399] pool2 -> pool2
I0403 15:02:18.546119 30926 net.cpp:141] Setting up pool2
I0403 15:02:18.546144 30926 net.cpp:148] Top shape: 100 256 13 13 (4326400)
I0403 15:02:18.546159 30926 net.cpp:156] Memory required for data: 679564400
I0403 15:02:18.546175 30926 layer_factory.hpp:77] Creating layer conv3
I0403 15:02:18.546196 30926 net.cpp:91] Creating Layer conv3
I0403 15:02:18.546214 30926 net.cpp:425] conv3 <- pool2
I0403 15:02:18.546236 30926 net.cpp:399] conv3 -> conv3
I0403 15:02:18.585005 30926 net.cpp:141] Setting up conv3
I0403 15:02:18.585062 30926 net.cpp:148] Top shape: 100 384 13 13 (6489600)
I0403 15:02:18.585080 30926 net.cpp:156] Memory required for data: 705522800
I0403 15:02:18.585108 30926 layer_factory.hpp:77] Creating layer relu3
I0403 15:02:18.585130 30926 net.cpp:91] Creating Layer relu3
I0403 15:02:18.585149 30926 net.cpp:425] relu3 <- conv3
I0403 15:02:18.585168 30926 net.cpp:386] relu3 -> conv3 (in-place)
I0403 15:02:18.585455 30926 net.cpp:141] Setting up relu3
I0403 15:02:18.585487 30926 net.cpp:148] Top shape: 100 384 13 13 (6489600)
I0403 15:02:18.585549 30926 net.cpp:156] Memory required for data: 731481200
I0403 15:02:18.585567 30926 layer_factory.hpp:77] Creating layer conv4
I0403 15:02:18.585594 30926 net.cpp:91] Creating Layer conv4
I0403 15:02:18.585613 30926 net.cpp:425] conv4 <- conv3
I0403 15:02:18.585634 30926 net.cpp:399] conv4 -> conv4
I0403 15:02:18.615834 30926 net.cpp:141] Setting up conv4
I0403 15:02:18.615900 30926 net.cpp:148] Top shape: 100 384 13 13 (6489600)
I0403 15:02:18.615948 30926 net.cpp:156] Memory required for data: 757439600
I0403 15:02:18.615970 30926 layer_factory.hpp:77] Creating layer relu4
I0403 15:02:18.615994 30926 net.cpp:91] Creating Layer relu4
I0403 15:02:18.616014 30926 net.cpp:425] relu4 <- conv4
I0403 15:02:18.616034 30926 net.cpp:386] relu4 -> conv4 (in-place)
I0403 15:02:18.616328 30926 net.cpp:141] Setting up relu4
I0403 15:02:18.616353 30926 net.cpp:148] Top shape: 100 384 13 13 (6489600)
I0403 15:02:18.616369 30926 net.cpp:156] Memory required for data: 783398000
I0403 15:02:18.616385 30926 layer_factory.hpp:77] Creating layer conv5
I0403 15:02:18.616410 30926 net.cpp:91] Creating Layer conv5
I0403 15:02:18.616430 30926 net.cpp:425] conv5 <- conv4
I0403 15:02:18.616452 30926 net.cpp:399] conv5 -> conv5
I0403 15:02:18.636821 30926 net.cpp:141] Setting up conv5
I0403 15:02:18.636855 30926 net.cpp:148] Top shape: 100 256 13 13 (4326400)
I0403 15:02:18.636873 30926 net.cpp:156] Memory required for data: 800703600
I0403 15:02:18.636895 30926 layer_factory.hpp:77] Creating layer relu5
I0403 15:02:18.636919 30926 net.cpp:91] Creating Layer relu5
I0403 15:02:18.636939 30926 net.cpp:425] relu5 <- conv5
I0403 15:02:18.636960 30926 net.cpp:386] relu5 -> conv5 (in-place)
I0403 15:02:18.637269 30926 net.cpp:141] Setting up relu5
I0403 15:02:18.637305 30926 net.cpp:148] Top shape: 100 256 13 13 (4326400)
I0403 15:02:18.637322 30926 net.cpp:156] Memory required for data: 818009200
I0403 15:02:18.637338 30926 layer_factory.hpp:77] Creating layer pool5
I0403 15:02:18.637367 30926 net.cpp:91] Creating Layer pool5
I0403 15:02:18.637384 30926 net.cpp:425] pool5 <- conv5
I0403 15:02:18.637404 30926 net.cpp:399] pool5 -> pool5
I0403 15:02:18.637462 30926 net.cpp:141] Setting up pool5
I0403 15:02:18.637490 30926 net.cpp:148] Top shape: 100 256 6 6 (921600)
I0403 15:02:18.637506 30926 net.cpp:156] Memory required for data: 821695600
I0403 15:02:18.637521 30926 layer_factory.hpp:77] Creating layer fc6
I0403 15:02:18.637548 30926 net.cpp:91] Creating Layer fc6
I0403 15:02:18.637567 30926 net.cpp:425] fc6 <- pool5
I0403 15:02:18.637588 30926 net.cpp:399] fc6 -> fc6
I0403 15:02:20.192356 30926 net.cpp:141] Setting up fc6
I0403 15:02:20.192407 30926 net.cpp:148] Top shape: 100 4096 (409600)
I0403 15:02:20.192425 30926 net.cpp:156] Memory required for data: 823334000
I0403 15:02:20.192447 30926 layer_factory.hpp:77] Creating layer relu6
I0403 15:02:20.192474 30926 net.cpp:91] Creating Layer relu6
I0403 15:02:20.192494 30926 net.cpp:425] relu6 <- fc6
I0403 15:02:20.192514 30926 net.cpp:386] relu6 -> fc6 (in-place)
I0403 15:02:20.192734 30926 net.cpp:141] Setting up relu6
I0403 15:02:20.192762 30926 net.cpp:148] Top shape: 100 4096 (409600)
I0403 15:02:20.192780 30926 net.cpp:156] Memory required for data: 824972400
I0403 15:02:20.192796 30926 layer_factory.hpp:77] Creating layer drop6
I0403 15:02:20.192816 30926 net.cpp:91] Creating Layer drop6
I0403 15:02:20.192831 30926 net.cpp:425] drop6 <- fc6
I0403 15:02:20.192848 30926 net.cpp:386] drop6 -> fc6 (in-place)
I0403 15:02:20.192903 30926 net.cpp:141] Setting up drop6
I0403 15:02:20.192929 30926 net.cpp:148] Top shape: 100 4096 (409600)
I0403 15:02:20.192944 30926 net.cpp:156] Memory required for data: 826610800
I0403 15:02:20.192960 30926 layer_factory.hpp:77] Creating layer fc7
I0403 15:02:20.192982 30926 net.cpp:91] Creating Layer fc7
I0403 15:02:20.193001 30926 net.cpp:425] fc7 <- fc6
I0403 15:02:20.193018 30926 net.cpp:399] fc7 -> fc7
I0403 15:02:20.892429 30926 net.cpp:141] Setting up fc7
I0403 15:02:20.892472 30926 net.cpp:148] Top shape: 100 4096 (409600)
I0403 15:02:20.892488 30926 net.cpp:156] Memory required for data: 828249200
I0403 15:02:20.892509 30926 layer_factory.hpp:77] Creating layer relu7
I0403 15:02:20.892532 30926 net.cpp:91] Creating Layer relu7
I0403 15:02:20.892550 30926 net.cpp:425] relu7 <- fc7
I0403 15:02:20.892570 30926 net.cpp:386] relu7 -> fc7 (in-place)
I0403 15:02:20.912508 30926 net.cpp:141] Setting up relu7
I0403 15:02:20.913368 30926 net.cpp:148] Top shape: 100 4096 (409600)
I0403 15:02:20.913447 30926 net.cpp:156] Memory required for data: 829887600
I0403 15:02:20.913470 30926 layer_factory.hpp:77] Creating layer drop7
I0403 15:02:20.913496 30926 net.cpp:91] Creating Layer drop7
I0403 15:02:20.913514 30926 net.cpp:425] drop7 <- fc7
I0403 15:02:20.913537 30926 net.cpp:386] drop7 -> fc7 (in-place)
I0403 15:02:20.913645 30926 net.cpp:141] Setting up drop7
I0403 15:02:20.913669 30926 net.cpp:148] Top shape: 100 4096 (409600)
I0403 15:02:20.913684 30926 net.cpp:156] Memory required for data: 831526000
I0403 15:02:20.913700 30926 layer_factory.hpp:77] Creating layer fc8_plantvillage
I0403 15:02:20.913723 30926 net.cpp:91] Creating Layer fc8_plantvillage
I0403 15:02:20.913740 30926 net.cpp:425] fc8_plantvillage <- fc7
I0403 15:02:20.913759 30926 net.cpp:399] fc8_plantvillage -> fc8_plantvillage
I0403 15:02:20.932207 30926 net.cpp:141] Setting up fc8_plantvillage
I0403 15:02:20.932281 30926 net.cpp:148] Top shape: 100 38 (3800)
I0403 15:02:20.932312 30926 net.cpp:156] Memory required for data: 831541200
I0403 15:02:20.932348 30926 layer_factory.hpp:77] Creating layer fc8_plantvillage_fc8_plantvillage_0_split
I0403 15:02:20.932392 30926 net.cpp:91] Creating Layer fc8_plantvillage_fc8_plantvillage_0_split
I0403 15:02:20.932415 30926 net.cpp:425] fc8_plantvillage_fc8_plantvillage_0_split <- fc8_plantvillage
I0403 15:02:20.932440 30926 net.cpp:399] fc8_plantvillage_fc8_plantvillage_0_split -> fc8_plantvillage_fc8_plantvillage_0_split_0
I0403 15:02:20.932466 30926 net.cpp:399] fc8_plantvillage_fc8_plantvillage_0_split -> fc8_plantvillage_fc8_plantvillage_0_split_1
I0403 15:02:20.932488 30926 net.cpp:399] fc8_plantvillage_fc8_plantvillage_0_split -> fc8_plantvillage_fc8_plantvillage_0_split_2
I0403 15:02:20.932582 30926 net.cpp:141] Setting up fc8_plantvillage_fc8_plantvillage_0_split
I0403 15:02:20.932608 30926 net.cpp:148] Top shape: 100 38 (3800)
I0403 15:02:20.932634 30926 net.cpp:148] Top shape: 100 38 (3800)
I0403 15:02:20.932654 30926 net.cpp:148] Top shape: 100 38 (3800)
I0403 15:02:20.932682 30926 net.cpp:156] Memory required for data: 831586800
I0403 15:02:20.932713 30926 layer_factory.hpp:77] Creating layer prob
I0403 15:02:20.932739 30926 net.cpp:91] Creating Layer prob
I0403 15:02:20.932756 30926 net.cpp:425] prob <- fc8_plantvillage_fc8_plantvillage_0_split_0
I0403 15:02:20.932776 30926 net.cpp:399] prob -> prob
I0403 15:02:20.933049 30926 net.cpp:141] Setting up prob
I0403 15:02:20.933085 30926 net.cpp:148] Top shape: 100 38 (3800)
I0403 15:02:20.933118 30926 net.cpp:156] Memory required for data: 831602000
I0403 15:02:20.933156 30926 layer_factory.hpp:77] Creating layer hdf5out
I0403 15:02:20.933189 30926 net.cpp:91] Creating Layer hdf5out
I0403 15:02:20.933207 30926 net.cpp:425] hdf5out <- prob
I0403 15:02:20.933224 30926 net.cpp:425] hdf5out <- label_data_1_split_0
I0403 15:02:20.936240 30926 net.cpp:141] Setting up hdf5out
…
