…
I0403 14:53:23.273355 30547 net.cpp:313] The NetState phase (1) differed from the phase (0) specified by a rule in layer data
I0403 14:53:23.273643 30547 net.cpp:49] Initializing net from parameters: 
state {
  phase: TEST
}
layer {
  name: "data"
  type: "Data"
  top: "data"
  top: "label"
  include {
    phase: TEST
  }
  transform_param {
    crop_size: 227
    mean_file: "/home/mohanty/data/final_dataset/lmdb/segmented-80-20/mean.binaryproto"
  }
  data_param {
    source: "/home/mohanty/data/final_dataset/lmdb/segmented-80-20/test_db"
    batch_size: 100
    backend: LMDB
  }
}
layer {
  name: "conv1"
  type: "Convolution"
  bottom: "data"
  top: "conv1"
  param {
    lr_mult: 1
    decay_mult: 1
  }
  param {
    lr_mult: 2
    decay_mult: 0
  }
  convolution_param {
    num_output: 96
    kernel_size: 11
    stride: 4
    weight_filler {
      type: "gaussian"
      std: 0.01
    }
    bias_filler {
      type: "constant"
      value: 0
    }
  }
}
layer {
  name: "relu1"
  type: "ReLU"
  bottom: "conv1"
  top: "conv1"
}
layer {
  name: "norm1"
  type: "LRN"
  bottom: "conv1"
  top: "norm1"
  lrn_param {
    local_size: 5
    alpha: 0.0001
    beta: 0.75
  }
}
layer {
  name: "pool1"
  type: "Pooling"
  bottom: "norm1"
  top: "pool1"
  pooling_param {
    pool: MAX
    kernel_size: 3
    stride: 2
  }
}
layer {
  name: "conv2"
  type: "Convolution"
  bottom: "pool1"
  top: "conv2"
  param {
    lr_mult: 1
    decay_mult: 1
  }
  param {
    lr_mult: 2
    decay_mult: 0
  }
  convolution_param {
    num_output: 256
    pad: 2
    kernel_size: 5
    group: 2
    weight_filler {
      type: "gaussian"
      std: 0.01
    }
    bias_filler {
      type: "constant"
      value: 0.1
    }
  }
}
layer {
  name: "relu2"
  type: "ReLU"
  bottom: "conv2"
  top: "conv2"
}
layer {
  name: "norm2"
  type: "LRN"
  bottom: "conv2"
  top: "norm2"
  lrn_param {
    local_size: 5
    alpha: 0.0001
    beta: 0.75
  }
}
layer {
  name: "pool2"
  type: "Pooling"
  bottom: "norm2"
  top: "pool2"
  pooling_param {
    pool: MAX
    kernel_size: 3
    stride: 2
  }
}
layer {
  name: "conv3"
  type: "Convolution"
  bottom: "pool2"
  top: "conv3"
  param {
    lr_mult: 1
    decay_mult: 1
  }
  param {
    lr_mult: 2
    decay_mult: 0
  }
  convolution_param {
    num_output: 384
    pad: 1
    kernel_size: 3
    weight_filler {
      type: "gaussian"
      std: 0.01
    }
    bias_filler {
      type: "constant"
      value: 0
    }
  }
}
layer {
  name: "relu3"
  type: "ReLU"
  bottom: "conv3"
  top: "conv3"
}
layer {
  name: "conv4"
  type: "Convolution"
  bottom: "conv3"
  top: "conv4"
  param {
    lr_mult: 1
    decay_mult: 1
  }
  param {
    lr_mult: 2
    decay_mult: 0
  }
  convolution_param {
    num_output: 384
    pad: 1
    kernel_size: 3
    group: 2
    weight_filler {
      type: "gaussian"
      std: 0.01
    }
    bias_filler {
      type: "constant"
      value: 0.1
    }
  }
}
layer {
  name: "relu4"
  type: "ReLU"
  bottom: "conv4"
  top: "conv4"
}
layer {
  name: "conv5"
  type: "Convolution"
  bottom: "conv4"
  top: "conv5"
  param {
    lr_mult: 1
    decay_mult: 1
  }
  param {
    lr_mult: 2
    decay_mult: 0
  }
  convolution_param {
    num_output: 256
    pad: 1
    kernel_size: 3
    group: 2
    weight_filler {
      type: "gaussian"
      std: 0.01
    }
    bias_filler {
      type: "constant"
      value: 0.1
    }
  }
}
layer {
  name: "relu5"
  type: "ReLU"
  bottom: "conv5"
  top: "conv5"
}
layer {
  name: "pool5"
  type: "Pooling"
  bottom: "conv5"
  top: "pool5"
  pooling_param {
    pool: MAX
    kernel_size: 3
    stride: 2
  }
}
layer {
  name: "fc6"
  type: "InnerProduct"
  bottom: "pool5"
  top: "fc6"
  param {
    lr_mult: 1
    decay_mult: 1
  }
  param {
    lr_mult: 2
    decay_mult: 0
  }
  inner_product_param {
    num_output: 4096
    weight_filler {
      type: "gaussian"
      std: 0.005
    }
    bias_filler {
      type: "constant"
      value: 0.1
    }
  }
}
layer {
  name: "relu6"
  type: "ReLU"
  bottom: "fc6"
  top: "fc6"
}
layer {
  name: "drop6"
  type: "Dropout"
  bottom: "fc6"
  top: "fc6"
  dropout_param {
    dropout_ratio: 0.5
  }
}
layer {
  name: "fc7"
  type: "InnerProduct"
  bottom: "fc6"
  top: "fc7"
  param {
    lr_mult: 1
    decay_mult: 1
  }
  param {
    lr_mult: 2
    decay_mult: 0
  }
  inner_product_param {
    num_output: 4096
    weight_filler {
      type: "gaussian"
      std: 0.005
    }
    bias_filler {
      type: "constant"
      value: 0.1
    }
  }
}
layer {
  name: "relu7"
  type: "ReLU"
  bottom: "fc7"
  top: "fc7"
}
layer {
  name: "drop7"
  type: "Dropout"
  bottom: "fc7"
  top: "fc7"
  dropout_param {
    dropout_ratio: 0.5
  }
}
layer {
  name: "fc8_plantvillage"
  type: "InnerProduct"
  bottom: "fc7"
  top: "fc8_plantvillage"
  param {
    lr_mult: 1
    decay_mult: 1
  }
  param {
    lr_mult: 2
    decay_mult: 0
  }
  inner_product_param {
    num_output: 38
    weight_filler {
      type: "gaussian"
      std: 0.01
    }
    bias_filler {
      type: "constant"
      value: 0
    }
  }
}
layer {
  name: "prob"
  type: "Softmax"
  bottom: "fc8_plantvillage"
  top: "prob"
  include {
    phase: TEST
  }
}
layer {
  name: "hdf5out"
  type: "HDF5Output"
  bottom: "prob"
  bottom: "label"
  include {
    phase: TEST
  }
  hdf5_output_param {
    file_name: "hdf5_dumps/iter_2610.h5"
  }
}
layer {
  name: "loss"
  type: "SoftmaxWithLoss"
  bottom: "fc8_plantvillage"
  bottom: "label"
  top: "loss"
}
layer {
  name: "accuracy"
  type: "Accuracy"
  bottom: "fc8_plantvillage"
  bottom: "label"
  top: "accuracy"
  include {
    phase: TEST
  }
}
I0403 14:53:23.274282 30547 layer_factory.hpp:77] Creating layer data
I0403 14:53:23.274898 30547 net.cpp:91] Creating Layer data
I0403 14:53:23.274927 30547 net.cpp:399] data -> data
I0403 14:53:23.274979 30547 net.cpp:399] data -> label
I0403 14:53:23.275017 30547 data_transformer.cpp:25] Loading mean file from: /home/mohanty/data/final_dataset/lmdb/segmented-80-20/mean.binaryproto
I0403 14:53:23.278007 30549 db_lmdb.cpp:38] Opened lmdb /home/mohanty/data/final_dataset/lmdb/segmented-80-20/test_db
I0403 14:53:23.288907 30547 data_layer.cpp:41] output data size: 100,3,227,227
I0403 14:53:23.420773 30547 net.cpp:141] Setting up data
I0403 14:53:23.420850 30547 net.cpp:148] Top shape: 100 3 227 227 (15458700)
I0403 14:53:23.420872 30547 net.cpp:148] Top shape: 100 (100)
I0403 14:53:23.420891 30547 net.cpp:156] Memory required for data: 61835200
I0403 14:53:23.420918 30547 layer_factory.hpp:77] Creating layer label_data_1_split
I0403 14:53:23.420943 30547 net.cpp:91] Creating Layer label_data_1_split
I0403 14:53:23.420963 30547 net.cpp:425] label_data_1_split <- label
I0403 14:53:23.420994 30547 net.cpp:399] label_data_1_split -> label_data_1_split_0
I0403 14:53:23.421026 30547 net.cpp:399] label_data_1_split -> label_data_1_split_1
I0403 14:53:23.421047 30547 net.cpp:399] label_data_1_split -> label_data_1_split_2
I0403 14:53:23.421110 30547 net.cpp:141] Setting up label_data_1_split
I0403 14:53:23.421133 30547 net.cpp:148] Top shape: 100 (100)
I0403 14:53:23.421151 30547 net.cpp:148] Top shape: 100 (100)
I0403 14:53:23.421169 30547 net.cpp:148] Top shape: 100 (100)
I0403 14:53:23.421183 30547 net.cpp:156] Memory required for data: 61836400
I0403 14:53:23.421200 30547 layer_factory.hpp:77] Creating layer conv1
I0403 14:53:23.421231 30547 net.cpp:91] Creating Layer conv1
I0403 14:53:23.421249 30547 net.cpp:425] conv1 <- data
I0403 14:53:23.421274 30547 net.cpp:399] conv1 -> conv1
I0403 14:53:23.571362 30547 net.cpp:141] Setting up conv1
I0403 14:53:23.571439 30547 net.cpp:148] Top shape: 100 96 55 55 (29040000)
I0403 14:53:23.571458 30547 net.cpp:156] Memory required for data: 177996400
I0403 14:53:23.571492 30547 layer_factory.hpp:77] Creating layer relu1
I0403 14:53:23.571521 30547 net.cpp:91] Creating Layer relu1
I0403 14:53:23.571542 30547 net.cpp:425] relu1 <- conv1
I0403 14:53:23.571562 30547 net.cpp:386] relu1 -> conv1 (in-place)
I0403 14:53:23.571821 30547 net.cpp:141] Setting up relu1
I0403 14:53:23.571851 30547 net.cpp:148] Top shape: 100 96 55 55 (29040000)
I0403 14:53:23.571902 30547 net.cpp:156] Memory required for data: 294156400
I0403 14:53:23.571919 30547 layer_factory.hpp:77] Creating layer norm1
I0403 14:53:23.571948 30547 net.cpp:91] Creating Layer norm1
I0403 14:53:23.571965 30547 net.cpp:425] norm1 <- conv1
I0403 14:53:23.571985 30547 net.cpp:399] norm1 -> norm1
I0403 14:53:23.572324 30547 net.cpp:141] Setting up norm1
I0403 14:53:23.572353 30547 net.cpp:148] Top shape: 100 96 55 55 (29040000)
I0403 14:53:23.572371 30547 net.cpp:156] Memory required for data: 410316400
I0403 14:53:23.572388 30547 layer_factory.hpp:77] Creating layer pool1
I0403 14:53:23.572412 30547 net.cpp:91] Creating Layer pool1
I0403 14:53:23.572430 30547 net.cpp:425] pool1 <- norm1
I0403 14:53:23.572449 30547 net.cpp:399] pool1 -> pool1
I0403 14:53:23.572518 30547 net.cpp:141] Setting up pool1
I0403 14:53:23.572545 30547 net.cpp:148] Top shape: 100 96 27 27 (6998400)
I0403 14:53:23.572561 30547 net.cpp:156] Memory required for data: 438310000
I0403 14:53:23.572578 30547 layer_factory.hpp:77] Creating layer conv2
I0403 14:53:23.572604 30547 net.cpp:91] Creating Layer conv2
I0403 14:53:23.572621 30547 net.cpp:425] conv2 <- pool1
I0403 14:53:23.572641 30547 net.cpp:399] conv2 -> conv2
I0403 14:53:23.587795 30547 net.cpp:141] Setting up conv2
I0403 14:53:23.587846 30547 net.cpp:148] Top shape: 100 256 27 27 (18662400)
I0403 14:53:23.587863 30547 net.cpp:156] Memory required for data: 512959600
I0403 14:53:23.587888 30547 layer_factory.hpp:77] Creating layer relu2
I0403 14:53:23.587908 30547 net.cpp:91] Creating Layer relu2
I0403 14:53:23.587925 30547 net.cpp:425] relu2 <- conv2
I0403 14:53:23.587944 30547 net.cpp:386] relu2 -> conv2 (in-place)
I0403 14:53:23.588232 30547 net.cpp:141] Setting up relu2
I0403 14:53:23.588265 30547 net.cpp:148] Top shape: 100 256 27 27 (18662400)
I0403 14:53:23.588284 30547 net.cpp:156] Memory required for data: 587609200
I0403 14:53:23.588310 30547 layer_factory.hpp:77] Creating layer norm2
I0403 14:53:23.588335 30547 net.cpp:91] Creating Layer norm2
I0403 14:53:23.588353 30547 net.cpp:425] norm2 <- conv2
I0403 14:53:23.588373 30547 net.cpp:399] norm2 -> norm2
I0403 14:53:23.588577 30547 net.cpp:141] Setting up norm2
I0403 14:53:23.588613 30547 net.cpp:148] Top shape: 100 256 27 27 (18662400)
I0403 14:53:23.588630 30547 net.cpp:156] Memory required for data: 662258800
I0403 14:53:23.588647 30547 layer_factory.hpp:77] Creating layer pool2
I0403 14:53:23.588666 30547 net.cpp:91] Creating Layer pool2
I0403 14:53:23.588683 30547 net.cpp:425] pool2 <- norm2
I0403 14:53:23.588701 30547 net.cpp:399] pool2 -> pool2
I0403 14:53:23.588757 30547 net.cpp:141] Setting up pool2
I0403 14:53:23.588781 30547 net.cpp:148] Top shape: 100 256 13 13 (4326400)
I0403 14:53:23.588798 30547 net.cpp:156] Memory required for data: 679564400
I0403 14:53:23.588814 30547 layer_factory.hpp:77] Creating layer conv3
I0403 14:53:23.588838 30547 net.cpp:91] Creating Layer conv3
I0403 14:53:23.588857 30547 net.cpp:425] conv3 <- pool2
I0403 14:53:23.588877 30547 net.cpp:399] conv3 -> conv3
I0403 14:53:23.626865 30547 net.cpp:141] Setting up conv3
I0403 14:53:23.626924 30547 net.cpp:148] Top shape: 100 384 13 13 (6489600)
I0403 14:53:23.626942 30547 net.cpp:156] Memory required for data: 705522800
I0403 14:53:23.626967 30547 layer_factory.hpp:77] Creating layer relu3
I0403 14:53:23.626988 30547 net.cpp:91] Creating Layer relu3
I0403 14:53:23.627005 30547 net.cpp:425] relu3 <- conv3
I0403 14:53:23.627027 30547 net.cpp:386] relu3 -> conv3 (in-place)
I0403 14:53:23.627338 30547 net.cpp:141] Setting up relu3
I0403 14:53:23.627369 30547 net.cpp:148] Top shape: 100 384 13 13 (6489600)
I0403 14:53:23.627387 30547 net.cpp:156] Memory required for data: 731481200
I0403 14:53:23.627403 30547 layer_factory.hpp:77] Creating layer conv4
I0403 14:53:23.627429 30547 net.cpp:91] Creating Layer conv4
I0403 14:53:23.627446 30547 net.cpp:425] conv4 <- conv3
I0403 14:53:23.627465 30547 net.cpp:399] conv4 -> conv4
I0403 14:53:23.657991 30547 net.cpp:141] Setting up conv4
I0403 14:53:23.658046 30547 net.cpp:148] Top shape: 100 384 13 13 (6489600)
I0403 14:53:23.658098 30547 net.cpp:156] Memory required for data: 757439600
I0403 14:53:23.658123 30547 layer_factory.hpp:77] Creating layer relu4
I0403 14:53:23.658154 30547 net.cpp:91] Creating Layer relu4
I0403 14:53:23.658174 30547 net.cpp:425] relu4 <- conv4
I0403 14:53:23.658195 30547 net.cpp:386] relu4 -> conv4 (in-place)
I0403 14:53:23.658493 30547 net.cpp:141] Setting up relu4
I0403 14:53:23.658524 30547 net.cpp:148] Top shape: 100 384 13 13 (6489600)
I0403 14:53:23.658573 30547 net.cpp:156] Memory required for data: 783398000
I0403 14:53:23.658591 30547 layer_factory.hpp:77] Creating layer conv5
I0403 14:53:23.658620 30547 net.cpp:91] Creating Layer conv5
I0403 14:53:23.658639 30547 net.cpp:425] conv5 <- conv4
I0403 14:53:23.658660 30547 net.cpp:399] conv5 -> conv5
I0403 14:53:23.679849 30547 net.cpp:141] Setting up conv5
I0403 14:53:23.679906 30547 net.cpp:148] Top shape: 100 256 13 13 (4326400)
I0403 14:53:23.679925 30547 net.cpp:156] Memory required for data: 800703600
I0403 14:53:23.679952 30547 layer_factory.hpp:77] Creating layer relu5
I0403 14:53:23.679975 30547 net.cpp:91] Creating Layer relu5
I0403 14:53:23.679993 30547 net.cpp:425] relu5 <- conv5
I0403 14:53:23.680013 30547 net.cpp:386] relu5 -> conv5 (in-place)
I0403 14:53:23.680301 30547 net.cpp:141] Setting up relu5
I0403 14:53:23.680333 30547 net.cpp:148] Top shape: 100 256 13 13 (4326400)
I0403 14:53:23.680351 30547 net.cpp:156] Memory required for data: 818009200
I0403 14:53:23.680367 30547 layer_factory.hpp:77] Creating layer pool5
I0403 14:53:23.680392 30547 net.cpp:91] Creating Layer pool5
I0403 14:53:23.680409 30547 net.cpp:425] pool5 <- conv5
I0403 14:53:23.680431 30547 net.cpp:399] pool5 -> pool5
I0403 14:53:23.680495 30547 net.cpp:141] Setting up pool5
I0403 14:53:23.680521 30547 net.cpp:148] Top shape: 100 256 6 6 (921600)
I0403 14:53:23.680536 30547 net.cpp:156] Memory required for data: 821695600
I0403 14:53:23.680553 30547 layer_factory.hpp:77] Creating layer fc6
I0403 14:53:23.680585 30547 net.cpp:91] Creating Layer fc6
I0403 14:53:23.680604 30547 net.cpp:425] fc6 <- pool5
I0403 14:53:23.680625 30547 net.cpp:399] fc6 -> fc6
I0403 14:53:25.225292 30547 net.cpp:141] Setting up fc6
I0403 14:53:25.225360 30547 net.cpp:148] Top shape: 100 4096 (409600)
I0403 14:53:25.225376 30547 net.cpp:156] Memory required for data: 823334000
I0403 14:53:25.225399 30547 layer_factory.hpp:77] Creating layer relu6
I0403 14:53:25.225431 30547 net.cpp:91] Creating Layer relu6
I0403 14:53:25.225455 30547 net.cpp:425] relu6 <- fc6
I0403 14:53:25.225477 30547 net.cpp:386] relu6 -> fc6 (in-place)
I0403 14:53:25.225692 30547 net.cpp:141] Setting up relu6
I0403 14:53:25.225718 30547 net.cpp:148] Top shape: 100 4096 (409600)
I0403 14:53:25.225744 30547 net.cpp:156] Memory required for data: 824972400
I0403 14:53:25.225759 30547 layer_factory.hpp:77] Creating layer drop6
I0403 14:53:25.225777 30547 net.cpp:91] Creating Layer drop6
I0403 14:53:25.225793 30547 net.cpp:425] drop6 <- fc6
I0403 14:53:25.225811 30547 net.cpp:386] drop6 -> fc6 (in-place)
I0403 14:53:25.225860 30547 net.cpp:141] Setting up drop6
I0403 14:53:25.225884 30547 net.cpp:148] Top shape: 100 4096 (409600)
I0403 14:53:25.225900 30547 net.cpp:156] Memory required for data: 826610800
I0403 14:53:25.225915 30547 layer_factory.hpp:77] Creating layer fc7
I0403 14:53:25.225936 30547 net.cpp:91] Creating Layer fc7
I0403 14:53:25.225953 30547 net.cpp:425] fc7 <- fc6
I0403 14:53:25.225972 30547 net.cpp:399] fc7 -> fc7
I0403 14:53:25.906215 30547 net.cpp:141] Setting up fc7
I0403 14:53:25.906283 30547 net.cpp:148] Top shape: 100 4096 (409600)
I0403 14:53:25.906302 30547 net.cpp:156] Memory required for data: 828249200
I0403 14:53:25.906324 30547 layer_factory.hpp:77] Creating layer relu7
I0403 14:53:25.906350 30547 net.cpp:91] Creating Layer relu7
I0403 14:53:25.906371 30547 net.cpp:425] relu7 <- fc7
I0403 14:53:25.906391 30547 net.cpp:386] relu7 -> fc7 (in-place)
I0403 14:53:25.906774 30547 net.cpp:141] Setting up relu7
I0403 14:53:25.906803 30547 net.cpp:148] Top shape: 100 4096 (409600)
I0403 14:53:25.906852 30547 net.cpp:156] Memory required for data: 829887600
I0403 14:53:25.906869 30547 layer_factory.hpp:77] Creating layer drop7
I0403 14:53:25.906889 30547 net.cpp:91] Creating Layer drop7
I0403 14:53:25.906906 30547 net.cpp:425] drop7 <- fc7
I0403 14:53:25.906924 30547 net.cpp:386] drop7 -> fc7 (in-place)
I0403 14:53:25.906968 30547 net.cpp:141] Setting up drop7
I0403 14:53:25.906991 30547 net.cpp:148] Top shape: 100 4096 (409600)
I0403 14:53:25.907007 30547 net.cpp:156] Memory required for data: 831526000
I0403 14:53:25.907022 30547 layer_factory.hpp:77] Creating layer fc8_plantvillage
I0403 14:53:25.907045 30547 net.cpp:91] Creating Layer fc8_plantvillage
I0403 14:53:25.907063 30547 net.cpp:425] fc8_plantvillage <- fc7
I0403 14:53:25.907080 30547 net.cpp:399] fc8_plantvillage -> fc8_plantvillage
I0403 14:53:25.913607 30547 net.cpp:141] Setting up fc8_plantvillage
I0403 14:53:25.913636 30547 net.cpp:148] Top shape: 100 38 (3800)
I0403 14:53:25.913652 30547 net.cpp:156] Memory required for data: 831541200
I0403 14:53:25.913671 30547 layer_factory.hpp:77] Creating layer fc8_plantvillage_fc8_plantvillage_0_split
I0403 14:53:25.913689 30547 net.cpp:91] Creating Layer fc8_plantvillage_fc8_plantvillage_0_split
I0403 14:53:25.913705 30547 net.cpp:425] fc8_plantvillage_fc8_plantvillage_0_split <- fc8_plantvillage
I0403 14:53:25.913723 30547 net.cpp:399] fc8_plantvillage_fc8_plantvillage_0_split -> fc8_plantvillage_fc8_plantvillage_0_split_0
I0403 14:53:25.913746 30547 net.cpp:399] fc8_plantvillage_fc8_plantvillage_0_split -> fc8_plantvillage_fc8_plantvillage_0_split_1
I0403 14:53:25.913768 30547 net.cpp:399] fc8_plantvillage_fc8_plantvillage_0_split -> fc8_plantvillage_fc8_plantvillage_0_split_2
I0403 14:53:25.913846 30547 net.cpp:141] Setting up fc8_plantvillage_fc8_plantvillage_0_split
I0403 14:53:25.913871 30547 net.cpp:148] Top shape: 100 38 (3800)
I0403 14:53:25.913887 30547 net.cpp:148] Top shape: 100 38 (3800)
I0403 14:53:25.913902 30547 net.cpp:148] Top shape: 100 38 (3800)
I0403 14:53:25.913918 30547 net.cpp:156] Memory required for data: 831586800
I0403 14:53:25.913933 30547 layer_factory.hpp:77] Creating layer prob
I0403 14:53:25.913950 30547 net.cpp:91] Creating Layer prob
I0403 14:53:25.913965 30547 net.cpp:425] prob <- fc8_plantvillage_fc8_plantvillage_0_split_0
I0403 14:53:25.913983 30547 net.cpp:399] prob -> prob
I0403 14:53:25.914206 30547 net.cpp:141] Setting up prob
I0403 14:53:25.914232 30547 net.cpp:148] Top shape: 100 38 (3800)
I0403 14:53:25.914248 30547 net.cpp:156] Memory required for data: 831602000
I0403 14:53:25.914275 30547 layer_factory.hpp:77] Creating layer hdf5out
I0403 14:53:25.914299 30547 net.cpp:91] Creating Layer hdf5out
I0403 14:53:25.914316 30547 net.cpp:425] hdf5out <- prob
I0403 14:53:25.914333 30547 net.cpp:425] hdf5out <- label_data_1_split_0
I0403 14:53:25.918262 30547 net.cpp:141] Setting up hdf5out
…
