…
I0403 14:55:23.822527 30619 net.cpp:313] The NetState phase (1) differed from the phase (0) specified by a rule in layer data
I0403 14:55:23.822820 30619 net.cpp:49] Initializing net from parameters: 
state {
  phase: TEST
}
layer {
  name: "data"
  type: "Data"
  top: "data"
  top: "label"
  include {
    phase: TEST
  }
  transform_param {
    crop_size: 227
    mean_file: "/home/mohanty/data/final_dataset/lmdb/segmented-80-20/mean.binaryproto"
  }
  data_param {
    source: "/home/mohanty/data/final_dataset/lmdb/segmented-80-20/test_db"
    batch_size: 100
    backend: LMDB
  }
}
layer {
  name: "conv1"
  type: "Convolution"
  bottom: "data"
  top: "conv1"
  param {
    lr_mult: 1
    decay_mult: 1
  }
  param {
    lr_mult: 2
    decay_mult: 0
  }
  convolution_param {
    num_output: 96
    kernel_size: 11
    stride: 4
    weight_filler {
      type: "gaussian"
      std: 0.01
    }
    bias_filler {
      type: "constant"
      value: 0
    }
  }
}
layer {
  name: "relu1"
  type: "ReLU"
  bottom: "conv1"
  top: "conv1"
}
layer {
  name: "norm1"
  type: "LRN"
  bottom: "conv1"
  top: "norm1"
  lrn_param {
    local_size: 5
    alpha: 0.0001
    beta: 0.75
  }
}
layer {
  name: "pool1"
  type: "Pooling"
  bottom: "norm1"
  top: "pool1"
  pooling_param {
    pool: MAX
    kernel_size: 3
    stride: 2
  }
}
layer {
  name: "conv2"
  type: "Convolution"
  bottom: "pool1"
  top: "conv2"
  param {
    lr_mult: 1
    decay_mult: 1
  }
  param {
    lr_mult: 2
    decay_mult: 0
  }
  convolution_param {
    num_output: 256
    pad: 2
    kernel_size: 5
    group: 2
    weight_filler {
      type: "gaussian"
      std: 0.01
    }
    bias_filler {
      type: "constant"
      value: 0.1
    }
  }
}
layer {
  name: "relu2"
  type: "ReLU"
  bottom: "conv2"
  top: "conv2"
}
layer {
  name: "norm2"
  type: "LRN"
  bottom: "conv2"
  top: "norm2"
  lrn_param {
    local_size: 5
    alpha: 0.0001
    beta: 0.75
  }
}
layer {
  name: "pool2"
  type: "Pooling"
  bottom: "norm2"
  top: "pool2"
  pooling_param {
    pool: MAX
    kernel_size: 3
    stride: 2
  }
}
layer {
  name: "conv3"
  type: "Convolution"
  bottom: "pool2"
  top: "conv3"
  param {
    lr_mult: 1
    decay_mult: 1
  }
  param {
    lr_mult: 2
    decay_mult: 0
  }
  convolution_param {
    num_output: 384
    pad: 1
    kernel_size: 3
    weight_filler {
      type: "gaussian"
      std: 0.01
    }
    bias_filler {
      type: "constant"
      value: 0
    }
  }
}
layer {
  name: "relu3"
  type: "ReLU"
  bottom: "conv3"
  top: "conv3"
}
layer {
  name: "conv4"
  type: "Convolution"
  bottom: "conv3"
  top: "conv4"
  param {
    lr_mult: 1
    decay_mult: 1
  }
  param {
    lr_mult: 2
    decay_mult: 0
  }
  convolution_param {
    num_output: 384
    pad: 1
    kernel_size: 3
    group: 2
    weight_filler {
      type: "gaussian"
      std: 0.01
    }
    bias_filler {
      type: "constant"
      value: 0.1
    }
  }
}
layer {
  name: "relu4"
  type: "ReLU"
  bottom: "conv4"
  top: "conv4"
}
layer {
  name: "conv5"
  type: "Convolution"
  bottom: "conv4"
  top: "conv5"
  param {
    lr_mult: 1
    decay_mult: 1
  }
  param {
    lr_mult: 2
    decay_mult: 0
  }
  convolution_param {
    num_output: 256
    pad: 1
    kernel_size: 3
    group: 2
    weight_filler {
      type: "gaussian"
      std: 0.01
    }
    bias_filler {
      type: "constant"
      value: 0.1
    }
  }
}
layer {
  name: "relu5"
  type: "ReLU"
  bottom: "conv5"
  top: "conv5"
}
layer {
  name: "pool5"
  type: "Pooling"
  bottom: "conv5"
  top: "pool5"
  pooling_param {
    pool: MAX
    kernel_size: 3
    stride: 2
  }
}
layer {
  name: "fc6"
  type: "InnerProduct"
  bottom: "pool5"
  top: "fc6"
  param {
    lr_mult: 1
    decay_mult: 1
  }
  param {
    lr_mult: 2
    decay_mult: 0
  }
  inner_product_param {
    num_output: 4096
    weight_filler {
      type: "gaussian"
      std: 0.005
    }
    bias_filler {
      type: "constant"
      value: 0.1
    }
  }
}
layer {
  name: "relu6"
  type: "ReLU"
  bottom: "fc6"
  top: "fc6"
}
layer {
  name: "drop6"
  type: "Dropout"
  bottom: "fc6"
  top: "fc6"
  dropout_param {
    dropout_ratio: 0.5
  }
}
layer {
  name: "fc7"
  type: "InnerProduct"
  bottom: "fc6"
  top: "fc7"
  param {
    lr_mult: 1
    decay_mult: 1
  }
  param {
    lr_mult: 2
    decay_mult: 0
  }
  inner_product_param {
    num_output: 4096
    weight_filler {
      type: "gaussian"
      std: 0.005
    }
    bias_filler {
      type: "constant"
      value: 0.1
    }
  }
}
layer {
  name: "relu7"
  type: "ReLU"
  bottom: "fc7"
  top: "fc7"
}
layer {
  name: "drop7"
  type: "Dropout"
  bottom: "fc7"
  top: "fc7"
  dropout_param {
    dropout_ratio: 0.5
  }
}
layer {
  name: "fc8_plantvillage"
  type: "InnerProduct"
  bottom: "fc7"
  top: "fc8_plantvillage"
  param {
    lr_mult: 1
    decay_mult: 1
  }
  param {
    lr_mult: 2
    decay_mult: 0
  }
  inner_product_param {
    num_output: 38
    weight_filler {
      type: "gaussian"
      std: 0.01
    }
    bias_filler {
      type: "constant"
      value: 0
    }
  }
}
layer {
  name: "prob"
  type: "Softmax"
  bottom: "fc8_plantvillage"
  top: "prob"
  include {
    phase: TEST
  }
}
layer {
  name: "hdf5out"
  type: "HDF5Output"
  bottom: "prob"
  bottom: "label"
  include {
    phase: TEST
  }
  hdf5_output_param {
    file_name: "hdf5_dumps/iter_4785.h5"
  }
}
layer {
  name: "loss"
  type: "SoftmaxWithLoss"
  bottom: "fc8_plantvillage"
  bottom: "label"
  top: "loss"
}
layer {
  name: "accuracy"
  type: "Accuracy"
  bottom: "fc8_plantvillage"
  bottom: "label"
  top: "accuracy"
  include {
    phase: TEST
  }
}
I0403 14:55:23.823429 30619 layer_factory.hpp:77] Creating layer data
I0403 14:55:23.824082 30619 net.cpp:91] Creating Layer data
I0403 14:55:23.824115 30619 net.cpp:399] data -> data
I0403 14:55:23.824167 30619 net.cpp:399] data -> label
I0403 14:55:23.824204 30619 data_transformer.cpp:25] Loading mean file from: /home/mohanty/data/final_dataset/lmdb/segmented-80-20/mean.binaryproto
I0403 14:55:23.826668 30621 db_lmdb.cpp:38] Opened lmdb /home/mohanty/data/final_dataset/lmdb/segmented-80-20/test_db
I0403 14:55:23.838704 30619 data_layer.cpp:41] output data size: 100,3,227,227
I0403 14:55:23.973925 30619 net.cpp:141] Setting up data
I0403 14:55:23.973987 30619 net.cpp:148] Top shape: 100 3 227 227 (15458700)
I0403 14:55:23.974012 30619 net.cpp:148] Top shape: 100 (100)
I0403 14:55:23.974030 30619 net.cpp:156] Memory required for data: 61835200
I0403 14:55:23.974056 30619 layer_factory.hpp:77] Creating layer label_data_1_split
I0403 14:55:23.974082 30619 net.cpp:91] Creating Layer label_data_1_split
I0403 14:55:23.974102 30619 net.cpp:425] label_data_1_split <- label
I0403 14:55:23.974133 30619 net.cpp:399] label_data_1_split -> label_data_1_split_0
I0403 14:55:23.974162 30619 net.cpp:399] label_data_1_split -> label_data_1_split_1
I0403 14:55:23.974184 30619 net.cpp:399] label_data_1_split -> label_data_1_split_2
I0403 14:55:23.974249 30619 net.cpp:141] Setting up label_data_1_split
I0403 14:55:23.974273 30619 net.cpp:148] Top shape: 100 (100)
I0403 14:55:23.974304 30619 net.cpp:148] Top shape: 100 (100)
I0403 14:55:23.974324 30619 net.cpp:148] Top shape: 100 (100)
I0403 14:55:23.974340 30619 net.cpp:156] Memory required for data: 61836400
I0403 14:55:23.974356 30619 layer_factory.hpp:77] Creating layer conv1
I0403 14:55:23.974390 30619 net.cpp:91] Creating Layer conv1
I0403 14:55:23.974411 30619 net.cpp:425] conv1 <- data
I0403 14:55:23.974431 30619 net.cpp:399] conv1 -> conv1
I0403 14:55:24.121736 30619 net.cpp:141] Setting up conv1
I0403 14:55:24.121801 30619 net.cpp:148] Top shape: 100 96 55 55 (29040000)
I0403 14:55:24.121819 30619 net.cpp:156] Memory required for data: 177996400
I0403 14:55:24.121852 30619 layer_factory.hpp:77] Creating layer relu1
I0403 14:55:24.121884 30619 net.cpp:91] Creating Layer relu1
I0403 14:55:24.121904 30619 net.cpp:425] relu1 <- conv1
I0403 14:55:24.121930 30619 net.cpp:386] relu1 -> conv1 (in-place)
I0403 14:55:24.122212 30619 net.cpp:141] Setting up relu1
I0403 14:55:24.122244 30619 net.cpp:148] Top shape: 100 96 55 55 (29040000)
I0403 14:55:24.122298 30619 net.cpp:156] Memory required for data: 294156400
I0403 14:55:24.122316 30619 layer_factory.hpp:77] Creating layer norm1
I0403 14:55:24.122349 30619 net.cpp:91] Creating Layer norm1
I0403 14:55:24.122370 30619 net.cpp:425] norm1 <- conv1
I0403 14:55:24.122388 30619 net.cpp:399] norm1 -> norm1
I0403 14:55:24.122730 30619 net.cpp:141] Setting up norm1
I0403 14:55:24.122758 30619 net.cpp:148] Top shape: 100 96 55 55 (29040000)
I0403 14:55:24.122776 30619 net.cpp:156] Memory required for data: 410316400
I0403 14:55:24.122792 30619 layer_factory.hpp:77] Creating layer pool1
I0403 14:55:24.122819 30619 net.cpp:91] Creating Layer pool1
I0403 14:55:24.122838 30619 net.cpp:425] pool1 <- norm1
I0403 14:55:24.122859 30619 net.cpp:399] pool1 -> pool1
I0403 14:55:24.122932 30619 net.cpp:141] Setting up pool1
I0403 14:55:24.122957 30619 net.cpp:148] Top shape: 100 96 27 27 (6998400)
I0403 14:55:24.122974 30619 net.cpp:156] Memory required for data: 438310000
I0403 14:55:24.122990 30619 layer_factory.hpp:77] Creating layer conv2
I0403 14:55:24.123019 30619 net.cpp:91] Creating Layer conv2
I0403 14:55:24.123039 30619 net.cpp:425] conv2 <- pool1
I0403 14:55:24.123059 30619 net.cpp:399] conv2 -> conv2
I0403 14:55:24.138769 30619 net.cpp:141] Setting up conv2
I0403 14:55:24.138854 30619 net.cpp:148] Top shape: 100 256 27 27 (18662400)
I0403 14:55:24.138875 30619 net.cpp:156] Memory required for data: 512959600
I0403 14:55:24.138900 30619 layer_factory.hpp:77] Creating layer relu2
I0403 14:55:24.138924 30619 net.cpp:91] Creating Layer relu2
I0403 14:55:24.138945 30619 net.cpp:425] relu2 <- conv2
I0403 14:55:24.138964 30619 net.cpp:386] relu2 -> conv2 (in-place)
I0403 14:55:24.139257 30619 net.cpp:141] Setting up relu2
I0403 14:55:24.139291 30619 net.cpp:148] Top shape: 100 256 27 27 (18662400)
I0403 14:55:24.139310 30619 net.cpp:156] Memory required for data: 587609200
I0403 14:55:24.139327 30619 layer_factory.hpp:77] Creating layer norm2
I0403 14:55:24.139351 30619 net.cpp:91] Creating Layer norm2
I0403 14:55:24.139372 30619 net.cpp:425] norm2 <- conv2
I0403 14:55:24.139394 30619 net.cpp:399] norm2 -> norm2
I0403 14:55:24.139598 30619 net.cpp:141] Setting up norm2
I0403 14:55:24.139626 30619 net.cpp:148] Top shape: 100 256 27 27 (18662400)
I0403 14:55:24.139643 30619 net.cpp:156] Memory required for data: 662258800
I0403 14:55:24.139658 30619 layer_factory.hpp:77] Creating layer pool2
I0403 14:55:24.139678 30619 net.cpp:91] Creating Layer pool2
I0403 14:55:24.139694 30619 net.cpp:425] pool2 <- norm2
I0403 14:55:24.139715 30619 net.cpp:399] pool2 -> pool2
I0403 14:55:24.139771 30619 net.cpp:141] Setting up pool2
I0403 14:55:24.139796 30619 net.cpp:148] Top shape: 100 256 13 13 (4326400)
I0403 14:55:24.139811 30619 net.cpp:156] Memory required for data: 679564400
I0403 14:55:24.139827 30619 layer_factory.hpp:77] Creating layer conv3
I0403 14:55:24.139856 30619 net.cpp:91] Creating Layer conv3
I0403 14:55:24.139874 30619 net.cpp:425] conv3 <- pool2
I0403 14:55:24.139894 30619 net.cpp:399] conv3 -> conv3
I0403 14:55:24.179951 30619 net.cpp:141] Setting up conv3
I0403 14:55:24.180016 30619 net.cpp:148] Top shape: 100 384 13 13 (6489600)
I0403 14:55:24.180034 30619 net.cpp:156] Memory required for data: 705522800
I0403 14:55:24.180060 30619 layer_factory.hpp:77] Creating layer relu3
I0403 14:55:24.180085 30619 net.cpp:91] Creating Layer relu3
I0403 14:55:24.180104 30619 net.cpp:425] relu3 <- conv3
I0403 14:55:24.180124 30619 net.cpp:386] relu3 -> conv3 (in-place)
I0403 14:55:24.180409 30619 net.cpp:141] Setting up relu3
I0403 14:55:24.180439 30619 net.cpp:148] Top shape: 100 384 13 13 (6489600)
I0403 14:55:24.180455 30619 net.cpp:156] Memory required for data: 731481200
I0403 14:55:24.180472 30619 layer_factory.hpp:77] Creating layer conv4
I0403 14:55:24.180498 30619 net.cpp:91] Creating Layer conv4
I0403 14:55:24.180517 30619 net.cpp:425] conv4 <- conv3
I0403 14:55:24.180539 30619 net.cpp:399] conv4 -> conv4
I0403 14:55:24.211951 30619 net.cpp:141] Setting up conv4
I0403 14:55:24.211988 30619 net.cpp:148] Top shape: 100 384 13 13 (6489600)
I0403 14:55:24.212039 30619 net.cpp:156] Memory required for data: 757439600
I0403 14:55:24.212062 30619 layer_factory.hpp:77] Creating layer relu4
I0403 14:55:24.212083 30619 net.cpp:91] Creating Layer relu4
I0403 14:55:24.212102 30619 net.cpp:425] relu4 <- conv4
I0403 14:55:24.212126 30619 net.cpp:386] relu4 -> conv4 (in-place)
I0403 14:55:24.212460 30619 net.cpp:141] Setting up relu4
I0403 14:55:24.212489 30619 net.cpp:148] Top shape: 100 384 13 13 (6489600)
I0403 14:55:24.212507 30619 net.cpp:156] Memory required for data: 783398000
I0403 14:55:24.212523 30619 layer_factory.hpp:77] Creating layer conv5
I0403 14:55:24.212549 30619 net.cpp:91] Creating Layer conv5
I0403 14:55:24.212568 30619 net.cpp:425] conv5 <- conv4
I0403 14:55:24.212592 30619 net.cpp:399] conv5 -> conv5
I0403 14:55:24.234318 30619 net.cpp:141] Setting up conv5
I0403 14:55:24.234375 30619 net.cpp:148] Top shape: 100 256 13 13 (4326400)
I0403 14:55:24.234392 30619 net.cpp:156] Memory required for data: 800703600
I0403 14:55:24.234421 30619 layer_factory.hpp:77] Creating layer relu5
I0403 14:55:24.234442 30619 net.cpp:91] Creating Layer relu5
I0403 14:55:24.234460 30619 net.cpp:425] relu5 <- conv5
I0403 14:55:24.234483 30619 net.cpp:386] relu5 -> conv5 (in-place)
I0403 14:55:24.234858 30619 net.cpp:141] Setting up relu5
I0403 14:55:24.234886 30619 net.cpp:148] Top shape: 100 256 13 13 (4326400)
I0403 14:55:24.234904 30619 net.cpp:156] Memory required for data: 818009200
I0403 14:55:24.234920 30619 layer_factory.hpp:77] Creating layer pool5
I0403 14:55:24.234946 30619 net.cpp:91] Creating Layer pool5
I0403 14:55:24.234963 30619 net.cpp:425] pool5 <- conv5
I0403 14:55:24.234983 30619 net.cpp:399] pool5 -> pool5
I0403 14:55:24.235050 30619 net.cpp:141] Setting up pool5
I0403 14:55:24.235076 30619 net.cpp:148] Top shape: 100 256 6 6 (921600)
I0403 14:55:24.235092 30619 net.cpp:156] Memory required for data: 821695600
I0403 14:55:24.235108 30619 layer_factory.hpp:77] Creating layer fc6
I0403 14:55:24.235138 30619 net.cpp:91] Creating Layer fc6
I0403 14:55:24.235158 30619 net.cpp:425] fc6 <- pool5
I0403 14:55:24.235178 30619 net.cpp:399] fc6 -> fc6
I0403 14:55:25.810668 30619 net.cpp:141] Setting up fc6
I0403 14:55:25.810711 30619 net.cpp:148] Top shape: 100 4096 (409600)
I0403 14:55:25.810729 30619 net.cpp:156] Memory required for data: 823334000
I0403 14:55:25.810752 30619 layer_factory.hpp:77] Creating layer relu6
I0403 14:55:25.810775 30619 net.cpp:91] Creating Layer relu6
I0403 14:55:25.810794 30619 net.cpp:425] relu6 <- fc6
I0403 14:55:25.810817 30619 net.cpp:386] relu6 -> fc6 (in-place)
I0403 14:55:25.811039 30619 net.cpp:141] Setting up relu6
I0403 14:55:25.811065 30619 net.cpp:148] Top shape: 100 4096 (409600)
I0403 14:55:25.811081 30619 net.cpp:156] Memory required for data: 824972400
I0403 14:55:25.811097 30619 layer_factory.hpp:77] Creating layer drop6
I0403 14:55:25.811117 30619 net.cpp:91] Creating Layer drop6
I0403 14:55:25.811133 30619 net.cpp:425] drop6 <- fc6
I0403 14:55:25.811154 30619 net.cpp:386] drop6 -> fc6 (in-place)
I0403 14:55:25.811205 30619 net.cpp:141] Setting up drop6
I0403 14:55:25.811233 30619 net.cpp:148] Top shape: 100 4096 (409600)
I0403 14:55:25.811249 30619 net.cpp:156] Memory required for data: 826610800
I0403 14:55:25.811265 30619 layer_factory.hpp:77] Creating layer fc7
I0403 14:55:25.811290 30619 net.cpp:91] Creating Layer fc7
I0403 14:55:25.811308 30619 net.cpp:425] fc7 <- fc6
I0403 14:55:25.811334 30619 net.cpp:399] fc7 -> fc7
I0403 14:55:26.504844 30619 net.cpp:141] Setting up fc7
I0403 14:55:26.504914 30619 net.cpp:148] Top shape: 100 4096 (409600)
I0403 14:55:26.504930 30619 net.cpp:156] Memory required for data: 828249200
I0403 14:55:26.504952 30619 layer_factory.hpp:77] Creating layer relu7
I0403 14:55:26.504973 30619 net.cpp:91] Creating Layer relu7
I0403 14:55:26.504995 30619 net.cpp:425] relu7 <- fc7
I0403 14:55:26.505015 30619 net.cpp:386] relu7 -> fc7 (in-place)
I0403 14:55:26.505404 30619 net.cpp:141] Setting up relu7
I0403 14:55:26.505431 30619 net.cpp:148] Top shape: 100 4096 (409600)
I0403 14:55:26.505481 30619 net.cpp:156] Memory required for data: 829887600
I0403 14:55:26.505497 30619 layer_factory.hpp:77] Creating layer drop7
I0403 14:55:26.505517 30619 net.cpp:91] Creating Layer drop7
I0403 14:55:26.505533 30619 net.cpp:425] drop7 <- fc7
I0403 14:55:26.505553 30619 net.cpp:386] drop7 -> fc7 (in-place)
I0403 14:55:26.505596 30619 net.cpp:141] Setting up drop7
I0403 14:55:26.505621 30619 net.cpp:148] Top shape: 100 4096 (409600)
I0403 14:55:26.505636 30619 net.cpp:156] Memory required for data: 831526000
I0403 14:55:26.505650 30619 layer_factory.hpp:77] Creating layer fc8_plantvillage
I0403 14:55:26.505671 30619 net.cpp:91] Creating Layer fc8_plantvillage
I0403 14:55:26.505687 30619 net.cpp:425] fc8_plantvillage <- fc7
I0403 14:55:26.505710 30619 net.cpp:399] fc8_plantvillage -> fc8_plantvillage
I0403 14:55:26.512419 30619 net.cpp:141] Setting up fc8_plantvillage
I0403 14:55:26.512449 30619 net.cpp:148] Top shape: 100 38 (3800)
I0403 14:55:26.512464 30619 net.cpp:156] Memory required for data: 831541200
I0403 14:55:26.512482 30619 layer_factory.hpp:77] Creating layer fc8_plantvillage_fc8_plantvillage_0_split
I0403 14:55:26.512501 30619 net.cpp:91] Creating Layer fc8_plantvillage_fc8_plantvillage_0_split
I0403 14:55:26.512516 30619 net.cpp:425] fc8_plantvillage_fc8_plantvillage_0_split <- fc8_plantvillage
I0403 14:55:26.512536 30619 net.cpp:399] fc8_plantvillage_fc8_plantvillage_0_split -> fc8_plantvillage_fc8_plantvillage_0_split_0
I0403 14:55:26.512557 30619 net.cpp:399] fc8_plantvillage_fc8_plantvillage_0_split -> fc8_plantvillage_fc8_plantvillage_0_split_1
I0403 14:55:26.512579 30619 net.cpp:399] fc8_plantvillage_fc8_plantvillage_0_split -> fc8_plantvillage_fc8_plantvillage_0_split_2
I0403 14:55:26.512655 30619 net.cpp:141] Setting up fc8_plantvillage_fc8_plantvillage_0_split
I0403 14:55:26.512679 30619 net.cpp:148] Top shape: 100 38 (3800)
I0403 14:55:26.512696 30619 net.cpp:148] Top shape: 100 38 (3800)
I0403 14:55:26.512711 30619 net.cpp:148] Top shape: 100 38 (3800)
I0403 14:55:26.512725 30619 net.cpp:156] Memory required for data: 831586800
I0403 14:55:26.512740 30619 layer_factory.hpp:77] Creating layer prob
I0403 14:55:26.512763 30619 net.cpp:91] Creating Layer prob
I0403 14:55:26.512779 30619 net.cpp:425] prob <- fc8_plantvillage_fc8_plantvillage_0_split_0
I0403 14:55:26.512799 30619 net.cpp:399] prob -> prob
I0403 14:55:26.513037 30619 net.cpp:141] Setting up prob
I0403 14:55:26.513062 30619 net.cpp:148] Top shape: 100 38 (3800)
I0403 14:55:26.513087 30619 net.cpp:156] Memory required for data: 831602000
I0403 14:55:26.513108 30619 layer_factory.hpp:77] Creating layer hdf5out
I0403 14:55:26.513134 30619 net.cpp:91] Creating Layer hdf5out
I0403 14:55:26.513162 30619 net.cpp:425] hdf5out <- prob
I0403 14:55:26.513186 30619 net.cpp:425] hdf5out <- label_data_1_split_0
I0403 14:55:26.517268 30619 net.cpp:141] Setting up hdf5out
…
