…
I0403 14:59:53.238363 30846 net.cpp:313] The NetState phase (1) differed from the phase (0) specified by a rule in layer data
I0403 14:59:53.238680 30846 net.cpp:49] Initializing net from parameters: 
state {
  phase: TEST
}
layer {
  name: "data"
  type: "Data"
  top: "data"
  top: "label"
  include {
    phase: TEST
  }
  transform_param {
    crop_size: 227
    mean_file: "/home/mohanty/data/final_dataset/lmdb/segmented-80-20/mean.binaryproto"
  }
  data_param {
    source: "/home/mohanty/data/final_dataset/lmdb/segmented-80-20/test_db"
    batch_size: 100
    backend: LMDB
  }
}
layer {
  name: "conv1"
  type: "Convolution"
  bottom: "data"
  top: "conv1"
  param {
    lr_mult: 1
    decay_mult: 1
  }
  param {
    lr_mult: 2
    decay_mult: 0
  }
  convolution_param {
    num_output: 96
    kernel_size: 11
    stride: 4
    weight_filler {
      type: "gaussian"
      std: 0.01
    }
    bias_filler {
      type: "constant"
      value: 0
    }
  }
}
layer {
  name: "relu1"
  type: "ReLU"
  bottom: "conv1"
  top: "conv1"
}
layer {
  name: "norm1"
  type: "LRN"
  bottom: "conv1"
  top: "norm1"
  lrn_param {
    local_size: 5
    alpha: 0.0001
    beta: 0.75
  }
}
layer {
  name: "pool1"
  type: "Pooling"
  bottom: "norm1"
  top: "pool1"
  pooling_param {
    pool: MAX
    kernel_size: 3
    stride: 2
  }
}
layer {
  name: "conv2"
  type: "Convolution"
  bottom: "pool1"
  top: "conv2"
  param {
    lr_mult: 1
    decay_mult: 1
  }
  param {
    lr_mult: 2
    decay_mult: 0
  }
  convolution_param {
    num_output: 256
    pad: 2
    kernel_size: 5
    group: 2
    weight_filler {
      type: "gaussian"
      std: 0.01
    }
    bias_filler {
      type: "constant"
      value: 0.1
    }
  }
}
layer {
  name: "relu2"
  type: "ReLU"
  bottom: "conv2"
  top: "conv2"
}
layer {
  name: "norm2"
  type: "LRN"
  bottom: "conv2"
  top: "norm2"
  lrn_param {
    local_size: 5
    alpha: 0.0001
    beta: 0.75
  }
}
layer {
  name: "pool2"
  type: "Pooling"
  bottom: "norm2"
  top: "pool2"
  pooling_param {
    pool: MAX
    kernel_size: 3
    stride: 2
  }
}
layer {
  name: "conv3"
  type: "Convolution"
  bottom: "pool2"
  top: "conv3"
  param {
    lr_mult: 1
    decay_mult: 1
  }
  param {
    lr_mult: 2
    decay_mult: 0
  }
  convolution_param {
    num_output: 384
    pad: 1
    kernel_size: 3
    weight_filler {
      type: "gaussian"
      std: 0.01
    }
    bias_filler {
      type: "constant"
      value: 0
    }
  }
}
layer {
  name: "relu3"
  type: "ReLU"
  bottom: "conv3"
  top: "conv3"
}
layer {
  name: "conv4"
  type: "Convolution"
  bottom: "conv3"
  top: "conv4"
  param {
    lr_mult: 1
    decay_mult: 1
  }
  param {
    lr_mult: 2
    decay_mult: 0
  }
  convolution_param {
    num_output: 384
    pad: 1
    kernel_size: 3
    group: 2
    weight_filler {
      type: "gaussian"
      std: 0.01
    }
    bias_filler {
      type: "constant"
      value: 0.1
    }
  }
}
layer {
  name: "relu4"
  type: "ReLU"
  bottom: "conv4"
  top: "conv4"
}
layer {
  name: "conv5"
  type: "Convolution"
  bottom: "conv4"
  top: "conv5"
  param {
    lr_mult: 1
    decay_mult: 1
  }
  param {
    lr_mult: 2
    decay_mult: 0
  }
  convolution_param {
    num_output: 256
    pad: 1
    kernel_size: 3
    group: 2
    weight_filler {
      type: "gaussian"
      std: 0.01
    }
    bias_filler {
      type: "constant"
      value: 0.1
    }
  }
}
layer {
  name: "relu5"
  type: "ReLU"
  bottom: "conv5"
  top: "conv5"
}
layer {
  name: "pool5"
  type: "Pooling"
  bottom: "conv5"
  top: "pool5"
  pooling_param {
    pool: MAX
    kernel_size: 3
    stride: 2
  }
}
layer {
  name: "fc6"
  type: "InnerProduct"
  bottom: "pool5"
  top: "fc6"
  param {
    lr_mult: 1
    decay_mult: 1
  }
  param {
    lr_mult: 2
    decay_mult: 0
  }
  inner_product_param {
    num_output: 4096
    weight_filler {
      type: "gaussian"
      std: 0.005
    }
    bias_filler {
      type: "constant"
      value: 0.1
    }
  }
}
layer {
  name: "relu6"
  type: "ReLU"
  bottom: "fc6"
  top: "fc6"
}
layer {
  name: "drop6"
  type: "Dropout"
  bottom: "fc6"
  top: "fc6"
  dropout_param {
    dropout_ratio: 0.5
  }
}
layer {
  name: "fc7"
  type: "InnerProduct"
  bottom: "fc6"
  top: "fc7"
  param {
    lr_mult: 1
    decay_mult: 1
  }
  param {
    lr_mult: 2
    decay_mult: 0
  }
  inner_product_param {
    num_output: 4096
    weight_filler {
      type: "gaussian"
      std: 0.005
    }
    bias_filler {
      type: "constant"
      value: 0.1
    }
  }
}
layer {
  name: "relu7"
  type: "ReLU"
  bottom: "fc7"
  top: "fc7"
}
layer {
  name: "drop7"
  type: "Dropout"
  bottom: "fc7"
  top: "fc7"
  dropout_param {
    dropout_ratio: 0.5
  }
}
layer {
  name: "fc8_plantvillage"
  type: "InnerProduct"
  bottom: "fc7"
  top: "fc8_plantvillage"
  param {
    lr_mult: 1
    decay_mult: 1
  }
  param {
    lr_mult: 2
    decay_mult: 0
  }
  inner_product_param {
    num_output: 38
    weight_filler {
      type: "gaussian"
      std: 0.01
    }
    bias_filler {
      type: "constant"
      value: 0
    }
  }
}
layer {
  name: "prob"
  type: "Softmax"
  bottom: "fc8_plantvillage"
  top: "prob"
  include {
    phase: TEST
  }
}
layer {
  name: "hdf5out"
  type: "HDF5Output"
  bottom: "prob"
  bottom: "label"
  include {
    phase: TEST
  }
  hdf5_output_param {
    file_name: "hdf5_dumps/iter_9570.h5"
  }
}
layer {
  name: "loss"
  type: "SoftmaxWithLoss"
  bottom: "fc8_plantvillage"
  bottom: "label"
  top: "loss"
}
layer {
  name: "accuracy"
  type: "Accuracy"
  bottom: "fc8_plantvillage"
  bottom: "label"
  top: "accuracy"
  include {
    phase: TEST
  }
}
I0403 14:59:53.239297 30846 layer_factory.hpp:77] Creating layer data
I0403 14:59:53.239970 30846 net.cpp:91] Creating Layer data
I0403 14:59:53.240005 30846 net.cpp:399] data -> data
I0403 14:59:53.240057 30846 net.cpp:399] data -> label
I0403 14:59:53.240095 30846 data_transformer.cpp:25] Loading mean file from: /home/mohanty/data/final_dataset/lmdb/segmented-80-20/mean.binaryproto
I0403 14:59:53.242832 30848 db_lmdb.cpp:38] Opened lmdb /home/mohanty/data/final_dataset/lmdb/segmented-80-20/test_db
I0403 14:59:53.254003 30846 data_layer.cpp:41] output data size: 100,3,227,227
I0403 14:59:53.384868 30846 net.cpp:141] Setting up data
I0403 14:59:53.384934 30846 net.cpp:148] Top shape: 100 3 227 227 (15458700)
I0403 14:59:53.384958 30846 net.cpp:148] Top shape: 100 (100)
I0403 14:59:53.384974 30846 net.cpp:156] Memory required for data: 61835200
I0403 14:59:53.385004 30846 layer_factory.hpp:77] Creating layer label_data_1_split
I0403 14:59:53.385041 30846 net.cpp:91] Creating Layer label_data_1_split
I0403 14:59:53.385061 30846 net.cpp:425] label_data_1_split <- label
I0403 14:59:53.385093 30846 net.cpp:399] label_data_1_split -> label_data_1_split_0
I0403 14:59:53.385123 30846 net.cpp:399] label_data_1_split -> label_data_1_split_1
I0403 14:59:53.385143 30846 net.cpp:399] label_data_1_split -> label_data_1_split_2
I0403 14:59:53.385210 30846 net.cpp:141] Setting up label_data_1_split
I0403 14:59:53.385234 30846 net.cpp:148] Top shape: 100 (100)
I0403 14:59:53.385253 30846 net.cpp:148] Top shape: 100 (100)
I0403 14:59:53.385269 30846 net.cpp:148] Top shape: 100 (100)
I0403 14:59:53.385289 30846 net.cpp:156] Memory required for data: 61836400
I0403 14:59:53.385306 30846 layer_factory.hpp:77] Creating layer conv1
I0403 14:59:53.385340 30846 net.cpp:91] Creating Layer conv1
I0403 14:59:53.385360 30846 net.cpp:425] conv1 <- data
I0403 14:59:53.385380 30846 net.cpp:399] conv1 -> conv1
I0403 14:59:53.529127 30846 net.cpp:141] Setting up conv1
I0403 14:59:53.529203 30846 net.cpp:148] Top shape: 100 96 55 55 (29040000)
I0403 14:59:53.529222 30846 net.cpp:156] Memory required for data: 177996400
I0403 14:59:53.529253 30846 layer_factory.hpp:77] Creating layer relu1
I0403 14:59:53.529281 30846 net.cpp:91] Creating Layer relu1
I0403 14:59:53.529306 30846 net.cpp:425] relu1 <- conv1
I0403 14:59:53.529325 30846 net.cpp:386] relu1 -> conv1 (in-place)
I0403 14:59:53.529605 30846 net.cpp:141] Setting up relu1
I0403 14:59:53.529633 30846 net.cpp:148] Top shape: 100 96 55 55 (29040000)
I0403 14:59:53.529680 30846 net.cpp:156] Memory required for data: 294156400
I0403 14:59:53.529696 30846 layer_factory.hpp:77] Creating layer norm1
I0403 14:59:53.529724 30846 net.cpp:91] Creating Layer norm1
I0403 14:59:53.529743 30846 net.cpp:425] norm1 <- conv1
I0403 14:59:53.529762 30846 net.cpp:399] norm1 -> norm1
I0403 14:59:53.530060 30846 net.cpp:141] Setting up norm1
I0403 14:59:53.530086 30846 net.cpp:148] Top shape: 100 96 55 55 (29040000)
I0403 14:59:53.530102 30846 net.cpp:156] Memory required for data: 410316400
I0403 14:59:53.530118 30846 layer_factory.hpp:77] Creating layer pool1
I0403 14:59:53.530141 30846 net.cpp:91] Creating Layer pool1
I0403 14:59:53.530158 30846 net.cpp:425] pool1 <- norm1
I0403 14:59:53.530177 30846 net.cpp:399] pool1 -> pool1
I0403 14:59:53.530241 30846 net.cpp:141] Setting up pool1
I0403 14:59:53.530266 30846 net.cpp:148] Top shape: 100 96 27 27 (6998400)
I0403 14:59:53.530280 30846 net.cpp:156] Memory required for data: 438310000
I0403 14:59:53.530300 30846 layer_factory.hpp:77] Creating layer conv2
I0403 14:59:53.530325 30846 net.cpp:91] Creating Layer conv2
I0403 14:59:53.530344 30846 net.cpp:425] conv2 <- pool1
I0403 14:59:53.530364 30846 net.cpp:399] conv2 -> conv2
I0403 14:59:53.545394 30846 net.cpp:141] Setting up conv2
I0403 14:59:53.545438 30846 net.cpp:148] Top shape: 100 256 27 27 (18662400)
I0403 14:59:53.545455 30846 net.cpp:156] Memory required for data: 512959600
I0403 14:59:53.545480 30846 layer_factory.hpp:77] Creating layer relu2
I0403 14:59:53.545501 30846 net.cpp:91] Creating Layer relu2
I0403 14:59:53.545519 30846 net.cpp:425] relu2 <- conv2
I0403 14:59:53.545542 30846 net.cpp:386] relu2 -> conv2 (in-place)
I0403 14:59:53.545850 30846 net.cpp:141] Setting up relu2
I0403 14:59:53.545878 30846 net.cpp:148] Top shape: 100 256 27 27 (18662400)
I0403 14:59:53.545894 30846 net.cpp:156] Memory required for data: 587609200
I0403 14:59:53.545910 30846 layer_factory.hpp:77] Creating layer norm2
I0403 14:59:53.545935 30846 net.cpp:91] Creating Layer norm2
I0403 14:59:53.545953 30846 net.cpp:425] norm2 <- conv2
I0403 14:59:53.545974 30846 net.cpp:399] norm2 -> norm2
I0403 14:59:53.546175 30846 net.cpp:141] Setting up norm2
I0403 14:59:53.546202 30846 net.cpp:148] Top shape: 100 256 27 27 (18662400)
I0403 14:59:53.546218 30846 net.cpp:156] Memory required for data: 662258800
I0403 14:59:53.546234 30846 layer_factory.hpp:77] Creating layer pool2
I0403 14:59:53.546253 30846 net.cpp:91] Creating Layer pool2
I0403 14:59:53.546270 30846 net.cpp:425] pool2 <- norm2
I0403 14:59:53.546295 30846 net.cpp:399] pool2 -> pool2
I0403 14:59:53.546350 30846 net.cpp:141] Setting up pool2
I0403 14:59:53.546375 30846 net.cpp:148] Top shape: 100 256 13 13 (4326400)
I0403 14:59:53.546391 30846 net.cpp:156] Memory required for data: 679564400
I0403 14:59:53.546407 30846 layer_factory.hpp:77] Creating layer conv3
I0403 14:59:53.546433 30846 net.cpp:91] Creating Layer conv3
I0403 14:59:53.546452 30846 net.cpp:425] conv3 <- pool2
I0403 14:59:53.546471 30846 net.cpp:399] conv3 -> conv3
I0403 14:59:53.584784 30846 net.cpp:141] Setting up conv3
I0403 14:59:53.584849 30846 net.cpp:148] Top shape: 100 384 13 13 (6489600)
I0403 14:59:53.584868 30846 net.cpp:156] Memory required for data: 705522800
I0403 14:59:53.584893 30846 layer_factory.hpp:77] Creating layer relu3
I0403 14:59:53.584916 30846 net.cpp:91] Creating Layer relu3
I0403 14:59:53.584934 30846 net.cpp:425] relu3 <- conv3
I0403 14:59:53.584959 30846 net.cpp:386] relu3 -> conv3 (in-place)
I0403 14:59:53.585237 30846 net.cpp:141] Setting up relu3
I0403 14:59:53.585266 30846 net.cpp:148] Top shape: 100 384 13 13 (6489600)
I0403 14:59:53.585286 30846 net.cpp:156] Memory required for data: 731481200
I0403 14:59:53.585304 30846 layer_factory.hpp:77] Creating layer conv4
I0403 14:59:53.585332 30846 net.cpp:91] Creating Layer conv4
I0403 14:59:53.585350 30846 net.cpp:425] conv4 <- conv3
I0403 14:59:53.585372 30846 net.cpp:399] conv4 -> conv4
I0403 14:59:53.614853 30846 net.cpp:141] Setting up conv4
I0403 14:59:53.614903 30846 net.cpp:148] Top shape: 100 384 13 13 (6489600)
I0403 14:59:53.614953 30846 net.cpp:156] Memory required for data: 757439600
I0403 14:59:53.614974 30846 layer_factory.hpp:77] Creating layer relu4
I0403 14:59:53.614994 30846 net.cpp:91] Creating Layer relu4
I0403 14:59:53.615010 30846 net.cpp:425] relu4 <- conv4
I0403 14:59:53.615031 30846 net.cpp:386] relu4 -> conv4 (in-place)
I0403 14:59:53.615327 30846 net.cpp:141] Setting up relu4
I0403 14:59:53.615357 30846 net.cpp:148] Top shape: 100 384 13 13 (6489600)
I0403 14:59:53.615375 30846 net.cpp:156] Memory required for data: 783398000
I0403 14:59:53.615391 30846 layer_factory.hpp:77] Creating layer conv5
I0403 14:59:53.615420 30846 net.cpp:91] Creating Layer conv5
I0403 14:59:53.615439 30846 net.cpp:425] conv5 <- conv4
I0403 14:59:53.615459 30846 net.cpp:399] conv5 -> conv5
I0403 14:59:53.635764 30846 net.cpp:141] Setting up conv5
I0403 14:59:53.635808 30846 net.cpp:148] Top shape: 100 256 13 13 (4326400)
I0403 14:59:53.635828 30846 net.cpp:156] Memory required for data: 800703600
I0403 14:59:53.635853 30846 layer_factory.hpp:77] Creating layer relu5
I0403 14:59:53.635874 30846 net.cpp:91] Creating Layer relu5
I0403 14:59:53.635890 30846 net.cpp:425] relu5 <- conv5
I0403 14:59:53.635912 30846 net.cpp:386] relu5 -> conv5 (in-place)
I0403 14:59:53.636193 30846 net.cpp:141] Setting up relu5
I0403 14:59:53.636220 30846 net.cpp:148] Top shape: 100 256 13 13 (4326400)
I0403 14:59:53.636237 30846 net.cpp:156] Memory required for data: 818009200
I0403 14:59:53.636253 30846 layer_factory.hpp:77] Creating layer pool5
I0403 14:59:53.636276 30846 net.cpp:91] Creating Layer pool5
I0403 14:59:53.636298 30846 net.cpp:425] pool5 <- conv5
I0403 14:59:53.636322 30846 net.cpp:399] pool5 -> pool5
I0403 14:59:53.636384 30846 net.cpp:141] Setting up pool5
I0403 14:59:53.636409 30846 net.cpp:148] Top shape: 100 256 6 6 (921600)
I0403 14:59:53.636425 30846 net.cpp:156] Memory required for data: 821695600
I0403 14:59:53.636440 30846 layer_factory.hpp:77] Creating layer fc6
I0403 14:59:53.636471 30846 net.cpp:91] Creating Layer fc6
I0403 14:59:53.636489 30846 net.cpp:425] fc6 <- pool5
I0403 14:59:53.636510 30846 net.cpp:399] fc6 -> fc6
I0403 14:59:55.250352 30846 net.cpp:141] Setting up fc6
I0403 14:59:55.250409 30846 net.cpp:148] Top shape: 100 4096 (409600)
I0403 14:59:55.250428 30846 net.cpp:156] Memory required for data: 823334000
I0403 14:59:55.250450 30846 layer_factory.hpp:77] Creating layer relu6
I0403 14:59:55.250478 30846 net.cpp:91] Creating Layer relu6
I0403 14:59:55.250499 30846 net.cpp:425] relu6 <- fc6
I0403 14:59:55.250520 30846 net.cpp:386] relu6 -> fc6 (in-place)
I0403 14:59:55.250751 30846 net.cpp:141] Setting up relu6
I0403 14:59:55.250778 30846 net.cpp:148] Top shape: 100 4096 (409600)
I0403 14:59:55.250794 30846 net.cpp:156] Memory required for data: 824972400
I0403 14:59:55.250810 30846 layer_factory.hpp:77] Creating layer drop6
I0403 14:59:55.250830 30846 net.cpp:91] Creating Layer drop6
I0403 14:59:55.250847 30846 net.cpp:425] drop6 <- fc6
I0403 14:59:55.250869 30846 net.cpp:386] drop6 -> fc6 (in-place)
I0403 14:59:55.250921 30846 net.cpp:141] Setting up drop6
I0403 14:59:55.250946 30846 net.cpp:148] Top shape: 100 4096 (409600)
I0403 14:59:55.250967 30846 net.cpp:156] Memory required for data: 826610800
I0403 14:59:55.250984 30846 layer_factory.hpp:77] Creating layer fc7
I0403 14:59:55.251005 30846 net.cpp:91] Creating Layer fc7
I0403 14:59:55.251022 30846 net.cpp:425] fc7 <- fc6
I0403 14:59:55.251049 30846 net.cpp:399] fc7 -> fc7
I0403 14:59:55.950814 30846 net.cpp:141] Setting up fc7
I0403 14:59:55.950862 30846 net.cpp:148] Top shape: 100 4096 (409600)
I0403 14:59:55.950881 30846 net.cpp:156] Memory required for data: 828249200
I0403 14:59:55.950901 30846 layer_factory.hpp:77] Creating layer relu7
I0403 14:59:55.950924 30846 net.cpp:91] Creating Layer relu7
I0403 14:59:55.950942 30846 net.cpp:425] relu7 <- fc7
I0403 14:59:55.950965 30846 net.cpp:386] relu7 -> fc7 (in-place)
I0403 14:59:55.951357 30846 net.cpp:141] Setting up relu7
I0403 14:59:55.951385 30846 net.cpp:148] Top shape: 100 4096 (409600)
I0403 14:59:55.951432 30846 net.cpp:156] Memory required for data: 829887600
I0403 14:59:55.951449 30846 layer_factory.hpp:77] Creating layer drop7
I0403 14:59:55.951468 30846 net.cpp:91] Creating Layer drop7
I0403 14:59:55.951485 30846 net.cpp:425] drop7 <- fc7
I0403 14:59:55.951505 30846 net.cpp:386] drop7 -> fc7 (in-place)
I0403 14:59:55.951548 30846 net.cpp:141] Setting up drop7
I0403 14:59:55.951572 30846 net.cpp:148] Top shape: 100 4096 (409600)
I0403 14:59:55.951587 30846 net.cpp:156] Memory required for data: 831526000
I0403 14:59:55.951602 30846 layer_factory.hpp:77] Creating layer fc8_plantvillage
I0403 14:59:55.951625 30846 net.cpp:91] Creating Layer fc8_plantvillage
I0403 14:59:55.951643 30846 net.cpp:425] fc8_plantvillage <- fc7
I0403 14:59:55.951666 30846 net.cpp:399] fc8_plantvillage -> fc8_plantvillage
I0403 14:59:55.958490 30846 net.cpp:141] Setting up fc8_plantvillage
I0403 14:59:55.958519 30846 net.cpp:148] Top shape: 100 38 (3800)
I0403 14:59:55.958536 30846 net.cpp:156] Memory required for data: 831541200
I0403 14:59:55.958556 30846 layer_factory.hpp:77] Creating layer fc8_plantvillage_fc8_plantvillage_0_split
I0403 14:59:55.958577 30846 net.cpp:91] Creating Layer fc8_plantvillage_fc8_plantvillage_0_split
I0403 14:59:55.958593 30846 net.cpp:425] fc8_plantvillage_fc8_plantvillage_0_split <- fc8_plantvillage
I0403 14:59:55.958613 30846 net.cpp:399] fc8_plantvillage_fc8_plantvillage_0_split -> fc8_plantvillage_fc8_plantvillage_0_split_0
I0403 14:59:55.958636 30846 net.cpp:399] fc8_plantvillage_fc8_plantvillage_0_split -> fc8_plantvillage_fc8_plantvillage_0_split_1
I0403 14:59:55.958657 30846 net.cpp:399] fc8_plantvillage_fc8_plantvillage_0_split -> fc8_plantvillage_fc8_plantvillage_0_split_2
I0403 14:59:55.958735 30846 net.cpp:141] Setting up fc8_plantvillage_fc8_plantvillage_0_split
I0403 14:59:55.958760 30846 net.cpp:148] Top shape: 100 38 (3800)
I0403 14:59:55.958777 30846 net.cpp:148] Top shape: 100 38 (3800)
I0403 14:59:55.958793 30846 net.cpp:148] Top shape: 100 38 (3800)
I0403 14:59:55.958808 30846 net.cpp:156] Memory required for data: 831586800
I0403 14:59:55.958825 30846 layer_factory.hpp:77] Creating layer prob
I0403 14:59:55.958844 30846 net.cpp:91] Creating Layer prob
I0403 14:59:55.958860 30846 net.cpp:425] prob <- fc8_plantvillage_fc8_plantvillage_0_split_0
I0403 14:59:55.958881 30846 net.cpp:399] prob -> prob
I0403 14:59:55.959106 30846 net.cpp:141] Setting up prob
I0403 14:59:55.959136 30846 net.cpp:148] Top shape: 100 38 (3800)
I0403 14:59:55.959152 30846 net.cpp:156] Memory required for data: 831602000
I0403 14:59:55.959168 30846 layer_factory.hpp:77] Creating layer hdf5out
I0403 14:59:55.959188 30846 net.cpp:91] Creating Layer hdf5out
I0403 14:59:55.959203 30846 net.cpp:425] hdf5out <- prob
I0403 14:59:55.959220 30846 net.cpp:425] hdf5out <- label_data_1_split_0
I0403 14:59:55.963341 30846 net.cpp:141] Setting up hdf5out
…
