…
I0403 14:52:59.530450 30539 net.cpp:313] The NetState phase (1) differed from the phase (0) specified by a rule in layer data
I0403 14:52:59.530750 30539 net.cpp:49] Initializing net from parameters: 
state {
  phase: TEST
}
layer {
  name: "data"
  type: "Data"
  top: "data"
  top: "label"
  include {
    phase: TEST
  }
  transform_param {
    crop_size: 227
    mean_file: "/home/mohanty/data/final_dataset/lmdb/segmented-80-20/mean.binaryproto"
  }
  data_param {
    source: "/home/mohanty/data/final_dataset/lmdb/segmented-80-20/test_db"
    batch_size: 100
    backend: LMDB
  }
}
layer {
  name: "conv1"
  type: "Convolution"
  bottom: "data"
  top: "conv1"
  param {
    lr_mult: 1
    decay_mult: 1
  }
  param {
    lr_mult: 2
    decay_mult: 0
  }
  convolution_param {
    num_output: 96
    kernel_size: 11
    stride: 4
    weight_filler {
      type: "gaussian"
      std: 0.01
    }
    bias_filler {
      type: "constant"
      value: 0
    }
  }
}
layer {
  name: "relu1"
  type: "ReLU"
  bottom: "conv1"
  top: "conv1"
}
layer {
  name: "norm1"
  type: "LRN"
  bottom: "conv1"
  top: "norm1"
  lrn_param {
    local_size: 5
    alpha: 0.0001
    beta: 0.75
  }
}
layer {
  name: "pool1"
  type: "Pooling"
  bottom: "norm1"
  top: "pool1"
  pooling_param {
    pool: MAX
    kernel_size: 3
    stride: 2
  }
}
layer {
  name: "conv2"
  type: "Convolution"
  bottom: "pool1"
  top: "conv2"
  param {
    lr_mult: 1
    decay_mult: 1
  }
  param {
    lr_mult: 2
    decay_mult: 0
  }
  convolution_param {
    num_output: 256
    pad: 2
    kernel_size: 5
    group: 2
    weight_filler {
      type: "gaussian"
      std: 0.01
    }
    bias_filler {
      type: "constant"
      value: 0.1
    }
  }
}
layer {
  name: "relu2"
  type: "ReLU"
  bottom: "conv2"
  top: "conv2"
}
layer {
  name: "norm2"
  type: "LRN"
  bottom: "conv2"
  top: "norm2"
  lrn_param {
    local_size: 5
    alpha: 0.0001
    beta: 0.75
  }
}
layer {
  name: "pool2"
  type: "Pooling"
  bottom: "norm2"
  top: "pool2"
  pooling_param {
    pool: MAX
    kernel_size: 3
    stride: 2
  }
}
layer {
  name: "conv3"
  type: "Convolution"
  bottom: "pool2"
  top: "conv3"
  param {
    lr_mult: 1
    decay_mult: 1
  }
  param {
    lr_mult: 2
    decay_mult: 0
  }
  convolution_param {
    num_output: 384
    pad: 1
    kernel_size: 3
    weight_filler {
      type: "gaussian"
      std: 0.01
    }
    bias_filler {
      type: "constant"
      value: 0
    }
  }
}
layer {
  name: "relu3"
  type: "ReLU"
  bottom: "conv3"
  top: "conv3"
}
layer {
  name: "conv4"
  type: "Convolution"
  bottom: "conv3"
  top: "conv4"
  param {
    lr_mult: 1
    decay_mult: 1
  }
  param {
    lr_mult: 2
    decay_mult: 0
  }
  convolution_param {
    num_output: 384
    pad: 1
    kernel_size: 3
    group: 2
    weight_filler {
      type: "gaussian"
      std: 0.01
    }
    bias_filler {
      type: "constant"
      value: 0.1
    }
  }
}
layer {
  name: "relu4"
  type: "ReLU"
  bottom: "conv4"
  top: "conv4"
}
layer {
  name: "conv5"
  type: "Convolution"
  bottom: "conv4"
  top: "conv5"
  param {
    lr_mult: 1
    decay_mult: 1
  }
  param {
    lr_mult: 2
    decay_mult: 0
  }
  convolution_param {
    num_output: 256
    pad: 1
    kernel_size: 3
    group: 2
    weight_filler {
      type: "gaussian"
      std: 0.01
    }
    bias_filler {
      type: "constant"
      value: 0.1
    }
  }
}
layer {
  name: "relu5"
  type: "ReLU"
  bottom: "conv5"
  top: "conv5"
}
layer {
  name: "pool5"
  type: "Pooling"
  bottom: "conv5"
  top: "pool5"
  pooling_param {
    pool: MAX
    kernel_size: 3
    stride: 2
  }
}
layer {
  name: "fc6"
  type: "InnerProduct"
  bottom: "pool5"
  top: "fc6"
  param {
    lr_mult: 1
    decay_mult: 1
  }
  param {
    lr_mult: 2
    decay_mult: 0
  }
  inner_product_param {
    num_output: 4096
    weight_filler {
      type: "gaussian"
      std: 0.005
    }
    bias_filler {
      type: "constant"
      value: 0.1
    }
  }
}
layer {
  name: "relu6"
  type: "ReLU"
  bottom: "fc6"
  top: "fc6"
}
layer {
  name: "drop6"
  type: "Dropout"
  bottom: "fc6"
  top: "fc6"
  dropout_param {
    dropout_ratio: 0.5
  }
}
layer {
  name: "fc7"
  type: "InnerProduct"
  bottom: "fc6"
  top: "fc7"
  param {
    lr_mult: 1
    decay_mult: 1
  }
  param {
    lr_mult: 2
    decay_mult: 0
  }
  inner_product_param {
    num_output: 4096
    weight_filler {
      type: "gaussian"
      std: 0.005
    }
    bias_filler {
      type: "constant"
      value: 0.1
    }
  }
}
layer {
  name: "relu7"
  type: "ReLU"
  bottom: "fc7"
  top: "fc7"
}
layer {
  name: "drop7"
  type: "Dropout"
  bottom: "fc7"
  top: "fc7"
  dropout_param {
    dropout_ratio: 0.5
  }
}
layer {
  name: "fc8_plantvillage"
  type: "InnerProduct"
  bottom: "fc7"
  top: "fc8_plantvillage"
  param {
    lr_mult: 1
    decay_mult: 1
  }
  param {
    lr_mult: 2
    decay_mult: 0
  }
  inner_product_param {
    num_output: 38
    weight_filler {
      type: "gaussian"
      std: 0.01
    }
    bias_filler {
      type: "constant"
      value: 0
    }
  }
}
layer {
  name: "prob"
  type: "Softmax"
  bottom: "fc8_plantvillage"
  top: "prob"
  include {
    phase: TEST
  }
}
layer {
  name: "hdf5out"
  type: "HDF5Output"
  bottom: "prob"
  bottom: "label"
  include {
    phase: TEST
  }
  hdf5_output_param {
    file_name: "hdf5_dumps/iter_2175.h5"
  }
}
layer {
  name: "loss"
  type: "SoftmaxWithLoss"
  bottom: "fc8_plantvillage"
  bottom: "label"
  top: "loss"
}
layer {
  name: "accuracy"
  type: "Accuracy"
  bottom: "fc8_plantvillage"
  bottom: "label"
  top: "accuracy"
  include {
    phase: TEST
  }
}
I0403 14:52:59.531358 30539 layer_factory.hpp:77] Creating layer data
I0403 14:52:59.532007 30539 net.cpp:91] Creating Layer data
I0403 14:52:59.532038 30539 net.cpp:399] data -> data
I0403 14:52:59.532090 30539 net.cpp:399] data -> label
I0403 14:52:59.532129 30539 data_transformer.cpp:25] Loading mean file from: /home/mohanty/data/final_dataset/lmdb/segmented-80-20/mean.binaryproto
I0403 14:52:59.535209 30543 db_lmdb.cpp:38] Opened lmdb /home/mohanty/data/final_dataset/lmdb/segmented-80-20/test_db
I0403 14:52:59.546694 30539 data_layer.cpp:41] output data size: 100,3,227,227
I0403 14:52:59.679690 30539 net.cpp:141] Setting up data
I0403 14:52:59.679749 30539 net.cpp:148] Top shape: 100 3 227 227 (15458700)
I0403 14:52:59.679774 30539 net.cpp:148] Top shape: 100 (100)
I0403 14:52:59.679791 30539 net.cpp:156] Memory required for data: 61835200
I0403 14:52:59.679819 30539 layer_factory.hpp:77] Creating layer label_data_1_split
I0403 14:52:59.679846 30539 net.cpp:91] Creating Layer label_data_1_split
I0403 14:52:59.679864 30539 net.cpp:425] label_data_1_split <- label
I0403 14:52:59.679896 30539 net.cpp:399] label_data_1_split -> label_data_1_split_0
I0403 14:52:59.679925 30539 net.cpp:399] label_data_1_split -> label_data_1_split_1
I0403 14:52:59.679947 30539 net.cpp:399] label_data_1_split -> label_data_1_split_2
I0403 14:52:59.680011 30539 net.cpp:141] Setting up label_data_1_split
I0403 14:52:59.680037 30539 net.cpp:148] Top shape: 100 (100)
I0403 14:52:59.680054 30539 net.cpp:148] Top shape: 100 (100)
I0403 14:52:59.680071 30539 net.cpp:148] Top shape: 100 (100)
I0403 14:52:59.680088 30539 net.cpp:156] Memory required for data: 61836400
I0403 14:52:59.680104 30539 layer_factory.hpp:77] Creating layer conv1
I0403 14:52:59.680136 30539 net.cpp:91] Creating Layer conv1
I0403 14:52:59.680155 30539 net.cpp:425] conv1 <- data
I0403 14:52:59.680176 30539 net.cpp:399] conv1 -> conv1
I0403 14:52:59.823704 30539 net.cpp:141] Setting up conv1
I0403 14:52:59.823783 30539 net.cpp:148] Top shape: 100 96 55 55 (29040000)
I0403 14:52:59.823802 30539 net.cpp:156] Memory required for data: 177996400
I0403 14:52:59.823835 30539 layer_factory.hpp:77] Creating layer relu1
I0403 14:52:59.823863 30539 net.cpp:91] Creating Layer relu1
I0403 14:52:59.823884 30539 net.cpp:425] relu1 <- conv1
I0403 14:52:59.823904 30539 net.cpp:386] relu1 -> conv1 (in-place)
I0403 14:52:59.824167 30539 net.cpp:141] Setting up relu1
I0403 14:52:59.824195 30539 net.cpp:148] Top shape: 100 96 55 55 (29040000)
I0403 14:52:59.824245 30539 net.cpp:156] Memory required for data: 294156400
I0403 14:52:59.824264 30539 layer_factory.hpp:77] Creating layer norm1
I0403 14:52:59.824301 30539 net.cpp:91] Creating Layer norm1
I0403 14:52:59.824323 30539 net.cpp:425] norm1 <- conv1
I0403 14:52:59.824342 30539 net.cpp:399] norm1 -> norm1
I0403 14:52:59.824659 30539 net.cpp:141] Setting up norm1
I0403 14:52:59.824688 30539 net.cpp:148] Top shape: 100 96 55 55 (29040000)
I0403 14:52:59.824707 30539 net.cpp:156] Memory required for data: 410316400
I0403 14:52:59.824723 30539 layer_factory.hpp:77] Creating layer pool1
I0403 14:52:59.824746 30539 net.cpp:91] Creating Layer pool1
I0403 14:52:59.824764 30539 net.cpp:425] pool1 <- norm1
I0403 14:52:59.824784 30539 net.cpp:399] pool1 -> pool1
I0403 14:52:59.824851 30539 net.cpp:141] Setting up pool1
I0403 14:52:59.824877 30539 net.cpp:148] Top shape: 100 96 27 27 (6998400)
I0403 14:52:59.824893 30539 net.cpp:156] Memory required for data: 438310000
I0403 14:52:59.824909 30539 layer_factory.hpp:77] Creating layer conv2
I0403 14:52:59.824934 30539 net.cpp:91] Creating Layer conv2
I0403 14:52:59.824951 30539 net.cpp:425] conv2 <- pool1
I0403 14:52:59.824970 30539 net.cpp:399] conv2 -> conv2
I0403 14:52:59.839789 30539 net.cpp:141] Setting up conv2
I0403 14:52:59.839823 30539 net.cpp:148] Top shape: 100 256 27 27 (18662400)
I0403 14:52:59.839849 30539 net.cpp:156] Memory required for data: 512959600
I0403 14:52:59.839875 30539 layer_factory.hpp:77] Creating layer relu2
I0403 14:52:59.839896 30539 net.cpp:91] Creating Layer relu2
I0403 14:52:59.839912 30539 net.cpp:425] relu2 <- conv2
I0403 14:52:59.839931 30539 net.cpp:386] relu2 -> conv2 (in-place)
I0403 14:52:59.840217 30539 net.cpp:141] Setting up relu2
I0403 14:52:59.840248 30539 net.cpp:148] Top shape: 100 256 27 27 (18662400)
I0403 14:52:59.840281 30539 net.cpp:156] Memory required for data: 587609200
I0403 14:52:59.840302 30539 layer_factory.hpp:77] Creating layer norm2
I0403 14:52:59.840325 30539 net.cpp:91] Creating Layer norm2
I0403 14:52:59.840353 30539 net.cpp:425] norm2 <- conv2
I0403 14:52:59.840378 30539 net.cpp:399] norm2 -> norm2
I0403 14:52:59.840591 30539 net.cpp:141] Setting up norm2
I0403 14:52:59.840620 30539 net.cpp:148] Top shape: 100 256 27 27 (18662400)
I0403 14:52:59.840636 30539 net.cpp:156] Memory required for data: 662258800
I0403 14:52:59.840653 30539 layer_factory.hpp:77] Creating layer pool2
I0403 14:52:59.840674 30539 net.cpp:91] Creating Layer pool2
I0403 14:52:59.840692 30539 net.cpp:425] pool2 <- norm2
I0403 14:52:59.840710 30539 net.cpp:399] pool2 -> pool2
I0403 14:52:59.840770 30539 net.cpp:141] Setting up pool2
I0403 14:52:59.840795 30539 net.cpp:148] Top shape: 100 256 13 13 (4326400)
I0403 14:52:59.840811 30539 net.cpp:156] Memory required for data: 679564400
I0403 14:52:59.840827 30539 layer_factory.hpp:77] Creating layer conv3
I0403 14:52:59.840852 30539 net.cpp:91] Creating Layer conv3
I0403 14:52:59.840870 30539 net.cpp:425] conv3 <- pool2
I0403 14:52:59.840893 30539 net.cpp:399] conv3 -> conv3
I0403 14:52:59.880544 30539 net.cpp:141] Setting up conv3
I0403 14:52:59.880617 30539 net.cpp:148] Top shape: 100 384 13 13 (6489600)
I0403 14:52:59.880635 30539 net.cpp:156] Memory required for data: 705522800
I0403 14:52:59.880663 30539 layer_factory.hpp:77] Creating layer relu3
I0403 14:52:59.880693 30539 net.cpp:91] Creating Layer relu3
I0403 14:52:59.880714 30539 net.cpp:425] relu3 <- conv3
I0403 14:52:59.880735 30539 net.cpp:386] relu3 -> conv3 (in-place)
I0403 14:52:59.881019 30539 net.cpp:141] Setting up relu3
I0403 14:52:59.881048 30539 net.cpp:148] Top shape: 100 384 13 13 (6489600)
I0403 14:52:59.881065 30539 net.cpp:156] Memory required for data: 731481200
I0403 14:52:59.881083 30539 layer_factory.hpp:77] Creating layer conv4
I0403 14:52:59.881111 30539 net.cpp:91] Creating Layer conv4
I0403 14:52:59.881131 30539 net.cpp:425] conv4 <- conv3
I0403 14:52:59.881152 30539 net.cpp:399] conv4 -> conv4
I0403 14:52:59.911130 30539 net.cpp:141] Setting up conv4
I0403 14:52:59.911185 30539 net.cpp:148] Top shape: 100 384 13 13 (6489600)
I0403 14:52:59.911233 30539 net.cpp:156] Memory required for data: 757439600
I0403 14:52:59.911257 30539 layer_factory.hpp:77] Creating layer relu4
I0403 14:52:59.911281 30539 net.cpp:91] Creating Layer relu4
I0403 14:52:59.911304 30539 net.cpp:425] relu4 <- conv4
I0403 14:52:59.911324 30539 net.cpp:386] relu4 -> conv4 (in-place)
I0403 14:52:59.911603 30539 net.cpp:141] Setting up relu4
I0403 14:52:59.911631 30539 net.cpp:148] Top shape: 100 384 13 13 (6489600)
I0403 14:52:59.911648 30539 net.cpp:156] Memory required for data: 783398000
I0403 14:52:59.911666 30539 layer_factory.hpp:77] Creating layer conv5
I0403 14:52:59.911690 30539 net.cpp:91] Creating Layer conv5
I0403 14:52:59.911708 30539 net.cpp:425] conv5 <- conv4
I0403 14:52:59.911731 30539 net.cpp:399] conv5 -> conv5
I0403 14:52:59.932338 30539 net.cpp:141] Setting up conv5
I0403 14:52:59.932375 30539 net.cpp:148] Top shape: 100 256 13 13 (4326400)
I0403 14:52:59.932392 30539 net.cpp:156] Memory required for data: 800703600
I0403 14:52:59.932421 30539 layer_factory.hpp:77] Creating layer relu5
I0403 14:52:59.932445 30539 net.cpp:91] Creating Layer relu5
I0403 14:52:59.932461 30539 net.cpp:425] relu5 <- conv5
I0403 14:52:59.932481 30539 net.cpp:386] relu5 -> conv5 (in-place)
I0403 14:52:59.932766 30539 net.cpp:141] Setting up relu5
I0403 14:52:59.932796 30539 net.cpp:148] Top shape: 100 256 13 13 (4326400)
I0403 14:52:59.932812 30539 net.cpp:156] Memory required for data: 818009200
I0403 14:52:59.932829 30539 layer_factory.hpp:77] Creating layer pool5
I0403 14:52:59.932857 30539 net.cpp:91] Creating Layer pool5
I0403 14:52:59.932876 30539 net.cpp:425] pool5 <- conv5
I0403 14:52:59.932895 30539 net.cpp:399] pool5 -> pool5
I0403 14:52:59.932961 30539 net.cpp:141] Setting up pool5
I0403 14:52:59.932987 30539 net.cpp:148] Top shape: 100 256 6 6 (921600)
I0403 14:52:59.933004 30539 net.cpp:156] Memory required for data: 821695600
I0403 14:52:59.933022 30539 layer_factory.hpp:77] Creating layer fc6
I0403 14:52:59.933053 30539 net.cpp:91] Creating Layer fc6
I0403 14:52:59.933074 30539 net.cpp:425] fc6 <- pool5
I0403 14:52:59.933099 30539 net.cpp:399] fc6 -> fc6
I0403 14:53:01.469146 30539 net.cpp:141] Setting up fc6
I0403 14:53:01.469205 30539 net.cpp:148] Top shape: 100 4096 (409600)
I0403 14:53:01.469223 30539 net.cpp:156] Memory required for data: 823334000
I0403 14:53:01.469245 30539 layer_factory.hpp:77] Creating layer relu6
I0403 14:53:01.469269 30539 net.cpp:91] Creating Layer relu6
I0403 14:53:01.469290 30539 net.cpp:425] relu6 <- fc6
I0403 14:53:01.469315 30539 net.cpp:386] relu6 -> fc6 (in-place)
I0403 14:53:01.469539 30539 net.cpp:141] Setting up relu6
I0403 14:53:01.469565 30539 net.cpp:148] Top shape: 100 4096 (409600)
I0403 14:53:01.469581 30539 net.cpp:156] Memory required for data: 824972400
I0403 14:53:01.469596 30539 layer_factory.hpp:77] Creating layer drop6
I0403 14:53:01.469619 30539 net.cpp:91] Creating Layer drop6
I0403 14:53:01.469635 30539 net.cpp:425] drop6 <- fc6
I0403 14:53:01.469652 30539 net.cpp:386] drop6 -> fc6 (in-place)
I0403 14:53:01.469705 30539 net.cpp:141] Setting up drop6
I0403 14:53:01.469728 30539 net.cpp:148] Top shape: 100 4096 (409600)
I0403 14:53:01.469744 30539 net.cpp:156] Memory required for data: 826610800
I0403 14:53:01.469759 30539 layer_factory.hpp:77] Creating layer fc7
I0403 14:53:01.469780 30539 net.cpp:91] Creating Layer fc7
I0403 14:53:01.469800 30539 net.cpp:425] fc7 <- fc6
I0403 14:53:01.469820 30539 net.cpp:399] fc7 -> fc7
I0403 14:53:02.185559 30539 net.cpp:141] Setting up fc7
I0403 14:53:02.185631 30539 net.cpp:148] Top shape: 100 4096 (409600)
I0403 14:53:02.185649 30539 net.cpp:156] Memory required for data: 828249200
I0403 14:53:02.185673 30539 layer_factory.hpp:77] Creating layer relu7
I0403 14:53:02.185700 30539 net.cpp:91] Creating Layer relu7
I0403 14:53:02.185722 30539 net.cpp:425] relu7 <- fc7
I0403 14:53:02.185745 30539 net.cpp:386] relu7 -> fc7 (in-place)
I0403 14:53:02.186156 30539 net.cpp:141] Setting up relu7
I0403 14:53:02.186185 30539 net.cpp:148] Top shape: 100 4096 (409600)
I0403 14:53:02.186235 30539 net.cpp:156] Memory required for data: 829887600
I0403 14:53:02.186254 30539 layer_factory.hpp:77] Creating layer drop7
I0403 14:53:02.186277 30539 net.cpp:91] Creating Layer drop7
I0403 14:53:02.186301 30539 net.cpp:425] drop7 <- fc7
I0403 14:53:02.186321 30539 net.cpp:386] drop7 -> fc7 (in-place)
I0403 14:53:02.186383 30539 net.cpp:141] Setting up drop7
I0403 14:53:02.186405 30539 net.cpp:148] Top shape: 100 4096 (409600)
I0403 14:53:02.186421 30539 net.cpp:156] Memory required for data: 831526000
I0403 14:53:02.186436 30539 layer_factory.hpp:77] Creating layer fc8_plantvillage
I0403 14:53:02.186457 30539 net.cpp:91] Creating Layer fc8_plantvillage
I0403 14:53:02.186473 30539 net.cpp:425] fc8_plantvillage <- fc7
I0403 14:53:02.186494 30539 net.cpp:399] fc8_plantvillage -> fc8_plantvillage
I0403 14:53:02.193482 30539 net.cpp:141] Setting up fc8_plantvillage
I0403 14:53:02.193521 30539 net.cpp:148] Top shape: 100 38 (3800)
I0403 14:53:02.193549 30539 net.cpp:156] Memory required for data: 831541200
I0403 14:53:02.193574 30539 layer_factory.hpp:77] Creating layer fc8_plantvillage_fc8_plantvillage_0_split
I0403 14:53:02.193600 30539 net.cpp:91] Creating Layer fc8_plantvillage_fc8_plantvillage_0_split
I0403 14:53:02.193639 30539 net.cpp:425] fc8_plantvillage_fc8_plantvillage_0_split <- fc8_plantvillage
I0403 14:53:02.193658 30539 net.cpp:399] fc8_plantvillage_fc8_plantvillage_0_split -> fc8_plantvillage_fc8_plantvillage_0_split_0
I0403 14:53:02.193686 30539 net.cpp:399] fc8_plantvillage_fc8_plantvillage_0_split -> fc8_plantvillage_fc8_plantvillage_0_split_1
I0403 14:53:02.193714 30539 net.cpp:399] fc8_plantvillage_fc8_plantvillage_0_split -> fc8_plantvillage_fc8_plantvillage_0_split_2
I0403 14:53:02.193800 30539 net.cpp:141] Setting up fc8_plantvillage_fc8_plantvillage_0_split
I0403 14:53:02.193832 30539 net.cpp:148] Top shape: 100 38 (3800)
I0403 14:53:02.193853 30539 net.cpp:148] Top shape: 100 38 (3800)
I0403 14:53:02.193876 30539 net.cpp:148] Top shape: 100 38 (3800)
I0403 14:53:02.193893 30539 net.cpp:156] Memory required for data: 831586800
I0403 14:53:02.193915 30539 layer_factory.hpp:77] Creating layer prob
I0403 14:53:02.193939 30539 net.cpp:91] Creating Layer prob
I0403 14:53:02.193963 30539 net.cpp:425] prob <- fc8_plantvillage_fc8_plantvillage_0_split_0
I0403 14:53:02.193987 30539 net.cpp:399] prob -> prob
I0403 14:53:02.194221 30539 net.cpp:141] Setting up prob
I0403 14:53:02.194248 30539 net.cpp:148] Top shape: 100 38 (3800)
I0403 14:53:02.194264 30539 net.cpp:156] Memory required for data: 831602000
I0403 14:53:02.194281 30539 layer_factory.hpp:77] Creating layer hdf5out
I0403 14:53:02.194320 30539 net.cpp:91] Creating Layer hdf5out
I0403 14:53:02.194340 30539 net.cpp:425] hdf5out <- prob
I0403 14:53:02.194358 30539 net.cpp:425] hdf5out <- label_data_1_split_0
I0403 14:53:02.198871 30539 net.cpp:141] Setting up hdf5out
…
