…
I0403 14:56:11.694912 30638 net.cpp:313] The NetState phase (1) differed from the phase (0) specified by a rule in layer data
I0403 14:56:11.695209 30638 net.cpp:49] Initializing net from parameters: 
state {
  phase: TEST
}
layer {
  name: "data"
  type: "Data"
  top: "data"
  top: "label"
  include {
    phase: TEST
  }
  transform_param {
    crop_size: 227
    mean_file: "/home/mohanty/data/final_dataset/lmdb/segmented-80-20/mean.binaryproto"
  }
  data_param {
    source: "/home/mohanty/data/final_dataset/lmdb/segmented-80-20/test_db"
    batch_size: 100
    backend: LMDB
  }
}
layer {
  name: "conv1"
  type: "Convolution"
  bottom: "data"
  top: "conv1"
  param {
    lr_mult: 1
    decay_mult: 1
  }
  param {
    lr_mult: 2
    decay_mult: 0
  }
  convolution_param {
    num_output: 96
    kernel_size: 11
    stride: 4
    weight_filler {
      type: "gaussian"
      std: 0.01
    }
    bias_filler {
      type: "constant"
      value: 0
    }
  }
}
layer {
  name: "relu1"
  type: "ReLU"
  bottom: "conv1"
  top: "conv1"
}
layer {
  name: "norm1"
  type: "LRN"
  bottom: "conv1"
  top: "norm1"
  lrn_param {
    local_size: 5
    alpha: 0.0001
    beta: 0.75
  }
}
layer {
  name: "pool1"
  type: "Pooling"
  bottom: "norm1"
  top: "pool1"
  pooling_param {
    pool: MAX
    kernel_size: 3
    stride: 2
  }
}
layer {
  name: "conv2"
  type: "Convolution"
  bottom: "pool1"
  top: "conv2"
  param {
    lr_mult: 1
    decay_mult: 1
  }
  param {
    lr_mult: 2
    decay_mult: 0
  }
  convolution_param {
    num_output: 256
    pad: 2
    kernel_size: 5
    group: 2
    weight_filler {
      type: "gaussian"
      std: 0.01
    }
    bias_filler {
      type: "constant"
      value: 0.1
    }
  }
}
layer {
  name: "relu2"
  type: "ReLU"
  bottom: "conv2"
  top: "conv2"
}
layer {
  name: "norm2"
  type: "LRN"
  bottom: "conv2"
  top: "norm2"
  lrn_param {
    local_size: 5
    alpha: 0.0001
    beta: 0.75
  }
}
layer {
  name: "pool2"
  type: "Pooling"
  bottom: "norm2"
  top: "pool2"
  pooling_param {
    pool: MAX
    kernel_size: 3
    stride: 2
  }
}
layer {
  name: "conv3"
  type: "Convolution"
  bottom: "pool2"
  top: "conv3"
  param {
    lr_mult: 1
    decay_mult: 1
  }
  param {
    lr_mult: 2
    decay_mult: 0
  }
  convolution_param {
    num_output: 384
    pad: 1
    kernel_size: 3
    weight_filler {
      type: "gaussian"
      std: 0.01
    }
    bias_filler {
      type: "constant"
      value: 0
    }
  }
}
layer {
  name: "relu3"
  type: "ReLU"
  bottom: "conv3"
  top: "conv3"
}
layer {
  name: "conv4"
  type: "Convolution"
  bottom: "conv3"
  top: "conv4"
  param {
    lr_mult: 1
    decay_mult: 1
  }
  param {
    lr_mult: 2
    decay_mult: 0
  }
  convolution_param {
    num_output: 384
    pad: 1
    kernel_size: 3
    group: 2
    weight_filler {
      type: "gaussian"
      std: 0.01
    }
    bias_filler {
      type: "constant"
      value: 0.1
    }
  }
}
layer {
  name: "relu4"
  type: "ReLU"
  bottom: "conv4"
  top: "conv4"
}
layer {
  name: "conv5"
  type: "Convolution"
  bottom: "conv4"
  top: "conv5"
  param {
    lr_mult: 1
    decay_mult: 1
  }
  param {
    lr_mult: 2
    decay_mult: 0
  }
  convolution_param {
    num_output: 256
    pad: 1
    kernel_size: 3
    group: 2
    weight_filler {
      type: "gaussian"
      std: 0.01
    }
    bias_filler {
      type: "constant"
      value: 0.1
    }
  }
}
layer {
  name: "relu5"
  type: "ReLU"
  bottom: "conv5"
  top: "conv5"
}
layer {
  name: "pool5"
  type: "Pooling"
  bottom: "conv5"
  top: "pool5"
  pooling_param {
    pool: MAX
    kernel_size: 3
    stride: 2
  }
}
layer {
  name: "fc6"
  type: "InnerProduct"
  bottom: "pool5"
  top: "fc6"
  param {
    lr_mult: 1
    decay_mult: 1
  }
  param {
    lr_mult: 2
    decay_mult: 0
  }
  inner_product_param {
    num_output: 4096
    weight_filler {
      type: "gaussian"
      std: 0.005
    }
    bias_filler {
      type: "constant"
      value: 0.1
    }
  }
}
layer {
  name: "relu6"
  type: "ReLU"
  bottom: "fc6"
  top: "fc6"
}
layer {
  name: "drop6"
  type: "Dropout"
  bottom: "fc6"
  top: "fc6"
  dropout_param {
    dropout_ratio: 0.5
  }
}
layer {
  name: "fc7"
  type: "InnerProduct"
  bottom: "fc6"
  top: "fc7"
  param {
    lr_mult: 1
    decay_mult: 1
  }
  param {
    lr_mult: 2
    decay_mult: 0
  }
  inner_product_param {
    num_output: 4096
    weight_filler {
      type: "gaussian"
      std: 0.005
    }
    bias_filler {
      type: "constant"
      value: 0.1
    }
  }
}
layer {
  name: "relu7"
  type: "ReLU"
  bottom: "fc7"
  top: "fc7"
}
layer {
  name: "drop7"
  type: "Dropout"
  bottom: "fc7"
  top: "fc7"
  dropout_param {
    dropout_ratio: 0.5
  }
}
layer {
  name: "fc8_plantvillage"
  type: "InnerProduct"
  bottom: "fc7"
  top: "fc8_plantvillage"
  param {
    lr_mult: 1
    decay_mult: 1
  }
  param {
    lr_mult: 2
    decay_mult: 0
  }
  inner_product_param {
    num_output: 38
    weight_filler {
      type: "gaussian"
      std: 0.01
    }
    bias_filler {
      type: "constant"
      value: 0
    }
  }
}
layer {
  name: "prob"
  type: "Softmax"
  bottom: "fc8_plantvillage"
  top: "prob"
  include {
    phase: TEST
  }
}
layer {
  name: "hdf5out"
  type: "HDF5Output"
  bottom: "prob"
  bottom: "label"
  include {
    phase: TEST
  }
  hdf5_output_param {
    file_name: "hdf5_dumps/iter_5655.h5"
  }
}
layer {
  name: "loss"
  type: "SoftmaxWithLoss"
  bottom: "fc8_plantvillage"
  bottom: "label"
  top: "loss"
}
layer {
  name: "accuracy"
  type: "Accuracy"
  bottom: "fc8_plantvillage"
  bottom: "label"
  top: "accuracy"
  include {
    phase: TEST
  }
}
I0403 14:56:11.695773 30638 layer_factory.hpp:77] Creating layer data
I0403 14:56:11.696401 30638 net.cpp:91] Creating Layer data
I0403 14:56:11.696435 30638 net.cpp:399] data -> data
I0403 14:56:11.696488 30638 net.cpp:399] data -> label
I0403 14:56:11.696524 30638 data_transformer.cpp:25] Loading mean file from: /home/mohanty/data/final_dataset/lmdb/segmented-80-20/mean.binaryproto
I0403 14:56:11.699322 30642 db_lmdb.cpp:38] Opened lmdb /home/mohanty/data/final_dataset/lmdb/segmented-80-20/test_db
I0403 14:56:11.710587 30638 data_layer.cpp:41] output data size: 100,3,227,227
I0403 14:56:11.841936 30638 net.cpp:141] Setting up data
I0403 14:56:11.841998 30638 net.cpp:148] Top shape: 100 3 227 227 (15458700)
I0403 14:56:11.842026 30638 net.cpp:148] Top shape: 100 (100)
I0403 14:56:11.842043 30638 net.cpp:156] Memory required for data: 61835200
I0403 14:56:11.842070 30638 layer_factory.hpp:77] Creating layer label_data_1_split
I0403 14:56:11.842097 30638 net.cpp:91] Creating Layer label_data_1_split
I0403 14:56:11.842114 30638 net.cpp:425] label_data_1_split <- label
I0403 14:56:11.842146 30638 net.cpp:399] label_data_1_split -> label_data_1_split_0
I0403 14:56:11.842175 30638 net.cpp:399] label_data_1_split -> label_data_1_split_1
I0403 14:56:11.842195 30638 net.cpp:399] label_data_1_split -> label_data_1_split_2
I0403 14:56:11.842258 30638 net.cpp:141] Setting up label_data_1_split
I0403 14:56:11.842286 30638 net.cpp:148] Top shape: 100 (100)
I0403 14:56:11.842306 30638 net.cpp:148] Top shape: 100 (100)
I0403 14:56:11.842322 30638 net.cpp:148] Top shape: 100 (100)
I0403 14:56:11.842337 30638 net.cpp:156] Memory required for data: 61836400
I0403 14:56:11.842352 30638 layer_factory.hpp:77] Creating layer conv1
I0403 14:56:11.842384 30638 net.cpp:91] Creating Layer conv1
I0403 14:56:11.842403 30638 net.cpp:425] conv1 <- data
I0403 14:56:11.842422 30638 net.cpp:399] conv1 -> conv1
I0403 14:56:11.986515 30638 net.cpp:141] Setting up conv1
I0403 14:56:11.986562 30638 net.cpp:148] Top shape: 100 96 55 55 (29040000)
I0403 14:56:11.986580 30638 net.cpp:156] Memory required for data: 177996400
I0403 14:56:11.986613 30638 layer_factory.hpp:77] Creating layer relu1
I0403 14:56:11.986642 30638 net.cpp:91] Creating Layer relu1
I0403 14:56:11.986660 30638 net.cpp:425] relu1 <- conv1
I0403 14:56:11.986685 30638 net.cpp:386] relu1 -> conv1 (in-place)
I0403 14:56:11.986945 30638 net.cpp:141] Setting up relu1
I0403 14:56:11.986974 30638 net.cpp:148] Top shape: 100 96 55 55 (29040000)
I0403 14:56:11.987030 30638 net.cpp:156] Memory required for data: 294156400
I0403 14:56:11.987053 30638 layer_factory.hpp:77] Creating layer norm1
I0403 14:56:11.987087 30638 net.cpp:91] Creating Layer norm1
I0403 14:56:11.987107 30638 net.cpp:425] norm1 <- conv1
I0403 14:56:11.987131 30638 net.cpp:399] norm1 -> norm1
I0403 14:56:11.987476 30638 net.cpp:141] Setting up norm1
I0403 14:56:11.987506 30638 net.cpp:148] Top shape: 100 96 55 55 (29040000)
I0403 14:56:11.987524 30638 net.cpp:156] Memory required for data: 410316400
I0403 14:56:11.987540 30638 layer_factory.hpp:77] Creating layer pool1
I0403 14:56:11.987563 30638 net.cpp:91] Creating Layer pool1
I0403 14:56:11.987579 30638 net.cpp:425] pool1 <- norm1
I0403 14:56:11.987598 30638 net.cpp:399] pool1 -> pool1
I0403 14:56:11.987670 30638 net.cpp:141] Setting up pool1
I0403 14:56:11.987697 30638 net.cpp:148] Top shape: 100 96 27 27 (6998400)
I0403 14:56:11.987714 30638 net.cpp:156] Memory required for data: 438310000
I0403 14:56:11.987730 30638 layer_factory.hpp:77] Creating layer conv2
I0403 14:56:11.987757 30638 net.cpp:91] Creating Layer conv2
I0403 14:56:11.987774 30638 net.cpp:425] conv2 <- pool1
I0403 14:56:11.987795 30638 net.cpp:399] conv2 -> conv2
I0403 14:56:12.003034 30638 net.cpp:141] Setting up conv2
I0403 14:56:12.003087 30638 net.cpp:148] Top shape: 100 256 27 27 (18662400)
I0403 14:56:12.003104 30638 net.cpp:156] Memory required for data: 512959600
I0403 14:56:12.003128 30638 layer_factory.hpp:77] Creating layer relu2
I0403 14:56:12.003149 30638 net.cpp:91] Creating Layer relu2
I0403 14:56:12.003165 30638 net.cpp:425] relu2 <- conv2
I0403 14:56:12.003185 30638 net.cpp:386] relu2 -> conv2 (in-place)
I0403 14:56:12.003486 30638 net.cpp:141] Setting up relu2
I0403 14:56:12.003518 30638 net.cpp:148] Top shape: 100 256 27 27 (18662400)
I0403 14:56:12.003535 30638 net.cpp:156] Memory required for data: 587609200
I0403 14:56:12.003551 30638 layer_factory.hpp:77] Creating layer norm2
I0403 14:56:12.003583 30638 net.cpp:91] Creating Layer norm2
I0403 14:56:12.003600 30638 net.cpp:425] norm2 <- conv2
I0403 14:56:12.003619 30638 net.cpp:399] norm2 -> norm2
I0403 14:56:12.003818 30638 net.cpp:141] Setting up norm2
I0403 14:56:12.003844 30638 net.cpp:148] Top shape: 100 256 27 27 (18662400)
I0403 14:56:12.003861 30638 net.cpp:156] Memory required for data: 662258800
I0403 14:56:12.003877 30638 layer_factory.hpp:77] Creating layer pool2
I0403 14:56:12.003898 30638 net.cpp:91] Creating Layer pool2
I0403 14:56:12.003916 30638 net.cpp:425] pool2 <- norm2
I0403 14:56:12.003936 30638 net.cpp:399] pool2 -> pool2
I0403 14:56:12.003994 30638 net.cpp:141] Setting up pool2
I0403 14:56:12.004019 30638 net.cpp:148] Top shape: 100 256 13 13 (4326400)
I0403 14:56:12.004034 30638 net.cpp:156] Memory required for data: 679564400
I0403 14:56:12.004050 30638 layer_factory.hpp:77] Creating layer conv3
I0403 14:56:12.004073 30638 net.cpp:91] Creating Layer conv3
I0403 14:56:12.004091 30638 net.cpp:425] conv3 <- pool2
I0403 14:56:12.004112 30638 net.cpp:399] conv3 -> conv3
I0403 14:56:12.042500 30638 net.cpp:141] Setting up conv3
I0403 14:56:12.042567 30638 net.cpp:148] Top shape: 100 384 13 13 (6489600)
I0403 14:56:12.042585 30638 net.cpp:156] Memory required for data: 705522800
I0403 14:56:12.042611 30638 layer_factory.hpp:77] Creating layer relu3
I0403 14:56:12.042634 30638 net.cpp:91] Creating Layer relu3
I0403 14:56:12.042652 30638 net.cpp:425] relu3 <- conv3
I0403 14:56:12.042670 30638 net.cpp:386] relu3 -> conv3 (in-place)
I0403 14:56:12.042939 30638 net.cpp:141] Setting up relu3
I0403 14:56:12.042971 30638 net.cpp:148] Top shape: 100 384 13 13 (6489600)
I0403 14:56:12.042987 30638 net.cpp:156] Memory required for data: 731481200
I0403 14:56:12.043042 30638 layer_factory.hpp:77] Creating layer conv4
I0403 14:56:12.043072 30638 net.cpp:91] Creating Layer conv4
I0403 14:56:12.043092 30638 net.cpp:425] conv4 <- conv3
I0403 14:56:12.043110 30638 net.cpp:399] conv4 -> conv4
I0403 14:56:12.072433 30638 net.cpp:141] Setting up conv4
I0403 14:56:12.072480 30638 net.cpp:148] Top shape: 100 384 13 13 (6489600)
I0403 14:56:12.072528 30638 net.cpp:156] Memory required for data: 757439600
I0403 14:56:12.072551 30638 layer_factory.hpp:77] Creating layer relu4
I0403 14:56:12.072573 30638 net.cpp:91] Creating Layer relu4
I0403 14:56:12.072592 30638 net.cpp:425] relu4 <- conv4
I0403 14:56:12.072609 30638 net.cpp:386] relu4 -> conv4 (in-place)
I0403 14:56:12.072882 30638 net.cpp:141] Setting up relu4
I0403 14:56:12.072911 30638 net.cpp:148] Top shape: 100 384 13 13 (6489600)
I0403 14:56:12.072926 30638 net.cpp:156] Memory required for data: 783398000
I0403 14:56:12.072942 30638 layer_factory.hpp:77] Creating layer conv5
I0403 14:56:12.072967 30638 net.cpp:91] Creating Layer conv5
I0403 14:56:12.072983 30638 net.cpp:425] conv5 <- conv4
I0403 14:56:12.073004 30638 net.cpp:399] conv5 -> conv5
I0403 14:56:12.093960 30638 net.cpp:141] Setting up conv5
I0403 14:56:12.094015 30638 net.cpp:148] Top shape: 100 256 13 13 (4326400)
I0403 14:56:12.094033 30638 net.cpp:156] Memory required for data: 800703600
I0403 14:56:12.094058 30638 layer_factory.hpp:77] Creating layer relu5
I0403 14:56:12.094084 30638 net.cpp:91] Creating Layer relu5
I0403 14:56:12.094102 30638 net.cpp:425] relu5 <- conv5
I0403 14:56:12.094158 30638 net.cpp:386] relu5 -> conv5 (in-place)
I0403 14:56:12.094468 30638 net.cpp:141] Setting up relu5
I0403 14:56:12.094511 30638 net.cpp:148] Top shape: 100 256 13 13 (4326400)
I0403 14:56:12.094533 30638 net.cpp:156] Memory required for data: 818009200
I0403 14:56:12.094549 30638 layer_factory.hpp:77] Creating layer pool5
I0403 14:56:12.094573 30638 net.cpp:91] Creating Layer pool5
I0403 14:56:12.094589 30638 net.cpp:425] pool5 <- conv5
I0403 14:56:12.094611 30638 net.cpp:399] pool5 -> pool5
I0403 14:56:12.094672 30638 net.cpp:141] Setting up pool5
I0403 14:56:12.094699 30638 net.cpp:148] Top shape: 100 256 6 6 (921600)
I0403 14:56:12.094717 30638 net.cpp:156] Memory required for data: 821695600
I0403 14:56:12.094732 30638 layer_factory.hpp:77] Creating layer fc6
I0403 14:56:12.094759 30638 net.cpp:91] Creating Layer fc6
I0403 14:56:12.094777 30638 net.cpp:425] fc6 <- pool5
I0403 14:56:12.094799 30638 net.cpp:399] fc6 -> fc6
I0403 14:56:13.635602 30638 net.cpp:141] Setting up fc6
I0403 14:56:13.635669 30638 net.cpp:148] Top shape: 100 4096 (409600)
I0403 14:56:13.635685 30638 net.cpp:156] Memory required for data: 823334000
I0403 14:56:13.635706 30638 layer_factory.hpp:77] Creating layer relu6
I0403 14:56:13.635731 30638 net.cpp:91] Creating Layer relu6
I0403 14:56:13.635751 30638 net.cpp:425] relu6 <- fc6
I0403 14:56:13.635771 30638 net.cpp:386] relu6 -> fc6 (in-place)
I0403 14:56:13.635980 30638 net.cpp:141] Setting up relu6
I0403 14:56:13.636009 30638 net.cpp:148] Top shape: 100 4096 (409600)
I0403 14:56:13.636024 30638 net.cpp:156] Memory required for data: 824972400
I0403 14:56:13.636039 30638 layer_factory.hpp:77] Creating layer drop6
I0403 14:56:13.636059 30638 net.cpp:91] Creating Layer drop6
I0403 14:56:13.636073 30638 net.cpp:425] drop6 <- fc6
I0403 14:56:13.636090 30638 net.cpp:386] drop6 -> fc6 (in-place)
I0403 14:56:13.636140 30638 net.cpp:141] Setting up drop6
I0403 14:56:13.636164 30638 net.cpp:148] Top shape: 100 4096 (409600)
I0403 14:56:13.636179 30638 net.cpp:156] Memory required for data: 826610800
I0403 14:56:13.636193 30638 layer_factory.hpp:77] Creating layer fc7
I0403 14:56:13.636219 30638 net.cpp:91] Creating Layer fc7
I0403 14:56:13.636237 30638 net.cpp:425] fc7 <- fc6
I0403 14:56:13.636255 30638 net.cpp:399] fc7 -> fc7
I0403 14:56:14.312214 30638 net.cpp:141] Setting up fc7
I0403 14:56:14.312261 30638 net.cpp:148] Top shape: 100 4096 (409600)
I0403 14:56:14.312278 30638 net.cpp:156] Memory required for data: 828249200
I0403 14:56:14.312304 30638 layer_factory.hpp:77] Creating layer relu7
I0403 14:56:14.312327 30638 net.cpp:91] Creating Layer relu7
I0403 14:56:14.312345 30638 net.cpp:425] relu7 <- fc7
I0403 14:56:14.312364 30638 net.cpp:386] relu7 -> fc7 (in-place)
I0403 14:56:14.312763 30638 net.cpp:141] Setting up relu7
I0403 14:56:14.312793 30638 net.cpp:148] Top shape: 100 4096 (409600)
I0403 14:56:14.312840 30638 net.cpp:156] Memory required for data: 829887600
I0403 14:56:14.312857 30638 layer_factory.hpp:77] Creating layer drop7
I0403 14:56:14.312876 30638 net.cpp:91] Creating Layer drop7
I0403 14:56:14.312892 30638 net.cpp:425] drop7 <- fc7
I0403 14:56:14.312909 30638 net.cpp:386] drop7 -> fc7 (in-place)
I0403 14:56:14.312953 30638 net.cpp:141] Setting up drop7
I0403 14:56:14.312978 30638 net.cpp:148] Top shape: 100 4096 (409600)
I0403 14:56:14.312993 30638 net.cpp:156] Memory required for data: 831526000
I0403 14:56:14.313009 30638 layer_factory.hpp:77] Creating layer fc8_plantvillage
I0403 14:56:14.313030 30638 net.cpp:91] Creating Layer fc8_plantvillage
I0403 14:56:14.313045 30638 net.cpp:425] fc8_plantvillage <- fc7
I0403 14:56:14.313063 30638 net.cpp:399] fc8_plantvillage -> fc8_plantvillage
I0403 14:56:14.319816 30638 net.cpp:141] Setting up fc8_plantvillage
I0403 14:56:14.319846 30638 net.cpp:148] Top shape: 100 38 (3800)
I0403 14:56:14.319862 30638 net.cpp:156] Memory required for data: 831541200
I0403 14:56:14.319880 30638 layer_factory.hpp:77] Creating layer fc8_plantvillage_fc8_plantvillage_0_split
I0403 14:56:14.319900 30638 net.cpp:91] Creating Layer fc8_plantvillage_fc8_plantvillage_0_split
I0403 14:56:14.319916 30638 net.cpp:425] fc8_plantvillage_fc8_plantvillage_0_split <- fc8_plantvillage
I0403 14:56:14.319936 30638 net.cpp:399] fc8_plantvillage_fc8_plantvillage_0_split -> fc8_plantvillage_fc8_plantvillage_0_split_0
I0403 14:56:14.319957 30638 net.cpp:399] fc8_plantvillage_fc8_plantvillage_0_split -> fc8_plantvillage_fc8_plantvillage_0_split_1
I0403 14:56:14.319977 30638 net.cpp:399] fc8_plantvillage_fc8_plantvillage_0_split -> fc8_plantvillage_fc8_plantvillage_0_split_2
I0403 14:56:14.320052 30638 net.cpp:141] Setting up fc8_plantvillage_fc8_plantvillage_0_split
I0403 14:56:14.320077 30638 net.cpp:148] Top shape: 100 38 (3800)
I0403 14:56:14.320093 30638 net.cpp:148] Top shape: 100 38 (3800)
I0403 14:56:14.320109 30638 net.cpp:148] Top shape: 100 38 (3800)
I0403 14:56:14.320124 30638 net.cpp:156] Memory required for data: 831586800
I0403 14:56:14.320139 30638 layer_factory.hpp:77] Creating layer prob
I0403 14:56:14.320159 30638 net.cpp:91] Creating Layer prob
I0403 14:56:14.320176 30638 net.cpp:425] prob <- fc8_plantvillage_fc8_plantvillage_0_split_0
I0403 14:56:14.320195 30638 net.cpp:399] prob -> prob
I0403 14:56:14.320421 30638 net.cpp:141] Setting up prob
I0403 14:56:14.320452 30638 net.cpp:148] Top shape: 100 38 (3800)
I0403 14:56:14.320474 30638 net.cpp:156] Memory required for data: 831602000
I0403 14:56:14.320489 30638 layer_factory.hpp:77] Creating layer hdf5out
I0403 14:56:14.320508 30638 net.cpp:91] Creating Layer hdf5out
I0403 14:56:14.320524 30638 net.cpp:425] hdf5out <- prob
I0403 14:56:14.320541 30638 net.cpp:425] hdf5out <- label_data_1_split_0
I0403 14:56:14.324648 30638 net.cpp:141] Setting up hdf5out
…
