…
I0403 14:56:35.520979 30647 net.cpp:313] The NetState phase (1) differed from the phase (0) specified by a rule in layer data
I0403 14:56:35.521294 30647 net.cpp:49] Initializing net from parameters: 
state {
  phase: TEST
}
layer {
  name: "data"
  type: "Data"
  top: "data"
  top: "label"
  include {
    phase: TEST
  }
  transform_param {
    crop_size: 227
    mean_file: "/home/mohanty/data/final_dataset/lmdb/segmented-80-20/mean.binaryproto"
  }
  data_param {
    source: "/home/mohanty/data/final_dataset/lmdb/segmented-80-20/test_db"
    batch_size: 100
    backend: LMDB
  }
}
layer {
  name: "conv1"
  type: "Convolution"
  bottom: "data"
  top: "conv1"
  param {
    lr_mult: 1
    decay_mult: 1
  }
  param {
    lr_mult: 2
    decay_mult: 0
  }
  convolution_param {
    num_output: 96
    kernel_size: 11
    stride: 4
    weight_filler {
      type: "gaussian"
      std: 0.01
    }
    bias_filler {
      type: "constant"
      value: 0
    }
  }
}
layer {
  name: "relu1"
  type: "ReLU"
  bottom: "conv1"
  top: "conv1"
}
layer {
  name: "norm1"
  type: "LRN"
  bottom: "conv1"
  top: "norm1"
  lrn_param {
    local_size: 5
    alpha: 0.0001
    beta: 0.75
  }
}
layer {
  name: "pool1"
  type: "Pooling"
  bottom: "norm1"
  top: "pool1"
  pooling_param {
    pool: MAX
    kernel_size: 3
    stride: 2
  }
}
layer {
  name: "conv2"
  type: "Convolution"
  bottom: "pool1"
  top: "conv2"
  param {
    lr_mult: 1
    decay_mult: 1
  }
  param {
    lr_mult: 2
    decay_mult: 0
  }
  convolution_param {
    num_output: 256
    pad: 2
    kernel_size: 5
    group: 2
    weight_filler {
      type: "gaussian"
      std: 0.01
    }
    bias_filler {
      type: "constant"
      value: 0.1
    }
  }
}
layer {
  name: "relu2"
  type: "ReLU"
  bottom: "conv2"
  top: "conv2"
}
layer {
  name: "norm2"
  type: "LRN"
  bottom: "conv2"
  top: "norm2"
  lrn_param {
    local_size: 5
    alpha: 0.0001
    beta: 0.75
  }
}
layer {
  name: "pool2"
  type: "Pooling"
  bottom: "norm2"
  top: "pool2"
  pooling_param {
    pool: MAX
    kernel_size: 3
    stride: 2
  }
}
layer {
  name: "conv3"
  type: "Convolution"
  bottom: "pool2"
  top: "conv3"
  param {
    lr_mult: 1
    decay_mult: 1
  }
  param {
    lr_mult: 2
    decay_mult: 0
  }
  convolution_param {
    num_output: 384
    pad: 1
    kernel_size: 3
    weight_filler {
      type: "gaussian"
      std: 0.01
    }
    bias_filler {
      type: "constant"
      value: 0
    }
  }
}
layer {
  name: "relu3"
  type: "ReLU"
  bottom: "conv3"
  top: "conv3"
}
layer {
  name: "conv4"
  type: "Convolution"
  bottom: "conv3"
  top: "conv4"
  param {
    lr_mult: 1
    decay_mult: 1
  }
  param {
    lr_mult: 2
    decay_mult: 0
  }
  convolution_param {
    num_output: 384
    pad: 1
    kernel_size: 3
    group: 2
    weight_filler {
      type: "gaussian"
      std: 0.01
    }
    bias_filler {
      type: "constant"
      value: 0.1
    }
  }
}
layer {
  name: "relu4"
  type: "ReLU"
  bottom: "conv4"
  top: "conv4"
}
layer {
  name: "conv5"
  type: "Convolution"
  bottom: "conv4"
  top: "conv5"
  param {
    lr_mult: 1
    decay_mult: 1
  }
  param {
    lr_mult: 2
    decay_mult: 0
  }
  convolution_param {
    num_output: 256
    pad: 1
    kernel_size: 3
    group: 2
    weight_filler {
      type: "gaussian"
      std: 0.01
    }
    bias_filler {
      type: "constant"
      value: 0.1
    }
  }
}
layer {
  name: "relu5"
  type: "ReLU"
  bottom: "conv5"
  top: "conv5"
}
layer {
  name: "pool5"
  type: "Pooling"
  bottom: "conv5"
  top: "pool5"
  pooling_param {
    pool: MAX
    kernel_size: 3
    stride: 2
  }
}
layer {
  name: "fc6"
  type: "InnerProduct"
  bottom: "pool5"
  top: "fc6"
  param {
    lr_mult: 1
    decay_mult: 1
  }
  param {
    lr_mult: 2
    decay_mult: 0
  }
  inner_product_param {
    num_output: 4096
    weight_filler {
      type: "gaussian"
      std: 0.005
    }
    bias_filler {
      type: "constant"
      value: 0.1
    }
  }
}
layer {
  name: "relu6"
  type: "ReLU"
  bottom: "fc6"
  top: "fc6"
}
layer {
  name: "drop6"
  type: "Dropout"
  bottom: "fc6"
  top: "fc6"
  dropout_param {
    dropout_ratio: 0.5
  }
}
layer {
  name: "fc7"
  type: "InnerProduct"
  bottom: "fc6"
  top: "fc7"
  param {
    lr_mult: 1
    decay_mult: 1
  }
  param {
    lr_mult: 2
    decay_mult: 0
  }
  inner_product_param {
    num_output: 4096
    weight_filler {
      type: "gaussian"
      std: 0.005
    }
    bias_filler {
      type: "constant"
      value: 0.1
    }
  }
}
layer {
  name: "relu7"
  type: "ReLU"
  bottom: "fc7"
  top: "fc7"
}
layer {
  name: "drop7"
  type: "Dropout"
  bottom: "fc7"
  top: "fc7"
  dropout_param {
    dropout_ratio: 0.5
  }
}
layer {
  name: "fc8_plantvillage"
  type: "InnerProduct"
  bottom: "fc7"
  top: "fc8_plantvillage"
  param {
    lr_mult: 1
    decay_mult: 1
  }
  param {
    lr_mult: 2
    decay_mult: 0
  }
  inner_product_param {
    num_output: 38
    weight_filler {
      type: "gaussian"
      std: 0.01
    }
    bias_filler {
      type: "constant"
      value: 0
    }
  }
}
layer {
  name: "prob"
  type: "Softmax"
  bottom: "fc8_plantvillage"
  top: "prob"
  include {
    phase: TEST
  }
}
layer {
  name: "hdf5out"
  type: "HDF5Output"
  bottom: "prob"
  bottom: "label"
  include {
    phase: TEST
  }
  hdf5_output_param {
    file_name: "hdf5_dumps/iter_6090.h5"
  }
}
layer {
  name: "loss"
  type: "SoftmaxWithLoss"
  bottom: "fc8_plantvillage"
  bottom: "label"
  top: "loss"
}
layer {
  name: "accuracy"
  type: "Accuracy"
  bottom: "fc8_plantvillage"
  bottom: "label"
  top: "accuracy"
  include {
    phase: TEST
  }
}
I0403 14:56:35.521881 30647 layer_factory.hpp:77] Creating layer data
I0403 14:56:35.522547 30647 net.cpp:91] Creating Layer data
I0403 14:56:35.522579 30647 net.cpp:399] data -> data
I0403 14:56:35.522636 30647 net.cpp:399] data -> label
I0403 14:56:35.522675 30647 data_transformer.cpp:25] Loading mean file from: /home/mohanty/data/final_dataset/lmdb/segmented-80-20/mean.binaryproto
I0403 14:56:35.525661 30649 db_lmdb.cpp:38] Opened lmdb /home/mohanty/data/final_dataset/lmdb/segmented-80-20/test_db
I0403 14:56:35.539079 30647 data_layer.cpp:41] output data size: 100,3,227,227
I0403 14:56:35.674258 30647 net.cpp:141] Setting up data
I0403 14:56:35.674346 30647 net.cpp:148] Top shape: 100 3 227 227 (15458700)
I0403 14:56:35.674371 30647 net.cpp:148] Top shape: 100 (100)
I0403 14:56:35.674386 30647 net.cpp:156] Memory required for data: 61835200
I0403 14:56:35.674417 30647 layer_factory.hpp:77] Creating layer label_data_1_split
I0403 14:56:35.674443 30647 net.cpp:91] Creating Layer label_data_1_split
I0403 14:56:35.674461 30647 net.cpp:425] label_data_1_split <- label
I0403 14:56:35.674492 30647 net.cpp:399] label_data_1_split -> label_data_1_split_0
I0403 14:56:35.674520 30647 net.cpp:399] label_data_1_split -> label_data_1_split_1
I0403 14:56:35.674542 30647 net.cpp:399] label_data_1_split -> label_data_1_split_2
I0403 14:56:35.674607 30647 net.cpp:141] Setting up label_data_1_split
I0403 14:56:35.674630 30647 net.cpp:148] Top shape: 100 (100)
I0403 14:56:35.674649 30647 net.cpp:148] Top shape: 100 (100)
I0403 14:56:35.674664 30647 net.cpp:148] Top shape: 100 (100)
I0403 14:56:35.674679 30647 net.cpp:156] Memory required for data: 61836400
I0403 14:56:35.674693 30647 layer_factory.hpp:77] Creating layer conv1
I0403 14:56:35.674726 30647 net.cpp:91] Creating Layer conv1
I0403 14:56:35.674746 30647 net.cpp:425] conv1 <- data
I0403 14:56:35.674765 30647 net.cpp:399] conv1 -> conv1
I0403 14:56:35.822319 30647 net.cpp:141] Setting up conv1
I0403 14:56:35.822407 30647 net.cpp:148] Top shape: 100 96 55 55 (29040000)
I0403 14:56:35.822427 30647 net.cpp:156] Memory required for data: 177996400
I0403 14:56:35.822459 30647 layer_factory.hpp:77] Creating layer relu1
I0403 14:56:35.822490 30647 net.cpp:91] Creating Layer relu1
I0403 14:56:35.822510 30647 net.cpp:425] relu1 <- conv1
I0403 14:56:35.822530 30647 net.cpp:386] relu1 -> conv1 (in-place)
I0403 14:56:35.822803 30647 net.cpp:141] Setting up relu1
I0403 14:56:35.822830 30647 net.cpp:148] Top shape: 100 96 55 55 (29040000)
I0403 14:56:35.822881 30647 net.cpp:156] Memory required for data: 294156400
I0403 14:56:35.822899 30647 layer_factory.hpp:77] Creating layer norm1
I0403 14:56:35.822927 30647 net.cpp:91] Creating Layer norm1
I0403 14:56:35.822948 30647 net.cpp:425] norm1 <- conv1
I0403 14:56:35.822968 30647 net.cpp:399] norm1 -> norm1
I0403 14:56:35.823345 30647 net.cpp:141] Setting up norm1
I0403 14:56:35.823377 30647 net.cpp:148] Top shape: 100 96 55 55 (29040000)
I0403 14:56:35.823396 30647 net.cpp:156] Memory required for data: 410316400
I0403 14:56:35.823412 30647 layer_factory.hpp:77] Creating layer pool1
I0403 14:56:35.823437 30647 net.cpp:91] Creating Layer pool1
I0403 14:56:35.823456 30647 net.cpp:425] pool1 <- norm1
I0403 14:56:35.823477 30647 net.cpp:399] pool1 -> pool1
I0403 14:56:35.823549 30647 net.cpp:141] Setting up pool1
I0403 14:56:35.823575 30647 net.cpp:148] Top shape: 100 96 27 27 (6998400)
I0403 14:56:35.823591 30647 net.cpp:156] Memory required for data: 438310000
I0403 14:56:35.823607 30647 layer_factory.hpp:77] Creating layer conv2
I0403 14:56:35.823634 30647 net.cpp:91] Creating Layer conv2
I0403 14:56:35.823653 30647 net.cpp:425] conv2 <- pool1
I0403 14:56:35.823674 30647 net.cpp:399] conv2 -> conv2
I0403 14:56:35.838598 30647 net.cpp:141] Setting up conv2
I0403 14:56:35.838649 30647 net.cpp:148] Top shape: 100 256 27 27 (18662400)
I0403 14:56:35.838667 30647 net.cpp:156] Memory required for data: 512959600
I0403 14:56:35.838690 30647 layer_factory.hpp:77] Creating layer relu2
I0403 14:56:35.838708 30647 net.cpp:91] Creating Layer relu2
I0403 14:56:35.838724 30647 net.cpp:425] relu2 <- conv2
I0403 14:56:35.838742 30647 net.cpp:386] relu2 -> conv2 (in-place)
I0403 14:56:35.839017 30647 net.cpp:141] Setting up relu2
I0403 14:56:35.839046 30647 net.cpp:148] Top shape: 100 256 27 27 (18662400)
I0403 14:56:35.839061 30647 net.cpp:156] Memory required for data: 587609200
I0403 14:56:35.839076 30647 layer_factory.hpp:77] Creating layer norm2
I0403 14:56:35.839098 30647 net.cpp:91] Creating Layer norm2
I0403 14:56:35.839117 30647 net.cpp:425] norm2 <- conv2
I0403 14:56:35.839135 30647 net.cpp:399] norm2 -> norm2
I0403 14:56:35.839418 30647 net.cpp:141] Setting up norm2
I0403 14:56:35.839448 30647 net.cpp:148] Top shape: 100 256 27 27 (18662400)
I0403 14:56:35.839465 30647 net.cpp:156] Memory required for data: 662258800
I0403 14:56:35.839481 30647 layer_factory.hpp:77] Creating layer pool2
I0403 14:56:35.839499 30647 net.cpp:91] Creating Layer pool2
I0403 14:56:35.839515 30647 net.cpp:425] pool2 <- norm2
I0403 14:56:35.839532 30647 net.cpp:399] pool2 -> pool2
I0403 14:56:35.839587 30647 net.cpp:141] Setting up pool2
I0403 14:56:35.839612 30647 net.cpp:148] Top shape: 100 256 13 13 (4326400)
I0403 14:56:35.839627 30647 net.cpp:156] Memory required for data: 679564400
I0403 14:56:35.839642 30647 layer_factory.hpp:77] Creating layer conv3
I0403 14:56:35.839663 30647 net.cpp:91] Creating Layer conv3
I0403 14:56:35.839681 30647 net.cpp:425] conv3 <- pool2
I0403 14:56:35.839702 30647 net.cpp:399] conv3 -> conv3
I0403 14:56:35.878352 30647 net.cpp:141] Setting up conv3
I0403 14:56:35.878442 30647 net.cpp:148] Top shape: 100 384 13 13 (6489600)
I0403 14:56:35.878463 30647 net.cpp:156] Memory required for data: 705522800
I0403 14:56:35.878489 30647 layer_factory.hpp:77] Creating layer relu3
I0403 14:56:35.878511 30647 net.cpp:91] Creating Layer relu3
I0403 14:56:35.878528 30647 net.cpp:425] relu3 <- conv3
I0403 14:56:35.878550 30647 net.cpp:386] relu3 -> conv3 (in-place)
I0403 14:56:35.878828 30647 net.cpp:141] Setting up relu3
I0403 14:56:35.878859 30647 net.cpp:148] Top shape: 100 384 13 13 (6489600)
I0403 14:56:35.878875 30647 net.cpp:156] Memory required for data: 731481200
I0403 14:56:35.878892 30647 layer_factory.hpp:77] Creating layer conv4
I0403 14:56:35.878921 30647 net.cpp:91] Creating Layer conv4
I0403 14:56:35.878938 30647 net.cpp:425] conv4 <- conv3
I0403 14:56:35.878957 30647 net.cpp:399] conv4 -> conv4
I0403 14:56:35.909343 30647 net.cpp:141] Setting up conv4
I0403 14:56:35.909396 30647 net.cpp:148] Top shape: 100 384 13 13 (6489600)
I0403 14:56:35.909447 30647 net.cpp:156] Memory required for data: 757439600
I0403 14:56:35.909471 30647 layer_factory.hpp:77] Creating layer relu4
I0403 14:56:35.909497 30647 net.cpp:91] Creating Layer relu4
I0403 14:56:35.909515 30647 net.cpp:425] relu4 <- conv4
I0403 14:56:35.909535 30647 net.cpp:386] relu4 -> conv4 (in-place)
I0403 14:56:35.909867 30647 net.cpp:141] Setting up relu4
I0403 14:56:35.909894 30647 net.cpp:148] Top shape: 100 384 13 13 (6489600)
I0403 14:56:35.909910 30647 net.cpp:156] Memory required for data: 783398000
I0403 14:56:35.909925 30647 layer_factory.hpp:77] Creating layer conv5
I0403 14:56:35.909955 30647 net.cpp:91] Creating Layer conv5
I0403 14:56:35.909973 30647 net.cpp:425] conv5 <- conv4
I0403 14:56:35.909992 30647 net.cpp:399] conv5 -> conv5
I0403 14:56:35.930424 30647 net.cpp:141] Setting up conv5
I0403 14:56:35.930464 30647 net.cpp:148] Top shape: 100 256 13 13 (4326400)
I0403 14:56:35.930481 30647 net.cpp:156] Memory required for data: 800703600
I0403 14:56:35.930505 30647 layer_factory.hpp:77] Creating layer relu5
I0403 14:56:35.930524 30647 net.cpp:91] Creating Layer relu5
I0403 14:56:35.930541 30647 net.cpp:425] relu5 <- conv5
I0403 14:56:35.930557 30647 net.cpp:386] relu5 -> conv5 (in-place)
I0403 14:56:35.930835 30647 net.cpp:141] Setting up relu5
I0403 14:56:35.930874 30647 net.cpp:148] Top shape: 100 256 13 13 (4326400)
I0403 14:56:35.930893 30647 net.cpp:156] Memory required for data: 818009200
I0403 14:56:35.930909 30647 layer_factory.hpp:77] Creating layer pool5
I0403 14:56:35.930932 30647 net.cpp:91] Creating Layer pool5
I0403 14:56:35.930948 30647 net.cpp:425] pool5 <- conv5
I0403 14:56:35.930968 30647 net.cpp:399] pool5 -> pool5
I0403 14:56:35.931028 30647 net.cpp:141] Setting up pool5
I0403 14:56:35.931052 30647 net.cpp:148] Top shape: 100 256 6 6 (921600)
I0403 14:56:35.931067 30647 net.cpp:156] Memory required for data: 821695600
I0403 14:56:35.931082 30647 layer_factory.hpp:77] Creating layer fc6
I0403 14:56:35.931112 30647 net.cpp:91] Creating Layer fc6
I0403 14:56:35.931130 30647 net.cpp:425] fc6 <- pool5
I0403 14:56:35.931151 30647 net.cpp:399] fc6 -> fc6
I0403 14:56:37.486346 30647 net.cpp:141] Setting up fc6
I0403 14:56:37.486389 30647 net.cpp:148] Top shape: 100 4096 (409600)
I0403 14:56:37.486405 30647 net.cpp:156] Memory required for data: 823334000
I0403 14:56:37.486426 30647 layer_factory.hpp:77] Creating layer relu6
I0403 14:56:37.486451 30647 net.cpp:91] Creating Layer relu6
I0403 14:56:37.486469 30647 net.cpp:425] relu6 <- fc6
I0403 14:56:37.486490 30647 net.cpp:386] relu6 -> fc6 (in-place)
I0403 14:56:37.486699 30647 net.cpp:141] Setting up relu6
I0403 14:56:37.486726 30647 net.cpp:148] Top shape: 100 4096 (409600)
I0403 14:56:37.486740 30647 net.cpp:156] Memory required for data: 824972400
I0403 14:56:37.486757 30647 layer_factory.hpp:77] Creating layer drop6
I0403 14:56:37.486774 30647 net.cpp:91] Creating Layer drop6
I0403 14:56:37.486789 30647 net.cpp:425] drop6 <- fc6
I0403 14:56:37.486805 30647 net.cpp:386] drop6 -> fc6 (in-place)
I0403 14:56:37.486856 30647 net.cpp:141] Setting up drop6
I0403 14:56:37.486879 30647 net.cpp:148] Top shape: 100 4096 (409600)
I0403 14:56:37.486894 30647 net.cpp:156] Memory required for data: 826610800
I0403 14:56:37.486908 30647 layer_factory.hpp:77] Creating layer fc7
I0403 14:56:37.486930 30647 net.cpp:91] Creating Layer fc7
I0403 14:56:37.486948 30647 net.cpp:425] fc7 <- fc6
I0403 14:56:37.486964 30647 net.cpp:399] fc7 -> fc7
I0403 14:56:38.167727 30647 net.cpp:141] Setting up fc7
I0403 14:56:38.167788 30647 net.cpp:148] Top shape: 100 4096 (409600)
I0403 14:56:38.167804 30647 net.cpp:156] Memory required for data: 828249200
I0403 14:56:38.167824 30647 layer_factory.hpp:77] Creating layer relu7
I0403 14:56:38.167850 30647 net.cpp:91] Creating Layer relu7
I0403 14:56:38.167870 30647 net.cpp:425] relu7 <- fc7
I0403 14:56:38.167891 30647 net.cpp:386] relu7 -> fc7 (in-place)
I0403 14:56:38.168303 30647 net.cpp:141] Setting up relu7
I0403 14:56:38.168332 30647 net.cpp:148] Top shape: 100 4096 (409600)
I0403 14:56:38.168373 30647 net.cpp:156] Memory required for data: 829887600
I0403 14:56:38.168391 30647 layer_factory.hpp:77] Creating layer drop7
I0403 14:56:38.168411 30647 net.cpp:91] Creating Layer drop7
I0403 14:56:38.168427 30647 net.cpp:425] drop7 <- fc7
I0403 14:56:38.168454 30647 net.cpp:386] drop7 -> fc7 (in-place)
I0403 14:56:38.168500 30647 net.cpp:141] Setting up drop7
I0403 14:56:38.168524 30647 net.cpp:148] Top shape: 100 4096 (409600)
I0403 14:56:38.168539 30647 net.cpp:156] Memory required for data: 831526000
I0403 14:56:38.168553 30647 layer_factory.hpp:77] Creating layer fc8_plantvillage
I0403 14:56:38.168576 30647 net.cpp:91] Creating Layer fc8_plantvillage
I0403 14:56:38.168594 30647 net.cpp:425] fc8_plantvillage <- fc7
I0403 14:56:38.168612 30647 net.cpp:399] fc8_plantvillage -> fc8_plantvillage
I0403 14:56:38.175354 30647 net.cpp:141] Setting up fc8_plantvillage
I0403 14:56:38.175385 30647 net.cpp:148] Top shape: 100 38 (3800)
I0403 14:56:38.175402 30647 net.cpp:156] Memory required for data: 831541200
I0403 14:56:38.175422 30647 layer_factory.hpp:77] Creating layer fc8_plantvillage_fc8_plantvillage_0_split
I0403 14:56:38.175441 30647 net.cpp:91] Creating Layer fc8_plantvillage_fc8_plantvillage_0_split
I0403 14:56:38.175458 30647 net.cpp:425] fc8_plantvillage_fc8_plantvillage_0_split <- fc8_plantvillage
I0403 14:56:38.175477 30647 net.cpp:399] fc8_plantvillage_fc8_plantvillage_0_split -> fc8_plantvillage_fc8_plantvillage_0_split_0
I0403 14:56:38.175500 30647 net.cpp:399] fc8_plantvillage_fc8_plantvillage_0_split -> fc8_plantvillage_fc8_plantvillage_0_split_1
I0403 14:56:38.175523 30647 net.cpp:399] fc8_plantvillage_fc8_plantvillage_0_split -> fc8_plantvillage_fc8_plantvillage_0_split_2
I0403 14:56:38.175612 30647 net.cpp:141] Setting up fc8_plantvillage_fc8_plantvillage_0_split
I0403 14:56:38.175637 30647 net.cpp:148] Top shape: 100 38 (3800)
I0403 14:56:38.175653 30647 net.cpp:148] Top shape: 100 38 (3800)
I0403 14:56:38.175668 30647 net.cpp:148] Top shape: 100 38 (3800)
I0403 14:56:38.175683 30647 net.cpp:156] Memory required for data: 831586800
I0403 14:56:38.175698 30647 layer_factory.hpp:77] Creating layer prob
I0403 14:56:38.175717 30647 net.cpp:91] Creating Layer prob
I0403 14:56:38.175734 30647 net.cpp:425] prob <- fc8_plantvillage_fc8_plantvillage_0_split_0
I0403 14:56:38.175751 30647 net.cpp:399] prob -> prob
I0403 14:56:38.175976 30647 net.cpp:141] Setting up prob
I0403 14:56:38.176003 30647 net.cpp:148] Top shape: 100 38 (3800)
I0403 14:56:38.176019 30647 net.cpp:156] Memory required for data: 831602000
I0403 14:56:38.176034 30647 layer_factory.hpp:77] Creating layer hdf5out
I0403 14:56:38.176057 30647 net.cpp:91] Creating Layer hdf5out
I0403 14:56:38.176074 30647 net.cpp:425] hdf5out <- prob
I0403 14:56:38.176091 30647 net.cpp:425] hdf5out <- label_data_1_split_0
I0403 14:56:38.180328 30647 net.cpp:141] Setting up hdf5out
…
