…
I0403 15:01:30.525328 30907 net.cpp:313] The NetState phase (1) differed from the phase (0) specified by a rule in layer data
I0403 15:01:30.525662 30907 net.cpp:49] Initializing net from parameters: 
state {
  phase: TEST
}
layer {
  name: "data"
  type: "Data"
  top: "data"
  top: "label"
  include {
    phase: TEST
  }
  transform_param {
    crop_size: 227
    mean_file: "/home/mohanty/data/final_dataset/lmdb/segmented-80-20/mean.binaryproto"
  }
  data_param {
    source: "/home/mohanty/data/final_dataset/lmdb/segmented-80-20/test_db"
    batch_size: 100
    backend: LMDB
  }
}
layer {
  name: "conv1"
  type: "Convolution"
  bottom: "data"
  top: "conv1"
  param {
    lr_mult: 1
    decay_mult: 1
  }
  param {
    lr_mult: 2
    decay_mult: 0
  }
  convolution_param {
    num_output: 96
    kernel_size: 11
    stride: 4
    weight_filler {
      type: "gaussian"
      std: 0.01
    }
    bias_filler {
      type: "constant"
      value: 0
    }
  }
}
layer {
  name: "relu1"
  type: "ReLU"
  bottom: "conv1"
  top: "conv1"
}
layer {
  name: "norm1"
  type: "LRN"
  bottom: "conv1"
  top: "norm1"
  lrn_param {
    local_size: 5
    alpha: 0.0001
    beta: 0.75
  }
}
layer {
  name: "pool1"
  type: "Pooling"
  bottom: "norm1"
  top: "pool1"
  pooling_param {
    pool: MAX
    kernel_size: 3
    stride: 2
  }
}
layer {
  name: "conv2"
  type: "Convolution"
  bottom: "pool1"
  top: "conv2"
  param {
    lr_mult: 1
    decay_mult: 1
  }
  param {
    lr_mult: 2
    decay_mult: 0
  }
  convolution_param {
    num_output: 256
    pad: 2
    kernel_size: 5
    group: 2
    weight_filler {
      type: "gaussian"
      std: 0.01
    }
    bias_filler {
      type: "constant"
      value: 0.1
    }
  }
}
layer {
  name: "relu2"
  type: "ReLU"
  bottom: "conv2"
  top: "conv2"
}
layer {
  name: "norm2"
  type: "LRN"
  bottom: "conv2"
  top: "norm2"
  lrn_param {
    local_size: 5
    alpha: 0.0001
    beta: 0.75
  }
}
layer {
  name: "pool2"
  type: "Pooling"
  bottom: "norm2"
  top: "pool2"
  pooling_param {
    pool: MAX
    kernel_size: 3
    stride: 2
  }
}
layer {
  name: "conv3"
  type: "Convolution"
  bottom: "pool2"
  top: "conv3"
  param {
    lr_mult: 1
    decay_mult: 1
  }
  param {
    lr_mult: 2
    decay_mult: 0
  }
  convolution_param {
    num_output: 384
    pad: 1
    kernel_size: 3
    weight_filler {
      type: "gaussian"
      std: 0.01
    }
    bias_filler {
      type: "constant"
      value: 0
    }
  }
}
layer {
  name: "relu3"
  type: "ReLU"
  bottom: "conv3"
  top: "conv3"
}
layer {
  name: "conv4"
  type: "Convolution"
  bottom: "conv3"
  top: "conv4"
  param {
    lr_mult: 1
    decay_mult: 1
  }
  param {
    lr_mult: 2
    decay_mult: 0
  }
  convolution_param {
    num_output: 384
    pad: 1
    kernel_size: 3
    group: 2
    weight_filler {
      type: "gaussian"
      std: 0.01
    }
    bias_filler {
      type: "constant"
      value: 0.1
    }
  }
}
layer {
  name: "relu4"
  type: "ReLU"
  bottom: "conv4"
  top: "conv4"
}
layer {
  name: "conv5"
  type: "Convolution"
  bottom: "conv4"
  top: "conv5"
  param {
    lr_mult: 1
    decay_mult: 1
  }
  param {
    lr_mult: 2
    decay_mult: 0
  }
  convolution_param {
    num_output: 256
    pad: 1
    kernel_size: 3
    group: 2
    weight_filler {
      type: "gaussian"
      std: 0.01
    }
    bias_filler {
      type: "constant"
      value: 0.1
    }
  }
}
layer {
  name: "relu5"
  type: "ReLU"
  bottom: "conv5"
  top: "conv5"
}
layer {
  name: "pool5"
  type: "Pooling"
  bottom: "conv5"
  top: "pool5"
  pooling_param {
    pool: MAX
    kernel_size: 3
    stride: 2
  }
}
layer {
  name: "fc6"
  type: "InnerProduct"
  bottom: "pool5"
  top: "fc6"
  param {
    lr_mult: 1
    decay_mult: 1
  }
  param {
    lr_mult: 2
    decay_mult: 0
  }
  inner_product_param {
    num_output: 4096
    weight_filler {
      type: "gaussian"
      std: 0.005
    }
    bias_filler {
      type: "constant"
      value: 0.1
    }
  }
}
layer {
  name: "relu6"
  type: "ReLU"
  bottom: "fc6"
  top: "fc6"
}
layer {
  name: "drop6"
  type: "Dropout"
  bottom: "fc6"
  top: "fc6"
  dropout_param {
    dropout_ratio: 0.5
  }
}
layer {
  name: "fc7"
  type: "InnerProduct"
  bottom: "fc6"
  top: "fc7"
  param {
    lr_mult: 1
    decay_mult: 1
  }
  param {
    lr_mult: 2
    decay_mult: 0
  }
  inner_product_param {
    num_output: 4096
    weight_filler {
      type: "gaussian"
      std: 0.005
    }
    bias_filler {
      type: "constant"
      value: 0.1
    }
  }
}
layer {
  name: "relu7"
  type: "ReLU"
  bottom: "fc7"
  top: "fc7"
}
layer {
  name: "drop7"
  type: "Dropout"
  bottom: "fc7"
  top: "fc7"
  dropout_param {
    dropout_ratio: 0.5
  }
}
layer {
  name: "fc8_plantvillage"
  type: "InnerProduct"
  bottom: "fc7"
  top: "fc8_plantvillage"
  param {
    lr_mult: 1
    decay_mult: 1
  }
  param {
    lr_mult: 2
    decay_mult: 0
  }
  inner_product_param {
    num_output: 38
    weight_filler {
      type: "gaussian"
      std: 0.01
    }
    bias_filler {
      type: "constant"
      value: 0
    }
  }
}
layer {
  name: "prob"
  type: "Softmax"
  bottom: "fc8_plantvillage"
  top: "prob"
  include {
    phase: TEST
  }
}
layer {
  name: "hdf5out"
  type: "HDF5Output"
  bottom: "prob"
  bottom: "label"
  include {
    phase: TEST
  }
  hdf5_output_param {
    file_name: "hdf5_dumps/iter_11310.h5"
  }
}
layer {
  name: "loss"
  type: "SoftmaxWithLoss"
  bottom: "fc8_plantvillage"
  bottom: "label"
  top: "loss"
}
layer {
  name: "accuracy"
  type: "Accuracy"
  bottom: "fc8_plantvillage"
  bottom: "label"
  top: "accuracy"
  include {
    phase: TEST
  }
}
I0403 15:01:30.526257 30907 layer_factory.hpp:77] Creating layer data
I0403 15:01:30.526927 30907 net.cpp:91] Creating Layer data
I0403 15:01:30.526962 30907 net.cpp:399] data -> data
I0403 15:01:30.527014 30907 net.cpp:399] data -> label
I0403 15:01:30.527051 30907 data_transformer.cpp:25] Loading mean file from: /home/mohanty/data/final_dataset/lmdb/segmented-80-20/mean.binaryproto
I0403 15:01:30.529992 30909 db_lmdb.cpp:38] Opened lmdb /home/mohanty/data/final_dataset/lmdb/segmented-80-20/test_db
I0403 15:01:30.541671 30907 data_layer.cpp:41] output data size: 100,3,227,227
I0403 15:01:30.676489 30907 net.cpp:141] Setting up data
I0403 15:01:30.676549 30907 net.cpp:148] Top shape: 100 3 227 227 (15458700)
I0403 15:01:30.676574 30907 net.cpp:148] Top shape: 100 (100)
I0403 15:01:30.676590 30907 net.cpp:156] Memory required for data: 61835200
I0403 15:01:30.676620 30907 layer_factory.hpp:77] Creating layer label_data_1_split
I0403 15:01:30.676647 30907 net.cpp:91] Creating Layer label_data_1_split
I0403 15:01:30.676667 30907 net.cpp:425] label_data_1_split <- label
I0403 15:01:30.676702 30907 net.cpp:399] label_data_1_split -> label_data_1_split_0
I0403 15:01:30.676729 30907 net.cpp:399] label_data_1_split -> label_data_1_split_1
I0403 15:01:30.676750 30907 net.cpp:399] label_data_1_split -> label_data_1_split_2
I0403 15:01:30.676816 30907 net.cpp:141] Setting up label_data_1_split
I0403 15:01:30.676842 30907 net.cpp:148] Top shape: 100 (100)
I0403 15:01:30.676861 30907 net.cpp:148] Top shape: 100 (100)
I0403 15:01:30.676877 30907 net.cpp:148] Top shape: 100 (100)
I0403 15:01:30.676892 30907 net.cpp:156] Memory required for data: 61836400
I0403 15:01:30.676908 30907 layer_factory.hpp:77] Creating layer conv1
I0403 15:01:30.676940 30907 net.cpp:91] Creating Layer conv1
I0403 15:01:30.676961 30907 net.cpp:425] conv1 <- data
I0403 15:01:30.676981 30907 net.cpp:399] conv1 -> conv1
I0403 15:01:30.825278 30907 net.cpp:141] Setting up conv1
I0403 15:01:30.825345 30907 net.cpp:148] Top shape: 100 96 55 55 (29040000)
I0403 15:01:30.825366 30907 net.cpp:156] Memory required for data: 177996400
I0403 15:01:30.825398 30907 layer_factory.hpp:77] Creating layer relu1
I0403 15:01:30.825428 30907 net.cpp:91] Creating Layer relu1
I0403 15:01:30.825449 30907 net.cpp:425] relu1 <- conv1
I0403 15:01:30.825469 30907 net.cpp:386] relu1 -> conv1 (in-place)
I0403 15:01:30.825732 30907 net.cpp:141] Setting up relu1
I0403 15:01:30.825762 30907 net.cpp:148] Top shape: 100 96 55 55 (29040000)
I0403 15:01:30.825811 30907 net.cpp:156] Memory required for data: 294156400
I0403 15:01:30.825829 30907 layer_factory.hpp:77] Creating layer norm1
I0403 15:01:30.825857 30907 net.cpp:91] Creating Layer norm1
I0403 15:01:30.825876 30907 net.cpp:425] norm1 <- conv1
I0403 15:01:30.825896 30907 net.cpp:399] norm1 -> norm1
I0403 15:01:30.826236 30907 net.cpp:141] Setting up norm1
I0403 15:01:30.826266 30907 net.cpp:148] Top shape: 100 96 55 55 (29040000)
I0403 15:01:30.826288 30907 net.cpp:156] Memory required for data: 410316400
I0403 15:01:30.826308 30907 layer_factory.hpp:77] Creating layer pool1
I0403 15:01:30.826333 30907 net.cpp:91] Creating Layer pool1
I0403 15:01:30.826351 30907 net.cpp:425] pool1 <- norm1
I0403 15:01:30.826370 30907 net.cpp:399] pool1 -> pool1
I0403 15:01:30.826439 30907 net.cpp:141] Setting up pool1
I0403 15:01:30.826464 30907 net.cpp:148] Top shape: 100 96 27 27 (6998400)
I0403 15:01:30.826481 30907 net.cpp:156] Memory required for data: 438310000
I0403 15:01:30.826498 30907 layer_factory.hpp:77] Creating layer conv2
I0403 15:01:30.826524 30907 net.cpp:91] Creating Layer conv2
I0403 15:01:30.826541 30907 net.cpp:425] conv2 <- pool1
I0403 15:01:30.826561 30907 net.cpp:399] conv2 -> conv2
I0403 15:01:30.842032 30907 net.cpp:141] Setting up conv2
I0403 15:01:30.842072 30907 net.cpp:148] Top shape: 100 256 27 27 (18662400)
I0403 15:01:30.842089 30907 net.cpp:156] Memory required for data: 512959600
I0403 15:01:30.842113 30907 layer_factory.hpp:77] Creating layer relu2
I0403 15:01:30.842136 30907 net.cpp:91] Creating Layer relu2
I0403 15:01:30.842154 30907 net.cpp:425] relu2 <- conv2
I0403 15:01:30.842175 30907 net.cpp:386] relu2 -> conv2 (in-place)
I0403 15:01:30.842449 30907 net.cpp:141] Setting up relu2
I0403 15:01:30.842478 30907 net.cpp:148] Top shape: 100 256 27 27 (18662400)
I0403 15:01:30.842494 30907 net.cpp:156] Memory required for data: 587609200
I0403 15:01:30.842510 30907 layer_factory.hpp:77] Creating layer norm2
I0403 15:01:30.842533 30907 net.cpp:91] Creating Layer norm2
I0403 15:01:30.842551 30907 net.cpp:425] norm2 <- conv2
I0403 15:01:30.842572 30907 net.cpp:399] norm2 -> norm2
I0403 15:01:30.842758 30907 net.cpp:141] Setting up norm2
I0403 15:01:30.842785 30907 net.cpp:148] Top shape: 100 256 27 27 (18662400)
I0403 15:01:30.842802 30907 net.cpp:156] Memory required for data: 662258800
I0403 15:01:30.842818 30907 layer_factory.hpp:77] Creating layer pool2
I0403 15:01:30.842838 30907 net.cpp:91] Creating Layer pool2
I0403 15:01:30.842854 30907 net.cpp:425] pool2 <- norm2
I0403 15:01:30.842872 30907 net.cpp:399] pool2 -> pool2
I0403 15:01:30.842923 30907 net.cpp:141] Setting up pool2
I0403 15:01:30.842947 30907 net.cpp:148] Top shape: 100 256 13 13 (4326400)
I0403 15:01:30.842963 30907 net.cpp:156] Memory required for data: 679564400
I0403 15:01:30.842979 30907 layer_factory.hpp:77] Creating layer conv3
I0403 15:01:30.843003 30907 net.cpp:91] Creating Layer conv3
I0403 15:01:30.843039 30907 net.cpp:425] conv3 <- pool2
I0403 15:01:30.843065 30907 net.cpp:399] conv3 -> conv3
I0403 15:01:30.881789 30907 net.cpp:141] Setting up conv3
I0403 15:01:30.881860 30907 net.cpp:148] Top shape: 100 384 13 13 (6489600)
I0403 15:01:30.881899 30907 net.cpp:156] Memory required for data: 705522800
I0403 15:01:30.881932 30907 layer_factory.hpp:77] Creating layer relu3
I0403 15:01:30.881955 30907 net.cpp:91] Creating Layer relu3
I0403 15:01:30.881973 30907 net.cpp:425] relu3 <- conv3
I0403 15:01:30.882004 30907 net.cpp:386] relu3 -> conv3 (in-place)
I0403 15:01:30.882271 30907 net.cpp:141] Setting up relu3
I0403 15:01:30.882302 30907 net.cpp:148] Top shape: 100 384 13 13 (6489600)
I0403 15:01:30.882318 30907 net.cpp:156] Memory required for data: 731481200
I0403 15:01:30.882334 30907 layer_factory.hpp:77] Creating layer conv4
I0403 15:01:30.882359 30907 net.cpp:91] Creating Layer conv4
I0403 15:01:30.882375 30907 net.cpp:425] conv4 <- conv3
I0403 15:01:30.882393 30907 net.cpp:399] conv4 -> conv4
I0403 15:01:30.911872 30907 net.cpp:141] Setting up conv4
I0403 15:01:30.911922 30907 net.cpp:148] Top shape: 100 384 13 13 (6489600)
I0403 15:01:30.911969 30907 net.cpp:156] Memory required for data: 757439600
I0403 15:01:30.911991 30907 layer_factory.hpp:77] Creating layer relu4
I0403 15:01:30.912012 30907 net.cpp:91] Creating Layer relu4
I0403 15:01:30.912030 30907 net.cpp:425] relu4 <- conv4
I0403 15:01:30.912050 30907 net.cpp:386] relu4 -> conv4 (in-place)
I0403 15:01:30.912335 30907 net.cpp:141] Setting up relu4
I0403 15:01:30.912365 30907 net.cpp:148] Top shape: 100 384 13 13 (6489600)
I0403 15:01:30.912382 30907 net.cpp:156] Memory required for data: 783398000
I0403 15:01:30.912398 30907 layer_factory.hpp:77] Creating layer conv5
I0403 15:01:30.912423 30907 net.cpp:91] Creating Layer conv5
I0403 15:01:30.912441 30907 net.cpp:425] conv5 <- conv4
I0403 15:01:30.912463 30907 net.cpp:399] conv5 -> conv5
I0403 15:01:30.933111 30907 net.cpp:141] Setting up conv5
I0403 15:01:30.933151 30907 net.cpp:148] Top shape: 100 256 13 13 (4326400)
I0403 15:01:30.933168 30907 net.cpp:156] Memory required for data: 800703600
I0403 15:01:30.933194 30907 layer_factory.hpp:77] Creating layer relu5
I0403 15:01:30.933217 30907 net.cpp:91] Creating Layer relu5
I0403 15:01:30.933234 30907 net.cpp:425] relu5 <- conv5
I0403 15:01:30.933254 30907 net.cpp:386] relu5 -> conv5 (in-place)
I0403 15:01:30.933540 30907 net.cpp:141] Setting up relu5
I0403 15:01:30.933568 30907 net.cpp:148] Top shape: 100 256 13 13 (4326400)
I0403 15:01:30.933584 30907 net.cpp:156] Memory required for data: 818009200
I0403 15:01:30.933601 30907 layer_factory.hpp:77] Creating layer pool5
I0403 15:01:30.933626 30907 net.cpp:91] Creating Layer pool5
I0403 15:01:30.933643 30907 net.cpp:425] pool5 <- conv5
I0403 15:01:30.933662 30907 net.cpp:399] pool5 -> pool5
I0403 15:01:30.933727 30907 net.cpp:141] Setting up pool5
I0403 15:01:30.933751 30907 net.cpp:148] Top shape: 100 256 6 6 (921600)
I0403 15:01:30.933768 30907 net.cpp:156] Memory required for data: 821695600
I0403 15:01:30.933782 30907 layer_factory.hpp:77] Creating layer fc6
I0403 15:01:30.933811 30907 net.cpp:91] Creating Layer fc6
I0403 15:01:30.933831 30907 net.cpp:425] fc6 <- pool5
I0403 15:01:30.933851 30907 net.cpp:399] fc6 -> fc6
I0403 15:01:32.477943 30907 net.cpp:141] Setting up fc6
I0403 15:01:32.478008 30907 net.cpp:148] Top shape: 100 4096 (409600)
I0403 15:01:32.478024 30907 net.cpp:156] Memory required for data: 823334000
I0403 15:01:32.478044 30907 layer_factory.hpp:77] Creating layer relu6
I0403 15:01:32.478066 30907 net.cpp:91] Creating Layer relu6
I0403 15:01:32.478085 30907 net.cpp:425] relu6 <- fc6
I0403 15:01:32.478106 30907 net.cpp:386] relu6 -> fc6 (in-place)
I0403 15:01:32.478339 30907 net.cpp:141] Setting up relu6
I0403 15:01:32.478365 30907 net.cpp:148] Top shape: 100 4096 (409600)
I0403 15:01:32.478380 30907 net.cpp:156] Memory required for data: 824972400
I0403 15:01:32.478396 30907 layer_factory.hpp:77] Creating layer drop6
I0403 15:01:32.478415 30907 net.cpp:91] Creating Layer drop6
I0403 15:01:32.478430 30907 net.cpp:425] drop6 <- fc6
I0403 15:01:32.478451 30907 net.cpp:386] drop6 -> fc6 (in-place)
I0403 15:01:32.478508 30907 net.cpp:141] Setting up drop6
I0403 15:01:32.478534 30907 net.cpp:148] Top shape: 100 4096 (409600)
I0403 15:01:32.478550 30907 net.cpp:156] Memory required for data: 826610800
I0403 15:01:32.478565 30907 layer_factory.hpp:77] Creating layer fc7
I0403 15:01:32.478585 30907 net.cpp:91] Creating Layer fc7
I0403 15:01:32.478602 30907 net.cpp:425] fc7 <- fc6
I0403 15:01:32.478623 30907 net.cpp:399] fc7 -> fc7
I0403 15:01:33.157222 30907 net.cpp:141] Setting up fc7
I0403 15:01:33.157266 30907 net.cpp:148] Top shape: 100 4096 (409600)
I0403 15:01:33.157286 30907 net.cpp:156] Memory required for data: 828249200
I0403 15:01:33.157310 30907 layer_factory.hpp:77] Creating layer relu7
I0403 15:01:33.157335 30907 net.cpp:91] Creating Layer relu7
I0403 15:01:33.157387 30907 net.cpp:425] relu7 <- fc7
I0403 15:01:33.157407 30907 net.cpp:386] relu7 -> fc7 (in-place)
I0403 15:01:33.157820 30907 net.cpp:141] Setting up relu7
I0403 15:01:33.157848 30907 net.cpp:148] Top shape: 100 4096 (409600)
I0403 15:01:33.157883 30907 net.cpp:156] Memory required for data: 829887600
I0403 15:01:33.157902 30907 layer_factory.hpp:77] Creating layer drop7
I0403 15:01:33.157920 30907 net.cpp:91] Creating Layer drop7
I0403 15:01:33.157937 30907 net.cpp:425] drop7 <- fc7
I0403 15:01:33.157955 30907 net.cpp:386] drop7 -> fc7 (in-place)
I0403 15:01:33.158000 30907 net.cpp:141] Setting up drop7
I0403 15:01:33.158026 30907 net.cpp:148] Top shape: 100 4096 (409600)
I0403 15:01:33.158041 30907 net.cpp:156] Memory required for data: 831526000
I0403 15:01:33.158058 30907 layer_factory.hpp:77] Creating layer fc8_plantvillage
I0403 15:01:33.158078 30907 net.cpp:91] Creating Layer fc8_plantvillage
I0403 15:01:33.158094 30907 net.cpp:425] fc8_plantvillage <- fc7
I0403 15:01:33.158114 30907 net.cpp:399] fc8_plantvillage -> fc8_plantvillage
I0403 15:01:33.164858 30907 net.cpp:141] Setting up fc8_plantvillage
I0403 15:01:33.164888 30907 net.cpp:148] Top shape: 100 38 (3800)
I0403 15:01:33.164906 30907 net.cpp:156] Memory required for data: 831541200
I0403 15:01:33.164924 30907 layer_factory.hpp:77] Creating layer fc8_plantvillage_fc8_plantvillage_0_split
I0403 15:01:33.164943 30907 net.cpp:91] Creating Layer fc8_plantvillage_fc8_plantvillage_0_split
I0403 15:01:33.164960 30907 net.cpp:425] fc8_plantvillage_fc8_plantvillage_0_split <- fc8_plantvillage
I0403 15:01:33.164981 30907 net.cpp:399] fc8_plantvillage_fc8_plantvillage_0_split -> fc8_plantvillage_fc8_plantvillage_0_split_0
I0403 15:01:33.165004 30907 net.cpp:399] fc8_plantvillage_fc8_plantvillage_0_split -> fc8_plantvillage_fc8_plantvillage_0_split_1
I0403 15:01:33.165025 30907 net.cpp:399] fc8_plantvillage_fc8_plantvillage_0_split -> fc8_plantvillage_fc8_plantvillage_0_split_2
I0403 15:01:33.165102 30907 net.cpp:141] Setting up fc8_plantvillage_fc8_plantvillage_0_split
I0403 15:01:33.165127 30907 net.cpp:148] Top shape: 100 38 (3800)
I0403 15:01:33.165143 30907 net.cpp:148] Top shape: 100 38 (3800)
I0403 15:01:33.165159 30907 net.cpp:148] Top shape: 100 38 (3800)
I0403 15:01:33.165174 30907 net.cpp:156] Memory required for data: 831586800
I0403 15:01:33.165189 30907 layer_factory.hpp:77] Creating layer prob
I0403 15:01:33.165210 30907 net.cpp:91] Creating Layer prob
I0403 15:01:33.165226 30907 net.cpp:425] prob <- fc8_plantvillage_fc8_plantvillage_0_split_0
I0403 15:01:33.165247 30907 net.cpp:399] prob -> prob
I0403 15:01:33.165478 30907 net.cpp:141] Setting up prob
I0403 15:01:33.165504 30907 net.cpp:148] Top shape: 100 38 (3800)
I0403 15:01:33.165520 30907 net.cpp:156] Memory required for data: 831602000
I0403 15:01:33.165535 30907 layer_factory.hpp:77] Creating layer hdf5out
I0403 15:01:33.165555 30907 net.cpp:91] Creating Layer hdf5out
I0403 15:01:33.165571 30907 net.cpp:425] hdf5out <- prob
I0403 15:01:33.165590 30907 net.cpp:425] hdf5out <- label_data_1_split_0
I0403 15:01:33.188390 30907 net.cpp:141] Setting up hdf5out
…
