…
I0403 14:54:59.954725 30612 net.cpp:313] The NetState phase (1) differed from the phase (0) specified by a rule in layer data
I0403 14:54:59.955030 30612 net.cpp:49] Initializing net from parameters: 
state {
  phase: TEST
}
layer {
  name: "data"
  type: "Data"
  top: "data"
  top: "label"
  include {
    phase: TEST
  }
  transform_param {
    crop_size: 227
    mean_file: "/home/mohanty/data/final_dataset/lmdb/segmented-80-20/mean.binaryproto"
  }
  data_param {
    source: "/home/mohanty/data/final_dataset/lmdb/segmented-80-20/test_db"
    batch_size: 100
    backend: LMDB
  }
}
layer {
  name: "conv1"
  type: "Convolution"
  bottom: "data"
  top: "conv1"
  param {
    lr_mult: 1
    decay_mult: 1
  }
  param {
    lr_mult: 2
    decay_mult: 0
  }
  convolution_param {
    num_output: 96
    kernel_size: 11
    stride: 4
    weight_filler {
      type: "gaussian"
      std: 0.01
    }
    bias_filler {
      type: "constant"
      value: 0
    }
  }
}
layer {
  name: "relu1"
  type: "ReLU"
  bottom: "conv1"
  top: "conv1"
}
layer {
  name: "norm1"
  type: "LRN"
  bottom: "conv1"
  top: "norm1"
  lrn_param {
    local_size: 5
    alpha: 0.0001
    beta: 0.75
  }
}
layer {
  name: "pool1"
  type: "Pooling"
  bottom: "norm1"
  top: "pool1"
  pooling_param {
    pool: MAX
    kernel_size: 3
    stride: 2
  }
}
layer {
  name: "conv2"
  type: "Convolution"
  bottom: "pool1"
  top: "conv2"
  param {
    lr_mult: 1
    decay_mult: 1
  }
  param {
    lr_mult: 2
    decay_mult: 0
  }
  convolution_param {
    num_output: 256
    pad: 2
    kernel_size: 5
    group: 2
    weight_filler {
      type: "gaussian"
      std: 0.01
    }
    bias_filler {
      type: "constant"
      value: 0.1
    }
  }
}
layer {
  name: "relu2"
  type: "ReLU"
  bottom: "conv2"
  top: "conv2"
}
layer {
  name: "norm2"
  type: "LRN"
  bottom: "conv2"
  top: "norm2"
  lrn_param {
    local_size: 5
    alpha: 0.0001
    beta: 0.75
  }
}
layer {
  name: "pool2"
  type: "Pooling"
  bottom: "norm2"
  top: "pool2"
  pooling_param {
    pool: MAX
    kernel_size: 3
    stride: 2
  }
}
layer {
  name: "conv3"
  type: "Convolution"
  bottom: "pool2"
  top: "conv3"
  param {
    lr_mult: 1
    decay_mult: 1
  }
  param {
    lr_mult: 2
    decay_mult: 0
  }
  convolution_param {
    num_output: 384
    pad: 1
    kernel_size: 3
    weight_filler {
      type: "gaussian"
      std: 0.01
    }
    bias_filler {
      type: "constant"
      value: 0
    }
  }
}
layer {
  name: "relu3"
  type: "ReLU"
  bottom: "conv3"
  top: "conv3"
}
layer {
  name: "conv4"
  type: "Convolution"
  bottom: "conv3"
  top: "conv4"
  param {
    lr_mult: 1
    decay_mult: 1
  }
  param {
    lr_mult: 2
    decay_mult: 0
  }
  convolution_param {
    num_output: 384
    pad: 1
    kernel_size: 3
    group: 2
    weight_filler {
      type: "gaussian"
      std: 0.01
    }
    bias_filler {
      type: "constant"
      value: 0.1
    }
  }
}
layer {
  name: "relu4"
  type: "ReLU"
  bottom: "conv4"
  top: "conv4"
}
layer {
  name: "conv5"
  type: "Convolution"
  bottom: "conv4"
  top: "conv5"
  param {
    lr_mult: 1
    decay_mult: 1
  }
  param {
    lr_mult: 2
    decay_mult: 0
  }
  convolution_param {
    num_output: 256
    pad: 1
    kernel_size: 3
    group: 2
    weight_filler {
      type: "gaussian"
      std: 0.01
    }
    bias_filler {
      type: "constant"
      value: 0.1
    }
  }
}
layer {
  name: "relu5"
  type: "ReLU"
  bottom: "conv5"
  top: "conv5"
}
layer {
  name: "pool5"
  type: "Pooling"
  bottom: "conv5"
  top: "pool5"
  pooling_param {
    pool: MAX
    kernel_size: 3
    stride: 2
  }
}
layer {
  name: "fc6"
  type: "InnerProduct"
  bottom: "pool5"
  top: "fc6"
  param {
    lr_mult: 1
    decay_mult: 1
  }
  param {
    lr_mult: 2
    decay_mult: 0
  }
  inner_product_param {
    num_output: 4096
    weight_filler {
      type: "gaussian"
      std: 0.005
    }
    bias_filler {
      type: "constant"
      value: 0.1
    }
  }
}
layer {
  name: "relu6"
  type: "ReLU"
  bottom: "fc6"
  top: "fc6"
}
layer {
  name: "drop6"
  type: "Dropout"
  bottom: "fc6"
  top: "fc6"
  dropout_param {
    dropout_ratio: 0.5
  }
}
layer {
  name: "fc7"
  type: "InnerProduct"
  bottom: "fc6"
  top: "fc7"
  param {
    lr_mult: 1
    decay_mult: 1
  }
  param {
    lr_mult: 2
    decay_mult: 0
  }
  inner_product_param {
    num_output: 4096
    weight_filler {
      type: "gaussian"
      std: 0.005
    }
    bias_filler {
      type: "constant"
      value: 0.1
    }
  }
}
layer {
  name: "relu7"
  type: "ReLU"
  bottom: "fc7"
  top: "fc7"
}
layer {
  name: "drop7"
  type: "Dropout"
  bottom: "fc7"
  top: "fc7"
  dropout_param {
    dropout_ratio: 0.5
  }
}
layer {
  name: "fc8_plantvillage"
  type: "InnerProduct"
  bottom: "fc7"
  top: "fc8_plantvillage"
  param {
    lr_mult: 1
    decay_mult: 1
  }
  param {
    lr_mult: 2
    decay_mult: 0
  }
  inner_product_param {
    num_output: 38
    weight_filler {
      type: "gaussian"
      std: 0.01
    }
    bias_filler {
      type: "constant"
      value: 0
    }
  }
}
layer {
  name: "prob"
  type: "Softmax"
  bottom: "fc8_plantvillage"
  top: "prob"
  include {
    phase: TEST
  }
}
layer {
  name: "hdf5out"
  type: "HDF5Output"
  bottom: "prob"
  bottom: "label"
  include {
    phase: TEST
  }
  hdf5_output_param {
    file_name: "hdf5_dumps/iter_4350.h5"
  }
}
layer {
  name: "loss"
  type: "SoftmaxWithLoss"
  bottom: "fc8_plantvillage"
  bottom: "label"
  top: "loss"
}
layer {
  name: "accuracy"
  type: "Accuracy"
  bottom: "fc8_plantvillage"
  bottom: "label"
  top: "accuracy"
  include {
    phase: TEST
  }
}
I0403 14:54:59.955654 30612 layer_factory.hpp:77] Creating layer data
I0403 14:54:59.956321 30612 net.cpp:91] Creating Layer data
I0403 14:54:59.956356 30612 net.cpp:399] data -> data
I0403 14:54:59.956408 30612 net.cpp:399] data -> label
I0403 14:54:59.956445 30612 data_transformer.cpp:25] Loading mean file from: /home/mohanty/data/final_dataset/lmdb/segmented-80-20/mean.binaryproto
I0403 14:54:59.959059 30614 db_lmdb.cpp:38] Opened lmdb /home/mohanty/data/final_dataset/lmdb/segmented-80-20/test_db
I0403 14:54:59.970984 30612 data_layer.cpp:41] output data size: 100,3,227,227
I0403 14:55:00.106701 30612 net.cpp:141] Setting up data
I0403 14:55:00.106794 30612 net.cpp:148] Top shape: 100 3 227 227 (15458700)
I0403 14:55:00.106818 30612 net.cpp:148] Top shape: 100 (100)
I0403 14:55:00.106835 30612 net.cpp:156] Memory required for data: 61835200
I0403 14:55:00.106863 30612 layer_factory.hpp:77] Creating layer label_data_1_split
I0403 14:55:00.106890 30612 net.cpp:91] Creating Layer label_data_1_split
I0403 14:55:00.106910 30612 net.cpp:425] label_data_1_split <- label
I0403 14:55:00.106942 30612 net.cpp:399] label_data_1_split -> label_data_1_split_0
I0403 14:55:00.106971 30612 net.cpp:399] label_data_1_split -> label_data_1_split_1
I0403 14:55:00.106993 30612 net.cpp:399] label_data_1_split -> label_data_1_split_2
I0403 14:55:00.107060 30612 net.cpp:141] Setting up label_data_1_split
I0403 14:55:00.107084 30612 net.cpp:148] Top shape: 100 (100)
I0403 14:55:00.107102 30612 net.cpp:148] Top shape: 100 (100)
I0403 14:55:00.107120 30612 net.cpp:148] Top shape: 100 (100)
I0403 14:55:00.107134 30612 net.cpp:156] Memory required for data: 61836400
I0403 14:55:00.107149 30612 layer_factory.hpp:77] Creating layer conv1
I0403 14:55:00.107184 30612 net.cpp:91] Creating Layer conv1
I0403 14:55:00.107203 30612 net.cpp:425] conv1 <- data
I0403 14:55:00.107223 30612 net.cpp:399] conv1 -> conv1
I0403 14:55:00.251999 30612 net.cpp:141] Setting up conv1
I0403 14:55:00.252075 30612 net.cpp:148] Top shape: 100 96 55 55 (29040000)
I0403 14:55:00.252094 30612 net.cpp:156] Memory required for data: 177996400
I0403 14:55:00.252126 30612 layer_factory.hpp:77] Creating layer relu1
I0403 14:55:00.252156 30612 net.cpp:91] Creating Layer relu1
I0403 14:55:00.252177 30612 net.cpp:425] relu1 <- conv1
I0403 14:55:00.252197 30612 net.cpp:386] relu1 -> conv1 (in-place)
I0403 14:55:00.252460 30612 net.cpp:141] Setting up relu1
I0403 14:55:00.252490 30612 net.cpp:148] Top shape: 100 96 55 55 (29040000)
I0403 14:55:00.252539 30612 net.cpp:156] Memory required for data: 294156400
I0403 14:55:00.252557 30612 layer_factory.hpp:77] Creating layer norm1
I0403 14:55:00.252588 30612 net.cpp:91] Creating Layer norm1
I0403 14:55:00.252605 30612 net.cpp:425] norm1 <- conv1
I0403 14:55:00.252624 30612 net.cpp:399] norm1 -> norm1
I0403 14:55:00.252929 30612 net.cpp:141] Setting up norm1
I0403 14:55:00.252959 30612 net.cpp:148] Top shape: 100 96 55 55 (29040000)
I0403 14:55:00.252975 30612 net.cpp:156] Memory required for data: 410316400
I0403 14:55:00.252992 30612 layer_factory.hpp:77] Creating layer pool1
I0403 14:55:00.253016 30612 net.cpp:91] Creating Layer pool1
I0403 14:55:00.253034 30612 net.cpp:425] pool1 <- norm1
I0403 14:55:00.253053 30612 net.cpp:399] pool1 -> pool1
I0403 14:55:00.253120 30612 net.cpp:141] Setting up pool1
I0403 14:55:00.253146 30612 net.cpp:148] Top shape: 100 96 27 27 (6998400)
I0403 14:55:00.253161 30612 net.cpp:156] Memory required for data: 438310000
I0403 14:55:00.253176 30612 layer_factory.hpp:77] Creating layer conv2
I0403 14:55:00.253202 30612 net.cpp:91] Creating Layer conv2
I0403 14:55:00.253219 30612 net.cpp:425] conv2 <- pool1
I0403 14:55:00.253238 30612 net.cpp:399] conv2 -> conv2
I0403 14:55:00.268060 30612 net.cpp:141] Setting up conv2
I0403 14:55:00.268095 30612 net.cpp:148] Top shape: 100 256 27 27 (18662400)
I0403 14:55:00.268115 30612 net.cpp:156] Memory required for data: 512959600
I0403 14:55:00.268138 30612 layer_factory.hpp:77] Creating layer relu2
I0403 14:55:00.268157 30612 net.cpp:91] Creating Layer relu2
I0403 14:55:00.268174 30612 net.cpp:425] relu2 <- conv2
I0403 14:55:00.268193 30612 net.cpp:386] relu2 -> conv2 (in-place)
I0403 14:55:00.268462 30612 net.cpp:141] Setting up relu2
I0403 14:55:00.268491 30612 net.cpp:148] Top shape: 100 256 27 27 (18662400)
I0403 14:55:00.268507 30612 net.cpp:156] Memory required for data: 587609200
I0403 14:55:00.268523 30612 layer_factory.hpp:77] Creating layer norm2
I0403 14:55:00.268544 30612 net.cpp:91] Creating Layer norm2
I0403 14:55:00.268561 30612 net.cpp:425] norm2 <- conv2
I0403 14:55:00.268581 30612 net.cpp:399] norm2 -> norm2
I0403 14:55:00.268760 30612 net.cpp:141] Setting up norm2
I0403 14:55:00.268789 30612 net.cpp:148] Top shape: 100 256 27 27 (18662400)
I0403 14:55:00.268805 30612 net.cpp:156] Memory required for data: 662258800
I0403 14:55:00.268821 30612 layer_factory.hpp:77] Creating layer pool2
I0403 14:55:00.268839 30612 net.cpp:91] Creating Layer pool2
I0403 14:55:00.268857 30612 net.cpp:425] pool2 <- norm2
I0403 14:55:00.268874 30612 net.cpp:399] pool2 -> pool2
I0403 14:55:00.268923 30612 net.cpp:141] Setting up pool2
I0403 14:55:00.268947 30612 net.cpp:148] Top shape: 100 256 13 13 (4326400)
I0403 14:55:00.268962 30612 net.cpp:156] Memory required for data: 679564400
I0403 14:55:00.268977 30612 layer_factory.hpp:77] Creating layer conv3
I0403 14:55:00.269001 30612 net.cpp:91] Creating Layer conv3
I0403 14:55:00.269017 30612 net.cpp:425] conv3 <- pool2
I0403 14:55:00.269037 30612 net.cpp:399] conv3 -> conv3
I0403 14:55:00.308146 30612 net.cpp:141] Setting up conv3
I0403 14:55:00.308212 30612 net.cpp:148] Top shape: 100 384 13 13 (6489600)
I0403 14:55:00.308229 30612 net.cpp:156] Memory required for data: 705522800
I0403 14:55:00.308260 30612 layer_factory.hpp:77] Creating layer relu3
I0403 14:55:00.308284 30612 net.cpp:91] Creating Layer relu3
I0403 14:55:00.308302 30612 net.cpp:425] relu3 <- conv3
I0403 14:55:00.308322 30612 net.cpp:386] relu3 -> conv3 (in-place)
I0403 14:55:00.308606 30612 net.cpp:141] Setting up relu3
I0403 14:55:00.308635 30612 net.cpp:148] Top shape: 100 384 13 13 (6489600)
I0403 14:55:00.308651 30612 net.cpp:156] Memory required for data: 731481200
I0403 14:55:00.308668 30612 layer_factory.hpp:77] Creating layer conv4
I0403 14:55:00.308693 30612 net.cpp:91] Creating Layer conv4
I0403 14:55:00.308712 30612 net.cpp:425] conv4 <- conv3
I0403 14:55:00.308730 30612 net.cpp:399] conv4 -> conv4
I0403 14:55:00.339211 30612 net.cpp:141] Setting up conv4
I0403 14:55:00.339267 30612 net.cpp:148] Top shape: 100 384 13 13 (6489600)
I0403 14:55:00.339318 30612 net.cpp:156] Memory required for data: 757439600
I0403 14:55:00.339340 30612 layer_factory.hpp:77] Creating layer relu4
I0403 14:55:00.339364 30612 net.cpp:91] Creating Layer relu4
I0403 14:55:00.339382 30612 net.cpp:425] relu4 <- conv4
I0403 14:55:00.339401 30612 net.cpp:386] relu4 -> conv4 (in-place)
I0403 14:55:00.339689 30612 net.cpp:141] Setting up relu4
I0403 14:55:00.339720 30612 net.cpp:148] Top shape: 100 384 13 13 (6489600)
I0403 14:55:00.339736 30612 net.cpp:156] Memory required for data: 783398000
I0403 14:55:00.339752 30612 layer_factory.hpp:77] Creating layer conv5
I0403 14:55:00.339776 30612 net.cpp:91] Creating Layer conv5
I0403 14:55:00.339792 30612 net.cpp:425] conv5 <- conv4
I0403 14:55:00.339817 30612 net.cpp:399] conv5 -> conv5
I0403 14:55:00.360321 30612 net.cpp:141] Setting up conv5
I0403 14:55:00.360358 30612 net.cpp:148] Top shape: 100 256 13 13 (4326400)
I0403 14:55:00.360376 30612 net.cpp:156] Memory required for data: 800703600
I0403 14:55:00.360404 30612 layer_factory.hpp:77] Creating layer relu5
I0403 14:55:00.360425 30612 net.cpp:91] Creating Layer relu5
I0403 14:55:00.360441 30612 net.cpp:425] relu5 <- conv5
I0403 14:55:00.360461 30612 net.cpp:386] relu5 -> conv5 (in-place)
I0403 14:55:00.360736 30612 net.cpp:141] Setting up relu5
I0403 14:55:00.360767 30612 net.cpp:148] Top shape: 100 256 13 13 (4326400)
I0403 14:55:00.360785 30612 net.cpp:156] Memory required for data: 818009200
I0403 14:55:00.360801 30612 layer_factory.hpp:77] Creating layer pool5
I0403 14:55:00.360823 30612 net.cpp:91] Creating Layer pool5
I0403 14:55:00.360846 30612 net.cpp:425] pool5 <- conv5
I0403 14:55:00.360867 30612 net.cpp:399] pool5 -> pool5
I0403 14:55:00.360926 30612 net.cpp:141] Setting up pool5
I0403 14:55:00.360954 30612 net.cpp:148] Top shape: 100 256 6 6 (921600)
I0403 14:55:00.360970 30612 net.cpp:156] Memory required for data: 821695600
I0403 14:55:00.360987 30612 layer_factory.hpp:77] Creating layer fc6
I0403 14:55:00.361014 30612 net.cpp:91] Creating Layer fc6
I0403 14:55:00.361033 30612 net.cpp:425] fc6 <- pool5
I0403 14:55:00.361085 30612 net.cpp:399] fc6 -> fc6
I0403 14:55:01.915470 30612 net.cpp:141] Setting up fc6
I0403 14:55:01.915516 30612 net.cpp:148] Top shape: 100 4096 (409600)
I0403 14:55:01.915534 30612 net.cpp:156] Memory required for data: 823334000
I0403 14:55:01.915557 30612 layer_factory.hpp:77] Creating layer relu6
I0403 14:55:01.915582 30612 net.cpp:91] Creating Layer relu6
I0403 14:55:01.915599 30612 net.cpp:425] relu6 <- fc6
I0403 14:55:01.915618 30612 net.cpp:386] relu6 -> fc6 (in-place)
I0403 14:55:01.915829 30612 net.cpp:141] Setting up relu6
I0403 14:55:01.915858 30612 net.cpp:148] Top shape: 100 4096 (409600)
I0403 14:55:01.915874 30612 net.cpp:156] Memory required for data: 824972400
I0403 14:55:01.915890 30612 layer_factory.hpp:77] Creating layer drop6
I0403 14:55:01.915910 30612 net.cpp:91] Creating Layer drop6
I0403 14:55:01.915925 30612 net.cpp:425] drop6 <- fc6
I0403 14:55:01.915943 30612 net.cpp:386] drop6 -> fc6 (in-place)
I0403 14:55:01.915994 30612 net.cpp:141] Setting up drop6
I0403 14:55:01.916019 30612 net.cpp:148] Top shape: 100 4096 (409600)
I0403 14:55:01.916033 30612 net.cpp:156] Memory required for data: 826610800
I0403 14:55:01.916049 30612 layer_factory.hpp:77] Creating layer fc7
I0403 14:55:01.916072 30612 net.cpp:91] Creating Layer fc7
I0403 14:55:01.916090 30612 net.cpp:425] fc7 <- fc6
I0403 14:55:01.916111 30612 net.cpp:399] fc7 -> fc7
I0403 14:55:02.595399 30612 net.cpp:141] Setting up fc7
I0403 14:55:02.595448 30612 net.cpp:148] Top shape: 100 4096 (409600)
I0403 14:55:02.595463 30612 net.cpp:156] Memory required for data: 828249200
I0403 14:55:02.595485 30612 layer_factory.hpp:77] Creating layer relu7
I0403 14:55:02.595509 30612 net.cpp:91] Creating Layer relu7
I0403 14:55:02.595526 30612 net.cpp:425] relu7 <- fc7
I0403 14:55:02.595546 30612 net.cpp:386] relu7 -> fc7 (in-place)
I0403 14:55:02.595935 30612 net.cpp:141] Setting up relu7
I0403 14:55:02.595965 30612 net.cpp:148] Top shape: 100 4096 (409600)
I0403 14:55:02.596015 30612 net.cpp:156] Memory required for data: 829887600
I0403 14:55:02.596032 30612 layer_factory.hpp:77] Creating layer drop7
I0403 14:55:02.596052 30612 net.cpp:91] Creating Layer drop7
I0403 14:55:02.596070 30612 net.cpp:425] drop7 <- fc7
I0403 14:55:02.596086 30612 net.cpp:386] drop7 -> fc7 (in-place)
I0403 14:55:02.596130 30612 net.cpp:141] Setting up drop7
I0403 14:55:02.596153 30612 net.cpp:148] Top shape: 100 4096 (409600)
I0403 14:55:02.596169 30612 net.cpp:156] Memory required for data: 831526000
I0403 14:55:02.596184 30612 layer_factory.hpp:77] Creating layer fc8_plantvillage
I0403 14:55:02.596206 30612 net.cpp:91] Creating Layer fc8_plantvillage
I0403 14:55:02.596223 30612 net.cpp:425] fc8_plantvillage <- fc7
I0403 14:55:02.596241 30612 net.cpp:399] fc8_plantvillage -> fc8_plantvillage
I0403 14:55:02.603104 30612 net.cpp:141] Setting up fc8_plantvillage
I0403 14:55:02.603137 30612 net.cpp:148] Top shape: 100 38 (3800)
I0403 14:55:02.603152 30612 net.cpp:156] Memory required for data: 831541200
I0403 14:55:02.603173 30612 layer_factory.hpp:77] Creating layer fc8_plantvillage_fc8_plantvillage_0_split
I0403 14:55:02.603191 30612 net.cpp:91] Creating Layer fc8_plantvillage_fc8_plantvillage_0_split
I0403 14:55:02.603209 30612 net.cpp:425] fc8_plantvillage_fc8_plantvillage_0_split <- fc8_plantvillage
I0403 14:55:02.603227 30612 net.cpp:399] fc8_plantvillage_fc8_plantvillage_0_split -> fc8_plantvillage_fc8_plantvillage_0_split_0
I0403 14:55:02.603247 30612 net.cpp:399] fc8_plantvillage_fc8_plantvillage_0_split -> fc8_plantvillage_fc8_plantvillage_0_split_1
I0403 14:55:02.603272 30612 net.cpp:399] fc8_plantvillage_fc8_plantvillage_0_split -> fc8_plantvillage_fc8_plantvillage_0_split_2
I0403 14:55:02.603351 30612 net.cpp:141] Setting up fc8_plantvillage_fc8_plantvillage_0_split
I0403 14:55:02.603375 30612 net.cpp:148] Top shape: 100 38 (3800)
I0403 14:55:02.603391 30612 net.cpp:148] Top shape: 100 38 (3800)
I0403 14:55:02.603406 30612 net.cpp:148] Top shape: 100 38 (3800)
I0403 14:55:02.603420 30612 net.cpp:156] Memory required for data: 831586800
I0403 14:55:02.603435 30612 layer_factory.hpp:77] Creating layer prob
I0403 14:55:02.603456 30612 net.cpp:91] Creating Layer prob
I0403 14:55:02.603474 30612 net.cpp:425] prob <- fc8_plantvillage_fc8_plantvillage_0_split_0
I0403 14:55:02.603493 30612 net.cpp:399] prob -> prob
I0403 14:55:02.603714 30612 net.cpp:141] Setting up prob
I0403 14:55:02.603744 30612 net.cpp:148] Top shape: 100 38 (3800)
I0403 14:55:02.603760 30612 net.cpp:156] Memory required for data: 831602000
I0403 14:55:02.603775 30612 layer_factory.hpp:77] Creating layer hdf5out
I0403 14:55:02.603796 30612 net.cpp:91] Creating Layer hdf5out
I0403 14:55:02.603811 30612 net.cpp:425] hdf5out <- prob
I0403 14:55:02.603828 30612 net.cpp:425] hdf5out <- label_data_1_split_0
I0403 14:55:02.607445 30612 net.cpp:141] Setting up hdf5out
…
