…
I0403 14:52:11.831360 30519 net.cpp:313] The NetState phase (1) differed from the phase (0) specified by a rule in layer data
I0403 14:52:11.831677 30519 net.cpp:49] Initializing net from parameters: 
state {
  phase: TEST
}
layer {
  name: "data"
  type: "Data"
  top: "data"
  top: "label"
  include {
    phase: TEST
  }
  transform_param {
    crop_size: 227
    mean_file: "/home/mohanty/data/final_dataset/lmdb/segmented-80-20/mean.binaryproto"
  }
  data_param {
    source: "/home/mohanty/data/final_dataset/lmdb/segmented-80-20/test_db"
    batch_size: 100
    backend: LMDB
  }
}
layer {
  name: "conv1"
  type: "Convolution"
  bottom: "data"
  top: "conv1"
  param {
    lr_mult: 1
    decay_mult: 1
  }
  param {
    lr_mult: 2
    decay_mult: 0
  }
  convolution_param {
    num_output: 96
    kernel_size: 11
    stride: 4
    weight_filler {
      type: "gaussian"
      std: 0.01
    }
    bias_filler {
      type: "constant"
      value: 0
    }
  }
}
layer {
  name: "relu1"
  type: "ReLU"
  bottom: "conv1"
  top: "conv1"
}
layer {
  name: "norm1"
  type: "LRN"
  bottom: "conv1"
  top: "norm1"
  lrn_param {
    local_size: 5
    alpha: 0.0001
    beta: 0.75
  }
}
layer {
  name: "pool1"
  type: "Pooling"
  bottom: "norm1"
  top: "pool1"
  pooling_param {
    pool: MAX
    kernel_size: 3
    stride: 2
  }
}
layer {
  name: "conv2"
  type: "Convolution"
  bottom: "pool1"
  top: "conv2"
  param {
    lr_mult: 1
    decay_mult: 1
  }
  param {
    lr_mult: 2
    decay_mult: 0
  }
  convolution_param {
    num_output: 256
    pad: 2
    kernel_size: 5
    group: 2
    weight_filler {
      type: "gaussian"
      std: 0.01
    }
    bias_filler {
      type: "constant"
      value: 0.1
    }
  }
}
layer {
  name: "relu2"
  type: "ReLU"
  bottom: "conv2"
  top: "conv2"
}
layer {
  name: "norm2"
  type: "LRN"
  bottom: "conv2"
  top: "norm2"
  lrn_param {
    local_size: 5
    alpha: 0.0001
    beta: 0.75
  }
}
layer {
  name: "pool2"
  type: "Pooling"
  bottom: "norm2"
  top: "pool2"
  pooling_param {
    pool: MAX
    kernel_size: 3
    stride: 2
  }
}
layer {
  name: "conv3"
  type: "Convolution"
  bottom: "pool2"
  top: "conv3"
  param {
    lr_mult: 1
    decay_mult: 1
  }
  param {
    lr_mult: 2
    decay_mult: 0
  }
  convolution_param {
    num_output: 384
    pad: 1
    kernel_size: 3
    weight_filler {
      type: "gaussian"
      std: 0.01
    }
    bias_filler {
      type: "constant"
      value: 0
    }
  }
}
layer {
  name: "relu3"
  type: "ReLU"
  bottom: "conv3"
  top: "conv3"
}
layer {
  name: "conv4"
  type: "Convolution"
  bottom: "conv3"
  top: "conv4"
  param {
    lr_mult: 1
    decay_mult: 1
  }
  param {
    lr_mult: 2
    decay_mult: 0
  }
  convolution_param {
    num_output: 384
    pad: 1
    kernel_size: 3
    group: 2
    weight_filler {
      type: "gaussian"
      std: 0.01
    }
    bias_filler {
      type: "constant"
      value: 0.1
    }
  }
}
layer {
  name: "relu4"
  type: "ReLU"
  bottom: "conv4"
  top: "conv4"
}
layer {
  name: "conv5"
  type: "Convolution"
  bottom: "conv4"
  top: "conv5"
  param {
    lr_mult: 1
    decay_mult: 1
  }
  param {
    lr_mult: 2
    decay_mult: 0
  }
  convolution_param {
    num_output: 256
    pad: 1
    kernel_size: 3
    group: 2
    weight_filler {
      type: "gaussian"
      std: 0.01
    }
    bias_filler {
      type: "constant"
      value: 0.1
    }
  }
}
layer {
  name: "relu5"
  type: "ReLU"
  bottom: "conv5"
  top: "conv5"
}
layer {
  name: "pool5"
  type: "Pooling"
  bottom: "conv5"
  top: "pool5"
  pooling_param {
    pool: MAX
    kernel_size: 3
    stride: 2
  }
}
layer {
  name: "fc6"
  type: "InnerProduct"
  bottom: "pool5"
  top: "fc6"
  param {
    lr_mult: 1
    decay_mult: 1
  }
  param {
    lr_mult: 2
    decay_mult: 0
  }
  inner_product_param {
    num_output: 4096
    weight_filler {
      type: "gaussian"
      std: 0.005
    }
    bias_filler {
      type: "constant"
      value: 0.1
    }
  }
}
layer {
  name: "relu6"
  type: "ReLU"
  bottom: "fc6"
  top: "fc6"
}
layer {
  name: "drop6"
  type: "Dropout"
  bottom: "fc6"
  top: "fc6"
  dropout_param {
    dropout_ratio: 0.5
  }
}
layer {
  name: "fc7"
  type: "InnerProduct"
  bottom: "fc6"
  top: "fc7"
  param {
    lr_mult: 1
    decay_mult: 1
  }
  param {
    lr_mult: 2
    decay_mult: 0
  }
  inner_product_param {
    num_output: 4096
    weight_filler {
      type: "gaussian"
      std: 0.005
    }
    bias_filler {
      type: "constant"
      value: 0.1
    }
  }
}
layer {
  name: "relu7"
  type: "ReLU"
  bottom: "fc7"
  top: "fc7"
}
layer {
  name: "drop7"
  type: "Dropout"
  bottom: "fc7"
  top: "fc7"
  dropout_param {
    dropout_ratio: 0.5
  }
}
layer {
  name: "fc8_plantvillage"
  type: "InnerProduct"
  bottom: "fc7"
  top: "fc8_plantvillage"
  param {
    lr_mult: 1
    decay_mult: 1
  }
  param {
    lr_mult: 2
    decay_mult: 0
  }
  inner_product_param {
    num_output: 38
    weight_filler {
      type: "gaussian"
      std: 0.01
    }
    bias_filler {
      type: "constant"
      value: 0
    }
  }
}
layer {
  name: "prob"
  type: "Softmax"
  bottom: "fc8_plantvillage"
  top: "prob"
  include {
    phase: TEST
  }
}
layer {
  name: "hdf5out"
  type: "HDF5Output"
  bottom: "prob"
  bottom: "label"
  include {
    phase: TEST
  }
  hdf5_output_param {
    file_name: "hdf5_dumps/iter_1305.h5"
  }
}
layer {
  name: "loss"
  type: "SoftmaxWithLoss"
  bottom: "fc8_plantvillage"
  bottom: "label"
  top: "loss"
}
layer {
  name: "accuracy"
  type: "Accuracy"
  bottom: "fc8_plantvillage"
  bottom: "label"
  top: "accuracy"
  include {
    phase: TEST
  }
}
I0403 14:52:11.832263 30519 layer_factory.hpp:77] Creating layer data
I0403 14:52:11.832942 30519 net.cpp:91] Creating Layer data
I0403 14:52:11.832976 30519 net.cpp:399] data -> data
I0403 14:52:11.833030 30519 net.cpp:399] data -> label
I0403 14:52:11.833068 30519 data_transformer.cpp:25] Loading mean file from: /home/mohanty/data/final_dataset/lmdb/segmented-80-20/mean.binaryproto
I0403 14:52:11.835398 30523 db_lmdb.cpp:38] Opened lmdb /home/mohanty/data/final_dataset/lmdb/segmented-80-20/test_db
I0403 14:52:11.847892 30519 data_layer.cpp:41] output data size: 100,3,227,227
I0403 14:52:11.983409 30519 net.cpp:141] Setting up data
I0403 14:52:11.983470 30519 net.cpp:148] Top shape: 100 3 227 227 (15458700)
I0403 14:52:11.983495 30519 net.cpp:148] Top shape: 100 (100)
I0403 14:52:11.983511 30519 net.cpp:156] Memory required for data: 61835200
I0403 14:52:11.983541 30519 layer_factory.hpp:77] Creating layer label_data_1_split
I0403 14:52:11.983567 30519 net.cpp:91] Creating Layer label_data_1_split
I0403 14:52:11.983587 30519 net.cpp:425] label_data_1_split <- label
I0403 14:52:11.983620 30519 net.cpp:399] label_data_1_split -> label_data_1_split_0
I0403 14:52:11.983650 30519 net.cpp:399] label_data_1_split -> label_data_1_split_1
I0403 14:52:11.983672 30519 net.cpp:399] label_data_1_split -> label_data_1_split_2
I0403 14:52:11.983736 30519 net.cpp:141] Setting up label_data_1_split
I0403 14:52:11.983759 30519 net.cpp:148] Top shape: 100 (100)
I0403 14:52:11.983777 30519 net.cpp:148] Top shape: 100 (100)
I0403 14:52:11.983794 30519 net.cpp:148] Top shape: 100 (100)
I0403 14:52:11.983810 30519 net.cpp:156] Memory required for data: 61836400
I0403 14:52:11.983826 30519 layer_factory.hpp:77] Creating layer conv1
I0403 14:52:11.983860 30519 net.cpp:91] Creating Layer conv1
I0403 14:52:11.983881 30519 net.cpp:425] conv1 <- data
I0403 14:52:11.983902 30519 net.cpp:399] conv1 -> conv1
I0403 14:52:12.129663 30519 net.cpp:141] Setting up conv1
I0403 14:52:12.129739 30519 net.cpp:148] Top shape: 100 96 55 55 (29040000)
I0403 14:52:12.129758 30519 net.cpp:156] Memory required for data: 177996400
I0403 14:52:12.129791 30519 layer_factory.hpp:77] Creating layer relu1
I0403 14:52:12.129819 30519 net.cpp:91] Creating Layer relu1
I0403 14:52:12.129838 30519 net.cpp:425] relu1 <- conv1
I0403 14:52:12.129858 30519 net.cpp:386] relu1 -> conv1 (in-place)
I0403 14:52:12.130116 30519 net.cpp:141] Setting up relu1
I0403 14:52:12.130144 30519 net.cpp:148] Top shape: 100 96 55 55 (29040000)
I0403 14:52:12.130193 30519 net.cpp:156] Memory required for data: 294156400
I0403 14:52:12.130211 30519 layer_factory.hpp:77] Creating layer norm1
I0403 14:52:12.130239 30519 net.cpp:91] Creating Layer norm1
I0403 14:52:12.130261 30519 net.cpp:425] norm1 <- conv1
I0403 14:52:12.130281 30519 net.cpp:399] norm1 -> norm1
I0403 14:52:12.130589 30519 net.cpp:141] Setting up norm1
I0403 14:52:12.130619 30519 net.cpp:148] Top shape: 100 96 55 55 (29040000)
I0403 14:52:12.130635 30519 net.cpp:156] Memory required for data: 410316400
I0403 14:52:12.130653 30519 layer_factory.hpp:77] Creating layer pool1
I0403 14:52:12.130676 30519 net.cpp:91] Creating Layer pool1
I0403 14:52:12.130695 30519 net.cpp:425] pool1 <- norm1
I0403 14:52:12.130714 30519 net.cpp:399] pool1 -> pool1
I0403 14:52:12.130781 30519 net.cpp:141] Setting up pool1
I0403 14:52:12.130806 30519 net.cpp:148] Top shape: 100 96 27 27 (6998400)
I0403 14:52:12.130822 30519 net.cpp:156] Memory required for data: 438310000
I0403 14:52:12.130839 30519 layer_factory.hpp:77] Creating layer conv2
I0403 14:52:12.130866 30519 net.cpp:91] Creating Layer conv2
I0403 14:52:12.130883 30519 net.cpp:425] conv2 <- pool1
I0403 14:52:12.130906 30519 net.cpp:399] conv2 -> conv2
I0403 14:52:12.145930 30519 net.cpp:141] Setting up conv2
I0403 14:52:12.145964 30519 net.cpp:148] Top shape: 100 256 27 27 (18662400)
I0403 14:52:12.145983 30519 net.cpp:156] Memory required for data: 512959600
I0403 14:52:12.146008 30519 layer_factory.hpp:77] Creating layer relu2
I0403 14:52:12.146028 30519 net.cpp:91] Creating Layer relu2
I0403 14:52:12.146045 30519 net.cpp:425] relu2 <- conv2
I0403 14:52:12.146064 30519 net.cpp:386] relu2 -> conv2 (in-place)
I0403 14:52:12.146339 30519 net.cpp:141] Setting up relu2
I0403 14:52:12.146369 30519 net.cpp:148] Top shape: 100 256 27 27 (18662400)
I0403 14:52:12.146386 30519 net.cpp:156] Memory required for data: 587609200
I0403 14:52:12.146404 30519 layer_factory.hpp:77] Creating layer norm2
I0403 14:52:12.146425 30519 net.cpp:91] Creating Layer norm2
I0403 14:52:12.146443 30519 net.cpp:425] norm2 <- conv2
I0403 14:52:12.146462 30519 net.cpp:399] norm2 -> norm2
I0403 14:52:12.146652 30519 net.cpp:141] Setting up norm2
I0403 14:52:12.146680 30519 net.cpp:148] Top shape: 100 256 27 27 (18662400)
I0403 14:52:12.146697 30519 net.cpp:156] Memory required for data: 662258800
I0403 14:52:12.146713 30519 layer_factory.hpp:77] Creating layer pool2
I0403 14:52:12.146733 30519 net.cpp:91] Creating Layer pool2
I0403 14:52:12.146749 30519 net.cpp:425] pool2 <- norm2
I0403 14:52:12.146767 30519 net.cpp:399] pool2 -> pool2
I0403 14:52:12.146819 30519 net.cpp:141] Setting up pool2
I0403 14:52:12.146843 30519 net.cpp:148] Top shape: 100 256 13 13 (4326400)
I0403 14:52:12.146859 30519 net.cpp:156] Memory required for data: 679564400
I0403 14:52:12.146875 30519 layer_factory.hpp:77] Creating layer conv3
I0403 14:52:12.146898 30519 net.cpp:91] Creating Layer conv3
I0403 14:52:12.146914 30519 net.cpp:425] conv3 <- pool2
I0403 14:52:12.146934 30519 net.cpp:399] conv3 -> conv3
I0403 14:52:12.187737 30519 net.cpp:141] Setting up conv3
I0403 14:52:12.187819 30519 net.cpp:148] Top shape: 100 384 13 13 (6489600)
I0403 14:52:12.187836 30519 net.cpp:156] Memory required for data: 705522800
I0403 14:52:12.187865 30519 layer_factory.hpp:77] Creating layer relu3
I0403 14:52:12.187886 30519 net.cpp:91] Creating Layer relu3
I0403 14:52:12.187904 30519 net.cpp:425] relu3 <- conv3
I0403 14:52:12.187925 30519 net.cpp:386] relu3 -> conv3 (in-place)
I0403 14:52:12.188207 30519 net.cpp:141] Setting up relu3
I0403 14:52:12.188238 30519 net.cpp:148] Top shape: 100 384 13 13 (6489600)
I0403 14:52:12.188258 30519 net.cpp:156] Memory required for data: 731481200
I0403 14:52:12.188277 30519 layer_factory.hpp:77] Creating layer conv4
I0403 14:52:12.188315 30519 net.cpp:91] Creating Layer conv4
I0403 14:52:12.188334 30519 net.cpp:425] conv4 <- conv3
I0403 14:52:12.188356 30519 net.cpp:399] conv4 -> conv4
I0403 14:52:12.217514 30519 net.cpp:141] Setting up conv4
I0403 14:52:12.217588 30519 net.cpp:148] Top shape: 100 384 13 13 (6489600)
I0403 14:52:12.217639 30519 net.cpp:156] Memory required for data: 757439600
I0403 14:52:12.217663 30519 layer_factory.hpp:77] Creating layer relu4
I0403 14:52:12.217684 30519 net.cpp:91] Creating Layer relu4
I0403 14:52:12.217712 30519 net.cpp:425] relu4 <- conv4
I0403 14:52:12.217730 30519 net.cpp:386] relu4 -> conv4 (in-place)
I0403 14:52:12.218014 30519 net.cpp:141] Setting up relu4
I0403 14:52:12.218057 30519 net.cpp:148] Top shape: 100 384 13 13 (6489600)
I0403 14:52:12.218075 30519 net.cpp:156] Memory required for data: 783398000
I0403 14:52:12.218091 30519 layer_factory.hpp:77] Creating layer conv5
I0403 14:52:12.218129 30519 net.cpp:91] Creating Layer conv5
I0403 14:52:12.218148 30519 net.cpp:425] conv5 <- conv4
I0403 14:52:12.218168 30519 net.cpp:399] conv5 -> conv5
I0403 14:52:12.238469 30519 net.cpp:141] Setting up conv5
I0403 14:52:12.238509 30519 net.cpp:148] Top shape: 100 256 13 13 (4326400)
I0403 14:52:12.238528 30519 net.cpp:156] Memory required for data: 800703600
I0403 14:52:12.238554 30519 layer_factory.hpp:77] Creating layer relu5
I0403 14:52:12.238597 30519 net.cpp:91] Creating Layer relu5
I0403 14:52:12.238615 30519 net.cpp:425] relu5 <- conv5
I0403 14:52:12.238636 30519 net.cpp:386] relu5 -> conv5 (in-place)
I0403 14:52:12.238919 30519 net.cpp:141] Setting up relu5
I0403 14:52:12.238950 30519 net.cpp:148] Top shape: 100 256 13 13 (4326400)
I0403 14:52:12.238967 30519 net.cpp:156] Memory required for data: 818009200
I0403 14:52:12.238983 30519 layer_factory.hpp:77] Creating layer pool5
I0403 14:52:12.239008 30519 net.cpp:91] Creating Layer pool5
I0403 14:52:12.239027 30519 net.cpp:425] pool5 <- conv5
I0403 14:52:12.239045 30519 net.cpp:399] pool5 -> pool5
I0403 14:52:12.239106 30519 net.cpp:141] Setting up pool5
I0403 14:52:12.239131 30519 net.cpp:148] Top shape: 100 256 6 6 (921600)
I0403 14:52:12.239147 30519 net.cpp:156] Memory required for data: 821695600
I0403 14:52:12.239164 30519 layer_factory.hpp:77] Creating layer fc6
I0403 14:52:12.239190 30519 net.cpp:91] Creating Layer fc6
I0403 14:52:12.239208 30519 net.cpp:425] fc6 <- pool5
I0403 14:52:12.239229 30519 net.cpp:399] fc6 -> fc6
I0403 14:52:13.785050 30519 net.cpp:141] Setting up fc6
I0403 14:52:13.785115 30519 net.cpp:148] Top shape: 100 4096 (409600)
I0403 14:52:13.785131 30519 net.cpp:156] Memory required for data: 823334000
I0403 14:52:13.785154 30519 layer_factory.hpp:77] Creating layer relu6
I0403 14:52:13.785176 30519 net.cpp:91] Creating Layer relu6
I0403 14:52:13.785192 30519 net.cpp:425] relu6 <- fc6
I0403 14:52:13.785210 30519 net.cpp:386] relu6 -> fc6 (in-place)
I0403 14:52:13.785431 30519 net.cpp:141] Setting up relu6
I0403 14:52:13.785459 30519 net.cpp:148] Top shape: 100 4096 (409600)
I0403 14:52:13.785476 30519 net.cpp:156] Memory required for data: 824972400
I0403 14:52:13.785491 30519 layer_factory.hpp:77] Creating layer drop6
I0403 14:52:13.785509 30519 net.cpp:91] Creating Layer drop6
I0403 14:52:13.785526 30519 net.cpp:425] drop6 <- fc6
I0403 14:52:13.785544 30519 net.cpp:386] drop6 -> fc6 (in-place)
I0403 14:52:13.785596 30519 net.cpp:141] Setting up drop6
I0403 14:52:13.785619 30519 net.cpp:148] Top shape: 100 4096 (409600)
I0403 14:52:13.785634 30519 net.cpp:156] Memory required for data: 826610800
I0403 14:52:13.785648 30519 layer_factory.hpp:77] Creating layer fc7
I0403 14:52:13.785673 30519 net.cpp:91] Creating Layer fc7
I0403 14:52:13.785691 30519 net.cpp:425] fc7 <- fc6
I0403 14:52:13.785711 30519 net.cpp:399] fc7 -> fc7
I0403 14:52:14.462476 30519 net.cpp:141] Setting up fc7
I0403 14:52:14.462519 30519 net.cpp:148] Top shape: 100 4096 (409600)
I0403 14:52:14.462538 30519 net.cpp:156] Memory required for data: 828249200
I0403 14:52:14.462561 30519 layer_factory.hpp:77] Creating layer relu7
I0403 14:52:14.462585 30519 net.cpp:91] Creating Layer relu7
I0403 14:52:14.462604 30519 net.cpp:425] relu7 <- fc7
I0403 14:52:14.462623 30519 net.cpp:386] relu7 -> fc7 (in-place)
I0403 14:52:14.463021 30519 net.cpp:141] Setting up relu7
I0403 14:52:14.463049 30519 net.cpp:148] Top shape: 100 4096 (409600)
I0403 14:52:14.463107 30519 net.cpp:156] Memory required for data: 829887600
I0403 14:52:14.463125 30519 layer_factory.hpp:77] Creating layer drop7
I0403 14:52:14.463145 30519 net.cpp:91] Creating Layer drop7
I0403 14:52:14.463161 30519 net.cpp:425] drop7 <- fc7
I0403 14:52:14.463183 30519 net.cpp:386] drop7 -> fc7 (in-place)
I0403 14:52:14.463227 30519 net.cpp:141] Setting up drop7
I0403 14:52:14.463250 30519 net.cpp:148] Top shape: 100 4096 (409600)
I0403 14:52:14.463271 30519 net.cpp:156] Memory required for data: 831526000
I0403 14:52:14.463287 30519 layer_factory.hpp:77] Creating layer fc8_plantvillage
I0403 14:52:14.463310 30519 net.cpp:91] Creating Layer fc8_plantvillage
I0403 14:52:14.463326 30519 net.cpp:425] fc8_plantvillage <- fc7
I0403 14:52:14.463346 30519 net.cpp:399] fc8_plantvillage -> fc8_plantvillage
I0403 14:52:14.470053 30519 net.cpp:141] Setting up fc8_plantvillage
I0403 14:52:14.470082 30519 net.cpp:148] Top shape: 100 38 (3800)
I0403 14:52:14.470098 30519 net.cpp:156] Memory required for data: 831541200
I0403 14:52:14.470116 30519 layer_factory.hpp:77] Creating layer fc8_plantvillage_fc8_plantvillage_0_split
I0403 14:52:14.470136 30519 net.cpp:91] Creating Layer fc8_plantvillage_fc8_plantvillage_0_split
I0403 14:52:14.470152 30519 net.cpp:425] fc8_plantvillage_fc8_plantvillage_0_split <- fc8_plantvillage
I0403 14:52:14.470172 30519 net.cpp:399] fc8_plantvillage_fc8_plantvillage_0_split -> fc8_plantvillage_fc8_plantvillage_0_split_0
I0403 14:52:14.470194 30519 net.cpp:399] fc8_plantvillage_fc8_plantvillage_0_split -> fc8_plantvillage_fc8_plantvillage_0_split_1
I0403 14:52:14.470216 30519 net.cpp:399] fc8_plantvillage_fc8_plantvillage_0_split -> fc8_plantvillage_fc8_plantvillage_0_split_2
I0403 14:52:14.470299 30519 net.cpp:141] Setting up fc8_plantvillage_fc8_plantvillage_0_split
I0403 14:52:14.470325 30519 net.cpp:148] Top shape: 100 38 (3800)
I0403 14:52:14.470353 30519 net.cpp:148] Top shape: 100 38 (3800)
I0403 14:52:14.470373 30519 net.cpp:148] Top shape: 100 38 (3800)
I0403 14:52:14.470387 30519 net.cpp:156] Memory required for data: 831586800
I0403 14:52:14.470402 30519 layer_factory.hpp:77] Creating layer prob
I0403 14:52:14.470422 30519 net.cpp:91] Creating Layer prob
I0403 14:52:14.470438 30519 net.cpp:425] prob <- fc8_plantvillage_fc8_plantvillage_0_split_0
I0403 14:52:14.470455 30519 net.cpp:399] prob -> prob
I0403 14:52:14.470684 30519 net.cpp:141] Setting up prob
I0403 14:52:14.470711 30519 net.cpp:148] Top shape: 100 38 (3800)
I0403 14:52:14.470727 30519 net.cpp:156] Memory required for data: 831602000
I0403 14:52:14.470744 30519 layer_factory.hpp:77] Creating layer hdf5out
I0403 14:52:14.470764 30519 net.cpp:91] Creating Layer hdf5out
I0403 14:52:14.470782 30519 net.cpp:425] hdf5out <- prob
I0403 14:52:14.470798 30519 net.cpp:425] hdf5out <- label_data_1_split_0
I0403 14:52:14.491936 30519 net.cpp:141] Setting up hdf5out
…
