…
I0403 15:00:42.523946 30875 net.cpp:313] The NetState phase (1) differed from the phase (0) specified by a rule in layer data
I0403 15:00:42.524256 30875 net.cpp:49] Initializing net from parameters: 
state {
  phase: TEST
}
layer {
  name: "data"
  type: "Data"
  top: "data"
  top: "label"
  include {
    phase: TEST
  }
  transform_param {
    crop_size: 227
    mean_file: "/home/mohanty/data/final_dataset/lmdb/segmented-80-20/mean.binaryproto"
  }
  data_param {
    source: "/home/mohanty/data/final_dataset/lmdb/segmented-80-20/test_db"
    batch_size: 100
    backend: LMDB
  }
}
layer {
  name: "conv1"
  type: "Convolution"
  bottom: "data"
  top: "conv1"
  param {
    lr_mult: 1
    decay_mult: 1
  }
  param {
    lr_mult: 2
    decay_mult: 0
  }
  convolution_param {
    num_output: 96
    kernel_size: 11
    stride: 4
    weight_filler {
      type: "gaussian"
      std: 0.01
    }
    bias_filler {
      type: "constant"
      value: 0
    }
  }
}
layer {
  name: "relu1"
  type: "ReLU"
  bottom: "conv1"
  top: "conv1"
}
layer {
  name: "norm1"
  type: "LRN"
  bottom: "conv1"
  top: "norm1"
  lrn_param {
    local_size: 5
    alpha: 0.0001
    beta: 0.75
  }
}
layer {
  name: "pool1"
  type: "Pooling"
  bottom: "norm1"
  top: "pool1"
  pooling_param {
    pool: MAX
    kernel_size: 3
    stride: 2
  }
}
layer {
  name: "conv2"
  type: "Convolution"
  bottom: "pool1"
  top: "conv2"
  param {
    lr_mult: 1
    decay_mult: 1
  }
  param {
    lr_mult: 2
    decay_mult: 0
  }
  convolution_param {
    num_output: 256
    pad: 2
    kernel_size: 5
    group: 2
    weight_filler {
      type: "gaussian"
      std: 0.01
    }
    bias_filler {
      type: "constant"
      value: 0.1
    }
  }
}
layer {
  name: "relu2"
  type: "ReLU"
  bottom: "conv2"
  top: "conv2"
}
layer {
  name: "norm2"
  type: "LRN"
  bottom: "conv2"
  top: "norm2"
  lrn_param {
    local_size: 5
    alpha: 0.0001
    beta: 0.75
  }
}
layer {
  name: "pool2"
  type: "Pooling"
  bottom: "norm2"
  top: "pool2"
  pooling_param {
    pool: MAX
    kernel_size: 3
    stride: 2
  }
}
layer {
  name: "conv3"
  type: "Convolution"
  bottom: "pool2"
  top: "conv3"
  param {
    lr_mult: 1
    decay_mult: 1
  }
  param {
    lr_mult: 2
    decay_mult: 0
  }
  convolution_param {
    num_output: 384
    pad: 1
    kernel_size: 3
    weight_filler {
      type: "gaussian"
      std: 0.01
    }
    bias_filler {
      type: "constant"
      value: 0
    }
  }
}
layer {
  name: "relu3"
  type: "ReLU"
  bottom: "conv3"
  top: "conv3"
}
layer {
  name: "conv4"
  type: "Convolution"
  bottom: "conv3"
  top: "conv4"
  param {
    lr_mult: 1
    decay_mult: 1
  }
  param {
    lr_mult: 2
    decay_mult: 0
  }
  convolution_param {
    num_output: 384
    pad: 1
    kernel_size: 3
    group: 2
    weight_filler {
      type: "gaussian"
      std: 0.01
    }
    bias_filler {
      type: "constant"
      value: 0.1
    }
  }
}
layer {
  name: "relu4"
  type: "ReLU"
  bottom: "conv4"
  top: "conv4"
}
layer {
  name: "conv5"
  type: "Convolution"
  bottom: "conv4"
  top: "conv5"
  param {
    lr_mult: 1
    decay_mult: 1
  }
  param {
    lr_mult: 2
    decay_mult: 0
  }
  convolution_param {
    num_output: 256
    pad: 1
    kernel_size: 3
    group: 2
    weight_filler {
      type: "gaussian"
      std: 0.01
    }
    bias_filler {
      type: "constant"
      value: 0.1
    }
  }
}
layer {
  name: "relu5"
  type: "ReLU"
  bottom: "conv5"
  top: "conv5"
}
layer {
  name: "pool5"
  type: "Pooling"
  bottom: "conv5"
  top: "pool5"
  pooling_param {
    pool: MAX
    kernel_size: 3
    stride: 2
  }
}
layer {
  name: "fc6"
  type: "InnerProduct"
  bottom: "pool5"
  top: "fc6"
  param {
    lr_mult: 1
    decay_mult: 1
  }
  param {
    lr_mult: 2
    decay_mult: 0
  }
  inner_product_param {
    num_output: 4096
    weight_filler {
      type: "gaussian"
      std: 0.005
    }
    bias_filler {
      type: "constant"
      value: 0.1
    }
  }
}
layer {
  name: "relu6"
  type: "ReLU"
  bottom: "fc6"
  top: "fc6"
}
layer {
  name: "drop6"
  type: "Dropout"
  bottom: "fc6"
  top: "fc6"
  dropout_param {
    dropout_ratio: 0.5
  }
}
layer {
  name: "fc7"
  type: "InnerProduct"
  bottom: "fc6"
  top: "fc7"
  param {
    lr_mult: 1
    decay_mult: 1
  }
  param {
    lr_mult: 2
    decay_mult: 0
  }
  inner_product_param {
    num_output: 4096
    weight_filler {
      type: "gaussian"
      std: 0.005
    }
    bias_filler {
      type: "constant"
      value: 0.1
    }
  }
}
layer {
  name: "relu7"
  type: "ReLU"
  bottom: "fc7"
  top: "fc7"
}
layer {
  name: "drop7"
  type: "Dropout"
  bottom: "fc7"
  top: "fc7"
  dropout_param {
    dropout_ratio: 0.5
  }
}
layer {
  name: "fc8_plantvillage"
  type: "InnerProduct"
  bottom: "fc7"
  top: "fc8_plantvillage"
  param {
    lr_mult: 1
    decay_mult: 1
  }
  param {
    lr_mult: 2
    decay_mult: 0
  }
  inner_product_param {
    num_output: 38
    weight_filler {
      type: "gaussian"
      std: 0.01
    }
    bias_filler {
      type: "constant"
      value: 0
    }
  }
}
layer {
  name: "prob"
  type: "Softmax"
  bottom: "fc8_plantvillage"
  top: "prob"
  include {
    phase: TEST
  }
}
layer {
  name: "hdf5out"
  type: "HDF5Output"
  bottom: "prob"
  bottom: "label"
  include {
    phase: TEST
  }
  hdf5_output_param {
    file_name: "hdf5_dumps/iter_10440.h5"
  }
}
layer {
  name: "loss"
  type: "SoftmaxWithLoss"
  bottom: "fc8_plantvillage"
  bottom: "label"
  top: "loss"
}
layer {
  name: "accuracy"
  type: "Accuracy"
  bottom: "fc8_plantvillage"
  bottom: "label"
  top: "accuracy"
  include {
    phase: TEST
  }
}
I0403 15:00:42.524865 30875 layer_factory.hpp:77] Creating layer data
I0403 15:00:42.525527 30875 net.cpp:91] Creating Layer data
I0403 15:00:42.525562 30875 net.cpp:399] data -> data
I0403 15:00:42.525614 30875 net.cpp:399] data -> label
I0403 15:00:42.525651 30875 data_transformer.cpp:25] Loading mean file from: /home/mohanty/data/final_dataset/lmdb/segmented-80-20/mean.binaryproto
I0403 15:00:42.528651 30879 db_lmdb.cpp:38] Opened lmdb /home/mohanty/data/final_dataset/lmdb/segmented-80-20/test_db
I0403 15:00:42.540127 30875 data_layer.cpp:41] output data size: 100,3,227,227
I0403 15:00:42.674036 30875 net.cpp:141] Setting up data
I0403 15:00:42.674114 30875 net.cpp:148] Top shape: 100 3 227 227 (15458700)
I0403 15:00:42.674137 30875 net.cpp:148] Top shape: 100 (100)
I0403 15:00:42.674154 30875 net.cpp:156] Memory required for data: 61835200
I0403 15:00:42.674183 30875 layer_factory.hpp:77] Creating layer label_data_1_split
I0403 15:00:42.674211 30875 net.cpp:91] Creating Layer label_data_1_split
I0403 15:00:42.674229 30875 net.cpp:425] label_data_1_split <- label
I0403 15:00:42.674260 30875 net.cpp:399] label_data_1_split -> label_data_1_split_0
I0403 15:00:42.674298 30875 net.cpp:399] label_data_1_split -> label_data_1_split_1
I0403 15:00:42.674334 30875 net.cpp:399] label_data_1_split -> label_data_1_split_2
I0403 15:00:42.674403 30875 net.cpp:141] Setting up label_data_1_split
I0403 15:00:42.674429 30875 net.cpp:148] Top shape: 100 (100)
I0403 15:00:42.674446 30875 net.cpp:148] Top shape: 100 (100)
I0403 15:00:42.674463 30875 net.cpp:148] Top shape: 100 (100)
I0403 15:00:42.674479 30875 net.cpp:156] Memory required for data: 61836400
I0403 15:00:42.674494 30875 layer_factory.hpp:77] Creating layer conv1
I0403 15:00:42.674528 30875 net.cpp:91] Creating Layer conv1
I0403 15:00:42.674548 30875 net.cpp:425] conv1 <- data
I0403 15:00:42.674569 30875 net.cpp:399] conv1 -> conv1
I0403 15:00:42.819927 30875 net.cpp:141] Setting up conv1
I0403 15:00:42.819998 30875 net.cpp:148] Top shape: 100 96 55 55 (29040000)
I0403 15:00:42.820015 30875 net.cpp:156] Memory required for data: 177996400
I0403 15:00:42.820046 30875 layer_factory.hpp:77] Creating layer relu1
I0403 15:00:42.820075 30875 net.cpp:91] Creating Layer relu1
I0403 15:00:42.820092 30875 net.cpp:425] relu1 <- conv1
I0403 15:00:42.820112 30875 net.cpp:386] relu1 -> conv1 (in-place)
I0403 15:00:42.820394 30875 net.cpp:141] Setting up relu1
I0403 15:00:42.820421 30875 net.cpp:148] Top shape: 100 96 55 55 (29040000)
I0403 15:00:42.820461 30875 net.cpp:156] Memory required for data: 294156400
I0403 15:00:42.820477 30875 layer_factory.hpp:77] Creating layer norm1
I0403 15:00:42.820505 30875 net.cpp:91] Creating Layer norm1
I0403 15:00:42.820525 30875 net.cpp:425] norm1 <- conv1
I0403 15:00:42.820544 30875 net.cpp:399] norm1 -> norm1
I0403 15:00:42.820858 30875 net.cpp:141] Setting up norm1
I0403 15:00:42.820885 30875 net.cpp:148] Top shape: 100 96 55 55 (29040000)
I0403 15:00:42.820902 30875 net.cpp:156] Memory required for data: 410316400
I0403 15:00:42.820919 30875 layer_factory.hpp:77] Creating layer pool1
I0403 15:00:42.820941 30875 net.cpp:91] Creating Layer pool1
I0403 15:00:42.820958 30875 net.cpp:425] pool1 <- norm1
I0403 15:00:42.820976 30875 net.cpp:399] pool1 -> pool1
I0403 15:00:42.821041 30875 net.cpp:141] Setting up pool1
I0403 15:00:42.821065 30875 net.cpp:148] Top shape: 100 96 27 27 (6998400)
I0403 15:00:42.821080 30875 net.cpp:156] Memory required for data: 438310000
I0403 15:00:42.821095 30875 layer_factory.hpp:77] Creating layer conv2
I0403 15:00:42.821120 30875 net.cpp:91] Creating Layer conv2
I0403 15:00:42.821136 30875 net.cpp:425] conv2 <- pool1
I0403 15:00:42.821156 30875 net.cpp:399] conv2 -> conv2
I0403 15:00:42.835963 30875 net.cpp:141] Setting up conv2
I0403 15:00:42.835999 30875 net.cpp:148] Top shape: 100 256 27 27 (18662400)
I0403 15:00:42.836016 30875 net.cpp:156] Memory required for data: 512959600
I0403 15:00:42.836040 30875 layer_factory.hpp:77] Creating layer relu2
I0403 15:00:42.836061 30875 net.cpp:91] Creating Layer relu2
I0403 15:00:42.836078 30875 net.cpp:425] relu2 <- conv2
I0403 15:00:42.836097 30875 net.cpp:386] relu2 -> conv2 (in-place)
I0403 15:00:42.836421 30875 net.cpp:141] Setting up relu2
I0403 15:00:42.836452 30875 net.cpp:148] Top shape: 100 256 27 27 (18662400)
I0403 15:00:42.836467 30875 net.cpp:156] Memory required for data: 587609200
I0403 15:00:42.836483 30875 layer_factory.hpp:77] Creating layer norm2
I0403 15:00:42.836505 30875 net.cpp:91] Creating Layer norm2
I0403 15:00:42.836524 30875 net.cpp:425] norm2 <- conv2
I0403 15:00:42.836544 30875 net.cpp:399] norm2 -> norm2
I0403 15:00:42.836748 30875 net.cpp:141] Setting up norm2
I0403 15:00:42.836774 30875 net.cpp:148] Top shape: 100 256 27 27 (18662400)
I0403 15:00:42.836791 30875 net.cpp:156] Memory required for data: 662258800
I0403 15:00:42.836805 30875 layer_factory.hpp:77] Creating layer pool2
I0403 15:00:42.836823 30875 net.cpp:91] Creating Layer pool2
I0403 15:00:42.836839 30875 net.cpp:425] pool2 <- norm2
I0403 15:00:42.836858 30875 net.cpp:399] pool2 -> pool2
I0403 15:00:42.836910 30875 net.cpp:141] Setting up pool2
I0403 15:00:42.836933 30875 net.cpp:148] Top shape: 100 256 13 13 (4326400)
I0403 15:00:42.836948 30875 net.cpp:156] Memory required for data: 679564400
I0403 15:00:42.836963 30875 layer_factory.hpp:77] Creating layer conv3
I0403 15:00:42.836988 30875 net.cpp:91] Creating Layer conv3
I0403 15:00:42.837005 30875 net.cpp:425] conv3 <- pool2
I0403 15:00:42.837024 30875 net.cpp:399] conv3 -> conv3
I0403 15:00:42.875427 30875 net.cpp:141] Setting up conv3
I0403 15:00:42.875490 30875 net.cpp:148] Top shape: 100 384 13 13 (6489600)
I0403 15:00:42.875507 30875 net.cpp:156] Memory required for data: 705522800
I0403 15:00:42.875535 30875 layer_factory.hpp:77] Creating layer relu3
I0403 15:00:42.875571 30875 net.cpp:91] Creating Layer relu3
I0403 15:00:42.875588 30875 net.cpp:425] relu3 <- conv3
I0403 15:00:42.875607 30875 net.cpp:386] relu3 -> conv3 (in-place)
I0403 15:00:42.875892 30875 net.cpp:141] Setting up relu3
I0403 15:00:42.875921 30875 net.cpp:148] Top shape: 100 384 13 13 (6489600)
I0403 15:00:42.875937 30875 net.cpp:156] Memory required for data: 731481200
I0403 15:00:42.875954 30875 layer_factory.hpp:77] Creating layer conv4
I0403 15:00:42.875982 30875 net.cpp:91] Creating Layer conv4
I0403 15:00:42.876000 30875 net.cpp:425] conv4 <- conv3
I0403 15:00:42.876021 30875 net.cpp:399] conv4 -> conv4
I0403 15:00:42.906432 30875 net.cpp:141] Setting up conv4
I0403 15:00:42.906478 30875 net.cpp:148] Top shape: 100 384 13 13 (6489600)
I0403 15:00:42.906528 30875 net.cpp:156] Memory required for data: 757439600
I0403 15:00:42.906551 30875 layer_factory.hpp:77] Creating layer relu4
I0403 15:00:42.906574 30875 net.cpp:91] Creating Layer relu4
I0403 15:00:42.906590 30875 net.cpp:425] relu4 <- conv4
I0403 15:00:42.906613 30875 net.cpp:386] relu4 -> conv4 (in-place)
I0403 15:00:42.906929 30875 net.cpp:141] Setting up relu4
I0403 15:00:42.906956 30875 net.cpp:148] Top shape: 100 384 13 13 (6489600)
I0403 15:00:42.906972 30875 net.cpp:156] Memory required for data: 783398000
I0403 15:00:42.906987 30875 layer_factory.hpp:77] Creating layer conv5
I0403 15:00:42.907011 30875 net.cpp:91] Creating Layer conv5
I0403 15:00:42.907029 30875 net.cpp:425] conv5 <- conv4
I0403 15:00:42.907050 30875 net.cpp:399] conv5 -> conv5
I0403 15:00:42.927438 30875 net.cpp:141] Setting up conv5
I0403 15:00:42.927476 30875 net.cpp:148] Top shape: 100 256 13 13 (4326400)
I0403 15:00:42.927494 30875 net.cpp:156] Memory required for data: 800703600
I0403 15:00:42.927520 30875 layer_factory.hpp:77] Creating layer relu5
I0403 15:00:42.927541 30875 net.cpp:91] Creating Layer relu5
I0403 15:00:42.927570 30875 net.cpp:425] relu5 <- conv5
I0403 15:00:42.927592 30875 net.cpp:386] relu5 -> conv5 (in-place)
I0403 15:00:42.927966 30875 net.cpp:141] Setting up relu5
I0403 15:00:42.928007 30875 net.cpp:148] Top shape: 100 256 13 13 (4326400)
I0403 15:00:42.928023 30875 net.cpp:156] Memory required for data: 818009200
I0403 15:00:42.928041 30875 layer_factory.hpp:77] Creating layer pool5
I0403 15:00:42.928079 30875 net.cpp:91] Creating Layer pool5
I0403 15:00:42.928098 30875 net.cpp:425] pool5 <- conv5
I0403 15:00:42.928117 30875 net.cpp:399] pool5 -> pool5
I0403 15:00:42.928179 30875 net.cpp:141] Setting up pool5
I0403 15:00:42.928205 30875 net.cpp:148] Top shape: 100 256 6 6 (921600)
I0403 15:00:42.928223 30875 net.cpp:156] Memory required for data: 821695600
I0403 15:00:42.928238 30875 layer_factory.hpp:77] Creating layer fc6
I0403 15:00:42.928268 30875 net.cpp:91] Creating Layer fc6
I0403 15:00:42.928292 30875 net.cpp:425] fc6 <- pool5
I0403 15:00:42.928313 30875 net.cpp:399] fc6 -> fc6
I0403 15:00:44.471849 30875 net.cpp:141] Setting up fc6
I0403 15:00:44.471907 30875 net.cpp:148] Top shape: 100 4096 (409600)
I0403 15:00:44.471923 30875 net.cpp:156] Memory required for data: 823334000
I0403 15:00:44.471946 30875 layer_factory.hpp:77] Creating layer relu6
I0403 15:00:44.471969 30875 net.cpp:91] Creating Layer relu6
I0403 15:00:44.471987 30875 net.cpp:425] relu6 <- fc6
I0403 15:00:44.472009 30875 net.cpp:386] relu6 -> fc6 (in-place)
I0403 15:00:44.472237 30875 net.cpp:141] Setting up relu6
I0403 15:00:44.472262 30875 net.cpp:148] Top shape: 100 4096 (409600)
I0403 15:00:44.472278 30875 net.cpp:156] Memory required for data: 824972400
I0403 15:00:44.472297 30875 layer_factory.hpp:77] Creating layer drop6
I0403 15:00:44.472318 30875 net.cpp:91] Creating Layer drop6
I0403 15:00:44.472334 30875 net.cpp:425] drop6 <- fc6
I0403 15:00:44.472357 30875 net.cpp:386] drop6 -> fc6 (in-place)
I0403 15:00:44.472411 30875 net.cpp:141] Setting up drop6
I0403 15:00:44.472435 30875 net.cpp:148] Top shape: 100 4096 (409600)
I0403 15:00:44.472450 30875 net.cpp:156] Memory required for data: 826610800
I0403 15:00:44.472465 30875 layer_factory.hpp:77] Creating layer fc7
I0403 15:00:44.472486 30875 net.cpp:91] Creating Layer fc7
I0403 15:00:44.472501 30875 net.cpp:425] fc7 <- fc6
I0403 15:00:44.472523 30875 net.cpp:399] fc7 -> fc7
I0403 15:00:45.149448 30875 net.cpp:141] Setting up fc7
I0403 15:00:45.149490 30875 net.cpp:148] Top shape: 100 4096 (409600)
I0403 15:00:45.149507 30875 net.cpp:156] Memory required for data: 828249200
I0403 15:00:45.149528 30875 layer_factory.hpp:77] Creating layer relu7
I0403 15:00:45.149552 30875 net.cpp:91] Creating Layer relu7
I0403 15:00:45.149571 30875 net.cpp:425] relu7 <- fc7
I0403 15:00:45.149600 30875 net.cpp:386] relu7 -> fc7 (in-place)
I0403 15:00:45.149999 30875 net.cpp:141] Setting up relu7
I0403 15:00:45.150025 30875 net.cpp:148] Top shape: 100 4096 (409600)
I0403 15:00:45.150070 30875 net.cpp:156] Memory required for data: 829887600
I0403 15:00:45.150086 30875 layer_factory.hpp:77] Creating layer drop7
I0403 15:00:45.150106 30875 net.cpp:91] Creating Layer drop7
I0403 15:00:45.150128 30875 net.cpp:425] drop7 <- fc7
I0403 15:00:45.150146 30875 net.cpp:386] drop7 -> fc7 (in-place)
I0403 15:00:45.150187 30875 net.cpp:141] Setting up drop7
I0403 15:00:45.150212 30875 net.cpp:148] Top shape: 100 4096 (409600)
I0403 15:00:45.150226 30875 net.cpp:156] Memory required for data: 831526000
I0403 15:00:45.150241 30875 layer_factory.hpp:77] Creating layer fc8_plantvillage
I0403 15:00:45.150261 30875 net.cpp:91] Creating Layer fc8_plantvillage
I0403 15:00:45.150277 30875 net.cpp:425] fc8_plantvillage <- fc7
I0403 15:00:45.150302 30875 net.cpp:399] fc8_plantvillage -> fc8_plantvillage
I0403 15:00:45.156810 30875 net.cpp:141] Setting up fc8_plantvillage
I0403 15:00:45.156841 30875 net.cpp:148] Top shape: 100 38 (3800)
I0403 15:00:45.156857 30875 net.cpp:156] Memory required for data: 831541200
I0403 15:00:45.156875 30875 layer_factory.hpp:77] Creating layer fc8_plantvillage_fc8_plantvillage_0_split
I0403 15:00:45.156895 30875 net.cpp:91] Creating Layer fc8_plantvillage_fc8_plantvillage_0_split
I0403 15:00:45.156924 30875 net.cpp:425] fc8_plantvillage_fc8_plantvillage_0_split <- fc8_plantvillage
I0403 15:00:45.156941 30875 net.cpp:399] fc8_plantvillage_fc8_plantvillage_0_split -> fc8_plantvillage_fc8_plantvillage_0_split_0
I0403 15:00:45.156961 30875 net.cpp:399] fc8_plantvillage_fc8_plantvillage_0_split -> fc8_plantvillage_fc8_plantvillage_0_split_1
I0403 15:00:45.156981 30875 net.cpp:399] fc8_plantvillage_fc8_plantvillage_0_split -> fc8_plantvillage_fc8_plantvillage_0_split_2
I0403 15:00:45.157063 30875 net.cpp:141] Setting up fc8_plantvillage_fc8_plantvillage_0_split
I0403 15:00:45.157086 30875 net.cpp:148] Top shape: 100 38 (3800)
I0403 15:00:45.157104 30875 net.cpp:148] Top shape: 100 38 (3800)
I0403 15:00:45.157119 30875 net.cpp:148] Top shape: 100 38 (3800)
I0403 15:00:45.157132 30875 net.cpp:156] Memory required for data: 831586800
I0403 15:00:45.157147 30875 layer_factory.hpp:77] Creating layer prob
I0403 15:00:45.157166 30875 net.cpp:91] Creating Layer prob
I0403 15:00:45.157181 30875 net.cpp:425] prob <- fc8_plantvillage_fc8_plantvillage_0_split_0
I0403 15:00:45.157202 30875 net.cpp:399] prob -> prob
I0403 15:00:45.157447 30875 net.cpp:141] Setting up prob
I0403 15:00:45.157474 30875 net.cpp:148] Top shape: 100 38 (3800)
I0403 15:00:45.157488 30875 net.cpp:156] Memory required for data: 831602000
I0403 15:00:45.157503 30875 layer_factory.hpp:77] Creating layer hdf5out
I0403 15:00:45.157524 30875 net.cpp:91] Creating Layer hdf5out
I0403 15:00:45.157541 30875 net.cpp:425] hdf5out <- prob
I0403 15:00:45.157555 30875 net.cpp:425] hdf5out <- label_data_1_split_0
I0403 15:00:45.161703 30875 net.cpp:141] Setting up hdf5out
…
