…
I0403 14:58:15.049293 30697 net.cpp:313] The NetState phase (1) differed from the phase (0) specified by a rule in layer data
I0403 14:58:15.049602 30697 net.cpp:49] Initializing net from parameters: 
state {
  phase: TEST
}
layer {
  name: "data"
  type: "Data"
  top: "data"
  top: "label"
  include {
    phase: TEST
  }
  transform_param {
    crop_size: 227
    mean_file: "/home/mohanty/data/final_dataset/lmdb/segmented-80-20/mean.binaryproto"
  }
  data_param {
    source: "/home/mohanty/data/final_dataset/lmdb/segmented-80-20/test_db"
    batch_size: 100
    backend: LMDB
  }
}
layer {
  name: "conv1"
  type: "Convolution"
  bottom: "data"
  top: "conv1"
  param {
    lr_mult: 1
    decay_mult: 1
  }
  param {
    lr_mult: 2
    decay_mult: 0
  }
  convolution_param {
    num_output: 96
    kernel_size: 11
    stride: 4
    weight_filler {
      type: "gaussian"
      std: 0.01
    }
    bias_filler {
      type: "constant"
      value: 0
    }
  }
}
layer {
  name: "relu1"
  type: "ReLU"
  bottom: "conv1"
  top: "conv1"
}
layer {
  name: "norm1"
  type: "LRN"
  bottom: "conv1"
  top: "norm1"
  lrn_param {
    local_size: 5
    alpha: 0.0001
    beta: 0.75
  }
}
layer {
  name: "pool1"
  type: "Pooling"
  bottom: "norm1"
  top: "pool1"
  pooling_param {
    pool: MAX
    kernel_size: 3
    stride: 2
  }
}
layer {
  name: "conv2"
  type: "Convolution"
  bottom: "pool1"
  top: "conv2"
  param {
    lr_mult: 1
    decay_mult: 1
  }
  param {
    lr_mult: 2
    decay_mult: 0
  }
  convolution_param {
    num_output: 256
    pad: 2
    kernel_size: 5
    group: 2
    weight_filler {
      type: "gaussian"
      std: 0.01
    }
    bias_filler {
      type: "constant"
      value: 0.1
    }
  }
}
layer {
  name: "relu2"
  type: "ReLU"
  bottom: "conv2"
  top: "conv2"
}
layer {
  name: "norm2"
  type: "LRN"
  bottom: "conv2"
  top: "norm2"
  lrn_param {
    local_size: 5
    alpha: 0.0001
    beta: 0.75
  }
}
layer {
  name: "pool2"
  type: "Pooling"
  bottom: "norm2"
  top: "pool2"
  pooling_param {
    pool: MAX
    kernel_size: 3
    stride: 2
  }
}
layer {
  name: "conv3"
  type: "Convolution"
  bottom: "pool2"
  top: "conv3"
  param {
    lr_mult: 1
    decay_mult: 1
  }
  param {
    lr_mult: 2
    decay_mult: 0
  }
  convolution_param {
    num_output: 384
    pad: 1
    kernel_size: 3
    weight_filler {
      type: "gaussian"
      std: 0.01
    }
    bias_filler {
      type: "constant"
      value: 0
    }
  }
}
layer {
  name: "relu3"
  type: "ReLU"
  bottom: "conv3"
  top: "conv3"
}
layer {
  name: "conv4"
  type: "Convolution"
  bottom: "conv3"
  top: "conv4"
  param {
    lr_mult: 1
    decay_mult: 1
  }
  param {
    lr_mult: 2
    decay_mult: 0
  }
  convolution_param {
    num_output: 384
    pad: 1
    kernel_size: 3
    group: 2
    weight_filler {
      type: "gaussian"
      std: 0.01
    }
    bias_filler {
      type: "constant"
      value: 0.1
    }
  }
}
layer {
  name: "relu4"
  type: "ReLU"
  bottom: "conv4"
  top: "conv4"
}
layer {
  name: "conv5"
  type: "Convolution"
  bottom: "conv4"
  top: "conv5"
  param {
    lr_mult: 1
    decay_mult: 1
  }
  param {
    lr_mult: 2
    decay_mult: 0
  }
  convolution_param {
    num_output: 256
    pad: 1
    kernel_size: 3
    group: 2
    weight_filler {
      type: "gaussian"
      std: 0.01
    }
    bias_filler {
      type: "constant"
      value: 0.1
    }
  }
}
layer {
  name: "relu5"
  type: "ReLU"
  bottom: "conv5"
  top: "conv5"
}
layer {
  name: "pool5"
  type: "Pooling"
  bottom: "conv5"
  top: "pool5"
  pooling_param {
    pool: MAX
    kernel_size: 3
    stride: 2
  }
}
layer {
  name: "fc6"
  type: "InnerProduct"
  bottom: "pool5"
  top: "fc6"
  param {
    lr_mult: 1
    decay_mult: 1
  }
  param {
    lr_mult: 2
    decay_mult: 0
  }
  inner_product_param {
    num_output: 4096
    weight_filler {
      type: "gaussian"
      std: 0.005
    }
    bias_filler {
      type: "constant"
      value: 0.1
    }
  }
}
layer {
  name: "relu6"
  type: "ReLU"
  bottom: "fc6"
  top: "fc6"
}
layer {
  name: "drop6"
  type: "Dropout"
  bottom: "fc6"
  top: "fc6"
  dropout_param {
    dropout_ratio: 0.5
  }
}
layer {
  name: "fc7"
  type: "InnerProduct"
  bottom: "fc6"
  top: "fc7"
  param {
    lr_mult: 1
    decay_mult: 1
  }
  param {
    lr_mult: 2
    decay_mult: 0
  }
  inner_product_param {
    num_output: 4096
    weight_filler {
      type: "gaussian"
      std: 0.005
    }
    bias_filler {
      type: "constant"
      value: 0.1
    }
  }
}
layer {
  name: "relu7"
  type: "ReLU"
  bottom: "fc7"
  top: "fc7"
}
layer {
  name: "drop7"
  type: "Dropout"
  bottom: "fc7"
  top: "fc7"
  dropout_param {
    dropout_ratio: 0.5
  }
}
layer {
  name: "fc8_plantvillage"
  type: "InnerProduct"
  bottom: "fc7"
  top: "fc8_plantvillage"
  param {
    lr_mult: 1
    decay_mult: 1
  }
  param {
    lr_mult: 2
    decay_mult: 0
  }
  inner_product_param {
    num_output: 38
    weight_filler {
      type: "gaussian"
      std: 0.01
    }
    bias_filler {
      type: "constant"
      value: 0
    }
  }
}
layer {
  name: "prob"
  type: "Softmax"
  bottom: "fc8_plantvillage"
  top: "prob"
  include {
    phase: TEST
  }
}
layer {
  name: "hdf5out"
  type: "HDF5Output"
  bottom: "prob"
  bottom: "label"
  include {
    phase: TEST
  }
  hdf5_output_param {
    file_name: "hdf5_dumps/iter_7830.h5"
  }
}
layer {
  name: "loss"
  type: "SoftmaxWithLoss"
  bottom: "fc8_plantvillage"
  bottom: "label"
  top: "loss"
}
layer {
  name: "accuracy"
  type: "Accuracy"
  bottom: "fc8_plantvillage"
  bottom: "label"
  top: "accuracy"
  include {
    phase: TEST
  }
}
I0403 14:58:15.050211 30697 layer_factory.hpp:77] Creating layer data
I0403 14:58:15.050864 30697 net.cpp:91] Creating Layer data
I0403 14:58:15.050899 30697 net.cpp:399] data -> data
I0403 14:58:15.050950 30697 net.cpp:399] data -> label
I0403 14:58:15.050987 30697 data_transformer.cpp:25] Loading mean file from: /home/mohanty/data/final_dataset/lmdb/segmented-80-20/mean.binaryproto
I0403 14:58:15.054123 30699 db_lmdb.cpp:38] Opened lmdb /home/mohanty/data/final_dataset/lmdb/segmented-80-20/test_db
I0403 14:58:15.065565 30697 data_layer.cpp:41] output data size: 100,3,227,227
I0403 14:58:15.199540 30697 net.cpp:141] Setting up data
I0403 14:58:15.199604 30697 net.cpp:148] Top shape: 100 3 227 227 (15458700)
I0403 14:58:15.199626 30697 net.cpp:148] Top shape: 100 (100)
I0403 14:58:15.199642 30697 net.cpp:156] Memory required for data: 61835200
I0403 14:58:15.199671 30697 layer_factory.hpp:77] Creating layer label_data_1_split
I0403 14:58:15.199699 30697 net.cpp:91] Creating Layer label_data_1_split
I0403 14:58:15.199719 30697 net.cpp:425] label_data_1_split <- label
I0403 14:58:15.199750 30697 net.cpp:399] label_data_1_split -> label_data_1_split_0
I0403 14:58:15.199777 30697 net.cpp:399] label_data_1_split -> label_data_1_split_1
I0403 14:58:15.199800 30697 net.cpp:399] label_data_1_split -> label_data_1_split_2
I0403 14:58:15.199862 30697 net.cpp:141] Setting up label_data_1_split
I0403 14:58:15.199887 30697 net.cpp:148] Top shape: 100 (100)
I0403 14:58:15.199904 30697 net.cpp:148] Top shape: 100 (100)
I0403 14:58:15.199923 30697 net.cpp:148] Top shape: 100 (100)
I0403 14:58:15.199936 30697 net.cpp:156] Memory required for data: 61836400
I0403 14:58:15.199951 30697 layer_factory.hpp:77] Creating layer conv1
I0403 14:58:15.199983 30697 net.cpp:91] Creating Layer conv1
I0403 14:58:15.200003 30697 net.cpp:425] conv1 <- data
I0403 14:58:15.200023 30697 net.cpp:399] conv1 -> conv1
I0403 14:58:15.359668 30697 net.cpp:141] Setting up conv1
I0403 14:58:15.359745 30697 net.cpp:148] Top shape: 100 96 55 55 (29040000)
I0403 14:58:15.359765 30697 net.cpp:156] Memory required for data: 177996400
I0403 14:58:15.359798 30697 layer_factory.hpp:77] Creating layer relu1
I0403 14:58:15.359827 30697 net.cpp:91] Creating Layer relu1
I0403 14:58:15.359871 30697 net.cpp:425] relu1 <- conv1
I0403 14:58:15.359894 30697 net.cpp:386] relu1 -> conv1 (in-place)
I0403 14:58:15.360168 30697 net.cpp:141] Setting up relu1
I0403 14:58:15.360198 30697 net.cpp:148] Top shape: 100 96 55 55 (29040000)
I0403 14:58:15.360249 30697 net.cpp:156] Memory required for data: 294156400
I0403 14:58:15.360266 30697 layer_factory.hpp:77] Creating layer norm1
I0403 14:58:15.360302 30697 net.cpp:91] Creating Layer norm1
I0403 14:58:15.360322 30697 net.cpp:425] norm1 <- conv1
I0403 14:58:15.360344 30697 net.cpp:399] norm1 -> norm1
I0403 14:58:15.360713 30697 net.cpp:141] Setting up norm1
I0403 14:58:15.360743 30697 net.cpp:148] Top shape: 100 96 55 55 (29040000)
I0403 14:58:15.360759 30697 net.cpp:156] Memory required for data: 410316400
I0403 14:58:15.360775 30697 layer_factory.hpp:77] Creating layer pool1
I0403 14:58:15.360798 30697 net.cpp:91] Creating Layer pool1
I0403 14:58:15.360816 30697 net.cpp:425] pool1 <- norm1
I0403 14:58:15.360837 30697 net.cpp:399] pool1 -> pool1
I0403 14:58:15.360909 30697 net.cpp:141] Setting up pool1
I0403 14:58:15.360937 30697 net.cpp:148] Top shape: 100 96 27 27 (6998400)
I0403 14:58:15.360954 30697 net.cpp:156] Memory required for data: 438310000
I0403 14:58:15.360970 30697 layer_factory.hpp:77] Creating layer conv2
I0403 14:58:15.360997 30697 net.cpp:91] Creating Layer conv2
I0403 14:58:15.361014 30697 net.cpp:425] conv2 <- pool1
I0403 14:58:15.361033 30697 net.cpp:399] conv2 -> conv2
I0403 14:58:15.376266 30697 net.cpp:141] Setting up conv2
I0403 14:58:15.376304 30697 net.cpp:148] Top shape: 100 256 27 27 (18662400)
I0403 14:58:15.376324 30697 net.cpp:156] Memory required for data: 512959600
I0403 14:58:15.376346 30697 layer_factory.hpp:77] Creating layer relu2
I0403 14:58:15.376366 30697 net.cpp:91] Creating Layer relu2
I0403 14:58:15.376384 30697 net.cpp:425] relu2 <- conv2
I0403 14:58:15.376407 30697 net.cpp:386] relu2 -> conv2 (in-place)
I0403 14:58:15.376698 30697 net.cpp:141] Setting up relu2
I0403 14:58:15.376726 30697 net.cpp:148] Top shape: 100 256 27 27 (18662400)
I0403 14:58:15.376742 30697 net.cpp:156] Memory required for data: 587609200
I0403 14:58:15.376760 30697 layer_factory.hpp:77] Creating layer norm2
I0403 14:58:15.376781 30697 net.cpp:91] Creating Layer norm2
I0403 14:58:15.376801 30697 net.cpp:425] norm2 <- conv2
I0403 14:58:15.376821 30697 net.cpp:399] norm2 -> norm2
I0403 14:58:15.377027 30697 net.cpp:141] Setting up norm2
I0403 14:58:15.377054 30697 net.cpp:148] Top shape: 100 256 27 27 (18662400)
I0403 14:58:15.377070 30697 net.cpp:156] Memory required for data: 662258800
I0403 14:58:15.377086 30697 layer_factory.hpp:77] Creating layer pool2
I0403 14:58:15.377105 30697 net.cpp:91] Creating Layer pool2
I0403 14:58:15.377122 30697 net.cpp:425] pool2 <- norm2
I0403 14:58:15.377142 30697 net.cpp:399] pool2 -> pool2
I0403 14:58:15.377195 30697 net.cpp:141] Setting up pool2
I0403 14:58:15.377220 30697 net.cpp:148] Top shape: 100 256 13 13 (4326400)
I0403 14:58:15.377236 30697 net.cpp:156] Memory required for data: 679564400
I0403 14:58:15.377252 30697 layer_factory.hpp:77] Creating layer conv3
I0403 14:58:15.377277 30697 net.cpp:91] Creating Layer conv3
I0403 14:58:15.377298 30697 net.cpp:425] conv3 <- pool2
I0403 14:58:15.377318 30697 net.cpp:399] conv3 -> conv3
I0403 14:58:15.417104 30697 net.cpp:141] Setting up conv3
I0403 14:58:15.417176 30697 net.cpp:148] Top shape: 100 384 13 13 (6489600)
I0403 14:58:15.417193 30697 net.cpp:156] Memory required for data: 705522800
I0403 14:58:15.417220 30697 layer_factory.hpp:77] Creating layer relu3
I0403 14:58:15.417245 30697 net.cpp:91] Creating Layer relu3
I0403 14:58:15.417264 30697 net.cpp:425] relu3 <- conv3
I0403 14:58:15.417290 30697 net.cpp:386] relu3 -> conv3 (in-place)
I0403 14:58:15.417572 30697 net.cpp:141] Setting up relu3
I0403 14:58:15.417601 30697 net.cpp:148] Top shape: 100 384 13 13 (6489600)
I0403 14:58:15.417618 30697 net.cpp:156] Memory required for data: 731481200
I0403 14:58:15.417634 30697 layer_factory.hpp:77] Creating layer conv4
I0403 14:58:15.417660 30697 net.cpp:91] Creating Layer conv4
I0403 14:58:15.417678 30697 net.cpp:425] conv4 <- conv3
I0403 14:58:15.417701 30697 net.cpp:399] conv4 -> conv4
I0403 14:58:15.447810 30697 net.cpp:141] Setting up conv4
I0403 14:58:15.447870 30697 net.cpp:148] Top shape: 100 384 13 13 (6489600)
I0403 14:58:15.447911 30697 net.cpp:156] Memory required for data: 757439600
I0403 14:58:15.447935 30697 layer_factory.hpp:77] Creating layer relu4
I0403 14:58:15.447958 30697 net.cpp:91] Creating Layer relu4
I0403 14:58:15.447975 30697 net.cpp:425] relu4 <- conv4
I0403 14:58:15.447998 30697 net.cpp:386] relu4 -> conv4 (in-place)
I0403 14:58:15.448312 30697 net.cpp:141] Setting up relu4
I0403 14:58:15.448348 30697 net.cpp:148] Top shape: 100 384 13 13 (6489600)
I0403 14:58:15.448364 30697 net.cpp:156] Memory required for data: 783398000
I0403 14:58:15.448380 30697 layer_factory.hpp:77] Creating layer conv5
I0403 14:58:15.448405 30697 net.cpp:91] Creating Layer conv5
I0403 14:58:15.448424 30697 net.cpp:425] conv5 <- conv4
I0403 14:58:15.448444 30697 net.cpp:399] conv5 -> conv5
I0403 14:58:15.468716 30697 net.cpp:141] Setting up conv5
I0403 14:58:15.468754 30697 net.cpp:148] Top shape: 100 256 13 13 (4326400)
I0403 14:58:15.468771 30697 net.cpp:156] Memory required for data: 800703600
I0403 14:58:15.468796 30697 layer_factory.hpp:77] Creating layer relu5
I0403 14:58:15.468816 30697 net.cpp:91] Creating Layer relu5
I0403 14:58:15.468833 30697 net.cpp:425] relu5 <- conv5
I0403 14:58:15.468855 30697 net.cpp:386] relu5 -> conv5 (in-place)
I0403 14:58:15.469138 30697 net.cpp:141] Setting up relu5
I0403 14:58:15.469167 30697 net.cpp:148] Top shape: 100 256 13 13 (4326400)
I0403 14:58:15.469182 30697 net.cpp:156] Memory required for data: 818009200
I0403 14:58:15.469198 30697 layer_factory.hpp:77] Creating layer pool5
I0403 14:58:15.469223 30697 net.cpp:91] Creating Layer pool5
I0403 14:58:15.469240 30697 net.cpp:425] pool5 <- conv5
I0403 14:58:15.469259 30697 net.cpp:399] pool5 -> pool5
I0403 14:58:15.469323 30697 net.cpp:141] Setting up pool5
I0403 14:58:15.469347 30697 net.cpp:148] Top shape: 100 256 6 6 (921600)
I0403 14:58:15.469363 30697 net.cpp:156] Memory required for data: 821695600
I0403 14:58:15.469379 30697 layer_factory.hpp:77] Creating layer fc6
I0403 14:58:15.469406 30697 net.cpp:91] Creating Layer fc6
I0403 14:58:15.469425 30697 net.cpp:425] fc6 <- pool5
I0403 14:58:15.469446 30697 net.cpp:399] fc6 -> fc6
I0403 14:58:17.022588 30697 net.cpp:141] Setting up fc6
I0403 14:58:17.022660 30697 net.cpp:148] Top shape: 100 4096 (409600)
I0403 14:58:17.022678 30697 net.cpp:156] Memory required for data: 823334000
I0403 14:58:17.022702 30697 layer_factory.hpp:77] Creating layer relu6
I0403 14:58:17.022729 30697 net.cpp:91] Creating Layer relu6
I0403 14:58:17.022750 30697 net.cpp:425] relu6 <- fc6
I0403 14:58:17.022773 30697 net.cpp:386] relu6 -> fc6 (in-place)
I0403 14:58:17.023001 30697 net.cpp:141] Setting up relu6
I0403 14:58:17.023028 30697 net.cpp:148] Top shape: 100 4096 (409600)
I0403 14:58:17.023046 30697 net.cpp:156] Memory required for data: 824972400
I0403 14:58:17.023061 30697 layer_factory.hpp:77] Creating layer drop6
I0403 14:58:17.023079 30697 net.cpp:91] Creating Layer drop6
I0403 14:58:17.023097 30697 net.cpp:425] drop6 <- fc6
I0403 14:58:17.023118 30697 net.cpp:386] drop6 -> fc6 (in-place)
I0403 14:58:17.023172 30697 net.cpp:141] Setting up drop6
I0403 14:58:17.023201 30697 net.cpp:148] Top shape: 100 4096 (409600)
I0403 14:58:17.023219 30697 net.cpp:156] Memory required for data: 826610800
I0403 14:58:17.023236 30697 layer_factory.hpp:77] Creating layer fc7
I0403 14:58:17.023257 30697 net.cpp:91] Creating Layer fc7
I0403 14:58:17.023273 30697 net.cpp:425] fc7 <- fc6
I0403 14:58:17.023300 30697 net.cpp:399] fc7 -> fc7
I0403 14:58:17.709645 30697 net.cpp:141] Setting up fc7
I0403 14:58:17.709704 30697 net.cpp:148] Top shape: 100 4096 (409600)
I0403 14:58:17.709722 30697 net.cpp:156] Memory required for data: 828249200
I0403 14:58:17.709744 30697 layer_factory.hpp:77] Creating layer relu7
I0403 14:58:17.709769 30697 net.cpp:91] Creating Layer relu7
I0403 14:58:17.709785 30697 net.cpp:425] relu7 <- fc7
I0403 14:58:17.709810 30697 net.cpp:386] relu7 -> fc7 (in-place)
I0403 14:58:17.710206 30697 net.cpp:141] Setting up relu7
I0403 14:58:17.710232 30697 net.cpp:148] Top shape: 100 4096 (409600)
I0403 14:58:17.710283 30697 net.cpp:156] Memory required for data: 829887600
I0403 14:58:17.710304 30697 layer_factory.hpp:77] Creating layer drop7
I0403 14:58:17.710322 30697 net.cpp:91] Creating Layer drop7
I0403 14:58:17.710340 30697 net.cpp:425] drop7 <- fc7
I0403 14:58:17.710360 30697 net.cpp:386] drop7 -> fc7 (in-place)
I0403 14:58:17.710404 30697 net.cpp:141] Setting up drop7
I0403 14:58:17.710427 30697 net.cpp:148] Top shape: 100 4096 (409600)
I0403 14:58:17.710443 30697 net.cpp:156] Memory required for data: 831526000
I0403 14:58:17.710456 30697 layer_factory.hpp:77] Creating layer fc8_plantvillage
I0403 14:58:17.710479 30697 net.cpp:91] Creating Layer fc8_plantvillage
I0403 14:58:17.710495 30697 net.cpp:425] fc8_plantvillage <- fc7
I0403 14:58:17.710517 30697 net.cpp:399] fc8_plantvillage -> fc8_plantvillage
I0403 14:58:17.717088 30697 net.cpp:141] Setting up fc8_plantvillage
I0403 14:58:17.717118 30697 net.cpp:148] Top shape: 100 38 (3800)
I0403 14:58:17.717133 30697 net.cpp:156] Memory required for data: 831541200
I0403 14:58:17.717151 30697 layer_factory.hpp:77] Creating layer fc8_plantvillage_fc8_plantvillage_0_split
I0403 14:58:17.717170 30697 net.cpp:91] Creating Layer fc8_plantvillage_fc8_plantvillage_0_split
I0403 14:58:17.717186 30697 net.cpp:425] fc8_plantvillage_fc8_plantvillage_0_split <- fc8_plantvillage
I0403 14:58:17.717206 30697 net.cpp:399] fc8_plantvillage_fc8_plantvillage_0_split -> fc8_plantvillage_fc8_plantvillage_0_split_0
I0403 14:58:17.717226 30697 net.cpp:399] fc8_plantvillage_fc8_plantvillage_0_split -> fc8_plantvillage_fc8_plantvillage_0_split_1
I0403 14:58:17.717247 30697 net.cpp:399] fc8_plantvillage_fc8_plantvillage_0_split -> fc8_plantvillage_fc8_plantvillage_0_split_2
I0403 14:58:17.717326 30697 net.cpp:141] Setting up fc8_plantvillage_fc8_plantvillage_0_split
I0403 14:58:17.717350 30697 net.cpp:148] Top shape: 100 38 (3800)
I0403 14:58:17.717366 30697 net.cpp:148] Top shape: 100 38 (3800)
I0403 14:58:17.717382 30697 net.cpp:148] Top shape: 100 38 (3800)
I0403 14:58:17.717397 30697 net.cpp:156] Memory required for data: 831586800
I0403 14:58:17.717411 30697 layer_factory.hpp:77] Creating layer prob
I0403 14:58:17.717430 30697 net.cpp:91] Creating Layer prob
I0403 14:58:17.717447 30697 net.cpp:425] prob <- fc8_plantvillage_fc8_plantvillage_0_split_0
I0403 14:58:17.717465 30697 net.cpp:399] prob -> prob
I0403 14:58:17.717689 30697 net.cpp:141] Setting up prob
I0403 14:58:17.717717 30697 net.cpp:148] Top shape: 100 38 (3800)
I0403 14:58:17.717735 30697 net.cpp:156] Memory required for data: 831602000
I0403 14:58:17.717749 30697 layer_factory.hpp:77] Creating layer hdf5out
I0403 14:58:17.717767 30697 net.cpp:91] Creating Layer hdf5out
I0403 14:58:17.717782 30697 net.cpp:425] hdf5out <- prob
I0403 14:58:17.717808 30697 net.cpp:425] hdf5out <- label_data_1_split_0
I0403 14:58:17.733640 30697 net.cpp:141] Setting up hdf5out
…
