…
I0403 14:52:35.637964 30528 net.cpp:313] The NetState phase (1) differed from the phase (0) specified by a rule in layer data
I0403 14:52:35.638260 30528 net.cpp:49] Initializing net from parameters: 
state {
  phase: TEST
}
layer {
  name: "data"
  type: "Data"
  top: "data"
  top: "label"
  include {
    phase: TEST
  }
  transform_param {
    crop_size: 227
    mean_file: "/home/mohanty/data/final_dataset/lmdb/segmented-80-20/mean.binaryproto"
  }
  data_param {
    source: "/home/mohanty/data/final_dataset/lmdb/segmented-80-20/test_db"
    batch_size: 100
    backend: LMDB
  }
}
layer {
  name: "conv1"
  type: "Convolution"
  bottom: "data"
  top: "conv1"
  param {
    lr_mult: 1
    decay_mult: 1
  }
  param {
    lr_mult: 2
    decay_mult: 0
  }
  convolution_param {
    num_output: 96
    kernel_size: 11
    stride: 4
    weight_filler {
      type: "gaussian"
      std: 0.01
    }
    bias_filler {
      type: "constant"
      value: 0
    }
  }
}
layer {
  name: "relu1"
  type: "ReLU"
  bottom: "conv1"
  top: "conv1"
}
layer {
  name: "norm1"
  type: "LRN"
  bottom: "conv1"
  top: "norm1"
  lrn_param {
    local_size: 5
    alpha: 0.0001
    beta: 0.75
  }
}
layer {
  name: "pool1"
  type: "Pooling"
  bottom: "norm1"
  top: "pool1"
  pooling_param {
    pool: MAX
    kernel_size: 3
    stride: 2
  }
}
layer {
  name: "conv2"
  type: "Convolution"
  bottom: "pool1"
  top: "conv2"
  param {
    lr_mult: 1
    decay_mult: 1
  }
  param {
    lr_mult: 2
    decay_mult: 0
  }
  convolution_param {
    num_output: 256
    pad: 2
    kernel_size: 5
    group: 2
    weight_filler {
      type: "gaussian"
      std: 0.01
    }
    bias_filler {
      type: "constant"
      value: 0.1
    }
  }
}
layer {
  name: "relu2"
  type: "ReLU"
  bottom: "conv2"
  top: "conv2"
}
layer {
  name: "norm2"
  type: "LRN"
  bottom: "conv2"
  top: "norm2"
  lrn_param {
    local_size: 5
    alpha: 0.0001
    beta: 0.75
  }
}
layer {
  name: "pool2"
  type: "Pooling"
  bottom: "norm2"
  top: "pool2"
  pooling_param {
    pool: MAX
    kernel_size: 3
    stride: 2
  }
}
layer {
  name: "conv3"
  type: "Convolution"
  bottom: "pool2"
  top: "conv3"
  param {
    lr_mult: 1
    decay_mult: 1
  }
  param {
    lr_mult: 2
    decay_mult: 0
  }
  convolution_param {
    num_output: 384
    pad: 1
    kernel_size: 3
    weight_filler {
      type: "gaussian"
      std: 0.01
    }
    bias_filler {
      type: "constant"
      value: 0
    }
  }
}
layer {
  name: "relu3"
  type: "ReLU"
  bottom: "conv3"
  top: "conv3"
}
layer {
  name: "conv4"
  type: "Convolution"
  bottom: "conv3"
  top: "conv4"
  param {
    lr_mult: 1
    decay_mult: 1
  }
  param {
    lr_mult: 2
    decay_mult: 0
  }
  convolution_param {
    num_output: 384
    pad: 1
    kernel_size: 3
    group: 2
    weight_filler {
      type: "gaussian"
      std: 0.01
    }
    bias_filler {
      type: "constant"
      value: 0.1
    }
  }
}
layer {
  name: "relu4"
  type: "ReLU"
  bottom: "conv4"
  top: "conv4"
}
layer {
  name: "conv5"
  type: "Convolution"
  bottom: "conv4"
  top: "conv5"
  param {
    lr_mult: 1
    decay_mult: 1
  }
  param {
    lr_mult: 2
    decay_mult: 0
  }
  convolution_param {
    num_output: 256
    pad: 1
    kernel_size: 3
    group: 2
    weight_filler {
      type: "gaussian"
      std: 0.01
    }
    bias_filler {
      type: "constant"
      value: 0.1
    }
  }
}
layer {
  name: "relu5"
  type: "ReLU"
  bottom: "conv5"
  top: "conv5"
}
layer {
  name: "pool5"
  type: "Pooling"
  bottom: "conv5"
  top: "pool5"
  pooling_param {
    pool: MAX
    kernel_size: 3
    stride: 2
  }
}
layer {
  name: "fc6"
  type: "InnerProduct"
  bottom: "pool5"
  top: "fc6"
  param {
    lr_mult: 1
    decay_mult: 1
  }
  param {
    lr_mult: 2
    decay_mult: 0
  }
  inner_product_param {
    num_output: 4096
    weight_filler {
      type: "gaussian"
      std: 0.005
    }
    bias_filler {
      type: "constant"
      value: 0.1
    }
  }
}
layer {
  name: "relu6"
  type: "ReLU"
  bottom: "fc6"
  top: "fc6"
}
layer {
  name: "drop6"
  type: "Dropout"
  bottom: "fc6"
  top: "fc6"
  dropout_param {
    dropout_ratio: 0.5
  }
}
layer {
  name: "fc7"
  type: "InnerProduct"
  bottom: "fc6"
  top: "fc7"
  param {
    lr_mult: 1
    decay_mult: 1
  }
  param {
    lr_mult: 2
    decay_mult: 0
  }
  inner_product_param {
    num_output: 4096
    weight_filler {
      type: "gaussian"
      std: 0.005
    }
    bias_filler {
      type: "constant"
      value: 0.1
    }
  }
}
layer {
  name: "relu7"
  type: "ReLU"
  bottom: "fc7"
  top: "fc7"
}
layer {
  name: "drop7"
  type: "Dropout"
  bottom: "fc7"
  top: "fc7"
  dropout_param {
    dropout_ratio: 0.5
  }
}
layer {
  name: "fc8_plantvillage"
  type: "InnerProduct"
  bottom: "fc7"
  top: "fc8_plantvillage"
  param {
    lr_mult: 1
    decay_mult: 1
  }
  param {
    lr_mult: 2
    decay_mult: 0
  }
  inner_product_param {
    num_output: 38
    weight_filler {
      type: "gaussian"
      std: 0.01
    }
    bias_filler {
      type: "constant"
      value: 0
    }
  }
}
layer {
  name: "prob"
  type: "Softmax"
  bottom: "fc8_plantvillage"
  top: "prob"
  include {
    phase: TEST
  }
}
layer {
  name: "hdf5out"
  type: "HDF5Output"
  bottom: "prob"
  bottom: "label"
  include {
    phase: TEST
  }
  hdf5_output_param {
    file_name: "hdf5_dumps/iter_1740.h5"
  }
}
layer {
  name: "loss"
  type: "SoftmaxWithLoss"
  bottom: "fc8_plantvillage"
  bottom: "label"
  top: "loss"
}
layer {
  name: "accuracy"
  type: "Accuracy"
  bottom: "fc8_plantvillage"
  bottom: "label"
  top: "accuracy"
  include {
    phase: TEST
  }
}
I0403 14:52:35.638871 30528 layer_factory.hpp:77] Creating layer data
I0403 14:52:35.639540 30528 net.cpp:91] Creating Layer data
I0403 14:52:35.639572 30528 net.cpp:399] data -> data
I0403 14:52:35.639626 30528 net.cpp:399] data -> label
I0403 14:52:35.639665 30528 data_transformer.cpp:25] Loading mean file from: /home/mohanty/data/final_dataset/lmdb/segmented-80-20/mean.binaryproto
I0403 14:52:35.642529 30530 db_lmdb.cpp:38] Opened lmdb /home/mohanty/data/final_dataset/lmdb/segmented-80-20/test_db
I0403 14:52:35.654280 30528 data_layer.cpp:41] output data size: 100,3,227,227
I0403 14:52:35.790446 30528 net.cpp:141] Setting up data
I0403 14:52:35.790539 30528 net.cpp:148] Top shape: 100 3 227 227 (15458700)
I0403 14:52:35.790562 30528 net.cpp:148] Top shape: 100 (100)
I0403 14:52:35.790580 30528 net.cpp:156] Memory required for data: 61835200
I0403 14:52:35.790606 30528 layer_factory.hpp:77] Creating layer label_data_1_split
I0403 14:52:35.790632 30528 net.cpp:91] Creating Layer label_data_1_split
I0403 14:52:35.790650 30528 net.cpp:425] label_data_1_split <- label
I0403 14:52:35.790683 30528 net.cpp:399] label_data_1_split -> label_data_1_split_0
I0403 14:52:35.790711 30528 net.cpp:399] label_data_1_split -> label_data_1_split_1
I0403 14:52:35.790734 30528 net.cpp:399] label_data_1_split -> label_data_1_split_2
I0403 14:52:35.790796 30528 net.cpp:141] Setting up label_data_1_split
I0403 14:52:35.790820 30528 net.cpp:148] Top shape: 100 (100)
I0403 14:52:35.790838 30528 net.cpp:148] Top shape: 100 (100)
I0403 14:52:35.790855 30528 net.cpp:148] Top shape: 100 (100)
I0403 14:52:35.790871 30528 net.cpp:156] Memory required for data: 61836400
I0403 14:52:35.790887 30528 layer_factory.hpp:77] Creating layer conv1
I0403 14:52:35.790920 30528 net.cpp:91] Creating Layer conv1
I0403 14:52:35.790940 30528 net.cpp:425] conv1 <- data
I0403 14:52:35.790959 30528 net.cpp:399] conv1 -> conv1
I0403 14:52:35.936344 30528 net.cpp:141] Setting up conv1
I0403 14:52:35.936424 30528 net.cpp:148] Top shape: 100 96 55 55 (29040000)
I0403 14:52:35.936441 30528 net.cpp:156] Memory required for data: 177996400
I0403 14:52:35.936473 30528 layer_factory.hpp:77] Creating layer relu1
I0403 14:52:35.936501 30528 net.cpp:91] Creating Layer relu1
I0403 14:52:35.936522 30528 net.cpp:425] relu1 <- conv1
I0403 14:52:35.936542 30528 net.cpp:386] relu1 -> conv1 (in-place)
I0403 14:52:35.936792 30528 net.cpp:141] Setting up relu1
I0403 14:52:35.936820 30528 net.cpp:148] Top shape: 100 96 55 55 (29040000)
I0403 14:52:35.936869 30528 net.cpp:156] Memory required for data: 294156400
I0403 14:52:35.936885 30528 layer_factory.hpp:77] Creating layer norm1
I0403 14:52:35.936914 30528 net.cpp:91] Creating Layer norm1
I0403 14:52:35.936952 30528 net.cpp:425] norm1 <- conv1
I0403 14:52:35.936977 30528 net.cpp:399] norm1 -> norm1
I0403 14:52:35.937279 30528 net.cpp:141] Setting up norm1
I0403 14:52:35.937311 30528 net.cpp:148] Top shape: 100 96 55 55 (29040000)
I0403 14:52:35.937327 30528 net.cpp:156] Memory required for data: 410316400
I0403 14:52:35.937343 30528 layer_factory.hpp:77] Creating layer pool1
I0403 14:52:35.937366 30528 net.cpp:91] Creating Layer pool1
I0403 14:52:35.937384 30528 net.cpp:425] pool1 <- norm1
I0403 14:52:35.937403 30528 net.cpp:399] pool1 -> pool1
I0403 14:52:35.937469 30528 net.cpp:141] Setting up pool1
I0403 14:52:35.937494 30528 net.cpp:148] Top shape: 100 96 27 27 (6998400)
I0403 14:52:35.937510 30528 net.cpp:156] Memory required for data: 438310000
I0403 14:52:35.937525 30528 layer_factory.hpp:77] Creating layer conv2
I0403 14:52:35.937549 30528 net.cpp:91] Creating Layer conv2
I0403 14:52:35.937566 30528 net.cpp:425] conv2 <- pool1
I0403 14:52:35.937584 30528 net.cpp:399] conv2 -> conv2
I0403 14:52:35.952250 30528 net.cpp:141] Setting up conv2
I0403 14:52:35.952291 30528 net.cpp:148] Top shape: 100 256 27 27 (18662400)
I0403 14:52:35.952309 30528 net.cpp:156] Memory required for data: 512959600
I0403 14:52:35.952332 30528 layer_factory.hpp:77] Creating layer relu2
I0403 14:52:35.952353 30528 net.cpp:91] Creating Layer relu2
I0403 14:52:35.952368 30528 net.cpp:425] relu2 <- conv2
I0403 14:52:35.952385 30528 net.cpp:386] relu2 -> conv2 (in-place)
I0403 14:52:35.952646 30528 net.cpp:141] Setting up relu2
I0403 14:52:35.952673 30528 net.cpp:148] Top shape: 100 256 27 27 (18662400)
I0403 14:52:35.952689 30528 net.cpp:156] Memory required for data: 587609200
I0403 14:52:35.952707 30528 layer_factory.hpp:77] Creating layer norm2
I0403 14:52:35.952728 30528 net.cpp:91] Creating Layer norm2
I0403 14:52:35.952744 30528 net.cpp:425] norm2 <- conv2
I0403 14:52:35.952762 30528 net.cpp:399] norm2 -> norm2
I0403 14:52:35.952976 30528 net.cpp:141] Setting up norm2
I0403 14:52:35.953003 30528 net.cpp:148] Top shape: 100 256 27 27 (18662400)
I0403 14:52:35.953019 30528 net.cpp:156] Memory required for data: 662258800
I0403 14:52:35.953034 30528 layer_factory.hpp:77] Creating layer pool2
I0403 14:52:35.953053 30528 net.cpp:91] Creating Layer pool2
I0403 14:52:35.953069 30528 net.cpp:425] pool2 <- norm2
I0403 14:52:35.953088 30528 net.cpp:399] pool2 -> pool2
I0403 14:52:35.953136 30528 net.cpp:141] Setting up pool2
I0403 14:52:35.953161 30528 net.cpp:148] Top shape: 100 256 13 13 (4326400)
I0403 14:52:35.953176 30528 net.cpp:156] Memory required for data: 679564400
I0403 14:52:35.953191 30528 layer_factory.hpp:77] Creating layer conv3
I0403 14:52:35.953212 30528 net.cpp:91] Creating Layer conv3
I0403 14:52:35.953229 30528 net.cpp:425] conv3 <- pool2
I0403 14:52:35.953248 30528 net.cpp:399] conv3 -> conv3
I0403 14:52:35.991019 30528 net.cpp:141] Setting up conv3
I0403 14:52:35.991062 30528 net.cpp:148] Top shape: 100 384 13 13 (6489600)
I0403 14:52:35.991080 30528 net.cpp:156] Memory required for data: 705522800
I0403 14:52:35.991104 30528 layer_factory.hpp:77] Creating layer relu3
I0403 14:52:35.991127 30528 net.cpp:91] Creating Layer relu3
I0403 14:52:35.991144 30528 net.cpp:425] relu3 <- conv3
I0403 14:52:35.991163 30528 net.cpp:386] relu3 -> conv3 (in-place)
I0403 14:52:35.991438 30528 net.cpp:141] Setting up relu3
I0403 14:52:35.991474 30528 net.cpp:148] Top shape: 100 384 13 13 (6489600)
I0403 14:52:35.991490 30528 net.cpp:156] Memory required for data: 731481200
I0403 14:52:35.991506 30528 layer_factory.hpp:77] Creating layer conv4
I0403 14:52:35.991529 30528 net.cpp:91] Creating Layer conv4
I0403 14:52:35.991547 30528 net.cpp:425] conv4 <- conv3
I0403 14:52:35.991569 30528 net.cpp:399] conv4 -> conv4
I0403 14:52:36.021899 30528 net.cpp:141] Setting up conv4
I0403 14:52:36.021973 30528 net.cpp:148] Top shape: 100 384 13 13 (6489600)
I0403 14:52:36.022024 30528 net.cpp:156] Memory required for data: 757439600
I0403 14:52:36.022048 30528 layer_factory.hpp:77] Creating layer relu4
I0403 14:52:36.022073 30528 net.cpp:91] Creating Layer relu4
I0403 14:52:36.022089 30528 net.cpp:425] relu4 <- conv4
I0403 14:52:36.022110 30528 net.cpp:386] relu4 -> conv4 (in-place)
I0403 14:52:36.022413 30528 net.cpp:141] Setting up relu4
I0403 14:52:36.022441 30528 net.cpp:148] Top shape: 100 384 13 13 (6489600)
I0403 14:52:36.022459 30528 net.cpp:156] Memory required for data: 783398000
I0403 14:52:36.022475 30528 layer_factory.hpp:77] Creating layer conv5
I0403 14:52:36.022500 30528 net.cpp:91] Creating Layer conv5
I0403 14:52:36.022519 30528 net.cpp:425] conv5 <- conv4
I0403 14:52:36.022541 30528 net.cpp:399] conv5 -> conv5
I0403 14:52:36.042960 30528 net.cpp:141] Setting up conv5
I0403 14:52:36.042999 30528 net.cpp:148] Top shape: 100 256 13 13 (4326400)
I0403 14:52:36.043016 30528 net.cpp:156] Memory required for data: 800703600
I0403 14:52:36.043118 30528 layer_factory.hpp:77] Creating layer relu5
I0403 14:52:36.043141 30528 net.cpp:91] Creating Layer relu5
I0403 14:52:36.043159 30528 net.cpp:425] relu5 <- conv5
I0403 14:52:36.043181 30528 net.cpp:386] relu5 -> conv5 (in-place)
I0403 14:52:36.043462 30528 net.cpp:141] Setting up relu5
I0403 14:52:36.043490 30528 net.cpp:148] Top shape: 100 256 13 13 (4326400)
I0403 14:52:36.043506 30528 net.cpp:156] Memory required for data: 818009200
I0403 14:52:36.043521 30528 layer_factory.hpp:77] Creating layer pool5
I0403 14:52:36.043545 30528 net.cpp:91] Creating Layer pool5
I0403 14:52:36.043565 30528 net.cpp:425] pool5 <- conv5
I0403 14:52:36.043584 30528 net.cpp:399] pool5 -> pool5
I0403 14:52:36.043644 30528 net.cpp:141] Setting up pool5
I0403 14:52:36.043668 30528 net.cpp:148] Top shape: 100 256 6 6 (921600)
I0403 14:52:36.043684 30528 net.cpp:156] Memory required for data: 821695600
I0403 14:52:36.043699 30528 layer_factory.hpp:77] Creating layer fc6
I0403 14:52:36.043728 30528 net.cpp:91] Creating Layer fc6
I0403 14:52:36.043747 30528 net.cpp:425] fc6 <- pool5
I0403 14:52:36.043766 30528 net.cpp:399] fc6 -> fc6
I0403 14:52:37.579968 30528 net.cpp:141] Setting up fc6
I0403 14:52:37.580011 30528 net.cpp:148] Top shape: 100 4096 (409600)
I0403 14:52:37.580029 30528 net.cpp:156] Memory required for data: 823334000
I0403 14:52:37.580051 30528 layer_factory.hpp:77] Creating layer relu6
I0403 14:52:37.580075 30528 net.cpp:91] Creating Layer relu6
I0403 14:52:37.580091 30528 net.cpp:425] relu6 <- fc6
I0403 14:52:37.580114 30528 net.cpp:386] relu6 -> fc6 (in-place)
I0403 14:52:37.580332 30528 net.cpp:141] Setting up relu6
I0403 14:52:37.580358 30528 net.cpp:148] Top shape: 100 4096 (409600)
I0403 14:52:37.580374 30528 net.cpp:156] Memory required for data: 824972400
I0403 14:52:37.580389 30528 layer_factory.hpp:77] Creating layer drop6
I0403 14:52:37.580407 30528 net.cpp:91] Creating Layer drop6
I0403 14:52:37.580425 30528 net.cpp:425] drop6 <- fc6
I0403 14:52:37.580445 30528 net.cpp:386] drop6 -> fc6 (in-place)
I0403 14:52:37.580498 30528 net.cpp:141] Setting up drop6
I0403 14:52:37.580525 30528 net.cpp:148] Top shape: 100 4096 (409600)
I0403 14:52:37.580540 30528 net.cpp:156] Memory required for data: 826610800
I0403 14:52:37.580554 30528 layer_factory.hpp:77] Creating layer fc7
I0403 14:52:37.580575 30528 net.cpp:91] Creating Layer fc7
I0403 14:52:37.580592 30528 net.cpp:425] fc7 <- fc6
I0403 14:52:37.580612 30528 net.cpp:399] fc7 -> fc7
I0403 14:52:38.256702 30528 net.cpp:141] Setting up fc7
I0403 14:52:38.256768 30528 net.cpp:148] Top shape: 100 4096 (409600)
I0403 14:52:38.256784 30528 net.cpp:156] Memory required for data: 828249200
I0403 14:52:38.256806 30528 layer_factory.hpp:77] Creating layer relu7
I0403 14:52:38.256830 30528 net.cpp:91] Creating Layer relu7
I0403 14:52:38.256850 30528 net.cpp:425] relu7 <- fc7
I0403 14:52:38.256870 30528 net.cpp:386] relu7 -> fc7 (in-place)
I0403 14:52:38.257264 30528 net.cpp:141] Setting up relu7
I0403 14:52:38.257294 30528 net.cpp:148] Top shape: 100 4096 (409600)
I0403 14:52:38.257342 30528 net.cpp:156] Memory required for data: 829887600
I0403 14:52:38.257359 30528 layer_factory.hpp:77] Creating layer drop7
I0403 14:52:38.257382 30528 net.cpp:91] Creating Layer drop7
I0403 14:52:38.257397 30528 net.cpp:425] drop7 <- fc7
I0403 14:52:38.257418 30528 net.cpp:386] drop7 -> fc7 (in-place)
I0403 14:52:38.257462 30528 net.cpp:141] Setting up drop7
I0403 14:52:38.257488 30528 net.cpp:148] Top shape: 100 4096 (409600)
I0403 14:52:38.257503 30528 net.cpp:156] Memory required for data: 831526000
I0403 14:52:38.257519 30528 layer_factory.hpp:77] Creating layer fc8_plantvillage
I0403 14:52:38.257539 30528 net.cpp:91] Creating Layer fc8_plantvillage
I0403 14:52:38.257555 30528 net.cpp:425] fc8_plantvillage <- fc7
I0403 14:52:38.257575 30528 net.cpp:399] fc8_plantvillage -> fc8_plantvillage
I0403 14:52:38.264118 30528 net.cpp:141] Setting up fc8_plantvillage
I0403 14:52:38.264147 30528 net.cpp:148] Top shape: 100 38 (3800)
I0403 14:52:38.264163 30528 net.cpp:156] Memory required for data: 831541200
I0403 14:52:38.264183 30528 layer_factory.hpp:77] Creating layer fc8_plantvillage_fc8_plantvillage_0_split
I0403 14:52:38.264204 30528 net.cpp:91] Creating Layer fc8_plantvillage_fc8_plantvillage_0_split
I0403 14:52:38.264220 30528 net.cpp:425] fc8_plantvillage_fc8_plantvillage_0_split <- fc8_plantvillage
I0403 14:52:38.264238 30528 net.cpp:399] fc8_plantvillage_fc8_plantvillage_0_split -> fc8_plantvillage_fc8_plantvillage_0_split_0
I0403 14:52:38.264258 30528 net.cpp:399] fc8_plantvillage_fc8_plantvillage_0_split -> fc8_plantvillage_fc8_plantvillage_0_split_1
I0403 14:52:38.264279 30528 net.cpp:399] fc8_plantvillage_fc8_plantvillage_0_split -> fc8_plantvillage_fc8_plantvillage_0_split_2
I0403 14:52:38.264365 30528 net.cpp:141] Setting up fc8_plantvillage_fc8_plantvillage_0_split
I0403 14:52:38.264389 30528 net.cpp:148] Top shape: 100 38 (3800)
I0403 14:52:38.264406 30528 net.cpp:148] Top shape: 100 38 (3800)
I0403 14:52:38.264421 30528 net.cpp:148] Top shape: 100 38 (3800)
I0403 14:52:38.264435 30528 net.cpp:156] Memory required for data: 831586800
I0403 14:52:38.264449 30528 layer_factory.hpp:77] Creating layer prob
I0403 14:52:38.264467 30528 net.cpp:91] Creating Layer prob
I0403 14:52:38.264483 30528 net.cpp:425] prob <- fc8_plantvillage_fc8_plantvillage_0_split_0
I0403 14:52:38.264503 30528 net.cpp:399] prob -> prob
I0403 14:52:38.264722 30528 net.cpp:141] Setting up prob
I0403 14:52:38.264753 30528 net.cpp:148] Top shape: 100 38 (3800)
I0403 14:52:38.264768 30528 net.cpp:156] Memory required for data: 831602000
I0403 14:52:38.264783 30528 layer_factory.hpp:77] Creating layer hdf5out
I0403 14:52:38.264802 30528 net.cpp:91] Creating Layer hdf5out
I0403 14:52:38.264822 30528 net.cpp:425] hdf5out <- prob
I0403 14:52:38.264838 30528 net.cpp:425] hdf5out <- label_data_1_split_0
I0403 14:52:38.283092 30528 net.cpp:141] Setting up hdf5out
…
