…
I0403 14:54:35.020609 30594 net.cpp:313] The NetState phase (1) differed from the phase (0) specified by a rule in layer data
I0403 14:54:35.020931 30594 net.cpp:49] Initializing net from parameters: 
state {
  phase: TEST
}
layer {
  name: "data"
  type: "Data"
  top: "data"
  top: "label"
  include {
    phase: TEST
  }
  transform_param {
    crop_size: 227
    mean_file: "/home/mohanty/data/final_dataset/lmdb/segmented-80-20/mean.binaryproto"
  }
  data_param {
    source: "/home/mohanty/data/final_dataset/lmdb/segmented-80-20/test_db"
    batch_size: 100
    backend: LMDB
  }
}
layer {
  name: "conv1"
  type: "Convolution"
  bottom: "data"
  top: "conv1"
  param {
    lr_mult: 1
    decay_mult: 1
  }
  param {
    lr_mult: 2
    decay_mult: 0
  }
  convolution_param {
    num_output: 96
    kernel_size: 11
    stride: 4
    weight_filler {
      type: "gaussian"
      std: 0.01
    }
    bias_filler {
      type: "constant"
      value: 0
    }
  }
}
layer {
  name: "relu1"
  type: "ReLU"
  bottom: "conv1"
  top: "conv1"
}
layer {
  name: "norm1"
  type: "LRN"
  bottom: "conv1"
  top: "norm1"
  lrn_param {
    local_size: 5
    alpha: 0.0001
    beta: 0.75
  }
}
layer {
  name: "pool1"
  type: "Pooling"
  bottom: "norm1"
  top: "pool1"
  pooling_param {
    pool: MAX
    kernel_size: 3
    stride: 2
  }
}
layer {
  name: "conv2"
  type: "Convolution"
  bottom: "pool1"
  top: "conv2"
  param {
    lr_mult: 1
    decay_mult: 1
  }
  param {
    lr_mult: 2
    decay_mult: 0
  }
  convolution_param {
    num_output: 256
    pad: 2
    kernel_size: 5
    group: 2
    weight_filler {
      type: "gaussian"
      std: 0.01
    }
    bias_filler {
      type: "constant"
      value: 0.1
    }
  }
}
layer {
  name: "relu2"
  type: "ReLU"
  bottom: "conv2"
  top: "conv2"
}
layer {
  name: "norm2"
  type: "LRN"
  bottom: "conv2"
  top: "norm2"
  lrn_param {
    local_size: 5
    alpha: 0.0001
    beta: 0.75
  }
}
layer {
  name: "pool2"
  type: "Pooling"
  bottom: "norm2"
  top: "pool2"
  pooling_param {
    pool: MAX
    kernel_size: 3
    stride: 2
  }
}
layer {
  name: "conv3"
  type: "Convolution"
  bottom: "pool2"
  top: "conv3"
  param {
    lr_mult: 1
    decay_mult: 1
  }
  param {
    lr_mult: 2
    decay_mult: 0
  }
  convolution_param {
    num_output: 384
    pad: 1
    kernel_size: 3
    weight_filler {
      type: "gaussian"
      std: 0.01
    }
    bias_filler {
      type: "constant"
      value: 0
    }
  }
}
layer {
  name: "relu3"
  type: "ReLU"
  bottom: "conv3"
  top: "conv3"
}
layer {
  name: "conv4"
  type: "Convolution"
  bottom: "conv3"
  top: "conv4"
  param {
    lr_mult: 1
    decay_mult: 1
  }
  param {
    lr_mult: 2
    decay_mult: 0
  }
  convolution_param {
    num_output: 384
    pad: 1
    kernel_size: 3
    group: 2
    weight_filler {
      type: "gaussian"
      std: 0.01
    }
    bias_filler {
      type: "constant"
      value: 0.1
    }
  }
}
layer {
  name: "relu4"
  type: "ReLU"
  bottom: "conv4"
  top: "conv4"
}
layer {
  name: "conv5"
  type: "Convolution"
  bottom: "conv4"
  top: "conv5"
  param {
    lr_mult: 1
    decay_mult: 1
  }
  param {
    lr_mult: 2
    decay_mult: 0
  }
  convolution_param {
    num_output: 256
    pad: 1
    kernel_size: 3
    group: 2
    weight_filler {
      type: "gaussian"
      std: 0.01
    }
    bias_filler {
      type: "constant"
      value: 0.1
    }
  }
}
layer {
  name: "relu5"
  type: "ReLU"
  bottom: "conv5"
  top: "conv5"
}
layer {
  name: "pool5"
  type: "Pooling"
  bottom: "conv5"
  top: "pool5"
  pooling_param {
    pool: MAX
    kernel_size: 3
    stride: 2
  }
}
layer {
  name: "fc6"
  type: "InnerProduct"
  bottom: "pool5"
  top: "fc6"
  param {
    lr_mult: 1
    decay_mult: 1
  }
  param {
    lr_mult: 2
    decay_mult: 0
  }
  inner_product_param {
    num_output: 4096
    weight_filler {
      type: "gaussian"
      std: 0.005
    }
    bias_filler {
      type: "constant"
      value: 0.1
    }
  }
}
layer {
  name: "relu6"
  type: "ReLU"
  bottom: "fc6"
  top: "fc6"
}
layer {
  name: "drop6"
  type: "Dropout"
  bottom: "fc6"
  top: "fc6"
  dropout_param {
    dropout_ratio: 0.5
  }
}
layer {
  name: "fc7"
  type: "InnerProduct"
  bottom: "fc6"
  top: "fc7"
  param {
    lr_mult: 1
    decay_mult: 1
  }
  param {
    lr_mult: 2
    decay_mult: 0
  }
  inner_product_param {
    num_output: 4096
    weight_filler {
      type: "gaussian"
      std: 0.005
    }
    bias_filler {
      type: "constant"
      value: 0.1
    }
  }
}
layer {
  name: "relu7"
  type: "ReLU"
  bottom: "fc7"
  top: "fc7"
}
layer {
  name: "drop7"
  type: "Dropout"
  bottom: "fc7"
  top: "fc7"
  dropout_param {
    dropout_ratio: 0.5
  }
}
layer {
  name: "fc8_plantvillage"
  type: "InnerProduct"
  bottom: "fc7"
  top: "fc8_plantvillage"
  param {
    lr_mult: 1
    decay_mult: 1
  }
  param {
    lr_mult: 2
    decay_mult: 0
  }
  inner_product_param {
    num_output: 38
    weight_filler {
      type: "gaussian"
      std: 0.01
    }
    bias_filler {
      type: "constant"
      value: 0
    }
  }
}
layer {
  name: "prob"
  type: "Softmax"
  bottom: "fc8_plantvillage"
  top: "prob"
  include {
    phase: TEST
  }
}
layer {
  name: "hdf5out"
  type: "HDF5Output"
  bottom: "prob"
  bottom: "label"
  include {
    phase: TEST
  }
  hdf5_output_param {
    file_name: "hdf5_dumps/iter_3915.h5"
  }
}
layer {
  name: "loss"
  type: "SoftmaxWithLoss"
  bottom: "fc8_plantvillage"
  bottom: "label"
  top: "loss"
}
layer {
  name: "accuracy"
  type: "Accuracy"
  bottom: "fc8_plantvillage"
  bottom: "label"
  top: "accuracy"
  include {
    phase: TEST
  }
}
I0403 14:54:35.021497 30594 layer_factory.hpp:77] Creating layer data
I0403 14:54:35.022161 30594 net.cpp:91] Creating Layer data
I0403 14:54:35.022194 30594 net.cpp:399] data -> data
I0403 14:54:35.022248 30594 net.cpp:399] data -> label
I0403 14:54:35.022294 30594 data_transformer.cpp:25] Loading mean file from: /home/mohanty/data/final_dataset/lmdb/segmented-80-20/mean.binaryproto
I0403 14:54:35.025171 30596 db_lmdb.cpp:38] Opened lmdb /home/mohanty/data/final_dataset/lmdb/segmented-80-20/test_db
I0403 14:54:35.036715 30594 data_layer.cpp:41] output data size: 100,3,227,227
I0403 14:54:35.172643 30594 net.cpp:141] Setting up data
I0403 14:54:35.172713 30594 net.cpp:148] Top shape: 100 3 227 227 (15458700)
I0403 14:54:35.172737 30594 net.cpp:148] Top shape: 100 (100)
I0403 14:54:35.172754 30594 net.cpp:156] Memory required for data: 61835200
I0403 14:54:35.172783 30594 layer_factory.hpp:77] Creating layer label_data_1_split
I0403 14:54:35.172811 30594 net.cpp:91] Creating Layer label_data_1_split
I0403 14:54:35.172832 30594 net.cpp:425] label_data_1_split <- label
I0403 14:54:35.172866 30594 net.cpp:399] label_data_1_split -> label_data_1_split_0
I0403 14:54:35.172894 30594 net.cpp:399] label_data_1_split -> label_data_1_split_1
I0403 14:54:35.172916 30594 net.cpp:399] label_data_1_split -> label_data_1_split_2
I0403 14:54:35.172982 30594 net.cpp:141] Setting up label_data_1_split
I0403 14:54:35.173007 30594 net.cpp:148] Top shape: 100 (100)
I0403 14:54:35.173025 30594 net.cpp:148] Top shape: 100 (100)
I0403 14:54:35.173043 30594 net.cpp:148] Top shape: 100 (100)
I0403 14:54:35.173058 30594 net.cpp:156] Memory required for data: 61836400
I0403 14:54:35.173074 30594 layer_factory.hpp:77] Creating layer conv1
I0403 14:54:35.173107 30594 net.cpp:91] Creating Layer conv1
I0403 14:54:35.173127 30594 net.cpp:425] conv1 <- data
I0403 14:54:35.173147 30594 net.cpp:399] conv1 -> conv1
I0403 14:54:35.321163 30594 net.cpp:141] Setting up conv1
I0403 14:54:35.321235 30594 net.cpp:148] Top shape: 100 96 55 55 (29040000)
I0403 14:54:35.321256 30594 net.cpp:156] Memory required for data: 177996400
I0403 14:54:35.321296 30594 layer_factory.hpp:77] Creating layer relu1
I0403 14:54:35.321326 30594 net.cpp:91] Creating Layer relu1
I0403 14:54:35.321346 30594 net.cpp:425] relu1 <- conv1
I0403 14:54:35.321367 30594 net.cpp:386] relu1 -> conv1 (in-place)
I0403 14:54:35.321636 30594 net.cpp:141] Setting up relu1
I0403 14:54:35.321666 30594 net.cpp:148] Top shape: 100 96 55 55 (29040000)
I0403 14:54:35.321717 30594 net.cpp:156] Memory required for data: 294156400
I0403 14:54:35.321734 30594 layer_factory.hpp:77] Creating layer norm1
I0403 14:54:35.321763 30594 net.cpp:91] Creating Layer norm1
I0403 14:54:35.321781 30594 net.cpp:425] norm1 <- conv1
I0403 14:54:35.321821 30594 net.cpp:399] norm1 -> norm1
I0403 14:54:35.322146 30594 net.cpp:141] Setting up norm1
I0403 14:54:35.322177 30594 net.cpp:148] Top shape: 100 96 55 55 (29040000)
I0403 14:54:35.322195 30594 net.cpp:156] Memory required for data: 410316400
I0403 14:54:35.322211 30594 layer_factory.hpp:77] Creating layer pool1
I0403 14:54:35.322237 30594 net.cpp:91] Creating Layer pool1
I0403 14:54:35.322255 30594 net.cpp:425] pool1 <- norm1
I0403 14:54:35.322274 30594 net.cpp:399] pool1 -> pool1
I0403 14:54:35.322350 30594 net.cpp:141] Setting up pool1
I0403 14:54:35.322376 30594 net.cpp:148] Top shape: 100 96 27 27 (6998400)
I0403 14:54:35.322392 30594 net.cpp:156] Memory required for data: 438310000
I0403 14:54:35.322409 30594 layer_factory.hpp:77] Creating layer conv2
I0403 14:54:35.322435 30594 net.cpp:91] Creating Layer conv2
I0403 14:54:35.322454 30594 net.cpp:425] conv2 <- pool1
I0403 14:54:35.322474 30594 net.cpp:399] conv2 -> conv2
I0403 14:54:35.338443 30594 net.cpp:141] Setting up conv2
I0403 14:54:35.338496 30594 net.cpp:148] Top shape: 100 256 27 27 (18662400)
I0403 14:54:35.338516 30594 net.cpp:156] Memory required for data: 512959600
I0403 14:54:35.338542 30594 layer_factory.hpp:77] Creating layer relu2
I0403 14:54:35.338565 30594 net.cpp:91] Creating Layer relu2
I0403 14:54:35.338583 30594 net.cpp:425] relu2 <- conv2
I0403 14:54:35.338603 30594 net.cpp:386] relu2 -> conv2 (in-place)
I0403 14:54:35.338928 30594 net.cpp:141] Setting up relu2
I0403 14:54:35.338958 30594 net.cpp:148] Top shape: 100 256 27 27 (18662400)
I0403 14:54:35.338976 30594 net.cpp:156] Memory required for data: 587609200
I0403 14:54:35.338994 30594 layer_factory.hpp:77] Creating layer norm2
I0403 14:54:35.339016 30594 net.cpp:91] Creating Layer norm2
I0403 14:54:35.339035 30594 net.cpp:425] norm2 <- conv2
I0403 14:54:35.339054 30594 net.cpp:399] norm2 -> norm2
I0403 14:54:35.339251 30594 net.cpp:141] Setting up norm2
I0403 14:54:35.339279 30594 net.cpp:148] Top shape: 100 256 27 27 (18662400)
I0403 14:54:35.339303 30594 net.cpp:156] Memory required for data: 662258800
I0403 14:54:35.339319 30594 layer_factory.hpp:77] Creating layer pool2
I0403 14:54:35.339339 30594 net.cpp:91] Creating Layer pool2
I0403 14:54:35.339357 30594 net.cpp:425] pool2 <- norm2
I0403 14:54:35.339376 30594 net.cpp:399] pool2 -> pool2
I0403 14:54:35.339433 30594 net.cpp:141] Setting up pool2
I0403 14:54:35.339459 30594 net.cpp:148] Top shape: 100 256 13 13 (4326400)
I0403 14:54:35.339476 30594 net.cpp:156] Memory required for data: 679564400
I0403 14:54:35.339493 30594 layer_factory.hpp:77] Creating layer conv3
I0403 14:54:35.339517 30594 net.cpp:91] Creating Layer conv3
I0403 14:54:35.339536 30594 net.cpp:425] conv3 <- pool2
I0403 14:54:35.339556 30594 net.cpp:399] conv3 -> conv3
I0403 14:54:35.380002 30594 net.cpp:141] Setting up conv3
I0403 14:54:35.380064 30594 net.cpp:148] Top shape: 100 384 13 13 (6489600)
I0403 14:54:35.380081 30594 net.cpp:156] Memory required for data: 705522800
I0403 14:54:35.380110 30594 layer_factory.hpp:77] Creating layer relu3
I0403 14:54:35.380133 30594 net.cpp:91] Creating Layer relu3
I0403 14:54:35.380151 30594 net.cpp:425] relu3 <- conv3
I0403 14:54:35.380170 30594 net.cpp:386] relu3 -> conv3 (in-place)
I0403 14:54:35.380472 30594 net.cpp:141] Setting up relu3
I0403 14:54:35.380501 30594 net.cpp:148] Top shape: 100 384 13 13 (6489600)
I0403 14:54:35.380518 30594 net.cpp:156] Memory required for data: 731481200
I0403 14:54:35.380533 30594 layer_factory.hpp:77] Creating layer conv4
I0403 14:54:35.380560 30594 net.cpp:91] Creating Layer conv4
I0403 14:54:35.380579 30594 net.cpp:425] conv4 <- conv3
I0403 14:54:35.380602 30594 net.cpp:399] conv4 -> conv4
I0403 14:54:35.412185 30594 net.cpp:141] Setting up conv4
I0403 14:54:35.412230 30594 net.cpp:148] Top shape: 100 384 13 13 (6489600)
I0403 14:54:35.412281 30594 net.cpp:156] Memory required for data: 757439600
I0403 14:54:35.412309 30594 layer_factory.hpp:77] Creating layer relu4
I0403 14:54:35.412338 30594 net.cpp:91] Creating Layer relu4
I0403 14:54:35.412358 30594 net.cpp:425] relu4 <- conv4
I0403 14:54:35.412379 30594 net.cpp:386] relu4 -> conv4 (in-place)
I0403 14:54:35.412667 30594 net.cpp:141] Setting up relu4
I0403 14:54:35.412696 30594 net.cpp:148] Top shape: 100 384 13 13 (6489600)
I0403 14:54:35.412714 30594 net.cpp:156] Memory required for data: 783398000
I0403 14:54:35.412729 30594 layer_factory.hpp:77] Creating layer conv5
I0403 14:54:35.412757 30594 net.cpp:91] Creating Layer conv5
I0403 14:54:35.412777 30594 net.cpp:425] conv5 <- conv4
I0403 14:54:35.412803 30594 net.cpp:399] conv5 -> conv5
I0403 14:54:35.435012 30594 net.cpp:141] Setting up conv5
I0403 14:54:35.435068 30594 net.cpp:148] Top shape: 100 256 13 13 (4326400)
I0403 14:54:35.435087 30594 net.cpp:156] Memory required for data: 800703600
I0403 14:54:35.435116 30594 layer_factory.hpp:77] Creating layer relu5
I0403 14:54:35.435142 30594 net.cpp:91] Creating Layer relu5
I0403 14:54:35.435160 30594 net.cpp:425] relu5 <- conv5
I0403 14:54:35.435180 30594 net.cpp:386] relu5 -> conv5 (in-place)
I0403 14:54:35.435478 30594 net.cpp:141] Setting up relu5
I0403 14:54:35.435508 30594 net.cpp:148] Top shape: 100 256 13 13 (4326400)
I0403 14:54:35.435525 30594 net.cpp:156] Memory required for data: 818009200
I0403 14:54:35.435541 30594 layer_factory.hpp:77] Creating layer pool5
I0403 14:54:35.435569 30594 net.cpp:91] Creating Layer pool5
I0403 14:54:35.435586 30594 net.cpp:425] pool5 <- conv5
I0403 14:54:35.435609 30594 net.cpp:399] pool5 -> pool5
I0403 14:54:35.435674 30594 net.cpp:141] Setting up pool5
I0403 14:54:35.435701 30594 net.cpp:148] Top shape: 100 256 6 6 (921600)
I0403 14:54:35.435717 30594 net.cpp:156] Memory required for data: 821695600
I0403 14:54:35.435734 30594 layer_factory.hpp:77] Creating layer fc6
I0403 14:54:35.435811 30594 net.cpp:91] Creating Layer fc6
I0403 14:54:35.435837 30594 net.cpp:425] fc6 <- pool5
I0403 14:54:35.435858 30594 net.cpp:399] fc6 -> fc6
I0403 14:54:36.987721 30594 net.cpp:141] Setting up fc6
I0403 14:54:36.987788 30594 net.cpp:148] Top shape: 100 4096 (409600)
I0403 14:54:36.987805 30594 net.cpp:156] Memory required for data: 823334000
I0403 14:54:36.987828 30594 layer_factory.hpp:77] Creating layer relu6
I0403 14:54:36.987849 30594 net.cpp:91] Creating Layer relu6
I0403 14:54:36.987866 30594 net.cpp:425] relu6 <- fc6
I0403 14:54:36.987889 30594 net.cpp:386] relu6 -> fc6 (in-place)
I0403 14:54:36.988121 30594 net.cpp:141] Setting up relu6
I0403 14:54:36.988147 30594 net.cpp:148] Top shape: 100 4096 (409600)
I0403 14:54:36.988162 30594 net.cpp:156] Memory required for data: 824972400
I0403 14:54:36.988178 30594 layer_factory.hpp:77] Creating layer drop6
I0403 14:54:36.988210 30594 net.cpp:91] Creating Layer drop6
I0403 14:54:36.988226 30594 net.cpp:425] drop6 <- fc6
I0403 14:54:36.988245 30594 net.cpp:386] drop6 -> fc6 (in-place)
I0403 14:54:36.988301 30594 net.cpp:141] Setting up drop6
I0403 14:54:36.988324 30594 net.cpp:148] Top shape: 100 4096 (409600)
I0403 14:54:36.988340 30594 net.cpp:156] Memory required for data: 826610800
I0403 14:54:36.988355 30594 layer_factory.hpp:77] Creating layer fc7
I0403 14:54:36.988375 30594 net.cpp:91] Creating Layer fc7
I0403 14:54:36.988392 30594 net.cpp:425] fc7 <- fc6
I0403 14:54:36.988415 30594 net.cpp:399] fc7 -> fc7
I0403 14:54:37.668747 30594 net.cpp:141] Setting up fc7
I0403 14:54:37.668812 30594 net.cpp:148] Top shape: 100 4096 (409600)
I0403 14:54:37.668830 30594 net.cpp:156] Memory required for data: 828249200
I0403 14:54:37.668851 30594 layer_factory.hpp:77] Creating layer relu7
I0403 14:54:37.668874 30594 net.cpp:91] Creating Layer relu7
I0403 14:54:37.668900 30594 net.cpp:425] relu7 <- fc7
I0403 14:54:37.668920 30594 net.cpp:386] relu7 -> fc7 (in-place)
I0403 14:54:37.669312 30594 net.cpp:141] Setting up relu7
I0403 14:54:37.669339 30594 net.cpp:148] Top shape: 100 4096 (409600)
I0403 14:54:37.669383 30594 net.cpp:156] Memory required for data: 829887600
I0403 14:54:37.669399 30594 layer_factory.hpp:77] Creating layer drop7
I0403 14:54:37.669421 30594 net.cpp:91] Creating Layer drop7
I0403 14:54:37.669440 30594 net.cpp:425] drop7 <- fc7
I0403 14:54:37.669457 30594 net.cpp:386] drop7 -> fc7 (in-place)
I0403 14:54:37.669502 30594 net.cpp:141] Setting up drop7
I0403 14:54:37.669524 30594 net.cpp:148] Top shape: 100 4096 (409600)
I0403 14:54:37.669539 30594 net.cpp:156] Memory required for data: 831526000
I0403 14:54:37.669554 30594 layer_factory.hpp:77] Creating layer fc8_plantvillage
I0403 14:54:37.669574 30594 net.cpp:91] Creating Layer fc8_plantvillage
I0403 14:54:37.669594 30594 net.cpp:425] fc8_plantvillage <- fc7
I0403 14:54:37.669612 30594 net.cpp:399] fc8_plantvillage -> fc8_plantvillage
I0403 14:54:37.676165 30594 net.cpp:141] Setting up fc8_plantvillage
I0403 14:54:37.676194 30594 net.cpp:148] Top shape: 100 38 (3800)
I0403 14:54:37.676210 30594 net.cpp:156] Memory required for data: 831541200
I0403 14:54:37.676229 30594 layer_factory.hpp:77] Creating layer fc8_plantvillage_fc8_plantvillage_0_split
I0403 14:54:37.676249 30594 net.cpp:91] Creating Layer fc8_plantvillage_fc8_plantvillage_0_split
I0403 14:54:37.676266 30594 net.cpp:425] fc8_plantvillage_fc8_plantvillage_0_split <- fc8_plantvillage
I0403 14:54:37.676293 30594 net.cpp:399] fc8_plantvillage_fc8_plantvillage_0_split -> fc8_plantvillage_fc8_plantvillage_0_split_0
I0403 14:54:37.676314 30594 net.cpp:399] fc8_plantvillage_fc8_plantvillage_0_split -> fc8_plantvillage_fc8_plantvillage_0_split_1
I0403 14:54:37.676338 30594 net.cpp:399] fc8_plantvillage_fc8_plantvillage_0_split -> fc8_plantvillage_fc8_plantvillage_0_split_2
I0403 14:54:37.676416 30594 net.cpp:141] Setting up fc8_plantvillage_fc8_plantvillage_0_split
I0403 14:54:37.676440 30594 net.cpp:148] Top shape: 100 38 (3800)
I0403 14:54:37.676456 30594 net.cpp:148] Top shape: 100 38 (3800)
I0403 14:54:37.676473 30594 net.cpp:148] Top shape: 100 38 (3800)
I0403 14:54:37.676487 30594 net.cpp:156] Memory required for data: 831586800
I0403 14:54:37.676502 30594 layer_factory.hpp:77] Creating layer prob
I0403 14:54:37.676523 30594 net.cpp:91] Creating Layer prob
I0403 14:54:37.676539 30594 net.cpp:425] prob <- fc8_plantvillage_fc8_plantvillage_0_split_0
I0403 14:54:37.676558 30594 net.cpp:399] prob -> prob
I0403 14:54:37.676779 30594 net.cpp:141] Setting up prob
I0403 14:54:37.676805 30594 net.cpp:148] Top shape: 100 38 (3800)
I0403 14:54:37.676820 30594 net.cpp:156] Memory required for data: 831602000
I0403 14:54:37.676836 30594 layer_factory.hpp:77] Creating layer hdf5out
I0403 14:54:37.676857 30594 net.cpp:91] Creating Layer hdf5out
I0403 14:54:37.676874 30594 net.cpp:425] hdf5out <- prob
I0403 14:54:37.676890 30594 net.cpp:425] hdf5out <- label_data_1_split_0
I0403 14:54:37.681022 30594 net.cpp:141] Setting up hdf5out
…
