…
I0403 14:56:59.555248 30660 net.cpp:313] The NetState phase (1) differed from the phase (0) specified by a rule in layer data
I0403 14:56:59.555603 30660 net.cpp:49] Initializing net from parameters: 
state {
  phase: TEST
}
layer {
  name: "data"
  type: "Data"
  top: "data"
  top: "label"
  include {
    phase: TEST
  }
  transform_param {
    crop_size: 227
    mean_file: "/home/mohanty/data/final_dataset/lmdb/segmented-80-20/mean.binaryproto"
  }
  data_param {
    source: "/home/mohanty/data/final_dataset/lmdb/segmented-80-20/test_db"
    batch_size: 100
    backend: LMDB
  }
}
layer {
  name: "conv1"
  type: "Convolution"
  bottom: "data"
  top: "conv1"
  param {
    lr_mult: 1
    decay_mult: 1
  }
  param {
    lr_mult: 2
    decay_mult: 0
  }
  convolution_param {
    num_output: 96
    kernel_size: 11
    stride: 4
    weight_filler {
      type: "gaussian"
      std: 0.01
    }
    bias_filler {
      type: "constant"
      value: 0
    }
  }
}
layer {
  name: "relu1"
  type: "ReLU"
  bottom: "conv1"
  top: "conv1"
}
layer {
  name: "norm1"
  type: "LRN"
  bottom: "conv1"
  top: "norm1"
  lrn_param {
    local_size: 5
    alpha: 0.0001
    beta: 0.75
  }
}
layer {
  name: "pool1"
  type: "Pooling"
  bottom: "norm1"
  top: "pool1"
  pooling_param {
    pool: MAX
    kernel_size: 3
    stride: 2
  }
}
layer {
  name: "conv2"
  type: "Convolution"
  bottom: "pool1"
  top: "conv2"
  param {
    lr_mult: 1
    decay_mult: 1
  }
  param {
    lr_mult: 2
    decay_mult: 0
  }
  convolution_param {
    num_output: 256
    pad: 2
    kernel_size: 5
    group: 2
    weight_filler {
      type: "gaussian"
      std: 0.01
    }
    bias_filler {
      type: "constant"
      value: 0.1
    }
  }
}
layer {
  name: "relu2"
  type: "ReLU"
  bottom: "conv2"
  top: "conv2"
}
layer {
  name: "norm2"
  type: "LRN"
  bottom: "conv2"
  top: "norm2"
  lrn_param {
    local_size: 5
    alpha: 0.0001
    beta: 0.75
  }
}
layer {
  name: "pool2"
  type: "Pooling"
  bottom: "norm2"
  top: "pool2"
  pooling_param {
    pool: MAX
    kernel_size: 3
    stride: 2
  }
}
layer {
  name: "conv3"
  type: "Convolution"
  bottom: "pool2"
  top: "conv3"
  param {
    lr_mult: 1
    decay_mult: 1
  }
  param {
    lr_mult: 2
    decay_mult: 0
  }
  convolution_param {
    num_output: 384
    pad: 1
    kernel_size: 3
    weight_filler {
      type: "gaussian"
      std: 0.01
    }
    bias_filler {
      type: "constant"
      value: 0
    }
  }
}
layer {
  name: "relu3"
  type: "ReLU"
  bottom: "conv3"
  top: "conv3"
}
layer {
  name: "conv4"
  type: "Convolution"
  bottom: "conv3"
  top: "conv4"
  param {
    lr_mult: 1
    decay_mult: 1
  }
  param {
    lr_mult: 2
    decay_mult: 0
  }
  convolution_param {
    num_output: 384
    pad: 1
    kernel_size: 3
    group: 2
    weight_filler {
      type: "gaussian"
      std: 0.01
    }
    bias_filler {
      type: "constant"
      value: 0.1
    }
  }
}
layer {
  name: "relu4"
  type: "ReLU"
  bottom: "conv4"
  top: "conv4"
}
layer {
  name: "conv5"
  type: "Convolution"
  bottom: "conv4"
  top: "conv5"
  param {
    lr_mult: 1
    decay_mult: 1
  }
  param {
    lr_mult: 2
    decay_mult: 0
  }
  convolution_param {
    num_output: 256
    pad: 1
    kernel_size: 3
    group: 2
    weight_filler {
      type: "gaussian"
      std: 0.01
    }
    bias_filler {
      type: "constant"
      value: 0.1
    }
  }
}
layer {
  name: "relu5"
  type: "ReLU"
  bottom: "conv5"
  top: "conv5"
}
layer {
  name: "pool5"
  type: "Pooling"
  bottom: "conv5"
  top: "pool5"
  pooling_param {
    pool: MAX
    kernel_size: 3
    stride: 2
  }
}
layer {
  name: "fc6"
  type: "InnerProduct"
  bottom: "pool5"
  top: "fc6"
  param {
    lr_mult: 1
    decay_mult: 1
  }
  param {
    lr_mult: 2
    decay_mult: 0
  }
  inner_product_param {
    num_output: 4096
    weight_filler {
      type: "gaussian"
      std: 0.005
    }
    bias_filler {
      type: "constant"
      value: 0.1
    }
  }
}
layer {
  name: "relu6"
  type: "ReLU"
  bottom: "fc6"
  top: "fc6"
}
layer {
  name: "drop6"
  type: "Dropout"
  bottom: "fc6"
  top: "fc6"
  dropout_param {
    dropout_ratio: 0.5
  }
}
layer {
  name: "fc7"
  type: "InnerProduct"
  bottom: "fc6"
  top: "fc7"
  param {
    lr_mult: 1
    decay_mult: 1
  }
  param {
    lr_mult: 2
    decay_mult: 0
  }
  inner_product_param {
    num_output: 4096
    weight_filler {
      type: "gaussian"
      std: 0.005
    }
    bias_filler {
      type: "constant"
      value: 0.1
    }
  }
}
layer {
  name: "relu7"
  type: "ReLU"
  bottom: "fc7"
  top: "fc7"
}
layer {
  name: "drop7"
  type: "Dropout"
  bottom: "fc7"
  top: "fc7"
  dropout_param {
    dropout_ratio: 0.5
  }
}
layer {
  name: "fc8_plantvillage"
  type: "InnerProduct"
  bottom: "fc7"
  top: "fc8_plantvillage"
  param {
    lr_mult: 1
    decay_mult: 1
  }
  param {
    lr_mult: 2
    decay_mult: 0
  }
  inner_product_param {
    num_output: 38
    weight_filler {
      type: "gaussian"
      std: 0.01
    }
    bias_filler {
      type: "constant"
      value: 0
    }
  }
}
layer {
  name: "prob"
  type: "Softmax"
  bottom: "fc8_plantvillage"
  top: "prob"
  include {
    phase: TEST
  }
}
layer {
  name: "hdf5out"
  type: "HDF5Output"
  bottom: "prob"
  bottom: "label"
  include {
    phase: TEST
  }
  hdf5_output_param {
    file_name: "hdf5_dumps/iter_6525.h5"
  }
}
layer {
  name: "loss"
  type: "SoftmaxWithLoss"
  bottom: "fc8_plantvillage"
  bottom: "label"
  top: "loss"
}
layer {
  name: "accuracy"
  type: "Accuracy"
  bottom: "fc8_plantvillage"
  bottom: "label"
  top: "accuracy"
  include {
    phase: TEST
  }
}
I0403 14:56:59.556236 30660 layer_factory.hpp:77] Creating layer data
I0403 14:56:59.556905 30660 net.cpp:91] Creating Layer data
I0403 14:56:59.556939 30660 net.cpp:399] data -> data
I0403 14:56:59.556993 30660 net.cpp:399] data -> label
I0403 14:56:59.557030 30660 data_transformer.cpp:25] Loading mean file from: /home/mohanty/data/final_dataset/lmdb/segmented-80-20/mean.binaryproto
I0403 14:56:59.559852 30662 db_lmdb.cpp:38] Opened lmdb /home/mohanty/data/final_dataset/lmdb/segmented-80-20/test_db
I0403 14:56:59.571665 30660 data_layer.cpp:41] output data size: 100,3,227,227
I0403 14:56:59.706054 30660 net.cpp:141] Setting up data
I0403 14:56:59.706116 30660 net.cpp:148] Top shape: 100 3 227 227 (15458700)
I0403 14:56:59.706140 30660 net.cpp:148] Top shape: 100 (100)
I0403 14:56:59.706156 30660 net.cpp:156] Memory required for data: 61835200
I0403 14:56:59.706183 30660 layer_factory.hpp:77] Creating layer label_data_1_split
I0403 14:56:59.706209 30660 net.cpp:91] Creating Layer label_data_1_split
I0403 14:56:59.706228 30660 net.cpp:425] label_data_1_split <- label
I0403 14:56:59.706264 30660 net.cpp:399] label_data_1_split -> label_data_1_split_0
I0403 14:56:59.706292 30660 net.cpp:399] label_data_1_split -> label_data_1_split_1
I0403 14:56:59.706313 30660 net.cpp:399] label_data_1_split -> label_data_1_split_2
I0403 14:56:59.706377 30660 net.cpp:141] Setting up label_data_1_split
I0403 14:56:59.706400 30660 net.cpp:148] Top shape: 100 (100)
I0403 14:56:59.706418 30660 net.cpp:148] Top shape: 100 (100)
I0403 14:56:59.706434 30660 net.cpp:148] Top shape: 100 (100)
I0403 14:56:59.706449 30660 net.cpp:156] Memory required for data: 61836400
I0403 14:56:59.706465 30660 layer_factory.hpp:77] Creating layer conv1
I0403 14:56:59.706496 30660 net.cpp:91] Creating Layer conv1
I0403 14:56:59.706516 30660 net.cpp:425] conv1 <- data
I0403 14:56:59.706537 30660 net.cpp:399] conv1 -> conv1
I0403 14:56:59.850898 30660 net.cpp:141] Setting up conv1
I0403 14:56:59.850940 30660 net.cpp:148] Top shape: 100 96 55 55 (29040000)
I0403 14:56:59.850958 30660 net.cpp:156] Memory required for data: 177996400
I0403 14:56:59.850989 30660 layer_factory.hpp:77] Creating layer relu1
I0403 14:56:59.851018 30660 net.cpp:91] Creating Layer relu1
I0403 14:56:59.851037 30660 net.cpp:425] relu1 <- conv1
I0403 14:56:59.851057 30660 net.cpp:386] relu1 -> conv1 (in-place)
I0403 14:56:59.851341 30660 net.cpp:141] Setting up relu1
I0403 14:56:59.851372 30660 net.cpp:148] Top shape: 100 96 55 55 (29040000)
I0403 14:56:59.851439 30660 net.cpp:156] Memory required for data: 294156400
I0403 14:56:59.851457 30660 layer_factory.hpp:77] Creating layer norm1
I0403 14:56:59.851485 30660 net.cpp:91] Creating Layer norm1
I0403 14:56:59.851505 30660 net.cpp:425] norm1 <- conv1
I0403 14:56:59.851526 30660 net.cpp:399] norm1 -> norm1
I0403 14:56:59.851856 30660 net.cpp:141] Setting up norm1
I0403 14:56:59.851886 30660 net.cpp:148] Top shape: 100 96 55 55 (29040000)
I0403 14:56:59.851902 30660 net.cpp:156] Memory required for data: 410316400
I0403 14:56:59.851917 30660 layer_factory.hpp:77] Creating layer pool1
I0403 14:56:59.851941 30660 net.cpp:91] Creating Layer pool1
I0403 14:56:59.851958 30660 net.cpp:425] pool1 <- norm1
I0403 14:56:59.851981 30660 net.cpp:399] pool1 -> pool1
I0403 14:56:59.852052 30660 net.cpp:141] Setting up pool1
I0403 14:56:59.852077 30660 net.cpp:148] Top shape: 100 96 27 27 (6998400)
I0403 14:56:59.852093 30660 net.cpp:156] Memory required for data: 438310000
I0403 14:56:59.852108 30660 layer_factory.hpp:77] Creating layer conv2
I0403 14:56:59.852138 30660 net.cpp:91] Creating Layer conv2
I0403 14:56:59.852156 30660 net.cpp:425] conv2 <- pool1
I0403 14:56:59.852176 30660 net.cpp:399] conv2 -> conv2
I0403 14:56:59.867116 30660 net.cpp:141] Setting up conv2
I0403 14:56:59.867158 30660 net.cpp:148] Top shape: 100 256 27 27 (18662400)
I0403 14:56:59.867175 30660 net.cpp:156] Memory required for data: 512959600
I0403 14:56:59.867198 30660 layer_factory.hpp:77] Creating layer relu2
I0403 14:56:59.867219 30660 net.cpp:91] Creating Layer relu2
I0403 14:56:59.867239 30660 net.cpp:425] relu2 <- conv2
I0403 14:56:59.867261 30660 net.cpp:386] relu2 -> conv2 (in-place)
I0403 14:56:59.867538 30660 net.cpp:141] Setting up relu2
I0403 14:56:59.867566 30660 net.cpp:148] Top shape: 100 256 27 27 (18662400)
I0403 14:56:59.867581 30660 net.cpp:156] Memory required for data: 587609200
I0403 14:56:59.867595 30660 layer_factory.hpp:77] Creating layer norm2
I0403 14:56:59.867653 30660 net.cpp:91] Creating Layer norm2
I0403 14:56:59.867674 30660 net.cpp:425] norm2 <- conv2
I0403 14:56:59.867693 30660 net.cpp:399] norm2 -> norm2
I0403 14:56:59.867893 30660 net.cpp:141] Setting up norm2
I0403 14:56:59.867918 30660 net.cpp:148] Top shape: 100 256 27 27 (18662400)
I0403 14:56:59.867933 30660 net.cpp:156] Memory required for data: 662258800
I0403 14:56:59.867947 30660 layer_factory.hpp:77] Creating layer pool2
I0403 14:56:59.867965 30660 net.cpp:91] Creating Layer pool2
I0403 14:56:59.867981 30660 net.cpp:425] pool2 <- norm2
I0403 14:56:59.868001 30660 net.cpp:399] pool2 -> pool2
I0403 14:56:59.868053 30660 net.cpp:141] Setting up pool2
I0403 14:56:59.868079 30660 net.cpp:148] Top shape: 100 256 13 13 (4326400)
I0403 14:56:59.868095 30660 net.cpp:156] Memory required for data: 679564400
I0403 14:56:59.868109 30660 layer_factory.hpp:77] Creating layer conv3
I0403 14:56:59.868134 30660 net.cpp:91] Creating Layer conv3
I0403 14:56:59.868151 30660 net.cpp:425] conv3 <- pool2
I0403 14:56:59.868170 30660 net.cpp:399] conv3 -> conv3
I0403 14:56:59.905818 30660 net.cpp:141] Setting up conv3
I0403 14:56:59.905869 30660 net.cpp:148] Top shape: 100 384 13 13 (6489600)
I0403 14:56:59.905886 30660 net.cpp:156] Memory required for data: 705522800
I0403 14:56:59.905928 30660 layer_factory.hpp:77] Creating layer relu3
I0403 14:56:59.905953 30660 net.cpp:91] Creating Layer relu3
I0403 14:56:59.905972 30660 net.cpp:425] relu3 <- conv3
I0403 14:56:59.905993 30660 net.cpp:386] relu3 -> conv3 (in-place)
I0403 14:56:59.906273 30660 net.cpp:141] Setting up relu3
I0403 14:56:59.906302 30660 net.cpp:148] Top shape: 100 384 13 13 (6489600)
I0403 14:56:59.906318 30660 net.cpp:156] Memory required for data: 731481200
I0403 14:56:59.906334 30660 layer_factory.hpp:77] Creating layer conv4
I0403 14:56:59.906359 30660 net.cpp:91] Creating Layer conv4
I0403 14:56:59.906378 30660 net.cpp:425] conv4 <- conv3
I0403 14:56:59.906400 30660 net.cpp:399] conv4 -> conv4
I0403 14:56:59.936745 30660 net.cpp:141] Setting up conv4
I0403 14:56:59.936820 30660 net.cpp:148] Top shape: 100 384 13 13 (6489600)
I0403 14:56:59.936869 30660 net.cpp:156] Memory required for data: 757439600
I0403 14:56:59.936892 30660 layer_factory.hpp:77] Creating layer relu4
I0403 14:56:59.936915 30660 net.cpp:91] Creating Layer relu4
I0403 14:56:59.936933 30660 net.cpp:425] relu4 <- conv4
I0403 14:56:59.936955 30660 net.cpp:386] relu4 -> conv4 (in-place)
I0403 14:56:59.937307 30660 net.cpp:141] Setting up relu4
I0403 14:56:59.937336 30660 net.cpp:148] Top shape: 100 384 13 13 (6489600)
I0403 14:56:59.937353 30660 net.cpp:156] Memory required for data: 783398000
I0403 14:56:59.937371 30660 layer_factory.hpp:77] Creating layer conv5
I0403 14:56:59.937399 30660 net.cpp:91] Creating Layer conv5
I0403 14:56:59.937418 30660 net.cpp:425] conv5 <- conv4
I0403 14:56:59.937440 30660 net.cpp:399] conv5 -> conv5
I0403 14:56:59.958042 30660 net.cpp:141] Setting up conv5
I0403 14:56:59.958092 30660 net.cpp:148] Top shape: 100 256 13 13 (4326400)
I0403 14:56:59.958111 30660 net.cpp:156] Memory required for data: 800703600
I0403 14:56:59.958137 30660 layer_factory.hpp:77] Creating layer relu5
I0403 14:56:59.958156 30660 net.cpp:91] Creating Layer relu5
I0403 14:56:59.958173 30660 net.cpp:425] relu5 <- conv5
I0403 14:56:59.958192 30660 net.cpp:386] relu5 -> conv5 (in-place)
I0403 14:56:59.958483 30660 net.cpp:141] Setting up relu5
I0403 14:56:59.958518 30660 net.cpp:148] Top shape: 100 256 13 13 (4326400)
I0403 14:56:59.958534 30660 net.cpp:156] Memory required for data: 818009200
I0403 14:56:59.958549 30660 layer_factory.hpp:77] Creating layer pool5
I0403 14:56:59.958573 30660 net.cpp:91] Creating Layer pool5
I0403 14:56:59.958590 30660 net.cpp:425] pool5 <- conv5
I0403 14:56:59.958609 30660 net.cpp:399] pool5 -> pool5
I0403 14:56:59.958668 30660 net.cpp:141] Setting up pool5
I0403 14:56:59.958747 30660 net.cpp:148] Top shape: 100 256 6 6 (921600)
I0403 14:56:59.958767 30660 net.cpp:156] Memory required for data: 821695600
I0403 14:56:59.958784 30660 layer_factory.hpp:77] Creating layer fc6
I0403 14:56:59.958820 30660 net.cpp:91] Creating Layer fc6
I0403 14:56:59.958839 30660 net.cpp:425] fc6 <- pool5
I0403 14:56:59.958860 30660 net.cpp:399] fc6 -> fc6
I0403 14:57:01.505520 30660 net.cpp:141] Setting up fc6
I0403 14:57:01.505568 30660 net.cpp:148] Top shape: 100 4096 (409600)
I0403 14:57:01.505585 30660 net.cpp:156] Memory required for data: 823334000
I0403 14:57:01.505607 30660 layer_factory.hpp:77] Creating layer relu6
I0403 14:57:01.505630 30660 net.cpp:91] Creating Layer relu6
I0403 14:57:01.505647 30660 net.cpp:425] relu6 <- fc6
I0403 14:57:01.505667 30660 net.cpp:386] relu6 -> fc6 (in-place)
I0403 14:57:01.505882 30660 net.cpp:141] Setting up relu6
I0403 14:57:01.505906 30660 net.cpp:148] Top shape: 100 4096 (409600)
I0403 14:57:01.505923 30660 net.cpp:156] Memory required for data: 824972400
I0403 14:57:01.505939 30660 layer_factory.hpp:77] Creating layer drop6
I0403 14:57:01.505956 30660 net.cpp:91] Creating Layer drop6
I0403 14:57:01.505972 30660 net.cpp:425] drop6 <- fc6
I0403 14:57:01.505991 30660 net.cpp:386] drop6 -> fc6 (in-place)
I0403 14:57:01.506042 30660 net.cpp:141] Setting up drop6
I0403 14:57:01.506070 30660 net.cpp:148] Top shape: 100 4096 (409600)
I0403 14:57:01.506088 30660 net.cpp:156] Memory required for data: 826610800
I0403 14:57:01.506103 30660 layer_factory.hpp:77] Creating layer fc7
I0403 14:57:01.506122 30660 net.cpp:91] Creating Layer fc7
I0403 14:57:01.506139 30660 net.cpp:425] fc7 <- fc6
I0403 14:57:01.506160 30660 net.cpp:399] fc7 -> fc7
I0403 14:57:02.186882 30660 net.cpp:141] Setting up fc7
I0403 14:57:02.186933 30660 net.cpp:148] Top shape: 100 4096 (409600)
I0403 14:57:02.186954 30660 net.cpp:156] Memory required for data: 828249200
I0403 14:57:02.186975 30660 layer_factory.hpp:77] Creating layer relu7
I0403 14:57:02.186996 30660 net.cpp:91] Creating Layer relu7
I0403 14:57:02.187013 30660 net.cpp:425] relu7 <- fc7
I0403 14:57:02.187036 30660 net.cpp:386] relu7 -> fc7 (in-place)
I0403 14:57:02.187427 30660 net.cpp:141] Setting up relu7
I0403 14:57:02.187453 30660 net.cpp:148] Top shape: 100 4096 (409600)
I0403 14:57:02.187500 30660 net.cpp:156] Memory required for data: 829887600
I0403 14:57:02.187516 30660 layer_factory.hpp:77] Creating layer drop7
I0403 14:57:02.187536 30660 net.cpp:91] Creating Layer drop7
I0403 14:57:02.187551 30660 net.cpp:425] drop7 <- fc7
I0403 14:57:02.187571 30660 net.cpp:386] drop7 -> fc7 (in-place)
I0403 14:57:02.187613 30660 net.cpp:141] Setting up drop7
I0403 14:57:02.187636 30660 net.cpp:148] Top shape: 100 4096 (409600)
I0403 14:57:02.187652 30660 net.cpp:156] Memory required for data: 831526000
I0403 14:57:02.187669 30660 layer_factory.hpp:77] Creating layer fc8_plantvillage
I0403 14:57:02.187687 30660 net.cpp:91] Creating Layer fc8_plantvillage
I0403 14:57:02.187702 30660 net.cpp:425] fc8_plantvillage <- fc7
I0403 14:57:02.187722 30660 net.cpp:399] fc8_plantvillage -> fc8_plantvillage
I0403 14:57:02.194391 30660 net.cpp:141] Setting up fc8_plantvillage
I0403 14:57:02.194421 30660 net.cpp:148] Top shape: 100 38 (3800)
I0403 14:57:02.194437 30660 net.cpp:156] Memory required for data: 831541200
I0403 14:57:02.194453 30660 layer_factory.hpp:77] Creating layer fc8_plantvillage_fc8_plantvillage_0_split
I0403 14:57:02.194473 30660 net.cpp:91] Creating Layer fc8_plantvillage_fc8_plantvillage_0_split
I0403 14:57:02.194490 30660 net.cpp:425] fc8_plantvillage_fc8_plantvillage_0_split <- fc8_plantvillage
I0403 14:57:02.194509 30660 net.cpp:399] fc8_plantvillage_fc8_plantvillage_0_split -> fc8_plantvillage_fc8_plantvillage_0_split_0
I0403 14:57:02.194527 30660 net.cpp:399] fc8_plantvillage_fc8_plantvillage_0_split -> fc8_plantvillage_fc8_plantvillage_0_split_1
I0403 14:57:02.194546 30660 net.cpp:399] fc8_plantvillage_fc8_plantvillage_0_split -> fc8_plantvillage_fc8_plantvillage_0_split_2
I0403 14:57:02.194622 30660 net.cpp:141] Setting up fc8_plantvillage_fc8_plantvillage_0_split
I0403 14:57:02.194646 30660 net.cpp:148] Top shape: 100 38 (3800)
I0403 14:57:02.194663 30660 net.cpp:148] Top shape: 100 38 (3800)
I0403 14:57:02.194679 30660 net.cpp:148] Top shape: 100 38 (3800)
I0403 14:57:02.194692 30660 net.cpp:156] Memory required for data: 831586800
I0403 14:57:02.194707 30660 layer_factory.hpp:77] Creating layer prob
I0403 14:57:02.194725 30660 net.cpp:91] Creating Layer prob
I0403 14:57:02.194741 30660 net.cpp:425] prob <- fc8_plantvillage_fc8_plantvillage_0_split_0
I0403 14:57:02.194759 30660 net.cpp:399] prob -> prob
I0403 14:57:02.194979 30660 net.cpp:141] Setting up prob
I0403 14:57:02.195004 30660 net.cpp:148] Top shape: 100 38 (3800)
I0403 14:57:02.195019 30660 net.cpp:156] Memory required for data: 831602000
I0403 14:57:02.195034 30660 layer_factory.hpp:77] Creating layer hdf5out
I0403 14:57:02.195053 30660 net.cpp:91] Creating Layer hdf5out
I0403 14:57:02.195070 30660 net.cpp:425] hdf5out <- prob
I0403 14:57:02.195086 30660 net.cpp:425] hdf5out <- label_data_1_split_0
I0403 14:57:02.214776 30660 net.cpp:141] Setting up hdf5out
…
