…
I0403 11:41:36.781126  6498 net.cpp:313] The NetState phase (0) differed from the phase (1) specified by a rule in layer loss3/top-5
I0403 11:41:36.785737  6498 net.cpp:49] Initializing net from parameters: 
state {
  phase: TRAIN
}
layer {
  name: "data"
  type: "Data"
  top: "data"
  top: "label"
  include {
    phase: TRAIN
  }
  transform_param {
    mirror: true
    crop_size: 224
    mean_file: "/home/mohanty/data/final_dataset/lmdb/grayscale-50-50/mean.binaryproto"
  }
  data_param {
    source: "/home/mohanty/data/final_dataset/lmdb/grayscale-50-50/train_db"
    batch_size: 24
    backend: LMDB
  }
}
layer {
  name: "conv1/7x7_s2"
  type: "Convolution"
  bottom: "data"
  top: "conv1/7x7_s2"
  param {
    lr_mult: 1
    decay_mult: 1
  }
  param {
    lr_mult: 2
    decay_mult: 0
  }
  convolution_param {
    num_output: 64
    pad: 3
    kernel_size: 7
    stride: 2
    weight_filler {
      type: "xavier"
      std: 0.1
    }
    bias_filler {
      type: "constant"
      value: 0.2
    }
  }
}
layer {
  name: "conv1/relu_7x7"
  type: "ReLU"
  bottom: "conv1/7x7_s2"
  top: "conv1/7x7_s2"
}
layer {
  name: "pool1/3x3_s2"
  type: "Pooling"
  bottom: "conv1/7x7_s2"
  top: "pool1/3x3_s2"
  pooling_param {
    pool: MAX
    kernel_size: 3
    stride: 2
  }
}
layer {
  name: "pool1/norm1"
  type: "LRN"
  bottom: "pool1/3x3_s2"
  top: "pool1/norm1"
  lrn_param {
    local_size: 5
    alpha: 0.0001
    beta: 0.75
  }
}
layer {
  name: "conv2/3x3_reduce"
  type: "Convolution"
  bottom: "pool1/norm1"
  top: "conv2/3x3_reduce"
  param {
    lr_mult: 1
    decay_mult: 1
  }
  param {
    lr_mult: 2
    decay_mult: 0
  }
  convolution_param {
    num_output: 64
    kernel_size: 1
    weight_filler {
      type: "xavier"
      std: 0.1
    }
    bias_filler {
      type: "constant"
      value: 0.2
    }
  }
}
layer {
  name: "conv2/relu_3x3_reduce"
  type: "ReLU"
  bottom: "conv2/3x3_reduce"
  top: "conv2/3x3_reduce"
}
layer {
  name: "conv2/3x3"
  type: "Convolution"
  bottom: "conv2/3x3_reduce"
  top: "conv2/3x3"
  param {
    lr_mult: 1
    decay_mult: 1
  }
  param {
    lr_mult: 2
    decay_mult: 0
  }
  convolution_param {
    num_output: 192
    pad: 1
    kernel_size: 3
    weight_filler {
      type: "xavier"
      std: 0.03
    }
    bias_filler {
      type: "constant"
      value: 0.2
    }
  }
}
layer {
  name: "conv2/relu_3x3"
  type: "ReLU"
  bottom: "conv2/3x3"
  top: "conv2/3x3"
}
layer {
  name: "conv2/norm2"
  type: "LRN"
  bottom: "conv2/3x3"
  top: "conv2/norm2"
  lrn_param {
    local_size: 5
    alpha: 0.0001
    beta: 0.75
  }
}
layer {
  name: "pool2/3x3_s2"
  type: "Pooling"
  bottom: "conv2/norm2"
  top: "pool2/3x3_s2"
  pooling_param {
    pool: MAX
    kernel_size: 3
    stride: 2
  }
}
layer {
  name: "inception_3a/1x1"
  type: "Convolution"
  bottom: "pool2/3x3_s2"
  top: "inception_3a/1x1"
  param {
    lr_mult: 1
    decay_mult: 1
  }
  param {
    lr_mult: 2
    decay_mult: 0
  }
  convolution_param {
    num_output: 64
    kernel_size: 1
    weight_filler {
      type: "xavier"
      std: 0.03
    }
    bias_filler {
      type: "constant"
      value: 0.2
    }
  }
}
layer {
  name: "inception_3a/relu_1x1"
  type: "ReLU"
  bottom: "inception_3a/1x1"
  top: "inception_3a/1x1"
}
layer {
  name: "inception_3a/3x3_reduce"
  type: "Convolution"
  bottom: "pool2/3x3_s2"
  top: "inception_3a/3x3_reduce"
  param {
    lr_mult: 1
    decay_mult: 1
  }
  param {
    lr_mult: 2
    decay_mult: 0
  }
  convolution_param {
    num_output: 96
    kernel_size: 1
    weight_filler {
      type: "xavier"
      std: 0.09
    }
    bias_filler {
      type: "constant"
      value: 0.2
    }
  }
}
layer {
  name: "inception_3a/relu_3x3_reduce"
  type: "ReLU"
  bottom: "inception_3a/3x3_reduce"
  top: "inception_3a/3x3_reduce"
}
layer {
  name: "inception_3a/3x3"
  type: "Convolution"
  bottom: "inception_3a/3x3_reduce"
  top: "inception_3a/3x3"
  param {
    lr_mult: 1
    decay_mult: 1
  }
  param {
    lr_mult: 2
    decay_mult: 0
  }
  convolution_param {
    num_output: 128
    pad: 1
    kernel_size: 3
    weight_filler {
      type: "xavier"
      std: 0.03
    }
    bias_filler {
      type: "constant"
      value: 0.2
    }
  }
}
layer {
  name: "inception_3a/relu_3x3"
  type: "ReLU"
  bottom: "inception_3a/3x3"
  top: "inception_3a/3x3"
}
layer {
  name: "inception_3a/5x5_reduce"
  type: "Convolution"
  bottom: "pool2/3x3_s2"
  top: "inception_3a/5x5_reduce"
  param {
    lr_mult: 1
    decay_mult: 1
  }
  param {
    lr_mult: 2
    decay_mult: 0
  }
  convolution_param {
    num_output: 16
    kernel_size: 1
    weight_filler {
      type: "xavier"
      std: 0.2
    }
    bias_filler {
      type: "constant"
      value: 0.2
    }
  }
}
layer {
  name: "inception_3a/relu_5x5_reduce"
  type: "ReLU"
  bottom: "inception_3a/5x5_reduce"
  top: "inception_3a/5x5_reduce"
}
layer {
  name: "inception_3a/5x5"
  type: "Convolution"
  bottom: "inception_3a/5x5_reduce"
  top: "inception_3a/5x5"
  param {
    lr_mult: 1
    decay_mult: 1
  }
  param {
    lr_mult: 2
    decay_mult: 0
  }
  convolution_param {
    num_output: 32
    pad: 2
    kernel_size: 5
    weight_filler {
      type: "xavier"
      std: 0.03
    }
    bias_filler {
      type: "constant"
      value: 0.2
    }
  }
}
layer {
  name: "inception_3a/relu_5x5"
  type: "ReLU"
  bottom: "inception_3a/5x5"
  top: "inception_3a/5x5"
}
layer {
  name: "inception_3a/pool"
  type: "Pooling"
  bottom: "pool2/3x3_s2"
  top: "inception_3a/pool"
  pooling_param {
    pool: MAX
    kernel_size: 3
    stride: 1
    pad: 1
  }
}
layer {
  name: "inception_3a/pool_proj"
  type: "Convolution"
  bottom: "inception_3a/pool"
  top: "inception_3a/pool_proj"
  param {
    lr_mult: 1
    decay_mult: 1
  }
  param {
    lr_mult: 2
    decay_mult: 0
  }
  convolution_param {
    num_output: 32
    kernel_size: 1
    weight_filler {
      type: "xavier"
      std: 0.1
    }
    bias_filler {
      type: "constant"
      value: 0.2
    }
  }
}
layer {
  name: "inception_3a/relu_pool_proj"
  type: "ReLU"
  bottom: "inception_3a/pool_proj"
  top: "inception_3a/pool_proj"
}
layer {
  name: "inception_3a/output"
  type: "Concat"
  bottom: "inception_3a/1x1"
  bottom: "inception_3a/3x3"
  bottom: "inception_3a/5x5"
  bottom: "inception_3a/pool_proj"
  top: "inception_3a/output"
}
layer {
  name: "inception_3b/1x1"
  type: "Convolution"
  bottom: "inception_3a/output"
  top: "inception_3b/1x1"
  param {
    lr_mult: 1
    decay_mult: 1
  }
  param {
    lr_mult: 2
    decay_mult: 0
  }
  convolution_param {
    num_output: 128
    kernel_size: 1
    weight_filler {
      type: "xavier"
      std: 0.03
    }
    bias_filler {
      type: "constant"
      value: 0.2
    }
  }
}
layer {
  name: "inception_3b/relu_1x1"
  type: "ReLU"
  bottom: "inception_3b/1x1"
  top: "inception_3b/1x1"
}
layer {
  name: "inception_3b/3x3_reduce"
  type: "Convolution"
  bottom: "inception_3a/output"
  top: "inception_3b/3x3_reduce"
  param {
    lr_mult: 1
    decay_mult: 1
  }
  param {
    lr_mult: 2
    decay_mult: 0
  }
  convolution_param {
    num_output: 128
    kernel_size: 1
    weight_filler {
      type: "xavier"
      std: 0.09
    }
    bias_filler {
      type: "constant"
      value: 0.2
    }
  }
}
layer {
  name: "inception_3b/relu_3x3_reduce"
  type: "ReLU"
  bottom: "inception_3b/3x3_reduce"
  top: "inception_3b/3x3_reduce"
}
layer {
  name: "inception_3b/3x3"
  type: "Convolution"
  bottom: "inception_3b/3x3_reduce"
  top: "inception_3b/3x3"
  param {
    lr_mult: 1
    decay_mult: 1
  }
  param {
    lr_mult: 2
    decay_mult: 0
  }
  convolution_param {
    num_output: 192
    pad: 1
    kernel_size: 3
    weight_filler {
      type: "xavier"
      std: 0.03
    }
    bias_filler {
      type: "constant"
      value: 0.2
    }
  }
}
layer {
  name: "inception_3b/relu_3x3"
  type: "ReLU"
  bottom: "inception_3b/3x3"
  top: "inception_3b/3x3"
}
layer {
  name: "inception_3b/5x5_reduce"
  type: "Convolution"
  bottom: "inception_3a/output"
  top: "inception_3b/5x5_reduce"
  param {
    lr_mult: 1
    decay_mult: 1
  }
  param {
    lr_mult: 2
    decay_mult: 0
  }
  convolution_param {
    num_output: 32
    kernel_size: 1
    weight_filler {
      type: "xavier"
      std: 0.2
    }
    bias_filler {
      type: "constant"
      value: 0.2
    }
  }
}
layer {
  name: "inception_3b/relu_5x5_reduce"
  type: "ReLU"
  bottom: "inception_3b/5x5_reduce"
  top: "inception_3b/5x5_reduce"
}
layer {
  name: "inception_3b/5x5"
  type: "Convolution"
  bottom: "inception_3b/5x5_reduce"
  top: "inception_3b/5x5"
  param {
    lr_mult: 1
    decay_mult: 1
  }
  param {
    lr_mult: 2
    decay_mult: 0
  }
  convolution_param {
    num_output: 96
    pad: 2
    kernel_size: 5
    weight_filler {
      type: "xavier"
      std: 0.03
    }
    bias_filler {
      type: "constant"
      value: 0.2
    }
  }
}
layer {
  name: "inception_3b/relu_5x5"
  type: "ReLU"
  bottom: "inception_3b/5x5"
  top: "inception_3b/5x5"
}
layer {
  name: "inception_3b/pool"
  type: "Pooling"
  bottom: "inception_3a/output"
  top: "inception_3b/pool"
  pooling_param {
    pool: MAX
    kernel_size: 3
    stride: 1
    pad: 1
  }
}
layer {
  name: "inception_3b/pool_proj"
  type: "Convolution"
  bottom: "inception_3b/pool"
  top: "inception_3b/pool_proj"
  param {
    lr_mult: 1
    decay_mult: 1
  }
  param {
    lr_mult: 2
    decay_mult: 0
  }
  convolution_param {
    num_output: 64
    kernel_size: 1
    weight_filler {
      type: "xavier"
      std: 0.1
    }
    bias_filler {
      type: "constant"
      value: 0.2
    }
  }
}
layer {
  name: "inception_3b/relu_pool_proj"
  type: "ReLU"
  bottom: "inception_3b/pool_proj"
  top: "inception_3b/pool_proj"
}
layer {
  name: "inception_3b/output"
  type: "Concat"
  bottom: "inception_3b/1x1"
  bottom: "inception_3b/3x3"
  bottom: "inception_3b/5x5"
  bottom: "inception_3b/pool_proj"
  top: "inception_3b/output"
}
layer {
  name: "pool3/3x3_s2"
  type: "Pooling"
  bottom: "inception_3b/output"
  top: "pool3/3x3_s2"
  pooling_param {
    pool: MAX
    kernel_size: 3
    stride: 2
  }
}
layer {
  name: "inception_4a/1x1"
  type: "Convolution"
  bottom: "pool3/3x3_s2"
  top: "inception_4a/1x1"
  param {
    lr_mult: 1
    decay_mult: 1
  }
  param {
    lr_mult: 2
    decay_mult: 0
  }
  convolution_param {
    num_output: 192
    kernel_size: 1
    weight_filler {
      type: "xavier"
      std: 0.03
    }
    bias_filler {
      type: "constant"
      value: 0.2
    }
  }
}
layer {
  name: "inception_4a/relu_1x1"
  type: "ReLU"
  bottom: "inception_4a/1x1"
  top: "inception_4a/1x1"
}
layer {
  name: "inception_4a/3x3_reduce"
  type: "Convolution"
  bottom: "pool3/3x3_s2"
  top: "inception_4a/3x3_reduce"
  param {
    lr_mult: 1
    decay_mult: 1
  }
  param {
    lr_mult: 2
    decay_mult: 0
  }
  convolution_param {
    num_output: 96
    kernel_size: 1
    weight_filler {
      type: "xavier"
      std: 0.09
    }
    bias_filler {
      type: "constant"
      value: 0.2
    }
  }
}
layer {
  name: "inception_4a/relu_3x3_reduce"
  type: "ReLU"
  bottom: "inception_4a/3x3_reduce"
  top: "inception_4a/3x3_reduce"
}
layer {
  name: "inception_4a/3x3"
  type: "Convolution"
  bottom: "inception_4a/3x3_reduce"
  top: "inception_4a/3x3"
  param {
    lr_mult: 1
    decay_mult: 1
  }
  param {
    lr_mult: 2
    decay_mult: 0
  }
  convolution_param {
    num_output: 208
    pad: 1
    kernel_size: 3
    weight_filler {
      type: "xavier"
      std: 0.03
    }
    bias_filler {
      type: "constant"
      value: 0.2
    }
  }
}
layer {
  name: "inception_4a/relu_3x3"
  type: "ReLU"
  bottom: "inception_4a/3x3"
  top: "inception_4a/3x3"
}
layer {
  name: "inception_4a/5x5_reduce"
  type: "Convolution"
  bottom: "pool3/3x3_s2"
  top: "inception_4a/5x5_reduce"
  param {
    lr_mult: 1
    decay_mult: 1
  }
  param {
    lr_mult: 2
    decay_mult: 0
  }
  convolution_param {
    num_output: 16
    kernel_size: 1
    weight_filler {
      type: "xavier"
      std: 0.2
    }
    bias_filler {
      type: "constant"
      value: 0.2
    }
  }
}
layer {
  name: "inception_4a/relu_5x5_reduce"
  type: "ReLU"
  bottom: "inception_4a/5x5_reduce"
  top: "inception_4a/5x5_reduce"
}
layer {
  name: "inception_4a/5x5"
  type: "Convolution"
  bottom: "inception_4a/5x5_reduce"
  top: "inception_4a/5x5"
  param {
    lr_mult: 1
    decay_mult: 1
  }
  param {
    lr_mult: 2
    decay_mult: 0
  }
  convolution_param {
    num_output: 48
    pad: 2
    kernel_size: 5
    weight_filler {
      type: "xavier"
      std: 0.03
    }
    bias_filler {
      type: "constant"
      value: 0.2
    }
  }
}
layer {
  name: "inception_4a/relu_5x5"
  type: "ReLU"
  bottom: "inception_4a/5x5"
  top: "inception_4a/5x5"
}
layer {
  name: "inception_4a/pool"
  type: "Pooling"
  bottom: "pool3/3x3_s2"
  top: "inception_4a/pool"
  pooling_param {
    pool: MAX
    kernel_size: 3
    stride: 1
    pad: 1
  }
}
layer {
  name: "inception_4a/pool_proj"
  type: "Convolution"
  bottom: "inception_4a/pool"
  top: "inception_4a/pool_proj"
  param {
    lr_mult: 1
    decay_mult: 1
  }
  param {
    lr_mult: 2
    decay_mult: 0
  }
  convolution_param {
    num_output: 64
    kernel_size: 1
    weight_filler {
      type: "xavier"
      std: 0.1
    }
    bias_filler {
      type: "constant"
      value: 0.2
    }
  }
}
layer {
  name: "inception_4a/relu_pool_proj"
  type: "ReLU"
  bottom: "inception_4a/pool_proj"
  top: "inception_4a/pool_proj"
}
layer {
  name: "inception_4a/output"
  type: "Concat"
  bottom: "inception_4a/1x1"
  bottom: "inception_4a/3x3"
  bottom: "inception_4a/5x5"
  bottom: "inception_4a/pool_proj"
  top: "inception_4a/output"
}
layer {
  name: "loss1/ave_pool"
  type: "Pooling"
  bottom: "inception_4a/output"
  top: "loss1/ave_pool"
  pooling_param {
    pool: AVE
    kernel_size: 5
    stride: 3
  }
}
layer {
  name: "loss1/conv"
  type: "Convolution"
  bottom: "loss1/ave_pool"
  top: "loss1/conv"
  param {
    lr_mult: 1
    decay_mult: 1
  }
  param {
    lr_mult: 2
    decay_mult: 0
  }
  convolution_param {
    num_output: 128
    kernel_size: 1
    weight_filler {
      type: "xavier"
      std: 0.08
    }
    bias_filler {
      type: "constant"
      value: 0.2
    }
  }
}
layer {
  name: "loss1/relu_conv"
  type: "ReLU"
  bottom: "loss1/conv"
  top: "loss1/conv"
}
layer {
  name: "loss1/fc"
  type: "InnerProduct"
  bottom: "loss1/conv"
  top: "loss1/fc"
  param {
    lr_mult: 1
    decay_mult: 1
  }
  param {
    lr_mult: 2
    decay_mult: 0
  }
  inner_product_param {
    num_output: 1024
    weight_filler {
      type: "xavier"
      std: 0.02
    }
    bias_filler {
      type: "constant"
      value: 0.2
    }
  }
}
layer {
  name: "loss1/relu_fc"
  type: "ReLU"
  bottom: "loss1/fc"
  top: "loss1/fc"
}
layer {
  name: "loss1/drop_fc"
  type: "Dropout"
  bottom: "loss1/fc"
  top: "loss1/fc"
  dropout_param {
    dropout_ratio: 0.7
  }
}
layer {
  name: "loss1/classifier_plantvillage"
  type: "InnerProduct"
  bottom: "loss1/fc"
  top: "loss1/classifier_plantvillage"
  param {
    lr_mult: 1
    decay_mult: 1
  }
  param {
    lr_mult: 2
    decay_mult: 0
  }
  inner_product_param {
    num_output: 38
    weight_filler {
      type: "xavier"
      std: 0.0009765625
    }
    bias_filler {
      type: "constant"
      value: 0
    }
  }
}
layer {
  name: "inception_4b/1x1"
  type: "Convolution"
  bottom: "inception_4a/output"
  top: "inception_4b/1x1"
  param {
    lr_mult: 1
    decay_mult: 1
  }
  param {
    lr_mult: 2
    decay_mult: 0
  }
  convolution_param {
    num_output: 160
    kernel_size: 1
    weight_filler {
      type: "xavier"
      std: 0.03
    }
    bias_filler {
      type: "constant"
      value: 0.2
    }
  }
}
layer {
  name: "inception_4b/relu_1x1"
  type: "ReLU"
  bottom: "inception_4b/1x1"
  top: "inception_4b/1x1"
}
layer {
  name: "inception_4b/3x3_reduce"
  type: "Convolution"
  bottom: "inception_4a/output"
  top: "inception_4b/3x3_reduce"
  param {
    lr_mult: 1
    decay_mult: 1
  }
  param {
    lr_mult: 2
    decay_mult: 0
  }
  convolution_param {
    num_output: 112
    kernel_size: 1
    weight_filler {
      type: "xavier"
      std: 0.09
    }
    bias_filler {
      type: "constant"
      value: 0.2
    }
  }
}
layer {
  name: "inception_4b/relu_3x3_reduce"
  type: "ReLU"
  bottom: "inception_4b/3x3_reduce"
  top: "inception_4b/3x3_reduce"
}
layer {
  name: "inception_4b/3x3"
  type: "Convolution"
  bottom: "inception_4b/3x3_reduce"
  top: "inception_4b/3x3"
  param {
    lr_mult: 1
    decay_mult: 1
  }
  param {
    lr_mult: 2
    decay_mult: 0
  }
  convolution_param {
    num_output: 224
    pad: 1
    kernel_size: 3
    weight_filler {
      type: "xavier"
      std: 0.03
    }
    bias_filler {
      type: "constant"
      value: 0.2
    }
  }
}
layer {
  name: "inception_4b/relu_3x3"
  type: "ReLU"
  bottom: "inception_4b/3x3"
  top: "inception_4b/3x3"
}
layer {
  name: "inception_4b/5x5_reduce"
  type: "Convolution"
  bottom: "inception_4a/output"
  top: "inception_4b/5x5_reduce"
  param {
    lr_mult: 1
    decay_mult: 1
  }
  param {
    lr_mult: 2
    decay_mult: 0
  }
  convolution_param {
    num_output: 24
    kernel_size: 1
    weight_filler {
      type: "xavier"
      std: 0.2
    }
    bias_filler {
      type: "constant"
      value: 0.2
    }
  }
}
layer {
  name: "inception_4b/relu_5x5_reduce"
  type: "ReLU"
  bottom: "inception_4b/5x5_reduce"
  top: "inception_4b/5x5_reduce"
}
layer {
  name: "inception_4b/5x5"
  type: "Convolution"
  bottom: "inception_4b/5x5_reduce"
  top: "inception_4b/5x5"
  param {
    lr_mult: 1
    decay_mult: 1
  }
  param {
    lr_mult: 2
    decay_mult: 0
  }
  convolution_param {
    num_output: 64
    pad: 2
    kernel_size: 5
    weight_filler {
      type: "xavier"
      std: 0.03
    }
    bias_filler {
      type: "constant"
      value: 0.2
    }
  }
}
layer {
  name: "inception_4b/relu_5x5"
  type: "ReLU"
  bottom: "inception_4b/5x5"
  top: "inception_4b/5x5"
}
layer {
  name: "inception_4b/pool"
  type: "Pooling"
  bottom: "inception_4a/output"
  top: "inception_4b/pool"
  pooling_param {
    pool: MAX
    kernel_size: 3
    stride: 1
    pad: 1
  }
}
layer {
  name: "inception_4b/pool_proj"
  type: "Convolution"
  bottom: "inception_4b/pool"
  top: "inception_4b/pool_proj"
  param {
    lr_mult: 1
    decay_mult: 1
  }
  param {
    lr_mult: 2
    decay_mult: 0
  }
  convolution_param {
    num_output: 64
    kernel_size: 1
    weight_filler {
      type: "xavier"
      std: 0.1
    }
    bias_filler {
      type: "constant"
      value: 0.2
    }
  }
}
layer {
  name: "inception_4b/relu_pool_proj"
  type: "ReLU"
  bottom: "inception_4b/pool_proj"
  top: "inception_4b/pool_proj"
}
layer {
  name: "inception_4b/output"
  type: "Concat"
  bottom: "inception_4b/1x1"
  bottom: "inception_4b/3x3"
  bottom: "inception_4b/5x5"
  bottom: "inception_4b/pool_proj"
  top: "inception_4b/output"
}
layer {
  name: "inception_4c/1x1"
  type: "Convolution"
  bottom: "inception_4b/output"
  top: "inception_4c/1x1"
  param {
    lr_mult: 1
    decay_mult: 1
  }
  param {
    lr_mult: 2
    decay_mult: 0
  }
  convolution_param {
    num_output: 128
    kernel_size: 1
    weight_filler {
      type: "xavier"
      std: 0.03
    }
    bias_filler {
      type: "constant"
      value: 0.2
    }
  }
}
layer {
  name: "inception_4c/relu_1x1"
  type: "ReLU"
  bottom: "inception_4c/1x1"
  top: "inception_4c/1x1"
}
layer {
  name: "inception_4c/3x3_reduce"
  type: "Convolution"
  bottom: "inception_4b/output"
  top: "inception_4c/3x3_reduce"
  param {
    lr_mult: 1
    decay_mult: 1
  }
  param {
    lr_mult: 2
    decay_mult: 0
  }
  convolution_param {
    num_output: 128
    kernel_size: 1
    weight_filler {
      type: "xavier"
      std: 0.09
    }
    bias_filler {
      type: "constant"
      value: 0.2
    }
  }
}
layer {
  name: "inception_4c/relu_3x3_reduce"
  type: "ReLU"
  bottom: "inception_4c/3x3_reduce"
  top: "inception_4c/3x3_reduce"
}
layer {
  name: "inception_4c/3x3"
  type: "Convolution"
  bottom: "inception_4c/3x3_reduce"
  top: "inception_4c/3x3"
  param {
    lr_mult: 1
    decay_mult: 1
  }
  param {
    lr_mult: 2
    decay_mult: 0
  }
  convolution_param {
    num_output: 256
    pad: 1
    kernel_size: 3
    weight_filler {
      type: "xavier"
      std: 0.03
    }
    bias_filler {
      type: "constant"
      value: 0.2
    }
  }
}
layer {
  name: "inception_4c/relu_3x3"
  type: "ReLU"
  bottom: "inception_4c/3x3"
  top: "inception_4c/3x3"
}
layer {
  name: "inception_4c/5x5_reduce"
  type: "Convolution"
  bottom: "inception_4b/output"
  top: "inception_4c/5x5_reduce"
  param {
    lr_mult: 1
    decay_mult: 1
  }
  param {
    lr_mult: 2
    decay_mult: 0
  }
  convolution_param {
    num_output: 24
    kernel_size: 1
    weight_filler {
      type: "xavier"
      std: 0.2
    }
    bias_filler {
      type: "constant"
      value: 0.2
    }
  }
}
layer {
  name: "inception_4c/relu_5x5_reduce"
  type: "ReLU"
  bottom: "inception_4c/5x5_reduce"
  top: "inception_4c/5x5_reduce"
}
layer {
  name: "inception_4c/5x5"
  type: "Convolution"
  bottom: "inception_4c/5x5_reduce"
  top: "inception_4c/5x5"
  param {
    lr_mult: 1
    decay_mult: 1
  }
  param {
    lr_mult: 2
    decay_mult: 0
  }
  convolution_param {
    num_output: 64
    pad: 2
    kernel_size: 5
    weight_filler {
      type: "xavier"
      std: 0.03
    }
    bias_filler {
      type: "constant"
      value: 0.2
    }
  }
}
layer {
  name: "inception_4c/relu_5x5"
  type: "ReLU"
  bottom: "inception_4c/5x5"
  top: "inception_4c/5x5"
}
layer {
  name: "inception_4c/pool"
  type: "Pooling"
  bottom: "inception_4b/output"
  top: "inception_4c/pool"
  pooling_param {
    pool: MAX
    kernel_size: 3
    stride: 1
    pad: 1
  }
}
layer {
  name: "inception_4c/pool_proj"
  type: "Convolution"
  bottom: "inception_4c/pool"
  top: "inception_4c/pool_proj"
  param {
    lr_mult: 1
    decay_mult: 1
  }
  param {
    lr_mult: 2
    decay_mult: 0
  }
  convolution_param {
    num_output: 64
    kernel_size: 1
    weight_filler {
      type: "xavier"
      std: 0.1
    }
    bias_filler {
      type: "constant"
      value: 0.2
    }
  }
}
layer {
  name: "inception_4c/relu_pool_proj"
  type: "ReLU"
  bottom: "inception_4c/pool_proj"
  top: "inception_4c/pool_proj"
}
layer {
  name: "inception_4c/output"
  type: "Concat"
  bottom: "inception_4c/1x1"
  bottom: "inception_4c/3x3"
  bottom: "inception_4c/5x5"
  bottom: "inception_4c/pool_proj"
  top: "inception_4c/output"
}
layer {
  name: "inception_4d/1x1"
  type: "Convolution"
  bottom: "inception_4c/output"
  top: "inception_4d/1x1"
  param {
    lr_mult: 1
    decay_mult: 1
  }
  param {
    lr_mult: 2
    decay_mult: 0
  }
  convolution_param {
    num_output: 112
    kernel_size: 1
    weight_filler {
      type: "xavier"
      std: 0.03
    }
    bias_filler {
      type: "constant"
      value: 0.2
    }
  }
}
layer {
  name: "inception_4d/relu_1x1"
  type: "ReLU"
  bottom: "inception_4d/1x1"
  top: "inception_4d/1x1"
}
layer {
  name: "inception_4d/3x3_reduce"
  type: "Convolution"
  bottom: "inception_4c/output"
  top: "inception_4d/3x3_reduce"
  param {
    lr_mult: 1
    decay_mult: 1
  }
  param {
    lr_mult: 2
    decay_mult: 0
  }
  convolution_param {
    num_output: 144
    kernel_size: 1
    weight_filler {
      type: "xavier"
      std: 0.09
    }
    bias_filler {
      type: "constant"
      value: 0.2
    }
  }
}
layer {
  name: "inception_4d/relu_3x3_reduce"
  type: "ReLU"
  bottom: "inception_4d/3x3_reduce"
  top: "inception_4d/3x3_reduce"
}
layer {
  name: "inception_4d/3x3"
  type: "Convolution"
  bottom: "inception_4d/3x3_reduce"
  top: "inception_4d/3x3"
  param {
    lr_mult: 1
    decay_mult: 1
  }
  param {
    lr_mult: 2
    decay_mult: 0
  }
  convolution_param {
    num_output: 288
    pad: 1
    kernel_size: 3
    weight_filler {
      type: "xavier"
      std: 0.03
    }
    bias_filler {
      type: "constant"
      value: 0.2
    }
  }
}
layer {
  name: "inception_4d/relu_3x3"
  type: "ReLU"
  bottom: "inception_4d/3x3"
  top: "inception_4d/3x3"
}
layer {
  name: "inception_4d/5x5_reduce"
  type: "Convolution"
  bottom: "inception_4c/output"
  top: "inception_4d/5x5_reduce"
  param {
    lr_mult: 1
    decay_mult: 1
  }
  param {
    lr_mult: 2
    decay_mult: 0
  }
  convolution_param {
    num_output: 32
    kernel_size: 1
    weight_filler {
      type: "xavier"
      std: 0.2
    }
    bias_filler {
      type: "constant"
      value: 0.2
    }
  }
}
layer {
  name: "inception_4d/relu_5x5_reduce"
  type: "ReLU"
  bottom: "inception_4d/5x5_reduce"
  top: "inception_4d/5x5_reduce"
}
layer {
  name: "inception_4d/5x5"
  type: "Convolution"
  bottom: "inception_4d/5x5_reduce"
  top: "inception_4d/5x5"
  param {
    lr_mult: 1
    decay_mult: 1
  }
  param {
    lr_mult: 2
    decay_mult: 0
  }
  convolution_param {
    num_output: 64
    pad: 2
    kernel_size: 5
    weight_filler {
      type: "xavier"
      std: 0.03
    }
    bias_filler {
      type: "constant"
      value: 0.2
    }
  }
}
layer {
  name: "inception_4d/relu_5x5"
  type: "ReLU"
  bottom: "inception_4d/5x5"
  top: "inception_4d/5x5"
}
layer {
  name: "inception_4d/pool"
  type: "Pooling"
  bottom: "inception_4c/output"
  top: "inception_4d/pool"
  pooling_param {
    pool: MAX
    kernel_size: 3
    stride: 1
    pad: 1
  }
}
layer {
  name: "inception_4d/pool_proj"
  type: "Convolution"
  bottom: "inception_4d/pool"
  top: "inception_4d/pool_proj"
  param {
    lr_mult: 1
    decay_mult: 1
  }
  param {
    lr_mult: 2
    decay_mult: 0
  }
  convolution_param {
    num_output: 64
    kernel_size: 1
    weight_filler {
      type: "xavier"
      std: 0.1
    }
    bias_filler {
      type: "constant"
      value: 0.2
    }
  }
}
layer {
  name: "inception_4d/relu_pool_proj"
  type: "ReLU"
  bottom: "inception_4d/pool_proj"
  top: "inception_4d/pool_proj"
}
layer {
  name: "inception_4d/output"
  type: "Concat"
  bottom: "inception_4d/1x1"
  bottom: "inception_4d/3x3"
  bottom: "inception_4d/5x5"
  bottom: "inception_4d/pool_proj"
  top: "inception_4d/output"
}
layer {
  name: "loss2/ave_pool"
  type: "Pooling"
  bottom: "inception_4d/output"
  top: "loss2/ave_pool"
  pooling_param {
    pool: AVE
    kernel_size: 5
    stride: 3
  }
}
layer {
  name: "loss2/conv"
  type: "Convolution"
  bottom: "loss2/ave_pool"
  top: "loss2/conv"
  param {
    lr_mult: 1
    decay_mult: 1
  }
  param {
    lr_mult: 2
    decay_mult: 0
  }
  convolution_param {
    num_output: 128
    kernel_size: 1
    weight_filler {
      type: "xavier"
      std: 0.08
    }
    bias_filler {
      type: "constant"
      value: 0.2
    }
  }
}
layer {
  name: "loss2/relu_conv"
  type: "ReLU"
  bottom: "loss2/conv"
  top: "loss2/conv"
}
layer {
  name: "loss2/fc"
  type: "InnerProduct"
  bottom: "loss2/conv"
  top: "loss2/fc"
  param {
    lr_mult: 1
    decay_mult: 1
  }
  param {
    lr_mult: 2
    decay_mult: 0
  }
  inner_product_param {
    num_output: 1024
    weight_filler {
      type: "xavier"
      std: 0.02
    }
    bias_filler {
      type: "constant"
      value: 0.2
    }
  }
}
layer {
  name: "loss2/relu_fc"
  type: "ReLU"
  bottom: "loss2/fc"
  top: "loss2/fc"
}
layer {
  name: "loss2/drop_fc"
  type: "Dropout"
  bottom: "loss2/fc"
  top: "loss2/fc"
  dropout_param {
    dropout_ratio: 0.7
  }
}
layer {
  name: "loss2/classifier_plantvillage"
  type: "InnerProduct"
  bottom: "loss2/fc"
  top: "loss2/classifier_plantvillage"
  param {
    lr_mult: 1
    decay_mult: 1
  }
  param {
    lr_mult: 2
    decay_mult: 0
  }
  inner_product_param {
    num_output: 38
    weight_filler {
      type: "xavier"
      std: 0.0009765625
    }
    bias_filler {
      type: "constant"
      value: 0
    }
  }
}
layer {
  name: "inception_4e/1x1"
  type: "Convolution"
  bottom: "inception_4d/output"
  top: "inception_4e/1x1"
  param {
    lr_mult: 1
    decay_mult: 1
  }
  param {
    lr_mult: 2
    decay_mult: 0
  }
  convolution_param {
    num_output: 256
    kernel_size: 1
    weight_filler {
      type: "xavier"
      std: 0.03
    }
    bias_filler {
      type: "constant"
      value: 0.2
    }
  }
}
layer {
  name: "inception_4e/relu_1x1"
  type: "ReLU"
  bottom: "inception_4e/1x1"
  top: "inception_4e/1x1"
}
layer {
  name: "inception_4e/3x3_reduce"
  type: "Convolution"
  bottom: "inception_4d/output"
  top: "inception_4e/3x3_reduce"
  param {
    lr_mult: 1
    decay_mult: 1
  }
  param {
    lr_mult: 2
    decay_mult: 0
  }
  convolution_param {
    num_output: 160
    kernel_size: 1
    weight_filler {
      type: "xavier"
      std: 0.09
    }
    bias_filler {
      type: "constant"
      value: 0.2
    }
  }
}
layer {
  name: "inception_4e/relu_3x3_reduce"
  type: "ReLU"
  bottom: "inception_4e/3x3_reduce"
  top: "inception_4e/3x3_reduce"
}
layer {
  name: "inception_4e/3x3"
  type: "Convolution"
  bottom: "inception_4e/3x3_reduce"
  top: "inception_4e/3x3"
  param {
    lr_mult: 1
    decay_mult: 1
  }
  param {
    lr_mult: 2
    decay_mult: 0
  }
  convolution_param {
    num_output: 320
    pad: 1
    kernel_size: 3
    weight_filler {
      type: "xavier"
      std: 0.03
    }
    bias_filler {
      type: "constant"
      value: 0.2
    }
  }
}
layer {
  name: "inception_4e/relu_3x3"
  type: "ReLU"
  bottom: "inception_4e/3x3"
  top: "inception_4e/3x3"
}
layer {
  name: "inception_4e/5x5_reduce"
  type: "Convolution"
  bottom: "inception_4d/output"
  top: "inception_4e/5x5_reduce"
  param {
    lr_mult: 1
    decay_mult: 1
  }
  param {
    lr_mult: 2
    decay_mult: 0
  }
  convolution_param {
    num_output: 32
    kernel_size: 1
    weight_filler {
      type: "xavier"
      std: 0.2
    }
    bias_filler {
      type: "constant"
      value: 0.2
    }
  }
}
layer {
  name: "inception_4e/relu_5x5_reduce"
  type: "ReLU"
  bottom: "inception_4e/5x5_reduce"
  top: "inception_4e/5x5_reduce"
}
layer {
  name: "inception_4e/5x5"
  type: "Convolution"
  bottom: "inception_4e/5x5_reduce"
  top: "inception_4
I0403 11:41:36.788717  6498 layer_factory.hpp:77] Creating layer data
I0403 11:41:36.789486  6498 net.cpp:91] Creating Layer data
I0403 11:41:36.789532  6498 net.cpp:399] data -> data
I0403 11:41:36.789597  6498 net.cpp:399] data -> label
I0403 11:41:36.789641  6498 data_transformer.cpp:25] Loading mean file from: /home/mohanty/data/final_dataset/lmdb/grayscale-50-50/mean.binaryproto
I0403 11:41:36.888746  6502 db_lmdb.cpp:38] Opened lmdb /home/mohanty/data/final_dataset/lmdb/grayscale-50-50/train_db
I0403 11:41:36.917870  6498 data_layer.cpp:41] output data size: 24,3,224,224
I0403 11:41:36.949816  6498 net.cpp:141] Setting up data
I0403 11:41:36.949918  6498 net.cpp:148] Top shape: 24 3 224 224 (3612672)
I0403 11:41:36.949945  6498 net.cpp:148] Top shape: 24 (24)
I0403 11:41:36.949965  6498 net.cpp:156] Memory required for data: 14450784
I0403 11:41:36.950028  6498 layer_factory.hpp:77] Creating layer label_data_1_split
I0403 11:41:36.950069  6498 net.cpp:91] Creating Layer label_data_1_split
I0403 11:41:36.950095  6498 net.cpp:425] label_data_1_split <- label
I0403 11:41:36.950134  6498 net.cpp:399] label_data_1_split -> label_data_1_split_0
I0403 11:41:36.950168  6498 net.cpp:399] label_data_1_split -> label_data_1_split_1
I0403 11:41:36.950196  6498 net.cpp:399] label_data_1_split -> label_data_1_split_2
I0403 11:41:36.950276  6498 net.cpp:141] Setting up label_data_1_split
I0403 11:41:36.950312  6498 net.cpp:148] Top shape: 24 (24)
I0403 11:41:36.950336  6498 net.cpp:148] Top shape: 24 (24)
I0403 11:41:36.950358  6498 net.cpp:148] Top shape: 24 (24)
I0403 11:41:36.950378  6498 net.cpp:156] Memory required for data: 14451072
I0403 11:41:36.950398  6498 layer_factory.hpp:77] Creating layer conv1/7x7_s2
I0403 11:41:36.950440  6498 net.cpp:91] Creating Layer conv1/7x7_s2
I0403 11:41:36.950464  6498 net.cpp:425] conv1/7x7_s2 <- data
I0403 11:41:36.950491  6498 net.cpp:399] conv1/7x7_s2 -> conv1/7x7_s2
I0403 11:41:36.951674  6498 net.cpp:141] Setting up conv1/7x7_s2
I0403 11:41:36.951711  6498 net.cpp:148] Top shape: 24 64 112 112 (19267584)
I0403 11:41:36.951733  6498 net.cpp:156] Memory required for data: 91521408
I0403 11:41:36.951776  6498 layer_factory.hpp:77] Creating layer conv1/relu_7x7
I0403 11:41:36.951810  6498 net.cpp:91] Creating Layer conv1/relu_7x7
I0403 11:41:36.951833  6498 net.cpp:425] conv1/relu_7x7 <- conv1/7x7_s2
I0403 11:41:36.951858  6498 net.cpp:386] conv1/relu_7x7 -> conv1/7x7_s2 (in-place)
I0403 11:41:36.951887  6498 net.cpp:141] Setting up conv1/relu_7x7
I0403 11:41:36.951911  6498 net.cpp:148] Top shape: 24 64 112 112 (19267584)
I0403 11:41:36.951930  6498 net.cpp:156] Memory required for data: 168591744
I0403 11:41:36.951951  6498 layer_factory.hpp:77] Creating layer pool1/3x3_s2
I0403 11:41:36.951977  6498 net.cpp:91] Creating Layer pool1/3x3_s2
I0403 11:41:36.951999  6498 net.cpp:425] pool1/3x3_s2 <- conv1/7x7_s2
I0403 11:41:36.952023  6498 net.cpp:399] pool1/3x3_s2 -> pool1/3x3_s2
I0403 11:41:36.952101  6498 net.cpp:141] Setting up pool1/3x3_s2
I0403 11:41:36.952132  6498 net.cpp:148] Top shape: 24 64 56 56 (4816896)
I0403 11:41:36.952152  6498 net.cpp:156] Memory required for data: 187859328
I0403 11:41:36.952173  6498 layer_factory.hpp:77] Creating layer pool1/norm1
I0403 11:41:36.952200  6498 net.cpp:91] Creating Layer pool1/norm1
I0403 11:41:36.952221  6498 net.cpp:425] pool1/norm1 <- pool1/3x3_s2
I0403 11:41:36.952245  6498 net.cpp:399] pool1/norm1 -> pool1/norm1
I0403 11:41:36.952316  6498 net.cpp:141] Setting up pool1/norm1
I0403 11:41:36.952345  6498 net.cpp:148] Top shape: 24 64 56 56 (4816896)
I0403 11:41:36.952366  6498 net.cpp:156] Memory required for data: 207126912
I0403 11:41:36.952386  6498 layer_factory.hpp:77] Creating layer conv2/3x3_reduce
I0403 11:41:36.952415  6498 net.cpp:91] Creating Layer conv2/3x3_reduce
I0403 11:41:36.952437  6498 net.cpp:425] conv2/3x3_reduce <- pool1/norm1
I0403 11:41:36.952462  6498 net.cpp:399] conv2/3x3_reduce -> conv2/3x3_reduce
I0403 11:41:36.954824  6498 net.cpp:141] Setting up conv2/3x3_reduce
I0403 11:41:36.954871  6498 net.cpp:148] Top shape: 24 64 56 56 (4816896)
I0403 11:41:36.954895  6498 net.cpp:156] Memory required for data: 226394496
I0403 11:41:36.954926  6498 layer_factory.hpp:77] Creating layer conv2/relu_3x3_reduce
I0403 11:41:36.954953  6498 net.cpp:91] Creating Layer conv2/relu_3x3_reduce
I0403 11:41:36.954975  6498 net.cpp:425] conv2/relu_3x3_reduce <- conv2/3x3_reduce
I0403 11:41:36.955001  6498 net.cpp:386] conv2/relu_3x3_reduce -> conv2/3x3_reduce (in-place)
I0403 11:41:36.955029  6498 net.cpp:141] Setting up conv2/relu_3x3_reduce
I0403 11:41:36.955052  6498 net.cpp:148] Top shape: 24 64 56 56 (4816896)
I0403 11:41:36.955073  6498 net.cpp:156] Memory required for data: 245662080
I0403 11:41:36.955093  6498 layer_factory.hpp:77] Creating layer conv2/3x3
I0403 11:41:36.955126  6498 net.cpp:91] Creating Layer conv2/3x3
I0403 11:41:36.955149  6498 net.cpp:425] conv2/3x3 <- conv2/3x3_reduce
I0403 11:41:36.955199  6498 net.cpp:399] conv2/3x3 -> conv2/3x3
I0403 11:41:36.956850  6498 net.cpp:141] Setting up conv2/3x3
I0403 11:41:36.956862  6503 blocking_queue.cpp:50] Waiting for data
I0403 11:41:36.956889  6498 net.cpp:148] Top shape: 24 192 56 56 (14450688)
I0403 11:41:36.956941  6498 net.cpp:156] Memory required for data: 303464832
I0403 11:41:36.956974  6498 layer_factory.hpp:77] Creating layer conv2/relu_3x3
I0403 11:41:36.957015  6498 net.cpp:91] Creating Layer conv2/relu_3x3
I0403 11:41:36.957037  6498 net.cpp:425] conv2/relu_3x3 <- conv2/3x3
I0403 11:41:36.957062  6498 net.cpp:386] conv2/relu_3x3 -> conv2/3x3 (in-place)
I0403 11:41:36.957090  6498 net.cpp:141] Setting up conv2/relu_3x3
I0403 11:41:36.957115  6498 net.cpp:148] Top shape: 24 192 56 56 (14450688)
I0403 11:41:36.957135  6498 net.cpp:156] Memory required for data: 361267584
I0403 11:41:36.957155  6498 layer_factory.hpp:77] Creating layer conv2/norm2
I0403 11:41:36.957181  6498 net.cpp:91] Creating Layer conv2/norm2
I0403 11:41:36.957202  6498 net.cpp:425] conv2/norm2 <- conv2/3x3
I0403 11:41:36.957228  6498 net.cpp:399] conv2/norm2 -> conv2/norm2
I0403 11:41:36.957307  6498 net.cpp:141] Setting up conv2/norm2
I0403 11:41:36.957336  6498 net.cpp:148] Top shape: 24 192 56 56 (14450688)
I0403 11:41:36.957356  6498 net.cpp:156] Memory required for data: 419070336
I0403 11:41:36.957376  6498 layer_factory.hpp:77] Creating layer pool2/3x3_s2
I0403 11:41:36.957401  6498 net.cpp:91] Creating Layer pool2/3x3_s2
I0403 11:41:36.957422  6498 net.cpp:425] pool2/3x3_s2 <- conv2/norm2
I0403 11:41:36.957448  6498 net.cpp:399] pool2/3x3_s2 -> pool2/3x3_s2
I0403 11:41:36.957518  6498 net.cpp:141] Setting up pool2/3x3_s2
I0403 11:41:36.957547  6498 net.cpp:148] Top shape: 24 192 28 28 (3612672)
I0403 11:41:36.957569  6498 net.cpp:156] Memory required for data: 433521024
I0403 11:41:36.957589  6498 layer_factory.hpp:77] Creating layer pool2/3x3_s2_pool2/3x3_s2_0_split
I0403 11:41:36.957614  6498 net.cpp:91] Creating Layer pool2/3x3_s2_pool2/3x3_s2_0_split
I0403 11:41:36.957636  6498 net.cpp:425] pool2/3x3_s2_pool2/3x3_s2_0_split <- pool2/3x3_s2
I0403 11:41:36.957661  6498 net.cpp:399] pool2/3x3_s2_pool2/3x3_s2_0_split -> pool2/3x3_s2_pool2/3x3_s2_0_split_0
I0403 11:41:36.957690  6498 net.cpp:399] pool2/3x3_s2_pool2/3x3_s2_0_split -> pool2/3x3_s2_pool2/3x3_s2_0_split_1
I0403 11:41:36.957717  6498 net.cpp:399] pool2/3x3_s2_pool2/3x3_s2_0_split -> pool2/3x3_s2_pool2/3x3_s2_0_split_2
I0403 11:41:36.957746  6498 net.cpp:399] pool2/3x3_s2_pool2/3x3_s2_0_split -> pool2/3x3_s2_pool2/3x3_s2_0_split_3
I0403 11:41:36.957824  6498 net.cpp:141] Setting up pool2/3x3_s2_pool2/3x3_s2_0_split
I0403 11:41:36.957854  6498 net.cpp:148] Top shape: 24 192 28 28 (3612672)
I0403 11:41:36.957877  6498 net.cpp:148] Top shape: 24 192 28 28 (3612672)
I0403 11:41:36.957900  6498 net.cpp:148] Top shape: 24 192 28 28 (3612672)
I0403 11:41:36.957921  6498 net.cpp:148] Top shape: 24 192 28 28 (3612672)
I0403 11:41:36.957942  6498 net.cpp:156] Memory required for data: 491323776
I0403 11:41:36.957962  6498 layer_factory.hpp:77] Creating layer inception_3a/1x1
I0403 11:41:36.957993  6498 net.cpp:91] Creating Layer inception_3a/1x1
I0403 11:41:36.958017  6498 net.cpp:425] inception_3a/1x1 <- pool2/3x3_s2_pool2/3x3_s2_0_split_0
I0403 11:41:36.958045  6498 net.cpp:399] inception_3a/1x1 -> inception_3a/1x1
I0403 11:41:36.959028  6498 net.cpp:141] Setting up inception_3a/1x1
I0403 11:41:36.959064  6498 net.cpp:148] Top shape: 24 64 28 28 (1204224)
I0403 11:41:36.959087  6498 net.cpp:156] Memory required for data: 496140672
I0403 11:41:36.959113  6498 layer_factory.hpp:77] Creating layer inception_3a/relu_1x1
I0403 11:41:36.959141  6498 net.cpp:91] Creating Layer inception_3a/relu_1x1
I0403 11:41:36.959166  6498 net.cpp:425] inception_3a/relu_1x1 <- inception_3a/1x1
I0403 11:41:36.959190  6498 net.cpp:386] inception_3a/relu_1x1 -> inception_3a/1x1 (in-place)
I0403 11:41:36.959218  6498 net.cpp:141] Setting up inception_3a/relu_1x1
I0403 11:41:36.959244  6498 net.cpp:148] Top shape: 24 64 28 28 (1204224)
I0403 11:41:36.959300  6498 net.cpp:156] Memory required for data: 500957568
I0403 11:41:36.959324  6498 layer_factory.hpp:77] Creating layer inception_3a/3x3_reduce
I0403 11:41:36.959354  6498 net.cpp:91] Creating Layer inception_3a/3x3_reduce
I0403 11:41:36.959378  6498 net.cpp:425] inception_3a/3x3_reduce <- pool2/3x3_s2_pool2/3x3_s2_0_split_1
I0403 11:41:36.959404  6498 net.cpp:399] inception_3a/3x3_reduce -> inception_3a/3x3_reduce
I0403 11:41:36.960451  6498 net.cpp:141] Setting up inception_3a/3x3_reduce
I0403 11:41:36.960486  6498 net.cpp:148] Top shape: 24 96 28 28 (1806336)
I0403 11:41:36.960522  6498 net.cpp:156] Memory required for data: 508182912
I0403 11:41:36.960551  6498 layer_factory.hpp:77] Creating layer inception_3a/relu_3x3_reduce
I0403 11:41:36.960585  6498 net.cpp:91] Creating Layer inception_3a/relu_3x3_reduce
I0403 11:41:36.960609  6498 net.cpp:425] inception_3a/relu_3x3_reduce <- inception_3a/3x3_reduce
I0403 11:41:36.960634  6498 net.cpp:386] inception_3a/relu_3x3_reduce -> inception_3a/3x3_reduce (in-place)
I0403 11:41:36.960661  6498 net.cpp:141] Setting up inception_3a/relu_3x3_reduce
I0403 11:41:36.960686  6498 net.cpp:148] Top shape: 24 96 28 28 (1806336)
I0403 11:41:36.960707  6498 net.cpp:156] Memory required for data: 515408256
I0403 11:41:36.960728  6498 layer_factory.hpp:77] Creating layer inception_3a/3x3
I0403 11:41:36.960762  6498 net.cpp:91] Creating Layer inception_3a/3x3
I0403 11:41:36.960785  6498 net.cpp:425] inception_3a/3x3 <- inception_3a/3x3_reduce
I0403 11:41:36.960815  6498 net.cpp:399] inception_3a/3x3 -> inception_3a/3x3
I0403 11:41:36.961865  6498 net.cpp:141] Setting up inception_3a/3x3
I0403 11:41:36.961899  6498 net.cpp:148] Top shape: 24 128 28 28 (2408448)
I0403 11:41:36.961936  6498 net.cpp:156] Memory required for data: 525042048
I0403 11:41:36.961974  6498 layer_factory.hpp:77] Creating layer inception_3a/relu_3x3
I0403 11:41:36.962002  6498 net.cpp:91] Creating Layer inception_3a/relu_3x3
I0403 11:41:36.962026  6498 net.cpp:425] inception_3a/relu_3x3 <- inception_3a/3x3
I0403 11:41:36.962051  6498 net.cpp:386] inception_3a/relu_3x3 -> inception_3a/3x3 (in-place)
I0403 11:41:36.962080  6498 net.cpp:141] Setting up inception_3a/relu_3x3
I0403 11:41:36.962105  6498 net.cpp:148] Top shape: 24 128 28 28 (2408448)
I0403 11:41:36.962124  6498 net.cpp:156] Memory required for data: 534675840
I0403 11:41:36.962144  6498 layer_factory.hpp:77] Creating layer inception_3a/5x5_reduce
I0403 11:41:36.962177  6498 net.cpp:91] Creating Layer inception_3a/5x5_reduce
I0403 11:41:36.962203  6498 net.cpp:425] inception_3a/5x5_reduce <- pool2/3x3_s2_pool2/3x3_s2_0_split_2
I0403 11:41:36.962229  6498 net.cpp:399] inception_3a/5x5_reduce -> inception_3a/5x5_reduce
I0403 11:41:36.962543  6498 net.cpp:141] Setting up inception_3a/5x5_reduce
I0403 11:41:36.962575  6498 net.cpp:148] Top shape: 24 16 28 28 (301056)
I0403 11:41:36.962599  6498 net.cpp:156] Memory required for data: 535880064
I0403 11:41:36.962623  6498 layer_factory.hpp:77] Creating layer inception_3a/relu_5x5_reduce
I0403 11:41:36.962651  6498 net.cpp:91] Creating Layer inception_3a/relu_5x5_reduce
I0403 11:41:36.962676  6498 net.cpp:425] inception_3a/relu_5x5_reduce <- inception_3a/5x5_reduce
I0403 11:41:36.962702  6498 net.cpp:386] inception_3a/relu_5x5_reduce -> inception_3a/5x5_reduce (in-place)
I0403 11:41:36.962728  6498 net.cpp:141] Setting up inception_3a/relu_5x5_reduce
I0403 11:41:36.962754  6498 net.cpp:148] Top shape: 24 16 28 28 (301056)
I0403 11:41:36.962774  6498 net.cpp:156] Memory required for data: 537084288
I0403 11:41:36.962793  6498 layer_factory.hpp:77] Creating layer inception_3a/5x5
I0403 11:41:36.962826  6498 net.cpp:91] Creating Layer inception_3a/5x5
I0403 11:41:36.962852  6498 net.cpp:425] inception_3a/5x5 <- inception_3a/5x5_reduce
I0403 11:41:36.962879  6498 net.cpp:399] inception_3a/5x5 -> inception_3a/5x5
I0403 11:41:36.963227  6498 net.cpp:141] Setting up inception_3a/5x5
I0403 11:41:36.963260  6498 net.cpp:148] Top shape: 24 32 28 28 (602112)
I0403 11:41:36.963316  6498 net.cpp:156] Memory required for data: 539492736
I0403 11:41:36.963343  6498 layer_factory.hpp:77] Creating layer inception_3a/relu_5x5
I0403 11:41:36.963371  6498 net.cpp:91] Creating Layer inception_3a/relu_5x5
I0403 11:41:36.963393  6498 net.cpp:425] inception_3a/relu_5x5 <- inception_3a/5x5
I0403 11:41:36.963418  6498 net.cpp:386] inception_3a/relu_5x5 -> inception_3a/5x5 (in-place)
I0403 11:41:36.963443  6498 net.cpp:141] Setting up inception_3a/relu_5x5
I0403 11:41:36.963466  6498 net.cpp:148] Top shape: 24 32 28 28 (602112)
I0403 11:41:36.963485  6498 net.cpp:156] Memory required for data: 541901184
I0403 11:41:36.963521  6498 layer_factory.hpp:77] Creating layer inception_3a/pool
I0403 11:41:36.963551  6498 net.cpp:91] Creating Layer inception_3a/pool
I0403 11:41:36.963574  6498 net.cpp:425] inception_3a/pool <- pool2/3x3_s2_pool2/3x3_s2_0_split_3
I0403 11:41:36.963599  6498 net.cpp:399] inception_3a/pool -> inception_3a/pool
I0403 11:41:36.963665  6498 net.cpp:141] Setting up inception_3a/pool
I0403 11:41:36.963696  6498 net.cpp:148] Top shape: 24 192 28 28 (3612672)
I0403 11:41:36.963717  6498 net.cpp:156] Memory required for data: 556351872
I0403 11:41:36.963738  6498 layer_factory.hpp:77] Creating layer inception_3a/pool_proj
I0403 11:41:36.963770  6498 net.cpp:91] Creating Layer inception_3a/pool_proj
I0403 11:41:36.963795  6498 net.cpp:425] inception_3a/pool_proj <- inception_3a/pool
I0403 11:41:36.963821  6498 net.cpp:399] inception_3a/pool_proj -> inception_3a/pool_proj
I0403 11:41:36.964113  6498 net.cpp:141] Setting up inception_3a/pool_proj
I0403 11:41:36.964146  6498 net.cpp:148] Top shape: 24 32 28 28 (602112)
I0403 11:41:36.964169  6498 net.cpp:156] Memory required for data: 558760320
I0403 11:41:36.964200  6498 layer_factory.hpp:77] Creating layer inception_3a/relu_pool_proj
I0403 11:41:36.964227  6498 net.cpp:91] Creating Layer inception_3a/relu_pool_proj
I0403 11:41:36.964251  6498 net.cpp:425] inception_3a/relu_pool_proj <- inception_3a/pool_proj
I0403 11:41:36.964277  6498 net.cpp:386] inception_3a/relu_pool_proj -> inception_3a/pool_proj (in-place)
I0403 11:41:36.964309  6498 net.cpp:141] Setting up inception_3a/relu_pool_proj
I0403 11:41:36.964336  6498 net.cpp:148] Top shape: 24 32 28 28 (602112)
I0403 11:41:36.964356  6498 net.cpp:156] Memory required for data: 561168768
I0403 11:41:36.964377  6498 layer_factory.hpp:77] Creating layer inception_3a/output
I0403 11:41:36.964402  6498 net.cpp:91] Creating Layer inception_3a/output
I0403 11:41:36.964424  6498 net.cpp:425] inception_3a/output <- inception_3a/1x1
I0403 11:41:36.964448  6498 net.cpp:425] inception_3a/output <- inception_3a/3x3
I0403 11:41:36.964471  6498 net.cpp:425] inception_3a/output <- inception_3a/5x5
I0403 11:41:36.964494  6498 net.cpp:425] inception_3a/output <- inception_3a/pool_proj
I0403 11:41:36.964527  6498 net.cpp:399] inception_3a/output -> inception_3a/output
I0403 11:41:36.964588  6498 net.cpp:141] Setting up inception_3a/output
I0403 11:41:36.964619  6498 net.cpp:148] Top shape: 24 256 28 28 (4816896)
I0403 11:41:36.964640  6498 net.cpp:156] Memory required for data: 580436352
I0403 11:41:36.964661  6498 layer_factory.hpp:77] Creating layer inception_3a/output_inception_3a/output_0_split
I0403 11:41:36.964687  6498 net.cpp:91] Creating Layer inception_3a/output_inception_3a/output_0_split
I0403 11:41:36.964710  6498 net.cpp:425] inception_3a/output_inception_3a/output_0_split <- inception_3a/output
I0403 11:41:36.964735  6498 net.cpp:399] inception_3a/output_inception_3a/output_0_split -> inception_3a/output_inception_3a/output_0_split_0
I0403 11:41:36.964766  6498 net.cpp:399] inception_3a/output_inception_3a/output_0_split -> inception_3a/output_inception_3a/output_0_split_1
I0403 11:41:36.964797  6498 net.cpp:399] inception_3a/output_inception_3a/output_0_split -> inception_3a/output_inception_3a/output_0_split_2
I0403 11:41:36.964826  6498 net.cpp:399] inception_3a/output_inception_3a/output_0_split -> inception_3a/output_inception_3a/output_0_split_3
I0403 11:41:36.964912  6498 net.cpp:141] Setting up inception_3a/output_inception_3a/output_0_split
I0403 11:41:36.964956  6498 net.cpp:148] Top shape: 24 256 28 28 (4816896)
I0403 11:41:36.964982  6498 net.cpp:148] Top shape: 24 256 28 28 (4816896)
I0403 11:41:36.965003  6498 net.cpp:148] Top shape: 24 256 28 28 (4816896)
I0403 11:41:36.965025  6498 net.cpp:148] Top shape: 24 256 28 28 (4816896)
I0403 11:41:36.965046  6498 net.cpp:156] Memory required for data: 657506688
I0403 11:41:36.965067  6498 layer_factory.hpp:77] Creating layer inception_3b/1x1
I0403 11:41:36.965101  6498 net.cpp:91] Creating Layer inception_3b/1x1
I0403 11:41:36.965126  6498 net.cpp:425] inception_3b/1x1 <- inception_3a/output_inception_3a/output_0_split_0
I0403 11:41:36.965153  6498 net.cpp:399] inception_3b/1x1 -> inception_3b/1x1
I0403 11:41:36.965649  6498 net.cpp:141] Setting up inception_3b/1x1
I0403 11:41:36.965683  6498 net.cpp:148] Top shape: 24 128 28 28 (2408448)
I0403 11:41:36.965704  6498 net.cpp:156] Memory required for data: 667140480
I0403 11:41:36.965728  6498 layer_factory.hpp:77] Creating layer inception_3b/relu_1x1
I0403 11:41:36.965756  6498 net.cpp:91] Creating Layer inception_3b/relu_1x1
I0403 11:41:36.965780  6498 net.cpp:425] inception_3b/relu_1x1 <- inception_3b/1x1
I0403 11:41:36.965804  6498 net.cpp:386] inception_3b/relu_1x1 -> inception_3b/1x1 (in-place)
I0403 11:41:36.965831  6498 net.cpp:141] Setting up inception_3b/relu_1x1
I0403 11:41:36.965853  6498 net.cpp:148] Top shape: 24 128 28 28 (2408448)
I0403 11:41:36.965874  6498 net.cpp:156] Memory required for data: 676774272
I0403 11:41:36.965893  6498 layer_factory.hpp:77] Creating layer inception_3b/3x3_reduce
I0403 11:41:36.965924  6498 net.cpp:91] Creating Layer inception_3b/3x3_reduce
I0403 11:41:36.965946  6498 net.cpp:425] inception_3b/3x3_reduce <- inception_3a/output_inception_3a/output_0_split_1
I0403 11:41:36.965975  6498 net.cpp:399] inception_3b/3x3_reduce -> inception_3b/3x3_reduce
I0403 11:41:36.966445  6498 net.cpp:141] Setting up inception_3b/3x3_reduce
I0403 11:41:36.966478  6498 net.cpp:148] Top shape: 24 128 28 28 (2408448)
I0403 11:41:36.966500  6498 net.cpp:156] Memory required for data: 686408064
I0403 11:41:36.966526  6498 layer_factory.hpp:77] Creating layer inception_3b/relu_3x3_reduce
I0403 11:41:36.966549  6498 net.cpp:91] Creating Layer inception_3b/relu_3x3_reduce
I0403 11:41:36.966572  6498 net.cpp:425] inception_3b/relu_3x3_reduce <- inception_3b/3x3_reduce
I0403 11:41:36.966595  6498 net.cpp:386] inception_3b/relu_3x3_reduce -> inception_3b/3x3_reduce (in-place)
I0403 11:41:36.966621  6498 net.cpp:141] Setting up inception_3b/relu_3x3_reduce
I0403 11:41:36.966645  6498 net.cpp:148] Top shape: 24 128 28 28 (2408448)
I0403 11:41:36.966665  6498 net.cpp:156] Memory required for data: 696041856
I0403 11:41:36.966686  6498 layer_factory.hpp:77] Creating layer inception_3b/3x3
I0403 11:41:36.966718  6498 net.cpp:91] Creating Layer inception_3b/3x3
I0403 11:41:36.966742  6498 net.cpp:425] inception_3b/3x3 <- inception_3b/3x3_reduce
I0403 11:41:36.966771  6498 net.cpp:399] inception_3b/3x3 -> inception_3b/3x3
I0403 11:41:36.969135  6498 net.cpp:141] Setting up inception_3b/3x3
I0403 11:41:36.969171  6498 net.cpp:148] Top shape: 24 192 28 28 (3612672)
I0403 11:41:36.969192  6498 net.cpp:156] Memory required for data: 710492544
I0403 11:41:36.969216  6498 layer_factory.hpp:77] Creating layer inception_3b/relu_3x3
I0403 11:41:36.969243  6498 net.cpp:91] Creating Layer inception_3b/relu_3x3
I0403 11:41:36.969264  6498 net.cpp:425] inception_3b/relu_3x3 <- inception_3b/3x3
I0403 11:41:36.969293  6498 net.cpp:386] inception_3b/relu_3x3 -> inception_3b/3x3 (in-place)
I0403 11:41:36.969321  6498 net.cpp:141] Setting up inception_3b/relu_3x3
I0403 11:41:36.969347  6498 net.cpp:148] Top shape: 24 192 28 28 (3612672)
I0403 11:41:36.969365  6498 net.cpp:156] Memory required for data: 724943232
I0403 11:41:36.969385  6498 layer_factory.hpp:77] Creating layer inception_3b/5x5_reduce
I0403 11:41:36.969416  6498 net.cpp:91] Creating Layer inception_3b/5x5_reduce
I0403 11:41:36.969457  6498 net.cpp:425] inception_3b/5x5_reduce <- inception_3a/output_inception_3a/output_0_split_2
I0403 11:41:36.969488  6498 net.cpp:399] inception_3b/5x5_reduce -> inception_3b/5x5_reduce
I0403 11:41:36.969796  6498 net.cpp:141] Setting up inception_3b/5x5_reduce
I0403 11:41:36.969828  6498 net.cpp:148] Top shape: 24 32 28 28 (602112)
I0403 11:41:36.969848  6498 net.cpp:156] Memory required for data: 727351680
I0403 11:41:36.969873  6498 layer_factory.hpp:77] Creating layer inception_3b/relu_5x5_reduce
I0403 11:41:36.969899  6498 net.cpp:91] Creating Layer inception_3b/relu_5x5_reduce
I0403 11:41:36.969921  6498 net.cpp:425] inception_3b/relu_5x5_reduce <- inception_3b/5x5_reduce
I0403 11:41:36.969944  6498 net.cpp:386] inception_3b/relu_5x5_reduce -> inception_3b/5x5_reduce (in-place)
I0403 11:41:36.969969  6498 net.cpp:141] Setting up inception_3b/relu_5x5_reduce
I0403 11:41:36.969993  6498 net.cpp:148] Top shape: 24 32 28 28 (602112)
I0403 11:41:36.970012  6498 net.cpp:156] Memory required for data: 729760128
I0403 11:41:36.970032  6498 layer_factory.hpp:77] Creating layer inception_3b/5x5
I0403 11:41:36.970063  6498 net.cpp:91] Creating Layer inception_3b/5x5
I0403 11:41:36.970087  6498 net.cpp:425] inception_3b/5x5 <- inception_3b/5x5_reduce
I0403 11:41:36.970116  6498 net.cpp:399] inception_3b/5x5 -> inception_3b/5x5
I0403 11:41:36.971524  6498 net.cpp:141] Setting up inception_3b/5x5
I0403 11:41:36.971561  6498 net.cpp:148] Top shape: 24 96 28 28 (1806336)
I0403 11:41:36.971583  6498 net.cpp:156] Memory required for data: 736985472
I0403 11:41:36.971608  6498 layer_factory.hpp:77] Creating layer inception_3b/relu_5x5
I0403 11:41:36.971633  6498 net.cpp:91] Creating Layer inception_3b/relu_5x5
I0403 11:41:36.971655  6498 net.cpp:425] inception_3b/relu_5x5 <- inception_3b/5x5
I0403 11:41:36.971683  6498 net.cpp:386] inception_3b/relu_5x5 -> inception_3b/5x5 (in-place)
I0403 11:41:36.971711  6498 net.cpp:141] Setting up inception_3b/relu_5x5
I0403 11:41:36.971736  6498 net.cpp:148] Top shape: 24 96 28 28 (1806336)
I0403 11:41:36.971756  6498 net.cpp:156] Memory required for data: 744210816
I0403 11:41:36.971776  6498 layer_factory.hpp:77] Creating layer inception_3b/pool
I0403 11:41:36.971801  6498 net.cpp:91] Creating Layer inception_3b/pool
I0403 11:41:36.971822  6498 net.cpp:425] inception_3b/pool <- inception_3a/output_inception_3a/output_0_split_3
I0403 11:41:36.971848  6498 net.cpp:399] inception_3b/pool -> inception_3b/pool
I0403 11:41:36.971911  6498 net.cpp:141] Setting up inception_3b/pool
I0403 11:41:36.971941  6498 net.cpp:148] Top shape: 24 256 28 28 (4816896)
I0403 11:41:36.971962  6498 net.cpp:156] Memory required for data: 763478400
I0403 11:41:36.971982  6498 layer_factory.hpp:77] Creating layer inception_3b/pool_proj
I0403 11:41:36.972013  6498 net.cpp:91] Creating Layer inception_3b/pool_proj
I0403 11:41:36.972038  6498 net.cpp:425] inception_3b/pool_proj <- inception_3b/pool
I0403 11:41:36.972065  6498 net.cpp:399] inception_3b/pool_proj -> inception_3b/pool_proj
I0403 11:41:36.972435  6498 net.cpp:141] Setting up inception_3b/pool_proj
I0403 11:41:36.972468  6498 net.cpp:148] Top shape: 24 64 28 28 (1204224)
I0403 11:41:36.972488  6498 net.cpp:156] Memory required for data: 768295296
I0403 11:41:36.972512  6498 layer_factory.hpp:77] Creating layer inception_3b/relu_pool_proj
I0403 11:41:36.972538  6498 net.cpp:91] Creating Layer inception_3b/relu_pool_proj
I0403 11:41:36.972560  6498 net.cpp:425] inception_3b/relu_pool_proj <- inception_3b/pool_proj
I0403 11:41:36.972584  6498 net.cpp:386] inception_3b/relu_pool_proj -> inception_3b/pool_proj (in-place)
I0403 11:41:36.972611  6498 net.cpp:141] Setting up inception_3b/relu_pool_proj
I0403 11:41:36.972635  6498 net.cpp:148] Top shape: 24 64 28 28 (1204224)
I0403 11:41:36.972656  6498 net.cpp:156] Memory required for data: 773112192
I0403 11:41:36.972676  6498 layer_factory.hpp:77] Creating layer inception_3b/output
I0403 11:41:36.972705  6498 net.cpp:91] Creating Layer inception_3b/output
I0403 11:41:36.972728  6498 net.cpp:425] inception_3b/output <- inception_3b/1x1
I0403 11:41:36.972770  6498 net.cpp:425] inception_3b/output <- inception_3b/3x3
I0403 11:41:36.972795  6498 net.cpp:425] inception_3b/output <- inception_3b/5x5
I0403 11:41:36.972815  6498 net.cpp:425] inception_3b/output <- inception_3b/pool_proj
I0403 11:41:36.972839  6498 net.cpp:399] inception_3b/output -> inception_3b/output
I0403 11:41:36.972890  6498 net.cpp:141] Setting up inception_3b/output
I0403 11:41:36.972919  6498 net.cpp:148] Top shape: 24 480 28 28 (9031680)
I0403 11:41:36.972940  6498 net.cpp:156] Memory required for data: 809238912
I0403 11:41:36.972961  6498 layer_factory.hpp:77] Creating layer pool3/3x3_s2
I0403 11:41:36.972986  6498 net.cpp:91] Creating Layer pool3/3x3_s2
I0403 11:41:36.973007  6498 net.cpp:425] pool3/3x3_s2 <- inception_3b/output
I0403 11:41:36.973034  6498 net.cpp:399] pool3/3x3_s2 -> pool3/3x3_s2
I0403 11:41:36.973095  6498 net.cpp:141] Setting up pool3/3x3_s2
I0403 11:41:36.973127  6498 net.cpp:148] Top shape: 24 480 14 14 (2257920)
I0403 11:41:36.973150  6498 net.cpp:156] Memory required for data: 818270592
I0403 11:41:36.973171  6498 layer_factory.hpp:77] Creating layer pool3/3x3_s2_pool3/3x3_s2_0_split
I0403 11:41:36.973196  6498 net.cpp:91] Creating Layer pool3/3x3_s2_pool3/3x3_s2_0_split
I0403 11:41:36.973217  6498 net.cpp:425] pool3/3x3_s2_pool3/3x3_s2_0_split <- pool3/3x3_s2
I0403 11:41:36.973240  6498 net.cpp:399] pool3/3x3_s2_pool3/3x3_s2_0_split -> pool3/3x3_s2_pool3/3x3_s2_0_split_0
I0403 11:41:36.973268  6498 net.cpp:399] pool3/3x3_s2_pool3/3x3_s2_0_split -> pool3/3x3_s2_pool3/3x3_s2_0_split_1
I0403 11:41:36.973304  6498 net.cpp:399] pool3/3x3_s2_pool3/3x3_s2_0_split -> pool3/3x3_s2_pool3/3x3_s2_0_split_2
I0403 11:41:36.973337  6498 net.cpp:399] pool3/3x3_s2_pool3/3x3_s2_0_split -> pool3/3x3_s2_pool3/3x3_s2_0_split_3
I0403 11:41:36.973420  6498 net.cpp:141] Setting up pool3/3x3_s2_pool3/3x3_s2_0_split
I0403 11:41:36.973450  6498 net.cpp:148] Top shape: 24 480 14 14 (2257920)
I0403 11:41:36.973472  6498 net.cpp:148] Top shape: 24 480 14 14 (2257920)
I0403 11:41:36.973494  6498 net.cpp:148] Top shape: 24 480 14 14 (2257920)
I0403 11:41:36.973515  6498 net.cpp:148] Top shape: 24 480 14 14 (2257920)
I0403 11:41:36.973533  6498 net.cpp:156] Memory required for data: 854397312
I0403 11:41:36.973553  6498 layer_factory.hpp:77] Creating layer inception_4a/1x1
I0403 11:41:36.973587  6498 net.cpp:91] Creating Layer inception_4a/1x1
I0403 11:41:36.973613  6498 net.cpp:425] inception_4a/1x1 <- pool3/3x3_s2_pool3/3x3_s2_0_split_0
I0403 11:41:36.973641  6498 net.cpp:399] inception_4a/1x1 -> inception_4a/1x1
I0403 11:41:36.974503  6498 net.cpp:141] Setting up inception_4a/1x1
I0403 11:41:36.974537  6498 net.cpp:148] Top shape: 24 192 14 14 (903168)
I0403 11:41:36.974558  6498 net.cpp:156] Memory required for data: 858009984
I0403 11:41:36.974581  6498 layer_factory.hpp:77] Creating layer inception_4a/relu_1x1
I0403 11:41:36.974609  6498 net.cpp:91] Creating Layer inception_4a/relu_1x1
I0403 11:41:36.974632  6498 net.cpp:425] inception_4a/relu_1x1 <- inception_4a/1x1
I0403 11:41:36.974656  6498 net.cpp:386] inception_4a/relu_1x1 -> inception_4a/1x1 (in-place)
I0403 11:41:36.974683  6498 net.cpp:141] Setting up inception_4a/relu_1x1
I0403 11:41:36.974706  6498 net.cpp:148] Top shape: 24 192 14 14 (903168)
I0403 11:41:36.974725  6498 net.cpp:156] Memory required for data: 861622656
I0403 11:41:36.974745  6498 layer_factory.hpp:77] Creating layer inception_4a/3x3_reduce
I0403 11:41:36.974776  6498 net.cpp:91] Creating Layer inception_4a/3x3_reduce
I0403 11:41:36.974799  6498 net.cpp:425] inception_4a/3x3_reduce <- pool3/3x3_s2_pool3/3x3_s2_0_split_1
I0403 11:41:36.974830  6498 net.cpp:399] inception_4a/3x3_reduce -> inception_4a/3x3_reduce
I0403 11:41:36.975416  6498 net.cpp:141] Setting up inception_4a/3x3_reduce
I0403 11:41:36.975448  6498 net.cpp:148] Top shape: 24 96 14 14 (451584)
I0403 11:41:36.975469  6498 net.cpp:156] Memory required for data: 863428992
I0403 11:41:36.975500  6498 layer_factory.hpp:77] Creating layer inception_4a/relu_3x3_reduce
I0403 11:41:36.975543  6498 net.cpp:91] Creating Layer inception_4a/relu_3x3_reduce
I0403 11:41:36.975569  6498 net.cpp:425] inception_4a/relu_3x3_reduce <- inception_4a/3x3_reduce
I0403 11:41:36.975592  6498 net.cpp:386] inception_4a/relu_3x3_reduce -> inception_4a/3x3_reduce (in-place)
I0403 11:41:36.975617  6498 net.cpp:141] Setting up inception_4a/relu_3x3_reduce
I0403 11:41:36.975641  6498 net.cpp:148] Top shape: 24 96 14 14 (451584)
I0403 11:41:36.975661  6498 net.cpp:156] Memory required for data: 865235328
I0403 11:41:36.975682  6498 layer_factory.hpp:77] Creating layer inception_4a/3x3
I0403 11:41:36.975713  6498 net.cpp:91] Creating Layer inception_4a/3x3
I0403 11:41:36.975736  6498 net.cpp:425] inception_4a/3x3 <- inception_4a/3x3_reduce
I0403 11:41:36.975762  6498 net.cpp:399] inception_4a/3x3 -> inception_4a/3x3
I0403 11:41:36.977849  6498 net.cpp:141] Setting up inception_4a/3x3
I0403 11:41:36.977885  6498 net.cpp:148] Top shape: 24 208 14 14 (978432)
I0403 11:41:36.977905  6498 net.cpp:156] Memory required for data: 869149056
I0403 11:41:36.977929  6498 layer_factory.hpp:77] Creating layer inception_4a/relu_3x3
I0403 11:41:36.977958  6498 net.cpp:91] Creating Layer inception_4a/relu_3x3
I0403 11:41:36.977982  6498 net.cpp:425] inception_4a/relu_3x3 <- inception_4a/3x3
I0403 11:41:36.978005  6498 net.cpp:386] inception_4a/relu_3x3 -> inception_4a/3x3 (in-place)
I0403 11:41:36.978032  6498 net.cpp:141] Setting up inception_4a/relu_3x3
I0403 11:41:36.978055  6498 net.cpp:148] Top shape: 24 208 14 14 (978432)
I0403 11:41:36.978075  6498 net.cpp:156] Memory required for data: 873062784
I0403 11:41:36.978096  6498 layer_factory.hpp:77] Creating layer inception_4a/5x5_reduce
I0403 11:41:36.978126  6498 net.cpp:91] Creating Layer inception_4a/5x5_reduce
I0403 11:41:36.978149  6498 net.cpp:425] inception_4a/5x5_reduce <- pool3/3x3_s2_pool3/3x3_s2_0_split_2
I0403 11:41:36.978175  6498 net.cpp:399] inception_4a/5x5_reduce -> inception_4a/5x5_reduce
I0403 11:41:36.978487  6498 net.cpp:141] Setting up inception_4a/5x5_reduce
I0403 11:41:36.978523  6498 net.cpp:148] Top shape: 24 16 14 14 (75264)
I0403 11:41:36.978545  6498 net.cpp:156] Memory required for data: 873363840
I0403 11:41:36.978570  6498 layer_factory.hpp:77] Creating layer inception_4a/relu_5x5_reduce
I0403 11:41:36.978595  6498 net.cpp:91] Creating Layer inception_4a/relu_5x5_reduce
I0403 11:41:36.978617  6498 net.cpp:425] inception_4a/relu_5x5_reduce <- inception_4a/5x5_reduce
I0403 11:41:36.978641  6498 net.cpp:386] inception_4a/relu_5x5_reduce -> inception_4a/5x5_reduce (in-place)
I0403 11:41:36.978667  6498 net.cpp:141] Setting up inception_4a/relu_5x5_reduce
I0403 11:41:36.978691  6498 net.cpp:148] Top shape: 24 16 14 14 (75264)
I0403 11:41:36.978711  6498 net.cpp:156] Memory required for data: 873664896
I0403 11:41:36.978730  6498 layer_factory.hpp:77] Creating layer inception_4a/5x5
I0403 11:41:36.978765  6498 net.cpp:91] Creating Layer inception_4a/5x5
I0403 11:41:36.978788  6498 net.cpp:425] inception_4a/5x5 <- inception_4a/5x5_reduce
I0403 11:41:36.978818  6498 net.cpp:399] inception_4a/5x5 -> inception_4a/5x5
I0403 11:41:36.979203  6498 net.cpp:141] Setting up inception_4a/5x5
I0403 11:41:36.979236  6498 net.cpp:148] Top shape: 24 48 14 14 (225792)
I0403 11:41:36.979257  6498 net.cpp:156] Memory required for data: 874568064
I0403 11:41:36.979280  6498 layer_factory.hpp:77] Creating layer inception_4a/relu_5x5
I0403 11:41:36.979313  6498 net.cpp:91] Creating Layer inception_4a/relu_5x5
I0403 11:41:36.979337  6498 net.cpp:425] inception_4a/relu_5x5 <- inception_4a/5x5
I0403 11:41:36.979362  6498 net.cpp:386] inception_4a/relu_5x5 -> inception_4a/5x5 (in-place)
I0403 11:41:36.979388  6498 net.cpp:141] Setting up inception_4a/relu_5x5
I0403 11:41:36.979413  6498 net.cpp:148] Top shape: 24 48 14 14 (225792)
I0403 11:41:36.979451  6498 net.cpp:156] Memory required for data: 875471232
I0403 11:41:36.979475  6498 layer_factory.hpp:77] Creating layer inception_4a/pool
I0403 11:41:36.979504  6498 net.cpp:91] Creating Layer inception_4a/pool
I0403 11:41:36.979528  6498 net.cpp:425] inception_4a/pool <- pool3/3x3_s2_pool3/3x3_s2_0_split_3
I0403 11:41:36.979573  6498 net.cpp:399] inception_4a/pool -> inception_4a/pool
I0403 11:41:36.979637  6498 net.cpp:141] Setting up inception_4a/pool
I0403 11:41:36.979671  6498 net.cpp:148] Top shape: 24 480 14 14 (2257920)
I0403 11:41:36.979693  6498 net.cpp:156] Memory required for data: 884502912
I0403 11:41:36.979714  6498 layer_factory.hpp:77] Creating layer inception_4a/pool_proj
I0403 11:41:36.979742  6498 net.cpp:91] Creating Layer inception_4a/pool_proj
I0403 11:41:36.979765  6498 net.cpp:425] inception_4a/pool_proj <- inception_4a/pool
I0403 11:41:36.979794  6498 net.cpp:399] inception_4a/pool_proj -> inception_4a/pool_proj
I0403 11:41:36.980255  6498 net.cpp:141] Setting up inception_4a/pool_proj
I0403 11:41:36.980291  6498 net.cpp:148] Top shape: 24 64 14 14 (301056)
I0403 11:41:36.980314  6498 net.cpp:156] Memory required for data: 885707136
I0403 11:41:36.980337  6498 layer_factory.hpp:77] Creating layer inception_4a/relu_pool_proj
I0403 11:41:36.980363  6498 net.cpp:91] Creating Layer inception_4a/relu_pool_proj
I0403 11:41:36.980386  6498 net.cpp:425] inception_4a/relu_pool_proj <- inception_4a/pool_proj
I0403 11:41:36.980409  6498 net.cpp:386] inception_4a/relu_pool_proj -> inception_4a/pool_proj (in-place)
I0403 11:41:36.980437  6498 net.cpp:141] Setting up inception_4a/relu_pool_proj
I0403 11:41:36.980463  6498 net.cpp:148] Top shape: 24 64 14 14 (301056)
I0403 11:41:36.980481  6498 net.cpp:156] Memory required for data: 886911360
I0403 11:41:36.980501  6498 layer_factory.hpp:77] Creating layer inception_4a/output
I0403 11:41:36.980525  6498 net.cpp:91] Creating Layer inception_4a/output
I0403 11:41:36.980546  6498 net.cpp:425] inception_4a/output <- inception_4a/1x1
I0403 11:41:36.980568  6498 net.cpp:425] inception_4a/output <- inception_4a/3x3
I0403 11:41:36.980590  6498 net.cpp:425] inception_4a/output <- inception_4a/5x5
I0403 11:41:36.980612  6498 net.cpp:425] inception_4a/output <- inception_4a/pool_proj
I0403 11:41:36.980635  6498 net.cpp:399] inception_4a/output -> inception_4a/output
I0403 11:41:36.980686  6498 net.cpp:141] Setting up inception_4a/output
I0403 11:41:36.980716  6498 net.cpp:148] Top shape: 24 512 14 14 (2408448)
I0403 11:41:36.980737  6498 net.cpp:156] Memory required for data: 896545152
I0403 11:41:36.980757  6498 layer_factory.hpp:77] Creating layer inception_4a/output_inception_4a/output_0_split
I0403 11:41:36.980782  6498 net.cpp:91] Creating Layer inception_4a/output_inception_4a/output_0_split
I0403 11:41:36.980804  6498 net.cpp:425] inception_4a/output_inception_4a/output_0_split <- inception_4a/output
I0403 11:41:36.980832  6498 net.cpp:399] inception_4a/output_inception_4a/output_0_split -> inception_4a/output_inception_4a/output_0_split_0
I0403 11:41:36.980859  6498 net.cpp:399] inception_4a/output_inception_4a/output_0_split -> inception_4a/output_inception_4a/output_0_split_1
I0403 11:41:36.980887  6498 net.cpp:399] inception_4a/output_inception_4a/output_0_split -> inception_4a/output_inception_4a/output_0_split_2
I0403 11:41:36.980916  6498 net.cpp:399] inception_4a/output_inception_4a/output_0_split -> inception_4a/output_inception_4a/output_0_split_3
I0403 11:41:36.980942  6498 net.cpp:399] inception_4a/output_inception_4a/output_0_split -> inception_4a/output_inception_4a/output_0_split_4
I0403 11:41:36.981036  6498 net.cpp:141] Setting up inception_4a/output_inception_4a/output_0_split
I0403 11:41:36.981066  6498 net.cpp:148] Top shape: 24 512 14 14 (2408448)
I0403 11:41:36.981088  6498 net.cpp:148] Top shape: 24 512 14 14 (2408448)
I0403 11:41:36.981109  6498 net.cpp:148] Top shape: 24 512 14 14 (2408448)
I0403 11:41:36.981129  6498 net.cpp:148] Top shape: 24 512 14 14 (2408448)
I0403 11:41:36.981150  6498 net.cpp:148] Top shape: 24 512 14 14 (2408448)
I0403 11:41:36.981170  6498 net.cpp:156] Memory required for data: 944714112
I0403 11:41:36.981190  6498 layer_factory.hpp:77] Creating layer loss1/ave_pool
I0403 11:41:36.981215  6498 net.cpp:91] Creating Layer loss1/ave_pool
I0403 11:41:36.981252  6498 net.cpp:425] loss1/ave_pool <- inception_4a/output_inception_4a/output_0_split_0
I0403 11:41:36.981281  6498 net.cpp:399] loss1/ave_pool -> loss1/ave_pool
I0403 11:41:36.981335  6498 net.cpp:141] Setting up loss1/ave_pool
I0403 11:41:36.981369  6498 net.cpp:148] Top shape: 24 512 4 4 (196608)
I0403 11:41:36.981389  6498 net.cpp:156] Memory required for data: 945500544
I0403 11:41:36.981411  6498 layer_factory.hpp:77] Creating layer loss1/conv
I0403 11:41:36.981439  6498 net.cpp:91] Creating Layer loss1/conv
I0403 11:41:36.981462  6498 net.cpp:425] loss1/conv <- loss1/ave_pool
I0403 11:41:36.981490  6498 net.cpp:399] loss1/conv -> loss1/conv
I0403 11:41:36.982203  6498 net.cpp:141] Setting up loss1/conv
I0403 11:41:36.982235  6498 net.cpp:148] Top shape: 24 128 4 4 (49152)
I0403 11:41:36.982256  6498 net.cpp:156] Memory required for data: 945697152
I0403 11:41:36.982280  6498 layer_factory.hpp:77] Creating layer loss1/relu_conv
I0403 11:41:36.982311  6498 net.cpp:91] Creating Layer loss1/relu_conv
I0403 11:41:36.982334  6498 net.cpp:425] loss1/relu_conv <- loss1/conv
I0403 11:41:36.982358  6498 net.cpp:386] loss1/relu_conv -> loss1/conv (in-place)
I0403 11:41:36.982383  6498 net.cpp:141] Setting up loss1/relu_conv
I0403 11:41:36.982406  6498 net.cpp:148] Top shape: 24 128 4 4 (49152)
I0403 11:41:36.982427  6498 net.cpp:156] Memory required for data: 945893760
I0403 11:41:36.982447  6498 layer_factory.hpp:77] Creating layer loss1/fc
I0403 11:41:36.982481  6498 net.cpp:91] Creating Layer loss1/fc
I0403 11:41:36.982506  6498 net.cpp:425] loss1/fc <- loss1/conv
I0403 11:41:36.982529  6498 net.cpp:399] loss1/fc -> loss1/fc
I0403 11:41:37.002249  6498 net.cpp:141] Setting up loss1/fc
I0403 11:41:37.002305  6498 net.cpp:148] Top shape: 24 1024 (24576)
I0403 11:41:37.002329  6498 net.cpp:156] Memory required for data: 945992064
I0403 11:41:37.002356  6498 layer_factory.hpp:77] Creating layer loss1/relu_fc
I0403 11:41:37.002382  6498 net.cpp:91] Creating Layer loss1/relu_fc
I0403 11:41:37.002403  6498 net.cpp:425] loss1/relu_fc <- loss1/fc
I0403 11:41:37.002427  6498 net.cpp:386] loss1/relu_fc -> loss1/fc (in-place)
I0403 11:41:37.002456  6498 net.cpp:141] Setting up loss1/relu_fc
I0403 11:41:37.002481  6498 net.cpp:148] Top shape: 24 1024 (24576)
I0403 11:41:37.002502  6498 net.cpp:156] Memory required for data: 946090368
I0403 11:41:37.002522  6498 layer_factory.hpp:77] Creating layer loss1/drop_fc
I0403 11:41:37.002559  6498 net.cpp:91] Creating Layer loss1/drop_fc
I0403 11:41:37.002584  6498 net.cpp:425] loss1/drop_fc <- loss1/fc
I0403 11:41:37.002609  6498 net.cpp:386] loss1/drop_fc -> loss1/fc (in-place)
I0403 11:41:37.002668  6498 net.cpp:141] Setting up loss1/drop_fc
I0403 11:41:37.002701  6498 net.cpp:148] Top shape: 24 1024 (24576)
I0403 11:41:37.002722  6498 net.cpp:156] Memory required for data: 946188672
I0403 11:41:37.002743  6498 layer_factory.hpp:77] Creating layer loss1/classifier_plantvillage
I0403 11:41:37.002768  6498 net.cpp:91] Creating Layer loss1/classifier_plantvillage
I0403 11:41:37.002791  6498 net.cpp:425] loss1/classifier_plantvillage <- loss1/fc
I0403 11:41:37.002820  6498 net.cpp:399] loss1/classifier_plantvillage -> loss1/classifier_plantvillage
I0403 11:41:37.003847  6498 net.cpp:141] Setting up loss1/classifier_plantvillage
I0403 11:41:37.003882  6498 net.cpp:148] Top shape: 24 38 (912)
I0403 11:41:37.003903  6498 net.cpp:156] Memory required for data: 946192320
I0403 11:41:37.003927  6498 layer_factory.hpp:77] Creating layer inception_4b/1x1
I0403 11:41:37.003960  6498 net.cpp:91] Creating Layer inception_4b/1x1
I0403 11:41:37.003984  6498 net.cpp:425] inception_4b/1x1 <- inception_4a/output_inception_4a/output_0_split_1
I0403 11:41:37.004014  6498 net.cpp:399] inception_4b/1x1 -> inception_4b/1x1
I0403 11:41:37.004844  6498 net.cpp:141] Setting up inception_4b/1x1
I0403 11:41:37.004878  6498 net.cpp:148] Top shape: 24 160 14 14 (752640)
I0403 11:41:37.004899  6498 net.cpp:156] Memory required for data: 949202880
I0403 11:41:37.004922  6498 layer_factory.hpp:77] Creating layer inception_4b/relu_1x1
I0403 11:41:37.004967  6498 net.cpp:91] Creating Layer inception_4b/relu_1x1
I0403 11:41:37.004992  6498 net.cpp:425] inception_4b/relu_1x1 <- inception_4b/1x1
I0403 11:41:37.005017  6498 net.cpp:386] inception_4b/relu_1x1 -> inception_4b/1x1 (in-place)
I0403 11:41:37.005041  6498 net.cpp:141] Setting up inception_4b/relu_1x1
I0403 11:41:37.005065  6498 net.cpp:148] Top shape: 24 160 14 14 (752640)
I0403 11:41:37.005084  6498 net.cpp:156] Memory required for data: 952213440
I0403 11:41:37.005105  6498 layer_factory.hpp:77] Creating layer inception_4b/3x3_reduce
I0403 11:41:37.005139  6498 net.cpp:91] Creating Layer inception_4b/3x3_reduce
I0403 11:41:37.005163  6498 net.cpp:425] inception_4b/3x3_reduce <- inception_4a/output_inception_4a/output_0_split_2
I0403 11:41:37.005192  6498 net.cpp:399] inception_4b/3x3_reduce -> inception_4b/3x3_reduce
I0403 11:41:37.005846  6498 net.cpp:141] Setting up inception_4b/3x3_reduce
I0403 11:41:37.005878  6498 net.cpp:148] Top shape: 24 112 14 14 (526848)
I0403 11:41:37.005899  6498 net.cpp:156] Memory required for data: 954320832
I0403 11:41:37.005923  6498 layer_factory.hpp:77] Creating layer inception_4b/relu_3x3_reduce
I0403 11:41:37.005949  6498 net.cpp:91] Creating Layer inception_4b/relu_3x3_reduce
I0403 11:41:37.005971  6498 net.cpp:425] inception_4b/relu_3x3_reduce <- inception_4b/3x3_reduce
I0403 11:41:37.005995  6498 net.cpp:386] inception_4b/relu_3x3_reduce -> inception_4b/3x3_reduce (in-place)
I0403 11:41:37.006021  6498 net.cpp:141] Setting up inception_4b/relu_3x3_reduce
I0403 11:41:37.006044  6498 net.cpp:148] Top shape: 24 112 14 14 (526848)
I0403 11:41:37.006063  6498 net.cpp:156] Memory required for data: 956428224
I0403 11:41:37.006083  6498 layer_factory.hpp:77] Creating layer inception_4b/3x3
I0403 11:41:37.006114  6498 net.cpp:91] Creating Layer inception_4b/3x3
I0403 11:41:37.006139  6498 net.cpp:425] inception_4b/3x3 <- inception_4b/3x3_reduce
I0403 11:41:37.006167  6498 net.cpp:399] inception_4b/3x3 -> inception_4b/3x3
I0403 11:41:37.008568  6498 net.cpp:141] Setting up inception_4b/3x3
I0403 11:41:37.008604  6498 net.cpp:148] Top shape: 24 224 14 14 (1053696)
I0403 11:41:37.008625  6498 net.cpp:156] Memory required for data: 960643008
I0403 11:41:37.008648  6498 layer_factory.hpp:77] Creating layer inception_4b/relu_3x3
I0403 11:41:37.008674  6498 net.cpp:91] Creating Layer inception_4b/relu_3x3
I0403 11:41:37.008697  6498 net.cpp:425] inception_4b/relu_3x3 <- inception_4b/3x3
I0403 11:41:37.008720  6498 net.cpp:386] inception_4b/relu_3x3 -> inception_4b/3x3 (in-place)
I0403 11:41:37.008746  6498 net.cpp:141] Setting up inception_4b/relu_3x3
I0403 11:41:37.008769  6498 net.cpp:148] Top shape: 24 224 14 14 (1053696)
I0403 11:41:37.008790  6498 net.cpp:156] Memory required for data: 964857792
I0403 11:41:37.008810  6498 layer_factory.hpp:77] Creating layer inception_4b/5x5_reduce
I0403 11:41:37.008841  6498 net.cpp:91] Creating Layer inception_4b/5x5_reduce
I0403 11:41:37.008867  6498 net.cpp:425] inception_4b/5x5_reduce <- inception_4a/output_inception_4a/output_0_split_3
I0403 11:41:37.008894  6498 net.cpp:399] inception_4b/5x5_reduce -> inception_4b/5x5_reduce
I0403 11:41:37.009249  6498 net.cpp:141] Setting up inception_4b/5x5_reduce
I0403 11:41:37.009282  6498 net.cpp:148] Top shape: 24 24 14 14 (112896)
I0403 11:41:37.009310  6498 net.cpp:156] Memory required for data: 965309376
I0403 11:41:37.009335  6498 layer_factory.hpp:77] Creating layer inception_4b/relu_5x5_reduce
I0403 11:41:37.009362  6498 net.cpp:91] Creating Layer inception_4b/relu_5x5_reduce
I0403 11:41:37.009385  6498 net.cpp:425] inception_4b/relu_5x5_reduce <- inception_4b/5x5_reduce
I0403 11:41:37.009410  6498 net.cpp:386] inception_4b/relu_5x5_reduce -> inception_4b/5x5_reduce (in-place)
I0403 11:41:37.009438  6498 net.cpp:141] Setting up inception_4b/relu_5x5_reduce
I0403 11:41:37.009460  6498 net.cpp:148] Top shape: 24 24 14 14 (112896)
I0403 11:41:37.009480  6498 net.cpp:156] Memory required for data: 965760960
I0403 11:41:37.009500  6498 layer_factory.hpp:77] Creating layer inception_4b/5x5
I0403 11:41:37.009549  6498 net.cpp:91] Creating Layer inception_4b/5x5
I0403 11:41:37.009575  6498 net.cpp:425] inception_4b/5x5 <- inception_4b/5x5_reduce
I0403 11:41:37.009605  6498 net.cpp:399] inception_4b/5x5 -> inception_4b/5x5
I0403 11:41:37.010125  6498 net.cpp:141] Setting up inception_4b/5x5
I0403 11:41:37.010157  6498 net.cpp:148] Top shape: 24 64 14 14 (301056)
I0403 11:41:37.010179  6498 net.cpp:156] Memory required for data: 966965184
I0403 11:41:37.010201  6498 layer_factory.hpp:77] Creating layer inception_4b/relu_5x5
I0403 11:41:37.010226  6498 net.cpp:91] Creating Layer inception_4b/relu_5x5
I0403 11:41:37.010248  6498 net.cpp:425] inception_4b/relu_5x5 <- inception_4b/5x5
I0403 11:41:37.010272  6498 net.cpp:386] inception_4b/relu_5x5 -> inception_4b/5x5 (in-place)
I0403 11:41:37.010303  6498 net.cpp:141] Setting up inception_4b/relu_5x5
I0403 11:41:37.010329  6498 net.cpp:148] Top shape: 24 64 14 14 (301056)
I0403 11:41:37.010349  6498 net.cpp:156] Memory required for data: 968169408
I0403 11:41:37.010367  6498 layer_factory.hpp:77] Creating layer inception_4b/pool
I0403 11:41:37.010395  6498 net.cpp:91] Creating Layer inception_4b/pool
I0403 11:41:37.010418  6498 net.cpp:425] inception_4b/pool <- inception_4a/output_inception_4a/output_0_split_4
I0403 11:41:37.010443  6498 net.cpp:399] inception_4b/pool -> inception_4b/pool
I0403 11:41:37.010509  6498 net.cpp:141] Setting up inception_4b/pool
I0403 11:41:37.010540  6498 net.cpp:148] Top shape: 24 512 14 14 (2408448)
I0403 11:41:37.010560  6498 net.cpp:156] Memory required for data: 977803200
I0403 11:41:37.010581  6498 layer_factory.hpp:77] Creating layer inception_4b/pool_proj
I0403 11:41:37.010610  6498 net.cpp:91] Creating Layer inception_4b/pool_proj
I0403 11:41:37.010635  6498 net.cpp:425] inception_4b/pool_proj <- inception_4b/pool
I0403 11:41:37.010661  6498 net.cpp:399] inception_4b/pool_proj -> inception_4b/pool_proj
I0403 11:41:37.011148  6498 net.cpp:141] Setting up inception_4b/pool_proj
I0403 11:41:37.011183  6498 net.cpp:148] Top shape: 24 64 14 14 (301056)
I0403 11:41:37.011203  6498 net.cpp:156] Memory required for data: 979007424
I0403 11:41:37.011227  6498 layer_factory.hpp:77] Creating layer inception_4b/relu_pool_proj
I0403 11:41:37.011253  6498 net.cpp:91] Creating Layer inception_4b/relu_pool_proj
I0403 11:41:37.011277  6498 net.cpp:425] inception_4b/relu_pool_proj <- inception_4b/pool_proj
I0403 11:41:37.011309  6498 net.cpp:386] inception_4b/relu_pool_proj -> inception_4b/pool_proj (in-place)
I0403 11:41:37.011338  6498 net.cpp:141] Setting up inception_4b/relu_pool_proj
I0403 11:41:37.011363  6498 net.cpp:148] Top shape: 24 64 14 14 (301056)
I0403 11:41:37.011382  6498 net.cpp:156] Memory required for data: 980211648
I0403 11:41:37.011402  6498 layer_factory.hpp:77] Creating layer inception_4b/output
I0403 11:41:37.011426  6498 net.cpp:91] Creating Layer inception_4b/output
I0403 11:41:37.011447  6498 net.cpp:425] inception_4b/output <- inception_4b/1x1
I0403 11:41:37.011469  6498 net.cpp:425] inception_4b/output <- inception_4b/3x3
I0403 11:41:37.011492  6498 net.cpp:425] inception_4b/output <- inception_4b/5x5
I0403 11:41:37.011514  6498 net.cpp:425] inception_4b/output <- inception_4b/pool_proj
I0403 11:41:37.011539  6498 net.cpp:399] inception_4b/output -> inception_4b/output
I0403 11:41:37.011590  6498 net.cpp:141] Setting up inception_4b/output
I0403 11:41:37.011621  6498 net.cpp:148] Top shape: 24 512 14 14 (2408448)
I0403 11:41:37.011641  6498 net.cpp:156] Memory required for data: 989845440
I0403 11:41:37.011662  6498 layer_factory.hpp:77] Creating layer inception_4b/output_inception_4b/output_0_split
I0403 11:41:37.011685  6498 net.cpp:91] Creating Layer inception_4b/output_inception_4b/output_0_split
I0403 11:41:37.011708  6498 net.cpp:425] inception_4b/output_inception_4b/output_0_split <- inception_4b/output
I0403 11:41:37.011735  6498 net.cpp:399] inception_4b/output_inception_4b/output_0_split -> inception_4b/output_inception_4b/output_0_split_0
I0403 11:41:37.011765  6498 net.cpp:399] inception_4b/output_inception_4b/output_0_split -> inception_4b/output_inception_4b/output_0_split_1
I0403 11:41:37.011807  6498 net.cpp:399] inception_4b/output_inception_4b/output_0_split -> inception_4b/output_inception_4b/output_0_split_2
I0403 11:41:37.011837  6498 net.cpp:399] inception_4b/output_inception_4b/output_0_split -> inception_4b/output_inception_4b/output_0_split_3
I0403 11:41:37.011925  6498 net.cpp:141] Setting up inception_4b/output_inception_4b/output_0_split
I0403 11:41:37.011955  6498 net.cpp:148] Top shape: 24 512 14 14 (2408448)
I0403 11:41:37.011979  6498 net.cpp:148] Top shape: 24 512 14 14 (2408448)
I0403 11:41:37.012001  6498 net.cpp:148] Top shape: 24 512 14 14 (2408448)
I0403 11:41:37.012022  6498 net.cpp:148] Top shape: 24 512 14 14 (2408448)
I0403 11:41:37.012039  6498 net.cpp:156] Memory required for data: 1028380608
I0403 11:41:37.012059  6498 layer_factory.hpp:77] Creating layer inception_4c/1x1
I0403 11:41:37.012089  6498 net.cpp:91] Creating Layer inception_4c/1x1
I0403 11:41:37.012115  6498 net.cpp:425] inception_4c/1x1 <- inception_4b/output_inception_4b/output_0_split_0
I0403 11:41:37.012141  6498 net.cpp:399] inception_4c/1x1 -> inception_4c/1x1
I0403 11:41:37.012840  6498 net.cpp:141] Setting up inception_4c/1x1
I0403 11:41:37.012872  6498 net.cpp:148] Top shape: 24 128 14 14 (602112)
I0403 11:41:37.012894  6498 net.cpp:156] Memory required for data: 1030789056
I0403 11:41:37.012918  6498 layer_factory.hpp:77] Creating layer inception_4c/relu_1x1
I0403 11:41:37.012943  6498 net.cpp:91] Creating Layer inception_4c/relu_1x1
I0403 11:41:37.012966  6498 net.cpp:425] inception_4c/relu_1x1 <- inception_4c/1x1
I0403 11:41:37.012995  6498 net.cpp:386] inception_4c/relu_1x1 -> inception_4c/1x1 (in-place)
I0403 11:41:37.013021  6498 net.cpp:141] Setting up inception_4c/relu_1x1
I0403 11:41:37.013046  6498 net.cpp:148] Top shape: 24 128 14 14 (602112)
I0403 11:41:37.013065  6498 net.cpp:156] Memory required for data: 1033197504
I0403 11:41:37.013084  6498 layer_factory.hpp:77] Creating layer inception_4c/3x3_reduce
I0403 11:41:37.013115  6498 net.cpp:91] Creating Layer inception_4c/3x3_reduce
I0403 11:41:37.013139  6498 net.cpp:425] inception_4c/3x3_reduce <- inception_4b/output_inception_4b/output_0_split_1
I0403 11:41:37.013164  6498 net.cpp:399] inception_4c/3x3_reduce -> inception_4c/3x3_reduce
I0403 11:41:37.014503  6498 net.cpp:141] Setting up inception_4c/3x3_reduce
I0403 11:41:37.014539  6498 net.cpp:148] Top shape: 24 128 14 14 (602112)
I0403 11:41:37.014560  6498 net.cpp:156] Memory required for data: 1035605952
I0403 11:41:37.014585  6498 layer_factory.hpp:77] Creating layer inception_4c/relu_3x3_reduce
I0403 11:41:37.014611  6498 net.cpp:91] Creating Layer inception_4c/relu_3x3_reduce
I0403 11:41:37.014632  6498 net.cpp:425] inception_4c/relu_3x3_reduce <- inception_4c/3x3_reduce
I0403 11:41:37.014655  6498 net.cpp:386] inception_4c/relu_3x3_reduce -> inception_4c/3x3_reduce (in-place)
I0403 11:41:37.014681  6498 net.cpp:141] Setting up inception_4c/relu_3x3_reduce
I0403 11:41:37.014704  6498 net.cpp:148] Top shape: 24 128 14 14 (602112)
I0403 11:41:37.014725  6498 net.cpp:156] Memory required for data: 1038014400
I0403 11:41:37.014745  6498 layer_factory.hpp:77] Creating layer inception_4c/3x3
I0403 11:41:37.014775  6498 net.cpp:91] Creating Layer inception_4c/3x3
I0403 11:41:37.014799  6498 net.cpp:425] inception_4c/3x3 <- inception_4c/3x3_reduce
I0403 11:41:37.014827  6498 net.cpp:399] inception_4c/3x3 -> inception_4c/3x3
I0403 11:41:37.017757  6498 net.cpp:141] Setting up inception_4c/3x3
I0403 11:41:37.017793  6498 net.cpp:148] Top shape: 24 256 14 14 (1204224)
I0403 11:41:37.017817  6498 net.cpp:156] Memory required for data: 1042831296
I0403 11:41:37.017856  6498 layer_factory.hpp:77] Creating layer inception_4c/relu_3x3
I0403 11:41:37.017886  6498 net.cpp:91] Creating Layer inception_4c/relu_3x3
I0403 11:41:37.017910  6498 net.cpp:425] inception_4c/relu_3x3 <- inception_4c/3x3
I0403 11:41:37.017933  6498 net.cpp:386] inception_4c/relu_3x3 -> inception_4c/3x3 (in-place)
I0403 11:41:37.017977  6498 net.cpp:141] Setting up inception_4c/relu_3x3
I0403 11:41:37.018003  6498 net.cpp:148] Top shape: 24 256 14 14 (1204224)
I0403 11:41:37.018024  6498 net.cpp:156] Memory required for data: 1047648192
I0403 11:41:37.018044  6498 layer_factory.hpp:77] Creating layer inception_4c/5x5_reduce
I0403 11:41:37.018075  6498 net.cpp:91] Creating Layer inception_4c/5x5_reduce
I0403 11:41:37.018100  6498 net.cpp:425] inception_4c/5x5_reduce <- inception_4b/output_inception_4b/output_0_split_2
I0403 11:41:37.018126  6498 net.cpp:399] inception_4c/5x5_reduce -> inception_4c/5x5_reduce
I0403 11:41:37.018481  6498 net.cpp:141] Setting up inception_4c/5x5_reduce
I0403 11:41:37.018514  6498 net.cpp:148] Top shape: 24 24 14 14 (112896)
I0403 11:41:37.018535  6498 net.cpp:156] Memory required for data: 1048099776
I0403 11:41:37.018559  6498 layer_factory.hpp:77] Creating layer inception_4c/relu_5x5_reduce
I0403 11:41:37.018584  6498 net.cpp:91] Creating Layer inception_4c/relu_5x5_reduce
I0403 11:41:37.018607  6498 net.cpp:425] inception_4c/relu_5x5_reduce <- inception_4c/5x5_reduce
I0403 11:41:37.018635  6498 net.cpp:386] inception_4c/relu_5x5_reduce -> inception_4c/5x5_reduce (in-place)
I0403 11:41:37.018662  6498 net.cpp:141] Setting up inception_4c/relu_5x5_reduce
I0403 11:41:37.018687  6498 net.cpp:148] Top shape: 24 24 14 14 (112896)
I0403 11:41:37.018705  6498 net.cpp:156] Memory required for data: 1048551360
I0403 11:41:37.018725  6498 layer_factory.hpp:77] Creating layer inception_4c/5x5
I0403 11:41:37.018755  6498 net.cpp:91] Creating Layer inception_4c/5x5
I0403 11:41:37.018780  6498 net.cpp:425] inception_4c/5x5 <- inception_4c/5x5_reduce
I0403 11:41:37.018806  6498 net.cpp:399] inception_4c/5x5 -> inception_4c/5x5
I0403 11:41:37.019337  6498 net.cpp:141] Setting up inception_4c/5x5
I0403 11:41:37.019371  6498 net.cpp:148] Top shape: 24 64 14 14 (301056)
I0403 11:41:37.019392  6498 net.cpp:156] Memory required for data: 1049755584
I0403 11:41:37.019415  6498 layer_factory.hpp:77] Creating layer inception_4c/relu_5x5
I0403 11:41:37.019440  6498 net.cpp:91] Creating Layer inception_4c/relu_5x5
I0403 11:41:37.019462  6498 net.cpp:425] inception_4c/relu_5x5 <- inception_4c/5x5
I0403 11:41:37.019490  6498 net.cpp:386] inception_4c/relu_5x5 -> inception_4c/5x5 (in-place)
I0403 11:41:37.019517  6498 net.cpp:141] Setting up inception_4c/relu_5x5
I0403 11:41:37.019541  6498 net.cpp:148] Top shape: 24 64 14 14 (301056)
I0403 11:41:37.019561  6498 net.cpp:156] Memory required for data: 1050959808
I0403 11:41:37.019580  6498 layer_factory.hpp:77] Creating layer inception_4c/pool
I0403 11:41:37.019603  6498 net.cpp:91] Creating Layer inception_4c/pool
I0403 11:41:37.019625  6498 net.cpp:425] inception_4c/pool <- inception_4b/output_inception_4b/output_0_split_3
I0403 11:41:37.019652  6498 net.cpp:399] inception_4c/pool -> inception_4c/pool
I0403 11:41:37.019717  6498 net.cpp:141] Setting up inception_4c/pool
I0403 11:41:37.019748  6498 net.cpp:148] Top shape: 24 512 14 14 (2408448)
I0403 11:41:37.019768  6498 net.cpp:156] Memory required for data: 1060593600
I0403 11:41:37.019788  6498 layer_factory.hpp:77] Creating layer inception_4c/pool_proj
I0403 11:41:37.019819  6498 net.cpp:91] Creating Layer inception_4c/pool_proj
I0403 11:41:37.019842  6498 net.cpp:425] inception_4c/pool_proj <- inception_4c/pool
I0403 11:41:37.019871  6498 net.cpp:399] inception_4c/pool_proj -> inception_4c/pool_proj
I0403 11:41:37.020366  6498 net.cpp:141] Setting up inception_4c/pool_proj
I0403 11:41:37.020398  6498 net.cpp:148] Top shape: 24 64 14 14 (301056)
I0403 11:41:37.020419  6498 net.cpp:156] Memory required for data: 1061797824
I0403 11:41:37.020444  6498 layer_factory.hpp:77] Creating layer inception_4c/relu_pool_proj
I0403 11:41:37.020469  6498 net.cpp:91] Creating Layer inception_4c/relu_pool_proj
I0403 11:41:37.020491  6498 net.cpp:425] inception_4c/relu_pool_proj <- inception_4c/pool_proj
I0403 11:41:37.020516  6498 net.cpp:386] inception_4c/relu_pool_proj -> inception_4c/pool_proj (in-place)
I0403 11:41:37.020542  6498 net.cpp:141] Setting up inception_4c/relu_pool_proj
I0403 11:41:37.020582  6498 net.cpp:148] Top shape: 24 64 14 14 (301056)
I0403 11:41:37.020604  6498 net.cpp:156] Memory required for data: 1063002048
I0403 11:41:37.020625  6498 layer_factory.hpp:77] Creating layer inception_4c/output
I0403 11:41:37.020651  6498 net.cpp:91] Creating Layer inception_4c/output
I0403 11:41:37.020675  6498 net.cpp:425] inception_4c/output <- inception_4c/1x1
I0403 11:41:37.020697  6498 net.cpp:425] inception_4c/output <- inception_4c/3x3
I0403 11:41:37.020720  6498 net.cpp:425] inception_4c/output <- inception_4c/5x5
I0403 11:41:37.020742  6498 net.cpp:425] inception_4c/output <- inception_4c/pool_proj
I0403 11:41:37.020766  6498 net.cpp:399] inception_4c/output -> inception_4c/output
I0403 11:41:37.020819  6498 net.cpp:141] Setting up inception_4c/output
I0403 11:41:37.020849  6498 net.cpp:148] Top shape: 24 512 14 14 (2408448)
I0403 11:41:37.020870  6498 net.cpp:156] Memory required for data: 1072635840
I0403 11:41:37.020890  6498 layer_factory.hpp:77] Creating layer inception_4c/output_inception_4c/output_0_split
I0403 11:41:37.020915  6498 net.cpp:91] Creating Layer inception_4c/output_inception_4c/output_0_split
I0403 11:41:37.020937  6498 net.cpp:425] inception_4c/output_inception_4c/output_0_split <- inception_4c/output
I0403 11:41:37.020964  6498 net.cpp:399] inception_4c/output_inception_4c/output_0_split -> inception_4c/output_inception_4c/output_0_split_0
I0403 11:41:37.020994  6498 net.cpp:399] inception_4c/output_inception_4c/output_0_split -> inception_4c/output_inception_4c/output_0_split_1
I0403 11:41:37.021023  6498 net.cpp:399] inception_4c/output_inception_4c/output_0_split -> inception_4c/output_inception_4c/output_0_split_2
I0403 11:41:37.021050  6498 net.cpp:399] inception_4c/output_inception_4c/output_0_split -> inception_4c/output_inception_4c/output_0_split_3
I0403 11:41:37.021136  6498 net.cpp:141] Setting up inception_4c/output_inception_4c/output_0_split
I0403 11:41:37.021168  6498 net.cpp:148] Top shape: 24 512 14 14 (2408448)
I0403 11:41:37.021193  6498 net.cpp:148] Top shape: 24 512 14 14 (2408448)
I0403 11:41:37.021214  6498 net.cpp:148] Top shape: 24 512 14 14 (2408448)
I0403 11:41:37.021234  6498 net.cpp:148] Top shape: 24 512 14 14 (2408448)
I0403 11:41:37.021252  6498 net.cpp:156] Memory required for data: 1111171008
I0403 11:41:37.021273  6498 layer_factory.hpp:77] Creating layer inception_4d/1x1
I0403 11:41:37.021309  6498 net.cpp:91] Creating Layer inception_4d/1x1
I0403 11:41:37.021334  6498 net.cpp:425] inception_4d/1x1 <- inception_4c/output_inception_4c/output_0_split_0
I0403 11:41:37.021360  6498 net.cpp:399] inception_4d/1x1 -> inception_4d/1x1
I0403 11:41:37.021997  6498 net.cpp:141] Setting up inception_4d/1x1
I0403 11:41:37.022030  6498 net.cpp:148] Top shape: 24 112 14 14 (526848)
I0403 11:41:37.022052  6498 net.cpp:156] Memory required for data: 1113278400
I0403 11:41:37.022075  6498 layer_factory.hpp:77] Creating layer inception_4d/relu_1x1
I0403 11:41:37.022100  6498 net.cpp:91] Creating Layer inception_4d/relu_1x1
I0403 11:41:37.022122  6498 net.cpp:425] inception_4d/relu_1x1 <- inception_4d/1x1
I0403 11:41:37.022150  6498 net.cpp:386] inception_4d/relu_1x1 -> inception_4d/1x1 (in-place)
I0403 11:41:37.022176  6498 net.cpp:141] Setting up inception_4d/relu_1x1
I0403 11:41:37.022200  6498 net.cpp:148] Top shape: 24 112 14 14 (526848)
I0403 11:41:37.022220  6498 net.cpp:156] Memory required for data: 1115385792
I0403 11:41:37.022241  6498 layer_factory.hpp:77] Creating layer inception_4d/3x3_reduce
I0403 11:41:37.022269  6498 net.cpp:91] Creating Layer inception_4d/3x3_reduce
I0403 11:41:37.022296  6498 net.cpp:425] inception_4d/3x3_reduce <- inception_4c/output_inception_4c/output_0_split_1
I0403 11:41:37.022328  6498 net.cpp:399] inception_4d/3x3_reduce -> inception_4d/3x3_reduce
I0403 11:41:37.023104  6498 net.cpp:141] Setting up inception_4d/3x3_reduce
I0403 11:41:37.023136  6498 net.cpp:148] Top shape: 24 144 14 14 (677376)
I0403 11:41:37.023159  6498 net.cpp:156] Memory required for data: 1118095296
I0403 11:41:37.023198  6498 layer_factory.hpp:77] Creating layer inception_4d/relu_3x3_reduce
I0403 11:41:37.023224  6498 net.cpp:91] Creating Layer inception_4d/relu_3x3_reduce
I0403 11:41:37.023247  6498 net.cpp:425] inception_4d/relu_3x3_reduce <- inception_4d/3x3_reduce
I0403 11:41:37.023273  6498 net.cpp:386] inception_4d/relu_3x3_reduce -> inception_4d/3x3_reduce (in-place)
I0403 11:41:37.023306  6498 net.cpp:141] Setting up inception_4d/relu_3x3_reduce
I0403 11:41:37.023331  6498 net.cpp:148] Top shape: 24 144 14 14 (677376)
I0403 11:41:37.023351  6498 net.cpp:156] Memory required for data: 1120804800
I0403 11:41:37.023370  6498 layer_factory.hpp:77] Creating layer inception_4d/3x3
I0403 11:41:37.023401  6498 net.cpp:91] Creating Layer inception_4d/3x3
I0403 11:41:37.023425  6498 net.cpp:425] inception_4d/3x3 <- inception_4d/3x3_reduce
I0403 11:41:37.023452  6498 net.cpp:399] inception_4d/3x3 -> inception_4d/3x3
I0403 11:41:37.027356  6498 net.cpp:141] Setting up inception_4d/3x3
I0403 11:41:37.027395  6498 net.cpp:148] Top shape: 24 288 14 14 (1354752)
I0403 11:41:37.027417  6498 net.cpp:156] Memory required for data: 1126223808
I0403 11:41:37.027441  6498 layer_factory.hpp:77] Creating layer inception_4d/relu_3x3
I0403 11:41:37.027467  6498 net.cpp:91] Creating Layer inception_4d/relu_3x3
I0403 11:41:37.027489  6498 net.cpp:425] inception_4d/relu_3x3 <- inception_4d/3x3
I0403 11:41:37.027514  6498 net.cpp:386] inception_4d/relu_3x3 -> inception_4d/3x3 (in-place)
I0403 11:41:37.027539  6498 net.cpp:141] Setting up inception_4d/relu_3x3
I0403 11:41:37.027562  6498 net.cpp:148] Top shape: 24 288 14 14 (1354752)
I0403 11:41:37.027581  6498 net.cpp:156] Memory required for data: 1131642816
I0403 11:41:37.027601  6498 layer_factory.hpp:77] Creating layer inception_4d/5x5_reduce
I0403 11:41:37.027631  6498 net.cpp:91] Creating Layer inception_4d/5x5_reduce
I0403 11:41:37.027657  6498 net.cpp:425] inception_4d/5x5_reduce <- inception_4c/output_inception_4c/output_0_split_2
I0403 11:41:37.027686  6498 net.cpp:399] inception_4d/5x5_reduce -> inception_4d/5x5_reduce
I0403 11:41:37.028076  6498 net.cpp:141] Setting up inception_4d/5x5_reduce
I0403 11:41:37.028108  6498 net.cpp:148] Top shape: 24 32 14 14 (150528)
I0403 11:41:37.028129  6498 net.cpp:156] Memory required for data: 1132244928
I0403 11:41:37.028153  6498 layer_factory.hpp:77] Creating layer inception_4d/relu_5x5_reduce
I0403 11:41:37.028182  6498 net.cpp:91] Creating Layer inception_4d/relu_5x5_reduce
I0403 11:41:37.028208  6498 net.cpp:425] inception_4d/relu_5x5_reduce <- inception_4d/5x5_reduce
I0403 11:41:37.028230  6498 net.cpp:386] inception_4d/relu_5x5_reduce -> inception_4d/5x5_reduce (in-place)
I0403 11:41:37.028256  6498 net.cpp:141] Setting up inception_4d/relu_5x5_reduce
I0403 11:41:37.028280  6498 net.cpp:148] Top shape: 24 32 14 14 (150528)
I0403 11:41:37.028306  6498 net.cpp:156] Memory required for data: 1132847040
I0403 11:41:37.028327  6498 layer_factory.hpp:77] Creating layer inception_4d/5x5
I0403 11:41:37.028359  6498 net.cpp:91] Creating Layer inception_4d/5x5
I0403 11:41:37.028383  6498 net.cpp:425] inception_4d/5x5 <- inception_4d/5x5_reduce
I0403 11:41:37.028408  6498 net.cpp:399] inception_4d/5x5 -> inception_4d/5x5
I0403 11:41:37.029018  6498 net.cpp:141] Setting up inception_4d/5x5
I0403 11:41:37.029053  6498 net.cpp:148] Top shape: 24 64 14 14 (301056)
I0403 11:41:37.029075  6498 net.cpp:156] Memory required for data: 1134051264
I0403 11:41:37.029099  6498 layer_factory.hpp:77] Creating layer inception_4d/relu_5x5
I0403 11:41:37.029124  6498 net.cpp:91] Creating Layer inception_4d/relu_5x5
I0403 11:41:37.029147  6498 net.cpp:425] inception_4d/relu_5x5 <- inception_4d/5x5
I0403 11:41:37.029171  6498 net.cpp:386] inception_4d/relu_5x5 -> inception_4d/5x5 (in-place)
I0403 11:41:37.029197  6498 net.cpp:141] Setting up inception_4d/relu_5x5
I0403 11:41:37.029220  6498 net.cpp:148] Top shape: 24 64 14 14 (301056)
I0403 11:41:37.029242  6498 net.cpp:156] Memory required for data: 1135255488
I0403 11:41:37.029263  6498 layer_factory.hpp:77] Creating layer inception_4d/pool
I0403 11:41:37.029309  6498 net.cpp:91] Creating Layer inception_4d/pool
I0403 11:41:37.029335  6498 net.cpp:425] inception_4d/pool <- inception_4c/output_inception_4c/output_0_split_3
I0403 11:41:37.029362  6498 net.cpp:399] inception_4d/pool -> inception_4d/pool
I0403 11:41:37.029430  6498 net.cpp:141] Setting up inception_4d/pool
I0403 11:41:37.029460  6498 net.cpp:148] Top shape: 24 512 14 14 (2408448)
I0403 11:41:37.029482  6498 net.cpp:156] Memory required for data: 1144889280
I0403 11:41:37.029503  6498 layer_factory.hpp:77] Creating layer inception_4d/pool_proj
I0403 11:41:37.029536  6498 net.cpp:91] Creating Layer inception_4d/pool_proj
I0403 11:41:37.029561  6498 net.cpp:425] inception_4d/pool_proj <- inception_4d/pool
I0403 11:41:37.029587  6498 net.cpp:399] inception_4d/pool_proj -> inception_4d/pool_proj
I0403 11:41:37.030709  6498 net.cpp:141] Setting up inception_4d/pool_proj
I0403 11:41:37.030745  6498 net.cpp:148] Top shape: 24 64 14 14 (301056)
I0403 11:41:37.030766  6498 net.cpp:156] Memory required for data: 1146093504
I0403 11:41:37.030791  6498 layer_factory.hpp:77] Creating layer inception_4d/relu_pool_proj
I0403 11:41:37.030817  6498 net.cpp:91] Creating Layer inception_4d/relu_pool_proj
I0403 11:41:37.030838  6498 net.cpp:425] inception_4d/relu_pool_proj <- inception_4d/pool_proj
I0403 11:41:37.030864  6498 net.cpp:386] inception_4d/relu_pool_proj -> inception_4d/pool_proj (in-place)
I0403 11:41:37.030894  6498 net.cpp:141] Setting up inception_4d/relu_pool_proj
I0403 11:41:37.030920  6498 net.cpp:148] Top shape: 24 64 14 14 (301056)
I0403 11:41:37.030938  6498 net.cpp:156] Memory required for data: 1147297728
I0403 11:41:37.030958  6498 layer_factory.hpp:77] Creating layer inception_4d/output
I0403 11:41:37.030983  6498 net.cpp:91] Creating Layer inception_4d/output
I0403 11:41:37.031004  6498 net.cpp:425] inception_4d/output <- inception_4d/1x1
I0403 11:41:37.031028  6498 net.cpp:425] inception_4d/output <- inception_4d/3x3
I0403 11:41:37.031049  6498 net.cpp:425] inception_4d/output <- inception_4d/5x5
I0403 11:41:37.031070  6498 net.cpp:425] inception_4d/output <- inception_4d/pool_proj
I0403 11:41:37.031093  6498 net.cpp:399] inception_4d/output -> inception_4d/output
I0403 11:41:37.031147  6498 net.cpp:141] Setting up inception_4d/output
I0403 11:41:37.031177  6498 net.cpp:148] Top shape: 24 528 14 14 (2483712)
I0403 11:41:37.031196  6498 net.cpp:156] Memory required for data: 1157232576
I0403 11:41:37.031218  6498 layer_factory.hpp:77] Creating layer inception_4d/output_inception_4d/output_0_split
I0403 11:41:37.031241  6498 net.cpp:91] Creating Layer inception_4d/output_inception_4d/output_0_split
I0403 11:41:37.031262  6498 net.cpp:425] inception_4d/output_inception_4d/output_0_split <- inception_4d/output
I0403 11:41:37.031294  6498 net.cpp:399] inception_4d/output_inception_4d/output_0_split -> inception_4d/output_inception_4d/output_0_split_0
I0403 11:41:37.031325  6498 net.cpp:399] inception_4d/output_inception_4d/output_0_split -> inception_4d/output_inception_4d/output_0_split_1
I0403 11:41:37.031354  6498 net.cpp:399] inception_4d/output_inception_4d/output_0_split -> inception_4d/output_inception_4d/output_0_split_2
I0403 11:41:37.031383  6498 net.cpp:399] inception_4d/output_inception_4d/output_0_split -> inception_4d/output_inception_4d/output_0_split_3
I0403 11:41:37.031409  6498 net.cpp:399] inception_4d/output_inception_4d/output_0_split -> inception_4d/output_inception_4d/output_0_split_4
I0403 11:41:37.031509  6498 net.cpp:141] Setting up inception_4d/output_inception_4d/output_0_split
I0403 11:41:37.031539  6498 net.cpp:148] Top shape: 24 528 14 14 (2483712)
I0403 11:41:37.031561  6498 net.cpp:148] Top shape: 24 528 14 14 (2483712)
I0403 11:41:37.031584  6498 net.cpp:148] Top shape: 24 528 14 14 (2483712)
I0403 11:41:37.031605  6498 net.cpp:148] Top shape: 24 528 14 14 (2483712)
I0403 11:41:37.031626  6498 net.cpp:148] Top shape: 24 528 14 14 (2483712)
I0403 11:41:37.031646  6498 net.cpp:156] Memory required for data: 1206906816
I0403 11:41:37.031684  6498 layer_factory.hpp:77] Creating layer loss2/ave_pool
I0403 11:41:37.031711  6498 net.cpp:91] Creating Layer loss2/ave_pool
I0403 11:41:37.031733  6498 net.cpp:425] loss2/ave_pool <- inception_4d/output_inception_4d/output_0_split_0
I0403 11:41:37.031761  6498 net.cpp:399] loss2/ave_pool -> loss2/ave_pool
I0403 11:41:37.031812  6498 net.cpp:141] Setting up loss2/ave_pool
I0403 11:41:37.031844  6498 net.cpp:148] Top shape: 24 528 4 4 (202752)
I0403 11:41:37.031867  6498 net.cpp:156] Memory required for data: 1207717824
I0403 11:41:37.031886  6498 layer_factory.hpp:77] Creating layer loss2/conv
I0403 11:41:37.031914  6498 net.cpp:91] Creating Layer loss2/conv
I0403 11:41:37.031937  6498 net.cpp:425] loss2/conv <- loss2/ave_pool
I0403 11:41:37.031966  6498 net.cpp:399] loss2/conv -> loss2/conv
I0403 11:41:37.033306  6498 net.cpp:141] Setting up loss2/conv
I0403 11:41:37.033342  6498 net.cpp:148] Top shape: 24 128 4 4 (49152)
I0403 11:41:37.033363  6498 net.cpp:156] Memory required for data: 1207914432
I0403 11:41:37.033387  6498 layer_factory.hpp:77] Creating layer loss2/relu_conv
I0403 11:41:37.033419  6498 net.cpp:91] Creating Layer loss2/relu_conv
I0403 11:41:37.033444  6498 net.cpp:425] loss2/relu_conv <- loss2/conv
I0403 11:41:37.033468  6498 net.cpp:386] loss2/relu_conv -> loss2/conv (in-place)
I0403 11:41:37.033493  6498 net.cpp:141] Setting up loss2/relu_conv
I0403 11:41:37.033519  6498 net.cpp:148] Top shape: 24 128 4 4 (49152)
I0403 11:41:37.033540  6498 net.cpp:156] Memory required for data: 1208111040
I0403 11:41:37.033560  6498 layer_factory.hpp:77] Creating layer loss2/fc
I0403 11:41:37.033588  6498 net.cpp:91] Creating Layer loss2/fc
I0403 11:41:37.033612  6498 net.cpp:425] loss2/fc <- loss2/conv
I0403 11:41:37.033637  6498 net.cpp:399] loss2/fc -> loss2/fc
I0403 11:41:37.053350  6498 net.cpp:141] Setting up loss2/fc
I0403 11:41:37.053398  6498 net.cpp:148] Top shape: 24 1024 (24576)
I0403 11:41:37.053419  6498 net.cpp:156] Memory required for data: 1208209344
I0403 11:41:37.053445  6498 layer_factory.hpp:77] Creating layer loss2/relu_fc
I0403 11:41:37.053472  6498 net.cpp:91] Creating Layer loss2/relu_fc
I0403 11:41:37.053495  6498 net.cpp:425] loss2/relu_fc <- loss2/fc
I0403 11:41:37.053524  6498 net.cpp:386] loss2/relu_fc -> loss2/fc (in-place)
I0403 11:41:37.053552  6498 net.cpp:141] Setting up loss2/relu_fc
I0403 11:41:37.053576  6498 net.cpp:148] Top shape: 24 1024 (24576)
I0403 11:41:37.053596  6498 net.cpp:156] Memory required for data: 1208307648
I0403 11:41:37.053617  6498 layer_factory.hpp:77] Creating layer loss2/drop_fc
I0403 11:41:37.053642  6498 net.cpp:91] Creating Layer loss2/drop_fc
I0403 11:41:37.053665  6498 net.cpp:425] loss2/drop_fc <- loss2/fc
I0403 11:41:37.053689  6498 net.cpp:386] loss2/drop_fc -> loss2/fc (in-place)
I0403 11:41:37.053741  6498 net.cpp:141] Setting up loss2/drop_fc
I0403 11:41:37.053771  6498 net.cpp:148] Top shape: 24 1024 (24576)
I0403 11:41:37.053791  6498 net.cpp:156] Memory required for data: 1208405952
I0403 11:41:37.053812  6498 layer_factory.hpp:77] Creating layer loss2/classifier_plantvillage
I0403 11:41:37.053839  6498 net.cpp:91] Creating Layer loss2/classifier_plantvillage
I0403 11:41:37.053864  6498 net.cpp:425] loss2/classifier_plantvillage <- loss2/fc
I0403 11:41:37.053889  6498 net.cpp:399] loss2/classifier_plantvillage -> loss2/classifier_plantvillage
I0403 11:41:37.054298  6498 net.cpp:141] Setting up loss2/classifier_plantvillage
I0403 11:41:37.054332  6498 net.cpp:148] Top shape: 24 38 (912)
I0403 11:41:37.054353  6498 net.cpp:156] Memory required for data: 1208409600
I0403 11:41:37.054378  6498 layer_factory.hpp:77] Creating layer inception_4e/1x1
I0403 11:41:37.054409  6498 net.cpp:91] Creating Layer inception_4e/1x1
I0403 11:41:37.054433  6498 net.cpp:425] inception_4e/1x1 <- inception_4d/output_inception_4d/output_0_split_1
I0403 11:41:37.054461  6498 net.cpp:399] inception_4e/1x1 -> inception_4e/1x1
I0403 11:41:37.055667  6498 net.cpp:141] Setting up inception_4e/1x1
I0403 11:41:37.055701  6498 net.cpp:148] Top shape: 24 256 14 14 (1204224)
I0403 11:41:37.055742  6498 net.cpp:156] Memory required for data: 1213226496
I0403 11:41:37.055768  6498 layer_factory.hpp:77] Creating layer inception_4e/relu_1x1
I0403 11:41:37.055793  6498 net.cpp:91] Creating Layer inception_4e/relu_1x1
I0403 11:41:37.055815  6498 net.cpp:425] inception_4e/relu_1x1 <- inception_4e/1x1
I0403 11:41:37.055838  6498 net.cpp:386] inception_4e/relu_1x1 -> inception_4e/1x1 (in-place)
I0403 11:41:37.055868  6498 net.cpp:141] Setting up inception_4e/relu_1x1
I0403 11:41:37.055894  6498 net.cpp:148] Top shape: 24 256 14 14 (1204224)
I0403 11:41:37.055914  6498 net.cpp:156] Memory required for data: 1218043392
I0403 11:41:37.055934  6498 layer_factory.hpp:77] Creating layer inception_4e/3x3_reduce
I0403 11:41:37.055961  6498 net.cpp:91] Creating Layer inception_4e/3x3_reduce
I0403 11:41:37.055989  6498 net.cpp:425] inception_4e/3x3_reduce <- inception_4d/output_inception_4d/output_0_split_2
I0403 11:41:37.056015  6498 net.cpp:399] inception_4e/3x3_reduce -> inception_4e/3x3_reduce
I0403 11:41:37.057482  6498 net.cpp:141] Setting up inception_4e/3x3_reduce
I0403 11:41:37.057523  6498 net.cpp:148] Top shape: 24 160 14 14 (752640)
I0403 11:41:37.057544  6498 net.cpp:156] Memory required for data: 1221053952
I0403 11:41:37.057569  6498 layer_factory.hpp:77] Creating layer inception_4e/relu_3x3_reduce
I0403 11:41:37.057595  6498 net.cpp:91] Creating Layer inception_4e/relu_3x3_reduce
I0403 11:41:37.057617  6498 net.cpp:425] inception_4e/relu_3x3_reduce <- inception_4e/3x3_reduce
I0403 11:41:37.057642  6498 net.cpp:386] inception_4e/relu_3x3_reduce -> inception_4e/3x3_reduce (in-place)
I0403 11:41:37.057668  6498 net.cpp:141] Setting up inception_4e/relu_3x3_reduce
I0403 11:41:37.057693  6498 net.cpp:148] Top shape: 24 160 14 14 (752640)
I0403 11:41:37.057713  6498 net.cpp:156] Memory required for data: 1224064512
I0403 11:41:37.057734  6498 layer_factory.hpp:77] Creating layer inception_4e/3x3
I0403 11:41:37.057768  6498 net.cpp:91] Creating Layer inception_4e/3x3
I0403 11:41:37.057792  6498 net.cpp:425] inception_4e/3x3 <- inception_4e/3x3_reduce
I0403 11:41:37.057822  6498 net.cpp:399] inception_4e/3x3 -> inception_4e/3x3
I0403 11:41:37.062499  6498 net.cpp:141] Setting up inception_4e/3x3
I0403 11:41:37.062536  6498 net.cpp:148] Top shape: 24 320 14 14 (1505280)
I0403 11:41:37.062557  6498 net.cpp:156] Memory required for data: 1230085632
I0403 11:41:37.062582  6498 layer_factory.hpp:77] Creating layer inception_4e/relu_3x3
I0403 11:41:37.062608  6498 net.cpp:91] Creating Layer inception_4e/relu_3x3
I0403 11:41:37.062629  6498 net.cpp:425] inception_4e/relu_3x3 <- inception_4e/3x3
I0403 11:41:37.062656  6498 net.cpp:386] inception_4e/relu_3x3 -> inception_4e/3x3 (in-place)
I0403 11:41:37.062685  6498 net.cpp:141] Setting up inception_4e/relu_3x3
I0403 11:41:37.062708  6498 net.cpp:148] Top shape: 24 320 14 14 (1505280)
I0403 11:41:37.062727  6498 net.cpp:156] Memory required for data: 1236106752
I0403 11:41:37.062748  6498 layer_factory.hpp:77] Creating layer inception_4e/5x5_reduce
I0403 11:41:37.062778  6498 net.cpp:91] Creating Layer inception_4e/5x5_reduce
I0403 11:41:37.062813  6498 net.cpp:425] inception_4e/5x5_reduce <- inception_4d/output_inception_4d/output_0_split_3
I0403 11:41:37.062856  6498 net.cpp:399] inception_4e/5x5_reduce -> inception_4e/5x5_reduce
I0403 11:41:37.063256  6498 net.cpp:141] Setting up inception_4e/5x5_reduce
I0403 11:41:37.063292  6498 net.cpp:148] Top shape: 24 32 14 14 (150528)
I0403 11:41:37.063314  6498 net.cpp:156] Memory required for data: 1236708864
I0403 11:41:37.063339  6498 layer_factory.hpp:77] Creating layer inception_4e/relu_5x5_reduce
I0403 11:41:37.063364  6498 net.cpp:91] Creating Layer inception_4e/relu_5x5_reduce
I0403 11:41:37.063385  6498 net.cpp:425] inception_4e/relu_5x5_reduce <- inception_4e/5x5_reduce
I0403 11:41:37.063412  6498 net.cpp:386] inception_4e/relu_5x5_reduce -> inception_4e/5x5_reduce (in-place)
I0403 11:41:37.063441  6498 net.cpp:141] Setting up inception_4e/relu_5x5_reduce
I0403 11:41:37.063482  6498 net.cpp:148] Top shape: 24 32 14 14 (150528)
I0403 11:41:37.063505  6498 net.cpp:156] Memory required for data: 1237310976
I0403 11:41:37.063526  6498 layer_factory.hpp:77] Creating layer inception_4e/5x5
I0403 11:41:37.063556  6498 net.cpp:91] Creating Layer inception_4e/5x5
I0403 11:41:37.063580  6498 net.cpp:425] inception_4e/5x5 <- inception_4e/5x5_reduce
I0403 11:41:37.063607  6498 net.cpp:399] inception_4e/5x5 -> inception_4e/5x5
I0403 11:41:37.064576  6498 net.cpp:141] Setting up inception_4e/5x5
I0403 11:41:37.064610  6498 net.cpp:148] Top shape: 24 128 14 14 (602112)
I0403 11:41:37.064630  6498 net.cpp:156] Memory required for data: 1239719424
I0403 11:41:37.064653  6498 layer_factory.hpp:77] Creating layer inception_4e/relu_5x5
I0403 11:41:37.064678  6498 net.cpp:91] Creating Layer inception_4e/relu_5x5
I0403 11:41:37.064702  6498 net.cpp:425] inception_4e/relu_5x5 <- inception_4e/5x5
I0403 11:41:37.064728  6498 net.cpp:386] inception_4e/relu_5x5 -> inception_4e/5x5 (in-place)
I0403 11:41:37.064755  6498 net.cpp:141] Setting up inception_4e/relu_5x5
I0403 11:41:37.064780  6498 net.cpp:148] Top shape: 24 128 14 14 (602112)
I0403 11:41:37.064800  6498 net.cpp:156] Memory required for data: 1242127872
I0403 11:41:37.064818  6498 layer_factory.hpp:77] Creating layer inception_4e/pool
I0403 11:41:37.064863  6498 net.cpp:91] Creating Layer inception_4e/pool
I0403 11:41:37.064889  6498 net.cpp:425] inception_4e/pool <- inception_4d/output_inception_4d/output_0_split_4
I0403 11:41:37.064914  6498 net.cpp:399] inception_4e/pool -> inception_4e/pool
I0403 11:41:37.064982  6498 net.cpp:141] Setting up inception_4e/pool
I0403 11:41:37.065016  6498 net.cpp:148] Top shape: 24 528 14 14 (2483712)
I0403 11:41:37.065037  6498 net.cpp:156] Memory required for data: 1252062720
I0403 11:41:37.065058  6498 layer_factory.hpp:77] Creating layer inception_4e/pool_proj
I0403 11:41:37.065086  6498 net.cpp:91] Creating Layer inception_4e/pool_proj
I0403 11:41:37.065109  6498 net.cpp:425] inception_4e/pool_proj <- inception_4e/pool
I0403 11:41:37.065138  6498 net.cpp:399] inception_4e/pool_proj -> inception_4e/pool_proj
I0403 11:41:37.065860  6498 net.cpp:141] Setting up inception_4e/pool_proj
I0403 11:41:37.065891  6498 net.cpp:148] Top shape: 24 128 14 14 (602112)
I0403 11:41:37.065913  6498 net.cpp:156] Memory required for data: 1254471168
I0403 11:41:37.065937  6498 layer_factory.hpp:77] Creating layer inception_4e/relu_pool_proj
I0403 11:41:37.065963  6498 net.cpp:91] Creating Layer inception_4e/relu_pool_proj
I0403 11:41:37.065984  6498 net.cpp:425] inception_4e/relu_pool_proj <- inception_4e/pool_proj
I0403 11:41:37.066009  6498 net.cpp:386] inception_4e/relu_pool_proj -> inception_4e/pool_proj (in-place)
I0403 11:41:37.066035  6498 net.cpp:141] Setting up inception_4e/relu_pool_proj
I0403 11:41:37.066058  6498 net.cpp:148] Top shape: 24 128 14 14 (602112)
I0403 11:41:37.066078  6498 net.cpp:156] Memory required for data: 1256879616
I0403 11:41:37.066098  6498 layer_factory.hpp:77] Creating layer inception_4e/output
I0403 11:41:37.066126  6498 net.cpp:91] Creating Layer inception_4e/output
I0403 11:41:37.066148  6498 net.cpp:425] inception_4e/output <- inception_4e/1x1
I0403 11:41:37.066169  6498 net.cpp:425] inception_4e/output <- inception_4e/3x3
I0403 11:41:37.066190  6498 net.cpp:425] inception_4e/output <- inception_4e/5x5
I0403 11:41:37.066212  6498 net.cpp:425] inception_4e/output <- inception_4e/pool_proj
I0403 11:41:37.066236  6498 net.cpp:399] inception_4e/output -> inception_4e/output
I0403 11:41:37.066293  6498 net.cpp:141] Setting up inception_4e/output
I0403 11:41:37.066323  6498 net.cpp:148] Top shape: 24 832 14 14 (3913728)
I0403 11:41:37.066344  6498 net.cpp:156] Memory required for data: 1272534528
I0403 11:41:37.066365  6498 layer_factory.hpp:77] Creating layer pool4/3x3_s2
I0403 11:41:37.066388  6498 net.cpp:91] Creating Layer pool4/3x3_s2
I0403 11:41:37.066411  6498 net.cpp:425] pool4/3x3_s2 <- inception_4e/output
I0403 11:41:37.066437  6498 net.cpp:399] pool4/3x3_s2 -> pool4/3x3_s2
I0403 11:41:37.066519  6498 net.cpp:141] Setting up pool4/3x3_s2
I0403 11:41:37.066550  6498 net.cpp:148] Top shape: 24 832 7 7 (978432)
I0403 11:41:37.066570  6498 net.cpp:156] Memory required for data: 1276448256
I0403 11:41:37.066591  6498 layer_factory.hpp:77] Creating layer pool4/3x3_s2_pool4/3x3_s2_0_split
I0403 11:41:37.066618  6498 net.cpp:91] Creating Layer pool4/3x3_s2_pool4/3x3_s2_0_split
I0403 11:41:37.066642  6498 net.cpp:425] pool4/3x3_s2_pool4/3x3_s2_0_split <- pool4/3x3_s2
I0403 11:41:37.066665  6498 net.cpp:399] pool4/3x3_s2_pool4/3x3_s2_0_split -> pool4/3x3_s2_pool4/3x3_s2_0_split_0
I0403 11:41:37.066694  6498 net.cpp:399] pool4/3x3_s2_pool4/3x3_s2_0_split -> pool4/3x3_s2_pool4/3x3_s2_0_split_1
I0403 11:41:37.066721  6498 net.cpp:399] pool4/3x3_s2_pool4/3x3_s2_0_split -> pool4/3x3_s2_pool4/3x3_s2_0_split_2
I0403 11:41:37.066752  6498 net.cpp:399] pool4/3x3_s2_pool4/3x3_s2_0_split -> pool4/3x3_s2_pool4/3x3_s2_0_split_3
I0403 11:41:37.066838  6498 net.cpp:141] Setting up pool4/3x3_s2_pool4/3x3_s2_0_split
I0403 11:41:37.066869  6498 net.cpp:148] Top shape: 24 832 7 7 (978432)
I0403 11:41:37.066891  6498 net.cpp:148] Top shape: 24 832 7 7 (978432)
I0403 11:41:37.066912  6498 net.cpp:148] Top shape: 24 832 7 7 (978432)
I0403 11:41:37.066933  6498 net.cpp:148] Top shape: 24 832 7 7 (978432)
I0403 11:41:37.066952  6498 net.cpp:156] Memory required for data: 1292103168
I0403 11:41:37.066972  6498 layer_factory.hpp:77] Creating layer inception_5a/1x1
I0403 11:41:37.067006  6498 net.cpp:91] Creating Layer inception_5a/1x1
I0403 11:41:37.067031  6498 net.cpp:425] inception_5a/1x1 <- pool4/3x3_s2_pool4/3x3_s2_0_split_0
I0403 11:41:37.067062  6498 net.cpp:399] inception_5a/1x1 -> inception_5a/1x1
I0403 11:41:37.069386  6498 net.cpp:141] Setting up inception_5a/1x1
I0403 11:41:37.069422  6498 net.cpp:148] Top shape: 24 256 7 7 (301056)
I0403 11:41:37.069443  6498 net.cpp:156] Memory required for data: 1293307392
I0403 11:41:37.069468  6498 layer_factory.hpp:77] Creating layer inception_5a/relu_1x1
I0403 11:41:37.069494  6498 net.cpp:91] Creating Layer inception_5a/relu_1x1
I0403 11:41:37.069519  6498 net.cpp:425] inception_5a/relu_1x1 <- inception_5a/1x1
I0403 11:41:37.069545  6498 net.cpp:386] inception_5a/relu_1x1 -> inception_5a/1x1 (in-place)
I0403 11:41:37.069573  6498 net.cpp:141] Setting up inception_5a/relu_1x1
I0403 11:41:37.069597  6498 net.cpp:148] Top shape: 24 256 7 7 (301056)
I0403 11:41:37.069617  6498 net.cpp:156] Memory required for data: 1294511616
I0403 11:41:37.069638  6498 layer_factory.hpp:77] Creating layer inception_5a/3x3_reduce
I0403 11:41:37.069669  6498 net.cpp:91] Creating Layer inception_5a/3x3_reduce
I0403 11:41:37.069694  6498 net.cpp:425] inception_5a/3x3_reduce <- pool4/3x3_s2_pool4/3x3_s2_0_split_1
I0403 11:41:37.069720  6498 net.cpp:399] inception_5a/3x3_reduce -> inception_5a/3x3_reduce
I0403 11:41:37.071508  6498 net.cpp:141] Setting up inception_5a/3x3_reduce
I0403 11:41:37.071545  6498 net.cpp:148] Top shape: 24 160 7 7 (188160)
I0403 11:41:37.071566  6498 net.cpp:156] Memory required for data: 1295264256
I0403 11:41:37.071590  6498 layer_factory.hpp:77] Creating layer inception_5a/relu_3x3_reduce
I0403 11:41:37.071615  6498 net.cpp:91] Creating Layer inception_5a/relu_3x3_reduce
I0403 11:41:37.071637  6498 net.cpp:425] inception_5a/relu_3x3_reduce <- inception_5a/3x3_reduce
I0403 11:41:37.071663  6498 net.cpp:386] inception_5a/relu_3x3_reduce -> inception_5a/3x3_reduce (in-place)
I0403 11:41:37.071691  6498 net.cpp:141] Setting up inception_5a/relu_3x3_reduce
I0403 11:41:37.071715  6498 net.cpp:148] Top shape: 24 160 7 7 (188160)
I0403 11:41:37.071737  6498 net.cpp:156] Memory required for data: 1296016896
I0403 11:41:37.071756  6498 layer_factory.hpp:77] Creating layer inception_5a/3x3
I0403 11:41:37.071792  6498 net.cpp:91] Creating Layer inception_5a/3x3
I0403 11:41:37.071816  6498 net.cpp:425] inception_5a/3x3 <- inception_5a/3x3_reduce
I0403 11:41:37.071843  6498 net.cpp:399] inception_5a/3x3 -> inception_5a/3x3
I0403 11:41:37.076575  6498 net.cpp:141] Setting up inception_5a/3x3
I0403 11:41:37.076627  6498 net.cpp:148] Top shape: 24 320 7 7 (376320)
I0403 11:41:37.076650  6498 net.cpp:156] Memory required for data: 1297522176
I0403 11:41:37.076676  6498 layer_factory.hpp:77] Creating layer inception_5a/relu_3x3
I0403 11:41:37.076704  6498 net.cpp:91] Creating Layer inception_5a/relu_3x3
I0403 11:41:37.076726  6498 net.cpp:425] inception_5a/relu_3x3 <- inception_5a/3x3
I0403 11:41:37.076752  6498 net.cpp:386] inception_5a/relu_3x3 -> inception_5a/3x3 (in-place)
I0403 11:41:37.076781  6498 net.cpp:141] Setting up inception_5a/relu_3x3
I0403 11:41:37.076807  6498 net.cpp:148] Top shape: 24 320 7 7 (376320)
I0403 11:41:37.076828  6498 net.cpp:156] Memory required for data: 1299027456
I0403 11:41:37.076848  6498 layer_factory.hpp:77] Creating layer inception_5a/5x5_reduce
I0403 11:41:37.076877  6498 net.cpp:91] Creating Layer inception_5a/5x5_reduce
I0403 11:41:37.076901  6498 net.cpp:425] inception_5a/5x5_reduce <- pool4/3x3_s2_pool4/3x3_s2_0_split_2
I0403 11:41:37.076928  6498 net.cpp:399] inception_5a/5x5_reduce -> inception_5a/5x5_reduce
I0403 11:41:37.077409  6498 net.cpp:141] Setting up inception_5a/5x5_reduce
I0403 11:41:37.077442  6498 net.cpp:148] Top shape: 24 32 7 7 (37632)
I0403 11:41:37.077463  6498 net.cpp:156] Memory required for data: 1299177984
I0403 11:41:37.077487  6498 layer_factory.hpp:77] Creating layer inception_5a/relu_5x5_reduce
I0403 11:41:37.077513  6498 net.cpp:91] Creating Layer inception_5a/relu_5x5_reduce
I0403 11:41:37.077536  6498 net.cpp:425] inception_5a/relu_5x5_reduce <- inception_5a/5x5_reduce
I0403 11:41:37.077564  6498 net.cpp:386] inception_5a/relu_5x5_reduce -> inception_5a/5x5_reduce (in-place)
I0403 11:41:37.077591  6498 net.cpp:141] Setting up inception_5a/relu_5x5_reduce
I0403 11:41:37.077615  6498 net.cpp:148] Top shape: 24 32 7 7 (37632)
I0403 11:41:37.077635  6498 net.cpp:156] Memory required for data: 1299328512
I0403 11:41:37.077654  6498 layer_factory.hpp:77] Creating layer inception_5a/5x5
I0403 11:41:37.077682  6498 net.cpp:91] Creating Layer inception_5a/5x5
I0403 11:41:37.077704  6498 net.cpp:425] inception_5a/5x5 <- inception_5a/5x5_reduce
I0403 11:41:37.077733  6498 net.cpp:399] inception_5a/5x5 -> inception_5a/5x5
I0403 11:41:37.078701  6498 net.cpp:141] Setting up inception_5a/5x5
I0403 11:41:37.078732  6498 net.cpp:148] Top shape: 24 128 7 7 (150528)
I0403 11:41:37.078754  6498 net.cpp:156] Memory required for data: 1299930624
I0403 11:41:37.078778  6498 layer_factory.hpp:77] Creating layer inception_5a/relu_5x5
I0403 11:41:37.078804  6498 net.cpp:91] Creating Layer inception_5a/relu_5x5
I0403 11:41:37.078826  6498 net.cpp:425] inception_5a/relu_5x5 <- inception_5a/5x5
I0403 11:41:37.078850  6498 net.cpp:386] inception_5a/relu_5x5 -> inception_5a/5x5 (in-place)
I0403 11:41:37.078873  6498 net.cpp:141] Setting up inception_5a/relu_5x5
I0403 11:41:37.078897  6498 net.cpp:148] Top shape: 24 128 7 7 (150528)
I0403 11:41:37.078917  6498 net.cpp:156] Memory required for data: 1300532736
I0403 11:41:37.078936  6498 layer_factory.hpp:77] Creating layer inception_5a/pool
I0403 11:41:37.078963  6498 net.cpp:91] Creating Layer inception_5a/pool
I0403 11:41:37.078986  6498 net.cpp:425] inception_5a/pool <- pool4/3x3_s2_pool4/3x3_s2_0_split_3
I0403 11:41:37.079010  6498 net.cpp:399] inception_5a/pool -> inception_5a/pool
I0403 11:41:37.079079  6498 net.cpp:141] Setting up inception_5a/pool
I0403 11:41:37.079109  6498 net.cpp:148] Top shape: 24 832 7 7 (978432)
I0403 11:41:37.079130  6498 net.cpp:156] Memory required for data: 1304446464
I0403 11:41:37.079151  6498 layer_factory.hpp:77] Creating layer inception_5a/pool_proj
I0403 11:41:37.079181  6498 net.cpp:91] Creating Layer inception_5a/pool_proj
I0403 11:41:37.079205  6498 net.cpp:425] inception_5a/pool_proj <- inception_5a/pool
I0403 11:41:37.079231  6498 net.cpp:399] inception_5a/pool_proj -> inception_5a/pool_proj
I0403 11:41:37.080852  6498 net.cpp:141] Setting up inception_5a/pool_proj
I0403 11:41:37.080888  6498 net.cpp:148] Top shape: 24 128 7 7 (150528)
I0403 11:41:37.080909  6498 net.cpp:156] Memory required for data: 1305048576
I0403 11:41:37.080952  6498 layer_factory.hpp:77] Creating layer inception_5a/relu_pool_proj
I0403 11:41:37.080981  6498 net.cpp:91] Creating Layer inception_5a/relu_pool_proj
I0403 11:41:37.081003  6498 net.cpp:425] inception_5a/relu_pool_proj <- inception_5a/pool_proj
I0403 11:41:37.081030  6498 net.cpp:386] inception_5a/relu_pool_proj -> inception_5a/pool_proj (in-place)
I0403 11:41:37.081058  6498 net.cpp:141] Setting up inception_5a/relu_pool_proj
I0403 11:41:37.081081  6498 net.cpp:148] Top shape: 24 128 7 7 (150528)
I0403 11:41:37.081101  6498 net.cpp:156] Memory required for data: 1305650688
I0403 11:41:37.081121  6498 layer_factory.hpp:77] Creating layer inception_5a/output
I0403 11:41:37.081145  6498 net.cpp:91] Creating Layer inception_5a/output
I0403 11:41:37.081166  6498 net.cpp:425] inception_5a/output <- inception_5a/1x1
I0403 11:41:37.081187  6498 net.cpp:425] inception_5a/output <- inception_5a/3x3
I0403 11:41:37.081210  6498 net.cpp:425] inception_5a/output <- inception_5a/5x5
I0403 11:41:37.081233  6498 net.cpp:425] inception_5a/output <- inception_5a/pool_proj
I0403 11:41:37.081257  6498 net.cpp:399] inception_5a/output -> inception_5a/output
I0403 11:41:37.081318  6498 net.cpp:141] Setting up inception_5a/output
I0403 11:41:37.081351  6498 net.cpp:148] Top shape: 24 832 7 7 (978432)
I0403 11:41:37.081372  6498 net.cpp:156] Memory required for data: 1309564416
I0403 11:41:37.081392  6498 layer_factory.hpp:77] Creating layer inception_5a/output_inception_5a/output_0_split
I0403 11:41:37.081415  6498 net.cpp:91] Creating Layer inception_5a/output_inception_5a/output_0_split
I0403 11:41:37.081437  6498 net.cpp:425] inception_5a/output_inception_5a/output_0_split <- inception_5a/output
I0403 11:41:37.081465  6498 net.cpp:399] inception_5a/output_inception_5a/output_0_split -> inception_5a/output_inception_5a/output_0_split_0
I0403 11:41:37.081493  6498 net.cpp:399] inception_5a/output_inception_5a/output_0_split -> inception_5a/output_inception_5a/output_0_split_1
I0403 11:41:37.081523  6498 net.cpp:399] inception_5a/output_inception_5a/output_0_split -> inception_5a/output_inception_5a/output_0_split_2
I0403 11:41:37.081552  6498 net.cpp:399] inception_5a/output_inception_5a/output_0_split -> inception_5a/output_inception_5a/output_0_split_3
I0403 11:41:37.081645  6498 net.cpp:141] Setting up inception_5a/output_inception_5a/output_0_split
I0403 11:41:37.081673  6498 net.cpp:148] Top shape: 24 832 7 7 (978432)
I0403 11:41:37.081696  6498 net.cpp:148] Top shape: 24 832 7 7 (978432)
I0403 11:41:37.081718  6498 net.cpp:148] Top shape: 24 832 7 7 (978432)
I0403 11:41:37.081739  6498 net.cpp:148] Top shape: 24 832 7 7 (978432)
I0403 11:41:37.081759  6498 net.cpp:156] Memory required for data: 1325219328
I0403 11:41:37.081779  6498 layer_factory.hpp:77] Creating layer inception_5b/1x1
I0403 11:41:37.081810  6498 net.cpp:91] Creating Layer inception_5b/1x1
I0403 11:41:37.081835  6498 net.cpp:425] inception_5b/1x1 <- inception_5a/output_inception_5a/output_0_split_0
I0403 11:41:37.081861  6498 net.cpp:399] inception_5b/1x1 -> inception_5b/1x1
I0403 11:41:37.085005  6498 net.cpp:141] Setting up inception_5b/1x1
I0403 11:41:37.085041  6498 net.cpp:148] Top shape: 24 384 7 7 (451584)
I0403 11:41:37.085063  6498 net.cpp:156] Memory required for data: 1327025664
I0403 11:41:37.085088  6498 layer_factory.hpp:77] Creating layer inception_5b/relu_1x1
I0403 11:41:37.085114  6498 net.cpp:91] Creating Layer inception_5b/relu_1x1
I0403 11:41:37.085134  6498 net.cpp:425] inception_5b/relu_1x1 <- inception_5b/1x1
I0403 11:41:37.085160  6498 net.cpp:386] inception_5b/relu_1x1 -> inception_5b/1x1 (in-place)
I0403 11:41:37.085188  6498 net.cpp:141] Setting up inception_5b/relu_1x1
I0403 11:41:37.085213  6498 net.cpp:148] Top shape: 24 384 7 7 (451584)
I0403 11:41:37.085234  6498 net.cpp:156] Memory required for data: 1328832000
I0403 11:41:37.085253  6498 layer_factory.hpp:77] Creating layer inception_5b/3x3_reduce
I0403 11:41:37.085284  6498 net.cpp:91] Creating Layer inception_5b/3x3_reduce
I0403 11:41:37.085336  6498 net.cpp:425] inception_5b/3x3_reduce <- inception_5a/output_inception_5a/output_0_split_1
I0403 11:41:37.085366  6498 net.cpp:399] inception_5b/3x3_reduce -> inception_5b/3x3_reduce
I0403 11:41:37.087366  6498 net.cpp:141] Setting up inception_5b/3x3_reduce
I0403 11:41:37.087402  6498 net.cpp:148] Top shape: 24 192 7 7 (225792)
I0403 11:41:37.087424  6498 net.cpp:156] Memory required for data: 1329735168
I0403 11:41:37.087450  6498 layer_factory.hpp:77] Creating layer inception_5b/relu_3x3_reduce
I0403 11:41:37.087473  6498 net.cpp:91] Creating Layer inception_5b/relu_3x3_reduce
I0403 11:41:37.087496  6498 net.cpp:425] inception_5b/relu_3x3_reduce <- inception_5b/3x3_reduce
I0403 11:41:37.087529  6498 net.cpp:386] inception_5b/relu_3x3_reduce -> inception_5b/3x3_reduce (in-place)
I0403 11:41:37.087558  6498 net.cpp:141] Setting up inception_5b/relu_3x3_reduce
I0403 11:41:37.087582  6498 net.cpp:148] Top shape: 24 192 7 7 (225792)
I0403 11:41:37.087602  6498 net.cpp:156] Memory required for data: 1330638336
I0403 11:41:37.087622  6498 layer_factory.hpp:77] Creating layer inception_5b/3x3
I0403 11:41:37.087653  6498 net.cpp:91] Creating Layer inception_5b/3x3
I0403 11:41:37.087677  6498 net.cpp:425] inception_5b/3x3 <- inception_5b/3x3_reduce
I0403 11:41:37.087702  6498 net.cpp:399] inception_5b/3x3 -> inception_5b/3x3
I0403 11:41:37.094279  6498 net.cpp:141] Setting up inception_5b/3x3
I0403 11:41:37.094316  6498 net.cpp:148] Top shape: 24 384 7 7 (451584)
I0403 11:41:37.094339  6498 net.cpp:156] Memory required for data: 1332444672
I0403 11:41:37.094363  6498 layer_factory.hpp:77] Creating layer inception_5b/relu_3x3
I0403 11:41:37.094390  6498 net.cpp:91] Creating Layer inception_5b/relu_3x3
I0403 11:41:37.094413  6498 net.cpp:425] inception_5b/relu_3x3 <- inception_5b/3x3
I0403 11:41:37.094437  6498 net.cpp:386] inception_5b/relu_3x3 -> inception_5b/3x3 (in-place)
I0403 11:41:37.094463  6498 net.cpp:141] Setting up inception_5b/relu_3x3
I0403 11:41:37.094487  6498 net.cpp:148] Top shape: 24 384 7 7 (451584)
I0403 11:41:37.094506  6498 net.cpp:156] Memory required for data: 1334251008
I0403 11:41:37.094527  6498 layer_factory.hpp:77] Creating layer inception_5b/5x5_reduce
I0403 11:41:37.094558  6498 net.cpp:91] Creating Layer inception_5b/5x5_reduce
I0403 11:41:37.094583  6498 net.cpp:425] inception_5b/5x5_reduce <- inception_5a/output_inception_5a/output_0_split_2
I0403 11:41:37.094612  6498 net.cpp:399] inception_5b/5x5_reduce -> inception_5b/5x5_reduce
I0403 11:41:37.095178  6498 net.cpp:141] Setting up inception_5b/5x5_reduce
I0403 11:41:37.095211  6498 net.cpp:148] Top shape: 24 48 7 7 (56448)
I0403 11:41:37.095232  6498 net.cpp:156] Memory required for data: 1334476800
I0403 11:41:37.095257  6498 layer_factory.hpp:77] Creating layer inception_5b/relu_5x5_reduce
I0403 11:41:37.095283  6498 net.cpp:91] Creating Layer inception_5b/relu_5x5_reduce
I0403 11:41:37.095319  6498 net.cpp:425] inception_5b/relu_5x5_reduce <- inception_5b/5x5_reduce
I0403 11:41:37.095345  6498 net.cpp:386] inception_5b/relu_5x5_reduce -> inception_5b/5x5_reduce (in-place)
I0403 11:41:37.095371  6498 net.cpp:141] Setting up inception_5b/relu_5x5_reduce
I0403 11:41:37.095396  6498 net.cpp:148] Top shape: 24 48 7 7 (56448)
I0403 11:41:37.095415  6498 net.cpp:156] Memory required for data: 1334702592
I0403 11:41:37.095434  6498 layer_factory.hpp:77] Creating layer inception_5b/5x5
I0403 11:41:37.095466  6498 net.cpp:91] Creating Layer inception_5b/5x5
I0403 11:41:37.095489  6498 net.cpp:425] inception_5b/5x5 <- inception_5b/5x5_reduce
I0403 11:41:37.095520  6498 net.cpp:399] inception_5b/5x5 -> inception_5b/5x5
I0403 11:41:37.096849  6498 net.cpp:141] Setting up inception_5b/5x5
I0403 11:41:37.096885  6498 net.cpp:148] Top shape: 24 128 7 7 (150528)
I0403 11:41:37.096907  6498 net.cpp:156] Memory required for data: 1335304704
I0403 11:41:37.096932  6498 layer_factory.hpp:77] Creating layer inception_5b/relu_5x5
I0403 11:41:37.096959  6498 net.cpp:91] Creating Layer inception_5b/relu_5x5
I0403 11:41:37.096982  6498 net.cpp:425] inception_5b/relu_5x5 <- inception_5b/5x5
I0403 11:41:37.097024  6498 net.cpp:386] inception_5b/relu_5x5 -> inception_5b/5x5 (in-place)
I0403 11:41:37.097051  6498 net.cpp:141] Setting up inception_5b/relu_5x5
I0403 11:41:37.097077  6498 net.cpp:148] Top shape: 24 128 7 7 (150528)
I0403 11:41:37.097097  6498 net.cpp:156] Memory required for data: 1335906816
I0403 11:41:37.097117  6498 layer_factory.hpp:77] Creating layer inception_5b/pool
I0403 11:41:37.097141  6498 net.cpp:91] Creating Layer inception_5b/pool
I0403 11:41:37.097165  6498 net.cpp:425] inception_5b/pool <- inception_5a/output_inception_5a/output_0_split_3
I0403 11:41:37.097189  6498 net.cpp:399] inception_5b/pool -> inception_5b/pool
I0403 11:41:37.097259  6498 net.cpp:141] Setting up inception_5b/pool
I0403 11:41:37.097293  6498 net.cpp:148] Top shape: 24 832 7 7 (978432)
I0403 11:41:37.097316  6498 net.cpp:156] Memory required for data: 1339820544
I0403 11:41:37.097337  6498 layer_factory.hpp:77] Creating layer inception_5b/pool_proj
I0403 11:41:37.097368  6498 net.cpp:91] Creating Layer inception_5b/pool_proj
I0403 11:41:37.097393  6498 net.cpp:425] inception_5b/pool_proj <- inception_5b/pool
I0403 11:41:37.097422  6498 net.cpp:399] inception_5b/pool_proj -> inception_5b/pool_proj
I0403 11:41:37.099047  6498 net.cpp:141] Setting up inception_5b/pool_proj
I0403 11:41:37.099086  6498 net.cpp:148] Top shape: 24 128 7 7 (150528)
I0403 11:41:37.099108  6498 net.cpp:156] Memory required for data: 1340422656
I0403 11:41:37.099133  6498 layer_factory.hpp:77] Creating layer inception_5b/relu_pool_proj
I0403 11:41:37.099159  6498 net.cpp:91] Creating Layer inception_5b/relu_pool_proj
I0403 11:41:37.099181  6498 net.cpp:425] inception_5b/relu_pool_proj <- inception_5b/pool_proj
I0403 11:41:37.099205  6498 net.cpp:386] inception_5b/relu_pool_proj -> inception_5b/pool_proj (in-place)
I0403 11:41:37.099233  6498 net.cpp:141] Setting up inception_5b/relu_pool_proj
I0403 11:41:37.099257  6498 net.cpp:148] Top shape: 24 128 7 7 (150528)
I0403 11:41:37.099277  6498 net.cpp:156] Memory required for data: 1341024768
I0403 11:41:37.099303  6498 layer_factory.hpp:77] Creating layer inception_5b/output
I0403 11:41:37.099329  6498 net.cpp:91] Creating Layer inception_5b/output
I0403 11:41:37.099351  6498 net.cpp:425] inception_5b/output <- inception_5b/1x1
I0403 11:41:37.099375  6498 net.cpp:425] inception_5b/output <- inception_5b/3x3
I0403 11:41:37.099396  6498 net.cpp:425] inception_5b/output <- inception_5b/5x5
I0403 11:41:37.099419  6498 net.cpp:425] inception_5b/output <- inception_5b/pool_proj
I0403 11:41:37.099447  6498 net.cpp:399] inception_5b/output -> inception_5b/output
I0403 11:41:37.099499  6498 net.cpp:141] Setting up inception_5b/output
I0403 11:41:37.099534  6498 net.cpp:148] Top shape: 24 1024 7 7 (1204224)
I0403 11:41:37.099555  6498 net.cpp:156] Memory required for data: 1345841664
I0403 11:41:37.099575  6498 layer_factory.hpp:77] Creating layer pool5/7x7_s1
I0403 11:41:37.099599  6498 net.cpp:91] Creating Layer pool5/7x7_s1
I0403 11:41:37.099622  6498 net.cpp:425] pool5/7x7_s1 <- inception_5b/output
I0403 11:41:37.099647  6498 net.cpp:399] pool5/7x7_s1 -> pool5/7x7_s1
I0403 11:41:37.099699  6498 net.cpp:141] Setting up pool5/7x7_s1
I0403 11:41:37.099730  6498 net.cpp:148] Top shape: 24 1024 1 1 (24576)
I0403 11:41:37.099750  6498 net.cpp:156] Memory required for data: 1345939968
I0403 11:41:37.099769  6498 layer_factory.hpp:77] Creating layer pool5/drop_7x7_s1
I0403 11:41:37.099797  6498 net.cpp:91] Creating Layer pool5/drop_7x7_s1
I0403 11:41:37.099822  6498 net.cpp:425] pool5/drop_7x7_s1 <- pool5/7x7_s1
I0403 11:41:37.099844  6498 net.cpp:386] pool5/drop_7x7_s1 -> pool5/7x7_s1 (in-place)
I0403 11:41:37.099895  6498 net.cpp:141] Setting up pool5/drop_7x7_s1
I0403 11:41:37.099925  6498 net.cpp:148] Top shape: 24 1024 1 1 (24576)
I0403 11:41:37.099946  6498 net.cpp:156] Memory required for data: 1346038272
I0403 11:41:37.099967  6498 layer_factory.hpp:77] Creating layer loss3/classifier_plantvillage
I0403 11:41:37.099992  6498 net.cpp:91] Creating Layer loss3/classifier_plantvillage
I0403 11:41:37.100033  6498 net.cpp:425] loss3/classifier_plantvillage <- pool5/7x7_s1
I0403 11:41:37.100062  6498 net.cpp:399] loss3/classifier_plantvillage -> loss3/classifier_plantvillage
I0403 11:41:37.100492  6498 net.cpp:141] Setting up loss3/classifier_plantvillage
I0403 11:41:37.100524  6498 net.cpp:148] Top shape: 24 38 (912)
I0403 11:41:37.100545  6498 net.cpp:156] Memory required for data: 1346041920
I0403 11:41:37.100569  6498 layer_factory.hpp:77] Creating layer loss1/loss
I0403 11:41:37.100602  6498 net.cpp:91] Creating Layer loss1/loss
I0403 11:41:37.100626  6498 net.cpp:425] loss1/loss <- loss1/classifier_plantvillage
I0403 11:41:37.100649  6498 net.cpp:425] loss1/loss <- label_data_1_split_0
I0403 11:41:37.100675  6498 net.cpp:399] loss1/loss -> loss1/loss
…
I0403 11:41:37.113248  6498 net.cpp:313] The NetState phase (1) differed from the phase (0) specified by a rule in layer data
I0403 11:41:37.118033  6498 net.cpp:49] Initializing net from parameters: 
state {
  phase: TEST
}
layer {
  name: "data"
  type: "Data"
  top: "data"
  top: "label"
  include {
    phase: TEST
  }
  transform_param {
    mirror: false
    crop_size: 224
    mean_file: "/home/mohanty/data/final_dataset/lmdb/grayscale-50-50/mean.binaryproto"
  }
  data_param {
    source: "/home/mohanty/data/final_dataset/lmdb/grayscale-50-50/test_db"
    batch_size: 24
    backend: LMDB
  }
}
layer {
  name: "conv1/7x7_s2"
  type: "Convolution"
  bottom: "data"
  top: "conv1/7x7_s2"
  param {
    lr_mult: 1
    decay_mult: 1
  }
  param {
    lr_mult: 2
    decay_mult: 0
  }
  convolution_param {
    num_output: 64
    pad: 3
    kernel_size: 7
    stride: 2
    weight_filler {
      type: "xavier"
      std: 0.1
    }
    bias_filler {
      type: "constant"
      value: 0.2
    }
  }
}
layer {
  name: "conv1/relu_7x7"
  type: "ReLU"
  bottom: "conv1/7x7_s2"
  top: "conv1/7x7_s2"
}
layer {
  name: "pool1/3x3_s2"
  type: "Pooling"
  bottom: "conv1/7x7_s2"
  top: "pool1/3x3_s2"
  pooling_param {
    pool: MAX
    kernel_size: 3
    stride: 2
  }
}
layer {
  name: "pool1/norm1"
  type: "LRN"
  bottom: "pool1/3x3_s2"
  top: "pool1/norm1"
  lrn_param {
    local_size: 5
    alpha: 0.0001
    beta: 0.75
  }
}
layer {
  name: "conv2/3x3_reduce"
  type: "Convolution"
  bottom: "pool1/norm1"
  top: "conv2/3x3_reduce"
  param {
    lr_mult: 1
    decay_mult: 1
  }
  param {
    lr_mult: 2
    decay_mult: 0
  }
  convolution_param {
    num_output: 64
    kernel_size: 1
    weight_filler {
      type: "xavier"
      std: 0.1
    }
    bias_filler {
      type: "constant"
      value: 0.2
    }
  }
}
layer {
  name: "conv2/relu_3x3_reduce"
  type: "ReLU"
  bottom: "conv2/3x3_reduce"
  top: "conv2/3x3_reduce"
}
layer {
  name: "conv2/3x3"
  type: "Convolution"
  bottom: "conv2/3x3_reduce"
  top: "conv2/3x3"
  param {
    lr_mult: 1
    decay_mult: 1
  }
  param {
    lr_mult: 2
    decay_mult: 0
  }
  convolution_param {
    num_output: 192
    pad: 1
    kernel_size: 3
    weight_filler {
      type: "xavier"
      std: 0.03
    }
    bias_filler {
      type: "constant"
      value: 0.2
    }
  }
}
layer {
  name: "conv2/relu_3x3"
  type: "ReLU"
  bottom: "conv2/3x3"
  top: "conv2/3x3"
}
layer {
  name: "conv2/norm2"
  type: "LRN"
  bottom: "conv2/3x3"
  top: "conv2/norm2"
  lrn_param {
    local_size: 5
    alpha: 0.0001
    beta: 0.75
  }
}
layer {
  name: "pool2/3x3_s2"
  type: "Pooling"
  bottom: "conv2/norm2"
  top: "pool2/3x3_s2"
  pooling_param {
    pool: MAX
    kernel_size: 3
    stride: 2
  }
}
layer {
  name: "inception_3a/1x1"
  type: "Convolution"
  bottom: "pool2/3x3_s2"
  top: "inception_3a/1x1"
  param {
    lr_mult: 1
    decay_mult: 1
  }
  param {
    lr_mult: 2
    decay_mult: 0
  }
  convolution_param {
    num_output: 64
    kernel_size: 1
    weight_filler {
      type: "xavier"
      std: 0.03
    }
    bias_filler {
      type: "constant"
      value: 0.2
    }
  }
}
layer {
  name: "inception_3a/relu_1x1"
  type: "ReLU"
  bottom: "inception_3a/1x1"
  top: "inception_3a/1x1"
}
layer {
  name: "inception_3a/3x3_reduce"
  type: "Convolution"
  bottom: "pool2/3x3_s2"
  top: "inception_3a/3x3_reduce"
  param {
    lr_mult: 1
    decay_mult: 1
  }
  param {
    lr_mult: 2
    decay_mult: 0
  }
  convolution_param {
    num_output: 96
    kernel_size: 1
    weight_filler {
      type: "xavier"
      std: 0.09
    }
    bias_filler {
      type: "constant"
      value: 0.2
    }
  }
}
layer {
  name: "inception_3a/relu_3x3_reduce"
  type: "ReLU"
  bottom: "inception_3a/3x3_reduce"
  top: "inception_3a/3x3_reduce"
}
layer {
  name: "inception_3a/3x3"
  type: "Convolution"
  bottom: "inception_3a/3x3_reduce"
  top: "inception_3a/3x3"
  param {
    lr_mult: 1
    decay_mult: 1
  }
  param {
    lr_mult: 2
    decay_mult: 0
  }
  convolution_param {
    num_output: 128
    pad: 1
    kernel_size: 3
    weight_filler {
      type: "xavier"
      std: 0.03
    }
    bias_filler {
      type: "constant"
      value: 0.2
    }
  }
}
layer {
  name: "inception_3a/relu_3x3"
  type: "ReLU"
  bottom: "inception_3a/3x3"
  top: "inception_3a/3x3"
}
layer {
  name: "inception_3a/5x5_reduce"
  type: "Convolution"
  bottom: "pool2/3x3_s2"
  top: "inception_3a/5x5_reduce"
  param {
    lr_mult: 1
    decay_mult: 1
  }
  param {
    lr_mult: 2
    decay_mult: 0
  }
  convolution_param {
    num_output: 16
    kernel_size: 1
    weight_filler {
      type: "xavier"
      std: 0.2
    }
    bias_filler {
      type: "constant"
      value: 0.2
    }
  }
}
layer {
  name: "inception_3a/relu_5x5_reduce"
  type: "ReLU"
  bottom: "inception_3a/5x5_reduce"
  top: "inception_3a/5x5_reduce"
}
layer {
  name: "inception_3a/5x5"
  type: "Convolution"
  bottom: "inception_3a/5x5_reduce"
  top: "inception_3a/5x5"
  param {
    lr_mult: 1
    decay_mult: 1
  }
  param {
    lr_mult: 2
    decay_mult: 0
  }
  convolution_param {
    num_output: 32
    pad: 2
    kernel_size: 5
    weight_filler {
      type: "xavier"
      std: 0.03
    }
    bias_filler {
      type: "constant"
      value: 0.2
    }
  }
}
layer {
  name: "inception_3a/relu_5x5"
  type: "ReLU"
  bottom: "inception_3a/5x5"
  top: "inception_3a/5x5"
}
layer {
  name: "inception_3a/pool"
  type: "Pooling"
  bottom: "pool2/3x3_s2"
  top: "inception_3a/pool"
  pooling_param {
    pool: MAX
    kernel_size: 3
    stride: 1
    pad: 1
  }
}
layer {
  name: "inception_3a/pool_proj"
  type: "Convolution"
  bottom: "inception_3a/pool"
  top: "inception_3a/pool_proj"
  param {
    lr_mult: 1
    decay_mult: 1
  }
  param {
    lr_mult: 2
    decay_mult: 0
  }
  convolution_param {
    num_output: 32
    kernel_size: 1
    weight_filler {
      type: "xavier"
      std: 0.1
    }
    bias_filler {
      type: "constant"
      value: 0.2
    }
  }
}
layer {
  name: "inception_3a/relu_pool_proj"
  type: "ReLU"
  bottom: "inception_3a/pool_proj"
  top: "inception_3a/pool_proj"
}
layer {
  name: "inception_3a/output"
  type: "Concat"
  bottom: "inception_3a/1x1"
  bottom: "inception_3a/3x3"
  bottom: "inception_3a/5x5"
  bottom: "inception_3a/pool_proj"
  top: "inception_3a/output"
}
layer {
  name: "inception_3b/1x1"
  type: "Convolution"
  bottom: "inception_3a/output"
  top: "inception_3b/1x1"
  param {
    lr_mult: 1
    decay_mult: 1
  }
  param {
    lr_mult: 2
    decay_mult: 0
  }
  convolution_param {
    num_output: 128
    kernel_size: 1
    weight_filler {
      type: "xavier"
      std: 0.03
    }
    bias_filler {
      type: "constant"
      value: 0.2
    }
  }
}
layer {
  name: "inception_3b/relu_1x1"
  type: "ReLU"
  bottom: "inception_3b/1x1"
  top: "inception_3b/1x1"
}
layer {
  name: "inception_3b/3x3_reduce"
  type: "Convolution"
  bottom: "inception_3a/output"
  top: "inception_3b/3x3_reduce"
  param {
    lr_mult: 1
    decay_mult: 1
  }
  param {
    lr_mult: 2
    decay_mult: 0
  }
  convolution_param {
    num_output: 128
    kernel_size: 1
    weight_filler {
      type: "xavier"
      std: 0.09
    }
    bias_filler {
      type: "constant"
      value: 0.2
    }
  }
}
layer {
  name: "inception_3b/relu_3x3_reduce"
  type: "ReLU"
  bottom: "inception_3b/3x3_reduce"
  top: "inception_3b/3x3_reduce"
}
layer {
  name: "inception_3b/3x3"
  type: "Convolution"
  bottom: "inception_3b/3x3_reduce"
  top: "inception_3b/3x3"
  param {
    lr_mult: 1
    decay_mult: 1
  }
  param {
    lr_mult: 2
    decay_mult: 0
  }
  convolution_param {
    num_output: 192
    pad: 1
    kernel_size: 3
    weight_filler {
      type: "xavier"
      std: 0.03
    }
    bias_filler {
      type: "constant"
      value: 0.2
    }
  }
}
layer {
  name: "inception_3b/relu_3x3"
  type: "ReLU"
  bottom: "inception_3b/3x3"
  top: "inception_3b/3x3"
}
layer {
  name: "inception_3b/5x5_reduce"
  type: "Convolution"
  bottom: "inception_3a/output"
  top: "inception_3b/5x5_reduce"
  param {
    lr_mult: 1
    decay_mult: 1
  }
  param {
    lr_mult: 2
    decay_mult: 0
  }
  convolution_param {
    num_output: 32
    kernel_size: 1
    weight_filler {
      type: "xavier"
      std: 0.2
    }
    bias_filler {
      type: "constant"
      value: 0.2
    }
  }
}
layer {
  name: "inception_3b/relu_5x5_reduce"
  type: "ReLU"
  bottom: "inception_3b/5x5_reduce"
  top: "inception_3b/5x5_reduce"
}
layer {
  name: "inception_3b/5x5"
  type: "Convolution"
  bottom: "inception_3b/5x5_reduce"
  top: "inception_3b/5x5"
  param {
    lr_mult: 1
    decay_mult: 1
  }
  param {
    lr_mult: 2
    decay_mult: 0
  }
  convolution_param {
    num_output: 96
    pad: 2
    kernel_size: 5
    weight_filler {
      type: "xavier"
      std: 0.03
    }
    bias_filler {
      type: "constant"
      value: 0.2
    }
  }
}
layer {
  name: "inception_3b/relu_5x5"
  type: "ReLU"
  bottom: "inception_3b/5x5"
  top: "inception_3b/5x5"
}
layer {
  name: "inception_3b/pool"
  type: "Pooling"
  bottom: "inception_3a/output"
  top: "inception_3b/pool"
  pooling_param {
    pool: MAX
    kernel_size: 3
    stride: 1
    pad: 1
  }
}
layer {
  name: "inception_3b/pool_proj"
  type: "Convolution"
  bottom: "inception_3b/pool"
  top: "inception_3b/pool_proj"
  param {
    lr_mult: 1
    decay_mult: 1
  }
  param {
    lr_mult: 2
    decay_mult: 0
  }
  convolution_param {
    num_output: 64
    kernel_size: 1
    weight_filler {
      type: "xavier"
      std: 0.1
    }
    bias_filler {
      type: "constant"
      value: 0.2
    }
  }
}
layer {
  name: "inception_3b/relu_pool_proj"
  type: "ReLU"
  bottom: "inception_3b/pool_proj"
  top: "inception_3b/pool_proj"
}
layer {
  name: "inception_3b/output"
  type: "Concat"
  bottom: "inception_3b/1x1"
  bottom: "inception_3b/3x3"
  bottom: "inception_3b/5x5"
  bottom: "inception_3b/pool_proj"
  top: "inception_3b/output"
}
layer {
  name: "pool3/3x3_s2"
  type: "Pooling"
  bottom: "inception_3b/output"
  top: "pool3/3x3_s2"
  pooling_param {
    pool: MAX
    kernel_size: 3
    stride: 2
  }
}
layer {
  name: "inception_4a/1x1"
  type: "Convolution"
  bottom: "pool3/3x3_s2"
  top: "inception_4a/1x1"
  param {
    lr_mult: 1
    decay_mult: 1
  }
  param {
    lr_mult: 2
    decay_mult: 0
  }
  convolution_param {
    num_output: 192
    kernel_size: 1
    weight_filler {
      type: "xavier"
      std: 0.03
    }
    bias_filler {
      type: "constant"
      value: 0.2
    }
  }
}
layer {
  name: "inception_4a/relu_1x1"
  type: "ReLU"
  bottom: "inception_4a/1x1"
  top: "inception_4a/1x1"
}
layer {
  name: "inception_4a/3x3_reduce"
  type: "Convolution"
  bottom: "pool3/3x3_s2"
  top: "inception_4a/3x3_reduce"
  param {
    lr_mult: 1
    decay_mult: 1
  }
  param {
    lr_mult: 2
    decay_mult: 0
  }
  convolution_param {
    num_output: 96
    kernel_size: 1
    weight_filler {
      type: "xavier"
      std: 0.09
    }
    bias_filler {
      type: "constant"
      value: 0.2
    }
  }
}
layer {
  name: "inception_4a/relu_3x3_reduce"
  type: "ReLU"
  bottom: "inception_4a/3x3_reduce"
  top: "inception_4a/3x3_reduce"
}
layer {
  name: "inception_4a/3x3"
  type: "Convolution"
  bottom: "inception_4a/3x3_reduce"
  top: "inception_4a/3x3"
  param {
    lr_mult: 1
    decay_mult: 1
  }
  param {
    lr_mult: 2
    decay_mult: 0
  }
  convolution_param {
    num_output: 208
    pad: 1
    kernel_size: 3
    weight_filler {
      type: "xavier"
      std: 0.03
    }
    bias_filler {
      type: "constant"
      value: 0.2
    }
  }
}
layer {
  name: "inception_4a/relu_3x3"
  type: "ReLU"
  bottom: "inception_4a/3x3"
  top: "inception_4a/3x3"
}
layer {
  name: "inception_4a/5x5_reduce"
  type: "Convolution"
  bottom: "pool3/3x3_s2"
  top: "inception_4a/5x5_reduce"
  param {
    lr_mult: 1
    decay_mult: 1
  }
  param {
    lr_mult: 2
    decay_mult: 0
  }
  convolution_param {
    num_output: 16
    kernel_size: 1
    weight_filler {
      type: "xavier"
      std: 0.2
    }
    bias_filler {
      type: "constant"
      value: 0.2
    }
  }
}
layer {
  name: "inception_4a/relu_5x5_reduce"
  type: "ReLU"
  bottom: "inception_4a/5x5_reduce"
  top: "inception_4a/5x5_reduce"
}
layer {
  name: "inception_4a/5x5"
  type: "Convolution"
  bottom: "inception_4a/5x5_reduce"
  top: "inception_4a/5x5"
  param {
    lr_mult: 1
    decay_mult: 1
  }
  param {
    lr_mult: 2
    decay_mult: 0
  }
  convolution_param {
    num_output: 48
    pad: 2
    kernel_size: 5
    weight_filler {
      type: "xavier"
      std: 0.03
    }
    bias_filler {
      type: "constant"
      value: 0.2
    }
  }
}
layer {
  name: "inception_4a/relu_5x5"
  type: "ReLU"
  bottom: "inception_4a/5x5"
  top: "inception_4a/5x5"
}
layer {
  name: "inception_4a/pool"
  type: "Pooling"
  bottom: "pool3/3x3_s2"
  top: "inception_4a/pool"
  pooling_param {
    pool: MAX
    kernel_size: 3
    stride: 1
    pad: 1
  }
}
layer {
  name: "inception_4a/pool_proj"
  type: "Convolution"
  bottom: "inception_4a/pool"
  top: "inception_4a/pool_proj"
  param {
    lr_mult: 1
    decay_mult: 1
  }
  param {
    lr_mult: 2
    decay_mult: 0
  }
  convolution_param {
    num_output: 64
    kernel_size: 1
    weight_filler {
      type: "xavier"
      std: 0.1
    }
    bias_filler {
      type: "constant"
      value: 0.2
    }
  }
}
layer {
  name: "inception_4a/relu_pool_proj"
  type: "ReLU"
  bottom: "inception_4a/pool_proj"
  top: "inception_4a/pool_proj"
}
layer {
  name: "inception_4a/output"
  type: "Concat"
  bottom: "inception_4a/1x1"
  bottom: "inception_4a/3x3"
  bottom: "inception_4a/5x5"
  bottom: "inception_4a/pool_proj"
  top: "inception_4a/output"
}
layer {
  name: "loss1/ave_pool"
  type: "Pooling"
  bottom: "inception_4a/output"
  top: "loss1/ave_pool"
  pooling_param {
    pool: AVE
    kernel_size: 5
    stride: 3
  }
}
layer {
  name: "loss1/conv"
  type: "Convolution"
  bottom: "loss1/ave_pool"
  top: "loss1/conv"
  param {
    lr_mult: 1
    decay_mult: 1
  }
  param {
    lr_mult: 2
    decay_mult: 0
  }
  convolution_param {
    num_output: 128
    kernel_size: 1
    weight_filler {
      type: "xavier"
      std: 0.08
    }
    bias_filler {
      type: "constant"
      value: 0.2
    }
  }
}
layer {
  name: "loss1/relu_conv"
  type: "ReLU"
  bottom: "loss1/conv"
  top: "loss1/conv"
}
layer {
  name: "loss1/fc"
  type: "InnerProduct"
  bottom: "loss1/conv"
  top: "loss1/fc"
  param {
    lr_mult: 1
    decay_mult: 1
  }
  param {
    lr_mult: 2
    decay_mult: 0
  }
  inner_product_param {
    num_output: 1024
    weight_filler {
      type: "xavier"
      std: 0.02
    }
    bias_filler {
      type: "constant"
      value: 0.2
    }
  }
}
layer {
  name: "loss1/relu_fc"
  type: "ReLU"
  bottom: "loss1/fc"
  top: "loss1/fc"
}
layer {
  name: "loss1/drop_fc"
  type: "Dropout"
  bottom: "loss1/fc"
  top: "loss1/fc"
  dropout_param {
    dropout_ratio: 0.7
  }
}
layer {
  name: "loss1/classifier_plantvillage"
  type: "InnerProduct"
  bottom: "loss1/fc"
  top: "loss1/classifier_plantvillage"
  param {
    lr_mult: 1
    decay_mult: 1
  }
  param {
    lr_mult: 2
    decay_mult: 0
  }
  inner_product_param {
    num_output: 38
    weight_filler {
      type: "xavier"
      std: 0.0009765625
    }
    bias_filler {
      type: "constant"
      value: 0
    }
  }
}
layer {
  name: "inception_4b/1x1"
  type: "Convolution"
  bottom: "inception_4a/output"
  top: "inception_4b/1x1"
  param {
    lr_mult: 1
    decay_mult: 1
  }
  param {
    lr_mult: 2
    decay_mult: 0
  }
  convolution_param {
    num_output: 160
    kernel_size: 1
    weight_filler {
      type: "xavier"
      std: 0.03
    }
    bias_filler {
      type: "constant"
      value: 0.2
    }
  }
}
layer {
…
I0403 11:41:37.373872  6498 layer_factory.hpp:77] Creating layer inception_4c/pool
I0403 11:41:37.373895  6498 net.cpp:91] Creating Layer inception_4c/pool
I0403 11:41:37.373917  6498 net.cpp:425] inception_4c/pool <- inception_4b/output_inception_4b/output_0_split_3
I0403 11:41:37.373942  6498 net.cpp:399] inception_4c/pool -> inception_4c/pool
I0403 11:41:37.374020  6498 net.cpp:141] Setting up inception_4c/pool
I0403 11:41:37.374052  6498 net.cpp:148] Top shape: 24 512 14 14 (2408448)
I0403 11:41:37.374073  6498 net.cpp:156] Memory required for data: 1060605120
I0403 11:41:37.374094  6498 layer_factory.hpp:77] Creating layer inception_4c/pool_proj
I0403 11:41:37.374125  6498 net.cpp:91] Creating Layer inception_4c/pool_proj
I0403 11:41:37.374150  6498 net.cpp:425] inception_4c/pool_proj <- inception_4c/pool
I0403 11:41:37.374179  6498 net.cpp:399] inception_4c/pool_proj -> inception_4c/pool_proj
I0403 11:41:37.374722  6498 net.cpp:141] Setting up inception_4c/pool_proj
I0403 11:41:37.374755  6498 net.cpp:148] Top shape: 24 64 14 14 (301056)
I0403 11:41:37.374776  6498 net.cpp:156] Memory required for data: 1061809344
I0403 11:41:37.374801  6498 layer_factory.hpp:77] Creating layer inception_4c/relu_pool_proj
I0403 11:41:37.374833  6498 net.cpp:91] Creating Layer inception_4c/relu_pool_proj
I0403 11:41:37.374857  6498 net.cpp:425] inception_4c/relu_pool_proj <- inception_4c/pool_proj
I0403 11:41:37.374881  6498 net.cpp:386] inception_4c/relu_pool_proj -> inception_4c/pool_proj (in-place)
I0403 11:41:37.374908  6498 net.cpp:141] Setting up inception_4c/relu_pool_proj
I0403 11:41:37.374933  6498 net.cpp:148] Top shape: 24 64 14 14 (301056)
I0403 11:41:37.374953  6498 net.cpp:156] Memory required for data: 1063013568
I0403 11:41:37.374972  6498 layer_factory.hpp:77] Creating layer inception_4c/output
I0403 11:41:37.375000  6498 net.cpp:91] Creating Layer inception_4c/output
I0403 11:41:37.375021  6498 net.cpp:425] inception_4c/output <- inception_4c/1x1
I0403 11:41:37.375043  6498 net.cpp:425] inception_4c/output <- inception_4c/3x3
I0403 11:41:37.375066  6498 net.cpp:425] inception_4c/output <- inception_4c/5x5
I0403 11:41:37.375089  6498 net.cpp:425] inception_4c/output <- inception_4c/pool_proj
I0403 11:41:37.375113  6498 net.cpp:399] inception_4c/output -> inception_4c/output
I0403 11:41:37.375165  6498 net.cpp:141] Setting up inception_4c/output
I0403 11:41:37.375198  6498 net.cpp:148] Top shape: 24 512 14 14 (2408448)
I0403 11:41:37.375221  6498 net.cpp:156] Memory required for data: 1072647360
I0403 11:41:37.375241  6498 layer_factory.hpp:77] Creating layer inception_4c/output_inception_4c/output_0_split
I0403 11:41:37.375283  6498 net.cpp:91] Creating Layer inception_4c/output_inception_4c/output_0_split
I0403 11:41:37.375310  6498 net.cpp:425] inception_4c/output_inception_4c/output_0_split <- inception_4c/output
I0403 11:41:37.375339  6498 net.cpp:399] inception_4c/output_inception_4c/output_0_split -> inception_4c/output_inception_4c/output_0_split_0
I0403 11:41:37.375367  6498 net.cpp:399] inception_4c/output_inception_4c/output_0_split -> inception_4c/output_inception_4c/output_0_split_1
I0403 11:41:37.375396  6498 net.cpp:399] inception_4c/output_inception_4c/output_0_split -> inception_4c/output_inception_4c/output_0_split_2
I0403 11:41:37.375423  6498 net.cpp:399] inception_4c/output_inception_4c/output_0_split -> inception_4c/output_inception_4c/output_0_split_3
I0403 11:41:37.375537  6498 net.cpp:141] Setting up inception_4c/output_inception_4c/output_0_split
I0403 11:41:37.375571  6498 net.cpp:148] Top shape: 24 512 14 14 (2408448)
I0403 11:41:37.375594  6498 net.cpp:148] Top shape: 24 512 14 14 (2408448)
I0403 11:41:37.375706  6498 net.cpp:148] Top shape: 24 512 14 14 (2408448)
I0403 11:41:37.375732  6498 net.cpp:148] Top shape: 24 512 14 14 (2408448)
I0403 11:41:37.375752  6498 net.cpp:156] Memory required for data: 1111182528
I0403 11:41:37.375773  6498 layer_factory.hpp:77] Creating layer inception_4d/1x1
I0403 11:41:37.375802  6498 net.cpp:91] Creating Layer inception_4d/1x1
I0403 11:41:37.375824  6498 net.cpp:425] inception_4d/1x1 <- inception_4c/output_inception_4c/output_0_split_0
I0403 11:41:37.375854  6498 net.cpp:399] inception_4d/1x1 -> inception_4d/1x1
I0403 11:41:37.376565  6498 net.cpp:141] Setting up inception_4d/1x1
I0403 11:41:37.376600  6498 net.cpp:148] Top shape: 24 112 14 14 (526848)
I0403 11:41:37.376621  6498 net.cpp:156] Memory required for data: 1113289920
I0403 11:41:37.376646  6498 layer_factory.hpp:77] Creating layer inception_4d/relu_1x1
I0403 11:41:37.376669  6498 net.cpp:91] Creating Layer inception_4d/relu_1x1
I0403 11:41:37.376691  6498 net.cpp:425] inception_4d/relu_1x1 <- inception_4d/1x1
I0403 11:41:37.376715  6498 net.cpp:386] inception_4d/relu_1x1 -> inception_4d/1x1 (in-place)
I0403 11:41:37.376741  6498 net.cpp:141] Setting up inception_4d/relu_1x1
I0403 11:41:37.376765  6498 net.cpp:148] Top shape: 24 112 14 14 (526848)
I0403 11:41:37.376785  6498 net.cpp:156] Memory required for data: 1115397312
I0403 11:41:37.376806  6498 layer_factory.hpp:77] Creating layer inception_4d/3x3_reduce
I0403 11:41:37.376837  6498 net.cpp:91] Creating Layer inception_4d/3x3_reduce
I0403 11:41:37.376860  6498 net.cpp:425] inception_4d/3x3_reduce <- inception_4c/output_inception_4c/output_0_split_1
I0403 11:41:37.376889  6498 net.cpp:399] inception_4d/3x3_reduce -> inception_4d/3x3_reduce
I0403 11:41:37.377812  6498 net.cpp:141] Setting up inception_4d/3x3_reduce
I0403 11:41:37.377846  6498 net.cpp:148] Top shape: 24 144 14 14 (677376)
I0403 11:41:37.377867  6498 net.cpp:156] Memory required for data: 1118106816
I0403 11:41:37.377892  6498 layer_factory.hpp:77] Creating layer inception_4d/relu_3x3_reduce
I0403 11:41:37.377918  6498 net.cpp:91] Creating Layer inception_4d/relu_3x3_reduce
I0403 11:41:37.377941  6498 net.cpp:425] inception_4d/relu_3x3_reduce <- inception_4d/3x3_reduce
I0403 11:41:37.377965  6498 net.cpp:386] inception_4d/relu_3x3_reduce -> inception_4d/3x3_reduce (in-place)
I0403 11:41:37.377996  6498 net.cpp:141] Setting up inception_4d/relu_3x3_reduce
I0403 11:41:37.378020  6498 net.cpp:148] Top shape: 24 144 14 14 (677376)
I0403 11:41:37.378039  6498 net.cpp:156] Memory required for data: 1120816320
I0403 11:41:37.378059  6498 layer_factory.hpp:77] Creating layer inception_4d/3x3
I0403 11:41:37.378087  6498 net.cpp:91] Creating Layer inception_4d/3x3
I0403 11:41:37.378108  6498 net.cpp:425] inception_4d/3x3 <- inception_4d/3x3_reduce
I0403 11:41:37.378140  6498 net.cpp:399] inception_4d/3x3 -> inception_4d/3x3
I0403 11:41:37.382385  6498 net.cpp:141] Setting up inception_4d/3x3
I0403 11:41:37.382421  6498 net.cpp:148] Top shape: 24 288 14 14 (1354752)
I0403 11:41:37.382443  6498 net.cpp:156] Memory required for data: 1126235328
I0403 11:41:37.382468  6498 layer_factory.hpp:77] Creating layer inception_4d/relu_3x3
I0403 11:41:37.382498  6498 net.cpp:91] Creating Layer inception_4d/relu_3x3
I0403 11:41:37.382522  6498 net.cpp:425] inception_4d/relu_3x3 <- inception_4d/3x3
I0403 11:41:37.382550  6498 net.cpp:386] inception_4d/relu_3x3 -> inception_4d/3x3 (in-place)
I0403 11:41:37.382575  6498 net.cpp:141] Setting up inception_4d/relu_3x3
I0403 11:41:37.382601  6498 net.cpp:148] Top shape: 24 288 14 14 (1354752)
I0403 11:41:37.382621  6498 net.cpp:156] Memory required for data: 1131654336
I0403 11:41:37.382642  6498 layer_factory.hpp:77] Creating layer inception_4d/5x5_reduce
I0403 11:41:37.382691  6498 net.cpp:91] Creating Layer inception_4d/5x5_reduce
I0403 11:41:37.382717  6498 net.cpp:425] inception_4d/5x5_reduce <- inception_4c/output_inception_4c/output_0_split_2
I0403 11:41:37.382747  6498 net.cpp:399] inception_4d/5x5_reduce -> inception_4d/5x5_reduce
I0403 11:41:37.383175  6498 net.cpp:141] Setting up inception_4d/5x5_reduce
I0403 11:41:37.383208  6498 net.cpp:148] Top shape: 24 32 14 14 (150528)
I0403 11:41:37.383229  6498 net.cpp:156] Memory required for data: 1132256448
I0403 11:41:37.383260  6498 layer_factory.hpp:77] Creating layer inception_4d/relu_5x5_reduce
I0403 11:41:37.383286  6498 net.cpp:91] Creating Layer inception_4d/relu_5x5_reduce
I0403 11:41:37.383309  6498 net.cpp:425] inception_4d/relu_5x5_reduce <- inception_4d/5x5_reduce
I0403 11:41:37.383333  6498 net.cpp:386] inception_4d/relu_5x5_reduce -> inception_4d/5x5_reduce (in-place)
I0403 11:41:37.383359  6498 net.cpp:141] Setting up inception_4d/relu_5x5_reduce
I0403 11:41:37.383383  6498 net.cpp:148] Top shape: 24 32 14 14 (150528)
I0403 11:41:37.383404  6498 net.cpp:156] Memory required for data: 1132858560
I0403 11:41:37.383424  6498 layer_factory.hpp:77] Creating layer inception_4d/5x5
I0403 11:41:37.383455  6498 net.cpp:91] Creating Layer inception_4d/5x5
I0403 11:41:37.383481  6498 net.cpp:425] inception_4d/5x5 <- inception_4d/5x5_reduce
I0403 11:41:37.383509  6498 net.cpp:399] inception_4d/5x5 -> inception_4d/5x5
I0403 11:41:37.384282  6498 net.cpp:141] Setting up inception_4d/5x5
I0403 11:41:37.384315  6498 net.cpp:148] Top shape: 24 64 14 14 (301056)
I0403 11:41:37.384337  6498 net.cpp:156] Memory required for data: 1134062784
I0403 11:41:37.384362  6498 layer_factory.hpp:77] Creating layer inception_4d/relu_5x5
I0403 11:41:37.384390  6498 net.cpp:91] Creating Layer inception_4d/relu_5x5
I0403 11:41:37.384414  6498 net.cpp:425] inception_4d/relu_5x5 <- inception_4d/5x5
I0403 11:41:37.384439  6498 net.cpp:386] inception_4d/relu_5x5 -> inception_4d/5x5 (in-place)
I0403 11:41:37.384466  6498 net.cpp:141] Setting up inception_4d/relu_5x5
I0403 11:41:37.384491  6498 net.cpp:148] Top shape: 24 64 14 14 (301056)
I0403 11:41:37.384511  6498 net.cpp:156] Memory required for data: 1135267008
I0403 11:41:37.384531  6498 layer_factory.hpp:77] Creating layer inception_4d/pool
I0403 11:41:37.384557  6498 net.cpp:91] Creating Layer inception_4d/pool
I0403 11:41:37.384582  6498 net.cpp:425] inception_4d/pool <- inception_4c/output_inception_4c/output_0_split_3
I0403 11:41:37.384606  6498 net.cpp:399] inception_4d/pool -> inception_4d/pool
I0403 11:41:37.384680  6498 net.cpp:141] Setting up inception_4d/pool
I0403 11:41:37.384711  6498 net.cpp:148] Top shape: 24 512 14 14 (2408448)
I0403 11:41:37.384732  6498 net.cpp:156] Memory required for data: 1144900800
I0403 11:41:37.384753  6498 layer_factory.hpp:77] Creating layer inception_4d/pool_proj
I0403 11:41:37.384784  6498 net.cpp:91] Creating Layer inception_4d/pool_proj
I0403 11:41:37.384809  6498 net.cpp:425] inception_4d/pool_proj <- inception_4d/pool
I0403 11:41:37.384835  6498 net.cpp:399] inception_4d/pool_proj -> inception_4d/pool_proj
I0403 11:41:37.385381  6498 net.cpp:141] Setting up inception_4d/pool_proj
I0403 11:41:37.385414  6498 net.cpp:148] Top shape: 24 64 14 14 (301056)
I0403 11:41:37.385437  6498 net.cpp:156] Memory required for data: 1146105024
I0403 11:41:37.385459  6498 layer_factory.hpp:77] Creating layer inception_4d/relu_pool_proj
I0403 11:41:37.385484  6498 net.cpp:91] Creating Layer inception_4d/relu_pool_proj
I0403 11:41:37.385507  6498 net.cpp:425] inception_4d/relu_pool_proj <- inception_4d/pool_proj
I0403 11:41:37.385535  6498 net.cpp:386] inception_4d/relu_pool_proj -> inception_4d/pool_proj (in-place)
I0403 11:41:37.385563  6498 net.cpp:141] Setting up inception_4d/relu_pool_proj
I0403 11:41:37.385588  6498 net.cpp:148] Top shape: 24 64 14 14 (301056)
I0403 11:41:37.385608  6498 net.cpp:156] Memory required for data: 1147309248
I0403 11:41:37.385628  6498 layer_factory.hpp:77] Creating layer inception_4d/output
I0403 11:41:37.385669  6498 net.cpp:91] Creating Layer inception_4d/output
I0403 11:41:37.385694  6498 net.cpp:425] inception_4d/output <- inception_4d/1x1
I0403 11:41:37.385717  6498 net.cpp:425] inception_4d/output <- inception_4d/3x3
I0403 11:41:37.385740  6498 net.cpp:425] inception_4d/output <- inception_4d/5x5
I0403 11:41:37.385761  6498 net.cpp:425] inception_4d/output <- inception_4d/pool_proj
I0403 11:41:37.385785  6498 net.cpp:399] inception_4d/output -> inception_4d/output
I0403 11:41:37.385843  6498 net.cpp:141] Setting up inception_4d/output
I0403 11:41:37.385874  6498 net.cpp:148] Top shape: 24 528 14 14 (2483712)
I0403 11:41:37.385895  6498 net.cpp:156] Memory required for data: 1157244096
I0403 11:41:37.385916  6498 layer_factory.hpp:77] Creating layer inception_4d/output_inception_4d/output_0_split
I0403 11:41:37.385941  6498 net.cpp:91] Creating Layer inception_4d/output_inception_4d/output_0_split
I0403 11:41:37.385962  6498 net.cpp:425] inception_4d/output_inception_4d/output_0_split <- inception_4d/output
I0403 11:41:37.385989  6498 net.cpp:399] inception_4d/output_inception_4d/output_0_split -> inception_4d/output_inception_4d/output_0_split_0
I0403 11:41:37.386019  6498 net.cpp:399] inception_4d/output_inception_4d/output_0_split -> inception_4d/output_inception_4d/output_0_split_1
I0403 11:41:37.386049  6498 net.cpp:399] inception_4d/output_inception_4d/output_0_split -> inception_4d/output_inception_4d/output_0_split_2
I0403 11:41:37.386080  6498 net.cpp:399] inception_4d/output_inception_4d/output_0_split -> inception_4d/output_inception_4d/output_0_split_3
I0403 11:41:37.386107  6498 net.cpp:399] inception_4d/output_inception_4d/output_0_split -> inception_4d/output_inception_4d/output_0_split_4
I0403 11:41:37.386335  6498 net.cpp:141] Setting up inception_4d/output_inception_4d/output_0_split
I0403 11:41:37.386368  6498 net.cpp:148] Top shape: 24 528 14 14 (2483712)
I0403 11:41:37.386390  6498 net.cpp:148] Top shape: 24 528 14 14 (2483712)
I0403 11:41:37.386412  6498 net.cpp:148] Top shape: 24 528 14 14 (2483712)
I0403 11:41:37.386435  6498 net.cpp:148] Top shape: 24 528 14 14 (2483712)
I0403 11:41:37.386454  6498 net.cpp:148] Top shape: 24 528 14 14 (2483712)
I0403 11:41:37.386474  6498 net.cpp:156] Memory required for data: 1206918336
I0403 11:41:37.386494  6498 layer_factory.hpp:77] Creating layer loss2/ave_pool
I0403 11:41:37.386520  6498 net.cpp:91] Creating Layer loss2/ave_pool
I0403 11:41:37.386541  6498 net.cpp:425] loss2/ave_pool <- inception_4d/output_inception_4d/output_0_split_0
I0403 11:41:37.386570  6498 net.cpp:399] loss2/ave_pool -> loss2/ave_pool
I0403 11:41:37.386628  6498 net.cpp:141] Setting up loss2/ave_pool
I0403 11:41:37.386658  6498 net.cpp:148] Top shape: 24 528 4 4 (202752)
I0403 11:41:37.386679  6498 net.cpp:156] Memory required for data: 1207729344
I0403 11:41:37.386699  6498 layer_factory.hpp:77] Creating layer loss2/conv
I0403 11:41:37.386731  6498 net.cpp:91] Creating Layer loss2/conv
I0403 11:41:37.386756  6498 net.cpp:425] loss2/conv <- loss2/ave_pool
I0403 11:41:37.386782  6498 net.cpp:399] loss2/conv -> loss2/conv
I0403 11:41:37.388167  6498 net.cpp:141] Setting up loss2/conv
I0403 11:41:37.388205  6498 net.cpp:148] Top shape: 24 128 4 4 (49152)
I0403 11:41:37.388226  6498 net.cpp:156] Memory required for data: 1207925952
I0403 11:41:37.388252  6498 layer_factory.hpp:77] Creating layer loss2/relu_conv
I0403 11:41:37.388288  6498 net.cpp:91] Creating Layer loss2/relu_conv
I0403 11:41:37.388311  6498 net.cpp:425] loss2/relu_conv <- loss2/conv
I0403 11:41:37.388335  6498 net.cpp:386] loss2/relu_conv -> loss2/conv (in-place)
I0403 11:41:37.388365  6498 net.cpp:141] Setting up loss2/relu_conv
I0403 11:41:37.388391  6498 net.cpp:148] Top shape: 24 128 4 4 (49152)
I0403 11:41:37.388551  6498 net.cpp:156] Memory required for data: 1208122560
I0403 11:41:37.388581  6498 layer_factory.hpp:77] Creating layer loss2/fc
I0403 11:41:37.388609  6498 net.cpp:91] Creating Layer loss2/fc
I0403 11:41:37.388633  6498 net.cpp:425] loss2/fc <- loss2/conv
I0403 11:41:37.388658  6498 net.cpp:399] loss2/fc -> loss2/fc
I0403 11:41:37.409723  6498 net.cpp:141] Setting up loss2/fc
I0403 11:41:37.409785  6498 net.cpp:148] Top shape: 24 1024 (24576)
I0403 11:41:37.409807  6498 net.cpp:156] Memory required for data: 1208220864
I0403 11:41:37.409834  6498 layer_factory.hpp:77] Creating layer loss2/relu_fc
I0403 11:41:37.409863  6498 net.cpp:91] Creating Layer loss2/relu_fc
I0403 11:41:37.409888  6498 net.cpp:425] loss2/relu_fc <- loss2/fc
I0403 11:41:37.409911  6498 net.cpp:386] loss2/relu_fc -> loss2/fc (in-place)
I0403 11:41:37.409945  6498 net.cpp:141] Setting up loss2/relu_fc
I0403 11:41:37.409970  6498 net.cpp:148] Top shape: 24 1024 (24576)
I0403 11:41:37.409991  6498 net.cpp:156] Memory required for data: 1208319168
I0403 11:41:37.410012  6498 layer_factory.hpp:77] Creating layer loss2/drop_fc
I0403 11:41:37.410037  6498 net.cpp:91] Creating Layer loss2/drop_fc
I0403 11:41:37.410060  6498 net.cpp:425] loss2/drop_fc <- loss2/fc
I0403 11:41:37.410084  6498 net.cpp:386] loss2/drop_fc -> loss2/fc (in-place)
I0403 11:41:37.410145  6498 net.cpp:141] Setting up loss2/drop_fc
I0403 11:41:37.410176  6498 net.cpp:148] Top shape: 24 1024 (24576)
I0403 11:41:37.410197  6498 net.cpp:156] Memory required for data: 1208417472
I0403 11:41:37.410217  6498 layer_factory.hpp:77] Creating layer loss2/classifier_plantvillage
I0403 11:41:37.410243  6498 net.cpp:91] Creating Layer loss2/classifier_plantvillage
I0403 11:41:37.410271  6498 net.cpp:425] loss2/classifier_plantvillage <- loss2/fc
I0403 11:41:37.410302  6498 net.cpp:399] loss2/classifier_plantvillage -> loss2/classifier_plantvillage
I0403 11:41:37.410750  6498 net.cpp:141] Setting up loss2/classifier_plantvillage
I0403 11:41:37.410783  6498 net.cpp:148] Top shape: 24 38 (912)
I0403 11:41:37.410804  6498 net.cpp:156] Memory required for data: 1208421120
I0403 11:41:37.410828  6498 layer_factory.hpp:77] Creating layer loss2/classifier_plantvillage_loss2/classifier_plantvillage_0_split
I0403 11:41:37.410854  6498 net.cpp:91] Creating Layer loss2/classifier_plantvillage_loss2/classifier_plantvillage_0_split
I0403 11:41:37.410877  6498 net.cpp:425] loss2/classifier_plantvillage_loss2/classifier_plantvillage_0_split <- loss2/classifier_plantvillage
I0403 11:41:37.410903  6498 net.cpp:399] loss2/classifier_plantvillage_loss2/classifier_plantvillage_0_split -> loss2/classifier_plantvillage_loss2/classifier_plantvillage_0_split_0
I0403 11:41:37.410933  6498 net.cpp:399] loss2/classifier_plantvillage_loss2/classifier_plantvillage_0_split -> loss2/classifier_plantvillage_loss2/classifier_plantvillage_0_split_1
I0403 11:41:37.410964  6498 net.cpp:399] loss2/classifier_plantvillage_loss2/classifier_plantvillage_0_split -> loss2/classifier_plantvillage_loss2/classifier_plantvillage_0_split_2
I0403 11:41:37.411051  6498 net.cpp:141] Setting up loss2/classifier_plantvillage_loss2/classifier_plantvillage_0_split
I0403 11:41:37.411082  6498 net.cpp:148] Top shape: 24 38 (912)
I0403 11:41:37.411104  6498 net.cpp:148] Top shape: 24 38 (912)
I0403 11:41:37.411126  6498 net.cpp:148] Top shape: 24 38 (912)
I0403 11:41:37.411146  6498 net.cpp:156] Memory required for data: 1208432064
I0403 11:41:37.411166  6498 layer_factory.hpp:77] Creating layer inception_4e/1x1
I0403 11:41:37.411195  6498 net.cpp:91] Creating Layer inception_4e/1x1
I0403 11:41:37.411219  6498 net.cpp:425] inception_4e/1x1 <- inception_4d/output_inception_4d/output_0_split_1
I0403 11:41:37.411249  6498 net.cpp:399] inception_4e/1x1 -> inception_4e/1x1
I0403 11:41:37.412623  6498 net.cpp:141] Setting up inception_4e/1x1
I0403 11:41:37.412663  6498 net.cpp:148] Top shape: 24 256 14 14 (1204224)
I0403 11:41:37.412685  6498 net.cpp:156] Memory required for data: 1213248960
I0403 11:41:37.412714  6498 layer_factory.hpp:77] Creating layer inception_4e/relu_1x1
I0403 11:41:37.412749  6498 net.cpp:91] Creating Layer inception_4e/relu_1x1
I0403 11:41:37.412772  6498 net.cpp:425] inception_4e/relu_1x1 <- inception_4e/1x1
I0403 11:41:37.412796  6498 net.cpp:386] inception_4e/relu_1x1 -> inception_4e/1x1 (in-place)
I0403 11:41:37.412853  6498 net.cpp:141] Setting up inception_4e/relu_1x1
I0403 11:41:37.412880  6498 net.cpp:148] Top shape: 24 256 14 14 (1204224)
I0403 11:41:37.412911  6498 net.cpp:156] Memory required for data: 1218065856
I0403 11:41:37.412933  6498 layer_factory.hpp:77] Creating layer inception_4e/3x3_reduce
I0403 11:41:37.412971  6498 net.cpp:91] Creating Layer inception_4e/3x3_reduce
I0403 11:41:37.412997  6498 net.cpp:425] inception_4e/3x3_reduce <- inception_4d/output_inception_4d/output_0_split_2
I0403 11:41:37.413028  6498 net.cpp:399] inception_4e/3x3_reduce -> inception_4e/3x3_reduce
I0403 11:41:37.414793  6498 net.cpp:141] Setting up inception_4e/3x3_reduce
I0403 11:41:37.414827  6498 net.cpp:148] Top shape: 24 160 14 14 (752640)
I0403 11:41:37.414860  6498 net.cpp:156] Memory required for data: 1221076416
I0403 11:41:37.414899  6498 layer_factory.hpp:77] Creating layer inception_4e/relu_3x3_reduce
I0403 11:41:37.414933  6498 net.cpp:91] Creating Layer inception_4e/relu_3x3_reduce
I0403 11:41:37.414964  6498 net.cpp:425] inception_4e/relu_3x3_reduce <- inception_4e/3x3_reduce
I0403 11:41:37.415004  6498 net.cpp:386] inception_4e/relu_3x3_reduce -> inception_4e/3x3_reduce (in-place)
I0403 11:41:37.415030  6498 net.cpp:141] Setting up inception_4e/relu_3x3_reduce
I0403 11:41:37.415060  6498 net.cpp:148] Top shape: 24 160 14 14 (752640)
I0403 11:41:37.415087  6498 net.cpp:156] Memory required for data: 1224086976
I0403 11:41:37.415117  6498 layer_factory.hpp:77] Creating layer inception_4e/3x3
I0403 11:41:37.415158  6498 net.cpp:91] Creating Layer inception_4e/3x3
I0403 11:41:37.415195  6498 net.cpp:425] inception_4e/3x3 <- inception_4e/3x3_reduce
I0403 11:41:37.415225  6498 net.cpp:399] inception_4e/3x3 -> inception_4e/3x3
I0403 11:41:37.420387  6498 net.cpp:141] Setting up inception_4e/3x3
I0403 11:41:37.420421  6498 net.cpp:148] Top shape: 24 320 14 14 (1505280)
I0403 11:41:37.420444  6498 net.cpp:156] Memory required for data: 1230108096
I0403 11:41:37.420469  6498 layer_factory.hpp:77] Creating layer inception_4e/relu_3x3
I0403 11:41:37.420493  6498 net.cpp:91] Creating Layer inception_4e/relu_3x3
I0403 11:41:37.420516  6498 net.cpp:425] inception_4e/relu_3x3 <- inception_4e/3x3
I0403 11:41:37.420541  6498 net.cpp:386] inception_4e/relu_3x3 -> inception_4e/3x3 (in-place)
I0403 11:41:37.420567  6498 net.cpp:141] Setting up inception_4e/relu_3x3
I0403 11:41:37.420593  6498 net.cpp:148] Top shape: 24 320 14 14 (1505280)
I0403 11:41:37.420613  6498 net.cpp:156] Memory required for data: 1236129216
I0403 11:41:37.420632  6498 layer_factory.hpp:77] Creating layer inception_4e/5x5_reduce
I0403 11:41:37.420662  6498 net.cpp:91] Creating Layer inception_4e/5x5_reduce
I0403 11:41:37.420686  6498 net.cpp:425] inception_4e/5x5_reduce <- inception_4d/output_inception_4d/output_0_split_3
I0403 11:41:37.420716  6498 net.cpp:399] inception_4e/5x5_reduce -> inception_4e/5x5_reduce
I0403 11:41:37.421908  6498 net.cpp:141] Setting up inception_4e/5x5_reduce
I0403 11:41:37.421946  6498 net.cpp:148] Top shape: 24 32 14 14 (150528)
I0403 11:41:37.421968  6498 net.cpp:156] Memory required for data: 1236731328
I0403 11:41:37.421993  6498 layer_factory.hpp:77] Creating layer inception_4e/relu_5x5_reduce
I0403 11:41:37.422022  6498 net.cpp:91] Creating Layer inception_4e/relu_5x5_reduce
I0403 11:41:37.422047  6498 net.cpp:425] inception_4e/relu_5x5_reduce <- inception_4e/5x5_reduce
I0403 11:41:37.422071  6498 net.cpp:386] inception_4e/relu_5x5_reduce -> inception_4e/5x5_reduce (in-place)
I0403 11:41:37.422098  6498 net.cpp:141] Setting up inception_4e/relu_5x5_reduce
I0403 11:41:37.422123  6498 net.cpp:148] Top shape: 24 32 14 14 (150528)
I0403 11:41:37.422143  6498 net.cpp:156] Memory required for data: 1237333440
I0403 11:41:37.422163  6498 layer_factory.hpp:77] Creating layer inception_4e/5x5
I0403 11:41:37.422215  6498 net.cpp:91] Creating Layer inception_4e/5x5
I0403 11:41:37.422242  6498 net.cpp:425] inception_4e/5x5 <- inception_4e/5x5_reduce
I0403 11:41:37.422276  6498 net.cpp:399] inception_4e/5x5 -> inception_4e/5x5
I0403 11:41:37.423418  6498 net.cpp:141] Setting up inception_4e/5x5
I0403 11:41:37.423454  6498 net.cpp:148] Top shape: 24 128 14 14 (602112)
I0403 11:41:37.423475  6498 net.cpp:156] Memory required for data: 1239741888
I0403 11:41:37.423501  6498 layer_factory.hpp:77] Creating layer inception_4e/relu_5x5
I0403 11:41:37.423529  6498 net.cpp:91] Creating Layer inception_4e/relu_5x5
I0403 11:41:37.423553  6498 net.cpp:425] inception_4e/relu_5x5 <- inception_4e/5x5
I0403 11:41:37.423578  6498 net.cpp:386] inception_4e/relu_5x5 -> inception_4e/5x5 (in-place)
I0403 11:41:37.423604  6498 net.cpp:141] Setting up inception_4e/relu_5x5
I0403 11:41:37.423626  6498 net.cpp:148] Top shape: 24 128 14 14 (602112)
I0403 11:41:37.423647  6498 net.cpp:156] Memory required for data: 1242150336
I0403 11:41:37.423668  6498 layer_factory.hpp:77] Creating layer inception_4e/pool
I0403 11:41:37.423696  6498 net.cpp:91] Creating Layer inception_4e/pool
I0403 11:41:37.423719  6498 net.cpp:425] inception_4e/pool <- inception_4d/output_inception_4d/output_0_split_4
I0403 11:41:37.423744  6498 net.cpp:399] inception_4e/pool -> inception_4e/pool
I0403 11:41:37.423815  6498 net.cpp:141] Setting up inception_4e/pool
I0403 11:41:37.423845  6498 net.cpp:148] Top shape: 24 528 14 14 (2483712)
I0403 11:41:37.423866  6498 net.cpp:156] Memory required for data: 1252085184
I0403 11:41:37.423887  6498 layer_factory.hpp:77] Creating layer inception_4e/pool_proj
I0403 11:41:37.423916  6498 net.cpp:91] Creating Layer inception_4e/pool_proj
I0403 11:41:37.423941  6498 net.cpp:425] inception_4e/pool_proj <- inception_4e/pool
I0403 11:41:37.423967  6498 net.cpp:399] inception_4e/pool_proj -> inception_4e/pool_proj
I0403 11:41:37.424700  6498 net.cpp:141] Setting up inception_4e/pool_proj
I0403 11:41:37.424733  6498 net.cpp:148] Top shape: 24 128 14 14 (602112)
I0403 11:41:37.424753  6498 net.cpp:156] Memory required for data: 1254493632
I0403 11:41:37.424778  6498 layer_factory.hpp:77] Creating layer inception_4e/relu_pool_proj
I0403 11:41:37.424804  6498 net.cpp:91] Creating Layer inception_4e/relu_pool_proj
I0403 11:41:37.424826  6498 net.cpp:425] inception_4e/relu_pool_proj <- inception_4e/pool_proj
I0403 11:41:37.424850  6498 net.cpp:386] inception_4e/relu_pool_proj -> inception_4e/pool_proj (in-place)
I0403 11:41:37.424878  6498 net.cpp:141] Setting up inception_4e/relu_pool_proj
I0403 11:41:37.424902  6498 net.cpp:148] Top shape: 24 128 14 14 (602112)
I0403 11:41:37.424921  6498 net.cpp:156] Memory required for data: 1256902080
I0403 11:41:37.424942  6498 layer_factory.hpp:77] Creating layer inception_4e/output
I0403 11:41:37.424968  6498 net.cpp:91] Creating Layer inception_4e/output
I0403 11:41:37.425070  6498 net.cpp:425] inception_4e/output <- inception_4e/1x1
I0403 11:41:37.425101  6498 net.cpp:425] inception_4e/output <- inception_4e/3x3
I0403 11:41:37.425123  6498 net.cpp:425] inception_4e/output <- inception_4e/5x5
I0403 11:41:37.425146  6498 net.cpp:425] inception_4e/output <- inception_4e/pool_proj
I0403 11:41:37.425171  6498 net.cpp:399] inception_4e/output -> inception_4e/output
I0403 11:41:37.425228  6498 net.cpp:141] Setting up inception_4e/output
I0403 11:41:37.425271  6498 net.cpp:148] Top shape: 24 832 14 14 (3913728)
I0403 11:41:37.425294  6498 net.cpp:156] Memory required for data: 1272556992
I0403 11:41:37.425315  6498 layer_factory.hpp:77] Creating layer pool4/3x3_s2
I0403 11:41:37.425341  6498 net.cpp:91] Creating Layer pool4/3x3_s2
I0403 11:41:37.425364  6498 net.cpp:425] pool4/3x3_s2 <- inception_4e/output
I0403 11:41:37.425391  6498 net.cpp:399] pool4/3x3_s2 -> pool4/3x3_s2
I0403 11:41:37.425458  6498 net.cpp:141] Setting up pool4/3x3_s2
I0403 11:41:37.425489  6498 net.cpp:148] Top shape: 24 832 7 7 (978432)
I0403 11:41:37.425509  6498 net.cpp:156] Memory required for data: 1276470720
I0403 11:41:37.425530  6498 layer_factory.hpp:77] Creating layer pool4/3x3_s2_pool4/3x3_s2_0_split
I0403 11:41:37.425559  6498 net.cpp:91] Creating Layer pool4/3x3_s2_pool4/3x3_s2_0_split
I0403 11:41:37.425583  6498 net.cpp:425] pool4/3x3_s2_pool4/3x3_s2_0_split <- pool4/3x3_s2
I0403 11:41:37.425624  6498 net.cpp:399] pool4/3x3_s2_pool4/3x3_s2_0_split -> pool4/3x3_s2_pool4/3x3_s2_0_split_0
I0403 11:41:37.425657  6498 net.cpp:399] pool4/3x3_s2_pool4/3x3_s2_0_split -> pool4/3x3_s2_pool4/3x3_s2_0_split_1
I0403 11:41:37.425686  6498 net.cpp:399] pool4/3x3_s2_pool4/3x3_s2_0_split -> pool4/3x3_s2_pool4/3x3_s2_0_split_2
I0403 11:41:37.425714  6498 net.cpp:399] pool4/3x3_s2_pool4/3x3_s2_0_split -> pool4/3x3_s2_pool4/3x3_s2_0_split_3
I0403 11:41:37.425801  6498 net.cpp:141] Setting up pool4/3x3_s2_pool4/3x3_s2_0_split
I0403 11:41:37.425829  6498 net.cpp:148] Top shape: 24 832 7 7 (978432)
I0403 11:41:37.425853  6498 net.cpp:148] Top shape: 24 832 7 7 (978432)
I0403 11:41:37.425873  6498 net.cpp:148] Top shape: 24 832 7 7 (978432)
I0403 11:41:37.425895  6498 net.cpp:148] Top shape: 24 832 7 7 (978432)
I0403 11:41:37.425915  6498 net.cpp:156] Memory required for data: 1292125632
I0403 11:41:37.425935  6498 layer_factory.hpp:77] Creating layer inception_5a/1x1
I0403 11:41:37.425967  6498 net.cpp:91] Creating Layer inception_5a/1x1
I0403 11:41:37.425992  6498 net.cpp:425] inception_5a/1x1 <- pool4/3x3_s2_pool4/3x3_s2_0_split_0
I0403 11:41:37.426023  6498 net.cpp:399] inception_5a/1x1 -> inception_5a/1x1
I0403 11:41:37.428464  6498 net.cpp:141] Setting up inception_5a/1x1
I0403 11:41:37.428500  6498 net.cpp:148] Top shape: 24 256 7 7 (301056)
I0403 11:41:37.428524  6498 net.cpp:156] Memory required for data: 1293329856
I0403 11:41:37.428552  6498 layer_factory.hpp:77] Creating layer inception_5a/relu_1x1
I0403 11:41:37.428582  6498 net.cpp:91] Creating Layer inception_5a/relu_1x1
I0403 11:41:37.428607  6498 net.cpp:425] inception_5a/relu_1x1 <- inception_5a/1x1
I0403 11:41:37.428632  6498 net.cpp:386] inception_5a/relu_1x1 -> inception_5a/1x1 (in-place)
I0403 11:41:37.428660  6498 net.cpp:141] Setting up inception_5a/relu_1x1
I0403 11:41:37.428684  6498 net.cpp:148] Top shape: 24 256 7 7 (301056)
I0403 11:41:37.428704  6498 net.cpp:156] Memory required for data: 1294534080
I0403 11:41:37.428725  6498 layer_factory.hpp:77] Creating layer inception_5a/3x3_reduce
I0403 11:41:37.428755  6498 net.cpp:91] Creating Layer inception_5a/3x3_reduce
I0403 11:41:37.428779  6498 net.cpp:425] inception_5a/3x3_reduce <- pool4/3x3_s2_pool4/3x3_s2_0_split_1
I0403 11:41:37.428807  6498 net.cpp:399] inception_5a/3x3_reduce -> inception_5a/3x3_reduce
I0403 11:41:37.431342  6498 net.cpp:141] Setting up inception_5a/3x3_reduce
I0403 11:41:37.431391  6498 net.cpp:148] Top shape: 24 160 7 7 (188160)
I0403 11:41:37.431412  6498 net.cpp:156] Memory required for data: 1295286720
I0403 11:41:37.431438  6498 layer_factory.hpp:77] Creating layer inception_5a/relu_3x3_reduce
I0403 11:41:37.431468  6498 net.cpp:91] Creating Layer inception_5a/relu_3x3_reduce
I0403 11:41:37.431493  6498 net.cpp:425] inception_5a/relu_3x3_reduce <- inception_5a/3x3_reduce
I0403 11:41:37.431519  6498 net.cpp:386] inception_5a/relu_3x3_reduce -> inception_5a/3x3_reduce (in-place)
I0403 11:41:37.431547  6498 net.cpp:141] Setting up inception_5a/relu_3x3_reduce
I0403 11:41:37.431571  6498 net.cpp:148] Top shape: 24 160 7 7 (188160)
I0403 11:41:37.431591  6498 net.cpp:156] Memory required for data: 1296039360
I0403 11:41:37.431612  6498 layer_factory.hpp:77] Creating layer inception_5a/3x3
I0403 11:41:37.431643  6498 net.cpp:91] Creating Layer inception_5a/3x3
I0403 11:41:37.431668  6498 net.cpp:425] inception_5a/3x3 <- inception_5a/3x3_reduce
I0403 11:41:37.431695  6498 net.cpp:399] inception_5a/3x3 -> inception_5a/3x3
I0403 11:41:37.436641  6498 net.cpp:141] Setting up inception_5a/3x3
I0403 11:41:37.436677  6498 net.cpp:148] Top shape: 24 320 7 7 (376320)
I0403 11:41:37.436699  6498 net.cpp:156] Memory required for data: 1297544640
I0403 11:41:37.436724  6498 layer_factory.hpp:77] Creating layer inception_5a/relu_3x3
I0403 11:41:37.436749  6498 net.cpp:91] Creating Layer inception_5a/relu_3x3
I0403 11:41:37.436772  6498 net.cpp:425] inception_5a/relu_3x3 <- inception_5a/3x3
I0403 11:41:37.436800  6498 net.cpp:386] inception_5a/relu_3x3 -> inception_5a/3x3 (in-place)
I0403 11:41:37.436847  6498 net.cpp:141] Setting up inception_5a/relu_3x3
I0403 11:41:37.436873  6498 net.cpp:148] Top shape: 24 320 7 7 (376320)
I0403 11:41:37.436892  6498 net.cpp:156] Memory required for data: 1299049920
I0403 11:41:37.436913  6498 layer_factory.hpp:77] Creating layer inception_5a/5x5_reduce
I0403 11:41:37.436944  6498 net.cpp:91] Creating Layer inception_5a/5x5_reduce
I0403 11:41:37.436969  6498 net.cpp:425] inception_5a/5x5_reduce <- pool4/3x3_s2_pool4/3x3_s2_0_split_2
I0403 11:41:37.436996  6498 net.cpp:399] inception_5a/5x5_reduce -> inception_5a/5x5_reduce
I0403 11:41:37.437592  6498 net.cpp:141] Setting up inception_5a/5x5_reduce
I0403 11:41:37.437628  6498 net.cpp:148] Top shape: 24 32 7 7 (37632)
I0403 11:41:37.437649  6498 net.cpp:156] Memory required for data: 1299200448
I0403 11:41:37.437672  6498 layer_factory.hpp:77] Creating layer inception_5a/relu_5x5_reduce
I0403 11:41:37.437700  6498 net.cpp:91] Creating Layer inception_5a/relu_5x5_reduce
I0403 11:41:37.437727  6498 net.cpp:425] inception_5a/relu_5x5_reduce <- inception_5a/5x5_reduce
I0403 11:41:37.437752  6498 net.cpp:386] inception_5a/relu_5x5_reduce -> inception_5a/5x5_reduce (in-place)
I0403 11:41:37.437778  6498 net.cpp:141] Setting up inception_5a/relu_5x5_reduce
I0403 11:41:37.437803  6498 net.cpp:148] Top shape: 24 32 7 7 (37632)
I0403 11:41:37.437822  6498 net.cpp:156] Memory required for data: 1299350976
I0403 11:41:37.437876  6498 layer_factory.hpp:77] Creating layer inception_5a/5x5
I0403 11:41:37.437911  6498 net.cpp:91] Creating Layer inception_5a/5x5
I0403 11:41:37.437937  6498 net.cpp:425] inception_5a/5x5 <- inception_5a/5x5_reduce
I0403 11:41:37.437963  6498 net.cpp:399] inception_5a/5x5 -> inception_5a/5x5
I0403 11:41:37.438949  6498 net.cpp:141] Setting up inception_5a/5x5
I0403 11:41:37.438988  6498 net.cpp:148] Top shape: 24 128 7 7 (150528)
I0403 11:41:37.439010  6498 net.cpp:156] Memory required for data: 1299953088
I0403 11:41:37.439035  6498 layer_factory.hpp:77] Creating layer inception_5a/relu_5x5
I0403 11:41:37.439061  6498 net.cpp:91] Creating Layer inception_5a/relu_5x5
I0403 11:41:37.439085  6498 net.cpp:425] inception_5a/relu_5x5 <- inception_5a/5x5
I0403 11:41:37.439108  6498 net.cpp:386] inception_5a/relu_5x5 -> inception_5a/5x5 (in-place)
I0403 11:41:37.439136  6498 net.cpp:141] Setting up inception_5a/relu_5x5
I0403 11:41:37.439158  6498 net.cpp:148] Top shape: 24 128 7 7 (150528)
I0403 11:41:37.439178  6498 net.cpp:156] Memory required for data: 1300555200
I0403 11:41:37.439198  6498 layer_factory.hpp:77] Creating layer inception_5a/pool
I0403 11:41:37.439226  6498 net.cpp:91] Creating Layer inception_5a/pool
I0403 11:41:37.439249  6498 net.cpp:425] inception_5a/pool <- pool4/3x3_s2_pool4/3x3_s2_0_split_3
I0403 11:41:37.439281  6498 net.cpp:399] inception_5a/pool -> inception_5a/pool
I0403 11:41:37.439352  6498 net.cpp:141] Setting up inception_5a/pool
I0403 11:41:37.439383  6498 net.cpp:148] Top shape: 24 832 7 7 (978432)
I0403 11:41:37.439402  6498 net.cpp:156] Memory required for data: 1304468928
I0403 11:41:37.439577  6498 layer_factory.hpp:77] Creating layer inception_5a/pool_proj
I0403 11:41:37.439617  6498 net.cpp:91] Creating Layer inception_5a/pool_proj
I0403 11:41:37.439642  6498 net.cpp:425] inception_5a/pool_proj <- inception_5a/pool
I0403 11:41:37.439668  6498 net.cpp:399] inception_5a/pool_proj -> inception_5a/pool_proj
I0403 11:41:37.441285  6498 net.cpp:141] Setting up inception_5a/pool_proj
I0403 11:41:37.441321  6498 net.cpp:148] Top shape: 24 128 7 7 (150528)
I0403 11:41:37.441344  6498 net.cpp:156] Memory required for data: 1305071040
I0403 11:41:37.441368  6498 layer_factory.hpp:77] Creating layer inception_5a/relu_pool_proj
I0403 11:41:37.441395  6498 net.cpp:91] Creating Layer inception_5a/relu_pool_proj
I0403 11:41:37.441417  6498 net.cpp:425] inception_5a/relu_pool_proj <- inception_5a/pool_proj
I0403 11:41:37.441594  6498 net.cpp:386] inception_5a/relu_pool_proj -> inception_5a/pool_proj (in-place)
I0403 11:41:37.441629  6498 net.cpp:141] Setting up inception_5a/relu_pool_proj
I0403 11:41:37.441671  6498 net.cpp:148] Top shape: 24 128 7 7 (150528)
I0403 11:41:37.441694  6498 net.cpp:156] Memory required for data: 1305673152
I0403 11:41:37.441715  6498 layer_factory.hpp:77] Creating layer inception_5a/output
I0403 11:41:37.441740  6498 net.cpp:91] Creating Layer inception_5a/output
I0403 11:41:37.441761  6498 net.cpp:425] inception_5a/output <- inception_5a/1x1
I0403 11:41:37.441784  6498 net.cpp:425] inception_5a/output <- inception_5a/3x3
I0403 11:41:37.441807  6498 net.cpp:425] inception_5a/output <- inception_5a/5x5
I0403 11:41:37.441830  6498 net.cpp:425] inception_5a/output <- inception_5a/pool_proj
I0403 11:41:37.441855  6498 net.cpp:399] inception_5a/output -> inception_5a/output
I0403 11:41:37.441910  6498 net.cpp:141] Setting up inception_5a/output
I0403 11:41:37.441941  6498 net.cpp:148] Top shape: 24 832 7 7 (978432)
I0403 11:41:37.441962  6498 net.cpp:156] Memory required for data: 1309586880
I0403 11:41:37.441982  6498 layer_factory.hpp:77] Creating layer inception_5a/output_inception_5a/output_0_split
I0403 11:41:37.442008  6498 net.cpp:91] Creating Layer inception_5a/output_inception_5a/output_0_split
I0403 11:41:37.442030  6498 net.cpp:425] inception_5a/output_inception_5a/output_0_split <- inception_5a/output
I0403 11:41:37.442059  6498 net.cpp:399] inception_5a/output_inception_5a/output_0_split -> inception_5a/output_inception_5a/output_0_split_0
I0403 11:41:37.442088  6498 net.cpp:399] inception_5a/output_inception_5a/output_0_split -> inception_5a/output_inception_5a/output_0_split_1
I0403 11:41:37.442117  6498 net.cpp:399] inception_5a/output_inception_5a/output_0_split -> inception_5a/output_inception_5a/output_0_split_2
I0403 11:41:37.442145  6498 net.cpp:399] inception_5a/output_inception_5a/output_0_split -> inception_5a/output_inception_5a/output_0_split_3
I0403 11:41:37.442239  6498 net.cpp:141] Setting up inception_5a/output_inception_5a/output_0_split
I0403 11:41:37.442278  6498 net.cpp:148] Top shape: 24 832 7 7 (978432)
I0403 11:41:37.442303  6498 net.cpp:148] Top shape: 24 832 7 7 (978432)
I0403 11:41:37.442325  6498 net.cpp:148] Top shape: 24 832 7 7 (978432)
I0403 11:41:37.442347  6498 net.cpp:148] Top shape: 24 832 7 7 (978432)
I0403 11:41:37.442365  6498 net.cpp:156] Memory required for data: 1325241792
I0403 11:41:37.442385  6498 layer_factory.hpp:77] Creating layer inception_5b/1x1
I0403 11:41:37.442416  6498 net.cpp:91] Creating Layer inception_5b/1x1
I0403 11:41:37.442442  6498 net.cpp:425] inception_5b/1x1 <- inception_5a/output_inception_5a/output_0_split_0
I0403 11:41:37.442469  6498 net.cpp:399] inception_5b/1x1 -> inception_5b/1x1
I0403 11:41:37.445821  6498 net.cpp:141] Setting up inception_5b/1x1
I0403 11:41:37.445855  6498 net.cpp:148] Top shape: 24 384 7 7 (451584)
I0403 11:41:37.445875  6498 net.cpp:156] Memory required for data: 1327048128
I0403 11:41:37.445901  6498 layer_factory.hpp:77] Creating layer inception_5b/relu_1x1
I0403 11:41:37.445926  6498 net.cpp:91] Creating Layer inception_5b/relu_1x1
I0403 11:41:37.445950  6498 net.cpp:425] inception_5b/relu_1x1 <- inception_5b/1x1
I0403 11:41:37.445976  6498 net.cpp:386] inception_5b/relu_1x1 -> inception_5b/1x1 (in-place)
I0403 11:41:37.446005  6498 net.cpp:141] Setting up inception_5b/relu_1x1
I0403 11:41:37.446029  6498 net.cpp:148] Top shape: 24 384 7 7 (451584)
I0403 11:41:37.446050  6498 net.cpp:156] Memory required for data: 1328854464
I0403 11:41:37.446069  6498 layer_factory.hpp:77] Creating layer inception_5b/3x3_reduce
I0403 11:41:37.446100  6498 net.cpp:91] Creating Layer inception_5b/3x3_reduce
I0403 11:41:37.446125  6498 net.cpp:425] inception_5b/3x3_reduce <- inception_5a/output_inception_5a/output_0_split_1
I0403 11:41:37.446151  6498 net.cpp:399] inception_5b/3x3_reduce -> inception_5b/3x3_reduce
I0403 11:41:37.448434  6498 net.cpp:141] Setting up inception_5b/3x3_reduce
I0403 11:41:37.448469  6498 net.cpp:148] Top shape: 24 192 7 7 (225792)
I0403 11:41:37.448492  6498 net.cpp:156] Memory required for data: 1329757632
I0403 11:41:37.448516  6498 layer_factory.hpp:77] Creating layer inception_5b/relu_3x3_reduce
I0403 11:41:37.448561  6498 net.cpp:91] Creating Layer inception_5b/relu_3x3_reduce
I0403 11:41:37.448587  6498 net.cpp:425] inception_5b/relu_3x3_reduce <- inception_5b/3x3_reduce
I0403 11:41:37.448616  6498 net.cpp:386] inception_5b/relu_3x3_reduce -> inception_5b/3x3_reduce (in-place)
I0403 11:41:37.448643  6498 net.cpp:141] Setting up inception_5b/relu_3x3_reduce
I0403 11:41:37.448668  6498 net.cpp:148] Top shape: 24 192 7 7 (225792)
I0403 11:41:37.448689  6498 net.cpp:156] Memory required for data: 1330660800
I0403 11:41:37.448709  6498 layer_factory.hpp:77] Creating layer inception_5b/3x3
I0403 11:41:37.448741  6498 net.cpp:91] Creating Layer inception_5b/3x3
I0403 11:41:37.448766  6498 net.cpp:425] inception_5b/3x3 <- inception_5b/3x3_reduce
I0403 11:41:37.448793  6498 net.cpp:399] inception_5b/3x3 -> inception_5b/3x3
I0403 11:41:37.455782  6498 net.cpp:141] Setting up inception_5b/3x3
I0403 11:41:37.455819  6498 net.cpp:148] Top shape: 24 384 7 7 (451584)
I0403 11:41:37.455842  6498 net.cpp:156] Memory required for data: 1332467136
I0403 11:41:37.455868  6498 layer_factory.hpp:77] Creating layer inception_5b/relu_3x3
I0403 11:41:37.455901  6498 net.cpp:91] Creating Layer inception_5b/relu_3x3
I0403 11:41:37.455932  6498 net.cpp:425] inception_5b/relu_3x3 <- inception_5b/3x3
I0403 11:41:37.455958  6498 net.cpp:386] inception_5b/relu_3x3 -> inception_5b/3x3 (in-place)
I0403 11:41:37.455986  6498 net.cpp:141] Setting up inception_5b/relu_3x3
I0403 11:41:37.456012  6498 net.cpp:148] Top shape: 24 384 7 7 (451584)
I0403 11:41:37.456032  6498 net.cpp:156] Memory required for data: 1334273472
I0403 11:41:37.456051  6498 layer_factory.hpp:77] Creating layer inception_5b/5x5_reduce
I0403 11:41:37.456084  6498 net.cpp:91] Creating Layer inception_5b/5x5_reduce
I0403 11:41:37.456107  6498 net.cpp:425] inception_5b/5x5_reduce <- inception_5a/output_inception_5a/output_0_split_2
I0403 11:41:37.456137  6498 net.cpp:399] inception_5b/5x5_reduce -> inception_5b/5x5_reduce
I0403 11:41:37.457482  6498 net.cpp:141] Setting up inception_5b/5x5_reduce
I0403 11:41:37.457520  6498 net.cpp:148] Top shape: 24 48 7 7 (56448)
I0403 11:41:37.457543  6498 net.cpp:156] Memory required for data: 1334499264
I0403 11:41:37.457568  6498 layer_factory.hpp:77] Creating layer inception_5b/relu_5x5_reduce
I0403 11:41:37.457594  6498 net.cpp:91] Creating Layer inception_5b/relu_5x5_reduce
I0403 11:41:37.457619  6498 net.cpp:425] inception_5b/relu_5x5_reduce <- inception_5b/5x5_reduce
I0403 11:41:37.457643  6498 net.cpp:386] inception_5b/relu_5x5_reduce -> inception_5b/5x5_reduce (in-place)
I0403 11:41:37.457669  6498 net.cpp:141] Setting up inception_5b/relu_5x5_reduce
I0403 11:41:37.457695  6498 net.cpp:148] Top shape: 24 48 7 7 (56448)
I0403 11:41:37.457713  6498 net.cpp:156] Memory required for data: 1334725056
I0403 11:41:37.457734  6498 layer_factory.hpp:77] Creating layer inception_5b/5x5
I0403 11:41:37.457767  6498 net.cpp:91] Creating Layer inception_5b/5x5
I0403 11:41:37.457790  6498 net.cpp:425] inception_5b/5x5 <- inception_5b/5x5_reduce
I0403 11:41:37.457820  6498 net.cpp:399] inception_5b/5x5 -> inception_5b/5x5
I0403 11:41:37.459317  6498 net.cpp:141] Setting up inception_5b/5x5
I0403 11:41:37.459352  6498 net.cpp:148] Top shape: 24 128 7 7 (150528)
I0403 11:41:37.459372  6498 net.cpp:156] Memory required for data: 1335327168
I0403 11:41:37.459398  6498 layer_factory.hpp:77] Creating layer inception_5b/relu_5x5
I0403 11:41:37.459422  6498 net.cpp:91] Creating Layer inception_5b/relu_5x5
I0403 11:41:37.459446  6498 net.cpp:425] inception_5b/relu_5x5 <- inception_5b/5x5
I0403 11:41:37.459473  6498 net.cpp:386] inception_5b/relu_5x5 -> inception_5b/5x5 (in-place)
I0403 11:41:37.459501  6498 net.cpp:141] Setting up inception_5b/relu_5x5
I0403 11:41:37.459527  6498 net.cpp:148] Top shape: 24 128 7 7 (150528)
I0403 11:41:37.459548  6498 net.cpp:156] Memory required for data: 1335929280
I0403 11:41:37.459568  6498 layer_factory.hpp:77] Creating layer inception_5b/pool
I0403 11:41:37.459615  6498 net.cpp:91] Creating Layer inception_5b/pool
I0403 11:41:37.459640  6498 net.cpp:425] inception_5b/pool <- inception_5a/output_inception_5a/output_0_split_3
I0403 11:41:37.459671  6498 net.cpp:399] inception_5b/pool -> inception_5b/pool
I0403 11:41:37.459743  6498 net.cpp:141] Setting up inception_5b/pool
I0403 11:41:37.459775  6498 net.cpp:148] Top shape: 24 832 7 7 (978432)
I0403 11:41:37.459797  6498 net.cpp:156] Memory required for data: 1339843008
I0403 11:41:37.459820  6498 layer_factory.hpp:77] Creating layer inception_5b/pool_proj
I0403 11:41:37.459847  6498 net.cpp:91] Creating Layer inception_5b/pool_proj
I0403 11:41:37.459870  6498 net.cpp:425] inception_5b/pool_proj <- inception_5b/pool
I0403 11:41:37.459900  6498 net.cpp:399] inception_5b/pool_proj -> inception_5b/pool_proj
I0403 11:41:37.461619  6498 net.cpp:141] Setting up inception_5b/pool_proj
I0403 11:41:37.461653  6498 net.cpp:148] Top shape: 24 128 7 7 (150528)
I0403 11:41:37.461674  6498 net.cpp:156] Memory required for data: 1340445120
I0403 11:41:37.461700  6498 layer_factory.hpp:77] Creating layer inception_5b/relu_pool_proj
I0403 11:41:37.461730  6498 net.cpp:91] Creating Layer inception_5b/relu_pool_proj
I0403 11:41:37.461755  6498 net.cpp:425] inception_5b/relu_pool_proj <- inception_5b/pool_proj
I0403 11:41:37.461779  6498 net.cpp:386] inception_5b/relu_pool_proj -> inception_5b/pool_proj (in-place)
I0403 11:41:37.461807  6498 net.cpp:141] Setting up inception_5b/relu_pool_proj
I0403 11:41:37.461833  6498 net.cpp:148] Top shape: 24 128 7 7 (150528)
I0403 11:41:37.461853  6498 net.cpp:156] Memory required for data: 1341047232
I0403 11:41:37.461872  6498 layer_factory.hpp:77] Creating layer inception_5b/output
I0403 11:41:37.461899  6498 net.cpp:91] Creating Layer inception_5b/output
I0403 11:41:37.461923  6498 net.cpp:425] inception_5b/output <- inception_5b/1x1
I0403 11:41:37.461946  6498 net.cpp:425] inception_5b/output <- inception_5b/3x3
I0403 11:41:37.461969  6498 net.cpp:425] inception_5b/output <- inception_5b/5x5
I0403 11:41:37.461992  6498 net.cpp:425] inception_5b/output <- inception_5b/pool_proj
I0403 11:41:37.462015  6498 net.cpp:399] inception_5b/output -> inception_5b/output
I0403 11:41:37.462067  6498 net.cpp:141] Setting up inception_5b/output
I0403 11:41:37.462100  6498 net.cpp:148] Top shape: 24 1024 7 7 (1204224)
I0403 11:41:37.462121  6498 net.cpp:156] Memory required for data: 1345864128
I0403 11:41:37.462143  6498 layer_factory.hpp:77] Creating layer pool5/7x7_s1
I0403 11:41:37.462168  6498 net.cpp:91] Creating Layer pool5/7x7_s1
I0403 11:41:37.462190  6498 net.cpp:425] pool5/7x7_s1 <- inception_5b/output
I0403 11:41:37.462218  6498 net.cpp:399] pool5/7x7_s1 -> pool5/7x7_s1
I0403 11:41:37.462275  6498 net.cpp:141] Setting up pool5/7x7_s1
I0403 11:41:37.462304  6498 net.cpp:148] Top shape: 24 1024 1 1 (24576)
I0403 11:41:37.462326  6498 net.cpp:156] Memory required for data: 1345962432
I0403 11:41:37.462347  6498 layer_factory.hpp:77] Creating layer pool5/drop_7x7_s1
I0403 11:41:37.462376  6498 net.cpp:91] Creating Layer pool5/drop_7x7_s1
I0403 11:41:37.462400  6498 net.cpp:425] pool5/drop_7x7_s1 <- pool5/7x7_s1
I0403 11:41:37.462424  6498 net.cpp:386] pool5/drop_7x7_s1 -> pool5/7x7_s1 (in-place)
I0403 11:41:37.462476  6498 net.cpp:141] Setting up pool5/drop_7x7_s1
I0403 11:41:37.462504  6498 net.cpp:148] Top shape: 24 1024 1 1 (24576)
I0403 11:41:37.462525  6498 net.cpp:156] Memory required for data: 1346060736
I0403 11:41:37.462548  6498 layer_factory.hpp:77] Creating layer loss3/classifier_plantvillage
I0403 11:41:37.462576  6498 net.cpp:91] Creating Layer loss3/classifier_plantvillage
I0403 11:41:37.462599  6498 net.cpp:425] loss3/classifier_plantvillage <- pool5/7x7_s1
I0403 11:41:37.462628  6498 net.cpp:399] loss3/classifier_plantvillage -> loss3/classifier_plantvillage
I0403 11:41:37.463042  6498 net.cpp:141] Setting up loss3/classifier_plantvillage
I0403 11:41:37.463074  6498 net.cpp:148] Top shape: 24 38 (912)
I0403 11:41:37.463095  6498 net.cpp:156] Memory required for data: 1346064384
I0403 11:41:37.463138  6498 layer_factory.hpp:77] Creating layer loss3/classifier_plantvillage_loss3/classifier_plantvillage_0_split
I0403 11:41:37.463167  6498 net.cpp:91] Creating Layer loss3/classifier_plantvillage_loss3/classifier_plantvillage_0_split
I0403 11:41:37.463305  6498 net.cpp:425] loss3/classifier_plantvillage_loss3/classifier_plantvillage_0_split <- loss3/classifier_plantvillage
I0403 11:41:37.463340  6498 net.cpp:399] loss3/classifier_plantvillage_loss3/classifier_plantvillage_0_split -> loss3/classifier_plantvillage_loss3/classifier_plantvillage_0_split_0
I0403 11:41:37.463369  6498 net.cpp:399] loss3/classifier_plantvillage_loss3/classifier_plantvillage_0_split -> loss3/classifier_plantvillage_loss3/classifier_plantvillage_0_split_1
I0403 11:41:37.463398  6498 net.cpp:399] loss3/classifier_plantvillage_loss3/classifier_plantvillage_0_split -> loss3/classifier_plantvillage_loss3/classifier_plantvillage_0_split_2
I0403 11:41:37.463484  6498 net.cpp:141] Setting up loss3/classifier_plantvillage_loss3/classifier_plantvillage_0_split
I0403 11:41:37.463513  6498 net.cpp:148] Top shape: 24 38 (912)
I0403 11:41:37.463536  6498 net.cpp:148] Top shape: 24 38 (912)
I0403 11:41:37.463558  6498 net.cpp:148] Top shape: 24 38 (912)
I0403 11:41:37.463578  6498 net.cpp:156] Memory required for data: 1346075328
I0403 11:41:37.463598  6498 layer_factory.hpp:77] Creating layer loss1/loss
I0403 11:41:37.463623  6498 net.cpp:91] Creating Layer loss1/loss
I0403 11:41:37.463645  6498 net.cpp:425] loss1/loss <- loss1/classifier_plantvillage_loss1/classifier_plantvillage_0_split_0
I0403 11:41:37.463668  6498 net.cpp:425] loss1/loss <- label_data_1_split_0
…
