…
I0403 14:22:36.579277 29633 net.cpp:313] The NetState phase (1) differed from the phase (0) specified by a rule in layer data
I0403 14:22:36.579586 29633 net.cpp:49] Initializing net from parameters: 
state {
  phase: TEST
}
layer {
  name: "data"
  type: "Data"
  top: "data"
  top: "label"
  include {
    phase: TEST
  }
  transform_param {
    crop_size: 227
    mean_file: "/home/mohanty/data/final_dataset/lmdb/color-20-80/mean.binaryproto"
  }
  data_param {
    source: "/home/mohanty/data/final_dataset/lmdb/color-20-80/test_db"
    batch_size: 100
    backend: LMDB
  }
}
layer {
  name: "conv1"
  type: "Convolution"
  bottom: "data"
  top: "conv1"
  param {
    lr_mult: 1
    decay_mult: 1
  }
  param {
    lr_mult: 2
    decay_mult: 0
  }
  convolution_param {
    num_output: 96
    kernel_size: 11
    stride: 4
    weight_filler {
      type: "gaussian"
      std: 0.01
    }
    bias_filler {
      type: "constant"
      value: 0
    }
  }
}
layer {
  name: "relu1"
  type: "ReLU"
  bottom: "conv1"
  top: "conv1"
}
layer {
  name: "norm1"
  type: "LRN"
  bottom: "conv1"
  top: "norm1"
  lrn_param {
    local_size: 5
    alpha: 0.0001
    beta: 0.75
  }
}
layer {
  name: "pool1"
  type: "Pooling"
  bottom: "norm1"
  top: "pool1"
  pooling_param {
    pool: MAX
    kernel_size: 3
    stride: 2
  }
}
layer {
  name: "conv2"
  type: "Convolution"
  bottom: "pool1"
  top: "conv2"
  param {
    lr_mult: 1
    decay_mult: 1
  }
  param {
    lr_mult: 2
    decay_mult: 0
  }
  convolution_param {
    num_output: 256
    pad: 2
    kernel_size: 5
    group: 2
    weight_filler {
      type: "gaussian"
      std: 0.01
    }
    bias_filler {
      type: "constant"
      value: 0.1
    }
  }
}
layer {
  name: "relu2"
  type: "ReLU"
  bottom: "conv2"
  top: "conv2"
}
layer {
  name: "norm2"
  type: "LRN"
  bottom: "conv2"
  top: "norm2"
  lrn_param {
    local_size: 5
    alpha: 0.0001
    beta: 0.75
  }
}
layer {
  name: "pool2"
  type: "Pooling"
  bottom: "norm2"
  top: "pool2"
  pooling_param {
    pool: MAX
    kernel_size: 3
    stride: 2
  }
}
layer {
  name: "conv3"
  type: "Convolution"
  bottom: "pool2"
  top: "conv3"
  param {
    lr_mult: 1
    decay_mult: 1
  }
  param {
    lr_mult: 2
    decay_mult: 0
  }
  convolution_param {
    num_output: 384
    pad: 1
    kernel_size: 3
    weight_filler {
      type: "gaussian"
      std: 0.01
    }
    bias_filler {
      type: "constant"
      value: 0
    }
  }
}
layer {
  name: "relu3"
  type: "ReLU"
  bottom: "conv3"
  top: "conv3"
}
layer {
  name: "conv4"
  type: "Convolution"
  bottom: "conv3"
  top: "conv4"
  param {
    lr_mult: 1
    decay_mult: 1
  }
  param {
    lr_mult: 2
    decay_mult: 0
  }
  convolution_param {
    num_output: 384
    pad: 1
    kernel_size: 3
    group: 2
    weight_filler {
      type: "gaussian"
      std: 0.01
    }
    bias_filler {
      type: "constant"
      value: 0.1
    }
  }
}
layer {
  name: "relu4"
  type: "ReLU"
  bottom: "conv4"
  top: "conv4"
}
layer {
  name: "conv5"
  type: "Convolution"
  bottom: "conv4"
  top: "conv5"
  param {
    lr_mult: 1
    decay_mult: 1
  }
  param {
    lr_mult: 2
    decay_mult: 0
  }
  convolution_param {
    num_output: 256
    pad: 1
    kernel_size: 3
    group: 2
    weight_filler {
      type: "gaussian"
      std: 0.01
    }
    bias_filler {
      type: "constant"
      value: 0.1
    }
  }
}
layer {
  name: "relu5"
  type: "ReLU"
  bottom: "conv5"
  top: "conv5"
}
layer {
  name: "pool5"
  type: "Pooling"
  bottom: "conv5"
  top: "pool5"
  pooling_param {
    pool: MAX
    kernel_size: 3
    stride: 2
  }
}
layer {
  name: "fc6"
  type: "InnerProduct"
  bottom: "pool5"
  top: "fc6"
  param {
    lr_mult: 1
    decay_mult: 1
  }
  param {
    lr_mult: 2
    decay_mult: 0
  }
  inner_product_param {
    num_output: 4096
    weight_filler {
      type: "gaussian"
      std: 0.005
    }
    bias_filler {
      type: "constant"
      value: 0.1
    }
  }
}
layer {
  name: "relu6"
  type: "ReLU"
  bottom: "fc6"
  top: "fc6"
}
layer {
  name: "drop6"
  type: "Dropout"
  bottom: "fc6"
  top: "fc6"
  dropout_param {
    dropout_ratio: 0.5
  }
}
layer {
  name: "fc7"
  type: "InnerProduct"
  bottom: "fc6"
  top: "fc7"
  param {
    lr_mult: 1
    decay_mult: 1
  }
  param {
    lr_mult: 2
    decay_mult: 0
  }
  inner_product_param {
    num_output: 4096
    weight_filler {
      type: "gaussian"
      std: 0.005
    }
    bias_filler {
      type: "constant"
      value: 0.1
    }
  }
}
layer {
  name: "relu7"
  type: "ReLU"
  bottom: "fc7"
  top: "fc7"
}
layer {
  name: "drop7"
  type: "Dropout"
  bottom: "fc7"
  top: "fc7"
  dropout_param {
    dropout_ratio: 0.5
  }
}
layer {
  name: "fc8_plantvillage"
  type: "InnerProduct"
  bottom: "fc7"
  top: "fc8_plantvillage"
  param {
    lr_mult: 1
    decay_mult: 1
  }
  param {
    lr_mult: 2
    decay_mult: 0
  }
  inner_product_param {
    num_output: 38
    weight_filler {
      type: "gaussian"
      std: 0.01
    }
    bias_filler {
      type: "constant"
      value: 0
    }
  }
}
layer {
  name: "prob"
  type: "Softmax"
  bottom: "fc8_plantvillage"
  top: "prob"
  include {
    phase: TEST
  }
}
layer {
  name: "hdf5out"
  type: "HDF5Output"
  bottom: "prob"
  bottom: "label"
  include {
    phase: TEST
  }
  hdf5_output_param {
    file_name: "hdf5_dumps/iter_1404.h5"
  }
}
layer {
  name: "loss"
  type: "SoftmaxWithLoss"
  bottom: "fc8_plantvillage"
  bottom: "label"
  top: "loss"
}
layer {
  name: "accuracy"
  type: "Accuracy"
  bottom: "fc8_plantvillage"
  bottom: "label"
  top: "accuracy"
  include {
    phase: TEST
  }
}
I0403 14:22:36.580201 29633 layer_factory.hpp:77] Creating layer data
I0403 14:22:36.580879 29633 net.cpp:91] Creating Layer data
I0403 14:22:36.580911 29633 net.cpp:399] data -> data
I0403 14:22:36.580965 29633 net.cpp:399] data -> label
I0403 14:22:36.581003 29633 data_transformer.cpp:25] Loading mean file from: /home/mohanty/data/final_dataset/lmdb/color-20-80/mean.binaryproto
I0403 14:22:36.584087 29635 db_lmdb.cpp:38] Opened lmdb /home/mohanty/data/final_dataset/lmdb/color-20-80/test_db
I0403 14:22:36.595537 29633 data_layer.cpp:41] output data size: 100,3,227,227
I0403 14:22:36.730265 29633 net.cpp:141] Setting up data
I0403 14:22:36.730327 29633 net.cpp:148] Top shape: 100 3 227 227 (15458700)
I0403 14:22:36.730351 29633 net.cpp:148] Top shape: 100 (100)
I0403 14:22:36.730367 29633 net.cpp:156] Memory required for data: 61835200
I0403 14:22:36.730397 29633 layer_factory.hpp:77] Creating layer label_data_1_split
I0403 14:22:36.730424 29633 net.cpp:91] Creating Layer label_data_1_split
I0403 14:22:36.730443 29633 net.cpp:425] label_data_1_split <- label
I0403 14:22:36.730474 29633 net.cpp:399] label_data_1_split -> label_data_1_split_0
I0403 14:22:36.730504 29633 net.cpp:399] label_data_1_split -> label_data_1_split_1
I0403 14:22:36.730525 29633 net.cpp:399] label_data_1_split -> label_data_1_split_2
I0403 14:22:36.730589 29633 net.cpp:141] Setting up label_data_1_split
I0403 14:22:36.730614 29633 net.cpp:148] Top shape: 100 (100)
I0403 14:22:36.730631 29633 net.cpp:148] Top shape: 100 (100)
I0403 14:22:36.730648 29633 net.cpp:148] Top shape: 100 (100)
I0403 14:22:36.730664 29633 net.cpp:156] Memory required for data: 61836400
I0403 14:22:36.730680 29633 layer_factory.hpp:77] Creating layer conv1
I0403 14:22:36.730713 29633 net.cpp:91] Creating Layer conv1
I0403 14:22:36.730732 29633 net.cpp:425] conv1 <- data
I0403 14:22:36.730753 29633 net.cpp:399] conv1 -> conv1
I0403 14:22:36.883218 29633 net.cpp:141] Setting up conv1
I0403 14:22:36.883294 29633 net.cpp:148] Top shape: 100 96 55 55 (29040000)
I0403 14:22:36.883312 29633 net.cpp:156] Memory required for data: 177996400
I0403 14:22:36.883343 29633 layer_factory.hpp:77] Creating layer relu1
I0403 14:22:36.883370 29633 net.cpp:91] Creating Layer relu1
I0403 14:22:36.883388 29633 net.cpp:425] relu1 <- conv1
I0403 14:22:36.883409 29633 net.cpp:386] relu1 -> conv1 (in-place)
I0403 14:22:36.883669 29633 net.cpp:141] Setting up relu1
I0403 14:22:36.883698 29633 net.cpp:148] Top shape: 100 96 55 55 (29040000)
I0403 14:22:36.883714 29633 net.cpp:156] Memory required for data: 294156400
I0403 14:22:36.883760 29633 layer_factory.hpp:77] Creating layer norm1
I0403 14:22:36.883791 29633 net.cpp:91] Creating Layer norm1
I0403 14:22:36.883810 29633 net.cpp:425] norm1 <- conv1
I0403 14:22:36.883828 29633 net.cpp:399] norm1 -> norm1
I0403 14:22:36.884194 29633 net.cpp:141] Setting up norm1
I0403 14:22:36.884222 29633 net.cpp:148] Top shape: 100 96 55 55 (29040000)
I0403 14:22:36.884238 29633 net.cpp:156] Memory required for data: 410316400
I0403 14:22:36.884266 29633 layer_factory.hpp:77] Creating layer pool1
I0403 14:22:36.884295 29633 net.cpp:91] Creating Layer pool1
I0403 14:22:36.884313 29633 net.cpp:425] pool1 <- norm1
I0403 14:22:36.884331 29633 net.cpp:399] pool1 -> pool1
I0403 14:22:36.884402 29633 net.cpp:141] Setting up pool1
I0403 14:22:36.884426 29633 net.cpp:148] Top shape: 100 96 27 27 (6998400)
I0403 14:22:36.884441 29633 net.cpp:156] Memory required for data: 438310000
I0403 14:22:36.884457 29633 layer_factory.hpp:77] Creating layer conv2
I0403 14:22:36.884484 29633 net.cpp:91] Creating Layer conv2
I0403 14:22:36.884501 29633 net.cpp:425] conv2 <- pool1
I0403 14:22:36.884523 29633 net.cpp:399] conv2 -> conv2
I0403 14:22:36.899780 29633 net.cpp:141] Setting up conv2
I0403 14:22:36.899816 29633 net.cpp:148] Top shape: 100 256 27 27 (18662400)
I0403 14:22:36.899832 29633 net.cpp:156] Memory required for data: 512959600
I0403 14:22:36.899855 29633 layer_factory.hpp:77] Creating layer relu2
I0403 14:22:36.899876 29633 net.cpp:91] Creating Layer relu2
I0403 14:22:36.899894 29633 net.cpp:425] relu2 <- conv2
I0403 14:22:36.899912 29633 net.cpp:386] relu2 -> conv2 (in-place)
I0403 14:22:36.900192 29633 net.cpp:141] Setting up relu2
I0403 14:22:36.900219 29633 net.cpp:148] Top shape: 100 256 27 27 (18662400)
I0403 14:22:36.900235 29633 net.cpp:156] Memory required for data: 587609200
I0403 14:22:36.900250 29633 layer_factory.hpp:77] Creating layer norm2
I0403 14:22:36.900280 29633 net.cpp:91] Creating Layer norm2
I0403 14:22:36.900297 29633 net.cpp:425] norm2 <- conv2
I0403 14:22:36.900318 29633 net.cpp:399] norm2 -> norm2
I0403 14:22:36.900516 29633 net.cpp:141] Setting up norm2
I0403 14:22:36.900542 29633 net.cpp:148] Top shape: 100 256 27 27 (18662400)
I0403 14:22:36.900558 29633 net.cpp:156] Memory required for data: 662258800
I0403 14:22:36.900573 29633 layer_factory.hpp:77] Creating layer pool2
I0403 14:22:36.900593 29633 net.cpp:91] Creating Layer pool2
I0403 14:22:36.900609 29633 net.cpp:425] pool2 <- norm2
I0403 14:22:36.900630 29633 net.cpp:399] pool2 -> pool2
I0403 14:22:36.900686 29633 net.cpp:141] Setting up pool2
I0403 14:22:36.900710 29633 net.cpp:148] Top shape: 100 256 13 13 (4326400)
I0403 14:22:36.900727 29633 net.cpp:156] Memory required for data: 679564400
I0403 14:22:36.900743 29633 layer_factory.hpp:77] Creating layer conv3
I0403 14:22:36.900768 29633 net.cpp:91] Creating Layer conv3
I0403 14:22:36.900787 29633 net.cpp:425] conv3 <- pool2
I0403 14:22:36.900806 29633 net.cpp:399] conv3 -> conv3
I0403 14:22:36.946712 29633 net.cpp:141] Setting up conv3
I0403 14:22:36.946779 29633 net.cpp:148] Top shape: 100 384 13 13 (6489600)
I0403 14:22:36.946797 29633 net.cpp:156] Memory required for data: 705522800
I0403 14:22:36.946822 29633 layer_factory.hpp:77] Creating layer relu3
I0403 14:22:36.946848 29633 net.cpp:91] Creating Layer relu3
I0403 14:22:36.946868 29633 net.cpp:425] relu3 <- conv3
I0403 14:22:36.946889 29633 net.cpp:386] relu3 -> conv3 (in-place)
I0403 14:22:36.947165 29633 net.cpp:141] Setting up relu3
I0403 14:22:36.947191 29633 net.cpp:148] Top shape: 100 384 13 13 (6489600)
I0403 14:22:36.947207 29633 net.cpp:156] Memory required for data: 731481200
I0403 14:22:36.947222 29633 layer_factory.hpp:77] Creating layer conv4
I0403 14:22:36.947248 29633 net.cpp:91] Creating Layer conv4
I0403 14:22:36.947273 29633 net.cpp:425] conv4 <- conv3
I0403 14:22:36.947299 29633 net.cpp:399] conv4 -> conv4
I0403 14:22:36.976857 29633 net.cpp:141] Setting up conv4
I0403 14:22:36.976907 29633 net.cpp:148] Top shape: 100 384 13 13 (6489600)
I0403 14:22:36.976958 29633 net.cpp:156] Memory required for data: 757439600
I0403 14:22:36.976979 29633 layer_factory.hpp:77] Creating layer relu4
I0403 14:22:36.976999 29633 net.cpp:91] Creating Layer relu4
I0403 14:22:36.977016 29633 net.cpp:425] relu4 <- conv4
I0403 14:22:36.977041 29633 net.cpp:386] relu4 -> conv4 (in-place)
I0403 14:22:36.977330 29633 net.cpp:141] Setting up relu4
I0403 14:22:36.977357 29633 net.cpp:148] Top shape: 100 384 13 13 (6489600)
I0403 14:22:36.977373 29633 net.cpp:156] Memory required for data: 783398000
I0403 14:22:36.977388 29633 layer_factory.hpp:77] Creating layer conv5
I0403 14:22:36.977413 29633 net.cpp:91] Creating Layer conv5
I0403 14:22:36.977432 29633 net.cpp:425] conv5 <- conv4
I0403 14:22:36.977453 29633 net.cpp:399] conv5 -> conv5
I0403 14:22:36.997438 29633 net.cpp:141] Setting up conv5
I0403 14:22:36.997470 29633 net.cpp:148] Top shape: 100 256 13 13 (4326400)
I0403 14:22:36.997486 29633 net.cpp:156] Memory required for data: 800703600
I0403 14:22:36.997510 29633 layer_factory.hpp:77] Creating layer relu5
I0403 14:22:36.997530 29633 net.cpp:91] Creating Layer relu5
I0403 14:22:36.997547 29633 net.cpp:425] relu5 <- conv5
I0403 14:22:36.997570 29633 net.cpp:386] relu5 -> conv5 (in-place)
I0403 14:22:36.997859 29633 net.cpp:141] Setting up relu5
I0403 14:22:36.997887 29633 net.cpp:148] Top shape: 100 256 13 13 (4326400)
I0403 14:22:36.997907 29633 net.cpp:156] Memory required for data: 818009200
I0403 14:22:36.997925 29633 layer_factory.hpp:77] Creating layer pool5
I0403 14:22:36.997948 29633 net.cpp:91] Creating Layer pool5
I0403 14:22:36.997967 29633 net.cpp:425] pool5 <- conv5
I0403 14:22:36.997985 29633 net.cpp:399] pool5 -> pool5
I0403 14:22:36.998123 29633 net.cpp:141] Setting up pool5
I0403 14:22:36.998150 29633 net.cpp:148] Top shape: 100 256 6 6 (921600)
I0403 14:22:36.998167 29633 net.cpp:156] Memory required for data: 821695600
I0403 14:22:36.998183 29633 layer_factory.hpp:77] Creating layer fc6
I0403 14:22:36.998211 29633 net.cpp:91] Creating Layer fc6
I0403 14:22:36.998230 29633 net.cpp:425] fc6 <- pool5
I0403 14:22:36.998250 29633 net.cpp:399] fc6 -> fc6
I0403 14:22:38.700886 29633 net.cpp:141] Setting up fc6
I0403 14:22:38.700929 29633 net.cpp:148] Top shape: 100 4096 (409600)
I0403 14:22:38.700947 29633 net.cpp:156] Memory required for data: 823334000
I0403 14:22:38.700968 29633 layer_factory.hpp:77] Creating layer relu6
I0403 14:22:38.700990 29633 net.cpp:91] Creating Layer relu6
I0403 14:22:38.701009 29633 net.cpp:425] relu6 <- fc6
I0403 14:22:38.701031 29633 net.cpp:386] relu6 -> fc6 (in-place)
I0403 14:22:38.701251 29633 net.cpp:141] Setting up relu6
I0403 14:22:38.701282 29633 net.cpp:148] Top shape: 100 4096 (409600)
I0403 14:22:38.701297 29633 net.cpp:156] Memory required for data: 824972400
I0403 14:22:38.701313 29633 layer_factory.hpp:77] Creating layer drop6
I0403 14:22:38.701331 29633 net.cpp:91] Creating Layer drop6
I0403 14:22:38.701347 29633 net.cpp:425] drop6 <- fc6
I0403 14:22:38.701367 29633 net.cpp:386] drop6 -> fc6 (in-place)
I0403 14:22:38.701421 29633 net.cpp:141] Setting up drop6
I0403 14:22:38.701443 29633 net.cpp:148] Top shape: 100 4096 (409600)
I0403 14:22:38.701458 29633 net.cpp:156] Memory required for data: 826610800
I0403 14:22:38.701473 29633 layer_factory.hpp:77] Creating layer fc7
I0403 14:22:38.701493 29633 net.cpp:91] Creating Layer fc7
I0403 14:22:38.701509 29633 net.cpp:425] fc7 <- fc6
I0403 14:22:38.701532 29633 net.cpp:399] fc7 -> fc7
I0403 14:22:39.461541 29633 net.cpp:141] Setting up fc7
I0403 14:22:39.461621 29633 net.cpp:148] Top shape: 100 4096 (409600)
I0403 14:22:39.461637 29633 net.cpp:156] Memory required for data: 828249200
I0403 14:22:39.461657 29633 layer_factory.hpp:77] Creating layer relu7
I0403 14:22:39.461681 29633 net.cpp:91] Creating Layer relu7
I0403 14:22:39.461699 29633 net.cpp:425] relu7 <- fc7
I0403 14:22:39.461719 29633 net.cpp:386] relu7 -> fc7 (in-place)
I0403 14:22:39.462098 29633 net.cpp:141] Setting up relu7
I0403 14:22:39.462124 29633 net.cpp:148] Top shape: 100 4096 (409600)
I0403 14:22:39.462172 29633 net.cpp:156] Memory required for data: 829887600
I0403 14:22:39.462188 29633 layer_factory.hpp:77] Creating layer drop7
I0403 14:22:39.462206 29633 net.cpp:91] Creating Layer drop7
I0403 14:22:39.462260 29633 net.cpp:425] drop7 <- fc7
I0403 14:22:39.462280 29633 net.cpp:386] drop7 -> fc7 (in-place)
I0403 14:22:39.462323 29633 net.cpp:141] Setting up drop7
I0403 14:22:39.462348 29633 net.cpp:148] Top shape: 100 4096 (409600)
I0403 14:22:39.462363 29633 net.cpp:156] Memory required for data: 831526000
I0403 14:22:39.462378 29633 layer_factory.hpp:77] Creating layer fc8_plantvillage
I0403 14:22:39.462399 29633 net.cpp:91] Creating Layer fc8_plantvillage
I0403 14:22:39.462414 29633 net.cpp:425] fc8_plantvillage <- fc7
I0403 14:22:39.462435 29633 net.cpp:399] fc8_plantvillage -> fc8_plantvillage
I0403 14:22:39.469723 29633 net.cpp:141] Setting up fc8_plantvillage
I0403 14:22:39.469753 29633 net.cpp:148] Top shape: 100 38 (3800)
I0403 14:22:39.469769 29633 net.cpp:156] Memory required for data: 831541200
I0403 14:22:39.469786 29633 layer_factory.hpp:77] Creating layer fc8_plantvillage_fc8_plantvillage_0_split
I0403 14:22:39.469807 29633 net.cpp:91] Creating Layer fc8_plantvillage_fc8_plantvillage_0_split
I0403 14:22:39.469823 29633 net.cpp:425] fc8_plantvillage_fc8_plantvillage_0_split <- fc8_plantvillage
I0403 14:22:39.469841 29633 net.cpp:399] fc8_plantvillage_fc8_plantvillage_0_split -> fc8_plantvillage_fc8_plantvillage_0_split_0
I0403 14:22:39.469861 29633 net.cpp:399] fc8_plantvillage_fc8_plantvillage_0_split -> fc8_plantvillage_fc8_plantvillage_0_split_1
I0403 14:22:39.469879 29633 net.cpp:399] fc8_plantvillage_fc8_plantvillage_0_split -> fc8_plantvillage_fc8_plantvillage_0_split_2
I0403 14:22:39.469955 29633 net.cpp:141] Setting up fc8_plantvillage_fc8_plantvillage_0_split
I0403 14:22:39.469980 29633 net.cpp:148] Top shape: 100 38 (3800)
I0403 14:22:39.469996 29633 net.cpp:148] Top shape: 100 38 (3800)
I0403 14:22:39.470011 29633 net.cpp:148] Top shape: 100 38 (3800)
I0403 14:22:39.470024 29633 net.cpp:156] Memory required for data: 831586800
I0403 14:22:39.470038 29633 layer_factory.hpp:77] Creating layer prob
I0403 14:22:39.470057 29633 net.cpp:91] Creating Layer prob
I0403 14:22:39.470072 29633 net.cpp:425] prob <- fc8_plantvillage_fc8_plantvillage_0_split_0
I0403 14:22:39.470093 29633 net.cpp:399] prob -> prob
I0403 14:22:39.470332 29633 net.cpp:141] Setting up prob
I0403 14:22:39.470360 29633 net.cpp:148] Top shape: 100 38 (3800)
I0403 14:22:39.470374 29633 net.cpp:156] Memory required for data: 831602000
I0403 14:22:39.470389 29633 layer_factory.hpp:77] Creating layer hdf5out
I0403 14:22:39.470412 29633 net.cpp:91] Creating Layer hdf5out
I0403 14:22:39.470429 29633 net.cpp:425] hdf5out <- prob
I0403 14:22:39.470446 29633 net.cpp:425] hdf5out <- label_data_1_split_0
I0403 14:22:39.484644 29633 net.cpp:141] Setting up hdf5out
…
