…
I0403 14:43:10.716549 30207 net.cpp:313] The NetState phase (1) differed from the phase (0) specified by a rule in layer data
I0403 14:43:10.716850 30207 net.cpp:49] Initializing net from parameters: 
state {
  phase: TEST
}
layer {
  name: "data"
  type: "Data"
  top: "data"
  top: "label"
  include {
    phase: TEST
  }
  transform_param {
    crop_size: 227
    mean_file: "/home/mohanty/data/final_dataset/lmdb/color-20-80/mean.binaryproto"
  }
  data_param {
    source: "/home/mohanty/data/final_dataset/lmdb/color-20-80/test_db"
    batch_size: 100
    backend: LMDB
  }
}
layer {
  name: "conv1"
  type: "Convolution"
  bottom: "data"
  top: "conv1"
  param {
    lr_mult: 1
    decay_mult: 1
  }
  param {
    lr_mult: 2
    decay_mult: 0
  }
  convolution_param {
    num_output: 96
    kernel_size: 11
    stride: 4
    weight_filler {
      type: "gaussian"
      std: 0.01
    }
    bias_filler {
      type: "constant"
      value: 0
    }
  }
}
layer {
  name: "relu1"
  type: "ReLU"
  bottom: "conv1"
  top: "conv1"
}
layer {
  name: "norm1"
  type: "LRN"
  bottom: "conv1"
  top: "norm1"
  lrn_param {
    local_size: 5
    alpha: 0.0001
    beta: 0.75
  }
}
layer {
  name: "pool1"
  type: "Pooling"
  bottom: "norm1"
  top: "pool1"
  pooling_param {
    pool: MAX
    kernel_size: 3
    stride: 2
  }
}
layer {
  name: "conv2"
  type: "Convolution"
  bottom: "pool1"
  top: "conv2"
  param {
    lr_mult: 1
    decay_mult: 1
  }
  param {
    lr_mult: 2
    decay_mult: 0
  }
  convolution_param {
    num_output: 256
    pad: 2
    kernel_size: 5
    group: 2
    weight_filler {
      type: "gaussian"
      std: 0.01
    }
    bias_filler {
      type: "constant"
      value: 0.1
    }
  }
}
layer {
  name: "relu2"
  type: "ReLU"
  bottom: "conv2"
  top: "conv2"
}
layer {
  name: "norm2"
  type: "LRN"
  bottom: "conv2"
  top: "norm2"
  lrn_param {
    local_size: 5
    alpha: 0.0001
    beta: 0.75
  }
}
layer {
  name: "pool2"
  type: "Pooling"
  bottom: "norm2"
  top: "pool2"
  pooling_param {
    pool: MAX
    kernel_size: 3
    stride: 2
  }
}
layer {
  name: "conv3"
  type: "Convolution"
  bottom: "pool2"
  top: "conv3"
  param {
    lr_mult: 1
    decay_mult: 1
  }
  param {
    lr_mult: 2
    decay_mult: 0
  }
  convolution_param {
    num_output: 384
    pad: 1
    kernel_size: 3
    weight_filler {
      type: "gaussian"
      std: 0.01
    }
    bias_filler {
      type: "constant"
      value: 0
    }
  }
}
layer {
  name: "relu3"
  type: "ReLU"
  bottom: "conv3"
  top: "conv3"
}
layer {
  name: "conv4"
  type: "Convolution"
  bottom: "conv3"
  top: "conv4"
  param {
    lr_mult: 1
    decay_mult: 1
  }
  param {
    lr_mult: 2
    decay_mult: 0
  }
  convolution_param {
    num_output: 384
    pad: 1
    kernel_size: 3
    group: 2
    weight_filler {
      type: "gaussian"
      std: 0.01
    }
    bias_filler {
      type: "constant"
      value: 0.1
    }
  }
}
layer {
  name: "relu4"
  type: "ReLU"
  bottom: "conv4"
  top: "conv4"
}
layer {
  name: "conv5"
  type: "Convolution"
  bottom: "conv4"
  top: "conv5"
  param {
    lr_mult: 1
    decay_mult: 1
  }
  param {
    lr_mult: 2
    decay_mult: 0
  }
  convolution_param {
    num_output: 256
    pad: 1
    kernel_size: 3
    group: 2
    weight_filler {
      type: "gaussian"
      std: 0.01
    }
    bias_filler {
      type: "constant"
      value: 0.1
    }
  }
}
layer {
  name: "relu5"
  type: "ReLU"
  bottom: "conv5"
  top: "conv5"
}
layer {
  name: "pool5"
  type: "Pooling"
  bottom: "conv5"
  top: "pool5"
  pooling_param {
    pool: MAX
    kernel_size: 3
    stride: 2
  }
}
layer {
  name: "fc6"
  type: "InnerProduct"
  bottom: "pool5"
  top: "fc6"
  param {
    lr_mult: 1
    decay_mult: 1
  }
  param {
    lr_mult: 2
    decay_mult: 0
  }
  inner_product_param {
    num_output: 4096
    weight_filler {
      type: "gaussian"
      std: 0.005
    }
    bias_filler {
      type: "constant"
      value: 0.1
    }
  }
}
layer {
  name: "relu6"
  type: "ReLU"
  bottom: "fc6"
  top: "fc6"
}
layer {
  name: "drop6"
  type: "Dropout"
  bottom: "fc6"
  top: "fc6"
  dropout_param {
    dropout_ratio: 0.5
  }
}
layer {
  name: "fc7"
  type: "InnerProduct"
  bottom: "fc6"
  top: "fc7"
  param {
    lr_mult: 1
    decay_mult: 1
  }
  param {
    lr_mult: 2
    decay_mult: 0
  }
  inner_product_param {
    num_output: 4096
    weight_filler {
      type: "gaussian"
      std: 0.005
    }
    bias_filler {
      type: "constant"
      value: 0.1
    }
  }
}
layer {
  name: "relu7"
  type: "ReLU"
  bottom: "fc7"
  top: "fc7"
}
layer {
  name: "drop7"
  type: "Dropout"
  bottom: "fc7"
  top: "fc7"
  dropout_param {
    dropout_ratio: 0.5
  }
}
layer {
  name: "fc8_plantvillage"
  type: "InnerProduct"
  bottom: "fc7"
  top: "fc8_plantvillage"
  param {
    lr_mult: 1
    decay_mult: 1
  }
  param {
    lr_mult: 2
    decay_mult: 0
  }
  inner_product_param {
    num_output: 38
    weight_filler {
      type: "gaussian"
      std: 0.01
    }
    bias_filler {
      type: "constant"
      value: 0
    }
  }
}
layer {
  name: "prob"
  type: "Softmax"
  bottom: "fc8_plantvillage"
  top: "prob"
  include {
    phase: TEST
  }
}
layer {
  name: "hdf5out"
  type: "HDF5Output"
  bottom: "prob"
  bottom: "label"
  include {
    phase: TEST
  }
  hdf5_output_param {
    file_name: "hdf5_dumps/iter_2916.h5"
  }
}
layer {
  name: "loss"
  type: "SoftmaxWithLoss"
  bottom: "fc8_plantvillage"
  bottom: "label"
  top: "loss"
}
layer {
  name: "accuracy"
  type: "Accuracy"
  bottom: "fc8_plantvillage"
  bottom: "label"
  top: "accuracy"
  include {
    phase: TEST
  }
}
I0403 14:43:10.718794 30207 layer_factory.hpp:77] Creating layer data
I0403 14:43:10.719477 30207 net.cpp:91] Creating Layer data
I0403 14:43:10.719511 30207 net.cpp:399] data -> data
I0403 14:43:10.719564 30207 net.cpp:399] data -> label
I0403 14:43:10.719604 30207 data_transformer.cpp:25] Loading mean file from: /home/mohanty/data/final_dataset/lmdb/color-20-80/mean.binaryproto
I0403 14:43:10.725000 30211 db_lmdb.cpp:38] Opened lmdb /home/mohanty/data/final_dataset/lmdb/color-20-80/test_db
I0403 14:43:10.733898 30207 data_layer.cpp:41] output data size: 100,3,227,227
I0403 14:43:10.869029 30207 net.cpp:141] Setting up data
I0403 14:43:10.869120 30207 net.cpp:148] Top shape: 100 3 227 227 (15458700)
I0403 14:43:10.869144 30207 net.cpp:148] Top shape: 100 (100)
I0403 14:43:10.869159 30207 net.cpp:156] Memory required for data: 61835200
I0403 14:43:10.869199 30207 layer_factory.hpp:77] Creating layer label_data_1_split
I0403 14:43:10.869225 30207 net.cpp:91] Creating Layer label_data_1_split
I0403 14:43:10.869243 30207 net.cpp:425] label_data_1_split <- label
I0403 14:43:10.869280 30207 net.cpp:399] label_data_1_split -> label_data_1_split_0
I0403 14:43:10.869321 30207 net.cpp:399] label_data_1_split -> label_data_1_split_1
I0403 14:43:10.869344 30207 net.cpp:399] label_data_1_split -> label_data_1_split_2
I0403 14:43:10.869437 30207 net.cpp:141] Setting up label_data_1_split
I0403 14:43:10.869464 30207 net.cpp:148] Top shape: 100 (100)
I0403 14:43:10.869482 30207 net.cpp:148] Top shape: 100 (100)
I0403 14:43:10.869500 30207 net.cpp:148] Top shape: 100 (100)
I0403 14:43:10.869516 30207 net.cpp:156] Memory required for data: 61836400
I0403 14:43:10.869532 30207 layer_factory.hpp:77] Creating layer conv1
I0403 14:43:10.869566 30207 net.cpp:91] Creating Layer conv1
I0403 14:43:10.869602 30207 net.cpp:425] conv1 <- data
I0403 14:43:10.869627 30207 net.cpp:399] conv1 -> conv1
I0403 14:43:11.021280 30207 net.cpp:141] Setting up conv1
I0403 14:43:11.021344 30207 net.cpp:148] Top shape: 100 96 55 55 (29040000)
I0403 14:43:11.021363 30207 net.cpp:156] Memory required for data: 177996400
I0403 14:43:11.021397 30207 layer_factory.hpp:77] Creating layer relu1
I0403 14:43:11.021428 30207 net.cpp:91] Creating Layer relu1
I0403 14:43:11.021448 30207 net.cpp:425] relu1 <- conv1
I0403 14:43:11.021469 30207 net.cpp:386] relu1 -> conv1 (in-place)
I0403 14:43:11.021809 30207 net.cpp:141] Setting up relu1
I0403 14:43:11.021838 30207 net.cpp:148] Top shape: 100 96 55 55 (29040000)
I0403 14:43:11.021857 30207 net.cpp:156] Memory required for data: 294156400
I0403 14:43:11.021908 30207 layer_factory.hpp:77] Creating layer norm1
I0403 14:43:11.021939 30207 net.cpp:91] Creating Layer norm1
I0403 14:43:11.021958 30207 net.cpp:425] norm1 <- conv1
I0403 14:43:11.021977 30207 net.cpp:399] norm1 -> norm1
I0403 14:43:11.022301 30207 net.cpp:141] Setting up norm1
I0403 14:43:11.022330 30207 net.cpp:148] Top shape: 100 96 55 55 (29040000)
I0403 14:43:11.022347 30207 net.cpp:156] Memory required for data: 410316400
I0403 14:43:11.022363 30207 layer_factory.hpp:77] Creating layer pool1
I0403 14:43:11.022388 30207 net.cpp:91] Creating Layer pool1
I0403 14:43:11.022408 30207 net.cpp:425] pool1 <- norm1
I0403 14:43:11.022428 30207 net.cpp:399] pool1 -> pool1
I0403 14:43:11.022498 30207 net.cpp:141] Setting up pool1
I0403 14:43:11.022524 30207 net.cpp:148] Top shape: 100 96 27 27 (6998400)
I0403 14:43:11.022542 30207 net.cpp:156] Memory required for data: 438310000
I0403 14:43:11.022558 30207 layer_factory.hpp:77] Creating layer conv2
I0403 14:43:11.022586 30207 net.cpp:91] Creating Layer conv2
I0403 14:43:11.022604 30207 net.cpp:425] conv2 <- pool1
I0403 14:43:11.022624 30207 net.cpp:399] conv2 -> conv2
I0403 14:43:11.038359 30207 net.cpp:141] Setting up conv2
I0403 14:43:11.038404 30207 net.cpp:148] Top shape: 100 256 27 27 (18662400)
I0403 14:43:11.038424 30207 net.cpp:156] Memory required for data: 512959600
I0403 14:43:11.038449 30207 layer_factory.hpp:77] Creating layer relu2
I0403 14:43:11.038470 30207 net.cpp:91] Creating Layer relu2
I0403 14:43:11.038489 30207 net.cpp:425] relu2 <- conv2
I0403 14:43:11.038509 30207 net.cpp:386] relu2 -> conv2 (in-place)
I0403 14:43:11.038802 30207 net.cpp:141] Setting up relu2
I0403 14:43:11.038832 30207 net.cpp:148] Top shape: 100 256 27 27 (18662400)
I0403 14:43:11.038849 30207 net.cpp:156] Memory required for data: 587609200
I0403 14:43:11.038866 30207 layer_factory.hpp:77] Creating layer norm2
I0403 14:43:11.038890 30207 net.cpp:91] Creating Layer norm2
I0403 14:43:11.038909 30207 net.cpp:425] norm2 <- conv2
I0403 14:43:11.038933 30207 net.cpp:399] norm2 -> norm2
I0403 14:43:11.039139 30207 net.cpp:141] Setting up norm2
I0403 14:43:11.039168 30207 net.cpp:148] Top shape: 100 256 27 27 (18662400)
I0403 14:43:11.039185 30207 net.cpp:156] Memory required for data: 662258800
I0403 14:43:11.039201 30207 layer_factory.hpp:77] Creating layer pool2
I0403 14:43:11.039222 30207 net.cpp:91] Creating Layer pool2
I0403 14:43:11.039237 30207 net.cpp:425] pool2 <- norm2
I0403 14:43:11.039265 30207 net.cpp:399] pool2 -> pool2
I0403 14:43:11.039324 30207 net.cpp:141] Setting up pool2
I0403 14:43:11.039350 30207 net.cpp:148] Top shape: 100 256 13 13 (4326400)
I0403 14:43:11.039366 30207 net.cpp:156] Memory required for data: 679564400
I0403 14:43:11.039382 30207 layer_factory.hpp:77] Creating layer conv3
I0403 14:43:11.039407 30207 net.cpp:91] Creating Layer conv3
I0403 14:43:11.039427 30207 net.cpp:425] conv3 <- pool2
I0403 14:43:11.039448 30207 net.cpp:399] conv3 -> conv3
I0403 14:43:11.089249 30207 net.cpp:141] Setting up conv3
I0403 14:43:11.089311 30207 net.cpp:148] Top shape: 100 384 13 13 (6489600)
I0403 14:43:11.089331 30207 net.cpp:156] Memory required for data: 705522800
I0403 14:43:11.089359 30207 layer_factory.hpp:77] Creating layer relu3
I0403 14:43:11.089385 30207 net.cpp:91] Creating Layer relu3
I0403 14:43:11.089406 30207 net.cpp:425] relu3 <- conv3
I0403 14:43:11.089426 30207 net.cpp:386] relu3 -> conv3 (in-place)
I0403 14:43:11.089723 30207 net.cpp:141] Setting up relu3
I0403 14:43:11.089752 30207 net.cpp:148] Top shape: 100 384 13 13 (6489600)
I0403 14:43:11.089769 30207 net.cpp:156] Memory required for data: 731481200
I0403 14:43:11.089787 30207 layer_factory.hpp:77] Creating layer conv4
I0403 14:43:11.089813 30207 net.cpp:91] Creating Layer conv4
I0403 14:43:11.089833 30207 net.cpp:425] conv4 <- conv3
I0403 14:43:11.089855 30207 net.cpp:399] conv4 -> conv4
I0403 14:43:11.121186 30207 net.cpp:141] Setting up conv4
I0403 14:43:11.121260 30207 net.cpp:148] Top shape: 100 384 13 13 (6489600)
I0403 14:43:11.121312 30207 net.cpp:156] Memory required for data: 757439600
I0403 14:43:11.121336 30207 layer_factory.hpp:77] Creating layer relu4
I0403 14:43:11.121361 30207 net.cpp:91] Creating Layer relu4
I0403 14:43:11.121381 30207 net.cpp:425] relu4 <- conv4
I0403 14:43:11.121402 30207 net.cpp:386] relu4 -> conv4 (in-place)
I0403 14:43:11.121688 30207 net.cpp:141] Setting up relu4
I0403 14:43:11.121718 30207 net.cpp:148] Top shape: 100 384 13 13 (6489600)
I0403 14:43:11.121734 30207 net.cpp:156] Memory required for data: 783398000
I0403 14:43:11.121752 30207 layer_factory.hpp:77] Creating layer conv5
I0403 14:43:11.121778 30207 net.cpp:91] Creating Layer conv5
I0403 14:43:11.121796 30207 net.cpp:425] conv5 <- conv4
I0403 14:43:11.121819 30207 net.cpp:399] conv5 -> conv5
I0403 14:43:11.142735 30207 net.cpp:141] Setting up conv5
I0403 14:43:11.142772 30207 net.cpp:148] Top shape: 100 256 13 13 (4326400)
I0403 14:43:11.142791 30207 net.cpp:156] Memory required for data: 800703600
I0403 14:43:11.142815 30207 layer_factory.hpp:77] Creating layer relu5
I0403 14:43:11.142839 30207 net.cpp:91] Creating Layer relu5
I0403 14:43:11.142858 30207 net.cpp:425] relu5 <- conv5
I0403 14:43:11.142875 30207 net.cpp:386] relu5 -> conv5 (in-place)
I0403 14:43:11.143157 30207 net.cpp:141] Setting up relu5
I0403 14:43:11.143184 30207 net.cpp:148] Top shape: 100 256 13 13 (4326400)
I0403 14:43:11.143200 30207 net.cpp:156] Memory required for data: 818009200
I0403 14:43:11.143218 30207 layer_factory.hpp:77] Creating layer pool5
I0403 14:43:11.143244 30207 net.cpp:91] Creating Layer pool5
I0403 14:43:11.143266 30207 net.cpp:425] pool5 <- conv5
I0403 14:43:11.143286 30207 net.cpp:399] pool5 -> pool5
I0403 14:43:11.143349 30207 net.cpp:141] Setting up pool5
I0403 14:43:11.143375 30207 net.cpp:148] Top shape: 100 256 6 6 (921600)
I0403 14:43:11.143390 30207 net.cpp:156] Memory required for data: 821695600
I0403 14:43:11.143407 30207 layer_factory.hpp:77] Creating layer fc6
I0403 14:43:11.143440 30207 net.cpp:91] Creating Layer fc6
I0403 14:43:11.143458 30207 net.cpp:425] fc6 <- pool5
I0403 14:43:11.143478 30207 net.cpp:399] fc6 -> fc6
I0403 14:43:12.715051 30207 net.cpp:141] Setting up fc6
I0403 14:43:12.715113 30207 net.cpp:148] Top shape: 100 4096 (409600)
I0403 14:43:12.715129 30207 net.cpp:156] Memory required for data: 823334000
I0403 14:43:12.715152 30207 layer_factory.hpp:77] Creating layer relu6
I0403 14:43:12.715173 30207 net.cpp:91] Creating Layer relu6
I0403 14:43:12.715190 30207 net.cpp:425] relu6 <- fc6
I0403 14:43:12.715212 30207 net.cpp:386] relu6 -> fc6 (in-place)
I0403 14:43:12.715441 30207 net.cpp:141] Setting up relu6
I0403 14:43:12.715467 30207 net.cpp:148] Top shape: 100 4096 (409600)
I0403 14:43:12.715482 30207 net.cpp:156] Memory required for data: 824972400
I0403 14:43:12.715498 30207 layer_factory.hpp:77] Creating layer drop6
I0403 14:43:12.715517 30207 net.cpp:91] Creating Layer drop6
I0403 14:43:12.715533 30207 net.cpp:425] drop6 <- fc6
I0403 14:43:12.715551 30207 net.cpp:386] drop6 -> fc6 (in-place)
I0403 14:43:12.715606 30207 net.cpp:141] Setting up drop6
I0403 14:43:12.715629 30207 net.cpp:148] Top shape: 100 4096 (409600)
I0403 14:43:12.715644 30207 net.cpp:156] Memory required for data: 826610800
I0403 14:43:12.715661 30207 layer_factory.hpp:77] Creating layer fc7
I0403 14:43:12.715680 30207 net.cpp:91] Creating Layer fc7
I0403 14:43:12.715698 30207 net.cpp:425] fc7 <- fc6
I0403 14:43:12.715719 30207 net.cpp:399] fc7 -> fc7
I0403 14:43:13.393138 30207 net.cpp:141] Setting up fc7
I0403 14:43:13.393182 30207 net.cpp:148] Top shape: 100 4096 (409600)
I0403 14:43:13.393199 30207 net.cpp:156] Memory required for data: 828249200
I0403 14:43:13.393221 30207 layer_factory.hpp:77] Creating layer relu7
I0403 14:43:13.393256 30207 net.cpp:91] Creating Layer relu7
I0403 14:43:13.393277 30207 net.cpp:425] relu7 <- fc7
I0403 14:43:13.393297 30207 net.cpp:386] relu7 -> fc7 (in-place)
I0403 14:43:13.393692 30207 net.cpp:141] Setting up relu7
I0403 14:43:13.393719 30207 net.cpp:148] Top shape: 100 4096 (409600)
I0403 14:43:13.393766 30207 net.cpp:156] Memory required for data: 829887600
I0403 14:43:13.393784 30207 layer_factory.hpp:77] Creating layer drop7
I0403 14:43:13.393805 30207 net.cpp:91] Creating Layer drop7
I0403 14:43:13.393821 30207 net.cpp:425] drop7 <- fc7
I0403 14:43:13.393841 30207 net.cpp:386] drop7 -> fc7 (in-place)
I0403 14:43:13.393883 30207 net.cpp:141] Setting up drop7
I0403 14:43:13.393908 30207 net.cpp:148] Top shape: 100 4096 (409600)
I0403 14:43:13.393925 30207 net.cpp:156] Memory required for data: 831526000
I0403 14:43:13.393941 30207 layer_factory.hpp:77] Creating layer fc8_plantvillage
I0403 14:43:13.393961 30207 net.cpp:91] Creating Layer fc8_plantvillage
I0403 14:43:13.393977 30207 net.cpp:425] fc8_plantvillage <- fc7
I0403 14:43:13.393998 30207 net.cpp:399] fc8_plantvillage -> fc8_plantvillage
I0403 14:43:13.400746 30207 net.cpp:141] Setting up fc8_plantvillage
I0403 14:43:13.400776 30207 net.cpp:148] Top shape: 100 38 (3800)
I0403 14:43:13.400794 30207 net.cpp:156] Memory required for data: 831541200
I0403 14:43:13.400812 30207 layer_factory.hpp:77] Creating layer fc8_plantvillage_fc8_plantvillage_0_split
I0403 14:43:13.400835 30207 net.cpp:91] Creating Layer fc8_plantvillage_fc8_plantvillage_0_split
I0403 14:43:13.400851 30207 net.cpp:425] fc8_plantvillage_fc8_plantvillage_0_split <- fc8_plantvillage
I0403 14:43:13.400869 30207 net.cpp:399] fc8_plantvillage_fc8_plantvillage_0_split -> fc8_plantvillage_fc8_plantvillage_0_split_0
I0403 14:43:13.400889 30207 net.cpp:399] fc8_plantvillage_fc8_plantvillage_0_split -> fc8_plantvillage_fc8_plantvillage_0_split_1
I0403 14:43:13.400909 30207 net.cpp:399] fc8_plantvillage_fc8_plantvillage_0_split -> fc8_plantvillage_fc8_plantvillage_0_split_2
I0403 14:43:13.400987 30207 net.cpp:141] Setting up fc8_plantvillage_fc8_plantvillage_0_split
I0403 14:43:13.401012 30207 net.cpp:148] Top shape: 100 38 (3800)
I0403 14:43:13.401029 30207 net.cpp:148] Top shape: 100 38 (3800)
I0403 14:43:13.401046 30207 net.cpp:148] Top shape: 100 38 (3800)
I0403 14:43:13.401059 30207 net.cpp:156] Memory required for data: 831586800
I0403 14:43:13.401075 30207 layer_factory.hpp:77] Creating layer prob
I0403 14:43:13.401094 30207 net.cpp:91] Creating Layer prob
I0403 14:43:13.401110 30207 net.cpp:425] prob <- fc8_plantvillage_fc8_plantvillage_0_split_0
I0403 14:43:13.401130 30207 net.cpp:399] prob -> prob
I0403 14:43:13.401367 30207 net.cpp:141] Setting up prob
I0403 14:43:13.401396 30207 net.cpp:148] Top shape: 100 38 (3800)
I0403 14:43:13.401412 30207 net.cpp:156] Memory required for data: 831602000
I0403 14:43:13.401427 30207 layer_factory.hpp:77] Creating layer hdf5out
I0403 14:43:13.401449 30207 net.cpp:91] Creating Layer hdf5out
I0403 14:43:13.401466 30207 net.cpp:425] hdf5out <- prob
I0403 14:43:13.401482 30207 net.cpp:425] hdf5out <- label_data_1_split_0
I0403 14:43:13.405359 30207 net.cpp:141] Setting up hdf5out
…
