…
I0403 14:44:40.461571 30254 net.cpp:313] The NetState phase (1) differed from the phase (0) specified by a rule in layer data
I0403 14:44:40.461874 30254 net.cpp:49] Initializing net from parameters: 
state {
  phase: TEST
}
layer {
  name: "data"
  type: "Data"
  top: "data"
  top: "label"
  include {
    phase: TEST
  }
  transform_param {
    crop_size: 227
    mean_file: "/home/mohanty/data/final_dataset/lmdb/color-20-80/mean.binaryproto"
  }
  data_param {
    source: "/home/mohanty/data/final_dataset/lmdb/color-20-80/test_db"
    batch_size: 100
    backend: LMDB
  }
}
layer {
  name: "conv1"
  type: "Convolution"
  bottom: "data"
  top: "conv1"
  param {
    lr_mult: 1
    decay_mult: 1
  }
  param {
    lr_mult: 2
    decay_mult: 0
  }
  convolution_param {
    num_output: 96
    kernel_size: 11
    stride: 4
    weight_filler {
      type: "gaussian"
      std: 0.01
    }
    bias_filler {
      type: "constant"
      value: 0
    }
  }
}
layer {
  name: "relu1"
  type: "ReLU"
  bottom: "conv1"
  top: "conv1"
}
layer {
  name: "norm1"
  type: "LRN"
  bottom: "conv1"
  top: "norm1"
  lrn_param {
    local_size: 5
    alpha: 0.0001
    beta: 0.75
  }
}
layer {
  name: "pool1"
  type: "Pooling"
  bottom: "norm1"
  top: "pool1"
  pooling_param {
    pool: MAX
    kernel_size: 3
    stride: 2
  }
}
layer {
  name: "conv2"
  type: "Convolution"
  bottom: "pool1"
  top: "conv2"
  param {
    lr_mult: 1
    decay_mult: 1
  }
  param {
    lr_mult: 2
    decay_mult: 0
  }
  convolution_param {
    num_output: 256
    pad: 2
    kernel_size: 5
    group: 2
    weight_filler {
      type: "gaussian"
      std: 0.01
    }
    bias_filler {
      type: "constant"
      value: 0.1
    }
  }
}
layer {
  name: "relu2"
  type: "ReLU"
  bottom: "conv2"
  top: "conv2"
}
layer {
  name: "norm2"
  type: "LRN"
  bottom: "conv2"
  top: "norm2"
  lrn_param {
    local_size: 5
    alpha: 0.0001
    beta: 0.75
  }
}
layer {
  name: "pool2"
  type: "Pooling"
  bottom: "norm2"
  top: "pool2"
  pooling_param {
    pool: MAX
    kernel_size: 3
    stride: 2
  }
}
layer {
  name: "conv3"
  type: "Convolution"
  bottom: "pool2"
  top: "conv3"
  param {
    lr_mult: 1
    decay_mult: 1
  }
  param {
    lr_mult: 2
    decay_mult: 0
  }
  convolution_param {
    num_output: 384
    pad: 1
    kernel_size: 3
    weight_filler {
      type: "gaussian"
      std: 0.01
    }
    bias_filler {
      type: "constant"
      value: 0
    }
  }
}
layer {
  name: "relu3"
  type: "ReLU"
  bottom: "conv3"
  top: "conv3"
}
layer {
  name: "conv4"
  type: "Convolution"
  bottom: "conv3"
  top: "conv4"
  param {
    lr_mult: 1
    decay_mult: 1
  }
  param {
    lr_mult: 2
    decay_mult: 0
  }
  convolution_param {
    num_output: 384
    pad: 1
    kernel_size: 3
    group: 2
    weight_filler {
      type: "gaussian"
      std: 0.01
    }
    bias_filler {
      type: "constant"
      value: 0.1
    }
  }
}
layer {
  name: "relu4"
  type: "ReLU"
  bottom: "conv4"
  top: "conv4"
}
layer {
  name: "conv5"
  type: "Convolution"
  bottom: "conv4"
  top: "conv5"
  param {
    lr_mult: 1
    decay_mult: 1
  }
  param {
    lr_mult: 2
    decay_mult: 0
  }
  convolution_param {
    num_output: 256
    pad: 1
    kernel_size: 3
    group: 2
    weight_filler {
      type: "gaussian"
      std: 0.01
    }
    bias_filler {
      type: "constant"
      value: 0.1
    }
  }
}
layer {
  name: "relu5"
  type: "ReLU"
  bottom: "conv5"
  top: "conv5"
}
layer {
  name: "pool5"
  type: "Pooling"
  bottom: "conv5"
  top: "pool5"
  pooling_param {
    pool: MAX
    kernel_size: 3
    stride: 2
  }
}
layer {
  name: "fc6"
  type: "InnerProduct"
  bottom: "pool5"
  top: "fc6"
  param {
    lr_mult: 1
    decay_mult: 1
  }
  param {
    lr_mult: 2
    decay_mult: 0
  }
  inner_product_param {
    num_output: 4096
    weight_filler {
      type: "gaussian"
      std: 0.005
    }
    bias_filler {
      type: "constant"
      value: 0.1
    }
  }
}
layer {
  name: "relu6"
  type: "ReLU"
  bottom: "fc6"
  top: "fc6"
}
layer {
  name: "drop6"
  type: "Dropout"
  bottom: "fc6"
  top: "fc6"
  dropout_param {
    dropout_ratio: 0.5
  }
}
layer {
  name: "fc7"
  type: "InnerProduct"
  bottom: "fc6"
  top: "fc7"
  param {
    lr_mult: 1
    decay_mult: 1
  }
  param {
    lr_mult: 2
    decay_mult: 0
  }
  inner_product_param {
    num_output: 4096
    weight_filler {
      type: "gaussian"
      std: 0.005
    }
    bias_filler {
      type: "constant"
      value: 0.1
    }
  }
}
layer {
  name: "relu7"
  type: "ReLU"
  bottom: "fc7"
  top: "fc7"
}
layer {
  name: "drop7"
  type: "Dropout"
  bottom: "fc7"
  top: "fc7"
  dropout_param {
    dropout_ratio: 0.5
  }
}
layer {
  name: "fc8_plantvillage"
  type: "InnerProduct"
  bottom: "fc7"
  top: "fc8_plantvillage"
  param {
    lr_mult: 1
    decay_mult: 1
  }
  param {
    lr_mult: 2
    decay_mult: 0
  }
  inner_product_param {
    num_output: 38
    weight_filler {
      type: "gaussian"
      std: 0.01
    }
    bias_filler {
      type: "constant"
      value: 0
    }
  }
}
layer {
  name: "prob"
  type: "Softmax"
  bottom: "fc8_plantvillage"
  top: "prob"
  include {
    phase: TEST
  }
}
layer {
  name: "hdf5out"
  type: "HDF5Output"
  bottom: "prob"
  bottom: "label"
  include {
    phase: TEST
  }
  hdf5_output_param {
    file_name: "hdf5_dumps/iter_3024.h5"
  }
}
layer {
  name: "loss"
  type: "SoftmaxWithLoss"
  bottom: "fc8_plantvillage"
  bottom: "label"
  top: "loss"
}
layer {
  name: "accuracy"
  type: "Accuracy"
  bottom: "fc8_plantvillage"
  bottom: "label"
  top: "accuracy"
  include {
    phase: TEST
  }
}
I0403 14:44:40.462445 30254 layer_factory.hpp:77] Creating layer data
I0403 14:44:40.463078 30254 net.cpp:91] Creating Layer data
I0403 14:44:40.463109 30254 net.cpp:399] data -> data
I0403 14:44:40.463161 30254 net.cpp:399] data -> label
I0403 14:44:40.463201 30254 data_transformer.cpp:25] Loading mean file from: /home/mohanty/data/final_dataset/lmdb/color-20-80/mean.binaryproto
I0403 14:44:40.465886 30256 db_lmdb.cpp:38] Opened lmdb /home/mohanty/data/final_dataset/lmdb/color-20-80/test_db
I0403 14:44:40.477937 30254 data_layer.cpp:41] output data size: 100,3,227,227
I0403 14:44:40.612768 30254 net.cpp:141] Setting up data
I0403 14:44:40.612857 30254 net.cpp:148] Top shape: 100 3 227 227 (15458700)
I0403 14:44:40.612880 30254 net.cpp:148] Top shape: 100 (100)
I0403 14:44:40.612896 30254 net.cpp:156] Memory required for data: 61835200
I0403 14:44:40.612926 30254 layer_factory.hpp:77] Creating layer label_data_1_split
I0403 14:44:40.612951 30254 net.cpp:91] Creating Layer label_data_1_split
I0403 14:44:40.612969 30254 net.cpp:425] label_data_1_split <- label
I0403 14:44:40.613001 30254 net.cpp:399] label_data_1_split -> label_data_1_split_0
I0403 14:44:40.613029 30254 net.cpp:399] label_data_1_split -> label_data_1_split_1
I0403 14:44:40.613050 30254 net.cpp:399] label_data_1_split -> label_data_1_split_2
I0403 14:44:40.613116 30254 net.cpp:141] Setting up label_data_1_split
I0403 14:44:40.613139 30254 net.cpp:148] Top shape: 100 (100)
I0403 14:44:40.613157 30254 net.cpp:148] Top shape: 100 (100)
I0403 14:44:40.613173 30254 net.cpp:148] Top shape: 100 (100)
I0403 14:44:40.613188 30254 net.cpp:156] Memory required for data: 61836400
I0403 14:44:40.613204 30254 layer_factory.hpp:77] Creating layer conv1
I0403 14:44:40.613237 30254 net.cpp:91] Creating Layer conv1
I0403 14:44:40.613261 30254 net.cpp:425] conv1 <- data
I0403 14:44:40.613282 30254 net.cpp:399] conv1 -> conv1
I0403 14:44:40.765980 30254 net.cpp:141] Setting up conv1
I0403 14:44:40.766062 30254 net.cpp:148] Top shape: 100 96 55 55 (29040000)
I0403 14:44:40.766082 30254 net.cpp:156] Memory required for data: 177996400
I0403 14:44:40.766115 30254 layer_factory.hpp:77] Creating layer relu1
I0403 14:44:40.766144 30254 net.cpp:91] Creating Layer relu1
I0403 14:44:40.766165 30254 net.cpp:425] relu1 <- conv1
I0403 14:44:40.766185 30254 net.cpp:386] relu1 -> conv1 (in-place)
I0403 14:44:40.766466 30254 net.cpp:141] Setting up relu1
I0403 14:44:40.766495 30254 net.cpp:148] Top shape: 100 96 55 55 (29040000)
I0403 14:44:40.766513 30254 net.cpp:156] Memory required for data: 294156400
I0403 14:44:40.766564 30254 layer_factory.hpp:77] Creating layer norm1
I0403 14:44:40.766597 30254 net.cpp:91] Creating Layer norm1
I0403 14:44:40.766616 30254 net.cpp:425] norm1 <- conv1
I0403 14:44:40.766635 30254 net.cpp:399] norm1 -> norm1
I0403 14:44:40.766978 30254 net.cpp:141] Setting up norm1
I0403 14:44:40.767007 30254 net.cpp:148] Top shape: 100 96 55 55 (29040000)
I0403 14:44:40.767024 30254 net.cpp:156] Memory required for data: 410316400
I0403 14:44:40.767040 30254 layer_factory.hpp:77] Creating layer pool1
I0403 14:44:40.767067 30254 net.cpp:91] Creating Layer pool1
I0403 14:44:40.767087 30254 net.cpp:425] pool1 <- norm1
I0403 14:44:40.767105 30254 net.cpp:399] pool1 -> pool1
I0403 14:44:40.767180 30254 net.cpp:141] Setting up pool1
I0403 14:44:40.767207 30254 net.cpp:148] Top shape: 100 96 27 27 (6998400)
I0403 14:44:40.767222 30254 net.cpp:156] Memory required for data: 438310000
I0403 14:44:40.767240 30254 layer_factory.hpp:77] Creating layer conv2
I0403 14:44:40.767274 30254 net.cpp:91] Creating Layer conv2
I0403 14:44:40.767294 30254 net.cpp:425] conv2 <- pool1
I0403 14:44:40.767316 30254 net.cpp:399] conv2 -> conv2
I0403 14:44:40.782832 30254 net.cpp:141] Setting up conv2
I0403 14:44:40.782883 30254 net.cpp:148] Top shape: 100 256 27 27 (18662400)
I0403 14:44:40.782903 30254 net.cpp:156] Memory required for data: 512959600
I0403 14:44:40.782927 30254 layer_factory.hpp:77] Creating layer relu2
I0403 14:44:40.782949 30254 net.cpp:91] Creating Layer relu2
I0403 14:44:40.782968 30254 net.cpp:425] relu2 <- conv2
I0403 14:44:40.782989 30254 net.cpp:386] relu2 -> conv2 (in-place)
I0403 14:44:40.783283 30254 net.cpp:141] Setting up relu2
I0403 14:44:40.783314 30254 net.cpp:148] Top shape: 100 256 27 27 (18662400)
I0403 14:44:40.783332 30254 net.cpp:156] Memory required for data: 587609200
I0403 14:44:40.783349 30254 layer_factory.hpp:77] Creating layer norm2
I0403 14:44:40.783371 30254 net.cpp:91] Creating Layer norm2
I0403 14:44:40.783388 30254 net.cpp:425] norm2 <- conv2
I0403 14:44:40.783412 30254 net.cpp:399] norm2 -> norm2
I0403 14:44:40.783618 30254 net.cpp:141] Setting up norm2
I0403 14:44:40.783646 30254 net.cpp:148] Top shape: 100 256 27 27 (18662400)
I0403 14:44:40.783666 30254 net.cpp:156] Memory required for data: 662258800
I0403 14:44:40.783684 30254 layer_factory.hpp:77] Creating layer pool2
I0403 14:44:40.783704 30254 net.cpp:91] Creating Layer pool2
I0403 14:44:40.783720 30254 net.cpp:425] pool2 <- norm2
I0403 14:44:40.783740 30254 net.cpp:399] pool2 -> pool2
I0403 14:44:40.783802 30254 net.cpp:141] Setting up pool2
I0403 14:44:40.783828 30254 net.cpp:148] Top shape: 100 256 13 13 (4326400)
I0403 14:44:40.783845 30254 net.cpp:156] Memory required for data: 679564400
I0403 14:44:40.783861 30254 layer_factory.hpp:77] Creating layer conv3
I0403 14:44:40.783887 30254 net.cpp:91] Creating Layer conv3
I0403 14:44:40.783906 30254 net.cpp:425] conv3 <- pool2
I0403 14:44:40.783928 30254 net.cpp:399] conv3 -> conv3
I0403 14:44:40.832025 30254 net.cpp:141] Setting up conv3
I0403 14:44:40.832065 30254 net.cpp:148] Top shape: 100 384 13 13 (6489600)
I0403 14:44:40.832083 30254 net.cpp:156] Memory required for data: 705522800
I0403 14:44:40.832109 30254 layer_factory.hpp:77] Creating layer relu3
I0403 14:44:40.832135 30254 net.cpp:91] Creating Layer relu3
I0403 14:44:40.832154 30254 net.cpp:425] relu3 <- conv3
I0403 14:44:40.832175 30254 net.cpp:386] relu3 -> conv3 (in-place)
I0403 14:44:40.832468 30254 net.cpp:141] Setting up relu3
I0403 14:44:40.832496 30254 net.cpp:148] Top shape: 100 384 13 13 (6489600)
I0403 14:44:40.832512 30254 net.cpp:156] Memory required for data: 731481200
I0403 14:44:40.832530 30254 layer_factory.hpp:77] Creating layer conv4
I0403 14:44:40.832559 30254 net.cpp:91] Creating Layer conv4
I0403 14:44:40.832579 30254 net.cpp:425] conv4 <- conv3
I0403 14:44:40.832599 30254 net.cpp:399] conv4 -> conv4
I0403 14:44:40.862606 30254 net.cpp:141] Setting up conv4
I0403 14:44:40.862674 30254 net.cpp:148] Top shape: 100 384 13 13 (6489600)
I0403 14:44:40.862726 30254 net.cpp:156] Memory required for data: 757439600
I0403 14:44:40.862751 30254 layer_factory.hpp:77] Creating layer relu4
I0403 14:44:40.862783 30254 net.cpp:91] Creating Layer relu4
I0403 14:44:40.862804 30254 net.cpp:425] relu4 <- conv4
I0403 14:44:40.862825 30254 net.cpp:386] relu4 -> conv4 (in-place)
I0403 14:44:40.863111 30254 net.cpp:141] Setting up relu4
I0403 14:44:40.863139 30254 net.cpp:148] Top shape: 100 384 13 13 (6489600)
I0403 14:44:40.863157 30254 net.cpp:156] Memory required for data: 783398000
I0403 14:44:40.863173 30254 layer_factory.hpp:77] Creating layer conv5
I0403 14:44:40.863198 30254 net.cpp:91] Creating Layer conv5
I0403 14:44:40.863217 30254 net.cpp:425] conv5 <- conv4
I0403 14:44:40.863240 30254 net.cpp:399] conv5 -> conv5
I0403 14:44:40.883571 30254 net.cpp:141] Setting up conv5
I0403 14:44:40.883613 30254 net.cpp:148] Top shape: 100 256 13 13 (4326400)
I0403 14:44:40.883630 30254 net.cpp:156] Memory required for data: 800703600
I0403 14:44:40.883656 30254 layer_factory.hpp:77] Creating layer relu5
I0403 14:44:40.883677 30254 net.cpp:91] Creating Layer relu5
I0403 14:44:40.883694 30254 net.cpp:425] relu5 <- conv5
I0403 14:44:40.883711 30254 net.cpp:386] relu5 -> conv5 (in-place)
I0403 14:44:40.883983 30254 net.cpp:141] Setting up relu5
I0403 14:44:40.884012 30254 net.cpp:148] Top shape: 100 256 13 13 (4326400)
I0403 14:44:40.884028 30254 net.cpp:156] Memory required for data: 818009200
I0403 14:44:40.884044 30254 layer_factory.hpp:77] Creating layer pool5
I0403 14:44:40.884065 30254 net.cpp:91] Creating Layer pool5
I0403 14:44:40.884081 30254 net.cpp:425] pool5 <- conv5
I0403 14:44:40.884102 30254 net.cpp:399] pool5 -> pool5
I0403 14:44:40.884197 30254 net.cpp:141] Setting up pool5
I0403 14:44:40.884222 30254 net.cpp:148] Top shape: 100 256 6 6 (921600)
I0403 14:44:40.884238 30254 net.cpp:156] Memory required for data: 821695600
I0403 14:44:40.884275 30254 layer_factory.hpp:77] Creating layer fc6
I0403 14:44:40.884311 30254 net.cpp:91] Creating Layer fc6
I0403 14:44:40.884331 30254 net.cpp:425] fc6 <- pool5
I0403 14:44:40.884353 30254 net.cpp:399] fc6 -> fc6
I0403 14:44:42.464563 30254 net.cpp:141] Setting up fc6
I0403 14:44:42.464628 30254 net.cpp:148] Top shape: 100 4096 (409600)
I0403 14:44:42.464646 30254 net.cpp:156] Memory required for data: 823334000
I0403 14:44:42.464668 30254 layer_factory.hpp:77] Creating layer relu6
I0403 14:44:42.464691 30254 net.cpp:91] Creating Layer relu6
I0403 14:44:42.464709 30254 net.cpp:425] relu6 <- fc6
I0403 14:44:42.464731 30254 net.cpp:386] relu6 -> fc6 (in-place)
I0403 14:44:42.464969 30254 net.cpp:141] Setting up relu6
I0403 14:44:42.464998 30254 net.cpp:148] Top shape: 100 4096 (409600)
I0403 14:44:42.465013 30254 net.cpp:156] Memory required for data: 824972400
I0403 14:44:42.465031 30254 layer_factory.hpp:77] Creating layer drop6
I0403 14:44:42.465051 30254 net.cpp:91] Creating Layer drop6
I0403 14:44:42.465066 30254 net.cpp:425] drop6 <- fc6
I0403 14:44:42.465083 30254 net.cpp:386] drop6 -> fc6 (in-place)
I0403 14:44:42.465134 30254 net.cpp:141] Setting up drop6
I0403 14:44:42.465157 30254 net.cpp:148] Top shape: 100 4096 (409600)
I0403 14:44:42.465172 30254 net.cpp:156] Memory required for data: 826610800
I0403 14:44:42.465186 30254 layer_factory.hpp:77] Creating layer fc7
I0403 14:44:42.465207 30254 net.cpp:91] Creating Layer fc7
I0403 14:44:42.465224 30254 net.cpp:425] fc7 <- fc6
I0403 14:44:42.465240 30254 net.cpp:399] fc7 -> fc7
I0403 14:44:43.142598 30254 net.cpp:141] Setting up fc7
I0403 14:44:43.142642 30254 net.cpp:148] Top shape: 100 4096 (409600)
I0403 14:44:43.142660 30254 net.cpp:156] Memory required for data: 828249200
I0403 14:44:43.142681 30254 layer_factory.hpp:77] Creating layer relu7
I0403 14:44:43.142705 30254 net.cpp:91] Creating Layer relu7
I0403 14:44:43.142724 30254 net.cpp:425] relu7 <- fc7
I0403 14:44:43.142745 30254 net.cpp:386] relu7 -> fc7 (in-place)
I0403 14:44:43.143138 30254 net.cpp:141] Setting up relu7
I0403 14:44:43.143165 30254 net.cpp:148] Top shape: 100 4096 (409600)
I0403 14:44:43.143203 30254 net.cpp:156] Memory required for data: 829887600
I0403 14:44:43.143220 30254 layer_factory.hpp:77] Creating layer drop7
I0403 14:44:43.143242 30254 net.cpp:91] Creating Layer drop7
I0403 14:44:43.143267 30254 net.cpp:425] drop7 <- fc7
I0403 14:44:43.143285 30254 net.cpp:386] drop7 -> fc7 (in-place)
I0403 14:44:43.143331 30254 net.cpp:141] Setting up drop7
I0403 14:44:43.143353 30254 net.cpp:148] Top shape: 100 4096 (409600)
I0403 14:44:43.143368 30254 net.cpp:156] Memory required for data: 831526000
I0403 14:44:43.143384 30254 layer_factory.hpp:77] Creating layer fc8_plantvillage
I0403 14:44:43.143405 30254 net.cpp:91] Creating Layer fc8_plantvillage
I0403 14:44:43.143420 30254 net.cpp:425] fc8_plantvillage <- fc7
I0403 14:44:43.143440 30254 net.cpp:399] fc8_plantvillage -> fc8_plantvillage
I0403 14:44:43.150138 30254 net.cpp:141] Setting up fc8_plantvillage
I0403 14:44:43.150169 30254 net.cpp:148] Top shape: 100 38 (3800)
I0403 14:44:43.150185 30254 net.cpp:156] Memory required for data: 831541200
I0403 14:44:43.150203 30254 layer_factory.hpp:77] Creating layer fc8_plantvillage_fc8_plantvillage_0_split
I0403 14:44:43.150223 30254 net.cpp:91] Creating Layer fc8_plantvillage_fc8_plantvillage_0_split
I0403 14:44:43.150239 30254 net.cpp:425] fc8_plantvillage_fc8_plantvillage_0_split <- fc8_plantvillage
I0403 14:44:43.150261 30254 net.cpp:399] fc8_plantvillage_fc8_plantvillage_0_split -> fc8_plantvillage_fc8_plantvillage_0_split_0
I0403 14:44:43.150284 30254 net.cpp:399] fc8_plantvillage_fc8_plantvillage_0_split -> fc8_plantvillage_fc8_plantvillage_0_split_1
I0403 14:44:43.150307 30254 net.cpp:399] fc8_plantvillage_fc8_plantvillage_0_split -> fc8_plantvillage_fc8_plantvillage_0_split_2
I0403 14:44:43.150387 30254 net.cpp:141] Setting up fc8_plantvillage_fc8_plantvillage_0_split
I0403 14:44:43.150410 30254 net.cpp:148] Top shape: 100 38 (3800)
I0403 14:44:43.150427 30254 net.cpp:148] Top shape: 100 38 (3800)
I0403 14:44:43.150442 30254 net.cpp:148] Top shape: 100 38 (3800)
I0403 14:44:43.150457 30254 net.cpp:156] Memory required for data: 831586800
I0403 14:44:43.150472 30254 layer_factory.hpp:77] Creating layer prob
I0403 14:44:43.150492 30254 net.cpp:91] Creating Layer prob
I0403 14:44:43.150507 30254 net.cpp:425] prob <- fc8_plantvillage_fc8_plantvillage_0_split_0
I0403 14:44:43.150526 30254 net.cpp:399] prob -> prob
I0403 14:44:43.150751 30254 net.cpp:141] Setting up prob
I0403 14:44:43.150777 30254 net.cpp:148] Top shape: 100 38 (3800)
I0403 14:44:43.150794 30254 net.cpp:156] Memory required for data: 831602000
I0403 14:44:43.150810 30254 layer_factory.hpp:77] Creating layer hdf5out
I0403 14:44:43.150831 30254 net.cpp:91] Creating Layer hdf5out
I0403 14:44:43.150848 30254 net.cpp:425] hdf5out <- prob
I0403 14:44:43.150866 30254 net.cpp:425] hdf5out <- label_data_1_split_0
I0403 14:44:43.154711 30254 net.cpp:141] Setting up hdf5out
…
