…
I0403 14:12:22.650846 29434 net.cpp:313] The NetState phase (1) differed from the phase (0) specified by a rule in layer data
I0403 14:12:22.651167 29434 net.cpp:49] Initializing net from parameters: 
state {
  phase: TEST
}
layer {
  name: "data"
  type: "Data"
  top: "data"
  top: "label"
  include {
    phase: TEST
  }
  transform_param {
    crop_size: 227
    mean_file: "/home/mohanty/data/final_dataset/lmdb/color-20-80/mean.binaryproto"
  }
  data_param {
    source: "/home/mohanty/data/final_dataset/lmdb/color-20-80/test_db"
    batch_size: 100
    backend: LMDB
  }
}
layer {
  name: "conv1"
  type: "Convolution"
  bottom: "data"
  top: "conv1"
  param {
    lr_mult: 1
    decay_mult: 1
  }
  param {
    lr_mult: 2
    decay_mult: 0
  }
  convolution_param {
    num_output: 96
    kernel_size: 11
    stride: 4
    weight_filler {
      type: "gaussian"
      std: 0.01
    }
    bias_filler {
      type: "constant"
      value: 0
    }
  }
}
layer {
  name: "relu1"
  type: "ReLU"
  bottom: "conv1"
  top: "conv1"
}
layer {
  name: "norm1"
  type: "LRN"
  bottom: "conv1"
  top: "norm1"
  lrn_param {
    local_size: 5
    alpha: 0.0001
    beta: 0.75
  }
}
layer {
  name: "pool1"
  type: "Pooling"
  bottom: "norm1"
  top: "pool1"
  pooling_param {
    pool: MAX
    kernel_size: 3
    stride: 2
  }
}
layer {
  name: "conv2"
  type: "Convolution"
  bottom: "pool1"
  top: "conv2"
  param {
    lr_mult: 1
    decay_mult: 1
  }
  param {
    lr_mult: 2
    decay_mult: 0
  }
  convolution_param {
    num_output: 256
    pad: 2
    kernel_size: 5
    group: 2
    weight_filler {
      type: "gaussian"
      std: 0.01
    }
    bias_filler {
      type: "constant"
      value: 0.1
    }
  }
}
layer {
  name: "relu2"
  type: "ReLU"
  bottom: "conv2"
  top: "conv2"
}
layer {
  name: "norm2"
  type: "LRN"
  bottom: "conv2"
  top: "norm2"
  lrn_param {
    local_size: 5
    alpha: 0.0001
    beta: 0.75
  }
}
layer {
  name: "pool2"
  type: "Pooling"
  bottom: "norm2"
  top: "pool2"
  pooling_param {
    pool: MAX
    kernel_size: 3
    stride: 2
  }
}
layer {
  name: "conv3"
  type: "Convolution"
  bottom: "pool2"
  top: "conv3"
  param {
    lr_mult: 1
    decay_mult: 1
  }
  param {
    lr_mult: 2
    decay_mult: 0
  }
  convolution_param {
    num_output: 384
    pad: 1
    kernel_size: 3
    weight_filler {
      type: "gaussian"
      std: 0.01
    }
    bias_filler {
      type: "constant"
      value: 0
    }
  }
}
layer {
  name: "relu3"
  type: "ReLU"
  bottom: "conv3"
  top: "conv3"
}
layer {
  name: "conv4"
  type: "Convolution"
  bottom: "conv3"
  top: "conv4"
  param {
    lr_mult: 1
    decay_mult: 1
  }
  param {
    lr_mult: 2
    decay_mult: 0
  }
  convolution_param {
    num_output: 384
    pad: 1
    kernel_size: 3
    group: 2
    weight_filler {
      type: "gaussian"
      std: 0.01
    }
    bias_filler {
      type: "constant"
      value: 0.1
    }
  }
}
layer {
  name: "relu4"
  type: "ReLU"
  bottom: "conv4"
  top: "conv4"
}
layer {
  name: "conv5"
  type: "Convolution"
  bottom: "conv4"
  top: "conv5"
  param {
    lr_mult: 1
    decay_mult: 1
  }
  param {
    lr_mult: 2
    decay_mult: 0
  }
  convolution_param {
    num_output: 256
    pad: 1
    kernel_size: 3
    group: 2
    weight_filler {
      type: "gaussian"
      std: 0.01
    }
    bias_filler {
      type: "constant"
      value: 0.1
    }
  }
}
layer {
  name: "relu5"
  type: "ReLU"
  bottom: "conv5"
  top: "conv5"
}
layer {
  name: "pool5"
  type: "Pooling"
  bottom: "conv5"
  top: "pool5"
  pooling_param {
    pool: MAX
    kernel_size: 3
    stride: 2
  }
}
layer {
  name: "fc6"
  type: "InnerProduct"
  bottom: "pool5"
  top: "fc6"
  param {
    lr_mult: 1
    decay_mult: 1
  }
  param {
    lr_mult: 2
    decay_mult: 0
  }
  inner_product_param {
    num_output: 4096
    weight_filler {
      type: "gaussian"
      std: 0.005
    }
    bias_filler {
      type: "constant"
      value: 0.1
    }
  }
}
layer {
  name: "relu6"
  type: "ReLU"
  bottom: "fc6"
  top: "fc6"
}
layer {
  name: "drop6"
  type: "Dropout"
  bottom: "fc6"
  top: "fc6"
  dropout_param {
    dropout_ratio: 0.5
  }
}
layer {
  name: "fc7"
  type: "InnerProduct"
  bottom: "fc6"
  top: "fc7"
  param {
    lr_mult: 1
    decay_mult: 1
  }
  param {
    lr_mult: 2
    decay_mult: 0
  }
  inner_product_param {
    num_output: 4096
    weight_filler {
      type: "gaussian"
      std: 0.005
    }
    bias_filler {
      type: "constant"
      value: 0.1
    }
  }
}
layer {
  name: "relu7"
  type: "ReLU"
  bottom: "fc7"
  top: "fc7"
}
layer {
  name: "drop7"
  type: "Dropout"
  bottom: "fc7"
  top: "fc7"
  dropout_param {
    dropout_ratio: 0.5
  }
}
layer {
  name: "fc8_plantvillage"
  type: "InnerProduct"
  bottom: "fc7"
  top: "fc8_plantvillage"
  param {
    lr_mult: 1
    decay_mult: 1
  }
  param {
    lr_mult: 2
    decay_mult: 0
  }
  inner_product_param {
    num_output: 38
    weight_filler {
      type: "gaussian"
      std: 0.01
    }
    bias_filler {
      type: "constant"
      value: 0
    }
  }
}
layer {
  name: "prob"
  type: "Softmax"
  bottom: "fc8_plantvillage"
  top: "prob"
  include {
    phase: TEST
  }
}
layer {
  name: "hdf5out"
  type: "HDF5Output"
  bottom: "prob"
  bottom: "label"
  include {
    phase: TEST
  }
  hdf5_output_param {
    file_name: "hdf5_dumps/iter_648.h5"
  }
}
layer {
  name: "loss"
  type: "SoftmaxWithLoss"
  bottom: "fc8_plantvillage"
  bottom: "label"
  top: "loss"
}
layer {
  name: "accuracy"
  type: "Accuracy"
  bottom: "fc8_plantvillage"
  bottom: "label"
  top: "accuracy"
  include {
    phase: TEST
  }
}
I0403 14:12:22.651823 29434 layer_factory.hpp:77] Creating layer data
I0403 14:12:22.652479 29434 net.cpp:91] Creating Layer data
I0403 14:12:22.652510 29434 net.cpp:399] data -> data
I0403 14:12:22.652565 29434 net.cpp:399] data -> label
I0403 14:12:22.652603 29434 data_transformer.cpp:25] Loading mean file from: /home/mohanty/data/final_dataset/lmdb/color-20-80/mean.binaryproto
I0403 14:12:22.655062 29437 db_lmdb.cpp:38] Opened lmdb /home/mohanty/data/final_dataset/lmdb/color-20-80/test_db
I0403 14:12:22.667161 29434 data_layer.cpp:41] output data size: 100,3,227,227
I0403 14:12:22.801121 29434 net.cpp:141] Setting up data
I0403 14:12:22.801213 29434 net.cpp:148] Top shape: 100 3 227 227 (15458700)
I0403 14:12:22.801237 29434 net.cpp:148] Top shape: 100 (100)
I0403 14:12:22.801254 29434 net.cpp:156] Memory required for data: 61835200
I0403 14:12:22.801281 29434 layer_factory.hpp:77] Creating layer label_data_1_split
I0403 14:12:22.801313 29434 net.cpp:91] Creating Layer label_data_1_split
I0403 14:12:22.801333 29434 net.cpp:425] label_data_1_split <- label
I0403 14:12:22.801367 29434 net.cpp:399] label_data_1_split -> label_data_1_split_0
I0403 14:12:22.801396 29434 net.cpp:399] label_data_1_split -> label_data_1_split_1
I0403 14:12:22.801419 29434 net.cpp:399] label_data_1_split -> label_data_1_split_2
I0403 14:12:22.801481 29434 net.cpp:141] Setting up label_data_1_split
I0403 14:12:22.801506 29434 net.cpp:148] Top shape: 100 (100)
I0403 14:12:22.801523 29434 net.cpp:148] Top shape: 100 (100)
I0403 14:12:22.801542 29434 net.cpp:148] Top shape: 100 (100)
I0403 14:12:22.801556 29434 net.cpp:156] Memory required for data: 61836400
I0403 14:12:22.801573 29434 layer_factory.hpp:77] Creating layer conv1
I0403 14:12:22.801604 29434 net.cpp:91] Creating Layer conv1
I0403 14:12:22.801625 29434 net.cpp:425] conv1 <- data
I0403 14:12:22.801645 29434 net.cpp:399] conv1 -> conv1
I0403 14:12:22.949296 29434 net.cpp:141] Setting up conv1
I0403 14:12:22.949357 29434 net.cpp:148] Top shape: 100 96 55 55 (29040000)
I0403 14:12:22.949375 29434 net.cpp:156] Memory required for data: 177996400
I0403 14:12:22.949439 29434 layer_factory.hpp:77] Creating layer relu1
I0403 14:12:22.949473 29434 net.cpp:91] Creating Layer relu1
I0403 14:12:22.949494 29434 net.cpp:425] relu1 <- conv1
I0403 14:12:22.949515 29434 net.cpp:386] relu1 -> conv1 (in-place)
I0403 14:12:22.949806 29434 net.cpp:141] Setting up relu1
I0403 14:12:22.949838 29434 net.cpp:148] Top shape: 100 96 55 55 (29040000)
I0403 14:12:22.949857 29434 net.cpp:156] Memory required for data: 294156400
I0403 14:12:22.949904 29434 layer_factory.hpp:77] Creating layer norm1
I0403 14:12:22.949934 29434 net.cpp:91] Creating Layer norm1
I0403 14:12:22.949954 29434 net.cpp:425] norm1 <- conv1
I0403 14:12:22.949985 29434 net.cpp:399] norm1 -> norm1
I0403 14:12:22.950331 29434 net.cpp:141] Setting up norm1
I0403 14:12:22.950361 29434 net.cpp:148] Top shape: 100 96 55 55 (29040000)
I0403 14:12:22.950378 29434 net.cpp:156] Memory required for data: 410316400
I0403 14:12:22.950395 29434 layer_factory.hpp:77] Creating layer pool1
I0403 14:12:22.950419 29434 net.cpp:91] Creating Layer pool1
I0403 14:12:22.950440 29434 net.cpp:425] pool1 <- norm1
I0403 14:12:22.950462 29434 net.cpp:399] pool1 -> pool1
I0403 14:12:22.950536 29434 net.cpp:141] Setting up pool1
I0403 14:12:22.950567 29434 net.cpp:148] Top shape: 100 96 27 27 (6998400)
I0403 14:12:22.950584 29434 net.cpp:156] Memory required for data: 438310000
I0403 14:12:22.950601 29434 layer_factory.hpp:77] Creating layer conv2
I0403 14:12:22.950629 29434 net.cpp:91] Creating Layer conv2
I0403 14:12:22.950649 29434 net.cpp:425] conv2 <- pool1
I0403 14:12:22.950669 29434 net.cpp:399] conv2 -> conv2
I0403 14:12:22.966816 29434 net.cpp:141] Setting up conv2
I0403 14:12:22.966864 29434 net.cpp:148] Top shape: 100 256 27 27 (18662400)
I0403 14:12:22.966883 29434 net.cpp:156] Memory required for data: 512959600
I0403 14:12:22.966908 29434 layer_factory.hpp:77] Creating layer relu2
I0403 14:12:22.966929 29434 net.cpp:91] Creating Layer relu2
I0403 14:12:22.966946 29434 net.cpp:425] relu2 <- conv2
I0403 14:12:22.966969 29434 net.cpp:386] relu2 -> conv2 (in-place)
I0403 14:12:22.967263 29434 net.cpp:141] Setting up relu2
I0403 14:12:22.967296 29434 net.cpp:148] Top shape: 100 256 27 27 (18662400)
I0403 14:12:22.967315 29434 net.cpp:156] Memory required for data: 587609200
I0403 14:12:22.967331 29434 layer_factory.hpp:77] Creating layer norm2
I0403 14:12:22.967357 29434 net.cpp:91] Creating Layer norm2
I0403 14:12:22.967376 29434 net.cpp:425] norm2 <- conv2
I0403 14:12:22.967399 29434 net.cpp:399] norm2 -> norm2
I0403 14:12:22.967610 29434 net.cpp:141] Setting up norm2
I0403 14:12:22.967638 29434 net.cpp:148] Top shape: 100 256 27 27 (18662400)
I0403 14:12:22.967654 29434 net.cpp:156] Memory required for data: 662258800
I0403 14:12:22.967670 29434 layer_factory.hpp:77] Creating layer pool2
I0403 14:12:22.967762 29434 net.cpp:91] Creating Layer pool2
I0403 14:12:22.967787 29434 net.cpp:425] pool2 <- norm2
I0403 14:12:22.967808 29434 net.cpp:399] pool2 -> pool2
I0403 14:12:22.967867 29434 net.cpp:141] Setting up pool2
I0403 14:12:22.967892 29434 net.cpp:148] Top shape: 100 256 13 13 (4326400)
I0403 14:12:22.967908 29434 net.cpp:156] Memory required for data: 679564400
I0403 14:12:22.967923 29434 layer_factory.hpp:77] Creating layer conv3
I0403 14:12:22.967950 29434 net.cpp:91] Creating Layer conv3
I0403 14:12:22.967969 29434 net.cpp:425] conv3 <- pool2
I0403 14:12:22.967989 29434 net.cpp:399] conv3 -> conv3
I0403 14:12:23.008214 29434 net.cpp:141] Setting up conv3
I0403 14:12:23.008254 29434 net.cpp:148] Top shape: 100 384 13 13 (6489600)
I0403 14:12:23.008271 29434 net.cpp:156] Memory required for data: 705522800
I0403 14:12:23.008303 29434 layer_factory.hpp:77] Creating layer relu3
I0403 14:12:23.008329 29434 net.cpp:91] Creating Layer relu3
I0403 14:12:23.008355 29434 net.cpp:425] relu3 <- conv3
I0403 14:12:23.008374 29434 net.cpp:386] relu3 -> conv3 (in-place)
I0403 14:12:23.008697 29434 net.cpp:141] Setting up relu3
I0403 14:12:23.008729 29434 net.cpp:148] Top shape: 100 384 13 13 (6489600)
I0403 14:12:23.008746 29434 net.cpp:156] Memory required for data: 731481200
I0403 14:12:23.008764 29434 layer_factory.hpp:77] Creating layer conv4
I0403 14:12:23.008790 29434 net.cpp:91] Creating Layer conv4
I0403 14:12:23.008810 29434 net.cpp:425] conv4 <- conv3
I0403 14:12:23.008832 29434 net.cpp:399] conv4 -> conv4
I0403 14:12:23.039979 29434 net.cpp:141] Setting up conv4
I0403 14:12:23.040045 29434 net.cpp:148] Top shape: 100 384 13 13 (6489600)
I0403 14:12:23.040096 29434 net.cpp:156] Memory required for data: 757439600
I0403 14:12:23.040118 29434 layer_factory.hpp:77] Creating layer relu4
I0403 14:12:23.040140 29434 net.cpp:91] Creating Layer relu4
I0403 14:12:23.040159 29434 net.cpp:425] relu4 <- conv4
I0403 14:12:23.040181 29434 net.cpp:386] relu4 -> conv4 (in-place)
I0403 14:12:23.040478 29434 net.cpp:141] Setting up relu4
I0403 14:12:23.040510 29434 net.cpp:148] Top shape: 100 384 13 13 (6489600)
I0403 14:12:23.040529 29434 net.cpp:156] Memory required for data: 783398000
I0403 14:12:23.040545 29434 layer_factory.hpp:77] Creating layer conv5
I0403 14:12:23.040572 29434 net.cpp:91] Creating Layer conv5
I0403 14:12:23.040591 29434 net.cpp:425] conv5 <- conv4
I0403 14:12:23.040611 29434 net.cpp:399] conv5 -> conv5
I0403 14:12:23.062125 29434 net.cpp:141] Setting up conv5
I0403 14:12:23.062167 29434 net.cpp:148] Top shape: 100 256 13 13 (4326400)
I0403 14:12:23.062185 29434 net.cpp:156] Memory required for data: 800703600
I0403 14:12:23.062209 29434 layer_factory.hpp:77] Creating layer relu5
I0403 14:12:23.062230 29434 net.cpp:91] Creating Layer relu5
I0403 14:12:23.062248 29434 net.cpp:425] relu5 <- conv5
I0403 14:12:23.062270 29434 net.cpp:386] relu5 -> conv5 (in-place)
I0403 14:12:23.062566 29434 net.cpp:141] Setting up relu5
I0403 14:12:23.062594 29434 net.cpp:148] Top shape: 100 256 13 13 (4326400)
I0403 14:12:23.062613 29434 net.cpp:156] Memory required for data: 818009200
I0403 14:12:23.062629 29434 layer_factory.hpp:77] Creating layer pool5
I0403 14:12:23.062655 29434 net.cpp:91] Creating Layer pool5
I0403 14:12:23.062674 29434 net.cpp:425] pool5 <- conv5
I0403 14:12:23.062695 29434 net.cpp:399] pool5 -> pool5
I0403 14:12:23.062758 29434 net.cpp:141] Setting up pool5
I0403 14:12:23.062783 29434 net.cpp:148] Top shape: 100 256 6 6 (921600)
I0403 14:12:23.062799 29434 net.cpp:156] Memory required for data: 821695600
I0403 14:12:23.062815 29434 layer_factory.hpp:77] Creating layer fc6
I0403 14:12:23.062844 29434 net.cpp:91] Creating Layer fc6
I0403 14:12:23.062862 29434 net.cpp:425] fc6 <- pool5
I0403 14:12:23.062883 29434 net.cpp:399] fc6 -> fc6
I0403 14:12:24.607599 29434 net.cpp:141] Setting up fc6
I0403 14:12:24.607642 29434 net.cpp:148] Top shape: 100 4096 (409600)
I0403 14:12:24.607659 29434 net.cpp:156] Memory required for data: 823334000
I0403 14:12:24.607681 29434 layer_factory.hpp:77] Creating layer relu6
I0403 14:12:24.607707 29434 net.cpp:91] Creating Layer relu6
I0403 14:12:24.607724 29434 net.cpp:425] relu6 <- fc6
I0403 14:12:24.607744 29434 net.cpp:386] relu6 -> fc6 (in-place)
I0403 14:12:24.607961 29434 net.cpp:141] Setting up relu6
I0403 14:12:24.607987 29434 net.cpp:148] Top shape: 100 4096 (409600)
I0403 14:12:24.608003 29434 net.cpp:156] Memory required for data: 824972400
I0403 14:12:24.608018 29434 layer_factory.hpp:77] Creating layer drop6
I0403 14:12:24.608037 29434 net.cpp:91] Creating Layer drop6
I0403 14:12:24.608054 29434 net.cpp:425] drop6 <- fc6
I0403 14:12:24.608075 29434 net.cpp:386] drop6 -> fc6 (in-place)
I0403 14:12:24.608126 29434 net.cpp:141] Setting up drop6
I0403 14:12:24.608153 29434 net.cpp:148] Top shape: 100 4096 (409600)
I0403 14:12:24.608170 29434 net.cpp:156] Memory required for data: 826610800
I0403 14:12:24.608186 29434 layer_factory.hpp:77] Creating layer fc7
I0403 14:12:24.608206 29434 net.cpp:91] Creating Layer fc7
I0403 14:12:24.608222 29434 net.cpp:425] fc7 <- fc6
I0403 14:12:24.608242 29434 net.cpp:399] fc7 -> fc7
I0403 14:12:25.285619 29434 net.cpp:141] Setting up fc7
I0403 14:12:25.285689 29434 net.cpp:148] Top shape: 100 4096 (409600)
I0403 14:12:25.285706 29434 net.cpp:156] Memory required for data: 828249200
I0403 14:12:25.285727 29434 layer_factory.hpp:77] Creating layer relu7
I0403 14:12:25.285748 29434 net.cpp:91] Creating Layer relu7
I0403 14:12:25.285766 29434 net.cpp:425] relu7 <- fc7
I0403 14:12:25.285789 29434 net.cpp:386] relu7 -> fc7 (in-place)
I0403 14:12:25.286180 29434 net.cpp:141] Setting up relu7
I0403 14:12:25.286206 29434 net.cpp:148] Top shape: 100 4096 (409600)
I0403 14:12:25.286252 29434 net.cpp:156] Memory required for data: 829887600
I0403 14:12:25.286268 29434 layer_factory.hpp:77] Creating layer drop7
I0403 14:12:25.286293 29434 net.cpp:91] Creating Layer drop7
I0403 14:12:25.286310 29434 net.cpp:425] drop7 <- fc7
I0403 14:12:25.286330 29434 net.cpp:386] drop7 -> fc7 (in-place)
I0403 14:12:25.286372 29434 net.cpp:141] Setting up drop7
I0403 14:12:25.286397 29434 net.cpp:148] Top shape: 100 4096 (409600)
I0403 14:12:25.286412 29434 net.cpp:156] Memory required for data: 831526000
I0403 14:12:25.286427 29434 layer_factory.hpp:77] Creating layer fc8_plantvillage
I0403 14:12:25.286447 29434 net.cpp:91] Creating Layer fc8_plantvillage
I0403 14:12:25.286463 29434 net.cpp:425] fc8_plantvillage <- fc7
I0403 14:12:25.286483 29434 net.cpp:399] fc8_plantvillage -> fc8_plantvillage
I0403 14:12:25.292994 29434 net.cpp:141] Setting up fc8_plantvillage
I0403 14:12:25.293021 29434 net.cpp:148] Top shape: 100 38 (3800)
I0403 14:12:25.293037 29434 net.cpp:156] Memory required for data: 831541200
I0403 14:12:25.293056 29434 layer_factory.hpp:77] Creating layer fc8_plantvillage_fc8_plantvillage_0_split
I0403 14:12:25.293076 29434 net.cpp:91] Creating Layer fc8_plantvillage_fc8_plantvillage_0_split
I0403 14:12:25.293092 29434 net.cpp:425] fc8_plantvillage_fc8_plantvillage_0_split <- fc8_plantvillage
I0403 14:12:25.293112 29434 net.cpp:399] fc8_plantvillage_fc8_plantvillage_0_split -> fc8_plantvillage_fc8_plantvillage_0_split_0
I0403 14:12:25.293133 29434 net.cpp:399] fc8_plantvillage_fc8_plantvillage_0_split -> fc8_plantvillage_fc8_plantvillage_0_split_1
I0403 14:12:25.293153 29434 net.cpp:399] fc8_plantvillage_fc8_plantvillage_0_split -> fc8_plantvillage_fc8_plantvillage_0_split_2
I0403 14:12:25.293226 29434 net.cpp:141] Setting up fc8_plantvillage_fc8_plantvillage_0_split
I0403 14:12:25.293249 29434 net.cpp:148] Top shape: 100 38 (3800)
I0403 14:12:25.293267 29434 net.cpp:148] Top shape: 100 38 (3800)
I0403 14:12:25.293282 29434 net.cpp:148] Top shape: 100 38 (3800)
I0403 14:12:25.293309 29434 net.cpp:156] Memory required for data: 831586800
I0403 14:12:25.293324 29434 layer_factory.hpp:77] Creating layer prob
I0403 14:12:25.293342 29434 net.cpp:91] Creating Layer prob
I0403 14:12:25.293359 29434 net.cpp:425] prob <- fc8_plantvillage_fc8_plantvillage_0_split_0
I0403 14:12:25.293380 29434 net.cpp:399] prob -> prob
I0403 14:12:25.293598 29434 net.cpp:141] Setting up prob
I0403 14:12:25.293623 29434 net.cpp:148] Top shape: 100 38 (3800)
I0403 14:12:25.293639 29434 net.cpp:156] Memory required for data: 831602000
I0403 14:12:25.293653 29434 layer_factory.hpp:77] Creating layer hdf5out
I0403 14:12:25.293673 29434 net.cpp:91] Creating Layer hdf5out
I0403 14:12:25.293687 29434 net.cpp:425] hdf5out <- prob
I0403 14:12:25.293704 29434 net.cpp:425] hdf5out <- label_data_1_split_0
I0403 14:12:25.297761 29434 net.cpp:141] Setting up hdf5out
…
