…
I0403 14:38:47.476449 30063 net.cpp:313] The NetState phase (1) differed from the phase (0) specified by a rule in layer data
I0403 14:38:47.476755 30063 net.cpp:49] Initializing net from parameters: 
state {
  phase: TEST
}
layer {
  name: "data"
  type: "Data"
  top: "data"
  top: "label"
  include {
    phase: TEST
  }
  transform_param {
    crop_size: 227
    mean_file: "/home/mohanty/data/final_dataset/lmdb/color-20-80/mean.binaryproto"
  }
  data_param {
    source: "/home/mohanty/data/final_dataset/lmdb/color-20-80/test_db"
    batch_size: 100
    backend: LMDB
  }
}
layer {
  name: "conv1"
  type: "Convolution"
  bottom: "data"
  top: "conv1"
  param {
    lr_mult: 1
    decay_mult: 1
  }
  param {
    lr_mult: 2
    decay_mult: 0
  }
  convolution_param {
    num_output: 96
    kernel_size: 11
    stride: 4
    weight_filler {
      type: "gaussian"
      std: 0.01
    }
    bias_filler {
      type: "constant"
      value: 0
    }
  }
}
layer {
  name: "relu1"
  type: "ReLU"
  bottom: "conv1"
  top: "conv1"
}
layer {
  name: "norm1"
  type: "LRN"
  bottom: "conv1"
  top: "norm1"
  lrn_param {
    local_size: 5
    alpha: 0.0001
    beta: 0.75
  }
}
layer {
  name: "pool1"
  type: "Pooling"
  bottom: "norm1"
  top: "pool1"
  pooling_param {
    pool: MAX
    kernel_size: 3
    stride: 2
  }
}
layer {
  name: "conv2"
  type: "Convolution"
  bottom: "pool1"
  top: "conv2"
  param {
    lr_mult: 1
    decay_mult: 1
  }
  param {
    lr_mult: 2
    decay_mult: 0
  }
  convolution_param {
    num_output: 256
    pad: 2
    kernel_size: 5
    group: 2
    weight_filler {
      type: "gaussian"
      std: 0.01
    }
    bias_filler {
      type: "constant"
      value: 0.1
    }
  }
}
layer {
  name: "relu2"
  type: "ReLU"
  bottom: "conv2"
  top: "conv2"
}
layer {
  name: "norm2"
  type: "LRN"
  bottom: "conv2"
  top: "norm2"
  lrn_param {
    local_size: 5
    alpha: 0.0001
    beta: 0.75
  }
}
layer {
  name: "pool2"
  type: "Pooling"
  bottom: "norm2"
  top: "pool2"
  pooling_param {
    pool: MAX
    kernel_size: 3
    stride: 2
  }
}
layer {
  name: "conv3"
  type: "Convolution"
  bottom: "pool2"
  top: "conv3"
  param {
    lr_mult: 1
    decay_mult: 1
  }
  param {
    lr_mult: 2
    decay_mult: 0
  }
  convolution_param {
    num_output: 384
    pad: 1
    kernel_size: 3
    weight_filler {
      type: "gaussian"
      std: 0.01
    }
    bias_filler {
      type: "constant"
      value: 0
    }
  }
}
layer {
  name: "relu3"
  type: "ReLU"
  bottom: "conv3"
  top: "conv3"
}
layer {
  name: "conv4"
  type: "Convolution"
  bottom: "conv3"
  top: "conv4"
  param {
    lr_mult: 1
    decay_mult: 1
  }
  param {
    lr_mult: 2
    decay_mult: 0
  }
  convolution_param {
    num_output: 384
    pad: 1
    kernel_size: 3
    group: 2
    weight_filler {
      type: "gaussian"
      std: 0.01
    }
    bias_filler {
      type: "constant"
      value: 0.1
    }
  }
}
layer {
  name: "relu4"
  type: "ReLU"
  bottom: "conv4"
  top: "conv4"
}
layer {
  name: "conv5"
  type: "Convolution"
  bottom: "conv4"
  top: "conv5"
  param {
    lr_mult: 1
    decay_mult: 1
  }
  param {
    lr_mult: 2
    decay_mult: 0
  }
  convolution_param {
    num_output: 256
    pad: 1
    kernel_size: 3
    group: 2
    weight_filler {
      type: "gaussian"
      std: 0.01
    }
    bias_filler {
      type: "constant"
      value: 0.1
    }
  }
}
layer {
  name: "relu5"
  type: "ReLU"
  bottom: "conv5"
  top: "conv5"
}
layer {
  name: "pool5"
  type: "Pooling"
  bottom: "conv5"
  top: "pool5"
  pooling_param {
    pool: MAX
    kernel_size: 3
    stride: 2
  }
}
layer {
  name: "fc6"
  type: "InnerProduct"
  bottom: "pool5"
  top: "fc6"
  param {
    lr_mult: 1
    decay_mult: 1
  }
  param {
    lr_mult: 2
    decay_mult: 0
  }
  inner_product_param {
    num_output: 4096
    weight_filler {
      type: "gaussian"
      std: 0.005
    }
    bias_filler {
      type: "constant"
      value: 0.1
    }
  }
}
layer {
  name: "relu6"
  type: "ReLU"
  bottom: "fc6"
  top: "fc6"
}
layer {
  name: "drop6"
  type: "Dropout"
  bottom: "fc6"
  top: "fc6"
  dropout_param {
    dropout_ratio: 0.5
  }
}
layer {
  name: "fc7"
  type: "InnerProduct"
  bottom: "fc6"
  top: "fc7"
  param {
    lr_mult: 1
    decay_mult: 1
  }
  param {
    lr_mult: 2
    decay_mult: 0
  }
  inner_product_param {
    num_output: 4096
    weight_filler {
      type: "gaussian"
      std: 0.005
    }
    bias_filler {
      type: "constant"
      value: 0.1
    }
  }
}
layer {
  name: "relu7"
  type: "ReLU"
  bottom: "fc7"
  top: "fc7"
}
layer {
  name: "drop7"
  type: "Dropout"
  bottom: "fc7"
  top: "fc7"
  dropout_param {
    dropout_ratio: 0.5
  }
}
layer {
  name: "fc8_plantvillage"
  type: "InnerProduct"
  bottom: "fc7"
  top: "fc8_plantvillage"
  param {
    lr_mult: 1
    decay_mult: 1
  }
  param {
    lr_mult: 2
    decay_mult: 0
  }
  inner_product_param {
    num_output: 38
    weight_filler {
      type: "gaussian"
      std: 0.01
    }
    bias_filler {
      type: "constant"
      value: 0
    }
  }
}
layer {
  name: "prob"
  type: "Softmax"
  bottom: "fc8_plantvillage"
  top: "prob"
  include {
    phase: TEST
  }
}
layer {
  name: "hdf5out"
  type: "HDF5Output"
  bottom: "prob"
  bottom: "label"
  include {
    phase: TEST
  }
  hdf5_output_param {
    file_name: "hdf5_dumps/iter_2592.h5"
  }
}
layer {
  name: "loss"
  type: "SoftmaxWithLoss"
  bottom: "fc8_plantvillage"
  bottom: "label"
  top: "loss"
}
layer {
  name: "accuracy"
  type: "Accuracy"
  bottom: "fc8_plantvillage"
  bottom: "label"
  top: "accuracy"
  include {
    phase: TEST
  }
}
I0403 14:38:47.477298 30063 layer_factory.hpp:77] Creating layer data
I0403 14:38:47.477944 30063 net.cpp:91] Creating Layer data
I0403 14:38:47.477979 30063 net.cpp:399] data -> data
I0403 14:38:47.478034 30063 net.cpp:399] data -> label
I0403 14:38:47.478073 30063 data_transformer.cpp:25] Loading mean file from: /home/mohanty/data/final_dataset/lmdb/color-20-80/mean.binaryproto
I0403 14:38:47.480514 30066 db_lmdb.cpp:38] Opened lmdb /home/mohanty/data/final_dataset/lmdb/color-20-80/test_db
I0403 14:38:47.492761 30063 data_layer.cpp:41] output data size: 100,3,227,227
I0403 14:38:47.627816 30063 net.cpp:141] Setting up data
I0403 14:38:47.627887 30063 net.cpp:148] Top shape: 100 3 227 227 (15458700)
I0403 14:38:47.627910 30063 net.cpp:148] Top shape: 100 (100)
I0403 14:38:47.627928 30063 net.cpp:156] Memory required for data: 61835200
I0403 14:38:47.627960 30063 layer_factory.hpp:77] Creating layer label_data_1_split
I0403 14:38:47.627986 30063 net.cpp:91] Creating Layer label_data_1_split
I0403 14:38:47.628006 30063 net.cpp:425] label_data_1_split <- label
I0403 14:38:47.628041 30063 net.cpp:399] label_data_1_split -> label_data_1_split_0
I0403 14:38:47.628069 30063 net.cpp:399] label_data_1_split -> label_data_1_split_1
I0403 14:38:47.628092 30063 net.cpp:399] label_data_1_split -> label_data_1_split_2
I0403 14:38:47.628157 30063 net.cpp:141] Setting up label_data_1_split
I0403 14:38:47.628183 30063 net.cpp:148] Top shape: 100 (100)
I0403 14:38:47.628201 30063 net.cpp:148] Top shape: 100 (100)
I0403 14:38:47.628217 30063 net.cpp:148] Top shape: 100 (100)
I0403 14:38:47.628232 30063 net.cpp:156] Memory required for data: 61836400
I0403 14:38:47.628248 30063 layer_factory.hpp:77] Creating layer conv1
I0403 14:38:47.628289 30063 net.cpp:91] Creating Layer conv1
I0403 14:38:47.628310 30063 net.cpp:425] conv1 <- data
I0403 14:38:47.628332 30063 net.cpp:399] conv1 -> conv1
I0403 14:38:47.774099 30063 net.cpp:141] Setting up conv1
I0403 14:38:47.774165 30063 net.cpp:148] Top shape: 100 96 55 55 (29040000)
I0403 14:38:47.774184 30063 net.cpp:156] Memory required for data: 177996400
I0403 14:38:47.774217 30063 layer_factory.hpp:77] Creating layer relu1
I0403 14:38:47.774246 30063 net.cpp:91] Creating Layer relu1
I0403 14:38:47.774266 30063 net.cpp:425] relu1 <- conv1
I0403 14:38:47.774291 30063 net.cpp:386] relu1 -> conv1 (in-place)
I0403 14:38:47.774551 30063 net.cpp:141] Setting up relu1
I0403 14:38:47.774580 30063 net.cpp:148] Top shape: 100 96 55 55 (29040000)
I0403 14:38:47.774595 30063 net.cpp:156] Memory required for data: 294156400
I0403 14:38:47.774639 30063 layer_factory.hpp:77] Creating layer norm1
I0403 14:38:47.774749 30063 net.cpp:91] Creating Layer norm1
I0403 14:38:47.774772 30063 net.cpp:425] norm1 <- conv1
I0403 14:38:47.774792 30063 net.cpp:399] norm1 -> norm1
I0403 14:38:47.775105 30063 net.cpp:141] Setting up norm1
I0403 14:38:47.775133 30063 net.cpp:148] Top shape: 100 96 55 55 (29040000)
I0403 14:38:47.775151 30063 net.cpp:156] Memory required for data: 410316400
I0403 14:38:47.775166 30063 layer_factory.hpp:77] Creating layer pool1
I0403 14:38:47.775189 30063 net.cpp:91] Creating Layer pool1
I0403 14:38:47.775208 30063 net.cpp:425] pool1 <- norm1
I0403 14:38:47.775228 30063 net.cpp:399] pool1 -> pool1
I0403 14:38:47.775300 30063 net.cpp:141] Setting up pool1
I0403 14:38:47.775326 30063 net.cpp:148] Top shape: 100 96 27 27 (6998400)
I0403 14:38:47.775341 30063 net.cpp:156] Memory required for data: 438310000
I0403 14:38:47.775357 30063 layer_factory.hpp:77] Creating layer conv2
I0403 14:38:47.775388 30063 net.cpp:91] Creating Layer conv2
I0403 14:38:47.775405 30063 net.cpp:425] conv2 <- pool1
I0403 14:38:47.775424 30063 net.cpp:399] conv2 -> conv2
I0403 14:38:47.790736 30063 net.cpp:141] Setting up conv2
I0403 14:38:47.790787 30063 net.cpp:148] Top shape: 100 256 27 27 (18662400)
I0403 14:38:47.790805 30063 net.cpp:156] Memory required for data: 512959600
I0403 14:38:47.790828 30063 layer_factory.hpp:77] Creating layer relu2
I0403 14:38:47.790851 30063 net.cpp:91] Creating Layer relu2
I0403 14:38:47.790869 30063 net.cpp:425] relu2 <- conv2
I0403 14:38:47.790889 30063 net.cpp:386] relu2 -> conv2 (in-place)
I0403 14:38:47.791170 30063 net.cpp:141] Setting up relu2
I0403 14:38:47.791200 30063 net.cpp:148] Top shape: 100 256 27 27 (18662400)
I0403 14:38:47.791218 30063 net.cpp:156] Memory required for data: 587609200
I0403 14:38:47.791234 30063 layer_factory.hpp:77] Creating layer norm2
I0403 14:38:47.791257 30063 net.cpp:91] Creating Layer norm2
I0403 14:38:47.791275 30063 net.cpp:425] norm2 <- conv2
I0403 14:38:47.791299 30063 net.cpp:399] norm2 -> norm2
I0403 14:38:47.791503 30063 net.cpp:141] Setting up norm2
I0403 14:38:47.791530 30063 net.cpp:148] Top shape: 100 256 27 27 (18662400)
I0403 14:38:47.791546 30063 net.cpp:156] Memory required for data: 662258800
I0403 14:38:47.791561 30063 layer_factory.hpp:77] Creating layer pool2
I0403 14:38:47.791582 30063 net.cpp:91] Creating Layer pool2
I0403 14:38:47.791600 30063 net.cpp:425] pool2 <- norm2
I0403 14:38:47.791620 30063 net.cpp:399] pool2 -> pool2
I0403 14:38:47.791673 30063 net.cpp:141] Setting up pool2
I0403 14:38:47.791698 30063 net.cpp:148] Top shape: 100 256 13 13 (4326400)
I0403 14:38:47.791714 30063 net.cpp:156] Memory required for data: 679564400
I0403 14:38:47.791729 30063 layer_factory.hpp:77] Creating layer conv3
I0403 14:38:47.791754 30063 net.cpp:91] Creating Layer conv3
I0403 14:38:47.791774 30063 net.cpp:425] conv3 <- pool2
I0403 14:38:47.791796 30063 net.cpp:399] conv3 -> conv3
I0403 14:38:47.830339 30063 net.cpp:141] Setting up conv3
I0403 14:38:47.830404 30063 net.cpp:148] Top shape: 100 384 13 13 (6489600)
I0403 14:38:47.830422 30063 net.cpp:156] Memory required for data: 705522800
I0403 14:38:47.830447 30063 layer_factory.hpp:77] Creating layer relu3
I0403 14:38:47.830468 30063 net.cpp:91] Creating Layer relu3
I0403 14:38:47.830487 30063 net.cpp:425] relu3 <- conv3
I0403 14:38:47.830504 30063 net.cpp:386] relu3 -> conv3 (in-place)
I0403 14:38:47.840196 30063 net.cpp:141] Setting up relu3
I0403 14:38:47.840234 30063 net.cpp:148] Top shape: 100 384 13 13 (6489600)
I0403 14:38:47.840251 30063 net.cpp:156] Memory required for data: 731481200
I0403 14:38:47.840267 30063 layer_factory.hpp:77] Creating layer conv4
I0403 14:38:47.840306 30063 net.cpp:91] Creating Layer conv4
I0403 14:38:47.840327 30063 net.cpp:425] conv4 <- conv3
I0403 14:38:47.840348 30063 net.cpp:399] conv4 -> conv4
I0403 14:38:47.870472 30063 net.cpp:141] Setting up conv4
I0403 14:38:47.870530 30063 net.cpp:148] Top shape: 100 384 13 13 (6489600)
I0403 14:38:47.870581 30063 net.cpp:156] Memory required for data: 757439600
I0403 14:38:47.870604 30063 layer_factory.hpp:77] Creating layer relu4
I0403 14:38:47.870630 30063 net.cpp:91] Creating Layer relu4
I0403 14:38:47.870647 30063 net.cpp:425] relu4 <- conv4
I0403 14:38:47.870668 30063 net.cpp:386] relu4 -> conv4 (in-place)
I0403 14:38:47.870961 30063 net.cpp:141] Setting up relu4
I0403 14:38:47.870990 30063 net.cpp:148] Top shape: 100 384 13 13 (6489600)
I0403 14:38:47.871006 30063 net.cpp:156] Memory required for data: 783398000
I0403 14:38:47.871021 30063 layer_factory.hpp:77] Creating layer conv5
I0403 14:38:47.871048 30063 net.cpp:91] Creating Layer conv5
I0403 14:38:47.871068 30063 net.cpp:425] conv5 <- conv4
I0403 14:38:47.871090 30063 net.cpp:399] conv5 -> conv5
I0403 14:38:47.891974 30063 net.cpp:141] Setting up conv5
I0403 14:38:47.892030 30063 net.cpp:148] Top shape: 100 256 13 13 (4326400)
I0403 14:38:47.892047 30063 net.cpp:156] Memory required for data: 800703600
I0403 14:38:47.892074 30063 layer_factory.hpp:77] Creating layer relu5
I0403 14:38:47.892101 30063 net.cpp:91] Creating Layer relu5
I0403 14:38:47.892119 30063 net.cpp:425] relu5 <- conv5
I0403 14:38:47.892138 30063 net.cpp:386] relu5 -> conv5 (in-place)
I0403 14:38:47.892424 30063 net.cpp:141] Setting up relu5
I0403 14:38:47.892455 30063 net.cpp:148] Top shape: 100 256 13 13 (4326400)
I0403 14:38:47.892473 30063 net.cpp:156] Memory required for data: 818009200
I0403 14:38:47.892489 30063 layer_factory.hpp:77] Creating layer pool5
I0403 14:38:47.892513 30063 net.cpp:91] Creating Layer pool5
I0403 14:38:47.892529 30063 net.cpp:425] pool5 <- conv5
I0403 14:38:47.892554 30063 net.cpp:399] pool5 -> pool5
I0403 14:38:47.892616 30063 net.cpp:141] Setting up pool5
I0403 14:38:47.892644 30063 net.cpp:148] Top shape: 100 256 6 6 (921600)
I0403 14:38:47.892662 30063 net.cpp:156] Memory required for data: 821695600
I0403 14:38:47.892678 30063 layer_factory.hpp:77] Creating layer fc6
I0403 14:38:47.892705 30063 net.cpp:91] Creating Layer fc6
I0403 14:38:47.892724 30063 net.cpp:425] fc6 <- pool5
I0403 14:38:47.892746 30063 net.cpp:399] fc6 -> fc6
I0403 14:38:49.475059 30063 net.cpp:141] Setting up fc6
I0403 14:38:49.475109 30063 net.cpp:148] Top shape: 100 4096 (409600)
I0403 14:38:49.475127 30063 net.cpp:156] Memory required for data: 823334000
I0403 14:38:49.475149 30063 layer_factory.hpp:77] Creating layer relu6
I0403 14:38:49.475177 30063 net.cpp:91] Creating Layer relu6
I0403 14:38:49.475196 30063 net.cpp:425] relu6 <- fc6
I0403 14:38:49.475216 30063 net.cpp:386] relu6 -> fc6 (in-place)
I0403 14:38:49.475448 30063 net.cpp:141] Setting up relu6
I0403 14:38:49.475474 30063 net.cpp:148] Top shape: 100 4096 (409600)
I0403 14:38:49.475492 30063 net.cpp:156] Memory required for data: 824972400
I0403 14:38:49.475507 30063 layer_factory.hpp:77] Creating layer drop6
I0403 14:38:49.475530 30063 net.cpp:91] Creating Layer drop6
I0403 14:38:49.475548 30063 net.cpp:425] drop6 <- fc6
I0403 14:38:49.475567 30063 net.cpp:386] drop6 -> fc6 (in-place)
I0403 14:38:49.475622 30063 net.cpp:141] Setting up drop6
I0403 14:38:49.475646 30063 net.cpp:148] Top shape: 100 4096 (409600)
I0403 14:38:49.475662 30063 net.cpp:156] Memory required for data: 826610800
I0403 14:38:49.475677 30063 layer_factory.hpp:77] Creating layer fc7
I0403 14:38:49.475704 30063 net.cpp:91] Creating Layer fc7
I0403 14:38:49.475723 30063 net.cpp:425] fc7 <- fc6
I0403 14:38:49.475744 30063 net.cpp:399] fc7 -> fc7
I0403 14:38:50.165608 30063 net.cpp:141] Setting up fc7
I0403 14:38:50.165652 30063 net.cpp:148] Top shape: 100 4096 (409600)
I0403 14:38:50.165671 30063 net.cpp:156] Memory required for data: 828249200
I0403 14:38:50.165693 30063 layer_factory.hpp:77] Creating layer relu7
I0403 14:38:50.165725 30063 net.cpp:91] Creating Layer relu7
I0403 14:38:50.165751 30063 net.cpp:425] relu7 <- fc7
I0403 14:38:50.165771 30063 net.cpp:386] relu7 -> fc7 (in-place)
I0403 14:38:50.166182 30063 net.cpp:141] Setting up relu7
I0403 14:38:50.166210 30063 net.cpp:148] Top shape: 100 4096 (409600)
I0403 14:38:50.166260 30063 net.cpp:156] Memory required for data: 829887600
I0403 14:38:50.166275 30063 layer_factory.hpp:77] Creating layer drop7
I0403 14:38:50.166301 30063 net.cpp:91] Creating Layer drop7
I0403 14:38:50.166318 30063 net.cpp:425] drop7 <- fc7
I0403 14:38:50.166337 30063 net.cpp:386] drop7 -> fc7 (in-place)
I0403 14:38:50.166381 30063 net.cpp:141] Setting up drop7
I0403 14:38:50.166405 30063 net.cpp:148] Top shape: 100 4096 (409600)
I0403 14:38:50.166419 30063 net.cpp:156] Memory required for data: 831526000
I0403 14:38:50.166435 30063 layer_factory.hpp:77] Creating layer fc8_plantvillage
I0403 14:38:50.166457 30063 net.cpp:91] Creating Layer fc8_plantvillage
I0403 14:38:50.166476 30063 net.cpp:425] fc8_plantvillage <- fc7
I0403 14:38:50.166494 30063 net.cpp:399] fc8_plantvillage -> fc8_plantvillage
I0403 14:38:50.173275 30063 net.cpp:141] Setting up fc8_plantvillage
I0403 14:38:50.173316 30063 net.cpp:148] Top shape: 100 38 (3800)
I0403 14:38:50.173334 30063 net.cpp:156] Memory required for data: 831541200
I0403 14:38:50.173353 30063 layer_factory.hpp:77] Creating layer fc8_plantvillage_fc8_plantvillage_0_split
I0403 14:38:50.173377 30063 net.cpp:91] Creating Layer fc8_plantvillage_fc8_plantvillage_0_split
I0403 14:38:50.173394 30063 net.cpp:425] fc8_plantvillage_fc8_plantvillage_0_split <- fc8_plantvillage
I0403 14:38:50.173413 30063 net.cpp:399] fc8_plantvillage_fc8_plantvillage_0_split -> fc8_plantvillage_fc8_plantvillage_0_split_0
I0403 14:38:50.173437 30063 net.cpp:399] fc8_plantvillage_fc8_plantvillage_0_split -> fc8_plantvillage_fc8_plantvillage_0_split_1
I0403 14:38:50.173459 30063 net.cpp:399] fc8_plantvillage_fc8_plantvillage_0_split -> fc8_plantvillage_fc8_plantvillage_0_split_2
I0403 14:38:50.173537 30063 net.cpp:141] Setting up fc8_plantvillage_fc8_plantvillage_0_split
I0403 14:38:50.173562 30063 net.cpp:148] Top shape: 100 38 (3800)
I0403 14:38:50.173579 30063 net.cpp:148] Top shape: 100 38 (3800)
I0403 14:38:50.173594 30063 net.cpp:148] Top shape: 100 38 (3800)
I0403 14:38:50.173609 30063 net.cpp:156] Memory required for data: 831586800
I0403 14:38:50.173624 30063 layer_factory.hpp:77] Creating layer prob
I0403 14:38:50.173645 30063 net.cpp:91] Creating Layer prob
I0403 14:38:50.173661 30063 net.cpp:425] prob <- fc8_plantvillage_fc8_plantvillage_0_split_0
I0403 14:38:50.173681 30063 net.cpp:399] prob -> prob
I0403 14:38:50.173903 30063 net.cpp:141] Setting up prob
I0403 14:38:50.173929 30063 net.cpp:148] Top shape: 100 38 (3800)
I0403 14:38:50.173949 30063 net.cpp:156] Memory required for data: 831602000
I0403 14:38:50.173965 30063 layer_factory.hpp:77] Creating layer hdf5out
I0403 14:38:50.173985 30063 net.cpp:91] Creating Layer hdf5out
I0403 14:38:50.174001 30063 net.cpp:425] hdf5out <- prob
I0403 14:38:50.174018 30063 net.cpp:425] hdf5out <- label_data_1_split_0
I0403 14:38:50.178480 30063 net.cpp:141] Setting up hdf5out
…
