…
I0403 14:29:58.657788 29883 net.cpp:313] The NetState phase (1) differed from the phase (0) specified by a rule in layer data
I0403 14:29:58.658211 29883 net.cpp:49] Initializing net from parameters: 
state {
  phase: TEST
}
layer {
  name: "data"
  type: "Data"
  top: "data"
  top: "label"
  include {
    phase: TEST
  }
  transform_param {
    crop_size: 227
    mean_file: "/home/mohanty/data/final_dataset/lmdb/color-20-80/mean.binaryproto"
  }
  data_param {
    source: "/home/mohanty/data/final_dataset/lmdb/color-20-80/test_db"
    batch_size: 100
    backend: LMDB
  }
}
layer {
  name: "conv1"
  type: "Convolution"
  bottom: "data"
  top: "conv1"
  param {
    lr_mult: 1
    decay_mult: 1
  }
  param {
    lr_mult: 2
    decay_mult: 0
  }
  convolution_param {
    num_output: 96
    kernel_size: 11
    stride: 4
    weight_filler {
      type: "gaussian"
      std: 0.01
    }
    bias_filler {
      type: "constant"
      value: 0
    }
  }
}
layer {
  name: "relu1"
  type: "ReLU"
  bottom: "conv1"
  top: "conv1"
}
layer {
  name: "norm1"
  type: "LRN"
  bottom: "conv1"
  top: "norm1"
  lrn_param {
    local_size: 5
    alpha: 0.0001
    beta: 0.75
  }
}
layer {
  name: "pool1"
  type: "Pooling"
  bottom: "norm1"
  top: "pool1"
  pooling_param {
    pool: MAX
    kernel_size: 3
    stride: 2
  }
}
layer {
  name: "conv2"
  type: "Convolution"
  bottom: "pool1"
  top: "conv2"
  param {
    lr_mult: 1
    decay_mult: 1
  }
  param {
    lr_mult: 2
    decay_mult: 0
  }
  convolution_param {
    num_output: 256
    pad: 2
    kernel_size: 5
    group: 2
    weight_filler {
      type: "gaussian"
      std: 0.01
    }
    bias_filler {
      type: "constant"
      value: 0.1
    }
  }
}
layer {
  name: "relu2"
  type: "ReLU"
  bottom: "conv2"
  top: "conv2"
}
layer {
  name: "norm2"
  type: "LRN"
  bottom: "conv2"
  top: "norm2"
  lrn_param {
    local_size: 5
    alpha: 0.0001
    beta: 0.75
  }
}
layer {
  name: "pool2"
  type: "Pooling"
  bottom: "norm2"
  top: "pool2"
  pooling_param {
    pool: MAX
    kernel_size: 3
    stride: 2
  }
}
layer {
  name: "conv3"
  type: "Convolution"
  bottom: "pool2"
  top: "conv3"
  param {
    lr_mult: 1
    decay_mult: 1
  }
  param {
    lr_mult: 2
    decay_mult: 0
  }
  convolution_param {
    num_output: 384
    pad: 1
    kernel_size: 3
    weight_filler {
      type: "gaussian"
      std: 0.01
    }
    bias_filler {
      type: "constant"
      value: 0
    }
  }
}
layer {
  name: "relu3"
  type: "ReLU"
  bottom: "conv3"
  top: "conv3"
}
layer {
  name: "conv4"
  type: "Convolution"
  bottom: "conv3"
  top: "conv4"
  param {
    lr_mult: 1
    decay_mult: 1
  }
  param {
    lr_mult: 2
    decay_mult: 0
  }
  convolution_param {
    num_output: 384
    pad: 1
    kernel_size: 3
    group: 2
    weight_filler {
      type: "gaussian"
      std: 0.01
    }
    bias_filler {
      type: "constant"
      value: 0.1
    }
  }
}
layer {
  name: "relu4"
  type: "ReLU"
  bottom: "conv4"
  top: "conv4"
}
layer {
  name: "conv5"
  type: "Convolution"
  bottom: "conv4"
  top: "conv5"
  param {
    lr_mult: 1
    decay_mult: 1
  }
  param {
    lr_mult: 2
    decay_mult: 0
  }
  convolution_param {
    num_output: 256
    pad: 1
    kernel_size: 3
    group: 2
    weight_filler {
      type: "gaussian"
      std: 0.01
    }
    bias_filler {
      type: "constant"
      value: 0.1
    }
  }
}
layer {
  name: "relu5"
  type: "ReLU"
  bottom: "conv5"
  top: "conv5"
}
layer {
  name: "pool5"
  type: "Pooling"
  bottom: "conv5"
  top: "pool5"
  pooling_param {
    pool: MAX
    kernel_size: 3
    stride: 2
  }
}
layer {
  name: "fc6"
  type: "InnerProduct"
  bottom: "pool5"
  top: "fc6"
  param {
    lr_mult: 1
    decay_mult: 1
  }
  param {
    lr_mult: 2
    decay_mult: 0
  }
  inner_product_param {
    num_output: 4096
    weight_filler {
      type: "gaussian"
      std: 0.005
    }
    bias_filler {
      type: "constant"
      value: 0.1
    }
  }
}
layer {
  name: "relu6"
  type: "ReLU"
  bottom: "fc6"
  top: "fc6"
}
layer {
  name: "drop6"
  type: "Dropout"
  bottom: "fc6"
  top: "fc6"
  dropout_param {
    dropout_ratio: 0.5
  }
}
layer {
  name: "fc7"
  type: "InnerProduct"
  bottom: "fc6"
  top: "fc7"
  param {
    lr_mult: 1
    decay_mult: 1
  }
  param {
    lr_mult: 2
    decay_mult: 0
  }
  inner_product_param {
    num_output: 4096
    weight_filler {
      type: "gaussian"
      std: 0.005
    }
    bias_filler {
      type: "constant"
      value: 0.1
    }
  }
}
layer {
  name: "relu7"
  type: "ReLU"
  bottom: "fc7"
  top: "fc7"
}
layer {
  name: "drop7"
  type: "Dropout"
  bottom: "fc7"
  top: "fc7"
  dropout_param {
    dropout_ratio: 0.5
  }
}
layer {
  name: "fc8_plantvillage"
  type: "InnerProduct"
  bottom: "fc7"
  top: "fc8_plantvillage"
  param {
    lr_mult: 1
    decay_mult: 1
  }
  param {
    lr_mult: 2
    decay_mult: 0
  }
  inner_product_param {
    num_output: 38
    weight_filler {
      type: "gaussian"
      std: 0.01
    }
    bias_filler {
      type: "constant"
      value: 0
    }
  }
}
layer {
  name: "prob"
  type: "Softmax"
  bottom: "fc8_plantvillage"
  top: "prob"
  include {
    phase: TEST
  }
}
layer {
  name: "hdf5out"
  type: "HDF5Output"
  bottom: "prob"
  bottom: "label"
  include {
    phase: TEST
  }
  hdf5_output_param {
    file_name: "hdf5_dumps/iter_1944.h5"
  }
}
layer {
  name: "loss"
  type: "SoftmaxWithLoss"
  bottom: "fc8_plantvillage"
  bottom: "label"
  top: "loss"
}
layer {
  name: "accuracy"
  type: "Accuracy"
  bottom: "fc8_plantvillage"
  bottom: "label"
  top: "accuracy"
  include {
    phase: TEST
  }
}
I0403 14:29:58.659003 29883 layer_factory.hpp:77] Creating layer data
I0403 14:29:58.659940 29883 net.cpp:91] Creating Layer data
I0403 14:29:58.659987 29883 net.cpp:399] data -> data
I0403 14:29:58.660055 29883 net.cpp:399] data -> label
I0403 14:29:58.660107 29883 data_transformer.cpp:25] Loading mean file from: /home/mohanty/data/final_dataset/lmdb/color-20-80/mean.binaryproto
I0403 14:29:58.664327 29885 db_lmdb.cpp:38] Opened lmdb /home/mohanty/data/final_dataset/lmdb/color-20-80/test_db
I0403 14:29:58.678236 29883 data_layer.cpp:41] output data size: 100,3,227,227
I0403 14:29:58.828588 29883 net.cpp:141] Setting up data
I0403 14:29:58.828691 29883 net.cpp:148] Top shape: 100 3 227 227 (15458700)
I0403 14:29:58.828721 29883 net.cpp:148] Top shape: 100 (100)
I0403 14:29:58.828742 29883 net.cpp:156] Memory required for data: 61835200
I0403 14:29:58.828788 29883 layer_factory.hpp:77] Creating layer label_data_1_split
I0403 14:29:58.828820 29883 net.cpp:91] Creating Layer label_data_1_split
I0403 14:29:58.828842 29883 net.cpp:425] label_data_1_split <- label
I0403 14:29:58.828881 29883 net.cpp:399] label_data_1_split -> label_data_1_split_0
I0403 14:29:58.828912 29883 net.cpp:399] label_data_1_split -> label_data_1_split_1
I0403 14:29:58.828940 29883 net.cpp:399] label_data_1_split -> label_data_1_split_2
I0403 14:29:58.829025 29883 net.cpp:141] Setting up label_data_1_split
I0403 14:29:58.829056 29883 net.cpp:148] Top shape: 100 (100)
I0403 14:29:58.829094 29883 net.cpp:148] Top shape: 100 (100)
I0403 14:29:58.829114 29883 net.cpp:148] Top shape: 100 (100)
I0403 14:29:58.829133 29883 net.cpp:156] Memory required for data: 61836400
I0403 14:29:58.829151 29883 layer_factory.hpp:77] Creating layer conv1
I0403 14:29:58.829191 29883 net.cpp:91] Creating Layer conv1
I0403 14:29:58.829216 29883 net.cpp:425] conv1 <- data
I0403 14:29:58.829243 29883 net.cpp:399] conv1 -> conv1
I0403 14:29:59.050505 29883 net.cpp:141] Setting up conv1
I0403 14:29:59.050556 29883 net.cpp:148] Top shape: 100 96 55 55 (29040000)
I0403 14:29:59.050587 29883 net.cpp:156] Memory required for data: 177996400
I0403 14:29:59.050637 29883 layer_factory.hpp:77] Creating layer relu1
I0403 14:29:59.050688 29883 net.cpp:91] Creating Layer relu1
I0403 14:29:59.050791 29883 net.cpp:425] relu1 <- conv1
I0403 14:29:59.050889 29883 net.cpp:386] relu1 -> conv1 (in-place)
I0403 14:29:59.051450 29883 net.cpp:141] Setting up relu1
I0403 14:29:59.051486 29883 net.cpp:148] Top shape: 100 96 55 55 (29040000)
I0403 14:29:59.051517 29883 net.cpp:156] Memory required for data: 294156400
I0403 14:29:59.051585 29883 layer_factory.hpp:77] Creating layer norm1
I0403 14:29:59.051620 29883 net.cpp:91] Creating Layer norm1
I0403 14:29:59.051645 29883 net.cpp:425] norm1 <- conv1
I0403 14:29:59.051693 29883 net.cpp:399] norm1 -> norm1
I0403 14:29:59.052119 29883 net.cpp:141] Setting up norm1
I0403 14:29:59.052155 29883 net.cpp:148] Top shape: 100 96 55 55 (29040000)
I0403 14:29:59.052191 29883 net.cpp:156] Memory required for data: 410316400
I0403 14:29:59.052217 29883 layer_factory.hpp:77] Creating layer pool1
I0403 14:29:59.052258 29883 net.cpp:91] Creating Layer pool1
I0403 14:29:59.052283 29883 net.cpp:425] pool1 <- norm1
I0403 14:29:59.052307 29883 net.cpp:399] pool1 -> pool1
I0403 14:29:59.052428 29883 net.cpp:141] Setting up pool1
I0403 14:29:59.052464 29883 net.cpp:148] Top shape: 100 96 27 27 (6998400)
I0403 14:29:59.052517 29883 net.cpp:156] Memory required for data: 438310000
I0403 14:29:59.052573 29883 layer_factory.hpp:77] Creating layer conv2
I0403 14:29:59.052654 29883 net.cpp:91] Creating Layer conv2
I0403 14:29:59.052677 29883 net.cpp:425] conv2 <- pool1
I0403 14:29:59.052701 29883 net.cpp:399] conv2 -> conv2
I0403 14:29:59.104048 29883 net.cpp:141] Setting up conv2
I0403 14:29:59.104118 29883 net.cpp:148] Top shape: 100 256 27 27 (18662400)
I0403 14:29:59.104163 29883 net.cpp:156] Memory required for data: 512959600
I0403 14:29:59.104199 29883 layer_factory.hpp:77] Creating layer relu2
I0403 14:29:59.104226 29883 net.cpp:91] Creating Layer relu2
I0403 14:29:59.104248 29883 net.cpp:425] relu2 <- conv2
I0403 14:29:59.104269 29883 net.cpp:386] relu2 -> conv2 (in-place)
I0403 14:29:59.104656 29883 net.cpp:141] Setting up relu2
I0403 14:29:59.104712 29883 net.cpp:148] Top shape: 100 256 27 27 (18662400)
I0403 14:29:59.104732 29883 net.cpp:156] Memory required for data: 587609200
I0403 14:29:59.104750 29883 layer_factory.hpp:77] Creating layer norm2
I0403 14:29:59.104776 29883 net.cpp:91] Creating Layer norm2
I0403 14:29:59.104809 29883 net.cpp:425] norm2 <- conv2
I0403 14:29:59.104832 29883 net.cpp:399] norm2 -> norm2
I0403 14:29:59.105096 29883 net.cpp:141] Setting up norm2
I0403 14:29:59.105129 29883 net.cpp:148] Top shape: 100 256 27 27 (18662400)
I0403 14:29:59.105147 29883 net.cpp:156] Memory required for data: 662258800
I0403 14:29:59.105185 29883 layer_factory.hpp:77] Creating layer pool2
I0403 14:29:59.105212 29883 net.cpp:91] Creating Layer pool2
I0403 14:29:59.105234 29883 net.cpp:425] pool2 <- norm2
I0403 14:29:59.105257 29883 net.cpp:399] pool2 -> pool2
I0403 14:29:59.105334 29883 net.cpp:141] Setting up pool2
I0403 14:29:59.105365 29883 net.cpp:148] Top shape: 100 256 13 13 (4326400)
I0403 14:29:59.105399 29883 net.cpp:156] Memory required for data: 679564400
I0403 14:29:59.105432 29883 layer_factory.hpp:77] Creating layer conv3
I0403 14:29:59.105480 29883 net.cpp:91] Creating Layer conv3
I0403 14:29:59.105520 29883 net.cpp:425] conv3 <- pool2
I0403 14:29:59.105619 29883 net.cpp:399] conv3 -> conv3
I0403 14:29:59.172693 29883 net.cpp:141] Setting up conv3
I0403 14:29:59.172749 29883 net.cpp:148] Top shape: 100 384 13 13 (6489600)
I0403 14:29:59.172773 29883 net.cpp:156] Memory required for data: 705522800
I0403 14:29:59.172811 29883 layer_factory.hpp:77] Creating layer relu3
I0403 14:29:59.172838 29883 net.cpp:91] Creating Layer relu3
I0403 14:29:59.172859 29883 net.cpp:425] relu3 <- conv3
I0403 14:29:59.172883 29883 net.cpp:386] relu3 -> conv3 (in-place)
I0403 14:29:59.174283 29883 net.cpp:141] Setting up relu3
I0403 14:29:59.174324 29883 net.cpp:148] Top shape: 100 384 13 13 (6489600)
I0403 14:29:59.174343 29883 net.cpp:156] Memory required for data: 731481200
I0403 14:29:59.174361 29883 layer_factory.hpp:77] Creating layer conv4
I0403 14:29:59.174399 29883 net.cpp:91] Creating Layer conv4
I0403 14:29:59.174425 29883 net.cpp:425] conv4 <- conv3
I0403 14:29:59.174458 29883 net.cpp:399] conv4 -> conv4
I0403 14:29:59.210700 29883 net.cpp:141] Setting up conv4
I0403 14:29:59.210763 29883 net.cpp:148] Top shape: 100 384 13 13 (6489600)
I0403 14:29:59.210810 29883 net.cpp:156] Memory required for data: 757439600
I0403 14:29:59.210837 29883 layer_factory.hpp:77] Creating layer relu4
I0403 14:29:59.210865 29883 net.cpp:91] Creating Layer relu4
I0403 14:29:59.210886 29883 net.cpp:425] relu4 <- conv4
I0403 14:29:59.210909 29883 net.cpp:386] relu4 -> conv4 (in-place)
I0403 14:29:59.211239 29883 net.cpp:141] Setting up relu4
I0403 14:29:59.211280 29883 net.cpp:148] Top shape: 100 384 13 13 (6489600)
I0403 14:29:59.211299 29883 net.cpp:156] Memory required for data: 783398000
I0403 14:29:59.211318 29883 layer_factory.hpp:77] Creating layer conv5
I0403 14:29:59.211349 29883 net.cpp:91] Creating Layer conv5
I0403 14:29:59.211370 29883 net.cpp:425] conv5 <- conv4
I0403 14:29:59.211396 29883 net.cpp:399] conv5 -> conv5
I0403 14:29:59.236142 29883 net.cpp:141] Setting up conv5
I0403 14:29:59.236187 29883 net.cpp:148] Top shape: 100 256 13 13 (4326400)
I0403 14:29:59.236207 29883 net.cpp:156] Memory required for data: 800703600
I0403 14:29:59.236238 29883 layer_factory.hpp:77] Creating layer relu5
I0403 14:29:59.236274 29883 net.cpp:91] Creating Layer relu5
I0403 14:29:59.236299 29883 net.cpp:425] relu5 <- conv5
I0403 14:29:59.236321 29883 net.cpp:386] relu5 -> conv5 (in-place)
I0403 14:29:59.236660 29883 net.cpp:141] Setting up relu5
I0403 14:29:59.236695 29883 net.cpp:148] Top shape: 100 256 13 13 (4326400)
I0403 14:29:59.236716 29883 net.cpp:156] Memory required for data: 818009200
I0403 14:29:59.236747 29883 layer_factory.hpp:77] Creating layer pool5
I0403 14:29:59.236801 29883 net.cpp:91] Creating Layer pool5
I0403 14:29:59.236824 29883 net.cpp:425] pool5 <- conv5
I0403 14:29:59.236853 29883 net.cpp:399] pool5 -> pool5
I0403 14:29:59.236927 29883 net.cpp:141] Setting up pool5
I0403 14:29:59.236956 29883 net.cpp:148] Top shape: 100 256 6 6 (921600)
I0403 14:29:59.236975 29883 net.cpp:156] Memory required for data: 821695600
I0403 14:29:59.236994 29883 layer_factory.hpp:77] Creating layer fc6
I0403 14:29:59.237028 29883 net.cpp:91] Creating Layer fc6
I0403 14:29:59.237082 29883 net.cpp:425] fc6 <- pool5
I0403 14:29:59.237107 29883 net.cpp:399] fc6 -> fc6
I0403 14:30:00.911919 29883 net.cpp:141] Setting up fc6
I0403 14:30:00.911963 29883 net.cpp:148] Top shape: 100 4096 (409600)
I0403 14:30:00.911980 29883 net.cpp:156] Memory required for data: 823334000
I0403 14:30:00.912003 29883 layer_factory.hpp:77] Creating layer relu6
I0403 14:30:00.912024 29883 net.cpp:91] Creating Layer relu6
I0403 14:30:00.912042 29883 net.cpp:425] relu6 <- fc6
I0403 14:30:00.912063 29883 net.cpp:386] relu6 -> fc6 (in-place)
I0403 14:30:00.912300 29883 net.cpp:141] Setting up relu6
I0403 14:30:00.912328 29883 net.cpp:148] Top shape: 100 4096 (409600)
I0403 14:30:00.912343 29883 net.cpp:156] Memory required for data: 824972400
I0403 14:30:00.912358 29883 layer_factory.hpp:77] Creating layer drop6
I0403 14:30:00.912379 29883 net.cpp:91] Creating Layer drop6
I0403 14:30:00.912395 29883 net.cpp:425] drop6 <- fc6
I0403 14:30:00.912423 29883 net.cpp:386] drop6 -> fc6 (in-place)
I0403 14:30:00.912478 29883 net.cpp:141] Setting up drop6
I0403 14:30:00.912503 29883 net.cpp:148] Top shape: 100 4096 (409600)
I0403 14:30:00.912520 29883 net.cpp:156] Memory required for data: 826610800
I0403 14:30:00.912535 29883 layer_factory.hpp:77] Creating layer fc7
I0403 14:30:00.912555 29883 net.cpp:91] Creating Layer fc7
I0403 14:30:00.912570 29883 net.cpp:425] fc7 <- fc6
I0403 14:30:00.912592 29883 net.cpp:399] fc7 -> fc7
I0403 14:30:01.612599 29883 net.cpp:141] Setting up fc7
I0403 14:30:01.612670 29883 net.cpp:148] Top shape: 100 4096 (409600)
I0403 14:30:01.612706 29883 net.cpp:156] Memory required for data: 828249200
I0403 14:30:01.612728 29883 layer_factory.hpp:77] Creating layer relu7
I0403 14:30:01.612793 29883 net.cpp:91] Creating Layer relu7
I0403 14:30:01.612838 29883 net.cpp:425] relu7 <- fc7
I0403 14:30:01.612874 29883 net.cpp:386] relu7 -> fc7 (in-place)
I0403 14:30:01.613304 29883 net.cpp:141] Setting up relu7
I0403 14:30:01.613340 29883 net.cpp:148] Top shape: 100 4096 (409600)
I0403 14:30:01.613390 29883 net.cpp:156] Memory required for data: 829887600
I0403 14:30:01.613406 29883 layer_factory.hpp:77] Creating layer drop7
I0403 14:30:01.613430 29883 net.cpp:91] Creating Layer drop7
I0403 14:30:01.613446 29883 net.cpp:425] drop7 <- fc7
I0403 14:30:01.613468 29883 net.cpp:386] drop7 -> fc7 (in-place)
I0403 14:30:01.613517 29883 net.cpp:141] Setting up drop7
I0403 14:30:01.613540 29883 net.cpp:148] Top shape: 100 4096 (409600)
I0403 14:30:01.613555 29883 net.cpp:156] Memory required for data: 831526000
I0403 14:30:01.613570 29883 layer_factory.hpp:77] Creating layer fc8_plantvillage
I0403 14:30:01.613590 29883 net.cpp:91] Creating Layer fc8_plantvillage
I0403 14:30:01.613606 29883 net.cpp:425] fc8_plantvillage <- fc7
I0403 14:30:01.613639 29883 net.cpp:399] fc8_plantvillage -> fc8_plantvillage
I0403 14:30:01.620574 29883 net.cpp:141] Setting up fc8_plantvillage
I0403 14:30:01.620606 29883 net.cpp:148] Top shape: 100 38 (3800)
I0403 14:30:01.620622 29883 net.cpp:156] Memory required for data: 831541200
I0403 14:30:01.620641 29883 layer_factory.hpp:77] Creating layer fc8_plantvillage_fc8_plantvillage_0_split
I0403 14:30:01.620662 29883 net.cpp:91] Creating Layer fc8_plantvillage_fc8_plantvillage_0_split
I0403 14:30:01.620679 29883 net.cpp:425] fc8_plantvillage_fc8_plantvillage_0_split <- fc8_plantvillage
I0403 14:30:01.620697 29883 net.cpp:399] fc8_plantvillage_fc8_plantvillage_0_split -> fc8_plantvillage_fc8_plantvillage_0_split_0
I0403 14:30:01.620718 29883 net.cpp:399] fc8_plantvillage_fc8_plantvillage_0_split -> fc8_plantvillage_fc8_plantvillage_0_split_1
I0403 14:30:01.620741 29883 net.cpp:399] fc8_plantvillage_fc8_plantvillage_0_split -> fc8_plantvillage_fc8_plantvillage_0_split_2
I0403 14:30:01.620826 29883 net.cpp:141] Setting up fc8_plantvillage_fc8_plantvillage_0_split
I0403 14:30:01.620851 29883 net.cpp:148] Top shape: 100 38 (3800)
I0403 14:30:01.620869 29883 net.cpp:148] Top shape: 100 38 (3800)
I0403 14:30:01.620884 29883 net.cpp:148] Top shape: 100 38 (3800)
I0403 14:30:01.620898 29883 net.cpp:156] Memory required for data: 831586800
I0403 14:30:01.620914 29883 layer_factory.hpp:77] Creating layer prob
I0403 14:30:01.620934 29883 net.cpp:91] Creating Layer prob
I0403 14:30:01.620950 29883 net.cpp:425] prob <- fc8_plantvillage_fc8_plantvillage_0_split_0
I0403 14:30:01.620971 29883 net.cpp:399] prob -> prob
I0403 14:30:01.621206 29883 net.cpp:141] Setting up prob
I0403 14:30:01.621232 29883 net.cpp:148] Top shape: 100 38 (3800)
I0403 14:30:01.621248 29883 net.cpp:156] Memory required for data: 831602000
I0403 14:30:01.621284 29883 layer_factory.hpp:77] Creating layer hdf5out
I0403 14:30:01.621309 29883 net.cpp:91] Creating Layer hdf5out
I0403 14:30:01.621327 29883 net.cpp:425] hdf5out <- prob
I0403 14:30:01.621352 29883 net.cpp:425] hdf5out <- label_data_1_split_0
I0403 14:30:01.641526 29883 net.cpp:141] Setting up hdf5out
…
