…
I0403 14:21:08.592970 29604 net.cpp:313] The NetState phase (1) differed from the phase (0) specified by a rule in layer data
I0403 14:21:08.593266 29604 net.cpp:49] Initializing net from parameters: 
state {
  phase: TEST
}
layer {
  name: "data"
  type: "Data"
  top: "data"
  top: "label"
  include {
    phase: TEST
  }
  transform_param {
    crop_size: 227
    mean_file: "/home/mohanty/data/final_dataset/lmdb/color-20-80/mean.binaryproto"
  }
  data_param {
    source: "/home/mohanty/data/final_dataset/lmdb/color-20-80/test_db"
    batch_size: 100
    backend: LMDB
  }
}
layer {
  name: "conv1"
  type: "Convolution"
  bottom: "data"
  top: "conv1"
  param {
    lr_mult: 1
    decay_mult: 1
  }
  param {
    lr_mult: 2
    decay_mult: 0
  }
  convolution_param {
    num_output: 96
    kernel_size: 11
    stride: 4
    weight_filler {
      type: "gaussian"
      std: 0.01
    }
    bias_filler {
      type: "constant"
      value: 0
    }
  }
}
layer {
  name: "relu1"
  type: "ReLU"
  bottom: "conv1"
  top: "conv1"
}
layer {
  name: "norm1"
  type: "LRN"
  bottom: "conv1"
  top: "norm1"
  lrn_param {
    local_size: 5
    alpha: 0.0001
    beta: 0.75
  }
}
layer {
  name: "pool1"
  type: "Pooling"
  bottom: "norm1"
  top: "pool1"
  pooling_param {
    pool: MAX
    kernel_size: 3
    stride: 2
  }
}
layer {
  name: "conv2"
  type: "Convolution"
  bottom: "pool1"
  top: "conv2"
  param {
    lr_mult: 1
    decay_mult: 1
  }
  param {
    lr_mult: 2
    decay_mult: 0
  }
  convolution_param {
    num_output: 256
    pad: 2
    kernel_size: 5
    group: 2
    weight_filler {
      type: "gaussian"
      std: 0.01
    }
    bias_filler {
      type: "constant"
      value: 0.1
    }
  }
}
layer {
  name: "relu2"
  type: "ReLU"
  bottom: "conv2"
  top: "conv2"
}
layer {
  name: "norm2"
  type: "LRN"
  bottom: "conv2"
  top: "norm2"
  lrn_param {
    local_size: 5
    alpha: 0.0001
    beta: 0.75
  }
}
layer {
  name: "pool2"
  type: "Pooling"
  bottom: "norm2"
  top: "pool2"
  pooling_param {
    pool: MAX
    kernel_size: 3
    stride: 2
  }
}
layer {
  name: "conv3"
  type: "Convolution"
  bottom: "pool2"
  top: "conv3"
  param {
    lr_mult: 1
    decay_mult: 1
  }
  param {
    lr_mult: 2
    decay_mult: 0
  }
  convolution_param {
    num_output: 384
    pad: 1
    kernel_size: 3
    weight_filler {
      type: "gaussian"
      std: 0.01
    }
    bias_filler {
      type: "constant"
      value: 0
    }
  }
}
layer {
  name: "relu3"
  type: "ReLU"
  bottom: "conv3"
  top: "conv3"
}
layer {
  name: "conv4"
  type: "Convolution"
  bottom: "conv3"
  top: "conv4"
  param {
    lr_mult: 1
    decay_mult: 1
  }
  param {
    lr_mult: 2
    decay_mult: 0
  }
  convolution_param {
    num_output: 384
    pad: 1
    kernel_size: 3
    group: 2
    weight_filler {
      type: "gaussian"
      std: 0.01
    }
    bias_filler {
      type: "constant"
      value: 0.1
    }
  }
}
layer {
  name: "relu4"
  type: "ReLU"
  bottom: "conv4"
  top: "conv4"
}
layer {
  name: "conv5"
  type: "Convolution"
  bottom: "conv4"
  top: "conv5"
  param {
    lr_mult: 1
    decay_mult: 1
  }
  param {
    lr_mult: 2
    decay_mult: 0
  }
  convolution_param {
    num_output: 256
    pad: 1
    kernel_size: 3
    group: 2
    weight_filler {
      type: "gaussian"
      std: 0.01
    }
    bias_filler {
      type: "constant"
      value: 0.1
    }
  }
}
layer {
  name: "relu5"
  type: "ReLU"
  bottom: "conv5"
  top: "conv5"
}
layer {
  name: "pool5"
  type: "Pooling"
  bottom: "conv5"
  top: "pool5"
  pooling_param {
    pool: MAX
    kernel_size: 3
    stride: 2
  }
}
layer {
  name: "fc6"
  type: "InnerProduct"
  bottom: "pool5"
  top: "fc6"
  param {
    lr_mult: 1
    decay_mult: 1
  }
  param {
    lr_mult: 2
    decay_mult: 0
  }
  inner_product_param {
    num_output: 4096
    weight_filler {
      type: "gaussian"
      std: 0.005
    }
    bias_filler {
      type: "constant"
      value: 0.1
    }
  }
}
layer {
  name: "relu6"
  type: "ReLU"
  bottom: "fc6"
  top: "fc6"
}
layer {
  name: "drop6"
  type: "Dropout"
  bottom: "fc6"
  top: "fc6"
  dropout_param {
    dropout_ratio: 0.5
  }
}
layer {
  name: "fc7"
  type: "InnerProduct"
  bottom: "fc6"
  top: "fc7"
  param {
    lr_mult: 1
    decay_mult: 1
  }
  param {
    lr_mult: 2
    decay_mult: 0
  }
  inner_product_param {
    num_output: 4096
    weight_filler {
      type: "gaussian"
      std: 0.005
    }
    bias_filler {
      type: "constant"
      value: 0.1
    }
  }
}
layer {
  name: "relu7"
  type: "ReLU"
  bottom: "fc7"
  top: "fc7"
}
layer {
  name: "drop7"
  type: "Dropout"
  bottom: "fc7"
  top: "fc7"
  dropout_param {
    dropout_ratio: 0.5
  }
}
layer {
  name: "fc8_plantvillage"
  type: "InnerProduct"
  bottom: "fc7"
  top: "fc8_plantvillage"
  param {
    lr_mult: 1
    decay_mult: 1
  }
  param {
    lr_mult: 2
    decay_mult: 0
  }
  inner_product_param {
    num_output: 38
    weight_filler {
      type: "gaussian"
      std: 0.01
    }
    bias_filler {
      type: "constant"
      value: 0
    }
  }
}
layer {
  name: "prob"
  type: "Softmax"
  bottom: "fc8_plantvillage"
  top: "prob"
  include {
    phase: TEST
  }
}
layer {
  name: "hdf5out"
  type: "HDF5Output"
  bottom: "prob"
  bottom: "label"
  include {
    phase: TEST
  }
  hdf5_output_param {
    file_name: "hdf5_dumps/iter_1296.h5"
  }
}
layer {
  name: "loss"
  type: "SoftmaxWithLoss"
  bottom: "fc8_plantvillage"
  bottom: "label"
  top: "loss"
}
layer {
  name: "accuracy"
  type: "Accuracy"
  bottom: "fc8_plantvillage"
  bottom: "label"
  top: "accuracy"
  include {
    phase: TEST
  }
}
I0403 14:21:08.593904 29604 layer_factory.hpp:77] Creating layer data
I0403 14:21:08.594576 29604 net.cpp:91] Creating Layer data
I0403 14:21:08.594609 29604 net.cpp:399] data -> data
I0403 14:21:08.594661 29604 net.cpp:399] data -> label
I0403 14:21:08.594702 29604 data_transformer.cpp:25] Loading mean file from: /home/mohanty/data/final_dataset/lmdb/color-20-80/mean.binaryproto
I0403 14:21:08.598009 29608 db_lmdb.cpp:38] Opened lmdb /home/mohanty/data/final_dataset/lmdb/color-20-80/test_db
I0403 14:21:08.609141 29604 data_layer.cpp:41] output data size: 100,3,227,227
I0403 14:21:08.742439 29604 net.cpp:141] Setting up data
I0403 14:21:08.742529 29604 net.cpp:148] Top shape: 100 3 227 227 (15458700)
I0403 14:21:08.742552 29604 net.cpp:148] Top shape: 100 (100)
I0403 14:21:08.742568 29604 net.cpp:156] Memory required for data: 61835200
I0403 14:21:08.742596 29604 layer_factory.hpp:77] Creating layer label_data_1_split
I0403 14:21:08.742621 29604 net.cpp:91] Creating Layer label_data_1_split
I0403 14:21:08.742640 29604 net.cpp:425] label_data_1_split <- label
I0403 14:21:08.742671 29604 net.cpp:399] label_data_1_split -> label_data_1_split_0
I0403 14:21:08.742698 29604 net.cpp:399] label_data_1_split -> label_data_1_split_1
I0403 14:21:08.742720 29604 net.cpp:399] label_data_1_split -> label_data_1_split_2
I0403 14:21:08.742784 29604 net.cpp:141] Setting up label_data_1_split
I0403 14:21:08.742808 29604 net.cpp:148] Top shape: 100 (100)
I0403 14:21:08.742826 29604 net.cpp:148] Top shape: 100 (100)
I0403 14:21:08.742842 29604 net.cpp:148] Top shape: 100 (100)
I0403 14:21:08.742857 29604 net.cpp:156] Memory required for data: 61836400
I0403 14:21:08.742872 29604 layer_factory.hpp:77] Creating layer conv1
I0403 14:21:08.742904 29604 net.cpp:91] Creating Layer conv1
I0403 14:21:08.742923 29604 net.cpp:425] conv1 <- data
I0403 14:21:08.742943 29604 net.cpp:399] conv1 -> conv1
I0403 14:21:08.893870 29604 net.cpp:141] Setting up conv1
I0403 14:21:08.893951 29604 net.cpp:148] Top shape: 100 96 55 55 (29040000)
I0403 14:21:08.893970 29604 net.cpp:156] Memory required for data: 177996400
I0403 14:21:08.894002 29604 layer_factory.hpp:77] Creating layer relu1
I0403 14:21:08.894032 29604 net.cpp:91] Creating Layer relu1
I0403 14:21:08.894049 29604 net.cpp:425] relu1 <- conv1
I0403 14:21:08.894069 29604 net.cpp:386] relu1 -> conv1 (in-place)
I0403 14:21:08.894424 29604 net.cpp:141] Setting up relu1
I0403 14:21:08.894454 29604 net.cpp:148] Top shape: 100 96 55 55 (29040000)
I0403 14:21:08.894471 29604 net.cpp:156] Memory required for data: 294156400
I0403 14:21:08.894520 29604 layer_factory.hpp:77] Creating layer norm1
I0403 14:21:08.894551 29604 net.cpp:91] Creating Layer norm1
I0403 14:21:08.894569 29604 net.cpp:425] norm1 <- conv1
I0403 14:21:08.894589 29604 net.cpp:399] norm1 -> norm1
I0403 14:21:08.894919 29604 net.cpp:141] Setting up norm1
I0403 14:21:08.894948 29604 net.cpp:148] Top shape: 100 96 55 55 (29040000)
I0403 14:21:08.894963 29604 net.cpp:156] Memory required for data: 410316400
I0403 14:21:08.894980 29604 layer_factory.hpp:77] Creating layer pool1
I0403 14:21:08.895004 29604 net.cpp:91] Creating Layer pool1
I0403 14:21:08.895020 29604 net.cpp:425] pool1 <- norm1
I0403 14:21:08.895040 29604 net.cpp:399] pool1 -> pool1
I0403 14:21:08.895107 29604 net.cpp:141] Setting up pool1
I0403 14:21:08.895133 29604 net.cpp:148] Top shape: 100 96 27 27 (6998400)
I0403 14:21:08.895148 29604 net.cpp:156] Memory required for data: 438310000
I0403 14:21:08.895164 29604 layer_factory.hpp:77] Creating layer conv2
I0403 14:21:08.895189 29604 net.cpp:91] Creating Layer conv2
I0403 14:21:08.895206 29604 net.cpp:425] conv2 <- pool1
I0403 14:21:08.895226 29604 net.cpp:399] conv2 -> conv2
I0403 14:21:08.910415 29604 net.cpp:141] Setting up conv2
I0403 14:21:08.910454 29604 net.cpp:148] Top shape: 100 256 27 27 (18662400)
I0403 14:21:08.910471 29604 net.cpp:156] Memory required for data: 512959600
I0403 14:21:08.910493 29604 layer_factory.hpp:77] Creating layer relu2
I0403 14:21:08.910514 29604 net.cpp:91] Creating Layer relu2
I0403 14:21:08.910531 29604 net.cpp:425] relu2 <- conv2
I0403 14:21:08.910550 29604 net.cpp:386] relu2 -> conv2 (in-place)
I0403 14:21:08.910833 29604 net.cpp:141] Setting up relu2
I0403 14:21:08.910861 29604 net.cpp:148] Top shape: 100 256 27 27 (18662400)
I0403 14:21:08.910876 29604 net.cpp:156] Memory required for data: 587609200
I0403 14:21:08.910892 29604 layer_factory.hpp:77] Creating layer norm2
I0403 14:21:08.910915 29604 net.cpp:91] Creating Layer norm2
I0403 14:21:08.910933 29604 net.cpp:425] norm2 <- conv2
I0403 14:21:08.910951 29604 net.cpp:399] norm2 -> norm2
I0403 14:21:08.911149 29604 net.cpp:141] Setting up norm2
I0403 14:21:08.911173 29604 net.cpp:148] Top shape: 100 256 27 27 (18662400)
I0403 14:21:08.911190 29604 net.cpp:156] Memory required for data: 662258800
I0403 14:21:08.911204 29604 layer_factory.hpp:77] Creating layer pool2
I0403 14:21:08.911221 29604 net.cpp:91] Creating Layer pool2
I0403 14:21:08.911237 29604 net.cpp:425] pool2 <- norm2
I0403 14:21:08.911257 29604 net.cpp:399] pool2 -> pool2
I0403 14:21:08.911375 29604 net.cpp:141] Setting up pool2
I0403 14:21:08.911401 29604 net.cpp:148] Top shape: 100 256 13 13 (4326400)
I0403 14:21:08.911417 29604 net.cpp:156] Memory required for data: 679564400
I0403 14:21:08.911433 29604 layer_factory.hpp:77] Creating layer conv3
I0403 14:21:08.911458 29604 net.cpp:91] Creating Layer conv3
I0403 14:21:08.911476 29604 net.cpp:425] conv3 <- pool2
I0403 14:21:08.911496 29604 net.cpp:399] conv3 -> conv3
I0403 14:21:08.957886 29604 net.cpp:141] Setting up conv3
I0403 14:21:08.957931 29604 net.cpp:148] Top shape: 100 384 13 13 (6489600)
I0403 14:21:08.957947 29604 net.cpp:156] Memory required for data: 705522800
I0403 14:21:08.957973 29604 layer_factory.hpp:77] Creating layer relu3
I0403 14:21:08.957994 29604 net.cpp:91] Creating Layer relu3
I0403 14:21:08.958012 29604 net.cpp:425] relu3 <- conv3
I0403 14:21:08.958035 29604 net.cpp:386] relu3 -> conv3 (in-place)
I0403 14:21:08.958334 29604 net.cpp:141] Setting up relu3
I0403 14:21:08.958364 29604 net.cpp:148] Top shape: 100 384 13 13 (6489600)
I0403 14:21:08.958379 29604 net.cpp:156] Memory required for data: 731481200
I0403 14:21:08.958396 29604 layer_factory.hpp:77] Creating layer conv4
I0403 14:21:08.958422 29604 net.cpp:91] Creating Layer conv4
I0403 14:21:08.958441 29604 net.cpp:425] conv4 <- conv3
I0403 14:21:08.958462 29604 net.cpp:399] conv4 -> conv4
I0403 14:21:08.989089 29604 net.cpp:141] Setting up conv4
I0403 14:21:08.989156 29604 net.cpp:148] Top shape: 100 384 13 13 (6489600)
I0403 14:21:08.989203 29604 net.cpp:156] Memory required for data: 757439600
I0403 14:21:08.989226 29604 layer_factory.hpp:77] Creating layer relu4
I0403 14:21:08.989248 29604 net.cpp:91] Creating Layer relu4
I0403 14:21:08.989265 29604 net.cpp:425] relu4 <- conv4
I0403 14:21:08.989291 29604 net.cpp:386] relu4 -> conv4 (in-place)
I0403 14:21:08.989579 29604 net.cpp:141] Setting up relu4
I0403 14:21:08.989610 29604 net.cpp:148] Top shape: 100 384 13 13 (6489600)
I0403 14:21:08.989629 29604 net.cpp:156] Memory required for data: 783398000
I0403 14:21:08.989645 29604 layer_factory.hpp:77] Creating layer conv5
I0403 14:21:08.989670 29604 net.cpp:91] Creating Layer conv5
I0403 14:21:08.989686 29604 net.cpp:425] conv5 <- conv4
I0403 14:21:08.989706 29604 net.cpp:399] conv5 -> conv5
I0403 14:21:09.010099 29604 net.cpp:141] Setting up conv5
I0403 14:21:09.010133 29604 net.cpp:148] Top shape: 100 256 13 13 (4326400)
I0403 14:21:09.010150 29604 net.cpp:156] Memory required for data: 800703600
I0403 14:21:09.010174 29604 layer_factory.hpp:77] Creating layer relu5
I0403 14:21:09.010192 29604 net.cpp:91] Creating Layer relu5
I0403 14:21:09.010208 29604 net.cpp:425] relu5 <- conv5
I0403 14:21:09.010231 29604 net.cpp:386] relu5 -> conv5 (in-place)
I0403 14:21:09.010510 29604 net.cpp:141] Setting up relu5
I0403 14:21:09.010538 29604 net.cpp:148] Top shape: 100 256 13 13 (4326400)
I0403 14:21:09.010553 29604 net.cpp:156] Memory required for data: 818009200
I0403 14:21:09.010568 29604 layer_factory.hpp:77] Creating layer pool5
I0403 14:21:09.010594 29604 net.cpp:91] Creating Layer pool5
I0403 14:21:09.010612 29604 net.cpp:425] pool5 <- conv5
I0403 14:21:09.010632 29604 net.cpp:399] pool5 -> pool5
I0403 14:21:09.010689 29604 net.cpp:141] Setting up pool5
I0403 14:21:09.010713 29604 net.cpp:148] Top shape: 100 256 6 6 (921600)
I0403 14:21:09.010728 29604 net.cpp:156] Memory required for data: 821695600
I0403 14:21:09.010743 29604 layer_factory.hpp:77] Creating layer fc6
I0403 14:21:09.010771 29604 net.cpp:91] Creating Layer fc6
I0403 14:21:09.010787 29604 net.cpp:425] fc6 <- pool5
I0403 14:21:09.010808 29604 net.cpp:399] fc6 -> fc6
I0403 14:21:10.573196 29604 net.cpp:141] Setting up fc6
I0403 14:21:10.573252 29604 net.cpp:148] Top shape: 100 4096 (409600)
I0403 14:21:10.573269 29604 net.cpp:156] Memory required for data: 823334000
I0403 14:21:10.573302 29604 layer_factory.hpp:77] Creating layer relu6
I0403 14:21:10.573329 29604 net.cpp:91] Creating Layer relu6
I0403 14:21:10.573349 29604 net.cpp:425] relu6 <- fc6
I0403 14:21:10.573369 29604 net.cpp:386] relu6 -> fc6 (in-place)
I0403 14:21:10.573595 29604 net.cpp:141] Setting up relu6
I0403 14:21:10.573619 29604 net.cpp:148] Top shape: 100 4096 (409600)
I0403 14:21:10.573635 29604 net.cpp:156] Memory required for data: 824972400
I0403 14:21:10.573650 29604 layer_factory.hpp:77] Creating layer drop6
I0403 14:21:10.573669 29604 net.cpp:91] Creating Layer drop6
I0403 14:21:10.573684 29604 net.cpp:425] drop6 <- fc6
I0403 14:21:10.573705 29604 net.cpp:386] drop6 -> fc6 (in-place)
I0403 14:21:10.573756 29604 net.cpp:141] Setting up drop6
I0403 14:21:10.573783 29604 net.cpp:148] Top shape: 100 4096 (409600)
I0403 14:21:10.573799 29604 net.cpp:156] Memory required for data: 826610800
I0403 14:21:10.573814 29604 layer_factory.hpp:77] Creating layer fc7
I0403 14:21:10.573833 29604 net.cpp:91] Creating Layer fc7
I0403 14:21:10.573848 29604 net.cpp:425] fc7 <- fc6
I0403 14:21:10.573868 29604 net.cpp:399] fc7 -> fc7
I0403 14:21:11.274130 29604 net.cpp:141] Setting up fc7
I0403 14:21:11.274184 29604 net.cpp:148] Top shape: 100 4096 (409600)
I0403 14:21:11.274202 29604 net.cpp:156] Memory required for data: 828249200
I0403 14:21:11.274224 29604 layer_factory.hpp:77] Creating layer relu7
I0403 14:21:11.274246 29604 net.cpp:91] Creating Layer relu7
I0403 14:21:11.274265 29604 net.cpp:425] relu7 <- fc7
I0403 14:21:11.274292 29604 net.cpp:386] relu7 -> fc7 (in-place)
I0403 14:21:11.274693 29604 net.cpp:141] Setting up relu7
I0403 14:21:11.274721 29604 net.cpp:148] Top shape: 100 4096 (409600)
I0403 14:21:11.274770 29604 net.cpp:156] Memory required for data: 829887600
I0403 14:21:11.274786 29604 layer_factory.hpp:77] Creating layer drop7
I0403 14:21:11.274806 29604 net.cpp:91] Creating Layer drop7
I0403 14:21:11.274822 29604 net.cpp:425] drop7 <- fc7
I0403 14:21:11.274843 29604 net.cpp:386] drop7 -> fc7 (in-place)
I0403 14:21:11.274888 29604 net.cpp:141] Setting up drop7
I0403 14:21:11.274912 29604 net.cpp:148] Top shape: 100 4096 (409600)
I0403 14:21:11.274927 29604 net.cpp:156] Memory required for data: 831526000
I0403 14:21:11.274941 29604 layer_factory.hpp:77] Creating layer fc8_plantvillage
I0403 14:21:11.274965 29604 net.cpp:91] Creating Layer fc8_plantvillage
I0403 14:21:11.274981 29604 net.cpp:425] fc8_plantvillage <- fc7
I0403 14:21:11.275002 29604 net.cpp:399] fc8_plantvillage -> fc8_plantvillage
I0403 14:21:11.281976 29604 net.cpp:141] Setting up fc8_plantvillage
I0403 14:21:11.282006 29604 net.cpp:148] Top shape: 100 38 (3800)
I0403 14:21:11.282021 29604 net.cpp:156] Memory required for data: 831541200
I0403 14:21:11.282042 29604 layer_factory.hpp:77] Creating layer fc8_plantvillage_fc8_plantvillage_0_split
I0403 14:21:11.282061 29604 net.cpp:91] Creating Layer fc8_plantvillage_fc8_plantvillage_0_split
I0403 14:21:11.282078 29604 net.cpp:425] fc8_plantvillage_fc8_plantvillage_0_split <- fc8_plantvillage
I0403 14:21:11.282097 29604 net.cpp:399] fc8_plantvillage_fc8_plantvillage_0_split -> fc8_plantvillage_fc8_plantvillage_0_split_0
I0403 14:21:11.282120 29604 net.cpp:399] fc8_plantvillage_fc8_plantvillage_0_split -> fc8_plantvillage_fc8_plantvillage_0_split_1
I0403 14:21:11.282141 29604 net.cpp:399] fc8_plantvillage_fc8_plantvillage_0_split -> fc8_plantvillage_fc8_plantvillage_0_split_2
I0403 14:21:11.282220 29604 net.cpp:141] Setting up fc8_plantvillage_fc8_plantvillage_0_split
I0403 14:21:11.282245 29604 net.cpp:148] Top shape: 100 38 (3800)
I0403 14:21:11.282263 29604 net.cpp:148] Top shape: 100 38 (3800)
I0403 14:21:11.282279 29604 net.cpp:148] Top shape: 100 38 (3800)
I0403 14:21:11.282301 29604 net.cpp:156] Memory required for data: 831586800
I0403 14:21:11.282318 29604 layer_factory.hpp:77] Creating layer prob
I0403 14:21:11.282338 29604 net.cpp:91] Creating Layer prob
I0403 14:21:11.282354 29604 net.cpp:425] prob <- fc8_plantvillage_fc8_plantvillage_0_split_0
I0403 14:21:11.282376 29604 net.cpp:399] prob -> prob
I0403 14:21:11.282608 29604 net.cpp:141] Setting up prob
I0403 14:21:11.282637 29604 net.cpp:148] Top shape: 100 38 (3800)
I0403 14:21:11.282655 29604 net.cpp:156] Memory required for data: 831602000
I0403 14:21:11.282670 29604 layer_factory.hpp:77] Creating layer hdf5out
I0403 14:21:11.282691 29604 net.cpp:91] Creating Layer hdf5out
I0403 14:21:11.282706 29604 net.cpp:425] hdf5out <- prob
I0403 14:21:11.282723 29604 net.cpp:425] hdf5out <- label_data_1_split_0
I0403 14:21:11.286867 29604 net.cpp:141] Setting up hdf5out
…
