…
I0403 14:06:27.803764 29223 net.cpp:313] The NetState phase (1) differed from the phase (0) specified by a rule in layer data
I0403 14:06:27.804436 29223 net.cpp:49] Initializing net from parameters: 
state {
  phase: TEST
}
layer {
  name: "data"
  type: "Data"
  top: "data"
  top: "label"
  include {
    phase: TEST
  }
  transform_param {
    crop_size: 227
    mean_file: "/home/mohanty/data/final_dataset/lmdb/color-20-80/mean.binaryproto"
  }
  data_param {
    source: "/home/mohanty/data/final_dataset/lmdb/color-20-80/test_db"
    batch_size: 100
    backend: LMDB
  }
}
layer {
  name: "conv1"
  type: "Convolution"
  bottom: "data"
  top: "conv1"
  param {
    lr_mult: 1
    decay_mult: 1
  }
  param {
    lr_mult: 2
    decay_mult: 0
  }
  convolution_param {
    num_output: 96
    kernel_size: 11
    stride: 4
    weight_filler {
      type: "gaussian"
      std: 0.01
    }
    bias_filler {
      type: "constant"
      value: 0
    }
  }
}
layer {
  name: "relu1"
  type: "ReLU"
  bottom: "conv1"
  top: "conv1"
}
layer {
  name: "norm1"
  type: "LRN"
  bottom: "conv1"
  top: "norm1"
  lrn_param {
    local_size: 5
    alpha: 0.0001
    beta: 0.75
  }
}
layer {
  name: "pool1"
  type: "Pooling"
  bottom: "norm1"
  top: "pool1"
  pooling_param {
    pool: MAX
    kernel_size: 3
    stride: 2
  }
}
layer {
  name: "conv2"
  type: "Convolution"
  bottom: "pool1"
  top: "conv2"
  param {
    lr_mult: 1
    decay_mult: 1
  }
  param {
    lr_mult: 2
    decay_mult: 0
  }
  convolution_param {
    num_output: 256
    pad: 2
    kernel_size: 5
    group: 2
    weight_filler {
      type: "gaussian"
      std: 0.01
    }
    bias_filler {
      type: "constant"
      value: 0.1
    }
  }
}
layer {
  name: "relu2"
  type: "ReLU"
  bottom: "conv2"
  top: "conv2"
}
layer {
  name: "norm2"
  type: "LRN"
  bottom: "conv2"
  top: "norm2"
  lrn_param {
    local_size: 5
    alpha: 0.0001
    beta: 0.75
  }
}
layer {
  name: "pool2"
  type: "Pooling"
  bottom: "norm2"
  top: "pool2"
  pooling_param {
    pool: MAX
    kernel_size: 3
    stride: 2
  }
}
layer {
  name: "conv3"
  type: "Convolution"
  bottom: "pool2"
  top: "conv3"
  param {
    lr_mult: 1
    decay_mult: 1
  }
  param {
    lr_mult: 2
    decay_mult: 0
  }
  convolution_param {
    num_output: 384
    pad: 1
    kernel_size: 3
    weight_filler {
      type: "gaussian"
      std: 0.01
    }
    bias_filler {
      type: "constant"
      value: 0
    }
  }
}
layer {
  name: "relu3"
  type: "ReLU"
  bottom: "conv3"
  top: "conv3"
}
layer {
  name: "conv4"
  type: "Convolution"
  bottom: "conv3"
  top: "conv4"
  param {
    lr_mult: 1
    decay_mult: 1
  }
  param {
    lr_mult: 2
    decay_mult: 0
  }
  convolution_param {
    num_output: 384
    pad: 1
    kernel_size: 3
    group: 2
    weight_filler {
      type: "gaussian"
      std: 0.01
    }
    bias_filler {
      type: "constant"
      value: 0.1
    }
  }
}
layer {
  name: "relu4"
  type: "ReLU"
  bottom: "conv4"
  top: "conv4"
}
layer {
  name: "conv5"
  type: "Convolution"
  bottom: "conv4"
  top: "conv5"
  param {
    lr_mult: 1
    decay_mult: 1
  }
  param {
    lr_mult: 2
    decay_mult: 0
  }
  convolution_param {
    num_output: 256
    pad: 1
    kernel_size: 3
    group: 2
    weight_filler {
      type: "gaussian"
      std: 0.01
    }
    bias_filler {
      type: "constant"
      value: 0.1
    }
  }
}
layer {
  name: "relu5"
  type: "ReLU"
  bottom: "conv5"
  top: "conv5"
}
layer {
  name: "pool5"
  type: "Pooling"
  bottom: "conv5"
  top: "pool5"
  pooling_param {
    pool: MAX
    kernel_size: 3
    stride: 2
  }
}
layer {
  name: "fc6"
  type: "InnerProduct"
  bottom: "pool5"
  top: "fc6"
  param {
    lr_mult: 1
    decay_mult: 1
  }
  param {
    lr_mult: 2
    decay_mult: 0
  }
  inner_product_param {
    num_output: 4096
    weight_filler {
      type: "gaussian"
      std: 0.005
    }
    bias_filler {
      type: "constant"
      value: 0.1
    }
  }
}
layer {
  name: "relu6"
  type: "ReLU"
  bottom: "fc6"
  top: "fc6"
}
layer {
  name: "drop6"
  type: "Dropout"
  bottom: "fc6"
  top: "fc6"
  dropout_param {
    dropout_ratio: 0.5
  }
}
layer {
  name: "fc7"
  type: "InnerProduct"
  bottom: "fc6"
  top: "fc7"
  param {
    lr_mult: 1
    decay_mult: 1
  }
  param {
    lr_mult: 2
    decay_mult: 0
  }
  inner_product_param {
    num_output: 4096
    weight_filler {
      type: "gaussian"
      std: 0.005
    }
    bias_filler {
      type: "constant"
      value: 0.1
    }
  }
}
layer {
  name: "relu7"
  type: "ReLU"
  bottom: "fc7"
  top: "fc7"
}
layer {
  name: "drop7"
  type: "Dropout"
  bottom: "fc7"
  top: "fc7"
  dropout_param {
    dropout_ratio: 0.5
  }
}
layer {
  name: "fc8_plantvillage"
  type: "InnerProduct"
  bottom: "fc7"
  top: "fc8_plantvillage"
  param {
    lr_mult: 1
    decay_mult: 1
  }
  param {
    lr_mult: 2
    decay_mult: 0
  }
  inner_product_param {
    num_output: 38
    weight_filler {
      type: "gaussian"
      std: 0.01
    }
    bias_filler {
      type: "constant"
      value: 0
    }
  }
}
layer {
  name: "prob"
  type: "Softmax"
  bottom: "fc8_plantvillage"
  top: "prob"
  include {
    phase: TEST
  }
}
layer {
  name: "hdf5out"
  type: "HDF5Output"
  bottom: "prob"
  bottom: "label"
  include {
    phase: TEST
  }
  hdf5_output_param {
    file_name: "hdf5_dumps/iter_216.h5"
  }
}
layer {
  name: "loss"
  type: "SoftmaxWithLoss"
  bottom: "fc8_plantvillage"
  bottom: "label"
  top: "loss"
}
layer {
  name: "accuracy"
  type: "Accuracy"
  bottom: "fc8_plantvillage"
  bottom: "label"
  top: "accuracy"
  include {
    phase: TEST
  }
}
I0403 14:06:27.805316 29223 layer_factory.hpp:77] Creating layer data
I0403 14:06:27.806067 29223 net.cpp:91] Creating Layer data
I0403 14:06:27.806104 29223 net.cpp:399] data -> data
I0403 14:06:27.806167 29223 net.cpp:399] data -> label
I0403 14:06:27.806212 29223 data_transformer.cpp:25] Loading mean file from: /home/mohanty/data/final_dataset/lmdb/color-20-80/mean.binaryproto
I0403 14:06:27.809334 29227 db_lmdb.cpp:38] Opened lmdb /home/mohanty/data/final_dataset/lmdb/color-20-80/test_db
I0403 14:06:27.823110 29223 data_layer.cpp:41] output data size: 100,3,227,227
I0403 14:06:30.064713 29223 net.cpp:141] Setting up data
I0403 14:06:30.064836 29223 net.cpp:148] Top shape: 100 3 227 227 (15458700)
I0403 14:06:30.064862 29223 net.cpp:148] Top shape: 100 (100)
I0403 14:06:30.064878 29223 net.cpp:156] Memory required for data: 61835200
I0403 14:06:30.064908 29223 layer_factory.hpp:77] Creating layer label_data_1_split
I0403 14:06:30.064934 29223 net.cpp:91] Creating Layer label_data_1_split
I0403 14:06:30.064955 29223 net.cpp:425] label_data_1_split <- label
I0403 14:06:30.064990 29223 net.cpp:399] label_data_1_split -> label_data_1_split_0
I0403 14:06:30.065018 29223 net.cpp:399] label_data_1_split -> label_data_1_split_1
I0403 14:06:30.065042 29223 net.cpp:399] label_data_1_split -> label_data_1_split_2
I0403 14:06:30.065124 29223 net.cpp:141] Setting up label_data_1_split
I0403 14:06:30.065261 29223 net.cpp:148] Top shape: 100 (100)
I0403 14:06:30.065323 29223 net.cpp:148] Top shape: 100 (100)
I0403 14:06:30.065341 29223 net.cpp:148] Top shape: 100 (100)
I0403 14:06:30.065356 29223 net.cpp:156] Memory required for data: 61836400
I0403 14:06:30.065374 29223 layer_factory.hpp:77] Creating layer conv1
I0403 14:06:30.065423 29223 net.cpp:91] Creating Layer conv1
I0403 14:06:30.065446 29223 net.cpp:425] conv1 <- data
I0403 14:06:30.065471 29223 net.cpp:399] conv1 -> conv1
I0403 14:06:30.224119 29223 net.cpp:141] Setting up conv1
I0403 14:06:30.224167 29223 net.cpp:148] Top shape: 100 96 55 55 (29040000)
I0403 14:06:30.224187 29223 net.cpp:156] Memory required for data: 177996400
I0403 14:06:30.224221 29223 layer_factory.hpp:77] Creating layer relu1
I0403 14:06:30.224264 29223 net.cpp:91] Creating Layer relu1
I0403 14:06:30.224290 29223 net.cpp:425] relu1 <- conv1
I0403 14:06:30.224314 29223 net.cpp:386] relu1 -> conv1 (in-place)
I0403 14:06:30.224573 29223 net.cpp:141] Setting up relu1
I0403 14:06:30.224604 29223 net.cpp:148] Top shape: 100 96 55 55 (29040000)
I0403 14:06:30.224622 29223 net.cpp:156] Memory required for data: 294156400
I0403 14:06:30.224669 29223 layer_factory.hpp:77] Creating layer norm1
I0403 14:06:30.224709 29223 net.cpp:91] Creating Layer norm1
I0403 14:06:30.224732 29223 net.cpp:425] norm1 <- conv1
I0403 14:06:30.224755 29223 net.cpp:399] norm1 -> norm1
I0403 14:06:30.225064 29223 net.cpp:141] Setting up norm1
I0403 14:06:30.225095 29223 net.cpp:148] Top shape: 100 96 55 55 (29040000)
I0403 14:06:30.225113 29223 net.cpp:156] Memory required for data: 410316400
I0403 14:06:30.225131 29223 layer_factory.hpp:77] Creating layer pool1
I0403 14:06:30.225158 29223 net.cpp:91] Creating Layer pool1
I0403 14:06:30.225178 29223 net.cpp:425] pool1 <- norm1
I0403 14:06:30.225198 29223 net.cpp:399] pool1 -> pool1
I0403 14:06:30.225278 29223 net.cpp:141] Setting up pool1
I0403 14:06:30.225307 29223 net.cpp:148] Top shape: 100 96 27 27 (6998400)
I0403 14:06:30.225324 29223 net.cpp:156] Memory required for data: 438310000
I0403 14:06:30.225343 29223 layer_factory.hpp:77] Creating layer conv2
I0403 14:06:30.225371 29223 net.cpp:91] Creating Layer conv2
I0403 14:06:30.225391 29223 net.cpp:425] conv2 <- pool1
I0403 14:06:30.225414 29223 net.cpp:399] conv2 -> conv2
I0403 14:06:30.241544 29223 net.cpp:141] Setting up conv2
I0403 14:06:30.241623 29223 net.cpp:148] Top shape: 100 256 27 27 (18662400)
I0403 14:06:30.241647 29223 net.cpp:156] Memory required for data: 512959600
I0403 14:06:30.241675 29223 layer_factory.hpp:77] Creating layer relu2
I0403 14:06:30.241701 29223 net.cpp:91] Creating Layer relu2
I0403 14:06:30.241721 29223 net.cpp:425] relu2 <- conv2
I0403 14:06:30.241741 29223 net.cpp:386] relu2 -> conv2 (in-place)
I0403 14:06:30.242027 29223 net.cpp:141] Setting up relu2
I0403 14:06:30.242058 29223 net.cpp:148] Top shape: 100 256 27 27 (18662400)
I0403 14:06:30.242076 29223 net.cpp:156] Memory required for data: 587609200
I0403 14:06:30.242094 29223 layer_factory.hpp:77] Creating layer norm2
I0403 14:06:30.242120 29223 net.cpp:91] Creating Layer norm2
I0403 14:06:30.242137 29223 net.cpp:425] norm2 <- conv2
I0403 14:06:30.242159 29223 net.cpp:399] norm2 -> norm2
I0403 14:06:30.242415 29223 net.cpp:141] Setting up norm2
I0403 14:06:30.242444 29223 net.cpp:148] Top shape: 100 256 27 27 (18662400)
I0403 14:06:30.242468 29223 net.cpp:156] Memory required for data: 662258800
I0403 14:06:30.242486 29223 layer_factory.hpp:77] Creating layer pool2
I0403 14:06:30.242508 29223 net.cpp:91] Creating Layer pool2
I0403 14:06:30.242525 29223 net.cpp:425] pool2 <- norm2
I0403 14:06:30.242544 29223 net.cpp:399] pool2 -> pool2
I0403 14:06:30.242600 29223 net.cpp:141] Setting up pool2
I0403 14:06:30.242626 29223 net.cpp:148] Top shape: 100 256 13 13 (4326400)
I0403 14:06:30.242642 29223 net.cpp:156] Memory required for data: 679564400
I0403 14:06:30.242660 29223 layer_factory.hpp:77] Creating layer conv3
I0403 14:06:30.242687 29223 net.cpp:91] Creating Layer conv3
I0403 14:06:30.242707 29223 net.cpp:425] conv3 <- pool2
I0403 14:06:30.242729 29223 net.cpp:399] conv3 -> conv3
I0403 14:06:30.282914 29223 net.cpp:141] Setting up conv3
I0403 14:06:30.282994 29223 net.cpp:148] Top shape: 100 384 13 13 (6489600)
I0403 14:06:30.283011 29223 net.cpp:156] Memory required for data: 705522800
I0403 14:06:30.283040 29223 layer_factory.hpp:77] Creating layer relu3
I0403 14:06:30.283067 29223 net.cpp:91] Creating Layer relu3
I0403 14:06:30.283089 29223 net.cpp:425] relu3 <- conv3
I0403 14:06:30.283110 29223 net.cpp:386] relu3 -> conv3 (in-place)
I0403 14:06:30.292860 29223 net.cpp:141] Setting up relu3
I0403 14:06:30.292906 29223 net.cpp:148] Top shape: 100 384 13 13 (6489600)
I0403 14:06:30.292923 29223 net.cpp:156] Memory required for data: 731481200
I0403 14:06:30.292940 29223 layer_factory.hpp:77] Creating layer conv4
I0403 14:06:30.292973 29223 net.cpp:91] Creating Layer conv4
I0403 14:06:30.292994 29223 net.cpp:425] conv4 <- conv3
I0403 14:06:30.293016 29223 net.cpp:399] conv4 -> conv4
I0403 14:06:30.324487 29223 net.cpp:141] Setting up conv4
I0403 14:06:30.324563 29223 net.cpp:148] Top shape: 100 384 13 13 (6489600)
I0403 14:06:30.324612 29223 net.cpp:156] Memory required for data: 757439600
I0403 14:06:30.324637 29223 layer_factory.hpp:77] Creating layer relu4
I0403 14:06:30.324664 29223 net.cpp:91] Creating Layer relu4
I0403 14:06:30.324686 29223 net.cpp:425] relu4 <- conv4
I0403 14:06:30.324707 29223 net.cpp:386] relu4 -> conv4 (in-place)
I0403 14:06:30.325466 29223 net.cpp:141] Setting up relu4
I0403 14:06:30.325495 29223 net.cpp:148] Top shape: 100 384 13 13 (6489600)
I0403 14:06:30.325512 29223 net.cpp:156] Memory required for data: 783398000
I0403 14:06:30.325530 29223 layer_factory.hpp:77] Creating layer conv5
I0403 14:06:30.325557 29223 net.cpp:91] Creating Layer conv5
I0403 14:06:30.325577 29223 net.cpp:425] conv5 <- conv4
I0403 14:06:30.325603 29223 net.cpp:399] conv5 -> conv5
I0403 14:06:30.346591 29223 net.cpp:141] Setting up conv5
I0403 14:06:30.346624 29223 net.cpp:148] Top shape: 100 256 13 13 (4326400)
I0403 14:06:30.346642 29223 net.cpp:156] Memory required for data: 800703600
I0403 14:06:30.346673 29223 layer_factory.hpp:77] Creating layer relu5
I0403 14:06:30.346696 29223 net.cpp:91] Creating Layer relu5
I0403 14:06:30.346714 29223 net.cpp:425] relu5 <- conv5
I0403 14:06:30.346734 29223 net.cpp:386] relu5 -> conv5 (in-place)
I0403 14:06:30.347023 29223 net.cpp:141] Setting up relu5
I0403 14:06:30.347055 29223 net.cpp:148] Top shape: 100 256 13 13 (4326400)
I0403 14:06:30.347074 29223 net.cpp:156] Memory required for data: 818009200
I0403 14:06:30.347091 29223 layer_factory.hpp:77] Creating layer pool5
I0403 14:06:30.347115 29223 net.cpp:91] Creating Layer pool5
I0403 14:06:30.347132 29223 net.cpp:425] pool5 <- conv5
I0403 14:06:30.347157 29223 net.cpp:399] pool5 -> pool5
I0403 14:06:30.347218 29223 net.cpp:141] Setting up pool5
I0403 14:06:30.347244 29223 net.cpp:148] Top shape: 100 256 6 6 (921600)
I0403 14:06:30.347267 29223 net.cpp:156] Memory required for data: 821695600
I0403 14:06:30.347285 29223 layer_factory.hpp:77] Creating layer fc6
I0403 14:06:30.347314 29223 net.cpp:91] Creating Layer fc6
I0403 14:06:30.347334 29223 net.cpp:425] fc6 <- pool5
I0403 14:06:30.347358 29223 net.cpp:399] fc6 -> fc6
I0403 14:06:31.894733 29223 net.cpp:141] Setting up fc6
I0403 14:06:31.894810 29223 net.cpp:148] Top shape: 100 4096 (409600)
I0403 14:06:31.894829 29223 net.cpp:156] Memory required for data: 823334000
I0403 14:06:31.894851 29223 layer_factory.hpp:77] Creating layer relu6
I0403 14:06:31.894875 29223 net.cpp:91] Creating Layer relu6
I0403 14:06:31.894893 29223 net.cpp:425] relu6 <- fc6
I0403 14:06:31.894917 29223 net.cpp:386] relu6 -> fc6 (in-place)
I0403 14:06:31.895138 29223 net.cpp:141] Setting up relu6
I0403 14:06:31.895165 29223 net.cpp:148] Top shape: 100 4096 (409600)
I0403 14:06:31.895182 29223 net.cpp:156] Memory required for data: 824972400
I0403 14:06:31.895197 29223 layer_factory.hpp:77] Creating layer drop6
I0403 14:06:31.895217 29223 net.cpp:91] Creating Layer drop6
I0403 14:06:31.895234 29223 net.cpp:425] drop6 <- fc6
I0403 14:06:31.895262 29223 net.cpp:386] drop6 -> fc6 (in-place)
I0403 14:06:31.895339 29223 net.cpp:141] Setting up drop6
I0403 14:06:31.895364 29223 net.cpp:148] Top shape: 100 4096 (409600)
I0403 14:06:31.895380 29223 net.cpp:156] Memory required for data: 826610800
I0403 14:06:31.895395 29223 layer_factory.hpp:77] Creating layer fc7
I0403 14:06:31.895417 29223 net.cpp:91] Creating Layer fc7
I0403 14:06:31.895436 29223 net.cpp:425] fc7 <- fc6
I0403 14:06:31.895453 29223 net.cpp:399] fc7 -> fc7
I0403 14:06:32.563266 29223 net.cpp:141] Setting up fc7
I0403 14:06:32.563349 29223 net.cpp:148] Top shape: 100 4096 (409600)
I0403 14:06:32.563367 29223 net.cpp:156] Memory required for data: 828249200
I0403 14:06:32.563391 29223 layer_factory.hpp:77] Creating layer relu7
I0403 14:06:32.563416 29223 net.cpp:91] Creating Layer relu7
I0403 14:06:32.563436 29223 net.cpp:425] relu7 <- fc7
I0403 14:06:32.563457 29223 net.cpp:386] relu7 -> fc7 (in-place)
I0403 14:06:32.563848 29223 net.cpp:141] Setting up relu7
I0403 14:06:32.563874 29223 net.cpp:148] Top shape: 100 4096 (409600)
I0403 14:06:32.563923 29223 net.cpp:156] Memory required for data: 829887600
I0403 14:06:32.563940 29223 layer_factory.hpp:77] Creating layer drop7
I0403 14:06:32.563962 29223 net.cpp:91] Creating Layer drop7
I0403 14:06:32.563979 29223 net.cpp:425] drop7 <- fc7
I0403 14:06:32.563997 29223 net.cpp:386] drop7 -> fc7 (in-place)
I0403 14:06:32.564043 29223 net.cpp:141] Setting up drop7
I0403 14:06:32.564066 29223 net.cpp:148] Top shape: 100 4096 (409600)
I0403 14:06:32.564080 29223 net.cpp:156] Memory required for data: 831526000
I0403 14:06:32.564095 29223 layer_factory.hpp:77] Creating layer fc8_plantvillage
I0403 14:06:32.564116 29223 net.cpp:91] Creating Layer fc8_plantvillage
I0403 14:06:32.564132 29223 net.cpp:425] fc8_plantvillage <- fc7
I0403 14:06:32.564153 29223 net.cpp:399] fc8_plantvillage -> fc8_plantvillage
I0403 14:06:32.570762 29223 net.cpp:141] Setting up fc8_plantvillage
I0403 14:06:32.570792 29223 net.cpp:148] Top shape: 100 38 (3800)
I0403 14:06:32.570807 29223 net.cpp:156] Memory required for data: 831541200
I0403 14:06:32.570827 29223 layer_factory.hpp:77] Creating layer fc8_plantvillage_fc8_plantvillage_0_split
I0403 14:06:32.570845 29223 net.cpp:91] Creating Layer fc8_plantvillage_fc8_plantvillage_0_split
I0403 14:06:32.570861 29223 net.cpp:425] fc8_plantvillage_fc8_plantvillage_0_split <- fc8_plantvillage
I0403 14:06:32.570880 29223 net.cpp:399] fc8_plantvillage_fc8_plantvillage_0_split -> fc8_plantvillage_fc8_plantvillage_0_split_0
I0403 14:06:32.570900 29223 net.cpp:399] fc8_plantvillage_fc8_plantvillage_0_split -> fc8_plantvillage_fc8_plantvillage_0_split_1
I0403 14:06:32.570921 29223 net.cpp:399] fc8_plantvillage_fc8_plantvillage_0_split -> fc8_plantvillage_fc8_plantvillage_0_split_2
I0403 14:06:32.570996 29223 net.cpp:141] Setting up fc8_plantvillage_fc8_plantvillage_0_split
I0403 14:06:32.571019 29223 net.cpp:148] Top shape: 100 38 (3800)
I0403 14:06:32.571036 29223 net.cpp:148] Top shape: 100 38 (3800)
I0403 14:06:32.571054 29223 net.cpp:148] Top shape: 100 38 (3800)
I0403 14:06:32.571069 29223 net.cpp:156] Memory required for data: 831586800
I0403 14:06:32.571082 29223 layer_factory.hpp:77] Creating layer prob
I0403 14:06:32.571101 29223 net.cpp:91] Creating Layer prob
I0403 14:06:32.571117 29223 net.cpp:425] prob <- fc8_plantvillage_fc8_plantvillage_0_split_0
I0403 14:06:32.571136 29223 net.cpp:399] prob -> prob
I0403 14:06:32.571355 29223 net.cpp:141] Setting up prob
I0403 14:06:32.571382 29223 net.cpp:148] Top shape: 100 38 (3800)
I0403 14:06:32.571396 29223 net.cpp:156] Memory required for data: 831602000
I0403 14:06:32.571411 29223 layer_factory.hpp:77] Creating layer hdf5out
I0403 14:06:32.571434 29223 net.cpp:91] Creating Layer hdf5out
I0403 14:06:32.571452 29223 net.cpp:425] hdf5out <- prob
I0403 14:06:32.571468 29223 net.cpp:425] hdf5out <- label_data_1_split_0
I0403 14:06:32.575378 29223 net.cpp:141] Setting up hdf5out
…
