…
I0403 14:28:27.259995 29746 net.cpp:313] The NetState phase (1) differed from the phase (0) specified by a rule in layer data
I0403 14:28:27.260383 29746 net.cpp:49] Initializing net from parameters: 
state {
  phase: TEST
}
layer {
  name: "data"
  type: "Data"
  top: "data"
  top: "label"
  include {
    phase: TEST
  }
  transform_param {
    crop_size: 227
    mean_file: "/home/mohanty/data/final_dataset/lmdb/color-20-80/mean.binaryproto"
  }
  data_param {
    source: "/home/mohanty/data/final_dataset/lmdb/color-20-80/test_db"
    batch_size: 100
    backend: LMDB
  }
}
layer {
  name: "conv1"
  type: "Convolution"
  bottom: "data"
  top: "conv1"
  param {
    lr_mult: 1
    decay_mult: 1
  }
  param {
    lr_mult: 2
    decay_mult: 0
  }
  convolution_param {
    num_output: 96
    kernel_size: 11
    stride: 4
    weight_filler {
      type: "gaussian"
      std: 0.01
    }
    bias_filler {
      type: "constant"
      value: 0
    }
  }
}
layer {
  name: "relu1"
  type: "ReLU"
  bottom: "conv1"
  top: "conv1"
}
layer {
  name: "norm1"
  type: "LRN"
  bottom: "conv1"
  top: "norm1"
  lrn_param {
    local_size: 5
    alpha: 0.0001
    beta: 0.75
  }
}
layer {
  name: "pool1"
  type: "Pooling"
  bottom: "norm1"
  top: "pool1"
  pooling_param {
    pool: MAX
    kernel_size: 3
    stride: 2
  }
}
layer {
  name: "conv2"
  type: "Convolution"
  bottom: "pool1"
  top: "conv2"
  param {
    lr_mult: 1
    decay_mult: 1
  }
  param {
    lr_mult: 2
    decay_mult: 0
  }
  convolution_param {
    num_output: 256
    pad: 2
    kernel_size: 5
    group: 2
    weight_filler {
      type: "gaussian"
      std: 0.01
    }
    bias_filler {
      type: "constant"
      value: 0.1
    }
  }
}
layer {
  name: "relu2"
  type: "ReLU"
  bottom: "conv2"
  top: "conv2"
}
layer {
  name: "norm2"
  type: "LRN"
  bottom: "conv2"
  top: "norm2"
  lrn_param {
    local_size: 5
    alpha: 0.0001
    beta: 0.75
  }
}
layer {
  name: "pool2"
  type: "Pooling"
  bottom: "norm2"
  top: "pool2"
  pooling_param {
    pool: MAX
    kernel_size: 3
    stride: 2
  }
}
layer {
  name: "conv3"
  type: "Convolution"
  bottom: "pool2"
  top: "conv3"
  param {
    lr_mult: 1
    decay_mult: 1
  }
  param {
    lr_mult: 2
    decay_mult: 0
  }
  convolution_param {
    num_output: 384
    pad: 1
    kernel_size: 3
    weight_filler {
      type: "gaussian"
      std: 0.01
    }
    bias_filler {
      type: "constant"
      value: 0
    }
  }
}
layer {
  name: "relu3"
  type: "ReLU"
  bottom: "conv3"
  top: "conv3"
}
layer {
  name: "conv4"
  type: "Convolution"
  bottom: "conv3"
  top: "conv4"
  param {
    lr_mult: 1
    decay_mult: 1
  }
  param {
    lr_mult: 2
    decay_mult: 0
  }
  convolution_param {
    num_output: 384
    pad: 1
    kernel_size: 3
    group: 2
    weight_filler {
      type: "gaussian"
      std: 0.01
    }
    bias_filler {
      type: "constant"
      value: 0.1
    }
  }
}
layer {
  name: "relu4"
  type: "ReLU"
  bottom: "conv4"
  top: "conv4"
}
layer {
  name: "conv5"
  type: "Convolution"
  bottom: "conv4"
  top: "conv5"
  param {
    lr_mult: 1
    decay_mult: 1
  }
  param {
    lr_mult: 2
    decay_mult: 0
  }
  convolution_param {
    num_output: 256
    pad: 1
    kernel_size: 3
    group: 2
    weight_filler {
      type: "gaussian"
      std: 0.01
    }
    bias_filler {
      type: "constant"
      value: 0.1
    }
  }
}
layer {
  name: "relu5"
  type: "ReLU"
  bottom: "conv5"
  top: "conv5"
}
layer {
  name: "pool5"
  type: "Pooling"
  bottom: "conv5"
  top: "pool5"
  pooling_param {
    pool: MAX
    kernel_size: 3
    stride: 2
  }
}
layer {
  name: "fc6"
  type: "InnerProduct"
  bottom: "pool5"
  top: "fc6"
  param {
    lr_mult: 1
    decay_mult: 1
  }
  param {
    lr_mult: 2
    decay_mult: 0
  }
  inner_product_param {
    num_output: 4096
    weight_filler {
      type: "gaussian"
      std: 0.005
    }
    bias_filler {
      type: "constant"
      value: 0.1
    }
  }
}
layer {
  name: "relu6"
  type: "ReLU"
  bottom: "fc6"
  top: "fc6"
}
layer {
  name: "drop6"
  type: "Dropout"
  bottom: "fc6"
  top: "fc6"
  dropout_param {
    dropout_ratio: 0.5
  }
}
layer {
  name: "fc7"
  type: "InnerProduct"
  bottom: "fc6"
  top: "fc7"
  param {
    lr_mult: 1
    decay_mult: 1
  }
  param {
    lr_mult: 2
    decay_mult: 0
  }
  inner_product_param {
    num_output: 4096
    weight_filler {
      type: "gaussian"
      std: 0.005
    }
    bias_filler {
      type: "constant"
      value: 0.1
    }
  }
}
layer {
  name: "relu7"
  type: "ReLU"
  bottom: "fc7"
  top: "fc7"
}
layer {
  name: "drop7"
  type: "Dropout"
  bottom: "fc7"
  top: "fc7"
  dropout_param {
    dropout_ratio: 0.5
  }
}
layer {
  name: "fc8_plantvillage"
  type: "InnerProduct"
  bottom: "fc7"
  top: "fc8_plantvillage"
  param {
    lr_mult: 1
    decay_mult: 1
  }
  param {
    lr_mult: 2
    decay_mult: 0
  }
  inner_product_param {
    num_output: 38
    weight_filler {
      type: "gaussian"
      std: 0.01
    }
    bias_filler {
      type: "constant"
      value: 0
    }
  }
}
layer {
  name: "prob"
  type: "Softmax"
  bottom: "fc8_plantvillage"
  top: "prob"
  include {
    phase: TEST
  }
}
layer {
  name: "hdf5out"
  type: "HDF5Output"
  bottom: "prob"
  bottom: "label"
  include {
    phase: TEST
  }
  hdf5_output_param {
    file_name: "hdf5_dumps/iter_1836.h5"
  }
}
layer {
  name: "loss"
  type: "SoftmaxWithLoss"
  bottom: "fc8_plantvillage"
  bottom: "label"
  top: "loss"
}
layer {
  name: "accuracy"
  type: "Accuracy"
  bottom: "fc8_plantvillage"
  bottom: "label"
  top: "accuracy"
  include {
    phase: TEST
  }
}
I0403 14:28:27.260956 29746 layer_factory.hpp:77] Creating layer data
I0403 14:28:27.261611 29746 net.cpp:91] Creating Layer data
I0403 14:28:27.261644 29746 net.cpp:399] data -> data
I0403 14:28:27.261700 29746 net.cpp:399] data -> label
I0403 14:28:27.261739 29746 data_transformer.cpp:25] Loading mean file from: /home/mohanty/data/final_dataset/lmdb/color-20-80/mean.binaryproto
I0403 14:28:27.264092 29749 db_lmdb.cpp:38] Opened lmdb /home/mohanty/data/final_dataset/lmdb/color-20-80/test_db
I0403 14:28:27.276407 29746 data_layer.cpp:41] output data size: 100,3,227,227
I0403 14:28:27.410162 29746 net.cpp:141] Setting up data
I0403 14:28:27.410269 29746 net.cpp:148] Top shape: 100 3 227 227 (15458700)
I0403 14:28:27.410295 29746 net.cpp:148] Top shape: 100 (100)
I0403 14:28:27.410311 29746 net.cpp:156] Memory required for data: 61835200
I0403 14:28:27.410341 29746 layer_factory.hpp:77] Creating layer label_data_1_split
I0403 14:28:27.410368 29746 net.cpp:91] Creating Layer label_data_1_split
I0403 14:28:27.410388 29746 net.cpp:425] label_data_1_split <- label
I0403 14:28:27.410420 29746 net.cpp:399] label_data_1_split -> label_data_1_split_0
I0403 14:28:27.410449 29746 net.cpp:399] label_data_1_split -> label_data_1_split_1
I0403 14:28:27.410471 29746 net.cpp:399] label_data_1_split -> label_data_1_split_2
I0403 14:28:27.410547 29746 net.cpp:141] Setting up label_data_1_split
I0403 14:28:27.410570 29746 net.cpp:148] Top shape: 100 (100)
I0403 14:28:27.410588 29746 net.cpp:148] Top shape: 100 (100)
I0403 14:28:27.410604 29746 net.cpp:148] Top shape: 100 (100)
I0403 14:28:27.410620 29746 net.cpp:156] Memory required for data: 61836400
I0403 14:28:27.410635 29746 layer_factory.hpp:77] Creating layer conv1
I0403 14:28:27.410667 29746 net.cpp:91] Creating Layer conv1
I0403 14:28:27.410687 29746 net.cpp:425] conv1 <- data
I0403 14:28:27.410708 29746 net.cpp:399] conv1 -> conv1
I0403 14:28:27.560092 29746 net.cpp:141] Setting up conv1
I0403 14:28:27.560173 29746 net.cpp:148] Top shape: 100 96 55 55 (29040000)
I0403 14:28:27.560192 29746 net.cpp:156] Memory required for data: 177996400
I0403 14:28:27.560225 29746 layer_factory.hpp:77] Creating layer relu1
I0403 14:28:27.560256 29746 net.cpp:91] Creating Layer relu1
I0403 14:28:27.560276 29746 net.cpp:425] relu1 <- conv1
I0403 14:28:27.560302 29746 net.cpp:386] relu1 -> conv1 (in-place)
I0403 14:28:27.560575 29746 net.cpp:141] Setting up relu1
I0403 14:28:27.560605 29746 net.cpp:148] Top shape: 100 96 55 55 (29040000)
I0403 14:28:27.560621 29746 net.cpp:156] Memory required for data: 294156400
I0403 14:28:27.560673 29746 layer_factory.hpp:77] Creating layer norm1
I0403 14:28:27.560703 29746 net.cpp:91] Creating Layer norm1
I0403 14:28:27.560724 29746 net.cpp:425] norm1 <- conv1
I0403 14:28:27.560745 29746 net.cpp:399] norm1 -> norm1
I0403 14:28:27.561071 29746 net.cpp:141] Setting up norm1
I0403 14:28:27.561102 29746 net.cpp:148] Top shape: 100 96 55 55 (29040000)
I0403 14:28:27.561120 29746 net.cpp:156] Memory required for data: 410316400
I0403 14:28:27.561137 29746 layer_factory.hpp:77] Creating layer pool1
I0403 14:28:27.561161 29746 net.cpp:91] Creating Layer pool1
I0403 14:28:27.561182 29746 net.cpp:425] pool1 <- norm1
I0403 14:28:27.561204 29746 net.cpp:399] pool1 -> pool1
I0403 14:28:27.561277 29746 net.cpp:141] Setting up pool1
I0403 14:28:27.561311 29746 net.cpp:148] Top shape: 100 96 27 27 (6998400)
I0403 14:28:27.561328 29746 net.cpp:156] Memory required for data: 438310000
I0403 14:28:27.561345 29746 layer_factory.hpp:77] Creating layer conv2
I0403 14:28:27.561374 29746 net.cpp:91] Creating Layer conv2
I0403 14:28:27.561393 29746 net.cpp:425] conv2 <- pool1
I0403 14:28:27.561414 29746 net.cpp:399] conv2 -> conv2
I0403 14:28:27.577183 29746 net.cpp:141] Setting up conv2
I0403 14:28:27.577217 29746 net.cpp:148] Top shape: 100 256 27 27 (18662400)
I0403 14:28:27.577236 29746 net.cpp:156] Memory required for data: 512959600
I0403 14:28:27.577258 29746 layer_factory.hpp:77] Creating layer relu2
I0403 14:28:27.577278 29746 net.cpp:91] Creating Layer relu2
I0403 14:28:27.577301 29746 net.cpp:425] relu2 <- conv2
I0403 14:28:27.577324 29746 net.cpp:386] relu2 -> conv2 (in-place)
I0403 14:28:27.577620 29746 net.cpp:141] Setting up relu2
I0403 14:28:27.577646 29746 net.cpp:148] Top shape: 100 256 27 27 (18662400)
I0403 14:28:27.577663 29746 net.cpp:156] Memory required for data: 587609200
I0403 14:28:27.577679 29746 layer_factory.hpp:77] Creating layer norm2
I0403 14:28:27.577702 29746 net.cpp:91] Creating Layer norm2
I0403 14:28:27.577720 29746 net.cpp:425] norm2 <- conv2
I0403 14:28:27.577739 29746 net.cpp:399] norm2 -> norm2
I0403 14:28:27.577936 29746 net.cpp:141] Setting up norm2
I0403 14:28:27.577963 29746 net.cpp:148] Top shape: 100 256 27 27 (18662400)
I0403 14:28:27.577980 29746 net.cpp:156] Memory required for data: 662258800
I0403 14:28:27.577996 29746 layer_factory.hpp:77] Creating layer pool2
I0403 14:28:27.578016 29746 net.cpp:91] Creating Layer pool2
I0403 14:28:27.578032 29746 net.cpp:425] pool2 <- norm2
I0403 14:28:27.578052 29746 net.cpp:399] pool2 -> pool2
I0403 14:28:27.578105 29746 net.cpp:141] Setting up pool2
I0403 14:28:27.578130 29746 net.cpp:148] Top shape: 100 256 13 13 (4326400)
I0403 14:28:27.578146 29746 net.cpp:156] Memory required for data: 679564400
I0403 14:28:27.578161 29746 layer_factory.hpp:77] Creating layer conv3
I0403 14:28:27.578186 29746 net.cpp:91] Creating Layer conv3
I0403 14:28:27.578205 29746 net.cpp:425] conv3 <- pool2
I0403 14:28:27.578225 29746 net.cpp:399] conv3 -> conv3
I0403 14:28:27.623867 29746 net.cpp:141] Setting up conv3
I0403 14:28:27.623924 29746 net.cpp:148] Top shape: 100 384 13 13 (6489600)
I0403 14:28:27.623944 29746 net.cpp:156] Memory required for data: 705522800
I0403 14:28:27.623971 29746 layer_factory.hpp:77] Creating layer relu3
I0403 14:28:27.623994 29746 net.cpp:91] Creating Layer relu3
I0403 14:28:27.624013 29746 net.cpp:425] relu3 <- conv3
I0403 14:28:27.624037 29746 net.cpp:386] relu3 -> conv3 (in-place)
I0403 14:28:27.624331 29746 net.cpp:141] Setting up relu3
I0403 14:28:27.624359 29746 net.cpp:148] Top shape: 100 384 13 13 (6489600)
I0403 14:28:27.624377 29746 net.cpp:156] Memory required for data: 731481200
I0403 14:28:27.624394 29746 layer_factory.hpp:77] Creating layer conv4
I0403 14:28:27.624423 29746 net.cpp:91] Creating Layer conv4
I0403 14:28:27.624442 29746 net.cpp:425] conv4 <- conv3
I0403 14:28:27.624465 29746 net.cpp:399] conv4 -> conv4
I0403 14:28:27.656558 29746 net.cpp:141] Setting up conv4
I0403 14:28:27.656623 29746 net.cpp:148] Top shape: 100 384 13 13 (6489600)
I0403 14:28:27.656673 29746 net.cpp:156] Memory required for data: 757439600
I0403 14:28:27.656695 29746 layer_factory.hpp:77] Creating layer relu4
I0403 14:28:27.656719 29746 net.cpp:91] Creating Layer relu4
I0403 14:28:27.656738 29746 net.cpp:425] relu4 <- conv4
I0403 14:28:27.656761 29746 net.cpp:386] relu4 -> conv4 (in-place)
I0403 14:28:27.657035 29746 net.cpp:141] Setting up relu4
I0403 14:28:27.657066 29746 net.cpp:148] Top shape: 100 384 13 13 (6489600)
I0403 14:28:27.657084 29746 net.cpp:156] Memory required for data: 783398000
I0403 14:28:27.657101 29746 layer_factory.hpp:77] Creating layer conv5
I0403 14:28:27.657127 29746 net.cpp:91] Creating Layer conv5
I0403 14:28:27.657145 29746 net.cpp:425] conv5 <- conv4
I0403 14:28:27.657166 29746 net.cpp:399] conv5 -> conv5
I0403 14:28:27.678722 29746 net.cpp:141] Setting up conv5
I0403 14:28:27.678774 29746 net.cpp:148] Top shape: 100 256 13 13 (4326400)
I0403 14:28:27.678798 29746 net.cpp:156] Memory required for data: 800703600
I0403 14:28:27.678824 29746 layer_factory.hpp:77] Creating layer relu5
I0403 14:28:27.678849 29746 net.cpp:91] Creating Layer relu5
I0403 14:28:27.678866 29746 net.cpp:425] relu5 <- conv5
I0403 14:28:27.678889 29746 net.cpp:386] relu5 -> conv5 (in-place)
I0403 14:28:27.679164 29746 net.cpp:141] Setting up relu5
I0403 14:28:27.679193 29746 net.cpp:148] Top shape: 100 256 13 13 (4326400)
I0403 14:28:27.679209 29746 net.cpp:156] Memory required for data: 818009200
I0403 14:28:27.679226 29746 layer_factory.hpp:77] Creating layer pool5
I0403 14:28:27.679252 29746 net.cpp:91] Creating Layer pool5
I0403 14:28:27.679271 29746 net.cpp:425] pool5 <- conv5
I0403 14:28:27.679296 29746 net.cpp:399] pool5 -> pool5
I0403 14:28:27.679357 29746 net.cpp:141] Setting up pool5
I0403 14:28:27.679383 29746 net.cpp:148] Top shape: 100 256 6 6 (921600)
I0403 14:28:27.679397 29746 net.cpp:156] Memory required for data: 821695600
I0403 14:28:27.679412 29746 layer_factory.hpp:77] Creating layer fc6
I0403 14:28:27.679442 29746 net.cpp:91] Creating Layer fc6
I0403 14:28:27.679461 29746 net.cpp:425] fc6 <- pool5
I0403 14:28:27.679484 29746 net.cpp:399] fc6 -> fc6
I0403 14:28:29.253896 29746 net.cpp:141] Setting up fc6
I0403 14:28:29.253960 29746 net.cpp:148] Top shape: 100 4096 (409600)
I0403 14:28:29.253978 29746 net.cpp:156] Memory required for data: 823334000
I0403 14:28:29.254000 29746 layer_factory.hpp:77] Creating layer relu6
I0403 14:28:29.254026 29746 net.cpp:91] Creating Layer relu6
I0403 14:28:29.254046 29746 net.cpp:425] relu6 <- fc6
I0403 14:28:29.254068 29746 net.cpp:386] relu6 -> fc6 (in-place)
I0403 14:28:29.254310 29746 net.cpp:141] Setting up relu6
I0403 14:28:29.254336 29746 net.cpp:148] Top shape: 100 4096 (409600)
I0403 14:28:29.254354 29746 net.cpp:156] Memory required for data: 824972400
I0403 14:28:29.254369 29746 layer_factory.hpp:77] Creating layer drop6
I0403 14:28:29.254391 29746 net.cpp:91] Creating Layer drop6
I0403 14:28:29.254410 29746 net.cpp:425] drop6 <- fc6
I0403 14:28:29.254432 29746 net.cpp:386] drop6 -> fc6 (in-place)
I0403 14:28:29.254487 29746 net.cpp:141] Setting up drop6
I0403 14:28:29.254514 29746 net.cpp:148] Top shape: 100 4096 (409600)
I0403 14:28:29.254531 29746 net.cpp:156] Memory required for data: 826610800
I0403 14:28:29.254549 29746 layer_factory.hpp:77] Creating layer fc7
I0403 14:28:29.254571 29746 net.cpp:91] Creating Layer fc7
I0403 14:28:29.254588 29746 net.cpp:425] fc7 <- fc6
I0403 14:28:29.254611 29746 net.cpp:399] fc7 -> fc7
I0403 14:28:29.932973 29746 net.cpp:141] Setting up fc7
I0403 14:28:29.933018 29746 net.cpp:148] Top shape: 100 4096 (409600)
I0403 14:28:29.933037 29746 net.cpp:156] Memory required for data: 828249200
I0403 14:28:29.933059 29746 layer_factory.hpp:77] Creating layer relu7
I0403 14:28:29.933082 29746 net.cpp:91] Creating Layer relu7
I0403 14:28:29.933100 29746 net.cpp:425] relu7 <- fc7
I0403 14:28:29.933123 29746 net.cpp:386] relu7 -> fc7 (in-place)
I0403 14:28:29.933528 29746 net.cpp:141] Setting up relu7
I0403 14:28:29.933558 29746 net.cpp:148] Top shape: 100 4096 (409600)
I0403 14:28:29.933606 29746 net.cpp:156] Memory required for data: 829887600
I0403 14:28:29.933624 29746 layer_factory.hpp:77] Creating layer drop7
I0403 14:28:29.933643 29746 net.cpp:91] Creating Layer drop7
I0403 14:28:29.933660 29746 net.cpp:425] drop7 <- fc7
I0403 14:28:29.933681 29746 net.cpp:386] drop7 -> fc7 (in-place)
I0403 14:28:29.933725 29746 net.cpp:141] Setting up drop7
I0403 14:28:29.933749 29746 net.cpp:148] Top shape: 100 4096 (409600)
I0403 14:28:29.933766 29746 net.cpp:156] Memory required for data: 831526000
I0403 14:28:29.933782 29746 layer_factory.hpp:77] Creating layer fc8_plantvillage
I0403 14:28:29.933806 29746 net.cpp:91] Creating Layer fc8_plantvillage
I0403 14:28:29.933823 29746 net.cpp:425] fc8_plantvillage <- fc7
I0403 14:28:29.933845 29746 net.cpp:399] fc8_plantvillage -> fc8_plantvillage
I0403 14:28:29.940693 29746 net.cpp:141] Setting up fc8_plantvillage
I0403 14:28:29.940721 29746 net.cpp:148] Top shape: 100 38 (3800)
I0403 14:28:29.940738 29746 net.cpp:156] Memory required for data: 831541200
I0403 14:28:29.940758 29746 layer_factory.hpp:77] Creating layer fc8_plantvillage_fc8_plantvillage_0_split
I0403 14:28:29.940778 29746 net.cpp:91] Creating Layer fc8_plantvillage_fc8_plantvillage_0_split
I0403 14:28:29.940795 29746 net.cpp:425] fc8_plantvillage_fc8_plantvillage_0_split <- fc8_plantvillage
I0403 14:28:29.940817 29746 net.cpp:399] fc8_plantvillage_fc8_plantvillage_0_split -> fc8_plantvillage_fc8_plantvillage_0_split_0
I0403 14:28:29.940840 29746 net.cpp:399] fc8_plantvillage_fc8_plantvillage_0_split -> fc8_plantvillage_fc8_plantvillage_0_split_1
I0403 14:28:29.940861 29746 net.cpp:399] fc8_plantvillage_fc8_plantvillage_0_split -> fc8_plantvillage_fc8_plantvillage_0_split_2
I0403 14:28:29.940940 29746 net.cpp:141] Setting up fc8_plantvillage_fc8_plantvillage_0_split
I0403 14:28:29.940964 29746 net.cpp:148] Top shape: 100 38 (3800)
I0403 14:28:29.940981 29746 net.cpp:148] Top shape: 100 38 (3800)
I0403 14:28:29.940999 29746 net.cpp:148] Top shape: 100 38 (3800)
I0403 14:28:29.941015 29746 net.cpp:156] Memory required for data: 831586800
I0403 14:28:29.941030 29746 layer_factory.hpp:77] Creating layer prob
I0403 14:28:29.941050 29746 net.cpp:91] Creating Layer prob
I0403 14:28:29.941066 29746 net.cpp:425] prob <- fc8_plantvillage_fc8_plantvillage_0_split_0
I0403 14:28:29.941088 29746 net.cpp:399] prob -> prob
I0403 14:28:29.941326 29746 net.cpp:141] Setting up prob
I0403 14:28:29.941357 29746 net.cpp:148] Top shape: 100 38 (3800)
I0403 14:28:29.941375 29746 net.cpp:156] Memory required for data: 831602000
I0403 14:28:29.941393 29746 layer_factory.hpp:77] Creating layer hdf5out
I0403 14:28:29.941413 29746 net.cpp:91] Creating Layer hdf5out
I0403 14:28:29.941431 29746 net.cpp:425] hdf5out <- prob
I0403 14:28:29.941447 29746 net.cpp:425] hdf5out <- label_data_1_split_0
I0403 14:28:29.945878 29746 net.cpp:141] Setting up hdf5out
…
