…
I0403 14:41:43.099313 30133 net.cpp:313] The NetState phase (1) differed from the phase (0) specified by a rule in layer data
I0403 14:41:43.099602 30133 net.cpp:49] Initializing net from parameters: 
state {
  phase: TEST
}
layer {
  name: "data"
  type: "Data"
  top: "data"
  top: "label"
  include {
    phase: TEST
  }
  transform_param {
    crop_size: 227
    mean_file: "/home/mohanty/data/final_dataset/lmdb/color-20-80/mean.binaryproto"
  }
  data_param {
    source: "/home/mohanty/data/final_dataset/lmdb/color-20-80/test_db"
    batch_size: 100
    backend: LMDB
  }
}
layer {
  name: "conv1"
  type: "Convolution"
  bottom: "data"
  top: "conv1"
  param {
    lr_mult: 1
    decay_mult: 1
  }
  param {
    lr_mult: 2
    decay_mult: 0
  }
  convolution_param {
    num_output: 96
    kernel_size: 11
    stride: 4
    weight_filler {
      type: "gaussian"
      std: 0.01
    }
    bias_filler {
      type: "constant"
      value: 0
    }
  }
}
layer {
  name: "relu1"
  type: "ReLU"
  bottom: "conv1"
  top: "conv1"
}
layer {
  name: "norm1"
  type: "LRN"
  bottom: "conv1"
  top: "norm1"
  lrn_param {
    local_size: 5
    alpha: 0.0001
    beta: 0.75
  }
}
layer {
  name: "pool1"
  type: "Pooling"
  bottom: "norm1"
  top: "pool1"
  pooling_param {
    pool: MAX
    kernel_size: 3
    stride: 2
  }
}
layer {
  name: "conv2"
  type: "Convolution"
  bottom: "pool1"
  top: "conv2"
  param {
    lr_mult: 1
    decay_mult: 1
  }
  param {
    lr_mult: 2
    decay_mult: 0
  }
  convolution_param {
    num_output: 256
    pad: 2
    kernel_size: 5
    group: 2
    weight_filler {
      type: "gaussian"
      std: 0.01
    }
    bias_filler {
      type: "constant"
      value: 0.1
    }
  }
}
layer {
  name: "relu2"
  type: "ReLU"
  bottom: "conv2"
  top: "conv2"
}
layer {
  name: "norm2"
  type: "LRN"
  bottom: "conv2"
  top: "norm2"
  lrn_param {
    local_size: 5
    alpha: 0.0001
    beta: 0.75
  }
}
layer {
  name: "pool2"
  type: "Pooling"
  bottom: "norm2"
  top: "pool2"
  pooling_param {
    pool: MAX
    kernel_size: 3
    stride: 2
  }
}
layer {
  name: "conv3"
  type: "Convolution"
  bottom: "pool2"
  top: "conv3"
  param {
    lr_mult: 1
    decay_mult: 1
  }
  param {
    lr_mult: 2
    decay_mult: 0
  }
  convolution_param {
    num_output: 384
    pad: 1
    kernel_size: 3
    weight_filler {
      type: "gaussian"
      std: 0.01
    }
    bias_filler {
      type: "constant"
      value: 0
    }
  }
}
layer {
  name: "relu3"
  type: "ReLU"
  bottom: "conv3"
  top: "conv3"
}
layer {
  name: "conv4"
  type: "Convolution"
  bottom: "conv3"
  top: "conv4"
  param {
    lr_mult: 1
    decay_mult: 1
  }
  param {
    lr_mult: 2
    decay_mult: 0
  }
  convolution_param {
    num_output: 384
    pad: 1
    kernel_size: 3
    group: 2
    weight_filler {
      type: "gaussian"
      std: 0.01
    }
    bias_filler {
      type: "constant"
      value: 0.1
    }
  }
}
layer {
  name: "relu4"
  type: "ReLU"
  bottom: "conv4"
  top: "conv4"
}
layer {
  name: "conv5"
  type: "Convolution"
  bottom: "conv4"
  top: "conv5"
  param {
    lr_mult: 1
    decay_mult: 1
  }
  param {
    lr_mult: 2
    decay_mult: 0
  }
  convolution_param {
    num_output: 256
    pad: 1
    kernel_size: 3
    group: 2
    weight_filler {
      type: "gaussian"
      std: 0.01
    }
    bias_filler {
      type: "constant"
      value: 0.1
    }
  }
}
layer {
  name: "relu5"
  type: "ReLU"
  bottom: "conv5"
  top: "conv5"
}
layer {
  name: "pool5"
  type: "Pooling"
  bottom: "conv5"
  top: "pool5"
  pooling_param {
    pool: MAX
    kernel_size: 3
    stride: 2
  }
}
layer {
  name: "fc6"
  type: "InnerProduct"
  bottom: "pool5"
  top: "fc6"
  param {
    lr_mult: 1
    decay_mult: 1
  }
  param {
    lr_mult: 2
    decay_mult: 0
  }
  inner_product_param {
    num_output: 4096
    weight_filler {
      type: "gaussian"
      std: 0.005
    }
    bias_filler {
      type: "constant"
      value: 0.1
    }
  }
}
layer {
  name: "relu6"
  type: "ReLU"
  bottom: "fc6"
  top: "fc6"
}
layer {
  name: "drop6"
  type: "Dropout"
  bottom: "fc6"
  top: "fc6"
  dropout_param {
    dropout_ratio: 0.5
  }
}
layer {
  name: "fc7"
  type: "InnerProduct"
  bottom: "fc6"
  top: "fc7"
  param {
    lr_mult: 1
    decay_mult: 1
  }
  param {
    lr_mult: 2
    decay_mult: 0
  }
  inner_product_param {
    num_output: 4096
    weight_filler {
      type: "gaussian"
      std: 0.005
    }
    bias_filler {
      type: "constant"
      value: 0.1
    }
  }
}
layer {
  name: "relu7"
  type: "ReLU"
  bottom: "fc7"
  top: "fc7"
}
layer {
  name: "drop7"
  type: "Dropout"
  bottom: "fc7"
  top: "fc7"
  dropout_param {
    dropout_ratio: 0.5
  }
}
layer {
  name: "fc8_plantvillage"
  type: "InnerProduct"
  bottom: "fc7"
  top: "fc8_plantvillage"
  param {
    lr_mult: 1
    decay_mult: 1
  }
  param {
    lr_mult: 2
    decay_mult: 0
  }
  inner_product_param {
    num_output: 38
    weight_filler {
      type: "gaussian"
      std: 0.01
    }
    bias_filler {
      type: "constant"
      value: 0
    }
  }
}
layer {
  name: "prob"
  type: "Softmax"
  bottom: "fc8_plantvillage"
  top: "prob"
  include {
    phase: TEST
  }
}
layer {
  name: "hdf5out"
  type: "HDF5Output"
  bottom: "prob"
  bottom: "label"
  include {
    phase: TEST
  }
  hdf5_output_param {
    file_name: "hdf5_dumps/iter_2808.h5"
  }
}
layer {
  name: "loss"
  type: "SoftmaxWithLoss"
  bottom: "fc8_plantvillage"
  bottom: "label"
  top: "loss"
}
layer {
  name: "accuracy"
  type: "Accuracy"
  bottom: "fc8_plantvillage"
  bottom: "label"
  top: "accuracy"
  include {
    phase: TEST
  }
}
I0403 14:41:43.100198 30133 layer_factory.hpp:77] Creating layer data
I0403 14:41:43.100888 30133 net.cpp:91] Creating Layer data
I0403 14:41:43.100920 30133 net.cpp:399] data -> data
I0403 14:41:43.100972 30133 net.cpp:399] data -> label
I0403 14:41:43.101009 30133 data_transformer.cpp:25] Loading mean file from: /home/mohanty/data/final_dataset/lmdb/color-20-80/mean.binaryproto
I0403 14:41:43.103528 30136 db_lmdb.cpp:38] Opened lmdb /home/mohanty/data/final_dataset/lmdb/color-20-80/test_db
I0403 14:41:43.115037 30133 data_layer.cpp:41] output data size: 100,3,227,227
I0403 14:41:43.246624 30133 net.cpp:141] Setting up data
I0403 14:41:43.246692 30133 net.cpp:148] Top shape: 100 3 227 227 (15458700)
I0403 14:41:43.246716 30133 net.cpp:148] Top shape: 100 (100)
I0403 14:41:43.246733 30133 net.cpp:156] Memory required for data: 61835200
I0403 14:41:43.246763 30133 layer_factory.hpp:77] Creating layer label_data_1_split
I0403 14:41:43.246790 30133 net.cpp:91] Creating Layer label_data_1_split
I0403 14:41:43.246810 30133 net.cpp:425] label_data_1_split <- label
I0403 14:41:43.246845 30133 net.cpp:399] label_data_1_split -> label_data_1_split_0
I0403 14:41:43.246871 30133 net.cpp:399] label_data_1_split -> label_data_1_split_1
I0403 14:41:43.246893 30133 net.cpp:399] label_data_1_split -> label_data_1_split_2
I0403 14:41:43.246956 30133 net.cpp:141] Setting up label_data_1_split
I0403 14:41:43.246981 30133 net.cpp:148] Top shape: 100 (100)
I0403 14:41:43.246999 30133 net.cpp:148] Top shape: 100 (100)
I0403 14:41:43.247017 30133 net.cpp:148] Top shape: 100 (100)
I0403 14:41:43.247031 30133 net.cpp:156] Memory required for data: 61836400
I0403 14:41:43.247047 30133 layer_factory.hpp:77] Creating layer conv1
I0403 14:41:43.247092 30133 net.cpp:91] Creating Layer conv1
I0403 14:41:43.247115 30133 net.cpp:425] conv1 <- data
I0403 14:41:43.247135 30133 net.cpp:399] conv1 -> conv1
I0403 14:41:43.397466 30133 net.cpp:141] Setting up conv1
I0403 14:41:43.397521 30133 net.cpp:148] Top shape: 100 96 55 55 (29040000)
I0403 14:41:43.397541 30133 net.cpp:156] Memory required for data: 177996400
I0403 14:41:43.397575 30133 layer_factory.hpp:77] Creating layer relu1
I0403 14:41:43.397605 30133 net.cpp:91] Creating Layer relu1
I0403 14:41:43.397625 30133 net.cpp:425] relu1 <- conv1
I0403 14:41:43.397647 30133 net.cpp:386] relu1 -> conv1 (in-place)
I0403 14:41:43.397915 30133 net.cpp:141] Setting up relu1
I0403 14:41:43.397944 30133 net.cpp:148] Top shape: 100 96 55 55 (29040000)
I0403 14:41:43.397961 30133 net.cpp:156] Memory required for data: 294156400
I0403 14:41:43.398011 30133 layer_factory.hpp:77] Creating layer norm1
I0403 14:41:43.398042 30133 net.cpp:91] Creating Layer norm1
I0403 14:41:43.398063 30133 net.cpp:425] norm1 <- conv1
I0403 14:41:43.398083 30133 net.cpp:399] norm1 -> norm1
I0403 14:41:43.398403 30133 net.cpp:141] Setting up norm1
I0403 14:41:43.398434 30133 net.cpp:148] Top shape: 100 96 55 55 (29040000)
I0403 14:41:43.398452 30133 net.cpp:156] Memory required for data: 410316400
I0403 14:41:43.398468 30133 layer_factory.hpp:77] Creating layer pool1
I0403 14:41:43.398494 30133 net.cpp:91] Creating Layer pool1
I0403 14:41:43.398512 30133 net.cpp:425] pool1 <- norm1
I0403 14:41:43.398533 30133 net.cpp:399] pool1 -> pool1
I0403 14:41:43.398603 30133 net.cpp:141] Setting up pool1
I0403 14:41:43.398629 30133 net.cpp:148] Top shape: 100 96 27 27 (6998400)
I0403 14:41:43.398646 30133 net.cpp:156] Memory required for data: 438310000
I0403 14:41:43.398663 30133 layer_factory.hpp:77] Creating layer conv2
I0403 14:41:43.398689 30133 net.cpp:91] Creating Layer conv2
I0403 14:41:43.398706 30133 net.cpp:425] conv2 <- pool1
I0403 14:41:43.398727 30133 net.cpp:399] conv2 -> conv2
I0403 14:41:43.414068 30133 net.cpp:141] Setting up conv2
I0403 14:41:43.414115 30133 net.cpp:148] Top shape: 100 256 27 27 (18662400)
I0403 14:41:43.414134 30133 net.cpp:156] Memory required for data: 512959600
I0403 14:41:43.414160 30133 layer_factory.hpp:77] Creating layer relu2
I0403 14:41:43.414180 30133 net.cpp:91] Creating Layer relu2
I0403 14:41:43.414198 30133 net.cpp:425] relu2 <- conv2
I0403 14:41:43.414217 30133 net.cpp:386] relu2 -> conv2 (in-place)
I0403 14:41:43.414515 30133 net.cpp:141] Setting up relu2
I0403 14:41:43.414544 30133 net.cpp:148] Top shape: 100 256 27 27 (18662400)
I0403 14:41:43.414562 30133 net.cpp:156] Memory required for data: 587609200
I0403 14:41:43.414578 30133 layer_factory.hpp:77] Creating layer norm2
I0403 14:41:43.414602 30133 net.cpp:91] Creating Layer norm2
I0403 14:41:43.414620 30133 net.cpp:425] norm2 <- conv2
I0403 14:41:43.414640 30133 net.cpp:399] norm2 -> norm2
I0403 14:41:43.414837 30133 net.cpp:141] Setting up norm2
I0403 14:41:43.414865 30133 net.cpp:148] Top shape: 100 256 27 27 (18662400)
I0403 14:41:43.414882 30133 net.cpp:156] Memory required for data: 662258800
I0403 14:41:43.414901 30133 layer_factory.hpp:77] Creating layer pool2
I0403 14:41:43.414921 30133 net.cpp:91] Creating Layer pool2
I0403 14:41:43.414938 30133 net.cpp:425] pool2 <- norm2
I0403 14:41:43.414958 30133 net.cpp:399] pool2 -> pool2
I0403 14:41:43.415010 30133 net.cpp:141] Setting up pool2
I0403 14:41:43.415036 30133 net.cpp:148] Top shape: 100 256 13 13 (4326400)
I0403 14:41:43.415052 30133 net.cpp:156] Memory required for data: 679564400
I0403 14:41:43.415071 30133 layer_factory.hpp:77] Creating layer conv3
I0403 14:41:43.415093 30133 net.cpp:91] Creating Layer conv3
I0403 14:41:43.415112 30133 net.cpp:425] conv3 <- pool2
I0403 14:41:43.415132 30133 net.cpp:399] conv3 -> conv3
I0403 14:41:43.463943 30133 net.cpp:141] Setting up conv3
I0403 14:41:43.464013 30133 net.cpp:148] Top shape: 100 384 13 13 (6489600)
I0403 14:41:43.464031 30133 net.cpp:156] Memory required for data: 705522800
I0403 14:41:43.464061 30133 layer_factory.hpp:77] Creating layer relu3
I0403 14:41:43.464084 30133 net.cpp:91] Creating Layer relu3
I0403 14:41:43.464102 30133 net.cpp:425] relu3 <- conv3
I0403 14:41:43.464121 30133 net.cpp:386] relu3 -> conv3 (in-place)
I0403 14:41:43.464434 30133 net.cpp:141] Setting up relu3
I0403 14:41:43.464464 30133 net.cpp:148] Top shape: 100 384 13 13 (6489600)
I0403 14:41:43.464485 30133 net.cpp:156] Memory required for data: 731481200
I0403 14:41:43.464504 30133 layer_factory.hpp:77] Creating layer conv4
I0403 14:41:43.464529 30133 net.cpp:91] Creating Layer conv4
I0403 14:41:43.464548 30133 net.cpp:425] conv4 <- conv3
I0403 14:41:43.464571 30133 net.cpp:399] conv4 -> conv4
I0403 14:41:43.494875 30133 net.cpp:141] Setting up conv4
I0403 14:41:43.494925 30133 net.cpp:148] Top shape: 100 384 13 13 (6489600)
I0403 14:41:43.494964 30133 net.cpp:156] Memory required for data: 757439600
I0403 14:41:43.494988 30133 layer_factory.hpp:77] Creating layer relu4
I0403 14:41:43.495015 30133 net.cpp:91] Creating Layer relu4
I0403 14:41:43.495040 30133 net.cpp:425] relu4 <- conv4
I0403 14:41:43.495060 30133 net.cpp:386] relu4 -> conv4 (in-place)
I0403 14:41:43.495362 30133 net.cpp:141] Setting up relu4
I0403 14:41:43.495390 30133 net.cpp:148] Top shape: 100 384 13 13 (6489600)
I0403 14:41:43.495407 30133 net.cpp:156] Memory required for data: 783398000
I0403 14:41:43.495424 30133 layer_factory.hpp:77] Creating layer conv5
I0403 14:41:43.495452 30133 net.cpp:91] Creating Layer conv5
I0403 14:41:43.495472 30133 net.cpp:425] conv5 <- conv4
I0403 14:41:43.495494 30133 net.cpp:399] conv5 -> conv5
I0403 14:41:43.516702 30133 net.cpp:141] Setting up conv5
I0403 14:41:43.516757 30133 net.cpp:148] Top shape: 100 256 13 13 (4326400)
I0403 14:41:43.516775 30133 net.cpp:156] Memory required for data: 800703600
I0403 14:41:43.516803 30133 layer_factory.hpp:77] Creating layer relu5
I0403 14:41:43.516827 30133 net.cpp:91] Creating Layer relu5
I0403 14:41:43.516849 30133 net.cpp:425] relu5 <- conv5
I0403 14:41:43.516868 30133 net.cpp:386] relu5 -> conv5 (in-place)
I0403 14:41:43.517158 30133 net.cpp:141] Setting up relu5
I0403 14:41:43.517187 30133 net.cpp:148] Top shape: 100 256 13 13 (4326400)
I0403 14:41:43.517204 30133 net.cpp:156] Memory required for data: 818009200
I0403 14:41:43.517220 30133 layer_factory.hpp:77] Creating layer pool5
I0403 14:41:43.517248 30133 net.cpp:91] Creating Layer pool5
I0403 14:41:43.517271 30133 net.cpp:425] pool5 <- conv5
I0403 14:41:43.517299 30133 net.cpp:399] pool5 -> pool5
I0403 14:41:43.517364 30133 net.cpp:141] Setting up pool5
I0403 14:41:43.517390 30133 net.cpp:148] Top shape: 100 256 6 6 (921600)
I0403 14:41:43.517406 30133 net.cpp:156] Memory required for data: 821695600
I0403 14:41:43.517422 30133 layer_factory.hpp:77] Creating layer fc6
I0403 14:41:43.517467 30133 net.cpp:91] Creating Layer fc6
I0403 14:41:43.517491 30133 net.cpp:425] fc6 <- pool5
I0403 14:41:43.517516 30133 net.cpp:399] fc6 -> fc6
I0403 14:41:45.064672 30133 net.cpp:141] Setting up fc6
I0403 14:41:45.064740 30133 net.cpp:148] Top shape: 100 4096 (409600)
I0403 14:41:45.064757 30133 net.cpp:156] Memory required for data: 823334000
I0403 14:41:45.064779 30133 layer_factory.hpp:77] Creating layer relu6
I0403 14:41:45.064801 30133 net.cpp:91] Creating Layer relu6
I0403 14:41:45.064820 30133 net.cpp:425] relu6 <- fc6
I0403 14:41:45.064842 30133 net.cpp:386] relu6 -> fc6 (in-place)
I0403 14:41:45.065057 30133 net.cpp:141] Setting up relu6
I0403 14:41:45.065081 30133 net.cpp:148] Top shape: 100 4096 (409600)
I0403 14:41:45.065098 30133 net.cpp:156] Memory required for data: 824972400
I0403 14:41:45.065111 30133 layer_factory.hpp:77] Creating layer drop6
I0403 14:41:45.065134 30133 net.cpp:91] Creating Layer drop6
I0403 14:41:45.065150 30133 net.cpp:425] drop6 <- fc6
I0403 14:41:45.065170 30133 net.cpp:386] drop6 -> fc6 (in-place)
I0403 14:41:45.065222 30133 net.cpp:141] Setting up drop6
I0403 14:41:45.065244 30133 net.cpp:148] Top shape: 100 4096 (409600)
I0403 14:41:45.065259 30133 net.cpp:156] Memory required for data: 826610800
I0403 14:41:45.065275 30133 layer_factory.hpp:77] Creating layer fc7
I0403 14:41:45.065301 30133 net.cpp:91] Creating Layer fc7
I0403 14:41:45.065320 30133 net.cpp:425] fc7 <- fc6
I0403 14:41:45.065343 30133 net.cpp:399] fc7 -> fc7
I0403 14:41:45.745921 30133 net.cpp:141] Setting up fc7
I0403 14:41:45.745987 30133 net.cpp:148] Top shape: 100 4096 (409600)
I0403 14:41:45.746006 30133 net.cpp:156] Memory required for data: 828249200
I0403 14:41:45.746026 30133 layer_factory.hpp:77] Creating layer relu7
I0403 14:41:45.746048 30133 net.cpp:91] Creating Layer relu7
I0403 14:41:45.746067 30133 net.cpp:425] relu7 <- fc7
I0403 14:41:45.746084 30133 net.cpp:386] relu7 -> fc7 (in-place)
I0403 14:41:45.746479 30133 net.cpp:141] Setting up relu7
I0403 14:41:45.746505 30133 net.cpp:148] Top shape: 100 4096 (409600)
I0403 14:41:45.746557 30133 net.cpp:156] Memory required for data: 829887600
I0403 14:41:45.746573 30133 layer_factory.hpp:77] Creating layer drop7
I0403 14:41:45.746593 30133 net.cpp:91] Creating Layer drop7
I0403 14:41:45.746610 30133 net.cpp:425] drop7 <- fc7
I0403 14:41:45.746628 30133 net.cpp:386] drop7 -> fc7 (in-place)
I0403 14:41:45.746672 30133 net.cpp:141] Setting up drop7
I0403 14:41:45.746696 30133 net.cpp:148] Top shape: 100 4096 (409600)
I0403 14:41:45.746711 30133 net.cpp:156] Memory required for data: 831526000
I0403 14:41:45.746726 30133 layer_factory.hpp:77] Creating layer fc8_plantvillage
I0403 14:41:45.746745 30133 net.cpp:91] Creating Layer fc8_plantvillage
I0403 14:41:45.746764 30133 net.cpp:425] fc8_plantvillage <- fc7
I0403 14:41:45.746783 30133 net.cpp:399] fc8_plantvillage -> fc8_plantvillage
I0403 14:41:45.753381 30133 net.cpp:141] Setting up fc8_plantvillage
I0403 14:41:45.753412 30133 net.cpp:148] Top shape: 100 38 (3800)
I0403 14:41:45.753427 30133 net.cpp:156] Memory required for data: 831541200
I0403 14:41:45.753446 30133 layer_factory.hpp:77] Creating layer fc8_plantvillage_fc8_plantvillage_0_split
I0403 14:41:45.753478 30133 net.cpp:91] Creating Layer fc8_plantvillage_fc8_plantvillage_0_split
I0403 14:41:45.753495 30133 net.cpp:425] fc8_plantvillage_fc8_plantvillage_0_split <- fc8_plantvillage
I0403 14:41:45.753515 30133 net.cpp:399] fc8_plantvillage_fc8_plantvillage_0_split -> fc8_plantvillage_fc8_plantvillage_0_split_0
I0403 14:41:45.753535 30133 net.cpp:399] fc8_plantvillage_fc8_plantvillage_0_split -> fc8_plantvillage_fc8_plantvillage_0_split_1
I0403 14:41:45.753559 30133 net.cpp:399] fc8_plantvillage_fc8_plantvillage_0_split -> fc8_plantvillage_fc8_plantvillage_0_split_2
I0403 14:41:45.753634 30133 net.cpp:141] Setting up fc8_plantvillage_fc8_plantvillage_0_split
I0403 14:41:45.753659 30133 net.cpp:148] Top shape: 100 38 (3800)
I0403 14:41:45.753676 30133 net.cpp:148] Top shape: 100 38 (3800)
I0403 14:41:45.753693 30133 net.cpp:148] Top shape: 100 38 (3800)
I0403 14:41:45.753707 30133 net.cpp:156] Memory required for data: 831586800
I0403 14:41:45.753722 30133 layer_factory.hpp:77] Creating layer prob
I0403 14:41:45.753744 30133 net.cpp:91] Creating Layer prob
I0403 14:41:45.753762 30133 net.cpp:425] prob <- fc8_plantvillage_fc8_plantvillage_0_split_0
I0403 14:41:45.753782 30133 net.cpp:399] prob -> prob
I0403 14:41:45.754029 30133 net.cpp:141] Setting up prob
I0403 14:41:45.754055 30133 net.cpp:148] Top shape: 100 38 (3800)
I0403 14:41:45.754070 30133 net.cpp:156] Memory required for data: 831602000
I0403 14:41:45.754086 30133 layer_factory.hpp:77] Creating layer hdf5out
I0403 14:41:45.754108 30133 net.cpp:91] Creating Layer hdf5out
I0403 14:41:45.754127 30133 net.cpp:425] hdf5out <- prob
I0403 14:41:45.754144 30133 net.cpp:425] hdf5out <- label_data_1_split_0
I0403 14:41:45.757501 30133 net.cpp:141] Setting up hdf5out
…
