…
I0403 14:46:09.939713 30276 net.cpp:313] The NetState phase (1) differed from the phase (0) specified by a rule in layer data
I0403 14:46:09.940001 30276 net.cpp:49] Initializing net from parameters: 
state {
  phase: TEST
}
layer {
  name: "data"
  type: "Data"
  top: "data"
  top: "label"
  include {
    phase: TEST
  }
  transform_param {
    crop_size: 227
    mean_file: "/home/mohanty/data/final_dataset/lmdb/color-20-80/mean.binaryproto"
  }
  data_param {
    source: "/home/mohanty/data/final_dataset/lmdb/color-20-80/test_db"
    batch_size: 100
    backend: LMDB
  }
}
layer {
  name: "conv1"
  type: "Convolution"
  bottom: "data"
  top: "conv1"
  param {
    lr_mult: 1
    decay_mult: 1
  }
  param {
    lr_mult: 2
    decay_mult: 0
  }
  convolution_param {
    num_output: 96
    kernel_size: 11
    stride: 4
    weight_filler {
      type: "gaussian"
      std: 0.01
    }
    bias_filler {
      type: "constant"
      value: 0
    }
  }
}
layer {
  name: "relu1"
  type: "ReLU"
  bottom: "conv1"
  top: "conv1"
}
layer {
  name: "norm1"
  type: "LRN"
  bottom: "conv1"
  top: "norm1"
  lrn_param {
    local_size: 5
    alpha: 0.0001
    beta: 0.75
  }
}
layer {
  name: "pool1"
  type: "Pooling"
  bottom: "norm1"
  top: "pool1"
  pooling_param {
    pool: MAX
    kernel_size: 3
    stride: 2
  }
}
layer {
  name: "conv2"
  type: "Convolution"
  bottom: "pool1"
  top: "conv2"
  param {
    lr_mult: 1
    decay_mult: 1
  }
  param {
    lr_mult: 2
    decay_mult: 0
  }
  convolution_param {
    num_output: 256
    pad: 2
    kernel_size: 5
    group: 2
    weight_filler {
      type: "gaussian"
      std: 0.01
    }
    bias_filler {
      type: "constant"
      value: 0.1
    }
  }
}
layer {
  name: "relu2"
  type: "ReLU"
  bottom: "conv2"
  top: "conv2"
}
layer {
  name: "norm2"
  type: "LRN"
  bottom: "conv2"
  top: "norm2"
  lrn_param {
    local_size: 5
    alpha: 0.0001
    beta: 0.75
  }
}
layer {
  name: "pool2"
  type: "Pooling"
  bottom: "norm2"
  top: "pool2"
  pooling_param {
    pool: MAX
    kernel_size: 3
    stride: 2
  }
}
layer {
  name: "conv3"
  type: "Convolution"
  bottom: "pool2"
  top: "conv3"
  param {
    lr_mult: 1
    decay_mult: 1
  }
  param {
    lr_mult: 2
    decay_mult: 0
  }
  convolution_param {
    num_output: 384
    pad: 1
    kernel_size: 3
    weight_filler {
      type: "gaussian"
      std: 0.01
    }
    bias_filler {
      type: "constant"
      value: 0
    }
  }
}
layer {
  name: "relu3"
  type: "ReLU"
  bottom: "conv3"
  top: "conv3"
}
layer {
  name: "conv4"
  type: "Convolution"
  bottom: "conv3"
  top: "conv4"
  param {
    lr_mult: 1
    decay_mult: 1
  }
  param {
    lr_mult: 2
    decay_mult: 0
  }
  convolution_param {
    num_output: 384
    pad: 1
    kernel_size: 3
    group: 2
    weight_filler {
      type: "gaussian"
      std: 0.01
    }
    bias_filler {
      type: "constant"
      value: 0.1
    }
  }
}
layer {
  name: "relu4"
  type: "ReLU"
  bottom: "conv4"
  top: "conv4"
}
layer {
  name: "conv5"
  type: "Convolution"
  bottom: "conv4"
  top: "conv5"
  param {
    lr_mult: 1
    decay_mult: 1
  }
  param {
    lr_mult: 2
    decay_mult: 0
  }
  convolution_param {
    num_output: 256
    pad: 1
    kernel_size: 3
    group: 2
    weight_filler {
      type: "gaussian"
      std: 0.01
    }
    bias_filler {
      type: "constant"
      value: 0.1
    }
  }
}
layer {
  name: "relu5"
  type: "ReLU"
  bottom: "conv5"
  top: "conv5"
}
layer {
  name: "pool5"
  type: "Pooling"
  bottom: "conv5"
  top: "pool5"
  pooling_param {
    pool: MAX
    kernel_size: 3
    stride: 2
  }
}
layer {
  name: "fc6"
  type: "InnerProduct"
  bottom: "pool5"
  top: "fc6"
  param {
    lr_mult: 1
    decay_mult: 1
  }
  param {
    lr_mult: 2
    decay_mult: 0
  }
  inner_product_param {
    num_output: 4096
    weight_filler {
      type: "gaussian"
      std: 0.005
    }
    bias_filler {
      type: "constant"
      value: 0.1
    }
  }
}
layer {
  name: "relu6"
  type: "ReLU"
  bottom: "fc6"
  top: "fc6"
}
layer {
  name: "drop6"
  type: "Dropout"
  bottom: "fc6"
  top: "fc6"
  dropout_param {
    dropout_ratio: 0.5
  }
}
layer {
  name: "fc7"
  type: "InnerProduct"
  bottom: "fc6"
  top: "fc7"
  param {
    lr_mult: 1
    decay_mult: 1
  }
  param {
    lr_mult: 2
    decay_mult: 0
  }
  inner_product_param {
    num_output: 4096
    weight_filler {
      type: "gaussian"
      std: 0.005
    }
    bias_filler {
      type: "constant"
      value: 0.1
    }
  }
}
layer {
  name: "relu7"
  type: "ReLU"
  bottom: "fc7"
  top: "fc7"
}
layer {
  name: "drop7"
  type: "Dropout"
  bottom: "fc7"
  top: "fc7"
  dropout_param {
    dropout_ratio: 0.5
  }
}
layer {
  name: "fc8_plantvillage"
  type: "InnerProduct"
  bottom: "fc7"
  top: "fc8_plantvillage"
  param {
    lr_mult: 1
    decay_mult: 1
  }
  param {
    lr_mult: 2
    decay_mult: 0
  }
  inner_product_param {
    num_output: 38
    weight_filler {
      type: "gaussian"
      std: 0.01
    }
    bias_filler {
      type: "constant"
      value: 0
    }
  }
}
layer {
  name: "prob"
  type: "Softmax"
  bottom: "fc8_plantvillage"
  top: "prob"
  include {
    phase: TEST
  }
}
layer {
  name: "hdf5out"
  type: "HDF5Output"
  bottom: "prob"
  bottom: "label"
  include {
    phase: TEST
  }
  hdf5_output_param {
    file_name: "hdf5_dumps/iter_3132.h5"
  }
}
layer {
  name: "loss"
  type: "SoftmaxWithLoss"
  bottom: "fc8_plantvillage"
  bottom: "label"
  top: "loss"
}
layer {
  name: "accuracy"
  type: "Accuracy"
  bottom: "fc8_plantvillage"
  bottom: "label"
  top: "accuracy"
  include {
    phase: TEST
  }
}
I0403 14:46:09.940516 30276 layer_factory.hpp:77] Creating layer data
I0403 14:46:09.941133 30276 net.cpp:91] Creating Layer data
I0403 14:46:09.941165 30276 net.cpp:399] data -> data
I0403 14:46:09.941218 30276 net.cpp:399] data -> label
I0403 14:46:09.941256 30276 data_transformer.cpp:25] Loading mean file from: /home/mohanty/data/final_dataset/lmdb/color-20-80/mean.binaryproto
I0403 14:46:09.944126 30283 db_lmdb.cpp:38] Opened lmdb /home/mohanty/data/final_dataset/lmdb/color-20-80/test_db
I0403 14:46:09.957007 30276 data_layer.cpp:41] output data size: 100,3,227,227
I0403 14:46:10.090240 30276 net.cpp:141] Setting up data
I0403 14:46:10.090332 30276 net.cpp:148] Top shape: 100 3 227 227 (15458700)
I0403 14:46:10.090374 30276 net.cpp:148] Top shape: 100 (100)
I0403 14:46:10.090390 30276 net.cpp:156] Memory required for data: 61835200
I0403 14:46:10.090417 30276 layer_factory.hpp:77] Creating layer label_data_1_split
I0403 14:46:10.090445 30276 net.cpp:91] Creating Layer label_data_1_split
I0403 14:46:10.090464 30276 net.cpp:425] label_data_1_split <- label
I0403 14:46:10.090495 30276 net.cpp:399] label_data_1_split -> label_data_1_split_0
I0403 14:46:10.090524 30276 net.cpp:399] label_data_1_split -> label_data_1_split_1
I0403 14:46:10.090545 30276 net.cpp:399] label_data_1_split -> label_data_1_split_2
I0403 14:46:10.090610 30276 net.cpp:141] Setting up label_data_1_split
I0403 14:46:10.090634 30276 net.cpp:148] Top shape: 100 (100)
I0403 14:46:10.090652 30276 net.cpp:148] Top shape: 100 (100)
I0403 14:46:10.090669 30276 net.cpp:148] Top shape: 100 (100)
I0403 14:46:10.090684 30276 net.cpp:156] Memory required for data: 61836400
I0403 14:46:10.090698 30276 layer_factory.hpp:77] Creating layer conv1
I0403 14:46:10.090736 30276 net.cpp:91] Creating Layer conv1
I0403 14:46:10.090755 30276 net.cpp:425] conv1 <- data
I0403 14:46:10.090776 30276 net.cpp:399] conv1 -> conv1
I0403 14:46:10.241770 30276 net.cpp:141] Setting up conv1
I0403 14:46:10.241845 30276 net.cpp:148] Top shape: 100 96 55 55 (29040000)
I0403 14:46:10.241864 30276 net.cpp:156] Memory required for data: 177996400
I0403 14:46:10.241896 30276 layer_factory.hpp:77] Creating layer relu1
I0403 14:46:10.241925 30276 net.cpp:91] Creating Layer relu1
I0403 14:46:10.241943 30276 net.cpp:425] relu1 <- conv1
I0403 14:46:10.241963 30276 net.cpp:386] relu1 -> conv1 (in-place)
I0403 14:46:10.242223 30276 net.cpp:141] Setting up relu1
I0403 14:46:10.242250 30276 net.cpp:148] Top shape: 100 96 55 55 (29040000)
I0403 14:46:10.242267 30276 net.cpp:156] Memory required for data: 294156400
I0403 14:46:10.242318 30276 layer_factory.hpp:77] Creating layer norm1
I0403 14:46:10.242347 30276 net.cpp:91] Creating Layer norm1
I0403 14:46:10.242367 30276 net.cpp:425] norm1 <- conv1
I0403 14:46:10.242385 30276 net.cpp:399] norm1 -> norm1
I0403 14:46:10.242697 30276 net.cpp:141] Setting up norm1
I0403 14:46:10.242727 30276 net.cpp:148] Top shape: 100 96 55 55 (29040000)
I0403 14:46:10.242743 30276 net.cpp:156] Memory required for data: 410316400
I0403 14:46:10.242758 30276 layer_factory.hpp:77] Creating layer pool1
I0403 14:46:10.242782 30276 net.cpp:91] Creating Layer pool1
I0403 14:46:10.242801 30276 net.cpp:425] pool1 <- norm1
I0403 14:46:10.242820 30276 net.cpp:399] pool1 -> pool1
I0403 14:46:10.242889 30276 net.cpp:141] Setting up pool1
I0403 14:46:10.242915 30276 net.cpp:148] Top shape: 100 96 27 27 (6998400)
I0403 14:46:10.242931 30276 net.cpp:156] Memory required for data: 438310000
I0403 14:46:10.242947 30276 layer_factory.hpp:77] Creating layer conv2
I0403 14:46:10.242975 30276 net.cpp:91] Creating Layer conv2
I0403 14:46:10.242995 30276 net.cpp:425] conv2 <- pool1
I0403 14:46:10.243015 30276 net.cpp:399] conv2 -> conv2
I0403 14:46:10.258402 30276 net.cpp:141] Setting up conv2
I0403 14:46:10.258455 30276 net.cpp:148] Top shape: 100 256 27 27 (18662400)
I0403 14:46:10.258472 30276 net.cpp:156] Memory required for data: 512959600
I0403 14:46:10.258496 30276 layer_factory.hpp:77] Creating layer relu2
I0403 14:46:10.258517 30276 net.cpp:91] Creating Layer relu2
I0403 14:46:10.258533 30276 net.cpp:425] relu2 <- conv2
I0403 14:46:10.258558 30276 net.cpp:386] relu2 -> conv2 (in-place)
I0403 14:46:10.258842 30276 net.cpp:141] Setting up relu2
I0403 14:46:10.258872 30276 net.cpp:148] Top shape: 100 256 27 27 (18662400)
I0403 14:46:10.258888 30276 net.cpp:156] Memory required for data: 587609200
I0403 14:46:10.258903 30276 layer_factory.hpp:77] Creating layer norm2
I0403 14:46:10.258927 30276 net.cpp:91] Creating Layer norm2
I0403 14:46:10.258944 30276 net.cpp:425] norm2 <- conv2
I0403 14:46:10.258962 30276 net.cpp:399] norm2 -> norm2
I0403 14:46:10.259210 30276 net.cpp:141] Setting up norm2
I0403 14:46:10.259241 30276 net.cpp:148] Top shape: 100 256 27 27 (18662400)
I0403 14:46:10.259258 30276 net.cpp:156] Memory required for data: 662258800
I0403 14:46:10.259274 30276 layer_factory.hpp:77] Creating layer pool2
I0403 14:46:10.259299 30276 net.cpp:91] Creating Layer pool2
I0403 14:46:10.259316 30276 net.cpp:425] pool2 <- norm2
I0403 14:46:10.259338 30276 net.cpp:399] pool2 -> pool2
I0403 14:46:10.259393 30276 net.cpp:141] Setting up pool2
I0403 14:46:10.259419 30276 net.cpp:148] Top shape: 100 256 13 13 (4326400)
I0403 14:46:10.259434 30276 net.cpp:156] Memory required for data: 679564400
I0403 14:46:10.259451 30276 layer_factory.hpp:77] Creating layer conv3
I0403 14:46:10.259475 30276 net.cpp:91] Creating Layer conv3
I0403 14:46:10.259495 30276 net.cpp:425] conv3 <- pool2
I0403 14:46:10.259515 30276 net.cpp:399] conv3 -> conv3
I0403 14:46:10.300927 30276 net.cpp:141] Setting up conv3
I0403 14:46:10.300982 30276 net.cpp:148] Top shape: 100 384 13 13 (6489600)
I0403 14:46:10.301000 30276 net.cpp:156] Memory required for data: 705522800
I0403 14:46:10.301023 30276 layer_factory.hpp:77] Creating layer relu3
I0403 14:46:10.301044 30276 net.cpp:91] Creating Layer relu3
I0403 14:46:10.301061 30276 net.cpp:425] relu3 <- conv3
I0403 14:46:10.301084 30276 net.cpp:386] relu3 -> conv3 (in-place)
I0403 14:46:10.301372 30276 net.cpp:141] Setting up relu3
I0403 14:46:10.301401 30276 net.cpp:148] Top shape: 100 384 13 13 (6489600)
I0403 14:46:10.301419 30276 net.cpp:156] Memory required for data: 731481200
I0403 14:46:10.301435 30276 layer_factory.hpp:77] Creating layer conv4
I0403 14:46:10.301460 30276 net.cpp:91] Creating Layer conv4
I0403 14:46:10.301478 30276 net.cpp:425] conv4 <- conv3
I0403 14:46:10.301497 30276 net.cpp:399] conv4 -> conv4
I0403 14:46:10.332206 30276 net.cpp:141] Setting up conv4
I0403 14:46:10.332288 30276 net.cpp:148] Top shape: 100 384 13 13 (6489600)
I0403 14:46:10.332337 30276 net.cpp:156] Memory required for data: 757439600
I0403 14:46:10.332360 30276 layer_factory.hpp:77] Creating layer relu4
I0403 14:46:10.332386 30276 net.cpp:91] Creating Layer relu4
I0403 14:46:10.332406 30276 net.cpp:425] relu4 <- conv4
I0403 14:46:10.332425 30276 net.cpp:386] relu4 -> conv4 (in-place)
I0403 14:46:10.332721 30276 net.cpp:141] Setting up relu4
I0403 14:46:10.332749 30276 net.cpp:148] Top shape: 100 384 13 13 (6489600)
I0403 14:46:10.332765 30276 net.cpp:156] Memory required for data: 783398000
I0403 14:46:10.332782 30276 layer_factory.hpp:77] Creating layer conv5
I0403 14:46:10.332810 30276 net.cpp:91] Creating Layer conv5
I0403 14:46:10.332829 30276 net.cpp:425] conv5 <- conv4
I0403 14:46:10.332849 30276 net.cpp:399] conv5 -> conv5
I0403 14:46:10.353790 30276 net.cpp:141] Setting up conv5
I0403 14:46:10.353840 30276 net.cpp:148] Top shape: 100 256 13 13 (4326400)
I0403 14:46:10.353859 30276 net.cpp:156] Memory required for data: 800703600
I0403 14:46:10.353884 30276 layer_factory.hpp:77] Creating layer relu5
I0403 14:46:10.353904 30276 net.cpp:91] Creating Layer relu5
I0403 14:46:10.353921 30276 net.cpp:425] relu5 <- conv5
I0403 14:46:10.353942 30276 net.cpp:386] relu5 -> conv5 (in-place)
I0403 14:46:10.354226 30276 net.cpp:141] Setting up relu5
I0403 14:46:10.354254 30276 net.cpp:148] Top shape: 100 256 13 13 (4326400)
I0403 14:46:10.354270 30276 net.cpp:156] Memory required for data: 818009200
I0403 14:46:10.354291 30276 layer_factory.hpp:77] Creating layer pool5
I0403 14:46:10.354315 30276 net.cpp:91] Creating Layer pool5
I0403 14:46:10.354333 30276 net.cpp:425] pool5 <- conv5
I0403 14:46:10.354357 30276 net.cpp:399] pool5 -> pool5
I0403 14:46:10.354423 30276 net.cpp:141] Setting up pool5
I0403 14:46:10.354449 30276 net.cpp:148] Top shape: 100 256 6 6 (921600)
I0403 14:46:10.354465 30276 net.cpp:156] Memory required for data: 821695600
I0403 14:46:10.354481 30276 layer_factory.hpp:77] Creating layer fc6
I0403 14:46:10.354511 30276 net.cpp:91] Creating Layer fc6
I0403 14:46:10.354531 30276 net.cpp:425] fc6 <- pool5
I0403 14:46:10.354552 30276 net.cpp:399] fc6 -> fc6
I0403 14:46:11.918129 30276 net.cpp:141] Setting up fc6
I0403 14:46:11.918172 30276 net.cpp:148] Top shape: 100 4096 (409600)
I0403 14:46:11.918190 30276 net.cpp:156] Memory required for data: 823334000
I0403 14:46:11.918210 30276 layer_factory.hpp:77] Creating layer relu6
I0403 14:46:11.918236 30276 net.cpp:91] Creating Layer relu6
I0403 14:46:11.918254 30276 net.cpp:425] relu6 <- fc6
I0403 14:46:11.918274 30276 net.cpp:386] relu6 -> fc6 (in-place)
I0403 14:46:11.918496 30276 net.cpp:141] Setting up relu6
I0403 14:46:11.918522 30276 net.cpp:148] Top shape: 100 4096 (409600)
I0403 14:46:11.918537 30276 net.cpp:156] Memory required for data: 824972400
I0403 14:46:11.918552 30276 layer_factory.hpp:77] Creating layer drop6
I0403 14:46:11.918570 30276 net.cpp:91] Creating Layer drop6
I0403 14:46:11.918587 30276 net.cpp:425] drop6 <- fc6
I0403 14:46:11.918607 30276 net.cpp:386] drop6 -> fc6 (in-place)
I0403 14:46:11.918658 30276 net.cpp:141] Setting up drop6
I0403 14:46:11.918683 30276 net.cpp:148] Top shape: 100 4096 (409600)
I0403 14:46:11.918697 30276 net.cpp:156] Memory required for data: 826610800
I0403 14:46:11.918714 30276 layer_factory.hpp:77] Creating layer fc7
I0403 14:46:11.918736 30276 net.cpp:91] Creating Layer fc7
I0403 14:46:11.918753 30276 net.cpp:425] fc7 <- fc6
I0403 14:46:11.918774 30276 net.cpp:399] fc7 -> fc7
I0403 14:46:12.599134 30276 net.cpp:141] Setting up fc7
I0403 14:46:12.599215 30276 net.cpp:148] Top shape: 100 4096 (409600)
I0403 14:46:12.599238 30276 net.cpp:156] Memory required for data: 828249200
I0403 14:46:12.599268 30276 layer_factory.hpp:77] Creating layer relu7
I0403 14:46:12.599320 30276 net.cpp:91] Creating Layer relu7
I0403 14:46:12.599346 30276 net.cpp:425] relu7 <- fc7
I0403 14:46:12.599375 30276 net.cpp:386] relu7 -> fc7 (in-place)
I0403 14:46:12.599791 30276 net.cpp:141] Setting up relu7
I0403 14:46:12.599822 30276 net.cpp:148] Top shape: 100 4096 (409600)
I0403 14:46:12.599863 30276 net.cpp:156] Memory required for data: 829887600
I0403 14:46:12.599880 30276 layer_factory.hpp:77] Creating layer drop7
I0403 14:46:12.599900 30276 net.cpp:91] Creating Layer drop7
I0403 14:46:12.599916 30276 net.cpp:425] drop7 <- fc7
I0403 14:46:12.599938 30276 net.cpp:386] drop7 -> fc7 (in-place)
I0403 14:46:12.599984 30276 net.cpp:141] Setting up drop7
I0403 14:46:12.600016 30276 net.cpp:148] Top shape: 100 4096 (409600)
I0403 14:46:12.600033 30276 net.cpp:156] Memory required for data: 831526000
I0403 14:46:12.600049 30276 layer_factory.hpp:77] Creating layer fc8_plantvillage
I0403 14:46:12.600078 30276 net.cpp:91] Creating Layer fc8_plantvillage
I0403 14:46:12.600097 30276 net.cpp:425] fc8_plantvillage <- fc7
I0403 14:46:12.600124 30276 net.cpp:399] fc8_plantvillage -> fc8_plantvillage
I0403 14:46:12.607275 30276 net.cpp:141] Setting up fc8_plantvillage
I0403 14:46:12.607309 30276 net.cpp:148] Top shape: 100 38 (3800)
I0403 14:46:12.607326 30276 net.cpp:156] Memory required for data: 831541200
I0403 14:46:12.607345 30276 layer_factory.hpp:77] Creating layer fc8_plantvillage_fc8_plantvillage_0_split
I0403 14:46:12.607367 30276 net.cpp:91] Creating Layer fc8_plantvillage_fc8_plantvillage_0_split
I0403 14:46:12.607383 30276 net.cpp:425] fc8_plantvillage_fc8_plantvillage_0_split <- fc8_plantvillage
I0403 14:46:12.607405 30276 net.cpp:399] fc8_plantvillage_fc8_plantvillage_0_split -> fc8_plantvillage_fc8_plantvillage_0_split_0
I0403 14:46:12.607427 30276 net.cpp:399] fc8_plantvillage_fc8_plantvillage_0_split -> fc8_plantvillage_fc8_plantvillage_0_split_1
I0403 14:46:12.607448 30276 net.cpp:399] fc8_plantvillage_fc8_plantvillage_0_split -> fc8_plantvillage_fc8_plantvillage_0_split_2
I0403 14:46:12.607529 30276 net.cpp:141] Setting up fc8_plantvillage_fc8_plantvillage_0_split
I0403 14:46:12.607555 30276 net.cpp:148] Top shape: 100 38 (3800)
I0403 14:46:12.607574 30276 net.cpp:148] Top shape: 100 38 (3800)
I0403 14:46:12.607592 30276 net.cpp:148] Top shape: 100 38 (3800)
I0403 14:46:12.607607 30276 net.cpp:156] Memory required for data: 831586800
I0403 14:46:12.607622 30276 layer_factory.hpp:77] Creating layer prob
I0403 14:46:12.607642 30276 net.cpp:91] Creating Layer prob
I0403 14:46:12.607658 30276 net.cpp:425] prob <- fc8_plantvillage_fc8_plantvillage_0_split_0
I0403 14:46:12.607681 30276 net.cpp:399] prob -> prob
I0403 14:46:12.607923 30276 net.cpp:141] Setting up prob
I0403 14:46:12.607952 30276 net.cpp:148] Top shape: 100 38 (3800)
I0403 14:46:12.607970 30276 net.cpp:156] Memory required for data: 831602000
I0403 14:46:12.607987 30276 layer_factory.hpp:77] Creating layer hdf5out
I0403 14:46:12.608007 30276 net.cpp:91] Creating Layer hdf5out
I0403 14:46:12.608024 30276 net.cpp:425] hdf5out <- prob
I0403 14:46:12.608042 30276 net.cpp:425] hdf5out <- label_data_1_split_0
I0403 14:46:12.611256 30276 net.cpp:141] Setting up hdf5out
…
