…
I0403 14:16:46.419596 29520 net.cpp:313] The NetState phase (1) differed from the phase (0) specified by a rule in layer data
I0403 14:16:46.419917 29520 net.cpp:49] Initializing net from parameters: 
state {
  phase: TEST
}
layer {
  name: "data"
  type: "Data"
  top: "data"
  top: "label"
  include {
    phase: TEST
  }
  transform_param {
    crop_size: 227
    mean_file: "/home/mohanty/data/final_dataset/lmdb/color-20-80/mean.binaryproto"
  }
  data_param {
    source: "/home/mohanty/data/final_dataset/lmdb/color-20-80/test_db"
    batch_size: 100
    backend: LMDB
  }
}
layer {
  name: "conv1"
  type: "Convolution"
  bottom: "data"
  top: "conv1"
  param {
    lr_mult: 1
    decay_mult: 1
  }
  param {
    lr_mult: 2
    decay_mult: 0
  }
  convolution_param {
    num_output: 96
    kernel_size: 11
    stride: 4
    weight_filler {
      type: "gaussian"
      std: 0.01
    }
    bias_filler {
      type: "constant"
      value: 0
    }
  }
}
layer {
  name: "relu1"
  type: "ReLU"
  bottom: "conv1"
  top: "conv1"
}
layer {
  name: "norm1"
  type: "LRN"
  bottom: "conv1"
  top: "norm1"
  lrn_param {
    local_size: 5
    alpha: 0.0001
    beta: 0.75
  }
}
layer {
  name: "pool1"
  type: "Pooling"
  bottom: "norm1"
  top: "pool1"
  pooling_param {
    pool: MAX
    kernel_size: 3
    stride: 2
  }
}
layer {
  name: "conv2"
  type: "Convolution"
  bottom: "pool1"
  top: "conv2"
  param {
    lr_mult: 1
    decay_mult: 1
  }
  param {
    lr_mult: 2
    decay_mult: 0
  }
  convolution_param {
    num_output: 256
    pad: 2
    kernel_size: 5
    group: 2
    weight_filler {
      type: "gaussian"
      std: 0.01
    }
    bias_filler {
      type: "constant"
      value: 0.1
    }
  }
}
layer {
  name: "relu2"
  type: "ReLU"
  bottom: "conv2"
  top: "conv2"
}
layer {
  name: "norm2"
  type: "LRN"
  bottom: "conv2"
  top: "norm2"
  lrn_param {
    local_size: 5
    alpha: 0.0001
    beta: 0.75
  }
}
layer {
  name: "pool2"
  type: "Pooling"
  bottom: "norm2"
  top: "pool2"
  pooling_param {
    pool: MAX
    kernel_size: 3
    stride: 2
  }
}
layer {
  name: "conv3"
  type: "Convolution"
  bottom: "pool2"
  top: "conv3"
  param {
    lr_mult: 1
    decay_mult: 1
  }
  param {
    lr_mult: 2
    decay_mult: 0
  }
  convolution_param {
    num_output: 384
    pad: 1
    kernel_size: 3
    weight_filler {
      type: "gaussian"
      std: 0.01
    }
    bias_filler {
      type: "constant"
      value: 0
    }
  }
}
layer {
  name: "relu3"
  type: "ReLU"
  bottom: "conv3"
  top: "conv3"
}
layer {
  name: "conv4"
  type: "Convolution"
  bottom: "conv3"
  top: "conv4"
  param {
    lr_mult: 1
    decay_mult: 1
  }
  param {
    lr_mult: 2
    decay_mult: 0
  }
  convolution_param {
    num_output: 384
    pad: 1
    kernel_size: 3
    group: 2
    weight_filler {
      type: "gaussian"
      std: 0.01
    }
    bias_filler {
      type: "constant"
      value: 0.1
    }
  }
}
layer {
  name: "relu4"
  type: "ReLU"
  bottom: "conv4"
  top: "conv4"
}
layer {
  name: "conv5"
  type: "Convolution"
  bottom: "conv4"
  top: "conv5"
  param {
    lr_mult: 1
    decay_mult: 1
  }
  param {
    lr_mult: 2
    decay_mult: 0
  }
  convolution_param {
    num_output: 256
    pad: 1
    kernel_size: 3
    group: 2
    weight_filler {
      type: "gaussian"
      std: 0.01
    }
    bias_filler {
      type: "constant"
      value: 0.1
    }
  }
}
layer {
  name: "relu5"
  type: "ReLU"
  bottom: "conv5"
  top: "conv5"
}
layer {
  name: "pool5"
  type: "Pooling"
  bottom: "conv5"
  top: "pool5"
  pooling_param {
    pool: MAX
    kernel_size: 3
    stride: 2
  }
}
layer {
  name: "fc6"
  type: "InnerProduct"
  bottom: "pool5"
  top: "fc6"
  param {
    lr_mult: 1
    decay_mult: 1
  }
  param {
    lr_mult: 2
    decay_mult: 0
  }
  inner_product_param {
    num_output: 4096
    weight_filler {
      type: "gaussian"
      std: 0.005
    }
    bias_filler {
      type: "constant"
      value: 0.1
    }
  }
}
layer {
  name: "relu6"
  type: "ReLU"
  bottom: "fc6"
  top: "fc6"
}
layer {
  name: "drop6"
  type: "Dropout"
  bottom: "fc6"
  top: "fc6"
  dropout_param {
    dropout_ratio: 0.5
  }
}
layer {
  name: "fc7"
  type: "InnerProduct"
  bottom: "fc6"
  top: "fc7"
  param {
    lr_mult: 1
    decay_mult: 1
  }
  param {
    lr_mult: 2
    decay_mult: 0
  }
  inner_product_param {
    num_output: 4096
    weight_filler {
      type: "gaussian"
      std: 0.005
    }
    bias_filler {
      type: "constant"
      value: 0.1
    }
  }
}
layer {
  name: "relu7"
  type: "ReLU"
  bottom: "fc7"
  top: "fc7"
}
layer {
  name: "drop7"
  type: "Dropout"
  bottom: "fc7"
  top: "fc7"
  dropout_param {
    dropout_ratio: 0.5
  }
}
layer {
  name: "fc8_plantvillage"
  type: "InnerProduct"
  bottom: "fc7"
  top: "fc8_plantvillage"
  param {
    lr_mult: 1
    decay_mult: 1
  }
  param {
    lr_mult: 2
    decay_mult: 0
  }
  inner_product_param {
    num_output: 38
    weight_filler {
      type: "gaussian"
      std: 0.01
    }
    bias_filler {
      type: "constant"
      value: 0
    }
  }
}
layer {
  name: "prob"
  type: "Softmax"
  bottom: "fc8_plantvillage"
  top: "prob"
  include {
    phase: TEST
  }
}
layer {
  name: "hdf5out"
  type: "HDF5Output"
  bottom: "prob"
  bottom: "label"
  include {
    phase: TEST
  }
  hdf5_output_param {
    file_name: "hdf5_dumps/iter_972.h5"
  }
}
layer {
  name: "loss"
  type: "SoftmaxWithLoss"
  bottom: "fc8_plantvillage"
  bottom: "label"
  top: "loss"
}
layer {
  name: "accuracy"
  type: "Accuracy"
  bottom: "fc8_plantvillage"
  bottom: "label"
  top: "accuracy"
  include {
    phase: TEST
  }
}
I0403 14:16:46.420492 29520 layer_factory.hpp:77] Creating layer data
I0403 14:16:46.421147 29520 net.cpp:91] Creating Layer data
I0403 14:16:46.421180 29520 net.cpp:399] data -> data
I0403 14:16:46.421231 29520 net.cpp:399] data -> label
I0403 14:16:46.421269 29520 data_transformer.cpp:25] Loading mean file from: /home/mohanty/data/final_dataset/lmdb/color-20-80/mean.binaryproto
I0403 14:16:46.425488 29523 db_lmdb.cpp:38] Opened lmdb /home/mohanty/data/final_dataset/lmdb/color-20-80/test_db
I0403 14:16:46.435734 29520 data_layer.cpp:41] output data size: 100,3,227,227
I0403 14:16:46.570688 29520 net.cpp:141] Setting up data
I0403 14:16:46.570749 29520 net.cpp:148] Top shape: 100 3 227 227 (15458700)
I0403 14:16:46.570772 29520 net.cpp:148] Top shape: 100 (100)
I0403 14:16:46.570790 29520 net.cpp:156] Memory required for data: 61835200
I0403 14:16:46.570817 29520 layer_factory.hpp:77] Creating layer label_data_1_split
I0403 14:16:46.570843 29520 net.cpp:91] Creating Layer label_data_1_split
I0403 14:16:46.570863 29520 net.cpp:425] label_data_1_split <- label
I0403 14:16:46.570894 29520 net.cpp:399] label_data_1_split -> label_data_1_split_0
I0403 14:16:46.570921 29520 net.cpp:399] label_data_1_split -> label_data_1_split_1
I0403 14:16:46.570942 29520 net.cpp:399] label_data_1_split -> label_data_1_split_2
I0403 14:16:46.571007 29520 net.cpp:141] Setting up label_data_1_split
I0403 14:16:46.571032 29520 net.cpp:148] Top shape: 100 (100)
I0403 14:16:46.571049 29520 net.cpp:148] Top shape: 100 (100)
I0403 14:16:46.571066 29520 net.cpp:148] Top shape: 100 (100)
I0403 14:16:46.571081 29520 net.cpp:156] Memory required for data: 61836400
I0403 14:16:46.571097 29520 layer_factory.hpp:77] Creating layer conv1
I0403 14:16:46.571130 29520 net.cpp:91] Creating Layer conv1
I0403 14:16:46.571151 29520 net.cpp:425] conv1 <- data
I0403 14:16:46.571171 29520 net.cpp:399] conv1 -> conv1
I0403 14:16:46.719130 29520 net.cpp:141] Setting up conv1
I0403 14:16:46.719208 29520 net.cpp:148] Top shape: 100 96 55 55 (29040000)
I0403 14:16:46.719225 29520 net.cpp:156] Memory required for data: 177996400
I0403 14:16:46.719260 29520 layer_factory.hpp:77] Creating layer relu1
I0403 14:16:46.719290 29520 net.cpp:91] Creating Layer relu1
I0403 14:16:46.719308 29520 net.cpp:425] relu1 <- conv1
I0403 14:16:46.719328 29520 net.cpp:386] relu1 -> conv1 (in-place)
I0403 14:16:46.719583 29520 net.cpp:141] Setting up relu1
I0403 14:16:46.719610 29520 net.cpp:148] Top shape: 100 96 55 55 (29040000)
I0403 14:16:46.719629 29520 net.cpp:156] Memory required for data: 294156400
I0403 14:16:46.719737 29520 layer_factory.hpp:77] Creating layer norm1
I0403 14:16:46.719765 29520 net.cpp:91] Creating Layer norm1
I0403 14:16:46.719784 29520 net.cpp:425] norm1 <- conv1
I0403 14:16:46.719804 29520 net.cpp:399] norm1 -> norm1
I0403 14:16:46.720105 29520 net.cpp:141] Setting up norm1
I0403 14:16:46.720134 29520 net.cpp:148] Top shape: 100 96 55 55 (29040000)
I0403 14:16:46.720149 29520 net.cpp:156] Memory required for data: 410316400
I0403 14:16:46.720165 29520 layer_factory.hpp:77] Creating layer pool1
I0403 14:16:46.720187 29520 net.cpp:91] Creating Layer pool1
I0403 14:16:46.720206 29520 net.cpp:425] pool1 <- norm1
I0403 14:16:46.720224 29520 net.cpp:399] pool1 -> pool1
I0403 14:16:46.720293 29520 net.cpp:141] Setting up pool1
I0403 14:16:46.720317 29520 net.cpp:148] Top shape: 100 96 27 27 (6998400)
I0403 14:16:46.720334 29520 net.cpp:156] Memory required for data: 438310000
I0403 14:16:46.720348 29520 layer_factory.hpp:77] Creating layer conv2
I0403 14:16:46.720373 29520 net.cpp:91] Creating Layer conv2
I0403 14:16:46.720389 29520 net.cpp:425] conv2 <- pool1
I0403 14:16:46.720408 29520 net.cpp:399] conv2 -> conv2
I0403 14:16:46.735100 29520 net.cpp:141] Setting up conv2
I0403 14:16:46.735136 29520 net.cpp:148] Top shape: 100 256 27 27 (18662400)
I0403 14:16:46.735152 29520 net.cpp:156] Memory required for data: 512959600
I0403 14:16:46.735175 29520 layer_factory.hpp:77] Creating layer relu2
I0403 14:16:46.735194 29520 net.cpp:91] Creating Layer relu2
I0403 14:16:46.735210 29520 net.cpp:425] relu2 <- conv2
I0403 14:16:46.735227 29520 net.cpp:386] relu2 -> conv2 (in-place)
I0403 14:16:46.735497 29520 net.cpp:141] Setting up relu2
I0403 14:16:46.735525 29520 net.cpp:148] Top shape: 100 256 27 27 (18662400)
I0403 14:16:46.735541 29520 net.cpp:156] Memory required for data: 587609200
I0403 14:16:46.735558 29520 layer_factory.hpp:77] Creating layer norm2
I0403 14:16:46.735579 29520 net.cpp:91] Creating Layer norm2
I0403 14:16:46.735606 29520 net.cpp:425] norm2 <- conv2
I0403 14:16:46.735625 29520 net.cpp:399] norm2 -> norm2
I0403 14:16:46.735803 29520 net.cpp:141] Setting up norm2
I0403 14:16:46.735831 29520 net.cpp:148] Top shape: 100 256 27 27 (18662400)
I0403 14:16:46.735846 29520 net.cpp:156] Memory required for data: 662258800
I0403 14:16:46.735862 29520 layer_factory.hpp:77] Creating layer pool2
I0403 14:16:46.735882 29520 net.cpp:91] Creating Layer pool2
I0403 14:16:46.735896 29520 net.cpp:425] pool2 <- norm2
I0403 14:16:46.735927 29520 net.cpp:399] pool2 -> pool2
I0403 14:16:46.735975 29520 net.cpp:141] Setting up pool2
I0403 14:16:46.735998 29520 net.cpp:148] Top shape: 100 256 13 13 (4326400)
I0403 14:16:46.736013 29520 net.cpp:156] Memory required for data: 679564400
I0403 14:16:46.736028 29520 layer_factory.hpp:77] Creating layer conv3
I0403 14:16:46.736049 29520 net.cpp:91] Creating Layer conv3
I0403 14:16:46.736066 29520 net.cpp:425] conv3 <- pool2
I0403 14:16:46.736084 29520 net.cpp:399] conv3 -> conv3
I0403 14:16:46.783608 29520 net.cpp:141] Setting up conv3
I0403 14:16:46.783682 29520 net.cpp:148] Top shape: 100 384 13 13 (6489600)
I0403 14:16:46.783700 29520 net.cpp:156] Memory required for data: 705522800
I0403 14:16:46.783727 29520 layer_factory.hpp:77] Creating layer relu3
I0403 14:16:46.783751 29520 net.cpp:91] Creating Layer relu3
I0403 14:16:46.783771 29520 net.cpp:425] relu3 <- conv3
I0403 14:16:46.783792 29520 net.cpp:386] relu3 -> conv3 (in-place)
I0403 14:16:46.784080 29520 net.cpp:141] Setting up relu3
I0403 14:16:46.784111 29520 net.cpp:148] Top shape: 100 384 13 13 (6489600)
I0403 14:16:46.784127 29520 net.cpp:156] Memory required for data: 731481200
I0403 14:16:46.784144 29520 layer_factory.hpp:77] Creating layer conv4
I0403 14:16:46.784173 29520 net.cpp:91] Creating Layer conv4
I0403 14:16:46.784189 29520 net.cpp:425] conv4 <- conv3
I0403 14:16:46.784210 29520 net.cpp:399] conv4 -> conv4
I0403 14:16:46.814908 29520 net.cpp:141] Setting up conv4
I0403 14:16:46.814960 29520 net.cpp:148] Top shape: 100 384 13 13 (6489600)
I0403 14:16:46.815007 29520 net.cpp:156] Memory required for data: 757439600
I0403 14:16:46.815029 29520 layer_factory.hpp:77] Creating layer relu4
I0403 14:16:46.815052 29520 net.cpp:91] Creating Layer relu4
I0403 14:16:46.815069 29520 net.cpp:425] relu4 <- conv4
I0403 14:16:46.815088 29520 net.cpp:386] relu4 -> conv4 (in-place)
I0403 14:16:46.815366 29520 net.cpp:141] Setting up relu4
I0403 14:16:46.815392 29520 net.cpp:148] Top shape: 100 384 13 13 (6489600)
I0403 14:16:46.815408 29520 net.cpp:156] Memory required for data: 783398000
I0403 14:16:46.815424 29520 layer_factory.hpp:77] Creating layer conv5
I0403 14:16:46.815449 29520 net.cpp:91] Creating Layer conv5
I0403 14:16:46.815467 29520 net.cpp:425] conv5 <- conv4
I0403 14:16:46.815488 29520 net.cpp:399] conv5 -> conv5
I0403 14:16:46.836042 29520 net.cpp:141] Setting up conv5
I0403 14:16:46.836076 29520 net.cpp:148] Top shape: 100 256 13 13 (4326400)
I0403 14:16:46.836094 29520 net.cpp:156] Memory required for data: 800703600
I0403 14:16:46.836118 29520 layer_factory.hpp:77] Creating layer relu5
I0403 14:16:46.836144 29520 net.cpp:91] Creating Layer relu5
I0403 14:16:46.836163 29520 net.cpp:425] relu5 <- conv5
I0403 14:16:46.836182 29520 net.cpp:386] relu5 -> conv5 (in-place)
I0403 14:16:46.836464 29520 net.cpp:141] Setting up relu5
I0403 14:16:46.836498 29520 net.cpp:148] Top shape: 100 256 13 13 (4326400)
I0403 14:16:46.836515 29520 net.cpp:156] Memory required for data: 818009200
I0403 14:16:46.836534 29520 layer_factory.hpp:77] Creating layer pool5
I0403 14:16:46.836555 29520 net.cpp:91] Creating Layer pool5
I0403 14:16:46.836572 29520 net.cpp:425] pool5 <- conv5
I0403 14:16:46.836593 29520 net.cpp:399] pool5 -> pool5
I0403 14:16:46.836654 29520 net.cpp:141] Setting up pool5
I0403 14:16:46.836683 29520 net.cpp:148] Top shape: 100 256 6 6 (921600)
I0403 14:16:46.836699 29520 net.cpp:156] Memory required for data: 821695600
I0403 14:16:46.836714 29520 layer_factory.hpp:77] Creating layer fc6
I0403 14:16:46.836741 29520 net.cpp:91] Creating Layer fc6
I0403 14:16:46.836760 29520 net.cpp:425] fc6 <- pool5
I0403 14:16:46.836781 29520 net.cpp:399] fc6 -> fc6
I0403 14:16:48.408952 29520 net.cpp:141] Setting up fc6
I0403 14:16:48.409018 29520 net.cpp:148] Top shape: 100 4096 (409600)
I0403 14:16:48.409035 29520 net.cpp:156] Memory required for data: 823334000
I0403 14:16:48.409056 29520 layer_factory.hpp:77] Creating layer relu6
I0403 14:16:48.409080 29520 net.cpp:91] Creating Layer relu6
I0403 14:16:48.409097 29520 net.cpp:425] relu6 <- fc6
I0403 14:16:48.409117 29520 net.cpp:386] relu6 -> fc6 (in-place)
I0403 14:16:48.409328 29520 net.cpp:141] Setting up relu6
I0403 14:16:48.409354 29520 net.cpp:148] Top shape: 100 4096 (409600)
I0403 14:16:48.409369 29520 net.cpp:156] Memory required for data: 824972400
I0403 14:16:48.409384 29520 layer_factory.hpp:77] Creating layer drop6
I0403 14:16:48.409404 29520 net.cpp:91] Creating Layer drop6
I0403 14:16:48.409421 29520 net.cpp:425] drop6 <- fc6
I0403 14:16:48.409438 29520 net.cpp:386] drop6 -> fc6 (in-place)
I0403 14:16:48.409490 29520 net.cpp:141] Setting up drop6
I0403 14:16:48.409513 29520 net.cpp:148] Top shape: 100 4096 (409600)
I0403 14:16:48.409528 29520 net.cpp:156] Memory required for data: 826610800
I0403 14:16:48.409543 29520 layer_factory.hpp:77] Creating layer fc7
I0403 14:16:48.409564 29520 net.cpp:91] Creating Layer fc7
I0403 14:16:48.409581 29520 net.cpp:425] fc7 <- fc6
I0403 14:16:48.409600 29520 net.cpp:399] fc7 -> fc7
I0403 14:16:49.089467 29520 net.cpp:141] Setting up fc7
I0403 14:16:49.089524 29520 net.cpp:148] Top shape: 100 4096 (409600)
I0403 14:16:49.089542 29520 net.cpp:156] Memory required for data: 828249200
I0403 14:16:49.089565 29520 layer_factory.hpp:77] Creating layer relu7
I0403 14:16:49.089586 29520 net.cpp:91] Creating Layer relu7
I0403 14:16:49.089604 29520 net.cpp:425] relu7 <- fc7
I0403 14:16:49.089624 29520 net.cpp:386] relu7 -> fc7 (in-place)
I0403 14:16:49.090009 29520 net.cpp:141] Setting up relu7
I0403 14:16:49.090039 29520 net.cpp:148] Top shape: 100 4096 (409600)
I0403 14:16:49.090080 29520 net.cpp:156] Memory required for data: 829887600
I0403 14:16:49.090096 29520 layer_factory.hpp:77] Creating layer drop7
I0403 14:16:49.090116 29520 net.cpp:91] Creating Layer drop7
I0403 14:16:49.090133 29520 net.cpp:425] drop7 <- fc7
I0403 14:16:49.090152 29520 net.cpp:386] drop7 -> fc7 (in-place)
I0403 14:16:49.090198 29520 net.cpp:141] Setting up drop7
I0403 14:16:49.090220 29520 net.cpp:148] Top shape: 100 4096 (409600)
I0403 14:16:49.090235 29520 net.cpp:156] Memory required for data: 831526000
I0403 14:16:49.090250 29520 layer_factory.hpp:77] Creating layer fc8_plantvillage
I0403 14:16:49.090281 29520 net.cpp:91] Creating Layer fc8_plantvillage
I0403 14:16:49.090298 29520 net.cpp:425] fc8_plantvillage <- fc7
I0403 14:16:49.090317 29520 net.cpp:399] fc8_plantvillage -> fc8_plantvillage
I0403 14:16:49.097040 29520 net.cpp:141] Setting up fc8_plantvillage
I0403 14:16:49.097069 29520 net.cpp:148] Top shape: 100 38 (3800)
I0403 14:16:49.097084 29520 net.cpp:156] Memory required for data: 831541200
I0403 14:16:49.097103 29520 layer_factory.hpp:77] Creating layer fc8_plantvillage_fc8_plantvillage_0_split
I0403 14:16:49.097126 29520 net.cpp:91] Creating Layer fc8_plantvillage_fc8_plantvillage_0_split
I0403 14:16:49.097141 29520 net.cpp:425] fc8_plantvillage_fc8_plantvillage_0_split <- fc8_plantvillage
I0403 14:16:49.097158 29520 net.cpp:399] fc8_plantvillage_fc8_plantvillage_0_split -> fc8_plantvillage_fc8_plantvillage_0_split_0
I0403 14:16:49.097193 29520 net.cpp:399] fc8_plantvillage_fc8_plantvillage_0_split -> fc8_plantvillage_fc8_plantvillage_0_split_1
I0403 14:16:49.097213 29520 net.cpp:399] fc8_plantvillage_fc8_plantvillage_0_split -> fc8_plantvillage_fc8_plantvillage_0_split_2
I0403 14:16:49.097296 29520 net.cpp:141] Setting up fc8_plantvillage_fc8_plantvillage_0_split
I0403 14:16:49.097321 29520 net.cpp:148] Top shape: 100 38 (3800)
I0403 14:16:49.097337 29520 net.cpp:148] Top shape: 100 38 (3800)
I0403 14:16:49.097352 29520 net.cpp:148] Top shape: 100 38 (3800)
I0403 14:16:49.097367 29520 net.cpp:156] Memory required for data: 831586800
I0403 14:16:49.097381 29520 layer_factory.hpp:77] Creating layer prob
I0403 14:16:49.097401 29520 net.cpp:91] Creating Layer prob
I0403 14:16:49.097417 29520 net.cpp:425] prob <- fc8_plantvillage_fc8_plantvillage_0_split_0
I0403 14:16:49.097435 29520 net.cpp:399] prob -> prob
I0403 14:16:49.097652 29520 net.cpp:141] Setting up prob
I0403 14:16:49.097677 29520 net.cpp:148] Top shape: 100 38 (3800)
I0403 14:16:49.097693 29520 net.cpp:156] Memory required for data: 831602000
I0403 14:16:49.097707 29520 layer_factory.hpp:77] Creating layer hdf5out
I0403 14:16:49.097728 29520 net.cpp:91] Creating Layer hdf5out
I0403 14:16:49.097744 29520 net.cpp:425] hdf5out <- prob
I0403 14:16:49.097760 29520 net.cpp:425] hdf5out <- label_data_1_split_0
I0403 14:16:49.101081 29520 net.cpp:141] Setting up hdf5out
…
