…
I0403 14:40:14.662945 30101 net.cpp:313] The NetState phase (1) differed from the phase (0) specified by a rule in layer data
I0403 14:40:14.663235 30101 net.cpp:49] Initializing net from parameters: 
state {
  phase: TEST
}
layer {
  name: "data"
  type: "Data"
  top: "data"
  top: "label"
  include {
    phase: TEST
  }
  transform_param {
    crop_size: 227
    mean_file: "/home/mohanty/data/final_dataset/lmdb/color-20-80/mean.binaryproto"
  }
  data_param {
    source: "/home/mohanty/data/final_dataset/lmdb/color-20-80/test_db"
    batch_size: 100
    backend: LMDB
  }
}
layer {
  name: "conv1"
  type: "Convolution"
  bottom: "data"
  top: "conv1"
  param {
    lr_mult: 1
    decay_mult: 1
  }
  param {
    lr_mult: 2
    decay_mult: 0
  }
  convolution_param {
    num_output: 96
    kernel_size: 11
    stride: 4
    weight_filler {
      type: "gaussian"
      std: 0.01
    }
    bias_filler {
      type: "constant"
      value: 0
    }
  }
}
layer {
  name: "relu1"
  type: "ReLU"
  bottom: "conv1"
  top: "conv1"
}
layer {
  name: "norm1"
  type: "LRN"
  bottom: "conv1"
  top: "norm1"
  lrn_param {
    local_size: 5
    alpha: 0.0001
    beta: 0.75
  }
}
layer {
  name: "pool1"
  type: "Pooling"
  bottom: "norm1"
  top: "pool1"
  pooling_param {
    pool: MAX
    kernel_size: 3
    stride: 2
  }
}
layer {
  name: "conv2"
  type: "Convolution"
  bottom: "pool1"
  top: "conv2"
  param {
    lr_mult: 1
    decay_mult: 1
  }
  param {
    lr_mult: 2
    decay_mult: 0
  }
  convolution_param {
    num_output: 256
    pad: 2
    kernel_size: 5
    group: 2
    weight_filler {
      type: "gaussian"
      std: 0.01
    }
    bias_filler {
      type: "constant"
      value: 0.1
    }
  }
}
layer {
  name: "relu2"
  type: "ReLU"
  bottom: "conv2"
  top: "conv2"
}
layer {
  name: "norm2"
  type: "LRN"
  bottom: "conv2"
  top: "norm2"
  lrn_param {
    local_size: 5
    alpha: 0.0001
    beta: 0.75
  }
}
layer {
  name: "pool2"
  type: "Pooling"
  bottom: "norm2"
  top: "pool2"
  pooling_param {
    pool: MAX
    kernel_size: 3
    stride: 2
  }
}
layer {
  name: "conv3"
  type: "Convolution"
  bottom: "pool2"
  top: "conv3"
  param {
    lr_mult: 1
    decay_mult: 1
  }
  param {
    lr_mult: 2
    decay_mult: 0
  }
  convolution_param {
    num_output: 384
    pad: 1
    kernel_size: 3
    weight_filler {
      type: "gaussian"
      std: 0.01
    }
    bias_filler {
      type: "constant"
      value: 0
    }
  }
}
layer {
  name: "relu3"
  type: "ReLU"
  bottom: "conv3"
  top: "conv3"
}
layer {
  name: "conv4"
  type: "Convolution"
  bottom: "conv3"
  top: "conv4"
  param {
    lr_mult: 1
    decay_mult: 1
  }
  param {
    lr_mult: 2
    decay_mult: 0
  }
  convolution_param {
    num_output: 384
    pad: 1
    kernel_size: 3
    group: 2
    weight_filler {
      type: "gaussian"
      std: 0.01
    }
    bias_filler {
      type: "constant"
      value: 0.1
    }
  }
}
layer {
  name: "relu4"
  type: "ReLU"
  bottom: "conv4"
  top: "conv4"
}
layer {
  name: "conv5"
  type: "Convolution"
  bottom: "conv4"
  top: "conv5"
  param {
    lr_mult: 1
    decay_mult: 1
  }
  param {
    lr_mult: 2
    decay_mult: 0
  }
  convolution_param {
    num_output: 256
    pad: 1
    kernel_size: 3
    group: 2
    weight_filler {
      type: "gaussian"
      std: 0.01
    }
    bias_filler {
      type: "constant"
      value: 0.1
    }
  }
}
layer {
  name: "relu5"
  type: "ReLU"
  bottom: "conv5"
  top: "conv5"
}
layer {
  name: "pool5"
  type: "Pooling"
  bottom: "conv5"
  top: "pool5"
  pooling_param {
    pool: MAX
    kernel_size: 3
    stride: 2
  }
}
layer {
  name: "fc6"
  type: "InnerProduct"
  bottom: "pool5"
  top: "fc6"
  param {
    lr_mult: 1
    decay_mult: 1
  }
  param {
    lr_mult: 2
    decay_mult: 0
  }
  inner_product_param {
    num_output: 4096
    weight_filler {
      type: "gaussian"
      std: 0.005
    }
    bias_filler {
      type: "constant"
      value: 0.1
    }
  }
}
layer {
  name: "relu6"
  type: "ReLU"
  bottom: "fc6"
  top: "fc6"
}
layer {
  name: "drop6"
  type: "Dropout"
  bottom: "fc6"
  top: "fc6"
  dropout_param {
    dropout_ratio: 0.5
  }
}
layer {
  name: "fc7"
  type: "InnerProduct"
  bottom: "fc6"
  top: "fc7"
  param {
    lr_mult: 1
    decay_mult: 1
  }
  param {
    lr_mult: 2
    decay_mult: 0
  }
  inner_product_param {
    num_output: 4096
    weight_filler {
      type: "gaussian"
      std: 0.005
    }
    bias_filler {
      type: "constant"
      value: 0.1
    }
  }
}
layer {
  name: "relu7"
  type: "ReLU"
  bottom: "fc7"
  top: "fc7"
}
layer {
  name: "drop7"
  type: "Dropout"
  bottom: "fc7"
  top: "fc7"
  dropout_param {
    dropout_ratio: 0.5
  }
}
layer {
  name: "fc8_plantvillage"
  type: "InnerProduct"
  bottom: "fc7"
  top: "fc8_plantvillage"
  param {
    lr_mult: 1
    decay_mult: 1
  }
  param {
    lr_mult: 2
    decay_mult: 0
  }
  inner_product_param {
    num_output: 38
    weight_filler {
      type: "gaussian"
      std: 0.01
    }
    bias_filler {
      type: "constant"
      value: 0
    }
  }
}
layer {
  name: "prob"
  type: "Softmax"
  bottom: "fc8_plantvillage"
  top: "prob"
  include {
    phase: TEST
  }
}
layer {
  name: "hdf5out"
  type: "HDF5Output"
  bottom: "prob"
  bottom: "label"
  include {
    phase: TEST
  }
  hdf5_output_param {
    file_name: "hdf5_dumps/iter_2700.h5"
  }
}
layer {
  name: "loss"
  type: "SoftmaxWithLoss"
  bottom: "fc8_plantvillage"
  bottom: "label"
  top: "loss"
}
layer {
  name: "accuracy"
  type: "Accuracy"
  bottom: "fc8_plantvillage"
  bottom: "label"
  top: "accuracy"
  include {
    phase: TEST
  }
}
I0403 14:40:14.663866 30101 layer_factory.hpp:77] Creating layer data
I0403 14:40:14.664501 30101 net.cpp:91] Creating Layer data
I0403 14:40:14.664535 30101 net.cpp:399] data -> data
I0403 14:40:14.664599 30101 net.cpp:399] data -> label
I0403 14:40:14.664636 30101 data_transformer.cpp:25] Loading mean file from: /home/mohanty/data/final_dataset/lmdb/color-20-80/mean.binaryproto
I0403 14:40:14.667932 30104 db_lmdb.cpp:38] Opened lmdb /home/mohanty/data/final_dataset/lmdb/color-20-80/test_db
I0403 14:40:14.678755 30101 data_layer.cpp:41] output data size: 100,3,227,227
I0403 14:40:14.810801 30101 net.cpp:141] Setting up data
I0403 14:40:14.810866 30101 net.cpp:148] Top shape: 100 3 227 227 (15458700)
I0403 14:40:14.810891 30101 net.cpp:148] Top shape: 100 (100)
I0403 14:40:14.810906 30101 net.cpp:156] Memory required for data: 61835200
I0403 14:40:14.810936 30101 layer_factory.hpp:77] Creating layer label_data_1_split
I0403 14:40:14.810963 30101 net.cpp:91] Creating Layer label_data_1_split
I0403 14:40:14.810982 30101 net.cpp:425] label_data_1_split <- label
I0403 14:40:14.811014 30101 net.cpp:399] label_data_1_split -> label_data_1_split_0
I0403 14:40:14.811041 30101 net.cpp:399] label_data_1_split -> label_data_1_split_1
I0403 14:40:14.811063 30101 net.cpp:399] label_data_1_split -> label_data_1_split_2
I0403 14:40:14.811125 30101 net.cpp:141] Setting up label_data_1_split
I0403 14:40:14.811151 30101 net.cpp:148] Top shape: 100 (100)
I0403 14:40:14.811167 30101 net.cpp:148] Top shape: 100 (100)
I0403 14:40:14.811184 30101 net.cpp:148] Top shape: 100 (100)
I0403 14:40:14.811199 30101 net.cpp:156] Memory required for data: 61836400
I0403 14:40:14.811214 30101 layer_factory.hpp:77] Creating layer conv1
I0403 14:40:14.811247 30101 net.cpp:91] Creating Layer conv1
I0403 14:40:14.811271 30101 net.cpp:425] conv1 <- data
I0403 14:40:14.811293 30101 net.cpp:399] conv1 -> conv1
I0403 14:40:14.958562 30101 net.cpp:141] Setting up conv1
I0403 14:40:14.958611 30101 net.cpp:148] Top shape: 100 96 55 55 (29040000)
I0403 14:40:14.958628 30101 net.cpp:156] Memory required for data: 177996400
I0403 14:40:14.958662 30101 layer_factory.hpp:77] Creating layer relu1
I0403 14:40:14.958690 30101 net.cpp:91] Creating Layer relu1
I0403 14:40:14.958710 30101 net.cpp:425] relu1 <- conv1
I0403 14:40:14.958731 30101 net.cpp:386] relu1 -> conv1 (in-place)
I0403 14:40:14.958989 30101 net.cpp:141] Setting up relu1
I0403 14:40:14.959018 30101 net.cpp:148] Top shape: 100 96 55 55 (29040000)
I0403 14:40:14.959034 30101 net.cpp:156] Memory required for data: 294156400
I0403 14:40:14.959094 30101 layer_factory.hpp:77] Creating layer norm1
I0403 14:40:14.959125 30101 net.cpp:91] Creating Layer norm1
I0403 14:40:14.959144 30101 net.cpp:425] norm1 <- conv1
I0403 14:40:14.959163 30101 net.cpp:399] norm1 -> norm1
I0403 14:40:14.959503 30101 net.cpp:141] Setting up norm1
I0403 14:40:14.959534 30101 net.cpp:148] Top shape: 100 96 55 55 (29040000)
I0403 14:40:14.959550 30101 net.cpp:156] Memory required for data: 410316400
I0403 14:40:14.959568 30101 layer_factory.hpp:77] Creating layer pool1
I0403 14:40:14.959604 30101 net.cpp:91] Creating Layer pool1
I0403 14:40:14.959621 30101 net.cpp:425] pool1 <- norm1
I0403 14:40:14.959640 30101 net.cpp:399] pool1 -> pool1
I0403 14:40:14.959707 30101 net.cpp:141] Setting up pool1
I0403 14:40:14.959733 30101 net.cpp:148] Top shape: 100 96 27 27 (6998400)
I0403 14:40:14.959748 30101 net.cpp:156] Memory required for data: 438310000
I0403 14:40:14.959763 30101 layer_factory.hpp:77] Creating layer conv2
I0403 14:40:14.959787 30101 net.cpp:91] Creating Layer conv2
I0403 14:40:14.959805 30101 net.cpp:425] conv2 <- pool1
I0403 14:40:14.959825 30101 net.cpp:399] conv2 -> conv2
I0403 14:40:14.975422 30101 net.cpp:141] Setting up conv2
I0403 14:40:14.975477 30101 net.cpp:148] Top shape: 100 256 27 27 (18662400)
I0403 14:40:14.975497 30101 net.cpp:156] Memory required for data: 512959600
I0403 14:40:14.975522 30101 layer_factory.hpp:77] Creating layer relu2
I0403 14:40:14.975543 30101 net.cpp:91] Creating Layer relu2
I0403 14:40:14.975561 30101 net.cpp:425] relu2 <- conv2
I0403 14:40:14.975594 30101 net.cpp:386] relu2 -> conv2 (in-place)
I0403 14:40:14.975878 30101 net.cpp:141] Setting up relu2
I0403 14:40:14.975905 30101 net.cpp:148] Top shape: 100 256 27 27 (18662400)
I0403 14:40:14.975922 30101 net.cpp:156] Memory required for data: 587609200
I0403 14:40:14.975939 30101 layer_factory.hpp:77] Creating layer norm2
I0403 14:40:14.975963 30101 net.cpp:91] Creating Layer norm2
I0403 14:40:14.976019 30101 net.cpp:425] norm2 <- conv2
I0403 14:40:14.976045 30101 net.cpp:399] norm2 -> norm2
I0403 14:40:14.976250 30101 net.cpp:141] Setting up norm2
I0403 14:40:14.976285 30101 net.cpp:148] Top shape: 100 256 27 27 (18662400)
I0403 14:40:14.976315 30101 net.cpp:156] Memory required for data: 662258800
I0403 14:40:14.976331 30101 layer_factory.hpp:77] Creating layer pool2
I0403 14:40:14.976351 30101 net.cpp:91] Creating Layer pool2
I0403 14:40:14.976366 30101 net.cpp:425] pool2 <- norm2
I0403 14:40:14.976387 30101 net.cpp:399] pool2 -> pool2
I0403 14:40:14.976444 30101 net.cpp:141] Setting up pool2
I0403 14:40:14.976469 30101 net.cpp:148] Top shape: 100 256 13 13 (4326400)
I0403 14:40:14.976485 30101 net.cpp:156] Memory required for data: 679564400
I0403 14:40:14.976500 30101 layer_factory.hpp:77] Creating layer conv3
I0403 14:40:14.976527 30101 net.cpp:91] Creating Layer conv3
I0403 14:40:14.976547 30101 net.cpp:425] conv3 <- pool2
I0403 14:40:14.976569 30101 net.cpp:399] conv3 -> conv3
I0403 14:40:15.022433 30101 net.cpp:141] Setting up conv3
I0403 14:40:15.022500 30101 net.cpp:148] Top shape: 100 384 13 13 (6489600)
I0403 14:40:15.022519 30101 net.cpp:156] Memory required for data: 705522800
I0403 14:40:15.022557 30101 layer_factory.hpp:77] Creating layer relu3
I0403 14:40:15.022579 30101 net.cpp:91] Creating Layer relu3
I0403 14:40:15.022598 30101 net.cpp:425] relu3 <- conv3
I0403 14:40:15.022620 30101 net.cpp:386] relu3 -> conv3 (in-place)
I0403 14:40:15.022908 30101 net.cpp:141] Setting up relu3
I0403 14:40:15.022938 30101 net.cpp:148] Top shape: 100 384 13 13 (6489600)
I0403 14:40:15.022953 30101 net.cpp:156] Memory required for data: 731481200
I0403 14:40:15.022969 30101 layer_factory.hpp:77] Creating layer conv4
I0403 14:40:15.022994 30101 net.cpp:91] Creating Layer conv4
I0403 14:40:15.023012 30101 net.cpp:425] conv4 <- conv3
I0403 14:40:15.023030 30101 net.cpp:399] conv4 -> conv4
I0403 14:40:15.052913 30101 net.cpp:141] Setting up conv4
I0403 14:40:15.052954 30101 net.cpp:148] Top shape: 100 384 13 13 (6489600)
I0403 14:40:15.053004 30101 net.cpp:156] Memory required for data: 757439600
I0403 14:40:15.053026 30101 layer_factory.hpp:77] Creating layer relu4
I0403 14:40:15.053052 30101 net.cpp:91] Creating Layer relu4
I0403 14:40:15.053072 30101 net.cpp:425] relu4 <- conv4
I0403 14:40:15.053092 30101 net.cpp:386] relu4 -> conv4 (in-place)
I0403 14:40:15.053388 30101 net.cpp:141] Setting up relu4
I0403 14:40:15.053416 30101 net.cpp:148] Top shape: 100 384 13 13 (6489600)
I0403 14:40:15.053432 30101 net.cpp:156] Memory required for data: 783398000
I0403 14:40:15.053448 30101 layer_factory.hpp:77] Creating layer conv5
I0403 14:40:15.053475 30101 net.cpp:91] Creating Layer conv5
I0403 14:40:15.053493 30101 net.cpp:425] conv5 <- conv4
I0403 14:40:15.053514 30101 net.cpp:399] conv5 -> conv5
I0403 14:40:15.074513 30101 net.cpp:141] Setting up conv5
I0403 14:40:15.074571 30101 net.cpp:148] Top shape: 100 256 13 13 (4326400)
I0403 14:40:15.074589 30101 net.cpp:156] Memory required for data: 800703600
I0403 14:40:15.074615 30101 layer_factory.hpp:77] Creating layer relu5
I0403 14:40:15.074638 30101 net.cpp:91] Creating Layer relu5
I0403 14:40:15.074656 30101 net.cpp:425] relu5 <- conv5
I0403 14:40:15.074676 30101 net.cpp:386] relu5 -> conv5 (in-place)
I0403 14:40:15.074965 30101 net.cpp:141] Setting up relu5
I0403 14:40:15.074991 30101 net.cpp:148] Top shape: 100 256 13 13 (4326400)
I0403 14:40:15.075008 30101 net.cpp:156] Memory required for data: 818009200
I0403 14:40:15.075024 30101 layer_factory.hpp:77] Creating layer pool5
I0403 14:40:15.075047 30101 net.cpp:91] Creating Layer pool5
I0403 14:40:15.075062 30101 net.cpp:425] pool5 <- conv5
I0403 14:40:15.075088 30101 net.cpp:399] pool5 -> pool5
I0403 14:40:15.075150 30101 net.cpp:141] Setting up pool5
I0403 14:40:15.075176 30101 net.cpp:148] Top shape: 100 256 6 6 (921600)
I0403 14:40:15.075191 30101 net.cpp:156] Memory required for data: 821695600
I0403 14:40:15.075207 30101 layer_factory.hpp:77] Creating layer fc6
I0403 14:40:15.075237 30101 net.cpp:91] Creating Layer fc6
I0403 14:40:15.075263 30101 net.cpp:425] fc6 <- pool5
I0403 14:40:15.075284 30101 net.cpp:399] fc6 -> fc6
I0403 14:40:16.622745 30101 net.cpp:141] Setting up fc6
I0403 14:40:16.622815 30101 net.cpp:148] Top shape: 100 4096 (409600)
I0403 14:40:16.622831 30101 net.cpp:156] Memory required for data: 823334000
I0403 14:40:16.622853 30101 layer_factory.hpp:77] Creating layer relu6
I0403 14:40:16.622877 30101 net.cpp:91] Creating Layer relu6
I0403 14:40:16.622895 30101 net.cpp:425] relu6 <- fc6
I0403 14:40:16.622915 30101 net.cpp:386] relu6 -> fc6 (in-place)
I0403 14:40:16.623123 30101 net.cpp:141] Setting up relu6
I0403 14:40:16.623152 30101 net.cpp:148] Top shape: 100 4096 (409600)
I0403 14:40:16.623168 30101 net.cpp:156] Memory required for data: 824972400
I0403 14:40:16.623183 30101 layer_factory.hpp:77] Creating layer drop6
I0403 14:40:16.623201 30101 net.cpp:91] Creating Layer drop6
I0403 14:40:16.623217 30101 net.cpp:425] drop6 <- fc6
I0403 14:40:16.623235 30101 net.cpp:386] drop6 -> fc6 (in-place)
I0403 14:40:16.623296 30101 net.cpp:141] Setting up drop6
I0403 14:40:16.623319 30101 net.cpp:148] Top shape: 100 4096 (409600)
I0403 14:40:16.623333 30101 net.cpp:156] Memory required for data: 826610800
I0403 14:40:16.623348 30101 layer_factory.hpp:77] Creating layer fc7
I0403 14:40:16.623370 30101 net.cpp:91] Creating Layer fc7
I0403 14:40:16.623389 30101 net.cpp:425] fc7 <- fc6
I0403 14:40:16.623406 30101 net.cpp:399] fc7 -> fc7
I0403 14:40:17.338376 30101 net.cpp:141] Setting up fc7
I0403 14:40:17.338443 30101 net.cpp:148] Top shape: 100 4096 (409600)
I0403 14:40:17.338460 30101 net.cpp:156] Memory required for data: 828249200
I0403 14:40:17.338482 30101 layer_factory.hpp:77] Creating layer relu7
I0403 14:40:17.338510 30101 net.cpp:91] Creating Layer relu7
I0403 14:40:17.338538 30101 net.cpp:425] relu7 <- fc7
I0403 14:40:17.338562 30101 net.cpp:386] relu7 -> fc7 (in-place)
I0403 14:40:17.338965 30101 net.cpp:141] Setting up relu7
I0403 14:40:17.338997 30101 net.cpp:148] Top shape: 100 4096 (409600)
I0403 14:40:17.339045 30101 net.cpp:156] Memory required for data: 829887600
I0403 14:40:17.339061 30101 layer_factory.hpp:77] Creating layer drop7
I0403 14:40:17.339082 30101 net.cpp:91] Creating Layer drop7
I0403 14:40:17.339100 30101 net.cpp:425] drop7 <- fc7
I0403 14:40:17.339121 30101 net.cpp:386] drop7 -> fc7 (in-place)
I0403 14:40:17.339164 30101 net.cpp:141] Setting up drop7
I0403 14:40:17.339189 30101 net.cpp:148] Top shape: 100 4096 (409600)
I0403 14:40:17.339203 30101 net.cpp:156] Memory required for data: 831526000
I0403 14:40:17.339218 30101 layer_factory.hpp:77] Creating layer fc8_plantvillage
I0403 14:40:17.339242 30101 net.cpp:91] Creating Layer fc8_plantvillage
I0403 14:40:17.339264 30101 net.cpp:425] fc8_plantvillage <- fc7
I0403 14:40:17.339287 30101 net.cpp:399] fc8_plantvillage -> fc8_plantvillage
I0403 14:40:17.346246 30101 net.cpp:141] Setting up fc8_plantvillage
I0403 14:40:17.346282 30101 net.cpp:148] Top shape: 100 38 (3800)
I0403 14:40:17.346297 30101 net.cpp:156] Memory required for data: 831541200
I0403 14:40:17.346317 30101 layer_factory.hpp:77] Creating layer fc8_plantvillage_fc8_plantvillage_0_split
I0403 14:40:17.346336 30101 net.cpp:91] Creating Layer fc8_plantvillage_fc8_plantvillage_0_split
I0403 14:40:17.346354 30101 net.cpp:425] fc8_plantvillage_fc8_plantvillage_0_split <- fc8_plantvillage
I0403 14:40:17.346374 30101 net.cpp:399] fc8_plantvillage_fc8_plantvillage_0_split -> fc8_plantvillage_fc8_plantvillage_0_split_0
I0403 14:40:17.346396 30101 net.cpp:399] fc8_plantvillage_fc8_plantvillage_0_split -> fc8_plantvillage_fc8_plantvillage_0_split_1
I0403 14:40:17.346426 30101 net.cpp:399] fc8_plantvillage_fc8_plantvillage_0_split -> fc8_plantvillage_fc8_plantvillage_0_split_2
I0403 14:40:17.346508 30101 net.cpp:141] Setting up fc8_plantvillage_fc8_plantvillage_0_split
I0403 14:40:17.346532 30101 net.cpp:148] Top shape: 100 38 (3800)
I0403 14:40:17.346550 30101 net.cpp:148] Top shape: 100 38 (3800)
I0403 14:40:17.346566 30101 net.cpp:148] Top shape: 100 38 (3800)
I0403 14:40:17.346581 30101 net.cpp:156] Memory required for data: 831586800
I0403 14:40:17.346596 30101 layer_factory.hpp:77] Creating layer prob
I0403 14:40:17.346616 30101 net.cpp:91] Creating Layer prob
I0403 14:40:17.346633 30101 net.cpp:425] prob <- fc8_plantvillage_fc8_plantvillage_0_split_0
I0403 14:40:17.346652 30101 net.cpp:399] prob -> prob
I0403 14:40:17.346882 30101 net.cpp:141] Setting up prob
I0403 14:40:17.346912 30101 net.cpp:148] Top shape: 100 38 (3800)
I0403 14:40:17.346930 30101 net.cpp:156] Memory required for data: 831602000
I0403 14:40:17.346945 30101 layer_factory.hpp:77] Creating layer hdf5out
I0403 14:40:17.346964 30101 net.cpp:91] Creating Layer hdf5out
I0403 14:40:17.346982 30101 net.cpp:425] hdf5out <- prob
I0403 14:40:17.346998 30101 net.cpp:425] hdf5out <- label_data_1_split_0
I0403 14:40:17.350908 30101 net.cpp:141] Setting up hdf5out
…
