…
I0403 14:37:18.723229 30033 net.cpp:313] The NetState phase (1) differed from the phase (0) specified by a rule in layer data
I0403 14:37:18.723531 30033 net.cpp:49] Initializing net from parameters: 
state {
  phase: TEST
}
layer {
  name: "data"
  type: "Data"
  top: "data"
  top: "label"
  include {
    phase: TEST
  }
  transform_param {
    crop_size: 227
    mean_file: "/home/mohanty/data/final_dataset/lmdb/color-20-80/mean.binaryproto"
  }
  data_param {
    source: "/home/mohanty/data/final_dataset/lmdb/color-20-80/test_db"
    batch_size: 100
    backend: LMDB
  }
}
layer {
  name: "conv1"
  type: "Convolution"
  bottom: "data"
  top: "conv1"
  param {
    lr_mult: 1
    decay_mult: 1
  }
  param {
    lr_mult: 2
    decay_mult: 0
  }
  convolution_param {
    num_output: 96
    kernel_size: 11
    stride: 4
    weight_filler {
      type: "gaussian"
      std: 0.01
    }
    bias_filler {
      type: "constant"
      value: 0
    }
  }
}
layer {
  name: "relu1"
  type: "ReLU"
  bottom: "conv1"
  top: "conv1"
}
layer {
  name: "norm1"
  type: "LRN"
  bottom: "conv1"
  top: "norm1"
  lrn_param {
    local_size: 5
    alpha: 0.0001
    beta: 0.75
  }
}
layer {
  name: "pool1"
  type: "Pooling"
  bottom: "norm1"
  top: "pool1"
  pooling_param {
    pool: MAX
    kernel_size: 3
    stride: 2
  }
}
layer {
  name: "conv2"
  type: "Convolution"
  bottom: "pool1"
  top: "conv2"
  param {
    lr_mult: 1
    decay_mult: 1
  }
  param {
    lr_mult: 2
    decay_mult: 0
  }
  convolution_param {
    num_output: 256
    pad: 2
    kernel_size: 5
    group: 2
    weight_filler {
      type: "gaussian"
      std: 0.01
    }
    bias_filler {
      type: "constant"
      value: 0.1
    }
  }
}
layer {
  name: "relu2"
  type: "ReLU"
  bottom: "conv2"
  top: "conv2"
}
layer {
  name: "norm2"
  type: "LRN"
  bottom: "conv2"
  top: "norm2"
  lrn_param {
    local_size: 5
    alpha: 0.0001
    beta: 0.75
  }
}
layer {
  name: "pool2"
  type: "Pooling"
  bottom: "norm2"
  top: "pool2"
  pooling_param {
    pool: MAX
    kernel_size: 3
    stride: 2
  }
}
layer {
  name: "conv3"
  type: "Convolution"
  bottom: "pool2"
  top: "conv3"
  param {
    lr_mult: 1
    decay_mult: 1
  }
  param {
    lr_mult: 2
    decay_mult: 0
  }
  convolution_param {
    num_output: 384
    pad: 1
    kernel_size: 3
    weight_filler {
      type: "gaussian"
      std: 0.01
    }
    bias_filler {
      type: "constant"
      value: 0
    }
  }
}
layer {
  name: "relu3"
  type: "ReLU"
  bottom: "conv3"
  top: "conv3"
}
layer {
  name: "conv4"
  type: "Convolution"
  bottom: "conv3"
  top: "conv4"
  param {
    lr_mult: 1
    decay_mult: 1
  }
  param {
    lr_mult: 2
    decay_mult: 0
  }
  convolution_param {
    num_output: 384
    pad: 1
    kernel_size: 3
    group: 2
    weight_filler {
      type: "gaussian"
      std: 0.01
    }
    bias_filler {
      type: "constant"
      value: 0.1
    }
  }
}
layer {
  name: "relu4"
  type: "ReLU"
  bottom: "conv4"
  top: "conv4"
}
layer {
  name: "conv5"
  type: "Convolution"
  bottom: "conv4"
  top: "conv5"
  param {
    lr_mult: 1
    decay_mult: 1
  }
  param {
    lr_mult: 2
    decay_mult: 0
  }
  convolution_param {
    num_output: 256
    pad: 1
    kernel_size: 3
    group: 2
    weight_filler {
      type: "gaussian"
      std: 0.01
    }
    bias_filler {
      type: "constant"
      value: 0.1
    }
  }
}
layer {
  name: "relu5"
  type: "ReLU"
  bottom: "conv5"
  top: "conv5"
}
layer {
  name: "pool5"
  type: "Pooling"
  bottom: "conv5"
  top: "pool5"
  pooling_param {
    pool: MAX
    kernel_size: 3
    stride: 2
  }
}
layer {
  name: "fc6"
  type: "InnerProduct"
  bottom: "pool5"
  top: "fc6"
  param {
    lr_mult: 1
    decay_mult: 1
  }
  param {
    lr_mult: 2
    decay_mult: 0
  }
  inner_product_param {
    num_output: 4096
    weight_filler {
      type: "gaussian"
      std: 0.005
    }
    bias_filler {
      type: "constant"
      value: 0.1
    }
  }
}
layer {
  name: "relu6"
  type: "ReLU"
  bottom: "fc6"
  top: "fc6"
}
layer {
  name: "drop6"
  type: "Dropout"
  bottom: "fc6"
  top: "fc6"
  dropout_param {
    dropout_ratio: 0.5
  }
}
layer {
  name: "fc7"
  type: "InnerProduct"
  bottom: "fc6"
  top: "fc7"
  param {
    lr_mult: 1
    decay_mult: 1
  }
  param {
    lr_mult: 2
    decay_mult: 0
  }
  inner_product_param {
    num_output: 4096
    weight_filler {
      type: "gaussian"
      std: 0.005
    }
    bias_filler {
      type: "constant"
      value: 0.1
    }
  }
}
layer {
  name: "relu7"
  type: "ReLU"
  bottom: "fc7"
  top: "fc7"
}
layer {
  name: "drop7"
  type: "Dropout"
  bottom: "fc7"
  top: "fc7"
  dropout_param {
    dropout_ratio: 0.5
  }
}
layer {
  name: "fc8_plantvillage"
  type: "InnerProduct"
  bottom: "fc7"
  top: "fc8_plantvillage"
  param {
    lr_mult: 1
    decay_mult: 1
  }
  param {
    lr_mult: 2
    decay_mult: 0
  }
  inner_product_param {
    num_output: 38
    weight_filler {
      type: "gaussian"
      std: 0.01
    }
    bias_filler {
      type: "constant"
      value: 0
    }
  }
}
layer {
  name: "prob"
  type: "Softmax"
  bottom: "fc8_plantvillage"
  top: "prob"
  include {
    phase: TEST
  }
}
layer {
  name: "hdf5out"
  type: "HDF5Output"
  bottom: "prob"
  bottom: "label"
  include {
    phase: TEST
  }
  hdf5_output_param {
    file_name: "hdf5_dumps/iter_2484.h5"
  }
}
layer {
  name: "loss"
  type: "SoftmaxWithLoss"
  bottom: "fc8_plantvillage"
  bottom: "label"
  top: "loss"
}
layer {
  name: "accuracy"
  type: "Accuracy"
  bottom: "fc8_plantvillage"
  bottom: "label"
  top: "accuracy"
  include {
    phase: TEST
  }
}
I0403 14:37:18.724128 30033 layer_factory.hpp:77] Creating layer data
I0403 14:37:18.724798 30033 net.cpp:91] Creating Layer data
I0403 14:37:18.724838 30033 net.cpp:399] data -> data
I0403 14:37:18.724891 30033 net.cpp:399] data -> label
I0403 14:37:18.724930 30033 data_transformer.cpp:25] Loading mean file from: /home/mohanty/data/final_dataset/lmdb/color-20-80/mean.binaryproto
I0403 14:37:18.727769 30035 db_lmdb.cpp:38] Opened lmdb /home/mohanty/data/final_dataset/lmdb/color-20-80/test_db
I0403 14:37:18.739279 30033 data_layer.cpp:41] output data size: 100,3,227,227
I0403 14:37:18.871217 30033 net.cpp:141] Setting up data
I0403 14:37:18.871310 30033 net.cpp:148] Top shape: 100 3 227 227 (15458700)
I0403 14:37:18.871335 30033 net.cpp:148] Top shape: 100 (100)
I0403 14:37:18.871351 30033 net.cpp:156] Memory required for data: 61835200
I0403 14:37:18.871377 30033 layer_factory.hpp:77] Creating layer label_data_1_split
I0403 14:37:18.871402 30033 net.cpp:91] Creating Layer label_data_1_split
I0403 14:37:18.871420 30033 net.cpp:425] label_data_1_split <- label
I0403 14:37:18.871453 30033 net.cpp:399] label_data_1_split -> label_data_1_split_0
I0403 14:37:18.871479 30033 net.cpp:399] label_data_1_split -> label_data_1_split_1
I0403 14:37:18.871500 30033 net.cpp:399] label_data_1_split -> label_data_1_split_2
I0403 14:37:18.871562 30033 net.cpp:141] Setting up label_data_1_split
I0403 14:37:18.871587 30033 net.cpp:148] Top shape: 100 (100)
I0403 14:37:18.871603 30033 net.cpp:148] Top shape: 100 (100)
I0403 14:37:18.871619 30033 net.cpp:148] Top shape: 100 (100)
I0403 14:37:18.871634 30033 net.cpp:156] Memory required for data: 61836400
I0403 14:37:18.871649 30033 layer_factory.hpp:77] Creating layer conv1
I0403 14:37:18.871681 30033 net.cpp:91] Creating Layer conv1
I0403 14:37:18.871701 30033 net.cpp:425] conv1 <- data
I0403 14:37:18.871719 30033 net.cpp:399] conv1 -> conv1
I0403 14:37:19.018754 30033 net.cpp:141] Setting up conv1
I0403 14:37:19.018831 30033 net.cpp:148] Top shape: 100 96 55 55 (29040000)
I0403 14:37:19.018851 30033 net.cpp:156] Memory required for data: 177996400
I0403 14:37:19.018890 30033 layer_factory.hpp:77] Creating layer relu1
I0403 14:37:19.018919 30033 net.cpp:91] Creating Layer relu1
I0403 14:37:19.018939 30033 net.cpp:425] relu1 <- conv1
I0403 14:37:19.018959 30033 net.cpp:386] relu1 -> conv1 (in-place)
I0403 14:37:19.019209 30033 net.cpp:141] Setting up relu1
I0403 14:37:19.019237 30033 net.cpp:148] Top shape: 100 96 55 55 (29040000)
I0403 14:37:19.019253 30033 net.cpp:156] Memory required for data: 294156400
I0403 14:37:19.019304 30033 layer_factory.hpp:77] Creating layer norm1
I0403 14:37:19.019333 30033 net.cpp:91] Creating Layer norm1
I0403 14:37:19.019351 30033 net.cpp:425] norm1 <- conv1
I0403 14:37:19.019371 30033 net.cpp:399] norm1 -> norm1
I0403 14:37:19.019677 30033 net.cpp:141] Setting up norm1
I0403 14:37:19.019706 30033 net.cpp:148] Top shape: 100 96 55 55 (29040000)
I0403 14:37:19.019722 30033 net.cpp:156] Memory required for data: 410316400
I0403 14:37:19.019738 30033 layer_factory.hpp:77] Creating layer pool1
I0403 14:37:19.019762 30033 net.cpp:91] Creating Layer pool1
I0403 14:37:19.019780 30033 net.cpp:425] pool1 <- norm1
I0403 14:37:19.019798 30033 net.cpp:399] pool1 -> pool1
I0403 14:37:19.019863 30033 net.cpp:141] Setting up pool1
I0403 14:37:19.019888 30033 net.cpp:148] Top shape: 100 96 27 27 (6998400)
I0403 14:37:19.019904 30033 net.cpp:156] Memory required for data: 438310000
I0403 14:37:19.019920 30033 layer_factory.hpp:77] Creating layer conv2
I0403 14:37:19.019945 30033 net.cpp:91] Creating Layer conv2
I0403 14:37:19.019963 30033 net.cpp:425] conv2 <- pool1
I0403 14:37:19.019982 30033 net.cpp:399] conv2 -> conv2
I0403 14:37:19.034759 30033 net.cpp:141] Setting up conv2
I0403 14:37:19.034795 30033 net.cpp:148] Top shape: 100 256 27 27 (18662400)
I0403 14:37:19.034812 30033 net.cpp:156] Memory required for data: 512959600
I0403 14:37:19.034834 30033 layer_factory.hpp:77] Creating layer relu2
I0403 14:37:19.034855 30033 net.cpp:91] Creating Layer relu2
I0403 14:37:19.034871 30033 net.cpp:425] relu2 <- conv2
I0403 14:37:19.034889 30033 net.cpp:386] relu2 -> conv2 (in-place)
I0403 14:37:19.035146 30033 net.cpp:141] Setting up relu2
I0403 14:37:19.035174 30033 net.cpp:148] Top shape: 100 256 27 27 (18662400)
I0403 14:37:19.035190 30033 net.cpp:156] Memory required for data: 587609200
I0403 14:37:19.035207 30033 layer_factory.hpp:77] Creating layer norm2
I0403 14:37:19.035228 30033 net.cpp:91] Creating Layer norm2
I0403 14:37:19.035243 30033 net.cpp:425] norm2 <- conv2
I0403 14:37:19.035260 30033 net.cpp:399] norm2 -> norm2
I0403 14:37:19.035512 30033 net.cpp:141] Setting up norm2
I0403 14:37:19.035540 30033 net.cpp:148] Top shape: 100 256 27 27 (18662400)
I0403 14:37:19.035557 30033 net.cpp:156] Memory required for data: 662258800
I0403 14:37:19.035573 30033 layer_factory.hpp:77] Creating layer pool2
I0403 14:37:19.035591 30033 net.cpp:91] Creating Layer pool2
I0403 14:37:19.035606 30033 net.cpp:425] pool2 <- norm2
I0403 14:37:19.035625 30033 net.cpp:399] pool2 -> pool2
I0403 14:37:19.035673 30033 net.cpp:141] Setting up pool2
I0403 14:37:19.035696 30033 net.cpp:148] Top shape: 100 256 13 13 (4326400)
I0403 14:37:19.035712 30033 net.cpp:156] Memory required for data: 679564400
I0403 14:37:19.035727 30033 layer_factory.hpp:77] Creating layer conv3
I0403 14:37:19.035748 30033 net.cpp:91] Creating Layer conv3
I0403 14:37:19.035766 30033 net.cpp:425] conv3 <- pool2
I0403 14:37:19.035785 30033 net.cpp:399] conv3 -> conv3
I0403 14:37:19.082556 30033 net.cpp:141] Setting up conv3
I0403 14:37:19.082604 30033 net.cpp:148] Top shape: 100 384 13 13 (6489600)
I0403 14:37:19.082623 30033 net.cpp:156] Memory required for data: 705522800
I0403 14:37:19.082649 30033 layer_factory.hpp:77] Creating layer relu3
I0403 14:37:19.082672 30033 net.cpp:91] Creating Layer relu3
I0403 14:37:19.082690 30033 net.cpp:425] relu3 <- conv3
I0403 14:37:19.082710 30033 net.cpp:386] relu3 -> conv3 (in-place)
I0403 14:37:19.082983 30033 net.cpp:141] Setting up relu3
I0403 14:37:19.083010 30033 net.cpp:148] Top shape: 100 384 13 13 (6489600)
I0403 14:37:19.083027 30033 net.cpp:156] Memory required for data: 731481200
I0403 14:37:19.083044 30033 layer_factory.hpp:77] Creating layer conv4
I0403 14:37:19.083068 30033 net.cpp:91] Creating Layer conv4
I0403 14:37:19.083086 30033 net.cpp:425] conv4 <- conv3
I0403 14:37:19.083106 30033 net.cpp:399] conv4 -> conv4
I0403 14:37:19.112567 30033 net.cpp:141] Setting up conv4
I0403 14:37:19.112633 30033 net.cpp:148] Top shape: 100 384 13 13 (6489600)
I0403 14:37:19.112684 30033 net.cpp:156] Memory required for data: 757439600
I0403 14:37:19.112705 30033 layer_factory.hpp:77] Creating layer relu4
I0403 14:37:19.112730 30033 net.cpp:91] Creating Layer relu4
I0403 14:37:19.112748 30033 net.cpp:425] relu4 <- conv4
I0403 14:37:19.112772 30033 net.cpp:386] relu4 -> conv4 (in-place)
I0403 14:37:19.113086 30033 net.cpp:141] Setting up relu4
I0403 14:37:19.113117 30033 net.cpp:148] Top shape: 100 384 13 13 (6489600)
I0403 14:37:19.113134 30033 net.cpp:156] Memory required for data: 783398000
I0403 14:37:19.113150 30033 layer_factory.hpp:77] Creating layer conv5
I0403 14:37:19.113179 30033 net.cpp:91] Creating Layer conv5
I0403 14:37:19.113199 30033 net.cpp:425] conv5 <- conv4
I0403 14:37:19.113219 30033 net.cpp:399] conv5 -> conv5
I0403 14:37:19.133167 30033 net.cpp:141] Setting up conv5
I0403 14:37:19.133203 30033 net.cpp:148] Top shape: 100 256 13 13 (4326400)
I0403 14:37:19.133221 30033 net.cpp:156] Memory required for data: 800703600
I0403 14:37:19.133245 30033 layer_factory.hpp:77] Creating layer relu5
I0403 14:37:19.133265 30033 net.cpp:91] Creating Layer relu5
I0403 14:37:19.133281 30033 net.cpp:425] relu5 <- conv5
I0403 14:37:19.133306 30033 net.cpp:386] relu5 -> conv5 (in-place)
I0403 14:37:19.133586 30033 net.cpp:141] Setting up relu5
I0403 14:37:19.133615 30033 net.cpp:148] Top shape: 100 256 13 13 (4326400)
I0403 14:37:19.133630 30033 net.cpp:156] Memory required for data: 818009200
I0403 14:37:19.133646 30033 layer_factory.hpp:77] Creating layer pool5
I0403 14:37:19.133672 30033 net.cpp:91] Creating Layer pool5
I0403 14:37:19.133690 30033 net.cpp:425] pool5 <- conv5
I0403 14:37:19.133709 30033 net.cpp:399] pool5 -> pool5
I0403 14:37:19.133769 30033 net.cpp:141] Setting up pool5
I0403 14:37:19.133792 30033 net.cpp:148] Top shape: 100 256 6 6 (921600)
I0403 14:37:19.133807 30033 net.cpp:156] Memory required for data: 821695600
I0403 14:37:19.133822 30033 layer_factory.hpp:77] Creating layer fc6
I0403 14:37:19.133849 30033 net.cpp:91] Creating Layer fc6
I0403 14:37:19.133867 30033 net.cpp:425] fc6 <- pool5
I0403 14:37:19.133889 30033 net.cpp:399] fc6 -> fc6
I0403 14:37:20.667732 30033 net.cpp:141] Setting up fc6
I0403 14:37:20.667778 30033 net.cpp:148] Top shape: 100 4096 (409600)
I0403 14:37:20.667796 30033 net.cpp:156] Memory required for data: 823334000
I0403 14:37:20.667817 30033 layer_factory.hpp:77] Creating layer relu6
I0403 14:37:20.667841 30033 net.cpp:91] Creating Layer relu6
I0403 14:37:20.667860 30033 net.cpp:425] relu6 <- fc6
I0403 14:37:20.667879 30033 net.cpp:386] relu6 -> fc6 (in-place)
I0403 14:37:20.668097 30033 net.cpp:141] Setting up relu6
I0403 14:37:20.668125 30033 net.cpp:148] Top shape: 100 4096 (409600)
I0403 14:37:20.668143 30033 net.cpp:156] Memory required for data: 824972400
I0403 14:37:20.668157 30033 layer_factory.hpp:77] Creating layer drop6
I0403 14:37:20.668177 30033 net.cpp:91] Creating Layer drop6
I0403 14:37:20.668195 30033 net.cpp:425] drop6 <- fc6
I0403 14:37:20.668215 30033 net.cpp:386] drop6 -> fc6 (in-place)
I0403 14:37:20.668264 30033 net.cpp:141] Setting up drop6
I0403 14:37:20.668293 30033 net.cpp:148] Top shape: 100 4096 (409600)
I0403 14:37:20.668309 30033 net.cpp:156] Memory required for data: 826610800
I0403 14:37:20.668325 30033 layer_factory.hpp:77] Creating layer fc7
I0403 14:37:20.668349 30033 net.cpp:91] Creating Layer fc7
I0403 14:37:20.668365 30033 net.cpp:425] fc7 <- fc6
I0403 14:37:20.668386 30033 net.cpp:399] fc7 -> fc7
I0403 14:37:21.344185 30033 net.cpp:141] Setting up fc7
I0403 14:37:21.344255 30033 net.cpp:148] Top shape: 100 4096 (409600)
I0403 14:37:21.344271 30033 net.cpp:156] Memory required for data: 828249200
I0403 14:37:21.344301 30033 layer_factory.hpp:77] Creating layer relu7
I0403 14:37:21.344326 30033 net.cpp:91] Creating Layer relu7
I0403 14:37:21.344344 30033 net.cpp:425] relu7 <- fc7
I0403 14:37:21.344367 30033 net.cpp:386] relu7 -> fc7 (in-place)
I0403 14:37:21.344749 30033 net.cpp:141] Setting up relu7
I0403 14:37:21.344776 30033 net.cpp:148] Top shape: 100 4096 (409600)
I0403 14:37:21.344825 30033 net.cpp:156] Memory required for data: 829887600
I0403 14:37:21.344841 30033 layer_factory.hpp:77] Creating layer drop7
I0403 14:37:21.344861 30033 net.cpp:91] Creating Layer drop7
I0403 14:37:21.344877 30033 net.cpp:425] drop7 <- fc7
I0403 14:37:21.344897 30033 net.cpp:386] drop7 -> fc7 (in-place)
I0403 14:37:21.344939 30033 net.cpp:141] Setting up drop7
I0403 14:37:21.344962 30033 net.cpp:148] Top shape: 100 4096 (409600)
I0403 14:37:21.344980 30033 net.cpp:156] Memory required for data: 831526000
I0403 14:37:21.344995 30033 layer_factory.hpp:77] Creating layer fc8_plantvillage
I0403 14:37:21.345016 30033 net.cpp:91] Creating Layer fc8_plantvillage
I0403 14:37:21.345031 30033 net.cpp:425] fc8_plantvillage <- fc7
I0403 14:37:21.345049 30033 net.cpp:399] fc8_plantvillage -> fc8_plantvillage
I0403 14:37:21.351570 30033 net.cpp:141] Setting up fc8_plantvillage
I0403 14:37:21.351599 30033 net.cpp:148] Top shape: 100 38 (3800)
I0403 14:37:21.351615 30033 net.cpp:156] Memory required for data: 831541200
I0403 14:37:21.351634 30033 layer_factory.hpp:77] Creating layer fc8_plantvillage_fc8_plantvillage_0_split
I0403 14:37:21.351651 30033 net.cpp:91] Creating Layer fc8_plantvillage_fc8_plantvillage_0_split
I0403 14:37:21.351666 30033 net.cpp:425] fc8_plantvillage_fc8_plantvillage_0_split <- fc8_plantvillage
I0403 14:37:21.351686 30033 net.cpp:399] fc8_plantvillage_fc8_plantvillage_0_split -> fc8_plantvillage_fc8_plantvillage_0_split_0
I0403 14:37:21.351706 30033 net.cpp:399] fc8_plantvillage_fc8_plantvillage_0_split -> fc8_plantvillage_fc8_plantvillage_0_split_1
I0403 14:37:21.351727 30033 net.cpp:399] fc8_plantvillage_fc8_plantvillage_0_split -> fc8_plantvillage_fc8_plantvillage_0_split_2
I0403 14:37:21.351804 30033 net.cpp:141] Setting up fc8_plantvillage_fc8_plantvillage_0_split
I0403 14:37:21.351829 30033 net.cpp:148] Top shape: 100 38 (3800)
I0403 14:37:21.351845 30033 net.cpp:148] Top shape: 100 38 (3800)
I0403 14:37:21.351861 30033 net.cpp:148] Top shape: 100 38 (3800)
I0403 14:37:21.351876 30033 net.cpp:156] Memory required for data: 831586800
I0403 14:37:21.351891 30033 layer_factory.hpp:77] Creating layer prob
I0403 14:37:21.351909 30033 net.cpp:91] Creating Layer prob
I0403 14:37:21.351924 30033 net.cpp:425] prob <- fc8_plantvillage_fc8_plantvillage_0_split_0
I0403 14:37:21.351943 30033 net.cpp:399] prob -> prob
I0403 14:37:21.352164 30033 net.cpp:141] Setting up prob
I0403 14:37:21.352190 30033 net.cpp:148] Top shape: 100 38 (3800)
I0403 14:37:21.352205 30033 net.cpp:156] Memory required for data: 831602000
I0403 14:37:21.352221 30033 layer_factory.hpp:77] Creating layer hdf5out
I0403 14:37:21.352239 30033 net.cpp:91] Creating Layer hdf5out
I0403 14:37:21.352255 30033 net.cpp:425] hdf5out <- prob
I0403 14:37:21.352272 30033 net.cpp:425] hdf5out <- label_data_1_split_0
I0403 14:37:21.356184 30033 net.cpp:141] Setting up hdf5out
…
