…
I0403 14:08:00.382144 29347 net.cpp:313] The NetState phase (1) differed from the phase (0) specified by a rule in layer data
I0403 14:08:00.382890 29347 net.cpp:49] Initializing net from parameters: 
state {
  phase: TEST
}
layer {
  name: "data"
  type: "Data"
  top: "data"
  top: "label"
  include {
    phase: TEST
  }
  transform_param {
    crop_size: 227
    mean_file: "/home/mohanty/data/final_dataset/lmdb/color-20-80/mean.binaryproto"
  }
  data_param {
    source: "/home/mohanty/data/final_dataset/lmdb/color-20-80/test_db"
    batch_size: 100
    backend: LMDB
  }
}
layer {
  name: "conv1"
  type: "Convolution"
  bottom: "data"
  top: "conv1"
  param {
    lr_mult: 1
    decay_mult: 1
  }
  param {
    lr_mult: 2
    decay_mult: 0
  }
  convolution_param {
    num_output: 96
    kernel_size: 11
    stride: 4
    weight_filler {
      type: "gaussian"
      std: 0.01
    }
    bias_filler {
      type: "constant"
      value: 0
    }
  }
}
layer {
  name: "relu1"
  type: "ReLU"
  bottom: "conv1"
  top: "conv1"
}
layer {
  name: "norm1"
  type: "LRN"
  bottom: "conv1"
  top: "norm1"
  lrn_param {
    local_size: 5
    alpha: 0.0001
    beta: 0.75
  }
}
layer {
  name: "pool1"
  type: "Pooling"
  bottom: "norm1"
  top: "pool1"
  pooling_param {
    pool: MAX
    kernel_size: 3
    stride: 2
  }
}
layer {
  name: "conv2"
  type: "Convolution"
  bottom: "pool1"
  top: "conv2"
  param {
    lr_mult: 1
    decay_mult: 1
  }
  param {
    lr_mult: 2
    decay_mult: 0
  }
  convolution_param {
    num_output: 256
    pad: 2
    kernel_size: 5
    group: 2
    weight_filler {
      type: "gaussian"
      std: 0.01
    }
    bias_filler {
      type: "constant"
      value: 0.1
    }
  }
}
layer {
  name: "relu2"
  type: "ReLU"
  bottom: "conv2"
  top: "conv2"
}
layer {
  name: "norm2"
  type: "LRN"
  bottom: "conv2"
  top: "norm2"
  lrn_param {
    local_size: 5
    alpha: 0.0001
    beta: 0.75
  }
}
layer {
  name: "pool2"
  type: "Pooling"
  bottom: "norm2"
  top: "pool2"
  pooling_param {
    pool: MAX
    kernel_size: 3
    stride: 2
  }
}
layer {
  name: "conv3"
  type: "Convolution"
  bottom: "pool2"
  top: "conv3"
  param {
    lr_mult: 1
    decay_mult: 1
  }
  param {
    lr_mult: 2
    decay_mult: 0
  }
  convolution_param {
    num_output: 384
    pad: 1
    kernel_size: 3
    weight_filler {
      type: "gaussian"
      std: 0.01
    }
    bias_filler {
      type: "constant"
      value: 0
    }
  }
}
layer {
  name: "relu3"
  type: "ReLU"
  bottom: "conv3"
  top: "conv3"
}
layer {
  name: "conv4"
  type: "Convolution"
  bottom: "conv3"
  top: "conv4"
  param {
    lr_mult: 1
    decay_mult: 1
  }
  param {
    lr_mult: 2
    decay_mult: 0
  }
  convolution_param {
    num_output: 384
    pad: 1
    kernel_size: 3
    group: 2
    weight_filler {
      type: "gaussian"
      std: 0.01
    }
    bias_filler {
      type: "constant"
      value: 0.1
    }
  }
}
layer {
  name: "relu4"
  type: "ReLU"
  bottom: "conv4"
  top: "conv4"
}
layer {
  name: "conv5"
  type: "Convolution"
  bottom: "conv4"
  top: "conv5"
  param {
    lr_mult: 1
    decay_mult: 1
  }
  param {
    lr_mult: 2
    decay_mult: 0
  }
  convolution_param {
    num_output: 256
    pad: 1
    kernel_size: 3
    group: 2
    weight_filler {
      type: "gaussian"
      std: 0.01
    }
    bias_filler {
      type: "constant"
      value: 0.1
    }
  }
}
layer {
  name: "relu5"
  type: "ReLU"
  bottom: "conv5"
  top: "conv5"
}
layer {
  name: "pool5"
  type: "Pooling"
  bottom: "conv5"
  top: "pool5"
  pooling_param {
    pool: MAX
    kernel_size: 3
    stride: 2
  }
}
layer {
  name: "fc6"
  type: "InnerProduct"
  bottom: "pool5"
  top: "fc6"
  param {
    lr_mult: 1
    decay_mult: 1
  }
  param {
    lr_mult: 2
    decay_mult: 0
  }
  inner_product_param {
    num_output: 4096
    weight_filler {
      type: "gaussian"
      std: 0.005
    }
    bias_filler {
      type: "constant"
      value: 0.1
    }
  }
}
layer {
  name: "relu6"
  type: "ReLU"
  bottom: "fc6"
  top: "fc6"
}
layer {
  name: "drop6"
  type: "Dropout"
  bottom: "fc6"
  top: "fc6"
  dropout_param {
    dropout_ratio: 0.5
  }
}
layer {
  name: "fc7"
  type: "InnerProduct"
  bottom: "fc6"
  top: "fc7"
  param {
    lr_mult: 1
    decay_mult: 1
  }
  param {
    lr_mult: 2
    decay_mult: 0
  }
  inner_product_param {
    num_output: 4096
    weight_filler {
      type: "gaussian"
      std: 0.005
    }
    bias_filler {
      type: "constant"
      value: 0.1
    }
  }
}
layer {
  name: "relu7"
  type: "ReLU"
  bottom: "fc7"
  top: "fc7"
}
layer {
  name: "drop7"
  type: "Dropout"
  bottom: "fc7"
  top: "fc7"
  dropout_param {
    dropout_ratio: 0.5
  }
}
layer {
  name: "fc8_plantvillage"
  type: "InnerProduct"
  bottom: "fc7"
  top: "fc8_plantvillage"
  param {
    lr_mult: 1
    decay_mult: 1
  }
  param {
    lr_mult: 2
    decay_mult: 0
  }
  inner_product_param {
    num_output: 38
    weight_filler {
      type: "gaussian"
      std: 0.01
    }
    bias_filler {
      type: "constant"
      value: 0
    }
  }
}
layer {
  name: "prob"
  type: "Softmax"
  bottom: "fc8_plantvillage"
  top: "prob"
  include {
    phase: TEST
  }
}
layer {
  name: "hdf5out"
  type: "HDF5Output"
  bottom: "prob"
  bottom: "label"
  include {
    phase: TEST
  }
  hdf5_output_param {
    file_name: "hdf5_dumps/iter_324.h5"
  }
}
layer {
  name: "loss"
  type: "SoftmaxWithLoss"
  bottom: "fc8_plantvillage"
  bottom: "label"
  top: "loss"
}
layer {
  name: "accuracy"
  type: "Accuracy"
  bottom: "fc8_plantvillage"
  bottom: "label"
  top: "accuracy"
  include {
    phase: TEST
  }
}
I0403 14:08:00.384096 29347 layer_factory.hpp:77] Creating layer data
I0403 14:08:00.385776 29347 net.cpp:91] Creating Layer data
I0403 14:08:00.385859 29347 net.cpp:399] data -> data
I0403 14:08:00.385975 29347 net.cpp:399] data -> label
I0403 14:08:00.386062 29347 data_transformer.cpp:25] Loading mean file from: /home/mohanty/data/final_dataset/lmdb/color-20-80/mean.binaryproto
I0403 14:08:00.390194 29352 db_lmdb.cpp:38] Opened lmdb /home/mohanty/data/final_dataset/lmdb/color-20-80/test_db
I0403 14:08:00.424998 29347 data_layer.cpp:41] output data size: 100,3,227,227
I0403 14:08:00.575919 29347 net.cpp:141] Setting up data
I0403 14:08:00.576030 29347 net.cpp:148] Top shape: 100 3 227 227 (15458700)
I0403 14:08:00.576057 29347 net.cpp:148] Top shape: 100 (100)
I0403 14:08:00.576076 29347 net.cpp:156] Memory required for data: 61835200
I0403 14:08:00.576108 29347 layer_factory.hpp:77] Creating layer label_data_1_split
I0403 14:08:00.576140 29347 net.cpp:91] Creating Layer label_data_1_split
I0403 14:08:00.576162 29347 net.cpp:425] label_data_1_split <- label
I0403 14:08:00.576200 29347 net.cpp:399] label_data_1_split -> label_data_1_split_0
I0403 14:08:00.576232 29347 net.cpp:399] label_data_1_split -> label_data_1_split_1
I0403 14:08:00.576263 29347 net.cpp:399] label_data_1_split -> label_data_1_split_2
I0403 14:08:00.576346 29347 net.cpp:141] Setting up label_data_1_split
I0403 14:08:00.576375 29347 net.cpp:148] Top shape: 100 (100)
I0403 14:08:00.576395 29347 net.cpp:148] Top shape: 100 (100)
I0403 14:08:00.576414 29347 net.cpp:148] Top shape: 100 (100)
I0403 14:08:00.576432 29347 net.cpp:156] Memory required for data: 61836400
I0403 14:08:00.576450 29347 layer_factory.hpp:77] Creating layer conv1
I0403 14:08:00.576488 29347 net.cpp:91] Creating Layer conv1
I0403 14:08:00.576510 29347 net.cpp:425] conv1 <- data
I0403 14:08:00.576534 29347 net.cpp:399] conv1 -> conv1
I0403 14:08:00.796573 29347 net.cpp:141] Setting up conv1
I0403 14:08:00.796627 29347 net.cpp:148] Top shape: 100 96 55 55 (29040000)
I0403 14:08:00.796648 29347 net.cpp:156] Memory required for data: 177996400
I0403 14:08:00.796682 29347 layer_factory.hpp:77] Creating layer relu1
I0403 14:08:00.796713 29347 net.cpp:91] Creating Layer relu1
I0403 14:08:00.796736 29347 net.cpp:425] relu1 <- conv1
I0403 14:08:00.796756 29347 net.cpp:386] relu1 -> conv1 (in-place)
I0403 14:08:00.797060 29347 net.cpp:141] Setting up relu1
I0403 14:08:00.797093 29347 net.cpp:148] Top shape: 100 96 55 55 (29040000)
I0403 14:08:00.797112 29347 net.cpp:156] Memory required for data: 294156400
I0403 14:08:00.797154 29347 layer_factory.hpp:77] Creating layer norm1
I0403 14:08:00.797189 29347 net.cpp:91] Creating Layer norm1
I0403 14:08:00.797211 29347 net.cpp:425] norm1 <- conv1
I0403 14:08:00.797233 29347 net.cpp:399] norm1 -> norm1
I0403 14:08:00.797672 29347 net.cpp:141] Setting up norm1
I0403 14:08:00.797708 29347 net.cpp:148] Top shape: 100 96 55 55 (29040000)
I0403 14:08:00.797727 29347 net.cpp:156] Memory required for data: 410316400
I0403 14:08:00.797745 29347 layer_factory.hpp:77] Creating layer pool1
I0403 14:08:00.797773 29347 net.cpp:91] Creating Layer pool1
I0403 14:08:00.797793 29347 net.cpp:425] pool1 <- norm1
I0403 14:08:00.797816 29347 net.cpp:399] pool1 -> pool1
I0403 14:08:00.797895 29347 net.cpp:141] Setting up pool1
I0403 14:08:00.797925 29347 net.cpp:148] Top shape: 100 96 27 27 (6998400)
I0403 14:08:00.797943 29347 net.cpp:156] Memory required for data: 438310000
I0403 14:08:00.797962 29347 layer_factory.hpp:77] Creating layer conv2
I0403 14:08:00.797989 29347 net.cpp:91] Creating Layer conv2
I0403 14:08:00.798010 29347 net.cpp:425] conv2 <- pool1
I0403 14:08:00.798032 29347 net.cpp:399] conv2 -> conv2
I0403 14:08:00.816242 29347 net.cpp:141] Setting up conv2
I0403 14:08:00.816290 29347 net.cpp:148] Top shape: 100 256 27 27 (18662400)
I0403 14:08:00.816318 29347 net.cpp:156] Memory required for data: 512959600
I0403 14:08:00.816354 29347 layer_factory.hpp:77] Creating layer relu2
I0403 14:08:00.816380 29347 net.cpp:91] Creating Layer relu2
I0403 14:08:00.816401 29347 net.cpp:425] relu2 <- conv2
I0403 14:08:00.816426 29347 net.cpp:386] relu2 -> conv2 (in-place)
I0403 14:08:00.816768 29347 net.cpp:141] Setting up relu2
I0403 14:08:00.816802 29347 net.cpp:148] Top shape: 100 256 27 27 (18662400)
I0403 14:08:00.816822 29347 net.cpp:156] Memory required for data: 587609200
I0403 14:08:00.816840 29347 layer_factory.hpp:77] Creating layer norm2
I0403 14:08:00.816869 29347 net.cpp:91] Creating Layer norm2
I0403 14:08:00.816890 29347 net.cpp:425] norm2 <- conv2
I0403 14:08:00.816913 29347 net.cpp:399] norm2 -> norm2
I0403 14:08:00.817150 29347 net.cpp:141] Setting up norm2
I0403 14:08:00.817186 29347 net.cpp:148] Top shape: 100 256 27 27 (18662400)
I0403 14:08:00.817206 29347 net.cpp:156] Memory required for data: 662258800
I0403 14:08:00.817224 29347 layer_factory.hpp:77] Creating layer pool2
I0403 14:08:00.817247 29347 net.cpp:91] Creating Layer pool2
I0403 14:08:00.817275 29347 net.cpp:425] pool2 <- norm2
I0403 14:08:00.817301 29347 net.cpp:399] pool2 -> pool2
I0403 14:08:00.817379 29347 net.cpp:141] Setting up pool2
I0403 14:08:00.817409 29347 net.cpp:148] Top shape: 100 256 13 13 (4326400)
I0403 14:08:00.817426 29347 net.cpp:156] Memory required for data: 679564400
I0403 14:08:00.817445 29347 layer_factory.hpp:77] Creating layer conv3
I0403 14:08:00.817472 29347 net.cpp:91] Creating Layer conv3
I0403 14:08:00.817493 29347 net.cpp:425] conv3 <- pool2
I0403 14:08:00.817518 29347 net.cpp:399] conv3 -> conv3
I0403 14:08:00.864418 29347 net.cpp:141] Setting up conv3
I0403 14:08:00.864469 29347 net.cpp:148] Top shape: 100 384 13 13 (6489600)
I0403 14:08:00.864490 29347 net.cpp:156] Memory required for data: 705522800
I0403 14:08:00.864522 29347 layer_factory.hpp:77] Creating layer relu3
I0403 14:08:00.864550 29347 net.cpp:91] Creating Layer relu3
I0403 14:08:00.864573 29347 net.cpp:425] relu3 <- conv3
I0403 14:08:00.864594 29347 net.cpp:386] relu3 -> conv3 (in-place)
I0403 14:08:00.874222 29347 net.cpp:141] Setting up relu3
I0403 14:08:00.874260 29347 net.cpp:148] Top shape: 100 384 13 13 (6489600)
I0403 14:08:00.874280 29347 net.cpp:156] Memory required for data: 731481200
I0403 14:08:00.874320 29347 layer_factory.hpp:77] Creating layer conv4
I0403 14:08:00.874349 29347 net.cpp:91] Creating Layer conv4
I0403 14:08:00.874371 29347 net.cpp:425] conv4 <- conv3
I0403 14:08:00.874393 29347 net.cpp:399] conv4 -> conv4
I0403 14:08:00.910559 29347 net.cpp:141] Setting up conv4
I0403 14:08:00.910606 29347 net.cpp:148] Top shape: 100 384 13 13 (6489600)
I0403 14:08:00.910650 29347 net.cpp:156] Memory required for data: 757439600
I0403 14:08:00.910677 29347 layer_factory.hpp:77] Creating layer relu4
I0403 14:08:00.910704 29347 net.cpp:91] Creating Layer relu4
I0403 14:08:00.910727 29347 net.cpp:425] relu4 <- conv4
I0403 14:08:00.910748 29347 net.cpp:386] relu4 -> conv4 (in-place)
I0403 14:08:00.911079 29347 net.cpp:141] Setting up relu4
I0403 14:08:00.911113 29347 net.cpp:148] Top shape: 100 384 13 13 (6489600)
I0403 14:08:00.911131 29347 net.cpp:156] Memory required for data: 783398000
I0403 14:08:00.911150 29347 layer_factory.hpp:77] Creating layer conv5
I0403 14:08:00.911181 29347 net.cpp:91] Creating Layer conv5
I0403 14:08:00.911208 29347 net.cpp:425] conv5 <- conv4
I0403 14:08:00.911232 29347 net.cpp:399] conv5 -> conv5
I0403 14:08:00.936023 29347 net.cpp:141] Setting up conv5
I0403 14:08:00.936065 29347 net.cpp:148] Top shape: 100 256 13 13 (4326400)
I0403 14:08:00.936089 29347 net.cpp:156] Memory required for data: 800703600
I0403 14:08:00.936117 29347 layer_factory.hpp:77] Creating layer relu5
I0403 14:08:00.936141 29347 net.cpp:91] Creating Layer relu5
I0403 14:08:00.936161 29347 net.cpp:425] relu5 <- conv5
I0403 14:08:00.936182 29347 net.cpp:386] relu5 -> conv5 (in-place)
I0403 14:08:00.936529 29347 net.cpp:141] Setting up relu5
I0403 14:08:00.936565 29347 net.cpp:148] Top shape: 100 256 13 13 (4326400)
I0403 14:08:00.936585 29347 net.cpp:156] Memory required for data: 818009200
I0403 14:08:00.936604 29347 layer_factory.hpp:77] Creating layer pool5
I0403 14:08:00.936630 29347 net.cpp:91] Creating Layer pool5
I0403 14:08:00.936648 29347 net.cpp:425] pool5 <- conv5
I0403 14:08:00.936674 29347 net.cpp:399] pool5 -> pool5
I0403 14:08:00.936748 29347 net.cpp:141] Setting up pool5
I0403 14:08:00.936777 29347 net.cpp:148] Top shape: 100 256 6 6 (921600)
I0403 14:08:00.936796 29347 net.cpp:156] Memory required for data: 821695600
I0403 14:08:00.936815 29347 layer_factory.hpp:77] Creating layer fc6
I0403 14:08:00.936851 29347 net.cpp:91] Creating Layer fc6
I0403 14:08:00.936877 29347 net.cpp:425] fc6 <- pool5
I0403 14:08:00.936903 29347 net.cpp:399] fc6 -> fc6
I0403 14:08:02.604305 29347 net.cpp:141] Setting up fc6
I0403 14:08:02.604373 29347 net.cpp:148] Top shape: 100 4096 (409600)
I0403 14:08:02.604389 29347 net.cpp:156] Memory required for data: 823334000
I0403 14:08:02.604410 29347 layer_factory.hpp:77] Creating layer relu6
I0403 14:08:02.604434 29347 net.cpp:91] Creating Layer relu6
I0403 14:08:02.604452 29347 net.cpp:425] relu6 <- fc6
I0403 14:08:02.604472 29347 net.cpp:386] relu6 -> fc6 (in-place)
I0403 14:08:02.604681 29347 net.cpp:141] Setting up relu6
I0403 14:08:02.604708 29347 net.cpp:148] Top shape: 100 4096 (409600)
I0403 14:08:02.604723 29347 net.cpp:156] Memory required for data: 824972400
I0403 14:08:02.604739 29347 layer_factory.hpp:77] Creating layer drop6
I0403 14:08:02.604758 29347 net.cpp:91] Creating Layer drop6
I0403 14:08:02.604773 29347 net.cpp:425] drop6 <- fc6
I0403 14:08:02.604789 29347 net.cpp:386] drop6 -> fc6 (in-place)
I0403 14:08:02.604840 29347 net.cpp:141] Setting up drop6
I0403 14:08:02.604863 29347 net.cpp:148] Top shape: 100 4096 (409600)
I0403 14:08:02.604878 29347 net.cpp:156] Memory required for data: 826610800
I0403 14:08:02.604892 29347 layer_factory.hpp:77] Creating layer fc7
I0403 14:08:02.604914 29347 net.cpp:91] Creating Layer fc7
I0403 14:08:02.604931 29347 net.cpp:425] fc7 <- fc6
I0403 14:08:02.604949 29347 net.cpp:399] fc7 -> fc7
I0403 14:08:03.284850 29347 net.cpp:141] Setting up fc7
I0403 14:08:03.284907 29347 net.cpp:148] Top shape: 100 4096 (409600)
I0403 14:08:03.284924 29347 net.cpp:156] Memory required for data: 828249200
I0403 14:08:03.284945 29347 layer_factory.hpp:77] Creating layer relu7
I0403 14:08:03.284970 29347 net.cpp:91] Creating Layer relu7
I0403 14:08:03.284987 29347 net.cpp:425] relu7 <- fc7
I0403 14:08:03.285007 29347 net.cpp:386] relu7 -> fc7 (in-place)
I0403 14:08:03.285403 29347 net.cpp:141] Setting up relu7
I0403 14:08:03.285434 29347 net.cpp:148] Top shape: 100 4096 (409600)
I0403 14:08:03.285481 29347 net.cpp:156] Memory required for data: 829887600
I0403 14:08:03.285497 29347 layer_factory.hpp:77] Creating layer drop7
I0403 14:08:03.285517 29347 net.cpp:91] Creating Layer drop7
I0403 14:08:03.285533 29347 net.cpp:425] drop7 <- fc7
I0403 14:08:03.285550 29347 net.cpp:386] drop7 -> fc7 (in-place)
I0403 14:08:03.285598 29347 net.cpp:141] Setting up drop7
I0403 14:08:03.285620 29347 net.cpp:148] Top shape: 100 4096 (409600)
I0403 14:08:03.285634 29347 net.cpp:156] Memory required for data: 831526000
I0403 14:08:03.285650 29347 layer_factory.hpp:77] Creating layer fc8_plantvillage
I0403 14:08:03.285673 29347 net.cpp:91] Creating Layer fc8_plantvillage
I0403 14:08:03.285689 29347 net.cpp:425] fc8_plantvillage <- fc7
I0403 14:08:03.285707 29347 net.cpp:399] fc8_plantvillage -> fc8_plantvillage
I0403 14:08:03.292419 29347 net.cpp:141] Setting up fc8_plantvillage
I0403 14:08:03.292448 29347 net.cpp:148] Top shape: 100 38 (3800)
I0403 14:08:03.292462 29347 net.cpp:156] Memory required for data: 831541200
I0403 14:08:03.292480 29347 layer_factory.hpp:77] Creating layer fc8_plantvillage_fc8_plantvillage_0_split
I0403 14:08:03.292500 29347 net.cpp:91] Creating Layer fc8_plantvillage_fc8_plantvillage_0_split
I0403 14:08:03.292515 29347 net.cpp:425] fc8_plantvillage_fc8_plantvillage_0_split <- fc8_plantvillage
I0403 14:08:03.292531 29347 net.cpp:399] fc8_plantvillage_fc8_plantvillage_0_split -> fc8_plantvillage_fc8_plantvillage_0_split_0
I0403 14:08:03.292553 29347 net.cpp:399] fc8_plantvillage_fc8_plantvillage_0_split -> fc8_plantvillage_fc8_plantvillage_0_split_1
I0403 14:08:03.292574 29347 net.cpp:399] fc8_plantvillage_fc8_plantvillage_0_split -> fc8_plantvillage_fc8_plantvillage_0_split_2
I0403 14:08:03.292649 29347 net.cpp:141] Setting up fc8_plantvillage_fc8_plantvillage_0_split
I0403 14:08:03.292672 29347 net.cpp:148] Top shape: 100 38 (3800)
I0403 14:08:03.292690 29347 net.cpp:148] Top shape: 100 38 (3800)
I0403 14:08:03.292704 29347 net.cpp:148] Top shape: 100 38 (3800)
I0403 14:08:03.292718 29347 net.cpp:156] Memory required for data: 831586800
I0403 14:08:03.292732 29347 layer_factory.hpp:77] Creating layer prob
I0403 14:08:03.292752 29347 net.cpp:91] Creating Layer prob
I0403 14:08:03.292768 29347 net.cpp:425] prob <- fc8_plantvillage_fc8_plantvillage_0_split_0
I0403 14:08:03.292785 29347 net.cpp:399] prob -> prob
I0403 14:08:03.293004 29347 net.cpp:141] Setting up prob
I0403 14:08:03.293030 29347 net.cpp:148] Top shape: 100 38 (3800)
I0403 14:08:03.293045 29347 net.cpp:156] Memory required for data: 831602000
I0403 14:08:03.293059 29347 layer_factory.hpp:77] Creating layer hdf5out
I0403 14:08:03.293081 29347 net.cpp:91] Creating Layer hdf5out
I0403 14:08:03.293098 29347 net.cpp:425] hdf5out <- prob
I0403 14:08:03.293114 29347 net.cpp:425] hdf5out <- label_data_1_split_0
I0403 14:08:03.297274 29347 net.cpp:141] Setting up hdf5out
…
