…
I0403 14:09:28.025513 29384 net.cpp:313] The NetState phase (1) differed from the phase (0) specified by a rule in layer data
I0403 14:09:28.025810 29384 net.cpp:49] Initializing net from parameters: 
state {
  phase: TEST
}
layer {
  name: "data"
  type: "Data"
  top: "data"
  top: "label"
  include {
    phase: TEST
  }
  transform_param {
    crop_size: 227
    mean_file: "/home/mohanty/data/final_dataset/lmdb/color-20-80/mean.binaryproto"
  }
  data_param {
    source: "/home/mohanty/data/final_dataset/lmdb/color-20-80/test_db"
    batch_size: 100
    backend: LMDB
  }
}
layer {
  name: "conv1"
  type: "Convolution"
  bottom: "data"
  top: "conv1"
  param {
    lr_mult: 1
    decay_mult: 1
  }
  param {
    lr_mult: 2
    decay_mult: 0
  }
  convolution_param {
    num_output: 96
    kernel_size: 11
    stride: 4
    weight_filler {
      type: "gaussian"
      std: 0.01
    }
    bias_filler {
      type: "constant"
      value: 0
    }
  }
}
layer {
  name: "relu1"
  type: "ReLU"
  bottom: "conv1"
  top: "conv1"
}
layer {
  name: "norm1"
  type: "LRN"
  bottom: "conv1"
  top: "norm1"
  lrn_param {
    local_size: 5
    alpha: 0.0001
    beta: 0.75
  }
}
layer {
  name: "pool1"
  type: "Pooling"
  bottom: "norm1"
  top: "pool1"
  pooling_param {
    pool: MAX
    kernel_size: 3
    stride: 2
  }
}
layer {
  name: "conv2"
  type: "Convolution"
  bottom: "pool1"
  top: "conv2"
  param {
    lr_mult: 1
    decay_mult: 1
  }
  param {
    lr_mult: 2
    decay_mult: 0
  }
  convolution_param {
    num_output: 256
    pad: 2
    kernel_size: 5
    group: 2
    weight_filler {
      type: "gaussian"
      std: 0.01
    }
    bias_filler {
      type: "constant"
      value: 0.1
    }
  }
}
layer {
  name: "relu2"
  type: "ReLU"
  bottom: "conv2"
  top: "conv2"
}
layer {
  name: "norm2"
  type: "LRN"
  bottom: "conv2"
  top: "norm2"
  lrn_param {
    local_size: 5
    alpha: 0.0001
    beta: 0.75
  }
}
layer {
  name: "pool2"
  type: "Pooling"
  bottom: "norm2"
  top: "pool2"
  pooling_param {
    pool: MAX
    kernel_size: 3
    stride: 2
  }
}
layer {
  name: "conv3"
  type: "Convolution"
  bottom: "pool2"
  top: "conv3"
  param {
    lr_mult: 1
    decay_mult: 1
  }
  param {
    lr_mult: 2
    decay_mult: 0
  }
  convolution_param {
    num_output: 384
    pad: 1
    kernel_size: 3
    weight_filler {
      type: "gaussian"
      std: 0.01
    }
    bias_filler {
      type: "constant"
      value: 0
    }
  }
}
layer {
  name: "relu3"
  type: "ReLU"
  bottom: "conv3"
  top: "conv3"
}
layer {
  name: "conv4"
  type: "Convolution"
  bottom: "conv3"
  top: "conv4"
  param {
    lr_mult: 1
    decay_mult: 1
  }
  param {
    lr_mult: 2
    decay_mult: 0
  }
  convolution_param {
    num_output: 384
    pad: 1
    kernel_size: 3
    group: 2
    weight_filler {
      type: "gaussian"
      std: 0.01
    }
    bias_filler {
      type: "constant"
      value: 0.1
    }
  }
}
layer {
  name: "relu4"
  type: "ReLU"
  bottom: "conv4"
  top: "conv4"
}
layer {
  name: "conv5"
  type: "Convolution"
  bottom: "conv4"
  top: "conv5"
  param {
    lr_mult: 1
    decay_mult: 1
  }
  param {
    lr_mult: 2
    decay_mult: 0
  }
  convolution_param {
    num_output: 256
    pad: 1
    kernel_size: 3
    group: 2
    weight_filler {
      type: "gaussian"
      std: 0.01
    }
    bias_filler {
      type: "constant"
      value: 0.1
    }
  }
}
layer {
  name: "relu5"
  type: "ReLU"
  bottom: "conv5"
  top: "conv5"
}
layer {
  name: "pool5"
  type: "Pooling"
  bottom: "conv5"
  top: "pool5"
  pooling_param {
    pool: MAX
    kernel_size: 3
    stride: 2
  }
}
layer {
  name: "fc6"
  type: "InnerProduct"
  bottom: "pool5"
  top: "fc6"
  param {
    lr_mult: 1
    decay_mult: 1
  }
  param {
    lr_mult: 2
    decay_mult: 0
  }
  inner_product_param {
    num_output: 4096
    weight_filler {
      type: "gaussian"
      std: 0.005
    }
    bias_filler {
      type: "constant"
      value: 0.1
    }
  }
}
layer {
  name: "relu6"
  type: "ReLU"
  bottom: "fc6"
  top: "fc6"
}
layer {
  name: "drop6"
  type: "Dropout"
  bottom: "fc6"
  top: "fc6"
  dropout_param {
    dropout_ratio: 0.5
  }
}
layer {
  name: "fc7"
  type: "InnerProduct"
  bottom: "fc6"
  top: "fc7"
  param {
    lr_mult: 1
    decay_mult: 1
  }
  param {
    lr_mult: 2
    decay_mult: 0
  }
  inner_product_param {
    num_output: 4096
    weight_filler {
      type: "gaussian"
      std: 0.005
    }
    bias_filler {
      type: "constant"
      value: 0.1
    }
  }
}
layer {
  name: "relu7"
  type: "ReLU"
  bottom: "fc7"
  top: "fc7"
}
layer {
  name: "drop7"
  type: "Dropout"
  bottom: "fc7"
  top: "fc7"
  dropout_param {
    dropout_ratio: 0.5
  }
}
layer {
  name: "fc8_plantvillage"
  type: "InnerProduct"
  bottom: "fc7"
  top: "fc8_plantvillage"
  param {
    lr_mult: 1
    decay_mult: 1
  }
  param {
    lr_mult: 2
    decay_mult: 0
  }
  inner_product_param {
    num_output: 38
    weight_filler {
      type: "gaussian"
      std: 0.01
    }
    bias_filler {
      type: "constant"
      value: 0
    }
  }
}
layer {
  name: "prob"
  type: "Softmax"
  bottom: "fc8_plantvillage"
  top: "prob"
  include {
    phase: TEST
  }
}
layer {
  name: "hdf5out"
  type: "HDF5Output"
  bottom: "prob"
  bottom: "label"
  include {
    phase: TEST
  }
  hdf5_output_param {
    file_name: "hdf5_dumps/iter_432.h5"
  }
}
layer {
  name: "loss"
  type: "SoftmaxWithLoss"
  bottom: "fc8_plantvillage"
  bottom: "label"
  top: "loss"
}
layer {
  name: "accuracy"
  type: "Accuracy"
  bottom: "fc8_plantvillage"
  bottom: "label"
  top: "accuracy"
  include {
    phase: TEST
  }
}
I0403 14:09:28.026360 29384 layer_factory.hpp:77] Creating layer data
I0403 14:09:28.026980 29384 net.cpp:91] Creating Layer data
I0403 14:09:28.027014 29384 net.cpp:399] data -> data
I0403 14:09:28.027063 29384 net.cpp:399] data -> label
I0403 14:09:28.027101 29384 data_transformer.cpp:25] Loading mean file from: /home/mohanty/data/final_dataset/lmdb/color-20-80/mean.binaryproto
I0403 14:09:28.030735 29387 db_lmdb.cpp:38] Opened lmdb /home/mohanty/data/final_dataset/lmdb/color-20-80/test_db
I0403 14:09:28.041272 29384 data_layer.cpp:41] output data size: 100,3,227,227
I0403 14:09:28.171635 29384 net.cpp:141] Setting up data
I0403 14:09:28.171701 29384 net.cpp:148] Top shape: 100 3 227 227 (15458700)
I0403 14:09:28.171725 29384 net.cpp:148] Top shape: 100 (100)
I0403 14:09:28.171741 29384 net.cpp:156] Memory required for data: 61835200
I0403 14:09:28.171767 29384 layer_factory.hpp:77] Creating layer label_data_1_split
I0403 14:09:28.171792 29384 net.cpp:91] Creating Layer label_data_1_split
I0403 14:09:28.171809 29384 net.cpp:425] label_data_1_split <- label
I0403 14:09:28.171839 29384 net.cpp:399] label_data_1_split -> label_data_1_split_0
I0403 14:09:28.171867 29384 net.cpp:399] label_data_1_split -> label_data_1_split_1
I0403 14:09:28.171888 29384 net.cpp:399] label_data_1_split -> label_data_1_split_2
I0403 14:09:28.171947 29384 net.cpp:141] Setting up label_data_1_split
I0403 14:09:28.171970 29384 net.cpp:148] Top shape: 100 (100)
I0403 14:09:28.171986 29384 net.cpp:148] Top shape: 100 (100)
I0403 14:09:28.172003 29384 net.cpp:148] Top shape: 100 (100)
I0403 14:09:28.172016 29384 net.cpp:156] Memory required for data: 61836400
I0403 14:09:28.172032 29384 layer_factory.hpp:77] Creating layer conv1
I0403 14:09:28.172063 29384 net.cpp:91] Creating Layer conv1
I0403 14:09:28.172081 29384 net.cpp:425] conv1 <- data
I0403 14:09:28.172101 29384 net.cpp:399] conv1 -> conv1
I0403 14:09:28.316825 29384 net.cpp:141] Setting up conv1
I0403 14:09:28.316895 29384 net.cpp:148] Top shape: 100 96 55 55 (29040000)
I0403 14:09:28.316913 29384 net.cpp:156] Memory required for data: 177996400
I0403 14:09:28.316944 29384 layer_factory.hpp:77] Creating layer relu1
I0403 14:09:28.316973 29384 net.cpp:91] Creating Layer relu1
I0403 14:09:28.316992 29384 net.cpp:425] relu1 <- conv1
I0403 14:09:28.317010 29384 net.cpp:386] relu1 -> conv1 (in-place)
I0403 14:09:28.317272 29384 net.cpp:141] Setting up relu1
I0403 14:09:28.317306 29384 net.cpp:148] Top shape: 100 96 55 55 (29040000)
I0403 14:09:28.317322 29384 net.cpp:156] Memory required for data: 294156400
I0403 14:09:28.317370 29384 layer_factory.hpp:77] Creating layer norm1
I0403 14:09:28.317399 29384 net.cpp:91] Creating Layer norm1
I0403 14:09:28.317420 29384 net.cpp:425] norm1 <- conv1
I0403 14:09:28.317440 29384 net.cpp:399] norm1 -> norm1
I0403 14:09:28.317764 29384 net.cpp:141] Setting up norm1
I0403 14:09:28.317796 29384 net.cpp:148] Top shape: 100 96 55 55 (29040000)
I0403 14:09:28.317814 29384 net.cpp:156] Memory required for data: 410316400
I0403 14:09:28.317831 29384 layer_factory.hpp:77] Creating layer pool1
I0403 14:09:28.317855 29384 net.cpp:91] Creating Layer pool1
I0403 14:09:28.317874 29384 net.cpp:425] pool1 <- norm1
I0403 14:09:28.317893 29384 net.cpp:399] pool1 -> pool1
I0403 14:09:28.317965 29384 net.cpp:141] Setting up pool1
I0403 14:09:28.317991 29384 net.cpp:148] Top shape: 100 96 27 27 (6998400)
I0403 14:09:28.318007 29384 net.cpp:156] Memory required for data: 438310000
I0403 14:09:28.318023 29384 layer_factory.hpp:77] Creating layer conv2
I0403 14:09:28.318051 29384 net.cpp:91] Creating Layer conv2
I0403 14:09:28.318071 29384 net.cpp:425] conv2 <- pool1
I0403 14:09:28.318094 29384 net.cpp:399] conv2 -> conv2
I0403 14:09:28.332684 29384 net.cpp:141] Setting up conv2
I0403 14:09:28.332716 29384 net.cpp:148] Top shape: 100 256 27 27 (18662400)
I0403 14:09:28.332733 29384 net.cpp:156] Memory required for data: 512959600
I0403 14:09:28.332756 29384 layer_factory.hpp:77] Creating layer relu2
I0403 14:09:28.332777 29384 net.cpp:91] Creating Layer relu2
I0403 14:09:28.332793 29384 net.cpp:425] relu2 <- conv2
I0403 14:09:28.332811 29384 net.cpp:386] relu2 -> conv2 (in-place)
I0403 14:09:28.333086 29384 net.cpp:141] Setting up relu2
I0403 14:09:28.333114 29384 net.cpp:148] Top shape: 100 256 27 27 (18662400)
I0403 14:09:28.333130 29384 net.cpp:156] Memory required for data: 587609200
I0403 14:09:28.333147 29384 layer_factory.hpp:77] Creating layer norm2
I0403 14:09:28.333168 29384 net.cpp:91] Creating Layer norm2
I0403 14:09:28.333186 29384 net.cpp:425] norm2 <- conv2
I0403 14:09:28.333204 29384 net.cpp:399] norm2 -> norm2
I0403 14:09:28.333408 29384 net.cpp:141] Setting up norm2
I0403 14:09:28.333433 29384 net.cpp:148] Top shape: 100 256 27 27 (18662400)
I0403 14:09:28.333449 29384 net.cpp:156] Memory required for data: 662258800
I0403 14:09:28.333466 29384 layer_factory.hpp:77] Creating layer pool2
I0403 14:09:28.333485 29384 net.cpp:91] Creating Layer pool2
I0403 14:09:28.333503 29384 net.cpp:425] pool2 <- norm2
I0403 14:09:28.333519 29384 net.cpp:399] pool2 -> pool2
I0403 14:09:28.333572 29384 net.cpp:141] Setting up pool2
I0403 14:09:28.333595 29384 net.cpp:148] Top shape: 100 256 13 13 (4326400)
I0403 14:09:28.333611 29384 net.cpp:156] Memory required for data: 679564400
I0403 14:09:28.333626 29384 layer_factory.hpp:77] Creating layer conv3
I0403 14:09:28.333648 29384 net.cpp:91] Creating Layer conv3
I0403 14:09:28.333665 29384 net.cpp:425] conv3 <- pool2
I0403 14:09:28.333685 29384 net.cpp:399] conv3 -> conv3
I0403 14:09:28.371498 29384 net.cpp:141] Setting up conv3
I0403 14:09:28.371570 29384 net.cpp:148] Top shape: 100 384 13 13 (6489600)
I0403 14:09:28.371588 29384 net.cpp:156] Memory required for data: 705522800
I0403 14:09:28.371614 29384 layer_factory.hpp:77] Creating layer relu3
I0403 14:09:28.371636 29384 net.cpp:91] Creating Layer relu3
I0403 14:09:28.371654 29384 net.cpp:425] relu3 <- conv3
I0403 14:09:28.371675 29384 net.cpp:386] relu3 -> conv3 (in-place)
I0403 14:09:28.371958 29384 net.cpp:141] Setting up relu3
I0403 14:09:28.371989 29384 net.cpp:148] Top shape: 100 384 13 13 (6489600)
I0403 14:09:28.372006 29384 net.cpp:156] Memory required for data: 731481200
I0403 14:09:28.372022 29384 layer_factory.hpp:77] Creating layer conv4
I0403 14:09:28.372048 29384 net.cpp:91] Creating Layer conv4
I0403 14:09:28.372067 29384 net.cpp:425] conv4 <- conv3
I0403 14:09:28.372087 29384 net.cpp:399] conv4 -> conv4
I0403 14:09:28.401819 29384 net.cpp:141] Setting up conv4
I0403 14:09:28.401860 29384 net.cpp:148] Top shape: 100 384 13 13 (6489600)
I0403 14:09:28.401911 29384 net.cpp:156] Memory required for data: 757439600
I0403 14:09:28.401937 29384 layer_factory.hpp:77] Creating layer relu4
I0403 14:09:28.401962 29384 net.cpp:91] Creating Layer relu4
I0403 14:09:28.401979 29384 net.cpp:425] relu4 <- conv4
I0403 14:09:28.401998 29384 net.cpp:386] relu4 -> conv4 (in-place)
I0403 14:09:28.402272 29384 net.cpp:141] Setting up relu4
I0403 14:09:28.402303 29384 net.cpp:148] Top shape: 100 384 13 13 (6489600)
I0403 14:09:28.402320 29384 net.cpp:156] Memory required for data: 783398000
I0403 14:09:28.402336 29384 layer_factory.hpp:77] Creating layer conv5
I0403 14:09:28.402364 29384 net.cpp:91] Creating Layer conv5
I0403 14:09:28.402381 29384 net.cpp:425] conv5 <- conv4
I0403 14:09:28.402402 29384 net.cpp:399] conv5 -> conv5
I0403 14:09:28.422291 29384 net.cpp:141] Setting up conv5
I0403 14:09:28.422327 29384 net.cpp:148] Top shape: 100 256 13 13 (4326400)
I0403 14:09:28.422344 29384 net.cpp:156] Memory required for data: 800703600
I0403 14:09:28.422369 29384 layer_factory.hpp:77] Creating layer relu5
I0403 14:09:28.422392 29384 net.cpp:91] Creating Layer relu5
I0403 14:09:28.422421 29384 net.cpp:425] relu5 <- conv5
I0403 14:09:28.422440 29384 net.cpp:386] relu5 -> conv5 (in-place)
I0403 14:09:28.422713 29384 net.cpp:141] Setting up relu5
I0403 14:09:28.422744 29384 net.cpp:148] Top shape: 100 256 13 13 (4326400)
I0403 14:09:28.422762 29384 net.cpp:156] Memory required for data: 818009200
I0403 14:09:28.422778 29384 layer_factory.hpp:77] Creating layer pool5
I0403 14:09:28.422801 29384 net.cpp:91] Creating Layer pool5
I0403 14:09:28.422817 29384 net.cpp:425] pool5 <- conv5
I0403 14:09:28.422840 29384 net.cpp:399] pool5 -> pool5
I0403 14:09:28.422904 29384 net.cpp:141] Setting up pool5
I0403 14:09:28.422930 29384 net.cpp:148] Top shape: 100 256 6 6 (921600)
I0403 14:09:28.422947 29384 net.cpp:156] Memory required for data: 821695600
I0403 14:09:28.422963 29384 layer_factory.hpp:77] Creating layer fc6
I0403 14:09:28.422988 29384 net.cpp:91] Creating Layer fc6
I0403 14:09:28.423007 29384 net.cpp:425] fc6 <- pool5
I0403 14:09:28.423027 29384 net.cpp:399] fc6 -> fc6
I0403 14:09:29.980797 29384 net.cpp:141] Setting up fc6
I0403 14:09:29.980839 29384 net.cpp:148] Top shape: 100 4096 (409600)
I0403 14:09:29.980855 29384 net.cpp:156] Memory required for data: 823334000
I0403 14:09:29.980875 29384 layer_factory.hpp:77] Creating layer relu6
I0403 14:09:29.980901 29384 net.cpp:91] Creating Layer relu6
I0403 14:09:29.980919 29384 net.cpp:425] relu6 <- fc6
I0403 14:09:29.980939 29384 net.cpp:386] relu6 -> fc6 (in-place)
I0403 14:09:29.981154 29384 net.cpp:141] Setting up relu6
I0403 14:09:29.981183 29384 net.cpp:148] Top shape: 100 4096 (409600)
I0403 14:09:29.981199 29384 net.cpp:156] Memory required for data: 824972400
I0403 14:09:29.981215 29384 layer_factory.hpp:77] Creating layer drop6
I0403 14:09:29.981233 29384 net.cpp:91] Creating Layer drop6
I0403 14:09:29.981250 29384 net.cpp:425] drop6 <- fc6
I0403 14:09:29.981266 29384 net.cpp:386] drop6 -> fc6 (in-place)
I0403 14:09:29.981324 29384 net.cpp:141] Setting up drop6
I0403 14:09:29.981348 29384 net.cpp:148] Top shape: 100 4096 (409600)
I0403 14:09:29.981364 29384 net.cpp:156] Memory required for data: 826610800
I0403 14:09:29.981377 29384 layer_factory.hpp:77] Creating layer fc7
I0403 14:09:29.981402 29384 net.cpp:91] Creating Layer fc7
I0403 14:09:29.981420 29384 net.cpp:425] fc7 <- fc6
I0403 14:09:29.981438 29384 net.cpp:399] fc7 -> fc7
I0403 14:09:30.657173 29384 net.cpp:141] Setting up fc7
I0403 14:09:30.657233 29384 net.cpp:148] Top shape: 100 4096 (409600)
I0403 14:09:30.657250 29384 net.cpp:156] Memory required for data: 828249200
I0403 14:09:30.657274 29384 layer_factory.hpp:77] Creating layer relu7
I0403 14:09:30.657300 29384 net.cpp:91] Creating Layer relu7
I0403 14:09:30.657320 29384 net.cpp:425] relu7 <- fc7
I0403 14:09:30.657340 29384 net.cpp:386] relu7 -> fc7 (in-place)
I0403 14:09:30.657742 29384 net.cpp:141] Setting up relu7
I0403 14:09:30.657773 29384 net.cpp:148] Top shape: 100 4096 (409600)
I0403 14:09:30.657822 29384 net.cpp:156] Memory required for data: 829887600
I0403 14:09:30.657840 29384 layer_factory.hpp:77] Creating layer drop7
I0403 14:09:30.657858 29384 net.cpp:91] Creating Layer drop7
I0403 14:09:30.657873 29384 net.cpp:425] drop7 <- fc7
I0403 14:09:30.657891 29384 net.cpp:386] drop7 -> fc7 (in-place)
I0403 14:09:30.657935 29384 net.cpp:141] Setting up drop7
I0403 14:09:30.657958 29384 net.cpp:148] Top shape: 100 4096 (409600)
I0403 14:09:30.657974 29384 net.cpp:156] Memory required for data: 831526000
I0403 14:09:30.657989 29384 layer_factory.hpp:77] Creating layer fc8_plantvillage
I0403 14:09:30.658012 29384 net.cpp:91] Creating Layer fc8_plantvillage
I0403 14:09:30.658030 29384 net.cpp:425] fc8_plantvillage <- fc7
I0403 14:09:30.658048 29384 net.cpp:399] fc8_plantvillage -> fc8_plantvillage
I0403 14:09:30.665022 29384 net.cpp:141] Setting up fc8_plantvillage
I0403 14:09:30.665053 29384 net.cpp:148] Top shape: 100 38 (3800)
I0403 14:09:30.665071 29384 net.cpp:156] Memory required for data: 831541200
I0403 14:09:30.665091 29384 layer_factory.hpp:77] Creating layer fc8_plantvillage_fc8_plantvillage_0_split
I0403 14:09:30.665112 29384 net.cpp:91] Creating Layer fc8_plantvillage_fc8_plantvillage_0_split
I0403 14:09:30.665129 29384 net.cpp:425] fc8_plantvillage_fc8_plantvillage_0_split <- fc8_plantvillage
I0403 14:09:30.665149 29384 net.cpp:399] fc8_plantvillage_fc8_plantvillage_0_split -> fc8_plantvillage_fc8_plantvillage_0_split_0
I0403 14:09:30.665171 29384 net.cpp:399] fc8_plantvillage_fc8_plantvillage_0_split -> fc8_plantvillage_fc8_plantvillage_0_split_1
I0403 14:09:30.665192 29384 net.cpp:399] fc8_plantvillage_fc8_plantvillage_0_split -> fc8_plantvillage_fc8_plantvillage_0_split_2
I0403 14:09:30.665271 29384 net.cpp:141] Setting up fc8_plantvillage_fc8_plantvillage_0_split
I0403 14:09:30.665302 29384 net.cpp:148] Top shape: 100 38 (3800)
I0403 14:09:30.665320 29384 net.cpp:148] Top shape: 100 38 (3800)
I0403 14:09:30.665335 29384 net.cpp:148] Top shape: 100 38 (3800)
I0403 14:09:30.665350 29384 net.cpp:156] Memory required for data: 831586800
I0403 14:09:30.665366 29384 layer_factory.hpp:77] Creating layer prob
I0403 14:09:30.665387 29384 net.cpp:91] Creating Layer prob
I0403 14:09:30.665405 29384 net.cpp:425] prob <- fc8_plantvillage_fc8_plantvillage_0_split_0
I0403 14:09:30.665423 29384 net.cpp:399] prob -> prob
I0403 14:09:30.665653 29384 net.cpp:141] Setting up prob
I0403 14:09:30.665683 29384 net.cpp:148] Top shape: 100 38 (3800)
I0403 14:09:30.665701 29384 net.cpp:156] Memory required for data: 831602000
I0403 14:09:30.665717 29384 layer_factory.hpp:77] Creating layer hdf5out
I0403 14:09:30.665737 29384 net.cpp:91] Creating Layer hdf5out
I0403 14:09:30.665753 29384 net.cpp:425] hdf5out <- prob
I0403 14:09:30.665771 29384 net.cpp:425] hdf5out <- label_data_1_split_0
I0403 14:09:30.669373 29384 net.cpp:141] Setting up hdf5out
…
