…
I0403 14:26:59.473523 29718 net.cpp:313] The NetState phase (1) differed from the phase (0) specified by a rule in layer data
I0403 14:26:59.473834 29718 net.cpp:49] Initializing net from parameters: 
state {
  phase: TEST
}
layer {
  name: "data"
  type: "Data"
  top: "data"
  top: "label"
  include {
    phase: TEST
  }
  transform_param {
    crop_size: 227
    mean_file: "/home/mohanty/data/final_dataset/lmdb/color-20-80/mean.binaryproto"
  }
  data_param {
    source: "/home/mohanty/data/final_dataset/lmdb/color-20-80/test_db"
    batch_size: 100
    backend: LMDB
  }
}
layer {
  name: "conv1"
  type: "Convolution"
  bottom: "data"
  top: "conv1"
  param {
    lr_mult: 1
    decay_mult: 1
  }
  param {
    lr_mult: 2
    decay_mult: 0
  }
  convolution_param {
    num_output: 96
    kernel_size: 11
    stride: 4
    weight_filler {
      type: "gaussian"
      std: 0.01
    }
    bias_filler {
      type: "constant"
      value: 0
    }
  }
}
layer {
  name: "relu1"
  type: "ReLU"
  bottom: "conv1"
  top: "conv1"
}
layer {
  name: "norm1"
  type: "LRN"
  bottom: "conv1"
  top: "norm1"
  lrn_param {
    local_size: 5
    alpha: 0.0001
    beta: 0.75
  }
}
layer {
  name: "pool1"
  type: "Pooling"
  bottom: "norm1"
  top: "pool1"
  pooling_param {
    pool: MAX
    kernel_size: 3
    stride: 2
  }
}
layer {
  name: "conv2"
  type: "Convolution"
  bottom: "pool1"
  top: "conv2"
  param {
    lr_mult: 1
    decay_mult: 1
  }
  param {
    lr_mult: 2
    decay_mult: 0
  }
  convolution_param {
    num_output: 256
    pad: 2
    kernel_size: 5
    group: 2
    weight_filler {
      type: "gaussian"
      std: 0.01
    }
    bias_filler {
      type: "constant"
      value: 0.1
    }
  }
}
layer {
  name: "relu2"
  type: "ReLU"
  bottom: "conv2"
  top: "conv2"
}
layer {
  name: "norm2"
  type: "LRN"
  bottom: "conv2"
  top: "norm2"
  lrn_param {
    local_size: 5
    alpha: 0.0001
    beta: 0.75
  }
}
layer {
  name: "pool2"
  type: "Pooling"
  bottom: "norm2"
  top: "pool2"
  pooling_param {
    pool: MAX
    kernel_size: 3
    stride: 2
  }
}
layer {
  name: "conv3"
  type: "Convolution"
  bottom: "pool2"
  top: "conv3"
  param {
    lr_mult: 1
    decay_mult: 1
  }
  param {
    lr_mult: 2
    decay_mult: 0
  }
  convolution_param {
    num_output: 384
    pad: 1
    kernel_size: 3
    weight_filler {
      type: "gaussian"
      std: 0.01
    }
    bias_filler {
      type: "constant"
      value: 0
    }
  }
}
layer {
  name: "relu3"
  type: "ReLU"
  bottom: "conv3"
  top: "conv3"
}
layer {
  name: "conv4"
  type: "Convolution"
  bottom: "conv3"
  top: "conv4"
  param {
    lr_mult: 1
    decay_mult: 1
  }
  param {
    lr_mult: 2
    decay_mult: 0
  }
  convolution_param {
    num_output: 384
    pad: 1
    kernel_size: 3
    group: 2
    weight_filler {
      type: "gaussian"
      std: 0.01
    }
    bias_filler {
      type: "constant"
      value: 0.1
    }
  }
}
layer {
  name: "relu4"
  type: "ReLU"
  bottom: "conv4"
  top: "conv4"
}
layer {
  name: "conv5"
  type: "Convolution"
  bottom: "conv4"
  top: "conv5"
  param {
    lr_mult: 1
    decay_mult: 1
  }
  param {
    lr_mult: 2
    decay_mult: 0
  }
  convolution_param {
    num_output: 256
    pad: 1
    kernel_size: 3
    group: 2
    weight_filler {
      type: "gaussian"
      std: 0.01
    }
    bias_filler {
      type: "constant"
      value: 0.1
    }
  }
}
layer {
  name: "relu5"
  type: "ReLU"
  bottom: "conv5"
  top: "conv5"
}
layer {
  name: "pool5"
  type: "Pooling"
  bottom: "conv5"
  top: "pool5"
  pooling_param {
    pool: MAX
    kernel_size: 3
    stride: 2
  }
}
layer {
  name: "fc6"
  type: "InnerProduct"
  bottom: "pool5"
  top: "fc6"
  param {
    lr_mult: 1
    decay_mult: 1
  }
  param {
    lr_mult: 2
    decay_mult: 0
  }
  inner_product_param {
    num_output: 4096
    weight_filler {
      type: "gaussian"
      std: 0.005
    }
    bias_filler {
      type: "constant"
      value: 0.1
    }
  }
}
layer {
  name: "relu6"
  type: "ReLU"
  bottom: "fc6"
  top: "fc6"
}
layer {
  name: "drop6"
  type: "Dropout"
  bottom: "fc6"
  top: "fc6"
  dropout_param {
    dropout_ratio: 0.5
  }
}
layer {
  name: "fc7"
  type: "InnerProduct"
  bottom: "fc6"
  top: "fc7"
  param {
    lr_mult: 1
    decay_mult: 1
  }
  param {
    lr_mult: 2
    decay_mult: 0
  }
  inner_product_param {
    num_output: 4096
    weight_filler {
      type: "gaussian"
      std: 0.005
    }
    bias_filler {
      type: "constant"
      value: 0.1
    }
  }
}
layer {
  name: "relu7"
  type: "ReLU"
  bottom: "fc7"
  top: "fc7"
}
layer {
  name: "drop7"
  type: "Dropout"
  bottom: "fc7"
  top: "fc7"
  dropout_param {
    dropout_ratio: 0.5
  }
}
layer {
  name: "fc8_plantvillage"
  type: "InnerProduct"
  bottom: "fc7"
  top: "fc8_plantvillage"
  param {
    lr_mult: 1
    decay_mult: 1
  }
  param {
    lr_mult: 2
    decay_mult: 0
  }
  inner_product_param {
    num_output: 38
    weight_filler {
      type: "gaussian"
      std: 0.01
    }
    bias_filler {
      type: "constant"
      value: 0
    }
  }
}
layer {
  name: "prob"
  type: "Softmax"
  bottom: "fc8_plantvillage"
  top: "prob"
  include {
    phase: TEST
  }
}
layer {
  name: "hdf5out"
  type: "HDF5Output"
  bottom: "prob"
  bottom: "label"
  include {
    phase: TEST
  }
  hdf5_output_param {
    file_name: "hdf5_dumps/iter_1728.h5"
  }
}
layer {
  name: "loss"
  type: "SoftmaxWithLoss"
  bottom: "fc8_plantvillage"
  bottom: "label"
  top: "loss"
}
layer {
  name: "accuracy"
  type: "Accuracy"
  bottom: "fc8_plantvillage"
  bottom: "label"
  top: "accuracy"
  include {
    phase: TEST
  }
}
I0403 14:26:59.474441 29718 layer_factory.hpp:77] Creating layer data
I0403 14:26:59.475101 29718 net.cpp:91] Creating Layer data
I0403 14:26:59.475134 29718 net.cpp:399] data -> data
I0403 14:26:59.475188 29718 net.cpp:399] data -> label
I0403 14:26:59.475226 29718 data_transformer.cpp:25] Loading mean file from: /home/mohanty/data/final_dataset/lmdb/color-20-80/mean.binaryproto
I0403 14:26:59.478106 29722 db_lmdb.cpp:38] Opened lmdb /home/mohanty/data/final_dataset/lmdb/color-20-80/test_db
I0403 14:26:59.489780 29718 data_layer.cpp:41] output data size: 100,3,227,227
I0403 14:26:59.625577 29718 net.cpp:141] Setting up data
I0403 14:26:59.625669 29718 net.cpp:148] Top shape: 100 3 227 227 (15458700)
I0403 14:26:59.625692 29718 net.cpp:148] Top shape: 100 (100)
I0403 14:26:59.625710 29718 net.cpp:156] Memory required for data: 61835200
I0403 14:26:59.625741 29718 layer_factory.hpp:77] Creating layer label_data_1_split
I0403 14:26:59.625767 29718 net.cpp:91] Creating Layer label_data_1_split
I0403 14:26:59.625787 29718 net.cpp:425] label_data_1_split <- label
I0403 14:26:59.625819 29718 net.cpp:399] label_data_1_split -> label_data_1_split_0
I0403 14:26:59.625849 29718 net.cpp:399] label_data_1_split -> label_data_1_split_1
I0403 14:26:59.625870 29718 net.cpp:399] label_data_1_split -> label_data_1_split_2
I0403 14:26:59.625937 29718 net.cpp:141] Setting up label_data_1_split
I0403 14:26:59.625963 29718 net.cpp:148] Top shape: 100 (100)
I0403 14:26:59.625982 29718 net.cpp:148] Top shape: 100 (100)
I0403 14:26:59.625998 29718 net.cpp:148] Top shape: 100 (100)
I0403 14:26:59.626014 29718 net.cpp:156] Memory required for data: 61836400
I0403 14:26:59.626030 29718 layer_factory.hpp:77] Creating layer conv1
I0403 14:26:59.626065 29718 net.cpp:91] Creating Layer conv1
I0403 14:26:59.626083 29718 net.cpp:425] conv1 <- data
I0403 14:26:59.626104 29718 net.cpp:399] conv1 -> conv1
I0403 14:26:59.778533 29718 net.cpp:141] Setting up conv1
I0403 14:26:59.778655 29718 net.cpp:148] Top shape: 100 96 55 55 (29040000)
I0403 14:26:59.778674 29718 net.cpp:156] Memory required for data: 177996400
I0403 14:26:59.778708 29718 layer_factory.hpp:77] Creating layer relu1
I0403 14:26:59.778738 29718 net.cpp:91] Creating Layer relu1
I0403 14:26:59.778756 29718 net.cpp:425] relu1 <- conv1
I0403 14:26:59.778776 29718 net.cpp:386] relu1 -> conv1 (in-place)
I0403 14:26:59.779042 29718 net.cpp:141] Setting up relu1
I0403 14:26:59.779072 29718 net.cpp:148] Top shape: 100 96 55 55 (29040000)
I0403 14:26:59.779088 29718 net.cpp:156] Memory required for data: 294156400
I0403 14:26:59.779137 29718 layer_factory.hpp:77] Creating layer norm1
I0403 14:26:59.779168 29718 net.cpp:91] Creating Layer norm1
I0403 14:26:59.779187 29718 net.cpp:425] norm1 <- conv1
I0403 14:26:59.779206 29718 net.cpp:399] norm1 -> norm1
I0403 14:26:59.779530 29718 net.cpp:141] Setting up norm1
I0403 14:26:59.779561 29718 net.cpp:148] Top shape: 100 96 55 55 (29040000)
I0403 14:26:59.779577 29718 net.cpp:156] Memory required for data: 410316400
I0403 14:26:59.779593 29718 layer_factory.hpp:77] Creating layer pool1
I0403 14:26:59.779618 29718 net.cpp:91] Creating Layer pool1
I0403 14:26:59.779638 29718 net.cpp:425] pool1 <- norm1
I0403 14:26:59.779656 29718 net.cpp:399] pool1 -> pool1
I0403 14:26:59.779727 29718 net.cpp:141] Setting up pool1
I0403 14:26:59.779753 29718 net.cpp:148] Top shape: 100 96 27 27 (6998400)
I0403 14:26:59.779770 29718 net.cpp:156] Memory required for data: 438310000
I0403 14:26:59.779786 29718 layer_factory.hpp:77] Creating layer conv2
I0403 14:26:59.779813 29718 net.cpp:91] Creating Layer conv2
I0403 14:26:59.779831 29718 net.cpp:425] conv2 <- pool1
I0403 14:26:59.779851 29718 net.cpp:399] conv2 -> conv2
I0403 14:26:59.795531 29718 net.cpp:141] Setting up conv2
I0403 14:26:59.795581 29718 net.cpp:148] Top shape: 100 256 27 27 (18662400)
I0403 14:26:59.795599 29718 net.cpp:156] Memory required for data: 512959600
I0403 14:26:59.795624 29718 layer_factory.hpp:77] Creating layer relu2
I0403 14:26:59.795645 29718 net.cpp:91] Creating Layer relu2
I0403 14:26:59.795661 29718 net.cpp:425] relu2 <- conv2
I0403 14:26:59.795681 29718 net.cpp:386] relu2 -> conv2 (in-place)
I0403 14:26:59.795959 29718 net.cpp:141] Setting up relu2
I0403 14:26:59.795989 29718 net.cpp:148] Top shape: 100 256 27 27 (18662400)
I0403 14:26:59.796006 29718 net.cpp:156] Memory required for data: 587609200
I0403 14:26:59.796025 29718 layer_factory.hpp:77] Creating layer norm2
I0403 14:26:59.796047 29718 net.cpp:91] Creating Layer norm2
I0403 14:26:59.796064 29718 net.cpp:425] norm2 <- conv2
I0403 14:26:59.796083 29718 net.cpp:399] norm2 -> norm2
I0403 14:26:59.796272 29718 net.cpp:141] Setting up norm2
I0403 14:26:59.796304 29718 net.cpp:148] Top shape: 100 256 27 27 (18662400)
I0403 14:26:59.796322 29718 net.cpp:156] Memory required for data: 662258800
I0403 14:26:59.796339 29718 layer_factory.hpp:77] Creating layer pool2
I0403 14:26:59.796358 29718 net.cpp:91] Creating Layer pool2
I0403 14:26:59.796376 29718 net.cpp:425] pool2 <- norm2
I0403 14:26:59.796396 29718 net.cpp:399] pool2 -> pool2
I0403 14:26:59.796447 29718 net.cpp:141] Setting up pool2
I0403 14:26:59.796473 29718 net.cpp:148] Top shape: 100 256 13 13 (4326400)
I0403 14:26:59.796489 29718 net.cpp:156] Memory required for data: 679564400
I0403 14:26:59.796505 29718 layer_factory.hpp:77] Creating layer conv3
I0403 14:26:59.796528 29718 net.cpp:91] Creating Layer conv3
I0403 14:26:59.796546 29718 net.cpp:425] conv3 <- pool2
I0403 14:26:59.796566 29718 net.cpp:399] conv3 -> conv3
I0403 14:26:59.846261 29718 net.cpp:141] Setting up conv3
I0403 14:26:59.846318 29718 net.cpp:148] Top shape: 100 384 13 13 (6489600)
I0403 14:26:59.846339 29718 net.cpp:156] Memory required for data: 705522800
I0403 14:26:59.846366 29718 layer_factory.hpp:77] Creating layer relu3
I0403 14:26:59.846391 29718 net.cpp:91] Creating Layer relu3
I0403 14:26:59.846410 29718 net.cpp:425] relu3 <- conv3
I0403 14:26:59.846431 29718 net.cpp:386] relu3 -> conv3 (in-place)
I0403 14:26:59.846717 29718 net.cpp:141] Setting up relu3
I0403 14:26:59.846750 29718 net.cpp:148] Top shape: 100 384 13 13 (6489600)
I0403 14:26:59.846767 29718 net.cpp:156] Memory required for data: 731481200
I0403 14:26:59.846784 29718 layer_factory.hpp:77] Creating layer conv4
I0403 14:26:59.846810 29718 net.cpp:91] Creating Layer conv4
I0403 14:26:59.846829 29718 net.cpp:425] conv4 <- conv3
I0403 14:26:59.846850 29718 net.cpp:399] conv4 -> conv4
I0403 14:26:59.878269 29718 net.cpp:141] Setting up conv4
I0403 14:26:59.878345 29718 net.cpp:148] Top shape: 100 384 13 13 (6489600)
I0403 14:26:59.878398 29718 net.cpp:156] Memory required for data: 757439600
I0403 14:26:59.878423 29718 layer_factory.hpp:77] Creating layer relu4
I0403 14:26:59.878449 29718 net.cpp:91] Creating Layer relu4
I0403 14:26:59.878469 29718 net.cpp:425] relu4 <- conv4
I0403 14:26:59.878490 29718 net.cpp:386] relu4 -> conv4 (in-place)
I0403 14:26:59.878779 29718 net.cpp:141] Setting up relu4
I0403 14:26:59.878808 29718 net.cpp:148] Top shape: 100 384 13 13 (6489600)
I0403 14:26:59.878825 29718 net.cpp:156] Memory required for data: 783398000
I0403 14:26:59.878842 29718 layer_factory.hpp:77] Creating layer conv5
I0403 14:26:59.878870 29718 net.cpp:91] Creating Layer conv5
I0403 14:26:59.878890 29718 net.cpp:425] conv5 <- conv4
I0403 14:26:59.878914 29718 net.cpp:399] conv5 -> conv5
I0403 14:26:59.900425 29718 net.cpp:141] Setting up conv5
I0403 14:26:59.900466 29718 net.cpp:148] Top shape: 100 256 13 13 (4326400)
I0403 14:26:59.900485 29718 net.cpp:156] Memory required for data: 800703600
I0403 14:26:59.900511 29718 layer_factory.hpp:77] Creating layer relu5
I0403 14:26:59.900533 29718 net.cpp:91] Creating Layer relu5
I0403 14:26:59.900552 29718 net.cpp:425] relu5 <- conv5
I0403 14:26:59.900570 29718 net.cpp:386] relu5 -> conv5 (in-place)
I0403 14:26:59.900861 29718 net.cpp:141] Setting up relu5
I0403 14:26:59.900892 29718 net.cpp:148] Top shape: 100 256 13 13 (4326400)
I0403 14:26:59.900909 29718 net.cpp:156] Memory required for data: 818009200
I0403 14:26:59.900926 29718 layer_factory.hpp:77] Creating layer pool5
I0403 14:26:59.900949 29718 net.cpp:91] Creating Layer pool5
I0403 14:26:59.900969 29718 net.cpp:425] pool5 <- conv5
I0403 14:26:59.900990 29718 net.cpp:399] pool5 -> pool5
I0403 14:26:59.901053 29718 net.cpp:141] Setting up pool5
I0403 14:26:59.901078 29718 net.cpp:148] Top shape: 100 256 6 6 (921600)
I0403 14:26:59.901095 29718 net.cpp:156] Memory required for data: 821695600
I0403 14:26:59.901113 29718 layer_factory.hpp:77] Creating layer fc6
I0403 14:26:59.901141 29718 net.cpp:91] Creating Layer fc6
I0403 14:26:59.901161 29718 net.cpp:425] fc6 <- pool5
I0403 14:26:59.901185 29718 net.cpp:399] fc6 -> fc6
I0403 14:27:01.457255 29718 net.cpp:141] Setting up fc6
I0403 14:27:01.457312 29718 net.cpp:148] Top shape: 100 4096 (409600)
I0403 14:27:01.457343 29718 net.cpp:156] Memory required for data: 823334000
I0403 14:27:01.457366 29718 layer_factory.hpp:77] Creating layer relu6
I0403 14:27:01.457391 29718 net.cpp:91] Creating Layer relu6
I0403 14:27:01.457411 29718 net.cpp:425] relu6 <- fc6
I0403 14:27:01.457432 29718 net.cpp:386] relu6 -> fc6 (in-place)
I0403 14:27:01.457664 29718 net.cpp:141] Setting up relu6
I0403 14:27:01.457695 29718 net.cpp:148] Top shape: 100 4096 (409600)
I0403 14:27:01.457711 29718 net.cpp:156] Memory required for data: 824972400
I0403 14:27:01.457727 29718 layer_factory.hpp:77] Creating layer drop6
I0403 14:27:01.457746 29718 net.cpp:91] Creating Layer drop6
I0403 14:27:01.457762 29718 net.cpp:425] drop6 <- fc6
I0403 14:27:01.457780 29718 net.cpp:386] drop6 -> fc6 (in-place)
I0403 14:27:01.457833 29718 net.cpp:141] Setting up drop6
I0403 14:27:01.457855 29718 net.cpp:148] Top shape: 100 4096 (409600)
I0403 14:27:01.457870 29718 net.cpp:156] Memory required for data: 826610800
I0403 14:27:01.457885 29718 layer_factory.hpp:77] Creating layer fc7
I0403 14:27:01.457907 29718 net.cpp:91] Creating Layer fc7
I0403 14:27:01.457924 29718 net.cpp:425] fc7 <- fc6
I0403 14:27:01.457944 29718 net.cpp:399] fc7 -> fc7
I0403 14:27:02.147827 29718 net.cpp:141] Setting up fc7
I0403 14:27:02.147871 29718 net.cpp:148] Top shape: 100 4096 (409600)
I0403 14:27:02.147887 29718 net.cpp:156] Memory required for data: 828249200
I0403 14:27:02.147908 29718 layer_factory.hpp:77] Creating layer relu7
I0403 14:27:02.147933 29718 net.cpp:91] Creating Layer relu7
I0403 14:27:02.147950 29718 net.cpp:425] relu7 <- fc7
I0403 14:27:02.147970 29718 net.cpp:386] relu7 -> fc7 (in-place)
I0403 14:27:02.148370 29718 net.cpp:141] Setting up relu7
I0403 14:27:02.148398 29718 net.cpp:148] Top shape: 100 4096 (409600)
I0403 14:27:02.148433 29718 net.cpp:156] Memory required for data: 829887600
I0403 14:27:02.148452 29718 layer_factory.hpp:77] Creating layer drop7
I0403 14:27:02.148476 29718 net.cpp:91] Creating Layer drop7
I0403 14:27:02.148494 29718 net.cpp:425] drop7 <- fc7
I0403 14:27:02.148512 29718 net.cpp:386] drop7 -> fc7 (in-place)
I0403 14:27:02.148561 29718 net.cpp:141] Setting up drop7
I0403 14:27:02.148586 29718 net.cpp:148] Top shape: 100 4096 (409600)
I0403 14:27:02.148602 29718 net.cpp:156] Memory required for data: 831526000
I0403 14:27:02.148628 29718 layer_factory.hpp:77] Creating layer fc8_plantvillage
I0403 14:27:02.148651 29718 net.cpp:91] Creating Layer fc8_plantvillage
I0403 14:27:02.148669 29718 net.cpp:425] fc8_plantvillage <- fc7
I0403 14:27:02.148686 29718 net.cpp:399] fc8_plantvillage -> fc8_plantvillage
I0403 14:27:02.155531 29718 net.cpp:141] Setting up fc8_plantvillage
I0403 14:27:02.155561 29718 net.cpp:148] Top shape: 100 38 (3800)
I0403 14:27:02.155577 29718 net.cpp:156] Memory required for data: 831541200
I0403 14:27:02.155596 29718 layer_factory.hpp:77] Creating layer fc8_plantvillage_fc8_plantvillage_0_split
I0403 14:27:02.155629 29718 net.cpp:91] Creating Layer fc8_plantvillage_fc8_plantvillage_0_split
I0403 14:27:02.155645 29718 net.cpp:425] fc8_plantvillage_fc8_plantvillage_0_split <- fc8_plantvillage
I0403 14:27:02.155664 29718 net.cpp:399] fc8_plantvillage_fc8_plantvillage_0_split -> fc8_plantvillage_fc8_plantvillage_0_split_0
I0403 14:27:02.155691 29718 net.cpp:399] fc8_plantvillage_fc8_plantvillage_0_split -> fc8_plantvillage_fc8_plantvillage_0_split_1
I0403 14:27:02.155714 29718 net.cpp:399] fc8_plantvillage_fc8_plantvillage_0_split -> fc8_plantvillage_fc8_plantvillage_0_split_2
I0403 14:27:02.155792 29718 net.cpp:141] Setting up fc8_plantvillage_fc8_plantvillage_0_split
I0403 14:27:02.155817 29718 net.cpp:148] Top shape: 100 38 (3800)
I0403 14:27:02.155834 29718 net.cpp:148] Top shape: 100 38 (3800)
I0403 14:27:02.155851 29718 net.cpp:148] Top shape: 100 38 (3800)
I0403 14:27:02.155866 29718 net.cpp:156] Memory required for data: 831586800
I0403 14:27:02.155881 29718 layer_factory.hpp:77] Creating layer prob
I0403 14:27:02.155901 29718 net.cpp:91] Creating Layer prob
I0403 14:27:02.155917 29718 net.cpp:425] prob <- fc8_plantvillage_fc8_plantvillage_0_split_0
I0403 14:27:02.155936 29718 net.cpp:399] prob -> prob
I0403 14:27:02.156159 29718 net.cpp:141] Setting up prob
I0403 14:27:02.156185 29718 net.cpp:148] Top shape: 100 38 (3800)
I0403 14:27:02.156201 29718 net.cpp:156] Memory required for data: 831602000
I0403 14:27:02.156216 29718 layer_factory.hpp:77] Creating layer hdf5out
I0403 14:27:02.156239 29718 net.cpp:91] Creating Layer hdf5out
I0403 14:27:02.156255 29718 net.cpp:425] hdf5out <- prob
I0403 14:27:02.156272 29718 net.cpp:425] hdf5out <- label_data_1_split_0
I0403 14:27:02.160868 29718 net.cpp:141] Setting up hdf5out
…
