…
I0403 14:04:57.141647 29195 net.cpp:313] The NetState phase (1) differed from the phase (0) specified by a rule in layer data
I0403 14:04:57.141953 29195 net.cpp:49] Initializing net from parameters: 
state {
  phase: TEST
}
layer {
  name: "data"
  type: "Data"
  top: "data"
  top: "label"
  include {
    phase: TEST
  }
  transform_param {
    crop_size: 227
    mean_file: "/home/mohanty/data/final_dataset/lmdb/color-20-80/mean.binaryproto"
  }
  data_param {
    source: "/home/mohanty/data/final_dataset/lmdb/color-20-80/test_db"
    batch_size: 100
    backend: LMDB
  }
}
layer {
  name: "conv1"
  type: "Convolution"
  bottom: "data"
  top: "conv1"
  param {
    lr_mult: 1
    decay_mult: 1
  }
  param {
    lr_mult: 2
    decay_mult: 0
  }
  convolution_param {
    num_output: 96
    kernel_size: 11
    stride: 4
    weight_filler {
      type: "gaussian"
      std: 0.01
    }
    bias_filler {
      type: "constant"
      value: 0
    }
  }
}
layer {
  name: "relu1"
  type: "ReLU"
  bottom: "conv1"
  top: "conv1"
}
layer {
  name: "norm1"
  type: "LRN"
  bottom: "conv1"
  top: "norm1"
  lrn_param {
    local_size: 5
    alpha: 0.0001
    beta: 0.75
  }
}
layer {
  name: "pool1"
  type: "Pooling"
  bottom: "norm1"
  top: "pool1"
  pooling_param {
    pool: MAX
    kernel_size: 3
    stride: 2
  }
}
layer {
  name: "conv2"
  type: "Convolution"
  bottom: "pool1"
  top: "conv2"
  param {
    lr_mult: 1
    decay_mult: 1
  }
  param {
    lr_mult: 2
    decay_mult: 0
  }
  convolution_param {
    num_output: 256
    pad: 2
    kernel_size: 5
    group: 2
    weight_filler {
      type: "gaussian"
      std: 0.01
    }
    bias_filler {
      type: "constant"
      value: 0.1
    }
  }
}
layer {
  name: "relu2"
  type: "ReLU"
  bottom: "conv2"
  top: "conv2"
}
layer {
  name: "norm2"
  type: "LRN"
  bottom: "conv2"
  top: "norm2"
  lrn_param {
    local_size: 5
    alpha: 0.0001
    beta: 0.75
  }
}
layer {
  name: "pool2"
  type: "Pooling"
  bottom: "norm2"
  top: "pool2"
  pooling_param {
    pool: MAX
    kernel_size: 3
    stride: 2
  }
}
layer {
  name: "conv3"
  type: "Convolution"
  bottom: "pool2"
  top: "conv3"
  param {
    lr_mult: 1
    decay_mult: 1
  }
  param {
    lr_mult: 2
    decay_mult: 0
  }
  convolution_param {
    num_output: 384
    pad: 1
    kernel_size: 3
    weight_filler {
      type: "gaussian"
      std: 0.01
    }
    bias_filler {
      type: "constant"
      value: 0
    }
  }
}
layer {
  name: "relu3"
  type: "ReLU"
  bottom: "conv3"
  top: "conv3"
}
layer {
  name: "conv4"
  type: "Convolution"
  bottom: "conv3"
  top: "conv4"
  param {
    lr_mult: 1
    decay_mult: 1
  }
  param {
    lr_mult: 2
    decay_mult: 0
  }
  convolution_param {
    num_output: 384
    pad: 1
    kernel_size: 3
    group: 2
    weight_filler {
      type: "gaussian"
      std: 0.01
    }
    bias_filler {
      type: "constant"
      value: 0.1
    }
  }
}
layer {
  name: "relu4"
  type: "ReLU"
  bottom: "conv4"
  top: "conv4"
}
layer {
  name: "conv5"
  type: "Convolution"
  bottom: "conv4"
  top: "conv5"
  param {
    lr_mult: 1
    decay_mult: 1
  }
  param {
    lr_mult: 2
    decay_mult: 0
  }
  convolution_param {
    num_output: 256
    pad: 1
    kernel_size: 3
    group: 2
    weight_filler {
      type: "gaussian"
      std: 0.01
    }
    bias_filler {
      type: "constant"
      value: 0.1
    }
  }
}
layer {
  name: "relu5"
  type: "ReLU"
  bottom: "conv5"
  top: "conv5"
}
layer {
  name: "pool5"
  type: "Pooling"
  bottom: "conv5"
  top: "pool5"
  pooling_param {
    pool: MAX
    kernel_size: 3
    stride: 2
  }
}
layer {
  name: "fc6"
  type: "InnerProduct"
  bottom: "pool5"
  top: "fc6"
  param {
    lr_mult: 1
    decay_mult: 1
  }
  param {
    lr_mult: 2
    decay_mult: 0
  }
  inner_product_param {
    num_output: 4096
    weight_filler {
      type: "gaussian"
      std: 0.005
    }
    bias_filler {
      type: "constant"
      value: 0.1
    }
  }
}
layer {
  name: "relu6"
  type: "ReLU"
  bottom: "fc6"
  top: "fc6"
}
layer {
  name: "drop6"
  type: "Dropout"
  bottom: "fc6"
  top: "fc6"
  dropout_param {
    dropout_ratio: 0.5
  }
}
layer {
  name: "fc7"
  type: "InnerProduct"
  bottom: "fc6"
  top: "fc7"
  param {
    lr_mult: 1
    decay_mult: 1
  }
  param {
    lr_mult: 2
    decay_mult: 0
  }
  inner_product_param {
    num_output: 4096
    weight_filler {
      type: "gaussian"
      std: 0.005
    }
    bias_filler {
      type: "constant"
      value: 0.1
    }
  }
}
layer {
  name: "relu7"
  type: "ReLU"
  bottom: "fc7"
  top: "fc7"
}
layer {
  name: "drop7"
  type: "Dropout"
  bottom: "fc7"
  top: "fc7"
  dropout_param {
    dropout_ratio: 0.5
  }
}
layer {
  name: "fc8_plantvillage"
  type: "InnerProduct"
  bottom: "fc7"
  top: "fc8_plantvillage"
  param {
    lr_mult: 1
    decay_mult: 1
  }
  param {
    lr_mult: 2
    decay_mult: 0
  }
  inner_product_param {
    num_output: 38
    weight_filler {
      type: "gaussian"
      std: 0.01
    }
    bias_filler {
      type: "constant"
      value: 0
    }
  }
}
layer {
  name: "prob"
  type: "Softmax"
  bottom: "fc8_plantvillage"
  top: "prob"
  include {
    phase: TEST
  }
}
layer {
  name: "hdf5out"
  type: "HDF5Output"
  bottom: "prob"
  bottom: "label"
  include {
    phase: TEST
  }
  hdf5_output_param {
    file_name: "hdf5_dumps/iter_108.h5"
  }
}
layer {
  name: "loss"
  type: "SoftmaxWithLoss"
  bottom: "fc8_plantvillage"
  bottom: "label"
  top: "loss"
}
layer {
  name: "accuracy"
  type: "Accuracy"
  bottom: "fc8_plantvillage"
  bottom: "label"
  top: "accuracy"
  include {
    phase: TEST
  }
}
I0403 14:04:57.142469 29195 layer_factory.hpp:77] Creating layer data
I0403 14:04:57.143118 29195 net.cpp:91] Creating Layer data
I0403 14:04:57.143149 29195 net.cpp:399] data -> data
I0403 14:04:57.143203 29195 net.cpp:399] data -> label
I0403 14:04:57.143241 29195 data_transformer.cpp:25] Loading mean file from: /home/mohanty/data/final_dataset/lmdb/color-20-80/mean.binaryproto
I0403 14:04:57.171643 29198 db_lmdb.cpp:38] Opened lmdb /home/mohanty/data/final_dataset/lmdb/color-20-80/test_db
I0403 14:04:57.183560 29195 data_layer.cpp:41] output data size: 100,3,227,227
I0403 14:04:57.318076 29195 net.cpp:141] Setting up data
I0403 14:04:57.318173 29195 net.cpp:148] Top shape: 100 3 227 227 (15458700)
I0403 14:04:57.318198 29195 net.cpp:148] Top shape: 100 (100)
I0403 14:04:57.318215 29195 net.cpp:156] Memory required for data: 61835200
I0403 14:04:57.318245 29195 layer_factory.hpp:77] Creating layer label_data_1_split
I0403 14:04:57.318272 29195 net.cpp:91] Creating Layer label_data_1_split
I0403 14:04:57.318300 29195 net.cpp:425] label_data_1_split <- label
I0403 14:04:57.318346 29195 net.cpp:399] label_data_1_split -> label_data_1_split_0
I0403 14:04:57.318377 29195 net.cpp:399] label_data_1_split -> label_data_1_split_1
I0403 14:04:57.318398 29195 net.cpp:399] label_data_1_split -> label_data_1_split_2
I0403 14:04:57.318464 29195 net.cpp:141] Setting up label_data_1_split
I0403 14:04:57.318490 29195 net.cpp:148] Top shape: 100 (100)
I0403 14:04:57.318507 29195 net.cpp:148] Top shape: 100 (100)
I0403 14:04:57.318524 29195 net.cpp:148] Top shape: 100 (100)
I0403 14:04:57.318538 29195 net.cpp:156] Memory required for data: 61836400
I0403 14:04:57.318554 29195 layer_factory.hpp:77] Creating layer conv1
I0403 14:04:57.318588 29195 net.cpp:91] Creating Layer conv1
I0403 14:04:57.318608 29195 net.cpp:425] conv1 <- data
I0403 14:04:57.318629 29195 net.cpp:399] conv1 -> conv1
I0403 14:04:57.467339 29195 net.cpp:141] Setting up conv1
I0403 14:04:57.467417 29195 net.cpp:148] Top shape: 100 96 55 55 (29040000)
I0403 14:04:57.467435 29195 net.cpp:156] Memory required for data: 177996400
I0403 14:04:57.467468 29195 layer_factory.hpp:77] Creating layer relu1
I0403 14:04:57.467496 29195 net.cpp:91] Creating Layer relu1
I0403 14:04:57.467516 29195 net.cpp:425] relu1 <- conv1
I0403 14:04:57.467536 29195 net.cpp:386] relu1 -> conv1 (in-place)
I0403 14:04:57.467795 29195 net.cpp:141] Setting up relu1
I0403 14:04:57.467823 29195 net.cpp:148] Top shape: 100 96 55 55 (29040000)
I0403 14:04:57.467839 29195 net.cpp:156] Memory required for data: 294156400
I0403 14:04:57.467887 29195 layer_factory.hpp:77] Creating layer norm1
I0403 14:04:57.467916 29195 net.cpp:91] Creating Layer norm1
I0403 14:04:57.467936 29195 net.cpp:425] norm1 <- conv1
I0403 14:04:57.467955 29195 net.cpp:399] norm1 -> norm1
I0403 14:04:57.468261 29195 net.cpp:141] Setting up norm1
I0403 14:04:57.468294 29195 net.cpp:148] Top shape: 100 96 55 55 (29040000)
I0403 14:04:57.468313 29195 net.cpp:156] Memory required for data: 410316400
I0403 14:04:57.468330 29195 layer_factory.hpp:77] Creating layer pool1
I0403 14:04:57.468355 29195 net.cpp:91] Creating Layer pool1
I0403 14:04:57.468374 29195 net.cpp:425] pool1 <- norm1
I0403 14:04:57.468392 29195 net.cpp:399] pool1 -> pool1
I0403 14:04:57.468461 29195 net.cpp:141] Setting up pool1
I0403 14:04:57.468487 29195 net.cpp:148] Top shape: 100 96 27 27 (6998400)
I0403 14:04:57.468502 29195 net.cpp:156] Memory required for data: 438310000
I0403 14:04:57.468529 29195 layer_factory.hpp:77] Creating layer conv2
I0403 14:04:57.468555 29195 net.cpp:91] Creating Layer conv2
I0403 14:04:57.468574 29195 net.cpp:425] conv2 <- pool1
I0403 14:04:57.468595 29195 net.cpp:399] conv2 -> conv2
I0403 14:04:57.484078 29195 net.cpp:141] Setting up conv2
I0403 14:04:57.484130 29195 net.cpp:148] Top shape: 100 256 27 27 (18662400)
I0403 14:04:57.484148 29195 net.cpp:156] Memory required for data: 512959600
I0403 14:04:57.484172 29195 layer_factory.hpp:77] Creating layer relu2
I0403 14:04:57.484194 29195 net.cpp:91] Creating Layer relu2
I0403 14:04:57.484210 29195 net.cpp:425] relu2 <- conv2
I0403 14:04:57.484232 29195 net.cpp:386] relu2 -> conv2 (in-place)
I0403 14:04:57.484536 29195 net.cpp:141] Setting up relu2
I0403 14:04:57.484565 29195 net.cpp:148] Top shape: 100 256 27 27 (18662400)
I0403 14:04:57.484583 29195 net.cpp:156] Memory required for data: 587609200
I0403 14:04:57.484601 29195 layer_factory.hpp:77] Creating layer norm2
I0403 14:04:57.484625 29195 net.cpp:91] Creating Layer norm2
I0403 14:04:57.484643 29195 net.cpp:425] norm2 <- conv2
I0403 14:04:57.484663 29195 net.cpp:399] norm2 -> norm2
I0403 14:04:57.484880 29195 net.cpp:141] Setting up norm2
I0403 14:04:57.484910 29195 net.cpp:148] Top shape: 100 256 27 27 (18662400)
I0403 14:04:57.484927 29195 net.cpp:156] Memory required for data: 662258800
I0403 14:04:57.484944 29195 layer_factory.hpp:77] Creating layer pool2
I0403 14:04:57.484962 29195 net.cpp:91] Creating Layer pool2
I0403 14:04:57.484978 29195 net.cpp:425] pool2 <- norm2
I0403 14:04:57.484999 29195 net.cpp:399] pool2 -> pool2
I0403 14:04:57.485052 29195 net.cpp:141] Setting up pool2
I0403 14:04:57.485080 29195 net.cpp:148] Top shape: 100 256 13 13 (4326400)
I0403 14:04:57.485100 29195 net.cpp:156] Memory required for data: 679564400
I0403 14:04:57.485116 29195 layer_factory.hpp:77] Creating layer conv3
I0403 14:04:57.485146 29195 net.cpp:91] Creating Layer conv3
I0403 14:04:57.485163 29195 net.cpp:425] conv3 <- pool2
I0403 14:04:57.485185 29195 net.cpp:399] conv3 -> conv3
I0403 14:04:57.533632 29195 net.cpp:141] Setting up conv3
I0403 14:04:57.533679 29195 net.cpp:148] Top shape: 100 384 13 13 (6489600)
I0403 14:04:57.533697 29195 net.cpp:156] Memory required for data: 705522800
I0403 14:04:57.533725 29195 layer_factory.hpp:77] Creating layer relu3
I0403 14:04:57.533748 29195 net.cpp:91] Creating Layer relu3
I0403 14:04:57.533767 29195 net.cpp:425] relu3 <- conv3
I0403 14:04:57.533787 29195 net.cpp:386] relu3 -> conv3 (in-place)
I0403 14:04:57.534072 29195 net.cpp:141] Setting up relu3
I0403 14:04:57.534102 29195 net.cpp:148] Top shape: 100 384 13 13 (6489600)
I0403 14:04:57.534119 29195 net.cpp:156] Memory required for data: 731481200
I0403 14:04:57.534134 29195 layer_factory.hpp:77] Creating layer conv4
I0403 14:04:57.534160 29195 net.cpp:91] Creating Layer conv4
I0403 14:04:57.534180 29195 net.cpp:425] conv4 <- conv3
I0403 14:04:57.534204 29195 net.cpp:399] conv4 -> conv4
I0403 14:04:57.563983 29195 net.cpp:141] Setting up conv4
I0403 14:04:57.564054 29195 net.cpp:148] Top shape: 100 384 13 13 (6489600)
I0403 14:04:57.564112 29195 net.cpp:156] Memory required for data: 757439600
I0403 14:04:57.564136 29195 layer_factory.hpp:77] Creating layer relu4
I0403 14:04:57.564160 29195 net.cpp:91] Creating Layer relu4
I0403 14:04:57.564179 29195 net.cpp:425] relu4 <- conv4
I0403 14:04:57.564198 29195 net.cpp:386] relu4 -> conv4 (in-place)
I0403 14:04:57.564507 29195 net.cpp:141] Setting up relu4
I0403 14:04:57.564546 29195 net.cpp:148] Top shape: 100 384 13 13 (6489600)
I0403 14:04:57.564568 29195 net.cpp:156] Memory required for data: 783398000
I0403 14:04:57.564585 29195 layer_factory.hpp:77] Creating layer conv5
I0403 14:04:57.564621 29195 net.cpp:91] Creating Layer conv5
I0403 14:04:57.564640 29195 net.cpp:425] conv5 <- conv4
I0403 14:04:57.564661 29195 net.cpp:399] conv5 -> conv5
I0403 14:04:57.585194 29195 net.cpp:141] Setting up conv5
I0403 14:04:57.585245 29195 net.cpp:148] Top shape: 100 256 13 13 (4326400)
I0403 14:04:57.585263 29195 net.cpp:156] Memory required for data: 800703600
I0403 14:04:57.585296 29195 layer_factory.hpp:77] Creating layer relu5
I0403 14:04:57.585320 29195 net.cpp:91] Creating Layer relu5
I0403 14:04:57.585337 29195 net.cpp:425] relu5 <- conv5
I0403 14:04:57.585360 29195 net.cpp:386] relu5 -> conv5 (in-place)
I0403 14:04:57.585633 29195 net.cpp:141] Setting up relu5
I0403 14:04:57.585664 29195 net.cpp:148] Top shape: 100 256 13 13 (4326400)
I0403 14:04:57.585680 29195 net.cpp:156] Memory required for data: 818009200
I0403 14:04:57.585710 29195 layer_factory.hpp:77] Creating layer pool5
I0403 14:04:57.585732 29195 net.cpp:91] Creating Layer pool5
I0403 14:04:57.585748 29195 net.cpp:425] pool5 <- conv5
I0403 14:04:57.585770 29195 net.cpp:399] pool5 -> pool5
I0403 14:04:57.585844 29195 net.cpp:141] Setting up pool5
I0403 14:04:57.585875 29195 net.cpp:148] Top shape: 100 256 6 6 (921600)
I0403 14:04:57.585896 29195 net.cpp:156] Memory required for data: 821695600
I0403 14:04:57.585913 29195 layer_factory.hpp:77] Creating layer fc6
I0403 14:04:57.585940 29195 net.cpp:91] Creating Layer fc6
I0403 14:04:57.585960 29195 net.cpp:425] fc6 <- pool5
I0403 14:04:57.585981 29195 net.cpp:399] fc6 -> fc6
I0403 14:04:59.199642 29195 net.cpp:141] Setting up fc6
I0403 14:04:59.199725 29195 net.cpp:148] Top shape: 100 4096 (409600)
I0403 14:04:59.199744 29195 net.cpp:156] Memory required for data: 823334000
I0403 14:04:59.199769 29195 layer_factory.hpp:77] Creating layer relu6
I0403 14:04:59.199790 29195 net.cpp:91] Creating Layer relu6
I0403 14:04:59.199806 29195 net.cpp:425] relu6 <- fc6
I0403 14:04:59.199826 29195 net.cpp:386] relu6 -> fc6 (in-place)
I0403 14:04:59.200054 29195 net.cpp:141] Setting up relu6
I0403 14:04:59.200083 29195 net.cpp:148] Top shape: 100 4096 (409600)
I0403 14:04:59.200100 29195 net.cpp:156] Memory required for data: 824972400
I0403 14:04:59.200116 29195 layer_factory.hpp:77] Creating layer drop6
I0403 14:04:59.200135 29195 net.cpp:91] Creating Layer drop6
I0403 14:04:59.200150 29195 net.cpp:425] drop6 <- fc6
I0403 14:04:59.200170 29195 net.cpp:386] drop6 -> fc6 (in-place)
I0403 14:04:59.200223 29195 net.cpp:141] Setting up drop6
I0403 14:04:59.200248 29195 net.cpp:148] Top shape: 100 4096 (409600)
I0403 14:04:59.200263 29195 net.cpp:156] Memory required for data: 826610800
I0403 14:04:59.200278 29195 layer_factory.hpp:77] Creating layer fc7
I0403 14:04:59.200307 29195 net.cpp:91] Creating Layer fc7
I0403 14:04:59.200325 29195 net.cpp:425] fc7 <- fc6
I0403 14:04:59.200348 29195 net.cpp:399] fc7 -> fc7
I0403 14:05:01.638456 29195 net.cpp:141] Setting up fc7
I0403 14:05:01.638538 29195 net.cpp:148] Top shape: 100 4096 (409600)
I0403 14:05:01.638556 29195 net.cpp:156] Memory required for data: 828249200
I0403 14:05:01.638579 29195 layer_factory.hpp:77] Creating layer relu7
I0403 14:05:01.638603 29195 net.cpp:91] Creating Layer relu7
I0403 14:05:01.638622 29195 net.cpp:425] relu7 <- fc7
I0403 14:05:01.638641 29195 net.cpp:386] relu7 -> fc7 (in-place)
I0403 14:05:01.639036 29195 net.cpp:141] Setting up relu7
I0403 14:05:01.639066 29195 net.cpp:148] Top shape: 100 4096 (409600)
I0403 14:05:01.639120 29195 net.cpp:156] Memory required for data: 829887600
I0403 14:05:01.639138 29195 layer_factory.hpp:77] Creating layer drop7
I0403 14:05:01.639158 29195 net.cpp:91] Creating Layer drop7
I0403 14:05:01.639174 29195 net.cpp:425] drop7 <- fc7
I0403 14:05:01.639191 29195 net.cpp:386] drop7 -> fc7 (in-place)
I0403 14:05:01.639236 29195 net.cpp:141] Setting up drop7
I0403 14:05:01.639261 29195 net.cpp:148] Top shape: 100 4096 (409600)
I0403 14:05:01.639276 29195 net.cpp:156] Memory required for data: 831526000
I0403 14:05:01.639297 29195 layer_factory.hpp:77] Creating layer fc8_plantvillage
I0403 14:05:01.639322 29195 net.cpp:91] Creating Layer fc8_plantvillage
I0403 14:05:01.639338 29195 net.cpp:425] fc8_plantvillage <- fc7
I0403 14:05:01.639355 29195 net.cpp:399] fc8_plantvillage -> fc8_plantvillage
I0403 14:05:01.646165 29195 net.cpp:141] Setting up fc8_plantvillage
I0403 14:05:01.646198 29195 net.cpp:148] Top shape: 100 38 (3800)
I0403 14:05:01.646214 29195 net.cpp:156] Memory required for data: 831541200
I0403 14:05:01.646234 29195 layer_factory.hpp:77] Creating layer fc8_plantvillage_fc8_plantvillage_0_split
I0403 14:05:01.646253 29195 net.cpp:91] Creating Layer fc8_plantvillage_fc8_plantvillage_0_split
I0403 14:05:01.646270 29195 net.cpp:425] fc8_plantvillage_fc8_plantvillage_0_split <- fc8_plantvillage
I0403 14:05:01.646296 29195 net.cpp:399] fc8_plantvillage_fc8_plantvillage_0_split -> fc8_plantvillage_fc8_plantvillage_0_split_0
I0403 14:05:01.646318 29195 net.cpp:399] fc8_plantvillage_fc8_plantvillage_0_split -> fc8_plantvillage_fc8_plantvillage_0_split_1
I0403 14:05:01.646339 29195 net.cpp:399] fc8_plantvillage_fc8_plantvillage_0_split -> fc8_plantvillage_fc8_plantvillage_0_split_2
I0403 14:05:01.646414 29195 net.cpp:141] Setting up fc8_plantvillage_fc8_plantvillage_0_split
I0403 14:05:01.646440 29195 net.cpp:148] Top shape: 100 38 (3800)
I0403 14:05:01.646457 29195 net.cpp:148] Top shape: 100 38 (3800)
I0403 14:05:01.646472 29195 net.cpp:148] Top shape: 100 38 (3800)
I0403 14:05:01.646486 29195 net.cpp:156] Memory required for data: 831586800
I0403 14:05:01.646502 29195 layer_factory.hpp:77] Creating layer prob
I0403 14:05:01.646522 29195 net.cpp:91] Creating Layer prob
I0403 14:05:01.646539 29195 net.cpp:425] prob <- fc8_plantvillage_fc8_plantvillage_0_split_0
I0403 14:05:01.646558 29195 net.cpp:399] prob -> prob
I0403 14:05:01.646773 29195 net.cpp:141] Setting up prob
I0403 14:05:01.646803 29195 net.cpp:148] Top shape: 100 38 (3800)
I0403 14:05:01.646821 29195 net.cpp:156] Memory required for data: 831602000
I0403 14:05:01.646836 29195 layer_factory.hpp:77] Creating layer hdf5out
I0403 14:05:01.646855 29195 net.cpp:91] Creating Layer hdf5out
I0403 14:05:01.646872 29195 net.cpp:425] hdf5out <- prob
I0403 14:05:01.646888 29195 net.cpp:425] hdf5out <- label_data_1_split_0
I0403 14:05:01.656306 29195 net.cpp:141] Setting up hdf5out
…
