…
I0403 14:24:04.200768 29652 net.cpp:313] The NetState phase (1) differed from the phase (0) specified by a rule in layer data
I0403 14:24:04.201076 29652 net.cpp:49] Initializing net from parameters: 
state {
  phase: TEST
}
layer {
  name: "data"
  type: "Data"
  top: "data"
  top: "label"
  include {
    phase: TEST
  }
  transform_param {
    crop_size: 227
    mean_file: "/home/mohanty/data/final_dataset/lmdb/color-20-80/mean.binaryproto"
  }
  data_param {
    source: "/home/mohanty/data/final_dataset/lmdb/color-20-80/test_db"
    batch_size: 100
    backend: LMDB
  }
}
layer {
  name: "conv1"
  type: "Convolution"
  bottom: "data"
  top: "conv1"
  param {
    lr_mult: 1
    decay_mult: 1
  }
  param {
    lr_mult: 2
    decay_mult: 0
  }
  convolution_param {
    num_output: 96
    kernel_size: 11
    stride: 4
    weight_filler {
      type: "gaussian"
      std: 0.01
    }
    bias_filler {
      type: "constant"
      value: 0
    }
  }
}
layer {
  name: "relu1"
  type: "ReLU"
  bottom: "conv1"
  top: "conv1"
}
layer {
  name: "norm1"
  type: "LRN"
  bottom: "conv1"
  top: "norm1"
  lrn_param {
    local_size: 5
    alpha: 0.0001
    beta: 0.75
  }
}
layer {
  name: "pool1"
  type: "Pooling"
  bottom: "norm1"
  top: "pool1"
  pooling_param {
    pool: MAX
    kernel_size: 3
    stride: 2
  }
}
layer {
  name: "conv2"
  type: "Convolution"
  bottom: "pool1"
  top: "conv2"
  param {
    lr_mult: 1
    decay_mult: 1
  }
  param {
    lr_mult: 2
    decay_mult: 0
  }
  convolution_param {
    num_output: 256
    pad: 2
    kernel_size: 5
    group: 2
    weight_filler {
      type: "gaussian"
      std: 0.01
    }
    bias_filler {
      type: "constant"
      value: 0.1
    }
  }
}
layer {
  name: "relu2"
  type: "ReLU"
  bottom: "conv2"
  top: "conv2"
}
layer {
  name: "norm2"
  type: "LRN"
  bottom: "conv2"
  top: "norm2"
  lrn_param {
    local_size: 5
    alpha: 0.0001
    beta: 0.75
  }
}
layer {
  name: "pool2"
  type: "Pooling"
  bottom: "norm2"
  top: "pool2"
  pooling_param {
    pool: MAX
    kernel_size: 3
    stride: 2
  }
}
layer {
  name: "conv3"
  type: "Convolution"
  bottom: "pool2"
  top: "conv3"
  param {
    lr_mult: 1
    decay_mult: 1
  }
  param {
    lr_mult: 2
    decay_mult: 0
  }
  convolution_param {
    num_output: 384
    pad: 1
    kernel_size: 3
    weight_filler {
      type: "gaussian"
      std: 0.01
    }
    bias_filler {
      type: "constant"
      value: 0
    }
  }
}
layer {
  name: "relu3"
  type: "ReLU"
  bottom: "conv3"
  top: "conv3"
}
layer {
  name: "conv4"
  type: "Convolution"
  bottom: "conv3"
  top: "conv4"
  param {
    lr_mult: 1
    decay_mult: 1
  }
  param {
    lr_mult: 2
    decay_mult: 0
  }
  convolution_param {
    num_output: 384
    pad: 1
    kernel_size: 3
    group: 2
    weight_filler {
      type: "gaussian"
      std: 0.01
    }
    bias_filler {
      type: "constant"
      value: 0.1
    }
  }
}
layer {
  name: "relu4"
  type: "ReLU"
  bottom: "conv4"
  top: "conv4"
}
layer {
  name: "conv5"
  type: "Convolution"
  bottom: "conv4"
  top: "conv5"
  param {
    lr_mult: 1
    decay_mult: 1
  }
  param {
    lr_mult: 2
    decay_mult: 0
  }
  convolution_param {
    num_output: 256
    pad: 1
    kernel_size: 3
    group: 2
    weight_filler {
      type: "gaussian"
      std: 0.01
    }
    bias_filler {
      type: "constant"
      value: 0.1
    }
  }
}
layer {
  name: "relu5"
  type: "ReLU"
  bottom: "conv5"
  top: "conv5"
}
layer {
  name: "pool5"
  type: "Pooling"
  bottom: "conv5"
  top: "pool5"
  pooling_param {
    pool: MAX
    kernel_size: 3
    stride: 2
  }
}
layer {
  name: "fc6"
  type: "InnerProduct"
  bottom: "pool5"
  top: "fc6"
  param {
    lr_mult: 1
    decay_mult: 1
  }
  param {
    lr_mult: 2
    decay_mult: 0
  }
  inner_product_param {
    num_output: 4096
    weight_filler {
      type: "gaussian"
      std: 0.005
    }
    bias_filler {
      type: "constant"
      value: 0.1
    }
  }
}
layer {
  name: "relu6"
  type: "ReLU"
  bottom: "fc6"
  top: "fc6"
}
layer {
  name: "drop6"
  type: "Dropout"
  bottom: "fc6"
  top: "fc6"
  dropout_param {
    dropout_ratio: 0.5
  }
}
layer {
  name: "fc7"
  type: "InnerProduct"
  bottom: "fc6"
  top: "fc7"
  param {
    lr_mult: 1
    decay_mult: 1
  }
  param {
    lr_mult: 2
    decay_mult: 0
  }
  inner_product_param {
    num_output: 4096
    weight_filler {
      type: "gaussian"
      std: 0.005
    }
    bias_filler {
      type: "constant"
      value: 0.1
    }
  }
}
layer {
  name: "relu7"
  type: "ReLU"
  bottom: "fc7"
  top: "fc7"
}
layer {
  name: "drop7"
  type: "Dropout"
  bottom: "fc7"
  top: "fc7"
  dropout_param {
    dropout_ratio: 0.5
  }
}
layer {
  name: "fc8_plantvillage"
  type: "InnerProduct"
  bottom: "fc7"
  top: "fc8_plantvillage"
  param {
    lr_mult: 1
    decay_mult: 1
  }
  param {
    lr_mult: 2
    decay_mult: 0
  }
  inner_product_param {
    num_output: 38
    weight_filler {
      type: "gaussian"
      std: 0.01
    }
    bias_filler {
      type: "constant"
      value: 0
    }
  }
}
layer {
  name: "prob"
  type: "Softmax"
  bottom: "fc8_plantvillage"
  top: "prob"
  include {
    phase: TEST
  }
}
layer {
  name: "hdf5out"
  type: "HDF5Output"
  bottom: "prob"
  bottom: "label"
  include {
    phase: TEST
  }
  hdf5_output_param {
    file_name: "hdf5_dumps/iter_1512.h5"
  }
}
layer {
  name: "loss"
  type: "SoftmaxWithLoss"
  bottom: "fc8_plantvillage"
  bottom: "label"
  top: "loss"
}
layer {
  name: "accuracy"
  type: "Accuracy"
  bottom: "fc8_plantvillage"
  bottom: "label"
  top: "accuracy"
  include {
    phase: TEST
  }
}
I0403 14:24:04.201638 29652 layer_factory.hpp:77] Creating layer data
I0403 14:24:04.202255 29652 net.cpp:91] Creating Layer data
I0403 14:24:04.202291 29652 net.cpp:399] data -> data
I0403 14:24:04.202344 29652 net.cpp:399] data -> label
I0403 14:24:04.202381 29652 data_transformer.cpp:25] Loading mean file from: /home/mohanty/data/final_dataset/lmdb/color-20-80/mean.binaryproto
I0403 14:24:04.205029 29666 db_lmdb.cpp:38] Opened lmdb /home/mohanty/data/final_dataset/lmdb/color-20-80/test_db
I0403 14:24:04.216804 29652 data_layer.cpp:41] output data size: 100,3,227,227
I0403 14:24:04.347976 29652 net.cpp:141] Setting up data
I0403 14:24:04.348068 29652 net.cpp:148] Top shape: 100 3 227 227 (15458700)
I0403 14:24:04.348091 29652 net.cpp:148] Top shape: 100 (100)
I0403 14:24:04.348107 29652 net.cpp:156] Memory required for data: 61835200
I0403 14:24:04.348135 29652 layer_factory.hpp:77] Creating layer label_data_1_split
I0403 14:24:04.348161 29652 net.cpp:91] Creating Layer label_data_1_split
I0403 14:24:04.348181 29652 net.cpp:425] label_data_1_split <- label
I0403 14:24:04.348212 29652 net.cpp:399] label_data_1_split -> label_data_1_split_0
I0403 14:24:04.348239 29652 net.cpp:399] label_data_1_split -> label_data_1_split_1
I0403 14:24:04.348260 29652 net.cpp:399] label_data_1_split -> label_data_1_split_2
I0403 14:24:04.348325 29652 net.cpp:141] Setting up label_data_1_split
I0403 14:24:04.348351 29652 net.cpp:148] Top shape: 100 (100)
I0403 14:24:04.348367 29652 net.cpp:148] Top shape: 100 (100)
I0403 14:24:04.348384 29652 net.cpp:148] Top shape: 100 (100)
I0403 14:24:04.348398 29652 net.cpp:156] Memory required for data: 61836400
I0403 14:24:04.348413 29652 layer_factory.hpp:77] Creating layer conv1
I0403 14:24:04.348444 29652 net.cpp:91] Creating Layer conv1
I0403 14:24:04.348464 29652 net.cpp:425] conv1 <- data
I0403 14:24:04.348484 29652 net.cpp:399] conv1 -> conv1
I0403 14:24:04.493680 29652 net.cpp:141] Setting up conv1
I0403 14:24:04.493758 29652 net.cpp:148] Top shape: 100 96 55 55 (29040000)
I0403 14:24:04.493777 29652 net.cpp:156] Memory required for data: 177996400
I0403 14:24:04.493810 29652 layer_factory.hpp:77] Creating layer relu1
I0403 14:24:04.493840 29652 net.cpp:91] Creating Layer relu1
I0403 14:24:04.493859 29652 net.cpp:425] relu1 <- conv1
I0403 14:24:04.493878 29652 net.cpp:386] relu1 -> conv1 (in-place)
I0403 14:24:04.494141 29652 net.cpp:141] Setting up relu1
I0403 14:24:04.494169 29652 net.cpp:148] Top shape: 100 96 55 55 (29040000)
I0403 14:24:04.494186 29652 net.cpp:156] Memory required for data: 294156400
I0403 14:24:04.494233 29652 layer_factory.hpp:77] Creating layer norm1
I0403 14:24:04.494276 29652 net.cpp:91] Creating Layer norm1
I0403 14:24:04.494297 29652 net.cpp:425] norm1 <- conv1
I0403 14:24:04.494316 29652 net.cpp:399] norm1 -> norm1
I0403 14:24:04.494717 29652 net.cpp:141] Setting up norm1
I0403 14:24:04.494746 29652 net.cpp:148] Top shape: 100 96 55 55 (29040000)
I0403 14:24:04.494763 29652 net.cpp:156] Memory required for data: 410316400
I0403 14:24:04.494781 29652 layer_factory.hpp:77] Creating layer pool1
I0403 14:24:04.494804 29652 net.cpp:91] Creating Layer pool1
I0403 14:24:04.494822 29652 net.cpp:425] pool1 <- norm1
I0403 14:24:04.494842 29652 net.cpp:399] pool1 -> pool1
I0403 14:24:04.494910 29652 net.cpp:141] Setting up pool1
I0403 14:24:04.494935 29652 net.cpp:148] Top shape: 100 96 27 27 (6998400)
I0403 14:24:04.494951 29652 net.cpp:156] Memory required for data: 438310000
I0403 14:24:04.494966 29652 layer_factory.hpp:77] Creating layer conv2
I0403 14:24:04.494992 29652 net.cpp:91] Creating Layer conv2
I0403 14:24:04.495007 29652 net.cpp:425] conv2 <- pool1
I0403 14:24:04.495025 29652 net.cpp:399] conv2 -> conv2
I0403 14:24:04.510431 29652 net.cpp:141] Setting up conv2
I0403 14:24:04.510479 29652 net.cpp:148] Top shape: 100 256 27 27 (18662400)
I0403 14:24:04.510499 29652 net.cpp:156] Memory required for data: 512959600
I0403 14:24:04.510524 29652 layer_factory.hpp:77] Creating layer relu2
I0403 14:24:04.510547 29652 net.cpp:91] Creating Layer relu2
I0403 14:24:04.510565 29652 net.cpp:425] relu2 <- conv2
I0403 14:24:04.510584 29652 net.cpp:386] relu2 -> conv2 (in-place)
I0403 14:24:04.510874 29652 net.cpp:141] Setting up relu2
I0403 14:24:04.510901 29652 net.cpp:148] Top shape: 100 256 27 27 (18662400)
I0403 14:24:04.510918 29652 net.cpp:156] Memory required for data: 587609200
I0403 14:24:04.510934 29652 layer_factory.hpp:77] Creating layer norm2
I0403 14:24:04.510959 29652 net.cpp:91] Creating Layer norm2
I0403 14:24:04.510977 29652 net.cpp:425] norm2 <- conv2
I0403 14:24:04.510998 29652 net.cpp:399] norm2 -> norm2
I0403 14:24:04.511204 29652 net.cpp:141] Setting up norm2
I0403 14:24:04.511230 29652 net.cpp:148] Top shape: 100 256 27 27 (18662400)
I0403 14:24:04.511246 29652 net.cpp:156] Memory required for data: 662258800
I0403 14:24:04.511266 29652 layer_factory.hpp:77] Creating layer pool2
I0403 14:24:04.511289 29652 net.cpp:91] Creating Layer pool2
I0403 14:24:04.511307 29652 net.cpp:425] pool2 <- norm2
I0403 14:24:04.511325 29652 net.cpp:399] pool2 -> pool2
I0403 14:24:04.511381 29652 net.cpp:141] Setting up pool2
I0403 14:24:04.511406 29652 net.cpp:148] Top shape: 100 256 13 13 (4326400)
I0403 14:24:04.511421 29652 net.cpp:156] Memory required for data: 679564400
I0403 14:24:04.511437 29652 layer_factory.hpp:77] Creating layer conv3
I0403 14:24:04.511461 29652 net.cpp:91] Creating Layer conv3
I0403 14:24:04.511482 29652 net.cpp:425] conv3 <- pool2
I0403 14:24:04.511503 29652 net.cpp:399] conv3 -> conv3
I0403 14:24:04.549476 29652 net.cpp:141] Setting up conv3
I0403 14:24:04.549525 29652 net.cpp:148] Top shape: 100 384 13 13 (6489600)
I0403 14:24:04.549543 29652 net.cpp:156] Memory required for data: 705522800
I0403 14:24:04.549571 29652 layer_factory.hpp:77] Creating layer relu3
I0403 14:24:04.549594 29652 net.cpp:91] Creating Layer relu3
I0403 14:24:04.549612 29652 net.cpp:425] relu3 <- conv3
I0403 14:24:04.549630 29652 net.cpp:386] relu3 -> conv3 (in-place)
I0403 14:24:04.559341 29652 net.cpp:141] Setting up relu3
I0403 14:24:04.559371 29652 net.cpp:148] Top shape: 100 384 13 13 (6489600)
I0403 14:24:04.559388 29652 net.cpp:156] Memory required for data: 731481200
I0403 14:24:04.559404 29652 layer_factory.hpp:77] Creating layer conv4
I0403 14:24:04.559429 29652 net.cpp:91] Creating Layer conv4
I0403 14:24:04.559448 29652 net.cpp:425] conv4 <- conv3
I0403 14:24:04.559470 29652 net.cpp:399] conv4 -> conv4
I0403 14:24:04.589928 29652 net.cpp:141] Setting up conv4
I0403 14:24:04.589995 29652 net.cpp:148] Top shape: 100 384 13 13 (6489600)
I0403 14:24:04.590044 29652 net.cpp:156] Memory required for data: 757439600
I0403 14:24:04.590068 29652 layer_factory.hpp:77] Creating layer relu4
I0403 14:24:04.590093 29652 net.cpp:91] Creating Layer relu4
I0403 14:24:04.590111 29652 net.cpp:425] relu4 <- conv4
I0403 14:24:04.590131 29652 net.cpp:386] relu4 -> conv4 (in-place)
I0403 14:24:04.590423 29652 net.cpp:141] Setting up relu4
I0403 14:24:04.590451 29652 net.cpp:148] Top shape: 100 384 13 13 (6489600)
I0403 14:24:04.590467 29652 net.cpp:156] Memory required for data: 783398000
I0403 14:24:04.590484 29652 layer_factory.hpp:77] Creating layer conv5
I0403 14:24:04.590512 29652 net.cpp:91] Creating Layer conv5
I0403 14:24:04.590530 29652 net.cpp:425] conv5 <- conv4
I0403 14:24:04.590554 29652 net.cpp:399] conv5 -> conv5
I0403 14:24:04.611217 29652 net.cpp:141] Setting up conv5
I0403 14:24:04.611266 29652 net.cpp:148] Top shape: 100 256 13 13 (4326400)
I0403 14:24:04.611285 29652 net.cpp:156] Memory required for data: 800703600
I0403 14:24:04.611310 29652 layer_factory.hpp:77] Creating layer relu5
I0403 14:24:04.611336 29652 net.cpp:91] Creating Layer relu5
I0403 14:24:04.611356 29652 net.cpp:425] relu5 <- conv5
I0403 14:24:04.611374 29652 net.cpp:386] relu5 -> conv5 (in-place)
I0403 14:24:04.611659 29652 net.cpp:141] Setting up relu5
I0403 14:24:04.611686 29652 net.cpp:148] Top shape: 100 256 13 13 (4326400)
I0403 14:24:04.611703 29652 net.cpp:156] Memory required for data: 818009200
I0403 14:24:04.611719 29652 layer_factory.hpp:77] Creating layer pool5
I0403 14:24:04.611744 29652 net.cpp:91] Creating Layer pool5
I0403 14:24:04.611763 29652 net.cpp:425] pool5 <- conv5
I0403 14:24:04.611785 29652 net.cpp:399] pool5 -> pool5
I0403 14:24:04.611847 29652 net.cpp:141] Setting up pool5
I0403 14:24:04.611872 29652 net.cpp:148] Top shape: 100 256 6 6 (921600)
I0403 14:24:04.611888 29652 net.cpp:156] Memory required for data: 821695600
I0403 14:24:04.611903 29652 layer_factory.hpp:77] Creating layer fc6
I0403 14:24:04.611933 29652 net.cpp:91] Creating Layer fc6
I0403 14:24:04.611951 29652 net.cpp:425] fc6 <- pool5
I0403 14:24:04.611971 29652 net.cpp:399] fc6 -> fc6
I0403 14:24:06.185207 29652 net.cpp:141] Setting up fc6
I0403 14:24:06.185268 29652 net.cpp:148] Top shape: 100 4096 (409600)
I0403 14:24:06.185286 29652 net.cpp:156] Memory required for data: 823334000
I0403 14:24:06.185309 29652 layer_factory.hpp:77] Creating layer relu6
I0403 14:24:06.185333 29652 net.cpp:91] Creating Layer relu6
I0403 14:24:06.185350 29652 net.cpp:425] relu6 <- fc6
I0403 14:24:06.185374 29652 net.cpp:386] relu6 -> fc6 (in-place)
I0403 14:24:06.185602 29652 net.cpp:141] Setting up relu6
I0403 14:24:06.185629 29652 net.cpp:148] Top shape: 100 4096 (409600)
I0403 14:24:06.185644 29652 net.cpp:156] Memory required for data: 824972400
I0403 14:24:06.185660 29652 layer_factory.hpp:77] Creating layer drop6
I0403 14:24:06.185683 29652 net.cpp:91] Creating Layer drop6
I0403 14:24:06.185700 29652 net.cpp:425] drop6 <- fc6
I0403 14:24:06.185719 29652 net.cpp:386] drop6 -> fc6 (in-place)
I0403 14:24:06.185772 29652 net.cpp:141] Setting up drop6
I0403 14:24:06.185796 29652 net.cpp:148] Top shape: 100 4096 (409600)
I0403 14:24:06.185811 29652 net.cpp:156] Memory required for data: 826610800
I0403 14:24:06.185827 29652 layer_factory.hpp:77] Creating layer fc7
I0403 14:24:06.185847 29652 net.cpp:91] Creating Layer fc7
I0403 14:24:06.185864 29652 net.cpp:425] fc7 <- fc6
I0403 14:24:06.185886 29652 net.cpp:399] fc7 -> fc7
I0403 14:24:06.865594 29652 net.cpp:141] Setting up fc7
I0403 14:24:06.865638 29652 net.cpp:148] Top shape: 100 4096 (409600)
I0403 14:24:06.865655 29652 net.cpp:156] Memory required for data: 828249200
I0403 14:24:06.865676 29652 layer_factory.hpp:77] Creating layer relu7
I0403 14:24:06.865701 29652 net.cpp:91] Creating Layer relu7
I0403 14:24:06.865733 29652 net.cpp:425] relu7 <- fc7
I0403 14:24:06.865754 29652 net.cpp:386] relu7 -> fc7 (in-place)
I0403 14:24:06.866185 29652 net.cpp:141] Setting up relu7
I0403 14:24:06.866225 29652 net.cpp:148] Top shape: 100 4096 (409600)
I0403 14:24:06.866278 29652 net.cpp:156] Memory required for data: 829887600
I0403 14:24:06.866296 29652 layer_factory.hpp:77] Creating layer drop7
I0403 14:24:06.866317 29652 net.cpp:91] Creating Layer drop7
I0403 14:24:06.866335 29652 net.cpp:425] drop7 <- fc7
I0403 14:24:06.866353 29652 net.cpp:386] drop7 -> fc7 (in-place)
I0403 14:24:06.866396 29652 net.cpp:141] Setting up drop7
I0403 14:24:06.866421 29652 net.cpp:148] Top shape: 100 4096 (409600)
I0403 14:24:06.866438 29652 net.cpp:156] Memory required for data: 831526000
I0403 14:24:06.866453 29652 layer_factory.hpp:77] Creating layer fc8_plantvillage
I0403 14:24:06.866473 29652 net.cpp:91] Creating Layer fc8_plantvillage
I0403 14:24:06.866489 29652 net.cpp:425] fc8_plantvillage <- fc7
I0403 14:24:06.866510 29652 net.cpp:399] fc8_plantvillage -> fc8_plantvillage
I0403 14:24:06.873497 29652 net.cpp:141] Setting up fc8_plantvillage
I0403 14:24:06.873527 29652 net.cpp:148] Top shape: 100 38 (3800)
I0403 14:24:06.873543 29652 net.cpp:156] Memory required for data: 831541200
I0403 14:24:06.873561 29652 layer_factory.hpp:77] Creating layer fc8_plantvillage_fc8_plantvillage_0_split
I0403 14:24:06.873584 29652 net.cpp:91] Creating Layer fc8_plantvillage_fc8_plantvillage_0_split
I0403 14:24:06.873601 29652 net.cpp:425] fc8_plantvillage_fc8_plantvillage_0_split <- fc8_plantvillage
I0403 14:24:06.873630 29652 net.cpp:399] fc8_plantvillage_fc8_plantvillage_0_split -> fc8_plantvillage_fc8_plantvillage_0_split_0
I0403 14:24:06.873651 29652 net.cpp:399] fc8_plantvillage_fc8_plantvillage_0_split -> fc8_plantvillage_fc8_plantvillage_0_split_1
I0403 14:24:06.873670 29652 net.cpp:399] fc8_plantvillage_fc8_plantvillage_0_split -> fc8_plantvillage_fc8_plantvillage_0_split_2
I0403 14:24:06.873751 29652 net.cpp:141] Setting up fc8_plantvillage_fc8_plantvillage_0_split
I0403 14:24:06.873776 29652 net.cpp:148] Top shape: 100 38 (3800)
I0403 14:24:06.873793 29652 net.cpp:148] Top shape: 100 38 (3800)
I0403 14:24:06.873810 29652 net.cpp:148] Top shape: 100 38 (3800)
I0403 14:24:06.873824 29652 net.cpp:156] Memory required for data: 831586800
I0403 14:24:06.873841 29652 layer_factory.hpp:77] Creating layer prob
I0403 14:24:06.873858 29652 net.cpp:91] Creating Layer prob
I0403 14:24:06.873874 29652 net.cpp:425] prob <- fc8_plantvillage_fc8_plantvillage_0_split_0
I0403 14:24:06.873894 29652 net.cpp:399] prob -> prob
I0403 14:24:06.874124 29652 net.cpp:141] Setting up prob
I0403 14:24:06.874150 29652 net.cpp:148] Top shape: 100 38 (3800)
I0403 14:24:06.874166 29652 net.cpp:156] Memory required for data: 831602000
I0403 14:24:06.874181 29652 layer_factory.hpp:77] Creating layer hdf5out
I0403 14:24:06.874203 29652 net.cpp:91] Creating Layer hdf5out
I0403 14:24:06.874220 29652 net.cpp:425] hdf5out <- prob
I0403 14:24:06.874238 29652 net.cpp:425] hdf5out <- label_data_1_split_0
I0403 14:24:06.877678 29652 net.cpp:141] Setting up hdf5out
…
