…
I0403 14:25:32.353708 29693 net.cpp:313] The NetState phase (1) differed from the phase (0) specified by a rule in layer data
I0403 14:25:32.354006 29693 net.cpp:49] Initializing net from parameters: 
state {
  phase: TEST
}
layer {
  name: "data"
  type: "Data"
  top: "data"
  top: "label"
  include {
    phase: TEST
  }
  transform_param {
    crop_size: 227
    mean_file: "/home/mohanty/data/final_dataset/lmdb/color-20-80/mean.binaryproto"
  }
  data_param {
    source: "/home/mohanty/data/final_dataset/lmdb/color-20-80/test_db"
    batch_size: 100
    backend: LMDB
  }
}
layer {
  name: "conv1"
  type: "Convolution"
  bottom: "data"
  top: "conv1"
  param {
    lr_mult: 1
    decay_mult: 1
  }
  param {
    lr_mult: 2
    decay_mult: 0
  }
  convolution_param {
    num_output: 96
    kernel_size: 11
    stride: 4
    weight_filler {
      type: "gaussian"
      std: 0.01
    }
    bias_filler {
      type: "constant"
      value: 0
    }
  }
}
layer {
  name: "relu1"
  type: "ReLU"
  bottom: "conv1"
  top: "conv1"
}
layer {
  name: "norm1"
  type: "LRN"
  bottom: "conv1"
  top: "norm1"
  lrn_param {
    local_size: 5
    alpha: 0.0001
    beta: 0.75
  }
}
layer {
  name: "pool1"
  type: "Pooling"
  bottom: "norm1"
  top: "pool1"
  pooling_param {
    pool: MAX
    kernel_size: 3
    stride: 2
  }
}
layer {
  name: "conv2"
  type: "Convolution"
  bottom: "pool1"
  top: "conv2"
  param {
    lr_mult: 1
    decay_mult: 1
  }
  param {
    lr_mult: 2
    decay_mult: 0
  }
  convolution_param {
    num_output: 256
    pad: 2
    kernel_size: 5
    group: 2
    weight_filler {
      type: "gaussian"
      std: 0.01
    }
    bias_filler {
      type: "constant"
      value: 0.1
    }
  }
}
layer {
  name: "relu2"
  type: "ReLU"
  bottom: "conv2"
  top: "conv2"
}
layer {
  name: "norm2"
  type: "LRN"
  bottom: "conv2"
  top: "norm2"
  lrn_param {
    local_size: 5
    alpha: 0.0001
    beta: 0.75
  }
}
layer {
  name: "pool2"
  type: "Pooling"
  bottom: "norm2"
  top: "pool2"
  pooling_param {
    pool: MAX
    kernel_size: 3
    stride: 2
  }
}
layer {
  name: "conv3"
  type: "Convolution"
  bottom: "pool2"
  top: "conv3"
  param {
    lr_mult: 1
    decay_mult: 1
  }
  param {
    lr_mult: 2
    decay_mult: 0
  }
  convolution_param {
    num_output: 384
    pad: 1
    kernel_size: 3
    weight_filler {
      type: "gaussian"
      std: 0.01
    }
    bias_filler {
      type: "constant"
      value: 0
    }
  }
}
layer {
  name: "relu3"
  type: "ReLU"
  bottom: "conv3"
  top: "conv3"
}
layer {
  name: "conv4"
  type: "Convolution"
  bottom: "conv3"
  top: "conv4"
  param {
    lr_mult: 1
    decay_mult: 1
  }
  param {
    lr_mult: 2
    decay_mult: 0
  }
  convolution_param {
    num_output: 384
    pad: 1
    kernel_size: 3
    group: 2
    weight_filler {
      type: "gaussian"
      std: 0.01
    }
    bias_filler {
      type: "constant"
      value: 0.1
    }
  }
}
layer {
  name: "relu4"
  type: "ReLU"
  bottom: "conv4"
  top: "conv4"
}
layer {
  name: "conv5"
  type: "Convolution"
  bottom: "conv4"
  top: "conv5"
  param {
    lr_mult: 1
    decay_mult: 1
  }
  param {
    lr_mult: 2
    decay_mult: 0
  }
  convolution_param {
    num_output: 256
    pad: 1
    kernel_size: 3
    group: 2
    weight_filler {
      type: "gaussian"
      std: 0.01
    }
    bias_filler {
      type: "constant"
      value: 0.1
    }
  }
}
layer {
  name: "relu5"
  type: "ReLU"
  bottom: "conv5"
  top: "conv5"
}
layer {
  name: "pool5"
  type: "Pooling"
  bottom: "conv5"
  top: "pool5"
  pooling_param {
    pool: MAX
    kernel_size: 3
    stride: 2
  }
}
layer {
  name: "fc6"
  type: "InnerProduct"
  bottom: "pool5"
  top: "fc6"
  param {
    lr_mult: 1
    decay_mult: 1
  }
  param {
    lr_mult: 2
    decay_mult: 0
  }
  inner_product_param {
    num_output: 4096
    weight_filler {
      type: "gaussian"
      std: 0.005
    }
    bias_filler {
      type: "constant"
      value: 0.1
    }
  }
}
layer {
  name: "relu6"
  type: "ReLU"
  bottom: "fc6"
  top: "fc6"
}
layer {
  name: "drop6"
  type: "Dropout"
  bottom: "fc6"
  top: "fc6"
  dropout_param {
    dropout_ratio: 0.5
  }
}
layer {
  name: "fc7"
  type: "InnerProduct"
  bottom: "fc6"
  top: "fc7"
  param {
    lr_mult: 1
    decay_mult: 1
  }
  param {
    lr_mult: 2
    decay_mult: 0
  }
  inner_product_param {
    num_output: 4096
    weight_filler {
      type: "gaussian"
      std: 0.005
    }
    bias_filler {
      type: "constant"
      value: 0.1
    }
  }
}
layer {
  name: "relu7"
  type: "ReLU"
  bottom: "fc7"
  top: "fc7"
}
layer {
  name: "drop7"
  type: "Dropout"
  bottom: "fc7"
  top: "fc7"
  dropout_param {
    dropout_ratio: 0.5
  }
}
layer {
  name: "fc8_plantvillage"
  type: "InnerProduct"
  bottom: "fc7"
  top: "fc8_plantvillage"
  param {
    lr_mult: 1
    decay_mult: 1
  }
  param {
    lr_mult: 2
    decay_mult: 0
  }
  inner_product_param {
    num_output: 38
    weight_filler {
      type: "gaussian"
      std: 0.01
    }
    bias_filler {
      type: "constant"
      value: 0
    }
  }
}
layer {
  name: "prob"
  type: "Softmax"
  bottom: "fc8_plantvillage"
  top: "prob"
  include {
    phase: TEST
  }
}
layer {
  name: "hdf5out"
  type: "HDF5Output"
  bottom: "prob"
  bottom: "label"
  include {
    phase: TEST
  }
  hdf5_output_param {
    file_name: "hdf5_dumps/iter_1620.h5"
  }
}
layer {
  name: "loss"
  type: "SoftmaxWithLoss"
  bottom: "fc8_plantvillage"
  bottom: "label"
  top: "loss"
}
layer {
  name: "accuracy"
  type: "Accuracy"
  bottom: "fc8_plantvillage"
  bottom: "label"
  top: "accuracy"
  include {
    phase: TEST
  }
}
I0403 14:25:32.354570 29693 layer_factory.hpp:77] Creating layer data
I0403 14:25:32.355186 29693 net.cpp:91] Creating Layer data
I0403 14:25:32.355216 29693 net.cpp:399] data -> data
I0403 14:25:32.355265 29693 net.cpp:399] data -> label
I0403 14:25:32.355310 29693 data_transformer.cpp:25] Loading mean file from: /home/mohanty/data/final_dataset/lmdb/color-20-80/mean.binaryproto
I0403 14:25:32.358100 29696 db_lmdb.cpp:38] Opened lmdb /home/mohanty/data/final_dataset/lmdb/color-20-80/test_db
I0403 14:25:32.369557 29693 data_layer.cpp:41] output data size: 100,3,227,227
I0403 14:25:32.499596 29693 net.cpp:141] Setting up data
I0403 14:25:32.499655 29693 net.cpp:148] Top shape: 100 3 227 227 (15458700)
I0403 14:25:32.499678 29693 net.cpp:148] Top shape: 100 (100)
I0403 14:25:32.499694 29693 net.cpp:156] Memory required for data: 61835200
I0403 14:25:32.499723 29693 layer_factory.hpp:77] Creating layer label_data_1_split
I0403 14:25:32.499748 29693 net.cpp:91] Creating Layer label_data_1_split
I0403 14:25:32.499768 29693 net.cpp:425] label_data_1_split <- label
I0403 14:25:32.499799 29693 net.cpp:399] label_data_1_split -> label_data_1_split_0
I0403 14:25:32.499827 29693 net.cpp:399] label_data_1_split -> label_data_1_split_1
I0403 14:25:32.499850 29693 net.cpp:399] label_data_1_split -> label_data_1_split_2
I0403 14:25:32.499914 29693 net.cpp:141] Setting up label_data_1_split
I0403 14:25:32.499939 29693 net.cpp:148] Top shape: 100 (100)
I0403 14:25:32.499958 29693 net.cpp:148] Top shape: 100 (100)
I0403 14:25:32.499975 29693 net.cpp:148] Top shape: 100 (100)
I0403 14:25:32.499989 29693 net.cpp:156] Memory required for data: 61836400
I0403 14:25:32.500005 29693 layer_factory.hpp:77] Creating layer conv1
I0403 14:25:32.500037 29693 net.cpp:91] Creating Layer conv1
I0403 14:25:32.500057 29693 net.cpp:425] conv1 <- data
I0403 14:25:32.500077 29693 net.cpp:399] conv1 -> conv1
I0403 14:25:32.648984 29693 net.cpp:141] Setting up conv1
I0403 14:25:32.649062 29693 net.cpp:148] Top shape: 100 96 55 55 (29040000)
I0403 14:25:32.649081 29693 net.cpp:156] Memory required for data: 177996400
I0403 14:25:32.649112 29693 layer_factory.hpp:77] Creating layer relu1
I0403 14:25:32.649140 29693 net.cpp:91] Creating Layer relu1
I0403 14:25:32.649159 29693 net.cpp:425] relu1 <- conv1
I0403 14:25:32.649181 29693 net.cpp:386] relu1 -> conv1 (in-place)
I0403 14:25:32.649461 29693 net.cpp:141] Setting up relu1
I0403 14:25:32.649489 29693 net.cpp:148] Top shape: 100 96 55 55 (29040000)
I0403 14:25:32.649504 29693 net.cpp:156] Memory required for data: 294156400
I0403 14:25:32.649550 29693 layer_factory.hpp:77] Creating layer norm1
I0403 14:25:32.649581 29693 net.cpp:91] Creating Layer norm1
I0403 14:25:32.649602 29693 net.cpp:425] norm1 <- conv1
I0403 14:25:32.649621 29693 net.cpp:399] norm1 -> norm1
I0403 14:25:32.649942 29693 net.cpp:141] Setting up norm1
I0403 14:25:32.649971 29693 net.cpp:148] Top shape: 100 96 55 55 (29040000)
I0403 14:25:32.649987 29693 net.cpp:156] Memory required for data: 410316400
I0403 14:25:32.650003 29693 layer_factory.hpp:77] Creating layer pool1
I0403 14:25:32.650028 29693 net.cpp:91] Creating Layer pool1
I0403 14:25:32.650048 29693 net.cpp:425] pool1 <- norm1
I0403 14:25:32.650065 29693 net.cpp:399] pool1 -> pool1
I0403 14:25:32.650136 29693 net.cpp:141] Setting up pool1
I0403 14:25:32.650161 29693 net.cpp:148] Top shape: 100 96 27 27 (6998400)
I0403 14:25:32.650177 29693 net.cpp:156] Memory required for data: 438310000
I0403 14:25:32.650192 29693 layer_factory.hpp:77] Creating layer conv2
I0403 14:25:32.650218 29693 net.cpp:91] Creating Layer conv2
I0403 14:25:32.650235 29693 net.cpp:425] conv2 <- pool1
I0403 14:25:32.650256 29693 net.cpp:399] conv2 -> conv2
I0403 14:25:32.666508 29693 net.cpp:141] Setting up conv2
I0403 14:25:32.666545 29693 net.cpp:148] Top shape: 100 256 27 27 (18662400)
I0403 14:25:32.666563 29693 net.cpp:156] Memory required for data: 512959600
I0403 14:25:32.666585 29693 layer_factory.hpp:77] Creating layer relu2
I0403 14:25:32.666609 29693 net.cpp:91] Creating Layer relu2
I0403 14:25:32.666627 29693 net.cpp:425] relu2 <- conv2
I0403 14:25:32.666646 29693 net.cpp:386] relu2 -> conv2 (in-place)
I0403 14:25:32.666934 29693 net.cpp:141] Setting up relu2
I0403 14:25:32.666962 29693 net.cpp:148] Top shape: 100 256 27 27 (18662400)
I0403 14:25:32.666978 29693 net.cpp:156] Memory required for data: 587609200
I0403 14:25:32.666995 29693 layer_factory.hpp:77] Creating layer norm2
I0403 14:25:32.667017 29693 net.cpp:91] Creating Layer norm2
I0403 14:25:32.667037 29693 net.cpp:425] norm2 <- conv2
I0403 14:25:32.667057 29693 net.cpp:399] norm2 -> norm2
I0403 14:25:32.667263 29693 net.cpp:141] Setting up norm2
I0403 14:25:32.667294 29693 net.cpp:148] Top shape: 100 256 27 27 (18662400)
I0403 14:25:32.667311 29693 net.cpp:156] Memory required for data: 662258800
I0403 14:25:32.667361 29693 layer_factory.hpp:77] Creating layer pool2
I0403 14:25:32.667388 29693 net.cpp:91] Creating Layer pool2
I0403 14:25:32.667407 29693 net.cpp:425] pool2 <- norm2
I0403 14:25:32.667425 29693 net.cpp:399] pool2 -> pool2
I0403 14:25:32.667484 29693 net.cpp:141] Setting up pool2
I0403 14:25:32.667508 29693 net.cpp:148] Top shape: 100 256 13 13 (4326400)
I0403 14:25:32.667526 29693 net.cpp:156] Memory required for data: 679564400
I0403 14:25:32.667541 29693 layer_factory.hpp:77] Creating layer conv3
I0403 14:25:32.667567 29693 net.cpp:91] Creating Layer conv3
I0403 14:25:32.667585 29693 net.cpp:425] conv3 <- pool2
I0403 14:25:32.667608 29693 net.cpp:399] conv3 -> conv3
I0403 14:25:32.711655 29693 net.cpp:141] Setting up conv3
I0403 14:25:32.711725 29693 net.cpp:148] Top shape: 100 384 13 13 (6489600)
I0403 14:25:32.711741 29693 net.cpp:156] Memory required for data: 705522800
I0403 14:25:32.711766 29693 layer_factory.hpp:77] Creating layer relu3
I0403 14:25:32.711792 29693 net.cpp:91] Creating Layer relu3
I0403 14:25:32.711812 29693 net.cpp:425] relu3 <- conv3
I0403 14:25:32.711830 29693 net.cpp:386] relu3 -> conv3 (in-place)
I0403 14:25:32.712119 29693 net.cpp:141] Setting up relu3
I0403 14:25:32.712148 29693 net.cpp:148] Top shape: 100 384 13 13 (6489600)
I0403 14:25:32.712164 29693 net.cpp:156] Memory required for data: 731481200
I0403 14:25:32.712179 29693 layer_factory.hpp:77] Creating layer conv4
I0403 14:25:32.712206 29693 net.cpp:91] Creating Layer conv4
I0403 14:25:32.712225 29693 net.cpp:425] conv4 <- conv3
I0403 14:25:32.712247 29693 net.cpp:399] conv4 -> conv4
I0403 14:25:32.744384 29693 net.cpp:141] Setting up conv4
I0403 14:25:32.744427 29693 net.cpp:148] Top shape: 100 384 13 13 (6489600)
I0403 14:25:32.744474 29693 net.cpp:156] Memory required for data: 757439600
I0403 14:25:32.744496 29693 layer_factory.hpp:77] Creating layer relu4
I0403 14:25:32.744515 29693 net.cpp:91] Creating Layer relu4
I0403 14:25:32.744532 29693 net.cpp:425] relu4 <- conv4
I0403 14:25:32.744555 29693 net.cpp:386] relu4 -> conv4 (in-place)
I0403 14:25:32.744834 29693 net.cpp:141] Setting up relu4
I0403 14:25:32.744863 29693 net.cpp:148] Top shape: 100 384 13 13 (6489600)
I0403 14:25:32.744877 29693 net.cpp:156] Memory required for data: 783398000
I0403 14:25:32.744894 29693 layer_factory.hpp:77] Creating layer conv5
I0403 14:25:32.744917 29693 net.cpp:91] Creating Layer conv5
I0403 14:25:32.744935 29693 net.cpp:425] conv5 <- conv4
I0403 14:25:32.744956 29693 net.cpp:399] conv5 -> conv5
I0403 14:25:32.767568 29693 net.cpp:141] Setting up conv5
I0403 14:25:32.767623 29693 net.cpp:148] Top shape: 100 256 13 13 (4326400)
I0403 14:25:32.767640 29693 net.cpp:156] Memory required for data: 800703600
I0403 14:25:32.767666 29693 layer_factory.hpp:77] Creating layer relu5
I0403 14:25:32.767689 29693 net.cpp:91] Creating Layer relu5
I0403 14:25:32.767709 29693 net.cpp:425] relu5 <- conv5
I0403 14:25:32.767729 29693 net.cpp:386] relu5 -> conv5 (in-place)
I0403 14:25:32.768012 29693 net.cpp:141] Setting up relu5
I0403 14:25:32.768040 29693 net.cpp:148] Top shape: 100 256 13 13 (4326400)
I0403 14:25:32.768056 29693 net.cpp:156] Memory required for data: 818009200
I0403 14:25:32.768072 29693 layer_factory.hpp:77] Creating layer pool5
I0403 14:25:32.768098 29693 net.cpp:91] Creating Layer pool5
I0403 14:25:32.768116 29693 net.cpp:425] pool5 <- conv5
I0403 14:25:32.768136 29693 net.cpp:399] pool5 -> pool5
I0403 14:25:32.768196 29693 net.cpp:141] Setting up pool5
I0403 14:25:32.768223 29693 net.cpp:148] Top shape: 100 256 6 6 (921600)
I0403 14:25:32.768239 29693 net.cpp:156] Memory required for data: 821695600
I0403 14:25:32.768254 29693 layer_factory.hpp:77] Creating layer fc6
I0403 14:25:32.768287 29693 net.cpp:91] Creating Layer fc6
I0403 14:25:32.768308 29693 net.cpp:425] fc6 <- pool5
I0403 14:25:32.768327 29693 net.cpp:399] fc6 -> fc6
I0403 14:25:34.318974 29693 net.cpp:141] Setting up fc6
I0403 14:25:34.319044 29693 net.cpp:148] Top shape: 100 4096 (409600)
I0403 14:25:34.319061 29693 net.cpp:156] Memory required for data: 823334000
I0403 14:25:34.319082 29693 layer_factory.hpp:77] Creating layer relu6
I0403 14:25:34.319104 29693 net.cpp:91] Creating Layer relu6
I0403 14:25:34.319121 29693 net.cpp:425] relu6 <- fc6
I0403 14:25:34.319144 29693 net.cpp:386] relu6 -> fc6 (in-place)
I0403 14:25:34.319375 29693 net.cpp:141] Setting up relu6
I0403 14:25:34.319402 29693 net.cpp:148] Top shape: 100 4096 (409600)
I0403 14:25:34.319418 29693 net.cpp:156] Memory required for data: 824972400
I0403 14:25:34.319434 29693 layer_factory.hpp:77] Creating layer drop6
I0403 14:25:34.319455 29693 net.cpp:91] Creating Layer drop6
I0403 14:25:34.319471 29693 net.cpp:425] drop6 <- fc6
I0403 14:25:34.319489 29693 net.cpp:386] drop6 -> fc6 (in-place)
I0403 14:25:34.319538 29693 net.cpp:141] Setting up drop6
I0403 14:25:34.319566 29693 net.cpp:148] Top shape: 100 4096 (409600)
I0403 14:25:34.319583 29693 net.cpp:156] Memory required for data: 826610800
I0403 14:25:34.319599 29693 layer_factory.hpp:77] Creating layer fc7
I0403 14:25:34.319619 29693 net.cpp:91] Creating Layer fc7
I0403 14:25:34.319646 29693 net.cpp:425] fc7 <- fc6
I0403 14:25:34.319666 29693 net.cpp:399] fc7 -> fc7
I0403 14:25:35.012050 29693 net.cpp:141] Setting up fc7
I0403 14:25:35.012118 29693 net.cpp:148] Top shape: 100 4096 (409600)
I0403 14:25:35.012136 29693 net.cpp:156] Memory required for data: 828249200
I0403 14:25:35.012158 29693 layer_factory.hpp:77] Creating layer relu7
I0403 14:25:35.012181 29693 net.cpp:91] Creating Layer relu7
I0403 14:25:35.012200 29693 net.cpp:425] relu7 <- fc7
I0403 14:25:35.012223 29693 net.cpp:386] relu7 -> fc7 (in-place)
I0403 14:25:35.012636 29693 net.cpp:141] Setting up relu7
I0403 14:25:35.012665 29693 net.cpp:148] Top shape: 100 4096 (409600)
I0403 14:25:35.012714 29693 net.cpp:156] Memory required for data: 829887600
I0403 14:25:35.012732 29693 layer_factory.hpp:77] Creating layer drop7
I0403 14:25:35.012750 29693 net.cpp:91] Creating Layer drop7
I0403 14:25:35.012768 29693 net.cpp:425] drop7 <- fc7
I0403 14:25:35.012786 29693 net.cpp:386] drop7 -> fc7 (in-place)
I0403 14:25:35.012832 29693 net.cpp:141] Setting up drop7
I0403 14:25:35.012857 29693 net.cpp:148] Top shape: 100 4096 (409600)
I0403 14:25:35.012873 29693 net.cpp:156] Memory required for data: 831526000
I0403 14:25:35.012888 29693 layer_factory.hpp:77] Creating layer fc8_plantvillage
I0403 14:25:35.012908 29693 net.cpp:91] Creating Layer fc8_plantvillage
I0403 14:25:35.012924 29693 net.cpp:425] fc8_plantvillage <- fc7
I0403 14:25:35.012948 29693 net.cpp:399] fc8_plantvillage -> fc8_plantvillage
I0403 14:25:35.019995 29693 net.cpp:141] Setting up fc8_plantvillage
I0403 14:25:35.020027 29693 net.cpp:148] Top shape: 100 38 (3800)
I0403 14:25:35.020045 29693 net.cpp:156] Memory required for data: 831541200
I0403 14:25:35.020061 29693 layer_factory.hpp:77] Creating layer fc8_plantvillage_fc8_plantvillage_0_split
I0403 14:25:35.020083 29693 net.cpp:91] Creating Layer fc8_plantvillage_fc8_plantvillage_0_split
I0403 14:25:35.020102 29693 net.cpp:425] fc8_plantvillage_fc8_plantvillage_0_split <- fc8_plantvillage
I0403 14:25:35.020120 29693 net.cpp:399] fc8_plantvillage_fc8_plantvillage_0_split -> fc8_plantvillage_fc8_plantvillage_0_split_0
I0403 14:25:35.020141 29693 net.cpp:399] fc8_plantvillage_fc8_plantvillage_0_split -> fc8_plantvillage_fc8_plantvillage_0_split_1
I0403 14:25:35.020162 29693 net.cpp:399] fc8_plantvillage_fc8_plantvillage_0_split -> fc8_plantvillage_fc8_plantvillage_0_split_2
I0403 14:25:35.020243 29693 net.cpp:141] Setting up fc8_plantvillage_fc8_plantvillage_0_split
I0403 14:25:35.020268 29693 net.cpp:148] Top shape: 100 38 (3800)
I0403 14:25:35.020292 29693 net.cpp:148] Top shape: 100 38 (3800)
I0403 14:25:35.020311 29693 net.cpp:148] Top shape: 100 38 (3800)
I0403 14:25:35.020326 29693 net.cpp:156] Memory required for data: 831586800
I0403 14:25:35.020341 29693 layer_factory.hpp:77] Creating layer prob
I0403 14:25:35.020372 29693 net.cpp:91] Creating Layer prob
I0403 14:25:35.020390 29693 net.cpp:425] prob <- fc8_plantvillage_fc8_plantvillage_0_split_0
I0403 14:25:35.020408 29693 net.cpp:399] prob -> prob
I0403 14:25:35.020663 29693 net.cpp:141] Setting up prob
I0403 14:25:35.020691 29693 net.cpp:148] Top shape: 100 38 (3800)
I0403 14:25:35.020707 29693 net.cpp:156] Memory required for data: 831602000
I0403 14:25:35.020723 29693 layer_factory.hpp:77] Creating layer hdf5out
I0403 14:25:35.020743 29693 net.cpp:91] Creating Layer hdf5out
I0403 14:25:35.020759 29693 net.cpp:425] hdf5out <- prob
I0403 14:25:35.020779 29693 net.cpp:425] hdf5out <- label_data_1_split_0
I0403 14:25:35.024408 29693 net.cpp:141] Setting up hdf5out
…
