…
I0403 14:35:51.845212 30010 net.cpp:313] The NetState phase (1) differed from the phase (0) specified by a rule in layer data
I0403 14:35:51.845518 30010 net.cpp:49] Initializing net from parameters: 
state {
  phase: TEST
}
layer {
  name: "data"
  type: "Data"
  top: "data"
  top: "label"
  include {
    phase: TEST
  }
  transform_param {
    crop_size: 227
    mean_file: "/home/mohanty/data/final_dataset/lmdb/color-20-80/mean.binaryproto"
  }
  data_param {
    source: "/home/mohanty/data/final_dataset/lmdb/color-20-80/test_db"
    batch_size: 100
    backend: LMDB
  }
}
layer {
  name: "conv1"
  type: "Convolution"
  bottom: "data"
  top: "conv1"
  param {
    lr_mult: 1
    decay_mult: 1
  }
  param {
    lr_mult: 2
    decay_mult: 0
  }
  convolution_param {
    num_output: 96
    kernel_size: 11
    stride: 4
    weight_filler {
      type: "gaussian"
      std: 0.01
    }
    bias_filler {
      type: "constant"
      value: 0
    }
  }
}
layer {
  name: "relu1"
  type: "ReLU"
  bottom: "conv1"
  top: "conv1"
}
layer {
  name: "norm1"
  type: "LRN"
  bottom: "conv1"
  top: "norm1"
  lrn_param {
    local_size: 5
    alpha: 0.0001
    beta: 0.75
  }
}
layer {
  name: "pool1"
  type: "Pooling"
  bottom: "norm1"
  top: "pool1"
  pooling_param {
    pool: MAX
    kernel_size: 3
    stride: 2
  }
}
layer {
  name: "conv2"
  type: "Convolution"
  bottom: "pool1"
  top: "conv2"
  param {
    lr_mult: 1
    decay_mult: 1
  }
  param {
    lr_mult: 2
    decay_mult: 0
  }
  convolution_param {
    num_output: 256
    pad: 2
    kernel_size: 5
    group: 2
    weight_filler {
      type: "gaussian"
      std: 0.01
    }
    bias_filler {
      type: "constant"
      value: 0.1
    }
  }
}
layer {
  name: "relu2"
  type: "ReLU"
  bottom: "conv2"
  top: "conv2"
}
layer {
  name: "norm2"
  type: "LRN"
  bottom: "conv2"
  top: "norm2"
  lrn_param {
    local_size: 5
    alpha: 0.0001
    beta: 0.75
  }
}
layer {
  name: "pool2"
  type: "Pooling"
  bottom: "norm2"
  top: "pool2"
  pooling_param {
    pool: MAX
    kernel_size: 3
    stride: 2
  }
}
layer {
  name: "conv3"
  type: "Convolution"
  bottom: "pool2"
  top: "conv3"
  param {
    lr_mult: 1
    decay_mult: 1
  }
  param {
    lr_mult: 2
    decay_mult: 0
  }
  convolution_param {
    num_output: 384
    pad: 1
    kernel_size: 3
    weight_filler {
      type: "gaussian"
      std: 0.01
    }
    bias_filler {
      type: "constant"
      value: 0
    }
  }
}
layer {
  name: "relu3"
  type: "ReLU"
  bottom: "conv3"
  top: "conv3"
}
layer {
  name: "conv4"
  type: "Convolution"
  bottom: "conv3"
  top: "conv4"
  param {
    lr_mult: 1
    decay_mult: 1
  }
  param {
    lr_mult: 2
    decay_mult: 0
  }
  convolution_param {
    num_output: 384
    pad: 1
    kernel_size: 3
    group: 2
    weight_filler {
      type: "gaussian"
      std: 0.01
    }
    bias_filler {
      type: "constant"
      value: 0.1
    }
  }
}
layer {
  name: "relu4"
  type: "ReLU"
  bottom: "conv4"
  top: "conv4"
}
layer {
  name: "conv5"
  type: "Convolution"
  bottom: "conv4"
  top: "conv5"
  param {
    lr_mult: 1
    decay_mult: 1
  }
  param {
    lr_mult: 2
    decay_mult: 0
  }
  convolution_param {
    num_output: 256
    pad: 1
    kernel_size: 3
    group: 2
    weight_filler {
      type: "gaussian"
      std: 0.01
    }
    bias_filler {
      type: "constant"
      value: 0.1
    }
  }
}
layer {
  name: "relu5"
  type: "ReLU"
  bottom: "conv5"
  top: "conv5"
}
layer {
  name: "pool5"
  type: "Pooling"
  bottom: "conv5"
  top: "pool5"
  pooling_param {
    pool: MAX
    kernel_size: 3
    stride: 2
  }
}
layer {
  name: "fc6"
  type: "InnerProduct"
  bottom: "pool5"
  top: "fc6"
  param {
    lr_mult: 1
    decay_mult: 1
  }
  param {
    lr_mult: 2
    decay_mult: 0
  }
  inner_product_param {
    num_output: 4096
    weight_filler {
      type: "gaussian"
      std: 0.005
    }
    bias_filler {
      type: "constant"
      value: 0.1
    }
  }
}
layer {
  name: "relu6"
  type: "ReLU"
  bottom: "fc6"
  top: "fc6"
}
layer {
  name: "drop6"
  type: "Dropout"
  bottom: "fc6"
  top: "fc6"
  dropout_param {
    dropout_ratio: 0.5
  }
}
layer {
  name: "fc7"
  type: "InnerProduct"
  bottom: "fc6"
  top: "fc7"
  param {
    lr_mult: 1
    decay_mult: 1
  }
  param {
    lr_mult: 2
    decay_mult: 0
  }
  inner_product_param {
    num_output: 4096
    weight_filler {
      type: "gaussian"
      std: 0.005
    }
    bias_filler {
      type: "constant"
      value: 0.1
    }
  }
}
layer {
  name: "relu7"
  type: "ReLU"
  bottom: "fc7"
  top: "fc7"
}
layer {
  name: "drop7"
  type: "Dropout"
  bottom: "fc7"
  top: "fc7"
  dropout_param {
    dropout_ratio: 0.5
  }
}
layer {
  name: "fc8_plantvillage"
  type: "InnerProduct"
  bottom: "fc7"
  top: "fc8_plantvillage"
  param {
    lr_mult: 1
    decay_mult: 1
  }
  param {
    lr_mult: 2
    decay_mult: 0
  }
  inner_product_param {
    num_output: 38
    weight_filler {
      type: "gaussian"
      std: 0.01
    }
    bias_filler {
      type: "constant"
      value: 0
    }
  }
}
layer {
  name: "prob"
  type: "Softmax"
  bottom: "fc8_plantvillage"
  top: "prob"
  include {
    phase: TEST
  }
}
layer {
  name: "hdf5out"
  type: "HDF5Output"
  bottom: "prob"
  bottom: "label"
  include {
    phase: TEST
  }
  hdf5_output_param {
    file_name: "hdf5_dumps/iter_2376.h5"
  }
}
layer {
  name: "loss"
  type: "SoftmaxWithLoss"
  bottom: "fc8_plantvillage"
  bottom: "label"
  top: "loss"
}
layer {
  name: "accuracy"
  type: "Accuracy"
  bottom: "fc8_plantvillage"
  bottom: "label"
  top: "accuracy"
  include {
    phase: TEST
  }
}
I0403 14:35:51.846112 30010 layer_factory.hpp:77] Creating layer data
I0403 14:35:51.846757 30010 net.cpp:91] Creating Layer data
I0403 14:35:51.846789 30010 net.cpp:399] data -> data
I0403 14:35:51.846843 30010 net.cpp:399] data -> label
I0403 14:35:51.846880 30010 data_transformer.cpp:25] Loading mean file from: /home/mohanty/data/final_dataset/lmdb/color-20-80/mean.binaryproto
I0403 14:35:51.849251 30012 db_lmdb.cpp:38] Opened lmdb /home/mohanty/data/final_dataset/lmdb/color-20-80/test_db
I0403 14:35:51.861505 30010 data_layer.cpp:41] output data size: 100,3,227,227
I0403 14:35:51.994041 30010 net.cpp:141] Setting up data
I0403 14:35:51.994102 30010 net.cpp:148] Top shape: 100 3 227 227 (15458700)
I0403 14:35:51.994125 30010 net.cpp:148] Top shape: 100 (100)
I0403 14:35:51.994141 30010 net.cpp:156] Memory required for data: 61835200
I0403 14:35:51.994170 30010 layer_factory.hpp:77] Creating layer label_data_1_split
I0403 14:35:51.994195 30010 net.cpp:91] Creating Layer label_data_1_split
I0403 14:35:51.994215 30010 net.cpp:425] label_data_1_split <- label
I0403 14:35:51.994249 30010 net.cpp:399] label_data_1_split -> label_data_1_split_0
I0403 14:35:51.994288 30010 net.cpp:399] label_data_1_split -> label_data_1_split_1
I0403 14:35:51.994310 30010 net.cpp:399] label_data_1_split -> label_data_1_split_2
I0403 14:35:51.994374 30010 net.cpp:141] Setting up label_data_1_split
I0403 14:35:51.994398 30010 net.cpp:148] Top shape: 100 (100)
I0403 14:35:51.994416 30010 net.cpp:148] Top shape: 100 (100)
I0403 14:35:51.994432 30010 net.cpp:148] Top shape: 100 (100)
I0403 14:35:51.994447 30010 net.cpp:156] Memory required for data: 61836400
I0403 14:35:51.994462 30010 layer_factory.hpp:77] Creating layer conv1
I0403 14:35:51.994498 30010 net.cpp:91] Creating Layer conv1
I0403 14:35:51.994516 30010 net.cpp:425] conv1 <- data
I0403 14:35:51.994535 30010 net.cpp:399] conv1 -> conv1
I0403 14:35:52.139091 30010 net.cpp:141] Setting up conv1
I0403 14:35:52.139163 30010 net.cpp:148] Top shape: 100 96 55 55 (29040000)
I0403 14:35:52.139180 30010 net.cpp:156] Memory required for data: 177996400
I0403 14:35:52.139212 30010 layer_factory.hpp:77] Creating layer relu1
I0403 14:35:52.139238 30010 net.cpp:91] Creating Layer relu1
I0403 14:35:52.139276 30010 net.cpp:425] relu1 <- conv1
I0403 14:35:52.139302 30010 net.cpp:386] relu1 -> conv1 (in-place)
I0403 14:35:52.139566 30010 net.cpp:141] Setting up relu1
I0403 14:35:52.139595 30010 net.cpp:148] Top shape: 100 96 55 55 (29040000)
I0403 14:35:52.139611 30010 net.cpp:156] Memory required for data: 294156400
I0403 14:35:52.139662 30010 layer_factory.hpp:77] Creating layer norm1
I0403 14:35:52.139693 30010 net.cpp:91] Creating Layer norm1
I0403 14:35:52.139713 30010 net.cpp:425] norm1 <- conv1
I0403 14:35:52.139731 30010 net.cpp:399] norm1 -> norm1
I0403 14:35:52.140055 30010 net.cpp:141] Setting up norm1
I0403 14:35:52.140084 30010 net.cpp:148] Top shape: 100 96 55 55 (29040000)
I0403 14:35:52.140100 30010 net.cpp:156] Memory required for data: 410316400
I0403 14:35:52.140116 30010 layer_factory.hpp:77] Creating layer pool1
I0403 14:35:52.140141 30010 net.cpp:91] Creating Layer pool1
I0403 14:35:52.140158 30010 net.cpp:425] pool1 <- norm1
I0403 14:35:52.140177 30010 net.cpp:399] pool1 -> pool1
I0403 14:35:52.140244 30010 net.cpp:141] Setting up pool1
I0403 14:35:52.140275 30010 net.cpp:148] Top shape: 100 96 27 27 (6998400)
I0403 14:35:52.140290 30010 net.cpp:156] Memory required for data: 438310000
I0403 14:35:52.140305 30010 layer_factory.hpp:77] Creating layer conv2
I0403 14:35:52.140331 30010 net.cpp:91] Creating Layer conv2
I0403 14:35:52.140347 30010 net.cpp:425] conv2 <- pool1
I0403 14:35:52.140364 30010 net.cpp:399] conv2 -> conv2
I0403 14:35:52.155633 30010 net.cpp:141] Setting up conv2
I0403 14:35:52.155681 30010 net.cpp:148] Top shape: 100 256 27 27 (18662400)
I0403 14:35:52.155699 30010 net.cpp:156] Memory required for data: 512959600
I0403 14:35:52.155725 30010 layer_factory.hpp:77] Creating layer relu2
I0403 14:35:52.155745 30010 net.cpp:91] Creating Layer relu2
I0403 14:35:52.155763 30010 net.cpp:425] relu2 <- conv2
I0403 14:35:52.155781 30010 net.cpp:386] relu2 -> conv2 (in-place)
I0403 14:35:52.156055 30010 net.cpp:141] Setting up relu2
I0403 14:35:52.156085 30010 net.cpp:148] Top shape: 100 256 27 27 (18662400)
I0403 14:35:52.156101 30010 net.cpp:156] Memory required for data: 587609200
I0403 14:35:52.156117 30010 layer_factory.hpp:77] Creating layer norm2
I0403 14:35:52.156141 30010 net.cpp:91] Creating Layer norm2
I0403 14:35:52.156159 30010 net.cpp:425] norm2 <- conv2
I0403 14:35:52.156178 30010 net.cpp:399] norm2 -> norm2
I0403 14:35:52.156389 30010 net.cpp:141] Setting up norm2
I0403 14:35:52.156416 30010 net.cpp:148] Top shape: 100 256 27 27 (18662400)
I0403 14:35:52.156432 30010 net.cpp:156] Memory required for data: 662258800
I0403 14:35:52.156448 30010 layer_factory.hpp:77] Creating layer pool2
I0403 14:35:52.156467 30010 net.cpp:91] Creating Layer pool2
I0403 14:35:52.156483 30010 net.cpp:425] pool2 <- norm2
I0403 14:35:52.156502 30010 net.cpp:399] pool2 -> pool2
I0403 14:35:52.156553 30010 net.cpp:141] Setting up pool2
I0403 14:35:52.156577 30010 net.cpp:148] Top shape: 100 256 13 13 (4326400)
I0403 14:35:52.156592 30010 net.cpp:156] Memory required for data: 679564400
I0403 14:35:52.156607 30010 layer_factory.hpp:77] Creating layer conv3
I0403 14:35:52.156630 30010 net.cpp:91] Creating Layer conv3
I0403 14:35:52.156647 30010 net.cpp:425] conv3 <- pool2
I0403 14:35:52.156666 30010 net.cpp:399] conv3 -> conv3
I0403 14:35:52.195303 30010 net.cpp:141] Setting up conv3
I0403 14:35:52.195358 30010 net.cpp:148] Top shape: 100 384 13 13 (6489600)
I0403 14:35:52.195374 30010 net.cpp:156] Memory required for data: 705522800
I0403 14:35:52.195399 30010 layer_factory.hpp:77] Creating layer relu3
I0403 14:35:52.195423 30010 net.cpp:91] Creating Layer relu3
I0403 14:35:52.195442 30010 net.cpp:425] relu3 <- conv3
I0403 14:35:52.195461 30010 net.cpp:386] relu3 -> conv3 (in-place)
I0403 14:35:52.195763 30010 net.cpp:141] Setting up relu3
I0403 14:35:52.195791 30010 net.cpp:148] Top shape: 100 384 13 13 (6489600)
I0403 14:35:52.195821 30010 net.cpp:156] Memory required for data: 731481200
I0403 14:35:52.195840 30010 layer_factory.hpp:77] Creating layer conv4
I0403 14:35:52.195868 30010 net.cpp:91] Creating Layer conv4
I0403 14:35:52.195886 30010 net.cpp:425] conv4 <- conv3
I0403 14:35:52.195905 30010 net.cpp:399] conv4 -> conv4
I0403 14:35:52.225994 30010 net.cpp:141] Setting up conv4
I0403 14:35:52.226042 30010 net.cpp:148] Top shape: 100 384 13 13 (6489600)
I0403 14:35:52.226089 30010 net.cpp:156] Memory required for data: 757439600
I0403 14:35:52.226111 30010 layer_factory.hpp:77] Creating layer relu4
I0403 14:35:52.226135 30010 net.cpp:91] Creating Layer relu4
I0403 14:35:52.226153 30010 net.cpp:425] relu4 <- conv4
I0403 14:35:52.226171 30010 net.cpp:386] relu4 -> conv4 (in-place)
I0403 14:35:52.226478 30010 net.cpp:141] Setting up relu4
I0403 14:35:52.226506 30010 net.cpp:148] Top shape: 100 384 13 13 (6489600)
I0403 14:35:52.226523 30010 net.cpp:156] Memory required for data: 783398000
I0403 14:35:52.226539 30010 layer_factory.hpp:77] Creating layer conv5
I0403 14:35:52.226572 30010 net.cpp:91] Creating Layer conv5
I0403 14:35:52.226591 30010 net.cpp:425] conv5 <- conv4
I0403 14:35:52.226614 30010 net.cpp:399] conv5 -> conv5
I0403 14:35:52.247588 30010 net.cpp:141] Setting up conv5
I0403 14:35:52.247642 30010 net.cpp:148] Top shape: 100 256 13 13 (4326400)
I0403 14:35:52.247659 30010 net.cpp:156] Memory required for data: 800703600
I0403 14:35:52.247689 30010 layer_factory.hpp:77] Creating layer relu5
I0403 14:35:52.247711 30010 net.cpp:91] Creating Layer relu5
I0403 14:35:52.247735 30010 net.cpp:425] relu5 <- conv5
I0403 14:35:52.247755 30010 net.cpp:386] relu5 -> conv5 (in-place)
I0403 14:35:52.248049 30010 net.cpp:141] Setting up relu5
I0403 14:35:52.248080 30010 net.cpp:148] Top shape: 100 256 13 13 (4326400)
I0403 14:35:52.248096 30010 net.cpp:156] Memory required for data: 818009200
I0403 14:35:52.248112 30010 layer_factory.hpp:77] Creating layer pool5
I0403 14:35:52.248134 30010 net.cpp:91] Creating Layer pool5
I0403 14:35:52.248152 30010 net.cpp:425] pool5 <- conv5
I0403 14:35:52.248172 30010 net.cpp:399] pool5 -> pool5
I0403 14:35:52.248235 30010 net.cpp:141] Setting up pool5
I0403 14:35:52.248265 30010 net.cpp:148] Top shape: 100 256 6 6 (921600)
I0403 14:35:52.248281 30010 net.cpp:156] Memory required for data: 821695600
I0403 14:35:52.248297 30010 layer_factory.hpp:77] Creating layer fc6
I0403 14:35:52.248327 30010 net.cpp:91] Creating Layer fc6
I0403 14:35:52.248345 30010 net.cpp:425] fc6 <- pool5
I0403 14:35:52.248368 30010 net.cpp:399] fc6 -> fc6
I0403 14:35:53.838311 30010 net.cpp:141] Setting up fc6
I0403 14:35:53.838356 30010 net.cpp:148] Top shape: 100 4096 (409600)
I0403 14:35:53.838372 30010 net.cpp:156] Memory required for data: 823334000
I0403 14:35:53.838393 30010 layer_factory.hpp:77] Creating layer relu6
I0403 14:35:53.838416 30010 net.cpp:91] Creating Layer relu6
I0403 14:35:53.838435 30010 net.cpp:425] relu6 <- fc6
I0403 14:35:53.838457 30010 net.cpp:386] relu6 -> fc6 (in-place)
I0403 14:35:53.838675 30010 net.cpp:141] Setting up relu6
I0403 14:35:53.838701 30010 net.cpp:148] Top shape: 100 4096 (409600)
I0403 14:35:53.838714 30010 net.cpp:156] Memory required for data: 824972400
I0403 14:35:53.838731 30010 layer_factory.hpp:77] Creating layer drop6
I0403 14:35:53.838752 30010 net.cpp:91] Creating Layer drop6
I0403 14:35:53.838767 30010 net.cpp:425] drop6 <- fc6
I0403 14:35:53.838784 30010 net.cpp:386] drop6 -> fc6 (in-place)
I0403 14:35:53.838837 30010 net.cpp:141] Setting up drop6
I0403 14:35:53.838862 30010 net.cpp:148] Top shape: 100 4096 (409600)
I0403 14:35:53.838876 30010 net.cpp:156] Memory required for data: 826610800
I0403 14:35:53.838891 30010 layer_factory.hpp:77] Creating layer fc7
I0403 14:35:53.838913 30010 net.cpp:91] Creating Layer fc7
I0403 14:35:53.838929 30010 net.cpp:425] fc7 <- fc6
I0403 14:35:53.838949 30010 net.cpp:399] fc7 -> fc7
I0403 14:35:54.521204 30010 net.cpp:141] Setting up fc7
I0403 14:35:54.521248 30010 net.cpp:148] Top shape: 100 4096 (409600)
I0403 14:35:54.521270 30010 net.cpp:156] Memory required for data: 828249200
I0403 14:35:54.521292 30010 layer_factory.hpp:77] Creating layer relu7
I0403 14:35:54.521317 30010 net.cpp:91] Creating Layer relu7
I0403 14:35:54.521334 30010 net.cpp:425] relu7 <- fc7
I0403 14:35:54.521353 30010 net.cpp:386] relu7 -> fc7 (in-place)
I0403 14:35:54.521752 30010 net.cpp:141] Setting up relu7
I0403 14:35:54.521778 30010 net.cpp:148] Top shape: 100 4096 (409600)
I0403 14:35:54.521826 30010 net.cpp:156] Memory required for data: 829887600
I0403 14:35:54.521842 30010 layer_factory.hpp:77] Creating layer drop7
I0403 14:35:54.521862 30010 net.cpp:91] Creating Layer drop7
I0403 14:35:54.521879 30010 net.cpp:425] drop7 <- fc7
I0403 14:35:54.521895 30010 net.cpp:386] drop7 -> fc7 (in-place)
I0403 14:35:54.521939 30010 net.cpp:141] Setting up drop7
I0403 14:35:54.521962 30010 net.cpp:148] Top shape: 100 4096 (409600)
I0403 14:35:54.521976 30010 net.cpp:156] Memory required for data: 831526000
I0403 14:35:54.521991 30010 layer_factory.hpp:77] Creating layer fc8_plantvillage
I0403 14:35:54.522009 30010 net.cpp:91] Creating Layer fc8_plantvillage
I0403 14:35:54.522024 30010 net.cpp:425] fc8_plantvillage <- fc7
I0403 14:35:54.522043 30010 net.cpp:399] fc8_plantvillage -> fc8_plantvillage
I0403 14:35:54.528745 30010 net.cpp:141] Setting up fc8_plantvillage
I0403 14:35:54.528777 30010 net.cpp:148] Top shape: 100 38 (3800)
I0403 14:35:54.528795 30010 net.cpp:156] Memory required for data: 831541200
I0403 14:35:54.528812 30010 layer_factory.hpp:77] Creating layer fc8_plantvillage_fc8_plantvillage_0_split
I0403 14:35:54.528831 30010 net.cpp:91] Creating Layer fc8_plantvillage_fc8_plantvillage_0_split
I0403 14:35:54.528846 30010 net.cpp:425] fc8_plantvillage_fc8_plantvillage_0_split <- fc8_plantvillage
I0403 14:35:54.528866 30010 net.cpp:399] fc8_plantvillage_fc8_plantvillage_0_split -> fc8_plantvillage_fc8_plantvillage_0_split_0
I0403 14:35:54.528885 30010 net.cpp:399] fc8_plantvillage_fc8_plantvillage_0_split -> fc8_plantvillage_fc8_plantvillage_0_split_1
I0403 14:35:54.528904 30010 net.cpp:399] fc8_plantvillage_fc8_plantvillage_0_split -> fc8_plantvillage_fc8_plantvillage_0_split_2
I0403 14:35:54.528985 30010 net.cpp:141] Setting up fc8_plantvillage_fc8_plantvillage_0_split
I0403 14:35:54.529008 30010 net.cpp:148] Top shape: 100 38 (3800)
I0403 14:35:54.529024 30010 net.cpp:148] Top shape: 100 38 (3800)
I0403 14:35:54.529041 30010 net.cpp:148] Top shape: 100 38 (3800)
I0403 14:35:54.529053 30010 net.cpp:156] Memory required for data: 831586800
I0403 14:35:54.529069 30010 layer_factory.hpp:77] Creating layer prob
I0403 14:35:54.529088 30010 net.cpp:91] Creating Layer prob
I0403 14:35:54.529104 30010 net.cpp:425] prob <- fc8_plantvillage_fc8_plantvillage_0_split_0
I0403 14:35:54.529122 30010 net.cpp:399] prob -> prob
I0403 14:35:54.529353 30010 net.cpp:141] Setting up prob
I0403 14:35:54.529381 30010 net.cpp:148] Top shape: 100 38 (3800)
I0403 14:35:54.529395 30010 net.cpp:156] Memory required for data: 831602000
I0403 14:35:54.529410 30010 layer_factory.hpp:77] Creating layer hdf5out
I0403 14:35:54.529433 30010 net.cpp:91] Creating Layer hdf5out
I0403 14:35:54.529451 30010 net.cpp:425] hdf5out <- prob
I0403 14:35:54.529469 30010 net.cpp:425] hdf5out <- label_data_1_split_0
I0403 14:35:54.533407 30010 net.cpp:141] Setting up hdf5out
…
