…
I0403 14:32:54.796123 29941 net.cpp:313] The NetState phase (1) differed from the phase (0) specified by a rule in layer data
I0403 14:32:54.796463 29941 net.cpp:49] Initializing net from parameters: 
state {
  phase: TEST
}
layer {
  name: "data"
  type: "Data"
  top: "data"
  top: "label"
  include {
    phase: TEST
  }
  transform_param {
    crop_size: 227
    mean_file: "/home/mohanty/data/final_dataset/lmdb/color-20-80/mean.binaryproto"
  }
  data_param {
    source: "/home/mohanty/data/final_dataset/lmdb/color-20-80/test_db"
    batch_size: 100
    backend: LMDB
  }
}
layer {
  name: "conv1"
  type: "Convolution"
  bottom: "data"
  top: "conv1"
  param {
    lr_mult: 1
    decay_mult: 1
  }
  param {
    lr_mult: 2
    decay_mult: 0
  }
  convolution_param {
    num_output: 96
    kernel_size: 11
    stride: 4
    weight_filler {
      type: "gaussian"
      std: 0.01
    }
    bias_filler {
      type: "constant"
      value: 0
    }
  }
}
layer {
  name: "relu1"
  type: "ReLU"
  bottom: "conv1"
  top: "conv1"
}
layer {
  name: "norm1"
  type: "LRN"
  bottom: "conv1"
  top: "norm1"
  lrn_param {
    local_size: 5
    alpha: 0.0001
    beta: 0.75
  }
}
layer {
  name: "pool1"
  type: "Pooling"
  bottom: "norm1"
  top: "pool1"
  pooling_param {
    pool: MAX
    kernel_size: 3
    stride: 2
  }
}
layer {
  name: "conv2"
  type: "Convolution"
  bottom: "pool1"
  top: "conv2"
  param {
    lr_mult: 1
    decay_mult: 1
  }
  param {
    lr_mult: 2
    decay_mult: 0
  }
  convolution_param {
    num_output: 256
    pad: 2
    kernel_size: 5
    group: 2
    weight_filler {
      type: "gaussian"
      std: 0.01
    }
    bias_filler {
      type: "constant"
      value: 0.1
    }
  }
}
layer {
  name: "relu2"
  type: "ReLU"
  bottom: "conv2"
  top: "conv2"
}
layer {
  name: "norm2"
  type: "LRN"
  bottom: "conv2"
  top: "norm2"
  lrn_param {
    local_size: 5
    alpha: 0.0001
    beta: 0.75
  }
}
layer {
  name: "pool2"
  type: "Pooling"
  bottom: "norm2"
  top: "pool2"
  pooling_param {
    pool: MAX
    kernel_size: 3
    stride: 2
  }
}
layer {
  name: "conv3"
  type: "Convolution"
  bottom: "pool2"
  top: "conv3"
  param {
    lr_mult: 1
    decay_mult: 1
  }
  param {
    lr_mult: 2
    decay_mult: 0
  }
  convolution_param {
    num_output: 384
    pad: 1
    kernel_size: 3
    weight_filler {
      type: "gaussian"
      std: 0.01
    }
    bias_filler {
      type: "constant"
      value: 0
    }
  }
}
layer {
  name: "relu3"
  type: "ReLU"
  bottom: "conv3"
  top: "conv3"
}
layer {
  name: "conv4"
  type: "Convolution"
  bottom: "conv3"
  top: "conv4"
  param {
    lr_mult: 1
    decay_mult: 1
  }
  param {
    lr_mult: 2
    decay_mult: 0
  }
  convolution_param {
    num_output: 384
    pad: 1
    kernel_size: 3
    group: 2
    weight_filler {
      type: "gaussian"
      std: 0.01
    }
    bias_filler {
      type: "constant"
      value: 0.1
    }
  }
}
layer {
  name: "relu4"
  type: "ReLU"
  bottom: "conv4"
  top: "conv4"
}
layer {
  name: "conv5"
  type: "Convolution"
  bottom: "conv4"
  top: "conv5"
  param {
    lr_mult: 1
    decay_mult: 1
  }
  param {
    lr_mult: 2
    decay_mult: 0
  }
  convolution_param {
    num_output: 256
    pad: 1
    kernel_size: 3
    group: 2
    weight_filler {
      type: "gaussian"
      std: 0.01
    }
    bias_filler {
      type: "constant"
      value: 0.1
    }
  }
}
layer {
  name: "relu5"
  type: "ReLU"
  bottom: "conv5"
  top: "conv5"
}
layer {
  name: "pool5"
  type: "Pooling"
  bottom: "conv5"
  top: "pool5"
  pooling_param {
    pool: MAX
    kernel_size: 3
    stride: 2
  }
}
layer {
  name: "fc6"
  type: "InnerProduct"
  bottom: "pool5"
  top: "fc6"
  param {
    lr_mult: 1
    decay_mult: 1
  }
  param {
    lr_mult: 2
    decay_mult: 0
  }
  inner_product_param {
    num_output: 4096
    weight_filler {
      type: "gaussian"
      std: 0.005
    }
    bias_filler {
      type: "constant"
      value: 0.1
    }
  }
}
layer {
  name: "relu6"
  type: "ReLU"
  bottom: "fc6"
  top: "fc6"
}
layer {
  name: "drop6"
  type: "Dropout"
  bottom: "fc6"
  top: "fc6"
  dropout_param {
    dropout_ratio: 0.5
  }
}
layer {
  name: "fc7"
  type: "InnerProduct"
  bottom: "fc6"
  top: "fc7"
  param {
    lr_mult: 1
    decay_mult: 1
  }
  param {
    lr_mult: 2
    decay_mult: 0
  }
  inner_product_param {
    num_output: 4096
    weight_filler {
      type: "gaussian"
      std: 0.005
    }
    bias_filler {
      type: "constant"
      value: 0.1
    }
  }
}
layer {
  name: "relu7"
  type: "ReLU"
  bottom: "fc7"
  top: "fc7"
}
layer {
  name: "drop7"
  type: "Dropout"
  bottom: "fc7"
  top: "fc7"
  dropout_param {
    dropout_ratio: 0.5
  }
}
layer {
  name: "fc8_plantvillage"
  type: "InnerProduct"
  bottom: "fc7"
  top: "fc8_plantvillage"
  param {
    lr_mult: 1
    decay_mult: 1
  }
  param {
    lr_mult: 2
    decay_mult: 0
  }
  inner_product_param {
    num_output: 38
    weight_filler {
      type: "gaussian"
      std: 0.01
    }
    bias_filler {
      type: "constant"
      value: 0
    }
  }
}
layer {
  name: "prob"
  type: "Softmax"
  bottom: "fc8_plantvillage"
  top: "prob"
  include {
    phase: TEST
  }
}
layer {
  name: "hdf5out"
  type: "HDF5Output"
  bottom: "prob"
  bottom: "label"
  include {
    phase: TEST
  }
  hdf5_output_param {
    file_name: "hdf5_dumps/iter_2160.h5"
  }
}
layer {
  name: "loss"
  type: "SoftmaxWithLoss"
  bottom: "fc8_plantvillage"
  bottom: "label"
  top: "loss"
}
layer {
  name: "accuracy"
  type: "Accuracy"
  bottom: "fc8_plantvillage"
  bottom: "label"
  top: "accuracy"
  include {
    phase: TEST
  }
}
I0403 14:32:54.797045 29941 layer_factory.hpp:77] Creating layer data
I0403 14:32:54.797708 29941 net.cpp:91] Creating Layer data
I0403 14:32:54.797744 29941 net.cpp:399] data -> data
I0403 14:32:54.797796 29941 net.cpp:399] data -> label
I0403 14:32:54.797834 29941 data_transformer.cpp:25] Loading mean file from: /home/mohanty/data/final_dataset/lmdb/color-20-80/mean.binaryproto
I0403 14:32:54.800396 29943 db_lmdb.cpp:38] Opened lmdb /home/mohanty/data/final_dataset/lmdb/color-20-80/test_db
I0403 14:32:54.812628 29941 data_layer.cpp:41] output data size: 100,3,227,227
I0403 14:32:54.945668 29941 net.cpp:141] Setting up data
I0403 14:32:54.945731 29941 net.cpp:148] Top shape: 100 3 227 227 (15458700)
I0403 14:32:54.945755 29941 net.cpp:148] Top shape: 100 (100)
I0403 14:32:54.945771 29941 net.cpp:156] Memory required for data: 61835200
I0403 14:32:54.945802 29941 layer_factory.hpp:77] Creating layer label_data_1_split
I0403 14:32:54.945827 29941 net.cpp:91] Creating Layer label_data_1_split
I0403 14:32:54.945847 29941 net.cpp:425] label_data_1_split <- label
I0403 14:32:54.945878 29941 net.cpp:399] label_data_1_split -> label_data_1_split_0
I0403 14:32:54.945907 29941 net.cpp:399] label_data_1_split -> label_data_1_split_1
I0403 14:32:54.945929 29941 net.cpp:399] label_data_1_split -> label_data_1_split_2
I0403 14:32:54.945991 29941 net.cpp:141] Setting up label_data_1_split
I0403 14:32:54.946015 29941 net.cpp:148] Top shape: 100 (100)
I0403 14:32:54.946033 29941 net.cpp:148] Top shape: 100 (100)
I0403 14:32:54.946050 29941 net.cpp:148] Top shape: 100 (100)
I0403 14:32:54.946065 29941 net.cpp:156] Memory required for data: 61836400
I0403 14:32:54.946080 29941 layer_factory.hpp:77] Creating layer conv1
I0403 14:32:54.946113 29941 net.cpp:91] Creating Layer conv1
I0403 14:32:54.946132 29941 net.cpp:425] conv1 <- data
I0403 14:32:54.946152 29941 net.cpp:399] conv1 -> conv1
I0403 14:32:55.090210 29941 net.cpp:141] Setting up conv1
I0403 14:32:55.090292 29941 net.cpp:148] Top shape: 100 96 55 55 (29040000)
I0403 14:32:55.090311 29941 net.cpp:156] Memory required for data: 177996400
I0403 14:32:55.090342 29941 layer_factory.hpp:77] Creating layer relu1
I0403 14:32:55.090373 29941 net.cpp:91] Creating Layer relu1
I0403 14:32:55.090394 29941 net.cpp:425] relu1 <- conv1
I0403 14:32:55.090414 29941 net.cpp:386] relu1 -> conv1 (in-place)
I0403 14:32:55.090698 29941 net.cpp:141] Setting up relu1
I0403 14:32:55.090725 29941 net.cpp:148] Top shape: 100 96 55 55 (29040000)
I0403 14:32:55.090741 29941 net.cpp:156] Memory required for data: 294156400
I0403 14:32:55.090787 29941 layer_factory.hpp:77] Creating layer norm1
I0403 14:32:55.090818 29941 net.cpp:91] Creating Layer norm1
I0403 14:32:55.090837 29941 net.cpp:425] norm1 <- conv1
I0403 14:32:55.090857 29941 net.cpp:399] norm1 -> norm1
I0403 14:32:55.091179 29941 net.cpp:141] Setting up norm1
I0403 14:32:55.091207 29941 net.cpp:148] Top shape: 100 96 55 55 (29040000)
I0403 14:32:55.091223 29941 net.cpp:156] Memory required for data: 410316400
I0403 14:32:55.091238 29941 layer_factory.hpp:77] Creating layer pool1
I0403 14:32:55.091266 29941 net.cpp:91] Creating Layer pool1
I0403 14:32:55.091285 29941 net.cpp:425] pool1 <- norm1
I0403 14:32:55.091306 29941 net.cpp:399] pool1 -> pool1
I0403 14:32:55.091375 29941 net.cpp:141] Setting up pool1
I0403 14:32:55.091403 29941 net.cpp:148] Top shape: 100 96 27 27 (6998400)
I0403 14:32:55.091418 29941 net.cpp:156] Memory required for data: 438310000
I0403 14:32:55.091434 29941 layer_factory.hpp:77] Creating layer conv2
I0403 14:32:55.091460 29941 net.cpp:91] Creating Layer conv2
I0403 14:32:55.091477 29941 net.cpp:425] conv2 <- pool1
I0403 14:32:55.091496 29941 net.cpp:399] conv2 -> conv2
I0403 14:32:55.106016 29941 net.cpp:141] Setting up conv2
I0403 14:32:55.106050 29941 net.cpp:148] Top shape: 100 256 27 27 (18662400)
I0403 14:32:55.106066 29941 net.cpp:156] Memory required for data: 512959600
I0403 14:32:55.106088 29941 layer_factory.hpp:77] Creating layer relu2
I0403 14:32:55.106108 29941 net.cpp:91] Creating Layer relu2
I0403 14:32:55.106124 29941 net.cpp:425] relu2 <- conv2
I0403 14:32:55.106144 29941 net.cpp:386] relu2 -> conv2 (in-place)
I0403 14:32:55.106425 29941 net.cpp:141] Setting up relu2
I0403 14:32:55.106451 29941 net.cpp:148] Top shape: 100 256 27 27 (18662400)
I0403 14:32:55.106467 29941 net.cpp:156] Memory required for data: 587609200
I0403 14:32:55.106482 29941 layer_factory.hpp:77] Creating layer norm2
I0403 14:32:55.106504 29941 net.cpp:91] Creating Layer norm2
I0403 14:32:55.106521 29941 net.cpp:425] norm2 <- conv2
I0403 14:32:55.106539 29941 net.cpp:399] norm2 -> norm2
I0403 14:32:55.106739 29941 net.cpp:141] Setting up norm2
I0403 14:32:55.106765 29941 net.cpp:148] Top shape: 100 256 27 27 (18662400)
I0403 14:32:55.106780 29941 net.cpp:156] Memory required for data: 662258800
I0403 14:32:55.106794 29941 layer_factory.hpp:77] Creating layer pool2
I0403 14:32:55.106812 29941 net.cpp:91] Creating Layer pool2
I0403 14:32:55.106828 29941 net.cpp:425] pool2 <- norm2
I0403 14:32:55.106848 29941 net.cpp:399] pool2 -> pool2
I0403 14:32:55.106899 29941 net.cpp:141] Setting up pool2
I0403 14:32:55.106922 29941 net.cpp:148] Top shape: 100 256 13 13 (4326400)
I0403 14:32:55.106938 29941 net.cpp:156] Memory required for data: 679564400
I0403 14:32:55.106953 29941 layer_factory.hpp:77] Creating layer conv3
I0403 14:32:55.106978 29941 net.cpp:91] Creating Layer conv3
I0403 14:32:55.106997 29941 net.cpp:425] conv3 <- pool2
I0403 14:32:55.107017 29941 net.cpp:399] conv3 -> conv3
I0403 14:32:55.145431 29941 net.cpp:141] Setting up conv3
I0403 14:32:55.145499 29941 net.cpp:148] Top shape: 100 384 13 13 (6489600)
I0403 14:32:55.145519 29941 net.cpp:156] Memory required for data: 705522800
I0403 14:32:55.145545 29941 layer_factory.hpp:77] Creating layer relu3
I0403 14:32:55.145570 29941 net.cpp:91] Creating Layer relu3
I0403 14:32:55.145588 29941 net.cpp:425] relu3 <- conv3
I0403 14:32:55.145611 29941 net.cpp:386] relu3 -> conv3 (in-place)
I0403 14:32:55.145892 29941 net.cpp:141] Setting up relu3
I0403 14:32:55.145920 29941 net.cpp:148] Top shape: 100 384 13 13 (6489600)
I0403 14:32:55.145936 29941 net.cpp:156] Memory required for data: 731481200
I0403 14:32:55.145952 29941 layer_factory.hpp:77] Creating layer conv4
I0403 14:32:55.145979 29941 net.cpp:91] Creating Layer conv4
I0403 14:32:55.145998 29941 net.cpp:425] conv4 <- conv3
I0403 14:32:55.146019 29941 net.cpp:399] conv4 -> conv4
I0403 14:32:55.175338 29941 net.cpp:141] Setting up conv4
I0403 14:32:55.175400 29941 net.cpp:148] Top shape: 100 384 13 13 (6489600)
I0403 14:32:55.175449 29941 net.cpp:156] Memory required for data: 757439600
I0403 14:32:55.175472 29941 layer_factory.hpp:77] Creating layer relu4
I0403 14:32:55.175492 29941 net.cpp:91] Creating Layer relu4
I0403 14:32:55.175508 29941 net.cpp:425] relu4 <- conv4
I0403 14:32:55.175539 29941 net.cpp:386] relu4 -> conv4 (in-place)
I0403 14:32:55.175829 29941 net.cpp:141] Setting up relu4
I0403 14:32:55.175858 29941 net.cpp:148] Top shape: 100 384 13 13 (6489600)
I0403 14:32:55.175875 29941 net.cpp:156] Memory required for data: 783398000
I0403 14:32:55.175891 29941 layer_factory.hpp:77] Creating layer conv5
I0403 14:32:55.175915 29941 net.cpp:91] Creating Layer conv5
I0403 14:32:55.175933 29941 net.cpp:425] conv5 <- conv4
I0403 14:32:55.175952 29941 net.cpp:399] conv5 -> conv5
I0403 14:32:55.195755 29941 net.cpp:141] Setting up conv5
I0403 14:32:55.195790 29941 net.cpp:148] Top shape: 100 256 13 13 (4326400)
I0403 14:32:55.195807 29941 net.cpp:156] Memory required for data: 800703600
I0403 14:32:55.195830 29941 layer_factory.hpp:77] Creating layer relu5
I0403 14:32:55.195852 29941 net.cpp:91] Creating Layer relu5
I0403 14:32:55.195868 29941 net.cpp:425] relu5 <- conv5
I0403 14:32:55.195888 29941 net.cpp:386] relu5 -> conv5 (in-place)
I0403 14:32:55.196161 29941 net.cpp:141] Setting up relu5
I0403 14:32:55.196188 29941 net.cpp:148] Top shape: 100 256 13 13 (4326400)
I0403 14:32:55.196203 29941 net.cpp:156] Memory required for data: 818009200
I0403 14:32:55.196219 29941 layer_factory.hpp:77] Creating layer pool5
I0403 14:32:55.196245 29941 net.cpp:91] Creating Layer pool5
I0403 14:32:55.196267 29941 net.cpp:425] pool5 <- conv5
I0403 14:32:55.196286 29941 net.cpp:399] pool5 -> pool5
I0403 14:32:55.196347 29941 net.cpp:141] Setting up pool5
I0403 14:32:55.196370 29941 net.cpp:148] Top shape: 100 256 6 6 (921600)
I0403 14:32:55.196387 29941 net.cpp:156] Memory required for data: 821695600
I0403 14:32:55.196401 29941 layer_factory.hpp:77] Creating layer fc6
I0403 14:32:55.196429 29941 net.cpp:91] Creating Layer fc6
I0403 14:32:55.196445 29941 net.cpp:425] fc6 <- pool5
I0403 14:32:55.196466 29941 net.cpp:399] fc6 -> fc6
I0403 14:32:56.789476 29941 net.cpp:141] Setting up fc6
I0403 14:32:56.789553 29941 net.cpp:148] Top shape: 100 4096 (409600)
I0403 14:32:56.789571 29941 net.cpp:156] Memory required for data: 823334000
I0403 14:32:56.789592 29941 layer_factory.hpp:77] Creating layer relu6
I0403 14:32:56.789619 29941 net.cpp:91] Creating Layer relu6
I0403 14:32:56.789638 29941 net.cpp:425] relu6 <- fc6
I0403 14:32:56.789669 29941 net.cpp:386] relu6 -> fc6 (in-place)
I0403 14:32:56.789887 29941 net.cpp:141] Setting up relu6
I0403 14:32:56.789912 29941 net.cpp:148] Top shape: 100 4096 (409600)
I0403 14:32:56.789928 29941 net.cpp:156] Memory required for data: 824972400
I0403 14:32:56.789944 29941 layer_factory.hpp:77] Creating layer drop6
I0403 14:32:56.789963 29941 net.cpp:91] Creating Layer drop6
I0403 14:32:56.789979 29941 net.cpp:425] drop6 <- fc6
I0403 14:32:56.789999 29941 net.cpp:386] drop6 -> fc6 (in-place)
I0403 14:32:56.790050 29941 net.cpp:141] Setting up drop6
I0403 14:32:56.790076 29941 net.cpp:148] Top shape: 100 4096 (409600)
I0403 14:32:56.790093 29941 net.cpp:156] Memory required for data: 826610800
I0403 14:32:56.790109 29941 layer_factory.hpp:77] Creating layer fc7
I0403 14:32:56.790129 29941 net.cpp:91] Creating Layer fc7
I0403 14:32:56.790145 29941 net.cpp:425] fc7 <- fc6
I0403 14:32:56.790165 29941 net.cpp:399] fc7 -> fc7
I0403 14:32:59.238679 29941 net.cpp:141] Setting up fc7
I0403 14:32:59.238730 29941 net.cpp:148] Top shape: 100 4096 (409600)
I0403 14:32:59.238749 29941 net.cpp:156] Memory required for data: 828249200
I0403 14:32:59.238772 29941 layer_factory.hpp:77] Creating layer relu7
I0403 14:32:59.238797 29941 net.cpp:91] Creating Layer relu7
I0403 14:32:59.238819 29941 net.cpp:425] relu7 <- fc7
I0403 14:32:59.238843 29941 net.cpp:386] relu7 -> fc7 (in-place)
I0403 14:32:59.239262 29941 net.cpp:141] Setting up relu7
I0403 14:32:59.239291 29941 net.cpp:148] Top shape: 100 4096 (409600)
I0403 14:32:59.239342 29941 net.cpp:156] Memory required for data: 829887600
I0403 14:32:59.239361 29941 layer_factory.hpp:77] Creating layer drop7
I0403 14:32:59.239382 29941 net.cpp:91] Creating Layer drop7
I0403 14:32:59.239398 29941 net.cpp:425] drop7 <- fc7
I0403 14:32:59.239420 29941 net.cpp:386] drop7 -> fc7 (in-place)
I0403 14:32:59.239467 29941 net.cpp:141] Setting up drop7
I0403 14:32:59.239491 29941 net.cpp:148] Top shape: 100 4096 (409600)
I0403 14:32:59.239507 29941 net.cpp:156] Memory required for data: 831526000
I0403 14:32:59.239522 29941 layer_factory.hpp:77] Creating layer fc8_plantvillage
I0403 14:32:59.239547 29941 net.cpp:91] Creating Layer fc8_plantvillage
I0403 14:32:59.239565 29941 net.cpp:425] fc8_plantvillage <- fc7
I0403 14:32:59.239588 29941 net.cpp:399] fc8_plantvillage -> fc8_plantvillage
I0403 14:32:59.246747 29941 net.cpp:141] Setting up fc8_plantvillage
I0403 14:32:59.246779 29941 net.cpp:148] Top shape: 100 38 (3800)
I0403 14:32:59.246796 29941 net.cpp:156] Memory required for data: 831541200
I0403 14:32:59.246815 29941 layer_factory.hpp:77] Creating layer fc8_plantvillage_fc8_plantvillage_0_split
I0403 14:32:59.246836 29941 net.cpp:91] Creating Layer fc8_plantvillage_fc8_plantvillage_0_split
I0403 14:32:59.246853 29941 net.cpp:425] fc8_plantvillage_fc8_plantvillage_0_split <- fc8_plantvillage
I0403 14:32:59.246875 29941 net.cpp:399] fc8_plantvillage_fc8_plantvillage_0_split -> fc8_plantvillage_fc8_plantvillage_0_split_0
I0403 14:32:59.246897 29941 net.cpp:399] fc8_plantvillage_fc8_plantvillage_0_split -> fc8_plantvillage_fc8_plantvillage_0_split_1
I0403 14:32:59.246918 29941 net.cpp:399] fc8_plantvillage_fc8_plantvillage_0_split -> fc8_plantvillage_fc8_plantvillage_0_split_2
I0403 14:32:59.247002 29941 net.cpp:141] Setting up fc8_plantvillage_fc8_plantvillage_0_split
I0403 14:32:59.247028 29941 net.cpp:148] Top shape: 100 38 (3800)
I0403 14:32:59.247046 29941 net.cpp:148] Top shape: 100 38 (3800)
I0403 14:32:59.247062 29941 net.cpp:148] Top shape: 100 38 (3800)
I0403 14:32:59.247077 29941 net.cpp:156] Memory required for data: 831586800
I0403 14:32:59.247092 29941 layer_factory.hpp:77] Creating layer prob
I0403 14:32:59.247113 29941 net.cpp:91] Creating Layer prob
I0403 14:32:59.247130 29941 net.cpp:425] prob <- fc8_plantvillage_fc8_plantvillage_0_split_0
I0403 14:32:59.247153 29941 net.cpp:399] prob -> prob
I0403 14:32:59.247400 29941 net.cpp:141] Setting up prob
I0403 14:32:59.247431 29941 net.cpp:148] Top shape: 100 38 (3800)
I0403 14:32:59.247448 29941 net.cpp:156] Memory required for data: 831602000
I0403 14:32:59.247464 29941 layer_factory.hpp:77] Creating layer hdf5out
I0403 14:32:59.247485 29941 net.cpp:91] Creating Layer hdf5out
I0403 14:32:59.247504 29941 net.cpp:425] hdf5out <- prob
I0403 14:32:59.247524 29941 net.cpp:425] hdf5out <- label_data_1_split_0
I0403 14:32:59.265251 29941 net.cpp:141] Setting up hdf5out
…
