…
I0403 14:34:24.124919 29979 net.cpp:313] The NetState phase (1) differed from the phase (0) specified by a rule in layer data
I0403 14:34:24.125205 29979 net.cpp:49] Initializing net from parameters: 
state {
  phase: TEST
}
layer {
  name: "data"
  type: "Data"
  top: "data"
  top: "label"
  include {
    phase: TEST
  }
  transform_param {
    crop_size: 227
    mean_file: "/home/mohanty/data/final_dataset/lmdb/color-20-80/mean.binaryproto"
  }
  data_param {
    source: "/home/mohanty/data/final_dataset/lmdb/color-20-80/test_db"
    batch_size: 100
    backend: LMDB
  }
}
layer {
  name: "conv1"
  type: "Convolution"
  bottom: "data"
  top: "conv1"
  param {
    lr_mult: 1
    decay_mult: 1
  }
  param {
    lr_mult: 2
    decay_mult: 0
  }
  convolution_param {
    num_output: 96
    kernel_size: 11
    stride: 4
    weight_filler {
      type: "gaussian"
      std: 0.01
    }
    bias_filler {
      type: "constant"
      value: 0
    }
  }
}
layer {
  name: "relu1"
  type: "ReLU"
  bottom: "conv1"
  top: "conv1"
}
layer {
  name: "norm1"
  type: "LRN"
  bottom: "conv1"
  top: "norm1"
  lrn_param {
    local_size: 5
    alpha: 0.0001
    beta: 0.75
  }
}
layer {
  name: "pool1"
  type: "Pooling"
  bottom: "norm1"
  top: "pool1"
  pooling_param {
    pool: MAX
    kernel_size: 3
    stride: 2
  }
}
layer {
  name: "conv2"
  type: "Convolution"
  bottom: "pool1"
  top: "conv2"
  param {
    lr_mult: 1
    decay_mult: 1
  }
  param {
    lr_mult: 2
    decay_mult: 0
  }
  convolution_param {
    num_output: 256
    pad: 2
    kernel_size: 5
    group: 2
    weight_filler {
      type: "gaussian"
      std: 0.01
    }
    bias_filler {
      type: "constant"
      value: 0.1
    }
  }
}
layer {
  name: "relu2"
  type: "ReLU"
  bottom: "conv2"
  top: "conv2"
}
layer {
  name: "norm2"
  type: "LRN"
  bottom: "conv2"
  top: "norm2"
  lrn_param {
    local_size: 5
    alpha: 0.0001
    beta: 0.75
  }
}
layer {
  name: "pool2"
  type: "Pooling"
  bottom: "norm2"
  top: "pool2"
  pooling_param {
    pool: MAX
    kernel_size: 3
    stride: 2
  }
}
layer {
  name: "conv3"
  type: "Convolution"
  bottom: "pool2"
  top: "conv3"
  param {
    lr_mult: 1
    decay_mult: 1
  }
  param {
    lr_mult: 2
    decay_mult: 0
  }
  convolution_param {
    num_output: 384
    pad: 1
    kernel_size: 3
    weight_filler {
      type: "gaussian"
      std: 0.01
    }
    bias_filler {
      type: "constant"
      value: 0
    }
  }
}
layer {
  name: "relu3"
  type: "ReLU"
  bottom: "conv3"
  top: "conv3"
}
layer {
  name: "conv4"
  type: "Convolution"
  bottom: "conv3"
  top: "conv4"
  param {
    lr_mult: 1
    decay_mult: 1
  }
  param {
    lr_mult: 2
    decay_mult: 0
  }
  convolution_param {
    num_output: 384
    pad: 1
    kernel_size: 3
    group: 2
    weight_filler {
      type: "gaussian"
      std: 0.01
    }
    bias_filler {
      type: "constant"
      value: 0.1
    }
  }
}
layer {
  name: "relu4"
  type: "ReLU"
  bottom: "conv4"
  top: "conv4"
}
layer {
  name: "conv5"
  type: "Convolution"
  bottom: "conv4"
  top: "conv5"
  param {
    lr_mult: 1
    decay_mult: 1
  }
  param {
    lr_mult: 2
    decay_mult: 0
  }
  convolution_param {
    num_output: 256
    pad: 1
    kernel_size: 3
    group: 2
    weight_filler {
      type: "gaussian"
      std: 0.01
    }
    bias_filler {
      type: "constant"
      value: 0.1
    }
  }
}
layer {
  name: "relu5"
  type: "ReLU"
  bottom: "conv5"
  top: "conv5"
}
layer {
  name: "pool5"
  type: "Pooling"
  bottom: "conv5"
  top: "pool5"
  pooling_param {
    pool: MAX
    kernel_size: 3
    stride: 2
  }
}
layer {
  name: "fc6"
  type: "InnerProduct"
  bottom: "pool5"
  top: "fc6"
  param {
    lr_mult: 1
    decay_mult: 1
  }
  param {
    lr_mult: 2
    decay_mult: 0
  }
  inner_product_param {
    num_output: 4096
    weight_filler {
      type: "gaussian"
      std: 0.005
    }
    bias_filler {
      type: "constant"
      value: 0.1
    }
  }
}
layer {
  name: "relu6"
  type: "ReLU"
  bottom: "fc6"
  top: "fc6"
}
layer {
  name: "drop6"
  type: "Dropout"
  bottom: "fc6"
  top: "fc6"
  dropout_param {
    dropout_ratio: 0.5
  }
}
layer {
  name: "fc7"
  type: "InnerProduct"
  bottom: "fc6"
  top: "fc7"
  param {
    lr_mult: 1
    decay_mult: 1
  }
  param {
    lr_mult: 2
    decay_mult: 0
  }
  inner_product_param {
    num_output: 4096
    weight_filler {
      type: "gaussian"
      std: 0.005
    }
    bias_filler {
      type: "constant"
      value: 0.1
    }
  }
}
layer {
  name: "relu7"
  type: "ReLU"
  bottom: "fc7"
  top: "fc7"
}
layer {
  name: "drop7"
  type: "Dropout"
  bottom: "fc7"
  top: "fc7"
  dropout_param {
    dropout_ratio: 0.5
  }
}
layer {
  name: "fc8_plantvillage"
  type: "InnerProduct"
  bottom: "fc7"
  top: "fc8_plantvillage"
  param {
    lr_mult: 1
    decay_mult: 1
  }
  param {
    lr_mult: 2
    decay_mult: 0
  }
  inner_product_param {
    num_output: 38
    weight_filler {
      type: "gaussian"
      std: 0.01
    }
    bias_filler {
      type: "constant"
      value: 0
    }
  }
}
layer {
  name: "prob"
  type: "Softmax"
  bottom: "fc8_plantvillage"
  top: "prob"
  include {
    phase: TEST
  }
}
layer {
  name: "hdf5out"
  type: "HDF5Output"
  bottom: "prob"
  bottom: "label"
  include {
    phase: TEST
  }
  hdf5_output_param {
    file_name: "hdf5_dumps/iter_2268.h5"
  }
}
layer {
  name: "loss"
  type: "SoftmaxWithLoss"
  bottom: "fc8_plantvillage"
  bottom: "label"
  top: "loss"
}
layer {
  name: "accuracy"
  type: "Accuracy"
  bottom: "fc8_plantvillage"
  bottom: "label"
  top: "accuracy"
  include {
    phase: TEST
  }
}
I0403 14:34:24.125845 29979 layer_factory.hpp:77] Creating layer data
I0403 14:34:24.126507 29979 net.cpp:91] Creating Layer data
I0403 14:34:24.126549 29979 net.cpp:399] data -> data
I0403 14:34:24.126601 29979 net.cpp:399] data -> label
I0403 14:34:24.126651 29979 data_transformer.cpp:25] Loading mean file from: /home/mohanty/data/final_dataset/lmdb/color-20-80/mean.binaryproto
I0403 14:34:24.129218 29981 db_lmdb.cpp:38] Opened lmdb /home/mohanty/data/final_dataset/lmdb/color-20-80/test_db
I0403 14:34:24.141585 29979 data_layer.cpp:41] output data size: 100,3,227,227
I0403 14:34:24.275223 29979 net.cpp:141] Setting up data
I0403 14:34:24.275320 29979 net.cpp:148] Top shape: 100 3 227 227 (15458700)
I0403 14:34:24.275354 29979 net.cpp:148] Top shape: 100 (100)
I0403 14:34:24.275382 29979 net.cpp:156] Memory required for data: 61835200
I0403 14:34:24.275410 29979 layer_factory.hpp:77] Creating layer label_data_1_split
I0403 14:34:24.275439 29979 net.cpp:91] Creating Layer label_data_1_split
I0403 14:34:24.275457 29979 net.cpp:425] label_data_1_split <- label
I0403 14:34:24.275490 29979 net.cpp:399] label_data_1_split -> label_data_1_split_0
I0403 14:34:24.275521 29979 net.cpp:399] label_data_1_split -> label_data_1_split_1
I0403 14:34:24.275558 29979 net.cpp:399] label_data_1_split -> label_data_1_split_2
I0403 14:34:24.275624 29979 net.cpp:141] Setting up label_data_1_split
I0403 14:34:24.275660 29979 net.cpp:148] Top shape: 100 (100)
I0403 14:34:24.275677 29979 net.cpp:148] Top shape: 100 (100)
I0403 14:34:24.275696 29979 net.cpp:148] Top shape: 100 (100)
I0403 14:34:24.275710 29979 net.cpp:156] Memory required for data: 61836400
I0403 14:34:24.275727 29979 layer_factory.hpp:77] Creating layer conv1
I0403 14:34:24.275759 29979 net.cpp:91] Creating Layer conv1
I0403 14:34:24.275780 29979 net.cpp:425] conv1 <- data
I0403 14:34:24.275799 29979 net.cpp:399] conv1 -> conv1
I0403 14:34:24.422267 29979 net.cpp:141] Setting up conv1
I0403 14:34:24.422349 29979 net.cpp:148] Top shape: 100 96 55 55 (29040000)
I0403 14:34:24.422368 29979 net.cpp:156] Memory required for data: 177996400
I0403 14:34:24.422400 29979 layer_factory.hpp:77] Creating layer relu1
I0403 14:34:24.422430 29979 net.cpp:91] Creating Layer relu1
I0403 14:34:24.422449 29979 net.cpp:425] relu1 <- conv1
I0403 14:34:24.422469 29979 net.cpp:386] relu1 -> conv1 (in-place)
I0403 14:34:24.422725 29979 net.cpp:141] Setting up relu1
I0403 14:34:24.422754 29979 net.cpp:148] Top shape: 100 96 55 55 (29040000)
I0403 14:34:24.422770 29979 net.cpp:156] Memory required for data: 294156400
I0403 14:34:24.422819 29979 layer_factory.hpp:77] Creating layer norm1
I0403 14:34:24.422850 29979 net.cpp:91] Creating Layer norm1
I0403 14:34:24.422868 29979 net.cpp:425] norm1 <- conv1
I0403 14:34:24.422888 29979 net.cpp:399] norm1 -> norm1
I0403 14:34:24.423208 29979 net.cpp:141] Setting up norm1
I0403 14:34:24.423238 29979 net.cpp:148] Top shape: 100 96 55 55 (29040000)
I0403 14:34:24.423254 29979 net.cpp:156] Memory required for data: 410316400
I0403 14:34:24.423270 29979 layer_factory.hpp:77] Creating layer pool1
I0403 14:34:24.423300 29979 net.cpp:91] Creating Layer pool1
I0403 14:34:24.423318 29979 net.cpp:425] pool1 <- norm1
I0403 14:34:24.423337 29979 net.cpp:399] pool1 -> pool1
I0403 14:34:24.423406 29979 net.cpp:141] Setting up pool1
I0403 14:34:24.423432 29979 net.cpp:148] Top shape: 100 96 27 27 (6998400)
I0403 14:34:24.423449 29979 net.cpp:156] Memory required for data: 438310000
I0403 14:34:24.423465 29979 layer_factory.hpp:77] Creating layer conv2
I0403 14:34:24.423490 29979 net.cpp:91] Creating Layer conv2
I0403 14:34:24.423509 29979 net.cpp:425] conv2 <- pool1
I0403 14:34:24.423532 29979 net.cpp:399] conv2 -> conv2
I0403 14:34:24.438424 29979 net.cpp:141] Setting up conv2
I0403 14:34:24.438469 29979 net.cpp:148] Top shape: 100 256 27 27 (18662400)
I0403 14:34:24.438488 29979 net.cpp:156] Memory required for data: 512959600
I0403 14:34:24.438510 29979 layer_factory.hpp:77] Creating layer relu2
I0403 14:34:24.438530 29979 net.cpp:91] Creating Layer relu2
I0403 14:34:24.438549 29979 net.cpp:425] relu2 <- conv2
I0403 14:34:24.438566 29979 net.cpp:386] relu2 -> conv2 (in-place)
I0403 14:34:24.438851 29979 net.cpp:141] Setting up relu2
I0403 14:34:24.438879 29979 net.cpp:148] Top shape: 100 256 27 27 (18662400)
I0403 14:34:24.438894 29979 net.cpp:156] Memory required for data: 587609200
I0403 14:34:24.438910 29979 layer_factory.hpp:77] Creating layer norm2
I0403 14:34:24.438933 29979 net.cpp:91] Creating Layer norm2
I0403 14:34:24.438949 29979 net.cpp:425] norm2 <- conv2
I0403 14:34:24.438967 29979 net.cpp:399] norm2 -> norm2
I0403 14:34:24.439162 29979 net.cpp:141] Setting up norm2
I0403 14:34:24.439191 29979 net.cpp:148] Top shape: 100 256 27 27 (18662400)
I0403 14:34:24.439208 29979 net.cpp:156] Memory required for data: 662258800
I0403 14:34:24.439224 29979 layer_factory.hpp:77] Creating layer pool2
I0403 14:34:24.439241 29979 net.cpp:91] Creating Layer pool2
I0403 14:34:24.439256 29979 net.cpp:425] pool2 <- norm2
I0403 14:34:24.439275 29979 net.cpp:399] pool2 -> pool2
I0403 14:34:24.439333 29979 net.cpp:141] Setting up pool2
I0403 14:34:24.439358 29979 net.cpp:148] Top shape: 100 256 13 13 (4326400)
I0403 14:34:24.439373 29979 net.cpp:156] Memory required for data: 679564400
I0403 14:34:24.439389 29979 layer_factory.hpp:77] Creating layer conv3
I0403 14:34:24.439414 29979 net.cpp:91] Creating Layer conv3
I0403 14:34:24.439431 29979 net.cpp:425] conv3 <- pool2
I0403 14:34:24.439452 29979 net.cpp:399] conv3 -> conv3
I0403 14:34:24.476753 29979 net.cpp:141] Setting up conv3
I0403 14:34:24.476804 29979 net.cpp:148] Top shape: 100 384 13 13 (6489600)
I0403 14:34:24.476821 29979 net.cpp:156] Memory required for data: 705522800
I0403 14:34:24.476846 29979 layer_factory.hpp:77] Creating layer relu3
I0403 14:34:24.476867 29979 net.cpp:91] Creating Layer relu3
I0403 14:34:24.476884 29979 net.cpp:425] relu3 <- conv3
I0403 14:34:24.476904 29979 net.cpp:386] relu3 -> conv3 (in-place)
I0403 14:34:24.477180 29979 net.cpp:141] Setting up relu3
I0403 14:34:24.477208 29979 net.cpp:148] Top shape: 100 384 13 13 (6489600)
I0403 14:34:24.477226 29979 net.cpp:156] Memory required for data: 731481200
I0403 14:34:24.477241 29979 layer_factory.hpp:77] Creating layer conv4
I0403 14:34:24.477267 29979 net.cpp:91] Creating Layer conv4
I0403 14:34:24.477289 29979 net.cpp:425] conv4 <- conv3
I0403 14:34:24.477309 29979 net.cpp:399] conv4 -> conv4
I0403 14:34:24.506956 29979 net.cpp:141] Setting up conv4
I0403 14:34:24.507015 29979 net.cpp:148] Top shape: 100 384 13 13 (6489600)
I0403 14:34:24.507068 29979 net.cpp:156] Memory required for data: 757439600
I0403 14:34:24.507092 29979 layer_factory.hpp:77] Creating layer relu4
I0403 14:34:24.507122 29979 net.cpp:91] Creating Layer relu4
I0403 14:34:24.507140 29979 net.cpp:425] relu4 <- conv4
I0403 14:34:24.507160 29979 net.cpp:386] relu4 -> conv4 (in-place)
I0403 14:34:24.507449 29979 net.cpp:141] Setting up relu4
I0403 14:34:24.507477 29979 net.cpp:148] Top shape: 100 384 13 13 (6489600)
I0403 14:34:24.507494 29979 net.cpp:156] Memory required for data: 783398000
I0403 14:34:24.507513 29979 layer_factory.hpp:77] Creating layer conv5
I0403 14:34:24.507541 29979 net.cpp:91] Creating Layer conv5
I0403 14:34:24.507560 29979 net.cpp:425] conv5 <- conv4
I0403 14:34:24.507580 29979 net.cpp:399] conv5 -> conv5
I0403 14:34:24.527854 29979 net.cpp:141] Setting up conv5
I0403 14:34:24.527899 29979 net.cpp:148] Top shape: 100 256 13 13 (4326400)
I0403 14:34:24.527917 29979 net.cpp:156] Memory required for data: 800703600
I0403 14:34:24.527942 29979 layer_factory.hpp:77] Creating layer relu5
I0403 14:34:24.527963 29979 net.cpp:91] Creating Layer relu5
I0403 14:34:24.527981 29979 net.cpp:425] relu5 <- conv5
I0403 14:34:24.527998 29979 net.cpp:386] relu5 -> conv5 (in-place)
I0403 14:34:24.528272 29979 net.cpp:141] Setting up relu5
I0403 14:34:24.528306 29979 net.cpp:148] Top shape: 100 256 13 13 (4326400)
I0403 14:34:24.528323 29979 net.cpp:156] Memory required for data: 818009200
I0403 14:34:24.528339 29979 layer_factory.hpp:77] Creating layer pool5
I0403 14:34:24.528362 29979 net.cpp:91] Creating Layer pool5
I0403 14:34:24.528379 29979 net.cpp:425] pool5 <- conv5
I0403 14:34:24.528400 29979 net.cpp:399] pool5 -> pool5
I0403 14:34:24.528461 29979 net.cpp:141] Setting up pool5
I0403 14:34:24.528487 29979 net.cpp:148] Top shape: 100 256 6 6 (921600)
I0403 14:34:24.528507 29979 net.cpp:156] Memory required for data: 821695600
I0403 14:34:24.528523 29979 layer_factory.hpp:77] Creating layer fc6
I0403 14:34:24.528554 29979 net.cpp:91] Creating Layer fc6
I0403 14:34:24.528574 29979 net.cpp:425] fc6 <- pool5
I0403 14:34:24.528595 29979 net.cpp:399] fc6 -> fc6
I0403 14:34:26.066954 29979 net.cpp:141] Setting up fc6
I0403 14:34:26.067026 29979 net.cpp:148] Top shape: 100 4096 (409600)
I0403 14:34:26.067044 29979 net.cpp:156] Memory required for data: 823334000
I0403 14:34:26.067065 29979 layer_factory.hpp:77] Creating layer relu6
I0403 14:34:26.067090 29979 net.cpp:91] Creating Layer relu6
I0403 14:34:26.067109 29979 net.cpp:425] relu6 <- fc6
I0403 14:34:26.067129 29979 net.cpp:386] relu6 -> fc6 (in-place)
I0403 14:34:26.067348 29979 net.cpp:141] Setting up relu6
I0403 14:34:26.067375 29979 net.cpp:148] Top shape: 100 4096 (409600)
I0403 14:34:26.067390 29979 net.cpp:156] Memory required for data: 824972400
I0403 14:34:26.067406 29979 layer_factory.hpp:77] Creating layer drop6
I0403 14:34:26.067425 29979 net.cpp:91] Creating Layer drop6
I0403 14:34:26.067441 29979 net.cpp:425] drop6 <- fc6
I0403 14:34:26.067459 29979 net.cpp:386] drop6 -> fc6 (in-place)
I0403 14:34:26.067512 29979 net.cpp:141] Setting up drop6
I0403 14:34:26.067535 29979 net.cpp:148] Top shape: 100 4096 (409600)
I0403 14:34:26.067550 29979 net.cpp:156] Memory required for data: 826610800
I0403 14:34:26.067565 29979 layer_factory.hpp:77] Creating layer fc7
I0403 14:34:26.067587 29979 net.cpp:91] Creating Layer fc7
I0403 14:34:26.067603 29979 net.cpp:425] fc7 <- fc6
I0403 14:34:26.067622 29979 net.cpp:399] fc7 -> fc7
I0403 14:34:26.743497 29979 net.cpp:141] Setting up fc7
I0403 14:34:26.743563 29979 net.cpp:148] Top shape: 100 4096 (409600)
I0403 14:34:26.743579 29979 net.cpp:156] Memory required for data: 828249200
I0403 14:34:26.743600 29979 layer_factory.hpp:77] Creating layer relu7
I0403 14:34:26.743625 29979 net.cpp:91] Creating Layer relu7
I0403 14:34:26.743644 29979 net.cpp:425] relu7 <- fc7
I0403 14:34:26.743664 29979 net.cpp:386] relu7 -> fc7 (in-place)
I0403 14:34:26.744047 29979 net.cpp:141] Setting up relu7
I0403 14:34:26.744076 29979 net.cpp:148] Top shape: 100 4096 (409600)
I0403 14:34:26.744125 29979 net.cpp:156] Memory required for data: 829887600
I0403 14:34:26.744143 29979 layer_factory.hpp:77] Creating layer drop7
I0403 14:34:26.744161 29979 net.cpp:91] Creating Layer drop7
I0403 14:34:26.744176 29979 net.cpp:425] drop7 <- fc7
I0403 14:34:26.744194 29979 net.cpp:386] drop7 -> fc7 (in-place)
I0403 14:34:26.744240 29979 net.cpp:141] Setting up drop7
I0403 14:34:26.744273 29979 net.cpp:148] Top shape: 100 4096 (409600)
I0403 14:34:26.744289 29979 net.cpp:156] Memory required for data: 831526000
I0403 14:34:26.744305 29979 layer_factory.hpp:77] Creating layer fc8_plantvillage
I0403 14:34:26.744328 29979 net.cpp:91] Creating Layer fc8_plantvillage
I0403 14:34:26.744343 29979 net.cpp:425] fc8_plantvillage <- fc7
I0403 14:34:26.744359 29979 net.cpp:399] fc8_plantvillage -> fc8_plantvillage
I0403 14:34:26.750855 29979 net.cpp:141] Setting up fc8_plantvillage
I0403 14:34:26.750885 29979 net.cpp:148] Top shape: 100 38 (3800)
I0403 14:34:26.750900 29979 net.cpp:156] Memory required for data: 831541200
I0403 14:34:26.750916 29979 layer_factory.hpp:77] Creating layer fc8_plantvillage_fc8_plantvillage_0_split
I0403 14:34:26.750936 29979 net.cpp:91] Creating Layer fc8_plantvillage_fc8_plantvillage_0_split
I0403 14:34:26.750952 29979 net.cpp:425] fc8_plantvillage_fc8_plantvillage_0_split <- fc8_plantvillage
I0403 14:34:26.750970 29979 net.cpp:399] fc8_plantvillage_fc8_plantvillage_0_split -> fc8_plantvillage_fc8_plantvillage_0_split_0
I0403 14:34:26.750993 29979 net.cpp:399] fc8_plantvillage_fc8_plantvillage_0_split -> fc8_plantvillage_fc8_plantvillage_0_split_1
I0403 14:34:26.751014 29979 net.cpp:399] fc8_plantvillage_fc8_plantvillage_0_split -> fc8_plantvillage_fc8_plantvillage_0_split_2
I0403 14:34:26.751092 29979 net.cpp:141] Setting up fc8_plantvillage_fc8_plantvillage_0_split
I0403 14:34:26.751116 29979 net.cpp:148] Top shape: 100 38 (3800)
I0403 14:34:26.751132 29979 net.cpp:148] Top shape: 100 38 (3800)
I0403 14:34:26.751148 29979 net.cpp:148] Top shape: 100 38 (3800)
I0403 14:34:26.751163 29979 net.cpp:156] Memory required for data: 831586800
I0403 14:34:26.751178 29979 layer_factory.hpp:77] Creating layer prob
I0403 14:34:26.751196 29979 net.cpp:91] Creating Layer prob
I0403 14:34:26.751212 29979 net.cpp:425] prob <- fc8_plantvillage_fc8_plantvillage_0_split_0
I0403 14:34:26.751230 29979 net.cpp:399] prob -> prob
I0403 14:34:26.751452 29979 net.cpp:141] Setting up prob
I0403 14:34:26.751478 29979 net.cpp:148] Top shape: 100 38 (3800)
I0403 14:34:26.751493 29979 net.cpp:156] Memory required for data: 831602000
I0403 14:34:26.751509 29979 layer_factory.hpp:77] Creating layer hdf5out
I0403 14:34:26.751531 29979 net.cpp:91] Creating Layer hdf5out
I0403 14:34:26.751549 29979 net.cpp:425] hdf5out <- prob
I0403 14:34:26.751565 29979 net.cpp:425] hdf5out <- label_data_1_split_0
I0403 14:34:26.755245 29979 net.cpp:141] Setting up hdf5out
…
