…
I0403 14:10:55.845336 29412 net.cpp:313] The NetState phase (1) differed from the phase (0) specified by a rule in layer data
I0403 14:10:55.845628 29412 net.cpp:49] Initializing net from parameters: 
state {
  phase: TEST
}
layer {
  name: "data"
  type: "Data"
  top: "data"
  top: "label"
  include {
    phase: TEST
  }
  transform_param {
    crop_size: 227
    mean_file: "/home/mohanty/data/final_dataset/lmdb/color-20-80/mean.binaryproto"
  }
  data_param {
    source: "/home/mohanty/data/final_dataset/lmdb/color-20-80/test_db"
    batch_size: 100
    backend: LMDB
  }
}
layer {
  name: "conv1"
  type: "Convolution"
  bottom: "data"
  top: "conv1"
  param {
    lr_mult: 1
    decay_mult: 1
  }
  param {
    lr_mult: 2
    decay_mult: 0
  }
  convolution_param {
    num_output: 96
    kernel_size: 11
    stride: 4
    weight_filler {
      type: "gaussian"
      std: 0.01
    }
    bias_filler {
      type: "constant"
      value: 0
    }
  }
}
layer {
  name: "relu1"
  type: "ReLU"
  bottom: "conv1"
  top: "conv1"
}
layer {
  name: "norm1"
  type: "LRN"
  bottom: "conv1"
  top: "norm1"
  lrn_param {
    local_size: 5
    alpha: 0.0001
    beta: 0.75
  }
}
layer {
  name: "pool1"
  type: "Pooling"
  bottom: "norm1"
  top: "pool1"
  pooling_param {
    pool: MAX
    kernel_size: 3
    stride: 2
  }
}
layer {
  name: "conv2"
  type: "Convolution"
  bottom: "pool1"
  top: "conv2"
  param {
    lr_mult: 1
    decay_mult: 1
  }
  param {
    lr_mult: 2
    decay_mult: 0
  }
  convolution_param {
    num_output: 256
    pad: 2
    kernel_size: 5
    group: 2
    weight_filler {
      type: "gaussian"
      std: 0.01
    }
    bias_filler {
      type: "constant"
      value: 0.1
    }
  }
}
layer {
  name: "relu2"
  type: "ReLU"
  bottom: "conv2"
  top: "conv2"
}
layer {
  name: "norm2"
  type: "LRN"
  bottom: "conv2"
  top: "norm2"
  lrn_param {
    local_size: 5
    alpha: 0.0001
    beta: 0.75
  }
}
layer {
  name: "pool2"
  type: "Pooling"
  bottom: "norm2"
  top: "pool2"
  pooling_param {
    pool: MAX
    kernel_size: 3
    stride: 2
  }
}
layer {
  name: "conv3"
  type: "Convolution"
  bottom: "pool2"
  top: "conv3"
  param {
    lr_mult: 1
    decay_mult: 1
  }
  param {
    lr_mult: 2
    decay_mult: 0
  }
  convolution_param {
    num_output: 384
    pad: 1
    kernel_size: 3
    weight_filler {
      type: "gaussian"
      std: 0.01
    }
    bias_filler {
      type: "constant"
      value: 0
    }
  }
}
layer {
  name: "relu3"
  type: "ReLU"
  bottom: "conv3"
  top: "conv3"
}
layer {
  name: "conv4"
  type: "Convolution"
  bottom: "conv3"
  top: "conv4"
  param {
    lr_mult: 1
    decay_mult: 1
  }
  param {
    lr_mult: 2
    decay_mult: 0
  }
  convolution_param {
    num_output: 384
    pad: 1
    kernel_size: 3
    group: 2
    weight_filler {
      type: "gaussian"
      std: 0.01
    }
    bias_filler {
      type: "constant"
      value: 0.1
    }
  }
}
layer {
  name: "relu4"
  type: "ReLU"
  bottom: "conv4"
  top: "conv4"
}
layer {
  name: "conv5"
  type: "Convolution"
  bottom: "conv4"
  top: "conv5"
  param {
    lr_mult: 1
    decay_mult: 1
  }
  param {
    lr_mult: 2
    decay_mult: 0
  }
  convolution_param {
    num_output: 256
    pad: 1
    kernel_size: 3
    group: 2
    weight_filler {
      type: "gaussian"
      std: 0.01
    }
    bias_filler {
      type: "constant"
      value: 0.1
    }
  }
}
layer {
  name: "relu5"
  type: "ReLU"
  bottom: "conv5"
  top: "conv5"
}
layer {
  name: "pool5"
  type: "Pooling"
  bottom: "conv5"
  top: "pool5"
  pooling_param {
    pool: MAX
    kernel_size: 3
    stride: 2
  }
}
layer {
  name: "fc6"
  type: "InnerProduct"
  bottom: "pool5"
  top: "fc6"
  param {
    lr_mult: 1
    decay_mult: 1
  }
  param {
    lr_mult: 2
    decay_mult: 0
  }
  inner_product_param {
    num_output: 4096
    weight_filler {
      type: "gaussian"
      std: 0.005
    }
    bias_filler {
      type: "constant"
      value: 0.1
    }
  }
}
layer {
  name: "relu6"
  type: "ReLU"
  bottom: "fc6"
  top: "fc6"
}
layer {
  name: "drop6"
  type: "Dropout"
  bottom: "fc6"
  top: "fc6"
  dropout_param {
    dropout_ratio: 0.5
  }
}
layer {
  name: "fc7"
  type: "InnerProduct"
  bottom: "fc6"
  top: "fc7"
  param {
    lr_mult: 1
    decay_mult: 1
  }
  param {
    lr_mult: 2
    decay_mult: 0
  }
  inner_product_param {
    num_output: 4096
    weight_filler {
      type: "gaussian"
      std: 0.005
    }
    bias_filler {
      type: "constant"
      value: 0.1
    }
  }
}
layer {
  name: "relu7"
  type: "ReLU"
  bottom: "fc7"
  top: "fc7"
}
layer {
  name: "drop7"
  type: "Dropout"
  bottom: "fc7"
  top: "fc7"
  dropout_param {
    dropout_ratio: 0.5
  }
}
layer {
  name: "fc8_plantvillage"
  type: "InnerProduct"
  bottom: "fc7"
  top: "fc8_plantvillage"
  param {
    lr_mult: 1
    decay_mult: 1
  }
  param {
    lr_mult: 2
    decay_mult: 0
  }
  inner_product_param {
    num_output: 38
    weight_filler {
      type: "gaussian"
      std: 0.01
    }
    bias_filler {
      type: "constant"
      value: 0
    }
  }
}
layer {
  name: "prob"
  type: "Softmax"
  bottom: "fc8_plantvillage"
  top: "prob"
  include {
    phase: TEST
  }
}
layer {
  name: "hdf5out"
  type: "HDF5Output"
  bottom: "prob"
  bottom: "label"
  include {
    phase: TEST
  }
  hdf5_output_param {
    file_name: "hdf5_dumps/iter_540.h5"
  }
}
layer {
  name: "loss"
  type: "SoftmaxWithLoss"
  bottom: "fc8_plantvillage"
  bottom: "label"
  top: "loss"
}
layer {
  name: "accuracy"
  type: "Accuracy"
  bottom: "fc8_plantvillage"
  bottom: "label"
  top: "accuracy"
  include {
    phase: TEST
  }
}
I0403 14:10:55.846215 29412 layer_factory.hpp:77] Creating layer data
I0403 14:10:55.846891 29412 net.cpp:91] Creating Layer data
I0403 14:10:55.846926 29412 net.cpp:399] data -> data
I0403 14:10:55.846979 29412 net.cpp:399] data -> label
I0403 14:10:55.847018 29412 data_transformer.cpp:25] Loading mean file from: /home/mohanty/data/final_dataset/lmdb/color-20-80/mean.binaryproto
I0403 14:10:55.849195 29417 db_lmdb.cpp:38] Opened lmdb /home/mohanty/data/final_dataset/lmdb/color-20-80/test_db
I0403 14:10:55.861629 29412 data_layer.cpp:41] output data size: 100,3,227,227
I0403 14:10:55.993903 29412 net.cpp:141] Setting up data
I0403 14:10:55.993966 29412 net.cpp:148] Top shape: 100 3 227 227 (15458700)
I0403 14:10:55.993990 29412 net.cpp:148] Top shape: 100 (100)
I0403 14:10:55.994009 29412 net.cpp:156] Memory required for data: 61835200
I0403 14:10:55.994037 29412 layer_factory.hpp:77] Creating layer label_data_1_split
I0403 14:10:55.994065 29412 net.cpp:91] Creating Layer label_data_1_split
I0403 14:10:55.994086 29412 net.cpp:425] label_data_1_split <- label
I0403 14:10:55.994117 29412 net.cpp:399] label_data_1_split -> label_data_1_split_0
I0403 14:10:55.994146 29412 net.cpp:399] label_data_1_split -> label_data_1_split_1
I0403 14:10:55.994168 29412 net.cpp:399] label_data_1_split -> label_data_1_split_2
I0403 14:10:55.994236 29412 net.cpp:141] Setting up label_data_1_split
I0403 14:10:55.994262 29412 net.cpp:148] Top shape: 100 (100)
I0403 14:10:55.994282 29412 net.cpp:148] Top shape: 100 (100)
I0403 14:10:55.994312 29412 net.cpp:148] Top shape: 100 (100)
I0403 14:10:55.994328 29412 net.cpp:156] Memory required for data: 61836400
I0403 14:10:55.994349 29412 layer_factory.hpp:77] Creating layer conv1
I0403 14:10:55.994384 29412 net.cpp:91] Creating Layer conv1
I0403 14:10:55.994405 29412 net.cpp:425] conv1 <- data
I0403 14:10:55.994424 29412 net.cpp:399] conv1 -> conv1
I0403 14:10:56.138926 29412 net.cpp:141] Setting up conv1
I0403 14:10:56.139006 29412 net.cpp:148] Top shape: 100 96 55 55 (29040000)
I0403 14:10:56.139024 29412 net.cpp:156] Memory required for data: 177996400
I0403 14:10:56.139057 29412 layer_factory.hpp:77] Creating layer relu1
I0403 14:10:56.139086 29412 net.cpp:91] Creating Layer relu1
I0403 14:10:56.139106 29412 net.cpp:425] relu1 <- conv1
I0403 14:10:56.139127 29412 net.cpp:386] relu1 -> conv1 (in-place)
I0403 14:10:56.139451 29412 net.cpp:141] Setting up relu1
I0403 14:10:56.139479 29412 net.cpp:148] Top shape: 100 96 55 55 (29040000)
I0403 14:10:56.139497 29412 net.cpp:156] Memory required for data: 294156400
I0403 14:10:56.139545 29412 layer_factory.hpp:77] Creating layer norm1
I0403 14:10:56.139575 29412 net.cpp:91] Creating Layer norm1
I0403 14:10:56.139592 29412 net.cpp:425] norm1 <- conv1
I0403 14:10:56.139612 29412 net.cpp:399] norm1 -> norm1
I0403 14:10:56.139942 29412 net.cpp:141] Setting up norm1
I0403 14:10:56.139974 29412 net.cpp:148] Top shape: 100 96 55 55 (29040000)
I0403 14:10:56.139992 29412 net.cpp:156] Memory required for data: 410316400
I0403 14:10:56.140009 29412 layer_factory.hpp:77] Creating layer pool1
I0403 14:10:56.140033 29412 net.cpp:91] Creating Layer pool1
I0403 14:10:56.140050 29412 net.cpp:425] pool1 <- norm1
I0403 14:10:56.140069 29412 net.cpp:399] pool1 -> pool1
I0403 14:10:56.140141 29412 net.cpp:141] Setting up pool1
I0403 14:10:56.140166 29412 net.cpp:148] Top shape: 100 96 27 27 (6998400)
I0403 14:10:56.140182 29412 net.cpp:156] Memory required for data: 438310000
I0403 14:10:56.140197 29412 layer_factory.hpp:77] Creating layer conv2
I0403 14:10:56.140225 29412 net.cpp:91] Creating Layer conv2
I0403 14:10:56.140244 29412 net.cpp:425] conv2 <- pool1
I0403 14:10:56.140265 29412 net.cpp:399] conv2 -> conv2
I0403 14:10:56.157645 29412 net.cpp:141] Setting up conv2
I0403 14:10:56.157698 29412 net.cpp:148] Top shape: 100 256 27 27 (18662400)
I0403 14:10:56.157716 29412 net.cpp:156] Memory required for data: 512959600
I0403 14:10:56.157742 29412 layer_factory.hpp:77] Creating layer relu2
I0403 14:10:56.157766 29412 net.cpp:91] Creating Layer relu2
I0403 14:10:56.157785 29412 net.cpp:425] relu2 <- conv2
I0403 14:10:56.157805 29412 net.cpp:386] relu2 -> conv2 (in-place)
I0403 14:10:56.158088 29412 net.cpp:141] Setting up relu2
I0403 14:10:56.158118 29412 net.cpp:148] Top shape: 100 256 27 27 (18662400)
I0403 14:10:56.158134 29412 net.cpp:156] Memory required for data: 587609200
I0403 14:10:56.158150 29412 layer_factory.hpp:77] Creating layer norm2
I0403 14:10:56.158175 29412 net.cpp:91] Creating Layer norm2
I0403 14:10:56.158193 29412 net.cpp:425] norm2 <- conv2
I0403 14:10:56.158213 29412 net.cpp:399] norm2 -> norm2
I0403 14:10:56.158416 29412 net.cpp:141] Setting up norm2
I0403 14:10:56.158444 29412 net.cpp:148] Top shape: 100 256 27 27 (18662400)
I0403 14:10:56.158460 29412 net.cpp:156] Memory required for data: 662258800
I0403 14:10:56.158478 29412 layer_factory.hpp:77] Creating layer pool2
I0403 14:10:56.158499 29412 net.cpp:91] Creating Layer pool2
I0403 14:10:56.158515 29412 net.cpp:425] pool2 <- norm2
I0403 14:10:56.158535 29412 net.cpp:399] pool2 -> pool2
I0403 14:10:56.158589 29412 net.cpp:141] Setting up pool2
I0403 14:10:56.158614 29412 net.cpp:148] Top shape: 100 256 13 13 (4326400)
I0403 14:10:56.158630 29412 net.cpp:156] Memory required for data: 679564400
I0403 14:10:56.158645 29412 layer_factory.hpp:77] Creating layer conv3
I0403 14:10:56.158670 29412 net.cpp:91] Creating Layer conv3
I0403 14:10:56.158690 29412 net.cpp:425] conv3 <- pool2
I0403 14:10:56.158711 29412 net.cpp:399] conv3 -> conv3
I0403 14:10:56.197353 29412 net.cpp:141] Setting up conv3
I0403 14:10:56.197404 29412 net.cpp:148] Top shape: 100 384 13 13 (6489600)
I0403 14:10:56.197422 29412 net.cpp:156] Memory required for data: 705522800
I0403 14:10:56.197449 29412 layer_factory.hpp:77] Creating layer relu3
I0403 14:10:56.197474 29412 net.cpp:91] Creating Layer relu3
I0403 14:10:56.197490 29412 net.cpp:425] relu3 <- conv3
I0403 14:10:56.197510 29412 net.cpp:386] relu3 -> conv3 (in-place)
I0403 14:10:56.197790 29412 net.cpp:141] Setting up relu3
I0403 14:10:56.197820 29412 net.cpp:148] Top shape: 100 384 13 13 (6489600)
I0403 14:10:56.197836 29412 net.cpp:156] Memory required for data: 731481200
I0403 14:10:56.197854 29412 layer_factory.hpp:77] Creating layer conv4
I0403 14:10:56.197880 29412 net.cpp:91] Creating Layer conv4
I0403 14:10:56.197898 29412 net.cpp:425] conv4 <- conv3
I0403 14:10:56.197918 29412 net.cpp:399] conv4 -> conv4
I0403 14:10:56.227273 29412 net.cpp:141] Setting up conv4
I0403 14:10:56.227321 29412 net.cpp:148] Top shape: 100 384 13 13 (6489600)
I0403 14:10:56.227368 29412 net.cpp:156] Memory required for data: 757439600
I0403 14:10:56.227391 29412 layer_factory.hpp:77] Creating layer relu4
I0403 14:10:56.227412 29412 net.cpp:91] Creating Layer relu4
I0403 14:10:56.227430 29412 net.cpp:425] relu4 <- conv4
I0403 14:10:56.227448 29412 net.cpp:386] relu4 -> conv4 (in-place)
I0403 14:10:56.227732 29412 net.cpp:141] Setting up relu4
I0403 14:10:56.227761 29412 net.cpp:148] Top shape: 100 384 13 13 (6489600)
I0403 14:10:56.227777 29412 net.cpp:156] Memory required for data: 783398000
I0403 14:10:56.227792 29412 layer_factory.hpp:77] Creating layer conv5
I0403 14:10:56.227816 29412 net.cpp:91] Creating Layer conv5
I0403 14:10:56.227835 29412 net.cpp:425] conv5 <- conv4
I0403 14:10:56.227859 29412 net.cpp:399] conv5 -> conv5
I0403 14:10:56.248791 29412 net.cpp:141] Setting up conv5
I0403 14:10:56.248852 29412 net.cpp:148] Top shape: 100 256 13 13 (4326400)
I0403 14:10:56.248869 29412 net.cpp:156] Memory required for data: 800703600
I0403 14:10:56.248895 29412 layer_factory.hpp:77] Creating layer relu5
I0403 14:10:56.248922 29412 net.cpp:91] Creating Layer relu5
I0403 14:10:56.248942 29412 net.cpp:425] relu5 <- conv5
I0403 14:10:56.248962 29412 net.cpp:386] relu5 -> conv5 (in-place)
I0403 14:10:56.249243 29412 net.cpp:141] Setting up relu5
I0403 14:10:56.249274 29412 net.cpp:148] Top shape: 100 256 13 13 (4326400)
I0403 14:10:56.249297 29412 net.cpp:156] Memory required for data: 818009200
I0403 14:10:56.249313 29412 layer_factory.hpp:77] Creating layer pool5
I0403 14:10:56.249337 29412 net.cpp:91] Creating Layer pool5
I0403 14:10:56.249354 29412 net.cpp:425] pool5 <- conv5
I0403 14:10:56.249377 29412 net.cpp:399] pool5 -> pool5
I0403 14:10:56.249439 29412 net.cpp:141] Setting up pool5
I0403 14:10:56.249469 29412 net.cpp:148] Top shape: 100 256 6 6 (921600)
I0403 14:10:56.249485 29412 net.cpp:156] Memory required for data: 821695600
I0403 14:10:56.249500 29412 layer_factory.hpp:77] Creating layer fc6
I0403 14:10:56.249541 29412 net.cpp:91] Creating Layer fc6
I0403 14:10:56.249559 29412 net.cpp:425] fc6 <- pool5
I0403 14:10:56.249583 29412 net.cpp:399] fc6 -> fc6
I0403 14:10:57.810900 29412 net.cpp:141] Setting up fc6
I0403 14:10:57.810956 29412 net.cpp:148] Top shape: 100 4096 (409600)
I0403 14:10:57.810972 29412 net.cpp:156] Memory required for data: 823334000
I0403 14:10:57.810995 29412 layer_factory.hpp:77] Creating layer relu6
I0403 14:10:57.811022 29412 net.cpp:91] Creating Layer relu6
I0403 14:10:57.811040 29412 net.cpp:425] relu6 <- fc6
I0403 14:10:57.811060 29412 net.cpp:386] relu6 -> fc6 (in-place)
I0403 14:10:57.811280 29412 net.cpp:141] Setting up relu6
I0403 14:10:57.811312 29412 net.cpp:148] Top shape: 100 4096 (409600)
I0403 14:10:57.811339 29412 net.cpp:156] Memory required for data: 824972400
I0403 14:10:57.811355 29412 layer_factory.hpp:77] Creating layer drop6
I0403 14:10:57.811378 29412 net.cpp:91] Creating Layer drop6
I0403 14:10:57.811394 29412 net.cpp:425] drop6 <- fc6
I0403 14:10:57.811414 29412 net.cpp:386] drop6 -> fc6 (in-place)
I0403 14:10:57.811468 29412 net.cpp:141] Setting up drop6
I0403 14:10:57.811493 29412 net.cpp:148] Top shape: 100 4096 (409600)
I0403 14:10:57.811509 29412 net.cpp:156] Memory required for data: 826610800
I0403 14:10:57.811527 29412 layer_factory.hpp:77] Creating layer fc7
I0403 14:10:57.811548 29412 net.cpp:91] Creating Layer fc7
I0403 14:10:57.811566 29412 net.cpp:425] fc7 <- fc6
I0403 14:10:57.811586 29412 net.cpp:399] fc7 -> fc7
I0403 14:10:58.492576 29412 net.cpp:141] Setting up fc7
I0403 14:10:58.492620 29412 net.cpp:148] Top shape: 100 4096 (409600)
I0403 14:10:58.492637 29412 net.cpp:156] Memory required for data: 828249200
I0403 14:10:58.492658 29412 layer_factory.hpp:77] Creating layer relu7
I0403 14:10:58.492681 29412 net.cpp:91] Creating Layer relu7
I0403 14:10:58.492699 29412 net.cpp:425] relu7 <- fc7
I0403 14:10:58.492718 29412 net.cpp:386] relu7 -> fc7 (in-place)
I0403 14:10:58.493090 29412 net.cpp:141] Setting up relu7
I0403 14:10:58.493119 29412 net.cpp:148] Top shape: 100 4096 (409600)
I0403 14:10:58.493166 29412 net.cpp:156] Memory required for data: 829887600
I0403 14:10:58.493182 29412 layer_factory.hpp:77] Creating layer drop7
I0403 14:10:58.493201 29412 net.cpp:91] Creating Layer drop7
I0403 14:10:58.493218 29412 net.cpp:425] drop7 <- fc7
I0403 14:10:58.493237 29412 net.cpp:386] drop7 -> fc7 (in-place)
I0403 14:10:58.493281 29412 net.cpp:141] Setting up drop7
I0403 14:10:58.493317 29412 net.cpp:148] Top shape: 100 4096 (409600)
I0403 14:10:58.493332 29412 net.cpp:156] Memory required for data: 831526000
I0403 14:10:58.493348 29412 layer_factory.hpp:77] Creating layer fc8_plantvillage
I0403 14:10:58.493371 29412 net.cpp:91] Creating Layer fc8_plantvillage
I0403 14:10:58.493388 29412 net.cpp:425] fc8_plantvillage <- fc7
I0403 14:10:58.493407 29412 net.cpp:399] fc8_plantvillage -> fc8_plantvillage
I0403 14:10:58.499917 29412 net.cpp:141] Setting up fc8_plantvillage
I0403 14:10:58.499943 29412 net.cpp:148] Top shape: 100 38 (3800)
I0403 14:10:58.499959 29412 net.cpp:156] Memory required for data: 831541200
I0403 14:10:58.499979 29412 layer_factory.hpp:77] Creating layer fc8_plantvillage_fc8_plantvillage_0_split
I0403 14:10:58.500000 29412 net.cpp:91] Creating Layer fc8_plantvillage_fc8_plantvillage_0_split
I0403 14:10:58.500016 29412 net.cpp:425] fc8_plantvillage_fc8_plantvillage_0_split <- fc8_plantvillage
I0403 14:10:58.500035 29412 net.cpp:399] fc8_plantvillage_fc8_plantvillage_0_split -> fc8_plantvillage_fc8_plantvillage_0_split_0
I0403 14:10:58.500057 29412 net.cpp:399] fc8_plantvillage_fc8_plantvillage_0_split -> fc8_plantvillage_fc8_plantvillage_0_split_1
I0403 14:10:58.500077 29412 net.cpp:399] fc8_plantvillage_fc8_plantvillage_0_split -> fc8_plantvillage_fc8_plantvillage_0_split_2
I0403 14:10:58.500154 29412 net.cpp:141] Setting up fc8_plantvillage_fc8_plantvillage_0_split
I0403 14:10:58.500179 29412 net.cpp:148] Top shape: 100 38 (3800)
I0403 14:10:58.500195 29412 net.cpp:148] Top shape: 100 38 (3800)
I0403 14:10:58.500211 29412 net.cpp:148] Top shape: 100 38 (3800)
I0403 14:10:58.500224 29412 net.cpp:156] Memory required for data: 831586800
I0403 14:10:58.500239 29412 layer_factory.hpp:77] Creating layer prob
I0403 14:10:58.500260 29412 net.cpp:91] Creating Layer prob
I0403 14:10:58.500277 29412 net.cpp:425] prob <- fc8_plantvillage_fc8_plantvillage_0_split_0
I0403 14:10:58.500303 29412 net.cpp:399] prob -> prob
I0403 14:10:58.500522 29412 net.cpp:141] Setting up prob
I0403 14:10:58.500550 29412 net.cpp:148] Top shape: 100 38 (3800)
I0403 14:10:58.500567 29412 net.cpp:156] Memory required for data: 831602000
I0403 14:10:58.500583 29412 layer_factory.hpp:77] Creating layer hdf5out
I0403 14:10:58.500602 29412 net.cpp:91] Creating Layer hdf5out
I0403 14:10:58.500618 29412 net.cpp:425] hdf5out <- prob
I0403 14:10:58.500634 29412 net.cpp:425] hdf5out <- label_data_1_split_0
I0403 14:10:58.504665 29412 net.cpp:141] Setting up hdf5out
…
