…
I0403 14:18:13.839807 29541 net.cpp:313] The NetState phase (1) differed from the phase (0) specified by a rule in layer data
I0403 14:18:13.840095 29541 net.cpp:49] Initializing net from parameters: 
state {
  phase: TEST
}
layer {
  name: "data"
  type: "Data"
  top: "data"
  top: "label"
  include {
    phase: TEST
  }
  transform_param {
    crop_size: 227
    mean_file: "/home/mohanty/data/final_dataset/lmdb/color-20-80/mean.binaryproto"
  }
  data_param {
    source: "/home/mohanty/data/final_dataset/lmdb/color-20-80/test_db"
    batch_size: 100
    backend: LMDB
  }
}
layer {
  name: "conv1"
  type: "Convolution"
  bottom: "data"
  top: "conv1"
  param {
    lr_mult: 1
    decay_mult: 1
  }
  param {
    lr_mult: 2
    decay_mult: 0
  }
  convolution_param {
    num_output: 96
    kernel_size: 11
    stride: 4
    weight_filler {
      type: "gaussian"
      std: 0.01
    }
    bias_filler {
      type: "constant"
      value: 0
    }
  }
}
layer {
  name: "relu1"
  type: "ReLU"
  bottom: "conv1"
  top: "conv1"
}
layer {
  name: "norm1"
  type: "LRN"
  bottom: "conv1"
  top: "norm1"
  lrn_param {
    local_size: 5
    alpha: 0.0001
    beta: 0.75
  }
}
layer {
  name: "pool1"
  type: "Pooling"
  bottom: "norm1"
  top: "pool1"
  pooling_param {
    pool: MAX
    kernel_size: 3
    stride: 2
  }
}
layer {
  name: "conv2"
  type: "Convolution"
  bottom: "pool1"
  top: "conv2"
  param {
    lr_mult: 1
    decay_mult: 1
  }
  param {
    lr_mult: 2
    decay_mult: 0
  }
  convolution_param {
    num_output: 256
    pad: 2
    kernel_size: 5
    group: 2
    weight_filler {
      type: "gaussian"
      std: 0.01
    }
    bias_filler {
      type: "constant"
      value: 0.1
    }
  }
}
layer {
  name: "relu2"
  type: "ReLU"
  bottom: "conv2"
  top: "conv2"
}
layer {
  name: "norm2"
  type: "LRN"
  bottom: "conv2"
  top: "norm2"
  lrn_param {
    local_size: 5
    alpha: 0.0001
    beta: 0.75
  }
}
layer {
  name: "pool2"
  type: "Pooling"
  bottom: "norm2"
  top: "pool2"
  pooling_param {
    pool: MAX
    kernel_size: 3
    stride: 2
  }
}
layer {
  name: "conv3"
  type: "Convolution"
  bottom: "pool2"
  top: "conv3"
  param {
    lr_mult: 1
    decay_mult: 1
  }
  param {
    lr_mult: 2
    decay_mult: 0
  }
  convolution_param {
    num_output: 384
    pad: 1
    kernel_size: 3
    weight_filler {
      type: "gaussian"
      std: 0.01
    }
    bias_filler {
      type: "constant"
      value: 0
    }
  }
}
layer {
  name: "relu3"
  type: "ReLU"
  bottom: "conv3"
  top: "conv3"
}
layer {
  name: "conv4"
  type: "Convolution"
  bottom: "conv3"
  top: "conv4"
  param {
    lr_mult: 1
    decay_mult: 1
  }
  param {
    lr_mult: 2
    decay_mult: 0
  }
  convolution_param {
    num_output: 384
    pad: 1
    kernel_size: 3
    group: 2
    weight_filler {
      type: "gaussian"
      std: 0.01
    }
    bias_filler {
      type: "constant"
      value: 0.1
    }
  }
}
layer {
  name: "relu4"
  type: "ReLU"
  bottom: "conv4"
  top: "conv4"
}
layer {
  name: "conv5"
  type: "Convolution"
  bottom: "conv4"
  top: "conv5"
  param {
    lr_mult: 1
    decay_mult: 1
  }
  param {
    lr_mult: 2
    decay_mult: 0
  }
  convolution_param {
    num_output: 256
    pad: 1
    kernel_size: 3
    group: 2
    weight_filler {
      type: "gaussian"
      std: 0.01
    }
    bias_filler {
      type: "constant"
      value: 0.1
    }
  }
}
layer {
  name: "relu5"
  type: "ReLU"
  bottom: "conv5"
  top: "conv5"
}
layer {
  name: "pool5"
  type: "Pooling"
  bottom: "conv5"
  top: "pool5"
  pooling_param {
    pool: MAX
    kernel_size: 3
    stride: 2
  }
}
layer {
  name: "fc6"
  type: "InnerProduct"
  bottom: "pool5"
  top: "fc6"
  param {
    lr_mult: 1
    decay_mult: 1
  }
  param {
    lr_mult: 2
    decay_mult: 0
  }
  inner_product_param {
    num_output: 4096
    weight_filler {
      type: "gaussian"
      std: 0.005
    }
    bias_filler {
      type: "constant"
      value: 0.1
    }
  }
}
layer {
  name: "relu6"
  type: "ReLU"
  bottom: "fc6"
  top: "fc6"
}
layer {
  name: "drop6"
  type: "Dropout"
  bottom: "fc6"
  top: "fc6"
  dropout_param {
    dropout_ratio: 0.5
  }
}
layer {
  name: "fc7"
  type: "InnerProduct"
  bottom: "fc6"
  top: "fc7"
  param {
    lr_mult: 1
    decay_mult: 1
  }
  param {
    lr_mult: 2
    decay_mult: 0
  }
  inner_product_param {
    num_output: 4096
    weight_filler {
      type: "gaussian"
      std: 0.005
    }
    bias_filler {
      type: "constant"
      value: 0.1
    }
  }
}
layer {
  name: "relu7"
  type: "ReLU"
  bottom: "fc7"
  top: "fc7"
}
layer {
  name: "drop7"
  type: "Dropout"
  bottom: "fc7"
  top: "fc7"
  dropout_param {
    dropout_ratio: 0.5
  }
}
layer {
  name: "fc8_plantvillage"
  type: "InnerProduct"
  bottom: "fc7"
  top: "fc8_plantvillage"
  param {
    lr_mult: 1
    decay_mult: 1
  }
  param {
    lr_mult: 2
    decay_mult: 0
  }
  inner_product_param {
    num_output: 38
    weight_filler {
      type: "gaussian"
      std: 0.01
    }
    bias_filler {
      type: "constant"
      value: 0
    }
  }
}
layer {
  name: "prob"
  type: "Softmax"
  bottom: "fc8_plantvillage"
  top: "prob"
  include {
    phase: TEST
  }
}
layer {
  name: "hdf5out"
  type: "HDF5Output"
  bottom: "prob"
  bottom: "label"
  include {
    phase: TEST
  }
  hdf5_output_param {
    file_name: "hdf5_dumps/iter_1080.h5"
  }
}
layer {
  name: "loss"
  type: "SoftmaxWithLoss"
  bottom: "fc8_plantvillage"
  bottom: "label"
  top: "loss"
}
layer {
  name: "accuracy"
  type: "Accuracy"
  bottom: "fc8_plantvillage"
  bottom: "label"
  top: "accuracy"
  include {
    phase: TEST
  }
}
I0403 14:18:13.840674 29541 layer_factory.hpp:77] Creating layer data
I0403 14:18:13.841354 29541 net.cpp:91] Creating Layer data
I0403 14:18:13.841389 29541 net.cpp:399] data -> data
I0403 14:18:13.841442 29541 net.cpp:399] data -> label
I0403 14:18:13.841481 29541 data_transformer.cpp:25] Loading mean file from: /home/mohanty/data/final_dataset/lmdb/color-20-80/mean.binaryproto
I0403 14:18:13.844820 29545 db_lmdb.cpp:38] Opened lmdb /home/mohanty/data/final_dataset/lmdb/color-20-80/test_db
I0403 14:18:13.855844 29541 data_layer.cpp:41] output data size: 100,3,227,227
I0403 14:18:13.986574 29541 net.cpp:141] Setting up data
I0403 14:18:13.986665 29541 net.cpp:148] Top shape: 100 3 227 227 (15458700)
I0403 14:18:13.986687 29541 net.cpp:148] Top shape: 100 (100)
I0403 14:18:13.986703 29541 net.cpp:156] Memory required for data: 61835200
I0403 14:18:13.986732 29541 layer_factory.hpp:77] Creating layer label_data_1_split
I0403 14:18:13.986757 29541 net.cpp:91] Creating Layer label_data_1_split
I0403 14:18:13.986776 29541 net.cpp:425] label_data_1_split <- label
I0403 14:18:13.986807 29541 net.cpp:399] label_data_1_split -> label_data_1_split_0
I0403 14:18:13.986834 29541 net.cpp:399] label_data_1_split -> label_data_1_split_1
I0403 14:18:13.986855 29541 net.cpp:399] label_data_1_split -> label_data_1_split_2
I0403 14:18:13.986917 29541 net.cpp:141] Setting up label_data_1_split
I0403 14:18:13.986942 29541 net.cpp:148] Top shape: 100 (100)
I0403 14:18:13.986958 29541 net.cpp:148] Top shape: 100 (100)
I0403 14:18:13.986975 29541 net.cpp:148] Top shape: 100 (100)
I0403 14:18:13.986989 29541 net.cpp:156] Memory required for data: 61836400
I0403 14:18:13.987004 29541 layer_factory.hpp:77] Creating layer conv1
I0403 14:18:13.987036 29541 net.cpp:91] Creating Layer conv1
I0403 14:18:13.987056 29541 net.cpp:425] conv1 <- data
I0403 14:18:13.987076 29541 net.cpp:399] conv1 -> conv1
I0403 14:18:14.137480 29541 net.cpp:141] Setting up conv1
I0403 14:18:14.137557 29541 net.cpp:148] Top shape: 100 96 55 55 (29040000)
I0403 14:18:14.137576 29541 net.cpp:156] Memory required for data: 177996400
I0403 14:18:14.137610 29541 layer_factory.hpp:77] Creating layer relu1
I0403 14:18:14.137639 29541 net.cpp:91] Creating Layer relu1
I0403 14:18:14.137660 29541 net.cpp:425] relu1 <- conv1
I0403 14:18:14.137679 29541 net.cpp:386] relu1 -> conv1 (in-place)
I0403 14:18:14.137961 29541 net.cpp:141] Setting up relu1
I0403 14:18:14.137990 29541 net.cpp:148] Top shape: 100 96 55 55 (29040000)
I0403 14:18:14.138007 29541 net.cpp:156] Memory required for data: 294156400
I0403 14:18:14.138057 29541 layer_factory.hpp:77] Creating layer norm1
I0403 14:18:14.138092 29541 net.cpp:91] Creating Layer norm1
I0403 14:18:14.138113 29541 net.cpp:425] norm1 <- conv1
I0403 14:18:14.138133 29541 net.cpp:399] norm1 -> norm1
I0403 14:18:14.138478 29541 net.cpp:141] Setting up norm1
I0403 14:18:14.138510 29541 net.cpp:148] Top shape: 100 96 55 55 (29040000)
I0403 14:18:14.138527 29541 net.cpp:156] Memory required for data: 410316400
I0403 14:18:14.138545 29541 layer_factory.hpp:77] Creating layer pool1
I0403 14:18:14.138568 29541 net.cpp:91] Creating Layer pool1
I0403 14:18:14.138587 29541 net.cpp:425] pool1 <- norm1
I0403 14:18:14.138607 29541 net.cpp:399] pool1 -> pool1
I0403 14:18:14.138682 29541 net.cpp:141] Setting up pool1
I0403 14:18:14.138710 29541 net.cpp:148] Top shape: 100 96 27 27 (6998400)
I0403 14:18:14.138726 29541 net.cpp:156] Memory required for data: 438310000
I0403 14:18:14.138742 29541 layer_factory.hpp:77] Creating layer conv2
I0403 14:18:14.138772 29541 net.cpp:91] Creating Layer conv2
I0403 14:18:14.138789 29541 net.cpp:425] conv2 <- pool1
I0403 14:18:14.138811 29541 net.cpp:399] conv2 -> conv2
I0403 14:18:14.154508 29541 net.cpp:141] Setting up conv2
I0403 14:18:14.154552 29541 net.cpp:148] Top shape: 100 256 27 27 (18662400)
I0403 14:18:14.154572 29541 net.cpp:156] Memory required for data: 512959600
I0403 14:18:14.154595 29541 layer_factory.hpp:77] Creating layer relu2
I0403 14:18:14.154619 29541 net.cpp:91] Creating Layer relu2
I0403 14:18:14.154639 29541 net.cpp:425] relu2 <- conv2
I0403 14:18:14.154659 29541 net.cpp:386] relu2 -> conv2 (in-place)
I0403 14:18:14.154950 29541 net.cpp:141] Setting up relu2
I0403 14:18:14.155000 29541 net.cpp:148] Top shape: 100 256 27 27 (18662400)
I0403 14:18:14.155071 29541 net.cpp:156] Memory required for data: 587609200
I0403 14:18:14.155091 29541 layer_factory.hpp:77] Creating layer norm2
I0403 14:18:14.155114 29541 net.cpp:91] Creating Layer norm2
I0403 14:18:14.155134 29541 net.cpp:425] norm2 <- conv2
I0403 14:18:14.155154 29541 net.cpp:399] norm2 -> norm2
I0403 14:18:14.155383 29541 net.cpp:141] Setting up norm2
I0403 14:18:14.155411 29541 net.cpp:148] Top shape: 100 256 27 27 (18662400)
I0403 14:18:14.155426 29541 net.cpp:156] Memory required for data: 662258800
I0403 14:18:14.155442 29541 layer_factory.hpp:77] Creating layer pool2
I0403 14:18:14.155463 29541 net.cpp:91] Creating Layer pool2
I0403 14:18:14.155481 29541 net.cpp:425] pool2 <- norm2
I0403 14:18:14.155499 29541 net.cpp:399] pool2 -> pool2
I0403 14:18:14.155555 29541 net.cpp:141] Setting up pool2
I0403 14:18:14.155580 29541 net.cpp:148] Top shape: 100 256 13 13 (4326400)
I0403 14:18:14.155594 29541 net.cpp:156] Memory required for data: 679564400
I0403 14:18:14.155609 29541 layer_factory.hpp:77] Creating layer conv3
I0403 14:18:14.155633 29541 net.cpp:91] Creating Layer conv3
I0403 14:18:14.155653 29541 net.cpp:425] conv3 <- pool2
I0403 14:18:14.155675 29541 net.cpp:399] conv3 -> conv3
I0403 14:18:14.203627 29541 net.cpp:141] Setting up conv3
I0403 14:18:14.203680 29541 net.cpp:148] Top shape: 100 384 13 13 (6489600)
I0403 14:18:14.203699 29541 net.cpp:156] Memory required for data: 705522800
I0403 14:18:14.203727 29541 layer_factory.hpp:77] Creating layer relu3
I0403 14:18:14.203748 29541 net.cpp:91] Creating Layer relu3
I0403 14:18:14.203766 29541 net.cpp:425] relu3 <- conv3
I0403 14:18:14.203786 29541 net.cpp:386] relu3 -> conv3 (in-place)
I0403 14:18:14.204071 29541 net.cpp:141] Setting up relu3
I0403 14:18:14.204102 29541 net.cpp:148] Top shape: 100 384 13 13 (6489600)
I0403 14:18:14.204120 29541 net.cpp:156] Memory required for data: 731481200
I0403 14:18:14.204138 29541 layer_factory.hpp:77] Creating layer conv4
I0403 14:18:14.204164 29541 net.cpp:91] Creating Layer conv4
I0403 14:18:14.204183 29541 net.cpp:425] conv4 <- conv3
I0403 14:18:14.204205 29541 net.cpp:399] conv4 -> conv4
I0403 14:18:14.235606 29541 net.cpp:141] Setting up conv4
I0403 14:18:14.235678 29541 net.cpp:148] Top shape: 100 384 13 13 (6489600)
I0403 14:18:14.235730 29541 net.cpp:156] Memory required for data: 757439600
I0403 14:18:14.235754 29541 layer_factory.hpp:77] Creating layer relu4
I0403 14:18:14.235780 29541 net.cpp:91] Creating Layer relu4
I0403 14:18:14.235802 29541 net.cpp:425] relu4 <- conv4
I0403 14:18:14.235823 29541 net.cpp:386] relu4 -> conv4 (in-place)
I0403 14:18:14.236125 29541 net.cpp:141] Setting up relu4
I0403 14:18:14.236153 29541 net.cpp:148] Top shape: 100 384 13 13 (6489600)
I0403 14:18:14.236169 29541 net.cpp:156] Memory required for data: 783398000
I0403 14:18:14.236186 29541 layer_factory.hpp:77] Creating layer conv5
I0403 14:18:14.236213 29541 net.cpp:91] Creating Layer conv5
I0403 14:18:14.236232 29541 net.cpp:425] conv5 <- conv4
I0403 14:18:14.236268 29541 net.cpp:399] conv5 -> conv5
I0403 14:18:14.257416 29541 net.cpp:141] Setting up conv5
I0403 14:18:14.257449 29541 net.cpp:148] Top shape: 100 256 13 13 (4326400)
I0403 14:18:14.257467 29541 net.cpp:156] Memory required for data: 800703600
I0403 14:18:14.257490 29541 layer_factory.hpp:77] Creating layer relu5
I0403 14:18:14.257515 29541 net.cpp:91] Creating Layer relu5
I0403 14:18:14.257535 29541 net.cpp:425] relu5 <- conv5
I0403 14:18:14.257555 29541 net.cpp:386] relu5 -> conv5 (in-place)
I0403 14:18:14.257839 29541 net.cpp:141] Setting up relu5
I0403 14:18:14.257871 29541 net.cpp:148] Top shape: 100 256 13 13 (4326400)
I0403 14:18:14.257889 29541 net.cpp:156] Memory required for data: 818009200
I0403 14:18:14.257905 29541 layer_factory.hpp:77] Creating layer pool5
I0403 14:18:14.257930 29541 net.cpp:91] Creating Layer pool5
I0403 14:18:14.257947 29541 net.cpp:425] pool5 <- conv5
I0403 14:18:14.257969 29541 net.cpp:399] pool5 -> pool5
I0403 14:18:14.258034 29541 net.cpp:141] Setting up pool5
I0403 14:18:14.258062 29541 net.cpp:148] Top shape: 100 256 6 6 (921600)
I0403 14:18:14.258079 29541 net.cpp:156] Memory required for data: 821695600
I0403 14:18:14.258095 29541 layer_factory.hpp:77] Creating layer fc6
I0403 14:18:14.258122 29541 net.cpp:91] Creating Layer fc6
I0403 14:18:14.258139 29541 net.cpp:425] fc6 <- pool5
I0403 14:18:14.258162 29541 net.cpp:399] fc6 -> fc6
I0403 14:18:15.824429 29541 net.cpp:141] Setting up fc6
I0403 14:18:15.824489 29541 net.cpp:148] Top shape: 100 4096 (409600)
I0403 14:18:15.824507 29541 net.cpp:156] Memory required for data: 823334000
I0403 14:18:15.824530 29541 layer_factory.hpp:77] Creating layer relu6
I0403 14:18:15.824556 29541 net.cpp:91] Creating Layer relu6
I0403 14:18:15.824578 29541 net.cpp:425] relu6 <- fc6
I0403 14:18:15.824597 29541 net.cpp:386] relu6 -> fc6 (in-place)
I0403 14:18:15.824831 29541 net.cpp:141] Setting up relu6
I0403 14:18:15.824856 29541 net.cpp:148] Top shape: 100 4096 (409600)
I0403 14:18:15.824872 29541 net.cpp:156] Memory required for data: 824972400
I0403 14:18:15.824887 29541 layer_factory.hpp:77] Creating layer drop6
I0403 14:18:15.824908 29541 net.cpp:91] Creating Layer drop6
I0403 14:18:15.824924 29541 net.cpp:425] drop6 <- fc6
I0403 14:18:15.824942 29541 net.cpp:386] drop6 -> fc6 (in-place)
I0403 14:18:15.824995 29541 net.cpp:141] Setting up drop6
I0403 14:18:15.825019 29541 net.cpp:148] Top shape: 100 4096 (409600)
I0403 14:18:15.825034 29541 net.cpp:156] Memory required for data: 826610800
I0403 14:18:15.825049 29541 layer_factory.hpp:77] Creating layer fc7
I0403 14:18:15.825073 29541 net.cpp:91] Creating Layer fc7
I0403 14:18:15.825090 29541 net.cpp:425] fc7 <- fc6
I0403 14:18:15.825109 29541 net.cpp:399] fc7 -> fc7
I0403 14:18:16.503329 29541 net.cpp:141] Setting up fc7
I0403 14:18:16.503372 29541 net.cpp:148] Top shape: 100 4096 (409600)
I0403 14:18:16.503391 29541 net.cpp:156] Memory required for data: 828249200
I0403 14:18:16.503412 29541 layer_factory.hpp:77] Creating layer relu7
I0403 14:18:16.503433 29541 net.cpp:91] Creating Layer relu7
I0403 14:18:16.503451 29541 net.cpp:425] relu7 <- fc7
I0403 14:18:16.503471 29541 net.cpp:386] relu7 -> fc7 (in-place)
I0403 14:18:16.503860 29541 net.cpp:141] Setting up relu7
I0403 14:18:16.503890 29541 net.cpp:148] Top shape: 100 4096 (409600)
I0403 14:18:16.503937 29541 net.cpp:156] Memory required for data: 829887600
I0403 14:18:16.503954 29541 layer_factory.hpp:77] Creating layer drop7
I0403 14:18:16.503974 29541 net.cpp:91] Creating Layer drop7
I0403 14:18:16.503990 29541 net.cpp:425] drop7 <- fc7
I0403 14:18:16.504009 29541 net.cpp:386] drop7 -> fc7 (in-place)
I0403 14:18:16.504056 29541 net.cpp:141] Setting up drop7
I0403 14:18:16.504079 29541 net.cpp:148] Top shape: 100 4096 (409600)
I0403 14:18:16.504096 29541 net.cpp:156] Memory required for data: 831526000
I0403 14:18:16.504112 29541 layer_factory.hpp:77] Creating layer fc8_plantvillage
I0403 14:18:16.504134 29541 net.cpp:91] Creating Layer fc8_plantvillage
I0403 14:18:16.504151 29541 net.cpp:425] fc8_plantvillage <- fc7
I0403 14:18:16.504169 29541 net.cpp:399] fc8_plantvillage -> fc8_plantvillage
I0403 14:18:16.510900 29541 net.cpp:141] Setting up fc8_plantvillage
I0403 14:18:16.510929 29541 net.cpp:148] Top shape: 100 38 (3800)
I0403 14:18:16.510946 29541 net.cpp:156] Memory required for data: 831541200
I0403 14:18:16.510963 29541 layer_factory.hpp:77] Creating layer fc8_plantvillage_fc8_plantvillage_0_split
I0403 14:18:16.510985 29541 net.cpp:91] Creating Layer fc8_plantvillage_fc8_plantvillage_0_split
I0403 14:18:16.511003 29541 net.cpp:425] fc8_plantvillage_fc8_plantvillage_0_split <- fc8_plantvillage
I0403 14:18:16.511025 29541 net.cpp:399] fc8_plantvillage_fc8_plantvillage_0_split -> fc8_plantvillage_fc8_plantvillage_0_split_0
I0403 14:18:16.511047 29541 net.cpp:399] fc8_plantvillage_fc8_plantvillage_0_split -> fc8_plantvillage_fc8_plantvillage_0_split_1
I0403 14:18:16.511068 29541 net.cpp:399] fc8_plantvillage_fc8_plantvillage_0_split -> fc8_plantvillage_fc8_plantvillage_0_split_2
I0403 14:18:16.511145 29541 net.cpp:141] Setting up fc8_plantvillage_fc8_plantvillage_0_split
I0403 14:18:16.511169 29541 net.cpp:148] Top shape: 100 38 (3800)
I0403 14:18:16.511186 29541 net.cpp:148] Top shape: 100 38 (3800)
I0403 14:18:16.511204 29541 net.cpp:148] Top shape: 100 38 (3800)
I0403 14:18:16.511219 29541 net.cpp:156] Memory required for data: 831586800
I0403 14:18:16.511234 29541 layer_factory.hpp:77] Creating layer prob
I0403 14:18:16.511255 29541 net.cpp:91] Creating Layer prob
I0403 14:18:16.511272 29541 net.cpp:425] prob <- fc8_plantvillage_fc8_plantvillage_0_split_0
I0403 14:18:16.511297 29541 net.cpp:399] prob -> prob
I0403 14:18:16.511523 29541 net.cpp:141] Setting up prob
I0403 14:18:16.511549 29541 net.cpp:148] Top shape: 100 38 (3800)
I0403 14:18:16.511569 29541 net.cpp:156] Memory required for data: 831602000
I0403 14:18:16.511585 29541 layer_factory.hpp:77] Creating layer hdf5out
I0403 14:18:16.511605 29541 net.cpp:91] Creating Layer hdf5out
I0403 14:18:16.511622 29541 net.cpp:425] hdf5out <- prob
I0403 14:18:16.511638 29541 net.cpp:425] hdf5out <- label_data_1_split_0
I0403 14:18:16.523969 29541 net.cpp:141] Setting up hdf5out
…
