…
I0403 14:19:41.689074 29582 net.cpp:313] The NetState phase (1) differed from the phase (0) specified by a rule in layer data
I0403 14:19:41.689385 29582 net.cpp:49] Initializing net from parameters: 
state {
  phase: TEST
}
layer {
  name: "data"
  type: "Data"
  top: "data"
  top: "label"
  include {
    phase: TEST
  }
  transform_param {
    crop_size: 227
    mean_file: "/home/mohanty/data/final_dataset/lmdb/color-20-80/mean.binaryproto"
  }
  data_param {
    source: "/home/mohanty/data/final_dataset/lmdb/color-20-80/test_db"
    batch_size: 100
    backend: LMDB
  }
}
layer {
  name: "conv1"
  type: "Convolution"
  bottom: "data"
  top: "conv1"
  param {
    lr_mult: 1
    decay_mult: 1
  }
  param {
    lr_mult: 2
    decay_mult: 0
  }
  convolution_param {
    num_output: 96
    kernel_size: 11
    stride: 4
    weight_filler {
      type: "gaussian"
      std: 0.01
    }
    bias_filler {
      type: "constant"
      value: 0
    }
  }
}
layer {
  name: "relu1"
  type: "ReLU"
  bottom: "conv1"
  top: "conv1"
}
layer {
  name: "norm1"
  type: "LRN"
  bottom: "conv1"
  top: "norm1"
  lrn_param {
    local_size: 5
    alpha: 0.0001
    beta: 0.75
  }
}
layer {
  name: "pool1"
  type: "Pooling"
  bottom: "norm1"
  top: "pool1"
  pooling_param {
    pool: MAX
    kernel_size: 3
    stride: 2
  }
}
layer {
  name: "conv2"
  type: "Convolution"
  bottom: "pool1"
  top: "conv2"
  param {
    lr_mult: 1
    decay_mult: 1
  }
  param {
    lr_mult: 2
    decay_mult: 0
  }
  convolution_param {
    num_output: 256
    pad: 2
    kernel_size: 5
    group: 2
    weight_filler {
      type: "gaussian"
      std: 0.01
    }
    bias_filler {
      type: "constant"
      value: 0.1
    }
  }
}
layer {
  name: "relu2"
  type: "ReLU"
  bottom: "conv2"
  top: "conv2"
}
layer {
  name: "norm2"
  type: "LRN"
  bottom: "conv2"
  top: "norm2"
  lrn_param {
    local_size: 5
    alpha: 0.0001
    beta: 0.75
  }
}
layer {
  name: "pool2"
  type: "Pooling"
  bottom: "norm2"
  top: "pool2"
  pooling_param {
    pool: MAX
    kernel_size: 3
    stride: 2
  }
}
layer {
  name: "conv3"
  type: "Convolution"
  bottom: "pool2"
  top: "conv3"
  param {
    lr_mult: 1
    decay_mult: 1
  }
  param {
    lr_mult: 2
    decay_mult: 0
  }
  convolution_param {
    num_output: 384
    pad: 1
    kernel_size: 3
    weight_filler {
      type: "gaussian"
      std: 0.01
    }
    bias_filler {
      type: "constant"
      value: 0
    }
  }
}
layer {
  name: "relu3"
  type: "ReLU"
  bottom: "conv3"
  top: "conv3"
}
layer {
  name: "conv4"
  type: "Convolution"
  bottom: "conv3"
  top: "conv4"
  param {
    lr_mult: 1
    decay_mult: 1
  }
  param {
    lr_mult: 2
    decay_mult: 0
  }
  convolution_param {
    num_output: 384
    pad: 1
    kernel_size: 3
    group: 2
    weight_filler {
      type: "gaussian"
      std: 0.01
    }
    bias_filler {
      type: "constant"
      value: 0.1
    }
  }
}
layer {
  name: "relu4"
  type: "ReLU"
  bottom: "conv4"
  top: "conv4"
}
layer {
  name: "conv5"
  type: "Convolution"
  bottom: "conv4"
  top: "conv5"
  param {
    lr_mult: 1
    decay_mult: 1
  }
  param {
    lr_mult: 2
    decay_mult: 0
  }
  convolution_param {
    num_output: 256
    pad: 1
    kernel_size: 3
    group: 2
    weight_filler {
      type: "gaussian"
      std: 0.01
    }
    bias_filler {
      type: "constant"
      value: 0.1
    }
  }
}
layer {
  name: "relu5"
  type: "ReLU"
  bottom: "conv5"
  top: "conv5"
}
layer {
  name: "pool5"
  type: "Pooling"
  bottom: "conv5"
  top: "pool5"
  pooling_param {
    pool: MAX
    kernel_size: 3
    stride: 2
  }
}
layer {
  name: "fc6"
  type: "InnerProduct"
  bottom: "pool5"
  top: "fc6"
  param {
    lr_mult: 1
    decay_mult: 1
  }
  param {
    lr_mult: 2
    decay_mult: 0
  }
  inner_product_param {
    num_output: 4096
    weight_filler {
      type: "gaussian"
      std: 0.005
    }
    bias_filler {
      type: "constant"
      value: 0.1
    }
  }
}
layer {
  name: "relu6"
  type: "ReLU"
  bottom: "fc6"
  top: "fc6"
}
layer {
  name: "drop6"
  type: "Dropout"
  bottom: "fc6"
  top: "fc6"
  dropout_param {
    dropout_ratio: 0.5
  }
}
layer {
  name: "fc7"
  type: "InnerProduct"
  bottom: "fc6"
  top: "fc7"
  param {
    lr_mult: 1
    decay_mult: 1
  }
  param {
    lr_mult: 2
    decay_mult: 0
  }
  inner_product_param {
    num_output: 4096
    weight_filler {
      type: "gaussian"
      std: 0.005
    }
    bias_filler {
      type: "constant"
      value: 0.1
    }
  }
}
layer {
  name: "relu7"
  type: "ReLU"
  bottom: "fc7"
  top: "fc7"
}
layer {
  name: "drop7"
  type: "Dropout"
  bottom: "fc7"
  top: "fc7"
  dropout_param {
    dropout_ratio: 0.5
  }
}
layer {
  name: "fc8_plantvillage"
  type: "InnerProduct"
  bottom: "fc7"
  top: "fc8_plantvillage"
  param {
    lr_mult: 1
    decay_mult: 1
  }
  param {
    lr_mult: 2
    decay_mult: 0
  }
  inner_product_param {
    num_output: 38
    weight_filler {
      type: "gaussian"
      std: 0.01
    }
    bias_filler {
      type: "constant"
      value: 0
    }
  }
}
layer {
  name: "prob"
  type: "Softmax"
  bottom: "fc8_plantvillage"
  top: "prob"
  include {
    phase: TEST
  }
}
layer {
  name: "hdf5out"
  type: "HDF5Output"
  bottom: "prob"
  bottom: "label"
  include {
    phase: TEST
  }
  hdf5_output_param {
    file_name: "hdf5_dumps/iter_1188.h5"
  }
}
layer {
  name: "loss"
  type: "SoftmaxWithLoss"
  bottom: "fc8_plantvillage"
  bottom: "label"
  top: "loss"
}
layer {
  name: "accuracy"
  type: "Accuracy"
  bottom: "fc8_plantvillage"
  bottom: "label"
  top: "accuracy"
  include {
    phase: TEST
  }
}
I0403 14:19:41.689983 29582 layer_factory.hpp:77] Creating layer data
I0403 14:19:41.690621 29582 net.cpp:91] Creating Layer data
I0403 14:19:41.690654 29582 net.cpp:399] data -> data
I0403 14:19:41.690706 29582 net.cpp:399] data -> label
I0403 14:19:41.690743 29582 data_transformer.cpp:25] Loading mean file from: /home/mohanty/data/final_dataset/lmdb/color-20-80/mean.binaryproto
I0403 14:19:41.693400 29585 db_lmdb.cpp:38] Opened lmdb /home/mohanty/data/final_dataset/lmdb/color-20-80/test_db
I0403 14:19:41.704912 29582 data_layer.cpp:41] output data size: 100,3,227,227
I0403 14:19:41.838165 29582 net.cpp:141] Setting up data
I0403 14:19:41.838234 29582 net.cpp:148] Top shape: 100 3 227 227 (15458700)
I0403 14:19:41.838258 29582 net.cpp:148] Top shape: 100 (100)
I0403 14:19:41.838275 29582 net.cpp:156] Memory required for data: 61835200
I0403 14:19:41.838310 29582 layer_factory.hpp:77] Creating layer label_data_1_split
I0403 14:19:41.838338 29582 net.cpp:91] Creating Layer label_data_1_split
I0403 14:19:41.838358 29582 net.cpp:425] label_data_1_split <- label
I0403 14:19:41.838390 29582 net.cpp:399] label_data_1_split -> label_data_1_split_0
I0403 14:19:41.838419 29582 net.cpp:399] label_data_1_split -> label_data_1_split_1
I0403 14:19:41.838441 29582 net.cpp:399] label_data_1_split -> label_data_1_split_2
I0403 14:19:41.838506 29582 net.cpp:141] Setting up label_data_1_split
I0403 14:19:41.838533 29582 net.cpp:148] Top shape: 100 (100)
I0403 14:19:41.838551 29582 net.cpp:148] Top shape: 100 (100)
I0403 14:19:41.838568 29582 net.cpp:148] Top shape: 100 (100)
I0403 14:19:41.838583 29582 net.cpp:156] Memory required for data: 61836400
I0403 14:19:41.838599 29582 layer_factory.hpp:77] Creating layer conv1
I0403 14:19:41.838632 29582 net.cpp:91] Creating Layer conv1
I0403 14:19:41.838652 29582 net.cpp:425] conv1 <- data
I0403 14:19:41.838675 29582 net.cpp:399] conv1 -> conv1
I0403 14:19:41.985867 29582 net.cpp:141] Setting up conv1
I0403 14:19:41.985929 29582 net.cpp:148] Top shape: 100 96 55 55 (29040000)
I0403 14:19:41.985949 29582 net.cpp:156] Memory required for data: 177996400
I0403 14:19:41.985980 29582 layer_factory.hpp:77] Creating layer relu1
I0403 14:19:41.986009 29582 net.cpp:91] Creating Layer relu1
I0403 14:19:41.986029 29582 net.cpp:425] relu1 <- conv1
I0403 14:19:41.986050 29582 net.cpp:386] relu1 -> conv1 (in-place)
I0403 14:19:41.986315 29582 net.cpp:141] Setting up relu1
I0403 14:19:41.986410 29582 net.cpp:148] Top shape: 100 96 55 55 (29040000)
I0403 14:19:41.986433 29582 net.cpp:156] Memory required for data: 294156400
I0403 14:19:41.986475 29582 layer_factory.hpp:77] Creating layer norm1
I0403 14:19:41.986505 29582 net.cpp:91] Creating Layer norm1
I0403 14:19:41.986523 29582 net.cpp:425] norm1 <- conv1
I0403 14:19:41.986542 29582 net.cpp:399] norm1 -> norm1
I0403 14:19:41.986848 29582 net.cpp:141] Setting up norm1
I0403 14:19:41.986877 29582 net.cpp:148] Top shape: 100 96 55 55 (29040000)
I0403 14:19:41.986893 29582 net.cpp:156] Memory required for data: 410316400
I0403 14:19:41.986910 29582 layer_factory.hpp:77] Creating layer pool1
I0403 14:19:41.986933 29582 net.cpp:91] Creating Layer pool1
I0403 14:19:41.986951 29582 net.cpp:425] pool1 <- norm1
I0403 14:19:41.986971 29582 net.cpp:399] pool1 -> pool1
I0403 14:19:41.987037 29582 net.cpp:141] Setting up pool1
I0403 14:19:41.987062 29582 net.cpp:148] Top shape: 100 96 27 27 (6998400)
I0403 14:19:41.987077 29582 net.cpp:156] Memory required for data: 438310000
I0403 14:19:41.987092 29582 layer_factory.hpp:77] Creating layer conv2
I0403 14:19:41.987118 29582 net.cpp:91] Creating Layer conv2
I0403 14:19:41.987135 29582 net.cpp:425] conv2 <- pool1
I0403 14:19:41.987155 29582 net.cpp:399] conv2 -> conv2
I0403 14:19:42.002377 29582 net.cpp:141] Setting up conv2
I0403 14:19:42.002430 29582 net.cpp:148] Top shape: 100 256 27 27 (18662400)
I0403 14:19:42.002449 29582 net.cpp:156] Memory required for data: 512959600
I0403 14:19:42.002473 29582 layer_factory.hpp:77] Creating layer relu2
I0403 14:19:42.002493 29582 net.cpp:91] Creating Layer relu2
I0403 14:19:42.002511 29582 net.cpp:425] relu2 <- conv2
I0403 14:19:42.002532 29582 net.cpp:386] relu2 -> conv2 (in-place)
I0403 14:19:42.002799 29582 net.cpp:141] Setting up relu2
I0403 14:19:42.002828 29582 net.cpp:148] Top shape: 100 256 27 27 (18662400)
I0403 14:19:42.002846 29582 net.cpp:156] Memory required for data: 587609200
I0403 14:19:42.002863 29582 layer_factory.hpp:77] Creating layer norm2
I0403 14:19:42.002885 29582 net.cpp:91] Creating Layer norm2
I0403 14:19:42.002902 29582 net.cpp:425] norm2 <- conv2
I0403 14:19:42.002921 29582 net.cpp:399] norm2 -> norm2
I0403 14:19:42.003105 29582 net.cpp:141] Setting up norm2
I0403 14:19:42.003134 29582 net.cpp:148] Top shape: 100 256 27 27 (18662400)
I0403 14:19:42.003149 29582 net.cpp:156] Memory required for data: 662258800
I0403 14:19:42.003165 29582 layer_factory.hpp:77] Creating layer pool2
I0403 14:19:42.003185 29582 net.cpp:91] Creating Layer pool2
I0403 14:19:42.003201 29582 net.cpp:425] pool2 <- norm2
I0403 14:19:42.003219 29582 net.cpp:399] pool2 -> pool2
I0403 14:19:42.003270 29582 net.cpp:141] Setting up pool2
I0403 14:19:42.003300 29582 net.cpp:148] Top shape: 100 256 13 13 (4326400)
I0403 14:19:42.003316 29582 net.cpp:156] Memory required for data: 679564400
I0403 14:19:42.003332 29582 layer_factory.hpp:77] Creating layer conv3
I0403 14:19:42.003355 29582 net.cpp:91] Creating Layer conv3
I0403 14:19:42.003371 29582 net.cpp:425] conv3 <- pool2
I0403 14:19:42.003391 29582 net.cpp:399] conv3 -> conv3
I0403 14:19:42.050904 29582 net.cpp:141] Setting up conv3
I0403 14:19:42.050967 29582 net.cpp:148] Top shape: 100 384 13 13 (6489600)
I0403 14:19:42.050986 29582 net.cpp:156] Memory required for data: 705522800
I0403 14:19:42.051012 29582 layer_factory.hpp:77] Creating layer relu3
I0403 14:19:42.051035 29582 net.cpp:91] Creating Layer relu3
I0403 14:19:42.051053 29582 net.cpp:425] relu3 <- conv3
I0403 14:19:42.051072 29582 net.cpp:386] relu3 -> conv3 (in-place)
I0403 14:19:42.051339 29582 net.cpp:141] Setting up relu3
I0403 14:19:42.051367 29582 net.cpp:148] Top shape: 100 384 13 13 (6489600)
I0403 14:19:42.051383 29582 net.cpp:156] Memory required for data: 731481200
I0403 14:19:42.051399 29582 layer_factory.hpp:77] Creating layer conv4
I0403 14:19:42.051426 29582 net.cpp:91] Creating Layer conv4
I0403 14:19:42.051445 29582 net.cpp:425] conv4 <- conv3
I0403 14:19:42.051465 29582 net.cpp:399] conv4 -> conv4
I0403 14:19:42.081543 29582 net.cpp:141] Setting up conv4
I0403 14:19:42.081593 29582 net.cpp:148] Top shape: 100 384 13 13 (6489600)
I0403 14:19:42.081641 29582 net.cpp:156] Memory required for data: 757439600
I0403 14:19:42.081663 29582 layer_factory.hpp:77] Creating layer relu4
I0403 14:19:42.081687 29582 net.cpp:91] Creating Layer relu4
I0403 14:19:42.081707 29582 net.cpp:425] relu4 <- conv4
I0403 14:19:42.081725 29582 net.cpp:386] relu4 -> conv4 (in-place)
I0403 14:19:42.082010 29582 net.cpp:141] Setting up relu4
I0403 14:19:42.082037 29582 net.cpp:148] Top shape: 100 384 13 13 (6489600)
I0403 14:19:42.082054 29582 net.cpp:156] Memory required for data: 783398000
I0403 14:19:42.082070 29582 layer_factory.hpp:77] Creating layer conv5
I0403 14:19:42.082098 29582 net.cpp:91] Creating Layer conv5
I0403 14:19:42.082118 29582 net.cpp:425] conv5 <- conv4
I0403 14:19:42.082140 29582 net.cpp:399] conv5 -> conv5
I0403 14:19:42.103121 29582 net.cpp:141] Setting up conv5
I0403 14:19:42.103174 29582 net.cpp:148] Top shape: 100 256 13 13 (4326400)
I0403 14:19:42.103194 29582 net.cpp:156] Memory required for data: 800703600
I0403 14:19:42.103222 29582 layer_factory.hpp:77] Creating layer relu5
I0403 14:19:42.103245 29582 net.cpp:91] Creating Layer relu5
I0403 14:19:42.103263 29582 net.cpp:425] relu5 <- conv5
I0403 14:19:42.103282 29582 net.cpp:386] relu5 -> conv5 (in-place)
I0403 14:19:42.103574 29582 net.cpp:141] Setting up relu5
I0403 14:19:42.103603 29582 net.cpp:148] Top shape: 100 256 13 13 (4326400)
I0403 14:19:42.103621 29582 net.cpp:156] Memory required for data: 818009200
I0403 14:19:42.103638 29582 layer_factory.hpp:77] Creating layer pool5
I0403 14:19:42.103662 29582 net.cpp:91] Creating Layer pool5
I0403 14:19:42.103677 29582 net.cpp:425] pool5 <- conv5
I0403 14:19:42.103700 29582 net.cpp:399] pool5 -> pool5
I0403 14:19:42.103767 29582 net.cpp:141] Setting up pool5
I0403 14:19:42.103793 29582 net.cpp:148] Top shape: 100 256 6 6 (921600)
I0403 14:19:42.103809 29582 net.cpp:156] Memory required for data: 821695600
I0403 14:19:42.103824 29582 layer_factory.hpp:77] Creating layer fc6
I0403 14:19:42.103854 29582 net.cpp:91] Creating Layer fc6
I0403 14:19:42.103874 29582 net.cpp:425] fc6 <- pool5
I0403 14:19:42.103896 29582 net.cpp:399] fc6 -> fc6
I0403 14:19:43.656569 29582 net.cpp:141] Setting up fc6
I0403 14:19:43.656638 29582 net.cpp:148] Top shape: 100 4096 (409600)
I0403 14:19:43.656656 29582 net.cpp:156] Memory required for data: 823334000
I0403 14:19:43.656677 29582 layer_factory.hpp:77] Creating layer relu6
I0403 14:19:43.656699 29582 net.cpp:91] Creating Layer relu6
I0403 14:19:43.656716 29582 net.cpp:425] relu6 <- fc6
I0403 14:19:43.656739 29582 net.cpp:386] relu6 -> fc6 (in-place)
I0403 14:19:43.656949 29582 net.cpp:141] Setting up relu6
I0403 14:19:43.656975 29582 net.cpp:148] Top shape: 100 4096 (409600)
I0403 14:19:43.656991 29582 net.cpp:156] Memory required for data: 824972400
I0403 14:19:43.657007 29582 layer_factory.hpp:77] Creating layer drop6
I0403 14:19:43.657026 29582 net.cpp:91] Creating Layer drop6
I0403 14:19:43.657042 29582 net.cpp:425] drop6 <- fc6
I0403 14:19:43.657059 29582 net.cpp:386] drop6 -> fc6 (in-place)
I0403 14:19:43.657111 29582 net.cpp:141] Setting up drop6
I0403 14:19:43.657135 29582 net.cpp:148] Top shape: 100 4096 (409600)
I0403 14:19:43.657150 29582 net.cpp:156] Memory required for data: 826610800
I0403 14:19:43.657165 29582 layer_factory.hpp:77] Creating layer fc7
I0403 14:19:43.657186 29582 net.cpp:91] Creating Layer fc7
I0403 14:19:43.657202 29582 net.cpp:425] fc7 <- fc6
I0403 14:19:43.657220 29582 net.cpp:399] fc7 -> fc7
I0403 14:19:44.339439 29582 net.cpp:141] Setting up fc7
I0403 14:19:44.339507 29582 net.cpp:148] Top shape: 100 4096 (409600)
I0403 14:19:44.339524 29582 net.cpp:156] Memory required for data: 828249200
I0403 14:19:44.339545 29582 layer_factory.hpp:77] Creating layer relu7
I0403 14:19:44.339570 29582 net.cpp:91] Creating Layer relu7
I0403 14:19:44.339588 29582 net.cpp:425] relu7 <- fc7
I0403 14:19:44.339607 29582 net.cpp:386] relu7 -> fc7 (in-place)
I0403 14:19:44.339980 29582 net.cpp:141] Setting up relu7
I0403 14:19:44.340008 29582 net.cpp:148] Top shape: 100 4096 (409600)
I0403 14:19:44.340054 29582 net.cpp:156] Memory required for data: 829887600
I0403 14:19:44.340070 29582 layer_factory.hpp:77] Creating layer drop7
I0403 14:19:44.340092 29582 net.cpp:91] Creating Layer drop7
I0403 14:19:44.340108 29582 net.cpp:425] drop7 <- fc7
I0403 14:19:44.340126 29582 net.cpp:386] drop7 -> fc7 (in-place)
I0403 14:19:44.340170 29582 net.cpp:141] Setting up drop7
I0403 14:19:44.340193 29582 net.cpp:148] Top shape: 100 4096 (409600)
I0403 14:19:44.340209 29582 net.cpp:156] Memory required for data: 831526000
I0403 14:19:44.340224 29582 layer_factory.hpp:77] Creating layer fc8_plantvillage
I0403 14:19:44.340245 29582 net.cpp:91] Creating Layer fc8_plantvillage
I0403 14:19:44.340260 29582 net.cpp:425] fc8_plantvillage <- fc7
I0403 14:19:44.340279 29582 net.cpp:399] fc8_plantvillage -> fc8_plantvillage
I0403 14:19:44.346884 29582 net.cpp:141] Setting up fc8_plantvillage
I0403 14:19:44.346915 29582 net.cpp:148] Top shape: 100 38 (3800)
I0403 14:19:44.346931 29582 net.cpp:156] Memory required for data: 831541200
I0403 14:19:44.346951 29582 layer_factory.hpp:77] Creating layer fc8_plantvillage_fc8_plantvillage_0_split
I0403 14:19:44.346968 29582 net.cpp:91] Creating Layer fc8_plantvillage_fc8_plantvillage_0_split
I0403 14:19:44.346984 29582 net.cpp:425] fc8_plantvillage_fc8_plantvillage_0_split <- fc8_plantvillage
I0403 14:19:44.347002 29582 net.cpp:399] fc8_plantvillage_fc8_plantvillage_0_split -> fc8_plantvillage_fc8_plantvillage_0_split_0
I0403 14:19:44.347021 29582 net.cpp:399] fc8_plantvillage_fc8_plantvillage_0_split -> fc8_plantvillage_fc8_plantvillage_0_split_1
I0403 14:19:44.347044 29582 net.cpp:399] fc8_plantvillage_fc8_plantvillage_0_split -> fc8_plantvillage_fc8_plantvillage_0_split_2
I0403 14:19:44.347123 29582 net.cpp:141] Setting up fc8_plantvillage_fc8_plantvillage_0_split
I0403 14:19:44.347146 29582 net.cpp:148] Top shape: 100 38 (3800)
I0403 14:19:44.347163 29582 net.cpp:148] Top shape: 100 38 (3800)
I0403 14:19:44.347179 29582 net.cpp:148] Top shape: 100 38 (3800)
I0403 14:19:44.347193 29582 net.cpp:156] Memory required for data: 831586800
I0403 14:19:44.347208 29582 layer_factory.hpp:77] Creating layer prob
I0403 14:19:44.347226 29582 net.cpp:91] Creating Layer prob
I0403 14:19:44.347241 29582 net.cpp:425] prob <- fc8_plantvillage_fc8_plantvillage_0_split_0
I0403 14:19:44.347259 29582 net.cpp:399] prob -> prob
I0403 14:19:44.347484 29582 net.cpp:141] Setting up prob
I0403 14:19:44.347511 29582 net.cpp:148] Top shape: 100 38 (3800)
I0403 14:19:44.347527 29582 net.cpp:156] Memory required for data: 831602000
I0403 14:19:44.347543 29582 layer_factory.hpp:77] Creating layer hdf5out
I0403 14:19:44.347564 29582 net.cpp:91] Creating Layer hdf5out
I0403 14:19:44.347580 29582 net.cpp:425] hdf5out <- prob
I0403 14:19:44.347596 29582 net.cpp:425] hdf5out <- label_data_1_split_0
I0403 14:19:44.351177 29582 net.cpp:141] Setting up hdf5out
…
