…
I0403 14:15:18.227190 29492 net.cpp:313] The NetState phase (1) differed from the phase (0) specified by a rule in layer data
I0403 14:15:18.227502 29492 net.cpp:49] Initializing net from parameters: 
state {
  phase: TEST
}
layer {
  name: "data"
  type: "Data"
  top: "data"
  top: "label"
  include {
    phase: TEST
  }
  transform_param {
    crop_size: 227
    mean_file: "/home/mohanty/data/final_dataset/lmdb/color-20-80/mean.binaryproto"
  }
  data_param {
    source: "/home/mohanty/data/final_dataset/lmdb/color-20-80/test_db"
    batch_size: 100
    backend: LMDB
  }
}
layer {
  name: "conv1"
  type: "Convolution"
  bottom: "data"
  top: "conv1"
  param {
    lr_mult: 1
    decay_mult: 1
  }
  param {
    lr_mult: 2
    decay_mult: 0
  }
  convolution_param {
    num_output: 96
    kernel_size: 11
    stride: 4
    weight_filler {
      type: "gaussian"
      std: 0.01
    }
    bias_filler {
      type: "constant"
      value: 0
    }
  }
}
layer {
  name: "relu1"
  type: "ReLU"
  bottom: "conv1"
  top: "conv1"
}
layer {
  name: "norm1"
  type: "LRN"
  bottom: "conv1"
  top: "norm1"
  lrn_param {
    local_size: 5
    alpha: 0.0001
    beta: 0.75
  }
}
layer {
  name: "pool1"
  type: "Pooling"
  bottom: "norm1"
  top: "pool1"
  pooling_param {
    pool: MAX
    kernel_size: 3
    stride: 2
  }
}
layer {
  name: "conv2"
  type: "Convolution"
  bottom: "pool1"
  top: "conv2"
  param {
    lr_mult: 1
    decay_mult: 1
  }
  param {
    lr_mult: 2
    decay_mult: 0
  }
  convolution_param {
    num_output: 256
    pad: 2
    kernel_size: 5
    group: 2
    weight_filler {
      type: "gaussian"
      std: 0.01
    }
    bias_filler {
      type: "constant"
      value: 0.1
    }
  }
}
layer {
  name: "relu2"
  type: "ReLU"
  bottom: "conv2"
  top: "conv2"
}
layer {
  name: "norm2"
  type: "LRN"
  bottom: "conv2"
  top: "norm2"
  lrn_param {
    local_size: 5
    alpha: 0.0001
    beta: 0.75
  }
}
layer {
  name: "pool2"
  type: "Pooling"
  bottom: "norm2"
  top: "pool2"
  pooling_param {
    pool: MAX
    kernel_size: 3
    stride: 2
  }
}
layer {
  name: "conv3"
  type: "Convolution"
  bottom: "pool2"
  top: "conv3"
  param {
    lr_mult: 1
    decay_mult: 1
  }
  param {
    lr_mult: 2
    decay_mult: 0
  }
  convolution_param {
    num_output: 384
    pad: 1
    kernel_size: 3
    weight_filler {
      type: "gaussian"
      std: 0.01
    }
    bias_filler {
      type: "constant"
      value: 0
    }
  }
}
layer {
  name: "relu3"
  type: "ReLU"
  bottom: "conv3"
  top: "conv3"
}
layer {
  name: "conv4"
  type: "Convolution"
  bottom: "conv3"
  top: "conv4"
  param {
    lr_mult: 1
    decay_mult: 1
  }
  param {
    lr_mult: 2
    decay_mult: 0
  }
  convolution_param {
    num_output: 384
    pad: 1
    kernel_size: 3
    group: 2
    weight_filler {
      type: "gaussian"
      std: 0.01
    }
    bias_filler {
      type: "constant"
      value: 0.1
    }
  }
}
layer {
  name: "relu4"
  type: "ReLU"
  bottom: "conv4"
  top: "conv4"
}
layer {
  name: "conv5"
  type: "Convolution"
  bottom: "conv4"
  top: "conv5"
  param {
    lr_mult: 1
    decay_mult: 1
  }
  param {
    lr_mult: 2
    decay_mult: 0
  }
  convolution_param {
    num_output: 256
    pad: 1
    kernel_size: 3
    group: 2
    weight_filler {
      type: "gaussian"
      std: 0.01
    }
    bias_filler {
      type: "constant"
      value: 0.1
    }
  }
}
layer {
  name: "relu5"
  type: "ReLU"
  bottom: "conv5"
  top: "conv5"
}
layer {
  name: "pool5"
  type: "Pooling"
  bottom: "conv5"
  top: "pool5"
  pooling_param {
    pool: MAX
    kernel_size: 3
    stride: 2
  }
}
layer {
  name: "fc6"
  type: "InnerProduct"
  bottom: "pool5"
  top: "fc6"
  param {
    lr_mult: 1
    decay_mult: 1
  }
  param {
    lr_mult: 2
    decay_mult: 0
  }
  inner_product_param {
    num_output: 4096
    weight_filler {
      type: "gaussian"
      std: 0.005
    }
    bias_filler {
      type: "constant"
      value: 0.1
    }
  }
}
layer {
  name: "relu6"
  type: "ReLU"
  bottom: "fc6"
  top: "fc6"
}
layer {
  name: "drop6"
  type: "Dropout"
  bottom: "fc6"
  top: "fc6"
  dropout_param {
    dropout_ratio: 0.5
  }
}
layer {
  name: "fc7"
  type: "InnerProduct"
  bottom: "fc6"
  top: "fc7"
  param {
    lr_mult: 1
    decay_mult: 1
  }
  param {
    lr_mult: 2
    decay_mult: 0
  }
  inner_product_param {
    num_output: 4096
    weight_filler {
      type: "gaussian"
      std: 0.005
    }
    bias_filler {
      type: "constant"
      value: 0.1
    }
  }
}
layer {
  name: "relu7"
  type: "ReLU"
  bottom: "fc7"
  top: "fc7"
}
layer {
  name: "drop7"
  type: "Dropout"
  bottom: "fc7"
  top: "fc7"
  dropout_param {
    dropout_ratio: 0.5
  }
}
layer {
  name: "fc8_plantvillage"
  type: "InnerProduct"
  bottom: "fc7"
  top: "fc8_plantvillage"
  param {
    lr_mult: 1
    decay_mult: 1
  }
  param {
    lr_mult: 2
    decay_mult: 0
  }
  inner_product_param {
    num_output: 38
    weight_filler {
      type: "gaussian"
      std: 0.01
    }
    bias_filler {
      type: "constant"
      value: 0
    }
  }
}
layer {
  name: "prob"
  type: "Softmax"
  bottom: "fc8_plantvillage"
  top: "prob"
  include {
    phase: TEST
  }
}
layer {
  name: "hdf5out"
  type: "HDF5Output"
  bottom: "prob"
  bottom: "label"
  include {
    phase: TEST
  }
  hdf5_output_param {
    file_name: "hdf5_dumps/iter_864.h5"
  }
}
layer {
  name: "loss"
  type: "SoftmaxWithLoss"
  bottom: "fc8_plantvillage"
  bottom: "label"
  top: "loss"
}
layer {
  name: "accuracy"
  type: "Accuracy"
  bottom: "fc8_plantvillage"
  bottom: "label"
  top: "accuracy"
  include {
    phase: TEST
  }
}
I0403 14:15:18.228093 29492 layer_factory.hpp:77] Creating layer data
I0403 14:15:18.228734 29492 net.cpp:91] Creating Layer data
I0403 14:15:18.228765 29492 net.cpp:399] data -> data
I0403 14:15:18.228817 29492 net.cpp:399] data -> label
I0403 14:15:18.228853 29492 data_transformer.cpp:25] Loading mean file from: /home/mohanty/data/final_dataset/lmdb/color-20-80/mean.binaryproto
I0403 14:15:18.231392 29495 db_lmdb.cpp:38] Opened lmdb /home/mohanty/data/final_dataset/lmdb/color-20-80/test_db
I0403 14:15:18.242838 29492 data_layer.cpp:41] output data size: 100,3,227,227
I0403 14:15:18.372321 29492 net.cpp:141] Setting up data
I0403 14:15:18.372382 29492 net.cpp:148] Top shape: 100 3 227 227 (15458700)
I0403 14:15:18.372406 29492 net.cpp:148] Top shape: 100 (100)
I0403 14:15:18.372421 29492 net.cpp:156] Memory required for data: 61835200
I0403 14:15:18.372449 29492 layer_factory.hpp:77] Creating layer label_data_1_split
I0403 14:15:18.372475 29492 net.cpp:91] Creating Layer label_data_1_split
I0403 14:15:18.372493 29492 net.cpp:425] label_data_1_split <- label
I0403 14:15:18.372524 29492 net.cpp:399] label_data_1_split -> label_data_1_split_0
I0403 14:15:18.372552 29492 net.cpp:399] label_data_1_split -> label_data_1_split_1
I0403 14:15:18.372575 29492 net.cpp:399] label_data_1_split -> label_data_1_split_2
I0403 14:15:18.372639 29492 net.cpp:141] Setting up label_data_1_split
I0403 14:15:18.372663 29492 net.cpp:148] Top shape: 100 (100)
I0403 14:15:18.372680 29492 net.cpp:148] Top shape: 100 (100)
I0403 14:15:18.372696 29492 net.cpp:148] Top shape: 100 (100)
I0403 14:15:18.372711 29492 net.cpp:156] Memory required for data: 61836400
I0403 14:15:18.372727 29492 layer_factory.hpp:77] Creating layer conv1
I0403 14:15:18.372759 29492 net.cpp:91] Creating Layer conv1
I0403 14:15:18.372779 29492 net.cpp:425] conv1 <- data
I0403 14:15:18.372798 29492 net.cpp:399] conv1 -> conv1
I0403 14:15:18.521762 29492 net.cpp:141] Setting up conv1
I0403 14:15:18.521838 29492 net.cpp:148] Top shape: 100 96 55 55 (29040000)
I0403 14:15:18.521857 29492 net.cpp:156] Memory required for data: 177996400
I0403 14:15:18.521890 29492 layer_factory.hpp:77] Creating layer relu1
I0403 14:15:18.521919 29492 net.cpp:91] Creating Layer relu1
I0403 14:15:18.521937 29492 net.cpp:425] relu1 <- conv1
I0403 14:15:18.521957 29492 net.cpp:386] relu1 -> conv1 (in-place)
I0403 14:15:18.522219 29492 net.cpp:141] Setting up relu1
I0403 14:15:18.522248 29492 net.cpp:148] Top shape: 100 96 55 55 (29040000)
I0403 14:15:18.522264 29492 net.cpp:156] Memory required for data: 294156400
I0403 14:15:18.522317 29492 layer_factory.hpp:77] Creating layer norm1
I0403 14:15:18.522348 29492 net.cpp:91] Creating Layer norm1
I0403 14:15:18.522367 29492 net.cpp:425] norm1 <- conv1
I0403 14:15:18.522387 29492 net.cpp:399] norm1 -> norm1
I0403 14:15:18.522708 29492 net.cpp:141] Setting up norm1
I0403 14:15:18.522738 29492 net.cpp:148] Top shape: 100 96 55 55 (29040000)
I0403 14:15:18.522756 29492 net.cpp:156] Memory required for data: 410316400
I0403 14:15:18.522773 29492 layer_factory.hpp:77] Creating layer pool1
I0403 14:15:18.522797 29492 net.cpp:91] Creating Layer pool1
I0403 14:15:18.522814 29492 net.cpp:425] pool1 <- norm1
I0403 14:15:18.522842 29492 net.cpp:399] pool1 -> pool1
I0403 14:15:18.522910 29492 net.cpp:141] Setting up pool1
I0403 14:15:18.522935 29492 net.cpp:148] Top shape: 100 96 27 27 (6998400)
I0403 14:15:18.522951 29492 net.cpp:156] Memory required for data: 438310000
I0403 14:15:18.522966 29492 layer_factory.hpp:77] Creating layer conv2
I0403 14:15:18.522991 29492 net.cpp:91] Creating Layer conv2
I0403 14:15:18.523008 29492 net.cpp:425] conv2 <- pool1
I0403 14:15:18.523028 29492 net.cpp:399] conv2 -> conv2
I0403 14:15:18.538450 29492 net.cpp:141] Setting up conv2
I0403 14:15:18.538486 29492 net.cpp:148] Top shape: 100 256 27 27 (18662400)
I0403 14:15:18.538504 29492 net.cpp:156] Memory required for data: 512959600
I0403 14:15:18.538527 29492 layer_factory.hpp:77] Creating layer relu2
I0403 14:15:18.538547 29492 net.cpp:91] Creating Layer relu2
I0403 14:15:18.538566 29492 net.cpp:425] relu2 <- conv2
I0403 14:15:18.538589 29492 net.cpp:386] relu2 -> conv2 (in-place)
I0403 14:15:18.538884 29492 net.cpp:141] Setting up relu2
I0403 14:15:18.538914 29492 net.cpp:148] Top shape: 100 256 27 27 (18662400)
I0403 14:15:18.538930 29492 net.cpp:156] Memory required for data: 587609200
I0403 14:15:18.538947 29492 layer_factory.hpp:77] Creating layer norm2
I0403 14:15:18.538975 29492 net.cpp:91] Creating Layer norm2
I0403 14:15:18.538995 29492 net.cpp:425] norm2 <- conv2
I0403 14:15:18.539017 29492 net.cpp:399] norm2 -> norm2
I0403 14:15:18.539230 29492 net.cpp:141] Setting up norm2
I0403 14:15:18.539258 29492 net.cpp:148] Top shape: 100 256 27 27 (18662400)
I0403 14:15:18.539274 29492 net.cpp:156] Memory required for data: 662258800
I0403 14:15:18.539297 29492 layer_factory.hpp:77] Creating layer pool2
I0403 14:15:18.539319 29492 net.cpp:91] Creating Layer pool2
I0403 14:15:18.539336 29492 net.cpp:425] pool2 <- norm2
I0403 14:15:18.539357 29492 net.cpp:399] pool2 -> pool2
I0403 14:15:18.539413 29492 net.cpp:141] Setting up pool2
I0403 14:15:18.539439 29492 net.cpp:148] Top shape: 100 256 13 13 (4326400)
I0403 14:15:18.539487 29492 net.cpp:156] Memory required for data: 679564400
I0403 14:15:18.539505 29492 layer_factory.hpp:77] Creating layer conv3
I0403 14:15:18.539533 29492 net.cpp:91] Creating Layer conv3
I0403 14:15:18.539551 29492 net.cpp:425] conv3 <- pool2
I0403 14:15:18.539572 29492 net.cpp:399] conv3 -> conv3
I0403 14:15:18.589453 29492 net.cpp:141] Setting up conv3
I0403 14:15:18.589529 29492 net.cpp:148] Top shape: 100 384 13 13 (6489600)
I0403 14:15:18.589545 29492 net.cpp:156] Memory required for data: 705522800
I0403 14:15:18.589572 29492 layer_factory.hpp:77] Creating layer relu3
I0403 14:15:18.589598 29492 net.cpp:91] Creating Layer relu3
I0403 14:15:18.589617 29492 net.cpp:425] relu3 <- conv3
I0403 14:15:18.589637 29492 net.cpp:386] relu3 -> conv3 (in-place)
I0403 14:15:18.589929 29492 net.cpp:141] Setting up relu3
I0403 14:15:18.589958 29492 net.cpp:148] Top shape: 100 384 13 13 (6489600)
I0403 14:15:18.589975 29492 net.cpp:156] Memory required for data: 731481200
I0403 14:15:18.589990 29492 layer_factory.hpp:77] Creating layer conv4
I0403 14:15:18.590016 29492 net.cpp:91] Creating Layer conv4
I0403 14:15:18.590036 29492 net.cpp:425] conv4 <- conv3
I0403 14:15:18.590059 29492 net.cpp:399] conv4 -> conv4
I0403 14:15:18.620479 29492 net.cpp:141] Setting up conv4
I0403 14:15:18.620523 29492 net.cpp:148] Top shape: 100 384 13 13 (6489600)
I0403 14:15:18.620571 29492 net.cpp:156] Memory required for data: 757439600
I0403 14:15:18.620594 29492 layer_factory.hpp:77] Creating layer relu4
I0403 14:15:18.620615 29492 net.cpp:91] Creating Layer relu4
I0403 14:15:18.620632 29492 net.cpp:425] relu4 <- conv4
I0403 14:15:18.620661 29492 net.cpp:386] relu4 -> conv4 (in-place)
I0403 14:15:18.620954 29492 net.cpp:141] Setting up relu4
I0403 14:15:18.620985 29492 net.cpp:148] Top shape: 100 384 13 13 (6489600)
I0403 14:15:18.621002 29492 net.cpp:156] Memory required for data: 783398000
I0403 14:15:18.621018 29492 layer_factory.hpp:77] Creating layer conv5
I0403 14:15:18.621052 29492 net.cpp:91] Creating Layer conv5
I0403 14:15:18.621070 29492 net.cpp:425] conv5 <- conv4
I0403 14:15:18.621090 29492 net.cpp:399] conv5 -> conv5
I0403 14:15:18.642568 29492 net.cpp:141] Setting up conv5
I0403 14:15:18.642616 29492 net.cpp:148] Top shape: 100 256 13 13 (4326400)
I0403 14:15:18.642634 29492 net.cpp:156] Memory required for data: 800703600
I0403 14:15:18.642659 29492 layer_factory.hpp:77] Creating layer relu5
I0403 14:15:18.642681 29492 net.cpp:91] Creating Layer relu5
I0403 14:15:18.642699 29492 net.cpp:425] relu5 <- conv5
I0403 14:15:18.642721 29492 net.cpp:386] relu5 -> conv5 (in-place)
I0403 14:15:18.643010 29492 net.cpp:141] Setting up relu5
I0403 14:15:18.643038 29492 net.cpp:148] Top shape: 100 256 13 13 (4326400)
I0403 14:15:18.643054 29492 net.cpp:156] Memory required for data: 818009200
I0403 14:15:18.643070 29492 layer_factory.hpp:77] Creating layer pool5
I0403 14:15:18.643096 29492 net.cpp:91] Creating Layer pool5
I0403 14:15:18.643115 29492 net.cpp:425] pool5 <- conv5
I0403 14:15:18.643136 29492 net.cpp:399] pool5 -> pool5
I0403 14:15:18.643199 29492 net.cpp:141] Setting up pool5
I0403 14:15:18.643224 29492 net.cpp:148] Top shape: 100 256 6 6 (921600)
I0403 14:15:18.643239 29492 net.cpp:156] Memory required for data: 821695600
I0403 14:15:18.643254 29492 layer_factory.hpp:77] Creating layer fc6
I0403 14:15:18.643296 29492 net.cpp:91] Creating Layer fc6
I0403 14:15:18.643318 29492 net.cpp:425] fc6 <- pool5
I0403 14:15:18.643337 29492 net.cpp:399] fc6 -> fc6
I0403 14:15:20.189193 29492 net.cpp:141] Setting up fc6
I0403 14:15:20.189257 29492 net.cpp:148] Top shape: 100 4096 (409600)
I0403 14:15:20.189275 29492 net.cpp:156] Memory required for data: 823334000
I0403 14:15:20.189303 29492 layer_factory.hpp:77] Creating layer relu6
I0403 14:15:20.189327 29492 net.cpp:91] Creating Layer relu6
I0403 14:15:20.189343 29492 net.cpp:425] relu6 <- fc6
I0403 14:15:20.189364 29492 net.cpp:386] relu6 -> fc6 (in-place)
I0403 14:15:20.189579 29492 net.cpp:141] Setting up relu6
I0403 14:15:20.189604 29492 net.cpp:148] Top shape: 100 4096 (409600)
I0403 14:15:20.189620 29492 net.cpp:156] Memory required for data: 824972400
I0403 14:15:20.189635 29492 layer_factory.hpp:77] Creating layer drop6
I0403 14:15:20.189653 29492 net.cpp:91] Creating Layer drop6
I0403 14:15:20.189668 29492 net.cpp:425] drop6 <- fc6
I0403 14:15:20.189690 29492 net.cpp:386] drop6 -> fc6 (in-place)
I0403 14:15:20.189740 29492 net.cpp:141] Setting up drop6
I0403 14:15:20.189769 29492 net.cpp:148] Top shape: 100 4096 (409600)
I0403 14:15:20.189785 29492 net.cpp:156] Memory required for data: 826610800
I0403 14:15:20.189800 29492 layer_factory.hpp:77] Creating layer fc7
I0403 14:15:20.189821 29492 net.cpp:91] Creating Layer fc7
I0403 14:15:20.189836 29492 net.cpp:425] fc7 <- fc6
I0403 14:15:20.189856 29492 net.cpp:399] fc7 -> fc7
I0403 14:15:20.869338 29492 net.cpp:141] Setting up fc7
I0403 14:15:20.869395 29492 net.cpp:148] Top shape: 100 4096 (409600)
I0403 14:15:20.869411 29492 net.cpp:156] Memory required for data: 828249200
I0403 14:15:20.869433 29492 layer_factory.hpp:77] Creating layer relu7
I0403 14:15:20.869457 29492 net.cpp:91] Creating Layer relu7
I0403 14:15:20.869474 29492 net.cpp:425] relu7 <- fc7
I0403 14:15:20.869496 29492 net.cpp:386] relu7 -> fc7 (in-place)
I0403 14:15:20.869901 29492 net.cpp:141] Setting up relu7
I0403 14:15:20.869928 29492 net.cpp:148] Top shape: 100 4096 (409600)
I0403 14:15:20.869976 29492 net.cpp:156] Memory required for data: 829887600
I0403 14:15:20.869992 29492 layer_factory.hpp:77] Creating layer drop7
I0403 14:15:20.870010 29492 net.cpp:91] Creating Layer drop7
I0403 14:15:20.870028 29492 net.cpp:425] drop7 <- fc7
I0403 14:15:20.870048 29492 net.cpp:386] drop7 -> fc7 (in-place)
I0403 14:15:20.870091 29492 net.cpp:141] Setting up drop7
I0403 14:15:20.870120 29492 net.cpp:148] Top shape: 100 4096 (409600)
I0403 14:15:20.870136 29492 net.cpp:156] Memory required for data: 831526000
I0403 14:15:20.870151 29492 layer_factory.hpp:77] Creating layer fc8_plantvillage
I0403 14:15:20.870170 29492 net.cpp:91] Creating Layer fc8_plantvillage
I0403 14:15:20.870185 29492 net.cpp:425] fc8_plantvillage <- fc7
I0403 14:15:20.870206 29492 net.cpp:399] fc8_plantvillage -> fc8_plantvillage
I0403 14:15:20.877038 29492 net.cpp:141] Setting up fc8_plantvillage
I0403 14:15:20.877066 29492 net.cpp:148] Top shape: 100 38 (3800)
I0403 14:15:20.877082 29492 net.cpp:156] Memory required for data: 831541200
I0403 14:15:20.877101 29492 layer_factory.hpp:77] Creating layer fc8_plantvillage_fc8_plantvillage_0_split
I0403 14:15:20.877120 29492 net.cpp:91] Creating Layer fc8_plantvillage_fc8_plantvillage_0_split
I0403 14:15:20.877135 29492 net.cpp:425] fc8_plantvillage_fc8_plantvillage_0_split <- fc8_plantvillage
I0403 14:15:20.877156 29492 net.cpp:399] fc8_plantvillage_fc8_plantvillage_0_split -> fc8_plantvillage_fc8_plantvillage_0_split_0
I0403 14:15:20.877179 29492 net.cpp:399] fc8_plantvillage_fc8_plantvillage_0_split -> fc8_plantvillage_fc8_plantvillage_0_split_1
I0403 14:15:20.877200 29492 net.cpp:399] fc8_plantvillage_fc8_plantvillage_0_split -> fc8_plantvillage_fc8_plantvillage_0_split_2
I0403 14:15:20.877295 29492 net.cpp:141] Setting up fc8_plantvillage_fc8_plantvillage_0_split
I0403 14:15:20.877318 29492 net.cpp:148] Top shape: 100 38 (3800)
I0403 14:15:20.877334 29492 net.cpp:148] Top shape: 100 38 (3800)
I0403 14:15:20.877349 29492 net.cpp:148] Top shape: 100 38 (3800)
I0403 14:15:20.877363 29492 net.cpp:156] Memory required for data: 831586800
I0403 14:15:20.877378 29492 layer_factory.hpp:77] Creating layer prob
I0403 14:15:20.877395 29492 net.cpp:91] Creating Layer prob
I0403 14:15:20.877410 29492 net.cpp:425] prob <- fc8_plantvillage_fc8_plantvillage_0_split_0
I0403 14:15:20.877431 29492 net.cpp:399] prob -> prob
I0403 14:15:20.877655 29492 net.cpp:141] Setting up prob
I0403 14:15:20.877681 29492 net.cpp:148] Top shape: 100 38 (3800)
I0403 14:15:20.877696 29492 net.cpp:156] Memory required for data: 831602000
I0403 14:15:20.877710 29492 layer_factory.hpp:77] Creating layer hdf5out
I0403 14:15:20.877729 29492 net.cpp:91] Creating Layer hdf5out
I0403 14:15:20.877744 29492 net.cpp:425] hdf5out <- prob
I0403 14:15:20.877759 29492 net.cpp:425] hdf5out <- label_data_1_split_0
I0403 14:15:20.881492 29492 net.cpp:141] Setting up hdf5out
…
