…
I0403 14:47:38.651209 30314 net.cpp:313] The NetState phase (1) differed from the phase (0) specified by a rule in layer data
I0403 14:47:38.651518 30314 net.cpp:49] Initializing net from parameters: 
state {
  phase: TEST
}
layer {
  name: "data"
  type: "Data"
  top: "data"
  top: "label"
  include {
    phase: TEST
  }
  transform_param {
    crop_size: 227
    mean_file: "/home/mohanty/data/final_dataset/lmdb/color-20-80/mean.binaryproto"
  }
  data_param {
    source: "/home/mohanty/data/final_dataset/lmdb/color-20-80/test_db"
    batch_size: 100
    backend: LMDB
  }
}
layer {
  name: "conv1"
  type: "Convolution"
  bottom: "data"
  top: "conv1"
  param {
    lr_mult: 1
    decay_mult: 1
  }
  param {
    lr_mult: 2
    decay_mult: 0
  }
  convolution_param {
    num_output: 96
    kernel_size: 11
    stride: 4
    weight_filler {
      type: "gaussian"
      std: 0.01
    }
    bias_filler {
      type: "constant"
      value: 0
    }
  }
}
layer {
  name: "relu1"
  type: "ReLU"
  bottom: "conv1"
  top: "conv1"
}
layer {
  name: "norm1"
  type: "LRN"
  bottom: "conv1"
  top: "norm1"
  lrn_param {
    local_size: 5
    alpha: 0.0001
    beta: 0.75
  }
}
layer {
  name: "pool1"
  type: "Pooling"
  bottom: "norm1"
  top: "pool1"
  pooling_param {
    pool: MAX
    kernel_size: 3
    stride: 2
  }
}
layer {
  name: "conv2"
  type: "Convolution"
  bottom: "pool1"
  top: "conv2"
  param {
    lr_mult: 1
    decay_mult: 1
  }
  param {
    lr_mult: 2
    decay_mult: 0
  }
  convolution_param {
    num_output: 256
    pad: 2
    kernel_size: 5
    group: 2
    weight_filler {
      type: "gaussian"
      std: 0.01
    }
    bias_filler {
      type: "constant"
      value: 0.1
    }
  }
}
layer {
  name: "relu2"
  type: "ReLU"
  bottom: "conv2"
  top: "conv2"
}
layer {
  name: "norm2"
  type: "LRN"
  bottom: "conv2"
  top: "norm2"
  lrn_param {
    local_size: 5
    alpha: 0.0001
    beta: 0.75
  }
}
layer {
  name: "pool2"
  type: "Pooling"
  bottom: "norm2"
  top: "pool2"
  pooling_param {
    pool: MAX
    kernel_size: 3
    stride: 2
  }
}
layer {
  name: "conv3"
  type: "Convolution"
  bottom: "pool2"
  top: "conv3"
  param {
    lr_mult: 1
    decay_mult: 1
  }
  param {
    lr_mult: 2
    decay_mult: 0
  }
  convolution_param {
    num_output: 384
    pad: 1
    kernel_size: 3
    weight_filler {
      type: "gaussian"
      std: 0.01
    }
    bias_filler {
      type: "constant"
      value: 0
    }
  }
}
layer {
  name: "relu3"
  type: "ReLU"
  bottom: "conv3"
  top: "conv3"
}
layer {
  name: "conv4"
  type: "Convolution"
  bottom: "conv3"
  top: "conv4"
  param {
    lr_mult: 1
    decay_mult: 1
  }
  param {
    lr_mult: 2
    decay_mult: 0
  }
  convolution_param {
    num_output: 384
    pad: 1
    kernel_size: 3
    group: 2
    weight_filler {
      type: "gaussian"
      std: 0.01
    }
    bias_filler {
      type: "constant"
      value: 0.1
    }
  }
}
layer {
  name: "relu4"
  type: "ReLU"
  bottom: "conv4"
  top: "conv4"
}
layer {
  name: "conv5"
  type: "Convolution"
  bottom: "conv4"
  top: "conv5"
  param {
    lr_mult: 1
    decay_mult: 1
  }
  param {
    lr_mult: 2
    decay_mult: 0
  }
  convolution_param {
    num_output: 256
    pad: 1
    kernel_size: 3
    group: 2
    weight_filler {
      type: "gaussian"
      std: 0.01
    }
    bias_filler {
      type: "constant"
      value: 0.1
    }
  }
}
layer {
  name: "relu5"
  type: "ReLU"
  bottom: "conv5"
  top: "conv5"
}
layer {
  name: "pool5"
  type: "Pooling"
  bottom: "conv5"
  top: "pool5"
  pooling_param {
    pool: MAX
    kernel_size: 3
    stride: 2
  }
}
layer {
  name: "fc6"
  type: "InnerProduct"
  bottom: "pool5"
  top: "fc6"
  param {
    lr_mult: 1
    decay_mult: 1
  }
  param {
    lr_mult: 2
    decay_mult: 0
  }
  inner_product_param {
    num_output: 4096
    weight_filler {
      type: "gaussian"
      std: 0.005
    }
    bias_filler {
      type: "constant"
      value: 0.1
    }
  }
}
layer {
  name: "relu6"
  type: "ReLU"
  bottom: "fc6"
  top: "fc6"
}
layer {
  name: "drop6"
  type: "Dropout"
  bottom: "fc6"
  top: "fc6"
  dropout_param {
    dropout_ratio: 0.5
  }
}
layer {
  name: "fc7"
  type: "InnerProduct"
  bottom: "fc6"
  top: "fc7"
  param {
    lr_mult: 1
    decay_mult: 1
  }
  param {
    lr_mult: 2
    decay_mult: 0
  }
  inner_product_param {
    num_output: 4096
    weight_filler {
      type: "gaussian"
      std: 0.005
    }
    bias_filler {
      type: "constant"
      value: 0.1
    }
  }
}
layer {
  name: "relu7"
  type: "ReLU"
  bottom: "fc7"
  top: "fc7"
}
layer {
  name: "drop7"
  type: "Dropout"
  bottom: "fc7"
  top: "fc7"
  dropout_param {
    dropout_ratio: 0.5
  }
}
layer {
  name: "fc8_plantvillage"
  type: "InnerProduct"
  bottom: "fc7"
  top: "fc8_plantvillage"
  param {
    lr_mult: 1
    decay_mult: 1
  }
  param {
    lr_mult: 2
    decay_mult: 0
  }
  inner_product_param {
    num_output: 38
    weight_filler {
      type: "gaussian"
      std: 0.01
    }
    bias_filler {
      type: "constant"
      value: 0
    }
  }
}
layer {
  name: "prob"
  type: "Softmax"
  bottom: "fc8_plantvillage"
  top: "prob"
  include {
    phase: TEST
  }
}
layer {
  name: "hdf5out"
  type: "HDF5Output"
  bottom: "prob"
  bottom: "label"
  include {
    phase: TEST
  }
  hdf5_output_param {
    file_name: "hdf5_dumps/iter_3240.h5"
  }
}
layer {
  name: "loss"
  type: "SoftmaxWithLoss"
  bottom: "fc8_plantvillage"
  bottom: "label"
  top: "loss"
}
layer {
  name: "accuracy"
  type: "Accuracy"
  bottom: "fc8_plantvillage"
  bottom: "label"
  top: "accuracy"
  include {
    phase: TEST
  }
}
I0403 14:47:38.652067 30314 layer_factory.hpp:77] Creating layer data
I0403 14:47:38.652684 30314 net.cpp:91] Creating Layer data
I0403 14:47:38.652715 30314 net.cpp:399] data -> data
I0403 14:47:38.652768 30314 net.cpp:399] data -> label
I0403 14:47:38.652804 30314 data_transformer.cpp:25] Loading mean file from: /home/mohanty/data/final_dataset/lmdb/color-20-80/mean.binaryproto
I0403 14:47:38.655841 30316 db_lmdb.cpp:38] Opened lmdb /home/mohanty/data/final_dataset/lmdb/color-20-80/test_db
I0403 14:47:38.665864 30314 data_layer.cpp:41] output data size: 100,3,227,227
I0403 14:47:38.798712 30314 net.cpp:141] Setting up data
I0403 14:47:38.798782 30314 net.cpp:148] Top shape: 100 3 227 227 (15458700)
I0403 14:47:38.798805 30314 net.cpp:148] Top shape: 100 (100)
I0403 14:47:38.798821 30314 net.cpp:156] Memory required for data: 61835200
I0403 14:47:38.798849 30314 layer_factory.hpp:77] Creating layer label_data_1_split
I0403 14:47:38.798876 30314 net.cpp:91] Creating Layer label_data_1_split
I0403 14:47:38.798894 30314 net.cpp:425] label_data_1_split <- label
I0403 14:47:38.798925 30314 net.cpp:399] label_data_1_split -> label_data_1_split_0
I0403 14:47:38.798951 30314 net.cpp:399] label_data_1_split -> label_data_1_split_1
I0403 14:47:38.798972 30314 net.cpp:399] label_data_1_split -> label_data_1_split_2
I0403 14:47:38.799034 30314 net.cpp:141] Setting up label_data_1_split
I0403 14:47:38.799057 30314 net.cpp:148] Top shape: 100 (100)
I0403 14:47:38.799075 30314 net.cpp:148] Top shape: 100 (100)
I0403 14:47:38.799093 30314 net.cpp:148] Top shape: 100 (100)
I0403 14:47:38.799106 30314 net.cpp:156] Memory required for data: 61836400
I0403 14:47:38.799121 30314 layer_factory.hpp:77] Creating layer conv1
I0403 14:47:38.799154 30314 net.cpp:91] Creating Layer conv1
I0403 14:47:38.799173 30314 net.cpp:425] conv1 <- data
I0403 14:47:38.799195 30314 net.cpp:399] conv1 -> conv1
I0403 14:47:38.947353 30314 net.cpp:141] Setting up conv1
I0403 14:47:38.947427 30314 net.cpp:148] Top shape: 100 96 55 55 (29040000)
I0403 14:47:38.947446 30314 net.cpp:156] Memory required for data: 177996400
I0403 14:47:38.947479 30314 layer_factory.hpp:77] Creating layer relu1
I0403 14:47:38.947507 30314 net.cpp:91] Creating Layer relu1
I0403 14:47:38.947532 30314 net.cpp:425] relu1 <- conv1
I0403 14:47:38.947551 30314 net.cpp:386] relu1 -> conv1 (in-place)
I0403 14:47:38.947813 30314 net.cpp:141] Setting up relu1
I0403 14:47:38.947842 30314 net.cpp:148] Top shape: 100 96 55 55 (29040000)
I0403 14:47:38.947859 30314 net.cpp:156] Memory required for data: 294156400
I0403 14:47:38.947907 30314 layer_factory.hpp:77] Creating layer norm1
I0403 14:47:38.947937 30314 net.cpp:91] Creating Layer norm1
I0403 14:47:38.947957 30314 net.cpp:425] norm1 <- conv1
I0403 14:47:38.947976 30314 net.cpp:399] norm1 -> norm1
I0403 14:47:38.948294 30314 net.cpp:141] Setting up norm1
I0403 14:47:38.948323 30314 net.cpp:148] Top shape: 100 96 55 55 (29040000)
I0403 14:47:38.948339 30314 net.cpp:156] Memory required for data: 410316400
I0403 14:47:38.948355 30314 layer_factory.hpp:77] Creating layer pool1
I0403 14:47:38.948379 30314 net.cpp:91] Creating Layer pool1
I0403 14:47:38.948397 30314 net.cpp:425] pool1 <- norm1
I0403 14:47:38.948417 30314 net.cpp:399] pool1 -> pool1
I0403 14:47:38.948485 30314 net.cpp:141] Setting up pool1
I0403 14:47:38.948510 30314 net.cpp:148] Top shape: 100 96 27 27 (6998400)
I0403 14:47:38.948532 30314 net.cpp:156] Memory required for data: 438310000
I0403 14:47:38.948549 30314 layer_factory.hpp:77] Creating layer conv2
I0403 14:47:38.948575 30314 net.cpp:91] Creating Layer conv2
I0403 14:47:38.948593 30314 net.cpp:425] conv2 <- pool1
I0403 14:47:38.948613 30314 net.cpp:399] conv2 -> conv2
I0403 14:47:38.963879 30314 net.cpp:141] Setting up conv2
I0403 14:47:38.963930 30314 net.cpp:148] Top shape: 100 256 27 27 (18662400)
I0403 14:47:38.963949 30314 net.cpp:156] Memory required for data: 512959600
I0403 14:47:38.963973 30314 layer_factory.hpp:77] Creating layer relu2
I0403 14:47:38.963995 30314 net.cpp:91] Creating Layer relu2
I0403 14:47:38.964012 30314 net.cpp:425] relu2 <- conv2
I0403 14:47:38.964032 30314 net.cpp:386] relu2 -> conv2 (in-place)
I0403 14:47:38.964316 30314 net.cpp:141] Setting up relu2
I0403 14:47:38.964345 30314 net.cpp:148] Top shape: 100 256 27 27 (18662400)
I0403 14:47:38.964362 30314 net.cpp:156] Memory required for data: 587609200
I0403 14:47:38.964380 30314 layer_factory.hpp:77] Creating layer norm2
I0403 14:47:38.964402 30314 net.cpp:91] Creating Layer norm2
I0403 14:47:38.964419 30314 net.cpp:425] norm2 <- conv2
I0403 14:47:38.964438 30314 net.cpp:399] norm2 -> norm2
I0403 14:47:38.964669 30314 net.cpp:141] Setting up norm2
I0403 14:47:38.964699 30314 net.cpp:148] Top shape: 100 256 27 27 (18662400)
I0403 14:47:38.964715 30314 net.cpp:156] Memory required for data: 662258800
I0403 14:47:38.964731 30314 layer_factory.hpp:77] Creating layer pool2
I0403 14:47:38.964758 30314 net.cpp:91] Creating Layer pool2
I0403 14:47:38.964776 30314 net.cpp:425] pool2 <- norm2
I0403 14:47:38.964794 30314 net.cpp:399] pool2 -> pool2
I0403 14:47:38.964846 30314 net.cpp:141] Setting up pool2
I0403 14:47:38.964871 30314 net.cpp:148] Top shape: 100 256 13 13 (4326400)
I0403 14:47:38.964886 30314 net.cpp:156] Memory required for data: 679564400
I0403 14:47:38.964902 30314 layer_factory.hpp:77] Creating layer conv3
I0403 14:47:38.964925 30314 net.cpp:91] Creating Layer conv3
I0403 14:47:38.964942 30314 net.cpp:425] conv3 <- pool2
I0403 14:47:38.964962 30314 net.cpp:399] conv3 -> conv3
I0403 14:47:39.010561 30314 net.cpp:141] Setting up conv3
I0403 14:47:39.010635 30314 net.cpp:148] Top shape: 100 384 13 13 (6489600)
I0403 14:47:39.010653 30314 net.cpp:156] Memory required for data: 705522800
I0403 14:47:39.010679 30314 layer_factory.hpp:77] Creating layer relu3
I0403 14:47:39.010704 30314 net.cpp:91] Creating Layer relu3
I0403 14:47:39.010723 30314 net.cpp:425] relu3 <- conv3
I0403 14:47:39.010745 30314 net.cpp:386] relu3 -> conv3 (in-place)
I0403 14:47:39.011016 30314 net.cpp:141] Setting up relu3
I0403 14:47:39.011044 30314 net.cpp:148] Top shape: 100 384 13 13 (6489600)
I0403 14:47:39.011060 30314 net.cpp:156] Memory required for data: 731481200
I0403 14:47:39.011077 30314 layer_factory.hpp:77] Creating layer conv4
I0403 14:47:39.011102 30314 net.cpp:91] Creating Layer conv4
I0403 14:47:39.011121 30314 net.cpp:425] conv4 <- conv3
I0403 14:47:39.011143 30314 net.cpp:399] conv4 -> conv4
I0403 14:47:39.041482 30314 net.cpp:141] Setting up conv4
I0403 14:47:39.041538 30314 net.cpp:148] Top shape: 100 384 13 13 (6489600)
I0403 14:47:39.041589 30314 net.cpp:156] Memory required for data: 757439600
I0403 14:47:39.041610 30314 layer_factory.hpp:77] Creating layer relu4
I0403 14:47:39.041632 30314 net.cpp:91] Creating Layer relu4
I0403 14:47:39.041651 30314 net.cpp:425] relu4 <- conv4
I0403 14:47:39.041676 30314 net.cpp:386] relu4 -> conv4 (in-place)
I0403 14:47:39.041962 30314 net.cpp:141] Setting up relu4
I0403 14:47:39.041990 30314 net.cpp:148] Top shape: 100 384 13 13 (6489600)
I0403 14:47:39.042007 30314 net.cpp:156] Memory required for data: 783398000
I0403 14:47:39.042023 30314 layer_factory.hpp:77] Creating layer conv5
I0403 14:47:39.042052 30314 net.cpp:91] Creating Layer conv5
I0403 14:47:39.042070 30314 net.cpp:425] conv5 <- conv4
I0403 14:47:39.042094 30314 net.cpp:399] conv5 -> conv5
I0403 14:47:39.063163 30314 net.cpp:141] Setting up conv5
I0403 14:47:39.063215 30314 net.cpp:148] Top shape: 100 256 13 13 (4326400)
I0403 14:47:39.063235 30314 net.cpp:156] Memory required for data: 800703600
I0403 14:47:39.063264 30314 layer_factory.hpp:77] Creating layer relu5
I0403 14:47:39.063290 30314 net.cpp:91] Creating Layer relu5
I0403 14:47:39.063309 30314 net.cpp:425] relu5 <- conv5
I0403 14:47:39.063329 30314 net.cpp:386] relu5 -> conv5 (in-place)
I0403 14:47:39.063627 30314 net.cpp:141] Setting up relu5
I0403 14:47:39.063655 30314 net.cpp:148] Top shape: 100 256 13 13 (4326400)
I0403 14:47:39.063671 30314 net.cpp:156] Memory required for data: 818009200
I0403 14:47:39.063688 30314 layer_factory.hpp:77] Creating layer pool5
I0403 14:47:39.063712 30314 net.cpp:91] Creating Layer pool5
I0403 14:47:39.063730 30314 net.cpp:425] pool5 <- conv5
I0403 14:47:39.063750 30314 net.cpp:399] pool5 -> pool5
I0403 14:47:39.063822 30314 net.cpp:141] Setting up pool5
I0403 14:47:39.063848 30314 net.cpp:148] Top shape: 100 256 6 6 (921600)
I0403 14:47:39.063863 30314 net.cpp:156] Memory required for data: 821695600
I0403 14:47:39.063879 30314 layer_factory.hpp:77] Creating layer fc6
I0403 14:47:39.063920 30314 net.cpp:91] Creating Layer fc6
I0403 14:47:39.063940 30314 net.cpp:425] fc6 <- pool5
I0403 14:47:39.063958 30314 net.cpp:399] fc6 -> fc6
I0403 14:47:40.692373 30314 net.cpp:141] Setting up fc6
I0403 14:47:40.692440 30314 net.cpp:148] Top shape: 100 4096 (409600)
I0403 14:47:40.692457 30314 net.cpp:156] Memory required for data: 823334000
I0403 14:47:40.692479 30314 layer_factory.hpp:77] Creating layer relu6
I0403 14:47:40.692502 30314 net.cpp:91] Creating Layer relu6
I0403 14:47:40.692520 30314 net.cpp:425] relu6 <- fc6
I0403 14:47:40.692543 30314 net.cpp:386] relu6 -> fc6 (in-place)
I0403 14:47:40.692767 30314 net.cpp:141] Setting up relu6
I0403 14:47:40.692793 30314 net.cpp:148] Top shape: 100 4096 (409600)
I0403 14:47:40.692808 30314 net.cpp:156] Memory required for data: 824972400
I0403 14:47:40.692823 30314 layer_factory.hpp:77] Creating layer drop6
I0403 14:47:40.692844 30314 net.cpp:91] Creating Layer drop6
I0403 14:47:40.692862 30314 net.cpp:425] drop6 <- fc6
I0403 14:47:40.692878 30314 net.cpp:386] drop6 -> fc6 (in-place)
I0403 14:47:40.692929 30314 net.cpp:141] Setting up drop6
I0403 14:47:40.692955 30314 net.cpp:148] Top shape: 100 4096 (409600)
I0403 14:47:40.692970 30314 net.cpp:156] Memory required for data: 826610800
I0403 14:47:40.692986 30314 layer_factory.hpp:77] Creating layer fc7
I0403 14:47:40.693006 30314 net.cpp:91] Creating Layer fc7
I0403 14:47:40.693022 30314 net.cpp:425] fc7 <- fc6
I0403 14:47:40.693043 30314 net.cpp:399] fc7 -> fc7
I0403 14:47:41.446593 30314 net.cpp:141] Setting up fc7
I0403 14:47:41.446637 30314 net.cpp:148] Top shape: 100 4096 (409600)
I0403 14:47:41.446655 30314 net.cpp:156] Memory required for data: 828249200
I0403 14:47:41.446676 30314 layer_factory.hpp:77] Creating layer relu7
I0403 14:47:41.446699 30314 net.cpp:91] Creating Layer relu7
I0403 14:47:41.446717 30314 net.cpp:425] relu7 <- fc7
I0403 14:47:41.446739 30314 net.cpp:386] relu7 -> fc7 (in-place)
I0403 14:47:41.447136 30314 net.cpp:141] Setting up relu7
I0403 14:47:41.447163 30314 net.cpp:148] Top shape: 100 4096 (409600)
I0403 14:47:41.447211 30314 net.cpp:156] Memory required for data: 829887600
I0403 14:47:41.447227 30314 layer_factory.hpp:77] Creating layer drop7
I0403 14:47:41.447247 30314 net.cpp:91] Creating Layer drop7
I0403 14:47:41.447268 30314 net.cpp:425] drop7 <- fc7
I0403 14:47:41.447289 30314 net.cpp:386] drop7 -> fc7 (in-place)
I0403 14:47:41.447338 30314 net.cpp:141] Setting up drop7
I0403 14:47:41.447362 30314 net.cpp:148] Top shape: 100 4096 (409600)
I0403 14:47:41.447377 30314 net.cpp:156] Memory required for data: 831526000
I0403 14:47:41.447392 30314 layer_factory.hpp:77] Creating layer fc8_plantvillage
I0403 14:47:41.447412 30314 net.cpp:91] Creating Layer fc8_plantvillage
I0403 14:47:41.447429 30314 net.cpp:425] fc8_plantvillage <- fc7
I0403 14:47:41.447451 30314 net.cpp:399] fc8_plantvillage -> fc8_plantvillage
I0403 14:47:41.454561 30314 net.cpp:141] Setting up fc8_plantvillage
I0403 14:47:41.454594 30314 net.cpp:148] Top shape: 100 38 (3800)
I0403 14:47:41.454612 30314 net.cpp:156] Memory required for data: 831541200
I0403 14:47:41.454632 30314 layer_factory.hpp:77] Creating layer fc8_plantvillage_fc8_plantvillage_0_split
I0403 14:47:41.454651 30314 net.cpp:91] Creating Layer fc8_plantvillage_fc8_plantvillage_0_split
I0403 14:47:41.454668 30314 net.cpp:425] fc8_plantvillage_fc8_plantvillage_0_split <- fc8_plantvillage
I0403 14:47:41.454685 30314 net.cpp:399] fc8_plantvillage_fc8_plantvillage_0_split -> fc8_plantvillage_fc8_plantvillage_0_split_0
I0403 14:47:41.454707 30314 net.cpp:399] fc8_plantvillage_fc8_plantvillage_0_split -> fc8_plantvillage_fc8_plantvillage_0_split_1
I0403 14:47:41.454728 30314 net.cpp:399] fc8_plantvillage_fc8_plantvillage_0_split -> fc8_plantvillage_fc8_plantvillage_0_split_2
I0403 14:47:41.454808 30314 net.cpp:141] Setting up fc8_plantvillage_fc8_plantvillage_0_split
I0403 14:47:41.454833 30314 net.cpp:148] Top shape: 100 38 (3800)
I0403 14:47:41.454849 30314 net.cpp:148] Top shape: 100 38 (3800)
I0403 14:47:41.454865 30314 net.cpp:148] Top shape: 100 38 (3800)
I0403 14:47:41.454879 30314 net.cpp:156] Memory required for data: 831586800
I0403 14:47:41.454900 30314 layer_factory.hpp:77] Creating layer prob
I0403 14:47:41.454919 30314 net.cpp:91] Creating Layer prob
I0403 14:47:41.454936 30314 net.cpp:425] prob <- fc8_plantvillage_fc8_plantvillage_0_split_0
I0403 14:47:41.454953 30314 net.cpp:399] prob -> prob
I0403 14:47:41.455181 30314 net.cpp:141] Setting up prob
I0403 14:47:41.455207 30314 net.cpp:148] Top shape: 100 38 (3800)
I0403 14:47:41.455224 30314 net.cpp:156] Memory required for data: 831602000
I0403 14:47:41.455238 30314 layer_factory.hpp:77] Creating layer hdf5out
I0403 14:47:41.455260 30314 net.cpp:91] Creating Layer hdf5out
I0403 14:47:41.455279 30314 net.cpp:425] hdf5out <- prob
I0403 14:47:41.455299 30314 net.cpp:425] hdf5out <- label_data_1_split_0
I0403 14:47:41.475409 30314 net.cpp:141] Setting up hdf5out
…
