…
I0403 14:31:26.625583 29912 net.cpp:313] The NetState phase (1) differed from the phase (0) specified by a rule in layer data
I0403 14:31:26.625874 29912 net.cpp:49] Initializing net from parameters: 
state {
  phase: TEST
}
layer {
  name: "data"
  type: "Data"
  top: "data"
  top: "label"
  include {
    phase: TEST
  }
  transform_param {
    crop_size: 227
    mean_file: "/home/mohanty/data/final_dataset/lmdb/color-20-80/mean.binaryproto"
  }
  data_param {
    source: "/home/mohanty/data/final_dataset/lmdb/color-20-80/test_db"
    batch_size: 100
    backend: LMDB
  }
}
layer {
  name: "conv1"
  type: "Convolution"
  bottom: "data"
  top: "conv1"
  param {
    lr_mult: 1
    decay_mult: 1
  }
  param {
    lr_mult: 2
    decay_mult: 0
  }
  convolution_param {
    num_output: 96
    kernel_size: 11
    stride: 4
    weight_filler {
      type: "gaussian"
      std: 0.01
    }
    bias_filler {
      type: "constant"
      value: 0
    }
  }
}
layer {
  name: "relu1"
  type: "ReLU"
  bottom: "conv1"
  top: "conv1"
}
layer {
  name: "norm1"
  type: "LRN"
  bottom: "conv1"
  top: "norm1"
  lrn_param {
    local_size: 5
    alpha: 0.0001
    beta: 0.75
  }
}
layer {
  name: "pool1"
  type: "Pooling"
  bottom: "norm1"
  top: "pool1"
  pooling_param {
    pool: MAX
    kernel_size: 3
    stride: 2
  }
}
layer {
  name: "conv2"
  type: "Convolution"
  bottom: "pool1"
  top: "conv2"
  param {
    lr_mult: 1
    decay_mult: 1
  }
  param {
    lr_mult: 2
    decay_mult: 0
  }
  convolution_param {
    num_output: 256
    pad: 2
    kernel_size: 5
    group: 2
    weight_filler {
      type: "gaussian"
      std: 0.01
    }
    bias_filler {
      type: "constant"
      value: 0.1
    }
  }
}
layer {
  name: "relu2"
  type: "ReLU"
  bottom: "conv2"
  top: "conv2"
}
layer {
  name: "norm2"
  type: "LRN"
  bottom: "conv2"
  top: "norm2"
  lrn_param {
    local_size: 5
    alpha: 0.0001
    beta: 0.75
  }
}
layer {
  name: "pool2"
  type: "Pooling"
  bottom: "norm2"
  top: "pool2"
  pooling_param {
    pool: MAX
    kernel_size: 3
    stride: 2
  }
}
layer {
  name: "conv3"
  type: "Convolution"
  bottom: "pool2"
  top: "conv3"
  param {
    lr_mult: 1
    decay_mult: 1
  }
  param {
    lr_mult: 2
    decay_mult: 0
  }
  convolution_param {
    num_output: 384
    pad: 1
    kernel_size: 3
    weight_filler {
      type: "gaussian"
      std: 0.01
    }
    bias_filler {
      type: "constant"
      value: 0
    }
  }
}
layer {
  name: "relu3"
  type: "ReLU"
  bottom: "conv3"
  top: "conv3"
}
layer {
  name: "conv4"
  type: "Convolution"
  bottom: "conv3"
  top: "conv4"
  param {
    lr_mult: 1
    decay_mult: 1
  }
  param {
    lr_mult: 2
    decay_mult: 0
  }
  convolution_param {
    num_output: 384
    pad: 1
    kernel_size: 3
    group: 2
    weight_filler {
      type: "gaussian"
      std: 0.01
    }
    bias_filler {
      type: "constant"
      value: 0.1
    }
  }
}
layer {
  name: "relu4"
  type: "ReLU"
  bottom: "conv4"
  top: "conv4"
}
layer {
  name: "conv5"
  type: "Convolution"
  bottom: "conv4"
  top: "conv5"
  param {
    lr_mult: 1
    decay_mult: 1
  }
  param {
    lr_mult: 2
    decay_mult: 0
  }
  convolution_param {
    num_output: 256
    pad: 1
    kernel_size: 3
    group: 2
    weight_filler {
      type: "gaussian"
      std: 0.01
    }
    bias_filler {
      type: "constant"
      value: 0.1
    }
  }
}
layer {
  name: "relu5"
  type: "ReLU"
  bottom: "conv5"
  top: "conv5"
}
layer {
  name: "pool5"
  type: "Pooling"
  bottom: "conv5"
  top: "pool5"
  pooling_param {
    pool: MAX
    kernel_size: 3
    stride: 2
  }
}
layer {
  name: "fc6"
  type: "InnerProduct"
  bottom: "pool5"
  top: "fc6"
  param {
    lr_mult: 1
    decay_mult: 1
  }
  param {
    lr_mult: 2
    decay_mult: 0
  }
  inner_product_param {
    num_output: 4096
    weight_filler {
      type: "gaussian"
      std: 0.005
    }
    bias_filler {
      type: "constant"
      value: 0.1
    }
  }
}
layer {
  name: "relu6"
  type: "ReLU"
  bottom: "fc6"
  top: "fc6"
}
layer {
  name: "drop6"
  type: "Dropout"
  bottom: "fc6"
  top: "fc6"
  dropout_param {
    dropout_ratio: 0.5
  }
}
layer {
  name: "fc7"
  type: "InnerProduct"
  bottom: "fc6"
  top: "fc7"
  param {
    lr_mult: 1
    decay_mult: 1
  }
  param {
    lr_mult: 2
    decay_mult: 0
  }
  inner_product_param {
    num_output: 4096
    weight_filler {
      type: "gaussian"
      std: 0.005
    }
    bias_filler {
      type: "constant"
      value: 0.1
    }
  }
}
layer {
  name: "relu7"
  type: "ReLU"
  bottom: "fc7"
  top: "fc7"
}
layer {
  name: "drop7"
  type: "Dropout"
  bottom: "fc7"
  top: "fc7"
  dropout_param {
    dropout_ratio: 0.5
  }
}
layer {
  name: "fc8_plantvillage"
  type: "InnerProduct"
  bottom: "fc7"
  top: "fc8_plantvillage"
  param {
    lr_mult: 1
    decay_mult: 1
  }
  param {
    lr_mult: 2
    decay_mult: 0
  }
  inner_product_param {
    num_output: 38
    weight_filler {
      type: "gaussian"
      std: 0.01
    }
    bias_filler {
      type: "constant"
      value: 0
    }
  }
}
layer {
  name: "prob"
  type: "Softmax"
  bottom: "fc8_plantvillage"
  top: "prob"
  include {
    phase: TEST
  }
}
layer {
  name: "hdf5out"
  type: "HDF5Output"
  bottom: "prob"
  bottom: "label"
  include {
    phase: TEST
  }
  hdf5_output_param {
    file_name: "hdf5_dumps/iter_2052.h5"
  }
}
layer {
  name: "loss"
  type: "SoftmaxWithLoss"
  bottom: "fc8_plantvillage"
  bottom: "label"
  top: "loss"
}
layer {
  name: "accuracy"
  type: "Accuracy"
  bottom: "fc8_plantvillage"
  bottom: "label"
  top: "accuracy"
  include {
    phase: TEST
  }
}
I0403 14:31:26.626462 29912 layer_factory.hpp:77] Creating layer data
I0403 14:31:26.627086 29912 net.cpp:91] Creating Layer data
I0403 14:31:26.627117 29912 net.cpp:399] data -> data
I0403 14:31:26.627171 29912 net.cpp:399] data -> label
I0403 14:31:26.627207 29912 data_transformer.cpp:25] Loading mean file from: /home/mohanty/data/final_dataset/lmdb/color-20-80/mean.binaryproto
I0403 14:31:26.629868 29917 db_lmdb.cpp:38] Opened lmdb /home/mohanty/data/final_dataset/lmdb/color-20-80/test_db
I0403 14:31:26.641259 29912 data_layer.cpp:41] output data size: 100,3,227,227
I0403 14:31:26.771862 29912 net.cpp:141] Setting up data
I0403 14:31:26.771926 29912 net.cpp:148] Top shape: 100 3 227 227 (15458700)
I0403 14:31:26.771950 29912 net.cpp:148] Top shape: 100 (100)
I0403 14:31:26.771965 29912 net.cpp:156] Memory required for data: 61835200
I0403 14:31:26.771994 29912 layer_factory.hpp:77] Creating layer label_data_1_split
I0403 14:31:26.772020 29912 net.cpp:91] Creating Layer label_data_1_split
I0403 14:31:26.772039 29912 net.cpp:425] label_data_1_split <- label
I0403 14:31:26.772073 29912 net.cpp:399] label_data_1_split -> label_data_1_split_0
I0403 14:31:26.772101 29912 net.cpp:399] label_data_1_split -> label_data_1_split_1
I0403 14:31:26.772125 29912 net.cpp:399] label_data_1_split -> label_data_1_split_2
I0403 14:31:26.772191 29912 net.cpp:141] Setting up label_data_1_split
I0403 14:31:26.772214 29912 net.cpp:148] Top shape: 100 (100)
I0403 14:31:26.772233 29912 net.cpp:148] Top shape: 100 (100)
I0403 14:31:26.772248 29912 net.cpp:148] Top shape: 100 (100)
I0403 14:31:26.772264 29912 net.cpp:156] Memory required for data: 61836400
I0403 14:31:26.772280 29912 layer_factory.hpp:77] Creating layer conv1
I0403 14:31:26.772318 29912 net.cpp:91] Creating Layer conv1
I0403 14:31:26.772338 29912 net.cpp:425] conv1 <- data
I0403 14:31:26.772358 29912 net.cpp:399] conv1 -> conv1
I0403 14:31:26.919577 29912 net.cpp:141] Setting up conv1
I0403 14:31:26.919622 29912 net.cpp:148] Top shape: 100 96 55 55 (29040000)
I0403 14:31:26.919641 29912 net.cpp:156] Memory required for data: 177996400
I0403 14:31:26.919674 29912 layer_factory.hpp:77] Creating layer relu1
I0403 14:31:26.919777 29912 net.cpp:91] Creating Layer relu1
I0403 14:31:26.919816 29912 net.cpp:425] relu1 <- conv1
I0403 14:31:26.919838 29912 net.cpp:386] relu1 -> conv1 (in-place)
I0403 14:31:26.920120 29912 net.cpp:141] Setting up relu1
I0403 14:31:26.920148 29912 net.cpp:148] Top shape: 100 96 55 55 (29040000)
I0403 14:31:26.920166 29912 net.cpp:156] Memory required for data: 294156400
I0403 14:31:26.920213 29912 layer_factory.hpp:77] Creating layer norm1
I0403 14:31:26.920243 29912 net.cpp:91] Creating Layer norm1
I0403 14:31:26.920264 29912 net.cpp:425] norm1 <- conv1
I0403 14:31:26.920286 29912 net.cpp:399] norm1 -> norm1
I0403 14:31:26.920600 29912 net.cpp:141] Setting up norm1
I0403 14:31:26.920629 29912 net.cpp:148] Top shape: 100 96 55 55 (29040000)
I0403 14:31:26.920646 29912 net.cpp:156] Memory required for data: 410316400
I0403 14:31:26.920662 29912 layer_factory.hpp:77] Creating layer pool1
I0403 14:31:26.920699 29912 net.cpp:91] Creating Layer pool1
I0403 14:31:26.920718 29912 net.cpp:425] pool1 <- norm1
I0403 14:31:26.920737 29912 net.cpp:399] pool1 -> pool1
I0403 14:31:26.920811 29912 net.cpp:141] Setting up pool1
I0403 14:31:26.920837 29912 net.cpp:148] Top shape: 100 96 27 27 (6998400)
I0403 14:31:26.920853 29912 net.cpp:156] Memory required for data: 438310000
I0403 14:31:26.920871 29912 layer_factory.hpp:77] Creating layer conv2
I0403 14:31:26.920897 29912 net.cpp:91] Creating Layer conv2
I0403 14:31:26.920914 29912 net.cpp:425] conv2 <- pool1
I0403 14:31:26.920934 29912 net.cpp:399] conv2 -> conv2
I0403 14:31:26.936789 29912 net.cpp:141] Setting up conv2
I0403 14:31:26.936839 29912 net.cpp:148] Top shape: 100 256 27 27 (18662400)
I0403 14:31:26.936858 29912 net.cpp:156] Memory required for data: 512959600
I0403 14:31:26.936882 29912 layer_factory.hpp:77] Creating layer relu2
I0403 14:31:26.936907 29912 net.cpp:91] Creating Layer relu2
I0403 14:31:26.936925 29912 net.cpp:425] relu2 <- conv2
I0403 14:31:26.936944 29912 net.cpp:386] relu2 -> conv2 (in-place)
I0403 14:31:26.937234 29912 net.cpp:141] Setting up relu2
I0403 14:31:26.937265 29912 net.cpp:148] Top shape: 100 256 27 27 (18662400)
I0403 14:31:26.937286 29912 net.cpp:156] Memory required for data: 587609200
I0403 14:31:26.937304 29912 layer_factory.hpp:77] Creating layer norm2
I0403 14:31:26.937330 29912 net.cpp:91] Creating Layer norm2
I0403 14:31:26.937347 29912 net.cpp:425] norm2 <- conv2
I0403 14:31:26.937366 29912 net.cpp:399] norm2 -> norm2
I0403 14:31:26.937569 29912 net.cpp:141] Setting up norm2
I0403 14:31:26.937597 29912 net.cpp:148] Top shape: 100 256 27 27 (18662400)
I0403 14:31:26.937611 29912 net.cpp:156] Memory required for data: 662258800
I0403 14:31:26.937628 29912 layer_factory.hpp:77] Creating layer pool2
I0403 14:31:26.937649 29912 net.cpp:91] Creating Layer pool2
I0403 14:31:26.937736 29912 net.cpp:425] pool2 <- norm2
I0403 14:31:26.937763 29912 net.cpp:399] pool2 -> pool2
I0403 14:31:26.937821 29912 net.cpp:141] Setting up pool2
I0403 14:31:26.937846 29912 net.cpp:148] Top shape: 100 256 13 13 (4326400)
I0403 14:31:26.937862 29912 net.cpp:156] Memory required for data: 679564400
I0403 14:31:26.937878 29912 layer_factory.hpp:77] Creating layer conv3
I0403 14:31:26.937902 29912 net.cpp:91] Creating Layer conv3
I0403 14:31:26.937919 29912 net.cpp:425] conv3 <- pool2
I0403 14:31:26.937940 29912 net.cpp:399] conv3 -> conv3
I0403 14:31:26.986734 29912 net.cpp:141] Setting up conv3
I0403 14:31:26.986807 29912 net.cpp:148] Top shape: 100 384 13 13 (6489600)
I0403 14:31:26.986826 29912 net.cpp:156] Memory required for data: 705522800
I0403 14:31:26.986852 29912 layer_factory.hpp:77] Creating layer relu3
I0403 14:31:26.986876 29912 net.cpp:91] Creating Layer relu3
I0403 14:31:26.986894 29912 net.cpp:425] relu3 <- conv3
I0403 14:31:26.986913 29912 net.cpp:386] relu3 -> conv3 (in-place)
I0403 14:31:26.987186 29912 net.cpp:141] Setting up relu3
I0403 14:31:26.987216 29912 net.cpp:148] Top shape: 100 384 13 13 (6489600)
I0403 14:31:26.987243 29912 net.cpp:156] Memory required for data: 731481200
I0403 14:31:26.987262 29912 layer_factory.hpp:77] Creating layer conv4
I0403 14:31:26.987295 29912 net.cpp:91] Creating Layer conv4
I0403 14:31:26.987314 29912 net.cpp:425] conv4 <- conv3
I0403 14:31:26.987335 29912 net.cpp:399] conv4 -> conv4
I0403 14:31:27.018342 29912 net.cpp:141] Setting up conv4
I0403 14:31:27.018386 29912 net.cpp:148] Top shape: 100 384 13 13 (6489600)
I0403 14:31:27.018436 29912 net.cpp:156] Memory required for data: 757439600
I0403 14:31:27.018460 29912 layer_factory.hpp:77] Creating layer relu4
I0403 14:31:27.018486 29912 net.cpp:91] Creating Layer relu4
I0403 14:31:27.018506 29912 net.cpp:425] relu4 <- conv4
I0403 14:31:27.018525 29912 net.cpp:386] relu4 -> conv4 (in-place)
I0403 14:31:27.018810 29912 net.cpp:141] Setting up relu4
I0403 14:31:27.018838 29912 net.cpp:148] Top shape: 100 384 13 13 (6489600)
I0403 14:31:27.018856 29912 net.cpp:156] Memory required for data: 783398000
I0403 14:31:27.018872 29912 layer_factory.hpp:77] Creating layer conv5
I0403 14:31:27.018898 29912 net.cpp:91] Creating Layer conv5
I0403 14:31:27.018918 29912 net.cpp:425] conv5 <- conv4
I0403 14:31:27.018940 29912 net.cpp:399] conv5 -> conv5
I0403 14:31:27.040338 29912 net.cpp:141] Setting up conv5
I0403 14:31:27.040390 29912 net.cpp:148] Top shape: 100 256 13 13 (4326400)
I0403 14:31:27.040407 29912 net.cpp:156] Memory required for data: 800703600
I0403 14:31:27.040433 29912 layer_factory.hpp:77] Creating layer relu5
I0403 14:31:27.040462 29912 net.cpp:91] Creating Layer relu5
I0403 14:31:27.040483 29912 net.cpp:425] relu5 <- conv5
I0403 14:31:27.040503 29912 net.cpp:386] relu5 -> conv5 (in-place)
I0403 14:31:27.040793 29912 net.cpp:141] Setting up relu5
I0403 14:31:27.040825 29912 net.cpp:148] Top shape: 100 256 13 13 (4326400)
I0403 14:31:27.040843 29912 net.cpp:156] Memory required for data: 818009200
I0403 14:31:27.040858 29912 layer_factory.hpp:77] Creating layer pool5
I0403 14:31:27.040882 29912 net.cpp:91] Creating Layer pool5
I0403 14:31:27.040899 29912 net.cpp:425] pool5 <- conv5
I0403 14:31:27.040921 29912 net.cpp:399] pool5 -> pool5
I0403 14:31:27.040983 29912 net.cpp:141] Setting up pool5
I0403 14:31:27.041012 29912 net.cpp:148] Top shape: 100 256 6 6 (921600)
I0403 14:31:27.041028 29912 net.cpp:156] Memory required for data: 821695600
I0403 14:31:27.041044 29912 layer_factory.hpp:77] Creating layer fc6
I0403 14:31:27.041072 29912 net.cpp:91] Creating Layer fc6
I0403 14:31:27.041091 29912 net.cpp:425] fc6 <- pool5
I0403 14:31:27.041113 29912 net.cpp:399] fc6 -> fc6
I0403 14:31:28.608402 29912 net.cpp:141] Setting up fc6
I0403 14:31:28.608446 29912 net.cpp:148] Top shape: 100 4096 (409600)
I0403 14:31:28.608464 29912 net.cpp:156] Memory required for data: 823334000
I0403 14:31:28.608487 29912 layer_factory.hpp:77] Creating layer relu6
I0403 14:31:28.608515 29912 net.cpp:91] Creating Layer relu6
I0403 14:31:28.608532 29912 net.cpp:425] relu6 <- fc6
I0403 14:31:28.608552 29912 net.cpp:386] relu6 -> fc6 (in-place)
I0403 14:31:28.608770 29912 net.cpp:141] Setting up relu6
I0403 14:31:28.608798 29912 net.cpp:148] Top shape: 100 4096 (409600)
I0403 14:31:28.608814 29912 net.cpp:156] Memory required for data: 824972400
I0403 14:31:28.608830 29912 layer_factory.hpp:77] Creating layer drop6
I0403 14:31:28.608850 29912 net.cpp:91] Creating Layer drop6
I0403 14:31:28.608866 29912 net.cpp:425] drop6 <- fc6
I0403 14:31:28.608885 29912 net.cpp:386] drop6 -> fc6 (in-place)
I0403 14:31:28.608937 29912 net.cpp:141] Setting up drop6
I0403 14:31:28.608963 29912 net.cpp:148] Top shape: 100 4096 (409600)
I0403 14:31:28.608978 29912 net.cpp:156] Memory required for data: 826610800
I0403 14:31:28.608992 29912 layer_factory.hpp:77] Creating layer fc7
I0403 14:31:28.609015 29912 net.cpp:91] Creating Layer fc7
I0403 14:31:28.609032 29912 net.cpp:425] fc7 <- fc6
I0403 14:31:28.609051 29912 net.cpp:399] fc7 -> fc7
I0403 14:31:29.316231 29912 net.cpp:141] Setting up fc7
I0403 14:31:29.316277 29912 net.cpp:148] Top shape: 100 4096 (409600)
I0403 14:31:29.316303 29912 net.cpp:156] Memory required for data: 828249200
I0403 14:31:29.316325 29912 layer_factory.hpp:77] Creating layer relu7
I0403 14:31:29.316349 29912 net.cpp:91] Creating Layer relu7
I0403 14:31:29.316367 29912 net.cpp:425] relu7 <- fc7
I0403 14:31:29.316387 29912 net.cpp:386] relu7 -> fc7 (in-place)
I0403 14:31:29.316798 29912 net.cpp:141] Setting up relu7
I0403 14:31:29.316828 29912 net.cpp:148] Top shape: 100 4096 (409600)
I0403 14:31:29.316864 29912 net.cpp:156] Memory required for data: 829887600
I0403 14:31:29.316882 29912 layer_factory.hpp:77] Creating layer drop7
I0403 14:31:29.316902 29912 net.cpp:91] Creating Layer drop7
I0403 14:31:29.316918 29912 net.cpp:425] drop7 <- fc7
I0403 14:31:29.316936 29912 net.cpp:386] drop7 -> fc7 (in-place)
I0403 14:31:29.316983 29912 net.cpp:141] Setting up drop7
I0403 14:31:29.317010 29912 net.cpp:148] Top shape: 100 4096 (409600)
I0403 14:31:29.317025 29912 net.cpp:156] Memory required for data: 831526000
I0403 14:31:29.317040 29912 layer_factory.hpp:77] Creating layer fc8_plantvillage
I0403 14:31:29.317064 29912 net.cpp:91] Creating Layer fc8_plantvillage
I0403 14:31:29.317080 29912 net.cpp:425] fc8_plantvillage <- fc7
I0403 14:31:29.317100 29912 net.cpp:399] fc8_plantvillage -> fc8_plantvillage
I0403 14:31:29.324065 29912 net.cpp:141] Setting up fc8_plantvillage
I0403 14:31:29.324097 29912 net.cpp:148] Top shape: 100 38 (3800)
I0403 14:31:29.324113 29912 net.cpp:156] Memory required for data: 831541200
I0403 14:31:29.324136 29912 layer_factory.hpp:77] Creating layer fc8_plantvillage_fc8_plantvillage_0_split
I0403 14:31:29.324157 29912 net.cpp:91] Creating Layer fc8_plantvillage_fc8_plantvillage_0_split
I0403 14:31:29.324178 29912 net.cpp:425] fc8_plantvillage_fc8_plantvillage_0_split <- fc8_plantvillage
I0403 14:31:29.324204 29912 net.cpp:399] fc8_plantvillage_fc8_plantvillage_0_split -> fc8_plantvillage_fc8_plantvillage_0_split_0
I0403 14:31:29.324226 29912 net.cpp:399] fc8_plantvillage_fc8_plantvillage_0_split -> fc8_plantvillage_fc8_plantvillage_0_split_1
I0403 14:31:29.324249 29912 net.cpp:399] fc8_plantvillage_fc8_plantvillage_0_split -> fc8_plantvillage_fc8_plantvillage_0_split_2
I0403 14:31:29.324336 29912 net.cpp:141] Setting up fc8_plantvillage_fc8_plantvillage_0_split
I0403 14:31:29.324362 29912 net.cpp:148] Top shape: 100 38 (3800)
I0403 14:31:29.324378 29912 net.cpp:148] Top shape: 100 38 (3800)
I0403 14:31:29.324394 29912 net.cpp:148] Top shape: 100 38 (3800)
I0403 14:31:29.324409 29912 net.cpp:156] Memory required for data: 831586800
I0403 14:31:29.324425 29912 layer_factory.hpp:77] Creating layer prob
I0403 14:31:29.324448 29912 net.cpp:91] Creating Layer prob
I0403 14:31:29.324465 29912 net.cpp:425] prob <- fc8_plantvillage_fc8_plantvillage_0_split_0
I0403 14:31:29.324484 29912 net.cpp:399] prob -> prob
I0403 14:31:29.324717 29912 net.cpp:141] Setting up prob
I0403 14:31:29.324746 29912 net.cpp:148] Top shape: 100 38 (3800)
I0403 14:31:29.324762 29912 net.cpp:156] Memory required for data: 831602000
I0403 14:31:29.324779 29912 layer_factory.hpp:77] Creating layer hdf5out
I0403 14:31:29.324800 29912 net.cpp:91] Creating Layer hdf5out
I0403 14:31:29.324816 29912 net.cpp:425] hdf5out <- prob
I0403 14:31:29.324833 29912 net.cpp:425] hdf5out <- label_data_1_split_0
I0403 14:31:29.329177 29912 net.cpp:141] Setting up hdf5out
…
