…
I0403 14:49:06.307323 30343 net.cpp:313] The NetState phase (1) differed from the phase (0) specified by a rule in layer data
I0403 14:49:06.307633 30343 net.cpp:49] Initializing net from parameters: 
state {
  phase: TEST
}
layer {
  name: "data"
  type: "Data"
  top: "data"
  top: "label"
  include {
    phase: TEST
  }
  transform_param {
    crop_size: 227
    mean_file: "/home/mohanty/data/final_dataset/lmdb/color-20-80/mean.binaryproto"
  }
  data_param {
    source: "/home/mohanty/data/final_dataset/lmdb/color-20-80/test_db"
    batch_size: 100
    backend: LMDB
  }
}
layer {
  name: "conv1"
  type: "Convolution"
  bottom: "data"
  top: "conv1"
  param {
    lr_mult: 1
    decay_mult: 1
  }
  param {
    lr_mult: 2
    decay_mult: 0
  }
  convolution_param {
    num_output: 96
    kernel_size: 11
    stride: 4
    weight_filler {
      type: "gaussian"
      std: 0.01
    }
    bias_filler {
      type: "constant"
      value: 0
    }
  }
}
layer {
  name: "relu1"
  type: "ReLU"
  bottom: "conv1"
  top: "conv1"
}
layer {
  name: "norm1"
  type: "LRN"
  bottom: "conv1"
  top: "norm1"
  lrn_param {
    local_size: 5
    alpha: 0.0001
    beta: 0.75
  }
}
layer {
  name: "pool1"
  type: "Pooling"
  bottom: "norm1"
  top: "pool1"
  pooling_param {
    pool: MAX
    kernel_size: 3
    stride: 2
  }
}
layer {
  name: "conv2"
  type: "Convolution"
  bottom: "pool1"
  top: "conv2"
  param {
    lr_mult: 1
    decay_mult: 1
  }
  param {
    lr_mult: 2
    decay_mult: 0
  }
  convolution_param {
    num_output: 256
    pad: 2
    kernel_size: 5
    group: 2
    weight_filler {
      type: "gaussian"
      std: 0.01
    }
    bias_filler {
      type: "constant"
      value: 0.1
    }
  }
}
layer {
  name: "relu2"
  type: "ReLU"
  bottom: "conv2"
  top: "conv2"
}
layer {
  name: "norm2"
  type: "LRN"
  bottom: "conv2"
  top: "norm2"
  lrn_param {
    local_size: 5
    alpha: 0.0001
    beta: 0.75
  }
}
layer {
  name: "pool2"
  type: "Pooling"
  bottom: "norm2"
  top: "pool2"
  pooling_param {
    pool: MAX
    kernel_size: 3
    stride: 2
  }
}
layer {
  name: "conv3"
  type: "Convolution"
  bottom: "pool2"
  top: "conv3"
  param {
    lr_mult: 1
    decay_mult: 1
  }
  param {
    lr_mult: 2
    decay_mult: 0
  }
  convolution_param {
    num_output: 384
    pad: 1
    kernel_size: 3
    weight_filler {
      type: "gaussian"
      std: 0.01
    }
    bias_filler {
      type: "constant"
      value: 0
    }
  }
}
layer {
  name: "relu3"
  type: "ReLU"
  bottom: "conv3"
  top: "conv3"
}
layer {
  name: "conv4"
  type: "Convolution"
  bottom: "conv3"
  top: "conv4"
  param {
    lr_mult: 1
    decay_mult: 1
  }
  param {
    lr_mult: 2
    decay_mult: 0
  }
  convolution_param {
    num_output: 384
    pad: 1
    kernel_size: 3
    group: 2
    weight_filler {
      type: "gaussian"
      std: 0.01
    }
    bias_filler {
      type: "constant"
      value: 0.1
    }
  }
}
layer {
  name: "relu4"
  type: "ReLU"
  bottom: "conv4"
  top: "conv4"
}
layer {
  name: "conv5"
  type: "Convolution"
  bottom: "conv4"
  top: "conv5"
  param {
    lr_mult: 1
    decay_mult: 1
  }
  param {
    lr_mult: 2
    decay_mult: 0
  }
  convolution_param {
    num_output: 256
    pad: 1
    kernel_size: 3
    group: 2
    weight_filler {
      type: "gaussian"
      std: 0.01
    }
    bias_filler {
      type: "constant"
      value: 0.1
    }
  }
}
layer {
  name: "relu5"
  type: "ReLU"
  bottom: "conv5"
  top: "conv5"
}
layer {
  name: "pool5"
  type: "Pooling"
  bottom: "conv5"
  top: "pool5"
  pooling_param {
    pool: MAX
    kernel_size: 3
    stride: 2
  }
}
layer {
  name: "fc6"
  type: "InnerProduct"
  bottom: "pool5"
  top: "fc6"
  param {
    lr_mult: 1
    decay_mult: 1
  }
  param {
    lr_mult: 2
    decay_mult: 0
  }
  inner_product_param {
    num_output: 4096
    weight_filler {
      type: "gaussian"
      std: 0.005
    }
    bias_filler {
      type: "constant"
      value: 0.1
    }
  }
}
layer {
  name: "relu6"
  type: "ReLU"
  bottom: "fc6"
  top: "fc6"
}
layer {
  name: "drop6"
  type: "Dropout"
  bottom: "fc6"
  top: "fc6"
  dropout_param {
    dropout_ratio: 0.5
  }
}
layer {
  name: "fc7"
  type: "InnerProduct"
  bottom: "fc6"
  top: "fc7"
  param {
    lr_mult: 1
    decay_mult: 1
  }
  param {
    lr_mult: 2
    decay_mult: 0
  }
  inner_product_param {
    num_output: 4096
    weight_filler {
      type: "gaussian"
      std: 0.005
    }
    bias_filler {
      type: "constant"
      value: 0.1
    }
  }
}
layer {
  name: "relu7"
  type: "ReLU"
  bottom: "fc7"
  top: "fc7"
}
layer {
  name: "drop7"
  type: "Dropout"
  bottom: "fc7"
  top: "fc7"
  dropout_param {
    dropout_ratio: 0.5
  }
}
layer {
  name: "fc8_plantvillage"
  type: "InnerProduct"
  bottom: "fc7"
  top: "fc8_plantvillage"
  param {
    lr_mult: 1
    decay_mult: 1
  }
  param {
    lr_mult: 2
    decay_mult: 0
  }
  inner_product_param {
    num_output: 38
    weight_filler {
      type: "gaussian"
      std: 0.01
    }
    bias_filler {
      type: "constant"
      value: 0
    }
  }
}
layer {
  name: "prob"
  type: "Softmax"
  bottom: "fc8_plantvillage"
  top: "prob"
  include {
    phase: TEST
  }
}
layer {
  name: "hdf5out"
  type: "HDF5Output"
  bottom: "prob"
  bottom: "label"
  include {
    phase: TEST
  }
  hdf5_output_param {
    file_name: "hdf5_dumps/iter_3251.h5"
  }
}
layer {
  name: "loss"
  type: "SoftmaxWithLoss"
  bottom: "fc8_plantvillage"
  bottom: "label"
  top: "loss"
}
layer {
  name: "accuracy"
  type: "Accuracy"
  bottom: "fc8_plantvillage"
  bottom: "label"
  top: "accuracy"
  include {
    phase: TEST
  }
}
I0403 14:49:06.308156 30343 layer_factory.hpp:77] Creating layer data
I0403 14:49:06.308811 30343 net.cpp:91] Creating Layer data
I0403 14:49:06.308843 30343 net.cpp:399] data -> data
I0403 14:49:06.308895 30343 net.cpp:399] data -> label
I0403 14:49:06.308933 30343 data_transformer.cpp:25] Loading mean file from: /home/mohanty/data/final_dataset/lmdb/color-20-80/mean.binaryproto
I0403 14:49:06.311431 30345 db_lmdb.cpp:38] Opened lmdb /home/mohanty/data/final_dataset/lmdb/color-20-80/test_db
I0403 14:49:06.323132 30343 data_layer.cpp:41] output data size: 100,3,227,227
I0403 14:49:06.454505 30343 net.cpp:141] Setting up data
I0403 14:49:06.454581 30343 net.cpp:148] Top shape: 100 3 227 227 (15458700)
I0403 14:49:06.454604 30343 net.cpp:148] Top shape: 100 (100)
I0403 14:49:06.454620 30343 net.cpp:156] Memory required for data: 61835200
I0403 14:49:06.454649 30343 layer_factory.hpp:77] Creating layer label_data_1_split
I0403 14:49:06.454674 30343 net.cpp:91] Creating Layer label_data_1_split
I0403 14:49:06.454692 30343 net.cpp:425] label_data_1_split <- label
I0403 14:49:06.454725 30343 net.cpp:399] label_data_1_split -> label_data_1_split_0
I0403 14:49:06.454752 30343 net.cpp:399] label_data_1_split -> label_data_1_split_1
I0403 14:49:06.454774 30343 net.cpp:399] label_data_1_split -> label_data_1_split_2
I0403 14:49:06.454849 30343 net.cpp:141] Setting up label_data_1_split
I0403 14:49:06.454872 30343 net.cpp:148] Top shape: 100 (100)
I0403 14:49:06.454890 30343 net.cpp:148] Top shape: 100 (100)
I0403 14:49:06.454906 30343 net.cpp:148] Top shape: 100 (100)
I0403 14:49:06.454922 30343 net.cpp:156] Memory required for data: 61836400
I0403 14:49:06.454937 30343 layer_factory.hpp:77] Creating layer conv1
I0403 14:49:06.454970 30343 net.cpp:91] Creating Layer conv1
I0403 14:49:06.454989 30343 net.cpp:425] conv1 <- data
I0403 14:49:06.455009 30343 net.cpp:399] conv1 -> conv1
I0403 14:49:06.597036 30343 net.cpp:141] Setting up conv1
I0403 14:49:06.597081 30343 net.cpp:148] Top shape: 100 96 55 55 (29040000)
I0403 14:49:06.597100 30343 net.cpp:156] Memory required for data: 177996400
I0403 14:49:06.597131 30343 layer_factory.hpp:77] Creating layer relu1
I0403 14:49:06.597162 30343 net.cpp:91] Creating Layer relu1
I0403 14:49:06.597179 30343 net.cpp:425] relu1 <- conv1
I0403 14:49:06.597203 30343 net.cpp:386] relu1 -> conv1 (in-place)
I0403 14:49:06.597493 30343 net.cpp:141] Setting up relu1
I0403 14:49:06.597530 30343 net.cpp:148] Top shape: 100 96 55 55 (29040000)
I0403 14:49:06.597548 30343 net.cpp:156] Memory required for data: 294156400
I0403 14:49:06.597599 30343 layer_factory.hpp:77] Creating layer norm1
I0403 14:49:06.597630 30343 net.cpp:91] Creating Layer norm1
I0403 14:49:06.597651 30343 net.cpp:425] norm1 <- conv1
I0403 14:49:06.597669 30343 net.cpp:399] norm1 -> norm1
I0403 14:49:06.598007 30343 net.cpp:141] Setting up norm1
I0403 14:49:06.598036 30343 net.cpp:148] Top shape: 100 96 55 55 (29040000)
I0403 14:49:06.598052 30343 net.cpp:156] Memory required for data: 410316400
I0403 14:49:06.598069 30343 layer_factory.hpp:77] Creating layer pool1
I0403 14:49:06.598095 30343 net.cpp:91] Creating Layer pool1
I0403 14:49:06.598114 30343 net.cpp:425] pool1 <- norm1
I0403 14:49:06.598136 30343 net.cpp:399] pool1 -> pool1
I0403 14:49:06.598206 30343 net.cpp:141] Setting up pool1
I0403 14:49:06.598232 30343 net.cpp:148] Top shape: 100 96 27 27 (6998400)
I0403 14:49:06.598248 30343 net.cpp:156] Memory required for data: 438310000
I0403 14:49:06.598268 30343 layer_factory.hpp:77] Creating layer conv2
I0403 14:49:06.598296 30343 net.cpp:91] Creating Layer conv2
I0403 14:49:06.598315 30343 net.cpp:425] conv2 <- pool1
I0403 14:49:06.598337 30343 net.cpp:399] conv2 -> conv2
I0403 14:49:06.613406 30343 net.cpp:141] Setting up conv2
I0403 14:49:06.613454 30343 net.cpp:148] Top shape: 100 256 27 27 (18662400)
I0403 14:49:06.613473 30343 net.cpp:156] Memory required for data: 512959600
I0403 14:49:06.613497 30343 layer_factory.hpp:77] Creating layer relu2
I0403 14:49:06.613528 30343 net.cpp:91] Creating Layer relu2
I0403 14:49:06.613546 30343 net.cpp:425] relu2 <- conv2
I0403 14:49:06.613564 30343 net.cpp:386] relu2 -> conv2 (in-place)
I0403 14:49:06.613855 30343 net.cpp:141] Setting up relu2
I0403 14:49:06.613885 30343 net.cpp:148] Top shape: 100 256 27 27 (18662400)
I0403 14:49:06.613903 30343 net.cpp:156] Memory required for data: 587609200
I0403 14:49:06.613919 30343 layer_factory.hpp:77] Creating layer norm2
I0403 14:49:06.613940 30343 net.cpp:91] Creating Layer norm2
I0403 14:49:06.613957 30343 net.cpp:425] norm2 <- conv2
I0403 14:49:06.613979 30343 net.cpp:399] norm2 -> norm2
I0403 14:49:06.614183 30343 net.cpp:141] Setting up norm2
I0403 14:49:06.614212 30343 net.cpp:148] Top shape: 100 256 27 27 (18662400)
I0403 14:49:06.614229 30343 net.cpp:156] Memory required for data: 662258800
I0403 14:49:06.614245 30343 layer_factory.hpp:77] Creating layer pool2
I0403 14:49:06.614279 30343 net.cpp:91] Creating Layer pool2
I0403 14:49:06.614297 30343 net.cpp:425] pool2 <- norm2
I0403 14:49:06.614316 30343 net.cpp:399] pool2 -> pool2
I0403 14:49:06.614375 30343 net.cpp:141] Setting up pool2
I0403 14:49:06.614400 30343 net.cpp:148] Top shape: 100 256 13 13 (4326400)
I0403 14:49:06.614416 30343 net.cpp:156] Memory required for data: 679564400
I0403 14:49:06.614431 30343 layer_factory.hpp:77] Creating layer conv3
I0403 14:49:06.614457 30343 net.cpp:91] Creating Layer conv3
I0403 14:49:06.614475 30343 net.cpp:425] conv3 <- pool2
I0403 14:49:06.614497 30343 net.cpp:399] conv3 -> conv3
I0403 14:49:06.652572 30343 net.cpp:141] Setting up conv3
I0403 14:49:06.652642 30343 net.cpp:148] Top shape: 100 384 13 13 (6489600)
I0403 14:49:06.652658 30343 net.cpp:156] Memory required for data: 705522800
I0403 14:49:06.652683 30343 layer_factory.hpp:77] Creating layer relu3
I0403 14:49:06.652709 30343 net.cpp:91] Creating Layer relu3
I0403 14:49:06.652727 30343 net.cpp:425] relu3 <- conv3
I0403 14:49:06.652746 30343 net.cpp:386] relu3 -> conv3 (in-place)
I0403 14:49:06.653024 30343 net.cpp:141] Setting up relu3
I0403 14:49:06.653053 30343 net.cpp:148] Top shape: 100 384 13 13 (6489600)
I0403 14:49:06.653069 30343 net.cpp:156] Memory required for data: 731481200
I0403 14:49:06.653085 30343 layer_factory.hpp:77] Creating layer conv4
I0403 14:49:06.653111 30343 net.cpp:91] Creating Layer conv4
I0403 14:49:06.653129 30343 net.cpp:425] conv4 <- conv3
I0403 14:49:06.653148 30343 net.cpp:399] conv4 -> conv4
I0403 14:49:06.682068 30343 net.cpp:141] Setting up conv4
I0403 14:49:06.682107 30343 net.cpp:148] Top shape: 100 384 13 13 (6489600)
I0403 14:49:06.682157 30343 net.cpp:156] Memory required for data: 757439600
I0403 14:49:06.682178 30343 layer_factory.hpp:77] Creating layer relu4
I0403 14:49:06.682200 30343 net.cpp:91] Creating Layer relu4
I0403 14:49:06.682219 30343 net.cpp:425] relu4 <- conv4
I0403 14:49:06.682238 30343 net.cpp:386] relu4 -> conv4 (in-place)
I0403 14:49:06.682518 30343 net.cpp:141] Setting up relu4
I0403 14:49:06.682546 30343 net.cpp:148] Top shape: 100 384 13 13 (6489600)
I0403 14:49:06.682562 30343 net.cpp:156] Memory required for data: 783398000
I0403 14:49:06.682577 30343 layer_factory.hpp:77] Creating layer conv5
I0403 14:49:06.682601 30343 net.cpp:91] Creating Layer conv5
I0403 14:49:06.682620 30343 net.cpp:425] conv5 <- conv4
I0403 14:49:06.682641 30343 net.cpp:399] conv5 -> conv5
I0403 14:49:06.703119 30343 net.cpp:141] Setting up conv5
I0403 14:49:06.703176 30343 net.cpp:148] Top shape: 100 256 13 13 (4326400)
I0403 14:49:06.703192 30343 net.cpp:156] Memory required for data: 800703600
I0403 14:49:06.703222 30343 layer_factory.hpp:77] Creating layer relu5
I0403 14:49:06.703244 30343 net.cpp:91] Creating Layer relu5
I0403 14:49:06.703268 30343 net.cpp:425] relu5 <- conv5
I0403 14:49:06.703289 30343 net.cpp:386] relu5 -> conv5 (in-place)
I0403 14:49:06.703645 30343 net.cpp:141] Setting up relu5
I0403 14:49:06.703676 30343 net.cpp:148] Top shape: 100 256 13 13 (4326400)
I0403 14:49:06.703692 30343 net.cpp:156] Memory required for data: 818009200
I0403 14:49:06.703709 30343 layer_factory.hpp:77] Creating layer pool5
I0403 14:49:06.703732 30343 net.cpp:91] Creating Layer pool5
I0403 14:49:06.703749 30343 net.cpp:425] pool5 <- conv5
I0403 14:49:06.703771 30343 net.cpp:399] pool5 -> pool5
I0403 14:49:06.703832 30343 net.cpp:141] Setting up pool5
I0403 14:49:06.703857 30343 net.cpp:148] Top shape: 100 256 6 6 (921600)
I0403 14:49:06.703872 30343 net.cpp:156] Memory required for data: 821695600
I0403 14:49:06.703888 30343 layer_factory.hpp:77] Creating layer fc6
I0403 14:49:06.703919 30343 net.cpp:91] Creating Layer fc6
I0403 14:49:06.703938 30343 net.cpp:425] fc6 <- pool5
I0403 14:49:06.703959 30343 net.cpp:399] fc6 -> fc6
I0403 14:49:08.321089 30343 net.cpp:141] Setting up fc6
I0403 14:49:08.321142 30343 net.cpp:148] Top shape: 100 4096 (409600)
I0403 14:49:08.321159 30343 net.cpp:156] Memory required for data: 823334000
I0403 14:49:08.321180 30343 layer_factory.hpp:77] Creating layer relu6
I0403 14:49:08.321208 30343 net.cpp:91] Creating Layer relu6
I0403 14:49:08.321229 30343 net.cpp:425] relu6 <- fc6
I0403 14:49:08.321249 30343 net.cpp:386] relu6 -> fc6 (in-place)
I0403 14:49:08.321476 30343 net.cpp:141] Setting up relu6
I0403 14:49:08.321504 30343 net.cpp:148] Top shape: 100 4096 (409600)
I0403 14:49:08.321521 30343 net.cpp:156] Memory required for data: 824972400
I0403 14:49:08.321537 30343 layer_factory.hpp:77] Creating layer drop6
I0403 14:49:08.321557 30343 net.cpp:91] Creating Layer drop6
I0403 14:49:08.321573 30343 net.cpp:425] drop6 <- fc6
I0403 14:49:08.321599 30343 net.cpp:386] drop6 -> fc6 (in-place)
I0403 14:49:08.321652 30343 net.cpp:141] Setting up drop6
I0403 14:49:08.321676 30343 net.cpp:148] Top shape: 100 4096 (409600)
I0403 14:49:08.321692 30343 net.cpp:156] Memory required for data: 826610800
I0403 14:49:08.321707 30343 layer_factory.hpp:77] Creating layer fc7
I0403 14:49:08.321730 30343 net.cpp:91] Creating Layer fc7
I0403 14:49:08.321748 30343 net.cpp:425] fc7 <- fc6
I0403 14:49:08.321768 30343 net.cpp:399] fc7 -> fc7
I0403 14:49:08.997797 30343 net.cpp:141] Setting up fc7
I0403 14:49:08.997839 30343 net.cpp:148] Top shape: 100 4096 (409600)
I0403 14:49:08.997855 30343 net.cpp:156] Memory required for data: 828249200
I0403 14:49:08.997877 30343 layer_factory.hpp:77] Creating layer relu7
I0403 14:49:08.997905 30343 net.cpp:91] Creating Layer relu7
I0403 14:49:08.997925 30343 net.cpp:425] relu7 <- fc7
I0403 14:49:08.997944 30343 net.cpp:386] relu7 -> fc7 (in-place)
I0403 14:49:08.998345 30343 net.cpp:141] Setting up relu7
I0403 14:49:08.998373 30343 net.cpp:148] Top shape: 100 4096 (409600)
I0403 14:49:08.998425 30343 net.cpp:156] Memory required for data: 829887600
I0403 14:49:08.998441 30343 layer_factory.hpp:77] Creating layer drop7
I0403 14:49:08.998463 30343 net.cpp:91] Creating Layer drop7
I0403 14:49:08.998481 30343 net.cpp:425] drop7 <- fc7
I0403 14:49:08.998499 30343 net.cpp:386] drop7 -> fc7 (in-place)
I0403 14:49:08.998544 30343 net.cpp:141] Setting up drop7
I0403 14:49:08.998567 30343 net.cpp:148] Top shape: 100 4096 (409600)
I0403 14:49:08.998582 30343 net.cpp:156] Memory required for data: 831526000
I0403 14:49:08.998597 30343 layer_factory.hpp:77] Creating layer fc8_plantvillage
I0403 14:49:08.998620 30343 net.cpp:91] Creating Layer fc8_plantvillage
I0403 14:49:08.998636 30343 net.cpp:425] fc8_plantvillage <- fc7
I0403 14:49:08.998654 30343 net.cpp:399] fc8_plantvillage -> fc8_plantvillage
I0403 14:49:09.005375 30343 net.cpp:141] Setting up fc8_plantvillage
I0403 14:49:09.005404 30343 net.cpp:148] Top shape: 100 38 (3800)
I0403 14:49:09.005421 30343 net.cpp:156] Memory required for data: 831541200
I0403 14:49:09.005440 30343 layer_factory.hpp:77] Creating layer fc8_plantvillage_fc8_plantvillage_0_split
I0403 14:49:09.005460 30343 net.cpp:91] Creating Layer fc8_plantvillage_fc8_plantvillage_0_split
I0403 14:49:09.005475 30343 net.cpp:425] fc8_plantvillage_fc8_plantvillage_0_split <- fc8_plantvillage
I0403 14:49:09.005492 30343 net.cpp:399] fc8_plantvillage_fc8_plantvillage_0_split -> fc8_plantvillage_fc8_plantvillage_0_split_0
I0403 14:49:09.005516 30343 net.cpp:399] fc8_plantvillage_fc8_plantvillage_0_split -> fc8_plantvillage_fc8_plantvillage_0_split_1
I0403 14:49:09.005537 30343 net.cpp:399] fc8_plantvillage_fc8_plantvillage_0_split -> fc8_plantvillage_fc8_plantvillage_0_split_2
I0403 14:49:09.005615 30343 net.cpp:141] Setting up fc8_plantvillage_fc8_plantvillage_0_split
I0403 14:49:09.005640 30343 net.cpp:148] Top shape: 100 38 (3800)
I0403 14:49:09.005656 30343 net.cpp:148] Top shape: 100 38 (3800)
I0403 14:49:09.005672 30343 net.cpp:148] Top shape: 100 38 (3800)
I0403 14:49:09.005686 30343 net.cpp:156] Memory required for data: 831586800
I0403 14:49:09.005702 30343 layer_factory.hpp:77] Creating layer prob
I0403 14:49:09.005720 30343 net.cpp:91] Creating Layer prob
I0403 14:49:09.005735 30343 net.cpp:425] prob <- fc8_plantvillage_fc8_plantvillage_0_split_0
I0403 14:49:09.005754 30343 net.cpp:399] prob -> prob
I0403 14:49:09.005976 30343 net.cpp:141] Setting up prob
I0403 14:49:09.006002 30343 net.cpp:148] Top shape: 100 38 (3800)
I0403 14:49:09.006018 30343 net.cpp:156] Memory required for data: 831602000
I0403 14:49:09.006034 30343 layer_factory.hpp:77] Creating layer hdf5out
I0403 14:49:09.006057 30343 net.cpp:91] Creating Layer hdf5out
I0403 14:49:09.006073 30343 net.cpp:425] hdf5out <- prob
I0403 14:49:09.006089 30343 net.cpp:425] hdf5out <- label_data_1_split_0
I0403 14:49:09.009748 30343 net.cpp:141] Setting up hdf5out
…
