…
I0403 14:13:50.732832 29461 net.cpp:313] The NetState phase (1) differed from the phase (0) specified by a rule in layer data
I0403 14:13:50.733122 29461 net.cpp:49] Initializing net from parameters: 
state {
  phase: TEST
}
layer {
  name: "data"
  type: "Data"
  top: "data"
  top: "label"
  include {
    phase: TEST
  }
  transform_param {
    crop_size: 227
    mean_file: "/home/mohanty/data/final_dataset/lmdb/color-20-80/mean.binaryproto"
  }
  data_param {
    source: "/home/mohanty/data/final_dataset/lmdb/color-20-80/test_db"
    batch_size: 100
    backend: LMDB
  }
}
layer {
  name: "conv1"
  type: "Convolution"
  bottom: "data"
  top: "conv1"
  param {
    lr_mult: 1
    decay_mult: 1
  }
  param {
    lr_mult: 2
    decay_mult: 0
  }
  convolution_param {
    num_output: 96
    kernel_size: 11
    stride: 4
    weight_filler {
      type: "gaussian"
      std: 0.01
    }
    bias_filler {
      type: "constant"
      value: 0
    }
  }
}
layer {
  name: "relu1"
  type: "ReLU"
  bottom: "conv1"
  top: "conv1"
}
layer {
  name: "norm1"
  type: "LRN"
  bottom: "conv1"
  top: "norm1"
  lrn_param {
    local_size: 5
    alpha: 0.0001
    beta: 0.75
  }
}
layer {
  name: "pool1"
  type: "Pooling"
  bottom: "norm1"
  top: "pool1"
  pooling_param {
    pool: MAX
    kernel_size: 3
    stride: 2
  }
}
layer {
  name: "conv2"
  type: "Convolution"
  bottom: "pool1"
  top: "conv2"
  param {
    lr_mult: 1
    decay_mult: 1
  }
  param {
    lr_mult: 2
    decay_mult: 0
  }
  convolution_param {
    num_output: 256
    pad: 2
    kernel_size: 5
    group: 2
    weight_filler {
      type: "gaussian"
      std: 0.01
    }
    bias_filler {
      type: "constant"
      value: 0.1
    }
  }
}
layer {
  name: "relu2"
  type: "ReLU"
  bottom: "conv2"
  top: "conv2"
}
layer {
  name: "norm2"
  type: "LRN"
  bottom: "conv2"
  top: "norm2"
  lrn_param {
    local_size: 5
    alpha: 0.0001
    beta: 0.75
  }
}
layer {
  name: "pool2"
  type: "Pooling"
  bottom: "norm2"
  top: "pool2"
  pooling_param {
    pool: MAX
    kernel_size: 3
    stride: 2
  }
}
layer {
  name: "conv3"
  type: "Convolution"
  bottom: "pool2"
  top: "conv3"
  param {
    lr_mult: 1
    decay_mult: 1
  }
  param {
    lr_mult: 2
    decay_mult: 0
  }
  convolution_param {
    num_output: 384
    pad: 1
    kernel_size: 3
    weight_filler {
      type: "gaussian"
      std: 0.01
    }
    bias_filler {
      type: "constant"
      value: 0
    }
  }
}
layer {
  name: "relu3"
  type: "ReLU"
  bottom: "conv3"
  top: "conv3"
}
layer {
  name: "conv4"
  type: "Convolution"
  bottom: "conv3"
  top: "conv4"
  param {
    lr_mult: 1
    decay_mult: 1
  }
  param {
    lr_mult: 2
    decay_mult: 0
  }
  convolution_param {
    num_output: 384
    pad: 1
    kernel_size: 3
    group: 2
    weight_filler {
      type: "gaussian"
      std: 0.01
    }
    bias_filler {
      type: "constant"
      value: 0.1
    }
  }
}
layer {
  name: "relu4"
  type: "ReLU"
  bottom: "conv4"
  top: "conv4"
}
layer {
  name: "conv5"
  type: "Convolution"
  bottom: "conv4"
  top: "conv5"
  param {
    lr_mult: 1
    decay_mult: 1
  }
  param {
    lr_mult: 2
    decay_mult: 0
  }
  convolution_param {
    num_output: 256
    pad: 1
    kernel_size: 3
    group: 2
    weight_filler {
      type: "gaussian"
      std: 0.01
    }
    bias_filler {
      type: "constant"
      value: 0.1
    }
  }
}
layer {
  name: "relu5"
  type: "ReLU"
  bottom: "conv5"
  top: "conv5"
}
layer {
  name: "pool5"
  type: "Pooling"
  bottom: "conv5"
  top: "pool5"
  pooling_param {
    pool: MAX
    kernel_size: 3
    stride: 2
  }
}
layer {
  name: "fc6"
  type: "InnerProduct"
  bottom: "pool5"
  top: "fc6"
  param {
    lr_mult: 1
    decay_mult: 1
  }
  param {
    lr_mult: 2
    decay_mult: 0
  }
  inner_product_param {
    num_output: 4096
    weight_filler {
      type: "gaussian"
      std: 0.005
    }
    bias_filler {
      type: "constant"
      value: 0.1
    }
  }
}
layer {
  name: "relu6"
  type: "ReLU"
  bottom: "fc6"
  top: "fc6"
}
layer {
  name: "drop6"
  type: "Dropout"
  bottom: "fc6"
  top: "fc6"
  dropout_param {
    dropout_ratio: 0.5
  }
}
layer {
  name: "fc7"
  type: "InnerProduct"
  bottom: "fc6"
  top: "fc7"
  param {
    lr_mult: 1
    decay_mult: 1
  }
  param {
    lr_mult: 2
    decay_mult: 0
  }
  inner_product_param {
    num_output: 4096
    weight_filler {
      type: "gaussian"
      std: 0.005
    }
    bias_filler {
      type: "constant"
      value: 0.1
    }
  }
}
layer {
  name: "relu7"
  type: "ReLU"
  bottom: "fc7"
  top: "fc7"
}
layer {
  name: "drop7"
  type: "Dropout"
  bottom: "fc7"
  top: "fc7"
  dropout_param {
    dropout_ratio: 0.5
  }
}
layer {
  name: "fc8_plantvillage"
  type: "InnerProduct"
  bottom: "fc7"
  top: "fc8_plantvillage"
  param {
    lr_mult: 1
    decay_mult: 1
  }
  param {
    lr_mult: 2
    decay_mult: 0
  }
  inner_product_param {
    num_output: 38
    weight_filler {
      type: "gaussian"
      std: 0.01
    }
    bias_filler {
      type: "constant"
      value: 0
    }
  }
}
layer {
  name: "prob"
  type: "Softmax"
  bottom: "fc8_plantvillage"
  top: "prob"
  include {
    phase: TEST
  }
}
layer {
  name: "hdf5out"
  type: "HDF5Output"
  bottom: "prob"
  bottom: "label"
  include {
    phase: TEST
  }
  hdf5_output_param {
    file_name: "hdf5_dumps/iter_756.h5"
  }
}
layer {
  name: "loss"
  type: "SoftmaxWithLoss"
  bottom: "fc8_plantvillage"
  bottom: "label"
  top: "loss"
}
layer {
  name: "accuracy"
  type: "Accuracy"
  bottom: "fc8_plantvillage"
  bottom: "label"
  top: "accuracy"
  include {
    phase: TEST
  }
}
I0403 14:13:50.733623 29461 layer_factory.hpp:77] Creating layer data
I0403 14:13:50.734243 29461 net.cpp:91] Creating Layer data
I0403 14:13:50.734289 29461 net.cpp:399] data -> data
I0403 14:13:50.734341 29461 net.cpp:399] data -> label
I0403 14:13:50.734380 29461 data_transformer.cpp:25] Loading mean file from: /home/mohanty/data/final_dataset/lmdb/color-20-80/mean.binaryproto
I0403 14:13:50.736794 29465 db_lmdb.cpp:38] Opened lmdb /home/mohanty/data/final_dataset/lmdb/color-20-80/test_db
I0403 14:13:50.748622 29461 data_layer.cpp:41] output data size: 100,3,227,227
I0403 14:13:50.881060 29461 net.cpp:141] Setting up data
I0403 14:13:50.881120 29461 net.cpp:148] Top shape: 100 3 227 227 (15458700)
I0403 14:13:50.881145 29461 net.cpp:148] Top shape: 100 (100)
I0403 14:13:50.881161 29461 net.cpp:156] Memory required for data: 61835200
I0403 14:13:50.881189 29461 layer_factory.hpp:77] Creating layer label_data_1_split
I0403 14:13:50.881216 29461 net.cpp:91] Creating Layer label_data_1_split
I0403 14:13:50.881234 29461 net.cpp:425] label_data_1_split <- label
I0403 14:13:50.881274 29461 net.cpp:399] label_data_1_split -> label_data_1_split_0
I0403 14:13:50.881304 29461 net.cpp:399] label_data_1_split -> label_data_1_split_1
I0403 14:13:50.881325 29461 net.cpp:399] label_data_1_split -> label_data_1_split_2
I0403 14:13:50.881388 29461 net.cpp:141] Setting up label_data_1_split
I0403 14:13:50.881417 29461 net.cpp:148] Top shape: 100 (100)
I0403 14:13:50.881434 29461 net.cpp:148] Top shape: 100 (100)
I0403 14:13:50.881451 29461 net.cpp:148] Top shape: 100 (100)
I0403 14:13:50.881466 29461 net.cpp:156] Memory required for data: 61836400
I0403 14:13:50.881481 29461 layer_factory.hpp:77] Creating layer conv1
I0403 14:13:50.881513 29461 net.cpp:91] Creating Layer conv1
I0403 14:13:50.881533 29461 net.cpp:425] conv1 <- data
I0403 14:13:50.881553 29461 net.cpp:399] conv1 -> conv1
I0403 14:13:51.025610 29461 net.cpp:141] Setting up conv1
I0403 14:13:51.025686 29461 net.cpp:148] Top shape: 100 96 55 55 (29040000)
I0403 14:13:51.025704 29461 net.cpp:156] Memory required for data: 177996400
I0403 14:13:51.025738 29461 layer_factory.hpp:77] Creating layer relu1
I0403 14:13:51.025766 29461 net.cpp:91] Creating Layer relu1
I0403 14:13:51.025786 29461 net.cpp:425] relu1 <- conv1
I0403 14:13:51.025807 29461 net.cpp:386] relu1 -> conv1 (in-place)
I0403 14:13:51.026070 29461 net.cpp:141] Setting up relu1
I0403 14:13:51.026099 29461 net.cpp:148] Top shape: 100 96 55 55 (29040000)
I0403 14:13:51.026115 29461 net.cpp:156] Memory required for data: 294156400
I0403 14:13:51.026242 29461 layer_factory.hpp:77] Creating layer norm1
I0403 14:13:51.026278 29461 net.cpp:91] Creating Layer norm1
I0403 14:13:51.026298 29461 net.cpp:425] norm1 <- conv1
I0403 14:13:51.026319 29461 net.cpp:399] norm1 -> norm1
I0403 14:13:51.026661 29461 net.cpp:141] Setting up norm1
I0403 14:13:51.026690 29461 net.cpp:148] Top shape: 100 96 55 55 (29040000)
I0403 14:13:51.026707 29461 net.cpp:156] Memory required for data: 410316400
I0403 14:13:51.026724 29461 layer_factory.hpp:77] Creating layer pool1
I0403 14:13:51.026749 29461 net.cpp:91] Creating Layer pool1
I0403 14:13:51.026767 29461 net.cpp:425] pool1 <- norm1
I0403 14:13:51.026785 29461 net.cpp:399] pool1 -> pool1
I0403 14:13:51.026852 29461 net.cpp:141] Setting up pool1
I0403 14:13:51.026878 29461 net.cpp:148] Top shape: 100 96 27 27 (6998400)
I0403 14:13:51.026895 29461 net.cpp:156] Memory required for data: 438310000
I0403 14:13:51.026911 29461 layer_factory.hpp:77] Creating layer conv2
I0403 14:13:51.026935 29461 net.cpp:91] Creating Layer conv2
I0403 14:13:51.026952 29461 net.cpp:425] conv2 <- pool1
I0403 14:13:51.026971 29461 net.cpp:399] conv2 -> conv2
I0403 14:13:51.042292 29461 net.cpp:141] Setting up conv2
I0403 14:13:51.042346 29461 net.cpp:148] Top shape: 100 256 27 27 (18662400)
I0403 14:13:51.042364 29461 net.cpp:156] Memory required for data: 512959600
I0403 14:13:51.042387 29461 layer_factory.hpp:77] Creating layer relu2
I0403 14:13:51.042410 29461 net.cpp:91] Creating Layer relu2
I0403 14:13:51.042428 29461 net.cpp:425] relu2 <- conv2
I0403 14:13:51.042448 29461 net.cpp:386] relu2 -> conv2 (in-place)
I0403 14:13:51.042717 29461 net.cpp:141] Setting up relu2
I0403 14:13:51.042744 29461 net.cpp:148] Top shape: 100 256 27 27 (18662400)
I0403 14:13:51.042760 29461 net.cpp:156] Memory required for data: 587609200
I0403 14:13:51.042778 29461 layer_factory.hpp:77] Creating layer norm2
I0403 14:13:51.042798 29461 net.cpp:91] Creating Layer norm2
I0403 14:13:51.042815 29461 net.cpp:425] norm2 <- conv2
I0403 14:13:51.042835 29461 net.cpp:399] norm2 -> norm2
I0403 14:13:51.043023 29461 net.cpp:141] Setting up norm2
I0403 14:13:51.043050 29461 net.cpp:148] Top shape: 100 256 27 27 (18662400)
I0403 14:13:51.043066 29461 net.cpp:156] Memory required for data: 662258800
I0403 14:13:51.043081 29461 layer_factory.hpp:77] Creating layer pool2
I0403 14:13:51.043100 29461 net.cpp:91] Creating Layer pool2
I0403 14:13:51.043118 29461 net.cpp:425] pool2 <- norm2
I0403 14:13:51.043135 29461 net.cpp:399] pool2 -> pool2
I0403 14:13:51.043186 29461 net.cpp:141] Setting up pool2
I0403 14:13:51.043210 29461 net.cpp:148] Top shape: 100 256 13 13 (4326400)
I0403 14:13:51.043226 29461 net.cpp:156] Memory required for data: 679564400
I0403 14:13:51.043242 29461 layer_factory.hpp:77] Creating layer conv3
I0403 14:13:51.043270 29461 net.cpp:91] Creating Layer conv3
I0403 14:13:51.043288 29461 net.cpp:425] conv3 <- pool2
I0403 14:13:51.043309 29461 net.cpp:399] conv3 -> conv3
I0403 14:13:51.082397 29461 net.cpp:141] Setting up conv3
I0403 14:13:51.082450 29461 net.cpp:148] Top shape: 100 384 13 13 (6489600)
I0403 14:13:51.082469 29461 net.cpp:156] Memory required for data: 705522800
I0403 14:13:51.082495 29461 layer_factory.hpp:77] Creating layer relu3
I0403 14:13:51.082518 29461 net.cpp:91] Creating Layer relu3
I0403 14:13:51.082536 29461 net.cpp:425] relu3 <- conv3
I0403 14:13:51.082556 29461 net.cpp:386] relu3 -> conv3 (in-place)
I0403 14:13:51.092159 29461 net.cpp:141] Setting up relu3
I0403 14:13:51.092195 29461 net.cpp:148] Top shape: 100 384 13 13 (6489600)
I0403 14:13:51.092211 29461 net.cpp:156] Memory required for data: 731481200
I0403 14:13:51.092226 29461 layer_factory.hpp:77] Creating layer conv4
I0403 14:13:51.092265 29461 net.cpp:91] Creating Layer conv4
I0403 14:13:51.092288 29461 net.cpp:425] conv4 <- conv3
I0403 14:13:51.092324 29461 net.cpp:399] conv4 -> conv4
I0403 14:13:51.122555 29461 net.cpp:141] Setting up conv4
I0403 14:13:51.122617 29461 net.cpp:148] Top shape: 100 384 13 13 (6489600)
I0403 14:13:51.122665 29461 net.cpp:156] Memory required for data: 757439600
I0403 14:13:51.122689 29461 layer_factory.hpp:77] Creating layer relu4
I0403 14:13:51.122714 29461 net.cpp:91] Creating Layer relu4
I0403 14:13:51.122731 29461 net.cpp:425] relu4 <- conv4
I0403 14:13:51.122750 29461 net.cpp:386] relu4 -> conv4 (in-place)
I0403 14:13:51.123030 29461 net.cpp:141] Setting up relu4
I0403 14:13:51.123059 29461 net.cpp:148] Top shape: 100 384 13 13 (6489600)
I0403 14:13:51.123075 29461 net.cpp:156] Memory required for data: 783398000
I0403 14:13:51.123090 29461 layer_factory.hpp:77] Creating layer conv5
I0403 14:13:51.123118 29461 net.cpp:91] Creating Layer conv5
I0403 14:13:51.123136 29461 net.cpp:425] conv5 <- conv4
I0403 14:13:51.123157 29461 net.cpp:399] conv5 -> conv5
I0403 14:13:51.144243 29461 net.cpp:141] Setting up conv5
I0403 14:13:51.144290 29461 net.cpp:148] Top shape: 100 256 13 13 (4326400)
I0403 14:13:51.144309 29461 net.cpp:156] Memory required for data: 800703600
I0403 14:13:51.144335 29461 layer_factory.hpp:77] Creating layer relu5
I0403 14:13:51.144356 29461 net.cpp:91] Creating Layer relu5
I0403 14:13:51.144374 29461 net.cpp:425] relu5 <- conv5
I0403 14:13:51.144392 29461 net.cpp:386] relu5 -> conv5 (in-place)
I0403 14:13:51.144676 29461 net.cpp:141] Setting up relu5
I0403 14:13:51.144707 29461 net.cpp:148] Top shape: 100 256 13 13 (4326400)
I0403 14:13:51.144724 29461 net.cpp:156] Memory required for data: 818009200
I0403 14:13:51.144740 29461 layer_factory.hpp:77] Creating layer pool5
I0403 14:13:51.144762 29461 net.cpp:91] Creating Layer pool5
I0403 14:13:51.144778 29461 net.cpp:425] pool5 <- conv5
I0403 14:13:51.144801 29461 net.cpp:399] pool5 -> pool5
I0403 14:13:51.144863 29461 net.cpp:141] Setting up pool5
I0403 14:13:51.144888 29461 net.cpp:148] Top shape: 100 256 6 6 (921600)
I0403 14:13:51.144904 29461 net.cpp:156] Memory required for data: 821695600
I0403 14:13:51.144922 29461 layer_factory.hpp:77] Creating layer fc6
I0403 14:13:51.144953 29461 net.cpp:91] Creating Layer fc6
I0403 14:13:51.144973 29461 net.cpp:425] fc6 <- pool5
I0403 14:13:51.144994 29461 net.cpp:399] fc6 -> fc6
I0403 14:13:52.707427 29461 net.cpp:141] Setting up fc6
I0403 14:13:52.707471 29461 net.cpp:148] Top shape: 100 4096 (409600)
I0403 14:13:52.707489 29461 net.cpp:156] Memory required for data: 823334000
I0403 14:13:52.707511 29461 layer_factory.hpp:77] Creating layer relu6
I0403 14:13:52.707536 29461 net.cpp:91] Creating Layer relu6
I0403 14:13:52.707556 29461 net.cpp:425] relu6 <- fc6
I0403 14:13:52.707576 29461 net.cpp:386] relu6 -> fc6 (in-place)
I0403 14:13:52.707799 29461 net.cpp:141] Setting up relu6
I0403 14:13:52.707826 29461 net.cpp:148] Top shape: 100 4096 (409600)
I0403 14:13:52.707842 29461 net.cpp:156] Memory required for data: 824972400
I0403 14:13:52.707857 29461 layer_factory.hpp:77] Creating layer drop6
I0403 14:13:52.707875 29461 net.cpp:91] Creating Layer drop6
I0403 14:13:52.707890 29461 net.cpp:425] drop6 <- fc6
I0403 14:13:52.707908 29461 net.cpp:386] drop6 -> fc6 (in-place)
I0403 14:13:52.707959 29461 net.cpp:141] Setting up drop6
I0403 14:13:52.707983 29461 net.cpp:148] Top shape: 100 4096 (409600)
I0403 14:13:52.707998 29461 net.cpp:156] Memory required for data: 826610800
I0403 14:13:52.708011 29461 layer_factory.hpp:77] Creating layer fc7
I0403 14:13:52.708034 29461 net.cpp:91] Creating Layer fc7
I0403 14:13:52.708050 29461 net.cpp:425] fc7 <- fc6
I0403 14:13:52.708067 29461 net.cpp:399] fc7 -> fc7
I0403 14:13:53.421844 29461 net.cpp:141] Setting up fc7
I0403 14:13:53.421905 29461 net.cpp:148] Top shape: 100 4096 (409600)
I0403 14:13:53.421922 29461 net.cpp:156] Memory required for data: 828249200
I0403 14:13:53.421944 29461 layer_factory.hpp:77] Creating layer relu7
I0403 14:13:53.421972 29461 net.cpp:91] Creating Layer relu7
I0403 14:13:53.421989 29461 net.cpp:425] relu7 <- fc7
I0403 14:13:53.422010 29461 net.cpp:386] relu7 -> fc7 (in-place)
I0403 14:13:53.422477 29461 net.cpp:141] Setting up relu7
I0403 14:13:53.422507 29461 net.cpp:148] Top shape: 100 4096 (409600)
I0403 14:13:53.422556 29461 net.cpp:156] Memory required for data: 829887600
I0403 14:13:53.422574 29461 layer_factory.hpp:77] Creating layer drop7
I0403 14:13:53.422593 29461 net.cpp:91] Creating Layer drop7
I0403 14:13:53.422610 29461 net.cpp:425] drop7 <- fc7
I0403 14:13:53.422628 29461 net.cpp:386] drop7 -> fc7 (in-place)
I0403 14:13:53.422675 29461 net.cpp:141] Setting up drop7
I0403 14:13:53.422699 29461 net.cpp:148] Top shape: 100 4096 (409600)
I0403 14:13:53.422715 29461 net.cpp:156] Memory required for data: 831526000
I0403 14:13:53.422730 29461 layer_factory.hpp:77] Creating layer fc8_plantvillage
I0403 14:13:53.422755 29461 net.cpp:91] Creating Layer fc8_plantvillage
I0403 14:13:53.422771 29461 net.cpp:425] fc8_plantvillage <- fc7
I0403 14:13:53.422791 29461 net.cpp:399] fc8_plantvillage -> fc8_plantvillage
I0403 14:13:53.429724 29461 net.cpp:141] Setting up fc8_plantvillage
I0403 14:13:53.429754 29461 net.cpp:148] Top shape: 100 38 (3800)
I0403 14:13:53.429770 29461 net.cpp:156] Memory required for data: 831541200
I0403 14:13:53.429790 29461 layer_factory.hpp:77] Creating layer fc8_plantvillage_fc8_plantvillage_0_split
I0403 14:13:53.429810 29461 net.cpp:91] Creating Layer fc8_plantvillage_fc8_plantvillage_0_split
I0403 14:13:53.429826 29461 net.cpp:425] fc8_plantvillage_fc8_plantvillage_0_split <- fc8_plantvillage
I0403 14:13:53.429844 29461 net.cpp:399] fc8_plantvillage_fc8_plantvillage_0_split -> fc8_plantvillage_fc8_plantvillage_0_split_0
I0403 14:13:53.429868 29461 net.cpp:399] fc8_plantvillage_fc8_plantvillage_0_split -> fc8_plantvillage_fc8_plantvillage_0_split_1
I0403 14:13:53.429890 29461 net.cpp:399] fc8_plantvillage_fc8_plantvillage_0_split -> fc8_plantvillage_fc8_plantvillage_0_split_2
I0403 14:13:53.429970 29461 net.cpp:141] Setting up fc8_plantvillage_fc8_plantvillage_0_split
I0403 14:13:53.429996 29461 net.cpp:148] Top shape: 100 38 (3800)
I0403 14:13:53.430013 29461 net.cpp:148] Top shape: 100 38 (3800)
I0403 14:13:53.430030 29461 net.cpp:148] Top shape: 100 38 (3800)
I0403 14:13:53.430045 29461 net.cpp:156] Memory required for data: 831586800
I0403 14:13:53.430059 29461 layer_factory.hpp:77] Creating layer prob
I0403 14:13:53.430078 29461 net.cpp:91] Creating Layer prob
I0403 14:13:53.430095 29461 net.cpp:425] prob <- fc8_plantvillage_fc8_plantvillage_0_split_0
I0403 14:13:53.430114 29461 net.cpp:399] prob -> prob
I0403 14:13:53.430356 29461 net.cpp:141] Setting up prob
I0403 14:13:53.430383 29461 net.cpp:148] Top shape: 100 38 (3800)
I0403 14:13:53.430399 29461 net.cpp:156] Memory required for data: 831602000
I0403 14:13:53.430414 29461 layer_factory.hpp:77] Creating layer hdf5out
I0403 14:13:53.430438 29461 net.cpp:91] Creating Layer hdf5out
I0403 14:13:53.430456 29461 net.cpp:425] hdf5out <- prob
I0403 14:13:53.430474 29461 net.cpp:425] hdf5out <- label_data_1_split_0
I0403 14:13:53.434185 29461 net.cpp:141] Setting up hdf5out
…
