…
I0403 06:58:18.471994 21413 net.cpp:313] The NetState phase (0) differed from the phase (1) specified by a rule in layer accuracy
I0403 06:58:18.473031 21413 net.cpp:49] Initializing net from parameters: 
state {
  phase: TRAIN
}
layer {
  name: "data"
  type: "Data"
  top: "data"
  top: "label"
  include {
    phase: TRAIN
  }
  transform_param {
    mirror: true
    crop_size: 227
    mean_file: "/home/mohanty/data/final_dataset/lmdb/segmented-60-40/mean.binaryproto"
  }
  data_param {
    source: "/home/mohanty/data/final_dataset/lmdb/segmented-60-40/train_db"
    batch_size: 100
    backend: LMDB
  }
}
layer {
  name: "conv1"
  type: "Convolution"
  bottom: "data"
  top: "conv1"
  param {
    lr_mult: 1
    decay_mult: 1
  }
  param {
    lr_mult: 2
    decay_mult: 0
  }
  convolution_param {
    num_output: 96
    kernel_size: 11
    stride: 4
    weight_filler {
      type: "gaussian"
      std: 0.01
    }
    bias_filler {
      type: "constant"
      value: 0
    }
  }
}
layer {
  name: "relu1"
  type: "ReLU"
  bottom: "conv1"
  top: "conv1"
}
layer {
  name: "norm1"
  type: "LRN"
  bottom: "conv1"
  top: "norm1"
  lrn_param {
    local_size: 5
    alpha: 0.0001
    beta: 0.75
  }
}
layer {
  name: "pool1"
  type: "Pooling"
  bottom: "norm1"
  top: "pool1"
  pooling_param {
    pool: MAX
    kernel_size: 3
    stride: 2
  }
}
layer {
  name: "conv2"
  type: "Convolution"
  bottom: "pool1"
  top: "conv2"
  param {
    lr_mult: 1
    decay_mult: 1
  }
  param {
    lr_mult: 2
    decay_mult: 0
  }
  convolution_param {
    num_output: 256
    pad: 2
    kernel_size: 5
    group: 2
    weight_filler {
      type: "gaussian"
      std: 0.01
    }
    bias_filler {
      type: "constant"
      value: 0.1
    }
  }
}
layer {
  name: "relu2"
  type: "ReLU"
  bottom: "conv2"
  top: "conv2"
}
layer {
  name: "norm2"
  type: "LRN"
  bottom: "conv2"
  top: "norm2"
  lrn_param {
    local_size: 5
    alpha: 0.0001
    beta: 0.75
  }
}
layer {
  name: "pool2"
  type: "Pooling"
  bottom: "norm2"
  top: "pool2"
  pooling_param {
    pool: MAX
    kernel_size: 3
    stride: 2
  }
}
layer {
  name: "conv3"
  type: "Convolution"
  bottom: "pool2"
  top: "conv3"
  param {
    lr_mult: 1
    decay_mult: 1
  }
  param {
    lr_mult: 2
    decay_mult: 0
  }
  convolution_param {
    num_output: 384
    pad: 1
    kernel_size: 3
    weight_filler {
      type: "gaussian"
      std: 0.01
    }
    bias_filler {
      type: "constant"
      value: 0
    }
  }
}
layer {
  name: "relu3"
  type: "ReLU"
  bottom: "conv3"
  top: "conv3"
}
layer {
  name: "conv4"
  type: "Convolution"
  bottom: "conv3"
  top: "conv4"
  param {
    lr_mult: 1
    decay_mult: 1
  }
  param {
    lr_mult: 2
    decay_mult: 0
  }
  convolution_param {
    num_output: 384
    pad: 1
    kernel_size: 3
    group: 2
    weight_filler {
      type: "gaussian"
      std: 0.01
    }
    bias_filler {
      type: "constant"
      value: 0.1
    }
  }
}
layer {
  name: "relu4"
  type: "ReLU"
  bottom: "conv4"
  top: "conv4"
}
layer {
  name: "conv5"
  type: "Convolution"
  bottom: "conv4"
  top: "conv5"
  param {
    lr_mult: 1
    decay_mult: 1
  }
  param {
    lr_mult: 2
    decay_mult: 0
  }
  convolution_param {
    num_output: 256
    pad: 1
    kernel_size: 3
    group: 2
    weight_filler {
      type: "gaussian"
      std: 0.01
    }
    bias_filler {
      type: "constant"
      value: 0.1
    }
  }
}
layer {
  name: "relu5"
  type: "ReLU"
  bottom: "conv5"
  top: "conv5"
}
layer {
  name: "pool5"
  type: "Pooling"
  bottom: "conv5"
  top: "pool5"
  pooling_param {
    pool: MAX
    kernel_size: 3
    stride: 2
  }
}
layer {
  name: "fc6"
  type: "InnerProduct"
  bottom: "pool5"
  top: "fc6"
  param {
    lr_mult: 1
    decay_mult: 1
  }
  param {
    lr_mult: 2
    decay_mult: 0
  }
  inner_product_param {
    num_output: 4096
    weight_filler {
      type: "gaussian"
      std: 0.005
    }
    bias_filler {
      type: "constant"
      value: 0.1
    }
  }
}
layer {
  name: "relu6"
  type: "ReLU"
  bottom: "fc6"
  top: "fc6"
}
layer {
  name: "drop6"
  type: "Dropout"
  bottom: "fc6"
  top: "fc6"
  dropout_param {
    dropout_ratio: 0.5
  }
}
layer {
  name: "fc7"
  type: "InnerProduct"
  bottom: "fc6"
  top: "fc7"
  param {
    lr_mult: 1
    decay_mult: 1
  }
  param {
    lr_mult: 2
    decay_mult: 0
  }
  inner_product_param {
    num_output: 4096
    weight_filler {
      type: "gaussian"
      std: 0.005
    }
    bias_filler {
      type: "constant"
      value: 0.1
    }
  }
}
layer {
  name: "relu7"
  type: "ReLU"
  bottom: "fc7"
  top: "fc7"
}
layer {
  name: "drop7"
  type: "Dropout"
  bottom: "fc7"
  top: "fc7"
  dropout_param {
    dropout_ratio: 0.5
  }
}
layer {
  name: "fc8_plantvillage"
  type: "InnerProduct"
  bottom: "fc7"
  top: "fc8_plantvillage"
  param {
    lr_mult: 1
    decay_mult: 1
  }
  param {
    lr_mult: 2
    decay_mult: 0
  }
  inner_product_param {
    num_output: 38
    weight_filler {
      type: "gaussian"
      std: 0.01
    }
    bias_filler {
      type: "constant"
      value: 0
    }
  }
}
layer {
  name: "loss"
  type: "SoftmaxWithLoss"
  bottom: "fc8_plantvillage"
  bottom: "label"
  top: "loss"
}
I0403 06:58:18.475478 21413 layer_factory.hpp:77] Creating layer data
I0403 06:58:18.477162 21413 net.cpp:91] Creating Layer data
I0403 06:58:18.477258 21413 net.cpp:399] data -> data
I0403 06:58:18.477380 21413 net.cpp:399] data -> label
I0403 06:58:18.477464 21413 data_transformer.cpp:25] Loading mean file from: /home/mohanty/data/final_dataset/lmdb/segmented-60-40/mean.binaryproto
I0403 06:58:18.504957 21417 db_lmdb.cpp:38] Opened lmdb /home/mohanty/data/final_dataset/lmdb/segmented-60-40/train_db
I0403 06:58:18.514485 21413 data_layer.cpp:41] output data size: 100,3,227,227
I0403 06:58:18.630367 21413 net.cpp:141] Setting up data
I0403 06:58:18.630470 21413 net.cpp:148] Top shape: 100 3 227 227 (15458700)
I0403 06:58:18.630489 21413 net.cpp:148] Top shape: 100 (100)
I0403 06:58:18.630504 21413 net.cpp:156] Memory required for data: 61835200
I0403 06:58:18.630538 21413 layer_factory.hpp:77] Creating layer conv1
I0403 06:58:18.630584 21413 net.cpp:91] Creating Layer conv1
I0403 06:58:18.630606 21413 net.cpp:425] conv1 <- data
I0403 06:58:18.630638 21413 net.cpp:399] conv1 -> conv1
I0403 06:58:18.633163 21413 net.cpp:141] Setting up conv1
I0403 06:58:18.633193 21413 net.cpp:148] Top shape: 100 96 55 55 (29040000)
I0403 06:58:18.633208 21413 net.cpp:156] Memory required for data: 177995200
I0403 06:58:18.633244 21413 layer_factory.hpp:77] Creating layer relu1
I0403 06:58:18.633270 21413 net.cpp:91] Creating Layer relu1
I0403 06:58:18.633287 21413 net.cpp:425] relu1 <- conv1
I0403 06:58:18.633306 21413 net.cpp:386] relu1 -> conv1 (in-place)
I0403 06:58:18.633328 21413 net.cpp:141] Setting up relu1
I0403 06:58:18.633347 21413 net.cpp:148] Top shape: 100 96 55 55 (29040000)
I0403 06:58:18.633361 21413 net.cpp:156] Memory required for data: 294155200
I0403 06:58:18.633375 21413 layer_factory.hpp:77] Creating layer norm1
I0403 06:58:18.633433 21413 net.cpp:91] Creating Layer norm1
I0403 06:58:18.633450 21413 net.cpp:425] norm1 <- conv1
I0403 06:58:18.633467 21413 net.cpp:399] norm1 -> norm1
I0403 06:58:18.639107 21413 net.cpp:141] Setting up norm1
I0403 06:58:18.639140 21413 net.cpp:148] Top shape: 100 96 55 55 (29040000)
I0403 06:58:18.639158 21413 net.cpp:156] Memory required for data: 410315200
I0403 06:58:18.639173 21413 layer_factory.hpp:77] Creating layer pool1
I0403 06:58:18.639194 21413 net.cpp:91] Creating Layer pool1
I0403 06:58:18.639209 21413 net.cpp:425] pool1 <- norm1
I0403 06:58:18.639227 21413 net.cpp:399] pool1 -> pool1
I0403 06:58:18.639288 21413 net.cpp:141] Setting up pool1
I0403 06:58:18.639312 21413 net.cpp:148] Top shape: 100 96 27 27 (6998400)
I0403 06:58:18.639328 21413 net.cpp:156] Memory required for data: 438308800
I0403 06:58:18.639341 21413 layer_factory.hpp:77] Creating layer conv2
I0403 06:58:18.639364 21413 net.cpp:91] Creating Layer conv2
I0403 06:58:18.639380 21413 net.cpp:425] conv2 <- pool1
I0403 06:58:18.639400 21413 net.cpp:399] conv2 -> conv2
I0403 06:58:18.640547 21418 blocking_queue.cpp:50] Waiting for data
I0403 06:58:18.651836 21413 net.cpp:141] Setting up conv2
I0403 06:58:18.651864 21413 net.cpp:148] Top shape: 100 256 27 27 (18662400)
I0403 06:58:18.651881 21413 net.cpp:156] Memory required for data: 512958400
I0403 06:58:18.651901 21413 layer_factory.hpp:77] Creating layer relu2
I0403 06:58:18.651919 21413 net.cpp:91] Creating Layer relu2
I0403 06:58:18.651935 21413 net.cpp:425] relu2 <- conv2
I0403 06:58:18.651952 21413 net.cpp:386] relu2 -> conv2 (in-place)
I0403 06:58:18.651971 21413 net.cpp:141] Setting up relu2
I0403 06:58:18.651988 21413 net.cpp:148] Top shape: 100 256 27 27 (18662400)
I0403 06:58:18.652001 21413 net.cpp:156] Memory required for data: 587608000
I0403 06:58:18.652014 21413 layer_factory.hpp:77] Creating layer norm2
I0403 06:58:18.652031 21413 net.cpp:91] Creating Layer norm2
I0403 06:58:18.652046 21413 net.cpp:425] norm2 <- conv2
I0403 06:58:18.652062 21413 net.cpp:399] norm2 -> norm2
I0403 06:58:18.652106 21413 net.cpp:141] Setting up norm2
I0403 06:58:18.652127 21413 net.cpp:148] Top shape: 100 256 27 27 (18662400)
I0403 06:58:18.652140 21413 net.cpp:156] Memory required for data: 662257600
I0403 06:58:18.652154 21413 layer_factory.hpp:77] Creating layer pool2
I0403 06:58:18.652173 21413 net.cpp:91] Creating Layer pool2
I0403 06:58:18.652189 21413 net.cpp:425] pool2 <- norm2
I0403 06:58:18.652206 21413 net.cpp:399] pool2 -> pool2
I0403 06:58:18.652247 21413 net.cpp:141] Setting up pool2
I0403 06:58:18.652269 21413 net.cpp:148] Top shape: 100 256 13 13 (4326400)
I0403 06:58:18.652282 21413 net.cpp:156] Memory required for data: 679563200
I0403 06:58:18.652297 21413 layer_factory.hpp:77] Creating layer conv3
I0403 06:58:18.652318 21413 net.cpp:91] Creating Layer conv3
I0403 06:58:18.652333 21413 net.cpp:425] conv3 <- pool2
I0403 06:58:18.652351 21413 net.cpp:399] conv3 -> conv3
I0403 06:58:18.684381 21413 net.cpp:141] Setting up conv3
I0403 06:58:18.684412 21413 net.cpp:148] Top shape: 100 384 13 13 (6489600)
I0403 06:58:18.684427 21413 net.cpp:156] Memory required for data: 705521600
I0403 06:58:18.684448 21413 layer_factory.hpp:77] Creating layer relu3
I0403 06:58:18.684466 21413 net.cpp:91] Creating Layer relu3
I0403 06:58:18.684483 21413 net.cpp:425] relu3 <- conv3
I0403 06:58:18.684499 21413 net.cpp:386] relu3 -> conv3 (in-place)
I0403 06:58:18.684516 21413 net.cpp:141] Setting up relu3
I0403 06:58:18.684536 21413 net.cpp:148] Top shape: 100 384 13 13 (6489600)
I0403 06:58:18.684551 21413 net.cpp:156] Memory required for data: 731480000
I0403 06:58:18.684566 21413 layer_factory.hpp:77] Creating layer conv4
I0403 06:58:18.684587 21413 net.cpp:91] Creating Layer conv4
I0403 06:58:18.684602 21413 net.cpp:425] conv4 <- conv3
I0403 06:58:18.684620 21413 net.cpp:399] conv4 -> conv4
I0403 06:58:18.708621 21413 net.cpp:141] Setting up conv4
I0403 06:58:18.708650 21413 net.cpp:148] Top shape: 100 384 13 13 (6489600)
I0403 06:58:18.708664 21413 net.cpp:156] Memory required for data: 757438400
I0403 06:58:18.708698 21413 layer_factory.hpp:77] Creating layer relu4
I0403 06:58:18.708717 21413 net.cpp:91] Creating Layer relu4
I0403 06:58:18.708734 21413 net.cpp:425] relu4 <- conv4
I0403 06:58:18.708750 21413 net.cpp:386] relu4 -> conv4 (in-place)
I0403 06:58:18.708768 21413 net.cpp:141] Setting up relu4
I0403 06:58:18.708784 21413 net.cpp:148] Top shape: 100 384 13 13 (6489600)
I0403 06:58:18.708798 21413 net.cpp:156] Memory required for data: 783396800
I0403 06:58:18.708812 21413 layer_factory.hpp:77] Creating layer conv5
I0403 06:58:18.708832 21413 net.cpp:91] Creating Layer conv5
I0403 06:58:18.708847 21413 net.cpp:425] conv5 <- conv4
I0403 06:58:18.708866 21413 net.cpp:399] conv5 -> conv5
I0403 06:58:18.724961 21413 net.cpp:141] Setting up conv5
I0403 06:58:18.724992 21413 net.cpp:148] Top shape: 100 256 13 13 (4326400)
I0403 06:58:18.725006 21413 net.cpp:156] Memory required for data: 800702400
I0403 06:58:18.725028 21413 layer_factory.hpp:77] Creating layer relu5
I0403 06:58:18.725049 21413 net.cpp:91] Creating Layer relu5
I0403 06:58:18.725067 21413 net.cpp:425] relu5 <- conv5
I0403 06:58:18.725085 21413 net.cpp:386] relu5 -> conv5 (in-place)
I0403 06:58:18.725105 21413 net.cpp:141] Setting up relu5
I0403 06:58:18.725122 21413 net.cpp:148] Top shape: 100 256 13 13 (4326400)
I0403 06:58:18.725137 21413 net.cpp:156] Memory required for data: 818008000
I0403 06:58:18.725150 21413 layer_factory.hpp:77] Creating layer pool5
I0403 06:58:18.725167 21413 net.cpp:91] Creating Layer pool5
I0403 06:58:18.725183 21413 net.cpp:425] pool5 <- conv5
I0403 06:58:18.725200 21413 net.cpp:399] pool5 -> pool5
I0403 06:58:18.725245 21413 net.cpp:141] Setting up pool5
I0403 06:58:18.725270 21413 net.cpp:148] Top shape: 100 256 6 6 (921600)
I0403 06:58:18.725283 21413 net.cpp:156] Memory required for data: 821694400
I0403 06:58:18.725297 21413 layer_factory.hpp:77] Creating layer fc6
I0403 06:58:18.725322 21413 net.cpp:91] Creating Layer fc6
I0403 06:58:18.725338 21413 net.cpp:425] fc6 <- pool5
I0403 06:58:18.725358 21413 net.cpp:399] fc6 -> fc6
I0403 06:58:20.078223 21413 net.cpp:141] Setting up fc6
I0403 06:58:20.078322 21413 net.cpp:148] Top shape: 100 4096 (409600)
I0403 06:58:20.078339 21413 net.cpp:156] Memory required for data: 823332800
I0403 06:58:20.078361 21413 layer_factory.hpp:77] Creating layer relu6
I0403 06:58:20.078385 21413 net.cpp:91] Creating Layer relu6
I0403 06:58:20.078402 21413 net.cpp:425] relu6 <- fc6
I0403 06:58:20.078421 21413 net.cpp:386] relu6 -> fc6 (in-place)
I0403 06:58:20.078443 21413 net.cpp:141] Setting up relu6
I0403 06:58:20.078459 21413 net.cpp:148] Top shape: 100 4096 (409600)
I0403 06:58:20.078474 21413 net.cpp:156] Memory required for data: 824971200
I0403 06:58:20.078487 21413 layer_factory.hpp:77] Creating layer drop6
I0403 06:58:20.078513 21413 net.cpp:91] Creating Layer drop6
I0403 06:58:20.078531 21413 net.cpp:425] drop6 <- fc6
I0403 06:58:20.078553 21413 net.cpp:386] drop6 -> fc6 (in-place)
I0403 06:58:20.078599 21413 net.cpp:141] Setting up drop6
I0403 06:58:20.078620 21413 net.cpp:148] Top shape: 100 4096 (409600)
I0403 06:58:20.078634 21413 net.cpp:156] Memory required for data: 826609600
I0403 06:58:20.078647 21413 layer_factory.hpp:77] Creating layer fc7
I0403 06:58:20.078667 21413 net.cpp:91] Creating Layer fc7
I0403 06:58:20.078682 21413 net.cpp:425] fc7 <- fc6
I0403 06:58:20.078703 21413 net.cpp:399] fc7 -> fc7
I0403 06:58:20.679575 21413 net.cpp:141] Setting up fc7
I0403 06:58:20.679669 21413 net.cpp:148] Top shape: 100 4096 (409600)
I0403 06:58:20.679684 21413 net.cpp:156] Memory required for data: 828248000
I0403 06:58:20.679705 21413 layer_factory.hpp:77] Creating layer relu7
I0403 06:58:20.679728 21413 net.cpp:91] Creating Layer relu7
I0403 06:58:20.679745 21413 net.cpp:425] relu7 <- fc7
I0403 06:58:20.679765 21413 net.cpp:386] relu7 -> fc7 (in-place)
I0403 06:58:20.679788 21413 net.cpp:141] Setting up relu7
I0403 06:58:20.679805 21413 net.cpp:148] Top shape: 100 4096 (409600)
I0403 06:58:20.679819 21413 net.cpp:156] Memory required for data: 829886400
I0403 06:58:20.679874 21413 layer_factory.hpp:77] Creating layer drop7
I0403 06:58:20.679894 21413 net.cpp:91] Creating Layer drop7
I0403 06:58:20.679909 21413 net.cpp:425] drop7 <- fc7
I0403 06:58:20.679925 21413 net.cpp:386] drop7 -> fc7 (in-place)
I0403 06:58:20.679965 21413 net.cpp:141] Setting up drop7
I0403 06:58:20.679986 21413 net.cpp:148] Top shape: 100 4096 (409600)
I0403 06:58:20.679999 21413 net.cpp:156] Memory required for data: 831524800
I0403 06:58:20.680013 21413 layer_factory.hpp:77] Creating layer fc8_plantvillage
I0403 06:58:20.680032 21413 net.cpp:91] Creating Layer fc8_plantvillage
I0403 06:58:20.680047 21413 net.cpp:425] fc8_plantvillage <- fc7
I0403 06:58:20.680066 21413 net.cpp:399] fc8_plantvillage -> fc8_plantvillage
I0403 06:58:20.686033 21413 net.cpp:141] Setting up fc8_plantvillage
I0403 06:58:20.686060 21413 net.cpp:148] Top shape: 100 38 (3800)
I0403 06:58:20.686075 21413 net.cpp:156] Memory required for data: 831540000
I0403 06:58:20.686094 21413 layer_factory.hpp:77] Creating layer loss
I0403 06:58:20.686120 21413 net.cpp:91] Creating Layer loss
I0403 06:58:20.686136 21413 net.cpp:425] loss <- fc8_plantvillage
I0403 06:58:20.686152 21413 net.cpp:425] loss <- label
I0403 06:58:20.686173 21413 net.cpp:399] loss -> loss
I0403 06:58:20.686199 21413 layer_factory.hpp:77] Creating layer loss
…
I0403 06:58:20.687904 21413 net.cpp:313] The NetState phase (1) differed from the phase (0) specified by a rule in layer data
I0403 06:58:20.688529 21413 net.cpp:49] Initializing net from parameters: 
state {
  phase: TEST
}
layer {
  name: "data"
  type: "Data"
  top: "data"
  top: "label"
  include {
    phase: TEST
  }
  transform_param {
    crop_size: 227
    mean_file: "/home/mohanty/data/final_dataset/lmdb/segmented-60-40/mean.binaryproto"
  }
  data_param {
    source: "/home/mohanty/data/final_dataset/lmdb/segmented-60-40/test_db"
    batch_size: 100
    backend: LMDB
  }
}
layer {
  name: "conv1"
  type: "Convolution"
  bottom: "data"
  top: "conv1"
  param {
    lr_mult: 1
    decay_mult: 1
  }
  param {
    lr_mult: 2
    decay_mult: 0
  }
  convolution_param {
    num_output: 96
    kernel_size: 11
    stride: 4
    weight_filler {
      type: "gaussian"
      std: 0.01
    }
    bias_filler {
      type: "constant"
      value: 0
    }
  }
}
layer {
  name: "relu1"
  type: "ReLU"
  bottom: "conv1"
  top: "conv1"
}
layer {
  name: "norm1"
  type: "LRN"
  bottom: "conv1"
  top: "norm1"
  lrn_param {
    local_size: 5
    alpha: 0.0001
    beta: 0.75
  }
}
layer {
  name: "pool1"
  type: "Pooling"
  bottom: "norm1"
  top: "pool1"
  pooling_param {
    pool: MAX
    kernel_size: 3
    stride: 2
  }
}
layer {
  name: "conv2"
  type: "Convolution"
  bottom: "pool1"
  top: "conv2"
  param {
    lr_mult: 1
    decay_mult: 1
  }
  param {
    lr_mult: 2
    decay_mult: 0
  }
  convolution_param {
    num_output: 256
    pad: 2
    kernel_size: 5
    group: 2
    weight_filler {
      type: "gaussian"
      std: 0.01
    }
    bias_filler {
      type: "constant"
      value: 0.1
    }
  }
}
layer {
  name: "relu2"
  type: "ReLU"
  bottom: "conv2"
  top: "conv2"
}
layer {
  name: "norm2"
  type: "LRN"
  bottom: "conv2"
  top: "norm2"
  lrn_param {
    local_size: 5
    alpha: 0.0001
    beta: 0.75
  }
}
layer {
  name: "pool2"
  type: "Pooling"
  bottom: "norm2"
  top: "pool2"
  pooling_param {
    pool: MAX
    kernel_size: 3
    stride: 2
  }
}
layer {
  name: "conv3"
  type: "Convolution"
  bottom: "pool2"
  top: "conv3"
  param {
    lr_mult: 1
    decay_mult: 1
  }
  param {
    lr_mult: 2
    decay_mult: 0
  }
  convolution_param {
    num_output: 384
    pad: 1
    kernel_size: 3
    weight_filler {
      type: "gaussian"
      std: 0.01
    }
    bias_filler {
      type: "constant"
      value: 0
    }
  }
}
layer {
  name: "relu3"
  type: "ReLU"
  bottom: "conv3"
  top: "conv3"
}
layer {
  name: "conv4"
  type: "Convolution"
  bottom: "conv3"
  top: "conv4"
  param {
    lr_mult: 1
    decay_mult: 1
  }
  param {
    lr_mult: 2
    decay_mult: 0
  }
  convolution_param {
    num_output: 384
    pad: 1
    kernel_size: 3
    group: 2
    weight_filler {
      type: "gaussian"
      std: 0.01
    }
    bias_filler {
      type: "constant"
      value: 0.1
    }
  }
}
layer {
  name: "relu4"
  type: "ReLU"
  bottom: "conv4"
  top: "conv4"
}
layer {
  name: "conv5"
  type: "Convolution"
  bottom: "conv4"
  top: "conv5"
  param {
    lr_mult: 1
    decay_mult: 1
  }
  param {
    lr_mult: 2
    decay_mult: 0
  }
  convolution_param {
    num_output: 256
    pad: 1
    kernel_size: 3
    group: 2
    weight_filler {
      type: "gaussian"
      std: 0.01
    }
    bias_filler {
      type: "constant"
      value: 0.1
    }
  }
}
layer {
  name: "relu5"
  type: "ReLU"
  bottom: "conv5"
  top: "conv5"
}
layer {
  name: "pool5"
  type: "Pooling"
  bottom: "conv5"
  top: "pool5"
  pooling_param {
    pool: MAX
    kernel_size: 3
    stride: 2
  }
}
layer {
  name: "fc6"
  type: "InnerProduct"
  bottom: "pool5"
  top: "fc6"
  param {
    lr_mult: 1
    decay_mult: 1
  }
  param {
    lr_mult: 2
    decay_mult: 0
  }
  inner_product_param {
    num_output: 4096
    weight_filler {
      type: "gaussian"
      std: 0.005
    }
    bias_filler {
      type: "constant"
      value: 0.1
    }
  }
}
layer {
  name: "relu6"
  type: "ReLU"
  bottom: "fc6"
  top: "fc6"
}
layer {
  name: "drop6"
  type: "Dropout"
  bottom: "fc6"
  top: "fc6"
  dropout_param {
    dropout_ratio: 0.5
  }
}
layer {
  name: "fc7"
  type: "InnerProduct"
  bottom: "fc6"
  top: "fc7"
  param {
    lr_mult: 1
    decay_mult: 1
  }
  param {
    lr_mult: 2
    decay_mult: 0
  }
  inner_product_param {
    num_output: 4096
    weight_filler {
      type: "gaussian"
      std: 0.005
    }
    bias_filler {
      type: "constant"
      value: 0.1
    }
  }
}
layer {
  name: "relu7"
  type: "ReLU"
  bottom: "fc7"
  top: "fc7"
}
layer {
  name: "drop7"
  type: "Dropout"
  bottom: "fc7"
  top: "fc7"
  dropout_param {
    dropout_ratio: 0.5
  }
}
layer {
  name: "fc8_plantvillage"
  type: "InnerProduct"
  bottom: "fc7"
  top: "fc8_plantvillage"
  param {
    lr_mult: 1
    decay_mult: 1
  }
  param {
    lr_mult: 2
    decay_mult: 0
  }
  inner_product_param {
    num_output: 38
    weight_filler {
      type: "gaussian"
      std: 0.01
    }
    bias_filler {
      type: "constant"
      value: 0
    }
  }
}
layer {
  name: "loss"
  type: "SoftmaxWithLoss"
  bottom: "fc8_plantvillage"
  bottom: "label"
  top: "loss"
}
layer {
  name: "accuracy"
  type: "Accuracy"
  bottom: "fc8_plantvillage"
  bottom: "label"
  top: "accuracy"
  include {
    phase: TEST
  }
}
I0403 06:58:20.688689 21413 layer_factory.hpp:77] Creating layer data
I0403 06:58:20.688855 21413 net.cpp:91] Creating Layer data
I0403 06:58:20.688884 21413 net.cpp:399] data -> data
I0403 06:58:20.688907 21413 net.cpp:399] data -> label
I0403 06:58:20.688930 21413 data_transformer.cpp:25] Loading mean file from: /home/mohanty/data/final_dataset/lmdb/segmented-60-40/mean.binaryproto
I0403 06:58:20.720055 21419 db_lmdb.cpp:38] Opened lmdb /home/mohanty/data/final_dataset/lmdb/segmented-60-40/test_db
I0403 06:58:20.722498 21413 data_layer.cpp:41] output data size: 100,3,227,227
I0403 06:58:20.836614 21413 net.cpp:141] Setting up data
I0403 06:58:20.836715 21413 net.cpp:148] Top shape: 100 3 227 227 (15458700)
I0403 06:58:20.836735 21413 net.cpp:148] Top shape: 100 (100)
I0403 06:58:20.836751 21413 net.cpp:156] Memory required for data: 61835200
I0403 06:58:20.836771 21413 layer_factory.hpp:77] Creating layer label_data_1_split
I0403 06:58:20.836799 21413 net.cpp:91] Creating Layer label_data_1_split
I0403 06:58:20.836815 21413 net.cpp:425] label_data_1_split <- label
I0403 06:58:20.836835 21413 net.cpp:399] label_data_1_split -> label_data_1_split_0
I0403 06:58:20.836859 21413 net.cpp:399] label_data_1_split -> label_data_1_split_1
I0403 06:58:20.836915 21413 net.cpp:141] Setting up label_data_1_split
I0403 06:58:20.836935 21413 net.cpp:148] Top shape: 100 (100)
I0403 06:58:20.836951 21413 net.cpp:148] Top shape: 100 (100)
I0403 06:58:20.836966 21413 net.cpp:156] Memory required for data: 61836000
I0403 06:58:20.836982 21413 layer_factory.hpp:77] Creating layer conv1
I0403 06:58:20.837008 21413 net.cpp:91] Creating Layer conv1
I0403 06:58:20.837025 21413 net.cpp:425] conv1 <- data
I0403 06:58:20.837044 21413 net.cpp:399] conv1 -> conv1
I0403 06:58:20.838510 21413 net.cpp:141] Setting up conv1
I0403 06:58:20.838538 21413 net.cpp:148] Top shape: 100 96 55 55 (29040000)
I0403 06:58:20.838554 21413 net.cpp:156] Memory required for data: 177996000
I0403 06:58:20.838587 21413 layer_factory.hpp:77] Creating layer relu1
I0403 06:58:20.838606 21413 net.cpp:91] Creating Layer relu1
I0403 06:58:20.838624 21413 net.cpp:425] relu1 <- conv1
I0403 06:58:20.838641 21413 net.cpp:386] relu1 -> conv1 (in-place)
I0403 06:58:20.838660 21413 net.cpp:141] Setting up relu1
I0403 06:58:20.838676 21413 net.cpp:148] Top shape: 100 96 55 55 (29040000)
I0403 06:58:20.838691 21413 net.cpp:156] Memory required for data: 294156000
I0403 06:58:20.838706 21413 layer_factory.hpp:77] Creating layer norm1
I0403 06:58:20.838726 21413 net.cpp:91] Creating Layer norm1
I0403 06:58:20.838740 21413 net.cpp:425] norm1 <- conv1
I0403 06:58:20.838757 21413 net.cpp:399] norm1 -> norm1
I0403 06:58:20.844565 21413 net.cpp:141] Setting up norm1
I0403 06:58:20.844609 21413 net.cpp:148] Top shape: 100 96 55 55 (29040000)
I0403 06:58:20.844624 21413 net.cpp:156] Memory required for data: 410316000
I0403 06:58:20.844640 21413 layer_factory.hpp:77] Creating layer pool1
I0403 06:58:20.844658 21413 net.cpp:91] Creating Layer pool1
I0403 06:58:20.844674 21413 net.cpp:425] pool1 <- norm1
I0403 06:58:20.844692 21413 net.cpp:399] pool1 -> pool1
I0403 06:58:20.844739 21413 net.cpp:141] Setting up pool1
I0403 06:58:20.844761 21413 net.cpp:148] Top shape: 100 96 27 27 (6998400)
I0403 06:58:20.844775 21413 net.cpp:156] Memory required for data: 438309600
I0403 06:58:20.844828 21413 layer_factory.hpp:77] Creating layer conv2
I0403 06:58:20.844852 21413 net.cpp:91] Creating Layer conv2
I0403 06:58:20.844868 21413 net.cpp:425] conv2 <- pool1
I0403 06:58:20.844887 21413 net.cpp:399] conv2 -> conv2
I0403 06:58:20.856431 21413 net.cpp:141] Setting up conv2
I0403 06:58:20.856461 21413 net.cpp:148] Top shape: 100 256 27 27 (18662400)
I0403 06:58:20.856477 21413 net.cpp:156] Memory required for data: 512959200
I0403 06:58:20.856498 21413 layer_factory.hpp:77] Creating layer relu2
I0403 06:58:20.856518 21413 net.cpp:91] Creating Layer relu2
I0403 06:58:20.856536 21413 net.cpp:425] relu2 <- conv2
I0403 06:58:20.856555 21413 net.cpp:386] relu2 -> conv2 (in-place)
I0403 06:58:20.856575 21413 net.cpp:141] Setting up relu2
I0403 06:58:20.856591 21413 net.cpp:148] Top shape: 100 256 27 27 (18662400)
I0403 06:58:20.856606 21413 net.cpp:156] Memory required for data: 587608800
I0403 06:58:20.856621 21413 layer_factory.hpp:77] Creating layer norm2
I0403 06:58:20.856638 21413 net.cpp:91] Creating Layer norm2
I0403 06:58:20.856654 21413 net.cpp:425] norm2 <- conv2
I0403 06:58:20.856673 21413 net.cpp:399] norm2 -> norm2
I0403 06:58:20.856719 21413 net.cpp:141] Setting up norm2
I0403 06:58:20.856741 21413 net.cpp:148] Top shape: 100 256 27 27 (18662400)
I0403 06:58:20.856756 21413 net.cpp:156] Memory required for data: 662258400
I0403 06:58:20.856770 21413 layer_factory.hpp:77] Creating layer pool2
I0403 06:58:20.856787 21413 net.cpp:91] Creating Layer pool2
I0403 06:58:20.856803 21413 net.cpp:425] pool2 <- norm2
I0403 06:58:20.856820 21413 net.cpp:399] pool2 -> pool2
I0403 06:58:20.856865 21413 net.cpp:141] Setting up pool2
I0403 06:58:20.856886 21413 net.cpp:148] Top shape: 100 256 13 13 (4326400)
I0403 06:58:20.856900 21413 net.cpp:156] Memory required for data: 679564000
I0403 06:58:20.856914 21413 layer_factory.hpp:77] Creating layer conv3
I0403 06:58:20.856935 21413 net.cpp:91] Creating Layer conv3
I0403 06:58:20.856951 21413 net.cpp:425] conv3 <- pool2
I0403 06:58:20.856971 21413 net.cpp:399] conv3 -> conv3
I0403 06:58:20.890094 21413 net.cpp:141] Setting up conv3
I0403 06:58:20.890164 21413 net.cpp:148] Top shape: 100 384 13 13 (6489600)
I0403 06:58:20.890180 21413 net.cpp:156] Memory required for data: 705522400
I0403 06:58:20.890203 21413 layer_factory.hpp:77] Creating layer relu3
I0403 06:58:20.890226 21413 net.cpp:91] Creating Layer relu3
I0403 06:58:20.890244 21413 net.cpp:425] relu3 <- conv3
I0403 06:58:20.890264 21413 net.cpp:386] relu3 -> conv3 (in-place)
I0403 06:58:20.890283 21413 net.cpp:141] Setting up relu3
I0403 06:58:20.890300 21413 net.cpp:148] Top shape: 100 384 13 13 (6489600)
I0403 06:58:20.890314 21413 net.cpp:156] Memory required for data: 731480800
I0403 06:58:20.890328 21413 layer_factory.hpp:77] Creating layer conv4
I0403 06:58:20.890350 21413 net.cpp:91] Creating Layer conv4
I0403 06:58:20.890367 21413 net.cpp:425] conv4 <- conv3
I0403 06:58:20.890386 21413 net.cpp:399] conv4 -> conv4
I0403 06:58:20.915263 21413 net.cpp:141] Setting up conv4
I0403 06:58:20.915308 21413 net.cpp:148] Top shape: 100 384 13 13 (6489600)
I0403 06:58:20.915323 21413 net.cpp:156] Memory required for data: 757439200
I0403 06:58:20.915343 21413 layer_factory.hpp:77] Creating layer relu4
I0403 06:58:20.915362 21413 net.cpp:91] Creating Layer relu4
I0403 06:58:20.915380 21413 net.cpp:425] relu4 <- conv4
I0403 06:58:20.915397 21413 net.cpp:386] relu4 -> conv4 (in-place)
I0403 06:58:20.915417 21413 net.cpp:141] Setting up relu4
I0403 06:58:20.915434 21413 net.cpp:148] Top shape: 100 384 13 13 (6489600)
I0403 06:58:20.915448 21413 net.cpp:156] Memory required for data: 783397600
I0403 06:58:20.915462 21413 layer_factory.hpp:77] Creating layer conv5
I0403 06:58:20.915484 21413 net.cpp:91] Creating Layer conv5
I0403 06:58:20.915500 21413 net.cpp:425] conv5 <- conv4
I0403 06:58:20.915519 21413 net.cpp:399] conv5 -> conv5
I0403 06:58:20.932231 21413 net.cpp:141] Setting up conv5
I0403 06:58:20.932265 21413 net.cpp:148] Top shape: 100 256 13 13 (4326400)
I0403 06:58:20.932317 21413 net.cpp:156] Memory required for data: 800703200
I0403 06:58:20.932345 21413 layer_factory.hpp:77] Creating layer relu5
I0403 06:58:20.932366 21413 net.cpp:91] Creating Layer relu5
I0403 06:58:20.932382 21413 net.cpp:425] relu5 <- conv5
I0403 06:58:20.932399 21413 net.cpp:386] relu5 -> conv5 (in-place)
I0403 06:58:20.932418 21413 net.cpp:141] Setting up relu5
I0403 06:58:20.932435 21413 net.cpp:148] Top shape: 100 256 13 13 (4326400)
I0403 06:58:20.932449 21413 net.cpp:156] Memory required for data: 818008800
I0403 06:58:20.932463 21413 layer_factory.hpp:77] Creating layer pool5
I0403 06:58:20.932487 21413 net.cpp:91] Creating Layer pool5
I0403 06:58:20.932502 21413 net.cpp:425] pool5 <- conv5
I0403 06:58:20.932520 21413 net.cpp:399] pool5 -> pool5
I0403 06:58:20.932579 21413 net.cpp:141] Setting up pool5
I0403 06:58:20.932602 21413 net.cpp:148] Top shape: 100 256 6 6 (921600)
I0403 06:58:20.932616 21413 net.cpp:156] Memory required for data: 821695200
I0403 06:58:20.932631 21413 layer_factory.hpp:77] Creating layer fc6
I0403 06:58:20.932651 21413 net.cpp:91] Creating Layer fc6
I0403 06:58:20.932667 21413 net.cpp:425] fc6 <- pool5
I0403 06:58:20.932687 21413 net.cpp:399] fc6 -> fc6
I0403 06:58:22.302029 21413 net.cpp:141] Setting up fc6
I0403 06:58:22.302125 21413 net.cpp:148] Top shape: 100 4096 (409600)
I0403 06:58:22.302142 21413 net.cpp:156] Memory required for data: 823333600
I0403 06:58:22.302165 21413 layer_factory.hpp:77] Creating layer relu6
I0403 06:58:22.302188 21413 net.cpp:91] Creating Layer relu6
I0403 06:58:22.302206 21413 net.cpp:425] relu6 <- fc6
I0403 06:58:22.302225 21413 net.cpp:386] relu6 -> fc6 (in-place)
I0403 06:58:22.302258 21413 net.cpp:141] Setting up relu6
I0403 06:58:22.302275 21413 net.cpp:148] Top shape: 100 4096 (409600)
I0403 06:58:22.302289 21413 net.cpp:156] Memory required for data: 824972000
I0403 06:58:22.302304 21413 layer_factory.hpp:77] Creating layer drop6
I0403 06:58:22.302323 21413 net.cpp:91] Creating Layer drop6
I0403 06:58:22.302338 21413 net.cpp:425] drop6 <- fc6
I0403 06:58:22.302357 21413 net.cpp:386] drop6 -> fc6 (in-place)
I0403 06:58:22.302397 21413 net.cpp:141] Setting up drop6
I0403 06:58:22.302417 21413 net.cpp:148] Top shape: 100 4096 (409600)
I0403 06:58:22.302433 21413 net.cpp:156] Memory required for data: 826610400
I0403 06:58:22.302448 21413 layer_factory.hpp:77] Creating layer fc7
I0403 06:58:22.302467 21413 net.cpp:91] Creating Layer fc7
I0403 06:58:22.302482 21413 net.cpp:425] fc7 <- fc6
I0403 06:58:22.302503 21413 net.cpp:399] fc7 -> fc7
I0403 06:58:22.911612 21413 net.cpp:141] Setting up fc7
I0403 06:58:22.911713 21413 net.cpp:148] Top shape: 100 4096 (409600)
I0403 06:58:22.911731 21413 net.cpp:156] Memory required for data: 828248800
I0403 06:58:22.911753 21413 layer_factory.hpp:77] Creating layer relu7
I0403 06:58:22.911778 21413 net.cpp:91] Creating Layer relu7
I0403 06:58:22.911795 21413 net.cpp:425] relu7 <- fc7
I0403 06:58:22.911818 21413 net.cpp:386] relu7 -> fc7 (in-place)
I0403 06:58:22.911841 21413 net.cpp:141] Setting up relu7
I0403 06:58:22.911859 21413 net.cpp:148] Top shape: 100 4096 (409600)
I0403 06:58:22.911875 21413 net.cpp:156] Memory required for data: 829887200
I0403 06:58:22.911890 21413 layer_factory.hpp:77] Creating layer drop7
I0403 06:58:22.911912 21413 net.cpp:91] Creating Layer drop7
I0403 06:58:22.911928 21413 net.cpp:425] drop7 <- fc7
I0403 06:58:22.911947 21413 net.cpp:386] drop7 -> fc7 (in-place)
I0403 06:58:22.911986 21413 net.cpp:141] Setting up drop7
I0403 06:58:22.912010 21413 net.cpp:148] Top shape: 100 4096 (409600)
I0403 06:58:22.912027 21413 net.cpp:156] Memory required for data: 831525600
I0403 06:58:22.912044 21413 layer_factory.hpp:77] Creating layer fc8_plantvillage
I0403 06:58:22.912063 21413 net.cpp:91] Creating Layer fc8_plantvillage
I0403 06:58:22.912081 21413 net.cpp:425] fc8_plantvillage <- fc7
I0403 06:58:22.912101 21413 net.cpp:399] fc8_plantvillage -> fc8_plantvillage
I0403 06:58:22.918520 21413 net.cpp:141] Setting up fc8_plantvillage
I0403 06:58:22.918556 21413 net.cpp:148] Top shape: 100 38 (3800)
I0403 06:58:22.918611 21413 net.cpp:156] Memory required for data: 831540800
I0403 06:58:22.918629 21413 layer_factory.hpp:77] Creating layer fc8_plantvillage_fc8_plantvillage_0_split
I0403 06:58:22.918653 21413 net.cpp:91] Creating Layer fc8_plantvillage_fc8_plantvillage_0_split
I0403 06:58:22.918669 21413 net.cpp:425] fc8_plantvillage_fc8_plantvillage_0_split <- fc8_plantvillage
I0403 06:58:22.918689 21413 net.cpp:399] fc8_plantvillage_fc8_plantvillage_0_split -> fc8_plantvillage_fc8_plantvillage_0_split_0
I0403 06:58:22.918709 21413 net.cpp:399] fc8_plantvillage_fc8_plantvillage_0_split -> fc8_plantvillage_fc8_plantvillage_0_split_1
I0403 06:58:22.918761 21413 net.cpp:141] Setting up fc8_plantvillage_fc8_plantvillage_0_split
I0403 06:58:22.918783 21413 net.cpp:148] Top shape: 100 38 (3800)
I0403 06:58:22.918799 21413 net.cpp:148] Top shape: 100 38 (3800)
I0403 06:58:22.918814 21413 net.cpp:156] Memory required for data: 831571200
I0403 06:58:22.918829 21413 layer_factory.hpp:77] Creating layer loss
I0403 06:58:22.918848 21413 net.cpp:91] Creating Layer loss
I0403 06:58:22.918864 21413 net.cpp:425] loss <- fc8_plantvillage_fc8_plantvillage_0_split_0
I0403 06:58:22.918880 21413 net.cpp:425] loss <- label_data_1_split_0
I0403 06:58:22.918897 21413 net.cpp:399] loss -> loss
…
