…
I0403 16:47:36.451841 21451 net.cpp:313] The NetState phase (1) differed from the phase (0) specified by a rule in layer data
I0403 16:47:36.453008 21451 net.cpp:49] Initializing net from parameters: 
state {
  phase: TEST
}
layer {
  name: "data"
  type: "Data"
  top: "data"
  top: "label"
  include {
    phase: TEST
  }
  transform_param {
    mirror: false
    crop_size: 224
    mean_file: "/home/mohanty/data/final_dataset/lmdb/color-40-60/mean.binaryproto"
  }
  data_param {
    source: "/home/mohanty/data/final_dataset/lmdb/color-40-60/test_db"
    batch_size: 24
    backend: LMDB
  }
}
layer {
  name: "conv1/7x7_s2"
  type: "Convolution"
  bottom: "data"
  top: "conv1/7x7_s2"
  param {
    lr_mult: 1
    decay_mult: 1
  }
  param {
    lr_mult: 2
    decay_mult: 0
  }
  convolution_param {
    num_output: 64
    pad: 3
    kernel_size: 7
    stride: 2
    weight_filler {
      type: "xavier"
      std: 0.1
    }
    bias_filler {
      type: "constant"
      value: 0.2
    }
  }
}
layer {
  name: "conv1/relu_7x7"
  type: "ReLU"
  bottom: "conv1/7x7_s2"
  top: "conv1/7x7_s2"
}
layer {
  name: "pool1/3x3_s2"
  type: "Pooling"
  bottom: "conv1/7x7_s2"
  top: "pool1/3x3_s2"
  pooling_param {
    pool: MAX
    kernel_size: 3
    stride: 2
  }
}
layer {
  name: "pool1/norm1"
  type: "LRN"
  bottom: "pool1/3x3_s2"
  top: "pool1/norm1"
  lrn_param {
    local_size: 5
    alpha: 0.0001
    beta: 0.75
  }
}
layer {
  name: "conv2/3x3_reduce"
  type: "Convolution"
  bottom: "pool1/norm1"
  top: "conv2/3x3_reduce"
  param {
    lr_mult: 1
    decay_mult: 1
  }
  param {
    lr_mult: 2
    decay_mult: 0
  }
  convolution_param {
    num_output: 64
    kernel_size: 1
    weight_filler {
      type: "xavier"
      std: 0.1
    }
    bias_filler {
      type: "constant"
      value: 0.2
    }
  }
}
layer {
  name: "conv2/relu_3x3_reduce"
  type: "ReLU"
  bottom: "conv2/3x3_reduce"
  top: "conv2/3x3_reduce"
}
layer {
  name: "conv2/3x3"
  type: "Convolution"
  bottom: "conv2/3x3_reduce"
  top: "conv2/3x3"
  param {
    lr_mult: 1
    decay_mult: 1
  }
  param {
    lr_mult: 2
    decay_mult: 0
  }
  convolution_param {
    num_output: 192
    pad: 1
    kernel_size: 3
    weight_filler {
      type: "xavier"
      std: 0.03
    }
    bias_filler {
      type: "constant"
      value: 0.2
    }
  }
}
layer {
  name: "conv2/relu_3x3"
  type: "ReLU"
  bottom: "conv2/3x3"
  top: "conv2/3x3"
}
layer {
  name: "conv2/norm2"
  type: "LRN"
  bottom: "conv2/3x3"
  top: "conv2/norm2"
  lrn_param {
    local_size: 5
    alpha: 0.0001
    beta: 0.75
  }
}
layer {
  name: "pool2/3x3_s2"
  type: "Pooling"
  bottom: "conv2/norm2"
  top: "pool2/3x3_s2"
  pooling_param {
    pool: MAX
    kernel_size: 3
    stride: 2
  }
}
layer {
  name: "inception_3a/1x1"
  type: "Convolution"
  bottom: "pool2/3x3_s2"
  top: "inception_3a/1x1"
  param {
    lr_mult: 1
    decay_mult: 1
  }
  param {
    lr_mult: 2
    decay_mult: 0
  }
  convolution_param {
    num_output: 64
    kernel_size: 1
    weight_filler {
      type: "xavier"
      std: 0.03
    }
    bias_filler {
      type: "constant"
      value: 0.2
    }
  }
}
layer {
  name: "inception_3a/relu_1x1"
  type: "ReLU"
  bottom: "inception_3a/1x1"
  top: "inception_3a/1x1"
}
layer {
  name: "inception_3a/3x3_reduce"
  type: "Convolution"
  bottom: "pool2/3x3_s2"
  top: "inception_3a/3x3_reduce"
  param {
    lr_mult: 1
    decay_mult: 1
  }
  param {
    lr_mult: 2
    decay_mult: 0
  }
  convolution_param {
    num_output: 96
    kernel_size: 1
    weight_filler {
      type: "xavier"
      std: 0.09
    }
    bias_filler {
      type: "constant"
      value: 0.2
    }
  }
}
layer {
  name: "inception_3a/relu_3x3_reduce"
  type: "ReLU"
  bottom: "inception_3a/3x3_reduce"
  top: "inception_3a/3x3_reduce"
}
layer {
  name: "inception_3a/3x3"
  type: "Convolution"
  bottom: "inception_3a/3x3_reduce"
  top: "inception_3a/3x3"
  param {
    lr_mult: 1
    decay_mult: 1
  }
  param {
    lr_mult: 2
    decay_mult: 0
  }
  convolution_param {
    num_output: 128
    pad: 1
    kernel_size: 3
    weight_filler {
      type: "xavier"
      std: 0.03
    }
    bias_filler {
      type: "constant"
      value: 0.2
    }
  }
}
layer {
  name: "inception_3a/relu_3x3"
  type: "ReLU"
  bottom: "inception_3a/3x3"
  top: "inception_3a/3x3"
}
layer {
  name: "inception_3a/5x5_reduce"
  type: "Convolution"
  bottom: "pool2/3x3_s2"
  top: "inception_3a/5x5_reduce"
  param {
    lr_mult: 1
    decay_mult: 1
  }
  param {
    lr_mult: 2
    decay_mult: 0
  }
  convolution_param {
    num_output: 16
    kernel_size: 1
    weight_filler {
      type: "xavier"
      std: 0.2
    }
    bias_filler {
      type: "constant"
      value: 0.2
    }
  }
}
layer {
  name: "inception_3a/relu_5x5_reduce"
  type: "ReLU"
  bottom: "inception_3a/5x5_reduce"
  top: "inception_3a/5x5_reduce"
}
layer {
  name: "inception_3a/5x5"
  type: "Convolution"
  bottom: "inception_3a/5x5_reduce"
  top: "inception_3a/5x5"
  param {
    lr_mult: 1
    decay_mult: 1
  }
  param {
    lr_mult: 2
    decay_mult: 0
  }
  convolution_param {
    num_output: 32
    pad: 2
    kernel_size: 5
    weight_filler {
      type: "xavier"
      std: 0.03
    }
    bias_filler {
      type: "constant"
      value: 0.2
    }
  }
}
layer {
  name: "inception_3a/relu_5x5"
  type: "ReLU"
  bottom: "inception_3a/5x5"
  top: "inception_3a/5x5"
}
layer {
  name: "inception_3a/pool"
  type: "Pooling"
  bottom: "pool2/3x3_s2"
  top: "inception_3a/pool"
  pooling_param {
    pool: MAX
    kernel_size: 3
    stride: 1
    pad: 1
  }
}
layer {
  name: "inception_3a/pool_proj"
  type: "Convolution"
  bottom: "inception_3a/pool"
  top: "inception_3a/pool_proj"
  param {
    lr_mult: 1
    decay_mult: 1
  }
  param {
    lr_mult: 2
    decay_mult: 0
  }
  convolution_param {
    num_output: 32
    kernel_size: 1
    weight_filler {
      type: "xavier"
      std: 0.1
    }
    bias_filler {
      type: "constant"
      value: 0.2
    }
  }
}
layer {
  name: "inception_3a/relu_pool_proj"
  type: "ReLU"
  bottom: "inception_3a/pool_proj"
  top: "inception_3a/pool_proj"
}
layer {
  name: "inception_3a/output"
  type: "Concat"
  bottom: "inception_3a/1x1"
  bottom: "inception_3a/3x3"
  bottom: "inception_3a/5x5"
  bottom: "inception_3a/pool_proj"
  top: "inception_3a/output"
}
layer {
  name: "inception_3b/1x1"
  type: "Convolution"
  bottom: "inception_3a/output"
  top: "inception_3b/1x1"
  param {
    lr_mult: 1
    decay_mult: 1
  }
  param {
    lr_mult: 2
    decay_mult: 0
  }
  convolution_param {
    num_output: 128
    kernel_size: 1
    weight_filler {
      type: "xavier"
      std: 0.03
    }
    bias_filler {
      type: "constant"
      value: 0.2
    }
  }
}
layer {
  name: "inception_3b/relu_1x1"
  type: "ReLU"
  bottom: "inception_3b/1x1"
  top: "inception_3b/1x1"
}
layer {
  name: "inception_3b/3x3_reduce"
  type: "Convolution"
  bottom: "inception_3a/output"
  top: "inception_3b/3x3_reduce"
  param {
    lr_mult: 1
    decay_mult: 1
  }
  param {
    lr_mult: 2
    decay_mult: 0
  }
  convolution_param {
    num_output: 128
    kernel_size: 1
    weight_filler {
      type: "xavier"
      std: 0.09
    }
    bias_filler {
      type: "constant"
      value: 0.2
    }
  }
}
layer {
  name: "inception_3b/relu_3x3_reduce"
  type: "ReLU"
  bottom: "inception_3b/3x3_reduce"
  top: "inception_3b/3x3_reduce"
}
layer {
  name: "inception_3b/3x3"
  type: "Convolution"
  bottom: "inception_3b/3x3_reduce"
  top: "inception_3b/3x3"
  param {
    lr_mult: 1
    decay_mult: 1
  }
  param {
    lr_mult: 2
    decay_mult: 0
  }
  convolution_param {
    num_output: 192
    pad: 1
    kernel_size: 3
    weight_filler {
      type: "xavier"
      std: 0.03
    }
    bias_filler {
      type: "constant"
      value: 0.2
    }
  }
}
layer {
  name: "inception_3b/relu_3x3"
  type: "ReLU"
  bottom: "inception_3b/3x3"
  top: "inception_3b/3x3"
}
layer {
  name: "inception_3b/5x5_reduce"
  type: "Convolution"
  bottom: "inception_3a/output"
  top: "inception_3b/5x5_reduce"
  param {
    lr_mult: 1
    decay_mult: 1
  }
  param {
    lr_mult: 2
    decay_mult: 0
  }
  convolution_param {
    num_output: 32
    kernel_size: 1
    weight_filler {
      type: "xavier"
      std: 0.2
    }
    bias_filler {
      type: "constant"
      value: 0.2
    }
  }
}
layer {
  name: "inception_3b/relu_5x5_reduce"
  type: "ReLU"
  bottom: "inception_3b/5x5_reduce"
  top: "inception_3b/5x5_reduce"
}
layer {
  name: "inception_3b/5x5"
  type: "Convolution"
  bottom: "inception_3b/5x5_reduce"
  top: "inception_3b/5x5"
  param {
    lr_mult: 1
    decay_mult: 1
  }
  param {
    lr_mult: 2
    decay_mult: 0
  }
  convolution_param {
    num_output: 96
    pad: 2
    kernel_size: 5
    weight_filler {
      type: "xavier"
      std: 0.03
    }
    bias_filler {
      type: "constant"
      value: 0.2
    }
  }
}
layer {
  name: "inception_3b/relu_5x5"
  type: "ReLU"
  bottom: "inception_3b/5x5"
  top: "inception_3b/5x5"
}
layer {
  name: "inception_3b/pool"
  type: "Pooling"
  bottom: "inception_3a/output"
  top: "inception_3b/pool"
  pooling_param {
    pool: MAX
    kernel_size: 3
    stride: 1
    pad: 1
  }
}
layer {
  name: "inception_3b/pool_proj"
  type: "Convolution"
  bottom: "inception_3b/pool"
  top: "inception_3b/pool_proj"
  param {
    lr_mult: 1
    decay_mult: 1
  }
  param {
    lr_mult: 2
    decay_mult: 0
  }
  convolution_param {
    num_output: 64
    kernel_size: 1
    weight_filler {
      type: "xavier"
      std: 0.1
    }
    bias_filler {
      type: "constant"
      value: 0.2
    }
  }
}
layer {
  name: "inception_3b/relu_pool_proj"
  type: "ReLU"
  bottom: "inception_3b/pool_proj"
  top: "inception_3b/pool_proj"
}
layer {
  name: "inception_3b/output"
  type: "Concat"
  bottom: "inception_3b/1x1"
  bottom: "inception_3b/3x3"
  bottom: "inception_3b/5x5"
  bottom: "inception_3b/pool_proj"
  top: "inception_3b/output"
}
layer {
  name: "pool3/3x3_s2"
  type: "Pooling"
  bottom: "inception_3b/output"
  top: "pool3/3x3_s2"
  pooling_param {
    pool: MAX
    kernel_size: 3
    stride: 2
  }
}
layer {
  name: "inception_4a/1x1"
  type: "Convolution"
  bottom: "pool3/3x3_s2"
  top: "inception_4a/1x1"
  param {
    lr_mult: 1
    decay_mult: 1
  }
  param {
    lr_mult: 2
    decay_mult: 0
  }
  convolution_param {
    num_output: 192
    kernel_size: 1
    weight_filler {
      type: "xavier"
      std: 0.03
    }
    bias_filler {
      type: "constant"
      value: 0.2
    }
  }
}
layer {
  name: "inception_4a/relu_1x1"
  type: "ReLU"
  bottom: "inception_4a/1x1"
  top: "inception_4a/1x1"
}
layer {
  name: "inception_4a/3x3_reduce"
  type: "Convolution"
  bottom: "pool3/3x3_s2"
  top: "inception_4a/3x3_reduce"
  param {
    lr_mult: 1
    decay_mult: 1
  }
  param {
    lr_mult: 2
    decay_mult: 0
  }
  convolution_param {
    num_output: 96
    kernel_size: 1
    weight_filler {
      type: "xavier"
      std: 0.09
    }
    bias_filler {
      type: "constant"
      value: 0.2
    }
  }
}
layer {
  name: "inception_4a/relu_3x3_reduce"
  type: "ReLU"
  bottom: "inception_4a/3x3_reduce"
  top: "inception_4a/3x3_reduce"
}
layer {
  name: "inception_4a/3x3"
  type: "Convolution"
  bottom: "inception_4a/3x3_reduce"
  top: "inception_4a/3x3"
  param {
    lr_mult: 1
    decay_mult: 1
  }
  param {
    lr_mult: 2
    decay_mult: 0
  }
  convolution_param {
    num_output: 208
    pad: 1
    kernel_size: 3
    weight_filler {
      type: "xavier"
      std: 0.03
    }
    bias_filler {
      type: "constant"
      value: 0.2
    }
  }
}
layer {
  name: "inception_4a/relu_3x3"
  type: "ReLU"
  bottom: "inception_4a/3x3"
  top: "inception_4a/3x3"
}
layer {
  name: "inception_4a/5x5_reduce"
  type: "Convolution"
  bottom: "pool3/3x3_s2"
  top: "inception_4a/5x5_reduce"
  param {
    lr_mult: 1
    decay_mult: 1
  }
  param {
    lr_mult: 2
    decay_mult: 0
  }
  convolution_param {
    num_output: 16
    kernel_size: 1
    weight_filler {
      type: "xavier"
      std: 0.2
    }
    bias_filler {
      type: "constant"
      value: 0.2
    }
  }
}
layer {
  name: "inception_4a/relu_5x5_reduce"
  type: "ReLU"
  bottom: "inception_4a/5x5_reduce"
  top: "inception_4a/5x5_reduce"
}
layer {
  name: "inception_4a/5x5"
  type: "Convolution"
  bottom: "inception_4a/5x5_reduce"
  top: "inception_4a/5x5"
  param {
    lr_mult: 1
    decay_mult: 1
  }
  param {
    lr_mult: 2
    decay_mult: 0
  }
  convolution_param {
    num_output: 48
    pad: 2
    kernel_size: 5
    weight_filler {
      type: "xavier"
      std: 0.03
    }
    bias_filler {
      type: "constant"
      value: 0.2
    }
  }
}
layer {
  name: "inception_4a/relu_5x5"
  type: "ReLU"
  bottom: "inception_4a/5x5"
  top: "inception_4a/5x5"
}
layer {
  name: "inception_4a/pool"
  type: "Pooling"
  bottom: "pool3/3x3_s2"
  top: "inception_4a/pool"
  pooling_param {
    pool: MAX
    kernel_size: 3
    stride: 1
    pad: 1
  }
}
layer {
  name: "inception_4a/pool_proj"
  type: "Convolution"
  bottom: "inception_4a/pool"
  top: "inception_4a/pool_proj"
  param {
    lr_mult: 1
    decay_mult: 1
  }
  param {
    lr_mult: 2
    decay_mult: 0
  }
  convolution_param {
    num_output: 64
    kernel_size: 1
    weight_filler {
      type: "xavier"
      std: 0.1
    }
    bias_filler {
      type: "constant"
      value: 0.2
    }
  }
}
layer {
  name: "inception_4a/relu_pool_proj"
  type: "ReLU"
  bottom: "inception_4a/pool_proj"
  top: "inception_4a/pool_proj"
}
layer {
  name: "inception_4a/output"
  type: "Concat"
  bottom: "inception_4a/1x1"
  bottom: "inception_4a/3x3"
  bottom: "inception_4a/5x5"
  bottom: "inception_4a/pool_proj"
  top: "inception_4a/output"
}
layer {
  name: "loss1/ave_pool"
  type: "Pooling"
  bottom: "inception_4a/output"
  top: "loss1/ave_pool"
  pooling_param {
    pool: AVE
    kernel_size: 5
    stride: 3
  }
}
layer {
  name: "loss1/conv"
  type: "Convolution"
  bottom: "loss1/ave_pool"
  top: "loss1/conv"
  param {
    lr_mult: 1
    decay_mult: 1
  }
  param {
    lr_mult: 2
    decay_mult: 0
  }
  convolution_param {
    num_output: 128
    kernel_size: 1
    weight_filler {
      type: "xavier"
      std: 0.08
    }
    bias_filler {
      type: "constant"
      value: 0.2
    }
  }
}
layer {
  name: "loss1/relu_conv"
  type: "ReLU"
  bottom: "loss1/conv"
  top: "loss1/conv"
}
layer {
  name: "loss1/fc"
  type: "InnerProduct"
  bottom: "loss1/conv"
  top: "loss1/fc"
  param {
    lr_mult: 1
    decay_mult: 1
  }
  param {
    lr_mult: 2
    decay_mult: 0
  }
  inner_product_param {
    num_output: 1024
    weight_filler {
      type: "xavier"
      std: 0.02
    }
    bias_filler {
      type: "constant"
      value: 0.2
    }
  }
}
layer {
  name: "loss1/relu_fc"
  type: "ReLU"
  bottom: "loss1/fc"
  top: "loss1/fc"
}
layer {
  name: "loss1/drop_fc"
  type: "Dropout"
  bottom: "loss1/fc"
  top: "loss1/fc"
  dropout_param {
    dropout_ratio: 0.7
  }
}
layer {
  name: "loss1/classifier_plantvillage"
  type: "InnerProduct"
  bottom: "loss1/fc"
  top: "loss1/classifier_plantvillage"
  param {
    lr_mult: 1
    decay_mult: 1
  }
  param {
    lr_mult: 2
    decay_mult: 0
  }
  inner_product_param {
    num_output: 38
    weight_filler {
      type: "xavier"
      std: 0.0009765625
    }
    bias_filler {
      type: "constant"
      value: 0
    }
  }
}
layer {
  name: "inception_4b/1x1"
  type: "Convolution"
  bottom: "inception_4a/output"
  top: "inception_4b/1x1"
  param {
    lr_mult: 1
    decay_mult: 1
  }
  param {
    lr_mult: 2
    decay_mult: 0
  }
  convolution_param {
    num_output: 160
    kernel_size: 1
    weight_filler {
      type: "xavier"
      std: 0.03
    }
    bias_filler {
      type: "constant"
      value: 0.2
    }
  }
}
layer {
  name: "inception_4b/relu_1x1"
  type: "ReLU"
  bottom: "inception_4b/1x1"
  top: "inception_4b/1x1"
}
layer {
  name: "inception_4b/3x3_reduce"
  type: "Convolution"
  bottom: "inception_4a/output"
  top: "inception_4b/3x3_reduce"
  param {
    lr_mult: 1
    decay_mult: 1
  }
  param {
    lr_mult: 2
    decay_mult: 0
  }
  convolution_param {
    num_output: 112
    kernel_size: 1
    weight_filler {
      type: "xavier"
      std: 0.09
    }
    bias_filler {
      type: "constant"
      value: 0.2
    }
  }
}
layer {
  name: "inception_4b/relu_3x3_reduce"
  type: "ReLU"
  bottom: "inception_4b/3x3_reduce"
  top: "inception_4b/3x3_reduce"
}
layer {
  name: "inception_4b/3x3"
  type: "Convolution"
  bottom: "inception_4b/3x3_reduce"
  top: "inception_4b/3x3"
  param {
    lr_mult: 1
    decay_mult: 1
  }
  param {
    lr_mult: 2
    decay_mult: 0
  }
  convolution_param {
    num_output: 224
    pad: 1
    kernel_size: 3
    weight_filler {
      type: "xavier"
      std: 0.03
    }
    bias_filler {
      type: "constant"
      value: 0.2
    }
  }
}
layer {
  name: "inception_4b/relu_3x3"
  type: "ReLU"
  bottom: "inception_4b/3x3"
  top: "inception_4b/3x3"
}
layer {
  name: "inception_4b/5x5_reduce"
  type: "Convolution"
  bottom: "inception_4a/output"
  top: "inception_4b/5x5_reduce"
  param {
    lr_mult: 1
    decay_mult: 1
  }
  param {
    lr_mult: 2
    decay_mult: 0
  }
  convolution_param {
    num_output: 24
    kernel_size: 1
    weight_filler {
      type: "xavier"
      std: 0.2
    }
    bias_filler {
      type: "constant"
      value: 0.2
    }
  }
}
layer {
  name: "inception_4b/relu_5x5_reduce"
  type: "ReLU"
  bottom: "inception_4b/5x5_reduce"
  top: "inception_4b/5x5_reduce"
}
layer {
  name: "inception_4b/5x5"
  type: "Convolution"
  bottom: "inception_4b/5x5_reduce"
  top: "inception_4b/5x5"
  param {
    lr_mult: 1
    decay_mult: 1
  }
  param {
    lr_mult: 2
    decay_mult: 0
  }
  convolution_param {
    num_output: 64
    pad: 2
    kernel_size: 5
    weight_filler {
      type: "xavier"
      std: 0.03
    }
    bias_filler {
      type: "constant"
      value: 0.2
    }
  }
}
layer {
  name: "inception_4b/relu_5x5"
  type: "ReLU"
  bottom: "inception_4b/5x5"
  top: "inception_4b/5x5"
}
layer {
  name: "inception_4b/pool"
  type: "Pooling"
  bottom: "inception_4a/output"
  top: "inception_4b/pool"
  pooling_param {
    pool: MAX
    kernel_size: 3
    stride: 1
    pad: 1
  }
}
layer {
  name: "inception_4b/pool_proj"
  type: "Convolution"
  bottom: "inception_4b/pool"
  top: "inception_4b/pool_proj"
  param {
    lr_mult: 1
    decay_mult: 1
  }
  param {
    lr_mult: 2
    decay_mult: 0
  }
  convolution_param {
    num_output: 64
    kernel_size: 1
    weight_filler {
      type: "xavier"
      std: 0.1
    }
    bias_filler {
      type: "constant"
      value: 0.2
    }
  }
}
layer {
  name: "inception_4b/relu_pool_proj"
  type: "ReLU"
  bottom: "inception_4b/pool_proj"
  top: "inception_4b/pool_proj"
}
layer {
  name: "inception_4b/output"
  type: "Concat"
  bottom: "inception_4b/1x1"
  bottom: "inception_4b/3x3"
  bottom: "inception_4b/5x5"
  bottom: "inception_4b/pool_proj"
  top: "inception_4b/output"
}
layer {
  name: "inception_4c/1x1"
  type: "Convolution"
  bottom: "inception_4b/output"
  top: "inception_4c/1x1"
  param {
    lr_mult: 1
    decay_mult: 1
  }
  param {
    lr_mult: 2
    decay_mult: 0
  }
  convolution_param {
    num_output: 128
    kernel_size: 1
    weight_filler {
      type: "xavier"
      std: 0.03
    }
    bias_filler {
      type: "constant"
      value: 0.2
    }
  }
}
layer {
  name: "inception_4c/relu_1x1"
  type: "ReLU"
  bottom: "inception_4c/1x1"
  top: "inception_4c/1x1"
}
layer {
  name: "inception_4c/3x3_reduce"
  type: "Convolution"
  bottom: "inception_4b/output"
  top: "inception_4c/3x3_reduce"
  param {
    lr_mult: 1
    decay_mult: 1
  }
  param {
    lr_mult: 2
    decay_mult: 0
  }
  convolution_param {
    num_output: 128
    kernel_size: 1
    weight_filler {
      type: "xavier"
      std: 0.09
    }
    bias_filler {
      type: "constant"
      value: 0.2
    }
  }
}
layer {
  name: "inception_4c/relu_3x3_reduce"
  type: "ReLU"
  bottom: "inception_4c/3x3_reduce"
  top: "inception_4c/3x3_reduce"
}
layer {
  name: "inception_4c/3x3"
  type: "Convolution"
  bottom: "inception_4c/3x3_reduce"
  top: "inception_4c/3x3"
  param {
    lr_mult: 1
    decay_mult: 1
  }
  param {
    lr_mult: 2
    decay_mult: 0
  }
  convolution_param {
    num_output: 256
    pad: 1
    kernel_size: 3
    weight_filler {
      type: "xavier"
      std: 0.03
    }
    bias_filler {
      type: "constant"
      value: 0.2
    }
  }
}
layer {
  name: "inception_4c/relu_3x3"
  type: "ReLU"
  bottom: "inception_4c/3x3"
  top: "inception_4c/3x3"
}
layer {
  name: "inception_4c/5x5_reduce"
  type: "Convolution"
  bottom: "inception_4b/output"
  top: "inception_4c/5x5_reduce"
  param {
    lr_mult: 1
    decay_mult: 1
  }
  param {
    lr_mult: 2
    decay_mult: 0
  }
  convolution_param {
    num_output: 24
    kernel_size: 1
    weight_filler {
      type: "xavier"
      std: 0.2
    }
    bias_filler {
      type: "constant"
      value: 0.2
    }
  }
}
layer {
  name: "inception_4c/relu_5x5_reduce"
  type: "ReLU"
  bottom: "inception_4c/5x5_reduce"
  top: "inception_4c/5x5_reduce"
}
layer {
  name: "inception_4c/5x5"
  type: "Convolution"
  bottom: "inception_4c/5x5_reduce"
  top: "inception_4c/5x5"
  param {
    lr_mult: 1
    decay_mult: 1
  }
  param {
    lr_mult: 2
    decay_mult: 0
  }
  convolution_param {
    num_output: 64
    pad: 2
    kernel_size: 5
    weight_filler {
      type: "xavier"
      std: 0.03
    }
    bias_filler {
      type: "constant"
      value: 0.2
    }
  }
}
layer {
  name: "inception_4c/relu_5x5"
  type: "ReLU"
  bottom: "inception_4c/5x5"
  top: "inception_4c/5x5"
}
layer {
  name: "inception_4c/pool"
  type: "Pooling"
  bottom: "inception_4b/output"
  top: "inception_4c/pool"
  pooling_param {
    pool: MAX
    kernel_size: 3
    stride: 1
    pad: 1
  }
}
layer {
  name: "inception_4c/pool_proj"
  type: "Convolution"
  bottom: "inception_4c/pool"
  top: "inception_4c/pool_proj"
  param {
    lr_mult: 1
    decay_mult: 1
  }
  param {
    lr_mult: 2
    decay_mult: 0
  }
  convolution_param {
    num_output: 64
    kernel_size: 1
    weight_filler {
      type: "xavier"
      std: 0.1
    }
    bias_filler {
      type: "constant"
      value: 0.2
    }
  }
}
layer {
  name: "inception_4c/relu_pool_proj"
  type: "ReLU"
  bottom: "inception_4c/pool_proj"
  top: "inception_4c/pool_proj"
}
layer {
  name: "inception_4c/output"
  type: "Concat"
  bottom: "inception_4c/1x1"
  bottom: "inception_4c/3x3"
  bottom: "inception_4c/5x5"
  bottom: "inception_4c/pool_proj"
  top: "inception_4c/output"
}
layer {
  name: "inception_4d/1x1"
  type: "Convolution"
  bottom: "inception_4c/output"
  top: "inception_4d/1x1"
  param {
    lr_mult: 1
    decay_mult: 1
  }
  param {
    lr_mult: 2
    decay_mult: 0
  }
  convolution_param {
    num_output: 112
    kernel_size: 1
    weight_filler {
      type: "xavier"
      std: 0.03
    }
    bias_filler {
      type: "constant"
      value: 0.2
    }
  }
}
layer {
  name: "inception_4d/relu_1x1"
  type: "ReLU"
  bottom: "inception_4d/1x1"
  top: "inception_4d/1x1"
}
layer {
  name: "inception_4d/3x3_reduce"
  type: "Convolution"
  bottom: "inception_4c/output"
  top: "inception_4d/3x3_reduce"
  param {
    lr_mult: 1
    decay_mult: 1
  }
  param {
    lr_mult: 2
    decay_mult: 0
  }
  convolution_param {
    num_output: 144
    kernel_size: 1
    weight_filler {
      type: "xavier"
      std: 0.09
    }
    bias_filler {
      type: "constant"
      value: 0.2
    }
  }
}
layer {
  name: "inception_4d/relu_3x3_reduce"
  type: "ReLU"
  bottom: "inception_4d/3x3_reduce"
  top: "inception_4d/3x3_reduce"
}
layer {
  name: "inception_4d/3x3"
  type: "Convolution"
  bottom: "inception_4d/3x3_reduce"
  top: "inception_4d/3x3"
  param {
    lr_mult: 1
    decay_mult: 1
  }
  param {
    lr_mult: 2
    decay_mult: 0
  }
  convolution_param {
    num_output: 288
    pad: 1
    kernel_size: 3
    weight_filler {
      type: "xavier"
      std: 0.03
    }
    bias_filler {
      type: "constant"
      value: 0.2
    }
  }
}
layer {
  name: "inception_4d/relu_3x3"
  type: "ReLU"
  bottom: "inception_4d/3x3"
  top: "inception_4d/3x3"
}
layer {
  name: "inception_4d/5x5_reduce"
  type: "Convolution"
  bottom: "inception_4c/output"
  top: "inception_4d/5x5_reduce"
  param {
    lr_mult: 1
    decay_mult: 1
  }
  param {
    lr_mult: 2
    decay_mult: 0
  }
  convolution_param {
    num_output: 32
    kernel_size: 1
    weight_filler {
      type: "xavier"
      std: 0.2
    }
    bias_filler {
      type: "constant"
      value: 0.2
    }
  }
}
layer {
  name: "inception_4d/relu_5x5_reduce"
  type: "ReLU"
  bottom: "inception_4d/5x5_reduce"
  top: "inception_4d/5x5_reduce"
}
layer {
  name: "inception_4d/5x5"
  type: "Convolution"
  bottom: "inception_4d/5x5_reduce"
  top: "inception_4d/5x5"
  param {
    lr_mult: 1
    decay_mult: 1
  }
  param {
    lr_mult: 2
    decay_mult: 0
  }
  convolution_param {
    num_output: 64
    pad: 2
    kernel_size: 5
    weight_filler {
      type: "xavier"
      std: 0.03
    }
    bias_filler {
      type: "constant"
      value: 0.2
    }
  }
}
layer {
  name: "inception_4d/relu_5x5"
  type: "ReLU"
  bottom: "inception_4d/5x5"
  top: "inception_4d/5x5"
}
layer {
  name: "inception_4d/pool"
  type: "Pooling"
  bottom: "inception_4c/output"
  top: "inception_4d/pool"
  pooling_param {
    pool: MAX
    kernel_size: 3
    stride: 1
    pad: 1
  }
}
layer {
  name: "inception_4d/pool_proj"
  type: "Convolution"
  bottom: "inception_4d/pool"
  top: "inception_4d/pool_proj"
  param {
    lr_mult: 1
    decay_mult: 1
  }
  param {
    lr_mult: 2
    decay_mult: 0
  }
  convolution_param {
    num_output: 64
    kernel_size: 1
    weight_filler {
      type: "xavier"
      std: 0.1
    }
    bias_filler {
      type: "constant"
      value: 0.2
    }
  }
}
layer {
  name: "inception_4d/relu_pool_proj"
  type: "ReLU"
  bottom: "inception_4d/pool_proj"
  top: "inception_4d/pool_proj"
}
layer {
  name: "inception_4d/output"
  type: "Concat"
  bottom: "inception_4d/1x1"
  bottom: "inception_4d/3x3"
  bottom: "inception_4d/5x5"
  bottom: "inception_4d/pool_proj"
  top: "inception_4d/output"
}
layer {
  name: "loss2/ave_pool"
  type: "Pooling"
  bottom: "inception_4d/output"
  top: "loss2/ave_pool"
  pooling_param {
    pool: AVE
    kernel_size: 5
    stride: 3
  }
}
layer {
  name: "loss2/conv"
  type: "Convolution"
  bottom: "loss2/ave_pool"
  top: "loss2/conv"
  param {
    lr_mult: 1
    decay_mult: 1
  }
  param {
    lr_mult: 2
    decay_mult: 0
  }
  convolution_param {
    num_output: 128
    kernel_size: 1
    weight_filler {
      type: "xavier"
      std: 0.08
    }
    bias_filler {
      type: "constant"
      value: 0.2
    }
  }
}
layer {
  name: "loss2/relu_conv"
  type: "ReLU"
  bottom: "loss2/conv"
  top: "loss2/conv"
}
layer {
  name: "loss2/fc"
  type: "InnerProduct"
  bottom: "loss2/conv"
  top: "loss2/fc"
  param {
    lr_mult: 1
    decay_mult: 1
  }
  param {
    lr_mult: 2
    decay_mult: 0
  }
  inner_product_param {
    num_output: 1024
    weight_filler {
      type: "xavier"
      std: 0.02
    }
    bias_filler {
      type: "constant"
      value: 0.2
    }
  }
}
layer {
  name: "loss2/relu_fc"
  type: "ReLU"
  bottom: "loss2/fc"
  top: "loss2/fc"
}
layer {
  name: "loss2/drop_fc"
  type: "Dropout"
  bottom: "loss2/fc"
  top: "loss2/fc"
  dropout_param {
    dropout_ratio: 0.7
  }
}
layer {
  name: "loss2/classifier_plantvillage"
  type: "InnerProduct"
  bottom: "loss2/fc"
  top: "loss2/classifier_plantvillage"
  param {
    lr_mult: 1
    decay_mult: 1
  }
  param {
    lr_mult: 2
    decay_mult: 0
  }
  inner_product_param {
    num_output: 38
    weight_filler {
      type: "xavier"
      std: 0.0009765625
    }
    bias_filler {
      type: "constant"
      value: 0
    }
  }
}
layer {
  name: "inception_4e/1x1"
  type: "Convolution"
  bottom: "inception_4d/output"
  top: "inception_4e/1x1"
  param {
    lr_mult: 1
    decay_mult: 1
  }
  param {
    lr_mult: 2
    decay_mult: 0
  }
  convolution_param {
    num_output: 256
    kernel_size: 1
    weight_filler {
      type: "xavier"
      std: 0.03
    }
    bias_filler {
      type: "constant"
      value: 0.2
    }
  }
}
layer {
  name: "inception_4e/relu_1x1"
  type: "ReLU"
  bottom: "inception_4e/1x1"
  top: "inception_4e/1x1"
}
layer {
  name: "inception_4e/3x3_reduce"
  type: "Convolution"
  bottom: "inception_4d/output"
  top: "inception_4e/3x3_reduce"
  param {
    lr_mult: 1
    decay_mult: 1
  }
  param {
    lr_mult: 2
    decay_mult: 0
  }
  convolution_param {
    num_output: 160
    kernel_size: 1
    weight_filler {
      type: "xavier"
      std: 0.09
    }
    bias_filler {
      type: "constant"
      value: 0.2
    }
  }
}
layer {
  name: "inception_4e/relu_3x3_reduce"
  type: "ReLU"
  bottom: "inception_4e/3x3_reduce"
  top: "inception_4e/3x3_reduce"
}
layer {
  name: "inception_4e/3x3"
  type: "Convolution"
  bottom: "inception_4e/3x3_reduce"
  top: "inception_4e/3x3"
  param {
    lr_mult: 1
    decay_mult: 1
  }
  param {
    lr_mult: 2
    decay_mult: 0
  }
  convolution_param {
    num_output: 320
    pad: 1
    kernel_size: 3
    weight_filler {
      type: "xavier"
      std: 0.03
    }
    bias_filler {
      type: "constant"
      value: 0.2
    }
  }
}
layer {
  name: "inception_4e/relu_3x3"
  type: "ReLU"
  bottom: "inception_4e/3x3"
  top: "inception_4e/3x3"
}
layer {
  name: "inception_4e/5x5_reduce"
  type: "Convolution"
  bottom: "inception_4d/output"
  top: "inception_4e/5x5_reduce"
  param {
    lr_mult: 1
    decay_mult: 1
  }
  param {
    lr_mult: 2
    decay_mult: 0
  }
  convolution_param {
    num_output: 32
    kernel_size: 1
    weight_filler {
      type: "xavier"
      std: 0.2
    }
    bias_filler {
      type: "constant"
      value: 0.2
    }
  }
}
layer {
  name: "inception_4e/relu_5x5_reduce"
  type: "ReLU"
  bottom: "inception_4e/5x5_reduce"
  top: "inception_4e/5x5_reduce"
}
layer {
  name: "inception_4e/5x5"
  type: "Convolution"
  bottom: "inception_4e/5x5_reduce"
  top: "inception_4e/5x5"
  p
I0403 16:47:36.454257 21451 layer_factory.hpp:77] Creating layer data
I0403 16:47:36.454823 21451 net.cpp:91] Creating Layer data
I0403 16:47:36.454854 21451 net.cpp:399] data -> data
I0403 16:47:36.454900 21451 net.cpp:399] data -> label
I0403 16:47:36.454936 21451 data_transformer.cpp:25] Loading mean file from: /home/mohanty/data/final_dataset/lmdb/color-40-60/mean.binaryproto
I0403 16:47:36.456116 21456 db_lmdb.cpp:38] Opened lmdb /home/mohanty/data/final_dataset/lmdb/color-40-60/test_db
I0403 16:47:36.468107 21451 data_layer.cpp:41] output data size: 24,3,224,224
I0403 16:47:36.498870 21451 net.cpp:141] Setting up data
I0403 16:47:36.498966 21451 net.cpp:148] Top shape: 24 3 224 224 (3612672)
I0403 16:47:36.498992 21451 net.cpp:148] Top shape: 24 (24)
I0403 16:47:36.499009 21451 net.cpp:156] Memory required for data: 14450784
I0403 16:47:36.499038 21451 layer_factory.hpp:77] Creating layer label_data_1_split
I0403 16:47:36.499065 21451 net.cpp:91] Creating Layer label_data_1_split
I0403 16:47:36.499083 21451 net.cpp:425] label_data_1_split <- label
I0403 16:47:36.499117 21451 net.cpp:399] label_data_1_split -> label_data_1_split_0
I0403 16:47:36.499145 21451 net.cpp:399] label_data_1_split -> label_data_1_split_1
I0403 16:47:36.499167 21451 net.cpp:399] label_data_1_split -> label_data_1_split_2
I0403 16:47:36.499189 21451 net.cpp:399] label_data_1_split -> label_data_1_split_3
I0403 16:47:36.499207 21451 net.cpp:399] label_data_1_split -> label_data_1_split_4
I0403 16:47:36.499227 21451 net.cpp:399] label_data_1_split -> label_data_1_split_5
I0403 16:47:36.499245 21451 net.cpp:399] label_data_1_split -> label_data_1_split_6
I0403 16:47:36.499265 21451 net.cpp:399] label_data_1_split -> label_data_1_split_7
I0403 16:47:36.499322 21451 net.cpp:399] label_data_1_split -> label_data_1_split_8
I0403 16:47:36.499348 21451 net.cpp:399] label_data_1_split -> label_data_1_split_9
I0403 16:47:36.499639 21451 net.cpp:141] Setting up label_data_1_split
I0403 16:47:36.499665 21451 net.cpp:148] Top shape: 24 (24)
I0403 16:47:36.499682 21451 net.cpp:148] Top shape: 24 (24)
I0403 16:47:36.499698 21451 net.cpp:148] Top shape: 24 (24)
I0403 16:47:36.499713 21451 net.cpp:148] Top shape: 24 (24)
I0403 16:47:36.499729 21451 net.cpp:148] Top shape: 24 (24)
I0403 16:47:36.499744 21451 net.cpp:148] Top shape: 24 (24)
I0403 16:47:36.499760 21451 net.cpp:148] Top shape: 24 (24)
I0403 16:47:36.499776 21451 net.cpp:148] Top shape: 24 (24)
I0403 16:47:36.499793 21451 net.cpp:148] Top shape: 24 (24)
I0403 16:47:36.499807 21451 net.cpp:148] Top shape: 24 (24)
I0403 16:47:36.499848 21451 net.cpp:156] Memory required for data: 14451744
I0403 16:47:36.499864 21451 layer_factory.hpp:77] Creating layer conv1/7x7_s2
I0403 16:47:36.499897 21451 net.cpp:91] Creating Layer conv1/7x7_s2
I0403 16:47:36.499915 21451 net.cpp:425] conv1/7x7_s2 <- data
I0403 16:47:36.499934 21451 net.cpp:399] conv1/7x7_s2 -> conv1/7x7_s2
I0403 16:47:36.642300 21451 net.cpp:141] Setting up conv1/7x7_s2
I0403 16:47:36.642390 21451 net.cpp:148] Top shape: 24 64 112 112 (19267584)
I0403 16:47:36.642407 21451 net.cpp:156] Memory required for data: 91522080
I0403 16:47:36.642437 21451 layer_factory.hpp:77] Creating layer conv1/relu_7x7
I0403 16:47:36.642463 21451 net.cpp:91] Creating Layer conv1/relu_7x7
I0403 16:47:36.642482 21451 net.cpp:425] conv1/relu_7x7 <- conv1/7x7_s2
I0403 16:47:36.642499 21451 net.cpp:386] conv1/relu_7x7 -> conv1/7x7_s2 (in-place)
I0403 16:47:36.642751 21451 net.cpp:141] Setting up conv1/relu_7x7
I0403 16:47:36.642778 21451 net.cpp:148] Top shape: 24 64 112 112 (19267584)
I0403 16:47:36.642794 21451 net.cpp:156] Memory required for data: 168592416
I0403 16:47:36.642808 21451 layer_factory.hpp:77] Creating layer pool1/3x3_s2
I0403 16:47:36.642833 21451 net.cpp:91] Creating Layer pool1/3x3_s2
I0403 16:47:36.642850 21451 net.cpp:425] pool1/3x3_s2 <- conv1/7x7_s2
I0403 16:47:36.642868 21451 net.cpp:399] pool1/3x3_s2 -> pool1/3x3_s2
I0403 16:47:36.642941 21451 net.cpp:141] Setting up pool1/3x3_s2
I0403 16:47:36.642971 21451 net.cpp:148] Top shape: 24 64 56 56 (4816896)
I0403 16:47:36.642985 21451 net.cpp:156] Memory required for data: 187860000
I0403 16:47:36.643000 21451 layer_factory.hpp:77] Creating layer pool1/norm1
I0403 16:47:36.643024 21451 net.cpp:91] Creating Layer pool1/norm1
I0403 16:47:36.643054 21451 net.cpp:425] pool1/norm1 <- pool1/3x3_s2
I0403 16:47:36.643071 21451 net.cpp:399] pool1/norm1 -> pool1/norm1
I0403 16:47:36.643373 21451 net.cpp:141] Setting up pool1/norm1
I0403 16:47:36.643399 21451 net.cpp:148] Top shape: 24 64 56 56 (4816896)
I0403 16:47:36.643415 21451 net.cpp:156] Memory required for data: 207127584
I0403 16:47:36.643430 21451 layer_factory.hpp:77] Creating layer conv2/3x3_reduce
I0403 16:47:36.643453 21451 net.cpp:91] Creating Layer conv2/3x3_reduce
I0403 16:47:36.643471 21451 net.cpp:425] conv2/3x3_reduce <- pool1/norm1
I0403 16:47:36.643488 21451 net.cpp:399] conv2/3x3_reduce -> conv2/3x3_reduce
I0403 16:47:36.644789 21451 net.cpp:141] Setting up conv2/3x3_reduce
I0403 16:47:36.644820 21451 net.cpp:148] Top shape: 24 64 56 56 (4816896)
I0403 16:47:36.644840 21451 net.cpp:156] Memory required for data: 226395168
I0403 16:47:36.644863 21451 layer_factory.hpp:77] Creating layer conv2/relu_3x3_reduce
I0403 16:47:36.644882 21451 net.cpp:91] Creating Layer conv2/relu_3x3_reduce
I0403 16:47:36.644897 21451 net.cpp:425] conv2/relu_3x3_reduce <- conv2/3x3_reduce
I0403 16:47:36.644915 21451 net.cpp:386] conv2/relu_3x3_reduce -> conv2/3x3_reduce (in-place)
I0403 16:47:36.645176 21451 net.cpp:141] Setting up conv2/relu_3x3_reduce
I0403 16:47:36.645203 21451 net.cpp:148] Top shape: 24 64 56 56 (4816896)
I0403 16:47:36.645220 21451 net.cpp:156] Memory required for data: 245662752
I0403 16:47:36.645236 21451 layer_factory.hpp:77] Creating layer conv2/3x3
I0403 16:47:36.645258 21451 net.cpp:91] Creating Layer conv2/3x3
I0403 16:47:36.645274 21451 net.cpp:425] conv2/3x3 <- conv2/3x3_reduce
I0403 16:47:36.645292 21451 net.cpp:399] conv2/3x3 -> conv2/3x3
I0403 16:47:36.647614 21451 net.cpp:141] Setting up conv2/3x3
I0403 16:47:36.647649 21451 net.cpp:148] Top shape: 24 192 56 56 (14450688)
I0403 16:47:36.647667 21451 net.cpp:156] Memory required for data: 303465504
I0403 16:47:36.647689 21451 layer_factory.hpp:77] Creating layer conv2/relu_3x3
I0403 16:47:36.647708 21451 net.cpp:91] Creating Layer conv2/relu_3x3
I0403 16:47:36.647725 21451 net.cpp:425] conv2/relu_3x3 <- conv2/3x3
I0403 16:47:36.647743 21451 net.cpp:386] conv2/relu_3x3 -> conv2/3x3 (in-place)
I0403 16:47:36.647922 21451 net.cpp:141] Setting up conv2/relu_3x3
I0403 16:47:36.647948 21451 net.cpp:148] Top shape: 24 192 56 56 (14450688)
I0403 16:47:36.647999 21451 net.cpp:156] Memory required for data: 361268256
I0403 16:47:36.648015 21451 layer_factory.hpp:77] Creating layer conv2/norm2
I0403 16:47:36.648036 21451 net.cpp:91] Creating Layer conv2/norm2
I0403 16:47:36.648054 21451 net.cpp:425] conv2/norm2 <- conv2/3x3
I0403 16:47:36.648072 21451 net.cpp:399] conv2/norm2 -> conv2/norm2
I0403 16:47:36.648380 21451 net.cpp:141] Setting up conv2/norm2
I0403 16:47:36.648408 21451 net.cpp:148] Top shape: 24 192 56 56 (14450688)
I0403 16:47:36.648424 21451 net.cpp:156] Memory required for data: 419071008
I0403 16:47:36.648439 21451 layer_factory.hpp:77] Creating layer pool2/3x3_s2
I0403 16:47:36.648460 21451 net.cpp:91] Creating Layer pool2/3x3_s2
I0403 16:47:36.648478 21451 net.cpp:425] pool2/3x3_s2 <- conv2/norm2
I0403 16:47:36.648496 21451 net.cpp:399] pool2/3x3_s2 -> pool2/3x3_s2
I0403 16:47:36.648551 21451 net.cpp:141] Setting up pool2/3x3_s2
I0403 16:47:36.648576 21451 net.cpp:148] Top shape: 24 192 28 28 (3612672)
I0403 16:47:36.648589 21451 net.cpp:156] Memory required for data: 433521696
I0403 16:47:36.648603 21451 layer_factory.hpp:77] Creating layer pool2/3x3_s2_pool2/3x3_s2_0_split
I0403 16:47:36.648620 21451 net.cpp:91] Creating Layer pool2/3x3_s2_pool2/3x3_s2_0_split
I0403 16:47:36.648634 21451 net.cpp:425] pool2/3x3_s2_pool2/3x3_s2_0_split <- pool2/3x3_s2
I0403 16:47:36.648653 21451 net.cpp:399] pool2/3x3_s2_pool2/3x3_s2_0_split -> pool2/3x3_s2_pool2/3x3_s2_0_split_0
I0403 16:47:36.648674 21451 net.cpp:399] pool2/3x3_s2_pool2/3x3_s2_0_split -> pool2/3x3_s2_pool2/3x3_s2_0_split_1
I0403 16:47:36.648692 21451 net.cpp:399] pool2/3x3_s2_pool2/3x3_s2_0_split -> pool2/3x3_s2_pool2/3x3_s2_0_split_2
I0403 16:47:36.648711 21451 net.cpp:399] pool2/3x3_s2_pool2/3x3_s2_0_split -> pool2/3x3_s2_pool2/3x3_s2_0_split_3
I0403 16:47:36.648782 21451 net.cpp:141] Setting up pool2/3x3_s2_pool2/3x3_s2_0_split
I0403 16:47:36.648808 21451 net.cpp:148] Top shape: 24 192 28 28 (3612672)
I0403 16:47:36.648824 21451 net.cpp:148] Top shape: 24 192 28 28 (3612672)
I0403 16:47:36.648839 21451 net.cpp:148] Top shape: 24 192 28 28 (3612672)
I0403 16:47:36.648855 21451 net.cpp:148] Top shape: 24 192 28 28 (3612672)
I0403 16:47:36.648869 21451 net.cpp:156] Memory required for data: 491324448
I0403 16:47:36.648881 21451 layer_factory.hpp:77] Creating layer inception_3a/1x1
I0403 16:47:36.648903 21451 net.cpp:91] Creating Layer inception_3a/1x1
I0403 16:47:36.648921 21451 net.cpp:425] inception_3a/1x1 <- pool2/3x3_s2_pool2/3x3_s2_0_split_0
I0403 16:47:36.648938 21451 net.cpp:399] inception_3a/1x1 -> inception_3a/1x1
I0403 16:47:36.650446 21451 net.cpp:141] Setting up inception_3a/1x1
I0403 16:47:36.650478 21451 net.cpp:148] Top shape: 24 64 28 28 (1204224)
I0403 16:47:36.650493 21451 net.cpp:156] Memory required for data: 496141344
I0403 16:47:36.650512 21451 layer_factory.hpp:77] Creating layer inception_3a/relu_1x1
I0403 16:47:36.650532 21451 net.cpp:91] Creating Layer inception_3a/relu_1x1
I0403 16:47:36.650547 21451 net.cpp:425] inception_3a/relu_1x1 <- inception_3a/1x1
I0403 16:47:36.650563 21451 net.cpp:386] inception_3a/relu_1x1 -> inception_3a/1x1 (in-place)
I0403 16:47:36.650729 21451 net.cpp:141] Setting up inception_3a/relu_1x1
I0403 16:47:36.650754 21451 net.cpp:148] Top shape: 24 64 28 28 (1204224)
I0403 16:47:36.650769 21451 net.cpp:156] Memory required for data: 500958240
I0403 16:47:36.650784 21451 layer_factory.hpp:77] Creating layer inception_3a/3x3_reduce
I0403 16:47:36.650804 21451 net.cpp:91] Creating Layer inception_3a/3x3_reduce
I0403 16:47:36.650821 21451 net.cpp:425] inception_3a/3x3_reduce <- pool2/3x3_s2_pool2/3x3_s2_0_split_1
I0403 16:47:36.650841 21451 net.cpp:399] inception_3a/3x3_reduce -> inception_3a/3x3_reduce
I0403 16:47:36.652494 21451 net.cpp:141] Setting up inception_3a/3x3_reduce
I0403 16:47:36.652524 21451 net.cpp:148] Top shape: 24 96 28 28 (1806336)
I0403 16:47:36.652542 21451 net.cpp:156] Memory required for data: 508183584
I0403 16:47:36.652564 21451 layer_factory.hpp:77] Creating layer inception_3a/relu_3x3_reduce
I0403 16:47:36.652597 21451 net.cpp:91] Creating Layer inception_3a/relu_3x3_reduce
I0403 16:47:36.652613 21451 net.cpp:425] inception_3a/relu_3x3_reduce <- inception_3a/3x3_reduce
I0403 16:47:36.652631 21451 net.cpp:386] inception_3a/relu_3x3_reduce -> inception_3a/3x3_reduce (in-place)
I0403 16:47:36.652809 21451 net.cpp:141] Setting up inception_3a/relu_3x3_reduce
I0403 16:47:36.652833 21451 net.cpp:148] Top shape: 24 96 28 28 (1806336)
I0403 16:47:36.652848 21451 net.cpp:156] Memory required for data: 515408928
I0403 16:47:36.652863 21451 layer_factory.hpp:77] Creating layer inception_3a/3x3
I0403 16:47:36.652884 21451 net.cpp:91] Creating Layer inception_3a/3x3
I0403 16:47:36.652899 21451 net.cpp:425] inception_3a/3x3 <- inception_3a/3x3_reduce
I0403 16:47:36.652920 21451 net.cpp:399] inception_3a/3x3 -> inception_3a/3x3
I0403 16:47:36.654537 21451 net.cpp:141] Setting up inception_3a/3x3
I0403 16:47:36.654567 21451 net.cpp:148] Top shape: 24 128 28 28 (2408448)
I0403 16:47:36.654585 21451 net.cpp:156] Memory required for data: 525042720
I0403 16:47:36.654605 21451 layer_factory.hpp:77] Creating layer inception_3a/relu_3x3
I0403 16:47:36.654623 21451 net.cpp:91] Creating Layer inception_3a/relu_3x3
I0403 16:47:36.654639 21451 net.cpp:425] inception_3a/relu_3x3 <- inception_3a/3x3
I0403 16:47:36.654659 21451 net.cpp:386] inception_3a/relu_3x3 -> inception_3a/3x3 (in-place)
I0403 16:47:36.654923 21451 net.cpp:141] Setting up inception_3a/relu_3x3
I0403 16:47:36.654952 21451 net.cpp:148] Top shape: 24 128 28 28 (2408448)
I0403 16:47:36.654971 21451 net.cpp:156] Memory required for data: 534676512
I0403 16:47:36.654986 21451 layer_factory.hpp:77] Creating layer inception_3a/5x5_reduce
I0403 16:47:36.655009 21451 net.cpp:91] Creating Layer inception_3a/5x5_reduce
I0403 16:47:36.655025 21451 net.cpp:425] inception_3a/5x5_reduce <- pool2/3x3_s2_pool2/3x3_s2_0_split_2
I0403 16:47:36.655042 21451 net.cpp:399] inception_3a/5x5_reduce -> inception_3a/5x5_reduce
I0403 16:47:36.655963 21451 net.cpp:141] Setting up inception_3a/5x5_reduce
I0403 16:47:36.655992 21451 net.cpp:148] Top shape: 24 16 28 28 (301056)
I0403 16:47:36.656008 21451 net.cpp:156] Memory required for data: 535880736
I0403 16:47:36.656025 21451 layer_factory.hpp:77] Creating layer inception_3a/relu_5x5_reduce
I0403 16:47:36.656043 21451 net.cpp:91] Creating Layer inception_3a/relu_5x5_reduce
I0403 16:47:36.656057 21451 net.cpp:425] inception_3a/relu_5x5_reduce <- inception_3a/5x5_reduce
I0403 16:47:36.656077 21451 net.cpp:386] inception_3a/relu_5x5_reduce -> inception_3a/5x5_reduce (in-place)
I0403 16:47:36.656363 21451 net.cpp:141] Setting up inception_3a/relu_5x5_reduce
I0403 16:47:36.656388 21451 net.cpp:148] Top shape: 24 16 28 28 (301056)
I0403 16:47:36.656402 21451 net.cpp:156] Memory required for data: 537084960
I0403 16:47:36.656416 21451 layer_factory.hpp:77] Creating layer inception_3a/5x5
I0403 16:47:36.656438 21451 net.cpp:91] Creating Layer inception_3a/5x5
I0403 16:47:36.656455 21451 net.cpp:425] inception_3a/5x5 <- inception_3a/5x5_reduce
I0403 16:47:36.656474 21451 net.cpp:399] inception_3a/5x5 -> inception_3a/5x5
I0403 16:47:36.657450 21451 net.cpp:141] Setting up inception_3a/5x5
I0403 16:47:36.657477 21451 net.cpp:148] Top shape: 24 32 28 28 (602112)
I0403 16:47:36.657492 21451 net.cpp:156] Memory required for data: 539493408
I0403 16:47:36.657510 21451 layer_factory.hpp:77] Creating layer inception_3a/relu_5x5
I0403 16:47:36.657534 21451 net.cpp:91] Creating Layer inception_3a/relu_5x5
I0403 16:47:36.657555 21451 net.cpp:425] inception_3a/relu_5x5 <- inception_3a/5x5
I0403 16:47:36.657577 21451 net.cpp:386] inception_3a/relu_5x5 -> inception_3a/5x5 (in-place)
I0403 16:47:36.657755 21451 net.cpp:141] Setting up inception_3a/relu_5x5
I0403 16:47:36.657779 21451 net.cpp:148] Top shape: 24 32 28 28 (602112)
I0403 16:47:36.657794 21451 net.cpp:156] Memory required for data: 541901856
I0403 16:47:36.657809 21451 layer_factory.hpp:77] Creating layer inception_3a/pool
I0403 16:47:36.657824 21451 net.cpp:91] Creating Layer inception_3a/pool
I0403 16:47:36.657840 21451 net.cpp:425] inception_3a/pool <- pool2/3x3_s2_pool2/3x3_s2_0_split_3
I0403 16:47:36.657872 21451 net.cpp:399] inception_3a/pool -> inception_3a/pool
I0403 16:47:36.657940 21451 net.cpp:141] Setting up inception_3a/pool
I0403 16:47:36.657968 21451 net.cpp:148] Top shape: 24 192 28 28 (3612672)
I0403 16:47:36.657984 21451 net.cpp:156] Memory required for data: 556352544
I0403 16:47:36.657999 21451 layer_factory.hpp:77] Creating layer inception_3a/pool_proj
I0403 16:47:36.658023 21451 net.cpp:91] Creating Layer inception_3a/pool_proj
I0403 16:47:36.658041 21451 net.cpp:425] inception_3a/pool_proj <- inception_3a/pool
I0403 16:47:36.658058 21451 net.cpp:399] inception_3a/pool_proj -> inception_3a/pool_proj
I0403 16:47:36.659021 21451 net.cpp:141] Setting up inception_3a/pool_proj
I0403 16:47:36.659050 21451 net.cpp:148] Top shape: 24 32 28 28 (602112)
I0403 16:47:36.659066 21451 net.cpp:156] Memory required for data: 558760992
I0403 16:47:36.659090 21451 layer_factory.hpp:77] Creating layer inception_3a/relu_pool_proj
I0403 16:47:36.659109 21451 net.cpp:91] Creating Layer inception_3a/relu_pool_proj
I0403 16:47:36.659126 21451 net.cpp:425] inception_3a/relu_pool_proj <- inception_3a/pool_proj
I0403 16:47:36.659144 21451 net.cpp:386] inception_3a/relu_pool_proj -> inception_3a/pool_proj (in-place)
I0403 16:47:36.659415 21451 net.cpp:141] Setting up inception_3a/relu_pool_proj
I0403 16:47:36.659443 21451 net.cpp:148] Top shape: 24 32 28 28 (602112)
I0403 16:47:36.659459 21451 net.cpp:156] Memory required for data: 561169440
I0403 16:47:36.659474 21451 layer_factory.hpp:77] Creating layer inception_3a/output
I0403 16:47:36.659492 21451 net.cpp:91] Creating Layer inception_3a/output
I0403 16:47:36.659507 21451 net.cpp:425] inception_3a/output <- inception_3a/1x1
I0403 16:47:36.659523 21451 net.cpp:425] inception_3a/output <- inception_3a/3x3
I0403 16:47:36.659538 21451 net.cpp:425] inception_3a/output <- inception_3a/5x5
I0403 16:47:36.659554 21451 net.cpp:425] inception_3a/output <- inception_3a/pool_proj
I0403 16:47:36.659570 21451 net.cpp:399] inception_3a/output -> inception_3a/output
I0403 16:47:36.659616 21451 net.cpp:141] Setting up inception_3a/output
I0403 16:47:36.659639 21451 net.cpp:148] Top shape: 24 256 28 28 (4816896)
I0403 16:47:36.659654 21451 net.cpp:156] Memory required for data: 580437024
I0403 16:47:36.659668 21451 layer_factory.hpp:77] Creating layer inception_3a/output_inception_3a/output_0_split
I0403 16:47:36.659685 21451 net.cpp:91] Creating Layer inception_3a/output_inception_3a/output_0_split
I0403 16:47:36.659699 21451 net.cpp:425] inception_3a/output_inception_3a/output_0_split <- inception_3a/output
I0403 16:47:36.659719 21451 net.cpp:399] inception_3a/output_inception_3a/output_0_split -> inception_3a/output_inception_3a/output_0_split_0
I0403 16:47:36.659739 21451 net.cpp:399] inception_3a/output_inception_3a/output_0_split -> inception_3a/output_inception_3a/output_0_split_1
I0403 16:47:36.659762 21451 net.cpp:399] inception_3a/output_inception_3a/output_0_split -> inception_3a/output_inception_3a/output_0_split_2
I0403 16:47:36.659793 21451 net.cpp:399] inception_3a/output_inception_3a/output_0_split -> inception_3a/output_inception_3a/output_0_split_3
I0403 16:47:36.659864 21451 net.cpp:141] Setting up inception_3a/output_inception_3a/output_0_split
I0403 16:47:36.659886 21451 net.cpp:148] Top shape: 24 256 28 28 (4816896)
I0403 16:47:36.659906 21451 net.cpp:148] Top shape: 24 256 28 28 (4816896)
I0403 16:47:36.659922 21451 net.cpp:148] Top shape: 24 256 28 28 (4816896)
I0403 16:47:36.659937 21451 net.cpp:148] Top shape: 24 256 28 28 (4816896)
I0403 16:47:36.659950 21451 net.cpp:156] Memory required for data: 657507360
I0403 16:47:36.659970 21451 layer_factory.hpp:77] Creating layer inception_3b/1x1
I0403 16:47:36.659991 21451 net.cpp:91] Creating Layer inception_3b/1x1
I0403 16:47:36.660006 21451 net.cpp:425] inception_3b/1x1 <- inception_3a/output_inception_3a/output_0_split_0
I0403 16:47:36.660027 21451 net.cpp:399] inception_3b/1x1 -> inception_3b/1x1
I0403 16:47:36.661244 21451 net.cpp:141] Setting up inception_3b/1x1
I0403 16:47:36.661285 21451 net.cpp:148] Top shape: 24 128 28 28 (2408448)
I0403 16:47:36.661303 21451 net.cpp:156] Memory required for data: 667141152
I0403 16:47:36.661320 21451 layer_factory.hpp:77] Creating layer inception_3b/relu_1x1
I0403 16:47:36.661341 21451 net.cpp:91] Creating Layer inception_3b/relu_1x1
I0403 16:47:36.661360 21451 net.cpp:425] inception_3b/relu_1x1 <- inception_3b/1x1
I0403 16:47:36.661377 21451 net.cpp:386] inception_3b/relu_1x1 -> inception_3b/1x1 (in-place)
I0403 16:47:36.661552 21451 net.cpp:141] Setting up inception_3b/relu_1x1
I0403 16:47:36.661579 21451 net.cpp:148] Top shape: 24 128 28 28 (2408448)
I0403 16:47:36.661595 21451 net.cpp:156] Memory required for data: 676774944
I0403 16:47:36.661610 21451 layer_factory.hpp:77] Creating layer inception_3b/3x3_reduce
I0403 16:47:36.661631 21451 net.cpp:91] Creating Layer inception_3b/3x3_reduce
I0403 16:47:36.661649 21451 net.cpp:425] inception_3b/3x3_reduce <- inception_3a/output_inception_3a/output_0_split_1
I0403 16:47:36.661667 21451 net.cpp:399] inception_3b/3x3_reduce -> inception_3b/3x3_reduce
I0403 16:47:36.662796 21451 net.cpp:141] Setting up inception_3b/3x3_reduce
I0403 16:47:36.662825 21451 net.cpp:148] Top shape: 24 128 28 28 (2408448)
I0403 16:47:36.662842 21451 net.cpp:156] Memory required for data: 686408736
I0403 16:47:36.662861 21451 layer_factory.hpp:77] Creating layer inception_3b/relu_3x3_reduce
I0403 16:47:36.662881 21451 net.cpp:91] Creating Layer inception_3b/relu_3x3_reduce
I0403 16:47:36.662899 21451 net.cpp:425] inception_3b/relu_3x3_reduce <- inception_3b/3x3_reduce
I0403 16:47:36.662915 21451 net.cpp:386] inception_3b/relu_3x3_reduce -> inception_3b/3x3_reduce (in-place)
I0403 16:47:36.663091 21451 net.cpp:141] Setting up inception_3b/relu_3x3_reduce
I0403 16:47:36.663120 21451 net.cpp:148] Top shape: 24 128 28 28 (2408448)
I0403 16:47:36.663136 21451 net.cpp:156] Memory required for data: 696042528
I0403 16:47:36.663151 21451 layer_factory.hpp:77] Creating layer inception_3b/3x3
I0403 16:47:36.663175 21451 net.cpp:91] Creating Layer inception_3b/3x3
I0403 16:47:36.663193 21451 net.cpp:425] inception_3b/3x3 <- inception_3b/3x3_reduce
I0403 16:47:36.663215 21451 net.cpp:399] inception_3b/3x3 -> inception_3b/3x3
I0403 16:47:36.666103 21451 net.cpp:141] Setting up inception_3b/3x3
I0403 16:47:36.666137 21451 net.cpp:148] Top shape: 24 192 28 28 (3612672)
I0403 16:47:36.666155 21451 net.cpp:156] Memory required for data: 710493216
I0403 16:47:36.666173 21451 layer_factory.hpp:77] Creating layer inception_3b/relu_3x3
I0403 16:47:36.666193 21451 net.cpp:91] Creating Layer inception_3b/relu_3x3
I0403 16:47:36.666210 21451 net.cpp:425] inception_3b/relu_3x3 <- inception_3b/3x3
I0403 16:47:36.666231 21451 net.cpp:386] inception_3b/relu_3x3 -> inception_3b/3x3 (in-place)
I0403 16:47:36.666504 21451 net.cpp:141] Setting up inception_3b/relu_3x3
I0403 16:47:36.666532 21451 net.cpp:148] Top shape: 24 192 28 28 (3612672)
I0403 16:47:36.666548 21451 net.cpp:156] Memory required for data: 724943904
I0403 16:47:36.666563 21451 layer_factory.hpp:77] Creating layer inception_3b/5x5_reduce
I0403 16:47:36.666586 21451 net.cpp:91] Creating Layer inception_3b/5x5_reduce
I0403 16:47:36.666605 21451 net.cpp:425] inception_3b/5x5_reduce <- inception_3a/output_inception_3a/output_0_split_2
I0403 16:47:36.666625 21451 net.cpp:399] inception_3b/5x5_reduce -> inception_3b/5x5_reduce
I0403 16:47:36.667604 21451 net.cpp:141] Setting up inception_3b/5x5_reduce
I0403 16:47:36.667631 21451 net.cpp:148] Top shape: 24 32 28 28 (602112)
I0403 16:47:36.667646 21451 net.cpp:156] Memory required for data: 727352352
I0403 16:47:36.667667 21451 layer_factory.hpp:77] Creating layer inception_3b/relu_5x5_reduce
I0403 16:47:36.667687 21451 net.cpp:91] Creating Layer inception_3b/relu_5x5_reduce
I0403 16:47:36.667703 21451 net.cpp:425] inception_3b/relu_5x5_reduce <- inception_3b/5x5_reduce
I0403 16:47:36.667721 21451 net.cpp:386] inception_3b/relu_5x5_reduce -> inception_3b/5x5_reduce (in-place)
I0403 16:47:36.667894 21451 net.cpp:141] Setting up inception_3b/relu_5x5_reduce
I0403 16:47:36.667932 21451 net.cpp:148] Top shape: 24 32 28 28 (602112)
I0403 16:47:36.667946 21451 net.cpp:156] Memory required for data: 729760800
I0403 16:47:36.667966 21451 layer_factory.hpp:77] Creating layer inception_3b/5x5
I0403 16:47:36.667990 21451 net.cpp:91] Creating Layer inception_3b/5x5
I0403 16:47:36.668007 21451 net.cpp:425] inception_3b/5x5 <- inception_3b/5x5_reduce
I0403 16:47:36.668028 21451 net.cpp:399] inception_3b/5x5 -> inception_3b/5x5
I0403 16:47:36.670017 21451 net.cpp:141] Setting up inception_3b/5x5
I0403 16:47:36.670047 21451 net.cpp:148] Top shape: 24 96 28 28 (1806336)
I0403 16:47:36.670061 21451 net.cpp:156] Memory required for data: 736986144
I0403 16:47:36.670080 21451 layer_factory.hpp:77] Creating layer inception_3b/relu_5x5
I0403 16:47:36.670106 21451 net.cpp:91] Creating Layer inception_3b/relu_5x5
I0403 16:47:36.670122 21451 net.cpp:425] inception_3b/relu_5x5 <- inception_3b/5x5
I0403 16:47:36.670140 21451 net.cpp:386] inception_3b/relu_5x5 -> inception_3b/5x5 (in-place)
I0403 16:47:36.670333 21451 net.cpp:141] Setting up inception_3b/relu_5x5
I0403 16:47:36.670358 21451 net.cpp:148] Top shape: 24 96 28 28 (1806336)
I0403 16:47:36.670373 21451 net.cpp:156] Memory required for data: 744211488
I0403 16:47:36.670388 21451 layer_factory.hpp:77] Creating layer inception_3b/pool
I0403 16:47:36.670405 21451 net.cpp:91] Creating Layer inception_3b/pool
I0403 16:47:36.670420 21451 net.cpp:425] inception_3b/pool <- inception_3a/output_inception_3a/output_0_split_3
I0403 16:47:36.670438 21451 net.cpp:399] inception_3b/pool -> inception_3b/pool
I0403 16:47:36.670495 21451 net.cpp:141] Setting up inception_3b/pool
I0403 16:47:36.670517 21451 net.cpp:148] Top shape: 24 256 28 28 (4816896)
I0403 16:47:36.670531 21451 net.cpp:156] Memory required for data: 763479072
I0403 16:47:36.670544 21451 layer_factory.hpp:77] Creating layer inception_3b/pool_proj
I0403 16:47:36.670567 21451 net.cpp:91] Creating Layer inception_3b/pool_proj
I0403 16:47:36.670583 21451 net.cpp:425] inception_3b/pool_proj <- inception_3b/pool
I0403 16:47:36.670604 21451 net.cpp:399] inception_3b/pool_proj -> inception_3b/pool_proj
I0403 16:47:36.671661 21451 net.cpp:141] Setting up inception_3b/pool_proj
I0403 16:47:36.671690 21451 net.cpp:148] Top shape: 24 64 28 28 (1204224)
I0403 16:47:36.671706 21451 net.cpp:156] Memory required for data: 768295968
I0403 16:47:36.671726 21451 layer_factory.hpp:77] Creating layer inception_3b/relu_pool_proj
I0403 16:47:36.671744 21451 net.cpp:91] Creating Layer inception_3b/relu_pool_proj
I0403 16:47:36.671761 21451 net.cpp:425] inception_3b/relu_pool_proj <- inception_3b/pool_proj
I0403 16:47:36.671780 21451 net.cpp:386] inception_3b/relu_pool_proj -> inception_3b/pool_proj (in-place)
I0403 16:47:36.672183 21451 net.cpp:141] Setting up inception_3b/relu_pool_proj
I0403 16:47:36.672214 21451 net.cpp:148] Top shape: 24 64 28 28 (1204224)
I0403 16:47:36.672230 21451 net.cpp:156] Memory required for data: 773112864
I0403 16:47:36.672245 21451 layer_factory.hpp:77] Creating layer inception_3b/output
I0403 16:47:36.672262 21451 net.cpp:91] Creating Layer inception_3b/output
I0403 16:47:36.672279 21451 net.cpp:425] inception_3b/output <- inception_3b/1x1
I0403 16:47:36.672296 21451 net.cpp:425] inception_3b/output <- inception_3b/3x3
I0403 16:47:36.672312 21451 net.cpp:425] inception_3b/output <- inception_3b/5x5
I0403 16:47:36.672327 21451 net.cpp:425] inception_3b/output <- inception_3b/pool_proj
I0403 16:47:36.672345 21451 net.cpp:399] inception_3b/output -> inception_3b/output
I0403 16:47:36.672389 21451 net.cpp:141] Setting up inception_3b/output
I0403 16:47:36.672412 21451 net.cpp:148] Top shape: 24 480 28 28 (9031680)
I0403 16:47:36.672426 21451 net.cpp:156] Memory required for data: 809239584
I0403 16:47:36.672441 21451 layer_factory.hpp:77] Creating layer pool3/3x3_s2
I0403 16:47:36.672461 21451 net.cpp:91] Creating Layer pool3/3x3_s2
I0403 16:47:36.672477 21451 net.cpp:425] pool3/3x3_s2 <- inception_3b/output
I0403 16:47:36.672494 21451 net.cpp:399] pool3/3x3_s2 -> pool3/3x3_s2
I0403 16:47:36.672569 21451 net.cpp:141] Setting up pool3/3x3_s2
I0403 16:47:36.672591 21451 net.cpp:148] Top shape: 24 480 14 14 (2257920)
I0403 16:47:36.672606 21451 net.cpp:156] Memory required for data: 818271264
I0403 16:47:36.672621 21451 layer_factory.hpp:77] Creating layer pool3/3x3_s2_pool3/3x3_s2_0_split
I0403 16:47:36.672637 21451 net.cpp:91] Creating Layer pool3/3x3_s2_pool3/3x3_s2_0_split
I0403 16:47:36.672655 21451 net.cpp:425] pool3/3x3_s2_pool3/3x3_s2_0_split <- pool3/3x3_s2
I0403 16:47:36.672672 21451 net.cpp:399] pool3/3x3_s2_pool3/3x3_s2_0_split -> pool3/3x3_s2_pool3/3x3_s2_0_split_0
I0403 16:47:36.672691 21451 net.cpp:399] pool3/3x3_s2_pool3/3x3_s2_0_split -> pool3/3x3_s2_pool3/3x3_s2_0_split_1
I0403 16:47:36.672710 21451 net.cpp:399] pool3/3x3_s2_pool3/3x3_s2_0_split -> pool3/3x3_s2_pool3/3x3_s2_0_split_2
I0403 16:47:36.672729 21451 net.cpp:399] pool3/3x3_s2_pool3/3x3_s2_0_split -> pool3/3x3_s2_pool3/3x3_s2_0_split_3
I0403 16:47:36.672804 21451 net.cpp:141] Setting up pool3/3x3_s2_pool3/3x3_s2_0_split
I0403 16:47:36.672827 21451 net.cpp:148] Top shape: 24 480 14 14 (2257920)
I0403 16:47:36.672843 21451 net.cpp:148] Top shape: 24 480 14 14 (2257920)
I0403 16:47:36.672858 21451 net.cpp:148] Top shape: 24 480 14 14 (2257920)
I0403 16:47:36.672873 21451 net.cpp:148] Top shape: 24 480 14 14 (2257920)
I0403 16:47:36.672886 21451 net.cpp:156] Memory required for data: 854397984
I0403 16:47:36.672901 21451 layer_factory.hpp:77] Creating layer inception_4a/1x1
I0403 16:47:36.672924 21451 net.cpp:91] Creating Layer inception_4a/1x1
I0403 16:47:36.672940 21451 net.cpp:425] inception_4a/1x1 <- pool3/3x3_s2_pool3/3x3_s2_0_split_0
I0403 16:47:36.672965 21451 net.cpp:399] inception_4a/1x1 -> inception_4a/1x1
I0403 16:47:36.674525 21451 net.cpp:141] Setting up inception_4a/1x1
I0403 16:47:36.674553 21451 net.cpp:148] Top shape: 24 192 14 14 (903168)
I0403 16:47:36.674569 21451 net.cpp:156] Memory required for data: 858010656
I0403 16:47:36.674588 21451 layer_factory.hpp:77] Creating layer inception_4a/relu_1x1
I0403 16:47:36.674607 21451 net.cpp:91] Creating Layer inception_4a/relu_1x1
I0403 16:47:36.674623 21451 net.cpp:425] inception_4a/relu_1x1 <- inception_4a/1x1
I0403 16:47:36.674641 21451 net.cpp:386] inception_4a/relu_1x1 -> inception_4a/1x1 (in-place)
I0403 16:47:36.674819 21451 net.cpp:141] Setting up inception_4a/relu_1x1
I0403 16:47:36.674846 21451 net.cpp:148] Top shape: 24 192 14 14 (903168)
I0403 16:47:36.674862 21451 net.cpp:156] Memory required for data: 861623328
I0403 16:47:36.674877 21451 layer_factory.hpp:77] Creating layer inception_4a/3x3_reduce
I0403 16:47:36.674901 21451 net.cpp:91] Creating Layer inception_4a/3x3_reduce
I0403 16:47:36.674919 21451 net.cpp:425] inception_4a/3x3_reduce <- pool3/3x3_s2_pool3/3x3_s2_0_split_1
I0403 16:47:36.674940 21451 net.cpp:399] inception_4a/3x3_reduce -> inception_4a/3x3_reduce
I0403 16:47:36.676234 21451 net.cpp:141] Setting up inception_4a/3x3_reduce
I0403 16:47:36.676264 21451 net.cpp:148] Top shape: 24 96 14 14 (451584)
I0403 16:47:36.676280 21451 net.cpp:156] Memory required for data: 863429664
I0403 16:47:36.676306 21451 layer_factory.hpp:77] Creating layer inception_4a/relu_3x3_reduce
I0403 16:47:36.676326 21451 net.cpp:91] Creating Layer inception_4a/relu_3x3_reduce
I0403 16:47:36.676342 21451 net.cpp:425] inception_4a/relu_3x3_reduce <- inception_4a/3x3_reduce
I0403 16:47:36.676360 21451 net.cpp:386] inception_4a/relu_3x3_reduce -> inception_4a/3x3_reduce (in-place)
I0403 16:47:36.676539 21451 net.cpp:141] Setting up inception_4a/relu_3x3_reduce
I0403 16:47:36.676565 21451 net.cpp:148] Top shape: 24 96 14 14 (451584)
I0403 16:47:36.676580 21451 net.cpp:156] Memory required for data: 865236000
I0403 16:47:36.676596 21451 layer_factory.hpp:77] Creating layer inception_4a/3x3
I0403 16:47:36.676620 21451 net.cpp:91] Creating Layer inception_4a/3x3
I0403 16:47:36.676638 21451 net.cpp:425] inception_4a/3x3 <- inception_4a/3x3_reduce
I0403 16:47:36.676659 21451 net.cpp:399] inception_4a/3x3 -> inception_4a/3x3
I0403 16:47:36.679343 21451 net.cpp:141] Setting up inception_4a/3x3
I0403 16:47:36.679373 21451 net.cpp:148] Top shape: 24 208 14 14 (978432)
I0403 16:47:36.679389 21451 net.cpp:156] Memory required for data: 869149728
I0403 16:47:36.679407 21451 layer_factory.hpp:77] Creating layer inception_4a/relu_3x3
I0403 16:47:36.679428 21451 net.cpp:91] Creating Layer inception_4a/relu_3x3
I0403 16:47:36.679446 21451 net.cpp:425] inception_4a/relu_3x3 <- inception_4a/3x3
I0403 16:47:36.679466 21451 net.cpp:386] inception_4a/relu_3x3 -> inception_4a/3x3 (in-place)
I0403 16:47:36.679752 21451 net.cpp:141] Setting up inception_4a/relu_3x3
I0403 16:47:36.679779 21451 net.cpp:148] Top shape: 24 208 14 14 (978432)
I0403 16:47:36.679793 21451 net.cpp:156] Memory required for data: 873063456
I0403 16:47:36.679807 21451 layer_factory.hpp:77] Creating layer inception_4a/5x5_reduce
I0403 16:47:36.679831 21451 net.cpp:91] Creating Layer inception_4a/5x5_reduce
I0403 16:47:36.679850 21451 net.cpp:425] inception_4a/5x5_reduce <- pool3/3x3_s2_pool3/3x3_s2_0_split_2
I0403 16:47:36.679869 21451 net.cpp:399] inception_4a/5x5_reduce -> inception_4a/5x5_reduce
I0403 16:47:36.680893 21451 net.cpp:141] Setting up inception_4a/5x5_reduce
I0403 16:47:36.680922 21451 net.cpp:148] Top shape: 24 16 14 14 (75264)
I0403 16:47:36.680938 21451 net.cpp:156] Memory required for data: 873364512
I0403 16:47:36.680961 21451 layer_factory.hpp:77] Creating layer inception_4a/relu_5x5_reduce
I0403 16:47:36.680984 21451 net.cpp:91] Creating Layer inception_4a/relu_5x5_reduce
I0403 16:47:36.681001 21451 net.cpp:425] inception_4a/relu_5x5_reduce <- inception_4a/5x5_reduce
I0403 16:47:36.681020 21451 net.cpp:386] inception_4a/relu_5x5_reduce -> inception_4a/5x5_reduce (in-place)
I0403 16:47:36.681197 21451 net.cpp:141] Setting up inception_4a/relu_5x5_reduce
I0403 16:47:36.681222 21451 net.cpp:148] Top shape: 24 16 14 14 (75264)
I0403 16:47:36.681236 21451 net.cpp:156] Memory required for data: 873665568
I0403 16:47:36.681252 21451 layer_factory.hpp:77] Creating layer inception_4a/5x5
I0403 16:47:36.681274 21451 net.cpp:91] Creating Layer inception_4a/5x5
I0403 16:47:36.681291 21451 net.cpp:425] inception_4a/5x5 <- inception_4a/5x5_reduce
I0403 16:47:36.681313 21451 net.cpp:399] inception_4a/5x5 -> inception_4a/5x5
I0403 16:47:36.682409 21451 net.cpp:141] Setting up inception_4a/5x5
I0403 16:47:36.682440 21451 net.cpp:148] Top shape: 24 48 14 14 (225792)
I0403 16:47:36.682456 21451 net.cpp:156] Memory required for data: 874568736
I0403 16:47:36.682476 21451 layer_factory.hpp:77] Creating layer inception_4a/relu_5x5
I0403 16:47:36.682494 21451 net.cpp:91] Creating Layer inception_4a/relu_5x5
I0403 16:47:36.682510 21451 net.cpp:425] inception_4a/relu_5x5 <- inception_4a/5x5
I0403 16:47:36.682531 21451 net.cpp:386] inception_4a/relu_5x5 -> inception_4a/5x5 (in-place)
I0403 16:47:36.682711 21451 net.cpp:141] Setting up inception_4a/relu_5x5
I0403 16:47:36.682736 21451 net.cpp:148] Top shape: 24 48 14 14 (225792)
I0403 16:47:36.682752 21451 net.cpp:156] Memory required for data: 875471904
I0403 16:47:36.682767 21451 layer_factory.hpp:77] Creating layer inception_4a/pool
I0403 16:47:36.682787 21451 net.cpp:91] Creating Layer inception_4a/pool
I0403 16:47:36.682803 21451 net.cpp:425] inception_4a/pool <- pool3/3x3_s2_pool3/3x3_s2_0_split_3
I0403 16:47:36.682821 21451 net.cpp:399] inception_4a/pool -> inception_4a/pool
I0403 16:47:36.682885 21451 net.cpp:141] Setting up inception_4a/pool
I0403 16:47:36.682909 21451 net.cpp:148] Top shape: 24 480 14 14 (2257920)
I0403 16:47:36.682924 21451 net.cpp:156] Memory required for data: 884503584
I0403 16:47:36.682939 21451 layer_factory.hpp:77] Creating layer inception_4a/pool_proj
I0403 16:47:36.682966 21451 net.cpp:91] Creating Layer inception_4a/pool_proj
I0403 16:47:36.682996 21451 net.cpp:425] inception_4a/pool_proj <- inception_4a/pool
I0403 16:47:36.683017 21451 net.cpp:399] inception_4a/pool_proj -> inception_4a/pool_proj
I0403 16:47:36.684203 21451 net.cpp:141] Setting up inception_4a/pool_proj
I0403 16:47:36.684232 21451 net.cpp:148] Top shape: 24 64 14 14 (301056)
I0403 16:47:36.684263 21451 net.cpp:156] Memory required for data: 885707808
I0403 16:47:36.684283 21451 layer_factory.hpp:77] Creating layer inception_4a/relu_pool_proj
I0403 16:47:36.684306 21451 net.cpp:91] Creating Layer inception_4a/relu_pool_proj
I0403 16:47:36.684324 21451 net.cpp:425] inception_4a/relu_pool_proj <- inception_4a/pool_proj
I0403 16:47:36.684343 21451 net.cpp:386] inception_4a/relu_pool_proj -> inception_4a/pool_proj (in-place)
I0403 16:47:36.684623 21451 net.cpp:141] Setting up inception_4a/relu_pool_proj
I0403 16:47:36.684651 21451 net.cpp:148] Top shape: 24 64 14 14 (301056)
I0403 16:47:36.684667 21451 net.cpp:156] Memory required for data: 886912032
I0403 16:47:36.684682 21451 layer_factory.hpp:77] Creating layer inception_4a/output
I0403 16:47:36.684700 21451 net.cpp:91] Creating Layer inception_4a/output
I0403 16:47:36.684715 21451 net.cpp:425] inception_4a/output <- inception_4a/1x1
I0403 16:47:36.684731 21451 net.cpp:425] inception_4a/output <- inception_4a/3x3
I0403 16:47:36.684747 21451 net.cpp:425] inception_4a/output <- inception_4a/5x5
I0403 16:47:36.684763 21451 net.cpp:425] inception_4a/output <- inception_4a/pool_proj
I0403 16:47:36.684782 21451 net.cpp:399] inception_4a/output -> inception_4a/output
I0403 16:47:36.684828 21451 net.cpp:141] Setting up inception_4a/output
I0403 16:47:36.684854 21451 net.cpp:148] Top shape: 24 512 14 14 (2408448)
I0403 16:47:36.684870 21451 net.cpp:156] Memory required for data: 896545824
I0403 16:47:36.684883 21451 layer_factory.hpp:77] Creating layer inception_4a/output_inception_4a/output_0_split
I0403 16:47:36.684901 21451 net.cpp:91] Creating Layer inception_4a/output_inception_4a/output_0_split
I0403 16:47:36.684916 21451 net.cpp:425] inception_4a/output_inception_4a/output_0_split <- inception_4a/output
I0403 16:47:36.684937 21451 net.cpp:399] inception_4a/output_inception_4a/output_0_split -> inception_4a/output_inception_4a/output_0_split_0
I0403 16:47:36.684962 21451 net.cpp:399] inception_4a/output_inception_4a/output_0_split -> inception_4a/output_inception_4a/output_0_split_1
I0403 16:47:36.684983 21451 net.cpp:399] inception_4a/output_inception_4a/output_0_split -> inception_4a/output_inception_4a/output_0_split_2
I0403 16:47:36.685003 21451 net.cpp:399] inception_4a/output_inception_4a/output_0_split -> inception_4a/output_inception_4a/output_0_split_3
I0403 16:47:36.685022 21451 net.cpp:399] inception_4a/output_inception_4a/output_0_split -> inception_4a/output_inception_4a/output_0_split_4
I0403 16:47:36.685114 21451 net.cpp:141] Setting up inception_4a/output_inception_4a/output_0_split
I0403 16:47:36.685137 21451 net.cpp:148] Top shape: 24 512 14 14 (2408448)
I0403 16:47:36.685153 21451 net.cpp:148] Top shape: 24 512 14 14 (2408448)
I0403 16:47:36.685169 21451 net.cpp:148] Top shape: 24 512 14 14 (2408448)
I0403 16:47:36.685184 21451 net.cpp:148] Top shape: 24 512 14 14 (2408448)
I0403 16:47:36.685199 21451 net.cpp:148] Top shape: 24 512 14 14 (2408448)
I0403 16:47:36.685214 21451 net.cpp:156] Memory required for data: 944714784
I0403 16:47:36.685227 21451 layer_factory.hpp:77] Creating layer loss1/ave_pool
I0403 16:47:36.685247 21451 net.cpp:91] Creating Layer loss1/ave_pool
I0403 16:47:36.685263 21451 net.cpp:425] loss1/ave_pool <- inception_4a/output_inception_4a/output_0_split_0
I0403 16:47:36.685283 21451 net.cpp:399] loss1/ave_pool -> loss1/ave_pool
I0403 16:47:36.685494 21451 net.cpp:141] Setting up loss1/ave_pool
I0403 16:47:36.685520 21451 net.cpp:148] Top shape: 24 512 4 4 (196608)
I0403 16:47:36.685535 21451 net.cpp:156] Memory required for data: 945501216
I0403 16:47:36.685549 21451 layer_factory.hpp:77] Creating layer loss1/conv
I0403 16:47:36.685571 21451 net.cpp:91] Creating Layer loss1/conv
I0403 16:47:36.685588 21451 net.cpp:425] loss1/conv <- loss1/ave_pool
I0403 16:47:36.685609 21451 net.cpp:399] loss1/conv -> loss1/conv
I0403 16:47:36.687031 21451 net.cpp:141] Setting up loss1/conv
I0403 16:47:36.687059 21451 net.cpp:148] Top shape: 24 128 4 4 (49152)
I0403 16:47:36.687075 21451 net.cpp:156] Memory required for data: 945697824
I0403 16:47:36.687109 21451 layer_factory.hpp:77] Creating layer loss1/relu_conv
I0403 16:47:36.687131 21451 net.cpp:91] Creating Layer loss1/relu_conv
I0403 16:47:36.687147 21451 net.cpp:425] loss1/relu_conv <- loss1/conv
I0403 16:47:36.687165 21451 net.cpp:386] loss1/relu_conv -> loss1/conv (in-place)
I0403 16:47:36.687451 21451 net.cpp:141] Setting up loss1/relu_conv
I0403 16:47:36.687477 21451 net.cpp:148] Top shape: 24 128 4 4 (49152)
I0403 16:47:36.687491 21451 net.cpp:156] Memory required for data: 945894432
I0403 16:47:36.687506 21451 layer_factory.hpp:77] Creating layer loss1/fc
I0403 16:47:36.687531 21451 net.cpp:91] Creating Layer loss1/fc
I0403 16:47:36.687549 21451 net.cpp:425] loss1/fc <- loss1/conv
I0403 16:47:36.687569 21451 net.cpp:399] loss1/fc -> loss1/fc
I0403 16:47:36.705248 21451 net.cpp:141] Setting up loss1/fc
I0403 16:47:36.705298 21451 net.cpp:148] Top shape: 24 1024 (24576)
I0403 16:47:36.705314 21451 net.cpp:156] Memory required for data: 945992736
I0403 16:47:36.705333 21451 layer_factory.hpp:77] Creating layer loss1/relu_fc
I0403 16:47:36.705353 21451 net.cpp:91] Creating Layer loss1/relu_fc
I0403 16:47:36.705369 21451 net.cpp:425] loss1/relu_fc <- loss1/fc
I0403 16:47:36.705389 21451 net.cpp:386] loss1/relu_fc -> loss1/fc (in-place)
I0403 16:47:36.705585 21451 net.cpp:141] Setting up loss1/relu_fc
I0403 16:47:36.705611 21451 net.cpp:148] Top shape: 24 1024 (24576)
I0403 16:47:36.705629 21451 net.cpp:156] Memory required for data: 946091040
I0403 16:47:36.705646 21451 layer_factory.hpp:77] Creating layer loss1/drop_fc
I0403 16:47:36.705674 21451 net.cpp:91] Creating Layer loss1/drop_fc
I0403 16:47:36.705690 21451 net.cpp:425] loss1/drop_fc <- loss1/fc
I0403 16:47:36.705706 21451 net.cpp:386] loss1/drop_fc -> loss1/fc (in-place)
I0403 16:47:36.705760 21451 net.cpp:141] Setting up loss1/drop_fc
I0403 16:47:36.705781 21451 net.cpp:148] Top shape: 24 1024 (24576)
I0403 16:47:36.705796 21451 net.cpp:156] Memory required for data: 946189344
I0403 16:47:36.705811 21451 layer_factory.hpp:77] Creating layer loss1/classifier_plantvillage
I0403 16:47:36.705829 21451 net.cpp:91] Creating Layer loss1/classifier_plantvillage
I0403 16:47:36.705844 21451 net.cpp:425] loss1/classifier_plantvillage <- loss1/fc
I0403 16:47:36.705863 21451 net.cpp:399] loss1/classifier_plantvillage -> loss1/classifier_plantvillage
I0403 16:47:36.706756 21451 net.cpp:141] Setting up loss1/classifier_plantvillage
I0403 16:47:36.706784 21451 net.cpp:148] Top shape: 24 38 (912)
I0403 16:47:36.706799 21451 net.cpp:156] Memory required for data: 946192992
I0403 16:47:36.706817 21451 layer_factory.hpp:77] Creating layer loss1/classifier_plantvillage_loss1/classifier_plantvillage_0_split
I0403 16:47:36.706837 21451 net.cpp:91] Creating Layer loss1/classifier_plantvillage_loss1/classifier_plantvillage_0_split
I0403 16:47:36.706852 21451 net.cpp:425] loss1/classifier_plantvillage_loss1/classifier_plantvillage_0_split <- loss1/classifier_plantvillage
I0403 16:47:36.706869 21451 net.cpp:399] loss1/classifier_plantvillage_loss1/classifier_plantvillage_0_split -> loss1/classifier_plantvillage_loss1/classifier_plantvillage_0_split_0
I0403 16:47:36.706889 21451 net.cpp:399] loss1/classifier_plantvillage_loss1/classifier_plantvillage_0_split -> loss1/classifier_plantvillage_loss1/classifier_plantvillage_0_split_1
I0403 16:47:36.706908 21451 net.cpp:399] loss1/classifier_plantvillage_loss1/classifier_plantvillage_0_split -> loss1/classifier_plantvillage_loss1/classifier_plantvillage_0_split_2
I0403 16:47:36.706979 21451 net.cpp:141] Setting up loss1/classifier_plantvillage_loss1/classifier_plantvillage_0_split
I0403 16:47:36.707002 21451 net.cpp:148] Top shape: 24 38 (912)
I0403 16:47:36.707017 21451 net.cpp:148] Top shape: 24 38 (912)
I0403 16:47:36.707032 21451 net.cpp:148] Top shape: 24 38 (912)
I0403 16:47:36.707046 21451 net.cpp:156] Memory required for data: 946203936
I0403 16:47:36.707061 21451 layer_factory.hpp:77] Creating layer inception_4b/1x1
I0403 16:47:36.707082 21451 net.cpp:91] Creating Layer inception_4b/1x1
I0403 16:47:36.707118 21451 net.cpp:425] inception_4b/1x1 <- inception_4a/output_inception_4a/output_0_split_1
I0403 16:47:36.707136 21451 net.cpp:399] inception_4b/1x1 -> inception_4b/1x1
I0403 16:47:36.708773 21451 net.cpp:141] Setting up inception_4b/1x1
I0403 16:47:36.708802 21451 net.cpp:148] Top shape: 24 160 14 14 (752640)
I0403 16:47:36.708817 21451 net.cpp:156] Memory required for data: 949214496
I0403 16:47:36.708837 21451 layer_factory.hpp:77] Creating layer inception_4b/relu_1x1
I0403 16:47:36.708855 21451 net.cpp:91] Creating Layer inception_4b/relu_1x1
I0403 16:47:36.708873 21451 net.cpp:425] inception_4b/relu_1x1 <- inception_4b/1x1
I0403 16:47:36.708889 21451 net.cpp:386] inception_4b/relu_1x1 -> inception_4b/1x1 (in-place)
I0403 16:47:36.709079 21451 net.cpp:141] Setting up inception_4b/relu_1x1
I0403 16:47:36.709105 21451 net.cpp:148] Top shape: 24 160 14 14 (752640)
I0403 16:47:36.709120 21451 net.cpp:156] Memory required for data: 952225056
I0403 16:47:36.709133 21451 layer_factory.hpp:77] Creating layer inception_4b/3x3_reduce
I0403 16:47:36.709157 21451 net.cpp:91] Creating Layer inception_4b/3x3_reduce
I0403 16:47:36.709174 21451 net.cpp:425] inception_4b/3x3_reduce <- inception_4a/output_inception_4a/output_0_split_2
I0403 16:47:36.709195 21451 net.cpp:399] inception_4b/3x3_reduce -> inception_4b/3x3_reduce
I0403 16:47:36.710549 21451 net.cpp:141] Setting up inception_4b/3x3_reduce
I0403 16:47:36.710582 21451 net.cpp:148] Top shape: 24 112 14 14 (526848)
I0403 16:47:36.710599 21451 net.cpp:156] Memory required for data: 954332448
I0403 16:47:36.710618 21451 layer_factory.hpp:77] Creating layer inception_4b/relu_3x3_reduce
I0403 16:47:36.710636 21451 net.cpp:91] Creating Layer inception_4b/relu_3x3_reduce
I0403 16:47:36.710654 21451 net.cpp:425] inception_4b/relu_3x3_reduce <- inception_4b/3x3_reduce
I0403 16:47:36.710672 21451 net.cpp:386] inception_4b/relu_3x3_reduce -> inception_4b/3x3_reduce (in-place)
I0403 16:47:36.710963 21451 net.cpp:141] Setting up inception_4b/relu_3x3_reduce
I0403 16:47:36.710993 21451 net.cpp:148] Top shape: 24 112 14 14 (526848)
I0403 16:47:36.711007 21451 net.cpp:156] Memory required for data: 956439840
I0403 16:47:36.711022 21451 layer_factory.hpp:77] Creating layer inception_4b/3x3
I0403 16:47:36.711045 21451 net.cpp:91] Creating Layer inception_4b/3x3
I0403 16:47:36.711064 21451 net.cpp:425] inception_4b/3x3 <- inception_4b/3x3_reduce
I0403 16:47:36.711086 21451 net.cpp:399] inception_4b/3x3 -> inception_4b/3x3
I0403 16:47:36.713987 21451 net.cpp:141] Setting up inception_4b/3x3
I0403 16:47:36.714016 21451 net.cpp:148] Top shape: 24 224 14 14 (1053696)
I0403 16:47:36.714032 21451 net.cpp:156] Memory required for data: 960654624
I0403 16:47:36.714049 21451 layer_factory.hpp:77] Creating layer inception_4b/relu_3x3
I0403 16:47:36.714069 21451 net.cpp:91] Creating Layer inception_4b/relu_3x3
I0403 16:47:36.714087 21451 net.cpp:425] inception_4b/relu_3x3 <- inception_4b/3x3
I0403 16:47:36.714104 21451 net.cpp:386] inception_4b/relu_3x3 -> inception_4b/3x3 (in-place)
I0403 16:47:36.714282 21451 net.cpp:141] Setting up inception_4b/relu_3x3
I0403 16:47:36.714308 21451 net.cpp:148] Top shape: 24 224 14 14 (1053696)
I0403 16:47:36.714323 21451 net.cpp:156] Memory required for data: 964869408
I0403 16:47:36.714337 21451 layer_factory.hpp:77] Creating layer inception_4b/5x5_reduce
I0403 16:47:36.714357 21451 net.cpp:91] Creating Layer inception_4b/5x5_reduce
I0403 16:47:36.714373 21451 net.cpp:425] inception_4b/5x5_reduce <- inception_4a/output_inception_4a/output_0_split_3
I0403 16:47:36.714395 21451 net.cpp:399] inception_4b/5x5_reduce -> inception_4b/5x5_reduce
I0403 16:47:36.715456 21451 net.cpp:141] Setting up inception_4b/5x5_reduce
I0403 16:47:36.715487 21451 net.cpp:148] Top shape: 24 24 14 14 (112896)
I0403 16:47:36.715503 21451 net.cpp:156] Memory required for data: 965320992
I0403 16:47:36.715522 21451 layer_factory.hpp:77] Creating layer inception_4b/relu_5x5_reduce
I0403 16:47:36.715538 21451 net.cpp:91] Creating Layer inception_4b/relu_5x5_reduce
I0403 16:47:36.715567 21451 net.cpp:425] inception_4b/relu_5x5_reduce <- inception_4b/5x5_reduce
I0403 16:47:36.715585 21451 net.cpp:386] inception_4b/relu_5x5_reduce -> inception_4b/5x5_reduce (in-place)
I0403 16:47:36.715769 21451 net.cpp:141] Setting up inception_4b/relu_5x5_reduce
I0403 16:47:36.715792 21451 net.cpp:148] Top shape: 24 24 14 14 (112896)
I0403 16:47:36.715806 21451 net.cpp:156] Memory required for data: 965772576
I0403 16:47:36.715821 21451 layer_factory.hpp:77] Creating layer inception_4b/5x5
I0403 16:47:36.715842 21451 net.cpp:91] Creating Layer inception_4b/5x5
I0403 16:47:36.715858 21451 net.cpp:425] inception_4b/5x5 <- inception_4b/5x5_reduce
I0403 16:47:36.715878 21451 net.cpp:399] inception_4b/5x5 -> inception_4b/5x5
I0403 16:47:36.717159 21451 net.cpp:141] Setting up inception_4b/5x5
I0403 16:47:36.717185 21451 net.cpp:148] Top shape: 24 64 14 14 (301056)
I0403 16:47:36.717200 21451 net.cpp:156] Memory required for data: 966976800
I0403 16:47:36.717219 21451 layer_factory.hpp:77] Creating layer inception_4b/relu_5x5
I0403 16:47:36.717238 21451 net.cpp:91] Creating Layer inception_4b/relu_5x5
I0403 16:47:36.717255 21451 net.cpp:425] inception_4b/relu_5x5 <- inception_4b/5x5
I0403 16:47:36.717272 21451 net.cpp:386] inception_4b/relu_5x5 -> inception_4b/5x5 (in-place)
I0403 16:47:36.717547 21451 net.cpp:141] Setting up inception_4b/relu_5x5
I0403 16:47:36.717572 21451 net.cpp:148] Top shape: 24 64 14 14 (301056)
I0403 16:47:36.717587 21451 net.cpp:156] Memory required for data: 968181024
I0403 16:47:36.717602 21451 layer_factory.hpp:77] Creating layer inception_4b/pool
I0403 16:47:36.717622 21451 net.cpp:91] Creating Layer inception_4b/pool
I0403 16:47:36.717638 21451 net.cpp:425] inception_4b/pool <- inception_4a/output_inception_4a/output_0_split_4
I0403 16:47:36.717654 21451 net.cpp:399] inception_4b/pool -> inception_4b/pool
I0403 16:47:36.717718 21451 net.cpp:141] Setting up inception_4b/pool
I0403 16:47:36.717741 21451 net.cpp:148] Top shape: 24 512 14 14 (2408448)
I0403 16:47:36.717754 21451 net.cpp:156] Memory required for data: 977814816
I0403 16:47:36.717768 21451 layer_factory.hpp:77] Creating layer inception_4b/pool_proj
I0403 16:47:36.717789 21451 net.cpp:91] Creating Layer inception_4b/pool_proj
I0403 16:47:36.717805 21451 net.cpp:425] inception_4b/pool_proj <- inception_4b/pool
I0403 16:47:36.717825 21451 net.cpp:399] inception_4b/pool_proj -> inception_4b/pool_proj
I0403 16:47:36.719044 21451 net.cpp:141] Setting up inception_4b/pool_proj
I0403 16:47:36.719075 21451 net.cpp:148] Top shape: 24 64 14 14 (301056)
I0403 16:47:36.719094 21451 net.cpp:156] Memory required for data: 979019040
I0403 16:47:36.719112 21451 layer_factory.hpp:77] Creating layer inception_4b/relu_pool_proj
I0403 16:47:36.719130 21451 net.cpp:91] Creating Layer inception_4b/relu_pool_proj
I0403 16:47:36.719146 21451 net.cpp:425] inception_4b/relu_pool_proj <- inception_4b/pool_proj
I0403 16:47:36.719164 21451 net.cpp:386] inception_4b/relu_pool_proj -> inception_4b/pool_proj (in-place)
I0403 16:47:36.719343 21451 net.cpp:141] Setting up inception_4b/relu_pool_proj
I0403 16:47:36.719368 21451 net.cpp:148] Top shape: 24 64 14 14 (301056)
I0403 16:47:36.719383 21451 net.cpp:156] Memory required for data: 980223264
I0403 16:47:36.719398 21451 layer_factory.hpp:77] Creating layer inception_4b/output
I0403 16:47:36.719413 21451 net.cpp:91] Creating Layer inception_4b/output
I0403 16:47:36.719429 21451 net.cpp:425] inception_4b/output <- inception_4b/1x1
I0403 16:47:36.719444 21451 net.cpp:425] inception_4b/output <- inception_4b/3x3
I0403 16:47:36.719460 21451 net.cpp:425] inception_4b/output <- inception_4b/5x5
I0403 16:47:36.719473 21451 net.cpp:425] inception_4b/output <- inception_4b/pool_proj
I0403 16:47:36.719491 21451 net.cpp:399] inception_4b/output -> inception_4b/output
I0403 16:47:36.719535 21451 net.cpp:141] Setting up inception_4b/output
I0403 16:47:36.719561 21451 net.cpp:148] Top shape: 24 512 14 14 (2408448)
I0403 16:47:36.719575 21451 net.cpp:156] Memory required for data: 989857056
I0403 16:47:36.719602 21451 layer_factory.hpp:77] Creating layer inception_4b/output_inception_4b/output_0_split
I0403 16:47:36.719620 21451 net.cpp:91] Creating Layer inception_4b/output_inception_4b/output_0_split
I0403 16:47:36.719635 21451 net.cpp:425] inception_4b/output_inception_4b/output_0_split <- inception_4b/output
I0403 16:47:36.719651 21451 net.cpp:399] inception_4b/output_inception_4b/output_0_split -> inception_4b/output_inception_4b/output_0_split_0
I0403 16:47:36.719671 21451 net.cpp:399] inception_4b/output_inception_4b/output_0_split -> inception_4b/output_inception_4b/output_0_split_1
I0403 16:47:36.719691 21451 net.cpp:399] inception_4b/output_inception_4b/output_0_split -> inception_4b/output_inception_4b/output_0_split_2
I0403 16:47:36.719712 21451 net.cpp:399] inception_4b/output_inception_4b/output_0_split -> inception_4b/output_inception_4b/output_0_split_3
I0403 16:47:36.719792 21451 net.cpp:141] Setting up inception_4b/output_inception_4b/output_0_split
I0403 16:47:36.719815 21451 net.cpp:148] Top shape: 24 512 14 14 (2408448)
I0403 16:47:36.719831 21451 net.cpp:148] Top shape: 24 512 14 14 (2408448)
I0403 16:47:36.719846 21451 net.cpp:148] Top shape: 24 512 14 14 (2408448)
I0403 16:47:36.719859 21451 net.cpp:148] Top shape: 24 512 14 14 (2408448)
I0403 16:47:36.719872 21451 net.cpp:156] Memory required for data: 1028392224
I0403 16:47:36.719887 21451 layer_factory.hpp:77] Creating layer inception_4c/1x1
I0403 16:47:36.719908 21451 net.cpp:91] Creating Layer inception_4c/1x1
I0403 16:47:36.719925 21451 net.cpp:425] inception_4c/1x1 <- inception_4b/output_inception_4b/output_0_split_0
I0403 16:47:36.719944 21451 net.cpp:399] inception_4c/1x1 -> inception_4c/1x1
I0403 16:47:36.721351 21451 net.cpp:141] Setting up inception_4c/1x1
I0403 16:47:36.721379 21451 net.cpp:148] Top shape: 24 128 14 14 (602112)
I0403 16:47:36.721396 21451 net.cpp:156] Memory required for data: 1030800672
I0403 16:47:36.721415 21451 layer_factory.hpp:77] Creating layer inception_4c/relu_1x1
I0403 16:47:36.721431 21451 net.cpp:91] Creating Layer inception_4c/relu_1x1
I0403 16:47:36.721446 21451 net.cpp:425] inception_4c/relu_1x1 <- inception_4c/1x1
I0403 16:47:36.721465 21451 net.cpp:386] inception_4c/relu_1x1 -> inception_4c/1x1 (in-place)
I0403 16:47:36.721644 21451 net.cpp:141] Setting up inception_4c/relu_1x1
I0403 16:47:36.721668 21451 net.cpp:148] Top shape: 24 128 14 14 (602112)
I0403 16:47:36.721681 21451 net.cpp:156] Memory required for data: 1033209120
I0403 16:47:36.721695 21451 layer_factory.hpp:77] Creating layer inception_4c/3x3_reduce
I0403 16:47:36.721717 21451 net.cpp:91] Creating Layer inception_4c/3x3_reduce
I0403 16:47:36.721735 21451 net.cpp:425] inception_4c/3x3_reduce <- inception_4b/output_inception_4b/output_0_split_1
I0403 16:47:36.721755 21451 net.cpp:399] inception_4c/3x3_reduce -> inception_4c/3x3_reduce
I0403 16:47:36.723649 21451 net.cpp:141] Setting up inception_4c/3x3_reduce
I0403 16:47:36.723680 21451 net.cpp:148] Top shape: 24 128 14 14 (602112)
I0403 16:47:36.723695 21451 net.cpp:156] Memory required for data: 1035617568
I0403 16:47:36.723713 21451 layer_factory.hpp:77] Creating layer inception_4c/relu_3x3_reduce
I0403 16:47:36.723734 21451 net.cpp:91] Creating Layer inception_4c/relu_3x3_reduce
I0403 16:47:36.723749 21451 net.cpp:425] inception_4c/relu_3x3_reduce <- inception_4c/3x3_reduce
I0403 16:47:36.723767 21451 net.cpp:386] inception_4c/relu_3x3_reduce -> inception_4c/3x3_reduce (in-place)
I0403 16:47:36.724055 21451 net.cpp:141] Setting up inception_4c/relu_3x3_reduce
I0403 16:47:36.724079 21451 net.cpp:148] Top shape: 24 128 14 14 (602112)
I0403 16:47:36.724093 21451 net.cpp:156] Memory required for data: 1038026016
I0403 16:47:36.724107 21451 layer_factory.hpp:77] Creating layer inception_4c/3x3
I0403 16:47:36.724129 21451 net.cpp:91] Creating Layer inception_4c/3x3
I0403 16:47:36.724145 21451 net.cpp:425] inception_4c/3x3 <- inception_4c/3x3_reduce
I0403 16:47:36.724167 21451 net.cpp:399] inception_4c/3x3 -> inception_4c/3x3
I0403 16:47:36.730806 21451 net.cpp:141] Setting up inception_4c/3x3
I0403 16:47:36.730849 21451 net.cpp:148] Top shape: 24 256 14 14 (1204224)
I0403 16:47:36.730865 21451 net.cpp:156] Memory required for data: 1042842912
I0403 16:47:36.730897 21451 layer_factory.hpp:77] Creating layer inception_4c/relu_3x3
I0403 16:47:36.730921 21451 net.cpp:91] Creating Layer inception_4c/relu_3x3
I0403 16:47:36.730937 21451 net.cpp:425] inception_4c/relu_3x3 <- inception_4c/3x3
I0403 16:47:36.730959 21451 net.cpp:386] inception_4c/relu_3x3 -> inception_4c/3x3 (in-place)
I0403 16:47:36.731143 21451 net.cpp:141] Setting up inception_4c/relu_3x3
I0403 16:47:36.731173 21451 net.cpp:148] Top shape: 24 256 14 14 (1204224)
I0403 16:47:36.731189 21451 net.cpp:156] Memory required for data: 1047659808
I0403 16:47:36.731204 21451 layer_factory.hpp:77] Creating layer inception_4c/5x5_reduce
I0403 16:47:36.731235 21451 net.cpp:91] Creating Layer inception_4c/5x5_reduce
I0403 16:47:36.731252 21451 net.cpp:425] inception_4c/5x5_reduce <- inception_4b/output_inception_4b/output_0_split_2
I0403 16:47:36.731271 21451 net.cpp:399] inception_4c/5x5_reduce -> inception_4c/5x5_reduce
I0403 16:47:36.732350 21451 net.cpp:141] Setting up inception_4c/5x5_reduce
I0403 16:47:36.732383 21451 net.cpp:148] Top shape: 24 24 14 14 (112896)
I0403 16:47:36.732398 21451 net.cpp:156] Memory required for data: 1048111392
I0403 16:47:36.732416 21451 layer_factory.hpp:77] Creating layer inception_4c/relu_5x5_reduce
I0403 16:47:36.732434 21451 net.cpp:91] Creating Layer inception_4c/relu_5x5_reduce
I0403 16:47:36.732450 21451 net.cpp:425] inception_4c/relu_5x5_reduce <- inception_4c/5x5_reduce
I0403 16:47:36.732465 21451 net.cpp:386] inception_4c/relu_5x5_reduce -> inception_4c/5x5_reduce (in-place)
I0403 16:47:36.732650 21451 net.cpp:141] Setting up inception_4c/relu_5x5_reduce
I0403 16:47:36.732676 21451 net.cpp:148] Top shape: 24 24 14 14 (112896)
I0403 16:47:36.732689 21451 net.cpp:156] Memory required for data: 1048562976
I0403 16:47:36.732704 21451 layer_factory.hpp:77] Creating layer inception_4c/5x5
I0403 16:47:36.732725 21451 net.cpp:91] Creating Layer inception_4c/5x5
I0403 16:47:36.732743 21451 net.cpp:425] inception_4c/5x5 <- inception_4c/5x5_reduce
I0403 16:47:36.732763 21451 net.cpp:399] inception_4c/5x5 -> inception_4c/5x5
I0403 16:47:36.733986 21451 net.cpp:141] Setting up inception_4c/5x5
I0403 16:47:36.734015 21451 net.cpp:148] Top shape: 24 64 14 14 (301056)
I0403 16:47:36.734032 21451 net.cpp:156] Memory required for data: 1049767200
I0403 16:47:36.734051 21451 layer_factory.hpp:77] Creating layer inception_4c/relu_5x5
I0403 16:47:36.734068 21451 net.cpp:91] Creating Layer inception_4c/relu_5x5
I0403 16:47:36.734083 21451 net.cpp:425] inception_4c/relu_5x5 <- inception_4c/5x5
I0403 16:47:36.734102 21451 net.cpp:386] inception_4c/relu_5x5 -> inception_4c/5x5 (in-place)
I0403 16:47:36.734390 21451 net.cpp:141] Setting up inception_4c/relu_5x5
I0403 16:47:36.734417 21451 net.cpp:148] Top shape: 24 64 14 14 (301056)
I0403 16:47:36.734431 21451 net.cpp:156] Memory required for data: 1050971424
I0403 16:47:36.734447 21451 layer_factory.hpp:77] Creating layer inception_4c/pool
I0403 16:47:36.734463 21451 net.cpp:91] Creating Layer inception_4c/pool
I0403 16:47:36.734479 21451 net.cpp:425] inception_4c/pool <- inception_4b/output_inception_4b/output_0_split_3
I0403 16:47:36.734499 21451 net.cpp:399] inception_4c/pool -> inception_4c/pool
I0403 16:47:36.734563 21451 net.cpp:141] Setting up inception_4c/pool
I0403 16:47:36.734587 21451 net.cpp:148] Top shape: 24 512 14 14 (2408448)
I0403 16:47:36.734602 21451 net.cpp:156] Memory required for data: 1060605216
I0403 16:47:36.734616 21451 layer_factory.hpp:77] Creating layer inception_4c/pool_proj
I0403 16:47:36.734640 21451 net.cpp:91] Creating Layer inception_4c/pool_proj
I0403 16:47:36.734657 21451 net.cpp:425] inception_4c/pool_proj <- inception_4c/pool
I0403 16:47:36.734675 21451 net.cpp:399] inception_4c/pool_proj -> inception_4c/pool_proj
I0403 16:47:36.735880 21451 net.cpp:141] Setting up inception_4c/pool_proj
I0403 16:47:36.735909 21451 net.cpp:148] Top shape: 24 64 14 14 (301056)
I0403 16:47:36.735939 21451 net.cpp:156] Memory required for data: 1061809440
I0403 16:47:36.735966 21451 layer_factory.hpp:77] Creating layer inception_4c/relu_pool_proj
I0403 16:47:36.735994 21451 net.cpp:91] Creating Layer inception_4c/relu_pool_proj
I0403 16:47:36.736013 21451 net.cpp:425] inception_4c/relu_pool_proj <- inception_4c/pool_proj
I0403 16:47:36.736040 21451 net.cpp:386] inception_4c/relu_pool_proj -> inception_4c/pool_proj (in-place)
I0403 16:47:36.736222 21451 net.cpp:141] Setting up inception_4c/relu_pool_proj
I0403 16:47:36.736248 21451 net.cpp:148] Top shape: 24 64 14 14 (301056)
I0403 16:47:36.736264 21451 net.cpp:156] Memory required for data: 1063013664
I0403 16:47:36.736279 21451 layer_factory.hpp:77] Creating layer inception_4c/output
I0403 16:47:36.736295 21451 net.cpp:91] Creating Layer inception_4c/output
I0403 16:47:36.736310 21451 net.cpp:425] inception_4c/output <- inception_4c/1x1
I0403 16:47:36.736325 21451 net.cpp:425] inception_4c/output <- inception_4c/3x3
I0403 16:47:36.736340 21451 net.cpp:425] inception_4c/output <- inception_4c/5x5
I0403 16:47:36.736356 21451 net.cpp:425] inception_4c/output <- inception_4c/pool_proj
I0403 16:47:36.736383 21451 net.cpp:399] inception_4c/output -> inception_4c/output
I0403 16:47:36.736431 21451 net.cpp:141] Setting up inception_4c/output
I0403 16:47:36.736457 21451 net.cpp:148] Top shape: 24 512 14 14 (2408448)
I0403 16:47:36.736474 21451 net.cpp:156] Memory required for data: 1072647456
I0403 16:47:36.736490 21451 layer_factory.hpp:77] Creating layer inception_4c/output_inception_4c/output_0_split
I0403 16:47:36.736505 21451 net.cpp:91] Creating Layer inception_4c/output_inception_4c/output_0_split
I0403 16:47:36.736521 21451 net.cpp:425] inception_4c/output_inception_4c/output_0_split <- inception_4c/output
I0403 16:47:36.736538 21451 net.cpp:399] inception_4c/output_inception_4c/output_0_split -> inception_4c/output_inception_4c/output_0_split_0
I0403 16:47:36.736557 21451 net.cpp:399] inception_4c/output_inception_4c/output_0_split -> inception_4c/output_inception_4c/output_0_split_1
I0403 16:47:36.736580 21451 net.cpp:399] inception_4c/output_inception_4c/output_0_split -> inception_4c/output_inception_4c/output_0_split_2
I0403 16:47:36.736603 21451 net.cpp:399] inception_4c/output_inception_4c/output_0_split -> inception_4c/output_inception_4c/output_0_split_3
I0403 16:47:36.736687 21451 net.cpp:141] Setting up inception_4c/output_inception_4c/output_0_split
I0403 16:47:36.736711 21451 net.cpp:148] Top shape: 24 512 14 14 (2408448)
I0403 16:47:36.736727 21451 net.cpp:148] Top shape: 24 512 14 14 (2408448)
I0403 16:47:36.736742 21451 net.cpp:148] Top shape: 24 512 14 14 (2408448)
I0403 16:47:36.736758 21451 net.cpp:148] Top shape: 24 512 14 14 (2408448)
I0403 16:47:36.736771 21451 net.cpp:156] Memory required for data: 1111182624
I0403 16:47:36.736786 21451 layer_factory.hpp:77] Creating layer inception_4d/1x1
I0403 16:47:36.736809 21451 net.cpp:91] Creating Layer inception_4d/1x1
I0403 16:47:36.736826 21451 net.cpp:425] inception_4d/1x1 <- inception_4c/output_inception_4c/output_0_split_0
I0403 16:47:36.736847 21451 net.cpp:399] inception_4d/1x1 -> inception_4d/1x1
I0403 16:47:36.738217 21451 net.cpp:141] Setting up inception_4d/1x1
I0403 16:47:36.738245 21451 net.cpp:148] Top shape: 24 112 14 14 (526848)
I0403 16:47:36.738262 21451 net.cpp:156] Memory required for data: 1113290016
I0403 16:47:36.738281 21451 layer_factory.hpp:77] Creating layer inception_4d/relu_1x1
I0403 16:47:36.738304 21451 net.cpp:91] Creating Layer inception_4d/relu_1x1
I0403 16:47:36.738322 21451 net.cpp:425] inception_4d/relu_1x1 <- inception_4d/1x1
I0403 16:47:36.738339 21451 net.cpp:386] inception_4d/relu_1x1 -> inception_4d/1x1 (in-place)
I0403 16:47:36.738518 21451 net.cpp:141] Setting up inception_4d/relu_1x1
I0403 16:47:36.738546 21451 net.cpp:148] Top shape: 24 112 14 14 (526848)
I0403 16:47:36.738562 21451 net.cpp:156] Memory required for data: 1115397408
I0403 16:47:36.738577 21451 layer_factory.hpp:77] Creating layer inception_4d/3x3_reduce
I0403 16:47:36.738615 21451 net.cpp:91] Creating Layer inception_4d/3x3_reduce
I0403 16:47:36.738634 21451 net.cpp:425] inception_4d/3x3_reduce <- inception_4c/output_inception_4c/output_0_split_1
I0403 16:47:36.738653 21451 net.cpp:399] inception_4d/3x3_reduce -> inception_4d/3x3_reduce
I0403 16:47:36.740149 21451 net.cpp:141] Setting up inception_4d/3x3_reduce
I0403 16:47:36.740177 21451 net.cpp:148] Top shape: 24 144 14 14 (677376)
I0403 16:47:36.740193 21451 net.cpp:156] Memory required for data: 1118106912
I0403 16:47:36.740211 21451 layer_factory.hpp:77] Creating layer inception_4d/relu_3x3_reduce
I0403 16:47:36.740231 21451 net.cpp:91] Creating Layer inception_4d/relu_3x3_reduce
I0403 16:47:36.740248 21451 net.cpp:425] inception_4d/relu_3x3_reduce <- inception_4d/3x3_reduce
I0403 16:47:36.740265 21451 net.cpp:386] inception_4d/relu_3x3_reduce -> inception_4d/3x3_reduce (in-place)
I0403 16:47:36.740555 21451 net.cpp:141] Setting up inception_4d/relu_3x3_reduce
I0403 16:47:36.740579 21451 net.cpp:148] Top shape: 24 144 14 14 (677376)
I0403 16:47:36.740594 21451 net.cpp:156] Memory required for data: 1120816416
I0403 16:47:36.740608 21451 layer_factory.hpp:77] Creating layer inception_4d/3x3
I0403 16:47:36.740630 21451 net.cpp:91] Creating Layer inception_4d/3x3
I0403 16:47:36.740648 21451 net.cpp:425] inception_4d/3x3 <- inception_4d/3x3_reduce
I0403 16:47:36.740667 21451 net.cpp:399] inception_4d/3x3 -> inception_4d/3x3
I0403 16:47:36.744793 21451 net.cpp:141] Setting up inception_4d/3x3
I0403 16:47:36.744825 21451 net.cpp:148] Top shape: 24 288 14 14 (1354752)
I0403 16:47:36.744843 21451 net.cpp:156] Memory required for data: 1126235424
I0403 16:47:36.744861 21451 layer_factory.hpp:77] Creating layer inception_4d/relu_3x3
I0403 16:47:36.744882 21451 net.cpp:91] Creating Layer inception_4d/relu_3x3
I0403 16:47:36.744900 21451 net.cpp:425] inception_4d/relu_3x3 <- inception_4d/3x3
I0403 16:47:36.744918 21451 net.cpp:386] inception_4d/relu_3x3 -> inception_4d/3x3 (in-place)
I0403 16:47:36.745103 21451 net.cpp:141] Setting up inception_4d/relu_3x3
I0403 16:47:36.745132 21451 net.cpp:148] Top shape: 24 288 14 14 (1354752)
I0403 16:47:36.745147 21451 net.cpp:156] Memory required for data: 1131654432
I0403 16:47:36.745163 21451 layer_factory.hpp:77] Creating layer inception_4d/5x5_reduce
I0403 16:47:36.745185 21451 net.cpp:91] Creating Layer inception_4d/5x5_reduce
I0403 16:47:36.745201 21451 net.cpp:425] inception_4d/5x5_reduce <- inception_4c/output_inception_4c/output_0_split_2
I0403 16:47:36.745219 21451 net.cpp:399] inception_4d/5x5_reduce -> inception_4d/5x5_reduce
I0403 16:47:36.746340 21451 net.cpp:141] Setting up inception_4d/5x5_reduce
I0403 16:47:36.746366 21451 net.cpp:148] Top shape: 24 32 14 14 (150528)
I0403 16:47:36.746381 21451 net.cpp:156] Memory required for data: 1132256544
I0403 16:47:36.746398 21451 layer_factory.hpp:77] Creating layer inception_4d/relu_5x5_reduce
I0403 16:47:36.746418 21451 net.cpp:91] Creating Layer inception_4d/relu_5x5_reduce
I0403 16:47:36.746434 21451 net.cpp:425] inception_4d/relu_5x5_reduce <- inception_4d/5x5_reduce
I0403 16:47:36.746451 21451 net.cpp:386] inception_4d/relu_5x5_reduce -> inception_4d/5x5_reduce (in-place)
I0403 16:47:36.746633 21451 net.cpp:141] Setting up inception_4d/relu_5x5_reduce
I0403 16:47:36.746670 21451 net.cpp:148] Top shape: 24 32 14 14 (150528)
I0403 16:47:36.746686 21451 net.cpp:156] Memory required for data: 1132858656
I0403 16:47:36.746701 21451 layer_factory.hpp:77] Creating layer inception_4d/5x5
I0403 16:47:36.746722 21451 net.cpp:91] Creating Layer inception_4d/5x5
I0403 16:47:36.746739 21451 net.cpp:425] inception_4d/5x5 <- inception_4d/5x5_reduce
I0403 16:47:36.746757 21451 net.cpp:399] inception_4d/5x5 -> inception_4d/5x5
I0403 16:47:36.748260 21451 net.cpp:141] Setting up inception_4d/5x5
I0403 16:47:36.748291 21451 net.cpp:148] Top shape: 24 64 14 14 (301056)
I0403 16:47:36.748309 21451 net.cpp:156] Memory required for data: 1134062880
I0403 16:47:36.748328 21451 layer_factory.hpp:77] Creating layer inception_4d/relu_5x5
I0403 16:47:36.748360 21451 net.cpp:91] Creating Layer inception_4d/relu_5x5
I0403 16:47:36.748378 21451 net.cpp:425] inception_4d/relu_5x5 <- inception_4d/5x5
I0403 16:47:36.748397 21451 net.cpp:386] inception_4d/relu_5x5 -> inception_4d/5x5 (in-place)
I0403 16:47:36.748697 21451 net.cpp:141] Setting up inception_4d/relu_5x5
I0403 16:47:36.748724 21451 net.cpp:148] Top shape: 24 64 14 14 (301056)
I0403 16:47:36.748741 21451 net.cpp:156] Memory required for data: 1135267104
I0403 16:47:36.748755 21451 layer_factory.hpp:77] Creating layer inception_4d/pool
I0403 16:47:36.748774 21451 net.cpp:91] Creating Layer inception_4d/pool
I0403 16:47:36.748790 21451 net.cpp:425] inception_4d/pool <- inception_4c/output_inception_4c/output_0_split_3
I0403 16:47:36.748811 21451 net.cpp:399] inception_4d/pool -> inception_4d/pool
I0403 16:47:36.748878 21451 net.cpp:141] Setting up inception_4d/pool
I0403 16:47:36.748903 21451 net.cpp:148] Top shape: 24 512 14 14 (2408448)
I0403 16:47:36.748916 21451 net.cpp:156] Memory required for data: 1144900896
I0403 16:47:36.748930 21451 layer_factory.hpp:77] Creating layer inception_4d/pool_proj
I0403 16:47:36.748960 21451 net.cpp:91] Creating Layer inception_4d/pool_proj
I0403 16:47:36.748980 21451 net.cpp:425] inception_4d/pool_proj <- inception_4d/pool
I0403 16:47:36.748998 21451 net.cpp:399] inception_4d/pool_proj -> inception_4d/pool_proj
I0403 16:47:36.750766 21451 net.cpp:141] Setting up inception_4d/pool_proj
I0403 16:47:36.750795 21451 net.cpp:148] Top shape: 24 64 14 14 (301056)
I0403 16:47:36.750813 21451 net.cpp:156] Memory required for data: 1146105120
I0403 16:47:36.750833 21451 layer_factory.hpp:77] Creating layer inception_4d/relu_pool_proj
I0403 16:47:36.750854 21451 net.cpp:91] Creating Layer inception_4d/relu_pool_proj
I0403 16:47:36.750870 21451 net.cpp:425] inception_4d/relu_pool_proj <- inception_4d/pool_proj
I0403 16:47:36.750887 21451 net.cpp:386] inception_4d/relu_pool_proj -> inception_4d/pool_proj (in-place)
I0403 16:47:36.751085 21451 net.cpp:141] Setting up inception_4d/relu_pool_proj
I0403 16:47:36.751112 21451 net.cpp:148] Top shape: 24 64 14 14 (301056)
I0403 16:47:36.751128 21451 net.cpp:156] Memory required for data: 1147309344
I0403 16:47:36.751143 21451 layer_factory.hpp:77] Creating layer inception_4d/output
I0403 16:47:36.751162 21451 net.cpp:91] Creating Layer inception_4d/output
I0403 16:47:36.751176 21451 net.cpp:425] inception_4d/output <- inception_4d/1x1
I0403 16:47:36.751194 21451 net.cpp:425] inception_4d/output <- inception_4d/3x3
I0403 16:47:36.751209 21451 net.cpp:425] inception_4d/output <- inception_4d/5x5
I0403 16:47:36.751224 21451 net.cpp:425] inception_4d/output <- inception_4d/pool_proj
I0403 16:47:36.751240 21451 net.cpp:399] inception_4d/output -> inception_4d/output
I0403 16:47:36.751291 21451 net.cpp:141] Setting up inception_4d/output
I0403 16:47:36.751314 21451 net.cpp:148] Top shape: 24 528 14 14 (2483712)
I0403 16:47:36.751328 21451 net.cpp:156] Memory required for data: 1157244192
I0403 16:47:36.751343 21451 layer_factory.hpp:77] Creating layer inception_4d/output_inception_4d/output_0_split
I0403 16:47:36.751363 21451 net.cpp:91] Creating Layer inception_4d/output_inception_4d/output_0_split
I0403 16:47:36.751379 21451 net.cpp:425] inception_4d/output_inception_4d/output_0_split <- inception_4d/output
I0403 16:47:36.751396 21451 net.cpp:399] inception_4d/output_inception_4d/output_0_split -> inception_4d/output_inception_4d/output_0_split_0
I0403 16:47:36.751417 21451 net.cpp:399] inception_4d/output_inception_4d/output_0_split -> inception_4d/output_inception_4d/output_0_split_1
I0403 16:47:36.751441 21451 net.cpp:399] inception_4d/output_inception_4d/output_0_split -> inception_4d/output_inception_4d/output_0_split_2
I0403 16:47:36.751461 21451 net.cpp:399] inception_4d/output_inception_4d/output_0_split -> inception_4d/output_inception_4d/output_0_split_3
I0403 16:47:36.751480 21451 net.cpp:399] inception_4d/output_inception_4d/output_0_split -> inception_4d/output_inception_4d/output_0_split_4
I0403 16:47:36.751582 21451 net.cpp:141] Setting up inception_4d/output_inception_4d/output_0_split
I0403 16:47:36.751617 21451 net.cpp:148] Top shape: 24 528 14 14 (2483712)
I0403 16:47:36.751636 21451 net.cpp:148] Top shape: 24 528 14 14 (2483712)
I0403 16:47:36.751651 21451 net.cpp:148] Top shape: 24 528 14 14 (2483712)
I0403 16:47:36.751665 21451 net.cpp:148] Top shape: 24 528 14 14 (2483712)
I0403 16:47:36.751680 21451 net.cpp:148] Top shape: 24 528 14 14 (2483712)
I0403 16:47:36.751695 21451 net.cpp:156] Memory required for data: 1206918432
I0403 16:47:36.751709 21451 layer_factory.hpp:77] Creating layer loss2/ave_pool
I0403 16:47:36.751727 21451 net.cpp:91] Creating Layer loss2/ave_pool
I0403 16:47:36.751742 21451 net.cpp:425] loss2/ave_pool <- inception_4d/output_inception_4d/output_0_split_0
I0403 16:47:36.751762 21451 net.cpp:399] loss2/ave_pool -> loss2/ave_pool
I0403 16:47:36.752089 21451 net.cpp:141] Setting up loss2/ave_pool
I0403 16:47:36.752115 21451 net.cpp:148] Top shape: 24 528 4 4 (202752)
I0403 16:47:36.752130 21451 net.cpp:156] Memory required for data: 1207729440
I0403 16:47:36.752145 21451 layer_factory.hpp:77] Creating layer loss2/conv
I0403 16:47:36.752166 21451 net.cpp:91] Creating Layer loss2/conv
I0403 16:47:36.752184 21451 net.cpp:425] loss2/conv <- loss2/ave_pool
I0403 16:47:36.752205 21451 net.cpp:399] loss2/conv -> loss2/conv
I0403 16:47:36.754120 21451 net.cpp:141] Setting up loss2/conv
I0403 16:47:36.754154 21451 net.cpp:148] Top shape: 24 128 4 4 (49152)
I0403 16:47:36.754173 21451 net.cpp:156] Memory required for data: 1207926048
I0403 16:47:36.754192 21451 layer_factory.hpp:77] Creating layer loss2/relu_conv
I0403 16:47:36.754210 21451 net.cpp:91] Creating Layer loss2/relu_conv
I0403 16:47:36.754227 21451 net.cpp:425] loss2/relu_conv <- loss2/conv
I0403 16:47:36.754247 21451 net.cpp:386] loss2/relu_conv -> loss2/conv (in-place)
I0403 16:47:36.754550 21451 net.cpp:141] Setting up loss2/relu_conv
I0403 16:47:36.754580 21451 net.cpp:148] Top shape: 24 128 4 4 (49152)
I0403 16:47:36.754595 21451 net.cpp:156] Memory required for data: 1208122656
I0403 16:47:36.754609 21451 layer_factory.hpp:77] Creating layer loss2/fc
I0403 16:47:36.754628 21451 net.cpp:91] Creating Layer loss2/fc
I0403 16:47:36.754643 21451 net.cpp:425] loss2/fc <- loss2/conv
I0403 16:47:36.754665 21451 net.cpp:399] loss2/fc -> loss2/fc
I0403 16:47:36.772347 21451 net.cpp:141] Setting up loss2/fc
I0403 16:47:36.772403 21451 net.cpp:148] Top shape: 24 1024 (24576)
I0403 16:47:36.772419 21451 net.cpp:156] Memory required for data: 1208220960
I0403 16:47:36.772439 21451 layer_factory.hpp:77] Creating layer loss2/relu_fc
I0403 16:47:36.772460 21451 net.cpp:91] Creating Layer loss2/relu_fc
I0403 16:47:36.772557 21451 net.cpp:425] loss2/relu_fc <- loss2/fc
I0403 16:47:36.772578 21451 net.cpp:386] loss2/relu_fc -> loss2/fc (in-place)
I0403 16:47:36.772913 21451 net.cpp:141] Setting up loss2/relu_fc
I0403 16:47:36.772939 21451 net.cpp:148] Top shape: 24 1024 (24576)
I0403 16:47:36.772959 21451 net.cpp:156] Memory required for data: 1208319264
I0403 16:47:36.772976 21451 layer_factory.hpp:77] Creating layer loss2/drop_fc
I0403 16:47:36.772996 21451 net.cpp:91] Creating Layer loss2/drop_fc
I0403 16:47:36.773013 21451 net.cpp:425] loss2/drop_fc <- loss2/fc
I0403 16:47:36.773030 21451 net.cpp:386] loss2/drop_fc -> loss2/fc (in-place)
I0403 16:47:36.773082 21451 net.cpp:141] Setting up loss2/drop_fc
I0403 16:47:36.773105 21451 net.cpp:148] Top shape: 24 1024 (24576)
I0403 16:47:36.773119 21451 net.cpp:156] Memory required for data: 1208417568
I0403 16:47:36.773134 21451 layer_factory.hpp:77] Creating layer loss2/classifier_plantvillage
I0403 16:47:36.773154 21451 net.cpp:91] Creating Layer loss2/classifier_plantvillage
I0403 16:47:36.773169 21451 net.cpp:425] loss2/classifier_plantvillage <- loss2/fc
I0403 16:47:36.773192 21451 net.cpp:399] loss2/classifier_plantvillage -> loss2/classifier_plantvillage
I0403 16:47:36.773608 21451 net.cpp:141] Setting up loss2/classifier_plantvillage
I0403 16:47:36.773633 21451 net.cpp:148] Top shape: 24 38 (912)
I0403 16:47:36.773648 21451 net.cpp:156] Memory required for data: 1208421216
I0403 16:47:36.773689 21451 layer_factory.hpp:77] Creating layer loss2/classifier_plantvillage_loss2/classifier_plantvillage_0_split
I0403 16:47:36.773708 21451 net.cpp:91] Creating Layer loss2/classifier_plantvillage_loss2/classifier_plantvillage_0_split
I0403 16:47:36.773725 21451 net.cpp:425] loss2/classifier_plantvillage_loss2/classifier_plantvillage_0_split <- loss2/classifier_plantvillage
I0403 16:47:36.773744 21451 net.cpp:399] loss2/classifier_plantvillage_loss2/classifier_plantvillage_0_split -> loss2/classifier_plantvillage_loss2/classifier_plantvillage_0_split_0
I0403 16:47:36.773764 21451 net.cpp:399] loss2/classifier_plantvillage_loss2/classifier_plantvillage_0_split -> loss2/classifier_plantvillage_loss2/classifier_plantvillage_0_split_1
I0403 16:47:36.773784 21451 net.cpp:399] loss2/classifier_plantvillage_loss2/classifier_plantvillage_0_split -> loss2/classifier_plantvillage_loss2/classifier_plantvillage_0_split_2
I0403 16:47:36.773861 21451 net.cpp:141] Setting up loss2/classifier_plantvillage_loss2/classifier_plantvillage_0_split
I0403 16:47:36.773888 21451 net.cpp:148] Top shape: 24 38 (912)
I0403 16:47:36.773905 21451 net.cpp:148] Top shape: 24 38 (912)
I0403 16:47:36.773921 21451 net.cpp:148] Top shape: 24 38 (912)
I0403 16:47:36.773933 21451 net.cpp:156] Memory required for data: 1208432160
I0403 16:47:36.773947 21451 layer_factory.hpp:77] Creating layer inception_4e/1x1
I0403 16:47:36.773974 21451 net.cpp:91] Creating Layer inception_4e/1x1
I0403 16:47:36.773993 21451 net.cpp:425] inception_4e/1x1 <- inception_4d/output_inception_4d/output_0_split_1
I0403 16:47:36.774011 21451 net.cpp:399] inception_4e/1x1 -> inception_4e/1x1
I0403 16:47:36.775882 21451 net.cpp:141] Setting up inception_4e/1x1
I0403 16:47:36.775910 21451 net.cpp:148] Top shape: 24 256 14 14 (1204224)
I0403 16:47:36.775925 21451 net.cpp:156] Memory required for data: 1213249056
I0403 16:47:36.775943 21451 layer_factory.hpp:77] Creating layer inception_4e/relu_1x1
I0403 16:47:36.775970 21451 net.cpp:91] Creating Layer inception_4e/relu_1x1
I0403 16:47:36.775988 21451 net.cpp:425] inception_4e/relu_1x1 <- inception_4e/1x1
I0403 16:47:36.776008 21451 net.cpp:386] inception_4e/relu_1x1 -> inception_4e/1x1 (in-place)
I0403 16:47:36.776310 21451 net.cpp:141] Setting up inception_4e/relu_1x1
I0403 16:47:36.776338 21451 net.cpp:148] Top shape: 24 256 14 14 (1204224)
I0403 16:47:36.776355 21451 net.cpp:156] Memory required for data: 1218065952
I0403 16:47:36.776371 21451 layer_factory.hpp:77] Creating layer inception_4e/3x3_reduce
I0403 16:47:36.776392 21451 net.cpp:91] Creating Layer inception_4e/3x3_reduce
I0403 16:47:36.776410 21451 net.cpp:425] inception_4e/3x3_reduce <- inception_4d/output_inception_4d/output_0_split_2
I0403 16:47:36.776434 21451 net.cpp:399] inception_4e/3x3_reduce -> inception_4e/3x3_reduce
I0403 16:47:36.778589 21451 net.cpp:141] Setting up inception_4e/3x3_reduce
I0403 16:47:36.778620 21451 net.cpp:148] Top shape: 24 160 14 14 (752640)
I0403 16:47:36.778638 21451 net.cpp:156] Memory required for data: 1221076512
I0403 16:47:36.778657 21451 layer_factory.hpp:77] Creating layer inception_4e/relu_3x3_reduce
I0403 16:47:36.778676 21451 net.cpp:91] Creating Layer inception_4e/relu_3x3_reduce
I0403 16:47:36.778692 21451 net.cpp:425] inception_4e/relu_3x3_reduce <- inception_4e/3x3_reduce
I0403 16:47:36.778713 21451 net.cpp:386] inception_4e/relu_3x3_reduce -> inception_4e/3x3_reduce (in-place)
I0403 16:47:36.778905 21451 net.cpp:141] Setting up inception_4e/relu_3x3_reduce
I0403 16:47:36.778931 21451 net.cpp:148] Top shape: 24 160 14 14 (752640)
I0403 16:47:36.778947 21451 net.cpp:156] Memory required for data: 1224087072
I0403 16:47:36.778969 21451 layer_factory.hpp:77] Creating layer inception_4e/3x3
I0403 16:47:36.778992 21451 net.cpp:91] Creating Layer inception_4e/3x3
I0403 16:47:36.779011 21451 net.cpp:425] inception_4e/3x3 <- inception_4e/3x3_reduce
I0403 16:47:36.779034 21451 net.cpp:399] inception_4e/3x3 -> inception_4e/3x3
I0403 16:47:36.784086 21451 net.cpp:141] Setting up inception_4e/3x3
I0403 16:47:36.784129 21451 net.cpp:148] Top shape: 24 320 14 14 (1505280)
I0403 16:47:36.784148 21451 net.cpp:156] Memory required for data: 1230108192
I0403 16:47:36.784168 21451 layer_factory.hpp:77] Creating layer inception_4e/relu_3x3
I0403 16:47:36.784185 21451 net.cpp:91] Creating Layer inception_4e/relu_3x3
I0403 16:47:36.784203 21451 net.cpp:425] inception_4e/relu_3x3 <- inception_4e/3x3
I0403 16:47:36.784222 21451 net.cpp:386] inception_4e/relu_3x3 -> inception_4e/3x3 (in-place)
I0403 16:47:36.784534 21451 net.cpp:141] Setting up inception_4e/relu_3x3
I0403 16:47:36.784561 21451 net.cpp:148] Top shape: 24 320 14 14 (1505280)
I0403 16:47:36.784575 21451 net.cpp:156] Memory required for data: 1236129312
I0403 16:47:36.784590 21451 layer_factory.hpp:77] Creating layer inception_4e/5x5_reduce
I0403 16:47:36.784615 21451 net.cpp:91] Creating Layer inception_4e/5x5_reduce
I0403 16:47:36.784631 21451 net.cpp:425] inception_4e/5x5_reduce <- inception_4d/output_inception_4d/output_0_split_3
I0403 16:47:36.784654 21451 net.cpp:399] inception_4e/5x5_reduce -> inception_4e/5x5_reduce
I0403 16:47:36.785750 21451 net.cpp:141] Setting up inception_4e/5x5_reduce
I0403 16:47:36.785783 21451 net.cpp:148] Top shape: 24 32 14 14 (150528)
I0403 16:47:36.785799 21451 net.cpp:156] Memory required for data: 1236731424
I0403 16:47:36.785817 21451 layer_factory.hpp:77] Creating layer inception_4e/relu_5x5_reduce
I0403 16:47:36.785835 21451 net.cpp:91] Creating Layer inception_4e/relu_5x5_reduce
I0403 16:47:36.785852 21451 net.cpp:425] inception_4e/relu_5x5_reduce <- inception_4e/5x5_reduce
I0403 16:47:36.785871 21451 net.cpp:386] inception_4e/relu_5x5_reduce -> inception_4e/5x5_reduce (in-place)
I0403 16:47:36.786176 21451 net.cpp:141] Setting up inception_4e/relu_5x5_reduce
I0403 16:47:36.786204 21451 net.cpp:148] Top shape: 24 32 14 14 (150528)
I0403 16:47:36.786221 21451 net.cpp:156] Memory required for data: 1237333536
I0403 16:47:36.786237 21451 layer_factory.hpp:77] Creating layer inception_4e/5x5
I0403 16:47:36.786278 21451 net.cpp:91] Creating Layer inception_4e/5x5
I0403 16:47:36.786296 21451 net.cpp:425] inception_4e/5x5 <- inception_4e/5x5_reduce
I0403 16:47:36.786316 21451 net.cpp:399] inception_4e/5x5 -> inception_4e/5x5
I0403 16:47:36.788187 21451 net.cpp:141] Setting up inception_4e/5x5
I0403 16:47:36.788215 21451 net.cpp:148] Top shape: 24 128 14 14 (602112)
I0403 16:47:36.788238 21451 net.cpp:156] Memory required for data: 1239741984
I0403 16:47:36.788259 21451 layer_factory.hpp:77] Creating layer inception_4e/relu_5x5
I0403 16:47:36.788280 21451 net.cpp:91] Creating Layer inception_4e/relu_5x5
I0403 16:47:36.788296 21451 net.cpp:425] inception_4e/relu_5x5 <- inception_4e/5x5
I0403 16:47:36.788312 21451 net.cpp:386] inception_4e/relu_5x5 -> inception_4e/5x5 (in-place)
I0403 16:47:36.788512 21451 net.cpp:141] Setting up inception_4e/relu_5x5
I0403 16:47:36.788539 21451 net.cpp:148] Top shape: 24 128 14 14 (602112)
I0403 16:47:36.788555 21451 net.cpp:156] Memory required for data: 1242150432
I0403 16:47:36.788569 21451 layer_factory.hpp:77] Creating layer inception_4e/pool
I0403 16:47:36.788589 21451 net.cpp:91] Creating Layer inception_4e/pool
I0403 16:47:36.788604 21451 net.cpp:425] inception_4e/pool <- inception_4d/output_inception_4d/output_0_split_4
I0403 16:47:36.788625 21451 net.cpp:399] inception_4e/pool -> inception_4e/pool
I0403 16:47:36.788696 21451 net.cpp:141] Setting up inception_4e/pool
I0403 16:47:36.788722 21451 net.cpp:148] Top shape: 24 528 14 14 (2483712)
I0403 16:47:36.788736 21451 net.cpp:156] Memory required for data: 1252085280
I0403 16:47:36.788751 21451 layer_factory.hpp:77] Creating layer inception_4e/pool_proj
I0403 16:47:36.788771 21451 net.cpp:91] Creating Layer inception_4e/pool_proj
I0403 16:47:36.788787 21451 net.cpp:425] inception_4e/pool_proj <- inception_4e/pool
I0403 16:47:36.788808 21451 net.cpp:399] inception_4e/pool_proj -> inception_4e/pool_proj
I0403 16:47:36.790331 21451 net.cpp:141] Setting up inception_4e/pool_proj
I0403 16:47:36.790360 21451 net.cpp:148] Top shape: 24 128 14 14 (602112)
I0403 16:47:36.790390 21451 net.cpp:156] Memory required for data: 1254493728
I0403 16:47:36.790410 21451 layer_factory.hpp:77] Creating layer inception_4e/relu_pool_proj
I0403 16:47:36.790431 21451 net.cpp:91] Creating Layer inception_4e/relu_pool_proj
I0403 16:47:36.790449 21451 net.cpp:425] inception_4e/relu_pool_proj <- inception_4e/pool_proj
I0403 16:47:36.790467 21451 net.cpp:386] inception_4e/relu_pool_proj -> inception_4e/pool_proj (in-place)
I0403 16:47:36.790757 21451 net.cpp:141] Setting up inception_4e/relu_pool_proj
I0403 16:47:36.790784 21451 net.cpp:148] Top shape: 24 128 14 14 (602112)
I0403 16:47:36.790799 21451 net.cpp:156] Memory required for data: 1256902176
I0403 16:47:36.790814 21451 layer_factory.hpp:77] Creating layer inception_4e/output
I0403 16:47:36.790833 21451 net.cpp:91] Creating Layer inception_4e/output
I0403 16:47:36.790850 21451 net.cpp:425] inception_4e/output <- inception_4e/1x1
I0403 16:47:36.790868 21451 net.cpp:425] inception_4e/output <- inception_4e/3x3
I0403 16:47:36.790884 21451 net.cpp:425] inception_4e/output <- inception_4e/5x5
I0403 16:47:36.790899 21451 net.cpp:425] inception_4e/output <- inception_4e/pool_proj
I0403 16:47:36.790916 21451 net.cpp:399] inception_4e/output -> inception_4e/output
I0403 16:47:36.790972 21451 net.cpp:141] Setting up inception_4e/output
I0403 16:47:36.790995 21451 net.cpp:148] Top shape: 24 832 14 14 (3913728)
I0403 16:47:36.791009 21451 net.cpp:156] Memory required for data: 1272557088
I0403 16:47:36.791023 21451 layer_factory.hpp:77] Creating layer pool4/3x3_s2
I0403 16:47:36.791040 21451 net.cpp:91] Creating Layer pool4/3x3_s2
I0403 16:47:36.791055 21451 net.cpp:425] pool4/3x3_s2 <- inception_4e/output
I0403 16:47:36.791075 21451 net.cpp:399] pool4/3x3_s2 -> pool4/3x3_s2
I0403 16:47:36.791141 21451 net.cpp:141] Setting up pool4/3x3_s2
I0403 16:47:36.791167 21451 net.cpp:148] Top shape: 24 832 7 7 (978432)
I0403 16:47:36.791182 21451 net.cpp:156] Memory required for data: 1276470816
I0403 16:47:36.791195 21451 layer_factory.hpp:77] Creating layer pool4/3x3_s2_pool4/3x3_s2_0_split
I0403 16:47:36.791211 21451 net.cpp:91] Creating Layer pool4/3x3_s2_pool4/3x3_s2_0_split
I0403 16:47:36.791226 21451 net.cpp:425] pool4/3x3_s2_pool4/3x3_s2_0_split <- pool4/3x3_s2
I0403 16:47:36.791244 21451 net.cpp:399] pool4/3x3_s2_pool4/3x3_s2_0_split -> pool4/3x3_s2_pool4/3x3_s2_0_split_0
I0403 16:47:36.791265 21451 net.cpp:399] pool4/3x3_s2_pool4/3x3_s2_0_split -> pool4/3x3_s2_pool4/3x3_s2_0_split_1
I0403 16:47:36.791285 21451 net.cpp:399] pool4/3x3_s2_pool4/3x3_s2_0_split -> pool4/3x3_s2_pool4/3x3_s2_0_split_2
I0403 16:47:36.791304 21451 net.cpp:399] pool4/3x3_s2_pool4/3x3_s2_0_split -> pool4/3x3_s2_pool4/3x3_s2_0_split_3
I0403 16:47:36.791396 21451 net.cpp:141] Setting up pool4/3x3_s2_pool4/3x3_s2_0_split
I0403 16:47:36.791419 21451 net.cpp:148] Top shape: 24 832 7 7 (978432)
I0403 16:47:36.791435 21451 net.cpp:148] Top shape: 24 832 7 7 (978432)
I0403 16:47:36.791448 21451 net.cpp:148] Top shape: 24 832 7 7 (978432)
I0403 16:47:36.791463 21451 net.cpp:148] Top shape: 24 832 7 7 (978432)
I0403 16:47:36.791476 21451 net.cpp:156] Memory required for data: 1292125728
I0403 16:47:36.791491 21451 layer_factory.hpp:77] Creating layer inception_5a/1x1
I0403 16:47:36.791513 21451 net.cpp:91] Creating Layer inception_5a/1x1
I0403 16:47:36.791529 21451 net.cpp:425] inception_5a/1x1 <- pool4/3x3_s2_pool4/3x3_s2_0_split_0
I0403 16:47:36.791548 21451 net.cpp:399] inception_5a/1x1 -> inception_5a/1x1
I0403 16:47:36.794349 21451 net.cpp:141] Setting up inception_5a/1x1
I0403 16:47:36.794381 21451 net.cpp:148] Top shape: 24 256 7 7 (301056)
I0403 16:47:36.794399 21451 net.cpp:156] Memory required for data: 1293329952
I0403 16:47:36.794419 21451 layer_factory.hpp:77] Creating layer inception_5a/relu_1x1
I0403 16:47:36.794436 21451 net.cpp:91] Creating Layer inception_5a/relu_1x1
I0403 16:47:36.794452 21451 net.cpp:425] inception_5a/relu_1x1 <- inception_5a/1x1
I0403 16:47:36.794471 21451 net.cpp:386] inception_5a/relu_1x1 -> inception_5a/1x1 (in-place)
I0403 16:47:36.794778 21451 net.cpp:141] Setting up inception_5a/relu_1x1
I0403 16:47:36.794806 21451 net.cpp:148] Top shape: 24 256 7 7 (301056)
I0403 16:47:36.794822 21451 net.cpp:156] Memory required for data: 1294534176
I0403 16:47:36.794836 21451 layer_factory.hpp:77] Creating layer inception_5a/3x3_reduce
I0403 16:47:36.794858 21451 net.cpp:91] Creating Layer inception_5a/3x3_reduce
I0403 16:47:36.794875 21451 net.cpp:425] inception_5a/3x3_reduce <- pool4/3x3_s2_pool4/3x3_s2_0_split_1
I0403 16:47:36.794894 21451 net.cpp:399] inception_5a/3x3_reduce -> inception_5a/3x3_reduce
I0403 16:47:36.797310 21451 net.cpp:141] Setting up inception_5a/3x3_reduce
I0403 16:47:36.797340 21451 net.cpp:148] Top shape: 24 160 7 7 (188160)
I0403 16:47:36.797356 21451 net.cpp:156] Memory required for data: 1295286816
I0403 16:47:36.797374 21451 layer_factory.hpp:77] Creating layer inception_5a/relu_3x3_reduce
I0403 16:47:36.797394 21451 net.cpp:91] Creating Layer inception_5a/relu_3x3_reduce
I0403 16:47:36.797410 21451 net.cpp:425] inception_5a/relu_3x3_reduce <- inception_5a/3x3_reduce
I0403 16:47:36.797426 21451 net.cpp:386] inception_5a/relu_3x3_reduce -> inception_5a/3x3_reduce (in-place)
I0403 16:47:36.797611 21451 net.cpp:141] Setting up inception_5a/relu_3x3_reduce
I0403 16:47:36.797636 21451 net.cpp:148] Top shape: 24 160 7 7 (188160)
I0403 16:47:36.797651 21451 net.cpp:156] Memory required for data: 1296039456
I0403 16:47:36.797664 21451 layer_factory.hpp:77] Creating layer inception_5a/3x3
I0403 16:47:36.797688 21451 net.cpp:91] Creating Layer inception_5a/3x3
I0403 16:47:36.797706 21451 net.cpp:425] inception_5a/3x3 <- inception_5a/3x3_reduce
I0403 16:47:36.797724 21451 net.cpp:399] inception_5a/3x3 -> inception_5a/3x3
I0403 16:47:36.802747 21451 net.cpp:141] Setting up inception_5a/3x3
I0403 16:47:36.802779 21451 net.cpp:148] Top shape: 24 320 7 7 (376320)
I0403 16:47:36.802796 21451 net.cpp:156] Memory required for data: 1297544736
I0403 16:47:36.802814 21451 layer_factory.hpp:77] Creating layer inception_5a/relu_3x3
I0403 16:47:36.802832 21451 net.cpp:91] Creating Layer inception_5a/relu_3x3
I0403 16:47:36.802848 21451 net.cpp:425] inception_5a/relu_3x3 <- inception_5a/3x3
I0403 16:47:36.802865 21451 net.cpp:386] inception_5a/relu_3x3 -> inception_5a/3x3 (in-place)
I0403 16:47:36.803182 21451 net.cpp:141] Setting up inception_5a/relu_3x3
I0403 16:47:36.803211 21451 net.cpp:148] Top shape: 24 320 7 7 (376320)
I0403 16:47:36.803227 21451 net.cpp:156] Memory required for data: 1299050016
I0403 16:47:36.803242 21451 layer_factory.hpp:77] Creating layer inception_5a/5x5_reduce
I0403 16:47:36.803275 21451 net.cpp:91] Creating Layer inception_5a/5x5_reduce
I0403 16:47:36.803293 21451 net.cpp:425] inception_5a/5x5_reduce <- pool4/3x3_s2_pool4/3x3_s2_0_split_2
I0403 16:47:36.803311 21451 net.cpp:399] inception_5a/5x5_reduce -> inception_5a/5x5_reduce
I0403 16:47:36.804466 21451 net.cpp:141] Setting up inception_5a/5x5_reduce
I0403 16:47:36.804497 21451 net.cpp:148] Top shape: 24 32 7 7 (37632)
I0403 16:47:36.804514 21451 net.cpp:156] Memory required for data: 1299200544
I0403 16:47:36.804533 21451 layer_factory.hpp:77] Creating layer inception_5a/relu_5x5_reduce
I0403 16:47:36.804550 21451 net.cpp:91] Creating Layer inception_5a/relu_5x5_reduce
I0403 16:47:36.804569 21451 net.cpp:425] inception_5a/relu_5x5_reduce <- inception_5a/5x5_reduce
I0403 16:47:36.804589 21451 net.cpp:386] inception_5a/relu_5x5_reduce -> inception_5a/5x5_reduce (in-place)
I0403 16:47:36.804883 21451 net.cpp:141] Setting up inception_5a/relu_5x5_reduce
I0403 16:47:36.804911 21451 net.cpp:148] Top shape: 24 32 7 7 (37632)
I0403 16:47:36.804927 21451 net.cpp:156] Memory required for data: 1299351072
I0403 16:47:36.804942 21451 layer_factory.hpp:77] Creating layer inception_5a/5x5
I0403 16:47:36.804971 21451 net.cpp:91] Creating Layer inception_5a/5x5
I0403 16:47:36.805002 21451 net.cpp:425] inception_5a/5x5 <- inception_5a/5x5_reduce
I0403 16:47:36.805022 21451 net.cpp:399] inception_5a/5x5 -> inception_5a/5x5
I0403 16:47:36.806716 21451 net.cpp:141] Setting up inception_5a/5x5
I0403 16:47:36.806759 21451 net.cpp:148] Top shape: 24 128 7 7 (150528)
I0403 16:47:36.806777 21451 net.cpp:156] Memory required for data: 1299953184
I0403 16:47:36.806804 21451 layer_factory.hpp:77] Creating layer inception_5a/relu_5x5
I0403 16:47:36.806821 21451 net.cpp:91] Creating Layer inception_5a/relu_5x5
I0403 16:47:36.806838 21451 net.cpp:425] inception_5a/relu_5x5 <- inception_5a/5x5
I0403 16:47:36.806855 21451 net.cpp:386] inception_5a/relu_5x5 -> inception_5a/5x5 (in-place)
I0403 16:47:36.807052 21451 net.cpp:141] Setting up inception_5a/relu_5x5
I0403 16:47:36.807096 21451 net.cpp:148] Top shape: 24 128 7 7 (150528)
I0403 16:47:36.807112 21451 net.cpp:156] Memory required for data: 1300555296
I0403 16:47:36.807126 21451 layer_factory.hpp:77] Creating layer inception_5a/pool
I0403 16:47:36.807144 21451 net.cpp:91] Creating Layer inception_5a/pool
I0403 16:47:36.807159 21451 net.cpp:425] inception_5a/pool <- pool4/3x3_s2_pool4/3x3_s2_0_split_3
I0403 16:47:36.807178 21451 net.cpp:399] inception_5a/pool -> inception_5a/pool
I0403 16:47:36.807247 21451 net.cpp:141] Setting up inception_5a/pool
I0403 16:47:36.807273 21451 net.cpp:148] Top shape: 24 832 7 7 (978432)
I0403 16:47:36.807288 21451 net.cpp:156] Memory required for data: 1304469024
I0403 16:47:36.807302 21451 layer_factory.hpp:77] Creating layer inception_5a/pool_proj
I0403 16:47:36.807324 21451 net.cpp:91] Creating Layer inception_5a/pool_proj
I0403 16:47:36.807342 21451 net.cpp:425] inception_5a/pool_proj <- inception_5a/pool
I0403 16:47:36.807359 21451 net.cpp:399] inception_5a/pool_proj -> inception_5a/pool_proj
I0403 16:47:36.809614 21451 net.cpp:141] Setting up inception_5a/pool_proj
I0403 16:47:36.809643 21451 net.cpp:148] Top shape: 24 128 7 7 (150528)
I0403 16:47:36.809660 21451 net.cpp:156] Memory required for data: 1305071136
I0403 16:47:36.809679 21451 layer_factory.hpp:77] Creating layer inception_5a/relu_pool_proj
I0403 16:47:36.809700 21451 net.cpp:91] Creating Layer inception_5a/relu_pool_proj
I0403 16:47:36.809715 21451 net.cpp:425] inception_5a/relu_pool_proj <- inception_5a/pool_proj
I0403 16:47:36.809733 21451 net.cpp:386] inception_5a/relu_pool_proj -> inception_5a/pool_proj (in-place)
I0403 16:47:36.810032 21451 net.cpp:141] Setting up inception_5a/relu_pool_proj
I0403 16:47:36.810060 21451 net.cpp:148] Top shape: 24 128 7 7 (150528)
I0403 16:47:36.810075 21451 net.cpp:156] Memory required for data: 1305673248
I0403 16:47:36.810089 21451 layer_factory.hpp:77] Creating layer inception_5a/output
I0403 16:47:36.810109 21451 net.cpp:91] Creating Layer inception_5a/output
I0403 16:47:36.810125 21451 net.cpp:425] inception_5a/output <- inception_5a/1x1
I0403 16:47:36.810142 21451 net.cpp:425] inception_5a/output <- inception_5a/3x3
I0403 16:47:36.810158 21451 net.cpp:425] inception_5a/output <- inception_5a/5x5
I0403 16:47:36.810173 21451 net.cpp:425] inception_5a/output <- inception_5a/pool_proj
I0403 16:47:36.810189 21451 net.cpp:399] inception_5a/output -> inception_5a/output
I0403 16:47:36.810240 21451 net.cpp:141] Setting up inception_5a/output
I0403 16:47:36.810262 21451 net.cpp:148] Top shape: 24 832 7 7 (978432)
I0403 16:47:36.810276 21451 net.cpp:156] Memory required for data: 1309586976
I0403 16:47:36.810291 21451 layer_factory.hpp:77] Creating layer inception_5a/output_inception_5a/output_0_split
I0403 16:47:36.810307 21451 net.cpp:91] Creating Layer inception_5a/output_inception_5a/output_0_split
I0403 16:47:36.810322 21451 net.cpp:425] inception_5a/output_inception_5a/output_0_split <- inception_5a/output
I0403 16:47:36.810339 21451 net.cpp:399] inception_5a/output_inception_5a/output_0_split -> inception_5a/output_inception_5a/output_0_split_0
I0403 16:47:36.810360 21451 net.cpp:399] inception_5a/output_inception_5a/output_0_split -> inception_5a/output_inception_5a/output_0_split_1
I0403 16:47:36.810379 21451 net.cpp:399] inception_5a/output_inception_5a/output_0_split -> inception_5a/output_inception_5a/output_0_split_2
I0403 16:47:36.810398 21451 net.cpp:399] inception_5a/output_inception_5a/output_0_split -> inception_5a/output_inception_5a/output_0_split_3
I0403 16:47:36.810509 21451 net.cpp:141] Setting up inception_5a/output_inception_5a/output_0_split
I0403 16:47:36.810534 21451 net.cpp:148] Top shape: 24 832 7 7 (978432)
I0403 16:47:36.810551 21451 net.cpp:148] Top shape: 24 832 7 7 (978432)
I0403 16:47:36.810565 21451 net.cpp:148] Top shape: 24 832 7 7 (978432)
I0403 16:47:36.810580 21451 net.cpp:148] Top shape: 24 832 7 7 (978432)
I0403 16:47:36.810593 21451 net.cpp:156] Memory required for data: 1325241888
I0403 16:47:36.810606 21451 layer_factory.hpp:77] Creating layer inception_5b/1x1
I0403 16:47:36.810628 21451 net.cpp:91] Creating Layer inception_5b/1x1
I0403 16:47:36.810644 21451 net.cpp:425] inception_5b/1x1 <- inception_5a/output_inception_5a/output_0_split_0
I0403 16:47:36.810662 21451 net.cpp:399] inception_5b/1x1 -> inception_5b/1x1
I0403 16:47:36.814393 21451 net.cpp:141] Setting up inception_5b/1x1
I0403 16:47:36.814422 21451 net.cpp:148] Top shape: 24 384 7 7 (451584)
I0403 16:47:36.814440 21451 net.cpp:156] Memory required for data: 1327048224
I0403 16:47:36.814458 21451 layer_factory.hpp:77] Creating layer inception_5b/relu_1x1
I0403 16:47:36.814478 21451 net.cpp:91] Creating Layer inception_5b/relu_1x1
I0403 16:47:36.814493 21451 net.cpp:425] inception_5b/relu_1x1 <- inception_5b/1x1
I0403 16:47:36.814510 21451 net.cpp:386] inception_5b/relu_1x1 -> inception_5b/1x1 (in-place)
I0403 16:47:36.814812 21451 net.cpp:141] Setting up inception_5b/relu_1x1
I0403 16:47:36.814838 21451 net.cpp:148] Top shape: 24 384 7 7 (451584)
I0403 16:47:36.814853 21451 net.cpp:156] Memory required for data: 1328854560
I0403 16:47:36.814867 21451 layer_factory.hpp:77] Creating layer inception_5b/3x3_reduce
I0403 16:47:36.814888 21451 net.cpp:91] Creating Layer inception_5b/3x3_reduce
I0403 16:47:36.814906 21451 net.cpp:425] inception_5b/3x3_reduce <- inception_5a/output_inception_5a/output_0_split_1
I0403 16:47:36.814927 21451 net.cpp:399] inception_5b/3x3_reduce -> inception_5b/3x3_reduce
I0403 16:47:36.817546 21451 net.cpp:141] Setting up inception_5b/3x3_reduce
I0403 16:47:36.817576 21451 net.cpp:148] Top shape: 24 192 7 7 (225792)
I0403 16:47:36.817591 21451 net.cpp:156] Memory required for data: 1329757728
I0403 16:47:36.817610 21451 layer_factory.hpp:77] Creating layer inception_5b/relu_3x3_reduce
I0403 16:47:36.817631 21451 net.cpp:91] Creating Layer inception_5b/relu_3x3_reduce
I0403 16:47:36.817647 21451 net.cpp:425] inception_5b/relu_3x3_reduce <- inception_5b/3x3_reduce
I0403 16:47:36.817665 21451 net.cpp:386] inception_5b/relu_3x3_reduce -> inception_5b/3x3_reduce (in-place)
I0403 16:47:36.817853 21451 net.cpp:141] Setting up inception_5b/relu_3x3_reduce
I0403 16:47:36.817879 21451 net.cpp:148] Top shape: 24 192 7 7 (225792)
I0403 16:47:36.817894 21451 net.cpp:156] Memory required for data: 1330660896
I0403 16:47:36.817909 21451 layer_factory.hpp:77] Creating layer inception_5b/3x3
I0403 16:47:36.817930 21451 net.cpp:91] Creating Layer inception_5b/3x3
I0403 16:47:36.817947 21451 net.cpp:425] inception_5b/3x3 <- inception_5b/3x3_reduce
I0403 16:47:36.817981 21451 net.cpp:399] inception_5b/3x3 -> inception_5b/3x3
I0403 16:47:36.824584 21451 net.cpp:141] Setting up inception_5b/3x3
I0403 16:47:36.824611 21451 net.cpp:148] Top shape: 24 384 7 7 (451584)
I0403 16:47:36.824626 21451 net.cpp:156] Memory required for data: 1332467232
I0403 16:47:36.824645 21451 layer_factory.hpp:77] Creating layer inception_5b/relu_3x3
I0403 16:47:36.824666 21451 net.cpp:91] Creating Layer inception_5b/relu_3x3
I0403 16:47:36.824683 21451 net.cpp:425] inception_5b/relu_3x3 <- inception_5b/3x3
I0403 16:47:36.824702 21451 net.cpp:386] inception_5b/relu_3x3 -> inception_5b/3x3 (in-place)
I0403 16:47:36.825001 21451 net.cpp:141] Setting up inception_5b/relu_3x3
I0403 16:47:36.825027 21451 net.cpp:148] Top shape: 24 384 7 7 (451584)
I0403 16:47:36.825043 21451 net.cpp:156] Memory required for data: 1334273568
I0403 16:47:36.825057 21451 layer_factory.hpp:77] Creating layer inception_5b/5x5_reduce
I0403 16:47:36.825093 21451 net.cpp:91] Creating Layer inception_5b/5x5_reduce
I0403 16:47:36.825116 21451 net.cpp:425] inception_5b/5x5_reduce <- inception_5a/output_inception_5a/output_0_split_2
I0403 16:47:36.825136 21451 net.cpp:399] inception_5b/5x5_reduce -> inception_5b/5x5_reduce
I0403 16:47:36.826391 21451 net.cpp:141] Setting up inception_5b/5x5_reduce
I0403 16:47:36.826421 21451 net.cpp:148] Top shape: 24 48 7 7 (56448)
I0403 16:47:36.826436 21451 net.cpp:156] Memory required for data: 1334499360
I0403 16:47:36.826454 21451 layer_factory.hpp:77] Creating layer inception_5b/relu_5x5_reduce
I0403 16:47:36.826473 21451 net.cpp:91] Creating Layer inception_5b/relu_5x5_reduce
I0403 16:47:36.826490 21451 net.cpp:425] inception_5b/relu_5x5_reduce <- inception_5b/5x5_reduce
I0403 16:47:36.826506 21451 net.cpp:386] inception_5b/relu_5x5_reduce -> inception_5b/5x5_reduce (in-place)
I0403 16:47:36.826879 21451 net.cpp:141] Setting up inception_5b/relu_5x5_reduce
I0403 16:47:36.826905 21451 net.cpp:148] Top shape: 24 48 7 7 (56448)
I0403 16:47:36.826918 21451 net.cpp:156] Memory required for data: 1334725152
I0403 16:47:36.826933 21451 layer_factory.hpp:77] Creating layer inception_5b/5x5
I0403 16:47:36.826952 21451 net.cpp:91] Creating Layer inception_5b/5x5
I0403 16:47:36.826977 21451 net.cpp:425] inception_5b/5x5 <- inception_5b/5x5_reduce
I0403 16:47:36.826995 21451 net.cpp:399] inception_5b/5x5 -> inception_5b/5x5
I0403 16:47:36.829025 21451 net.cpp:141] Setting up inception_5b/5x5
I0403 16:47:36.829056 21451 net.cpp:148] Top shape: 24 128 7 7 (150528)
I0403 16:47:36.829073 21451 net.cpp:156] Memory required for data: 1335327264
I0403 16:47:36.829093 21451 layer_factory.hpp:77] Creating layer inception_5b/relu_5x5
I0403 16:47:36.829112 21451 net.cpp:91] Creating Layer inception_5b/relu_5x5
I0403 16:47:36.829128 21451 net.cpp:425] inception_5b/relu_5x5 <- inception_5b/5x5
I0403 16:47:36.829149 21451 net.cpp:386] inception_5b/relu_5x5 -> inception_5b/5x5 (in-place)
I0403 16:47:36.829341 21451 net.cpp:141] Setting up inception_5b/relu_5x5
I0403 16:47:36.829365 21451 net.cpp:148] Top shape: 24 128 7 7 (150528)
I0403 16:47:36.829380 21451 net.cpp:156] Memory required for data: 1335929376
I0403 16:47:36.829394 21451 layer_factory.hpp:77] Creating layer inception_5b/pool
I0403 16:47:36.829411 21451 net.cpp:91] Creating Layer inception_5b/pool
I0403 16:47:36.829427 21451 net.cpp:425] inception_5b/pool <- inception_5a/output_inception_5a/output_0_split_3
I0403 16:47:36.829447 21451 net.cpp:399] inception_5b/pool -> inception_5b/pool
I0403 16:47:36.829519 21451 net.cpp:141] Setting up inception_5b/pool
I0403 16:47:36.829542 21451 net.cpp:148] Top shape: 24 832 7 7 (978432)
I0403 16:47:36.829556 21451 net.cpp:156] Memory required for data: 1339843104
I0403 16:47:36.829569 21451 layer_factory.hpp:77] Creating layer inception_5b/pool_proj
I0403 16:47:36.829592 21451 net.cpp:91] Creating Layer inception_5b/pool_proj
I0403 16:47:36.829609 21451 net.cpp:425] inception_5b/pool_proj <- inception_5b/pool
I0403 16:47:36.829627 21451 net.cpp:399] inception_5b/pool_proj -> inception_5b/pool_proj
I0403 16:47:36.831892 21451 net.cpp:141] Setting up inception_5b/pool_proj
I0403 16:47:36.831921 21451 net.cpp:148] Top shape: 24 128 7 7 (150528)
I0403 16:47:36.831938 21451 net.cpp:156] Memory required for data: 1340445216
I0403 16:47:36.831962 21451 layer_factory.hpp:77] Creating layer inception_5b/relu_pool_proj
I0403 16:47:36.831984 21451 net.cpp:91] Creating Layer inception_5b/relu_pool_proj
I0403 16:47:36.832000 21451 net.cpp:425] inception_5b/relu_pool_proj <- inception_5b/pool_proj
I0403 16:47:36.832017 21451 net.cpp:386] inception_5b/relu_pool_proj -> inception_5b/pool_proj (in-place)
I0403 16:47:36.832311 21451 net.cpp:141] Setting up inception_5b/relu_pool_proj
I0403 16:47:36.832337 21451 net.cpp:148] Top shape: 24 128 7 7 (150528)
I0403 16:47:36.832355 21451 net.cpp:156] Memory required for data: 1341047328
I0403 16:47:36.832370 21451 layer_factory.hpp:77] Creating layer inception_5b/output
I0403 16:47:36.832386 21451 net.cpp:91] Creating Layer inception_5b/output
I0403 16:47:36.832415 21451 net.cpp:425] inception_5b/output <- inception_5b/1x1
I0403 16:47:36.832432 21451 net.cpp:425] inception_5b/output <- inception_5b/3x3
I0403 16:47:36.832448 21451 net.cpp:425] inception_5b/output <- inception_5b/5x5
I0403 16:47:36.832463 21451 net.cpp:425] inception_5b/output <- inception_5b/pool_proj
I0403 16:47:36.832479 21451 net.cpp:399] inception_5b/output -> inception_5b/output
I0403 16:47:36.832531 21451 net.cpp:141] Setting up inception_5b/output
I0403 16:47:36.832554 21451 net.cpp:148] Top shape: 24 1024 7 7 (1204224)
I0403 16:47:36.832569 21451 net.cpp:156] Memory required for data: 1345864224
I0403 16:47:36.832583 21451 layer_factory.hpp:77] Creating layer pool5/7x7_s1
I0403 16:47:36.832603 21451 net.cpp:91] Creating Layer pool5/7x7_s1
I0403 16:47:36.832619 21451 net.cpp:425] pool5/7x7_s1 <- inception_5b/output
I0403 16:47:36.832636 21451 net.cpp:399] pool5/7x7_s1 -> pool5/7x7_s1
I0403 16:47:36.832851 21451 net.cpp:141] Setting up pool5/7x7_s1
I0403 16:47:36.832878 21451 net.cpp:148] Top shape: 24 1024 1 1 (24576)
I0403 16:47:36.832893 21451 net.cpp:156] Memory required for data: 1345962528
I0403 16:47:36.832907 21451 layer_factory.hpp:77] Creating layer pool5/drop_7x7_s1
I0403 16:47:36.832926 21451 net.cpp:91] Creating Layer pool5/drop_7x7_s1
I0403 16:47:36.832940 21451 net.cpp:425] pool5/drop_7x7_s1 <- pool5/7x7_s1
I0403 16:47:36.832962 21451 net.cpp:386] pool5/drop_7x7_s1 -> pool5/7x7_s1 (in-place)
I0403 16:47:36.833015 21451 net.cpp:141] Setting up pool5/drop_7x7_s1
I0403 16:47:36.833039 21451 net.cpp:148] Top shape: 24 1024 1 1 (24576)
I0403 16:47:36.833052 21451 net.cpp:156] Memory required for data: 1346060832
I0403 16:47:36.833066 21451 layer_factory.hpp:77] Creating layer loss3/classifier_plantvillage
I0403 16:47:36.833086 21451 net.cpp:91] Creating Layer loss3/classifier_plantvillage
I0403 16:47:36.833103 21451 net.cpp:425] loss3/classifier_plantvillage <- pool5/7x7_s1
I0403 16:47:36.833120 21451 net.cpp:399] loss3/classifier_plantvillage -> loss3/classifier_plantvillage
I0403 16:47:36.833537 21451 net.cpp:141] Setting up loss3/classifier_plantvillage
I0403 16:47:36.833562 21451 net.cpp:148] Top shape: 24 38 (912)
I0403 16:47:36.833576 21451 net.cpp:156] Memory required for data: 1346064480
I0403 16:47:36.833595 21451 layer_factory.hpp:77] Creating layer loss3/classifier_plantvillage_loss3/classifier_plantvillage_0_split
I0403 16:47:36.833611 21451 net.cpp:91] Creating Layer loss3/classifier_plantvillage_loss3/classifier_plantvillage_0_split
I0403 16:47:36.833626 21451 net.cpp:425] loss3/classifier_plantvillage_loss3/classifier_plantvillage_0_split <- loss3/classifier_plantvillage
I0403 16:47:36.833647 21451 net.cpp:399] loss3/classifier_plantvillage_loss3/classifier_plantvillage_0_split -> loss3/classifier_plantvillage_loss3/classifier_plantvillage_0_split_0
I0403 16:47:36.833667 21451 net.cpp:399] loss3/classifier_plantvillage_loss3/classifier_plantvillage_0_split -> loss3/classifier_plantvillage_loss3/classifier_plantvillage_0_split_1
I0403 16:47:36.833685 21451 net.cpp:399] loss3/classifier_plantvillage_loss3/classifier_plantvillage_0_split -> loss3/classifier_plantvillage_loss3/classifier_plantvillage_0_split_2
I0403 16:47:36.833703 21451 net.cpp:399] loss3/classifier_plantvillage_loss3/classifier_plantvillage_0_split -> loss3/classifier_plantvillage_loss3/classifier_plantvillage_0_split_3
I0403 16:47:36.833804 21451 net.cpp:141] Setting up loss3/classifier_plantvillage_loss3/classifier_plantvillage_0_split
I0403 16:47:36.833829 21451 net.cpp:148] Top shape: 24 38 (912)
I0403 16:47:36.833845 21451 net.cpp:148] Top shape: 24 38 (912)
I0403 16:47:36.833863 21451 net.cpp:148] Top shape: 24 38 (912)
I0403 16:47:36.833878 21451 net.cpp:148] Top shape: 24 38 (912)
I0403 16:47:36.833890 21451 net.cpp:156] Memory required for data: 1346079072
I0403 16:47:36.833904 21451 layer_factory.hpp:77] Creating layer loss1/loss
I0403 16:47:36.833925 21451 net.cpp:91] Creating Layer loss1/loss
I0403 16:47:36.833941 21451 net.cpp:425] loss1/loss <- loss1/classifier_plantvillage_loss1/classifier_plantvillage_0_split_0
I0403 16:47:36.833988 21451 net.cpp:425] loss1/loss <- label_data_1_split_0
…
