…
I0403 16:43:28.895095 21380 net.cpp:313] The NetState phase (1) differed from the phase (0) specified by a rule in layer data
I0403 16:43:28.896234 21380 net.cpp:49] Initializing net from parameters: 
state {
  phase: TEST
}
layer {
  name: "data"
  type: "Data"
  top: "data"
  top: "label"
  include {
    phase: TEST
  }
  transform_param {
    mirror: false
    crop_size: 224
    mean_file: "/home/mohanty/data/final_dataset/lmdb/color-40-60/mean.binaryproto"
  }
  data_param {
    source: "/home/mohanty/data/final_dataset/lmdb/color-40-60/test_db"
    batch_size: 24
    backend: LMDB
  }
}
layer {
  name: "conv1/7x7_s2"
  type: "Convolution"
  bottom: "data"
  top: "conv1/7x7_s2"
  param {
    lr_mult: 1
    decay_mult: 1
  }
  param {
    lr_mult: 2
    decay_mult: 0
  }
  convolution_param {
    num_output: 64
    pad: 3
    kernel_size: 7
    stride: 2
    weight_filler {
      type: "xavier"
      std: 0.1
    }
    bias_filler {
      type: "constant"
      value: 0.2
    }
  }
}
layer {
  name: "conv1/relu_7x7"
  type: "ReLU"
  bottom: "conv1/7x7_s2"
  top: "conv1/7x7_s2"
}
layer {
  name: "pool1/3x3_s2"
  type: "Pooling"
  bottom: "conv1/7x7_s2"
  top: "pool1/3x3_s2"
  pooling_param {
    pool: MAX
    kernel_size: 3
    stride: 2
  }
}
layer {
  name: "pool1/norm1"
  type: "LRN"
  bottom: "pool1/3x3_s2"
  top: "pool1/norm1"
  lrn_param {
    local_size: 5
    alpha: 0.0001
    beta: 0.75
  }
}
layer {
  name: "conv2/3x3_reduce"
  type: "Convolution"
  bottom: "pool1/norm1"
  top: "conv2/3x3_reduce"
  param {
    lr_mult: 1
    decay_mult: 1
  }
  param {
    lr_mult: 2
    decay_mult: 0
  }
  convolution_param {
    num_output: 64
    kernel_size: 1
    weight_filler {
      type: "xavier"
      std: 0.1
    }
    bias_filler {
      type: "constant"
      value: 0.2
    }
  }
}
layer {
  name: "conv2/relu_3x3_reduce"
  type: "ReLU"
  bottom: "conv2/3x3_reduce"
  top: "conv2/3x3_reduce"
}
layer {
  name: "conv2/3x3"
  type: "Convolution"
  bottom: "conv2/3x3_reduce"
  top: "conv2/3x3"
  param {
    lr_mult: 1
    decay_mult: 1
  }
  param {
    lr_mult: 2
    decay_mult: 0
  }
  convolution_param {
    num_output: 192
    pad: 1
    kernel_size: 3
    weight_filler {
      type: "xavier"
      std: 0.03
    }
    bias_filler {
      type: "constant"
      value: 0.2
    }
  }
}
layer {
  name: "conv2/relu_3x3"
  type: "ReLU"
  bottom: "conv2/3x3"
  top: "conv2/3x3"
}
layer {
  name: "conv2/norm2"
  type: "LRN"
  bottom: "conv2/3x3"
  top: "conv2/norm2"
  lrn_param {
    local_size: 5
    alpha: 0.0001
    beta: 0.75
  }
}
layer {
  name: "pool2/3x3_s2"
  type: "Pooling"
  bottom: "conv2/norm2"
  top: "pool2/3x3_s2"
  pooling_param {
    pool: MAX
    kernel_size: 3
    stride: 2
  }
}
layer {
  name: "inception_3a/1x1"
  type: "Convolution"
  bottom: "pool2/3x3_s2"
  top: "inception_3a/1x1"
  param {
    lr_mult: 1
    decay_mult: 1
  }
  param {
    lr_mult: 2
    decay_mult: 0
  }
  convolution_param {
    num_output: 64
    kernel_size: 1
    weight_filler {
      type: "xavier"
      std: 0.03
    }
    bias_filler {
      type: "constant"
      value: 0.2
    }
  }
}
layer {
  name: "inception_3a/relu_1x1"
  type: "ReLU"
  bottom: "inception_3a/1x1"
  top: "inception_3a/1x1"
}
layer {
  name: "inception_3a/3x3_reduce"
  type: "Convolution"
  bottom: "pool2/3x3_s2"
  top: "inception_3a/3x3_reduce"
  param {
    lr_mult: 1
    decay_mult: 1
  }
  param {
    lr_mult: 2
    decay_mult: 0
  }
  convolution_param {
    num_output: 96
    kernel_size: 1
    weight_filler {
      type: "xavier"
      std: 0.09
    }
    bias_filler {
      type: "constant"
      value: 0.2
    }
  }
}
layer {
  name: "inception_3a/relu_3x3_reduce"
  type: "ReLU"
  bottom: "inception_3a/3x3_reduce"
  top: "inception_3a/3x3_reduce"
}
layer {
  name: "inception_3a/3x3"
  type: "Convolution"
  bottom: "inception_3a/3x3_reduce"
  top: "inception_3a/3x3"
  param {
    lr_mult: 1
    decay_mult: 1
  }
  param {
    lr_mult: 2
    decay_mult: 0
  }
  convolution_param {
    num_output: 128
    pad: 1
    kernel_size: 3
    weight_filler {
      type: "xavier"
      std: 0.03
    }
    bias_filler {
      type: "constant"
      value: 0.2
    }
  }
}
layer {
  name: "inception_3a/relu_3x3"
  type: "ReLU"
  bottom: "inception_3a/3x3"
  top: "inception_3a/3x3"
}
layer {
  name: "inception_3a/5x5_reduce"
  type: "Convolution"
  bottom: "pool2/3x3_s2"
  top: "inception_3a/5x5_reduce"
  param {
    lr_mult: 1
    decay_mult: 1
  }
  param {
    lr_mult: 2
    decay_mult: 0
  }
  convolution_param {
    num_output: 16
    kernel_size: 1
    weight_filler {
      type: "xavier"
      std: 0.2
    }
    bias_filler {
      type: "constant"
      value: 0.2
    }
  }
}
layer {
  name: "inception_3a/relu_5x5_reduce"
  type: "ReLU"
  bottom: "inception_3a/5x5_reduce"
  top: "inception_3a/5x5_reduce"
}
layer {
  name: "inception_3a/5x5"
  type: "Convolution"
  bottom: "inception_3a/5x5_reduce"
  top: "inception_3a/5x5"
  param {
    lr_mult: 1
    decay_mult: 1
  }
  param {
    lr_mult: 2
    decay_mult: 0
  }
  convolution_param {
    num_output: 32
    pad: 2
    kernel_size: 5
    weight_filler {
      type: "xavier"
      std: 0.03
    }
    bias_filler {
      type: "constant"
      value: 0.2
    }
  }
}
layer {
  name: "inception_3a/relu_5x5"
  type: "ReLU"
  bottom: "inception_3a/5x5"
  top: "inception_3a/5x5"
}
layer {
  name: "inception_3a/pool"
  type: "Pooling"
  bottom: "pool2/3x3_s2"
  top: "inception_3a/pool"
  pooling_param {
    pool: MAX
    kernel_size: 3
    stride: 1
    pad: 1
  }
}
layer {
  name: "inception_3a/pool_proj"
  type: "Convolution"
  bottom: "inception_3a/pool"
  top: "inception_3a/pool_proj"
  param {
    lr_mult: 1
    decay_mult: 1
  }
  param {
    lr_mult: 2
    decay_mult: 0
  }
  convolution_param {
    num_output: 32
    kernel_size: 1
    weight_filler {
      type: "xavier"
      std: 0.1
    }
    bias_filler {
      type: "constant"
      value: 0.2
    }
  }
}
layer {
  name: "inception_3a/relu_pool_proj"
  type: "ReLU"
  bottom: "inception_3a/pool_proj"
  top: "inception_3a/pool_proj"
}
layer {
  name: "inception_3a/output"
  type: "Concat"
  bottom: "inception_3a/1x1"
  bottom: "inception_3a/3x3"
  bottom: "inception_3a/5x5"
  bottom: "inception_3a/pool_proj"
  top: "inception_3a/output"
}
layer {
  name: "inception_3b/1x1"
  type: "Convolution"
  bottom: "inception_3a/output"
  top: "inception_3b/1x1"
  param {
    lr_mult: 1
    decay_mult: 1
  }
  param {
    lr_mult: 2
    decay_mult: 0
  }
  convolution_param {
    num_output: 128
    kernel_size: 1
    weight_filler {
      type: "xavier"
      std: 0.03
    }
    bias_filler {
      type: "constant"
      value: 0.2
    }
  }
}
layer {
  name: "inception_3b/relu_1x1"
  type: "ReLU"
  bottom: "inception_3b/1x1"
  top: "inception_3b/1x1"
}
layer {
  name: "inception_3b/3x3_reduce"
  type: "Convolution"
  bottom: "inception_3a/output"
  top: "inception_3b/3x3_reduce"
  param {
    lr_mult: 1
    decay_mult: 1
  }
  param {
    lr_mult: 2
    decay_mult: 0
  }
  convolution_param {
    num_output: 128
    kernel_size: 1
    weight_filler {
      type: "xavier"
      std: 0.09
    }
    bias_filler {
      type: "constant"
      value: 0.2
    }
  }
}
layer {
  name: "inception_3b/relu_3x3_reduce"
  type: "ReLU"
  bottom: "inception_3b/3x3_reduce"
  top: "inception_3b/3x3_reduce"
}
layer {
  name: "inception_3b/3x3"
  type: "Convolution"
  bottom: "inception_3b/3x3_reduce"
  top: "inception_3b/3x3"
  param {
    lr_mult: 1
    decay_mult: 1
  }
  param {
    lr_mult: 2
    decay_mult: 0
  }
  convolution_param {
    num_output: 192
    pad: 1
    kernel_size: 3
    weight_filler {
      type: "xavier"
      std: 0.03
    }
    bias_filler {
      type: "constant"
      value: 0.2
    }
  }
}
layer {
  name: "inception_3b/relu_3x3"
  type: "ReLU"
  bottom: "inception_3b/3x3"
  top: "inception_3b/3x3"
}
layer {
  name: "inception_3b/5x5_reduce"
  type: "Convolution"
  bottom: "inception_3a/output"
  top: "inception_3b/5x5_reduce"
  param {
    lr_mult: 1
    decay_mult: 1
  }
  param {
    lr_mult: 2
    decay_mult: 0
  }
  convolution_param {
    num_output: 32
    kernel_size: 1
    weight_filler {
      type: "xavier"
      std: 0.2
    }
    bias_filler {
      type: "constant"
      value: 0.2
    }
  }
}
layer {
  name: "inception_3b/relu_5x5_reduce"
  type: "ReLU"
  bottom: "inception_3b/5x5_reduce"
  top: "inception_3b/5x5_reduce"
}
layer {
  name: "inception_3b/5x5"
  type: "Convolution"
  bottom: "inception_3b/5x5_reduce"
  top: "inception_3b/5x5"
  param {
    lr_mult: 1
    decay_mult: 1
  }
  param {
    lr_mult: 2
    decay_mult: 0
  }
  convolution_param {
    num_output: 96
    pad: 2
    kernel_size: 5
    weight_filler {
      type: "xavier"
      std: 0.03
    }
    bias_filler {
      type: "constant"
      value: 0.2
    }
  }
}
layer {
  name: "inception_3b/relu_5x5"
  type: "ReLU"
  bottom: "inception_3b/5x5"
  top: "inception_3b/5x5"
}
layer {
  name: "inception_3b/pool"
  type: "Pooling"
  bottom: "inception_3a/output"
  top: "inception_3b/pool"
  pooling_param {
    pool: MAX
    kernel_size: 3
    stride: 1
    pad: 1
  }
}
layer {
  name: "inception_3b/pool_proj"
  type: "Convolution"
  bottom: "inception_3b/pool"
  top: "inception_3b/pool_proj"
  param {
    lr_mult: 1
    decay_mult: 1
  }
  param {
    lr_mult: 2
    decay_mult: 0
  }
  convolution_param {
    num_output: 64
    kernel_size: 1
    weight_filler {
      type: "xavier"
      std: 0.1
    }
    bias_filler {
      type: "constant"
      value: 0.2
    }
  }
}
layer {
  name: "inception_3b/relu_pool_proj"
  type: "ReLU"
  bottom: "inception_3b/pool_proj"
  top: "inception_3b/pool_proj"
}
layer {
  name: "inception_3b/output"
  type: "Concat"
  bottom: "inception_3b/1x1"
  bottom: "inception_3b/3x3"
  bottom: "inception_3b/5x5"
  bottom: "inception_3b/pool_proj"
  top: "inception_3b/output"
}
layer {
  name: "pool3/3x3_s2"
  type: "Pooling"
  bottom: "inception_3b/output"
  top: "pool3/3x3_s2"
  pooling_param {
    pool: MAX
    kernel_size: 3
    stride: 2
  }
}
layer {
  name: "inception_4a/1x1"
  type: "Convolution"
  bottom: "pool3/3x3_s2"
  top: "inception_4a/1x1"
  param {
    lr_mult: 1
    decay_mult: 1
  }
  param {
    lr_mult: 2
    decay_mult: 0
  }
  convolution_param {
    num_output: 192
    kernel_size: 1
    weight_filler {
      type: "xavier"
      std: 0.03
    }
    bias_filler {
      type: "constant"
      value: 0.2
    }
  }
}
layer {
  name: "inception_4a/relu_1x1"
  type: "ReLU"
  bottom: "inception_4a/1x1"
  top: "inception_4a/1x1"
}
layer {
  name: "inception_4a/3x3_reduce"
  type: "Convolution"
  bottom: "pool3/3x3_s2"
  top: "inception_4a/3x3_reduce"
  param {
    lr_mult: 1
    decay_mult: 1
  }
  param {
    lr_mult: 2
    decay_mult: 0
  }
  convolution_param {
    num_output: 96
    kernel_size: 1
    weight_filler {
      type: "xavier"
      std: 0.09
    }
    bias_filler {
      type: "constant"
      value: 0.2
    }
  }
}
layer {
  name: "inception_4a/relu_3x3_reduce"
  type: "ReLU"
  bottom: "inception_4a/3x3_reduce"
  top: "inception_4a/3x3_reduce"
}
layer {
  name: "inception_4a/3x3"
  type: "Convolution"
  bottom: "inception_4a/3x3_reduce"
  top: "inception_4a/3x3"
  param {
    lr_mult: 1
    decay_mult: 1
  }
  param {
    lr_mult: 2
    decay_mult: 0
  }
  convolution_param {
    num_output: 208
    pad: 1
    kernel_size: 3
    weight_filler {
      type: "xavier"
      std: 0.03
    }
    bias_filler {
      type: "constant"
      value: 0.2
    }
  }
}
layer {
  name: "inception_4a/relu_3x3"
  type: "ReLU"
  bottom: "inception_4a/3x3"
  top: "inception_4a/3x3"
}
layer {
  name: "inception_4a/5x5_reduce"
  type: "Convolution"
  bottom: "pool3/3x3_s2"
  top: "inception_4a/5x5_reduce"
  param {
    lr_mult: 1
    decay_mult: 1
  }
  param {
    lr_mult: 2
    decay_mult: 0
  }
  convolution_param {
    num_output: 16
    kernel_size: 1
    weight_filler {
      type: "xavier"
      std: 0.2
    }
    bias_filler {
      type: "constant"
      value: 0.2
    }
  }
}
layer {
  name: "inception_4a/relu_5x5_reduce"
  type: "ReLU"
  bottom: "inception_4a/5x5_reduce"
  top: "inception_4a/5x5_reduce"
}
layer {
  name: "inception_4a/5x5"
  type: "Convolution"
  bottom: "inception_4a/5x5_reduce"
  top: "inception_4a/5x5"
  param {
    lr_mult: 1
    decay_mult: 1
  }
  param {
    lr_mult: 2
    decay_mult: 0
  }
  convolution_param {
    num_output: 48
    pad: 2
    kernel_size: 5
    weight_filler {
      type: "xavier"
      std: 0.03
    }
    bias_filler {
      type: "constant"
      value: 0.2
    }
  }
}
layer {
  name: "inception_4a/relu_5x5"
  type: "ReLU"
  bottom: "inception_4a/5x5"
  top: "inception_4a/5x5"
}
layer {
  name: "inception_4a/pool"
  type: "Pooling"
  bottom: "pool3/3x3_s2"
  top: "inception_4a/pool"
  pooling_param {
    pool: MAX
    kernel_size: 3
    stride: 1
    pad: 1
  }
}
layer {
  name: "inception_4a/pool_proj"
  type: "Convolution"
  bottom: "inception_4a/pool"
  top: "inception_4a/pool_proj"
  param {
    lr_mult: 1
    decay_mult: 1
  }
  param {
    lr_mult: 2
    decay_mult: 0
  }
  convolution_param {
    num_output: 64
    kernel_size: 1
    weight_filler {
      type: "xavier"
      std: 0.1
    }
    bias_filler {
      type: "constant"
      value: 0.2
    }
  }
}
layer {
  name: "inception_4a/relu_pool_proj"
  type: "ReLU"
  bottom: "inception_4a/pool_proj"
  top: "inception_4a/pool_proj"
}
layer {
  name: "inception_4a/output"
  type: "Concat"
  bottom: "inception_4a/1x1"
  bottom: "inception_4a/3x3"
  bottom: "inception_4a/5x5"
  bottom: "inception_4a/pool_proj"
  top: "inception_4a/output"
}
layer {
  name: "loss1/ave_pool"
  type: "Pooling"
  bottom: "inception_4a/output"
  top: "loss1/ave_pool"
  pooling_param {
    pool: AVE
    kernel_size: 5
    stride: 3
  }
}
layer {
  name: "loss1/conv"
  type: "Convolution"
  bottom: "loss1/ave_pool"
  top: "loss1/conv"
  param {
    lr_mult: 1
    decay_mult: 1
  }
  param {
    lr_mult: 2
    decay_mult: 0
  }
  convolution_param {
    num_output: 128
    kernel_size: 1
    weight_filler {
      type: "xavier"
      std: 0.08
    }
    bias_filler {
      type: "constant"
      value: 0.2
    }
  }
}
layer {
  name: "loss1/relu_conv"
  type: "ReLU"
  bottom: "loss1/conv"
  top: "loss1/conv"
}
layer {
  name: "loss1/fc"
  type: "InnerProduct"
  bottom: "loss1/conv"
  top: "loss1/fc"
  param {
    lr_mult: 1
    decay_mult: 1
  }
  param {
    lr_mult: 2
    decay_mult: 0
  }
  inner_product_param {
    num_output: 1024
    weight_filler {
      type: "xavier"
      std: 0.02
    }
    bias_filler {
      type: "constant"
      value: 0.2
    }
  }
}
layer {
  name: "loss1/relu_fc"
  type: "ReLU"
  bottom: "loss1/fc"
  top: "loss1/fc"
}
layer {
  name: "loss1/drop_fc"
  type: "Dropout"
  bottom: "loss1/fc"
  top: "loss1/fc"
  dropout_param {
    dropout_ratio: 0.7
  }
}
layer {
  name: "loss1/classifier_plantvillage"
  type: "InnerProduct"
  bottom: "loss1/fc"
  top: "loss1/classifier_plantvillage"
  param {
    lr_mult: 1
    decay_mult: 1
  }
  param {
    lr_mult: 2
    decay_mult: 0
  }
  inner_product_param {
    num_output: 38
    weight_filler {
      type: "xavier"
      std: 0.0009765625
    }
    bias_filler {
      type: "constant"
      value: 0
    }
  }
}
layer {
  name: "inception_4b/1x1"
  type: "Convolution"
  bottom: "inception_4a/output"
  top: "inception_4b/1x1"
  param {
    lr_mult: 1
    decay_mult: 1
  }
  param {
    lr_mult: 2
    decay_mult: 0
  }
  convolution_param {
    num_output: 160
    kernel_size: 1
    weight_filler {
      type: "xavier"
      std: 0.03
    }
    bias_filler {
      type: "constant"
      value: 0.2
    }
  }
}
layer {
  name: "inception_4b/relu_1x1"
  type: "ReLU"
  bottom: "inception_4b/1x1"
  top: "inception_4b/1x1"
}
layer {
  name: "inception_4b/3x3_reduce"
  type: "Convolution"
  bottom: "inception_4a/output"
  top: "inception_4b/3x3_reduce"
  param {
    lr_mult: 1
    decay_mult: 1
  }
  param {
    lr_mult: 2
    decay_mult: 0
  }
  convolution_param {
    num_output: 112
    kernel_size: 1
    weight_filler {
      type: "xavier"
      std: 0.09
    }
    bias_filler {
      type: "constant"
      value: 0.2
    }
  }
}
layer {
  name: "inception_4b/relu_3x3_reduce"
  type: "ReLU"
  bottom: "inception_4b/3x3_reduce"
  top: "inception_4b/3x3_reduce"
}
layer {
  name: "inception_4b/3x3"
  type: "Convolution"
  bottom: "inception_4b/3x3_reduce"
  top: "inception_4b/3x3"
  param {
    lr_mult: 1
    decay_mult: 1
  }
  param {
    lr_mult: 2
    decay_mult: 0
  }
  convolution_param {
    num_output: 224
    pad: 1
    kernel_size: 3
    weight_filler {
      type: "xavier"
      std: 0.03
    }
    bias_filler {
      type: "constant"
      value: 0.2
    }
  }
}
layer {
  name: "inception_4b/relu_3x3"
  type: "ReLU"
  bottom: "inception_4b/3x3"
  top: "inception_4b/3x3"
}
layer {
  name: "inception_4b/5x5_reduce"
  type: "Convolution"
  bottom: "inception_4a/output"
  top: "inception_4b/5x5_reduce"
  param {
    lr_mult: 1
    decay_mult: 1
  }
  param {
    lr_mult: 2
    decay_mult: 0
  }
  convolution_param {
    num_output: 24
    kernel_size: 1
    weight_filler {
      type: "xavier"
      std: 0.2
    }
    bias_filler {
      type: "constant"
      value: 0.2
    }
  }
}
layer {
  name: "inception_4b/relu_5x5_reduce"
  type: "ReLU"
  bottom: "inception_4b/5x5_reduce"
  top: "inception_4b/5x5_reduce"
}
layer {
  name: "inception_4b/5x5"
  type: "Convolution"
  bottom: "inception_4b/5x5_reduce"
  top: "inception_4b/5x5"
  param {
    lr_mult: 1
    decay_mult: 1
  }
  param {
    lr_mult: 2
    decay_mult: 0
  }
  convolution_param {
    num_output: 64
    pad: 2
    kernel_size: 5
    weight_filler {
      type: "xavier"
      std: 0.03
    }
    bias_filler {
      type: "constant"
      value: 0.2
    }
  }
}
layer {
  name: "inception_4b/relu_5x5"
  type: "ReLU"
  bottom: "inception_4b/5x5"
  top: "inception_4b/5x5"
}
layer {
  name: "inception_4b/pool"
  type: "Pooling"
  bottom: "inception_4a/output"
  top: "inception_4b/pool"
  pooling_param {
    pool: MAX
    kernel_size: 3
    stride: 1
    pad: 1
  }
}
layer {
  name: "inception_4b/pool_proj"
  type: "Convolution"
  bottom: "inception_4b/pool"
  top: "inception_4b/pool_proj"
  param {
    lr_mult: 1
    decay_mult: 1
  }
  param {
    lr_mult: 2
    decay_mult: 0
  }
  convolution_param {
    num_output: 64
    kernel_size: 1
    weight_filler {
      type: "xavier"
      std: 0.1
    }
    bias_filler {
      type: "constant"
      value: 0.2
    }
  }
}
layer {
  name: "inception_4b/relu_pool_proj"
  type: "ReLU"
  bottom: "inception_4b/pool_proj"
  top: "inception_4b/pool_proj"
}
layer {
  name: "inception_4b/output"
  type: "Concat"
  bottom: "inception_4b/1x1"
  bottom: "inception_4b/3x3"
  bottom: "inception_4b/5x5"
  bottom: "inception_4b/pool_proj"
  top: "inception_4b/output"
}
layer {
  name: "inception_4c/1x1"
  type: "Convolution"
  bottom: "inception_4b/output"
  top: "inception_4c/1x1"
  param {
    lr_mult: 1
    decay_mult: 1
  }
  param {
    lr_mult: 2
    decay_mult: 0
  }
  convolution_param {
    num_output: 128
    kernel_size: 1
    weight_filler {
      type: "xavier"
      std: 0.03
    }
    bias_filler {
      type: "constant"
      value: 0.2
    }
  }
}
layer {
  name: "inception_4c/relu_1x1"
  type: "ReLU"
  bottom: "inception_4c/1x1"
  top: "inception_4c/1x1"
}
layer {
  name: "inception_4c/3x3_reduce"
  type: "Convolution"
  bottom: "inception_4b/output"
  top: "inception_4c/3x3_reduce"
  param {
    lr_mult: 1
    decay_mult: 1
  }
  param {
    lr_mult: 2
    decay_mult: 0
  }
  convolution_param {
    num_output: 128
    kernel_size: 1
    weight_filler {
      type: "xavier"
      std: 0.09
    }
    bias_filler {
      type: "constant"
      value: 0.2
    }
  }
}
layer {
  name: "inception_4c/relu_3x3_reduce"
  type: "ReLU"
  bottom: "inception_4c/3x3_reduce"
  top: "inception_4c/3x3_reduce"
}
layer {
  name: "inception_4c/3x3"
  type: "Convolution"
  bottom: "inception_4c/3x3_reduce"
  top: "inception_4c/3x3"
  param {
    lr_mult: 1
    decay_mult: 1
  }
  param {
    lr_mult: 2
    decay_mult: 0
  }
  convolution_param {
    num_output: 256
    pad: 1
    kernel_size: 3
    weight_filler {
      type: "xavier"
      std: 0.03
    }
    bias_filler {
      type: "constant"
      value: 0.2
    }
  }
}
layer {
  name: "inception_4c/relu_3x3"
  type: "ReLU"
  bottom: "inception_4c/3x3"
  top: "inception_4c/3x3"
}
layer {
  name: "inception_4c/5x5_reduce"
  type: "Convolution"
  bottom: "inception_4b/output"
  top: "inception_4c/5x5_reduce"
  param {
    lr_mult: 1
    decay_mult: 1
  }
  param {
    lr_mult: 2
    decay_mult: 0
  }
  convolution_param {
    num_output: 24
    kernel_size: 1
    weight_filler {
      type: "xavier"
      std: 0.2
    }
    bias_filler {
      type: "constant"
      value: 0.2
    }
  }
}
layer {
  name: "inception_4c/relu_5x5_reduce"
  type: "ReLU"
  bottom: "inception_4c/5x5_reduce"
  top: "inception_4c/5x5_reduce"
}
layer {
  name: "inception_4c/5x5"
  type: "Convolution"
  bottom: "inception_4c/5x5_reduce"
  top: "inception_4c/5x5"
  param {
    lr_mult: 1
    decay_mult: 1
  }
  param {
    lr_mult: 2
    decay_mult: 0
  }
  convolution_param {
    num_output: 64
    pad: 2
    kernel_size: 5
    weight_filler {
      type: "xavier"
      std: 0.03
    }
    bias_filler {
      type: "constant"
      value: 0.2
    }
  }
}
layer {
  name: "inception_4c/relu_5x5"
  type: "ReLU"
  bottom: "inception_4c/5x5"
  top: "inception_4c/5x5"
}
layer {
  name: "inception_4c/pool"
  type: "Pooling"
  bottom: "inception_4b/output"
  top: "inception_4c/pool"
  pooling_param {
    pool: MAX
    kernel_size: 3
    stride: 1
    pad: 1
  }
}
layer {
  name: "inception_4c/pool_proj"
  type: "Convolution"
  bottom: "inception_4c/pool"
  top: "inception_4c/pool_proj"
  param {
    lr_mult: 1
    decay_mult: 1
  }
  param {
    lr_mult: 2
    decay_mult: 0
  }
  convolution_param {
    num_output: 64
    kernel_size: 1
    weight_filler {
      type: "xavier"
      std: 0.1
    }
    bias_filler {
      type: "constant"
      value: 0.2
    }
  }
}
layer {
  name: "inception_4c/relu_pool_proj"
  type: "ReLU"
  bottom: "inception_4c/pool_proj"
  top: "inception_4c/pool_proj"
}
layer {
  name: "inception_4c/output"
  type: "Concat"
  bottom: "inception_4c/1x1"
  bottom: "inception_4c/3x3"
  bottom: "inception_4c/5x5"
  bottom: "inception_4c/pool_proj"
  top: "inception_4c/output"
}
layer {
  name: "inception_4d/1x1"
  type: "Convolution"
  bottom: "inception_4c/output"
  top: "inception_4d/1x1"
  param {
    lr_mult: 1
    decay_mult: 1
  }
  param {
    lr_mult: 2
    decay_mult: 0
  }
  convolution_param {
    num_output: 112
    kernel_size: 1
    weight_filler {
      type: "xavier"
      std: 0.03
    }
    bias_filler {
      type: "constant"
      value: 0.2
    }
  }
}
layer {
  name: "inception_4d/relu_1x1"
  type: "ReLU"
  bottom: "inception_4d/1x1"
  top: "inception_4d/1x1"
}
layer {
  name: "inception_4d/3x3_reduce"
  type: "Convolution"
  bottom: "inception_4c/output"
  top: "inception_4d/3x3_reduce"
  param {
    lr_mult: 1
    decay_mult: 1
  }
  param {
    lr_mult: 2
    decay_mult: 0
  }
  convolution_param {
    num_output: 144
    kernel_size: 1
    weight_filler {
      type: "xavier"
      std: 0.09
    }
    bias_filler {
      type: "constant"
      value: 0.2
    }
  }
}
layer {
  name: "inception_4d/relu_3x3_reduce"
  type: "ReLU"
  bottom: "inception_4d/3x3_reduce"
  top: "inception_4d/3x3_reduce"
}
layer {
  name: "inception_4d/3x3"
  type: "Convolution"
  bottom: "inception_4d/3x3_reduce"
  top: "inception_4d/3x3"
  param {
    lr_mult: 1
    decay_mult: 1
  }
  param {
    lr_mult: 2
    decay_mult: 0
  }
  convolution_param {
    num_output: 288
    pad: 1
    kernel_size: 3
    weight_filler {
      type: "xavier"
      std: 0.03
    }
    bias_filler {
      type: "constant"
      value: 0.2
    }
  }
}
layer {
  name: "inception_4d/relu_3x3"
  type: "ReLU"
  bottom: "inception_4d/3x3"
  top: "inception_4d/3x3"
}
layer {
  name: "inception_4d/5x5_reduce"
  type: "Convolution"
  bottom: "inception_4c/output"
  top: "inception_4d/5x5_reduce"
  param {
    lr_mult: 1
    decay_mult: 1
  }
  param {
    lr_mult: 2
    decay_mult: 0
  }
  convolution_param {
    num_output: 32
    kernel_size: 1
    weight_filler {
      type: "xavier"
      std: 0.2
    }
    bias_filler {
      type: "constant"
      value: 0.2
    }
  }
}
layer {
  name: "inception_4d/relu_5x5_reduce"
  type: "ReLU"
  bottom: "inception_4d/5x5_reduce"
  top: "inception_4d/5x5_reduce"
}
layer {
  name: "inception_4d/5x5"
  type: "Convolution"
  bottom: "inception_4d/5x5_reduce"
  top: "inception_4d/5x5"
  param {
    lr_mult: 1
    decay_mult: 1
  }
  param {
    lr_mult: 2
    decay_mult: 0
  }
  convolution_param {
    num_output: 64
    pad: 2
    kernel_size: 5
    weight_filler {
      type: "xavier"
      std: 0.03
    }
    bias_filler {
      type: "constant"
      value: 0.2
    }
  }
}
layer {
  name: "inception_4d/relu_5x5"
  type: "ReLU"
  bottom: "inception_4d/5x5"
  top: "inception_4d/5x5"
}
layer {
  name: "inception_4d/pool"
  type: "Pooling"
  bottom: "inception_4c/output"
  top: "inception_4d/pool"
  pooling_param {
    pool: MAX
    kernel_size: 3
    stride: 1
    pad: 1
  }
}
layer {
  name: "inception_4d/pool_proj"
  type: "Convolution"
  bottom: "inception_4d/pool"
  top: "inception_4d/pool_proj"
  param {
    lr_mult: 1
    decay_mult: 1
  }
  param {
    lr_mult: 2
    decay_mult: 0
  }
  convolution_param {
    num_output: 64
    kernel_size: 1
    weight_filler {
      type: "xavier"
      std: 0.1
    }
    bias_filler {
      type: "constant"
      value: 0.2
    }
  }
}
layer {
  name: "inception_4d/relu_pool_proj"
  type: "ReLU"
  bottom: "inception_4d/pool_proj"
  top: "inception_4d/pool_proj"
}
layer {
  name: "inception_4d/output"
  type: "Concat"
  bottom: "inception_4d/1x1"
  bottom: "inception_4d/3x3"
  bottom: "inception_4d/5x5"
  bottom: "inception_4d/pool_proj"
  top: "inception_4d/output"
}
layer {
  name: "loss2/ave_pool"
  type: "Pooling"
  bottom: "inception_4d/output"
  top: "loss2/ave_pool"
  pooling_param {
    pool: AVE
    kernel_size: 5
    stride: 3
  }
}
layer {
  name: "loss2/conv"
  type: "Convolution"
  bottom: "loss2/ave_pool"
  top: "loss2/conv"
  param {
    lr_mult: 1
    decay_mult: 1
  }
  param {
    lr_mult: 2
    decay_mult: 0
  }
  convolution_param {
    num_output: 128
    kernel_size: 1
    weight_filler {
      type: "xavier"
      std: 0.08
    }
    bias_filler {
      type: "constant"
      value: 0.2
    }
  }
}
layer {
  name: "loss2/relu_conv"
  type: "ReLU"
  bottom: "loss2/conv"
  top: "loss2/conv"
}
layer {
  name: "loss2/fc"
  type: "InnerProduct"
  bottom: "loss2/conv"
  top: "loss2/fc"
  param {
    lr_mult: 1
    decay_mult: 1
  }
  param {
    lr_mult: 2
    decay_mult: 0
  }
  inner_product_param {
    num_output: 1024
    weight_filler {
      type: "xavier"
      std: 0.02
    }
    bias_filler {
      type: "constant"
      value: 0.2
    }
  }
}
layer {
  name: "loss2/relu_fc"
  type: "ReLU"
  bottom: "loss2/fc"
  top: "loss2/fc"
}
layer {
  name: "loss2/drop_fc"
  type: "Dropout"
  bottom: "loss2/fc"
  top: "loss2/fc"
  dropout_param {
    dropout_ratio: 0.7
  }
}
layer {
  name: "loss2/classifier_plantvillage"
  type: "InnerProduct"
  bottom: "loss2/fc"
  top: "loss2/classifier_plantvillage"
  param {
    lr_mult: 1
    decay_mult: 1
  }
  param {
    lr_mult: 2
    decay_mult: 0
  }
  inner_product_param {
    num_output: 38
    weight_filler {
      type: "xavier"
      std: 0.0009765625
    }
    bias_filler {
      type: "constant"
      value: 0
    }
  }
}
layer {
  name: "inception_4e/1x1"
  type: "Convolution"
  bottom: "inception_4d/output"
  top: "inception_4e/1x1"
  param {
    lr_mult: 1
    decay_mult: 1
  }
  param {
    lr_mult: 2
    decay_mult: 0
  }
  convolution_param {
    num_output: 256
    kernel_size: 1
    weight_filler {
      type: "xavier"
      std: 0.03
    }
    bias_filler {
      type: "constant"
      value: 0.2
    }
  }
}
layer {
  name: "inception_4e/relu_1x1"
  type: "ReLU"
  bottom: "inception_4e/1x1"
  top: "inception_4e/1x1"
}
layer {
  name: "inception_4e/3x3_reduce"
  type: "Convolution"
  bottom: "inception_4d/output"
  top: "inception_4e/3x3_reduce"
  param {
    lr_mult: 1
    decay_mult: 1
  }
  param {
    lr_mult: 2
    decay_mult: 0
  }
  convolution_param {
    num_output: 160
    kernel_size: 1
    weight_filler {
      type: "xavier"
      std: 0.09
    }
    bias_filler {
      type: "constant"
      value: 0.2
    }
  }
}
layer {
  name: "inception_4e/relu_3x3_reduce"
  type: "ReLU"
  bottom: "inception_4e/3x3_reduce"
  top: "inception_4e/3x3_reduce"
}
layer {
  name: "inception_4e/3x3"
  type: "Convolution"
  bottom: "inception_4e/3x3_reduce"
  top: "inception_4e/3x3"
  param {
    lr_mult: 1
    decay_mult: 1
  }
  param {
    lr_mult: 2
    decay_mult: 0
  }
  convolution_param {
    num_output: 320
    pad: 1
    kernel_size: 3
    weight_filler {
      type: "xavier"
      std: 0.03
    }
    bias_filler {
      type: "constant"
      value: 0.2
    }
  }
}
layer {
  name: "inception_4e/relu_3x3"
  type: "ReLU"
  bottom: "inception_4e/3x3"
  top: "inception_4e/3x3"
}
layer {
  name: "inception_4e/5x5_reduce"
  type: "Convolution"
  bottom: "inception_4d/output"
  top: "inception_4e/5x5_reduce"
  param {
    lr_mult: 1
    decay_mult: 1
  }
  param {
    lr_mult: 2
    decay_mult: 0
  }
  convolution_param {
    num_output: 32
    kernel_size: 1
    weight_filler {
      type: "xavier"
      std: 0.2
    }
    bias_filler {
      type: "constant"
      value: 0.2
    }
  }
}
layer {
  name: "inception_4e/relu_5x5_reduce"
  type: "ReLU"
  bottom: "inception_4e/5x5_reduce"
  top: "inception_4e/5x5_reduce"
}
layer {
  name: "inception_4e/5x5"
  type: "Convolution"
  bottom: "inception_4e/5x5_reduce"
  top: "inception_4e/5x5"
  p
I0403 16:43:28.897467 21380 layer_factory.hpp:77] Creating layer data
I0403 16:43:28.898058 21380 net.cpp:91] Creating Layer data
I0403 16:43:28.898092 21380 net.cpp:399] data -> data
I0403 16:43:28.898140 21380 net.cpp:399] data -> label
I0403 16:43:28.898175 21380 data_transformer.cpp:25] Loading mean file from: /home/mohanty/data/final_dataset/lmdb/color-40-60/mean.binaryproto
I0403 16:43:28.899343 21383 db_lmdb.cpp:38] Opened lmdb /home/mohanty/data/final_dataset/lmdb/color-40-60/test_db
I0403 16:43:28.910773 21380 data_layer.cpp:41] output data size: 24,3,224,224
I0403 16:43:28.940573 21380 net.cpp:141] Setting up data
I0403 16:43:28.940659 21380 net.cpp:148] Top shape: 24 3 224 224 (3612672)
I0403 16:43:28.940683 21380 net.cpp:148] Top shape: 24 (24)
I0403 16:43:28.940698 21380 net.cpp:156] Memory required for data: 14450784
I0403 16:43:28.940726 21380 layer_factory.hpp:77] Creating layer label_data_1_split
I0403 16:43:28.940754 21380 net.cpp:91] Creating Layer label_data_1_split
I0403 16:43:28.940773 21380 net.cpp:425] label_data_1_split <- label
I0403 16:43:28.940805 21380 net.cpp:399] label_data_1_split -> label_data_1_split_0
I0403 16:43:28.940834 21380 net.cpp:399] label_data_1_split -> label_data_1_split_1
I0403 16:43:28.940855 21380 net.cpp:399] label_data_1_split -> label_data_1_split_2
I0403 16:43:28.940876 21380 net.cpp:399] label_data_1_split -> label_data_1_split_3
I0403 16:43:28.940894 21380 net.cpp:399] label_data_1_split -> label_data_1_split_4
I0403 16:43:28.940914 21380 net.cpp:399] label_data_1_split -> label_data_1_split_5
I0403 16:43:28.940934 21380 net.cpp:399] label_data_1_split -> label_data_1_split_6
I0403 16:43:28.940958 21380 net.cpp:399] label_data_1_split -> label_data_1_split_7
I0403 16:43:28.940979 21380 net.cpp:399] label_data_1_split -> label_data_1_split_8
I0403 16:43:28.941000 21380 net.cpp:399] label_data_1_split -> label_data_1_split_9
I0403 16:43:28.941118 21380 net.cpp:141] Setting up label_data_1_split
I0403 16:43:28.941143 21380 net.cpp:148] Top shape: 24 (24)
I0403 16:43:28.941159 21380 net.cpp:148] Top shape: 24 (24)
I0403 16:43:28.941175 21380 net.cpp:148] Top shape: 24 (24)
I0403 16:43:28.941191 21380 net.cpp:148] Top shape: 24 (24)
I0403 16:43:28.941207 21380 net.cpp:148] Top shape: 24 (24)
I0403 16:43:28.941222 21380 net.cpp:148] Top shape: 24 (24)
I0403 16:43:28.941238 21380 net.cpp:148] Top shape: 24 (24)
I0403 16:43:28.941254 21380 net.cpp:148] Top shape: 24 (24)
I0403 16:43:28.941270 21380 net.cpp:148] Top shape: 24 (24)
I0403 16:43:28.941287 21380 net.cpp:148] Top shape: 24 (24)
I0403 16:43:28.941321 21380 net.cpp:156] Memory required for data: 14451744
I0403 16:43:28.941337 21380 layer_factory.hpp:77] Creating layer conv1/7x7_s2
I0403 16:43:28.941370 21380 net.cpp:91] Creating Layer conv1/7x7_s2
I0403 16:43:28.941387 21380 net.cpp:425] conv1/7x7_s2 <- data
I0403 16:43:28.941407 21380 net.cpp:399] conv1/7x7_s2 -> conv1/7x7_s2
I0403 16:43:29.082298 21380 net.cpp:141] Setting up conv1/7x7_s2
I0403 16:43:29.082386 21380 net.cpp:148] Top shape: 24 64 112 112 (19267584)
I0403 16:43:29.082403 21380 net.cpp:156] Memory required for data: 91522080
I0403 16:43:29.082433 21380 layer_factory.hpp:77] Creating layer conv1/relu_7x7
I0403 16:43:29.082459 21380 net.cpp:91] Creating Layer conv1/relu_7x7
I0403 16:43:29.082478 21380 net.cpp:425] conv1/relu_7x7 <- conv1/7x7_s2
I0403 16:43:29.082495 21380 net.cpp:386] conv1/relu_7x7 -> conv1/7x7_s2 (in-place)
I0403 16:43:29.082751 21380 net.cpp:141] Setting up conv1/relu_7x7
I0403 16:43:29.082777 21380 net.cpp:148] Top shape: 24 64 112 112 (19267584)
I0403 16:43:29.082792 21380 net.cpp:156] Memory required for data: 168592416
I0403 16:43:29.082808 21380 layer_factory.hpp:77] Creating layer pool1/3x3_s2
I0403 16:43:29.082833 21380 net.cpp:91] Creating Layer pool1/3x3_s2
I0403 16:43:29.082849 21380 net.cpp:425] pool1/3x3_s2 <- conv1/7x7_s2
I0403 16:43:29.082867 21380 net.cpp:399] pool1/3x3_s2 -> pool1/3x3_s2
I0403 16:43:29.082939 21380 net.cpp:141] Setting up pool1/3x3_s2
I0403 16:43:29.082968 21380 net.cpp:148] Top shape: 24 64 56 56 (4816896)
I0403 16:43:29.082983 21380 net.cpp:156] Memory required for data: 187860000
I0403 16:43:29.082998 21380 layer_factory.hpp:77] Creating layer pool1/norm1
I0403 16:43:29.083021 21380 net.cpp:91] Creating Layer pool1/norm1
I0403 16:43:29.083039 21380 net.cpp:425] pool1/norm1 <- pool1/3x3_s2
I0403 16:43:29.083055 21380 net.cpp:399] pool1/norm1 -> pool1/norm1
I0403 16:43:29.083369 21380 net.cpp:141] Setting up pool1/norm1
I0403 16:43:29.083397 21380 net.cpp:148] Top shape: 24 64 56 56 (4816896)
I0403 16:43:29.083415 21380 net.cpp:156] Memory required for data: 207127584
I0403 16:43:29.083431 21380 layer_factory.hpp:77] Creating layer conv2/3x3_reduce
I0403 16:43:29.083456 21380 net.cpp:91] Creating Layer conv2/3x3_reduce
I0403 16:43:29.083473 21380 net.cpp:425] conv2/3x3_reduce <- pool1/norm1
I0403 16:43:29.083492 21380 net.cpp:399] conv2/3x3_reduce -> conv2/3x3_reduce
I0403 16:43:29.084867 21380 net.cpp:141] Setting up conv2/3x3_reduce
I0403 16:43:29.084918 21380 net.cpp:148] Top shape: 24 64 56 56 (4816896)
I0403 16:43:29.084939 21380 net.cpp:156] Memory required for data: 226395168
I0403 16:43:29.084965 21380 layer_factory.hpp:77] Creating layer conv2/relu_3x3_reduce
I0403 16:43:29.084990 21380 net.cpp:91] Creating Layer conv2/relu_3x3_reduce
I0403 16:43:29.085007 21380 net.cpp:425] conv2/relu_3x3_reduce <- conv2/3x3_reduce
I0403 16:43:29.085026 21380 net.cpp:386] conv2/relu_3x3_reduce -> conv2/3x3_reduce (in-place)
I0403 16:43:29.085306 21380 net.cpp:141] Setting up conv2/relu_3x3_reduce
I0403 16:43:29.085335 21380 net.cpp:148] Top shape: 24 64 56 56 (4816896)
I0403 16:43:29.085350 21380 net.cpp:156] Memory required for data: 245662752
I0403 16:43:29.085366 21380 layer_factory.hpp:77] Creating layer conv2/3x3
I0403 16:43:29.085391 21380 net.cpp:91] Creating Layer conv2/3x3
I0403 16:43:29.085408 21380 net.cpp:425] conv2/3x3 <- conv2/3x3_reduce
I0403 16:43:29.085429 21380 net.cpp:399] conv2/3x3 -> conv2/3x3
I0403 16:43:29.087767 21380 net.cpp:141] Setting up conv2/3x3
I0403 16:43:29.087798 21380 net.cpp:148] Top shape: 24 192 56 56 (14450688)
I0403 16:43:29.087815 21380 net.cpp:156] Memory required for data: 303465504
I0403 16:43:29.087839 21380 layer_factory.hpp:77] Creating layer conv2/relu_3x3
I0403 16:43:29.087860 21380 net.cpp:91] Creating Layer conv2/relu_3x3
I0403 16:43:29.087877 21380 net.cpp:425] conv2/relu_3x3 <- conv2/3x3
I0403 16:43:29.087894 21380 net.cpp:386] conv2/relu_3x3 -> conv2/3x3 (in-place)
I0403 16:43:29.088075 21380 net.cpp:141] Setting up conv2/relu_3x3
I0403 16:43:29.088104 21380 net.cpp:148] Top shape: 24 192 56 56 (14450688)
I0403 16:43:29.088150 21380 net.cpp:156] Memory required for data: 361268256
I0403 16:43:29.088167 21380 layer_factory.hpp:77] Creating layer conv2/norm2
I0403 16:43:29.088186 21380 net.cpp:91] Creating Layer conv2/norm2
I0403 16:43:29.088201 21380 net.cpp:425] conv2/norm2 <- conv2/3x3
I0403 16:43:29.088222 21380 net.cpp:399] conv2/norm2 -> conv2/norm2
I0403 16:43:29.088533 21380 net.cpp:141] Setting up conv2/norm2
I0403 16:43:29.088562 21380 net.cpp:148] Top shape: 24 192 56 56 (14450688)
I0403 16:43:29.088577 21380 net.cpp:156] Memory required for data: 419071008
I0403 16:43:29.088593 21380 layer_factory.hpp:77] Creating layer pool2/3x3_s2
I0403 16:43:29.088611 21380 net.cpp:91] Creating Layer pool2/3x3_s2
I0403 16:43:29.088629 21380 net.cpp:425] pool2/3x3_s2 <- conv2/norm2
I0403 16:43:29.088649 21380 net.cpp:399] pool2/3x3_s2 -> pool2/3x3_s2
I0403 16:43:29.088701 21380 net.cpp:141] Setting up pool2/3x3_s2
I0403 16:43:29.088726 21380 net.cpp:148] Top shape: 24 192 28 28 (3612672)
I0403 16:43:29.088740 21380 net.cpp:156] Memory required for data: 433521696
I0403 16:43:29.088755 21380 layer_factory.hpp:77] Creating layer pool2/3x3_s2_pool2/3x3_s2_0_split
I0403 16:43:29.088774 21380 net.cpp:91] Creating Layer pool2/3x3_s2_pool2/3x3_s2_0_split
I0403 16:43:29.088789 21380 net.cpp:425] pool2/3x3_s2_pool2/3x3_s2_0_split <- pool2/3x3_s2
I0403 16:43:29.088805 21380 net.cpp:399] pool2/3x3_s2_pool2/3x3_s2_0_split -> pool2/3x3_s2_pool2/3x3_s2_0_split_0
I0403 16:43:29.088827 21380 net.cpp:399] pool2/3x3_s2_pool2/3x3_s2_0_split -> pool2/3x3_s2_pool2/3x3_s2_0_split_1
I0403 16:43:29.088847 21380 net.cpp:399] pool2/3x3_s2_pool2/3x3_s2_0_split -> pool2/3x3_s2_pool2/3x3_s2_0_split_2
I0403 16:43:29.088866 21380 net.cpp:399] pool2/3x3_s2_pool2/3x3_s2_0_split -> pool2/3x3_s2_pool2/3x3_s2_0_split_3
I0403 16:43:29.088937 21380 net.cpp:141] Setting up pool2/3x3_s2_pool2/3x3_s2_0_split
I0403 16:43:29.088970 21380 net.cpp:148] Top shape: 24 192 28 28 (3612672)
I0403 16:43:29.088989 21380 net.cpp:148] Top shape: 24 192 28 28 (3612672)
I0403 16:43:29.089005 21380 net.cpp:148] Top shape: 24 192 28 28 (3612672)
I0403 16:43:29.089020 21380 net.cpp:148] Top shape: 24 192 28 28 (3612672)
I0403 16:43:29.089033 21380 net.cpp:156] Memory required for data: 491324448
I0403 16:43:29.089048 21380 layer_factory.hpp:77] Creating layer inception_3a/1x1
I0403 16:43:29.089071 21380 net.cpp:91] Creating Layer inception_3a/1x1
I0403 16:43:29.089088 21380 net.cpp:425] inception_3a/1x1 <- pool2/3x3_s2_pool2/3x3_s2_0_split_0
I0403 16:43:29.089119 21380 net.cpp:399] inception_3a/1x1 -> inception_3a/1x1
I0403 16:43:29.090592 21380 net.cpp:141] Setting up inception_3a/1x1
I0403 16:43:29.090621 21380 net.cpp:148] Top shape: 24 64 28 28 (1204224)
I0403 16:43:29.090637 21380 net.cpp:156] Memory required for data: 496141344
I0403 16:43:29.090656 21380 layer_factory.hpp:77] Creating layer inception_3a/relu_1x1
I0403 16:43:29.090675 21380 net.cpp:91] Creating Layer inception_3a/relu_1x1
I0403 16:43:29.090692 21380 net.cpp:425] inception_3a/relu_1x1 <- inception_3a/1x1
I0403 16:43:29.090708 21380 net.cpp:386] inception_3a/relu_1x1 -> inception_3a/1x1 (in-place)
I0403 16:43:29.090875 21380 net.cpp:141] Setting up inception_3a/relu_1x1
I0403 16:43:29.090901 21380 net.cpp:148] Top shape: 24 64 28 28 (1204224)
I0403 16:43:29.090916 21380 net.cpp:156] Memory required for data: 500958240
I0403 16:43:29.090930 21380 layer_factory.hpp:77] Creating layer inception_3a/3x3_reduce
I0403 16:43:29.090950 21380 net.cpp:91] Creating Layer inception_3a/3x3_reduce
I0403 16:43:29.090970 21380 net.cpp:425] inception_3a/3x3_reduce <- pool2/3x3_s2_pool2/3x3_s2_0_split_1
I0403 16:43:29.090991 21380 net.cpp:399] inception_3a/3x3_reduce -> inception_3a/3x3_reduce
I0403 16:43:29.092610 21380 net.cpp:141] Setting up inception_3a/3x3_reduce
I0403 16:43:29.092639 21380 net.cpp:148] Top shape: 24 96 28 28 (1806336)
I0403 16:43:29.092656 21380 net.cpp:156] Memory required for data: 508183584
I0403 16:43:29.092682 21380 layer_factory.hpp:77] Creating layer inception_3a/relu_3x3_reduce
I0403 16:43:29.092715 21380 net.cpp:91] Creating Layer inception_3a/relu_3x3_reduce
I0403 16:43:29.092732 21380 net.cpp:425] inception_3a/relu_3x3_reduce <- inception_3a/3x3_reduce
I0403 16:43:29.092749 21380 net.cpp:386] inception_3a/relu_3x3_reduce -> inception_3a/3x3_reduce (in-place)
I0403 16:43:29.092923 21380 net.cpp:141] Setting up inception_3a/relu_3x3_reduce
I0403 16:43:29.092948 21380 net.cpp:148] Top shape: 24 96 28 28 (1806336)
I0403 16:43:29.092967 21380 net.cpp:156] Memory required for data: 515408928
I0403 16:43:29.092983 21380 layer_factory.hpp:77] Creating layer inception_3a/3x3
I0403 16:43:29.093005 21380 net.cpp:91] Creating Layer inception_3a/3x3
I0403 16:43:29.093022 21380 net.cpp:425] inception_3a/3x3 <- inception_3a/3x3_reduce
I0403 16:43:29.093042 21380 net.cpp:399] inception_3a/3x3 -> inception_3a/3x3
I0403 16:43:29.094655 21380 net.cpp:141] Setting up inception_3a/3x3
I0403 16:43:29.094684 21380 net.cpp:148] Top shape: 24 128 28 28 (2408448)
I0403 16:43:29.094701 21380 net.cpp:156] Memory required for data: 525042720
I0403 16:43:29.094719 21380 layer_factory.hpp:77] Creating layer inception_3a/relu_3x3
I0403 16:43:29.094739 21380 net.cpp:91] Creating Layer inception_3a/relu_3x3
I0403 16:43:29.094756 21380 net.cpp:425] inception_3a/relu_3x3 <- inception_3a/3x3
I0403 16:43:29.094774 21380 net.cpp:386] inception_3a/relu_3x3 -> inception_3a/3x3 (in-place)
I0403 16:43:29.095046 21380 net.cpp:141] Setting up inception_3a/relu_3x3
I0403 16:43:29.095072 21380 net.cpp:148] Top shape: 24 128 28 28 (2408448)
I0403 16:43:29.095087 21380 net.cpp:156] Memory required for data: 534676512
I0403 16:43:29.095100 21380 layer_factory.hpp:77] Creating layer inception_3a/5x5_reduce
I0403 16:43:29.095123 21380 net.cpp:91] Creating Layer inception_3a/5x5_reduce
I0403 16:43:29.095139 21380 net.cpp:425] inception_3a/5x5_reduce <- pool2/3x3_s2_pool2/3x3_s2_0_split_2
I0403 16:43:29.095160 21380 net.cpp:399] inception_3a/5x5_reduce -> inception_3a/5x5_reduce
I0403 16:43:29.096094 21380 net.cpp:141] Setting up inception_3a/5x5_reduce
I0403 16:43:29.096122 21380 net.cpp:148] Top shape: 24 16 28 28 (301056)
I0403 16:43:29.096137 21380 net.cpp:156] Memory required for data: 535880736
I0403 16:43:29.096153 21380 layer_factory.hpp:77] Creating layer inception_3a/relu_5x5_reduce
I0403 16:43:29.096174 21380 net.cpp:91] Creating Layer inception_3a/relu_5x5_reduce
I0403 16:43:29.096190 21380 net.cpp:425] inception_3a/relu_5x5_reduce <- inception_3a/5x5_reduce
I0403 16:43:29.096207 21380 net.cpp:386] inception_3a/relu_5x5_reduce -> inception_3a/5x5_reduce (in-place)
I0403 16:43:29.096498 21380 net.cpp:141] Setting up inception_3a/relu_5x5_reduce
I0403 16:43:29.096524 21380 net.cpp:148] Top shape: 24 16 28 28 (301056)
I0403 16:43:29.096541 21380 net.cpp:156] Memory required for data: 537084960
I0403 16:43:29.096555 21380 layer_factory.hpp:77] Creating layer inception_3a/5x5
I0403 16:43:29.096577 21380 net.cpp:91] Creating Layer inception_3a/5x5
I0403 16:43:29.096595 21380 net.cpp:425] inception_3a/5x5 <- inception_3a/5x5_reduce
I0403 16:43:29.096612 21380 net.cpp:399] inception_3a/5x5 -> inception_3a/5x5
I0403 16:43:29.097591 21380 net.cpp:141] Setting up inception_3a/5x5
I0403 16:43:29.097617 21380 net.cpp:148] Top shape: 24 32 28 28 (602112)
I0403 16:43:29.097632 21380 net.cpp:156] Memory required for data: 539493408
I0403 16:43:29.097653 21380 layer_factory.hpp:77] Creating layer inception_3a/relu_5x5
I0403 16:43:29.097677 21380 net.cpp:91] Creating Layer inception_3a/relu_5x5
I0403 16:43:29.097694 21380 net.cpp:425] inception_3a/relu_5x5 <- inception_3a/5x5
I0403 16:43:29.097712 21380 net.cpp:386] inception_3a/relu_5x5 -> inception_3a/5x5 (in-place)
I0403 16:43:29.097874 21380 net.cpp:141] Setting up inception_3a/relu_5x5
I0403 16:43:29.097901 21380 net.cpp:148] Top shape: 24 32 28 28 (602112)
I0403 16:43:29.097916 21380 net.cpp:156] Memory required for data: 541901856
I0403 16:43:29.097930 21380 layer_factory.hpp:77] Creating layer inception_3a/pool
I0403 16:43:29.097947 21380 net.cpp:91] Creating Layer inception_3a/pool
I0403 16:43:29.097968 21380 net.cpp:425] inception_3a/pool <- pool2/3x3_s2_pool2/3x3_s2_0_split_3
I0403 16:43:29.098001 21380 net.cpp:399] inception_3a/pool -> inception_3a/pool
I0403 16:43:29.098058 21380 net.cpp:141] Setting up inception_3a/pool
I0403 16:43:29.098080 21380 net.cpp:148] Top shape: 24 192 28 28 (3612672)
I0403 16:43:29.098095 21380 net.cpp:156] Memory required for data: 556352544
I0403 16:43:29.098114 21380 layer_factory.hpp:77] Creating layer inception_3a/pool_proj
I0403 16:43:29.098145 21380 net.cpp:91] Creating Layer inception_3a/pool_proj
I0403 16:43:29.098165 21380 net.cpp:425] inception_3a/pool_proj <- inception_3a/pool
I0403 16:43:29.098191 21380 net.cpp:399] inception_3a/pool_proj -> inception_3a/pool_proj
I0403 16:43:29.099201 21380 net.cpp:141] Setting up inception_3a/pool_proj
I0403 16:43:29.099230 21380 net.cpp:148] Top shape: 24 32 28 28 (602112)
I0403 16:43:29.099246 21380 net.cpp:156] Memory required for data: 558760992
I0403 16:43:29.099268 21380 layer_factory.hpp:77] Creating layer inception_3a/relu_pool_proj
I0403 16:43:29.099289 21380 net.cpp:91] Creating Layer inception_3a/relu_pool_proj
I0403 16:43:29.099306 21380 net.cpp:425] inception_3a/relu_pool_proj <- inception_3a/pool_proj
I0403 16:43:29.099323 21380 net.cpp:386] inception_3a/relu_pool_proj -> inception_3a/pool_proj (in-place)
I0403 16:43:29.099596 21380 net.cpp:141] Setting up inception_3a/relu_pool_proj
I0403 16:43:29.099623 21380 net.cpp:148] Top shape: 24 32 28 28 (602112)
I0403 16:43:29.099638 21380 net.cpp:156] Memory required for data: 561169440
I0403 16:43:29.099653 21380 layer_factory.hpp:77] Creating layer inception_3a/output
I0403 16:43:29.099673 21380 net.cpp:91] Creating Layer inception_3a/output
I0403 16:43:29.099689 21380 net.cpp:425] inception_3a/output <- inception_3a/1x1
I0403 16:43:29.099705 21380 net.cpp:425] inception_3a/output <- inception_3a/3x3
I0403 16:43:29.099721 21380 net.cpp:425] inception_3a/output <- inception_3a/5x5
I0403 16:43:29.099737 21380 net.cpp:425] inception_3a/output <- inception_3a/pool_proj
I0403 16:43:29.099753 21380 net.cpp:399] inception_3a/output -> inception_3a/output
I0403 16:43:29.099802 21380 net.cpp:141] Setting up inception_3a/output
I0403 16:43:29.099824 21380 net.cpp:148] Top shape: 24 256 28 28 (4816896)
I0403 16:43:29.099839 21380 net.cpp:156] Memory required for data: 580437024
I0403 16:43:29.099853 21380 layer_factory.hpp:77] Creating layer inception_3a/output_inception_3a/output_0_split
I0403 16:43:29.099870 21380 net.cpp:91] Creating Layer inception_3a/output_inception_3a/output_0_split
I0403 16:43:29.099885 21380 net.cpp:425] inception_3a/output_inception_3a/output_0_split <- inception_3a/output
I0403 16:43:29.099905 21380 net.cpp:399] inception_3a/output_inception_3a/output_0_split -> inception_3a/output_inception_3a/output_0_split_0
I0403 16:43:29.099925 21380 net.cpp:399] inception_3a/output_inception_3a/output_0_split -> inception_3a/output_inception_3a/output_0_split_1
I0403 16:43:29.099951 21380 net.cpp:399] inception_3a/output_inception_3a/output_0_split -> inception_3a/output_inception_3a/output_0_split_2
I0403 16:43:29.099977 21380 net.cpp:399] inception_3a/output_inception_3a/output_0_split -> inception_3a/output_inception_3a/output_0_split_3
I0403 16:43:29.100051 21380 net.cpp:141] Setting up inception_3a/output_inception_3a/output_0_split
I0403 16:43:29.100075 21380 net.cpp:148] Top shape: 24 256 28 28 (4816896)
I0403 16:43:29.100090 21380 net.cpp:148] Top shape: 24 256 28 28 (4816896)
I0403 16:43:29.100106 21380 net.cpp:148] Top shape: 24 256 28 28 (4816896)
I0403 16:43:29.100121 21380 net.cpp:148] Top shape: 24 256 28 28 (4816896)
I0403 16:43:29.100136 21380 net.cpp:156] Memory required for data: 657507360
I0403 16:43:29.100149 21380 layer_factory.hpp:77] Creating layer inception_3b/1x1
I0403 16:43:29.100172 21380 net.cpp:91] Creating Layer inception_3b/1x1
I0403 16:43:29.100188 21380 net.cpp:425] inception_3b/1x1 <- inception_3a/output_inception_3a/output_0_split_0
I0403 16:43:29.100209 21380 net.cpp:399] inception_3b/1x1 -> inception_3b/1x1
I0403 16:43:29.101332 21380 net.cpp:141] Setting up inception_3b/1x1
I0403 16:43:29.101372 21380 net.cpp:148] Top shape: 24 128 28 28 (2408448)
I0403 16:43:29.101387 21380 net.cpp:156] Memory required for data: 667141152
I0403 16:43:29.101407 21380 layer_factory.hpp:77] Creating layer inception_3b/relu_1x1
I0403 16:43:29.101428 21380 net.cpp:91] Creating Layer inception_3b/relu_1x1
I0403 16:43:29.101445 21380 net.cpp:425] inception_3b/relu_1x1 <- inception_3b/1x1
I0403 16:43:29.101462 21380 net.cpp:386] inception_3b/relu_1x1 -> inception_3b/1x1 (in-place)
I0403 16:43:29.101634 21380 net.cpp:141] Setting up inception_3b/relu_1x1
I0403 16:43:29.101660 21380 net.cpp:148] Top shape: 24 128 28 28 (2408448)
I0403 16:43:29.101675 21380 net.cpp:156] Memory required for data: 676774944
I0403 16:43:29.101691 21380 layer_factory.hpp:77] Creating layer inception_3b/3x3_reduce
I0403 16:43:29.101712 21380 net.cpp:91] Creating Layer inception_3b/3x3_reduce
I0403 16:43:29.101732 21380 net.cpp:425] inception_3b/3x3_reduce <- inception_3a/output_inception_3a/output_0_split_1
I0403 16:43:29.101752 21380 net.cpp:399] inception_3b/3x3_reduce -> inception_3b/3x3_reduce
I0403 16:43:29.102879 21380 net.cpp:141] Setting up inception_3b/3x3_reduce
I0403 16:43:29.102905 21380 net.cpp:148] Top shape: 24 128 28 28 (2408448)
I0403 16:43:29.102921 21380 net.cpp:156] Memory required for data: 686408736
I0403 16:43:29.102941 21380 layer_factory.hpp:77] Creating layer inception_3b/relu_3x3_reduce
I0403 16:43:29.102962 21380 net.cpp:91] Creating Layer inception_3b/relu_3x3_reduce
I0403 16:43:29.102979 21380 net.cpp:425] inception_3b/relu_3x3_reduce <- inception_3b/3x3_reduce
I0403 16:43:29.102999 21380 net.cpp:386] inception_3b/relu_3x3_reduce -> inception_3b/3x3_reduce (in-place)
I0403 16:43:29.103171 21380 net.cpp:141] Setting up inception_3b/relu_3x3_reduce
I0403 16:43:29.103196 21380 net.cpp:148] Top shape: 24 128 28 28 (2408448)
I0403 16:43:29.103211 21380 net.cpp:156] Memory required for data: 696042528
I0403 16:43:29.103240 21380 layer_factory.hpp:77] Creating layer inception_3b/3x3
I0403 16:43:29.103266 21380 net.cpp:91] Creating Layer inception_3b/3x3
I0403 16:43:29.103284 21380 net.cpp:425] inception_3b/3x3 <- inception_3b/3x3_reduce
I0403 16:43:29.103307 21380 net.cpp:399] inception_3b/3x3 -> inception_3b/3x3
I0403 16:43:29.106199 21380 net.cpp:141] Setting up inception_3b/3x3
I0403 16:43:29.106230 21380 net.cpp:148] Top shape: 24 192 28 28 (3612672)
I0403 16:43:29.106247 21380 net.cpp:156] Memory required for data: 710493216
I0403 16:43:29.106266 21380 layer_factory.hpp:77] Creating layer inception_3b/relu_3x3
I0403 16:43:29.106287 21380 net.cpp:91] Creating Layer inception_3b/relu_3x3
I0403 16:43:29.106303 21380 net.cpp:425] inception_3b/relu_3x3 <- inception_3b/3x3
I0403 16:43:29.106320 21380 net.cpp:386] inception_3b/relu_3x3 -> inception_3b/3x3 (in-place)
I0403 16:43:29.106595 21380 net.cpp:141] Setting up inception_3b/relu_3x3
I0403 16:43:29.106621 21380 net.cpp:148] Top shape: 24 192 28 28 (3612672)
I0403 16:43:29.106636 21380 net.cpp:156] Memory required for data: 724943904
I0403 16:43:29.106649 21380 layer_factory.hpp:77] Creating layer inception_3b/5x5_reduce
I0403 16:43:29.106673 21380 net.cpp:91] Creating Layer inception_3b/5x5_reduce
I0403 16:43:29.106690 21380 net.cpp:425] inception_3b/5x5_reduce <- inception_3a/output_inception_3a/output_0_split_2
I0403 16:43:29.106712 21380 net.cpp:399] inception_3b/5x5_reduce -> inception_3b/5x5_reduce
I0403 16:43:29.107693 21380 net.cpp:141] Setting up inception_3b/5x5_reduce
I0403 16:43:29.107722 21380 net.cpp:148] Top shape: 24 32 28 28 (602112)
I0403 16:43:29.107738 21380 net.cpp:156] Memory required for data: 727352352
I0403 16:43:29.107756 21380 layer_factory.hpp:77] Creating layer inception_3b/relu_5x5_reduce
I0403 16:43:29.107777 21380 net.cpp:91] Creating Layer inception_3b/relu_5x5_reduce
I0403 16:43:29.107796 21380 net.cpp:425] inception_3b/relu_5x5_reduce <- inception_3b/5x5_reduce
I0403 16:43:29.107815 21380 net.cpp:386] inception_3b/relu_5x5_reduce -> inception_3b/5x5_reduce (in-place)
I0403 16:43:29.107992 21380 net.cpp:141] Setting up inception_3b/relu_5x5_reduce
I0403 16:43:29.108032 21380 net.cpp:148] Top shape: 24 32 28 28 (602112)
I0403 16:43:29.108050 21380 net.cpp:156] Memory required for data: 729760800
I0403 16:43:29.108067 21380 layer_factory.hpp:77] Creating layer inception_3b/5x5
I0403 16:43:29.108089 21380 net.cpp:91] Creating Layer inception_3b/5x5
I0403 16:43:29.108106 21380 net.cpp:425] inception_3b/5x5 <- inception_3b/5x5_reduce
I0403 16:43:29.108125 21380 net.cpp:399] inception_3b/5x5 -> inception_3b/5x5
I0403 16:43:29.110183 21380 net.cpp:141] Setting up inception_3b/5x5
I0403 16:43:29.110213 21380 net.cpp:148] Top shape: 24 96 28 28 (1806336)
I0403 16:43:29.110229 21380 net.cpp:156] Memory required for data: 736986144
I0403 16:43:29.110249 21380 layer_factory.hpp:77] Creating layer inception_3b/relu_5x5
I0403 16:43:29.110268 21380 net.cpp:91] Creating Layer inception_3b/relu_5x5
I0403 16:43:29.110285 21380 net.cpp:425] inception_3b/relu_5x5 <- inception_3b/5x5
I0403 16:43:29.110304 21380 net.cpp:386] inception_3b/relu_5x5 -> inception_3b/5x5 (in-place)
I0403 16:43:29.110496 21380 net.cpp:141] Setting up inception_3b/relu_5x5
I0403 16:43:29.110523 21380 net.cpp:148] Top shape: 24 96 28 28 (1806336)
I0403 16:43:29.110538 21380 net.cpp:156] Memory required for data: 744211488
I0403 16:43:29.110553 21380 layer_factory.hpp:77] Creating layer inception_3b/pool
I0403 16:43:29.110570 21380 net.cpp:91] Creating Layer inception_3b/pool
I0403 16:43:29.110587 21380 net.cpp:425] inception_3b/pool <- inception_3a/output_inception_3a/output_0_split_3
I0403 16:43:29.110606 21380 net.cpp:399] inception_3b/pool -> inception_3b/pool
I0403 16:43:29.110663 21380 net.cpp:141] Setting up inception_3b/pool
I0403 16:43:29.110687 21380 net.cpp:148] Top shape: 24 256 28 28 (4816896)
I0403 16:43:29.110702 21380 net.cpp:156] Memory required for data: 763479072
I0403 16:43:29.110716 21380 layer_factory.hpp:77] Creating layer inception_3b/pool_proj
I0403 16:43:29.110739 21380 net.cpp:91] Creating Layer inception_3b/pool_proj
I0403 16:43:29.110757 21380 net.cpp:425] inception_3b/pool_proj <- inception_3b/pool
I0403 16:43:29.110779 21380 net.cpp:399] inception_3b/pool_proj -> inception_3b/pool_proj
I0403 16:43:29.111830 21380 net.cpp:141] Setting up inception_3b/pool_proj
I0403 16:43:29.111861 21380 net.cpp:148] Top shape: 24 64 28 28 (1204224)
I0403 16:43:29.111877 21380 net.cpp:156] Memory required for data: 768295968
I0403 16:43:29.111896 21380 layer_factory.hpp:77] Creating layer inception_3b/relu_pool_proj
I0403 16:43:29.111914 21380 net.cpp:91] Creating Layer inception_3b/relu_pool_proj
I0403 16:43:29.111929 21380 net.cpp:425] inception_3b/relu_pool_proj <- inception_3b/pool_proj
I0403 16:43:29.111948 21380 net.cpp:386] inception_3b/relu_pool_proj -> inception_3b/pool_proj (in-place)
I0403 16:43:29.112349 21380 net.cpp:141] Setting up inception_3b/relu_pool_proj
I0403 16:43:29.112377 21380 net.cpp:148] Top shape: 24 64 28 28 (1204224)
I0403 16:43:29.112393 21380 net.cpp:156] Memory required for data: 773112864
I0403 16:43:29.112408 21380 layer_factory.hpp:77] Creating layer inception_3b/output
I0403 16:43:29.112427 21380 net.cpp:91] Creating Layer inception_3b/output
I0403 16:43:29.112444 21380 net.cpp:425] inception_3b/output <- inception_3b/1x1
I0403 16:43:29.112462 21380 net.cpp:425] inception_3b/output <- inception_3b/3x3
I0403 16:43:29.112478 21380 net.cpp:425] inception_3b/output <- inception_3b/5x5
I0403 16:43:29.112493 21380 net.cpp:425] inception_3b/output <- inception_3b/pool_proj
I0403 16:43:29.112509 21380 net.cpp:399] inception_3b/output -> inception_3b/output
I0403 16:43:29.112555 21380 net.cpp:141] Setting up inception_3b/output
I0403 16:43:29.112578 21380 net.cpp:148] Top shape: 24 480 28 28 (9031680)
I0403 16:43:29.112592 21380 net.cpp:156] Memory required for data: 809239584
I0403 16:43:29.112607 21380 layer_factory.hpp:77] Creating layer pool3/3x3_s2
I0403 16:43:29.112630 21380 net.cpp:91] Creating Layer pool3/3x3_s2
I0403 16:43:29.112648 21380 net.cpp:425] pool3/3x3_s2 <- inception_3b/output
I0403 16:43:29.112664 21380 net.cpp:399] pool3/3x3_s2 -> pool3/3x3_s2
I0403 16:43:29.112738 21380 net.cpp:141] Setting up pool3/3x3_s2
I0403 16:43:29.112762 21380 net.cpp:148] Top shape: 24 480 14 14 (2257920)
I0403 16:43:29.112777 21380 net.cpp:156] Memory required for data: 818271264
I0403 16:43:29.112792 21380 layer_factory.hpp:77] Creating layer pool3/3x3_s2_pool3/3x3_s2_0_split
I0403 16:43:29.112809 21380 net.cpp:91] Creating Layer pool3/3x3_s2_pool3/3x3_s2_0_split
I0403 16:43:29.112824 21380 net.cpp:425] pool3/3x3_s2_pool3/3x3_s2_0_split <- pool3/3x3_s2
I0403 16:43:29.112843 21380 net.cpp:399] pool3/3x3_s2_pool3/3x3_s2_0_split -> pool3/3x3_s2_pool3/3x3_s2_0_split_0
I0403 16:43:29.112864 21380 net.cpp:399] pool3/3x3_s2_pool3/3x3_s2_0_split -> pool3/3x3_s2_pool3/3x3_s2_0_split_1
I0403 16:43:29.112884 21380 net.cpp:399] pool3/3x3_s2_pool3/3x3_s2_0_split -> pool3/3x3_s2_pool3/3x3_s2_0_split_2
I0403 16:43:29.112902 21380 net.cpp:399] pool3/3x3_s2_pool3/3x3_s2_0_split -> pool3/3x3_s2_pool3/3x3_s2_0_split_3
I0403 16:43:29.112983 21380 net.cpp:141] Setting up pool3/3x3_s2_pool3/3x3_s2_0_split
I0403 16:43:29.113008 21380 net.cpp:148] Top shape: 24 480 14 14 (2257920)
I0403 16:43:29.113025 21380 net.cpp:148] Top shape: 24 480 14 14 (2257920)
I0403 16:43:29.113041 21380 net.cpp:148] Top shape: 24 480 14 14 (2257920)
I0403 16:43:29.113056 21380 net.cpp:148] Top shape: 24 480 14 14 (2257920)
I0403 16:43:29.113070 21380 net.cpp:156] Memory required for data: 854397984
I0403 16:43:29.113085 21380 layer_factory.hpp:77] Creating layer inception_4a/1x1
I0403 16:43:29.113108 21380 net.cpp:91] Creating Layer inception_4a/1x1
I0403 16:43:29.113126 21380 net.cpp:425] inception_4a/1x1 <- pool3/3x3_s2_pool3/3x3_s2_0_split_0
I0403 16:43:29.113144 21380 net.cpp:399] inception_4a/1x1 -> inception_4a/1x1
I0403 16:43:29.114812 21380 net.cpp:141] Setting up inception_4a/1x1
I0403 16:43:29.114841 21380 net.cpp:148] Top shape: 24 192 14 14 (903168)
I0403 16:43:29.114857 21380 net.cpp:156] Memory required for data: 858010656
I0403 16:43:29.114877 21380 layer_factory.hpp:77] Creating layer inception_4a/relu_1x1
I0403 16:43:29.114897 21380 net.cpp:91] Creating Layer inception_4a/relu_1x1
I0403 16:43:29.114912 21380 net.cpp:425] inception_4a/relu_1x1 <- inception_4a/1x1
I0403 16:43:29.114933 21380 net.cpp:386] inception_4a/relu_1x1 -> inception_4a/1x1 (in-place)
I0403 16:43:29.115113 21380 net.cpp:141] Setting up inception_4a/relu_1x1
I0403 16:43:29.115140 21380 net.cpp:148] Top shape: 24 192 14 14 (903168)
I0403 16:43:29.115155 21380 net.cpp:156] Memory required for data: 861623328
I0403 16:43:29.115170 21380 layer_factory.hpp:77] Creating layer inception_4a/3x3_reduce
I0403 16:43:29.115193 21380 net.cpp:91] Creating Layer inception_4a/3x3_reduce
I0403 16:43:29.115211 21380 net.cpp:425] inception_4a/3x3_reduce <- pool3/3x3_s2_pool3/3x3_s2_0_split_1
I0403 16:43:29.115232 21380 net.cpp:399] inception_4a/3x3_reduce -> inception_4a/3x3_reduce
I0403 16:43:29.116497 21380 net.cpp:141] Setting up inception_4a/3x3_reduce
I0403 16:43:29.116528 21380 net.cpp:148] Top shape: 24 96 14 14 (451584)
I0403 16:43:29.116544 21380 net.cpp:156] Memory required for data: 863429664
I0403 16:43:29.116571 21380 layer_factory.hpp:77] Creating layer inception_4a/relu_3x3_reduce
I0403 16:43:29.116593 21380 net.cpp:91] Creating Layer inception_4a/relu_3x3_reduce
I0403 16:43:29.116610 21380 net.cpp:425] inception_4a/relu_3x3_reduce <- inception_4a/3x3_reduce
I0403 16:43:29.116626 21380 net.cpp:386] inception_4a/relu_3x3_reduce -> inception_4a/3x3_reduce (in-place)
I0403 16:43:29.116803 21380 net.cpp:141] Setting up inception_4a/relu_3x3_reduce
I0403 16:43:29.116829 21380 net.cpp:148] Top shape: 24 96 14 14 (451584)
I0403 16:43:29.116845 21380 net.cpp:156] Memory required for data: 865236000
I0403 16:43:29.116861 21380 layer_factory.hpp:77] Creating layer inception_4a/3x3
I0403 16:43:29.116884 21380 net.cpp:91] Creating Layer inception_4a/3x3
I0403 16:43:29.116902 21380 net.cpp:425] inception_4a/3x3 <- inception_4a/3x3_reduce
I0403 16:43:29.116924 21380 net.cpp:399] inception_4a/3x3 -> inception_4a/3x3
I0403 16:43:29.119624 21380 net.cpp:141] Setting up inception_4a/3x3
I0403 16:43:29.119654 21380 net.cpp:148] Top shape: 24 208 14 14 (978432)
I0403 16:43:29.119670 21380 net.cpp:156] Memory required for data: 869149728
I0403 16:43:29.119689 21380 layer_factory.hpp:77] Creating layer inception_4a/relu_3x3
I0403 16:43:29.119707 21380 net.cpp:91] Creating Layer inception_4a/relu_3x3
I0403 16:43:29.119722 21380 net.cpp:425] inception_4a/relu_3x3 <- inception_4a/3x3
I0403 16:43:29.119742 21380 net.cpp:386] inception_4a/relu_3x3 -> inception_4a/3x3 (in-place)
I0403 16:43:29.120028 21380 net.cpp:141] Setting up inception_4a/relu_3x3
I0403 16:43:29.120054 21380 net.cpp:148] Top shape: 24 208 14 14 (978432)
I0403 16:43:29.120069 21380 net.cpp:156] Memory required for data: 873063456
I0403 16:43:29.120085 21380 layer_factory.hpp:77] Creating layer inception_4a/5x5_reduce
I0403 16:43:29.120106 21380 net.cpp:91] Creating Layer inception_4a/5x5_reduce
I0403 16:43:29.120124 21380 net.cpp:425] inception_4a/5x5_reduce <- pool3/3x3_s2_pool3/3x3_s2_0_split_2
I0403 16:43:29.120146 21380 net.cpp:399] inception_4a/5x5_reduce -> inception_4a/5x5_reduce
I0403 16:43:29.121191 21380 net.cpp:141] Setting up inception_4a/5x5_reduce
I0403 16:43:29.121218 21380 net.cpp:148] Top shape: 24 16 14 14 (75264)
I0403 16:43:29.121234 21380 net.cpp:156] Memory required for data: 873364512
I0403 16:43:29.121253 21380 layer_factory.hpp:77] Creating layer inception_4a/relu_5x5_reduce
I0403 16:43:29.121274 21380 net.cpp:91] Creating Layer inception_4a/relu_5x5_reduce
I0403 16:43:29.121302 21380 net.cpp:425] inception_4a/relu_5x5_reduce <- inception_4a/5x5_reduce
I0403 16:43:29.121320 21380 net.cpp:386] inception_4a/relu_5x5_reduce -> inception_4a/5x5_reduce (in-place)
I0403 16:43:29.121498 21380 net.cpp:141] Setting up inception_4a/relu_5x5_reduce
I0403 16:43:29.121526 21380 net.cpp:148] Top shape: 24 16 14 14 (75264)
I0403 16:43:29.121541 21380 net.cpp:156] Memory required for data: 873665568
I0403 16:43:29.121556 21380 layer_factory.hpp:77] Creating layer inception_4a/5x5
I0403 16:43:29.121579 21380 net.cpp:91] Creating Layer inception_4a/5x5
I0403 16:43:29.121598 21380 net.cpp:425] inception_4a/5x5 <- inception_4a/5x5_reduce
I0403 16:43:29.121616 21380 net.cpp:399] inception_4a/5x5 -> inception_4a/5x5
I0403 16:43:29.122700 21380 net.cpp:141] Setting up inception_4a/5x5
I0403 16:43:29.122730 21380 net.cpp:148] Top shape: 24 48 14 14 (225792)
I0403 16:43:29.122747 21380 net.cpp:156] Memory required for data: 874568736
I0403 16:43:29.122767 21380 layer_factory.hpp:77] Creating layer inception_4a/relu_5x5
I0403 16:43:29.122786 21380 net.cpp:91] Creating Layer inception_4a/relu_5x5
I0403 16:43:29.122802 21380 net.cpp:425] inception_4a/relu_5x5 <- inception_4a/5x5
I0403 16:43:29.122823 21380 net.cpp:386] inception_4a/relu_5x5 -> inception_4a/5x5 (in-place)
I0403 16:43:29.123006 21380 net.cpp:141] Setting up inception_4a/relu_5x5
I0403 16:43:29.123033 21380 net.cpp:148] Top shape: 24 48 14 14 (225792)
I0403 16:43:29.123047 21380 net.cpp:156] Memory required for data: 875471904
I0403 16:43:29.123062 21380 layer_factory.hpp:77] Creating layer inception_4a/pool
I0403 16:43:29.123080 21380 net.cpp:91] Creating Layer inception_4a/pool
I0403 16:43:29.123095 21380 net.cpp:425] inception_4a/pool <- pool3/3x3_s2_pool3/3x3_s2_0_split_3
I0403 16:43:29.123116 21380 net.cpp:399] inception_4a/pool -> inception_4a/pool
I0403 16:43:29.123178 21380 net.cpp:141] Setting up inception_4a/pool
I0403 16:43:29.123214 21380 net.cpp:148] Top shape: 24 480 14 14 (2257920)
I0403 16:43:29.123230 21380 net.cpp:156] Memory required for data: 884503584
I0403 16:43:29.123245 21380 layer_factory.hpp:77] Creating layer inception_4a/pool_proj
I0403 16:43:29.123282 21380 net.cpp:91] Creating Layer inception_4a/pool_proj
I0403 16:43:29.123301 21380 net.cpp:425] inception_4a/pool_proj <- inception_4a/pool
I0403 16:43:29.123320 21380 net.cpp:399] inception_4a/pool_proj -> inception_4a/pool_proj
I0403 16:43:29.124518 21380 net.cpp:141] Setting up inception_4a/pool_proj
I0403 16:43:29.124550 21380 net.cpp:148] Top shape: 24 64 14 14 (301056)
I0403 16:43:29.124582 21380 net.cpp:156] Memory required for data: 885707808
I0403 16:43:29.124601 21380 layer_factory.hpp:77] Creating layer inception_4a/relu_pool_proj
I0403 16:43:29.124620 21380 net.cpp:91] Creating Layer inception_4a/relu_pool_proj
I0403 16:43:29.124636 21380 net.cpp:425] inception_4a/relu_pool_proj <- inception_4a/pool_proj
I0403 16:43:29.124657 21380 net.cpp:386] inception_4a/relu_pool_proj -> inception_4a/pool_proj (in-place)
I0403 16:43:29.124948 21380 net.cpp:141] Setting up inception_4a/relu_pool_proj
I0403 16:43:29.124981 21380 net.cpp:148] Top shape: 24 64 14 14 (301056)
I0403 16:43:29.125000 21380 net.cpp:156] Memory required for data: 886912032
I0403 16:43:29.125015 21380 layer_factory.hpp:77] Creating layer inception_4a/output
I0403 16:43:29.125033 21380 net.cpp:91] Creating Layer inception_4a/output
I0403 16:43:29.125049 21380 net.cpp:425] inception_4a/output <- inception_4a/1x1
I0403 16:43:29.125066 21380 net.cpp:425] inception_4a/output <- inception_4a/3x3
I0403 16:43:29.125082 21380 net.cpp:425] inception_4a/output <- inception_4a/5x5
I0403 16:43:29.125099 21380 net.cpp:425] inception_4a/output <- inception_4a/pool_proj
I0403 16:43:29.125118 21380 net.cpp:399] inception_4a/output -> inception_4a/output
I0403 16:43:29.125164 21380 net.cpp:141] Setting up inception_4a/output
I0403 16:43:29.125188 21380 net.cpp:148] Top shape: 24 512 14 14 (2408448)
I0403 16:43:29.125203 21380 net.cpp:156] Memory required for data: 896545824
I0403 16:43:29.125218 21380 layer_factory.hpp:77] Creating layer inception_4a/output_inception_4a/output_0_split
I0403 16:43:29.125238 21380 net.cpp:91] Creating Layer inception_4a/output_inception_4a/output_0_split
I0403 16:43:29.125255 21380 net.cpp:425] inception_4a/output_inception_4a/output_0_split <- inception_4a/output
I0403 16:43:29.125274 21380 net.cpp:399] inception_4a/output_inception_4a/output_0_split -> inception_4a/output_inception_4a/output_0_split_0
I0403 16:43:29.125294 21380 net.cpp:399] inception_4a/output_inception_4a/output_0_split -> inception_4a/output_inception_4a/output_0_split_1
I0403 16:43:29.125319 21380 net.cpp:399] inception_4a/output_inception_4a/output_0_split -> inception_4a/output_inception_4a/output_0_split_2
I0403 16:43:29.125339 21380 net.cpp:399] inception_4a/output_inception_4a/output_0_split -> inception_4a/output_inception_4a/output_0_split_3
I0403 16:43:29.125357 21380 net.cpp:399] inception_4a/output_inception_4a/output_0_split -> inception_4a/output_inception_4a/output_0_split_4
I0403 16:43:29.125449 21380 net.cpp:141] Setting up inception_4a/output_inception_4a/output_0_split
I0403 16:43:29.125471 21380 net.cpp:148] Top shape: 24 512 14 14 (2408448)
I0403 16:43:29.125488 21380 net.cpp:148] Top shape: 24 512 14 14 (2408448)
I0403 16:43:29.125502 21380 net.cpp:148] Top shape: 24 512 14 14 (2408448)
I0403 16:43:29.125519 21380 net.cpp:148] Top shape: 24 512 14 14 (2408448)
I0403 16:43:29.125533 21380 net.cpp:148] Top shape: 24 512 14 14 (2408448)
I0403 16:43:29.125547 21380 net.cpp:156] Memory required for data: 944714784
I0403 16:43:29.125562 21380 layer_factory.hpp:77] Creating layer loss1/ave_pool
I0403 16:43:29.125582 21380 net.cpp:91] Creating Layer loss1/ave_pool
I0403 16:43:29.125599 21380 net.cpp:425] loss1/ave_pool <- inception_4a/output_inception_4a/output_0_split_0
I0403 16:43:29.125617 21380 net.cpp:399] loss1/ave_pool -> loss1/ave_pool
I0403 16:43:29.125823 21380 net.cpp:141] Setting up loss1/ave_pool
I0403 16:43:29.125850 21380 net.cpp:148] Top shape: 24 512 4 4 (196608)
I0403 16:43:29.125866 21380 net.cpp:156] Memory required for data: 945501216
I0403 16:43:29.125881 21380 layer_factory.hpp:77] Creating layer loss1/conv
I0403 16:43:29.125903 21380 net.cpp:91] Creating Layer loss1/conv
I0403 16:43:29.125921 21380 net.cpp:425] loss1/conv <- loss1/ave_pool
I0403 16:43:29.125939 21380 net.cpp:399] loss1/conv -> loss1/conv
I0403 16:43:29.127429 21380 net.cpp:141] Setting up loss1/conv
I0403 16:43:29.127457 21380 net.cpp:148] Top shape: 24 128 4 4 (49152)
I0403 16:43:29.127473 21380 net.cpp:156] Memory required for data: 945697824
I0403 16:43:29.127507 21380 layer_factory.hpp:77] Creating layer loss1/relu_conv
I0403 16:43:29.127534 21380 net.cpp:91] Creating Layer loss1/relu_conv
I0403 16:43:29.127553 21380 net.cpp:425] loss1/relu_conv <- loss1/conv
I0403 16:43:29.127573 21380 net.cpp:386] loss1/relu_conv -> loss1/conv (in-place)
I0403 16:43:29.127856 21380 net.cpp:141] Setting up loss1/relu_conv
I0403 16:43:29.127884 21380 net.cpp:148] Top shape: 24 128 4 4 (49152)
I0403 16:43:29.127898 21380 net.cpp:156] Memory required for data: 945894432
I0403 16:43:29.127914 21380 layer_factory.hpp:77] Creating layer loss1/fc
I0403 16:43:29.127940 21380 net.cpp:91] Creating Layer loss1/fc
I0403 16:43:29.127964 21380 net.cpp:425] loss1/fc <- loss1/conv
I0403 16:43:29.127982 21380 net.cpp:399] loss1/fc -> loss1/fc
I0403 16:43:29.145723 21380 net.cpp:141] Setting up loss1/fc
I0403 16:43:29.145772 21380 net.cpp:148] Top shape: 24 1024 (24576)
I0403 16:43:29.145788 21380 net.cpp:156] Memory required for data: 945992736
I0403 16:43:29.145807 21380 layer_factory.hpp:77] Creating layer loss1/relu_fc
I0403 16:43:29.145826 21380 net.cpp:91] Creating Layer loss1/relu_fc
I0403 16:43:29.145843 21380 net.cpp:425] loss1/relu_fc <- loss1/fc
I0403 16:43:29.145864 21380 net.cpp:386] loss1/relu_fc -> loss1/fc (in-place)
I0403 16:43:29.146062 21380 net.cpp:141] Setting up loss1/relu_fc
I0403 16:43:29.146090 21380 net.cpp:148] Top shape: 24 1024 (24576)
I0403 16:43:29.146105 21380 net.cpp:156] Memory required for data: 946091040
I0403 16:43:29.146119 21380 layer_factory.hpp:77] Creating layer loss1/drop_fc
I0403 16:43:29.146147 21380 net.cpp:91] Creating Layer loss1/drop_fc
I0403 16:43:29.146164 21380 net.cpp:425] loss1/drop_fc <- loss1/fc
I0403 16:43:29.146185 21380 net.cpp:386] loss1/drop_fc -> loss1/fc (in-place)
I0403 16:43:29.146250 21380 net.cpp:141] Setting up loss1/drop_fc
I0403 16:43:29.146276 21380 net.cpp:148] Top shape: 24 1024 (24576)
I0403 16:43:29.146292 21380 net.cpp:156] Memory required for data: 946189344
I0403 16:43:29.146306 21380 layer_factory.hpp:77] Creating layer loss1/classifier_plantvillage
I0403 16:43:29.146325 21380 net.cpp:91] Creating Layer loss1/classifier_plantvillage
I0403 16:43:29.146340 21380 net.cpp:425] loss1/classifier_plantvillage <- loss1/fc
I0403 16:43:29.146361 21380 net.cpp:399] loss1/classifier_plantvillage -> loss1/classifier_plantvillage
I0403 16:43:29.147269 21380 net.cpp:141] Setting up loss1/classifier_plantvillage
I0403 16:43:29.147295 21380 net.cpp:148] Top shape: 24 38 (912)
I0403 16:43:29.147310 21380 net.cpp:156] Memory required for data: 946192992
I0403 16:43:29.147326 21380 layer_factory.hpp:77] Creating layer loss1/classifier_plantvillage_loss1/classifier_plantvillage_0_split
I0403 16:43:29.147344 21380 net.cpp:91] Creating Layer loss1/classifier_plantvillage_loss1/classifier_plantvillage_0_split
I0403 16:43:29.147359 21380 net.cpp:425] loss1/classifier_plantvillage_loss1/classifier_plantvillage_0_split <- loss1/classifier_plantvillage
I0403 16:43:29.147378 21380 net.cpp:399] loss1/classifier_plantvillage_loss1/classifier_plantvillage_0_split -> loss1/classifier_plantvillage_loss1/classifier_plantvillage_0_split_0
I0403 16:43:29.147399 21380 net.cpp:399] loss1/classifier_plantvillage_loss1/classifier_plantvillage_0_split -> loss1/classifier_plantvillage_loss1/classifier_plantvillage_0_split_1
I0403 16:43:29.147418 21380 net.cpp:399] loss1/classifier_plantvillage_loss1/classifier_plantvillage_0_split -> loss1/classifier_plantvillage_loss1/classifier_plantvillage_0_split_2
I0403 16:43:29.147485 21380 net.cpp:141] Setting up loss1/classifier_plantvillage_loss1/classifier_plantvillage_0_split
I0403 16:43:29.147506 21380 net.cpp:148] Top shape: 24 38 (912)
I0403 16:43:29.147522 21380 net.cpp:148] Top shape: 24 38 (912)
I0403 16:43:29.147537 21380 net.cpp:148] Top shape: 24 38 (912)
I0403 16:43:29.147550 21380 net.cpp:156] Memory required for data: 946203936
I0403 16:43:29.147564 21380 layer_factory.hpp:77] Creating layer inception_4b/1x1
I0403 16:43:29.147586 21380 net.cpp:91] Creating Layer inception_4b/1x1
I0403 16:43:29.147617 21380 net.cpp:425] inception_4b/1x1 <- inception_4a/output_inception_4a/output_0_split_1
I0403 16:43:29.147637 21380 net.cpp:399] inception_4b/1x1 -> inception_4b/1x1
I0403 16:43:29.149299 21380 net.cpp:141] Setting up inception_4b/1x1
I0403 16:43:29.149329 21380 net.cpp:148] Top shape: 24 160 14 14 (752640)
I0403 16:43:29.149344 21380 net.cpp:156] Memory required for data: 949214496
I0403 16:43:29.149363 21380 layer_factory.hpp:77] Creating layer inception_4b/relu_1x1
I0403 16:43:29.149382 21380 net.cpp:91] Creating Layer inception_4b/relu_1x1
I0403 16:43:29.149400 21380 net.cpp:425] inception_4b/relu_1x1 <- inception_4b/1x1
I0403 16:43:29.149418 21380 net.cpp:386] inception_4b/relu_1x1 -> inception_4b/1x1 (in-place)
I0403 16:43:29.149590 21380 net.cpp:141] Setting up inception_4b/relu_1x1
I0403 16:43:29.149617 21380 net.cpp:148] Top shape: 24 160 14 14 (752640)
I0403 16:43:29.149631 21380 net.cpp:156] Memory required for data: 952225056
I0403 16:43:29.149646 21380 layer_factory.hpp:77] Creating layer inception_4b/3x3_reduce
I0403 16:43:29.149667 21380 net.cpp:91] Creating Layer inception_4b/3x3_reduce
I0403 16:43:29.149683 21380 net.cpp:425] inception_4b/3x3_reduce <- inception_4a/output_inception_4a/output_0_split_2
I0403 16:43:29.149703 21380 net.cpp:399] inception_4b/3x3_reduce -> inception_4b/3x3_reduce
I0403 16:43:29.151046 21380 net.cpp:141] Setting up inception_4b/3x3_reduce
I0403 16:43:29.151074 21380 net.cpp:148] Top shape: 24 112 14 14 (526848)
I0403 16:43:29.151095 21380 net.cpp:156] Memory required for data: 954332448
I0403 16:43:29.151113 21380 layer_factory.hpp:77] Creating layer inception_4b/relu_3x3_reduce
I0403 16:43:29.151132 21380 net.cpp:91] Creating Layer inception_4b/relu_3x3_reduce
I0403 16:43:29.151149 21380 net.cpp:425] inception_4b/relu_3x3_reduce <- inception_4b/3x3_reduce
I0403 16:43:29.151167 21380 net.cpp:386] inception_4b/relu_3x3_reduce -> inception_4b/3x3_reduce (in-place)
I0403 16:43:29.151468 21380 net.cpp:141] Setting up inception_4b/relu_3x3_reduce
I0403 16:43:29.151495 21380 net.cpp:148] Top shape: 24 112 14 14 (526848)
I0403 16:43:29.151525 21380 net.cpp:156] Memory required for data: 956439840
I0403 16:43:29.151540 21380 layer_factory.hpp:77] Creating layer inception_4b/3x3
I0403 16:43:29.151561 21380 net.cpp:91] Creating Layer inception_4b/3x3
I0403 16:43:29.151578 21380 net.cpp:425] inception_4b/3x3 <- inception_4b/3x3_reduce
I0403 16:43:29.151599 21380 net.cpp:399] inception_4b/3x3 -> inception_4b/3x3
I0403 16:43:29.154556 21380 net.cpp:141] Setting up inception_4b/3x3
I0403 16:43:29.154585 21380 net.cpp:148] Top shape: 24 224 14 14 (1053696)
I0403 16:43:29.154602 21380 net.cpp:156] Memory required for data: 960654624
I0403 16:43:29.154620 21380 layer_factory.hpp:77] Creating layer inception_4b/relu_3x3
I0403 16:43:29.154639 21380 net.cpp:91] Creating Layer inception_4b/relu_3x3
I0403 16:43:29.154655 21380 net.cpp:425] inception_4b/relu_3x3 <- inception_4b/3x3
I0403 16:43:29.154675 21380 net.cpp:386] inception_4b/relu_3x3 -> inception_4b/3x3 (in-place)
I0403 16:43:29.154870 21380 net.cpp:141] Setting up inception_4b/relu_3x3
I0403 16:43:29.154894 21380 net.cpp:148] Top shape: 24 224 14 14 (1053696)
I0403 16:43:29.154909 21380 net.cpp:156] Memory required for data: 964869408
I0403 16:43:29.154923 21380 layer_factory.hpp:77] Creating layer inception_4b/5x5_reduce
I0403 16:43:29.154945 21380 net.cpp:91] Creating Layer inception_4b/5x5_reduce
I0403 16:43:29.154968 21380 net.cpp:425] inception_4b/5x5_reduce <- inception_4a/output_inception_4a/output_0_split_3
I0403 16:43:29.154991 21380 net.cpp:399] inception_4b/5x5_reduce -> inception_4b/5x5_reduce
I0403 16:43:29.156059 21380 net.cpp:141] Setting up inception_4b/5x5_reduce
I0403 16:43:29.156086 21380 net.cpp:148] Top shape: 24 24 14 14 (112896)
I0403 16:43:29.156102 21380 net.cpp:156] Memory required for data: 965320992
I0403 16:43:29.156121 21380 layer_factory.hpp:77] Creating layer inception_4b/relu_5x5_reduce
I0403 16:43:29.156141 21380 net.cpp:91] Creating Layer inception_4b/relu_5x5_reduce
I0403 16:43:29.156173 21380 net.cpp:425] inception_4b/relu_5x5_reduce <- inception_4b/5x5_reduce
I0403 16:43:29.156193 21380 net.cpp:386] inception_4b/relu_5x5_reduce -> inception_4b/5x5_reduce (in-place)
I0403 16:43:29.156369 21380 net.cpp:141] Setting up inception_4b/relu_5x5_reduce
I0403 16:43:29.156395 21380 net.cpp:148] Top shape: 24 24 14 14 (112896)
I0403 16:43:29.156410 21380 net.cpp:156] Memory required for data: 965772576
I0403 16:43:29.156425 21380 layer_factory.hpp:77] Creating layer inception_4b/5x5
I0403 16:43:29.156446 21380 net.cpp:91] Creating Layer inception_4b/5x5
I0403 16:43:29.156463 21380 net.cpp:425] inception_4b/5x5 <- inception_4b/5x5_reduce
I0403 16:43:29.156481 21380 net.cpp:399] inception_4b/5x5 -> inception_4b/5x5
I0403 16:43:29.157676 21380 net.cpp:141] Setting up inception_4b/5x5
I0403 16:43:29.157704 21380 net.cpp:148] Top shape: 24 64 14 14 (301056)
I0403 16:43:29.157719 21380 net.cpp:156] Memory required for data: 966976800
I0403 16:43:29.157738 21380 layer_factory.hpp:77] Creating layer inception_4b/relu_5x5
I0403 16:43:29.157759 21380 net.cpp:91] Creating Layer inception_4b/relu_5x5
I0403 16:43:29.157776 21380 net.cpp:425] inception_4b/relu_5x5 <- inception_4b/5x5
I0403 16:43:29.157793 21380 net.cpp:386] inception_4b/relu_5x5 -> inception_4b/5x5 (in-place)
I0403 16:43:29.158077 21380 net.cpp:141] Setting up inception_4b/relu_5x5
I0403 16:43:29.158102 21380 net.cpp:148] Top shape: 24 64 14 14 (301056)
I0403 16:43:29.158118 21380 net.cpp:156] Memory required for data: 968181024
I0403 16:43:29.158131 21380 layer_factory.hpp:77] Creating layer inception_4b/pool
I0403 16:43:29.158149 21380 net.cpp:91] Creating Layer inception_4b/pool
I0403 16:43:29.158164 21380 net.cpp:425] inception_4b/pool <- inception_4a/output_inception_4a/output_0_split_4
I0403 16:43:29.158186 21380 net.cpp:399] inception_4b/pool -> inception_4b/pool
I0403 16:43:29.158264 21380 net.cpp:141] Setting up inception_4b/pool
I0403 16:43:29.158288 21380 net.cpp:148] Top shape: 24 512 14 14 (2408448)
I0403 16:43:29.158301 21380 net.cpp:156] Memory required for data: 977814816
I0403 16:43:29.158315 21380 layer_factory.hpp:77] Creating layer inception_4b/pool_proj
I0403 16:43:29.158337 21380 net.cpp:91] Creating Layer inception_4b/pool_proj
I0403 16:43:29.158355 21380 net.cpp:425] inception_4b/pool_proj <- inception_4b/pool
I0403 16:43:29.158376 21380 net.cpp:399] inception_4b/pool_proj -> inception_4b/pool_proj
I0403 16:43:29.159561 21380 net.cpp:141] Setting up inception_4b/pool_proj
I0403 16:43:29.159590 21380 net.cpp:148] Top shape: 24 64 14 14 (301056)
I0403 16:43:29.159605 21380 net.cpp:156] Memory required for data: 979019040
I0403 16:43:29.159623 21380 layer_factory.hpp:77] Creating layer inception_4b/relu_pool_proj
I0403 16:43:29.159644 21380 net.cpp:91] Creating Layer inception_4b/relu_pool_proj
I0403 16:43:29.159662 21380 net.cpp:425] inception_4b/relu_pool_proj <- inception_4b/pool_proj
I0403 16:43:29.159678 21380 net.cpp:386] inception_4b/relu_pool_proj -> inception_4b/pool_proj (in-place)
I0403 16:43:29.159854 21380 net.cpp:141] Setting up inception_4b/relu_pool_proj
I0403 16:43:29.159880 21380 net.cpp:148] Top shape: 24 64 14 14 (301056)
I0403 16:43:29.159895 21380 net.cpp:156] Memory required for data: 980223264
I0403 16:43:29.159909 21380 layer_factory.hpp:77] Creating layer inception_4b/output
I0403 16:43:29.159926 21380 net.cpp:91] Creating Layer inception_4b/output
I0403 16:43:29.159941 21380 net.cpp:425] inception_4b/output <- inception_4b/1x1
I0403 16:43:29.159961 21380 net.cpp:425] inception_4b/output <- inception_4b/3x3
I0403 16:43:29.159978 21380 net.cpp:425] inception_4b/output <- inception_4b/5x5
I0403 16:43:29.159993 21380 net.cpp:425] inception_4b/output <- inception_4b/pool_proj
I0403 16:43:29.160011 21380 net.cpp:399] inception_4b/output -> inception_4b/output
I0403 16:43:29.160055 21380 net.cpp:141] Setting up inception_4b/output
I0403 16:43:29.160079 21380 net.cpp:148] Top shape: 24 512 14 14 (2408448)
I0403 16:43:29.160092 21380 net.cpp:156] Memory required for data: 989857056
I0403 16:43:29.160120 21380 layer_factory.hpp:77] Creating layer inception_4b/output_inception_4b/output_0_split
I0403 16:43:29.160140 21380 net.cpp:91] Creating Layer inception_4b/output_inception_4b/output_0_split
I0403 16:43:29.160156 21380 net.cpp:425] inception_4b/output_inception_4b/output_0_split <- inception_4b/output
I0403 16:43:29.160173 21380 net.cpp:399] inception_4b/output_inception_4b/output_0_split -> inception_4b/output_inception_4b/output_0_split_0
I0403 16:43:29.160192 21380 net.cpp:399] inception_4b/output_inception_4b/output_0_split -> inception_4b/output_inception_4b/output_0_split_1
I0403 16:43:29.160212 21380 net.cpp:399] inception_4b/output_inception_4b/output_0_split -> inception_4b/output_inception_4b/output_0_split_2
I0403 16:43:29.160230 21380 net.cpp:399] inception_4b/output_inception_4b/output_0_split -> inception_4b/output_inception_4b/output_0_split_3
I0403 16:43:29.160313 21380 net.cpp:141] Setting up inception_4b/output_inception_4b/output_0_split
I0403 16:43:29.160336 21380 net.cpp:148] Top shape: 24 512 14 14 (2408448)
I0403 16:43:29.160351 21380 net.cpp:148] Top shape: 24 512 14 14 (2408448)
I0403 16:43:29.160367 21380 net.cpp:148] Top shape: 24 512 14 14 (2408448)
I0403 16:43:29.160382 21380 net.cpp:148] Top shape: 24 512 14 14 (2408448)
I0403 16:43:29.160394 21380 net.cpp:156] Memory required for data: 1028392224
I0403 16:43:29.160408 21380 layer_factory.hpp:77] Creating layer inception_4c/1x1
I0403 16:43:29.160429 21380 net.cpp:91] Creating Layer inception_4c/1x1
I0403 16:43:29.160446 21380 net.cpp:425] inception_4c/1x1 <- inception_4b/output_inception_4b/output_0_split_0
I0403 16:43:29.160467 21380 net.cpp:399] inception_4c/1x1 -> inception_4c/1x1
I0403 16:43:29.161851 21380 net.cpp:141] Setting up inception_4c/1x1
I0403 16:43:29.161883 21380 net.cpp:148] Top shape: 24 128 14 14 (602112)
I0403 16:43:29.161901 21380 net.cpp:156] Memory required for data: 1030800672
I0403 16:43:29.161918 21380 layer_factory.hpp:77] Creating layer inception_4c/relu_1x1
I0403 16:43:29.161936 21380 net.cpp:91] Creating Layer inception_4c/relu_1x1
I0403 16:43:29.161952 21380 net.cpp:425] inception_4c/relu_1x1 <- inception_4c/1x1
I0403 16:43:29.161977 21380 net.cpp:386] inception_4c/relu_1x1 -> inception_4c/1x1 (in-place)
I0403 16:43:29.162153 21380 net.cpp:141] Setting up inception_4c/relu_1x1
I0403 16:43:29.162178 21380 net.cpp:148] Top shape: 24 128 14 14 (602112)
I0403 16:43:29.162191 21380 net.cpp:156] Memory required for data: 1033209120
I0403 16:43:29.162205 21380 layer_factory.hpp:77] Creating layer inception_4c/3x3_reduce
I0403 16:43:29.162227 21380 net.cpp:91] Creating Layer inception_4c/3x3_reduce
I0403 16:43:29.162246 21380 net.cpp:425] inception_4c/3x3_reduce <- inception_4b/output_inception_4b/output_0_split_1
I0403 16:43:29.162268 21380 net.cpp:399] inception_4c/3x3_reduce -> inception_4c/3x3_reduce
I0403 16:43:29.164172 21380 net.cpp:141] Setting up inception_4c/3x3_reduce
I0403 16:43:29.164201 21380 net.cpp:148] Top shape: 24 128 14 14 (602112)
I0403 16:43:29.164216 21380 net.cpp:156] Memory required for data: 1035617568
I0403 16:43:29.164235 21380 layer_factory.hpp:77] Creating layer inception_4c/relu_3x3_reduce
I0403 16:43:29.164255 21380 net.cpp:91] Creating Layer inception_4c/relu_3x3_reduce
I0403 16:43:29.164273 21380 net.cpp:425] inception_4c/relu_3x3_reduce <- inception_4c/3x3_reduce
I0403 16:43:29.164289 21380 net.cpp:386] inception_4c/relu_3x3_reduce -> inception_4c/3x3_reduce (in-place)
I0403 16:43:29.164566 21380 net.cpp:141] Setting up inception_4c/relu_3x3_reduce
I0403 16:43:29.164590 21380 net.cpp:148] Top shape: 24 128 14 14 (602112)
I0403 16:43:29.164604 21380 net.cpp:156] Memory required for data: 1038026016
I0403 16:43:29.164619 21380 layer_factory.hpp:77] Creating layer inception_4c/3x3
I0403 16:43:29.164641 21380 net.cpp:91] Creating Layer inception_4c/3x3
I0403 16:43:29.164657 21380 net.cpp:425] inception_4c/3x3 <- inception_4c/3x3_reduce
I0403 16:43:29.164677 21380 net.cpp:399] inception_4c/3x3 -> inception_4c/3x3
I0403 16:43:29.168174 21380 net.cpp:141] Setting up inception_4c/3x3
I0403 16:43:29.168227 21380 net.cpp:148] Top shape: 24 256 14 14 (1204224)
I0403 16:43:29.168244 21380 net.cpp:156] Memory required for data: 1042842912
I0403 16:43:29.168278 21380 layer_factory.hpp:77] Creating layer inception_4c/relu_3x3
I0403 16:43:29.168300 21380 net.cpp:91] Creating Layer inception_4c/relu_3x3
I0403 16:43:29.168318 21380 net.cpp:425] inception_4c/relu_3x3 <- inception_4c/3x3
I0403 16:43:29.168334 21380 net.cpp:386] inception_4c/relu_3x3 -> inception_4c/3x3 (in-place)
I0403 16:43:29.168527 21380 net.cpp:141] Setting up inception_4c/relu_3x3
I0403 16:43:29.168551 21380 net.cpp:148] Top shape: 24 256 14 14 (1204224)
I0403 16:43:29.168565 21380 net.cpp:156] Memory required for data: 1047659808
I0403 16:43:29.168581 21380 layer_factory.hpp:77] Creating layer inception_4c/5x5_reduce
I0403 16:43:29.168602 21380 net.cpp:91] Creating Layer inception_4c/5x5_reduce
I0403 16:43:29.168619 21380 net.cpp:425] inception_4c/5x5_reduce <- inception_4b/output_inception_4b/output_0_split_2
I0403 16:43:29.168640 21380 net.cpp:399] inception_4c/5x5_reduce -> inception_4c/5x5_reduce
I0403 16:43:29.169708 21380 net.cpp:141] Setting up inception_4c/5x5_reduce
I0403 16:43:29.169735 21380 net.cpp:148] Top shape: 24 24 14 14 (112896)
I0403 16:43:29.169750 21380 net.cpp:156] Memory required for data: 1048111392
I0403 16:43:29.169770 21380 layer_factory.hpp:77] Creating layer inception_4c/relu_5x5_reduce
I0403 16:43:29.169790 21380 net.cpp:91] Creating Layer inception_4c/relu_5x5_reduce
I0403 16:43:29.169806 21380 net.cpp:425] inception_4c/relu_5x5_reduce <- inception_4c/5x5_reduce
I0403 16:43:29.169823 21380 net.cpp:386] inception_4c/relu_5x5_reduce -> inception_4c/5x5_reduce (in-place)
I0403 16:43:29.170011 21380 net.cpp:141] Setting up inception_4c/relu_5x5_reduce
I0403 16:43:29.170037 21380 net.cpp:148] Top shape: 24 24 14 14 (112896)
I0403 16:43:29.170052 21380 net.cpp:156] Memory required for data: 1048562976
I0403 16:43:29.170065 21380 layer_factory.hpp:77] Creating layer inception_4c/5x5
I0403 16:43:29.170086 21380 net.cpp:91] Creating Layer inception_4c/5x5
I0403 16:43:29.170102 21380 net.cpp:425] inception_4c/5x5 <- inception_4c/5x5_reduce
I0403 16:43:29.170120 21380 net.cpp:399] inception_4c/5x5 -> inception_4c/5x5
I0403 16:43:29.171350 21380 net.cpp:141] Setting up inception_4c/5x5
I0403 16:43:29.171380 21380 net.cpp:148] Top shape: 24 64 14 14 (301056)
I0403 16:43:29.171396 21380 net.cpp:156] Memory required for data: 1049767200
I0403 16:43:29.171413 21380 layer_factory.hpp:77] Creating layer inception_4c/relu_5x5
I0403 16:43:29.171432 21380 net.cpp:91] Creating Layer inception_4c/relu_5x5
I0403 16:43:29.171447 21380 net.cpp:425] inception_4c/relu_5x5 <- inception_4c/5x5
I0403 16:43:29.171463 21380 net.cpp:386] inception_4c/relu_5x5 -> inception_4c/5x5 (in-place)
I0403 16:43:29.171748 21380 net.cpp:141] Setting up inception_4c/relu_5x5
I0403 16:43:29.171775 21380 net.cpp:148] Top shape: 24 64 14 14 (301056)
I0403 16:43:29.171792 21380 net.cpp:156] Memory required for data: 1050971424
I0403 16:43:29.171805 21380 layer_factory.hpp:77] Creating layer inception_4c/pool
I0403 16:43:29.171823 21380 net.cpp:91] Creating Layer inception_4c/pool
I0403 16:43:29.171838 21380 net.cpp:425] inception_4c/pool <- inception_4b/output_inception_4b/output_0_split_3
I0403 16:43:29.171856 21380 net.cpp:399] inception_4c/pool -> inception_4c/pool
I0403 16:43:29.171921 21380 net.cpp:141] Setting up inception_4c/pool
I0403 16:43:29.171944 21380 net.cpp:148] Top shape: 24 512 14 14 (2408448)
I0403 16:43:29.171963 21380 net.cpp:156] Memory required for data: 1060605216
I0403 16:43:29.171977 21380 layer_factory.hpp:77] Creating layer inception_4c/pool_proj
I0403 16:43:29.171999 21380 net.cpp:91] Creating Layer inception_4c/pool_proj
I0403 16:43:29.172016 21380 net.cpp:425] inception_4c/pool_proj <- inception_4c/pool
I0403 16:43:29.172036 21380 net.cpp:399] inception_4c/pool_proj -> inception_4c/pool_proj
I0403 16:43:29.173243 21380 net.cpp:141] Setting up inception_4c/pool_proj
I0403 16:43:29.173283 21380 net.cpp:148] Top shape: 24 64 14 14 (301056)
I0403 16:43:29.173315 21380 net.cpp:156] Memory required for data: 1061809440
I0403 16:43:29.173334 21380 layer_factory.hpp:77] Creating layer inception_4c/relu_pool_proj
I0403 16:43:29.173355 21380 net.cpp:91] Creating Layer inception_4c/relu_pool_proj
I0403 16:43:29.173373 21380 net.cpp:425] inception_4c/relu_pool_proj <- inception_4c/pool_proj
I0403 16:43:29.173390 21380 net.cpp:386] inception_4c/relu_pool_proj -> inception_4c/pool_proj (in-place)
I0403 16:43:29.173600 21380 net.cpp:141] Setting up inception_4c/relu_pool_proj
I0403 16:43:29.173629 21380 net.cpp:148] Top shape: 24 64 14 14 (301056)
I0403 16:43:29.173645 21380 net.cpp:156] Memory required for data: 1063013664
I0403 16:43:29.173658 21380 layer_factory.hpp:77] Creating layer inception_4c/output
I0403 16:43:29.173676 21380 net.cpp:91] Creating Layer inception_4c/output
I0403 16:43:29.173689 21380 net.cpp:425] inception_4c/output <- inception_4c/1x1
I0403 16:43:29.173704 21380 net.cpp:425] inception_4c/output <- inception_4c/3x3
I0403 16:43:29.173720 21380 net.cpp:425] inception_4c/output <- inception_4c/5x5
I0403 16:43:29.173735 21380 net.cpp:425] inception_4c/output <- inception_4c/pool_proj
I0403 16:43:29.173750 21380 net.cpp:399] inception_4c/output -> inception_4c/output
I0403 16:43:29.173797 21380 net.cpp:141] Setting up inception_4c/output
I0403 16:43:29.173820 21380 net.cpp:148] Top shape: 24 512 14 14 (2408448)
I0403 16:43:29.173833 21380 net.cpp:156] Memory required for data: 1072647456
I0403 16:43:29.173846 21380 layer_factory.hpp:77] Creating layer inception_4c/output_inception_4c/output_0_split
I0403 16:43:29.173866 21380 net.cpp:91] Creating Layer inception_4c/output_inception_4c/output_0_split
I0403 16:43:29.173882 21380 net.cpp:425] inception_4c/output_inception_4c/output_0_split <- inception_4c/output
I0403 16:43:29.173898 21380 net.cpp:399] inception_4c/output_inception_4c/output_0_split -> inception_4c/output_inception_4c/output_0_split_0
I0403 16:43:29.173918 21380 net.cpp:399] inception_4c/output_inception_4c/output_0_split -> inception_4c/output_inception_4c/output_0_split_1
I0403 16:43:29.173936 21380 net.cpp:399] inception_4c/output_inception_4c/output_0_split -> inception_4c/output_inception_4c/output_0_split_2
I0403 16:43:29.173959 21380 net.cpp:399] inception_4c/output_inception_4c/output_0_split -> inception_4c/output_inception_4c/output_0_split_3
I0403 16:43:29.174046 21380 net.cpp:141] Setting up inception_4c/output_inception_4c/output_0_split
I0403 16:43:29.174068 21380 net.cpp:148] Top shape: 24 512 14 14 (2408448)
I0403 16:43:29.174084 21380 net.cpp:148] Top shape: 24 512 14 14 (2408448)
I0403 16:43:29.174099 21380 net.cpp:148] Top shape: 24 512 14 14 (2408448)
I0403 16:43:29.174113 21380 net.cpp:148] Top shape: 24 512 14 14 (2408448)
I0403 16:43:29.174126 21380 net.cpp:156] Memory required for data: 1111182624
I0403 16:43:29.174140 21380 layer_factory.hpp:77] Creating layer inception_4d/1x1
I0403 16:43:29.174161 21380 net.cpp:91] Creating Layer inception_4d/1x1
I0403 16:43:29.174178 21380 net.cpp:425] inception_4d/1x1 <- inception_4c/output_inception_4c/output_0_split_0
I0403 16:43:29.174198 21380 net.cpp:399] inception_4d/1x1 -> inception_4d/1x1
I0403 16:43:29.175546 21380 net.cpp:141] Setting up inception_4d/1x1
I0403 16:43:29.175575 21380 net.cpp:148] Top shape: 24 112 14 14 (526848)
I0403 16:43:29.175590 21380 net.cpp:156] Memory required for data: 1113290016
I0403 16:43:29.175609 21380 layer_factory.hpp:77] Creating layer inception_4d/relu_1x1
I0403 16:43:29.175627 21380 net.cpp:91] Creating Layer inception_4d/relu_1x1
I0403 16:43:29.175644 21380 net.cpp:425] inception_4d/relu_1x1 <- inception_4d/1x1
I0403 16:43:29.175664 21380 net.cpp:386] inception_4d/relu_1x1 -> inception_4d/1x1 (in-place)
I0403 16:43:29.175845 21380 net.cpp:141] Setting up inception_4d/relu_1x1
I0403 16:43:29.175869 21380 net.cpp:148] Top shape: 24 112 14 14 (526848)
I0403 16:43:29.175882 21380 net.cpp:156] Memory required for data: 1115397408
I0403 16:43:29.175897 21380 layer_factory.hpp:77] Creating layer inception_4d/3x3_reduce
I0403 16:43:29.175931 21380 net.cpp:91] Creating Layer inception_4d/3x3_reduce
I0403 16:43:29.175950 21380 net.cpp:425] inception_4d/3x3_reduce <- inception_4c/output_inception_4c/output_0_split_1
I0403 16:43:29.175974 21380 net.cpp:399] inception_4d/3x3_reduce -> inception_4d/3x3_reduce
I0403 16:43:29.177443 21380 net.cpp:141] Setting up inception_4d/3x3_reduce
I0403 16:43:29.177474 21380 net.cpp:148] Top shape: 24 144 14 14 (677376)
I0403 16:43:29.177490 21380 net.cpp:156] Memory required for data: 1118106912
I0403 16:43:29.177508 21380 layer_factory.hpp:77] Creating layer inception_4d/relu_3x3_reduce
I0403 16:43:29.177526 21380 net.cpp:91] Creating Layer inception_4d/relu_3x3_reduce
I0403 16:43:29.177543 21380 net.cpp:425] inception_4d/relu_3x3_reduce <- inception_4d/3x3_reduce
I0403 16:43:29.177563 21380 net.cpp:386] inception_4d/relu_3x3_reduce -> inception_4d/3x3_reduce (in-place)
I0403 16:43:29.177845 21380 net.cpp:141] Setting up inception_4d/relu_3x3_reduce
I0403 16:43:29.177873 21380 net.cpp:148] Top shape: 24 144 14 14 (677376)
I0403 16:43:29.177889 21380 net.cpp:156] Memory required for data: 1120816416
I0403 16:43:29.177906 21380 layer_factory.hpp:77] Creating layer inception_4d/3x3
I0403 16:43:29.177927 21380 net.cpp:91] Creating Layer inception_4d/3x3
I0403 16:43:29.177943 21380 net.cpp:425] inception_4d/3x3 <- inception_4d/3x3_reduce
I0403 16:43:29.177966 21380 net.cpp:399] inception_4d/3x3 -> inception_4d/3x3
I0403 16:43:29.182137 21380 net.cpp:141] Setting up inception_4d/3x3
I0403 16:43:29.182168 21380 net.cpp:148] Top shape: 24 288 14 14 (1354752)
I0403 16:43:29.182184 21380 net.cpp:156] Memory required for data: 1126235424
I0403 16:43:29.182202 21380 layer_factory.hpp:77] Creating layer inception_4d/relu_3x3
I0403 16:43:29.182235 21380 net.cpp:91] Creating Layer inception_4d/relu_3x3
I0403 16:43:29.182252 21380 net.cpp:425] inception_4d/relu_3x3 <- inception_4d/3x3
I0403 16:43:29.182270 21380 net.cpp:386] inception_4d/relu_3x3 -> inception_4d/3x3 (in-place)
I0403 16:43:29.182452 21380 net.cpp:141] Setting up inception_4d/relu_3x3
I0403 16:43:29.182477 21380 net.cpp:148] Top shape: 24 288 14 14 (1354752)
I0403 16:43:29.182492 21380 net.cpp:156] Memory required for data: 1131654432
I0403 16:43:29.182518 21380 layer_factory.hpp:77] Creating layer inception_4d/5x5_reduce
I0403 16:43:29.182539 21380 net.cpp:91] Creating Layer inception_4d/5x5_reduce
I0403 16:43:29.182557 21380 net.cpp:425] inception_4d/5x5_reduce <- inception_4c/output_inception_4c/output_0_split_2
I0403 16:43:29.182579 21380 net.cpp:399] inception_4d/5x5_reduce -> inception_4d/5x5_reduce
I0403 16:43:29.183694 21380 net.cpp:141] Setting up inception_4d/5x5_reduce
I0403 16:43:29.183723 21380 net.cpp:148] Top shape: 24 32 14 14 (150528)
I0403 16:43:29.183739 21380 net.cpp:156] Memory required for data: 1132256544
I0403 16:43:29.183758 21380 layer_factory.hpp:77] Creating layer inception_4d/relu_5x5_reduce
I0403 16:43:29.183775 21380 net.cpp:91] Creating Layer inception_4d/relu_5x5_reduce
I0403 16:43:29.183791 21380 net.cpp:425] inception_4d/relu_5x5_reduce <- inception_4d/5x5_reduce
I0403 16:43:29.183810 21380 net.cpp:386] inception_4d/relu_5x5_reduce -> inception_4d/5x5_reduce (in-place)
I0403 16:43:29.183997 21380 net.cpp:141] Setting up inception_4d/relu_5x5_reduce
I0403 16:43:29.184021 21380 net.cpp:148] Top shape: 24 32 14 14 (150528)
I0403 16:43:29.184036 21380 net.cpp:156] Memory required for data: 1132858656
I0403 16:43:29.184051 21380 layer_factory.hpp:77] Creating layer inception_4d/5x5
I0403 16:43:29.184072 21380 net.cpp:91] Creating Layer inception_4d/5x5
I0403 16:43:29.184088 21380 net.cpp:425] inception_4d/5x5 <- inception_4d/5x5_reduce
I0403 16:43:29.184108 21380 net.cpp:399] inception_4d/5x5 -> inception_4d/5x5
I0403 16:43:29.185585 21380 net.cpp:141] Setting up inception_4d/5x5
I0403 16:43:29.185613 21380 net.cpp:148] Top shape: 24 64 14 14 (301056)
I0403 16:43:29.185632 21380 net.cpp:156] Memory required for data: 1134062880
I0403 16:43:29.185652 21380 layer_factory.hpp:77] Creating layer inception_4d/relu_5x5
I0403 16:43:29.185684 21380 net.cpp:91] Creating Layer inception_4d/relu_5x5
I0403 16:43:29.185701 21380 net.cpp:425] inception_4d/relu_5x5 <- inception_4d/5x5
I0403 16:43:29.185720 21380 net.cpp:386] inception_4d/relu_5x5 -> inception_4d/5x5 (in-place)
I0403 16:43:29.186024 21380 net.cpp:141] Setting up inception_4d/relu_5x5
I0403 16:43:29.186049 21380 net.cpp:148] Top shape: 24 64 14 14 (301056)
I0403 16:43:29.186067 21380 net.cpp:156] Memory required for data: 1135267104
I0403 16:43:29.186082 21380 layer_factory.hpp:77] Creating layer inception_4d/pool
I0403 16:43:29.186100 21380 net.cpp:91] Creating Layer inception_4d/pool
I0403 16:43:29.186115 21380 net.cpp:425] inception_4d/pool <- inception_4c/output_inception_4c/output_0_split_3
I0403 16:43:29.186132 21380 net.cpp:399] inception_4d/pool -> inception_4d/pool
I0403 16:43:29.186198 21380 net.cpp:141] Setting up inception_4d/pool
I0403 16:43:29.186221 21380 net.cpp:148] Top shape: 24 512 14 14 (2408448)
I0403 16:43:29.186234 21380 net.cpp:156] Memory required for data: 1144900896
I0403 16:43:29.186250 21380 layer_factory.hpp:77] Creating layer inception_4d/pool_proj
I0403 16:43:29.186271 21380 net.cpp:91] Creating Layer inception_4d/pool_proj
I0403 16:43:29.186288 21380 net.cpp:425] inception_4d/pool_proj <- inception_4d/pool
I0403 16:43:29.186308 21380 net.cpp:399] inception_4d/pool_proj -> inception_4d/pool_proj
I0403 16:43:29.188100 21380 net.cpp:141] Setting up inception_4d/pool_proj
I0403 16:43:29.188129 21380 net.cpp:148] Top shape: 24 64 14 14 (301056)
I0403 16:43:29.188145 21380 net.cpp:156] Memory required for data: 1146105120
I0403 16:43:29.188164 21380 layer_factory.hpp:77] Creating layer inception_4d/relu_pool_proj
I0403 16:43:29.188185 21380 net.cpp:91] Creating Layer inception_4d/relu_pool_proj
I0403 16:43:29.188202 21380 net.cpp:425] inception_4d/relu_pool_proj <- inception_4d/pool_proj
I0403 16:43:29.188220 21380 net.cpp:386] inception_4d/relu_pool_proj -> inception_4d/pool_proj (in-place)
I0403 16:43:29.188405 21380 net.cpp:141] Setting up inception_4d/relu_pool_proj
I0403 16:43:29.188431 21380 net.cpp:148] Top shape: 24 64 14 14 (301056)
I0403 16:43:29.188446 21380 net.cpp:156] Memory required for data: 1147309344
I0403 16:43:29.188459 21380 layer_factory.hpp:77] Creating layer inception_4d/output
I0403 16:43:29.188482 21380 net.cpp:91] Creating Layer inception_4d/output
I0403 16:43:29.188498 21380 net.cpp:425] inception_4d/output <- inception_4d/1x1
I0403 16:43:29.188514 21380 net.cpp:425] inception_4d/output <- inception_4d/3x3
I0403 16:43:29.188531 21380 net.cpp:425] inception_4d/output <- inception_4d/5x5
I0403 16:43:29.188547 21380 net.cpp:425] inception_4d/output <- inception_4d/pool_proj
I0403 16:43:29.188565 21380 net.cpp:399] inception_4d/output -> inception_4d/output
I0403 16:43:29.188614 21380 net.cpp:141] Setting up inception_4d/output
I0403 16:43:29.188638 21380 net.cpp:148] Top shape: 24 528 14 14 (2483712)
I0403 16:43:29.188653 21380 net.cpp:156] Memory required for data: 1157244192
I0403 16:43:29.188668 21380 layer_factory.hpp:77] Creating layer inception_4d/output_inception_4d/output_0_split
I0403 16:43:29.188684 21380 net.cpp:91] Creating Layer inception_4d/output_inception_4d/output_0_split
I0403 16:43:29.188699 21380 net.cpp:425] inception_4d/output_inception_4d/output_0_split <- inception_4d/output
I0403 16:43:29.188719 21380 net.cpp:399] inception_4d/output_inception_4d/output_0_split -> inception_4d/output_inception_4d/output_0_split_0
I0403 16:43:29.188741 21380 net.cpp:399] inception_4d/output_inception_4d/output_0_split -> inception_4d/output_inception_4d/output_0_split_1
I0403 16:43:29.188762 21380 net.cpp:399] inception_4d/output_inception_4d/output_0_split -> inception_4d/output_inception_4d/output_0_split_2
I0403 16:43:29.188782 21380 net.cpp:399] inception_4d/output_inception_4d/output_0_split -> inception_4d/output_inception_4d/output_0_split_3
I0403 16:43:29.188802 21380 net.cpp:399] inception_4d/output_inception_4d/output_0_split -> inception_4d/output_inception_4d/output_0_split_4
I0403 16:43:29.188925 21380 net.cpp:141] Setting up inception_4d/output_inception_4d/output_0_split
I0403 16:43:29.188974 21380 net.cpp:148] Top shape: 24 528 14 14 (2483712)
I0403 16:43:29.188994 21380 net.cpp:148] Top shape: 24 528 14 14 (2483712)
I0403 16:43:29.189012 21380 net.cpp:148] Top shape: 24 528 14 14 (2483712)
I0403 16:43:29.189028 21380 net.cpp:148] Top shape: 24 528 14 14 (2483712)
I0403 16:43:29.189043 21380 net.cpp:148] Top shape: 24 528 14 14 (2483712)
I0403 16:43:29.189057 21380 net.cpp:156] Memory required for data: 1206918432
I0403 16:43:29.189072 21380 layer_factory.hpp:77] Creating layer loss2/ave_pool
I0403 16:43:29.189090 21380 net.cpp:91] Creating Layer loss2/ave_pool
I0403 16:43:29.189106 21380 net.cpp:425] loss2/ave_pool <- inception_4d/output_inception_4d/output_0_split_0
I0403 16:43:29.189162 21380 net.cpp:399] loss2/ave_pool -> loss2/ave_pool
I0403 16:43:29.189499 21380 net.cpp:141] Setting up loss2/ave_pool
I0403 16:43:29.189525 21380 net.cpp:148] Top shape: 24 528 4 4 (202752)
I0403 16:43:29.189540 21380 net.cpp:156] Memory required for data: 1207729440
I0403 16:43:29.189555 21380 layer_factory.hpp:77] Creating layer loss2/conv
I0403 16:43:29.189577 21380 net.cpp:91] Creating Layer loss2/conv
I0403 16:43:29.189595 21380 net.cpp:425] loss2/conv <- loss2/ave_pool
I0403 16:43:29.189615 21380 net.cpp:399] loss2/conv -> loss2/conv
I0403 16:43:29.191547 21380 net.cpp:141] Setting up loss2/conv
I0403 16:43:29.191577 21380 net.cpp:148] Top shape: 24 128 4 4 (49152)
I0403 16:43:29.191593 21380 net.cpp:156] Memory required for data: 1207926048
I0403 16:43:29.191612 21380 layer_factory.hpp:77] Creating layer loss2/relu_conv
I0403 16:43:29.191632 21380 net.cpp:91] Creating Layer loss2/relu_conv
I0403 16:43:29.191649 21380 net.cpp:425] loss2/relu_conv <- loss2/conv
I0403 16:43:29.191666 21380 net.cpp:386] loss2/relu_conv -> loss2/conv (in-place)
I0403 16:43:29.191961 21380 net.cpp:141] Setting up loss2/relu_conv
I0403 16:43:29.191988 21380 net.cpp:148] Top shape: 24 128 4 4 (49152)
I0403 16:43:29.192003 21380 net.cpp:156] Memory required for data: 1208122656
I0403 16:43:29.192018 21380 layer_factory.hpp:77] Creating layer loss2/fc
I0403 16:43:29.192039 21380 net.cpp:91] Creating Layer loss2/fc
I0403 16:43:29.192055 21380 net.cpp:425] loss2/fc <- loss2/conv
I0403 16:43:29.192076 21380 net.cpp:399] loss2/fc -> loss2/fc
I0403 16:43:29.209923 21380 net.cpp:141] Setting up loss2/fc
I0403 16:43:29.209983 21380 net.cpp:148] Top shape: 24 1024 (24576)
I0403 16:43:29.210000 21380 net.cpp:156] Memory required for data: 1208220960
I0403 16:43:29.210021 21380 layer_factory.hpp:77] Creating layer loss2/relu_fc
I0403 16:43:29.210039 21380 net.cpp:91] Creating Layer loss2/relu_fc
I0403 16:43:29.210057 21380 net.cpp:425] loss2/relu_fc <- loss2/fc
I0403 16:43:29.210078 21380 net.cpp:386] loss2/relu_fc -> loss2/fc (in-place)
I0403 16:43:29.210419 21380 net.cpp:141] Setting up loss2/relu_fc
I0403 16:43:29.210445 21380 net.cpp:148] Top shape: 24 1024 (24576)
I0403 16:43:29.210460 21380 net.cpp:156] Memory required for data: 1208319264
I0403 16:43:29.210475 21380 layer_factory.hpp:77] Creating layer loss2/drop_fc
I0403 16:43:29.210494 21380 net.cpp:91] Creating Layer loss2/drop_fc
I0403 16:43:29.210510 21380 net.cpp:425] loss2/drop_fc <- loss2/fc
I0403 16:43:29.210530 21380 net.cpp:386] loss2/drop_fc -> loss2/fc (in-place)
I0403 16:43:29.210583 21380 net.cpp:141] Setting up loss2/drop_fc
I0403 16:43:29.210607 21380 net.cpp:148] Top shape: 24 1024 (24576)
I0403 16:43:29.210620 21380 net.cpp:156] Memory required for data: 1208417568
I0403 16:43:29.210635 21380 layer_factory.hpp:77] Creating layer loss2/classifier_plantvillage
I0403 16:43:29.210654 21380 net.cpp:91] Creating Layer loss2/classifier_plantvillage
I0403 16:43:29.210669 21380 net.cpp:425] loss2/classifier_plantvillage <- loss2/fc
I0403 16:43:29.210690 21380 net.cpp:399] loss2/classifier_plantvillage -> loss2/classifier_plantvillage
I0403 16:43:29.211127 21380 net.cpp:141] Setting up loss2/classifier_plantvillage
I0403 16:43:29.211153 21380 net.cpp:148] Top shape: 24 38 (912)
I0403 16:43:29.211169 21380 net.cpp:156] Memory required for data: 1208421216
I0403 16:43:29.211211 21380 layer_factory.hpp:77] Creating layer loss2/classifier_plantvillage_loss2/classifier_plantvillage_0_split
I0403 16:43:29.211233 21380 net.cpp:91] Creating Layer loss2/classifier_plantvillage_loss2/classifier_plantvillage_0_split
I0403 16:43:29.211251 21380 net.cpp:425] loss2/classifier_plantvillage_loss2/classifier_plantvillage_0_split <- loss2/classifier_plantvillage
I0403 16:43:29.211268 21380 net.cpp:399] loss2/classifier_plantvillage_loss2/classifier_plantvillage_0_split -> loss2/classifier_plantvillage_loss2/classifier_plantvillage_0_split_0
I0403 16:43:29.211292 21380 net.cpp:399] loss2/classifier_plantvillage_loss2/classifier_plantvillage_0_split -> loss2/classifier_plantvillage_loss2/classifier_plantvillage_0_split_1
I0403 16:43:29.211324 21380 net.cpp:399] loss2/classifier_plantvillage_loss2/classifier_plantvillage_0_split -> loss2/classifier_plantvillage_loss2/classifier_plantvillage_0_split_2
I0403 16:43:29.211405 21380 net.cpp:141] Setting up loss2/classifier_plantvillage_loss2/classifier_plantvillage_0_split
I0403 16:43:29.211427 21380 net.cpp:148] Top shape: 24 38 (912)
I0403 16:43:29.211443 21380 net.cpp:148] Top shape: 24 38 (912)
I0403 16:43:29.211459 21380 net.cpp:148] Top shape: 24 38 (912)
I0403 16:43:29.211472 21380 net.cpp:156] Memory required for data: 1208432160
I0403 16:43:29.211488 21380 layer_factory.hpp:77] Creating layer inception_4e/1x1
I0403 16:43:29.211510 21380 net.cpp:91] Creating Layer inception_4e/1x1
I0403 16:43:29.211527 21380 net.cpp:425] inception_4e/1x1 <- inception_4d/output_inception_4d/output_0_split_1
I0403 16:43:29.211546 21380 net.cpp:399] inception_4e/1x1 -> inception_4e/1x1
I0403 16:43:29.213413 21380 net.cpp:141] Setting up inception_4e/1x1
I0403 16:43:29.213445 21380 net.cpp:148] Top shape: 24 256 14 14 (1204224)
I0403 16:43:29.213464 21380 net.cpp:156] Memory required for data: 1213249056
I0403 16:43:29.213482 21380 layer_factory.hpp:77] Creating layer inception_4e/relu_1x1
I0403 16:43:29.213500 21380 net.cpp:91] Creating Layer inception_4e/relu_1x1
I0403 16:43:29.213517 21380 net.cpp:425] inception_4e/relu_1x1 <- inception_4e/1x1
I0403 16:43:29.213536 21380 net.cpp:386] inception_4e/relu_1x1 -> inception_4e/1x1 (in-place)
I0403 16:43:29.213831 21380 net.cpp:141] Setting up inception_4e/relu_1x1
I0403 16:43:29.213861 21380 net.cpp:148] Top shape: 24 256 14 14 (1204224)
I0403 16:43:29.213878 21380 net.cpp:156] Memory required for data: 1218065952
I0403 16:43:29.213894 21380 layer_factory.hpp:77] Creating layer inception_4e/3x3_reduce
I0403 16:43:29.213917 21380 net.cpp:91] Creating Layer inception_4e/3x3_reduce
I0403 16:43:29.213933 21380 net.cpp:425] inception_4e/3x3_reduce <- inception_4d/output_inception_4d/output_0_split_2
I0403 16:43:29.213953 21380 net.cpp:399] inception_4e/3x3_reduce -> inception_4e/3x3_reduce
I0403 16:43:29.216164 21380 net.cpp:141] Setting up inception_4e/3x3_reduce
I0403 16:43:29.216195 21380 net.cpp:148] Top shape: 24 160 14 14 (752640)
I0403 16:43:29.216224 21380 net.cpp:156] Memory required for data: 1221076512
I0403 16:43:29.216243 21380 layer_factory.hpp:77] Creating layer inception_4e/relu_3x3_reduce
I0403 16:43:29.216266 21380 net.cpp:91] Creating Layer inception_4e/relu_3x3_reduce
I0403 16:43:29.216284 21380 net.cpp:425] inception_4e/relu_3x3_reduce <- inception_4e/3x3_reduce
I0403 16:43:29.216301 21380 net.cpp:386] inception_4e/relu_3x3_reduce -> inception_4e/3x3_reduce (in-place)
I0403 16:43:29.216506 21380 net.cpp:141] Setting up inception_4e/relu_3x3_reduce
I0403 16:43:29.216545 21380 net.cpp:148] Top shape: 24 160 14 14 (752640)
I0403 16:43:29.216560 21380 net.cpp:156] Memory required for data: 1224087072
I0403 16:43:29.216575 21380 layer_factory.hpp:77] Creating layer inception_4e/3x3
I0403 16:43:29.216596 21380 net.cpp:91] Creating Layer inception_4e/3x3
I0403 16:43:29.216614 21380 net.cpp:425] inception_4e/3x3 <- inception_4e/3x3_reduce
I0403 16:43:29.216632 21380 net.cpp:399] inception_4e/3x3 -> inception_4e/3x3
I0403 16:43:29.221701 21380 net.cpp:141] Setting up inception_4e/3x3
I0403 16:43:29.221745 21380 net.cpp:148] Top shape: 24 320 14 14 (1505280)
I0403 16:43:29.221762 21380 net.cpp:156] Memory required for data: 1230108192
I0403 16:43:29.221781 21380 layer_factory.hpp:77] Creating layer inception_4e/relu_3x3
I0403 16:43:29.221799 21380 net.cpp:91] Creating Layer inception_4e/relu_3x3
I0403 16:43:29.221815 21380 net.cpp:425] inception_4e/relu_3x3 <- inception_4e/3x3
I0403 16:43:29.221835 21380 net.cpp:386] inception_4e/relu_3x3 -> inception_4e/3x3 (in-place)
I0403 16:43:29.222144 21380 net.cpp:141] Setting up inception_4e/relu_3x3
I0403 16:43:29.222170 21380 net.cpp:148] Top shape: 24 320 14 14 (1505280)
I0403 16:43:29.222185 21380 net.cpp:156] Memory required for data: 1236129312
I0403 16:43:29.222200 21380 layer_factory.hpp:77] Creating layer inception_4e/5x5_reduce
I0403 16:43:29.222224 21380 net.cpp:91] Creating Layer inception_4e/5x5_reduce
I0403 16:43:29.222242 21380 net.cpp:425] inception_4e/5x5_reduce <- inception_4d/output_inception_4d/output_0_split_3
I0403 16:43:29.222264 21380 net.cpp:399] inception_4e/5x5_reduce -> inception_4e/5x5_reduce
I0403 16:43:29.223388 21380 net.cpp:141] Setting up inception_4e/5x5_reduce
I0403 16:43:29.223417 21380 net.cpp:148] Top shape: 24 32 14 14 (150528)
I0403 16:43:29.223438 21380 net.cpp:156] Memory required for data: 1236731424
I0403 16:43:29.223458 21380 layer_factory.hpp:77] Creating layer inception_4e/relu_5x5_reduce
I0403 16:43:29.223476 21380 net.cpp:91] Creating Layer inception_4e/relu_5x5_reduce
I0403 16:43:29.223495 21380 net.cpp:425] inception_4e/relu_5x5_reduce <- inception_4e/5x5_reduce
I0403 16:43:29.223511 21380 net.cpp:386] inception_4e/relu_5x5_reduce -> inception_4e/5x5_reduce (in-place)
I0403 16:43:29.223814 21380 net.cpp:141] Setting up inception_4e/relu_5x5_reduce
I0403 16:43:29.223840 21380 net.cpp:148] Top shape: 24 32 14 14 (150528)
I0403 16:43:29.223860 21380 net.cpp:156] Memory required for data: 1237333536
I0403 16:43:29.223875 21380 layer_factory.hpp:77] Creating layer inception_4e/5x5
I0403 16:43:29.223914 21380 net.cpp:91] Creating Layer inception_4e/5x5
I0403 16:43:29.223935 21380 net.cpp:425] inception_4e/5x5 <- inception_4e/5x5_reduce
I0403 16:43:29.223968 21380 net.cpp:399] inception_4e/5x5 -> inception_4e/5x5
I0403 16:43:29.225855 21380 net.cpp:141] Setting up inception_4e/5x5
I0403 16:43:29.225884 21380 net.cpp:148] Top shape: 24 128 14 14 (602112)
I0403 16:43:29.225900 21380 net.cpp:156] Memory required for data: 1239741984
I0403 16:43:29.225921 21380 layer_factory.hpp:77] Creating layer inception_4e/relu_5x5
I0403 16:43:29.225942 21380 net.cpp:91] Creating Layer inception_4e/relu_5x5
I0403 16:43:29.225968 21380 net.cpp:425] inception_4e/relu_5x5 <- inception_4e/5x5
I0403 16:43:29.225988 21380 net.cpp:386] inception_4e/relu_5x5 -> inception_4e/5x5 (in-place)
I0403 16:43:29.226191 21380 net.cpp:141] Setting up inception_4e/relu_5x5
I0403 16:43:29.226217 21380 net.cpp:148] Top shape: 24 128 14 14 (602112)
I0403 16:43:29.226233 21380 net.cpp:156] Memory required for data: 1242150432
I0403 16:43:29.226248 21380 layer_factory.hpp:77] Creating layer inception_4e/pool
I0403 16:43:29.226269 21380 net.cpp:91] Creating Layer inception_4e/pool
I0403 16:43:29.226287 21380 net.cpp:425] inception_4e/pool <- inception_4d/output_inception_4d/output_0_split_4
I0403 16:43:29.226306 21380 net.cpp:399] inception_4e/pool -> inception_4e/pool
I0403 16:43:29.226380 21380 net.cpp:141] Setting up inception_4e/pool
I0403 16:43:29.226408 21380 net.cpp:148] Top shape: 24 528 14 14 (2483712)
I0403 16:43:29.226421 21380 net.cpp:156] Memory required for data: 1252085280
I0403 16:43:29.226436 21380 layer_factory.hpp:77] Creating layer inception_4e/pool_proj
I0403 16:43:29.226459 21380 net.cpp:91] Creating Layer inception_4e/pool_proj
I0403 16:43:29.226475 21380 net.cpp:425] inception_4e/pool_proj <- inception_4e/pool
I0403 16:43:29.226496 21380 net.cpp:399] inception_4e/pool_proj -> inception_4e/pool_proj
I0403 16:43:29.228060 21380 net.cpp:141] Setting up inception_4e/pool_proj
I0403 16:43:29.228091 21380 net.cpp:148] Top shape: 24 128 14 14 (602112)
I0403 16:43:29.228121 21380 net.cpp:156] Memory required for data: 1254493728
I0403 16:43:29.228142 21380 layer_factory.hpp:77] Creating layer inception_4e/relu_pool_proj
I0403 16:43:29.228163 21380 net.cpp:91] Creating Layer inception_4e/relu_pool_proj
I0403 16:43:29.228181 21380 net.cpp:425] inception_4e/relu_pool_proj <- inception_4e/pool_proj
I0403 16:43:29.228199 21380 net.cpp:386] inception_4e/relu_pool_proj -> inception_4e/pool_proj (in-place)
I0403 16:43:29.228492 21380 net.cpp:141] Setting up inception_4e/relu_pool_proj
I0403 16:43:29.228518 21380 net.cpp:148] Top shape: 24 128 14 14 (602112)
I0403 16:43:29.228533 21380 net.cpp:156] Memory required for data: 1256902176
I0403 16:43:29.228549 21380 layer_factory.hpp:77] Creating layer inception_4e/output
I0403 16:43:29.228566 21380 net.cpp:91] Creating Layer inception_4e/output
I0403 16:43:29.228581 21380 net.cpp:425] inception_4e/output <- inception_4e/1x1
I0403 16:43:29.228597 21380 net.cpp:425] inception_4e/output <- inception_4e/3x3
I0403 16:43:29.228615 21380 net.cpp:425] inception_4e/output <- inception_4e/5x5
I0403 16:43:29.228629 21380 net.cpp:425] inception_4e/output <- inception_4e/pool_proj
I0403 16:43:29.228652 21380 net.cpp:399] inception_4e/output -> inception_4e/output
I0403 16:43:29.228701 21380 net.cpp:141] Setting up inception_4e/output
I0403 16:43:29.228727 21380 net.cpp:148] Top shape: 24 832 14 14 (3913728)
I0403 16:43:29.228744 21380 net.cpp:156] Memory required for data: 1272557088
I0403 16:43:29.228757 21380 layer_factory.hpp:77] Creating layer pool4/3x3_s2
I0403 16:43:29.228775 21380 net.cpp:91] Creating Layer pool4/3x3_s2
I0403 16:43:29.228790 21380 net.cpp:425] pool4/3x3_s2 <- inception_4e/output
I0403 16:43:29.228812 21380 net.cpp:399] pool4/3x3_s2 -> pool4/3x3_s2
I0403 16:43:29.228878 21380 net.cpp:141] Setting up pool4/3x3_s2
I0403 16:43:29.228902 21380 net.cpp:148] Top shape: 24 832 7 7 (978432)
I0403 16:43:29.228917 21380 net.cpp:156] Memory required for data: 1276470816
I0403 16:43:29.228931 21380 layer_factory.hpp:77] Creating layer pool4/3x3_s2_pool4/3x3_s2_0_split
I0403 16:43:29.228950 21380 net.cpp:91] Creating Layer pool4/3x3_s2_pool4/3x3_s2_0_split
I0403 16:43:29.228976 21380 net.cpp:425] pool4/3x3_s2_pool4/3x3_s2_0_split <- pool4/3x3_s2
I0403 16:43:29.228992 21380 net.cpp:399] pool4/3x3_s2_pool4/3x3_s2_0_split -> pool4/3x3_s2_pool4/3x3_s2_0_split_0
I0403 16:43:29.229012 21380 net.cpp:399] pool4/3x3_s2_pool4/3x3_s2_0_split -> pool4/3x3_s2_pool4/3x3_s2_0_split_1
I0403 16:43:29.229032 21380 net.cpp:399] pool4/3x3_s2_pool4/3x3_s2_0_split -> pool4/3x3_s2_pool4/3x3_s2_0_split_2
I0403 16:43:29.229053 21380 net.cpp:399] pool4/3x3_s2_pool4/3x3_s2_0_split -> pool4/3x3_s2_pool4/3x3_s2_0_split_3
I0403 16:43:29.229146 21380 net.cpp:141] Setting up pool4/3x3_s2_pool4/3x3_s2_0_split
I0403 16:43:29.229171 21380 net.cpp:148] Top shape: 24 832 7 7 (978432)
I0403 16:43:29.229187 21380 net.cpp:148] Top shape: 24 832 7 7 (978432)
I0403 16:43:29.229202 21380 net.cpp:148] Top shape: 24 832 7 7 (978432)
I0403 16:43:29.229217 21380 net.cpp:148] Top shape: 24 832 7 7 (978432)
I0403 16:43:29.229229 21380 net.cpp:156] Memory required for data: 1292125728
I0403 16:43:29.229244 21380 layer_factory.hpp:77] Creating layer inception_5a/1x1
I0403 16:43:29.229266 21380 net.cpp:91] Creating Layer inception_5a/1x1
I0403 16:43:29.229285 21380 net.cpp:425] inception_5a/1x1 <- pool4/3x3_s2_pool4/3x3_s2_0_split_0
I0403 16:43:29.229305 21380 net.cpp:399] inception_5a/1x1 -> inception_5a/1x1
I0403 16:43:29.232156 21380 net.cpp:141] Setting up inception_5a/1x1
I0403 16:43:29.232187 21380 net.cpp:148] Top shape: 24 256 7 7 (301056)
I0403 16:43:29.232203 21380 net.cpp:156] Memory required for data: 1293329952
I0403 16:43:29.232221 21380 layer_factory.hpp:77] Creating layer inception_5a/relu_1x1
I0403 16:43:29.232241 21380 net.cpp:91] Creating Layer inception_5a/relu_1x1
I0403 16:43:29.232257 21380 net.cpp:425] inception_5a/relu_1x1 <- inception_5a/1x1
I0403 16:43:29.232275 21380 net.cpp:386] inception_5a/relu_1x1 -> inception_5a/1x1 (in-place)
I0403 16:43:29.232661 21380 net.cpp:141] Setting up inception_5a/relu_1x1
I0403 16:43:29.232687 21380 net.cpp:148] Top shape: 24 256 7 7 (301056)
I0403 16:43:29.232702 21380 net.cpp:156] Memory required for data: 1294534176
I0403 16:43:29.232717 21380 layer_factory.hpp:77] Creating layer inception_5a/3x3_reduce
I0403 16:43:29.232738 21380 net.cpp:91] Creating Layer inception_5a/3x3_reduce
I0403 16:43:29.232756 21380 net.cpp:425] inception_5a/3x3_reduce <- pool4/3x3_s2_pool4/3x3_s2_0_split_1
I0403 16:43:29.232779 21380 net.cpp:399] inception_5a/3x3_reduce -> inception_5a/3x3_reduce
I0403 16:43:29.235218 21380 net.cpp:141] Setting up inception_5a/3x3_reduce
I0403 16:43:29.235249 21380 net.cpp:148] Top shape: 24 160 7 7 (188160)
I0403 16:43:29.235265 21380 net.cpp:156] Memory required for data: 1295286816
I0403 16:43:29.235285 21380 layer_factory.hpp:77] Creating layer inception_5a/relu_3x3_reduce
I0403 16:43:29.235302 21380 net.cpp:91] Creating Layer inception_5a/relu_3x3_reduce
I0403 16:43:29.235332 21380 net.cpp:425] inception_5a/relu_3x3_reduce <- inception_5a/3x3_reduce
I0403 16:43:29.235350 21380 net.cpp:386] inception_5a/relu_3x3_reduce -> inception_5a/3x3_reduce (in-place)
I0403 16:43:29.235538 21380 net.cpp:141] Setting up inception_5a/relu_3x3_reduce
I0403 16:43:29.235561 21380 net.cpp:148] Top shape: 24 160 7 7 (188160)
I0403 16:43:29.235575 21380 net.cpp:156] Memory required for data: 1296039456
I0403 16:43:29.235590 21380 layer_factory.hpp:77] Creating layer inception_5a/3x3
I0403 16:43:29.235612 21380 net.cpp:91] Creating Layer inception_5a/3x3
I0403 16:43:29.235628 21380 net.cpp:425] inception_5a/3x3 <- inception_5a/3x3_reduce
I0403 16:43:29.235651 21380 net.cpp:399] inception_5a/3x3 -> inception_5a/3x3
I0403 16:43:29.240672 21380 net.cpp:141] Setting up inception_5a/3x3
I0403 16:43:29.240703 21380 net.cpp:148] Top shape: 24 320 7 7 (376320)
I0403 16:43:29.240720 21380 net.cpp:156] Memory required for data: 1297544736
I0403 16:43:29.240739 21380 layer_factory.hpp:77] Creating layer inception_5a/relu_3x3
I0403 16:43:29.240761 21380 net.cpp:91] Creating Layer inception_5a/relu_3x3
I0403 16:43:29.240778 21380 net.cpp:425] inception_5a/relu_3x3 <- inception_5a/3x3
I0403 16:43:29.240795 21380 net.cpp:386] inception_5a/relu_3x3 -> inception_5a/3x3 (in-place)
I0403 16:43:29.241144 21380 net.cpp:141] Setting up inception_5a/relu_3x3
I0403 16:43:29.241171 21380 net.cpp:148] Top shape: 24 320 7 7 (376320)
I0403 16:43:29.241188 21380 net.cpp:156] Memory required for data: 1299050016
I0403 16:43:29.241204 21380 layer_factory.hpp:77] Creating layer inception_5a/5x5_reduce
I0403 16:43:29.241226 21380 net.cpp:91] Creating Layer inception_5a/5x5_reduce
I0403 16:43:29.241253 21380 net.cpp:425] inception_5a/5x5_reduce <- pool4/3x3_s2_pool4/3x3_s2_0_split_2
I0403 16:43:29.241300 21380 net.cpp:399] inception_5a/5x5_reduce -> inception_5a/5x5_reduce
I0403 16:43:29.242489 21380 net.cpp:141] Setting up inception_5a/5x5_reduce
I0403 16:43:29.242517 21380 net.cpp:148] Top shape: 24 32 7 7 (37632)
I0403 16:43:29.242532 21380 net.cpp:156] Memory required for data: 1299200544
I0403 16:43:29.242550 21380 layer_factory.hpp:77] Creating layer inception_5a/relu_5x5_reduce
I0403 16:43:29.242569 21380 net.cpp:91] Creating Layer inception_5a/relu_5x5_reduce
I0403 16:43:29.242586 21380 net.cpp:425] inception_5a/relu_5x5_reduce <- inception_5a/5x5_reduce
I0403 16:43:29.242602 21380 net.cpp:386] inception_5a/relu_5x5_reduce -> inception_5a/5x5_reduce (in-place)
I0403 16:43:29.242897 21380 net.cpp:141] Setting up inception_5a/relu_5x5_reduce
I0403 16:43:29.242921 21380 net.cpp:148] Top shape: 24 32 7 7 (37632)
I0403 16:43:29.242936 21380 net.cpp:156] Memory required for data: 1299351072
I0403 16:43:29.242950 21380 layer_factory.hpp:77] Creating layer inception_5a/5x5
I0403 16:43:29.242981 21380 net.cpp:91] Creating Layer inception_5a/5x5
I0403 16:43:29.242998 21380 net.cpp:425] inception_5a/5x5 <- inception_5a/5x5_reduce
I0403 16:43:29.243017 21380 net.cpp:399] inception_5a/5x5 -> inception_5a/5x5
I0403 16:43:29.244734 21380 net.cpp:141] Setting up inception_5a/5x5
I0403 16:43:29.244773 21380 net.cpp:148] Top shape: 24 128 7 7 (150528)
I0403 16:43:29.244791 21380 net.cpp:156] Memory required for data: 1299953184
I0403 16:43:29.244809 21380 layer_factory.hpp:77] Creating layer inception_5a/relu_5x5
I0403 16:43:29.244830 21380 net.cpp:91] Creating Layer inception_5a/relu_5x5
I0403 16:43:29.244848 21380 net.cpp:425] inception_5a/relu_5x5 <- inception_5a/5x5
I0403 16:43:29.244864 21380 net.cpp:386] inception_5a/relu_5x5 -> inception_5a/5x5 (in-place)
I0403 16:43:29.245064 21380 net.cpp:141] Setting up inception_5a/relu_5x5
I0403 16:43:29.245087 21380 net.cpp:148] Top shape: 24 128 7 7 (150528)
I0403 16:43:29.245101 21380 net.cpp:156] Memory required for data: 1300555296
I0403 16:43:29.245115 21380 layer_factory.hpp:77] Creating layer inception_5a/pool
I0403 16:43:29.245134 21380 net.cpp:91] Creating Layer inception_5a/pool
I0403 16:43:29.245151 21380 net.cpp:425] inception_5a/pool <- pool4/3x3_s2_pool4/3x3_s2_0_split_3
I0403 16:43:29.245172 21380 net.cpp:399] inception_5a/pool -> inception_5a/pool
I0403 16:43:29.245240 21380 net.cpp:141] Setting up inception_5a/pool
I0403 16:43:29.245263 21380 net.cpp:148] Top shape: 24 832 7 7 (978432)
I0403 16:43:29.245277 21380 net.cpp:156] Memory required for data: 1304469024
I0403 16:43:29.245291 21380 layer_factory.hpp:77] Creating layer inception_5a/pool_proj
I0403 16:43:29.245312 21380 net.cpp:91] Creating Layer inception_5a/pool_proj
I0403 16:43:29.245329 21380 net.cpp:425] inception_5a/pool_proj <- inception_5a/pool
I0403 16:43:29.245350 21380 net.cpp:399] inception_5a/pool_proj -> inception_5a/pool_proj
I0403 16:43:29.247632 21380 net.cpp:141] Setting up inception_5a/pool_proj
I0403 16:43:29.247660 21380 net.cpp:148] Top shape: 24 128 7 7 (150528)
I0403 16:43:29.247676 21380 net.cpp:156] Memory required for data: 1305071136
I0403 16:43:29.247695 21380 layer_factory.hpp:77] Creating layer inception_5a/relu_pool_proj
I0403 16:43:29.247714 21380 net.cpp:91] Creating Layer inception_5a/relu_pool_proj
I0403 16:43:29.247730 21380 net.cpp:425] inception_5a/relu_pool_proj <- inception_5a/pool_proj
I0403 16:43:29.247748 21380 net.cpp:386] inception_5a/relu_pool_proj -> inception_5a/pool_proj (in-place)
I0403 16:43:29.248069 21380 net.cpp:141] Setting up inception_5a/relu_pool_proj
I0403 16:43:29.248095 21380 net.cpp:148] Top shape: 24 128 7 7 (150528)
I0403 16:43:29.248109 21380 net.cpp:156] Memory required for data: 1305673248
I0403 16:43:29.248124 21380 layer_factory.hpp:77] Creating layer inception_5a/output
I0403 16:43:29.248142 21380 net.cpp:91] Creating Layer inception_5a/output
I0403 16:43:29.248157 21380 net.cpp:425] inception_5a/output <- inception_5a/1x1
I0403 16:43:29.248173 21380 net.cpp:425] inception_5a/output <- inception_5a/3x3
I0403 16:43:29.248189 21380 net.cpp:425] inception_5a/output <- inception_5a/5x5
I0403 16:43:29.248204 21380 net.cpp:425] inception_5a/output <- inception_5a/pool_proj
I0403 16:43:29.248224 21380 net.cpp:399] inception_5a/output -> inception_5a/output
I0403 16:43:29.248275 21380 net.cpp:141] Setting up inception_5a/output
I0403 16:43:29.248301 21380 net.cpp:148] Top shape: 24 832 7 7 (978432)
I0403 16:43:29.248328 21380 net.cpp:156] Memory required for data: 1309586976
I0403 16:43:29.248342 21380 layer_factory.hpp:77] Creating layer inception_5a/output_inception_5a/output_0_split
I0403 16:43:29.248359 21380 net.cpp:91] Creating Layer inception_5a/output_inception_5a/output_0_split
I0403 16:43:29.248374 21380 net.cpp:425] inception_5a/output_inception_5a/output_0_split <- inception_5a/output
I0403 16:43:29.248391 21380 net.cpp:399] inception_5a/output_inception_5a/output_0_split -> inception_5a/output_inception_5a/output_0_split_0
I0403 16:43:29.248412 21380 net.cpp:399] inception_5a/output_inception_5a/output_0_split -> inception_5a/output_inception_5a/output_0_split_1
I0403 16:43:29.248432 21380 net.cpp:399] inception_5a/output_inception_5a/output_0_split -> inception_5a/output_inception_5a/output_0_split_2
I0403 16:43:29.248452 21380 net.cpp:399] inception_5a/output_inception_5a/output_0_split -> inception_5a/output_inception_5a/output_0_split_3
I0403 16:43:29.248567 21380 net.cpp:141] Setting up inception_5a/output_inception_5a/output_0_split
I0403 16:43:29.248590 21380 net.cpp:148] Top shape: 24 832 7 7 (978432)
I0403 16:43:29.248606 21380 net.cpp:148] Top shape: 24 832 7 7 (978432)
I0403 16:43:29.248621 21380 net.cpp:148] Top shape: 24 832 7 7 (978432)
I0403 16:43:29.248636 21380 net.cpp:148] Top shape: 24 832 7 7 (978432)
I0403 16:43:29.248648 21380 net.cpp:156] Memory required for data: 1325241888
I0403 16:43:29.248662 21380 layer_factory.hpp:77] Creating layer inception_5b/1x1
I0403 16:43:29.248685 21380 net.cpp:91] Creating Layer inception_5b/1x1
I0403 16:43:29.248703 21380 net.cpp:425] inception_5b/1x1 <- inception_5a/output_inception_5a/output_0_split_0
I0403 16:43:29.248720 21380 net.cpp:399] inception_5b/1x1 -> inception_5b/1x1
I0403 16:43:29.252472 21380 net.cpp:141] Setting up inception_5b/1x1
I0403 16:43:29.252501 21380 net.cpp:148] Top shape: 24 384 7 7 (451584)
I0403 16:43:29.252517 21380 net.cpp:156] Memory required for data: 1327048224
I0403 16:43:29.252535 21380 layer_factory.hpp:77] Creating layer inception_5b/relu_1x1
I0403 16:43:29.252554 21380 net.cpp:91] Creating Layer inception_5b/relu_1x1
I0403 16:43:29.252571 21380 net.cpp:425] inception_5b/relu_1x1 <- inception_5b/1x1
I0403 16:43:29.252591 21380 net.cpp:386] inception_5b/relu_1x1 -> inception_5b/1x1 (in-place)
I0403 16:43:29.252892 21380 net.cpp:141] Setting up inception_5b/relu_1x1
I0403 16:43:29.252917 21380 net.cpp:148] Top shape: 24 384 7 7 (451584)
I0403 16:43:29.252930 21380 net.cpp:156] Memory required for data: 1328854560
I0403 16:43:29.252944 21380 layer_factory.hpp:77] Creating layer inception_5b/3x3_reduce
I0403 16:43:29.252974 21380 net.cpp:91] Creating Layer inception_5b/3x3_reduce
I0403 16:43:29.252991 21380 net.cpp:425] inception_5b/3x3_reduce <- inception_5a/output_inception_5a/output_0_split_1
I0403 16:43:29.253013 21380 net.cpp:399] inception_5b/3x3_reduce -> inception_5b/3x3_reduce
I0403 16:43:29.255684 21380 net.cpp:141] Setting up inception_5b/3x3_reduce
I0403 16:43:29.255714 21380 net.cpp:148] Top shape: 24 192 7 7 (225792)
I0403 16:43:29.255730 21380 net.cpp:156] Memory required for data: 1329757728
I0403 16:43:29.255749 21380 layer_factory.hpp:77] Creating layer inception_5b/relu_3x3_reduce
I0403 16:43:29.255769 21380 net.cpp:91] Creating Layer inception_5b/relu_3x3_reduce
I0403 16:43:29.255784 21380 net.cpp:425] inception_5b/relu_3x3_reduce <- inception_5b/3x3_reduce
I0403 16:43:29.255802 21380 net.cpp:386] inception_5b/relu_3x3_reduce -> inception_5b/3x3_reduce (in-place)
I0403 16:43:29.255996 21380 net.cpp:141] Setting up inception_5b/relu_3x3_reduce
I0403 16:43:29.256021 21380 net.cpp:148] Top shape: 24 192 7 7 (225792)
I0403 16:43:29.256036 21380 net.cpp:156] Memory required for data: 1330660896
I0403 16:43:29.256049 21380 layer_factory.hpp:77] Creating layer inception_5b/3x3
I0403 16:43:29.256070 21380 net.cpp:91] Creating Layer inception_5b/3x3
I0403 16:43:29.256088 21380 net.cpp:425] inception_5b/3x3 <- inception_5b/3x3_reduce
I0403 16:43:29.256108 21380 net.cpp:399] inception_5b/3x3 -> inception_5b/3x3
I0403 16:43:29.262688 21380 net.cpp:141] Setting up inception_5b/3x3
I0403 16:43:29.262717 21380 net.cpp:148] Top shape: 24 384 7 7 (451584)
I0403 16:43:29.262734 21380 net.cpp:156] Memory required for data: 1332467232
I0403 16:43:29.262753 21380 layer_factory.hpp:77] Creating layer inception_5b/relu_3x3
I0403 16:43:29.262770 21380 net.cpp:91] Creating Layer inception_5b/relu_3x3
I0403 16:43:29.262786 21380 net.cpp:425] inception_5b/relu_3x3 <- inception_5b/3x3
I0403 16:43:29.262806 21380 net.cpp:386] inception_5b/relu_3x3 -> inception_5b/3x3 (in-place)
I0403 16:43:29.263123 21380 net.cpp:141] Setting up inception_5b/relu_3x3
I0403 16:43:29.263150 21380 net.cpp:148] Top shape: 24 384 7 7 (451584)
I0403 16:43:29.263164 21380 net.cpp:156] Memory required for data: 1334273568
I0403 16:43:29.263180 21380 layer_factory.hpp:77] Creating layer inception_5b/5x5_reduce
I0403 16:43:29.263217 21380 net.cpp:91] Creating Layer inception_5b/5x5_reduce
I0403 16:43:29.263236 21380 net.cpp:425] inception_5b/5x5_reduce <- inception_5a/output_inception_5a/output_0_split_2
I0403 16:43:29.263258 21380 net.cpp:399] inception_5b/5x5_reduce -> inception_5b/5x5_reduce
I0403 16:43:29.264531 21380 net.cpp:141] Setting up inception_5b/5x5_reduce
I0403 16:43:29.264559 21380 net.cpp:148] Top shape: 24 48 7 7 (56448)
I0403 16:43:29.264575 21380 net.cpp:156] Memory required for data: 1334499360
I0403 16:43:29.264591 21380 layer_factory.hpp:77] Creating layer inception_5b/relu_5x5_reduce
I0403 16:43:29.264612 21380 net.cpp:91] Creating Layer inception_5b/relu_5x5_reduce
I0403 16:43:29.264629 21380 net.cpp:425] inception_5b/relu_5x5_reduce <- inception_5b/5x5_reduce
I0403 16:43:29.264647 21380 net.cpp:386] inception_5b/relu_5x5_reduce -> inception_5b/5x5_reduce (in-place)
I0403 16:43:29.265027 21380 net.cpp:141] Setting up inception_5b/relu_5x5_reduce
I0403 16:43:29.265053 21380 net.cpp:148] Top shape: 24 48 7 7 (56448)
I0403 16:43:29.265067 21380 net.cpp:156] Memory required for data: 1334725152
I0403 16:43:29.265081 21380 layer_factory.hpp:77] Creating layer inception_5b/5x5
I0403 16:43:29.265101 21380 net.cpp:91] Creating Layer inception_5b/5x5
I0403 16:43:29.265118 21380 net.cpp:425] inception_5b/5x5 <- inception_5b/5x5_reduce
I0403 16:43:29.265136 21380 net.cpp:399] inception_5b/5x5 -> inception_5b/5x5
I0403 16:43:29.267168 21380 net.cpp:141] Setting up inception_5b/5x5
I0403 16:43:29.267197 21380 net.cpp:148] Top shape: 24 128 7 7 (150528)
I0403 16:43:29.267213 21380 net.cpp:156] Memory required for data: 1335327264
I0403 16:43:29.267232 21380 layer_factory.hpp:77] Creating layer inception_5b/relu_5x5
I0403 16:43:29.267253 21380 net.cpp:91] Creating Layer inception_5b/relu_5x5
I0403 16:43:29.267272 21380 net.cpp:425] inception_5b/relu_5x5 <- inception_5b/5x5
I0403 16:43:29.267290 21380 net.cpp:386] inception_5b/relu_5x5 -> inception_5b/5x5 (in-place)
I0403 16:43:29.267494 21380 net.cpp:141] Setting up inception_5b/relu_5x5
I0403 16:43:29.267523 21380 net.cpp:148] Top shape: 24 128 7 7 (150528)
I0403 16:43:29.267539 21380 net.cpp:156] Memory required for data: 1335929376
I0403 16:43:29.267552 21380 layer_factory.hpp:77] Creating layer inception_5b/pool
I0403 16:43:29.267570 21380 net.cpp:91] Creating Layer inception_5b/pool
I0403 16:43:29.267585 21380 net.cpp:425] inception_5b/pool <- inception_5a/output_inception_5a/output_0_split_3
I0403 16:43:29.267603 21380 net.cpp:399] inception_5b/pool -> inception_5b/pool
I0403 16:43:29.267674 21380 net.cpp:141] Setting up inception_5b/pool
I0403 16:43:29.267698 21380 net.cpp:148] Top shape: 24 832 7 7 (978432)
I0403 16:43:29.267711 21380 net.cpp:156] Memory required for data: 1339843104
I0403 16:43:29.267725 21380 layer_factory.hpp:77] Creating layer inception_5b/pool_proj
I0403 16:43:29.267746 21380 net.cpp:91] Creating Layer inception_5b/pool_proj
I0403 16:43:29.267763 21380 net.cpp:425] inception_5b/pool_proj <- inception_5b/pool
I0403 16:43:29.267783 21380 net.cpp:399] inception_5b/pool_proj -> inception_5b/pool_proj
I0403 16:43:29.270068 21380 net.cpp:141] Setting up inception_5b/pool_proj
I0403 16:43:29.270098 21380 net.cpp:148] Top shape: 24 128 7 7 (150528)
I0403 16:43:29.270115 21380 net.cpp:156] Memory required for data: 1340445216
I0403 16:43:29.270134 21380 layer_factory.hpp:77] Creating layer inception_5b/relu_pool_proj
I0403 16:43:29.270154 21380 net.cpp:91] Creating Layer inception_5b/relu_pool_proj
I0403 16:43:29.270171 21380 net.cpp:425] inception_5b/relu_pool_proj <- inception_5b/pool_proj
I0403 16:43:29.270189 21380 net.cpp:386] inception_5b/relu_pool_proj -> inception_5b/pool_proj (in-place)
I0403 16:43:29.270483 21380 net.cpp:141] Setting up inception_5b/relu_pool_proj
I0403 16:43:29.270509 21380 net.cpp:148] Top shape: 24 128 7 7 (150528)
I0403 16:43:29.270524 21380 net.cpp:156] Memory required for data: 1341047328
I0403 16:43:29.270539 21380 layer_factory.hpp:77] Creating layer inception_5b/output
I0403 16:43:29.270555 21380 net.cpp:91] Creating Layer inception_5b/output
I0403 16:43:29.270584 21380 net.cpp:425] inception_5b/output <- inception_5b/1x1
I0403 16:43:29.270606 21380 net.cpp:425] inception_5b/output <- inception_5b/3x3
I0403 16:43:29.270622 21380 net.cpp:425] inception_5b/output <- inception_5b/5x5
I0403 16:43:29.270637 21380 net.cpp:425] inception_5b/output <- inception_5b/pool_proj
I0403 16:43:29.270653 21380 net.cpp:399] inception_5b/output -> inception_5b/output
I0403 16:43:29.270704 21380 net.cpp:141] Setting up inception_5b/output
I0403 16:43:29.270730 21380 net.cpp:148] Top shape: 24 1024 7 7 (1204224)
I0403 16:43:29.270745 21380 net.cpp:156] Memory required for data: 1345864224
I0403 16:43:29.270758 21380 layer_factory.hpp:77] Creating layer pool5/7x7_s1
I0403 16:43:29.270776 21380 net.cpp:91] Creating Layer pool5/7x7_s1
I0403 16:43:29.270790 21380 net.cpp:425] pool5/7x7_s1 <- inception_5b/output
I0403 16:43:29.270809 21380 net.cpp:399] pool5/7x7_s1 -> pool5/7x7_s1
I0403 16:43:29.271046 21380 net.cpp:141] Setting up pool5/7x7_s1
I0403 16:43:29.271072 21380 net.cpp:148] Top shape: 24 1024 1 1 (24576)
I0403 16:43:29.271087 21380 net.cpp:156] Memory required for data: 1345962528
I0403 16:43:29.271101 21380 layer_factory.hpp:77] Creating layer pool5/drop_7x7_s1
I0403 16:43:29.271121 21380 net.cpp:91] Creating Layer pool5/drop_7x7_s1
I0403 16:43:29.271138 21380 net.cpp:425] pool5/drop_7x7_s1 <- pool5/7x7_s1
I0403 16:43:29.271155 21380 net.cpp:386] pool5/drop_7x7_s1 -> pool5/7x7_s1 (in-place)
I0403 16:43:29.271208 21380 net.cpp:141] Setting up pool5/drop_7x7_s1
I0403 16:43:29.271231 21380 net.cpp:148] Top shape: 24 1024 1 1 (24576)
I0403 16:43:29.271245 21380 net.cpp:156] Memory required for data: 1346060832
I0403 16:43:29.271260 21380 layer_factory.hpp:77] Creating layer loss3/classifier_plantvillage
I0403 16:43:29.271281 21380 net.cpp:91] Creating Layer loss3/classifier_plantvillage
I0403 16:43:29.271296 21380 net.cpp:425] loss3/classifier_plantvillage <- pool5/7x7_s1
I0403 16:43:29.271328 21380 net.cpp:399] loss3/classifier_plantvillage -> loss3/classifier_plantvillage
I0403 16:43:29.271746 21380 net.cpp:141] Setting up loss3/classifier_plantvillage
I0403 16:43:29.271770 21380 net.cpp:148] Top shape: 24 38 (912)
I0403 16:43:29.271785 21380 net.cpp:156] Memory required for data: 1346064480
I0403 16:43:29.271801 21380 layer_factory.hpp:77] Creating layer loss3/classifier_plantvillage_loss3/classifier_plantvillage_0_split
I0403 16:43:29.271818 21380 net.cpp:91] Creating Layer loss3/classifier_plantvillage_loss3/classifier_plantvillage_0_split
I0403 16:43:29.271834 21380 net.cpp:425] loss3/classifier_plantvillage_loss3/classifier_plantvillage_0_split <- loss3/classifier_plantvillage
I0403 16:43:29.271853 21380 net.cpp:399] loss3/classifier_plantvillage_loss3/classifier_plantvillage_0_split -> loss3/classifier_plantvillage_loss3/classifier_plantvillage_0_split_0
I0403 16:43:29.271874 21380 net.cpp:399] loss3/classifier_plantvillage_loss3/classifier_plantvillage_0_split -> loss3/classifier_plantvillage_loss3/classifier_plantvillage_0_split_1
I0403 16:43:29.271893 21380 net.cpp:399] loss3/classifier_plantvillage_loss3/classifier_plantvillage_0_split -> loss3/classifier_plantvillage_loss3/classifier_plantvillage_0_split_2
I0403 16:43:29.271913 21380 net.cpp:399] loss3/classifier_plantvillage_loss3/classifier_plantvillage_0_split -> loss3/classifier_plantvillage_loss3/classifier_plantvillage_0_split_3
I0403 16:43:29.272033 21380 net.cpp:141] Setting up loss3/classifier_plantvillage_loss3/classifier_plantvillage_0_split
I0403 16:43:29.272056 21380 net.cpp:148] Top shape: 24 38 (912)
I0403 16:43:29.272073 21380 net.cpp:148] Top shape: 24 38 (912)
I0403 16:43:29.272088 21380 net.cpp:148] Top shape: 24 38 (912)
I0403 16:43:29.272102 21380 net.cpp:148] Top shape: 24 38 (912)
I0403 16:43:29.272116 21380 net.cpp:156] Memory required for data: 1346079072
I0403 16:43:29.272130 21380 layer_factory.hpp:77] Creating layer loss1/loss
I0403 16:43:29.272153 21380 net.cpp:91] Creating Layer loss1/loss
I0403 16:43:29.272171 21380 net.cpp:425] loss1/loss <- loss1/classifier_plantvillage_loss1/classifier_plantvillage_0_split_0
I0403 16:43:29.272202 21380 net.cpp:425] loss1/loss <- label_data_1_split_0
…
