…
I0403 16:26:59.064072 21080 net.cpp:313] The NetState phase (1) differed from the phase (0) specified by a rule in layer data
I0403 16:26:59.065183 21080 net.cpp:49] Initializing net from parameters: 
state {
  phase: TEST
}
layer {
  name: "data"
  type: "Data"
  top: "data"
  top: "label"
  include {
    phase: TEST
  }
  transform_param {
    mirror: false
    crop_size: 224
    mean_file: "/home/mohanty/data/final_dataset/lmdb/color-40-60/mean.binaryproto"
  }
  data_param {
    source: "/home/mohanty/data/final_dataset/lmdb/color-40-60/test_db"
    batch_size: 24
    backend: LMDB
  }
}
layer {
  name: "conv1/7x7_s2"
  type: "Convolution"
  bottom: "data"
  top: "conv1/7x7_s2"
  param {
    lr_mult: 1
    decay_mult: 1
  }
  param {
    lr_mult: 2
    decay_mult: 0
  }
  convolution_param {
    num_output: 64
    pad: 3
    kernel_size: 7
    stride: 2
    weight_filler {
      type: "xavier"
      std: 0.1
    }
    bias_filler {
      type: "constant"
      value: 0.2
    }
  }
}
layer {
  name: "conv1/relu_7x7"
  type: "ReLU"
  bottom: "conv1/7x7_s2"
  top: "conv1/7x7_s2"
}
layer {
  name: "pool1/3x3_s2"
  type: "Pooling"
  bottom: "conv1/7x7_s2"
  top: "pool1/3x3_s2"
  pooling_param {
    pool: MAX
    kernel_size: 3
    stride: 2
  }
}
layer {
  name: "pool1/norm1"
  type: "LRN"
  bottom: "pool1/3x3_s2"
  top: "pool1/norm1"
  lrn_param {
    local_size: 5
    alpha: 0.0001
    beta: 0.75
  }
}
layer {
  name: "conv2/3x3_reduce"
  type: "Convolution"
  bottom: "pool1/norm1"
  top: "conv2/3x3_reduce"
  param {
    lr_mult: 1
    decay_mult: 1
  }
  param {
    lr_mult: 2
    decay_mult: 0
  }
  convolution_param {
    num_output: 64
    kernel_size: 1
    weight_filler {
      type: "xavier"
      std: 0.1
    }
    bias_filler {
      type: "constant"
      value: 0.2
    }
  }
}
layer {
  name: "conv2/relu_3x3_reduce"
  type: "ReLU"
  bottom: "conv2/3x3_reduce"
  top: "conv2/3x3_reduce"
}
layer {
  name: "conv2/3x3"
  type: "Convolution"
  bottom: "conv2/3x3_reduce"
  top: "conv2/3x3"
  param {
    lr_mult: 1
    decay_mult: 1
  }
  param {
    lr_mult: 2
    decay_mult: 0
  }
  convolution_param {
    num_output: 192
    pad: 1
    kernel_size: 3
    weight_filler {
      type: "xavier"
      std: 0.03
    }
    bias_filler {
      type: "constant"
      value: 0.2
    }
  }
}
layer {
  name: "conv2/relu_3x3"
  type: "ReLU"
  bottom: "conv2/3x3"
  top: "conv2/3x3"
}
layer {
  name: "conv2/norm2"
  type: "LRN"
  bottom: "conv2/3x3"
  top: "conv2/norm2"
  lrn_param {
    local_size: 5
    alpha: 0.0001
    beta: 0.75
  }
}
layer {
  name: "pool2/3x3_s2"
  type: "Pooling"
  bottom: "conv2/norm2"
  top: "pool2/3x3_s2"
  pooling_param {
    pool: MAX
    kernel_size: 3
    stride: 2
  }
}
layer {
  name: "inception_3a/1x1"
  type: "Convolution"
  bottom: "pool2/3x3_s2"
  top: "inception_3a/1x1"
  param {
    lr_mult: 1
    decay_mult: 1
  }
  param {
    lr_mult: 2
    decay_mult: 0
  }
  convolution_param {
    num_output: 64
    kernel_size: 1
    weight_filler {
      type: "xavier"
      std: 0.03
    }
    bias_filler {
      type: "constant"
      value: 0.2
    }
  }
}
layer {
  name: "inception_3a/relu_1x1"
  type: "ReLU"
  bottom: "inception_3a/1x1"
  top: "inception_3a/1x1"
}
layer {
  name: "inception_3a/3x3_reduce"
  type: "Convolution"
  bottom: "pool2/3x3_s2"
  top: "inception_3a/3x3_reduce"
  param {
    lr_mult: 1
    decay_mult: 1
  }
  param {
    lr_mult: 2
    decay_mult: 0
  }
  convolution_param {
    num_output: 96
    kernel_size: 1
    weight_filler {
      type: "xavier"
      std: 0.09
    }
    bias_filler {
      type: "constant"
      value: 0.2
    }
  }
}
layer {
  name: "inception_3a/relu_3x3_reduce"
  type: "ReLU"
  bottom: "inception_3a/3x3_reduce"
  top: "inception_3a/3x3_reduce"
}
layer {
  name: "inception_3a/3x3"
  type: "Convolution"
  bottom: "inception_3a/3x3_reduce"
  top: "inception_3a/3x3"
  param {
    lr_mult: 1
    decay_mult: 1
  }
  param {
    lr_mult: 2
    decay_mult: 0
  }
  convolution_param {
    num_output: 128
    pad: 1
    kernel_size: 3
    weight_filler {
      type: "xavier"
      std: 0.03
    }
    bias_filler {
      type: "constant"
      value: 0.2
    }
  }
}
layer {
  name: "inception_3a/relu_3x3"
  type: "ReLU"
  bottom: "inception_3a/3x3"
  top: "inception_3a/3x3"
}
layer {
  name: "inception_3a/5x5_reduce"
  type: "Convolution"
  bottom: "pool2/3x3_s2"
  top: "inception_3a/5x5_reduce"
  param {
    lr_mult: 1
    decay_mult: 1
  }
  param {
    lr_mult: 2
    decay_mult: 0
  }
  convolution_param {
    num_output: 16
    kernel_size: 1
    weight_filler {
      type: "xavier"
      std: 0.2
    }
    bias_filler {
      type: "constant"
      value: 0.2
    }
  }
}
layer {
  name: "inception_3a/relu_5x5_reduce"
  type: "ReLU"
  bottom: "inception_3a/5x5_reduce"
  top: "inception_3a/5x5_reduce"
}
layer {
  name: "inception_3a/5x5"
  type: "Convolution"
  bottom: "inception_3a/5x5_reduce"
  top: "inception_3a/5x5"
  param {
    lr_mult: 1
    decay_mult: 1
  }
  param {
    lr_mult: 2
    decay_mult: 0
  }
  convolution_param {
    num_output: 32
    pad: 2
    kernel_size: 5
    weight_filler {
      type: "xavier"
      std: 0.03
    }
    bias_filler {
      type: "constant"
      value: 0.2
    }
  }
}
layer {
  name: "inception_3a/relu_5x5"
  type: "ReLU"
  bottom: "inception_3a/5x5"
  top: "inception_3a/5x5"
}
layer {
  name: "inception_3a/pool"
  type: "Pooling"
  bottom: "pool2/3x3_s2"
  top: "inception_3a/pool"
  pooling_param {
    pool: MAX
    kernel_size: 3
    stride: 1
    pad: 1
  }
}
layer {
  name: "inception_3a/pool_proj"
  type: "Convolution"
  bottom: "inception_3a/pool"
  top: "inception_3a/pool_proj"
  param {
    lr_mult: 1
    decay_mult: 1
  }
  param {
    lr_mult: 2
    decay_mult: 0
  }
  convolution_param {
    num_output: 32
    kernel_size: 1
    weight_filler {
      type: "xavier"
      std: 0.1
    }
    bias_filler {
      type: "constant"
      value: 0.2
    }
  }
}
layer {
  name: "inception_3a/relu_pool_proj"
  type: "ReLU"
  bottom: "inception_3a/pool_proj"
  top: "inception_3a/pool_proj"
}
layer {
  name: "inception_3a/output"
  type: "Concat"
  bottom: "inception_3a/1x1"
  bottom: "inception_3a/3x3"
  bottom: "inception_3a/5x5"
  bottom: "inception_3a/pool_proj"
  top: "inception_3a/output"
}
layer {
  name: "inception_3b/1x1"
  type: "Convolution"
  bottom: "inception_3a/output"
  top: "inception_3b/1x1"
  param {
    lr_mult: 1
    decay_mult: 1
  }
  param {
    lr_mult: 2
    decay_mult: 0
  }
  convolution_param {
    num_output: 128
    kernel_size: 1
    weight_filler {
      type: "xavier"
      std: 0.03
    }
    bias_filler {
      type: "constant"
      value: 0.2
    }
  }
}
layer {
  name: "inception_3b/relu_1x1"
  type: "ReLU"
  bottom: "inception_3b/1x1"
  top: "inception_3b/1x1"
}
layer {
  name: "inception_3b/3x3_reduce"
  type: "Convolution"
  bottom: "inception_3a/output"
  top: "inception_3b/3x3_reduce"
  param {
    lr_mult: 1
    decay_mult: 1
  }
  param {
    lr_mult: 2
    decay_mult: 0
  }
  convolution_param {
    num_output: 128
    kernel_size: 1
    weight_filler {
      type: "xavier"
      std: 0.09
    }
    bias_filler {
      type: "constant"
      value: 0.2
    }
  }
}
layer {
  name: "inception_3b/relu_3x3_reduce"
  type: "ReLU"
  bottom: "inception_3b/3x3_reduce"
  top: "inception_3b/3x3_reduce"
}
layer {
  name: "inception_3b/3x3"
  type: "Convolution"
  bottom: "inception_3b/3x3_reduce"
  top: "inception_3b/3x3"
  param {
    lr_mult: 1
    decay_mult: 1
  }
  param {
    lr_mult: 2
    decay_mult: 0
  }
  convolution_param {
    num_output: 192
    pad: 1
    kernel_size: 3
    weight_filler {
      type: "xavier"
      std: 0.03
    }
    bias_filler {
      type: "constant"
      value: 0.2
    }
  }
}
layer {
  name: "inception_3b/relu_3x3"
  type: "ReLU"
  bottom: "inception_3b/3x3"
  top: "inception_3b/3x3"
}
layer {
  name: "inception_3b/5x5_reduce"
  type: "Convolution"
  bottom: "inception_3a/output"
  top: "inception_3b/5x5_reduce"
  param {
    lr_mult: 1
    decay_mult: 1
  }
  param {
    lr_mult: 2
    decay_mult: 0
  }
  convolution_param {
    num_output: 32
    kernel_size: 1
    weight_filler {
      type: "xavier"
      std: 0.2
    }
    bias_filler {
      type: "constant"
      value: 0.2
    }
  }
}
layer {
  name: "inception_3b/relu_5x5_reduce"
  type: "ReLU"
  bottom: "inception_3b/5x5_reduce"
  top: "inception_3b/5x5_reduce"
}
layer {
  name: "inception_3b/5x5"
  type: "Convolution"
  bottom: "inception_3b/5x5_reduce"
  top: "inception_3b/5x5"
  param {
    lr_mult: 1
    decay_mult: 1
  }
  param {
    lr_mult: 2
    decay_mult: 0
  }
  convolution_param {
    num_output: 96
    pad: 2
    kernel_size: 5
    weight_filler {
      type: "xavier"
      std: 0.03
    }
    bias_filler {
      type: "constant"
      value: 0.2
    }
  }
}
layer {
  name: "inception_3b/relu_5x5"
  type: "ReLU"
  bottom: "inception_3b/5x5"
  top: "inception_3b/5x5"
}
layer {
  name: "inception_3b/pool"
  type: "Pooling"
  bottom: "inception_3a/output"
  top: "inception_3b/pool"
  pooling_param {
    pool: MAX
    kernel_size: 3
    stride: 1
    pad: 1
  }
}
layer {
  name: "inception_3b/pool_proj"
  type: "Convolution"
  bottom: "inception_3b/pool"
  top: "inception_3b/pool_proj"
  param {
    lr_mult: 1
    decay_mult: 1
  }
  param {
    lr_mult: 2
    decay_mult: 0
  }
  convolution_param {
    num_output: 64
    kernel_size: 1
    weight_filler {
      type: "xavier"
      std: 0.1
    }
    bias_filler {
      type: "constant"
      value: 0.2
    }
  }
}
layer {
  name: "inception_3b/relu_pool_proj"
  type: "ReLU"
  bottom: "inception_3b/pool_proj"
  top: "inception_3b/pool_proj"
}
layer {
  name: "inception_3b/output"
  type: "Concat"
  bottom: "inception_3b/1x1"
  bottom: "inception_3b/3x3"
  bottom: "inception_3b/5x5"
  bottom: "inception_3b/pool_proj"
  top: "inception_3b/output"
}
layer {
  name: "pool3/3x3_s2"
  type: "Pooling"
  bottom: "inception_3b/output"
  top: "pool3/3x3_s2"
  pooling_param {
    pool: MAX
    kernel_size: 3
    stride: 2
  }
}
layer {
  name: "inception_4a/1x1"
  type: "Convolution"
  bottom: "pool3/3x3_s2"
  top: "inception_4a/1x1"
  param {
    lr_mult: 1
    decay_mult: 1
  }
  param {
    lr_mult: 2
    decay_mult: 0
  }
  convolution_param {
    num_output: 192
    kernel_size: 1
    weight_filler {
      type: "xavier"
      std: 0.03
    }
    bias_filler {
      type: "constant"
      value: 0.2
    }
  }
}
layer {
  name: "inception_4a/relu_1x1"
  type: "ReLU"
  bottom: "inception_4a/1x1"
  top: "inception_4a/1x1"
}
layer {
  name: "inception_4a/3x3_reduce"
  type: "Convolution"
  bottom: "pool3/3x3_s2"
  top: "inception_4a/3x3_reduce"
  param {
    lr_mult: 1
    decay_mult: 1
  }
  param {
    lr_mult: 2
    decay_mult: 0
  }
  convolution_param {
    num_output: 96
    kernel_size: 1
    weight_filler {
      type: "xavier"
      std: 0.09
    }
    bias_filler {
      type: "constant"
      value: 0.2
    }
  }
}
layer {
  name: "inception_4a/relu_3x3_reduce"
  type: "ReLU"
  bottom: "inception_4a/3x3_reduce"
  top: "inception_4a/3x3_reduce"
}
layer {
  name: "inception_4a/3x3"
  type: "Convolution"
  bottom: "inception_4a/3x3_reduce"
  top: "inception_4a/3x3"
  param {
    lr_mult: 1
    decay_mult: 1
  }
  param {
    lr_mult: 2
    decay_mult: 0
  }
  convolution_param {
    num_output: 208
    pad: 1
    kernel_size: 3
    weight_filler {
      type: "xavier"
      std: 0.03
    }
    bias_filler {
      type: "constant"
      value: 0.2
    }
  }
}
layer {
  name: "inception_4a/relu_3x3"
  type: "ReLU"
  bottom: "inception_4a/3x3"
  top: "inception_4a/3x3"
}
layer {
  name: "inception_4a/5x5_reduce"
  type: "Convolution"
  bottom: "pool3/3x3_s2"
  top: "inception_4a/5x5_reduce"
  param {
    lr_mult: 1
    decay_mult: 1
  }
  param {
    lr_mult: 2
    decay_mult: 0
  }
  convolution_param {
    num_output: 16
    kernel_size: 1
    weight_filler {
      type: "xavier"
      std: 0.2
    }
    bias_filler {
      type: "constant"
      value: 0.2
    }
  }
}
layer {
  name: "inception_4a/relu_5x5_reduce"
  type: "ReLU"
  bottom: "inception_4a/5x5_reduce"
  top: "inception_4a/5x5_reduce"
}
layer {
  name: "inception_4a/5x5"
  type: "Convolution"
  bottom: "inception_4a/5x5_reduce"
  top: "inception_4a/5x5"
  param {
    lr_mult: 1
    decay_mult: 1
  }
  param {
    lr_mult: 2
    decay_mult: 0
  }
  convolution_param {
    num_output: 48
    pad: 2
    kernel_size: 5
    weight_filler {
      type: "xavier"
      std: 0.03
    }
    bias_filler {
      type: "constant"
      value: 0.2
    }
  }
}
layer {
  name: "inception_4a/relu_5x5"
  type: "ReLU"
  bottom: "inception_4a/5x5"
  top: "inception_4a/5x5"
}
layer {
  name: "inception_4a/pool"
  type: "Pooling"
  bottom: "pool3/3x3_s2"
  top: "inception_4a/pool"
  pooling_param {
    pool: MAX
    kernel_size: 3
    stride: 1
    pad: 1
  }
}
layer {
  name: "inception_4a/pool_proj"
  type: "Convolution"
  bottom: "inception_4a/pool"
  top: "inception_4a/pool_proj"
  param {
    lr_mult: 1
    decay_mult: 1
  }
  param {
    lr_mult: 2
    decay_mult: 0
  }
  convolution_param {
    num_output: 64
    kernel_size: 1
    weight_filler {
      type: "xavier"
      std: 0.1
    }
    bias_filler {
      type: "constant"
      value: 0.2
    }
  }
}
layer {
  name: "inception_4a/relu_pool_proj"
  type: "ReLU"
  bottom: "inception_4a/pool_proj"
  top: "inception_4a/pool_proj"
}
layer {
  name: "inception_4a/output"
  type: "Concat"
  bottom: "inception_4a/1x1"
  bottom: "inception_4a/3x3"
  bottom: "inception_4a/5x5"
  bottom: "inception_4a/pool_proj"
  top: "inception_4a/output"
}
layer {
  name: "loss1/ave_pool"
  type: "Pooling"
  bottom: "inception_4a/output"
  top: "loss1/ave_pool"
  pooling_param {
    pool: AVE
    kernel_size: 5
    stride: 3
  }
}
layer {
  name: "loss1/conv"
  type: "Convolution"
  bottom: "loss1/ave_pool"
  top: "loss1/conv"
  param {
    lr_mult: 1
    decay_mult: 1
  }
  param {
    lr_mult: 2
    decay_mult: 0
  }
  convolution_param {
    num_output: 128
    kernel_size: 1
    weight_filler {
      type: "xavier"
      std: 0.08
    }
    bias_filler {
      type: "constant"
      value: 0.2
    }
  }
}
layer {
  name: "loss1/relu_conv"
  type: "ReLU"
  bottom: "loss1/conv"
  top: "loss1/conv"
}
layer {
  name: "loss1/fc"
  type: "InnerProduct"
  bottom: "loss1/conv"
  top: "loss1/fc"
  param {
    lr_mult: 1
    decay_mult: 1
  }
  param {
    lr_mult: 2
    decay_mult: 0
  }
  inner_product_param {
    num_output: 1024
    weight_filler {
      type: "xavier"
      std: 0.02
    }
    bias_filler {
      type: "constant"
      value: 0.2
    }
  }
}
layer {
  name: "loss1/relu_fc"
  type: "ReLU"
  bottom: "loss1/fc"
  top: "loss1/fc"
}
layer {
  name: "loss1/drop_fc"
  type: "Dropout"
  bottom: "loss1/fc"
  top: "loss1/fc"
  dropout_param {
    dropout_ratio: 0.7
  }
}
layer {
  name: "loss1/classifier_plantvillage"
  type: "InnerProduct"
  bottom: "loss1/fc"
  top: "loss1/classifier_plantvillage"
  param {
    lr_mult: 1
    decay_mult: 1
  }
  param {
    lr_mult: 2
    decay_mult: 0
  }
  inner_product_param {
    num_output: 38
    weight_filler {
      type: "xavier"
      std: 0.0009765625
    }
    bias_filler {
      type: "constant"
      value: 0
    }
  }
}
layer {
  name: "inception_4b/1x1"
  type: "Convolution"
  bottom: "inception_4a/output"
  top: "inception_4b/1x1"
  param {
    lr_mult: 1
    decay_mult: 1
  }
  param {
    lr_mult: 2
    decay_mult: 0
  }
  convolution_param {
    num_output: 160
    kernel_size: 1
    weight_filler {
      type: "xavier"
      std: 0.03
    }
    bias_filler {
      type: "constant"
      value: 0.2
    }
  }
}
layer {
  name: "inception_4b/relu_1x1"
  type: "ReLU"
  bottom: "inception_4b/1x1"
  top: "inception_4b/1x1"
}
layer {
  name: "inception_4b/3x3_reduce"
  type: "Convolution"
  bottom: "inception_4a/output"
  top: "inception_4b/3x3_reduce"
  param {
    lr_mult: 1
    decay_mult: 1
  }
  param {
    lr_mult: 2
    decay_mult: 0
  }
  convolution_param {
    num_output: 112
    kernel_size: 1
    weight_filler {
      type: "xavier"
      std: 0.09
    }
    bias_filler {
      type: "constant"
      value: 0.2
    }
  }
}
layer {
  name: "inception_4b/relu_3x3_reduce"
  type: "ReLU"
  bottom: "inception_4b/3x3_reduce"
  top: "inception_4b/3x3_reduce"
}
layer {
  name: "inception_4b/3x3"
  type: "Convolution"
  bottom: "inception_4b/3x3_reduce"
  top: "inception_4b/3x3"
  param {
    lr_mult: 1
    decay_mult: 1
  }
  param {
    lr_mult: 2
    decay_mult: 0
  }
  convolution_param {
    num_output: 224
    pad: 1
    kernel_size: 3
    weight_filler {
      type: "xavier"
      std: 0.03
    }
    bias_filler {
      type: "constant"
      value: 0.2
    }
  }
}
layer {
  name: "inception_4b/relu_3x3"
  type: "ReLU"
  bottom: "inception_4b/3x3"
  top: "inception_4b/3x3"
}
layer {
  name: "inception_4b/5x5_reduce"
  type: "Convolution"
  bottom: "inception_4a/output"
  top: "inception_4b/5x5_reduce"
  param {
    lr_mult: 1
    decay_mult: 1
  }
  param {
    lr_mult: 2
    decay_mult: 0
  }
  convolution_param {
    num_output: 24
    kernel_size: 1
    weight_filler {
      type: "xavier"
      std: 0.2
    }
    bias_filler {
      type: "constant"
      value: 0.2
    }
  }
}
layer {
  name: "inception_4b/relu_5x5_reduce"
  type: "ReLU"
  bottom: "inception_4b/5x5_reduce"
  top: "inception_4b/5x5_reduce"
}
layer {
  name: "inception_4b/5x5"
  type: "Convolution"
  bottom: "inception_4b/5x5_reduce"
  top: "inception_4b/5x5"
  param {
    lr_mult: 1
    decay_mult: 1
  }
  param {
    lr_mult: 2
    decay_mult: 0
  }
  convolution_param {
    num_output: 64
    pad: 2
    kernel_size: 5
    weight_filler {
      type: "xavier"
      std: 0.03
    }
    bias_filler {
      type: "constant"
      value: 0.2
    }
  }
}
layer {
  name: "inception_4b/relu_5x5"
  type: "ReLU"
  bottom: "inception_4b/5x5"
  top: "inception_4b/5x5"
}
layer {
  name: "inception_4b/pool"
  type: "Pooling"
  bottom: "inception_4a/output"
  top: "inception_4b/pool"
  pooling_param {
    pool: MAX
    kernel_size: 3
    stride: 1
    pad: 1
  }
}
layer {
  name: "inception_4b/pool_proj"
  type: "Convolution"
  bottom: "inception_4b/pool"
  top: "inception_4b/pool_proj"
  param {
    lr_mult: 1
    decay_mult: 1
  }
  param {
    lr_mult: 2
    decay_mult: 0
  }
  convolution_param {
    num_output: 64
    kernel_size: 1
    weight_filler {
      type: "xavier"
      std: 0.1
    }
    bias_filler {
      type: "constant"
      value: 0.2
    }
  }
}
layer {
  name: "inception_4b/relu_pool_proj"
  type: "ReLU"
  bottom: "inception_4b/pool_proj"
  top: "inception_4b/pool_proj"
}
layer {
  name: "inception_4b/output"
  type: "Concat"
  bottom: "inception_4b/1x1"
  bottom: "inception_4b/3x3"
  bottom: "inception_4b/5x5"
  bottom: "inception_4b/pool_proj"
  top: "inception_4b/output"
}
layer {
  name: "inception_4c/1x1"
  type: "Convolution"
  bottom: "inception_4b/output"
  top: "inception_4c/1x1"
  param {
    lr_mult: 1
    decay_mult: 1
  }
  param {
    lr_mult: 2
    decay_mult: 0
  }
  convolution_param {
    num_output: 128
    kernel_size: 1
    weight_filler {
      type: "xavier"
      std: 0.03
    }
    bias_filler {
      type: "constant"
      value: 0.2
    }
  }
}
layer {
  name: "inception_4c/relu_1x1"
  type: "ReLU"
  bottom: "inception_4c/1x1"
  top: "inception_4c/1x1"
}
layer {
  name: "inception_4c/3x3_reduce"
  type: "Convolution"
  bottom: "inception_4b/output"
  top: "inception_4c/3x3_reduce"
  param {
    lr_mult: 1
    decay_mult: 1
  }
  param {
    lr_mult: 2
    decay_mult: 0
  }
  convolution_param {
    num_output: 128
    kernel_size: 1
    weight_filler {
      type: "xavier"
      std: 0.09
    }
    bias_filler {
      type: "constant"
      value: 0.2
    }
  }
}
layer {
  name: "inception_4c/relu_3x3_reduce"
  type: "ReLU"
  bottom: "inception_4c/3x3_reduce"
  top: "inception_4c/3x3_reduce"
}
layer {
  name: "inception_4c/3x3"
  type: "Convolution"
  bottom: "inception_4c/3x3_reduce"
  top: "inception_4c/3x3"
  param {
    lr_mult: 1
    decay_mult: 1
  }
  param {
    lr_mult: 2
    decay_mult: 0
  }
  convolution_param {
    num_output: 256
    pad: 1
    kernel_size: 3
    weight_filler {
      type: "xavier"
      std: 0.03
    }
    bias_filler {
      type: "constant"
      value: 0.2
    }
  }
}
layer {
  name: "inception_4c/relu_3x3"
  type: "ReLU"
  bottom: "inception_4c/3x3"
  top: "inception_4c/3x3"
}
layer {
  name: "inception_4c/5x5_reduce"
  type: "Convolution"
  bottom: "inception_4b/output"
  top: "inception_4c/5x5_reduce"
  param {
    lr_mult: 1
    decay_mult: 1
  }
  param {
    lr_mult: 2
    decay_mult: 0
  }
  convolution_param {
    num_output: 24
    kernel_size: 1
    weight_filler {
      type: "xavier"
      std: 0.2
    }
    bias_filler {
      type: "constant"
      value: 0.2
    }
  }
}
layer {
  name: "inception_4c/relu_5x5_reduce"
  type: "ReLU"
  bottom: "inception_4c/5x5_reduce"
  top: "inception_4c/5x5_reduce"
}
layer {
  name: "inception_4c/5x5"
  type: "Convolution"
  bottom: "inception_4c/5x5_reduce"
  top: "inception_4c/5x5"
  param {
    lr_mult: 1
    decay_mult: 1
  }
  param {
    lr_mult: 2
    decay_mult: 0
  }
  convolution_param {
    num_output: 64
    pad: 2
    kernel_size: 5
    weight_filler {
      type: "xavier"
      std: 0.03
    }
    bias_filler {
      type: "constant"
      value: 0.2
    }
  }
}
layer {
  name: "inception_4c/relu_5x5"
  type: "ReLU"
  bottom: "inception_4c/5x5"
  top: "inception_4c/5x5"
}
layer {
  name: "inception_4c/pool"
  type: "Pooling"
  bottom: "inception_4b/output"
  top: "inception_4c/pool"
  pooling_param {
    pool: MAX
    kernel_size: 3
    stride: 1
    pad: 1
  }
}
layer {
  name: "inception_4c/pool_proj"
  type: "Convolution"
  bottom: "inception_4c/pool"
  top: "inception_4c/pool_proj"
  param {
    lr_mult: 1
    decay_mult: 1
  }
  param {
    lr_mult: 2
    decay_mult: 0
  }
  convolution_param {
    num_output: 64
    kernel_size: 1
    weight_filler {
      type: "xavier"
      std: 0.1
    }
    bias_filler {
      type: "constant"
      value: 0.2
    }
  }
}
layer {
  name: "inception_4c/relu_pool_proj"
  type: "ReLU"
  bottom: "inception_4c/pool_proj"
  top: "inception_4c/pool_proj"
}
layer {
  name: "inception_4c/output"
  type: "Concat"
  bottom: "inception_4c/1x1"
  bottom: "inception_4c/3x3"
  bottom: "inception_4c/5x5"
  bottom: "inception_4c/pool_proj"
  top: "inception_4c/output"
}
layer {
  name: "inception_4d/1x1"
  type: "Convolution"
  bottom: "inception_4c/output"
  top: "inception_4d/1x1"
  param {
    lr_mult: 1
    decay_mult: 1
  }
  param {
    lr_mult: 2
    decay_mult: 0
  }
  convolution_param {
    num_output: 112
    kernel_size: 1
    weight_filler {
      type: "xavier"
      std: 0.03
    }
    bias_filler {
      type: "constant"
      value: 0.2
    }
  }
}
layer {
  name: "inception_4d/relu_1x1"
  type: "ReLU"
  bottom: "inception_4d/1x1"
  top: "inception_4d/1x1"
}
layer {
  name: "inception_4d/3x3_reduce"
  type: "Convolution"
  bottom: "inception_4c/output"
  top: "inception_4d/3x3_reduce"
  param {
    lr_mult: 1
    decay_mult: 1
  }
  param {
    lr_mult: 2
    decay_mult: 0
  }
  convolution_param {
    num_output: 144
    kernel_size: 1
    weight_filler {
      type: "xavier"
      std: 0.09
    }
    bias_filler {
      type: "constant"
      value: 0.2
    }
  }
}
layer {
  name: "inception_4d/relu_3x3_reduce"
  type: "ReLU"
  bottom: "inception_4d/3x3_reduce"
  top: "inception_4d/3x3_reduce"
}
layer {
  name: "inception_4d/3x3"
  type: "Convolution"
  bottom: "inception_4d/3x3_reduce"
  top: "inception_4d/3x3"
  param {
    lr_mult: 1
    decay_mult: 1
  }
  param {
    lr_mult: 2
    decay_mult: 0
  }
  convolution_param {
    num_output: 288
    pad: 1
    kernel_size: 3
    weight_filler {
      type: "xavier"
      std: 0.03
    }
    bias_filler {
      type: "constant"
      value: 0.2
    }
  }
}
layer {
  name: "inception_4d/relu_3x3"
  type: "ReLU"
  bottom: "inception_4d/3x3"
  top: "inception_4d/3x3"
}
layer {
  name: "inception_4d/5x5_reduce"
  type: "Convolution"
  bottom: "inception_4c/output"
  top: "inception_4d/5x5_reduce"
  param {
    lr_mult: 1
    decay_mult: 1
  }
  param {
    lr_mult: 2
    decay_mult: 0
  }
  convolution_param {
    num_output: 32
    kernel_size: 1
    weight_filler {
      type: "xavier"
      std: 0.2
    }
    bias_filler {
      type: "constant"
      value: 0.2
    }
  }
}
layer {
  name: "inception_4d/relu_5x5_reduce"
  type: "ReLU"
  bottom: "inception_4d/5x5_reduce"
  top: "inception_4d/5x5_reduce"
}
layer {
  name: "inception_4d/5x5"
  type: "Convolution"
  bottom: "inception_4d/5x5_reduce"
  top: "inception_4d/5x5"
  param {
    lr_mult: 1
    decay_mult: 1
  }
  param {
    lr_mult: 2
    decay_mult: 0
  }
  convolution_param {
    num_output: 64
    pad: 2
    kernel_size: 5
    weight_filler {
      type: "xavier"
      std: 0.03
    }
    bias_filler {
      type: "constant"
      value: 0.2
    }
  }
}
layer {
  name: "inception_4d/relu_5x5"
  type: "ReLU"
  bottom: "inception_4d/5x5"
  top: "inception_4d/5x5"
}
layer {
  name: "inception_4d/pool"
  type: "Pooling"
  bottom: "inception_4c/output"
  top: "inception_4d/pool"
  pooling_param {
    pool: MAX
    kernel_size: 3
    stride: 1
    pad: 1
  }
}
layer {
  name: "inception_4d/pool_proj"
  type: "Convolution"
  bottom: "inception_4d/pool"
  top: "inception_4d/pool_proj"
  param {
    lr_mult: 1
    decay_mult: 1
  }
  param {
    lr_mult: 2
    decay_mult: 0
  }
  convolution_param {
    num_output: 64
    kernel_size: 1
    weight_filler {
      type: "xavier"
      std: 0.1
    }
    bias_filler {
      type: "constant"
      value: 0.2
    }
  }
}
layer {
  name: "inception_4d/relu_pool_proj"
  type: "ReLU"
  bottom: "inception_4d/pool_proj"
  top: "inception_4d/pool_proj"
}
layer {
  name: "inception_4d/output"
  type: "Concat"
  bottom: "inception_4d/1x1"
  bottom: "inception_4d/3x3"
  bottom: "inception_4d/5x5"
  bottom: "inception_4d/pool_proj"
  top: "inception_4d/output"
}
layer {
  name: "loss2/ave_pool"
  type: "Pooling"
  bottom: "inception_4d/output"
  top: "loss2/ave_pool"
  pooling_param {
    pool: AVE
    kernel_size: 5
    stride: 3
  }
}
layer {
  name: "loss2/conv"
  type: "Convolution"
  bottom: "loss2/ave_pool"
  top: "loss2/conv"
  param {
    lr_mult: 1
    decay_mult: 1
  }
  param {
    lr_mult: 2
    decay_mult: 0
  }
  convolution_param {
    num_output: 128
    kernel_size: 1
    weight_filler {
      type: "xavier"
      std: 0.08
    }
    bias_filler {
      type: "constant"
      value: 0.2
    }
  }
}
layer {
  name: "loss2/relu_conv"
  type: "ReLU"
  bottom: "loss2/conv"
  top: "loss2/conv"
}
layer {
  name: "loss2/fc"
  type: "InnerProduct"
  bottom: "loss2/conv"
  top: "loss2/fc"
  param {
    lr_mult: 1
    decay_mult: 1
  }
  param {
    lr_mult: 2
    decay_mult: 0
  }
  inner_product_param {
    num_output: 1024
    weight_filler {
      type: "xavier"
      std: 0.02
    }
    bias_filler {
      type: "constant"
      value: 0.2
    }
  }
}
layer {
  name: "loss2/relu_fc"
  type: "ReLU"
  bottom: "loss2/fc"
  top: "loss2/fc"
}
layer {
  name: "loss2/drop_fc"
  type: "Dropout"
  bottom: "loss2/fc"
  top: "loss2/fc"
  dropout_param {
    dropout_ratio: 0.7
  }
}
layer {
  name: "loss2/classifier_plantvillage"
  type: "InnerProduct"
  bottom: "loss2/fc"
  top: "loss2/classifier_plantvillage"
  param {
    lr_mult: 1
    decay_mult: 1
  }
  param {
    lr_mult: 2
    decay_mult: 0
  }
  inner_product_param {
    num_output: 38
    weight_filler {
      type: "xavier"
      std: 0.0009765625
    }
    bias_filler {
      type: "constant"
      value: 0
    }
  }
}
layer {
  name: "inception_4e/1x1"
  type: "Convolution"
  bottom: "inception_4d/output"
  top: "inception_4e/1x1"
  param {
    lr_mult: 1
    decay_mult: 1
  }
  param {
    lr_mult: 2
    decay_mult: 0
  }
  convolution_param {
    num_output: 256
    kernel_size: 1
    weight_filler {
      type: "xavier"
      std: 0.03
    }
    bias_filler {
      type: "constant"
      value: 0.2
    }
  }
}
layer {
  name: "inception_4e/relu_1x1"
  type: "ReLU"
  bottom: "inception_4e/1x1"
  top: "inception_4e/1x1"
}
layer {
  name: "inception_4e/3x3_reduce"
  type: "Convolution"
  bottom: "inception_4d/output"
  top: "inception_4e/3x3_reduce"
  param {
    lr_mult: 1
    decay_mult: 1
  }
  param {
    lr_mult: 2
    decay_mult: 0
  }
  convolution_param {
    num_output: 160
    kernel_size: 1
    weight_filler {
      type: "xavier"
      std: 0.09
    }
    bias_filler {
      type: "constant"
      value: 0.2
    }
  }
}
layer {
  name: "inception_4e/relu_3x3_reduce"
  type: "ReLU"
  bottom: "inception_4e/3x3_reduce"
  top: "inception_4e/3x3_reduce"
}
layer {
  name: "inception_4e/3x3"
  type: "Convolution"
  bottom: "inception_4e/3x3_reduce"
  top: "inception_4e/3x3"
  param {
    lr_mult: 1
    decay_mult: 1
  }
  param {
    lr_mult: 2
    decay_mult: 0
  }
  convolution_param {
    num_output: 320
    pad: 1
    kernel_size: 3
    weight_filler {
      type: "xavier"
      std: 0.03
    }
    bias_filler {
      type: "constant"
      value: 0.2
    }
  }
}
layer {
  name: "inception_4e/relu_3x3"
  type: "ReLU"
  bottom: "inception_4e/3x3"
  top: "inception_4e/3x3"
}
layer {
  name: "inception_4e/5x5_reduce"
  type: "Convolution"
  bottom: "inception_4d/output"
  top: "inception_4e/5x5_reduce"
  param {
    lr_mult: 1
    decay_mult: 1
  }
  param {
    lr_mult: 2
    decay_mult: 0
  }
  convolution_param {
    num_output: 32
    kernel_size: 1
    weight_filler {
      type: "xavier"
      std: 0.2
    }
    bias_filler {
      type: "constant"
      value: 0.2
    }
  }
}
layer {
  name: "inception_4e/relu_5x5_reduce"
  type: "ReLU"
  bottom: "inception_4e/5x5_reduce"
  top: "inception_4e/5x5_reduce"
}
layer {
  name: "inception_4e/5x5"
  type: "Convolution"
  bottom: "inception_4e/5x5_reduce"
  top: "inception_4e/5x5"
  p
I0403 16:26:59.066442 21080 layer_factory.hpp:77] Creating layer data
I0403 16:26:59.067059 21080 net.cpp:91] Creating Layer data
I0403 16:26:59.067090 21080 net.cpp:399] data -> data
I0403 16:26:59.067140 21080 net.cpp:399] data -> label
I0403 16:26:59.067178 21080 data_transformer.cpp:25] Loading mean file from: /home/mohanty/data/final_dataset/lmdb/color-40-60/mean.binaryproto
I0403 16:26:59.068378 21083 db_lmdb.cpp:38] Opened lmdb /home/mohanty/data/final_dataset/lmdb/color-40-60/test_db
I0403 16:26:59.080397 21080 data_layer.cpp:41] output data size: 24,3,224,224
I0403 16:26:59.109558 21080 net.cpp:141] Setting up data
I0403 16:26:59.109649 21080 net.cpp:148] Top shape: 24 3 224 224 (3612672)
I0403 16:26:59.109673 21080 net.cpp:148] Top shape: 24 (24)
I0403 16:26:59.109688 21080 net.cpp:156] Memory required for data: 14450784
I0403 16:26:59.109716 21080 layer_factory.hpp:77] Creating layer label_data_1_split
I0403 16:26:59.109742 21080 net.cpp:91] Creating Layer label_data_1_split
I0403 16:26:59.109761 21080 net.cpp:425] label_data_1_split <- label
I0403 16:26:59.109792 21080 net.cpp:399] label_data_1_split -> label_data_1_split_0
I0403 16:26:59.109820 21080 net.cpp:399] label_data_1_split -> label_data_1_split_1
I0403 16:26:59.109843 21080 net.cpp:399] label_data_1_split -> label_data_1_split_2
I0403 16:26:59.109863 21080 net.cpp:399] label_data_1_split -> label_data_1_split_3
I0403 16:26:59.109884 21080 net.cpp:399] label_data_1_split -> label_data_1_split_4
I0403 16:26:59.109902 21080 net.cpp:399] label_data_1_split -> label_data_1_split_5
I0403 16:26:59.109922 21080 net.cpp:399] label_data_1_split -> label_data_1_split_6
I0403 16:26:59.109942 21080 net.cpp:399] label_data_1_split -> label_data_1_split_7
I0403 16:26:59.109961 21080 net.cpp:399] label_data_1_split -> label_data_1_split_8
I0403 16:26:59.109980 21080 net.cpp:399] label_data_1_split -> label_data_1_split_9
I0403 16:26:59.110095 21080 net.cpp:141] Setting up label_data_1_split
I0403 16:26:59.110118 21080 net.cpp:148] Top shape: 24 (24)
I0403 16:26:59.110136 21080 net.cpp:148] Top shape: 24 (24)
I0403 16:26:59.110151 21080 net.cpp:148] Top shape: 24 (24)
I0403 16:26:59.110165 21080 net.cpp:148] Top shape: 24 (24)
I0403 16:26:59.110180 21080 net.cpp:148] Top shape: 24 (24)
I0403 16:26:59.110195 21080 net.cpp:148] Top shape: 24 (24)
I0403 16:26:59.110210 21080 net.cpp:148] Top shape: 24 (24)
I0403 16:26:59.110225 21080 net.cpp:148] Top shape: 24 (24)
I0403 16:26:59.110241 21080 net.cpp:148] Top shape: 24 (24)
I0403 16:26:59.110257 21080 net.cpp:148] Top shape: 24 (24)
I0403 16:26:59.110301 21080 net.cpp:156] Memory required for data: 14451744
I0403 16:26:59.110316 21080 layer_factory.hpp:77] Creating layer conv1/7x7_s2
I0403 16:26:59.110347 21080 net.cpp:91] Creating Layer conv1/7x7_s2
I0403 16:26:59.110365 21080 net.cpp:425] conv1/7x7_s2 <- data
I0403 16:26:59.110384 21080 net.cpp:399] conv1/7x7_s2 -> conv1/7x7_s2
I0403 16:26:59.252923 21080 net.cpp:141] Setting up conv1/7x7_s2
I0403 16:26:59.253015 21080 net.cpp:148] Top shape: 24 64 112 112 (19267584)
I0403 16:26:59.253036 21080 net.cpp:156] Memory required for data: 91522080
I0403 16:26:59.253067 21080 layer_factory.hpp:77] Creating layer conv1/relu_7x7
I0403 16:26:59.253094 21080 net.cpp:91] Creating Layer conv1/relu_7x7
I0403 16:26:59.253113 21080 net.cpp:425] conv1/relu_7x7 <- conv1/7x7_s2
I0403 16:26:59.253132 21080 net.cpp:386] conv1/relu_7x7 -> conv1/7x7_s2 (in-place)
I0403 16:26:59.253391 21080 net.cpp:141] Setting up conv1/relu_7x7
I0403 16:26:59.253418 21080 net.cpp:148] Top shape: 24 64 112 112 (19267584)
I0403 16:26:59.253434 21080 net.cpp:156] Memory required for data: 168592416
I0403 16:26:59.253449 21080 layer_factory.hpp:77] Creating layer pool1/3x3_s2
I0403 16:26:59.253474 21080 net.cpp:91] Creating Layer pool1/3x3_s2
I0403 16:26:59.253492 21080 net.cpp:425] pool1/3x3_s2 <- conv1/7x7_s2
I0403 16:26:59.253511 21080 net.cpp:399] pool1/3x3_s2 -> pool1/3x3_s2
I0403 16:26:59.253585 21080 net.cpp:141] Setting up pool1/3x3_s2
I0403 16:26:59.253610 21080 net.cpp:148] Top shape: 24 64 56 56 (4816896)
I0403 16:26:59.253626 21080 net.cpp:156] Memory required for data: 187860000
I0403 16:26:59.253641 21080 layer_factory.hpp:77] Creating layer pool1/norm1
I0403 16:26:59.253665 21080 net.cpp:91] Creating Layer pool1/norm1
I0403 16:26:59.253684 21080 net.cpp:425] pool1/norm1 <- pool1/3x3_s2
I0403 16:26:59.253701 21080 net.cpp:399] pool1/norm1 -> pool1/norm1
I0403 16:26:59.253993 21080 net.cpp:141] Setting up pool1/norm1
I0403 16:26:59.254020 21080 net.cpp:148] Top shape: 24 64 56 56 (4816896)
I0403 16:26:59.254036 21080 net.cpp:156] Memory required for data: 207127584
I0403 16:26:59.254051 21080 layer_factory.hpp:77] Creating layer conv2/3x3_reduce
I0403 16:26:59.254077 21080 net.cpp:91] Creating Layer conv2/3x3_reduce
I0403 16:26:59.254094 21080 net.cpp:425] conv2/3x3_reduce <- pool1/norm1
I0403 16:26:59.254112 21080 net.cpp:399] conv2/3x3_reduce -> conv2/3x3_reduce
I0403 16:26:59.255489 21080 net.cpp:141] Setting up conv2/3x3_reduce
I0403 16:26:59.255520 21080 net.cpp:148] Top shape: 24 64 56 56 (4816896)
I0403 16:26:59.255537 21080 net.cpp:156] Memory required for data: 226395168
I0403 16:26:59.255558 21080 layer_factory.hpp:77] Creating layer conv2/relu_3x3_reduce
I0403 16:26:59.255579 21080 net.cpp:91] Creating Layer conv2/relu_3x3_reduce
I0403 16:26:59.255596 21080 net.cpp:425] conv2/relu_3x3_reduce <- conv2/3x3_reduce
I0403 16:26:59.255614 21080 net.cpp:386] conv2/relu_3x3_reduce -> conv2/3x3_reduce (in-place)
I0403 16:26:59.255872 21080 net.cpp:141] Setting up conv2/relu_3x3_reduce
I0403 16:26:59.255900 21080 net.cpp:148] Top shape: 24 64 56 56 (4816896)
I0403 16:26:59.255916 21080 net.cpp:156] Memory required for data: 245662752
I0403 16:26:59.255931 21080 layer_factory.hpp:77] Creating layer conv2/3x3
I0403 16:26:59.255954 21080 net.cpp:91] Creating Layer conv2/3x3
I0403 16:26:59.255971 21080 net.cpp:425] conv2/3x3 <- conv2/3x3_reduce
I0403 16:26:59.255996 21080 net.cpp:399] conv2/3x3 -> conv2/3x3
I0403 16:26:59.258371 21080 net.cpp:141] Setting up conv2/3x3
I0403 16:26:59.258406 21080 net.cpp:148] Top shape: 24 192 56 56 (14450688)
I0403 16:26:59.258425 21080 net.cpp:156] Memory required for data: 303465504
I0403 16:26:59.258448 21080 layer_factory.hpp:77] Creating layer conv2/relu_3x3
I0403 16:26:59.258469 21080 net.cpp:91] Creating Layer conv2/relu_3x3
I0403 16:26:59.258487 21080 net.cpp:425] conv2/relu_3x3 <- conv2/3x3
I0403 16:26:59.258507 21080 net.cpp:386] conv2/relu_3x3 -> conv2/3x3 (in-place)
I0403 16:26:59.258687 21080 net.cpp:141] Setting up conv2/relu_3x3
I0403 16:26:59.258715 21080 net.cpp:148] Top shape: 24 192 56 56 (14450688)
I0403 16:26:59.258760 21080 net.cpp:156] Memory required for data: 361268256
I0403 16:26:59.258776 21080 layer_factory.hpp:77] Creating layer conv2/norm2
I0403 16:26:59.258796 21080 net.cpp:91] Creating Layer conv2/norm2
I0403 16:26:59.258813 21080 net.cpp:425] conv2/norm2 <- conv2/3x3
I0403 16:26:59.258831 21080 net.cpp:399] conv2/norm2 -> conv2/norm2
I0403 16:26:59.259163 21080 net.cpp:141] Setting up conv2/norm2
I0403 16:26:59.259191 21080 net.cpp:148] Top shape: 24 192 56 56 (14450688)
I0403 16:26:59.259207 21080 net.cpp:156] Memory required for data: 419071008
I0403 16:26:59.259220 21080 layer_factory.hpp:77] Creating layer pool2/3x3_s2
I0403 16:26:59.259240 21080 net.cpp:91] Creating Layer pool2/3x3_s2
I0403 16:26:59.259258 21080 net.cpp:425] pool2/3x3_s2 <- conv2/norm2
I0403 16:26:59.259275 21080 net.cpp:399] pool2/3x3_s2 -> pool2/3x3_s2
I0403 16:26:59.259330 21080 net.cpp:141] Setting up pool2/3x3_s2
I0403 16:26:59.259354 21080 net.cpp:148] Top shape: 24 192 28 28 (3612672)
I0403 16:26:59.259369 21080 net.cpp:156] Memory required for data: 433521696
I0403 16:26:59.259383 21080 layer_factory.hpp:77] Creating layer pool2/3x3_s2_pool2/3x3_s2_0_split
I0403 16:26:59.259403 21080 net.cpp:91] Creating Layer pool2/3x3_s2_pool2/3x3_s2_0_split
I0403 16:26:59.259419 21080 net.cpp:425] pool2/3x3_s2_pool2/3x3_s2_0_split <- pool2/3x3_s2
I0403 16:26:59.259438 21080 net.cpp:399] pool2/3x3_s2_pool2/3x3_s2_0_split -> pool2/3x3_s2_pool2/3x3_s2_0_split_0
I0403 16:26:59.259456 21080 net.cpp:399] pool2/3x3_s2_pool2/3x3_s2_0_split -> pool2/3x3_s2_pool2/3x3_s2_0_split_1
I0403 16:26:59.259476 21080 net.cpp:399] pool2/3x3_s2_pool2/3x3_s2_0_split -> pool2/3x3_s2_pool2/3x3_s2_0_split_2
I0403 16:26:59.259495 21080 net.cpp:399] pool2/3x3_s2_pool2/3x3_s2_0_split -> pool2/3x3_s2_pool2/3x3_s2_0_split_3
I0403 16:26:59.259567 21080 net.cpp:141] Setting up pool2/3x3_s2_pool2/3x3_s2_0_split
I0403 16:26:59.259591 21080 net.cpp:148] Top shape: 24 192 28 28 (3612672)
I0403 16:26:59.259629 21080 net.cpp:148] Top shape: 24 192 28 28 (3612672)
I0403 16:26:59.259649 21080 net.cpp:148] Top shape: 24 192 28 28 (3612672)
I0403 16:26:59.259665 21080 net.cpp:148] Top shape: 24 192 28 28 (3612672)
I0403 16:26:59.259680 21080 net.cpp:156] Memory required for data: 491324448
I0403 16:26:59.259693 21080 layer_factory.hpp:77] Creating layer inception_3a/1x1
I0403 16:26:59.259716 21080 net.cpp:91] Creating Layer inception_3a/1x1
I0403 16:26:59.259733 21080 net.cpp:425] inception_3a/1x1 <- pool2/3x3_s2_pool2/3x3_s2_0_split_0
I0403 16:26:59.259754 21080 net.cpp:399] inception_3a/1x1 -> inception_3a/1x1
I0403 16:26:59.261348 21080 net.cpp:141] Setting up inception_3a/1x1
I0403 16:26:59.261381 21080 net.cpp:148] Top shape: 24 64 28 28 (1204224)
I0403 16:26:59.261400 21080 net.cpp:156] Memory required for data: 496141344
I0403 16:26:59.261421 21080 layer_factory.hpp:77] Creating layer inception_3a/relu_1x1
I0403 16:26:59.261440 21080 net.cpp:91] Creating Layer inception_3a/relu_1x1
I0403 16:26:59.261457 21080 net.cpp:425] inception_3a/relu_1x1 <- inception_3a/1x1
I0403 16:26:59.261476 21080 net.cpp:386] inception_3a/relu_1x1 -> inception_3a/1x1 (in-place)
I0403 16:26:59.261659 21080 net.cpp:141] Setting up inception_3a/relu_1x1
I0403 16:26:59.261687 21080 net.cpp:148] Top shape: 24 64 28 28 (1204224)
I0403 16:26:59.261703 21080 net.cpp:156] Memory required for data: 500958240
I0403 16:26:59.261718 21080 layer_factory.hpp:77] Creating layer inception_3a/3x3_reduce
I0403 16:26:59.261742 21080 net.cpp:91] Creating Layer inception_3a/3x3_reduce
I0403 16:26:59.261760 21080 net.cpp:425] inception_3a/3x3_reduce <- pool2/3x3_s2_pool2/3x3_s2_0_split_1
I0403 16:26:59.261781 21080 net.cpp:399] inception_3a/3x3_reduce -> inception_3a/3x3_reduce
I0403 16:26:59.263525 21080 net.cpp:141] Setting up inception_3a/3x3_reduce
I0403 16:26:59.263557 21080 net.cpp:148] Top shape: 24 96 28 28 (1806336)
I0403 16:26:59.263576 21080 net.cpp:156] Memory required for data: 508183584
I0403 16:26:59.263598 21080 layer_factory.hpp:77] Creating layer inception_3a/relu_3x3_reduce
I0403 16:26:59.263639 21080 net.cpp:91] Creating Layer inception_3a/relu_3x3_reduce
I0403 16:26:59.263659 21080 net.cpp:425] inception_3a/relu_3x3_reduce <- inception_3a/3x3_reduce
I0403 16:26:59.263677 21080 net.cpp:386] inception_3a/relu_3x3_reduce -> inception_3a/3x3_reduce (in-place)
I0403 16:26:59.263877 21080 net.cpp:141] Setting up inception_3a/relu_3x3_reduce
I0403 16:26:59.263905 21080 net.cpp:148] Top shape: 24 96 28 28 (1806336)
I0403 16:26:59.263921 21080 net.cpp:156] Memory required for data: 515408928
I0403 16:26:59.263936 21080 layer_factory.hpp:77] Creating layer inception_3a/3x3
I0403 16:26:59.263962 21080 net.cpp:91] Creating Layer inception_3a/3x3
I0403 16:26:59.263979 21080 net.cpp:425] inception_3a/3x3 <- inception_3a/3x3_reduce
I0403 16:26:59.264004 21080 net.cpp:399] inception_3a/3x3 -> inception_3a/3x3
I0403 16:26:59.265700 21080 net.cpp:141] Setting up inception_3a/3x3
I0403 16:26:59.265729 21080 net.cpp:148] Top shape: 24 128 28 28 (2408448)
I0403 16:26:59.265745 21080 net.cpp:156] Memory required for data: 525042720
I0403 16:26:59.265764 21080 layer_factory.hpp:77] Creating layer inception_3a/relu_3x3
I0403 16:26:59.265784 21080 net.cpp:91] Creating Layer inception_3a/relu_3x3
I0403 16:26:59.265800 21080 net.cpp:425] inception_3a/relu_3x3 <- inception_3a/3x3
I0403 16:26:59.265821 21080 net.cpp:386] inception_3a/relu_3x3 -> inception_3a/3x3 (in-place)
I0403 16:26:59.266111 21080 net.cpp:141] Setting up inception_3a/relu_3x3
I0403 16:26:59.266139 21080 net.cpp:148] Top shape: 24 128 28 28 (2408448)
I0403 16:26:59.266155 21080 net.cpp:156] Memory required for data: 534676512
I0403 16:26:59.266170 21080 layer_factory.hpp:77] Creating layer inception_3a/5x5_reduce
I0403 16:26:59.266194 21080 net.cpp:91] Creating Layer inception_3a/5x5_reduce
I0403 16:26:59.266212 21080 net.cpp:425] inception_3a/5x5_reduce <- pool2/3x3_s2_pool2/3x3_s2_0_split_2
I0403 16:26:59.266247 21080 net.cpp:399] inception_3a/5x5_reduce -> inception_3a/5x5_reduce
I0403 16:26:59.267210 21080 net.cpp:141] Setting up inception_3a/5x5_reduce
I0403 16:26:59.267236 21080 net.cpp:148] Top shape: 24 16 28 28 (301056)
I0403 16:26:59.267251 21080 net.cpp:156] Memory required for data: 535880736
I0403 16:26:59.267268 21080 layer_factory.hpp:77] Creating layer inception_3a/relu_5x5_reduce
I0403 16:26:59.267287 21080 net.cpp:91] Creating Layer inception_3a/relu_5x5_reduce
I0403 16:26:59.267302 21080 net.cpp:425] inception_3a/relu_5x5_reduce <- inception_3a/5x5_reduce
I0403 16:26:59.267320 21080 net.cpp:386] inception_3a/relu_5x5_reduce -> inception_3a/5x5_reduce (in-place)
I0403 16:26:59.267606 21080 net.cpp:141] Setting up inception_3a/relu_5x5_reduce
I0403 16:26:59.267630 21080 net.cpp:148] Top shape: 24 16 28 28 (301056)
I0403 16:26:59.267644 21080 net.cpp:156] Memory required for data: 537084960
I0403 16:26:59.267658 21080 layer_factory.hpp:77] Creating layer inception_3a/5x5
I0403 16:26:59.267679 21080 net.cpp:91] Creating Layer inception_3a/5x5
I0403 16:26:59.267696 21080 net.cpp:425] inception_3a/5x5 <- inception_3a/5x5_reduce
I0403 16:26:59.267717 21080 net.cpp:399] inception_3a/5x5 -> inception_3a/5x5
I0403 16:26:59.268690 21080 net.cpp:141] Setting up inception_3a/5x5
I0403 16:26:59.268721 21080 net.cpp:148] Top shape: 24 32 28 28 (602112)
I0403 16:26:59.268738 21080 net.cpp:156] Memory required for data: 539493408
I0403 16:26:59.268755 21080 layer_factory.hpp:77] Creating layer inception_3a/relu_5x5
I0403 16:26:59.268772 21080 net.cpp:91] Creating Layer inception_3a/relu_5x5
I0403 16:26:59.268787 21080 net.cpp:425] inception_3a/relu_5x5 <- inception_3a/5x5
I0403 16:26:59.268806 21080 net.cpp:386] inception_3a/relu_5x5 -> inception_3a/5x5 (in-place)
I0403 16:26:59.268973 21080 net.cpp:141] Setting up inception_3a/relu_5x5
I0403 16:26:59.269008 21080 net.cpp:148] Top shape: 24 32 28 28 (602112)
I0403 16:26:59.269024 21080 net.cpp:156] Memory required for data: 541901856
I0403 16:26:59.269038 21080 layer_factory.hpp:77] Creating layer inception_3a/pool
I0403 16:26:59.269055 21080 net.cpp:91] Creating Layer inception_3a/pool
I0403 16:26:59.269074 21080 net.cpp:425] inception_3a/pool <- pool2/3x3_s2_pool2/3x3_s2_0_split_3
I0403 16:26:59.269105 21080 net.cpp:399] inception_3a/pool -> inception_3a/pool
I0403 16:26:59.269162 21080 net.cpp:141] Setting up inception_3a/pool
I0403 16:26:59.269186 21080 net.cpp:148] Top shape: 24 192 28 28 (3612672)
I0403 16:26:59.269199 21080 net.cpp:156] Memory required for data: 556352544
I0403 16:26:59.269213 21080 layer_factory.hpp:77] Creating layer inception_3a/pool_proj
I0403 16:26:59.269235 21080 net.cpp:91] Creating Layer inception_3a/pool_proj
I0403 16:26:59.269253 21080 net.cpp:425] inception_3a/pool_proj <- inception_3a/pool
I0403 16:26:59.269273 21080 net.cpp:399] inception_3a/pool_proj -> inception_3a/pool_proj
I0403 16:26:59.270207 21080 net.cpp:141] Setting up inception_3a/pool_proj
I0403 16:26:59.270236 21080 net.cpp:148] Top shape: 24 32 28 28 (602112)
I0403 16:26:59.270251 21080 net.cpp:156] Memory required for data: 558760992
I0403 16:26:59.270274 21080 layer_factory.hpp:77] Creating layer inception_3a/relu_pool_proj
I0403 16:26:59.270294 21080 net.cpp:91] Creating Layer inception_3a/relu_pool_proj
I0403 16:26:59.270309 21080 net.cpp:425] inception_3a/relu_pool_proj <- inception_3a/pool_proj
I0403 16:26:59.270328 21080 net.cpp:386] inception_3a/relu_pool_proj -> inception_3a/pool_proj (in-place)
I0403 16:26:59.270596 21080 net.cpp:141] Setting up inception_3a/relu_pool_proj
I0403 16:26:59.270622 21080 net.cpp:148] Top shape: 24 32 28 28 (602112)
I0403 16:26:59.270637 21080 net.cpp:156] Memory required for data: 561169440
I0403 16:26:59.270651 21080 layer_factory.hpp:77] Creating layer inception_3a/output
I0403 16:26:59.270668 21080 net.cpp:91] Creating Layer inception_3a/output
I0403 16:26:59.270684 21080 net.cpp:425] inception_3a/output <- inception_3a/1x1
I0403 16:26:59.270699 21080 net.cpp:425] inception_3a/output <- inception_3a/3x3
I0403 16:26:59.270714 21080 net.cpp:425] inception_3a/output <- inception_3a/5x5
I0403 16:26:59.270730 21080 net.cpp:425] inception_3a/output <- inception_3a/pool_proj
I0403 16:26:59.270748 21080 net.cpp:399] inception_3a/output -> inception_3a/output
I0403 16:26:59.270792 21080 net.cpp:141] Setting up inception_3a/output
I0403 16:26:59.270817 21080 net.cpp:148] Top shape: 24 256 28 28 (4816896)
I0403 16:26:59.270833 21080 net.cpp:156] Memory required for data: 580437024
I0403 16:26:59.270845 21080 layer_factory.hpp:77] Creating layer inception_3a/output_inception_3a/output_0_split
I0403 16:26:59.270862 21080 net.cpp:91] Creating Layer inception_3a/output_inception_3a/output_0_split
I0403 16:26:59.270877 21080 net.cpp:425] inception_3a/output_inception_3a/output_0_split <- inception_3a/output
I0403 16:26:59.270894 21080 net.cpp:399] inception_3a/output_inception_3a/output_0_split -> inception_3a/output_inception_3a/output_0_split_0
I0403 16:26:59.270911 21080 net.cpp:399] inception_3a/output_inception_3a/output_0_split -> inception_3a/output_inception_3a/output_0_split_1
I0403 16:26:59.270934 21080 net.cpp:399] inception_3a/output_inception_3a/output_0_split -> inception_3a/output_inception_3a/output_0_split_2
I0403 16:26:59.270954 21080 net.cpp:399] inception_3a/output_inception_3a/output_0_split -> inception_3a/output_inception_3a/output_0_split_3
I0403 16:26:59.271034 21080 net.cpp:141] Setting up inception_3a/output_inception_3a/output_0_split
I0403 16:26:59.271057 21080 net.cpp:148] Top shape: 24 256 28 28 (4816896)
I0403 16:26:59.271075 21080 net.cpp:148] Top shape: 24 256 28 28 (4816896)
I0403 16:26:59.271090 21080 net.cpp:148] Top shape: 24 256 28 28 (4816896)
I0403 16:26:59.271106 21080 net.cpp:148] Top shape: 24 256 28 28 (4816896)
I0403 16:26:59.271118 21080 net.cpp:156] Memory required for data: 657507360
I0403 16:26:59.271132 21080 layer_factory.hpp:77] Creating layer inception_3b/1x1
I0403 16:26:59.271154 21080 net.cpp:91] Creating Layer inception_3b/1x1
I0403 16:26:59.271172 21080 net.cpp:425] inception_3b/1x1 <- inception_3a/output_inception_3a/output_0_split_0
I0403 16:26:59.271189 21080 net.cpp:399] inception_3b/1x1 -> inception_3b/1x1
I0403 16:26:59.272295 21080 net.cpp:141] Setting up inception_3b/1x1
I0403 16:26:59.272333 21080 net.cpp:148] Top shape: 24 128 28 28 (2408448)
I0403 16:26:59.272348 21080 net.cpp:156] Memory required for data: 667141152
I0403 16:26:59.272368 21080 layer_factory.hpp:77] Creating layer inception_3b/relu_1x1
I0403 16:26:59.272387 21080 net.cpp:91] Creating Layer inception_3b/relu_1x1
I0403 16:26:59.272403 21080 net.cpp:425] inception_3b/relu_1x1 <- inception_3b/1x1
I0403 16:26:59.272418 21080 net.cpp:386] inception_3b/relu_1x1 -> inception_3b/1x1 (in-place)
I0403 16:26:59.272588 21080 net.cpp:141] Setting up inception_3b/relu_1x1
I0403 16:26:59.272614 21080 net.cpp:148] Top shape: 24 128 28 28 (2408448)
I0403 16:26:59.272627 21080 net.cpp:156] Memory required for data: 676774944
I0403 16:26:59.272641 21080 layer_factory.hpp:77] Creating layer inception_3b/3x3_reduce
I0403 16:26:59.272662 21080 net.cpp:91] Creating Layer inception_3b/3x3_reduce
I0403 16:26:59.272678 21080 net.cpp:425] inception_3b/3x3_reduce <- inception_3a/output_inception_3a/output_0_split_1
I0403 16:26:59.272698 21080 net.cpp:399] inception_3b/3x3_reduce -> inception_3b/3x3_reduce
I0403 16:26:59.273808 21080 net.cpp:141] Setting up inception_3b/3x3_reduce
I0403 16:26:59.273839 21080 net.cpp:148] Top shape: 24 128 28 28 (2408448)
I0403 16:26:59.273857 21080 net.cpp:156] Memory required for data: 686408736
I0403 16:26:59.273875 21080 layer_factory.hpp:77] Creating layer inception_3b/relu_3x3_reduce
I0403 16:26:59.273893 21080 net.cpp:91] Creating Layer inception_3b/relu_3x3_reduce
I0403 16:26:59.273907 21080 net.cpp:425] inception_3b/relu_3x3_reduce <- inception_3b/3x3_reduce
I0403 16:26:59.273924 21080 net.cpp:386] inception_3b/relu_3x3_reduce -> inception_3b/3x3_reduce (in-place)
I0403 16:26:59.274101 21080 net.cpp:141] Setting up inception_3b/relu_3x3_reduce
I0403 16:26:59.274124 21080 net.cpp:148] Top shape: 24 128 28 28 (2408448)
I0403 16:26:59.274138 21080 net.cpp:156] Memory required for data: 696042528
I0403 16:26:59.274153 21080 layer_factory.hpp:77] Creating layer inception_3b/3x3
I0403 16:26:59.274176 21080 net.cpp:91] Creating Layer inception_3b/3x3
I0403 16:26:59.274194 21080 net.cpp:425] inception_3b/3x3 <- inception_3b/3x3_reduce
I0403 16:26:59.274214 21080 net.cpp:399] inception_3b/3x3 -> inception_3b/3x3
I0403 16:26:59.277112 21080 net.cpp:141] Setting up inception_3b/3x3
I0403 16:26:59.277142 21080 net.cpp:148] Top shape: 24 192 28 28 (3612672)
I0403 16:26:59.277158 21080 net.cpp:156] Memory required for data: 710493216
I0403 16:26:59.277179 21080 layer_factory.hpp:77] Creating layer inception_3b/relu_3x3
I0403 16:26:59.277209 21080 net.cpp:91] Creating Layer inception_3b/relu_3x3
I0403 16:26:59.277225 21080 net.cpp:425] inception_3b/relu_3x3 <- inception_3b/3x3
I0403 16:26:59.277245 21080 net.cpp:386] inception_3b/relu_3x3 -> inception_3b/3x3 (in-place)
I0403 16:26:59.277513 21080 net.cpp:141] Setting up inception_3b/relu_3x3
I0403 16:26:59.277540 21080 net.cpp:148] Top shape: 24 192 28 28 (3612672)
I0403 16:26:59.277556 21080 net.cpp:156] Memory required for data: 724943904
I0403 16:26:59.277571 21080 layer_factory.hpp:77] Creating layer inception_3b/5x5_reduce
I0403 16:26:59.277593 21080 net.cpp:91] Creating Layer inception_3b/5x5_reduce
I0403 16:26:59.277611 21080 net.cpp:425] inception_3b/5x5_reduce <- inception_3a/output_inception_3a/output_0_split_2
I0403 16:26:59.277632 21080 net.cpp:399] inception_3b/5x5_reduce -> inception_3b/5x5_reduce
I0403 16:26:59.278592 21080 net.cpp:141] Setting up inception_3b/5x5_reduce
I0403 16:26:59.278620 21080 net.cpp:148] Top shape: 24 32 28 28 (602112)
I0403 16:26:59.278635 21080 net.cpp:156] Memory required for data: 727352352
I0403 16:26:59.278651 21080 layer_factory.hpp:77] Creating layer inception_3b/relu_5x5_reduce
I0403 16:26:59.278669 21080 net.cpp:91] Creating Layer inception_3b/relu_5x5_reduce
I0403 16:26:59.278686 21080 net.cpp:425] inception_3b/relu_5x5_reduce <- inception_3b/5x5_reduce
I0403 16:26:59.278703 21080 net.cpp:386] inception_3b/relu_5x5_reduce -> inception_3b/5x5_reduce (in-place)
I0403 16:26:59.278877 21080 net.cpp:141] Setting up inception_3b/relu_5x5_reduce
I0403 16:26:59.278911 21080 net.cpp:148] Top shape: 24 32 28 28 (602112)
I0403 16:26:59.278926 21080 net.cpp:156] Memory required for data: 729760800
I0403 16:26:59.278940 21080 layer_factory.hpp:77] Creating layer inception_3b/5x5
I0403 16:26:59.278962 21080 net.cpp:91] Creating Layer inception_3b/5x5
I0403 16:26:59.278980 21080 net.cpp:425] inception_3b/5x5 <- inception_3b/5x5_reduce
I0403 16:26:59.279012 21080 net.cpp:399] inception_3b/5x5 -> inception_3b/5x5
I0403 16:26:59.280916 21080 net.cpp:141] Setting up inception_3b/5x5
I0403 16:26:59.280948 21080 net.cpp:148] Top shape: 24 96 28 28 (1806336)
I0403 16:26:59.280964 21080 net.cpp:156] Memory required for data: 736986144
I0403 16:26:59.280982 21080 layer_factory.hpp:77] Creating layer inception_3b/relu_5x5
I0403 16:26:59.281005 21080 net.cpp:91] Creating Layer inception_3b/relu_5x5
I0403 16:26:59.281023 21080 net.cpp:425] inception_3b/relu_5x5 <- inception_3b/5x5
I0403 16:26:59.281040 21080 net.cpp:386] inception_3b/relu_5x5 -> inception_3b/5x5 (in-place)
I0403 16:26:59.281227 21080 net.cpp:141] Setting up inception_3b/relu_5x5
I0403 16:26:59.281255 21080 net.cpp:148] Top shape: 24 96 28 28 (1806336)
I0403 16:26:59.281270 21080 net.cpp:156] Memory required for data: 744211488
I0403 16:26:59.281285 21080 layer_factory.hpp:77] Creating layer inception_3b/pool
I0403 16:26:59.281302 21080 net.cpp:91] Creating Layer inception_3b/pool
I0403 16:26:59.281318 21080 net.cpp:425] inception_3b/pool <- inception_3a/output_inception_3a/output_0_split_3
I0403 16:26:59.281337 21080 net.cpp:399] inception_3b/pool -> inception_3b/pool
I0403 16:26:59.281390 21080 net.cpp:141] Setting up inception_3b/pool
I0403 16:26:59.281417 21080 net.cpp:148] Top shape: 24 256 28 28 (4816896)
I0403 16:26:59.281431 21080 net.cpp:156] Memory required for data: 763479072
I0403 16:26:59.281445 21080 layer_factory.hpp:77] Creating layer inception_3b/pool_proj
I0403 16:26:59.281466 21080 net.cpp:91] Creating Layer inception_3b/pool_proj
I0403 16:26:59.281483 21080 net.cpp:425] inception_3b/pool_proj <- inception_3b/pool
I0403 16:26:59.281500 21080 net.cpp:399] inception_3b/pool_proj -> inception_3b/pool_proj
I0403 16:26:59.282524 21080 net.cpp:141] Setting up inception_3b/pool_proj
I0403 16:26:59.282552 21080 net.cpp:148] Top shape: 24 64 28 28 (1204224)
I0403 16:26:59.282567 21080 net.cpp:156] Memory required for data: 768295968
I0403 16:26:59.282584 21080 layer_factory.hpp:77] Creating layer inception_3b/relu_pool_proj
I0403 16:26:59.282603 21080 net.cpp:91] Creating Layer inception_3b/relu_pool_proj
I0403 16:26:59.282619 21080 net.cpp:425] inception_3b/relu_pool_proj <- inception_3b/pool_proj
I0403 16:26:59.282636 21080 net.cpp:386] inception_3b/relu_pool_proj -> inception_3b/pool_proj (in-place)
I0403 16:26:59.283025 21080 net.cpp:141] Setting up inception_3b/relu_pool_proj
I0403 16:26:59.283051 21080 net.cpp:148] Top shape: 24 64 28 28 (1204224)
I0403 16:26:59.283064 21080 net.cpp:156] Memory required for data: 773112864
I0403 16:26:59.283079 21080 layer_factory.hpp:77] Creating layer inception_3b/output
I0403 16:26:59.283095 21080 net.cpp:91] Creating Layer inception_3b/output
I0403 16:26:59.283110 21080 net.cpp:425] inception_3b/output <- inception_3b/1x1
I0403 16:26:59.283125 21080 net.cpp:425] inception_3b/output <- inception_3b/3x3
I0403 16:26:59.283140 21080 net.cpp:425] inception_3b/output <- inception_3b/5x5
I0403 16:26:59.283155 21080 net.cpp:425] inception_3b/output <- inception_3b/pool_proj
I0403 16:26:59.283174 21080 net.cpp:399] inception_3b/output -> inception_3b/output
I0403 16:26:59.283215 21080 net.cpp:141] Setting up inception_3b/output
I0403 16:26:59.283238 21080 net.cpp:148] Top shape: 24 480 28 28 (9031680)
I0403 16:26:59.283253 21080 net.cpp:156] Memory required for data: 809239584
I0403 16:26:59.283267 21080 layer_factory.hpp:77] Creating layer pool3/3x3_s2
I0403 16:26:59.283282 21080 net.cpp:91] Creating Layer pool3/3x3_s2
I0403 16:26:59.283298 21080 net.cpp:425] pool3/3x3_s2 <- inception_3b/output
I0403 16:26:59.283316 21080 net.cpp:399] pool3/3x3_s2 -> pool3/3x3_s2
I0403 16:26:59.283385 21080 net.cpp:141] Setting up pool3/3x3_s2
I0403 16:26:59.283408 21080 net.cpp:148] Top shape: 24 480 14 14 (2257920)
I0403 16:26:59.283422 21080 net.cpp:156] Memory required for data: 818271264
I0403 16:26:59.283437 21080 layer_factory.hpp:77] Creating layer pool3/3x3_s2_pool3/3x3_s2_0_split
I0403 16:26:59.283455 21080 net.cpp:91] Creating Layer pool3/3x3_s2_pool3/3x3_s2_0_split
I0403 16:26:59.283470 21080 net.cpp:425] pool3/3x3_s2_pool3/3x3_s2_0_split <- pool3/3x3_s2
I0403 16:26:59.283486 21080 net.cpp:399] pool3/3x3_s2_pool3/3x3_s2_0_split -> pool3/3x3_s2_pool3/3x3_s2_0_split_0
I0403 16:26:59.283504 21080 net.cpp:399] pool3/3x3_s2_pool3/3x3_s2_0_split -> pool3/3x3_s2_pool3/3x3_s2_0_split_1
I0403 16:26:59.283525 21080 net.cpp:399] pool3/3x3_s2_pool3/3x3_s2_0_split -> pool3/3x3_s2_pool3/3x3_s2_0_split_2
I0403 16:26:59.283545 21080 net.cpp:399] pool3/3x3_s2_pool3/3x3_s2_0_split -> pool3/3x3_s2_pool3/3x3_s2_0_split_3
I0403 16:26:59.283617 21080 net.cpp:141] Setting up pool3/3x3_s2_pool3/3x3_s2_0_split
I0403 16:26:59.283639 21080 net.cpp:148] Top shape: 24 480 14 14 (2257920)
I0403 16:26:59.283654 21080 net.cpp:148] Top shape: 24 480 14 14 (2257920)
I0403 16:26:59.283668 21080 net.cpp:148] Top shape: 24 480 14 14 (2257920)
I0403 16:26:59.283684 21080 net.cpp:148] Top shape: 24 480 14 14 (2257920)
I0403 16:26:59.283696 21080 net.cpp:156] Memory required for data: 854397984
I0403 16:26:59.283710 21080 layer_factory.hpp:77] Creating layer inception_4a/1x1
I0403 16:26:59.283730 21080 net.cpp:91] Creating Layer inception_4a/1x1
I0403 16:26:59.283746 21080 net.cpp:425] inception_4a/1x1 <- pool3/3x3_s2_pool3/3x3_s2_0_split_0
I0403 16:26:59.283766 21080 net.cpp:399] inception_4a/1x1 -> inception_4a/1x1
I0403 16:26:59.285300 21080 net.cpp:141] Setting up inception_4a/1x1
I0403 16:26:59.285327 21080 net.cpp:148] Top shape: 24 192 14 14 (903168)
I0403 16:26:59.285352 21080 net.cpp:156] Memory required for data: 858010656
I0403 16:26:59.285370 21080 layer_factory.hpp:77] Creating layer inception_4a/relu_1x1
I0403 16:26:59.285401 21080 net.cpp:91] Creating Layer inception_4a/relu_1x1
I0403 16:26:59.285418 21080 net.cpp:425] inception_4a/relu_1x1 <- inception_4a/1x1
I0403 16:26:59.285435 21080 net.cpp:386] inception_4a/relu_1x1 -> inception_4a/1x1 (in-place)
I0403 16:26:59.285627 21080 net.cpp:141] Setting up inception_4a/relu_1x1
I0403 16:26:59.285655 21080 net.cpp:148] Top shape: 24 192 14 14 (903168)
I0403 16:26:59.285670 21080 net.cpp:156] Memory required for data: 861623328
I0403 16:26:59.285684 21080 layer_factory.hpp:77] Creating layer inception_4a/3x3_reduce
I0403 16:26:59.285718 21080 net.cpp:91] Creating Layer inception_4a/3x3_reduce
I0403 16:26:59.285734 21080 net.cpp:425] inception_4a/3x3_reduce <- pool3/3x3_s2_pool3/3x3_s2_0_split_1
I0403 16:26:59.285753 21080 net.cpp:399] inception_4a/3x3_reduce -> inception_4a/3x3_reduce
I0403 16:26:59.286988 21080 net.cpp:141] Setting up inception_4a/3x3_reduce
I0403 16:26:59.287016 21080 net.cpp:148] Top shape: 24 96 14 14 (451584)
I0403 16:26:59.287032 21080 net.cpp:156] Memory required for data: 863429664
I0403 16:26:59.287057 21080 layer_factory.hpp:77] Creating layer inception_4a/relu_3x3_reduce
I0403 16:26:59.287080 21080 net.cpp:91] Creating Layer inception_4a/relu_3x3_reduce
I0403 16:26:59.287096 21080 net.cpp:425] inception_4a/relu_3x3_reduce <- inception_4a/3x3_reduce
I0403 16:26:59.287112 21080 net.cpp:386] inception_4a/relu_3x3_reduce -> inception_4a/3x3_reduce (in-place)
I0403 16:26:59.287284 21080 net.cpp:141] Setting up inception_4a/relu_3x3_reduce
I0403 16:26:59.287308 21080 net.cpp:148] Top shape: 24 96 14 14 (451584)
I0403 16:26:59.287322 21080 net.cpp:156] Memory required for data: 865236000
I0403 16:26:59.287336 21080 layer_factory.hpp:77] Creating layer inception_4a/3x3
I0403 16:26:59.287359 21080 net.cpp:91] Creating Layer inception_4a/3x3
I0403 16:26:59.287376 21080 net.cpp:425] inception_4a/3x3 <- inception_4a/3x3_reduce
I0403 16:26:59.287394 21080 net.cpp:399] inception_4a/3x3 -> inception_4a/3x3
I0403 16:26:59.289983 21080 net.cpp:141] Setting up inception_4a/3x3
I0403 16:26:59.290019 21080 net.cpp:148] Top shape: 24 208 14 14 (978432)
I0403 16:26:59.290035 21080 net.cpp:156] Memory required for data: 869149728
I0403 16:26:59.290055 21080 layer_factory.hpp:77] Creating layer inception_4a/relu_3x3
I0403 16:26:59.290072 21080 net.cpp:91] Creating Layer inception_4a/relu_3x3
I0403 16:26:59.290089 21080 net.cpp:425] inception_4a/relu_3x3 <- inception_4a/3x3
I0403 16:26:59.290107 21080 net.cpp:386] inception_4a/relu_3x3 -> inception_4a/3x3 (in-place)
I0403 16:26:59.290381 21080 net.cpp:141] Setting up inception_4a/relu_3x3
I0403 16:26:59.290410 21080 net.cpp:148] Top shape: 24 208 14 14 (978432)
I0403 16:26:59.290423 21080 net.cpp:156] Memory required for data: 873063456
I0403 16:26:59.290437 21080 layer_factory.hpp:77] Creating layer inception_4a/5x5_reduce
I0403 16:26:59.290459 21080 net.cpp:91] Creating Layer inception_4a/5x5_reduce
I0403 16:26:59.290475 21080 net.cpp:425] inception_4a/5x5_reduce <- pool3/3x3_s2_pool3/3x3_s2_0_split_2
I0403 16:26:59.290493 21080 net.cpp:399] inception_4a/5x5_reduce -> inception_4a/5x5_reduce
I0403 16:26:59.291484 21080 net.cpp:141] Setting up inception_4a/5x5_reduce
I0403 16:26:59.291513 21080 net.cpp:148] Top shape: 24 16 14 14 (75264)
I0403 16:26:59.291528 21080 net.cpp:156] Memory required for data: 873364512
I0403 16:26:59.291545 21080 layer_factory.hpp:77] Creating layer inception_4a/relu_5x5_reduce
I0403 16:26:59.291563 21080 net.cpp:91] Creating Layer inception_4a/relu_5x5_reduce
I0403 16:26:59.291577 21080 net.cpp:425] inception_4a/relu_5x5_reduce <- inception_4a/5x5_reduce
I0403 16:26:59.291596 21080 net.cpp:386] inception_4a/relu_5x5_reduce -> inception_4a/5x5_reduce (in-place)
I0403 16:26:59.291772 21080 net.cpp:141] Setting up inception_4a/relu_5x5_reduce
I0403 16:26:59.291796 21080 net.cpp:148] Top shape: 24 16 14 14 (75264)
I0403 16:26:59.291810 21080 net.cpp:156] Memory required for data: 873665568
I0403 16:26:59.291824 21080 layer_factory.hpp:77] Creating layer inception_4a/5x5
I0403 16:26:59.291846 21080 net.cpp:91] Creating Layer inception_4a/5x5
I0403 16:26:59.291863 21080 net.cpp:425] inception_4a/5x5 <- inception_4a/5x5_reduce
I0403 16:26:59.291883 21080 net.cpp:399] inception_4a/5x5 -> inception_4a/5x5
I0403 16:26:59.292940 21080 net.cpp:141] Setting up inception_4a/5x5
I0403 16:26:59.292968 21080 net.cpp:148] Top shape: 24 48 14 14 (225792)
I0403 16:26:59.292984 21080 net.cpp:156] Memory required for data: 874568736
I0403 16:26:59.293007 21080 layer_factory.hpp:77] Creating layer inception_4a/relu_5x5
I0403 16:26:59.293031 21080 net.cpp:91] Creating Layer inception_4a/relu_5x5
I0403 16:26:59.293048 21080 net.cpp:425] inception_4a/relu_5x5 <- inception_4a/5x5
I0403 16:26:59.293064 21080 net.cpp:386] inception_4a/relu_5x5 -> inception_4a/5x5 (in-place)
I0403 16:26:59.293241 21080 net.cpp:141] Setting up inception_4a/relu_5x5
I0403 16:26:59.293264 21080 net.cpp:148] Top shape: 24 48 14 14 (225792)
I0403 16:26:59.293282 21080 net.cpp:156] Memory required for data: 875471904
I0403 16:26:59.293295 21080 layer_factory.hpp:77] Creating layer inception_4a/pool
I0403 16:26:59.293313 21080 net.cpp:91] Creating Layer inception_4a/pool
I0403 16:26:59.293328 21080 net.cpp:425] inception_4a/pool <- pool3/3x3_s2_pool3/3x3_s2_0_split_3
I0403 16:26:59.293344 21080 net.cpp:399] inception_4a/pool -> inception_4a/pool
I0403 16:26:59.293404 21080 net.cpp:141] Setting up inception_4a/pool
I0403 16:26:59.293427 21080 net.cpp:148] Top shape: 24 480 14 14 (2257920)
I0403 16:26:59.293442 21080 net.cpp:156] Memory required for data: 884503584
I0403 16:26:59.293455 21080 layer_factory.hpp:77] Creating layer inception_4a/pool_proj
I0403 16:26:59.293476 21080 net.cpp:91] Creating Layer inception_4a/pool_proj
I0403 16:26:59.293493 21080 net.cpp:425] inception_4a/pool_proj <- inception_4a/pool
I0403 16:26:59.293512 21080 net.cpp:399] inception_4a/pool_proj -> inception_4a/pool_proj
I0403 16:26:59.294646 21080 net.cpp:141] Setting up inception_4a/pool_proj
I0403 16:26:59.294674 21080 net.cpp:148] Top shape: 24 64 14 14 (301056)
I0403 16:26:59.294705 21080 net.cpp:156] Memory required for data: 885707808
I0403 16:26:59.294725 21080 layer_factory.hpp:77] Creating layer inception_4a/relu_pool_proj
I0403 16:26:59.294746 21080 net.cpp:91] Creating Layer inception_4a/relu_pool_proj
I0403 16:26:59.294762 21080 net.cpp:425] inception_4a/relu_pool_proj <- inception_4a/pool_proj
I0403 16:26:59.294778 21080 net.cpp:386] inception_4a/relu_pool_proj -> inception_4a/pool_proj (in-place)
I0403 16:26:59.295058 21080 net.cpp:141] Setting up inception_4a/relu_pool_proj
I0403 16:26:59.295084 21080 net.cpp:148] Top shape: 24 64 14 14 (301056)
I0403 16:26:59.295099 21080 net.cpp:156] Memory required for data: 886912032
I0403 16:26:59.295114 21080 layer_factory.hpp:77] Creating layer inception_4a/output
I0403 16:26:59.295130 21080 net.cpp:91] Creating Layer inception_4a/output
I0403 16:26:59.295145 21080 net.cpp:425] inception_4a/output <- inception_4a/1x1
I0403 16:26:59.295162 21080 net.cpp:425] inception_4a/output <- inception_4a/3x3
I0403 16:26:59.295179 21080 net.cpp:425] inception_4a/output <- inception_4a/5x5
I0403 16:26:59.295194 21080 net.cpp:425] inception_4a/output <- inception_4a/pool_proj
I0403 16:26:59.295212 21080 net.cpp:399] inception_4a/output -> inception_4a/output
I0403 16:26:59.295255 21080 net.cpp:141] Setting up inception_4a/output
I0403 16:26:59.295277 21080 net.cpp:148] Top shape: 24 512 14 14 (2408448)
I0403 16:26:59.295291 21080 net.cpp:156] Memory required for data: 896545824
I0403 16:26:59.295305 21080 layer_factory.hpp:77] Creating layer inception_4a/output_inception_4a/output_0_split
I0403 16:26:59.295322 21080 net.cpp:91] Creating Layer inception_4a/output_inception_4a/output_0_split
I0403 16:26:59.295336 21080 net.cpp:425] inception_4a/output_inception_4a/output_0_split <- inception_4a/output
I0403 16:26:59.295356 21080 net.cpp:399] inception_4a/output_inception_4a/output_0_split -> inception_4a/output_inception_4a/output_0_split_0
I0403 16:26:59.295377 21080 net.cpp:399] inception_4a/output_inception_4a/output_0_split -> inception_4a/output_inception_4a/output_0_split_1
I0403 16:26:59.295397 21080 net.cpp:399] inception_4a/output_inception_4a/output_0_split -> inception_4a/output_inception_4a/output_0_split_2
I0403 16:26:59.295415 21080 net.cpp:399] inception_4a/output_inception_4a/output_0_split -> inception_4a/output_inception_4a/output_0_split_3
I0403 16:26:59.295434 21080 net.cpp:399] inception_4a/output_inception_4a/output_0_split -> inception_4a/output_inception_4a/output_0_split_4
I0403 16:26:59.295527 21080 net.cpp:141] Setting up inception_4a/output_inception_4a/output_0_split
I0403 16:26:59.295550 21080 net.cpp:148] Top shape: 24 512 14 14 (2408448)
I0403 16:26:59.295567 21080 net.cpp:148] Top shape: 24 512 14 14 (2408448)
I0403 16:26:59.295581 21080 net.cpp:148] Top shape: 24 512 14 14 (2408448)
I0403 16:26:59.295595 21080 net.cpp:148] Top shape: 24 512 14 14 (2408448)
I0403 16:26:59.295609 21080 net.cpp:148] Top shape: 24 512 14 14 (2408448)
I0403 16:26:59.295624 21080 net.cpp:156] Memory required for data: 944714784
I0403 16:26:59.295636 21080 layer_factory.hpp:77] Creating layer loss1/ave_pool
I0403 16:26:59.295653 21080 net.cpp:91] Creating Layer loss1/ave_pool
I0403 16:26:59.295668 21080 net.cpp:425] loss1/ave_pool <- inception_4a/output_inception_4a/output_0_split_0
I0403 16:26:59.295688 21080 net.cpp:399] loss1/ave_pool -> loss1/ave_pool
I0403 16:26:59.295889 21080 net.cpp:141] Setting up loss1/ave_pool
I0403 16:26:59.295915 21080 net.cpp:148] Top shape: 24 512 4 4 (196608)
I0403 16:26:59.295929 21080 net.cpp:156] Memory required for data: 945501216
I0403 16:26:59.295943 21080 layer_factory.hpp:77] Creating layer loss1/conv
I0403 16:26:59.295965 21080 net.cpp:91] Creating Layer loss1/conv
I0403 16:26:59.295982 21080 net.cpp:425] loss1/conv <- loss1/ave_pool
I0403 16:26:59.296007 21080 net.cpp:399] loss1/conv -> loss1/conv
I0403 16:26:59.297427 21080 net.cpp:141] Setting up loss1/conv
I0403 16:26:59.297459 21080 net.cpp:148] Top shape: 24 128 4 4 (49152)
I0403 16:26:59.297477 21080 net.cpp:156] Memory required for data: 945697824
I0403 16:26:59.297508 21080 layer_factory.hpp:77] Creating layer loss1/relu_conv
I0403 16:26:59.297528 21080 net.cpp:91] Creating Layer loss1/relu_conv
I0403 16:26:59.297544 21080 net.cpp:425] loss1/relu_conv <- loss1/conv
I0403 16:26:59.297561 21080 net.cpp:386] loss1/relu_conv -> loss1/conv (in-place)
I0403 16:26:59.297838 21080 net.cpp:141] Setting up loss1/relu_conv
I0403 16:26:59.297868 21080 net.cpp:148] Top shape: 24 128 4 4 (49152)
I0403 16:26:59.297883 21080 net.cpp:156] Memory required for data: 945894432
I0403 16:26:59.297897 21080 layer_factory.hpp:77] Creating layer loss1/fc
I0403 16:26:59.297920 21080 net.cpp:91] Creating Layer loss1/fc
I0403 16:26:59.297938 21080 net.cpp:425] loss1/fc <- loss1/conv
I0403 16:26:59.297958 21080 net.cpp:399] loss1/fc -> loss1/fc
I0403 16:26:59.315207 21080 net.cpp:141] Setting up loss1/fc
I0403 16:26:59.315237 21080 net.cpp:148] Top shape: 24 1024 (24576)
I0403 16:26:59.315253 21080 net.cpp:156] Memory required for data: 945992736
I0403 16:26:59.315271 21080 layer_factory.hpp:77] Creating layer loss1/relu_fc
I0403 16:26:59.315294 21080 net.cpp:91] Creating Layer loss1/relu_fc
I0403 16:26:59.315311 21080 net.cpp:425] loss1/relu_fc <- loss1/fc
I0403 16:26:59.315330 21080 net.cpp:386] loss1/relu_fc -> loss1/fc (in-place)
I0403 16:26:59.315533 21080 net.cpp:141] Setting up loss1/relu_fc
I0403 16:26:59.315562 21080 net.cpp:148] Top shape: 24 1024 (24576)
I0403 16:26:59.315577 21080 net.cpp:156] Memory required for data: 946091040
I0403 16:26:59.315590 21080 layer_factory.hpp:77] Creating layer loss1/drop_fc
I0403 16:26:59.315615 21080 net.cpp:91] Creating Layer loss1/drop_fc
I0403 16:26:59.315632 21080 net.cpp:425] loss1/drop_fc <- loss1/fc
I0403 16:26:59.315649 21080 net.cpp:386] loss1/drop_fc -> loss1/fc (in-place)
I0403 16:26:59.315701 21080 net.cpp:141] Setting up loss1/drop_fc
I0403 16:26:59.315724 21080 net.cpp:148] Top shape: 24 1024 (24576)
I0403 16:26:59.315738 21080 net.cpp:156] Memory required for data: 946189344
I0403 16:26:59.315753 21080 layer_factory.hpp:77] Creating layer loss1/classifier_plantvillage
I0403 16:26:59.315774 21080 net.cpp:91] Creating Layer loss1/classifier_plantvillage
I0403 16:26:59.315791 21080 net.cpp:425] loss1/classifier_plantvillage <- loss1/fc
I0403 16:26:59.315809 21080 net.cpp:399] loss1/classifier_plantvillage -> loss1/classifier_plantvillage
I0403 16:26:59.316711 21080 net.cpp:141] Setting up loss1/classifier_plantvillage
I0403 16:26:59.316742 21080 net.cpp:148] Top shape: 24 38 (912)
I0403 16:26:59.316758 21080 net.cpp:156] Memory required for data: 946192992
I0403 16:26:59.316776 21080 layer_factory.hpp:77] Creating layer loss1/classifier_plantvillage_loss1/classifier_plantvillage_0_split
I0403 16:26:59.316793 21080 net.cpp:91] Creating Layer loss1/classifier_plantvillage_loss1/classifier_plantvillage_0_split
I0403 16:26:59.316809 21080 net.cpp:425] loss1/classifier_plantvillage_loss1/classifier_plantvillage_0_split <- loss1/classifier_plantvillage
I0403 16:26:59.316826 21080 net.cpp:399] loss1/classifier_plantvillage_loss1/classifier_plantvillage_0_split -> loss1/classifier_plantvillage_loss1/classifier_plantvillage_0_split_0
I0403 16:26:59.316846 21080 net.cpp:399] loss1/classifier_plantvillage_loss1/classifier_plantvillage_0_split -> loss1/classifier_plantvillage_loss1/classifier_plantvillage_0_split_1
I0403 16:26:59.316865 21080 net.cpp:399] loss1/classifier_plantvillage_loss1/classifier_plantvillage_0_split -> loss1/classifier_plantvillage_loss1/classifier_plantvillage_0_split_2
I0403 16:26:59.316931 21080 net.cpp:141] Setting up loss1/classifier_plantvillage_loss1/classifier_plantvillage_0_split
I0403 16:26:59.316953 21080 net.cpp:148] Top shape: 24 38 (912)
I0403 16:26:59.316969 21080 net.cpp:148] Top shape: 24 38 (912)
I0403 16:26:59.316988 21080 net.cpp:148] Top shape: 24 38 (912)
I0403 16:26:59.317003 21080 net.cpp:156] Memory required for data: 946203936
I0403 16:26:59.317018 21080 layer_factory.hpp:77] Creating layer inception_4b/1x1
I0403 16:26:59.317037 21080 net.cpp:91] Creating Layer inception_4b/1x1
I0403 16:26:59.317070 21080 net.cpp:425] inception_4b/1x1 <- inception_4a/output_inception_4a/output_0_split_1
I0403 16:26:59.317092 21080 net.cpp:399] inception_4b/1x1 -> inception_4b/1x1
I0403 16:26:59.318761 21080 net.cpp:141] Setting up inception_4b/1x1
I0403 16:26:59.318794 21080 net.cpp:148] Top shape: 24 160 14 14 (752640)
I0403 16:26:59.318810 21080 net.cpp:156] Memory required for data: 949214496
I0403 16:26:59.318830 21080 layer_factory.hpp:77] Creating layer inception_4b/relu_1x1
I0403 16:26:59.318850 21080 net.cpp:91] Creating Layer inception_4b/relu_1x1
I0403 16:26:59.318867 21080 net.cpp:425] inception_4b/relu_1x1 <- inception_4b/1x1
I0403 16:26:59.318887 21080 net.cpp:386] inception_4b/relu_1x1 -> inception_4b/1x1 (in-place)
I0403 16:26:59.319085 21080 net.cpp:141] Setting up inception_4b/relu_1x1
I0403 16:26:59.319111 21080 net.cpp:148] Top shape: 24 160 14 14 (752640)
I0403 16:26:59.319126 21080 net.cpp:156] Memory required for data: 952225056
I0403 16:26:59.319140 21080 layer_factory.hpp:77] Creating layer inception_4b/3x3_reduce
I0403 16:26:59.319162 21080 net.cpp:91] Creating Layer inception_4b/3x3_reduce
I0403 16:26:59.319180 21080 net.cpp:425] inception_4b/3x3_reduce <- inception_4a/output_inception_4a/output_0_split_2
I0403 16:26:59.319202 21080 net.cpp:399] inception_4b/3x3_reduce -> inception_4b/3x3_reduce
I0403 16:26:59.320565 21080 net.cpp:141] Setting up inception_4b/3x3_reduce
I0403 16:26:59.320593 21080 net.cpp:148] Top shape: 24 112 14 14 (526848)
I0403 16:26:59.320611 21080 net.cpp:156] Memory required for data: 954332448
I0403 16:26:59.320629 21080 layer_factory.hpp:77] Creating layer inception_4b/relu_3x3_reduce
I0403 16:26:59.320648 21080 net.cpp:91] Creating Layer inception_4b/relu_3x3_reduce
I0403 16:26:59.320667 21080 net.cpp:425] inception_4b/relu_3x3_reduce <- inception_4b/3x3_reduce
I0403 16:26:59.320685 21080 net.cpp:386] inception_4b/relu_3x3_reduce -> inception_4b/3x3_reduce (in-place)
I0403 16:26:59.320974 21080 net.cpp:141] Setting up inception_4b/relu_3x3_reduce
I0403 16:26:59.321007 21080 net.cpp:148] Top shape: 24 112 14 14 (526848)
I0403 16:26:59.321023 21080 net.cpp:156] Memory required for data: 956439840
I0403 16:26:59.321038 21080 layer_factory.hpp:77] Creating layer inception_4b/3x3
I0403 16:26:59.321061 21080 net.cpp:91] Creating Layer inception_4b/3x3
I0403 16:26:59.321081 21080 net.cpp:425] inception_4b/3x3 <- inception_4b/3x3_reduce
I0403 16:26:59.321102 21080 net.cpp:399] inception_4b/3x3 -> inception_4b/3x3
I0403 16:26:59.324084 21080 net.cpp:141] Setting up inception_4b/3x3
I0403 16:26:59.324115 21080 net.cpp:148] Top shape: 24 224 14 14 (1053696)
I0403 16:26:59.324131 21080 net.cpp:156] Memory required for data: 960654624
I0403 16:26:59.324151 21080 layer_factory.hpp:77] Creating layer inception_4b/relu_3x3
I0403 16:26:59.324172 21080 net.cpp:91] Creating Layer inception_4b/relu_3x3
I0403 16:26:59.324188 21080 net.cpp:425] inception_4b/relu_3x3 <- inception_4b/3x3
I0403 16:26:59.324205 21080 net.cpp:386] inception_4b/relu_3x3 -> inception_4b/3x3 (in-place)
I0403 16:26:59.324389 21080 net.cpp:141] Setting up inception_4b/relu_3x3
I0403 16:26:59.324417 21080 net.cpp:148] Top shape: 24 224 14 14 (1053696)
I0403 16:26:59.324432 21080 net.cpp:156] Memory required for data: 964869408
I0403 16:26:59.324447 21080 layer_factory.hpp:77] Creating layer inception_4b/5x5_reduce
I0403 16:26:59.324470 21080 net.cpp:91] Creating Layer inception_4b/5x5_reduce
I0403 16:26:59.324486 21080 net.cpp:425] inception_4b/5x5_reduce <- inception_4a/output_inception_4a/output_0_split_3
I0403 16:26:59.324506 21080 net.cpp:399] inception_4b/5x5_reduce -> inception_4b/5x5_reduce
I0403 16:26:59.325599 21080 net.cpp:141] Setting up inception_4b/5x5_reduce
I0403 16:26:59.325630 21080 net.cpp:148] Top shape: 24 24 14 14 (112896)
I0403 16:26:59.325649 21080 net.cpp:156] Memory required for data: 965320992
I0403 16:26:59.325666 21080 layer_factory.hpp:77] Creating layer inception_4b/relu_5x5_reduce
I0403 16:26:59.325685 21080 net.cpp:91] Creating Layer inception_4b/relu_5x5_reduce
I0403 16:26:59.325716 21080 net.cpp:425] inception_4b/relu_5x5_reduce <- inception_4b/5x5_reduce
I0403 16:26:59.325736 21080 net.cpp:386] inception_4b/relu_5x5_reduce -> inception_4b/5x5_reduce (in-place)
I0403 16:26:59.325924 21080 net.cpp:141] Setting up inception_4b/relu_5x5_reduce
I0403 16:26:59.325950 21080 net.cpp:148] Top shape: 24 24 14 14 (112896)
I0403 16:26:59.325965 21080 net.cpp:156] Memory required for data: 965772576
I0403 16:26:59.325980 21080 layer_factory.hpp:77] Creating layer inception_4b/5x5
I0403 16:26:59.326009 21080 net.cpp:91] Creating Layer inception_4b/5x5
I0403 16:26:59.326027 21080 net.cpp:425] inception_4b/5x5 <- inception_4b/5x5_reduce
I0403 16:26:59.326048 21080 net.cpp:399] inception_4b/5x5 -> inception_4b/5x5
I0403 16:26:59.327281 21080 net.cpp:141] Setting up inception_4b/5x5
I0403 16:26:59.327312 21080 net.cpp:148] Top shape: 24 64 14 14 (301056)
I0403 16:26:59.327330 21080 net.cpp:156] Memory required for data: 966976800
I0403 16:26:59.327349 21080 layer_factory.hpp:77] Creating layer inception_4b/relu_5x5
I0403 16:26:59.327368 21080 net.cpp:91] Creating Layer inception_4b/relu_5x5
I0403 16:26:59.327383 21080 net.cpp:425] inception_4b/relu_5x5 <- inception_4b/5x5
I0403 16:26:59.327404 21080 net.cpp:386] inception_4b/relu_5x5 -> inception_4b/5x5 (in-place)
I0403 16:26:59.327692 21080 net.cpp:141] Setting up inception_4b/relu_5x5
I0403 16:26:59.327723 21080 net.cpp:148] Top shape: 24 64 14 14 (301056)
I0403 16:26:59.327739 21080 net.cpp:156] Memory required for data: 968181024
I0403 16:26:59.327754 21080 layer_factory.hpp:77] Creating layer inception_4b/pool
I0403 16:26:59.327772 21080 net.cpp:91] Creating Layer inception_4b/pool
I0403 16:26:59.327788 21080 net.cpp:425] inception_4b/pool <- inception_4a/output_inception_4a/output_0_split_4
I0403 16:26:59.327808 21080 net.cpp:399] inception_4b/pool -> inception_4b/pool
I0403 16:26:59.327872 21080 net.cpp:141] Setting up inception_4b/pool
I0403 16:26:59.327895 21080 net.cpp:148] Top shape: 24 512 14 14 (2408448)
I0403 16:26:59.327909 21080 net.cpp:156] Memory required for data: 977814816
I0403 16:26:59.327924 21080 layer_factory.hpp:77] Creating layer inception_4b/pool_proj
I0403 16:26:59.327945 21080 net.cpp:91] Creating Layer inception_4b/pool_proj
I0403 16:26:59.327965 21080 net.cpp:425] inception_4b/pool_proj <- inception_4b/pool
I0403 16:26:59.327982 21080 net.cpp:399] inception_4b/pool_proj -> inception_4b/pool_proj
I0403 16:26:59.329207 21080 net.cpp:141] Setting up inception_4b/pool_proj
I0403 16:26:59.329237 21080 net.cpp:148] Top shape: 24 64 14 14 (301056)
I0403 16:26:59.329254 21080 net.cpp:156] Memory required for data: 979019040
I0403 16:26:59.329273 21080 layer_factory.hpp:77] Creating layer inception_4b/relu_pool_proj
I0403 16:26:59.329293 21080 net.cpp:91] Creating Layer inception_4b/relu_pool_proj
I0403 16:26:59.329308 21080 net.cpp:425] inception_4b/relu_pool_proj <- inception_4b/pool_proj
I0403 16:26:59.329327 21080 net.cpp:386] inception_4b/relu_pool_proj -> inception_4b/pool_proj (in-place)
I0403 16:26:59.329509 21080 net.cpp:141] Setting up inception_4b/relu_pool_proj
I0403 16:26:59.329535 21080 net.cpp:148] Top shape: 24 64 14 14 (301056)
I0403 16:26:59.329550 21080 net.cpp:156] Memory required for data: 980223264
I0403 16:26:59.329565 21080 layer_factory.hpp:77] Creating layer inception_4b/output
I0403 16:26:59.329581 21080 net.cpp:91] Creating Layer inception_4b/output
I0403 16:26:59.329601 21080 net.cpp:425] inception_4b/output <- inception_4b/1x1
I0403 16:26:59.329617 21080 net.cpp:425] inception_4b/output <- inception_4b/3x3
I0403 16:26:59.329632 21080 net.cpp:425] inception_4b/output <- inception_4b/5x5
I0403 16:26:59.329648 21080 net.cpp:425] inception_4b/output <- inception_4b/pool_proj
I0403 16:26:59.329663 21080 net.cpp:399] inception_4b/output -> inception_4b/output
I0403 16:26:59.329707 21080 net.cpp:141] Setting up inception_4b/output
I0403 16:26:59.329733 21080 net.cpp:148] Top shape: 24 512 14 14 (2408448)
I0403 16:26:59.329748 21080 net.cpp:156] Memory required for data: 989857056
I0403 16:26:59.329777 21080 layer_factory.hpp:77] Creating layer inception_4b/output_inception_4b/output_0_split
I0403 16:26:59.329795 21080 net.cpp:91] Creating Layer inception_4b/output_inception_4b/output_0_split
I0403 16:26:59.329810 21080 net.cpp:425] inception_4b/output_inception_4b/output_0_split <- inception_4b/output
I0403 16:26:59.329829 21080 net.cpp:399] inception_4b/output_inception_4b/output_0_split -> inception_4b/output_inception_4b/output_0_split_0
I0403 16:26:59.329849 21080 net.cpp:399] inception_4b/output_inception_4b/output_0_split -> inception_4b/output_inception_4b/output_0_split_1
I0403 16:26:59.329869 21080 net.cpp:399] inception_4b/output_inception_4b/output_0_split -> inception_4b/output_inception_4b/output_0_split_2
I0403 16:26:59.329888 21080 net.cpp:399] inception_4b/output_inception_4b/output_0_split -> inception_4b/output_inception_4b/output_0_split_3
I0403 16:26:59.329969 21080 net.cpp:141] Setting up inception_4b/output_inception_4b/output_0_split
I0403 16:26:59.329998 21080 net.cpp:148] Top shape: 24 512 14 14 (2408448)
I0403 16:26:59.330016 21080 net.cpp:148] Top shape: 24 512 14 14 (2408448)
I0403 16:26:59.330032 21080 net.cpp:148] Top shape: 24 512 14 14 (2408448)
I0403 16:26:59.330046 21080 net.cpp:148] Top shape: 24 512 14 14 (2408448)
I0403 16:26:59.330060 21080 net.cpp:156] Memory required for data: 1028392224
I0403 16:26:59.330075 21080 layer_factory.hpp:77] Creating layer inception_4c/1x1
I0403 16:26:59.330101 21080 net.cpp:91] Creating Layer inception_4c/1x1
I0403 16:26:59.330117 21080 net.cpp:425] inception_4c/1x1 <- inception_4b/output_inception_4b/output_0_split_0
I0403 16:26:59.330135 21080 net.cpp:399] inception_4c/1x1 -> inception_4c/1x1
I0403 16:26:59.331601 21080 net.cpp:141] Setting up inception_4c/1x1
I0403 16:26:59.331631 21080 net.cpp:148] Top shape: 24 128 14 14 (602112)
I0403 16:26:59.331646 21080 net.cpp:156] Memory required for data: 1030800672
I0403 16:26:59.331665 21080 layer_factory.hpp:77] Creating layer inception_4c/relu_1x1
I0403 16:26:59.331686 21080 net.cpp:91] Creating Layer inception_4c/relu_1x1
I0403 16:26:59.331704 21080 net.cpp:425] inception_4c/relu_1x1 <- inception_4c/1x1
I0403 16:26:59.331722 21080 net.cpp:386] inception_4c/relu_1x1 -> inception_4c/1x1 (in-place)
I0403 16:26:59.331909 21080 net.cpp:141] Setting up inception_4c/relu_1x1
I0403 16:26:59.331935 21080 net.cpp:148] Top shape: 24 128 14 14 (602112)
I0403 16:26:59.331950 21080 net.cpp:156] Memory required for data: 1033209120
I0403 16:26:59.331965 21080 layer_factory.hpp:77] Creating layer inception_4c/3x3_reduce
I0403 16:26:59.331991 21080 net.cpp:91] Creating Layer inception_4c/3x3_reduce
I0403 16:26:59.332010 21080 net.cpp:425] inception_4c/3x3_reduce <- inception_4b/output_inception_4b/output_0_split_1
I0403 16:26:59.332029 21080 net.cpp:399] inception_4c/3x3_reduce -> inception_4c/3x3_reduce
I0403 16:26:59.333993 21080 net.cpp:141] Setting up inception_4c/3x3_reduce
I0403 16:26:59.334025 21080 net.cpp:148] Top shape: 24 128 14 14 (602112)
I0403 16:26:59.334043 21080 net.cpp:156] Memory required for data: 1035617568
I0403 16:26:59.334061 21080 layer_factory.hpp:77] Creating layer inception_4c/relu_3x3_reduce
I0403 16:26:59.334080 21080 net.cpp:91] Creating Layer inception_4c/relu_3x3_reduce
I0403 16:26:59.334097 21080 net.cpp:425] inception_4c/relu_3x3_reduce <- inception_4c/3x3_reduce
I0403 16:26:59.334117 21080 net.cpp:386] inception_4c/relu_3x3_reduce -> inception_4c/3x3_reduce (in-place)
I0403 16:26:59.334414 21080 net.cpp:141] Setting up inception_4c/relu_3x3_reduce
I0403 16:26:59.334441 21080 net.cpp:148] Top shape: 24 128 14 14 (602112)
I0403 16:26:59.334456 21080 net.cpp:156] Memory required for data: 1038026016
I0403 16:26:59.334471 21080 layer_factory.hpp:77] Creating layer inception_4c/3x3
I0403 16:26:59.334494 21080 net.cpp:91] Creating Layer inception_4c/3x3
I0403 16:26:59.334511 21080 net.cpp:425] inception_4c/3x3 <- inception_4c/3x3_reduce
I0403 16:26:59.334530 21080 net.cpp:399] inception_4c/3x3 -> inception_4c/3x3
I0403 16:26:59.338136 21080 net.cpp:141] Setting up inception_4c/3x3
I0403 16:26:59.338181 21080 net.cpp:148] Top shape: 24 256 14 14 (1204224)
I0403 16:26:59.338197 21080 net.cpp:156] Memory required for data: 1042842912
I0403 16:26:59.338230 21080 layer_factory.hpp:77] Creating layer inception_4c/relu_3x3
I0403 16:26:59.338254 21080 net.cpp:91] Creating Layer inception_4c/relu_3x3
I0403 16:26:59.338273 21080 net.cpp:425] inception_4c/relu_3x3 <- inception_4c/3x3
I0403 16:26:59.338291 21080 net.cpp:386] inception_4c/relu_3x3 -> inception_4c/3x3 (in-place)
I0403 16:26:59.338477 21080 net.cpp:141] Setting up inception_4c/relu_3x3
I0403 16:26:59.338506 21080 net.cpp:148] Top shape: 24 256 14 14 (1204224)
I0403 16:26:59.338522 21080 net.cpp:156] Memory required for data: 1047659808
I0403 16:26:59.338538 21080 layer_factory.hpp:77] Creating layer inception_4c/5x5_reduce
I0403 16:26:59.338562 21080 net.cpp:91] Creating Layer inception_4c/5x5_reduce
I0403 16:26:59.338583 21080 net.cpp:425] inception_4c/5x5_reduce <- inception_4b/output_inception_4b/output_0_split_2
I0403 16:26:59.338604 21080 net.cpp:399] inception_4c/5x5_reduce -> inception_4c/5x5_reduce
I0403 16:26:59.339709 21080 net.cpp:141] Setting up inception_4c/5x5_reduce
I0403 16:26:59.339740 21080 net.cpp:148] Top shape: 24 24 14 14 (112896)
I0403 16:26:59.339759 21080 net.cpp:156] Memory required for data: 1048111392
I0403 16:26:59.339778 21080 layer_factory.hpp:77] Creating layer inception_4c/relu_5x5_reduce
I0403 16:26:59.339797 21080 net.cpp:91] Creating Layer inception_4c/relu_5x5_reduce
I0403 16:26:59.339814 21080 net.cpp:425] inception_4c/relu_5x5_reduce <- inception_4c/5x5_reduce
I0403 16:26:59.339833 21080 net.cpp:386] inception_4c/relu_5x5_reduce -> inception_4c/5x5_reduce (in-place)
I0403 16:26:59.340025 21080 net.cpp:141] Setting up inception_4c/relu_5x5_reduce
I0403 16:26:59.340052 21080 net.cpp:148] Top shape: 24 24 14 14 (112896)
I0403 16:26:59.340067 21080 net.cpp:156] Memory required for data: 1048562976
I0403 16:26:59.340081 21080 layer_factory.hpp:77] Creating layer inception_4c/5x5
I0403 16:26:59.340103 21080 net.cpp:91] Creating Layer inception_4c/5x5
I0403 16:26:59.340122 21080 net.cpp:425] inception_4c/5x5 <- inception_4c/5x5_reduce
I0403 16:26:59.340144 21080 net.cpp:399] inception_4c/5x5 -> inception_4c/5x5
I0403 16:26:59.341387 21080 net.cpp:141] Setting up inception_4c/5x5
I0403 16:26:59.341415 21080 net.cpp:148] Top shape: 24 64 14 14 (301056)
I0403 16:26:59.341433 21080 net.cpp:156] Memory required for data: 1049767200
I0403 16:26:59.341450 21080 layer_factory.hpp:77] Creating layer inception_4c/relu_5x5
I0403 16:26:59.341471 21080 net.cpp:91] Creating Layer inception_4c/relu_5x5
I0403 16:26:59.341490 21080 net.cpp:425] inception_4c/relu_5x5 <- inception_4c/5x5
I0403 16:26:59.341507 21080 net.cpp:386] inception_4c/relu_5x5 -> inception_4c/5x5 (in-place)
I0403 16:26:59.341799 21080 net.cpp:141] Setting up inception_4c/relu_5x5
I0403 16:26:59.341827 21080 net.cpp:148] Top shape: 24 64 14 14 (301056)
I0403 16:26:59.341842 21080 net.cpp:156] Memory required for data: 1050971424
I0403 16:26:59.341857 21080 layer_factory.hpp:77] Creating layer inception_4c/pool
I0403 16:26:59.341878 21080 net.cpp:91] Creating Layer inception_4c/pool
I0403 16:26:59.341897 21080 net.cpp:425] inception_4c/pool <- inception_4b/output_inception_4b/output_0_split_3
I0403 16:26:59.341914 21080 net.cpp:399] inception_4c/pool -> inception_4c/pool
I0403 16:26:59.341981 21080 net.cpp:141] Setting up inception_4c/pool
I0403 16:26:59.342010 21080 net.cpp:148] Top shape: 24 512 14 14 (2408448)
I0403 16:26:59.342025 21080 net.cpp:156] Memory required for data: 1060605216
I0403 16:26:59.342041 21080 layer_factory.hpp:77] Creating layer inception_4c/pool_proj
I0403 16:26:59.342062 21080 net.cpp:91] Creating Layer inception_4c/pool_proj
I0403 16:26:59.342080 21080 net.cpp:425] inception_4c/pool_proj <- inception_4c/pool
I0403 16:26:59.342102 21080 net.cpp:399] inception_4c/pool_proj -> inception_4c/pool_proj
I0403 16:26:59.343328 21080 net.cpp:141] Setting up inception_4c/pool_proj
I0403 16:26:59.343360 21080 net.cpp:148] Top shape: 24 64 14 14 (301056)
I0403 16:26:59.343394 21080 net.cpp:156] Memory required for data: 1061809440
I0403 16:26:59.343415 21080 layer_factory.hpp:77] Creating layer inception_4c/relu_pool_proj
I0403 16:26:59.343433 21080 net.cpp:91] Creating Layer inception_4c/relu_pool_proj
I0403 16:26:59.343456 21080 net.cpp:425] inception_4c/relu_pool_proj <- inception_4c/pool_proj
I0403 16:26:59.343474 21080 net.cpp:386] inception_4c/relu_pool_proj -> inception_4c/pool_proj (in-place)
I0403 16:26:59.343660 21080 net.cpp:141] Setting up inception_4c/relu_pool_proj
I0403 16:26:59.343688 21080 net.cpp:148] Top shape: 24 64 14 14 (301056)
I0403 16:26:59.343703 21080 net.cpp:156] Memory required for data: 1063013664
I0403 16:26:59.343718 21080 layer_factory.hpp:77] Creating layer inception_4c/output
I0403 16:26:59.343734 21080 net.cpp:91] Creating Layer inception_4c/output
I0403 16:26:59.343750 21080 net.cpp:425] inception_4c/output <- inception_4c/1x1
I0403 16:26:59.343765 21080 net.cpp:425] inception_4c/output <- inception_4c/3x3
I0403 16:26:59.343785 21080 net.cpp:425] inception_4c/output <- inception_4c/5x5
I0403 16:26:59.343799 21080 net.cpp:425] inception_4c/output <- inception_4c/pool_proj
I0403 16:26:59.343816 21080 net.cpp:399] inception_4c/output -> inception_4c/output
I0403 16:26:59.343860 21080 net.cpp:141] Setting up inception_4c/output
I0403 16:26:59.343886 21080 net.cpp:148] Top shape: 24 512 14 14 (2408448)
I0403 16:26:59.343902 21080 net.cpp:156] Memory required for data: 1072647456
I0403 16:26:59.343916 21080 layer_factory.hpp:77] Creating layer inception_4c/output_inception_4c/output_0_split
I0403 16:26:59.343933 21080 net.cpp:91] Creating Layer inception_4c/output_inception_4c/output_0_split
I0403 16:26:59.343950 21080 net.cpp:425] inception_4c/output_inception_4c/output_0_split <- inception_4c/output
I0403 16:26:59.343967 21080 net.cpp:399] inception_4c/output_inception_4c/output_0_split -> inception_4c/output_inception_4c/output_0_split_0
I0403 16:26:59.343992 21080 net.cpp:399] inception_4c/output_inception_4c/output_0_split -> inception_4c/output_inception_4c/output_0_split_1
I0403 16:26:59.344014 21080 net.cpp:399] inception_4c/output_inception_4c/output_0_split -> inception_4c/output_inception_4c/output_0_split_2
I0403 16:26:59.344034 21080 net.cpp:399] inception_4c/output_inception_4c/output_0_split -> inception_4c/output_inception_4c/output_0_split_3
I0403 16:26:59.344120 21080 net.cpp:141] Setting up inception_4c/output_inception_4c/output_0_split
I0403 16:26:59.344146 21080 net.cpp:148] Top shape: 24 512 14 14 (2408448)
I0403 16:26:59.344161 21080 net.cpp:148] Top shape: 24 512 14 14 (2408448)
I0403 16:26:59.344177 21080 net.cpp:148] Top shape: 24 512 14 14 (2408448)
I0403 16:26:59.344192 21080 net.cpp:148] Top shape: 24 512 14 14 (2408448)
I0403 16:26:59.344204 21080 net.cpp:156] Memory required for data: 1111182624
I0403 16:26:59.344218 21080 layer_factory.hpp:77] Creating layer inception_4d/1x1
I0403 16:26:59.344238 21080 net.cpp:91] Creating Layer inception_4d/1x1
I0403 16:26:59.344254 21080 net.cpp:425] inception_4d/1x1 <- inception_4c/output_inception_4c/output_0_split_0
I0403 16:26:59.344274 21080 net.cpp:399] inception_4d/1x1 -> inception_4d/1x1
I0403 16:26:59.345702 21080 net.cpp:141] Setting up inception_4d/1x1
I0403 16:26:59.345733 21080 net.cpp:148] Top shape: 24 112 14 14 (526848)
I0403 16:26:59.345751 21080 net.cpp:156] Memory required for data: 1113290016
I0403 16:26:59.345769 21080 layer_factory.hpp:77] Creating layer inception_4d/relu_1x1
I0403 16:26:59.345791 21080 net.cpp:91] Creating Layer inception_4d/relu_1x1
I0403 16:26:59.345808 21080 net.cpp:425] inception_4d/relu_1x1 <- inception_4d/1x1
I0403 16:26:59.345825 21080 net.cpp:386] inception_4d/relu_1x1 -> inception_4d/1x1 (in-place)
I0403 16:26:59.346021 21080 net.cpp:141] Setting up inception_4d/relu_1x1
I0403 16:26:59.346050 21080 net.cpp:148] Top shape: 24 112 14 14 (526848)
I0403 16:26:59.346066 21080 net.cpp:156] Memory required for data: 1115397408
I0403 16:26:59.346081 21080 layer_factory.hpp:77] Creating layer inception_4d/3x3_reduce
I0403 16:26:59.346118 21080 net.cpp:91] Creating Layer inception_4d/3x3_reduce
I0403 16:26:59.346138 21080 net.cpp:425] inception_4d/3x3_reduce <- inception_4c/output_inception_4c/output_0_split_1
I0403 16:26:59.346155 21080 net.cpp:399] inception_4d/3x3_reduce -> inception_4d/3x3_reduce
I0403 16:26:59.347676 21080 net.cpp:141] Setting up inception_4d/3x3_reduce
I0403 16:26:59.347704 21080 net.cpp:148] Top shape: 24 144 14 14 (677376)
I0403 16:26:59.347720 21080 net.cpp:156] Memory required for data: 1118106912
I0403 16:26:59.347739 21080 layer_factory.hpp:77] Creating layer inception_4d/relu_3x3_reduce
I0403 16:26:59.347759 21080 net.cpp:91] Creating Layer inception_4d/relu_3x3_reduce
I0403 16:26:59.347776 21080 net.cpp:425] inception_4d/relu_3x3_reduce <- inception_4d/3x3_reduce
I0403 16:26:59.347793 21080 net.cpp:386] inception_4d/relu_3x3_reduce -> inception_4d/3x3_reduce (in-place)
I0403 16:26:59.348095 21080 net.cpp:141] Setting up inception_4d/relu_3x3_reduce
I0403 16:26:59.348124 21080 net.cpp:148] Top shape: 24 144 14 14 (677376)
I0403 16:26:59.348139 21080 net.cpp:156] Memory required for data: 1120816416
I0403 16:26:59.348153 21080 layer_factory.hpp:77] Creating layer inception_4d/3x3
I0403 16:26:59.348176 21080 net.cpp:91] Creating Layer inception_4d/3x3
I0403 16:26:59.348193 21080 net.cpp:425] inception_4d/3x3 <- inception_4d/3x3_reduce
I0403 16:26:59.348214 21080 net.cpp:399] inception_4d/3x3 -> inception_4d/3x3
I0403 16:26:59.352496 21080 net.cpp:141] Setting up inception_4d/3x3
I0403 16:26:59.352527 21080 net.cpp:148] Top shape: 24 288 14 14 (1354752)
I0403 16:26:59.352545 21080 net.cpp:156] Memory required for data: 1126235424
I0403 16:26:59.352562 21080 layer_factory.hpp:77] Creating layer inception_4d/relu_3x3
I0403 16:26:59.352583 21080 net.cpp:91] Creating Layer inception_4d/relu_3x3
I0403 16:26:59.352602 21080 net.cpp:425] inception_4d/relu_3x3 <- inception_4d/3x3
I0403 16:26:59.352620 21080 net.cpp:386] inception_4d/relu_3x3 -> inception_4d/3x3 (in-place)
I0403 16:26:59.352807 21080 net.cpp:141] Setting up inception_4d/relu_3x3
I0403 16:26:59.352831 21080 net.cpp:148] Top shape: 24 288 14 14 (1354752)
I0403 16:26:59.352846 21080 net.cpp:156] Memory required for data: 1131654432
I0403 16:26:59.352860 21080 layer_factory.hpp:77] Creating layer inception_4d/5x5_reduce
I0403 16:26:59.352882 21080 net.cpp:91] Creating Layer inception_4d/5x5_reduce
I0403 16:26:59.352900 21080 net.cpp:425] inception_4d/5x5_reduce <- inception_4c/output_inception_4c/output_0_split_2
I0403 16:26:59.352921 21080 net.cpp:399] inception_4d/5x5_reduce -> inception_4d/5x5_reduce
I0403 16:26:59.354091 21080 net.cpp:141] Setting up inception_4d/5x5_reduce
I0403 16:26:59.354122 21080 net.cpp:148] Top shape: 24 32 14 14 (150528)
I0403 16:26:59.354140 21080 net.cpp:156] Memory required for data: 1132256544
I0403 16:26:59.354158 21080 layer_factory.hpp:77] Creating layer inception_4d/relu_5x5_reduce
I0403 16:26:59.354177 21080 net.cpp:91] Creating Layer inception_4d/relu_5x5_reduce
I0403 16:26:59.354193 21080 net.cpp:425] inception_4d/relu_5x5_reduce <- inception_4d/5x5_reduce
I0403 16:26:59.354209 21080 net.cpp:386] inception_4d/relu_5x5_reduce -> inception_4d/5x5_reduce (in-place)
I0403 16:26:59.354394 21080 net.cpp:141] Setting up inception_4d/relu_5x5_reduce
I0403 16:26:59.354420 21080 net.cpp:148] Top shape: 24 32 14 14 (150528)
I0403 16:26:59.354435 21080 net.cpp:156] Memory required for data: 1132858656
I0403 16:26:59.354449 21080 layer_factory.hpp:77] Creating layer inception_4d/5x5
I0403 16:26:59.354471 21080 net.cpp:91] Creating Layer inception_4d/5x5
I0403 16:26:59.354488 21080 net.cpp:425] inception_4d/5x5 <- inception_4d/5x5_reduce
I0403 16:26:59.354508 21080 net.cpp:399] inception_4d/5x5 -> inception_4d/5x5
I0403 16:26:59.355952 21080 net.cpp:141] Setting up inception_4d/5x5
I0403 16:26:59.355980 21080 net.cpp:148] Top shape: 24 64 14 14 (301056)
I0403 16:26:59.356001 21080 net.cpp:156] Memory required for data: 1134062880
I0403 16:26:59.356021 21080 layer_factory.hpp:77] Creating layer inception_4d/relu_5x5
I0403 16:26:59.356055 21080 net.cpp:91] Creating Layer inception_4d/relu_5x5
I0403 16:26:59.356076 21080 net.cpp:425] inception_4d/relu_5x5 <- inception_4d/5x5
I0403 16:26:59.356094 21080 net.cpp:386] inception_4d/relu_5x5 -> inception_4d/5x5 (in-place)
I0403 16:26:59.356389 21080 net.cpp:141] Setting up inception_4d/relu_5x5
I0403 16:26:59.356416 21080 net.cpp:148] Top shape: 24 64 14 14 (301056)
I0403 16:26:59.356431 21080 net.cpp:156] Memory required for data: 1135267104
I0403 16:26:59.356447 21080 layer_factory.hpp:77] Creating layer inception_4d/pool
I0403 16:26:59.356464 21080 net.cpp:91] Creating Layer inception_4d/pool
I0403 16:26:59.356482 21080 net.cpp:425] inception_4d/pool <- inception_4c/output_inception_4c/output_0_split_3
I0403 16:26:59.356503 21080 net.cpp:399] inception_4d/pool -> inception_4d/pool
I0403 16:26:59.356567 21080 net.cpp:141] Setting up inception_4d/pool
I0403 16:26:59.356593 21080 net.cpp:148] Top shape: 24 512 14 14 (2408448)
I0403 16:26:59.356608 21080 net.cpp:156] Memory required for data: 1144900896
I0403 16:26:59.356622 21080 layer_factory.hpp:77] Creating layer inception_4d/pool_proj
I0403 16:26:59.356643 21080 net.cpp:91] Creating Layer inception_4d/pool_proj
I0403 16:26:59.356660 21080 net.cpp:425] inception_4d/pool_proj <- inception_4d/pool
I0403 16:26:59.356678 21080 net.cpp:399] inception_4d/pool_proj -> inception_4d/pool_proj
I0403 16:26:59.358414 21080 net.cpp:141] Setting up inception_4d/pool_proj
I0403 16:26:59.358443 21080 net.cpp:148] Top shape: 24 64 14 14 (301056)
I0403 16:26:59.358459 21080 net.cpp:156] Memory required for data: 1146105120
I0403 16:26:59.358479 21080 layer_factory.hpp:77] Creating layer inception_4d/relu_pool_proj
I0403 16:26:59.358499 21080 net.cpp:91] Creating Layer inception_4d/relu_pool_proj
I0403 16:26:59.358516 21080 net.cpp:425] inception_4d/relu_pool_proj <- inception_4d/pool_proj
I0403 16:26:59.358535 21080 net.cpp:386] inception_4d/relu_pool_proj -> inception_4d/pool_proj (in-place)
I0403 16:26:59.358717 21080 net.cpp:141] Setting up inception_4d/relu_pool_proj
I0403 16:26:59.358743 21080 net.cpp:148] Top shape: 24 64 14 14 (301056)
I0403 16:26:59.358759 21080 net.cpp:156] Memory required for data: 1147309344
I0403 16:26:59.358773 21080 layer_factory.hpp:77] Creating layer inception_4d/output
I0403 16:26:59.358791 21080 net.cpp:91] Creating Layer inception_4d/output
I0403 16:26:59.358806 21080 net.cpp:425] inception_4d/output <- inception_4d/1x1
I0403 16:26:59.358822 21080 net.cpp:425] inception_4d/output <- inception_4d/3x3
I0403 16:26:59.358839 21080 net.cpp:425] inception_4d/output <- inception_4d/5x5
I0403 16:26:59.358855 21080 net.cpp:425] inception_4d/output <- inception_4d/pool_proj
I0403 16:26:59.358875 21080 net.cpp:399] inception_4d/output -> inception_4d/output
I0403 16:26:59.358922 21080 net.cpp:141] Setting up inception_4d/output
I0403 16:26:59.358948 21080 net.cpp:148] Top shape: 24 528 14 14 (2483712)
I0403 16:26:59.358963 21080 net.cpp:156] Memory required for data: 1157244192
I0403 16:26:59.358999 21080 layer_factory.hpp:77] Creating layer inception_4d/output_inception_4d/output_0_split
I0403 16:26:59.359021 21080 net.cpp:91] Creating Layer inception_4d/output_inception_4d/output_0_split
I0403 16:26:59.359037 21080 net.cpp:425] inception_4d/output_inception_4d/output_0_split <- inception_4d/output
I0403 16:26:59.359053 21080 net.cpp:399] inception_4d/output_inception_4d/output_0_split -> inception_4d/output_inception_4d/output_0_split_0
I0403 16:26:59.359076 21080 net.cpp:399] inception_4d/output_inception_4d/output_0_split -> inception_4d/output_inception_4d/output_0_split_1
I0403 16:26:59.359097 21080 net.cpp:399] inception_4d/output_inception_4d/output_0_split -> inception_4d/output_inception_4d/output_0_split_2
I0403 16:26:59.359117 21080 net.cpp:399] inception_4d/output_inception_4d/output_0_split -> inception_4d/output_inception_4d/output_0_split_3
I0403 16:26:59.359136 21080 net.cpp:399] inception_4d/output_inception_4d/output_0_split -> inception_4d/output_inception_4d/output_0_split_4
I0403 16:26:59.359236 21080 net.cpp:141] Setting up inception_4d/output_inception_4d/output_0_split
I0403 16:26:59.359271 21080 net.cpp:148] Top shape: 24 528 14 14 (2483712)
I0403 16:26:59.359287 21080 net.cpp:148] Top shape: 24 528 14 14 (2483712)
I0403 16:26:59.359302 21080 net.cpp:148] Top shape: 24 528 14 14 (2483712)
I0403 16:26:59.359316 21080 net.cpp:148] Top shape: 24 528 14 14 (2483712)
I0403 16:26:59.359331 21080 net.cpp:148] Top shape: 24 528 14 14 (2483712)
I0403 16:26:59.359344 21080 net.cpp:156] Memory required for data: 1206918432
I0403 16:26:59.359359 21080 layer_factory.hpp:77] Creating layer loss2/ave_pool
I0403 16:26:59.359377 21080 net.cpp:91] Creating Layer loss2/ave_pool
I0403 16:26:59.359395 21080 net.cpp:425] loss2/ave_pool <- inception_4d/output_inception_4d/output_0_split_0
I0403 16:26:59.359411 21080 net.cpp:399] loss2/ave_pool -> loss2/ave_pool
I0403 16:26:59.359726 21080 net.cpp:141] Setting up loss2/ave_pool
I0403 16:26:59.359753 21080 net.cpp:148] Top shape: 24 528 4 4 (202752)
I0403 16:26:59.359767 21080 net.cpp:156] Memory required for data: 1207729440
I0403 16:26:59.359781 21080 layer_factory.hpp:77] Creating layer loss2/conv
I0403 16:26:59.359804 21080 net.cpp:91] Creating Layer loss2/conv
I0403 16:26:59.359822 21080 net.cpp:425] loss2/conv <- loss2/ave_pool
I0403 16:26:59.359841 21080 net.cpp:399] loss2/conv -> loss2/conv
I0403 16:26:59.361696 21080 net.cpp:141] Setting up loss2/conv
I0403 16:26:59.361724 21080 net.cpp:148] Top shape: 24 128 4 4 (49152)
I0403 16:26:59.361740 21080 net.cpp:156] Memory required for data: 1207926048
I0403 16:26:59.361759 21080 layer_factory.hpp:77] Creating layer loss2/relu_conv
I0403 16:26:59.361778 21080 net.cpp:91] Creating Layer loss2/relu_conv
I0403 16:26:59.361793 21080 net.cpp:425] loss2/relu_conv <- loss2/conv
I0403 16:26:59.361811 21080 net.cpp:386] loss2/relu_conv -> loss2/conv (in-place)
I0403 16:26:59.362098 21080 net.cpp:141] Setting up loss2/relu_conv
I0403 16:26:59.362138 21080 net.cpp:148] Top shape: 24 128 4 4 (49152)
I0403 16:26:59.362151 21080 net.cpp:156] Memory required for data: 1208122656
I0403 16:26:59.362165 21080 layer_factory.hpp:77] Creating layer loss2/fc
I0403 16:26:59.362185 21080 net.cpp:91] Creating Layer loss2/fc
I0403 16:26:59.362201 21080 net.cpp:425] loss2/fc <- loss2/conv
I0403 16:26:59.362222 21080 net.cpp:399] loss2/fc -> loss2/fc
I0403 16:26:59.379415 21080 net.cpp:141] Setting up loss2/fc
I0403 16:26:59.379452 21080 net.cpp:148] Top shape: 24 1024 (24576)
I0403 16:26:59.379467 21080 net.cpp:156] Memory required for data: 1208220960
I0403 16:26:59.379485 21080 layer_factory.hpp:77] Creating layer loss2/relu_fc
I0403 16:26:59.379503 21080 net.cpp:91] Creating Layer loss2/relu_fc
I0403 16:26:59.379520 21080 net.cpp:425] loss2/relu_fc <- loss2/fc
I0403 16:26:59.379536 21080 net.cpp:386] loss2/relu_fc -> loss2/fc (in-place)
I0403 16:26:59.379842 21080 net.cpp:141] Setting up loss2/relu_fc
I0403 16:26:59.379869 21080 net.cpp:148] Top shape: 24 1024 (24576)
I0403 16:26:59.379884 21080 net.cpp:156] Memory required for data: 1208319264
I0403 16:26:59.379899 21080 layer_factory.hpp:77] Creating layer loss2/drop_fc
I0403 16:26:59.379915 21080 net.cpp:91] Creating Layer loss2/drop_fc
I0403 16:26:59.379931 21080 net.cpp:425] loss2/drop_fc <- loss2/fc
I0403 16:26:59.379947 21080 net.cpp:386] loss2/drop_fc -> loss2/fc (in-place)
I0403 16:26:59.380000 21080 net.cpp:141] Setting up loss2/drop_fc
I0403 16:26:59.380023 21080 net.cpp:148] Top shape: 24 1024 (24576)
I0403 16:26:59.380036 21080 net.cpp:156] Memory required for data: 1208417568
I0403 16:26:59.380050 21080 layer_factory.hpp:77] Creating layer loss2/classifier_plantvillage
I0403 16:26:59.380069 21080 net.cpp:91] Creating Layer loss2/classifier_plantvillage
I0403 16:26:59.380086 21080 net.cpp:425] loss2/classifier_plantvillage <- loss2/fc
I0403 16:26:59.380103 21080 net.cpp:399] loss2/classifier_plantvillage -> loss2/classifier_plantvillage
I0403 16:26:59.380492 21080 net.cpp:141] Setting up loss2/classifier_plantvillage
I0403 16:26:59.380517 21080 net.cpp:148] Top shape: 24 38 (912)
I0403 16:26:59.380532 21080 net.cpp:156] Memory required for data: 1208421216
I0403 16:26:59.380564 21080 layer_factory.hpp:77] Creating layer loss2/classifier_plantvillage_loss2/classifier_plantvillage_0_split
I0403 16:26:59.380583 21080 net.cpp:91] Creating Layer loss2/classifier_plantvillage_loss2/classifier_plantvillage_0_split
I0403 16:26:59.380599 21080 net.cpp:425] loss2/classifier_plantvillage_loss2/classifier_plantvillage_0_split <- loss2/classifier_plantvillage
I0403 16:26:59.380616 21080 net.cpp:399] loss2/classifier_plantvillage_loss2/classifier_plantvillage_0_split -> loss2/classifier_plantvillage_loss2/classifier_plantvillage_0_split_0
I0403 16:26:59.380636 21080 net.cpp:399] loss2/classifier_plantvillage_loss2/classifier_plantvillage_0_split -> loss2/classifier_plantvillage_loss2/classifier_plantvillage_0_split_1
I0403 16:26:59.380656 21080 net.cpp:399] loss2/classifier_plantvillage_loss2/classifier_plantvillage_0_split -> loss2/classifier_plantvillage_loss2/classifier_plantvillage_0_split_2
I0403 16:26:59.380731 21080 net.cpp:141] Setting up loss2/classifier_plantvillage_loss2/classifier_plantvillage_0_split
I0403 16:26:59.380754 21080 net.cpp:148] Top shape: 24 38 (912)
I0403 16:26:59.380769 21080 net.cpp:148] Top shape: 24 38 (912)
I0403 16:26:59.380784 21080 net.cpp:148] Top shape: 24 38 (912)
I0403 16:26:59.380796 21080 net.cpp:156] Memory required for data: 1208432160
I0403 16:26:59.380810 21080 layer_factory.hpp:77] Creating layer inception_4e/1x1
I0403 16:26:59.380831 21080 net.cpp:91] Creating Layer inception_4e/1x1
I0403 16:26:59.380847 21080 net.cpp:425] inception_4e/1x1 <- inception_4d/output_inception_4d/output_0_split_1
I0403 16:26:59.380866 21080 net.cpp:399] inception_4e/1x1 -> inception_4e/1x1
I0403 16:26:59.382650 21080 net.cpp:141] Setting up inception_4e/1x1
I0403 16:26:59.382678 21080 net.cpp:148] Top shape: 24 256 14 14 (1204224)
I0403 16:26:59.382694 21080 net.cpp:156] Memory required for data: 1213249056
I0403 16:26:59.382712 21080 layer_factory.hpp:77] Creating layer inception_4e/relu_1x1
I0403 16:26:59.382732 21080 net.cpp:91] Creating Layer inception_4e/relu_1x1
I0403 16:26:59.382750 21080 net.cpp:425] inception_4e/relu_1x1 <- inception_4e/1x1
I0403 16:26:59.382767 21080 net.cpp:386] inception_4e/relu_1x1 -> inception_4e/1x1 (in-place)
I0403 16:26:59.383064 21080 net.cpp:141] Setting up inception_4e/relu_1x1
I0403 16:26:59.383091 21080 net.cpp:148] Top shape: 24 256 14 14 (1204224)
I0403 16:26:59.383106 21080 net.cpp:156] Memory required for data: 1218065952
I0403 16:26:59.383122 21080 layer_factory.hpp:77] Creating layer inception_4e/3x3_reduce
I0403 16:26:59.383144 21080 net.cpp:91] Creating Layer inception_4e/3x3_reduce
I0403 16:26:59.383162 21080 net.cpp:425] inception_4e/3x3_reduce <- inception_4d/output_inception_4d/output_0_split_2
I0403 16:26:59.383183 21080 net.cpp:399] inception_4e/3x3_reduce -> inception_4e/3x3_reduce
I0403 16:26:59.385258 21080 net.cpp:141] Setting up inception_4e/3x3_reduce
I0403 16:26:59.385288 21080 net.cpp:148] Top shape: 24 160 14 14 (752640)
I0403 16:26:59.385303 21080 net.cpp:156] Memory required for data: 1221076512
I0403 16:26:59.385321 21080 layer_factory.hpp:77] Creating layer inception_4e/relu_3x3_reduce
I0403 16:26:59.385339 21080 net.cpp:91] Creating Layer inception_4e/relu_3x3_reduce
I0403 16:26:59.385354 21080 net.cpp:425] inception_4e/relu_3x3_reduce <- inception_4e/3x3_reduce
I0403 16:26:59.385371 21080 net.cpp:386] inception_4e/relu_3x3_reduce -> inception_4e/3x3_reduce (in-place)
I0403 16:26:59.385555 21080 net.cpp:141] Setting up inception_4e/relu_3x3_reduce
I0403 16:26:59.385579 21080 net.cpp:148] Top shape: 24 160 14 14 (752640)
I0403 16:26:59.385593 21080 net.cpp:156] Memory required for data: 1224087072
I0403 16:26:59.385607 21080 layer_factory.hpp:77] Creating layer inception_4e/3x3
I0403 16:26:59.385628 21080 net.cpp:91] Creating Layer inception_4e/3x3
I0403 16:26:59.385645 21080 net.cpp:425] inception_4e/3x3 <- inception_4e/3x3_reduce
I0403 16:26:59.385664 21080 net.cpp:399] inception_4e/3x3 -> inception_4e/3x3
I0403 16:26:59.390537 21080 net.cpp:141] Setting up inception_4e/3x3
I0403 16:26:59.390578 21080 net.cpp:148] Top shape: 24 320 14 14 (1505280)
I0403 16:26:59.390594 21080 net.cpp:156] Memory required for data: 1230108192
I0403 16:26:59.390612 21080 layer_factory.hpp:77] Creating layer inception_4e/relu_3x3
I0403 16:26:59.390633 21080 net.cpp:91] Creating Layer inception_4e/relu_3x3
I0403 16:26:59.390651 21080 net.cpp:425] inception_4e/relu_3x3 <- inception_4e/3x3
I0403 16:26:59.390668 21080 net.cpp:386] inception_4e/relu_3x3 -> inception_4e/3x3 (in-place)
I0403 16:26:59.390966 21080 net.cpp:141] Setting up inception_4e/relu_3x3
I0403 16:26:59.390995 21080 net.cpp:148] Top shape: 24 320 14 14 (1505280)
I0403 16:26:59.391016 21080 net.cpp:156] Memory required for data: 1236129312
I0403 16:26:59.391029 21080 layer_factory.hpp:77] Creating layer inception_4e/5x5_reduce
I0403 16:26:59.391048 21080 net.cpp:91] Creating Layer inception_4e/5x5_reduce
I0403 16:26:59.391064 21080 net.cpp:425] inception_4e/5x5_reduce <- inception_4d/output_inception_4d/output_0_split_3
I0403 16:26:59.391086 21080 net.cpp:399] inception_4e/5x5_reduce -> inception_4e/5x5_reduce
I0403 16:26:59.392181 21080 net.cpp:141] Setting up inception_4e/5x5_reduce
I0403 16:26:59.392207 21080 net.cpp:148] Top shape: 24 32 14 14 (150528)
I0403 16:26:59.392223 21080 net.cpp:156] Memory required for data: 1236731424
I0403 16:26:59.392241 21080 layer_factory.hpp:77] Creating layer inception_4e/relu_5x5_reduce
I0403 16:26:59.392258 21080 net.cpp:91] Creating Layer inception_4e/relu_5x5_reduce
I0403 16:26:59.392277 21080 net.cpp:425] inception_4e/relu_5x5_reduce <- inception_4e/5x5_reduce
I0403 16:26:59.392294 21080 net.cpp:386] inception_4e/relu_5x5_reduce -> inception_4e/5x5_reduce (in-place)
I0403 16:26:59.392598 21080 net.cpp:141] Setting up inception_4e/relu_5x5_reduce
I0403 16:26:59.392623 21080 net.cpp:148] Top shape: 24 32 14 14 (150528)
I0403 16:26:59.392638 21080 net.cpp:156] Memory required for data: 1237333536
I0403 16:26:59.392652 21080 layer_factory.hpp:77] Creating layer inception_4e/5x5
I0403 16:26:59.392689 21080 net.cpp:91] Creating Layer inception_4e/5x5
I0403 16:26:59.392709 21080 net.cpp:425] inception_4e/5x5 <- inception_4e/5x5_reduce
I0403 16:26:59.392726 21080 net.cpp:399] inception_4e/5x5 -> inception_4e/5x5
I0403 16:26:59.394538 21080 net.cpp:141] Setting up inception_4e/5x5
I0403 16:26:59.394568 21080 net.cpp:148] Top shape: 24 128 14 14 (602112)
I0403 16:26:59.394587 21080 net.cpp:156] Memory required for data: 1239741984
I0403 16:26:59.394605 21080 layer_factory.hpp:77] Creating layer inception_4e/relu_5x5
I0403 16:26:59.394623 21080 net.cpp:91] Creating Layer inception_4e/relu_5x5
I0403 16:26:59.394640 21080 net.cpp:425] inception_4e/relu_5x5 <- inception_4e/5x5
I0403 16:26:59.394659 21080 net.cpp:386] inception_4e/relu_5x5 -> inception_4e/5x5 (in-place)
I0403 16:26:59.394853 21080 net.cpp:141] Setting up inception_4e/relu_5x5
I0403 16:26:59.394878 21080 net.cpp:148] Top shape: 24 128 14 14 (602112)
I0403 16:26:59.394891 21080 net.cpp:156] Memory required for data: 1242150432
I0403 16:26:59.394906 21080 layer_factory.hpp:77] Creating layer inception_4e/pool
I0403 16:26:59.394923 21080 net.cpp:91] Creating Layer inception_4e/pool
I0403 16:26:59.394938 21080 net.cpp:425] inception_4e/pool <- inception_4d/output_inception_4d/output_0_split_4
I0403 16:26:59.394958 21080 net.cpp:399] inception_4e/pool -> inception_4e/pool
I0403 16:26:59.395030 21080 net.cpp:141] Setting up inception_4e/pool
I0403 16:26:59.395053 21080 net.cpp:148] Top shape: 24 528 14 14 (2483712)
I0403 16:26:59.395067 21080 net.cpp:156] Memory required for data: 1252085280
I0403 16:26:59.395081 21080 layer_factory.hpp:77] Creating layer inception_4e/pool_proj
I0403 16:26:59.395104 21080 net.cpp:91] Creating Layer inception_4e/pool_proj
I0403 16:26:59.395123 21080 net.cpp:425] inception_4e/pool_proj <- inception_4e/pool
I0403 16:26:59.395139 21080 net.cpp:399] inception_4e/pool_proj -> inception_4e/pool_proj
I0403 16:26:59.396615 21080 net.cpp:141] Setting up inception_4e/pool_proj
I0403 16:26:59.396641 21080 net.cpp:148] Top shape: 24 128 14 14 (602112)
I0403 16:26:59.396672 21080 net.cpp:156] Memory required for data: 1254493728
I0403 16:26:59.396694 21080 layer_factory.hpp:77] Creating layer inception_4e/relu_pool_proj
I0403 16:26:59.396713 21080 net.cpp:91] Creating Layer inception_4e/relu_pool_proj
I0403 16:26:59.396729 21080 net.cpp:425] inception_4e/relu_pool_proj <- inception_4e/pool_proj
I0403 16:26:59.396745 21080 net.cpp:386] inception_4e/relu_pool_proj -> inception_4e/pool_proj (in-place)
I0403 16:26:59.397044 21080 net.cpp:141] Setting up inception_4e/relu_pool_proj
I0403 16:26:59.397073 21080 net.cpp:148] Top shape: 24 128 14 14 (602112)
I0403 16:26:59.397088 21080 net.cpp:156] Memory required for data: 1256902176
I0403 16:26:59.397102 21080 layer_factory.hpp:77] Creating layer inception_4e/output
I0403 16:26:59.397119 21080 net.cpp:91] Creating Layer inception_4e/output
I0403 16:26:59.397135 21080 net.cpp:425] inception_4e/output <- inception_4e/1x1
I0403 16:26:59.397150 21080 net.cpp:425] inception_4e/output <- inception_4e/3x3
I0403 16:26:59.397164 21080 net.cpp:425] inception_4e/output <- inception_4e/5x5
I0403 16:26:59.397179 21080 net.cpp:425] inception_4e/output <- inception_4e/pool_proj
I0403 16:26:59.397195 21080 net.cpp:399] inception_4e/output -> inception_4e/output
I0403 16:26:59.397244 21080 net.cpp:141] Setting up inception_4e/output
I0403 16:26:59.397267 21080 net.cpp:148] Top shape: 24 832 14 14 (3913728)
I0403 16:26:59.397280 21080 net.cpp:156] Memory required for data: 1272557088
I0403 16:26:59.397294 21080 layer_factory.hpp:77] Creating layer pool4/3x3_s2
I0403 16:26:59.397313 21080 net.cpp:91] Creating Layer pool4/3x3_s2
I0403 16:26:59.397330 21080 net.cpp:425] pool4/3x3_s2 <- inception_4e/output
I0403 16:26:59.397346 21080 net.cpp:399] pool4/3x3_s2 -> pool4/3x3_s2
I0403 16:26:59.397413 21080 net.cpp:141] Setting up pool4/3x3_s2
I0403 16:26:59.397436 21080 net.cpp:148] Top shape: 24 832 7 7 (978432)
I0403 16:26:59.397450 21080 net.cpp:156] Memory required for data: 1276470816
I0403 16:26:59.397464 21080 layer_factory.hpp:77] Creating layer pool4/3x3_s2_pool4/3x3_s2_0_split
I0403 16:26:59.397480 21080 net.cpp:91] Creating Layer pool4/3x3_s2_pool4/3x3_s2_0_split
I0403 16:26:59.397496 21080 net.cpp:425] pool4/3x3_s2_pool4/3x3_s2_0_split <- pool4/3x3_s2
I0403 16:26:59.397514 21080 net.cpp:399] pool4/3x3_s2_pool4/3x3_s2_0_split -> pool4/3x3_s2_pool4/3x3_s2_0_split_0
I0403 16:26:59.397534 21080 net.cpp:399] pool4/3x3_s2_pool4/3x3_s2_0_split -> pool4/3x3_s2_pool4/3x3_s2_0_split_1
I0403 16:26:59.397553 21080 net.cpp:399] pool4/3x3_s2_pool4/3x3_s2_0_split -> pool4/3x3_s2_pool4/3x3_s2_0_split_2
I0403 16:26:59.397573 21080 net.cpp:399] pool4/3x3_s2_pool4/3x3_s2_0_split -> pool4/3x3_s2_pool4/3x3_s2_0_split_3
I0403 16:26:59.397660 21080 net.cpp:141] Setting up pool4/3x3_s2_pool4/3x3_s2_0_split
I0403 16:26:59.397685 21080 net.cpp:148] Top shape: 24 832 7 7 (978432)
I0403 16:26:59.397701 21080 net.cpp:148] Top shape: 24 832 7 7 (978432)
I0403 16:26:59.397714 21080 net.cpp:148] Top shape: 24 832 7 7 (978432)
I0403 16:26:59.397728 21080 net.cpp:148] Top shape: 24 832 7 7 (978432)
I0403 16:26:59.397742 21080 net.cpp:156] Memory required for data: 1292125728
I0403 16:26:59.397756 21080 layer_factory.hpp:77] Creating layer inception_5a/1x1
I0403 16:26:59.397778 21080 net.cpp:91] Creating Layer inception_5a/1x1
I0403 16:26:59.397794 21080 net.cpp:425] inception_5a/1x1 <- pool4/3x3_s2_pool4/3x3_s2_0_split_0
I0403 16:26:59.397812 21080 net.cpp:399] inception_5a/1x1 -> inception_5a/1x1
I0403 16:26:59.400632 21080 net.cpp:141] Setting up inception_5a/1x1
I0403 16:26:59.400660 21080 net.cpp:148] Top shape: 24 256 7 7 (301056)
I0403 16:26:59.400676 21080 net.cpp:156] Memory required for data: 1293329952
I0403 16:26:59.400693 21080 layer_factory.hpp:77] Creating layer inception_5a/relu_1x1
I0403 16:26:59.400717 21080 net.cpp:91] Creating Layer inception_5a/relu_1x1
I0403 16:26:59.400738 21080 net.cpp:425] inception_5a/relu_1x1 <- inception_5a/1x1
I0403 16:26:59.400761 21080 net.cpp:386] inception_5a/relu_1x1 -> inception_5a/1x1 (in-place)
I0403 16:26:59.401092 21080 net.cpp:141] Setting up inception_5a/relu_1x1
I0403 16:26:59.401118 21080 net.cpp:148] Top shape: 24 256 7 7 (301056)
I0403 16:26:59.401134 21080 net.cpp:156] Memory required for data: 1294534176
I0403 16:26:59.401149 21080 layer_factory.hpp:77] Creating layer inception_5a/3x3_reduce
I0403 16:26:59.401170 21080 net.cpp:91] Creating Layer inception_5a/3x3_reduce
I0403 16:26:59.401188 21080 net.cpp:425] inception_5a/3x3_reduce <- pool4/3x3_s2_pool4/3x3_s2_0_split_1
I0403 16:26:59.401209 21080 net.cpp:399] inception_5a/3x3_reduce -> inception_5a/3x3_reduce
I0403 16:26:59.403669 21080 net.cpp:141] Setting up inception_5a/3x3_reduce
I0403 16:26:59.403698 21080 net.cpp:148] Top shape: 24 160 7 7 (188160)
I0403 16:26:59.403714 21080 net.cpp:156] Memory required for data: 1295286816
I0403 16:26:59.403731 21080 layer_factory.hpp:77] Creating layer inception_5a/relu_3x3_reduce
I0403 16:26:59.403753 21080 net.cpp:91] Creating Layer inception_5a/relu_3x3_reduce
I0403 16:26:59.403770 21080 net.cpp:425] inception_5a/relu_3x3_reduce <- inception_5a/3x3_reduce
I0403 16:26:59.403789 21080 net.cpp:386] inception_5a/relu_3x3_reduce -> inception_5a/3x3_reduce (in-place)
I0403 16:26:59.403980 21080 net.cpp:141] Setting up inception_5a/relu_3x3_reduce
I0403 16:26:59.404012 21080 net.cpp:148] Top shape: 24 160 7 7 (188160)
I0403 16:26:59.404027 21080 net.cpp:156] Memory required for data: 1296039456
I0403 16:26:59.404042 21080 layer_factory.hpp:77] Creating layer inception_5a/3x3
I0403 16:26:59.404064 21080 net.cpp:91] Creating Layer inception_5a/3x3
I0403 16:26:59.404083 21080 net.cpp:425] inception_5a/3x3 <- inception_5a/3x3_reduce
I0403 16:26:59.404104 21080 net.cpp:399] inception_5a/3x3 -> inception_5a/3x3
I0403 16:26:59.409160 21080 net.cpp:141] Setting up inception_5a/3x3
I0403 16:26:59.409193 21080 net.cpp:148] Top shape: 24 320 7 7 (376320)
I0403 16:26:59.409209 21080 net.cpp:156] Memory required for data: 1297544736
I0403 16:26:59.409229 21080 layer_factory.hpp:77] Creating layer inception_5a/relu_3x3
I0403 16:26:59.409248 21080 net.cpp:91] Creating Layer inception_5a/relu_3x3
I0403 16:26:59.409265 21080 net.cpp:425] inception_5a/relu_3x3 <- inception_5a/3x3
I0403 16:26:59.409283 21080 net.cpp:386] inception_5a/relu_3x3 -> inception_5a/3x3 (in-place)
I0403 16:26:59.409579 21080 net.cpp:141] Setting up inception_5a/relu_3x3
I0403 16:26:59.409608 21080 net.cpp:148] Top shape: 24 320 7 7 (376320)
I0403 16:26:59.409623 21080 net.cpp:156] Memory required for data: 1299050016
I0403 16:26:59.409638 21080 layer_factory.hpp:77] Creating layer inception_5a/5x5_reduce
I0403 16:26:59.409662 21080 net.cpp:91] Creating Layer inception_5a/5x5_reduce
I0403 16:26:59.409679 21080 net.cpp:425] inception_5a/5x5_reduce <- pool4/3x3_s2_pool4/3x3_s2_0_split_2
I0403 16:26:59.409698 21080 net.cpp:399] inception_5a/5x5_reduce -> inception_5a/5x5_reduce
I0403 16:26:59.410886 21080 net.cpp:141] Setting up inception_5a/5x5_reduce
I0403 16:26:59.410917 21080 net.cpp:148] Top shape: 24 32 7 7 (37632)
I0403 16:26:59.410933 21080 net.cpp:156] Memory required for data: 1299200544
I0403 16:26:59.410953 21080 layer_factory.hpp:77] Creating layer inception_5a/relu_5x5_reduce
I0403 16:26:59.410971 21080 net.cpp:91] Creating Layer inception_5a/relu_5x5_reduce
I0403 16:26:59.410992 21080 net.cpp:425] inception_5a/relu_5x5_reduce <- inception_5a/5x5_reduce
I0403 16:26:59.411015 21080 net.cpp:386] inception_5a/relu_5x5_reduce -> inception_5a/5x5_reduce (in-place)
I0403 16:26:59.411327 21080 net.cpp:141] Setting up inception_5a/relu_5x5_reduce
I0403 16:26:59.411355 21080 net.cpp:148] Top shape: 24 32 7 7 (37632)
I0403 16:26:59.411370 21080 net.cpp:156] Memory required for data: 1299351072
I0403 16:26:59.411386 21080 layer_factory.hpp:77] Creating layer inception_5a/5x5
I0403 16:26:59.411409 21080 net.cpp:91] Creating Layer inception_5a/5x5
I0403 16:26:59.411427 21080 net.cpp:425] inception_5a/5x5 <- inception_5a/5x5_reduce
I0403 16:26:59.411448 21080 net.cpp:399] inception_5a/5x5 -> inception_5a/5x5
I0403 16:26:59.413180 21080 net.cpp:141] Setting up inception_5a/5x5
I0403 16:26:59.413224 21080 net.cpp:148] Top shape: 24 128 7 7 (150528)
I0403 16:26:59.413244 21080 net.cpp:156] Memory required for data: 1299953184
I0403 16:26:59.413262 21080 layer_factory.hpp:77] Creating layer inception_5a/relu_5x5
I0403 16:26:59.413280 21080 net.cpp:91] Creating Layer inception_5a/relu_5x5
I0403 16:26:59.413297 21080 net.cpp:425] inception_5a/relu_5x5 <- inception_5a/5x5
I0403 16:26:59.413316 21080 net.cpp:386] inception_5a/relu_5x5 -> inception_5a/5x5 (in-place)
I0403 16:26:59.413508 21080 net.cpp:141] Setting up inception_5a/relu_5x5
I0403 16:26:59.413534 21080 net.cpp:148] Top shape: 24 128 7 7 (150528)
I0403 16:26:59.413548 21080 net.cpp:156] Memory required for data: 1300555296
I0403 16:26:59.413563 21080 layer_factory.hpp:77] Creating layer inception_5a/pool
I0403 16:26:59.413584 21080 net.cpp:91] Creating Layer inception_5a/pool
I0403 16:26:59.413600 21080 net.cpp:425] inception_5a/pool <- pool4/3x3_s2_pool4/3x3_s2_0_split_3
I0403 16:26:59.413620 21080 net.cpp:399] inception_5a/pool -> inception_5a/pool
I0403 16:26:59.413691 21080 net.cpp:141] Setting up inception_5a/pool
I0403 16:26:59.413717 21080 net.cpp:148] Top shape: 24 832 7 7 (978432)
I0403 16:26:59.413730 21080 net.cpp:156] Memory required for data: 1304469024
I0403 16:26:59.413744 21080 layer_factory.hpp:77] Creating layer inception_5a/pool_proj
I0403 16:26:59.413768 21080 net.cpp:91] Creating Layer inception_5a/pool_proj
I0403 16:26:59.413785 21080 net.cpp:425] inception_5a/pool_proj <- inception_5a/pool
I0403 16:26:59.413803 21080 net.cpp:399] inception_5a/pool_proj -> inception_5a/pool_proj
I0403 16:26:59.416162 21080 net.cpp:141] Setting up inception_5a/pool_proj
I0403 16:26:59.416194 21080 net.cpp:148] Top shape: 24 128 7 7 (150528)
I0403 16:26:59.416211 21080 net.cpp:156] Memory required for data: 1305071136
I0403 16:26:59.416230 21080 layer_factory.hpp:77] Creating layer inception_5a/relu_pool_proj
I0403 16:26:59.416249 21080 net.cpp:91] Creating Layer inception_5a/relu_pool_proj
I0403 16:26:59.416265 21080 net.cpp:425] inception_5a/relu_pool_proj <- inception_5a/pool_proj
I0403 16:26:59.416282 21080 net.cpp:386] inception_5a/relu_pool_proj -> inception_5a/pool_proj (in-place)
I0403 16:26:59.416599 21080 net.cpp:141] Setting up inception_5a/relu_pool_proj
I0403 16:26:59.416627 21080 net.cpp:148] Top shape: 24 128 7 7 (150528)
I0403 16:26:59.416643 21080 net.cpp:156] Memory required for data: 1305673248
I0403 16:26:59.416658 21080 layer_factory.hpp:77] Creating layer inception_5a/output
I0403 16:26:59.416676 21080 net.cpp:91] Creating Layer inception_5a/output
I0403 16:26:59.416692 21080 net.cpp:425] inception_5a/output <- inception_5a/1x1
I0403 16:26:59.416707 21080 net.cpp:425] inception_5a/output <- inception_5a/3x3
I0403 16:26:59.416723 21080 net.cpp:425] inception_5a/output <- inception_5a/5x5
I0403 16:26:59.416738 21080 net.cpp:425] inception_5a/output <- inception_5a/pool_proj
I0403 16:26:59.416754 21080 net.cpp:399] inception_5a/output -> inception_5a/output
I0403 16:26:59.416805 21080 net.cpp:141] Setting up inception_5a/output
I0403 16:26:59.416829 21080 net.cpp:148] Top shape: 24 832 7 7 (978432)
I0403 16:26:59.416843 21080 net.cpp:156] Memory required for data: 1309586976
I0403 16:26:59.416857 21080 layer_factory.hpp:77] Creating layer inception_5a/output_inception_5a/output_0_split
I0403 16:26:59.416877 21080 net.cpp:91] Creating Layer inception_5a/output_inception_5a/output_0_split
I0403 16:26:59.416893 21080 net.cpp:425] inception_5a/output_inception_5a/output_0_split <- inception_5a/output
I0403 16:26:59.416910 21080 net.cpp:399] inception_5a/output_inception_5a/output_0_split -> inception_5a/output_inception_5a/output_0_split_0
I0403 16:26:59.416930 21080 net.cpp:399] inception_5a/output_inception_5a/output_0_split -> inception_5a/output_inception_5a/output_0_split_1
I0403 16:26:59.416950 21080 net.cpp:399] inception_5a/output_inception_5a/output_0_split -> inception_5a/output_inception_5a/output_0_split_2
I0403 16:26:59.416971 21080 net.cpp:399] inception_5a/output_inception_5a/output_0_split -> inception_5a/output_inception_5a/output_0_split_3
I0403 16:26:59.417088 21080 net.cpp:141] Setting up inception_5a/output_inception_5a/output_0_split
I0403 16:26:59.417111 21080 net.cpp:148] Top shape: 24 832 7 7 (978432)
I0403 16:26:59.417127 21080 net.cpp:148] Top shape: 24 832 7 7 (978432)
I0403 16:26:59.417143 21080 net.cpp:148] Top shape: 24 832 7 7 (978432)
I0403 16:26:59.417158 21080 net.cpp:148] Top shape: 24 832 7 7 (978432)
I0403 16:26:59.417171 21080 net.cpp:156] Memory required for data: 1325241888
I0403 16:26:59.417186 21080 layer_factory.hpp:77] Creating layer inception_5b/1x1
I0403 16:26:59.417207 21080 net.cpp:91] Creating Layer inception_5b/1x1
I0403 16:26:59.417225 21080 net.cpp:425] inception_5b/1x1 <- inception_5a/output_inception_5a/output_0_split_0
I0403 16:26:59.417248 21080 net.cpp:399] inception_5b/1x1 -> inception_5b/1x1
I0403 16:26:59.421046 21080 net.cpp:141] Setting up inception_5b/1x1
I0403 16:26:59.421077 21080 net.cpp:148] Top shape: 24 384 7 7 (451584)
I0403 16:26:59.421092 21080 net.cpp:156] Memory required for data: 1327048224
I0403 16:26:59.421111 21080 layer_factory.hpp:77] Creating layer inception_5b/relu_1x1
I0403 16:26:59.421133 21080 net.cpp:91] Creating Layer inception_5b/relu_1x1
I0403 16:26:59.421150 21080 net.cpp:425] inception_5b/relu_1x1 <- inception_5b/1x1
I0403 16:26:59.421169 21080 net.cpp:386] inception_5b/relu_1x1 -> inception_5b/1x1 (in-place)
I0403 16:26:59.421480 21080 net.cpp:141] Setting up inception_5b/relu_1x1
I0403 16:26:59.421509 21080 net.cpp:148] Top shape: 24 384 7 7 (451584)
I0403 16:26:59.421524 21080 net.cpp:156] Memory required for data: 1328854560
I0403 16:26:59.421540 21080 layer_factory.hpp:77] Creating layer inception_5b/3x3_reduce
I0403 16:26:59.421564 21080 net.cpp:91] Creating Layer inception_5b/3x3_reduce
I0403 16:26:59.421582 21080 net.cpp:425] inception_5b/3x3_reduce <- inception_5a/output_inception_5a/output_0_split_1
I0403 16:26:59.421602 21080 net.cpp:399] inception_5b/3x3_reduce -> inception_5b/3x3_reduce
I0403 16:26:59.424293 21080 net.cpp:141] Setting up inception_5b/3x3_reduce
I0403 16:26:59.424326 21080 net.cpp:148] Top shape: 24 192 7 7 (225792)
I0403 16:26:59.424343 21080 net.cpp:156] Memory required for data: 1329757728
I0403 16:26:59.424362 21080 layer_factory.hpp:77] Creating layer inception_5b/relu_3x3_reduce
I0403 16:26:59.424381 21080 net.cpp:91] Creating Layer inception_5b/relu_3x3_reduce
I0403 16:26:59.424399 21080 net.cpp:425] inception_5b/relu_3x3_reduce <- inception_5b/3x3_reduce
I0403 16:26:59.424417 21080 net.cpp:386] inception_5b/relu_3x3_reduce -> inception_5b/3x3_reduce (in-place)
I0403 16:26:59.424612 21080 net.cpp:141] Setting up inception_5b/relu_3x3_reduce
I0403 16:26:59.424640 21080 net.cpp:148] Top shape: 24 192 7 7 (225792)
I0403 16:26:59.424657 21080 net.cpp:156] Memory required for data: 1330660896
I0403 16:26:59.424671 21080 layer_factory.hpp:77] Creating layer inception_5b/3x3
I0403 16:26:59.424695 21080 net.cpp:91] Creating Layer inception_5b/3x3
I0403 16:26:59.424713 21080 net.cpp:425] inception_5b/3x3 <- inception_5b/3x3_reduce
I0403 16:26:59.424737 21080 net.cpp:399] inception_5b/3x3 -> inception_5b/3x3
I0403 16:26:59.431483 21080 net.cpp:141] Setting up inception_5b/3x3
I0403 16:26:59.431516 21080 net.cpp:148] Top shape: 24 384 7 7 (451584)
I0403 16:26:59.431535 21080 net.cpp:156] Memory required for data: 1332467232
I0403 16:26:59.431552 21080 layer_factory.hpp:77] Creating layer inception_5b/relu_3x3
I0403 16:26:59.431572 21080 net.cpp:91] Creating Layer inception_5b/relu_3x3
I0403 16:26:59.431588 21080 net.cpp:425] inception_5b/relu_3x3 <- inception_5b/3x3
I0403 16:26:59.431607 21080 net.cpp:386] inception_5b/relu_3x3 -> inception_5b/3x3 (in-place)
I0403 16:26:59.431910 21080 net.cpp:141] Setting up inception_5b/relu_3x3
I0403 16:26:59.431939 21080 net.cpp:148] Top shape: 24 384 7 7 (451584)
I0403 16:26:59.431956 21080 net.cpp:156] Memory required for data: 1334273568
I0403 16:26:59.431972 21080 layer_factory.hpp:77] Creating layer inception_5b/5x5_reduce
I0403 16:26:59.432016 21080 net.cpp:91] Creating Layer inception_5b/5x5_reduce
I0403 16:26:59.432037 21080 net.cpp:425] inception_5b/5x5_reduce <- inception_5a/output_inception_5a/output_0_split_2
I0403 16:26:59.432057 21080 net.cpp:399] inception_5b/5x5_reduce -> inception_5b/5x5_reduce
I0403 16:26:59.433348 21080 net.cpp:141] Setting up inception_5b/5x5_reduce
I0403 16:26:59.433379 21080 net.cpp:148] Top shape: 24 48 7 7 (56448)
I0403 16:26:59.433395 21080 net.cpp:156] Memory required for data: 1334499360
I0403 16:26:59.433415 21080 layer_factory.hpp:77] Creating layer inception_5b/relu_5x5_reduce
I0403 16:26:59.433435 21080 net.cpp:91] Creating Layer inception_5b/relu_5x5_reduce
I0403 16:26:59.433454 21080 net.cpp:425] inception_5b/relu_5x5_reduce <- inception_5b/5x5_reduce
I0403 16:26:59.433472 21080 net.cpp:386] inception_5b/relu_5x5_reduce -> inception_5b/5x5_reduce (in-place)
I0403 16:26:59.433851 21080 net.cpp:141] Setting up inception_5b/relu_5x5_reduce
I0403 16:26:59.433879 21080 net.cpp:148] Top shape: 24 48 7 7 (56448)
I0403 16:26:59.433895 21080 net.cpp:156] Memory required for data: 1334725152
I0403 16:26:59.433910 21080 layer_factory.hpp:77] Creating layer inception_5b/5x5
I0403 16:26:59.433931 21080 net.cpp:91] Creating Layer inception_5b/5x5
I0403 16:26:59.433949 21080 net.cpp:425] inception_5b/5x5 <- inception_5b/5x5_reduce
I0403 16:26:59.433969 21080 net.cpp:399] inception_5b/5x5 -> inception_5b/5x5
I0403 16:26:59.436061 21080 net.cpp:141] Setting up inception_5b/5x5
I0403 16:26:59.436091 21080 net.cpp:148] Top shape: 24 128 7 7 (150528)
I0403 16:26:59.436107 21080 net.cpp:156] Memory required for data: 1335327264
I0403 16:26:59.436125 21080 layer_factory.hpp:77] Creating layer inception_5b/relu_5x5
I0403 16:26:59.436144 21080 net.cpp:91] Creating Layer inception_5b/relu_5x5
I0403 16:26:59.436161 21080 net.cpp:425] inception_5b/relu_5x5 <- inception_5b/5x5
I0403 16:26:59.436182 21080 net.cpp:386] inception_5b/relu_5x5 -> inception_5b/5x5 (in-place)
I0403 16:26:59.436381 21080 net.cpp:141] Setting up inception_5b/relu_5x5
I0403 16:26:59.436408 21080 net.cpp:148] Top shape: 24 128 7 7 (150528)
I0403 16:26:59.436424 21080 net.cpp:156] Memory required for data: 1335929376
I0403 16:26:59.436437 21080 layer_factory.hpp:77] Creating layer inception_5b/pool
I0403 16:26:59.436460 21080 net.cpp:91] Creating Layer inception_5b/pool
I0403 16:26:59.436476 21080 net.cpp:425] inception_5b/pool <- inception_5a/output_inception_5a/output_0_split_3
I0403 16:26:59.436496 21080 net.cpp:399] inception_5b/pool -> inception_5b/pool
I0403 16:26:59.436571 21080 net.cpp:141] Setting up inception_5b/pool
I0403 16:26:59.436595 21080 net.cpp:148] Top shape: 24 832 7 7 (978432)
I0403 16:26:59.436610 21080 net.cpp:156] Memory required for data: 1339843104
I0403 16:26:59.436625 21080 layer_factory.hpp:77] Creating layer inception_5b/pool_proj
I0403 16:26:59.436645 21080 net.cpp:91] Creating Layer inception_5b/pool_proj
I0403 16:26:59.436663 21080 net.cpp:425] inception_5b/pool_proj <- inception_5b/pool
I0403 16:26:59.436684 21080 net.cpp:399] inception_5b/pool_proj -> inception_5b/pool_proj
I0403 16:26:59.439077 21080 net.cpp:141] Setting up inception_5b/pool_proj
I0403 16:26:59.439110 21080 net.cpp:148] Top shape: 24 128 7 7 (150528)
I0403 16:26:59.439129 21080 net.cpp:156] Memory required for data: 1340445216
I0403 16:26:59.439148 21080 layer_factory.hpp:77] Creating layer inception_5b/relu_pool_proj
I0403 16:26:59.439167 21080 net.cpp:91] Creating Layer inception_5b/relu_pool_proj
I0403 16:26:59.439185 21080 net.cpp:425] inception_5b/relu_pool_proj <- inception_5b/pool_proj
I0403 16:26:59.439205 21080 net.cpp:386] inception_5b/relu_pool_proj -> inception_5b/pool_proj (in-place)
I0403 16:26:59.439512 21080 net.cpp:141] Setting up inception_5b/relu_pool_proj
I0403 16:26:59.439540 21080 net.cpp:148] Top shape: 24 128 7 7 (150528)
I0403 16:26:59.439555 21080 net.cpp:156] Memory required for data: 1341047328
I0403 16:26:59.439569 21080 layer_factory.hpp:77] Creating layer inception_5b/output
I0403 16:26:59.439587 21080 net.cpp:91] Creating Layer inception_5b/output
I0403 16:26:59.439617 21080 net.cpp:425] inception_5b/output <- inception_5b/1x1
I0403 16:26:59.439635 21080 net.cpp:425] inception_5b/output <- inception_5b/3x3
I0403 16:26:59.439652 21080 net.cpp:425] inception_5b/output <- inception_5b/5x5
I0403 16:26:59.439668 21080 net.cpp:425] inception_5b/output <- inception_5b/pool_proj
I0403 16:26:59.439685 21080 net.cpp:399] inception_5b/output -> inception_5b/output
I0403 16:26:59.439738 21080 net.cpp:141] Setting up inception_5b/output
I0403 16:26:59.439762 21080 net.cpp:148] Top shape: 24 1024 7 7 (1204224)
I0403 16:26:59.439776 21080 net.cpp:156] Memory required for data: 1345864224
I0403 16:26:59.439791 21080 layer_factory.hpp:77] Creating layer pool5/7x7_s1
I0403 16:26:59.439811 21080 net.cpp:91] Creating Layer pool5/7x7_s1
I0403 16:26:59.439828 21080 net.cpp:425] pool5/7x7_s1 <- inception_5b/output
I0403 16:26:59.439846 21080 net.cpp:399] pool5/7x7_s1 -> pool5/7x7_s1
I0403 16:26:59.440071 21080 net.cpp:141] Setting up pool5/7x7_s1
I0403 16:26:59.440099 21080 net.cpp:148] Top shape: 24 1024 1 1 (24576)
I0403 16:26:59.440115 21080 net.cpp:156] Memory required for data: 1345962528
I0403 16:26:59.440129 21080 layer_factory.hpp:77] Creating layer pool5/drop_7x7_s1
I0403 16:26:59.440147 21080 net.cpp:91] Creating Layer pool5/drop_7x7_s1
I0403 16:26:59.440163 21080 net.cpp:425] pool5/drop_7x7_s1 <- pool5/7x7_s1
I0403 16:26:59.440182 21080 net.cpp:386] pool5/drop_7x7_s1 -> pool5/7x7_s1 (in-place)
I0403 16:26:59.440232 21080 net.cpp:141] Setting up pool5/drop_7x7_s1
I0403 16:26:59.440255 21080 net.cpp:148] Top shape: 24 1024 1 1 (24576)
I0403 16:26:59.440269 21080 net.cpp:156] Memory required for data: 1346060832
I0403 16:26:59.440284 21080 layer_factory.hpp:77] Creating layer loss3/classifier_plantvillage
I0403 16:26:59.440306 21080 net.cpp:91] Creating Layer loss3/classifier_plantvillage
I0403 16:26:59.440322 21080 net.cpp:425] loss3/classifier_plantvillage <- pool5/7x7_s1
I0403 16:26:59.440343 21080 net.cpp:399] loss3/classifier_plantvillage -> loss3/classifier_plantvillage
I0403 16:26:59.440775 21080 net.cpp:141] Setting up loss3/classifier_plantvillage
I0403 16:26:59.440800 21080 net.cpp:148] Top shape: 24 38 (912)
I0403 16:26:59.440815 21080 net.cpp:156] Memory required for data: 1346064480
I0403 16:26:59.440834 21080 layer_factory.hpp:77] Creating layer loss3/classifier_plantvillage_loss3/classifier_plantvillage_0_split
I0403 16:26:59.440853 21080 net.cpp:91] Creating Layer loss3/classifier_plantvillage_loss3/classifier_plantvillage_0_split
I0403 16:26:59.440870 21080 net.cpp:425] loss3/classifier_plantvillage_loss3/classifier_plantvillage_0_split <- loss3/classifier_plantvillage
I0403 16:26:59.440886 21080 net.cpp:399] loss3/classifier_plantvillage_loss3/classifier_plantvillage_0_split -> loss3/classifier_plantvillage_loss3/classifier_plantvillage_0_split_0
I0403 16:26:59.440907 21080 net.cpp:399] loss3/classifier_plantvillage_loss3/classifier_plantvillage_0_split -> loss3/classifier_plantvillage_loss3/classifier_plantvillage_0_split_1
I0403 16:26:59.440925 21080 net.cpp:399] loss3/classifier_plantvillage_loss3/classifier_plantvillage_0_split -> loss3/classifier_plantvillage_loss3/classifier_plantvillage_0_split_2
I0403 16:26:59.440945 21080 net.cpp:399] loss3/classifier_plantvillage_loss3/classifier_plantvillage_0_split -> loss3/classifier_plantvillage_loss3/classifier_plantvillage_0_split_3
I0403 16:26:59.441051 21080 net.cpp:141] Setting up loss3/classifier_plantvillage_loss3/classifier_plantvillage_0_split
I0403 16:26:59.441074 21080 net.cpp:148] Top shape: 24 38 (912)
I0403 16:26:59.441090 21080 net.cpp:148] Top shape: 24 38 (912)
I0403 16:26:59.441105 21080 net.cpp:148] Top shape: 24 38 (912)
I0403 16:26:59.441120 21080 net.cpp:148] Top shape: 24 38 (912)
I0403 16:26:59.441134 21080 net.cpp:156] Memory required for data: 1346079072
I0403 16:26:59.441148 21080 layer_factory.hpp:77] Creating layer loss1/loss
I0403 16:26:59.441169 21080 net.cpp:91] Creating Layer loss1/loss
I0403 16:26:59.441185 21080 net.cpp:425] loss1/loss <- loss1/classifier_plantvillage_loss1/classifier_plantvillage_0_split_0
I0403 16:26:59.441216 21080 net.cpp:425] loss1/loss <- label_data_1_split_0
…
