…
I0403 16:33:10.393239 21194 net.cpp:313] The NetState phase (1) differed from the phase (0) specified by a rule in layer data
I0403 16:33:10.394405 21194 net.cpp:49] Initializing net from parameters: 
state {
  phase: TEST
}
layer {
  name: "data"
  type: "Data"
  top: "data"
  top: "label"
  include {
    phase: TEST
  }
  transform_param {
    mirror: false
    crop_size: 224
    mean_file: "/home/mohanty/data/final_dataset/lmdb/color-40-60/mean.binaryproto"
  }
  data_param {
    source: "/home/mohanty/data/final_dataset/lmdb/color-40-60/test_db"
    batch_size: 24
    backend: LMDB
  }
}
layer {
  name: "conv1/7x7_s2"
  type: "Convolution"
  bottom: "data"
  top: "conv1/7x7_s2"
  param {
    lr_mult: 1
    decay_mult: 1
  }
  param {
    lr_mult: 2
    decay_mult: 0
  }
  convolution_param {
    num_output: 64
    pad: 3
    kernel_size: 7
    stride: 2
    weight_filler {
      type: "xavier"
      std: 0.1
    }
    bias_filler {
      type: "constant"
      value: 0.2
    }
  }
}
layer {
  name: "conv1/relu_7x7"
  type: "ReLU"
  bottom: "conv1/7x7_s2"
  top: "conv1/7x7_s2"
}
layer {
  name: "pool1/3x3_s2"
  type: "Pooling"
  bottom: "conv1/7x7_s2"
  top: "pool1/3x3_s2"
  pooling_param {
    pool: MAX
    kernel_size: 3
    stride: 2
  }
}
layer {
  name: "pool1/norm1"
  type: "LRN"
  bottom: "pool1/3x3_s2"
  top: "pool1/norm1"
  lrn_param {
    local_size: 5
    alpha: 0.0001
    beta: 0.75
  }
}
layer {
  name: "conv2/3x3_reduce"
  type: "Convolution"
  bottom: "pool1/norm1"
  top: "conv2/3x3_reduce"
  param {
    lr_mult: 1
    decay_mult: 1
  }
  param {
    lr_mult: 2
    decay_mult: 0
  }
  convolution_param {
    num_output: 64
    kernel_size: 1
    weight_filler {
      type: "xavier"
      std: 0.1
    }
    bias_filler {
      type: "constant"
      value: 0.2
    }
  }
}
layer {
  name: "conv2/relu_3x3_reduce"
  type: "ReLU"
  bottom: "conv2/3x3_reduce"
  top: "conv2/3x3_reduce"
}
layer {
  name: "conv2/3x3"
  type: "Convolution"
  bottom: "conv2/3x3_reduce"
  top: "conv2/3x3"
  param {
    lr_mult: 1
    decay_mult: 1
  }
  param {
    lr_mult: 2
    decay_mult: 0
  }
  convolution_param {
    num_output: 192
    pad: 1
    kernel_size: 3
    weight_filler {
      type: "xavier"
      std: 0.03
    }
    bias_filler {
      type: "constant"
      value: 0.2
    }
  }
}
layer {
  name: "conv2/relu_3x3"
  type: "ReLU"
  bottom: "conv2/3x3"
  top: "conv2/3x3"
}
layer {
  name: "conv2/norm2"
  type: "LRN"
  bottom: "conv2/3x3"
  top: "conv2/norm2"
  lrn_param {
    local_size: 5
    alpha: 0.0001
    beta: 0.75
  }
}
layer {
  name: "pool2/3x3_s2"
  type: "Pooling"
  bottom: "conv2/norm2"
  top: "pool2/3x3_s2"
  pooling_param {
    pool: MAX
    kernel_size: 3
    stride: 2
  }
}
layer {
  name: "inception_3a/1x1"
  type: "Convolution"
  bottom: "pool2/3x3_s2"
  top: "inception_3a/1x1"
  param {
    lr_mult: 1
    decay_mult: 1
  }
  param {
    lr_mult: 2
    decay_mult: 0
  }
  convolution_param {
    num_output: 64
    kernel_size: 1
    weight_filler {
      type: "xavier"
      std: 0.03
    }
    bias_filler {
      type: "constant"
      value: 0.2
    }
  }
}
layer {
  name: "inception_3a/relu_1x1"
  type: "ReLU"
  bottom: "inception_3a/1x1"
  top: "inception_3a/1x1"
}
layer {
  name: "inception_3a/3x3_reduce"
  type: "Convolution"
  bottom: "pool2/3x3_s2"
  top: "inception_3a/3x3_reduce"
  param {
    lr_mult: 1
    decay_mult: 1
  }
  param {
    lr_mult: 2
    decay_mult: 0
  }
  convolution_param {
    num_output: 96
    kernel_size: 1
    weight_filler {
      type: "xavier"
      std: 0.09
    }
    bias_filler {
      type: "constant"
      value: 0.2
    }
  }
}
layer {
  name: "inception_3a/relu_3x3_reduce"
  type: "ReLU"
  bottom: "inception_3a/3x3_reduce"
  top: "inception_3a/3x3_reduce"
}
layer {
  name: "inception_3a/3x3"
  type: "Convolution"
  bottom: "inception_3a/3x3_reduce"
  top: "inception_3a/3x3"
  param {
    lr_mult: 1
    decay_mult: 1
  }
  param {
    lr_mult: 2
    decay_mult: 0
  }
  convolution_param {
    num_output: 128
    pad: 1
    kernel_size: 3
    weight_filler {
      type: "xavier"
      std: 0.03
    }
    bias_filler {
      type: "constant"
      value: 0.2
    }
  }
}
layer {
  name: "inception_3a/relu_3x3"
  type: "ReLU"
  bottom: "inception_3a/3x3"
  top: "inception_3a/3x3"
}
layer {
  name: "inception_3a/5x5_reduce"
  type: "Convolution"
  bottom: "pool2/3x3_s2"
  top: "inception_3a/5x5_reduce"
  param {
    lr_mult: 1
    decay_mult: 1
  }
  param {
    lr_mult: 2
    decay_mult: 0
  }
  convolution_param {
    num_output: 16
    kernel_size: 1
    weight_filler {
      type: "xavier"
      std: 0.2
    }
    bias_filler {
      type: "constant"
      value: 0.2
    }
  }
}
layer {
  name: "inception_3a/relu_5x5_reduce"
  type: "ReLU"
  bottom: "inception_3a/5x5_reduce"
  top: "inception_3a/5x5_reduce"
}
layer {
  name: "inception_3a/5x5"
  type: "Convolution"
  bottom: "inception_3a/5x5_reduce"
  top: "inception_3a/5x5"
  param {
    lr_mult: 1
    decay_mult: 1
  }
  param {
    lr_mult: 2
    decay_mult: 0
  }
  convolution_param {
    num_output: 32
    pad: 2
    kernel_size: 5
    weight_filler {
      type: "xavier"
      std: 0.03
    }
    bias_filler {
      type: "constant"
      value: 0.2
    }
  }
}
layer {
  name: "inception_3a/relu_5x5"
  type: "ReLU"
  bottom: "inception_3a/5x5"
  top: "inception_3a/5x5"
}
layer {
  name: "inception_3a/pool"
  type: "Pooling"
  bottom: "pool2/3x3_s2"
  top: "inception_3a/pool"
  pooling_param {
    pool: MAX
    kernel_size: 3
    stride: 1
    pad: 1
  }
}
layer {
  name: "inception_3a/pool_proj"
  type: "Convolution"
  bottom: "inception_3a/pool"
  top: "inception_3a/pool_proj"
  param {
    lr_mult: 1
    decay_mult: 1
  }
  param {
    lr_mult: 2
    decay_mult: 0
  }
  convolution_param {
    num_output: 32
    kernel_size: 1
    weight_filler {
      type: "xavier"
      std: 0.1
    }
    bias_filler {
      type: "constant"
      value: 0.2
    }
  }
}
layer {
  name: "inception_3a/relu_pool_proj"
  type: "ReLU"
  bottom: "inception_3a/pool_proj"
  top: "inception_3a/pool_proj"
}
layer {
  name: "inception_3a/output"
  type: "Concat"
  bottom: "inception_3a/1x1"
  bottom: "inception_3a/3x3"
  bottom: "inception_3a/5x5"
  bottom: "inception_3a/pool_proj"
  top: "inception_3a/output"
}
layer {
  name: "inception_3b/1x1"
  type: "Convolution"
  bottom: "inception_3a/output"
  top: "inception_3b/1x1"
  param {
    lr_mult: 1
    decay_mult: 1
  }
  param {
    lr_mult: 2
    decay_mult: 0
  }
  convolution_param {
    num_output: 128
    kernel_size: 1
    weight_filler {
      type: "xavier"
      std: 0.03
    }
    bias_filler {
      type: "constant"
      value: 0.2
    }
  }
}
layer {
  name: "inception_3b/relu_1x1"
  type: "ReLU"
  bottom: "inception_3b/1x1"
  top: "inception_3b/1x1"
}
layer {
  name: "inception_3b/3x3_reduce"
  type: "Convolution"
  bottom: "inception_3a/output"
  top: "inception_3b/3x3_reduce"
  param {
    lr_mult: 1
    decay_mult: 1
  }
  param {
    lr_mult: 2
    decay_mult: 0
  }
  convolution_param {
    num_output: 128
    kernel_size: 1
    weight_filler {
      type: "xavier"
      std: 0.09
    }
    bias_filler {
      type: "constant"
      value: 0.2
    }
  }
}
layer {
  name: "inception_3b/relu_3x3_reduce"
  type: "ReLU"
  bottom: "inception_3b/3x3_reduce"
  top: "inception_3b/3x3_reduce"
}
layer {
  name: "inception_3b/3x3"
  type: "Convolution"
  bottom: "inception_3b/3x3_reduce"
  top: "inception_3b/3x3"
  param {
    lr_mult: 1
    decay_mult: 1
  }
  param {
    lr_mult: 2
    decay_mult: 0
  }
  convolution_param {
    num_output: 192
    pad: 1
    kernel_size: 3
    weight_filler {
      type: "xavier"
      std: 0.03
    }
    bias_filler {
      type: "constant"
      value: 0.2
    }
  }
}
layer {
  name: "inception_3b/relu_3x3"
  type: "ReLU"
  bottom: "inception_3b/3x3"
  top: "inception_3b/3x3"
}
layer {
  name: "inception_3b/5x5_reduce"
  type: "Convolution"
  bottom: "inception_3a/output"
  top: "inception_3b/5x5_reduce"
  param {
    lr_mult: 1
    decay_mult: 1
  }
  param {
    lr_mult: 2
    decay_mult: 0
  }
  convolution_param {
    num_output: 32
    kernel_size: 1
    weight_filler {
      type: "xavier"
      std: 0.2
    }
    bias_filler {
      type: "constant"
      value: 0.2
    }
  }
}
layer {
  name: "inception_3b/relu_5x5_reduce"
  type: "ReLU"
  bottom: "inception_3b/5x5_reduce"
  top: "inception_3b/5x5_reduce"
}
layer {
  name: "inception_3b/5x5"
  type: "Convolution"
  bottom: "inception_3b/5x5_reduce"
  top: "inception_3b/5x5"
  param {
    lr_mult: 1
    decay_mult: 1
  }
  param {
    lr_mult: 2
    decay_mult: 0
  }
  convolution_param {
    num_output: 96
    pad: 2
    kernel_size: 5
    weight_filler {
      type: "xavier"
      std: 0.03
    }
    bias_filler {
      type: "constant"
      value: 0.2
    }
  }
}
layer {
  name: "inception_3b/relu_5x5"
  type: "ReLU"
  bottom: "inception_3b/5x5"
  top: "inception_3b/5x5"
}
layer {
  name: "inception_3b/pool"
  type: "Pooling"
  bottom: "inception_3a/output"
  top: "inception_3b/pool"
  pooling_param {
    pool: MAX
    kernel_size: 3
    stride: 1
    pad: 1
  }
}
layer {
  name: "inception_3b/pool_proj"
  type: "Convolution"
  bottom: "inception_3b/pool"
  top: "inception_3b/pool_proj"
  param {
    lr_mult: 1
    decay_mult: 1
  }
  param {
    lr_mult: 2
    decay_mult: 0
  }
  convolution_param {
    num_output: 64
    kernel_size: 1
    weight_filler {
      type: "xavier"
      std: 0.1
    }
    bias_filler {
      type: "constant"
      value: 0.2
    }
  }
}
layer {
  name: "inception_3b/relu_pool_proj"
  type: "ReLU"
  bottom: "inception_3b/pool_proj"
  top: "inception_3b/pool_proj"
}
layer {
  name: "inception_3b/output"
  type: "Concat"
  bottom: "inception_3b/1x1"
  bottom: "inception_3b/3x3"
  bottom: "inception_3b/5x5"
  bottom: "inception_3b/pool_proj"
  top: "inception_3b/output"
}
layer {
  name: "pool3/3x3_s2"
  type: "Pooling"
  bottom: "inception_3b/output"
  top: "pool3/3x3_s2"
  pooling_param {
    pool: MAX
    kernel_size: 3
    stride: 2
  }
}
layer {
  name: "inception_4a/1x1"
  type: "Convolution"
  bottom: "pool3/3x3_s2"
  top: "inception_4a/1x1"
  param {
    lr_mult: 1
    decay_mult: 1
  }
  param {
    lr_mult: 2
    decay_mult: 0
  }
  convolution_param {
    num_output: 192
    kernel_size: 1
    weight_filler {
      type: "xavier"
      std: 0.03
    }
    bias_filler {
      type: "constant"
      value: 0.2
    }
  }
}
layer {
  name: "inception_4a/relu_1x1"
  type: "ReLU"
  bottom: "inception_4a/1x1"
  top: "inception_4a/1x1"
}
layer {
  name: "inception_4a/3x3_reduce"
  type: "Convolution"
  bottom: "pool3/3x3_s2"
  top: "inception_4a/3x3_reduce"
  param {
    lr_mult: 1
    decay_mult: 1
  }
  param {
    lr_mult: 2
    decay_mult: 0
  }
  convolution_param {
    num_output: 96
    kernel_size: 1
    weight_filler {
      type: "xavier"
      std: 0.09
    }
    bias_filler {
      type: "constant"
      value: 0.2
    }
  }
}
layer {
  name: "inception_4a/relu_3x3_reduce"
  type: "ReLU"
  bottom: "inception_4a/3x3_reduce"
  top: "inception_4a/3x3_reduce"
}
layer {
  name: "inception_4a/3x3"
  type: "Convolution"
  bottom: "inception_4a/3x3_reduce"
  top: "inception_4a/3x3"
  param {
    lr_mult: 1
    decay_mult: 1
  }
  param {
    lr_mult: 2
    decay_mult: 0
  }
  convolution_param {
    num_output: 208
    pad: 1
    kernel_size: 3
    weight_filler {
      type: "xavier"
      std: 0.03
    }
    bias_filler {
      type: "constant"
      value: 0.2
    }
  }
}
layer {
  name: "inception_4a/relu_3x3"
  type: "ReLU"
  bottom: "inception_4a/3x3"
  top: "inception_4a/3x3"
}
layer {
  name: "inception_4a/5x5_reduce"
  type: "Convolution"
  bottom: "pool3/3x3_s2"
  top: "inception_4a/5x5_reduce"
  param {
    lr_mult: 1
    decay_mult: 1
  }
  param {
    lr_mult: 2
    decay_mult: 0
  }
  convolution_param {
    num_output: 16
    kernel_size: 1
    weight_filler {
      type: "xavier"
      std: 0.2
    }
    bias_filler {
      type: "constant"
      value: 0.2
    }
  }
}
layer {
  name: "inception_4a/relu_5x5_reduce"
  type: "ReLU"
  bottom: "inception_4a/5x5_reduce"
  top: "inception_4a/5x5_reduce"
}
layer {
  name: "inception_4a/5x5"
  type: "Convolution"
  bottom: "inception_4a/5x5_reduce"
  top: "inception_4a/5x5"
  param {
    lr_mult: 1
    decay_mult: 1
  }
  param {
    lr_mult: 2
    decay_mult: 0
  }
  convolution_param {
    num_output: 48
    pad: 2
    kernel_size: 5
    weight_filler {
      type: "xavier"
      std: 0.03
    }
    bias_filler {
      type: "constant"
      value: 0.2
    }
  }
}
layer {
  name: "inception_4a/relu_5x5"
  type: "ReLU"
  bottom: "inception_4a/5x5"
  top: "inception_4a/5x5"
}
layer {
  name: "inception_4a/pool"
  type: "Pooling"
  bottom: "pool3/3x3_s2"
  top: "inception_4a/pool"
  pooling_param {
    pool: MAX
    kernel_size: 3
    stride: 1
    pad: 1
  }
}
layer {
  name: "inception_4a/pool_proj"
  type: "Convolution"
  bottom: "inception_4a/pool"
  top: "inception_4a/pool_proj"
  param {
    lr_mult: 1
    decay_mult: 1
  }
  param {
    lr_mult: 2
    decay_mult: 0
  }
  convolution_param {
    num_output: 64
    kernel_size: 1
    weight_filler {
      type: "xavier"
      std: 0.1
    }
    bias_filler {
      type: "constant"
      value: 0.2
    }
  }
}
layer {
  name: "inception_4a/relu_pool_proj"
  type: "ReLU"
  bottom: "inception_4a/pool_proj"
  top: "inception_4a/pool_proj"
}
layer {
  name: "inception_4a/output"
  type: "Concat"
  bottom: "inception_4a/1x1"
  bottom: "inception_4a/3x3"
  bottom: "inception_4a/5x5"
  bottom: "inception_4a/pool_proj"
  top: "inception_4a/output"
}
layer {
  name: "loss1/ave_pool"
  type: "Pooling"
  bottom: "inception_4a/output"
  top: "loss1/ave_pool"
  pooling_param {
    pool: AVE
    kernel_size: 5
    stride: 3
  }
}
layer {
  name: "loss1/conv"
  type: "Convolution"
  bottom: "loss1/ave_pool"
  top: "loss1/conv"
  param {
    lr_mult: 1
    decay_mult: 1
  }
  param {
    lr_mult: 2
    decay_mult: 0
  }
  convolution_param {
    num_output: 128
    kernel_size: 1
    weight_filler {
      type: "xavier"
      std: 0.08
    }
    bias_filler {
      type: "constant"
      value: 0.2
    }
  }
}
layer {
  name: "loss1/relu_conv"
  type: "ReLU"
  bottom: "loss1/conv"
  top: "loss1/conv"
}
layer {
  name: "loss1/fc"
  type: "InnerProduct"
  bottom: "loss1/conv"
  top: "loss1/fc"
  param {
    lr_mult: 1
    decay_mult: 1
  }
  param {
    lr_mult: 2
    decay_mult: 0
  }
  inner_product_param {
    num_output: 1024
    weight_filler {
      type: "xavier"
      std: 0.02
    }
    bias_filler {
      type: "constant"
      value: 0.2
    }
  }
}
layer {
  name: "loss1/relu_fc"
  type: "ReLU"
  bottom: "loss1/fc"
  top: "loss1/fc"
}
layer {
  name: "loss1/drop_fc"
  type: "Dropout"
  bottom: "loss1/fc"
  top: "loss1/fc"
  dropout_param {
    dropout_ratio: 0.7
  }
}
layer {
  name: "loss1/classifier_plantvillage"
  type: "InnerProduct"
  bottom: "loss1/fc"
  top: "loss1/classifier_plantvillage"
  param {
    lr_mult: 1
    decay_mult: 1
  }
  param {
    lr_mult: 2
    decay_mult: 0
  }
  inner_product_param {
    num_output: 38
    weight_filler {
      type: "xavier"
      std: 0.0009765625
    }
    bias_filler {
      type: "constant"
      value: 0
    }
  }
}
layer {
  name: "inception_4b/1x1"
  type: "Convolution"
  bottom: "inception_4a/output"
  top: "inception_4b/1x1"
  param {
    lr_mult: 1
    decay_mult: 1
  }
  param {
    lr_mult: 2
    decay_mult: 0
  }
  convolution_param {
    num_output: 160
    kernel_size: 1
    weight_filler {
      type: "xavier"
      std: 0.03
    }
    bias_filler {
      type: "constant"
      value: 0.2
    }
  }
}
layer {
  name: "inception_4b/relu_1x1"
  type: "ReLU"
  bottom: "inception_4b/1x1"
  top: "inception_4b/1x1"
}
layer {
  name: "inception_4b/3x3_reduce"
  type: "Convolution"
  bottom: "inception_4a/output"
  top: "inception_4b/3x3_reduce"
  param {
    lr_mult: 1
    decay_mult: 1
  }
  param {
    lr_mult: 2
    decay_mult: 0
  }
  convolution_param {
    num_output: 112
    kernel_size: 1
    weight_filler {
      type: "xavier"
      std: 0.09
    }
    bias_filler {
      type: "constant"
      value: 0.2
    }
  }
}
layer {
  name: "inception_4b/relu_3x3_reduce"
  type: "ReLU"
  bottom: "inception_4b/3x3_reduce"
  top: "inception_4b/3x3_reduce"
}
layer {
  name: "inception_4b/3x3"
  type: "Convolution"
  bottom: "inception_4b/3x3_reduce"
  top: "inception_4b/3x3"
  param {
    lr_mult: 1
    decay_mult: 1
  }
  param {
    lr_mult: 2
    decay_mult: 0
  }
  convolution_param {
    num_output: 224
    pad: 1
    kernel_size: 3
    weight_filler {
      type: "xavier"
      std: 0.03
    }
    bias_filler {
      type: "constant"
      value: 0.2
    }
  }
}
layer {
  name: "inception_4b/relu_3x3"
  type: "ReLU"
  bottom: "inception_4b/3x3"
  top: "inception_4b/3x3"
}
layer {
  name: "inception_4b/5x5_reduce"
  type: "Convolution"
  bottom: "inception_4a/output"
  top: "inception_4b/5x5_reduce"
  param {
    lr_mult: 1
    decay_mult: 1
  }
  param {
    lr_mult: 2
    decay_mult: 0
  }
  convolution_param {
    num_output: 24
    kernel_size: 1
    weight_filler {
      type: "xavier"
      std: 0.2
    }
    bias_filler {
      type: "constant"
      value: 0.2
    }
  }
}
layer {
  name: "inception_4b/relu_5x5_reduce"
  type: "ReLU"
  bottom: "inception_4b/5x5_reduce"
  top: "inception_4b/5x5_reduce"
}
layer {
  name: "inception_4b/5x5"
  type: "Convolution"
  bottom: "inception_4b/5x5_reduce"
  top: "inception_4b/5x5"
  param {
    lr_mult: 1
    decay_mult: 1
  }
  param {
    lr_mult: 2
    decay_mult: 0
  }
  convolution_param {
    num_output: 64
    pad: 2
    kernel_size: 5
    weight_filler {
      type: "xavier"
      std: 0.03
    }
    bias_filler {
      type: "constant"
      value: 0.2
    }
  }
}
layer {
  name: "inception_4b/relu_5x5"
  type: "ReLU"
  bottom: "inception_4b/5x5"
  top: "inception_4b/5x5"
}
layer {
  name: "inception_4b/pool"
  type: "Pooling"
  bottom: "inception_4a/output"
  top: "inception_4b/pool"
  pooling_param {
    pool: MAX
    kernel_size: 3
    stride: 1
    pad: 1
  }
}
layer {
  name: "inception_4b/pool_proj"
  type: "Convolution"
  bottom: "inception_4b/pool"
  top: "inception_4b/pool_proj"
  param {
    lr_mult: 1
    decay_mult: 1
  }
  param {
    lr_mult: 2
    decay_mult: 0
  }
  convolution_param {
    num_output: 64
    kernel_size: 1
    weight_filler {
      type: "xavier"
      std: 0.1
    }
    bias_filler {
      type: "constant"
      value: 0.2
    }
  }
}
layer {
  name: "inception_4b/relu_pool_proj"
  type: "ReLU"
  bottom: "inception_4b/pool_proj"
  top: "inception_4b/pool_proj"
}
layer {
  name: "inception_4b/output"
  type: "Concat"
  bottom: "inception_4b/1x1"
  bottom: "inception_4b/3x3"
  bottom: "inception_4b/5x5"
  bottom: "inception_4b/pool_proj"
  top: "inception_4b/output"
}
layer {
  name: "inception_4c/1x1"
  type: "Convolution"
  bottom: "inception_4b/output"
  top: "inception_4c/1x1"
  param {
    lr_mult: 1
    decay_mult: 1
  }
  param {
    lr_mult: 2
    decay_mult: 0
  }
  convolution_param {
    num_output: 128
    kernel_size: 1
    weight_filler {
      type: "xavier"
      std: 0.03
    }
    bias_filler {
      type: "constant"
      value: 0.2
    }
  }
}
layer {
  name: "inception_4c/relu_1x1"
  type: "ReLU"
  bottom: "inception_4c/1x1"
  top: "inception_4c/1x1"
}
layer {
  name: "inception_4c/3x3_reduce"
  type: "Convolution"
  bottom: "inception_4b/output"
  top: "inception_4c/3x3_reduce"
  param {
    lr_mult: 1
    decay_mult: 1
  }
  param {
    lr_mult: 2
    decay_mult: 0
  }
  convolution_param {
    num_output: 128
    kernel_size: 1
    weight_filler {
      type: "xavier"
      std: 0.09
    }
    bias_filler {
      type: "constant"
      value: 0.2
    }
  }
}
layer {
  name: "inception_4c/relu_3x3_reduce"
  type: "ReLU"
  bottom: "inception_4c/3x3_reduce"
  top: "inception_4c/3x3_reduce"
}
layer {
  name: "inception_4c/3x3"
  type: "Convolution"
  bottom: "inception_4c/3x3_reduce"
  top: "inception_4c/3x3"
  param {
    lr_mult: 1
    decay_mult: 1
  }
  param {
    lr_mult: 2
    decay_mult: 0
  }
  convolution_param {
    num_output: 256
    pad: 1
    kernel_size: 3
    weight_filler {
      type: "xavier"
      std: 0.03
    }
    bias_filler {
      type: "constant"
      value: 0.2
    }
  }
}
layer {
  name: "inception_4c/relu_3x3"
  type: "ReLU"
  bottom: "inception_4c/3x3"
  top: "inception_4c/3x3"
}
layer {
  name: "inception_4c/5x5_reduce"
  type: "Convolution"
  bottom: "inception_4b/output"
  top: "inception_4c/5x5_reduce"
  param {
    lr_mult: 1
    decay_mult: 1
  }
  param {
    lr_mult: 2
    decay_mult: 0
  }
  convolution_param {
    num_output: 24
    kernel_size: 1
    weight_filler {
      type: "xavier"
      std: 0.2
    }
    bias_filler {
      type: "constant"
      value: 0.2
    }
  }
}
layer {
  name: "inception_4c/relu_5x5_reduce"
  type: "ReLU"
  bottom: "inception_4c/5x5_reduce"
  top: "inception_4c/5x5_reduce"
}
layer {
  name: "inception_4c/5x5"
  type: "Convolution"
  bottom: "inception_4c/5x5_reduce"
  top: "inception_4c/5x5"
  param {
    lr_mult: 1
    decay_mult: 1
  }
  param {
    lr_mult: 2
    decay_mult: 0
  }
  convolution_param {
    num_output: 64
    pad: 2
    kernel_size: 5
    weight_filler {
      type: "xavier"
      std: 0.03
    }
    bias_filler {
      type: "constant"
      value: 0.2
    }
  }
}
layer {
  name: "inception_4c/relu_5x5"
  type: "ReLU"
  bottom: "inception_4c/5x5"
  top: "inception_4c/5x5"
}
layer {
  name: "inception_4c/pool"
  type: "Pooling"
  bottom: "inception_4b/output"
  top: "inception_4c/pool"
  pooling_param {
    pool: MAX
    kernel_size: 3
    stride: 1
    pad: 1
  }
}
layer {
  name: "inception_4c/pool_proj"
  type: "Convolution"
  bottom: "inception_4c/pool"
  top: "inception_4c/pool_proj"
  param {
    lr_mult: 1
    decay_mult: 1
  }
  param {
    lr_mult: 2
    decay_mult: 0
  }
  convolution_param {
    num_output: 64
    kernel_size: 1
    weight_filler {
      type: "xavier"
      std: 0.1
    }
    bias_filler {
      type: "constant"
      value: 0.2
    }
  }
}
layer {
  name: "inception_4c/relu_pool_proj"
  type: "ReLU"
  bottom: "inception_4c/pool_proj"
  top: "inception_4c/pool_proj"
}
layer {
  name: "inception_4c/output"
  type: "Concat"
  bottom: "inception_4c/1x1"
  bottom: "inception_4c/3x3"
  bottom: "inception_4c/5x5"
  bottom: "inception_4c/pool_proj"
  top: "inception_4c/output"
}
layer {
  name: "inception_4d/1x1"
  type: "Convolution"
  bottom: "inception_4c/output"
  top: "inception_4d/1x1"
  param {
    lr_mult: 1
    decay_mult: 1
  }
  param {
    lr_mult: 2
    decay_mult: 0
  }
  convolution_param {
    num_output: 112
    kernel_size: 1
    weight_filler {
      type: "xavier"
      std: 0.03
    }
    bias_filler {
      type: "constant"
      value: 0.2
    }
  }
}
layer {
  name: "inception_4d/relu_1x1"
  type: "ReLU"
  bottom: "inception_4d/1x1"
  top: "inception_4d/1x1"
}
layer {
  name: "inception_4d/3x3_reduce"
  type: "Convolution"
  bottom: "inception_4c/output"
  top: "inception_4d/3x3_reduce"
  param {
    lr_mult: 1
    decay_mult: 1
  }
  param {
    lr_mult: 2
    decay_mult: 0
  }
  convolution_param {
    num_output: 144
    kernel_size: 1
    weight_filler {
      type: "xavier"
      std: 0.09
    }
    bias_filler {
      type: "constant"
      value: 0.2
    }
  }
}
layer {
  name: "inception_4d/relu_3x3_reduce"
  type: "ReLU"
  bottom: "inception_4d/3x3_reduce"
  top: "inception_4d/3x3_reduce"
}
layer {
  name: "inception_4d/3x3"
  type: "Convolution"
  bottom: "inception_4d/3x3_reduce"
  top: "inception_4d/3x3"
  param {
    lr_mult: 1
    decay_mult: 1
  }
  param {
    lr_mult: 2
    decay_mult: 0
  }
  convolution_param {
    num_output: 288
    pad: 1
    kernel_size: 3
    weight_filler {
      type: "xavier"
      std: 0.03
    }
    bias_filler {
      type: "constant"
      value: 0.2
    }
  }
}
layer {
  name: "inception_4d/relu_3x3"
  type: "ReLU"
  bottom: "inception_4d/3x3"
  top: "inception_4d/3x3"
}
layer {
  name: "inception_4d/5x5_reduce"
  type: "Convolution"
  bottom: "inception_4c/output"
  top: "inception_4d/5x5_reduce"
  param {
    lr_mult: 1
    decay_mult: 1
  }
  param {
    lr_mult: 2
    decay_mult: 0
  }
  convolution_param {
    num_output: 32
    kernel_size: 1
    weight_filler {
      type: "xavier"
      std: 0.2
    }
    bias_filler {
      type: "constant"
      value: 0.2
    }
  }
}
layer {
  name: "inception_4d/relu_5x5_reduce"
  type: "ReLU"
  bottom: "inception_4d/5x5_reduce"
  top: "inception_4d/5x5_reduce"
}
layer {
  name: "inception_4d/5x5"
  type: "Convolution"
  bottom: "inception_4d/5x5_reduce"
  top: "inception_4d/5x5"
  param {
    lr_mult: 1
    decay_mult: 1
  }
  param {
    lr_mult: 2
    decay_mult: 0
  }
  convolution_param {
    num_output: 64
    pad: 2
    kernel_size: 5
    weight_filler {
      type: "xavier"
      std: 0.03
    }
    bias_filler {
      type: "constant"
      value: 0.2
    }
  }
}
layer {
  name: "inception_4d/relu_5x5"
  type: "ReLU"
  bottom: "inception_4d/5x5"
  top: "inception_4d/5x5"
}
layer {
  name: "inception_4d/pool"
  type: "Pooling"
  bottom: "inception_4c/output"
  top: "inception_4d/pool"
  pooling_param {
    pool: MAX
    kernel_size: 3
    stride: 1
    pad: 1
  }
}
layer {
  name: "inception_4d/pool_proj"
  type: "Convolution"
  bottom: "inception_4d/pool"
  top: "inception_4d/pool_proj"
  param {
    lr_mult: 1
    decay_mult: 1
  }
  param {
    lr_mult: 2
    decay_mult: 0
  }
  convolution_param {
    num_output: 64
    kernel_size: 1
    weight_filler {
      type: "xavier"
      std: 0.1
    }
    bias_filler {
      type: "constant"
      value: 0.2
    }
  }
}
layer {
  name: "inception_4d/relu_pool_proj"
  type: "ReLU"
  bottom: "inception_4d/pool_proj"
  top: "inception_4d/pool_proj"
}
layer {
  name: "inception_4d/output"
  type: "Concat"
  bottom: "inception_4d/1x1"
  bottom: "inception_4d/3x3"
  bottom: "inception_4d/5x5"
  bottom: "inception_4d/pool_proj"
  top: "inception_4d/output"
}
layer {
  name: "loss2/ave_pool"
  type: "Pooling"
  bottom: "inception_4d/output"
  top: "loss2/ave_pool"
  pooling_param {
    pool: AVE
    kernel_size: 5
    stride: 3
  }
}
layer {
  name: "loss2/conv"
  type: "Convolution"
  bottom: "loss2/ave_pool"
  top: "loss2/conv"
  param {
    lr_mult: 1
    decay_mult: 1
  }
  param {
    lr_mult: 2
    decay_mult: 0
  }
  convolution_param {
    num_output: 128
    kernel_size: 1
    weight_filler {
      type: "xavier"
      std: 0.08
    }
    bias_filler {
      type: "constant"
      value: 0.2
    }
  }
}
layer {
  name: "loss2/relu_conv"
  type: "ReLU"
  bottom: "loss2/conv"
  top: "loss2/conv"
}
layer {
  name: "loss2/fc"
  type: "InnerProduct"
  bottom: "loss2/conv"
  top: "loss2/fc"
  param {
    lr_mult: 1
    decay_mult: 1
  }
  param {
    lr_mult: 2
    decay_mult: 0
  }
  inner_product_param {
    num_output: 1024
    weight_filler {
      type: "xavier"
      std: 0.02
    }
    bias_filler {
      type: "constant"
      value: 0.2
    }
  }
}
layer {
  name: "loss2/relu_fc"
  type: "ReLU"
  bottom: "loss2/fc"
  top: "loss2/fc"
}
layer {
  name: "loss2/drop_fc"
  type: "Dropout"
  bottom: "loss2/fc"
  top: "loss2/fc"
  dropout_param {
    dropout_ratio: 0.7
  }
}
layer {
  name: "loss2/classifier_plantvillage"
  type: "InnerProduct"
  bottom: "loss2/fc"
  top: "loss2/classifier_plantvillage"
  param {
    lr_mult: 1
    decay_mult: 1
  }
  param {
    lr_mult: 2
    decay_mult: 0
  }
  inner_product_param {
    num_output: 38
    weight_filler {
      type: "xavier"
      std: 0.0009765625
    }
    bias_filler {
      type: "constant"
      value: 0
    }
  }
}
layer {
  name: "inception_4e/1x1"
  type: "Convolution"
  bottom: "inception_4d/output"
  top: "inception_4e/1x1"
  param {
    lr_mult: 1
    decay_mult: 1
  }
  param {
    lr_mult: 2
    decay_mult: 0
  }
  convolution_param {
    num_output: 256
    kernel_size: 1
    weight_filler {
      type: "xavier"
      std: 0.03
    }
    bias_filler {
      type: "constant"
      value: 0.2
    }
  }
}
layer {
  name: "inception_4e/relu_1x1"
  type: "ReLU"
  bottom: "inception_4e/1x1"
  top: "inception_4e/1x1"
}
layer {
  name: "inception_4e/3x3_reduce"
  type: "Convolution"
  bottom: "inception_4d/output"
  top: "inception_4e/3x3_reduce"
  param {
    lr_mult: 1
    decay_mult: 1
  }
  param {
    lr_mult: 2
    decay_mult: 0
  }
  convolution_param {
    num_output: 160
    kernel_size: 1
    weight_filler {
      type: "xavier"
      std: 0.09
    }
    bias_filler {
      type: "constant"
      value: 0.2
    }
  }
}
layer {
  name: "inception_4e/relu_3x3_reduce"
  type: "ReLU"
  bottom: "inception_4e/3x3_reduce"
  top: "inception_4e/3x3_reduce"
}
layer {
  name: "inception_4e/3x3"
  type: "Convolution"
  bottom: "inception_4e/3x3_reduce"
  top: "inception_4e/3x3"
  param {
    lr_mult: 1
    decay_mult: 1
  }
  param {
    lr_mult: 2
    decay_mult: 0
  }
  convolution_param {
    num_output: 320
    pad: 1
    kernel_size: 3
    weight_filler {
      type: "xavier"
      std: 0.03
    }
    bias_filler {
      type: "constant"
      value: 0.2
    }
  }
}
layer {
  name: "inception_4e/relu_3x3"
  type: "ReLU"
  bottom: "inception_4e/3x3"
  top: "inception_4e/3x3"
}
layer {
  name: "inception_4e/5x5_reduce"
  type: "Convolution"
  bottom: "inception_4d/output"
  top: "inception_4e/5x5_reduce"
  param {
    lr_mult: 1
    decay_mult: 1
  }
  param {
    lr_mult: 2
    decay_mult: 0
  }
  convolution_param {
    num_output: 32
    kernel_size: 1
    weight_filler {
      type: "xavier"
      std: 0.2
    }
    bias_filler {
      type: "constant"
      value: 0.2
    }
  }
}
layer {
  name: "inception_4e/relu_5x5_reduce"
  type: "ReLU"
  bottom: "inception_4e/5x5_reduce"
  top: "inception_4e/5x5_reduce"
}
layer {
  name: "inception_4e/5x5"
  type: "Convolution"
  bottom: "inception_4e/5x5_reduce"
  top: "inception_4e/5x5"
  p
I0403 16:33:10.395638 21194 layer_factory.hpp:77] Creating layer data
I0403 16:33:10.396229 21194 net.cpp:91] Creating Layer data
I0403 16:33:10.396260 21194 net.cpp:399] data -> data
I0403 16:33:10.396309 21194 net.cpp:399] data -> label
I0403 16:33:10.396344 21194 data_transformer.cpp:25] Loading mean file from: /home/mohanty/data/final_dataset/lmdb/color-40-60/mean.binaryproto
I0403 16:33:10.397483 21197 db_lmdb.cpp:38] Opened lmdb /home/mohanty/data/final_dataset/lmdb/color-40-60/test_db
I0403 16:33:10.409308 21194 data_layer.cpp:41] output data size: 24,3,224,224
I0403 16:33:10.438669 21194 net.cpp:141] Setting up data
I0403 16:33:10.438765 21194 net.cpp:148] Top shape: 24 3 224 224 (3612672)
I0403 16:33:10.438787 21194 net.cpp:148] Top shape: 24 (24)
I0403 16:33:10.438803 21194 net.cpp:156] Memory required for data: 14450784
I0403 16:33:10.438833 21194 layer_factory.hpp:77] Creating layer label_data_1_split
I0403 16:33:10.438859 21194 net.cpp:91] Creating Layer label_data_1_split
I0403 16:33:10.438879 21194 net.cpp:425] label_data_1_split <- label
I0403 16:33:10.438910 21194 net.cpp:399] label_data_1_split -> label_data_1_split_0
I0403 16:33:10.438937 21194 net.cpp:399] label_data_1_split -> label_data_1_split_1
I0403 16:33:10.438961 21194 net.cpp:399] label_data_1_split -> label_data_1_split_2
I0403 16:33:10.438982 21194 net.cpp:399] label_data_1_split -> label_data_1_split_3
I0403 16:33:10.439014 21194 net.cpp:399] label_data_1_split -> label_data_1_split_4
I0403 16:33:10.439035 21194 net.cpp:399] label_data_1_split -> label_data_1_split_5
I0403 16:33:10.439055 21194 net.cpp:399] label_data_1_split -> label_data_1_split_6
I0403 16:33:10.439076 21194 net.cpp:399] label_data_1_split -> label_data_1_split_7
I0403 16:33:10.439096 21194 net.cpp:399] label_data_1_split -> label_data_1_split_8
I0403 16:33:10.439116 21194 net.cpp:399] label_data_1_split -> label_data_1_split_9
I0403 16:33:10.439232 21194 net.cpp:141] Setting up label_data_1_split
I0403 16:33:10.439255 21194 net.cpp:148] Top shape: 24 (24)
I0403 16:33:10.439272 21194 net.cpp:148] Top shape: 24 (24)
I0403 16:33:10.439288 21194 net.cpp:148] Top shape: 24 (24)
I0403 16:33:10.439304 21194 net.cpp:148] Top shape: 24 (24)
I0403 16:33:10.439319 21194 net.cpp:148] Top shape: 24 (24)
I0403 16:33:10.439335 21194 net.cpp:148] Top shape: 24 (24)
I0403 16:33:10.439350 21194 net.cpp:148] Top shape: 24 (24)
I0403 16:33:10.439365 21194 net.cpp:148] Top shape: 24 (24)
I0403 16:33:10.439380 21194 net.cpp:148] Top shape: 24 (24)
I0403 16:33:10.439396 21194 net.cpp:148] Top shape: 24 (24)
I0403 16:33:10.439440 21194 net.cpp:156] Memory required for data: 14451744
I0403 16:33:10.439455 21194 layer_factory.hpp:77] Creating layer conv1/7x7_s2
I0403 16:33:10.439486 21194 net.cpp:91] Creating Layer conv1/7x7_s2
I0403 16:33:10.439503 21194 net.cpp:425] conv1/7x7_s2 <- data
I0403 16:33:10.439522 21194 net.cpp:399] conv1/7x7_s2 -> conv1/7x7_s2
I0403 16:33:10.583274 21194 net.cpp:141] Setting up conv1/7x7_s2
I0403 16:33:10.583364 21194 net.cpp:148] Top shape: 24 64 112 112 (19267584)
I0403 16:33:10.583380 21194 net.cpp:156] Memory required for data: 91522080
I0403 16:33:10.583412 21194 layer_factory.hpp:77] Creating layer conv1/relu_7x7
I0403 16:33:10.583441 21194 net.cpp:91] Creating Layer conv1/relu_7x7
I0403 16:33:10.583461 21194 net.cpp:425] conv1/relu_7x7 <- conv1/7x7_s2
I0403 16:33:10.583482 21194 net.cpp:386] conv1/relu_7x7 -> conv1/7x7_s2 (in-place)
I0403 16:33:10.583745 21194 net.cpp:141] Setting up conv1/relu_7x7
I0403 16:33:10.583773 21194 net.cpp:148] Top shape: 24 64 112 112 (19267584)
I0403 16:33:10.583791 21194 net.cpp:156] Memory required for data: 168592416
I0403 16:33:10.583806 21194 layer_factory.hpp:77] Creating layer pool1/3x3_s2
I0403 16:33:10.583830 21194 net.cpp:91] Creating Layer pool1/3x3_s2
I0403 16:33:10.583848 21194 net.cpp:425] pool1/3x3_s2 <- conv1/7x7_s2
I0403 16:33:10.583868 21194 net.cpp:399] pool1/3x3_s2 -> pool1/3x3_s2
I0403 16:33:10.583941 21194 net.cpp:141] Setting up pool1/3x3_s2
I0403 16:33:10.583966 21194 net.cpp:148] Top shape: 24 64 56 56 (4816896)
I0403 16:33:10.583981 21194 net.cpp:156] Memory required for data: 187860000
I0403 16:33:10.584002 21194 layer_factory.hpp:77] Creating layer pool1/norm1
I0403 16:33:10.584029 21194 net.cpp:91] Creating Layer pool1/norm1
I0403 16:33:10.584048 21194 net.cpp:425] pool1/norm1 <- pool1/3x3_s2
I0403 16:33:10.584064 21194 net.cpp:399] pool1/norm1 -> pool1/norm1
I0403 16:33:10.584391 21194 net.cpp:141] Setting up pool1/norm1
I0403 16:33:10.584419 21194 net.cpp:148] Top shape: 24 64 56 56 (4816896)
I0403 16:33:10.584435 21194 net.cpp:156] Memory required for data: 207127584
I0403 16:33:10.584450 21194 layer_factory.hpp:77] Creating layer conv2/3x3_reduce
I0403 16:33:10.584475 21194 net.cpp:91] Creating Layer conv2/3x3_reduce
I0403 16:33:10.584492 21194 net.cpp:425] conv2/3x3_reduce <- pool1/norm1
I0403 16:33:10.584512 21194 net.cpp:399] conv2/3x3_reduce -> conv2/3x3_reduce
I0403 16:33:10.585961 21194 net.cpp:141] Setting up conv2/3x3_reduce
I0403 16:33:10.586011 21194 net.cpp:148] Top shape: 24 64 56 56 (4816896)
I0403 16:33:10.586053 21194 net.cpp:156] Memory required for data: 226395168
I0403 16:33:10.586081 21194 layer_factory.hpp:77] Creating layer conv2/relu_3x3_reduce
I0403 16:33:10.586102 21194 net.cpp:91] Creating Layer conv2/relu_3x3_reduce
I0403 16:33:10.586118 21194 net.cpp:425] conv2/relu_3x3_reduce <- conv2/3x3_reduce
I0403 16:33:10.586138 21194 net.cpp:386] conv2/relu_3x3_reduce -> conv2/3x3_reduce (in-place)
I0403 16:33:10.586436 21194 net.cpp:141] Setting up conv2/relu_3x3_reduce
I0403 16:33:10.586463 21194 net.cpp:148] Top shape: 24 64 56 56 (4816896)
I0403 16:33:10.586486 21194 net.cpp:156] Memory required for data: 245662752
I0403 16:33:10.586503 21194 layer_factory.hpp:77] Creating layer conv2/3x3
I0403 16:33:10.586529 21194 net.cpp:91] Creating Layer conv2/3x3
I0403 16:33:10.586546 21194 net.cpp:425] conv2/3x3 <- conv2/3x3_reduce
I0403 16:33:10.586570 21194 net.cpp:399] conv2/3x3 -> conv2/3x3
I0403 16:33:10.589032 21194 net.cpp:141] Setting up conv2/3x3
I0403 16:33:10.589066 21194 net.cpp:148] Top shape: 24 192 56 56 (14450688)
I0403 16:33:10.589083 21194 net.cpp:156] Memory required for data: 303465504
I0403 16:33:10.589107 21194 layer_factory.hpp:77] Creating layer conv2/relu_3x3
I0403 16:33:10.589128 21194 net.cpp:91] Creating Layer conv2/relu_3x3
I0403 16:33:10.589144 21194 net.cpp:425] conv2/relu_3x3 <- conv2/3x3
I0403 16:33:10.589166 21194 net.cpp:386] conv2/relu_3x3 -> conv2/3x3 (in-place)
I0403 16:33:10.589351 21194 net.cpp:141] Setting up conv2/relu_3x3
I0403 16:33:10.589381 21194 net.cpp:148] Top shape: 24 192 56 56 (14450688)
I0403 16:33:10.589431 21194 net.cpp:156] Memory required for data: 361268256
I0403 16:33:10.589447 21194 layer_factory.hpp:77] Creating layer conv2/norm2
I0403 16:33:10.589468 21194 net.cpp:91] Creating Layer conv2/norm2
I0403 16:33:10.589486 21194 net.cpp:425] conv2/norm2 <- conv2/3x3
I0403 16:33:10.589509 21194 net.cpp:399] conv2/norm2 -> conv2/norm2
I0403 16:33:10.589905 21194 net.cpp:141] Setting up conv2/norm2
I0403 16:33:10.589936 21194 net.cpp:148] Top shape: 24 192 56 56 (14450688)
I0403 16:33:10.589951 21194 net.cpp:156] Memory required for data: 419071008
I0403 16:33:10.589967 21194 layer_factory.hpp:77] Creating layer pool2/3x3_s2
I0403 16:33:10.589990 21194 net.cpp:91] Creating Layer pool2/3x3_s2
I0403 16:33:10.590009 21194 net.cpp:425] pool2/3x3_s2 <- conv2/norm2
I0403 16:33:10.590031 21194 net.cpp:399] pool2/3x3_s2 -> pool2/3x3_s2
I0403 16:33:10.590088 21194 net.cpp:141] Setting up pool2/3x3_s2
I0403 16:33:10.590113 21194 net.cpp:148] Top shape: 24 192 28 28 (3612672)
I0403 16:33:10.590128 21194 net.cpp:156] Memory required for data: 433521696
I0403 16:33:10.590144 21194 layer_factory.hpp:77] Creating layer pool2/3x3_s2_pool2/3x3_s2_0_split
I0403 16:33:10.590165 21194 net.cpp:91] Creating Layer pool2/3x3_s2_pool2/3x3_s2_0_split
I0403 16:33:10.590183 21194 net.cpp:425] pool2/3x3_s2_pool2/3x3_s2_0_split <- pool2/3x3_s2
I0403 16:33:10.590203 21194 net.cpp:399] pool2/3x3_s2_pool2/3x3_s2_0_split -> pool2/3x3_s2_pool2/3x3_s2_0_split_0
I0403 16:33:10.590222 21194 net.cpp:399] pool2/3x3_s2_pool2/3x3_s2_0_split -> pool2/3x3_s2_pool2/3x3_s2_0_split_1
I0403 16:33:10.590250 21194 net.cpp:399] pool2/3x3_s2_pool2/3x3_s2_0_split -> pool2/3x3_s2_pool2/3x3_s2_0_split_2
I0403 16:33:10.590270 21194 net.cpp:399] pool2/3x3_s2_pool2/3x3_s2_0_split -> pool2/3x3_s2_pool2/3x3_s2_0_split_3
I0403 16:33:10.590344 21194 net.cpp:141] Setting up pool2/3x3_s2_pool2/3x3_s2_0_split
I0403 16:33:10.590368 21194 net.cpp:148] Top shape: 24 192 28 28 (3612672)
I0403 16:33:10.590386 21194 net.cpp:148] Top shape: 24 192 28 28 (3612672)
I0403 16:33:10.590402 21194 net.cpp:148] Top shape: 24 192 28 28 (3612672)
I0403 16:33:10.590418 21194 net.cpp:148] Top shape: 24 192 28 28 (3612672)
I0403 16:33:10.590433 21194 net.cpp:156] Memory required for data: 491324448
I0403 16:33:10.590448 21194 layer_factory.hpp:77] Creating layer inception_3a/1x1
I0403 16:33:10.590473 21194 net.cpp:91] Creating Layer inception_3a/1x1
I0403 16:33:10.590492 21194 net.cpp:425] inception_3a/1x1 <- pool2/3x3_s2_pool2/3x3_s2_0_split_0
I0403 16:33:10.590513 21194 net.cpp:399] inception_3a/1x1 -> inception_3a/1x1
I0403 16:33:10.592135 21194 net.cpp:141] Setting up inception_3a/1x1
I0403 16:33:10.592167 21194 net.cpp:148] Top shape: 24 64 28 28 (1204224)
I0403 16:33:10.592185 21194 net.cpp:156] Memory required for data: 496141344
I0403 16:33:10.592206 21194 layer_factory.hpp:77] Creating layer inception_3a/relu_1x1
I0403 16:33:10.592226 21194 net.cpp:91] Creating Layer inception_3a/relu_1x1
I0403 16:33:10.592243 21194 net.cpp:425] inception_3a/relu_1x1 <- inception_3a/1x1
I0403 16:33:10.592265 21194 net.cpp:386] inception_3a/relu_1x1 -> inception_3a/1x1 (in-place)
I0403 16:33:10.592452 21194 net.cpp:141] Setting up inception_3a/relu_1x1
I0403 16:33:10.592491 21194 net.cpp:148] Top shape: 24 64 28 28 (1204224)
I0403 16:33:10.592507 21194 net.cpp:156] Memory required for data: 500958240
I0403 16:33:10.592524 21194 layer_factory.hpp:77] Creating layer inception_3a/3x3_reduce
I0403 16:33:10.592546 21194 net.cpp:91] Creating Layer inception_3a/3x3_reduce
I0403 16:33:10.592564 21194 net.cpp:425] inception_3a/3x3_reduce <- pool2/3x3_s2_pool2/3x3_s2_0_split_1
I0403 16:33:10.592586 21194 net.cpp:399] inception_3a/3x3_reduce -> inception_3a/3x3_reduce
I0403 16:33:10.594313 21194 net.cpp:141] Setting up inception_3a/3x3_reduce
I0403 16:33:10.594343 21194 net.cpp:148] Top shape: 24 96 28 28 (1806336)
I0403 16:33:10.594362 21194 net.cpp:156] Memory required for data: 508183584
I0403 16:33:10.594384 21194 layer_factory.hpp:77] Creating layer inception_3a/relu_3x3_reduce
I0403 16:33:10.594424 21194 net.cpp:91] Creating Layer inception_3a/relu_3x3_reduce
I0403 16:33:10.594444 21194 net.cpp:425] inception_3a/relu_3x3_reduce <- inception_3a/3x3_reduce
I0403 16:33:10.594461 21194 net.cpp:386] inception_3a/relu_3x3_reduce -> inception_3a/3x3_reduce (in-place)
I0403 16:33:10.594645 21194 net.cpp:141] Setting up inception_3a/relu_3x3_reduce
I0403 16:33:10.594672 21194 net.cpp:148] Top shape: 24 96 28 28 (1806336)
I0403 16:33:10.594688 21194 net.cpp:156] Memory required for data: 515408928
I0403 16:33:10.594703 21194 layer_factory.hpp:77] Creating layer inception_3a/3x3
I0403 16:33:10.594727 21194 net.cpp:91] Creating Layer inception_3a/3x3
I0403 16:33:10.594745 21194 net.cpp:425] inception_3a/3x3 <- inception_3a/3x3_reduce
I0403 16:33:10.594769 21194 net.cpp:399] inception_3a/3x3 -> inception_3a/3x3
I0403 16:33:10.596470 21194 net.cpp:141] Setting up inception_3a/3x3
I0403 16:33:10.596500 21194 net.cpp:148] Top shape: 24 128 28 28 (2408448)
I0403 16:33:10.596518 21194 net.cpp:156] Memory required for data: 525042720
I0403 16:33:10.596539 21194 layer_factory.hpp:77] Creating layer inception_3a/relu_3x3
I0403 16:33:10.596561 21194 net.cpp:91] Creating Layer inception_3a/relu_3x3
I0403 16:33:10.596578 21194 net.cpp:425] inception_3a/relu_3x3 <- inception_3a/3x3
I0403 16:33:10.596596 21194 net.cpp:386] inception_3a/relu_3x3 -> inception_3a/3x3 (in-place)
I0403 16:33:10.596878 21194 net.cpp:141] Setting up inception_3a/relu_3x3
I0403 16:33:10.596904 21194 net.cpp:148] Top shape: 24 128 28 28 (2408448)
I0403 16:33:10.596918 21194 net.cpp:156] Memory required for data: 534676512
I0403 16:33:10.596933 21194 layer_factory.hpp:77] Creating layer inception_3a/5x5_reduce
I0403 16:33:10.596957 21194 net.cpp:91] Creating Layer inception_3a/5x5_reduce
I0403 16:33:10.596976 21194 net.cpp:425] inception_3a/5x5_reduce <- pool2/3x3_s2_pool2/3x3_s2_0_split_2
I0403 16:33:10.597002 21194 net.cpp:399] inception_3a/5x5_reduce -> inception_3a/5x5_reduce
I0403 16:33:10.597961 21194 net.cpp:141] Setting up inception_3a/5x5_reduce
I0403 16:33:10.597993 21194 net.cpp:148] Top shape: 24 16 28 28 (301056)
I0403 16:33:10.598011 21194 net.cpp:156] Memory required for data: 535880736
I0403 16:33:10.598029 21194 layer_factory.hpp:77] Creating layer inception_3a/relu_5x5_reduce
I0403 16:33:10.598049 21194 net.cpp:91] Creating Layer inception_3a/relu_5x5_reduce
I0403 16:33:10.598067 21194 net.cpp:425] inception_3a/relu_5x5_reduce <- inception_3a/5x5_reduce
I0403 16:33:10.598083 21194 net.cpp:386] inception_3a/relu_5x5_reduce -> inception_3a/5x5_reduce (in-place)
I0403 16:33:10.598379 21194 net.cpp:141] Setting up inception_3a/relu_5x5_reduce
I0403 16:33:10.598407 21194 net.cpp:148] Top shape: 24 16 28 28 (301056)
I0403 16:33:10.598423 21194 net.cpp:156] Memory required for data: 537084960
I0403 16:33:10.598438 21194 layer_factory.hpp:77] Creating layer inception_3a/5x5
I0403 16:33:10.598458 21194 net.cpp:91] Creating Layer inception_3a/5x5
I0403 16:33:10.598474 21194 net.cpp:425] inception_3a/5x5 <- inception_3a/5x5_reduce
I0403 16:33:10.598495 21194 net.cpp:399] inception_3a/5x5 -> inception_3a/5x5
I0403 16:33:10.599510 21194 net.cpp:141] Setting up inception_3a/5x5
I0403 16:33:10.599536 21194 net.cpp:148] Top shape: 24 32 28 28 (602112)
I0403 16:33:10.599552 21194 net.cpp:156] Memory required for data: 539493408
I0403 16:33:10.599570 21194 layer_factory.hpp:77] Creating layer inception_3a/relu_5x5
I0403 16:33:10.599591 21194 net.cpp:91] Creating Layer inception_3a/relu_5x5
I0403 16:33:10.599607 21194 net.cpp:425] inception_3a/relu_5x5 <- inception_3a/5x5
I0403 16:33:10.599624 21194 net.cpp:386] inception_3a/relu_5x5 -> inception_3a/5x5 (in-place)
I0403 16:33:10.599794 21194 net.cpp:141] Setting up inception_3a/relu_5x5
I0403 16:33:10.599819 21194 net.cpp:148] Top shape: 24 32 28 28 (602112)
I0403 16:33:10.599834 21194 net.cpp:156] Memory required for data: 541901856
I0403 16:33:10.599848 21194 layer_factory.hpp:77] Creating layer inception_3a/pool
I0403 16:33:10.599869 21194 net.cpp:91] Creating Layer inception_3a/pool
I0403 16:33:10.599885 21194 net.cpp:425] inception_3a/pool <- pool2/3x3_s2_pool2/3x3_s2_0_split_3
I0403 16:33:10.599920 21194 net.cpp:399] inception_3a/pool -> inception_3a/pool
I0403 16:33:10.599980 21194 net.cpp:141] Setting up inception_3a/pool
I0403 16:33:10.600008 21194 net.cpp:148] Top shape: 24 192 28 28 (3612672)
I0403 16:33:10.600023 21194 net.cpp:156] Memory required for data: 556352544
I0403 16:33:10.600038 21194 layer_factory.hpp:77] Creating layer inception_3a/pool_proj
I0403 16:33:10.600059 21194 net.cpp:91] Creating Layer inception_3a/pool_proj
I0403 16:33:10.600076 21194 net.cpp:425] inception_3a/pool_proj <- inception_3a/pool
I0403 16:33:10.600098 21194 net.cpp:399] inception_3a/pool_proj -> inception_3a/pool_proj
I0403 16:33:10.601058 21194 net.cpp:141] Setting up inception_3a/pool_proj
I0403 16:33:10.601089 21194 net.cpp:148] Top shape: 24 32 28 28 (602112)
I0403 16:33:10.601107 21194 net.cpp:156] Memory required for data: 558760992
I0403 16:33:10.601130 21194 layer_factory.hpp:77] Creating layer inception_3a/relu_pool_proj
I0403 16:33:10.601152 21194 net.cpp:91] Creating Layer inception_3a/relu_pool_proj
I0403 16:33:10.601171 21194 net.cpp:425] inception_3a/relu_pool_proj <- inception_3a/pool_proj
I0403 16:33:10.601189 21194 net.cpp:386] inception_3a/relu_pool_proj -> inception_3a/pool_proj (in-place)
I0403 16:33:10.601462 21194 net.cpp:141] Setting up inception_3a/relu_pool_proj
I0403 16:33:10.601490 21194 net.cpp:148] Top shape: 24 32 28 28 (602112)
I0403 16:33:10.601505 21194 net.cpp:156] Memory required for data: 561169440
I0403 16:33:10.601521 21194 layer_factory.hpp:77] Creating layer inception_3a/output
I0403 16:33:10.601541 21194 net.cpp:91] Creating Layer inception_3a/output
I0403 16:33:10.601557 21194 net.cpp:425] inception_3a/output <- inception_3a/1x1
I0403 16:33:10.601572 21194 net.cpp:425] inception_3a/output <- inception_3a/3x3
I0403 16:33:10.601591 21194 net.cpp:425] inception_3a/output <- inception_3a/5x5
I0403 16:33:10.601608 21194 net.cpp:425] inception_3a/output <- inception_3a/pool_proj
I0403 16:33:10.601626 21194 net.cpp:399] inception_3a/output -> inception_3a/output
I0403 16:33:10.601671 21194 net.cpp:141] Setting up inception_3a/output
I0403 16:33:10.601699 21194 net.cpp:148] Top shape: 24 256 28 28 (4816896)
I0403 16:33:10.601717 21194 net.cpp:156] Memory required for data: 580437024
I0403 16:33:10.601733 21194 layer_factory.hpp:77] Creating layer inception_3a/output_inception_3a/output_0_split
I0403 16:33:10.601752 21194 net.cpp:91] Creating Layer inception_3a/output_inception_3a/output_0_split
I0403 16:33:10.601768 21194 net.cpp:425] inception_3a/output_inception_3a/output_0_split <- inception_3a/output
I0403 16:33:10.601788 21194 net.cpp:399] inception_3a/output_inception_3a/output_0_split -> inception_3a/output_inception_3a/output_0_split_0
I0403 16:33:10.601809 21194 net.cpp:399] inception_3a/output_inception_3a/output_0_split -> inception_3a/output_inception_3a/output_0_split_1
I0403 16:33:10.601831 21194 net.cpp:399] inception_3a/output_inception_3a/output_0_split -> inception_3a/output_inception_3a/output_0_split_2
I0403 16:33:10.601852 21194 net.cpp:399] inception_3a/output_inception_3a/output_0_split -> inception_3a/output_inception_3a/output_0_split_3
I0403 16:33:10.601927 21194 net.cpp:141] Setting up inception_3a/output_inception_3a/output_0_split
I0403 16:33:10.601949 21194 net.cpp:148] Top shape: 24 256 28 28 (4816896)
I0403 16:33:10.601965 21194 net.cpp:148] Top shape: 24 256 28 28 (4816896)
I0403 16:33:10.601981 21194 net.cpp:148] Top shape: 24 256 28 28 (4816896)
I0403 16:33:10.602002 21194 net.cpp:148] Top shape: 24 256 28 28 (4816896)
I0403 16:33:10.602017 21194 net.cpp:156] Memory required for data: 657507360
I0403 16:33:10.602031 21194 layer_factory.hpp:77] Creating layer inception_3b/1x1
I0403 16:33:10.602053 21194 net.cpp:91] Creating Layer inception_3b/1x1
I0403 16:33:10.602072 21194 net.cpp:425] inception_3b/1x1 <- inception_3a/output_inception_3a/output_0_split_0
I0403 16:33:10.602092 21194 net.cpp:399] inception_3b/1x1 -> inception_3b/1x1
I0403 16:33:10.603231 21194 net.cpp:141] Setting up inception_3b/1x1
I0403 16:33:10.603271 21194 net.cpp:148] Top shape: 24 128 28 28 (2408448)
I0403 16:33:10.603288 21194 net.cpp:156] Memory required for data: 667141152
I0403 16:33:10.603307 21194 layer_factory.hpp:77] Creating layer inception_3b/relu_1x1
I0403 16:33:10.603327 21194 net.cpp:91] Creating Layer inception_3b/relu_1x1
I0403 16:33:10.603343 21194 net.cpp:425] inception_3b/relu_1x1 <- inception_3b/1x1
I0403 16:33:10.603363 21194 net.cpp:386] inception_3b/relu_1x1 -> inception_3b/1x1 (in-place)
I0403 16:33:10.603539 21194 net.cpp:141] Setting up inception_3b/relu_1x1
I0403 16:33:10.603565 21194 net.cpp:148] Top shape: 24 128 28 28 (2408448)
I0403 16:33:10.603581 21194 net.cpp:156] Memory required for data: 676774944
I0403 16:33:10.603596 21194 layer_factory.hpp:77] Creating layer inception_3b/3x3_reduce
I0403 16:33:10.603620 21194 net.cpp:91] Creating Layer inception_3b/3x3_reduce
I0403 16:33:10.603637 21194 net.cpp:425] inception_3b/3x3_reduce <- inception_3a/output_inception_3a/output_0_split_1
I0403 16:33:10.603658 21194 net.cpp:399] inception_3b/3x3_reduce -> inception_3b/3x3_reduce
I0403 16:33:10.604799 21194 net.cpp:141] Setting up inception_3b/3x3_reduce
I0403 16:33:10.604828 21194 net.cpp:148] Top shape: 24 128 28 28 (2408448)
I0403 16:33:10.604846 21194 net.cpp:156] Memory required for data: 686408736
I0403 16:33:10.604864 21194 layer_factory.hpp:77] Creating layer inception_3b/relu_3x3_reduce
I0403 16:33:10.604882 21194 net.cpp:91] Creating Layer inception_3b/relu_3x3_reduce
I0403 16:33:10.604898 21194 net.cpp:425] inception_3b/relu_3x3_reduce <- inception_3b/3x3_reduce
I0403 16:33:10.604918 21194 net.cpp:386] inception_3b/relu_3x3_reduce -> inception_3b/3x3_reduce (in-place)
I0403 16:33:10.605130 21194 net.cpp:141] Setting up inception_3b/relu_3x3_reduce
I0403 16:33:10.605155 21194 net.cpp:148] Top shape: 24 128 28 28 (2408448)
I0403 16:33:10.605170 21194 net.cpp:156] Memory required for data: 696042528
I0403 16:33:10.605185 21194 layer_factory.hpp:77] Creating layer inception_3b/3x3
I0403 16:33:10.605211 21194 net.cpp:91] Creating Layer inception_3b/3x3
I0403 16:33:10.605229 21194 net.cpp:425] inception_3b/3x3 <- inception_3b/3x3_reduce
I0403 16:33:10.605248 21194 net.cpp:399] inception_3b/3x3 -> inception_3b/3x3
I0403 16:33:10.608100 21194 net.cpp:141] Setting up inception_3b/3x3
I0403 16:33:10.608129 21194 net.cpp:148] Top shape: 24 192 28 28 (3612672)
I0403 16:33:10.608146 21194 net.cpp:156] Memory required for data: 710493216
I0403 16:33:10.608165 21194 layer_factory.hpp:77] Creating layer inception_3b/relu_3x3
I0403 16:33:10.608186 21194 net.cpp:91] Creating Layer inception_3b/relu_3x3
I0403 16:33:10.608202 21194 net.cpp:425] inception_3b/relu_3x3 <- inception_3b/3x3
I0403 16:33:10.608222 21194 net.cpp:386] inception_3b/relu_3x3 -> inception_3b/3x3 (in-place)
I0403 16:33:10.608484 21194 net.cpp:141] Setting up inception_3b/relu_3x3
I0403 16:33:10.608510 21194 net.cpp:148] Top shape: 24 192 28 28 (3612672)
I0403 16:33:10.608525 21194 net.cpp:156] Memory required for data: 724943904
I0403 16:33:10.608539 21194 layer_factory.hpp:77] Creating layer inception_3b/5x5_reduce
I0403 16:33:10.608561 21194 net.cpp:91] Creating Layer inception_3b/5x5_reduce
I0403 16:33:10.608578 21194 net.cpp:425] inception_3b/5x5_reduce <- inception_3a/output_inception_3a/output_0_split_2
I0403 16:33:10.608599 21194 net.cpp:399] inception_3b/5x5_reduce -> inception_3b/5x5_reduce
I0403 16:33:10.609565 21194 net.cpp:141] Setting up inception_3b/5x5_reduce
I0403 16:33:10.609592 21194 net.cpp:148] Top shape: 24 32 28 28 (602112)
I0403 16:33:10.609607 21194 net.cpp:156] Memory required for data: 727352352
I0403 16:33:10.609625 21194 layer_factory.hpp:77] Creating layer inception_3b/relu_5x5_reduce
I0403 16:33:10.609645 21194 net.cpp:91] Creating Layer inception_3b/relu_5x5_reduce
I0403 16:33:10.609661 21194 net.cpp:425] inception_3b/relu_5x5_reduce <- inception_3b/5x5_reduce
I0403 16:33:10.609678 21194 net.cpp:386] inception_3b/relu_5x5_reduce -> inception_3b/5x5_reduce (in-place)
I0403 16:33:10.609846 21194 net.cpp:141] Setting up inception_3b/relu_5x5_reduce
I0403 16:33:10.609882 21194 net.cpp:148] Top shape: 24 32 28 28 (602112)
I0403 16:33:10.609897 21194 net.cpp:156] Memory required for data: 729760800
I0403 16:33:10.609912 21194 layer_factory.hpp:77] Creating layer inception_3b/5x5
I0403 16:33:10.609935 21194 net.cpp:91] Creating Layer inception_3b/5x5
I0403 16:33:10.609953 21194 net.cpp:425] inception_3b/5x5 <- inception_3b/5x5_reduce
I0403 16:33:10.609972 21194 net.cpp:399] inception_3b/5x5 -> inception_3b/5x5
I0403 16:33:10.611867 21194 net.cpp:141] Setting up inception_3b/5x5
I0403 16:33:10.611898 21194 net.cpp:148] Top shape: 24 96 28 28 (1806336)
I0403 16:33:10.611917 21194 net.cpp:156] Memory required for data: 736986144
I0403 16:33:10.611934 21194 layer_factory.hpp:77] Creating layer inception_3b/relu_5x5
I0403 16:33:10.611953 21194 net.cpp:91] Creating Layer inception_3b/relu_5x5
I0403 16:33:10.611969 21194 net.cpp:425] inception_3b/relu_5x5 <- inception_3b/5x5
I0403 16:33:10.611994 21194 net.cpp:386] inception_3b/relu_5x5 -> inception_3b/5x5 (in-place)
I0403 16:33:10.612181 21194 net.cpp:141] Setting up inception_3b/relu_5x5
I0403 16:33:10.612205 21194 net.cpp:148] Top shape: 24 96 28 28 (1806336)
I0403 16:33:10.612221 21194 net.cpp:156] Memory required for data: 744211488
I0403 16:33:10.612234 21194 layer_factory.hpp:77] Creating layer inception_3b/pool
I0403 16:33:10.612252 21194 net.cpp:91] Creating Layer inception_3b/pool
I0403 16:33:10.612268 21194 net.cpp:425] inception_3b/pool <- inception_3a/output_inception_3a/output_0_split_3
I0403 16:33:10.612287 21194 net.cpp:399] inception_3b/pool -> inception_3b/pool
I0403 16:33:10.612340 21194 net.cpp:141] Setting up inception_3b/pool
I0403 16:33:10.612362 21194 net.cpp:148] Top shape: 24 256 28 28 (4816896)
I0403 16:33:10.612376 21194 net.cpp:156] Memory required for data: 763479072
I0403 16:33:10.612390 21194 layer_factory.hpp:77] Creating layer inception_3b/pool_proj
I0403 16:33:10.612413 21194 net.cpp:91] Creating Layer inception_3b/pool_proj
I0403 16:33:10.612431 21194 net.cpp:425] inception_3b/pool_proj <- inception_3b/pool
I0403 16:33:10.612448 21194 net.cpp:399] inception_3b/pool_proj -> inception_3b/pool_proj
I0403 16:33:10.613471 21194 net.cpp:141] Setting up inception_3b/pool_proj
I0403 16:33:10.613498 21194 net.cpp:148] Top shape: 24 64 28 28 (1204224)
I0403 16:33:10.613514 21194 net.cpp:156] Memory required for data: 768295968
I0403 16:33:10.613533 21194 layer_factory.hpp:77] Creating layer inception_3b/relu_pool_proj
I0403 16:33:10.613554 21194 net.cpp:91] Creating Layer inception_3b/relu_pool_proj
I0403 16:33:10.613572 21194 net.cpp:425] inception_3b/relu_pool_proj <- inception_3b/pool_proj
I0403 16:33:10.613590 21194 net.cpp:386] inception_3b/relu_pool_proj -> inception_3b/pool_proj (in-place)
I0403 16:33:10.613971 21194 net.cpp:141] Setting up inception_3b/relu_pool_proj
I0403 16:33:10.614002 21194 net.cpp:148] Top shape: 24 64 28 28 (1204224)
I0403 16:33:10.614019 21194 net.cpp:156] Memory required for data: 773112864
I0403 16:33:10.614034 21194 layer_factory.hpp:77] Creating layer inception_3b/output
I0403 16:33:10.614053 21194 net.cpp:91] Creating Layer inception_3b/output
I0403 16:33:10.614068 21194 net.cpp:425] inception_3b/output <- inception_3b/1x1
I0403 16:33:10.614084 21194 net.cpp:425] inception_3b/output <- inception_3b/3x3
I0403 16:33:10.614099 21194 net.cpp:425] inception_3b/output <- inception_3b/5x5
I0403 16:33:10.614115 21194 net.cpp:425] inception_3b/output <- inception_3b/pool_proj
I0403 16:33:10.614131 21194 net.cpp:399] inception_3b/output -> inception_3b/output
I0403 16:33:10.614176 21194 net.cpp:141] Setting up inception_3b/output
I0403 16:33:10.614197 21194 net.cpp:148] Top shape: 24 480 28 28 (9031680)
I0403 16:33:10.614212 21194 net.cpp:156] Memory required for data: 809239584
I0403 16:33:10.614226 21194 layer_factory.hpp:77] Creating layer pool3/3x3_s2
I0403 16:33:10.614243 21194 net.cpp:91] Creating Layer pool3/3x3_s2
I0403 16:33:10.614258 21194 net.cpp:425] pool3/3x3_s2 <- inception_3b/output
I0403 16:33:10.614277 21194 net.cpp:399] pool3/3x3_s2 -> pool3/3x3_s2
I0403 16:33:10.614346 21194 net.cpp:141] Setting up pool3/3x3_s2
I0403 16:33:10.614372 21194 net.cpp:148] Top shape: 24 480 14 14 (2257920)
I0403 16:33:10.614387 21194 net.cpp:156] Memory required for data: 818271264
I0403 16:33:10.614400 21194 layer_factory.hpp:77] Creating layer pool3/3x3_s2_pool3/3x3_s2_0_split
I0403 16:33:10.614418 21194 net.cpp:91] Creating Layer pool3/3x3_s2_pool3/3x3_s2_0_split
I0403 16:33:10.614431 21194 net.cpp:425] pool3/3x3_s2_pool3/3x3_s2_0_split <- pool3/3x3_s2
I0403 16:33:10.614447 21194 net.cpp:399] pool3/3x3_s2_pool3/3x3_s2_0_split -> pool3/3x3_s2_pool3/3x3_s2_0_split_0
I0403 16:33:10.614469 21194 net.cpp:399] pool3/3x3_s2_pool3/3x3_s2_0_split -> pool3/3x3_s2_pool3/3x3_s2_0_split_1
I0403 16:33:10.614487 21194 net.cpp:399] pool3/3x3_s2_pool3/3x3_s2_0_split -> pool3/3x3_s2_pool3/3x3_s2_0_split_2
I0403 16:33:10.614506 21194 net.cpp:399] pool3/3x3_s2_pool3/3x3_s2_0_split -> pool3/3x3_s2_pool3/3x3_s2_0_split_3
I0403 16:33:10.614581 21194 net.cpp:141] Setting up pool3/3x3_s2_pool3/3x3_s2_0_split
I0403 16:33:10.614604 21194 net.cpp:148] Top shape: 24 480 14 14 (2257920)
I0403 16:33:10.614620 21194 net.cpp:148] Top shape: 24 480 14 14 (2257920)
I0403 16:33:10.614635 21194 net.cpp:148] Top shape: 24 480 14 14 (2257920)
I0403 16:33:10.614650 21194 net.cpp:148] Top shape: 24 480 14 14 (2257920)
I0403 16:33:10.614662 21194 net.cpp:156] Memory required for data: 854397984
I0403 16:33:10.614676 21194 layer_factory.hpp:77] Creating layer inception_4a/1x1
I0403 16:33:10.614699 21194 net.cpp:91] Creating Layer inception_4a/1x1
I0403 16:33:10.614717 21194 net.cpp:425] inception_4a/1x1 <- pool3/3x3_s2_pool3/3x3_s2_0_split_0
I0403 16:33:10.614737 21194 net.cpp:399] inception_4a/1x1 -> inception_4a/1x1
I0403 16:33:10.616269 21194 net.cpp:141] Setting up inception_4a/1x1
I0403 16:33:10.616297 21194 net.cpp:148] Top shape: 24 192 14 14 (903168)
I0403 16:33:10.616312 21194 net.cpp:156] Memory required for data: 858010656
I0403 16:33:10.616333 21194 layer_factory.hpp:77] Creating layer inception_4a/relu_1x1
I0403 16:33:10.616350 21194 net.cpp:91] Creating Layer inception_4a/relu_1x1
I0403 16:33:10.616366 21194 net.cpp:425] inception_4a/relu_1x1 <- inception_4a/1x1
I0403 16:33:10.616384 21194 net.cpp:386] inception_4a/relu_1x1 -> inception_4a/1x1 (in-place)
I0403 16:33:10.616559 21194 net.cpp:141] Setting up inception_4a/relu_1x1
I0403 16:33:10.616585 21194 net.cpp:148] Top shape: 24 192 14 14 (903168)
I0403 16:33:10.616598 21194 net.cpp:156] Memory required for data: 861623328
I0403 16:33:10.616613 21194 layer_factory.hpp:77] Creating layer inception_4a/3x3_reduce
I0403 16:33:10.616636 21194 net.cpp:91] Creating Layer inception_4a/3x3_reduce
I0403 16:33:10.616653 21194 net.cpp:425] inception_4a/3x3_reduce <- pool3/3x3_s2_pool3/3x3_s2_0_split_1
I0403 16:33:10.616674 21194 net.cpp:399] inception_4a/3x3_reduce -> inception_4a/3x3_reduce
I0403 16:33:10.617974 21194 net.cpp:141] Setting up inception_4a/3x3_reduce
I0403 16:33:10.618008 21194 net.cpp:148] Top shape: 24 96 14 14 (451584)
I0403 16:33:10.618026 21194 net.cpp:156] Memory required for data: 863429664
I0403 16:33:10.618048 21194 layer_factory.hpp:77] Creating layer inception_4a/relu_3x3_reduce
I0403 16:33:10.618069 21194 net.cpp:91] Creating Layer inception_4a/relu_3x3_reduce
I0403 16:33:10.618088 21194 net.cpp:425] inception_4a/relu_3x3_reduce <- inception_4a/3x3_reduce
I0403 16:33:10.618104 21194 net.cpp:386] inception_4a/relu_3x3_reduce -> inception_4a/3x3_reduce (in-place)
I0403 16:33:10.618278 21194 net.cpp:141] Setting up inception_4a/relu_3x3_reduce
I0403 16:33:10.618304 21194 net.cpp:148] Top shape: 24 96 14 14 (451584)
I0403 16:33:10.618319 21194 net.cpp:156] Memory required for data: 865236000
I0403 16:33:10.618333 21194 layer_factory.hpp:77] Creating layer inception_4a/3x3
I0403 16:33:10.618355 21194 net.cpp:91] Creating Layer inception_4a/3x3
I0403 16:33:10.618372 21194 net.cpp:425] inception_4a/3x3 <- inception_4a/3x3_reduce
I0403 16:33:10.618393 21194 net.cpp:399] inception_4a/3x3 -> inception_4a/3x3
I0403 16:33:10.621089 21194 net.cpp:141] Setting up inception_4a/3x3
I0403 16:33:10.621119 21194 net.cpp:148] Top shape: 24 208 14 14 (978432)
I0403 16:33:10.621136 21194 net.cpp:156] Memory required for data: 869149728
I0403 16:33:10.621155 21194 layer_factory.hpp:77] Creating layer inception_4a/relu_3x3
I0403 16:33:10.621171 21194 net.cpp:91] Creating Layer inception_4a/relu_3x3
I0403 16:33:10.621187 21194 net.cpp:425] inception_4a/relu_3x3 <- inception_4a/3x3
I0403 16:33:10.621206 21194 net.cpp:386] inception_4a/relu_3x3 -> inception_4a/3x3 (in-place)
I0403 16:33:10.621484 21194 net.cpp:141] Setting up inception_4a/relu_3x3
I0403 16:33:10.621515 21194 net.cpp:148] Top shape: 24 208 14 14 (978432)
I0403 16:33:10.621531 21194 net.cpp:156] Memory required for data: 873063456
I0403 16:33:10.621546 21194 layer_factory.hpp:77] Creating layer inception_4a/5x5_reduce
I0403 16:33:10.621568 21194 net.cpp:91] Creating Layer inception_4a/5x5_reduce
I0403 16:33:10.621587 21194 net.cpp:425] inception_4a/5x5_reduce <- pool3/3x3_s2_pool3/3x3_s2_0_split_2
I0403 16:33:10.621608 21194 net.cpp:399] inception_4a/5x5_reduce -> inception_4a/5x5_reduce
I0403 16:33:10.622617 21194 net.cpp:141] Setting up inception_4a/5x5_reduce
I0403 16:33:10.622643 21194 net.cpp:148] Top shape: 24 16 14 14 (75264)
I0403 16:33:10.622658 21194 net.cpp:156] Memory required for data: 873364512
I0403 16:33:10.622676 21194 layer_factory.hpp:77] Creating layer inception_4a/relu_5x5_reduce
I0403 16:33:10.622696 21194 net.cpp:91] Creating Layer inception_4a/relu_5x5_reduce
I0403 16:33:10.622714 21194 net.cpp:425] inception_4a/relu_5x5_reduce <- inception_4a/5x5_reduce
I0403 16:33:10.622730 21194 net.cpp:386] inception_4a/relu_5x5_reduce -> inception_4a/5x5_reduce (in-place)
I0403 16:33:10.622905 21194 net.cpp:141] Setting up inception_4a/relu_5x5_reduce
I0403 16:33:10.622931 21194 net.cpp:148] Top shape: 24 16 14 14 (75264)
I0403 16:33:10.622944 21194 net.cpp:156] Memory required for data: 873665568
I0403 16:33:10.622959 21194 layer_factory.hpp:77] Creating layer inception_4a/5x5
I0403 16:33:10.622982 21194 net.cpp:91] Creating Layer inception_4a/5x5
I0403 16:33:10.623003 21194 net.cpp:425] inception_4a/5x5 <- inception_4a/5x5_reduce
I0403 16:33:10.623025 21194 net.cpp:399] inception_4a/5x5 -> inception_4a/5x5
I0403 16:33:10.624105 21194 net.cpp:141] Setting up inception_4a/5x5
I0403 16:33:10.624132 21194 net.cpp:148] Top shape: 24 48 14 14 (225792)
I0403 16:33:10.624148 21194 net.cpp:156] Memory required for data: 874568736
I0403 16:33:10.624166 21194 layer_factory.hpp:77] Creating layer inception_4a/relu_5x5
I0403 16:33:10.624186 21194 net.cpp:91] Creating Layer inception_4a/relu_5x5
I0403 16:33:10.624202 21194 net.cpp:425] inception_4a/relu_5x5 <- inception_4a/5x5
I0403 16:33:10.624220 21194 net.cpp:386] inception_4a/relu_5x5 -> inception_4a/5x5 (in-place)
I0403 16:33:10.624397 21194 net.cpp:141] Setting up inception_4a/relu_5x5
I0403 16:33:10.624424 21194 net.cpp:148] Top shape: 24 48 14 14 (225792)
I0403 16:33:10.624440 21194 net.cpp:156] Memory required for data: 875471904
I0403 16:33:10.624454 21194 layer_factory.hpp:77] Creating layer inception_4a/pool
I0403 16:33:10.624472 21194 net.cpp:91] Creating Layer inception_4a/pool
I0403 16:33:10.624487 21194 net.cpp:425] inception_4a/pool <- pool3/3x3_s2_pool3/3x3_s2_0_split_3
I0403 16:33:10.624508 21194 net.cpp:399] inception_4a/pool -> inception_4a/pool
I0403 16:33:10.624567 21194 net.cpp:141] Setting up inception_4a/pool
I0403 16:33:10.624591 21194 net.cpp:148] Top shape: 24 480 14 14 (2257920)
I0403 16:33:10.624605 21194 net.cpp:156] Memory required for data: 884503584
I0403 16:33:10.624619 21194 layer_factory.hpp:77] Creating layer inception_4a/pool_proj
I0403 16:33:10.624644 21194 net.cpp:91] Creating Layer inception_4a/pool_proj
I0403 16:33:10.624661 21194 net.cpp:425] inception_4a/pool_proj <- inception_4a/pool
I0403 16:33:10.624681 21194 net.cpp:399] inception_4a/pool_proj -> inception_4a/pool_proj
I0403 16:33:10.625834 21194 net.cpp:141] Setting up inception_4a/pool_proj
I0403 16:33:10.625865 21194 net.cpp:148] Top shape: 24 64 14 14 (301056)
I0403 16:33:10.625895 21194 net.cpp:156] Memory required for data: 885707808
I0403 16:33:10.625916 21194 layer_factory.hpp:77] Creating layer inception_4a/relu_pool_proj
I0403 16:33:10.625933 21194 net.cpp:91] Creating Layer inception_4a/relu_pool_proj
I0403 16:33:10.625949 21194 net.cpp:425] inception_4a/relu_pool_proj <- inception_4a/pool_proj
I0403 16:33:10.625967 21194 net.cpp:386] inception_4a/relu_pool_proj -> inception_4a/pool_proj (in-place)
I0403 16:33:10.626250 21194 net.cpp:141] Setting up inception_4a/relu_pool_proj
I0403 16:33:10.626278 21194 net.cpp:148] Top shape: 24 64 14 14 (301056)
I0403 16:33:10.626294 21194 net.cpp:156] Memory required for data: 886912032
I0403 16:33:10.626309 21194 layer_factory.hpp:77] Creating layer inception_4a/output
I0403 16:33:10.626327 21194 net.cpp:91] Creating Layer inception_4a/output
I0403 16:33:10.626341 21194 net.cpp:425] inception_4a/output <- inception_4a/1x1
I0403 16:33:10.626358 21194 net.cpp:425] inception_4a/output <- inception_4a/3x3
I0403 16:33:10.626374 21194 net.cpp:425] inception_4a/output <- inception_4a/5x5
I0403 16:33:10.626389 21194 net.cpp:425] inception_4a/output <- inception_4a/pool_proj
I0403 16:33:10.626405 21194 net.cpp:399] inception_4a/output -> inception_4a/output
I0403 16:33:10.626451 21194 net.cpp:141] Setting up inception_4a/output
I0403 16:33:10.626474 21194 net.cpp:148] Top shape: 24 512 14 14 (2408448)
I0403 16:33:10.626488 21194 net.cpp:156] Memory required for data: 896545824
I0403 16:33:10.626503 21194 layer_factory.hpp:77] Creating layer inception_4a/output_inception_4a/output_0_split
I0403 16:33:10.626523 21194 net.cpp:91] Creating Layer inception_4a/output_inception_4a/output_0_split
I0403 16:33:10.626538 21194 net.cpp:425] inception_4a/output_inception_4a/output_0_split <- inception_4a/output
I0403 16:33:10.626555 21194 net.cpp:399] inception_4a/output_inception_4a/output_0_split -> inception_4a/output_inception_4a/output_0_split_0
I0403 16:33:10.626575 21194 net.cpp:399] inception_4a/output_inception_4a/output_0_split -> inception_4a/output_inception_4a/output_0_split_1
I0403 16:33:10.626595 21194 net.cpp:399] inception_4a/output_inception_4a/output_0_split -> inception_4a/output_inception_4a/output_0_split_2
I0403 16:33:10.626616 21194 net.cpp:399] inception_4a/output_inception_4a/output_0_split -> inception_4a/output_inception_4a/output_0_split_3
I0403 16:33:10.626637 21194 net.cpp:399] inception_4a/output_inception_4a/output_0_split -> inception_4a/output_inception_4a/output_0_split_4
I0403 16:33:10.626732 21194 net.cpp:141] Setting up inception_4a/output_inception_4a/output_0_split
I0403 16:33:10.626756 21194 net.cpp:148] Top shape: 24 512 14 14 (2408448)
I0403 16:33:10.626772 21194 net.cpp:148] Top shape: 24 512 14 14 (2408448)
I0403 16:33:10.626787 21194 net.cpp:148] Top shape: 24 512 14 14 (2408448)
I0403 16:33:10.626802 21194 net.cpp:148] Top shape: 24 512 14 14 (2408448)
I0403 16:33:10.626817 21194 net.cpp:148] Top shape: 24 512 14 14 (2408448)
I0403 16:33:10.626832 21194 net.cpp:156] Memory required for data: 944714784
I0403 16:33:10.626847 21194 layer_factory.hpp:77] Creating layer loss1/ave_pool
I0403 16:33:10.626864 21194 net.cpp:91] Creating Layer loss1/ave_pool
I0403 16:33:10.626879 21194 net.cpp:425] loss1/ave_pool <- inception_4a/output_inception_4a/output_0_split_0
I0403 16:33:10.626900 21194 net.cpp:399] loss1/ave_pool -> loss1/ave_pool
I0403 16:33:10.627105 21194 net.cpp:141] Setting up loss1/ave_pool
I0403 16:33:10.627132 21194 net.cpp:148] Top shape: 24 512 4 4 (196608)
I0403 16:33:10.627148 21194 net.cpp:156] Memory required for data: 945501216
I0403 16:33:10.627163 21194 layer_factory.hpp:77] Creating layer loss1/conv
I0403 16:33:10.627184 21194 net.cpp:91] Creating Layer loss1/conv
I0403 16:33:10.627202 21194 net.cpp:425] loss1/conv <- loss1/ave_pool
I0403 16:33:10.627221 21194 net.cpp:399] loss1/conv -> loss1/conv
I0403 16:33:10.628621 21194 net.cpp:141] Setting up loss1/conv
I0403 16:33:10.628649 21194 net.cpp:148] Top shape: 24 128 4 4 (49152)
I0403 16:33:10.628664 21194 net.cpp:156] Memory required for data: 945697824
I0403 16:33:10.628697 21194 layer_factory.hpp:77] Creating layer loss1/relu_conv
I0403 16:33:10.628716 21194 net.cpp:91] Creating Layer loss1/relu_conv
I0403 16:33:10.628732 21194 net.cpp:425] loss1/relu_conv <- loss1/conv
I0403 16:33:10.628751 21194 net.cpp:386] loss1/relu_conv -> loss1/conv (in-place)
I0403 16:33:10.629041 21194 net.cpp:141] Setting up loss1/relu_conv
I0403 16:33:10.629068 21194 net.cpp:148] Top shape: 24 128 4 4 (49152)
I0403 16:33:10.629083 21194 net.cpp:156] Memory required for data: 945894432
I0403 16:33:10.629097 21194 layer_factory.hpp:77] Creating layer loss1/fc
I0403 16:33:10.629120 21194 net.cpp:91] Creating Layer loss1/fc
I0403 16:33:10.629138 21194 net.cpp:425] loss1/fc <- loss1/conv
I0403 16:33:10.629159 21194 net.cpp:399] loss1/fc -> loss1/fc
I0403 16:33:10.646687 21194 net.cpp:141] Setting up loss1/fc
I0403 16:33:10.646728 21194 net.cpp:148] Top shape: 24 1024 (24576)
I0403 16:33:10.646744 21194 net.cpp:156] Memory required for data: 945992736
I0403 16:33:10.646762 21194 layer_factory.hpp:77] Creating layer loss1/relu_fc
I0403 16:33:10.646783 21194 net.cpp:91] Creating Layer loss1/relu_fc
I0403 16:33:10.646800 21194 net.cpp:425] loss1/relu_fc <- loss1/fc
I0403 16:33:10.646819 21194 net.cpp:386] loss1/relu_fc -> loss1/fc (in-place)
I0403 16:33:10.647016 21194 net.cpp:141] Setting up loss1/relu_fc
I0403 16:33:10.647040 21194 net.cpp:148] Top shape: 24 1024 (24576)
I0403 16:33:10.647055 21194 net.cpp:156] Memory required for data: 946091040
I0403 16:33:10.647070 21194 layer_factory.hpp:77] Creating layer loss1/drop_fc
I0403 16:33:10.647097 21194 net.cpp:91] Creating Layer loss1/drop_fc
I0403 16:33:10.647116 21194 net.cpp:425] loss1/drop_fc <- loss1/fc
I0403 16:33:10.647135 21194 net.cpp:386] loss1/drop_fc -> loss1/fc (in-place)
I0403 16:33:10.647186 21194 net.cpp:141] Setting up loss1/drop_fc
I0403 16:33:10.647212 21194 net.cpp:148] Top shape: 24 1024 (24576)
I0403 16:33:10.647228 21194 net.cpp:156] Memory required for data: 946189344
I0403 16:33:10.647243 21194 layer_factory.hpp:77] Creating layer loss1/classifier_plantvillage
I0403 16:33:10.647264 21194 net.cpp:91] Creating Layer loss1/classifier_plantvillage
I0403 16:33:10.647281 21194 net.cpp:425] loss1/classifier_plantvillage <- loss1/fc
I0403 16:33:10.647301 21194 net.cpp:399] loss1/classifier_plantvillage -> loss1/classifier_plantvillage
I0403 16:33:10.648218 21194 net.cpp:141] Setting up loss1/classifier_plantvillage
I0403 16:33:10.648260 21194 net.cpp:148] Top shape: 24 38 (912)
I0403 16:33:10.648277 21194 net.cpp:156] Memory required for data: 946192992
I0403 16:33:10.648296 21194 layer_factory.hpp:77] Creating layer loss1/classifier_plantvillage_loss1/classifier_plantvillage_0_split
I0403 16:33:10.648314 21194 net.cpp:91] Creating Layer loss1/classifier_plantvillage_loss1/classifier_plantvillage_0_split
I0403 16:33:10.648330 21194 net.cpp:425] loss1/classifier_plantvillage_loss1/classifier_plantvillage_0_split <- loss1/classifier_plantvillage
I0403 16:33:10.648351 21194 net.cpp:399] loss1/classifier_plantvillage_loss1/classifier_plantvillage_0_split -> loss1/classifier_plantvillage_loss1/classifier_plantvillage_0_split_0
I0403 16:33:10.648373 21194 net.cpp:399] loss1/classifier_plantvillage_loss1/classifier_plantvillage_0_split -> loss1/classifier_plantvillage_loss1/classifier_plantvillage_0_split_1
I0403 16:33:10.648394 21194 net.cpp:399] loss1/classifier_plantvillage_loss1/classifier_plantvillage_0_split -> loss1/classifier_plantvillage_loss1/classifier_plantvillage_0_split_2
I0403 16:33:10.648463 21194 net.cpp:141] Setting up loss1/classifier_plantvillage_loss1/classifier_plantvillage_0_split
I0403 16:33:10.648486 21194 net.cpp:148] Top shape: 24 38 (912)
I0403 16:33:10.648504 21194 net.cpp:148] Top shape: 24 38 (912)
I0403 16:33:10.648519 21194 net.cpp:148] Top shape: 24 38 (912)
I0403 16:33:10.648533 21194 net.cpp:156] Memory required for data: 946203936
I0403 16:33:10.648560 21194 layer_factory.hpp:77] Creating layer inception_4b/1x1
I0403 16:33:10.648582 21194 net.cpp:91] Creating Layer inception_4b/1x1
I0403 16:33:10.648618 21194 net.cpp:425] inception_4b/1x1 <- inception_4a/output_inception_4a/output_0_split_1
I0403 16:33:10.648638 21194 net.cpp:399] inception_4b/1x1 -> inception_4b/1x1
I0403 16:33:10.650354 21194 net.cpp:141] Setting up inception_4b/1x1
I0403 16:33:10.650383 21194 net.cpp:148] Top shape: 24 160 14 14 (752640)
I0403 16:33:10.650399 21194 net.cpp:156] Memory required for data: 949214496
I0403 16:33:10.650418 21194 layer_factory.hpp:77] Creating layer inception_4b/relu_1x1
I0403 16:33:10.650436 21194 net.cpp:91] Creating Layer inception_4b/relu_1x1
I0403 16:33:10.650456 21194 net.cpp:425] inception_4b/relu_1x1 <- inception_4b/1x1
I0403 16:33:10.650475 21194 net.cpp:386] inception_4b/relu_1x1 -> inception_4b/1x1 (in-place)
I0403 16:33:10.650663 21194 net.cpp:141] Setting up inception_4b/relu_1x1
I0403 16:33:10.650687 21194 net.cpp:148] Top shape: 24 160 14 14 (752640)
I0403 16:33:10.650706 21194 net.cpp:156] Memory required for data: 952225056
I0403 16:33:10.650720 21194 layer_factory.hpp:77] Creating layer inception_4b/3x3_reduce
I0403 16:33:10.650743 21194 net.cpp:91] Creating Layer inception_4b/3x3_reduce
I0403 16:33:10.650759 21194 net.cpp:425] inception_4b/3x3_reduce <- inception_4a/output_inception_4a/output_0_split_2
I0403 16:33:10.650780 21194 net.cpp:399] inception_4b/3x3_reduce -> inception_4b/3x3_reduce
I0403 16:33:10.652168 21194 net.cpp:141] Setting up inception_4b/3x3_reduce
I0403 16:33:10.652195 21194 net.cpp:148] Top shape: 24 112 14 14 (526848)
I0403 16:33:10.652210 21194 net.cpp:156] Memory required for data: 954332448
I0403 16:33:10.652228 21194 layer_factory.hpp:77] Creating layer inception_4b/relu_3x3_reduce
I0403 16:33:10.652248 21194 net.cpp:91] Creating Layer inception_4b/relu_3x3_reduce
I0403 16:33:10.652266 21194 net.cpp:425] inception_4b/relu_3x3_reduce <- inception_4b/3x3_reduce
I0403 16:33:10.652283 21194 net.cpp:386] inception_4b/relu_3x3_reduce -> inception_4b/3x3_reduce (in-place)
I0403 16:33:10.652565 21194 net.cpp:141] Setting up inception_4b/relu_3x3_reduce
I0403 16:33:10.652591 21194 net.cpp:148] Top shape: 24 112 14 14 (526848)
I0403 16:33:10.652606 21194 net.cpp:156] Memory required for data: 956439840
I0403 16:33:10.652621 21194 layer_factory.hpp:77] Creating layer inception_4b/3x3
I0403 16:33:10.652642 21194 net.cpp:91] Creating Layer inception_4b/3x3
I0403 16:33:10.652660 21194 net.cpp:425] inception_4b/3x3 <- inception_4b/3x3_reduce
I0403 16:33:10.652681 21194 net.cpp:399] inception_4b/3x3 -> inception_4b/3x3
I0403 16:33:10.655690 21194 net.cpp:141] Setting up inception_4b/3x3
I0403 16:33:10.655721 21194 net.cpp:148] Top shape: 24 224 14 14 (1053696)
I0403 16:33:10.655737 21194 net.cpp:156] Memory required for data: 960654624
I0403 16:33:10.655755 21194 layer_factory.hpp:77] Creating layer inception_4b/relu_3x3
I0403 16:33:10.655773 21194 net.cpp:91] Creating Layer inception_4b/relu_3x3
I0403 16:33:10.655789 21194 net.cpp:425] inception_4b/relu_3x3 <- inception_4b/3x3
I0403 16:33:10.655809 21194 net.cpp:386] inception_4b/relu_3x3 -> inception_4b/3x3 (in-place)
I0403 16:33:10.655992 21194 net.cpp:141] Setting up inception_4b/relu_3x3
I0403 16:33:10.656018 21194 net.cpp:148] Top shape: 24 224 14 14 (1053696)
I0403 16:33:10.656033 21194 net.cpp:156] Memory required for data: 964869408
I0403 16:33:10.656047 21194 layer_factory.hpp:77] Creating layer inception_4b/5x5_reduce
I0403 16:33:10.656071 21194 net.cpp:91] Creating Layer inception_4b/5x5_reduce
I0403 16:33:10.656090 21194 net.cpp:425] inception_4b/5x5_reduce <- inception_4a/output_inception_4a/output_0_split_3
I0403 16:33:10.656112 21194 net.cpp:399] inception_4b/5x5_reduce -> inception_4b/5x5_reduce
I0403 16:33:10.657193 21194 net.cpp:141] Setting up inception_4b/5x5_reduce
I0403 16:33:10.657222 21194 net.cpp:148] Top shape: 24 24 14 14 (112896)
I0403 16:33:10.657238 21194 net.cpp:156] Memory required for data: 965320992
I0403 16:33:10.657255 21194 layer_factory.hpp:77] Creating layer inception_4b/relu_5x5_reduce
I0403 16:33:10.657276 21194 net.cpp:91] Creating Layer inception_4b/relu_5x5_reduce
I0403 16:33:10.657306 21194 net.cpp:425] inception_4b/relu_5x5_reduce <- inception_4b/5x5_reduce
I0403 16:33:10.657326 21194 net.cpp:386] inception_4b/relu_5x5_reduce -> inception_4b/5x5_reduce (in-place)
I0403 16:33:10.657506 21194 net.cpp:141] Setting up inception_4b/relu_5x5_reduce
I0403 16:33:10.657532 21194 net.cpp:148] Top shape: 24 24 14 14 (112896)
I0403 16:33:10.657549 21194 net.cpp:156] Memory required for data: 965772576
I0403 16:33:10.657564 21194 layer_factory.hpp:77] Creating layer inception_4b/5x5
I0403 16:33:10.657584 21194 net.cpp:91] Creating Layer inception_4b/5x5
I0403 16:33:10.657601 21194 net.cpp:425] inception_4b/5x5 <- inception_4b/5x5_reduce
I0403 16:33:10.657621 21194 net.cpp:399] inception_4b/5x5 -> inception_4b/5x5
I0403 16:33:10.658846 21194 net.cpp:141] Setting up inception_4b/5x5
I0403 16:33:10.658874 21194 net.cpp:148] Top shape: 24 64 14 14 (301056)
I0403 16:33:10.658890 21194 net.cpp:156] Memory required for data: 966976800
I0403 16:33:10.658907 21194 layer_factory.hpp:77] Creating layer inception_4b/relu_5x5
I0403 16:33:10.658927 21194 net.cpp:91] Creating Layer inception_4b/relu_5x5
I0403 16:33:10.658944 21194 net.cpp:425] inception_4b/relu_5x5 <- inception_4b/5x5
I0403 16:33:10.658962 21194 net.cpp:386] inception_4b/relu_5x5 -> inception_4b/5x5 (in-place)
I0403 16:33:10.659255 21194 net.cpp:141] Setting up inception_4b/relu_5x5
I0403 16:33:10.659281 21194 net.cpp:148] Top shape: 24 64 14 14 (301056)
I0403 16:33:10.659297 21194 net.cpp:156] Memory required for data: 968181024
I0403 16:33:10.659312 21194 layer_factory.hpp:77] Creating layer inception_4b/pool
I0403 16:33:10.659330 21194 net.cpp:91] Creating Layer inception_4b/pool
I0403 16:33:10.659346 21194 net.cpp:425] inception_4b/pool <- inception_4a/output_inception_4a/output_0_split_4
I0403 16:33:10.659368 21194 net.cpp:399] inception_4b/pool -> inception_4b/pool
I0403 16:33:10.659431 21194 net.cpp:141] Setting up inception_4b/pool
I0403 16:33:10.659459 21194 net.cpp:148] Top shape: 24 512 14 14 (2408448)
I0403 16:33:10.659474 21194 net.cpp:156] Memory required for data: 977814816
I0403 16:33:10.659488 21194 layer_factory.hpp:77] Creating layer inception_4b/pool_proj
I0403 16:33:10.659512 21194 net.cpp:91] Creating Layer inception_4b/pool_proj
I0403 16:33:10.659528 21194 net.cpp:425] inception_4b/pool_proj <- inception_4b/pool
I0403 16:33:10.659548 21194 net.cpp:399] inception_4b/pool_proj -> inception_4b/pool_proj
I0403 16:33:10.660748 21194 net.cpp:141] Setting up inception_4b/pool_proj
I0403 16:33:10.660775 21194 net.cpp:148] Top shape: 24 64 14 14 (301056)
I0403 16:33:10.660790 21194 net.cpp:156] Memory required for data: 979019040
I0403 16:33:10.660809 21194 layer_factory.hpp:77] Creating layer inception_4b/relu_pool_proj
I0403 16:33:10.660828 21194 net.cpp:91] Creating Layer inception_4b/relu_pool_proj
I0403 16:33:10.660845 21194 net.cpp:425] inception_4b/relu_pool_proj <- inception_4b/pool_proj
I0403 16:33:10.660862 21194 net.cpp:386] inception_4b/relu_pool_proj -> inception_4b/pool_proj (in-place)
I0403 16:33:10.661046 21194 net.cpp:141] Setting up inception_4b/relu_pool_proj
I0403 16:33:10.661070 21194 net.cpp:148] Top shape: 24 64 14 14 (301056)
I0403 16:33:10.661084 21194 net.cpp:156] Memory required for data: 980223264
I0403 16:33:10.661099 21194 layer_factory.hpp:77] Creating layer inception_4b/output
I0403 16:33:10.661119 21194 net.cpp:91] Creating Layer inception_4b/output
I0403 16:33:10.661135 21194 net.cpp:425] inception_4b/output <- inception_4b/1x1
I0403 16:33:10.661152 21194 net.cpp:425] inception_4b/output <- inception_4b/3x3
I0403 16:33:10.661169 21194 net.cpp:425] inception_4b/output <- inception_4b/5x5
I0403 16:33:10.661183 21194 net.cpp:425] inception_4b/output <- inception_4b/pool_proj
I0403 16:33:10.661201 21194 net.cpp:399] inception_4b/output -> inception_4b/output
I0403 16:33:10.661247 21194 net.cpp:141] Setting up inception_4b/output
I0403 16:33:10.661270 21194 net.cpp:148] Top shape: 24 512 14 14 (2408448)
I0403 16:33:10.661284 21194 net.cpp:156] Memory required for data: 989857056
I0403 16:33:10.661314 21194 layer_factory.hpp:77] Creating layer inception_4b/output_inception_4b/output_0_split
I0403 16:33:10.661331 21194 net.cpp:91] Creating Layer inception_4b/output_inception_4b/output_0_split
I0403 16:33:10.661347 21194 net.cpp:425] inception_4b/output_inception_4b/output_0_split <- inception_4b/output
I0403 16:33:10.661366 21194 net.cpp:399] inception_4b/output_inception_4b/output_0_split -> inception_4b/output_inception_4b/output_0_split_0
I0403 16:33:10.661387 21194 net.cpp:399] inception_4b/output_inception_4b/output_0_split -> inception_4b/output_inception_4b/output_0_split_1
I0403 16:33:10.661407 21194 net.cpp:399] inception_4b/output_inception_4b/output_0_split -> inception_4b/output_inception_4b/output_0_split_2
I0403 16:33:10.661427 21194 net.cpp:399] inception_4b/output_inception_4b/output_0_split -> inception_4b/output_inception_4b/output_0_split_3
I0403 16:33:10.661512 21194 net.cpp:141] Setting up inception_4b/output_inception_4b/output_0_split
I0403 16:33:10.661537 21194 net.cpp:148] Top shape: 24 512 14 14 (2408448)
I0403 16:33:10.661555 21194 net.cpp:148] Top shape: 24 512 14 14 (2408448)
I0403 16:33:10.661569 21194 net.cpp:148] Top shape: 24 512 14 14 (2408448)
I0403 16:33:10.661586 21194 net.cpp:148] Top shape: 24 512 14 14 (2408448)
I0403 16:33:10.661598 21194 net.cpp:156] Memory required for data: 1028392224
I0403 16:33:10.661613 21194 layer_factory.hpp:77] Creating layer inception_4c/1x1
I0403 16:33:10.661635 21194 net.cpp:91] Creating Layer inception_4c/1x1
I0403 16:33:10.661653 21194 net.cpp:425] inception_4c/1x1 <- inception_4b/output_inception_4b/output_0_split_0
I0403 16:33:10.661674 21194 net.cpp:399] inception_4c/1x1 -> inception_4c/1x1
I0403 16:33:10.663190 21194 net.cpp:141] Setting up inception_4c/1x1
I0403 16:33:10.663218 21194 net.cpp:148] Top shape: 24 128 14 14 (602112)
I0403 16:33:10.663233 21194 net.cpp:156] Memory required for data: 1030800672
I0403 16:33:10.663252 21194 layer_factory.hpp:77] Creating layer inception_4c/relu_1x1
I0403 16:33:10.663272 21194 net.cpp:91] Creating Layer inception_4c/relu_1x1
I0403 16:33:10.663290 21194 net.cpp:425] inception_4c/relu_1x1 <- inception_4c/1x1
I0403 16:33:10.663307 21194 net.cpp:386] inception_4c/relu_1x1 -> inception_4c/1x1 (in-place)
I0403 16:33:10.663487 21194 net.cpp:141] Setting up inception_4c/relu_1x1
I0403 16:33:10.663512 21194 net.cpp:148] Top shape: 24 128 14 14 (602112)
I0403 16:33:10.663528 21194 net.cpp:156] Memory required for data: 1033209120
I0403 16:33:10.663543 21194 layer_factory.hpp:77] Creating layer inception_4c/3x3_reduce
I0403 16:33:10.663565 21194 net.cpp:91] Creating Layer inception_4c/3x3_reduce
I0403 16:33:10.663583 21194 net.cpp:425] inception_4c/3x3_reduce <- inception_4b/output_inception_4b/output_0_split_1
I0403 16:33:10.663604 21194 net.cpp:399] inception_4c/3x3_reduce -> inception_4c/3x3_reduce
I0403 16:33:10.665596 21194 net.cpp:141] Setting up inception_4c/3x3_reduce
I0403 16:33:10.665626 21194 net.cpp:148] Top shape: 24 128 14 14 (602112)
I0403 16:33:10.665642 21194 net.cpp:156] Memory required for data: 1035617568
I0403 16:33:10.665660 21194 layer_factory.hpp:77] Creating layer inception_4c/relu_3x3_reduce
I0403 16:33:10.665678 21194 net.cpp:91] Creating Layer inception_4c/relu_3x3_reduce
I0403 16:33:10.665695 21194 net.cpp:425] inception_4c/relu_3x3_reduce <- inception_4c/3x3_reduce
I0403 16:33:10.665715 21194 net.cpp:386] inception_4c/relu_3x3_reduce -> inception_4c/3x3_reduce (in-place)
I0403 16:33:10.666014 21194 net.cpp:141] Setting up inception_4c/relu_3x3_reduce
I0403 16:33:10.666041 21194 net.cpp:148] Top shape: 24 128 14 14 (602112)
I0403 16:33:10.666057 21194 net.cpp:156] Memory required for data: 1038026016
I0403 16:33:10.666072 21194 layer_factory.hpp:77] Creating layer inception_4c/3x3
I0403 16:33:10.666100 21194 net.cpp:91] Creating Layer inception_4c/3x3
I0403 16:33:10.666117 21194 net.cpp:425] inception_4c/3x3 <- inception_4c/3x3_reduce
I0403 16:33:10.666138 21194 net.cpp:399] inception_4c/3x3 -> inception_4c/3x3
I0403 16:33:10.669927 21194 net.cpp:141] Setting up inception_4c/3x3
I0403 16:33:10.669970 21194 net.cpp:148] Top shape: 24 256 14 14 (1204224)
I0403 16:33:10.669991 21194 net.cpp:156] Memory required for data: 1042842912
I0403 16:33:10.670027 21194 layer_factory.hpp:77] Creating layer inception_4c/relu_3x3
I0403 16:33:10.670052 21194 net.cpp:91] Creating Layer inception_4c/relu_3x3
I0403 16:33:10.670069 21194 net.cpp:425] inception_4c/relu_3x3 <- inception_4c/3x3
I0403 16:33:10.670088 21194 net.cpp:386] inception_4c/relu_3x3 -> inception_4c/3x3 (in-place)
I0403 16:33:10.670272 21194 net.cpp:141] Setting up inception_4c/relu_3x3
I0403 16:33:10.670298 21194 net.cpp:148] Top shape: 24 256 14 14 (1204224)
I0403 16:33:10.670313 21194 net.cpp:156] Memory required for data: 1047659808
I0403 16:33:10.670328 21194 layer_factory.hpp:77] Creating layer inception_4c/5x5_reduce
I0403 16:33:10.670352 21194 net.cpp:91] Creating Layer inception_4c/5x5_reduce
I0403 16:33:10.670370 21194 net.cpp:425] inception_4c/5x5_reduce <- inception_4b/output_inception_4b/output_0_split_2
I0403 16:33:10.670392 21194 net.cpp:399] inception_4c/5x5_reduce -> inception_4c/5x5_reduce
I0403 16:33:10.671519 21194 net.cpp:141] Setting up inception_4c/5x5_reduce
I0403 16:33:10.671547 21194 net.cpp:148] Top shape: 24 24 14 14 (112896)
I0403 16:33:10.671563 21194 net.cpp:156] Memory required for data: 1048111392
I0403 16:33:10.671582 21194 layer_factory.hpp:77] Creating layer inception_4c/relu_5x5_reduce
I0403 16:33:10.671603 21194 net.cpp:91] Creating Layer inception_4c/relu_5x5_reduce
I0403 16:33:10.671622 21194 net.cpp:425] inception_4c/relu_5x5_reduce <- inception_4c/5x5_reduce
I0403 16:33:10.671638 21194 net.cpp:386] inception_4c/relu_5x5_reduce -> inception_4c/5x5_reduce (in-place)
I0403 16:33:10.671829 21194 net.cpp:141] Setting up inception_4c/relu_5x5_reduce
I0403 16:33:10.671854 21194 net.cpp:148] Top shape: 24 24 14 14 (112896)
I0403 16:33:10.671869 21194 net.cpp:156] Memory required for data: 1048562976
I0403 16:33:10.671885 21194 layer_factory.hpp:77] Creating layer inception_4c/5x5
I0403 16:33:10.671907 21194 net.cpp:91] Creating Layer inception_4c/5x5
I0403 16:33:10.671926 21194 net.cpp:425] inception_4c/5x5 <- inception_4c/5x5_reduce
I0403 16:33:10.671947 21194 net.cpp:399] inception_4c/5x5 -> inception_4c/5x5
I0403 16:33:10.673277 21194 net.cpp:141] Setting up inception_4c/5x5
I0403 16:33:10.673305 21194 net.cpp:148] Top shape: 24 64 14 14 (301056)
I0403 16:33:10.673321 21194 net.cpp:156] Memory required for data: 1049767200
I0403 16:33:10.673341 21194 layer_factory.hpp:77] Creating layer inception_4c/relu_5x5
I0403 16:33:10.673360 21194 net.cpp:91] Creating Layer inception_4c/relu_5x5
I0403 16:33:10.673379 21194 net.cpp:425] inception_4c/relu_5x5 <- inception_4c/5x5
I0403 16:33:10.673398 21194 net.cpp:386] inception_4c/relu_5x5 -> inception_4c/5x5 (in-place)
I0403 16:33:10.673698 21194 net.cpp:141] Setting up inception_4c/relu_5x5
I0403 16:33:10.673725 21194 net.cpp:148] Top shape: 24 64 14 14 (301056)
I0403 16:33:10.673741 21194 net.cpp:156] Memory required for data: 1050971424
I0403 16:33:10.673756 21194 layer_factory.hpp:77] Creating layer inception_4c/pool
I0403 16:33:10.673776 21194 net.cpp:91] Creating Layer inception_4c/pool
I0403 16:33:10.673794 21194 net.cpp:425] inception_4c/pool <- inception_4b/output_inception_4b/output_0_split_3
I0403 16:33:10.673813 21194 net.cpp:399] inception_4c/pool -> inception_4c/pool
I0403 16:33:10.673882 21194 net.cpp:141] Setting up inception_4c/pool
I0403 16:33:10.673907 21194 net.cpp:148] Top shape: 24 512 14 14 (2408448)
I0403 16:33:10.673921 21194 net.cpp:156] Memory required for data: 1060605216
I0403 16:33:10.673936 21194 layer_factory.hpp:77] Creating layer inception_4c/pool_proj
I0403 16:33:10.673959 21194 net.cpp:91] Creating Layer inception_4c/pool_proj
I0403 16:33:10.673977 21194 net.cpp:425] inception_4c/pool_proj <- inception_4c/pool
I0403 16:33:10.674003 21194 net.cpp:399] inception_4c/pool_proj -> inception_4c/pool_proj
I0403 16:33:10.675267 21194 net.cpp:141] Setting up inception_4c/pool_proj
I0403 16:33:10.675294 21194 net.cpp:148] Top shape: 24 64 14 14 (301056)
I0403 16:33:10.675324 21194 net.cpp:156] Memory required for data: 1061809440
I0403 16:33:10.675344 21194 layer_factory.hpp:77] Creating layer inception_4c/relu_pool_proj
I0403 16:33:10.675366 21194 net.cpp:91] Creating Layer inception_4c/relu_pool_proj
I0403 16:33:10.675384 21194 net.cpp:425] inception_4c/relu_pool_proj <- inception_4c/pool_proj
I0403 16:33:10.675401 21194 net.cpp:386] inception_4c/relu_pool_proj -> inception_4c/pool_proj (in-place)
I0403 16:33:10.675591 21194 net.cpp:141] Setting up inception_4c/relu_pool_proj
I0403 16:33:10.675617 21194 net.cpp:148] Top shape: 24 64 14 14 (301056)
I0403 16:33:10.675633 21194 net.cpp:156] Memory required for data: 1063013664
I0403 16:33:10.675647 21194 layer_factory.hpp:77] Creating layer inception_4c/output
I0403 16:33:10.675668 21194 net.cpp:91] Creating Layer inception_4c/output
I0403 16:33:10.675684 21194 net.cpp:425] inception_4c/output <- inception_4c/1x1
I0403 16:33:10.675701 21194 net.cpp:425] inception_4c/output <- inception_4c/3x3
I0403 16:33:10.675719 21194 net.cpp:425] inception_4c/output <- inception_4c/5x5
I0403 16:33:10.675734 21194 net.cpp:425] inception_4c/output <- inception_4c/pool_proj
I0403 16:33:10.675751 21194 net.cpp:399] inception_4c/output -> inception_4c/output
I0403 16:33:10.675806 21194 net.cpp:141] Setting up inception_4c/output
I0403 16:33:10.675830 21194 net.cpp:148] Top shape: 24 512 14 14 (2408448)
I0403 16:33:10.675845 21194 net.cpp:156] Memory required for data: 1072647456
I0403 16:33:10.675860 21194 layer_factory.hpp:77] Creating layer inception_4c/output_inception_4c/output_0_split
I0403 16:33:10.675878 21194 net.cpp:91] Creating Layer inception_4c/output_inception_4c/output_0_split
I0403 16:33:10.675896 21194 net.cpp:425] inception_4c/output_inception_4c/output_0_split <- inception_4c/output
I0403 16:33:10.675921 21194 net.cpp:399] inception_4c/output_inception_4c/output_0_split -> inception_4c/output_inception_4c/output_0_split_0
I0403 16:33:10.675943 21194 net.cpp:399] inception_4c/output_inception_4c/output_0_split -> inception_4c/output_inception_4c/output_0_split_1
I0403 16:33:10.675971 21194 net.cpp:399] inception_4c/output_inception_4c/output_0_split -> inception_4c/output_inception_4c/output_0_split_2
I0403 16:33:10.675997 21194 net.cpp:399] inception_4c/output_inception_4c/output_0_split -> inception_4c/output_inception_4c/output_0_split_3
I0403 16:33:10.676090 21194 net.cpp:141] Setting up inception_4c/output_inception_4c/output_0_split
I0403 16:33:10.676116 21194 net.cpp:148] Top shape: 24 512 14 14 (2408448)
I0403 16:33:10.676134 21194 net.cpp:148] Top shape: 24 512 14 14 (2408448)
I0403 16:33:10.676151 21194 net.cpp:148] Top shape: 24 512 14 14 (2408448)
I0403 16:33:10.676167 21194 net.cpp:148] Top shape: 24 512 14 14 (2408448)
I0403 16:33:10.676180 21194 net.cpp:156] Memory required for data: 1111182624
I0403 16:33:10.676195 21194 layer_factory.hpp:77] Creating layer inception_4d/1x1
I0403 16:33:10.676219 21194 net.cpp:91] Creating Layer inception_4d/1x1
I0403 16:33:10.676242 21194 net.cpp:425] inception_4d/1x1 <- inception_4c/output_inception_4c/output_0_split_0
I0403 16:33:10.676266 21194 net.cpp:399] inception_4d/1x1 -> inception_4d/1x1
I0403 16:33:10.677749 21194 net.cpp:141] Setting up inception_4d/1x1
I0403 16:33:10.677780 21194 net.cpp:148] Top shape: 24 112 14 14 (526848)
I0403 16:33:10.677798 21194 net.cpp:156] Memory required for data: 1113290016
I0403 16:33:10.677816 21194 layer_factory.hpp:77] Creating layer inception_4d/relu_1x1
I0403 16:33:10.677834 21194 net.cpp:91] Creating Layer inception_4d/relu_1x1
I0403 16:33:10.677850 21194 net.cpp:425] inception_4d/relu_1x1 <- inception_4d/1x1
I0403 16:33:10.677870 21194 net.cpp:386] inception_4d/relu_1x1 -> inception_4d/1x1 (in-place)
I0403 16:33:10.678068 21194 net.cpp:141] Setting up inception_4d/relu_1x1
I0403 16:33:10.678093 21194 net.cpp:148] Top shape: 24 112 14 14 (526848)
I0403 16:33:10.678109 21194 net.cpp:156] Memory required for data: 1115397408
I0403 16:33:10.678124 21194 layer_factory.hpp:77] Creating layer inception_4d/3x3_reduce
I0403 16:33:10.678163 21194 net.cpp:91] Creating Layer inception_4d/3x3_reduce
I0403 16:33:10.678181 21194 net.cpp:425] inception_4d/3x3_reduce <- inception_4c/output_inception_4c/output_0_split_1
I0403 16:33:10.678203 21194 net.cpp:399] inception_4d/3x3_reduce -> inception_4d/3x3_reduce
I0403 16:33:10.679777 21194 net.cpp:141] Setting up inception_4d/3x3_reduce
I0403 16:33:10.679808 21194 net.cpp:148] Top shape: 24 144 14 14 (677376)
I0403 16:33:10.679826 21194 net.cpp:156] Memory required for data: 1118106912
I0403 16:33:10.679844 21194 layer_factory.hpp:77] Creating layer inception_4d/relu_3x3_reduce
I0403 16:33:10.679863 21194 net.cpp:91] Creating Layer inception_4d/relu_3x3_reduce
I0403 16:33:10.679880 21194 net.cpp:425] inception_4d/relu_3x3_reduce <- inception_4d/3x3_reduce
I0403 16:33:10.679898 21194 net.cpp:386] inception_4d/relu_3x3_reduce -> inception_4d/3x3_reduce (in-place)
I0403 16:33:10.680207 21194 net.cpp:141] Setting up inception_4d/relu_3x3_reduce
I0403 16:33:10.680236 21194 net.cpp:148] Top shape: 24 144 14 14 (677376)
I0403 16:33:10.680253 21194 net.cpp:156] Memory required for data: 1120816416
I0403 16:33:10.680269 21194 layer_factory.hpp:77] Creating layer inception_4d/3x3
I0403 16:33:10.680289 21194 net.cpp:91] Creating Layer inception_4d/3x3
I0403 16:33:10.680306 21194 net.cpp:425] inception_4d/3x3 <- inception_4d/3x3_reduce
I0403 16:33:10.680328 21194 net.cpp:399] inception_4d/3x3 -> inception_4d/3x3
I0403 16:33:10.684808 21194 net.cpp:141] Setting up inception_4d/3x3
I0403 16:33:10.684836 21194 net.cpp:148] Top shape: 24 288 14 14 (1354752)
I0403 16:33:10.684850 21194 net.cpp:156] Memory required for data: 1126235424
I0403 16:33:10.684869 21194 layer_factory.hpp:77] Creating layer inception_4d/relu_3x3
I0403 16:33:10.684885 21194 net.cpp:91] Creating Layer inception_4d/relu_3x3
I0403 16:33:10.684900 21194 net.cpp:425] inception_4d/relu_3x3 <- inception_4d/3x3
I0403 16:33:10.684919 21194 net.cpp:386] inception_4d/relu_3x3 -> inception_4d/3x3 (in-place)
I0403 16:33:10.685101 21194 net.cpp:141] Setting up inception_4d/relu_3x3
I0403 16:33:10.685127 21194 net.cpp:148] Top shape: 24 288 14 14 (1354752)
I0403 16:33:10.685140 21194 net.cpp:156] Memory required for data: 1131654432
I0403 16:33:10.685154 21194 layer_factory.hpp:77] Creating layer inception_4d/5x5_reduce
I0403 16:33:10.685175 21194 net.cpp:91] Creating Layer inception_4d/5x5_reduce
I0403 16:33:10.685192 21194 net.cpp:425] inception_4d/5x5_reduce <- inception_4c/output_inception_4c/output_0_split_2
I0403 16:33:10.685214 21194 net.cpp:399] inception_4d/5x5_reduce -> inception_4d/5x5_reduce
I0403 16:33:10.686374 21194 net.cpp:141] Setting up inception_4d/5x5_reduce
I0403 16:33:10.686403 21194 net.cpp:148] Top shape: 24 32 14 14 (150528)
I0403 16:33:10.686419 21194 net.cpp:156] Memory required for data: 1132256544
I0403 16:33:10.686437 21194 layer_factory.hpp:77] Creating layer inception_4d/relu_5x5_reduce
I0403 16:33:10.686455 21194 net.cpp:91] Creating Layer inception_4d/relu_5x5_reduce
I0403 16:33:10.686470 21194 net.cpp:425] inception_4d/relu_5x5_reduce <- inception_4d/5x5_reduce
I0403 16:33:10.686489 21194 net.cpp:386] inception_4d/relu_5x5_reduce -> inception_4d/5x5_reduce (in-place)
I0403 16:33:10.686671 21194 net.cpp:141] Setting up inception_4d/relu_5x5_reduce
I0403 16:33:10.686696 21194 net.cpp:148] Top shape: 24 32 14 14 (150528)
I0403 16:33:10.686709 21194 net.cpp:156] Memory required for data: 1132858656
I0403 16:33:10.686723 21194 layer_factory.hpp:77] Creating layer inception_4d/5x5
I0403 16:33:10.686745 21194 net.cpp:91] Creating Layer inception_4d/5x5
I0403 16:33:10.686763 21194 net.cpp:425] inception_4d/5x5 <- inception_4d/5x5_reduce
I0403 16:33:10.686784 21194 net.cpp:399] inception_4d/5x5 -> inception_4d/5x5
I0403 16:33:10.688236 21194 net.cpp:141] Setting up inception_4d/5x5
I0403 16:33:10.688263 21194 net.cpp:148] Top shape: 24 64 14 14 (301056)
I0403 16:33:10.688278 21194 net.cpp:156] Memory required for data: 1134062880
I0403 16:33:10.688297 21194 layer_factory.hpp:77] Creating layer inception_4d/relu_5x5
I0403 16:33:10.688330 21194 net.cpp:91] Creating Layer inception_4d/relu_5x5
I0403 16:33:10.688349 21194 net.cpp:425] inception_4d/relu_5x5 <- inception_4d/5x5
I0403 16:33:10.688364 21194 net.cpp:386] inception_4d/relu_5x5 -> inception_4d/5x5 (in-place)
I0403 16:33:10.688657 21194 net.cpp:141] Setting up inception_4d/relu_5x5
I0403 16:33:10.688681 21194 net.cpp:148] Top shape: 24 64 14 14 (301056)
I0403 16:33:10.688696 21194 net.cpp:156] Memory required for data: 1135267104
I0403 16:33:10.688710 21194 layer_factory.hpp:77] Creating layer inception_4d/pool
I0403 16:33:10.688730 21194 net.cpp:91] Creating Layer inception_4d/pool
I0403 16:33:10.688746 21194 net.cpp:425] inception_4d/pool <- inception_4c/output_inception_4c/output_0_split_3
I0403 16:33:10.688765 21194 net.cpp:399] inception_4d/pool -> inception_4d/pool
I0403 16:33:10.688830 21194 net.cpp:141] Setting up inception_4d/pool
I0403 16:33:10.688853 21194 net.cpp:148] Top shape: 24 512 14 14 (2408448)
I0403 16:33:10.688868 21194 net.cpp:156] Memory required for data: 1144900896
I0403 16:33:10.688881 21194 layer_factory.hpp:77] Creating layer inception_4d/pool_proj
I0403 16:33:10.688902 21194 net.cpp:91] Creating Layer inception_4d/pool_proj
I0403 16:33:10.688920 21194 net.cpp:425] inception_4d/pool_proj <- inception_4d/pool
I0403 16:33:10.688940 21194 net.cpp:399] inception_4d/pool_proj -> inception_4d/pool_proj
I0403 16:33:10.690670 21194 net.cpp:141] Setting up inception_4d/pool_proj
I0403 16:33:10.690698 21194 net.cpp:148] Top shape: 24 64 14 14 (301056)
I0403 16:33:10.690713 21194 net.cpp:156] Memory required for data: 1146105120
I0403 16:33:10.690732 21194 layer_factory.hpp:77] Creating layer inception_4d/relu_pool_proj
I0403 16:33:10.690748 21194 net.cpp:91] Creating Layer inception_4d/relu_pool_proj
I0403 16:33:10.690764 21194 net.cpp:425] inception_4d/relu_pool_proj <- inception_4d/pool_proj
I0403 16:33:10.690783 21194 net.cpp:386] inception_4d/relu_pool_proj -> inception_4d/pool_proj (in-place)
I0403 16:33:10.690965 21194 net.cpp:141] Setting up inception_4d/relu_pool_proj
I0403 16:33:10.691006 21194 net.cpp:148] Top shape: 24 64 14 14 (301056)
I0403 16:33:10.691025 21194 net.cpp:156] Memory required for data: 1147309344
I0403 16:33:10.691040 21194 layer_factory.hpp:77] Creating layer inception_4d/output
I0403 16:33:10.691056 21194 net.cpp:91] Creating Layer inception_4d/output
I0403 16:33:10.691076 21194 net.cpp:425] inception_4d/output <- inception_4d/1x1
I0403 16:33:10.691092 21194 net.cpp:425] inception_4d/output <- inception_4d/3x3
I0403 16:33:10.691107 21194 net.cpp:425] inception_4d/output <- inception_4d/5x5
I0403 16:33:10.691123 21194 net.cpp:425] inception_4d/output <- inception_4d/pool_proj
I0403 16:33:10.691139 21194 net.cpp:399] inception_4d/output -> inception_4d/output
I0403 16:33:10.691185 21194 net.cpp:141] Setting up inception_4d/output
I0403 16:33:10.691210 21194 net.cpp:148] Top shape: 24 528 14 14 (2483712)
I0403 16:33:10.691226 21194 net.cpp:156] Memory required for data: 1157244192
I0403 16:33:10.691241 21194 layer_factory.hpp:77] Creating layer inception_4d/output_inception_4d/output_0_split
I0403 16:33:10.691258 21194 net.cpp:91] Creating Layer inception_4d/output_inception_4d/output_0_split
I0403 16:33:10.691273 21194 net.cpp:425] inception_4d/output_inception_4d/output_0_split <- inception_4d/output
I0403 16:33:10.691304 21194 net.cpp:399] inception_4d/output_inception_4d/output_0_split -> inception_4d/output_inception_4d/output_0_split_0
I0403 16:33:10.691325 21194 net.cpp:399] inception_4d/output_inception_4d/output_0_split -> inception_4d/output_inception_4d/output_0_split_1
I0403 16:33:10.691344 21194 net.cpp:399] inception_4d/output_inception_4d/output_0_split -> inception_4d/output_inception_4d/output_0_split_2
I0403 16:33:10.691365 21194 net.cpp:399] inception_4d/output_inception_4d/output_0_split -> inception_4d/output_inception_4d/output_0_split_3
I0403 16:33:10.691383 21194 net.cpp:399] inception_4d/output_inception_4d/output_0_split -> inception_4d/output_inception_4d/output_0_split_4
I0403 16:33:10.691483 21194 net.cpp:141] Setting up inception_4d/output_inception_4d/output_0_split
I0403 16:33:10.691517 21194 net.cpp:148] Top shape: 24 528 14 14 (2483712)
I0403 16:33:10.691536 21194 net.cpp:148] Top shape: 24 528 14 14 (2483712)
I0403 16:33:10.691552 21194 net.cpp:148] Top shape: 24 528 14 14 (2483712)
I0403 16:33:10.691567 21194 net.cpp:148] Top shape: 24 528 14 14 (2483712)
I0403 16:33:10.691582 21194 net.cpp:148] Top shape: 24 528 14 14 (2483712)
I0403 16:33:10.691596 21194 net.cpp:156] Memory required for data: 1206918432
I0403 16:33:10.691609 21194 layer_factory.hpp:77] Creating layer loss2/ave_pool
I0403 16:33:10.691627 21194 net.cpp:91] Creating Layer loss2/ave_pool
I0403 16:33:10.691642 21194 net.cpp:425] loss2/ave_pool <- inception_4d/output_inception_4d/output_0_split_0
I0403 16:33:10.691661 21194 net.cpp:399] loss2/ave_pool -> loss2/ave_pool
I0403 16:33:10.691967 21194 net.cpp:141] Setting up loss2/ave_pool
I0403 16:33:10.691998 21194 net.cpp:148] Top shape: 24 528 4 4 (202752)
I0403 16:33:10.692013 21194 net.cpp:156] Memory required for data: 1207729440
I0403 16:33:10.692026 21194 layer_factory.hpp:77] Creating layer loss2/conv
I0403 16:33:10.692049 21194 net.cpp:91] Creating Layer loss2/conv
I0403 16:33:10.692065 21194 net.cpp:425] loss2/conv <- loss2/ave_pool
I0403 16:33:10.692086 21194 net.cpp:399] loss2/conv -> loss2/conv
I0403 16:33:10.693969 21194 net.cpp:141] Setting up loss2/conv
I0403 16:33:10.694000 21194 net.cpp:148] Top shape: 24 128 4 4 (49152)
I0403 16:33:10.694017 21194 net.cpp:156] Memory required for data: 1207926048
I0403 16:33:10.694036 21194 layer_factory.hpp:77] Creating layer loss2/relu_conv
I0403 16:33:10.694056 21194 net.cpp:91] Creating Layer loss2/relu_conv
I0403 16:33:10.694072 21194 net.cpp:425] loss2/relu_conv <- loss2/conv
I0403 16:33:10.694089 21194 net.cpp:386] loss2/relu_conv -> loss2/conv (in-place)
I0403 16:33:10.694372 21194 net.cpp:141] Setting up loss2/relu_conv
I0403 16:33:10.694398 21194 net.cpp:148] Top shape: 24 128 4 4 (49152)
I0403 16:33:10.694412 21194 net.cpp:156] Memory required for data: 1208122656
I0403 16:33:10.694427 21194 layer_factory.hpp:77] Creating layer loss2/fc
I0403 16:33:10.694448 21194 net.cpp:91] Creating Layer loss2/fc
I0403 16:33:10.694464 21194 net.cpp:425] loss2/fc <- loss2/conv
I0403 16:33:10.694483 21194 net.cpp:399] loss2/fc -> loss2/fc
I0403 16:33:10.711719 21194 net.cpp:141] Setting up loss2/fc
I0403 16:33:10.711750 21194 net.cpp:148] Top shape: 24 1024 (24576)
I0403 16:33:10.711766 21194 net.cpp:156] Memory required for data: 1208220960
I0403 16:33:10.711783 21194 layer_factory.hpp:77] Creating layer loss2/relu_fc
I0403 16:33:10.711802 21194 net.cpp:91] Creating Layer loss2/relu_fc
I0403 16:33:10.711817 21194 net.cpp:425] loss2/relu_fc <- loss2/fc
I0403 16:33:10.711836 21194 net.cpp:386] loss2/relu_fc -> loss2/fc (in-place)
I0403 16:33:10.712131 21194 net.cpp:141] Setting up loss2/relu_fc
I0403 16:33:10.712157 21194 net.cpp:148] Top shape: 24 1024 (24576)
I0403 16:33:10.712170 21194 net.cpp:156] Memory required for data: 1208319264
I0403 16:33:10.712185 21194 layer_factory.hpp:77] Creating layer loss2/drop_fc
I0403 16:33:10.712203 21194 net.cpp:91] Creating Layer loss2/drop_fc
I0403 16:33:10.712218 21194 net.cpp:425] loss2/drop_fc <- loss2/fc
I0403 16:33:10.712236 21194 net.cpp:386] loss2/drop_fc -> loss2/fc (in-place)
I0403 16:33:10.712285 21194 net.cpp:141] Setting up loss2/drop_fc
I0403 16:33:10.712311 21194 net.cpp:148] Top shape: 24 1024 (24576)
I0403 16:33:10.712327 21194 net.cpp:156] Memory required for data: 1208417568
I0403 16:33:10.712340 21194 layer_factory.hpp:77] Creating layer loss2/classifier_plantvillage
I0403 16:33:10.712358 21194 net.cpp:91] Creating Layer loss2/classifier_plantvillage
I0403 16:33:10.712373 21194 net.cpp:425] loss2/classifier_plantvillage <- loss2/fc
I0403 16:33:10.712394 21194 net.cpp:399] loss2/classifier_plantvillage -> loss2/classifier_plantvillage
I0403 16:33:10.712787 21194 net.cpp:141] Setting up loss2/classifier_plantvillage
I0403 16:33:10.712813 21194 net.cpp:148] Top shape: 24 38 (912)
I0403 16:33:10.712829 21194 net.cpp:156] Memory required for data: 1208421216
I0403 16:33:10.712862 21194 layer_factory.hpp:77] Creating layer loss2/classifier_plantvillage_loss2/classifier_plantvillage_0_split
I0403 16:33:10.712880 21194 net.cpp:91] Creating Layer loss2/classifier_plantvillage_loss2/classifier_plantvillage_0_split
I0403 16:33:10.712896 21194 net.cpp:425] loss2/classifier_plantvillage_loss2/classifier_plantvillage_0_split <- loss2/classifier_plantvillage
I0403 16:33:10.712913 21194 net.cpp:399] loss2/classifier_plantvillage_loss2/classifier_plantvillage_0_split -> loss2/classifier_plantvillage_loss2/classifier_plantvillage_0_split_0
I0403 16:33:10.712932 21194 net.cpp:399] loss2/classifier_plantvillage_loss2/classifier_plantvillage_0_split -> loss2/classifier_plantvillage_loss2/classifier_plantvillage_0_split_1
I0403 16:33:10.712952 21194 net.cpp:399] loss2/classifier_plantvillage_loss2/classifier_plantvillage_0_split -> loss2/classifier_plantvillage_loss2/classifier_plantvillage_0_split_2
I0403 16:33:10.713032 21194 net.cpp:141] Setting up loss2/classifier_plantvillage_loss2/classifier_plantvillage_0_split
I0403 16:33:10.713055 21194 net.cpp:148] Top shape: 24 38 (912)
I0403 16:33:10.713071 21194 net.cpp:148] Top shape: 24 38 (912)
I0403 16:33:10.713086 21194 net.cpp:148] Top shape: 24 38 (912)
I0403 16:33:10.713099 21194 net.cpp:156] Memory required for data: 1208432160
I0403 16:33:10.713114 21194 layer_factory.hpp:77] Creating layer inception_4e/1x1
I0403 16:33:10.713132 21194 net.cpp:91] Creating Layer inception_4e/1x1
I0403 16:33:10.713150 21194 net.cpp:425] inception_4e/1x1 <- inception_4d/output_inception_4d/output_0_split_1
I0403 16:33:10.713170 21194 net.cpp:399] inception_4e/1x1 -> inception_4e/1x1
I0403 16:33:10.714936 21194 net.cpp:141] Setting up inception_4e/1x1
I0403 16:33:10.714962 21194 net.cpp:148] Top shape: 24 256 14 14 (1204224)
I0403 16:33:10.714977 21194 net.cpp:156] Memory required for data: 1213249056
I0403 16:33:10.715011 21194 layer_factory.hpp:77] Creating layer inception_4e/relu_1x1
I0403 16:33:10.715034 21194 net.cpp:91] Creating Layer inception_4e/relu_1x1
I0403 16:33:10.715050 21194 net.cpp:425] inception_4e/relu_1x1 <- inception_4e/1x1
I0403 16:33:10.715067 21194 net.cpp:386] inception_4e/relu_1x1 -> inception_4e/1x1 (in-place)
I0403 16:33:10.715373 21194 net.cpp:141] Setting up inception_4e/relu_1x1
I0403 16:33:10.715399 21194 net.cpp:148] Top shape: 24 256 14 14 (1204224)
I0403 16:33:10.715414 21194 net.cpp:156] Memory required for data: 1218065952
I0403 16:33:10.715428 21194 layer_factory.hpp:77] Creating layer inception_4e/3x3_reduce
I0403 16:33:10.715450 21194 net.cpp:91] Creating Layer inception_4e/3x3_reduce
I0403 16:33:10.715468 21194 net.cpp:425] inception_4e/3x3_reduce <- inception_4d/output_inception_4d/output_0_split_2
I0403 16:33:10.715487 21194 net.cpp:399] inception_4e/3x3_reduce -> inception_4e/3x3_reduce
I0403 16:33:10.717607 21194 net.cpp:141] Setting up inception_4e/3x3_reduce
I0403 16:33:10.717635 21194 net.cpp:148] Top shape: 24 160 14 14 (752640)
I0403 16:33:10.717650 21194 net.cpp:156] Memory required for data: 1221076512
I0403 16:33:10.717669 21194 layer_factory.hpp:77] Creating layer inception_4e/relu_3x3_reduce
I0403 16:33:10.717689 21194 net.cpp:91] Creating Layer inception_4e/relu_3x3_reduce
I0403 16:33:10.717706 21194 net.cpp:425] inception_4e/relu_3x3_reduce <- inception_4e/3x3_reduce
I0403 16:33:10.717723 21194 net.cpp:386] inception_4e/relu_3x3_reduce -> inception_4e/3x3_reduce (in-place)
I0403 16:33:10.717913 21194 net.cpp:141] Setting up inception_4e/relu_3x3_reduce
I0403 16:33:10.717938 21194 net.cpp:148] Top shape: 24 160 14 14 (752640)
I0403 16:33:10.717952 21194 net.cpp:156] Memory required for data: 1224087072
I0403 16:33:10.717967 21194 layer_factory.hpp:77] Creating layer inception_4e/3x3
I0403 16:33:10.717994 21194 net.cpp:91] Creating Layer inception_4e/3x3
I0403 16:33:10.718014 21194 net.cpp:425] inception_4e/3x3 <- inception_4e/3x3_reduce
I0403 16:33:10.718032 21194 net.cpp:399] inception_4e/3x3 -> inception_4e/3x3
I0403 16:33:10.723069 21194 net.cpp:141] Setting up inception_4e/3x3
I0403 16:33:10.723109 21194 net.cpp:148] Top shape: 24 320 14 14 (1505280)
I0403 16:33:10.723126 21194 net.cpp:156] Memory required for data: 1230108192
I0403 16:33:10.723145 21194 layer_factory.hpp:77] Creating layer inception_4e/relu_3x3
I0403 16:33:10.723167 21194 net.cpp:91] Creating Layer inception_4e/relu_3x3
I0403 16:33:10.723184 21194 net.cpp:425] inception_4e/relu_3x3 <- inception_4e/3x3
I0403 16:33:10.723201 21194 net.cpp:386] inception_4e/relu_3x3 -> inception_4e/3x3 (in-place)
I0403 16:33:10.723501 21194 net.cpp:141] Setting up inception_4e/relu_3x3
I0403 16:33:10.723531 21194 net.cpp:148] Top shape: 24 320 14 14 (1505280)
I0403 16:33:10.723546 21194 net.cpp:156] Memory required for data: 1236129312
I0403 16:33:10.723562 21194 layer_factory.hpp:77] Creating layer inception_4e/5x5_reduce
I0403 16:33:10.723584 21194 net.cpp:91] Creating Layer inception_4e/5x5_reduce
I0403 16:33:10.723603 21194 net.cpp:425] inception_4e/5x5_reduce <- inception_4d/output_inception_4d/output_0_split_3
I0403 16:33:10.723621 21194 net.cpp:399] inception_4e/5x5_reduce -> inception_4e/5x5_reduce
I0403 16:33:10.724705 21194 net.cpp:141] Setting up inception_4e/5x5_reduce
I0403 16:33:10.724732 21194 net.cpp:148] Top shape: 24 32 14 14 (150528)
I0403 16:33:10.724748 21194 net.cpp:156] Memory required for data: 1236731424
I0403 16:33:10.724766 21194 layer_factory.hpp:77] Creating layer inception_4e/relu_5x5_reduce
I0403 16:33:10.724787 21194 net.cpp:91] Creating Layer inception_4e/relu_5x5_reduce
I0403 16:33:10.724803 21194 net.cpp:425] inception_4e/relu_5x5_reduce <- inception_4e/5x5_reduce
I0403 16:33:10.724822 21194 net.cpp:386] inception_4e/relu_5x5_reduce -> inception_4e/5x5_reduce (in-place)
I0403 16:33:10.725142 21194 net.cpp:141] Setting up inception_4e/relu_5x5_reduce
I0403 16:33:10.725169 21194 net.cpp:148] Top shape: 24 32 14 14 (150528)
I0403 16:33:10.725184 21194 net.cpp:156] Memory required for data: 1237333536
I0403 16:33:10.725199 21194 layer_factory.hpp:77] Creating layer inception_4e/5x5
I0403 16:33:10.725237 21194 net.cpp:91] Creating Layer inception_4e/5x5
I0403 16:33:10.725257 21194 net.cpp:425] inception_4e/5x5 <- inception_4e/5x5_reduce
I0403 16:33:10.725291 21194 net.cpp:399] inception_4e/5x5 -> inception_4e/5x5
I0403 16:33:10.727152 21194 net.cpp:141] Setting up inception_4e/5x5
I0403 16:33:10.727180 21194 net.cpp:148] Top shape: 24 128 14 14 (602112)
I0403 16:33:10.727195 21194 net.cpp:156] Memory required for data: 1239741984
I0403 16:33:10.727215 21194 layer_factory.hpp:77] Creating layer inception_4e/relu_5x5
I0403 16:33:10.727232 21194 net.cpp:91] Creating Layer inception_4e/relu_5x5
I0403 16:33:10.727248 21194 net.cpp:425] inception_4e/relu_5x5 <- inception_4e/5x5
I0403 16:33:10.727268 21194 net.cpp:386] inception_4e/relu_5x5 -> inception_4e/5x5 (in-place)
I0403 16:33:10.727464 21194 net.cpp:141] Setting up inception_4e/relu_5x5
I0403 16:33:10.727489 21194 net.cpp:148] Top shape: 24 128 14 14 (602112)
I0403 16:33:10.727504 21194 net.cpp:156] Memory required for data: 1242150432
I0403 16:33:10.727519 21194 layer_factory.hpp:77] Creating layer inception_4e/pool
I0403 16:33:10.727540 21194 net.cpp:91] Creating Layer inception_4e/pool
I0403 16:33:10.727556 21194 net.cpp:425] inception_4e/pool <- inception_4d/output_inception_4d/output_0_split_4
I0403 16:33:10.727574 21194 net.cpp:399] inception_4e/pool -> inception_4e/pool
I0403 16:33:10.727645 21194 net.cpp:141] Setting up inception_4e/pool
I0403 16:33:10.727669 21194 net.cpp:148] Top shape: 24 528 14 14 (2483712)
I0403 16:33:10.727684 21194 net.cpp:156] Memory required for data: 1252085280
I0403 16:33:10.727697 21194 layer_factory.hpp:77] Creating layer inception_4e/pool_proj
I0403 16:33:10.727720 21194 net.cpp:91] Creating Layer inception_4e/pool_proj
I0403 16:33:10.727736 21194 net.cpp:425] inception_4e/pool_proj <- inception_4e/pool
I0403 16:33:10.727757 21194 net.cpp:399] inception_4e/pool_proj -> inception_4e/pool_proj
I0403 16:33:10.729364 21194 net.cpp:141] Setting up inception_4e/pool_proj
I0403 16:33:10.729393 21194 net.cpp:148] Top shape: 24 128 14 14 (602112)
I0403 16:33:10.729424 21194 net.cpp:156] Memory required for data: 1254493728
I0403 16:33:10.729444 21194 layer_factory.hpp:77] Creating layer inception_4e/relu_pool_proj
I0403 16:33:10.729463 21194 net.cpp:91] Creating Layer inception_4e/relu_pool_proj
I0403 16:33:10.729480 21194 net.cpp:425] inception_4e/relu_pool_proj <- inception_4e/pool_proj
I0403 16:33:10.729499 21194 net.cpp:386] inception_4e/relu_pool_proj -> inception_4e/pool_proj (in-place)
I0403 16:33:10.729804 21194 net.cpp:141] Setting up inception_4e/relu_pool_proj
I0403 16:33:10.729831 21194 net.cpp:148] Top shape: 24 128 14 14 (602112)
I0403 16:33:10.729846 21194 net.cpp:156] Memory required for data: 1256902176
I0403 16:33:10.729861 21194 layer_factory.hpp:77] Creating layer inception_4e/output
I0403 16:33:10.729879 21194 net.cpp:91] Creating Layer inception_4e/output
I0403 16:33:10.729895 21194 net.cpp:425] inception_4e/output <- inception_4e/1x1
I0403 16:33:10.729913 21194 net.cpp:425] inception_4e/output <- inception_4e/3x3
I0403 16:33:10.729929 21194 net.cpp:425] inception_4e/output <- inception_4e/5x5
I0403 16:33:10.729945 21194 net.cpp:425] inception_4e/output <- inception_4e/pool_proj
I0403 16:33:10.729965 21194 net.cpp:399] inception_4e/output -> inception_4e/output
I0403 16:33:10.730034 21194 net.cpp:141] Setting up inception_4e/output
I0403 16:33:10.730062 21194 net.cpp:148] Top shape: 24 832 14 14 (3913728)
I0403 16:33:10.730079 21194 net.cpp:156] Memory required for data: 1272557088
I0403 16:33:10.730094 21194 layer_factory.hpp:77] Creating layer pool4/3x3_s2
I0403 16:33:10.730113 21194 net.cpp:91] Creating Layer pool4/3x3_s2
I0403 16:33:10.730129 21194 net.cpp:425] pool4/3x3_s2 <- inception_4e/output
I0403 16:33:10.730149 21194 net.cpp:399] pool4/3x3_s2 -> pool4/3x3_s2
I0403 16:33:10.730222 21194 net.cpp:141] Setting up pool4/3x3_s2
I0403 16:33:10.730247 21194 net.cpp:148] Top shape: 24 832 7 7 (978432)
I0403 16:33:10.730263 21194 net.cpp:156] Memory required for data: 1276470816
I0403 16:33:10.730278 21194 layer_factory.hpp:77] Creating layer pool4/3x3_s2_pool4/3x3_s2_0_split
I0403 16:33:10.730309 21194 net.cpp:91] Creating Layer pool4/3x3_s2_pool4/3x3_s2_0_split
I0403 16:33:10.730324 21194 net.cpp:425] pool4/3x3_s2_pool4/3x3_s2_0_split <- pool4/3x3_s2
I0403 16:33:10.730345 21194 net.cpp:399] pool4/3x3_s2_pool4/3x3_s2_0_split -> pool4/3x3_s2_pool4/3x3_s2_0_split_0
I0403 16:33:10.730365 21194 net.cpp:399] pool4/3x3_s2_pool4/3x3_s2_0_split -> pool4/3x3_s2_pool4/3x3_s2_0_split_1
I0403 16:33:10.730386 21194 net.cpp:399] pool4/3x3_s2_pool4/3x3_s2_0_split -> pool4/3x3_s2_pool4/3x3_s2_0_split_2
I0403 16:33:10.730406 21194 net.cpp:399] pool4/3x3_s2_pool4/3x3_s2_0_split -> pool4/3x3_s2_pool4/3x3_s2_0_split_3
I0403 16:33:10.730509 21194 net.cpp:141] Setting up pool4/3x3_s2_pool4/3x3_s2_0_split
I0403 16:33:10.730533 21194 net.cpp:148] Top shape: 24 832 7 7 (978432)
I0403 16:33:10.730550 21194 net.cpp:148] Top shape: 24 832 7 7 (978432)
I0403 16:33:10.730566 21194 net.cpp:148] Top shape: 24 832 7 7 (978432)
I0403 16:33:10.730581 21194 net.cpp:148] Top shape: 24 832 7 7 (978432)
I0403 16:33:10.730595 21194 net.cpp:156] Memory required for data: 1292125728
I0403 16:33:10.730610 21194 layer_factory.hpp:77] Creating layer inception_5a/1x1
I0403 16:33:10.730633 21194 net.cpp:91] Creating Layer inception_5a/1x1
I0403 16:33:10.730651 21194 net.cpp:425] inception_5a/1x1 <- pool4/3x3_s2_pool4/3x3_s2_0_split_0
I0403 16:33:10.730672 21194 net.cpp:399] inception_5a/1x1 -> inception_5a/1x1
I0403 16:33:10.733664 21194 net.cpp:141] Setting up inception_5a/1x1
I0403 16:33:10.733695 21194 net.cpp:148] Top shape: 24 256 7 7 (301056)
I0403 16:33:10.733711 21194 net.cpp:156] Memory required for data: 1293329952
I0403 16:33:10.733729 21194 layer_factory.hpp:77] Creating layer inception_5a/relu_1x1
I0403 16:33:10.733750 21194 net.cpp:91] Creating Layer inception_5a/relu_1x1
I0403 16:33:10.733767 21194 net.cpp:425] inception_5a/relu_1x1 <- inception_5a/1x1
I0403 16:33:10.733785 21194 net.cpp:386] inception_5a/relu_1x1 -> inception_5a/1x1 (in-place)
I0403 16:33:10.734112 21194 net.cpp:141] Setting up inception_5a/relu_1x1
I0403 16:33:10.734139 21194 net.cpp:148] Top shape: 24 256 7 7 (301056)
I0403 16:33:10.734154 21194 net.cpp:156] Memory required for data: 1294534176
I0403 16:33:10.734170 21194 layer_factory.hpp:77] Creating layer inception_5a/3x3_reduce
I0403 16:33:10.734194 21194 net.cpp:91] Creating Layer inception_5a/3x3_reduce
I0403 16:33:10.734211 21194 net.cpp:425] inception_5a/3x3_reduce <- pool4/3x3_s2_pool4/3x3_s2_0_split_1
I0403 16:33:10.734232 21194 net.cpp:399] inception_5a/3x3_reduce -> inception_5a/3x3_reduce
I0403 16:33:10.736821 21194 net.cpp:141] Setting up inception_5a/3x3_reduce
I0403 16:33:10.736852 21194 net.cpp:148] Top shape: 24 160 7 7 (188160)
I0403 16:33:10.736868 21194 net.cpp:156] Memory required for data: 1295286816
I0403 16:33:10.736887 21194 layer_factory.hpp:77] Creating layer inception_5a/relu_3x3_reduce
I0403 16:33:10.736904 21194 net.cpp:91] Creating Layer inception_5a/relu_3x3_reduce
I0403 16:33:10.736922 21194 net.cpp:425] inception_5a/relu_3x3_reduce <- inception_5a/3x3_reduce
I0403 16:33:10.736940 21194 net.cpp:386] inception_5a/relu_3x3_reduce -> inception_5a/3x3_reduce (in-place)
I0403 16:33:10.737134 21194 net.cpp:141] Setting up inception_5a/relu_3x3_reduce
I0403 16:33:10.737159 21194 net.cpp:148] Top shape: 24 160 7 7 (188160)
I0403 16:33:10.737174 21194 net.cpp:156] Memory required for data: 1296039456
I0403 16:33:10.737188 21194 layer_factory.hpp:77] Creating layer inception_5a/3x3
I0403 16:33:10.737211 21194 net.cpp:91] Creating Layer inception_5a/3x3
I0403 16:33:10.737228 21194 net.cpp:425] inception_5a/3x3 <- inception_5a/3x3_reduce
I0403 16:33:10.737252 21194 net.cpp:399] inception_5a/3x3 -> inception_5a/3x3
I0403 16:33:10.742339 21194 net.cpp:141] Setting up inception_5a/3x3
I0403 16:33:10.742370 21194 net.cpp:148] Top shape: 24 320 7 7 (376320)
I0403 16:33:10.742386 21194 net.cpp:156] Memory required for data: 1297544736
I0403 16:33:10.742404 21194 layer_factory.hpp:77] Creating layer inception_5a/relu_3x3
I0403 16:33:10.742422 21194 net.cpp:91] Creating Layer inception_5a/relu_3x3
I0403 16:33:10.742439 21194 net.cpp:425] inception_5a/relu_3x3 <- inception_5a/3x3
I0403 16:33:10.742458 21194 net.cpp:386] inception_5a/relu_3x3 -> inception_5a/3x3 (in-place)
I0403 16:33:10.742754 21194 net.cpp:141] Setting up inception_5a/relu_3x3
I0403 16:33:10.742780 21194 net.cpp:148] Top shape: 24 320 7 7 (376320)
I0403 16:33:10.742795 21194 net.cpp:156] Memory required for data: 1299050016
I0403 16:33:10.742810 21194 layer_factory.hpp:77] Creating layer inception_5a/5x5_reduce
I0403 16:33:10.742833 21194 net.cpp:91] Creating Layer inception_5a/5x5_reduce
I0403 16:33:10.742851 21194 net.cpp:425] inception_5a/5x5_reduce <- pool4/3x3_s2_pool4/3x3_s2_0_split_2
I0403 16:33:10.742872 21194 net.cpp:399] inception_5a/5x5_reduce -> inception_5a/5x5_reduce
I0403 16:33:10.744076 21194 net.cpp:141] Setting up inception_5a/5x5_reduce
I0403 16:33:10.744107 21194 net.cpp:148] Top shape: 24 32 7 7 (37632)
I0403 16:33:10.744124 21194 net.cpp:156] Memory required for data: 1299200544
I0403 16:33:10.744143 21194 layer_factory.hpp:77] Creating layer inception_5a/relu_5x5_reduce
I0403 16:33:10.744159 21194 net.cpp:91] Creating Layer inception_5a/relu_5x5_reduce
I0403 16:33:10.744175 21194 net.cpp:425] inception_5a/relu_5x5_reduce <- inception_5a/5x5_reduce
I0403 16:33:10.744192 21194 net.cpp:386] inception_5a/relu_5x5_reduce -> inception_5a/5x5_reduce (in-place)
I0403 16:33:10.744499 21194 net.cpp:141] Setting up inception_5a/relu_5x5_reduce
I0403 16:33:10.744525 21194 net.cpp:148] Top shape: 24 32 7 7 (37632)
I0403 16:33:10.744540 21194 net.cpp:156] Memory required for data: 1299351072
I0403 16:33:10.744555 21194 layer_factory.hpp:77] Creating layer inception_5a/5x5
I0403 16:33:10.744577 21194 net.cpp:91] Creating Layer inception_5a/5x5
I0403 16:33:10.744596 21194 net.cpp:425] inception_5a/5x5 <- inception_5a/5x5_reduce
I0403 16:33:10.744616 21194 net.cpp:399] inception_5a/5x5 -> inception_5a/5x5
I0403 16:33:10.746398 21194 net.cpp:141] Setting up inception_5a/5x5
I0403 16:33:10.746438 21194 net.cpp:148] Top shape: 24 128 7 7 (150528)
I0403 16:33:10.746454 21194 net.cpp:156] Memory required for data: 1299953184
I0403 16:33:10.746474 21194 layer_factory.hpp:77] Creating layer inception_5a/relu_5x5
I0403 16:33:10.746491 21194 net.cpp:91] Creating Layer inception_5a/relu_5x5
I0403 16:33:10.746507 21194 net.cpp:425] inception_5a/relu_5x5 <- inception_5a/5x5
I0403 16:33:10.746526 21194 net.cpp:386] inception_5a/relu_5x5 -> inception_5a/5x5 (in-place)
I0403 16:33:10.746719 21194 net.cpp:141] Setting up inception_5a/relu_5x5
I0403 16:33:10.746744 21194 net.cpp:148] Top shape: 24 128 7 7 (150528)
I0403 16:33:10.746759 21194 net.cpp:156] Memory required for data: 1300555296
I0403 16:33:10.746774 21194 layer_factory.hpp:77] Creating layer inception_5a/pool
I0403 16:33:10.746795 21194 net.cpp:91] Creating Layer inception_5a/pool
I0403 16:33:10.746812 21194 net.cpp:425] inception_5a/pool <- pool4/3x3_s2_pool4/3x3_s2_0_split_3
I0403 16:33:10.746830 21194 net.cpp:399] inception_5a/pool -> inception_5a/pool
I0403 16:33:10.746902 21194 net.cpp:141] Setting up inception_5a/pool
I0403 16:33:10.746927 21194 net.cpp:148] Top shape: 24 832 7 7 (978432)
I0403 16:33:10.746942 21194 net.cpp:156] Memory required for data: 1304469024
I0403 16:33:10.746955 21194 layer_factory.hpp:77] Creating layer inception_5a/pool_proj
I0403 16:33:10.746978 21194 net.cpp:91] Creating Layer inception_5a/pool_proj
I0403 16:33:10.747000 21194 net.cpp:425] inception_5a/pool_proj <- inception_5a/pool
I0403 16:33:10.747022 21194 net.cpp:399] inception_5a/pool_proj -> inception_5a/pool_proj
I0403 16:33:10.749356 21194 net.cpp:141] Setting up inception_5a/pool_proj
I0403 16:33:10.749387 21194 net.cpp:148] Top shape: 24 128 7 7 (150528)
I0403 16:33:10.749405 21194 net.cpp:156] Memory required for data: 1305071136
I0403 16:33:10.749424 21194 layer_factory.hpp:77] Creating layer inception_5a/relu_pool_proj
I0403 16:33:10.749441 21194 net.cpp:91] Creating Layer inception_5a/relu_pool_proj
I0403 16:33:10.749457 21194 net.cpp:425] inception_5a/relu_pool_proj <- inception_5a/pool_proj
I0403 16:33:10.749477 21194 net.cpp:386] inception_5a/relu_pool_proj -> inception_5a/pool_proj (in-place)
I0403 16:33:10.749773 21194 net.cpp:141] Setting up inception_5a/relu_pool_proj
I0403 16:33:10.749799 21194 net.cpp:148] Top shape: 24 128 7 7 (150528)
I0403 16:33:10.749814 21194 net.cpp:156] Memory required for data: 1305673248
I0403 16:33:10.749828 21194 layer_factory.hpp:77] Creating layer inception_5a/output
I0403 16:33:10.749846 21194 net.cpp:91] Creating Layer inception_5a/output
I0403 16:33:10.749861 21194 net.cpp:425] inception_5a/output <- inception_5a/1x1
I0403 16:33:10.749878 21194 net.cpp:425] inception_5a/output <- inception_5a/3x3
I0403 16:33:10.749894 21194 net.cpp:425] inception_5a/output <- inception_5a/5x5
I0403 16:33:10.749910 21194 net.cpp:425] inception_5a/output <- inception_5a/pool_proj
I0403 16:33:10.749930 21194 net.cpp:399] inception_5a/output -> inception_5a/output
I0403 16:33:10.749979 21194 net.cpp:141] Setting up inception_5a/output
I0403 16:33:10.750020 21194 net.cpp:148] Top shape: 24 832 7 7 (978432)
I0403 16:33:10.750036 21194 net.cpp:156] Memory required for data: 1309586976
I0403 16:33:10.750051 21194 layer_factory.hpp:77] Creating layer inception_5a/output_inception_5a/output_0_split
I0403 16:33:10.750072 21194 net.cpp:91] Creating Layer inception_5a/output_inception_5a/output_0_split
I0403 16:33:10.750088 21194 net.cpp:425] inception_5a/output_inception_5a/output_0_split <- inception_5a/output
I0403 16:33:10.750107 21194 net.cpp:399] inception_5a/output_inception_5a/output_0_split -> inception_5a/output_inception_5a/output_0_split_0
I0403 16:33:10.750129 21194 net.cpp:399] inception_5a/output_inception_5a/output_0_split -> inception_5a/output_inception_5a/output_0_split_1
I0403 16:33:10.750151 21194 net.cpp:399] inception_5a/output_inception_5a/output_0_split -> inception_5a/output_inception_5a/output_0_split_2
I0403 16:33:10.750172 21194 net.cpp:399] inception_5a/output_inception_5a/output_0_split -> inception_5a/output_inception_5a/output_0_split_3
I0403 16:33:10.750298 21194 net.cpp:141] Setting up inception_5a/output_inception_5a/output_0_split
I0403 16:33:10.750322 21194 net.cpp:148] Top shape: 24 832 7 7 (978432)
I0403 16:33:10.750339 21194 net.cpp:148] Top shape: 24 832 7 7 (978432)
I0403 16:33:10.750355 21194 net.cpp:148] Top shape: 24 832 7 7 (978432)
I0403 16:33:10.750370 21194 net.cpp:148] Top shape: 24 832 7 7 (978432)
I0403 16:33:10.750383 21194 net.cpp:156] Memory required for data: 1325241888
I0403 16:33:10.750398 21194 layer_factory.hpp:77] Creating layer inception_5b/1x1
I0403 16:33:10.750421 21194 net.cpp:91] Creating Layer inception_5b/1x1
I0403 16:33:10.750438 21194 net.cpp:425] inception_5b/1x1 <- inception_5a/output_inception_5a/output_0_split_0
I0403 16:33:10.750459 21194 net.cpp:399] inception_5b/1x1 -> inception_5b/1x1
I0403 16:33:10.754426 21194 net.cpp:141] Setting up inception_5b/1x1
I0403 16:33:10.754458 21194 net.cpp:148] Top shape: 24 384 7 7 (451584)
I0403 16:33:10.754475 21194 net.cpp:156] Memory required for data: 1327048224
I0403 16:33:10.754494 21194 layer_factory.hpp:77] Creating layer inception_5b/relu_1x1
I0403 16:33:10.754513 21194 net.cpp:91] Creating Layer inception_5b/relu_1x1
I0403 16:33:10.754529 21194 net.cpp:425] inception_5b/relu_1x1 <- inception_5b/1x1
I0403 16:33:10.754549 21194 net.cpp:386] inception_5b/relu_1x1 -> inception_5b/1x1 (in-place)
I0403 16:33:10.754868 21194 net.cpp:141] Setting up inception_5b/relu_1x1
I0403 16:33:10.754896 21194 net.cpp:148] Top shape: 24 384 7 7 (451584)
I0403 16:33:10.754914 21194 net.cpp:156] Memory required for data: 1328854560
I0403 16:33:10.754930 21194 layer_factory.hpp:77] Creating layer inception_5b/3x3_reduce
I0403 16:33:10.754952 21194 net.cpp:91] Creating Layer inception_5b/3x3_reduce
I0403 16:33:10.754971 21194 net.cpp:425] inception_5b/3x3_reduce <- inception_5a/output_inception_5a/output_0_split_1
I0403 16:33:10.755007 21194 net.cpp:399] inception_5b/3x3_reduce -> inception_5b/3x3_reduce
I0403 16:33:10.757735 21194 net.cpp:141] Setting up inception_5b/3x3_reduce
I0403 16:33:10.757766 21194 net.cpp:148] Top shape: 24 192 7 7 (225792)
I0403 16:33:10.757783 21194 net.cpp:156] Memory required for data: 1329757728
I0403 16:33:10.757802 21194 layer_factory.hpp:77] Creating layer inception_5b/relu_3x3_reduce
I0403 16:33:10.757820 21194 net.cpp:91] Creating Layer inception_5b/relu_3x3_reduce
I0403 16:33:10.757836 21194 net.cpp:425] inception_5b/relu_3x3_reduce <- inception_5b/3x3_reduce
I0403 16:33:10.757856 21194 net.cpp:386] inception_5b/relu_3x3_reduce -> inception_5b/3x3_reduce (in-place)
I0403 16:33:10.758049 21194 net.cpp:141] Setting up inception_5b/relu_3x3_reduce
I0403 16:33:10.758075 21194 net.cpp:148] Top shape: 24 192 7 7 (225792)
I0403 16:33:10.758090 21194 net.cpp:156] Memory required for data: 1330660896
I0403 16:33:10.758105 21194 layer_factory.hpp:77] Creating layer inception_5b/3x3
I0403 16:33:10.758127 21194 net.cpp:91] Creating Layer inception_5b/3x3
I0403 16:33:10.758146 21194 net.cpp:425] inception_5b/3x3 <- inception_5b/3x3_reduce
I0403 16:33:10.758167 21194 net.cpp:399] inception_5b/3x3 -> inception_5b/3x3
I0403 16:33:10.764937 21194 net.cpp:141] Setting up inception_5b/3x3
I0403 16:33:10.764966 21194 net.cpp:148] Top shape: 24 384 7 7 (451584)
I0403 16:33:10.764982 21194 net.cpp:156] Memory required for data: 1332467232
I0403 16:33:10.765022 21194 layer_factory.hpp:77] Creating layer inception_5b/relu_3x3
I0403 16:33:10.765040 21194 net.cpp:91] Creating Layer inception_5b/relu_3x3
I0403 16:33:10.765058 21194 net.cpp:425] inception_5b/relu_3x3 <- inception_5b/3x3
I0403 16:33:10.765079 21194 net.cpp:386] inception_5b/relu_3x3 -> inception_5b/3x3 (in-place)
I0403 16:33:10.765396 21194 net.cpp:141] Setting up inception_5b/relu_3x3
I0403 16:33:10.765424 21194 net.cpp:148] Top shape: 24 384 7 7 (451584)
I0403 16:33:10.765439 21194 net.cpp:156] Memory required for data: 1334273568
I0403 16:33:10.765453 21194 layer_factory.hpp:77] Creating layer inception_5b/5x5_reduce
I0403 16:33:10.765493 21194 net.cpp:91] Creating Layer inception_5b/5x5_reduce
I0403 16:33:10.765512 21194 net.cpp:425] inception_5b/5x5_reduce <- inception_5a/output_inception_5a/output_0_split_2
I0403 16:33:10.765537 21194 net.cpp:399] inception_5b/5x5_reduce -> inception_5b/5x5_reduce
I0403 16:33:10.766844 21194 net.cpp:141] Setting up inception_5b/5x5_reduce
I0403 16:33:10.766872 21194 net.cpp:148] Top shape: 24 48 7 7 (56448)
I0403 16:33:10.766887 21194 net.cpp:156] Memory required for data: 1334499360
I0403 16:33:10.766906 21194 layer_factory.hpp:77] Creating layer inception_5b/relu_5x5_reduce
I0403 16:33:10.766923 21194 net.cpp:91] Creating Layer inception_5b/relu_5x5_reduce
I0403 16:33:10.766939 21194 net.cpp:425] inception_5b/relu_5x5_reduce <- inception_5b/5x5_reduce
I0403 16:33:10.766959 21194 net.cpp:386] inception_5b/relu_5x5_reduce -> inception_5b/5x5_reduce (in-place)
I0403 16:33:10.767491 21194 net.cpp:141] Setting up inception_5b/relu_5x5_reduce
I0403 16:33:10.767519 21194 net.cpp:148] Top shape: 24 48 7 7 (56448)
I0403 16:33:10.767534 21194 net.cpp:156] Memory required for data: 1334725152
I0403 16:33:10.767549 21194 layer_factory.hpp:77] Creating layer inception_5b/5x5
I0403 16:33:10.767570 21194 net.cpp:91] Creating Layer inception_5b/5x5
I0403 16:33:10.767587 21194 net.cpp:425] inception_5b/5x5 <- inception_5b/5x5_reduce
I0403 16:33:10.767606 21194 net.cpp:399] inception_5b/5x5 -> inception_5b/5x5
I0403 16:33:10.769821 21194 net.cpp:141] Setting up inception_5b/5x5
I0403 16:33:10.769850 21194 net.cpp:148] Top shape: 24 128 7 7 (150528)
I0403 16:33:10.769865 21194 net.cpp:156] Memory required for data: 1335327264
I0403 16:33:10.769882 21194 layer_factory.hpp:77] Creating layer inception_5b/relu_5x5
I0403 16:33:10.769903 21194 net.cpp:91] Creating Layer inception_5b/relu_5x5
I0403 16:33:10.769920 21194 net.cpp:425] inception_5b/relu_5x5 <- inception_5b/5x5
I0403 16:33:10.769938 21194 net.cpp:386] inception_5b/relu_5x5 -> inception_5b/5x5 (in-place)
I0403 16:33:10.770167 21194 net.cpp:141] Setting up inception_5b/relu_5x5
I0403 16:33:10.770195 21194 net.cpp:148] Top shape: 24 128 7 7 (150528)
I0403 16:33:10.770210 21194 net.cpp:156] Memory required for data: 1335929376
I0403 16:33:10.770226 21194 layer_factory.hpp:77] Creating layer inception_5b/pool
I0403 16:33:10.770249 21194 net.cpp:91] Creating Layer inception_5b/pool
I0403 16:33:10.770267 21194 net.cpp:425] inception_5b/pool <- inception_5a/output_inception_5a/output_0_split_3
I0403 16:33:10.770298 21194 net.cpp:399] inception_5b/pool -> inception_5b/pool
I0403 16:33:10.770375 21194 net.cpp:141] Setting up inception_5b/pool
I0403 16:33:10.770409 21194 net.cpp:148] Top shape: 24 832 7 7 (978432)
I0403 16:33:10.770426 21194 net.cpp:156] Memory required for data: 1339843104
I0403 16:33:10.770442 21194 layer_factory.hpp:77] Creating layer inception_5b/pool_proj
I0403 16:33:10.770464 21194 net.cpp:91] Creating Layer inception_5b/pool_proj
I0403 16:33:10.770483 21194 net.cpp:425] inception_5b/pool_proj <- inception_5b/pool
I0403 16:33:10.770504 21194 net.cpp:399] inception_5b/pool_proj -> inception_5b/pool_proj
I0403 16:33:10.772944 21194 net.cpp:141] Setting up inception_5b/pool_proj
I0403 16:33:10.772975 21194 net.cpp:148] Top shape: 24 128 7 7 (150528)
I0403 16:33:10.772996 21194 net.cpp:156] Memory required for data: 1340445216
I0403 16:33:10.773016 21194 layer_factory.hpp:77] Creating layer inception_5b/relu_pool_proj
I0403 16:33:10.773036 21194 net.cpp:91] Creating Layer inception_5b/relu_pool_proj
I0403 16:33:10.773052 21194 net.cpp:425] inception_5b/relu_pool_proj <- inception_5b/pool_proj
I0403 16:33:10.773073 21194 net.cpp:386] inception_5b/relu_pool_proj -> inception_5b/pool_proj (in-place)
I0403 16:33:10.773394 21194 net.cpp:141] Setting up inception_5b/relu_pool_proj
I0403 16:33:10.773422 21194 net.cpp:148] Top shape: 24 128 7 7 (150528)
I0403 16:33:10.773437 21194 net.cpp:156] Memory required for data: 1341047328
I0403 16:33:10.773450 21194 layer_factory.hpp:77] Creating layer inception_5b/output
I0403 16:33:10.773468 21194 net.cpp:91] Creating Layer inception_5b/output
I0403 16:33:10.773499 21194 net.cpp:425] inception_5b/output <- inception_5b/1x1
I0403 16:33:10.773517 21194 net.cpp:425] inception_5b/output <- inception_5b/3x3
I0403 16:33:10.773533 21194 net.cpp:425] inception_5b/output <- inception_5b/5x5
I0403 16:33:10.773550 21194 net.cpp:425] inception_5b/output <- inception_5b/pool_proj
I0403 16:33:10.773568 21194 net.cpp:399] inception_5b/output -> inception_5b/output
I0403 16:33:10.773622 21194 net.cpp:141] Setting up inception_5b/output
I0403 16:33:10.773648 21194 net.cpp:148] Top shape: 24 1024 7 7 (1204224)
I0403 16:33:10.773663 21194 net.cpp:156] Memory required for data: 1345864224
I0403 16:33:10.773677 21194 layer_factory.hpp:77] Creating layer pool5/7x7_s1
I0403 16:33:10.773694 21194 net.cpp:91] Creating Layer pool5/7x7_s1
I0403 16:33:10.773711 21194 net.cpp:425] pool5/7x7_s1 <- inception_5b/output
I0403 16:33:10.773730 21194 net.cpp:399] pool5/7x7_s1 -> pool5/7x7_s1
I0403 16:33:10.773949 21194 net.cpp:141] Setting up pool5/7x7_s1
I0403 16:33:10.773975 21194 net.cpp:148] Top shape: 24 1024 1 1 (24576)
I0403 16:33:10.773994 21194 net.cpp:156] Memory required for data: 1345962528
I0403 16:33:10.774010 21194 layer_factory.hpp:77] Creating layer pool5/drop_7x7_s1
I0403 16:33:10.774029 21194 net.cpp:91] Creating Layer pool5/drop_7x7_s1
I0403 16:33:10.774044 21194 net.cpp:425] pool5/drop_7x7_s1 <- pool5/7x7_s1
I0403 16:33:10.774063 21194 net.cpp:386] pool5/drop_7x7_s1 -> pool5/7x7_s1 (in-place)
I0403 16:33:10.774114 21194 net.cpp:141] Setting up pool5/drop_7x7_s1
I0403 16:33:10.774140 21194 net.cpp:148] Top shape: 24 1024 1 1 (24576)
I0403 16:33:10.774155 21194 net.cpp:156] Memory required for data: 1346060832
I0403 16:33:10.774170 21194 layer_factory.hpp:77] Creating layer loss3/classifier_plantvillage
I0403 16:33:10.774188 21194 net.cpp:91] Creating Layer loss3/classifier_plantvillage
I0403 16:33:10.774204 21194 net.cpp:425] loss3/classifier_plantvillage <- pool5/7x7_s1
I0403 16:33:10.774225 21194 net.cpp:399] loss3/classifier_plantvillage -> loss3/classifier_plantvillage
I0403 16:33:10.774659 21194 net.cpp:141] Setting up loss3/classifier_plantvillage
I0403 16:33:10.774683 21194 net.cpp:148] Top shape: 24 38 (912)
I0403 16:33:10.774698 21194 net.cpp:156] Memory required for data: 1346064480
I0403 16:33:10.774716 21194 layer_factory.hpp:77] Creating layer loss3/classifier_plantvillage_loss3/classifier_plantvillage_0_split
I0403 16:33:10.774737 21194 net.cpp:91] Creating Layer loss3/classifier_plantvillage_loss3/classifier_plantvillage_0_split
I0403 16:33:10.774755 21194 net.cpp:425] loss3/classifier_plantvillage_loss3/classifier_plantvillage_0_split <- loss3/classifier_plantvillage
I0403 16:33:10.774772 21194 net.cpp:399] loss3/classifier_plantvillage_loss3/classifier_plantvillage_0_split -> loss3/classifier_plantvillage_loss3/classifier_plantvillage_0_split_0
I0403 16:33:10.774796 21194 net.cpp:399] loss3/classifier_plantvillage_loss3/classifier_plantvillage_0_split -> loss3/classifier_plantvillage_loss3/classifier_plantvillage_0_split_1
I0403 16:33:10.774816 21194 net.cpp:399] loss3/classifier_plantvillage_loss3/classifier_plantvillage_0_split -> loss3/classifier_plantvillage_loss3/classifier_plantvillage_0_split_2
I0403 16:33:10.774834 21194 net.cpp:399] loss3/classifier_plantvillage_loss3/classifier_plantvillage_0_split -> loss3/classifier_plantvillage_loss3/classifier_plantvillage_0_split_3
I0403 16:33:10.774937 21194 net.cpp:141] Setting up loss3/classifier_plantvillage_loss3/classifier_plantvillage_0_split
I0403 16:33:10.774960 21194 net.cpp:148] Top shape: 24 38 (912)
I0403 16:33:10.774976 21194 net.cpp:148] Top shape: 24 38 (912)
I0403 16:33:10.775009 21194 net.cpp:148] Top shape: 24 38 (912)
I0403 16:33:10.775028 21194 net.cpp:148] Top shape: 24 38 (912)
I0403 16:33:10.775043 21194 net.cpp:156] Memory required for data: 1346079072
I0403 16:33:10.775058 21194 layer_factory.hpp:77] Creating layer loss1/loss
I0403 16:33:10.775079 21194 net.cpp:91] Creating Layer loss1/loss
I0403 16:33:10.775096 21194 net.cpp:425] loss1/loss <- loss1/classifier_plantvillage_loss1/classifier_plantvillage_0_split_0
I0403 16:33:10.775127 21194 net.cpp:425] loss1/loss <- label_data_1_split_0
…
