…
I0403 16:41:25.378790 21354 net.cpp:313] The NetState phase (1) differed from the phase (0) specified by a rule in layer data
I0403 16:41:25.380038 21354 net.cpp:49] Initializing net from parameters: 
state {
  phase: TEST
}
layer {
  name: "data"
  type: "Data"
  top: "data"
  top: "label"
  include {
    phase: TEST
  }
  transform_param {
    mirror: false
    crop_size: 224
    mean_file: "/home/mohanty/data/final_dataset/lmdb/color-40-60/mean.binaryproto"
  }
  data_param {
    source: "/home/mohanty/data/final_dataset/lmdb/color-40-60/test_db"
    batch_size: 24
    backend: LMDB
  }
}
layer {
  name: "conv1/7x7_s2"
  type: "Convolution"
  bottom: "data"
  top: "conv1/7x7_s2"
  param {
    lr_mult: 1
    decay_mult: 1
  }
  param {
    lr_mult: 2
    decay_mult: 0
  }
  convolution_param {
    num_output: 64
    pad: 3
    kernel_size: 7
    stride: 2
    weight_filler {
      type: "xavier"
      std: 0.1
    }
    bias_filler {
      type: "constant"
      value: 0.2
    }
  }
}
layer {
  name: "conv1/relu_7x7"
  type: "ReLU"
  bottom: "conv1/7x7_s2"
  top: "conv1/7x7_s2"
}
layer {
  name: "pool1/3x3_s2"
  type: "Pooling"
  bottom: "conv1/7x7_s2"
  top: "pool1/3x3_s2"
  pooling_param {
    pool: MAX
    kernel_size: 3
    stride: 2
  }
}
layer {
  name: "pool1/norm1"
  type: "LRN"
  bottom: "pool1/3x3_s2"
  top: "pool1/norm1"
  lrn_param {
    local_size: 5
    alpha: 0.0001
    beta: 0.75
  }
}
layer {
  name: "conv2/3x3_reduce"
  type: "Convolution"
  bottom: "pool1/norm1"
  top: "conv2/3x3_reduce"
  param {
    lr_mult: 1
    decay_mult: 1
  }
  param {
    lr_mult: 2
    decay_mult: 0
  }
  convolution_param {
    num_output: 64
    kernel_size: 1
    weight_filler {
      type: "xavier"
      std: 0.1
    }
    bias_filler {
      type: "constant"
      value: 0.2
    }
  }
}
layer {
  name: "conv2/relu_3x3_reduce"
  type: "ReLU"
  bottom: "conv2/3x3_reduce"
  top: "conv2/3x3_reduce"
}
layer {
  name: "conv2/3x3"
  type: "Convolution"
  bottom: "conv2/3x3_reduce"
  top: "conv2/3x3"
  param {
    lr_mult: 1
    decay_mult: 1
  }
  param {
    lr_mult: 2
    decay_mult: 0
  }
  convolution_param {
    num_output: 192
    pad: 1
    kernel_size: 3
    weight_filler {
      type: "xavier"
      std: 0.03
    }
    bias_filler {
      type: "constant"
      value: 0.2
    }
  }
}
layer {
  name: "conv2/relu_3x3"
  type: "ReLU"
  bottom: "conv2/3x3"
  top: "conv2/3x3"
}
layer {
  name: "conv2/norm2"
  type: "LRN"
  bottom: "conv2/3x3"
  top: "conv2/norm2"
  lrn_param {
    local_size: 5
    alpha: 0.0001
    beta: 0.75
  }
}
layer {
  name: "pool2/3x3_s2"
  type: "Pooling"
  bottom: "conv2/norm2"
  top: "pool2/3x3_s2"
  pooling_param {
    pool: MAX
    kernel_size: 3
    stride: 2
  }
}
layer {
  name: "inception_3a/1x1"
  type: "Convolution"
  bottom: "pool2/3x3_s2"
  top: "inception_3a/1x1"
  param {
    lr_mult: 1
    decay_mult: 1
  }
  param {
    lr_mult: 2
    decay_mult: 0
  }
  convolution_param {
    num_output: 64
    kernel_size: 1
    weight_filler {
      type: "xavier"
      std: 0.03
    }
    bias_filler {
      type: "constant"
      value: 0.2
    }
  }
}
layer {
  name: "inception_3a/relu_1x1"
  type: "ReLU"
  bottom: "inception_3a/1x1"
  top: "inception_3a/1x1"
}
layer {
  name: "inception_3a/3x3_reduce"
  type: "Convolution"
  bottom: "pool2/3x3_s2"
  top: "inception_3a/3x3_reduce"
  param {
    lr_mult: 1
    decay_mult: 1
  }
  param {
    lr_mult: 2
    decay_mult: 0
  }
  convolution_param {
    num_output: 96
    kernel_size: 1
    weight_filler {
      type: "xavier"
      std: 0.09
    }
    bias_filler {
      type: "constant"
      value: 0.2
    }
  }
}
layer {
  name: "inception_3a/relu_3x3_reduce"
  type: "ReLU"
  bottom: "inception_3a/3x3_reduce"
  top: "inception_3a/3x3_reduce"
}
layer {
  name: "inception_3a/3x3"
  type: "Convolution"
  bottom: "inception_3a/3x3_reduce"
  top: "inception_3a/3x3"
  param {
    lr_mult: 1
    decay_mult: 1
  }
  param {
    lr_mult: 2
    decay_mult: 0
  }
  convolution_param {
    num_output: 128
    pad: 1
    kernel_size: 3
    weight_filler {
      type: "xavier"
      std: 0.03
    }
    bias_filler {
      type: "constant"
      value: 0.2
    }
  }
}
layer {
  name: "inception_3a/relu_3x3"
  type: "ReLU"
  bottom: "inception_3a/3x3"
  top: "inception_3a/3x3"
}
layer {
  name: "inception_3a/5x5_reduce"
  type: "Convolution"
  bottom: "pool2/3x3_s2"
  top: "inception_3a/5x5_reduce"
  param {
    lr_mult: 1
    decay_mult: 1
  }
  param {
    lr_mult: 2
    decay_mult: 0
  }
  convolution_param {
    num_output: 16
    kernel_size: 1
    weight_filler {
      type: "xavier"
      std: 0.2
    }
    bias_filler {
      type: "constant"
      value: 0.2
    }
  }
}
layer {
  name: "inception_3a/relu_5x5_reduce"
  type: "ReLU"
  bottom: "inception_3a/5x5_reduce"
  top: "inception_3a/5x5_reduce"
}
layer {
  name: "inception_3a/5x5"
  type: "Convolution"
  bottom: "inception_3a/5x5_reduce"
  top: "inception_3a/5x5"
  param {
    lr_mult: 1
    decay_mult: 1
  }
  param {
    lr_mult: 2
    decay_mult: 0
  }
  convolution_param {
    num_output: 32
    pad: 2
    kernel_size: 5
    weight_filler {
      type: "xavier"
      std: 0.03
    }
    bias_filler {
      type: "constant"
      value: 0.2
    }
  }
}
layer {
  name: "inception_3a/relu_5x5"
  type: "ReLU"
  bottom: "inception_3a/5x5"
  top: "inception_3a/5x5"
}
layer {
  name: "inception_3a/pool"
  type: "Pooling"
  bottom: "pool2/3x3_s2"
  top: "inception_3a/pool"
  pooling_param {
    pool: MAX
    kernel_size: 3
    stride: 1
    pad: 1
  }
}
layer {
  name: "inception_3a/pool_proj"
  type: "Convolution"
  bottom: "inception_3a/pool"
  top: "inception_3a/pool_proj"
  param {
    lr_mult: 1
    decay_mult: 1
  }
  param {
    lr_mult: 2
    decay_mult: 0
  }
  convolution_param {
    num_output: 32
    kernel_size: 1
    weight_filler {
      type: "xavier"
      std: 0.1
    }
    bias_filler {
      type: "constant"
      value: 0.2
    }
  }
}
layer {
  name: "inception_3a/relu_pool_proj"
  type: "ReLU"
  bottom: "inception_3a/pool_proj"
  top: "inception_3a/pool_proj"
}
layer {
  name: "inception_3a/output"
  type: "Concat"
  bottom: "inception_3a/1x1"
  bottom: "inception_3a/3x3"
  bottom: "inception_3a/5x5"
  bottom: "inception_3a/pool_proj"
  top: "inception_3a/output"
}
layer {
  name: "inception_3b/1x1"
  type: "Convolution"
  bottom: "inception_3a/output"
  top: "inception_3b/1x1"
  param {
    lr_mult: 1
    decay_mult: 1
  }
  param {
    lr_mult: 2
    decay_mult: 0
  }
  convolution_param {
    num_output: 128
    kernel_size: 1
    weight_filler {
      type: "xavier"
      std: 0.03
    }
    bias_filler {
      type: "constant"
      value: 0.2
    }
  }
}
layer {
  name: "inception_3b/relu_1x1"
  type: "ReLU"
  bottom: "inception_3b/1x1"
  top: "inception_3b/1x1"
}
layer {
  name: "inception_3b/3x3_reduce"
  type: "Convolution"
  bottom: "inception_3a/output"
  top: "inception_3b/3x3_reduce"
  param {
    lr_mult: 1
    decay_mult: 1
  }
  param {
    lr_mult: 2
    decay_mult: 0
  }
  convolution_param {
    num_output: 128
    kernel_size: 1
    weight_filler {
      type: "xavier"
      std: 0.09
    }
    bias_filler {
      type: "constant"
      value: 0.2
    }
  }
}
layer {
  name: "inception_3b/relu_3x3_reduce"
  type: "ReLU"
  bottom: "inception_3b/3x3_reduce"
  top: "inception_3b/3x3_reduce"
}
layer {
  name: "inception_3b/3x3"
  type: "Convolution"
  bottom: "inception_3b/3x3_reduce"
  top: "inception_3b/3x3"
  param {
    lr_mult: 1
    decay_mult: 1
  }
  param {
    lr_mult: 2
    decay_mult: 0
  }
  convolution_param {
    num_output: 192
    pad: 1
    kernel_size: 3
    weight_filler {
      type: "xavier"
      std: 0.03
    }
    bias_filler {
      type: "constant"
      value: 0.2
    }
  }
}
layer {
  name: "inception_3b/relu_3x3"
  type: "ReLU"
  bottom: "inception_3b/3x3"
  top: "inception_3b/3x3"
}
layer {
  name: "inception_3b/5x5_reduce"
  type: "Convolution"
  bottom: "inception_3a/output"
  top: "inception_3b/5x5_reduce"
  param {
    lr_mult: 1
    decay_mult: 1
  }
  param {
    lr_mult: 2
    decay_mult: 0
  }
  convolution_param {
    num_output: 32
    kernel_size: 1
    weight_filler {
      type: "xavier"
      std: 0.2
    }
    bias_filler {
      type: "constant"
      value: 0.2
    }
  }
}
layer {
  name: "inception_3b/relu_5x5_reduce"
  type: "ReLU"
  bottom: "inception_3b/5x5_reduce"
  top: "inception_3b/5x5_reduce"
}
layer {
  name: "inception_3b/5x5"
  type: "Convolution"
  bottom: "inception_3b/5x5_reduce"
  top: "inception_3b/5x5"
  param {
    lr_mult: 1
    decay_mult: 1
  }
  param {
    lr_mult: 2
    decay_mult: 0
  }
  convolution_param {
    num_output: 96
    pad: 2
    kernel_size: 5
    weight_filler {
      type: "xavier"
      std: 0.03
    }
    bias_filler {
      type: "constant"
      value: 0.2
    }
  }
}
layer {
  name: "inception_3b/relu_5x5"
  type: "ReLU"
  bottom: "inception_3b/5x5"
  top: "inception_3b/5x5"
}
layer {
  name: "inception_3b/pool"
  type: "Pooling"
  bottom: "inception_3a/output"
  top: "inception_3b/pool"
  pooling_param {
    pool: MAX
    kernel_size: 3
    stride: 1
    pad: 1
  }
}
layer {
  name: "inception_3b/pool_proj"
  type: "Convolution"
  bottom: "inception_3b/pool"
  top: "inception_3b/pool_proj"
  param {
    lr_mult: 1
    decay_mult: 1
  }
  param {
    lr_mult: 2
    decay_mult: 0
  }
  convolution_param {
    num_output: 64
    kernel_size: 1
    weight_filler {
      type: "xavier"
      std: 0.1
    }
    bias_filler {
      type: "constant"
      value: 0.2
    }
  }
}
layer {
  name: "inception_3b/relu_pool_proj"
  type: "ReLU"
  bottom: "inception_3b/pool_proj"
  top: "inception_3b/pool_proj"
}
layer {
  name: "inception_3b/output"
  type: "Concat"
  bottom: "inception_3b/1x1"
  bottom: "inception_3b/3x3"
  bottom: "inception_3b/5x5"
  bottom: "inception_3b/pool_proj"
  top: "inception_3b/output"
}
layer {
  name: "pool3/3x3_s2"
  type: "Pooling"
  bottom: "inception_3b/output"
  top: "pool3/3x3_s2"
  pooling_param {
    pool: MAX
    kernel_size: 3
    stride: 2
  }
}
layer {
  name: "inception_4a/1x1"
  type: "Convolution"
  bottom: "pool3/3x3_s2"
  top: "inception_4a/1x1"
  param {
    lr_mult: 1
    decay_mult: 1
  }
  param {
    lr_mult: 2
    decay_mult: 0
  }
  convolution_param {
    num_output: 192
    kernel_size: 1
    weight_filler {
      type: "xavier"
      std: 0.03
    }
    bias_filler {
      type: "constant"
      value: 0.2
    }
  }
}
layer {
  name: "inception_4a/relu_1x1"
  type: "ReLU"
  bottom: "inception_4a/1x1"
  top: "inception_4a/1x1"
}
layer {
  name: "inception_4a/3x3_reduce"
  type: "Convolution"
  bottom: "pool3/3x3_s2"
  top: "inception_4a/3x3_reduce"
  param {
    lr_mult: 1
    decay_mult: 1
  }
  param {
    lr_mult: 2
    decay_mult: 0
  }
  convolution_param {
    num_output: 96
    kernel_size: 1
    weight_filler {
      type: "xavier"
      std: 0.09
    }
    bias_filler {
      type: "constant"
      value: 0.2
    }
  }
}
layer {
  name: "inception_4a/relu_3x3_reduce"
  type: "ReLU"
  bottom: "inception_4a/3x3_reduce"
  top: "inception_4a/3x3_reduce"
}
layer {
  name: "inception_4a/3x3"
  type: "Convolution"
  bottom: "inception_4a/3x3_reduce"
  top: "inception_4a/3x3"
  param {
    lr_mult: 1
    decay_mult: 1
  }
  param {
    lr_mult: 2
    decay_mult: 0
  }
  convolution_param {
    num_output: 208
    pad: 1
    kernel_size: 3
    weight_filler {
      type: "xavier"
      std: 0.03
    }
    bias_filler {
      type: "constant"
      value: 0.2
    }
  }
}
layer {
  name: "inception_4a/relu_3x3"
  type: "ReLU"
  bottom: "inception_4a/3x3"
  top: "inception_4a/3x3"
}
layer {
  name: "inception_4a/5x5_reduce"
  type: "Convolution"
  bottom: "pool3/3x3_s2"
  top: "inception_4a/5x5_reduce"
  param {
    lr_mult: 1
    decay_mult: 1
  }
  param {
    lr_mult: 2
    decay_mult: 0
  }
  convolution_param {
    num_output: 16
    kernel_size: 1
    weight_filler {
      type: "xavier"
      std: 0.2
    }
    bias_filler {
      type: "constant"
      value: 0.2
    }
  }
}
layer {
  name: "inception_4a/relu_5x5_reduce"
  type: "ReLU"
  bottom: "inception_4a/5x5_reduce"
  top: "inception_4a/5x5_reduce"
}
layer {
  name: "inception_4a/5x5"
  type: "Convolution"
  bottom: "inception_4a/5x5_reduce"
  top: "inception_4a/5x5"
  param {
    lr_mult: 1
    decay_mult: 1
  }
  param {
    lr_mult: 2
    decay_mult: 0
  }
  convolution_param {
    num_output: 48
    pad: 2
    kernel_size: 5
    weight_filler {
      type: "xavier"
      std: 0.03
    }
    bias_filler {
      type: "constant"
      value: 0.2
    }
  }
}
layer {
  name: "inception_4a/relu_5x5"
  type: "ReLU"
  bottom: "inception_4a/5x5"
  top: "inception_4a/5x5"
}
layer {
  name: "inception_4a/pool"
  type: "Pooling"
  bottom: "pool3/3x3_s2"
  top: "inception_4a/pool"
  pooling_param {
    pool: MAX
    kernel_size: 3
    stride: 1
    pad: 1
  }
}
layer {
  name: "inception_4a/pool_proj"
  type: "Convolution"
  bottom: "inception_4a/pool"
  top: "inception_4a/pool_proj"
  param {
    lr_mult: 1
    decay_mult: 1
  }
  param {
    lr_mult: 2
    decay_mult: 0
  }
  convolution_param {
    num_output: 64
    kernel_size: 1
    weight_filler {
      type: "xavier"
      std: 0.1
    }
    bias_filler {
      type: "constant"
      value: 0.2
    }
  }
}
layer {
  name: "inception_4a/relu_pool_proj"
  type: "ReLU"
  bottom: "inception_4a/pool_proj"
  top: "inception_4a/pool_proj"
}
layer {
  name: "inception_4a/output"
  type: "Concat"
  bottom: "inception_4a/1x1"
  bottom: "inception_4a/3x3"
  bottom: "inception_4a/5x5"
  bottom: "inception_4a/pool_proj"
  top: "inception_4a/output"
}
layer {
  name: "loss1/ave_pool"
  type: "Pooling"
  bottom: "inception_4a/output"
  top: "loss1/ave_pool"
  pooling_param {
    pool: AVE
    kernel_size: 5
    stride: 3
  }
}
layer {
  name: "loss1/conv"
  type: "Convolution"
  bottom: "loss1/ave_pool"
  top: "loss1/conv"
  param {
    lr_mult: 1
    decay_mult: 1
  }
  param {
    lr_mult: 2
    decay_mult: 0
  }
  convolution_param {
    num_output: 128
    kernel_size: 1
    weight_filler {
      type: "xavier"
      std: 0.08
    }
    bias_filler {
      type: "constant"
      value: 0.2
    }
  }
}
layer {
  name: "loss1/relu_conv"
  type: "ReLU"
  bottom: "loss1/conv"
  top: "loss1/conv"
}
layer {
  name: "loss1/fc"
  type: "InnerProduct"
  bottom: "loss1/conv"
  top: "loss1/fc"
  param {
    lr_mult: 1
    decay_mult: 1
  }
  param {
    lr_mult: 2
    decay_mult: 0
  }
  inner_product_param {
    num_output: 1024
    weight_filler {
      type: "xavier"
      std: 0.02
    }
    bias_filler {
      type: "constant"
      value: 0.2
    }
  }
}
layer {
  name: "loss1/relu_fc"
  type: "ReLU"
  bottom: "loss1/fc"
  top: "loss1/fc"
}
layer {
  name: "loss1/drop_fc"
  type: "Dropout"
  bottom: "loss1/fc"
  top: "loss1/fc"
  dropout_param {
    dropout_ratio: 0.7
  }
}
layer {
  name: "loss1/classifier_plantvillage"
  type: "InnerProduct"
  bottom: "loss1/fc"
  top: "loss1/classifier_plantvillage"
  param {
    lr_mult: 1
    decay_mult: 1
  }
  param {
    lr_mult: 2
    decay_mult: 0
  }
  inner_product_param {
    num_output: 38
    weight_filler {
      type: "xavier"
      std: 0.0009765625
    }
    bias_filler {
      type: "constant"
      value: 0
    }
  }
}
layer {
  name: "inception_4b/1x1"
  type: "Convolution"
  bottom: "inception_4a/output"
  top: "inception_4b/1x1"
  param {
    lr_mult: 1
    decay_mult: 1
  }
  param {
    lr_mult: 2
    decay_mult: 0
  }
  convolution_param {
    num_output: 160
    kernel_size: 1
    weight_filler {
      type: "xavier"
      std: 0.03
    }
    bias_filler {
      type: "constant"
      value: 0.2
    }
  }
}
layer {
  name: "inception_4b/relu_1x1"
  type: "ReLU"
  bottom: "inception_4b/1x1"
  top: "inception_4b/1x1"
}
layer {
  name: "inception_4b/3x3_reduce"
  type: "Convolution"
  bottom: "inception_4a/output"
  top: "inception_4b/3x3_reduce"
  param {
    lr_mult: 1
    decay_mult: 1
  }
  param {
    lr_mult: 2
    decay_mult: 0
  }
  convolution_param {
    num_output: 112
    kernel_size: 1
    weight_filler {
      type: "xavier"
      std: 0.09
    }
    bias_filler {
      type: "constant"
      value: 0.2
    }
  }
}
layer {
  name: "inception_4b/relu_3x3_reduce"
  type: "ReLU"
  bottom: "inception_4b/3x3_reduce"
  top: "inception_4b/3x3_reduce"
}
layer {
  name: "inception_4b/3x3"
  type: "Convolution"
  bottom: "inception_4b/3x3_reduce"
  top: "inception_4b/3x3"
  param {
    lr_mult: 1
    decay_mult: 1
  }
  param {
    lr_mult: 2
    decay_mult: 0
  }
  convolution_param {
    num_output: 224
    pad: 1
    kernel_size: 3
    weight_filler {
      type: "xavier"
      std: 0.03
    }
    bias_filler {
      type: "constant"
      value: 0.2
    }
  }
}
layer {
  name: "inception_4b/relu_3x3"
  type: "ReLU"
  bottom: "inception_4b/3x3"
  top: "inception_4b/3x3"
}
layer {
  name: "inception_4b/5x5_reduce"
  type: "Convolution"
  bottom: "inception_4a/output"
  top: "inception_4b/5x5_reduce"
  param {
    lr_mult: 1
    decay_mult: 1
  }
  param {
    lr_mult: 2
    decay_mult: 0
  }
  convolution_param {
    num_output: 24
    kernel_size: 1
    weight_filler {
      type: "xavier"
      std: 0.2
    }
    bias_filler {
      type: "constant"
      value: 0.2
    }
  }
}
layer {
  name: "inception_4b/relu_5x5_reduce"
  type: "ReLU"
  bottom: "inception_4b/5x5_reduce"
  top: "inception_4b/5x5_reduce"
}
layer {
  name: "inception_4b/5x5"
  type: "Convolution"
  bottom: "inception_4b/5x5_reduce"
  top: "inception_4b/5x5"
  param {
    lr_mult: 1
    decay_mult: 1
  }
  param {
    lr_mult: 2
    decay_mult: 0
  }
  convolution_param {
    num_output: 64
    pad: 2
    kernel_size: 5
    weight_filler {
      type: "xavier"
      std: 0.03
    }
    bias_filler {
      type: "constant"
      value: 0.2
    }
  }
}
layer {
  name: "inception_4b/relu_5x5"
  type: "ReLU"
  bottom: "inception_4b/5x5"
  top: "inception_4b/5x5"
}
layer {
  name: "inception_4b/pool"
  type: "Pooling"
  bottom: "inception_4a/output"
  top: "inception_4b/pool"
  pooling_param {
    pool: MAX
    kernel_size: 3
    stride: 1
    pad: 1
  }
}
layer {
  name: "inception_4b/pool_proj"
  type: "Convolution"
  bottom: "inception_4b/pool"
  top: "inception_4b/pool_proj"
  param {
    lr_mult: 1
    decay_mult: 1
  }
  param {
    lr_mult: 2
    decay_mult: 0
  }
  convolution_param {
    num_output: 64
    kernel_size: 1
    weight_filler {
      type: "xavier"
      std: 0.1
    }
    bias_filler {
      type: "constant"
      value: 0.2
    }
  }
}
layer {
  name: "inception_4b/relu_pool_proj"
  type: "ReLU"
  bottom: "inception_4b/pool_proj"
  top: "inception_4b/pool_proj"
}
layer {
  name: "inception_4b/output"
  type: "Concat"
  bottom: "inception_4b/1x1"
  bottom: "inception_4b/3x3"
  bottom: "inception_4b/5x5"
  bottom: "inception_4b/pool_proj"
  top: "inception_4b/output"
}
layer {
  name: "inception_4c/1x1"
  type: "Convolution"
  bottom: "inception_4b/output"
  top: "inception_4c/1x1"
  param {
    lr_mult: 1
    decay_mult: 1
  }
  param {
    lr_mult: 2
    decay_mult: 0
  }
  convolution_param {
    num_output: 128
    kernel_size: 1
    weight_filler {
      type: "xavier"
      std: 0.03
    }
    bias_filler {
      type: "constant"
      value: 0.2
    }
  }
}
layer {
  name: "inception_4c/relu_1x1"
  type: "ReLU"
  bottom: "inception_4c/1x1"
  top: "inception_4c/1x1"
}
layer {
  name: "inception_4c/3x3_reduce"
  type: "Convolution"
  bottom: "inception_4b/output"
  top: "inception_4c/3x3_reduce"
  param {
    lr_mult: 1
    decay_mult: 1
  }
  param {
    lr_mult: 2
    decay_mult: 0
  }
  convolution_param {
    num_output: 128
    kernel_size: 1
    weight_filler {
      type: "xavier"
      std: 0.09
    }
    bias_filler {
      type: "constant"
      value: 0.2
    }
  }
}
layer {
  name: "inception_4c/relu_3x3_reduce"
  type: "ReLU"
  bottom: "inception_4c/3x3_reduce"
  top: "inception_4c/3x3_reduce"
}
layer {
  name: "inception_4c/3x3"
  type: "Convolution"
  bottom: "inception_4c/3x3_reduce"
  top: "inception_4c/3x3"
  param {
    lr_mult: 1
    decay_mult: 1
  }
  param {
    lr_mult: 2
    decay_mult: 0
  }
  convolution_param {
    num_output: 256
    pad: 1
    kernel_size: 3
    weight_filler {
      type: "xavier"
      std: 0.03
    }
    bias_filler {
      type: "constant"
      value: 0.2
    }
  }
}
layer {
  name: "inception_4c/relu_3x3"
  type: "ReLU"
  bottom: "inception_4c/3x3"
  top: "inception_4c/3x3"
}
layer {
  name: "inception_4c/5x5_reduce"
  type: "Convolution"
  bottom: "inception_4b/output"
  top: "inception_4c/5x5_reduce"
  param {
    lr_mult: 1
    decay_mult: 1
  }
  param {
    lr_mult: 2
    decay_mult: 0
  }
  convolution_param {
    num_output: 24
    kernel_size: 1
    weight_filler {
      type: "xavier"
      std: 0.2
    }
    bias_filler {
      type: "constant"
      value: 0.2
    }
  }
}
layer {
  name: "inception_4c/relu_5x5_reduce"
  type: "ReLU"
  bottom: "inception_4c/5x5_reduce"
  top: "inception_4c/5x5_reduce"
}
layer {
  name: "inception_4c/5x5"
  type: "Convolution"
  bottom: "inception_4c/5x5_reduce"
  top: "inception_4c/5x5"
  param {
    lr_mult: 1
    decay_mult: 1
  }
  param {
    lr_mult: 2
    decay_mult: 0
  }
  convolution_param {
    num_output: 64
    pad: 2
    kernel_size: 5
    weight_filler {
      type: "xavier"
      std: 0.03
    }
    bias_filler {
      type: "constant"
      value: 0.2
    }
  }
}
layer {
  name: "inception_4c/relu_5x5"
  type: "ReLU"
  bottom: "inception_4c/5x5"
  top: "inception_4c/5x5"
}
layer {
  name: "inception_4c/pool"
  type: "Pooling"
  bottom: "inception_4b/output"
  top: "inception_4c/pool"
  pooling_param {
    pool: MAX
    kernel_size: 3
    stride: 1
    pad: 1
  }
}
layer {
  name: "inception_4c/pool_proj"
  type: "Convolution"
  bottom: "inception_4c/pool"
  top: "inception_4c/pool_proj"
  param {
    lr_mult: 1
    decay_mult: 1
  }
  param {
    lr_mult: 2
    decay_mult: 0
  }
  convolution_param {
    num_output: 64
    kernel_size: 1
    weight_filler {
      type: "xavier"
      std: 0.1
    }
    bias_filler {
      type: "constant"
      value: 0.2
    }
  }
}
layer {
  name: "inception_4c/relu_pool_proj"
  type: "ReLU"
  bottom: "inception_4c/pool_proj"
  top: "inception_4c/pool_proj"
}
layer {
  name: "inception_4c/output"
  type: "Concat"
  bottom: "inception_4c/1x1"
  bottom: "inception_4c/3x3"
  bottom: "inception_4c/5x5"
  bottom: "inception_4c/pool_proj"
  top: "inception_4c/output"
}
layer {
  name: "inception_4d/1x1"
  type: "Convolution"
  bottom: "inception_4c/output"
  top: "inception_4d/1x1"
  param {
    lr_mult: 1
    decay_mult: 1
  }
  param {
    lr_mult: 2
    decay_mult: 0
  }
  convolution_param {
    num_output: 112
    kernel_size: 1
    weight_filler {
      type: "xavier"
      std: 0.03
    }
    bias_filler {
      type: "constant"
      value: 0.2
    }
  }
}
layer {
  name: "inception_4d/relu_1x1"
  type: "ReLU"
  bottom: "inception_4d/1x1"
  top: "inception_4d/1x1"
}
layer {
  name: "inception_4d/3x3_reduce"
  type: "Convolution"
  bottom: "inception_4c/output"
  top: "inception_4d/3x3_reduce"
  param {
    lr_mult: 1
    decay_mult: 1
  }
  param {
    lr_mult: 2
    decay_mult: 0
  }
  convolution_param {
    num_output: 144
    kernel_size: 1
    weight_filler {
      type: "xavier"
      std: 0.09
    }
    bias_filler {
      type: "constant"
      value: 0.2
    }
  }
}
layer {
  name: "inception_4d/relu_3x3_reduce"
  type: "ReLU"
  bottom: "inception_4d/3x3_reduce"
  top: "inception_4d/3x3_reduce"
}
layer {
  name: "inception_4d/3x3"
  type: "Convolution"
  bottom: "inception_4d/3x3_reduce"
  top: "inception_4d/3x3"
  param {
    lr_mult: 1
    decay_mult: 1
  }
  param {
    lr_mult: 2
    decay_mult: 0
  }
  convolution_param {
    num_output: 288
    pad: 1
    kernel_size: 3
    weight_filler {
      type: "xavier"
      std: 0.03
    }
    bias_filler {
      type: "constant"
      value: 0.2
    }
  }
}
layer {
  name: "inception_4d/relu_3x3"
  type: "ReLU"
  bottom: "inception_4d/3x3"
  top: "inception_4d/3x3"
}
layer {
  name: "inception_4d/5x5_reduce"
  type: "Convolution"
  bottom: "inception_4c/output"
  top: "inception_4d/5x5_reduce"
  param {
    lr_mult: 1
    decay_mult: 1
  }
  param {
    lr_mult: 2
    decay_mult: 0
  }
  convolution_param {
    num_output: 32
    kernel_size: 1
    weight_filler {
      type: "xavier"
      std: 0.2
    }
    bias_filler {
      type: "constant"
      value: 0.2
    }
  }
}
layer {
  name: "inception_4d/relu_5x5_reduce"
  type: "ReLU"
  bottom: "inception_4d/5x5_reduce"
  top: "inception_4d/5x5_reduce"
}
layer {
  name: "inception_4d/5x5"
  type: "Convolution"
  bottom: "inception_4d/5x5_reduce"
  top: "inception_4d/5x5"
  param {
    lr_mult: 1
    decay_mult: 1
  }
  param {
    lr_mult: 2
    decay_mult: 0
  }
  convolution_param {
    num_output: 64
    pad: 2
    kernel_size: 5
    weight_filler {
      type: "xavier"
      std: 0.03
    }
    bias_filler {
      type: "constant"
      value: 0.2
    }
  }
}
layer {
  name: "inception_4d/relu_5x5"
  type: "ReLU"
  bottom: "inception_4d/5x5"
  top: "inception_4d/5x5"
}
layer {
  name: "inception_4d/pool"
  type: "Pooling"
  bottom: "inception_4c/output"
  top: "inception_4d/pool"
  pooling_param {
    pool: MAX
    kernel_size: 3
    stride: 1
    pad: 1
  }
}
layer {
  name: "inception_4d/pool_proj"
  type: "Convolution"
  bottom: "inception_4d/pool"
  top: "inception_4d/pool_proj"
  param {
    lr_mult: 1
    decay_mult: 1
  }
  param {
    lr_mult: 2
    decay_mult: 0
  }
  convolution_param {
    num_output: 64
    kernel_size: 1
    weight_filler {
      type: "xavier"
      std: 0.1
    }
    bias_filler {
      type: "constant"
      value: 0.2
    }
  }
}
layer {
  name: "inception_4d/relu_pool_proj"
  type: "ReLU"
  bottom: "inception_4d/pool_proj"
  top: "inception_4d/pool_proj"
}
layer {
  name: "inception_4d/output"
  type: "Concat"
  bottom: "inception_4d/1x1"
  bottom: "inception_4d/3x3"
  bottom: "inception_4d/5x5"
  bottom: "inception_4d/pool_proj"
  top: "inception_4d/output"
}
layer {
  name: "loss2/ave_pool"
  type: "Pooling"
  bottom: "inception_4d/output"
  top: "loss2/ave_pool"
  pooling_param {
    pool: AVE
    kernel_size: 5
    stride: 3
  }
}
layer {
  name: "loss2/conv"
  type: "Convolution"
  bottom: "loss2/ave_pool"
  top: "loss2/conv"
  param {
    lr_mult: 1
    decay_mult: 1
  }
  param {
    lr_mult: 2
    decay_mult: 0
  }
  convolution_param {
    num_output: 128
    kernel_size: 1
    weight_filler {
      type: "xavier"
      std: 0.08
    }
    bias_filler {
      type: "constant"
      value: 0.2
    }
  }
}
layer {
  name: "loss2/relu_conv"
  type: "ReLU"
  bottom: "loss2/conv"
  top: "loss2/conv"
}
layer {
  name: "loss2/fc"
  type: "InnerProduct"
  bottom: "loss2/conv"
  top: "loss2/fc"
  param {
    lr_mult: 1
    decay_mult: 1
  }
  param {
    lr_mult: 2
    decay_mult: 0
  }
  inner_product_param {
    num_output: 1024
    weight_filler {
      type: "xavier"
      std: 0.02
    }
    bias_filler {
      type: "constant"
      value: 0.2
    }
  }
}
layer {
  name: "loss2/relu_fc"
  type: "ReLU"
  bottom: "loss2/fc"
  top: "loss2/fc"
}
layer {
  name: "loss2/drop_fc"
  type: "Dropout"
  bottom: "loss2/fc"
  top: "loss2/fc"
  dropout_param {
    dropout_ratio: 0.7
  }
}
layer {
  name: "loss2/classifier_plantvillage"
  type: "InnerProduct"
  bottom: "loss2/fc"
  top: "loss2/classifier_plantvillage"
  param {
    lr_mult: 1
    decay_mult: 1
  }
  param {
    lr_mult: 2
    decay_mult: 0
  }
  inner_product_param {
    num_output: 38
    weight_filler {
      type: "xavier"
      std: 0.0009765625
    }
    bias_filler {
      type: "constant"
      value: 0
    }
  }
}
layer {
  name: "inception_4e/1x1"
  type: "Convolution"
  bottom: "inception_4d/output"
  top: "inception_4e/1x1"
  param {
    lr_mult: 1
    decay_mult: 1
  }
  param {
    lr_mult: 2
    decay_mult: 0
  }
  convolution_param {
    num_output: 256
    kernel_size: 1
    weight_filler {
      type: "xavier"
      std: 0.03
    }
    bias_filler {
      type: "constant"
      value: 0.2
    }
  }
}
layer {
  name: "inception_4e/relu_1x1"
  type: "ReLU"
  bottom: "inception_4e/1x1"
  top: "inception_4e/1x1"
}
layer {
  name: "inception_4e/3x3_reduce"
  type: "Convolution"
  bottom: "inception_4d/output"
  top: "inception_4e/3x3_reduce"
  param {
    lr_mult: 1
    decay_mult: 1
  }
  param {
    lr_mult: 2
    decay_mult: 0
  }
  convolution_param {
    num_output: 160
    kernel_size: 1
    weight_filler {
      type: "xavier"
      std: 0.09
    }
    bias_filler {
      type: "constant"
      value: 0.2
    }
  }
}
layer {
  name: "inception_4e/relu_3x3_reduce"
  type: "ReLU"
  bottom: "inception_4e/3x3_reduce"
  top: "inception_4e/3x3_reduce"
}
layer {
  name: "inception_4e/3x3"
  type: "Convolution"
  bottom: "inception_4e/3x3_reduce"
  top: "inception_4e/3x3"
  param {
    lr_mult: 1
    decay_mult: 1
  }
  param {
    lr_mult: 2
    decay_mult: 0
  }
  convolution_param {
    num_output: 320
    pad: 1
    kernel_size: 3
    weight_filler {
      type: "xavier"
      std: 0.03
    }
    bias_filler {
      type: "constant"
      value: 0.2
    }
  }
}
layer {
  name: "inception_4e/relu_3x3"
  type: "ReLU"
  bottom: "inception_4e/3x3"
  top: "inception_4e/3x3"
}
layer {
  name: "inception_4e/5x5_reduce"
  type: "Convolution"
  bottom: "inception_4d/output"
  top: "inception_4e/5x5_reduce"
  param {
    lr_mult: 1
    decay_mult: 1
  }
  param {
    lr_mult: 2
    decay_mult: 0
  }
  convolution_param {
    num_output: 32
    kernel_size: 1
    weight_filler {
      type: "xavier"
      std: 0.2
    }
    bias_filler {
      type: "constant"
      value: 0.2
    }
  }
}
layer {
  name: "inception_4e/relu_5x5_reduce"
  type: "ReLU"
  bottom: "inception_4e/5x5_reduce"
  top: "inception_4e/5x5_reduce"
}
layer {
  name: "inception_4e/5x5"
  type: "Convolution"
  bottom: "inception_4e/5x5_reduce"
  top: "inception_4e/5x5"
  p
I0403 16:41:25.381273 21354 layer_factory.hpp:77] Creating layer data
I0403 16:41:25.381880 21354 net.cpp:91] Creating Layer data
I0403 16:41:25.381914 21354 net.cpp:399] data -> data
I0403 16:41:25.381970 21354 net.cpp:399] data -> label
I0403 16:41:25.382009 21354 data_transformer.cpp:25] Loading mean file from: /home/mohanty/data/final_dataset/lmdb/color-40-60/mean.binaryproto
I0403 16:41:25.383219 21357 db_lmdb.cpp:38] Opened lmdb /home/mohanty/data/final_dataset/lmdb/color-40-60/test_db
I0403 16:41:25.395473 21354 data_layer.cpp:41] output data size: 24,3,224,224
I0403 16:41:25.426455 21354 net.cpp:141] Setting up data
I0403 16:41:25.426542 21354 net.cpp:148] Top shape: 24 3 224 224 (3612672)
I0403 16:41:25.426565 21354 net.cpp:148] Top shape: 24 (24)
I0403 16:41:25.426581 21354 net.cpp:156] Memory required for data: 14450784
I0403 16:41:25.426611 21354 layer_factory.hpp:77] Creating layer label_data_1_split
I0403 16:41:25.426640 21354 net.cpp:91] Creating Layer label_data_1_split
I0403 16:41:25.426657 21354 net.cpp:425] label_data_1_split <- label
I0403 16:41:25.426692 21354 net.cpp:399] label_data_1_split -> label_data_1_split_0
I0403 16:41:25.426720 21354 net.cpp:399] label_data_1_split -> label_data_1_split_1
I0403 16:41:25.426743 21354 net.cpp:399] label_data_1_split -> label_data_1_split_2
I0403 16:41:25.426765 21354 net.cpp:399] label_data_1_split -> label_data_1_split_3
I0403 16:41:25.426786 21354 net.cpp:399] label_data_1_split -> label_data_1_split_4
I0403 16:41:25.426806 21354 net.cpp:399] label_data_1_split -> label_data_1_split_5
I0403 16:41:25.426826 21354 net.cpp:399] label_data_1_split -> label_data_1_split_6
I0403 16:41:25.426847 21354 net.cpp:399] label_data_1_split -> label_data_1_split_7
I0403 16:41:25.426867 21354 net.cpp:399] label_data_1_split -> label_data_1_split_8
I0403 16:41:25.426890 21354 net.cpp:399] label_data_1_split -> label_data_1_split_9
I0403 16:41:25.427021 21354 net.cpp:141] Setting up label_data_1_split
I0403 16:41:25.427045 21354 net.cpp:148] Top shape: 24 (24)
I0403 16:41:25.427063 21354 net.cpp:148] Top shape: 24 (24)
I0403 16:41:25.427080 21354 net.cpp:148] Top shape: 24 (24)
I0403 16:41:25.427096 21354 net.cpp:148] Top shape: 24 (24)
I0403 16:41:25.427112 21354 net.cpp:148] Top shape: 24 (24)
I0403 16:41:25.427129 21354 net.cpp:148] Top shape: 24 (24)
I0403 16:41:25.427145 21354 net.cpp:148] Top shape: 24 (24)
I0403 16:41:25.427161 21354 net.cpp:148] Top shape: 24 (24)
I0403 16:41:25.427176 21354 net.cpp:148] Top shape: 24 (24)
I0403 16:41:25.427193 21354 net.cpp:148] Top shape: 24 (24)
I0403 16:41:25.427238 21354 net.cpp:156] Memory required for data: 14451744
I0403 16:41:25.427255 21354 layer_factory.hpp:77] Creating layer conv1/7x7_s2
I0403 16:41:25.427289 21354 net.cpp:91] Creating Layer conv1/7x7_s2
I0403 16:41:25.427306 21354 net.cpp:425] conv1/7x7_s2 <- data
I0403 16:41:25.427325 21354 net.cpp:399] conv1/7x7_s2 -> conv1/7x7_s2
I0403 16:41:25.576074 21354 net.cpp:141] Setting up conv1/7x7_s2
I0403 16:41:25.576154 21354 net.cpp:148] Top shape: 24 64 112 112 (19267584)
I0403 16:41:25.576172 21354 net.cpp:156] Memory required for data: 91522080
I0403 16:41:25.576205 21354 layer_factory.hpp:77] Creating layer conv1/relu_7x7
I0403 16:41:25.576233 21354 net.cpp:91] Creating Layer conv1/relu_7x7
I0403 16:41:25.576254 21354 net.cpp:425] conv1/relu_7x7 <- conv1/7x7_s2
I0403 16:41:25.576274 21354 net.cpp:386] conv1/relu_7x7 -> conv1/7x7_s2 (in-place)
I0403 16:41:25.576541 21354 net.cpp:141] Setting up conv1/relu_7x7
I0403 16:41:25.576570 21354 net.cpp:148] Top shape: 24 64 112 112 (19267584)
I0403 16:41:25.576586 21354 net.cpp:156] Memory required for data: 168592416
I0403 16:41:25.576601 21354 layer_factory.hpp:77] Creating layer pool1/3x3_s2
I0403 16:41:25.576627 21354 net.cpp:91] Creating Layer pool1/3x3_s2
I0403 16:41:25.576645 21354 net.cpp:425] pool1/3x3_s2 <- conv1/7x7_s2
I0403 16:41:25.576665 21354 net.cpp:399] pool1/3x3_s2 -> pool1/3x3_s2
I0403 16:41:25.576740 21354 net.cpp:141] Setting up pool1/3x3_s2
I0403 16:41:25.576766 21354 net.cpp:148] Top shape: 24 64 56 56 (4816896)
I0403 16:41:25.576781 21354 net.cpp:156] Memory required for data: 187860000
I0403 16:41:25.576797 21354 layer_factory.hpp:77] Creating layer pool1/norm1
I0403 16:41:25.576822 21354 net.cpp:91] Creating Layer pool1/norm1
I0403 16:41:25.576840 21354 net.cpp:425] pool1/norm1 <- pool1/3x3_s2
I0403 16:41:25.576858 21354 net.cpp:399] pool1/norm1 -> pool1/norm1
I0403 16:41:25.577164 21354 net.cpp:141] Setting up pool1/norm1
I0403 16:41:25.577194 21354 net.cpp:148] Top shape: 24 64 56 56 (4816896)
I0403 16:41:25.577213 21354 net.cpp:156] Memory required for data: 207127584
I0403 16:41:25.577229 21354 layer_factory.hpp:77] Creating layer conv2/3x3_reduce
I0403 16:41:25.577253 21354 net.cpp:91] Creating Layer conv2/3x3_reduce
I0403 16:41:25.577270 21354 net.cpp:425] conv2/3x3_reduce <- pool1/norm1
I0403 16:41:25.577288 21354 net.cpp:399] conv2/3x3_reduce -> conv2/3x3_reduce
I0403 16:41:25.578657 21354 net.cpp:141] Setting up conv2/3x3_reduce
I0403 16:41:25.578690 21354 net.cpp:148] Top shape: 24 64 56 56 (4816896)
I0403 16:41:25.578706 21354 net.cpp:156] Memory required for data: 226395168
I0403 16:41:25.578727 21354 layer_factory.hpp:77] Creating layer conv2/relu_3x3_reduce
I0403 16:41:25.578745 21354 net.cpp:91] Creating Layer conv2/relu_3x3_reduce
I0403 16:41:25.578761 21354 net.cpp:425] conv2/relu_3x3_reduce <- conv2/3x3_reduce
I0403 16:41:25.578783 21354 net.cpp:386] conv2/relu_3x3_reduce -> conv2/3x3_reduce (in-place)
I0403 16:41:25.579085 21354 net.cpp:141] Setting up conv2/relu_3x3_reduce
I0403 16:41:25.579115 21354 net.cpp:148] Top shape: 24 64 56 56 (4816896)
I0403 16:41:25.579133 21354 net.cpp:156] Memory required for data: 245662752
I0403 16:41:25.579149 21354 layer_factory.hpp:77] Creating layer conv2/3x3
I0403 16:41:25.579174 21354 net.cpp:91] Creating Layer conv2/3x3
I0403 16:41:25.579191 21354 net.cpp:425] conv2/3x3 <- conv2/3x3_reduce
I0403 16:41:25.579212 21354 net.cpp:399] conv2/3x3 -> conv2/3x3
I0403 16:41:25.581601 21354 net.cpp:141] Setting up conv2/3x3
I0403 16:41:25.581635 21354 net.cpp:148] Top shape: 24 192 56 56 (14450688)
I0403 16:41:25.581653 21354 net.cpp:156] Memory required for data: 303465504
I0403 16:41:25.581676 21354 layer_factory.hpp:77] Creating layer conv2/relu_3x3
I0403 16:41:25.581696 21354 net.cpp:91] Creating Layer conv2/relu_3x3
I0403 16:41:25.581712 21354 net.cpp:425] conv2/relu_3x3 <- conv2/3x3
I0403 16:41:25.581733 21354 net.cpp:386] conv2/relu_3x3 -> conv2/3x3 (in-place)
I0403 16:41:25.581917 21354 net.cpp:141] Setting up conv2/relu_3x3
I0403 16:41:25.581943 21354 net.cpp:148] Top shape: 24 192 56 56 (14450688)
I0403 16:41:25.581993 21354 net.cpp:156] Memory required for data: 361268256
I0403 16:41:25.582011 21354 layer_factory.hpp:77] Creating layer conv2/norm2
I0403 16:41:25.582032 21354 net.cpp:91] Creating Layer conv2/norm2
I0403 16:41:25.582049 21354 net.cpp:425] conv2/norm2 <- conv2/3x3
I0403 16:41:25.582070 21354 net.cpp:399] conv2/norm2 -> conv2/norm2
I0403 16:41:25.582392 21354 net.cpp:141] Setting up conv2/norm2
I0403 16:41:25.582423 21354 net.cpp:148] Top shape: 24 192 56 56 (14450688)
I0403 16:41:25.582440 21354 net.cpp:156] Memory required for data: 419071008
I0403 16:41:25.582455 21354 layer_factory.hpp:77] Creating layer pool2/3x3_s2
I0403 16:41:25.582473 21354 net.cpp:91] Creating Layer pool2/3x3_s2
I0403 16:41:25.582489 21354 net.cpp:425] pool2/3x3_s2 <- conv2/norm2
I0403 16:41:25.582509 21354 net.cpp:399] pool2/3x3_s2 -> pool2/3x3_s2
I0403 16:41:25.582562 21354 net.cpp:141] Setting up pool2/3x3_s2
I0403 16:41:25.582587 21354 net.cpp:148] Top shape: 24 192 28 28 (3612672)
I0403 16:41:25.582602 21354 net.cpp:156] Memory required for data: 433521696
I0403 16:41:25.582617 21354 layer_factory.hpp:77] Creating layer pool2/3x3_s2_pool2/3x3_s2_0_split
I0403 16:41:25.582636 21354 net.cpp:91] Creating Layer pool2/3x3_s2_pool2/3x3_s2_0_split
I0403 16:41:25.582653 21354 net.cpp:425] pool2/3x3_s2_pool2/3x3_s2_0_split <- pool2/3x3_s2
I0403 16:41:25.582670 21354 net.cpp:399] pool2/3x3_s2_pool2/3x3_s2_0_split -> pool2/3x3_s2_pool2/3x3_s2_0_split_0
I0403 16:41:25.582690 21354 net.cpp:399] pool2/3x3_s2_pool2/3x3_s2_0_split -> pool2/3x3_s2_pool2/3x3_s2_0_split_1
I0403 16:41:25.582710 21354 net.cpp:399] pool2/3x3_s2_pool2/3x3_s2_0_split -> pool2/3x3_s2_pool2/3x3_s2_0_split_2
I0403 16:41:25.582731 21354 net.cpp:399] pool2/3x3_s2_pool2/3x3_s2_0_split -> pool2/3x3_s2_pool2/3x3_s2_0_split_3
I0403 16:41:25.582808 21354 net.cpp:141] Setting up pool2/3x3_s2_pool2/3x3_s2_0_split
I0403 16:41:25.582829 21354 net.cpp:148] Top shape: 24 192 28 28 (3612672)
I0403 16:41:25.582845 21354 net.cpp:148] Top shape: 24 192 28 28 (3612672)
I0403 16:41:25.582861 21354 net.cpp:148] Top shape: 24 192 28 28 (3612672)
I0403 16:41:25.582876 21354 net.cpp:148] Top shape: 24 192 28 28 (3612672)
I0403 16:41:25.582890 21354 net.cpp:156] Memory required for data: 491324448
I0403 16:41:25.582906 21354 layer_factory.hpp:77] Creating layer inception_3a/1x1
I0403 16:41:25.582929 21354 net.cpp:91] Creating Layer inception_3a/1x1
I0403 16:41:25.582947 21354 net.cpp:425] inception_3a/1x1 <- pool2/3x3_s2_pool2/3x3_s2_0_split_0
I0403 16:41:25.582968 21354 net.cpp:399] inception_3a/1x1 -> inception_3a/1x1
I0403 16:41:25.584558 21354 net.cpp:141] Setting up inception_3a/1x1
I0403 16:41:25.584591 21354 net.cpp:148] Top shape: 24 64 28 28 (1204224)
I0403 16:41:25.584609 21354 net.cpp:156] Memory required for data: 496141344
I0403 16:41:25.584630 21354 layer_factory.hpp:77] Creating layer inception_3a/relu_1x1
I0403 16:41:25.584648 21354 net.cpp:91] Creating Layer inception_3a/relu_1x1
I0403 16:41:25.584664 21354 net.cpp:425] inception_3a/relu_1x1 <- inception_3a/1x1
I0403 16:41:25.584684 21354 net.cpp:386] inception_3a/relu_1x1 -> inception_3a/1x1 (in-place)
I0403 16:41:25.584869 21354 net.cpp:141] Setting up inception_3a/relu_1x1
I0403 16:41:25.584897 21354 net.cpp:148] Top shape: 24 64 28 28 (1204224)
I0403 16:41:25.584911 21354 net.cpp:156] Memory required for data: 500958240
I0403 16:41:25.584926 21354 layer_factory.hpp:77] Creating layer inception_3a/3x3_reduce
I0403 16:41:25.584949 21354 net.cpp:91] Creating Layer inception_3a/3x3_reduce
I0403 16:41:25.584966 21354 net.cpp:425] inception_3a/3x3_reduce <- pool2/3x3_s2_pool2/3x3_s2_0_split_1
I0403 16:41:25.584992 21354 net.cpp:399] inception_3a/3x3_reduce -> inception_3a/3x3_reduce
I0403 16:41:25.586750 21354 net.cpp:141] Setting up inception_3a/3x3_reduce
I0403 16:41:25.586784 21354 net.cpp:148] Top shape: 24 96 28 28 (1806336)
I0403 16:41:25.586815 21354 net.cpp:156] Memory required for data: 508183584
I0403 16:41:25.586838 21354 layer_factory.hpp:77] Creating layer inception_3a/relu_3x3_reduce
I0403 16:41:25.586877 21354 net.cpp:91] Creating Layer inception_3a/relu_3x3_reduce
I0403 16:41:25.586896 21354 net.cpp:425] inception_3a/relu_3x3_reduce <- inception_3a/3x3_reduce
I0403 16:41:25.586915 21354 net.cpp:386] inception_3a/relu_3x3_reduce -> inception_3a/3x3_reduce (in-place)
I0403 16:41:25.587105 21354 net.cpp:141] Setting up inception_3a/relu_3x3_reduce
I0403 16:41:25.587131 21354 net.cpp:148] Top shape: 24 96 28 28 (1806336)
I0403 16:41:25.587146 21354 net.cpp:156] Memory required for data: 515408928
I0403 16:41:25.587160 21354 layer_factory.hpp:77] Creating layer inception_3a/3x3
I0403 16:41:25.587183 21354 net.cpp:91] Creating Layer inception_3a/3x3
I0403 16:41:25.587201 21354 net.cpp:425] inception_3a/3x3 <- inception_3a/3x3_reduce
I0403 16:41:25.587221 21354 net.cpp:399] inception_3a/3x3 -> inception_3a/3x3
I0403 16:41:25.592254 21354 net.cpp:141] Setting up inception_3a/3x3
I0403 16:41:25.592289 21354 net.cpp:148] Top shape: 24 128 28 28 (2408448)
I0403 16:41:25.592306 21354 net.cpp:156] Memory required for data: 525042720
I0403 16:41:25.592326 21354 layer_factory.hpp:77] Creating layer inception_3a/relu_3x3
I0403 16:41:25.592346 21354 net.cpp:91] Creating Layer inception_3a/relu_3x3
I0403 16:41:25.592363 21354 net.cpp:425] inception_3a/relu_3x3 <- inception_3a/3x3
I0403 16:41:25.592384 21354 net.cpp:386] inception_3a/relu_3x3 -> inception_3a/3x3 (in-place)
I0403 16:41:25.592674 21354 net.cpp:141] Setting up inception_3a/relu_3x3
I0403 16:41:25.592701 21354 net.cpp:148] Top shape: 24 128 28 28 (2408448)
I0403 16:41:25.592716 21354 net.cpp:156] Memory required for data: 534676512
I0403 16:41:25.592732 21354 layer_factory.hpp:77] Creating layer inception_3a/5x5_reduce
I0403 16:41:25.592757 21354 net.cpp:91] Creating Layer inception_3a/5x5_reduce
I0403 16:41:25.592775 21354 net.cpp:425] inception_3a/5x5_reduce <- pool2/3x3_s2_pool2/3x3_s2_0_split_2
I0403 16:41:25.592797 21354 net.cpp:399] inception_3a/5x5_reduce -> inception_3a/5x5_reduce
I0403 16:41:25.593782 21354 net.cpp:141] Setting up inception_3a/5x5_reduce
I0403 16:41:25.593811 21354 net.cpp:148] Top shape: 24 16 28 28 (301056)
I0403 16:41:25.593827 21354 net.cpp:156] Memory required for data: 535880736
I0403 16:41:25.593845 21354 layer_factory.hpp:77] Creating layer inception_3a/relu_5x5_reduce
I0403 16:41:25.593864 21354 net.cpp:91] Creating Layer inception_3a/relu_5x5_reduce
I0403 16:41:25.593880 21354 net.cpp:425] inception_3a/relu_5x5_reduce <- inception_3a/5x5_reduce
I0403 16:41:25.593900 21354 net.cpp:386] inception_3a/relu_5x5_reduce -> inception_3a/5x5_reduce (in-place)
I0403 16:41:25.594216 21354 net.cpp:141] Setting up inception_3a/relu_5x5_reduce
I0403 16:41:25.594244 21354 net.cpp:148] Top shape: 24 16 28 28 (301056)
I0403 16:41:25.594259 21354 net.cpp:156] Memory required for data: 537084960
I0403 16:41:25.594274 21354 layer_factory.hpp:77] Creating layer inception_3a/5x5
I0403 16:41:25.594296 21354 net.cpp:91] Creating Layer inception_3a/5x5
I0403 16:41:25.594313 21354 net.cpp:425] inception_3a/5x5 <- inception_3a/5x5_reduce
I0403 16:41:25.594334 21354 net.cpp:399] inception_3a/5x5 -> inception_3a/5x5
I0403 16:41:25.595374 21354 net.cpp:141] Setting up inception_3a/5x5
I0403 16:41:25.595404 21354 net.cpp:148] Top shape: 24 32 28 28 (602112)
I0403 16:41:25.595422 21354 net.cpp:156] Memory required for data: 539493408
I0403 16:41:25.595440 21354 layer_factory.hpp:77] Creating layer inception_3a/relu_5x5
I0403 16:41:25.595459 21354 net.cpp:91] Creating Layer inception_3a/relu_5x5
I0403 16:41:25.595476 21354 net.cpp:425] inception_3a/relu_5x5 <- inception_3a/5x5
I0403 16:41:25.595497 21354 net.cpp:386] inception_3a/relu_5x5 -> inception_3a/5x5 (in-place)
I0403 16:41:25.595676 21354 net.cpp:141] Setting up inception_3a/relu_5x5
I0403 16:41:25.595702 21354 net.cpp:148] Top shape: 24 32 28 28 (602112)
I0403 16:41:25.595717 21354 net.cpp:156] Memory required for data: 541901856
I0403 16:41:25.595731 21354 layer_factory.hpp:77] Creating layer inception_3a/pool
I0403 16:41:25.595752 21354 net.cpp:91] Creating Layer inception_3a/pool
I0403 16:41:25.595768 21354 net.cpp:425] inception_3a/pool <- pool2/3x3_s2_pool2/3x3_s2_0_split_3
I0403 16:41:25.595819 21354 net.cpp:399] inception_3a/pool -> inception_3a/pool
I0403 16:41:25.595885 21354 net.cpp:141] Setting up inception_3a/pool
I0403 16:41:25.595909 21354 net.cpp:148] Top shape: 24 192 28 28 (3612672)
I0403 16:41:25.595924 21354 net.cpp:156] Memory required for data: 556352544
I0403 16:41:25.595940 21354 layer_factory.hpp:77] Creating layer inception_3a/pool_proj
I0403 16:41:25.595963 21354 net.cpp:91] Creating Layer inception_3a/pool_proj
I0403 16:41:25.595981 21354 net.cpp:425] inception_3a/pool_proj <- inception_3a/pool
I0403 16:41:25.596009 21354 net.cpp:399] inception_3a/pool_proj -> inception_3a/pool_proj
I0403 16:41:25.597024 21354 net.cpp:141] Setting up inception_3a/pool_proj
I0403 16:41:25.597057 21354 net.cpp:148] Top shape: 24 32 28 28 (602112)
I0403 16:41:25.597074 21354 net.cpp:156] Memory required for data: 558760992
I0403 16:41:25.597097 21354 layer_factory.hpp:77] Creating layer inception_3a/relu_pool_proj
I0403 16:41:25.597121 21354 net.cpp:91] Creating Layer inception_3a/relu_pool_proj
I0403 16:41:25.597138 21354 net.cpp:425] inception_3a/relu_pool_proj <- inception_3a/pool_proj
I0403 16:41:25.597158 21354 net.cpp:386] inception_3a/relu_pool_proj -> inception_3a/pool_proj (in-place)
I0403 16:41:25.597447 21354 net.cpp:141] Setting up inception_3a/relu_pool_proj
I0403 16:41:25.597476 21354 net.cpp:148] Top shape: 24 32 28 28 (602112)
I0403 16:41:25.597492 21354 net.cpp:156] Memory required for data: 561169440
I0403 16:41:25.597508 21354 layer_factory.hpp:77] Creating layer inception_3a/output
I0403 16:41:25.597528 21354 net.cpp:91] Creating Layer inception_3a/output
I0403 16:41:25.597543 21354 net.cpp:425] inception_3a/output <- inception_3a/1x1
I0403 16:41:25.597560 21354 net.cpp:425] inception_3a/output <- inception_3a/3x3
I0403 16:41:25.597578 21354 net.cpp:425] inception_3a/output <- inception_3a/5x5
I0403 16:41:25.597594 21354 net.cpp:425] inception_3a/output <- inception_3a/pool_proj
I0403 16:41:25.597614 21354 net.cpp:399] inception_3a/output -> inception_3a/output
I0403 16:41:25.597661 21354 net.cpp:141] Setting up inception_3a/output
I0403 16:41:25.597689 21354 net.cpp:148] Top shape: 24 256 28 28 (4816896)
I0403 16:41:25.597705 21354 net.cpp:156] Memory required for data: 580437024
I0403 16:41:25.597720 21354 layer_factory.hpp:77] Creating layer inception_3a/output_inception_3a/output_0_split
I0403 16:41:25.597738 21354 net.cpp:91] Creating Layer inception_3a/output_inception_3a/output_0_split
I0403 16:41:25.597754 21354 net.cpp:425] inception_3a/output_inception_3a/output_0_split <- inception_3a/output
I0403 16:41:25.597770 21354 net.cpp:399] inception_3a/output_inception_3a/output_0_split -> inception_3a/output_inception_3a/output_0_split_0
I0403 16:41:25.597791 21354 net.cpp:399] inception_3a/output_inception_3a/output_0_split -> inception_3a/output_inception_3a/output_0_split_1
I0403 16:41:25.597817 21354 net.cpp:399] inception_3a/output_inception_3a/output_0_split -> inception_3a/output_inception_3a/output_0_split_2
I0403 16:41:25.597839 21354 net.cpp:399] inception_3a/output_inception_3a/output_0_split -> inception_3a/output_inception_3a/output_0_split_3
I0403 16:41:25.597919 21354 net.cpp:141] Setting up inception_3a/output_inception_3a/output_0_split
I0403 16:41:25.597945 21354 net.cpp:148] Top shape: 24 256 28 28 (4816896)
I0403 16:41:25.597964 21354 net.cpp:148] Top shape: 24 256 28 28 (4816896)
I0403 16:41:25.597980 21354 net.cpp:148] Top shape: 24 256 28 28 (4816896)
I0403 16:41:25.598012 21354 net.cpp:148] Top shape: 24 256 28 28 (4816896)
I0403 16:41:25.598029 21354 net.cpp:156] Memory required for data: 657507360
I0403 16:41:25.598044 21354 layer_factory.hpp:77] Creating layer inception_3b/1x1
I0403 16:41:25.598067 21354 net.cpp:91] Creating Layer inception_3b/1x1
I0403 16:41:25.598085 21354 net.cpp:425] inception_3b/1x1 <- inception_3a/output_inception_3a/output_0_split_0
I0403 16:41:25.598105 21354 net.cpp:399] inception_3b/1x1 -> inception_3b/1x1
I0403 16:41:25.599300 21354 net.cpp:141] Setting up inception_3b/1x1
I0403 16:41:25.599349 21354 net.cpp:148] Top shape: 24 128 28 28 (2408448)
I0403 16:41:25.599366 21354 net.cpp:156] Memory required for data: 667141152
I0403 16:41:25.599386 21354 layer_factory.hpp:77] Creating layer inception_3b/relu_1x1
I0403 16:41:25.599406 21354 net.cpp:91] Creating Layer inception_3b/relu_1x1
I0403 16:41:25.599421 21354 net.cpp:425] inception_3b/relu_1x1 <- inception_3b/1x1
I0403 16:41:25.599442 21354 net.cpp:386] inception_3b/relu_1x1 -> inception_3b/1x1 (in-place)
I0403 16:41:25.599627 21354 net.cpp:141] Setting up inception_3b/relu_1x1
I0403 16:41:25.599653 21354 net.cpp:148] Top shape: 24 128 28 28 (2408448)
I0403 16:41:25.599668 21354 net.cpp:156] Memory required for data: 676774944
I0403 16:41:25.599684 21354 layer_factory.hpp:77] Creating layer inception_3b/3x3_reduce
I0403 16:41:25.599706 21354 net.cpp:91] Creating Layer inception_3b/3x3_reduce
I0403 16:41:25.599723 21354 net.cpp:425] inception_3b/3x3_reduce <- inception_3a/output_inception_3a/output_0_split_1
I0403 16:41:25.599745 21354 net.cpp:399] inception_3b/3x3_reduce -> inception_3b/3x3_reduce
I0403 16:41:25.600932 21354 net.cpp:141] Setting up inception_3b/3x3_reduce
I0403 16:41:25.600966 21354 net.cpp:148] Top shape: 24 128 28 28 (2408448)
I0403 16:41:25.600988 21354 net.cpp:156] Memory required for data: 686408736
I0403 16:41:25.601011 21354 layer_factory.hpp:77] Creating layer inception_3b/relu_3x3_reduce
I0403 16:41:25.601032 21354 net.cpp:91] Creating Layer inception_3b/relu_3x3_reduce
I0403 16:41:25.601047 21354 net.cpp:425] inception_3b/relu_3x3_reduce <- inception_3b/3x3_reduce
I0403 16:41:25.601065 21354 net.cpp:386] inception_3b/relu_3x3_reduce -> inception_3b/3x3_reduce (in-place)
I0403 16:41:25.601245 21354 net.cpp:141] Setting up inception_3b/relu_3x3_reduce
I0403 16:41:25.601272 21354 net.cpp:148] Top shape: 24 128 28 28 (2408448)
I0403 16:41:25.601289 21354 net.cpp:156] Memory required for data: 696042528
I0403 16:41:25.601303 21354 layer_factory.hpp:77] Creating layer inception_3b/3x3
I0403 16:41:25.601330 21354 net.cpp:91] Creating Layer inception_3b/3x3
I0403 16:41:25.601348 21354 net.cpp:425] inception_3b/3x3 <- inception_3b/3x3_reduce
I0403 16:41:25.601371 21354 net.cpp:399] inception_3b/3x3 -> inception_3b/3x3
I0403 16:41:25.604336 21354 net.cpp:141] Setting up inception_3b/3x3
I0403 16:41:25.604367 21354 net.cpp:148] Top shape: 24 192 28 28 (3612672)
I0403 16:41:25.604383 21354 net.cpp:156] Memory required for data: 710493216
I0403 16:41:25.604403 21354 layer_factory.hpp:77] Creating layer inception_3b/relu_3x3
I0403 16:41:25.604421 21354 net.cpp:91] Creating Layer inception_3b/relu_3x3
I0403 16:41:25.604440 21354 net.cpp:425] inception_3b/relu_3x3 <- inception_3b/3x3
I0403 16:41:25.604461 21354 net.cpp:386] inception_3b/relu_3x3 -> inception_3b/3x3 (in-place)
I0403 16:41:25.604744 21354 net.cpp:141] Setting up inception_3b/relu_3x3
I0403 16:41:25.604773 21354 net.cpp:148] Top shape: 24 192 28 28 (3612672)
I0403 16:41:25.604789 21354 net.cpp:156] Memory required for data: 724943904
I0403 16:41:25.604804 21354 layer_factory.hpp:77] Creating layer inception_3b/5x5_reduce
I0403 16:41:25.604827 21354 net.cpp:91] Creating Layer inception_3b/5x5_reduce
I0403 16:41:25.604846 21354 net.cpp:425] inception_3b/5x5_reduce <- inception_3a/output_inception_3a/output_0_split_2
I0403 16:41:25.604871 21354 net.cpp:399] inception_3b/5x5_reduce -> inception_3b/5x5_reduce
I0403 16:41:25.605890 21354 net.cpp:141] Setting up inception_3b/5x5_reduce
I0403 16:41:25.605921 21354 net.cpp:148] Top shape: 24 32 28 28 (602112)
I0403 16:41:25.605937 21354 net.cpp:156] Memory required for data: 727352352
I0403 16:41:25.605955 21354 layer_factory.hpp:77] Creating layer inception_3b/relu_5x5_reduce
I0403 16:41:25.605974 21354 net.cpp:91] Creating Layer inception_3b/relu_5x5_reduce
I0403 16:41:25.606011 21354 net.cpp:425] inception_3b/relu_5x5_reduce <- inception_3b/5x5_reduce
I0403 16:41:25.606036 21354 net.cpp:386] inception_3b/relu_5x5_reduce -> inception_3b/5x5_reduce (in-place)
I0403 16:41:25.606220 21354 net.cpp:141] Setting up inception_3b/relu_5x5_reduce
I0403 16:41:25.606258 21354 net.cpp:148] Top shape: 24 32 28 28 (602112)
I0403 16:41:25.606276 21354 net.cpp:156] Memory required for data: 729760800
I0403 16:41:25.606290 21354 layer_factory.hpp:77] Creating layer inception_3b/5x5
I0403 16:41:25.606313 21354 net.cpp:91] Creating Layer inception_3b/5x5
I0403 16:41:25.606330 21354 net.cpp:425] inception_3b/5x5 <- inception_3b/5x5_reduce
I0403 16:41:25.606361 21354 net.cpp:399] inception_3b/5x5 -> inception_3b/5x5
I0403 16:41:25.608392 21354 net.cpp:141] Setting up inception_3b/5x5
I0403 16:41:25.608427 21354 net.cpp:148] Top shape: 24 96 28 28 (1806336)
I0403 16:41:25.608444 21354 net.cpp:156] Memory required for data: 736986144
I0403 16:41:25.608464 21354 layer_factory.hpp:77] Creating layer inception_3b/relu_5x5
I0403 16:41:25.608482 21354 net.cpp:91] Creating Layer inception_3b/relu_5x5
I0403 16:41:25.608499 21354 net.cpp:425] inception_3b/relu_5x5 <- inception_3b/5x5
I0403 16:41:25.608518 21354 net.cpp:386] inception_3b/relu_5x5 -> inception_3b/5x5 (in-place)
I0403 16:41:25.608716 21354 net.cpp:141] Setting up inception_3b/relu_5x5
I0403 16:41:25.608742 21354 net.cpp:148] Top shape: 24 96 28 28 (1806336)
I0403 16:41:25.608757 21354 net.cpp:156] Memory required for data: 744211488
I0403 16:41:25.608772 21354 layer_factory.hpp:77] Creating layer inception_3b/pool
I0403 16:41:25.608791 21354 net.cpp:91] Creating Layer inception_3b/pool
I0403 16:41:25.608808 21354 net.cpp:425] inception_3b/pool <- inception_3a/output_inception_3a/output_0_split_3
I0403 16:41:25.608826 21354 net.cpp:399] inception_3b/pool -> inception_3b/pool
I0403 16:41:25.608885 21354 net.cpp:141] Setting up inception_3b/pool
I0403 16:41:25.608911 21354 net.cpp:148] Top shape: 24 256 28 28 (4816896)
I0403 16:41:25.608928 21354 net.cpp:156] Memory required for data: 763479072
I0403 16:41:25.608943 21354 layer_factory.hpp:77] Creating layer inception_3b/pool_proj
I0403 16:41:25.608965 21354 net.cpp:91] Creating Layer inception_3b/pool_proj
I0403 16:41:25.608983 21354 net.cpp:425] inception_3b/pool_proj <- inception_3b/pool
I0403 16:41:25.609016 21354 net.cpp:399] inception_3b/pool_proj -> inception_3b/pool_proj
I0403 16:41:25.610107 21354 net.cpp:141] Setting up inception_3b/pool_proj
I0403 16:41:25.610136 21354 net.cpp:148] Top shape: 24 64 28 28 (1204224)
I0403 16:41:25.610152 21354 net.cpp:156] Memory required for data: 768295968
I0403 16:41:25.610169 21354 layer_factory.hpp:77] Creating layer inception_3b/relu_pool_proj
I0403 16:41:25.610190 21354 net.cpp:91] Creating Layer inception_3b/relu_pool_proj
I0403 16:41:25.610208 21354 net.cpp:425] inception_3b/relu_pool_proj <- inception_3b/pool_proj
I0403 16:41:25.610224 21354 net.cpp:386] inception_3b/relu_pool_proj -> inception_3b/pool_proj (in-place)
I0403 16:41:25.610641 21354 net.cpp:141] Setting up inception_3b/relu_pool_proj
I0403 16:41:25.610682 21354 net.cpp:148] Top shape: 24 64 28 28 (1204224)
I0403 16:41:25.610698 21354 net.cpp:156] Memory required for data: 773112864
I0403 16:41:25.610713 21354 layer_factory.hpp:77] Creating layer inception_3b/output
I0403 16:41:25.610731 21354 net.cpp:91] Creating Layer inception_3b/output
I0403 16:41:25.610748 21354 net.cpp:425] inception_3b/output <- inception_3b/1x1
I0403 16:41:25.610765 21354 net.cpp:425] inception_3b/output <- inception_3b/3x3
I0403 16:41:25.610781 21354 net.cpp:425] inception_3b/output <- inception_3b/5x5
I0403 16:41:25.610797 21354 net.cpp:425] inception_3b/output <- inception_3b/pool_proj
I0403 16:41:25.610816 21354 net.cpp:399] inception_3b/output -> inception_3b/output
I0403 16:41:25.610865 21354 net.cpp:141] Setting up inception_3b/output
I0403 16:41:25.610889 21354 net.cpp:148] Top shape: 24 480 28 28 (9031680)
I0403 16:41:25.610904 21354 net.cpp:156] Memory required for data: 809239584
I0403 16:41:25.610919 21354 layer_factory.hpp:77] Creating layer pool3/3x3_s2
I0403 16:41:25.610937 21354 net.cpp:91] Creating Layer pool3/3x3_s2
I0403 16:41:25.610954 21354 net.cpp:425] pool3/3x3_s2 <- inception_3b/output
I0403 16:41:25.610975 21354 net.cpp:399] pool3/3x3_s2 -> pool3/3x3_s2
I0403 16:41:25.611068 21354 net.cpp:141] Setting up pool3/3x3_s2
I0403 16:41:25.611090 21354 net.cpp:148] Top shape: 24 480 14 14 (2257920)
I0403 16:41:25.611105 21354 net.cpp:156] Memory required for data: 818271264
I0403 16:41:25.611120 21354 layer_factory.hpp:77] Creating layer pool3/3x3_s2_pool3/3x3_s2_0_split
I0403 16:41:25.611140 21354 net.cpp:91] Creating Layer pool3/3x3_s2_pool3/3x3_s2_0_split
I0403 16:41:25.611155 21354 net.cpp:425] pool3/3x3_s2_pool3/3x3_s2_0_split <- pool3/3x3_s2
I0403 16:41:25.611172 21354 net.cpp:399] pool3/3x3_s2_pool3/3x3_s2_0_split -> pool3/3x3_s2_pool3/3x3_s2_0_split_0
I0403 16:41:25.611192 21354 net.cpp:399] pool3/3x3_s2_pool3/3x3_s2_0_split -> pool3/3x3_s2_pool3/3x3_s2_0_split_1
I0403 16:41:25.611217 21354 net.cpp:399] pool3/3x3_s2_pool3/3x3_s2_0_split -> pool3/3x3_s2_pool3/3x3_s2_0_split_2
I0403 16:41:25.611238 21354 net.cpp:399] pool3/3x3_s2_pool3/3x3_s2_0_split -> pool3/3x3_s2_pool3/3x3_s2_0_split_3
I0403 16:41:25.611326 21354 net.cpp:141] Setting up pool3/3x3_s2_pool3/3x3_s2_0_split
I0403 16:41:25.611349 21354 net.cpp:148] Top shape: 24 480 14 14 (2257920)
I0403 16:41:25.611366 21354 net.cpp:148] Top shape: 24 480 14 14 (2257920)
I0403 16:41:25.611382 21354 net.cpp:148] Top shape: 24 480 14 14 (2257920)
I0403 16:41:25.611398 21354 net.cpp:148] Top shape: 24 480 14 14 (2257920)
I0403 16:41:25.611413 21354 net.cpp:156] Memory required for data: 854397984
I0403 16:41:25.611428 21354 layer_factory.hpp:77] Creating layer inception_4a/1x1
I0403 16:41:25.611450 21354 net.cpp:91] Creating Layer inception_4a/1x1
I0403 16:41:25.611467 21354 net.cpp:425] inception_4a/1x1 <- pool3/3x3_s2_pool3/3x3_s2_0_split_0
I0403 16:41:25.611490 21354 net.cpp:399] inception_4a/1x1 -> inception_4a/1x1
I0403 16:41:25.613152 21354 net.cpp:141] Setting up inception_4a/1x1
I0403 16:41:25.613183 21354 net.cpp:148] Top shape: 24 192 14 14 (903168)
I0403 16:41:25.613200 21354 net.cpp:156] Memory required for data: 858010656
I0403 16:41:25.613220 21354 layer_factory.hpp:77] Creating layer inception_4a/relu_1x1
I0403 16:41:25.613242 21354 net.cpp:91] Creating Layer inception_4a/relu_1x1
I0403 16:41:25.613260 21354 net.cpp:425] inception_4a/relu_1x1 <- inception_4a/1x1
I0403 16:41:25.613276 21354 net.cpp:386] inception_4a/relu_1x1 -> inception_4a/1x1 (in-place)
I0403 16:41:25.613463 21354 net.cpp:141] Setting up inception_4a/relu_1x1
I0403 16:41:25.613492 21354 net.cpp:148] Top shape: 24 192 14 14 (903168)
I0403 16:41:25.613508 21354 net.cpp:156] Memory required for data: 861623328
I0403 16:41:25.613524 21354 layer_factory.hpp:77] Creating layer inception_4a/3x3_reduce
I0403 16:41:25.613546 21354 net.cpp:91] Creating Layer inception_4a/3x3_reduce
I0403 16:41:25.613564 21354 net.cpp:425] inception_4a/3x3_reduce <- pool3/3x3_s2_pool3/3x3_s2_0_split_1
I0403 16:41:25.613584 21354 net.cpp:399] inception_4a/3x3_reduce -> inception_4a/3x3_reduce
I0403 16:41:25.614943 21354 net.cpp:141] Setting up inception_4a/3x3_reduce
I0403 16:41:25.614974 21354 net.cpp:148] Top shape: 24 96 14 14 (451584)
I0403 16:41:25.614995 21354 net.cpp:156] Memory required for data: 863429664
I0403 16:41:25.615023 21354 layer_factory.hpp:77] Creating layer inception_4a/relu_3x3_reduce
I0403 16:41:25.615049 21354 net.cpp:91] Creating Layer inception_4a/relu_3x3_reduce
I0403 16:41:25.615067 21354 net.cpp:425] inception_4a/relu_3x3_reduce <- inception_4a/3x3_reduce
I0403 16:41:25.615085 21354 net.cpp:386] inception_4a/relu_3x3_reduce -> inception_4a/3x3_reduce (in-place)
I0403 16:41:25.615274 21354 net.cpp:141] Setting up inception_4a/relu_3x3_reduce
I0403 16:41:25.615303 21354 net.cpp:148] Top shape: 24 96 14 14 (451584)
I0403 16:41:25.615319 21354 net.cpp:156] Memory required for data: 865236000
I0403 16:41:25.615334 21354 layer_factory.hpp:77] Creating layer inception_4a/3x3
I0403 16:41:25.615358 21354 net.cpp:91] Creating Layer inception_4a/3x3
I0403 16:41:25.615375 21354 net.cpp:425] inception_4a/3x3 <- inception_4a/3x3_reduce
I0403 16:41:25.615396 21354 net.cpp:399] inception_4a/3x3 -> inception_4a/3x3
I0403 16:41:25.618214 21354 net.cpp:141] Setting up inception_4a/3x3
I0403 16:41:25.618248 21354 net.cpp:148] Top shape: 24 208 14 14 (978432)
I0403 16:41:25.618268 21354 net.cpp:156] Memory required for data: 869149728
I0403 16:41:25.618288 21354 layer_factory.hpp:77] Creating layer inception_4a/relu_3x3
I0403 16:41:25.618307 21354 net.cpp:91] Creating Layer inception_4a/relu_3x3
I0403 16:41:25.618325 21354 net.cpp:425] inception_4a/relu_3x3 <- inception_4a/3x3
I0403 16:41:25.618343 21354 net.cpp:386] inception_4a/relu_3x3 -> inception_4a/3x3 (in-place)
I0403 16:41:25.618638 21354 net.cpp:141] Setting up inception_4a/relu_3x3
I0403 16:41:25.618669 21354 net.cpp:148] Top shape: 24 208 14 14 (978432)
I0403 16:41:25.618685 21354 net.cpp:156] Memory required for data: 873063456
I0403 16:41:25.618701 21354 layer_factory.hpp:77] Creating layer inception_4a/5x5_reduce
I0403 16:41:25.618727 21354 net.cpp:91] Creating Layer inception_4a/5x5_reduce
I0403 16:41:25.618744 21354 net.cpp:425] inception_4a/5x5_reduce <- pool3/3x3_s2_pool3/3x3_s2_0_split_2
I0403 16:41:25.618764 21354 net.cpp:399] inception_4a/5x5_reduce -> inception_4a/5x5_reduce
I0403 16:41:25.619855 21354 net.cpp:141] Setting up inception_4a/5x5_reduce
I0403 16:41:25.619886 21354 net.cpp:148] Top shape: 24 16 14 14 (75264)
I0403 16:41:25.619902 21354 net.cpp:156] Memory required for data: 873364512
I0403 16:41:25.619921 21354 layer_factory.hpp:77] Creating layer inception_4a/relu_5x5_reduce
I0403 16:41:25.619941 21354 net.cpp:91] Creating Layer inception_4a/relu_5x5_reduce
I0403 16:41:25.619959 21354 net.cpp:425] inception_4a/relu_5x5_reduce <- inception_4a/5x5_reduce
I0403 16:41:25.619978 21354 net.cpp:386] inception_4a/relu_5x5_reduce -> inception_4a/5x5_reduce (in-place)
I0403 16:41:25.620174 21354 net.cpp:141] Setting up inception_4a/relu_5x5_reduce
I0403 16:41:25.620200 21354 net.cpp:148] Top shape: 24 16 14 14 (75264)
I0403 16:41:25.620218 21354 net.cpp:156] Memory required for data: 873665568
I0403 16:41:25.620232 21354 layer_factory.hpp:77] Creating layer inception_4a/5x5
I0403 16:41:25.620255 21354 net.cpp:91] Creating Layer inception_4a/5x5
I0403 16:41:25.620273 21354 net.cpp:425] inception_4a/5x5 <- inception_4a/5x5_reduce
I0403 16:41:25.620295 21354 net.cpp:399] inception_4a/5x5 -> inception_4a/5x5
I0403 16:41:25.621445 21354 net.cpp:141] Setting up inception_4a/5x5
I0403 16:41:25.621479 21354 net.cpp:148] Top shape: 24 48 14 14 (225792)
I0403 16:41:25.621496 21354 net.cpp:156] Memory required for data: 874568736
I0403 16:41:25.621515 21354 layer_factory.hpp:77] Creating layer inception_4a/relu_5x5
I0403 16:41:25.621537 21354 net.cpp:91] Creating Layer inception_4a/relu_5x5
I0403 16:41:25.621556 21354 net.cpp:425] inception_4a/relu_5x5 <- inception_4a/5x5
I0403 16:41:25.621574 21354 net.cpp:386] inception_4a/relu_5x5 -> inception_4a/5x5 (in-place)
I0403 16:41:25.621763 21354 net.cpp:141] Setting up inception_4a/relu_5x5
I0403 16:41:25.621793 21354 net.cpp:148] Top shape: 24 48 14 14 (225792)
I0403 16:41:25.621809 21354 net.cpp:156] Memory required for data: 875471904
I0403 16:41:25.621824 21354 layer_factory.hpp:77] Creating layer inception_4a/pool
I0403 16:41:25.621842 21354 net.cpp:91] Creating Layer inception_4a/pool
I0403 16:41:25.621858 21354 net.cpp:425] inception_4a/pool <- pool3/3x3_s2_pool3/3x3_s2_0_split_3
I0403 16:41:25.621876 21354 net.cpp:399] inception_4a/pool -> inception_4a/pool
I0403 16:41:25.621942 21354 net.cpp:141] Setting up inception_4a/pool
I0403 16:41:25.621966 21354 net.cpp:148] Top shape: 24 480 14 14 (2257920)
I0403 16:41:25.621981 21354 net.cpp:156] Memory required for data: 884503584
I0403 16:41:25.622002 21354 layer_factory.hpp:77] Creating layer inception_4a/pool_proj
I0403 16:41:25.622025 21354 net.cpp:91] Creating Layer inception_4a/pool_proj
I0403 16:41:25.622045 21354 net.cpp:425] inception_4a/pool_proj <- inception_4a/pool
I0403 16:41:25.622068 21354 net.cpp:399] inception_4a/pool_proj -> inception_4a/pool_proj
I0403 16:41:25.623317 21354 net.cpp:141] Setting up inception_4a/pool_proj
I0403 16:41:25.623347 21354 net.cpp:148] Top shape: 24 64 14 14 (301056)
I0403 16:41:25.623380 21354 net.cpp:156] Memory required for data: 885707808
I0403 16:41:25.623401 21354 layer_factory.hpp:77] Creating layer inception_4a/relu_pool_proj
I0403 16:41:25.623425 21354 net.cpp:91] Creating Layer inception_4a/relu_pool_proj
I0403 16:41:25.623443 21354 net.cpp:425] inception_4a/relu_pool_proj <- inception_4a/pool_proj
I0403 16:41:25.623462 21354 net.cpp:386] inception_4a/relu_pool_proj -> inception_4a/pool_proj (in-place)
I0403 16:41:25.623764 21354 net.cpp:141] Setting up inception_4a/relu_pool_proj
I0403 16:41:25.623792 21354 net.cpp:148] Top shape: 24 64 14 14 (301056)
I0403 16:41:25.623807 21354 net.cpp:156] Memory required for data: 886912032
I0403 16:41:25.623824 21354 layer_factory.hpp:77] Creating layer inception_4a/output
I0403 16:41:25.623845 21354 net.cpp:91] Creating Layer inception_4a/output
I0403 16:41:25.623862 21354 net.cpp:425] inception_4a/output <- inception_4a/1x1
I0403 16:41:25.623879 21354 net.cpp:425] inception_4a/output <- inception_4a/3x3
I0403 16:41:25.623896 21354 net.cpp:425] inception_4a/output <- inception_4a/5x5
I0403 16:41:25.623913 21354 net.cpp:425] inception_4a/output <- inception_4a/pool_proj
I0403 16:41:25.623930 21354 net.cpp:399] inception_4a/output -> inception_4a/output
I0403 16:41:25.623978 21354 net.cpp:141] Setting up inception_4a/output
I0403 16:41:25.624007 21354 net.cpp:148] Top shape: 24 512 14 14 (2408448)
I0403 16:41:25.624023 21354 net.cpp:156] Memory required for data: 896545824
I0403 16:41:25.624038 21354 layer_factory.hpp:77] Creating layer inception_4a/output_inception_4a/output_0_split
I0403 16:41:25.624056 21354 net.cpp:91] Creating Layer inception_4a/output_inception_4a/output_0_split
I0403 16:41:25.624073 21354 net.cpp:425] inception_4a/output_inception_4a/output_0_split <- inception_4a/output
I0403 16:41:25.624094 21354 net.cpp:399] inception_4a/output_inception_4a/output_0_split -> inception_4a/output_inception_4a/output_0_split_0
I0403 16:41:25.624115 21354 net.cpp:399] inception_4a/output_inception_4a/output_0_split -> inception_4a/output_inception_4a/output_0_split_1
I0403 16:41:25.624136 21354 net.cpp:399] inception_4a/output_inception_4a/output_0_split -> inception_4a/output_inception_4a/output_0_split_2
I0403 16:41:25.624156 21354 net.cpp:399] inception_4a/output_inception_4a/output_0_split -> inception_4a/output_inception_4a/output_0_split_3
I0403 16:41:25.624177 21354 net.cpp:399] inception_4a/output_inception_4a/output_0_split -> inception_4a/output_inception_4a/output_0_split_4
I0403 16:41:25.624279 21354 net.cpp:141] Setting up inception_4a/output_inception_4a/output_0_split
I0403 16:41:25.624302 21354 net.cpp:148] Top shape: 24 512 14 14 (2408448)
I0403 16:41:25.624320 21354 net.cpp:148] Top shape: 24 512 14 14 (2408448)
I0403 16:41:25.624336 21354 net.cpp:148] Top shape: 24 512 14 14 (2408448)
I0403 16:41:25.624351 21354 net.cpp:148] Top shape: 24 512 14 14 (2408448)
I0403 16:41:25.624366 21354 net.cpp:148] Top shape: 24 512 14 14 (2408448)
I0403 16:41:25.624380 21354 net.cpp:156] Memory required for data: 944714784
I0403 16:41:25.624395 21354 layer_factory.hpp:77] Creating layer loss1/ave_pool
I0403 16:41:25.624413 21354 net.cpp:91] Creating Layer loss1/ave_pool
I0403 16:41:25.624429 21354 net.cpp:425] loss1/ave_pool <- inception_4a/output_inception_4a/output_0_split_0
I0403 16:41:25.624449 21354 net.cpp:399] loss1/ave_pool -> loss1/ave_pool
I0403 16:41:25.624672 21354 net.cpp:141] Setting up loss1/ave_pool
I0403 16:41:25.624699 21354 net.cpp:148] Top shape: 24 512 4 4 (196608)
I0403 16:41:25.624714 21354 net.cpp:156] Memory required for data: 945501216
I0403 16:41:25.624729 21354 layer_factory.hpp:77] Creating layer loss1/conv
I0403 16:41:25.624753 21354 net.cpp:91] Creating Layer loss1/conv
I0403 16:41:25.624771 21354 net.cpp:425] loss1/conv <- loss1/ave_pool
I0403 16:41:25.624794 21354 net.cpp:399] loss1/conv -> loss1/conv
I0403 16:41:25.626330 21354 net.cpp:141] Setting up loss1/conv
I0403 16:41:25.626363 21354 net.cpp:148] Top shape: 24 128 4 4 (49152)
I0403 16:41:25.626380 21354 net.cpp:156] Memory required for data: 945697824
I0403 16:41:25.626415 21354 layer_factory.hpp:77] Creating layer loss1/relu_conv
I0403 16:41:25.626433 21354 net.cpp:91] Creating Layer loss1/relu_conv
I0403 16:41:25.626449 21354 net.cpp:425] loss1/relu_conv <- loss1/conv
I0403 16:41:25.626469 21354 net.cpp:386] loss1/relu_conv -> loss1/conv (in-place)
I0403 16:41:25.626759 21354 net.cpp:141] Setting up loss1/relu_conv
I0403 16:41:25.626787 21354 net.cpp:148] Top shape: 24 128 4 4 (49152)
I0403 16:41:25.626803 21354 net.cpp:156] Memory required for data: 945894432
I0403 16:41:25.626818 21354 layer_factory.hpp:77] Creating layer loss1/fc
I0403 16:41:25.626842 21354 net.cpp:91] Creating Layer loss1/fc
I0403 16:41:25.626860 21354 net.cpp:425] loss1/fc <- loss1/conv
I0403 16:41:25.626881 21354 net.cpp:399] loss1/fc -> loss1/fc
I0403 16:41:25.644701 21354 net.cpp:141] Setting up loss1/fc
I0403 16:41:25.644740 21354 net.cpp:148] Top shape: 24 1024 (24576)
I0403 16:41:25.644759 21354 net.cpp:156] Memory required for data: 945992736
I0403 16:41:25.644778 21354 layer_factory.hpp:77] Creating layer loss1/relu_fc
I0403 16:41:25.644798 21354 net.cpp:91] Creating Layer loss1/relu_fc
I0403 16:41:25.644814 21354 net.cpp:425] loss1/relu_fc <- loss1/fc
I0403 16:41:25.644832 21354 net.cpp:386] loss1/relu_fc -> loss1/fc (in-place)
I0403 16:41:25.645036 21354 net.cpp:141] Setting up loss1/relu_fc
I0403 16:41:25.645066 21354 net.cpp:148] Top shape: 24 1024 (24576)
I0403 16:41:25.645081 21354 net.cpp:156] Memory required for data: 946091040
I0403 16:41:25.645095 21354 layer_factory.hpp:77] Creating layer loss1/drop_fc
I0403 16:41:25.645120 21354 net.cpp:91] Creating Layer loss1/drop_fc
I0403 16:41:25.645138 21354 net.cpp:425] loss1/drop_fc <- loss1/fc
I0403 16:41:25.645154 21354 net.cpp:386] loss1/drop_fc -> loss1/fc (in-place)
I0403 16:41:25.645206 21354 net.cpp:141] Setting up loss1/drop_fc
I0403 16:41:25.645228 21354 net.cpp:148] Top shape: 24 1024 (24576)
I0403 16:41:25.645243 21354 net.cpp:156] Memory required for data: 946189344
I0403 16:41:25.645258 21354 layer_factory.hpp:77] Creating layer loss1/classifier_plantvillage
I0403 16:41:25.645279 21354 net.cpp:91] Creating Layer loss1/classifier_plantvillage
I0403 16:41:25.645297 21354 net.cpp:425] loss1/classifier_plantvillage <- loss1/fc
I0403 16:41:25.645313 21354 net.cpp:399] loss1/classifier_plantvillage -> loss1/classifier_plantvillage
I0403 16:41:25.646217 21354 net.cpp:141] Setting up loss1/classifier_plantvillage
I0403 16:41:25.646247 21354 net.cpp:148] Top shape: 24 38 (912)
I0403 16:41:25.646263 21354 net.cpp:156] Memory required for data: 946192992
I0403 16:41:25.646281 21354 layer_factory.hpp:77] Creating layer loss1/classifier_plantvillage_loss1/classifier_plantvillage_0_split
I0403 16:41:25.646298 21354 net.cpp:91] Creating Layer loss1/classifier_plantvillage_loss1/classifier_plantvillage_0_split
I0403 16:41:25.646313 21354 net.cpp:425] loss1/classifier_plantvillage_loss1/classifier_plantvillage_0_split <- loss1/classifier_plantvillage
I0403 16:41:25.646332 21354 net.cpp:399] loss1/classifier_plantvillage_loss1/classifier_plantvillage_0_split -> loss1/classifier_plantvillage_loss1/classifier_plantvillage_0_split_0
I0403 16:41:25.646352 21354 net.cpp:399] loss1/classifier_plantvillage_loss1/classifier_plantvillage_0_split -> loss1/classifier_plantvillage_loss1/classifier_plantvillage_0_split_1
I0403 16:41:25.646373 21354 net.cpp:399] loss1/classifier_plantvillage_loss1/classifier_plantvillage_0_split -> loss1/classifier_plantvillage_loss1/classifier_plantvillage_0_split_2
I0403 16:41:25.646440 21354 net.cpp:141] Setting up loss1/classifier_plantvillage_loss1/classifier_plantvillage_0_split
I0403 16:41:25.646461 21354 net.cpp:148] Top shape: 24 38 (912)
I0403 16:41:25.646476 21354 net.cpp:148] Top shape: 24 38 (912)
I0403 16:41:25.646492 21354 net.cpp:148] Top shape: 24 38 (912)
I0403 16:41:25.646505 21354 net.cpp:156] Memory required for data: 946203936
I0403 16:41:25.646519 21354 layer_factory.hpp:77] Creating layer inception_4b/1x1
I0403 16:41:25.646538 21354 net.cpp:91] Creating Layer inception_4b/1x1
I0403 16:41:25.646572 21354 net.cpp:425] inception_4b/1x1 <- inception_4a/output_inception_4a/output_0_split_1
I0403 16:41:25.646595 21354 net.cpp:399] inception_4b/1x1 -> inception_4b/1x1
I0403 16:41:25.648239 21354 net.cpp:141] Setting up inception_4b/1x1
I0403 16:41:25.648269 21354 net.cpp:148] Top shape: 24 160 14 14 (752640)
I0403 16:41:25.648285 21354 net.cpp:156] Memory required for data: 949214496
I0403 16:41:25.648303 21354 layer_factory.hpp:77] Creating layer inception_4b/relu_1x1
I0403 16:41:25.648320 21354 net.cpp:91] Creating Layer inception_4b/relu_1x1
I0403 16:41:25.648336 21354 net.cpp:425] inception_4b/relu_1x1 <- inception_4b/1x1
I0403 16:41:25.648355 21354 net.cpp:386] inception_4b/relu_1x1 -> inception_4b/1x1 (in-place)
I0403 16:41:25.648535 21354 net.cpp:141] Setting up inception_4b/relu_1x1
I0403 16:41:25.648561 21354 net.cpp:148] Top shape: 24 160 14 14 (752640)
I0403 16:41:25.648573 21354 net.cpp:156] Memory required for data: 952225056
I0403 16:41:25.648587 21354 layer_factory.hpp:77] Creating layer inception_4b/3x3_reduce
I0403 16:41:25.648609 21354 net.cpp:91] Creating Layer inception_4b/3x3_reduce
I0403 16:41:25.648627 21354 net.cpp:425] inception_4b/3x3_reduce <- inception_4a/output_inception_4a/output_0_split_2
I0403 16:41:25.648649 21354 net.cpp:399] inception_4b/3x3_reduce -> inception_4b/3x3_reduce
I0403 16:41:25.650004 21354 net.cpp:141] Setting up inception_4b/3x3_reduce
I0403 16:41:25.650033 21354 net.cpp:148] Top shape: 24 112 14 14 (526848)
I0403 16:41:25.650049 21354 net.cpp:156] Memory required for data: 954332448
I0403 16:41:25.650068 21354 layer_factory.hpp:77] Creating layer inception_4b/relu_3x3_reduce
I0403 16:41:25.650089 21354 net.cpp:91] Creating Layer inception_4b/relu_3x3_reduce
I0403 16:41:25.650106 21354 net.cpp:425] inception_4b/relu_3x3_reduce <- inception_4b/3x3_reduce
I0403 16:41:25.650123 21354 net.cpp:386] inception_4b/relu_3x3_reduce -> inception_4b/3x3_reduce (in-place)
I0403 16:41:25.650408 21354 net.cpp:141] Setting up inception_4b/relu_3x3_reduce
I0403 16:41:25.650434 21354 net.cpp:148] Top shape: 24 112 14 14 (526848)
I0403 16:41:25.650449 21354 net.cpp:156] Memory required for data: 956439840
I0403 16:41:25.650463 21354 layer_factory.hpp:77] Creating layer inception_4b/3x3
I0403 16:41:25.650485 21354 net.cpp:91] Creating Layer inception_4b/3x3
I0403 16:41:25.650502 21354 net.cpp:425] inception_4b/3x3 <- inception_4b/3x3_reduce
I0403 16:41:25.650524 21354 net.cpp:399] inception_4b/3x3 -> inception_4b/3x3
I0403 16:41:25.653489 21354 net.cpp:141] Setting up inception_4b/3x3
I0403 16:41:25.653520 21354 net.cpp:148] Top shape: 24 224 14 14 (1053696)
I0403 16:41:25.653537 21354 net.cpp:156] Memory required for data: 960654624
I0403 16:41:25.653554 21354 layer_factory.hpp:77] Creating layer inception_4b/relu_3x3
I0403 16:41:25.653575 21354 net.cpp:91] Creating Layer inception_4b/relu_3x3
I0403 16:41:25.653591 21354 net.cpp:425] inception_4b/relu_3x3 <- inception_4b/3x3
I0403 16:41:25.653607 21354 net.cpp:386] inception_4b/relu_3x3 -> inception_4b/3x3 (in-place)
I0403 16:41:25.653785 21354 net.cpp:141] Setting up inception_4b/relu_3x3
I0403 16:41:25.653812 21354 net.cpp:148] Top shape: 24 224 14 14 (1053696)
I0403 16:41:25.653827 21354 net.cpp:156] Memory required for data: 964869408
I0403 16:41:25.653841 21354 layer_factory.hpp:77] Creating layer inception_4b/5x5_reduce
I0403 16:41:25.653866 21354 net.cpp:91] Creating Layer inception_4b/5x5_reduce
I0403 16:41:25.653882 21354 net.cpp:425] inception_4b/5x5_reduce <- inception_4a/output_inception_4a/output_0_split_3
I0403 16:41:25.653899 21354 net.cpp:399] inception_4b/5x5_reduce -> inception_4b/5x5_reduce
I0403 16:41:25.654989 21354 net.cpp:141] Setting up inception_4b/5x5_reduce
I0403 16:41:25.655019 21354 net.cpp:148] Top shape: 24 24 14 14 (112896)
I0403 16:41:25.655035 21354 net.cpp:156] Memory required for data: 965320992
I0403 16:41:25.655055 21354 layer_factory.hpp:77] Creating layer inception_4b/relu_5x5_reduce
I0403 16:41:25.655073 21354 net.cpp:91] Creating Layer inception_4b/relu_5x5_reduce
I0403 16:41:25.655104 21354 net.cpp:425] inception_4b/relu_5x5_reduce <- inception_4b/5x5_reduce
I0403 16:41:25.655124 21354 net.cpp:386] inception_4b/relu_5x5_reduce -> inception_4b/5x5_reduce (in-place)
I0403 16:41:25.655306 21354 net.cpp:141] Setting up inception_4b/relu_5x5_reduce
I0403 16:41:25.655331 21354 net.cpp:148] Top shape: 24 24 14 14 (112896)
I0403 16:41:25.655346 21354 net.cpp:156] Memory required for data: 965772576
I0403 16:41:25.655360 21354 layer_factory.hpp:77] Creating layer inception_4b/5x5
I0403 16:41:25.655382 21354 net.cpp:91] Creating Layer inception_4b/5x5
I0403 16:41:25.655398 21354 net.cpp:425] inception_4b/5x5 <- inception_4b/5x5_reduce
I0403 16:41:25.655432 21354 net.cpp:399] inception_4b/5x5 -> inception_4b/5x5
I0403 16:41:25.656702 21354 net.cpp:141] Setting up inception_4b/5x5
I0403 16:41:25.656731 21354 net.cpp:148] Top shape: 24 64 14 14 (301056)
I0403 16:41:25.656749 21354 net.cpp:156] Memory required for data: 966976800
I0403 16:41:25.656767 21354 layer_factory.hpp:77] Creating layer inception_4b/relu_5x5
I0403 16:41:25.656785 21354 net.cpp:91] Creating Layer inception_4b/relu_5x5
I0403 16:41:25.656801 21354 net.cpp:425] inception_4b/relu_5x5 <- inception_4b/5x5
I0403 16:41:25.656821 21354 net.cpp:386] inception_4b/relu_5x5 -> inception_4b/5x5 (in-place)
I0403 16:41:25.657115 21354 net.cpp:141] Setting up inception_4b/relu_5x5
I0403 16:41:25.657142 21354 net.cpp:148] Top shape: 24 64 14 14 (301056)
I0403 16:41:25.657158 21354 net.cpp:156] Memory required for data: 968181024
I0403 16:41:25.657173 21354 layer_factory.hpp:77] Creating layer inception_4b/pool
I0403 16:41:25.657191 21354 net.cpp:91] Creating Layer inception_4b/pool
I0403 16:41:25.657207 21354 net.cpp:425] inception_4b/pool <- inception_4a/output_inception_4a/output_0_split_4
I0403 16:41:25.657227 21354 net.cpp:399] inception_4b/pool -> inception_4b/pool
I0403 16:41:25.657292 21354 net.cpp:141] Setting up inception_4b/pool
I0403 16:41:25.657317 21354 net.cpp:148] Top shape: 24 512 14 14 (2408448)
I0403 16:41:25.657331 21354 net.cpp:156] Memory required for data: 977814816
I0403 16:41:25.657346 21354 layer_factory.hpp:77] Creating layer inception_4b/pool_proj
I0403 16:41:25.657371 21354 net.cpp:91] Creating Layer inception_4b/pool_proj
I0403 16:41:25.657389 21354 net.cpp:425] inception_4b/pool_proj <- inception_4b/pool
I0403 16:41:25.657408 21354 net.cpp:399] inception_4b/pool_proj -> inception_4b/pool_proj
I0403 16:41:25.658612 21354 net.cpp:141] Setting up inception_4b/pool_proj
I0403 16:41:25.658640 21354 net.cpp:148] Top shape: 24 64 14 14 (301056)
I0403 16:41:25.658655 21354 net.cpp:156] Memory required for data: 979019040
I0403 16:41:25.658674 21354 layer_factory.hpp:77] Creating layer inception_4b/relu_pool_proj
I0403 16:41:25.658690 21354 net.cpp:91] Creating Layer inception_4b/relu_pool_proj
I0403 16:41:25.658705 21354 net.cpp:425] inception_4b/relu_pool_proj <- inception_4b/pool_proj
I0403 16:41:25.658726 21354 net.cpp:386] inception_4b/relu_pool_proj -> inception_4b/pool_proj (in-place)
I0403 16:41:25.658908 21354 net.cpp:141] Setting up inception_4b/relu_pool_proj
I0403 16:41:25.658933 21354 net.cpp:148] Top shape: 24 64 14 14 (301056)
I0403 16:41:25.658947 21354 net.cpp:156] Memory required for data: 980223264
I0403 16:41:25.658962 21354 layer_factory.hpp:77] Creating layer inception_4b/output
I0403 16:41:25.658980 21354 net.cpp:91] Creating Layer inception_4b/output
I0403 16:41:25.659008 21354 net.cpp:425] inception_4b/output <- inception_4b/1x1
I0403 16:41:25.659026 21354 net.cpp:425] inception_4b/output <- inception_4b/3x3
I0403 16:41:25.659041 21354 net.cpp:425] inception_4b/output <- inception_4b/5x5
I0403 16:41:25.659056 21354 net.cpp:425] inception_4b/output <- inception_4b/pool_proj
I0403 16:41:25.659072 21354 net.cpp:399] inception_4b/output -> inception_4b/output
I0403 16:41:25.659119 21354 net.cpp:141] Setting up inception_4b/output
I0403 16:41:25.659142 21354 net.cpp:148] Top shape: 24 512 14 14 (2408448)
I0403 16:41:25.659157 21354 net.cpp:156] Memory required for data: 989857056
I0403 16:41:25.659185 21354 layer_factory.hpp:77] Creating layer inception_4b/output_inception_4b/output_0_split
I0403 16:41:25.659203 21354 net.cpp:91] Creating Layer inception_4b/output_inception_4b/output_0_split
I0403 16:41:25.659217 21354 net.cpp:425] inception_4b/output_inception_4b/output_0_split <- inception_4b/output
I0403 16:41:25.659237 21354 net.cpp:399] inception_4b/output_inception_4b/output_0_split -> inception_4b/output_inception_4b/output_0_split_0
I0403 16:41:25.659257 21354 net.cpp:399] inception_4b/output_inception_4b/output_0_split -> inception_4b/output_inception_4b/output_0_split_1
I0403 16:41:25.659277 21354 net.cpp:399] inception_4b/output_inception_4b/output_0_split -> inception_4b/output_inception_4b/output_0_split_2
I0403 16:41:25.659296 21354 net.cpp:399] inception_4b/output_inception_4b/output_0_split -> inception_4b/output_inception_4b/output_0_split_3
I0403 16:41:25.659378 21354 net.cpp:141] Setting up inception_4b/output_inception_4b/output_0_split
I0403 16:41:25.659402 21354 net.cpp:148] Top shape: 24 512 14 14 (2408448)
I0403 16:41:25.659418 21354 net.cpp:148] Top shape: 24 512 14 14 (2408448)
I0403 16:41:25.659433 21354 net.cpp:148] Top shape: 24 512 14 14 (2408448)
I0403 16:41:25.659448 21354 net.cpp:148] Top shape: 24 512 14 14 (2408448)
I0403 16:41:25.659461 21354 net.cpp:156] Memory required for data: 1028392224
I0403 16:41:25.659476 21354 layer_factory.hpp:77] Creating layer inception_4c/1x1
I0403 16:41:25.659497 21354 net.cpp:91] Creating Layer inception_4c/1x1
I0403 16:41:25.659514 21354 net.cpp:425] inception_4c/1x1 <- inception_4b/output_inception_4b/output_0_split_0
I0403 16:41:25.659533 21354 net.cpp:399] inception_4c/1x1 -> inception_4c/1x1
I0403 16:41:25.660965 21354 net.cpp:141] Setting up inception_4c/1x1
I0403 16:41:25.660998 21354 net.cpp:148] Top shape: 24 128 14 14 (602112)
I0403 16:41:25.661015 21354 net.cpp:156] Memory required for data: 1030800672
I0403 16:41:25.661033 21354 layer_factory.hpp:77] Creating layer inception_4c/relu_1x1
I0403 16:41:25.661054 21354 net.cpp:91] Creating Layer inception_4c/relu_1x1
I0403 16:41:25.661072 21354 net.cpp:425] inception_4c/relu_1x1 <- inception_4c/1x1
I0403 16:41:25.661089 21354 net.cpp:386] inception_4c/relu_1x1 -> inception_4c/1x1 (in-place)
I0403 16:41:25.661275 21354 net.cpp:141] Setting up inception_4c/relu_1x1
I0403 16:41:25.661303 21354 net.cpp:148] Top shape: 24 128 14 14 (602112)
I0403 16:41:25.661319 21354 net.cpp:156] Memory required for data: 1033209120
I0403 16:41:25.661334 21354 layer_factory.hpp:77] Creating layer inception_4c/3x3_reduce
I0403 16:41:25.661356 21354 net.cpp:91] Creating Layer inception_4c/3x3_reduce
I0403 16:41:25.661375 21354 net.cpp:425] inception_4c/3x3_reduce <- inception_4b/output_inception_4b/output_0_split_1
I0403 16:41:25.661393 21354 net.cpp:399] inception_4c/3x3_reduce -> inception_4c/3x3_reduce
I0403 16:41:25.663326 21354 net.cpp:141] Setting up inception_4c/3x3_reduce
I0403 16:41:25.663358 21354 net.cpp:148] Top shape: 24 128 14 14 (602112)
I0403 16:41:25.663377 21354 net.cpp:156] Memory required for data: 1035617568
I0403 16:41:25.663394 21354 layer_factory.hpp:77] Creating layer inception_4c/relu_3x3_reduce
I0403 16:41:25.663414 21354 net.cpp:91] Creating Layer inception_4c/relu_3x3_reduce
I0403 16:41:25.663431 21354 net.cpp:425] inception_4c/relu_3x3_reduce <- inception_4c/3x3_reduce
I0403 16:41:25.663451 21354 net.cpp:386] inception_4c/relu_3x3_reduce -> inception_4c/3x3_reduce (in-place)
I0403 16:41:25.663738 21354 net.cpp:141] Setting up inception_4c/relu_3x3_reduce
I0403 16:41:25.663766 21354 net.cpp:148] Top shape: 24 128 14 14 (602112)
I0403 16:41:25.663784 21354 net.cpp:156] Memory required for data: 1038026016
I0403 16:41:25.663800 21354 layer_factory.hpp:77] Creating layer inception_4c/3x3
I0403 16:41:25.663825 21354 net.cpp:91] Creating Layer inception_4c/3x3
I0403 16:41:25.663843 21354 net.cpp:425] inception_4c/3x3 <- inception_4c/3x3_reduce
I0403 16:41:25.663862 21354 net.cpp:399] inception_4c/3x3 -> inception_4c/3x3
I0403 16:41:25.667475 21354 net.cpp:141] Setting up inception_4c/3x3
I0403 16:41:25.667517 21354 net.cpp:148] Top shape: 24 256 14 14 (1204224)
I0403 16:41:25.667533 21354 net.cpp:156] Memory required for data: 1042842912
I0403 16:41:25.667565 21354 layer_factory.hpp:77] Creating layer inception_4c/relu_3x3
I0403 16:41:25.667587 21354 net.cpp:91] Creating Layer inception_4c/relu_3x3
I0403 16:41:25.667603 21354 net.cpp:425] inception_4c/relu_3x3 <- inception_4c/3x3
I0403 16:41:25.667621 21354 net.cpp:386] inception_4c/relu_3x3 -> inception_4c/3x3 (in-place)
I0403 16:41:25.667806 21354 net.cpp:141] Setting up inception_4c/relu_3x3
I0403 16:41:25.667834 21354 net.cpp:148] Top shape: 24 256 14 14 (1204224)
I0403 16:41:25.667848 21354 net.cpp:156] Memory required for data: 1047659808
I0403 16:41:25.667863 21354 layer_factory.hpp:77] Creating layer inception_4c/5x5_reduce
I0403 16:41:25.667886 21354 net.cpp:91] Creating Layer inception_4c/5x5_reduce
I0403 16:41:25.667903 21354 net.cpp:425] inception_4c/5x5_reduce <- inception_4b/output_inception_4b/output_0_split_2
I0403 16:41:25.667925 21354 net.cpp:399] inception_4c/5x5_reduce -> inception_4c/5x5_reduce
I0403 16:41:25.669049 21354 net.cpp:141] Setting up inception_4c/5x5_reduce
I0403 16:41:25.669085 21354 net.cpp:148] Top shape: 24 24 14 14 (112896)
I0403 16:41:25.669100 21354 net.cpp:156] Memory required for data: 1048111392
I0403 16:41:25.669118 21354 layer_factory.hpp:77] Creating layer inception_4c/relu_5x5_reduce
I0403 16:41:25.669143 21354 net.cpp:91] Creating Layer inception_4c/relu_5x5_reduce
I0403 16:41:25.669160 21354 net.cpp:425] inception_4c/relu_5x5_reduce <- inception_4c/5x5_reduce
I0403 16:41:25.669188 21354 net.cpp:386] inception_4c/relu_5x5_reduce -> inception_4c/5x5_reduce (in-place)
I0403 16:41:25.669374 21354 net.cpp:141] Setting up inception_4c/relu_5x5_reduce
I0403 16:41:25.669404 21354 net.cpp:148] Top shape: 24 24 14 14 (112896)
I0403 16:41:25.669426 21354 net.cpp:156] Memory required for data: 1048562976
I0403 16:41:25.669445 21354 layer_factory.hpp:77] Creating layer inception_4c/5x5
I0403 16:41:25.669471 21354 net.cpp:91] Creating Layer inception_4c/5x5
I0403 16:41:25.669497 21354 net.cpp:425] inception_4c/5x5 <- inception_4c/5x5_reduce
I0403 16:41:25.669526 21354 net.cpp:399] inception_4c/5x5 -> inception_4c/5x5
I0403 16:41:25.670826 21354 net.cpp:141] Setting up inception_4c/5x5
I0403 16:41:25.670855 21354 net.cpp:148] Top shape: 24 64 14 14 (301056)
I0403 16:41:25.670871 21354 net.cpp:156] Memory required for data: 1049767200
I0403 16:41:25.670889 21354 layer_factory.hpp:77] Creating layer inception_4c/relu_5x5
I0403 16:41:25.670910 21354 net.cpp:91] Creating Layer inception_4c/relu_5x5
I0403 16:41:25.670928 21354 net.cpp:425] inception_4c/relu_5x5 <- inception_4c/5x5
I0403 16:41:25.670944 21354 net.cpp:386] inception_4c/relu_5x5 -> inception_4c/5x5 (in-place)
I0403 16:41:25.671253 21354 net.cpp:141] Setting up inception_4c/relu_5x5
I0403 16:41:25.671282 21354 net.cpp:148] Top shape: 24 64 14 14 (301056)
I0403 16:41:25.671296 21354 net.cpp:156] Memory required for data: 1050971424
I0403 16:41:25.671311 21354 layer_factory.hpp:77] Creating layer inception_4c/pool
I0403 16:41:25.671331 21354 net.cpp:91] Creating Layer inception_4c/pool
I0403 16:41:25.671347 21354 net.cpp:425] inception_4c/pool <- inception_4b/output_inception_4b/output_0_split_3
I0403 16:41:25.671366 21354 net.cpp:399] inception_4c/pool -> inception_4c/pool
I0403 16:41:25.671433 21354 net.cpp:141] Setting up inception_4c/pool
I0403 16:41:25.671458 21354 net.cpp:148] Top shape: 24 512 14 14 (2408448)
I0403 16:41:25.671471 21354 net.cpp:156] Memory required for data: 1060605216
I0403 16:41:25.671486 21354 layer_factory.hpp:77] Creating layer inception_4c/pool_proj
I0403 16:41:25.671509 21354 net.cpp:91] Creating Layer inception_4c/pool_proj
I0403 16:41:25.671525 21354 net.cpp:425] inception_4c/pool_proj <- inception_4c/pool
I0403 16:41:25.671546 21354 net.cpp:399] inception_4c/pool_proj -> inception_4c/pool_proj
I0403 16:41:25.672813 21354 net.cpp:141] Setting up inception_4c/pool_proj
I0403 16:41:25.672843 21354 net.cpp:148] Top shape: 24 64 14 14 (301056)
I0403 16:41:25.672874 21354 net.cpp:156] Memory required for data: 1061809440
I0403 16:41:25.672894 21354 layer_factory.hpp:77] Creating layer inception_4c/relu_pool_proj
I0403 16:41:25.672914 21354 net.cpp:91] Creating Layer inception_4c/relu_pool_proj
I0403 16:41:25.672932 21354 net.cpp:425] inception_4c/relu_pool_proj <- inception_4c/pool_proj
I0403 16:41:25.672952 21354 net.cpp:386] inception_4c/relu_pool_proj -> inception_4c/pool_proj (in-place)
I0403 16:41:25.673151 21354 net.cpp:141] Setting up inception_4c/relu_pool_proj
I0403 16:41:25.673178 21354 net.cpp:148] Top shape: 24 64 14 14 (301056)
I0403 16:41:25.673193 21354 net.cpp:156] Memory required for data: 1063013664
I0403 16:41:25.673210 21354 layer_factory.hpp:77] Creating layer inception_4c/output
I0403 16:41:25.673231 21354 net.cpp:91] Creating Layer inception_4c/output
I0403 16:41:25.673248 21354 net.cpp:425] inception_4c/output <- inception_4c/1x1
I0403 16:41:25.673264 21354 net.cpp:425] inception_4c/output <- inception_4c/3x3
I0403 16:41:25.673280 21354 net.cpp:425] inception_4c/output <- inception_4c/5x5
I0403 16:41:25.673296 21354 net.cpp:425] inception_4c/output <- inception_4c/pool_proj
I0403 16:41:25.673313 21354 net.cpp:399] inception_4c/output -> inception_4c/output
I0403 16:41:25.673359 21354 net.cpp:141] Setting up inception_4c/output
I0403 16:41:25.673385 21354 net.cpp:148] Top shape: 24 512 14 14 (2408448)
I0403 16:41:25.673400 21354 net.cpp:156] Memory required for data: 1072647456
I0403 16:41:25.673414 21354 layer_factory.hpp:77] Creating layer inception_4c/output_inception_4c/output_0_split
I0403 16:41:25.673431 21354 net.cpp:91] Creating Layer inception_4c/output_inception_4c/output_0_split
I0403 16:41:25.673447 21354 net.cpp:425] inception_4c/output_inception_4c/output_0_split <- inception_4c/output
I0403 16:41:25.673466 21354 net.cpp:399] inception_4c/output_inception_4c/output_0_split -> inception_4c/output_inception_4c/output_0_split_0
I0403 16:41:25.673487 21354 net.cpp:399] inception_4c/output_inception_4c/output_0_split -> inception_4c/output_inception_4c/output_0_split_1
I0403 16:41:25.673508 21354 net.cpp:399] inception_4c/output_inception_4c/output_0_split -> inception_4c/output_inception_4c/output_0_split_2
I0403 16:41:25.673528 21354 net.cpp:399] inception_4c/output_inception_4c/output_0_split -> inception_4c/output_inception_4c/output_0_split_3
I0403 16:41:25.673614 21354 net.cpp:141] Setting up inception_4c/output_inception_4c/output_0_split
I0403 16:41:25.673640 21354 net.cpp:148] Top shape: 24 512 14 14 (2408448)
I0403 16:41:25.673657 21354 net.cpp:148] Top shape: 24 512 14 14 (2408448)
I0403 16:41:25.673672 21354 net.cpp:148] Top shape: 24 512 14 14 (2408448)
I0403 16:41:25.673687 21354 net.cpp:148] Top shape: 24 512 14 14 (2408448)
I0403 16:41:25.673701 21354 net.cpp:156] Memory required for data: 1111182624
I0403 16:41:25.673715 21354 layer_factory.hpp:77] Creating layer inception_4d/1x1
I0403 16:41:25.673738 21354 net.cpp:91] Creating Layer inception_4d/1x1
I0403 16:41:25.673754 21354 net.cpp:425] inception_4d/1x1 <- inception_4c/output_inception_4c/output_0_split_0
I0403 16:41:25.673774 21354 net.cpp:399] inception_4d/1x1 -> inception_4d/1x1
I0403 16:41:25.675259 21354 net.cpp:141] Setting up inception_4d/1x1
I0403 16:41:25.675290 21354 net.cpp:148] Top shape: 24 112 14 14 (526848)
I0403 16:41:25.675307 21354 net.cpp:156] Memory required for data: 1113290016
I0403 16:41:25.675326 21354 layer_factory.hpp:77] Creating layer inception_4d/relu_1x1
I0403 16:41:25.675344 21354 net.cpp:91] Creating Layer inception_4d/relu_1x1
I0403 16:41:25.675359 21354 net.cpp:425] inception_4d/relu_1x1 <- inception_4d/1x1
I0403 16:41:25.675377 21354 net.cpp:386] inception_4d/relu_1x1 -> inception_4d/1x1 (in-place)
I0403 16:41:25.675570 21354 net.cpp:141] Setting up inception_4d/relu_1x1
I0403 16:41:25.675597 21354 net.cpp:148] Top shape: 24 112 14 14 (526848)
I0403 16:41:25.675612 21354 net.cpp:156] Memory required for data: 1115397408
I0403 16:41:25.675627 21354 layer_factory.hpp:77] Creating layer inception_4d/3x3_reduce
I0403 16:41:25.675665 21354 net.cpp:91] Creating Layer inception_4d/3x3_reduce
I0403 16:41:25.675684 21354 net.cpp:425] inception_4d/3x3_reduce <- inception_4c/output_inception_4c/output_0_split_1
I0403 16:41:25.675705 21354 net.cpp:399] inception_4d/3x3_reduce -> inception_4d/3x3_reduce
I0403 16:41:25.677269 21354 net.cpp:141] Setting up inception_4d/3x3_reduce
I0403 16:41:25.677299 21354 net.cpp:148] Top shape: 24 144 14 14 (677376)
I0403 16:41:25.677315 21354 net.cpp:156] Memory required for data: 1118106912
I0403 16:41:25.677335 21354 layer_factory.hpp:77] Creating layer inception_4d/relu_3x3_reduce
I0403 16:41:25.677356 21354 net.cpp:91] Creating Layer inception_4d/relu_3x3_reduce
I0403 16:41:25.677373 21354 net.cpp:425] inception_4d/relu_3x3_reduce <- inception_4d/3x3_reduce
I0403 16:41:25.677392 21354 net.cpp:386] inception_4d/relu_3x3_reduce -> inception_4d/3x3_reduce (in-place)
I0403 16:41:25.677690 21354 net.cpp:141] Setting up inception_4d/relu_3x3_reduce
I0403 16:41:25.677716 21354 net.cpp:148] Top shape: 24 144 14 14 (677376)
I0403 16:41:25.677731 21354 net.cpp:156] Memory required for data: 1120816416
I0403 16:41:25.677747 21354 layer_factory.hpp:77] Creating layer inception_4d/3x3
I0403 16:41:25.677768 21354 net.cpp:91] Creating Layer inception_4d/3x3
I0403 16:41:25.677785 21354 net.cpp:425] inception_4d/3x3 <- inception_4d/3x3_reduce
I0403 16:41:25.677808 21354 net.cpp:399] inception_4d/3x3 -> inception_4d/3x3
I0403 16:41:25.682193 21354 net.cpp:141] Setting up inception_4d/3x3
I0403 16:41:25.682227 21354 net.cpp:148] Top shape: 24 288 14 14 (1354752)
I0403 16:41:25.682245 21354 net.cpp:156] Memory required for data: 1126235424
I0403 16:41:25.682265 21354 layer_factory.hpp:77] Creating layer inception_4d/relu_3x3
I0403 16:41:25.682284 21354 net.cpp:91] Creating Layer inception_4d/relu_3x3
I0403 16:41:25.682302 21354 net.cpp:425] inception_4d/relu_3x3 <- inception_4d/3x3
I0403 16:41:25.682322 21354 net.cpp:386] inception_4d/relu_3x3 -> inception_4d/3x3 (in-place)
I0403 16:41:25.682510 21354 net.cpp:141] Setting up inception_4d/relu_3x3
I0403 16:41:25.682536 21354 net.cpp:148] Top shape: 24 288 14 14 (1354752)
I0403 16:41:25.682551 21354 net.cpp:156] Memory required for data: 1131654432
I0403 16:41:25.682567 21354 layer_factory.hpp:77] Creating layer inception_4d/5x5_reduce
I0403 16:41:25.682591 21354 net.cpp:91] Creating Layer inception_4d/5x5_reduce
I0403 16:41:25.682610 21354 net.cpp:425] inception_4d/5x5_reduce <- inception_4c/output_inception_4c/output_0_split_2
I0403 16:41:25.682631 21354 net.cpp:399] inception_4d/5x5_reduce -> inception_4d/5x5_reduce
I0403 16:41:25.683823 21354 net.cpp:141] Setting up inception_4d/5x5_reduce
I0403 16:41:25.683856 21354 net.cpp:148] Top shape: 24 32 14 14 (150528)
I0403 16:41:25.683874 21354 net.cpp:156] Memory required for data: 1132256544
I0403 16:41:25.683893 21354 layer_factory.hpp:77] Creating layer inception_4d/relu_5x5_reduce
I0403 16:41:25.683912 21354 net.cpp:91] Creating Layer inception_4d/relu_5x5_reduce
I0403 16:41:25.683929 21354 net.cpp:425] inception_4d/relu_5x5_reduce <- inception_4d/5x5_reduce
I0403 16:41:25.683948 21354 net.cpp:386] inception_4d/relu_5x5_reduce -> inception_4d/5x5_reduce (in-place)
I0403 16:41:25.684168 21354 net.cpp:141] Setting up inception_4d/relu_5x5_reduce
I0403 16:41:25.684195 21354 net.cpp:148] Top shape: 24 32 14 14 (150528)
I0403 16:41:25.684209 21354 net.cpp:156] Memory required for data: 1132858656
I0403 16:41:25.684224 21354 layer_factory.hpp:77] Creating layer inception_4d/5x5
I0403 16:41:25.684247 21354 net.cpp:91] Creating Layer inception_4d/5x5
I0403 16:41:25.684265 21354 net.cpp:425] inception_4d/5x5 <- inception_4d/5x5_reduce
I0403 16:41:25.684289 21354 net.cpp:399] inception_4d/5x5 -> inception_4d/5x5
I0403 16:41:25.685883 21354 net.cpp:141] Setting up inception_4d/5x5
I0403 16:41:25.685914 21354 net.cpp:148] Top shape: 24 64 14 14 (301056)
I0403 16:41:25.685930 21354 net.cpp:156] Memory required for data: 1134062880
I0403 16:41:25.685950 21354 layer_factory.hpp:77] Creating layer inception_4d/relu_5x5
I0403 16:41:25.685992 21354 net.cpp:91] Creating Layer inception_4d/relu_5x5
I0403 16:41:25.686013 21354 net.cpp:425] inception_4d/relu_5x5 <- inception_4d/5x5
I0403 16:41:25.686031 21354 net.cpp:386] inception_4d/relu_5x5 -> inception_4d/5x5 (in-place)
I0403 16:41:25.686343 21354 net.cpp:141] Setting up inception_4d/relu_5x5
I0403 16:41:25.686372 21354 net.cpp:148] Top shape: 24 64 14 14 (301056)
I0403 16:41:25.686388 21354 net.cpp:156] Memory required for data: 1135267104
I0403 16:41:25.686403 21354 layer_factory.hpp:77] Creating layer inception_4d/pool
I0403 16:41:25.686422 21354 net.cpp:91] Creating Layer inception_4d/pool
I0403 16:41:25.686439 21354 net.cpp:425] inception_4d/pool <- inception_4c/output_inception_4c/output_0_split_3
I0403 16:41:25.686460 21354 net.cpp:399] inception_4d/pool -> inception_4d/pool
I0403 16:41:25.686532 21354 net.cpp:141] Setting up inception_4d/pool
I0403 16:41:25.686558 21354 net.cpp:148] Top shape: 24 512 14 14 (2408448)
I0403 16:41:25.686573 21354 net.cpp:156] Memory required for data: 1144900896
I0403 16:41:25.686589 21354 layer_factory.hpp:77] Creating layer inception_4d/pool_proj
I0403 16:41:25.686609 21354 net.cpp:91] Creating Layer inception_4d/pool_proj
I0403 16:41:25.686628 21354 net.cpp:425] inception_4d/pool_proj <- inception_4d/pool
I0403 16:41:25.686650 21354 net.cpp:399] inception_4d/pool_proj -> inception_4d/pool_proj
I0403 16:41:25.688462 21354 net.cpp:141] Setting up inception_4d/pool_proj
I0403 16:41:25.688495 21354 net.cpp:148] Top shape: 24 64 14 14 (301056)
I0403 16:41:25.688513 21354 net.cpp:156] Memory required for data: 1146105120
I0403 16:41:25.688534 21354 layer_factory.hpp:77] Creating layer inception_4d/relu_pool_proj
I0403 16:41:25.688554 21354 net.cpp:91] Creating Layer inception_4d/relu_pool_proj
I0403 16:41:25.688570 21354 net.cpp:425] inception_4d/relu_pool_proj <- inception_4d/pool_proj
I0403 16:41:25.688591 21354 net.cpp:386] inception_4d/relu_pool_proj -> inception_4d/pool_proj (in-place)
I0403 16:41:25.688786 21354 net.cpp:141] Setting up inception_4d/relu_pool_proj
I0403 16:41:25.688812 21354 net.cpp:148] Top shape: 24 64 14 14 (301056)
I0403 16:41:25.688828 21354 net.cpp:156] Memory required for data: 1147309344
I0403 16:41:25.688843 21354 layer_factory.hpp:77] Creating layer inception_4d/output
I0403 16:41:25.688861 21354 net.cpp:91] Creating Layer inception_4d/output
I0403 16:41:25.688879 21354 net.cpp:425] inception_4d/output <- inception_4d/1x1
I0403 16:41:25.688896 21354 net.cpp:425] inception_4d/output <- inception_4d/3x3
I0403 16:41:25.688911 21354 net.cpp:425] inception_4d/output <- inception_4d/5x5
I0403 16:41:25.688927 21354 net.cpp:425] inception_4d/output <- inception_4d/pool_proj
I0403 16:41:25.688946 21354 net.cpp:399] inception_4d/output -> inception_4d/output
I0403 16:41:25.689007 21354 net.cpp:141] Setting up inception_4d/output
I0403 16:41:25.689035 21354 net.cpp:148] Top shape: 24 528 14 14 (2483712)
I0403 16:41:25.689051 21354 net.cpp:156] Memory required for data: 1157244192
I0403 16:41:25.689065 21354 layer_factory.hpp:77] Creating layer inception_4d/output_inception_4d/output_0_split
I0403 16:41:25.689084 21354 net.cpp:91] Creating Layer inception_4d/output_inception_4d/output_0_split
I0403 16:41:25.689100 21354 net.cpp:425] inception_4d/output_inception_4d/output_0_split <- inception_4d/output
I0403 16:41:25.689116 21354 net.cpp:399] inception_4d/output_inception_4d/output_0_split -> inception_4d/output_inception_4d/output_0_split_0
I0403 16:41:25.689139 21354 net.cpp:399] inception_4d/output_inception_4d/output_0_split -> inception_4d/output_inception_4d/output_0_split_1
I0403 16:41:25.689162 21354 net.cpp:399] inception_4d/output_inception_4d/output_0_split -> inception_4d/output_inception_4d/output_0_split_2
I0403 16:41:25.689182 21354 net.cpp:399] inception_4d/output_inception_4d/output_0_split -> inception_4d/output_inception_4d/output_0_split_3
I0403 16:41:25.689201 21354 net.cpp:399] inception_4d/output_inception_4d/output_0_split -> inception_4d/output_inception_4d/output_0_split_4
I0403 16:41:25.689308 21354 net.cpp:141] Setting up inception_4d/output_inception_4d/output_0_split
I0403 16:41:25.689345 21354 net.cpp:148] Top shape: 24 528 14 14 (2483712)
I0403 16:41:25.689365 21354 net.cpp:148] Top shape: 24 528 14 14 (2483712)
I0403 16:41:25.689383 21354 net.cpp:148] Top shape: 24 528 14 14 (2483712)
I0403 16:41:25.689398 21354 net.cpp:148] Top shape: 24 528 14 14 (2483712)
I0403 16:41:25.689412 21354 net.cpp:148] Top shape: 24 528 14 14 (2483712)
I0403 16:41:25.689426 21354 net.cpp:156] Memory required for data: 1206918432
I0403 16:41:25.689441 21354 layer_factory.hpp:77] Creating layer loss2/ave_pool
I0403 16:41:25.689458 21354 net.cpp:91] Creating Layer loss2/ave_pool
I0403 16:41:25.689474 21354 net.cpp:425] loss2/ave_pool <- inception_4d/output_inception_4d/output_0_split_0
I0403 16:41:25.689493 21354 net.cpp:399] loss2/ave_pool -> loss2/ave_pool
I0403 16:41:25.689816 21354 net.cpp:141] Setting up loss2/ave_pool
I0403 16:41:25.689846 21354 net.cpp:148] Top shape: 24 528 4 4 (202752)
I0403 16:41:25.689862 21354 net.cpp:156] Memory required for data: 1207729440
I0403 16:41:25.689877 21354 layer_factory.hpp:77] Creating layer loss2/conv
I0403 16:41:25.689899 21354 net.cpp:91] Creating Layer loss2/conv
I0403 16:41:25.689916 21354 net.cpp:425] loss2/conv <- loss2/ave_pool
I0403 16:41:25.689935 21354 net.cpp:399] loss2/conv -> loss2/conv
I0403 16:41:25.691900 21354 net.cpp:141] Setting up loss2/conv
I0403 16:41:25.691931 21354 net.cpp:148] Top shape: 24 128 4 4 (49152)
I0403 16:41:25.691947 21354 net.cpp:156] Memory required for data: 1207926048
I0403 16:41:25.691967 21354 layer_factory.hpp:77] Creating layer loss2/relu_conv
I0403 16:41:25.691988 21354 net.cpp:91] Creating Layer loss2/relu_conv
I0403 16:41:25.692009 21354 net.cpp:425] loss2/relu_conv <- loss2/conv
I0403 16:41:25.692030 21354 net.cpp:386] loss2/relu_conv -> loss2/conv (in-place)
I0403 16:41:25.692325 21354 net.cpp:141] Setting up loss2/relu_conv
I0403 16:41:25.692353 21354 net.cpp:148] Top shape: 24 128 4 4 (49152)
I0403 16:41:25.692368 21354 net.cpp:156] Memory required for data: 1208122656
I0403 16:41:25.692383 21354 layer_factory.hpp:77] Creating layer loss2/fc
I0403 16:41:25.692401 21354 net.cpp:91] Creating Layer loss2/fc
I0403 16:41:25.692419 21354 net.cpp:425] loss2/fc <- loss2/conv
I0403 16:41:25.692438 21354 net.cpp:399] loss2/fc -> loss2/fc
I0403 16:41:25.710660 21354 net.cpp:141] Setting up loss2/fc
I0403 16:41:25.710714 21354 net.cpp:148] Top shape: 24 1024 (24576)
I0403 16:41:25.710731 21354 net.cpp:156] Memory required for data: 1208220960
I0403 16:41:25.710749 21354 layer_factory.hpp:77] Creating layer loss2/relu_fc
I0403 16:41:25.710769 21354 net.cpp:91] Creating Layer loss2/relu_fc
I0403 16:41:25.710788 21354 net.cpp:425] loss2/relu_fc <- loss2/fc
I0403 16:41:25.710805 21354 net.cpp:386] loss2/relu_fc -> loss2/fc (in-place)
I0403 16:41:25.711148 21354 net.cpp:141] Setting up loss2/relu_fc
I0403 16:41:25.711177 21354 net.cpp:148] Top shape: 24 1024 (24576)
I0403 16:41:25.711192 21354 net.cpp:156] Memory required for data: 1208319264
I0403 16:41:25.711210 21354 layer_factory.hpp:77] Creating layer loss2/drop_fc
I0403 16:41:25.711227 21354 net.cpp:91] Creating Layer loss2/drop_fc
I0403 16:41:25.711243 21354 net.cpp:425] loss2/drop_fc <- loss2/fc
I0403 16:41:25.711264 21354 net.cpp:386] loss2/drop_fc -> loss2/fc (in-place)
I0403 16:41:25.711318 21354 net.cpp:141] Setting up loss2/drop_fc
I0403 16:41:25.711340 21354 net.cpp:148] Top shape: 24 1024 (24576)
I0403 16:41:25.711355 21354 net.cpp:156] Memory required for data: 1208417568
I0403 16:41:25.711370 21354 layer_factory.hpp:77] Creating layer loss2/classifier_plantvillage
I0403 16:41:25.711392 21354 net.cpp:91] Creating Layer loss2/classifier_plantvillage
I0403 16:41:25.711410 21354 net.cpp:425] loss2/classifier_plantvillage <- loss2/fc
I0403 16:41:25.711431 21354 net.cpp:399] loss2/classifier_plantvillage -> loss2/classifier_plantvillage
I0403 16:41:25.711861 21354 net.cpp:141] Setting up loss2/classifier_plantvillage
I0403 16:41:25.711886 21354 net.cpp:148] Top shape: 24 38 (912)
I0403 16:41:25.711900 21354 net.cpp:156] Memory required for data: 1208421216
I0403 16:41:25.711941 21354 layer_factory.hpp:77] Creating layer loss2/classifier_plantvillage_loss2/classifier_plantvillage_0_split
I0403 16:41:25.711961 21354 net.cpp:91] Creating Layer loss2/classifier_plantvillage_loss2/classifier_plantvillage_0_split
I0403 16:41:25.711977 21354 net.cpp:425] loss2/classifier_plantvillage_loss2/classifier_plantvillage_0_split <- loss2/classifier_plantvillage
I0403 16:41:25.712002 21354 net.cpp:399] loss2/classifier_plantvillage_loss2/classifier_plantvillage_0_split -> loss2/classifier_plantvillage_loss2/classifier_plantvillage_0_split_0
I0403 16:41:25.712025 21354 net.cpp:399] loss2/classifier_plantvillage_loss2/classifier_plantvillage_0_split -> loss2/classifier_plantvillage_loss2/classifier_plantvillage_0_split_1
I0403 16:41:25.712045 21354 net.cpp:399] loss2/classifier_plantvillage_loss2/classifier_plantvillage_0_split -> loss2/classifier_plantvillage_loss2/classifier_plantvillage_0_split_2
I0403 16:41:25.712127 21354 net.cpp:141] Setting up loss2/classifier_plantvillage_loss2/classifier_plantvillage_0_split
I0403 16:41:25.712152 21354 net.cpp:148] Top shape: 24 38 (912)
I0403 16:41:25.712167 21354 net.cpp:148] Top shape: 24 38 (912)
I0403 16:41:25.712182 21354 net.cpp:148] Top shape: 24 38 (912)
I0403 16:41:25.712195 21354 net.cpp:156] Memory required for data: 1208432160
I0403 16:41:25.712211 21354 layer_factory.hpp:77] Creating layer inception_4e/1x1
I0403 16:41:25.712234 21354 net.cpp:91] Creating Layer inception_4e/1x1
I0403 16:41:25.712254 21354 net.cpp:425] inception_4e/1x1 <- inception_4d/output_inception_4d/output_0_split_1
I0403 16:41:25.712272 21354 net.cpp:399] inception_4e/1x1 -> inception_4e/1x1
I0403 16:41:25.714201 21354 net.cpp:141] Setting up inception_4e/1x1
I0403 16:41:25.714231 21354 net.cpp:148] Top shape: 24 256 14 14 (1204224)
I0403 16:41:25.714246 21354 net.cpp:156] Memory required for data: 1213249056
I0403 16:41:25.714264 21354 layer_factory.hpp:77] Creating layer inception_4e/relu_1x1
I0403 16:41:25.714284 21354 net.cpp:91] Creating Layer inception_4e/relu_1x1
I0403 16:41:25.714300 21354 net.cpp:425] inception_4e/relu_1x1 <- inception_4e/1x1
I0403 16:41:25.714316 21354 net.cpp:386] inception_4e/relu_1x1 -> inception_4e/1x1 (in-place)
I0403 16:41:25.714615 21354 net.cpp:141] Setting up inception_4e/relu_1x1
I0403 16:41:25.714640 21354 net.cpp:148] Top shape: 24 256 14 14 (1204224)
I0403 16:41:25.714655 21354 net.cpp:156] Memory required for data: 1218065952
I0403 16:41:25.714669 21354 layer_factory.hpp:77] Creating layer inception_4e/3x3_reduce
I0403 16:41:25.714691 21354 net.cpp:91] Creating Layer inception_4e/3x3_reduce
I0403 16:41:25.714709 21354 net.cpp:425] inception_4e/3x3_reduce <- inception_4d/output_inception_4d/output_0_split_2
I0403 16:41:25.714730 21354 net.cpp:399] inception_4e/3x3_reduce -> inception_4e/3x3_reduce
I0403 16:41:25.716917 21354 net.cpp:141] Setting up inception_4e/3x3_reduce
I0403 16:41:25.716946 21354 net.cpp:148] Top shape: 24 160 14 14 (752640)
I0403 16:41:25.716963 21354 net.cpp:156] Memory required for data: 1221076512
I0403 16:41:25.716980 21354 layer_factory.hpp:77] Creating layer inception_4e/relu_3x3_reduce
I0403 16:41:25.717003 21354 net.cpp:91] Creating Layer inception_4e/relu_3x3_reduce
I0403 16:41:25.717020 21354 net.cpp:425] inception_4e/relu_3x3_reduce <- inception_4e/3x3_reduce
I0403 16:41:25.717039 21354 net.cpp:386] inception_4e/relu_3x3_reduce -> inception_4e/3x3_reduce (in-place)
I0403 16:41:25.717228 21354 net.cpp:141] Setting up inception_4e/relu_3x3_reduce
I0403 16:41:25.717253 21354 net.cpp:148] Top shape: 24 160 14 14 (752640)
I0403 16:41:25.717267 21354 net.cpp:156] Memory required for data: 1224087072
I0403 16:41:25.717281 21354 layer_factory.hpp:77] Creating layer inception_4e/3x3
I0403 16:41:25.717303 21354 net.cpp:91] Creating Layer inception_4e/3x3
I0403 16:41:25.717319 21354 net.cpp:425] inception_4e/3x3 <- inception_4e/3x3_reduce
I0403 16:41:25.717340 21354 net.cpp:399] inception_4e/3x3 -> inception_4e/3x3
I0403 16:41:25.722378 21354 net.cpp:141] Setting up inception_4e/3x3
I0403 16:41:25.722420 21354 net.cpp:148] Top shape: 24 320 14 14 (1505280)
I0403 16:41:25.722437 21354 net.cpp:156] Memory required for data: 1230108192
I0403 16:41:25.722457 21354 layer_factory.hpp:77] Creating layer inception_4e/relu_3x3
I0403 16:41:25.722481 21354 net.cpp:91] Creating Layer inception_4e/relu_3x3
I0403 16:41:25.722498 21354 net.cpp:425] inception_4e/relu_3x3 <- inception_4e/3x3
I0403 16:41:25.722515 21354 net.cpp:386] inception_4e/relu_3x3 -> inception_4e/3x3 (in-place)
I0403 16:41:25.722826 21354 net.cpp:141] Setting up inception_4e/relu_3x3
I0403 16:41:25.722857 21354 net.cpp:148] Top shape: 24 320 14 14 (1505280)
I0403 16:41:25.722874 21354 net.cpp:156] Memory required for data: 1236129312
I0403 16:41:25.722892 21354 layer_factory.hpp:77] Creating layer inception_4e/5x5_reduce
I0403 16:41:25.722914 21354 net.cpp:91] Creating Layer inception_4e/5x5_reduce
I0403 16:41:25.722934 21354 net.cpp:425] inception_4e/5x5_reduce <- inception_4d/output_inception_4d/output_0_split_3
I0403 16:41:25.722954 21354 net.cpp:399] inception_4e/5x5_reduce -> inception_4e/5x5_reduce
I0403 16:41:25.724071 21354 net.cpp:141] Setting up inception_4e/5x5_reduce
I0403 16:41:25.724097 21354 net.cpp:148] Top shape: 24 32 14 14 (150528)
I0403 16:41:25.724113 21354 net.cpp:156] Memory required for data: 1236731424
I0403 16:41:25.724131 21354 layer_factory.hpp:77] Creating layer inception_4e/relu_5x5_reduce
I0403 16:41:25.724151 21354 net.cpp:91] Creating Layer inception_4e/relu_5x5_reduce
I0403 16:41:25.724169 21354 net.cpp:425] inception_4e/relu_5x5_reduce <- inception_4e/5x5_reduce
I0403 16:41:25.724184 21354 net.cpp:386] inception_4e/relu_5x5_reduce -> inception_4e/5x5_reduce (in-place)
I0403 16:41:25.724483 21354 net.cpp:141] Setting up inception_4e/relu_5x5_reduce
I0403 16:41:25.724509 21354 net.cpp:148] Top shape: 24 32 14 14 (150528)
I0403 16:41:25.724524 21354 net.cpp:156] Memory required for data: 1237333536
I0403 16:41:25.724539 21354 layer_factory.hpp:77] Creating layer inception_4e/5x5
I0403 16:41:25.724578 21354 net.cpp:91] Creating Layer inception_4e/5x5
I0403 16:41:25.724597 21354 net.cpp:425] inception_4e/5x5 <- inception_4e/5x5_reduce
I0403 16:41:25.724616 21354 net.cpp:399] inception_4e/5x5 -> inception_4e/5x5
I0403 16:41:25.726469 21354 net.cpp:141] Setting up inception_4e/5x5
I0403 16:41:25.726501 21354 net.cpp:148] Top shape: 24 128 14 14 (602112)
I0403 16:41:25.726518 21354 net.cpp:156] Memory required for data: 1239741984
I0403 16:41:25.726536 21354 layer_factory.hpp:77] Creating layer inception_4e/relu_5x5
I0403 16:41:25.726554 21354 net.cpp:91] Creating Layer inception_4e/relu_5x5
I0403 16:41:25.726572 21354 net.cpp:425] inception_4e/relu_5x5 <- inception_4e/5x5
I0403 16:41:25.726591 21354 net.cpp:386] inception_4e/relu_5x5 -> inception_4e/5x5 (in-place)
I0403 16:41:25.726794 21354 net.cpp:141] Setting up inception_4e/relu_5x5
I0403 16:41:25.726819 21354 net.cpp:148] Top shape: 24 128 14 14 (602112)
I0403 16:41:25.726833 21354 net.cpp:156] Memory required for data: 1242150432
I0403 16:41:25.726848 21354 layer_factory.hpp:77] Creating layer inception_4e/pool
I0403 16:41:25.726866 21354 net.cpp:91] Creating Layer inception_4e/pool
I0403 16:41:25.726882 21354 net.cpp:425] inception_4e/pool <- inception_4d/output_inception_4d/output_0_split_4
I0403 16:41:25.726903 21354 net.cpp:399] inception_4e/pool -> inception_4e/pool
I0403 16:41:25.726974 21354 net.cpp:141] Setting up inception_4e/pool
I0403 16:41:25.727005 21354 net.cpp:148] Top shape: 24 528 14 14 (2483712)
I0403 16:41:25.727020 21354 net.cpp:156] Memory required for data: 1252085280
I0403 16:41:25.727035 21354 layer_factory.hpp:77] Creating layer inception_4e/pool_proj
I0403 16:41:25.727058 21354 net.cpp:91] Creating Layer inception_4e/pool_proj
I0403 16:41:25.727077 21354 net.cpp:425] inception_4e/pool_proj <- inception_4e/pool
I0403 16:41:25.727095 21354 net.cpp:399] inception_4e/pool_proj -> inception_4e/pool_proj
I0403 16:41:25.728605 21354 net.cpp:141] Setting up inception_4e/pool_proj
I0403 16:41:25.728636 21354 net.cpp:148] Top shape: 24 128 14 14 (602112)
I0403 16:41:25.728667 21354 net.cpp:156] Memory required for data: 1254493728
I0403 16:41:25.728687 21354 layer_factory.hpp:77] Creating layer inception_4e/relu_pool_proj
I0403 16:41:25.728706 21354 net.cpp:91] Creating Layer inception_4e/relu_pool_proj
I0403 16:41:25.728723 21354 net.cpp:425] inception_4e/relu_pool_proj <- inception_4e/pool_proj
I0403 16:41:25.728741 21354 net.cpp:386] inception_4e/relu_pool_proj -> inception_4e/pool_proj (in-place)
I0403 16:41:25.729048 21354 net.cpp:141] Setting up inception_4e/relu_pool_proj
I0403 16:41:25.729076 21354 net.cpp:148] Top shape: 24 128 14 14 (602112)
I0403 16:41:25.729092 21354 net.cpp:156] Memory required for data: 1256902176
I0403 16:41:25.729106 21354 layer_factory.hpp:77] Creating layer inception_4e/output
I0403 16:41:25.729125 21354 net.cpp:91] Creating Layer inception_4e/output
I0403 16:41:25.729140 21354 net.cpp:425] inception_4e/output <- inception_4e/1x1
I0403 16:41:25.729154 21354 net.cpp:425] inception_4e/output <- inception_4e/3x3
I0403 16:41:25.729171 21354 net.cpp:425] inception_4e/output <- inception_4e/5x5
I0403 16:41:25.729185 21354 net.cpp:425] inception_4e/output <- inception_4e/pool_proj
I0403 16:41:25.729202 21354 net.cpp:399] inception_4e/output -> inception_4e/output
I0403 16:41:25.729254 21354 net.cpp:141] Setting up inception_4e/output
I0403 16:41:25.729277 21354 net.cpp:148] Top shape: 24 832 14 14 (3913728)
I0403 16:41:25.729291 21354 net.cpp:156] Memory required for data: 1272557088
I0403 16:41:25.729306 21354 layer_factory.hpp:77] Creating layer pool4/3x3_s2
I0403 16:41:25.729326 21354 net.cpp:91] Creating Layer pool4/3x3_s2
I0403 16:41:25.729341 21354 net.cpp:425] pool4/3x3_s2 <- inception_4e/output
I0403 16:41:25.729359 21354 net.cpp:399] pool4/3x3_s2 -> pool4/3x3_s2
I0403 16:41:25.729429 21354 net.cpp:141] Setting up pool4/3x3_s2
I0403 16:41:25.729452 21354 net.cpp:148] Top shape: 24 832 7 7 (978432)
I0403 16:41:25.729466 21354 net.cpp:156] Memory required for data: 1276470816
I0403 16:41:25.729480 21354 layer_factory.hpp:77] Creating layer pool4/3x3_s2_pool4/3x3_s2_0_split
I0403 16:41:25.729497 21354 net.cpp:91] Creating Layer pool4/3x3_s2_pool4/3x3_s2_0_split
I0403 16:41:25.729512 21354 net.cpp:425] pool4/3x3_s2_pool4/3x3_s2_0_split <- pool4/3x3_s2
I0403 16:41:25.729532 21354 net.cpp:399] pool4/3x3_s2_pool4/3x3_s2_0_split -> pool4/3x3_s2_pool4/3x3_s2_0_split_0
I0403 16:41:25.729552 21354 net.cpp:399] pool4/3x3_s2_pool4/3x3_s2_0_split -> pool4/3x3_s2_pool4/3x3_s2_0_split_1
I0403 16:41:25.729571 21354 net.cpp:399] pool4/3x3_s2_pool4/3x3_s2_0_split -> pool4/3x3_s2_pool4/3x3_s2_0_split_2
I0403 16:41:25.729591 21354 net.cpp:399] pool4/3x3_s2_pool4/3x3_s2_0_split -> pool4/3x3_s2_pool4/3x3_s2_0_split_3
I0403 16:41:25.729681 21354 net.cpp:141] Setting up pool4/3x3_s2_pool4/3x3_s2_0_split
I0403 16:41:25.729707 21354 net.cpp:148] Top shape: 24 832 7 7 (978432)
I0403 16:41:25.729723 21354 net.cpp:148] Top shape: 24 832 7 7 (978432)
I0403 16:41:25.729738 21354 net.cpp:148] Top shape: 24 832 7 7 (978432)
I0403 16:41:25.729753 21354 net.cpp:148] Top shape: 24 832 7 7 (978432)
I0403 16:41:25.729765 21354 net.cpp:156] Memory required for data: 1292125728
I0403 16:41:25.729779 21354 layer_factory.hpp:77] Creating layer inception_5a/1x1
I0403 16:41:25.729802 21354 net.cpp:91] Creating Layer inception_5a/1x1
I0403 16:41:25.729820 21354 net.cpp:425] inception_5a/1x1 <- pool4/3x3_s2_pool4/3x3_s2_0_split_0
I0403 16:41:25.729840 21354 net.cpp:399] inception_5a/1x1 -> inception_5a/1x1
I0403 16:41:25.732739 21354 net.cpp:141] Setting up inception_5a/1x1
I0403 16:41:25.732769 21354 net.cpp:148] Top shape: 24 256 7 7 (301056)
I0403 16:41:25.732785 21354 net.cpp:156] Memory required for data: 1293329952
I0403 16:41:25.732805 21354 layer_factory.hpp:77] Creating layer inception_5a/relu_1x1
I0403 16:41:25.732822 21354 net.cpp:91] Creating Layer inception_5a/relu_1x1
I0403 16:41:25.732838 21354 net.cpp:425] inception_5a/relu_1x1 <- inception_5a/1x1
I0403 16:41:25.732857 21354 net.cpp:386] inception_5a/relu_1x1 -> inception_5a/1x1 (in-place)
I0403 16:41:25.733175 21354 net.cpp:141] Setting up inception_5a/relu_1x1
I0403 16:41:25.733201 21354 net.cpp:148] Top shape: 24 256 7 7 (301056)
I0403 16:41:25.733217 21354 net.cpp:156] Memory required for data: 1294534176
I0403 16:41:25.733230 21354 layer_factory.hpp:77] Creating layer inception_5a/3x3_reduce
I0403 16:41:25.733253 21354 net.cpp:91] Creating Layer inception_5a/3x3_reduce
I0403 16:41:25.733269 21354 net.cpp:425] inception_5a/3x3_reduce <- pool4/3x3_s2_pool4/3x3_s2_0_split_1
I0403 16:41:25.733289 21354 net.cpp:399] inception_5a/3x3_reduce -> inception_5a/3x3_reduce
I0403 16:41:25.735760 21354 net.cpp:141] Setting up inception_5a/3x3_reduce
I0403 16:41:25.735790 21354 net.cpp:148] Top shape: 24 160 7 7 (188160)
I0403 16:41:25.735805 21354 net.cpp:156] Memory required for data: 1295286816
I0403 16:41:25.735824 21354 layer_factory.hpp:77] Creating layer inception_5a/relu_3x3_reduce
I0403 16:41:25.735844 21354 net.cpp:91] Creating Layer inception_5a/relu_3x3_reduce
I0403 16:41:25.735862 21354 net.cpp:425] inception_5a/relu_3x3_reduce <- inception_5a/3x3_reduce
I0403 16:41:25.735878 21354 net.cpp:386] inception_5a/relu_3x3_reduce -> inception_5a/3x3_reduce (in-place)
I0403 16:41:25.736073 21354 net.cpp:141] Setting up inception_5a/relu_3x3_reduce
I0403 16:41:25.736099 21354 net.cpp:148] Top shape: 24 160 7 7 (188160)
I0403 16:41:25.736114 21354 net.cpp:156] Memory required for data: 1296039456
I0403 16:41:25.736127 21354 layer_factory.hpp:77] Creating layer inception_5a/3x3
I0403 16:41:25.736150 21354 net.cpp:91] Creating Layer inception_5a/3x3
I0403 16:41:25.736168 21354 net.cpp:425] inception_5a/3x3 <- inception_5a/3x3_reduce
I0403 16:41:25.736189 21354 net.cpp:399] inception_5a/3x3 -> inception_5a/3x3
I0403 16:41:25.741238 21354 net.cpp:141] Setting up inception_5a/3x3
I0403 16:41:25.741271 21354 net.cpp:148] Top shape: 24 320 7 7 (376320)
I0403 16:41:25.741291 21354 net.cpp:156] Memory required for data: 1297544736
I0403 16:41:25.741308 21354 layer_factory.hpp:77] Creating layer inception_5a/relu_3x3
I0403 16:41:25.741327 21354 net.cpp:91] Creating Layer inception_5a/relu_3x3
I0403 16:41:25.741343 21354 net.cpp:425] inception_5a/relu_3x3 <- inception_5a/3x3
I0403 16:41:25.741364 21354 net.cpp:386] inception_5a/relu_3x3 -> inception_5a/3x3 (in-place)
I0403 16:41:25.741660 21354 net.cpp:141] Setting up inception_5a/relu_3x3
I0403 16:41:25.741689 21354 net.cpp:148] Top shape: 24 320 7 7 (376320)
I0403 16:41:25.741704 21354 net.cpp:156] Memory required for data: 1299050016
I0403 16:41:25.741719 21354 layer_factory.hpp:77] Creating layer inception_5a/5x5_reduce
I0403 16:41:25.741741 21354 net.cpp:91] Creating Layer inception_5a/5x5_reduce
I0403 16:41:25.741760 21354 net.cpp:425] inception_5a/5x5_reduce <- pool4/3x3_s2_pool4/3x3_s2_0_split_2
I0403 16:41:25.741780 21354 net.cpp:399] inception_5a/5x5_reduce -> inception_5a/5x5_reduce
I0403 16:41:25.742971 21354 net.cpp:141] Setting up inception_5a/5x5_reduce
I0403 16:41:25.743005 21354 net.cpp:148] Top shape: 24 32 7 7 (37632)
I0403 16:41:25.743023 21354 net.cpp:156] Memory required for data: 1299200544
I0403 16:41:25.743041 21354 layer_factory.hpp:77] Creating layer inception_5a/relu_5x5_reduce
I0403 16:41:25.743059 21354 net.cpp:91] Creating Layer inception_5a/relu_5x5_reduce
I0403 16:41:25.743074 21354 net.cpp:425] inception_5a/relu_5x5_reduce <- inception_5a/5x5_reduce
I0403 16:41:25.743094 21354 net.cpp:386] inception_5a/relu_5x5_reduce -> inception_5a/5x5_reduce (in-place)
I0403 16:41:25.743402 21354 net.cpp:141] Setting up inception_5a/relu_5x5_reduce
I0403 16:41:25.743427 21354 net.cpp:148] Top shape: 24 32 7 7 (37632)
I0403 16:41:25.743441 21354 net.cpp:156] Memory required for data: 1299351072
I0403 16:41:25.743456 21354 layer_factory.hpp:77] Creating layer inception_5a/5x5
I0403 16:41:25.743479 21354 net.cpp:91] Creating Layer inception_5a/5x5
I0403 16:41:25.743495 21354 net.cpp:425] inception_5a/5x5 <- inception_5a/5x5_reduce
I0403 16:41:25.743516 21354 net.cpp:399] inception_5a/5x5 -> inception_5a/5x5
I0403 16:41:25.745296 21354 net.cpp:141] Setting up inception_5a/5x5
I0403 16:41:25.745342 21354 net.cpp:148] Top shape: 24 128 7 7 (150528)
I0403 16:41:25.745360 21354 net.cpp:156] Memory required for data: 1299953184
I0403 16:41:25.745378 21354 layer_factory.hpp:77] Creating layer inception_5a/relu_5x5
I0403 16:41:25.745398 21354 net.cpp:91] Creating Layer inception_5a/relu_5x5
I0403 16:41:25.745415 21354 net.cpp:425] inception_5a/relu_5x5 <- inception_5a/5x5
I0403 16:41:25.745436 21354 net.cpp:386] inception_5a/relu_5x5 -> inception_5a/5x5 (in-place)
I0403 16:41:25.745630 21354 net.cpp:141] Setting up inception_5a/relu_5x5
I0403 16:41:25.745656 21354 net.cpp:148] Top shape: 24 128 7 7 (150528)
I0403 16:41:25.745669 21354 net.cpp:156] Memory required for data: 1300555296
I0403 16:41:25.745684 21354 layer_factory.hpp:77] Creating layer inception_5a/pool
I0403 16:41:25.745702 21354 net.cpp:91] Creating Layer inception_5a/pool
I0403 16:41:25.745717 21354 net.cpp:425] inception_5a/pool <- pool4/3x3_s2_pool4/3x3_s2_0_split_3
I0403 16:41:25.745735 21354 net.cpp:399] inception_5a/pool -> inception_5a/pool
I0403 16:41:25.745808 21354 net.cpp:141] Setting up inception_5a/pool
I0403 16:41:25.745831 21354 net.cpp:148] Top shape: 24 832 7 7 (978432)
I0403 16:41:25.745846 21354 net.cpp:156] Memory required for data: 1304469024
I0403 16:41:25.745860 21354 layer_factory.hpp:77] Creating layer inception_5a/pool_proj
I0403 16:41:25.745882 21354 net.cpp:91] Creating Layer inception_5a/pool_proj
I0403 16:41:25.745898 21354 net.cpp:425] inception_5a/pool_proj <- inception_5a/pool
I0403 16:41:25.745918 21354 net.cpp:399] inception_5a/pool_proj -> inception_5a/pool_proj
I0403 16:41:25.748225 21354 net.cpp:141] Setting up inception_5a/pool_proj
I0403 16:41:25.748258 21354 net.cpp:148] Top shape: 24 128 7 7 (150528)
I0403 16:41:25.748276 21354 net.cpp:156] Memory required for data: 1305071136
I0403 16:41:25.748296 21354 layer_factory.hpp:77] Creating layer inception_5a/relu_pool_proj
I0403 16:41:25.748313 21354 net.cpp:91] Creating Layer inception_5a/relu_pool_proj
I0403 16:41:25.748328 21354 net.cpp:425] inception_5a/relu_pool_proj <- inception_5a/pool_proj
I0403 16:41:25.748345 21354 net.cpp:386] inception_5a/relu_pool_proj -> inception_5a/pool_proj (in-place)
I0403 16:41:25.748646 21354 net.cpp:141] Setting up inception_5a/relu_pool_proj
I0403 16:41:25.748674 21354 net.cpp:148] Top shape: 24 128 7 7 (150528)
I0403 16:41:25.748690 21354 net.cpp:156] Memory required for data: 1305673248
I0403 16:41:25.748705 21354 layer_factory.hpp:77] Creating layer inception_5a/output
I0403 16:41:25.748723 21354 net.cpp:91] Creating Layer inception_5a/output
I0403 16:41:25.748739 21354 net.cpp:425] inception_5a/output <- inception_5a/1x1
I0403 16:41:25.748754 21354 net.cpp:425] inception_5a/output <- inception_5a/3x3
I0403 16:41:25.748770 21354 net.cpp:425] inception_5a/output <- inception_5a/5x5
I0403 16:41:25.748786 21354 net.cpp:425] inception_5a/output <- inception_5a/pool_proj
I0403 16:41:25.748802 21354 net.cpp:399] inception_5a/output -> inception_5a/output
I0403 16:41:25.748853 21354 net.cpp:141] Setting up inception_5a/output
I0403 16:41:25.748878 21354 net.cpp:148] Top shape: 24 832 7 7 (978432)
I0403 16:41:25.748890 21354 net.cpp:156] Memory required for data: 1309586976
I0403 16:41:25.748904 21354 layer_factory.hpp:77] Creating layer inception_5a/output_inception_5a/output_0_split
I0403 16:41:25.748924 21354 net.cpp:91] Creating Layer inception_5a/output_inception_5a/output_0_split
I0403 16:41:25.748939 21354 net.cpp:425] inception_5a/output_inception_5a/output_0_split <- inception_5a/output
I0403 16:41:25.748955 21354 net.cpp:399] inception_5a/output_inception_5a/output_0_split -> inception_5a/output_inception_5a/output_0_split_0
I0403 16:41:25.748975 21354 net.cpp:399] inception_5a/output_inception_5a/output_0_split -> inception_5a/output_inception_5a/output_0_split_1
I0403 16:41:25.749007 21354 net.cpp:399] inception_5a/output_inception_5a/output_0_split -> inception_5a/output_inception_5a/output_0_split_2
I0403 16:41:25.749029 21354 net.cpp:399] inception_5a/output_inception_5a/output_0_split -> inception_5a/output_inception_5a/output_0_split_3
I0403 16:41:25.749143 21354 net.cpp:141] Setting up inception_5a/output_inception_5a/output_0_split
I0403 16:41:25.749166 21354 net.cpp:148] Top shape: 24 832 7 7 (978432)
I0403 16:41:25.749181 21354 net.cpp:148] Top shape: 24 832 7 7 (978432)
I0403 16:41:25.749197 21354 net.cpp:148] Top shape: 24 832 7 7 (978432)
I0403 16:41:25.749212 21354 net.cpp:148] Top shape: 24 832 7 7 (978432)
I0403 16:41:25.749225 21354 net.cpp:156] Memory required for data: 1325241888
I0403 16:41:25.749241 21354 layer_factory.hpp:77] Creating layer inception_5b/1x1
I0403 16:41:25.749263 21354 net.cpp:91] Creating Layer inception_5b/1x1
I0403 16:41:25.749279 21354 net.cpp:425] inception_5b/1x1 <- inception_5a/output_inception_5a/output_0_split_0
I0403 16:41:25.749300 21354 net.cpp:399] inception_5b/1x1 -> inception_5b/1x1
I0403 16:41:25.753083 21354 net.cpp:141] Setting up inception_5b/1x1
I0403 16:41:25.753115 21354 net.cpp:148] Top shape: 24 384 7 7 (451584)
I0403 16:41:25.753131 21354 net.cpp:156] Memory required for data: 1327048224
I0403 16:41:25.753150 21354 layer_factory.hpp:77] Creating layer inception_5b/relu_1x1
I0403 16:41:25.753171 21354 net.cpp:91] Creating Layer inception_5b/relu_1x1
I0403 16:41:25.753188 21354 net.cpp:425] inception_5b/relu_1x1 <- inception_5b/1x1
I0403 16:41:25.753206 21354 net.cpp:386] inception_5b/relu_1x1 -> inception_5b/1x1 (in-place)
I0403 16:41:25.753515 21354 net.cpp:141] Setting up inception_5b/relu_1x1
I0403 16:41:25.753540 21354 net.cpp:148] Top shape: 24 384 7 7 (451584)
I0403 16:41:25.753554 21354 net.cpp:156] Memory required for data: 1328854560
I0403 16:41:25.753569 21354 layer_factory.hpp:77] Creating layer inception_5b/3x3_reduce
I0403 16:41:25.753593 21354 net.cpp:91] Creating Layer inception_5b/3x3_reduce
I0403 16:41:25.753612 21354 net.cpp:425] inception_5b/3x3_reduce <- inception_5a/output_inception_5a/output_0_split_1
I0403 16:41:25.753630 21354 net.cpp:399] inception_5b/3x3_reduce -> inception_5b/3x3_reduce
I0403 16:41:25.756300 21354 net.cpp:141] Setting up inception_5b/3x3_reduce
I0403 16:41:25.756333 21354 net.cpp:148] Top shape: 24 192 7 7 (225792)
I0403 16:41:25.756352 21354 net.cpp:156] Memory required for data: 1329757728
I0403 16:41:25.756371 21354 layer_factory.hpp:77] Creating layer inception_5b/relu_3x3_reduce
I0403 16:41:25.756388 21354 net.cpp:91] Creating Layer inception_5b/relu_3x3_reduce
I0403 16:41:25.756405 21354 net.cpp:425] inception_5b/relu_3x3_reduce <- inception_5b/3x3_reduce
I0403 16:41:25.756422 21354 net.cpp:386] inception_5b/relu_3x3_reduce -> inception_5b/3x3_reduce (in-place)
I0403 16:41:25.756618 21354 net.cpp:141] Setting up inception_5b/relu_3x3_reduce
I0403 16:41:25.756644 21354 net.cpp:148] Top shape: 24 192 7 7 (225792)
I0403 16:41:25.756659 21354 net.cpp:156] Memory required for data: 1330660896
I0403 16:41:25.756674 21354 layer_factory.hpp:77] Creating layer inception_5b/3x3
I0403 16:41:25.756695 21354 net.cpp:91] Creating Layer inception_5b/3x3
I0403 16:41:25.756712 21354 net.cpp:425] inception_5b/3x3 <- inception_5b/3x3_reduce
I0403 16:41:25.756733 21354 net.cpp:399] inception_5b/3x3 -> inception_5b/3x3
I0403 16:41:25.763664 21354 net.cpp:141] Setting up inception_5b/3x3
I0403 16:41:25.763696 21354 net.cpp:148] Top shape: 24 384 7 7 (451584)
I0403 16:41:25.763716 21354 net.cpp:156] Memory required for data: 1332467232
I0403 16:41:25.763736 21354 layer_factory.hpp:77] Creating layer inception_5b/relu_3x3
I0403 16:41:25.763756 21354 net.cpp:91] Creating Layer inception_5b/relu_3x3
I0403 16:41:25.763772 21354 net.cpp:425] inception_5b/relu_3x3 <- inception_5b/3x3
I0403 16:41:25.763792 21354 net.cpp:386] inception_5b/relu_3x3 -> inception_5b/3x3 (in-place)
I0403 16:41:25.764104 21354 net.cpp:141] Setting up inception_5b/relu_3x3
I0403 16:41:25.764134 21354 net.cpp:148] Top shape: 24 384 7 7 (451584)
I0403 16:41:25.764149 21354 net.cpp:156] Memory required for data: 1334273568
I0403 16:41:25.764165 21354 layer_factory.hpp:77] Creating layer inception_5b/5x5_reduce
I0403 16:41:25.764204 21354 net.cpp:91] Creating Layer inception_5b/5x5_reduce
I0403 16:41:25.764225 21354 net.cpp:425] inception_5b/5x5_reduce <- inception_5a/output_inception_5a/output_0_split_2
I0403 16:41:25.764243 21354 net.cpp:399] inception_5b/5x5_reduce -> inception_5b/5x5_reduce
I0403 16:41:25.765571 21354 net.cpp:141] Setting up inception_5b/5x5_reduce
I0403 16:41:25.765604 21354 net.cpp:148] Top shape: 24 48 7 7 (56448)
I0403 16:41:25.765620 21354 net.cpp:156] Memory required for data: 1334499360
I0403 16:41:25.765638 21354 layer_factory.hpp:77] Creating layer inception_5b/relu_5x5_reduce
I0403 16:41:25.765656 21354 net.cpp:91] Creating Layer inception_5b/relu_5x5_reduce
I0403 16:41:25.765673 21354 net.cpp:425] inception_5b/relu_5x5_reduce <- inception_5b/5x5_reduce
I0403 16:41:25.765692 21354 net.cpp:386] inception_5b/relu_5x5_reduce -> inception_5b/5x5_reduce (in-place)
I0403 16:41:25.766083 21354 net.cpp:141] Setting up inception_5b/relu_5x5_reduce
I0403 16:41:25.766109 21354 net.cpp:148] Top shape: 24 48 7 7 (56448)
I0403 16:41:25.766125 21354 net.cpp:156] Memory required for data: 1334725152
I0403 16:41:25.766140 21354 layer_factory.hpp:77] Creating layer inception_5b/5x5
I0403 16:41:25.766160 21354 net.cpp:91] Creating Layer inception_5b/5x5
I0403 16:41:25.766176 21354 net.cpp:425] inception_5b/5x5 <- inception_5b/5x5_reduce
I0403 16:41:25.766196 21354 net.cpp:399] inception_5b/5x5 -> inception_5b/5x5
I0403 16:41:25.768332 21354 net.cpp:141] Setting up inception_5b/5x5
I0403 16:41:25.768362 21354 net.cpp:148] Top shape: 24 128 7 7 (150528)
I0403 16:41:25.768380 21354 net.cpp:156] Memory required for data: 1335327264
I0403 16:41:25.768400 21354 layer_factory.hpp:77] Creating layer inception_5b/relu_5x5
I0403 16:41:25.768419 21354 net.cpp:91] Creating Layer inception_5b/relu_5x5
I0403 16:41:25.768435 21354 net.cpp:425] inception_5b/relu_5x5 <- inception_5b/5x5
I0403 16:41:25.768456 21354 net.cpp:386] inception_5b/relu_5x5 -> inception_5b/5x5 (in-place)
I0403 16:41:25.768658 21354 net.cpp:141] Setting up inception_5b/relu_5x5
I0403 16:41:25.768687 21354 net.cpp:148] Top shape: 24 128 7 7 (150528)
I0403 16:41:25.768712 21354 net.cpp:156] Memory required for data: 1335929376
I0403 16:41:25.768728 21354 layer_factory.hpp:77] Creating layer inception_5b/pool
I0403 16:41:25.768748 21354 net.cpp:91] Creating Layer inception_5b/pool
I0403 16:41:25.768764 21354 net.cpp:425] inception_5b/pool <- inception_5a/output_inception_5a/output_0_split_3
I0403 16:41:25.768784 21354 net.cpp:399] inception_5b/pool -> inception_5b/pool
I0403 16:41:25.768859 21354 net.cpp:141] Setting up inception_5b/pool
I0403 16:41:25.768883 21354 net.cpp:148] Top shape: 24 832 7 7 (978432)
I0403 16:41:25.768898 21354 net.cpp:156] Memory required for data: 1339843104
I0403 16:41:25.768913 21354 layer_factory.hpp:77] Creating layer inception_5b/pool_proj
I0403 16:41:25.768934 21354 net.cpp:91] Creating Layer inception_5b/pool_proj
I0403 16:41:25.768952 21354 net.cpp:425] inception_5b/pool_proj <- inception_5b/pool
I0403 16:41:25.769002 21354 net.cpp:399] inception_5b/pool_proj -> inception_5b/pool_proj
I0403 16:41:25.771415 21354 net.cpp:141] Setting up inception_5b/pool_proj
I0403 16:41:25.771450 21354 net.cpp:148] Top shape: 24 128 7 7 (150528)
I0403 16:41:25.771469 21354 net.cpp:156] Memory required for data: 1340445216
I0403 16:41:25.771489 21354 layer_factory.hpp:77] Creating layer inception_5b/relu_pool_proj
I0403 16:41:25.771507 21354 net.cpp:91] Creating Layer inception_5b/relu_pool_proj
I0403 16:41:25.771524 21354 net.cpp:425] inception_5b/relu_pool_proj <- inception_5b/pool_proj
I0403 16:41:25.771544 21354 net.cpp:386] inception_5b/relu_pool_proj -> inception_5b/pool_proj (in-place)
I0403 16:41:25.771854 21354 net.cpp:141] Setting up inception_5b/relu_pool_proj
I0403 16:41:25.771884 21354 net.cpp:148] Top shape: 24 128 7 7 (150528)
I0403 16:41:25.771901 21354 net.cpp:156] Memory required for data: 1341047328
I0403 16:41:25.771917 21354 layer_factory.hpp:77] Creating layer inception_5b/output
I0403 16:41:25.771935 21354 net.cpp:91] Creating Layer inception_5b/output
I0403 16:41:25.771967 21354 net.cpp:425] inception_5b/output <- inception_5b/1x1
I0403 16:41:25.771991 21354 net.cpp:425] inception_5b/output <- inception_5b/3x3
I0403 16:41:25.772009 21354 net.cpp:425] inception_5b/output <- inception_5b/5x5
I0403 16:41:25.772027 21354 net.cpp:425] inception_5b/output <- inception_5b/pool_proj
I0403 16:41:25.772049 21354 net.cpp:399] inception_5b/output -> inception_5b/output
I0403 16:41:25.772104 21354 net.cpp:141] Setting up inception_5b/output
I0403 16:41:25.772130 21354 net.cpp:148] Top shape: 24 1024 7 7 (1204224)
I0403 16:41:25.772145 21354 net.cpp:156] Memory required for data: 1345864224
I0403 16:41:25.772161 21354 layer_factory.hpp:77] Creating layer pool5/7x7_s1
I0403 16:41:25.772182 21354 net.cpp:91] Creating Layer pool5/7x7_s1
I0403 16:41:25.772200 21354 net.cpp:425] pool5/7x7_s1 <- inception_5b/output
I0403 16:41:25.772222 21354 net.cpp:399] pool5/7x7_s1 -> pool5/7x7_s1
I0403 16:41:25.772449 21354 net.cpp:141] Setting up pool5/7x7_s1
I0403 16:41:25.772475 21354 net.cpp:148] Top shape: 24 1024 1 1 (24576)
I0403 16:41:25.772490 21354 net.cpp:156] Memory required for data: 1345962528
I0403 16:41:25.772505 21354 layer_factory.hpp:77] Creating layer pool5/drop_7x7_s1
I0403 16:41:25.772522 21354 net.cpp:91] Creating Layer pool5/drop_7x7_s1
I0403 16:41:25.772539 21354 net.cpp:425] pool5/drop_7x7_s1 <- pool5/7x7_s1
I0403 16:41:25.772558 21354 net.cpp:386] pool5/drop_7x7_s1 -> pool5/7x7_s1 (in-place)
I0403 16:41:25.772609 21354 net.cpp:141] Setting up pool5/drop_7x7_s1
I0403 16:41:25.772634 21354 net.cpp:148] Top shape: 24 1024 1 1 (24576)
I0403 16:41:25.772646 21354 net.cpp:156] Memory required for data: 1346060832
I0403 16:41:25.772661 21354 layer_factory.hpp:77] Creating layer loss3/classifier_plantvillage
I0403 16:41:25.772683 21354 net.cpp:91] Creating Layer loss3/classifier_plantvillage
I0403 16:41:25.772699 21354 net.cpp:425] loss3/classifier_plantvillage <- pool5/7x7_s1
I0403 16:41:25.772721 21354 net.cpp:399] loss3/classifier_plantvillage -> loss3/classifier_plantvillage
I0403 16:41:25.773167 21354 net.cpp:141] Setting up loss3/classifier_plantvillage
I0403 16:41:25.773192 21354 net.cpp:148] Top shape: 24 38 (912)
I0403 16:41:25.773210 21354 net.cpp:156] Memory required for data: 1346064480
I0403 16:41:25.773227 21354 layer_factory.hpp:77] Creating layer loss3/classifier_plantvillage_loss3/classifier_plantvillage_0_split
I0403 16:41:25.773248 21354 net.cpp:91] Creating Layer loss3/classifier_plantvillage_loss3/classifier_plantvillage_0_split
I0403 16:41:25.773264 21354 net.cpp:425] loss3/classifier_plantvillage_loss3/classifier_plantvillage_0_split <- loss3/classifier_plantvillage
I0403 16:41:25.773283 21354 net.cpp:399] loss3/classifier_plantvillage_loss3/classifier_plantvillage_0_split -> loss3/classifier_plantvillage_loss3/classifier_plantvillage_0_split_0
I0403 16:41:25.773303 21354 net.cpp:399] loss3/classifier_plantvillage_loss3/classifier_plantvillage_0_split -> loss3/classifier_plantvillage_loss3/classifier_plantvillage_0_split_1
I0403 16:41:25.773322 21354 net.cpp:399] loss3/classifier_plantvillage_loss3/classifier_plantvillage_0_split -> loss3/classifier_plantvillage_loss3/classifier_plantvillage_0_split_2
I0403 16:41:25.773345 21354 net.cpp:399] loss3/classifier_plantvillage_loss3/classifier_plantvillage_0_split -> loss3/classifier_plantvillage_loss3/classifier_plantvillage_0_split_3
I0403 16:41:25.773450 21354 net.cpp:141] Setting up loss3/classifier_plantvillage_loss3/classifier_plantvillage_0_split
I0403 16:41:25.773474 21354 net.cpp:148] Top shape: 24 38 (912)
I0403 16:41:25.773489 21354 net.cpp:148] Top shape: 24 38 (912)
I0403 16:41:25.773504 21354 net.cpp:148] Top shape: 24 38 (912)
I0403 16:41:25.773519 21354 net.cpp:148] Top shape: 24 38 (912)
I0403 16:41:25.773533 21354 net.cpp:156] Memory required for data: 1346079072
I0403 16:41:25.773547 21354 layer_factory.hpp:77] Creating layer loss1/loss
I0403 16:41:25.773568 21354 net.cpp:91] Creating Layer loss1/loss
I0403 16:41:25.773586 21354 net.cpp:425] loss1/loss <- loss1/classifier_plantvillage_loss1/classifier_plantvillage_0_split_0
I0403 16:41:25.773617 21354 net.cpp:425] loss1/loss <- label_data_1_split_0
…
