…
I0403 16:49:40.266383 21484 net.cpp:313] The NetState phase (1) differed from the phase (0) specified by a rule in layer data
I0403 16:49:40.267545 21484 net.cpp:49] Initializing net from parameters: 
state {
  phase: TEST
}
layer {
  name: "data"
  type: "Data"
  top: "data"
  top: "label"
  include {
    phase: TEST
  }
  transform_param {
    mirror: false
    crop_size: 224
    mean_file: "/home/mohanty/data/final_dataset/lmdb/color-40-60/mean.binaryproto"
  }
  data_param {
    source: "/home/mohanty/data/final_dataset/lmdb/color-40-60/test_db"
    batch_size: 24
    backend: LMDB
  }
}
layer {
  name: "conv1/7x7_s2"
  type: "Convolution"
  bottom: "data"
  top: "conv1/7x7_s2"
  param {
    lr_mult: 1
    decay_mult: 1
  }
  param {
    lr_mult: 2
    decay_mult: 0
  }
  convolution_param {
    num_output: 64
    pad: 3
    kernel_size: 7
    stride: 2
    weight_filler {
      type: "xavier"
      std: 0.1
    }
    bias_filler {
      type: "constant"
      value: 0.2
    }
  }
}
layer {
  name: "conv1/relu_7x7"
  type: "ReLU"
  bottom: "conv1/7x7_s2"
  top: "conv1/7x7_s2"
}
layer {
  name: "pool1/3x3_s2"
  type: "Pooling"
  bottom: "conv1/7x7_s2"
  top: "pool1/3x3_s2"
  pooling_param {
    pool: MAX
    kernel_size: 3
    stride: 2
  }
}
layer {
  name: "pool1/norm1"
  type: "LRN"
  bottom: "pool1/3x3_s2"
  top: "pool1/norm1"
  lrn_param {
    local_size: 5
    alpha: 0.0001
    beta: 0.75
  }
}
layer {
  name: "conv2/3x3_reduce"
  type: "Convolution"
  bottom: "pool1/norm1"
  top: "conv2/3x3_reduce"
  param {
    lr_mult: 1
    decay_mult: 1
  }
  param {
    lr_mult: 2
    decay_mult: 0
  }
  convolution_param {
    num_output: 64
    kernel_size: 1
    weight_filler {
      type: "xavier"
      std: 0.1
    }
    bias_filler {
      type: "constant"
      value: 0.2
    }
  }
}
layer {
  name: "conv2/relu_3x3_reduce"
  type: "ReLU"
  bottom: "conv2/3x3_reduce"
  top: "conv2/3x3_reduce"
}
layer {
  name: "conv2/3x3"
  type: "Convolution"
  bottom: "conv2/3x3_reduce"
  top: "conv2/3x3"
  param {
    lr_mult: 1
    decay_mult: 1
  }
  param {
    lr_mult: 2
    decay_mult: 0
  }
  convolution_param {
    num_output: 192
    pad: 1
    kernel_size: 3
    weight_filler {
      type: "xavier"
      std: 0.03
    }
    bias_filler {
      type: "constant"
      value: 0.2
    }
  }
}
layer {
  name: "conv2/relu_3x3"
  type: "ReLU"
  bottom: "conv2/3x3"
  top: "conv2/3x3"
}
layer {
  name: "conv2/norm2"
  type: "LRN"
  bottom: "conv2/3x3"
  top: "conv2/norm2"
  lrn_param {
    local_size: 5
    alpha: 0.0001
    beta: 0.75
  }
}
layer {
  name: "pool2/3x3_s2"
  type: "Pooling"
  bottom: "conv2/norm2"
  top: "pool2/3x3_s2"
  pooling_param {
    pool: MAX
    kernel_size: 3
    stride: 2
  }
}
layer {
  name: "inception_3a/1x1"
  type: "Convolution"
  bottom: "pool2/3x3_s2"
  top: "inception_3a/1x1"
  param {
    lr_mult: 1
    decay_mult: 1
  }
  param {
    lr_mult: 2
    decay_mult: 0
  }
  convolution_param {
    num_output: 64
    kernel_size: 1
    weight_filler {
      type: "xavier"
      std: 0.03
    }
    bias_filler {
      type: "constant"
      value: 0.2
    }
  }
}
layer {
  name: "inception_3a/relu_1x1"
  type: "ReLU"
  bottom: "inception_3a/1x1"
  top: "inception_3a/1x1"
}
layer {
  name: "inception_3a/3x3_reduce"
  type: "Convolution"
  bottom: "pool2/3x3_s2"
  top: "inception_3a/3x3_reduce"
  param {
    lr_mult: 1
    decay_mult: 1
  }
  param {
    lr_mult: 2
    decay_mult: 0
  }
  convolution_param {
    num_output: 96
    kernel_size: 1
    weight_filler {
      type: "xavier"
      std: 0.09
    }
    bias_filler {
      type: "constant"
      value: 0.2
    }
  }
}
layer {
  name: "inception_3a/relu_3x3_reduce"
  type: "ReLU"
  bottom: "inception_3a/3x3_reduce"
  top: "inception_3a/3x3_reduce"
}
layer {
  name: "inception_3a/3x3"
  type: "Convolution"
  bottom: "inception_3a/3x3_reduce"
  top: "inception_3a/3x3"
  param {
    lr_mult: 1
    decay_mult: 1
  }
  param {
    lr_mult: 2
    decay_mult: 0
  }
  convolution_param {
    num_output: 128
    pad: 1
    kernel_size: 3
    weight_filler {
      type: "xavier"
      std: 0.03
    }
    bias_filler {
      type: "constant"
      value: 0.2
    }
  }
}
layer {
  name: "inception_3a/relu_3x3"
  type: "ReLU"
  bottom: "inception_3a/3x3"
  top: "inception_3a/3x3"
}
layer {
  name: "inception_3a/5x5_reduce"
  type: "Convolution"
  bottom: "pool2/3x3_s2"
  top: "inception_3a/5x5_reduce"
  param {
    lr_mult: 1
    decay_mult: 1
  }
  param {
    lr_mult: 2
    decay_mult: 0
  }
  convolution_param {
    num_output: 16
    kernel_size: 1
    weight_filler {
      type: "xavier"
      std: 0.2
    }
    bias_filler {
      type: "constant"
      value: 0.2
    }
  }
}
layer {
  name: "inception_3a/relu_5x5_reduce"
  type: "ReLU"
  bottom: "inception_3a/5x5_reduce"
  top: "inception_3a/5x5_reduce"
}
layer {
  name: "inception_3a/5x5"
  type: "Convolution"
  bottom: "inception_3a/5x5_reduce"
  top: "inception_3a/5x5"
  param {
    lr_mult: 1
    decay_mult: 1
  }
  param {
    lr_mult: 2
    decay_mult: 0
  }
  convolution_param {
    num_output: 32
    pad: 2
    kernel_size: 5
    weight_filler {
      type: "xavier"
      std: 0.03
    }
    bias_filler {
      type: "constant"
      value: 0.2
    }
  }
}
layer {
  name: "inception_3a/relu_5x5"
  type: "ReLU"
  bottom: "inception_3a/5x5"
  top: "inception_3a/5x5"
}
layer {
  name: "inception_3a/pool"
  type: "Pooling"
  bottom: "pool2/3x3_s2"
  top: "inception_3a/pool"
  pooling_param {
    pool: MAX
    kernel_size: 3
    stride: 1
    pad: 1
  }
}
layer {
  name: "inception_3a/pool_proj"
  type: "Convolution"
  bottom: "inception_3a/pool"
  top: "inception_3a/pool_proj"
  param {
    lr_mult: 1
    decay_mult: 1
  }
  param {
    lr_mult: 2
    decay_mult: 0
  }
  convolution_param {
    num_output: 32
    kernel_size: 1
    weight_filler {
      type: "xavier"
      std: 0.1
    }
    bias_filler {
      type: "constant"
      value: 0.2
    }
  }
}
layer {
  name: "inception_3a/relu_pool_proj"
  type: "ReLU"
  bottom: "inception_3a/pool_proj"
  top: "inception_3a/pool_proj"
}
layer {
  name: "inception_3a/output"
  type: "Concat"
  bottom: "inception_3a/1x1"
  bottom: "inception_3a/3x3"
  bottom: "inception_3a/5x5"
  bottom: "inception_3a/pool_proj"
  top: "inception_3a/output"
}
layer {
  name: "inception_3b/1x1"
  type: "Convolution"
  bottom: "inception_3a/output"
  top: "inception_3b/1x1"
  param {
    lr_mult: 1
    decay_mult: 1
  }
  param {
    lr_mult: 2
    decay_mult: 0
  }
  convolution_param {
    num_output: 128
    kernel_size: 1
    weight_filler {
      type: "xavier"
      std: 0.03
    }
    bias_filler {
      type: "constant"
      value: 0.2
    }
  }
}
layer {
  name: "inception_3b/relu_1x1"
  type: "ReLU"
  bottom: "inception_3b/1x1"
  top: "inception_3b/1x1"
}
layer {
  name: "inception_3b/3x3_reduce"
  type: "Convolution"
  bottom: "inception_3a/output"
  top: "inception_3b/3x3_reduce"
  param {
    lr_mult: 1
    decay_mult: 1
  }
  param {
    lr_mult: 2
    decay_mult: 0
  }
  convolution_param {
    num_output: 128
    kernel_size: 1
    weight_filler {
      type: "xavier"
      std: 0.09
    }
    bias_filler {
      type: "constant"
      value: 0.2
    }
  }
}
layer {
  name: "inception_3b/relu_3x3_reduce"
  type: "ReLU"
  bottom: "inception_3b/3x3_reduce"
  top: "inception_3b/3x3_reduce"
}
layer {
  name: "inception_3b/3x3"
  type: "Convolution"
  bottom: "inception_3b/3x3_reduce"
  top: "inception_3b/3x3"
  param {
    lr_mult: 1
    decay_mult: 1
  }
  param {
    lr_mult: 2
    decay_mult: 0
  }
  convolution_param {
    num_output: 192
    pad: 1
    kernel_size: 3
    weight_filler {
      type: "xavier"
      std: 0.03
    }
    bias_filler {
      type: "constant"
      value: 0.2
    }
  }
}
layer {
  name: "inception_3b/relu_3x3"
  type: "ReLU"
  bottom: "inception_3b/3x3"
  top: "inception_3b/3x3"
}
layer {
  name: "inception_3b/5x5_reduce"
  type: "Convolution"
  bottom: "inception_3a/output"
  top: "inception_3b/5x5_reduce"
  param {
    lr_mult: 1
    decay_mult: 1
  }
  param {
    lr_mult: 2
    decay_mult: 0
  }
  convolution_param {
    num_output: 32
    kernel_size: 1
    weight_filler {
      type: "xavier"
      std: 0.2
    }
    bias_filler {
      type: "constant"
      value: 0.2
    }
  }
}
layer {
  name: "inception_3b/relu_5x5_reduce"
  type: "ReLU"
  bottom: "inception_3b/5x5_reduce"
  top: "inception_3b/5x5_reduce"
}
layer {
  name: "inception_3b/5x5"
  type: "Convolution"
  bottom: "inception_3b/5x5_reduce"
  top: "inception_3b/5x5"
  param {
    lr_mult: 1
    decay_mult: 1
  }
  param {
    lr_mult: 2
    decay_mult: 0
  }
  convolution_param {
    num_output: 96
    pad: 2
    kernel_size: 5
    weight_filler {
      type: "xavier"
      std: 0.03
    }
    bias_filler {
      type: "constant"
      value: 0.2
    }
  }
}
layer {
  name: "inception_3b/relu_5x5"
  type: "ReLU"
  bottom: "inception_3b/5x5"
  top: "inception_3b/5x5"
}
layer {
  name: "inception_3b/pool"
  type: "Pooling"
  bottom: "inception_3a/output"
  top: "inception_3b/pool"
  pooling_param {
    pool: MAX
    kernel_size: 3
    stride: 1
    pad: 1
  }
}
layer {
  name: "inception_3b/pool_proj"
  type: "Convolution"
  bottom: "inception_3b/pool"
  top: "inception_3b/pool_proj"
  param {
    lr_mult: 1
    decay_mult: 1
  }
  param {
    lr_mult: 2
    decay_mult: 0
  }
  convolution_param {
    num_output: 64
    kernel_size: 1
    weight_filler {
      type: "xavier"
      std: 0.1
    }
    bias_filler {
      type: "constant"
      value: 0.2
    }
  }
}
layer {
  name: "inception_3b/relu_pool_proj"
  type: "ReLU"
  bottom: "inception_3b/pool_proj"
  top: "inception_3b/pool_proj"
}
layer {
  name: "inception_3b/output"
  type: "Concat"
  bottom: "inception_3b/1x1"
  bottom: "inception_3b/3x3"
  bottom: "inception_3b/5x5"
  bottom: "inception_3b/pool_proj"
  top: "inception_3b/output"
}
layer {
  name: "pool3/3x3_s2"
  type: "Pooling"
  bottom: "inception_3b/output"
  top: "pool3/3x3_s2"
  pooling_param {
    pool: MAX
    kernel_size: 3
    stride: 2
  }
}
layer {
  name: "inception_4a/1x1"
  type: "Convolution"
  bottom: "pool3/3x3_s2"
  top: "inception_4a/1x1"
  param {
    lr_mult: 1
    decay_mult: 1
  }
  param {
    lr_mult: 2
    decay_mult: 0
  }
  convolution_param {
    num_output: 192
    kernel_size: 1
    weight_filler {
      type: "xavier"
      std: 0.03
    }
    bias_filler {
      type: "constant"
      value: 0.2
    }
  }
}
layer {
  name: "inception_4a/relu_1x1"
  type: "ReLU"
  bottom: "inception_4a/1x1"
  top: "inception_4a/1x1"
}
layer {
  name: "inception_4a/3x3_reduce"
  type: "Convolution"
  bottom: "pool3/3x3_s2"
  top: "inception_4a/3x3_reduce"
  param {
    lr_mult: 1
    decay_mult: 1
  }
  param {
    lr_mult: 2
    decay_mult: 0
  }
  convolution_param {
    num_output: 96
    kernel_size: 1
    weight_filler {
      type: "xavier"
      std: 0.09
    }
    bias_filler {
      type: "constant"
      value: 0.2
    }
  }
}
layer {
  name: "inception_4a/relu_3x3_reduce"
  type: "ReLU"
  bottom: "inception_4a/3x3_reduce"
  top: "inception_4a/3x3_reduce"
}
layer {
  name: "inception_4a/3x3"
  type: "Convolution"
  bottom: "inception_4a/3x3_reduce"
  top: "inception_4a/3x3"
  param {
    lr_mult: 1
    decay_mult: 1
  }
  param {
    lr_mult: 2
    decay_mult: 0
  }
  convolution_param {
    num_output: 208
    pad: 1
    kernel_size: 3
    weight_filler {
      type: "xavier"
      std: 0.03
    }
    bias_filler {
      type: "constant"
      value: 0.2
    }
  }
}
layer {
  name: "inception_4a/relu_3x3"
  type: "ReLU"
  bottom: "inception_4a/3x3"
  top: "inception_4a/3x3"
}
layer {
  name: "inception_4a/5x5_reduce"
  type: "Convolution"
  bottom: "pool3/3x3_s2"
  top: "inception_4a/5x5_reduce"
  param {
    lr_mult: 1
    decay_mult: 1
  }
  param {
    lr_mult: 2
    decay_mult: 0
  }
  convolution_param {
    num_output: 16
    kernel_size: 1
    weight_filler {
      type: "xavier"
      std: 0.2
    }
    bias_filler {
      type: "constant"
      value: 0.2
    }
  }
}
layer {
  name: "inception_4a/relu_5x5_reduce"
  type: "ReLU"
  bottom: "inception_4a/5x5_reduce"
  top: "inception_4a/5x5_reduce"
}
layer {
  name: "inception_4a/5x5"
  type: "Convolution"
  bottom: "inception_4a/5x5_reduce"
  top: "inception_4a/5x5"
  param {
    lr_mult: 1
    decay_mult: 1
  }
  param {
    lr_mult: 2
    decay_mult: 0
  }
  convolution_param {
    num_output: 48
    pad: 2
    kernel_size: 5
    weight_filler {
      type: "xavier"
      std: 0.03
    }
    bias_filler {
      type: "constant"
      value: 0.2
    }
  }
}
layer {
  name: "inception_4a/relu_5x5"
  type: "ReLU"
  bottom: "inception_4a/5x5"
  top: "inception_4a/5x5"
}
layer {
  name: "inception_4a/pool"
  type: "Pooling"
  bottom: "pool3/3x3_s2"
  top: "inception_4a/pool"
  pooling_param {
    pool: MAX
    kernel_size: 3
    stride: 1
    pad: 1
  }
}
layer {
  name: "inception_4a/pool_proj"
  type: "Convolution"
  bottom: "inception_4a/pool"
  top: "inception_4a/pool_proj"
  param {
    lr_mult: 1
    decay_mult: 1
  }
  param {
    lr_mult: 2
    decay_mult: 0
  }
  convolution_param {
    num_output: 64
    kernel_size: 1
    weight_filler {
      type: "xavier"
      std: 0.1
    }
    bias_filler {
      type: "constant"
      value: 0.2
    }
  }
}
layer {
  name: "inception_4a/relu_pool_proj"
  type: "ReLU"
  bottom: "inception_4a/pool_proj"
  top: "inception_4a/pool_proj"
}
layer {
  name: "inception_4a/output"
  type: "Concat"
  bottom: "inception_4a/1x1"
  bottom: "inception_4a/3x3"
  bottom: "inception_4a/5x5"
  bottom: "inception_4a/pool_proj"
  top: "inception_4a/output"
}
layer {
  name: "loss1/ave_pool"
  type: "Pooling"
  bottom: "inception_4a/output"
  top: "loss1/ave_pool"
  pooling_param {
    pool: AVE
    kernel_size: 5
    stride: 3
  }
}
layer {
  name: "loss1/conv"
  type: "Convolution"
  bottom: "loss1/ave_pool"
  top: "loss1/conv"
  param {
    lr_mult: 1
    decay_mult: 1
  }
  param {
    lr_mult: 2
    decay_mult: 0
  }
  convolution_param {
    num_output: 128
    kernel_size: 1
    weight_filler {
      type: "xavier"
      std: 0.08
    }
    bias_filler {
      type: "constant"
      value: 0.2
    }
  }
}
layer {
  name: "loss1/relu_conv"
  type: "ReLU"
  bottom: "loss1/conv"
  top: "loss1/conv"
}
layer {
  name: "loss1/fc"
  type: "InnerProduct"
  bottom: "loss1/conv"
  top: "loss1/fc"
  param {
    lr_mult: 1
    decay_mult: 1
  }
  param {
    lr_mult: 2
    decay_mult: 0
  }
  inner_product_param {
    num_output: 1024
    weight_filler {
      type: "xavier"
      std: 0.02
    }
    bias_filler {
      type: "constant"
      value: 0.2
    }
  }
}
layer {
  name: "loss1/relu_fc"
  type: "ReLU"
  bottom: "loss1/fc"
  top: "loss1/fc"
}
layer {
  name: "loss1/drop_fc"
  type: "Dropout"
  bottom: "loss1/fc"
  top: "loss1/fc"
  dropout_param {
    dropout_ratio: 0.7
  }
}
layer {
  name: "loss1/classifier_plantvillage"
  type: "InnerProduct"
  bottom: "loss1/fc"
  top: "loss1/classifier_plantvillage"
  param {
    lr_mult: 1
    decay_mult: 1
  }
  param {
    lr_mult: 2
    decay_mult: 0
  }
  inner_product_param {
    num_output: 38
    weight_filler {
      type: "xavier"
      std: 0.0009765625
    }
    bias_filler {
      type: "constant"
      value: 0
    }
  }
}
layer {
  name: "inception_4b/1x1"
  type: "Convolution"
  bottom: "inception_4a/output"
  top: "inception_4b/1x1"
  param {
    lr_mult: 1
    decay_mult: 1
  }
  param {
    lr_mult: 2
    decay_mult: 0
  }
  convolution_param {
    num_output: 160
    kernel_size: 1
    weight_filler {
      type: "xavier"
      std: 0.03
    }
    bias_filler {
      type: "constant"
      value: 0.2
    }
  }
}
layer {
  name: "inception_4b/relu_1x1"
  type: "ReLU"
  bottom: "inception_4b/1x1"
  top: "inception_4b/1x1"
}
layer {
  name: "inception_4b/3x3_reduce"
  type: "Convolution"
  bottom: "inception_4a/output"
  top: "inception_4b/3x3_reduce"
  param {
    lr_mult: 1
    decay_mult: 1
  }
  param {
    lr_mult: 2
    decay_mult: 0
  }
  convolution_param {
    num_output: 112
    kernel_size: 1
    weight_filler {
      type: "xavier"
      std: 0.09
    }
    bias_filler {
      type: "constant"
      value: 0.2
    }
  }
}
layer {
  name: "inception_4b/relu_3x3_reduce"
  type: "ReLU"
  bottom: "inception_4b/3x3_reduce"
  top: "inception_4b/3x3_reduce"
}
layer {
  name: "inception_4b/3x3"
  type: "Convolution"
  bottom: "inception_4b/3x3_reduce"
  top: "inception_4b/3x3"
  param {
    lr_mult: 1
    decay_mult: 1
  }
  param {
    lr_mult: 2
    decay_mult: 0
  }
  convolution_param {
    num_output: 224
    pad: 1
    kernel_size: 3
    weight_filler {
      type: "xavier"
      std: 0.03
    }
    bias_filler {
      type: "constant"
      value: 0.2
    }
  }
}
layer {
  name: "inception_4b/relu_3x3"
  type: "ReLU"
  bottom: "inception_4b/3x3"
  top: "inception_4b/3x3"
}
layer {
  name: "inception_4b/5x5_reduce"
  type: "Convolution"
  bottom: "inception_4a/output"
  top: "inception_4b/5x5_reduce"
  param {
    lr_mult: 1
    decay_mult: 1
  }
  param {
    lr_mult: 2
    decay_mult: 0
  }
  convolution_param {
    num_output: 24
    kernel_size: 1
    weight_filler {
      type: "xavier"
      std: 0.2
    }
    bias_filler {
      type: "constant"
      value: 0.2
    }
  }
}
layer {
  name: "inception_4b/relu_5x5_reduce"
  type: "ReLU"
  bottom: "inception_4b/5x5_reduce"
  top: "inception_4b/5x5_reduce"
}
layer {
  name: "inception_4b/5x5"
  type: "Convolution"
  bottom: "inception_4b/5x5_reduce"
  top: "inception_4b/5x5"
  param {
    lr_mult: 1
    decay_mult: 1
  }
  param {
    lr_mult: 2
    decay_mult: 0
  }
  convolution_param {
    num_output: 64
    pad: 2
    kernel_size: 5
    weight_filler {
      type: "xavier"
      std: 0.03
    }
    bias_filler {
      type: "constant"
      value: 0.2
    }
  }
}
layer {
  name: "inception_4b/relu_5x5"
  type: "ReLU"
  bottom: "inception_4b/5x5"
  top: "inception_4b/5x5"
}
layer {
  name: "inception_4b/pool"
  type: "Pooling"
  bottom: "inception_4a/output"
  top: "inception_4b/pool"
  pooling_param {
    pool: MAX
    kernel_size: 3
    stride: 1
    pad: 1
  }
}
layer {
  name: "inception_4b/pool_proj"
  type: "Convolution"
  bottom: "inception_4b/pool"
  top: "inception_4b/pool_proj"
  param {
    lr_mult: 1
    decay_mult: 1
  }
  param {
    lr_mult: 2
    decay_mult: 0
  }
  convolution_param {
    num_output: 64
    kernel_size: 1
    weight_filler {
      type: "xavier"
      std: 0.1
    }
    bias_filler {
      type: "constant"
      value: 0.2
    }
  }
}
layer {
  name: "inception_4b/relu_pool_proj"
  type: "ReLU"
  bottom: "inception_4b/pool_proj"
  top: "inception_4b/pool_proj"
}
layer {
  name: "inception_4b/output"
  type: "Concat"
  bottom: "inception_4b/1x1"
  bottom: "inception_4b/3x3"
  bottom: "inception_4b/5x5"
  bottom: "inception_4b/pool_proj"
  top: "inception_4b/output"
}
layer {
  name: "inception_4c/1x1"
  type: "Convolution"
  bottom: "inception_4b/output"
  top: "inception_4c/1x1"
  param {
    lr_mult: 1
    decay_mult: 1
  }
  param {
    lr_mult: 2
    decay_mult: 0
  }
  convolution_param {
    num_output: 128
    kernel_size: 1
    weight_filler {
      type: "xavier"
      std: 0.03
    }
    bias_filler {
      type: "constant"
      value: 0.2
    }
  }
}
layer {
  name: "inception_4c/relu_1x1"
  type: "ReLU"
  bottom: "inception_4c/1x1"
  top: "inception_4c/1x1"
}
layer {
  name: "inception_4c/3x3_reduce"
  type: "Convolution"
  bottom: "inception_4b/output"
  top: "inception_4c/3x3_reduce"
  param {
    lr_mult: 1
    decay_mult: 1
  }
  param {
    lr_mult: 2
    decay_mult: 0
  }
  convolution_param {
    num_output: 128
    kernel_size: 1
    weight_filler {
      type: "xavier"
      std: 0.09
    }
    bias_filler {
      type: "constant"
      value: 0.2
    }
  }
}
layer {
  name: "inception_4c/relu_3x3_reduce"
  type: "ReLU"
  bottom: "inception_4c/3x3_reduce"
  top: "inception_4c/3x3_reduce"
}
layer {
  name: "inception_4c/3x3"
  type: "Convolution"
  bottom: "inception_4c/3x3_reduce"
  top: "inception_4c/3x3"
  param {
    lr_mult: 1
    decay_mult: 1
  }
  param {
    lr_mult: 2
    decay_mult: 0
  }
  convolution_param {
    num_output: 256
    pad: 1
    kernel_size: 3
    weight_filler {
      type: "xavier"
      std: 0.03
    }
    bias_filler {
      type: "constant"
      value: 0.2
    }
  }
}
layer {
  name: "inception_4c/relu_3x3"
  type: "ReLU"
  bottom: "inception_4c/3x3"
  top: "inception_4c/3x3"
}
layer {
  name: "inception_4c/5x5_reduce"
  type: "Convolution"
  bottom: "inception_4b/output"
  top: "inception_4c/5x5_reduce"
  param {
    lr_mult: 1
    decay_mult: 1
  }
  param {
    lr_mult: 2
    decay_mult: 0
  }
  convolution_param {
    num_output: 24
    kernel_size: 1
    weight_filler {
      type: "xavier"
      std: 0.2
    }
    bias_filler {
      type: "constant"
      value: 0.2
    }
  }
}
layer {
  name: "inception_4c/relu_5x5_reduce"
  type: "ReLU"
  bottom: "inception_4c/5x5_reduce"
  top: "inception_4c/5x5_reduce"
}
layer {
  name: "inception_4c/5x5"
  type: "Convolution"
  bottom: "inception_4c/5x5_reduce"
  top: "inception_4c/5x5"
  param {
    lr_mult: 1
    decay_mult: 1
  }
  param {
    lr_mult: 2
    decay_mult: 0
  }
  convolution_param {
    num_output: 64
    pad: 2
    kernel_size: 5
    weight_filler {
      type: "xavier"
      std: 0.03
    }
    bias_filler {
      type: "constant"
      value: 0.2
    }
  }
}
layer {
  name: "inception_4c/relu_5x5"
  type: "ReLU"
  bottom: "inception_4c/5x5"
  top: "inception_4c/5x5"
}
layer {
  name: "inception_4c/pool"
  type: "Pooling"
  bottom: "inception_4b/output"
  top: "inception_4c/pool"
  pooling_param {
    pool: MAX
    kernel_size: 3
    stride: 1
    pad: 1
  }
}
layer {
  name: "inception_4c/pool_proj"
  type: "Convolution"
  bottom: "inception_4c/pool"
  top: "inception_4c/pool_proj"
  param {
    lr_mult: 1
    decay_mult: 1
  }
  param {
    lr_mult: 2
    decay_mult: 0
  }
  convolution_param {
    num_output: 64
    kernel_size: 1
    weight_filler {
      type: "xavier"
      std: 0.1
    }
    bias_filler {
      type: "constant"
      value: 0.2
    }
  }
}
layer {
  name: "inception_4c/relu_pool_proj"
  type: "ReLU"
  bottom: "inception_4c/pool_proj"
  top: "inception_4c/pool_proj"
}
layer {
  name: "inception_4c/output"
  type: "Concat"
  bottom: "inception_4c/1x1"
  bottom: "inception_4c/3x3"
  bottom: "inception_4c/5x5"
  bottom: "inception_4c/pool_proj"
  top: "inception_4c/output"
}
layer {
  name: "inception_4d/1x1"
  type: "Convolution"
  bottom: "inception_4c/output"
  top: "inception_4d/1x1"
  param {
    lr_mult: 1
    decay_mult: 1
  }
  param {
    lr_mult: 2
    decay_mult: 0
  }
  convolution_param {
    num_output: 112
    kernel_size: 1
    weight_filler {
      type: "xavier"
      std: 0.03
    }
    bias_filler {
      type: "constant"
      value: 0.2
    }
  }
}
layer {
  name: "inception_4d/relu_1x1"
  type: "ReLU"
  bottom: "inception_4d/1x1"
  top: "inception_4d/1x1"
}
layer {
  name: "inception_4d/3x3_reduce"
  type: "Convolution"
  bottom: "inception_4c/output"
  top: "inception_4d/3x3_reduce"
  param {
    lr_mult: 1
    decay_mult: 1
  }
  param {
    lr_mult: 2
    decay_mult: 0
  }
  convolution_param {
    num_output: 144
    kernel_size: 1
    weight_filler {
      type: "xavier"
      std: 0.09
    }
    bias_filler {
      type: "constant"
      value: 0.2
    }
  }
}
layer {
  name: "inception_4d/relu_3x3_reduce"
  type: "ReLU"
  bottom: "inception_4d/3x3_reduce"
  top: "inception_4d/3x3_reduce"
}
layer {
  name: "inception_4d/3x3"
  type: "Convolution"
  bottom: "inception_4d/3x3_reduce"
  top: "inception_4d/3x3"
  param {
    lr_mult: 1
    decay_mult: 1
  }
  param {
    lr_mult: 2
    decay_mult: 0
  }
  convolution_param {
    num_output: 288
    pad: 1
    kernel_size: 3
    weight_filler {
      type: "xavier"
      std: 0.03
    }
    bias_filler {
      type: "constant"
      value: 0.2
    }
  }
}
layer {
  name: "inception_4d/relu_3x3"
  type: "ReLU"
  bottom: "inception_4d/3x3"
  top: "inception_4d/3x3"
}
layer {
  name: "inception_4d/5x5_reduce"
  type: "Convolution"
  bottom: "inception_4c/output"
  top: "inception_4d/5x5_reduce"
  param {
    lr_mult: 1
    decay_mult: 1
  }
  param {
    lr_mult: 2
    decay_mult: 0
  }
  convolution_param {
    num_output: 32
    kernel_size: 1
    weight_filler {
      type: "xavier"
      std: 0.2
    }
    bias_filler {
      type: "constant"
      value: 0.2
    }
  }
}
layer {
  name: "inception_4d/relu_5x5_reduce"
  type: "ReLU"
  bottom: "inception_4d/5x5_reduce"
  top: "inception_4d/5x5_reduce"
}
layer {
  name: "inception_4d/5x5"
  type: "Convolution"
  bottom: "inception_4d/5x5_reduce"
  top: "inception_4d/5x5"
  param {
    lr_mult: 1
    decay_mult: 1
  }
  param {
    lr_mult: 2
    decay_mult: 0
  }
  convolution_param {
    num_output: 64
    pad: 2
    kernel_size: 5
    weight_filler {
      type: "xavier"
      std: 0.03
    }
    bias_filler {
      type: "constant"
      value: 0.2
    }
  }
}
layer {
  name: "inception_4d/relu_5x5"
  type: "ReLU"
  bottom: "inception_4d/5x5"
  top: "inception_4d/5x5"
}
layer {
  name: "inception_4d/pool"
  type: "Pooling"
  bottom: "inception_4c/output"
  top: "inception_4d/pool"
  pooling_param {
    pool: MAX
    kernel_size: 3
    stride: 1
    pad: 1
  }
}
layer {
  name: "inception_4d/pool_proj"
  type: "Convolution"
  bottom: "inception_4d/pool"
  top: "inception_4d/pool_proj"
  param {
    lr_mult: 1
    decay_mult: 1
  }
  param {
    lr_mult: 2
    decay_mult: 0
  }
  convolution_param {
    num_output: 64
    kernel_size: 1
    weight_filler {
      type: "xavier"
      std: 0.1
    }
    bias_filler {
      type: "constant"
      value: 0.2
    }
  }
}
layer {
  name: "inception_4d/relu_pool_proj"
  type: "ReLU"
  bottom: "inception_4d/pool_proj"
  top: "inception_4d/pool_proj"
}
layer {
  name: "inception_4d/output"
  type: "Concat"
  bottom: "inception_4d/1x1"
  bottom: "inception_4d/3x3"
  bottom: "inception_4d/5x5"
  bottom: "inception_4d/pool_proj"
  top: "inception_4d/output"
}
layer {
  name: "loss2/ave_pool"
  type: "Pooling"
  bottom: "inception_4d/output"
  top: "loss2/ave_pool"
  pooling_param {
    pool: AVE
    kernel_size: 5
    stride: 3
  }
}
layer {
  name: "loss2/conv"
  type: "Convolution"
  bottom: "loss2/ave_pool"
  top: "loss2/conv"
  param {
    lr_mult: 1
    decay_mult: 1
  }
  param {
    lr_mult: 2
    decay_mult: 0
  }
  convolution_param {
    num_output: 128
    kernel_size: 1
    weight_filler {
      type: "xavier"
      std: 0.08
    }
    bias_filler {
      type: "constant"
      value: 0.2
    }
  }
}
layer {
  name: "loss2/relu_conv"
  type: "ReLU"
  bottom: "loss2/conv"
  top: "loss2/conv"
}
layer {
  name: "loss2/fc"
  type: "InnerProduct"
  bottom: "loss2/conv"
  top: "loss2/fc"
  param {
    lr_mult: 1
    decay_mult: 1
  }
  param {
    lr_mult: 2
    decay_mult: 0
  }
  inner_product_param {
    num_output: 1024
    weight_filler {
      type: "xavier"
      std: 0.02
    }
    bias_filler {
      type: "constant"
      value: 0.2
    }
  }
}
layer {
  name: "loss2/relu_fc"
  type: "ReLU"
  bottom: "loss2/fc"
  top: "loss2/fc"
}
layer {
  name: "loss2/drop_fc"
  type: "Dropout"
  bottom: "loss2/fc"
  top: "loss2/fc"
  dropout_param {
    dropout_ratio: 0.7
  }
}
layer {
  name: "loss2/classifier_plantvillage"
  type: "InnerProduct"
  bottom: "loss2/fc"
  top: "loss2/classifier_plantvillage"
  param {
    lr_mult: 1
    decay_mult: 1
  }
  param {
    lr_mult: 2
    decay_mult: 0
  }
  inner_product_param {
    num_output: 38
    weight_filler {
      type: "xavier"
      std: 0.0009765625
    }
    bias_filler {
      type: "constant"
      value: 0
    }
  }
}
layer {
  name: "inception_4e/1x1"
  type: "Convolution"
  bottom: "inception_4d/output"
  top: "inception_4e/1x1"
  param {
    lr_mult: 1
    decay_mult: 1
  }
  param {
    lr_mult: 2
    decay_mult: 0
  }
  convolution_param {
    num_output: 256
    kernel_size: 1
    weight_filler {
      type: "xavier"
      std: 0.03
    }
    bias_filler {
      type: "constant"
      value: 0.2
    }
  }
}
layer {
  name: "inception_4e/relu_1x1"
  type: "ReLU"
  bottom: "inception_4e/1x1"
  top: "inception_4e/1x1"
}
layer {
  name: "inception_4e/3x3_reduce"
  type: "Convolution"
  bottom: "inception_4d/output"
  top: "inception_4e/3x3_reduce"
  param {
    lr_mult: 1
    decay_mult: 1
  }
  param {
    lr_mult: 2
    decay_mult: 0
  }
  convolution_param {
    num_output: 160
    kernel_size: 1
    weight_filler {
      type: "xavier"
      std: 0.09
    }
    bias_filler {
      type: "constant"
      value: 0.2
    }
  }
}
layer {
  name: "inception_4e/relu_3x3_reduce"
  type: "ReLU"
  bottom: "inception_4e/3x3_reduce"
  top: "inception_4e/3x3_reduce"
}
layer {
  name: "inception_4e/3x3"
  type: "Convolution"
  bottom: "inception_4e/3x3_reduce"
  top: "inception_4e/3x3"
  param {
    lr_mult: 1
    decay_mult: 1
  }
  param {
    lr_mult: 2
    decay_mult: 0
  }
  convolution_param {
    num_output: 320
    pad: 1
    kernel_size: 3
    weight_filler {
      type: "xavier"
      std: 0.03
    }
    bias_filler {
      type: "constant"
      value: 0.2
    }
  }
}
layer {
  name: "inception_4e/relu_3x3"
  type: "ReLU"
  bottom: "inception_4e/3x3"
  top: "inception_4e/3x3"
}
layer {
  name: "inception_4e/5x5_reduce"
  type: "Convolution"
  bottom: "inception_4d/output"
  top: "inception_4e/5x5_reduce"
  param {
    lr_mult: 1
    decay_mult: 1
  }
  param {
    lr_mult: 2
    decay_mult: 0
  }
  convolution_param {
    num_output: 32
    kernel_size: 1
    weight_filler {
      type: "xavier"
      std: 0.2
    }
    bias_filler {
      type: "constant"
      value: 0.2
    }
  }
}
layer {
  name: "inception_4e/relu_5x5_reduce"
  type: "ReLU"
  bottom: "inception_4e/5x5_reduce"
  top: "inception_4e/5x5_reduce"
}
layer {
  name: "inception_4e/5x5"
  type: "Convolution"
  bottom: "inception_4e/5x5_reduce"
  top: "inception_4e/5x5"
  p
I0403 16:49:40.268729 21484 layer_factory.hpp:77] Creating layer data
I0403 16:49:40.269305 21484 net.cpp:91] Creating Layer data
I0403 16:49:40.269335 21484 net.cpp:399] data -> data
I0403 16:49:40.269383 21484 net.cpp:399] data -> label
I0403 16:49:40.269418 21484 data_transformer.cpp:25] Loading mean file from: /home/mohanty/data/final_dataset/lmdb/color-40-60/mean.binaryproto
I0403 16:49:40.270571 21487 db_lmdb.cpp:38] Opened lmdb /home/mohanty/data/final_dataset/lmdb/color-40-60/test_db
I0403 16:49:40.282063 21484 data_layer.cpp:41] output data size: 24,3,224,224
I0403 16:49:40.311355 21484 net.cpp:141] Setting up data
I0403 16:49:40.311413 21484 net.cpp:148] Top shape: 24 3 224 224 (3612672)
I0403 16:49:40.311434 21484 net.cpp:148] Top shape: 24 (24)
I0403 16:49:40.311450 21484 net.cpp:156] Memory required for data: 14450784
I0403 16:49:40.311478 21484 layer_factory.hpp:77] Creating layer label_data_1_split
I0403 16:49:40.311504 21484 net.cpp:91] Creating Layer label_data_1_split
I0403 16:49:40.311522 21484 net.cpp:425] label_data_1_split <- label
I0403 16:49:40.311553 21484 net.cpp:399] label_data_1_split -> label_data_1_split_0
I0403 16:49:40.311581 21484 net.cpp:399] label_data_1_split -> label_data_1_split_1
I0403 16:49:40.311602 21484 net.cpp:399] label_data_1_split -> label_data_1_split_2
I0403 16:49:40.311624 21484 net.cpp:399] label_data_1_split -> label_data_1_split_3
I0403 16:49:40.311642 21484 net.cpp:399] label_data_1_split -> label_data_1_split_4
I0403 16:49:40.311662 21484 net.cpp:399] label_data_1_split -> label_data_1_split_5
I0403 16:49:40.311682 21484 net.cpp:399] label_data_1_split -> label_data_1_split_6
I0403 16:49:40.311702 21484 net.cpp:399] label_data_1_split -> label_data_1_split_7
I0403 16:49:40.311722 21484 net.cpp:399] label_data_1_split -> label_data_1_split_8
I0403 16:49:40.311741 21484 net.cpp:399] label_data_1_split -> label_data_1_split_9
I0403 16:49:40.311861 21484 net.cpp:141] Setting up label_data_1_split
I0403 16:49:40.311884 21484 net.cpp:148] Top shape: 24 (24)
I0403 16:49:40.311900 21484 net.cpp:148] Top shape: 24 (24)
I0403 16:49:40.311916 21484 net.cpp:148] Top shape: 24 (24)
I0403 16:49:40.311931 21484 net.cpp:148] Top shape: 24 (24)
I0403 16:49:40.311947 21484 net.cpp:148] Top shape: 24 (24)
I0403 16:49:40.311962 21484 net.cpp:148] Top shape: 24 (24)
I0403 16:49:40.311980 21484 net.cpp:148] Top shape: 24 (24)
I0403 16:49:40.312002 21484 net.cpp:148] Top shape: 24 (24)
I0403 16:49:40.312019 21484 net.cpp:148] Top shape: 24 (24)
I0403 16:49:40.312034 21484 net.cpp:148] Top shape: 24 (24)
I0403 16:49:40.312078 21484 net.cpp:156] Memory required for data: 14451744
I0403 16:49:40.312094 21484 layer_factory.hpp:77] Creating layer conv1/7x7_s2
I0403 16:49:40.312126 21484 net.cpp:91] Creating Layer conv1/7x7_s2
I0403 16:49:40.312145 21484 net.cpp:425] conv1/7x7_s2 <- data
I0403 16:49:40.312165 21484 net.cpp:399] conv1/7x7_s2 -> conv1/7x7_s2
I0403 16:49:40.454315 21484 net.cpp:141] Setting up conv1/7x7_s2
I0403 16:49:40.454402 21484 net.cpp:148] Top shape: 24 64 112 112 (19267584)
I0403 16:49:40.454419 21484 net.cpp:156] Memory required for data: 91522080
I0403 16:49:40.454449 21484 layer_factory.hpp:77] Creating layer conv1/relu_7x7
I0403 16:49:40.454475 21484 net.cpp:91] Creating Layer conv1/relu_7x7
I0403 16:49:40.454493 21484 net.cpp:425] conv1/relu_7x7 <- conv1/7x7_s2
I0403 16:49:40.454510 21484 net.cpp:386] conv1/relu_7x7 -> conv1/7x7_s2 (in-place)
I0403 16:49:40.454761 21484 net.cpp:141] Setting up conv1/relu_7x7
I0403 16:49:40.454787 21484 net.cpp:148] Top shape: 24 64 112 112 (19267584)
I0403 16:49:40.454802 21484 net.cpp:156] Memory required for data: 168592416
I0403 16:49:40.454816 21484 layer_factory.hpp:77] Creating layer pool1/3x3_s2
I0403 16:49:40.454840 21484 net.cpp:91] Creating Layer pool1/3x3_s2
I0403 16:49:40.454856 21484 net.cpp:425] pool1/3x3_s2 <- conv1/7x7_s2
I0403 16:49:40.454874 21484 net.cpp:399] pool1/3x3_s2 -> pool1/3x3_s2
I0403 16:49:40.454946 21484 net.cpp:141] Setting up pool1/3x3_s2
I0403 16:49:40.454968 21484 net.cpp:148] Top shape: 24 64 56 56 (4816896)
I0403 16:49:40.454983 21484 net.cpp:156] Memory required for data: 187860000
I0403 16:49:40.455003 21484 layer_factory.hpp:77] Creating layer pool1/norm1
I0403 16:49:40.455025 21484 net.cpp:91] Creating Layer pool1/norm1
I0403 16:49:40.455042 21484 net.cpp:425] pool1/norm1 <- pool1/3x3_s2
I0403 16:49:40.455060 21484 net.cpp:399] pool1/norm1 -> pool1/norm1
I0403 16:49:40.455343 21484 net.cpp:141] Setting up pool1/norm1
I0403 16:49:40.455369 21484 net.cpp:148] Top shape: 24 64 56 56 (4816896)
I0403 16:49:40.455384 21484 net.cpp:156] Memory required for data: 207127584
I0403 16:49:40.455399 21484 layer_factory.hpp:77] Creating layer conv2/3x3_reduce
I0403 16:49:40.455421 21484 net.cpp:91] Creating Layer conv2/3x3_reduce
I0403 16:49:40.455437 21484 net.cpp:425] conv2/3x3_reduce <- pool1/norm1
I0403 16:49:40.455456 21484 net.cpp:399] conv2/3x3_reduce -> conv2/3x3_reduce
I0403 16:49:40.456750 21484 net.cpp:141] Setting up conv2/3x3_reduce
I0403 16:49:40.456779 21484 net.cpp:148] Top shape: 24 64 56 56 (4816896)
I0403 16:49:40.456794 21484 net.cpp:156] Memory required for data: 226395168
I0403 16:49:40.456814 21484 layer_factory.hpp:77] Creating layer conv2/relu_3x3_reduce
I0403 16:49:40.456831 21484 net.cpp:91] Creating Layer conv2/relu_3x3_reduce
I0403 16:49:40.456846 21484 net.cpp:425] conv2/relu_3x3_reduce <- conv2/3x3_reduce
I0403 16:49:40.456863 21484 net.cpp:386] conv2/relu_3x3_reduce -> conv2/3x3_reduce (in-place)
I0403 16:49:40.457135 21484 net.cpp:141] Setting up conv2/relu_3x3_reduce
I0403 16:49:40.457162 21484 net.cpp:148] Top shape: 24 64 56 56 (4816896)
I0403 16:49:40.457177 21484 net.cpp:156] Memory required for data: 245662752
I0403 16:49:40.457192 21484 layer_factory.hpp:77] Creating layer conv2/3x3
I0403 16:49:40.457216 21484 net.cpp:91] Creating Layer conv2/3x3
I0403 16:49:40.457232 21484 net.cpp:425] conv2/3x3 <- conv2/3x3_reduce
I0403 16:49:40.457252 21484 net.cpp:399] conv2/3x3 -> conv2/3x3
I0403 16:49:40.459504 21484 net.cpp:141] Setting up conv2/3x3
I0403 16:49:40.459537 21484 net.cpp:148] Top shape: 24 192 56 56 (14450688)
I0403 16:49:40.459553 21484 net.cpp:156] Memory required for data: 303465504
I0403 16:49:40.459573 21484 layer_factory.hpp:77] Creating layer conv2/relu_3x3
I0403 16:49:40.459591 21484 net.cpp:91] Creating Layer conv2/relu_3x3
I0403 16:49:40.459606 21484 net.cpp:425] conv2/relu_3x3 <- conv2/3x3
I0403 16:49:40.459622 21484 net.cpp:386] conv2/relu_3x3 -> conv2/3x3 (in-place)
I0403 16:49:40.459799 21484 net.cpp:141] Setting up conv2/relu_3x3
I0403 16:49:40.459823 21484 net.cpp:148] Top shape: 24 192 56 56 (14450688)
I0403 16:49:40.459867 21484 net.cpp:156] Memory required for data: 361268256
I0403 16:49:40.459883 21484 layer_factory.hpp:77] Creating layer conv2/norm2
I0403 16:49:40.459903 21484 net.cpp:91] Creating Layer conv2/norm2
I0403 16:49:40.459918 21484 net.cpp:425] conv2/norm2 <- conv2/3x3
I0403 16:49:40.459936 21484 net.cpp:399] conv2/norm2 -> conv2/norm2
I0403 16:49:40.460240 21484 net.cpp:141] Setting up conv2/norm2
I0403 16:49:40.460266 21484 net.cpp:148] Top shape: 24 192 56 56 (14450688)
I0403 16:49:40.460281 21484 net.cpp:156] Memory required for data: 419071008
I0403 16:49:40.460295 21484 layer_factory.hpp:77] Creating layer pool2/3x3_s2
I0403 16:49:40.460319 21484 net.cpp:91] Creating Layer pool2/3x3_s2
I0403 16:49:40.460335 21484 net.cpp:425] pool2/3x3_s2 <- conv2/norm2
I0403 16:49:40.460351 21484 net.cpp:399] pool2/3x3_s2 -> pool2/3x3_s2
I0403 16:49:40.460403 21484 net.cpp:141] Setting up pool2/3x3_s2
I0403 16:49:40.460427 21484 net.cpp:148] Top shape: 24 192 28 28 (3612672)
I0403 16:49:40.460440 21484 net.cpp:156] Memory required for data: 433521696
I0403 16:49:40.460454 21484 layer_factory.hpp:77] Creating layer pool2/3x3_s2_pool2/3x3_s2_0_split
I0403 16:49:40.460471 21484 net.cpp:91] Creating Layer pool2/3x3_s2_pool2/3x3_s2_0_split
I0403 16:49:40.460485 21484 net.cpp:425] pool2/3x3_s2_pool2/3x3_s2_0_split <- pool2/3x3_s2
I0403 16:49:40.460505 21484 net.cpp:399] pool2/3x3_s2_pool2/3x3_s2_0_split -> pool2/3x3_s2_pool2/3x3_s2_0_split_0
I0403 16:49:40.460525 21484 net.cpp:399] pool2/3x3_s2_pool2/3x3_s2_0_split -> pool2/3x3_s2_pool2/3x3_s2_0_split_1
I0403 16:49:40.460542 21484 net.cpp:399] pool2/3x3_s2_pool2/3x3_s2_0_split -> pool2/3x3_s2_pool2/3x3_s2_0_split_2
I0403 16:49:40.460561 21484 net.cpp:399] pool2/3x3_s2_pool2/3x3_s2_0_split -> pool2/3x3_s2_pool2/3x3_s2_0_split_3
I0403 16:49:40.460633 21484 net.cpp:141] Setting up pool2/3x3_s2_pool2/3x3_s2_0_split
I0403 16:49:40.460659 21484 net.cpp:148] Top shape: 24 192 28 28 (3612672)
I0403 16:49:40.460675 21484 net.cpp:148] Top shape: 24 192 28 28 (3612672)
I0403 16:49:40.460690 21484 net.cpp:148] Top shape: 24 192 28 28 (3612672)
I0403 16:49:40.460705 21484 net.cpp:148] Top shape: 24 192 28 28 (3612672)
I0403 16:49:40.460718 21484 net.cpp:156] Memory required for data: 491324448
I0403 16:49:40.460733 21484 layer_factory.hpp:77] Creating layer inception_3a/1x1
I0403 16:49:40.460755 21484 net.cpp:91] Creating Layer inception_3a/1x1
I0403 16:49:40.460772 21484 net.cpp:425] inception_3a/1x1 <- pool2/3x3_s2_pool2/3x3_s2_0_split_0
I0403 16:49:40.460789 21484 net.cpp:399] inception_3a/1x1 -> inception_3a/1x1
I0403 16:49:40.462349 21484 net.cpp:141] Setting up inception_3a/1x1
I0403 16:49:40.462389 21484 net.cpp:148] Top shape: 24 64 28 28 (1204224)
I0403 16:49:40.462405 21484 net.cpp:156] Memory required for data: 496141344
I0403 16:49:40.462424 21484 layer_factory.hpp:77] Creating layer inception_3a/relu_1x1
I0403 16:49:40.462443 21484 net.cpp:91] Creating Layer inception_3a/relu_1x1
I0403 16:49:40.462460 21484 net.cpp:425] inception_3a/relu_1x1 <- inception_3a/1x1
I0403 16:49:40.462476 21484 net.cpp:386] inception_3a/relu_1x1 -> inception_3a/1x1 (in-place)
I0403 16:49:40.462652 21484 net.cpp:141] Setting up inception_3a/relu_1x1
I0403 16:49:40.462679 21484 net.cpp:148] Top shape: 24 64 28 28 (1204224)
I0403 16:49:40.462694 21484 net.cpp:156] Memory required for data: 500958240
I0403 16:49:40.462708 21484 layer_factory.hpp:77] Creating layer inception_3a/3x3_reduce
I0403 16:49:40.462731 21484 net.cpp:91] Creating Layer inception_3a/3x3_reduce
I0403 16:49:40.462749 21484 net.cpp:425] inception_3a/3x3_reduce <- pool2/3x3_s2_pool2/3x3_s2_0_split_1
I0403 16:49:40.462769 21484 net.cpp:399] inception_3a/3x3_reduce -> inception_3a/3x3_reduce
I0403 16:49:40.464514 21484 net.cpp:141] Setting up inception_3a/3x3_reduce
I0403 16:49:40.464542 21484 net.cpp:148] Top shape: 24 96 28 28 (1806336)
I0403 16:49:40.464561 21484 net.cpp:156] Memory required for data: 508183584
I0403 16:49:40.464583 21484 layer_factory.hpp:77] Creating layer inception_3a/relu_3x3_reduce
I0403 16:49:40.464619 21484 net.cpp:91] Creating Layer inception_3a/relu_3x3_reduce
I0403 16:49:40.464637 21484 net.cpp:425] inception_3a/relu_3x3_reduce <- inception_3a/3x3_reduce
I0403 16:49:40.464656 21484 net.cpp:386] inception_3a/relu_3x3_reduce -> inception_3a/3x3_reduce (in-place)
I0403 16:49:40.464841 21484 net.cpp:141] Setting up inception_3a/relu_3x3_reduce
I0403 16:49:40.464866 21484 net.cpp:148] Top shape: 24 96 28 28 (1806336)
I0403 16:49:40.464880 21484 net.cpp:156] Memory required for data: 515408928
I0403 16:49:40.464895 21484 layer_factory.hpp:77] Creating layer inception_3a/3x3
I0403 16:49:40.464917 21484 net.cpp:91] Creating Layer inception_3a/3x3
I0403 16:49:40.464934 21484 net.cpp:425] inception_3a/3x3 <- inception_3a/3x3_reduce
I0403 16:49:40.464956 21484 net.cpp:399] inception_3a/3x3 -> inception_3a/3x3
I0403 16:49:40.466707 21484 net.cpp:141] Setting up inception_3a/3x3
I0403 16:49:40.466738 21484 net.cpp:148] Top shape: 24 128 28 28 (2408448)
I0403 16:49:40.466755 21484 net.cpp:156] Memory required for data: 525042720
I0403 16:49:40.466773 21484 layer_factory.hpp:77] Creating layer inception_3a/relu_3x3
I0403 16:49:40.466792 21484 net.cpp:91] Creating Layer inception_3a/relu_3x3
I0403 16:49:40.466809 21484 net.cpp:425] inception_3a/relu_3x3 <- inception_3a/3x3
I0403 16:49:40.466827 21484 net.cpp:386] inception_3a/relu_3x3 -> inception_3a/3x3 (in-place)
I0403 16:49:40.467116 21484 net.cpp:141] Setting up inception_3a/relu_3x3
I0403 16:49:40.467144 21484 net.cpp:148] Top shape: 24 128 28 28 (2408448)
I0403 16:49:40.467160 21484 net.cpp:156] Memory required for data: 534676512
I0403 16:49:40.467175 21484 layer_factory.hpp:77] Creating layer inception_3a/5x5_reduce
I0403 16:49:40.467198 21484 net.cpp:91] Creating Layer inception_3a/5x5_reduce
I0403 16:49:40.467216 21484 net.cpp:425] inception_3a/5x5_reduce <- pool2/3x3_s2_pool2/3x3_s2_0_split_2
I0403 16:49:40.467234 21484 net.cpp:399] inception_3a/5x5_reduce -> inception_3a/5x5_reduce
I0403 16:49:40.468232 21484 net.cpp:141] Setting up inception_3a/5x5_reduce
I0403 16:49:40.468263 21484 net.cpp:148] Top shape: 24 16 28 28 (301056)
I0403 16:49:40.468279 21484 net.cpp:156] Memory required for data: 535880736
I0403 16:49:40.468297 21484 layer_factory.hpp:77] Creating layer inception_3a/relu_5x5_reduce
I0403 16:49:40.468315 21484 net.cpp:91] Creating Layer inception_3a/relu_5x5_reduce
I0403 16:49:40.468330 21484 net.cpp:425] inception_3a/relu_5x5_reduce <- inception_3a/5x5_reduce
I0403 16:49:40.468351 21484 net.cpp:386] inception_3a/relu_5x5_reduce -> inception_3a/5x5_reduce (in-place)
I0403 16:49:40.468659 21484 net.cpp:141] Setting up inception_3a/relu_5x5_reduce
I0403 16:49:40.468685 21484 net.cpp:148] Top shape: 24 16 28 28 (301056)
I0403 16:49:40.468699 21484 net.cpp:156] Memory required for data: 537084960
I0403 16:49:40.468714 21484 layer_factory.hpp:77] Creating layer inception_3a/5x5
I0403 16:49:40.468735 21484 net.cpp:91] Creating Layer inception_3a/5x5
I0403 16:49:40.468752 21484 net.cpp:425] inception_3a/5x5 <- inception_3a/5x5_reduce
I0403 16:49:40.468773 21484 net.cpp:399] inception_3a/5x5 -> inception_3a/5x5
I0403 16:49:40.469785 21484 net.cpp:141] Setting up inception_3a/5x5
I0403 16:49:40.469812 21484 net.cpp:148] Top shape: 24 32 28 28 (602112)
I0403 16:49:40.469827 21484 net.cpp:156] Memory required for data: 539493408
I0403 16:49:40.469846 21484 layer_factory.hpp:77] Creating layer inception_3a/relu_5x5
I0403 16:49:40.469864 21484 net.cpp:91] Creating Layer inception_3a/relu_5x5
I0403 16:49:40.469880 21484 net.cpp:425] inception_3a/relu_5x5 <- inception_3a/5x5
I0403 16:49:40.469897 21484 net.cpp:386] inception_3a/relu_5x5 -> inception_3a/5x5 (in-place)
I0403 16:49:40.470074 21484 net.cpp:141] Setting up inception_3a/relu_5x5
I0403 16:49:40.470099 21484 net.cpp:148] Top shape: 24 32 28 28 (602112)
I0403 16:49:40.470113 21484 net.cpp:156] Memory required for data: 541901856
I0403 16:49:40.470127 21484 layer_factory.hpp:77] Creating layer inception_3a/pool
I0403 16:49:40.470144 21484 net.cpp:91] Creating Layer inception_3a/pool
I0403 16:49:40.470160 21484 net.cpp:425] inception_3a/pool <- pool2/3x3_s2_pool2/3x3_s2_0_split_3
I0403 16:49:40.470193 21484 net.cpp:399] inception_3a/pool -> inception_3a/pool
I0403 16:49:40.470252 21484 net.cpp:141] Setting up inception_3a/pool
I0403 16:49:40.470274 21484 net.cpp:148] Top shape: 24 192 28 28 (3612672)
I0403 16:49:40.470288 21484 net.cpp:156] Memory required for data: 556352544
I0403 16:49:40.470302 21484 layer_factory.hpp:77] Creating layer inception_3a/pool_proj
I0403 16:49:40.470326 21484 net.cpp:91] Creating Layer inception_3a/pool_proj
I0403 16:49:40.470343 21484 net.cpp:425] inception_3a/pool_proj <- inception_3a/pool
I0403 16:49:40.470361 21484 net.cpp:399] inception_3a/pool_proj -> inception_3a/pool_proj
I0403 16:49:40.471326 21484 net.cpp:141] Setting up inception_3a/pool_proj
I0403 16:49:40.471354 21484 net.cpp:148] Top shape: 24 32 28 28 (602112)
I0403 16:49:40.471369 21484 net.cpp:156] Memory required for data: 558760992
I0403 16:49:40.471393 21484 layer_factory.hpp:77] Creating layer inception_3a/relu_pool_proj
I0403 16:49:40.471413 21484 net.cpp:91] Creating Layer inception_3a/relu_pool_proj
I0403 16:49:40.471429 21484 net.cpp:425] inception_3a/relu_pool_proj <- inception_3a/pool_proj
I0403 16:49:40.471448 21484 net.cpp:386] inception_3a/relu_pool_proj -> inception_3a/pool_proj (in-place)
I0403 16:49:40.471732 21484 net.cpp:141] Setting up inception_3a/relu_pool_proj
I0403 16:49:40.471760 21484 net.cpp:148] Top shape: 24 32 28 28 (602112)
I0403 16:49:40.471774 21484 net.cpp:156] Memory required for data: 561169440
I0403 16:49:40.471789 21484 layer_factory.hpp:77] Creating layer inception_3a/output
I0403 16:49:40.471807 21484 net.cpp:91] Creating Layer inception_3a/output
I0403 16:49:40.471820 21484 net.cpp:425] inception_3a/output <- inception_3a/1x1
I0403 16:49:40.471837 21484 net.cpp:425] inception_3a/output <- inception_3a/3x3
I0403 16:49:40.471853 21484 net.cpp:425] inception_3a/output <- inception_3a/5x5
I0403 16:49:40.471868 21484 net.cpp:425] inception_3a/output <- inception_3a/pool_proj
I0403 16:49:40.471884 21484 net.cpp:399] inception_3a/output -> inception_3a/output
I0403 16:49:40.471930 21484 net.cpp:141] Setting up inception_3a/output
I0403 16:49:40.471951 21484 net.cpp:148] Top shape: 24 256 28 28 (4816896)
I0403 16:49:40.471966 21484 net.cpp:156] Memory required for data: 580437024
I0403 16:49:40.471979 21484 layer_factory.hpp:77] Creating layer inception_3a/output_inception_3a/output_0_split
I0403 16:49:40.472000 21484 net.cpp:91] Creating Layer inception_3a/output_inception_3a/output_0_split
I0403 16:49:40.472015 21484 net.cpp:425] inception_3a/output_inception_3a/output_0_split <- inception_3a/output
I0403 16:49:40.472035 21484 net.cpp:399] inception_3a/output_inception_3a/output_0_split -> inception_3a/output_inception_3a/output_0_split_0
I0403 16:49:40.472055 21484 net.cpp:399] inception_3a/output_inception_3a/output_0_split -> inception_3a/output_inception_3a/output_0_split_1
I0403 16:49:40.472079 21484 net.cpp:399] inception_3a/output_inception_3a/output_0_split -> inception_3a/output_inception_3a/output_0_split_2
I0403 16:49:40.472100 21484 net.cpp:399] inception_3a/output_inception_3a/output_0_split -> inception_3a/output_inception_3a/output_0_split_3
I0403 16:49:40.472170 21484 net.cpp:141] Setting up inception_3a/output_inception_3a/output_0_split
I0403 16:49:40.472193 21484 net.cpp:148] Top shape: 24 256 28 28 (4816896)
I0403 16:49:40.472211 21484 net.cpp:148] Top shape: 24 256 28 28 (4816896)
I0403 16:49:40.472228 21484 net.cpp:148] Top shape: 24 256 28 28 (4816896)
I0403 16:49:40.472242 21484 net.cpp:148] Top shape: 24 256 28 28 (4816896)
I0403 16:49:40.472255 21484 net.cpp:156] Memory required for data: 657507360
I0403 16:49:40.472270 21484 layer_factory.hpp:77] Creating layer inception_3b/1x1
I0403 16:49:40.472288 21484 net.cpp:91] Creating Layer inception_3b/1x1
I0403 16:49:40.472304 21484 net.cpp:425] inception_3b/1x1 <- inception_3a/output_inception_3a/output_0_split_0
I0403 16:49:40.472324 21484 net.cpp:399] inception_3b/1x1 -> inception_3b/1x1
I0403 16:49:40.473449 21484 net.cpp:141] Setting up inception_3b/1x1
I0403 16:49:40.473487 21484 net.cpp:148] Top shape: 24 128 28 28 (2408448)
I0403 16:49:40.473502 21484 net.cpp:156] Memory required for data: 667141152
I0403 16:49:40.473520 21484 layer_factory.hpp:77] Creating layer inception_3b/relu_1x1
I0403 16:49:40.473541 21484 net.cpp:91] Creating Layer inception_3b/relu_1x1
I0403 16:49:40.473556 21484 net.cpp:425] inception_3b/relu_1x1 <- inception_3b/1x1
I0403 16:49:40.473573 21484 net.cpp:386] inception_3b/relu_1x1 -> inception_3b/1x1 (in-place)
I0403 16:49:40.473747 21484 net.cpp:141] Setting up inception_3b/relu_1x1
I0403 16:49:40.473774 21484 net.cpp:148] Top shape: 24 128 28 28 (2408448)
I0403 16:49:40.473788 21484 net.cpp:156] Memory required for data: 676774944
I0403 16:49:40.473803 21484 layer_factory.hpp:77] Creating layer inception_3b/3x3_reduce
I0403 16:49:40.473824 21484 net.cpp:91] Creating Layer inception_3b/3x3_reduce
I0403 16:49:40.473841 21484 net.cpp:425] inception_3b/3x3_reduce <- inception_3a/output_inception_3a/output_0_split_1
I0403 16:49:40.473860 21484 net.cpp:399] inception_3b/3x3_reduce -> inception_3b/3x3_reduce
I0403 16:49:40.474980 21484 net.cpp:141] Setting up inception_3b/3x3_reduce
I0403 16:49:40.475011 21484 net.cpp:148] Top shape: 24 128 28 28 (2408448)
I0403 16:49:40.475026 21484 net.cpp:156] Memory required for data: 686408736
I0403 16:49:40.475044 21484 layer_factory.hpp:77] Creating layer inception_3b/relu_3x3_reduce
I0403 16:49:40.475064 21484 net.cpp:91] Creating Layer inception_3b/relu_3x3_reduce
I0403 16:49:40.475081 21484 net.cpp:425] inception_3b/relu_3x3_reduce <- inception_3b/3x3_reduce
I0403 16:49:40.475098 21484 net.cpp:386] inception_3b/relu_3x3_reduce -> inception_3b/3x3_reduce (in-place)
I0403 16:49:40.475265 21484 net.cpp:141] Setting up inception_3b/relu_3x3_reduce
I0403 16:49:40.475291 21484 net.cpp:148] Top shape: 24 128 28 28 (2408448)
I0403 16:49:40.475306 21484 net.cpp:156] Memory required for data: 696042528
I0403 16:49:40.475320 21484 layer_factory.hpp:77] Creating layer inception_3b/3x3
I0403 16:49:40.475344 21484 net.cpp:91] Creating Layer inception_3b/3x3
I0403 16:49:40.475361 21484 net.cpp:425] inception_3b/3x3 <- inception_3b/3x3_reduce
I0403 16:49:40.475381 21484 net.cpp:399] inception_3b/3x3 -> inception_3b/3x3
I0403 16:49:40.478334 21484 net.cpp:141] Setting up inception_3b/3x3
I0403 16:49:40.478368 21484 net.cpp:148] Top shape: 24 192 28 28 (3612672)
I0403 16:49:40.478384 21484 net.cpp:156] Memory required for data: 710493216
I0403 16:49:40.478402 21484 layer_factory.hpp:77] Creating layer inception_3b/relu_3x3
I0403 16:49:40.478421 21484 net.cpp:91] Creating Layer inception_3b/relu_3x3
I0403 16:49:40.478438 21484 net.cpp:425] inception_3b/relu_3x3 <- inception_3b/3x3
I0403 16:49:40.478459 21484 net.cpp:386] inception_3b/relu_3x3 -> inception_3b/3x3 (in-place)
I0403 16:49:40.478756 21484 net.cpp:141] Setting up inception_3b/relu_3x3
I0403 16:49:40.478785 21484 net.cpp:148] Top shape: 24 192 28 28 (3612672)
I0403 16:49:40.478801 21484 net.cpp:156] Memory required for data: 724943904
I0403 16:49:40.478816 21484 layer_factory.hpp:77] Creating layer inception_3b/5x5_reduce
I0403 16:49:40.478840 21484 net.cpp:91] Creating Layer inception_3b/5x5_reduce
I0403 16:49:40.478857 21484 net.cpp:425] inception_3b/5x5_reduce <- inception_3a/output_inception_3a/output_0_split_2
I0403 16:49:40.478876 21484 net.cpp:399] inception_3b/5x5_reduce -> inception_3b/5x5_reduce
I0403 16:49:40.479889 21484 net.cpp:141] Setting up inception_3b/5x5_reduce
I0403 16:49:40.479918 21484 net.cpp:148] Top shape: 24 32 28 28 (602112)
I0403 16:49:40.479933 21484 net.cpp:156] Memory required for data: 727352352
I0403 16:49:40.479954 21484 layer_factory.hpp:77] Creating layer inception_3b/relu_5x5_reduce
I0403 16:49:40.479972 21484 net.cpp:91] Creating Layer inception_3b/relu_5x5_reduce
I0403 16:49:40.479996 21484 net.cpp:425] inception_3b/relu_5x5_reduce <- inception_3b/5x5_reduce
I0403 16:49:40.480015 21484 net.cpp:386] inception_3b/relu_5x5_reduce -> inception_3b/5x5_reduce (in-place)
I0403 16:49:40.480195 21484 net.cpp:141] Setting up inception_3b/relu_5x5_reduce
I0403 16:49:40.480233 21484 net.cpp:148] Top shape: 24 32 28 28 (602112)
I0403 16:49:40.480249 21484 net.cpp:156] Memory required for data: 729760800
I0403 16:49:40.480264 21484 layer_factory.hpp:77] Creating layer inception_3b/5x5
I0403 16:49:40.480288 21484 net.cpp:91] Creating Layer inception_3b/5x5
I0403 16:49:40.480304 21484 net.cpp:425] inception_3b/5x5 <- inception_3b/5x5_reduce
I0403 16:49:40.480325 21484 net.cpp:399] inception_3b/5x5 -> inception_3b/5x5
I0403 16:49:40.482359 21484 net.cpp:141] Setting up inception_3b/5x5
I0403 16:49:40.482388 21484 net.cpp:148] Top shape: 24 96 28 28 (1806336)
I0403 16:49:40.482403 21484 net.cpp:156] Memory required for data: 736986144
I0403 16:49:40.482420 21484 layer_factory.hpp:77] Creating layer inception_3b/relu_5x5
I0403 16:49:40.482439 21484 net.cpp:91] Creating Layer inception_3b/relu_5x5
I0403 16:49:40.482455 21484 net.cpp:425] inception_3b/relu_5x5 <- inception_3b/5x5
I0403 16:49:40.482472 21484 net.cpp:386] inception_3b/relu_5x5 -> inception_3b/5x5 (in-place)
I0403 16:49:40.482658 21484 net.cpp:141] Setting up inception_3b/relu_5x5
I0403 16:49:40.482683 21484 net.cpp:148] Top shape: 24 96 28 28 (1806336)
I0403 16:49:40.482697 21484 net.cpp:156] Memory required for data: 744211488
I0403 16:49:40.482712 21484 layer_factory.hpp:77] Creating layer inception_3b/pool
I0403 16:49:40.482728 21484 net.cpp:91] Creating Layer inception_3b/pool
I0403 16:49:40.482743 21484 net.cpp:425] inception_3b/pool <- inception_3a/output_inception_3a/output_0_split_3
I0403 16:49:40.482760 21484 net.cpp:399] inception_3b/pool -> inception_3b/pool
I0403 16:49:40.482815 21484 net.cpp:141] Setting up inception_3b/pool
I0403 16:49:40.482837 21484 net.cpp:148] Top shape: 24 256 28 28 (4816896)
I0403 16:49:40.482851 21484 net.cpp:156] Memory required for data: 763479072
I0403 16:49:40.482864 21484 layer_factory.hpp:77] Creating layer inception_3b/pool_proj
I0403 16:49:40.482885 21484 net.cpp:91] Creating Layer inception_3b/pool_proj
I0403 16:49:40.482903 21484 net.cpp:425] inception_3b/pool_proj <- inception_3b/pool
I0403 16:49:40.482923 21484 net.cpp:399] inception_3b/pool_proj -> inception_3b/pool_proj
I0403 16:49:40.483960 21484 net.cpp:141] Setting up inception_3b/pool_proj
I0403 16:49:40.483992 21484 net.cpp:148] Top shape: 24 64 28 28 (1204224)
I0403 16:49:40.484009 21484 net.cpp:156] Memory required for data: 768295968
I0403 16:49:40.484027 21484 layer_factory.hpp:77] Creating layer inception_3b/relu_pool_proj
I0403 16:49:40.484045 21484 net.cpp:91] Creating Layer inception_3b/relu_pool_proj
I0403 16:49:40.484060 21484 net.cpp:425] inception_3b/relu_pool_proj <- inception_3b/pool_proj
I0403 16:49:40.484078 21484 net.cpp:386] inception_3b/relu_pool_proj -> inception_3b/pool_proj (in-place)
I0403 16:49:40.484468 21484 net.cpp:141] Setting up inception_3b/relu_pool_proj
I0403 16:49:40.484496 21484 net.cpp:148] Top shape: 24 64 28 28 (1204224)
I0403 16:49:40.484511 21484 net.cpp:156] Memory required for data: 773112864
I0403 16:49:40.484526 21484 layer_factory.hpp:77] Creating layer inception_3b/output
I0403 16:49:40.484544 21484 net.cpp:91] Creating Layer inception_3b/output
I0403 16:49:40.484557 21484 net.cpp:425] inception_3b/output <- inception_3b/1x1
I0403 16:49:40.484573 21484 net.cpp:425] inception_3b/output <- inception_3b/3x3
I0403 16:49:40.484588 21484 net.cpp:425] inception_3b/output <- inception_3b/5x5
I0403 16:49:40.484604 21484 net.cpp:425] inception_3b/output <- inception_3b/pool_proj
I0403 16:49:40.484622 21484 net.cpp:399] inception_3b/output -> inception_3b/output
I0403 16:49:40.484664 21484 net.cpp:141] Setting up inception_3b/output
I0403 16:49:40.484686 21484 net.cpp:148] Top shape: 24 480 28 28 (9031680)
I0403 16:49:40.484700 21484 net.cpp:156] Memory required for data: 809239584
I0403 16:49:40.484714 21484 layer_factory.hpp:77] Creating layer pool3/3x3_s2
I0403 16:49:40.484733 21484 net.cpp:91] Creating Layer pool3/3x3_s2
I0403 16:49:40.484750 21484 net.cpp:425] pool3/3x3_s2 <- inception_3b/output
I0403 16:49:40.484766 21484 net.cpp:399] pool3/3x3_s2 -> pool3/3x3_s2
I0403 16:49:40.484838 21484 net.cpp:141] Setting up pool3/3x3_s2
I0403 16:49:40.484860 21484 net.cpp:148] Top shape: 24 480 14 14 (2257920)
I0403 16:49:40.484874 21484 net.cpp:156] Memory required for data: 818271264
I0403 16:49:40.484889 21484 layer_factory.hpp:77] Creating layer pool3/3x3_s2_pool3/3x3_s2_0_split
I0403 16:49:40.484905 21484 net.cpp:91] Creating Layer pool3/3x3_s2_pool3/3x3_s2_0_split
I0403 16:49:40.484921 21484 net.cpp:425] pool3/3x3_s2_pool3/3x3_s2_0_split <- pool3/3x3_s2
I0403 16:49:40.484938 21484 net.cpp:399] pool3/3x3_s2_pool3/3x3_s2_0_split -> pool3/3x3_s2_pool3/3x3_s2_0_split_0
I0403 16:49:40.484956 21484 net.cpp:399] pool3/3x3_s2_pool3/3x3_s2_0_split -> pool3/3x3_s2_pool3/3x3_s2_0_split_1
I0403 16:49:40.484974 21484 net.cpp:399] pool3/3x3_s2_pool3/3x3_s2_0_split -> pool3/3x3_s2_pool3/3x3_s2_0_split_2
I0403 16:49:40.484998 21484 net.cpp:399] pool3/3x3_s2_pool3/3x3_s2_0_split -> pool3/3x3_s2_pool3/3x3_s2_0_split_3
I0403 16:49:40.485076 21484 net.cpp:141] Setting up pool3/3x3_s2_pool3/3x3_s2_0_split
I0403 16:49:40.485098 21484 net.cpp:148] Top shape: 24 480 14 14 (2257920)
I0403 16:49:40.485116 21484 net.cpp:148] Top shape: 24 480 14 14 (2257920)
I0403 16:49:40.485129 21484 net.cpp:148] Top shape: 24 480 14 14 (2257920)
I0403 16:49:40.485144 21484 net.cpp:148] Top shape: 24 480 14 14 (2257920)
I0403 16:49:40.485157 21484 net.cpp:156] Memory required for data: 854397984
I0403 16:49:40.485172 21484 layer_factory.hpp:77] Creating layer inception_4a/1x1
I0403 16:49:40.485193 21484 net.cpp:91] Creating Layer inception_4a/1x1
I0403 16:49:40.485209 21484 net.cpp:425] inception_4a/1x1 <- pool3/3x3_s2_pool3/3x3_s2_0_split_0
I0403 16:49:40.485229 21484 net.cpp:399] inception_4a/1x1 -> inception_4a/1x1
I0403 16:49:40.486773 21484 net.cpp:141] Setting up inception_4a/1x1
I0403 16:49:40.486800 21484 net.cpp:148] Top shape: 24 192 14 14 (903168)
I0403 16:49:40.486815 21484 net.cpp:156] Memory required for data: 858010656
I0403 16:49:40.486832 21484 layer_factory.hpp:77] Creating layer inception_4a/relu_1x1
I0403 16:49:40.486850 21484 net.cpp:91] Creating Layer inception_4a/relu_1x1
I0403 16:49:40.486865 21484 net.cpp:425] inception_4a/relu_1x1 <- inception_4a/1x1
I0403 16:49:40.486883 21484 net.cpp:386] inception_4a/relu_1x1 -> inception_4a/1x1 (in-place)
I0403 16:49:40.487063 21484 net.cpp:141] Setting up inception_4a/relu_1x1
I0403 16:49:40.487088 21484 net.cpp:148] Top shape: 24 192 14 14 (903168)
I0403 16:49:40.487102 21484 net.cpp:156] Memory required for data: 861623328
I0403 16:49:40.487115 21484 layer_factory.hpp:77] Creating layer inception_4a/3x3_reduce
I0403 16:49:40.487138 21484 net.cpp:91] Creating Layer inception_4a/3x3_reduce
I0403 16:49:40.487155 21484 net.cpp:425] inception_4a/3x3_reduce <- pool3/3x3_s2_pool3/3x3_s2_0_split_1
I0403 16:49:40.487175 21484 net.cpp:399] inception_4a/3x3_reduce -> inception_4a/3x3_reduce
I0403 16:49:40.488518 21484 net.cpp:141] Setting up inception_4a/3x3_reduce
I0403 16:49:40.488545 21484 net.cpp:148] Top shape: 24 96 14 14 (451584)
I0403 16:49:40.488560 21484 net.cpp:156] Memory required for data: 863429664
I0403 16:49:40.488585 21484 layer_factory.hpp:77] Creating layer inception_4a/relu_3x3_reduce
I0403 16:49:40.488605 21484 net.cpp:91] Creating Layer inception_4a/relu_3x3_reduce
I0403 16:49:40.488620 21484 net.cpp:425] inception_4a/relu_3x3_reduce <- inception_4a/3x3_reduce
I0403 16:49:40.488638 21484 net.cpp:386] inception_4a/relu_3x3_reduce -> inception_4a/3x3_reduce (in-place)
I0403 16:49:40.488808 21484 net.cpp:141] Setting up inception_4a/relu_3x3_reduce
I0403 16:49:40.488832 21484 net.cpp:148] Top shape: 24 96 14 14 (451584)
I0403 16:49:40.488847 21484 net.cpp:156] Memory required for data: 865236000
I0403 16:49:40.488862 21484 layer_factory.hpp:77] Creating layer inception_4a/3x3
I0403 16:49:40.488883 21484 net.cpp:91] Creating Layer inception_4a/3x3
I0403 16:49:40.488900 21484 net.cpp:425] inception_4a/3x3 <- inception_4a/3x3_reduce
I0403 16:49:40.488921 21484 net.cpp:399] inception_4a/3x3 -> inception_4a/3x3
I0403 16:49:40.491571 21484 net.cpp:141] Setting up inception_4a/3x3
I0403 16:49:40.491600 21484 net.cpp:148] Top shape: 24 208 14 14 (978432)
I0403 16:49:40.491614 21484 net.cpp:156] Memory required for data: 869149728
I0403 16:49:40.491631 21484 layer_factory.hpp:77] Creating layer inception_4a/relu_3x3
I0403 16:49:40.491652 21484 net.cpp:91] Creating Layer inception_4a/relu_3x3
I0403 16:49:40.491667 21484 net.cpp:425] inception_4a/relu_3x3 <- inception_4a/3x3
I0403 16:49:40.491684 21484 net.cpp:386] inception_4a/relu_3x3 -> inception_4a/3x3 (in-place)
I0403 16:49:40.491958 21484 net.cpp:141] Setting up inception_4a/relu_3x3
I0403 16:49:40.491984 21484 net.cpp:148] Top shape: 24 208 14 14 (978432)
I0403 16:49:40.492005 21484 net.cpp:156] Memory required for data: 873063456
I0403 16:49:40.492020 21484 layer_factory.hpp:77] Creating layer inception_4a/5x5_reduce
I0403 16:49:40.492043 21484 net.cpp:91] Creating Layer inception_4a/5x5_reduce
I0403 16:49:40.492063 21484 net.cpp:425] inception_4a/5x5_reduce <- pool3/3x3_s2_pool3/3x3_s2_0_split_2
I0403 16:49:40.492081 21484 net.cpp:399] inception_4a/5x5_reduce -> inception_4a/5x5_reduce
I0403 16:49:40.493089 21484 net.cpp:141] Setting up inception_4a/5x5_reduce
I0403 16:49:40.493116 21484 net.cpp:148] Top shape: 24 16 14 14 (75264)
I0403 16:49:40.493131 21484 net.cpp:156] Memory required for data: 873364512
I0403 16:49:40.493149 21484 layer_factory.hpp:77] Creating layer inception_4a/relu_5x5_reduce
I0403 16:49:40.493167 21484 net.cpp:91] Creating Layer inception_4a/relu_5x5_reduce
I0403 16:49:40.493185 21484 net.cpp:425] inception_4a/relu_5x5_reduce <- inception_4a/5x5_reduce
I0403 16:49:40.493201 21484 net.cpp:386] inception_4a/relu_5x5_reduce -> inception_4a/5x5_reduce (in-place)
I0403 16:49:40.493378 21484 net.cpp:141] Setting up inception_4a/relu_5x5_reduce
I0403 16:49:40.493403 21484 net.cpp:148] Top shape: 24 16 14 14 (75264)
I0403 16:49:40.493417 21484 net.cpp:156] Memory required for data: 873665568
I0403 16:49:40.493432 21484 layer_factory.hpp:77] Creating layer inception_4a/5x5
I0403 16:49:40.493453 21484 net.cpp:91] Creating Layer inception_4a/5x5
I0403 16:49:40.493470 21484 net.cpp:425] inception_4a/5x5 <- inception_4a/5x5_reduce
I0403 16:49:40.493490 21484 net.cpp:399] inception_4a/5x5 -> inception_4a/5x5
I0403 16:49:40.494603 21484 net.cpp:141] Setting up inception_4a/5x5
I0403 16:49:40.494634 21484 net.cpp:148] Top shape: 24 48 14 14 (225792)
I0403 16:49:40.494650 21484 net.cpp:156] Memory required for data: 874568736
I0403 16:49:40.494668 21484 layer_factory.hpp:77] Creating layer inception_4a/relu_5x5
I0403 16:49:40.494686 21484 net.cpp:91] Creating Layer inception_4a/relu_5x5
I0403 16:49:40.494702 21484 net.cpp:425] inception_4a/relu_5x5 <- inception_4a/5x5
I0403 16:49:40.494724 21484 net.cpp:386] inception_4a/relu_5x5 -> inception_4a/5x5 (in-place)
I0403 16:49:40.494906 21484 net.cpp:141] Setting up inception_4a/relu_5x5
I0403 16:49:40.494931 21484 net.cpp:148] Top shape: 24 48 14 14 (225792)
I0403 16:49:40.494946 21484 net.cpp:156] Memory required for data: 875471904
I0403 16:49:40.494961 21484 layer_factory.hpp:77] Creating layer inception_4a/pool
I0403 16:49:40.494981 21484 net.cpp:91] Creating Layer inception_4a/pool
I0403 16:49:40.495003 21484 net.cpp:425] inception_4a/pool <- pool3/3x3_s2_pool3/3x3_s2_0_split_3
I0403 16:49:40.495023 21484 net.cpp:399] inception_4a/pool -> inception_4a/pool
I0403 16:49:40.495085 21484 net.cpp:141] Setting up inception_4a/pool
I0403 16:49:40.495108 21484 net.cpp:148] Top shape: 24 480 14 14 (2257920)
I0403 16:49:40.495122 21484 net.cpp:156] Memory required for data: 884503584
I0403 16:49:40.495137 21484 layer_factory.hpp:77] Creating layer inception_4a/pool_proj
I0403 16:49:40.495159 21484 net.cpp:91] Creating Layer inception_4a/pool_proj
I0403 16:49:40.495177 21484 net.cpp:425] inception_4a/pool_proj <- inception_4a/pool
I0403 16:49:40.495196 21484 net.cpp:399] inception_4a/pool_proj -> inception_4a/pool_proj
I0403 16:49:40.496428 21484 net.cpp:141] Setting up inception_4a/pool_proj
I0403 16:49:40.496457 21484 net.cpp:148] Top shape: 24 64 14 14 (301056)
I0403 16:49:40.496487 21484 net.cpp:156] Memory required for data: 885707808
I0403 16:49:40.496507 21484 layer_factory.hpp:77] Creating layer inception_4a/relu_pool_proj
I0403 16:49:40.496528 21484 net.cpp:91] Creating Layer inception_4a/relu_pool_proj
I0403 16:49:40.496544 21484 net.cpp:425] inception_4a/relu_pool_proj <- inception_4a/pool_proj
I0403 16:49:40.496561 21484 net.cpp:386] inception_4a/relu_pool_proj -> inception_4a/pool_proj (in-place)
I0403 16:49:40.496906 21484 net.cpp:141] Setting up inception_4a/relu_pool_proj
I0403 16:49:40.496933 21484 net.cpp:148] Top shape: 24 64 14 14 (301056)
I0403 16:49:40.496949 21484 net.cpp:156] Memory required for data: 886912032
I0403 16:49:40.496965 21484 layer_factory.hpp:77] Creating layer inception_4a/output
I0403 16:49:40.496983 21484 net.cpp:91] Creating Layer inception_4a/output
I0403 16:49:40.497005 21484 net.cpp:425] inception_4a/output <- inception_4a/1x1
I0403 16:49:40.497035 21484 net.cpp:425] inception_4a/output <- inception_4a/3x3
I0403 16:49:40.497052 21484 net.cpp:425] inception_4a/output <- inception_4a/5x5
I0403 16:49:40.497068 21484 net.cpp:425] inception_4a/output <- inception_4a/pool_proj
I0403 16:49:40.497087 21484 net.cpp:399] inception_4a/output -> inception_4a/output
I0403 16:49:40.497133 21484 net.cpp:141] Setting up inception_4a/output
I0403 16:49:40.497159 21484 net.cpp:148] Top shape: 24 512 14 14 (2408448)
I0403 16:49:40.497174 21484 net.cpp:156] Memory required for data: 896545824
I0403 16:49:40.497189 21484 layer_factory.hpp:77] Creating layer inception_4a/output_inception_4a/output_0_split
I0403 16:49:40.497205 21484 net.cpp:91] Creating Layer inception_4a/output_inception_4a/output_0_split
I0403 16:49:40.497221 21484 net.cpp:425] inception_4a/output_inception_4a/output_0_split <- inception_4a/output
I0403 16:49:40.497241 21484 net.cpp:399] inception_4a/output_inception_4a/output_0_split -> inception_4a/output_inception_4a/output_0_split_0
I0403 16:49:40.497262 21484 net.cpp:399] inception_4a/output_inception_4a/output_0_split -> inception_4a/output_inception_4a/output_0_split_1
I0403 16:49:40.497282 21484 net.cpp:399] inception_4a/output_inception_4a/output_0_split -> inception_4a/output_inception_4a/output_0_split_2
I0403 16:49:40.497303 21484 net.cpp:399] inception_4a/output_inception_4a/output_0_split -> inception_4a/output_inception_4a/output_0_split_3
I0403 16:49:40.497321 21484 net.cpp:399] inception_4a/output_inception_4a/output_0_split -> inception_4a/output_inception_4a/output_0_split_4
I0403 16:49:40.497414 21484 net.cpp:141] Setting up inception_4a/output_inception_4a/output_0_split
I0403 16:49:40.497438 21484 net.cpp:148] Top shape: 24 512 14 14 (2408448)
I0403 16:49:40.497454 21484 net.cpp:148] Top shape: 24 512 14 14 (2408448)
I0403 16:49:40.497470 21484 net.cpp:148] Top shape: 24 512 14 14 (2408448)
I0403 16:49:40.497486 21484 net.cpp:148] Top shape: 24 512 14 14 (2408448)
I0403 16:49:40.497503 21484 net.cpp:148] Top shape: 24 512 14 14 (2408448)
I0403 16:49:40.497515 21484 net.cpp:156] Memory required for data: 944714784
I0403 16:49:40.497530 21484 layer_factory.hpp:77] Creating layer loss1/ave_pool
I0403 16:49:40.497550 21484 net.cpp:91] Creating Layer loss1/ave_pool
I0403 16:49:40.497566 21484 net.cpp:425] loss1/ave_pool <- inception_4a/output_inception_4a/output_0_split_0
I0403 16:49:40.497587 21484 net.cpp:399] loss1/ave_pool -> loss1/ave_pool
I0403 16:49:40.497797 21484 net.cpp:141] Setting up loss1/ave_pool
I0403 16:49:40.497824 21484 net.cpp:148] Top shape: 24 512 4 4 (196608)
I0403 16:49:40.497839 21484 net.cpp:156] Memory required for data: 945501216
I0403 16:49:40.497854 21484 layer_factory.hpp:77] Creating layer loss1/conv
I0403 16:49:40.497879 21484 net.cpp:91] Creating Layer loss1/conv
I0403 16:49:40.497896 21484 net.cpp:425] loss1/conv <- loss1/ave_pool
I0403 16:49:40.497916 21484 net.cpp:399] loss1/conv -> loss1/conv
I0403 16:49:40.499382 21484 net.cpp:141] Setting up loss1/conv
I0403 16:49:40.499409 21484 net.cpp:148] Top shape: 24 128 4 4 (49152)
I0403 16:49:40.499425 21484 net.cpp:156] Memory required for data: 945697824
I0403 16:49:40.499459 21484 layer_factory.hpp:77] Creating layer loss1/relu_conv
I0403 16:49:40.499480 21484 net.cpp:91] Creating Layer loss1/relu_conv
I0403 16:49:40.499496 21484 net.cpp:425] loss1/relu_conv <- loss1/conv
I0403 16:49:40.499513 21484 net.cpp:386] loss1/relu_conv -> loss1/conv (in-place)
I0403 16:49:40.499800 21484 net.cpp:141] Setting up loss1/relu_conv
I0403 16:49:40.499827 21484 net.cpp:148] Top shape: 24 128 4 4 (49152)
I0403 16:49:40.499842 21484 net.cpp:156] Memory required for data: 945894432
I0403 16:49:40.499856 21484 layer_factory.hpp:77] Creating layer loss1/fc
I0403 16:49:40.499882 21484 net.cpp:91] Creating Layer loss1/fc
I0403 16:49:40.499900 21484 net.cpp:425] loss1/fc <- loss1/conv
I0403 16:49:40.499922 21484 net.cpp:399] loss1/fc -> loss1/fc
I0403 16:49:40.518080 21484 net.cpp:141] Setting up loss1/fc
I0403 16:49:40.518139 21484 net.cpp:148] Top shape: 24 1024 (24576)
I0403 16:49:40.518153 21484 net.cpp:156] Memory required for data: 945992736
I0403 16:49:40.518172 21484 layer_factory.hpp:77] Creating layer loss1/relu_fc
I0403 16:49:40.518193 21484 net.cpp:91] Creating Layer loss1/relu_fc
I0403 16:49:40.518209 21484 net.cpp:425] loss1/relu_fc <- loss1/fc
I0403 16:49:40.518229 21484 net.cpp:386] loss1/relu_fc -> loss1/fc (in-place)
I0403 16:49:40.518440 21484 net.cpp:141] Setting up loss1/relu_fc
I0403 16:49:40.518465 21484 net.cpp:148] Top shape: 24 1024 (24576)
I0403 16:49:40.518481 21484 net.cpp:156] Memory required for data: 946091040
I0403 16:49:40.518496 21484 layer_factory.hpp:77] Creating layer loss1/drop_fc
I0403 16:49:40.518523 21484 net.cpp:91] Creating Layer loss1/drop_fc
I0403 16:49:40.518540 21484 net.cpp:425] loss1/drop_fc <- loss1/fc
I0403 16:49:40.518558 21484 net.cpp:386] loss1/drop_fc -> loss1/fc (in-place)
I0403 16:49:40.518612 21484 net.cpp:141] Setting up loss1/drop_fc
I0403 16:49:40.518636 21484 net.cpp:148] Top shape: 24 1024 (24576)
I0403 16:49:40.518651 21484 net.cpp:156] Memory required for data: 946189344
I0403 16:49:40.518664 21484 layer_factory.hpp:77] Creating layer loss1/classifier_plantvillage
I0403 16:49:40.518682 21484 net.cpp:91] Creating Layer loss1/classifier_plantvillage
I0403 16:49:40.518698 21484 net.cpp:425] loss1/classifier_plantvillage <- loss1/fc
I0403 16:49:40.518719 21484 net.cpp:399] loss1/classifier_plantvillage -> loss1/classifier_plantvillage
I0403 16:49:40.519673 21484 net.cpp:141] Setting up loss1/classifier_plantvillage
I0403 16:49:40.519716 21484 net.cpp:148] Top shape: 24 38 (912)
I0403 16:49:40.519732 21484 net.cpp:156] Memory required for data: 946192992
I0403 16:49:40.519750 21484 layer_factory.hpp:77] Creating layer loss1/classifier_plantvillage_loss1/classifier_plantvillage_0_split
I0403 16:49:40.519773 21484 net.cpp:91] Creating Layer loss1/classifier_plantvillage_loss1/classifier_plantvillage_0_split
I0403 16:49:40.519790 21484 net.cpp:425] loss1/classifier_plantvillage_loss1/classifier_plantvillage_0_split <- loss1/classifier_plantvillage
I0403 16:49:40.519807 21484 net.cpp:399] loss1/classifier_plantvillage_loss1/classifier_plantvillage_0_split -> loss1/classifier_plantvillage_loss1/classifier_plantvillage_0_split_0
I0403 16:49:40.519827 21484 net.cpp:399] loss1/classifier_plantvillage_loss1/classifier_plantvillage_0_split -> loss1/classifier_plantvillage_loss1/classifier_plantvillage_0_split_1
I0403 16:49:40.519847 21484 net.cpp:399] loss1/classifier_plantvillage_loss1/classifier_plantvillage_0_split -> loss1/classifier_plantvillage_loss1/classifier_plantvillage_0_split_2
I0403 16:49:40.519915 21484 net.cpp:141] Setting up loss1/classifier_plantvillage_loss1/classifier_plantvillage_0_split
I0403 16:49:40.519939 21484 net.cpp:148] Top shape: 24 38 (912)
I0403 16:49:40.519955 21484 net.cpp:148] Top shape: 24 38 (912)
I0403 16:49:40.519970 21484 net.cpp:148] Top shape: 24 38 (912)
I0403 16:49:40.519984 21484 net.cpp:156] Memory required for data: 946203936
I0403 16:49:40.520016 21484 layer_factory.hpp:77] Creating layer inception_4b/1x1
I0403 16:49:40.520041 21484 net.cpp:91] Creating Layer inception_4b/1x1
I0403 16:49:40.520081 21484 net.cpp:425] inception_4b/1x1 <- inception_4a/output_inception_4a/output_0_split_1
I0403 16:49:40.520100 21484 net.cpp:399] inception_4b/1x1 -> inception_4b/1x1
I0403 16:49:40.521772 21484 net.cpp:141] Setting up inception_4b/1x1
I0403 16:49:40.521800 21484 net.cpp:148] Top shape: 24 160 14 14 (752640)
I0403 16:49:40.521816 21484 net.cpp:156] Memory required for data: 949214496
I0403 16:49:40.521833 21484 layer_factory.hpp:77] Creating layer inception_4b/relu_1x1
I0403 16:49:40.521852 21484 net.cpp:91] Creating Layer inception_4b/relu_1x1
I0403 16:49:40.521880 21484 net.cpp:425] inception_4b/relu_1x1 <- inception_4b/1x1
I0403 16:49:40.521898 21484 net.cpp:386] inception_4b/relu_1x1 -> inception_4b/1x1 (in-place)
I0403 16:49:40.522074 21484 net.cpp:141] Setting up inception_4b/relu_1x1
I0403 16:49:40.522099 21484 net.cpp:148] Top shape: 24 160 14 14 (752640)
I0403 16:49:40.522112 21484 net.cpp:156] Memory required for data: 952225056
I0403 16:49:40.522126 21484 layer_factory.hpp:77] Creating layer inception_4b/3x3_reduce
I0403 16:49:40.522150 21484 net.cpp:91] Creating Layer inception_4b/3x3_reduce
I0403 16:49:40.522166 21484 net.cpp:425] inception_4b/3x3_reduce <- inception_4a/output_inception_4a/output_0_split_2
I0403 16:49:40.522186 21484 net.cpp:399] inception_4b/3x3_reduce -> inception_4b/3x3_reduce
I0403 16:49:40.523501 21484 net.cpp:141] Setting up inception_4b/3x3_reduce
I0403 16:49:40.523530 21484 net.cpp:148] Top shape: 24 112 14 14 (526848)
I0403 16:49:40.523545 21484 net.cpp:156] Memory required for data: 954332448
I0403 16:49:40.523561 21484 layer_factory.hpp:77] Creating layer inception_4b/relu_3x3_reduce
I0403 16:49:40.523578 21484 net.cpp:91] Creating Layer inception_4b/relu_3x3_reduce
I0403 16:49:40.523593 21484 net.cpp:425] inception_4b/relu_3x3_reduce <- inception_4b/3x3_reduce
I0403 16:49:40.523612 21484 net.cpp:386] inception_4b/relu_3x3_reduce -> inception_4b/3x3_reduce (in-place)
I0403 16:49:40.523887 21484 net.cpp:141] Setting up inception_4b/relu_3x3_reduce
I0403 16:49:40.523915 21484 net.cpp:148] Top shape: 24 112 14 14 (526848)
I0403 16:49:40.523928 21484 net.cpp:156] Memory required for data: 956439840
I0403 16:49:40.523941 21484 layer_factory.hpp:77] Creating layer inception_4b/3x3
I0403 16:49:40.523962 21484 net.cpp:91] Creating Layer inception_4b/3x3
I0403 16:49:40.523979 21484 net.cpp:425] inception_4b/3x3 <- inception_4b/3x3_reduce
I0403 16:49:40.524005 21484 net.cpp:399] inception_4b/3x3 -> inception_4b/3x3
I0403 16:49:40.526898 21484 net.cpp:141] Setting up inception_4b/3x3
I0403 16:49:40.526926 21484 net.cpp:148] Top shape: 24 224 14 14 (1053696)
I0403 16:49:40.526940 21484 net.cpp:156] Memory required for data: 960654624
I0403 16:49:40.526957 21484 layer_factory.hpp:77] Creating layer inception_4b/relu_3x3
I0403 16:49:40.526976 21484 net.cpp:91] Creating Layer inception_4b/relu_3x3
I0403 16:49:40.526999 21484 net.cpp:425] inception_4b/relu_3x3 <- inception_4b/3x3
I0403 16:49:40.527017 21484 net.cpp:386] inception_4b/relu_3x3 -> inception_4b/3x3 (in-place)
I0403 16:49:40.527192 21484 net.cpp:141] Setting up inception_4b/relu_3x3
I0403 16:49:40.527218 21484 net.cpp:148] Top shape: 24 224 14 14 (1053696)
I0403 16:49:40.527232 21484 net.cpp:156] Memory required for data: 964869408
I0403 16:49:40.527246 21484 layer_factory.hpp:77] Creating layer inception_4b/5x5_reduce
I0403 16:49:40.527266 21484 net.cpp:91] Creating Layer inception_4b/5x5_reduce
I0403 16:49:40.527281 21484 net.cpp:425] inception_4b/5x5_reduce <- inception_4a/output_inception_4a/output_0_split_3
I0403 16:49:40.527302 21484 net.cpp:399] inception_4b/5x5_reduce -> inception_4b/5x5_reduce
I0403 16:49:40.528362 21484 net.cpp:141] Setting up inception_4b/5x5_reduce
I0403 16:49:40.528390 21484 net.cpp:148] Top shape: 24 24 14 14 (112896)
I0403 16:49:40.528406 21484 net.cpp:156] Memory required for data: 965320992
I0403 16:49:40.528424 21484 layer_factory.hpp:77] Creating layer inception_4b/relu_5x5_reduce
I0403 16:49:40.528440 21484 net.cpp:91] Creating Layer inception_4b/relu_5x5_reduce
I0403 16:49:40.528470 21484 net.cpp:425] inception_4b/relu_5x5_reduce <- inception_4b/5x5_reduce
I0403 16:49:40.528487 21484 net.cpp:386] inception_4b/relu_5x5_reduce -> inception_4b/5x5_reduce (in-place)
I0403 16:49:40.528679 21484 net.cpp:141] Setting up inception_4b/relu_5x5_reduce
I0403 16:49:40.528703 21484 net.cpp:148] Top shape: 24 24 14 14 (112896)
I0403 16:49:40.528717 21484 net.cpp:156] Memory required for data: 965772576
I0403 16:49:40.528733 21484 layer_factory.hpp:77] Creating layer inception_4b/5x5
I0403 16:49:40.528754 21484 net.cpp:91] Creating Layer inception_4b/5x5
I0403 16:49:40.528770 21484 net.cpp:425] inception_4b/5x5 <- inception_4b/5x5_reduce
I0403 16:49:40.528791 21484 net.cpp:399] inception_4b/5x5 -> inception_4b/5x5
I0403 16:49:40.530012 21484 net.cpp:141] Setting up inception_4b/5x5
I0403 16:49:40.530040 21484 net.cpp:148] Top shape: 24 64 14 14 (301056)
I0403 16:49:40.530055 21484 net.cpp:156] Memory required for data: 966976800
I0403 16:49:40.530071 21484 layer_factory.hpp:77] Creating layer inception_4b/relu_5x5
I0403 16:49:40.530092 21484 net.cpp:91] Creating Layer inception_4b/relu_5x5
I0403 16:49:40.530107 21484 net.cpp:425] inception_4b/relu_5x5 <- inception_4b/5x5
I0403 16:49:40.530123 21484 net.cpp:386] inception_4b/relu_5x5 -> inception_4b/5x5 (in-place)
I0403 16:49:40.530414 21484 net.cpp:141] Setting up inception_4b/relu_5x5
I0403 16:49:40.530438 21484 net.cpp:148] Top shape: 24 64 14 14 (301056)
I0403 16:49:40.530453 21484 net.cpp:156] Memory required for data: 968181024
I0403 16:49:40.530467 21484 layer_factory.hpp:77] Creating layer inception_4b/pool
I0403 16:49:40.530488 21484 net.cpp:91] Creating Layer inception_4b/pool
I0403 16:49:40.530503 21484 net.cpp:425] inception_4b/pool <- inception_4a/output_inception_4a/output_0_split_4
I0403 16:49:40.530519 21484 net.cpp:399] inception_4b/pool -> inception_4b/pool
I0403 16:49:40.530581 21484 net.cpp:141] Setting up inception_4b/pool
I0403 16:49:40.530603 21484 net.cpp:148] Top shape: 24 512 14 14 (2408448)
I0403 16:49:40.530617 21484 net.cpp:156] Memory required for data: 977814816
I0403 16:49:40.530632 21484 layer_factory.hpp:77] Creating layer inception_4b/pool_proj
I0403 16:49:40.530652 21484 net.cpp:91] Creating Layer inception_4b/pool_proj
I0403 16:49:40.530668 21484 net.cpp:425] inception_4b/pool_proj <- inception_4b/pool
I0403 16:49:40.530688 21484 net.cpp:399] inception_4b/pool_proj -> inception_4b/pool_proj
I0403 16:49:40.531842 21484 net.cpp:141] Setting up inception_4b/pool_proj
I0403 16:49:40.531872 21484 net.cpp:148] Top shape: 24 64 14 14 (301056)
I0403 16:49:40.531886 21484 net.cpp:156] Memory required for data: 979019040
I0403 16:49:40.531904 21484 layer_factory.hpp:77] Creating layer inception_4b/relu_pool_proj
I0403 16:49:40.531922 21484 net.cpp:91] Creating Layer inception_4b/relu_pool_proj
I0403 16:49:40.531937 21484 net.cpp:425] inception_4b/relu_pool_proj <- inception_4b/pool_proj
I0403 16:49:40.531955 21484 net.cpp:386] inception_4b/relu_pool_proj -> inception_4b/pool_proj (in-place)
I0403 16:49:40.532147 21484 net.cpp:141] Setting up inception_4b/relu_pool_proj
I0403 16:49:40.532172 21484 net.cpp:148] Top shape: 24 64 14 14 (301056)
I0403 16:49:40.532187 21484 net.cpp:156] Memory required for data: 980223264
I0403 16:49:40.532201 21484 layer_factory.hpp:77] Creating layer inception_4b/output
I0403 16:49:40.532217 21484 net.cpp:91] Creating Layer inception_4b/output
I0403 16:49:40.532232 21484 net.cpp:425] inception_4b/output <- inception_4b/1x1
I0403 16:49:40.532248 21484 net.cpp:425] inception_4b/output <- inception_4b/3x3
I0403 16:49:40.532264 21484 net.cpp:425] inception_4b/output <- inception_4b/5x5
I0403 16:49:40.532279 21484 net.cpp:425] inception_4b/output <- inception_4b/pool_proj
I0403 16:49:40.532310 21484 net.cpp:399] inception_4b/output -> inception_4b/output
I0403 16:49:40.532352 21484 net.cpp:141] Setting up inception_4b/output
I0403 16:49:40.532377 21484 net.cpp:148] Top shape: 24 512 14 14 (2408448)
I0403 16:49:40.532390 21484 net.cpp:156] Memory required for data: 989857056
I0403 16:49:40.532418 21484 layer_factory.hpp:77] Creating layer inception_4b/output_inception_4b/output_0_split
I0403 16:49:40.532434 21484 net.cpp:91] Creating Layer inception_4b/output_inception_4b/output_0_split
I0403 16:49:40.532449 21484 net.cpp:425] inception_4b/output_inception_4b/output_0_split <- inception_4b/output
I0403 16:49:40.532464 21484 net.cpp:399] inception_4b/output_inception_4b/output_0_split -> inception_4b/output_inception_4b/output_0_split_0
I0403 16:49:40.532483 21484 net.cpp:399] inception_4b/output_inception_4b/output_0_split -> inception_4b/output_inception_4b/output_0_split_1
I0403 16:49:40.532505 21484 net.cpp:399] inception_4b/output_inception_4b/output_0_split -> inception_4b/output_inception_4b/output_0_split_2
I0403 16:49:40.532524 21484 net.cpp:399] inception_4b/output_inception_4b/output_0_split -> inception_4b/output_inception_4b/output_0_split_3
I0403 16:49:40.532605 21484 net.cpp:141] Setting up inception_4b/output_inception_4b/output_0_split
I0403 16:49:40.532629 21484 net.cpp:148] Top shape: 24 512 14 14 (2408448)
I0403 16:49:40.532642 21484 net.cpp:148] Top shape: 24 512 14 14 (2408448)
I0403 16:49:40.532657 21484 net.cpp:148] Top shape: 24 512 14 14 (2408448)
I0403 16:49:40.532671 21484 net.cpp:148] Top shape: 24 512 14 14 (2408448)
I0403 16:49:40.532685 21484 net.cpp:156] Memory required for data: 1028392224
I0403 16:49:40.532697 21484 layer_factory.hpp:77] Creating layer inception_4c/1x1
I0403 16:49:40.532718 21484 net.cpp:91] Creating Layer inception_4c/1x1
I0403 16:49:40.532734 21484 net.cpp:425] inception_4c/1x1 <- inception_4b/output_inception_4b/output_0_split_0
I0403 16:49:40.532754 21484 net.cpp:399] inception_4c/1x1 -> inception_4c/1x1
I0403 16:49:40.534143 21484 net.cpp:141] Setting up inception_4c/1x1
I0403 16:49:40.534169 21484 net.cpp:148] Top shape: 24 128 14 14 (602112)
I0403 16:49:40.534184 21484 net.cpp:156] Memory required for data: 1030800672
I0403 16:49:40.534201 21484 layer_factory.hpp:77] Creating layer inception_4c/relu_1x1
I0403 16:49:40.534219 21484 net.cpp:91] Creating Layer inception_4c/relu_1x1
I0403 16:49:40.534232 21484 net.cpp:425] inception_4c/relu_1x1 <- inception_4c/1x1
I0403 16:49:40.534250 21484 net.cpp:386] inception_4c/relu_1x1 -> inception_4c/1x1 (in-place)
I0403 16:49:40.534425 21484 net.cpp:141] Setting up inception_4c/relu_1x1
I0403 16:49:40.534448 21484 net.cpp:148] Top shape: 24 128 14 14 (602112)
I0403 16:49:40.534462 21484 net.cpp:156] Memory required for data: 1033209120
I0403 16:49:40.534476 21484 layer_factory.hpp:77] Creating layer inception_4c/3x3_reduce
I0403 16:49:40.534497 21484 net.cpp:91] Creating Layer inception_4c/3x3_reduce
I0403 16:49:40.534514 21484 net.cpp:425] inception_4c/3x3_reduce <- inception_4b/output_inception_4b/output_0_split_1
I0403 16:49:40.534534 21484 net.cpp:399] inception_4c/3x3_reduce -> inception_4c/3x3_reduce
I0403 16:49:40.536448 21484 net.cpp:141] Setting up inception_4c/3x3_reduce
I0403 16:49:40.536475 21484 net.cpp:148] Top shape: 24 128 14 14 (602112)
I0403 16:49:40.536490 21484 net.cpp:156] Memory required for data: 1035617568
I0403 16:49:40.536506 21484 layer_factory.hpp:77] Creating layer inception_4c/relu_3x3_reduce
I0403 16:49:40.536526 21484 net.cpp:91] Creating Layer inception_4c/relu_3x3_reduce
I0403 16:49:40.536541 21484 net.cpp:425] inception_4c/relu_3x3_reduce <- inception_4c/3x3_reduce
I0403 16:49:40.536558 21484 net.cpp:386] inception_4c/relu_3x3_reduce -> inception_4c/3x3_reduce (in-place)
I0403 16:49:40.536834 21484 net.cpp:141] Setting up inception_4c/relu_3x3_reduce
I0403 16:49:40.536859 21484 net.cpp:148] Top shape: 24 128 14 14 (602112)
I0403 16:49:40.536872 21484 net.cpp:156] Memory required for data: 1038026016
I0403 16:49:40.536886 21484 layer_factory.hpp:77] Creating layer inception_4c/3x3
I0403 16:49:40.536907 21484 net.cpp:91] Creating Layer inception_4c/3x3
I0403 16:49:40.536926 21484 net.cpp:425] inception_4c/3x3 <- inception_4c/3x3_reduce
I0403 16:49:40.536947 21484 net.cpp:399] inception_4c/3x3 -> inception_4c/3x3
I0403 16:49:40.540540 21484 net.cpp:141] Setting up inception_4c/3x3
I0403 16:49:40.540580 21484 net.cpp:148] Top shape: 24 256 14 14 (1204224)
I0403 16:49:40.540596 21484 net.cpp:156] Memory required for data: 1042842912
I0403 16:49:40.540627 21484 layer_factory.hpp:77] Creating layer inception_4c/relu_3x3
I0403 16:49:40.540647 21484 net.cpp:91] Creating Layer inception_4c/relu_3x3
I0403 16:49:40.540663 21484 net.cpp:425] inception_4c/relu_3x3 <- inception_4c/3x3
I0403 16:49:40.540679 21484 net.cpp:386] inception_4c/relu_3x3 -> inception_4c/3x3 (in-place)
I0403 16:49:40.540856 21484 net.cpp:141] Setting up inception_4c/relu_3x3
I0403 16:49:40.540882 21484 net.cpp:148] Top shape: 24 256 14 14 (1204224)
I0403 16:49:40.540897 21484 net.cpp:156] Memory required for data: 1047659808
I0403 16:49:40.540911 21484 layer_factory.hpp:77] Creating layer inception_4c/5x5_reduce
I0403 16:49:40.540933 21484 net.cpp:91] Creating Layer inception_4c/5x5_reduce
I0403 16:49:40.540951 21484 net.cpp:425] inception_4c/5x5_reduce <- inception_4b/output_inception_4b/output_0_split_2
I0403 16:49:40.540968 21484 net.cpp:399] inception_4c/5x5_reduce -> inception_4c/5x5_reduce
I0403 16:49:40.542037 21484 net.cpp:141] Setting up inception_4c/5x5_reduce
I0403 16:49:40.542065 21484 net.cpp:148] Top shape: 24 24 14 14 (112896)
I0403 16:49:40.542080 21484 net.cpp:156] Memory required for data: 1048111392
I0403 16:49:40.542098 21484 layer_factory.hpp:77] Creating layer inception_4c/relu_5x5_reduce
I0403 16:49:40.542115 21484 net.cpp:91] Creating Layer inception_4c/relu_5x5_reduce
I0403 16:49:40.542130 21484 net.cpp:425] inception_4c/relu_5x5_reduce <- inception_4c/5x5_reduce
I0403 16:49:40.542146 21484 net.cpp:386] inception_4c/relu_5x5_reduce -> inception_4c/5x5_reduce (in-place)
I0403 16:49:40.542340 21484 net.cpp:141] Setting up inception_4c/relu_5x5_reduce
I0403 16:49:40.542364 21484 net.cpp:148] Top shape: 24 24 14 14 (112896)
I0403 16:49:40.542378 21484 net.cpp:156] Memory required for data: 1048562976
I0403 16:49:40.542392 21484 layer_factory.hpp:77] Creating layer inception_4c/5x5
I0403 16:49:40.542415 21484 net.cpp:91] Creating Layer inception_4c/5x5
I0403 16:49:40.542433 21484 net.cpp:425] inception_4c/5x5 <- inception_4c/5x5_reduce
I0403 16:49:40.542454 21484 net.cpp:399] inception_4c/5x5 -> inception_4c/5x5
I0403 16:49:40.543668 21484 net.cpp:141] Setting up inception_4c/5x5
I0403 16:49:40.543694 21484 net.cpp:148] Top shape: 24 64 14 14 (301056)
I0403 16:49:40.543710 21484 net.cpp:156] Memory required for data: 1049767200
I0403 16:49:40.543728 21484 layer_factory.hpp:77] Creating layer inception_4c/relu_5x5
I0403 16:49:40.543745 21484 net.cpp:91] Creating Layer inception_4c/relu_5x5
I0403 16:49:40.543761 21484 net.cpp:425] inception_4c/relu_5x5 <- inception_4c/5x5
I0403 16:49:40.543778 21484 net.cpp:386] inception_4c/relu_5x5 -> inception_4c/5x5 (in-place)
I0403 16:49:40.544083 21484 net.cpp:141] Setting up inception_4c/relu_5x5
I0403 16:49:40.544109 21484 net.cpp:148] Top shape: 24 64 14 14 (301056)
I0403 16:49:40.544126 21484 net.cpp:156] Memory required for data: 1050971424
I0403 16:49:40.544139 21484 layer_factory.hpp:77] Creating layer inception_4c/pool
I0403 16:49:40.544157 21484 net.cpp:91] Creating Layer inception_4c/pool
I0403 16:49:40.544173 21484 net.cpp:425] inception_4c/pool <- inception_4b/output_inception_4b/output_0_split_3
I0403 16:49:40.544193 21484 net.cpp:399] inception_4c/pool -> inception_4c/pool
I0403 16:49:40.544271 21484 net.cpp:141] Setting up inception_4c/pool
I0403 16:49:40.544296 21484 net.cpp:148] Top shape: 24 512 14 14 (2408448)
I0403 16:49:40.544309 21484 net.cpp:156] Memory required for data: 1060605216
I0403 16:49:40.544332 21484 layer_factory.hpp:77] Creating layer inception_4c/pool_proj
I0403 16:49:40.544356 21484 net.cpp:91] Creating Layer inception_4c/pool_proj
I0403 16:49:40.544373 21484 net.cpp:425] inception_4c/pool_proj <- inception_4c/pool
I0403 16:49:40.544392 21484 net.cpp:399] inception_4c/pool_proj -> inception_4c/pool_proj
I0403 16:49:40.545637 21484 net.cpp:141] Setting up inception_4c/pool_proj
I0403 16:49:40.545663 21484 net.cpp:148] Top shape: 24 64 14 14 (301056)
I0403 16:49:40.545693 21484 net.cpp:156] Memory required for data: 1061809440
I0403 16:49:40.545712 21484 layer_factory.hpp:77] Creating layer inception_4c/relu_pool_proj
I0403 16:49:40.545732 21484 net.cpp:91] Creating Layer inception_4c/relu_pool_proj
I0403 16:49:40.545748 21484 net.cpp:425] inception_4c/relu_pool_proj <- inception_4c/pool_proj
I0403 16:49:40.545764 21484 net.cpp:386] inception_4c/relu_pool_proj -> inception_4c/pool_proj (in-place)
I0403 16:49:40.545949 21484 net.cpp:141] Setting up inception_4c/relu_pool_proj
I0403 16:49:40.545974 21484 net.cpp:148] Top shape: 24 64 14 14 (301056)
I0403 16:49:40.545994 21484 net.cpp:156] Memory required for data: 1063013664
I0403 16:49:40.546010 21484 layer_factory.hpp:77] Creating layer inception_4c/output
I0403 16:49:40.546026 21484 net.cpp:91] Creating Layer inception_4c/output
I0403 16:49:40.546041 21484 net.cpp:425] inception_4c/output <- inception_4c/1x1
I0403 16:49:40.546057 21484 net.cpp:425] inception_4c/output <- inception_4c/3x3
I0403 16:49:40.546072 21484 net.cpp:425] inception_4c/output <- inception_4c/5x5
I0403 16:49:40.546087 21484 net.cpp:425] inception_4c/output <- inception_4c/pool_proj
I0403 16:49:40.546105 21484 net.cpp:399] inception_4c/output -> inception_4c/output
I0403 16:49:40.546151 21484 net.cpp:141] Setting up inception_4c/output
I0403 16:49:40.546176 21484 net.cpp:148] Top shape: 24 512 14 14 (2408448)
I0403 16:49:40.546191 21484 net.cpp:156] Memory required for data: 1072647456
I0403 16:49:40.546206 21484 layer_factory.hpp:77] Creating layer inception_4c/output_inception_4c/output_0_split
I0403 16:49:40.546233 21484 net.cpp:91] Creating Layer inception_4c/output_inception_4c/output_0_split
I0403 16:49:40.546249 21484 net.cpp:425] inception_4c/output_inception_4c/output_0_split <- inception_4c/output
I0403 16:49:40.546267 21484 net.cpp:399] inception_4c/output_inception_4c/output_0_split -> inception_4c/output_inception_4c/output_0_split_0
I0403 16:49:40.546286 21484 net.cpp:399] inception_4c/output_inception_4c/output_0_split -> inception_4c/output_inception_4c/output_0_split_1
I0403 16:49:40.546309 21484 net.cpp:399] inception_4c/output_inception_4c/output_0_split -> inception_4c/output_inception_4c/output_0_split_2
I0403 16:49:40.546329 21484 net.cpp:399] inception_4c/output_inception_4c/output_0_split -> inception_4c/output_inception_4c/output_0_split_3
I0403 16:49:40.546417 21484 net.cpp:141] Setting up inception_4c/output_inception_4c/output_0_split
I0403 16:49:40.546440 21484 net.cpp:148] Top shape: 24 512 14 14 (2408448)
I0403 16:49:40.546457 21484 net.cpp:148] Top shape: 24 512 14 14 (2408448)
I0403 16:49:40.546473 21484 net.cpp:148] Top shape: 24 512 14 14 (2408448)
I0403 16:49:40.546488 21484 net.cpp:148] Top shape: 24 512 14 14 (2408448)
I0403 16:49:40.546514 21484 net.cpp:156] Memory required for data: 1111182624
I0403 16:49:40.546526 21484 layer_factory.hpp:77] Creating layer inception_4d/1x1
I0403 16:49:40.546548 21484 net.cpp:91] Creating Layer inception_4d/1x1
I0403 16:49:40.546566 21484 net.cpp:425] inception_4d/1x1 <- inception_4c/output_inception_4c/output_0_split_0
I0403 16:49:40.546586 21484 net.cpp:399] inception_4d/1x1 -> inception_4d/1x1
I0403 16:49:40.547966 21484 net.cpp:141] Setting up inception_4d/1x1
I0403 16:49:40.548004 21484 net.cpp:148] Top shape: 24 112 14 14 (526848)
I0403 16:49:40.548022 21484 net.cpp:156] Memory required for data: 1113290016
I0403 16:49:40.548040 21484 layer_factory.hpp:77] Creating layer inception_4d/relu_1x1
I0403 16:49:40.548060 21484 net.cpp:91] Creating Layer inception_4d/relu_1x1
I0403 16:49:40.548076 21484 net.cpp:425] inception_4d/relu_1x1 <- inception_4d/1x1
I0403 16:49:40.548092 21484 net.cpp:386] inception_4d/relu_1x1 -> inception_4d/1x1 (in-place)
I0403 16:49:40.548276 21484 net.cpp:141] Setting up inception_4d/relu_1x1
I0403 16:49:40.548302 21484 net.cpp:148] Top shape: 24 112 14 14 (526848)
I0403 16:49:40.548317 21484 net.cpp:156] Memory required for data: 1115397408
I0403 16:49:40.548332 21484 layer_factory.hpp:77] Creating layer inception_4d/3x3_reduce
I0403 16:49:40.548368 21484 net.cpp:91] Creating Layer inception_4d/3x3_reduce
I0403 16:49:40.548387 21484 net.cpp:425] inception_4d/3x3_reduce <- inception_4c/output_inception_4c/output_0_split_1
I0403 16:49:40.548404 21484 net.cpp:399] inception_4d/3x3_reduce -> inception_4d/3x3_reduce
I0403 16:49:40.549921 21484 net.cpp:141] Setting up inception_4d/3x3_reduce
I0403 16:49:40.549947 21484 net.cpp:148] Top shape: 24 144 14 14 (677376)
I0403 16:49:40.549962 21484 net.cpp:156] Memory required for data: 1118106912
I0403 16:49:40.549980 21484 layer_factory.hpp:77] Creating layer inception_4d/relu_3x3_reduce
I0403 16:49:40.550006 21484 net.cpp:91] Creating Layer inception_4d/relu_3x3_reduce
I0403 16:49:40.550024 21484 net.cpp:425] inception_4d/relu_3x3_reduce <- inception_4d/3x3_reduce
I0403 16:49:40.550041 21484 net.cpp:386] inception_4d/relu_3x3_reduce -> inception_4d/3x3_reduce (in-place)
I0403 16:49:40.550343 21484 net.cpp:141] Setting up inception_4d/relu_3x3_reduce
I0403 16:49:40.550369 21484 net.cpp:148] Top shape: 24 144 14 14 (677376)
I0403 16:49:40.550384 21484 net.cpp:156] Memory required for data: 1120816416
I0403 16:49:40.550400 21484 layer_factory.hpp:77] Creating layer inception_4d/3x3
I0403 16:49:40.550422 21484 net.cpp:91] Creating Layer inception_4d/3x3
I0403 16:49:40.550439 21484 net.cpp:425] inception_4d/3x3 <- inception_4d/3x3_reduce
I0403 16:49:40.550462 21484 net.cpp:399] inception_4d/3x3 -> inception_4d/3x3
I0403 16:49:40.554791 21484 net.cpp:141] Setting up inception_4d/3x3
I0403 16:49:40.554821 21484 net.cpp:148] Top shape: 24 288 14 14 (1354752)
I0403 16:49:40.554834 21484 net.cpp:156] Memory required for data: 1126235424
I0403 16:49:40.554852 21484 layer_factory.hpp:77] Creating layer inception_4d/relu_3x3
I0403 16:49:40.554872 21484 net.cpp:91] Creating Layer inception_4d/relu_3x3
I0403 16:49:40.554888 21484 net.cpp:425] inception_4d/relu_3x3 <- inception_4d/3x3
I0403 16:49:40.554905 21484 net.cpp:386] inception_4d/relu_3x3 -> inception_4d/3x3 (in-place)
I0403 16:49:40.555095 21484 net.cpp:141] Setting up inception_4d/relu_3x3
I0403 16:49:40.555122 21484 net.cpp:148] Top shape: 24 288 14 14 (1354752)
I0403 16:49:40.555137 21484 net.cpp:156] Memory required for data: 1131654432
I0403 16:49:40.555151 21484 layer_factory.hpp:77] Creating layer inception_4d/5x5_reduce
I0403 16:49:40.555173 21484 net.cpp:91] Creating Layer inception_4d/5x5_reduce
I0403 16:49:40.555191 21484 net.cpp:425] inception_4d/5x5_reduce <- inception_4c/output_inception_4c/output_0_split_2
I0403 16:49:40.555209 21484 net.cpp:399] inception_4d/5x5_reduce -> inception_4d/5x5_reduce
I0403 16:49:40.556370 21484 net.cpp:141] Setting up inception_4d/5x5_reduce
I0403 16:49:40.556397 21484 net.cpp:148] Top shape: 24 32 14 14 (150528)
I0403 16:49:40.556412 21484 net.cpp:156] Memory required for data: 1132256544
I0403 16:49:40.556430 21484 layer_factory.hpp:77] Creating layer inception_4d/relu_5x5_reduce
I0403 16:49:40.556449 21484 net.cpp:91] Creating Layer inception_4d/relu_5x5_reduce
I0403 16:49:40.556465 21484 net.cpp:425] inception_4d/relu_5x5_reduce <- inception_4d/5x5_reduce
I0403 16:49:40.556483 21484 net.cpp:386] inception_4d/relu_5x5_reduce -> inception_4d/5x5_reduce (in-place)
I0403 16:49:40.556668 21484 net.cpp:141] Setting up inception_4d/relu_5x5_reduce
I0403 16:49:40.556694 21484 net.cpp:148] Top shape: 24 32 14 14 (150528)
I0403 16:49:40.556710 21484 net.cpp:156] Memory required for data: 1132858656
I0403 16:49:40.556725 21484 layer_factory.hpp:77] Creating layer inception_4d/5x5
I0403 16:49:40.556746 21484 net.cpp:91] Creating Layer inception_4d/5x5
I0403 16:49:40.556762 21484 net.cpp:425] inception_4d/5x5 <- inception_4d/5x5_reduce
I0403 16:49:40.556780 21484 net.cpp:399] inception_4d/5x5 -> inception_4d/5x5
I0403 16:49:40.558289 21484 net.cpp:141] Setting up inception_4d/5x5
I0403 16:49:40.558320 21484 net.cpp:148] Top shape: 24 64 14 14 (301056)
I0403 16:49:40.558336 21484 net.cpp:156] Memory required for data: 1134062880
I0403 16:49:40.558354 21484 layer_factory.hpp:77] Creating layer inception_4d/relu_5x5
I0403 16:49:40.558387 21484 net.cpp:91] Creating Layer inception_4d/relu_5x5
I0403 16:49:40.558404 21484 net.cpp:425] inception_4d/relu_5x5 <- inception_4d/5x5
I0403 16:49:40.558423 21484 net.cpp:386] inception_4d/relu_5x5 -> inception_4d/5x5 (in-place)
I0403 16:49:40.558737 21484 net.cpp:141] Setting up inception_4d/relu_5x5
I0403 16:49:40.558765 21484 net.cpp:148] Top shape: 24 64 14 14 (301056)
I0403 16:49:40.558781 21484 net.cpp:156] Memory required for data: 1135267104
I0403 16:49:40.558795 21484 layer_factory.hpp:77] Creating layer inception_4d/pool
I0403 16:49:40.558814 21484 net.cpp:91] Creating Layer inception_4d/pool
I0403 16:49:40.558828 21484 net.cpp:425] inception_4d/pool <- inception_4c/output_inception_4c/output_0_split_3
I0403 16:49:40.558848 21484 net.cpp:399] inception_4d/pool -> inception_4d/pool
I0403 16:49:40.558913 21484 net.cpp:141] Setting up inception_4d/pool
I0403 16:49:40.558938 21484 net.cpp:148] Top shape: 24 512 14 14 (2408448)
I0403 16:49:40.558951 21484 net.cpp:156] Memory required for data: 1144900896
I0403 16:49:40.558965 21484 layer_factory.hpp:77] Creating layer inception_4d/pool_proj
I0403 16:49:40.558993 21484 net.cpp:91] Creating Layer inception_4d/pool_proj
I0403 16:49:40.559012 21484 net.cpp:425] inception_4d/pool_proj <- inception_4d/pool
I0403 16:49:40.559031 21484 net.cpp:399] inception_4d/pool_proj -> inception_4d/pool_proj
I0403 16:49:40.560781 21484 net.cpp:141] Setting up inception_4d/pool_proj
I0403 16:49:40.560809 21484 net.cpp:148] Top shape: 24 64 14 14 (301056)
I0403 16:49:40.560824 21484 net.cpp:156] Memory required for data: 1146105120
I0403 16:49:40.560842 21484 layer_factory.hpp:77] Creating layer inception_4d/relu_pool_proj
I0403 16:49:40.560863 21484 net.cpp:91] Creating Layer inception_4d/relu_pool_proj
I0403 16:49:40.560879 21484 net.cpp:425] inception_4d/relu_pool_proj <- inception_4d/pool_proj
I0403 16:49:40.560896 21484 net.cpp:386] inception_4d/relu_pool_proj -> inception_4d/pool_proj (in-place)
I0403 16:49:40.561087 21484 net.cpp:141] Setting up inception_4d/relu_pool_proj
I0403 16:49:40.561115 21484 net.cpp:148] Top shape: 24 64 14 14 (301056)
I0403 16:49:40.561130 21484 net.cpp:156] Memory required for data: 1147309344
I0403 16:49:40.561144 21484 layer_factory.hpp:77] Creating layer inception_4d/output
I0403 16:49:40.561161 21484 net.cpp:91] Creating Layer inception_4d/output
I0403 16:49:40.561177 21484 net.cpp:425] inception_4d/output <- inception_4d/1x1
I0403 16:49:40.561192 21484 net.cpp:425] inception_4d/output <- inception_4d/3x3
I0403 16:49:40.561208 21484 net.cpp:425] inception_4d/output <- inception_4d/5x5
I0403 16:49:40.561223 21484 net.cpp:425] inception_4d/output <- inception_4d/pool_proj
I0403 16:49:40.561239 21484 net.cpp:399] inception_4d/output -> inception_4d/output
I0403 16:49:40.561288 21484 net.cpp:141] Setting up inception_4d/output
I0403 16:49:40.561311 21484 net.cpp:148] Top shape: 24 528 14 14 (2483712)
I0403 16:49:40.561326 21484 net.cpp:156] Memory required for data: 1157244192
I0403 16:49:40.561339 21484 layer_factory.hpp:77] Creating layer inception_4d/output_inception_4d/output_0_split
I0403 16:49:40.561359 21484 net.cpp:91] Creating Layer inception_4d/output_inception_4d/output_0_split
I0403 16:49:40.561375 21484 net.cpp:425] inception_4d/output_inception_4d/output_0_split <- inception_4d/output
I0403 16:49:40.561393 21484 net.cpp:399] inception_4d/output_inception_4d/output_0_split -> inception_4d/output_inception_4d/output_0_split_0
I0403 16:49:40.561414 21484 net.cpp:399] inception_4d/output_inception_4d/output_0_split -> inception_4d/output_inception_4d/output_0_split_1
I0403 16:49:40.561436 21484 net.cpp:399] inception_4d/output_inception_4d/output_0_split -> inception_4d/output_inception_4d/output_0_split_2
I0403 16:49:40.561457 21484 net.cpp:399] inception_4d/output_inception_4d/output_0_split -> inception_4d/output_inception_4d/output_0_split_3
I0403 16:49:40.561476 21484 net.cpp:399] inception_4d/output_inception_4d/output_0_split -> inception_4d/output_inception_4d/output_0_split_4
I0403 16:49:40.561578 21484 net.cpp:141] Setting up inception_4d/output_inception_4d/output_0_split
I0403 16:49:40.561614 21484 net.cpp:148] Top shape: 24 528 14 14 (2483712)
I0403 16:49:40.561631 21484 net.cpp:148] Top shape: 24 528 14 14 (2483712)
I0403 16:49:40.561646 21484 net.cpp:148] Top shape: 24 528 14 14 (2483712)
I0403 16:49:40.561661 21484 net.cpp:148] Top shape: 24 528 14 14 (2483712)
I0403 16:49:40.561676 21484 net.cpp:148] Top shape: 24 528 14 14 (2483712)
I0403 16:49:40.561689 21484 net.cpp:156] Memory required for data: 1206918432
I0403 16:49:40.561703 21484 layer_factory.hpp:77] Creating layer loss2/ave_pool
I0403 16:49:40.561720 21484 net.cpp:91] Creating Layer loss2/ave_pool
I0403 16:49:40.561735 21484 net.cpp:425] loss2/ave_pool <- inception_4d/output_inception_4d/output_0_split_0
I0403 16:49:40.561756 21484 net.cpp:399] loss2/ave_pool -> loss2/ave_pool
I0403 16:49:40.562074 21484 net.cpp:141] Setting up loss2/ave_pool
I0403 16:49:40.562100 21484 net.cpp:148] Top shape: 24 528 4 4 (202752)
I0403 16:49:40.562114 21484 net.cpp:156] Memory required for data: 1207729440
I0403 16:49:40.562141 21484 layer_factory.hpp:77] Creating layer loss2/conv
I0403 16:49:40.562162 21484 net.cpp:91] Creating Layer loss2/conv
I0403 16:49:40.562180 21484 net.cpp:425] loss2/conv <- loss2/ave_pool
I0403 16:49:40.562199 21484 net.cpp:399] loss2/conv -> loss2/conv
I0403 16:49:40.564093 21484 net.cpp:141] Setting up loss2/conv
I0403 16:49:40.564123 21484 net.cpp:148] Top shape: 24 128 4 4 (49152)
I0403 16:49:40.564139 21484 net.cpp:156] Memory required for data: 1207926048
I0403 16:49:40.564157 21484 layer_factory.hpp:77] Creating layer loss2/relu_conv
I0403 16:49:40.564174 21484 net.cpp:91] Creating Layer loss2/relu_conv
I0403 16:49:40.564190 21484 net.cpp:425] loss2/relu_conv <- loss2/conv
I0403 16:49:40.564209 21484 net.cpp:386] loss2/relu_conv -> loss2/conv (in-place)
I0403 16:49:40.564518 21484 net.cpp:141] Setting up loss2/relu_conv
I0403 16:49:40.564558 21484 net.cpp:148] Top shape: 24 128 4 4 (49152)
I0403 16:49:40.564573 21484 net.cpp:156] Memory required for data: 1208122656
I0403 16:49:40.564599 21484 layer_factory.hpp:77] Creating layer loss2/fc
I0403 16:49:40.564617 21484 net.cpp:91] Creating Layer loss2/fc
I0403 16:49:40.564633 21484 net.cpp:425] loss2/fc <- loss2/conv
I0403 16:49:40.564657 21484 net.cpp:399] loss2/fc -> loss2/fc
I0403 16:49:40.582563 21484 net.cpp:141] Setting up loss2/fc
I0403 16:49:40.582617 21484 net.cpp:148] Top shape: 24 1024 (24576)
I0403 16:49:40.582633 21484 net.cpp:156] Memory required for data: 1208220960
I0403 16:49:40.582650 21484 layer_factory.hpp:77] Creating layer loss2/relu_fc
I0403 16:49:40.582672 21484 net.cpp:91] Creating Layer loss2/relu_fc
I0403 16:49:40.582690 21484 net.cpp:425] loss2/relu_fc <- loss2/fc
I0403 16:49:40.582707 21484 net.cpp:386] loss2/relu_fc -> loss2/fc (in-place)
I0403 16:49:40.583048 21484 net.cpp:141] Setting up loss2/relu_fc
I0403 16:49:40.583075 21484 net.cpp:148] Top shape: 24 1024 (24576)
I0403 16:49:40.583088 21484 net.cpp:156] Memory required for data: 1208319264
I0403 16:49:40.583104 21484 layer_factory.hpp:77] Creating layer loss2/drop_fc
I0403 16:49:40.583127 21484 net.cpp:91] Creating Layer loss2/drop_fc
I0403 16:49:40.583142 21484 net.cpp:425] loss2/drop_fc <- loss2/fc
I0403 16:49:40.583159 21484 net.cpp:386] loss2/drop_fc -> loss2/fc (in-place)
I0403 16:49:40.583222 21484 net.cpp:141] Setting up loss2/drop_fc
I0403 16:49:40.583246 21484 net.cpp:148] Top shape: 24 1024 (24576)
I0403 16:49:40.583261 21484 net.cpp:156] Memory required for data: 1208417568
I0403 16:49:40.583276 21484 layer_factory.hpp:77] Creating layer loss2/classifier_plantvillage
I0403 16:49:40.583294 21484 net.cpp:91] Creating Layer loss2/classifier_plantvillage
I0403 16:49:40.583310 21484 net.cpp:425] loss2/classifier_plantvillage <- loss2/fc
I0403 16:49:40.583331 21484 net.cpp:399] loss2/classifier_plantvillage -> loss2/classifier_plantvillage
I0403 16:49:40.583760 21484 net.cpp:141] Setting up loss2/classifier_plantvillage
I0403 16:49:40.583786 21484 net.cpp:148] Top shape: 24 38 (912)
I0403 16:49:40.583799 21484 net.cpp:156] Memory required for data: 1208421216
I0403 16:49:40.583843 21484 layer_factory.hpp:77] Creating layer loss2/classifier_plantvillage_loss2/classifier_plantvillage_0_split
I0403 16:49:40.583863 21484 net.cpp:91] Creating Layer loss2/classifier_plantvillage_loss2/classifier_plantvillage_0_split
I0403 16:49:40.583878 21484 net.cpp:425] loss2/classifier_plantvillage_loss2/classifier_plantvillage_0_split <- loss2/classifier_plantvillage
I0403 16:49:40.583897 21484 net.cpp:399] loss2/classifier_plantvillage_loss2/classifier_plantvillage_0_split -> loss2/classifier_plantvillage_loss2/classifier_plantvillage_0_split_0
I0403 16:49:40.583919 21484 net.cpp:399] loss2/classifier_plantvillage_loss2/classifier_plantvillage_0_split -> loss2/classifier_plantvillage_loss2/classifier_plantvillage_0_split_1
I0403 16:49:40.583937 21484 net.cpp:399] loss2/classifier_plantvillage_loss2/classifier_plantvillage_0_split -> loss2/classifier_plantvillage_loss2/classifier_plantvillage_0_split_2
I0403 16:49:40.584020 21484 net.cpp:141] Setting up loss2/classifier_plantvillage_loss2/classifier_plantvillage_0_split
I0403 16:49:40.584046 21484 net.cpp:148] Top shape: 24 38 (912)
I0403 16:49:40.584063 21484 net.cpp:148] Top shape: 24 38 (912)
I0403 16:49:40.584077 21484 net.cpp:148] Top shape: 24 38 (912)
I0403 16:49:40.584090 21484 net.cpp:156] Memory required for data: 1208432160
I0403 16:49:40.584105 21484 layer_factory.hpp:77] Creating layer inception_4e/1x1
I0403 16:49:40.584125 21484 net.cpp:91] Creating Layer inception_4e/1x1
I0403 16:49:40.584141 21484 net.cpp:425] inception_4e/1x1 <- inception_4d/output_inception_4d/output_0_split_1
I0403 16:49:40.584159 21484 net.cpp:399] inception_4e/1x1 -> inception_4e/1x1
I0403 16:49:40.586027 21484 net.cpp:141] Setting up inception_4e/1x1
I0403 16:49:40.586055 21484 net.cpp:148] Top shape: 24 256 14 14 (1204224)
I0403 16:49:40.586071 21484 net.cpp:156] Memory required for data: 1213249056
I0403 16:49:40.586088 21484 layer_factory.hpp:77] Creating layer inception_4e/relu_1x1
I0403 16:49:40.586105 21484 net.cpp:91] Creating Layer inception_4e/relu_1x1
I0403 16:49:40.586120 21484 net.cpp:425] inception_4e/relu_1x1 <- inception_4e/1x1
I0403 16:49:40.586139 21484 net.cpp:386] inception_4e/relu_1x1 -> inception_4e/1x1 (in-place)
I0403 16:49:40.586459 21484 net.cpp:141] Setting up inception_4e/relu_1x1
I0403 16:49:40.586486 21484 net.cpp:148] Top shape: 24 256 14 14 (1204224)
I0403 16:49:40.586513 21484 net.cpp:156] Memory required for data: 1218065952
I0403 16:49:40.586527 21484 layer_factory.hpp:77] Creating layer inception_4e/3x3_reduce
I0403 16:49:40.586549 21484 net.cpp:91] Creating Layer inception_4e/3x3_reduce
I0403 16:49:40.586566 21484 net.cpp:425] inception_4e/3x3_reduce <- inception_4d/output_inception_4d/output_0_split_2
I0403 16:49:40.586587 21484 net.cpp:399] inception_4e/3x3_reduce -> inception_4e/3x3_reduce
I0403 16:49:40.588732 21484 net.cpp:141] Setting up inception_4e/3x3_reduce
I0403 16:49:40.588762 21484 net.cpp:148] Top shape: 24 160 14 14 (752640)
I0403 16:49:40.588778 21484 net.cpp:156] Memory required for data: 1221076512
I0403 16:49:40.588796 21484 layer_factory.hpp:77] Creating layer inception_4e/relu_3x3_reduce
I0403 16:49:40.588814 21484 net.cpp:91] Creating Layer inception_4e/relu_3x3_reduce
I0403 16:49:40.588829 21484 net.cpp:425] inception_4e/relu_3x3_reduce <- inception_4e/3x3_reduce
I0403 16:49:40.588850 21484 net.cpp:386] inception_4e/relu_3x3_reduce -> inception_4e/3x3_reduce (in-place)
I0403 16:49:40.589043 21484 net.cpp:141] Setting up inception_4e/relu_3x3_reduce
I0403 16:49:40.589068 21484 net.cpp:148] Top shape: 24 160 14 14 (752640)
I0403 16:49:40.589082 21484 net.cpp:156] Memory required for data: 1224087072
I0403 16:49:40.589097 21484 layer_factory.hpp:77] Creating layer inception_4e/3x3
I0403 16:49:40.589118 21484 net.cpp:91] Creating Layer inception_4e/3x3
I0403 16:49:40.589135 21484 net.cpp:425] inception_4e/3x3 <- inception_4e/3x3_reduce
I0403 16:49:40.589157 21484 net.cpp:399] inception_4e/3x3 -> inception_4e/3x3
I0403 16:49:40.594251 21484 net.cpp:141] Setting up inception_4e/3x3
I0403 16:49:40.594293 21484 net.cpp:148] Top shape: 24 320 14 14 (1505280)
I0403 16:49:40.594310 21484 net.cpp:156] Memory required for data: 1230108192
I0403 16:49:40.594327 21484 layer_factory.hpp:77] Creating layer inception_4e/relu_3x3
I0403 16:49:40.594346 21484 net.cpp:91] Creating Layer inception_4e/relu_3x3
I0403 16:49:40.594362 21484 net.cpp:425] inception_4e/relu_3x3 <- inception_4e/3x3
I0403 16:49:40.594382 21484 net.cpp:386] inception_4e/relu_3x3 -> inception_4e/3x3 (in-place)
I0403 16:49:40.594697 21484 net.cpp:141] Setting up inception_4e/relu_3x3
I0403 16:49:40.594723 21484 net.cpp:148] Top shape: 24 320 14 14 (1505280)
I0403 16:49:40.594738 21484 net.cpp:156] Memory required for data: 1236129312
I0403 16:49:40.594753 21484 layer_factory.hpp:77] Creating layer inception_4e/5x5_reduce
I0403 16:49:40.594776 21484 net.cpp:91] Creating Layer inception_4e/5x5_reduce
I0403 16:49:40.594794 21484 net.cpp:425] inception_4e/5x5_reduce <- inception_4d/output_inception_4d/output_0_split_3
I0403 16:49:40.594815 21484 net.cpp:399] inception_4e/5x5_reduce -> inception_4e/5x5_reduce
I0403 16:49:40.595893 21484 net.cpp:141] Setting up inception_4e/5x5_reduce
I0403 16:49:40.595922 21484 net.cpp:148] Top shape: 24 32 14 14 (150528)
I0403 16:49:40.595938 21484 net.cpp:156] Memory required for data: 1236731424
I0403 16:49:40.595957 21484 layer_factory.hpp:77] Creating layer inception_4e/relu_5x5_reduce
I0403 16:49:40.595973 21484 net.cpp:91] Creating Layer inception_4e/relu_5x5_reduce
I0403 16:49:40.595999 21484 net.cpp:425] inception_4e/relu_5x5_reduce <- inception_4e/5x5_reduce
I0403 16:49:40.596019 21484 net.cpp:386] inception_4e/relu_5x5_reduce -> inception_4e/5x5_reduce (in-place)
I0403 16:49:40.596314 21484 net.cpp:141] Setting up inception_4e/relu_5x5_reduce
I0403 16:49:40.596343 21484 net.cpp:148] Top shape: 24 32 14 14 (150528)
I0403 16:49:40.596359 21484 net.cpp:156] Memory required for data: 1237333536
I0403 16:49:40.596374 21484 layer_factory.hpp:77] Creating layer inception_4e/5x5
I0403 16:49:40.596411 21484 net.cpp:91] Creating Layer inception_4e/5x5
I0403 16:49:40.596431 21484 net.cpp:425] inception_4e/5x5 <- inception_4e/5x5_reduce
I0403 16:49:40.596451 21484 net.cpp:399] inception_4e/5x5 -> inception_4e/5x5
I0403 16:49:40.598424 21484 net.cpp:141] Setting up inception_4e/5x5
I0403 16:49:40.598453 21484 net.cpp:148] Top shape: 24 128 14 14 (602112)
I0403 16:49:40.598472 21484 net.cpp:156] Memory required for data: 1239741984
I0403 16:49:40.598492 21484 layer_factory.hpp:77] Creating layer inception_4e/relu_5x5
I0403 16:49:40.598523 21484 net.cpp:91] Creating Layer inception_4e/relu_5x5
I0403 16:49:40.598539 21484 net.cpp:425] inception_4e/relu_5x5 <- inception_4e/5x5
I0403 16:49:40.598556 21484 net.cpp:386] inception_4e/relu_5x5 -> inception_4e/5x5 (in-place)
I0403 16:49:40.598757 21484 net.cpp:141] Setting up inception_4e/relu_5x5
I0403 16:49:40.598785 21484 net.cpp:148] Top shape: 24 128 14 14 (602112)
I0403 16:49:40.598800 21484 net.cpp:156] Memory required for data: 1242150432
I0403 16:49:40.598815 21484 layer_factory.hpp:77] Creating layer inception_4e/pool
I0403 16:49:40.598834 21484 net.cpp:91] Creating Layer inception_4e/pool
I0403 16:49:40.598850 21484 net.cpp:425] inception_4e/pool <- inception_4d/output_inception_4d/output_0_split_4
I0403 16:49:40.598870 21484 net.cpp:399] inception_4e/pool -> inception_4e/pool
I0403 16:49:40.598942 21484 net.cpp:141] Setting up inception_4e/pool
I0403 16:49:40.598969 21484 net.cpp:148] Top shape: 24 528 14 14 (2483712)
I0403 16:49:40.598991 21484 net.cpp:156] Memory required for data: 1252085280
I0403 16:49:40.599009 21484 layer_factory.hpp:77] Creating layer inception_4e/pool_proj
I0403 16:49:40.599028 21484 net.cpp:91] Creating Layer inception_4e/pool_proj
I0403 16:49:40.599045 21484 net.cpp:425] inception_4e/pool_proj <- inception_4e/pool
I0403 16:49:40.599066 21484 net.cpp:399] inception_4e/pool_proj -> inception_4e/pool_proj
I0403 16:49:40.600657 21484 net.cpp:141] Setting up inception_4e/pool_proj
I0403 16:49:40.600685 21484 net.cpp:148] Top shape: 24 128 14 14 (602112)
I0403 16:49:40.600715 21484 net.cpp:156] Memory required for data: 1254493728
I0403 16:49:40.600735 21484 layer_factory.hpp:77] Creating layer inception_4e/relu_pool_proj
I0403 16:49:40.600755 21484 net.cpp:91] Creating Layer inception_4e/relu_pool_proj
I0403 16:49:40.600772 21484 net.cpp:425] inception_4e/relu_pool_proj <- inception_4e/pool_proj
I0403 16:49:40.600790 21484 net.cpp:386] inception_4e/relu_pool_proj -> inception_4e/pool_proj (in-place)
I0403 16:49:40.601104 21484 net.cpp:141] Setting up inception_4e/relu_pool_proj
I0403 16:49:40.601130 21484 net.cpp:148] Top shape: 24 128 14 14 (602112)
I0403 16:49:40.601145 21484 net.cpp:156] Memory required for data: 1256902176
I0403 16:49:40.601161 21484 layer_factory.hpp:77] Creating layer inception_4e/output
I0403 16:49:40.601181 21484 net.cpp:91] Creating Layer inception_4e/output
I0403 16:49:40.601197 21484 net.cpp:425] inception_4e/output <- inception_4e/1x1
I0403 16:49:40.601214 21484 net.cpp:425] inception_4e/output <- inception_4e/3x3
I0403 16:49:40.601230 21484 net.cpp:425] inception_4e/output <- inception_4e/5x5
I0403 16:49:40.601246 21484 net.cpp:425] inception_4e/output <- inception_4e/pool_proj
I0403 16:49:40.601264 21484 net.cpp:399] inception_4e/output -> inception_4e/output
I0403 16:49:40.601316 21484 net.cpp:141] Setting up inception_4e/output
I0403 16:49:40.601341 21484 net.cpp:148] Top shape: 24 832 14 14 (3913728)
I0403 16:49:40.601356 21484 net.cpp:156] Memory required for data: 1272557088
I0403 16:49:40.601371 21484 layer_factory.hpp:77] Creating layer pool4/3x3_s2
I0403 16:49:40.601387 21484 net.cpp:91] Creating Layer pool4/3x3_s2
I0403 16:49:40.601403 21484 net.cpp:425] pool4/3x3_s2 <- inception_4e/output
I0403 16:49:40.601423 21484 net.cpp:399] pool4/3x3_s2 -> pool4/3x3_s2
I0403 16:49:40.601491 21484 net.cpp:141] Setting up pool4/3x3_s2
I0403 16:49:40.601521 21484 net.cpp:148] Top shape: 24 832 7 7 (978432)
I0403 16:49:40.601536 21484 net.cpp:156] Memory required for data: 1276470816
I0403 16:49:40.601549 21484 layer_factory.hpp:77] Creating layer pool4/3x3_s2_pool4/3x3_s2_0_split
I0403 16:49:40.601567 21484 net.cpp:91] Creating Layer pool4/3x3_s2_pool4/3x3_s2_0_split
I0403 16:49:40.601583 21484 net.cpp:425] pool4/3x3_s2_pool4/3x3_s2_0_split <- pool4/3x3_s2
I0403 16:49:40.601599 21484 net.cpp:399] pool4/3x3_s2_pool4/3x3_s2_0_split -> pool4/3x3_s2_pool4/3x3_s2_0_split_0
I0403 16:49:40.601621 21484 net.cpp:399] pool4/3x3_s2_pool4/3x3_s2_0_split -> pool4/3x3_s2_pool4/3x3_s2_0_split_1
I0403 16:49:40.601642 21484 net.cpp:399] pool4/3x3_s2_pool4/3x3_s2_0_split -> pool4/3x3_s2_pool4/3x3_s2_0_split_2
I0403 16:49:40.601662 21484 net.cpp:399] pool4/3x3_s2_pool4/3x3_s2_0_split -> pool4/3x3_s2_pool4/3x3_s2_0_split_3
I0403 16:49:40.601757 21484 net.cpp:141] Setting up pool4/3x3_s2_pool4/3x3_s2_0_split
I0403 16:49:40.601780 21484 net.cpp:148] Top shape: 24 832 7 7 (978432)
I0403 16:49:40.601796 21484 net.cpp:148] Top shape: 24 832 7 7 (978432)
I0403 16:49:40.601812 21484 net.cpp:148] Top shape: 24 832 7 7 (978432)
I0403 16:49:40.601827 21484 net.cpp:148] Top shape: 24 832 7 7 (978432)
I0403 16:49:40.601840 21484 net.cpp:156] Memory required for data: 1292125728
I0403 16:49:40.601855 21484 layer_factory.hpp:77] Creating layer inception_5a/1x1
I0403 16:49:40.601878 21484 net.cpp:91] Creating Layer inception_5a/1x1
I0403 16:49:40.601896 21484 net.cpp:425] inception_5a/1x1 <- pool4/3x3_s2_pool4/3x3_s2_0_split_0
I0403 16:49:40.601914 21484 net.cpp:399] inception_5a/1x1 -> inception_5a/1x1
I0403 16:49:40.604892 21484 net.cpp:141] Setting up inception_5a/1x1
I0403 16:49:40.604923 21484 net.cpp:148] Top shape: 24 256 7 7 (301056)
I0403 16:49:40.604939 21484 net.cpp:156] Memory required for data: 1293329952
I0403 16:49:40.604959 21484 layer_factory.hpp:77] Creating layer inception_5a/relu_1x1
I0403 16:49:40.604979 21484 net.cpp:91] Creating Layer inception_5a/relu_1x1
I0403 16:49:40.605001 21484 net.cpp:425] inception_5a/relu_1x1 <- inception_5a/1x1
I0403 16:49:40.605023 21484 net.cpp:386] inception_5a/relu_1x1 -> inception_5a/1x1 (in-place)
I0403 16:49:40.605340 21484 net.cpp:141] Setting up inception_5a/relu_1x1
I0403 16:49:40.605370 21484 net.cpp:148] Top shape: 24 256 7 7 (301056)
I0403 16:49:40.605386 21484 net.cpp:156] Memory required for data: 1294534176
I0403 16:49:40.605401 21484 layer_factory.hpp:77] Creating layer inception_5a/3x3_reduce
I0403 16:49:40.605423 21484 net.cpp:91] Creating Layer inception_5a/3x3_reduce
I0403 16:49:40.605442 21484 net.cpp:425] inception_5a/3x3_reduce <- pool4/3x3_s2_pool4/3x3_s2_0_split_1
I0403 16:49:40.605460 21484 net.cpp:399] inception_5a/3x3_reduce -> inception_5a/3x3_reduce
I0403 16:49:40.608037 21484 net.cpp:141] Setting up inception_5a/3x3_reduce
I0403 16:49:40.608069 21484 net.cpp:148] Top shape: 24 160 7 7 (188160)
I0403 16:49:40.608084 21484 net.cpp:156] Memory required for data: 1295286816
I0403 16:49:40.608103 21484 layer_factory.hpp:77] Creating layer inception_5a/relu_3x3_reduce
I0403 16:49:40.608124 21484 net.cpp:91] Creating Layer inception_5a/relu_3x3_reduce
I0403 16:49:40.608141 21484 net.cpp:425] inception_5a/relu_3x3_reduce <- inception_5a/3x3_reduce
I0403 16:49:40.608158 21484 net.cpp:386] inception_5a/relu_3x3_reduce -> inception_5a/3x3_reduce (in-place)
I0403 16:49:40.608351 21484 net.cpp:141] Setting up inception_5a/relu_3x3_reduce
I0403 16:49:40.608377 21484 net.cpp:148] Top shape: 24 160 7 7 (188160)
I0403 16:49:40.608392 21484 net.cpp:156] Memory required for data: 1296039456
I0403 16:49:40.608407 21484 layer_factory.hpp:77] Creating layer inception_5a/3x3
I0403 16:49:40.608433 21484 net.cpp:91] Creating Layer inception_5a/3x3
I0403 16:49:40.608449 21484 net.cpp:425] inception_5a/3x3 <- inception_5a/3x3_reduce
I0403 16:49:40.608469 21484 net.cpp:399] inception_5a/3x3 -> inception_5a/3x3
I0403 16:49:40.613603 21484 net.cpp:141] Setting up inception_5a/3x3
I0403 16:49:40.613634 21484 net.cpp:148] Top shape: 24 320 7 7 (376320)
I0403 16:49:40.613649 21484 net.cpp:156] Memory required for data: 1297544736
I0403 16:49:40.613668 21484 layer_factory.hpp:77] Creating layer inception_5a/relu_3x3
I0403 16:49:40.613687 21484 net.cpp:91] Creating Layer inception_5a/relu_3x3
I0403 16:49:40.613703 21484 net.cpp:425] inception_5a/relu_3x3 <- inception_5a/3x3
I0403 16:49:40.613719 21484 net.cpp:386] inception_5a/relu_3x3 -> inception_5a/3x3 (in-place)
I0403 16:49:40.614019 21484 net.cpp:141] Setting up inception_5a/relu_3x3
I0403 16:49:40.614048 21484 net.cpp:148] Top shape: 24 320 7 7 (376320)
I0403 16:49:40.614063 21484 net.cpp:156] Memory required for data: 1299050016
I0403 16:49:40.614078 21484 layer_factory.hpp:77] Creating layer inception_5a/5x5_reduce
I0403 16:49:40.614099 21484 net.cpp:91] Creating Layer inception_5a/5x5_reduce
I0403 16:49:40.614117 21484 net.cpp:425] inception_5a/5x5_reduce <- pool4/3x3_s2_pool4/3x3_s2_0_split_2
I0403 16:49:40.614136 21484 net.cpp:399] inception_5a/5x5_reduce -> inception_5a/5x5_reduce
I0403 16:49:40.615350 21484 net.cpp:141] Setting up inception_5a/5x5_reduce
I0403 16:49:40.615381 21484 net.cpp:148] Top shape: 24 32 7 7 (37632)
I0403 16:49:40.615396 21484 net.cpp:156] Memory required for data: 1299200544
I0403 16:49:40.615414 21484 layer_factory.hpp:77] Creating layer inception_5a/relu_5x5_reduce
I0403 16:49:40.615432 21484 net.cpp:91] Creating Layer inception_5a/relu_5x5_reduce
I0403 16:49:40.615447 21484 net.cpp:425] inception_5a/relu_5x5_reduce <- inception_5a/5x5_reduce
I0403 16:49:40.615466 21484 net.cpp:386] inception_5a/relu_5x5_reduce -> inception_5a/5x5_reduce (in-place)
I0403 16:49:40.615790 21484 net.cpp:141] Setting up inception_5a/relu_5x5_reduce
I0403 16:49:40.615818 21484 net.cpp:148] Top shape: 24 32 7 7 (37632)
I0403 16:49:40.615846 21484 net.cpp:156] Memory required for data: 1299351072
I0403 16:49:40.615860 21484 layer_factory.hpp:77] Creating layer inception_5a/5x5
I0403 16:49:40.615883 21484 net.cpp:91] Creating Layer inception_5a/5x5
I0403 16:49:40.615901 21484 net.cpp:425] inception_5a/5x5 <- inception_5a/5x5_reduce
I0403 16:49:40.615919 21484 net.cpp:399] inception_5a/5x5 -> inception_5a/5x5
I0403 16:49:40.617652 21484 net.cpp:141] Setting up inception_5a/5x5
I0403 16:49:40.617694 21484 net.cpp:148] Top shape: 24 128 7 7 (150528)
I0403 16:49:40.617710 21484 net.cpp:156] Memory required for data: 1299953184
I0403 16:49:40.617728 21484 layer_factory.hpp:77] Creating layer inception_5a/relu_5x5
I0403 16:49:40.617746 21484 net.cpp:91] Creating Layer inception_5a/relu_5x5
I0403 16:49:40.617763 21484 net.cpp:425] inception_5a/relu_5x5 <- inception_5a/5x5
I0403 16:49:40.617779 21484 net.cpp:386] inception_5a/relu_5x5 -> inception_5a/5x5 (in-place)
I0403 16:49:40.617974 21484 net.cpp:141] Setting up inception_5a/relu_5x5
I0403 16:49:40.618013 21484 net.cpp:148] Top shape: 24 128 7 7 (150528)
I0403 16:49:40.618031 21484 net.cpp:156] Memory required for data: 1300555296
I0403 16:49:40.618046 21484 layer_factory.hpp:77] Creating layer inception_5a/pool
I0403 16:49:40.618062 21484 net.cpp:91] Creating Layer inception_5a/pool
I0403 16:49:40.618078 21484 net.cpp:425] inception_5a/pool <- pool4/3x3_s2_pool4/3x3_s2_0_split_3
I0403 16:49:40.618098 21484 net.cpp:399] inception_5a/pool -> inception_5a/pool
I0403 16:49:40.618167 21484 net.cpp:141] Setting up inception_5a/pool
I0403 16:49:40.618193 21484 net.cpp:148] Top shape: 24 832 7 7 (978432)
I0403 16:49:40.618221 21484 net.cpp:156] Memory required for data: 1304469024
I0403 16:49:40.618235 21484 layer_factory.hpp:77] Creating layer inception_5a/pool_proj
I0403 16:49:40.618257 21484 net.cpp:91] Creating Layer inception_5a/pool_proj
I0403 16:49:40.618286 21484 net.cpp:425] inception_5a/pool_proj <- inception_5a/pool
I0403 16:49:40.618304 21484 net.cpp:399] inception_5a/pool_proj -> inception_5a/pool_proj
I0403 16:49:40.620589 21484 net.cpp:141] Setting up inception_5a/pool_proj
I0403 16:49:40.620615 21484 net.cpp:148] Top shape: 24 128 7 7 (150528)
I0403 16:49:40.620630 21484 net.cpp:156] Memory required for data: 1305071136
I0403 16:49:40.620647 21484 layer_factory.hpp:77] Creating layer inception_5a/relu_pool_proj
I0403 16:49:40.620667 21484 net.cpp:91] Creating Layer inception_5a/relu_pool_proj
I0403 16:49:40.620683 21484 net.cpp:425] inception_5a/relu_pool_proj <- inception_5a/pool_proj
I0403 16:49:40.620699 21484 net.cpp:386] inception_5a/relu_pool_proj -> inception_5a/pool_proj (in-place)
I0403 16:49:40.620996 21484 net.cpp:141] Setting up inception_5a/relu_pool_proj
I0403 16:49:40.621021 21484 net.cpp:148] Top shape: 24 128 7 7 (150528)
I0403 16:49:40.621036 21484 net.cpp:156] Memory required for data: 1305673248
I0403 16:49:40.621049 21484 layer_factory.hpp:77] Creating layer inception_5a/output
I0403 16:49:40.621068 21484 net.cpp:91] Creating Layer inception_5a/output
I0403 16:49:40.621084 21484 net.cpp:425] inception_5a/output <- inception_5a/1x1
I0403 16:49:40.621100 21484 net.cpp:425] inception_5a/output <- inception_5a/3x3
I0403 16:49:40.621115 21484 net.cpp:425] inception_5a/output <- inception_5a/5x5
I0403 16:49:40.621130 21484 net.cpp:425] inception_5a/output <- inception_5a/pool_proj
I0403 16:49:40.621146 21484 net.cpp:399] inception_5a/output -> inception_5a/output
I0403 16:49:40.621196 21484 net.cpp:141] Setting up inception_5a/output
I0403 16:49:40.621217 21484 net.cpp:148] Top shape: 24 832 7 7 (978432)
I0403 16:49:40.621232 21484 net.cpp:156] Memory required for data: 1309586976
I0403 16:49:40.621245 21484 layer_factory.hpp:77] Creating layer inception_5a/output_inception_5a/output_0_split
I0403 16:49:40.621261 21484 net.cpp:91] Creating Layer inception_5a/output_inception_5a/output_0_split
I0403 16:49:40.621275 21484 net.cpp:425] inception_5a/output_inception_5a/output_0_split <- inception_5a/output
I0403 16:49:40.621294 21484 net.cpp:399] inception_5a/output_inception_5a/output_0_split -> inception_5a/output_inception_5a/output_0_split_0
I0403 16:49:40.621314 21484 net.cpp:399] inception_5a/output_inception_5a/output_0_split -> inception_5a/output_inception_5a/output_0_split_1
I0403 16:49:40.621331 21484 net.cpp:399] inception_5a/output_inception_5a/output_0_split -> inception_5a/output_inception_5a/output_0_split_2
I0403 16:49:40.621351 21484 net.cpp:399] inception_5a/output_inception_5a/output_0_split -> inception_5a/output_inception_5a/output_0_split_3
I0403 16:49:40.621460 21484 net.cpp:141] Setting up inception_5a/output_inception_5a/output_0_split
I0403 16:49:40.621486 21484 net.cpp:148] Top shape: 24 832 7 7 (978432)
I0403 16:49:40.621502 21484 net.cpp:148] Top shape: 24 832 7 7 (978432)
I0403 16:49:40.621516 21484 net.cpp:148] Top shape: 24 832 7 7 (978432)
I0403 16:49:40.621531 21484 net.cpp:148] Top shape: 24 832 7 7 (978432)
I0403 16:49:40.621543 21484 net.cpp:156] Memory required for data: 1325241888
I0403 16:49:40.621556 21484 layer_factory.hpp:77] Creating layer inception_5b/1x1
I0403 16:49:40.621577 21484 net.cpp:91] Creating Layer inception_5b/1x1
I0403 16:49:40.621594 21484 net.cpp:425] inception_5b/1x1 <- inception_5a/output_inception_5a/output_0_split_0
I0403 16:49:40.621611 21484 net.cpp:399] inception_5b/1x1 -> inception_5b/1x1
I0403 16:49:40.625314 21484 net.cpp:141] Setting up inception_5b/1x1
I0403 16:49:40.625342 21484 net.cpp:148] Top shape: 24 384 7 7 (451584)
I0403 16:49:40.625356 21484 net.cpp:156] Memory required for data: 1327048224
I0403 16:49:40.625375 21484 layer_factory.hpp:77] Creating layer inception_5b/relu_1x1
I0403 16:49:40.625393 21484 net.cpp:91] Creating Layer inception_5b/relu_1x1
I0403 16:49:40.625409 21484 net.cpp:425] inception_5b/relu_1x1 <- inception_5b/1x1
I0403 16:49:40.625425 21484 net.cpp:386] inception_5b/relu_1x1 -> inception_5b/1x1 (in-place)
I0403 16:49:40.625721 21484 net.cpp:141] Setting up inception_5b/relu_1x1
I0403 16:49:40.625746 21484 net.cpp:148] Top shape: 24 384 7 7 (451584)
I0403 16:49:40.625761 21484 net.cpp:156] Memory required for data: 1328854560
I0403 16:49:40.625774 21484 layer_factory.hpp:77] Creating layer inception_5b/3x3_reduce
I0403 16:49:40.625797 21484 net.cpp:91] Creating Layer inception_5b/3x3_reduce
I0403 16:49:40.625813 21484 net.cpp:425] inception_5b/3x3_reduce <- inception_5a/output_inception_5a/output_0_split_1
I0403 16:49:40.625834 21484 net.cpp:399] inception_5b/3x3_reduce -> inception_5b/3x3_reduce
I0403 16:49:40.628496 21484 net.cpp:141] Setting up inception_5b/3x3_reduce
I0403 16:49:40.628525 21484 net.cpp:148] Top shape: 24 192 7 7 (225792)
I0403 16:49:40.628540 21484 net.cpp:156] Memory required for data: 1329757728
I0403 16:49:40.628556 21484 layer_factory.hpp:77] Creating layer inception_5b/relu_3x3_reduce
I0403 16:49:40.628576 21484 net.cpp:91] Creating Layer inception_5b/relu_3x3_reduce
I0403 16:49:40.628592 21484 net.cpp:425] inception_5b/relu_3x3_reduce <- inception_5b/3x3_reduce
I0403 16:49:40.628607 21484 net.cpp:386] inception_5b/relu_3x3_reduce -> inception_5b/3x3_reduce (in-place)
I0403 16:49:40.628793 21484 net.cpp:141] Setting up inception_5b/relu_3x3_reduce
I0403 16:49:40.628819 21484 net.cpp:148] Top shape: 24 192 7 7 (225792)
I0403 16:49:40.628834 21484 net.cpp:156] Memory required for data: 1330660896
I0403 16:49:40.628849 21484 layer_factory.hpp:77] Creating layer inception_5b/3x3
I0403 16:49:40.628868 21484 net.cpp:91] Creating Layer inception_5b/3x3
I0403 16:49:40.628885 21484 net.cpp:425] inception_5b/3x3 <- inception_5b/3x3_reduce
I0403 16:49:40.628903 21484 net.cpp:399] inception_5b/3x3 -> inception_5b/3x3
I0403 16:49:40.635576 21484 net.cpp:141] Setting up inception_5b/3x3
I0403 16:49:40.635602 21484 net.cpp:148] Top shape: 24 384 7 7 (451584)
I0403 16:49:40.635617 21484 net.cpp:156] Memory required for data: 1332467232
I0403 16:49:40.635633 21484 layer_factory.hpp:77] Creating layer inception_5b/relu_3x3
I0403 16:49:40.635653 21484 net.cpp:91] Creating Layer inception_5b/relu_3x3
I0403 16:49:40.635669 21484 net.cpp:425] inception_5b/relu_3x3 <- inception_5b/3x3
I0403 16:49:40.635686 21484 net.cpp:386] inception_5b/relu_3x3 -> inception_5b/3x3 (in-place)
I0403 16:49:40.635977 21484 net.cpp:141] Setting up inception_5b/relu_3x3
I0403 16:49:40.636008 21484 net.cpp:148] Top shape: 24 384 7 7 (451584)
I0403 16:49:40.636023 21484 net.cpp:156] Memory required for data: 1334273568
I0403 16:49:40.636036 21484 layer_factory.hpp:77] Creating layer inception_5b/5x5_reduce
I0403 16:49:40.636075 21484 net.cpp:91] Creating Layer inception_5b/5x5_reduce
I0403 16:49:40.636096 21484 net.cpp:425] inception_5b/5x5_reduce <- inception_5a/output_inception_5a/output_0_split_2
I0403 16:49:40.636114 21484 net.cpp:399] inception_5b/5x5_reduce -> inception_5b/5x5_reduce
I0403 16:49:40.637361 21484 net.cpp:141] Setting up inception_5b/5x5_reduce
I0403 16:49:40.637387 21484 net.cpp:148] Top shape: 24 48 7 7 (56448)
I0403 16:49:40.637400 21484 net.cpp:156] Memory required for data: 1334499360
I0403 16:49:40.637418 21484 layer_factory.hpp:77] Creating layer inception_5b/relu_5x5_reduce
I0403 16:49:40.637437 21484 net.cpp:91] Creating Layer inception_5b/relu_5x5_reduce
I0403 16:49:40.637454 21484 net.cpp:425] inception_5b/relu_5x5_reduce <- inception_5b/5x5_reduce
I0403 16:49:40.637470 21484 net.cpp:386] inception_5b/relu_5x5_reduce -> inception_5b/5x5_reduce (in-place)
I0403 16:49:40.637835 21484 net.cpp:141] Setting up inception_5b/relu_5x5_reduce
I0403 16:49:40.637861 21484 net.cpp:148] Top shape: 24 48 7 7 (56448)
I0403 16:49:40.637874 21484 net.cpp:156] Memory required for data: 1334725152
I0403 16:49:40.637888 21484 layer_factory.hpp:77] Creating layer inception_5b/5x5
I0403 16:49:40.637907 21484 net.cpp:91] Creating Layer inception_5b/5x5
I0403 16:49:40.637923 21484 net.cpp:425] inception_5b/5x5 <- inception_5b/5x5_reduce
I0403 16:49:40.637940 21484 net.cpp:399] inception_5b/5x5 -> inception_5b/5x5
I0403 16:49:40.639997 21484 net.cpp:141] Setting up inception_5b/5x5
I0403 16:49:40.640027 21484 net.cpp:148] Top shape: 24 128 7 7 (150528)
I0403 16:49:40.640043 21484 net.cpp:156] Memory required for data: 1335327264
I0403 16:49:40.640059 21484 layer_factory.hpp:77] Creating layer inception_5b/relu_5x5
I0403 16:49:40.640076 21484 net.cpp:91] Creating Layer inception_5b/relu_5x5
I0403 16:49:40.640091 21484 net.cpp:425] inception_5b/relu_5x5 <- inception_5b/5x5
I0403 16:49:40.640110 21484 net.cpp:386] inception_5b/relu_5x5 -> inception_5b/5x5 (in-place)
I0403 16:49:40.640300 21484 net.cpp:141] Setting up inception_5b/relu_5x5
I0403 16:49:40.640322 21484 net.cpp:148] Top shape: 24 128 7 7 (150528)
I0403 16:49:40.640336 21484 net.cpp:156] Memory required for data: 1335929376
I0403 16:49:40.640350 21484 layer_factory.hpp:77] Creating layer inception_5b/pool
I0403 16:49:40.640367 21484 net.cpp:91] Creating Layer inception_5b/pool
I0403 16:49:40.640383 21484 net.cpp:425] inception_5b/pool <- inception_5a/output_inception_5a/output_0_split_3
I0403 16:49:40.640401 21484 net.cpp:399] inception_5b/pool -> inception_5b/pool
I0403 16:49:40.640471 21484 net.cpp:141] Setting up inception_5b/pool
I0403 16:49:40.640494 21484 net.cpp:148] Top shape: 24 832 7 7 (978432)
I0403 16:49:40.640507 21484 net.cpp:156] Memory required for data: 1339843104
I0403 16:49:40.640522 21484 layer_factory.hpp:77] Creating layer inception_5b/pool_proj
I0403 16:49:40.640543 21484 net.cpp:91] Creating Layer inception_5b/pool_proj
I0403 16:49:40.640561 21484 net.cpp:425] inception_5b/pool_proj <- inception_5b/pool
I0403 16:49:40.640578 21484 net.cpp:399] inception_5b/pool_proj -> inception_5b/pool_proj
I0403 16:49:40.642861 21484 net.cpp:141] Setting up inception_5b/pool_proj
I0403 16:49:40.642890 21484 net.cpp:148] Top shape: 24 128 7 7 (150528)
I0403 16:49:40.642904 21484 net.cpp:156] Memory required for data: 1340445216
I0403 16:49:40.642922 21484 layer_factory.hpp:77] Creating layer inception_5b/relu_pool_proj
I0403 16:49:40.642942 21484 net.cpp:91] Creating Layer inception_5b/relu_pool_proj
I0403 16:49:40.642957 21484 net.cpp:425] inception_5b/relu_pool_proj <- inception_5b/pool_proj
I0403 16:49:40.642973 21484 net.cpp:386] inception_5b/relu_pool_proj -> inception_5b/pool_proj (in-place)
I0403 16:49:40.643273 21484 net.cpp:141] Setting up inception_5b/relu_pool_proj
I0403 16:49:40.643298 21484 net.cpp:148] Top shape: 24 128 7 7 (150528)
I0403 16:49:40.643316 21484 net.cpp:156] Memory required for data: 1341047328
I0403 16:49:40.643329 21484 layer_factory.hpp:77] Creating layer inception_5b/output
I0403 16:49:40.643345 21484 net.cpp:91] Creating Layer inception_5b/output
I0403 16:49:40.643374 21484 net.cpp:425] inception_5b/output <- inception_5b/1x1
I0403 16:49:40.643391 21484 net.cpp:425] inception_5b/output <- inception_5b/3x3
I0403 16:49:40.643407 21484 net.cpp:425] inception_5b/output <- inception_5b/5x5
I0403 16:49:40.643422 21484 net.cpp:425] inception_5b/output <- inception_5b/pool_proj
I0403 16:49:40.643438 21484 net.cpp:399] inception_5b/output -> inception_5b/output
I0403 16:49:40.643489 21484 net.cpp:141] Setting up inception_5b/output
I0403 16:49:40.643512 21484 net.cpp:148] Top shape: 24 1024 7 7 (1204224)
I0403 16:49:40.643527 21484 net.cpp:156] Memory required for data: 1345864224
I0403 16:49:40.643539 21484 layer_factory.hpp:77] Creating layer pool5/7x7_s1
I0403 16:49:40.643558 21484 net.cpp:91] Creating Layer pool5/7x7_s1
I0403 16:49:40.643573 21484 net.cpp:425] pool5/7x7_s1 <- inception_5b/output
I0403 16:49:40.643590 21484 net.cpp:399] pool5/7x7_s1 -> pool5/7x7_s1
I0403 16:49:40.643802 21484 net.cpp:141] Setting up pool5/7x7_s1
I0403 16:49:40.643829 21484 net.cpp:148] Top shape: 24 1024 1 1 (24576)
I0403 16:49:40.643843 21484 net.cpp:156] Memory required for data: 1345962528
I0403 16:49:40.643857 21484 layer_factory.hpp:77] Creating layer pool5/drop_7x7_s1
I0403 16:49:40.643874 21484 net.cpp:91] Creating Layer pool5/drop_7x7_s1
I0403 16:49:40.643889 21484 net.cpp:425] pool5/drop_7x7_s1 <- pool5/7x7_s1
I0403 16:49:40.643904 21484 net.cpp:386] pool5/drop_7x7_s1 -> pool5/7x7_s1 (in-place)
I0403 16:49:40.643954 21484 net.cpp:141] Setting up pool5/drop_7x7_s1
I0403 16:49:40.643976 21484 net.cpp:148] Top shape: 24 1024 1 1 (24576)
I0403 16:49:40.643997 21484 net.cpp:156] Memory required for data: 1346060832
I0403 16:49:40.644012 21484 layer_factory.hpp:77] Creating layer loss3/classifier_plantvillage
I0403 16:49:40.644032 21484 net.cpp:91] Creating Layer loss3/classifier_plantvillage
I0403 16:49:40.644048 21484 net.cpp:425] loss3/classifier_plantvillage <- pool5/7x7_s1
I0403 16:49:40.644067 21484 net.cpp:399] loss3/classifier_plantvillage -> loss3/classifier_plantvillage
I0403 16:49:40.644482 21484 net.cpp:141] Setting up loss3/classifier_plantvillage
I0403 16:49:40.644505 21484 net.cpp:148] Top shape: 24 38 (912)
I0403 16:49:40.644518 21484 net.cpp:156] Memory required for data: 1346064480
I0403 16:49:40.644536 21484 layer_factory.hpp:77] Creating layer loss3/classifier_plantvillage_loss3/classifier_plantvillage_0_split
I0403 16:49:40.644552 21484 net.cpp:91] Creating Layer loss3/classifier_plantvillage_loss3/classifier_plantvillage_0_split
I0403 16:49:40.644567 21484 net.cpp:425] loss3/classifier_plantvillage_loss3/classifier_plantvillage_0_split <- loss3/classifier_plantvillage
I0403 16:49:40.644587 21484 net.cpp:399] loss3/classifier_plantvillage_loss3/classifier_plantvillage_0_split -> loss3/classifier_plantvillage_loss3/classifier_plantvillage_0_split_0
I0403 16:49:40.644608 21484 net.cpp:399] loss3/classifier_plantvillage_loss3/classifier_plantvillage_0_split -> loss3/classifier_plantvillage_loss3/classifier_plantvillage_0_split_1
I0403 16:49:40.644628 21484 net.cpp:399] loss3/classifier_plantvillage_loss3/classifier_plantvillage_0_split -> loss3/classifier_plantvillage_loss3/classifier_plantvillage_0_split_2
I0403 16:49:40.644646 21484 net.cpp:399] loss3/classifier_plantvillage_loss3/classifier_plantvillage_0_split -> loss3/classifier_plantvillage_loss3/classifier_plantvillage_0_split_3
I0403 16:49:40.644747 21484 net.cpp:141] Setting up loss3/classifier_plantvillage_loss3/classifier_plantvillage_0_split
I0403 16:49:40.644772 21484 net.cpp:148] Top shape: 24 38 (912)
I0403 16:49:40.644788 21484 net.cpp:148] Top shape: 24 38 (912)
I0403 16:49:40.644803 21484 net.cpp:148] Top shape: 24 38 (912)
I0403 16:49:40.644816 21484 net.cpp:148] Top shape: 24 38 (912)
I0403 16:49:40.644829 21484 net.cpp:156] Memory required for data: 1346079072
I0403 16:49:40.644843 21484 layer_factory.hpp:77] Creating layer loss1/loss
I0403 16:49:40.644863 21484 net.cpp:91] Creating Layer loss1/loss
I0403 16:49:40.644879 21484 net.cpp:425] loss1/loss <- loss1/classifier_plantvillage_loss1/classifier_plantvillage_0_split_0
I0403 16:49:40.644909 21484 net.cpp:425] loss1/loss <- label_data_1_split_0
…
