…
I0403 16:14:36.785390 20860 net.cpp:313] The NetState phase (1) differed from the phase (0) specified by a rule in layer data
I0403 16:14:36.786610 20860 net.cpp:49] Initializing net from parameters: 
state {
  phase: TEST
}
layer {
  name: "data"
  type: "Data"
  top: "data"
  top: "label"
  include {
    phase: TEST
  }
  transform_param {
    mirror: false
    crop_size: 224
    mean_file: "/home/mohanty/data/final_dataset/lmdb/color-40-60/mean.binaryproto"
  }
  data_param {
    source: "/home/mohanty/data/final_dataset/lmdb/color-40-60/test_db"
    batch_size: 24
    backend: LMDB
  }
}
layer {
  name: "conv1/7x7_s2"
  type: "Convolution"
  bottom: "data"
  top: "conv1/7x7_s2"
  param {
    lr_mult: 1
    decay_mult: 1
  }
  param {
    lr_mult: 2
    decay_mult: 0
  }
  convolution_param {
    num_output: 64
    pad: 3
    kernel_size: 7
    stride: 2
    weight_filler {
      type: "xavier"
      std: 0.1
    }
    bias_filler {
      type: "constant"
      value: 0.2
    }
  }
}
layer {
  name: "conv1/relu_7x7"
  type: "ReLU"
  bottom: "conv1/7x7_s2"
  top: "conv1/7x7_s2"
}
layer {
  name: "pool1/3x3_s2"
  type: "Pooling"
  bottom: "conv1/7x7_s2"
  top: "pool1/3x3_s2"
  pooling_param {
    pool: MAX
    kernel_size: 3
    stride: 2
  }
}
layer {
  name: "pool1/norm1"
  type: "LRN"
  bottom: "pool1/3x3_s2"
  top: "pool1/norm1"
  lrn_param {
    local_size: 5
    alpha: 0.0001
    beta: 0.75
  }
}
layer {
  name: "conv2/3x3_reduce"
  type: "Convolution"
  bottom: "pool1/norm1"
  top: "conv2/3x3_reduce"
  param {
    lr_mult: 1
    decay_mult: 1
  }
  param {
    lr_mult: 2
    decay_mult: 0
  }
  convolution_param {
    num_output: 64
    kernel_size: 1
    weight_filler {
      type: "xavier"
      std: 0.1
    }
    bias_filler {
      type: "constant"
      value: 0.2
    }
  }
}
layer {
  name: "conv2/relu_3x3_reduce"
  type: "ReLU"
  bottom: "conv2/3x3_reduce"
  top: "conv2/3x3_reduce"
}
layer {
  name: "conv2/3x3"
  type: "Convolution"
  bottom: "conv2/3x3_reduce"
  top: "conv2/3x3"
  param {
    lr_mult: 1
    decay_mult: 1
  }
  param {
    lr_mult: 2
    decay_mult: 0
  }
  convolution_param {
    num_output: 192
    pad: 1
    kernel_size: 3
    weight_filler {
      type: "xavier"
      std: 0.03
    }
    bias_filler {
      type: "constant"
      value: 0.2
    }
  }
}
layer {
  name: "conv2/relu_3x3"
  type: "ReLU"
  bottom: "conv2/3x3"
  top: "conv2/3x3"
}
layer {
  name: "conv2/norm2"
  type: "LRN"
  bottom: "conv2/3x3"
  top: "conv2/norm2"
  lrn_param {
    local_size: 5
    alpha: 0.0001
    beta: 0.75
  }
}
layer {
  name: "pool2/3x3_s2"
  type: "Pooling"
  bottom: "conv2/norm2"
  top: "pool2/3x3_s2"
  pooling_param {
    pool: MAX
    kernel_size: 3
    stride: 2
  }
}
layer {
  name: "inception_3a/1x1"
  type: "Convolution"
  bottom: "pool2/3x3_s2"
  top: "inception_3a/1x1"
  param {
    lr_mult: 1
    decay_mult: 1
  }
  param {
    lr_mult: 2
    decay_mult: 0
  }
  convolution_param {
    num_output: 64
    kernel_size: 1
    weight_filler {
      type: "xavier"
      std: 0.03
    }
    bias_filler {
      type: "constant"
      value: 0.2
    }
  }
}
layer {
  name: "inception_3a/relu_1x1"
  type: "ReLU"
  bottom: "inception_3a/1x1"
  top: "inception_3a/1x1"
}
layer {
  name: "inception_3a/3x3_reduce"
  type: "Convolution"
  bottom: "pool2/3x3_s2"
  top: "inception_3a/3x3_reduce"
  param {
    lr_mult: 1
    decay_mult: 1
  }
  param {
    lr_mult: 2
    decay_mult: 0
  }
  convolution_param {
    num_output: 96
    kernel_size: 1
    weight_filler {
      type: "xavier"
      std: 0.09
    }
    bias_filler {
      type: "constant"
      value: 0.2
    }
  }
}
layer {
  name: "inception_3a/relu_3x3_reduce"
  type: "ReLU"
  bottom: "inception_3a/3x3_reduce"
  top: "inception_3a/3x3_reduce"
}
layer {
  name: "inception_3a/3x3"
  type: "Convolution"
  bottom: "inception_3a/3x3_reduce"
  top: "inception_3a/3x3"
  param {
    lr_mult: 1
    decay_mult: 1
  }
  param {
    lr_mult: 2
    decay_mult: 0
  }
  convolution_param {
    num_output: 128
    pad: 1
    kernel_size: 3
    weight_filler {
      type: "xavier"
      std: 0.03
    }
    bias_filler {
      type: "constant"
      value: 0.2
    }
  }
}
layer {
  name: "inception_3a/relu_3x3"
  type: "ReLU"
  bottom: "inception_3a/3x3"
  top: "inception_3a/3x3"
}
layer {
  name: "inception_3a/5x5_reduce"
  type: "Convolution"
  bottom: "pool2/3x3_s2"
  top: "inception_3a/5x5_reduce"
  param {
    lr_mult: 1
    decay_mult: 1
  }
  param {
    lr_mult: 2
    decay_mult: 0
  }
  convolution_param {
    num_output: 16
    kernel_size: 1
    weight_filler {
      type: "xavier"
      std: 0.2
    }
    bias_filler {
      type: "constant"
      value: 0.2
    }
  }
}
layer {
  name: "inception_3a/relu_5x5_reduce"
  type: "ReLU"
  bottom: "inception_3a/5x5_reduce"
  top: "inception_3a/5x5_reduce"
}
layer {
  name: "inception_3a/5x5"
  type: "Convolution"
  bottom: "inception_3a/5x5_reduce"
  top: "inception_3a/5x5"
  param {
    lr_mult: 1
    decay_mult: 1
  }
  param {
    lr_mult: 2
    decay_mult: 0
  }
  convolution_param {
    num_output: 32
    pad: 2
    kernel_size: 5
    weight_filler {
      type: "xavier"
      std: 0.03
    }
    bias_filler {
      type: "constant"
      value: 0.2
    }
  }
}
layer {
  name: "inception_3a/relu_5x5"
  type: "ReLU"
  bottom: "inception_3a/5x5"
  top: "inception_3a/5x5"
}
layer {
  name: "inception_3a/pool"
  type: "Pooling"
  bottom: "pool2/3x3_s2"
  top: "inception_3a/pool"
  pooling_param {
    pool: MAX
    kernel_size: 3
    stride: 1
    pad: 1
  }
}
layer {
  name: "inception_3a/pool_proj"
  type: "Convolution"
  bottom: "inception_3a/pool"
  top: "inception_3a/pool_proj"
  param {
    lr_mult: 1
    decay_mult: 1
  }
  param {
    lr_mult: 2
    decay_mult: 0
  }
  convolution_param {
    num_output: 32
    kernel_size: 1
    weight_filler {
      type: "xavier"
      std: 0.1
    }
    bias_filler {
      type: "constant"
      value: 0.2
    }
  }
}
layer {
  name: "inception_3a/relu_pool_proj"
  type: "ReLU"
  bottom: "inception_3a/pool_proj"
  top: "inception_3a/pool_proj"
}
layer {
  name: "inception_3a/output"
  type: "Concat"
  bottom: "inception_3a/1x1"
  bottom: "inception_3a/3x3"
  bottom: "inception_3a/5x5"
  bottom: "inception_3a/pool_proj"
  top: "inception_3a/output"
}
layer {
  name: "inception_3b/1x1"
  type: "Convolution"
  bottom: "inception_3a/output"
  top: "inception_3b/1x1"
  param {
    lr_mult: 1
    decay_mult: 1
  }
  param {
    lr_mult: 2
    decay_mult: 0
  }
  convolution_param {
    num_output: 128
    kernel_size: 1
    weight_filler {
      type: "xavier"
      std: 0.03
    }
    bias_filler {
      type: "constant"
      value: 0.2
    }
  }
}
layer {
  name: "inception_3b/relu_1x1"
  type: "ReLU"
  bottom: "inception_3b/1x1"
  top: "inception_3b/1x1"
}
layer {
  name: "inception_3b/3x3_reduce"
  type: "Convolution"
  bottom: "inception_3a/output"
  top: "inception_3b/3x3_reduce"
  param {
    lr_mult: 1
    decay_mult: 1
  }
  param {
    lr_mult: 2
    decay_mult: 0
  }
  convolution_param {
    num_output: 128
    kernel_size: 1
    weight_filler {
      type: "xavier"
      std: 0.09
    }
    bias_filler {
      type: "constant"
      value: 0.2
    }
  }
}
layer {
  name: "inception_3b/relu_3x3_reduce"
  type: "ReLU"
  bottom: "inception_3b/3x3_reduce"
  top: "inception_3b/3x3_reduce"
}
layer {
  name: "inception_3b/3x3"
  type: "Convolution"
  bottom: "inception_3b/3x3_reduce"
  top: "inception_3b/3x3"
  param {
    lr_mult: 1
    decay_mult: 1
  }
  param {
    lr_mult: 2
    decay_mult: 0
  }
  convolution_param {
    num_output: 192
    pad: 1
    kernel_size: 3
    weight_filler {
      type: "xavier"
      std: 0.03
    }
    bias_filler {
      type: "constant"
      value: 0.2
    }
  }
}
layer {
  name: "inception_3b/relu_3x3"
  type: "ReLU"
  bottom: "inception_3b/3x3"
  top: "inception_3b/3x3"
}
layer {
  name: "inception_3b/5x5_reduce"
  type: "Convolution"
  bottom: "inception_3a/output"
  top: "inception_3b/5x5_reduce"
  param {
    lr_mult: 1
    decay_mult: 1
  }
  param {
    lr_mult: 2
    decay_mult: 0
  }
  convolution_param {
    num_output: 32
    kernel_size: 1
    weight_filler {
      type: "xavier"
      std: 0.2
    }
    bias_filler {
      type: "constant"
      value: 0.2
    }
  }
}
layer {
  name: "inception_3b/relu_5x5_reduce"
  type: "ReLU"
  bottom: "inception_3b/5x5_reduce"
  top: "inception_3b/5x5_reduce"
}
layer {
  name: "inception_3b/5x5"
  type: "Convolution"
  bottom: "inception_3b/5x5_reduce"
  top: "inception_3b/5x5"
  param {
    lr_mult: 1
    decay_mult: 1
  }
  param {
    lr_mult: 2
    decay_mult: 0
  }
  convolution_param {
    num_output: 96
    pad: 2
    kernel_size: 5
    weight_filler {
      type: "xavier"
      std: 0.03
    }
    bias_filler {
      type: "constant"
      value: 0.2
    }
  }
}
layer {
  name: "inception_3b/relu_5x5"
  type: "ReLU"
  bottom: "inception_3b/5x5"
  top: "inception_3b/5x5"
}
layer {
  name: "inception_3b/pool"
  type: "Pooling"
  bottom: "inception_3a/output"
  top: "inception_3b/pool"
  pooling_param {
    pool: MAX
    kernel_size: 3
    stride: 1
    pad: 1
  }
}
layer {
  name: "inception_3b/pool_proj"
  type: "Convolution"
  bottom: "inception_3b/pool"
  top: "inception_3b/pool_proj"
  param {
    lr_mult: 1
    decay_mult: 1
  }
  param {
    lr_mult: 2
    decay_mult: 0
  }
  convolution_param {
    num_output: 64
    kernel_size: 1
    weight_filler {
      type: "xavier"
      std: 0.1
    }
    bias_filler {
      type: "constant"
      value: 0.2
    }
  }
}
layer {
  name: "inception_3b/relu_pool_proj"
  type: "ReLU"
  bottom: "inception_3b/pool_proj"
  top: "inception_3b/pool_proj"
}
layer {
  name: "inception_3b/output"
  type: "Concat"
  bottom: "inception_3b/1x1"
  bottom: "inception_3b/3x3"
  bottom: "inception_3b/5x5"
  bottom: "inception_3b/pool_proj"
  top: "inception_3b/output"
}
layer {
  name: "pool3/3x3_s2"
  type: "Pooling"
  bottom: "inception_3b/output"
  top: "pool3/3x3_s2"
  pooling_param {
    pool: MAX
    kernel_size: 3
    stride: 2
  }
}
layer {
  name: "inception_4a/1x1"
  type: "Convolution"
  bottom: "pool3/3x3_s2"
  top: "inception_4a/1x1"
  param {
    lr_mult: 1
    decay_mult: 1
  }
  param {
    lr_mult: 2
    decay_mult: 0
  }
  convolution_param {
    num_output: 192
    kernel_size: 1
    weight_filler {
      type: "xavier"
      std: 0.03
    }
    bias_filler {
      type: "constant"
      value: 0.2
    }
  }
}
layer {
  name: "inception_4a/relu_1x1"
  type: "ReLU"
  bottom: "inception_4a/1x1"
  top: "inception_4a/1x1"
}
layer {
  name: "inception_4a/3x3_reduce"
  type: "Convolution"
  bottom: "pool3/3x3_s2"
  top: "inception_4a/3x3_reduce"
  param {
    lr_mult: 1
    decay_mult: 1
  }
  param {
    lr_mult: 2
    decay_mult: 0
  }
  convolution_param {
    num_output: 96
    kernel_size: 1
    weight_filler {
      type: "xavier"
      std: 0.09
    }
    bias_filler {
      type: "constant"
      value: 0.2
    }
  }
}
layer {
  name: "inception_4a/relu_3x3_reduce"
  type: "ReLU"
  bottom: "inception_4a/3x3_reduce"
  top: "inception_4a/3x3_reduce"
}
layer {
  name: "inception_4a/3x3"
  type: "Convolution"
  bottom: "inception_4a/3x3_reduce"
  top: "inception_4a/3x3"
  param {
    lr_mult: 1
    decay_mult: 1
  }
  param {
    lr_mult: 2
    decay_mult: 0
  }
  convolution_param {
    num_output: 208
    pad: 1
    kernel_size: 3
    weight_filler {
      type: "xavier"
      std: 0.03
    }
    bias_filler {
      type: "constant"
      value: 0.2
    }
  }
}
layer {
  name: "inception_4a/relu_3x3"
  type: "ReLU"
  bottom: "inception_4a/3x3"
  top: "inception_4a/3x3"
}
layer {
  name: "inception_4a/5x5_reduce"
  type: "Convolution"
  bottom: "pool3/3x3_s2"
  top: "inception_4a/5x5_reduce"
  param {
    lr_mult: 1
    decay_mult: 1
  }
  param {
    lr_mult: 2
    decay_mult: 0
  }
  convolution_param {
    num_output: 16
    kernel_size: 1
    weight_filler {
      type: "xavier"
      std: 0.2
    }
    bias_filler {
      type: "constant"
      value: 0.2
    }
  }
}
layer {
  name: "inception_4a/relu_5x5_reduce"
  type: "ReLU"
  bottom: "inception_4a/5x5_reduce"
  top: "inception_4a/5x5_reduce"
}
layer {
  name: "inception_4a/5x5"
  type: "Convolution"
  bottom: "inception_4a/5x5_reduce"
  top: "inception_4a/5x5"
  param {
    lr_mult: 1
    decay_mult: 1
  }
  param {
    lr_mult: 2
    decay_mult: 0
  }
  convolution_param {
    num_output: 48
    pad: 2
    kernel_size: 5
    weight_filler {
      type: "xavier"
      std: 0.03
    }
    bias_filler {
      type: "constant"
      value: 0.2
    }
  }
}
layer {
  name: "inception_4a/relu_5x5"
  type: "ReLU"
  bottom: "inception_4a/5x5"
  top: "inception_4a/5x5"
}
layer {
  name: "inception_4a/pool"
  type: "Pooling"
  bottom: "pool3/3x3_s2"
  top: "inception_4a/pool"
  pooling_param {
    pool: MAX
    kernel_size: 3
    stride: 1
    pad: 1
  }
}
layer {
  name: "inception_4a/pool_proj"
  type: "Convolution"
  bottom: "inception_4a/pool"
  top: "inception_4a/pool_proj"
  param {
    lr_mult: 1
    decay_mult: 1
  }
  param {
    lr_mult: 2
    decay_mult: 0
  }
  convolution_param {
    num_output: 64
    kernel_size: 1
    weight_filler {
      type: "xavier"
      std: 0.1
    }
    bias_filler {
      type: "constant"
      value: 0.2
    }
  }
}
layer {
  name: "inception_4a/relu_pool_proj"
  type: "ReLU"
  bottom: "inception_4a/pool_proj"
  top: "inception_4a/pool_proj"
}
layer {
  name: "inception_4a/output"
  type: "Concat"
  bottom: "inception_4a/1x1"
  bottom: "inception_4a/3x3"
  bottom: "inception_4a/5x5"
  bottom: "inception_4a/pool_proj"
  top: "inception_4a/output"
}
layer {
  name: "loss1/ave_pool"
  type: "Pooling"
  bottom: "inception_4a/output"
  top: "loss1/ave_pool"
  pooling_param {
    pool: AVE
    kernel_size: 5
    stride: 3
  }
}
layer {
  name: "loss1/conv"
  type: "Convolution"
  bottom: "loss1/ave_pool"
  top: "loss1/conv"
  param {
    lr_mult: 1
    decay_mult: 1
  }
  param {
    lr_mult: 2
    decay_mult: 0
  }
  convolution_param {
    num_output: 128
    kernel_size: 1
    weight_filler {
      type: "xavier"
      std: 0.08
    }
    bias_filler {
      type: "constant"
      value: 0.2
    }
  }
}
layer {
  name: "loss1/relu_conv"
  type: "ReLU"
  bottom: "loss1/conv"
  top: "loss1/conv"
}
layer {
  name: "loss1/fc"
  type: "InnerProduct"
  bottom: "loss1/conv"
  top: "loss1/fc"
  param {
    lr_mult: 1
    decay_mult: 1
  }
  param {
    lr_mult: 2
    decay_mult: 0
  }
  inner_product_param {
    num_output: 1024
    weight_filler {
      type: "xavier"
      std: 0.02
    }
    bias_filler {
      type: "constant"
      value: 0.2
    }
  }
}
layer {
  name: "loss1/relu_fc"
  type: "ReLU"
  bottom: "loss1/fc"
  top: "loss1/fc"
}
layer {
  name: "loss1/drop_fc"
  type: "Dropout"
  bottom: "loss1/fc"
  top: "loss1/fc"
  dropout_param {
    dropout_ratio: 0.7
  }
}
layer {
  name: "loss1/classifier_plantvillage"
  type: "InnerProduct"
  bottom: "loss1/fc"
  top: "loss1/classifier_plantvillage"
  param {
    lr_mult: 1
    decay_mult: 1
  }
  param {
    lr_mult: 2
    decay_mult: 0
  }
  inner_product_param {
    num_output: 38
    weight_filler {
      type: "xavier"
      std: 0.0009765625
    }
    bias_filler {
      type: "constant"
      value: 0
    }
  }
}
layer {
  name: "inception_4b/1x1"
  type: "Convolution"
  bottom: "inception_4a/output"
  top: "inception_4b/1x1"
  param {
    lr_mult: 1
    decay_mult: 1
  }
  param {
    lr_mult: 2
    decay_mult: 0
  }
  convolution_param {
    num_output: 160
    kernel_size: 1
    weight_filler {
      type: "xavier"
      std: 0.03
    }
    bias_filler {
      type: "constant"
      value: 0.2
    }
  }
}
layer {
  name: "inception_4b/relu_1x1"
  type: "ReLU"
  bottom: "inception_4b/1x1"
  top: "inception_4b/1x1"
}
layer {
  name: "inception_4b/3x3_reduce"
  type: "Convolution"
  bottom: "inception_4a/output"
  top: "inception_4b/3x3_reduce"
  param {
    lr_mult: 1
    decay_mult: 1
  }
  param {
    lr_mult: 2
    decay_mult: 0
  }
  convolution_param {
    num_output: 112
    kernel_size: 1
    weight_filler {
      type: "xavier"
      std: 0.09
    }
    bias_filler {
      type: "constant"
      value: 0.2
    }
  }
}
layer {
  name: "inception_4b/relu_3x3_reduce"
  type: "ReLU"
  bottom: "inception_4b/3x3_reduce"
  top: "inception_4b/3x3_reduce"
}
layer {
  name: "inception_4b/3x3"
  type: "Convolution"
  bottom: "inception_4b/3x3_reduce"
  top: "inception_4b/3x3"
  param {
    lr_mult: 1
    decay_mult: 1
  }
  param {
    lr_mult: 2
    decay_mult: 0
  }
  convolution_param {
    num_output: 224
    pad: 1
    kernel_size: 3
    weight_filler {
      type: "xavier"
      std: 0.03
    }
    bias_filler {
      type: "constant"
      value: 0.2
    }
  }
}
layer {
  name: "inception_4b/relu_3x3"
  type: "ReLU"
  bottom: "inception_4b/3x3"
  top: "inception_4b/3x3"
}
layer {
  name: "inception_4b/5x5_reduce"
  type: "Convolution"
  bottom: "inception_4a/output"
  top: "inception_4b/5x5_reduce"
  param {
    lr_mult: 1
    decay_mult: 1
  }
  param {
    lr_mult: 2
    decay_mult: 0
  }
  convolution_param {
    num_output: 24
    kernel_size: 1
    weight_filler {
      type: "xavier"
      std: 0.2
    }
    bias_filler {
      type: "constant"
      value: 0.2
    }
  }
}
layer {
  name: "inception_4b/relu_5x5_reduce"
  type: "ReLU"
  bottom: "inception_4b/5x5_reduce"
  top: "inception_4b/5x5_reduce"
}
layer {
  name: "inception_4b/5x5"
  type: "Convolution"
  bottom: "inception_4b/5x5_reduce"
  top: "inception_4b/5x5"
  param {
    lr_mult: 1
    decay_mult: 1
  }
  param {
    lr_mult: 2
    decay_mult: 0
  }
  convolution_param {
    num_output: 64
    pad: 2
    kernel_size: 5
    weight_filler {
      type: "xavier"
      std: 0.03
    }
    bias_filler {
      type: "constant"
      value: 0.2
    }
  }
}
layer {
  name: "inception_4b/relu_5x5"
  type: "ReLU"
  bottom: "inception_4b/5x5"
  top: "inception_4b/5x5"
}
layer {
  name: "inception_4b/pool"
  type: "Pooling"
  bottom: "inception_4a/output"
  top: "inception_4b/pool"
  pooling_param {
    pool: MAX
    kernel_size: 3
    stride: 1
    pad: 1
  }
}
layer {
  name: "inception_4b/pool_proj"
  type: "Convolution"
  bottom: "inception_4b/pool"
  top: "inception_4b/pool_proj"
  param {
    lr_mult: 1
    decay_mult: 1
  }
  param {
    lr_mult: 2
    decay_mult: 0
  }
  convolution_param {
    num_output: 64
    kernel_size: 1
    weight_filler {
      type: "xavier"
      std: 0.1
    }
    bias_filler {
      type: "constant"
      value: 0.2
    }
  }
}
layer {
  name: "inception_4b/relu_pool_proj"
  type: "ReLU"
  bottom: "inception_4b/pool_proj"
  top: "inception_4b/pool_proj"
}
layer {
  name: "inception_4b/output"
  type: "Concat"
  bottom: "inception_4b/1x1"
  bottom: "inception_4b/3x3"
  bottom: "inception_4b/5x5"
  bottom: "inception_4b/pool_proj"
  top: "inception_4b/output"
}
layer {
  name: "inception_4c/1x1"
  type: "Convolution"
  bottom: "inception_4b/output"
  top: "inception_4c/1x1"
  param {
    lr_mult: 1
    decay_mult: 1
  }
  param {
    lr_mult: 2
    decay_mult: 0
  }
  convolution_param {
    num_output: 128
    kernel_size: 1
    weight_filler {
      type: "xavier"
      std: 0.03
    }
    bias_filler {
      type: "constant"
      value: 0.2
    }
  }
}
layer {
  name: "inception_4c/relu_1x1"
  type: "ReLU"
  bottom: "inception_4c/1x1"
  top: "inception_4c/1x1"
}
layer {
  name: "inception_4c/3x3_reduce"
  type: "Convolution"
  bottom: "inception_4b/output"
  top: "inception_4c/3x3_reduce"
  param {
    lr_mult: 1
    decay_mult: 1
  }
  param {
    lr_mult: 2
    decay_mult: 0
  }
  convolution_param {
    num_output: 128
    kernel_size: 1
    weight_filler {
      type: "xavier"
      std: 0.09
    }
    bias_filler {
      type: "constant"
      value: 0.2
    }
  }
}
layer {
  name: "inception_4c/relu_3x3_reduce"
  type: "ReLU"
  bottom: "inception_4c/3x3_reduce"
  top: "inception_4c/3x3_reduce"
}
layer {
  name: "inception_4c/3x3"
  type: "Convolution"
  bottom: "inception_4c/3x3_reduce"
  top: "inception_4c/3x3"
  param {
    lr_mult: 1
    decay_mult: 1
  }
  param {
    lr_mult: 2
    decay_mult: 0
  }
  convolution_param {
    num_output: 256
    pad: 1
    kernel_size: 3
    weight_filler {
      type: "xavier"
      std: 0.03
    }
    bias_filler {
      type: "constant"
      value: 0.2
    }
  }
}
layer {
  name: "inception_4c/relu_3x3"
  type: "ReLU"
  bottom: "inception_4c/3x3"
  top: "inception_4c/3x3"
}
layer {
  name: "inception_4c/5x5_reduce"
  type: "Convolution"
  bottom: "inception_4b/output"
  top: "inception_4c/5x5_reduce"
  param {
    lr_mult: 1
    decay_mult: 1
  }
  param {
    lr_mult: 2
    decay_mult: 0
  }
  convolution_param {
    num_output: 24
    kernel_size: 1
    weight_filler {
      type: "xavier"
      std: 0.2
    }
    bias_filler {
      type: "constant"
      value: 0.2
    }
  }
}
layer {
  name: "inception_4c/relu_5x5_reduce"
  type: "ReLU"
  bottom: "inception_4c/5x5_reduce"
  top: "inception_4c/5x5_reduce"
}
layer {
  name: "inception_4c/5x5"
  type: "Convolution"
  bottom: "inception_4c/5x5_reduce"
  top: "inception_4c/5x5"
  param {
    lr_mult: 1
    decay_mult: 1
  }
  param {
    lr_mult: 2
    decay_mult: 0
  }
  convolution_param {
    num_output: 64
    pad: 2
    kernel_size: 5
    weight_filler {
      type: "xavier"
      std: 0.03
    }
    bias_filler {
      type: "constant"
      value: 0.2
    }
  }
}
layer {
  name: "inception_4c/relu_5x5"
  type: "ReLU"
  bottom: "inception_4c/5x5"
  top: "inception_4c/5x5"
}
layer {
  name: "inception_4c/pool"
  type: "Pooling"
  bottom: "inception_4b/output"
  top: "inception_4c/pool"
  pooling_param {
    pool: MAX
    kernel_size: 3
    stride: 1
    pad: 1
  }
}
layer {
  name: "inception_4c/pool_proj"
  type: "Convolution"
  bottom: "inception_4c/pool"
  top: "inception_4c/pool_proj"
  param {
    lr_mult: 1
    decay_mult: 1
  }
  param {
    lr_mult: 2
    decay_mult: 0
  }
  convolution_param {
    num_output: 64
    kernel_size: 1
    weight_filler {
      type: "xavier"
      std: 0.1
    }
    bias_filler {
      type: "constant"
      value: 0.2
    }
  }
}
layer {
  name: "inception_4c/relu_pool_proj"
  type: "ReLU"
  bottom: "inception_4c/pool_proj"
  top: "inception_4c/pool_proj"
}
layer {
  name: "inception_4c/output"
  type: "Concat"
  bottom: "inception_4c/1x1"
  bottom: "inception_4c/3x3"
  bottom: "inception_4c/5x5"
  bottom: "inception_4c/pool_proj"
  top: "inception_4c/output"
}
layer {
  name: "inception_4d/1x1"
  type: "Convolution"
  bottom: "inception_4c/output"
  top: "inception_4d/1x1"
  param {
    lr_mult: 1
    decay_mult: 1
  }
  param {
    lr_mult: 2
    decay_mult: 0
  }
  convolution_param {
    num_output: 112
    kernel_size: 1
    weight_filler {
      type: "xavier"
      std: 0.03
    }
    bias_filler {
      type: "constant"
      value: 0.2
    }
  }
}
layer {
  name: "inception_4d/relu_1x1"
  type: "ReLU"
  bottom: "inception_4d/1x1"
  top: "inception_4d/1x1"
}
layer {
  name: "inception_4d/3x3_reduce"
  type: "Convolution"
  bottom: "inception_4c/output"
  top: "inception_4d/3x3_reduce"
  param {
    lr_mult: 1
    decay_mult: 1
  }
  param {
    lr_mult: 2
    decay_mult: 0
  }
  convolution_param {
    num_output: 144
    kernel_size: 1
    weight_filler {
      type: "xavier"
      std: 0.09
    }
    bias_filler {
      type: "constant"
      value: 0.2
    }
  }
}
layer {
  name: "inception_4d/relu_3x3_reduce"
  type: "ReLU"
  bottom: "inception_4d/3x3_reduce"
  top: "inception_4d/3x3_reduce"
}
layer {
  name: "inception_4d/3x3"
  type: "Convolution"
  bottom: "inception_4d/3x3_reduce"
  top: "inception_4d/3x3"
  param {
    lr_mult: 1
    decay_mult: 1
  }
  param {
    lr_mult: 2
    decay_mult: 0
  }
  convolution_param {
    num_output: 288
    pad: 1
    kernel_size: 3
    weight_filler {
      type: "xavier"
      std: 0.03
    }
    bias_filler {
      type: "constant"
      value: 0.2
    }
  }
}
layer {
  name: "inception_4d/relu_3x3"
  type: "ReLU"
  bottom: "inception_4d/3x3"
  top: "inception_4d/3x3"
}
layer {
  name: "inception_4d/5x5_reduce"
  type: "Convolution"
  bottom: "inception_4c/output"
  top: "inception_4d/5x5_reduce"
  param {
    lr_mult: 1
    decay_mult: 1
  }
  param {
    lr_mult: 2
    decay_mult: 0
  }
  convolution_param {
    num_output: 32
    kernel_size: 1
    weight_filler {
      type: "xavier"
      std: 0.2
    }
    bias_filler {
      type: "constant"
      value: 0.2
    }
  }
}
layer {
  name: "inception_4d/relu_5x5_reduce"
  type: "ReLU"
  bottom: "inception_4d/5x5_reduce"
  top: "inception_4d/5x5_reduce"
}
layer {
  name: "inception_4d/5x5"
  type: "Convolution"
  bottom: "inception_4d/5x5_reduce"
  top: "inception_4d/5x5"
  param {
    lr_mult: 1
    decay_mult: 1
  }
  param {
    lr_mult: 2
    decay_mult: 0
  }
  convolution_param {
    num_output: 64
    pad: 2
    kernel_size: 5
    weight_filler {
      type: "xavier"
      std: 0.03
    }
    bias_filler {
      type: "constant"
      value: 0.2
    }
  }
}
layer {
  name: "inception_4d/relu_5x5"
  type: "ReLU"
  bottom: "inception_4d/5x5"
  top: "inception_4d/5x5"
}
layer {
  name: "inception_4d/pool"
  type: "Pooling"
  bottom: "inception_4c/output"
  top: "inception_4d/pool"
  pooling_param {
    pool: MAX
    kernel_size: 3
    stride: 1
    pad: 1
  }
}
layer {
  name: "inception_4d/pool_proj"
  type: "Convolution"
  bottom: "inception_4d/pool"
  top: "inception_4d/pool_proj"
  param {
    lr_mult: 1
    decay_mult: 1
  }
  param {
    lr_mult: 2
    decay_mult: 0
  }
  convolution_param {
    num_output: 64
    kernel_size: 1
    weight_filler {
      type: "xavier"
      std: 0.1
    }
    bias_filler {
      type: "constant"
      value: 0.2
    }
  }
}
layer {
  name: "inception_4d/relu_pool_proj"
  type: "ReLU"
  bottom: "inception_4d/pool_proj"
  top: "inception_4d/pool_proj"
}
layer {
  name: "inception_4d/output"
  type: "Concat"
  bottom: "inception_4d/1x1"
  bottom: "inception_4d/3x3"
  bottom: "inception_4d/5x5"
  bottom: "inception_4d/pool_proj"
  top: "inception_4d/output"
}
layer {
  name: "loss2/ave_pool"
  type: "Pooling"
  bottom: "inception_4d/output"
  top: "loss2/ave_pool"
  pooling_param {
    pool: AVE
    kernel_size: 5
    stride: 3
  }
}
layer {
  name: "loss2/conv"
  type: "Convolution"
  bottom: "loss2/ave_pool"
  top: "loss2/conv"
  param {
    lr_mult: 1
    decay_mult: 1
  }
  param {
    lr_mult: 2
    decay_mult: 0
  }
  convolution_param {
    num_output: 128
    kernel_size: 1
    weight_filler {
      type: "xavier"
      std: 0.08
    }
    bias_filler {
      type: "constant"
      value: 0.2
    }
  }
}
layer {
  name: "loss2/relu_conv"
  type: "ReLU"
  bottom: "loss2/conv"
  top: "loss2/conv"
}
layer {
  name: "loss2/fc"
  type: "InnerProduct"
  bottom: "loss2/conv"
  top: "loss2/fc"
  param {
    lr_mult: 1
    decay_mult: 1
  }
  param {
    lr_mult: 2
    decay_mult: 0
  }
  inner_product_param {
    num_output: 1024
    weight_filler {
      type: "xavier"
      std: 0.02
    }
    bias_filler {
      type: "constant"
      value: 0.2
    }
  }
}
layer {
  name: "loss2/relu_fc"
  type: "ReLU"
  bottom: "loss2/fc"
  top: "loss2/fc"
}
layer {
  name: "loss2/drop_fc"
  type: "Dropout"
  bottom: "loss2/fc"
  top: "loss2/fc"
  dropout_param {
    dropout_ratio: 0.7
  }
}
layer {
  name: "loss2/classifier_plantvillage"
  type: "InnerProduct"
  bottom: "loss2/fc"
  top: "loss2/classifier_plantvillage"
  param {
    lr_mult: 1
    decay_mult: 1
  }
  param {
    lr_mult: 2
    decay_mult: 0
  }
  inner_product_param {
    num_output: 38
    weight_filler {
      type: "xavier"
      std: 0.0009765625
    }
    bias_filler {
      type: "constant"
      value: 0
    }
  }
}
layer {
  name: "inception_4e/1x1"
  type: "Convolution"
  bottom: "inception_4d/output"
  top: "inception_4e/1x1"
  param {
    lr_mult: 1
    decay_mult: 1
  }
  param {
    lr_mult: 2
    decay_mult: 0
  }
  convolution_param {
    num_output: 256
    kernel_size: 1
    weight_filler {
      type: "xavier"
      std: 0.03
    }
    bias_filler {
      type: "constant"
      value: 0.2
    }
  }
}
layer {
  name: "inception_4e/relu_1x1"
  type: "ReLU"
  bottom: "inception_4e/1x1"
  top: "inception_4e/1x1"
}
layer {
  name: "inception_4e/3x3_reduce"
  type: "Convolution"
  bottom: "inception_4d/output"
  top: "inception_4e/3x3_reduce"
  param {
    lr_mult: 1
    decay_mult: 1
  }
  param {
    lr_mult: 2
    decay_mult: 0
  }
  convolution_param {
    num_output: 160
    kernel_size: 1
    weight_filler {
      type: "xavier"
      std: 0.09
    }
    bias_filler {
      type: "constant"
      value: 0.2
    }
  }
}
layer {
  name: "inception_4e/relu_3x3_reduce"
  type: "ReLU"
  bottom: "inception_4e/3x3_reduce"
  top: "inception_4e/3x3_reduce"
}
layer {
  name: "inception_4e/3x3"
  type: "Convolution"
  bottom: "inception_4e/3x3_reduce"
  top: "inception_4e/3x3"
  param {
    lr_mult: 1
    decay_mult: 1
  }
  param {
    lr_mult: 2
    decay_mult: 0
  }
  convolution_param {
    num_output: 320
    pad: 1
    kernel_size: 3
    weight_filler {
      type: "xavier"
      std: 0.03
    }
    bias_filler {
      type: "constant"
      value: 0.2
    }
  }
}
layer {
  name: "inception_4e/relu_3x3"
  type: "ReLU"
  bottom: "inception_4e/3x3"
  top: "inception_4e/3x3"
}
layer {
  name: "inception_4e/5x5_reduce"
  type: "Convolution"
  bottom: "inception_4d/output"
  top: "inception_4e/5x5_reduce"
  param {
    lr_mult: 1
    decay_mult: 1
  }
  param {
    lr_mult: 2
    decay_mult: 0
  }
  convolution_param {
    num_output: 32
    kernel_size: 1
    weight_filler {
      type: "xavier"
      std: 0.2
    }
    bias_filler {
      type: "constant"
      value: 0.2
    }
  }
}
layer {
  name: "inception_4e/relu_5x5_reduce"
  type: "ReLU"
  bottom: "inception_4e/5x5_reduce"
  top: "inception_4e/5x5_reduce"
}
layer {
  name: "inception_4e/5x5"
  type: "Convolution"
  bottom: "inception_4e/5x5_reduce"
  top: "inception_4e/5x5"
  p
I0403 16:14:36.787875 20860 layer_factory.hpp:77] Creating layer data
I0403 16:14:36.788494 20860 net.cpp:91] Creating Layer data
I0403 16:14:36.788525 20860 net.cpp:399] data -> data
I0403 16:14:36.788581 20860 net.cpp:399] data -> label
I0403 16:14:36.788619 20860 data_transformer.cpp:25] Loading mean file from: /home/mohanty/data/final_dataset/lmdb/color-40-60/mean.binaryproto
I0403 16:14:36.789788 20863 db_lmdb.cpp:38] Opened lmdb /home/mohanty/data/final_dataset/lmdb/color-40-60/test_db
I0403 16:14:36.802145 20860 data_layer.cpp:41] output data size: 24,3,224,224
I0403 16:14:36.833492 20860 net.cpp:141] Setting up data
I0403 16:14:36.833567 20860 net.cpp:148] Top shape: 24 3 224 224 (3612672)
I0403 16:14:36.833590 20860 net.cpp:148] Top shape: 24 (24)
I0403 16:14:36.833606 20860 net.cpp:156] Memory required for data: 14450784
I0403 16:14:36.833633 20860 layer_factory.hpp:77] Creating layer label_data_1_split
I0403 16:14:36.833660 20860 net.cpp:91] Creating Layer label_data_1_split
I0403 16:14:36.833678 20860 net.cpp:425] label_data_1_split <- label
I0403 16:14:36.833710 20860 net.cpp:399] label_data_1_split -> label_data_1_split_0
I0403 16:14:36.833737 20860 net.cpp:399] label_data_1_split -> label_data_1_split_1
I0403 16:14:36.833758 20860 net.cpp:399] label_data_1_split -> label_data_1_split_2
I0403 16:14:36.833780 20860 net.cpp:399] label_data_1_split -> label_data_1_split_3
I0403 16:14:36.833798 20860 net.cpp:399] label_data_1_split -> label_data_1_split_4
I0403 16:14:36.833818 20860 net.cpp:399] label_data_1_split -> label_data_1_split_5
I0403 16:14:36.833837 20860 net.cpp:399] label_data_1_split -> label_data_1_split_6
I0403 16:14:36.833858 20860 net.cpp:399] label_data_1_split -> label_data_1_split_7
I0403 16:14:36.833876 20860 net.cpp:399] label_data_1_split -> label_data_1_split_8
I0403 16:14:36.833896 20860 net.cpp:399] label_data_1_split -> label_data_1_split_9
I0403 16:14:36.834022 20860 net.cpp:141] Setting up label_data_1_split
I0403 16:14:36.834046 20860 net.cpp:148] Top shape: 24 (24)
I0403 16:14:36.834064 20860 net.cpp:148] Top shape: 24 (24)
I0403 16:14:36.834079 20860 net.cpp:148] Top shape: 24 (24)
I0403 16:14:36.834095 20860 net.cpp:148] Top shape: 24 (24)
I0403 16:14:36.834110 20860 net.cpp:148] Top shape: 24 (24)
I0403 16:14:36.834126 20860 net.cpp:148] Top shape: 24 (24)
I0403 16:14:36.834142 20860 net.cpp:148] Top shape: 24 (24)
I0403 16:14:36.834158 20860 net.cpp:148] Top shape: 24 (24)
I0403 16:14:36.834173 20860 net.cpp:148] Top shape: 24 (24)
I0403 16:14:36.834190 20860 net.cpp:148] Top shape: 24 (24)
I0403 16:14:36.834234 20860 net.cpp:156] Memory required for data: 14451744
I0403 16:14:36.834250 20860 layer_factory.hpp:77] Creating layer conv1/7x7_s2
I0403 16:14:36.834282 20860 net.cpp:91] Creating Layer conv1/7x7_s2
I0403 16:14:36.834301 20860 net.cpp:425] conv1/7x7_s2 <- data
I0403 16:14:36.834321 20860 net.cpp:399] conv1/7x7_s2 -> conv1/7x7_s2
I0403 16:14:36.982261 20860 net.cpp:141] Setting up conv1/7x7_s2
I0403 16:14:36.982354 20860 net.cpp:148] Top shape: 24 64 112 112 (19267584)
I0403 16:14:36.982372 20860 net.cpp:156] Memory required for data: 91522080
I0403 16:14:36.982403 20860 layer_factory.hpp:77] Creating layer conv1/relu_7x7
I0403 16:14:36.982431 20860 net.cpp:91] Creating Layer conv1/relu_7x7
I0403 16:14:36.982450 20860 net.cpp:425] conv1/relu_7x7 <- conv1/7x7_s2
I0403 16:14:36.982470 20860 net.cpp:386] conv1/relu_7x7 -> conv1/7x7_s2 (in-place)
I0403 16:14:36.982774 20860 net.cpp:141] Setting up conv1/relu_7x7
I0403 16:14:36.982802 20860 net.cpp:148] Top shape: 24 64 112 112 (19267584)
I0403 16:14:36.982817 20860 net.cpp:156] Memory required for data: 168592416
I0403 16:14:36.982833 20860 layer_factory.hpp:77] Creating layer pool1/3x3_s2
I0403 16:14:36.982859 20860 net.cpp:91] Creating Layer pool1/3x3_s2
I0403 16:14:36.982877 20860 net.cpp:425] pool1/3x3_s2 <- conv1/7x7_s2
I0403 16:14:36.982897 20860 net.cpp:399] pool1/3x3_s2 -> pool1/3x3_s2
I0403 16:14:36.982978 20860 net.cpp:141] Setting up pool1/3x3_s2
I0403 16:14:36.983003 20860 net.cpp:148] Top shape: 24 64 56 56 (4816896)
I0403 16:14:36.983019 20860 net.cpp:156] Memory required for data: 187860000
I0403 16:14:36.983033 20860 layer_factory.hpp:77] Creating layer pool1/norm1
I0403 16:14:36.983057 20860 net.cpp:91] Creating Layer pool1/norm1
I0403 16:14:36.983077 20860 net.cpp:425] pool1/norm1 <- pool1/3x3_s2
I0403 16:14:36.983094 20860 net.cpp:399] pool1/norm1 -> pool1/norm1
I0403 16:14:36.983397 20860 net.cpp:141] Setting up pool1/norm1
I0403 16:14:36.983428 20860 net.cpp:148] Top shape: 24 64 56 56 (4816896)
I0403 16:14:36.983444 20860 net.cpp:156] Memory required for data: 207127584
I0403 16:14:36.983459 20860 layer_factory.hpp:77] Creating layer conv2/3x3_reduce
I0403 16:14:36.983487 20860 net.cpp:91] Creating Layer conv2/3x3_reduce
I0403 16:14:36.983505 20860 net.cpp:425] conv2/3x3_reduce <- pool1/norm1
I0403 16:14:36.983525 20860 net.cpp:399] conv2/3x3_reduce -> conv2/3x3_reduce
I0403 16:14:36.985015 20860 net.cpp:141] Setting up conv2/3x3_reduce
I0403 16:14:36.985045 20860 net.cpp:148] Top shape: 24 64 56 56 (4816896)
I0403 16:14:36.985061 20860 net.cpp:156] Memory required for data: 226395168
I0403 16:14:36.985082 20860 layer_factory.hpp:77] Creating layer conv2/relu_3x3_reduce
I0403 16:14:36.985105 20860 net.cpp:91] Creating Layer conv2/relu_3x3_reduce
I0403 16:14:36.985121 20860 net.cpp:425] conv2/relu_3x3_reduce <- conv2/3x3_reduce
I0403 16:14:36.985139 20860 net.cpp:386] conv2/relu_3x3_reduce -> conv2/3x3_reduce (in-place)
I0403 16:14:36.985420 20860 net.cpp:141] Setting up conv2/relu_3x3_reduce
I0403 16:14:36.985447 20860 net.cpp:148] Top shape: 24 64 56 56 (4816896)
I0403 16:14:36.985463 20860 net.cpp:156] Memory required for data: 245662752
I0403 16:14:36.985478 20860 layer_factory.hpp:77] Creating layer conv2/3x3
I0403 16:14:36.985502 20860 net.cpp:91] Creating Layer conv2/3x3
I0403 16:14:36.985522 20860 net.cpp:425] conv2/3x3 <- conv2/3x3_reduce
I0403 16:14:36.985546 20860 net.cpp:399] conv2/3x3 -> conv2/3x3
I0403 16:14:36.987974 20860 net.cpp:141] Setting up conv2/3x3
I0403 16:14:36.988005 20860 net.cpp:148] Top shape: 24 192 56 56 (14450688)
I0403 16:14:36.988023 20860 net.cpp:156] Memory required for data: 303465504
I0403 16:14:36.988075 20860 layer_factory.hpp:77] Creating layer conv2/relu_3x3
I0403 16:14:36.988101 20860 net.cpp:91] Creating Layer conv2/relu_3x3
I0403 16:14:36.988118 20860 net.cpp:425] conv2/relu_3x3 <- conv2/3x3
I0403 16:14:36.988137 20860 net.cpp:386] conv2/relu_3x3 -> conv2/3x3 (in-place)
I0403 16:14:36.988322 20860 net.cpp:141] Setting up conv2/relu_3x3
I0403 16:14:36.988351 20860 net.cpp:148] Top shape: 24 192 56 56 (14450688)
I0403 16:14:36.988397 20860 net.cpp:156] Memory required for data: 361268256
I0403 16:14:36.988415 20860 layer_factory.hpp:77] Creating layer conv2/norm2
I0403 16:14:36.988432 20860 net.cpp:91] Creating Layer conv2/norm2
I0403 16:14:36.988450 20860 net.cpp:425] conv2/norm2 <- conv2/3x3
I0403 16:14:36.988469 20860 net.cpp:399] conv2/norm2 -> conv2/norm2
I0403 16:14:36.988801 20860 net.cpp:141] Setting up conv2/norm2
I0403 16:14:36.988829 20860 net.cpp:148] Top shape: 24 192 56 56 (14450688)
I0403 16:14:36.988844 20860 net.cpp:156] Memory required for data: 419071008
I0403 16:14:36.988860 20860 layer_factory.hpp:77] Creating layer pool2/3x3_s2
I0403 16:14:36.988878 20860 net.cpp:91] Creating Layer pool2/3x3_s2
I0403 16:14:36.988894 20860 net.cpp:425] pool2/3x3_s2 <- conv2/norm2
I0403 16:14:36.988917 20860 net.cpp:399] pool2/3x3_s2 -> pool2/3x3_s2
I0403 16:14:36.988986 20860 net.cpp:141] Setting up pool2/3x3_s2
I0403 16:14:36.989012 20860 net.cpp:148] Top shape: 24 192 28 28 (3612672)
I0403 16:14:36.989027 20860 net.cpp:156] Memory required for data: 433521696
I0403 16:14:36.989042 20860 layer_factory.hpp:77] Creating layer pool2/3x3_s2_pool2/3x3_s2_0_split
I0403 16:14:36.989063 20860 net.cpp:91] Creating Layer pool2/3x3_s2_pool2/3x3_s2_0_split
I0403 16:14:36.989080 20860 net.cpp:425] pool2/3x3_s2_pool2/3x3_s2_0_split <- pool2/3x3_s2
I0403 16:14:36.989100 20860 net.cpp:399] pool2/3x3_s2_pool2/3x3_s2_0_split -> pool2/3x3_s2_pool2/3x3_s2_0_split_0
I0403 16:14:36.989121 20860 net.cpp:399] pool2/3x3_s2_pool2/3x3_s2_0_split -> pool2/3x3_s2_pool2/3x3_s2_0_split_1
I0403 16:14:36.989141 20860 net.cpp:399] pool2/3x3_s2_pool2/3x3_s2_0_split -> pool2/3x3_s2_pool2/3x3_s2_0_split_2
I0403 16:14:36.989161 20860 net.cpp:399] pool2/3x3_s2_pool2/3x3_s2_0_split -> pool2/3x3_s2_pool2/3x3_s2_0_split_3
I0403 16:14:36.989235 20860 net.cpp:141] Setting up pool2/3x3_s2_pool2/3x3_s2_0_split
I0403 16:14:36.989259 20860 net.cpp:148] Top shape: 24 192 28 28 (3612672)
I0403 16:14:36.989279 20860 net.cpp:148] Top shape: 24 192 28 28 (3612672)
I0403 16:14:36.989295 20860 net.cpp:148] Top shape: 24 192 28 28 (3612672)
I0403 16:14:36.989311 20860 net.cpp:148] Top shape: 24 192 28 28 (3612672)
I0403 16:14:36.989326 20860 net.cpp:156] Memory required for data: 491324448
I0403 16:14:36.989341 20860 layer_factory.hpp:77] Creating layer inception_3a/1x1
I0403 16:14:36.989362 20860 net.cpp:91] Creating Layer inception_3a/1x1
I0403 16:14:36.989378 20860 net.cpp:425] inception_3a/1x1 <- pool2/3x3_s2_pool2/3x3_s2_0_split_0
I0403 16:14:36.989399 20860 net.cpp:399] inception_3a/1x1 -> inception_3a/1x1
I0403 16:14:36.991017 20860 net.cpp:141] Setting up inception_3a/1x1
I0403 16:14:36.991049 20860 net.cpp:148] Top shape: 24 64 28 28 (1204224)
I0403 16:14:36.991065 20860 net.cpp:156] Memory required for data: 496141344
I0403 16:14:36.991085 20860 layer_factory.hpp:77] Creating layer inception_3a/relu_1x1
I0403 16:14:36.991106 20860 net.cpp:91] Creating Layer inception_3a/relu_1x1
I0403 16:14:36.991122 20860 net.cpp:425] inception_3a/relu_1x1 <- inception_3a/1x1
I0403 16:14:36.991140 20860 net.cpp:386] inception_3a/relu_1x1 -> inception_3a/1x1 (in-place)
I0403 16:14:36.991325 20860 net.cpp:141] Setting up inception_3a/relu_1x1
I0403 16:14:36.991353 20860 net.cpp:148] Top shape: 24 64 28 28 (1204224)
I0403 16:14:36.991367 20860 net.cpp:156] Memory required for data: 500958240
I0403 16:14:36.991382 20860 layer_factory.hpp:77] Creating layer inception_3a/3x3_reduce
I0403 16:14:36.991406 20860 net.cpp:91] Creating Layer inception_3a/3x3_reduce
I0403 16:14:36.991425 20860 net.cpp:425] inception_3a/3x3_reduce <- pool2/3x3_s2_pool2/3x3_s2_0_split_1
I0403 16:14:36.991444 20860 net.cpp:399] inception_3a/3x3_reduce -> inception_3a/3x3_reduce
I0403 16:14:36.993258 20860 net.cpp:141] Setting up inception_3a/3x3_reduce
I0403 16:14:36.993289 20860 net.cpp:148] Top shape: 24 96 28 28 (1806336)
I0403 16:14:36.993306 20860 net.cpp:156] Memory required for data: 508183584
I0403 16:14:36.993330 20860 layer_factory.hpp:77] Creating layer inception_3a/relu_3x3_reduce
I0403 16:14:36.993369 20860 net.cpp:91] Creating Layer inception_3a/relu_3x3_reduce
I0403 16:14:36.993388 20860 net.cpp:425] inception_3a/relu_3x3_reduce <- inception_3a/3x3_reduce
I0403 16:14:36.993407 20860 net.cpp:386] inception_3a/relu_3x3_reduce -> inception_3a/3x3_reduce (in-place)
I0403 16:14:36.993603 20860 net.cpp:141] Setting up inception_3a/relu_3x3_reduce
I0403 16:14:36.993630 20860 net.cpp:148] Top shape: 24 96 28 28 (1806336)
I0403 16:14:36.993645 20860 net.cpp:156] Memory required for data: 515408928
I0403 16:14:36.993660 20860 layer_factory.hpp:77] Creating layer inception_3a/3x3
I0403 16:14:36.993685 20860 net.cpp:91] Creating Layer inception_3a/3x3
I0403 16:14:36.993702 20860 net.cpp:425] inception_3a/3x3 <- inception_3a/3x3_reduce
I0403 16:14:36.993726 20860 net.cpp:399] inception_3a/3x3 -> inception_3a/3x3
I0403 16:14:36.995499 20860 net.cpp:141] Setting up inception_3a/3x3
I0403 16:14:36.995529 20860 net.cpp:148] Top shape: 24 128 28 28 (2408448)
I0403 16:14:36.995545 20860 net.cpp:156] Memory required for data: 525042720
I0403 16:14:36.995564 20860 layer_factory.hpp:77] Creating layer inception_3a/relu_3x3
I0403 16:14:36.995585 20860 net.cpp:91] Creating Layer inception_3a/relu_3x3
I0403 16:14:36.995601 20860 net.cpp:425] inception_3a/relu_3x3 <- inception_3a/3x3
I0403 16:14:36.995620 20860 net.cpp:386] inception_3a/relu_3x3 -> inception_3a/3x3 (in-place)
I0403 16:14:36.995911 20860 net.cpp:141] Setting up inception_3a/relu_3x3
I0403 16:14:36.995939 20860 net.cpp:148] Top shape: 24 128 28 28 (2408448)
I0403 16:14:36.995959 20860 net.cpp:156] Memory required for data: 534676512
I0403 16:14:36.995976 20860 layer_factory.hpp:77] Creating layer inception_3a/5x5_reduce
I0403 16:14:36.996001 20860 net.cpp:91] Creating Layer inception_3a/5x5_reduce
I0403 16:14:36.996018 20860 net.cpp:425] inception_3a/5x5_reduce <- pool2/3x3_s2_pool2/3x3_s2_0_split_2
I0403 16:14:36.996040 20860 net.cpp:399] inception_3a/5x5_reduce -> inception_3a/5x5_reduce
I0403 16:14:36.997053 20860 net.cpp:141] Setting up inception_3a/5x5_reduce
I0403 16:14:36.997084 20860 net.cpp:148] Top shape: 24 16 28 28 (301056)
I0403 16:14:36.997102 20860 net.cpp:156] Memory required for data: 535880736
I0403 16:14:36.997120 20860 layer_factory.hpp:77] Creating layer inception_3a/relu_5x5_reduce
I0403 16:14:36.997139 20860 net.cpp:91] Creating Layer inception_3a/relu_5x5_reduce
I0403 16:14:36.997156 20860 net.cpp:425] inception_3a/relu_5x5_reduce <- inception_3a/5x5_reduce
I0403 16:14:36.997174 20860 net.cpp:386] inception_3a/relu_5x5_reduce -> inception_3a/5x5_reduce (in-place)
I0403 16:14:36.997485 20860 net.cpp:141] Setting up inception_3a/relu_5x5_reduce
I0403 16:14:36.997516 20860 net.cpp:148] Top shape: 24 16 28 28 (301056)
I0403 16:14:36.997534 20860 net.cpp:156] Memory required for data: 537084960
I0403 16:14:36.997548 20860 layer_factory.hpp:77] Creating layer inception_3a/5x5
I0403 16:14:36.997571 20860 net.cpp:91] Creating Layer inception_3a/5x5
I0403 16:14:36.997589 20860 net.cpp:425] inception_3a/5x5 <- inception_3a/5x5_reduce
I0403 16:14:36.997611 20860 net.cpp:399] inception_3a/5x5 -> inception_3a/5x5
I0403 16:14:36.998674 20860 net.cpp:141] Setting up inception_3a/5x5
I0403 16:14:36.998703 20860 net.cpp:148] Top shape: 24 32 28 28 (602112)
I0403 16:14:36.998718 20860 net.cpp:156] Memory required for data: 539493408
I0403 16:14:36.998738 20860 layer_factory.hpp:77] Creating layer inception_3a/relu_5x5
I0403 16:14:36.998759 20860 net.cpp:91] Creating Layer inception_3a/relu_5x5
I0403 16:14:36.998775 20860 net.cpp:425] inception_3a/relu_5x5 <- inception_3a/5x5
I0403 16:14:36.998793 20860 net.cpp:386] inception_3a/relu_5x5 -> inception_3a/5x5 (in-place)
I0403 16:14:36.998989 20860 net.cpp:141] Setting up inception_3a/relu_5x5
I0403 16:14:36.999017 20860 net.cpp:148] Top shape: 24 32 28 28 (602112)
I0403 16:14:36.999033 20860 net.cpp:156] Memory required for data: 541901856
I0403 16:14:36.999049 20860 layer_factory.hpp:77] Creating layer inception_3a/pool
I0403 16:14:36.999068 20860 net.cpp:91] Creating Layer inception_3a/pool
I0403 16:14:36.999083 20860 net.cpp:425] inception_3a/pool <- pool2/3x3_s2_pool2/3x3_s2_0_split_3
I0403 16:14:36.999120 20860 net.cpp:399] inception_3a/pool -> inception_3a/pool
I0403 16:14:36.999181 20860 net.cpp:141] Setting up inception_3a/pool
I0403 16:14:36.999205 20860 net.cpp:148] Top shape: 24 192 28 28 (3612672)
I0403 16:14:36.999220 20860 net.cpp:156] Memory required for data: 556352544
I0403 16:14:36.999235 20860 layer_factory.hpp:77] Creating layer inception_3a/pool_proj
I0403 16:14:36.999258 20860 net.cpp:91] Creating Layer inception_3a/pool_proj
I0403 16:14:36.999275 20860 net.cpp:425] inception_3a/pool_proj <- inception_3a/pool
I0403 16:14:36.999297 20860 net.cpp:399] inception_3a/pool_proj -> inception_3a/pool_proj
I0403 16:14:37.000313 20860 net.cpp:141] Setting up inception_3a/pool_proj
I0403 16:14:37.000342 20860 net.cpp:148] Top shape: 24 32 28 28 (602112)
I0403 16:14:37.000358 20860 net.cpp:156] Memory required for data: 558760992
I0403 16:14:37.000382 20860 layer_factory.hpp:77] Creating layer inception_3a/relu_pool_proj
I0403 16:14:37.000403 20860 net.cpp:91] Creating Layer inception_3a/relu_pool_proj
I0403 16:14:37.000419 20860 net.cpp:425] inception_3a/relu_pool_proj <- inception_3a/pool_proj
I0403 16:14:37.000437 20860 net.cpp:386] inception_3a/relu_pool_proj -> inception_3a/pool_proj (in-place)
I0403 16:14:37.000721 20860 net.cpp:141] Setting up inception_3a/relu_pool_proj
I0403 16:14:37.000749 20860 net.cpp:148] Top shape: 24 32 28 28 (602112)
I0403 16:14:37.000766 20860 net.cpp:156] Memory required for data: 561169440
I0403 16:14:37.000782 20860 layer_factory.hpp:77] Creating layer inception_3a/output
I0403 16:14:37.000802 20860 net.cpp:91] Creating Layer inception_3a/output
I0403 16:14:37.000819 20860 net.cpp:425] inception_3a/output <- inception_3a/1x1
I0403 16:14:37.000836 20860 net.cpp:425] inception_3a/output <- inception_3a/3x3
I0403 16:14:37.000854 20860 net.cpp:425] inception_3a/output <- inception_3a/5x5
I0403 16:14:37.000869 20860 net.cpp:425] inception_3a/output <- inception_3a/pool_proj
I0403 16:14:37.000886 20860 net.cpp:399] inception_3a/output -> inception_3a/output
I0403 16:14:37.000936 20860 net.cpp:141] Setting up inception_3a/output
I0403 16:14:37.000967 20860 net.cpp:148] Top shape: 24 256 28 28 (4816896)
I0403 16:14:37.000982 20860 net.cpp:156] Memory required for data: 580437024
I0403 16:14:37.000998 20860 layer_factory.hpp:77] Creating layer inception_3a/output_inception_3a/output_0_split
I0403 16:14:37.001014 20860 net.cpp:91] Creating Layer inception_3a/output_inception_3a/output_0_split
I0403 16:14:37.001030 20860 net.cpp:425] inception_3a/output_inception_3a/output_0_split <- inception_3a/output
I0403 16:14:37.001050 20860 net.cpp:399] inception_3a/output_inception_3a/output_0_split -> inception_3a/output_inception_3a/output_0_split_0
I0403 16:14:37.001071 20860 net.cpp:399] inception_3a/output_inception_3a/output_0_split -> inception_3a/output_inception_3a/output_0_split_1
I0403 16:14:37.001093 20860 net.cpp:399] inception_3a/output_inception_3a/output_0_split -> inception_3a/output_inception_3a/output_0_split_2
I0403 16:14:37.001117 20860 net.cpp:399] inception_3a/output_inception_3a/output_0_split -> inception_3a/output_inception_3a/output_0_split_3
I0403 16:14:37.001196 20860 net.cpp:141] Setting up inception_3a/output_inception_3a/output_0_split
I0403 16:14:37.001221 20860 net.cpp:148] Top shape: 24 256 28 28 (4816896)
I0403 16:14:37.001238 20860 net.cpp:148] Top shape: 24 256 28 28 (4816896)
I0403 16:14:37.001267 20860 net.cpp:148] Top shape: 24 256 28 28 (4816896)
I0403 16:14:37.001284 20860 net.cpp:148] Top shape: 24 256 28 28 (4816896)
I0403 16:14:37.001298 20860 net.cpp:156] Memory required for data: 657507360
I0403 16:14:37.001313 20860 layer_factory.hpp:77] Creating layer inception_3b/1x1
I0403 16:14:37.001337 20860 net.cpp:91] Creating Layer inception_3b/1x1
I0403 16:14:37.001354 20860 net.cpp:425] inception_3b/1x1 <- inception_3a/output_inception_3a/output_0_split_0
I0403 16:14:37.001376 20860 net.cpp:399] inception_3b/1x1 -> inception_3b/1x1
I0403 16:14:37.002571 20860 net.cpp:141] Setting up inception_3b/1x1
I0403 16:14:37.002614 20860 net.cpp:148] Top shape: 24 128 28 28 (2408448)
I0403 16:14:37.002630 20860 net.cpp:156] Memory required for data: 667141152
I0403 16:14:37.002648 20860 layer_factory.hpp:77] Creating layer inception_3b/relu_1x1
I0403 16:14:37.002667 20860 net.cpp:91] Creating Layer inception_3b/relu_1x1
I0403 16:14:37.002684 20860 net.cpp:425] inception_3b/relu_1x1 <- inception_3b/1x1
I0403 16:14:37.002707 20860 net.cpp:386] inception_3b/relu_1x1 -> inception_3b/1x1 (in-place)
I0403 16:14:37.002888 20860 net.cpp:141] Setting up inception_3b/relu_1x1
I0403 16:14:37.002914 20860 net.cpp:148] Top shape: 24 128 28 28 (2408448)
I0403 16:14:37.002930 20860 net.cpp:156] Memory required for data: 676774944
I0403 16:14:37.002945 20860 layer_factory.hpp:77] Creating layer inception_3b/3x3_reduce
I0403 16:14:37.002974 20860 net.cpp:91] Creating Layer inception_3b/3x3_reduce
I0403 16:14:37.002993 20860 net.cpp:425] inception_3b/3x3_reduce <- inception_3a/output_inception_3a/output_0_split_1
I0403 16:14:37.003015 20860 net.cpp:399] inception_3b/3x3_reduce -> inception_3b/3x3_reduce
I0403 16:14:37.004209 20860 net.cpp:141] Setting up inception_3b/3x3_reduce
I0403 16:14:37.004237 20860 net.cpp:148] Top shape: 24 128 28 28 (2408448)
I0403 16:14:37.004253 20860 net.cpp:156] Memory required for data: 686408736
I0403 16:14:37.004271 20860 layer_factory.hpp:77] Creating layer inception_3b/relu_3x3_reduce
I0403 16:14:37.004293 20860 net.cpp:91] Creating Layer inception_3b/relu_3x3_reduce
I0403 16:14:37.004310 20860 net.cpp:425] inception_3b/relu_3x3_reduce <- inception_3b/3x3_reduce
I0403 16:14:37.004328 20860 net.cpp:386] inception_3b/relu_3x3_reduce -> inception_3b/3x3_reduce (in-place)
I0403 16:14:37.004508 20860 net.cpp:141] Setting up inception_3b/relu_3x3_reduce
I0403 16:14:37.004535 20860 net.cpp:148] Top shape: 24 128 28 28 (2408448)
I0403 16:14:37.004551 20860 net.cpp:156] Memory required for data: 696042528
I0403 16:14:37.004565 20860 layer_factory.hpp:77] Creating layer inception_3b/3x3
I0403 16:14:37.004591 20860 net.cpp:91] Creating Layer inception_3b/3x3
I0403 16:14:37.004609 20860 net.cpp:425] inception_3b/3x3 <- inception_3b/3x3_reduce
I0403 16:14:37.004629 20860 net.cpp:399] inception_3b/3x3 -> inception_3b/3x3
I0403 16:14:37.007693 20860 net.cpp:141] Setting up inception_3b/3x3
I0403 16:14:37.007721 20860 net.cpp:148] Top shape: 24 192 28 28 (3612672)
I0403 16:14:37.007737 20860 net.cpp:156] Memory required for data: 710493216
I0403 16:14:37.007756 20860 layer_factory.hpp:77] Creating layer inception_3b/relu_3x3
I0403 16:14:37.007777 20860 net.cpp:91] Creating Layer inception_3b/relu_3x3
I0403 16:14:37.007794 20860 net.cpp:425] inception_3b/relu_3x3 <- inception_3b/3x3
I0403 16:14:37.007812 20860 net.cpp:386] inception_3b/relu_3x3 -> inception_3b/3x3 (in-place)
I0403 16:14:37.008111 20860 net.cpp:141] Setting up inception_3b/relu_3x3
I0403 16:14:37.008139 20860 net.cpp:148] Top shape: 24 192 28 28 (3612672)
I0403 16:14:37.008157 20860 net.cpp:156] Memory required for data: 724943904
I0403 16:14:37.008172 20860 layer_factory.hpp:77] Creating layer inception_3b/5x5_reduce
I0403 16:14:37.008195 20860 net.cpp:91] Creating Layer inception_3b/5x5_reduce
I0403 16:14:37.008214 20860 net.cpp:425] inception_3b/5x5_reduce <- inception_3a/output_inception_3a/output_0_split_2
I0403 16:14:37.008236 20860 net.cpp:399] inception_3b/5x5_reduce -> inception_3b/5x5_reduce
I0403 16:14:37.009299 20860 net.cpp:141] Setting up inception_3b/5x5_reduce
I0403 16:14:37.009328 20860 net.cpp:148] Top shape: 24 32 28 28 (602112)
I0403 16:14:37.009344 20860 net.cpp:156] Memory required for data: 727352352
I0403 16:14:37.009363 20860 layer_factory.hpp:77] Creating layer inception_3b/relu_5x5_reduce
I0403 16:14:37.009384 20860 net.cpp:91] Creating Layer inception_3b/relu_5x5_reduce
I0403 16:14:37.009402 20860 net.cpp:425] inception_3b/relu_5x5_reduce <- inception_3b/5x5_reduce
I0403 16:14:37.009420 20860 net.cpp:386] inception_3b/relu_5x5_reduce -> inception_3b/5x5_reduce (in-place)
I0403 16:14:37.009604 20860 net.cpp:141] Setting up inception_3b/relu_5x5_reduce
I0403 16:14:37.009646 20860 net.cpp:148] Top shape: 24 32 28 28 (602112)
I0403 16:14:37.009663 20860 net.cpp:156] Memory required for data: 729760800
I0403 16:14:37.009678 20860 layer_factory.hpp:77] Creating layer inception_3b/5x5
I0403 16:14:37.009701 20860 net.cpp:91] Creating Layer inception_3b/5x5
I0403 16:14:37.009721 20860 net.cpp:425] inception_3b/5x5 <- inception_3b/5x5_reduce
I0403 16:14:37.009742 20860 net.cpp:399] inception_3b/5x5 -> inception_3b/5x5
I0403 16:14:37.011929 20860 net.cpp:141] Setting up inception_3b/5x5
I0403 16:14:37.011963 20860 net.cpp:148] Top shape: 24 96 28 28 (1806336)
I0403 16:14:37.011981 20860 net.cpp:156] Memory required for data: 736986144
I0403 16:14:37.012001 20860 layer_factory.hpp:77] Creating layer inception_3b/relu_5x5
I0403 16:14:37.012022 20860 net.cpp:91] Creating Layer inception_3b/relu_5x5
I0403 16:14:37.012039 20860 net.cpp:425] inception_3b/relu_5x5 <- inception_3b/5x5
I0403 16:14:37.012058 20860 net.cpp:386] inception_3b/relu_5x5 -> inception_3b/5x5 (in-place)
I0403 16:14:37.012258 20860 net.cpp:141] Setting up inception_3b/relu_5x5
I0403 16:14:37.012284 20860 net.cpp:148] Top shape: 24 96 28 28 (1806336)
I0403 16:14:37.012300 20860 net.cpp:156] Memory required for data: 744211488
I0403 16:14:37.012315 20860 layer_factory.hpp:77] Creating layer inception_3b/pool
I0403 16:14:37.012332 20860 net.cpp:91] Creating Layer inception_3b/pool
I0403 16:14:37.012349 20860 net.cpp:425] inception_3b/pool <- inception_3a/output_inception_3a/output_0_split_3
I0403 16:14:37.012368 20860 net.cpp:399] inception_3b/pool -> inception_3b/pool
I0403 16:14:37.012429 20860 net.cpp:141] Setting up inception_3b/pool
I0403 16:14:37.012454 20860 net.cpp:148] Top shape: 24 256 28 28 (4816896)
I0403 16:14:37.012470 20860 net.cpp:156] Memory required for data: 763479072
I0403 16:14:37.012483 20860 layer_factory.hpp:77] Creating layer inception_3b/pool_proj
I0403 16:14:37.012506 20860 net.cpp:91] Creating Layer inception_3b/pool_proj
I0403 16:14:37.012524 20860 net.cpp:425] inception_3b/pool_proj <- inception_3b/pool
I0403 16:14:37.012545 20860 net.cpp:399] inception_3b/pool_proj -> inception_3b/pool_proj
I0403 16:14:37.013649 20860 net.cpp:141] Setting up inception_3b/pool_proj
I0403 16:14:37.013682 20860 net.cpp:148] Top shape: 24 64 28 28 (1204224)
I0403 16:14:37.013700 20860 net.cpp:156] Memory required for data: 768295968
I0403 16:14:37.013718 20860 layer_factory.hpp:77] Creating layer inception_3b/relu_pool_proj
I0403 16:14:37.013736 20860 net.cpp:91] Creating Layer inception_3b/relu_pool_proj
I0403 16:14:37.013753 20860 net.cpp:425] inception_3b/relu_pool_proj <- inception_3b/pool_proj
I0403 16:14:37.013774 20860 net.cpp:386] inception_3b/relu_pool_proj -> inception_3b/pool_proj (in-place)
I0403 16:14:37.014190 20860 net.cpp:141] Setting up inception_3b/relu_pool_proj
I0403 16:14:37.014222 20860 net.cpp:148] Top shape: 24 64 28 28 (1204224)
I0403 16:14:37.014238 20860 net.cpp:156] Memory required for data: 773112864
I0403 16:14:37.014255 20860 layer_factory.hpp:77] Creating layer inception_3b/output
I0403 16:14:37.014271 20860 net.cpp:91] Creating Layer inception_3b/output
I0403 16:14:37.014287 20860 net.cpp:425] inception_3b/output <- inception_3b/1x1
I0403 16:14:37.014305 20860 net.cpp:425] inception_3b/output <- inception_3b/3x3
I0403 16:14:37.014322 20860 net.cpp:425] inception_3b/output <- inception_3b/5x5
I0403 16:14:37.014338 20860 net.cpp:425] inception_3b/output <- inception_3b/pool_proj
I0403 16:14:37.014355 20860 net.cpp:399] inception_3b/output -> inception_3b/output
I0403 16:14:37.014403 20860 net.cpp:141] Setting up inception_3b/output
I0403 16:14:37.014427 20860 net.cpp:148] Top shape: 24 480 28 28 (9031680)
I0403 16:14:37.014442 20860 net.cpp:156] Memory required for data: 809239584
I0403 16:14:37.014457 20860 layer_factory.hpp:77] Creating layer pool3/3x3_s2
I0403 16:14:37.014477 20860 net.cpp:91] Creating Layer pool3/3x3_s2
I0403 16:14:37.014494 20860 net.cpp:425] pool3/3x3_s2 <- inception_3b/output
I0403 16:14:37.014513 20860 net.cpp:399] pool3/3x3_s2 -> pool3/3x3_s2
I0403 16:14:37.014590 20860 net.cpp:141] Setting up pool3/3x3_s2
I0403 16:14:37.014613 20860 net.cpp:148] Top shape: 24 480 14 14 (2257920)
I0403 16:14:37.014628 20860 net.cpp:156] Memory required for data: 818271264
I0403 16:14:37.014643 20860 layer_factory.hpp:77] Creating layer pool3/3x3_s2_pool3/3x3_s2_0_split
I0403 16:14:37.014660 20860 net.cpp:91] Creating Layer pool3/3x3_s2_pool3/3x3_s2_0_split
I0403 16:14:37.014675 20860 net.cpp:425] pool3/3x3_s2_pool3/3x3_s2_0_split <- pool3/3x3_s2
I0403 16:14:37.014696 20860 net.cpp:399] pool3/3x3_s2_pool3/3x3_s2_0_split -> pool3/3x3_s2_pool3/3x3_s2_0_split_0
I0403 16:14:37.014717 20860 net.cpp:399] pool3/3x3_s2_pool3/3x3_s2_0_split -> pool3/3x3_s2_pool3/3x3_s2_0_split_1
I0403 16:14:37.014739 20860 net.cpp:399] pool3/3x3_s2_pool3/3x3_s2_0_split -> pool3/3x3_s2_pool3/3x3_s2_0_split_2
I0403 16:14:37.014757 20860 net.cpp:399] pool3/3x3_s2_pool3/3x3_s2_0_split -> pool3/3x3_s2_pool3/3x3_s2_0_split_3
I0403 16:14:37.014839 20860 net.cpp:141] Setting up pool3/3x3_s2_pool3/3x3_s2_0_split
I0403 16:14:37.014865 20860 net.cpp:148] Top shape: 24 480 14 14 (2257920)
I0403 16:14:37.014883 20860 net.cpp:148] Top shape: 24 480 14 14 (2257920)
I0403 16:14:37.014899 20860 net.cpp:148] Top shape: 24 480 14 14 (2257920)
I0403 16:14:37.014914 20860 net.cpp:148] Top shape: 24 480 14 14 (2257920)
I0403 16:14:37.014928 20860 net.cpp:156] Memory required for data: 854397984
I0403 16:14:37.014943 20860 layer_factory.hpp:77] Creating layer inception_4a/1x1
I0403 16:14:37.014971 20860 net.cpp:91] Creating Layer inception_4a/1x1
I0403 16:14:37.014991 20860 net.cpp:425] inception_4a/1x1 <- pool3/3x3_s2_pool3/3x3_s2_0_split_0
I0403 16:14:37.015009 20860 net.cpp:399] inception_4a/1x1 -> inception_4a/1x1
I0403 16:14:37.016659 20860 net.cpp:141] Setting up inception_4a/1x1
I0403 16:14:37.016690 20860 net.cpp:148] Top shape: 24 192 14 14 (903168)
I0403 16:14:37.016707 20860 net.cpp:156] Memory required for data: 858010656
I0403 16:14:37.016727 20860 layer_factory.hpp:77] Creating layer inception_4a/relu_1x1
I0403 16:14:37.016746 20860 net.cpp:91] Creating Layer inception_4a/relu_1x1
I0403 16:14:37.016762 20860 net.cpp:425] inception_4a/relu_1x1 <- inception_4a/1x1
I0403 16:14:37.016782 20860 net.cpp:386] inception_4a/relu_1x1 -> inception_4a/1x1 (in-place)
I0403 16:14:37.016971 20860 net.cpp:141] Setting up inception_4a/relu_1x1
I0403 16:14:37.016998 20860 net.cpp:148] Top shape: 24 192 14 14 (903168)
I0403 16:14:37.017012 20860 net.cpp:156] Memory required for data: 861623328
I0403 16:14:37.017029 20860 layer_factory.hpp:77] Creating layer inception_4a/3x3_reduce
I0403 16:14:37.017051 20860 net.cpp:91] Creating Layer inception_4a/3x3_reduce
I0403 16:14:37.017069 20860 net.cpp:425] inception_4a/3x3_reduce <- pool3/3x3_s2_pool3/3x3_s2_0_split_1
I0403 16:14:37.017091 20860 net.cpp:399] inception_4a/3x3_reduce -> inception_4a/3x3_reduce
I0403 16:14:37.018445 20860 net.cpp:141] Setting up inception_4a/3x3_reduce
I0403 16:14:37.018473 20860 net.cpp:148] Top shape: 24 96 14 14 (451584)
I0403 16:14:37.018489 20860 net.cpp:156] Memory required for data: 863429664
I0403 16:14:37.018513 20860 layer_factory.hpp:77] Creating layer inception_4a/relu_3x3_reduce
I0403 16:14:37.018535 20860 net.cpp:91] Creating Layer inception_4a/relu_3x3_reduce
I0403 16:14:37.018553 20860 net.cpp:425] inception_4a/relu_3x3_reduce <- inception_4a/3x3_reduce
I0403 16:14:37.018571 20860 net.cpp:386] inception_4a/relu_3x3_reduce -> inception_4a/3x3_reduce (in-place)
I0403 16:14:37.018761 20860 net.cpp:141] Setting up inception_4a/relu_3x3_reduce
I0403 16:14:37.018787 20860 net.cpp:148] Top shape: 24 96 14 14 (451584)
I0403 16:14:37.018802 20860 net.cpp:156] Memory required for data: 865236000
I0403 16:14:37.018817 20860 layer_factory.hpp:77] Creating layer inception_4a/3x3
I0403 16:14:37.018841 20860 net.cpp:91] Creating Layer inception_4a/3x3
I0403 16:14:37.018859 20860 net.cpp:425] inception_4a/3x3 <- inception_4a/3x3_reduce
I0403 16:14:37.018882 20860 net.cpp:399] inception_4a/3x3 -> inception_4a/3x3
I0403 16:14:37.021705 20860 net.cpp:141] Setting up inception_4a/3x3
I0403 16:14:37.021734 20860 net.cpp:148] Top shape: 24 208 14 14 (978432)
I0403 16:14:37.021751 20860 net.cpp:156] Memory required for data: 869149728
I0403 16:14:37.021770 20860 layer_factory.hpp:77] Creating layer inception_4a/relu_3x3
I0403 16:14:37.021791 20860 net.cpp:91] Creating Layer inception_4a/relu_3x3
I0403 16:14:37.021808 20860 net.cpp:425] inception_4a/relu_3x3 <- inception_4a/3x3
I0403 16:14:37.021826 20860 net.cpp:386] inception_4a/relu_3x3 -> inception_4a/3x3 (in-place)
I0403 16:14:37.022125 20860 net.cpp:141] Setting up inception_4a/relu_3x3
I0403 16:14:37.022153 20860 net.cpp:148] Top shape: 24 208 14 14 (978432)
I0403 16:14:37.022169 20860 net.cpp:156] Memory required for data: 873063456
I0403 16:14:37.022184 20860 layer_factory.hpp:77] Creating layer inception_4a/5x5_reduce
I0403 16:14:37.022207 20860 net.cpp:91] Creating Layer inception_4a/5x5_reduce
I0403 16:14:37.022225 20860 net.cpp:425] inception_4a/5x5_reduce <- pool3/3x3_s2_pool3/3x3_s2_0_split_2
I0403 16:14:37.022249 20860 net.cpp:399] inception_4a/5x5_reduce -> inception_4a/5x5_reduce
I0403 16:14:37.023334 20860 net.cpp:141] Setting up inception_4a/5x5_reduce
I0403 16:14:37.023362 20860 net.cpp:148] Top shape: 24 16 14 14 (75264)
I0403 16:14:37.023378 20860 net.cpp:156] Memory required for data: 873364512
I0403 16:14:37.023397 20860 layer_factory.hpp:77] Creating layer inception_4a/relu_5x5_reduce
I0403 16:14:37.023418 20860 net.cpp:91] Creating Layer inception_4a/relu_5x5_reduce
I0403 16:14:37.023437 20860 net.cpp:425] inception_4a/relu_5x5_reduce <- inception_4a/5x5_reduce
I0403 16:14:37.023454 20860 net.cpp:386] inception_4a/relu_5x5_reduce -> inception_4a/5x5_reduce (in-place)
I0403 16:14:37.023643 20860 net.cpp:141] Setting up inception_4a/relu_5x5_reduce
I0403 16:14:37.023670 20860 net.cpp:148] Top shape: 24 16 14 14 (75264)
I0403 16:14:37.023686 20860 net.cpp:156] Memory required for data: 873665568
I0403 16:14:37.023701 20860 layer_factory.hpp:77] Creating layer inception_4a/5x5
I0403 16:14:37.023723 20860 net.cpp:91] Creating Layer inception_4a/5x5
I0403 16:14:37.023741 20860 net.cpp:425] inception_4a/5x5 <- inception_4a/5x5_reduce
I0403 16:14:37.023761 20860 net.cpp:399] inception_4a/5x5 -> inception_4a/5x5
I0403 16:14:37.024912 20860 net.cpp:141] Setting up inception_4a/5x5
I0403 16:14:37.024943 20860 net.cpp:148] Top shape: 24 48 14 14 (225792)
I0403 16:14:37.024966 20860 net.cpp:156] Memory required for data: 874568736
I0403 16:14:37.024984 20860 layer_factory.hpp:77] Creating layer inception_4a/relu_5x5
I0403 16:14:37.025003 20860 net.cpp:91] Creating Layer inception_4a/relu_5x5
I0403 16:14:37.025019 20860 net.cpp:425] inception_4a/relu_5x5 <- inception_4a/5x5
I0403 16:14:37.025038 20860 net.cpp:386] inception_4a/relu_5x5 -> inception_4a/5x5 (in-place)
I0403 16:14:37.025229 20860 net.cpp:141] Setting up inception_4a/relu_5x5
I0403 16:14:37.025255 20860 net.cpp:148] Top shape: 24 48 14 14 (225792)
I0403 16:14:37.025269 20860 net.cpp:156] Memory required for data: 875471904
I0403 16:14:37.025285 20860 layer_factory.hpp:77] Creating layer inception_4a/pool
I0403 16:14:37.025303 20860 net.cpp:91] Creating Layer inception_4a/pool
I0403 16:14:37.025320 20860 net.cpp:425] inception_4a/pool <- pool3/3x3_s2_pool3/3x3_s2_0_split_3
I0403 16:14:37.025339 20860 net.cpp:399] inception_4a/pool -> inception_4a/pool
I0403 16:14:37.025403 20860 net.cpp:141] Setting up inception_4a/pool
I0403 16:14:37.025430 20860 net.cpp:148] Top shape: 24 480 14 14 (2257920)
I0403 16:14:37.025446 20860 net.cpp:156] Memory required for data: 884503584
I0403 16:14:37.025460 20860 layer_factory.hpp:77] Creating layer inception_4a/pool_proj
I0403 16:14:37.025483 20860 net.cpp:91] Creating Layer inception_4a/pool_proj
I0403 16:14:37.025501 20860 net.cpp:425] inception_4a/pool_proj <- inception_4a/pool
I0403 16:14:37.025521 20860 net.cpp:399] inception_4a/pool_proj -> inception_4a/pool_proj
I0403 16:14:37.026752 20860 net.cpp:141] Setting up inception_4a/pool_proj
I0403 16:14:37.026783 20860 net.cpp:148] Top shape: 24 64 14 14 (301056)
I0403 16:14:37.026814 20860 net.cpp:156] Memory required for data: 885707808
I0403 16:14:37.026835 20860 layer_factory.hpp:77] Creating layer inception_4a/relu_pool_proj
I0403 16:14:37.026854 20860 net.cpp:91] Creating Layer inception_4a/relu_pool_proj
I0403 16:14:37.026870 20860 net.cpp:425] inception_4a/relu_pool_proj <- inception_4a/pool_proj
I0403 16:14:37.026891 20860 net.cpp:386] inception_4a/relu_pool_proj -> inception_4a/pool_proj (in-place)
I0403 16:14:37.027194 20860 net.cpp:141] Setting up inception_4a/relu_pool_proj
I0403 16:14:37.027223 20860 net.cpp:148] Top shape: 24 64 14 14 (301056)
I0403 16:14:37.027240 20860 net.cpp:156] Memory required for data: 886912032
I0403 16:14:37.027256 20860 layer_factory.hpp:77] Creating layer inception_4a/output
I0403 16:14:37.027273 20860 net.cpp:91] Creating Layer inception_4a/output
I0403 16:14:37.027290 20860 net.cpp:425] inception_4a/output <- inception_4a/1x1
I0403 16:14:37.027307 20860 net.cpp:425] inception_4a/output <- inception_4a/3x3
I0403 16:14:37.027324 20860 net.cpp:425] inception_4a/output <- inception_4a/5x5
I0403 16:14:37.027341 20860 net.cpp:425] inception_4a/output <- inception_4a/pool_proj
I0403 16:14:37.027359 20860 net.cpp:399] inception_4a/output -> inception_4a/output
I0403 16:14:37.027407 20860 net.cpp:141] Setting up inception_4a/output
I0403 16:14:37.027432 20860 net.cpp:148] Top shape: 24 512 14 14 (2408448)
I0403 16:14:37.027447 20860 net.cpp:156] Memory required for data: 896545824
I0403 16:14:37.027462 20860 layer_factory.hpp:77] Creating layer inception_4a/output_inception_4a/output_0_split
I0403 16:14:37.027483 20860 net.cpp:91] Creating Layer inception_4a/output_inception_4a/output_0_split
I0403 16:14:37.027499 20860 net.cpp:425] inception_4a/output_inception_4a/output_0_split <- inception_4a/output
I0403 16:14:37.027518 20860 net.cpp:399] inception_4a/output_inception_4a/output_0_split -> inception_4a/output_inception_4a/output_0_split_0
I0403 16:14:37.027539 20860 net.cpp:399] inception_4a/output_inception_4a/output_0_split -> inception_4a/output_inception_4a/output_0_split_1
I0403 16:14:37.027562 20860 net.cpp:399] inception_4a/output_inception_4a/output_0_split -> inception_4a/output_inception_4a/output_0_split_2
I0403 16:14:37.027585 20860 net.cpp:399] inception_4a/output_inception_4a/output_0_split -> inception_4a/output_inception_4a/output_0_split_3
I0403 16:14:37.027606 20860 net.cpp:399] inception_4a/output_inception_4a/output_0_split -> inception_4a/output_inception_4a/output_0_split_4
I0403 16:14:37.027700 20860 net.cpp:141] Setting up inception_4a/output_inception_4a/output_0_split
I0403 16:14:37.027725 20860 net.cpp:148] Top shape: 24 512 14 14 (2408448)
I0403 16:14:37.027741 20860 net.cpp:148] Top shape: 24 512 14 14 (2408448)
I0403 16:14:37.027757 20860 net.cpp:148] Top shape: 24 512 14 14 (2408448)
I0403 16:14:37.027773 20860 net.cpp:148] Top shape: 24 512 14 14 (2408448)
I0403 16:14:37.027789 20860 net.cpp:148] Top shape: 24 512 14 14 (2408448)
I0403 16:14:37.027803 20860 net.cpp:156] Memory required for data: 944714784
I0403 16:14:37.027818 20860 layer_factory.hpp:77] Creating layer loss1/ave_pool
I0403 16:14:37.027839 20860 net.cpp:91] Creating Layer loss1/ave_pool
I0403 16:14:37.027856 20860 net.cpp:425] loss1/ave_pool <- inception_4a/output_inception_4a/output_0_split_0
I0403 16:14:37.027874 20860 net.cpp:399] loss1/ave_pool -> loss1/ave_pool
I0403 16:14:37.028112 20860 net.cpp:141] Setting up loss1/ave_pool
I0403 16:14:37.028139 20860 net.cpp:148] Top shape: 24 512 4 4 (196608)
I0403 16:14:37.028156 20860 net.cpp:156] Memory required for data: 945501216
I0403 16:14:37.028170 20860 layer_factory.hpp:77] Creating layer loss1/conv
I0403 16:14:37.028193 20860 net.cpp:91] Creating Layer loss1/conv
I0403 16:14:37.028211 20860 net.cpp:425] loss1/conv <- loss1/ave_pool
I0403 16:14:37.028234 20860 net.cpp:399] loss1/conv -> loss1/conv
I0403 16:14:37.029744 20860 net.cpp:141] Setting up loss1/conv
I0403 16:14:37.029773 20860 net.cpp:148] Top shape: 24 128 4 4 (49152)
I0403 16:14:37.029791 20860 net.cpp:156] Memory required for data: 945697824
I0403 16:14:37.029826 20860 layer_factory.hpp:77] Creating layer loss1/relu_conv
I0403 16:14:37.029850 20860 net.cpp:91] Creating Layer loss1/relu_conv
I0403 16:14:37.029867 20860 net.cpp:425] loss1/relu_conv <- loss1/conv
I0403 16:14:37.029884 20860 net.cpp:386] loss1/relu_conv -> loss1/conv (in-place)
I0403 16:14:37.030189 20860 net.cpp:141] Setting up loss1/relu_conv
I0403 16:14:37.030218 20860 net.cpp:148] Top shape: 24 128 4 4 (49152)
I0403 16:14:37.030233 20860 net.cpp:156] Memory required for data: 945894432
I0403 16:14:37.030249 20860 layer_factory.hpp:77] Creating layer loss1/fc
I0403 16:14:37.030275 20860 net.cpp:91] Creating Layer loss1/fc
I0403 16:14:37.030294 20860 net.cpp:425] loss1/fc <- loss1/conv
I0403 16:14:37.030313 20860 net.cpp:399] loss1/fc -> loss1/fc
I0403 16:14:37.049065 20860 net.cpp:141] Setting up loss1/fc
I0403 16:14:37.049110 20860 net.cpp:148] Top shape: 24 1024 (24576)
I0403 16:14:37.049126 20860 net.cpp:156] Memory required for data: 945992736
I0403 16:14:37.049145 20860 layer_factory.hpp:77] Creating layer loss1/relu_fc
I0403 16:14:37.049165 20860 net.cpp:91] Creating Layer loss1/relu_fc
I0403 16:14:37.049182 20860 net.cpp:425] loss1/relu_fc <- loss1/fc
I0403 16:14:37.049203 20860 net.cpp:386] loss1/relu_fc -> loss1/fc (in-place)
I0403 16:14:37.049407 20860 net.cpp:141] Setting up loss1/relu_fc
I0403 16:14:37.049432 20860 net.cpp:148] Top shape: 24 1024 (24576)
I0403 16:14:37.049448 20860 net.cpp:156] Memory required for data: 946091040
I0403 16:14:37.049463 20860 layer_factory.hpp:77] Creating layer loss1/drop_fc
I0403 16:14:37.049497 20860 net.cpp:91] Creating Layer loss1/drop_fc
I0403 16:14:37.049516 20860 net.cpp:425] loss1/drop_fc <- loss1/fc
I0403 16:14:37.049535 20860 net.cpp:386] loss1/drop_fc -> loss1/fc (in-place)
I0403 16:14:37.049587 20860 net.cpp:141] Setting up loss1/drop_fc
I0403 16:14:37.049610 20860 net.cpp:148] Top shape: 24 1024 (24576)
I0403 16:14:37.049626 20860 net.cpp:156] Memory required for data: 946189344
I0403 16:14:37.049641 20860 layer_factory.hpp:77] Creating layer loss1/classifier_plantvillage
I0403 16:14:37.049664 20860 net.cpp:91] Creating Layer loss1/classifier_plantvillage
I0403 16:14:37.049681 20860 net.cpp:425] loss1/classifier_plantvillage <- loss1/fc
I0403 16:14:37.049702 20860 net.cpp:399] loss1/classifier_plantvillage -> loss1/classifier_plantvillage
I0403 16:14:37.050657 20860 net.cpp:141] Setting up loss1/classifier_plantvillage
I0403 16:14:37.050686 20860 net.cpp:148] Top shape: 24 38 (912)
I0403 16:14:37.050703 20860 net.cpp:156] Memory required for data: 946192992
I0403 16:14:37.050721 20860 layer_factory.hpp:77] Creating layer loss1/classifier_plantvillage_loss1/classifier_plantvillage_0_split
I0403 16:14:37.050740 20860 net.cpp:91] Creating Layer loss1/classifier_plantvillage_loss1/classifier_plantvillage_0_split
I0403 16:14:37.050755 20860 net.cpp:425] loss1/classifier_plantvillage_loss1/classifier_plantvillage_0_split <- loss1/classifier_plantvillage
I0403 16:14:37.050776 20860 net.cpp:399] loss1/classifier_plantvillage_loss1/classifier_plantvillage_0_split -> loss1/classifier_plantvillage_loss1/classifier_plantvillage_0_split_0
I0403 16:14:37.050798 20860 net.cpp:399] loss1/classifier_plantvillage_loss1/classifier_plantvillage_0_split -> loss1/classifier_plantvillage_loss1/classifier_plantvillage_0_split_1
I0403 16:14:37.050818 20860 net.cpp:399] loss1/classifier_plantvillage_loss1/classifier_plantvillage_0_split -> loss1/classifier_plantvillage_loss1/classifier_plantvillage_0_split_2
I0403 16:14:37.050887 20860 net.cpp:141] Setting up loss1/classifier_plantvillage_loss1/classifier_plantvillage_0_split
I0403 16:14:37.050914 20860 net.cpp:148] Top shape: 24 38 (912)
I0403 16:14:37.050931 20860 net.cpp:148] Top shape: 24 38 (912)
I0403 16:14:37.050947 20860 net.cpp:148] Top shape: 24 38 (912)
I0403 16:14:37.050966 20860 net.cpp:156] Memory required for data: 946203936
I0403 16:14:37.050981 20860 layer_factory.hpp:77] Creating layer inception_4b/1x1
I0403 16:14:37.051002 20860 net.cpp:91] Creating Layer inception_4b/1x1
I0403 16:14:37.051039 20860 net.cpp:425] inception_4b/1x1 <- inception_4a/output_inception_4a/output_0_split_1
I0403 16:14:37.051060 20860 net.cpp:399] inception_4b/1x1 -> inception_4b/1x1
I0403 16:14:37.052815 20860 net.cpp:141] Setting up inception_4b/1x1
I0403 16:14:37.052845 20860 net.cpp:148] Top shape: 24 160 14 14 (752640)
I0403 16:14:37.052862 20860 net.cpp:156] Memory required for data: 949214496
I0403 16:14:37.052881 20860 layer_factory.hpp:77] Creating layer inception_4b/relu_1x1
I0403 16:14:37.052902 20860 net.cpp:91] Creating Layer inception_4b/relu_1x1
I0403 16:14:37.052919 20860 net.cpp:425] inception_4b/relu_1x1 <- inception_4b/1x1
I0403 16:14:37.052937 20860 net.cpp:386] inception_4b/relu_1x1 -> inception_4b/1x1 (in-place)
I0403 16:14:37.053131 20860 net.cpp:141] Setting up inception_4b/relu_1x1
I0403 16:14:37.053158 20860 net.cpp:148] Top shape: 24 160 14 14 (752640)
I0403 16:14:37.053172 20860 net.cpp:156] Memory required for data: 952225056
I0403 16:14:37.053187 20860 layer_factory.hpp:77] Creating layer inception_4b/3x3_reduce
I0403 16:14:37.053215 20860 net.cpp:91] Creating Layer inception_4b/3x3_reduce
I0403 16:14:37.053232 20860 net.cpp:425] inception_4b/3x3_reduce <- inception_4a/output_inception_4a/output_0_split_2
I0403 16:14:37.053252 20860 net.cpp:399] inception_4b/3x3_reduce -> inception_4b/3x3_reduce
I0403 16:14:37.054708 20860 net.cpp:141] Setting up inception_4b/3x3_reduce
I0403 16:14:37.054736 20860 net.cpp:148] Top shape: 24 112 14 14 (526848)
I0403 16:14:37.054752 20860 net.cpp:156] Memory required for data: 954332448
I0403 16:14:37.054770 20860 layer_factory.hpp:77] Creating layer inception_4b/relu_3x3_reduce
I0403 16:14:37.054793 20860 net.cpp:91] Creating Layer inception_4b/relu_3x3_reduce
I0403 16:14:37.054811 20860 net.cpp:425] inception_4b/relu_3x3_reduce <- inception_4b/3x3_reduce
I0403 16:14:37.054828 20860 net.cpp:386] inception_4b/relu_3x3_reduce -> inception_4b/3x3_reduce (in-place)
I0403 16:14:37.055136 20860 net.cpp:141] Setting up inception_4b/relu_3x3_reduce
I0403 16:14:37.055165 20860 net.cpp:148] Top shape: 24 112 14 14 (526848)
I0403 16:14:37.055181 20860 net.cpp:156] Memory required for data: 956439840
I0403 16:14:37.055196 20860 layer_factory.hpp:77] Creating layer inception_4b/3x3
I0403 16:14:37.055222 20860 net.cpp:91] Creating Layer inception_4b/3x3
I0403 16:14:37.055239 20860 net.cpp:425] inception_4b/3x3 <- inception_4b/3x3_reduce
I0403 16:14:37.055259 20860 net.cpp:399] inception_4b/3x3 -> inception_4b/3x3
I0403 16:14:37.058413 20860 net.cpp:141] Setting up inception_4b/3x3
I0403 16:14:37.058444 20860 net.cpp:148] Top shape: 24 224 14 14 (1053696)
I0403 16:14:37.058461 20860 net.cpp:156] Memory required for data: 960654624
I0403 16:14:37.058480 20860 layer_factory.hpp:77] Creating layer inception_4b/relu_3x3
I0403 16:14:37.058500 20860 net.cpp:91] Creating Layer inception_4b/relu_3x3
I0403 16:14:37.058516 20860 net.cpp:425] inception_4b/relu_3x3 <- inception_4b/3x3
I0403 16:14:37.058537 20860 net.cpp:386] inception_4b/relu_3x3 -> inception_4b/3x3 (in-place)
I0403 16:14:37.058730 20860 net.cpp:141] Setting up inception_4b/relu_3x3
I0403 16:14:37.058756 20860 net.cpp:148] Top shape: 24 224 14 14 (1053696)
I0403 16:14:37.058771 20860 net.cpp:156] Memory required for data: 964869408
I0403 16:14:37.058786 20860 layer_factory.hpp:77] Creating layer inception_4b/5x5_reduce
I0403 16:14:37.058809 20860 net.cpp:91] Creating Layer inception_4b/5x5_reduce
I0403 16:14:37.058827 20860 net.cpp:425] inception_4b/5x5_reduce <- inception_4a/output_inception_4a/output_0_split_3
I0403 16:14:37.058851 20860 net.cpp:399] inception_4b/5x5_reduce -> inception_4b/5x5_reduce
I0403 16:14:37.060016 20860 net.cpp:141] Setting up inception_4b/5x5_reduce
I0403 16:14:37.060045 20860 net.cpp:148] Top shape: 24 24 14 14 (112896)
I0403 16:14:37.060062 20860 net.cpp:156] Memory required for data: 965320992
I0403 16:14:37.060081 20860 layer_factory.hpp:77] Creating layer inception_4b/relu_5x5_reduce
I0403 16:14:37.060101 20860 net.cpp:91] Creating Layer inception_4b/relu_5x5_reduce
I0403 16:14:37.060133 20860 net.cpp:425] inception_4b/relu_5x5_reduce <- inception_4b/5x5_reduce
I0403 16:14:37.060153 20860 net.cpp:386] inception_4b/relu_5x5_reduce -> inception_4b/5x5_reduce (in-place)
I0403 16:14:37.060345 20860 net.cpp:141] Setting up inception_4b/relu_5x5_reduce
I0403 16:14:37.060374 20860 net.cpp:148] Top shape: 24 24 14 14 (112896)
I0403 16:14:37.060390 20860 net.cpp:156] Memory required for data: 965772576
I0403 16:14:37.060406 20860 layer_factory.hpp:77] Creating layer inception_4b/5x5
I0403 16:14:37.060430 20860 net.cpp:91] Creating Layer inception_4b/5x5
I0403 16:14:37.060447 20860 net.cpp:425] inception_4b/5x5 <- inception_4b/5x5_reduce
I0403 16:14:37.060467 20860 net.cpp:399] inception_4b/5x5 -> inception_4b/5x5
I0403 16:14:37.061764 20860 net.cpp:141] Setting up inception_4b/5x5
I0403 16:14:37.061794 20860 net.cpp:148] Top shape: 24 64 14 14 (301056)
I0403 16:14:37.061810 20860 net.cpp:156] Memory required for data: 966976800
I0403 16:14:37.061830 20860 layer_factory.hpp:77] Creating layer inception_4b/relu_5x5
I0403 16:14:37.061852 20860 net.cpp:91] Creating Layer inception_4b/relu_5x5
I0403 16:14:37.061871 20860 net.cpp:425] inception_4b/relu_5x5 <- inception_4b/5x5
I0403 16:14:37.061888 20860 net.cpp:386] inception_4b/relu_5x5 -> inception_4b/5x5 (in-place)
I0403 16:14:37.062197 20860 net.cpp:141] Setting up inception_4b/relu_5x5
I0403 16:14:37.062227 20860 net.cpp:148] Top shape: 24 64 14 14 (301056)
I0403 16:14:37.062242 20860 net.cpp:156] Memory required for data: 968181024
I0403 16:14:37.062258 20860 layer_factory.hpp:77] Creating layer inception_4b/pool
I0403 16:14:37.062278 20860 net.cpp:91] Creating Layer inception_4b/pool
I0403 16:14:37.062295 20860 net.cpp:425] inception_4b/pool <- inception_4a/output_inception_4a/output_0_split_4
I0403 16:14:37.062314 20860 net.cpp:399] inception_4b/pool -> inception_4b/pool
I0403 16:14:37.062382 20860 net.cpp:141] Setting up inception_4b/pool
I0403 16:14:37.062408 20860 net.cpp:148] Top shape: 24 512 14 14 (2408448)
I0403 16:14:37.062423 20860 net.cpp:156] Memory required for data: 977814816
I0403 16:14:37.062438 20860 layer_factory.hpp:77] Creating layer inception_4b/pool_proj
I0403 16:14:37.062460 20860 net.cpp:91] Creating Layer inception_4b/pool_proj
I0403 16:14:37.062479 20860 net.cpp:425] inception_4b/pool_proj <- inception_4b/pool
I0403 16:14:37.062501 20860 net.cpp:399] inception_4b/pool_proj -> inception_4b/pool_proj
I0403 16:14:37.063803 20860 net.cpp:141] Setting up inception_4b/pool_proj
I0403 16:14:37.063833 20860 net.cpp:148] Top shape: 24 64 14 14 (301056)
I0403 16:14:37.063850 20860 net.cpp:156] Memory required for data: 979019040
I0403 16:14:37.063869 20860 layer_factory.hpp:77] Creating layer inception_4b/relu_pool_proj
I0403 16:14:37.063892 20860 net.cpp:91] Creating Layer inception_4b/relu_pool_proj
I0403 16:14:37.063910 20860 net.cpp:425] inception_4b/relu_pool_proj <- inception_4b/pool_proj
I0403 16:14:37.063928 20860 net.cpp:386] inception_4b/relu_pool_proj -> inception_4b/pool_proj (in-place)
I0403 16:14:37.064126 20860 net.cpp:141] Setting up inception_4b/relu_pool_proj
I0403 16:14:37.064155 20860 net.cpp:148] Top shape: 24 64 14 14 (301056)
I0403 16:14:37.064172 20860 net.cpp:156] Memory required for data: 980223264
I0403 16:14:37.064188 20860 layer_factory.hpp:77] Creating layer inception_4b/output
I0403 16:14:37.064205 20860 net.cpp:91] Creating Layer inception_4b/output
I0403 16:14:37.064221 20860 net.cpp:425] inception_4b/output <- inception_4b/1x1
I0403 16:14:37.064239 20860 net.cpp:425] inception_4b/output <- inception_4b/3x3
I0403 16:14:37.064255 20860 net.cpp:425] inception_4b/output <- inception_4b/5x5
I0403 16:14:37.064271 20860 net.cpp:425] inception_4b/output <- inception_4b/pool_proj
I0403 16:14:37.064291 20860 net.cpp:399] inception_4b/output -> inception_4b/output
I0403 16:14:37.064339 20860 net.cpp:141] Setting up inception_4b/output
I0403 16:14:37.064364 20860 net.cpp:148] Top shape: 24 512 14 14 (2408448)
I0403 16:14:37.064379 20860 net.cpp:156] Memory required for data: 989857056
I0403 16:14:37.064409 20860 layer_factory.hpp:77] Creating layer inception_4b/output_inception_4b/output_0_split
I0403 16:14:37.064430 20860 net.cpp:91] Creating Layer inception_4b/output_inception_4b/output_0_split
I0403 16:14:37.064447 20860 net.cpp:425] inception_4b/output_inception_4b/output_0_split <- inception_4b/output
I0403 16:14:37.064466 20860 net.cpp:399] inception_4b/output_inception_4b/output_0_split -> inception_4b/output_inception_4b/output_0_split_0
I0403 16:14:37.064487 20860 net.cpp:399] inception_4b/output_inception_4b/output_0_split -> inception_4b/output_inception_4b/output_0_split_1
I0403 16:14:37.064507 20860 net.cpp:399] inception_4b/output_inception_4b/output_0_split -> inception_4b/output_inception_4b/output_0_split_2
I0403 16:14:37.064532 20860 net.cpp:399] inception_4b/output_inception_4b/output_0_split -> inception_4b/output_inception_4b/output_0_split_3
I0403 16:14:37.064621 20860 net.cpp:141] Setting up inception_4b/output_inception_4b/output_0_split
I0403 16:14:37.064646 20860 net.cpp:148] Top shape: 24 512 14 14 (2408448)
I0403 16:14:37.064662 20860 net.cpp:148] Top shape: 24 512 14 14 (2408448)
I0403 16:14:37.064679 20860 net.cpp:148] Top shape: 24 512 14 14 (2408448)
I0403 16:14:37.064695 20860 net.cpp:148] Top shape: 24 512 14 14 (2408448)
I0403 16:14:37.064709 20860 net.cpp:156] Memory required for data: 1028392224
I0403 16:14:37.064724 20860 layer_factory.hpp:77] Creating layer inception_4c/1x1
I0403 16:14:37.064748 20860 net.cpp:91] Creating Layer inception_4c/1x1
I0403 16:14:37.064765 20860 net.cpp:425] inception_4c/1x1 <- inception_4b/output_inception_4b/output_0_split_0
I0403 16:14:37.064787 20860 net.cpp:399] inception_4c/1x1 -> inception_4c/1x1
I0403 16:14:37.066319 20860 net.cpp:141] Setting up inception_4c/1x1
I0403 16:14:37.066352 20860 net.cpp:148] Top shape: 24 128 14 14 (602112)
I0403 16:14:37.066370 20860 net.cpp:156] Memory required for data: 1030800672
I0403 16:14:37.066388 20860 layer_factory.hpp:77] Creating layer inception_4c/relu_1x1
I0403 16:14:37.066407 20860 net.cpp:91] Creating Layer inception_4c/relu_1x1
I0403 16:14:37.066424 20860 net.cpp:425] inception_4c/relu_1x1 <- inception_4c/1x1
I0403 16:14:37.066445 20860 net.cpp:386] inception_4c/relu_1x1 -> inception_4c/1x1 (in-place)
I0403 16:14:37.066637 20860 net.cpp:141] Setting up inception_4c/relu_1x1
I0403 16:14:37.066663 20860 net.cpp:148] Top shape: 24 128 14 14 (602112)
I0403 16:14:37.066679 20860 net.cpp:156] Memory required for data: 1033209120
I0403 16:14:37.066694 20860 layer_factory.hpp:77] Creating layer inception_4c/3x3_reduce
I0403 16:14:37.066716 20860 net.cpp:91] Creating Layer inception_4c/3x3_reduce
I0403 16:14:37.066735 20860 net.cpp:425] inception_4c/3x3_reduce <- inception_4b/output_inception_4b/output_0_split_1
I0403 16:14:37.066756 20860 net.cpp:399] inception_4c/3x3_reduce -> inception_4c/3x3_reduce
I0403 16:14:37.068815 20860 net.cpp:141] Setting up inception_4c/3x3_reduce
I0403 16:14:37.068846 20860 net.cpp:148] Top shape: 24 128 14 14 (602112)
I0403 16:14:37.068863 20860 net.cpp:156] Memory required for data: 1035617568
I0403 16:14:37.068883 20860 layer_factory.hpp:77] Creating layer inception_4c/relu_3x3_reduce
I0403 16:14:37.068905 20860 net.cpp:91] Creating Layer inception_4c/relu_3x3_reduce
I0403 16:14:37.068922 20860 net.cpp:425] inception_4c/relu_3x3_reduce <- inception_4c/3x3_reduce
I0403 16:14:37.068940 20860 net.cpp:386] inception_4c/relu_3x3_reduce -> inception_4c/3x3_reduce (in-place)
I0403 16:14:37.069264 20860 net.cpp:141] Setting up inception_4c/relu_3x3_reduce
I0403 16:14:37.069293 20860 net.cpp:148] Top shape: 24 128 14 14 (602112)
I0403 16:14:37.069308 20860 net.cpp:156] Memory required for data: 1038026016
I0403 16:14:37.069324 20860 layer_factory.hpp:77] Creating layer inception_4c/3x3
I0403 16:14:37.069347 20860 net.cpp:91] Creating Layer inception_4c/3x3
I0403 16:14:37.069365 20860 net.cpp:425] inception_4c/3x3 <- inception_4c/3x3_reduce
I0403 16:14:37.069388 20860 net.cpp:399] inception_4c/3x3 -> inception_4c/3x3
I0403 16:14:37.073217 20860 net.cpp:141] Setting up inception_4c/3x3
I0403 16:14:37.073261 20860 net.cpp:148] Top shape: 24 256 14 14 (1204224)
I0403 16:14:37.073278 20860 net.cpp:156] Memory required for data: 1042842912
I0403 16:14:37.073312 20860 layer_factory.hpp:77] Creating layer inception_4c/relu_3x3
I0403 16:14:37.073335 20860 net.cpp:91] Creating Layer inception_4c/relu_3x3
I0403 16:14:37.073354 20860 net.cpp:425] inception_4c/relu_3x3 <- inception_4c/3x3
I0403 16:14:37.073371 20860 net.cpp:386] inception_4c/relu_3x3 -> inception_4c/3x3 (in-place)
I0403 16:14:37.073565 20860 net.cpp:141] Setting up inception_4c/relu_3x3
I0403 16:14:37.073591 20860 net.cpp:148] Top shape: 24 256 14 14 (1204224)
I0403 16:14:37.073606 20860 net.cpp:156] Memory required for data: 1047659808
I0403 16:14:37.073622 20860 layer_factory.hpp:77] Creating layer inception_4c/5x5_reduce
I0403 16:14:37.073644 20860 net.cpp:91] Creating Layer inception_4c/5x5_reduce
I0403 16:14:37.073663 20860 net.cpp:425] inception_4c/5x5_reduce <- inception_4b/output_inception_4b/output_0_split_2
I0403 16:14:37.073690 20860 net.cpp:399] inception_4c/5x5_reduce -> inception_4c/5x5_reduce
I0403 16:14:37.074849 20860 net.cpp:141] Setting up inception_4c/5x5_reduce
I0403 16:14:37.074880 20860 net.cpp:148] Top shape: 24 24 14 14 (112896)
I0403 16:14:37.074897 20860 net.cpp:156] Memory required for data: 1048111392
I0403 16:14:37.074914 20860 layer_factory.hpp:77] Creating layer inception_4c/relu_5x5_reduce
I0403 16:14:37.074935 20860 net.cpp:91] Creating Layer inception_4c/relu_5x5_reduce
I0403 16:14:37.074957 20860 net.cpp:425] inception_4c/relu_5x5_reduce <- inception_4c/5x5_reduce
I0403 16:14:37.074977 20860 net.cpp:386] inception_4c/relu_5x5_reduce -> inception_4c/5x5_reduce (in-place)
I0403 16:14:37.075173 20860 net.cpp:141] Setting up inception_4c/relu_5x5_reduce
I0403 16:14:37.075202 20860 net.cpp:148] Top shape: 24 24 14 14 (112896)
I0403 16:14:37.075218 20860 net.cpp:156] Memory required for data: 1048562976
I0403 16:14:37.075233 20860 layer_factory.hpp:77] Creating layer inception_4c/5x5
I0403 16:14:37.075256 20860 net.cpp:91] Creating Layer inception_4c/5x5
I0403 16:14:37.075275 20860 net.cpp:425] inception_4c/5x5 <- inception_4c/5x5_reduce
I0403 16:14:37.075295 20860 net.cpp:399] inception_4c/5x5 -> inception_4c/5x5
I0403 16:14:37.076620 20860 net.cpp:141] Setting up inception_4c/5x5
I0403 16:14:37.076653 20860 net.cpp:148] Top shape: 24 64 14 14 (301056)
I0403 16:14:37.076673 20860 net.cpp:156] Memory required for data: 1049767200
I0403 16:14:37.076691 20860 layer_factory.hpp:77] Creating layer inception_4c/relu_5x5
I0403 16:14:37.076710 20860 net.cpp:91] Creating Layer inception_4c/relu_5x5
I0403 16:14:37.076726 20860 net.cpp:425] inception_4c/relu_5x5 <- inception_4c/5x5
I0403 16:14:37.076747 20860 net.cpp:386] inception_4c/relu_5x5 -> inception_4c/5x5 (in-place)
I0403 16:14:37.077059 20860 net.cpp:141] Setting up inception_4c/relu_5x5
I0403 16:14:37.077088 20860 net.cpp:148] Top shape: 24 64 14 14 (301056)
I0403 16:14:37.077105 20860 net.cpp:156] Memory required for data: 1050971424
I0403 16:14:37.077121 20860 layer_factory.hpp:77] Creating layer inception_4c/pool
I0403 16:14:37.077139 20860 net.cpp:91] Creating Layer inception_4c/pool
I0403 16:14:37.077157 20860 net.cpp:425] inception_4c/pool <- inception_4b/output_inception_4b/output_0_split_3
I0403 16:14:37.077178 20860 net.cpp:399] inception_4c/pool -> inception_4c/pool
I0403 16:14:37.077247 20860 net.cpp:141] Setting up inception_4c/pool
I0403 16:14:37.077272 20860 net.cpp:148] Top shape: 24 512 14 14 (2408448)
I0403 16:14:37.077288 20860 net.cpp:156] Memory required for data: 1060605216
I0403 16:14:37.077302 20860 layer_factory.hpp:77] Creating layer inception_4c/pool_proj
I0403 16:14:37.077325 20860 net.cpp:91] Creating Layer inception_4c/pool_proj
I0403 16:14:37.077343 20860 net.cpp:425] inception_4c/pool_proj <- inception_4c/pool
I0403 16:14:37.077368 20860 net.cpp:399] inception_4c/pool_proj -> inception_4c/pool_proj
I0403 16:14:37.078666 20860 net.cpp:141] Setting up inception_4c/pool_proj
I0403 16:14:37.078696 20860 net.cpp:148] Top shape: 24 64 14 14 (301056)
I0403 16:14:37.078727 20860 net.cpp:156] Memory required for data: 1061809440
I0403 16:14:37.078747 20860 layer_factory.hpp:77] Creating layer inception_4c/relu_pool_proj
I0403 16:14:37.078770 20860 net.cpp:91] Creating Layer inception_4c/relu_pool_proj
I0403 16:14:37.078788 20860 net.cpp:425] inception_4c/relu_pool_proj <- inception_4c/pool_proj
I0403 16:14:37.078805 20860 net.cpp:386] inception_4c/relu_pool_proj -> inception_4c/pool_proj (in-place)
I0403 16:14:37.079015 20860 net.cpp:141] Setting up inception_4c/relu_pool_proj
I0403 16:14:37.079044 20860 net.cpp:148] Top shape: 24 64 14 14 (301056)
I0403 16:14:37.079061 20860 net.cpp:156] Memory required for data: 1063013664
I0403 16:14:37.079076 20860 layer_factory.hpp:77] Creating layer inception_4c/output
I0403 16:14:37.079094 20860 net.cpp:91] Creating Layer inception_4c/output
I0403 16:14:37.079109 20860 net.cpp:425] inception_4c/output <- inception_4c/1x1
I0403 16:14:37.079126 20860 net.cpp:425] inception_4c/output <- inception_4c/3x3
I0403 16:14:37.079144 20860 net.cpp:425] inception_4c/output <- inception_4c/5x5
I0403 16:14:37.079160 20860 net.cpp:425] inception_4c/output <- inception_4c/pool_proj
I0403 16:14:37.079177 20860 net.cpp:399] inception_4c/output -> inception_4c/output
I0403 16:14:37.079228 20860 net.cpp:141] Setting up inception_4c/output
I0403 16:14:37.079253 20860 net.cpp:148] Top shape: 24 512 14 14 (2408448)
I0403 16:14:37.079268 20860 net.cpp:156] Memory required for data: 1072647456
I0403 16:14:37.079283 20860 layer_factory.hpp:77] Creating layer inception_4c/output_inception_4c/output_0_split
I0403 16:14:37.079300 20860 net.cpp:91] Creating Layer inception_4c/output_inception_4c/output_0_split
I0403 16:14:37.079316 20860 net.cpp:425] inception_4c/output_inception_4c/output_0_split <- inception_4c/output
I0403 16:14:37.079336 20860 net.cpp:399] inception_4c/output_inception_4c/output_0_split -> inception_4c/output_inception_4c/output_0_split_0
I0403 16:14:37.079358 20860 net.cpp:399] inception_4c/output_inception_4c/output_0_split -> inception_4c/output_inception_4c/output_0_split_1
I0403 16:14:37.079380 20860 net.cpp:399] inception_4c/output_inception_4c/output_0_split -> inception_4c/output_inception_4c/output_0_split_2
I0403 16:14:37.079402 20860 net.cpp:399] inception_4c/output_inception_4c/output_0_split -> inception_4c/output_inception_4c/output_0_split_3
I0403 16:14:37.079495 20860 net.cpp:141] Setting up inception_4c/output_inception_4c/output_0_split
I0403 16:14:37.079520 20860 net.cpp:148] Top shape: 24 512 14 14 (2408448)
I0403 16:14:37.079537 20860 net.cpp:148] Top shape: 24 512 14 14 (2408448)
I0403 16:14:37.079553 20860 net.cpp:148] Top shape: 24 512 14 14 (2408448)
I0403 16:14:37.079569 20860 net.cpp:148] Top shape: 24 512 14 14 (2408448)
I0403 16:14:37.079583 20860 net.cpp:156] Memory required for data: 1111182624
I0403 16:14:37.079599 20860 layer_factory.hpp:77] Creating layer inception_4d/1x1
I0403 16:14:37.079622 20860 net.cpp:91] Creating Layer inception_4d/1x1
I0403 16:14:37.079639 20860 net.cpp:425] inception_4d/1x1 <- inception_4c/output_inception_4c/output_0_split_0
I0403 16:14:37.079661 20860 net.cpp:399] inception_4d/1x1 -> inception_4d/1x1
I0403 16:14:37.081141 20860 net.cpp:141] Setting up inception_4d/1x1
I0403 16:14:37.081184 20860 net.cpp:148] Top shape: 24 112 14 14 (526848)
I0403 16:14:37.081202 20860 net.cpp:156] Memory required for data: 1113290016
I0403 16:14:37.081221 20860 layer_factory.hpp:77] Creating layer inception_4d/relu_1x1
I0403 16:14:37.081240 20860 net.cpp:91] Creating Layer inception_4d/relu_1x1
I0403 16:14:37.081279 20860 net.cpp:425] inception_4d/relu_1x1 <- inception_4d/1x1
I0403 16:14:37.081298 20860 net.cpp:386] inception_4d/relu_1x1 -> inception_4d/1x1 (in-place)
I0403 16:14:37.081508 20860 net.cpp:141] Setting up inception_4d/relu_1x1
I0403 16:14:37.081535 20860 net.cpp:148] Top shape: 24 112 14 14 (526848)
I0403 16:14:37.081552 20860 net.cpp:156] Memory required for data: 1115397408
I0403 16:14:37.081568 20860 layer_factory.hpp:77] Creating layer inception_4d/3x3_reduce
I0403 16:14:37.081605 20860 net.cpp:91] Creating Layer inception_4d/3x3_reduce
I0403 16:14:37.081625 20860 net.cpp:425] inception_4d/3x3_reduce <- inception_4c/output_inception_4c/output_0_split_1
I0403 16:14:37.081650 20860 net.cpp:399] inception_4d/3x3_reduce -> inception_4d/3x3_reduce
I0403 16:14:37.083282 20860 net.cpp:141] Setting up inception_4d/3x3_reduce
I0403 16:14:37.083315 20860 net.cpp:148] Top shape: 24 144 14 14 (677376)
I0403 16:14:37.083333 20860 net.cpp:156] Memory required for data: 1118106912
I0403 16:14:37.083356 20860 layer_factory.hpp:77] Creating layer inception_4d/relu_3x3_reduce
I0403 16:14:37.083375 20860 net.cpp:91] Creating Layer inception_4d/relu_3x3_reduce
I0403 16:14:37.083394 20860 net.cpp:425] inception_4d/relu_3x3_reduce <- inception_4d/3x3_reduce
I0403 16:14:37.083413 20860 net.cpp:386] inception_4d/relu_3x3_reduce -> inception_4d/3x3_reduce (in-place)
I0403 16:14:37.083724 20860 net.cpp:141] Setting up inception_4d/relu_3x3_reduce
I0403 16:14:37.083755 20860 net.cpp:148] Top shape: 24 144 14 14 (677376)
I0403 16:14:37.083771 20860 net.cpp:156] Memory required for data: 1120816416
I0403 16:14:37.083787 20860 layer_factory.hpp:77] Creating layer inception_4d/3x3
I0403 16:14:37.083809 20860 net.cpp:91] Creating Layer inception_4d/3x3
I0403 16:14:37.083828 20860 net.cpp:425] inception_4d/3x3 <- inception_4d/3x3_reduce
I0403 16:14:37.083847 20860 net.cpp:399] inception_4d/3x3 -> inception_4d/3x3
I0403 16:14:37.088384 20860 net.cpp:141] Setting up inception_4d/3x3
I0403 16:14:37.088416 20860 net.cpp:148] Top shape: 24 288 14 14 (1354752)
I0403 16:14:37.088433 20860 net.cpp:156] Memory required for data: 1126235424
I0403 16:14:37.088454 20860 layer_factory.hpp:77] Creating layer inception_4d/relu_3x3
I0403 16:14:37.088472 20860 net.cpp:91] Creating Layer inception_4d/relu_3x3
I0403 16:14:37.088490 20860 net.cpp:425] inception_4d/relu_3x3 <- inception_4d/3x3
I0403 16:14:37.088511 20860 net.cpp:386] inception_4d/relu_3x3 -> inception_4d/3x3 (in-place)
I0403 16:14:37.088709 20860 net.cpp:141] Setting up inception_4d/relu_3x3
I0403 16:14:37.088735 20860 net.cpp:148] Top shape: 24 288 14 14 (1354752)
I0403 16:14:37.088750 20860 net.cpp:156] Memory required for data: 1131654432
I0403 16:14:37.088765 20860 layer_factory.hpp:77] Creating layer inception_4d/5x5_reduce
I0403 16:14:37.088788 20860 net.cpp:91] Creating Layer inception_4d/5x5_reduce
I0403 16:14:37.088807 20860 net.cpp:425] inception_4d/5x5_reduce <- inception_4c/output_inception_4c/output_0_split_2
I0403 16:14:37.088829 20860 net.cpp:399] inception_4d/5x5_reduce -> inception_4d/5x5_reduce
I0403 16:14:37.090101 20860 net.cpp:141] Setting up inception_4d/5x5_reduce
I0403 16:14:37.090131 20860 net.cpp:148] Top shape: 24 32 14 14 (150528)
I0403 16:14:37.090148 20860 net.cpp:156] Memory required for data: 1132256544
I0403 16:14:37.090167 20860 layer_factory.hpp:77] Creating layer inception_4d/relu_5x5_reduce
I0403 16:14:37.090188 20860 net.cpp:91] Creating Layer inception_4d/relu_5x5_reduce
I0403 16:14:37.090205 20860 net.cpp:425] inception_4d/relu_5x5_reduce <- inception_4d/5x5_reduce
I0403 16:14:37.090224 20860 net.cpp:386] inception_4d/relu_5x5_reduce -> inception_4d/5x5_reduce (in-place)
I0403 16:14:37.090430 20860 net.cpp:141] Setting up inception_4d/relu_5x5_reduce
I0403 16:14:37.090456 20860 net.cpp:148] Top shape: 24 32 14 14 (150528)
I0403 16:14:37.090472 20860 net.cpp:156] Memory required for data: 1132858656
I0403 16:14:37.090487 20860 layer_factory.hpp:77] Creating layer inception_4d/5x5
I0403 16:14:37.090509 20860 net.cpp:91] Creating Layer inception_4d/5x5
I0403 16:14:37.090528 20860 net.cpp:425] inception_4d/5x5 <- inception_4d/5x5_reduce
I0403 16:14:37.090550 20860 net.cpp:399] inception_4d/5x5 -> inception_4d/5x5
I0403 16:14:37.092145 20860 net.cpp:141] Setting up inception_4d/5x5
I0403 16:14:37.092175 20860 net.cpp:148] Top shape: 24 64 14 14 (301056)
I0403 16:14:37.092192 20860 net.cpp:156] Memory required for data: 1134062880
I0403 16:14:37.092213 20860 layer_factory.hpp:77] Creating layer inception_4d/relu_5x5
I0403 16:14:37.092253 20860 net.cpp:91] Creating Layer inception_4d/relu_5x5
I0403 16:14:37.092272 20860 net.cpp:425] inception_4d/relu_5x5 <- inception_4d/5x5
I0403 16:14:37.092298 20860 net.cpp:386] inception_4d/relu_5x5 -> inception_4d/5x5 (in-place)
I0403 16:14:37.092619 20860 net.cpp:141] Setting up inception_4d/relu_5x5
I0403 16:14:37.092648 20860 net.cpp:148] Top shape: 24 64 14 14 (301056)
I0403 16:14:37.092665 20860 net.cpp:156] Memory required for data: 1135267104
I0403 16:14:37.092680 20860 layer_factory.hpp:77] Creating layer inception_4d/pool
I0403 16:14:37.092702 20860 net.cpp:91] Creating Layer inception_4d/pool
I0403 16:14:37.092720 20860 net.cpp:425] inception_4d/pool <- inception_4c/output_inception_4c/output_0_split_3
I0403 16:14:37.092741 20860 net.cpp:399] inception_4d/pool -> inception_4d/pool
I0403 16:14:37.092813 20860 net.cpp:141] Setting up inception_4d/pool
I0403 16:14:37.092838 20860 net.cpp:148] Top shape: 24 512 14 14 (2408448)
I0403 16:14:37.092854 20860 net.cpp:156] Memory required for data: 1144900896
I0403 16:14:37.092867 20860 layer_factory.hpp:77] Creating layer inception_4d/pool_proj
I0403 16:14:37.092890 20860 net.cpp:91] Creating Layer inception_4d/pool_proj
I0403 16:14:37.092908 20860 net.cpp:425] inception_4d/pool_proj <- inception_4d/pool
I0403 16:14:37.092931 20860 net.cpp:399] inception_4d/pool_proj -> inception_4d/pool_proj
I0403 16:14:37.094825 20860 net.cpp:141] Setting up inception_4d/pool_proj
I0403 16:14:37.094857 20860 net.cpp:148] Top shape: 24 64 14 14 (301056)
I0403 16:14:37.094874 20860 net.cpp:156] Memory required for data: 1146105120
I0403 16:14:37.094892 20860 layer_factory.hpp:77] Creating layer inception_4d/relu_pool_proj
I0403 16:14:37.094913 20860 net.cpp:91] Creating Layer inception_4d/relu_pool_proj
I0403 16:14:37.094929 20860 net.cpp:425] inception_4d/relu_pool_proj <- inception_4d/pool_proj
I0403 16:14:37.094950 20860 net.cpp:386] inception_4d/relu_pool_proj -> inception_4d/pool_proj (in-place)
I0403 16:14:37.095155 20860 net.cpp:141] Setting up inception_4d/relu_pool_proj
I0403 16:14:37.095182 20860 net.cpp:148] Top shape: 24 64 14 14 (301056)
I0403 16:14:37.095198 20860 net.cpp:156] Memory required for data: 1147309344
I0403 16:14:37.095216 20860 layer_factory.hpp:77] Creating layer inception_4d/output
I0403 16:14:37.095235 20860 net.cpp:91] Creating Layer inception_4d/output
I0403 16:14:37.095253 20860 net.cpp:425] inception_4d/output <- inception_4d/1x1
I0403 16:14:37.095271 20860 net.cpp:425] inception_4d/output <- inception_4d/3x3
I0403 16:14:37.095289 20860 net.cpp:425] inception_4d/output <- inception_4d/5x5
I0403 16:14:37.095306 20860 net.cpp:425] inception_4d/output <- inception_4d/pool_proj
I0403 16:14:37.095324 20860 net.cpp:399] inception_4d/output -> inception_4d/output
I0403 16:14:37.095378 20860 net.cpp:141] Setting up inception_4d/output
I0403 16:14:37.095404 20860 net.cpp:148] Top shape: 24 528 14 14 (2483712)
I0403 16:14:37.095420 20860 net.cpp:156] Memory required for data: 1157244192
I0403 16:14:37.095438 20860 layer_factory.hpp:77] Creating layer inception_4d/output_inception_4d/output_0_split
I0403 16:14:37.095456 20860 net.cpp:91] Creating Layer inception_4d/output_inception_4d/output_0_split
I0403 16:14:37.095474 20860 net.cpp:425] inception_4d/output_inception_4d/output_0_split <- inception_4d/output
I0403 16:14:37.095495 20860 net.cpp:399] inception_4d/output_inception_4d/output_0_split -> inception_4d/output_inception_4d/output_0_split_0
I0403 16:14:37.095518 20860 net.cpp:399] inception_4d/output_inception_4d/output_0_split -> inception_4d/output_inception_4d/output_0_split_1
I0403 16:14:37.095541 20860 net.cpp:399] inception_4d/output_inception_4d/output_0_split -> inception_4d/output_inception_4d/output_0_split_2
I0403 16:14:37.095562 20860 net.cpp:399] inception_4d/output_inception_4d/output_0_split -> inception_4d/output_inception_4d/output_0_split_3
I0403 16:14:37.095582 20860 net.cpp:399] inception_4d/output_inception_4d/output_0_split -> inception_4d/output_inception_4d/output_0_split_4
I0403 16:14:37.095691 20860 net.cpp:141] Setting up inception_4d/output_inception_4d/output_0_split
I0403 16:14:37.095729 20860 net.cpp:148] Top shape: 24 528 14 14 (2483712)
I0403 16:14:37.095746 20860 net.cpp:148] Top shape: 24 528 14 14 (2483712)
I0403 16:14:37.095762 20860 net.cpp:148] Top shape: 24 528 14 14 (2483712)
I0403 16:14:37.095778 20860 net.cpp:148] Top shape: 24 528 14 14 (2483712)
I0403 16:14:37.095794 20860 net.cpp:148] Top shape: 24 528 14 14 (2483712)
I0403 16:14:37.095808 20860 net.cpp:156] Memory required for data: 1206918432
I0403 16:14:37.095823 20860 layer_factory.hpp:77] Creating layer loss2/ave_pool
I0403 16:14:37.095840 20860 net.cpp:91] Creating Layer loss2/ave_pool
I0403 16:14:37.095856 20860 net.cpp:425] loss2/ave_pool <- inception_4d/output_inception_4d/output_0_split_0
I0403 16:14:37.095878 20860 net.cpp:399] loss2/ave_pool -> loss2/ave_pool
I0403 16:14:37.096220 20860 net.cpp:141] Setting up loss2/ave_pool
I0403 16:14:37.096247 20860 net.cpp:148] Top shape: 24 528 4 4 (202752)
I0403 16:14:37.096264 20860 net.cpp:156] Memory required for data: 1207729440
I0403 16:14:37.096279 20860 layer_factory.hpp:77] Creating layer loss2/conv
I0403 16:14:37.096302 20860 net.cpp:91] Creating Layer loss2/conv
I0403 16:14:37.096320 20860 net.cpp:425] loss2/conv <- loss2/ave_pool
I0403 16:14:37.096343 20860 net.cpp:399] loss2/conv -> loss2/conv
I0403 16:14:37.098374 20860 net.cpp:141] Setting up loss2/conv
I0403 16:14:37.098407 20860 net.cpp:148] Top shape: 24 128 4 4 (49152)
I0403 16:14:37.098428 20860 net.cpp:156] Memory required for data: 1207926048
I0403 16:14:37.098448 20860 layer_factory.hpp:77] Creating layer loss2/relu_conv
I0403 16:14:37.098466 20860 net.cpp:91] Creating Layer loss2/relu_conv
I0403 16:14:37.098482 20860 net.cpp:425] loss2/relu_conv <- loss2/conv
I0403 16:14:37.098501 20860 net.cpp:386] loss2/relu_conv -> loss2/conv (in-place)
I0403 16:14:37.098809 20860 net.cpp:141] Setting up loss2/relu_conv
I0403 16:14:37.098840 20860 net.cpp:148] Top shape: 24 128 4 4 (49152)
I0403 16:14:37.098857 20860 net.cpp:156] Memory required for data: 1208122656
I0403 16:14:37.098872 20860 layer_factory.hpp:77] Creating layer loss2/fc
I0403 16:14:37.098892 20860 net.cpp:91] Creating Layer loss2/fc
I0403 16:14:37.098909 20860 net.cpp:425] loss2/fc <- loss2/conv
I0403 16:14:37.098932 20860 net.cpp:399] loss2/fc -> loss2/fc
I0403 16:14:37.117795 20860 net.cpp:141] Setting up loss2/fc
I0403 16:14:37.117854 20860 net.cpp:148] Top shape: 24 1024 (24576)
I0403 16:14:37.117871 20860 net.cpp:156] Memory required for data: 1208220960
I0403 16:14:37.117892 20860 layer_factory.hpp:77] Creating layer loss2/relu_fc
I0403 16:14:37.117914 20860 net.cpp:91] Creating Layer loss2/relu_fc
I0403 16:14:37.117934 20860 net.cpp:425] loss2/relu_fc <- loss2/fc
I0403 16:14:37.117956 20860 net.cpp:386] loss2/relu_fc -> loss2/fc (in-place)
I0403 16:14:37.118319 20860 net.cpp:141] Setting up loss2/relu_fc
I0403 16:14:37.118346 20860 net.cpp:148] Top shape: 24 1024 (24576)
I0403 16:14:37.118362 20860 net.cpp:156] Memory required for data: 1208319264
I0403 16:14:37.118377 20860 layer_factory.hpp:77] Creating layer loss2/drop_fc
I0403 16:14:37.118399 20860 net.cpp:91] Creating Layer loss2/drop_fc
I0403 16:14:37.118417 20860 net.cpp:425] loss2/drop_fc <- loss2/fc
I0403 16:14:37.118434 20860 net.cpp:386] loss2/drop_fc -> loss2/fc (in-place)
I0403 16:14:37.118486 20860 net.cpp:141] Setting up loss2/drop_fc
I0403 16:14:37.118513 20860 net.cpp:148] Top shape: 24 1024 (24576)
I0403 16:14:37.118528 20860 net.cpp:156] Memory required for data: 1208417568
I0403 16:14:37.118544 20860 layer_factory.hpp:77] Creating layer loss2/classifier_plantvillage
I0403 16:14:37.118563 20860 net.cpp:91] Creating Layer loss2/classifier_plantvillage
I0403 16:14:37.118580 20860 net.cpp:425] loss2/classifier_plantvillage <- loss2/fc
I0403 16:14:37.118602 20860 net.cpp:399] loss2/classifier_plantvillage -> loss2/classifier_plantvillage
I0403 16:14:37.119053 20860 net.cpp:141] Setting up loss2/classifier_plantvillage
I0403 16:14:37.119081 20860 net.cpp:148] Top shape: 24 38 (912)
I0403 16:14:37.119096 20860 net.cpp:156] Memory required for data: 1208421216
I0403 16:14:37.119139 20860 layer_factory.hpp:77] Creating layer loss2/classifier_plantvillage_loss2/classifier_plantvillage_0_split
I0403 16:14:37.119159 20860 net.cpp:91] Creating Layer loss2/classifier_plantvillage_loss2/classifier_plantvillage_0_split
I0403 16:14:37.119175 20860 net.cpp:425] loss2/classifier_plantvillage_loss2/classifier_plantvillage_0_split <- loss2/classifier_plantvillage
I0403 16:14:37.119194 20860 net.cpp:399] loss2/classifier_plantvillage_loss2/classifier_plantvillage_0_split -> loss2/classifier_plantvillage_loss2/classifier_plantvillage_0_split_0
I0403 16:14:37.119220 20860 net.cpp:399] loss2/classifier_plantvillage_loss2/classifier_plantvillage_0_split -> loss2/classifier_plantvillage_loss2/classifier_plantvillage_0_split_1
I0403 16:14:37.119243 20860 net.cpp:399] loss2/classifier_plantvillage_loss2/classifier_plantvillage_0_split -> loss2/classifier_plantvillage_loss2/classifier_plantvillage_0_split_2
I0403 16:14:37.119324 20860 net.cpp:141] Setting up loss2/classifier_plantvillage_loss2/classifier_plantvillage_0_split
I0403 16:14:37.119349 20860 net.cpp:148] Top shape: 24 38 (912)
I0403 16:14:37.119365 20860 net.cpp:148] Top shape: 24 38 (912)
I0403 16:14:37.119381 20860 net.cpp:148] Top shape: 24 38 (912)
I0403 16:14:37.119395 20860 net.cpp:156] Memory required for data: 1208432160
I0403 16:14:37.119410 20860 layer_factory.hpp:77] Creating layer inception_4e/1x1
I0403 16:14:37.119434 20860 net.cpp:91] Creating Layer inception_4e/1x1
I0403 16:14:37.119452 20860 net.cpp:425] inception_4e/1x1 <- inception_4d/output_inception_4d/output_0_split_1
I0403 16:14:37.119473 20860 net.cpp:399] inception_4e/1x1 -> inception_4e/1x1
I0403 16:14:37.121487 20860 net.cpp:141] Setting up inception_4e/1x1
I0403 16:14:37.121520 20860 net.cpp:148] Top shape: 24 256 14 14 (1204224)
I0403 16:14:37.121541 20860 net.cpp:156] Memory required for data: 1213249056
I0403 16:14:37.121559 20860 layer_factory.hpp:77] Creating layer inception_4e/relu_1x1
I0403 16:14:37.121579 20860 net.cpp:91] Creating Layer inception_4e/relu_1x1
I0403 16:14:37.121598 20860 net.cpp:425] inception_4e/relu_1x1 <- inception_4e/1x1
I0403 16:14:37.121618 20860 net.cpp:386] inception_4e/relu_1x1 -> inception_4e/1x1 (in-place)
I0403 16:14:37.121934 20860 net.cpp:141] Setting up inception_4e/relu_1x1
I0403 16:14:37.121970 20860 net.cpp:148] Top shape: 24 256 14 14 (1204224)
I0403 16:14:37.121989 20860 net.cpp:156] Memory required for data: 1218065952
I0403 16:14:37.122005 20860 layer_factory.hpp:77] Creating layer inception_4e/3x3_reduce
I0403 16:14:37.122030 20860 net.cpp:91] Creating Layer inception_4e/3x3_reduce
I0403 16:14:37.122050 20860 net.cpp:425] inception_4e/3x3_reduce <- inception_4d/output_inception_4d/output_0_split_2
I0403 16:14:37.122071 20860 net.cpp:399] inception_4e/3x3_reduce -> inception_4e/3x3_reduce
I0403 16:14:37.124343 20860 net.cpp:141] Setting up inception_4e/3x3_reduce
I0403 16:14:37.124375 20860 net.cpp:148] Top shape: 24 160 14 14 (752640)
I0403 16:14:37.124392 20860 net.cpp:156] Memory required for data: 1221076512
I0403 16:14:37.124411 20860 layer_factory.hpp:77] Creating layer inception_4e/relu_3x3_reduce
I0403 16:14:37.124433 20860 net.cpp:91] Creating Layer inception_4e/relu_3x3_reduce
I0403 16:14:37.124451 20860 net.cpp:425] inception_4e/relu_3x3_reduce <- inception_4e/3x3_reduce
I0403 16:14:37.124470 20860 net.cpp:386] inception_4e/relu_3x3_reduce -> inception_4e/3x3_reduce (in-place)
I0403 16:14:37.124667 20860 net.cpp:141] Setting up inception_4e/relu_3x3_reduce
I0403 16:14:37.124696 20860 net.cpp:148] Top shape: 24 160 14 14 (752640)
I0403 16:14:37.124712 20860 net.cpp:156] Memory required for data: 1224087072
I0403 16:14:37.124727 20860 layer_factory.hpp:77] Creating layer inception_4e/3x3
I0403 16:14:37.124750 20860 net.cpp:91] Creating Layer inception_4e/3x3
I0403 16:14:37.124768 20860 net.cpp:425] inception_4e/3x3 <- inception_4e/3x3_reduce
I0403 16:14:37.124788 20860 net.cpp:399] inception_4e/3x3 -> inception_4e/3x3
I0403 16:14:37.130128 20860 net.cpp:141] Setting up inception_4e/3x3
I0403 16:14:37.130177 20860 net.cpp:148] Top shape: 24 320 14 14 (1505280)
I0403 16:14:37.130194 20860 net.cpp:156] Memory required for data: 1230108192
I0403 16:14:37.130216 20860 layer_factory.hpp:77] Creating layer inception_4e/relu_3x3
I0403 16:14:37.130236 20860 net.cpp:91] Creating Layer inception_4e/relu_3x3
I0403 16:14:37.130255 20860 net.cpp:425] inception_4e/relu_3x3 <- inception_4e/3x3
I0403 16:14:37.130275 20860 net.cpp:386] inception_4e/relu_3x3 -> inception_4e/3x3 (in-place)
I0403 16:14:37.130601 20860 net.cpp:141] Setting up inception_4e/relu_3x3
I0403 16:14:37.130630 20860 net.cpp:148] Top shape: 24 320 14 14 (1505280)
I0403 16:14:37.130647 20860 net.cpp:156] Memory required for data: 1236129312
I0403 16:14:37.130663 20860 layer_factory.hpp:77] Creating layer inception_4e/5x5_reduce
I0403 16:14:37.130688 20860 net.cpp:91] Creating Layer inception_4e/5x5_reduce
I0403 16:14:37.130708 20860 net.cpp:425] inception_4e/5x5_reduce <- inception_4d/output_inception_4d/output_0_split_3
I0403 16:14:37.130731 20860 net.cpp:399] inception_4e/5x5_reduce -> inception_4e/5x5_reduce
I0403 16:14:37.131881 20860 net.cpp:141] Setting up inception_4e/5x5_reduce
I0403 16:14:37.131911 20860 net.cpp:148] Top shape: 24 32 14 14 (150528)
I0403 16:14:37.131927 20860 net.cpp:156] Memory required for data: 1236731424
I0403 16:14:37.131945 20860 layer_factory.hpp:77] Creating layer inception_4e/relu_5x5_reduce
I0403 16:14:37.131973 20860 net.cpp:91] Creating Layer inception_4e/relu_5x5_reduce
I0403 16:14:37.131990 20860 net.cpp:425] inception_4e/relu_5x5_reduce <- inception_4e/5x5_reduce
I0403 16:14:37.132009 20860 net.cpp:386] inception_4e/relu_5x5_reduce -> inception_4e/5x5_reduce (in-place)
I0403 16:14:37.132326 20860 net.cpp:141] Setting up inception_4e/relu_5x5_reduce
I0403 16:14:37.132354 20860 net.cpp:148] Top shape: 24 32 14 14 (150528)
I0403 16:14:37.132369 20860 net.cpp:156] Memory required for data: 1237333536
I0403 16:14:37.132385 20860 layer_factory.hpp:77] Creating layer inception_4e/5x5
I0403 16:14:37.132426 20860 net.cpp:91] Creating Layer inception_4e/5x5
I0403 16:14:37.132447 20860 net.cpp:425] inception_4e/5x5 <- inception_4e/5x5_reduce
I0403 16:14:37.132467 20860 net.cpp:399] inception_4e/5x5 -> inception_4e/5x5
I0403 16:14:37.134449 20860 net.cpp:141] Setting up inception_4e/5x5
I0403 16:14:37.134479 20860 net.cpp:148] Top shape: 24 128 14 14 (602112)
I0403 16:14:37.134495 20860 net.cpp:156] Memory required for data: 1239741984
I0403 16:14:37.134515 20860 layer_factory.hpp:77] Creating layer inception_4e/relu_5x5
I0403 16:14:37.134536 20860 net.cpp:91] Creating Layer inception_4e/relu_5x5
I0403 16:14:37.134554 20860 net.cpp:425] inception_4e/relu_5x5 <- inception_4e/5x5
I0403 16:14:37.134573 20860 net.cpp:386] inception_4e/relu_5x5 -> inception_4e/5x5 (in-place)
I0403 16:14:37.134785 20860 net.cpp:141] Setting up inception_4e/relu_5x5
I0403 16:14:37.134814 20860 net.cpp:148] Top shape: 24 128 14 14 (602112)
I0403 16:14:37.134830 20860 net.cpp:156] Memory required for data: 1242150432
I0403 16:14:37.134845 20860 layer_factory.hpp:77] Creating layer inception_4e/pool
I0403 16:14:37.134863 20860 net.cpp:91] Creating Layer inception_4e/pool
I0403 16:14:37.134879 20860 net.cpp:425] inception_4e/pool <- inception_4d/output_inception_4d/output_0_split_4
I0403 16:14:37.134898 20860 net.cpp:399] inception_4e/pool -> inception_4e/pool
I0403 16:14:37.134979 20860 net.cpp:141] Setting up inception_4e/pool
I0403 16:14:37.135004 20860 net.cpp:148] Top shape: 24 528 14 14 (2483712)
I0403 16:14:37.135020 20860 net.cpp:156] Memory required for data: 1252085280
I0403 16:14:37.135035 20860 layer_factory.hpp:77] Creating layer inception_4e/pool_proj
I0403 16:14:37.135056 20860 net.cpp:91] Creating Layer inception_4e/pool_proj
I0403 16:14:37.135074 20860 net.cpp:425] inception_4e/pool_proj <- inception_4e/pool
I0403 16:14:37.135097 20860 net.cpp:399] inception_4e/pool_proj -> inception_4e/pool_proj
I0403 16:14:37.136713 20860 net.cpp:141] Setting up inception_4e/pool_proj
I0403 16:14:37.136744 20860 net.cpp:148] Top shape: 24 128 14 14 (602112)
I0403 16:14:37.136776 20860 net.cpp:156] Memory required for data: 1254493728
I0403 16:14:37.136796 20860 layer_factory.hpp:77] Creating layer inception_4e/relu_pool_proj
I0403 16:14:37.136816 20860 net.cpp:91] Creating Layer inception_4e/relu_pool_proj
I0403 16:14:37.136832 20860 net.cpp:425] inception_4e/relu_pool_proj <- inception_4e/pool_proj
I0403 16:14:37.136852 20860 net.cpp:386] inception_4e/relu_pool_proj -> inception_4e/pool_proj (in-place)
I0403 16:14:37.137172 20860 net.cpp:141] Setting up inception_4e/relu_pool_proj
I0403 16:14:37.137200 20860 net.cpp:148] Top shape: 24 128 14 14 (602112)
I0403 16:14:37.137217 20860 net.cpp:156] Memory required for data: 1256902176
I0403 16:14:37.137233 20860 layer_factory.hpp:77] Creating layer inception_4e/output
I0403 16:14:37.137253 20860 net.cpp:91] Creating Layer inception_4e/output
I0403 16:14:37.137269 20860 net.cpp:425] inception_4e/output <- inception_4e/1x1
I0403 16:14:37.137284 20860 net.cpp:425] inception_4e/output <- inception_4e/3x3
I0403 16:14:37.137301 20860 net.cpp:425] inception_4e/output <- inception_4e/5x5
I0403 16:14:37.137327 20860 net.cpp:425] inception_4e/output <- inception_4e/pool_proj
I0403 16:14:37.137347 20860 net.cpp:399] inception_4e/output -> inception_4e/output
I0403 16:14:37.137400 20860 net.cpp:141] Setting up inception_4e/output
I0403 16:14:37.137428 20860 net.cpp:148] Top shape: 24 832 14 14 (3913728)
I0403 16:14:37.137444 20860 net.cpp:156] Memory required for data: 1272557088
I0403 16:14:37.137459 20860 layer_factory.hpp:77] Creating layer pool4/3x3_s2
I0403 16:14:37.137475 20860 net.cpp:91] Creating Layer pool4/3x3_s2
I0403 16:14:37.137491 20860 net.cpp:425] pool4/3x3_s2 <- inception_4e/output
I0403 16:14:37.137516 20860 net.cpp:399] pool4/3x3_s2 -> pool4/3x3_s2
I0403 16:14:37.137588 20860 net.cpp:141] Setting up pool4/3x3_s2
I0403 16:14:37.137621 20860 net.cpp:148] Top shape: 24 832 7 7 (978432)
I0403 16:14:37.137636 20860 net.cpp:156] Memory required for data: 1276470816
I0403 16:14:37.137650 20860 layer_factory.hpp:77] Creating layer pool4/3x3_s2_pool4/3x3_s2_0_split
I0403 16:14:37.137670 20860 net.cpp:91] Creating Layer pool4/3x3_s2_pool4/3x3_s2_0_split
I0403 16:14:37.137687 20860 net.cpp:425] pool4/3x3_s2_pool4/3x3_s2_0_split <- pool4/3x3_s2
I0403 16:14:37.137706 20860 net.cpp:399] pool4/3x3_s2_pool4/3x3_s2_0_split -> pool4/3x3_s2_pool4/3x3_s2_0_split_0
I0403 16:14:37.137725 20860 net.cpp:399] pool4/3x3_s2_pool4/3x3_s2_0_split -> pool4/3x3_s2_pool4/3x3_s2_0_split_1
I0403 16:14:37.137748 20860 net.cpp:399] pool4/3x3_s2_pool4/3x3_s2_0_split -> pool4/3x3_s2_pool4/3x3_s2_0_split_2
I0403 16:14:37.137769 20860 net.cpp:399] pool4/3x3_s2_pool4/3x3_s2_0_split -> pool4/3x3_s2_pool4/3x3_s2_0_split_3
I0403 16:14:37.137864 20860 net.cpp:141] Setting up pool4/3x3_s2_pool4/3x3_s2_0_split
I0403 16:14:37.137889 20860 net.cpp:148] Top shape: 24 832 7 7 (978432)
I0403 16:14:37.137907 20860 net.cpp:148] Top shape: 24 832 7 7 (978432)
I0403 16:14:37.137922 20860 net.cpp:148] Top shape: 24 832 7 7 (978432)
I0403 16:14:37.137938 20860 net.cpp:148] Top shape: 24 832 7 7 (978432)
I0403 16:14:37.137953 20860 net.cpp:156] Memory required for data: 1292125728
I0403 16:14:37.137972 20860 layer_factory.hpp:77] Creating layer inception_5a/1x1
I0403 16:14:37.137995 20860 net.cpp:91] Creating Layer inception_5a/1x1
I0403 16:14:37.138015 20860 net.cpp:425] inception_5a/1x1 <- pool4/3x3_s2_pool4/3x3_s2_0_split_0
I0403 16:14:37.138036 20860 net.cpp:399] inception_5a/1x1 -> inception_5a/1x1
I0403 16:14:37.141114 20860 net.cpp:141] Setting up inception_5a/1x1
I0403 16:14:37.141145 20860 net.cpp:148] Top shape: 24 256 7 7 (301056)
I0403 16:14:37.141163 20860 net.cpp:156] Memory required for data: 1293329952
I0403 16:14:37.141182 20860 layer_factory.hpp:77] Creating layer inception_5a/relu_1x1
I0403 16:14:37.141206 20860 net.cpp:91] Creating Layer inception_5a/relu_1x1
I0403 16:14:37.141224 20860 net.cpp:425] inception_5a/relu_1x1 <- inception_5a/1x1
I0403 16:14:37.141244 20860 net.cpp:386] inception_5a/relu_1x1 -> inception_5a/1x1 (in-place)
I0403 16:14:37.141584 20860 net.cpp:141] Setting up inception_5a/relu_1x1
I0403 16:14:37.141623 20860 net.cpp:148] Top shape: 24 256 7 7 (301056)
I0403 16:14:37.141638 20860 net.cpp:156] Memory required for data: 1294534176
I0403 16:14:37.141654 20860 layer_factory.hpp:77] Creating layer inception_5a/3x3_reduce
I0403 16:14:37.141677 20860 net.cpp:91] Creating Layer inception_5a/3x3_reduce
I0403 16:14:37.141696 20860 net.cpp:425] inception_5a/3x3_reduce <- pool4/3x3_s2_pool4/3x3_s2_0_split_1
I0403 16:14:37.141718 20860 net.cpp:399] inception_5a/3x3_reduce -> inception_5a/3x3_reduce
I0403 16:14:37.144392 20860 net.cpp:141] Setting up inception_5a/3x3_reduce
I0403 16:14:37.144424 20860 net.cpp:148] Top shape: 24 160 7 7 (188160)
I0403 16:14:37.144443 20860 net.cpp:156] Memory required for data: 1295286816
I0403 16:14:37.144462 20860 layer_factory.hpp:77] Creating layer inception_5a/relu_3x3_reduce
I0403 16:14:37.144481 20860 net.cpp:91] Creating Layer inception_5a/relu_3x3_reduce
I0403 16:14:37.144497 20860 net.cpp:425] inception_5a/relu_3x3_reduce <- inception_5a/3x3_reduce
I0403 16:14:37.144518 20860 net.cpp:386] inception_5a/relu_3x3_reduce -> inception_5a/3x3_reduce (in-place)
I0403 16:14:37.144726 20860 net.cpp:141] Setting up inception_5a/relu_3x3_reduce
I0403 16:14:37.144752 20860 net.cpp:148] Top shape: 24 160 7 7 (188160)
I0403 16:14:37.144767 20860 net.cpp:156] Memory required for data: 1296039456
I0403 16:14:37.144783 20860 layer_factory.hpp:77] Creating layer inception_5a/3x3
I0403 16:14:37.144805 20860 net.cpp:91] Creating Layer inception_5a/3x3
I0403 16:14:37.144824 20860 net.cpp:425] inception_5a/3x3 <- inception_5a/3x3_reduce
I0403 16:14:37.144846 20860 net.cpp:399] inception_5a/3x3 -> inception_5a/3x3
I0403 16:14:37.150223 20860 net.cpp:141] Setting up inception_5a/3x3
I0403 16:14:37.150255 20860 net.cpp:148] Top shape: 24 320 7 7 (376320)
I0403 16:14:37.150272 20860 net.cpp:156] Memory required for data: 1297544736
I0403 16:14:37.150292 20860 layer_factory.hpp:77] Creating layer inception_5a/relu_3x3
I0403 16:14:37.150315 20860 net.cpp:91] Creating Layer inception_5a/relu_3x3
I0403 16:14:37.150332 20860 net.cpp:425] inception_5a/relu_3x3 <- inception_5a/3x3
I0403 16:14:37.150351 20860 net.cpp:386] inception_5a/relu_3x3 -> inception_5a/3x3 (in-place)
I0403 16:14:37.150663 20860 net.cpp:141] Setting up inception_5a/relu_3x3
I0403 16:14:37.150692 20860 net.cpp:148] Top shape: 24 320 7 7 (376320)
I0403 16:14:37.150708 20860 net.cpp:156] Memory required for data: 1299050016
I0403 16:14:37.150723 20860 layer_factory.hpp:77] Creating layer inception_5a/5x5_reduce
I0403 16:14:37.150748 20860 net.cpp:91] Creating Layer inception_5a/5x5_reduce
I0403 16:14:37.150766 20860 net.cpp:425] inception_5a/5x5_reduce <- pool4/3x3_s2_pool4/3x3_s2_0_split_2
I0403 16:14:37.150789 20860 net.cpp:399] inception_5a/5x5_reduce -> inception_5a/5x5_reduce
I0403 16:14:37.152053 20860 net.cpp:141] Setting up inception_5a/5x5_reduce
I0403 16:14:37.152087 20860 net.cpp:148] Top shape: 24 32 7 7 (37632)
I0403 16:14:37.152106 20860 net.cpp:156] Memory required for data: 1299200544
I0403 16:14:37.152125 20860 layer_factory.hpp:77] Creating layer inception_5a/relu_5x5_reduce
I0403 16:14:37.152144 20860 net.cpp:91] Creating Layer inception_5a/relu_5x5_reduce
I0403 16:14:37.152163 20860 net.cpp:425] inception_5a/relu_5x5_reduce <- inception_5a/5x5_reduce
I0403 16:14:37.152181 20860 net.cpp:386] inception_5a/relu_5x5_reduce -> inception_5a/5x5_reduce (in-place)
I0403 16:14:37.152501 20860 net.cpp:141] Setting up inception_5a/relu_5x5_reduce
I0403 16:14:37.152534 20860 net.cpp:148] Top shape: 24 32 7 7 (37632)
I0403 16:14:37.152551 20860 net.cpp:156] Memory required for data: 1299351072
I0403 16:14:37.152568 20860 layer_factory.hpp:77] Creating layer inception_5a/5x5
I0403 16:14:37.152590 20860 net.cpp:91] Creating Layer inception_5a/5x5
I0403 16:14:37.152608 20860 net.cpp:425] inception_5a/5x5 <- inception_5a/5x5_reduce
I0403 16:14:37.152631 20860 net.cpp:399] inception_5a/5x5 -> inception_5a/5x5
I0403 16:14:37.154482 20860 net.cpp:141] Setting up inception_5a/5x5
I0403 16:14:37.154525 20860 net.cpp:148] Top shape: 24 128 7 7 (150528)
I0403 16:14:37.154542 20860 net.cpp:156] Memory required for data: 1299953184
I0403 16:14:37.154563 20860 layer_factory.hpp:77] Creating layer inception_5a/relu_5x5
I0403 16:14:37.154584 20860 net.cpp:91] Creating Layer inception_5a/relu_5x5
I0403 16:14:37.154603 20860 net.cpp:425] inception_5a/relu_5x5 <- inception_5a/5x5
I0403 16:14:37.154623 20860 net.cpp:386] inception_5a/relu_5x5 -> inception_5a/5x5 (in-place)
I0403 16:14:37.154826 20860 net.cpp:141] Setting up inception_5a/relu_5x5
I0403 16:14:37.154855 20860 net.cpp:148] Top shape: 24 128 7 7 (150528)
I0403 16:14:37.154871 20860 net.cpp:156] Memory required for data: 1300555296
I0403 16:14:37.154886 20860 layer_factory.hpp:77] Creating layer inception_5a/pool
I0403 16:14:37.154904 20860 net.cpp:91] Creating Layer inception_5a/pool
I0403 16:14:37.154920 20860 net.cpp:425] inception_5a/pool <- pool4/3x3_s2_pool4/3x3_s2_0_split_3
I0403 16:14:37.154939 20860 net.cpp:399] inception_5a/pool -> inception_5a/pool
I0403 16:14:37.155019 20860 net.cpp:141] Setting up inception_5a/pool
I0403 16:14:37.155045 20860 net.cpp:148] Top shape: 24 832 7 7 (978432)
I0403 16:14:37.155061 20860 net.cpp:156] Memory required for data: 1304469024
I0403 16:14:37.155076 20860 layer_factory.hpp:77] Creating layer inception_5a/pool_proj
I0403 16:14:37.155098 20860 net.cpp:91] Creating Layer inception_5a/pool_proj
I0403 16:14:37.155117 20860 net.cpp:425] inception_5a/pool_proj <- inception_5a/pool
I0403 16:14:37.155138 20860 net.cpp:399] inception_5a/pool_proj -> inception_5a/pool_proj
I0403 16:14:37.157557 20860 net.cpp:141] Setting up inception_5a/pool_proj
I0403 16:14:37.157588 20860 net.cpp:148] Top shape: 24 128 7 7 (150528)
I0403 16:14:37.157605 20860 net.cpp:156] Memory required for data: 1305071136
I0403 16:14:37.157625 20860 layer_factory.hpp:77] Creating layer inception_5a/relu_pool_proj
I0403 16:14:37.157646 20860 net.cpp:91] Creating Layer inception_5a/relu_pool_proj
I0403 16:14:37.157665 20860 net.cpp:425] inception_5a/relu_pool_proj <- inception_5a/pool_proj
I0403 16:14:37.157682 20860 net.cpp:386] inception_5a/relu_pool_proj -> inception_5a/pool_proj (in-place)
I0403 16:14:37.158002 20860 net.cpp:141] Setting up inception_5a/relu_pool_proj
I0403 16:14:37.158031 20860 net.cpp:148] Top shape: 24 128 7 7 (150528)
I0403 16:14:37.158048 20860 net.cpp:156] Memory required for data: 1305673248
I0403 16:14:37.158064 20860 layer_factory.hpp:77] Creating layer inception_5a/output
I0403 16:14:37.158082 20860 net.cpp:91] Creating Layer inception_5a/output
I0403 16:14:37.158098 20860 net.cpp:425] inception_5a/output <- inception_5a/1x1
I0403 16:14:37.158115 20860 net.cpp:425] inception_5a/output <- inception_5a/3x3
I0403 16:14:37.158133 20860 net.cpp:425] inception_5a/output <- inception_5a/5x5
I0403 16:14:37.158149 20860 net.cpp:425] inception_5a/output <- inception_5a/pool_proj
I0403 16:14:37.158170 20860 net.cpp:399] inception_5a/output -> inception_5a/output
I0403 16:14:37.158222 20860 net.cpp:141] Setting up inception_5a/output
I0403 16:14:37.158251 20860 net.cpp:148] Top shape: 24 832 7 7 (978432)
I0403 16:14:37.158267 20860 net.cpp:156] Memory required for data: 1309586976
I0403 16:14:37.158280 20860 layer_factory.hpp:77] Creating layer inception_5a/output_inception_5a/output_0_split
I0403 16:14:37.158298 20860 net.cpp:91] Creating Layer inception_5a/output_inception_5a/output_0_split
I0403 16:14:37.158313 20860 net.cpp:425] inception_5a/output_inception_5a/output_0_split <- inception_5a/output
I0403 16:14:37.158335 20860 net.cpp:399] inception_5a/output_inception_5a/output_0_split -> inception_5a/output_inception_5a/output_0_split_0
I0403 16:14:37.158357 20860 net.cpp:399] inception_5a/output_inception_5a/output_0_split -> inception_5a/output_inception_5a/output_0_split_1
I0403 16:14:37.158378 20860 net.cpp:399] inception_5a/output_inception_5a/output_0_split -> inception_5a/output_inception_5a/output_0_split_2
I0403 16:14:37.158399 20860 net.cpp:399] inception_5a/output_inception_5a/output_0_split -> inception_5a/output_inception_5a/output_0_split_3
I0403 16:14:37.158515 20860 net.cpp:141] Setting up inception_5a/output_inception_5a/output_0_split
I0403 16:14:37.158543 20860 net.cpp:148] Top shape: 24 832 7 7 (978432)
I0403 16:14:37.158561 20860 net.cpp:148] Top shape: 24 832 7 7 (978432)
I0403 16:14:37.158576 20860 net.cpp:148] Top shape: 24 832 7 7 (978432)
I0403 16:14:37.158592 20860 net.cpp:148] Top shape: 24 832 7 7 (978432)
I0403 16:14:37.158606 20860 net.cpp:156] Memory required for data: 1325241888
I0403 16:14:37.158622 20860 layer_factory.hpp:77] Creating layer inception_5b/1x1
I0403 16:14:37.158640 20860 net.cpp:91] Creating Layer inception_5b/1x1
I0403 16:14:37.158658 20860 net.cpp:425] inception_5b/1x1 <- inception_5a/output_inception_5a/output_0_split_0
I0403 16:14:37.158680 20860 net.cpp:399] inception_5b/1x1 -> inception_5b/1x1
I0403 16:14:37.162716 20860 net.cpp:141] Setting up inception_5b/1x1
I0403 16:14:37.162749 20860 net.cpp:148] Top shape: 24 384 7 7 (451584)
I0403 16:14:37.162765 20860 net.cpp:156] Memory required for data: 1327048224
I0403 16:14:37.162786 20860 layer_factory.hpp:77] Creating layer inception_5b/relu_1x1
I0403 16:14:37.162804 20860 net.cpp:91] Creating Layer inception_5b/relu_1x1
I0403 16:14:37.162822 20860 net.cpp:425] inception_5b/relu_1x1 <- inception_5b/1x1
I0403 16:14:37.162842 20860 net.cpp:386] inception_5b/relu_1x1 -> inception_5b/1x1 (in-place)
I0403 16:14:37.163172 20860 net.cpp:141] Setting up inception_5b/relu_1x1
I0403 16:14:37.163203 20860 net.cpp:148] Top shape: 24 384 7 7 (451584)
I0403 16:14:37.163218 20860 net.cpp:156] Memory required for data: 1328854560
I0403 16:14:37.163234 20860 layer_factory.hpp:77] Creating layer inception_5b/3x3_reduce
I0403 16:14:37.163257 20860 net.cpp:91] Creating Layer inception_5b/3x3_reduce
I0403 16:14:37.163277 20860 net.cpp:425] inception_5b/3x3_reduce <- inception_5a/output_inception_5a/output_0_split_1
I0403 16:14:37.163301 20860 net.cpp:399] inception_5b/3x3_reduce -> inception_5b/3x3_reduce
I0403 16:14:37.166141 20860 net.cpp:141] Setting up inception_5b/3x3_reduce
I0403 16:14:37.166172 20860 net.cpp:148] Top shape: 24 192 7 7 (225792)
I0403 16:14:37.166188 20860 net.cpp:156] Memory required for data: 1329757728
I0403 16:14:37.166208 20860 layer_factory.hpp:77] Creating layer inception_5b/relu_3x3_reduce
I0403 16:14:37.166229 20860 net.cpp:91] Creating Layer inception_5b/relu_3x3_reduce
I0403 16:14:37.166247 20860 net.cpp:425] inception_5b/relu_3x3_reduce <- inception_5b/3x3_reduce
I0403 16:14:37.166265 20860 net.cpp:386] inception_5b/relu_3x3_reduce -> inception_5b/3x3_reduce (in-place)
I0403 16:14:37.166468 20860 net.cpp:141] Setting up inception_5b/relu_3x3_reduce
I0403 16:14:37.166496 20860 net.cpp:148] Top shape: 24 192 7 7 (225792)
I0403 16:14:37.166512 20860 net.cpp:156] Memory required for data: 1330660896
I0403 16:14:37.166527 20860 layer_factory.hpp:77] Creating layer inception_5b/3x3
I0403 16:14:37.166549 20860 net.cpp:91] Creating Layer inception_5b/3x3
I0403 16:14:37.166568 20860 net.cpp:425] inception_5b/3x3 <- inception_5b/3x3_reduce
I0403 16:14:37.166591 20860 net.cpp:399] inception_5b/3x3 -> inception_5b/3x3
I0403 16:14:37.173732 20860 net.cpp:141] Setting up inception_5b/3x3
I0403 16:14:37.173766 20860 net.cpp:148] Top shape: 24 384 7 7 (451584)
I0403 16:14:37.173784 20860 net.cpp:156] Memory required for data: 1332467232
I0403 16:14:37.173804 20860 layer_factory.hpp:77] Creating layer inception_5b/relu_3x3
I0403 16:14:37.173825 20860 net.cpp:91] Creating Layer inception_5b/relu_3x3
I0403 16:14:37.173843 20860 net.cpp:425] inception_5b/relu_3x3 <- inception_5b/3x3
I0403 16:14:37.173862 20860 net.cpp:386] inception_5b/relu_3x3 -> inception_5b/3x3 (in-place)
I0403 16:14:37.174187 20860 net.cpp:141] Setting up inception_5b/relu_3x3
I0403 16:14:37.174216 20860 net.cpp:148] Top shape: 24 384 7 7 (451584)
I0403 16:14:37.174232 20860 net.cpp:156] Memory required for data: 1334273568
I0403 16:14:37.174247 20860 layer_factory.hpp:77] Creating layer inception_5b/5x5_reduce
I0403 16:14:37.174286 20860 net.cpp:91] Creating Layer inception_5b/5x5_reduce
I0403 16:14:37.174306 20860 net.cpp:425] inception_5b/5x5_reduce <- inception_5a/output_inception_5a/output_0_split_2
I0403 16:14:37.174330 20860 net.cpp:399] inception_5b/5x5_reduce -> inception_5b/5x5_reduce
I0403 16:14:37.175699 20860 net.cpp:141] Setting up inception_5b/5x5_reduce
I0403 16:14:37.175731 20860 net.cpp:148] Top shape: 24 48 7 7 (56448)
I0403 16:14:37.175750 20860 net.cpp:156] Memory required for data: 1334499360
I0403 16:14:37.175768 20860 layer_factory.hpp:77] Creating layer inception_5b/relu_5x5_reduce
I0403 16:14:37.175787 20860 net.cpp:91] Creating Layer inception_5b/relu_5x5_reduce
I0403 16:14:37.175806 20860 net.cpp:425] inception_5b/relu_5x5_reduce <- inception_5b/5x5_reduce
I0403 16:14:37.175827 20860 net.cpp:386] inception_5b/relu_5x5_reduce -> inception_5b/5x5_reduce (in-place)
I0403 16:14:37.176234 20860 net.cpp:141] Setting up inception_5b/relu_5x5_reduce
I0403 16:14:37.176265 20860 net.cpp:148] Top shape: 24 48 7 7 (56448)
I0403 16:14:37.176283 20860 net.cpp:156] Memory required for data: 1334725152
I0403 16:14:37.176300 20860 layer_factory.hpp:77] Creating layer inception_5b/5x5
I0403 16:14:37.176321 20860 net.cpp:91] Creating Layer inception_5b/5x5
I0403 16:14:37.176340 20860 net.cpp:425] inception_5b/5x5 <- inception_5b/5x5_reduce
I0403 16:14:37.176362 20860 net.cpp:399] inception_5b/5x5 -> inception_5b/5x5
I0403 16:14:37.178572 20860 net.cpp:141] Setting up inception_5b/5x5
I0403 16:14:37.178603 20860 net.cpp:148] Top shape: 24 128 7 7 (150528)
I0403 16:14:37.178619 20860 net.cpp:156] Memory required for data: 1335327264
I0403 16:14:37.178638 20860 layer_factory.hpp:77] Creating layer inception_5b/relu_5x5
I0403 16:14:37.178659 20860 net.cpp:91] Creating Layer inception_5b/relu_5x5
I0403 16:14:37.178678 20860 net.cpp:425] inception_5b/relu_5x5 <- inception_5b/5x5
I0403 16:14:37.178696 20860 net.cpp:386] inception_5b/relu_5x5 -> inception_5b/5x5 (in-place)
I0403 16:14:37.178905 20860 net.cpp:141] Setting up inception_5b/relu_5x5
I0403 16:14:37.178933 20860 net.cpp:148] Top shape: 24 128 7 7 (150528)
I0403 16:14:37.178949 20860 net.cpp:156] Memory required for data: 1335929376
I0403 16:14:37.178978 20860 layer_factory.hpp:77] Creating layer inception_5b/pool
I0403 16:14:37.178998 20860 net.cpp:91] Creating Layer inception_5b/pool
I0403 16:14:37.179015 20860 net.cpp:425] inception_5b/pool <- inception_5a/output_inception_5a/output_0_split_3
I0403 16:14:37.179038 20860 net.cpp:399] inception_5b/pool -> inception_5b/pool
I0403 16:14:37.179114 20860 net.cpp:141] Setting up inception_5b/pool
I0403 16:14:37.179141 20860 net.cpp:148] Top shape: 24 832 7 7 (978432)
I0403 16:14:37.179155 20860 net.cpp:156] Memory required for data: 1339843104
I0403 16:14:37.179170 20860 layer_factory.hpp:77] Creating layer inception_5b/pool_proj
I0403 16:14:37.179193 20860 net.cpp:91] Creating Layer inception_5b/pool_proj
I0403 16:14:37.179211 20860 net.cpp:425] inception_5b/pool_proj <- inception_5b/pool
I0403 16:14:37.179234 20860 net.cpp:399] inception_5b/pool_proj -> inception_5b/pool_proj
I0403 16:14:37.181694 20860 net.cpp:141] Setting up inception_5b/pool_proj
I0403 16:14:37.181725 20860 net.cpp:148] Top shape: 24 128 7 7 (150528)
I0403 16:14:37.181742 20860 net.cpp:156] Memory required for data: 1340445216
I0403 16:14:37.181761 20860 layer_factory.hpp:77] Creating layer inception_5b/relu_pool_proj
I0403 16:14:37.181793 20860 net.cpp:91] Creating Layer inception_5b/relu_pool_proj
I0403 16:14:37.181821 20860 net.cpp:425] inception_5b/relu_pool_proj <- inception_5b/pool_proj
I0403 16:14:37.181839 20860 net.cpp:386] inception_5b/relu_pool_proj -> inception_5b/pool_proj (in-place)
I0403 16:14:37.182176 20860 net.cpp:141] Setting up inception_5b/relu_pool_proj
I0403 16:14:37.182204 20860 net.cpp:148] Top shape: 24 128 7 7 (150528)
I0403 16:14:37.182220 20860 net.cpp:156] Memory required for data: 1341047328
I0403 16:14:37.182236 20860 layer_factory.hpp:77] Creating layer inception_5b/output
I0403 16:14:37.182255 20860 net.cpp:91] Creating Layer inception_5b/output
I0403 16:14:37.182287 20860 net.cpp:425] inception_5b/output <- inception_5b/1x1
I0403 16:14:37.182307 20860 net.cpp:425] inception_5b/output <- inception_5b/3x3
I0403 16:14:37.182323 20860 net.cpp:425] inception_5b/output <- inception_5b/5x5
I0403 16:14:37.182339 20860 net.cpp:425] inception_5b/output <- inception_5b/pool_proj
I0403 16:14:37.182359 20860 net.cpp:399] inception_5b/output -> inception_5b/output
I0403 16:14:37.182417 20860 net.cpp:141] Setting up inception_5b/output
I0403 16:14:37.182442 20860 net.cpp:148] Top shape: 24 1024 7 7 (1204224)
I0403 16:14:37.182457 20860 net.cpp:156] Memory required for data: 1345864224
I0403 16:14:37.182472 20860 layer_factory.hpp:77] Creating layer pool5/7x7_s1
I0403 16:14:37.182490 20860 net.cpp:91] Creating Layer pool5/7x7_s1
I0403 16:14:37.182507 20860 net.cpp:425] pool5/7x7_s1 <- inception_5b/output
I0403 16:14:37.182528 20860 net.cpp:399] pool5/7x7_s1 -> pool5/7x7_s1
I0403 16:14:37.182760 20860 net.cpp:141] Setting up pool5/7x7_s1
I0403 16:14:37.182786 20860 net.cpp:148] Top shape: 24 1024 1 1 (24576)
I0403 16:14:37.182802 20860 net.cpp:156] Memory required for data: 1345962528
I0403 16:14:37.182816 20860 layer_factory.hpp:77] Creating layer pool5/drop_7x7_s1
I0403 16:14:37.182837 20860 net.cpp:91] Creating Layer pool5/drop_7x7_s1
I0403 16:14:37.182854 20860 net.cpp:425] pool5/drop_7x7_s1 <- pool5/7x7_s1
I0403 16:14:37.182873 20860 net.cpp:386] pool5/drop_7x7_s1 -> pool5/7x7_s1 (in-place)
I0403 16:14:37.182927 20860 net.cpp:141] Setting up pool5/drop_7x7_s1
I0403 16:14:37.182952 20860 net.cpp:148] Top shape: 24 1024 1 1 (24576)
I0403 16:14:37.182972 20860 net.cpp:156] Memory required for data: 1346060832
I0403 16:14:37.182987 20860 layer_factory.hpp:77] Creating layer loss3/classifier_plantvillage
I0403 16:14:37.183007 20860 net.cpp:91] Creating Layer loss3/classifier_plantvillage
I0403 16:14:37.183023 20860 net.cpp:425] loss3/classifier_plantvillage <- pool5/7x7_s1
I0403 16:14:37.183045 20860 net.cpp:399] loss3/classifier_plantvillage -> loss3/classifier_plantvillage
I0403 16:14:37.183504 20860 net.cpp:141] Setting up loss3/classifier_plantvillage
I0403 16:14:37.183531 20860 net.cpp:148] Top shape: 24 38 (912)
I0403 16:14:37.183547 20860 net.cpp:156] Memory required for data: 1346064480
I0403 16:14:37.183564 20860 layer_factory.hpp:77] Creating layer loss3/classifier_plantvillage_loss3/classifier_plantvillage_0_split
I0403 16:14:37.183583 20860 net.cpp:91] Creating Layer loss3/classifier_plantvillage_loss3/classifier_plantvillage_0_split
I0403 16:14:37.183599 20860 net.cpp:425] loss3/classifier_plantvillage_loss3/classifier_plantvillage_0_split <- loss3/classifier_plantvillage
I0403 16:14:37.183620 20860 net.cpp:399] loss3/classifier_plantvillage_loss3/classifier_plantvillage_0_split -> loss3/classifier_plantvillage_loss3/classifier_plantvillage_0_split_0
I0403 16:14:37.183641 20860 net.cpp:399] loss3/classifier_plantvillage_loss3/classifier_plantvillage_0_split -> loss3/classifier_plantvillage_loss3/classifier_plantvillage_0_split_1
I0403 16:14:37.183662 20860 net.cpp:399] loss3/classifier_plantvillage_loss3/classifier_plantvillage_0_split -> loss3/classifier_plantvillage_loss3/classifier_plantvillage_0_split_2
I0403 16:14:37.183682 20860 net.cpp:399] loss3/classifier_plantvillage_loss3/classifier_plantvillage_0_split -> loss3/classifier_plantvillage_loss3/classifier_plantvillage_0_split_3
I0403 16:14:37.183790 20860 net.cpp:141] Setting up loss3/classifier_plantvillage_loss3/classifier_plantvillage_0_split
I0403 16:14:37.183815 20860 net.cpp:148] Top shape: 24 38 (912)
I0403 16:14:37.183831 20860 net.cpp:148] Top shape: 24 38 (912)
I0403 16:14:37.183847 20860 net.cpp:148] Top shape: 24 38 (912)
I0403 16:14:37.183863 20860 net.cpp:148] Top shape: 24 38 (912)
I0403 16:14:37.183878 20860 net.cpp:156] Memory required for data: 1346079072
I0403 16:14:37.183893 20860 layer_factory.hpp:77] Creating layer loss1/loss
I0403 16:14:37.183914 20860 net.cpp:91] Creating Layer loss1/loss
I0403 16:14:37.183933 20860 net.cpp:425] loss1/loss <- loss1/classifier_plantvillage_loss1/classifier_plantvillage_0_split_0
I0403 16:14:37.183969 20860 net.cpp:425] loss1/loss <- label_data_1_split_0
…
