…
I0403 16:39:21.523996 21304 net.cpp:313] The NetState phase (1) differed from the phase (0) specified by a rule in layer data
I0403 16:39:21.525118 21304 net.cpp:49] Initializing net from parameters: 
state {
  phase: TEST
}
layer {
  name: "data"
  type: "Data"
  top: "data"
  top: "label"
  include {
    phase: TEST
  }
  transform_param {
    mirror: false
    crop_size: 224
    mean_file: "/home/mohanty/data/final_dataset/lmdb/color-40-60/mean.binaryproto"
  }
  data_param {
    source: "/home/mohanty/data/final_dataset/lmdb/color-40-60/test_db"
    batch_size: 24
    backend: LMDB
  }
}
layer {
  name: "conv1/7x7_s2"
  type: "Convolution"
  bottom: "data"
  top: "conv1/7x7_s2"
  param {
    lr_mult: 1
    decay_mult: 1
  }
  param {
    lr_mult: 2
    decay_mult: 0
  }
  convolution_param {
    num_output: 64
    pad: 3
    kernel_size: 7
    stride: 2
    weight_filler {
      type: "xavier"
      std: 0.1
    }
    bias_filler {
      type: "constant"
      value: 0.2
    }
  }
}
layer {
  name: "conv1/relu_7x7"
  type: "ReLU"
  bottom: "conv1/7x7_s2"
  top: "conv1/7x7_s2"
}
layer {
  name: "pool1/3x3_s2"
  type: "Pooling"
  bottom: "conv1/7x7_s2"
  top: "pool1/3x3_s2"
  pooling_param {
    pool: MAX
    kernel_size: 3
    stride: 2
  }
}
layer {
  name: "pool1/norm1"
  type: "LRN"
  bottom: "pool1/3x3_s2"
  top: "pool1/norm1"
  lrn_param {
    local_size: 5
    alpha: 0.0001
    beta: 0.75
  }
}
layer {
  name: "conv2/3x3_reduce"
  type: "Convolution"
  bottom: "pool1/norm1"
  top: "conv2/3x3_reduce"
  param {
    lr_mult: 1
    decay_mult: 1
  }
  param {
    lr_mult: 2
    decay_mult: 0
  }
  convolution_param {
    num_output: 64
    kernel_size: 1
    weight_filler {
      type: "xavier"
      std: 0.1
    }
    bias_filler {
      type: "constant"
      value: 0.2
    }
  }
}
layer {
  name: "conv2/relu_3x3_reduce"
  type: "ReLU"
  bottom: "conv2/3x3_reduce"
  top: "conv2/3x3_reduce"
}
layer {
  name: "conv2/3x3"
  type: "Convolution"
  bottom: "conv2/3x3_reduce"
  top: "conv2/3x3"
  param {
    lr_mult: 1
    decay_mult: 1
  }
  param {
    lr_mult: 2
    decay_mult: 0
  }
  convolution_param {
    num_output: 192
    pad: 1
    kernel_size: 3
    weight_filler {
      type: "xavier"
      std: 0.03
    }
    bias_filler {
      type: "constant"
      value: 0.2
    }
  }
}
layer {
  name: "conv2/relu_3x3"
  type: "ReLU"
  bottom: "conv2/3x3"
  top: "conv2/3x3"
}
layer {
  name: "conv2/norm2"
  type: "LRN"
  bottom: "conv2/3x3"
  top: "conv2/norm2"
  lrn_param {
    local_size: 5
    alpha: 0.0001
    beta: 0.75
  }
}
layer {
  name: "pool2/3x3_s2"
  type: "Pooling"
  bottom: "conv2/norm2"
  top: "pool2/3x3_s2"
  pooling_param {
    pool: MAX
    kernel_size: 3
    stride: 2
  }
}
layer {
  name: "inception_3a/1x1"
  type: "Convolution"
  bottom: "pool2/3x3_s2"
  top: "inception_3a/1x1"
  param {
    lr_mult: 1
    decay_mult: 1
  }
  param {
    lr_mult: 2
    decay_mult: 0
  }
  convolution_param {
    num_output: 64
    kernel_size: 1
    weight_filler {
      type: "xavier"
      std: 0.03
    }
    bias_filler {
      type: "constant"
      value: 0.2
    }
  }
}
layer {
  name: "inception_3a/relu_1x1"
  type: "ReLU"
  bottom: "inception_3a/1x1"
  top: "inception_3a/1x1"
}
layer {
  name: "inception_3a/3x3_reduce"
  type: "Convolution"
  bottom: "pool2/3x3_s2"
  top: "inception_3a/3x3_reduce"
  param {
    lr_mult: 1
    decay_mult: 1
  }
  param {
    lr_mult: 2
    decay_mult: 0
  }
  convolution_param {
    num_output: 96
    kernel_size: 1
    weight_filler {
      type: "xavier"
      std: 0.09
    }
    bias_filler {
      type: "constant"
      value: 0.2
    }
  }
}
layer {
  name: "inception_3a/relu_3x3_reduce"
  type: "ReLU"
  bottom: "inception_3a/3x3_reduce"
  top: "inception_3a/3x3_reduce"
}
layer {
  name: "inception_3a/3x3"
  type: "Convolution"
  bottom: "inception_3a/3x3_reduce"
  top: "inception_3a/3x3"
  param {
    lr_mult: 1
    decay_mult: 1
  }
  param {
    lr_mult: 2
    decay_mult: 0
  }
  convolution_param {
    num_output: 128
    pad: 1
    kernel_size: 3
    weight_filler {
      type: "xavier"
      std: 0.03
    }
    bias_filler {
      type: "constant"
      value: 0.2
    }
  }
}
layer {
  name: "inception_3a/relu_3x3"
  type: "ReLU"
  bottom: "inception_3a/3x3"
  top: "inception_3a/3x3"
}
layer {
  name: "inception_3a/5x5_reduce"
  type: "Convolution"
  bottom: "pool2/3x3_s2"
  top: "inception_3a/5x5_reduce"
  param {
    lr_mult: 1
    decay_mult: 1
  }
  param {
    lr_mult: 2
    decay_mult: 0
  }
  convolution_param {
    num_output: 16
    kernel_size: 1
    weight_filler {
      type: "xavier"
      std: 0.2
    }
    bias_filler {
      type: "constant"
      value: 0.2
    }
  }
}
layer {
  name: "inception_3a/relu_5x5_reduce"
  type: "ReLU"
  bottom: "inception_3a/5x5_reduce"
  top: "inception_3a/5x5_reduce"
}
layer {
  name: "inception_3a/5x5"
  type: "Convolution"
  bottom: "inception_3a/5x5_reduce"
  top: "inception_3a/5x5"
  param {
    lr_mult: 1
    decay_mult: 1
  }
  param {
    lr_mult: 2
    decay_mult: 0
  }
  convolution_param {
    num_output: 32
    pad: 2
    kernel_size: 5
    weight_filler {
      type: "xavier"
      std: 0.03
    }
    bias_filler {
      type: "constant"
      value: 0.2
    }
  }
}
layer {
  name: "inception_3a/relu_5x5"
  type: "ReLU"
  bottom: "inception_3a/5x5"
  top: "inception_3a/5x5"
}
layer {
  name: "inception_3a/pool"
  type: "Pooling"
  bottom: "pool2/3x3_s2"
  top: "inception_3a/pool"
  pooling_param {
    pool: MAX
    kernel_size: 3
    stride: 1
    pad: 1
  }
}
layer {
  name: "inception_3a/pool_proj"
  type: "Convolution"
  bottom: "inception_3a/pool"
  top: "inception_3a/pool_proj"
  param {
    lr_mult: 1
    decay_mult: 1
  }
  param {
    lr_mult: 2
    decay_mult: 0
  }
  convolution_param {
    num_output: 32
    kernel_size: 1
    weight_filler {
      type: "xavier"
      std: 0.1
    }
    bias_filler {
      type: "constant"
      value: 0.2
    }
  }
}
layer {
  name: "inception_3a/relu_pool_proj"
  type: "ReLU"
  bottom: "inception_3a/pool_proj"
  top: "inception_3a/pool_proj"
}
layer {
  name: "inception_3a/output"
  type: "Concat"
  bottom: "inception_3a/1x1"
  bottom: "inception_3a/3x3"
  bottom: "inception_3a/5x5"
  bottom: "inception_3a/pool_proj"
  top: "inception_3a/output"
}
layer {
  name: "inception_3b/1x1"
  type: "Convolution"
  bottom: "inception_3a/output"
  top: "inception_3b/1x1"
  param {
    lr_mult: 1
    decay_mult: 1
  }
  param {
    lr_mult: 2
    decay_mult: 0
  }
  convolution_param {
    num_output: 128
    kernel_size: 1
    weight_filler {
      type: "xavier"
      std: 0.03
    }
    bias_filler {
      type: "constant"
      value: 0.2
    }
  }
}
layer {
  name: "inception_3b/relu_1x1"
  type: "ReLU"
  bottom: "inception_3b/1x1"
  top: "inception_3b/1x1"
}
layer {
  name: "inception_3b/3x3_reduce"
  type: "Convolution"
  bottom: "inception_3a/output"
  top: "inception_3b/3x3_reduce"
  param {
    lr_mult: 1
    decay_mult: 1
  }
  param {
    lr_mult: 2
    decay_mult: 0
  }
  convolution_param {
    num_output: 128
    kernel_size: 1
    weight_filler {
      type: "xavier"
      std: 0.09
    }
    bias_filler {
      type: "constant"
      value: 0.2
    }
  }
}
layer {
  name: "inception_3b/relu_3x3_reduce"
  type: "ReLU"
  bottom: "inception_3b/3x3_reduce"
  top: "inception_3b/3x3_reduce"
}
layer {
  name: "inception_3b/3x3"
  type: "Convolution"
  bottom: "inception_3b/3x3_reduce"
  top: "inception_3b/3x3"
  param {
    lr_mult: 1
    decay_mult: 1
  }
  param {
    lr_mult: 2
    decay_mult: 0
  }
  convolution_param {
    num_output: 192
    pad: 1
    kernel_size: 3
    weight_filler {
      type: "xavier"
      std: 0.03
    }
    bias_filler {
      type: "constant"
      value: 0.2
    }
  }
}
layer {
  name: "inception_3b/relu_3x3"
  type: "ReLU"
  bottom: "inception_3b/3x3"
  top: "inception_3b/3x3"
}
layer {
  name: "inception_3b/5x5_reduce"
  type: "Convolution"
  bottom: "inception_3a/output"
  top: "inception_3b/5x5_reduce"
  param {
    lr_mult: 1
    decay_mult: 1
  }
  param {
    lr_mult: 2
    decay_mult: 0
  }
  convolution_param {
    num_output: 32
    kernel_size: 1
    weight_filler {
      type: "xavier"
      std: 0.2
    }
    bias_filler {
      type: "constant"
      value: 0.2
    }
  }
}
layer {
  name: "inception_3b/relu_5x5_reduce"
  type: "ReLU"
  bottom: "inception_3b/5x5_reduce"
  top: "inception_3b/5x5_reduce"
}
layer {
  name: "inception_3b/5x5"
  type: "Convolution"
  bottom: "inception_3b/5x5_reduce"
  top: "inception_3b/5x5"
  param {
    lr_mult: 1
    decay_mult: 1
  }
  param {
    lr_mult: 2
    decay_mult: 0
  }
  convolution_param {
    num_output: 96
    pad: 2
    kernel_size: 5
    weight_filler {
      type: "xavier"
      std: 0.03
    }
    bias_filler {
      type: "constant"
      value: 0.2
    }
  }
}
layer {
  name: "inception_3b/relu_5x5"
  type: "ReLU"
  bottom: "inception_3b/5x5"
  top: "inception_3b/5x5"
}
layer {
  name: "inception_3b/pool"
  type: "Pooling"
  bottom: "inception_3a/output"
  top: "inception_3b/pool"
  pooling_param {
    pool: MAX
    kernel_size: 3
    stride: 1
    pad: 1
  }
}
layer {
  name: "inception_3b/pool_proj"
  type: "Convolution"
  bottom: "inception_3b/pool"
  top: "inception_3b/pool_proj"
  param {
    lr_mult: 1
    decay_mult: 1
  }
  param {
    lr_mult: 2
    decay_mult: 0
  }
  convolution_param {
    num_output: 64
    kernel_size: 1
    weight_filler {
      type: "xavier"
      std: 0.1
    }
    bias_filler {
      type: "constant"
      value: 0.2
    }
  }
}
layer {
  name: "inception_3b/relu_pool_proj"
  type: "ReLU"
  bottom: "inception_3b/pool_proj"
  top: "inception_3b/pool_proj"
}
layer {
  name: "inception_3b/output"
  type: "Concat"
  bottom: "inception_3b/1x1"
  bottom: "inception_3b/3x3"
  bottom: "inception_3b/5x5"
  bottom: "inception_3b/pool_proj"
  top: "inception_3b/output"
}
layer {
  name: "pool3/3x3_s2"
  type: "Pooling"
  bottom: "inception_3b/output"
  top: "pool3/3x3_s2"
  pooling_param {
    pool: MAX
    kernel_size: 3
    stride: 2
  }
}
layer {
  name: "inception_4a/1x1"
  type: "Convolution"
  bottom: "pool3/3x3_s2"
  top: "inception_4a/1x1"
  param {
    lr_mult: 1
    decay_mult: 1
  }
  param {
    lr_mult: 2
    decay_mult: 0
  }
  convolution_param {
    num_output: 192
    kernel_size: 1
    weight_filler {
      type: "xavier"
      std: 0.03
    }
    bias_filler {
      type: "constant"
      value: 0.2
    }
  }
}
layer {
  name: "inception_4a/relu_1x1"
  type: "ReLU"
  bottom: "inception_4a/1x1"
  top: "inception_4a/1x1"
}
layer {
  name: "inception_4a/3x3_reduce"
  type: "Convolution"
  bottom: "pool3/3x3_s2"
  top: "inception_4a/3x3_reduce"
  param {
    lr_mult: 1
    decay_mult: 1
  }
  param {
    lr_mult: 2
    decay_mult: 0
  }
  convolution_param {
    num_output: 96
    kernel_size: 1
    weight_filler {
      type: "xavier"
      std: 0.09
    }
    bias_filler {
      type: "constant"
      value: 0.2
    }
  }
}
layer {
  name: "inception_4a/relu_3x3_reduce"
  type: "ReLU"
  bottom: "inception_4a/3x3_reduce"
  top: "inception_4a/3x3_reduce"
}
layer {
  name: "inception_4a/3x3"
  type: "Convolution"
  bottom: "inception_4a/3x3_reduce"
  top: "inception_4a/3x3"
  param {
    lr_mult: 1
    decay_mult: 1
  }
  param {
    lr_mult: 2
    decay_mult: 0
  }
  convolution_param {
    num_output: 208
    pad: 1
    kernel_size: 3
    weight_filler {
      type: "xavier"
      std: 0.03
    }
    bias_filler {
      type: "constant"
      value: 0.2
    }
  }
}
layer {
  name: "inception_4a/relu_3x3"
  type: "ReLU"
  bottom: "inception_4a/3x3"
  top: "inception_4a/3x3"
}
layer {
  name: "inception_4a/5x5_reduce"
  type: "Convolution"
  bottom: "pool3/3x3_s2"
  top: "inception_4a/5x5_reduce"
  param {
    lr_mult: 1
    decay_mult: 1
  }
  param {
    lr_mult: 2
    decay_mult: 0
  }
  convolution_param {
    num_output: 16
    kernel_size: 1
    weight_filler {
      type: "xavier"
      std: 0.2
    }
    bias_filler {
      type: "constant"
      value: 0.2
    }
  }
}
layer {
  name: "inception_4a/relu_5x5_reduce"
  type: "ReLU"
  bottom: "inception_4a/5x5_reduce"
  top: "inception_4a/5x5_reduce"
}
layer {
  name: "inception_4a/5x5"
  type: "Convolution"
  bottom: "inception_4a/5x5_reduce"
  top: "inception_4a/5x5"
  param {
    lr_mult: 1
    decay_mult: 1
  }
  param {
    lr_mult: 2
    decay_mult: 0
  }
  convolution_param {
    num_output: 48
    pad: 2
    kernel_size: 5
    weight_filler {
      type: "xavier"
      std: 0.03
    }
    bias_filler {
      type: "constant"
      value: 0.2
    }
  }
}
layer {
  name: "inception_4a/relu_5x5"
  type: "ReLU"
  bottom: "inception_4a/5x5"
  top: "inception_4a/5x5"
}
layer {
  name: "inception_4a/pool"
  type: "Pooling"
  bottom: "pool3/3x3_s2"
  top: "inception_4a/pool"
  pooling_param {
    pool: MAX
    kernel_size: 3
    stride: 1
    pad: 1
  }
}
layer {
  name: "inception_4a/pool_proj"
  type: "Convolution"
  bottom: "inception_4a/pool"
  top: "inception_4a/pool_proj"
  param {
    lr_mult: 1
    decay_mult: 1
  }
  param {
    lr_mult: 2
    decay_mult: 0
  }
  convolution_param {
    num_output: 64
    kernel_size: 1
    weight_filler {
      type: "xavier"
      std: 0.1
    }
    bias_filler {
      type: "constant"
      value: 0.2
    }
  }
}
layer {
  name: "inception_4a/relu_pool_proj"
  type: "ReLU"
  bottom: "inception_4a/pool_proj"
  top: "inception_4a/pool_proj"
}
layer {
  name: "inception_4a/output"
  type: "Concat"
  bottom: "inception_4a/1x1"
  bottom: "inception_4a/3x3"
  bottom: "inception_4a/5x5"
  bottom: "inception_4a/pool_proj"
  top: "inception_4a/output"
}
layer {
  name: "loss1/ave_pool"
  type: "Pooling"
  bottom: "inception_4a/output"
  top: "loss1/ave_pool"
  pooling_param {
    pool: AVE
    kernel_size: 5
    stride: 3
  }
}
layer {
  name: "loss1/conv"
  type: "Convolution"
  bottom: "loss1/ave_pool"
  top: "loss1/conv"
  param {
    lr_mult: 1
    decay_mult: 1
  }
  param {
    lr_mult: 2
    decay_mult: 0
  }
  convolution_param {
    num_output: 128
    kernel_size: 1
    weight_filler {
      type: "xavier"
      std: 0.08
    }
    bias_filler {
      type: "constant"
      value: 0.2
    }
  }
}
layer {
  name: "loss1/relu_conv"
  type: "ReLU"
  bottom: "loss1/conv"
  top: "loss1/conv"
}
layer {
  name: "loss1/fc"
  type: "InnerProduct"
  bottom: "loss1/conv"
  top: "loss1/fc"
  param {
    lr_mult: 1
    decay_mult: 1
  }
  param {
    lr_mult: 2
    decay_mult: 0
  }
  inner_product_param {
    num_output: 1024
    weight_filler {
      type: "xavier"
      std: 0.02
    }
    bias_filler {
      type: "constant"
      value: 0.2
    }
  }
}
layer {
  name: "loss1/relu_fc"
  type: "ReLU"
  bottom: "loss1/fc"
  top: "loss1/fc"
}
layer {
  name: "loss1/drop_fc"
  type: "Dropout"
  bottom: "loss1/fc"
  top: "loss1/fc"
  dropout_param {
    dropout_ratio: 0.7
  }
}
layer {
  name: "loss1/classifier_plantvillage"
  type: "InnerProduct"
  bottom: "loss1/fc"
  top: "loss1/classifier_plantvillage"
  param {
    lr_mult: 1
    decay_mult: 1
  }
  param {
    lr_mult: 2
    decay_mult: 0
  }
  inner_product_param {
    num_output: 38
    weight_filler {
      type: "xavier"
      std: 0.0009765625
    }
    bias_filler {
      type: "constant"
      value: 0
    }
  }
}
layer {
  name: "inception_4b/1x1"
  type: "Convolution"
  bottom: "inception_4a/output"
  top: "inception_4b/1x1"
  param {
    lr_mult: 1
    decay_mult: 1
  }
  param {
    lr_mult: 2
    decay_mult: 0
  }
  convolution_param {
    num_output: 160
    kernel_size: 1
    weight_filler {
      type: "xavier"
      std: 0.03
    }
    bias_filler {
      type: "constant"
      value: 0.2
    }
  }
}
layer {
  name: "inception_4b/relu_1x1"
  type: "ReLU"
  bottom: "inception_4b/1x1"
  top: "inception_4b/1x1"
}
layer {
  name: "inception_4b/3x3_reduce"
  type: "Convolution"
  bottom: "inception_4a/output"
  top: "inception_4b/3x3_reduce"
  param {
    lr_mult: 1
    decay_mult: 1
  }
  param {
    lr_mult: 2
    decay_mult: 0
  }
  convolution_param {
    num_output: 112
    kernel_size: 1
    weight_filler {
      type: "xavier"
      std: 0.09
    }
    bias_filler {
      type: "constant"
      value: 0.2
    }
  }
}
layer {
  name: "inception_4b/relu_3x3_reduce"
  type: "ReLU"
  bottom: "inception_4b/3x3_reduce"
  top: "inception_4b/3x3_reduce"
}
layer {
  name: "inception_4b/3x3"
  type: "Convolution"
  bottom: "inception_4b/3x3_reduce"
  top: "inception_4b/3x3"
  param {
    lr_mult: 1
    decay_mult: 1
  }
  param {
    lr_mult: 2
    decay_mult: 0
  }
  convolution_param {
    num_output: 224
    pad: 1
    kernel_size: 3
    weight_filler {
      type: "xavier"
      std: 0.03
    }
    bias_filler {
      type: "constant"
      value: 0.2
    }
  }
}
layer {
  name: "inception_4b/relu_3x3"
  type: "ReLU"
  bottom: "inception_4b/3x3"
  top: "inception_4b/3x3"
}
layer {
  name: "inception_4b/5x5_reduce"
  type: "Convolution"
  bottom: "inception_4a/output"
  top: "inception_4b/5x5_reduce"
  param {
    lr_mult: 1
    decay_mult: 1
  }
  param {
    lr_mult: 2
    decay_mult: 0
  }
  convolution_param {
    num_output: 24
    kernel_size: 1
    weight_filler {
      type: "xavier"
      std: 0.2
    }
    bias_filler {
      type: "constant"
      value: 0.2
    }
  }
}
layer {
  name: "inception_4b/relu_5x5_reduce"
  type: "ReLU"
  bottom: "inception_4b/5x5_reduce"
  top: "inception_4b/5x5_reduce"
}
layer {
  name: "inception_4b/5x5"
  type: "Convolution"
  bottom: "inception_4b/5x5_reduce"
  top: "inception_4b/5x5"
  param {
    lr_mult: 1
    decay_mult: 1
  }
  param {
    lr_mult: 2
    decay_mult: 0
  }
  convolution_param {
    num_output: 64
    pad: 2
    kernel_size: 5
    weight_filler {
      type: "xavier"
      std: 0.03
    }
    bias_filler {
      type: "constant"
      value: 0.2
    }
  }
}
layer {
  name: "inception_4b/relu_5x5"
  type: "ReLU"
  bottom: "inception_4b/5x5"
  top: "inception_4b/5x5"
}
layer {
  name: "inception_4b/pool"
  type: "Pooling"
  bottom: "inception_4a/output"
  top: "inception_4b/pool"
  pooling_param {
    pool: MAX
    kernel_size: 3
    stride: 1
    pad: 1
  }
}
layer {
  name: "inception_4b/pool_proj"
  type: "Convolution"
  bottom: "inception_4b/pool"
  top: "inception_4b/pool_proj"
  param {
    lr_mult: 1
    decay_mult: 1
  }
  param {
    lr_mult: 2
    decay_mult: 0
  }
  convolution_param {
    num_output: 64
    kernel_size: 1
    weight_filler {
      type: "xavier"
      std: 0.1
    }
    bias_filler {
      type: "constant"
      value: 0.2
    }
  }
}
layer {
  name: "inception_4b/relu_pool_proj"
  type: "ReLU"
  bottom: "inception_4b/pool_proj"
  top: "inception_4b/pool_proj"
}
layer {
  name: "inception_4b/output"
  type: "Concat"
  bottom: "inception_4b/1x1"
  bottom: "inception_4b/3x3"
  bottom: "inception_4b/5x5"
  bottom: "inception_4b/pool_proj"
  top: "inception_4b/output"
}
layer {
  name: "inception_4c/1x1"
  type: "Convolution"
  bottom: "inception_4b/output"
  top: "inception_4c/1x1"
  param {
    lr_mult: 1
    decay_mult: 1
  }
  param {
    lr_mult: 2
    decay_mult: 0
  }
  convolution_param {
    num_output: 128
    kernel_size: 1
    weight_filler {
      type: "xavier"
      std: 0.03
    }
    bias_filler {
      type: "constant"
      value: 0.2
    }
  }
}
layer {
  name: "inception_4c/relu_1x1"
  type: "ReLU"
  bottom: "inception_4c/1x1"
  top: "inception_4c/1x1"
}
layer {
  name: "inception_4c/3x3_reduce"
  type: "Convolution"
  bottom: "inception_4b/output"
  top: "inception_4c/3x3_reduce"
  param {
    lr_mult: 1
    decay_mult: 1
  }
  param {
    lr_mult: 2
    decay_mult: 0
  }
  convolution_param {
    num_output: 128
    kernel_size: 1
    weight_filler {
      type: "xavier"
      std: 0.09
    }
    bias_filler {
      type: "constant"
      value: 0.2
    }
  }
}
layer {
  name: "inception_4c/relu_3x3_reduce"
  type: "ReLU"
  bottom: "inception_4c/3x3_reduce"
  top: "inception_4c/3x3_reduce"
}
layer {
  name: "inception_4c/3x3"
  type: "Convolution"
  bottom: "inception_4c/3x3_reduce"
  top: "inception_4c/3x3"
  param {
    lr_mult: 1
    decay_mult: 1
  }
  param {
    lr_mult: 2
    decay_mult: 0
  }
  convolution_param {
    num_output: 256
    pad: 1
    kernel_size: 3
    weight_filler {
      type: "xavier"
      std: 0.03
    }
    bias_filler {
      type: "constant"
      value: 0.2
    }
  }
}
layer {
  name: "inception_4c/relu_3x3"
  type: "ReLU"
  bottom: "inception_4c/3x3"
  top: "inception_4c/3x3"
}
layer {
  name: "inception_4c/5x5_reduce"
  type: "Convolution"
  bottom: "inception_4b/output"
  top: "inception_4c/5x5_reduce"
  param {
    lr_mult: 1
    decay_mult: 1
  }
  param {
    lr_mult: 2
    decay_mult: 0
  }
  convolution_param {
    num_output: 24
    kernel_size: 1
    weight_filler {
      type: "xavier"
      std: 0.2
    }
    bias_filler {
      type: "constant"
      value: 0.2
    }
  }
}
layer {
  name: "inception_4c/relu_5x5_reduce"
  type: "ReLU"
  bottom: "inception_4c/5x5_reduce"
  top: "inception_4c/5x5_reduce"
}
layer {
  name: "inception_4c/5x5"
  type: "Convolution"
  bottom: "inception_4c/5x5_reduce"
  top: "inception_4c/5x5"
  param {
    lr_mult: 1
    decay_mult: 1
  }
  param {
    lr_mult: 2
    decay_mult: 0
  }
  convolution_param {
    num_output: 64
    pad: 2
    kernel_size: 5
    weight_filler {
      type: "xavier"
      std: 0.03
    }
    bias_filler {
      type: "constant"
      value: 0.2
    }
  }
}
layer {
  name: "inception_4c/relu_5x5"
  type: "ReLU"
  bottom: "inception_4c/5x5"
  top: "inception_4c/5x5"
}
layer {
  name: "inception_4c/pool"
  type: "Pooling"
  bottom: "inception_4b/output"
  top: "inception_4c/pool"
  pooling_param {
    pool: MAX
    kernel_size: 3
    stride: 1
    pad: 1
  }
}
layer {
  name: "inception_4c/pool_proj"
  type: "Convolution"
  bottom: "inception_4c/pool"
  top: "inception_4c/pool_proj"
  param {
    lr_mult: 1
    decay_mult: 1
  }
  param {
    lr_mult: 2
    decay_mult: 0
  }
  convolution_param {
    num_output: 64
    kernel_size: 1
    weight_filler {
      type: "xavier"
      std: 0.1
    }
    bias_filler {
      type: "constant"
      value: 0.2
    }
  }
}
layer {
  name: "inception_4c/relu_pool_proj"
  type: "ReLU"
  bottom: "inception_4c/pool_proj"
  top: "inception_4c/pool_proj"
}
layer {
  name: "inception_4c/output"
  type: "Concat"
  bottom: "inception_4c/1x1"
  bottom: "inception_4c/3x3"
  bottom: "inception_4c/5x5"
  bottom: "inception_4c/pool_proj"
  top: "inception_4c/output"
}
layer {
  name: "inception_4d/1x1"
  type: "Convolution"
  bottom: "inception_4c/output"
  top: "inception_4d/1x1"
  param {
    lr_mult: 1
    decay_mult: 1
  }
  param {
    lr_mult: 2
    decay_mult: 0
  }
  convolution_param {
    num_output: 112
    kernel_size: 1
    weight_filler {
      type: "xavier"
      std: 0.03
    }
    bias_filler {
      type: "constant"
      value: 0.2
    }
  }
}
layer {
  name: "inception_4d/relu_1x1"
  type: "ReLU"
  bottom: "inception_4d/1x1"
  top: "inception_4d/1x1"
}
layer {
  name: "inception_4d/3x3_reduce"
  type: "Convolution"
  bottom: "inception_4c/output"
  top: "inception_4d/3x3_reduce"
  param {
    lr_mult: 1
    decay_mult: 1
  }
  param {
    lr_mult: 2
    decay_mult: 0
  }
  convolution_param {
    num_output: 144
    kernel_size: 1
    weight_filler {
      type: "xavier"
      std: 0.09
    }
    bias_filler {
      type: "constant"
      value: 0.2
    }
  }
}
layer {
  name: "inception_4d/relu_3x3_reduce"
  type: "ReLU"
  bottom: "inception_4d/3x3_reduce"
  top: "inception_4d/3x3_reduce"
}
layer {
  name: "inception_4d/3x3"
  type: "Convolution"
  bottom: "inception_4d/3x3_reduce"
  top: "inception_4d/3x3"
  param {
    lr_mult: 1
    decay_mult: 1
  }
  param {
    lr_mult: 2
    decay_mult: 0
  }
  convolution_param {
    num_output: 288
    pad: 1
    kernel_size: 3
    weight_filler {
      type: "xavier"
      std: 0.03
    }
    bias_filler {
      type: "constant"
      value: 0.2
    }
  }
}
layer {
  name: "inception_4d/relu_3x3"
  type: "ReLU"
  bottom: "inception_4d/3x3"
  top: "inception_4d/3x3"
}
layer {
  name: "inception_4d/5x5_reduce"
  type: "Convolution"
  bottom: "inception_4c/output"
  top: "inception_4d/5x5_reduce"
  param {
    lr_mult: 1
    decay_mult: 1
  }
  param {
    lr_mult: 2
    decay_mult: 0
  }
  convolution_param {
    num_output: 32
    kernel_size: 1
    weight_filler {
      type: "xavier"
      std: 0.2
    }
    bias_filler {
      type: "constant"
      value: 0.2
    }
  }
}
layer {
  name: "inception_4d/relu_5x5_reduce"
  type: "ReLU"
  bottom: "inception_4d/5x5_reduce"
  top: "inception_4d/5x5_reduce"
}
layer {
  name: "inception_4d/5x5"
  type: "Convolution"
  bottom: "inception_4d/5x5_reduce"
  top: "inception_4d/5x5"
  param {
    lr_mult: 1
    decay_mult: 1
  }
  param {
    lr_mult: 2
    decay_mult: 0
  }
  convolution_param {
    num_output: 64
    pad: 2
    kernel_size: 5
    weight_filler {
      type: "xavier"
      std: 0.03
    }
    bias_filler {
      type: "constant"
      value: 0.2
    }
  }
}
layer {
  name: "inception_4d/relu_5x5"
  type: "ReLU"
  bottom: "inception_4d/5x5"
  top: "inception_4d/5x5"
}
layer {
  name: "inception_4d/pool"
  type: "Pooling"
  bottom: "inception_4c/output"
  top: "inception_4d/pool"
  pooling_param {
    pool: MAX
    kernel_size: 3
    stride: 1
    pad: 1
  }
}
layer {
  name: "inception_4d/pool_proj"
  type: "Convolution"
  bottom: "inception_4d/pool"
  top: "inception_4d/pool_proj"
  param {
    lr_mult: 1
    decay_mult: 1
  }
  param {
    lr_mult: 2
    decay_mult: 0
  }
  convolution_param {
    num_output: 64
    kernel_size: 1
    weight_filler {
      type: "xavier"
      std: 0.1
    }
    bias_filler {
      type: "constant"
      value: 0.2
    }
  }
}
layer {
  name: "inception_4d/relu_pool_proj"
  type: "ReLU"
  bottom: "inception_4d/pool_proj"
  top: "inception_4d/pool_proj"
}
layer {
  name: "inception_4d/output"
  type: "Concat"
  bottom: "inception_4d/1x1"
  bottom: "inception_4d/3x3"
  bottom: "inception_4d/5x5"
  bottom: "inception_4d/pool_proj"
  top: "inception_4d/output"
}
layer {
  name: "loss2/ave_pool"
  type: "Pooling"
  bottom: "inception_4d/output"
  top: "loss2/ave_pool"
  pooling_param {
    pool: AVE
    kernel_size: 5
    stride: 3
  }
}
layer {
  name: "loss2/conv"
  type: "Convolution"
  bottom: "loss2/ave_pool"
  top: "loss2/conv"
  param {
    lr_mult: 1
    decay_mult: 1
  }
  param {
    lr_mult: 2
    decay_mult: 0
  }
  convolution_param {
    num_output: 128
    kernel_size: 1
    weight_filler {
      type: "xavier"
      std: 0.08
    }
    bias_filler {
      type: "constant"
      value: 0.2
    }
  }
}
layer {
  name: "loss2/relu_conv"
  type: "ReLU"
  bottom: "loss2/conv"
  top: "loss2/conv"
}
layer {
  name: "loss2/fc"
  type: "InnerProduct"
  bottom: "loss2/conv"
  top: "loss2/fc"
  param {
    lr_mult: 1
    decay_mult: 1
  }
  param {
    lr_mult: 2
    decay_mult: 0
  }
  inner_product_param {
    num_output: 1024
    weight_filler {
      type: "xavier"
      std: 0.02
    }
    bias_filler {
      type: "constant"
      value: 0.2
    }
  }
}
layer {
  name: "loss2/relu_fc"
  type: "ReLU"
  bottom: "loss2/fc"
  top: "loss2/fc"
}
layer {
  name: "loss2/drop_fc"
  type: "Dropout"
  bottom: "loss2/fc"
  top: "loss2/fc"
  dropout_param {
    dropout_ratio: 0.7
  }
}
layer {
  name: "loss2/classifier_plantvillage"
  type: "InnerProduct"
  bottom: "loss2/fc"
  top: "loss2/classifier_plantvillage"
  param {
    lr_mult: 1
    decay_mult: 1
  }
  param {
    lr_mult: 2
    decay_mult: 0
  }
  inner_product_param {
    num_output: 38
    weight_filler {
      type: "xavier"
      std: 0.0009765625
    }
    bias_filler {
      type: "constant"
      value: 0
    }
  }
}
layer {
  name: "inception_4e/1x1"
  type: "Convolution"
  bottom: "inception_4d/output"
  top: "inception_4e/1x1"
  param {
    lr_mult: 1
    decay_mult: 1
  }
  param {
    lr_mult: 2
    decay_mult: 0
  }
  convolution_param {
    num_output: 256
    kernel_size: 1
    weight_filler {
      type: "xavier"
      std: 0.03
    }
    bias_filler {
      type: "constant"
      value: 0.2
    }
  }
}
layer {
  name: "inception_4e/relu_1x1"
  type: "ReLU"
  bottom: "inception_4e/1x1"
  top: "inception_4e/1x1"
}
layer {
  name: "inception_4e/3x3_reduce"
  type: "Convolution"
  bottom: "inception_4d/output"
  top: "inception_4e/3x3_reduce"
  param {
    lr_mult: 1
    decay_mult: 1
  }
  param {
    lr_mult: 2
    decay_mult: 0
  }
  convolution_param {
    num_output: 160
    kernel_size: 1
    weight_filler {
      type: "xavier"
      std: 0.09
    }
    bias_filler {
      type: "constant"
      value: 0.2
    }
  }
}
layer {
  name: "inception_4e/relu_3x3_reduce"
  type: "ReLU"
  bottom: "inception_4e/3x3_reduce"
  top: "inception_4e/3x3_reduce"
}
layer {
  name: "inception_4e/3x3"
  type: "Convolution"
  bottom: "inception_4e/3x3_reduce"
  top: "inception_4e/3x3"
  param {
    lr_mult: 1
    decay_mult: 1
  }
  param {
    lr_mult: 2
    decay_mult: 0
  }
  convolution_param {
    num_output: 320
    pad: 1
    kernel_size: 3
    weight_filler {
      type: "xavier"
      std: 0.03
    }
    bias_filler {
      type: "constant"
      value: 0.2
    }
  }
}
layer {
  name: "inception_4e/relu_3x3"
  type: "ReLU"
  bottom: "inception_4e/3x3"
  top: "inception_4e/3x3"
}
layer {
  name: "inception_4e/5x5_reduce"
  type: "Convolution"
  bottom: "inception_4d/output"
  top: "inception_4e/5x5_reduce"
  param {
    lr_mult: 1
    decay_mult: 1
  }
  param {
    lr_mult: 2
    decay_mult: 0
  }
  convolution_param {
    num_output: 32
    kernel_size: 1
    weight_filler {
      type: "xavier"
      std: 0.2
    }
    bias_filler {
      type: "constant"
      value: 0.2
    }
  }
}
layer {
  name: "inception_4e/relu_5x5_reduce"
  type: "ReLU"
  bottom: "inception_4e/5x5_reduce"
  top: "inception_4e/5x5_reduce"
}
layer {
  name: "inception_4e/5x5"
  type: "Convolution"
  bottom: "inception_4e/5x5_reduce"
  top: "inception_4e/5x5"
  p
I0403 16:39:21.526310 21304 layer_factory.hpp:77] Creating layer data
I0403 16:39:21.526892 21304 net.cpp:91] Creating Layer data
I0403 16:39:21.526924 21304 net.cpp:399] data -> data
I0403 16:39:21.526978 21304 net.cpp:399] data -> label
I0403 16:39:21.527014 21304 data_transformer.cpp:25] Loading mean file from: /home/mohanty/data/final_dataset/lmdb/color-40-60/mean.binaryproto
I0403 16:39:21.528234 21310 db_lmdb.cpp:38] Opened lmdb /home/mohanty/data/final_dataset/lmdb/color-40-60/test_db
I0403 16:39:21.540343 21304 data_layer.cpp:41] output data size: 24,3,224,224
I0403 16:39:21.570590 21304 net.cpp:141] Setting up data
I0403 16:39:21.570693 21304 net.cpp:148] Top shape: 24 3 224 224 (3612672)
I0403 16:39:21.570715 21304 net.cpp:148] Top shape: 24 (24)
I0403 16:39:21.570730 21304 net.cpp:156] Memory required for data: 14450784
I0403 16:39:21.570758 21304 layer_factory.hpp:77] Creating layer label_data_1_split
I0403 16:39:21.570785 21304 net.cpp:91] Creating Layer label_data_1_split
I0403 16:39:21.570802 21304 net.cpp:425] label_data_1_split <- label
I0403 16:39:21.570835 21304 net.cpp:399] label_data_1_split -> label_data_1_split_0
I0403 16:39:21.570864 21304 net.cpp:399] label_data_1_split -> label_data_1_split_1
I0403 16:39:21.570886 21304 net.cpp:399] label_data_1_split -> label_data_1_split_2
I0403 16:39:21.570906 21304 net.cpp:399] label_data_1_split -> label_data_1_split_3
I0403 16:39:21.570925 21304 net.cpp:399] label_data_1_split -> label_data_1_split_4
I0403 16:39:21.570945 21304 net.cpp:399] label_data_1_split -> label_data_1_split_5
I0403 16:39:21.570969 21304 net.cpp:399] label_data_1_split -> label_data_1_split_6
I0403 16:39:21.570991 21304 net.cpp:399] label_data_1_split -> label_data_1_split_7
I0403 16:39:21.571010 21304 net.cpp:399] label_data_1_split -> label_data_1_split_8
I0403 16:39:21.571030 21304 net.cpp:399] label_data_1_split -> label_data_1_split_9
I0403 16:39:21.571146 21304 net.cpp:141] Setting up label_data_1_split
I0403 16:39:21.571169 21304 net.cpp:148] Top shape: 24 (24)
I0403 16:39:21.571185 21304 net.cpp:148] Top shape: 24 (24)
I0403 16:39:21.571202 21304 net.cpp:148] Top shape: 24 (24)
I0403 16:39:21.571219 21304 net.cpp:148] Top shape: 24 (24)
I0403 16:39:21.571235 21304 net.cpp:148] Top shape: 24 (24)
I0403 16:39:21.571250 21304 net.cpp:148] Top shape: 24 (24)
I0403 16:39:21.571265 21304 net.cpp:148] Top shape: 24 (24)
I0403 16:39:21.571281 21304 net.cpp:148] Top shape: 24 (24)
I0403 16:39:21.571295 21304 net.cpp:148] Top shape: 24 (24)
I0403 16:39:21.571311 21304 net.cpp:148] Top shape: 24 (24)
I0403 16:39:21.571355 21304 net.cpp:156] Memory required for data: 14451744
I0403 16:39:21.571372 21304 layer_factory.hpp:77] Creating layer conv1/7x7_s2
I0403 16:39:21.571403 21304 net.cpp:91] Creating Layer conv1/7x7_s2
I0403 16:39:21.571422 21304 net.cpp:425] conv1/7x7_s2 <- data
I0403 16:39:21.571441 21304 net.cpp:399] conv1/7x7_s2 -> conv1/7x7_s2
I0403 16:39:21.714865 21304 net.cpp:141] Setting up conv1/7x7_s2
I0403 16:39:21.714910 21304 net.cpp:148] Top shape: 24 64 112 112 (19267584)
I0403 16:39:21.714926 21304 net.cpp:156] Memory required for data: 91522080
I0403 16:39:21.714962 21304 layer_factory.hpp:77] Creating layer conv1/relu_7x7
I0403 16:39:21.714990 21304 net.cpp:91] Creating Layer conv1/relu_7x7
I0403 16:39:21.715009 21304 net.cpp:425] conv1/relu_7x7 <- conv1/7x7_s2
I0403 16:39:21.715034 21304 net.cpp:386] conv1/relu_7x7 -> conv1/7x7_s2 (in-place)
I0403 16:39:21.715301 21304 net.cpp:141] Setting up conv1/relu_7x7
I0403 16:39:21.715329 21304 net.cpp:148] Top shape: 24 64 112 112 (19267584)
I0403 16:39:21.715344 21304 net.cpp:156] Memory required for data: 168592416
I0403 16:39:21.715368 21304 layer_factory.hpp:77] Creating layer pool1/3x3_s2
I0403 16:39:21.715404 21304 net.cpp:91] Creating Layer pool1/3x3_s2
I0403 16:39:21.715426 21304 net.cpp:425] pool1/3x3_s2 <- conv1/7x7_s2
I0403 16:39:21.715451 21304 net.cpp:399] pool1/3x3_s2 -> pool1/3x3_s2
I0403 16:39:21.715543 21304 net.cpp:141] Setting up pool1/3x3_s2
I0403 16:39:21.715567 21304 net.cpp:148] Top shape: 24 64 56 56 (4816896)
I0403 16:39:21.715582 21304 net.cpp:156] Memory required for data: 187860000
I0403 16:39:21.715598 21304 layer_factory.hpp:77] Creating layer pool1/norm1
I0403 16:39:21.715625 21304 net.cpp:91] Creating Layer pool1/norm1
I0403 16:39:21.715642 21304 net.cpp:425] pool1/norm1 <- pool1/3x3_s2
I0403 16:39:21.715661 21304 net.cpp:399] pool1/norm1 -> pool1/norm1
I0403 16:39:21.715986 21304 net.cpp:141] Setting up pool1/norm1
I0403 16:39:21.716015 21304 net.cpp:148] Top shape: 24 64 56 56 (4816896)
I0403 16:39:21.716032 21304 net.cpp:156] Memory required for data: 207127584
I0403 16:39:21.716048 21304 layer_factory.hpp:77] Creating layer conv2/3x3_reduce
I0403 16:39:21.716074 21304 net.cpp:91] Creating Layer conv2/3x3_reduce
I0403 16:39:21.716092 21304 net.cpp:425] conv2/3x3_reduce <- pool1/norm1
I0403 16:39:21.716115 21304 net.cpp:399] conv2/3x3_reduce -> conv2/3x3_reduce
I0403 16:39:21.717566 21304 net.cpp:141] Setting up conv2/3x3_reduce
I0403 16:39:21.717602 21304 net.cpp:148] Top shape: 24 64 56 56 (4816896)
I0403 16:39:21.717619 21304 net.cpp:156] Memory required for data: 226395168
I0403 16:39:21.717641 21304 layer_factory.hpp:77] Creating layer conv2/relu_3x3_reduce
I0403 16:39:21.717661 21304 net.cpp:91] Creating Layer conv2/relu_3x3_reduce
I0403 16:39:21.717677 21304 net.cpp:425] conv2/relu_3x3_reduce <- conv2/3x3_reduce
I0403 16:39:21.717697 21304 net.cpp:386] conv2/relu_3x3_reduce -> conv2/3x3_reduce (in-place)
I0403 16:39:21.717980 21304 net.cpp:141] Setting up conv2/relu_3x3_reduce
I0403 16:39:21.718009 21304 net.cpp:148] Top shape: 24 64 56 56 (4816896)
I0403 16:39:21.718026 21304 net.cpp:156] Memory required for data: 245662752
I0403 16:39:21.718042 21304 layer_factory.hpp:77] Creating layer conv2/3x3
I0403 16:39:21.718068 21304 net.cpp:91] Creating Layer conv2/3x3
I0403 16:39:21.718086 21304 net.cpp:425] conv2/3x3 <- conv2/3x3_reduce
I0403 16:39:21.718111 21304 net.cpp:399] conv2/3x3 -> conv2/3x3
I0403 16:39:21.720546 21304 net.cpp:141] Setting up conv2/3x3
I0403 16:39:21.720580 21304 net.cpp:148] Top shape: 24 192 56 56 (14450688)
I0403 16:39:21.720598 21304 net.cpp:156] Memory required for data: 303465504
I0403 16:39:21.720621 21304 layer_factory.hpp:77] Creating layer conv2/relu_3x3
I0403 16:39:21.720641 21304 net.cpp:91] Creating Layer conv2/relu_3x3
I0403 16:39:21.720659 21304 net.cpp:425] conv2/relu_3x3 <- conv2/3x3
I0403 16:39:21.720679 21304 net.cpp:386] conv2/relu_3x3 -> conv2/3x3 (in-place)
I0403 16:39:21.720870 21304 net.cpp:141] Setting up conv2/relu_3x3
I0403 16:39:21.720896 21304 net.cpp:148] Top shape: 24 192 56 56 (14450688)
I0403 16:39:21.720942 21304 net.cpp:156] Memory required for data: 361268256
I0403 16:39:21.720964 21304 layer_factory.hpp:77] Creating layer conv2/norm2
I0403 16:39:21.720989 21304 net.cpp:91] Creating Layer conv2/norm2
I0403 16:39:21.721007 21304 net.cpp:425] conv2/norm2 <- conv2/3x3
I0403 16:39:21.721029 21304 net.cpp:399] conv2/norm2 -> conv2/norm2
I0403 16:39:21.721361 21304 net.cpp:141] Setting up conv2/norm2
I0403 16:39:21.721392 21304 net.cpp:148] Top shape: 24 192 56 56 (14450688)
I0403 16:39:21.721408 21304 net.cpp:156] Memory required for data: 419071008
I0403 16:39:21.721424 21304 layer_factory.hpp:77] Creating layer pool2/3x3_s2
I0403 16:39:21.721442 21304 net.cpp:91] Creating Layer pool2/3x3_s2
I0403 16:39:21.721459 21304 net.cpp:425] pool2/3x3_s2 <- conv2/norm2
I0403 16:39:21.721480 21304 net.cpp:399] pool2/3x3_s2 -> pool2/3x3_s2
I0403 16:39:21.721537 21304 net.cpp:141] Setting up pool2/3x3_s2
I0403 16:39:21.721561 21304 net.cpp:148] Top shape: 24 192 28 28 (3612672)
I0403 16:39:21.721576 21304 net.cpp:156] Memory required for data: 433521696
I0403 16:39:21.721591 21304 layer_factory.hpp:77] Creating layer pool2/3x3_s2_pool2/3x3_s2_0_split
I0403 16:39:21.721612 21304 net.cpp:91] Creating Layer pool2/3x3_s2_pool2/3x3_s2_0_split
I0403 16:39:21.721629 21304 net.cpp:425] pool2/3x3_s2_pool2/3x3_s2_0_split <- pool2/3x3_s2
I0403 16:39:21.721647 21304 net.cpp:399] pool2/3x3_s2_pool2/3x3_s2_0_split -> pool2/3x3_s2_pool2/3x3_s2_0_split_0
I0403 16:39:21.721667 21304 net.cpp:399] pool2/3x3_s2_pool2/3x3_s2_0_split -> pool2/3x3_s2_pool2/3x3_s2_0_split_1
I0403 16:39:21.721686 21304 net.cpp:399] pool2/3x3_s2_pool2/3x3_s2_0_split -> pool2/3x3_s2_pool2/3x3_s2_0_split_2
I0403 16:39:21.721706 21304 net.cpp:399] pool2/3x3_s2_pool2/3x3_s2_0_split -> pool2/3x3_s2_pool2/3x3_s2_0_split_3
I0403 16:39:21.721781 21304 net.cpp:141] Setting up pool2/3x3_s2_pool2/3x3_s2_0_split
I0403 16:39:21.721804 21304 net.cpp:148] Top shape: 24 192 28 28 (3612672)
I0403 16:39:21.721822 21304 net.cpp:148] Top shape: 24 192 28 28 (3612672)
I0403 16:39:21.721837 21304 net.cpp:148] Top shape: 24 192 28 28 (3612672)
I0403 16:39:21.721854 21304 net.cpp:148] Top shape: 24 192 28 28 (3612672)
I0403 16:39:21.721868 21304 net.cpp:156] Memory required for data: 491324448
I0403 16:39:21.721884 21304 layer_factory.hpp:77] Creating layer inception_3a/1x1
I0403 16:39:21.721907 21304 net.cpp:91] Creating Layer inception_3a/1x1
I0403 16:39:21.721925 21304 net.cpp:425] inception_3a/1x1 <- pool2/3x3_s2_pool2/3x3_s2_0_split_0
I0403 16:39:21.721947 21304 net.cpp:399] inception_3a/1x1 -> inception_3a/1x1
I0403 16:39:21.723561 21304 net.cpp:141] Setting up inception_3a/1x1
I0403 16:39:21.723594 21304 net.cpp:148] Top shape: 24 64 28 28 (1204224)
I0403 16:39:21.723611 21304 net.cpp:156] Memory required for data: 496141344
I0403 16:39:21.723631 21304 layer_factory.hpp:77] Creating layer inception_3a/relu_1x1
I0403 16:39:21.723650 21304 net.cpp:91] Creating Layer inception_3a/relu_1x1
I0403 16:39:21.723667 21304 net.cpp:425] inception_3a/relu_1x1 <- inception_3a/1x1
I0403 16:39:21.723691 21304 net.cpp:386] inception_3a/relu_1x1 -> inception_3a/1x1 (in-place)
I0403 16:39:21.723875 21304 net.cpp:141] Setting up inception_3a/relu_1x1
I0403 16:39:21.723901 21304 net.cpp:148] Top shape: 24 64 28 28 (1204224)
I0403 16:39:21.723917 21304 net.cpp:156] Memory required for data: 500958240
I0403 16:39:21.723932 21304 layer_factory.hpp:77] Creating layer inception_3a/3x3_reduce
I0403 16:39:21.723960 21304 net.cpp:91] Creating Layer inception_3a/3x3_reduce
I0403 16:39:21.723980 21304 net.cpp:425] inception_3a/3x3_reduce <- pool2/3x3_s2_pool2/3x3_s2_0_split_1
I0403 16:39:21.724002 21304 net.cpp:399] inception_3a/3x3_reduce -> inception_3a/3x3_reduce
I0403 16:39:21.725759 21304 net.cpp:141] Setting up inception_3a/3x3_reduce
I0403 16:39:21.725792 21304 net.cpp:148] Top shape: 24 96 28 28 (1806336)
I0403 16:39:21.725810 21304 net.cpp:156] Memory required for data: 508183584
I0403 16:39:21.725831 21304 layer_factory.hpp:77] Creating layer inception_3a/relu_3x3_reduce
I0403 16:39:21.725872 21304 net.cpp:91] Creating Layer inception_3a/relu_3x3_reduce
I0403 16:39:21.725890 21304 net.cpp:425] inception_3a/relu_3x3_reduce <- inception_3a/3x3_reduce
I0403 16:39:21.725908 21304 net.cpp:386] inception_3a/relu_3x3_reduce -> inception_3a/3x3_reduce (in-place)
I0403 16:39:21.726106 21304 net.cpp:141] Setting up inception_3a/relu_3x3_reduce
I0403 16:39:21.726135 21304 net.cpp:148] Top shape: 24 96 28 28 (1806336)
I0403 16:39:21.726150 21304 net.cpp:156] Memory required for data: 515408928
I0403 16:39:21.726166 21304 layer_factory.hpp:77] Creating layer inception_3a/3x3
I0403 16:39:21.726191 21304 net.cpp:91] Creating Layer inception_3a/3x3
I0403 16:39:21.726208 21304 net.cpp:425] inception_3a/3x3 <- inception_3a/3x3_reduce
I0403 16:39:21.726228 21304 net.cpp:399] inception_3a/3x3 -> inception_3a/3x3
I0403 16:39:21.727962 21304 net.cpp:141] Setting up inception_3a/3x3
I0403 16:39:21.727991 21304 net.cpp:148] Top shape: 24 128 28 28 (2408448)
I0403 16:39:21.728008 21304 net.cpp:156] Memory required for data: 525042720
I0403 16:39:21.728027 21304 layer_factory.hpp:77] Creating layer inception_3a/relu_3x3
I0403 16:39:21.728046 21304 net.cpp:91] Creating Layer inception_3a/relu_3x3
I0403 16:39:21.728062 21304 net.cpp:425] inception_3a/relu_3x3 <- inception_3a/3x3
I0403 16:39:21.728083 21304 net.cpp:386] inception_3a/relu_3x3 -> inception_3a/3x3 (in-place)
I0403 16:39:21.728368 21304 net.cpp:141] Setting up inception_3a/relu_3x3
I0403 16:39:21.728396 21304 net.cpp:148] Top shape: 24 128 28 28 (2408448)
I0403 16:39:21.728412 21304 net.cpp:156] Memory required for data: 534676512
I0403 16:39:21.728427 21304 layer_factory.hpp:77] Creating layer inception_3a/5x5_reduce
I0403 16:39:21.728451 21304 net.cpp:91] Creating Layer inception_3a/5x5_reduce
I0403 16:39:21.728471 21304 net.cpp:425] inception_3a/5x5_reduce <- pool2/3x3_s2_pool2/3x3_s2_0_split_2
I0403 16:39:21.728493 21304 net.cpp:399] inception_3a/5x5_reduce -> inception_3a/5x5_reduce
I0403 16:39:21.729517 21304 net.cpp:141] Setting up inception_3a/5x5_reduce
I0403 16:39:21.729545 21304 net.cpp:148] Top shape: 24 16 28 28 (301056)
I0403 16:39:21.729562 21304 net.cpp:156] Memory required for data: 535880736
I0403 16:39:21.729579 21304 layer_factory.hpp:77] Creating layer inception_3a/relu_5x5_reduce
I0403 16:39:21.729600 21304 net.cpp:91] Creating Layer inception_3a/relu_5x5_reduce
I0403 16:39:21.729617 21304 net.cpp:425] inception_3a/relu_5x5_reduce <- inception_3a/5x5_reduce
I0403 16:39:21.729635 21304 net.cpp:386] inception_3a/relu_5x5_reduce -> inception_3a/5x5_reduce (in-place)
I0403 16:39:21.729935 21304 net.cpp:141] Setting up inception_3a/relu_5x5_reduce
I0403 16:39:21.729966 21304 net.cpp:148] Top shape: 24 16 28 28 (301056)
I0403 16:39:21.729984 21304 net.cpp:156] Memory required for data: 537084960
I0403 16:39:21.729997 21304 layer_factory.hpp:77] Creating layer inception_3a/5x5
I0403 16:39:21.730020 21304 net.cpp:91] Creating Layer inception_3a/5x5
I0403 16:39:21.730038 21304 net.cpp:425] inception_3a/5x5 <- inception_3a/5x5_reduce
I0403 16:39:21.730059 21304 net.cpp:399] inception_3a/5x5 -> inception_3a/5x5
I0403 16:39:21.731087 21304 net.cpp:141] Setting up inception_3a/5x5
I0403 16:39:21.731115 21304 net.cpp:148] Top shape: 24 32 28 28 (602112)
I0403 16:39:21.731132 21304 net.cpp:156] Memory required for data: 539493408
I0403 16:39:21.731150 21304 layer_factory.hpp:77] Creating layer inception_3a/relu_5x5
I0403 16:39:21.731168 21304 net.cpp:91] Creating Layer inception_3a/relu_5x5
I0403 16:39:21.731184 21304 net.cpp:425] inception_3a/relu_5x5 <- inception_3a/5x5
I0403 16:39:21.731204 21304 net.cpp:386] inception_3a/relu_5x5 -> inception_3a/5x5 (in-place)
I0403 16:39:21.731380 21304 net.cpp:141] Setting up inception_3a/relu_5x5
I0403 16:39:21.731405 21304 net.cpp:148] Top shape: 24 32 28 28 (602112)
I0403 16:39:21.731420 21304 net.cpp:156] Memory required for data: 541901856
I0403 16:39:21.731436 21304 layer_factory.hpp:77] Creating layer inception_3a/pool
I0403 16:39:21.731456 21304 net.cpp:91] Creating Layer inception_3a/pool
I0403 16:39:21.731473 21304 net.cpp:425] inception_3a/pool <- pool2/3x3_s2_pool2/3x3_s2_0_split_3
I0403 16:39:21.731508 21304 net.cpp:399] inception_3a/pool -> inception_3a/pool
I0403 16:39:21.731569 21304 net.cpp:141] Setting up inception_3a/pool
I0403 16:39:21.731592 21304 net.cpp:148] Top shape: 24 192 28 28 (3612672)
I0403 16:39:21.731606 21304 net.cpp:156] Memory required for data: 556352544
I0403 16:39:21.731621 21304 layer_factory.hpp:77] Creating layer inception_3a/pool_proj
I0403 16:39:21.731643 21304 net.cpp:91] Creating Layer inception_3a/pool_proj
I0403 16:39:21.731662 21304 net.cpp:425] inception_3a/pool_proj <- inception_3a/pool
I0403 16:39:21.731683 21304 net.cpp:399] inception_3a/pool_proj -> inception_3a/pool_proj
I0403 16:39:21.732698 21304 net.cpp:141] Setting up inception_3a/pool_proj
I0403 16:39:21.732728 21304 net.cpp:148] Top shape: 24 32 28 28 (602112)
I0403 16:39:21.732744 21304 net.cpp:156] Memory required for data: 558760992
I0403 16:39:21.732766 21304 layer_factory.hpp:77] Creating layer inception_3a/relu_pool_proj
I0403 16:39:21.732789 21304 net.cpp:91] Creating Layer inception_3a/relu_pool_proj
I0403 16:39:21.732805 21304 net.cpp:425] inception_3a/relu_pool_proj <- inception_3a/pool_proj
I0403 16:39:21.732823 21304 net.cpp:386] inception_3a/relu_pool_proj -> inception_3a/pool_proj (in-place)
I0403 16:39:21.733109 21304 net.cpp:141] Setting up inception_3a/relu_pool_proj
I0403 16:39:21.733136 21304 net.cpp:148] Top shape: 24 32 28 28 (602112)
I0403 16:39:21.733151 21304 net.cpp:156] Memory required for data: 561169440
I0403 16:39:21.733166 21304 layer_factory.hpp:77] Creating layer inception_3a/output
I0403 16:39:21.733186 21304 net.cpp:91] Creating Layer inception_3a/output
I0403 16:39:21.733201 21304 net.cpp:425] inception_3a/output <- inception_3a/1x1
I0403 16:39:21.733218 21304 net.cpp:425] inception_3a/output <- inception_3a/3x3
I0403 16:39:21.733234 21304 net.cpp:425] inception_3a/output <- inception_3a/5x5
I0403 16:39:21.733249 21304 net.cpp:425] inception_3a/output <- inception_3a/pool_proj
I0403 16:39:21.733269 21304 net.cpp:399] inception_3a/output -> inception_3a/output
I0403 16:39:21.733316 21304 net.cpp:141] Setting up inception_3a/output
I0403 16:39:21.733343 21304 net.cpp:148] Top shape: 24 256 28 28 (4816896)
I0403 16:39:21.733358 21304 net.cpp:156] Memory required for data: 580437024
I0403 16:39:21.733373 21304 layer_factory.hpp:77] Creating layer inception_3a/output_inception_3a/output_0_split
I0403 16:39:21.733392 21304 net.cpp:91] Creating Layer inception_3a/output_inception_3a/output_0_split
I0403 16:39:21.733407 21304 net.cpp:425] inception_3a/output_inception_3a/output_0_split <- inception_3a/output
I0403 16:39:21.733423 21304 net.cpp:399] inception_3a/output_inception_3a/output_0_split -> inception_3a/output_inception_3a/output_0_split_0
I0403 16:39:21.733443 21304 net.cpp:399] inception_3a/output_inception_3a/output_0_split -> inception_3a/output_inception_3a/output_0_split_1
I0403 16:39:21.733469 21304 net.cpp:399] inception_3a/output_inception_3a/output_0_split -> inception_3a/output_inception_3a/output_0_split_2
I0403 16:39:21.733491 21304 net.cpp:399] inception_3a/output_inception_3a/output_0_split -> inception_3a/output_inception_3a/output_0_split_3
I0403 16:39:21.733568 21304 net.cpp:141] Setting up inception_3a/output_inception_3a/output_0_split
I0403 16:39:21.733594 21304 net.cpp:148] Top shape: 24 256 28 28 (4816896)
I0403 16:39:21.733611 21304 net.cpp:148] Top shape: 24 256 28 28 (4816896)
I0403 16:39:21.733628 21304 net.cpp:148] Top shape: 24 256 28 28 (4816896)
I0403 16:39:21.733644 21304 net.cpp:148] Top shape: 24 256 28 28 (4816896)
I0403 16:39:21.733657 21304 net.cpp:156] Memory required for data: 657507360
I0403 16:39:21.733672 21304 layer_factory.hpp:77] Creating layer inception_3b/1x1
I0403 16:39:21.733697 21304 net.cpp:91] Creating Layer inception_3b/1x1
I0403 16:39:21.733716 21304 net.cpp:425] inception_3b/1x1 <- inception_3a/output_inception_3a/output_0_split_0
I0403 16:39:21.733733 21304 net.cpp:399] inception_3b/1x1 -> inception_3b/1x1
I0403 16:39:21.734891 21304 net.cpp:141] Setting up inception_3b/1x1
I0403 16:39:21.734933 21304 net.cpp:148] Top shape: 24 128 28 28 (2408448)
I0403 16:39:21.734951 21304 net.cpp:156] Memory required for data: 667141152
I0403 16:39:21.734975 21304 layer_factory.hpp:77] Creating layer inception_3b/relu_1x1
I0403 16:39:21.734994 21304 net.cpp:91] Creating Layer inception_3b/relu_1x1
I0403 16:39:21.735010 21304 net.cpp:425] inception_3b/relu_1x1 <- inception_3b/1x1
I0403 16:39:21.735030 21304 net.cpp:386] inception_3b/relu_1x1 -> inception_3b/1x1 (in-place)
I0403 16:39:21.735210 21304 net.cpp:141] Setting up inception_3b/relu_1x1
I0403 16:39:21.735235 21304 net.cpp:148] Top shape: 24 128 28 28 (2408448)
I0403 16:39:21.735250 21304 net.cpp:156] Memory required for data: 676774944
I0403 16:39:21.735266 21304 layer_factory.hpp:77] Creating layer inception_3b/3x3_reduce
I0403 16:39:21.735290 21304 net.cpp:91] Creating Layer inception_3b/3x3_reduce
I0403 16:39:21.735307 21304 net.cpp:425] inception_3b/3x3_reduce <- inception_3a/output_inception_3a/output_0_split_1
I0403 16:39:21.735328 21304 net.cpp:399] inception_3b/3x3_reduce -> inception_3b/3x3_reduce
I0403 16:39:21.736505 21304 net.cpp:141] Setting up inception_3b/3x3_reduce
I0403 16:39:21.736536 21304 net.cpp:148] Top shape: 24 128 28 28 (2408448)
I0403 16:39:21.736554 21304 net.cpp:156] Memory required for data: 686408736
I0403 16:39:21.736572 21304 layer_factory.hpp:77] Creating layer inception_3b/relu_3x3_reduce
I0403 16:39:21.736591 21304 net.cpp:91] Creating Layer inception_3b/relu_3x3_reduce
I0403 16:39:21.736608 21304 net.cpp:425] inception_3b/relu_3x3_reduce <- inception_3b/3x3_reduce
I0403 16:39:21.736625 21304 net.cpp:386] inception_3b/relu_3x3_reduce -> inception_3b/3x3_reduce (in-place)
I0403 16:39:21.736805 21304 net.cpp:141] Setting up inception_3b/relu_3x3_reduce
I0403 16:39:21.736830 21304 net.cpp:148] Top shape: 24 128 28 28 (2408448)
I0403 16:39:21.736846 21304 net.cpp:156] Memory required for data: 696042528
I0403 16:39:21.736861 21304 layer_factory.hpp:77] Creating layer inception_3b/3x3
I0403 16:39:21.736886 21304 net.cpp:91] Creating Layer inception_3b/3x3
I0403 16:39:21.736904 21304 net.cpp:425] inception_3b/3x3 <- inception_3b/3x3_reduce
I0403 16:39:21.736927 21304 net.cpp:399] inception_3b/3x3 -> inception_3b/3x3
I0403 16:39:21.739931 21304 net.cpp:141] Setting up inception_3b/3x3
I0403 16:39:21.739964 21304 net.cpp:148] Top shape: 24 192 28 28 (3612672)
I0403 16:39:21.739981 21304 net.cpp:156] Memory required for data: 710493216
I0403 16:39:21.740000 21304 layer_factory.hpp:77] Creating layer inception_3b/relu_3x3
I0403 16:39:21.740018 21304 net.cpp:91] Creating Layer inception_3b/relu_3x3
I0403 16:39:21.740034 21304 net.cpp:425] inception_3b/relu_3x3 <- inception_3b/3x3
I0403 16:39:21.740054 21304 net.cpp:386] inception_3b/relu_3x3 -> inception_3b/3x3 (in-place)
I0403 16:39:21.740336 21304 net.cpp:141] Setting up inception_3b/relu_3x3
I0403 16:39:21.740363 21304 net.cpp:148] Top shape: 24 192 28 28 (3612672)
I0403 16:39:21.740378 21304 net.cpp:156] Memory required for data: 724943904
I0403 16:39:21.740393 21304 layer_factory.hpp:77] Creating layer inception_3b/5x5_reduce
I0403 16:39:21.740417 21304 net.cpp:91] Creating Layer inception_3b/5x5_reduce
I0403 16:39:21.740434 21304 net.cpp:425] inception_3b/5x5_reduce <- inception_3a/output_inception_3a/output_0_split_2
I0403 16:39:21.740456 21304 net.cpp:399] inception_3b/5x5_reduce -> inception_3b/5x5_reduce
I0403 16:39:21.741466 21304 net.cpp:141] Setting up inception_3b/5x5_reduce
I0403 16:39:21.741493 21304 net.cpp:148] Top shape: 24 32 28 28 (602112)
I0403 16:39:21.741509 21304 net.cpp:156] Memory required for data: 727352352
I0403 16:39:21.741528 21304 layer_factory.hpp:77] Creating layer inception_3b/relu_5x5_reduce
I0403 16:39:21.741546 21304 net.cpp:91] Creating Layer inception_3b/relu_5x5_reduce
I0403 16:39:21.741562 21304 net.cpp:425] inception_3b/relu_5x5_reduce <- inception_3b/5x5_reduce
I0403 16:39:21.741581 21304 net.cpp:386] inception_3b/relu_5x5_reduce -> inception_3b/5x5_reduce (in-place)
I0403 16:39:21.741765 21304 net.cpp:141] Setting up inception_3b/relu_5x5_reduce
I0403 16:39:21.741802 21304 net.cpp:148] Top shape: 24 32 28 28 (602112)
I0403 16:39:21.741817 21304 net.cpp:156] Memory required for data: 729760800
I0403 16:39:21.741832 21304 layer_factory.hpp:77] Creating layer inception_3b/5x5
I0403 16:39:21.741855 21304 net.cpp:91] Creating Layer inception_3b/5x5
I0403 16:39:21.741873 21304 net.cpp:425] inception_3b/5x5 <- inception_3b/5x5_reduce
I0403 16:39:21.741894 21304 net.cpp:399] inception_3b/5x5 -> inception_3b/5x5
I0403 16:39:21.743896 21304 net.cpp:141] Setting up inception_3b/5x5
I0403 16:39:21.743928 21304 net.cpp:148] Top shape: 24 96 28 28 (1806336)
I0403 16:39:21.743944 21304 net.cpp:156] Memory required for data: 736986144
I0403 16:39:21.743968 21304 layer_factory.hpp:77] Creating layer inception_3b/relu_5x5
I0403 16:39:21.743988 21304 net.cpp:91] Creating Layer inception_3b/relu_5x5
I0403 16:39:21.744004 21304 net.cpp:425] inception_3b/relu_5x5 <- inception_3b/5x5
I0403 16:39:21.744021 21304 net.cpp:386] inception_3b/relu_5x5 -> inception_3b/5x5 (in-place)
I0403 16:39:21.744220 21304 net.cpp:141] Setting up inception_3b/relu_5x5
I0403 16:39:21.744246 21304 net.cpp:148] Top shape: 24 96 28 28 (1806336)
I0403 16:39:21.744261 21304 net.cpp:156] Memory required for data: 744211488
I0403 16:39:21.744276 21304 layer_factory.hpp:77] Creating layer inception_3b/pool
I0403 16:39:21.744293 21304 net.cpp:91] Creating Layer inception_3b/pool
I0403 16:39:21.744309 21304 net.cpp:425] inception_3b/pool <- inception_3a/output_inception_3a/output_0_split_3
I0403 16:39:21.744326 21304 net.cpp:399] inception_3b/pool -> inception_3b/pool
I0403 16:39:21.744384 21304 net.cpp:141] Setting up inception_3b/pool
I0403 16:39:21.744410 21304 net.cpp:148] Top shape: 24 256 28 28 (4816896)
I0403 16:39:21.744426 21304 net.cpp:156] Memory required for data: 763479072
I0403 16:39:21.744439 21304 layer_factory.hpp:77] Creating layer inception_3b/pool_proj
I0403 16:39:21.744462 21304 net.cpp:91] Creating Layer inception_3b/pool_proj
I0403 16:39:21.744479 21304 net.cpp:425] inception_3b/pool_proj <- inception_3b/pool
I0403 16:39:21.744498 21304 net.cpp:399] inception_3b/pool_proj -> inception_3b/pool_proj
I0403 16:39:21.745579 21304 net.cpp:141] Setting up inception_3b/pool_proj
I0403 16:39:21.745607 21304 net.cpp:148] Top shape: 24 64 28 28 (1204224)
I0403 16:39:21.745623 21304 net.cpp:156] Memory required for data: 768295968
I0403 16:39:21.745642 21304 layer_factory.hpp:77] Creating layer inception_3b/relu_pool_proj
I0403 16:39:21.745666 21304 net.cpp:91] Creating Layer inception_3b/relu_pool_proj
I0403 16:39:21.745682 21304 net.cpp:425] inception_3b/relu_pool_proj <- inception_3b/pool_proj
I0403 16:39:21.745700 21304 net.cpp:386] inception_3b/relu_pool_proj -> inception_3b/pool_proj (in-place)
I0403 16:39:21.746111 21304 net.cpp:141] Setting up inception_3b/relu_pool_proj
I0403 16:39:21.746137 21304 net.cpp:148] Top shape: 24 64 28 28 (1204224)
I0403 16:39:21.746153 21304 net.cpp:156] Memory required for data: 773112864
I0403 16:39:21.746168 21304 layer_factory.hpp:77] Creating layer inception_3b/output
I0403 16:39:21.746186 21304 net.cpp:91] Creating Layer inception_3b/output
I0403 16:39:21.746201 21304 net.cpp:425] inception_3b/output <- inception_3b/1x1
I0403 16:39:21.746218 21304 net.cpp:425] inception_3b/output <- inception_3b/3x3
I0403 16:39:21.746234 21304 net.cpp:425] inception_3b/output <- inception_3b/5x5
I0403 16:39:21.746251 21304 net.cpp:425] inception_3b/output <- inception_3b/pool_proj
I0403 16:39:21.746270 21304 net.cpp:399] inception_3b/output -> inception_3b/output
I0403 16:39:21.746320 21304 net.cpp:141] Setting up inception_3b/output
I0403 16:39:21.746342 21304 net.cpp:148] Top shape: 24 480 28 28 (9031680)
I0403 16:39:21.746357 21304 net.cpp:156] Memory required for data: 809239584
I0403 16:39:21.746371 21304 layer_factory.hpp:77] Creating layer pool3/3x3_s2
I0403 16:39:21.746388 21304 net.cpp:91] Creating Layer pool3/3x3_s2
I0403 16:39:21.746404 21304 net.cpp:425] pool3/3x3_s2 <- inception_3b/output
I0403 16:39:21.746424 21304 net.cpp:399] pool3/3x3_s2 -> pool3/3x3_s2
I0403 16:39:21.746498 21304 net.cpp:141] Setting up pool3/3x3_s2
I0403 16:39:21.746521 21304 net.cpp:148] Top shape: 24 480 14 14 (2257920)
I0403 16:39:21.746536 21304 net.cpp:156] Memory required for data: 818271264
I0403 16:39:21.746551 21304 layer_factory.hpp:77] Creating layer pool3/3x3_s2_pool3/3x3_s2_0_split
I0403 16:39:21.746569 21304 net.cpp:91] Creating Layer pool3/3x3_s2_pool3/3x3_s2_0_split
I0403 16:39:21.746585 21304 net.cpp:425] pool3/3x3_s2_pool3/3x3_s2_0_split <- pool3/3x3_s2
I0403 16:39:21.746603 21304 net.cpp:399] pool3/3x3_s2_pool3/3x3_s2_0_split -> pool3/3x3_s2_pool3/3x3_s2_0_split_0
I0403 16:39:21.746625 21304 net.cpp:399] pool3/3x3_s2_pool3/3x3_s2_0_split -> pool3/3x3_s2_pool3/3x3_s2_0_split_1
I0403 16:39:21.746646 21304 net.cpp:399] pool3/3x3_s2_pool3/3x3_s2_0_split -> pool3/3x3_s2_pool3/3x3_s2_0_split_2
I0403 16:39:21.746665 21304 net.cpp:399] pool3/3x3_s2_pool3/3x3_s2_0_split -> pool3/3x3_s2_pool3/3x3_s2_0_split_3
I0403 16:39:21.746742 21304 net.cpp:141] Setting up pool3/3x3_s2_pool3/3x3_s2_0_split
I0403 16:39:21.746764 21304 net.cpp:148] Top shape: 24 480 14 14 (2257920)
I0403 16:39:21.746780 21304 net.cpp:148] Top shape: 24 480 14 14 (2257920)
I0403 16:39:21.746796 21304 net.cpp:148] Top shape: 24 480 14 14 (2257920)
I0403 16:39:21.746812 21304 net.cpp:148] Top shape: 24 480 14 14 (2257920)
I0403 16:39:21.746826 21304 net.cpp:156] Memory required for data: 854397984
I0403 16:39:21.746840 21304 layer_factory.hpp:77] Creating layer inception_4a/1x1
I0403 16:39:21.746862 21304 net.cpp:91] Creating Layer inception_4a/1x1
I0403 16:39:21.746881 21304 net.cpp:425] inception_4a/1x1 <- pool3/3x3_s2_pool3/3x3_s2_0_split_0
I0403 16:39:21.746902 21304 net.cpp:399] inception_4a/1x1 -> inception_4a/1x1
I0403 16:39:21.748577 21304 net.cpp:141] Setting up inception_4a/1x1
I0403 16:39:21.748606 21304 net.cpp:148] Top shape: 24 192 14 14 (903168)
I0403 16:39:21.748622 21304 net.cpp:156] Memory required for data: 858010656
I0403 16:39:21.748641 21304 layer_factory.hpp:77] Creating layer inception_4a/relu_1x1
I0403 16:39:21.748662 21304 net.cpp:91] Creating Layer inception_4a/relu_1x1
I0403 16:39:21.748680 21304 net.cpp:425] inception_4a/relu_1x1 <- inception_4a/1x1
I0403 16:39:21.748698 21304 net.cpp:386] inception_4a/relu_1x1 -> inception_4a/1x1 (in-place)
I0403 16:39:21.748888 21304 net.cpp:141] Setting up inception_4a/relu_1x1
I0403 16:39:21.748917 21304 net.cpp:148] Top shape: 24 192 14 14 (903168)
I0403 16:39:21.748934 21304 net.cpp:156] Memory required for data: 861623328
I0403 16:39:21.748950 21304 layer_factory.hpp:77] Creating layer inception_4a/3x3_reduce
I0403 16:39:21.748986 21304 net.cpp:91] Creating Layer inception_4a/3x3_reduce
I0403 16:39:21.749006 21304 net.cpp:425] inception_4a/3x3_reduce <- pool3/3x3_s2_pool3/3x3_s2_0_split_1
I0403 16:39:21.749025 21304 net.cpp:399] inception_4a/3x3_reduce -> inception_4a/3x3_reduce
I0403 16:39:21.750375 21304 net.cpp:141] Setting up inception_4a/3x3_reduce
I0403 16:39:21.750404 21304 net.cpp:148] Top shape: 24 96 14 14 (451584)
I0403 16:39:21.750421 21304 net.cpp:156] Memory required for data: 863429664
I0403 16:39:21.750447 21304 layer_factory.hpp:77] Creating layer inception_4a/relu_3x3_reduce
I0403 16:39:21.750470 21304 net.cpp:91] Creating Layer inception_4a/relu_3x3_reduce
I0403 16:39:21.750488 21304 net.cpp:425] inception_4a/relu_3x3_reduce <- inception_4a/3x3_reduce
I0403 16:39:21.750505 21304 net.cpp:386] inception_4a/relu_3x3_reduce -> inception_4a/3x3_reduce (in-place)
I0403 16:39:21.750689 21304 net.cpp:141] Setting up inception_4a/relu_3x3_reduce
I0403 16:39:21.750718 21304 net.cpp:148] Top shape: 24 96 14 14 (451584)
I0403 16:39:21.750735 21304 net.cpp:156] Memory required for data: 865236000
I0403 16:39:21.750749 21304 layer_factory.hpp:77] Creating layer inception_4a/3x3
I0403 16:39:21.750772 21304 net.cpp:91] Creating Layer inception_4a/3x3
I0403 16:39:21.750792 21304 net.cpp:425] inception_4a/3x3 <- inception_4a/3x3_reduce
I0403 16:39:21.750811 21304 net.cpp:399] inception_4a/3x3 -> inception_4a/3x3
I0403 16:39:21.753635 21304 net.cpp:141] Setting up inception_4a/3x3
I0403 16:39:21.753669 21304 net.cpp:148] Top shape: 24 208 14 14 (978432)
I0403 16:39:21.753685 21304 net.cpp:156] Memory required for data: 869149728
I0403 16:39:21.753705 21304 layer_factory.hpp:77] Creating layer inception_4a/relu_3x3
I0403 16:39:21.753725 21304 net.cpp:91] Creating Layer inception_4a/relu_3x3
I0403 16:39:21.753741 21304 net.cpp:425] inception_4a/relu_3x3 <- inception_4a/3x3
I0403 16:39:21.753758 21304 net.cpp:386] inception_4a/relu_3x3 -> inception_4a/3x3 (in-place)
I0403 16:39:21.754057 21304 net.cpp:141] Setting up inception_4a/relu_3x3
I0403 16:39:21.754087 21304 net.cpp:148] Top shape: 24 208 14 14 (978432)
I0403 16:39:21.754104 21304 net.cpp:156] Memory required for data: 873063456
I0403 16:39:21.754119 21304 layer_factory.hpp:77] Creating layer inception_4a/5x5_reduce
I0403 16:39:21.754143 21304 net.cpp:91] Creating Layer inception_4a/5x5_reduce
I0403 16:39:21.754161 21304 net.cpp:425] inception_4a/5x5_reduce <- pool3/3x3_s2_pool3/3x3_s2_0_split_2
I0403 16:39:21.754181 21304 net.cpp:399] inception_4a/5x5_reduce -> inception_4a/5x5_reduce
I0403 16:39:21.755266 21304 net.cpp:141] Setting up inception_4a/5x5_reduce
I0403 16:39:21.755295 21304 net.cpp:148] Top shape: 24 16 14 14 (75264)
I0403 16:39:21.755311 21304 net.cpp:156] Memory required for data: 873364512
I0403 16:39:21.755331 21304 layer_factory.hpp:77] Creating layer inception_4a/relu_5x5_reduce
I0403 16:39:21.755348 21304 net.cpp:91] Creating Layer inception_4a/relu_5x5_reduce
I0403 16:39:21.755367 21304 net.cpp:425] inception_4a/relu_5x5_reduce <- inception_4a/5x5_reduce
I0403 16:39:21.755386 21304 net.cpp:386] inception_4a/relu_5x5_reduce -> inception_4a/5x5_reduce (in-place)
I0403 16:39:21.755573 21304 net.cpp:141] Setting up inception_4a/relu_5x5_reduce
I0403 16:39:21.755599 21304 net.cpp:148] Top shape: 24 16 14 14 (75264)
I0403 16:39:21.755614 21304 net.cpp:156] Memory required for data: 873665568
I0403 16:39:21.755630 21304 layer_factory.hpp:77] Creating layer inception_4a/5x5
I0403 16:39:21.755653 21304 net.cpp:91] Creating Layer inception_4a/5x5
I0403 16:39:21.755671 21304 net.cpp:425] inception_4a/5x5 <- inception_4a/5x5_reduce
I0403 16:39:21.755693 21304 net.cpp:399] inception_4a/5x5 -> inception_4a/5x5
I0403 16:39:21.756837 21304 net.cpp:141] Setting up inception_4a/5x5
I0403 16:39:21.756865 21304 net.cpp:148] Top shape: 24 48 14 14 (225792)
I0403 16:39:21.756881 21304 net.cpp:156] Memory required for data: 874568736
I0403 16:39:21.756901 21304 layer_factory.hpp:77] Creating layer inception_4a/relu_5x5
I0403 16:39:21.756922 21304 net.cpp:91] Creating Layer inception_4a/relu_5x5
I0403 16:39:21.756940 21304 net.cpp:425] inception_4a/relu_5x5 <- inception_4a/5x5
I0403 16:39:21.756963 21304 net.cpp:386] inception_4a/relu_5x5 -> inception_4a/5x5 (in-place)
I0403 16:39:21.757149 21304 net.cpp:141] Setting up inception_4a/relu_5x5
I0403 16:39:21.757179 21304 net.cpp:148] Top shape: 24 48 14 14 (225792)
I0403 16:39:21.757194 21304 net.cpp:156] Memory required for data: 875471904
I0403 16:39:21.757210 21304 layer_factory.hpp:77] Creating layer inception_4a/pool
I0403 16:39:21.757228 21304 net.cpp:91] Creating Layer inception_4a/pool
I0403 16:39:21.757247 21304 net.cpp:425] inception_4a/pool <- pool3/3x3_s2_pool3/3x3_s2_0_split_3
I0403 16:39:21.757266 21304 net.cpp:399] inception_4a/pool -> inception_4a/pool
I0403 16:39:21.757330 21304 net.cpp:141] Setting up inception_4a/pool
I0403 16:39:21.757354 21304 net.cpp:148] Top shape: 24 480 14 14 (2257920)
I0403 16:39:21.757369 21304 net.cpp:156] Memory required for data: 884503584
I0403 16:39:21.757385 21304 layer_factory.hpp:77] Creating layer inception_4a/pool_proj
I0403 16:39:21.757408 21304 net.cpp:91] Creating Layer inception_4a/pool_proj
I0403 16:39:21.757426 21304 net.cpp:425] inception_4a/pool_proj <- inception_4a/pool
I0403 16:39:21.757448 21304 net.cpp:399] inception_4a/pool_proj -> inception_4a/pool_proj
I0403 16:39:21.758682 21304 net.cpp:141] Setting up inception_4a/pool_proj
I0403 16:39:21.758711 21304 net.cpp:148] Top shape: 24 64 14 14 (301056)
I0403 16:39:21.758744 21304 net.cpp:156] Memory required for data: 885707808
I0403 16:39:21.758765 21304 layer_factory.hpp:77] Creating layer inception_4a/relu_pool_proj
I0403 16:39:21.758787 21304 net.cpp:91] Creating Layer inception_4a/relu_pool_proj
I0403 16:39:21.758806 21304 net.cpp:425] inception_4a/relu_pool_proj <- inception_4a/pool_proj
I0403 16:39:21.758824 21304 net.cpp:386] inception_4a/relu_pool_proj -> inception_4a/pool_proj (in-place)
I0403 16:39:21.759130 21304 net.cpp:141] Setting up inception_4a/relu_pool_proj
I0403 16:39:21.759158 21304 net.cpp:148] Top shape: 24 64 14 14 (301056)
I0403 16:39:21.759174 21304 net.cpp:156] Memory required for data: 886912032
I0403 16:39:21.759189 21304 layer_factory.hpp:77] Creating layer inception_4a/output
I0403 16:39:21.759210 21304 net.cpp:91] Creating Layer inception_4a/output
I0403 16:39:21.759227 21304 net.cpp:425] inception_4a/output <- inception_4a/1x1
I0403 16:39:21.759248 21304 net.cpp:425] inception_4a/output <- inception_4a/3x3
I0403 16:39:21.759263 21304 net.cpp:425] inception_4a/output <- inception_4a/5x5
I0403 16:39:21.759281 21304 net.cpp:425] inception_4a/output <- inception_4a/pool_proj
I0403 16:39:21.759299 21304 net.cpp:399] inception_4a/output -> inception_4a/output
I0403 16:39:21.759347 21304 net.cpp:141] Setting up inception_4a/output
I0403 16:39:21.759371 21304 net.cpp:148] Top shape: 24 512 14 14 (2408448)
I0403 16:39:21.759387 21304 net.cpp:156] Memory required for data: 896545824
I0403 16:39:21.759402 21304 layer_factory.hpp:77] Creating layer inception_4a/output_inception_4a/output_0_split
I0403 16:39:21.759420 21304 net.cpp:91] Creating Layer inception_4a/output_inception_4a/output_0_split
I0403 16:39:21.759436 21304 net.cpp:425] inception_4a/output_inception_4a/output_0_split <- inception_4a/output
I0403 16:39:21.759459 21304 net.cpp:399] inception_4a/output_inception_4a/output_0_split -> inception_4a/output_inception_4a/output_0_split_0
I0403 16:39:21.759482 21304 net.cpp:399] inception_4a/output_inception_4a/output_0_split -> inception_4a/output_inception_4a/output_0_split_1
I0403 16:39:21.759505 21304 net.cpp:399] inception_4a/output_inception_4a/output_0_split -> inception_4a/output_inception_4a/output_0_split_2
I0403 16:39:21.759526 21304 net.cpp:399] inception_4a/output_inception_4a/output_0_split -> inception_4a/output_inception_4a/output_0_split_3
I0403 16:39:21.759546 21304 net.cpp:399] inception_4a/output_inception_4a/output_0_split -> inception_4a/output_inception_4a/output_0_split_4
I0403 16:39:21.759647 21304 net.cpp:141] Setting up inception_4a/output_inception_4a/output_0_split
I0403 16:39:21.759672 21304 net.cpp:148] Top shape: 24 512 14 14 (2408448)
I0403 16:39:21.759690 21304 net.cpp:148] Top shape: 24 512 14 14 (2408448)
I0403 16:39:21.759706 21304 net.cpp:148] Top shape: 24 512 14 14 (2408448)
I0403 16:39:21.759721 21304 net.cpp:148] Top shape: 24 512 14 14 (2408448)
I0403 16:39:21.759737 21304 net.cpp:148] Top shape: 24 512 14 14 (2408448)
I0403 16:39:21.759752 21304 net.cpp:156] Memory required for data: 944714784
I0403 16:39:21.759766 21304 layer_factory.hpp:77] Creating layer loss1/ave_pool
I0403 16:39:21.759785 21304 net.cpp:91] Creating Layer loss1/ave_pool
I0403 16:39:21.759801 21304 net.cpp:425] loss1/ave_pool <- inception_4a/output_inception_4a/output_0_split_0
I0403 16:39:21.759822 21304 net.cpp:399] loss1/ave_pool -> loss1/ave_pool
I0403 16:39:21.760056 21304 net.cpp:141] Setting up loss1/ave_pool
I0403 16:39:21.760082 21304 net.cpp:148] Top shape: 24 512 4 4 (196608)
I0403 16:39:21.760097 21304 net.cpp:156] Memory required for data: 945501216
I0403 16:39:21.760112 21304 layer_factory.hpp:77] Creating layer loss1/conv
I0403 16:39:21.760134 21304 net.cpp:91] Creating Layer loss1/conv
I0403 16:39:21.760151 21304 net.cpp:425] loss1/conv <- loss1/ave_pool
I0403 16:39:21.760172 21304 net.cpp:399] loss1/conv -> loss1/conv
I0403 16:39:21.761615 21304 net.cpp:141] Setting up loss1/conv
I0403 16:39:21.761646 21304 net.cpp:148] Top shape: 24 128 4 4 (49152)
I0403 16:39:21.761662 21304 net.cpp:156] Memory required for data: 945697824
I0403 16:39:21.761696 21304 layer_factory.hpp:77] Creating layer loss1/relu_conv
I0403 16:39:21.761715 21304 net.cpp:91] Creating Layer loss1/relu_conv
I0403 16:39:21.761731 21304 net.cpp:425] loss1/relu_conv <- loss1/conv
I0403 16:39:21.761751 21304 net.cpp:386] loss1/relu_conv -> loss1/conv (in-place)
I0403 16:39:21.762042 21304 net.cpp:141] Setting up loss1/relu_conv
I0403 16:39:21.762070 21304 net.cpp:148] Top shape: 24 128 4 4 (49152)
I0403 16:39:21.762087 21304 net.cpp:156] Memory required for data: 945894432
I0403 16:39:21.762102 21304 layer_factory.hpp:77] Creating layer loss1/fc
I0403 16:39:21.762126 21304 net.cpp:91] Creating Layer loss1/fc
I0403 16:39:21.762145 21304 net.cpp:425] loss1/fc <- loss1/conv
I0403 16:39:21.762166 21304 net.cpp:399] loss1/fc -> loss1/fc
I0403 16:39:21.779868 21304 net.cpp:141] Setting up loss1/fc
I0403 16:39:21.779906 21304 net.cpp:148] Top shape: 24 1024 (24576)
I0403 16:39:21.779922 21304 net.cpp:156] Memory required for data: 945992736
I0403 16:39:21.779940 21304 layer_factory.hpp:77] Creating layer loss1/relu_fc
I0403 16:39:21.779961 21304 net.cpp:91] Creating Layer loss1/relu_fc
I0403 16:39:21.779978 21304 net.cpp:425] loss1/relu_fc <- loss1/fc
I0403 16:39:21.779994 21304 net.cpp:386] loss1/relu_fc -> loss1/fc (in-place)
I0403 16:39:21.780176 21304 net.cpp:141] Setting up loss1/relu_fc
I0403 16:39:21.780202 21304 net.cpp:148] Top shape: 24 1024 (24576)
I0403 16:39:21.780217 21304 net.cpp:156] Memory required for data: 946091040
I0403 16:39:21.780231 21304 layer_factory.hpp:77] Creating layer loss1/drop_fc
I0403 16:39:21.780259 21304 net.cpp:91] Creating Layer loss1/drop_fc
I0403 16:39:21.780277 21304 net.cpp:425] loss1/drop_fc <- loss1/fc
I0403 16:39:21.780292 21304 net.cpp:386] loss1/drop_fc -> loss1/fc (in-place)
I0403 16:39:21.780344 21304 net.cpp:141] Setting up loss1/drop_fc
I0403 16:39:21.780366 21304 net.cpp:148] Top shape: 24 1024 (24576)
I0403 16:39:21.780380 21304 net.cpp:156] Memory required for data: 946189344
I0403 16:39:21.780393 21304 layer_factory.hpp:77] Creating layer loss1/classifier_plantvillage
I0403 16:39:21.780414 21304 net.cpp:91] Creating Layer loss1/classifier_plantvillage
I0403 16:39:21.780431 21304 net.cpp:425] loss1/classifier_plantvillage <- loss1/fc
I0403 16:39:21.780448 21304 net.cpp:399] loss1/classifier_plantvillage -> loss1/classifier_plantvillage
I0403 16:39:21.781322 21304 net.cpp:141] Setting up loss1/classifier_plantvillage
I0403 16:39:21.781350 21304 net.cpp:148] Top shape: 24 38 (912)
I0403 16:39:21.781366 21304 net.cpp:156] Memory required for data: 946192992
I0403 16:39:21.781383 21304 layer_factory.hpp:77] Creating layer loss1/classifier_plantvillage_loss1/classifier_plantvillage_0_split
I0403 16:39:21.781401 21304 net.cpp:91] Creating Layer loss1/classifier_plantvillage_loss1/classifier_plantvillage_0_split
I0403 16:39:21.781417 21304 net.cpp:425] loss1/classifier_plantvillage_loss1/classifier_plantvillage_0_split <- loss1/classifier_plantvillage
I0403 16:39:21.781433 21304 net.cpp:399] loss1/classifier_plantvillage_loss1/classifier_plantvillage_0_split -> loss1/classifier_plantvillage_loss1/classifier_plantvillage_0_split_0
I0403 16:39:21.781453 21304 net.cpp:399] loss1/classifier_plantvillage_loss1/classifier_plantvillage_0_split -> loss1/classifier_plantvillage_loss1/classifier_plantvillage_0_split_1
I0403 16:39:21.781474 21304 net.cpp:399] loss1/classifier_plantvillage_loss1/classifier_plantvillage_0_split -> loss1/classifier_plantvillage_loss1/classifier_plantvillage_0_split_2
I0403 16:39:21.781538 21304 net.cpp:141] Setting up loss1/classifier_plantvillage_loss1/classifier_plantvillage_0_split
I0403 16:39:21.781560 21304 net.cpp:148] Top shape: 24 38 (912)
I0403 16:39:21.781576 21304 net.cpp:148] Top shape: 24 38 (912)
I0403 16:39:21.781590 21304 net.cpp:148] Top shape: 24 38 (912)
I0403 16:39:21.781604 21304 net.cpp:156] Memory required for data: 946203936
I0403 16:39:21.781617 21304 layer_factory.hpp:77] Creating layer inception_4b/1x1
I0403 16:39:21.781636 21304 net.cpp:91] Creating Layer inception_4b/1x1
I0403 16:39:21.781668 21304 net.cpp:425] inception_4b/1x1 <- inception_4a/output_inception_4a/output_0_split_1
I0403 16:39:21.781690 21304 net.cpp:399] inception_4b/1x1 -> inception_4b/1x1
I0403 16:39:21.783294 21304 net.cpp:141] Setting up inception_4b/1x1
I0403 16:39:21.783321 21304 net.cpp:148] Top shape: 24 160 14 14 (752640)
I0403 16:39:21.783336 21304 net.cpp:156] Memory required for data: 949214496
I0403 16:39:21.783354 21304 layer_factory.hpp:77] Creating layer inception_4b/relu_1x1
I0403 16:39:21.783383 21304 net.cpp:91] Creating Layer inception_4b/relu_1x1
I0403 16:39:21.783399 21304 net.cpp:425] inception_4b/relu_1x1 <- inception_4b/1x1
I0403 16:39:21.783418 21304 net.cpp:386] inception_4b/relu_1x1 -> inception_4b/1x1 (in-place)
I0403 16:39:21.783596 21304 net.cpp:141] Setting up inception_4b/relu_1x1
I0403 16:39:21.783619 21304 net.cpp:148] Top shape: 24 160 14 14 (752640)
I0403 16:39:21.783633 21304 net.cpp:156] Memory required for data: 952225056
I0403 16:39:21.783648 21304 layer_factory.hpp:77] Creating layer inception_4b/3x3_reduce
I0403 16:39:21.783670 21304 net.cpp:91] Creating Layer inception_4b/3x3_reduce
I0403 16:39:21.783699 21304 net.cpp:425] inception_4b/3x3_reduce <- inception_4a/output_inception_4a/output_0_split_2
I0403 16:39:21.783720 21304 net.cpp:399] inception_4b/3x3_reduce -> inception_4b/3x3_reduce
I0403 16:39:21.785038 21304 net.cpp:141] Setting up inception_4b/3x3_reduce
I0403 16:39:21.785065 21304 net.cpp:148] Top shape: 24 112 14 14 (526848)
I0403 16:39:21.785079 21304 net.cpp:156] Memory required for data: 954332448
I0403 16:39:21.785097 21304 layer_factory.hpp:77] Creating layer inception_4b/relu_3x3_reduce
I0403 16:39:21.785117 21304 net.cpp:91] Creating Layer inception_4b/relu_3x3_reduce
I0403 16:39:21.785133 21304 net.cpp:425] inception_4b/relu_3x3_reduce <- inception_4b/3x3_reduce
I0403 16:39:21.785151 21304 net.cpp:386] inception_4b/relu_3x3_reduce -> inception_4b/3x3_reduce (in-place)
I0403 16:39:21.785426 21304 net.cpp:141] Setting up inception_4b/relu_3x3_reduce
I0403 16:39:21.785452 21304 net.cpp:148] Top shape: 24 112 14 14 (526848)
I0403 16:39:21.785466 21304 net.cpp:156] Memory required for data: 956439840
I0403 16:39:21.785480 21304 layer_factory.hpp:77] Creating layer inception_4b/3x3
I0403 16:39:21.785502 21304 net.cpp:91] Creating Layer inception_4b/3x3
I0403 16:39:21.785518 21304 net.cpp:425] inception_4b/3x3 <- inception_4b/3x3_reduce
I0403 16:39:21.785540 21304 net.cpp:399] inception_4b/3x3 -> inception_4b/3x3
I0403 16:39:21.788416 21304 net.cpp:141] Setting up inception_4b/3x3
I0403 16:39:21.788444 21304 net.cpp:148] Top shape: 24 224 14 14 (1053696)
I0403 16:39:21.788462 21304 net.cpp:156] Memory required for data: 960654624
I0403 16:39:21.788480 21304 layer_factory.hpp:77] Creating layer inception_4b/relu_3x3
I0403 16:39:21.788497 21304 net.cpp:91] Creating Layer inception_4b/relu_3x3
I0403 16:39:21.788513 21304 net.cpp:425] inception_4b/relu_3x3 <- inception_4b/3x3
I0403 16:39:21.788529 21304 net.cpp:386] inception_4b/relu_3x3 -> inception_4b/3x3 (in-place)
I0403 16:39:21.788703 21304 net.cpp:141] Setting up inception_4b/relu_3x3
I0403 16:39:21.788729 21304 net.cpp:148] Top shape: 24 224 14 14 (1053696)
I0403 16:39:21.788744 21304 net.cpp:156] Memory required for data: 964869408
I0403 16:39:21.788758 21304 layer_factory.hpp:77] Creating layer inception_4b/5x5_reduce
I0403 16:39:21.788780 21304 net.cpp:91] Creating Layer inception_4b/5x5_reduce
I0403 16:39:21.788797 21304 net.cpp:425] inception_4b/5x5_reduce <- inception_4a/output_inception_4a/output_0_split_3
I0403 16:39:21.788815 21304 net.cpp:399] inception_4b/5x5_reduce -> inception_4b/5x5_reduce
I0403 16:39:21.789902 21304 net.cpp:141] Setting up inception_4b/5x5_reduce
I0403 16:39:21.789929 21304 net.cpp:148] Top shape: 24 24 14 14 (112896)
I0403 16:39:21.789944 21304 net.cpp:156] Memory required for data: 965320992
I0403 16:39:21.789966 21304 layer_factory.hpp:77] Creating layer inception_4b/relu_5x5_reduce
I0403 16:39:21.789985 21304 net.cpp:91] Creating Layer inception_4b/relu_5x5_reduce
I0403 16:39:21.790014 21304 net.cpp:425] inception_4b/relu_5x5_reduce <- inception_4b/5x5_reduce
I0403 16:39:21.790035 21304 net.cpp:386] inception_4b/relu_5x5_reduce -> inception_4b/5x5_reduce (in-place)
I0403 16:39:21.790210 21304 net.cpp:141] Setting up inception_4b/relu_5x5_reduce
I0403 16:39:21.790235 21304 net.cpp:148] Top shape: 24 24 14 14 (112896)
I0403 16:39:21.790249 21304 net.cpp:156] Memory required for data: 965772576
I0403 16:39:21.790263 21304 layer_factory.hpp:77] Creating layer inception_4b/5x5
I0403 16:39:21.790284 21304 net.cpp:91] Creating Layer inception_4b/5x5
I0403 16:39:21.790302 21304 net.cpp:425] inception_4b/5x5 <- inception_4b/5x5_reduce
I0403 16:39:21.790323 21304 net.cpp:399] inception_4b/5x5 -> inception_4b/5x5
I0403 16:39:21.791507 21304 net.cpp:141] Setting up inception_4b/5x5
I0403 16:39:21.791532 21304 net.cpp:148] Top shape: 24 64 14 14 (301056)
I0403 16:39:21.791548 21304 net.cpp:156] Memory required for data: 966976800
I0403 16:39:21.791564 21304 layer_factory.hpp:77] Creating layer inception_4b/relu_5x5
I0403 16:39:21.791581 21304 net.cpp:91] Creating Layer inception_4b/relu_5x5
I0403 16:39:21.791596 21304 net.cpp:425] inception_4b/relu_5x5 <- inception_4b/5x5
I0403 16:39:21.791615 21304 net.cpp:386] inception_4b/relu_5x5 -> inception_4b/5x5 (in-place)
I0403 16:39:21.791893 21304 net.cpp:141] Setting up inception_4b/relu_5x5
I0403 16:39:21.791918 21304 net.cpp:148] Top shape: 24 64 14 14 (301056)
I0403 16:39:21.791931 21304 net.cpp:156] Memory required for data: 968181024
I0403 16:39:21.791945 21304 layer_factory.hpp:77] Creating layer inception_4b/pool
I0403 16:39:21.791967 21304 net.cpp:91] Creating Layer inception_4b/pool
I0403 16:39:21.791983 21304 net.cpp:425] inception_4b/pool <- inception_4a/output_inception_4a/output_0_split_4
I0403 16:39:21.792006 21304 net.cpp:399] inception_4b/pool -> inception_4b/pool
I0403 16:39:21.792068 21304 net.cpp:141] Setting up inception_4b/pool
I0403 16:39:21.792091 21304 net.cpp:148] Top shape: 24 512 14 14 (2408448)
I0403 16:39:21.792105 21304 net.cpp:156] Memory required for data: 977814816
I0403 16:39:21.792119 21304 layer_factory.hpp:77] Creating layer inception_4b/pool_proj
I0403 16:39:21.792142 21304 net.cpp:91] Creating Layer inception_4b/pool_proj
I0403 16:39:21.792160 21304 net.cpp:425] inception_4b/pool_proj <- inception_4b/pool
I0403 16:39:21.792177 21304 net.cpp:399] inception_4b/pool_proj -> inception_4b/pool_proj
I0403 16:39:21.793340 21304 net.cpp:141] Setting up inception_4b/pool_proj
I0403 16:39:21.793366 21304 net.cpp:148] Top shape: 24 64 14 14 (301056)
I0403 16:39:21.793381 21304 net.cpp:156] Memory required for data: 979019040
I0403 16:39:21.793398 21304 layer_factory.hpp:77] Creating layer inception_4b/relu_pool_proj
I0403 16:39:21.793416 21304 net.cpp:91] Creating Layer inception_4b/relu_pool_proj
I0403 16:39:21.793431 21304 net.cpp:425] inception_4b/relu_pool_proj <- inception_4b/pool_proj
I0403 16:39:21.793450 21304 net.cpp:386] inception_4b/relu_pool_proj -> inception_4b/pool_proj (in-place)
I0403 16:39:21.793625 21304 net.cpp:141] Setting up inception_4b/relu_pool_proj
I0403 16:39:21.793649 21304 net.cpp:148] Top shape: 24 64 14 14 (301056)
I0403 16:39:21.793664 21304 net.cpp:156] Memory required for data: 980223264
I0403 16:39:21.793678 21304 layer_factory.hpp:77] Creating layer inception_4b/output
I0403 16:39:21.793696 21304 net.cpp:91] Creating Layer inception_4b/output
I0403 16:39:21.793711 21304 net.cpp:425] inception_4b/output <- inception_4b/1x1
I0403 16:39:21.793726 21304 net.cpp:425] inception_4b/output <- inception_4b/3x3
I0403 16:39:21.793741 21304 net.cpp:425] inception_4b/output <- inception_4b/5x5
I0403 16:39:21.793756 21304 net.cpp:425] inception_4b/output <- inception_4b/pool_proj
I0403 16:39:21.793772 21304 net.cpp:399] inception_4b/output -> inception_4b/output
I0403 16:39:21.793817 21304 net.cpp:141] Setting up inception_4b/output
I0403 16:39:21.793838 21304 net.cpp:148] Top shape: 24 512 14 14 (2408448)
I0403 16:39:21.793853 21304 net.cpp:156] Memory required for data: 989857056
I0403 16:39:21.793880 21304 layer_factory.hpp:77] Creating layer inception_4b/output_inception_4b/output_0_split
I0403 16:39:21.793898 21304 net.cpp:91] Creating Layer inception_4b/output_inception_4b/output_0_split
I0403 16:39:21.793913 21304 net.cpp:425] inception_4b/output_inception_4b/output_0_split <- inception_4b/output
I0403 16:39:21.793934 21304 net.cpp:399] inception_4b/output_inception_4b/output_0_split -> inception_4b/output_inception_4b/output_0_split_0
I0403 16:39:21.793957 21304 net.cpp:399] inception_4b/output_inception_4b/output_0_split -> inception_4b/output_inception_4b/output_0_split_1
I0403 16:39:21.793979 21304 net.cpp:399] inception_4b/output_inception_4b/output_0_split -> inception_4b/output_inception_4b/output_0_split_2
I0403 16:39:21.793998 21304 net.cpp:399] inception_4b/output_inception_4b/output_0_split -> inception_4b/output_inception_4b/output_0_split_3
I0403 16:39:21.794077 21304 net.cpp:141] Setting up inception_4b/output_inception_4b/output_0_split
I0403 16:39:21.794102 21304 net.cpp:148] Top shape: 24 512 14 14 (2408448)
I0403 16:39:21.794118 21304 net.cpp:148] Top shape: 24 512 14 14 (2408448)
I0403 16:39:21.794134 21304 net.cpp:148] Top shape: 24 512 14 14 (2408448)
I0403 16:39:21.794148 21304 net.cpp:148] Top shape: 24 512 14 14 (2408448)
I0403 16:39:21.794162 21304 net.cpp:156] Memory required for data: 1028392224
I0403 16:39:21.794175 21304 layer_factory.hpp:77] Creating layer inception_4c/1x1
I0403 16:39:21.794196 21304 net.cpp:91] Creating Layer inception_4c/1x1
I0403 16:39:21.794214 21304 net.cpp:425] inception_4c/1x1 <- inception_4b/output_inception_4b/output_0_split_0
I0403 16:39:21.794231 21304 net.cpp:399] inception_4c/1x1 -> inception_4c/1x1
I0403 16:39:21.795673 21304 net.cpp:141] Setting up inception_4c/1x1
I0403 16:39:21.795701 21304 net.cpp:148] Top shape: 24 128 14 14 (602112)
I0403 16:39:21.795716 21304 net.cpp:156] Memory required for data: 1030800672
I0403 16:39:21.795733 21304 layer_factory.hpp:77] Creating layer inception_4c/relu_1x1
I0403 16:39:21.795753 21304 net.cpp:91] Creating Layer inception_4c/relu_1x1
I0403 16:39:21.795770 21304 net.cpp:425] inception_4c/relu_1x1 <- inception_4c/1x1
I0403 16:39:21.795788 21304 net.cpp:386] inception_4c/relu_1x1 -> inception_4c/1x1 (in-place)
I0403 16:39:21.795974 21304 net.cpp:141] Setting up inception_4c/relu_1x1
I0403 16:39:21.796000 21304 net.cpp:148] Top shape: 24 128 14 14 (602112)
I0403 16:39:21.796015 21304 net.cpp:156] Memory required for data: 1033209120
I0403 16:39:21.796030 21304 layer_factory.hpp:77] Creating layer inception_4c/3x3_reduce
I0403 16:39:21.796051 21304 net.cpp:91] Creating Layer inception_4c/3x3_reduce
I0403 16:39:21.796068 21304 net.cpp:425] inception_4c/3x3_reduce <- inception_4b/output_inception_4b/output_0_split_1
I0403 16:39:21.796087 21304 net.cpp:399] inception_4c/3x3_reduce -> inception_4c/3x3_reduce
I0403 16:39:21.798166 21304 net.cpp:141] Setting up inception_4c/3x3_reduce
I0403 16:39:21.798197 21304 net.cpp:148] Top shape: 24 128 14 14 (602112)
I0403 16:39:21.798213 21304 net.cpp:156] Memory required for data: 1035617568
I0403 16:39:21.798231 21304 layer_factory.hpp:77] Creating layer inception_4c/relu_3x3_reduce
I0403 16:39:21.798250 21304 net.cpp:91] Creating Layer inception_4c/relu_3x3_reduce
I0403 16:39:21.798266 21304 net.cpp:425] inception_4c/relu_3x3_reduce <- inception_4c/3x3_reduce
I0403 16:39:21.798286 21304 net.cpp:386] inception_4c/relu_3x3_reduce -> inception_4c/3x3_reduce (in-place)
I0403 16:39:21.802265 21304 net.cpp:141] Setting up inception_4c/relu_3x3_reduce
I0403 16:39:21.802294 21304 net.cpp:148] Top shape: 24 128 14 14 (602112)
I0403 16:39:21.802310 21304 net.cpp:156] Memory required for data: 1038026016
I0403 16:39:21.802337 21304 layer_factory.hpp:77] Creating layer inception_4c/3x3
I0403 16:39:21.802361 21304 net.cpp:91] Creating Layer inception_4c/3x3
I0403 16:39:21.802378 21304 net.cpp:425] inception_4c/3x3 <- inception_4c/3x3_reduce
I0403 16:39:21.802397 21304 net.cpp:399] inception_4c/3x3 -> inception_4c/3x3
I0403 16:39:21.806105 21304 net.cpp:141] Setting up inception_4c/3x3
I0403 16:39:21.806149 21304 net.cpp:148] Top shape: 24 256 14 14 (1204224)
I0403 16:39:21.806164 21304 net.cpp:156] Memory required for data: 1042842912
I0403 16:39:21.806200 21304 layer_factory.hpp:77] Creating layer inception_4c/relu_3x3
I0403 16:39:21.806221 21304 net.cpp:91] Creating Layer inception_4c/relu_3x3
I0403 16:39:21.806237 21304 net.cpp:425] inception_4c/relu_3x3 <- inception_4c/3x3
I0403 16:39:21.806257 21304 net.cpp:386] inception_4c/relu_3x3 -> inception_4c/3x3 (in-place)
I0403 16:39:21.806447 21304 net.cpp:141] Setting up inception_4c/relu_3x3
I0403 16:39:21.806473 21304 net.cpp:148] Top shape: 24 256 14 14 (1204224)
I0403 16:39:21.806488 21304 net.cpp:156] Memory required for data: 1047659808
I0403 16:39:21.806504 21304 layer_factory.hpp:77] Creating layer inception_4c/5x5_reduce
I0403 16:39:21.806526 21304 net.cpp:91] Creating Layer inception_4c/5x5_reduce
I0403 16:39:21.806545 21304 net.cpp:425] inception_4c/5x5_reduce <- inception_4b/output_inception_4b/output_0_split_2
I0403 16:39:21.806567 21304 net.cpp:399] inception_4c/5x5_reduce -> inception_4c/5x5_reduce
I0403 16:39:21.807684 21304 net.cpp:141] Setting up inception_4c/5x5_reduce
I0403 16:39:21.807713 21304 net.cpp:148] Top shape: 24 24 14 14 (112896)
I0403 16:39:21.807729 21304 net.cpp:156] Memory required for data: 1048111392
I0403 16:39:21.807746 21304 layer_factory.hpp:77] Creating layer inception_4c/relu_5x5_reduce
I0403 16:39:21.807765 21304 net.cpp:91] Creating Layer inception_4c/relu_5x5_reduce
I0403 16:39:21.807780 21304 net.cpp:425] inception_4c/relu_5x5_reduce <- inception_4c/5x5_reduce
I0403 16:39:21.807801 21304 net.cpp:386] inception_4c/relu_5x5_reduce -> inception_4c/5x5_reduce (in-place)
I0403 16:39:21.807996 21304 net.cpp:141] Setting up inception_4c/relu_5x5_reduce
I0403 16:39:21.808022 21304 net.cpp:148] Top shape: 24 24 14 14 (112896)
I0403 16:39:21.808035 21304 net.cpp:156] Memory required for data: 1048562976
I0403 16:39:21.808050 21304 layer_factory.hpp:77] Creating layer inception_4c/5x5
I0403 16:39:21.808074 21304 net.cpp:91] Creating Layer inception_4c/5x5
I0403 16:39:21.808094 21304 net.cpp:425] inception_4c/5x5 <- inception_4c/5x5_reduce
I0403 16:39:21.808115 21304 net.cpp:399] inception_4c/5x5 -> inception_4c/5x5
I0403 16:39:21.809396 21304 net.cpp:141] Setting up inception_4c/5x5
I0403 16:39:21.809425 21304 net.cpp:148] Top shape: 24 64 14 14 (301056)
I0403 16:39:21.809442 21304 net.cpp:156] Memory required for data: 1049767200
I0403 16:39:21.809460 21304 layer_factory.hpp:77] Creating layer inception_4c/relu_5x5
I0403 16:39:21.809480 21304 net.cpp:91] Creating Layer inception_4c/relu_5x5
I0403 16:39:21.809499 21304 net.cpp:425] inception_4c/relu_5x5 <- inception_4c/5x5
I0403 16:39:21.809516 21304 net.cpp:386] inception_4c/relu_5x5 -> inception_4c/5x5 (in-place)
I0403 16:39:21.809814 21304 net.cpp:141] Setting up inception_4c/relu_5x5
I0403 16:39:21.809841 21304 net.cpp:148] Top shape: 24 64 14 14 (301056)
I0403 16:39:21.809856 21304 net.cpp:156] Memory required for data: 1050971424
I0403 16:39:21.809871 21304 layer_factory.hpp:77] Creating layer inception_4c/pool
I0403 16:39:21.809891 21304 net.cpp:91] Creating Layer inception_4c/pool
I0403 16:39:21.809909 21304 net.cpp:425] inception_4c/pool <- inception_4b/output_inception_4b/output_0_split_3
I0403 16:39:21.809928 21304 net.cpp:399] inception_4c/pool -> inception_4c/pool
I0403 16:39:21.810001 21304 net.cpp:141] Setting up inception_4c/pool
I0403 16:39:21.810025 21304 net.cpp:148] Top shape: 24 512 14 14 (2408448)
I0403 16:39:21.810040 21304 net.cpp:156] Memory required for data: 1060605216
I0403 16:39:21.810055 21304 layer_factory.hpp:77] Creating layer inception_4c/pool_proj
I0403 16:39:21.810077 21304 net.cpp:91] Creating Layer inception_4c/pool_proj
I0403 16:39:21.810094 21304 net.cpp:425] inception_4c/pool_proj <- inception_4c/pool
I0403 16:39:21.810117 21304 net.cpp:399] inception_4c/pool_proj -> inception_4c/pool_proj
I0403 16:39:21.811368 21304 net.cpp:141] Setting up inception_4c/pool_proj
I0403 16:39:21.811395 21304 net.cpp:148] Top shape: 24 64 14 14 (301056)
I0403 16:39:21.811426 21304 net.cpp:156] Memory required for data: 1061809440
I0403 16:39:21.811446 21304 layer_factory.hpp:77] Creating layer inception_4c/relu_pool_proj
I0403 16:39:21.811465 21304 net.cpp:91] Creating Layer inception_4c/relu_pool_proj
I0403 16:39:21.811480 21304 net.cpp:425] inception_4c/relu_pool_proj <- inception_4c/pool_proj
I0403 16:39:21.811501 21304 net.cpp:386] inception_4c/relu_pool_proj -> inception_4c/pool_proj (in-place)
I0403 16:39:21.811688 21304 net.cpp:141] Setting up inception_4c/relu_pool_proj
I0403 16:39:21.811714 21304 net.cpp:148] Top shape: 24 64 14 14 (301056)
I0403 16:39:21.811729 21304 net.cpp:156] Memory required for data: 1063013664
I0403 16:39:21.811743 21304 layer_factory.hpp:77] Creating layer inception_4c/output
I0403 16:39:21.811764 21304 net.cpp:91] Creating Layer inception_4c/output
I0403 16:39:21.811780 21304 net.cpp:425] inception_4c/output <- inception_4c/1x1
I0403 16:39:21.811797 21304 net.cpp:425] inception_4c/output <- inception_4c/3x3
I0403 16:39:21.811813 21304 net.cpp:425] inception_4c/output <- inception_4c/5x5
I0403 16:39:21.811828 21304 net.cpp:425] inception_4c/output <- inception_4c/pool_proj
I0403 16:39:21.811846 21304 net.cpp:399] inception_4c/output -> inception_4c/output
I0403 16:39:21.811892 21304 net.cpp:141] Setting up inception_4c/output
I0403 16:39:21.811918 21304 net.cpp:148] Top shape: 24 512 14 14 (2408448)
I0403 16:39:21.811933 21304 net.cpp:156] Memory required for data: 1072647456
I0403 16:39:21.811949 21304 layer_factory.hpp:77] Creating layer inception_4c/output_inception_4c/output_0_split
I0403 16:39:21.811970 21304 net.cpp:91] Creating Layer inception_4c/output_inception_4c/output_0_split
I0403 16:39:21.811987 21304 net.cpp:425] inception_4c/output_inception_4c/output_0_split <- inception_4c/output
I0403 16:39:21.812007 21304 net.cpp:399] inception_4c/output_inception_4c/output_0_split -> inception_4c/output_inception_4c/output_0_split_0
I0403 16:39:21.812028 21304 net.cpp:399] inception_4c/output_inception_4c/output_0_split -> inception_4c/output_inception_4c/output_0_split_1
I0403 16:39:21.812048 21304 net.cpp:399] inception_4c/output_inception_4c/output_0_split -> inception_4c/output_inception_4c/output_0_split_2
I0403 16:39:21.812068 21304 net.cpp:399] inception_4c/output_inception_4c/output_0_split -> inception_4c/output_inception_4c/output_0_split_3
I0403 16:39:21.812155 21304 net.cpp:141] Setting up inception_4c/output_inception_4c/output_0_split
I0403 16:39:21.812182 21304 net.cpp:148] Top shape: 24 512 14 14 (2408448)
I0403 16:39:21.812199 21304 net.cpp:148] Top shape: 24 512 14 14 (2408448)
I0403 16:39:21.812216 21304 net.cpp:148] Top shape: 24 512 14 14 (2408448)
I0403 16:39:21.812232 21304 net.cpp:148] Top shape: 24 512 14 14 (2408448)
I0403 16:39:21.812247 21304 net.cpp:156] Memory required for data: 1111182624
I0403 16:39:21.812263 21304 layer_factory.hpp:77] Creating layer inception_4d/1x1
I0403 16:39:21.812285 21304 net.cpp:91] Creating Layer inception_4d/1x1
I0403 16:39:21.812304 21304 net.cpp:425] inception_4d/1x1 <- inception_4c/output_inception_4c/output_0_split_0
I0403 16:39:21.812322 21304 net.cpp:399] inception_4d/1x1 -> inception_4d/1x1
I0403 16:39:21.813758 21304 net.cpp:141] Setting up inception_4d/1x1
I0403 16:39:21.813787 21304 net.cpp:148] Top shape: 24 112 14 14 (526848)
I0403 16:39:21.813804 21304 net.cpp:156] Memory required for data: 1113290016
I0403 16:39:21.813822 21304 layer_factory.hpp:77] Creating layer inception_4d/relu_1x1
I0403 16:39:21.813840 21304 net.cpp:91] Creating Layer inception_4d/relu_1x1
I0403 16:39:21.813856 21304 net.cpp:425] inception_4d/relu_1x1 <- inception_4d/1x1
I0403 16:39:21.813874 21304 net.cpp:386] inception_4d/relu_1x1 -> inception_4d/1x1 (in-place)
I0403 16:39:21.814064 21304 net.cpp:141] Setting up inception_4d/relu_1x1
I0403 16:39:21.814091 21304 net.cpp:148] Top shape: 24 112 14 14 (526848)
I0403 16:39:21.814107 21304 net.cpp:156] Memory required for data: 1115397408
I0403 16:39:21.814122 21304 layer_factory.hpp:77] Creating layer inception_4d/3x3_reduce
I0403 16:39:21.814158 21304 net.cpp:91] Creating Layer inception_4d/3x3_reduce
I0403 16:39:21.814177 21304 net.cpp:425] inception_4d/3x3_reduce <- inception_4c/output_inception_4c/output_0_split_1
I0403 16:39:21.814198 21304 net.cpp:399] inception_4d/3x3_reduce -> inception_4d/3x3_reduce
I0403 16:39:21.815745 21304 net.cpp:141] Setting up inception_4d/3x3_reduce
I0403 16:39:21.815773 21304 net.cpp:148] Top shape: 24 144 14 14 (677376)
I0403 16:39:21.815788 21304 net.cpp:156] Memory required for data: 1118106912
I0403 16:39:21.815807 21304 layer_factory.hpp:77] Creating layer inception_4d/relu_3x3_reduce
I0403 16:39:21.815827 21304 net.cpp:91] Creating Layer inception_4d/relu_3x3_reduce
I0403 16:39:21.815845 21304 net.cpp:425] inception_4d/relu_3x3_reduce <- inception_4d/3x3_reduce
I0403 16:39:21.815865 21304 net.cpp:386] inception_4d/relu_3x3_reduce -> inception_4d/3x3_reduce (in-place)
I0403 16:39:21.816172 21304 net.cpp:141] Setting up inception_4d/relu_3x3_reduce
I0403 16:39:21.816198 21304 net.cpp:148] Top shape: 24 144 14 14 (677376)
I0403 16:39:21.816213 21304 net.cpp:156] Memory required for data: 1120816416
I0403 16:39:21.816228 21304 layer_factory.hpp:77] Creating layer inception_4d/3x3
I0403 16:39:21.816251 21304 net.cpp:91] Creating Layer inception_4d/3x3
I0403 16:39:21.816269 21304 net.cpp:425] inception_4d/3x3 <- inception_4d/3x3_reduce
I0403 16:39:21.816290 21304 net.cpp:399] inception_4d/3x3 -> inception_4d/3x3
I0403 16:39:21.820621 21304 net.cpp:141] Setting up inception_4d/3x3
I0403 16:39:21.820652 21304 net.cpp:148] Top shape: 24 288 14 14 (1354752)
I0403 16:39:21.820667 21304 net.cpp:156] Memory required for data: 1126235424
I0403 16:39:21.820685 21304 layer_factory.hpp:77] Creating layer inception_4d/relu_3x3
I0403 16:39:21.820703 21304 net.cpp:91] Creating Layer inception_4d/relu_3x3
I0403 16:39:21.820719 21304 net.cpp:425] inception_4d/relu_3x3 <- inception_4d/3x3
I0403 16:39:21.820737 21304 net.cpp:386] inception_4d/relu_3x3 -> inception_4d/3x3 (in-place)
I0403 16:39:21.820920 21304 net.cpp:141] Setting up inception_4d/relu_3x3
I0403 16:39:21.820962 21304 net.cpp:148] Top shape: 24 288 14 14 (1354752)
I0403 16:39:21.820981 21304 net.cpp:156] Memory required for data: 1131654432
I0403 16:39:21.820996 21304 layer_factory.hpp:77] Creating layer inception_4d/5x5_reduce
I0403 16:39:21.821020 21304 net.cpp:91] Creating Layer inception_4d/5x5_reduce
I0403 16:39:21.821038 21304 net.cpp:425] inception_4d/5x5_reduce <- inception_4c/output_inception_4c/output_0_split_2
I0403 16:39:21.821059 21304 net.cpp:399] inception_4d/5x5_reduce -> inception_4d/5x5_reduce
I0403 16:39:21.822223 21304 net.cpp:141] Setting up inception_4d/5x5_reduce
I0403 16:39:21.822254 21304 net.cpp:148] Top shape: 24 32 14 14 (150528)
I0403 16:39:21.822270 21304 net.cpp:156] Memory required for data: 1132256544
I0403 16:39:21.822289 21304 layer_factory.hpp:77] Creating layer inception_4d/relu_5x5_reduce
I0403 16:39:21.822307 21304 net.cpp:91] Creating Layer inception_4d/relu_5x5_reduce
I0403 16:39:21.822322 21304 net.cpp:425] inception_4d/relu_5x5_reduce <- inception_4d/5x5_reduce
I0403 16:39:21.822340 21304 net.cpp:386] inception_4d/relu_5x5_reduce -> inception_4d/5x5_reduce (in-place)
I0403 16:39:21.822530 21304 net.cpp:141] Setting up inception_4d/relu_5x5_reduce
I0403 16:39:21.822554 21304 net.cpp:148] Top shape: 24 32 14 14 (150528)
I0403 16:39:21.822569 21304 net.cpp:156] Memory required for data: 1132858656
I0403 16:39:21.822584 21304 layer_factory.hpp:77] Creating layer inception_4d/5x5
I0403 16:39:21.822607 21304 net.cpp:91] Creating Layer inception_4d/5x5
I0403 16:39:21.822623 21304 net.cpp:425] inception_4d/5x5 <- inception_4d/5x5_reduce
I0403 16:39:21.822644 21304 net.cpp:399] inception_4d/5x5 -> inception_4d/5x5
I0403 16:39:21.824169 21304 net.cpp:141] Setting up inception_4d/5x5
I0403 16:39:21.824196 21304 net.cpp:148] Top shape: 24 64 14 14 (301056)
I0403 16:39:21.824211 21304 net.cpp:156] Memory required for data: 1134062880
I0403 16:39:21.824230 21304 layer_factory.hpp:77] Creating layer inception_4d/relu_5x5
I0403 16:39:21.824267 21304 net.cpp:91] Creating Layer inception_4d/relu_5x5
I0403 16:39:21.824285 21304 net.cpp:425] inception_4d/relu_5x5 <- inception_4d/5x5
I0403 16:39:21.824306 21304 net.cpp:386] inception_4d/relu_5x5 -> inception_4d/5x5 (in-place)
I0403 16:39:21.824604 21304 net.cpp:141] Setting up inception_4d/relu_5x5
I0403 16:39:21.824630 21304 net.cpp:148] Top shape: 24 64 14 14 (301056)
I0403 16:39:21.824645 21304 net.cpp:156] Memory required for data: 1135267104
I0403 16:39:21.824659 21304 layer_factory.hpp:77] Creating layer inception_4d/pool
I0403 16:39:21.824677 21304 net.cpp:91] Creating Layer inception_4d/pool
I0403 16:39:21.824697 21304 net.cpp:425] inception_4d/pool <- inception_4c/output_inception_4c/output_0_split_3
I0403 16:39:21.824713 21304 net.cpp:399] inception_4d/pool -> inception_4d/pool
I0403 16:39:21.824782 21304 net.cpp:141] Setting up inception_4d/pool
I0403 16:39:21.824805 21304 net.cpp:148] Top shape: 24 512 14 14 (2408448)
I0403 16:39:21.824820 21304 net.cpp:156] Memory required for data: 1144900896
I0403 16:39:21.824834 21304 layer_factory.hpp:77] Creating layer inception_4d/pool_proj
I0403 16:39:21.824856 21304 net.cpp:91] Creating Layer inception_4d/pool_proj
I0403 16:39:21.824873 21304 net.cpp:425] inception_4d/pool_proj <- inception_4d/pool
I0403 16:39:21.824894 21304 net.cpp:399] inception_4d/pool_proj -> inception_4d/pool_proj
I0403 16:39:21.826685 21304 net.cpp:141] Setting up inception_4d/pool_proj
I0403 16:39:21.826715 21304 net.cpp:148] Top shape: 24 64 14 14 (301056)
I0403 16:39:21.826731 21304 net.cpp:156] Memory required for data: 1146105120
I0403 16:39:21.826750 21304 layer_factory.hpp:77] Creating layer inception_4d/relu_pool_proj
I0403 16:39:21.826768 21304 net.cpp:91] Creating Layer inception_4d/relu_pool_proj
I0403 16:39:21.826784 21304 net.cpp:425] inception_4d/relu_pool_proj <- inception_4d/pool_proj
I0403 16:39:21.826803 21304 net.cpp:386] inception_4d/relu_pool_proj -> inception_4d/pool_proj (in-place)
I0403 16:39:21.826992 21304 net.cpp:141] Setting up inception_4d/relu_pool_proj
I0403 16:39:21.827018 21304 net.cpp:148] Top shape: 24 64 14 14 (301056)
I0403 16:39:21.827033 21304 net.cpp:156] Memory required for data: 1147309344
I0403 16:39:21.827047 21304 layer_factory.hpp:77] Creating layer inception_4d/output
I0403 16:39:21.827064 21304 net.cpp:91] Creating Layer inception_4d/output
I0403 16:39:21.827080 21304 net.cpp:425] inception_4d/output <- inception_4d/1x1
I0403 16:39:21.827096 21304 net.cpp:425] inception_4d/output <- inception_4d/3x3
I0403 16:39:21.827112 21304 net.cpp:425] inception_4d/output <- inception_4d/5x5
I0403 16:39:21.827128 21304 net.cpp:425] inception_4d/output <- inception_4d/pool_proj
I0403 16:39:21.827147 21304 net.cpp:399] inception_4d/output -> inception_4d/output
I0403 16:39:21.827195 21304 net.cpp:141] Setting up inception_4d/output
I0403 16:39:21.827220 21304 net.cpp:148] Top shape: 24 528 14 14 (2483712)
I0403 16:39:21.827235 21304 net.cpp:156] Memory required for data: 1157244192
I0403 16:39:21.827250 21304 layer_factory.hpp:77] Creating layer inception_4d/output_inception_4d/output_0_split
I0403 16:39:21.827267 21304 net.cpp:91] Creating Layer inception_4d/output_inception_4d/output_0_split
I0403 16:39:21.827283 21304 net.cpp:425] inception_4d/output_inception_4d/output_0_split <- inception_4d/output
I0403 16:39:21.827301 21304 net.cpp:399] inception_4d/output_inception_4d/output_0_split -> inception_4d/output_inception_4d/output_0_split_0
I0403 16:39:21.827323 21304 net.cpp:399] inception_4d/output_inception_4d/output_0_split -> inception_4d/output_inception_4d/output_0_split_1
I0403 16:39:21.827344 21304 net.cpp:399] inception_4d/output_inception_4d/output_0_split -> inception_4d/output_inception_4d/output_0_split_2
I0403 16:39:21.827364 21304 net.cpp:399] inception_4d/output_inception_4d/output_0_split -> inception_4d/output_inception_4d/output_0_split_3
I0403 16:39:21.827383 21304 net.cpp:399] inception_4d/output_inception_4d/output_0_split -> inception_4d/output_inception_4d/output_0_split_4
I0403 16:39:21.827486 21304 net.cpp:141] Setting up inception_4d/output_inception_4d/output_0_split
I0403 16:39:21.827520 21304 net.cpp:148] Top shape: 24 528 14 14 (2483712)
I0403 16:39:21.827540 21304 net.cpp:148] Top shape: 24 528 14 14 (2483712)
I0403 16:39:21.827556 21304 net.cpp:148] Top shape: 24 528 14 14 (2483712)
I0403 16:39:21.827572 21304 net.cpp:148] Top shape: 24 528 14 14 (2483712)
I0403 16:39:21.827587 21304 net.cpp:148] Top shape: 24 528 14 14 (2483712)
I0403 16:39:21.827601 21304 net.cpp:156] Memory required for data: 1206918432
I0403 16:39:21.827615 21304 layer_factory.hpp:77] Creating layer loss2/ave_pool
I0403 16:39:21.827632 21304 net.cpp:91] Creating Layer loss2/ave_pool
I0403 16:39:21.827647 21304 net.cpp:425] loss2/ave_pool <- inception_4d/output_inception_4d/output_0_split_0
I0403 16:39:21.827666 21304 net.cpp:399] loss2/ave_pool -> loss2/ave_pool
I0403 16:39:21.827987 21304 net.cpp:141] Setting up loss2/ave_pool
I0403 16:39:21.828016 21304 net.cpp:148] Top shape: 24 528 4 4 (202752)
I0403 16:39:21.828032 21304 net.cpp:156] Memory required for data: 1207729440
I0403 16:39:21.828045 21304 layer_factory.hpp:77] Creating layer loss2/conv
I0403 16:39:21.828068 21304 net.cpp:91] Creating Layer loss2/conv
I0403 16:39:21.828085 21304 net.cpp:425] loss2/conv <- loss2/ave_pool
I0403 16:39:21.828104 21304 net.cpp:399] loss2/conv -> loss2/conv
I0403 16:39:21.830006 21304 net.cpp:141] Setting up loss2/conv
I0403 16:39:21.830034 21304 net.cpp:148] Top shape: 24 128 4 4 (49152)
I0403 16:39:21.830049 21304 net.cpp:156] Memory required for data: 1207926048
I0403 16:39:21.830068 21304 layer_factory.hpp:77] Creating layer loss2/relu_conv
I0403 16:39:21.830088 21304 net.cpp:91] Creating Layer loss2/relu_conv
I0403 16:39:21.830106 21304 net.cpp:425] loss2/relu_conv <- loss2/conv
I0403 16:39:21.830122 21304 net.cpp:386] loss2/relu_conv -> loss2/conv (in-place)
I0403 16:39:21.830411 21304 net.cpp:141] Setting up loss2/relu_conv
I0403 16:39:21.830437 21304 net.cpp:148] Top shape: 24 128 4 4 (49152)
I0403 16:39:21.830451 21304 net.cpp:156] Memory required for data: 1208122656
I0403 16:39:21.830466 21304 layer_factory.hpp:77] Creating layer loss2/fc
I0403 16:39:21.830487 21304 net.cpp:91] Creating Layer loss2/fc
I0403 16:39:21.830505 21304 net.cpp:425] loss2/fc <- loss2/conv
I0403 16:39:21.830523 21304 net.cpp:399] loss2/fc -> loss2/fc
I0403 16:39:21.848281 21304 net.cpp:141] Setting up loss2/fc
I0403 16:39:21.848335 21304 net.cpp:148] Top shape: 24 1024 (24576)
I0403 16:39:21.848351 21304 net.cpp:156] Memory required for data: 1208220960
I0403 16:39:21.848369 21304 layer_factory.hpp:77] Creating layer loss2/relu_fc
I0403 16:39:21.848388 21304 net.cpp:91] Creating Layer loss2/relu_fc
I0403 16:39:21.848407 21304 net.cpp:425] loss2/relu_fc <- loss2/fc
I0403 16:39:21.848426 21304 net.cpp:386] loss2/relu_fc -> loss2/fc (in-place)
I0403 16:39:21.848753 21304 net.cpp:141] Setting up loss2/relu_fc
I0403 16:39:21.848779 21304 net.cpp:148] Top shape: 24 1024 (24576)
I0403 16:39:21.848794 21304 net.cpp:156] Memory required for data: 1208319264
I0403 16:39:21.848809 21304 layer_factory.hpp:77] Creating layer loss2/drop_fc
I0403 16:39:21.848826 21304 net.cpp:91] Creating Layer loss2/drop_fc
I0403 16:39:21.848841 21304 net.cpp:425] loss2/drop_fc <- loss2/fc
I0403 16:39:21.848861 21304 net.cpp:386] loss2/drop_fc -> loss2/fc (in-place)
I0403 16:39:21.848912 21304 net.cpp:141] Setting up loss2/drop_fc
I0403 16:39:21.848934 21304 net.cpp:148] Top shape: 24 1024 (24576)
I0403 16:39:21.848948 21304 net.cpp:156] Memory required for data: 1208417568
I0403 16:39:21.848973 21304 layer_factory.hpp:77] Creating layer loss2/classifier_plantvillage
I0403 16:39:21.848996 21304 net.cpp:91] Creating Layer loss2/classifier_plantvillage
I0403 16:39:21.849014 21304 net.cpp:425] loss2/classifier_plantvillage <- loss2/fc
I0403 16:39:21.849035 21304 net.cpp:399] loss2/classifier_plantvillage -> loss2/classifier_plantvillage
I0403 16:39:21.849434 21304 net.cpp:141] Setting up loss2/classifier_plantvillage
I0403 16:39:21.849459 21304 net.cpp:148] Top shape: 24 38 (912)
I0403 16:39:21.849473 21304 net.cpp:156] Memory required for data: 1208421216
I0403 16:39:21.849514 21304 layer_factory.hpp:77] Creating layer loss2/classifier_plantvillage_loss2/classifier_plantvillage_0_split
I0403 16:39:21.849534 21304 net.cpp:91] Creating Layer loss2/classifier_plantvillage_loss2/classifier_plantvillage_0_split
I0403 16:39:21.849550 21304 net.cpp:425] loss2/classifier_plantvillage_loss2/classifier_plantvillage_0_split <- loss2/classifier_plantvillage
I0403 16:39:21.849570 21304 net.cpp:399] loss2/classifier_plantvillage_loss2/classifier_plantvillage_0_split -> loss2/classifier_plantvillage_loss2/classifier_plantvillage_0_split_0
I0403 16:39:21.849589 21304 net.cpp:399] loss2/classifier_plantvillage_loss2/classifier_plantvillage_0_split -> loss2/classifier_plantvillage_loss2/classifier_plantvillage_0_split_1
I0403 16:39:21.849609 21304 net.cpp:399] loss2/classifier_plantvillage_loss2/classifier_plantvillage_0_split -> loss2/classifier_plantvillage_loss2/classifier_plantvillage_0_split_2
I0403 16:39:21.849685 21304 net.cpp:141] Setting up loss2/classifier_plantvillage_loss2/classifier_plantvillage_0_split
I0403 16:39:21.849709 21304 net.cpp:148] Top shape: 24 38 (912)
I0403 16:39:21.849723 21304 net.cpp:148] Top shape: 24 38 (912)
I0403 16:39:21.849738 21304 net.cpp:148] Top shape: 24 38 (912)
I0403 16:39:21.849751 21304 net.cpp:156] Memory required for data: 1208432160
I0403 16:39:21.849764 21304 layer_factory.hpp:77] Creating layer inception_4e/1x1
I0403 16:39:21.849787 21304 net.cpp:91] Creating Layer inception_4e/1x1
I0403 16:39:21.849804 21304 net.cpp:425] inception_4e/1x1 <- inception_4d/output_inception_4d/output_0_split_1
I0403 16:39:21.849823 21304 net.cpp:399] inception_4e/1x1 -> inception_4e/1x1
I0403 16:39:21.851697 21304 net.cpp:141] Setting up inception_4e/1x1
I0403 16:39:21.851724 21304 net.cpp:148] Top shape: 24 256 14 14 (1204224)
I0403 16:39:21.851739 21304 net.cpp:156] Memory required for data: 1213249056
I0403 16:39:21.851758 21304 layer_factory.hpp:77] Creating layer inception_4e/relu_1x1
I0403 16:39:21.851778 21304 net.cpp:91] Creating Layer inception_4e/relu_1x1
I0403 16:39:21.851794 21304 net.cpp:425] inception_4e/relu_1x1 <- inception_4e/1x1
I0403 16:39:21.851811 21304 net.cpp:386] inception_4e/relu_1x1 -> inception_4e/1x1 (in-place)
I0403 16:39:21.852115 21304 net.cpp:141] Setting up inception_4e/relu_1x1
I0403 16:39:21.852141 21304 net.cpp:148] Top shape: 24 256 14 14 (1204224)
I0403 16:39:21.852155 21304 net.cpp:156] Memory required for data: 1218065952
I0403 16:39:21.852170 21304 layer_factory.hpp:77] Creating layer inception_4e/3x3_reduce
I0403 16:39:21.852192 21304 net.cpp:91] Creating Layer inception_4e/3x3_reduce
I0403 16:39:21.852210 21304 net.cpp:425] inception_4e/3x3_reduce <- inception_4d/output_inception_4d/output_0_split_2
I0403 16:39:21.852231 21304 net.cpp:399] inception_4e/3x3_reduce -> inception_4e/3x3_reduce
I0403 16:39:21.854357 21304 net.cpp:141] Setting up inception_4e/3x3_reduce
I0403 16:39:21.854383 21304 net.cpp:148] Top shape: 24 160 14 14 (752640)
I0403 16:39:21.854399 21304 net.cpp:156] Memory required for data: 1221076512
I0403 16:39:21.854418 21304 layer_factory.hpp:77] Creating layer inception_4e/relu_3x3_reduce
I0403 16:39:21.854435 21304 net.cpp:91] Creating Layer inception_4e/relu_3x3_reduce
I0403 16:39:21.854450 21304 net.cpp:425] inception_4e/relu_3x3_reduce <- inception_4e/3x3_reduce
I0403 16:39:21.854470 21304 net.cpp:386] inception_4e/relu_3x3_reduce -> inception_4e/3x3_reduce (in-place)
I0403 16:39:21.854655 21304 net.cpp:141] Setting up inception_4e/relu_3x3_reduce
I0403 16:39:21.854679 21304 net.cpp:148] Top shape: 24 160 14 14 (752640)
I0403 16:39:21.854694 21304 net.cpp:156] Memory required for data: 1224087072
I0403 16:39:21.854709 21304 layer_factory.hpp:77] Creating layer inception_4e/3x3
I0403 16:39:21.854732 21304 net.cpp:91] Creating Layer inception_4e/3x3
I0403 16:39:21.854748 21304 net.cpp:425] inception_4e/3x3 <- inception_4e/3x3_reduce
I0403 16:39:21.854769 21304 net.cpp:399] inception_4e/3x3 -> inception_4e/3x3
I0403 16:39:21.859843 21304 net.cpp:141] Setting up inception_4e/3x3
I0403 16:39:21.859884 21304 net.cpp:148] Top shape: 24 320 14 14 (1505280)
I0403 16:39:21.859900 21304 net.cpp:156] Memory required for data: 1230108192
I0403 16:39:21.859918 21304 layer_factory.hpp:77] Creating layer inception_4e/relu_3x3
I0403 16:39:21.859938 21304 net.cpp:91] Creating Layer inception_4e/relu_3x3
I0403 16:39:21.859961 21304 net.cpp:425] inception_4e/relu_3x3 <- inception_4e/3x3
I0403 16:39:21.859979 21304 net.cpp:386] inception_4e/relu_3x3 -> inception_4e/3x3 (in-place)
I0403 16:39:21.860283 21304 net.cpp:141] Setting up inception_4e/relu_3x3
I0403 16:39:21.860312 21304 net.cpp:148] Top shape: 24 320 14 14 (1505280)
I0403 16:39:21.860328 21304 net.cpp:156] Memory required for data: 1236129312
I0403 16:39:21.860343 21304 layer_factory.hpp:77] Creating layer inception_4e/5x5_reduce
I0403 16:39:21.860366 21304 net.cpp:91] Creating Layer inception_4e/5x5_reduce
I0403 16:39:21.860384 21304 net.cpp:425] inception_4e/5x5_reduce <- inception_4d/output_inception_4d/output_0_split_3
I0403 16:39:21.860404 21304 net.cpp:399] inception_4e/5x5_reduce -> inception_4e/5x5_reduce
I0403 16:39:21.861512 21304 net.cpp:141] Setting up inception_4e/5x5_reduce
I0403 16:39:21.861539 21304 net.cpp:148] Top shape: 24 32 14 14 (150528)
I0403 16:39:21.861554 21304 net.cpp:156] Memory required for data: 1236731424
I0403 16:39:21.861572 21304 layer_factory.hpp:77] Creating layer inception_4e/relu_5x5_reduce
I0403 16:39:21.861593 21304 net.cpp:91] Creating Layer inception_4e/relu_5x5_reduce
I0403 16:39:21.861609 21304 net.cpp:425] inception_4e/relu_5x5_reduce <- inception_4e/5x5_reduce
I0403 16:39:21.861627 21304 net.cpp:386] inception_4e/relu_5x5_reduce -> inception_4e/5x5_reduce (in-place)
I0403 16:39:21.861927 21304 net.cpp:141] Setting up inception_4e/relu_5x5_reduce
I0403 16:39:21.861951 21304 net.cpp:148] Top shape: 24 32 14 14 (150528)
I0403 16:39:21.861971 21304 net.cpp:156] Memory required for data: 1237333536
I0403 16:39:21.861987 21304 layer_factory.hpp:77] Creating layer inception_4e/5x5
I0403 16:39:21.862026 21304 net.cpp:91] Creating Layer inception_4e/5x5
I0403 16:39:21.862046 21304 net.cpp:425] inception_4e/5x5 <- inception_4e/5x5_reduce
I0403 16:39:21.862066 21304 net.cpp:399] inception_4e/5x5 -> inception_4e/5x5
I0403 16:39:21.863936 21304 net.cpp:141] Setting up inception_4e/5x5
I0403 16:39:21.863970 21304 net.cpp:148] Top shape: 24 128 14 14 (602112)
I0403 16:39:21.863986 21304 net.cpp:156] Memory required for data: 1239741984
I0403 16:39:21.864006 21304 layer_factory.hpp:77] Creating layer inception_4e/relu_5x5
I0403 16:39:21.864023 21304 net.cpp:91] Creating Layer inception_4e/relu_5x5
I0403 16:39:21.864038 21304 net.cpp:425] inception_4e/relu_5x5 <- inception_4e/5x5
I0403 16:39:21.864058 21304 net.cpp:386] inception_4e/relu_5x5 -> inception_4e/5x5 (in-place)
I0403 16:39:21.864254 21304 net.cpp:141] Setting up inception_4e/relu_5x5
I0403 16:39:21.864279 21304 net.cpp:148] Top shape: 24 128 14 14 (602112)
I0403 16:39:21.864295 21304 net.cpp:156] Memory required for data: 1242150432
I0403 16:39:21.864307 21304 layer_factory.hpp:77] Creating layer inception_4e/pool
I0403 16:39:21.864326 21304 net.cpp:91] Creating Layer inception_4e/pool
I0403 16:39:21.864341 21304 net.cpp:425] inception_4e/pool <- inception_4d/output_inception_4d/output_0_split_4
I0403 16:39:21.864361 21304 net.cpp:399] inception_4e/pool -> inception_4e/pool
I0403 16:39:21.864430 21304 net.cpp:141] Setting up inception_4e/pool
I0403 16:39:21.864454 21304 net.cpp:148] Top shape: 24 528 14 14 (2483712)
I0403 16:39:21.864469 21304 net.cpp:156] Memory required for data: 1252085280
I0403 16:39:21.864483 21304 layer_factory.hpp:77] Creating layer inception_4e/pool_proj
I0403 16:39:21.864506 21304 net.cpp:91] Creating Layer inception_4e/pool_proj
I0403 16:39:21.864523 21304 net.cpp:425] inception_4e/pool_proj <- inception_4e/pool
I0403 16:39:21.864542 21304 net.cpp:399] inception_4e/pool_proj -> inception_4e/pool_proj
I0403 16:39:21.866051 21304 net.cpp:141] Setting up inception_4e/pool_proj
I0403 16:39:21.866080 21304 net.cpp:148] Top shape: 24 128 14 14 (602112)
I0403 16:39:21.866109 21304 net.cpp:156] Memory required for data: 1254493728
I0403 16:39:21.866129 21304 layer_factory.hpp:77] Creating layer inception_4e/relu_pool_proj
I0403 16:39:21.866147 21304 net.cpp:91] Creating Layer inception_4e/relu_pool_proj
I0403 16:39:21.866163 21304 net.cpp:425] inception_4e/relu_pool_proj <- inception_4e/pool_proj
I0403 16:39:21.866184 21304 net.cpp:386] inception_4e/relu_pool_proj -> inception_4e/pool_proj (in-place)
I0403 16:39:21.866474 21304 net.cpp:141] Setting up inception_4e/relu_pool_proj
I0403 16:39:21.866503 21304 net.cpp:148] Top shape: 24 128 14 14 (602112)
I0403 16:39:21.866518 21304 net.cpp:156] Memory required for data: 1256902176
I0403 16:39:21.866533 21304 layer_factory.hpp:77] Creating layer inception_4e/output
I0403 16:39:21.866551 21304 net.cpp:91] Creating Layer inception_4e/output
I0403 16:39:21.866566 21304 net.cpp:425] inception_4e/output <- inception_4e/1x1
I0403 16:39:21.866583 21304 net.cpp:425] inception_4e/output <- inception_4e/3x3
I0403 16:39:21.866600 21304 net.cpp:425] inception_4e/output <- inception_4e/5x5
I0403 16:39:21.866616 21304 net.cpp:425] inception_4e/output <- inception_4e/pool_proj
I0403 16:39:21.866636 21304 net.cpp:399] inception_4e/output -> inception_4e/output
I0403 16:39:21.866684 21304 net.cpp:141] Setting up inception_4e/output
I0403 16:39:21.866708 21304 net.cpp:148] Top shape: 24 832 14 14 (3913728)
I0403 16:39:21.866722 21304 net.cpp:156] Memory required for data: 1272557088
I0403 16:39:21.866736 21304 layer_factory.hpp:77] Creating layer pool4/3x3_s2
I0403 16:39:21.866755 21304 net.cpp:91] Creating Layer pool4/3x3_s2
I0403 16:39:21.866771 21304 net.cpp:425] pool4/3x3_s2 <- inception_4e/output
I0403 16:39:21.866789 21304 net.cpp:399] pool4/3x3_s2 -> pool4/3x3_s2
I0403 16:39:21.866858 21304 net.cpp:141] Setting up pool4/3x3_s2
I0403 16:39:21.866881 21304 net.cpp:148] Top shape: 24 832 7 7 (978432)
I0403 16:39:21.866896 21304 net.cpp:156] Memory required for data: 1276470816
I0403 16:39:21.866910 21304 layer_factory.hpp:77] Creating layer pool4/3x3_s2_pool4/3x3_s2_0_split
I0403 16:39:21.866927 21304 net.cpp:91] Creating Layer pool4/3x3_s2_pool4/3x3_s2_0_split
I0403 16:39:21.866942 21304 net.cpp:425] pool4/3x3_s2_pool4/3x3_s2_0_split <- pool4/3x3_s2
I0403 16:39:21.866966 21304 net.cpp:399] pool4/3x3_s2_pool4/3x3_s2_0_split -> pool4/3x3_s2_pool4/3x3_s2_0_split_0
I0403 16:39:21.866988 21304 net.cpp:399] pool4/3x3_s2_pool4/3x3_s2_0_split -> pool4/3x3_s2_pool4/3x3_s2_0_split_1
I0403 16:39:21.867009 21304 net.cpp:399] pool4/3x3_s2_pool4/3x3_s2_0_split -> pool4/3x3_s2_pool4/3x3_s2_0_split_2
I0403 16:39:21.867029 21304 net.cpp:399] pool4/3x3_s2_pool4/3x3_s2_0_split -> pool4/3x3_s2_pool4/3x3_s2_0_split_3
I0403 16:39:21.867120 21304 net.cpp:141] Setting up pool4/3x3_s2_pool4/3x3_s2_0_split
I0403 16:39:21.867143 21304 net.cpp:148] Top shape: 24 832 7 7 (978432)
I0403 16:39:21.867159 21304 net.cpp:148] Top shape: 24 832 7 7 (978432)
I0403 16:39:21.867174 21304 net.cpp:148] Top shape: 24 832 7 7 (978432)
I0403 16:39:21.867189 21304 net.cpp:148] Top shape: 24 832 7 7 (978432)
I0403 16:39:21.867203 21304 net.cpp:156] Memory required for data: 1292125728
I0403 16:39:21.867218 21304 layer_factory.hpp:77] Creating layer inception_5a/1x1
I0403 16:39:21.867240 21304 net.cpp:91] Creating Layer inception_5a/1x1
I0403 16:39:21.867257 21304 net.cpp:425] inception_5a/1x1 <- pool4/3x3_s2_pool4/3x3_s2_0_split_0
I0403 16:39:21.867279 21304 net.cpp:399] inception_5a/1x1 -> inception_5a/1x1
I0403 16:39:21.870132 21304 net.cpp:141] Setting up inception_5a/1x1
I0403 16:39:21.870162 21304 net.cpp:148] Top shape: 24 256 7 7 (301056)
I0403 16:39:21.870177 21304 net.cpp:156] Memory required for data: 1293329952
I0403 16:39:21.870193 21304 layer_factory.hpp:77] Creating layer inception_5a/relu_1x1
I0403 16:39:21.870211 21304 net.cpp:91] Creating Layer inception_5a/relu_1x1
I0403 16:39:21.870226 21304 net.cpp:425] inception_5a/relu_1x1 <- inception_5a/1x1
I0403 16:39:21.870246 21304 net.cpp:386] inception_5a/relu_1x1 -> inception_5a/1x1 (in-place)
I0403 16:39:21.870554 21304 net.cpp:141] Setting up inception_5a/relu_1x1
I0403 16:39:21.870579 21304 net.cpp:148] Top shape: 24 256 7 7 (301056)
I0403 16:39:21.870594 21304 net.cpp:156] Memory required for data: 1294534176
I0403 16:39:21.870609 21304 layer_factory.hpp:77] Creating layer inception_5a/3x3_reduce
I0403 16:39:21.870630 21304 net.cpp:91] Creating Layer inception_5a/3x3_reduce
I0403 16:39:21.870647 21304 net.cpp:425] inception_5a/3x3_reduce <- pool4/3x3_s2_pool4/3x3_s2_0_split_1
I0403 16:39:21.870668 21304 net.cpp:399] inception_5a/3x3_reduce -> inception_5a/3x3_reduce
I0403 16:39:21.873057 21304 net.cpp:141] Setting up inception_5a/3x3_reduce
I0403 16:39:21.873085 21304 net.cpp:148] Top shape: 24 160 7 7 (188160)
I0403 16:39:21.873100 21304 net.cpp:156] Memory required for data: 1295286816
I0403 16:39:21.873118 21304 layer_factory.hpp:77] Creating layer inception_5a/relu_3x3_reduce
I0403 16:39:21.873137 21304 net.cpp:91] Creating Layer inception_5a/relu_3x3_reduce
I0403 16:39:21.873153 21304 net.cpp:425] inception_5a/relu_3x3_reduce <- inception_5a/3x3_reduce
I0403 16:39:21.873170 21304 net.cpp:386] inception_5a/relu_3x3_reduce -> inception_5a/3x3_reduce (in-place)
I0403 16:39:21.873355 21304 net.cpp:141] Setting up inception_5a/relu_3x3_reduce
I0403 16:39:21.873378 21304 net.cpp:148] Top shape: 24 160 7 7 (188160)
I0403 16:39:21.873392 21304 net.cpp:156] Memory required for data: 1296039456
I0403 16:39:21.873406 21304 layer_factory.hpp:77] Creating layer inception_5a/3x3
I0403 16:39:21.873430 21304 net.cpp:91] Creating Layer inception_5a/3x3
I0403 16:39:21.873446 21304 net.cpp:425] inception_5a/3x3 <- inception_5a/3x3_reduce
I0403 16:39:21.873466 21304 net.cpp:399] inception_5a/3x3 -> inception_5a/3x3
I0403 16:39:21.878341 21304 net.cpp:141] Setting up inception_5a/3x3
I0403 16:39:21.878372 21304 net.cpp:148] Top shape: 24 320 7 7 (376320)
I0403 16:39:21.878388 21304 net.cpp:156] Memory required for data: 1297544736
I0403 16:39:21.878407 21304 layer_factory.hpp:77] Creating layer inception_5a/relu_3x3
I0403 16:39:21.878423 21304 net.cpp:91] Creating Layer inception_5a/relu_3x3
I0403 16:39:21.878439 21304 net.cpp:425] inception_5a/relu_3x3 <- inception_5a/3x3
I0403 16:39:21.878458 21304 net.cpp:386] inception_5a/relu_3x3 -> inception_5a/3x3 (in-place)
I0403 16:39:21.878742 21304 net.cpp:141] Setting up inception_5a/relu_3x3
I0403 16:39:21.878769 21304 net.cpp:148] Top shape: 24 320 7 7 (376320)
I0403 16:39:21.878784 21304 net.cpp:156] Memory required for data: 1299050016
I0403 16:39:21.878798 21304 layer_factory.hpp:77] Creating layer inception_5a/5x5_reduce
I0403 16:39:21.878821 21304 net.cpp:91] Creating Layer inception_5a/5x5_reduce
I0403 16:39:21.878839 21304 net.cpp:425] inception_5a/5x5_reduce <- pool4/3x3_s2_pool4/3x3_s2_0_split_2
I0403 16:39:21.878859 21304 net.cpp:399] inception_5a/5x5_reduce -> inception_5a/5x5_reduce
I0403 16:39:21.880012 21304 net.cpp:141] Setting up inception_5a/5x5_reduce
I0403 16:39:21.880039 21304 net.cpp:148] Top shape: 24 32 7 7 (37632)
I0403 16:39:21.880054 21304 net.cpp:156] Memory required for data: 1299200544
I0403 16:39:21.880072 21304 layer_factory.hpp:77] Creating layer inception_5a/relu_5x5_reduce
I0403 16:39:21.880089 21304 net.cpp:91] Creating Layer inception_5a/relu_5x5_reduce
I0403 16:39:21.880105 21304 net.cpp:425] inception_5a/relu_5x5_reduce <- inception_5a/5x5_reduce
I0403 16:39:21.880123 21304 net.cpp:386] inception_5a/relu_5x5_reduce -> inception_5a/5x5_reduce (in-place)
I0403 16:39:21.880417 21304 net.cpp:141] Setting up inception_5a/relu_5x5_reduce
I0403 16:39:21.880442 21304 net.cpp:148] Top shape: 24 32 7 7 (37632)
I0403 16:39:21.880456 21304 net.cpp:156] Memory required for data: 1299351072
I0403 16:39:21.880470 21304 layer_factory.hpp:77] Creating layer inception_5a/5x5
I0403 16:39:21.880492 21304 net.cpp:91] Creating Layer inception_5a/5x5
I0403 16:39:21.880509 21304 net.cpp:425] inception_5a/5x5 <- inception_5a/5x5_reduce
I0403 16:39:21.880529 21304 net.cpp:399] inception_5a/5x5 -> inception_5a/5x5
I0403 16:39:21.882205 21304 net.cpp:141] Setting up inception_5a/5x5
I0403 16:39:21.882247 21304 net.cpp:148] Top shape: 24 128 7 7 (150528)
I0403 16:39:21.882263 21304 net.cpp:156] Memory required for data: 1299953184
I0403 16:39:21.882282 21304 layer_factory.hpp:77] Creating layer inception_5a/relu_5x5
I0403 16:39:21.882298 21304 net.cpp:91] Creating Layer inception_5a/relu_5x5
I0403 16:39:21.882313 21304 net.cpp:425] inception_5a/relu_5x5 <- inception_5a/5x5
I0403 16:39:21.882333 21304 net.cpp:386] inception_5a/relu_5x5 -> inception_5a/5x5 (in-place)
I0403 16:39:21.882519 21304 net.cpp:141] Setting up inception_5a/relu_5x5
I0403 16:39:21.882542 21304 net.cpp:148] Top shape: 24 128 7 7 (150528)
I0403 16:39:21.882556 21304 net.cpp:156] Memory required for data: 1300555296
I0403 16:39:21.882570 21304 layer_factory.hpp:77] Creating layer inception_5a/pool
I0403 16:39:21.882586 21304 net.cpp:91] Creating Layer inception_5a/pool
I0403 16:39:21.882602 21304 net.cpp:425] inception_5a/pool <- pool4/3x3_s2_pool4/3x3_s2_0_split_3
I0403 16:39:21.882622 21304 net.cpp:399] inception_5a/pool -> inception_5a/pool
I0403 16:39:21.882693 21304 net.cpp:141] Setting up inception_5a/pool
I0403 16:39:21.882714 21304 net.cpp:148] Top shape: 24 832 7 7 (978432)
I0403 16:39:21.882728 21304 net.cpp:156] Memory required for data: 1304469024
I0403 16:39:21.882742 21304 layer_factory.hpp:77] Creating layer inception_5a/pool_proj
I0403 16:39:21.882763 21304 net.cpp:91] Creating Layer inception_5a/pool_proj
I0403 16:39:21.882781 21304 net.cpp:425] inception_5a/pool_proj <- inception_5a/pool
I0403 16:39:21.882799 21304 net.cpp:399] inception_5a/pool_proj -> inception_5a/pool_proj
I0403 16:39:21.885020 21304 net.cpp:141] Setting up inception_5a/pool_proj
I0403 16:39:21.885049 21304 net.cpp:148] Top shape: 24 128 7 7 (150528)
I0403 16:39:21.885066 21304 net.cpp:156] Memory required for data: 1305071136
I0403 16:39:21.885083 21304 layer_factory.hpp:77] Creating layer inception_5a/relu_pool_proj
I0403 16:39:21.885100 21304 net.cpp:91] Creating Layer inception_5a/relu_pool_proj
I0403 16:39:21.885115 21304 net.cpp:425] inception_5a/relu_pool_proj <- inception_5a/pool_proj
I0403 16:39:21.885133 21304 net.cpp:386] inception_5a/relu_pool_proj -> inception_5a/pool_proj (in-place)
I0403 16:39:21.885422 21304 net.cpp:141] Setting up inception_5a/relu_pool_proj
I0403 16:39:21.885450 21304 net.cpp:148] Top shape: 24 128 7 7 (150528)
I0403 16:39:21.885465 21304 net.cpp:156] Memory required for data: 1305673248
I0403 16:39:21.885480 21304 layer_factory.hpp:77] Creating layer inception_5a/output
I0403 16:39:21.885496 21304 net.cpp:91] Creating Layer inception_5a/output
I0403 16:39:21.885512 21304 net.cpp:425] inception_5a/output <- inception_5a/1x1
I0403 16:39:21.885529 21304 net.cpp:425] inception_5a/output <- inception_5a/3x3
I0403 16:39:21.885543 21304 net.cpp:425] inception_5a/output <- inception_5a/5x5
I0403 16:39:21.885560 21304 net.cpp:425] inception_5a/output <- inception_5a/pool_proj
I0403 16:39:21.885576 21304 net.cpp:399] inception_5a/output -> inception_5a/output
I0403 16:39:21.885625 21304 net.cpp:141] Setting up inception_5a/output
I0403 16:39:21.885648 21304 net.cpp:148] Top shape: 24 832 7 7 (978432)
I0403 16:39:21.885663 21304 net.cpp:156] Memory required for data: 1309586976
I0403 16:39:21.885678 21304 layer_factory.hpp:77] Creating layer inception_5a/output_inception_5a/output_0_split
I0403 16:39:21.885695 21304 net.cpp:91] Creating Layer inception_5a/output_inception_5a/output_0_split
I0403 16:39:21.885711 21304 net.cpp:425] inception_5a/output_inception_5a/output_0_split <- inception_5a/output
I0403 16:39:21.885728 21304 net.cpp:399] inception_5a/output_inception_5a/output_0_split -> inception_5a/output_inception_5a/output_0_split_0
I0403 16:39:21.885747 21304 net.cpp:399] inception_5a/output_inception_5a/output_0_split -> inception_5a/output_inception_5a/output_0_split_1
I0403 16:39:21.885766 21304 net.cpp:399] inception_5a/output_inception_5a/output_0_split -> inception_5a/output_inception_5a/output_0_split_2
I0403 16:39:21.885787 21304 net.cpp:399] inception_5a/output_inception_5a/output_0_split -> inception_5a/output_inception_5a/output_0_split_3
I0403 16:39:21.885895 21304 net.cpp:141] Setting up inception_5a/output_inception_5a/output_0_split
I0403 16:39:21.885918 21304 net.cpp:148] Top shape: 24 832 7 7 (978432)
I0403 16:39:21.885934 21304 net.cpp:148] Top shape: 24 832 7 7 (978432)
I0403 16:39:21.885949 21304 net.cpp:148] Top shape: 24 832 7 7 (978432)
I0403 16:39:21.885969 21304 net.cpp:148] Top shape: 24 832 7 7 (978432)
I0403 16:39:21.885984 21304 net.cpp:156] Memory required for data: 1325241888
I0403 16:39:21.885998 21304 layer_factory.hpp:77] Creating layer inception_5b/1x1
I0403 16:39:21.886018 21304 net.cpp:91] Creating Layer inception_5b/1x1
I0403 16:39:21.886034 21304 net.cpp:425] inception_5b/1x1 <- inception_5a/output_inception_5a/output_0_split_0
I0403 16:39:21.886055 21304 net.cpp:399] inception_5b/1x1 -> inception_5b/1x1
I0403 16:39:21.889753 21304 net.cpp:141] Setting up inception_5b/1x1
I0403 16:39:21.889782 21304 net.cpp:148] Top shape: 24 384 7 7 (451584)
I0403 16:39:21.889797 21304 net.cpp:156] Memory required for data: 1327048224
I0403 16:39:21.889816 21304 layer_factory.hpp:77] Creating layer inception_5b/relu_1x1
I0403 16:39:21.889837 21304 net.cpp:91] Creating Layer inception_5b/relu_1x1
I0403 16:39:21.889853 21304 net.cpp:425] inception_5b/relu_1x1 <- inception_5b/1x1
I0403 16:39:21.889870 21304 net.cpp:386] inception_5b/relu_1x1 -> inception_5b/1x1 (in-place)
I0403 16:39:21.890175 21304 net.cpp:141] Setting up inception_5b/relu_1x1
I0403 16:39:21.890200 21304 net.cpp:148] Top shape: 24 384 7 7 (451584)
I0403 16:39:21.890215 21304 net.cpp:156] Memory required for data: 1328854560
I0403 16:39:21.890229 21304 layer_factory.hpp:77] Creating layer inception_5b/3x3_reduce
I0403 16:39:21.890255 21304 net.cpp:91] Creating Layer inception_5b/3x3_reduce
I0403 16:39:21.890272 21304 net.cpp:425] inception_5b/3x3_reduce <- inception_5a/output_inception_5a/output_0_split_1
I0403 16:39:21.890291 21304 net.cpp:399] inception_5b/3x3_reduce -> inception_5b/3x3_reduce
I0403 16:39:21.892926 21304 net.cpp:141] Setting up inception_5b/3x3_reduce
I0403 16:39:21.892962 21304 net.cpp:148] Top shape: 24 192 7 7 (225792)
I0403 16:39:21.892979 21304 net.cpp:156] Memory required for data: 1329757728
I0403 16:39:21.892998 21304 layer_factory.hpp:77] Creating layer inception_5b/relu_3x3_reduce
I0403 16:39:21.893016 21304 net.cpp:91] Creating Layer inception_5b/relu_3x3_reduce
I0403 16:39:21.893033 21304 net.cpp:425] inception_5b/relu_3x3_reduce <- inception_5b/3x3_reduce
I0403 16:39:21.893049 21304 net.cpp:386] inception_5b/relu_3x3_reduce -> inception_5b/3x3_reduce (in-place)
I0403 16:39:21.893244 21304 net.cpp:141] Setting up inception_5b/relu_3x3_reduce
I0403 16:39:21.893270 21304 net.cpp:148] Top shape: 24 192 7 7 (225792)
I0403 16:39:21.893285 21304 net.cpp:156] Memory required for data: 1330660896
I0403 16:39:21.893298 21304 layer_factory.hpp:77] Creating layer inception_5b/3x3
I0403 16:39:21.893321 21304 net.cpp:91] Creating Layer inception_5b/3x3
I0403 16:39:21.893339 21304 net.cpp:425] inception_5b/3x3 <- inception_5b/3x3_reduce
I0403 16:39:21.893362 21304 net.cpp:399] inception_5b/3x3 -> inception_5b/3x3
I0403 16:39:21.900250 21304 net.cpp:141] Setting up inception_5b/3x3
I0403 16:39:21.900285 21304 net.cpp:148] Top shape: 24 384 7 7 (451584)
I0403 16:39:21.900300 21304 net.cpp:156] Memory required for data: 1332467232
I0403 16:39:21.900321 21304 layer_factory.hpp:77] Creating layer inception_5b/relu_3x3
I0403 16:39:21.900339 21304 net.cpp:91] Creating Layer inception_5b/relu_3x3
I0403 16:39:21.900357 21304 net.cpp:425] inception_5b/relu_3x3 <- inception_5b/3x3
I0403 16:39:21.900377 21304 net.cpp:386] inception_5b/relu_3x3 -> inception_5b/3x3 (in-place)
I0403 16:39:21.900684 21304 net.cpp:141] Setting up inception_5b/relu_3x3
I0403 16:39:21.900714 21304 net.cpp:148] Top shape: 24 384 7 7 (451584)
I0403 16:39:21.900730 21304 net.cpp:156] Memory required for data: 1334273568
I0403 16:39:21.900745 21304 layer_factory.hpp:77] Creating layer inception_5b/5x5_reduce
I0403 16:39:21.900786 21304 net.cpp:91] Creating Layer inception_5b/5x5_reduce
I0403 16:39:21.900806 21304 net.cpp:425] inception_5b/5x5_reduce <- inception_5a/output_inception_5a/output_0_split_2
I0403 16:39:21.900826 21304 net.cpp:399] inception_5b/5x5_reduce -> inception_5b/5x5_reduce
I0403 16:39:21.902181 21304 net.cpp:141] Setting up inception_5b/5x5_reduce
I0403 16:39:21.902212 21304 net.cpp:148] Top shape: 24 48 7 7 (56448)
I0403 16:39:21.902230 21304 net.cpp:156] Memory required for data: 1334499360
I0403 16:39:21.902251 21304 layer_factory.hpp:77] Creating layer inception_5b/relu_5x5_reduce
I0403 16:39:21.902268 21304 net.cpp:91] Creating Layer inception_5b/relu_5x5_reduce
I0403 16:39:21.902286 21304 net.cpp:425] inception_5b/relu_5x5_reduce <- inception_5b/5x5_reduce
I0403 16:39:21.902305 21304 net.cpp:386] inception_5b/relu_5x5_reduce -> inception_5b/5x5_reduce (in-place)
I0403 16:39:21.902685 21304 net.cpp:141] Setting up inception_5b/relu_5x5_reduce
I0403 16:39:21.902712 21304 net.cpp:148] Top shape: 24 48 7 7 (56448)
I0403 16:39:21.902729 21304 net.cpp:156] Memory required for data: 1334725152
I0403 16:39:21.902743 21304 layer_factory.hpp:77] Creating layer inception_5b/5x5
I0403 16:39:21.902765 21304 net.cpp:91] Creating Layer inception_5b/5x5
I0403 16:39:21.902782 21304 net.cpp:425] inception_5b/5x5 <- inception_5b/5x5_reduce
I0403 16:39:21.902802 21304 net.cpp:399] inception_5b/5x5 -> inception_5b/5x5
I0403 16:39:21.904947 21304 net.cpp:141] Setting up inception_5b/5x5
I0403 16:39:21.904979 21304 net.cpp:148] Top shape: 24 128 7 7 (150528)
I0403 16:39:21.904995 21304 net.cpp:156] Memory required for data: 1335327264
I0403 16:39:21.905014 21304 layer_factory.hpp:77] Creating layer inception_5b/relu_5x5
I0403 16:39:21.905032 21304 net.cpp:91] Creating Layer inception_5b/relu_5x5
I0403 16:39:21.905050 21304 net.cpp:425] inception_5b/relu_5x5 <- inception_5b/5x5
I0403 16:39:21.905069 21304 net.cpp:386] inception_5b/relu_5x5 -> inception_5b/5x5 (in-place)
I0403 16:39:21.905269 21304 net.cpp:141] Setting up inception_5b/relu_5x5
I0403 16:39:21.905294 21304 net.cpp:148] Top shape: 24 128 7 7 (150528)
I0403 16:39:21.905309 21304 net.cpp:156] Memory required for data: 1335929376
I0403 16:39:21.905324 21304 layer_factory.hpp:77] Creating layer inception_5b/pool
I0403 16:39:21.905344 21304 net.cpp:91] Creating Layer inception_5b/pool
I0403 16:39:21.905361 21304 net.cpp:425] inception_5b/pool <- inception_5a/output_inception_5a/output_0_split_3
I0403 16:39:21.905380 21304 net.cpp:399] inception_5b/pool -> inception_5b/pool
I0403 16:39:21.905455 21304 net.cpp:141] Setting up inception_5b/pool
I0403 16:39:21.905480 21304 net.cpp:148] Top shape: 24 832 7 7 (978432)
I0403 16:39:21.905495 21304 net.cpp:156] Memory required for data: 1339843104
I0403 16:39:21.905510 21304 layer_factory.hpp:77] Creating layer inception_5b/pool_proj
I0403 16:39:21.905534 21304 net.cpp:91] Creating Layer inception_5b/pool_proj
I0403 16:39:21.905551 21304 net.cpp:425] inception_5b/pool_proj <- inception_5b/pool
I0403 16:39:21.905573 21304 net.cpp:399] inception_5b/pool_proj -> inception_5b/pool_proj
I0403 16:39:21.907945 21304 net.cpp:141] Setting up inception_5b/pool_proj
I0403 16:39:21.907981 21304 net.cpp:148] Top shape: 24 128 7 7 (150528)
I0403 16:39:21.907999 21304 net.cpp:156] Memory required for data: 1340445216
I0403 16:39:21.908018 21304 layer_factory.hpp:77] Creating layer inception_5b/relu_pool_proj
I0403 16:39:21.908037 21304 net.cpp:91] Creating Layer inception_5b/relu_pool_proj
I0403 16:39:21.908054 21304 net.cpp:425] inception_5b/relu_pool_proj <- inception_5b/pool_proj
I0403 16:39:21.908074 21304 net.cpp:386] inception_5b/relu_pool_proj -> inception_5b/pool_proj (in-place)
I0403 16:39:21.908381 21304 net.cpp:141] Setting up inception_5b/relu_pool_proj
I0403 16:39:21.908411 21304 net.cpp:148] Top shape: 24 128 7 7 (150528)
I0403 16:39:21.908427 21304 net.cpp:156] Memory required for data: 1341047328
I0403 16:39:21.908443 21304 layer_factory.hpp:77] Creating layer inception_5b/output
I0403 16:39:21.908462 21304 net.cpp:91] Creating Layer inception_5b/output
I0403 16:39:21.908493 21304 net.cpp:425] inception_5b/output <- inception_5b/1x1
I0403 16:39:21.908512 21304 net.cpp:425] inception_5b/output <- inception_5b/3x3
I0403 16:39:21.908529 21304 net.cpp:425] inception_5b/output <- inception_5b/5x5
I0403 16:39:21.908545 21304 net.cpp:425] inception_5b/output <- inception_5b/pool_proj
I0403 16:39:21.908566 21304 net.cpp:399] inception_5b/output -> inception_5b/output
I0403 16:39:21.908620 21304 net.cpp:141] Setting up inception_5b/output
I0403 16:39:21.908644 21304 net.cpp:148] Top shape: 24 1024 7 7 (1204224)
I0403 16:39:21.908659 21304 net.cpp:156] Memory required for data: 1345864224
I0403 16:39:21.908674 21304 layer_factory.hpp:77] Creating layer pool5/7x7_s1
I0403 16:39:21.908695 21304 net.cpp:91] Creating Layer pool5/7x7_s1
I0403 16:39:21.908713 21304 net.cpp:425] pool5/7x7_s1 <- inception_5b/output
I0403 16:39:21.908731 21304 net.cpp:399] pool5/7x7_s1 -> pool5/7x7_s1
I0403 16:39:21.908967 21304 net.cpp:141] Setting up pool5/7x7_s1
I0403 16:39:21.908993 21304 net.cpp:148] Top shape: 24 1024 1 1 (24576)
I0403 16:39:21.909008 21304 net.cpp:156] Memory required for data: 1345962528
I0403 16:39:21.909024 21304 layer_factory.hpp:77] Creating layer pool5/drop_7x7_s1
I0403 16:39:21.909041 21304 net.cpp:91] Creating Layer pool5/drop_7x7_s1
I0403 16:39:21.909059 21304 net.cpp:425] pool5/drop_7x7_s1 <- pool5/7x7_s1
I0403 16:39:21.909078 21304 net.cpp:386] pool5/drop_7x7_s1 -> pool5/7x7_s1 (in-place)
I0403 16:39:21.909131 21304 net.cpp:141] Setting up pool5/drop_7x7_s1
I0403 16:39:21.909154 21304 net.cpp:148] Top shape: 24 1024 1 1 (24576)
I0403 16:39:21.909169 21304 net.cpp:156] Memory required for data: 1346060832
I0403 16:39:21.909183 21304 layer_factory.hpp:77] Creating layer loss3/classifier_plantvillage
I0403 16:39:21.909209 21304 net.cpp:91] Creating Layer loss3/classifier_plantvillage
I0403 16:39:21.909227 21304 net.cpp:425] loss3/classifier_plantvillage <- pool5/7x7_s1
I0403 16:39:21.909250 21304 net.cpp:399] loss3/classifier_plantvillage -> loss3/classifier_plantvillage
I0403 16:39:21.909688 21304 net.cpp:141] Setting up loss3/classifier_plantvillage
I0403 16:39:21.909713 21304 net.cpp:148] Top shape: 24 38 (912)
I0403 16:39:21.909729 21304 net.cpp:156] Memory required for data: 1346064480
I0403 16:39:21.909746 21304 layer_factory.hpp:77] Creating layer loss3/classifier_plantvillage_loss3/classifier_plantvillage_0_split
I0403 16:39:21.909768 21304 net.cpp:91] Creating Layer loss3/classifier_plantvillage_loss3/classifier_plantvillage_0_split
I0403 16:39:21.909785 21304 net.cpp:425] loss3/classifier_plantvillage_loss3/classifier_plantvillage_0_split <- loss3/classifier_plantvillage
I0403 16:39:21.909802 21304 net.cpp:399] loss3/classifier_plantvillage_loss3/classifier_plantvillage_0_split -> loss3/classifier_plantvillage_loss3/classifier_plantvillage_0_split_0
I0403 16:39:21.909823 21304 net.cpp:399] loss3/classifier_plantvillage_loss3/classifier_plantvillage_0_split -> loss3/classifier_plantvillage_loss3/classifier_plantvillage_0_split_1
I0403 16:39:21.909843 21304 net.cpp:399] loss3/classifier_plantvillage_loss3/classifier_plantvillage_0_split -> loss3/classifier_plantvillage_loss3/classifier_plantvillage_0_split_2
I0403 16:39:21.909867 21304 net.cpp:399] loss3/classifier_plantvillage_loss3/classifier_plantvillage_0_split -> loss3/classifier_plantvillage_loss3/classifier_plantvillage_0_split_3
I0403 16:39:21.909976 21304 net.cpp:141] Setting up loss3/classifier_plantvillage_loss3/classifier_plantvillage_0_split
I0403 16:39:21.909999 21304 net.cpp:148] Top shape: 24 38 (912)
I0403 16:39:21.910017 21304 net.cpp:148] Top shape: 24 38 (912)
I0403 16:39:21.910032 21304 net.cpp:148] Top shape: 24 38 (912)
I0403 16:39:21.910048 21304 net.cpp:148] Top shape: 24 38 (912)
I0403 16:39:21.910061 21304 net.cpp:156] Memory required for data: 1346079072
I0403 16:39:21.910076 21304 layer_factory.hpp:77] Creating layer loss1/loss
I0403 16:39:21.910097 21304 net.cpp:91] Creating Layer loss1/loss
I0403 16:39:21.910115 21304 net.cpp:425] loss1/loss <- loss1/classifier_plantvillage_loss1/classifier_plantvillage_0_split_0
I0403 16:39:21.910147 21304 net.cpp:425] loss1/loss <- label_data_1_split_0
…
