…
I0403 16:51:43.645900 21523 net.cpp:313] The NetState phase (1) differed from the phase (0) specified by a rule in layer data
I0403 16:51:43.647124 21523 net.cpp:49] Initializing net from parameters: 
state {
  phase: TEST
}
layer {
  name: "data"
  type: "Data"
  top: "data"
  top: "label"
  include {
    phase: TEST
  }
  transform_param {
    mirror: false
    crop_size: 224
    mean_file: "/home/mohanty/data/final_dataset/lmdb/color-40-60/mean.binaryproto"
  }
  data_param {
    source: "/home/mohanty/data/final_dataset/lmdb/color-40-60/test_db"
    batch_size: 24
    backend: LMDB
  }
}
layer {
  name: "conv1/7x7_s2"
  type: "Convolution"
  bottom: "data"
  top: "conv1/7x7_s2"
  param {
    lr_mult: 1
    decay_mult: 1
  }
  param {
    lr_mult: 2
    decay_mult: 0
  }
  convolution_param {
    num_output: 64
    pad: 3
    kernel_size: 7
    stride: 2
    weight_filler {
      type: "xavier"
      std: 0.1
    }
    bias_filler {
      type: "constant"
      value: 0.2
    }
  }
}
layer {
  name: "conv1/relu_7x7"
  type: "ReLU"
  bottom: "conv1/7x7_s2"
  top: "conv1/7x7_s2"
}
layer {
  name: "pool1/3x3_s2"
  type: "Pooling"
  bottom: "conv1/7x7_s2"
  top: "pool1/3x3_s2"
  pooling_param {
    pool: MAX
    kernel_size: 3
    stride: 2
  }
}
layer {
  name: "pool1/norm1"
  type: "LRN"
  bottom: "pool1/3x3_s2"
  top: "pool1/norm1"
  lrn_param {
    local_size: 5
    alpha: 0.0001
    beta: 0.75
  }
}
layer {
  name: "conv2/3x3_reduce"
  type: "Convolution"
  bottom: "pool1/norm1"
  top: "conv2/3x3_reduce"
  param {
    lr_mult: 1
    decay_mult: 1
  }
  param {
    lr_mult: 2
    decay_mult: 0
  }
  convolution_param {
    num_output: 64
    kernel_size: 1
    weight_filler {
      type: "xavier"
      std: 0.1
    }
    bias_filler {
      type: "constant"
      value: 0.2
    }
  }
}
layer {
  name: "conv2/relu_3x3_reduce"
  type: "ReLU"
  bottom: "conv2/3x3_reduce"
  top: "conv2/3x3_reduce"
}
layer {
  name: "conv2/3x3"
  type: "Convolution"
  bottom: "conv2/3x3_reduce"
  top: "conv2/3x3"
  param {
    lr_mult: 1
    decay_mult: 1
  }
  param {
    lr_mult: 2
    decay_mult: 0
  }
  convolution_param {
    num_output: 192
    pad: 1
    kernel_size: 3
    weight_filler {
      type: "xavier"
      std: 0.03
    }
    bias_filler {
      type: "constant"
      value: 0.2
    }
  }
}
layer {
  name: "conv2/relu_3x3"
  type: "ReLU"
  bottom: "conv2/3x3"
  top: "conv2/3x3"
}
layer {
  name: "conv2/norm2"
  type: "LRN"
  bottom: "conv2/3x3"
  top: "conv2/norm2"
  lrn_param {
    local_size: 5
    alpha: 0.0001
    beta: 0.75
  }
}
layer {
  name: "pool2/3x3_s2"
  type: "Pooling"
  bottom: "conv2/norm2"
  top: "pool2/3x3_s2"
  pooling_param {
    pool: MAX
    kernel_size: 3
    stride: 2
  }
}
layer {
  name: "inception_3a/1x1"
  type: "Convolution"
  bottom: "pool2/3x3_s2"
  top: "inception_3a/1x1"
  param {
    lr_mult: 1
    decay_mult: 1
  }
  param {
    lr_mult: 2
    decay_mult: 0
  }
  convolution_param {
    num_output: 64
    kernel_size: 1
    weight_filler {
      type: "xavier"
      std: 0.03
    }
    bias_filler {
      type: "constant"
      value: 0.2
    }
  }
}
layer {
  name: "inception_3a/relu_1x1"
  type: "ReLU"
  bottom: "inception_3a/1x1"
  top: "inception_3a/1x1"
}
layer {
  name: "inception_3a/3x3_reduce"
  type: "Convolution"
  bottom: "pool2/3x3_s2"
  top: "inception_3a/3x3_reduce"
  param {
    lr_mult: 1
    decay_mult: 1
  }
  param {
    lr_mult: 2
    decay_mult: 0
  }
  convolution_param {
    num_output: 96
    kernel_size: 1
    weight_filler {
      type: "xavier"
      std: 0.09
    }
    bias_filler {
      type: "constant"
      value: 0.2
    }
  }
}
layer {
  name: "inception_3a/relu_3x3_reduce"
  type: "ReLU"
  bottom: "inception_3a/3x3_reduce"
  top: "inception_3a/3x3_reduce"
}
layer {
  name: "inception_3a/3x3"
  type: "Convolution"
  bottom: "inception_3a/3x3_reduce"
  top: "inception_3a/3x3"
  param {
    lr_mult: 1
    decay_mult: 1
  }
  param {
    lr_mult: 2
    decay_mult: 0
  }
  convolution_param {
    num_output: 128
    pad: 1
    kernel_size: 3
    weight_filler {
      type: "xavier"
      std: 0.03
    }
    bias_filler {
      type: "constant"
      value: 0.2
    }
  }
}
layer {
  name: "inception_3a/relu_3x3"
  type: "ReLU"
  bottom: "inception_3a/3x3"
  top: "inception_3a/3x3"
}
layer {
  name: "inception_3a/5x5_reduce"
  type: "Convolution"
  bottom: "pool2/3x3_s2"
  top: "inception_3a/5x5_reduce"
  param {
    lr_mult: 1
    decay_mult: 1
  }
  param {
    lr_mult: 2
    decay_mult: 0
  }
  convolution_param {
    num_output: 16
    kernel_size: 1
    weight_filler {
      type: "xavier"
      std: 0.2
    }
    bias_filler {
      type: "constant"
      value: 0.2
    }
  }
}
layer {
  name: "inception_3a/relu_5x5_reduce"
  type: "ReLU"
  bottom: "inception_3a/5x5_reduce"
  top: "inception_3a/5x5_reduce"
}
layer {
  name: "inception_3a/5x5"
  type: "Convolution"
  bottom: "inception_3a/5x5_reduce"
  top: "inception_3a/5x5"
  param {
    lr_mult: 1
    decay_mult: 1
  }
  param {
    lr_mult: 2
    decay_mult: 0
  }
  convolution_param {
    num_output: 32
    pad: 2
    kernel_size: 5
    weight_filler {
      type: "xavier"
      std: 0.03
    }
    bias_filler {
      type: "constant"
      value: 0.2
    }
  }
}
layer {
  name: "inception_3a/relu_5x5"
  type: "ReLU"
  bottom: "inception_3a/5x5"
  top: "inception_3a/5x5"
}
layer {
  name: "inception_3a/pool"
  type: "Pooling"
  bottom: "pool2/3x3_s2"
  top: "inception_3a/pool"
  pooling_param {
    pool: MAX
    kernel_size: 3
    stride: 1
    pad: 1
  }
}
layer {
  name: "inception_3a/pool_proj"
  type: "Convolution"
  bottom: "inception_3a/pool"
  top: "inception_3a/pool_proj"
  param {
    lr_mult: 1
    decay_mult: 1
  }
  param {
    lr_mult: 2
    decay_mult: 0
  }
  convolution_param {
    num_output: 32
    kernel_size: 1
    weight_filler {
      type: "xavier"
      std: 0.1
    }
    bias_filler {
      type: "constant"
      value: 0.2
    }
  }
}
layer {
  name: "inception_3a/relu_pool_proj"
  type: "ReLU"
  bottom: "inception_3a/pool_proj"
  top: "inception_3a/pool_proj"
}
layer {
  name: "inception_3a/output"
  type: "Concat"
  bottom: "inception_3a/1x1"
  bottom: "inception_3a/3x3"
  bottom: "inception_3a/5x5"
  bottom: "inception_3a/pool_proj"
  top: "inception_3a/output"
}
layer {
  name: "inception_3b/1x1"
  type: "Convolution"
  bottom: "inception_3a/output"
  top: "inception_3b/1x1"
  param {
    lr_mult: 1
    decay_mult: 1
  }
  param {
    lr_mult: 2
    decay_mult: 0
  }
  convolution_param {
    num_output: 128
    kernel_size: 1
    weight_filler {
      type: "xavier"
      std: 0.03
    }
    bias_filler {
      type: "constant"
      value: 0.2
    }
  }
}
layer {
  name: "inception_3b/relu_1x1"
  type: "ReLU"
  bottom: "inception_3b/1x1"
  top: "inception_3b/1x1"
}
layer {
  name: "inception_3b/3x3_reduce"
  type: "Convolution"
  bottom: "inception_3a/output"
  top: "inception_3b/3x3_reduce"
  param {
    lr_mult: 1
    decay_mult: 1
  }
  param {
    lr_mult: 2
    decay_mult: 0
  }
  convolution_param {
    num_output: 128
    kernel_size: 1
    weight_filler {
      type: "xavier"
      std: 0.09
    }
    bias_filler {
      type: "constant"
      value: 0.2
    }
  }
}
layer {
  name: "inception_3b/relu_3x3_reduce"
  type: "ReLU"
  bottom: "inception_3b/3x3_reduce"
  top: "inception_3b/3x3_reduce"
}
layer {
  name: "inception_3b/3x3"
  type: "Convolution"
  bottom: "inception_3b/3x3_reduce"
  top: "inception_3b/3x3"
  param {
    lr_mult: 1
    decay_mult: 1
  }
  param {
    lr_mult: 2
    decay_mult: 0
  }
  convolution_param {
    num_output: 192
    pad: 1
    kernel_size: 3
    weight_filler {
      type: "xavier"
      std: 0.03
    }
    bias_filler {
      type: "constant"
      value: 0.2
    }
  }
}
layer {
  name: "inception_3b/relu_3x3"
  type: "ReLU"
  bottom: "inception_3b/3x3"
  top: "inception_3b/3x3"
}
layer {
  name: "inception_3b/5x5_reduce"
  type: "Convolution"
  bottom: "inception_3a/output"
  top: "inception_3b/5x5_reduce"
  param {
    lr_mult: 1
    decay_mult: 1
  }
  param {
    lr_mult: 2
    decay_mult: 0
  }
  convolution_param {
    num_output: 32
    kernel_size: 1
    weight_filler {
      type: "xavier"
      std: 0.2
    }
    bias_filler {
      type: "constant"
      value: 0.2
    }
  }
}
layer {
  name: "inception_3b/relu_5x5_reduce"
  type: "ReLU"
  bottom: "inception_3b/5x5_reduce"
  top: "inception_3b/5x5_reduce"
}
layer {
  name: "inception_3b/5x5"
  type: "Convolution"
  bottom: "inception_3b/5x5_reduce"
  top: "inception_3b/5x5"
  param {
    lr_mult: 1
    decay_mult: 1
  }
  param {
    lr_mult: 2
    decay_mult: 0
  }
  convolution_param {
    num_output: 96
    pad: 2
    kernel_size: 5
    weight_filler {
      type: "xavier"
      std: 0.03
    }
    bias_filler {
      type: "constant"
      value: 0.2
    }
  }
}
layer {
  name: "inception_3b/relu_5x5"
  type: "ReLU"
  bottom: "inception_3b/5x5"
  top: "inception_3b/5x5"
}
layer {
  name: "inception_3b/pool"
  type: "Pooling"
  bottom: "inception_3a/output"
  top: "inception_3b/pool"
  pooling_param {
    pool: MAX
    kernel_size: 3
    stride: 1
    pad: 1
  }
}
layer {
  name: "inception_3b/pool_proj"
  type: "Convolution"
  bottom: "inception_3b/pool"
  top: "inception_3b/pool_proj"
  param {
    lr_mult: 1
    decay_mult: 1
  }
  param {
    lr_mult: 2
    decay_mult: 0
  }
  convolution_param {
    num_output: 64
    kernel_size: 1
    weight_filler {
      type: "xavier"
      std: 0.1
    }
    bias_filler {
      type: "constant"
      value: 0.2
    }
  }
}
layer {
  name: "inception_3b/relu_pool_proj"
  type: "ReLU"
  bottom: "inception_3b/pool_proj"
  top: "inception_3b/pool_proj"
}
layer {
  name: "inception_3b/output"
  type: "Concat"
  bottom: "inception_3b/1x1"
  bottom: "inception_3b/3x3"
  bottom: "inception_3b/5x5"
  bottom: "inception_3b/pool_proj"
  top: "inception_3b/output"
}
layer {
  name: "pool3/3x3_s2"
  type: "Pooling"
  bottom: "inception_3b/output"
  top: "pool3/3x3_s2"
  pooling_param {
    pool: MAX
    kernel_size: 3
    stride: 2
  }
}
layer {
  name: "inception_4a/1x1"
  type: "Convolution"
  bottom: "pool3/3x3_s2"
  top: "inception_4a/1x1"
  param {
    lr_mult: 1
    decay_mult: 1
  }
  param {
    lr_mult: 2
    decay_mult: 0
  }
  convolution_param {
    num_output: 192
    kernel_size: 1
    weight_filler {
      type: "xavier"
      std: 0.03
    }
    bias_filler {
      type: "constant"
      value: 0.2
    }
  }
}
layer {
  name: "inception_4a/relu_1x1"
  type: "ReLU"
  bottom: "inception_4a/1x1"
  top: "inception_4a/1x1"
}
layer {
  name: "inception_4a/3x3_reduce"
  type: "Convolution"
  bottom: "pool3/3x3_s2"
  top: "inception_4a/3x3_reduce"
  param {
    lr_mult: 1
    decay_mult: 1
  }
  param {
    lr_mult: 2
    decay_mult: 0
  }
  convolution_param {
    num_output: 96
    kernel_size: 1
    weight_filler {
      type: "xavier"
      std: 0.09
    }
    bias_filler {
      type: "constant"
      value: 0.2
    }
  }
}
layer {
  name: "inception_4a/relu_3x3_reduce"
  type: "ReLU"
  bottom: "inception_4a/3x3_reduce"
  top: "inception_4a/3x3_reduce"
}
layer {
  name: "inception_4a/3x3"
  type: "Convolution"
  bottom: "inception_4a/3x3_reduce"
  top: "inception_4a/3x3"
  param {
    lr_mult: 1
    decay_mult: 1
  }
  param {
    lr_mult: 2
    decay_mult: 0
  }
  convolution_param {
    num_output: 208
    pad: 1
    kernel_size: 3
    weight_filler {
      type: "xavier"
      std: 0.03
    }
    bias_filler {
      type: "constant"
      value: 0.2
    }
  }
}
layer {
  name: "inception_4a/relu_3x3"
  type: "ReLU"
  bottom: "inception_4a/3x3"
  top: "inception_4a/3x3"
}
layer {
  name: "inception_4a/5x5_reduce"
  type: "Convolution"
  bottom: "pool3/3x3_s2"
  top: "inception_4a/5x5_reduce"
  param {
    lr_mult: 1
    decay_mult: 1
  }
  param {
    lr_mult: 2
    decay_mult: 0
  }
  convolution_param {
    num_output: 16
    kernel_size: 1
    weight_filler {
      type: "xavier"
      std: 0.2
    }
    bias_filler {
      type: "constant"
      value: 0.2
    }
  }
}
layer {
  name: "inception_4a/relu_5x5_reduce"
  type: "ReLU"
  bottom: "inception_4a/5x5_reduce"
  top: "inception_4a/5x5_reduce"
}
layer {
  name: "inception_4a/5x5"
  type: "Convolution"
  bottom: "inception_4a/5x5_reduce"
  top: "inception_4a/5x5"
  param {
    lr_mult: 1
    decay_mult: 1
  }
  param {
    lr_mult: 2
    decay_mult: 0
  }
  convolution_param {
    num_output: 48
    pad: 2
    kernel_size: 5
    weight_filler {
      type: "xavier"
      std: 0.03
    }
    bias_filler {
      type: "constant"
      value: 0.2
    }
  }
}
layer {
  name: "inception_4a/relu_5x5"
  type: "ReLU"
  bottom: "inception_4a/5x5"
  top: "inception_4a/5x5"
}
layer {
  name: "inception_4a/pool"
  type: "Pooling"
  bottom: "pool3/3x3_s2"
  top: "inception_4a/pool"
  pooling_param {
    pool: MAX
    kernel_size: 3
    stride: 1
    pad: 1
  }
}
layer {
  name: "inception_4a/pool_proj"
  type: "Convolution"
  bottom: "inception_4a/pool"
  top: "inception_4a/pool_proj"
  param {
    lr_mult: 1
    decay_mult: 1
  }
  param {
    lr_mult: 2
    decay_mult: 0
  }
  convolution_param {
    num_output: 64
    kernel_size: 1
    weight_filler {
      type: "xavier"
      std: 0.1
    }
    bias_filler {
      type: "constant"
      value: 0.2
    }
  }
}
layer {
  name: "inception_4a/relu_pool_proj"
  type: "ReLU"
  bottom: "inception_4a/pool_proj"
  top: "inception_4a/pool_proj"
}
layer {
  name: "inception_4a/output"
  type: "Concat"
  bottom: "inception_4a/1x1"
  bottom: "inception_4a/3x3"
  bottom: "inception_4a/5x5"
  bottom: "inception_4a/pool_proj"
  top: "inception_4a/output"
}
layer {
  name: "loss1/ave_pool"
  type: "Pooling"
  bottom: "inception_4a/output"
  top: "loss1/ave_pool"
  pooling_param {
    pool: AVE
    kernel_size: 5
    stride: 3
  }
}
layer {
  name: "loss1/conv"
  type: "Convolution"
  bottom: "loss1/ave_pool"
  top: "loss1/conv"
  param {
    lr_mult: 1
    decay_mult: 1
  }
  param {
    lr_mult: 2
    decay_mult: 0
  }
  convolution_param {
    num_output: 128
    kernel_size: 1
    weight_filler {
      type: "xavier"
      std: 0.08
    }
    bias_filler {
      type: "constant"
      value: 0.2
    }
  }
}
layer {
  name: "loss1/relu_conv"
  type: "ReLU"
  bottom: "loss1/conv"
  top: "loss1/conv"
}
layer {
  name: "loss1/fc"
  type: "InnerProduct"
  bottom: "loss1/conv"
  top: "loss1/fc"
  param {
    lr_mult: 1
    decay_mult: 1
  }
  param {
    lr_mult: 2
    decay_mult: 0
  }
  inner_product_param {
    num_output: 1024
    weight_filler {
      type: "xavier"
      std: 0.02
    }
    bias_filler {
      type: "constant"
      value: 0.2
    }
  }
}
layer {
  name: "loss1/relu_fc"
  type: "ReLU"
  bottom: "loss1/fc"
  top: "loss1/fc"
}
layer {
  name: "loss1/drop_fc"
  type: "Dropout"
  bottom: "loss1/fc"
  top: "loss1/fc"
  dropout_param {
    dropout_ratio: 0.7
  }
}
layer {
  name: "loss1/classifier_plantvillage"
  type: "InnerProduct"
  bottom: "loss1/fc"
  top: "loss1/classifier_plantvillage"
  param {
    lr_mult: 1
    decay_mult: 1
  }
  param {
    lr_mult: 2
    decay_mult: 0
  }
  inner_product_param {
    num_output: 38
    weight_filler {
      type: "xavier"
      std: 0.0009765625
    }
    bias_filler {
      type: "constant"
      value: 0
    }
  }
}
layer {
  name: "inception_4b/1x1"
  type: "Convolution"
  bottom: "inception_4a/output"
  top: "inception_4b/1x1"
  param {
    lr_mult: 1
    decay_mult: 1
  }
  param {
    lr_mult: 2
    decay_mult: 0
  }
  convolution_param {
    num_output: 160
    kernel_size: 1
    weight_filler {
      type: "xavier"
      std: 0.03
    }
    bias_filler {
      type: "constant"
      value: 0.2
    }
  }
}
layer {
  name: "inception_4b/relu_1x1"
  type: "ReLU"
  bottom: "inception_4b/1x1"
  top: "inception_4b/1x1"
}
layer {
  name: "inception_4b/3x3_reduce"
  type: "Convolution"
  bottom: "inception_4a/output"
  top: "inception_4b/3x3_reduce"
  param {
    lr_mult: 1
    decay_mult: 1
  }
  param {
    lr_mult: 2
    decay_mult: 0
  }
  convolution_param {
    num_output: 112
    kernel_size: 1
    weight_filler {
      type: "xavier"
      std: 0.09
    }
    bias_filler {
      type: "constant"
      value: 0.2
    }
  }
}
layer {
  name: "inception_4b/relu_3x3_reduce"
  type: "ReLU"
  bottom: "inception_4b/3x3_reduce"
  top: "inception_4b/3x3_reduce"
}
layer {
  name: "inception_4b/3x3"
  type: "Convolution"
  bottom: "inception_4b/3x3_reduce"
  top: "inception_4b/3x3"
  param {
    lr_mult: 1
    decay_mult: 1
  }
  param {
    lr_mult: 2
    decay_mult: 0
  }
  convolution_param {
    num_output: 224
    pad: 1
    kernel_size: 3
    weight_filler {
      type: "xavier"
      std: 0.03
    }
    bias_filler {
      type: "constant"
      value: 0.2
    }
  }
}
layer {
  name: "inception_4b/relu_3x3"
  type: "ReLU"
  bottom: "inception_4b/3x3"
  top: "inception_4b/3x3"
}
layer {
  name: "inception_4b/5x5_reduce"
  type: "Convolution"
  bottom: "inception_4a/output"
  top: "inception_4b/5x5_reduce"
  param {
    lr_mult: 1
    decay_mult: 1
  }
  param {
    lr_mult: 2
    decay_mult: 0
  }
  convolution_param {
    num_output: 24
    kernel_size: 1
    weight_filler {
      type: "xavier"
      std: 0.2
    }
    bias_filler {
      type: "constant"
      value: 0.2
    }
  }
}
layer {
  name: "inception_4b/relu_5x5_reduce"
  type: "ReLU"
  bottom: "inception_4b/5x5_reduce"
  top: "inception_4b/5x5_reduce"
}
layer {
  name: "inception_4b/5x5"
  type: "Convolution"
  bottom: "inception_4b/5x5_reduce"
  top: "inception_4b/5x5"
  param {
    lr_mult: 1
    decay_mult: 1
  }
  param {
    lr_mult: 2
    decay_mult: 0
  }
  convolution_param {
    num_output: 64
    pad: 2
    kernel_size: 5
    weight_filler {
      type: "xavier"
      std: 0.03
    }
    bias_filler {
      type: "constant"
      value: 0.2
    }
  }
}
layer {
  name: "inception_4b/relu_5x5"
  type: "ReLU"
  bottom: "inception_4b/5x5"
  top: "inception_4b/5x5"
}
layer {
  name: "inception_4b/pool"
  type: "Pooling"
  bottom: "inception_4a/output"
  top: "inception_4b/pool"
  pooling_param {
    pool: MAX
    kernel_size: 3
    stride: 1
    pad: 1
  }
}
layer {
  name: "inception_4b/pool_proj"
  type: "Convolution"
  bottom: "inception_4b/pool"
  top: "inception_4b/pool_proj"
  param {
    lr_mult: 1
    decay_mult: 1
  }
  param {
    lr_mult: 2
    decay_mult: 0
  }
  convolution_param {
    num_output: 64
    kernel_size: 1
    weight_filler {
      type: "xavier"
      std: 0.1
    }
    bias_filler {
      type: "constant"
      value: 0.2
    }
  }
}
layer {
  name: "inception_4b/relu_pool_proj"
  type: "ReLU"
  bottom: "inception_4b/pool_proj"
  top: "inception_4b/pool_proj"
}
layer {
  name: "inception_4b/output"
  type: "Concat"
  bottom: "inception_4b/1x1"
  bottom: "inception_4b/3x3"
  bottom: "inception_4b/5x5"
  bottom: "inception_4b/pool_proj"
  top: "inception_4b/output"
}
layer {
  name: "inception_4c/1x1"
  type: "Convolution"
  bottom: "inception_4b/output"
  top: "inception_4c/1x1"
  param {
    lr_mult: 1
    decay_mult: 1
  }
  param {
    lr_mult: 2
    decay_mult: 0
  }
  convolution_param {
    num_output: 128
    kernel_size: 1
    weight_filler {
      type: "xavier"
      std: 0.03
    }
    bias_filler {
      type: "constant"
      value: 0.2
    }
  }
}
layer {
  name: "inception_4c/relu_1x1"
  type: "ReLU"
  bottom: "inception_4c/1x1"
  top: "inception_4c/1x1"
}
layer {
  name: "inception_4c/3x3_reduce"
  type: "Convolution"
  bottom: "inception_4b/output"
  top: "inception_4c/3x3_reduce"
  param {
    lr_mult: 1
    decay_mult: 1
  }
  param {
    lr_mult: 2
    decay_mult: 0
  }
  convolution_param {
    num_output: 128
    kernel_size: 1
    weight_filler {
      type: "xavier"
      std: 0.09
    }
    bias_filler {
      type: "constant"
      value: 0.2
    }
  }
}
layer {
  name: "inception_4c/relu_3x3_reduce"
  type: "ReLU"
  bottom: "inception_4c/3x3_reduce"
  top: "inception_4c/3x3_reduce"
}
layer {
  name: "inception_4c/3x3"
  type: "Convolution"
  bottom: "inception_4c/3x3_reduce"
  top: "inception_4c/3x3"
  param {
    lr_mult: 1
    decay_mult: 1
  }
  param {
    lr_mult: 2
    decay_mult: 0
  }
  convolution_param {
    num_output: 256
    pad: 1
    kernel_size: 3
    weight_filler {
      type: "xavier"
      std: 0.03
    }
    bias_filler {
      type: "constant"
      value: 0.2
    }
  }
}
layer {
  name: "inception_4c/relu_3x3"
  type: "ReLU"
  bottom: "inception_4c/3x3"
  top: "inception_4c/3x3"
}
layer {
  name: "inception_4c/5x5_reduce"
  type: "Convolution"
  bottom: "inception_4b/output"
  top: "inception_4c/5x5_reduce"
  param {
    lr_mult: 1
    decay_mult: 1
  }
  param {
    lr_mult: 2
    decay_mult: 0
  }
  convolution_param {
    num_output: 24
    kernel_size: 1
    weight_filler {
      type: "xavier"
      std: 0.2
    }
    bias_filler {
      type: "constant"
      value: 0.2
    }
  }
}
layer {
  name: "inception_4c/relu_5x5_reduce"
  type: "ReLU"
  bottom: "inception_4c/5x5_reduce"
  top: "inception_4c/5x5_reduce"
}
layer {
  name: "inception_4c/5x5"
  type: "Convolution"
  bottom: "inception_4c/5x5_reduce"
  top: "inception_4c/5x5"
  param {
    lr_mult: 1
    decay_mult: 1
  }
  param {
    lr_mult: 2
    decay_mult: 0
  }
  convolution_param {
    num_output: 64
    pad: 2
    kernel_size: 5
    weight_filler {
      type: "xavier"
      std: 0.03
    }
    bias_filler {
      type: "constant"
      value: 0.2
    }
  }
}
layer {
  name: "inception_4c/relu_5x5"
  type: "ReLU"
  bottom: "inception_4c/5x5"
  top: "inception_4c/5x5"
}
layer {
  name: "inception_4c/pool"
  type: "Pooling"
  bottom: "inception_4b/output"
  top: "inception_4c/pool"
  pooling_param {
    pool: MAX
    kernel_size: 3
    stride: 1
    pad: 1
  }
}
layer {
  name: "inception_4c/pool_proj"
  type: "Convolution"
  bottom: "inception_4c/pool"
  top: "inception_4c/pool_proj"
  param {
    lr_mult: 1
    decay_mult: 1
  }
  param {
    lr_mult: 2
    decay_mult: 0
  }
  convolution_param {
    num_output: 64
    kernel_size: 1
    weight_filler {
      type: "xavier"
      std: 0.1
    }
    bias_filler {
      type: "constant"
      value: 0.2
    }
  }
}
layer {
  name: "inception_4c/relu_pool_proj"
  type: "ReLU"
  bottom: "inception_4c/pool_proj"
  top: "inception_4c/pool_proj"
}
layer {
  name: "inception_4c/output"
  type: "Concat"
  bottom: "inception_4c/1x1"
  bottom: "inception_4c/3x3"
  bottom: "inception_4c/5x5"
  bottom: "inception_4c/pool_proj"
  top: "inception_4c/output"
}
layer {
  name: "inception_4d/1x1"
  type: "Convolution"
  bottom: "inception_4c/output"
  top: "inception_4d/1x1"
  param {
    lr_mult: 1
    decay_mult: 1
  }
  param {
    lr_mult: 2
    decay_mult: 0
  }
  convolution_param {
    num_output: 112
    kernel_size: 1
    weight_filler {
      type: "xavier"
      std: 0.03
    }
    bias_filler {
      type: "constant"
      value: 0.2
    }
  }
}
layer {
  name: "inception_4d/relu_1x1"
  type: "ReLU"
  bottom: "inception_4d/1x1"
  top: "inception_4d/1x1"
}
layer {
  name: "inception_4d/3x3_reduce"
  type: "Convolution"
  bottom: "inception_4c/output"
  top: "inception_4d/3x3_reduce"
  param {
    lr_mult: 1
    decay_mult: 1
  }
  param {
    lr_mult: 2
    decay_mult: 0
  }
  convolution_param {
    num_output: 144
    kernel_size: 1
    weight_filler {
      type: "xavier"
      std: 0.09
    }
    bias_filler {
      type: "constant"
      value: 0.2
    }
  }
}
layer {
  name: "inception_4d/relu_3x3_reduce"
  type: "ReLU"
  bottom: "inception_4d/3x3_reduce"
  top: "inception_4d/3x3_reduce"
}
layer {
  name: "inception_4d/3x3"
  type: "Convolution"
  bottom: "inception_4d/3x3_reduce"
  top: "inception_4d/3x3"
  param {
    lr_mult: 1
    decay_mult: 1
  }
  param {
    lr_mult: 2
    decay_mult: 0
  }
  convolution_param {
    num_output: 288
    pad: 1
    kernel_size: 3
    weight_filler {
      type: "xavier"
      std: 0.03
    }
    bias_filler {
      type: "constant"
      value: 0.2
    }
  }
}
layer {
  name: "inception_4d/relu_3x3"
  type: "ReLU"
  bottom: "inception_4d/3x3"
  top: "inception_4d/3x3"
}
layer {
  name: "inception_4d/5x5_reduce"
  type: "Convolution"
  bottom: "inception_4c/output"
  top: "inception_4d/5x5_reduce"
  param {
    lr_mult: 1
    decay_mult: 1
  }
  param {
    lr_mult: 2
    decay_mult: 0
  }
  convolution_param {
    num_output: 32
    kernel_size: 1
    weight_filler {
      type: "xavier"
      std: 0.2
    }
    bias_filler {
      type: "constant"
      value: 0.2
    }
  }
}
layer {
  name: "inception_4d/relu_5x5_reduce"
  type: "ReLU"
  bottom: "inception_4d/5x5_reduce"
  top: "inception_4d/5x5_reduce"
}
layer {
  name: "inception_4d/5x5"
  type: "Convolution"
  bottom: "inception_4d/5x5_reduce"
  top: "inception_4d/5x5"
  param {
    lr_mult: 1
    decay_mult: 1
  }
  param {
    lr_mult: 2
    decay_mult: 0
  }
  convolution_param {
    num_output: 64
    pad: 2
    kernel_size: 5
    weight_filler {
      type: "xavier"
      std: 0.03
    }
    bias_filler {
      type: "constant"
      value: 0.2
    }
  }
}
layer {
  name: "inception_4d/relu_5x5"
  type: "ReLU"
  bottom: "inception_4d/5x5"
  top: "inception_4d/5x5"
}
layer {
  name: "inception_4d/pool"
  type: "Pooling"
  bottom: "inception_4c/output"
  top: "inception_4d/pool"
  pooling_param {
    pool: MAX
    kernel_size: 3
    stride: 1
    pad: 1
  }
}
layer {
  name: "inception_4d/pool_proj"
  type: "Convolution"
  bottom: "inception_4d/pool"
  top: "inception_4d/pool_proj"
  param {
    lr_mult: 1
    decay_mult: 1
  }
  param {
    lr_mult: 2
    decay_mult: 0
  }
  convolution_param {
    num_output: 64
    kernel_size: 1
    weight_filler {
      type: "xavier"
      std: 0.1
    }
    bias_filler {
      type: "constant"
      value: 0.2
    }
  }
}
layer {
  name: "inception_4d/relu_pool_proj"
  type: "ReLU"
  bottom: "inception_4d/pool_proj"
  top: "inception_4d/pool_proj"
}
layer {
  name: "inception_4d/output"
  type: "Concat"
  bottom: "inception_4d/1x1"
  bottom: "inception_4d/3x3"
  bottom: "inception_4d/5x5"
  bottom: "inception_4d/pool_proj"
  top: "inception_4d/output"
}
layer {
  name: "loss2/ave_pool"
  type: "Pooling"
  bottom: "inception_4d/output"
  top: "loss2/ave_pool"
  pooling_param {
    pool: AVE
    kernel_size: 5
    stride: 3
  }
}
layer {
  name: "loss2/conv"
  type: "Convolution"
  bottom: "loss2/ave_pool"
  top: "loss2/conv"
  param {
    lr_mult: 1
    decay_mult: 1
  }
  param {
    lr_mult: 2
    decay_mult: 0
  }
  convolution_param {
    num_output: 128
    kernel_size: 1
    weight_filler {
      type: "xavier"
      std: 0.08
    }
    bias_filler {
      type: "constant"
      value: 0.2
    }
  }
}
layer {
  name: "loss2/relu_conv"
  type: "ReLU"
  bottom: "loss2/conv"
  top: "loss2/conv"
}
layer {
  name: "loss2/fc"
  type: "InnerProduct"
  bottom: "loss2/conv"
  top: "loss2/fc"
  param {
    lr_mult: 1
    decay_mult: 1
  }
  param {
    lr_mult: 2
    decay_mult: 0
  }
  inner_product_param {
    num_output: 1024
    weight_filler {
      type: "xavier"
      std: 0.02
    }
    bias_filler {
      type: "constant"
      value: 0.2
    }
  }
}
layer {
  name: "loss2/relu_fc"
  type: "ReLU"
  bottom: "loss2/fc"
  top: "loss2/fc"
}
layer {
  name: "loss2/drop_fc"
  type: "Dropout"
  bottom: "loss2/fc"
  top: "loss2/fc"
  dropout_param {
    dropout_ratio: 0.7
  }
}
layer {
  name: "loss2/classifier_plantvillage"
  type: "InnerProduct"
  bottom: "loss2/fc"
  top: "loss2/classifier_plantvillage"
  param {
    lr_mult: 1
    decay_mult: 1
  }
  param {
    lr_mult: 2
    decay_mult: 0
  }
  inner_product_param {
    num_output: 38
    weight_filler {
      type: "xavier"
      std: 0.0009765625
    }
    bias_filler {
      type: "constant"
      value: 0
    }
  }
}
layer {
  name: "inception_4e/1x1"
  type: "Convolution"
  bottom: "inception_4d/output"
  top: "inception_4e/1x1"
  param {
    lr_mult: 1
    decay_mult: 1
  }
  param {
    lr_mult: 2
    decay_mult: 0
  }
  convolution_param {
    num_output: 256
    kernel_size: 1
    weight_filler {
      type: "xavier"
      std: 0.03
    }
    bias_filler {
      type: "constant"
      value: 0.2
    }
  }
}
layer {
  name: "inception_4e/relu_1x1"
  type: "ReLU"
  bottom: "inception_4e/1x1"
  top: "inception_4e/1x1"
}
layer {
  name: "inception_4e/3x3_reduce"
  type: "Convolution"
  bottom: "inception_4d/output"
  top: "inception_4e/3x3_reduce"
  param {
    lr_mult: 1
    decay_mult: 1
  }
  param {
    lr_mult: 2
    decay_mult: 0
  }
  convolution_param {
    num_output: 160
    kernel_size: 1
    weight_filler {
      type: "xavier"
      std: 0.09
    }
    bias_filler {
      type: "constant"
      value: 0.2
    }
  }
}
layer {
  name: "inception_4e/relu_3x3_reduce"
  type: "ReLU"
  bottom: "inception_4e/3x3_reduce"
  top: "inception_4e/3x3_reduce"
}
layer {
  name: "inception_4e/3x3"
  type: "Convolution"
  bottom: "inception_4e/3x3_reduce"
  top: "inception_4e/3x3"
  param {
    lr_mult: 1
    decay_mult: 1
  }
  param {
    lr_mult: 2
    decay_mult: 0
  }
  convolution_param {
    num_output: 320
    pad: 1
    kernel_size: 3
    weight_filler {
      type: "xavier"
      std: 0.03
    }
    bias_filler {
      type: "constant"
      value: 0.2
    }
  }
}
layer {
  name: "inception_4e/relu_3x3"
  type: "ReLU"
  bottom: "inception_4e/3x3"
  top: "inception_4e/3x3"
}
layer {
  name: "inception_4e/5x5_reduce"
  type: "Convolution"
  bottom: "inception_4d/output"
  top: "inception_4e/5x5_reduce"
  param {
    lr_mult: 1
    decay_mult: 1
  }
  param {
    lr_mult: 2
    decay_mult: 0
  }
  convolution_param {
    num_output: 32
    kernel_size: 1
    weight_filler {
      type: "xavier"
      std: 0.2
    }
    bias_filler {
      type: "constant"
      value: 0.2
    }
  }
}
layer {
  name: "inception_4e/relu_5x5_reduce"
  type: "ReLU"
  bottom: "inception_4e/5x5_reduce"
  top: "inception_4e/5x5_reduce"
}
layer {
  name: "inception_4e/5x5"
  type: "Convolution"
  bottom: "inception_4e/5x5_reduce"
  top: "inception_4e/5x5"
  p
I0403 16:51:43.648459 21523 layer_factory.hpp:77] Creating layer data
I0403 16:51:43.649112 21523 net.cpp:91] Creating Layer data
I0403 16:51:43.649149 21523 net.cpp:399] data -> data
I0403 16:51:43.649201 21523 net.cpp:399] data -> label
I0403 16:51:43.649238 21523 data_transformer.cpp:25] Loading mean file from: /home/mohanty/data/final_dataset/lmdb/color-40-60/mean.binaryproto
I0403 16:51:43.650431 21526 db_lmdb.cpp:38] Opened lmdb /home/mohanty/data/final_dataset/lmdb/color-40-60/test_db
I0403 16:51:43.662678 21523 data_layer.cpp:41] output data size: 24,3,224,224
I0403 16:51:43.693894 21523 net.cpp:141] Setting up data
I0403 16:51:43.693951 21523 net.cpp:148] Top shape: 24 3 224 224 (3612672)
I0403 16:51:43.693974 21523 net.cpp:148] Top shape: 24 (24)
I0403 16:51:43.693996 21523 net.cpp:156] Memory required for data: 14450784
I0403 16:51:43.694025 21523 layer_factory.hpp:77] Creating layer label_data_1_split
I0403 16:51:43.694052 21523 net.cpp:91] Creating Layer label_data_1_split
I0403 16:51:43.694072 21523 net.cpp:425] label_data_1_split <- label
I0403 16:51:43.694108 21523 net.cpp:399] label_data_1_split -> label_data_1_split_0
I0403 16:51:43.694135 21523 net.cpp:399] label_data_1_split -> label_data_1_split_1
I0403 16:51:43.694157 21523 net.cpp:399] label_data_1_split -> label_data_1_split_2
I0403 16:51:43.694178 21523 net.cpp:399] label_data_1_split -> label_data_1_split_3
I0403 16:51:43.694200 21523 net.cpp:399] label_data_1_split -> label_data_1_split_4
I0403 16:51:43.694219 21523 net.cpp:399] label_data_1_split -> label_data_1_split_5
I0403 16:51:43.694239 21523 net.cpp:399] label_data_1_split -> label_data_1_split_6
I0403 16:51:43.694260 21523 net.cpp:399] label_data_1_split -> label_data_1_split_7
I0403 16:51:43.694280 21523 net.cpp:399] label_data_1_split -> label_data_1_split_8
I0403 16:51:43.694301 21523 net.cpp:399] label_data_1_split -> label_data_1_split_9
I0403 16:51:43.694421 21523 net.cpp:141] Setting up label_data_1_split
I0403 16:51:43.694444 21523 net.cpp:148] Top shape: 24 (24)
I0403 16:51:43.694463 21523 net.cpp:148] Top shape: 24 (24)
I0403 16:51:43.694479 21523 net.cpp:148] Top shape: 24 (24)
I0403 16:51:43.694495 21523 net.cpp:148] Top shape: 24 (24)
I0403 16:51:43.694511 21523 net.cpp:148] Top shape: 24 (24)
I0403 16:51:43.694528 21523 net.cpp:148] Top shape: 24 (24)
I0403 16:51:43.694545 21523 net.cpp:148] Top shape: 24 (24)
I0403 16:51:43.694561 21523 net.cpp:148] Top shape: 24 (24)
I0403 16:51:43.694576 21523 net.cpp:148] Top shape: 24 (24)
I0403 16:51:43.694592 21523 net.cpp:148] Top shape: 24 (24)
I0403 16:51:43.694636 21523 net.cpp:156] Memory required for data: 14451744
I0403 16:51:43.694654 21523 layer_factory.hpp:77] Creating layer conv1/7x7_s2
I0403 16:51:43.694686 21523 net.cpp:91] Creating Layer conv1/7x7_s2
I0403 16:51:43.694705 21523 net.cpp:425] conv1/7x7_s2 <- data
I0403 16:51:43.694725 21523 net.cpp:399] conv1/7x7_s2 -> conv1/7x7_s2
I0403 16:51:43.841712 21523 net.cpp:141] Setting up conv1/7x7_s2
I0403 16:51:43.841831 21523 net.cpp:148] Top shape: 24 64 112 112 (19267584)
I0403 16:51:43.841850 21523 net.cpp:156] Memory required for data: 91522080
I0403 16:51:43.841881 21523 layer_factory.hpp:77] Creating layer conv1/relu_7x7
I0403 16:51:43.841908 21523 net.cpp:91] Creating Layer conv1/relu_7x7
I0403 16:51:43.841927 21523 net.cpp:425] conv1/relu_7x7 <- conv1/7x7_s2
I0403 16:51:43.841945 21523 net.cpp:386] conv1/relu_7x7 -> conv1/7x7_s2 (in-place)
I0403 16:51:43.842207 21523 net.cpp:141] Setting up conv1/relu_7x7
I0403 16:51:43.842236 21523 net.cpp:148] Top shape: 24 64 112 112 (19267584)
I0403 16:51:43.842252 21523 net.cpp:156] Memory required for data: 168592416
I0403 16:51:43.842267 21523 layer_factory.hpp:77] Creating layer pool1/3x3_s2
I0403 16:51:43.842291 21523 net.cpp:91] Creating Layer pool1/3x3_s2
I0403 16:51:43.842309 21523 net.cpp:425] pool1/3x3_s2 <- conv1/7x7_s2
I0403 16:51:43.842329 21523 net.cpp:399] pool1/3x3_s2 -> pool1/3x3_s2
I0403 16:51:43.842402 21523 net.cpp:141] Setting up pool1/3x3_s2
I0403 16:51:43.842427 21523 net.cpp:148] Top shape: 24 64 56 56 (4816896)
I0403 16:51:43.842442 21523 net.cpp:156] Memory required for data: 187860000
I0403 16:51:43.842458 21523 layer_factory.hpp:77] Creating layer pool1/norm1
I0403 16:51:43.842483 21523 net.cpp:91] Creating Layer pool1/norm1
I0403 16:51:43.842499 21523 net.cpp:425] pool1/norm1 <- pool1/3x3_s2
I0403 16:51:43.842517 21523 net.cpp:399] pool1/norm1 -> pool1/norm1
I0403 16:51:43.842803 21523 net.cpp:141] Setting up pool1/norm1
I0403 16:51:43.842829 21523 net.cpp:148] Top shape: 24 64 56 56 (4816896)
I0403 16:51:43.842845 21523 net.cpp:156] Memory required for data: 207127584
I0403 16:51:43.842860 21523 layer_factory.hpp:77] Creating layer conv2/3x3_reduce
I0403 16:51:43.842885 21523 net.cpp:91] Creating Layer conv2/3x3_reduce
I0403 16:51:43.842902 21523 net.cpp:425] conv2/3x3_reduce <- pool1/norm1
I0403 16:51:43.842921 21523 net.cpp:399] conv2/3x3_reduce -> conv2/3x3_reduce
I0403 16:51:43.844283 21523 net.cpp:141] Setting up conv2/3x3_reduce
I0403 16:51:43.844312 21523 net.cpp:148] Top shape: 24 64 56 56 (4816896)
I0403 16:51:43.844329 21523 net.cpp:156] Memory required for data: 226395168
I0403 16:51:43.844350 21523 layer_factory.hpp:77] Creating layer conv2/relu_3x3_reduce
I0403 16:51:43.844369 21523 net.cpp:91] Creating Layer conv2/relu_3x3_reduce
I0403 16:51:43.844385 21523 net.cpp:425] conv2/relu_3x3_reduce <- conv2/3x3_reduce
I0403 16:51:43.844403 21523 net.cpp:386] conv2/relu_3x3_reduce -> conv2/3x3_reduce (in-place)
I0403 16:51:43.844653 21523 net.cpp:141] Setting up conv2/relu_3x3_reduce
I0403 16:51:43.844681 21523 net.cpp:148] Top shape: 24 64 56 56 (4816896)
I0403 16:51:43.844696 21523 net.cpp:156] Memory required for data: 245662752
I0403 16:51:43.844712 21523 layer_factory.hpp:77] Creating layer conv2/3x3
I0403 16:51:43.844733 21523 net.cpp:91] Creating Layer conv2/3x3
I0403 16:51:43.844751 21523 net.cpp:425] conv2/3x3 <- conv2/3x3_reduce
I0403 16:51:43.844769 21523 net.cpp:399] conv2/3x3 -> conv2/3x3
I0403 16:51:43.847069 21523 net.cpp:141] Setting up conv2/3x3
I0403 16:51:43.847100 21523 net.cpp:148] Top shape: 24 192 56 56 (14450688)
I0403 16:51:43.847117 21523 net.cpp:156] Memory required for data: 303465504
I0403 16:51:43.847139 21523 layer_factory.hpp:77] Creating layer conv2/relu_3x3
I0403 16:51:43.847157 21523 net.cpp:91] Creating Layer conv2/relu_3x3
I0403 16:51:43.847174 21523 net.cpp:425] conv2/relu_3x3 <- conv2/3x3
I0403 16:51:43.847192 21523 net.cpp:386] conv2/relu_3x3 -> conv2/3x3 (in-place)
I0403 16:51:43.847353 21523 net.cpp:141] Setting up conv2/relu_3x3
I0403 16:51:43.847379 21523 net.cpp:148] Top shape: 24 192 56 56 (14450688)
I0403 16:51:43.847425 21523 net.cpp:156] Memory required for data: 361268256
I0403 16:51:43.847441 21523 layer_factory.hpp:77] Creating layer conv2/norm2
I0403 16:51:43.847461 21523 net.cpp:91] Creating Layer conv2/norm2
I0403 16:51:43.847477 21523 net.cpp:425] conv2/norm2 <- conv2/3x3
I0403 16:51:43.847496 21523 net.cpp:399] conv2/norm2 -> conv2/norm2
I0403 16:51:43.847791 21523 net.cpp:141] Setting up conv2/norm2
I0403 16:51:43.847820 21523 net.cpp:148] Top shape: 24 192 56 56 (14450688)
I0403 16:51:43.847836 21523 net.cpp:156] Memory required for data: 419071008
I0403 16:51:43.847851 21523 layer_factory.hpp:77] Creating layer pool2/3x3_s2
I0403 16:51:43.847872 21523 net.cpp:91] Creating Layer pool2/3x3_s2
I0403 16:51:43.847889 21523 net.cpp:425] pool2/3x3_s2 <- conv2/norm2
I0403 16:51:43.847908 21523 net.cpp:399] pool2/3x3_s2 -> pool2/3x3_s2
I0403 16:51:43.847961 21523 net.cpp:141] Setting up pool2/3x3_s2
I0403 16:51:43.847990 21523 net.cpp:148] Top shape: 24 192 28 28 (3612672)
I0403 16:51:43.848006 21523 net.cpp:156] Memory required for data: 433521696
I0403 16:51:43.848022 21523 layer_factory.hpp:77] Creating layer pool2/3x3_s2_pool2/3x3_s2_0_split
I0403 16:51:43.848042 21523 net.cpp:91] Creating Layer pool2/3x3_s2_pool2/3x3_s2_0_split
I0403 16:51:43.848057 21523 net.cpp:425] pool2/3x3_s2_pool2/3x3_s2_0_split <- pool2/3x3_s2
I0403 16:51:43.848078 21523 net.cpp:399] pool2/3x3_s2_pool2/3x3_s2_0_split -> pool2/3x3_s2_pool2/3x3_s2_0_split_0
I0403 16:51:43.848098 21523 net.cpp:399] pool2/3x3_s2_pool2/3x3_s2_0_split -> pool2/3x3_s2_pool2/3x3_s2_0_split_1
I0403 16:51:43.848119 21523 net.cpp:399] pool2/3x3_s2_pool2/3x3_s2_0_split -> pool2/3x3_s2_pool2/3x3_s2_0_split_2
I0403 16:51:43.848137 21523 net.cpp:399] pool2/3x3_s2_pool2/3x3_s2_0_split -> pool2/3x3_s2_pool2/3x3_s2_0_split_3
I0403 16:51:43.848211 21523 net.cpp:141] Setting up pool2/3x3_s2_pool2/3x3_s2_0_split
I0403 16:51:43.848237 21523 net.cpp:148] Top shape: 24 192 28 28 (3612672)
I0403 16:51:43.848254 21523 net.cpp:148] Top shape: 24 192 28 28 (3612672)
I0403 16:51:43.848270 21523 net.cpp:148] Top shape: 24 192 28 28 (3612672)
I0403 16:51:43.848286 21523 net.cpp:148] Top shape: 24 192 28 28 (3612672)
I0403 16:51:43.848301 21523 net.cpp:156] Memory required for data: 491324448
I0403 16:51:43.848315 21523 layer_factory.hpp:77] Creating layer inception_3a/1x1
I0403 16:51:43.848336 21523 net.cpp:91] Creating Layer inception_3a/1x1
I0403 16:51:43.848353 21523 net.cpp:425] inception_3a/1x1 <- pool2/3x3_s2_pool2/3x3_s2_0_split_0
I0403 16:51:43.848376 21523 net.cpp:399] inception_3a/1x1 -> inception_3a/1x1
I0403 16:51:43.849952 21523 net.cpp:141] Setting up inception_3a/1x1
I0403 16:51:43.849983 21523 net.cpp:148] Top shape: 24 64 28 28 (1204224)
I0403 16:51:43.850006 21523 net.cpp:156] Memory required for data: 496141344
I0403 16:51:43.850025 21523 layer_factory.hpp:77] Creating layer inception_3a/relu_1x1
I0403 16:51:43.850046 21523 net.cpp:91] Creating Layer inception_3a/relu_1x1
I0403 16:51:43.850064 21523 net.cpp:425] inception_3a/relu_1x1 <- inception_3a/1x1
I0403 16:51:43.850081 21523 net.cpp:386] inception_3a/relu_1x1 -> inception_3a/1x1 (in-place)
I0403 16:51:43.850261 21523 net.cpp:141] Setting up inception_3a/relu_1x1
I0403 16:51:43.850287 21523 net.cpp:148] Top shape: 24 64 28 28 (1204224)
I0403 16:51:43.850302 21523 net.cpp:156] Memory required for data: 500958240
I0403 16:51:43.850317 21523 layer_factory.hpp:77] Creating layer inception_3a/3x3_reduce
I0403 16:51:43.850368 21523 net.cpp:91] Creating Layer inception_3a/3x3_reduce
I0403 16:51:43.850390 21523 net.cpp:425] inception_3a/3x3_reduce <- pool2/3x3_s2_pool2/3x3_s2_0_split_1
I0403 16:51:43.850412 21523 net.cpp:399] inception_3a/3x3_reduce -> inception_3a/3x3_reduce
I0403 16:51:43.852146 21523 net.cpp:141] Setting up inception_3a/3x3_reduce
I0403 16:51:43.852180 21523 net.cpp:148] Top shape: 24 96 28 28 (1806336)
I0403 16:51:43.852196 21523 net.cpp:156] Memory required for data: 508183584
I0403 16:51:43.852218 21523 layer_factory.hpp:77] Creating layer inception_3a/relu_3x3_reduce
I0403 16:51:43.852255 21523 net.cpp:91] Creating Layer inception_3a/relu_3x3_reduce
I0403 16:51:43.852273 21523 net.cpp:425] inception_3a/relu_3x3_reduce <- inception_3a/3x3_reduce
I0403 16:51:43.852293 21523 net.cpp:386] inception_3a/relu_3x3_reduce -> inception_3a/3x3_reduce (in-place)
I0403 16:51:43.852475 21523 net.cpp:141] Setting up inception_3a/relu_3x3_reduce
I0403 16:51:43.852501 21523 net.cpp:148] Top shape: 24 96 28 28 (1806336)
I0403 16:51:43.852517 21523 net.cpp:156] Memory required for data: 515408928
I0403 16:51:43.852532 21523 layer_factory.hpp:77] Creating layer inception_3a/3x3
I0403 16:51:43.852556 21523 net.cpp:91] Creating Layer inception_3a/3x3
I0403 16:51:43.852574 21523 net.cpp:425] inception_3a/3x3 <- inception_3a/3x3_reduce
I0403 16:51:43.852598 21523 net.cpp:399] inception_3a/3x3 -> inception_3a/3x3
I0403 16:51:43.854251 21523 net.cpp:141] Setting up inception_3a/3x3
I0403 16:51:43.854282 21523 net.cpp:148] Top shape: 24 128 28 28 (2408448)
I0403 16:51:43.854298 21523 net.cpp:156] Memory required for data: 525042720
I0403 16:51:43.854317 21523 layer_factory.hpp:77] Creating layer inception_3a/relu_3x3
I0403 16:51:43.854336 21523 net.cpp:91] Creating Layer inception_3a/relu_3x3
I0403 16:51:43.854352 21523 net.cpp:425] inception_3a/relu_3x3 <- inception_3a/3x3
I0403 16:51:43.854372 21523 net.cpp:386] inception_3a/relu_3x3 -> inception_3a/3x3 (in-place)
I0403 16:51:43.854640 21523 net.cpp:141] Setting up inception_3a/relu_3x3
I0403 16:51:43.854670 21523 net.cpp:148] Top shape: 24 128 28 28 (2408448)
I0403 16:51:43.854686 21523 net.cpp:156] Memory required for data: 534676512
I0403 16:51:43.854699 21523 layer_factory.hpp:77] Creating layer inception_3a/5x5_reduce
I0403 16:51:43.854722 21523 net.cpp:91] Creating Layer inception_3a/5x5_reduce
I0403 16:51:43.854739 21523 net.cpp:425] inception_3a/5x5_reduce <- pool2/3x3_s2_pool2/3x3_s2_0_split_2
I0403 16:51:43.854758 21523 net.cpp:399] inception_3a/5x5_reduce -> inception_3a/5x5_reduce
I0403 16:51:43.855707 21523 net.cpp:141] Setting up inception_3a/5x5_reduce
I0403 16:51:43.855734 21523 net.cpp:148] Top shape: 24 16 28 28 (301056)
I0403 16:51:43.855751 21523 net.cpp:156] Memory required for data: 535880736
I0403 16:51:43.855768 21523 layer_factory.hpp:77] Creating layer inception_3a/relu_5x5_reduce
I0403 16:51:43.855787 21523 net.cpp:91] Creating Layer inception_3a/relu_5x5_reduce
I0403 16:51:43.855803 21523 net.cpp:425] inception_3a/relu_5x5_reduce <- inception_3a/5x5_reduce
I0403 16:51:43.855823 21523 net.cpp:386] inception_3a/relu_5x5_reduce -> inception_3a/5x5_reduce (in-place)
I0403 16:51:43.856117 21523 net.cpp:141] Setting up inception_3a/relu_5x5_reduce
I0403 16:51:43.856143 21523 net.cpp:148] Top shape: 24 16 28 28 (301056)
I0403 16:51:43.856158 21523 net.cpp:156] Memory required for data: 537084960
I0403 16:51:43.856173 21523 layer_factory.hpp:77] Creating layer inception_3a/5x5
I0403 16:51:43.856195 21523 net.cpp:91] Creating Layer inception_3a/5x5
I0403 16:51:43.856212 21523 net.cpp:425] inception_3a/5x5 <- inception_3a/5x5_reduce
I0403 16:51:43.856236 21523 net.cpp:399] inception_3a/5x5 -> inception_3a/5x5
I0403 16:51:43.857228 21523 net.cpp:141] Setting up inception_3a/5x5
I0403 16:51:43.857257 21523 net.cpp:148] Top shape: 24 32 28 28 (602112)
I0403 16:51:43.857273 21523 net.cpp:156] Memory required for data: 539493408
I0403 16:51:43.857292 21523 layer_factory.hpp:77] Creating layer inception_3a/relu_5x5
I0403 16:51:43.857311 21523 net.cpp:91] Creating Layer inception_3a/relu_5x5
I0403 16:51:43.857326 21523 net.cpp:425] inception_3a/relu_5x5 <- inception_3a/5x5
I0403 16:51:43.857345 21523 net.cpp:386] inception_3a/relu_5x5 -> inception_3a/5x5 (in-place)
I0403 16:51:43.857511 21523 net.cpp:141] Setting up inception_3a/relu_5x5
I0403 16:51:43.857537 21523 net.cpp:148] Top shape: 24 32 28 28 (602112)
I0403 16:51:43.857563 21523 net.cpp:156] Memory required for data: 541901856
I0403 16:51:43.857578 21523 layer_factory.hpp:77] Creating layer inception_3a/pool
I0403 16:51:43.857596 21523 net.cpp:91] Creating Layer inception_3a/pool
I0403 16:51:43.857611 21523 net.cpp:425] inception_3a/pool <- pool2/3x3_s2_pool2/3x3_s2_0_split_3
I0403 16:51:43.857646 21523 net.cpp:399] inception_3a/pool -> inception_3a/pool
I0403 16:51:43.857707 21523 net.cpp:141] Setting up inception_3a/pool
I0403 16:51:43.857729 21523 net.cpp:148] Top shape: 24 192 28 28 (3612672)
I0403 16:51:43.857744 21523 net.cpp:156] Memory required for data: 556352544
I0403 16:51:43.857759 21523 layer_factory.hpp:77] Creating layer inception_3a/pool_proj
I0403 16:51:43.857785 21523 net.cpp:91] Creating Layer inception_3a/pool_proj
I0403 16:51:43.857802 21523 net.cpp:425] inception_3a/pool_proj <- inception_3a/pool
I0403 16:51:43.857821 21523 net.cpp:399] inception_3a/pool_proj -> inception_3a/pool_proj
I0403 16:51:43.858834 21523 net.cpp:141] Setting up inception_3a/pool_proj
I0403 16:51:43.858860 21523 net.cpp:148] Top shape: 24 32 28 28 (602112)
I0403 16:51:43.858875 21523 net.cpp:156] Memory required for data: 558760992
I0403 16:51:43.858898 21523 layer_factory.hpp:77] Creating layer inception_3a/relu_pool_proj
I0403 16:51:43.858918 21523 net.cpp:91] Creating Layer inception_3a/relu_pool_proj
I0403 16:51:43.858934 21523 net.cpp:425] inception_3a/relu_pool_proj <- inception_3a/pool_proj
I0403 16:51:43.858953 21523 net.cpp:386] inception_3a/relu_pool_proj -> inception_3a/pool_proj (in-place)
I0403 16:51:43.859227 21523 net.cpp:141] Setting up inception_3a/relu_pool_proj
I0403 16:51:43.859256 21523 net.cpp:148] Top shape: 24 32 28 28 (602112)
I0403 16:51:43.859280 21523 net.cpp:156] Memory required for data: 561169440
I0403 16:51:43.859295 21523 layer_factory.hpp:77] Creating layer inception_3a/output
I0403 16:51:43.859313 21523 net.cpp:91] Creating Layer inception_3a/output
I0403 16:51:43.859328 21523 net.cpp:425] inception_3a/output <- inception_3a/1x1
I0403 16:51:43.859344 21523 net.cpp:425] inception_3a/output <- inception_3a/3x3
I0403 16:51:43.859357 21523 net.cpp:425] inception_3a/output <- inception_3a/5x5
I0403 16:51:43.859372 21523 net.cpp:425] inception_3a/output <- inception_3a/pool_proj
I0403 16:51:43.859393 21523 net.cpp:399] inception_3a/output -> inception_3a/output
I0403 16:51:43.859436 21523 net.cpp:141] Setting up inception_3a/output
I0403 16:51:43.859458 21523 net.cpp:148] Top shape: 24 256 28 28 (4816896)
I0403 16:51:43.859472 21523 net.cpp:156] Memory required for data: 580437024
I0403 16:51:43.859486 21523 layer_factory.hpp:77] Creating layer inception_3a/output_inception_3a/output_0_split
I0403 16:51:43.859506 21523 net.cpp:91] Creating Layer inception_3a/output_inception_3a/output_0_split
I0403 16:51:43.859522 21523 net.cpp:425] inception_3a/output_inception_3a/output_0_split <- inception_3a/output
I0403 16:51:43.859539 21523 net.cpp:399] inception_3a/output_inception_3a/output_0_split -> inception_3a/output_inception_3a/output_0_split_0
I0403 16:51:43.859557 21523 net.cpp:399] inception_3a/output_inception_3a/output_0_split -> inception_3a/output_inception_3a/output_0_split_1
I0403 16:51:43.859580 21523 net.cpp:399] inception_3a/output_inception_3a/output_0_split -> inception_3a/output_inception_3a/output_0_split_2
I0403 16:51:43.859601 21523 net.cpp:399] inception_3a/output_inception_3a/output_0_split -> inception_3a/output_inception_3a/output_0_split_3
I0403 16:51:43.859669 21523 net.cpp:141] Setting up inception_3a/output_inception_3a/output_0_split
I0403 16:51:43.859694 21523 net.cpp:148] Top shape: 24 256 28 28 (4816896)
I0403 16:51:43.859712 21523 net.cpp:148] Top shape: 24 256 28 28 (4816896)
I0403 16:51:43.859727 21523 net.cpp:148] Top shape: 24 256 28 28 (4816896)
I0403 16:51:43.859741 21523 net.cpp:148] Top shape: 24 256 28 28 (4816896)
I0403 16:51:43.859755 21523 net.cpp:156] Memory required for data: 657507360
I0403 16:51:43.859768 21523 layer_factory.hpp:77] Creating layer inception_3b/1x1
I0403 16:51:43.859791 21523 net.cpp:91] Creating Layer inception_3b/1x1
I0403 16:51:43.859807 21523 net.cpp:425] inception_3b/1x1 <- inception_3a/output_inception_3a/output_0_split_0
I0403 16:51:43.859825 21523 net.cpp:399] inception_3b/1x1 -> inception_3b/1x1
I0403 16:51:43.860909 21523 net.cpp:141] Setting up inception_3b/1x1
I0403 16:51:43.860949 21523 net.cpp:148] Top shape: 24 128 28 28 (2408448)
I0403 16:51:43.860967 21523 net.cpp:156] Memory required for data: 667141152
I0403 16:51:43.860988 21523 layer_factory.hpp:77] Creating layer inception_3b/relu_1x1
I0403 16:51:43.861008 21523 net.cpp:91] Creating Layer inception_3b/relu_1x1
I0403 16:51:43.861024 21523 net.cpp:425] inception_3b/relu_1x1 <- inception_3b/1x1
I0403 16:51:43.861042 21523 net.cpp:386] inception_3b/relu_1x1 -> inception_3b/1x1 (in-place)
I0403 16:51:43.861207 21523 net.cpp:141] Setting up inception_3b/relu_1x1
I0403 16:51:43.861233 21523 net.cpp:148] Top shape: 24 128 28 28 (2408448)
I0403 16:51:43.861248 21523 net.cpp:156] Memory required for data: 676774944
I0403 16:51:43.861263 21523 layer_factory.hpp:77] Creating layer inception_3b/3x3_reduce
I0403 16:51:43.861284 21523 net.cpp:91] Creating Layer inception_3b/3x3_reduce
I0403 16:51:43.861301 21523 net.cpp:425] inception_3b/3x3_reduce <- inception_3a/output_inception_3a/output_0_split_1
I0403 16:51:43.861320 21523 net.cpp:399] inception_3b/3x3_reduce -> inception_3b/3x3_reduce
I0403 16:51:43.862409 21523 net.cpp:141] Setting up inception_3b/3x3_reduce
I0403 16:51:43.862435 21523 net.cpp:148] Top shape: 24 128 28 28 (2408448)
I0403 16:51:43.862452 21523 net.cpp:156] Memory required for data: 686408736
I0403 16:51:43.862468 21523 layer_factory.hpp:77] Creating layer inception_3b/relu_3x3_reduce
I0403 16:51:43.862488 21523 net.cpp:91] Creating Layer inception_3b/relu_3x3_reduce
I0403 16:51:43.862504 21523 net.cpp:425] inception_3b/relu_3x3_reduce <- inception_3b/3x3_reduce
I0403 16:51:43.862520 21523 net.cpp:386] inception_3b/relu_3x3_reduce -> inception_3b/3x3_reduce (in-place)
I0403 16:51:43.862684 21523 net.cpp:141] Setting up inception_3b/relu_3x3_reduce
I0403 16:51:43.862709 21523 net.cpp:148] Top shape: 24 128 28 28 (2408448)
I0403 16:51:43.862722 21523 net.cpp:156] Memory required for data: 696042528
I0403 16:51:43.862736 21523 layer_factory.hpp:77] Creating layer inception_3b/3x3
I0403 16:51:43.862762 21523 net.cpp:91] Creating Layer inception_3b/3x3
I0403 16:51:43.862781 21523 net.cpp:425] inception_3b/3x3 <- inception_3b/3x3_reduce
I0403 16:51:43.862802 21523 net.cpp:399] inception_3b/3x3 -> inception_3b/3x3
I0403 16:51:43.865604 21523 net.cpp:141] Setting up inception_3b/3x3
I0403 16:51:43.865634 21523 net.cpp:148] Top shape: 24 192 28 28 (3612672)
I0403 16:51:43.865651 21523 net.cpp:156] Memory required for data: 710493216
I0403 16:51:43.865669 21523 layer_factory.hpp:77] Creating layer inception_3b/relu_3x3
I0403 16:51:43.865686 21523 net.cpp:91] Creating Layer inception_3b/relu_3x3
I0403 16:51:43.865702 21523 net.cpp:425] inception_3b/relu_3x3 <- inception_3b/3x3
I0403 16:51:43.865721 21523 net.cpp:386] inception_3b/relu_3x3 -> inception_3b/3x3 (in-place)
I0403 16:51:43.865995 21523 net.cpp:141] Setting up inception_3b/relu_3x3
I0403 16:51:43.866024 21523 net.cpp:148] Top shape: 24 192 28 28 (3612672)
I0403 16:51:43.866051 21523 net.cpp:156] Memory required for data: 724943904
I0403 16:51:43.866066 21523 layer_factory.hpp:77] Creating layer inception_3b/5x5_reduce
I0403 16:51:43.866091 21523 net.cpp:91] Creating Layer inception_3b/5x5_reduce
I0403 16:51:43.866107 21523 net.cpp:425] inception_3b/5x5_reduce <- inception_3a/output_inception_3a/output_0_split_2
I0403 16:51:43.866127 21523 net.cpp:399] inception_3b/5x5_reduce -> inception_3b/5x5_reduce
I0403 16:51:43.867166 21523 net.cpp:141] Setting up inception_3b/5x5_reduce
I0403 16:51:43.867208 21523 net.cpp:148] Top shape: 24 32 28 28 (602112)
I0403 16:51:43.867225 21523 net.cpp:156] Memory required for data: 727352352
I0403 16:51:43.867244 21523 layer_factory.hpp:77] Creating layer inception_3b/relu_5x5_reduce
I0403 16:51:43.867264 21523 net.cpp:91] Creating Layer inception_3b/relu_5x5_reduce
I0403 16:51:43.867280 21523 net.cpp:425] inception_3b/relu_5x5_reduce <- inception_3b/5x5_reduce
I0403 16:51:43.867300 21523 net.cpp:386] inception_3b/relu_5x5_reduce -> inception_3b/5x5_reduce (in-place)
I0403 16:51:43.867481 21523 net.cpp:141] Setting up inception_3b/relu_5x5_reduce
I0403 16:51:43.867521 21523 net.cpp:148] Top shape: 24 32 28 28 (602112)
I0403 16:51:43.867537 21523 net.cpp:156] Memory required for data: 729760800
I0403 16:51:43.867552 21523 layer_factory.hpp:77] Creating layer inception_3b/5x5
I0403 16:51:43.867575 21523 net.cpp:91] Creating Layer inception_3b/5x5
I0403 16:51:43.867594 21523 net.cpp:425] inception_3b/5x5 <- inception_3b/5x5_reduce
I0403 16:51:43.867615 21523 net.cpp:399] inception_3b/5x5 -> inception_3b/5x5
I0403 16:51:43.869644 21523 net.cpp:141] Setting up inception_3b/5x5
I0403 16:51:43.869674 21523 net.cpp:148] Top shape: 24 96 28 28 (1806336)
I0403 16:51:43.869690 21523 net.cpp:156] Memory required for data: 736986144
I0403 16:51:43.869709 21523 layer_factory.hpp:77] Creating layer inception_3b/relu_5x5
I0403 16:51:43.869730 21523 net.cpp:91] Creating Layer inception_3b/relu_5x5
I0403 16:51:43.869747 21523 net.cpp:425] inception_3b/relu_5x5 <- inception_3b/5x5
I0403 16:51:43.869765 21523 net.cpp:386] inception_3b/relu_5x5 -> inception_3b/5x5 (in-place)
I0403 16:51:43.869961 21523 net.cpp:141] Setting up inception_3b/relu_5x5
I0403 16:51:43.869997 21523 net.cpp:148] Top shape: 24 96 28 28 (1806336)
I0403 16:51:43.870013 21523 net.cpp:156] Memory required for data: 744211488
I0403 16:51:43.870028 21523 layer_factory.hpp:77] Creating layer inception_3b/pool
I0403 16:51:43.870048 21523 net.cpp:91] Creating Layer inception_3b/pool
I0403 16:51:43.870064 21523 net.cpp:425] inception_3b/pool <- inception_3a/output_inception_3a/output_0_split_3
I0403 16:51:43.870081 21523 net.cpp:399] inception_3b/pool -> inception_3b/pool
I0403 16:51:43.870138 21523 net.cpp:141] Setting up inception_3b/pool
I0403 16:51:43.870162 21523 net.cpp:148] Top shape: 24 256 28 28 (4816896)
I0403 16:51:43.870177 21523 net.cpp:156] Memory required for data: 763479072
I0403 16:51:43.870192 21523 layer_factory.hpp:77] Creating layer inception_3b/pool_proj
I0403 16:51:43.870216 21523 net.cpp:91] Creating Layer inception_3b/pool_proj
I0403 16:51:43.870234 21523 net.cpp:425] inception_3b/pool_proj <- inception_3b/pool
I0403 16:51:43.870254 21523 net.cpp:399] inception_3b/pool_proj -> inception_3b/pool_proj
I0403 16:51:43.871332 21523 net.cpp:141] Setting up inception_3b/pool_proj
I0403 16:51:43.871361 21523 net.cpp:148] Top shape: 24 64 28 28 (1204224)
I0403 16:51:43.871376 21523 net.cpp:156] Memory required for data: 768295968
I0403 16:51:43.871394 21523 layer_factory.hpp:77] Creating layer inception_3b/relu_pool_proj
I0403 16:51:43.871415 21523 net.cpp:91] Creating Layer inception_3b/relu_pool_proj
I0403 16:51:43.871433 21523 net.cpp:425] inception_3b/relu_pool_proj <- inception_3b/pool_proj
I0403 16:51:43.871450 21523 net.cpp:386] inception_3b/relu_pool_proj -> inception_3b/pool_proj (in-place)
I0403 16:51:43.871855 21523 net.cpp:141] Setting up inception_3b/relu_pool_proj
I0403 16:51:43.871883 21523 net.cpp:148] Top shape: 24 64 28 28 (1204224)
I0403 16:51:43.871899 21523 net.cpp:156] Memory required for data: 773112864
I0403 16:51:43.871914 21523 layer_factory.hpp:77] Creating layer inception_3b/output
I0403 16:51:43.871932 21523 net.cpp:91] Creating Layer inception_3b/output
I0403 16:51:43.871948 21523 net.cpp:425] inception_3b/output <- inception_3b/1x1
I0403 16:51:43.871964 21523 net.cpp:425] inception_3b/output <- inception_3b/3x3
I0403 16:51:43.871980 21523 net.cpp:425] inception_3b/output <- inception_3b/5x5
I0403 16:51:43.872021 21523 net.cpp:425] inception_3b/output <- inception_3b/pool_proj
I0403 16:51:43.872053 21523 net.cpp:399] inception_3b/output -> inception_3b/output
I0403 16:51:43.872099 21523 net.cpp:141] Setting up inception_3b/output
I0403 16:51:43.872128 21523 net.cpp:148] Top shape: 24 480 28 28 (9031680)
I0403 16:51:43.872145 21523 net.cpp:156] Memory required for data: 809239584
I0403 16:51:43.872160 21523 layer_factory.hpp:77] Creating layer pool3/3x3_s2
I0403 16:51:43.872179 21523 net.cpp:91] Creating Layer pool3/3x3_s2
I0403 16:51:43.872195 21523 net.cpp:425] pool3/3x3_s2 <- inception_3b/output
I0403 16:51:43.872220 21523 net.cpp:399] pool3/3x3_s2 -> pool3/3x3_s2
I0403 16:51:43.872294 21523 net.cpp:141] Setting up pool3/3x3_s2
I0403 16:51:43.872320 21523 net.cpp:148] Top shape: 24 480 14 14 (2257920)
I0403 16:51:43.872339 21523 net.cpp:156] Memory required for data: 818271264
I0403 16:51:43.872354 21523 layer_factory.hpp:77] Creating layer pool3/3x3_s2_pool3/3x3_s2_0_split
I0403 16:51:43.872373 21523 net.cpp:91] Creating Layer pool3/3x3_s2_pool3/3x3_s2_0_split
I0403 16:51:43.872400 21523 net.cpp:425] pool3/3x3_s2_pool3/3x3_s2_0_split <- pool3/3x3_s2
I0403 16:51:43.872417 21523 net.cpp:399] pool3/3x3_s2_pool3/3x3_s2_0_split -> pool3/3x3_s2_pool3/3x3_s2_0_split_0
I0403 16:51:43.872437 21523 net.cpp:399] pool3/3x3_s2_pool3/3x3_s2_0_split -> pool3/3x3_s2_pool3/3x3_s2_0_split_1
I0403 16:51:43.872457 21523 net.cpp:399] pool3/3x3_s2_pool3/3x3_s2_0_split -> pool3/3x3_s2_pool3/3x3_s2_0_split_2
I0403 16:51:43.872478 21523 net.cpp:399] pool3/3x3_s2_pool3/3x3_s2_0_split -> pool3/3x3_s2_pool3/3x3_s2_0_split_3
I0403 16:51:43.872560 21523 net.cpp:141] Setting up pool3/3x3_s2_pool3/3x3_s2_0_split
I0403 16:51:43.872583 21523 net.cpp:148] Top shape: 24 480 14 14 (2257920)
I0403 16:51:43.872601 21523 net.cpp:148] Top shape: 24 480 14 14 (2257920)
I0403 16:51:43.872617 21523 net.cpp:148] Top shape: 24 480 14 14 (2257920)
I0403 16:51:43.872632 21523 net.cpp:148] Top shape: 24 480 14 14 (2257920)
I0403 16:51:43.872648 21523 net.cpp:156] Memory required for data: 854397984
I0403 16:51:43.872663 21523 layer_factory.hpp:77] Creating layer inception_4a/1x1
I0403 16:51:43.872685 21523 net.cpp:91] Creating Layer inception_4a/1x1
I0403 16:51:43.872704 21523 net.cpp:425] inception_4a/1x1 <- pool3/3x3_s2_pool3/3x3_s2_0_split_0
I0403 16:51:43.872726 21523 net.cpp:399] inception_4a/1x1 -> inception_4a/1x1
I0403 16:51:43.874384 21523 net.cpp:141] Setting up inception_4a/1x1
I0403 16:51:43.874413 21523 net.cpp:148] Top shape: 24 192 14 14 (903168)
I0403 16:51:43.874430 21523 net.cpp:156] Memory required for data: 858010656
I0403 16:51:43.874449 21523 layer_factory.hpp:77] Creating layer inception_4a/relu_1x1
I0403 16:51:43.874470 21523 net.cpp:91] Creating Layer inception_4a/relu_1x1
I0403 16:51:43.874488 21523 net.cpp:425] inception_4a/relu_1x1 <- inception_4a/1x1
I0403 16:51:43.874506 21523 net.cpp:386] inception_4a/relu_1x1 -> inception_4a/1x1 (in-place)
I0403 16:51:43.874691 21523 net.cpp:141] Setting up inception_4a/relu_1x1
I0403 16:51:43.874722 21523 net.cpp:148] Top shape: 24 192 14 14 (903168)
I0403 16:51:43.874737 21523 net.cpp:156] Memory required for data: 861623328
I0403 16:51:43.874753 21523 layer_factory.hpp:77] Creating layer inception_4a/3x3_reduce
I0403 16:51:43.874776 21523 net.cpp:91] Creating Layer inception_4a/3x3_reduce
I0403 16:51:43.874794 21523 net.cpp:425] inception_4a/3x3_reduce <- pool3/3x3_s2_pool3/3x3_s2_0_split_1
I0403 16:51:43.874815 21523 net.cpp:399] inception_4a/3x3_reduce -> inception_4a/3x3_reduce
I0403 16:51:43.876166 21523 net.cpp:141] Setting up inception_4a/3x3_reduce
I0403 16:51:43.876195 21523 net.cpp:148] Top shape: 24 96 14 14 (451584)
I0403 16:51:43.876211 21523 net.cpp:156] Memory required for data: 863429664
I0403 16:51:43.876238 21523 layer_factory.hpp:77] Creating layer inception_4a/relu_3x3_reduce
I0403 16:51:43.876260 21523 net.cpp:91] Creating Layer inception_4a/relu_3x3_reduce
I0403 16:51:43.876277 21523 net.cpp:425] inception_4a/relu_3x3_reduce <- inception_4a/3x3_reduce
I0403 16:51:43.876298 21523 net.cpp:386] inception_4a/relu_3x3_reduce -> inception_4a/3x3_reduce (in-place)
I0403 16:51:43.876489 21523 net.cpp:141] Setting up inception_4a/relu_3x3_reduce
I0403 16:51:43.876516 21523 net.cpp:148] Top shape: 24 96 14 14 (451584)
I0403 16:51:43.876531 21523 net.cpp:156] Memory required for data: 865236000
I0403 16:51:43.876548 21523 layer_factory.hpp:77] Creating layer inception_4a/3x3
I0403 16:51:43.876571 21523 net.cpp:91] Creating Layer inception_4a/3x3
I0403 16:51:43.876590 21523 net.cpp:425] inception_4a/3x3 <- inception_4a/3x3_reduce
I0403 16:51:43.876611 21523 net.cpp:399] inception_4a/3x3 -> inception_4a/3x3
I0403 16:51:43.879431 21523 net.cpp:141] Setting up inception_4a/3x3
I0403 16:51:43.879462 21523 net.cpp:148] Top shape: 24 208 14 14 (978432)
I0403 16:51:43.879479 21523 net.cpp:156] Memory required for data: 869149728
I0403 16:51:43.879498 21523 layer_factory.hpp:77] Creating layer inception_4a/relu_3x3
I0403 16:51:43.879523 21523 net.cpp:91] Creating Layer inception_4a/relu_3x3
I0403 16:51:43.879540 21523 net.cpp:425] inception_4a/relu_3x3 <- inception_4a/3x3
I0403 16:51:43.879559 21523 net.cpp:386] inception_4a/relu_3x3 -> inception_4a/3x3 (in-place)
I0403 16:51:43.879853 21523 net.cpp:141] Setting up inception_4a/relu_3x3
I0403 16:51:43.879881 21523 net.cpp:148] Top shape: 24 208 14 14 (978432)
I0403 16:51:43.879897 21523 net.cpp:156] Memory required for data: 873063456
I0403 16:51:43.879914 21523 layer_factory.hpp:77] Creating layer inception_4a/5x5_reduce
I0403 16:51:43.879940 21523 net.cpp:91] Creating Layer inception_4a/5x5_reduce
I0403 16:51:43.879959 21523 net.cpp:425] inception_4a/5x5_reduce <- pool3/3x3_s2_pool3/3x3_s2_0_split_2
I0403 16:51:43.879981 21523 net.cpp:399] inception_4a/5x5_reduce -> inception_4a/5x5_reduce
I0403 16:51:43.881057 21523 net.cpp:141] Setting up inception_4a/5x5_reduce
I0403 16:51:43.881088 21523 net.cpp:148] Top shape: 24 16 14 14 (75264)
I0403 16:51:43.881105 21523 net.cpp:156] Memory required for data: 873364512
I0403 16:51:43.881125 21523 layer_factory.hpp:77] Creating layer inception_4a/relu_5x5_reduce
I0403 16:51:43.881145 21523 net.cpp:91] Creating Layer inception_4a/relu_5x5_reduce
I0403 16:51:43.881162 21523 net.cpp:425] inception_4a/relu_5x5_reduce <- inception_4a/5x5_reduce
I0403 16:51:43.881183 21523 net.cpp:386] inception_4a/relu_5x5_reduce -> inception_4a/5x5_reduce (in-place)
I0403 16:51:43.881369 21523 net.cpp:141] Setting up inception_4a/relu_5x5_reduce
I0403 16:51:43.881397 21523 net.cpp:148] Top shape: 24 16 14 14 (75264)
I0403 16:51:43.881412 21523 net.cpp:156] Memory required for data: 873665568
I0403 16:51:43.881427 21523 layer_factory.hpp:77] Creating layer inception_4a/5x5
I0403 16:51:43.881450 21523 net.cpp:91] Creating Layer inception_4a/5x5
I0403 16:51:43.881469 21523 net.cpp:425] inception_4a/5x5 <- inception_4a/5x5_reduce
I0403 16:51:43.881491 21523 net.cpp:399] inception_4a/5x5 -> inception_4a/5x5
I0403 16:51:43.882642 21523 net.cpp:141] Setting up inception_4a/5x5
I0403 16:51:43.882671 21523 net.cpp:148] Top shape: 24 48 14 14 (225792)
I0403 16:51:43.882688 21523 net.cpp:156] Memory required for data: 874568736
I0403 16:51:43.882706 21523 layer_factory.hpp:77] Creating layer inception_4a/relu_5x5
I0403 16:51:43.882728 21523 net.cpp:91] Creating Layer inception_4a/relu_5x5
I0403 16:51:43.882745 21523 net.cpp:425] inception_4a/relu_5x5 <- inception_4a/5x5
I0403 16:51:43.882764 21523 net.cpp:386] inception_4a/relu_5x5 -> inception_4a/5x5 (in-place)
I0403 16:51:43.882947 21523 net.cpp:141] Setting up inception_4a/relu_5x5
I0403 16:51:43.882973 21523 net.cpp:148] Top shape: 24 48 14 14 (225792)
I0403 16:51:43.882997 21523 net.cpp:156] Memory required for data: 875471904
I0403 16:51:43.883014 21523 layer_factory.hpp:77] Creating layer inception_4a/pool
I0403 16:51:43.883038 21523 net.cpp:91] Creating Layer inception_4a/pool
I0403 16:51:43.883056 21523 net.cpp:425] inception_4a/pool <- pool3/3x3_s2_pool3/3x3_s2_0_split_3
I0403 16:51:43.883075 21523 net.cpp:399] inception_4a/pool -> inception_4a/pool
I0403 16:51:43.883141 21523 net.cpp:141] Setting up inception_4a/pool
I0403 16:51:43.883167 21523 net.cpp:148] Top shape: 24 480 14 14 (2257920)
I0403 16:51:43.883182 21523 net.cpp:156] Memory required for data: 884503584
I0403 16:51:43.883198 21523 layer_factory.hpp:77] Creating layer inception_4a/pool_proj
I0403 16:51:43.883221 21523 net.cpp:91] Creating Layer inception_4a/pool_proj
I0403 16:51:43.883239 21523 net.cpp:425] inception_4a/pool_proj <- inception_4a/pool
I0403 16:51:43.883262 21523 net.cpp:399] inception_4a/pool_proj -> inception_4a/pool_proj
I0403 16:51:43.884495 21523 net.cpp:141] Setting up inception_4a/pool_proj
I0403 16:51:43.884526 21523 net.cpp:148] Top shape: 24 64 14 14 (301056)
I0403 16:51:43.884557 21523 net.cpp:156] Memory required for data: 885707808
I0403 16:51:43.884577 21523 layer_factory.hpp:77] Creating layer inception_4a/relu_pool_proj
I0403 16:51:43.884599 21523 net.cpp:91] Creating Layer inception_4a/relu_pool_proj
I0403 16:51:43.884618 21523 net.cpp:425] inception_4a/relu_pool_proj <- inception_4a/pool_proj
I0403 16:51:43.884635 21523 net.cpp:386] inception_4a/relu_pool_proj -> inception_4a/pool_proj (in-place)
I0403 16:51:43.884934 21523 net.cpp:141] Setting up inception_4a/relu_pool_proj
I0403 16:51:43.884961 21523 net.cpp:148] Top shape: 24 64 14 14 (301056)
I0403 16:51:43.884977 21523 net.cpp:156] Memory required for data: 886912032
I0403 16:51:43.885000 21523 layer_factory.hpp:77] Creating layer inception_4a/output
I0403 16:51:43.885022 21523 net.cpp:91] Creating Layer inception_4a/output
I0403 16:51:43.885040 21523 net.cpp:425] inception_4a/output <- inception_4a/1x1
I0403 16:51:43.885057 21523 net.cpp:425] inception_4a/output <- inception_4a/3x3
I0403 16:51:43.885074 21523 net.cpp:425] inception_4a/output <- inception_4a/5x5
I0403 16:51:43.885090 21523 net.cpp:425] inception_4a/output <- inception_4a/pool_proj
I0403 16:51:43.885107 21523 net.cpp:399] inception_4a/output -> inception_4a/output
I0403 16:51:43.885154 21523 net.cpp:141] Setting up inception_4a/output
I0403 16:51:43.885180 21523 net.cpp:148] Top shape: 24 512 14 14 (2408448)
I0403 16:51:43.885197 21523 net.cpp:156] Memory required for data: 896545824
I0403 16:51:43.885212 21523 layer_factory.hpp:77] Creating layer inception_4a/output_inception_4a/output_0_split
I0403 16:51:43.885231 21523 net.cpp:91] Creating Layer inception_4a/output_inception_4a/output_0_split
I0403 16:51:43.885247 21523 net.cpp:425] inception_4a/output_inception_4a/output_0_split <- inception_4a/output
I0403 16:51:43.885268 21523 net.cpp:399] inception_4a/output_inception_4a/output_0_split -> inception_4a/output_inception_4a/output_0_split_0
I0403 16:51:43.885290 21523 net.cpp:399] inception_4a/output_inception_4a/output_0_split -> inception_4a/output_inception_4a/output_0_split_1
I0403 16:51:43.885310 21523 net.cpp:399] inception_4a/output_inception_4a/output_0_split -> inception_4a/output_inception_4a/output_0_split_2
I0403 16:51:43.885331 21523 net.cpp:399] inception_4a/output_inception_4a/output_0_split -> inception_4a/output_inception_4a/output_0_split_3
I0403 16:51:43.885352 21523 net.cpp:399] inception_4a/output_inception_4a/output_0_split -> inception_4a/output_inception_4a/output_0_split_4
I0403 16:51:43.885450 21523 net.cpp:141] Setting up inception_4a/output_inception_4a/output_0_split
I0403 16:51:43.885474 21523 net.cpp:148] Top shape: 24 512 14 14 (2408448)
I0403 16:51:43.885494 21523 net.cpp:148] Top shape: 24 512 14 14 (2408448)
I0403 16:51:43.885512 21523 net.cpp:148] Top shape: 24 512 14 14 (2408448)
I0403 16:51:43.885529 21523 net.cpp:148] Top shape: 24 512 14 14 (2408448)
I0403 16:51:43.885545 21523 net.cpp:148] Top shape: 24 512 14 14 (2408448)
I0403 16:51:43.885560 21523 net.cpp:156] Memory required for data: 944714784
I0403 16:51:43.885574 21523 layer_factory.hpp:77] Creating layer loss1/ave_pool
I0403 16:51:43.885593 21523 net.cpp:91] Creating Layer loss1/ave_pool
I0403 16:51:43.885609 21523 net.cpp:425] loss1/ave_pool <- inception_4a/output_inception_4a/output_0_split_0
I0403 16:51:43.885630 21523 net.cpp:399] loss1/ave_pool -> loss1/ave_pool
I0403 16:51:43.885849 21523 net.cpp:141] Setting up loss1/ave_pool
I0403 16:51:43.885876 21523 net.cpp:148] Top shape: 24 512 4 4 (196608)
I0403 16:51:43.885892 21523 net.cpp:156] Memory required for data: 945501216
I0403 16:51:43.885908 21523 layer_factory.hpp:77] Creating layer loss1/conv
I0403 16:51:43.885932 21523 net.cpp:91] Creating Layer loss1/conv
I0403 16:51:43.885951 21523 net.cpp:425] loss1/conv <- loss1/ave_pool
I0403 16:51:43.885972 21523 net.cpp:399] loss1/conv -> loss1/conv
I0403 16:51:43.887481 21523 net.cpp:141] Setting up loss1/conv
I0403 16:51:43.887511 21523 net.cpp:148] Top shape: 24 128 4 4 (49152)
I0403 16:51:43.887528 21523 net.cpp:156] Memory required for data: 945697824
I0403 16:51:43.887563 21523 layer_factory.hpp:77] Creating layer loss1/relu_conv
I0403 16:51:43.887585 21523 net.cpp:91] Creating Layer loss1/relu_conv
I0403 16:51:43.887603 21523 net.cpp:425] loss1/relu_conv <- loss1/conv
I0403 16:51:43.887620 21523 net.cpp:386] loss1/relu_conv -> loss1/conv (in-place)
I0403 16:51:43.887918 21523 net.cpp:141] Setting up loss1/relu_conv
I0403 16:51:43.887946 21523 net.cpp:148] Top shape: 24 128 4 4 (49152)
I0403 16:51:43.887962 21523 net.cpp:156] Memory required for data: 945894432
I0403 16:51:43.887979 21523 layer_factory.hpp:77] Creating layer loss1/fc
I0403 16:51:43.888020 21523 net.cpp:91] Creating Layer loss1/fc
I0403 16:51:43.888041 21523 net.cpp:425] loss1/fc <- loss1/conv
I0403 16:51:43.888069 21523 net.cpp:399] loss1/fc -> loss1/fc
I0403 16:51:43.906208 21523 net.cpp:141] Setting up loss1/fc
I0403 16:51:43.906265 21523 net.cpp:148] Top shape: 24 1024 (24576)
I0403 16:51:43.906281 21523 net.cpp:156] Memory required for data: 945992736
I0403 16:51:43.906303 21523 layer_factory.hpp:77] Creating layer loss1/relu_fc
I0403 16:51:43.906325 21523 net.cpp:91] Creating Layer loss1/relu_fc
I0403 16:51:43.906343 21523 net.cpp:425] loss1/relu_fc <- loss1/fc
I0403 16:51:43.906363 21523 net.cpp:386] loss1/relu_fc -> loss1/fc (in-place)
I0403 16:51:43.906575 21523 net.cpp:141] Setting up loss1/relu_fc
I0403 16:51:43.906604 21523 net.cpp:148] Top shape: 24 1024 (24576)
I0403 16:51:43.906620 21523 net.cpp:156] Memory required for data: 946091040
I0403 16:51:43.906635 21523 layer_factory.hpp:77] Creating layer loss1/drop_fc
I0403 16:51:43.906664 21523 net.cpp:91] Creating Layer loss1/drop_fc
I0403 16:51:43.906682 21523 net.cpp:425] loss1/drop_fc <- loss1/fc
I0403 16:51:43.906699 21523 net.cpp:386] loss1/drop_fc -> loss1/fc (in-place)
I0403 16:51:43.906756 21523 net.cpp:141] Setting up loss1/drop_fc
I0403 16:51:43.906781 21523 net.cpp:148] Top shape: 24 1024 (24576)
I0403 16:51:43.906796 21523 net.cpp:156] Memory required for data: 946189344
I0403 16:51:43.906811 21523 layer_factory.hpp:77] Creating layer loss1/classifier_plantvillage
I0403 16:51:43.906831 21523 net.cpp:91] Creating Layer loss1/classifier_plantvillage
I0403 16:51:43.906847 21523 net.cpp:425] loss1/classifier_plantvillage <- loss1/fc
I0403 16:51:43.906869 21523 net.cpp:399] loss1/classifier_plantvillage -> loss1/classifier_plantvillage
I0403 16:51:43.907821 21523 net.cpp:141] Setting up loss1/classifier_plantvillage
I0403 16:51:43.907850 21523 net.cpp:148] Top shape: 24 38 (912)
I0403 16:51:43.907866 21523 net.cpp:156] Memory required for data: 946192992
I0403 16:51:43.907884 21523 layer_factory.hpp:77] Creating layer loss1/classifier_plantvillage_loss1/classifier_plantvillage_0_split
I0403 16:51:43.907907 21523 net.cpp:91] Creating Layer loss1/classifier_plantvillage_loss1/classifier_plantvillage_0_split
I0403 16:51:43.907922 21523 net.cpp:425] loss1/classifier_plantvillage_loss1/classifier_plantvillage_0_split <- loss1/classifier_plantvillage
I0403 16:51:43.907941 21523 net.cpp:399] loss1/classifier_plantvillage_loss1/classifier_plantvillage_0_split -> loss1/classifier_plantvillage_loss1/classifier_plantvillage_0_split_0
I0403 16:51:43.907961 21523 net.cpp:399] loss1/classifier_plantvillage_loss1/classifier_plantvillage_0_split -> loss1/classifier_plantvillage_loss1/classifier_plantvillage_0_split_1
I0403 16:51:43.907981 21523 net.cpp:399] loss1/classifier_plantvillage_loss1/classifier_plantvillage_0_split -> loss1/classifier_plantvillage_loss1/classifier_plantvillage_0_split_2
I0403 16:51:43.908073 21523 net.cpp:141] Setting up loss1/classifier_plantvillage_loss1/classifier_plantvillage_0_split
I0403 16:51:43.908097 21523 net.cpp:148] Top shape: 24 38 (912)
I0403 16:51:43.908114 21523 net.cpp:148] Top shape: 24 38 (912)
I0403 16:51:43.908130 21523 net.cpp:148] Top shape: 24 38 (912)
I0403 16:51:43.908144 21523 net.cpp:156] Memory required for data: 946203936
I0403 16:51:43.908159 21523 layer_factory.hpp:77] Creating layer inception_4b/1x1
I0403 16:51:43.908184 21523 net.cpp:91] Creating Layer inception_4b/1x1
I0403 16:51:43.908224 21523 net.cpp:425] inception_4b/1x1 <- inception_4a/output_inception_4a/output_0_split_1
I0403 16:51:43.908246 21523 net.cpp:399] inception_4b/1x1 -> inception_4b/1x1
I0403 16:51:43.909970 21523 net.cpp:141] Setting up inception_4b/1x1
I0403 16:51:43.910007 21523 net.cpp:148] Top shape: 24 160 14 14 (752640)
I0403 16:51:43.910025 21523 net.cpp:156] Memory required for data: 949214496
I0403 16:51:43.910044 21523 layer_factory.hpp:77] Creating layer inception_4b/relu_1x1
I0403 16:51:43.910063 21523 net.cpp:91] Creating Layer inception_4b/relu_1x1
I0403 16:51:43.910079 21523 net.cpp:425] inception_4b/relu_1x1 <- inception_4b/1x1
I0403 16:51:43.910101 21523 net.cpp:386] inception_4b/relu_1x1 -> inception_4b/1x1 (in-place)
I0403 16:51:43.910284 21523 net.cpp:141] Setting up inception_4b/relu_1x1
I0403 16:51:43.910310 21523 net.cpp:148] Top shape: 24 160 14 14 (752640)
I0403 16:51:43.910325 21523 net.cpp:156] Memory required for data: 952225056
I0403 16:51:43.910339 21523 layer_factory.hpp:77] Creating layer inception_4b/3x3_reduce
I0403 16:51:43.910364 21523 net.cpp:91] Creating Layer inception_4b/3x3_reduce
I0403 16:51:43.910382 21523 net.cpp:425] inception_4b/3x3_reduce <- inception_4a/output_inception_4a/output_0_split_2
I0403 16:51:43.910404 21523 net.cpp:399] inception_4b/3x3_reduce -> inception_4b/3x3_reduce
I0403 16:51:43.911800 21523 net.cpp:141] Setting up inception_4b/3x3_reduce
I0403 16:51:43.911828 21523 net.cpp:148] Top shape: 24 112 14 14 (526848)
I0403 16:51:43.911844 21523 net.cpp:156] Memory required for data: 954332448
I0403 16:51:43.911864 21523 layer_factory.hpp:77] Creating layer inception_4b/relu_3x3_reduce
I0403 16:51:43.911881 21523 net.cpp:91] Creating Layer inception_4b/relu_3x3_reduce
I0403 16:51:43.911898 21523 net.cpp:425] inception_4b/relu_3x3_reduce <- inception_4b/3x3_reduce
I0403 16:51:43.911918 21523 net.cpp:386] inception_4b/relu_3x3_reduce -> inception_4b/3x3_reduce (in-place)
I0403 16:51:43.912216 21523 net.cpp:141] Setting up inception_4b/relu_3x3_reduce
I0403 16:51:43.912245 21523 net.cpp:148] Top shape: 24 112 14 14 (526848)
I0403 16:51:43.912261 21523 net.cpp:156] Memory required for data: 956439840
I0403 16:51:43.912276 21523 layer_factory.hpp:77] Creating layer inception_4b/3x3
I0403 16:51:43.912298 21523 net.cpp:91] Creating Layer inception_4b/3x3
I0403 16:51:43.912317 21523 net.cpp:425] inception_4b/3x3 <- inception_4b/3x3_reduce
I0403 16:51:43.912338 21523 net.cpp:399] inception_4b/3x3 -> inception_4b/3x3
I0403 16:51:43.915338 21523 net.cpp:141] Setting up inception_4b/3x3
I0403 16:51:43.915367 21523 net.cpp:148] Top shape: 24 224 14 14 (1053696)
I0403 16:51:43.915382 21523 net.cpp:156] Memory required for data: 960654624
I0403 16:51:43.915400 21523 layer_factory.hpp:77] Creating layer inception_4b/relu_3x3
I0403 16:51:43.915421 21523 net.cpp:91] Creating Layer inception_4b/relu_3x3
I0403 16:51:43.915437 21523 net.cpp:425] inception_4b/relu_3x3 <- inception_4b/3x3
I0403 16:51:43.915455 21523 net.cpp:386] inception_4b/relu_3x3 -> inception_4b/3x3 (in-place)
I0403 16:51:43.915635 21523 net.cpp:141] Setting up inception_4b/relu_3x3
I0403 16:51:43.915663 21523 net.cpp:148] Top shape: 24 224 14 14 (1053696)
I0403 16:51:43.915678 21523 net.cpp:156] Memory required for data: 964869408
I0403 16:51:43.915693 21523 layer_factory.hpp:77] Creating layer inception_4b/5x5_reduce
I0403 16:51:43.915716 21523 net.cpp:91] Creating Layer inception_4b/5x5_reduce
I0403 16:51:43.915735 21523 net.cpp:425] inception_4b/5x5_reduce <- inception_4a/output_inception_4a/output_0_split_3
I0403 16:51:43.915753 21523 net.cpp:399] inception_4b/5x5_reduce -> inception_4b/5x5_reduce
I0403 16:51:43.916844 21523 net.cpp:141] Setting up inception_4b/5x5_reduce
I0403 16:51:43.916873 21523 net.cpp:148] Top shape: 24 24 14 14 (112896)
I0403 16:51:43.916889 21523 net.cpp:156] Memory required for data: 965320992
I0403 16:51:43.916908 21523 layer_factory.hpp:77] Creating layer inception_4b/relu_5x5_reduce
I0403 16:51:43.916925 21523 net.cpp:91] Creating Layer inception_4b/relu_5x5_reduce
I0403 16:51:43.916957 21523 net.cpp:425] inception_4b/relu_5x5_reduce <- inception_4b/5x5_reduce
I0403 16:51:43.916977 21523 net.cpp:386] inception_4b/relu_5x5_reduce -> inception_4b/5x5_reduce (in-place)
I0403 16:51:43.917167 21523 net.cpp:141] Setting up inception_4b/relu_5x5_reduce
I0403 16:51:43.917192 21523 net.cpp:148] Top shape: 24 24 14 14 (112896)
I0403 16:51:43.917207 21523 net.cpp:156] Memory required for data: 965772576
I0403 16:51:43.917222 21523 layer_factory.hpp:77] Creating layer inception_4b/5x5
I0403 16:51:43.917244 21523 net.cpp:91] Creating Layer inception_4b/5x5
I0403 16:51:43.917261 21523 net.cpp:425] inception_4b/5x5 <- inception_4b/5x5_reduce
I0403 16:51:43.917282 21523 net.cpp:399] inception_4b/5x5 -> inception_4b/5x5
I0403 16:51:43.918524 21523 net.cpp:141] Setting up inception_4b/5x5
I0403 16:51:43.918555 21523 net.cpp:148] Top shape: 24 64 14 14 (301056)
I0403 16:51:43.918572 21523 net.cpp:156] Memory required for data: 966976800
I0403 16:51:43.918591 21523 layer_factory.hpp:77] Creating layer inception_4b/relu_5x5
I0403 16:51:43.918611 21523 net.cpp:91] Creating Layer inception_4b/relu_5x5
I0403 16:51:43.918627 21523 net.cpp:425] inception_4b/relu_5x5 <- inception_4b/5x5
I0403 16:51:43.918647 21523 net.cpp:386] inception_4b/relu_5x5 -> inception_4b/5x5 (in-place)
I0403 16:51:43.918934 21523 net.cpp:141] Setting up inception_4b/relu_5x5
I0403 16:51:43.918964 21523 net.cpp:148] Top shape: 24 64 14 14 (301056)
I0403 16:51:43.918980 21523 net.cpp:156] Memory required for data: 968181024
I0403 16:51:43.919003 21523 layer_factory.hpp:77] Creating layer inception_4b/pool
I0403 16:51:43.919021 21523 net.cpp:91] Creating Layer inception_4b/pool
I0403 16:51:43.919039 21523 net.cpp:425] inception_4b/pool <- inception_4a/output_inception_4a/output_0_split_4
I0403 16:51:43.919059 21523 net.cpp:399] inception_4b/pool -> inception_4b/pool
I0403 16:51:43.919126 21523 net.cpp:141] Setting up inception_4b/pool
I0403 16:51:43.919150 21523 net.cpp:148] Top shape: 24 512 14 14 (2408448)
I0403 16:51:43.919164 21523 net.cpp:156] Memory required for data: 977814816
I0403 16:51:43.919179 21523 layer_factory.hpp:77] Creating layer inception_4b/pool_proj
I0403 16:51:43.919203 21523 net.cpp:91] Creating Layer inception_4b/pool_proj
I0403 16:51:43.919220 21523 net.cpp:425] inception_4b/pool_proj <- inception_4b/pool
I0403 16:51:43.919241 21523 net.cpp:399] inception_4b/pool_proj -> inception_4b/pool_proj
I0403 16:51:43.920488 21523 net.cpp:141] Setting up inception_4b/pool_proj
I0403 16:51:43.920519 21523 net.cpp:148] Top shape: 24 64 14 14 (301056)
I0403 16:51:43.920536 21523 net.cpp:156] Memory required for data: 979019040
I0403 16:51:43.920554 21523 layer_factory.hpp:77] Creating layer inception_4b/relu_pool_proj
I0403 16:51:43.920573 21523 net.cpp:91] Creating Layer inception_4b/relu_pool_proj
I0403 16:51:43.920589 21523 net.cpp:425] inception_4b/relu_pool_proj <- inception_4b/pool_proj
I0403 16:51:43.920608 21523 net.cpp:386] inception_4b/relu_pool_proj -> inception_4b/pool_proj (in-place)
I0403 16:51:43.920786 21523 net.cpp:141] Setting up inception_4b/relu_pool_proj
I0403 16:51:43.920812 21523 net.cpp:148] Top shape: 24 64 14 14 (301056)
I0403 16:51:43.920827 21523 net.cpp:156] Memory required for data: 980223264
I0403 16:51:43.920842 21523 layer_factory.hpp:77] Creating layer inception_4b/output
I0403 16:51:43.920861 21523 net.cpp:91] Creating Layer inception_4b/output
I0403 16:51:43.920876 21523 net.cpp:425] inception_4b/output <- inception_4b/1x1
I0403 16:51:43.920892 21523 net.cpp:425] inception_4b/output <- inception_4b/3x3
I0403 16:51:43.920907 21523 net.cpp:425] inception_4b/output <- inception_4b/5x5
I0403 16:51:43.920922 21523 net.cpp:425] inception_4b/output <- inception_4b/pool_proj
I0403 16:51:43.920941 21523 net.cpp:399] inception_4b/output -> inception_4b/output
I0403 16:51:43.920994 21523 net.cpp:141] Setting up inception_4b/output
I0403 16:51:43.921033 21523 net.cpp:148] Top shape: 24 512 14 14 (2408448)
I0403 16:51:43.921059 21523 net.cpp:156] Memory required for data: 989857056
I0403 16:51:43.921088 21523 layer_factory.hpp:77] Creating layer inception_4b/output_inception_4b/output_0_split
I0403 16:51:43.921108 21523 net.cpp:91] Creating Layer inception_4b/output_inception_4b/output_0_split
I0403 16:51:43.921123 21523 net.cpp:425] inception_4b/output_inception_4b/output_0_split <- inception_4b/output
I0403 16:51:43.921141 21523 net.cpp:399] inception_4b/output_inception_4b/output_0_split -> inception_4b/output_inception_4b/output_0_split_0
I0403 16:51:43.921164 21523 net.cpp:399] inception_4b/output_inception_4b/output_0_split -> inception_4b/output_inception_4b/output_0_split_1
I0403 16:51:43.921186 21523 net.cpp:399] inception_4b/output_inception_4b/output_0_split -> inception_4b/output_inception_4b/output_0_split_2
I0403 16:51:43.921207 21523 net.cpp:399] inception_4b/output_inception_4b/output_0_split -> inception_4b/output_inception_4b/output_0_split_3
I0403 16:51:43.921294 21523 net.cpp:141] Setting up inception_4b/output_inception_4b/output_0_split
I0403 16:51:43.921319 21523 net.cpp:148] Top shape: 24 512 14 14 (2408448)
I0403 16:51:43.921345 21523 net.cpp:148] Top shape: 24 512 14 14 (2408448)
I0403 16:51:43.921361 21523 net.cpp:148] Top shape: 24 512 14 14 (2408448)
I0403 16:51:43.921377 21523 net.cpp:148] Top shape: 24 512 14 14 (2408448)
I0403 16:51:43.921391 21523 net.cpp:156] Memory required for data: 1028392224
I0403 16:51:43.921406 21523 layer_factory.hpp:77] Creating layer inception_4c/1x1
I0403 16:51:43.921430 21523 net.cpp:91] Creating Layer inception_4c/1x1
I0403 16:51:43.921448 21523 net.cpp:425] inception_4c/1x1 <- inception_4b/output_inception_4b/output_0_split_0
I0403 16:51:43.921468 21523 net.cpp:399] inception_4c/1x1 -> inception_4c/1x1
I0403 16:51:43.922936 21523 net.cpp:141] Setting up inception_4c/1x1
I0403 16:51:43.922965 21523 net.cpp:148] Top shape: 24 128 14 14 (602112)
I0403 16:51:43.922979 21523 net.cpp:156] Memory required for data: 1030800672
I0403 16:51:43.923004 21523 layer_factory.hpp:77] Creating layer inception_4c/relu_1x1
I0403 16:51:43.923027 21523 net.cpp:91] Creating Layer inception_4c/relu_1x1
I0403 16:51:43.923043 21523 net.cpp:425] inception_4c/relu_1x1 <- inception_4c/1x1
I0403 16:51:43.923060 21523 net.cpp:386] inception_4c/relu_1x1 -> inception_4c/1x1 (in-place)
I0403 16:51:43.923249 21523 net.cpp:141] Setting up inception_4c/relu_1x1
I0403 16:51:43.923274 21523 net.cpp:148] Top shape: 24 128 14 14 (602112)
I0403 16:51:43.923293 21523 net.cpp:156] Memory required for data: 1033209120
I0403 16:51:43.923308 21523 layer_factory.hpp:77] Creating layer inception_4c/3x3_reduce
I0403 16:51:43.923328 21523 net.cpp:91] Creating Layer inception_4c/3x3_reduce
I0403 16:51:43.923346 21523 net.cpp:425] inception_4c/3x3_reduce <- inception_4b/output_inception_4b/output_0_split_1
I0403 16:51:43.923367 21523 net.cpp:399] inception_4c/3x3_reduce -> inception_4c/3x3_reduce
I0403 16:51:43.925360 21523 net.cpp:141] Setting up inception_4c/3x3_reduce
I0403 16:51:43.925391 21523 net.cpp:148] Top shape: 24 128 14 14 (602112)
I0403 16:51:43.925408 21523 net.cpp:156] Memory required for data: 1035617568
I0403 16:51:43.925427 21523 layer_factory.hpp:77] Creating layer inception_4c/relu_3x3_reduce
I0403 16:51:43.925446 21523 net.cpp:91] Creating Layer inception_4c/relu_3x3_reduce
I0403 16:51:43.925462 21523 net.cpp:425] inception_4c/relu_3x3_reduce <- inception_4c/3x3_reduce
I0403 16:51:43.925479 21523 net.cpp:386] inception_4c/relu_3x3_reduce -> inception_4c/3x3_reduce (in-place)
I0403 16:51:43.925772 21523 net.cpp:141] Setting up inception_4c/relu_3x3_reduce
I0403 16:51:43.925801 21523 net.cpp:148] Top shape: 24 128 14 14 (602112)
I0403 16:51:43.925817 21523 net.cpp:156] Memory required for data: 1038026016
I0403 16:51:43.925833 21523 layer_factory.hpp:77] Creating layer inception_4c/3x3
I0403 16:51:43.925856 21523 net.cpp:91] Creating Layer inception_4c/3x3
I0403 16:51:43.925875 21523 net.cpp:425] inception_4c/3x3 <- inception_4c/3x3_reduce
I0403 16:51:43.925894 21523 net.cpp:399] inception_4c/3x3 -> inception_4c/3x3
I0403 16:51:43.929626 21523 net.cpp:141] Setting up inception_4c/3x3
I0403 16:51:43.929671 21523 net.cpp:148] Top shape: 24 256 14 14 (1204224)
I0403 16:51:43.929687 21523 net.cpp:156] Memory required for data: 1042842912
I0403 16:51:43.929723 21523 layer_factory.hpp:77] Creating layer inception_4c/relu_3x3
I0403 16:51:43.929744 21523 net.cpp:91] Creating Layer inception_4c/relu_3x3
I0403 16:51:43.929759 21523 net.cpp:425] inception_4c/relu_3x3 <- inception_4c/3x3
I0403 16:51:43.929780 21523 net.cpp:386] inception_4c/relu_3x3 -> inception_4c/3x3 (in-place)
I0403 16:51:43.929965 21523 net.cpp:141] Setting up inception_4c/relu_3x3
I0403 16:51:43.929998 21523 net.cpp:148] Top shape: 24 256 14 14 (1204224)
I0403 16:51:43.930014 21523 net.cpp:156] Memory required for data: 1047659808
I0403 16:51:43.930029 21523 layer_factory.hpp:77] Creating layer inception_4c/5x5_reduce
I0403 16:51:43.930054 21523 net.cpp:91] Creating Layer inception_4c/5x5_reduce
I0403 16:51:43.930073 21523 net.cpp:425] inception_4c/5x5_reduce <- inception_4b/output_inception_4b/output_0_split_2
I0403 16:51:43.930094 21523 net.cpp:399] inception_4c/5x5_reduce -> inception_4c/5x5_reduce
I0403 16:51:43.931217 21523 net.cpp:141] Setting up inception_4c/5x5_reduce
I0403 16:51:43.931248 21523 net.cpp:148] Top shape: 24 24 14 14 (112896)
I0403 16:51:43.931265 21523 net.cpp:156] Memory required for data: 1048111392
I0403 16:51:43.931284 21523 layer_factory.hpp:77] Creating layer inception_4c/relu_5x5_reduce
I0403 16:51:43.931303 21523 net.cpp:91] Creating Layer inception_4c/relu_5x5_reduce
I0403 16:51:43.931319 21523 net.cpp:425] inception_4c/relu_5x5_reduce <- inception_4c/5x5_reduce
I0403 16:51:43.931339 21523 net.cpp:386] inception_4c/relu_5x5_reduce -> inception_4c/5x5_reduce (in-place)
I0403 16:51:43.931529 21523 net.cpp:141] Setting up inception_4c/relu_5x5_reduce
I0403 16:51:43.931555 21523 net.cpp:148] Top shape: 24 24 14 14 (112896)
I0403 16:51:43.931570 21523 net.cpp:156] Memory required for data: 1048562976
I0403 16:51:43.931584 21523 layer_factory.hpp:77] Creating layer inception_4c/5x5
I0403 16:51:43.931607 21523 net.cpp:91] Creating Layer inception_4c/5x5
I0403 16:51:43.931625 21523 net.cpp:425] inception_4c/5x5 <- inception_4c/5x5_reduce
I0403 16:51:43.931646 21523 net.cpp:399] inception_4c/5x5 -> inception_4c/5x5
I0403 16:51:43.932919 21523 net.cpp:141] Setting up inception_4c/5x5
I0403 16:51:43.932948 21523 net.cpp:148] Top shape: 24 64 14 14 (301056)
I0403 16:51:43.932965 21523 net.cpp:156] Memory required for data: 1049767200
I0403 16:51:43.932982 21523 layer_factory.hpp:77] Creating layer inception_4c/relu_5x5
I0403 16:51:43.933008 21523 net.cpp:91] Creating Layer inception_4c/relu_5x5
I0403 16:51:43.933025 21523 net.cpp:425] inception_4c/relu_5x5 <- inception_4c/5x5
I0403 16:51:43.933046 21523 net.cpp:386] inception_4c/relu_5x5 -> inception_4c/5x5 (in-place)
I0403 16:51:43.933344 21523 net.cpp:141] Setting up inception_4c/relu_5x5
I0403 16:51:43.933372 21523 net.cpp:148] Top shape: 24 64 14 14 (301056)
I0403 16:51:43.933388 21523 net.cpp:156] Memory required for data: 1050971424
I0403 16:51:43.933403 21523 layer_factory.hpp:77] Creating layer inception_4c/pool
I0403 16:51:43.933421 21523 net.cpp:91] Creating Layer inception_4c/pool
I0403 16:51:43.933439 21523 net.cpp:425] inception_4c/pool <- inception_4b/output_inception_4b/output_0_split_3
I0403 16:51:43.933459 21523 net.cpp:399] inception_4c/pool -> inception_4c/pool
I0403 16:51:43.933526 21523 net.cpp:141] Setting up inception_4c/pool
I0403 16:51:43.933550 21523 net.cpp:148] Top shape: 24 512 14 14 (2408448)
I0403 16:51:43.933565 21523 net.cpp:156] Memory required for data: 1060605216
I0403 16:51:43.933580 21523 layer_factory.hpp:77] Creating layer inception_4c/pool_proj
I0403 16:51:43.933605 21523 net.cpp:91] Creating Layer inception_4c/pool_proj
I0403 16:51:43.933622 21523 net.cpp:425] inception_4c/pool_proj <- inception_4c/pool
I0403 16:51:43.933641 21523 net.cpp:399] inception_4c/pool_proj -> inception_4c/pool_proj
I0403 16:51:43.934893 21523 net.cpp:141] Setting up inception_4c/pool_proj
I0403 16:51:43.934924 21523 net.cpp:148] Top shape: 24 64 14 14 (301056)
I0403 16:51:43.934954 21523 net.cpp:156] Memory required for data: 1061809440
I0403 16:51:43.934974 21523 layer_factory.hpp:77] Creating layer inception_4c/relu_pool_proj
I0403 16:51:43.935000 21523 net.cpp:91] Creating Layer inception_4c/relu_pool_proj
I0403 16:51:43.935019 21523 net.cpp:425] inception_4c/relu_pool_proj <- inception_4c/pool_proj
I0403 16:51:43.935039 21523 net.cpp:386] inception_4c/relu_pool_proj -> inception_4c/pool_proj (in-place)
I0403 16:51:43.935225 21523 net.cpp:141] Setting up inception_4c/relu_pool_proj
I0403 16:51:43.935251 21523 net.cpp:148] Top shape: 24 64 14 14 (301056)
I0403 16:51:43.935266 21523 net.cpp:156] Memory required for data: 1063013664
I0403 16:51:43.935281 21523 layer_factory.hpp:77] Creating layer inception_4c/output
I0403 16:51:43.935298 21523 net.cpp:91] Creating Layer inception_4c/output
I0403 16:51:43.935314 21523 net.cpp:425] inception_4c/output <- inception_4c/1x1
I0403 16:51:43.935331 21523 net.cpp:425] inception_4c/output <- inception_4c/3x3
I0403 16:51:43.935348 21523 net.cpp:425] inception_4c/output <- inception_4c/5x5
I0403 16:51:43.935364 21523 net.cpp:425] inception_4c/output <- inception_4c/pool_proj
I0403 16:51:43.935384 21523 net.cpp:399] inception_4c/output -> inception_4c/output
I0403 16:51:43.935431 21523 net.cpp:141] Setting up inception_4c/output
I0403 16:51:43.935457 21523 net.cpp:148] Top shape: 24 512 14 14 (2408448)
I0403 16:51:43.935472 21523 net.cpp:156] Memory required for data: 1072647456
I0403 16:51:43.935487 21523 layer_factory.hpp:77] Creating layer inception_4c/output_inception_4c/output_0_split
I0403 16:51:43.935505 21523 net.cpp:91] Creating Layer inception_4c/output_inception_4c/output_0_split
I0403 16:51:43.935521 21523 net.cpp:425] inception_4c/output_inception_4c/output_0_split <- inception_4c/output
I0403 16:51:43.935539 21523 net.cpp:399] inception_4c/output_inception_4c/output_0_split -> inception_4c/output_inception_4c/output_0_split_0
I0403 16:51:43.935560 21523 net.cpp:399] inception_4c/output_inception_4c/output_0_split -> inception_4c/output_inception_4c/output_0_split_1
I0403 16:51:43.935581 21523 net.cpp:399] inception_4c/output_inception_4c/output_0_split -> inception_4c/output_inception_4c/output_0_split_2
I0403 16:51:43.935602 21523 net.cpp:399] inception_4c/output_inception_4c/output_0_split -> inception_4c/output_inception_4c/output_0_split_3
I0403 16:51:43.935690 21523 net.cpp:141] Setting up inception_4c/output_inception_4c/output_0_split
I0403 16:51:43.935714 21523 net.cpp:148] Top shape: 24 512 14 14 (2408448)
I0403 16:51:43.935730 21523 net.cpp:148] Top shape: 24 512 14 14 (2408448)
I0403 16:51:43.935746 21523 net.cpp:148] Top shape: 24 512 14 14 (2408448)
I0403 16:51:43.935762 21523 net.cpp:148] Top shape: 24 512 14 14 (2408448)
I0403 16:51:43.935776 21523 net.cpp:156] Memory required for data: 1111182624
I0403 16:51:43.935791 21523 layer_factory.hpp:77] Creating layer inception_4d/1x1
I0403 16:51:43.935816 21523 net.cpp:91] Creating Layer inception_4d/1x1
I0403 16:51:43.935832 21523 net.cpp:425] inception_4d/1x1 <- inception_4c/output_inception_4c/output_0_split_0
I0403 16:51:43.935853 21523 net.cpp:399] inception_4d/1x1 -> inception_4d/1x1
I0403 16:51:43.937275 21523 net.cpp:141] Setting up inception_4d/1x1
I0403 16:51:43.937304 21523 net.cpp:148] Top shape: 24 112 14 14 (526848)
I0403 16:51:43.937320 21523 net.cpp:156] Memory required for data: 1113290016
I0403 16:51:43.937340 21523 layer_factory.hpp:77] Creating layer inception_4d/relu_1x1
I0403 16:51:43.937361 21523 net.cpp:91] Creating Layer inception_4d/relu_1x1
I0403 16:51:43.937377 21523 net.cpp:425] inception_4d/relu_1x1 <- inception_4d/1x1
I0403 16:51:43.937396 21523 net.cpp:386] inception_4d/relu_1x1 -> inception_4d/1x1 (in-place)
I0403 16:51:43.937585 21523 net.cpp:141] Setting up inception_4d/relu_1x1
I0403 16:51:43.937613 21523 net.cpp:148] Top shape: 24 112 14 14 (526848)
I0403 16:51:43.937628 21523 net.cpp:156] Memory required for data: 1115397408
I0403 16:51:43.937644 21523 layer_factory.hpp:77] Creating layer inception_4d/3x3_reduce
I0403 16:51:43.937681 21523 net.cpp:91] Creating Layer inception_4d/3x3_reduce
I0403 16:51:43.937700 21523 net.cpp:425] inception_4d/3x3_reduce <- inception_4c/output_inception_4c/output_0_split_1
I0403 16:51:43.937721 21523 net.cpp:399] inception_4d/3x3_reduce -> inception_4d/3x3_reduce
I0403 16:51:43.939294 21523 net.cpp:141] Setting up inception_4d/3x3_reduce
I0403 16:51:43.939322 21523 net.cpp:148] Top shape: 24 144 14 14 (677376)
I0403 16:51:43.939338 21523 net.cpp:156] Memory required for data: 1118106912
I0403 16:51:43.939357 21523 layer_factory.hpp:77] Creating layer inception_4d/relu_3x3_reduce
I0403 16:51:43.939378 21523 net.cpp:91] Creating Layer inception_4d/relu_3x3_reduce
I0403 16:51:43.939399 21523 net.cpp:425] inception_4d/relu_3x3_reduce <- inception_4d/3x3_reduce
I0403 16:51:43.939415 21523 net.cpp:386] inception_4d/relu_3x3_reduce -> inception_4d/3x3_reduce (in-place)
I0403 16:51:43.939721 21523 net.cpp:141] Setting up inception_4d/relu_3x3_reduce
I0403 16:51:43.939746 21523 net.cpp:148] Top shape: 24 144 14 14 (677376)
I0403 16:51:43.939761 21523 net.cpp:156] Memory required for data: 1120816416
I0403 16:51:43.939776 21523 layer_factory.hpp:77] Creating layer inception_4d/3x3
I0403 16:51:43.939800 21523 net.cpp:91] Creating Layer inception_4d/3x3
I0403 16:51:43.939816 21523 net.cpp:425] inception_4d/3x3 <- inception_4d/3x3_reduce
I0403 16:51:43.939837 21523 net.cpp:399] inception_4d/3x3 -> inception_4d/3x3
I0403 16:51:43.944017 21523 net.cpp:141] Setting up inception_4d/3x3
I0403 16:51:43.944044 21523 net.cpp:148] Top shape: 24 288 14 14 (1354752)
I0403 16:51:43.944059 21523 net.cpp:156] Memory required for data: 1126235424
I0403 16:51:43.944079 21523 layer_factory.hpp:77] Creating layer inception_4d/relu_3x3
I0403 16:51:43.944100 21523 net.cpp:91] Creating Layer inception_4d/relu_3x3
I0403 16:51:43.944115 21523 net.cpp:425] inception_4d/relu_3x3 <- inception_4d/3x3
I0403 16:51:43.944131 21523 net.cpp:386] inception_4d/relu_3x3 -> inception_4d/3x3 (in-place)
I0403 16:51:43.944310 21523 net.cpp:141] Setting up inception_4d/relu_3x3
I0403 16:51:43.944336 21523 net.cpp:148] Top shape: 24 288 14 14 (1354752)
I0403 16:51:43.944355 21523 net.cpp:156] Memory required for data: 1131654432
I0403 16:51:43.944368 21523 layer_factory.hpp:77] Creating layer inception_4d/5x5_reduce
I0403 16:51:43.944391 21523 net.cpp:91] Creating Layer inception_4d/5x5_reduce
I0403 16:51:43.944407 21523 net.cpp:425] inception_4d/5x5_reduce <- inception_4c/output_inception_4c/output_0_split_2
I0403 16:51:43.944425 21523 net.cpp:399] inception_4d/5x5_reduce -> inception_4d/5x5_reduce
I0403 16:51:43.945546 21523 net.cpp:141] Setting up inception_4d/5x5_reduce
I0403 16:51:43.945574 21523 net.cpp:148] Top shape: 24 32 14 14 (150528)
I0403 16:51:43.945588 21523 net.cpp:156] Memory required for data: 1132256544
I0403 16:51:43.945606 21523 layer_factory.hpp:77] Creating layer inception_4d/relu_5x5_reduce
I0403 16:51:43.945626 21523 net.cpp:91] Creating Layer inception_4d/relu_5x5_reduce
I0403 16:51:43.945643 21523 net.cpp:425] inception_4d/relu_5x5_reduce <- inception_4d/5x5_reduce
I0403 16:51:43.945660 21523 net.cpp:386] inception_4d/relu_5x5_reduce -> inception_4d/5x5_reduce (in-place)
I0403 16:51:43.945838 21523 net.cpp:141] Setting up inception_4d/relu_5x5_reduce
I0403 16:51:43.945864 21523 net.cpp:148] Top shape: 24 32 14 14 (150528)
I0403 16:51:43.945879 21523 net.cpp:156] Memory required for data: 1132858656
I0403 16:51:43.945894 21523 layer_factory.hpp:77] Creating layer inception_4d/5x5
I0403 16:51:43.945914 21523 net.cpp:91] Creating Layer inception_4d/5x5
I0403 16:51:43.945931 21523 net.cpp:425] inception_4d/5x5 <- inception_4d/5x5_reduce
I0403 16:51:43.945951 21523 net.cpp:399] inception_4d/5x5 -> inception_4d/5x5
I0403 16:51:43.947394 21523 net.cpp:141] Setting up inception_4d/5x5
I0403 16:51:43.947422 21523 net.cpp:148] Top shape: 24 64 14 14 (301056)
I0403 16:51:43.947437 21523 net.cpp:156] Memory required for data: 1134062880
I0403 16:51:43.947454 21523 layer_factory.hpp:77] Creating layer inception_4d/relu_5x5
I0403 16:51:43.947486 21523 net.cpp:91] Creating Layer inception_4d/relu_5x5
I0403 16:51:43.947504 21523 net.cpp:425] inception_4d/relu_5x5 <- inception_4d/5x5
I0403 16:51:43.947523 21523 net.cpp:386] inception_4d/relu_5x5 -> inception_4d/5x5 (in-place)
I0403 16:51:43.947816 21523 net.cpp:141] Setting up inception_4d/relu_5x5
I0403 16:51:43.947841 21523 net.cpp:148] Top shape: 24 64 14 14 (301056)
I0403 16:51:43.947856 21523 net.cpp:156] Memory required for data: 1135267104
I0403 16:51:43.947870 21523 layer_factory.hpp:77] Creating layer inception_4d/pool
I0403 16:51:43.947887 21523 net.cpp:91] Creating Layer inception_4d/pool
I0403 16:51:43.947902 21523 net.cpp:425] inception_4d/pool <- inception_4c/output_inception_4c/output_0_split_3
I0403 16:51:43.947922 21523 net.cpp:399] inception_4d/pool -> inception_4d/pool
I0403 16:51:43.947995 21523 net.cpp:141] Setting up inception_4d/pool
I0403 16:51:43.948020 21523 net.cpp:148] Top shape: 24 512 14 14 (2408448)
I0403 16:51:43.948035 21523 net.cpp:156] Memory required for data: 1144900896
I0403 16:51:43.948048 21523 layer_factory.hpp:77] Creating layer inception_4d/pool_proj
I0403 16:51:43.948078 21523 net.cpp:91] Creating Layer inception_4d/pool_proj
I0403 16:51:43.948096 21523 net.cpp:425] inception_4d/pool_proj <- inception_4d/pool
I0403 16:51:43.948113 21523 net.cpp:399] inception_4d/pool_proj -> inception_4d/pool_proj
I0403 16:51:43.949827 21523 net.cpp:141] Setting up inception_4d/pool_proj
I0403 16:51:43.949856 21523 net.cpp:148] Top shape: 24 64 14 14 (301056)
I0403 16:51:43.949872 21523 net.cpp:156] Memory required for data: 1146105120
I0403 16:51:43.949890 21523 layer_factory.hpp:77] Creating layer inception_4d/relu_pool_proj
I0403 16:51:43.949909 21523 net.cpp:91] Creating Layer inception_4d/relu_pool_proj
I0403 16:51:43.949924 21523 net.cpp:425] inception_4d/relu_pool_proj <- inception_4d/pool_proj
I0403 16:51:43.949940 21523 net.cpp:386] inception_4d/relu_pool_proj -> inception_4d/pool_proj (in-place)
I0403 16:51:43.950127 21523 net.cpp:141] Setting up inception_4d/relu_pool_proj
I0403 16:51:43.950153 21523 net.cpp:148] Top shape: 24 64 14 14 (301056)
I0403 16:51:43.950168 21523 net.cpp:156] Memory required for data: 1147309344
I0403 16:51:43.950183 21523 layer_factory.hpp:77] Creating layer inception_4d/output
I0403 16:51:43.950199 21523 net.cpp:91] Creating Layer inception_4d/output
I0403 16:51:43.950214 21523 net.cpp:425] inception_4d/output <- inception_4d/1x1
I0403 16:51:43.950230 21523 net.cpp:425] inception_4d/output <- inception_4d/3x3
I0403 16:51:43.950245 21523 net.cpp:425] inception_4d/output <- inception_4d/5x5
I0403 16:51:43.950261 21523 net.cpp:425] inception_4d/output <- inception_4d/pool_proj
I0403 16:51:43.950279 21523 net.cpp:399] inception_4d/output -> inception_4d/output
I0403 16:51:43.950325 21523 net.cpp:141] Setting up inception_4d/output
I0403 16:51:43.950348 21523 net.cpp:148] Top shape: 24 528 14 14 (2483712)
I0403 16:51:43.950362 21523 net.cpp:156] Memory required for data: 1157244192
I0403 16:51:43.950376 21523 layer_factory.hpp:77] Creating layer inception_4d/output_inception_4d/output_0_split
I0403 16:51:43.950397 21523 net.cpp:91] Creating Layer inception_4d/output_inception_4d/output_0_split
I0403 16:51:43.950412 21523 net.cpp:425] inception_4d/output_inception_4d/output_0_split <- inception_4d/output
I0403 16:51:43.950429 21523 net.cpp:399] inception_4d/output_inception_4d/output_0_split -> inception_4d/output_inception_4d/output_0_split_0
I0403 16:51:43.950451 21523 net.cpp:399] inception_4d/output_inception_4d/output_0_split -> inception_4d/output_inception_4d/output_0_split_1
I0403 16:51:43.950472 21523 net.cpp:399] inception_4d/output_inception_4d/output_0_split -> inception_4d/output_inception_4d/output_0_split_2
I0403 16:51:43.950491 21523 net.cpp:399] inception_4d/output_inception_4d/output_0_split -> inception_4d/output_inception_4d/output_0_split_3
I0403 16:51:43.950510 21523 net.cpp:399] inception_4d/output_inception_4d/output_0_split -> inception_4d/output_inception_4d/output_0_split_4
I0403 16:51:43.950608 21523 net.cpp:141] Setting up inception_4d/output_inception_4d/output_0_split
I0403 16:51:43.950642 21523 net.cpp:148] Top shape: 24 528 14 14 (2483712)
I0403 16:51:43.950659 21523 net.cpp:148] Top shape: 24 528 14 14 (2483712)
I0403 16:51:43.950673 21523 net.cpp:148] Top shape: 24 528 14 14 (2483712)
I0403 16:51:43.950688 21523 net.cpp:148] Top shape: 24 528 14 14 (2483712)
I0403 16:51:43.950703 21523 net.cpp:148] Top shape: 24 528 14 14 (2483712)
I0403 16:51:43.950716 21523 net.cpp:156] Memory required for data: 1206918432
I0403 16:51:43.950731 21523 layer_factory.hpp:77] Creating layer loss2/ave_pool
I0403 16:51:43.950750 21523 net.cpp:91] Creating Layer loss2/ave_pool
I0403 16:51:43.950767 21523 net.cpp:425] loss2/ave_pool <- inception_4d/output_inception_4d/output_0_split_0
I0403 16:51:43.950783 21523 net.cpp:399] loss2/ave_pool -> loss2/ave_pool
I0403 16:51:43.951092 21523 net.cpp:141] Setting up loss2/ave_pool
I0403 16:51:43.951120 21523 net.cpp:148] Top shape: 24 528 4 4 (202752)
I0403 16:51:43.951135 21523 net.cpp:156] Memory required for data: 1207729440
I0403 16:51:43.951150 21523 layer_factory.hpp:77] Creating layer loss2/conv
I0403 16:51:43.951171 21523 net.cpp:91] Creating Layer loss2/conv
I0403 16:51:43.951187 21523 net.cpp:425] loss2/conv <- loss2/ave_pool
I0403 16:51:43.951208 21523 net.cpp:399] loss2/conv -> loss2/conv
I0403 16:51:43.953055 21523 net.cpp:141] Setting up loss2/conv
I0403 16:51:43.953083 21523 net.cpp:148] Top shape: 24 128 4 4 (49152)
I0403 16:51:43.953099 21523 net.cpp:156] Memory required for data: 1207926048
I0403 16:51:43.953119 21523 layer_factory.hpp:77] Creating layer loss2/relu_conv
I0403 16:51:43.953136 21523 net.cpp:91] Creating Layer loss2/relu_conv
I0403 16:51:43.953152 21523 net.cpp:425] loss2/relu_conv <- loss2/conv
I0403 16:51:43.953172 21523 net.cpp:386] loss2/relu_conv -> loss2/conv (in-place)
I0403 16:51:43.953483 21523 net.cpp:141] Setting up loss2/relu_conv
I0403 16:51:43.953521 21523 net.cpp:148] Top shape: 24 128 4 4 (49152)
I0403 16:51:43.953536 21523 net.cpp:156] Memory required for data: 1208122656
I0403 16:51:43.953550 21523 layer_factory.hpp:77] Creating layer loss2/fc
I0403 16:51:43.953580 21523 net.cpp:91] Creating Layer loss2/fc
I0403 16:51:43.953598 21523 net.cpp:425] loss2/fc <- loss2/conv
I0403 16:51:43.953626 21523 net.cpp:399] loss2/fc -> loss2/fc
I0403 16:51:43.971312 21523 net.cpp:141] Setting up loss2/fc
I0403 16:51:43.971360 21523 net.cpp:148] Top shape: 24 1024 (24576)
I0403 16:51:43.971376 21523 net.cpp:156] Memory required for data: 1208220960
I0403 16:51:43.971396 21523 layer_factory.hpp:77] Creating layer loss2/relu_fc
I0403 16:51:43.971418 21523 net.cpp:91] Creating Layer loss2/relu_fc
I0403 16:51:43.971436 21523 net.cpp:425] loss2/relu_fc <- loss2/fc
I0403 16:51:43.971454 21523 net.cpp:386] loss2/relu_fc -> loss2/fc (in-place)
I0403 16:51:43.971787 21523 net.cpp:141] Setting up loss2/relu_fc
I0403 16:51:43.971817 21523 net.cpp:148] Top shape: 24 1024 (24576)
I0403 16:51:43.971834 21523 net.cpp:156] Memory required for data: 1208319264
I0403 16:51:43.971849 21523 layer_factory.hpp:77] Creating layer loss2/drop_fc
I0403 16:51:43.971868 21523 net.cpp:91] Creating Layer loss2/drop_fc
I0403 16:51:43.971884 21523 net.cpp:425] loss2/drop_fc <- loss2/fc
I0403 16:51:43.971900 21523 net.cpp:386] loss2/drop_fc -> loss2/fc (in-place)
I0403 16:51:43.971951 21523 net.cpp:141] Setting up loss2/drop_fc
I0403 16:51:43.971976 21523 net.cpp:148] Top shape: 24 1024 (24576)
I0403 16:51:43.972012 21523 net.cpp:156] Memory required for data: 1208417568
I0403 16:51:43.972028 21523 layer_factory.hpp:77] Creating layer loss2/classifier_plantvillage
I0403 16:51:43.972053 21523 net.cpp:91] Creating Layer loss2/classifier_plantvillage
I0403 16:51:43.972070 21523 net.cpp:425] loss2/classifier_plantvillage <- loss2/fc
I0403 16:51:43.972090 21523 net.cpp:399] loss2/classifier_plantvillage -> loss2/classifier_plantvillage
I0403 16:51:43.972513 21523 net.cpp:141] Setting up loss2/classifier_plantvillage
I0403 16:51:43.972539 21523 net.cpp:148] Top shape: 24 38 (912)
I0403 16:51:43.972555 21523 net.cpp:156] Memory required for data: 1208421216
I0403 16:51:43.972599 21523 layer_factory.hpp:77] Creating layer loss2/classifier_plantvillage_loss2/classifier_plantvillage_0_split
I0403 16:51:43.972618 21523 net.cpp:91] Creating Layer loss2/classifier_plantvillage_loss2/classifier_plantvillage_0_split
I0403 16:51:43.972635 21523 net.cpp:425] loss2/classifier_plantvillage_loss2/classifier_plantvillage_0_split <- loss2/classifier_plantvillage
I0403 16:51:43.972656 21523 net.cpp:399] loss2/classifier_plantvillage_loss2/classifier_plantvillage_0_split -> loss2/classifier_plantvillage_loss2/classifier_plantvillage_0_split_0
I0403 16:51:43.972678 21523 net.cpp:399] loss2/classifier_plantvillage_loss2/classifier_plantvillage_0_split -> loss2/classifier_plantvillage_loss2/classifier_plantvillage_0_split_1
I0403 16:51:43.972699 21523 net.cpp:399] loss2/classifier_plantvillage_loss2/classifier_plantvillage_0_split -> loss2/classifier_plantvillage_loss2/classifier_plantvillage_0_split_2
I0403 16:51:43.972779 21523 net.cpp:141] Setting up loss2/classifier_plantvillage_loss2/classifier_plantvillage_0_split
I0403 16:51:43.972805 21523 net.cpp:148] Top shape: 24 38 (912)
I0403 16:51:43.972821 21523 net.cpp:148] Top shape: 24 38 (912)
I0403 16:51:43.972837 21523 net.cpp:148] Top shape: 24 38 (912)
I0403 16:51:43.972852 21523 net.cpp:156] Memory required for data: 1208432160
I0403 16:51:43.972867 21523 layer_factory.hpp:77] Creating layer inception_4e/1x1
I0403 16:51:43.972888 21523 net.cpp:91] Creating Layer inception_4e/1x1
I0403 16:51:43.972906 21523 net.cpp:425] inception_4e/1x1 <- inception_4d/output_inception_4d/output_0_split_1
I0403 16:51:43.972925 21523 net.cpp:399] inception_4e/1x1 -> inception_4e/1x1
I0403 16:51:43.974860 21523 net.cpp:141] Setting up inception_4e/1x1
I0403 16:51:43.974890 21523 net.cpp:148] Top shape: 24 256 14 14 (1204224)
I0403 16:51:43.974907 21523 net.cpp:156] Memory required for data: 1213249056
I0403 16:51:43.974927 21523 layer_factory.hpp:77] Creating layer inception_4e/relu_1x1
I0403 16:51:43.974946 21523 net.cpp:91] Creating Layer inception_4e/relu_1x1
I0403 16:51:43.974963 21523 net.cpp:425] inception_4e/relu_1x1 <- inception_4e/1x1
I0403 16:51:43.974984 21523 net.cpp:386] inception_4e/relu_1x1 -> inception_4e/1x1 (in-place)
I0403 16:51:43.975320 21523 net.cpp:141] Setting up inception_4e/relu_1x1
I0403 16:51:43.975348 21523 net.cpp:148] Top shape: 24 256 14 14 (1204224)
I0403 16:51:43.975363 21523 net.cpp:156] Memory required for data: 1218065952
I0403 16:51:43.975379 21523 layer_factory.hpp:77] Creating layer inception_4e/3x3_reduce
I0403 16:51:43.975405 21523 net.cpp:91] Creating Layer inception_4e/3x3_reduce
I0403 16:51:43.975424 21523 net.cpp:425] inception_4e/3x3_reduce <- inception_4d/output_inception_4d/output_0_split_2
I0403 16:51:43.975445 21523 net.cpp:399] inception_4e/3x3_reduce -> inception_4e/3x3_reduce
I0403 16:51:43.977653 21523 net.cpp:141] Setting up inception_4e/3x3_reduce
I0403 16:51:43.977685 21523 net.cpp:148] Top shape: 24 160 14 14 (752640)
I0403 16:51:43.977702 21523 net.cpp:156] Memory required for data: 1221076512
I0403 16:51:43.977721 21523 layer_factory.hpp:77] Creating layer inception_4e/relu_3x3_reduce
I0403 16:51:43.977740 21523 net.cpp:91] Creating Layer inception_4e/relu_3x3_reduce
I0403 16:51:43.977756 21523 net.cpp:425] inception_4e/relu_3x3_reduce <- inception_4e/3x3_reduce
I0403 16:51:43.977776 21523 net.cpp:386] inception_4e/relu_3x3_reduce -> inception_4e/3x3_reduce (in-place)
I0403 16:51:43.977967 21523 net.cpp:141] Setting up inception_4e/relu_3x3_reduce
I0403 16:51:43.978005 21523 net.cpp:148] Top shape: 24 160 14 14 (752640)
I0403 16:51:43.978024 21523 net.cpp:156] Memory required for data: 1224087072
I0403 16:51:43.978039 21523 layer_factory.hpp:77] Creating layer inception_4e/3x3
I0403 16:51:43.978061 21523 net.cpp:91] Creating Layer inception_4e/3x3
I0403 16:51:43.978080 21523 net.cpp:425] inception_4e/3x3 <- inception_4e/3x3_reduce
I0403 16:51:43.978102 21523 net.cpp:399] inception_4e/3x3 -> inception_4e/3x3
I0403 16:51:43.983266 21523 net.cpp:141] Setting up inception_4e/3x3
I0403 16:51:43.983312 21523 net.cpp:148] Top shape: 24 320 14 14 (1505280)
I0403 16:51:43.983328 21523 net.cpp:156] Memory required for data: 1230108192
I0403 16:51:43.983347 21523 layer_factory.hpp:77] Creating layer inception_4e/relu_3x3
I0403 16:51:43.983368 21523 net.cpp:91] Creating Layer inception_4e/relu_3x3
I0403 16:51:43.983386 21523 net.cpp:425] inception_4e/relu_3x3 <- inception_4e/3x3
I0403 16:51:43.983403 21523 net.cpp:386] inception_4e/relu_3x3 -> inception_4e/3x3 (in-place)
I0403 16:51:43.983712 21523 net.cpp:141] Setting up inception_4e/relu_3x3
I0403 16:51:43.983739 21523 net.cpp:148] Top shape: 24 320 14 14 (1505280)
I0403 16:51:43.983755 21523 net.cpp:156] Memory required for data: 1236129312
I0403 16:51:43.983770 21523 layer_factory.hpp:77] Creating layer inception_4e/5x5_reduce
I0403 16:51:43.983793 21523 net.cpp:91] Creating Layer inception_4e/5x5_reduce
I0403 16:51:43.983815 21523 net.cpp:425] inception_4e/5x5_reduce <- inception_4d/output_inception_4d/output_0_split_3
I0403 16:51:43.983834 21523 net.cpp:399] inception_4e/5x5_reduce -> inception_4e/5x5_reduce
I0403 16:51:43.984951 21523 net.cpp:141] Setting up inception_4e/5x5_reduce
I0403 16:51:43.984980 21523 net.cpp:148] Top shape: 24 32 14 14 (150528)
I0403 16:51:43.985003 21523 net.cpp:156] Memory required for data: 1236731424
I0403 16:51:43.985023 21523 layer_factory.hpp:77] Creating layer inception_4e/relu_5x5_reduce
I0403 16:51:43.985043 21523 net.cpp:91] Creating Layer inception_4e/relu_5x5_reduce
I0403 16:51:43.985059 21523 net.cpp:425] inception_4e/relu_5x5_reduce <- inception_4e/5x5_reduce
I0403 16:51:43.985080 21523 net.cpp:386] inception_4e/relu_5x5_reduce -> inception_4e/5x5_reduce (in-place)
I0403 16:51:43.985391 21523 net.cpp:141] Setting up inception_4e/relu_5x5_reduce
I0403 16:51:43.985419 21523 net.cpp:148] Top shape: 24 32 14 14 (150528)
I0403 16:51:43.985433 21523 net.cpp:156] Memory required for data: 1237333536
I0403 16:51:43.985450 21523 layer_factory.hpp:77] Creating layer inception_4e/5x5
I0403 16:51:43.985488 21523 net.cpp:91] Creating Layer inception_4e/5x5
I0403 16:51:43.985507 21523 net.cpp:425] inception_4e/5x5 <- inception_4e/5x5_reduce
I0403 16:51:43.985527 21523 net.cpp:399] inception_4e/5x5 -> inception_4e/5x5
I0403 16:51:43.987447 21523 net.cpp:141] Setting up inception_4e/5x5
I0403 16:51:43.987478 21523 net.cpp:148] Top shape: 24 128 14 14 (602112)
I0403 16:51:43.987494 21523 net.cpp:156] Memory required for data: 1239741984
I0403 16:51:43.987514 21523 layer_factory.hpp:77] Creating layer inception_4e/relu_5x5
I0403 16:51:43.987532 21523 net.cpp:91] Creating Layer inception_4e/relu_5x5
I0403 16:51:43.987550 21523 net.cpp:425] inception_4e/relu_5x5 <- inception_4e/5x5
I0403 16:51:43.987566 21523 net.cpp:386] inception_4e/relu_5x5 -> inception_4e/5x5 (in-place)
I0403 16:51:43.987773 21523 net.cpp:141] Setting up inception_4e/relu_5x5
I0403 16:51:43.987799 21523 net.cpp:148] Top shape: 24 128 14 14 (602112)
I0403 16:51:43.987814 21523 net.cpp:156] Memory required for data: 1242150432
I0403 16:51:43.987829 21523 layer_factory.hpp:77] Creating layer inception_4e/pool
I0403 16:51:43.987848 21523 net.cpp:91] Creating Layer inception_4e/pool
I0403 16:51:43.987864 21523 net.cpp:425] inception_4e/pool <- inception_4d/output_inception_4d/output_0_split_4
I0403 16:51:43.987884 21523 net.cpp:399] inception_4e/pool -> inception_4e/pool
I0403 16:51:43.987962 21523 net.cpp:141] Setting up inception_4e/pool
I0403 16:51:43.988003 21523 net.cpp:148] Top shape: 24 528 14 14 (2483712)
I0403 16:51:43.988021 21523 net.cpp:156] Memory required for data: 1252085280
I0403 16:51:43.988041 21523 layer_factory.hpp:77] Creating layer inception_4e/pool_proj
I0403 16:51:43.988065 21523 net.cpp:91] Creating Layer inception_4e/pool_proj
I0403 16:51:43.988082 21523 net.cpp:425] inception_4e/pool_proj <- inception_4e/pool
I0403 16:51:43.988101 21523 net.cpp:399] inception_4e/pool_proj -> inception_4e/pool_proj
I0403 16:51:43.989673 21523 net.cpp:141] Setting up inception_4e/pool_proj
I0403 16:51:43.989706 21523 net.cpp:148] Top shape: 24 128 14 14 (602112)
I0403 16:51:43.989737 21523 net.cpp:156] Memory required for data: 1254493728
I0403 16:51:43.989758 21523 layer_factory.hpp:77] Creating layer inception_4e/relu_pool_proj
I0403 16:51:43.989776 21523 net.cpp:91] Creating Layer inception_4e/relu_pool_proj
I0403 16:51:43.989792 21523 net.cpp:425] inception_4e/relu_pool_proj <- inception_4e/pool_proj
I0403 16:51:43.989810 21523 net.cpp:386] inception_4e/relu_pool_proj -> inception_4e/pool_proj (in-place)
I0403 16:51:43.990124 21523 net.cpp:141] Setting up inception_4e/relu_pool_proj
I0403 16:51:43.990154 21523 net.cpp:148] Top shape: 24 128 14 14 (602112)
I0403 16:51:43.990171 21523 net.cpp:156] Memory required for data: 1256902176
I0403 16:51:43.990187 21523 layer_factory.hpp:77] Creating layer inception_4e/output
I0403 16:51:43.990206 21523 net.cpp:91] Creating Layer inception_4e/output
I0403 16:51:43.990221 21523 net.cpp:425] inception_4e/output <- inception_4e/1x1
I0403 16:51:43.990238 21523 net.cpp:425] inception_4e/output <- inception_4e/3x3
I0403 16:51:43.990254 21523 net.cpp:425] inception_4e/output <- inception_4e/5x5
I0403 16:51:43.990270 21523 net.cpp:425] inception_4e/output <- inception_4e/pool_proj
I0403 16:51:43.990288 21523 net.cpp:399] inception_4e/output -> inception_4e/output
I0403 16:51:43.990339 21523 net.cpp:141] Setting up inception_4e/output
I0403 16:51:43.990380 21523 net.cpp:148] Top shape: 24 832 14 14 (3913728)
I0403 16:51:43.990396 21523 net.cpp:156] Memory required for data: 1272557088
I0403 16:51:43.990434 21523 layer_factory.hpp:77] Creating layer pool4/3x3_s2
I0403 16:51:43.990454 21523 net.cpp:91] Creating Layer pool4/3x3_s2
I0403 16:51:43.990471 21523 net.cpp:425] pool4/3x3_s2 <- inception_4e/output
I0403 16:51:43.990494 21523 net.cpp:399] pool4/3x3_s2 -> pool4/3x3_s2
I0403 16:51:43.990563 21523 net.cpp:141] Setting up pool4/3x3_s2
I0403 16:51:43.990588 21523 net.cpp:148] Top shape: 24 832 7 7 (978432)
I0403 16:51:43.990603 21523 net.cpp:156] Memory required for data: 1276470816
I0403 16:51:43.990619 21523 layer_factory.hpp:77] Creating layer pool4/3x3_s2_pool4/3x3_s2_0_split
I0403 16:51:43.990636 21523 net.cpp:91] Creating Layer pool4/3x3_s2_pool4/3x3_s2_0_split
I0403 16:51:43.990653 21523 net.cpp:425] pool4/3x3_s2_pool4/3x3_s2_0_split <- pool4/3x3_s2
I0403 16:51:43.990672 21523 net.cpp:399] pool4/3x3_s2_pool4/3x3_s2_0_split -> pool4/3x3_s2_pool4/3x3_s2_0_split_0
I0403 16:51:43.990694 21523 net.cpp:399] pool4/3x3_s2_pool4/3x3_s2_0_split -> pool4/3x3_s2_pool4/3x3_s2_0_split_1
I0403 16:51:43.990715 21523 net.cpp:399] pool4/3x3_s2_pool4/3x3_s2_0_split -> pool4/3x3_s2_pool4/3x3_s2_0_split_2
I0403 16:51:43.990746 21523 net.cpp:399] pool4/3x3_s2_pool4/3x3_s2_0_split -> pool4/3x3_s2_pool4/3x3_s2_0_split_3
I0403 16:51:43.990842 21523 net.cpp:141] Setting up pool4/3x3_s2_pool4/3x3_s2_0_split
I0403 16:51:43.990869 21523 net.cpp:148] Top shape: 24 832 7 7 (978432)
I0403 16:51:43.990885 21523 net.cpp:148] Top shape: 24 832 7 7 (978432)
I0403 16:51:43.990901 21523 net.cpp:148] Top shape: 24 832 7 7 (978432)
I0403 16:51:43.990917 21523 net.cpp:148] Top shape: 24 832 7 7 (978432)
I0403 16:51:43.990931 21523 net.cpp:156] Memory required for data: 1292125728
I0403 16:51:43.990945 21523 layer_factory.hpp:77] Creating layer inception_5a/1x1
I0403 16:51:43.990967 21523 net.cpp:91] Creating Layer inception_5a/1x1
I0403 16:51:43.990990 21523 net.cpp:425] inception_5a/1x1 <- pool4/3x3_s2_pool4/3x3_s2_0_split_0
I0403 16:51:43.991011 21523 net.cpp:399] inception_5a/1x1 -> inception_5a/1x1
I0403 16:51:43.993872 21523 net.cpp:141] Setting up inception_5a/1x1
I0403 16:51:43.993902 21523 net.cpp:148] Top shape: 24 256 7 7 (301056)
I0403 16:51:43.993919 21523 net.cpp:156] Memory required for data: 1293329952
I0403 16:51:43.993937 21523 layer_factory.hpp:77] Creating layer inception_5a/relu_1x1
I0403 16:51:43.993957 21523 net.cpp:91] Creating Layer inception_5a/relu_1x1
I0403 16:51:43.993973 21523 net.cpp:425] inception_5a/relu_1x1 <- inception_5a/1x1
I0403 16:51:43.993998 21523 net.cpp:386] inception_5a/relu_1x1 -> inception_5a/1x1 (in-place)
I0403 16:51:43.994315 21523 net.cpp:141] Setting up inception_5a/relu_1x1
I0403 16:51:43.994344 21523 net.cpp:148] Top shape: 24 256 7 7 (301056)
I0403 16:51:43.994360 21523 net.cpp:156] Memory required for data: 1294534176
I0403 16:51:43.994374 21523 layer_factory.hpp:77] Creating layer inception_5a/3x3_reduce
I0403 16:51:43.994397 21523 net.cpp:91] Creating Layer inception_5a/3x3_reduce
I0403 16:51:43.994415 21523 net.cpp:425] inception_5a/3x3_reduce <- pool4/3x3_s2_pool4/3x3_s2_0_split_1
I0403 16:51:43.994433 21523 net.cpp:399] inception_5a/3x3_reduce -> inception_5a/3x3_reduce
I0403 16:51:43.996927 21523 net.cpp:141] Setting up inception_5a/3x3_reduce
I0403 16:51:43.996954 21523 net.cpp:148] Top shape: 24 160 7 7 (188160)
I0403 16:51:43.996970 21523 net.cpp:156] Memory required for data: 1295286816
I0403 16:51:43.996996 21523 layer_factory.hpp:77] Creating layer inception_5a/relu_3x3_reduce
I0403 16:51:43.997019 21523 net.cpp:91] Creating Layer inception_5a/relu_3x3_reduce
I0403 16:51:43.997035 21523 net.cpp:425] inception_5a/relu_3x3_reduce <- inception_5a/3x3_reduce
I0403 16:51:43.997052 21523 net.cpp:386] inception_5a/relu_3x3_reduce -> inception_5a/3x3_reduce (in-place)
I0403 16:51:43.997241 21523 net.cpp:141] Setting up inception_5a/relu_3x3_reduce
I0403 16:51:43.997267 21523 net.cpp:148] Top shape: 24 160 7 7 (188160)
I0403 16:51:43.997283 21523 net.cpp:156] Memory required for data: 1296039456
I0403 16:51:43.997298 21523 layer_factory.hpp:77] Creating layer inception_5a/3x3
I0403 16:51:43.997321 21523 net.cpp:91] Creating Layer inception_5a/3x3
I0403 16:51:43.997339 21523 net.cpp:425] inception_5a/3x3 <- inception_5a/3x3_reduce
I0403 16:51:43.997357 21523 net.cpp:399] inception_5a/3x3 -> inception_5a/3x3
I0403 16:51:44.002362 21523 net.cpp:141] Setting up inception_5a/3x3
I0403 16:51:44.002393 21523 net.cpp:148] Top shape: 24 320 7 7 (376320)
I0403 16:51:44.002408 21523 net.cpp:156] Memory required for data: 1297544736
I0403 16:51:44.002426 21523 layer_factory.hpp:77] Creating layer inception_5a/relu_3x3
I0403 16:51:44.002444 21523 net.cpp:91] Creating Layer inception_5a/relu_3x3
I0403 16:51:44.002460 21523 net.cpp:425] inception_5a/relu_3x3 <- inception_5a/3x3
I0403 16:51:44.002476 21523 net.cpp:386] inception_5a/relu_3x3 -> inception_5a/3x3 (in-place)
I0403 16:51:44.002764 21523 net.cpp:141] Setting up inception_5a/relu_3x3
I0403 16:51:44.002792 21523 net.cpp:148] Top shape: 24 320 7 7 (376320)
I0403 16:51:44.002807 21523 net.cpp:156] Memory required for data: 1299050016
I0403 16:51:44.002822 21523 layer_factory.hpp:77] Creating layer inception_5a/5x5_reduce
I0403 16:51:44.002845 21523 net.cpp:91] Creating Layer inception_5a/5x5_reduce
I0403 16:51:44.002861 21523 net.cpp:425] inception_5a/5x5_reduce <- pool4/3x3_s2_pool4/3x3_s2_0_split_2
I0403 16:51:44.002881 21523 net.cpp:399] inception_5a/5x5_reduce -> inception_5a/5x5_reduce
I0403 16:51:44.004043 21523 net.cpp:141] Setting up inception_5a/5x5_reduce
I0403 16:51:44.004077 21523 net.cpp:148] Top shape: 24 32 7 7 (37632)
I0403 16:51:44.004093 21523 net.cpp:156] Memory required for data: 1299200544
I0403 16:51:44.004112 21523 layer_factory.hpp:77] Creating layer inception_5a/relu_5x5_reduce
I0403 16:51:44.004129 21523 net.cpp:91] Creating Layer inception_5a/relu_5x5_reduce
I0403 16:51:44.004144 21523 net.cpp:425] inception_5a/relu_5x5_reduce <- inception_5a/5x5_reduce
I0403 16:51:44.004163 21523 net.cpp:386] inception_5a/relu_5x5_reduce -> inception_5a/5x5_reduce (in-place)
I0403 16:51:44.004470 21523 net.cpp:141] Setting up inception_5a/relu_5x5_reduce
I0403 16:51:44.004497 21523 net.cpp:148] Top shape: 24 32 7 7 (37632)
I0403 16:51:44.004511 21523 net.cpp:156] Memory required for data: 1299351072
I0403 16:51:44.004525 21523 layer_factory.hpp:77] Creating layer inception_5a/5x5
I0403 16:51:44.004547 21523 net.cpp:91] Creating Layer inception_5a/5x5
I0403 16:51:44.004565 21523 net.cpp:425] inception_5a/5x5 <- inception_5a/5x5_reduce
I0403 16:51:44.004585 21523 net.cpp:399] inception_5a/5x5 -> inception_5a/5x5
I0403 16:51:44.006289 21523 net.cpp:141] Setting up inception_5a/5x5
I0403 16:51:44.006330 21523 net.cpp:148] Top shape: 24 128 7 7 (150528)
I0403 16:51:44.006346 21523 net.cpp:156] Memory required for data: 1299953184
I0403 16:51:44.006364 21523 layer_factory.hpp:77] Creating layer inception_5a/relu_5x5
I0403 16:51:44.006382 21523 net.cpp:91] Creating Layer inception_5a/relu_5x5
I0403 16:51:44.006397 21523 net.cpp:425] inception_5a/relu_5x5 <- inception_5a/5x5
I0403 16:51:44.006414 21523 net.cpp:386] inception_5a/relu_5x5 -> inception_5a/5x5 (in-place)
I0403 16:51:44.006603 21523 net.cpp:141] Setting up inception_5a/relu_5x5
I0403 16:51:44.006626 21523 net.cpp:148] Top shape: 24 128 7 7 (150528)
I0403 16:51:44.006640 21523 net.cpp:156] Memory required for data: 1300555296
I0403 16:51:44.006666 21523 layer_factory.hpp:77] Creating layer inception_5a/pool
I0403 16:51:44.006683 21523 net.cpp:91] Creating Layer inception_5a/pool
I0403 16:51:44.006700 21523 net.cpp:425] inception_5a/pool <- pool4/3x3_s2_pool4/3x3_s2_0_split_3
I0403 16:51:44.006721 21523 net.cpp:399] inception_5a/pool -> inception_5a/pool
I0403 16:51:44.006790 21523 net.cpp:141] Setting up inception_5a/pool
I0403 16:51:44.006816 21523 net.cpp:148] Top shape: 24 832 7 7 (978432)
I0403 16:51:44.006832 21523 net.cpp:156] Memory required for data: 1304469024
I0403 16:51:44.006846 21523 layer_factory.hpp:77] Creating layer inception_5a/pool_proj
I0403 16:51:44.006870 21523 net.cpp:91] Creating Layer inception_5a/pool_proj
I0403 16:51:44.006887 21523 net.cpp:425] inception_5a/pool_proj <- inception_5a/pool
I0403 16:51:44.006906 21523 net.cpp:399] inception_5a/pool_proj -> inception_5a/pool_proj
I0403 16:51:44.009208 21523 net.cpp:141] Setting up inception_5a/pool_proj
I0403 16:51:44.009237 21523 net.cpp:148] Top shape: 24 128 7 7 (150528)
I0403 16:51:44.009251 21523 net.cpp:156] Memory required for data: 1305071136
I0403 16:51:44.009269 21523 layer_factory.hpp:77] Creating layer inception_5a/relu_pool_proj
I0403 16:51:44.009289 21523 net.cpp:91] Creating Layer inception_5a/relu_pool_proj
I0403 16:51:44.009305 21523 net.cpp:425] inception_5a/relu_pool_proj <- inception_5a/pool_proj
I0403 16:51:44.009322 21523 net.cpp:386] inception_5a/relu_pool_proj -> inception_5a/pool_proj (in-place)
I0403 16:51:44.009610 21523 net.cpp:141] Setting up inception_5a/relu_pool_proj
I0403 16:51:44.009635 21523 net.cpp:148] Top shape: 24 128 7 7 (150528)
I0403 16:51:44.009650 21523 net.cpp:156] Memory required for data: 1305673248
I0403 16:51:44.009665 21523 layer_factory.hpp:77] Creating layer inception_5a/output
I0403 16:51:44.009685 21523 net.cpp:91] Creating Layer inception_5a/output
I0403 16:51:44.009701 21523 net.cpp:425] inception_5a/output <- inception_5a/1x1
I0403 16:51:44.009716 21523 net.cpp:425] inception_5a/output <- inception_5a/3x3
I0403 16:51:44.009732 21523 net.cpp:425] inception_5a/output <- inception_5a/5x5
I0403 16:51:44.009747 21523 net.cpp:425] inception_5a/output <- inception_5a/pool_proj
I0403 16:51:44.009763 21523 net.cpp:399] inception_5a/output -> inception_5a/output
I0403 16:51:44.009814 21523 net.cpp:141] Setting up inception_5a/output
I0403 16:51:44.009836 21523 net.cpp:148] Top shape: 24 832 7 7 (978432)
I0403 16:51:44.009851 21523 net.cpp:156] Memory required for data: 1309586976
I0403 16:51:44.009865 21523 layer_factory.hpp:77] Creating layer inception_5a/output_inception_5a/output_0_split
I0403 16:51:44.009881 21523 net.cpp:91] Creating Layer inception_5a/output_inception_5a/output_0_split
I0403 16:51:44.009896 21523 net.cpp:425] inception_5a/output_inception_5a/output_0_split <- inception_5a/output
I0403 16:51:44.009915 21523 net.cpp:399] inception_5a/output_inception_5a/output_0_split -> inception_5a/output_inception_5a/output_0_split_0
I0403 16:51:44.009948 21523 net.cpp:399] inception_5a/output_inception_5a/output_0_split -> inception_5a/output_inception_5a/output_0_split_1
I0403 16:51:44.009968 21523 net.cpp:399] inception_5a/output_inception_5a/output_0_split -> inception_5a/output_inception_5a/output_0_split_2
I0403 16:51:44.009992 21523 net.cpp:399] inception_5a/output_inception_5a/output_0_split -> inception_5a/output_inception_5a/output_0_split_3
I0403 16:51:44.010121 21523 net.cpp:141] Setting up inception_5a/output_inception_5a/output_0_split
I0403 16:51:44.010146 21523 net.cpp:148] Top shape: 24 832 7 7 (978432)
I0403 16:51:44.010164 21523 net.cpp:148] Top shape: 24 832 7 7 (978432)
I0403 16:51:44.010179 21523 net.cpp:148] Top shape: 24 832 7 7 (978432)
I0403 16:51:44.010195 21523 net.cpp:148] Top shape: 24 832 7 7 (978432)
I0403 16:51:44.010210 21523 net.cpp:156] Memory required for data: 1325241888
I0403 16:51:44.010224 21523 layer_factory.hpp:77] Creating layer inception_5b/1x1
I0403 16:51:44.010259 21523 net.cpp:91] Creating Layer inception_5b/1x1
I0403 16:51:44.010277 21523 net.cpp:425] inception_5b/1x1 <- inception_5a/output_inception_5a/output_0_split_0
I0403 16:51:44.010298 21523 net.cpp:399] inception_5b/1x1 -> inception_5b/1x1
I0403 16:51:44.014000 21523 net.cpp:141] Setting up inception_5b/1x1
I0403 16:51:44.014029 21523 net.cpp:148] Top shape: 24 384 7 7 (451584)
I0403 16:51:44.014044 21523 net.cpp:156] Memory required for data: 1327048224
I0403 16:51:44.014061 21523 layer_factory.hpp:77] Creating layer inception_5b/relu_1x1
I0403 16:51:44.014081 21523 net.cpp:91] Creating Layer inception_5b/relu_1x1
I0403 16:51:44.014098 21523 net.cpp:425] inception_5b/relu_1x1 <- inception_5b/1x1
I0403 16:51:44.014116 21523 net.cpp:386] inception_5b/relu_1x1 -> inception_5b/1x1 (in-place)
I0403 16:51:44.014416 21523 net.cpp:141] Setting up inception_5b/relu_1x1
I0403 16:51:44.014441 21523 net.cpp:148] Top shape: 24 384 7 7 (451584)
I0403 16:51:44.014456 21523 net.cpp:156] Memory required for data: 1328854560
I0403 16:51:44.014470 21523 layer_factory.hpp:77] Creating layer inception_5b/3x3_reduce
I0403 16:51:44.014492 21523 net.cpp:91] Creating Layer inception_5b/3x3_reduce
I0403 16:51:44.014509 21523 net.cpp:425] inception_5b/3x3_reduce <- inception_5a/output_inception_5a/output_0_split_1
I0403 16:51:44.014530 21523 net.cpp:399] inception_5b/3x3_reduce -> inception_5b/3x3_reduce
I0403 16:51:44.017177 21523 net.cpp:141] Setting up inception_5b/3x3_reduce
I0403 16:51:44.017204 21523 net.cpp:148] Top shape: 24 192 7 7 (225792)
I0403 16:51:44.017220 21523 net.cpp:156] Memory required for data: 1329757728
I0403 16:51:44.017237 21523 layer_factory.hpp:77] Creating layer inception_5b/relu_3x3_reduce
I0403 16:51:44.017257 21523 net.cpp:91] Creating Layer inception_5b/relu_3x3_reduce
I0403 16:51:44.017273 21523 net.cpp:425] inception_5b/relu_3x3_reduce <- inception_5b/3x3_reduce
I0403 16:51:44.017290 21523 net.cpp:386] inception_5b/relu_3x3_reduce -> inception_5b/3x3_reduce (in-place)
I0403 16:51:44.017477 21523 net.cpp:141] Setting up inception_5b/relu_3x3_reduce
I0403 16:51:44.017503 21523 net.cpp:148] Top shape: 24 192 7 7 (225792)
I0403 16:51:44.017516 21523 net.cpp:156] Memory required for data: 1330660896
I0403 16:51:44.017531 21523 layer_factory.hpp:77] Creating layer inception_5b/3x3
I0403 16:51:44.017552 21523 net.cpp:91] Creating Layer inception_5b/3x3
I0403 16:51:44.017570 21523 net.cpp:425] inception_5b/3x3 <- inception_5b/3x3_reduce
I0403 16:51:44.017593 21523 net.cpp:399] inception_5b/3x3 -> inception_5b/3x3
I0403 16:51:44.024242 21523 net.cpp:141] Setting up inception_5b/3x3
I0403 16:51:44.024271 21523 net.cpp:148] Top shape: 24 384 7 7 (451584)
I0403 16:51:44.024298 21523 net.cpp:156] Memory required for data: 1332467232
I0403 16:51:44.024317 21523 layer_factory.hpp:77] Creating layer inception_5b/relu_3x3
I0403 16:51:44.024336 21523 net.cpp:91] Creating Layer inception_5b/relu_3x3
I0403 16:51:44.024358 21523 net.cpp:425] inception_5b/relu_3x3 <- inception_5b/3x3
I0403 16:51:44.024375 21523 net.cpp:386] inception_5b/relu_3x3 -> inception_5b/3x3 (in-place)
I0403 16:51:44.024668 21523 net.cpp:141] Setting up inception_5b/relu_3x3
I0403 16:51:44.024694 21523 net.cpp:148] Top shape: 24 384 7 7 (451584)
I0403 16:51:44.024709 21523 net.cpp:156] Memory required for data: 1334273568
I0403 16:51:44.024724 21523 layer_factory.hpp:77] Creating layer inception_5b/5x5_reduce
I0403 16:51:44.024763 21523 net.cpp:91] Creating Layer inception_5b/5x5_reduce
I0403 16:51:44.024781 21523 net.cpp:425] inception_5b/5x5_reduce <- inception_5a/output_inception_5a/output_0_split_2
I0403 16:51:44.024799 21523 net.cpp:399] inception_5b/5x5_reduce -> inception_5b/5x5_reduce
I0403 16:51:44.026157 21523 net.cpp:141] Setting up inception_5b/5x5_reduce
I0403 16:51:44.026190 21523 net.cpp:148] Top shape: 24 48 7 7 (56448)
I0403 16:51:44.026206 21523 net.cpp:156] Memory required for data: 1334499360
I0403 16:51:44.026226 21523 layer_factory.hpp:77] Creating layer inception_5b/relu_5x5_reduce
I0403 16:51:44.026244 21523 net.cpp:91] Creating Layer inception_5b/relu_5x5_reduce
I0403 16:51:44.026262 21523 net.cpp:425] inception_5b/relu_5x5_reduce <- inception_5b/5x5_reduce
I0403 16:51:44.026278 21523 net.cpp:386] inception_5b/relu_5x5_reduce -> inception_5b/5x5_reduce (in-place)
I0403 16:51:44.026665 21523 net.cpp:141] Setting up inception_5b/relu_5x5_reduce
I0403 16:51:44.026692 21523 net.cpp:148] Top shape: 24 48 7 7 (56448)
I0403 16:51:44.026707 21523 net.cpp:156] Memory required for data: 1334725152
I0403 16:51:44.026722 21523 layer_factory.hpp:77] Creating layer inception_5b/5x5
I0403 16:51:44.026743 21523 net.cpp:91] Creating Layer inception_5b/5x5
I0403 16:51:44.026760 21523 net.cpp:425] inception_5b/5x5 <- inception_5b/5x5_reduce
I0403 16:51:44.026779 21523 net.cpp:399] inception_5b/5x5 -> inception_5b/5x5
I0403 16:51:44.028918 21523 net.cpp:141] Setting up inception_5b/5x5
I0403 16:51:44.028949 21523 net.cpp:148] Top shape: 24 128 7 7 (150528)
I0403 16:51:44.028964 21523 net.cpp:156] Memory required for data: 1335327264
I0403 16:51:44.028983 21523 layer_factory.hpp:77] Creating layer inception_5b/relu_5x5
I0403 16:51:44.029021 21523 net.cpp:91] Creating Layer inception_5b/relu_5x5
I0403 16:51:44.029038 21523 net.cpp:425] inception_5b/relu_5x5 <- inception_5b/5x5
I0403 16:51:44.029059 21523 net.cpp:386] inception_5b/relu_5x5 -> inception_5b/5x5 (in-place)
I0403 16:51:44.029260 21523 net.cpp:141] Setting up inception_5b/relu_5x5
I0403 16:51:44.029299 21523 net.cpp:148] Top shape: 24 128 7 7 (150528)
I0403 16:51:44.029312 21523 net.cpp:156] Memory required for data: 1335929376
I0403 16:51:44.029327 21523 layer_factory.hpp:77] Creating layer inception_5b/pool
I0403 16:51:44.029345 21523 net.cpp:91] Creating Layer inception_5b/pool
I0403 16:51:44.029361 21523 net.cpp:425] inception_5b/pool <- inception_5a/output_inception_5a/output_0_split_3
I0403 16:51:44.029381 21523 net.cpp:399] inception_5b/pool -> inception_5b/pool
I0403 16:51:44.029454 21523 net.cpp:141] Setting up inception_5b/pool
I0403 16:51:44.029479 21523 net.cpp:148] Top shape: 24 832 7 7 (978432)
I0403 16:51:44.029492 21523 net.cpp:156] Memory required for data: 1339843104
I0403 16:51:44.029507 21523 layer_factory.hpp:77] Creating layer inception_5b/pool_proj
I0403 16:51:44.029531 21523 net.cpp:91] Creating Layer inception_5b/pool_proj
I0403 16:51:44.029548 21523 net.cpp:425] inception_5b/pool_proj <- inception_5b/pool
I0403 16:51:44.029567 21523 net.cpp:399] inception_5b/pool_proj -> inception_5b/pool_proj
I0403 16:51:44.031949 21523 net.cpp:141] Setting up inception_5b/pool_proj
I0403 16:51:44.031980 21523 net.cpp:148] Top shape: 24 128 7 7 (150528)
I0403 16:51:44.032017 21523 net.cpp:156] Memory required for data: 1340445216
I0403 16:51:44.032037 21523 layer_factory.hpp:77] Creating layer inception_5b/relu_pool_proj
I0403 16:51:44.032057 21523 net.cpp:91] Creating Layer inception_5b/relu_pool_proj
I0403 16:51:44.032073 21523 net.cpp:425] inception_5b/relu_pool_proj <- inception_5b/pool_proj
I0403 16:51:44.032091 21523 net.cpp:386] inception_5b/relu_pool_proj -> inception_5b/pool_proj (in-place)
I0403 16:51:44.032408 21523 net.cpp:141] Setting up inception_5b/relu_pool_proj
I0403 16:51:44.032438 21523 net.cpp:148] Top shape: 24 128 7 7 (150528)
I0403 16:51:44.032454 21523 net.cpp:156] Memory required for data: 1341047328
I0403 16:51:44.032469 21523 layer_factory.hpp:77] Creating layer inception_5b/output
I0403 16:51:44.032486 21523 net.cpp:91] Creating Layer inception_5b/output
I0403 16:51:44.032516 21523 net.cpp:425] inception_5b/output <- inception_5b/1x1
I0403 16:51:44.032534 21523 net.cpp:425] inception_5b/output <- inception_5b/3x3
I0403 16:51:44.032551 21523 net.cpp:425] inception_5b/output <- inception_5b/5x5
I0403 16:51:44.032565 21523 net.cpp:425] inception_5b/output <- inception_5b/pool_proj
I0403 16:51:44.032583 21523 net.cpp:399] inception_5b/output -> inception_5b/output
I0403 16:51:44.032636 21523 net.cpp:141] Setting up inception_5b/output
I0403 16:51:44.032660 21523 net.cpp:148] Top shape: 24 1024 7 7 (1204224)
I0403 16:51:44.032675 21523 net.cpp:156] Memory required for data: 1345864224
I0403 16:51:44.032690 21523 layer_factory.hpp:77] Creating layer pool5/7x7_s1
I0403 16:51:44.032709 21523 net.cpp:91] Creating Layer pool5/7x7_s1
I0403 16:51:44.032727 21523 net.cpp:425] pool5/7x7_s1 <- inception_5b/output
I0403 16:51:44.032744 21523 net.cpp:399] pool5/7x7_s1 -> pool5/7x7_s1
I0403 16:51:44.032961 21523 net.cpp:141] Setting up pool5/7x7_s1
I0403 16:51:44.032996 21523 net.cpp:148] Top shape: 24 1024 1 1 (24576)
I0403 16:51:44.033013 21523 net.cpp:156] Memory required for data: 1345962528
I0403 16:51:44.033028 21523 layer_factory.hpp:77] Creating layer pool5/drop_7x7_s1
I0403 16:51:44.033046 21523 net.cpp:91] Creating Layer pool5/drop_7x7_s1
I0403 16:51:44.033062 21523 net.cpp:425] pool5/drop_7x7_s1 <- pool5/7x7_s1
I0403 16:51:44.033079 21523 net.cpp:386] pool5/drop_7x7_s1 -> pool5/7x7_s1 (in-place)
I0403 16:51:44.033130 21523 net.cpp:141] Setting up pool5/drop_7x7_s1
I0403 16:51:44.033154 21523 net.cpp:148] Top shape: 24 1024 1 1 (24576)
I0403 16:51:44.033169 21523 net.cpp:156] Memory required for data: 1346060832
I0403 16:51:44.033182 21523 layer_factory.hpp:77] Creating layer loss3/classifier_plantvillage
I0403 16:51:44.033205 21523 net.cpp:91] Creating Layer loss3/classifier_plantvillage
I0403 16:51:44.033221 21523 net.cpp:425] loss3/classifier_plantvillage <- pool5/7x7_s1
I0403 16:51:44.033239 21523 net.cpp:399] loss3/classifier_plantvillage -> loss3/classifier_plantvillage
I0403 16:51:44.033669 21523 net.cpp:141] Setting up loss3/classifier_plantvillage
I0403 16:51:44.033694 21523 net.cpp:148] Top shape: 24 38 (912)
I0403 16:51:44.033709 21523 net.cpp:156] Memory required for data: 1346064480
I0403 16:51:44.033726 21523 layer_factory.hpp:77] Creating layer loss3/classifier_plantvillage_loss3/classifier_plantvillage_0_split
I0403 16:51:44.033745 21523 net.cpp:91] Creating Layer loss3/classifier_plantvillage_loss3/classifier_plantvillage_0_split
I0403 16:51:44.033759 21523 net.cpp:425] loss3/classifier_plantvillage_loss3/classifier_plantvillage_0_split <- loss3/classifier_plantvillage
I0403 16:51:44.033781 21523 net.cpp:399] loss3/classifier_plantvillage_loss3/classifier_plantvillage_0_split -> loss3/classifier_plantvillage_loss3/classifier_plantvillage_0_split_0
I0403 16:51:44.033802 21523 net.cpp:399] loss3/classifier_plantvillage_loss3/classifier_plantvillage_0_split -> loss3/classifier_plantvillage_loss3/classifier_plantvillage_0_split_1
I0403 16:51:44.033821 21523 net.cpp:399] loss3/classifier_plantvillage_loss3/classifier_plantvillage_0_split -> loss3/classifier_plantvillage_loss3/classifier_plantvillage_0_split_2
I0403 16:51:44.033840 21523 net.cpp:399] loss3/classifier_plantvillage_loss3/classifier_plantvillage_0_split -> loss3/classifier_plantvillage_loss3/classifier_plantvillage_0_split_3
I0403 16:51:44.033948 21523 net.cpp:141] Setting up loss3/classifier_plantvillage_loss3/classifier_plantvillage_0_split
I0403 16:51:44.033972 21523 net.cpp:148] Top shape: 24 38 (912)
I0403 16:51:44.033993 21523 net.cpp:148] Top shape: 24 38 (912)
I0403 16:51:44.034008 21523 net.cpp:148] Top shape: 24 38 (912)
I0403 16:51:44.034024 21523 net.cpp:148] Top shape: 24 38 (912)
I0403 16:51:44.034039 21523 net.cpp:156] Memory required for data: 1346079072
I0403 16:51:44.034052 21523 layer_factory.hpp:77] Creating layer loss1/loss
I0403 16:51:44.034073 21523 net.cpp:91] Creating Layer loss1/loss
I0403 16:51:44.034090 21523 net.cpp:425] loss1/loss <- loss1/classifier_plantvillage_loss1/classifier_plantvillage_0_split_0
I0403 16:51:44.034121 21523 net.cpp:425] loss1/loss <- label_data_1_split_0
…
