…
I0403 16:00:10.915909 20621 net.cpp:313] The NetState phase (1) differed from the phase (0) specified by a rule in layer data
I0403 16:00:10.917112 20621 net.cpp:49] Initializing net from parameters: 
state {
  phase: TEST
}
layer {
  name: "data"
  type: "Data"
  top: "data"
  top: "label"
  include {
    phase: TEST
  }
  transform_param {
    mirror: false
    crop_size: 224
    mean_file: "/home/mohanty/data/final_dataset/lmdb/color-40-60/mean.binaryproto"
  }
  data_param {
    source: "/home/mohanty/data/final_dataset/lmdb/color-40-60/test_db"
    batch_size: 24
    backend: LMDB
  }
}
layer {
  name: "conv1/7x7_s2"
  type: "Convolution"
  bottom: "data"
  top: "conv1/7x7_s2"
  param {
    lr_mult: 1
    decay_mult: 1
  }
  param {
    lr_mult: 2
    decay_mult: 0
  }
  convolution_param {
    num_output: 64
    pad: 3
    kernel_size: 7
    stride: 2
    weight_filler {
      type: "xavier"
      std: 0.1
    }
    bias_filler {
      type: "constant"
      value: 0.2
    }
  }
}
layer {
  name: "conv1/relu_7x7"
  type: "ReLU"
  bottom: "conv1/7x7_s2"
  top: "conv1/7x7_s2"
}
layer {
  name: "pool1/3x3_s2"
  type: "Pooling"
  bottom: "conv1/7x7_s2"
  top: "pool1/3x3_s2"
  pooling_param {
    pool: MAX
    kernel_size: 3
    stride: 2
  }
}
layer {
  name: "pool1/norm1"
  type: "LRN"
  bottom: "pool1/3x3_s2"
  top: "pool1/norm1"
  lrn_param {
    local_size: 5
    alpha: 0.0001
    beta: 0.75
  }
}
layer {
  name: "conv2/3x3_reduce"
  type: "Convolution"
  bottom: "pool1/norm1"
  top: "conv2/3x3_reduce"
  param {
    lr_mult: 1
    decay_mult: 1
  }
  param {
    lr_mult: 2
    decay_mult: 0
  }
  convolution_param {
    num_output: 64
    kernel_size: 1
    weight_filler {
      type: "xavier"
      std: 0.1
    }
    bias_filler {
      type: "constant"
      value: 0.2
    }
  }
}
layer {
  name: "conv2/relu_3x3_reduce"
  type: "ReLU"
  bottom: "conv2/3x3_reduce"
  top: "conv2/3x3_reduce"
}
layer {
  name: "conv2/3x3"
  type: "Convolution"
  bottom: "conv2/3x3_reduce"
  top: "conv2/3x3"
  param {
    lr_mult: 1
    decay_mult: 1
  }
  param {
    lr_mult: 2
    decay_mult: 0
  }
  convolution_param {
    num_output: 192
    pad: 1
    kernel_size: 3
    weight_filler {
      type: "xavier"
      std: 0.03
    }
    bias_filler {
      type: "constant"
      value: 0.2
    }
  }
}
layer {
  name: "conv2/relu_3x3"
  type: "ReLU"
  bottom: "conv2/3x3"
  top: "conv2/3x3"
}
layer {
  name: "conv2/norm2"
  type: "LRN"
  bottom: "conv2/3x3"
  top: "conv2/norm2"
  lrn_param {
    local_size: 5
    alpha: 0.0001
    beta: 0.75
  }
}
layer {
  name: "pool2/3x3_s2"
  type: "Pooling"
  bottom: "conv2/norm2"
  top: "pool2/3x3_s2"
  pooling_param {
    pool: MAX
    kernel_size: 3
    stride: 2
  }
}
layer {
  name: "inception_3a/1x1"
  type: "Convolution"
  bottom: "pool2/3x3_s2"
  top: "inception_3a/1x1"
  param {
    lr_mult: 1
    decay_mult: 1
  }
  param {
    lr_mult: 2
    decay_mult: 0
  }
  convolution_param {
    num_output: 64
    kernel_size: 1
    weight_filler {
      type: "xavier"
      std: 0.03
    }
    bias_filler {
      type: "constant"
      value: 0.2
    }
  }
}
layer {
  name: "inception_3a/relu_1x1"
  type: "ReLU"
  bottom: "inception_3a/1x1"
  top: "inception_3a/1x1"
}
layer {
  name: "inception_3a/3x3_reduce"
  type: "Convolution"
  bottom: "pool2/3x3_s2"
  top: "inception_3a/3x3_reduce"
  param {
    lr_mult: 1
    decay_mult: 1
  }
  param {
    lr_mult: 2
    decay_mult: 0
  }
  convolution_param {
    num_output: 96
    kernel_size: 1
    weight_filler {
      type: "xavier"
      std: 0.09
    }
    bias_filler {
      type: "constant"
      value: 0.2
    }
  }
}
layer {
  name: "inception_3a/relu_3x3_reduce"
  type: "ReLU"
  bottom: "inception_3a/3x3_reduce"
  top: "inception_3a/3x3_reduce"
}
layer {
  name: "inception_3a/3x3"
  type: "Convolution"
  bottom: "inception_3a/3x3_reduce"
  top: "inception_3a/3x3"
  param {
    lr_mult: 1
    decay_mult: 1
  }
  param {
    lr_mult: 2
    decay_mult: 0
  }
  convolution_param {
    num_output: 128
    pad: 1
    kernel_size: 3
    weight_filler {
      type: "xavier"
      std: 0.03
    }
    bias_filler {
      type: "constant"
      value: 0.2
    }
  }
}
layer {
  name: "inception_3a/relu_3x3"
  type: "ReLU"
  bottom: "inception_3a/3x3"
  top: "inception_3a/3x3"
}
layer {
  name: "inception_3a/5x5_reduce"
  type: "Convolution"
  bottom: "pool2/3x3_s2"
  top: "inception_3a/5x5_reduce"
  param {
    lr_mult: 1
    decay_mult: 1
  }
  param {
    lr_mult: 2
    decay_mult: 0
  }
  convolution_param {
    num_output: 16
    kernel_size: 1
    weight_filler {
      type: "xavier"
      std: 0.2
    }
    bias_filler {
      type: "constant"
      value: 0.2
    }
  }
}
layer {
  name: "inception_3a/relu_5x5_reduce"
  type: "ReLU"
  bottom: "inception_3a/5x5_reduce"
  top: "inception_3a/5x5_reduce"
}
layer {
  name: "inception_3a/5x5"
  type: "Convolution"
  bottom: "inception_3a/5x5_reduce"
  top: "inception_3a/5x5"
  param {
    lr_mult: 1
    decay_mult: 1
  }
  param {
    lr_mult: 2
    decay_mult: 0
  }
  convolution_param {
    num_output: 32
    pad: 2
    kernel_size: 5
    weight_filler {
      type: "xavier"
      std: 0.03
    }
    bias_filler {
      type: "constant"
      value: 0.2
    }
  }
}
layer {
  name: "inception_3a/relu_5x5"
  type: "ReLU"
  bottom: "inception_3a/5x5"
  top: "inception_3a/5x5"
}
layer {
  name: "inception_3a/pool"
  type: "Pooling"
  bottom: "pool2/3x3_s2"
  top: "inception_3a/pool"
  pooling_param {
    pool: MAX
    kernel_size: 3
    stride: 1
    pad: 1
  }
}
layer {
  name: "inception_3a/pool_proj"
  type: "Convolution"
  bottom: "inception_3a/pool"
  top: "inception_3a/pool_proj"
  param {
    lr_mult: 1
    decay_mult: 1
  }
  param {
    lr_mult: 2
    decay_mult: 0
  }
  convolution_param {
    num_output: 32
    kernel_size: 1
    weight_filler {
      type: "xavier"
      std: 0.1
    }
    bias_filler {
      type: "constant"
      value: 0.2
    }
  }
}
layer {
  name: "inception_3a/relu_pool_proj"
  type: "ReLU"
  bottom: "inception_3a/pool_proj"
  top: "inception_3a/pool_proj"
}
layer {
  name: "inception_3a/output"
  type: "Concat"
  bottom: "inception_3a/1x1"
  bottom: "inception_3a/3x3"
  bottom: "inception_3a/5x5"
  bottom: "inception_3a/pool_proj"
  top: "inception_3a/output"
}
layer {
  name: "inception_3b/1x1"
  type: "Convolution"
  bottom: "inception_3a/output"
  top: "inception_3b/1x1"
  param {
    lr_mult: 1
    decay_mult: 1
  }
  param {
    lr_mult: 2
    decay_mult: 0
  }
  convolution_param {
    num_output: 128
    kernel_size: 1
    weight_filler {
      type: "xavier"
      std: 0.03
    }
    bias_filler {
      type: "constant"
      value: 0.2
    }
  }
}
layer {
  name: "inception_3b/relu_1x1"
  type: "ReLU"
  bottom: "inception_3b/1x1"
  top: "inception_3b/1x1"
}
layer {
  name: "inception_3b/3x3_reduce"
  type: "Convolution"
  bottom: "inception_3a/output"
  top: "inception_3b/3x3_reduce"
  param {
    lr_mult: 1
    decay_mult: 1
  }
  param {
    lr_mult: 2
    decay_mult: 0
  }
  convolution_param {
    num_output: 128
    kernel_size: 1
    weight_filler {
      type: "xavier"
      std: 0.09
    }
    bias_filler {
      type: "constant"
      value: 0.2
    }
  }
}
layer {
  name: "inception_3b/relu_3x3_reduce"
  type: "ReLU"
  bottom: "inception_3b/3x3_reduce"
  top: "inception_3b/3x3_reduce"
}
layer {
  name: "inception_3b/3x3"
  type: "Convolution"
  bottom: "inception_3b/3x3_reduce"
  top: "inception_3b/3x3"
  param {
    lr_mult: 1
    decay_mult: 1
  }
  param {
    lr_mult: 2
    decay_mult: 0
  }
  convolution_param {
    num_output: 192
    pad: 1
    kernel_size: 3
    weight_filler {
      type: "xavier"
      std: 0.03
    }
    bias_filler {
      type: "constant"
      value: 0.2
    }
  }
}
layer {
  name: "inception_3b/relu_3x3"
  type: "ReLU"
  bottom: "inception_3b/3x3"
  top: "inception_3b/3x3"
}
layer {
  name: "inception_3b/5x5_reduce"
  type: "Convolution"
  bottom: "inception_3a/output"
  top: "inception_3b/5x5_reduce"
  param {
    lr_mult: 1
    decay_mult: 1
  }
  param {
    lr_mult: 2
    decay_mult: 0
  }
  convolution_param {
    num_output: 32
    kernel_size: 1
    weight_filler {
      type: "xavier"
      std: 0.2
    }
    bias_filler {
      type: "constant"
      value: 0.2
    }
  }
}
layer {
  name: "inception_3b/relu_5x5_reduce"
  type: "ReLU"
  bottom: "inception_3b/5x5_reduce"
  top: "inception_3b/5x5_reduce"
}
layer {
  name: "inception_3b/5x5"
  type: "Convolution"
  bottom: "inception_3b/5x5_reduce"
  top: "inception_3b/5x5"
  param {
    lr_mult: 1
    decay_mult: 1
  }
  param {
    lr_mult: 2
    decay_mult: 0
  }
  convolution_param {
    num_output: 96
    pad: 2
    kernel_size: 5
    weight_filler {
      type: "xavier"
      std: 0.03
    }
    bias_filler {
      type: "constant"
      value: 0.2
    }
  }
}
layer {
  name: "inception_3b/relu_5x5"
  type: "ReLU"
  bottom: "inception_3b/5x5"
  top: "inception_3b/5x5"
}
layer {
  name: "inception_3b/pool"
  type: "Pooling"
  bottom: "inception_3a/output"
  top: "inception_3b/pool"
  pooling_param {
    pool: MAX
    kernel_size: 3
    stride: 1
    pad: 1
  }
}
layer {
  name: "inception_3b/pool_proj"
  type: "Convolution"
  bottom: "inception_3b/pool"
  top: "inception_3b/pool_proj"
  param {
    lr_mult: 1
    decay_mult: 1
  }
  param {
    lr_mult: 2
    decay_mult: 0
  }
  convolution_param {
    num_output: 64
    kernel_size: 1
    weight_filler {
      type: "xavier"
      std: 0.1
    }
    bias_filler {
      type: "constant"
      value: 0.2
    }
  }
}
layer {
  name: "inception_3b/relu_pool_proj"
  type: "ReLU"
  bottom: "inception_3b/pool_proj"
  top: "inception_3b/pool_proj"
}
layer {
  name: "inception_3b/output"
  type: "Concat"
  bottom: "inception_3b/1x1"
  bottom: "inception_3b/3x3"
  bottom: "inception_3b/5x5"
  bottom: "inception_3b/pool_proj"
  top: "inception_3b/output"
}
layer {
  name: "pool3/3x3_s2"
  type: "Pooling"
  bottom: "inception_3b/output"
  top: "pool3/3x3_s2"
  pooling_param {
    pool: MAX
    kernel_size: 3
    stride: 2
  }
}
layer {
  name: "inception_4a/1x1"
  type: "Convolution"
  bottom: "pool3/3x3_s2"
  top: "inception_4a/1x1"
  param {
    lr_mult: 1
    decay_mult: 1
  }
  param {
    lr_mult: 2
    decay_mult: 0
  }
  convolution_param {
    num_output: 192
    kernel_size: 1
    weight_filler {
      type: "xavier"
      std: 0.03
    }
    bias_filler {
      type: "constant"
      value: 0.2
    }
  }
}
layer {
  name: "inception_4a/relu_1x1"
  type: "ReLU"
  bottom: "inception_4a/1x1"
  top: "inception_4a/1x1"
}
layer {
  name: "inception_4a/3x3_reduce"
  type: "Convolution"
  bottom: "pool3/3x3_s2"
  top: "inception_4a/3x3_reduce"
  param {
    lr_mult: 1
    decay_mult: 1
  }
  param {
    lr_mult: 2
    decay_mult: 0
  }
  convolution_param {
    num_output: 96
    kernel_size: 1
    weight_filler {
      type: "xavier"
      std: 0.09
    }
    bias_filler {
      type: "constant"
      value: 0.2
    }
  }
}
layer {
  name: "inception_4a/relu_3x3_reduce"
  type: "ReLU"
  bottom: "inception_4a/3x3_reduce"
  top: "inception_4a/3x3_reduce"
}
layer {
  name: "inception_4a/3x3"
  type: "Convolution"
  bottom: "inception_4a/3x3_reduce"
  top: "inception_4a/3x3"
  param {
    lr_mult: 1
    decay_mult: 1
  }
  param {
    lr_mult: 2
    decay_mult: 0
  }
  convolution_param {
    num_output: 208
    pad: 1
    kernel_size: 3
    weight_filler {
      type: "xavier"
      std: 0.03
    }
    bias_filler {
      type: "constant"
      value: 0.2
    }
  }
}
layer {
  name: "inception_4a/relu_3x3"
  type: "ReLU"
  bottom: "inception_4a/3x3"
  top: "inception_4a/3x3"
}
layer {
  name: "inception_4a/5x5_reduce"
  type: "Convolution"
  bottom: "pool3/3x3_s2"
  top: "inception_4a/5x5_reduce"
  param {
    lr_mult: 1
    decay_mult: 1
  }
  param {
    lr_mult: 2
    decay_mult: 0
  }
  convolution_param {
    num_output: 16
    kernel_size: 1
    weight_filler {
      type: "xavier"
      std: 0.2
    }
    bias_filler {
      type: "constant"
      value: 0.2
    }
  }
}
layer {
  name: "inception_4a/relu_5x5_reduce"
  type: "ReLU"
  bottom: "inception_4a/5x5_reduce"
  top: "inception_4a/5x5_reduce"
}
layer {
  name: "inception_4a/5x5"
  type: "Convolution"
  bottom: "inception_4a/5x5_reduce"
  top: "inception_4a/5x5"
  param {
    lr_mult: 1
    decay_mult: 1
  }
  param {
    lr_mult: 2
    decay_mult: 0
  }
  convolution_param {
    num_output: 48
    pad: 2
    kernel_size: 5
    weight_filler {
      type: "xavier"
      std: 0.03
    }
    bias_filler {
      type: "constant"
      value: 0.2
    }
  }
}
layer {
  name: "inception_4a/relu_5x5"
  type: "ReLU"
  bottom: "inception_4a/5x5"
  top: "inception_4a/5x5"
}
layer {
  name: "inception_4a/pool"
  type: "Pooling"
  bottom: "pool3/3x3_s2"
  top: "inception_4a/pool"
  pooling_param {
    pool: MAX
    kernel_size: 3
    stride: 1
    pad: 1
  }
}
layer {
  name: "inception_4a/pool_proj"
  type: "Convolution"
  bottom: "inception_4a/pool"
  top: "inception_4a/pool_proj"
  param {
    lr_mult: 1
    decay_mult: 1
  }
  param {
    lr_mult: 2
    decay_mult: 0
  }
  convolution_param {
    num_output: 64
    kernel_size: 1
    weight_filler {
      type: "xavier"
      std: 0.1
    }
    bias_filler {
      type: "constant"
      value: 0.2
    }
  }
}
layer {
  name: "inception_4a/relu_pool_proj"
  type: "ReLU"
  bottom: "inception_4a/pool_proj"
  top: "inception_4a/pool_proj"
}
layer {
  name: "inception_4a/output"
  type: "Concat"
  bottom: "inception_4a/1x1"
  bottom: "inception_4a/3x3"
  bottom: "inception_4a/5x5"
  bottom: "inception_4a/pool_proj"
  top: "inception_4a/output"
}
layer {
  name: "loss1/ave_pool"
  type: "Pooling"
  bottom: "inception_4a/output"
  top: "loss1/ave_pool"
  pooling_param {
    pool: AVE
    kernel_size: 5
    stride: 3
  }
}
layer {
  name: "loss1/conv"
  type: "Convolution"
  bottom: "loss1/ave_pool"
  top: "loss1/conv"
  param {
    lr_mult: 1
    decay_mult: 1
  }
  param {
    lr_mult: 2
    decay_mult: 0
  }
  convolution_param {
    num_output: 128
    kernel_size: 1
    weight_filler {
      type: "xavier"
      std: 0.08
    }
    bias_filler {
      type: "constant"
      value: 0.2
    }
  }
}
layer {
  name: "loss1/relu_conv"
  type: "ReLU"
  bottom: "loss1/conv"
  top: "loss1/conv"
}
layer {
  name: "loss1/fc"
  type: "InnerProduct"
  bottom: "loss1/conv"
  top: "loss1/fc"
  param {
    lr_mult: 1
    decay_mult: 1
  }
  param {
    lr_mult: 2
    decay_mult: 0
  }
  inner_product_param {
    num_output: 1024
    weight_filler {
      type: "xavier"
      std: 0.02
    }
    bias_filler {
      type: "constant"
      value: 0.2
    }
  }
}
layer {
  name: "loss1/relu_fc"
  type: "ReLU"
  bottom: "loss1/fc"
  top: "loss1/fc"
}
layer {
  name: "loss1/drop_fc"
  type: "Dropout"
  bottom: "loss1/fc"
  top: "loss1/fc"
  dropout_param {
    dropout_ratio: 0.7
  }
}
layer {
  name: "loss1/classifier_plantvillage"
  type: "InnerProduct"
  bottom: "loss1/fc"
  top: "loss1/classifier_plantvillage"
  param {
    lr_mult: 1
    decay_mult: 1
  }
  param {
    lr_mult: 2
    decay_mult: 0
  }
  inner_product_param {
    num_output: 38
    weight_filler {
      type: "xavier"
      std: 0.0009765625
    }
    bias_filler {
      type: "constant"
      value: 0
    }
  }
}
layer {
  name: "inception_4b/1x1"
  type: "Convolution"
  bottom: "inception_4a/output"
  top: "inception_4b/1x1"
  param {
    lr_mult: 1
    decay_mult: 1
  }
  param {
    lr_mult: 2
    decay_mult: 0
  }
  convolution_param {
    num_output: 160
    kernel_size: 1
    weight_filler {
      type: "xavier"
      std: 0.03
    }
    bias_filler {
      type: "constant"
      value: 0.2
    }
  }
}
layer {
  name: "inception_4b/relu_1x1"
  type: "ReLU"
  bottom: "inception_4b/1x1"
  top: "inception_4b/1x1"
}
layer {
  name: "inception_4b/3x3_reduce"
  type: "Convolution"
  bottom: "inception_4a/output"
  top: "inception_4b/3x3_reduce"
  param {
    lr_mult: 1
    decay_mult: 1
  }
  param {
    lr_mult: 2
    decay_mult: 0
  }
  convolution_param {
    num_output: 112
    kernel_size: 1
    weight_filler {
      type: "xavier"
      std: 0.09
    }
    bias_filler {
      type: "constant"
      value: 0.2
    }
  }
}
layer {
  name: "inception_4b/relu_3x3_reduce"
  type: "ReLU"
  bottom: "inception_4b/3x3_reduce"
  top: "inception_4b/3x3_reduce"
}
layer {
  name: "inception_4b/3x3"
  type: "Convolution"
  bottom: "inception_4b/3x3_reduce"
  top: "inception_4b/3x3"
  param {
    lr_mult: 1
    decay_mult: 1
  }
  param {
    lr_mult: 2
    decay_mult: 0
  }
  convolution_param {
    num_output: 224
    pad: 1
    kernel_size: 3
    weight_filler {
      type: "xavier"
      std: 0.03
    }
    bias_filler {
      type: "constant"
      value: 0.2
    }
  }
}
layer {
  name: "inception_4b/relu_3x3"
  type: "ReLU"
  bottom: "inception_4b/3x3"
  top: "inception_4b/3x3"
}
layer {
  name: "inception_4b/5x5_reduce"
  type: "Convolution"
  bottom: "inception_4a/output"
  top: "inception_4b/5x5_reduce"
  param {
    lr_mult: 1
    decay_mult: 1
  }
  param {
    lr_mult: 2
    decay_mult: 0
  }
  convolution_param {
    num_output: 24
    kernel_size: 1
    weight_filler {
      type: "xavier"
      std: 0.2
    }
    bias_filler {
      type: "constant"
      value: 0.2
    }
  }
}
layer {
  name: "inception_4b/relu_5x5_reduce"
  type: "ReLU"
  bottom: "inception_4b/5x5_reduce"
  top: "inception_4b/5x5_reduce"
}
layer {
  name: "inception_4b/5x5"
  type: "Convolution"
  bottom: "inception_4b/5x5_reduce"
  top: "inception_4b/5x5"
  param {
    lr_mult: 1
    decay_mult: 1
  }
  param {
    lr_mult: 2
    decay_mult: 0
  }
  convolution_param {
    num_output: 64
    pad: 2
    kernel_size: 5
    weight_filler {
      type: "xavier"
      std: 0.03
    }
    bias_filler {
      type: "constant"
      value: 0.2
    }
  }
}
layer {
  name: "inception_4b/relu_5x5"
  type: "ReLU"
  bottom: "inception_4b/5x5"
  top: "inception_4b/5x5"
}
layer {
  name: "inception_4b/pool"
  type: "Pooling"
  bottom: "inception_4a/output"
  top: "inception_4b/pool"
  pooling_param {
    pool: MAX
    kernel_size: 3
    stride: 1
    pad: 1
  }
}
layer {
  name: "inception_4b/pool_proj"
  type: "Convolution"
  bottom: "inception_4b/pool"
  top: "inception_4b/pool_proj"
  param {
    lr_mult: 1
    decay_mult: 1
  }
  param {
    lr_mult: 2
    decay_mult: 0
  }
  convolution_param {
    num_output: 64
    kernel_size: 1
    weight_filler {
      type: "xavier"
      std: 0.1
    }
    bias_filler {
      type: "constant"
      value: 0.2
    }
  }
}
layer {
  name: "inception_4b/relu_pool_proj"
  type: "ReLU"
  bottom: "inception_4b/pool_proj"
  top: "inception_4b/pool_proj"
}
layer {
  name: "inception_4b/output"
  type: "Concat"
  bottom: "inception_4b/1x1"
  bottom: "inception_4b/3x3"
  bottom: "inception_4b/5x5"
  bottom: "inception_4b/pool_proj"
  top: "inception_4b/output"
}
layer {
  name: "inception_4c/1x1"
  type: "Convolution"
  bottom: "inception_4b/output"
  top: "inception_4c/1x1"
  param {
    lr_mult: 1
    decay_mult: 1
  }
  param {
    lr_mult: 2
    decay_mult: 0
  }
  convolution_param {
    num_output: 128
    kernel_size: 1
    weight_filler {
      type: "xavier"
      std: 0.03
    }
    bias_filler {
      type: "constant"
      value: 0.2
    }
  }
}
layer {
  name: "inception_4c/relu_1x1"
  type: "ReLU"
  bottom: "inception_4c/1x1"
  top: "inception_4c/1x1"
}
layer {
  name: "inception_4c/3x3_reduce"
  type: "Convolution"
  bottom: "inception_4b/output"
  top: "inception_4c/3x3_reduce"
  param {
    lr_mult: 1
    decay_mult: 1
  }
  param {
    lr_mult: 2
    decay_mult: 0
  }
  convolution_param {
    num_output: 128
    kernel_size: 1
    weight_filler {
      type: "xavier"
      std: 0.09
    }
    bias_filler {
      type: "constant"
      value: 0.2
    }
  }
}
layer {
  name: "inception_4c/relu_3x3_reduce"
  type: "ReLU"
  bottom: "inception_4c/3x3_reduce"
  top: "inception_4c/3x3_reduce"
}
layer {
  name: "inception_4c/3x3"
  type: "Convolution"
  bottom: "inception_4c/3x3_reduce"
  top: "inception_4c/3x3"
  param {
    lr_mult: 1
    decay_mult: 1
  }
  param {
    lr_mult: 2
    decay_mult: 0
  }
  convolution_param {
    num_output: 256
    pad: 1
    kernel_size: 3
    weight_filler {
      type: "xavier"
      std: 0.03
    }
    bias_filler {
      type: "constant"
      value: 0.2
    }
  }
}
layer {
  name: "inception_4c/relu_3x3"
  type: "ReLU"
  bottom: "inception_4c/3x3"
  top: "inception_4c/3x3"
}
layer {
  name: "inception_4c/5x5_reduce"
  type: "Convolution"
  bottom: "inception_4b/output"
  top: "inception_4c/5x5_reduce"
  param {
    lr_mult: 1
    decay_mult: 1
  }
  param {
    lr_mult: 2
    decay_mult: 0
  }
  convolution_param {
    num_output: 24
    kernel_size: 1
    weight_filler {
      type: "xavier"
      std: 0.2
    }
    bias_filler {
      type: "constant"
      value: 0.2
    }
  }
}
layer {
  name: "inception_4c/relu_5x5_reduce"
  type: "ReLU"
  bottom: "inception_4c/5x5_reduce"
  top: "inception_4c/5x5_reduce"
}
layer {
  name: "inception_4c/5x5"
  type: "Convolution"
  bottom: "inception_4c/5x5_reduce"
  top: "inception_4c/5x5"
  param {
    lr_mult: 1
    decay_mult: 1
  }
  param {
    lr_mult: 2
    decay_mult: 0
  }
  convolution_param {
    num_output: 64
    pad: 2
    kernel_size: 5
    weight_filler {
      type: "xavier"
      std: 0.03
    }
    bias_filler {
      type: "constant"
      value: 0.2
    }
  }
}
layer {
  name: "inception_4c/relu_5x5"
  type: "ReLU"
  bottom: "inception_4c/5x5"
  top: "inception_4c/5x5"
}
layer {
  name: "inception_4c/pool"
  type: "Pooling"
  bottom: "inception_4b/output"
  top: "inception_4c/pool"
  pooling_param {
    pool: MAX
    kernel_size: 3
    stride: 1
    pad: 1
  }
}
layer {
  name: "inception_4c/pool_proj"
  type: "Convolution"
  bottom: "inception_4c/pool"
  top: "inception_4c/pool_proj"
  param {
    lr_mult: 1
    decay_mult: 1
  }
  param {
    lr_mult: 2
    decay_mult: 0
  }
  convolution_param {
    num_output: 64
    kernel_size: 1
    weight_filler {
      type: "xavier"
      std: 0.1
    }
    bias_filler {
      type: "constant"
      value: 0.2
    }
  }
}
layer {
  name: "inception_4c/relu_pool_proj"
  type: "ReLU"
  bottom: "inception_4c/pool_proj"
  top: "inception_4c/pool_proj"
}
layer {
  name: "inception_4c/output"
  type: "Concat"
  bottom: "inception_4c/1x1"
  bottom: "inception_4c/3x3"
  bottom: "inception_4c/5x5"
  bottom: "inception_4c/pool_proj"
  top: "inception_4c/output"
}
layer {
  name: "inception_4d/1x1"
  type: "Convolution"
  bottom: "inception_4c/output"
  top: "inception_4d/1x1"
  param {
    lr_mult: 1
    decay_mult: 1
  }
  param {
    lr_mult: 2
    decay_mult: 0
  }
  convolution_param {
    num_output: 112
    kernel_size: 1
    weight_filler {
      type: "xavier"
      std: 0.03
    }
    bias_filler {
      type: "constant"
      value: 0.2
    }
  }
}
layer {
  name: "inception_4d/relu_1x1"
  type: "ReLU"
  bottom: "inception_4d/1x1"
  top: "inception_4d/1x1"
}
layer {
  name: "inception_4d/3x3_reduce"
  type: "Convolution"
  bottom: "inception_4c/output"
  top: "inception_4d/3x3_reduce"
  param {
    lr_mult: 1
    decay_mult: 1
  }
  param {
    lr_mult: 2
    decay_mult: 0
  }
  convolution_param {
    num_output: 144
    kernel_size: 1
    weight_filler {
      type: "xavier"
      std: 0.09
    }
    bias_filler {
      type: "constant"
      value: 0.2
    }
  }
}
layer {
  name: "inception_4d/relu_3x3_reduce"
  type: "ReLU"
  bottom: "inception_4d/3x3_reduce"
  top: "inception_4d/3x3_reduce"
}
layer {
  name: "inception_4d/3x3"
  type: "Convolution"
  bottom: "inception_4d/3x3_reduce"
  top: "inception_4d/3x3"
  param {
    lr_mult: 1
    decay_mult: 1
  }
  param {
    lr_mult: 2
    decay_mult: 0
  }
  convolution_param {
    num_output: 288
    pad: 1
    kernel_size: 3
    weight_filler {
      type: "xavier"
      std: 0.03
    }
    bias_filler {
      type: "constant"
      value: 0.2
    }
  }
}
layer {
  name: "inception_4d/relu_3x3"
  type: "ReLU"
  bottom: "inception_4d/3x3"
  top: "inception_4d/3x3"
}
layer {
  name: "inception_4d/5x5_reduce"
  type: "Convolution"
  bottom: "inception_4c/output"
  top: "inception_4d/5x5_reduce"
  param {
    lr_mult: 1
    decay_mult: 1
  }
  param {
    lr_mult: 2
    decay_mult: 0
  }
  convolution_param {
    num_output: 32
    kernel_size: 1
    weight_filler {
      type: "xavier"
      std: 0.2
    }
    bias_filler {
      type: "constant"
      value: 0.2
    }
  }
}
layer {
  name: "inception_4d/relu_5x5_reduce"
  type: "ReLU"
  bottom: "inception_4d/5x5_reduce"
  top: "inception_4d/5x5_reduce"
}
layer {
  name: "inception_4d/5x5"
  type: "Convolution"
  bottom: "inception_4d/5x5_reduce"
  top: "inception_4d/5x5"
  param {
    lr_mult: 1
    decay_mult: 1
  }
  param {
    lr_mult: 2
    decay_mult: 0
  }
  convolution_param {
    num_output: 64
    pad: 2
    kernel_size: 5
    weight_filler {
      type: "xavier"
      std: 0.03
    }
    bias_filler {
      type: "constant"
      value: 0.2
    }
  }
}
layer {
  name: "inception_4d/relu_5x5"
  type: "ReLU"
  bottom: "inception_4d/5x5"
  top: "inception_4d/5x5"
}
layer {
  name: "inception_4d/pool"
  type: "Pooling"
  bottom: "inception_4c/output"
  top: "inception_4d/pool"
  pooling_param {
    pool: MAX
    kernel_size: 3
    stride: 1
    pad: 1
  }
}
layer {
  name: "inception_4d/pool_proj"
  type: "Convolution"
  bottom: "inception_4d/pool"
  top: "inception_4d/pool_proj"
  param {
    lr_mult: 1
    decay_mult: 1
  }
  param {
    lr_mult: 2
    decay_mult: 0
  }
  convolution_param {
    num_output: 64
    kernel_size: 1
    weight_filler {
      type: "xavier"
      std: 0.1
    }
    bias_filler {
      type: "constant"
      value: 0.2
    }
  }
}
layer {
  name: "inception_4d/relu_pool_proj"
  type: "ReLU"
  bottom: "inception_4d/pool_proj"
  top: "inception_4d/pool_proj"
}
layer {
  name: "inception_4d/output"
  type: "Concat"
  bottom: "inception_4d/1x1"
  bottom: "inception_4d/3x3"
  bottom: "inception_4d/5x5"
  bottom: "inception_4d/pool_proj"
  top: "inception_4d/output"
}
layer {
  name: "loss2/ave_pool"
  type: "Pooling"
  bottom: "inception_4d/output"
  top: "loss2/ave_pool"
  pooling_param {
    pool: AVE
    kernel_size: 5
    stride: 3
  }
}
layer {
  name: "loss2/conv"
  type: "Convolution"
  bottom: "loss2/ave_pool"
  top: "loss2/conv"
  param {
    lr_mult: 1
    decay_mult: 1
  }
  param {
    lr_mult: 2
    decay_mult: 0
  }
  convolution_param {
    num_output: 128
    kernel_size: 1
    weight_filler {
      type: "xavier"
      std: 0.08
    }
    bias_filler {
      type: "constant"
      value: 0.2
    }
  }
}
layer {
  name: "loss2/relu_conv"
  type: "ReLU"
  bottom: "loss2/conv"
  top: "loss2/conv"
}
layer {
  name: "loss2/fc"
  type: "InnerProduct"
  bottom: "loss2/conv"
  top: "loss2/fc"
  param {
    lr_mult: 1
    decay_mult: 1
  }
  param {
    lr_mult: 2
    decay_mult: 0
  }
  inner_product_param {
    num_output: 1024
    weight_filler {
      type: "xavier"
      std: 0.02
    }
    bias_filler {
      type: "constant"
      value: 0.2
    }
  }
}
layer {
  name: "loss2/relu_fc"
  type: "ReLU"
  bottom: "loss2/fc"
  top: "loss2/fc"
}
layer {
  name: "loss2/drop_fc"
  type: "Dropout"
  bottom: "loss2/fc"
  top: "loss2/fc"
  dropout_param {
    dropout_ratio: 0.7
  }
}
layer {
  name: "loss2/classifier_plantvillage"
  type: "InnerProduct"
  bottom: "loss2/fc"
  top: "loss2/classifier_plantvillage"
  param {
    lr_mult: 1
    decay_mult: 1
  }
  param {
    lr_mult: 2
    decay_mult: 0
  }
  inner_product_param {
    num_output: 38
    weight_filler {
      type: "xavier"
      std: 0.0009765625
    }
    bias_filler {
      type: "constant"
      value: 0
    }
  }
}
layer {
  name: "inception_4e/1x1"
  type: "Convolution"
  bottom: "inception_4d/output"
  top: "inception_4e/1x1"
  param {
    lr_mult: 1
    decay_mult: 1
  }
  param {
    lr_mult: 2
    decay_mult: 0
  }
  convolution_param {
    num_output: 256
    kernel_size: 1
    weight_filler {
      type: "xavier"
      std: 0.03
    }
    bias_filler {
      type: "constant"
      value: 0.2
    }
  }
}
layer {
  name: "inception_4e/relu_1x1"
  type: "ReLU"
  bottom: "inception_4e/1x1"
  top: "inception_4e/1x1"
}
layer {
  name: "inception_4e/3x3_reduce"
  type: "Convolution"
  bottom: "inception_4d/output"
  top: "inception_4e/3x3_reduce"
  param {
    lr_mult: 1
    decay_mult: 1
  }
  param {
    lr_mult: 2
    decay_mult: 0
  }
  convolution_param {
    num_output: 160
    kernel_size: 1
    weight_filler {
      type: "xavier"
      std: 0.09
    }
    bias_filler {
      type: "constant"
      value: 0.2
    }
  }
}
layer {
  name: "inception_4e/relu_3x3_reduce"
  type: "ReLU"
  bottom: "inception_4e/3x3_reduce"
  top: "inception_4e/3x3_reduce"
}
layer {
  name: "inception_4e/3x3"
  type: "Convolution"
  bottom: "inception_4e/3x3_reduce"
  top: "inception_4e/3x3"
  param {
    lr_mult: 1
    decay_mult: 1
  }
  param {
    lr_mult: 2
    decay_mult: 0
  }
  convolution_param {
    num_output: 320
    pad: 1
    kernel_size: 3
    weight_filler {
      type: "xavier"
      std: 0.03
    }
    bias_filler {
      type: "constant"
      value: 0.2
    }
  }
}
layer {
  name: "inception_4e/relu_3x3"
  type: "ReLU"
  bottom: "inception_4e/3x3"
  top: "inception_4e/3x3"
}
layer {
  name: "inception_4e/5x5_reduce"
  type: "Convolution"
  bottom: "inception_4d/output"
  top: "inception_4e/5x5_reduce"
  param {
    lr_mult: 1
    decay_mult: 1
  }
  param {
    lr_mult: 2
    decay_mult: 0
  }
  convolution_param {
    num_output: 32
    kernel_size: 1
    weight_filler {
      type: "xavier"
      std: 0.2
    }
    bias_filler {
      type: "constant"
      value: 0.2
    }
  }
}
layer {
  name: "inception_4e/relu_5x5_reduce"
  type: "ReLU"
  bottom: "inception_4e/5x5_reduce"
  top: "inception_4e/5x5_reduce"
}
layer {
  name: "inception_4e/5x5"
  type: "Convolution"
  bottom: "inception_4e/5x5_reduce"
  top: "inception_4e/5x5"
  p
I0403 16:00:10.918423 20621 layer_factory.hpp:77] Creating layer data
I0403 16:00:10.919044 20621 net.cpp:91] Creating Layer data
I0403 16:00:10.919075 20621 net.cpp:399] data -> data
I0403 16:00:10.919127 20621 net.cpp:399] data -> label
I0403 16:00:10.919164 20621 data_transformer.cpp:25] Loading mean file from: /home/mohanty/data/final_dataset/lmdb/color-40-60/mean.binaryproto
I0403 16:00:10.920352 20624 db_lmdb.cpp:38] Opened lmdb /home/mohanty/data/final_dataset/lmdb/color-40-60/test_db
I0403 16:00:10.932732 20621 data_layer.cpp:41] output data size: 24,3,224,224
I0403 16:00:10.963747 20621 net.cpp:141] Setting up data
I0403 16:00:10.963853 20621 net.cpp:148] Top shape: 24 3 224 224 (3612672)
I0403 16:00:10.963876 20621 net.cpp:148] Top shape: 24 (24)
I0403 16:00:10.963892 20621 net.cpp:156] Memory required for data: 14450784
I0403 16:00:10.963920 20621 layer_factory.hpp:77] Creating layer label_data_1_split
I0403 16:00:10.963948 20621 net.cpp:91] Creating Layer label_data_1_split
I0403 16:00:10.963973 20621 net.cpp:425] label_data_1_split <- label
I0403 16:00:10.964007 20621 net.cpp:399] label_data_1_split -> label_data_1_split_0
I0403 16:00:10.964036 20621 net.cpp:399] label_data_1_split -> label_data_1_split_1
I0403 16:00:10.964058 20621 net.cpp:399] label_data_1_split -> label_data_1_split_2
I0403 16:00:10.964079 20621 net.cpp:399] label_data_1_split -> label_data_1_split_3
I0403 16:00:10.964099 20621 net.cpp:399] label_data_1_split -> label_data_1_split_4
I0403 16:00:10.964120 20621 net.cpp:399] label_data_1_split -> label_data_1_split_5
I0403 16:00:10.964140 20621 net.cpp:399] label_data_1_split -> label_data_1_split_6
I0403 16:00:10.964160 20621 net.cpp:399] label_data_1_split -> label_data_1_split_7
I0403 16:00:10.964180 20621 net.cpp:399] label_data_1_split -> label_data_1_split_8
I0403 16:00:10.964200 20621 net.cpp:399] label_data_1_split -> label_data_1_split_9
I0403 16:00:10.964323 20621 net.cpp:141] Setting up label_data_1_split
I0403 16:00:10.964347 20621 net.cpp:148] Top shape: 24 (24)
I0403 16:00:10.964364 20621 net.cpp:148] Top shape: 24 (24)
I0403 16:00:10.964380 20621 net.cpp:148] Top shape: 24 (24)
I0403 16:00:10.964395 20621 net.cpp:148] Top shape: 24 (24)
I0403 16:00:10.964411 20621 net.cpp:148] Top shape: 24 (24)
I0403 16:00:10.964426 20621 net.cpp:148] Top shape: 24 (24)
I0403 16:00:10.964459 20621 net.cpp:148] Top shape: 24 (24)
I0403 16:00:10.964478 20621 net.cpp:148] Top shape: 24 (24)
I0403 16:00:10.964493 20621 net.cpp:148] Top shape: 24 (24)
I0403 16:00:10.964509 20621 net.cpp:148] Top shape: 24 (24)
I0403 16:00:10.964555 20621 net.cpp:156] Memory required for data: 14451744
I0403 16:00:10.964570 20621 layer_factory.hpp:77] Creating layer conv1/7x7_s2
I0403 16:00:10.964603 20621 net.cpp:91] Creating Layer conv1/7x7_s2
I0403 16:00:10.964622 20621 net.cpp:425] conv1/7x7_s2 <- data
I0403 16:00:10.964643 20621 net.cpp:399] conv1/7x7_s2 -> conv1/7x7_s2
I0403 16:00:11.111666 20621 net.cpp:141] Setting up conv1/7x7_s2
I0403 16:00:11.111758 20621 net.cpp:148] Top shape: 24 64 112 112 (19267584)
I0403 16:00:11.111776 20621 net.cpp:156] Memory required for data: 91522080
I0403 16:00:11.111809 20621 layer_factory.hpp:77] Creating layer conv1/relu_7x7
I0403 16:00:11.111840 20621 net.cpp:91] Creating Layer conv1/relu_7x7
I0403 16:00:11.111858 20621 net.cpp:425] conv1/relu_7x7 <- conv1/7x7_s2
I0403 16:00:11.111878 20621 net.cpp:386] conv1/relu_7x7 -> conv1/7x7_s2 (in-place)
I0403 16:00:11.112166 20621 net.cpp:141] Setting up conv1/relu_7x7
I0403 16:00:11.112196 20621 net.cpp:148] Top shape: 24 64 112 112 (19267584)
I0403 16:00:11.112215 20621 net.cpp:156] Memory required for data: 168592416
I0403 16:00:11.112231 20621 layer_factory.hpp:77] Creating layer pool1/3x3_s2
I0403 16:00:11.112258 20621 net.cpp:91] Creating Layer pool1/3x3_s2
I0403 16:00:11.112277 20621 net.cpp:425] pool1/3x3_s2 <- conv1/7x7_s2
I0403 16:00:11.112298 20621 net.cpp:399] pool1/3x3_s2 -> pool1/3x3_s2
I0403 16:00:11.112417 20621 net.cpp:141] Setting up pool1/3x3_s2
I0403 16:00:11.112443 20621 net.cpp:148] Top shape: 24 64 56 56 (4816896)
I0403 16:00:11.112459 20621 net.cpp:156] Memory required for data: 187860000
I0403 16:00:11.112474 20621 layer_factory.hpp:77] Creating layer pool1/norm1
I0403 16:00:11.112500 20621 net.cpp:91] Creating Layer pool1/norm1
I0403 16:00:11.112519 20621 net.cpp:425] pool1/norm1 <- pool1/3x3_s2
I0403 16:00:11.112539 20621 net.cpp:399] pool1/norm1 -> pool1/norm1
I0403 16:00:11.112850 20621 net.cpp:141] Setting up pool1/norm1
I0403 16:00:11.112880 20621 net.cpp:148] Top shape: 24 64 56 56 (4816896)
I0403 16:00:11.112897 20621 net.cpp:156] Memory required for data: 207127584
I0403 16:00:11.112913 20621 layer_factory.hpp:77] Creating layer conv2/3x3_reduce
I0403 16:00:11.112939 20621 net.cpp:91] Creating Layer conv2/3x3_reduce
I0403 16:00:11.112962 20621 net.cpp:425] conv2/3x3_reduce <- pool1/norm1
I0403 16:00:11.112984 20621 net.cpp:399] conv2/3x3_reduce -> conv2/3x3_reduce
I0403 16:00:11.114327 20621 net.cpp:141] Setting up conv2/3x3_reduce
I0403 16:00:11.114359 20621 net.cpp:148] Top shape: 24 64 56 56 (4816896)
I0403 16:00:11.114375 20621 net.cpp:156] Memory required for data: 226395168
I0403 16:00:11.114398 20621 layer_factory.hpp:77] Creating layer conv2/relu_3x3_reduce
I0403 16:00:11.114419 20621 net.cpp:91] Creating Layer conv2/relu_3x3_reduce
I0403 16:00:11.114437 20621 net.cpp:425] conv2/relu_3x3_reduce <- conv2/3x3_reduce
I0403 16:00:11.114456 20621 net.cpp:386] conv2/relu_3x3_reduce -> conv2/3x3_reduce (in-place)
I0403 16:00:11.114737 20621 net.cpp:141] Setting up conv2/relu_3x3_reduce
I0403 16:00:11.114765 20621 net.cpp:148] Top shape: 24 64 56 56 (4816896)
I0403 16:00:11.114781 20621 net.cpp:156] Memory required for data: 245662752
I0403 16:00:11.114796 20621 layer_factory.hpp:77] Creating layer conv2/3x3
I0403 16:00:11.114821 20621 net.cpp:91] Creating Layer conv2/3x3
I0403 16:00:11.114840 20621 net.cpp:425] conv2/3x3 <- conv2/3x3_reduce
I0403 16:00:11.114863 20621 net.cpp:399] conv2/3x3 -> conv2/3x3
I0403 16:00:11.117314 20621 net.cpp:141] Setting up conv2/3x3
I0403 16:00:11.117347 20621 net.cpp:148] Top shape: 24 192 56 56 (14450688)
I0403 16:00:11.117364 20621 net.cpp:156] Memory required for data: 303465504
I0403 16:00:11.117388 20621 layer_factory.hpp:77] Creating layer conv2/relu_3x3
I0403 16:00:11.117410 20621 net.cpp:91] Creating Layer conv2/relu_3x3
I0403 16:00:11.117429 20621 net.cpp:425] conv2/relu_3x3 <- conv2/3x3
I0403 16:00:11.117446 20621 net.cpp:386] conv2/relu_3x3 -> conv2/3x3 (in-place)
I0403 16:00:11.117632 20621 net.cpp:141] Setting up conv2/relu_3x3
I0403 16:00:11.117661 20621 net.cpp:148] Top shape: 24 192 56 56 (14450688)
I0403 16:00:11.117708 20621 net.cpp:156] Memory required for data: 361268256
I0403 16:00:11.117725 20621 layer_factory.hpp:77] Creating layer conv2/norm2
I0403 16:00:11.117771 20621 net.cpp:91] Creating Layer conv2/norm2
I0403 16:00:11.117789 20621 net.cpp:425] conv2/norm2 <- conv2/3x3
I0403 16:00:11.117811 20621 net.cpp:399] conv2/norm2 -> conv2/norm2
I0403 16:00:11.118137 20621 net.cpp:141] Setting up conv2/norm2
I0403 16:00:11.118165 20621 net.cpp:148] Top shape: 24 192 56 56 (14450688)
I0403 16:00:11.118181 20621 net.cpp:156] Memory required for data: 419071008
I0403 16:00:11.118197 20621 layer_factory.hpp:77] Creating layer pool2/3x3_s2
I0403 16:00:11.118217 20621 net.cpp:91] Creating Layer pool2/3x3_s2
I0403 16:00:11.118233 20621 net.cpp:425] pool2/3x3_s2 <- conv2/norm2
I0403 16:00:11.118254 20621 net.cpp:399] pool2/3x3_s2 -> pool2/3x3_s2
I0403 16:00:11.118310 20621 net.cpp:141] Setting up pool2/3x3_s2
I0403 16:00:11.118335 20621 net.cpp:148] Top shape: 24 192 28 28 (3612672)
I0403 16:00:11.118350 20621 net.cpp:156] Memory required for data: 433521696
I0403 16:00:11.118365 20621 layer_factory.hpp:77] Creating layer pool2/3x3_s2_pool2/3x3_s2_0_split
I0403 16:00:11.118386 20621 net.cpp:91] Creating Layer pool2/3x3_s2_pool2/3x3_s2_0_split
I0403 16:00:11.118402 20621 net.cpp:425] pool2/3x3_s2_pool2/3x3_s2_0_split <- pool2/3x3_s2
I0403 16:00:11.118422 20621 net.cpp:399] pool2/3x3_s2_pool2/3x3_s2_0_split -> pool2/3x3_s2_pool2/3x3_s2_0_split_0
I0403 16:00:11.118443 20621 net.cpp:399] pool2/3x3_s2_pool2/3x3_s2_0_split -> pool2/3x3_s2_pool2/3x3_s2_0_split_1
I0403 16:00:11.118463 20621 net.cpp:399] pool2/3x3_s2_pool2/3x3_s2_0_split -> pool2/3x3_s2_pool2/3x3_s2_0_split_2
I0403 16:00:11.118484 20621 net.cpp:399] pool2/3x3_s2_pool2/3x3_s2_0_split -> pool2/3x3_s2_pool2/3x3_s2_0_split_3
I0403 16:00:11.118557 20621 net.cpp:141] Setting up pool2/3x3_s2_pool2/3x3_s2_0_split
I0403 16:00:11.118580 20621 net.cpp:148] Top shape: 24 192 28 28 (3612672)
I0403 16:00:11.118600 20621 net.cpp:148] Top shape: 24 192 28 28 (3612672)
I0403 16:00:11.118628 20621 net.cpp:148] Top shape: 24 192 28 28 (3612672)
I0403 16:00:11.118649 20621 net.cpp:148] Top shape: 24 192 28 28 (3612672)
I0403 16:00:11.118664 20621 net.cpp:156] Memory required for data: 491324448
I0403 16:00:11.118679 20621 layer_factory.hpp:77] Creating layer inception_3a/1x1
I0403 16:00:11.118710 20621 net.cpp:91] Creating Layer inception_3a/1x1
I0403 16:00:11.118727 20621 net.cpp:425] inception_3a/1x1 <- pool2/3x3_s2_pool2/3x3_s2_0_split_0
I0403 16:00:11.118748 20621 net.cpp:399] inception_3a/1x1 -> inception_3a/1x1
I0403 16:00:11.120393 20621 net.cpp:141] Setting up inception_3a/1x1
I0403 16:00:11.120424 20621 net.cpp:148] Top shape: 24 64 28 28 (1204224)
I0403 16:00:11.120441 20621 net.cpp:156] Memory required for data: 496141344
I0403 16:00:11.120460 20621 layer_factory.hpp:77] Creating layer inception_3a/relu_1x1
I0403 16:00:11.120482 20621 net.cpp:91] Creating Layer inception_3a/relu_1x1
I0403 16:00:11.120501 20621 net.cpp:425] inception_3a/relu_1x1 <- inception_3a/1x1
I0403 16:00:11.120518 20621 net.cpp:386] inception_3a/relu_1x1 -> inception_3a/1x1 (in-place)
I0403 16:00:11.120707 20621 net.cpp:141] Setting up inception_3a/relu_1x1
I0403 16:00:11.120733 20621 net.cpp:148] Top shape: 24 64 28 28 (1204224)
I0403 16:00:11.120748 20621 net.cpp:156] Memory required for data: 500958240
I0403 16:00:11.120764 20621 layer_factory.hpp:77] Creating layer inception_3a/3x3_reduce
I0403 16:00:11.120789 20621 net.cpp:91] Creating Layer inception_3a/3x3_reduce
I0403 16:00:11.120806 20621 net.cpp:425] inception_3a/3x3_reduce <- pool2/3x3_s2_pool2/3x3_s2_0_split_1
I0403 16:00:11.120826 20621 net.cpp:399] inception_3a/3x3_reduce -> inception_3a/3x3_reduce
I0403 16:00:11.122695 20621 net.cpp:141] Setting up inception_3a/3x3_reduce
I0403 16:00:11.122726 20621 net.cpp:148] Top shape: 24 96 28 28 (1806336)
I0403 16:00:11.122743 20621 net.cpp:156] Memory required for data: 508183584
I0403 16:00:11.122766 20621 layer_factory.hpp:77] Creating layer inception_3a/relu_3x3_reduce
I0403 16:00:11.122807 20621 net.cpp:91] Creating Layer inception_3a/relu_3x3_reduce
I0403 16:00:11.122825 20621 net.cpp:425] inception_3a/relu_3x3_reduce <- inception_3a/3x3_reduce
I0403 16:00:11.122843 20621 net.cpp:386] inception_3a/relu_3x3_reduce -> inception_3a/3x3_reduce (in-place)
I0403 16:00:11.123047 20621 net.cpp:141] Setting up inception_3a/relu_3x3_reduce
I0403 16:00:11.123075 20621 net.cpp:148] Top shape: 24 96 28 28 (1806336)
I0403 16:00:11.123090 20621 net.cpp:156] Memory required for data: 515408928
I0403 16:00:11.123106 20621 layer_factory.hpp:77] Creating layer inception_3a/3x3
I0403 16:00:11.123128 20621 net.cpp:91] Creating Layer inception_3a/3x3
I0403 16:00:11.123147 20621 net.cpp:425] inception_3a/3x3 <- inception_3a/3x3_reduce
I0403 16:00:11.123169 20621 net.cpp:399] inception_3a/3x3 -> inception_3a/3x3
I0403 16:00:11.124909 20621 net.cpp:141] Setting up inception_3a/3x3
I0403 16:00:11.124938 20621 net.cpp:148] Top shape: 24 128 28 28 (2408448)
I0403 16:00:11.124958 20621 net.cpp:156] Memory required for data: 525042720
I0403 16:00:11.124979 20621 layer_factory.hpp:77] Creating layer inception_3a/relu_3x3
I0403 16:00:11.125000 20621 net.cpp:91] Creating Layer inception_3a/relu_3x3
I0403 16:00:11.125017 20621 net.cpp:425] inception_3a/relu_3x3 <- inception_3a/3x3
I0403 16:00:11.125036 20621 net.cpp:386] inception_3a/relu_3x3 -> inception_3a/3x3 (in-place)
I0403 16:00:11.125321 20621 net.cpp:141] Setting up inception_3a/relu_3x3
I0403 16:00:11.125349 20621 net.cpp:148] Top shape: 24 128 28 28 (2408448)
I0403 16:00:11.125363 20621 net.cpp:156] Memory required for data: 534676512
I0403 16:00:11.125378 20621 layer_factory.hpp:77] Creating layer inception_3a/5x5_reduce
I0403 16:00:11.125401 20621 net.cpp:91] Creating Layer inception_3a/5x5_reduce
I0403 16:00:11.125419 20621 net.cpp:425] inception_3a/5x5_reduce <- pool2/3x3_s2_pool2/3x3_s2_0_split_2
I0403 16:00:11.125440 20621 net.cpp:399] inception_3a/5x5_reduce -> inception_3a/5x5_reduce
I0403 16:00:11.126427 20621 net.cpp:141] Setting up inception_3a/5x5_reduce
I0403 16:00:11.126458 20621 net.cpp:148] Top shape: 24 16 28 28 (301056)
I0403 16:00:11.126476 20621 net.cpp:156] Memory required for data: 535880736
I0403 16:00:11.126493 20621 layer_factory.hpp:77] Creating layer inception_3a/relu_5x5_reduce
I0403 16:00:11.126513 20621 net.cpp:91] Creating Layer inception_3a/relu_5x5_reduce
I0403 16:00:11.126528 20621 net.cpp:425] inception_3a/relu_5x5_reduce <- inception_3a/5x5_reduce
I0403 16:00:11.126546 20621 net.cpp:386] inception_3a/relu_5x5_reduce -> inception_3a/5x5_reduce (in-place)
I0403 16:00:11.126849 20621 net.cpp:141] Setting up inception_3a/relu_5x5_reduce
I0403 16:00:11.126879 20621 net.cpp:148] Top shape: 24 16 28 28 (301056)
I0403 16:00:11.126895 20621 net.cpp:156] Memory required for data: 537084960
I0403 16:00:11.126910 20621 layer_factory.hpp:77] Creating layer inception_3a/5x5
I0403 16:00:11.126934 20621 net.cpp:91] Creating Layer inception_3a/5x5
I0403 16:00:11.126950 20621 net.cpp:425] inception_3a/5x5 <- inception_3a/5x5_reduce
I0403 16:00:11.126976 20621 net.cpp:399] inception_3a/5x5 -> inception_3a/5x5
I0403 16:00:11.128015 20621 net.cpp:141] Setting up inception_3a/5x5
I0403 16:00:11.128042 20621 net.cpp:148] Top shape: 24 32 28 28 (602112)
I0403 16:00:11.128058 20621 net.cpp:156] Memory required for data: 539493408
I0403 16:00:11.128077 20621 layer_factory.hpp:77] Creating layer inception_3a/relu_5x5
I0403 16:00:11.128099 20621 net.cpp:91] Creating Layer inception_3a/relu_5x5
I0403 16:00:11.128115 20621 net.cpp:425] inception_3a/relu_5x5 <- inception_3a/5x5
I0403 16:00:11.128134 20621 net.cpp:386] inception_3a/relu_5x5 -> inception_3a/5x5 (in-place)
I0403 16:00:11.128310 20621 net.cpp:141] Setting up inception_3a/relu_5x5
I0403 16:00:11.128336 20621 net.cpp:148] Top shape: 24 32 28 28 (602112)
I0403 16:00:11.128350 20621 net.cpp:156] Memory required for data: 541901856
I0403 16:00:11.128365 20621 layer_factory.hpp:77] Creating layer inception_3a/pool
I0403 16:00:11.128386 20621 net.cpp:91] Creating Layer inception_3a/pool
I0403 16:00:11.128402 20621 net.cpp:425] inception_3a/pool <- pool2/3x3_s2_pool2/3x3_s2_0_split_3
I0403 16:00:11.128437 20621 net.cpp:399] inception_3a/pool -> inception_3a/pool
I0403 16:00:11.128497 20621 net.cpp:141] Setting up inception_3a/pool
I0403 16:00:11.128522 20621 net.cpp:148] Top shape: 24 192 28 28 (3612672)
I0403 16:00:11.128536 20621 net.cpp:156] Memory required for data: 556352544
I0403 16:00:11.128551 20621 layer_factory.hpp:77] Creating layer inception_3a/pool_proj
I0403 16:00:11.128574 20621 net.cpp:91] Creating Layer inception_3a/pool_proj
I0403 16:00:11.128592 20621 net.cpp:425] inception_3a/pool_proj <- inception_3a/pool
I0403 16:00:11.128614 20621 net.cpp:399] inception_3a/pool_proj -> inception_3a/pool_proj
I0403 16:00:11.129612 20621 net.cpp:141] Setting up inception_3a/pool_proj
I0403 16:00:11.129642 20621 net.cpp:148] Top shape: 24 32 28 28 (602112)
I0403 16:00:11.129657 20621 net.cpp:156] Memory required for data: 558760992
I0403 16:00:11.129681 20621 layer_factory.hpp:77] Creating layer inception_3a/relu_pool_proj
I0403 16:00:11.129701 20621 net.cpp:91] Creating Layer inception_3a/relu_pool_proj
I0403 16:00:11.129717 20621 net.cpp:425] inception_3a/relu_pool_proj <- inception_3a/pool_proj
I0403 16:00:11.129735 20621 net.cpp:386] inception_3a/relu_pool_proj -> inception_3a/pool_proj (in-place)
I0403 16:00:11.130020 20621 net.cpp:141] Setting up inception_3a/relu_pool_proj
I0403 16:00:11.130046 20621 net.cpp:148] Top shape: 24 32 28 28 (602112)
I0403 16:00:11.130061 20621 net.cpp:156] Memory required for data: 561169440
I0403 16:00:11.130077 20621 layer_factory.hpp:77] Creating layer inception_3a/output
I0403 16:00:11.130097 20621 net.cpp:91] Creating Layer inception_3a/output
I0403 16:00:11.130115 20621 net.cpp:425] inception_3a/output <- inception_3a/1x1
I0403 16:00:11.130131 20621 net.cpp:425] inception_3a/output <- inception_3a/3x3
I0403 16:00:11.130147 20621 net.cpp:425] inception_3a/output <- inception_3a/5x5
I0403 16:00:11.130163 20621 net.cpp:425] inception_3a/output <- inception_3a/pool_proj
I0403 16:00:11.130182 20621 net.cpp:399] inception_3a/output -> inception_3a/output
I0403 16:00:11.130230 20621 net.cpp:141] Setting up inception_3a/output
I0403 16:00:11.130254 20621 net.cpp:148] Top shape: 24 256 28 28 (4816896)
I0403 16:00:11.130269 20621 net.cpp:156] Memory required for data: 580437024
I0403 16:00:11.130282 20621 layer_factory.hpp:77] Creating layer inception_3a/output_inception_3a/output_0_split
I0403 16:00:11.130300 20621 net.cpp:91] Creating Layer inception_3a/output_inception_3a/output_0_split
I0403 16:00:11.130316 20621 net.cpp:425] inception_3a/output_inception_3a/output_0_split <- inception_3a/output
I0403 16:00:11.130336 20621 net.cpp:399] inception_3a/output_inception_3a/output_0_split -> inception_3a/output_inception_3a/output_0_split_0
I0403 16:00:11.130357 20621 net.cpp:399] inception_3a/output_inception_3a/output_0_split -> inception_3a/output_inception_3a/output_0_split_1
I0403 16:00:11.130378 20621 net.cpp:399] inception_3a/output_inception_3a/output_0_split -> inception_3a/output_inception_3a/output_0_split_2
I0403 16:00:11.130403 20621 net.cpp:399] inception_3a/output_inception_3a/output_0_split -> inception_3a/output_inception_3a/output_0_split_3
I0403 16:00:11.130480 20621 net.cpp:141] Setting up inception_3a/output_inception_3a/output_0_split
I0403 16:00:11.130503 20621 net.cpp:148] Top shape: 24 256 28 28 (4816896)
I0403 16:00:11.130519 20621 net.cpp:148] Top shape: 24 256 28 28 (4816896)
I0403 16:00:11.130535 20621 net.cpp:148] Top shape: 24 256 28 28 (4816896)
I0403 16:00:11.130550 20621 net.cpp:148] Top shape: 24 256 28 28 (4816896)
I0403 16:00:11.130564 20621 net.cpp:156] Memory required for data: 657507360
I0403 16:00:11.130579 20621 layer_factory.hpp:77] Creating layer inception_3b/1x1
I0403 16:00:11.130601 20621 net.cpp:91] Creating Layer inception_3b/1x1
I0403 16:00:11.130620 20621 net.cpp:425] inception_3b/1x1 <- inception_3a/output_inception_3a/output_0_split_0
I0403 16:00:11.130640 20621 net.cpp:399] inception_3b/1x1 -> inception_3b/1x1
I0403 16:00:11.131841 20621 net.cpp:141] Setting up inception_3b/1x1
I0403 16:00:11.131881 20621 net.cpp:148] Top shape: 24 128 28 28 (2408448)
I0403 16:00:11.131898 20621 net.cpp:156] Memory required for data: 667141152
I0403 16:00:11.131916 20621 layer_factory.hpp:77] Creating layer inception_3b/relu_1x1
I0403 16:00:11.131935 20621 net.cpp:91] Creating Layer inception_3b/relu_1x1
I0403 16:00:11.131952 20621 net.cpp:425] inception_3b/relu_1x1 <- inception_3b/1x1
I0403 16:00:11.131978 20621 net.cpp:386] inception_3b/relu_1x1 -> inception_3b/1x1 (in-place)
I0403 16:00:11.132159 20621 net.cpp:141] Setting up inception_3b/relu_1x1
I0403 16:00:11.132185 20621 net.cpp:148] Top shape: 24 128 28 28 (2408448)
I0403 16:00:11.132200 20621 net.cpp:156] Memory required for data: 676774944
I0403 16:00:11.132216 20621 layer_factory.hpp:77] Creating layer inception_3b/3x3_reduce
I0403 16:00:11.132239 20621 net.cpp:91] Creating Layer inception_3b/3x3_reduce
I0403 16:00:11.132257 20621 net.cpp:425] inception_3b/3x3_reduce <- inception_3a/output_inception_3a/output_0_split_1
I0403 16:00:11.132279 20621 net.cpp:399] inception_3b/3x3_reduce -> inception_3b/3x3_reduce
I0403 16:00:11.133450 20621 net.cpp:141] Setting up inception_3b/3x3_reduce
I0403 16:00:11.133477 20621 net.cpp:148] Top shape: 24 128 28 28 (2408448)
I0403 16:00:11.133494 20621 net.cpp:156] Memory required for data: 686408736
I0403 16:00:11.133512 20621 layer_factory.hpp:77] Creating layer inception_3b/relu_3x3_reduce
I0403 16:00:11.133534 20621 net.cpp:91] Creating Layer inception_3b/relu_3x3_reduce
I0403 16:00:11.133551 20621 net.cpp:425] inception_3b/relu_3x3_reduce <- inception_3b/3x3_reduce
I0403 16:00:11.133569 20621 net.cpp:386] inception_3b/relu_3x3_reduce -> inception_3b/3x3_reduce (in-place)
I0403 16:00:11.133749 20621 net.cpp:141] Setting up inception_3b/relu_3x3_reduce
I0403 16:00:11.133774 20621 net.cpp:148] Top shape: 24 128 28 28 (2408448)
I0403 16:00:11.133788 20621 net.cpp:156] Memory required for data: 696042528
I0403 16:00:11.133803 20621 layer_factory.hpp:77] Creating layer inception_3b/3x3
I0403 16:00:11.133831 20621 net.cpp:91] Creating Layer inception_3b/3x3
I0403 16:00:11.133848 20621 net.cpp:425] inception_3b/3x3 <- inception_3b/3x3_reduce
I0403 16:00:11.133867 20621 net.cpp:399] inception_3b/3x3 -> inception_3b/3x3
I0403 16:00:11.136852 20621 net.cpp:141] Setting up inception_3b/3x3
I0403 16:00:11.136881 20621 net.cpp:148] Top shape: 24 192 28 28 (3612672)
I0403 16:00:11.136898 20621 net.cpp:156] Memory required for data: 710493216
I0403 16:00:11.136915 20621 layer_factory.hpp:77] Creating layer inception_3b/relu_3x3
I0403 16:00:11.136937 20621 net.cpp:91] Creating Layer inception_3b/relu_3x3
I0403 16:00:11.136958 20621 net.cpp:425] inception_3b/relu_3x3 <- inception_3b/3x3
I0403 16:00:11.136977 20621 net.cpp:386] inception_3b/relu_3x3 -> inception_3b/3x3 (in-place)
I0403 16:00:11.137264 20621 net.cpp:141] Setting up inception_3b/relu_3x3
I0403 16:00:11.137291 20621 net.cpp:148] Top shape: 24 192 28 28 (3612672)
I0403 16:00:11.137307 20621 net.cpp:156] Memory required for data: 724943904
I0403 16:00:11.137322 20621 layer_factory.hpp:77] Creating layer inception_3b/5x5_reduce
I0403 16:00:11.137346 20621 net.cpp:91] Creating Layer inception_3b/5x5_reduce
I0403 16:00:11.137363 20621 net.cpp:425] inception_3b/5x5_reduce <- inception_3a/output_inception_3a/output_0_split_2
I0403 16:00:11.137385 20621 net.cpp:399] inception_3b/5x5_reduce -> inception_3b/5x5_reduce
I0403 16:00:11.138411 20621 net.cpp:141] Setting up inception_3b/5x5_reduce
I0403 16:00:11.138440 20621 net.cpp:148] Top shape: 24 32 28 28 (602112)
I0403 16:00:11.138456 20621 net.cpp:156] Memory required for data: 727352352
I0403 16:00:11.138474 20621 layer_factory.hpp:77] Creating layer inception_3b/relu_5x5_reduce
I0403 16:00:11.138495 20621 net.cpp:91] Creating Layer inception_3b/relu_5x5_reduce
I0403 16:00:11.138512 20621 net.cpp:425] inception_3b/relu_5x5_reduce <- inception_3b/5x5_reduce
I0403 16:00:11.138530 20621 net.cpp:386] inception_3b/relu_5x5_reduce -> inception_3b/5x5_reduce (in-place)
I0403 16:00:11.138711 20621 net.cpp:141] Setting up inception_3b/relu_5x5_reduce
I0403 16:00:11.138751 20621 net.cpp:148] Top shape: 24 32 28 28 (602112)
I0403 16:00:11.138767 20621 net.cpp:156] Memory required for data: 729760800
I0403 16:00:11.138782 20621 layer_factory.hpp:77] Creating layer inception_3b/5x5
I0403 16:00:11.138804 20621 net.cpp:91] Creating Layer inception_3b/5x5
I0403 16:00:11.138823 20621 net.cpp:425] inception_3b/5x5 <- inception_3b/5x5_reduce
I0403 16:00:11.138842 20621 net.cpp:399] inception_3b/5x5 -> inception_3b/5x5
I0403 16:00:11.140868 20621 net.cpp:141] Setting up inception_3b/5x5
I0403 16:00:11.140897 20621 net.cpp:148] Top shape: 24 96 28 28 (1806336)
I0403 16:00:11.140911 20621 net.cpp:156] Memory required for data: 736986144
I0403 16:00:11.140929 20621 layer_factory.hpp:77] Creating layer inception_3b/relu_5x5
I0403 16:00:11.140949 20621 net.cpp:91] Creating Layer inception_3b/relu_5x5
I0403 16:00:11.140971 20621 net.cpp:425] inception_3b/relu_5x5 <- inception_3b/5x5
I0403 16:00:11.140990 20621 net.cpp:386] inception_3b/relu_5x5 -> inception_3b/5x5 (in-place)
I0403 16:00:11.141180 20621 net.cpp:141] Setting up inception_3b/relu_5x5
I0403 16:00:11.141206 20621 net.cpp:148] Top shape: 24 96 28 28 (1806336)
I0403 16:00:11.141219 20621 net.cpp:156] Memory required for data: 744211488
I0403 16:00:11.141234 20621 layer_factory.hpp:77] Creating layer inception_3b/pool
I0403 16:00:11.141252 20621 net.cpp:91] Creating Layer inception_3b/pool
I0403 16:00:11.141266 20621 net.cpp:425] inception_3b/pool <- inception_3a/output_inception_3a/output_0_split_3
I0403 16:00:11.141284 20621 net.cpp:399] inception_3b/pool -> inception_3b/pool
I0403 16:00:11.141342 20621 net.cpp:141] Setting up inception_3b/pool
I0403 16:00:11.141366 20621 net.cpp:148] Top shape: 24 256 28 28 (4816896)
I0403 16:00:11.141381 20621 net.cpp:156] Memory required for data: 763479072
I0403 16:00:11.141396 20621 layer_factory.hpp:77] Creating layer inception_3b/pool_proj
I0403 16:00:11.141417 20621 net.cpp:91] Creating Layer inception_3b/pool_proj
I0403 16:00:11.141433 20621 net.cpp:425] inception_3b/pool_proj <- inception_3b/pool
I0403 16:00:11.141454 20621 net.cpp:399] inception_3b/pool_proj -> inception_3b/pool_proj
I0403 16:00:11.142503 20621 net.cpp:141] Setting up inception_3b/pool_proj
I0403 16:00:11.142532 20621 net.cpp:148] Top shape: 24 64 28 28 (1204224)
I0403 16:00:11.142549 20621 net.cpp:156] Memory required for data: 768295968
I0403 16:00:11.142567 20621 layer_factory.hpp:77] Creating layer inception_3b/relu_pool_proj
I0403 16:00:11.142585 20621 net.cpp:91] Creating Layer inception_3b/relu_pool_proj
I0403 16:00:11.142601 20621 net.cpp:425] inception_3b/relu_pool_proj <- inception_3b/pool_proj
I0403 16:00:11.142621 20621 net.cpp:386] inception_3b/relu_pool_proj -> inception_3b/pool_proj (in-place)
I0403 16:00:11.143036 20621 net.cpp:141] Setting up inception_3b/relu_pool_proj
I0403 16:00:11.143065 20621 net.cpp:148] Top shape: 24 64 28 28 (1204224)
I0403 16:00:11.143081 20621 net.cpp:156] Memory required for data: 773112864
I0403 16:00:11.143097 20621 layer_factory.hpp:77] Creating layer inception_3b/output
I0403 16:00:11.143115 20621 net.cpp:91] Creating Layer inception_3b/output
I0403 16:00:11.143131 20621 net.cpp:425] inception_3b/output <- inception_3b/1x1
I0403 16:00:11.143148 20621 net.cpp:425] inception_3b/output <- inception_3b/3x3
I0403 16:00:11.143165 20621 net.cpp:425] inception_3b/output <- inception_3b/5x5
I0403 16:00:11.143182 20621 net.cpp:425] inception_3b/output <- inception_3b/pool_proj
I0403 16:00:11.143199 20621 net.cpp:399] inception_3b/output -> inception_3b/output
I0403 16:00:11.143257 20621 net.cpp:141] Setting up inception_3b/output
I0403 16:00:11.143282 20621 net.cpp:148] Top shape: 24 480 28 28 (9031680)
I0403 16:00:11.143307 20621 net.cpp:156] Memory required for data: 809239584
I0403 16:00:11.143322 20621 layer_factory.hpp:77] Creating layer pool3/3x3_s2
I0403 16:00:11.143343 20621 net.cpp:91] Creating Layer pool3/3x3_s2
I0403 16:00:11.143359 20621 net.cpp:425] pool3/3x3_s2 <- inception_3b/output
I0403 16:00:11.143378 20621 net.cpp:399] pool3/3x3_s2 -> pool3/3x3_s2
I0403 16:00:11.143456 20621 net.cpp:141] Setting up pool3/3x3_s2
I0403 16:00:11.143481 20621 net.cpp:148] Top shape: 24 480 14 14 (2257920)
I0403 16:00:11.143497 20621 net.cpp:156] Memory required for data: 818271264
I0403 16:00:11.143512 20621 layer_factory.hpp:77] Creating layer pool3/3x3_s2_pool3/3x3_s2_0_split
I0403 16:00:11.143532 20621 net.cpp:91] Creating Layer pool3/3x3_s2_pool3/3x3_s2_0_split
I0403 16:00:11.143558 20621 net.cpp:425] pool3/3x3_s2_pool3/3x3_s2_0_split <- pool3/3x3_s2
I0403 16:00:11.143579 20621 net.cpp:399] pool3/3x3_s2_pool3/3x3_s2_0_split -> pool3/3x3_s2_pool3/3x3_s2_0_split_0
I0403 16:00:11.143599 20621 net.cpp:399] pool3/3x3_s2_pool3/3x3_s2_0_split -> pool3/3x3_s2_pool3/3x3_s2_0_split_1
I0403 16:00:11.143620 20621 net.cpp:399] pool3/3x3_s2_pool3/3x3_s2_0_split -> pool3/3x3_s2_pool3/3x3_s2_0_split_2
I0403 16:00:11.143640 20621 net.cpp:399] pool3/3x3_s2_pool3/3x3_s2_0_split -> pool3/3x3_s2_pool3/3x3_s2_0_split_3
I0403 16:00:11.143723 20621 net.cpp:141] Setting up pool3/3x3_s2_pool3/3x3_s2_0_split
I0403 16:00:11.143748 20621 net.cpp:148] Top shape: 24 480 14 14 (2257920)
I0403 16:00:11.143765 20621 net.cpp:148] Top shape: 24 480 14 14 (2257920)
I0403 16:00:11.143781 20621 net.cpp:148] Top shape: 24 480 14 14 (2257920)
I0403 16:00:11.143797 20621 net.cpp:148] Top shape: 24 480 14 14 (2257920)
I0403 16:00:11.143811 20621 net.cpp:156] Memory required for data: 854397984
I0403 16:00:11.143826 20621 layer_factory.hpp:77] Creating layer inception_4a/1x1
I0403 16:00:11.143849 20621 net.cpp:91] Creating Layer inception_4a/1x1
I0403 16:00:11.143867 20621 net.cpp:425] inception_4a/1x1 <- pool3/3x3_s2_pool3/3x3_s2_0_split_0
I0403 16:00:11.143887 20621 net.cpp:399] inception_4a/1x1 -> inception_4a/1x1
I0403 16:00:11.145496 20621 net.cpp:141] Setting up inception_4a/1x1
I0403 16:00:11.145527 20621 net.cpp:148] Top shape: 24 192 14 14 (903168)
I0403 16:00:11.145544 20621 net.cpp:156] Memory required for data: 858010656
I0403 16:00:11.145562 20621 layer_factory.hpp:77] Creating layer inception_4a/relu_1x1
I0403 16:00:11.145581 20621 net.cpp:91] Creating Layer inception_4a/relu_1x1
I0403 16:00:11.145596 20621 net.cpp:425] inception_4a/relu_1x1 <- inception_4a/1x1
I0403 16:00:11.145617 20621 net.cpp:386] inception_4a/relu_1x1 -> inception_4a/1x1 (in-place)
I0403 16:00:11.145797 20621 net.cpp:141] Setting up inception_4a/relu_1x1
I0403 16:00:11.145822 20621 net.cpp:148] Top shape: 24 192 14 14 (903168)
I0403 16:00:11.145835 20621 net.cpp:156] Memory required for data: 861623328
I0403 16:00:11.145849 20621 layer_factory.hpp:77] Creating layer inception_4a/3x3_reduce
I0403 16:00:11.145872 20621 net.cpp:91] Creating Layer inception_4a/3x3_reduce
I0403 16:00:11.145889 20621 net.cpp:425] inception_4a/3x3_reduce <- pool3/3x3_s2_pool3/3x3_s2_0_split_1
I0403 16:00:11.145911 20621 net.cpp:399] inception_4a/3x3_reduce -> inception_4a/3x3_reduce
I0403 16:00:11.147215 20621 net.cpp:141] Setting up inception_4a/3x3_reduce
I0403 16:00:11.147244 20621 net.cpp:148] Top shape: 24 96 14 14 (451584)
I0403 16:00:11.147260 20621 net.cpp:156] Memory required for data: 863429664
I0403 16:00:11.147284 20621 layer_factory.hpp:77] Creating layer inception_4a/relu_3x3_reduce
I0403 16:00:11.147305 20621 net.cpp:91] Creating Layer inception_4a/relu_3x3_reduce
I0403 16:00:11.147321 20621 net.cpp:425] inception_4a/relu_3x3_reduce <- inception_4a/3x3_reduce
I0403 16:00:11.147341 20621 net.cpp:386] inception_4a/relu_3x3_reduce -> inception_4a/3x3_reduce (in-place)
I0403 16:00:11.147523 20621 net.cpp:141] Setting up inception_4a/relu_3x3_reduce
I0403 16:00:11.147548 20621 net.cpp:148] Top shape: 24 96 14 14 (451584)
I0403 16:00:11.147562 20621 net.cpp:156] Memory required for data: 865236000
I0403 16:00:11.147578 20621 layer_factory.hpp:77] Creating layer inception_4a/3x3
I0403 16:00:11.147600 20621 net.cpp:91] Creating Layer inception_4a/3x3
I0403 16:00:11.147617 20621 net.cpp:425] inception_4a/3x3 <- inception_4a/3x3_reduce
I0403 16:00:11.147639 20621 net.cpp:399] inception_4a/3x3 -> inception_4a/3x3
I0403 16:00:11.150460 20621 net.cpp:141] Setting up inception_4a/3x3
I0403 16:00:11.150490 20621 net.cpp:148] Top shape: 24 208 14 14 (978432)
I0403 16:00:11.150506 20621 net.cpp:156] Memory required for data: 869149728
I0403 16:00:11.150524 20621 layer_factory.hpp:77] Creating layer inception_4a/relu_3x3
I0403 16:00:11.150545 20621 net.cpp:91] Creating Layer inception_4a/relu_3x3
I0403 16:00:11.150563 20621 net.cpp:425] inception_4a/relu_3x3 <- inception_4a/3x3
I0403 16:00:11.150580 20621 net.cpp:386] inception_4a/relu_3x3 -> inception_4a/3x3 (in-place)
I0403 16:00:11.150866 20621 net.cpp:141] Setting up inception_4a/relu_3x3
I0403 16:00:11.150892 20621 net.cpp:148] Top shape: 24 208 14 14 (978432)
I0403 16:00:11.150907 20621 net.cpp:156] Memory required for data: 873063456
I0403 16:00:11.150923 20621 layer_factory.hpp:77] Creating layer inception_4a/5x5_reduce
I0403 16:00:11.150948 20621 net.cpp:91] Creating Layer inception_4a/5x5_reduce
I0403 16:00:11.150969 20621 net.cpp:425] inception_4a/5x5_reduce <- pool3/3x3_s2_pool3/3x3_s2_0_split_2
I0403 16:00:11.150992 20621 net.cpp:399] inception_4a/5x5_reduce -> inception_4a/5x5_reduce
I0403 16:00:11.152042 20621 net.cpp:141] Setting up inception_4a/5x5_reduce
I0403 16:00:11.152070 20621 net.cpp:148] Top shape: 24 16 14 14 (75264)
I0403 16:00:11.152086 20621 net.cpp:156] Memory required for data: 873364512
I0403 16:00:11.152106 20621 layer_factory.hpp:77] Creating layer inception_4a/relu_5x5_reduce
I0403 16:00:11.152127 20621 net.cpp:91] Creating Layer inception_4a/relu_5x5_reduce
I0403 16:00:11.152143 20621 net.cpp:425] inception_4a/relu_5x5_reduce <- inception_4a/5x5_reduce
I0403 16:00:11.152163 20621 net.cpp:386] inception_4a/relu_5x5_reduce -> inception_4a/5x5_reduce (in-place)
I0403 16:00:11.152348 20621 net.cpp:141] Setting up inception_4a/relu_5x5_reduce
I0403 16:00:11.152374 20621 net.cpp:148] Top shape: 24 16 14 14 (75264)
I0403 16:00:11.152387 20621 net.cpp:156] Memory required for data: 873665568
I0403 16:00:11.152402 20621 layer_factory.hpp:77] Creating layer inception_4a/5x5
I0403 16:00:11.152426 20621 net.cpp:91] Creating Layer inception_4a/5x5
I0403 16:00:11.152443 20621 net.cpp:425] inception_4a/5x5 <- inception_4a/5x5_reduce
I0403 16:00:11.152462 20621 net.cpp:399] inception_4a/5x5 -> inception_4a/5x5
I0403 16:00:11.153571 20621 net.cpp:141] Setting up inception_4a/5x5
I0403 16:00:11.153601 20621 net.cpp:148] Top shape: 24 48 14 14 (225792)
I0403 16:00:11.153619 20621 net.cpp:156] Memory required for data: 874568736
I0403 16:00:11.153636 20621 layer_factory.hpp:77] Creating layer inception_4a/relu_5x5
I0403 16:00:11.153656 20621 net.cpp:91] Creating Layer inception_4a/relu_5x5
I0403 16:00:11.153671 20621 net.cpp:425] inception_4a/relu_5x5 <- inception_4a/5x5
I0403 16:00:11.153689 20621 net.cpp:386] inception_4a/relu_5x5 -> inception_4a/5x5 (in-place)
I0403 16:00:11.153873 20621 net.cpp:141] Setting up inception_4a/relu_5x5
I0403 16:00:11.153898 20621 net.cpp:148] Top shape: 24 48 14 14 (225792)
I0403 16:00:11.153913 20621 net.cpp:156] Memory required for data: 875471904
I0403 16:00:11.153928 20621 layer_factory.hpp:77] Creating layer inception_4a/pool
I0403 16:00:11.153946 20621 net.cpp:91] Creating Layer inception_4a/pool
I0403 16:00:11.153969 20621 net.cpp:425] inception_4a/pool <- pool3/3x3_s2_pool3/3x3_s2_0_split_3
I0403 16:00:11.153990 20621 net.cpp:399] inception_4a/pool -> inception_4a/pool
I0403 16:00:11.154052 20621 net.cpp:141] Setting up inception_4a/pool
I0403 16:00:11.154078 20621 net.cpp:148] Top shape: 24 480 14 14 (2257920)
I0403 16:00:11.154094 20621 net.cpp:156] Memory required for data: 884503584
I0403 16:00:11.154109 20621 layer_factory.hpp:77] Creating layer inception_4a/pool_proj
I0403 16:00:11.154130 20621 net.cpp:91] Creating Layer inception_4a/pool_proj
I0403 16:00:11.154148 20621 net.cpp:425] inception_4a/pool_proj <- inception_4a/pool
I0403 16:00:11.154168 20621 net.cpp:399] inception_4a/pool_proj -> inception_4a/pool_proj
I0403 16:00:11.155378 20621 net.cpp:141] Setting up inception_4a/pool_proj
I0403 16:00:11.155410 20621 net.cpp:148] Top shape: 24 64 14 14 (301056)
I0403 16:00:11.155438 20621 net.cpp:156] Memory required for data: 885707808
I0403 16:00:11.155458 20621 layer_factory.hpp:77] Creating layer inception_4a/relu_pool_proj
I0403 16:00:11.155477 20621 net.cpp:91] Creating Layer inception_4a/relu_pool_proj
I0403 16:00:11.155493 20621 net.cpp:425] inception_4a/relu_pool_proj <- inception_4a/pool_proj
I0403 16:00:11.155511 20621 net.cpp:386] inception_4a/relu_pool_proj -> inception_4a/pool_proj (in-place)
I0403 16:00:11.155797 20621 net.cpp:141] Setting up inception_4a/relu_pool_proj
I0403 16:00:11.155824 20621 net.cpp:148] Top shape: 24 64 14 14 (301056)
I0403 16:00:11.155839 20621 net.cpp:156] Memory required for data: 886912032
I0403 16:00:11.155854 20621 layer_factory.hpp:77] Creating layer inception_4a/output
I0403 16:00:11.155872 20621 net.cpp:91] Creating Layer inception_4a/output
I0403 16:00:11.155887 20621 net.cpp:425] inception_4a/output <- inception_4a/1x1
I0403 16:00:11.155905 20621 net.cpp:425] inception_4a/output <- inception_4a/3x3
I0403 16:00:11.155920 20621 net.cpp:425] inception_4a/output <- inception_4a/5x5
I0403 16:00:11.155936 20621 net.cpp:425] inception_4a/output <- inception_4a/pool_proj
I0403 16:00:11.155952 20621 net.cpp:399] inception_4a/output -> inception_4a/output
I0403 16:00:11.156004 20621 net.cpp:141] Setting up inception_4a/output
I0403 16:00:11.156028 20621 net.cpp:148] Top shape: 24 512 14 14 (2408448)
I0403 16:00:11.156043 20621 net.cpp:156] Memory required for data: 896545824
I0403 16:00:11.156056 20621 layer_factory.hpp:77] Creating layer inception_4a/output_inception_4a/output_0_split
I0403 16:00:11.156075 20621 net.cpp:91] Creating Layer inception_4a/output_inception_4a/output_0_split
I0403 16:00:11.156092 20621 net.cpp:425] inception_4a/output_inception_4a/output_0_split <- inception_4a/output
I0403 16:00:11.156110 20621 net.cpp:399] inception_4a/output_inception_4a/output_0_split -> inception_4a/output_inception_4a/output_0_split_0
I0403 16:00:11.156129 20621 net.cpp:399] inception_4a/output_inception_4a/output_0_split -> inception_4a/output_inception_4a/output_0_split_1
I0403 16:00:11.156152 20621 net.cpp:399] inception_4a/output_inception_4a/output_0_split -> inception_4a/output_inception_4a/output_0_split_2
I0403 16:00:11.156173 20621 net.cpp:399] inception_4a/output_inception_4a/output_0_split -> inception_4a/output_inception_4a/output_0_split_3
I0403 16:00:11.156193 20621 net.cpp:399] inception_4a/output_inception_4a/output_0_split -> inception_4a/output_inception_4a/output_0_split_4
I0403 16:00:11.156286 20621 net.cpp:141] Setting up inception_4a/output_inception_4a/output_0_split
I0403 16:00:11.156309 20621 net.cpp:148] Top shape: 24 512 14 14 (2408448)
I0403 16:00:11.156325 20621 net.cpp:148] Top shape: 24 512 14 14 (2408448)
I0403 16:00:11.156340 20621 net.cpp:148] Top shape: 24 512 14 14 (2408448)
I0403 16:00:11.156355 20621 net.cpp:148] Top shape: 24 512 14 14 (2408448)
I0403 16:00:11.156369 20621 net.cpp:148] Top shape: 24 512 14 14 (2408448)
I0403 16:00:11.156383 20621 net.cpp:156] Memory required for data: 944714784
I0403 16:00:11.156397 20621 layer_factory.hpp:77] Creating layer loss1/ave_pool
I0403 16:00:11.156416 20621 net.cpp:91] Creating Layer loss1/ave_pool
I0403 16:00:11.156432 20621 net.cpp:425] loss1/ave_pool <- inception_4a/output_inception_4a/output_0_split_0
I0403 16:00:11.156450 20621 net.cpp:399] loss1/ave_pool -> loss1/ave_pool
I0403 16:00:11.156654 20621 net.cpp:141] Setting up loss1/ave_pool
I0403 16:00:11.156680 20621 net.cpp:148] Top shape: 24 512 4 4 (196608)
I0403 16:00:11.156695 20621 net.cpp:156] Memory required for data: 945501216
I0403 16:00:11.156709 20621 layer_factory.hpp:77] Creating layer loss1/conv
I0403 16:00:11.156731 20621 net.cpp:91] Creating Layer loss1/conv
I0403 16:00:11.156749 20621 net.cpp:425] loss1/conv <- loss1/ave_pool
I0403 16:00:11.156769 20621 net.cpp:399] loss1/conv -> loss1/conv
I0403 16:00:11.158210 20621 net.cpp:141] Setting up loss1/conv
I0403 16:00:11.158238 20621 net.cpp:148] Top shape: 24 128 4 4 (49152)
I0403 16:00:11.158253 20621 net.cpp:156] Memory required for data: 945697824
I0403 16:00:11.158287 20621 layer_factory.hpp:77] Creating layer loss1/relu_conv
I0403 16:00:11.158308 20621 net.cpp:91] Creating Layer loss1/relu_conv
I0403 16:00:11.158324 20621 net.cpp:425] loss1/relu_conv <- loss1/conv
I0403 16:00:11.158341 20621 net.cpp:386] loss1/relu_conv -> loss1/conv (in-place)
I0403 16:00:11.158622 20621 net.cpp:141] Setting up loss1/relu_conv
I0403 16:00:11.158648 20621 net.cpp:148] Top shape: 24 128 4 4 (49152)
I0403 16:00:11.158663 20621 net.cpp:156] Memory required for data: 945894432
I0403 16:00:11.158677 20621 layer_factory.hpp:77] Creating layer loss1/fc
I0403 16:00:11.158702 20621 net.cpp:91] Creating Layer loss1/fc
I0403 16:00:11.158720 20621 net.cpp:425] loss1/fc <- loss1/conv
I0403 16:00:11.158738 20621 net.cpp:399] loss1/fc -> loss1/fc
I0403 16:00:11.175984 20621 net.cpp:141] Setting up loss1/fc
I0403 16:00:11.176019 20621 net.cpp:148] Top shape: 24 1024 (24576)
I0403 16:00:11.176034 20621 net.cpp:156] Memory required for data: 945992736
I0403 16:00:11.176051 20621 layer_factory.hpp:77] Creating layer loss1/relu_fc
I0403 16:00:11.176069 20621 net.cpp:91] Creating Layer loss1/relu_fc
I0403 16:00:11.176084 20621 net.cpp:425] loss1/relu_fc <- loss1/fc
I0403 16:00:11.176105 20621 net.cpp:386] loss1/relu_fc -> loss1/fc (in-place)
I0403 16:00:11.176286 20621 net.cpp:141] Setting up loss1/relu_fc
I0403 16:00:11.176309 20621 net.cpp:148] Top shape: 24 1024 (24576)
I0403 16:00:11.176323 20621 net.cpp:156] Memory required for data: 946091040
I0403 16:00:11.176338 20621 layer_factory.hpp:77] Creating layer loss1/drop_fc
I0403 16:00:11.176365 20621 net.cpp:91] Creating Layer loss1/drop_fc
I0403 16:00:11.176383 20621 net.cpp:425] loss1/drop_fc <- loss1/fc
I0403 16:00:11.176399 20621 net.cpp:386] loss1/drop_fc -> loss1/fc (in-place)
I0403 16:00:11.176447 20621 net.cpp:141] Setting up loss1/drop_fc
I0403 16:00:11.176470 20621 net.cpp:148] Top shape: 24 1024 (24576)
I0403 16:00:11.176483 20621 net.cpp:156] Memory required for data: 946189344
I0403 16:00:11.176498 20621 layer_factory.hpp:77] Creating layer loss1/classifier_plantvillage
I0403 16:00:11.176518 20621 net.cpp:91] Creating Layer loss1/classifier_plantvillage
I0403 16:00:11.176534 20621 net.cpp:425] loss1/classifier_plantvillage <- loss1/fc
I0403 16:00:11.176553 20621 net.cpp:399] loss1/classifier_plantvillage -> loss1/classifier_plantvillage
I0403 16:00:11.177424 20621 net.cpp:141] Setting up loss1/classifier_plantvillage
I0403 16:00:11.177451 20621 net.cpp:148] Top shape: 24 38 (912)
I0403 16:00:11.177465 20621 net.cpp:156] Memory required for data: 946192992
I0403 16:00:11.177484 20621 layer_factory.hpp:77] Creating layer loss1/classifier_plantvillage_loss1/classifier_plantvillage_0_split
I0403 16:00:11.177501 20621 net.cpp:91] Creating Layer loss1/classifier_plantvillage_loss1/classifier_plantvillage_0_split
I0403 16:00:11.177516 20621 net.cpp:425] loss1/classifier_plantvillage_loss1/classifier_plantvillage_0_split <- loss1/classifier_plantvillage
I0403 16:00:11.177536 20621 net.cpp:399] loss1/classifier_plantvillage_loss1/classifier_plantvillage_0_split -> loss1/classifier_plantvillage_loss1/classifier_plantvillage_0_split_0
I0403 16:00:11.177557 20621 net.cpp:399] loss1/classifier_plantvillage_loss1/classifier_plantvillage_0_split -> loss1/classifier_plantvillage_loss1/classifier_plantvillage_0_split_1
I0403 16:00:11.177577 20621 net.cpp:399] loss1/classifier_plantvillage_loss1/classifier_plantvillage_0_split -> loss1/classifier_plantvillage_loss1/classifier_plantvillage_0_split_2
I0403 16:00:11.177641 20621 net.cpp:141] Setting up loss1/classifier_plantvillage_loss1/classifier_plantvillage_0_split
I0403 16:00:11.177665 20621 net.cpp:148] Top shape: 24 38 (912)
I0403 16:00:11.177681 20621 net.cpp:148] Top shape: 24 38 (912)
I0403 16:00:11.177696 20621 net.cpp:148] Top shape: 24 38 (912)
I0403 16:00:11.177709 20621 net.cpp:156] Memory required for data: 946203936
I0403 16:00:11.177723 20621 layer_factory.hpp:77] Creating layer inception_4b/1x1
I0403 16:00:11.177743 20621 net.cpp:91] Creating Layer inception_4b/1x1
I0403 16:00:11.177774 20621 net.cpp:425] inception_4b/1x1 <- inception_4a/output_inception_4a/output_0_split_1
I0403 16:00:11.177793 20621 net.cpp:399] inception_4b/1x1 -> inception_4b/1x1
I0403 16:00:11.179397 20621 net.cpp:141] Setting up inception_4b/1x1
I0403 16:00:11.179425 20621 net.cpp:148] Top shape: 24 160 14 14 (752640)
I0403 16:00:11.179440 20621 net.cpp:156] Memory required for data: 949214496
I0403 16:00:11.179458 20621 layer_factory.hpp:77] Creating layer inception_4b/relu_1x1
I0403 16:00:11.179477 20621 net.cpp:91] Creating Layer inception_4b/relu_1x1
I0403 16:00:11.179493 20621 net.cpp:425] inception_4b/relu_1x1 <- inception_4b/1x1
I0403 16:00:11.179510 20621 net.cpp:386] inception_4b/relu_1x1 -> inception_4b/1x1 (in-place)
I0403 16:00:11.179759 20621 net.cpp:141] Setting up inception_4b/relu_1x1
I0403 16:00:11.179785 20621 net.cpp:148] Top shape: 24 160 14 14 (752640)
I0403 16:00:11.179798 20621 net.cpp:156] Memory required for data: 952225056
I0403 16:00:11.179812 20621 layer_factory.hpp:77] Creating layer inception_4b/3x3_reduce
I0403 16:00:11.179836 20621 net.cpp:91] Creating Layer inception_4b/3x3_reduce
I0403 16:00:11.179852 20621 net.cpp:425] inception_4b/3x3_reduce <- inception_4a/output_inception_4a/output_0_split_2
I0403 16:00:11.179870 20621 net.cpp:399] inception_4b/3x3_reduce -> inception_4b/3x3_reduce
I0403 16:00:11.181248 20621 net.cpp:141] Setting up inception_4b/3x3_reduce
I0403 16:00:11.181275 20621 net.cpp:148] Top shape: 24 112 14 14 (526848)
I0403 16:00:11.181290 20621 net.cpp:156] Memory required for data: 954332448
I0403 16:00:11.181308 20621 layer_factory.hpp:77] Creating layer inception_4b/relu_3x3_reduce
I0403 16:00:11.181329 20621 net.cpp:91] Creating Layer inception_4b/relu_3x3_reduce
I0403 16:00:11.181345 20621 net.cpp:425] inception_4b/relu_3x3_reduce <- inception_4b/3x3_reduce
I0403 16:00:11.181362 20621 net.cpp:386] inception_4b/relu_3x3_reduce -> inception_4b/3x3_reduce (in-place)
I0403 16:00:11.181637 20621 net.cpp:141] Setting up inception_4b/relu_3x3_reduce
I0403 16:00:11.181661 20621 net.cpp:148] Top shape: 24 112 14 14 (526848)
I0403 16:00:11.181675 20621 net.cpp:156] Memory required for data: 956439840
I0403 16:00:11.181689 20621 layer_factory.hpp:77] Creating layer inception_4b/3x3
I0403 16:00:11.181711 20621 net.cpp:91] Creating Layer inception_4b/3x3
I0403 16:00:11.181728 20621 net.cpp:425] inception_4b/3x3 <- inception_4b/3x3_reduce
I0403 16:00:11.181747 20621 net.cpp:399] inception_4b/3x3 -> inception_4b/3x3
I0403 16:00:11.184643 20621 net.cpp:141] Setting up inception_4b/3x3
I0403 16:00:11.184674 20621 net.cpp:148] Top shape: 24 224 14 14 (1053696)
I0403 16:00:11.184698 20621 net.cpp:156] Memory required for data: 960654624
I0403 16:00:11.184717 20621 layer_factory.hpp:77] Creating layer inception_4b/relu_3x3
I0403 16:00:11.184738 20621 net.cpp:91] Creating Layer inception_4b/relu_3x3
I0403 16:00:11.184753 20621 net.cpp:425] inception_4b/relu_3x3 <- inception_4b/3x3
I0403 16:00:11.184773 20621 net.cpp:386] inception_4b/relu_3x3 -> inception_4b/3x3 (in-place)
I0403 16:00:11.184949 20621 net.cpp:141] Setting up inception_4b/relu_3x3
I0403 16:00:11.184980 20621 net.cpp:148] Top shape: 24 224 14 14 (1053696)
I0403 16:00:11.185000 20621 net.cpp:156] Memory required for data: 964869408
I0403 16:00:11.185020 20621 layer_factory.hpp:77] Creating layer inception_4b/5x5_reduce
I0403 16:00:11.185046 20621 net.cpp:91] Creating Layer inception_4b/5x5_reduce
I0403 16:00:11.185071 20621 net.cpp:425] inception_4b/5x5_reduce <- inception_4a/output_inception_4a/output_0_split_3
I0403 16:00:11.185099 20621 net.cpp:399] inception_4b/5x5_reduce -> inception_4b/5x5_reduce
I0403 16:00:11.186193 20621 net.cpp:141] Setting up inception_4b/5x5_reduce
I0403 16:00:11.186223 20621 net.cpp:148] Top shape: 24 24 14 14 (112896)
I0403 16:00:11.186239 20621 net.cpp:156] Memory required for data: 965320992
I0403 16:00:11.186255 20621 layer_factory.hpp:77] Creating layer inception_4b/relu_5x5_reduce
I0403 16:00:11.186276 20621 net.cpp:91] Creating Layer inception_4b/relu_5x5_reduce
I0403 16:00:11.186306 20621 net.cpp:425] inception_4b/relu_5x5_reduce <- inception_4b/5x5_reduce
I0403 16:00:11.186326 20621 net.cpp:386] inception_4b/relu_5x5_reduce -> inception_4b/5x5_reduce (in-place)
I0403 16:00:11.186508 20621 net.cpp:141] Setting up inception_4b/relu_5x5_reduce
I0403 16:00:11.186535 20621 net.cpp:148] Top shape: 24 24 14 14 (112896)
I0403 16:00:11.186550 20621 net.cpp:156] Memory required for data: 965772576
I0403 16:00:11.186565 20621 layer_factory.hpp:77] Creating layer inception_4b/5x5
I0403 16:00:11.186588 20621 net.cpp:91] Creating Layer inception_4b/5x5
I0403 16:00:11.186605 20621 net.cpp:425] inception_4b/5x5 <- inception_4b/5x5_reduce
I0403 16:00:11.186624 20621 net.cpp:399] inception_4b/5x5 -> inception_4b/5x5
I0403 16:00:11.187844 20621 net.cpp:141] Setting up inception_4b/5x5
I0403 16:00:11.187871 20621 net.cpp:148] Top shape: 24 64 14 14 (301056)
I0403 16:00:11.187887 20621 net.cpp:156] Memory required for data: 966976800
I0403 16:00:11.187906 20621 layer_factory.hpp:77] Creating layer inception_4b/relu_5x5
I0403 16:00:11.187925 20621 net.cpp:91] Creating Layer inception_4b/relu_5x5
I0403 16:00:11.187942 20621 net.cpp:425] inception_4b/relu_5x5 <- inception_4b/5x5
I0403 16:00:11.187963 20621 net.cpp:386] inception_4b/relu_5x5 -> inception_4b/5x5 (in-place)
I0403 16:00:11.188251 20621 net.cpp:141] Setting up inception_4b/relu_5x5
I0403 16:00:11.188277 20621 net.cpp:148] Top shape: 24 64 14 14 (301056)
I0403 16:00:11.188293 20621 net.cpp:156] Memory required for data: 968181024
I0403 16:00:11.188308 20621 layer_factory.hpp:77] Creating layer inception_4b/pool
I0403 16:00:11.188329 20621 net.cpp:91] Creating Layer inception_4b/pool
I0403 16:00:11.188346 20621 net.cpp:425] inception_4b/pool <- inception_4a/output_inception_4a/output_0_split_4
I0403 16:00:11.188364 20621 net.cpp:399] inception_4b/pool -> inception_4b/pool
I0403 16:00:11.188429 20621 net.cpp:141] Setting up inception_4b/pool
I0403 16:00:11.188453 20621 net.cpp:148] Top shape: 24 512 14 14 (2408448)
I0403 16:00:11.188467 20621 net.cpp:156] Memory required for data: 977814816
I0403 16:00:11.188482 20621 layer_factory.hpp:77] Creating layer inception_4b/pool_proj
I0403 16:00:11.188504 20621 net.cpp:91] Creating Layer inception_4b/pool_proj
I0403 16:00:11.188522 20621 net.cpp:425] inception_4b/pool_proj <- inception_4b/pool
I0403 16:00:11.188542 20621 net.cpp:399] inception_4b/pool_proj -> inception_4b/pool_proj
I0403 16:00:11.189749 20621 net.cpp:141] Setting up inception_4b/pool_proj
I0403 16:00:11.189775 20621 net.cpp:148] Top shape: 24 64 14 14 (301056)
I0403 16:00:11.189790 20621 net.cpp:156] Memory required for data: 979019040
I0403 16:00:11.189810 20621 layer_factory.hpp:77] Creating layer inception_4b/relu_pool_proj
I0403 16:00:11.189831 20621 net.cpp:91] Creating Layer inception_4b/relu_pool_proj
I0403 16:00:11.189847 20621 net.cpp:425] inception_4b/relu_pool_proj <- inception_4b/pool_proj
I0403 16:00:11.189864 20621 net.cpp:386] inception_4b/relu_pool_proj -> inception_4b/pool_proj (in-place)
I0403 16:00:11.190078 20621 net.cpp:141] Setting up inception_4b/relu_pool_proj
I0403 16:00:11.190105 20621 net.cpp:148] Top shape: 24 64 14 14 (301056)
I0403 16:00:11.190120 20621 net.cpp:156] Memory required for data: 980223264
I0403 16:00:11.190135 20621 layer_factory.hpp:77] Creating layer inception_4b/output
I0403 16:00:11.190153 20621 net.cpp:91] Creating Layer inception_4b/output
I0403 16:00:11.190168 20621 net.cpp:425] inception_4b/output <- inception_4b/1x1
I0403 16:00:11.190186 20621 net.cpp:425] inception_4b/output <- inception_4b/3x3
I0403 16:00:11.190202 20621 net.cpp:425] inception_4b/output <- inception_4b/5x5
I0403 16:00:11.190218 20621 net.cpp:425] inception_4b/output <- inception_4b/pool_proj
I0403 16:00:11.190235 20621 net.cpp:399] inception_4b/output -> inception_4b/output
I0403 16:00:11.190284 20621 net.cpp:141] Setting up inception_4b/output
I0403 16:00:11.190307 20621 net.cpp:148] Top shape: 24 512 14 14 (2408448)
I0403 16:00:11.190322 20621 net.cpp:156] Memory required for data: 989857056
I0403 16:00:11.190352 20621 layer_factory.hpp:77] Creating layer inception_4b/output_inception_4b/output_0_split
I0403 16:00:11.190373 20621 net.cpp:91] Creating Layer inception_4b/output_inception_4b/output_0_split
I0403 16:00:11.190389 20621 net.cpp:425] inception_4b/output_inception_4b/output_0_split <- inception_4b/output
I0403 16:00:11.190407 20621 net.cpp:399] inception_4b/output_inception_4b/output_0_split -> inception_4b/output_inception_4b/output_0_split_0
I0403 16:00:11.190428 20621 net.cpp:399] inception_4b/output_inception_4b/output_0_split -> inception_4b/output_inception_4b/output_0_split_1
I0403 16:00:11.190448 20621 net.cpp:399] inception_4b/output_inception_4b/output_0_split -> inception_4b/output_inception_4b/output_0_split_2
I0403 16:00:11.190471 20621 net.cpp:399] inception_4b/output_inception_4b/output_0_split -> inception_4b/output_inception_4b/output_0_split_3
I0403 16:00:11.190559 20621 net.cpp:141] Setting up inception_4b/output_inception_4b/output_0_split
I0403 16:00:11.190582 20621 net.cpp:148] Top shape: 24 512 14 14 (2408448)
I0403 16:00:11.190599 20621 net.cpp:148] Top shape: 24 512 14 14 (2408448)
I0403 16:00:11.190615 20621 net.cpp:148] Top shape: 24 512 14 14 (2408448)
I0403 16:00:11.190631 20621 net.cpp:148] Top shape: 24 512 14 14 (2408448)
I0403 16:00:11.190644 20621 net.cpp:156] Memory required for data: 1028392224
I0403 16:00:11.190659 20621 layer_factory.hpp:77] Creating layer inception_4c/1x1
I0403 16:00:11.190681 20621 net.cpp:91] Creating Layer inception_4c/1x1
I0403 16:00:11.190698 20621 net.cpp:425] inception_4c/1x1 <- inception_4b/output_inception_4b/output_0_split_0
I0403 16:00:11.190721 20621 net.cpp:399] inception_4c/1x1 -> inception_4c/1x1
I0403 16:00:11.192205 20621 net.cpp:141] Setting up inception_4c/1x1
I0403 16:00:11.192237 20621 net.cpp:148] Top shape: 24 128 14 14 (602112)
I0403 16:00:11.192255 20621 net.cpp:156] Memory required for data: 1030800672
I0403 16:00:11.192273 20621 layer_factory.hpp:77] Creating layer inception_4c/relu_1x1
I0403 16:00:11.192291 20621 net.cpp:91] Creating Layer inception_4c/relu_1x1
I0403 16:00:11.192307 20621 net.cpp:425] inception_4c/relu_1x1 <- inception_4c/1x1
I0403 16:00:11.192328 20621 net.cpp:386] inception_4c/relu_1x1 -> inception_4c/1x1 (in-place)
I0403 16:00:11.192512 20621 net.cpp:141] Setting up inception_4c/relu_1x1
I0403 16:00:11.192538 20621 net.cpp:148] Top shape: 24 128 14 14 (602112)
I0403 16:00:11.192551 20621 net.cpp:156] Memory required for data: 1033209120
I0403 16:00:11.192566 20621 layer_factory.hpp:77] Creating layer inception_4c/3x3_reduce
I0403 16:00:11.192589 20621 net.cpp:91] Creating Layer inception_4c/3x3_reduce
I0403 16:00:11.192606 20621 net.cpp:425] inception_4c/3x3_reduce <- inception_4b/output_inception_4b/output_0_split_1
I0403 16:00:11.192628 20621 net.cpp:399] inception_4c/3x3_reduce -> inception_4c/3x3_reduce
I0403 16:00:11.194612 20621 net.cpp:141] Setting up inception_4c/3x3_reduce
I0403 16:00:11.194641 20621 net.cpp:148] Top shape: 24 128 14 14 (602112)
I0403 16:00:11.194658 20621 net.cpp:156] Memory required for data: 1035617568
I0403 16:00:11.194676 20621 layer_factory.hpp:77] Creating layer inception_4c/relu_3x3_reduce
I0403 16:00:11.194697 20621 net.cpp:91] Creating Layer inception_4c/relu_3x3_reduce
I0403 16:00:11.194715 20621 net.cpp:425] inception_4c/relu_3x3_reduce <- inception_4c/3x3_reduce
I0403 16:00:11.194732 20621 net.cpp:386] inception_4c/relu_3x3_reduce -> inception_4c/3x3_reduce (in-place)
I0403 16:00:11.195030 20621 net.cpp:141] Setting up inception_4c/relu_3x3_reduce
I0403 16:00:11.195057 20621 net.cpp:148] Top shape: 24 128 14 14 (602112)
I0403 16:00:11.195072 20621 net.cpp:156] Memory required for data: 1038026016
I0403 16:00:11.195087 20621 layer_factory.hpp:77] Creating layer inception_4c/3x3
I0403 16:00:11.195111 20621 net.cpp:91] Creating Layer inception_4c/3x3
I0403 16:00:11.195128 20621 net.cpp:425] inception_4c/3x3 <- inception_4c/3x3_reduce
I0403 16:00:11.195152 20621 net.cpp:399] inception_4c/3x3 -> inception_4c/3x3
I0403 16:00:11.198856 20621 net.cpp:141] Setting up inception_4c/3x3
I0403 16:00:11.198902 20621 net.cpp:148] Top shape: 24 256 14 14 (1204224)
I0403 16:00:11.198920 20621 net.cpp:156] Memory required for data: 1042842912
I0403 16:00:11.198951 20621 layer_factory.hpp:77] Creating layer inception_4c/relu_3x3
I0403 16:00:11.198987 20621 net.cpp:91] Creating Layer inception_4c/relu_3x3
I0403 16:00:11.199005 20621 net.cpp:425] inception_4c/relu_3x3 <- inception_4c/3x3
I0403 16:00:11.199023 20621 net.cpp:386] inception_4c/relu_3x3 -> inception_4c/3x3 (in-place)
I0403 16:00:11.199213 20621 net.cpp:141] Setting up inception_4c/relu_3x3
I0403 16:00:11.199239 20621 net.cpp:148] Top shape: 24 256 14 14 (1204224)
I0403 16:00:11.199254 20621 net.cpp:156] Memory required for data: 1047659808
I0403 16:00:11.199268 20621 layer_factory.hpp:77] Creating layer inception_4c/5x5_reduce
I0403 16:00:11.199291 20621 net.cpp:91] Creating Layer inception_4c/5x5_reduce
I0403 16:00:11.199312 20621 net.cpp:425] inception_4c/5x5_reduce <- inception_4b/output_inception_4b/output_0_split_2
I0403 16:00:11.199331 20621 net.cpp:399] inception_4c/5x5_reduce -> inception_4c/5x5_reduce
I0403 16:00:11.200460 20621 net.cpp:141] Setting up inception_4c/5x5_reduce
I0403 16:00:11.200489 20621 net.cpp:148] Top shape: 24 24 14 14 (112896)
I0403 16:00:11.200505 20621 net.cpp:156] Memory required for data: 1048111392
I0403 16:00:11.200523 20621 layer_factory.hpp:77] Creating layer inception_4c/relu_5x5_reduce
I0403 16:00:11.200544 20621 net.cpp:91] Creating Layer inception_4c/relu_5x5_reduce
I0403 16:00:11.200562 20621 net.cpp:425] inception_4c/relu_5x5_reduce <- inception_4c/5x5_reduce
I0403 16:00:11.200580 20621 net.cpp:386] inception_4c/relu_5x5_reduce -> inception_4c/5x5_reduce (in-place)
I0403 16:00:11.200768 20621 net.cpp:141] Setting up inception_4c/relu_5x5_reduce
I0403 16:00:11.200796 20621 net.cpp:148] Top shape: 24 24 14 14 (112896)
I0403 16:00:11.200811 20621 net.cpp:156] Memory required for data: 1048562976
I0403 16:00:11.200827 20621 layer_factory.hpp:77] Creating layer inception_4c/5x5
I0403 16:00:11.200850 20621 net.cpp:91] Creating Layer inception_4c/5x5
I0403 16:00:11.200867 20621 net.cpp:425] inception_4c/5x5 <- inception_4c/5x5_reduce
I0403 16:00:11.200887 20621 net.cpp:399] inception_4c/5x5 -> inception_4c/5x5
I0403 16:00:11.202180 20621 net.cpp:141] Setting up inception_4c/5x5
I0403 16:00:11.202210 20621 net.cpp:148] Top shape: 24 64 14 14 (301056)
I0403 16:00:11.202227 20621 net.cpp:156] Memory required for data: 1049767200
I0403 16:00:11.202246 20621 layer_factory.hpp:77] Creating layer inception_4c/relu_5x5
I0403 16:00:11.202265 20621 net.cpp:91] Creating Layer inception_4c/relu_5x5
I0403 16:00:11.202280 20621 net.cpp:425] inception_4c/relu_5x5 <- inception_4c/5x5
I0403 16:00:11.202301 20621 net.cpp:386] inception_4c/relu_5x5 -> inception_4c/5x5 (in-place)
I0403 16:00:11.202599 20621 net.cpp:141] Setting up inception_4c/relu_5x5
I0403 16:00:11.202628 20621 net.cpp:148] Top shape: 24 64 14 14 (301056)
I0403 16:00:11.202644 20621 net.cpp:156] Memory required for data: 1050971424
I0403 16:00:11.202659 20621 layer_factory.hpp:77] Creating layer inception_4c/pool
I0403 16:00:11.202678 20621 net.cpp:91] Creating Layer inception_4c/pool
I0403 16:00:11.202694 20621 net.cpp:425] inception_4c/pool <- inception_4b/output_inception_4b/output_0_split_3
I0403 16:00:11.202715 20621 net.cpp:399] inception_4c/pool -> inception_4c/pool
I0403 16:00:11.202783 20621 net.cpp:141] Setting up inception_4c/pool
I0403 16:00:11.202807 20621 net.cpp:148] Top shape: 24 512 14 14 (2408448)
I0403 16:00:11.202821 20621 net.cpp:156] Memory required for data: 1060605216
I0403 16:00:11.202836 20621 layer_factory.hpp:77] Creating layer inception_4c/pool_proj
I0403 16:00:11.202859 20621 net.cpp:91] Creating Layer inception_4c/pool_proj
I0403 16:00:11.202877 20621 net.cpp:425] inception_4c/pool_proj <- inception_4c/pool
I0403 16:00:11.202898 20621 net.cpp:399] inception_4c/pool_proj -> inception_4c/pool_proj
I0403 16:00:11.204159 20621 net.cpp:141] Setting up inception_4c/pool_proj
I0403 16:00:11.204188 20621 net.cpp:148] Top shape: 24 64 14 14 (301056)
I0403 16:00:11.204219 20621 net.cpp:156] Memory required for data: 1061809440
I0403 16:00:11.204239 20621 layer_factory.hpp:77] Creating layer inception_4c/relu_pool_proj
I0403 16:00:11.204262 20621 net.cpp:91] Creating Layer inception_4c/relu_pool_proj
I0403 16:00:11.204278 20621 net.cpp:425] inception_4c/relu_pool_proj <- inception_4c/pool_proj
I0403 16:00:11.204296 20621 net.cpp:386] inception_4c/relu_pool_proj -> inception_4c/pool_proj (in-place)
I0403 16:00:11.204486 20621 net.cpp:141] Setting up inception_4c/relu_pool_proj
I0403 16:00:11.204514 20621 net.cpp:148] Top shape: 24 64 14 14 (301056)
I0403 16:00:11.204530 20621 net.cpp:156] Memory required for data: 1063013664
I0403 16:00:11.204543 20621 layer_factory.hpp:77] Creating layer inception_4c/output
I0403 16:00:11.204561 20621 net.cpp:91] Creating Layer inception_4c/output
I0403 16:00:11.204577 20621 net.cpp:425] inception_4c/output <- inception_4c/1x1
I0403 16:00:11.204593 20621 net.cpp:425] inception_4c/output <- inception_4c/3x3
I0403 16:00:11.204609 20621 net.cpp:425] inception_4c/output <- inception_4c/5x5
I0403 16:00:11.204625 20621 net.cpp:425] inception_4c/output <- inception_4c/pool_proj
I0403 16:00:11.204643 20621 net.cpp:399] inception_4c/output -> inception_4c/output
I0403 16:00:11.204692 20621 net.cpp:141] Setting up inception_4c/output
I0403 16:00:11.204716 20621 net.cpp:148] Top shape: 24 512 14 14 (2408448)
I0403 16:00:11.204731 20621 net.cpp:156] Memory required for data: 1072647456
I0403 16:00:11.204746 20621 layer_factory.hpp:77] Creating layer inception_4c/output_inception_4c/output_0_split
I0403 16:00:11.204763 20621 net.cpp:91] Creating Layer inception_4c/output_inception_4c/output_0_split
I0403 16:00:11.204779 20621 net.cpp:425] inception_4c/output_inception_4c/output_0_split <- inception_4c/output
I0403 16:00:11.204799 20621 net.cpp:399] inception_4c/output_inception_4c/output_0_split -> inception_4c/output_inception_4c/output_0_split_0
I0403 16:00:11.204820 20621 net.cpp:399] inception_4c/output_inception_4c/output_0_split -> inception_4c/output_inception_4c/output_0_split_1
I0403 16:00:11.204843 20621 net.cpp:399] inception_4c/output_inception_4c/output_0_split -> inception_4c/output_inception_4c/output_0_split_2
I0403 16:00:11.204865 20621 net.cpp:399] inception_4c/output_inception_4c/output_0_split -> inception_4c/output_inception_4c/output_0_split_3
I0403 16:00:11.204962 20621 net.cpp:141] Setting up inception_4c/output_inception_4c/output_0_split
I0403 16:00:11.204985 20621 net.cpp:148] Top shape: 24 512 14 14 (2408448)
I0403 16:00:11.205001 20621 net.cpp:148] Top shape: 24 512 14 14 (2408448)
I0403 16:00:11.205018 20621 net.cpp:148] Top shape: 24 512 14 14 (2408448)
I0403 16:00:11.205032 20621 net.cpp:148] Top shape: 24 512 14 14 (2408448)
I0403 16:00:11.205046 20621 net.cpp:156] Memory required for data: 1111182624
I0403 16:00:11.205061 20621 layer_factory.hpp:77] Creating layer inception_4d/1x1
I0403 16:00:11.205083 20621 net.cpp:91] Creating Layer inception_4d/1x1
I0403 16:00:11.205101 20621 net.cpp:425] inception_4d/1x1 <- inception_4c/output_inception_4c/output_0_split_0
I0403 16:00:11.205123 20621 net.cpp:399] inception_4d/1x1 -> inception_4d/1x1
I0403 16:00:11.206549 20621 net.cpp:141] Setting up inception_4d/1x1
I0403 16:00:11.206578 20621 net.cpp:148] Top shape: 24 112 14 14 (526848)
I0403 16:00:11.206593 20621 net.cpp:156] Memory required for data: 1113290016
I0403 16:00:11.206612 20621 layer_factory.hpp:77] Creating layer inception_4d/relu_1x1
I0403 16:00:11.206630 20621 net.cpp:91] Creating Layer inception_4d/relu_1x1
I0403 16:00:11.206650 20621 net.cpp:425] inception_4d/relu_1x1 <- inception_4d/1x1
I0403 16:00:11.206667 20621 net.cpp:386] inception_4d/relu_1x1 -> inception_4d/1x1 (in-place)
I0403 16:00:11.206856 20621 net.cpp:141] Setting up inception_4d/relu_1x1
I0403 16:00:11.206881 20621 net.cpp:148] Top shape: 24 112 14 14 (526848)
I0403 16:00:11.206897 20621 net.cpp:156] Memory required for data: 1115397408
I0403 16:00:11.206912 20621 layer_factory.hpp:77] Creating layer inception_4d/3x3_reduce
I0403 16:00:11.206948 20621 net.cpp:91] Creating Layer inception_4d/3x3_reduce
I0403 16:00:11.206972 20621 net.cpp:425] inception_4d/3x3_reduce <- inception_4c/output_inception_4c/output_0_split_1
I0403 16:00:11.206995 20621 net.cpp:399] inception_4d/3x3_reduce -> inception_4d/3x3_reduce
I0403 16:00:11.208590 20621 net.cpp:141] Setting up inception_4d/3x3_reduce
I0403 16:00:11.208621 20621 net.cpp:148] Top shape: 24 144 14 14 (677376)
I0403 16:00:11.208637 20621 net.cpp:156] Memory required for data: 1118106912
I0403 16:00:11.208657 20621 layer_factory.hpp:77] Creating layer inception_4d/relu_3x3_reduce
I0403 16:00:11.208674 20621 net.cpp:91] Creating Layer inception_4d/relu_3x3_reduce
I0403 16:00:11.208691 20621 net.cpp:425] inception_4d/relu_3x3_reduce <- inception_4d/3x3_reduce
I0403 16:00:11.208711 20621 net.cpp:386] inception_4d/relu_3x3_reduce -> inception_4d/3x3_reduce (in-place)
I0403 16:00:11.209040 20621 net.cpp:141] Setting up inception_4d/relu_3x3_reduce
I0403 16:00:11.209069 20621 net.cpp:148] Top shape: 24 144 14 14 (677376)
I0403 16:00:11.209084 20621 net.cpp:156] Memory required for data: 1120816416
I0403 16:00:11.209100 20621 layer_factory.hpp:77] Creating layer inception_4d/3x3
I0403 16:00:11.209122 20621 net.cpp:91] Creating Layer inception_4d/3x3
I0403 16:00:11.209141 20621 net.cpp:425] inception_4d/3x3 <- inception_4d/3x3_reduce
I0403 16:00:11.209159 20621 net.cpp:399] inception_4d/3x3 -> inception_4d/3x3
I0403 16:00:11.213413 20621 net.cpp:141] Setting up inception_4d/3x3
I0403 16:00:11.213443 20621 net.cpp:148] Top shape: 24 288 14 14 (1354752)
I0403 16:00:11.213457 20621 net.cpp:156] Memory required for data: 1126235424
I0403 16:00:11.213475 20621 layer_factory.hpp:77] Creating layer inception_4d/relu_3x3
I0403 16:00:11.213493 20621 net.cpp:91] Creating Layer inception_4d/relu_3x3
I0403 16:00:11.213510 20621 net.cpp:425] inception_4d/relu_3x3 <- inception_4d/3x3
I0403 16:00:11.213529 20621 net.cpp:386] inception_4d/relu_3x3 -> inception_4d/3x3 (in-place)
I0403 16:00:11.213717 20621 net.cpp:141] Setting up inception_4d/relu_3x3
I0403 16:00:11.213742 20621 net.cpp:148] Top shape: 24 288 14 14 (1354752)
I0403 16:00:11.213757 20621 net.cpp:156] Memory required for data: 1131654432
I0403 16:00:11.213770 20621 layer_factory.hpp:77] Creating layer inception_4d/5x5_reduce
I0403 16:00:11.213793 20621 net.cpp:91] Creating Layer inception_4d/5x5_reduce
I0403 16:00:11.213809 20621 net.cpp:425] inception_4d/5x5_reduce <- inception_4c/output_inception_4c/output_0_split_2
I0403 16:00:11.213830 20621 net.cpp:399] inception_4d/5x5_reduce -> inception_4d/5x5_reduce
I0403 16:00:11.215006 20621 net.cpp:141] Setting up inception_4d/5x5_reduce
I0403 16:00:11.215034 20621 net.cpp:148] Top shape: 24 32 14 14 (150528)
I0403 16:00:11.215049 20621 net.cpp:156] Memory required for data: 1132256544
I0403 16:00:11.215066 20621 layer_factory.hpp:77] Creating layer inception_4d/relu_5x5_reduce
I0403 16:00:11.215087 20621 net.cpp:91] Creating Layer inception_4d/relu_5x5_reduce
I0403 16:00:11.215103 20621 net.cpp:425] inception_4d/relu_5x5_reduce <- inception_4d/5x5_reduce
I0403 16:00:11.215121 20621 net.cpp:386] inception_4d/relu_5x5_reduce -> inception_4d/5x5_reduce (in-place)
I0403 16:00:11.215309 20621 net.cpp:141] Setting up inception_4d/relu_5x5_reduce
I0403 16:00:11.215333 20621 net.cpp:148] Top shape: 24 32 14 14 (150528)
I0403 16:00:11.215348 20621 net.cpp:156] Memory required for data: 1132858656
I0403 16:00:11.215363 20621 layer_factory.hpp:77] Creating layer inception_4d/5x5
I0403 16:00:11.215384 20621 net.cpp:91] Creating Layer inception_4d/5x5
I0403 16:00:11.215401 20621 net.cpp:425] inception_4d/5x5 <- inception_4d/5x5_reduce
I0403 16:00:11.215422 20621 net.cpp:399] inception_4d/5x5 -> inception_4d/5x5
I0403 16:00:11.216918 20621 net.cpp:141] Setting up inception_4d/5x5
I0403 16:00:11.216946 20621 net.cpp:148] Top shape: 24 64 14 14 (301056)
I0403 16:00:11.216966 20621 net.cpp:156] Memory required for data: 1134062880
I0403 16:00:11.216985 20621 layer_factory.hpp:77] Creating layer inception_4d/relu_5x5
I0403 16:00:11.217021 20621 net.cpp:91] Creating Layer inception_4d/relu_5x5
I0403 16:00:11.217038 20621 net.cpp:425] inception_4d/relu_5x5 <- inception_4d/5x5
I0403 16:00:11.217056 20621 net.cpp:386] inception_4d/relu_5x5 -> inception_4d/5x5 (in-place)
I0403 16:00:11.217365 20621 net.cpp:141] Setting up inception_4d/relu_5x5
I0403 16:00:11.217391 20621 net.cpp:148] Top shape: 24 64 14 14 (301056)
I0403 16:00:11.217406 20621 net.cpp:156] Memory required for data: 1135267104
I0403 16:00:11.217420 20621 layer_factory.hpp:77] Creating layer inception_4d/pool
I0403 16:00:11.217440 20621 net.cpp:91] Creating Layer inception_4d/pool
I0403 16:00:11.217458 20621 net.cpp:425] inception_4d/pool <- inception_4c/output_inception_4c/output_0_split_3
I0403 16:00:11.217475 20621 net.cpp:399] inception_4d/pool -> inception_4d/pool
I0403 16:00:11.217542 20621 net.cpp:141] Setting up inception_4d/pool
I0403 16:00:11.217566 20621 net.cpp:148] Top shape: 24 512 14 14 (2408448)
I0403 16:00:11.217581 20621 net.cpp:156] Memory required for data: 1144900896
I0403 16:00:11.217594 20621 layer_factory.hpp:77] Creating layer inception_4d/pool_proj
I0403 16:00:11.217617 20621 net.cpp:91] Creating Layer inception_4d/pool_proj
I0403 16:00:11.217634 20621 net.cpp:425] inception_4d/pool_proj <- inception_4d/pool
I0403 16:00:11.217654 20621 net.cpp:399] inception_4d/pool_proj -> inception_4d/pool_proj
I0403 16:00:11.219424 20621 net.cpp:141] Setting up inception_4d/pool_proj
I0403 16:00:11.219451 20621 net.cpp:148] Top shape: 24 64 14 14 (301056)
I0403 16:00:11.219467 20621 net.cpp:156] Memory required for data: 1146105120
I0403 16:00:11.219485 20621 layer_factory.hpp:77] Creating layer inception_4d/relu_pool_proj
I0403 16:00:11.219502 20621 net.cpp:91] Creating Layer inception_4d/relu_pool_proj
I0403 16:00:11.219518 20621 net.cpp:425] inception_4d/relu_pool_proj <- inception_4d/pool_proj
I0403 16:00:11.219538 20621 net.cpp:386] inception_4d/relu_pool_proj -> inception_4d/pool_proj (in-place)
I0403 16:00:11.219728 20621 net.cpp:141] Setting up inception_4d/relu_pool_proj
I0403 16:00:11.219753 20621 net.cpp:148] Top shape: 24 64 14 14 (301056)
I0403 16:00:11.219768 20621 net.cpp:156] Memory required for data: 1147309344
I0403 16:00:11.219782 20621 layer_factory.hpp:77] Creating layer inception_4d/output
I0403 16:00:11.219801 20621 net.cpp:91] Creating Layer inception_4d/output
I0403 16:00:11.219818 20621 net.cpp:425] inception_4d/output <- inception_4d/1x1
I0403 16:00:11.219835 20621 net.cpp:425] inception_4d/output <- inception_4d/3x3
I0403 16:00:11.219851 20621 net.cpp:425] inception_4d/output <- inception_4d/5x5
I0403 16:00:11.219866 20621 net.cpp:425] inception_4d/output <- inception_4d/pool_proj
I0403 16:00:11.219882 20621 net.cpp:399] inception_4d/output -> inception_4d/output
I0403 16:00:11.219931 20621 net.cpp:141] Setting up inception_4d/output
I0403 16:00:11.219959 20621 net.cpp:148] Top shape: 24 528 14 14 (2483712)
I0403 16:00:11.219974 20621 net.cpp:156] Memory required for data: 1157244192
I0403 16:00:11.219988 20621 layer_factory.hpp:77] Creating layer inception_4d/output_inception_4d/output_0_split
I0403 16:00:11.220006 20621 net.cpp:91] Creating Layer inception_4d/output_inception_4d/output_0_split
I0403 16:00:11.220022 20621 net.cpp:425] inception_4d/output_inception_4d/output_0_split <- inception_4d/output
I0403 16:00:11.220042 20621 net.cpp:399] inception_4d/output_inception_4d/output_0_split -> inception_4d/output_inception_4d/output_0_split_0
I0403 16:00:11.220062 20621 net.cpp:399] inception_4d/output_inception_4d/output_0_split -> inception_4d/output_inception_4d/output_0_split_1
I0403 16:00:11.220083 20621 net.cpp:399] inception_4d/output_inception_4d/output_0_split -> inception_4d/output_inception_4d/output_0_split_2
I0403 16:00:11.220104 20621 net.cpp:399] inception_4d/output_inception_4d/output_0_split -> inception_4d/output_inception_4d/output_0_split_3
I0403 16:00:11.220124 20621 net.cpp:399] inception_4d/output_inception_4d/output_0_split -> inception_4d/output_inception_4d/output_0_split_4
I0403 16:00:11.220229 20621 net.cpp:141] Setting up inception_4d/output_inception_4d/output_0_split
I0403 16:00:11.220264 20621 net.cpp:148] Top shape: 24 528 14 14 (2483712)
I0403 16:00:11.220281 20621 net.cpp:148] Top shape: 24 528 14 14 (2483712)
I0403 16:00:11.220298 20621 net.cpp:148] Top shape: 24 528 14 14 (2483712)
I0403 16:00:11.220312 20621 net.cpp:148] Top shape: 24 528 14 14 (2483712)
I0403 16:00:11.220329 20621 net.cpp:148] Top shape: 24 528 14 14 (2483712)
I0403 16:00:11.220341 20621 net.cpp:156] Memory required for data: 1206918432
I0403 16:00:11.220356 20621 layer_factory.hpp:77] Creating layer loss2/ave_pool
I0403 16:00:11.220374 20621 net.cpp:91] Creating Layer loss2/ave_pool
I0403 16:00:11.220389 20621 net.cpp:425] loss2/ave_pool <- inception_4d/output_inception_4d/output_0_split_0
I0403 16:00:11.220410 20621 net.cpp:399] loss2/ave_pool -> loss2/ave_pool
I0403 16:00:11.220726 20621 net.cpp:141] Setting up loss2/ave_pool
I0403 16:00:11.220752 20621 net.cpp:148] Top shape: 24 528 4 4 (202752)
I0403 16:00:11.220767 20621 net.cpp:156] Memory required for data: 1207729440
I0403 16:00:11.220780 20621 layer_factory.hpp:77] Creating layer loss2/conv
I0403 16:00:11.220803 20621 net.cpp:91] Creating Layer loss2/conv
I0403 16:00:11.220819 20621 net.cpp:425] loss2/conv <- loss2/ave_pool
I0403 16:00:11.220840 20621 net.cpp:399] loss2/conv -> loss2/conv
I0403 16:00:11.222733 20621 net.cpp:141] Setting up loss2/conv
I0403 16:00:11.222764 20621 net.cpp:148] Top shape: 24 128 4 4 (49152)
I0403 16:00:11.222780 20621 net.cpp:156] Memory required for data: 1207926048
I0403 16:00:11.222798 20621 layer_factory.hpp:77] Creating layer loss2/relu_conv
I0403 16:00:11.222816 20621 net.cpp:91] Creating Layer loss2/relu_conv
I0403 16:00:11.222832 20621 net.cpp:425] loss2/relu_conv <- loss2/conv
I0403 16:00:11.222849 20621 net.cpp:386] loss2/relu_conv -> loss2/conv (in-place)
I0403 16:00:11.223140 20621 net.cpp:141] Setting up loss2/relu_conv
I0403 16:00:11.223170 20621 net.cpp:148] Top shape: 24 128 4 4 (49152)
I0403 16:00:11.223186 20621 net.cpp:156] Memory required for data: 1208122656
I0403 16:00:11.223201 20621 layer_factory.hpp:77] Creating layer loss2/fc
I0403 16:00:11.223222 20621 net.cpp:91] Creating Layer loss2/fc
I0403 16:00:11.223237 20621 net.cpp:425] loss2/fc <- loss2/conv
I0403 16:00:11.223260 20621 net.cpp:399] loss2/fc -> loss2/fc
I0403 16:00:11.241097 20621 net.cpp:141] Setting up loss2/fc
I0403 16:00:11.241138 20621 net.cpp:148] Top shape: 24 1024 (24576)
I0403 16:00:11.241153 20621 net.cpp:156] Memory required for data: 1208220960
I0403 16:00:11.241173 20621 layer_factory.hpp:77] Creating layer loss2/relu_fc
I0403 16:00:11.241194 20621 net.cpp:91] Creating Layer loss2/relu_fc
I0403 16:00:11.241212 20621 net.cpp:425] loss2/relu_fc <- loss2/fc
I0403 16:00:11.241230 20621 net.cpp:386] loss2/relu_fc -> loss2/fc (in-place)
I0403 16:00:11.241551 20621 net.cpp:141] Setting up loss2/relu_fc
I0403 16:00:11.241577 20621 net.cpp:148] Top shape: 24 1024 (24576)
I0403 16:00:11.241592 20621 net.cpp:156] Memory required for data: 1208319264
I0403 16:00:11.241606 20621 layer_factory.hpp:77] Creating layer loss2/drop_fc
I0403 16:00:11.241627 20621 net.cpp:91] Creating Layer loss2/drop_fc
I0403 16:00:11.241644 20621 net.cpp:425] loss2/drop_fc <- loss2/fc
I0403 16:00:11.241662 20621 net.cpp:386] loss2/drop_fc -> loss2/fc (in-place)
I0403 16:00:11.241710 20621 net.cpp:141] Setting up loss2/drop_fc
I0403 16:00:11.241736 20621 net.cpp:148] Top shape: 24 1024 (24576)
I0403 16:00:11.241751 20621 net.cpp:156] Memory required for data: 1208417568
I0403 16:00:11.241765 20621 layer_factory.hpp:77] Creating layer loss2/classifier_plantvillage
I0403 16:00:11.241785 20621 net.cpp:91] Creating Layer loss2/classifier_plantvillage
I0403 16:00:11.241801 20621 net.cpp:425] loss2/classifier_plantvillage <- loss2/fc
I0403 16:00:11.241822 20621 net.cpp:399] loss2/classifier_plantvillage -> loss2/classifier_plantvillage
I0403 16:00:11.242314 20621 net.cpp:141] Setting up loss2/classifier_plantvillage
I0403 16:00:11.242341 20621 net.cpp:148] Top shape: 24 38 (912)
I0403 16:00:11.242354 20621 net.cpp:156] Memory required for data: 1208421216
I0403 16:00:11.242393 20621 layer_factory.hpp:77] Creating layer loss2/classifier_plantvillage_loss2/classifier_plantvillage_0_split
I0403 16:00:11.242413 20621 net.cpp:91] Creating Layer loss2/classifier_plantvillage_loss2/classifier_plantvillage_0_split
I0403 16:00:11.242429 20621 net.cpp:425] loss2/classifier_plantvillage_loss2/classifier_plantvillage_0_split <- loss2/classifier_plantvillage
I0403 16:00:11.242446 20621 net.cpp:399] loss2/classifier_plantvillage_loss2/classifier_plantvillage_0_split -> loss2/classifier_plantvillage_loss2/classifier_plantvillage_0_split_0
I0403 16:00:11.242470 20621 net.cpp:399] loss2/classifier_plantvillage_loss2/classifier_plantvillage_0_split -> loss2/classifier_plantvillage_loss2/classifier_plantvillage_0_split_1
I0403 16:00:11.242491 20621 net.cpp:399] loss2/classifier_plantvillage_loss2/classifier_plantvillage_0_split -> loss2/classifier_plantvillage_loss2/classifier_plantvillage_0_split_2
I0403 16:00:11.242569 20621 net.cpp:141] Setting up loss2/classifier_plantvillage_loss2/classifier_plantvillage_0_split
I0403 16:00:11.242593 20621 net.cpp:148] Top shape: 24 38 (912)
I0403 16:00:11.242609 20621 net.cpp:148] Top shape: 24 38 (912)
I0403 16:00:11.242624 20621 net.cpp:148] Top shape: 24 38 (912)
I0403 16:00:11.242636 20621 net.cpp:156] Memory required for data: 1208432160
I0403 16:00:11.242650 20621 layer_factory.hpp:77] Creating layer inception_4e/1x1
I0403 16:00:11.242673 20621 net.cpp:91] Creating Layer inception_4e/1x1
I0403 16:00:11.242691 20621 net.cpp:425] inception_4e/1x1 <- inception_4d/output_inception_4d/output_0_split_1
I0403 16:00:11.242722 20621 net.cpp:399] inception_4e/1x1 -> inception_4e/1x1
I0403 16:00:11.244539 20621 net.cpp:141] Setting up inception_4e/1x1
I0403 16:00:11.244567 20621 net.cpp:148] Top shape: 24 256 14 14 (1204224)
I0403 16:00:11.244583 20621 net.cpp:156] Memory required for data: 1213249056
I0403 16:00:11.244601 20621 layer_factory.hpp:77] Creating layer inception_4e/relu_1x1
I0403 16:00:11.244618 20621 net.cpp:91] Creating Layer inception_4e/relu_1x1
I0403 16:00:11.244634 20621 net.cpp:425] inception_4e/relu_1x1 <- inception_4e/1x1
I0403 16:00:11.244653 20621 net.cpp:386] inception_4e/relu_1x1 -> inception_4e/1x1 (in-place)
I0403 16:00:11.244945 20621 net.cpp:141] Setting up inception_4e/relu_1x1
I0403 16:00:11.244976 20621 net.cpp:148] Top shape: 24 256 14 14 (1204224)
I0403 16:00:11.244992 20621 net.cpp:156] Memory required for data: 1218065952
I0403 16:00:11.245007 20621 layer_factory.hpp:77] Creating layer inception_4e/3x3_reduce
I0403 16:00:11.245028 20621 net.cpp:91] Creating Layer inception_4e/3x3_reduce
I0403 16:00:11.245044 20621 net.cpp:425] inception_4e/3x3_reduce <- inception_4d/output_inception_4d/output_0_split_2
I0403 16:00:11.245062 20621 net.cpp:399] inception_4e/3x3_reduce -> inception_4e/3x3_reduce
I0403 16:00:11.247138 20621 net.cpp:141] Setting up inception_4e/3x3_reduce
I0403 16:00:11.247164 20621 net.cpp:148] Top shape: 24 160 14 14 (752640)
I0403 16:00:11.247180 20621 net.cpp:156] Memory required for data: 1221076512
I0403 16:00:11.247197 20621 layer_factory.hpp:77] Creating layer inception_4e/relu_3x3_reduce
I0403 16:00:11.247220 20621 net.cpp:91] Creating Layer inception_4e/relu_3x3_reduce
I0403 16:00:11.247236 20621 net.cpp:425] inception_4e/relu_3x3_reduce <- inception_4e/3x3_reduce
I0403 16:00:11.247253 20621 net.cpp:386] inception_4e/relu_3x3_reduce -> inception_4e/3x3_reduce (in-place)
I0403 16:00:11.247434 20621 net.cpp:141] Setting up inception_4e/relu_3x3_reduce
I0403 16:00:11.247462 20621 net.cpp:148] Top shape: 24 160 14 14 (752640)
I0403 16:00:11.247475 20621 net.cpp:156] Memory required for data: 1224087072
I0403 16:00:11.247489 20621 layer_factory.hpp:77] Creating layer inception_4e/3x3
I0403 16:00:11.247512 20621 net.cpp:91] Creating Layer inception_4e/3x3
I0403 16:00:11.247529 20621 net.cpp:425] inception_4e/3x3 <- inception_4e/3x3_reduce
I0403 16:00:11.247546 20621 net.cpp:399] inception_4e/3x3 -> inception_4e/3x3
I0403 16:00:11.252398 20621 net.cpp:141] Setting up inception_4e/3x3
I0403 16:00:11.252440 20621 net.cpp:148] Top shape: 24 320 14 14 (1505280)
I0403 16:00:11.252456 20621 net.cpp:156] Memory required for data: 1230108192
I0403 16:00:11.252475 20621 layer_factory.hpp:77] Creating layer inception_4e/relu_3x3
I0403 16:00:11.252492 20621 net.cpp:91] Creating Layer inception_4e/relu_3x3
I0403 16:00:11.252507 20621 net.cpp:425] inception_4e/relu_3x3 <- inception_4e/3x3
I0403 16:00:11.252526 20621 net.cpp:386] inception_4e/relu_3x3 -> inception_4e/3x3 (in-place)
I0403 16:00:11.252818 20621 net.cpp:141] Setting up inception_4e/relu_3x3
I0403 16:00:11.252845 20621 net.cpp:148] Top shape: 24 320 14 14 (1505280)
I0403 16:00:11.252858 20621 net.cpp:156] Memory required for data: 1236129312
I0403 16:00:11.252873 20621 layer_factory.hpp:77] Creating layer inception_4e/5x5_reduce
I0403 16:00:11.252895 20621 net.cpp:91] Creating Layer inception_4e/5x5_reduce
I0403 16:00:11.252912 20621 net.cpp:425] inception_4e/5x5_reduce <- inception_4d/output_inception_4d/output_0_split_3
I0403 16:00:11.252933 20621 net.cpp:399] inception_4e/5x5_reduce -> inception_4e/5x5_reduce
I0403 16:00:11.253988 20621 net.cpp:141] Setting up inception_4e/5x5_reduce
I0403 16:00:11.254015 20621 net.cpp:148] Top shape: 24 32 14 14 (150528)
I0403 16:00:11.254029 20621 net.cpp:156] Memory required for data: 1236731424
I0403 16:00:11.254047 20621 layer_factory.hpp:77] Creating layer inception_4e/relu_5x5_reduce
I0403 16:00:11.254067 20621 net.cpp:91] Creating Layer inception_4e/relu_5x5_reduce
I0403 16:00:11.254083 20621 net.cpp:425] inception_4e/relu_5x5_reduce <- inception_4e/5x5_reduce
I0403 16:00:11.254101 20621 net.cpp:386] inception_4e/relu_5x5_reduce -> inception_4e/5x5_reduce (in-place)
I0403 16:00:11.254397 20621 net.cpp:141] Setting up inception_4e/relu_5x5_reduce
I0403 16:00:11.254422 20621 net.cpp:148] Top shape: 24 32 14 14 (150528)
I0403 16:00:11.254437 20621 net.cpp:156] Memory required for data: 1237333536
I0403 16:00:11.254451 20621 layer_factory.hpp:77] Creating layer inception_4e/5x5
I0403 16:00:11.254489 20621 net.cpp:91] Creating Layer inception_4e/5x5
I0403 16:00:11.254508 20621 net.cpp:425] inception_4e/5x5 <- inception_4e/5x5_reduce
I0403 16:00:11.254526 20621 net.cpp:399] inception_4e/5x5 -> inception_4e/5x5
I0403 16:00:11.256332 20621 net.cpp:141] Setting up inception_4e/5x5
I0403 16:00:11.256359 20621 net.cpp:148] Top shape: 24 128 14 14 (602112)
I0403 16:00:11.256374 20621 net.cpp:156] Memory required for data: 1239741984
I0403 16:00:11.256393 20621 layer_factory.hpp:77] Creating layer inception_4e/relu_5x5
I0403 16:00:11.256413 20621 net.cpp:91] Creating Layer inception_4e/relu_5x5
I0403 16:00:11.256429 20621 net.cpp:425] inception_4e/relu_5x5 <- inception_4e/5x5
I0403 16:00:11.256446 20621 net.cpp:386] inception_4e/relu_5x5 -> inception_4e/5x5 (in-place)
I0403 16:00:11.256638 20621 net.cpp:141] Setting up inception_4e/relu_5x5
I0403 16:00:11.256664 20621 net.cpp:148] Top shape: 24 128 14 14 (602112)
I0403 16:00:11.256680 20621 net.cpp:156] Memory required for data: 1242150432
I0403 16:00:11.256693 20621 layer_factory.hpp:77] Creating layer inception_4e/pool
I0403 16:00:11.256711 20621 net.cpp:91] Creating Layer inception_4e/pool
I0403 16:00:11.256726 20621 net.cpp:425] inception_4e/pool <- inception_4d/output_inception_4d/output_0_split_4
I0403 16:00:11.256743 20621 net.cpp:399] inception_4e/pool -> inception_4e/pool
I0403 16:00:11.256813 20621 net.cpp:141] Setting up inception_4e/pool
I0403 16:00:11.256835 20621 net.cpp:148] Top shape: 24 528 14 14 (2483712)
I0403 16:00:11.256850 20621 net.cpp:156] Memory required for data: 1252085280
I0403 16:00:11.256863 20621 layer_factory.hpp:77] Creating layer inception_4e/pool_proj
I0403 16:00:11.256885 20621 net.cpp:91] Creating Layer inception_4e/pool_proj
I0403 16:00:11.256901 20621 net.cpp:425] inception_4e/pool_proj <- inception_4e/pool
I0403 16:00:11.256922 20621 net.cpp:399] inception_4e/pool_proj -> inception_4e/pool_proj
I0403 16:00:11.258404 20621 net.cpp:141] Setting up inception_4e/pool_proj
I0403 16:00:11.258430 20621 net.cpp:148] Top shape: 24 128 14 14 (602112)
I0403 16:00:11.258458 20621 net.cpp:156] Memory required for data: 1254493728
I0403 16:00:11.258476 20621 layer_factory.hpp:77] Creating layer inception_4e/relu_pool_proj
I0403 16:00:11.258496 20621 net.cpp:91] Creating Layer inception_4e/relu_pool_proj
I0403 16:00:11.258512 20621 net.cpp:425] inception_4e/relu_pool_proj <- inception_4e/pool_proj
I0403 16:00:11.258529 20621 net.cpp:386] inception_4e/relu_pool_proj -> inception_4e/pool_proj (in-place)
I0403 16:00:11.258818 20621 net.cpp:141] Setting up inception_4e/relu_pool_proj
I0403 16:00:11.258843 20621 net.cpp:148] Top shape: 24 128 14 14 (602112)
I0403 16:00:11.258858 20621 net.cpp:156] Memory required for data: 1256902176
I0403 16:00:11.258872 20621 layer_factory.hpp:77] Creating layer inception_4e/output
I0403 16:00:11.258889 20621 net.cpp:91] Creating Layer inception_4e/output
I0403 16:00:11.258904 20621 net.cpp:425] inception_4e/output <- inception_4e/1x1
I0403 16:00:11.258919 20621 net.cpp:425] inception_4e/output <- inception_4e/3x3
I0403 16:00:11.258935 20621 net.cpp:425] inception_4e/output <- inception_4e/5x5
I0403 16:00:11.258950 20621 net.cpp:425] inception_4e/output <- inception_4e/pool_proj
I0403 16:00:11.258981 20621 net.cpp:399] inception_4e/output -> inception_4e/output
I0403 16:00:11.259032 20621 net.cpp:141] Setting up inception_4e/output
I0403 16:00:11.259057 20621 net.cpp:148] Top shape: 24 832 14 14 (3913728)
I0403 16:00:11.259070 20621 net.cpp:156] Memory required for data: 1272557088
I0403 16:00:11.259084 20621 layer_factory.hpp:77] Creating layer pool4/3x3_s2
I0403 16:00:11.259101 20621 net.cpp:91] Creating Layer pool4/3x3_s2
I0403 16:00:11.259116 20621 net.cpp:425] pool4/3x3_s2 <- inception_4e/output
I0403 16:00:11.259136 20621 net.cpp:399] pool4/3x3_s2 -> pool4/3x3_s2
I0403 16:00:11.259202 20621 net.cpp:141] Setting up pool4/3x3_s2
I0403 16:00:11.259224 20621 net.cpp:148] Top shape: 24 832 7 7 (978432)
I0403 16:00:11.259238 20621 net.cpp:156] Memory required for data: 1276470816
I0403 16:00:11.259263 20621 layer_factory.hpp:77] Creating layer pool4/3x3_s2_pool4/3x3_s2_0_split
I0403 16:00:11.259282 20621 net.cpp:91] Creating Layer pool4/3x3_s2_pool4/3x3_s2_0_split
I0403 16:00:11.259299 20621 net.cpp:425] pool4/3x3_s2_pool4/3x3_s2_0_split <- pool4/3x3_s2
I0403 16:00:11.259316 20621 net.cpp:399] pool4/3x3_s2_pool4/3x3_s2_0_split -> pool4/3x3_s2_pool4/3x3_s2_0_split_0
I0403 16:00:11.259335 20621 net.cpp:399] pool4/3x3_s2_pool4/3x3_s2_0_split -> pool4/3x3_s2_pool4/3x3_s2_0_split_1
I0403 16:00:11.259358 20621 net.cpp:399] pool4/3x3_s2_pool4/3x3_s2_0_split -> pool4/3x3_s2_pool4/3x3_s2_0_split_2
I0403 16:00:11.259378 20621 net.cpp:399] pool4/3x3_s2_pool4/3x3_s2_0_split -> pool4/3x3_s2_pool4/3x3_s2_0_split_3
I0403 16:00:11.259469 20621 net.cpp:141] Setting up pool4/3x3_s2_pool4/3x3_s2_0_split
I0403 16:00:11.259491 20621 net.cpp:148] Top shape: 24 832 7 7 (978432)
I0403 16:00:11.259507 20621 net.cpp:148] Top shape: 24 832 7 7 (978432)
I0403 16:00:11.259522 20621 net.cpp:148] Top shape: 24 832 7 7 (978432)
I0403 16:00:11.259548 20621 net.cpp:148] Top shape: 24 832 7 7 (978432)
I0403 16:00:11.259562 20621 net.cpp:156] Memory required for data: 1292125728
I0403 16:00:11.259575 20621 layer_factory.hpp:77] Creating layer inception_5a/1x1
I0403 16:00:11.259596 20621 net.cpp:91] Creating Layer inception_5a/1x1
I0403 16:00:11.259613 20621 net.cpp:425] inception_5a/1x1 <- pool4/3x3_s2_pool4/3x3_s2_0_split_0
I0403 16:00:11.259632 20621 net.cpp:399] inception_5a/1x1 -> inception_5a/1x1
I0403 16:00:11.262413 20621 net.cpp:141] Setting up inception_5a/1x1
I0403 16:00:11.262440 20621 net.cpp:148] Top shape: 24 256 7 7 (301056)
I0403 16:00:11.262454 20621 net.cpp:156] Memory required for data: 1293329952
I0403 16:00:11.262472 20621 layer_factory.hpp:77] Creating layer inception_5a/relu_1x1
I0403 16:00:11.262492 20621 net.cpp:91] Creating Layer inception_5a/relu_1x1
I0403 16:00:11.262508 20621 net.cpp:425] inception_5a/relu_1x1 <- inception_5a/1x1
I0403 16:00:11.262524 20621 net.cpp:386] inception_5a/relu_1x1 -> inception_5a/1x1 (in-place)
I0403 16:00:11.262832 20621 net.cpp:141] Setting up inception_5a/relu_1x1
I0403 16:00:11.262857 20621 net.cpp:148] Top shape: 24 256 7 7 (301056)
I0403 16:00:11.262871 20621 net.cpp:156] Memory required for data: 1294534176
I0403 16:00:11.262887 20621 layer_factory.hpp:77] Creating layer inception_5a/3x3_reduce
I0403 16:00:11.262908 20621 net.cpp:91] Creating Layer inception_5a/3x3_reduce
I0403 16:00:11.262925 20621 net.cpp:425] inception_5a/3x3_reduce <- pool4/3x3_s2_pool4/3x3_s2_0_split_1
I0403 16:00:11.262946 20621 net.cpp:399] inception_5a/3x3_reduce -> inception_5a/3x3_reduce
I0403 16:00:11.265398 20621 net.cpp:141] Setting up inception_5a/3x3_reduce
I0403 16:00:11.265427 20621 net.cpp:148] Top shape: 24 160 7 7 (188160)
I0403 16:00:11.265444 20621 net.cpp:156] Memory required for data: 1295286816
I0403 16:00:11.265461 20621 layer_factory.hpp:77] Creating layer inception_5a/relu_3x3_reduce
I0403 16:00:11.265480 20621 net.cpp:91] Creating Layer inception_5a/relu_3x3_reduce
I0403 16:00:11.265496 20621 net.cpp:425] inception_5a/relu_3x3_reduce <- inception_5a/3x3_reduce
I0403 16:00:11.265527 20621 net.cpp:386] inception_5a/relu_3x3_reduce -> inception_5a/3x3_reduce (in-place)
I0403 16:00:11.265727 20621 net.cpp:141] Setting up inception_5a/relu_3x3_reduce
I0403 16:00:11.265750 20621 net.cpp:148] Top shape: 24 160 7 7 (188160)
I0403 16:00:11.265765 20621 net.cpp:156] Memory required for data: 1296039456
I0403 16:00:11.265779 20621 layer_factory.hpp:77] Creating layer inception_5a/3x3
I0403 16:00:11.265804 20621 net.cpp:91] Creating Layer inception_5a/3x3
I0403 16:00:11.265821 20621 net.cpp:425] inception_5a/3x3 <- inception_5a/3x3_reduce
I0403 16:00:11.265843 20621 net.cpp:399] inception_5a/3x3 -> inception_5a/3x3
I0403 16:00:11.270746 20621 net.cpp:141] Setting up inception_5a/3x3
I0403 16:00:11.270776 20621 net.cpp:148] Top shape: 24 320 7 7 (376320)
I0403 16:00:11.270790 20621 net.cpp:156] Memory required for data: 1297544736
I0403 16:00:11.270808 20621 layer_factory.hpp:77] Creating layer inception_5a/relu_3x3
I0403 16:00:11.270828 20621 net.cpp:91] Creating Layer inception_5a/relu_3x3
I0403 16:00:11.270844 20621 net.cpp:425] inception_5a/relu_3x3 <- inception_5a/3x3
I0403 16:00:11.270861 20621 net.cpp:386] inception_5a/relu_3x3 -> inception_5a/3x3 (in-place)
I0403 16:00:11.271155 20621 net.cpp:141] Setting up inception_5a/relu_3x3
I0403 16:00:11.271181 20621 net.cpp:148] Top shape: 24 320 7 7 (376320)
I0403 16:00:11.271195 20621 net.cpp:156] Memory required for data: 1299050016
I0403 16:00:11.271210 20621 layer_factory.hpp:77] Creating layer inception_5a/5x5_reduce
I0403 16:00:11.271234 20621 net.cpp:91] Creating Layer inception_5a/5x5_reduce
I0403 16:00:11.271263 20621 net.cpp:425] inception_5a/5x5_reduce <- pool4/3x3_s2_pool4/3x3_s2_0_split_2
I0403 16:00:11.271286 20621 net.cpp:399] inception_5a/5x5_reduce -> inception_5a/5x5_reduce
I0403 16:00:11.272449 20621 net.cpp:141] Setting up inception_5a/5x5_reduce
I0403 16:00:11.272478 20621 net.cpp:148] Top shape: 24 32 7 7 (37632)
I0403 16:00:11.272495 20621 net.cpp:156] Memory required for data: 1299200544
I0403 16:00:11.272512 20621 layer_factory.hpp:77] Creating layer inception_5a/relu_5x5_reduce
I0403 16:00:11.272531 20621 net.cpp:91] Creating Layer inception_5a/relu_5x5_reduce
I0403 16:00:11.272547 20621 net.cpp:425] inception_5a/relu_5x5_reduce <- inception_5a/5x5_reduce
I0403 16:00:11.272563 20621 net.cpp:386] inception_5a/relu_5x5_reduce -> inception_5a/5x5_reduce (in-place)
I0403 16:00:11.272855 20621 net.cpp:141] Setting up inception_5a/relu_5x5_reduce
I0403 16:00:11.272882 20621 net.cpp:148] Top shape: 24 32 7 7 (37632)
I0403 16:00:11.272897 20621 net.cpp:156] Memory required for data: 1299351072
I0403 16:00:11.272912 20621 layer_factory.hpp:77] Creating layer inception_5a/5x5
I0403 16:00:11.272930 20621 net.cpp:91] Creating Layer inception_5a/5x5
I0403 16:00:11.272946 20621 net.cpp:425] inception_5a/5x5 <- inception_5a/5x5_reduce
I0403 16:00:11.272972 20621 net.cpp:399] inception_5a/5x5 -> inception_5a/5x5
I0403 16:00:11.274680 20621 net.cpp:141] Setting up inception_5a/5x5
I0403 16:00:11.274719 20621 net.cpp:148] Top shape: 24 128 7 7 (150528)
I0403 16:00:11.274735 20621 net.cpp:156] Memory required for data: 1299953184
I0403 16:00:11.274754 20621 layer_factory.hpp:77] Creating layer inception_5a/relu_5x5
I0403 16:00:11.274773 20621 net.cpp:91] Creating Layer inception_5a/relu_5x5
I0403 16:00:11.274791 20621 net.cpp:425] inception_5a/relu_5x5 <- inception_5a/5x5
I0403 16:00:11.274807 20621 net.cpp:386] inception_5a/relu_5x5 -> inception_5a/5x5 (in-place)
I0403 16:00:11.275004 20621 net.cpp:141] Setting up inception_5a/relu_5x5
I0403 16:00:11.275032 20621 net.cpp:148] Top shape: 24 128 7 7 (150528)
I0403 16:00:11.275048 20621 net.cpp:156] Memory required for data: 1300555296
I0403 16:00:11.275063 20621 layer_factory.hpp:77] Creating layer inception_5a/pool
I0403 16:00:11.275080 20621 net.cpp:91] Creating Layer inception_5a/pool
I0403 16:00:11.275096 20621 net.cpp:425] inception_5a/pool <- pool4/3x3_s2_pool4/3x3_s2_0_split_3
I0403 16:00:11.275115 20621 net.cpp:399] inception_5a/pool -> inception_5a/pool
I0403 16:00:11.275187 20621 net.cpp:141] Setting up inception_5a/pool
I0403 16:00:11.275212 20621 net.cpp:148] Top shape: 24 832 7 7 (978432)
I0403 16:00:11.275226 20621 net.cpp:156] Memory required for data: 1304469024
I0403 16:00:11.275240 20621 layer_factory.hpp:77] Creating layer inception_5a/pool_proj
I0403 16:00:11.275262 20621 net.cpp:91] Creating Layer inception_5a/pool_proj
I0403 16:00:11.275279 20621 net.cpp:425] inception_5a/pool_proj <- inception_5a/pool
I0403 16:00:11.275300 20621 net.cpp:399] inception_5a/pool_proj -> inception_5a/pool_proj
I0403 16:00:11.277603 20621 net.cpp:141] Setting up inception_5a/pool_proj
I0403 16:00:11.277633 20621 net.cpp:148] Top shape: 24 128 7 7 (150528)
I0403 16:00:11.277648 20621 net.cpp:156] Memory required for data: 1305071136
I0403 16:00:11.277667 20621 layer_factory.hpp:77] Creating layer inception_5a/relu_pool_proj
I0403 16:00:11.277688 20621 net.cpp:91] Creating Layer inception_5a/relu_pool_proj
I0403 16:00:11.277705 20621 net.cpp:425] inception_5a/relu_pool_proj <- inception_5a/pool_proj
I0403 16:00:11.277722 20621 net.cpp:386] inception_5a/relu_pool_proj -> inception_5a/pool_proj (in-place)
I0403 16:00:11.278023 20621 net.cpp:141] Setting up inception_5a/relu_pool_proj
I0403 16:00:11.278048 20621 net.cpp:148] Top shape: 24 128 7 7 (150528)
I0403 16:00:11.278064 20621 net.cpp:156] Memory required for data: 1305673248
I0403 16:00:11.278077 20621 layer_factory.hpp:77] Creating layer inception_5a/output
I0403 16:00:11.278095 20621 net.cpp:91] Creating Layer inception_5a/output
I0403 16:00:11.278110 20621 net.cpp:425] inception_5a/output <- inception_5a/1x1
I0403 16:00:11.278126 20621 net.cpp:425] inception_5a/output <- inception_5a/3x3
I0403 16:00:11.278146 20621 net.cpp:425] inception_5a/output <- inception_5a/5x5
I0403 16:00:11.278163 20621 net.cpp:425] inception_5a/output <- inception_5a/pool_proj
I0403 16:00:11.278180 20621 net.cpp:399] inception_5a/output -> inception_5a/output
I0403 16:00:11.278229 20621 net.cpp:141] Setting up inception_5a/output
I0403 16:00:11.278254 20621 net.cpp:148] Top shape: 24 832 7 7 (978432)
I0403 16:00:11.278270 20621 net.cpp:156] Memory required for data: 1309586976
I0403 16:00:11.278285 20621 layer_factory.hpp:77] Creating layer inception_5a/output_inception_5a/output_0_split
I0403 16:00:11.278301 20621 net.cpp:91] Creating Layer inception_5a/output_inception_5a/output_0_split
I0403 16:00:11.278316 20621 net.cpp:425] inception_5a/output_inception_5a/output_0_split <- inception_5a/output
I0403 16:00:11.278337 20621 net.cpp:399] inception_5a/output_inception_5a/output_0_split -> inception_5a/output_inception_5a/output_0_split_0
I0403 16:00:11.278358 20621 net.cpp:399] inception_5a/output_inception_5a/output_0_split -> inception_5a/output_inception_5a/output_0_split_1
I0403 16:00:11.278378 20621 net.cpp:399] inception_5a/output_inception_5a/output_0_split -> inception_5a/output_inception_5a/output_0_split_2
I0403 16:00:11.278399 20621 net.cpp:399] inception_5a/output_inception_5a/output_0_split -> inception_5a/output_inception_5a/output_0_split_3
I0403 16:00:11.278512 20621 net.cpp:141] Setting up inception_5a/output_inception_5a/output_0_split
I0403 16:00:11.278537 20621 net.cpp:148] Top shape: 24 832 7 7 (978432)
I0403 16:00:11.278553 20621 net.cpp:148] Top shape: 24 832 7 7 (978432)
I0403 16:00:11.278568 20621 net.cpp:148] Top shape: 24 832 7 7 (978432)
I0403 16:00:11.278584 20621 net.cpp:148] Top shape: 24 832 7 7 (978432)
I0403 16:00:11.278596 20621 net.cpp:156] Memory required for data: 1325241888
I0403 16:00:11.278611 20621 layer_factory.hpp:77] Creating layer inception_5b/1x1
I0403 16:00:11.278630 20621 net.cpp:91] Creating Layer inception_5b/1x1
I0403 16:00:11.278647 20621 net.cpp:425] inception_5b/1x1 <- inception_5a/output_inception_5a/output_0_split_0
I0403 16:00:11.278669 20621 net.cpp:399] inception_5b/1x1 -> inception_5b/1x1
I0403 16:00:11.282465 20621 net.cpp:141] Setting up inception_5b/1x1
I0403 16:00:11.282496 20621 net.cpp:148] Top shape: 24 384 7 7 (451584)
I0403 16:00:11.282512 20621 net.cpp:156] Memory required for data: 1327048224
I0403 16:00:11.282531 20621 layer_factory.hpp:77] Creating layer inception_5b/relu_1x1
I0403 16:00:11.282548 20621 net.cpp:91] Creating Layer inception_5b/relu_1x1
I0403 16:00:11.282564 20621 net.cpp:425] inception_5b/relu_1x1 <- inception_5b/1x1
I0403 16:00:11.282584 20621 net.cpp:386] inception_5b/relu_1x1 -> inception_5b/1x1 (in-place)
I0403 16:00:11.282896 20621 net.cpp:141] Setting up inception_5b/relu_1x1
I0403 16:00:11.282922 20621 net.cpp:148] Top shape: 24 384 7 7 (451584)
I0403 16:00:11.282935 20621 net.cpp:156] Memory required for data: 1328854560
I0403 16:00:11.282950 20621 layer_factory.hpp:77] Creating layer inception_5b/3x3_reduce
I0403 16:00:11.282977 20621 net.cpp:91] Creating Layer inception_5b/3x3_reduce
I0403 16:00:11.282996 20621 net.cpp:425] inception_5b/3x3_reduce <- inception_5a/output_inception_5a/output_0_split_1
I0403 16:00:11.283020 20621 net.cpp:399] inception_5b/3x3_reduce -> inception_5b/3x3_reduce
I0403 16:00:11.285765 20621 net.cpp:141] Setting up inception_5b/3x3_reduce
I0403 16:00:11.285795 20621 net.cpp:148] Top shape: 24 192 7 7 (225792)
I0403 16:00:11.285812 20621 net.cpp:156] Memory required for data: 1329757728
I0403 16:00:11.285831 20621 layer_factory.hpp:77] Creating layer inception_5b/relu_3x3_reduce
I0403 16:00:11.285852 20621 net.cpp:91] Creating Layer inception_5b/relu_3x3_reduce
I0403 16:00:11.285871 20621 net.cpp:425] inception_5b/relu_3x3_reduce <- inception_5b/3x3_reduce
I0403 16:00:11.285888 20621 net.cpp:386] inception_5b/relu_3x3_reduce -> inception_5b/3x3_reduce (in-place)
I0403 16:00:11.286092 20621 net.cpp:141] Setting up inception_5b/relu_3x3_reduce
I0403 16:00:11.286118 20621 net.cpp:148] Top shape: 24 192 7 7 (225792)
I0403 16:00:11.286134 20621 net.cpp:156] Memory required for data: 1330660896
I0403 16:00:11.286147 20621 layer_factory.hpp:77] Creating layer inception_5b/3x3
I0403 16:00:11.286170 20621 net.cpp:91] Creating Layer inception_5b/3x3
I0403 16:00:11.286188 20621 net.cpp:425] inception_5b/3x3 <- inception_5b/3x3_reduce
I0403 16:00:11.286211 20621 net.cpp:399] inception_5b/3x3 -> inception_5b/3x3
I0403 16:00:11.293144 20621 net.cpp:141] Setting up inception_5b/3x3
I0403 16:00:11.293175 20621 net.cpp:148] Top shape: 24 384 7 7 (451584)
I0403 16:00:11.293191 20621 net.cpp:156] Memory required for data: 1332467232
I0403 16:00:11.293210 20621 layer_factory.hpp:77] Creating layer inception_5b/relu_3x3
I0403 16:00:11.293231 20621 net.cpp:91] Creating Layer inception_5b/relu_3x3
I0403 16:00:11.293248 20621 net.cpp:425] inception_5b/relu_3x3 <- inception_5b/3x3
I0403 16:00:11.293267 20621 net.cpp:386] inception_5b/relu_3x3 -> inception_5b/3x3 (in-place)
I0403 16:00:11.293573 20621 net.cpp:141] Setting up inception_5b/relu_3x3
I0403 16:00:11.293601 20621 net.cpp:148] Top shape: 24 384 7 7 (451584)
I0403 16:00:11.293617 20621 net.cpp:156] Memory required for data: 1334273568
I0403 16:00:11.293632 20621 layer_factory.hpp:77] Creating layer inception_5b/5x5_reduce
I0403 16:00:11.293673 20621 net.cpp:91] Creating Layer inception_5b/5x5_reduce
I0403 16:00:11.293692 20621 net.cpp:425] inception_5b/5x5_reduce <- inception_5a/output_inception_5a/output_0_split_2
I0403 16:00:11.293715 20621 net.cpp:399] inception_5b/5x5_reduce -> inception_5b/5x5_reduce
I0403 16:00:11.295084 20621 net.cpp:141] Setting up inception_5b/5x5_reduce
I0403 16:00:11.295114 20621 net.cpp:148] Top shape: 24 48 7 7 (56448)
I0403 16:00:11.295130 20621 net.cpp:156] Memory required for data: 1334499360
I0403 16:00:11.295148 20621 layer_factory.hpp:77] Creating layer inception_5b/relu_5x5_reduce
I0403 16:00:11.295166 20621 net.cpp:91] Creating Layer inception_5b/relu_5x5_reduce
I0403 16:00:11.295182 20621 net.cpp:425] inception_5b/relu_5x5_reduce <- inception_5b/5x5_reduce
I0403 16:00:11.295202 20621 net.cpp:386] inception_5b/relu_5x5_reduce -> inception_5b/5x5_reduce (in-place)
I0403 16:00:11.295588 20621 net.cpp:141] Setting up inception_5b/relu_5x5_reduce
I0403 16:00:11.295615 20621 net.cpp:148] Top shape: 24 48 7 7 (56448)
I0403 16:00:11.295631 20621 net.cpp:156] Memory required for data: 1334725152
I0403 16:00:11.295646 20621 layer_factory.hpp:77] Creating layer inception_5b/5x5
I0403 16:00:11.295668 20621 net.cpp:91] Creating Layer inception_5b/5x5
I0403 16:00:11.295686 20621 net.cpp:425] inception_5b/5x5 <- inception_5b/5x5_reduce
I0403 16:00:11.295704 20621 net.cpp:399] inception_5b/5x5 -> inception_5b/5x5
I0403 16:00:11.297862 20621 net.cpp:141] Setting up inception_5b/5x5
I0403 16:00:11.297889 20621 net.cpp:148] Top shape: 24 128 7 7 (150528)
I0403 16:00:11.297905 20621 net.cpp:156] Memory required for data: 1335327264
I0403 16:00:11.297924 20621 layer_factory.hpp:77] Creating layer inception_5b/relu_5x5
I0403 16:00:11.297945 20621 net.cpp:91] Creating Layer inception_5b/relu_5x5
I0403 16:00:11.297968 20621 net.cpp:425] inception_5b/relu_5x5 <- inception_5b/5x5
I0403 16:00:11.297987 20621 net.cpp:386] inception_5b/relu_5x5 -> inception_5b/5x5 (in-place)
I0403 16:00:11.298189 20621 net.cpp:141] Setting up inception_5b/relu_5x5
I0403 16:00:11.298219 20621 net.cpp:148] Top shape: 24 128 7 7 (150528)
I0403 16:00:11.298234 20621 net.cpp:156] Memory required for data: 1335929376
I0403 16:00:11.298249 20621 layer_factory.hpp:77] Creating layer inception_5b/pool
I0403 16:00:11.298269 20621 net.cpp:91] Creating Layer inception_5b/pool
I0403 16:00:11.298285 20621 net.cpp:425] inception_5b/pool <- inception_5a/output_inception_5a/output_0_split_3
I0403 16:00:11.298307 20621 net.cpp:399] inception_5b/pool -> inception_5b/pool
I0403 16:00:11.298383 20621 net.cpp:141] Setting up inception_5b/pool
I0403 16:00:11.298408 20621 net.cpp:148] Top shape: 24 832 7 7 (978432)
I0403 16:00:11.298423 20621 net.cpp:156] Memory required for data: 1339843104
I0403 16:00:11.298437 20621 layer_factory.hpp:77] Creating layer inception_5b/pool_proj
I0403 16:00:11.298460 20621 net.cpp:91] Creating Layer inception_5b/pool_proj
I0403 16:00:11.298477 20621 net.cpp:425] inception_5b/pool_proj <- inception_5b/pool
I0403 16:00:11.298499 20621 net.cpp:399] inception_5b/pool_proj -> inception_5b/pool_proj
I0403 16:00:11.300896 20621 net.cpp:141] Setting up inception_5b/pool_proj
I0403 16:00:11.300927 20621 net.cpp:148] Top shape: 24 128 7 7 (150528)
I0403 16:00:11.300943 20621 net.cpp:156] Memory required for data: 1340445216
I0403 16:00:11.300967 20621 layer_factory.hpp:77] Creating layer inception_5b/relu_pool_proj
I0403 16:00:11.300989 20621 net.cpp:91] Creating Layer inception_5b/relu_pool_proj
I0403 16:00:11.301007 20621 net.cpp:425] inception_5b/relu_pool_proj <- inception_5b/pool_proj
I0403 16:00:11.301025 20621 net.cpp:386] inception_5b/relu_pool_proj -> inception_5b/pool_proj (in-place)
I0403 16:00:11.301334 20621 net.cpp:141] Setting up inception_5b/relu_pool_proj
I0403 16:00:11.301362 20621 net.cpp:148] Top shape: 24 128 7 7 (150528)
I0403 16:00:11.301378 20621 net.cpp:156] Memory required for data: 1341047328
I0403 16:00:11.301393 20621 layer_factory.hpp:77] Creating layer inception_5b/output
I0403 16:00:11.301411 20621 net.cpp:91] Creating Layer inception_5b/output
I0403 16:00:11.301442 20621 net.cpp:425] inception_5b/output <- inception_5b/1x1
I0403 16:00:11.301461 20621 net.cpp:425] inception_5b/output <- inception_5b/3x3
I0403 16:00:11.301478 20621 net.cpp:425] inception_5b/output <- inception_5b/5x5
I0403 16:00:11.301496 20621 net.cpp:425] inception_5b/output <- inception_5b/pool_proj
I0403 16:00:11.301515 20621 net.cpp:399] inception_5b/output -> inception_5b/output
I0403 16:00:11.301573 20621 net.cpp:141] Setting up inception_5b/output
I0403 16:00:11.301596 20621 net.cpp:148] Top shape: 24 1024 7 7 (1204224)
I0403 16:00:11.301611 20621 net.cpp:156] Memory required for data: 1345864224
I0403 16:00:11.301626 20621 layer_factory.hpp:77] Creating layer pool5/7x7_s1
I0403 16:00:11.301645 20621 net.cpp:91] Creating Layer pool5/7x7_s1
I0403 16:00:11.301661 20621 net.cpp:425] pool5/7x7_s1 <- inception_5b/output
I0403 16:00:11.301682 20621 net.cpp:399] pool5/7x7_s1 -> pool5/7x7_s1
I0403 16:00:11.301908 20621 net.cpp:141] Setting up pool5/7x7_s1
I0403 16:00:11.301934 20621 net.cpp:148] Top shape: 24 1024 1 1 (24576)
I0403 16:00:11.301949 20621 net.cpp:156] Memory required for data: 1345962528
I0403 16:00:11.301970 20621 layer_factory.hpp:77] Creating layer pool5/drop_7x7_s1
I0403 16:00:11.301990 20621 net.cpp:91] Creating Layer pool5/drop_7x7_s1
I0403 16:00:11.302007 20621 net.cpp:425] pool5/drop_7x7_s1 <- pool5/7x7_s1
I0403 16:00:11.302026 20621 net.cpp:386] pool5/drop_7x7_s1 -> pool5/7x7_s1 (in-place)
I0403 16:00:11.302079 20621 net.cpp:141] Setting up pool5/drop_7x7_s1
I0403 16:00:11.302103 20621 net.cpp:148] Top shape: 24 1024 1 1 (24576)
I0403 16:00:11.302117 20621 net.cpp:156] Memory required for data: 1346060832
I0403 16:00:11.302132 20621 layer_factory.hpp:77] Creating layer loss3/classifier_plantvillage
I0403 16:00:11.302152 20621 net.cpp:91] Creating Layer loss3/classifier_plantvillage
I0403 16:00:11.302168 20621 net.cpp:425] loss3/classifier_plantvillage <- pool5/7x7_s1
I0403 16:00:11.302189 20621 net.cpp:399] loss3/classifier_plantvillage -> loss3/classifier_plantvillage
I0403 16:00:11.302651 20621 net.cpp:141] Setting up loss3/classifier_plantvillage
I0403 16:00:11.302675 20621 net.cpp:148] Top shape: 24 38 (912)
I0403 16:00:11.302690 20621 net.cpp:156] Memory required for data: 1346064480
I0403 16:00:11.302708 20621 layer_factory.hpp:77] Creating layer loss3/classifier_plantvillage_loss3/classifier_plantvillage_0_split
I0403 16:00:11.302726 20621 net.cpp:91] Creating Layer loss3/classifier_plantvillage_loss3/classifier_plantvillage_0_split
I0403 16:00:11.302742 20621 net.cpp:425] loss3/classifier_plantvillage_loss3/classifier_plantvillage_0_split <- loss3/classifier_plantvillage
I0403 16:00:11.302762 20621 net.cpp:399] loss3/classifier_plantvillage_loss3/classifier_plantvillage_0_split -> loss3/classifier_plantvillage_loss3/classifier_plantvillage_0_split_0
I0403 16:00:11.302783 20621 net.cpp:399] loss3/classifier_plantvillage_loss3/classifier_plantvillage_0_split -> loss3/classifier_plantvillage_loss3/classifier_plantvillage_0_split_1
I0403 16:00:11.302801 20621 net.cpp:399] loss3/classifier_plantvillage_loss3/classifier_plantvillage_0_split -> loss3/classifier_plantvillage_loss3/classifier_plantvillage_0_split_2
I0403 16:00:11.302821 20621 net.cpp:399] loss3/classifier_plantvillage_loss3/classifier_plantvillage_0_split -> loss3/classifier_plantvillage_loss3/classifier_plantvillage_0_split_3
I0403 16:00:11.302924 20621 net.cpp:141] Setting up loss3/classifier_plantvillage_loss3/classifier_plantvillage_0_split
I0403 16:00:11.302948 20621 net.cpp:148] Top shape: 24 38 (912)
I0403 16:00:11.302968 20621 net.cpp:148] Top shape: 24 38 (912)
I0403 16:00:11.302984 20621 net.cpp:148] Top shape: 24 38 (912)
I0403 16:00:11.302999 20621 net.cpp:148] Top shape: 24 38 (912)
I0403 16:00:11.303014 20621 net.cpp:156] Memory required for data: 1346079072
I0403 16:00:11.303027 20621 layer_factory.hpp:77] Creating layer loss1/loss
I0403 16:00:11.303048 20621 net.cpp:91] Creating Layer loss1/loss
I0403 16:00:11.303066 20621 net.cpp:425] loss1/loss <- loss1/classifier_plantvillage_loss1/classifier_plantvillage_0_split_0
I0403 16:00:11.303097 20621 net.cpp:425] loss1/loss <- label_data_1_split_0
…
