…
I0403 16:20:48.269191 20975 net.cpp:313] The NetState phase (1) differed from the phase (0) specified by a rule in layer data
I0403 16:20:48.270453 20975 net.cpp:49] Initializing net from parameters: 
state {
  phase: TEST
}
layer {
  name: "data"
  type: "Data"
  top: "data"
  top: "label"
  include {
    phase: TEST
  }
  transform_param {
    mirror: false
    crop_size: 224
    mean_file: "/home/mohanty/data/final_dataset/lmdb/color-40-60/mean.binaryproto"
  }
  data_param {
    source: "/home/mohanty/data/final_dataset/lmdb/color-40-60/test_db"
    batch_size: 24
    backend: LMDB
  }
}
layer {
  name: "conv1/7x7_s2"
  type: "Convolution"
  bottom: "data"
  top: "conv1/7x7_s2"
  param {
    lr_mult: 1
    decay_mult: 1
  }
  param {
    lr_mult: 2
    decay_mult: 0
  }
  convolution_param {
    num_output: 64
    pad: 3
    kernel_size: 7
    stride: 2
    weight_filler {
      type: "xavier"
      std: 0.1
    }
    bias_filler {
      type: "constant"
      value: 0.2
    }
  }
}
layer {
  name: "conv1/relu_7x7"
  type: "ReLU"
  bottom: "conv1/7x7_s2"
  top: "conv1/7x7_s2"
}
layer {
  name: "pool1/3x3_s2"
  type: "Pooling"
  bottom: "conv1/7x7_s2"
  top: "pool1/3x3_s2"
  pooling_param {
    pool: MAX
    kernel_size: 3
    stride: 2
  }
}
layer {
  name: "pool1/norm1"
  type: "LRN"
  bottom: "pool1/3x3_s2"
  top: "pool1/norm1"
  lrn_param {
    local_size: 5
    alpha: 0.0001
    beta: 0.75
  }
}
layer {
  name: "conv2/3x3_reduce"
  type: "Convolution"
  bottom: "pool1/norm1"
  top: "conv2/3x3_reduce"
  param {
    lr_mult: 1
    decay_mult: 1
  }
  param {
    lr_mult: 2
    decay_mult: 0
  }
  convolution_param {
    num_output: 64
    kernel_size: 1
    weight_filler {
      type: "xavier"
      std: 0.1
    }
    bias_filler {
      type: "constant"
      value: 0.2
    }
  }
}
layer {
  name: "conv2/relu_3x3_reduce"
  type: "ReLU"
  bottom: "conv2/3x3_reduce"
  top: "conv2/3x3_reduce"
}
layer {
  name: "conv2/3x3"
  type: "Convolution"
  bottom: "conv2/3x3_reduce"
  top: "conv2/3x3"
  param {
    lr_mult: 1
    decay_mult: 1
  }
  param {
    lr_mult: 2
    decay_mult: 0
  }
  convolution_param {
    num_output: 192
    pad: 1
    kernel_size: 3
    weight_filler {
      type: "xavier"
      std: 0.03
    }
    bias_filler {
      type: "constant"
      value: 0.2
    }
  }
}
layer {
  name: "conv2/relu_3x3"
  type: "ReLU"
  bottom: "conv2/3x3"
  top: "conv2/3x3"
}
layer {
  name: "conv2/norm2"
  type: "LRN"
  bottom: "conv2/3x3"
  top: "conv2/norm2"
  lrn_param {
    local_size: 5
    alpha: 0.0001
    beta: 0.75
  }
}
layer {
  name: "pool2/3x3_s2"
  type: "Pooling"
  bottom: "conv2/norm2"
  top: "pool2/3x3_s2"
  pooling_param {
    pool: MAX
    kernel_size: 3
    stride: 2
  }
}
layer {
  name: "inception_3a/1x1"
  type: "Convolution"
  bottom: "pool2/3x3_s2"
  top: "inception_3a/1x1"
  param {
    lr_mult: 1
    decay_mult: 1
  }
  param {
    lr_mult: 2
    decay_mult: 0
  }
  convolution_param {
    num_output: 64
    kernel_size: 1
    weight_filler {
      type: "xavier"
      std: 0.03
    }
    bias_filler {
      type: "constant"
      value: 0.2
    }
  }
}
layer {
  name: "inception_3a/relu_1x1"
  type: "ReLU"
  bottom: "inception_3a/1x1"
  top: "inception_3a/1x1"
}
layer {
  name: "inception_3a/3x3_reduce"
  type: "Convolution"
  bottom: "pool2/3x3_s2"
  top: "inception_3a/3x3_reduce"
  param {
    lr_mult: 1
    decay_mult: 1
  }
  param {
    lr_mult: 2
    decay_mult: 0
  }
  convolution_param {
    num_output: 96
    kernel_size: 1
    weight_filler {
      type: "xavier"
      std: 0.09
    }
    bias_filler {
      type: "constant"
      value: 0.2
    }
  }
}
layer {
  name: "inception_3a/relu_3x3_reduce"
  type: "ReLU"
  bottom: "inception_3a/3x3_reduce"
  top: "inception_3a/3x3_reduce"
}
layer {
  name: "inception_3a/3x3"
  type: "Convolution"
  bottom: "inception_3a/3x3_reduce"
  top: "inception_3a/3x3"
  param {
    lr_mult: 1
    decay_mult: 1
  }
  param {
    lr_mult: 2
    decay_mult: 0
  }
  convolution_param {
    num_output: 128
    pad: 1
    kernel_size: 3
    weight_filler {
      type: "xavier"
      std: 0.03
    }
    bias_filler {
      type: "constant"
      value: 0.2
    }
  }
}
layer {
  name: "inception_3a/relu_3x3"
  type: "ReLU"
  bottom: "inception_3a/3x3"
  top: "inception_3a/3x3"
}
layer {
  name: "inception_3a/5x5_reduce"
  type: "Convolution"
  bottom: "pool2/3x3_s2"
  top: "inception_3a/5x5_reduce"
  param {
    lr_mult: 1
    decay_mult: 1
  }
  param {
    lr_mult: 2
    decay_mult: 0
  }
  convolution_param {
    num_output: 16
    kernel_size: 1
    weight_filler {
      type: "xavier"
      std: 0.2
    }
    bias_filler {
      type: "constant"
      value: 0.2
    }
  }
}
layer {
  name: "inception_3a/relu_5x5_reduce"
  type: "ReLU"
  bottom: "inception_3a/5x5_reduce"
  top: "inception_3a/5x5_reduce"
}
layer {
  name: "inception_3a/5x5"
  type: "Convolution"
  bottom: "inception_3a/5x5_reduce"
  top: "inception_3a/5x5"
  param {
    lr_mult: 1
    decay_mult: 1
  }
  param {
    lr_mult: 2
    decay_mult: 0
  }
  convolution_param {
    num_output: 32
    pad: 2
    kernel_size: 5
    weight_filler {
      type: "xavier"
      std: 0.03
    }
    bias_filler {
      type: "constant"
      value: 0.2
    }
  }
}
layer {
  name: "inception_3a/relu_5x5"
  type: "ReLU"
  bottom: "inception_3a/5x5"
  top: "inception_3a/5x5"
}
layer {
  name: "inception_3a/pool"
  type: "Pooling"
  bottom: "pool2/3x3_s2"
  top: "inception_3a/pool"
  pooling_param {
    pool: MAX
    kernel_size: 3
    stride: 1
    pad: 1
  }
}
layer {
  name: "inception_3a/pool_proj"
  type: "Convolution"
  bottom: "inception_3a/pool"
  top: "inception_3a/pool_proj"
  param {
    lr_mult: 1
    decay_mult: 1
  }
  param {
    lr_mult: 2
    decay_mult: 0
  }
  convolution_param {
    num_output: 32
    kernel_size: 1
    weight_filler {
      type: "xavier"
      std: 0.1
    }
    bias_filler {
      type: "constant"
      value: 0.2
    }
  }
}
layer {
  name: "inception_3a/relu_pool_proj"
  type: "ReLU"
  bottom: "inception_3a/pool_proj"
  top: "inception_3a/pool_proj"
}
layer {
  name: "inception_3a/output"
  type: "Concat"
  bottom: "inception_3a/1x1"
  bottom: "inception_3a/3x3"
  bottom: "inception_3a/5x5"
  bottom: "inception_3a/pool_proj"
  top: "inception_3a/output"
}
layer {
  name: "inception_3b/1x1"
  type: "Convolution"
  bottom: "inception_3a/output"
  top: "inception_3b/1x1"
  param {
    lr_mult: 1
    decay_mult: 1
  }
  param {
    lr_mult: 2
    decay_mult: 0
  }
  convolution_param {
    num_output: 128
    kernel_size: 1
    weight_filler {
      type: "xavier"
      std: 0.03
    }
    bias_filler {
      type: "constant"
      value: 0.2
    }
  }
}
layer {
  name: "inception_3b/relu_1x1"
  type: "ReLU"
  bottom: "inception_3b/1x1"
  top: "inception_3b/1x1"
}
layer {
  name: "inception_3b/3x3_reduce"
  type: "Convolution"
  bottom: "inception_3a/output"
  top: "inception_3b/3x3_reduce"
  param {
    lr_mult: 1
    decay_mult: 1
  }
  param {
    lr_mult: 2
    decay_mult: 0
  }
  convolution_param {
    num_output: 128
    kernel_size: 1
    weight_filler {
      type: "xavier"
      std: 0.09
    }
    bias_filler {
      type: "constant"
      value: 0.2
    }
  }
}
layer {
  name: "inception_3b/relu_3x3_reduce"
  type: "ReLU"
  bottom: "inception_3b/3x3_reduce"
  top: "inception_3b/3x3_reduce"
}
layer {
  name: "inception_3b/3x3"
  type: "Convolution"
  bottom: "inception_3b/3x3_reduce"
  top: "inception_3b/3x3"
  param {
    lr_mult: 1
    decay_mult: 1
  }
  param {
    lr_mult: 2
    decay_mult: 0
  }
  convolution_param {
    num_output: 192
    pad: 1
    kernel_size: 3
    weight_filler {
      type: "xavier"
      std: 0.03
    }
    bias_filler {
      type: "constant"
      value: 0.2
    }
  }
}
layer {
  name: "inception_3b/relu_3x3"
  type: "ReLU"
  bottom: "inception_3b/3x3"
  top: "inception_3b/3x3"
}
layer {
  name: "inception_3b/5x5_reduce"
  type: "Convolution"
  bottom: "inception_3a/output"
  top: "inception_3b/5x5_reduce"
  param {
    lr_mult: 1
    decay_mult: 1
  }
  param {
    lr_mult: 2
    decay_mult: 0
  }
  convolution_param {
    num_output: 32
    kernel_size: 1
    weight_filler {
      type: "xavier"
      std: 0.2
    }
    bias_filler {
      type: "constant"
      value: 0.2
    }
  }
}
layer {
  name: "inception_3b/relu_5x5_reduce"
  type: "ReLU"
  bottom: "inception_3b/5x5_reduce"
  top: "inception_3b/5x5_reduce"
}
layer {
  name: "inception_3b/5x5"
  type: "Convolution"
  bottom: "inception_3b/5x5_reduce"
  top: "inception_3b/5x5"
  param {
    lr_mult: 1
    decay_mult: 1
  }
  param {
    lr_mult: 2
    decay_mult: 0
  }
  convolution_param {
    num_output: 96
    pad: 2
    kernel_size: 5
    weight_filler {
      type: "xavier"
      std: 0.03
    }
    bias_filler {
      type: "constant"
      value: 0.2
    }
  }
}
layer {
  name: "inception_3b/relu_5x5"
  type: "ReLU"
  bottom: "inception_3b/5x5"
  top: "inception_3b/5x5"
}
layer {
  name: "inception_3b/pool"
  type: "Pooling"
  bottom: "inception_3a/output"
  top: "inception_3b/pool"
  pooling_param {
    pool: MAX
    kernel_size: 3
    stride: 1
    pad: 1
  }
}
layer {
  name: "inception_3b/pool_proj"
  type: "Convolution"
  bottom: "inception_3b/pool"
  top: "inception_3b/pool_proj"
  param {
    lr_mult: 1
    decay_mult: 1
  }
  param {
    lr_mult: 2
    decay_mult: 0
  }
  convolution_param {
    num_output: 64
    kernel_size: 1
    weight_filler {
      type: "xavier"
      std: 0.1
    }
    bias_filler {
      type: "constant"
      value: 0.2
    }
  }
}
layer {
  name: "inception_3b/relu_pool_proj"
  type: "ReLU"
  bottom: "inception_3b/pool_proj"
  top: "inception_3b/pool_proj"
}
layer {
  name: "inception_3b/output"
  type: "Concat"
  bottom: "inception_3b/1x1"
  bottom: "inception_3b/3x3"
  bottom: "inception_3b/5x5"
  bottom: "inception_3b/pool_proj"
  top: "inception_3b/output"
}
layer {
  name: "pool3/3x3_s2"
  type: "Pooling"
  bottom: "inception_3b/output"
  top: "pool3/3x3_s2"
  pooling_param {
    pool: MAX
    kernel_size: 3
    stride: 2
  }
}
layer {
  name: "inception_4a/1x1"
  type: "Convolution"
  bottom: "pool3/3x3_s2"
  top: "inception_4a/1x1"
  param {
    lr_mult: 1
    decay_mult: 1
  }
  param {
    lr_mult: 2
    decay_mult: 0
  }
  convolution_param {
    num_output: 192
    kernel_size: 1
    weight_filler {
      type: "xavier"
      std: 0.03
    }
    bias_filler {
      type: "constant"
      value: 0.2
    }
  }
}
layer {
  name: "inception_4a/relu_1x1"
  type: "ReLU"
  bottom: "inception_4a/1x1"
  top: "inception_4a/1x1"
}
layer {
  name: "inception_4a/3x3_reduce"
  type: "Convolution"
  bottom: "pool3/3x3_s2"
  top: "inception_4a/3x3_reduce"
  param {
    lr_mult: 1
    decay_mult: 1
  }
  param {
    lr_mult: 2
    decay_mult: 0
  }
  convolution_param {
    num_output: 96
    kernel_size: 1
    weight_filler {
      type: "xavier"
      std: 0.09
    }
    bias_filler {
      type: "constant"
      value: 0.2
    }
  }
}
layer {
  name: "inception_4a/relu_3x3_reduce"
  type: "ReLU"
  bottom: "inception_4a/3x3_reduce"
  top: "inception_4a/3x3_reduce"
}
layer {
  name: "inception_4a/3x3"
  type: "Convolution"
  bottom: "inception_4a/3x3_reduce"
  top: "inception_4a/3x3"
  param {
    lr_mult: 1
    decay_mult: 1
  }
  param {
    lr_mult: 2
    decay_mult: 0
  }
  convolution_param {
    num_output: 208
    pad: 1
    kernel_size: 3
    weight_filler {
      type: "xavier"
      std: 0.03
    }
    bias_filler {
      type: "constant"
      value: 0.2
    }
  }
}
layer {
  name: "inception_4a/relu_3x3"
  type: "ReLU"
  bottom: "inception_4a/3x3"
  top: "inception_4a/3x3"
}
layer {
  name: "inception_4a/5x5_reduce"
  type: "Convolution"
  bottom: "pool3/3x3_s2"
  top: "inception_4a/5x5_reduce"
  param {
    lr_mult: 1
    decay_mult: 1
  }
  param {
    lr_mult: 2
    decay_mult: 0
  }
  convolution_param {
    num_output: 16
    kernel_size: 1
    weight_filler {
      type: "xavier"
      std: 0.2
    }
    bias_filler {
      type: "constant"
      value: 0.2
    }
  }
}
layer {
  name: "inception_4a/relu_5x5_reduce"
  type: "ReLU"
  bottom: "inception_4a/5x5_reduce"
  top: "inception_4a/5x5_reduce"
}
layer {
  name: "inception_4a/5x5"
  type: "Convolution"
  bottom: "inception_4a/5x5_reduce"
  top: "inception_4a/5x5"
  param {
    lr_mult: 1
    decay_mult: 1
  }
  param {
    lr_mult: 2
    decay_mult: 0
  }
  convolution_param {
    num_output: 48
    pad: 2
    kernel_size: 5
    weight_filler {
      type: "xavier"
      std: 0.03
    }
    bias_filler {
      type: "constant"
      value: 0.2
    }
  }
}
layer {
  name: "inception_4a/relu_5x5"
  type: "ReLU"
  bottom: "inception_4a/5x5"
  top: "inception_4a/5x5"
}
layer {
  name: "inception_4a/pool"
  type: "Pooling"
  bottom: "pool3/3x3_s2"
  top: "inception_4a/pool"
  pooling_param {
    pool: MAX
    kernel_size: 3
    stride: 1
    pad: 1
  }
}
layer {
  name: "inception_4a/pool_proj"
  type: "Convolution"
  bottom: "inception_4a/pool"
  top: "inception_4a/pool_proj"
  param {
    lr_mult: 1
    decay_mult: 1
  }
  param {
    lr_mult: 2
    decay_mult: 0
  }
  convolution_param {
    num_output: 64
    kernel_size: 1
    weight_filler {
      type: "xavier"
      std: 0.1
    }
    bias_filler {
      type: "constant"
      value: 0.2
    }
  }
}
layer {
  name: "inception_4a/relu_pool_proj"
  type: "ReLU"
  bottom: "inception_4a/pool_proj"
  top: "inception_4a/pool_proj"
}
layer {
  name: "inception_4a/output"
  type: "Concat"
  bottom: "inception_4a/1x1"
  bottom: "inception_4a/3x3"
  bottom: "inception_4a/5x5"
  bottom: "inception_4a/pool_proj"
  top: "inception_4a/output"
}
layer {
  name: "loss1/ave_pool"
  type: "Pooling"
  bottom: "inception_4a/output"
  top: "loss1/ave_pool"
  pooling_param {
    pool: AVE
    kernel_size: 5
    stride: 3
  }
}
layer {
  name: "loss1/conv"
  type: "Convolution"
  bottom: "loss1/ave_pool"
  top: "loss1/conv"
  param {
    lr_mult: 1
    decay_mult: 1
  }
  param {
    lr_mult: 2
    decay_mult: 0
  }
  convolution_param {
    num_output: 128
    kernel_size: 1
    weight_filler {
      type: "xavier"
      std: 0.08
    }
    bias_filler {
      type: "constant"
      value: 0.2
    }
  }
}
layer {
  name: "loss1/relu_conv"
  type: "ReLU"
  bottom: "loss1/conv"
  top: "loss1/conv"
}
layer {
  name: "loss1/fc"
  type: "InnerProduct"
  bottom: "loss1/conv"
  top: "loss1/fc"
  param {
    lr_mult: 1
    decay_mult: 1
  }
  param {
    lr_mult: 2
    decay_mult: 0
  }
  inner_product_param {
    num_output: 1024
    weight_filler {
      type: "xavier"
      std: 0.02
    }
    bias_filler {
      type: "constant"
      value: 0.2
    }
  }
}
layer {
  name: "loss1/relu_fc"
  type: "ReLU"
  bottom: "loss1/fc"
  top: "loss1/fc"
}
layer {
  name: "loss1/drop_fc"
  type: "Dropout"
  bottom: "loss1/fc"
  top: "loss1/fc"
  dropout_param {
    dropout_ratio: 0.7
  }
}
layer {
  name: "loss1/classifier_plantvillage"
  type: "InnerProduct"
  bottom: "loss1/fc"
  top: "loss1/classifier_plantvillage"
  param {
    lr_mult: 1
    decay_mult: 1
  }
  param {
    lr_mult: 2
    decay_mult: 0
  }
  inner_product_param {
    num_output: 38
    weight_filler {
      type: "xavier"
      std: 0.0009765625
    }
    bias_filler {
      type: "constant"
      value: 0
    }
  }
}
layer {
  name: "inception_4b/1x1"
  type: "Convolution"
  bottom: "inception_4a/output"
  top: "inception_4b/1x1"
  param {
    lr_mult: 1
    decay_mult: 1
  }
  param {
    lr_mult: 2
    decay_mult: 0
  }
  convolution_param {
    num_output: 160
    kernel_size: 1
    weight_filler {
      type: "xavier"
      std: 0.03
    }
    bias_filler {
      type: "constant"
      value: 0.2
    }
  }
}
layer {
  name: "inception_4b/relu_1x1"
  type: "ReLU"
  bottom: "inception_4b/1x1"
  top: "inception_4b/1x1"
}
layer {
  name: "inception_4b/3x3_reduce"
  type: "Convolution"
  bottom: "inception_4a/output"
  top: "inception_4b/3x3_reduce"
  param {
    lr_mult: 1
    decay_mult: 1
  }
  param {
    lr_mult: 2
    decay_mult: 0
  }
  convolution_param {
    num_output: 112
    kernel_size: 1
    weight_filler {
      type: "xavier"
      std: 0.09
    }
    bias_filler {
      type: "constant"
      value: 0.2
    }
  }
}
layer {
  name: "inception_4b/relu_3x3_reduce"
  type: "ReLU"
  bottom: "inception_4b/3x3_reduce"
  top: "inception_4b/3x3_reduce"
}
layer {
  name: "inception_4b/3x3"
  type: "Convolution"
  bottom: "inception_4b/3x3_reduce"
  top: "inception_4b/3x3"
  param {
    lr_mult: 1
    decay_mult: 1
  }
  param {
    lr_mult: 2
    decay_mult: 0
  }
  convolution_param {
    num_output: 224
    pad: 1
    kernel_size: 3
    weight_filler {
      type: "xavier"
      std: 0.03
    }
    bias_filler {
      type: "constant"
      value: 0.2
    }
  }
}
layer {
  name: "inception_4b/relu_3x3"
  type: "ReLU"
  bottom: "inception_4b/3x3"
  top: "inception_4b/3x3"
}
layer {
  name: "inception_4b/5x5_reduce"
  type: "Convolution"
  bottom: "inception_4a/output"
  top: "inception_4b/5x5_reduce"
  param {
    lr_mult: 1
    decay_mult: 1
  }
  param {
    lr_mult: 2
    decay_mult: 0
  }
  convolution_param {
    num_output: 24
    kernel_size: 1
    weight_filler {
      type: "xavier"
      std: 0.2
    }
    bias_filler {
      type: "constant"
      value: 0.2
    }
  }
}
layer {
  name: "inception_4b/relu_5x5_reduce"
  type: "ReLU"
  bottom: "inception_4b/5x5_reduce"
  top: "inception_4b/5x5_reduce"
}
layer {
  name: "inception_4b/5x5"
  type: "Convolution"
  bottom: "inception_4b/5x5_reduce"
  top: "inception_4b/5x5"
  param {
    lr_mult: 1
    decay_mult: 1
  }
  param {
    lr_mult: 2
    decay_mult: 0
  }
  convolution_param {
    num_output: 64
    pad: 2
    kernel_size: 5
    weight_filler {
      type: "xavier"
      std: 0.03
    }
    bias_filler {
      type: "constant"
      value: 0.2
    }
  }
}
layer {
  name: "inception_4b/relu_5x5"
  type: "ReLU"
  bottom: "inception_4b/5x5"
  top: "inception_4b/5x5"
}
layer {
  name: "inception_4b/pool"
  type: "Pooling"
  bottom: "inception_4a/output"
  top: "inception_4b/pool"
  pooling_param {
    pool: MAX
    kernel_size: 3
    stride: 1
    pad: 1
  }
}
layer {
  name: "inception_4b/pool_proj"
  type: "Convolution"
  bottom: "inception_4b/pool"
  top: "inception_4b/pool_proj"
  param {
    lr_mult: 1
    decay_mult: 1
  }
  param {
    lr_mult: 2
    decay_mult: 0
  }
  convolution_param {
    num_output: 64
    kernel_size: 1
    weight_filler {
      type: "xavier"
      std: 0.1
    }
    bias_filler {
      type: "constant"
      value: 0.2
    }
  }
}
layer {
  name: "inception_4b/relu_pool_proj"
  type: "ReLU"
  bottom: "inception_4b/pool_proj"
  top: "inception_4b/pool_proj"
}
layer {
  name: "inception_4b/output"
  type: "Concat"
  bottom: "inception_4b/1x1"
  bottom: "inception_4b/3x3"
  bottom: "inception_4b/5x5"
  bottom: "inception_4b/pool_proj"
  top: "inception_4b/output"
}
layer {
  name: "inception_4c/1x1"
  type: "Convolution"
  bottom: "inception_4b/output"
  top: "inception_4c/1x1"
  param {
    lr_mult: 1
    decay_mult: 1
  }
  param {
    lr_mult: 2
    decay_mult: 0
  }
  convolution_param {
    num_output: 128
    kernel_size: 1
    weight_filler {
      type: "xavier"
      std: 0.03
    }
    bias_filler {
      type: "constant"
      value: 0.2
    }
  }
}
layer {
  name: "inception_4c/relu_1x1"
  type: "ReLU"
  bottom: "inception_4c/1x1"
  top: "inception_4c/1x1"
}
layer {
  name: "inception_4c/3x3_reduce"
  type: "Convolution"
  bottom: "inception_4b/output"
  top: "inception_4c/3x3_reduce"
  param {
    lr_mult: 1
    decay_mult: 1
  }
  param {
    lr_mult: 2
    decay_mult: 0
  }
  convolution_param {
    num_output: 128
    kernel_size: 1
    weight_filler {
      type: "xavier"
      std: 0.09
    }
    bias_filler {
      type: "constant"
      value: 0.2
    }
  }
}
layer {
  name: "inception_4c/relu_3x3_reduce"
  type: "ReLU"
  bottom: "inception_4c/3x3_reduce"
  top: "inception_4c/3x3_reduce"
}
layer {
  name: "inception_4c/3x3"
  type: "Convolution"
  bottom: "inception_4c/3x3_reduce"
  top: "inception_4c/3x3"
  param {
    lr_mult: 1
    decay_mult: 1
  }
  param {
    lr_mult: 2
    decay_mult: 0
  }
  convolution_param {
    num_output: 256
    pad: 1
    kernel_size: 3
    weight_filler {
      type: "xavier"
      std: 0.03
    }
    bias_filler {
      type: "constant"
      value: 0.2
    }
  }
}
layer {
  name: "inception_4c/relu_3x3"
  type: "ReLU"
  bottom: "inception_4c/3x3"
  top: "inception_4c/3x3"
}
layer {
  name: "inception_4c/5x5_reduce"
  type: "Convolution"
  bottom: "inception_4b/output"
  top: "inception_4c/5x5_reduce"
  param {
    lr_mult: 1
    decay_mult: 1
  }
  param {
    lr_mult: 2
    decay_mult: 0
  }
  convolution_param {
    num_output: 24
    kernel_size: 1
    weight_filler {
      type: "xavier"
      std: 0.2
    }
    bias_filler {
      type: "constant"
      value: 0.2
    }
  }
}
layer {
  name: "inception_4c/relu_5x5_reduce"
  type: "ReLU"
  bottom: "inception_4c/5x5_reduce"
  top: "inception_4c/5x5_reduce"
}
layer {
  name: "inception_4c/5x5"
  type: "Convolution"
  bottom: "inception_4c/5x5_reduce"
  top: "inception_4c/5x5"
  param {
    lr_mult: 1
    decay_mult: 1
  }
  param {
    lr_mult: 2
    decay_mult: 0
  }
  convolution_param {
    num_output: 64
    pad: 2
    kernel_size: 5
    weight_filler {
      type: "xavier"
      std: 0.03
    }
    bias_filler {
      type: "constant"
      value: 0.2
    }
  }
}
layer {
  name: "inception_4c/relu_5x5"
  type: "ReLU"
  bottom: "inception_4c/5x5"
  top: "inception_4c/5x5"
}
layer {
  name: "inception_4c/pool"
  type: "Pooling"
  bottom: "inception_4b/output"
  top: "inception_4c/pool"
  pooling_param {
    pool: MAX
    kernel_size: 3
    stride: 1
    pad: 1
  }
}
layer {
  name: "inception_4c/pool_proj"
  type: "Convolution"
  bottom: "inception_4c/pool"
  top: "inception_4c/pool_proj"
  param {
    lr_mult: 1
    decay_mult: 1
  }
  param {
    lr_mult: 2
    decay_mult: 0
  }
  convolution_param {
    num_output: 64
    kernel_size: 1
    weight_filler {
      type: "xavier"
      std: 0.1
    }
    bias_filler {
      type: "constant"
      value: 0.2
    }
  }
}
layer {
  name: "inception_4c/relu_pool_proj"
  type: "ReLU"
  bottom: "inception_4c/pool_proj"
  top: "inception_4c/pool_proj"
}
layer {
  name: "inception_4c/output"
  type: "Concat"
  bottom: "inception_4c/1x1"
  bottom: "inception_4c/3x3"
  bottom: "inception_4c/5x5"
  bottom: "inception_4c/pool_proj"
  top: "inception_4c/output"
}
layer {
  name: "inception_4d/1x1"
  type: "Convolution"
  bottom: "inception_4c/output"
  top: "inception_4d/1x1"
  param {
    lr_mult: 1
    decay_mult: 1
  }
  param {
    lr_mult: 2
    decay_mult: 0
  }
  convolution_param {
    num_output: 112
    kernel_size: 1
    weight_filler {
      type: "xavier"
      std: 0.03
    }
    bias_filler {
      type: "constant"
      value: 0.2
    }
  }
}
layer {
  name: "inception_4d/relu_1x1"
  type: "ReLU"
  bottom: "inception_4d/1x1"
  top: "inception_4d/1x1"
}
layer {
  name: "inception_4d/3x3_reduce"
  type: "Convolution"
  bottom: "inception_4c/output"
  top: "inception_4d/3x3_reduce"
  param {
    lr_mult: 1
    decay_mult: 1
  }
  param {
    lr_mult: 2
    decay_mult: 0
  }
  convolution_param {
    num_output: 144
    kernel_size: 1
    weight_filler {
      type: "xavier"
      std: 0.09
    }
    bias_filler {
      type: "constant"
      value: 0.2
    }
  }
}
layer {
  name: "inception_4d/relu_3x3_reduce"
  type: "ReLU"
  bottom: "inception_4d/3x3_reduce"
  top: "inception_4d/3x3_reduce"
}
layer {
  name: "inception_4d/3x3"
  type: "Convolution"
  bottom: "inception_4d/3x3_reduce"
  top: "inception_4d/3x3"
  param {
    lr_mult: 1
    decay_mult: 1
  }
  param {
    lr_mult: 2
    decay_mult: 0
  }
  convolution_param {
    num_output: 288
    pad: 1
    kernel_size: 3
    weight_filler {
      type: "xavier"
      std: 0.03
    }
    bias_filler {
      type: "constant"
      value: 0.2
    }
  }
}
layer {
  name: "inception_4d/relu_3x3"
  type: "ReLU"
  bottom: "inception_4d/3x3"
  top: "inception_4d/3x3"
}
layer {
  name: "inception_4d/5x5_reduce"
  type: "Convolution"
  bottom: "inception_4c/output"
  top: "inception_4d/5x5_reduce"
  param {
    lr_mult: 1
    decay_mult: 1
  }
  param {
    lr_mult: 2
    decay_mult: 0
  }
  convolution_param {
    num_output: 32
    kernel_size: 1
    weight_filler {
      type: "xavier"
      std: 0.2
    }
    bias_filler {
      type: "constant"
      value: 0.2
    }
  }
}
layer {
  name: "inception_4d/relu_5x5_reduce"
  type: "ReLU"
  bottom: "inception_4d/5x5_reduce"
  top: "inception_4d/5x5_reduce"
}
layer {
  name: "inception_4d/5x5"
  type: "Convolution"
  bottom: "inception_4d/5x5_reduce"
  top: "inception_4d/5x5"
  param {
    lr_mult: 1
    decay_mult: 1
  }
  param {
    lr_mult: 2
    decay_mult: 0
  }
  convolution_param {
    num_output: 64
    pad: 2
    kernel_size: 5
    weight_filler {
      type: "xavier"
      std: 0.03
    }
    bias_filler {
      type: "constant"
      value: 0.2
    }
  }
}
layer {
  name: "inception_4d/relu_5x5"
  type: "ReLU"
  bottom: "inception_4d/5x5"
  top: "inception_4d/5x5"
}
layer {
  name: "inception_4d/pool"
  type: "Pooling"
  bottom: "inception_4c/output"
  top: "inception_4d/pool"
  pooling_param {
    pool: MAX
    kernel_size: 3
    stride: 1
    pad: 1
  }
}
layer {
  name: "inception_4d/pool_proj"
  type: "Convolution"
  bottom: "inception_4d/pool"
  top: "inception_4d/pool_proj"
  param {
    lr_mult: 1
    decay_mult: 1
  }
  param {
    lr_mult: 2
    decay_mult: 0
  }
  convolution_param {
    num_output: 64
    kernel_size: 1
    weight_filler {
      type: "xavier"
      std: 0.1
    }
    bias_filler {
      type: "constant"
      value: 0.2
    }
  }
}
layer {
  name: "inception_4d/relu_pool_proj"
  type: "ReLU"
  bottom: "inception_4d/pool_proj"
  top: "inception_4d/pool_proj"
}
layer {
  name: "inception_4d/output"
  type: "Concat"
  bottom: "inception_4d/1x1"
  bottom: "inception_4d/3x3"
  bottom: "inception_4d/5x5"
  bottom: "inception_4d/pool_proj"
  top: "inception_4d/output"
}
layer {
  name: "loss2/ave_pool"
  type: "Pooling"
  bottom: "inception_4d/output"
  top: "loss2/ave_pool"
  pooling_param {
    pool: AVE
    kernel_size: 5
    stride: 3
  }
}
layer {
  name: "loss2/conv"
  type: "Convolution"
  bottom: "loss2/ave_pool"
  top: "loss2/conv"
  param {
    lr_mult: 1
    decay_mult: 1
  }
  param {
    lr_mult: 2
    decay_mult: 0
  }
  convolution_param {
    num_output: 128
    kernel_size: 1
    weight_filler {
      type: "xavier"
      std: 0.08
    }
    bias_filler {
      type: "constant"
      value: 0.2
    }
  }
}
layer {
  name: "loss2/relu_conv"
  type: "ReLU"
  bottom: "loss2/conv"
  top: "loss2/conv"
}
layer {
  name: "loss2/fc"
  type: "InnerProduct"
  bottom: "loss2/conv"
  top: "loss2/fc"
  param {
    lr_mult: 1
    decay_mult: 1
  }
  param {
    lr_mult: 2
    decay_mult: 0
  }
  inner_product_param {
    num_output: 1024
    weight_filler {
      type: "xavier"
      std: 0.02
    }
    bias_filler {
      type: "constant"
      value: 0.2
    }
  }
}
layer {
  name: "loss2/relu_fc"
  type: "ReLU"
  bottom: "loss2/fc"
  top: "loss2/fc"
}
layer {
  name: "loss2/drop_fc"
  type: "Dropout"
  bottom: "loss2/fc"
  top: "loss2/fc"
  dropout_param {
    dropout_ratio: 0.7
  }
}
layer {
  name: "loss2/classifier_plantvillage"
  type: "InnerProduct"
  bottom: "loss2/fc"
  top: "loss2/classifier_plantvillage"
  param {
    lr_mult: 1
    decay_mult: 1
  }
  param {
    lr_mult: 2
    decay_mult: 0
  }
  inner_product_param {
    num_output: 38
    weight_filler {
      type: "xavier"
      std: 0.0009765625
    }
    bias_filler {
      type: "constant"
      value: 0
    }
  }
}
layer {
  name: "inception_4e/1x1"
  type: "Convolution"
  bottom: "inception_4d/output"
  top: "inception_4e/1x1"
  param {
    lr_mult: 1
    decay_mult: 1
  }
  param {
    lr_mult: 2
    decay_mult: 0
  }
  convolution_param {
    num_output: 256
    kernel_size: 1
    weight_filler {
      type: "xavier"
      std: 0.03
    }
    bias_filler {
      type: "constant"
      value: 0.2
    }
  }
}
layer {
  name: "inception_4e/relu_1x1"
  type: "ReLU"
  bottom: "inception_4e/1x1"
  top: "inception_4e/1x1"
}
layer {
  name: "inception_4e/3x3_reduce"
  type: "Convolution"
  bottom: "inception_4d/output"
  top: "inception_4e/3x3_reduce"
  param {
    lr_mult: 1
    decay_mult: 1
  }
  param {
    lr_mult: 2
    decay_mult: 0
  }
  convolution_param {
    num_output: 160
    kernel_size: 1
    weight_filler {
      type: "xavier"
      std: 0.09
    }
    bias_filler {
      type: "constant"
      value: 0.2
    }
  }
}
layer {
  name: "inception_4e/relu_3x3_reduce"
  type: "ReLU"
  bottom: "inception_4e/3x3_reduce"
  top: "inception_4e/3x3_reduce"
}
layer {
  name: "inception_4e/3x3"
  type: "Convolution"
  bottom: "inception_4e/3x3_reduce"
  top: "inception_4e/3x3"
  param {
    lr_mult: 1
    decay_mult: 1
  }
  param {
    lr_mult: 2
    decay_mult: 0
  }
  convolution_param {
    num_output: 320
    pad: 1
    kernel_size: 3
    weight_filler {
      type: "xavier"
      std: 0.03
    }
    bias_filler {
      type: "constant"
      value: 0.2
    }
  }
}
layer {
  name: "inception_4e/relu_3x3"
  type: "ReLU"
  bottom: "inception_4e/3x3"
  top: "inception_4e/3x3"
}
layer {
  name: "inception_4e/5x5_reduce"
  type: "Convolution"
  bottom: "inception_4d/output"
  top: "inception_4e/5x5_reduce"
  param {
    lr_mult: 1
    decay_mult: 1
  }
  param {
    lr_mult: 2
    decay_mult: 0
  }
  convolution_param {
    num_output: 32
    kernel_size: 1
    weight_filler {
      type: "xavier"
      std: 0.2
    }
    bias_filler {
      type: "constant"
      value: 0.2
    }
  }
}
layer {
  name: "inception_4e/relu_5x5_reduce"
  type: "ReLU"
  bottom: "inception_4e/5x5_reduce"
  top: "inception_4e/5x5_reduce"
}
layer {
  name: "inception_4e/5x5"
  type: "Convolution"
  bottom: "inception_4e/5x5_reduce"
  top: "inception_4e/5x5"
  p
I0403 16:20:48.271711 20975 layer_factory.hpp:77] Creating layer data
I0403 16:20:48.272333 20975 net.cpp:91] Creating Layer data
I0403 16:20:48.272367 20975 net.cpp:399] data -> data
I0403 16:20:48.272416 20975 net.cpp:399] data -> label
I0403 16:20:48.272452 20975 data_transformer.cpp:25] Loading mean file from: /home/mohanty/data/final_dataset/lmdb/color-40-60/mean.binaryproto
I0403 16:20:48.273619 20978 db_lmdb.cpp:38] Opened lmdb /home/mohanty/data/final_dataset/lmdb/color-40-60/test_db
I0403 16:20:48.285945 20975 data_layer.cpp:41] output data size: 24,3,224,224
I0403 16:20:48.316790 20975 net.cpp:141] Setting up data
I0403 16:20:48.316896 20975 net.cpp:148] Top shape: 24 3 224 224 (3612672)
I0403 16:20:48.316918 20975 net.cpp:148] Top shape: 24 (24)
I0403 16:20:48.316934 20975 net.cpp:156] Memory required for data: 14450784
I0403 16:20:48.316967 20975 layer_factory.hpp:77] Creating layer label_data_1_split
I0403 16:20:48.316995 20975 net.cpp:91] Creating Layer label_data_1_split
I0403 16:20:48.317013 20975 net.cpp:425] label_data_1_split <- label
I0403 16:20:48.317045 20975 net.cpp:399] label_data_1_split -> label_data_1_split_0
I0403 16:20:48.317075 20975 net.cpp:399] label_data_1_split -> label_data_1_split_1
I0403 16:20:48.317095 20975 net.cpp:399] label_data_1_split -> label_data_1_split_2
I0403 16:20:48.317116 20975 net.cpp:399] label_data_1_split -> label_data_1_split_3
I0403 16:20:48.317134 20975 net.cpp:399] label_data_1_split -> label_data_1_split_4
I0403 16:20:48.317154 20975 net.cpp:399] label_data_1_split -> label_data_1_split_5
I0403 16:20:48.317173 20975 net.cpp:399] label_data_1_split -> label_data_1_split_6
I0403 16:20:48.317194 20975 net.cpp:399] label_data_1_split -> label_data_1_split_7
I0403 16:20:48.317214 20975 net.cpp:399] label_data_1_split -> label_data_1_split_8
I0403 16:20:48.317234 20975 net.cpp:399] label_data_1_split -> label_data_1_split_9
I0403 16:20:48.317358 20975 net.cpp:141] Setting up label_data_1_split
I0403 16:20:48.317383 20975 net.cpp:148] Top shape: 24 (24)
I0403 16:20:48.317399 20975 net.cpp:148] Top shape: 24 (24)
I0403 16:20:48.317414 20975 net.cpp:148] Top shape: 24 (24)
I0403 16:20:48.317430 20975 net.cpp:148] Top shape: 24 (24)
I0403 16:20:48.317445 20975 net.cpp:148] Top shape: 24 (24)
I0403 16:20:48.317461 20975 net.cpp:148] Top shape: 24 (24)
I0403 16:20:48.317476 20975 net.cpp:148] Top shape: 24 (24)
I0403 16:20:48.317490 20975 net.cpp:148] Top shape: 24 (24)
I0403 16:20:48.317505 20975 net.cpp:148] Top shape: 24 (24)
I0403 16:20:48.317522 20975 net.cpp:148] Top shape: 24 (24)
I0403 16:20:48.317566 20975 net.cpp:156] Memory required for data: 14451744
I0403 16:20:48.317584 20975 layer_factory.hpp:77] Creating layer conv1/7x7_s2
I0403 16:20:48.317615 20975 net.cpp:91] Creating Layer conv1/7x7_s2
I0403 16:20:48.317633 20975 net.cpp:425] conv1/7x7_s2 <- data
I0403 16:20:48.317653 20975 net.cpp:399] conv1/7x7_s2 -> conv1/7x7_s2
I0403 16:20:48.460985 20975 net.cpp:141] Setting up conv1/7x7_s2
I0403 16:20:48.461074 20975 net.cpp:148] Top shape: 24 64 112 112 (19267584)
I0403 16:20:48.461092 20975 net.cpp:156] Memory required for data: 91522080
I0403 16:20:48.461123 20975 layer_factory.hpp:77] Creating layer conv1/relu_7x7
I0403 16:20:48.461151 20975 net.cpp:91] Creating Layer conv1/relu_7x7
I0403 16:20:48.461170 20975 net.cpp:425] conv1/relu_7x7 <- conv1/7x7_s2
I0403 16:20:48.461189 20975 net.cpp:386] conv1/relu_7x7 -> conv1/7x7_s2 (in-place)
I0403 16:20:48.461483 20975 net.cpp:141] Setting up conv1/relu_7x7
I0403 16:20:48.461510 20975 net.cpp:148] Top shape: 24 64 112 112 (19267584)
I0403 16:20:48.461527 20975 net.cpp:156] Memory required for data: 168592416
I0403 16:20:48.461544 20975 layer_factory.hpp:77] Creating layer pool1/3x3_s2
I0403 16:20:48.461568 20975 net.cpp:91] Creating Layer pool1/3x3_s2
I0403 16:20:48.461586 20975 net.cpp:425] pool1/3x3_s2 <- conv1/7x7_s2
I0403 16:20:48.461604 20975 net.cpp:399] pool1/3x3_s2 -> pool1/3x3_s2
I0403 16:20:48.461681 20975 net.cpp:141] Setting up pool1/3x3_s2
I0403 16:20:48.461706 20975 net.cpp:148] Top shape: 24 64 56 56 (4816896)
I0403 16:20:48.461722 20975 net.cpp:156] Memory required for data: 187860000
I0403 16:20:48.461737 20975 layer_factory.hpp:77] Creating layer pool1/norm1
I0403 16:20:48.461761 20975 net.cpp:91] Creating Layer pool1/norm1
I0403 16:20:48.461781 20975 net.cpp:425] pool1/norm1 <- pool1/3x3_s2
I0403 16:20:48.461799 20975 net.cpp:399] pool1/norm1 -> pool1/norm1
I0403 16:20:48.462106 20975 net.cpp:141] Setting up pool1/norm1
I0403 16:20:48.462134 20975 net.cpp:148] Top shape: 24 64 56 56 (4816896)
I0403 16:20:48.462151 20975 net.cpp:156] Memory required for data: 207127584
I0403 16:20:48.462165 20975 layer_factory.hpp:77] Creating layer conv2/3x3_reduce
I0403 16:20:48.462190 20975 net.cpp:91] Creating Layer conv2/3x3_reduce
I0403 16:20:48.462208 20975 net.cpp:425] conv2/3x3_reduce <- pool1/norm1
I0403 16:20:48.462227 20975 net.cpp:399] conv2/3x3_reduce -> conv2/3x3_reduce
I0403 16:20:48.463654 20975 net.cpp:141] Setting up conv2/3x3_reduce
I0403 16:20:48.463685 20975 net.cpp:148] Top shape: 24 64 56 56 (4816896)
I0403 16:20:48.463701 20975 net.cpp:156] Memory required for data: 226395168
I0403 16:20:48.463722 20975 layer_factory.hpp:77] Creating layer conv2/relu_3x3_reduce
I0403 16:20:48.463742 20975 net.cpp:91] Creating Layer conv2/relu_3x3_reduce
I0403 16:20:48.463757 20975 net.cpp:425] conv2/relu_3x3_reduce <- conv2/3x3_reduce
I0403 16:20:48.463775 20975 net.cpp:386] conv2/relu_3x3_reduce -> conv2/3x3_reduce (in-place)
I0403 16:20:48.464058 20975 net.cpp:141] Setting up conv2/relu_3x3_reduce
I0403 16:20:48.464087 20975 net.cpp:148] Top shape: 24 64 56 56 (4816896)
I0403 16:20:48.464102 20975 net.cpp:156] Memory required for data: 245662752
I0403 16:20:48.464117 20975 layer_factory.hpp:77] Creating layer conv2/3x3
I0403 16:20:48.464141 20975 net.cpp:91] Creating Layer conv2/3x3
I0403 16:20:48.464160 20975 net.cpp:425] conv2/3x3 <- conv2/3x3_reduce
I0403 16:20:48.464182 20975 net.cpp:399] conv2/3x3 -> conv2/3x3
I0403 16:20:48.466622 20975 net.cpp:141] Setting up conv2/3x3
I0403 16:20:48.466655 20975 net.cpp:148] Top shape: 24 192 56 56 (14450688)
I0403 16:20:48.466671 20975 net.cpp:156] Memory required for data: 303465504
I0403 16:20:48.466693 20975 layer_factory.hpp:77] Creating layer conv2/relu_3x3
I0403 16:20:48.466716 20975 net.cpp:91] Creating Layer conv2/relu_3x3
I0403 16:20:48.466732 20975 net.cpp:425] conv2/relu_3x3 <- conv2/3x3
I0403 16:20:48.466750 20975 net.cpp:386] conv2/relu_3x3 -> conv2/3x3 (in-place)
I0403 16:20:48.467147 20975 net.cpp:141] Setting up conv2/relu_3x3
I0403 16:20:48.467178 20975 net.cpp:148] Top shape: 24 192 56 56 (14450688)
I0403 16:20:48.467227 20975 net.cpp:156] Memory required for data: 361268256
I0403 16:20:48.467244 20975 layer_factory.hpp:77] Creating layer conv2/norm2
I0403 16:20:48.467264 20975 net.cpp:91] Creating Layer conv2/norm2
I0403 16:20:48.467280 20975 net.cpp:425] conv2/norm2 <- conv2/3x3
I0403 16:20:48.467301 20975 net.cpp:399] conv2/norm2 -> conv2/norm2
I0403 16:20:48.467622 20975 net.cpp:141] Setting up conv2/norm2
I0403 16:20:48.467650 20975 net.cpp:148] Top shape: 24 192 56 56 (14450688)
I0403 16:20:48.467665 20975 net.cpp:156] Memory required for data: 419071008
I0403 16:20:48.467681 20975 layer_factory.hpp:77] Creating layer pool2/3x3_s2
I0403 16:20:48.467700 20975 net.cpp:91] Creating Layer pool2/3x3_s2
I0403 16:20:48.467716 20975 net.cpp:425] pool2/3x3_s2 <- conv2/norm2
I0403 16:20:48.467737 20975 net.cpp:399] pool2/3x3_s2 -> pool2/3x3_s2
I0403 16:20:48.467793 20975 net.cpp:141] Setting up pool2/3x3_s2
I0403 16:20:48.467816 20975 net.cpp:148] Top shape: 24 192 28 28 (3612672)
I0403 16:20:48.467831 20975 net.cpp:156] Memory required for data: 433521696
I0403 16:20:48.467846 20975 layer_factory.hpp:77] Creating layer pool2/3x3_s2_pool2/3x3_s2_0_split
I0403 16:20:48.467869 20975 net.cpp:91] Creating Layer pool2/3x3_s2_pool2/3x3_s2_0_split
I0403 16:20:48.467885 20975 net.cpp:425] pool2/3x3_s2_pool2/3x3_s2_0_split <- pool2/3x3_s2
I0403 16:20:48.467902 20975 net.cpp:399] pool2/3x3_s2_pool2/3x3_s2_0_split -> pool2/3x3_s2_pool2/3x3_s2_0_split_0
I0403 16:20:48.467928 20975 net.cpp:399] pool2/3x3_s2_pool2/3x3_s2_0_split -> pool2/3x3_s2_pool2/3x3_s2_0_split_1
I0403 16:20:48.467950 20975 net.cpp:399] pool2/3x3_s2_pool2/3x3_s2_0_split -> pool2/3x3_s2_pool2/3x3_s2_0_split_2
I0403 16:20:48.467977 20975 net.cpp:399] pool2/3x3_s2_pool2/3x3_s2_0_split -> pool2/3x3_s2_pool2/3x3_s2_0_split_3
I0403 16:20:48.468050 20975 net.cpp:141] Setting up pool2/3x3_s2_pool2/3x3_s2_0_split
I0403 16:20:48.468073 20975 net.cpp:148] Top shape: 24 192 28 28 (3612672)
I0403 16:20:48.468089 20975 net.cpp:148] Top shape: 24 192 28 28 (3612672)
I0403 16:20:48.468106 20975 net.cpp:148] Top shape: 24 192 28 28 (3612672)
I0403 16:20:48.468122 20975 net.cpp:148] Top shape: 24 192 28 28 (3612672)
I0403 16:20:48.468135 20975 net.cpp:156] Memory required for data: 491324448
I0403 16:20:48.468150 20975 layer_factory.hpp:77] Creating layer inception_3a/1x1
I0403 16:20:48.468173 20975 net.cpp:91] Creating Layer inception_3a/1x1
I0403 16:20:48.468191 20975 net.cpp:425] inception_3a/1x1 <- pool2/3x3_s2_pool2/3x3_s2_0_split_0
I0403 16:20:48.468214 20975 net.cpp:399] inception_3a/1x1 -> inception_3a/1x1
I0403 16:20:48.469841 20975 net.cpp:141] Setting up inception_3a/1x1
I0403 16:20:48.469871 20975 net.cpp:148] Top shape: 24 64 28 28 (1204224)
I0403 16:20:48.469888 20975 net.cpp:156] Memory required for data: 496141344
I0403 16:20:48.469907 20975 layer_factory.hpp:77] Creating layer inception_3a/relu_1x1
I0403 16:20:48.469928 20975 net.cpp:91] Creating Layer inception_3a/relu_1x1
I0403 16:20:48.469959 20975 net.cpp:425] inception_3a/relu_1x1 <- inception_3a/1x1
I0403 16:20:48.469979 20975 net.cpp:386] inception_3a/relu_1x1 -> inception_3a/1x1 (in-place)
I0403 16:20:48.470162 20975 net.cpp:141] Setting up inception_3a/relu_1x1
I0403 16:20:48.470188 20975 net.cpp:148] Top shape: 24 64 28 28 (1204224)
I0403 16:20:48.470204 20975 net.cpp:156] Memory required for data: 500958240
I0403 16:20:48.470219 20975 layer_factory.hpp:77] Creating layer inception_3a/3x3_reduce
I0403 16:20:48.470242 20975 net.cpp:91] Creating Layer inception_3a/3x3_reduce
I0403 16:20:48.470263 20975 net.cpp:425] inception_3a/3x3_reduce <- pool2/3x3_s2_pool2/3x3_s2_0_split_1
I0403 16:20:48.470281 20975 net.cpp:399] inception_3a/3x3_reduce -> inception_3a/3x3_reduce
I0403 16:20:48.472097 20975 net.cpp:141] Setting up inception_3a/3x3_reduce
I0403 16:20:48.472127 20975 net.cpp:148] Top shape: 24 96 28 28 (1806336)
I0403 16:20:48.472143 20975 net.cpp:156] Memory required for data: 508183584
I0403 16:20:48.472164 20975 layer_factory.hpp:77] Creating layer inception_3a/relu_3x3_reduce
I0403 16:20:48.472203 20975 net.cpp:91] Creating Layer inception_3a/relu_3x3_reduce
I0403 16:20:48.472223 20975 net.cpp:425] inception_3a/relu_3x3_reduce <- inception_3a/3x3_reduce
I0403 16:20:48.472240 20975 net.cpp:386] inception_3a/relu_3x3_reduce -> inception_3a/3x3_reduce (in-place)
I0403 16:20:48.472439 20975 net.cpp:141] Setting up inception_3a/relu_3x3_reduce
I0403 16:20:48.472465 20975 net.cpp:148] Top shape: 24 96 28 28 (1806336)
I0403 16:20:48.472481 20975 net.cpp:156] Memory required for data: 515408928
I0403 16:20:48.472496 20975 layer_factory.hpp:77] Creating layer inception_3a/3x3
I0403 16:20:48.472518 20975 net.cpp:91] Creating Layer inception_3a/3x3
I0403 16:20:48.472537 20975 net.cpp:425] inception_3a/3x3 <- inception_3a/3x3_reduce
I0403 16:20:48.472558 20975 net.cpp:399] inception_3a/3x3 -> inception_3a/3x3
I0403 16:20:48.474253 20975 net.cpp:141] Setting up inception_3a/3x3
I0403 16:20:48.474282 20975 net.cpp:148] Top shape: 24 128 28 28 (2408448)
I0403 16:20:48.474298 20975 net.cpp:156] Memory required for data: 525042720
I0403 16:20:48.474315 20975 layer_factory.hpp:77] Creating layer inception_3a/relu_3x3
I0403 16:20:48.474336 20975 net.cpp:91] Creating Layer inception_3a/relu_3x3
I0403 16:20:48.474354 20975 net.cpp:425] inception_3a/relu_3x3 <- inception_3a/3x3
I0403 16:20:48.474370 20975 net.cpp:386] inception_3a/relu_3x3 -> inception_3a/3x3 (in-place)
I0403 16:20:48.474653 20975 net.cpp:141] Setting up inception_3a/relu_3x3
I0403 16:20:48.474680 20975 net.cpp:148] Top shape: 24 128 28 28 (2408448)
I0403 16:20:48.474696 20975 net.cpp:156] Memory required for data: 534676512
I0403 16:20:48.474710 20975 layer_factory.hpp:77] Creating layer inception_3a/5x5_reduce
I0403 16:20:48.474735 20975 net.cpp:91] Creating Layer inception_3a/5x5_reduce
I0403 16:20:48.474753 20975 net.cpp:425] inception_3a/5x5_reduce <- pool2/3x3_s2_pool2/3x3_s2_0_split_2
I0403 16:20:48.474774 20975 net.cpp:399] inception_3a/5x5_reduce -> inception_3a/5x5_reduce
I0403 16:20:48.475757 20975 net.cpp:141] Setting up inception_3a/5x5_reduce
I0403 16:20:48.475786 20975 net.cpp:148] Top shape: 24 16 28 28 (301056)
I0403 16:20:48.475802 20975 net.cpp:156] Memory required for data: 535880736
I0403 16:20:48.475821 20975 layer_factory.hpp:77] Creating layer inception_3a/relu_5x5_reduce
I0403 16:20:48.475841 20975 net.cpp:91] Creating Layer inception_3a/relu_5x5_reduce
I0403 16:20:48.475859 20975 net.cpp:425] inception_3a/relu_5x5_reduce <- inception_3a/5x5_reduce
I0403 16:20:48.475877 20975 net.cpp:386] inception_3a/relu_5x5_reduce -> inception_3a/5x5_reduce (in-place)
I0403 16:20:48.476184 20975 net.cpp:141] Setting up inception_3a/relu_5x5_reduce
I0403 16:20:48.476213 20975 net.cpp:148] Top shape: 24 16 28 28 (301056)
I0403 16:20:48.476229 20975 net.cpp:156] Memory required for data: 537084960
I0403 16:20:48.476244 20975 layer_factory.hpp:77] Creating layer inception_3a/5x5
I0403 16:20:48.476266 20975 net.cpp:91] Creating Layer inception_3a/5x5
I0403 16:20:48.476284 20975 net.cpp:425] inception_3a/5x5 <- inception_3a/5x5_reduce
I0403 16:20:48.476303 20975 net.cpp:399] inception_3a/5x5 -> inception_3a/5x5
I0403 16:20:48.477342 20975 net.cpp:141] Setting up inception_3a/5x5
I0403 16:20:48.477371 20975 net.cpp:148] Top shape: 24 32 28 28 (602112)
I0403 16:20:48.477387 20975 net.cpp:156] Memory required for data: 539493408
I0403 16:20:48.477406 20975 layer_factory.hpp:77] Creating layer inception_3a/relu_5x5
I0403 16:20:48.477427 20975 net.cpp:91] Creating Layer inception_3a/relu_5x5
I0403 16:20:48.477444 20975 net.cpp:425] inception_3a/relu_5x5 <- inception_3a/5x5
I0403 16:20:48.477463 20975 net.cpp:386] inception_3a/relu_5x5 -> inception_3a/5x5 (in-place)
I0403 16:20:48.477666 20975 net.cpp:141] Setting up inception_3a/relu_5x5
I0403 16:20:48.477691 20975 net.cpp:148] Top shape: 24 32 28 28 (602112)
I0403 16:20:48.477706 20975 net.cpp:156] Memory required for data: 541901856
I0403 16:20:48.477721 20975 layer_factory.hpp:77] Creating layer inception_3a/pool
I0403 16:20:48.477741 20975 net.cpp:91] Creating Layer inception_3a/pool
I0403 16:20:48.477758 20975 net.cpp:425] inception_3a/pool <- pool2/3x3_s2_pool2/3x3_s2_0_split_3
I0403 16:20:48.477794 20975 net.cpp:399] inception_3a/pool -> inception_3a/pool
I0403 16:20:48.477854 20975 net.cpp:141] Setting up inception_3a/pool
I0403 16:20:48.477879 20975 net.cpp:148] Top shape: 24 192 28 28 (3612672)
I0403 16:20:48.477892 20975 net.cpp:156] Memory required for data: 556352544
I0403 16:20:48.477907 20975 layer_factory.hpp:77] Creating layer inception_3a/pool_proj
I0403 16:20:48.477931 20975 net.cpp:91] Creating Layer inception_3a/pool_proj
I0403 16:20:48.477947 20975 net.cpp:425] inception_3a/pool_proj <- inception_3a/pool
I0403 16:20:48.477975 20975 net.cpp:399] inception_3a/pool_proj -> inception_3a/pool_proj
I0403 16:20:48.478952 20975 net.cpp:141] Setting up inception_3a/pool_proj
I0403 16:20:48.478994 20975 net.cpp:148] Top shape: 24 32 28 28 (602112)
I0403 16:20:48.479012 20975 net.cpp:156] Memory required for data: 558760992
I0403 16:20:48.479032 20975 layer_factory.hpp:77] Creating layer inception_3a/relu_pool_proj
I0403 16:20:48.479079 20975 net.cpp:91] Creating Layer inception_3a/relu_pool_proj
I0403 16:20:48.479095 20975 net.cpp:425] inception_3a/relu_pool_proj <- inception_3a/pool_proj
I0403 16:20:48.479113 20975 net.cpp:386] inception_3a/relu_pool_proj -> inception_3a/pool_proj (in-place)
I0403 16:20:48.479413 20975 net.cpp:141] Setting up inception_3a/relu_pool_proj
I0403 16:20:48.479441 20975 net.cpp:148] Top shape: 24 32 28 28 (602112)
I0403 16:20:48.479457 20975 net.cpp:156] Memory required for data: 561169440
I0403 16:20:48.479471 20975 layer_factory.hpp:77] Creating layer inception_3a/output
I0403 16:20:48.479492 20975 net.cpp:91] Creating Layer inception_3a/output
I0403 16:20:48.479508 20975 net.cpp:425] inception_3a/output <- inception_3a/1x1
I0403 16:20:48.479526 20975 net.cpp:425] inception_3a/output <- inception_3a/3x3
I0403 16:20:48.479542 20975 net.cpp:425] inception_3a/output <- inception_3a/5x5
I0403 16:20:48.479557 20975 net.cpp:425] inception_3a/output <- inception_3a/pool_proj
I0403 16:20:48.479573 20975 net.cpp:399] inception_3a/output -> inception_3a/output
I0403 16:20:48.479624 20975 net.cpp:141] Setting up inception_3a/output
I0403 16:20:48.479646 20975 net.cpp:148] Top shape: 24 256 28 28 (4816896)
I0403 16:20:48.479660 20975 net.cpp:156] Memory required for data: 580437024
I0403 16:20:48.479674 20975 layer_factory.hpp:77] Creating layer inception_3a/output_inception_3a/output_0_split
I0403 16:20:48.479691 20975 net.cpp:91] Creating Layer inception_3a/output_inception_3a/output_0_split
I0403 16:20:48.479707 20975 net.cpp:425] inception_3a/output_inception_3a/output_0_split <- inception_3a/output
I0403 16:20:48.479727 20975 net.cpp:399] inception_3a/output_inception_3a/output_0_split -> inception_3a/output_inception_3a/output_0_split_0
I0403 16:20:48.479748 20975 net.cpp:399] inception_3a/output_inception_3a/output_0_split -> inception_3a/output_inception_3a/output_0_split_1
I0403 16:20:48.479770 20975 net.cpp:399] inception_3a/output_inception_3a/output_0_split -> inception_3a/output_inception_3a/output_0_split_2
I0403 16:20:48.479790 20975 net.cpp:399] inception_3a/output_inception_3a/output_0_split -> inception_3a/output_inception_3a/output_0_split_3
I0403 16:20:48.479866 20975 net.cpp:141] Setting up inception_3a/output_inception_3a/output_0_split
I0403 16:20:48.479889 20975 net.cpp:148] Top shape: 24 256 28 28 (4816896)
I0403 16:20:48.479907 20975 net.cpp:148] Top shape: 24 256 28 28 (4816896)
I0403 16:20:48.479921 20975 net.cpp:148] Top shape: 24 256 28 28 (4816896)
I0403 16:20:48.479938 20975 net.cpp:148] Top shape: 24 256 28 28 (4816896)
I0403 16:20:48.479950 20975 net.cpp:156] Memory required for data: 657507360
I0403 16:20:48.479970 20975 layer_factory.hpp:77] Creating layer inception_3b/1x1
I0403 16:20:48.479993 20975 net.cpp:91] Creating Layer inception_3b/1x1
I0403 16:20:48.480010 20975 net.cpp:425] inception_3b/1x1 <- inception_3a/output_inception_3a/output_0_split_0
I0403 16:20:48.480032 20975 net.cpp:399] inception_3b/1x1 -> inception_3b/1x1
I0403 16:20:48.481201 20975 net.cpp:141] Setting up inception_3b/1x1
I0403 16:20:48.481241 20975 net.cpp:148] Top shape: 24 128 28 28 (2408448)
I0403 16:20:48.481257 20975 net.cpp:156] Memory required for data: 667141152
I0403 16:20:48.481276 20975 layer_factory.hpp:77] Creating layer inception_3b/relu_1x1
I0403 16:20:48.481294 20975 net.cpp:91] Creating Layer inception_3b/relu_1x1
I0403 16:20:48.481310 20975 net.cpp:425] inception_3b/relu_1x1 <- inception_3b/1x1
I0403 16:20:48.481330 20975 net.cpp:386] inception_3b/relu_1x1 -> inception_3b/1x1 (in-place)
I0403 16:20:48.481510 20975 net.cpp:141] Setting up inception_3b/relu_1x1
I0403 16:20:48.481536 20975 net.cpp:148] Top shape: 24 128 28 28 (2408448)
I0403 16:20:48.481550 20975 net.cpp:156] Memory required for data: 676774944
I0403 16:20:48.481565 20975 layer_factory.hpp:77] Creating layer inception_3b/3x3_reduce
I0403 16:20:48.481587 20975 net.cpp:91] Creating Layer inception_3b/3x3_reduce
I0403 16:20:48.481606 20975 net.cpp:425] inception_3b/3x3_reduce <- inception_3a/output_inception_3a/output_0_split_1
I0403 16:20:48.481626 20975 net.cpp:399] inception_3b/3x3_reduce -> inception_3b/3x3_reduce
I0403 16:20:48.482813 20975 net.cpp:141] Setting up inception_3b/3x3_reduce
I0403 16:20:48.482842 20975 net.cpp:148] Top shape: 24 128 28 28 (2408448)
I0403 16:20:48.482859 20975 net.cpp:156] Memory required for data: 686408736
I0403 16:20:48.482877 20975 layer_factory.hpp:77] Creating layer inception_3b/relu_3x3_reduce
I0403 16:20:48.482897 20975 net.cpp:91] Creating Layer inception_3b/relu_3x3_reduce
I0403 16:20:48.482914 20975 net.cpp:425] inception_3b/relu_3x3_reduce <- inception_3b/3x3_reduce
I0403 16:20:48.482946 20975 net.cpp:386] inception_3b/relu_3x3_reduce -> inception_3b/3x3_reduce (in-place)
I0403 16:20:48.483127 20975 net.cpp:141] Setting up inception_3b/relu_3x3_reduce
I0403 16:20:48.483152 20975 net.cpp:148] Top shape: 24 128 28 28 (2408448)
I0403 16:20:48.483166 20975 net.cpp:156] Memory required for data: 696042528
I0403 16:20:48.483181 20975 layer_factory.hpp:77] Creating layer inception_3b/3x3
I0403 16:20:48.483207 20975 net.cpp:91] Creating Layer inception_3b/3x3
I0403 16:20:48.483227 20975 net.cpp:425] inception_3b/3x3 <- inception_3b/3x3_reduce
I0403 16:20:48.483245 20975 net.cpp:399] inception_3b/3x3 -> inception_3b/3x3
I0403 16:20:48.486219 20975 net.cpp:141] Setting up inception_3b/3x3
I0403 16:20:48.486248 20975 net.cpp:148] Top shape: 24 192 28 28 (3612672)
I0403 16:20:48.486264 20975 net.cpp:156] Memory required for data: 710493216
I0403 16:20:48.486282 20975 layer_factory.hpp:77] Creating layer inception_3b/relu_3x3
I0403 16:20:48.486306 20975 net.cpp:91] Creating Layer inception_3b/relu_3x3
I0403 16:20:48.486323 20975 net.cpp:425] inception_3b/relu_3x3 <- inception_3b/3x3
I0403 16:20:48.486340 20975 net.cpp:386] inception_3b/relu_3x3 -> inception_3b/3x3 (in-place)
I0403 16:20:48.486624 20975 net.cpp:141] Setting up inception_3b/relu_3x3
I0403 16:20:48.486650 20975 net.cpp:148] Top shape: 24 192 28 28 (3612672)
I0403 16:20:48.486665 20975 net.cpp:156] Memory required for data: 724943904
I0403 16:20:48.486680 20975 layer_factory.hpp:77] Creating layer inception_3b/5x5_reduce
I0403 16:20:48.486703 20975 net.cpp:91] Creating Layer inception_3b/5x5_reduce
I0403 16:20:48.486721 20975 net.cpp:425] inception_3b/5x5_reduce <- inception_3a/output_inception_3a/output_0_split_2
I0403 16:20:48.486742 20975 net.cpp:399] inception_3b/5x5_reduce -> inception_3b/5x5_reduce
I0403 16:20:48.487776 20975 net.cpp:141] Setting up inception_3b/5x5_reduce
I0403 16:20:48.487804 20975 net.cpp:148] Top shape: 24 32 28 28 (602112)
I0403 16:20:48.487819 20975 net.cpp:156] Memory required for data: 727352352
I0403 16:20:48.487838 20975 layer_factory.hpp:77] Creating layer inception_3b/relu_5x5_reduce
I0403 16:20:48.487859 20975 net.cpp:91] Creating Layer inception_3b/relu_5x5_reduce
I0403 16:20:48.487875 20975 net.cpp:425] inception_3b/relu_5x5_reduce <- inception_3b/5x5_reduce
I0403 16:20:48.487893 20975 net.cpp:386] inception_3b/relu_5x5_reduce -> inception_3b/5x5_reduce (in-place)
I0403 16:20:48.488077 20975 net.cpp:141] Setting up inception_3b/relu_5x5_reduce
I0403 16:20:48.488114 20975 net.cpp:148] Top shape: 24 32 28 28 (602112)
I0403 16:20:48.488131 20975 net.cpp:156] Memory required for data: 729760800
I0403 16:20:48.488144 20975 layer_factory.hpp:77] Creating layer inception_3b/5x5
I0403 16:20:48.488169 20975 net.cpp:91] Creating Layer inception_3b/5x5
I0403 16:20:48.488189 20975 net.cpp:425] inception_3b/5x5 <- inception_3b/5x5_reduce
I0403 16:20:48.488209 20975 net.cpp:399] inception_3b/5x5 -> inception_3b/5x5
I0403 16:20:48.490244 20975 net.cpp:141] Setting up inception_3b/5x5
I0403 16:20:48.490275 20975 net.cpp:148] Top shape: 24 96 28 28 (1806336)
I0403 16:20:48.490291 20975 net.cpp:156] Memory required for data: 736986144
I0403 16:20:48.490310 20975 layer_factory.hpp:77] Creating layer inception_3b/relu_5x5
I0403 16:20:48.490329 20975 net.cpp:91] Creating Layer inception_3b/relu_5x5
I0403 16:20:48.490345 20975 net.cpp:425] inception_3b/relu_5x5 <- inception_3b/5x5
I0403 16:20:48.490365 20975 net.cpp:386] inception_3b/relu_5x5 -> inception_3b/5x5 (in-place)
I0403 16:20:48.490561 20975 net.cpp:141] Setting up inception_3b/relu_5x5
I0403 16:20:48.490586 20975 net.cpp:148] Top shape: 24 96 28 28 (1806336)
I0403 16:20:48.490600 20975 net.cpp:156] Memory required for data: 744211488
I0403 16:20:48.490614 20975 layer_factory.hpp:77] Creating layer inception_3b/pool
I0403 16:20:48.490633 20975 net.cpp:91] Creating Layer inception_3b/pool
I0403 16:20:48.490648 20975 net.cpp:425] inception_3b/pool <- inception_3a/output_inception_3a/output_0_split_3
I0403 16:20:48.490666 20975 net.cpp:399] inception_3b/pool -> inception_3b/pool
I0403 16:20:48.490726 20975 net.cpp:141] Setting up inception_3b/pool
I0403 16:20:48.490749 20975 net.cpp:148] Top shape: 24 256 28 28 (4816896)
I0403 16:20:48.490764 20975 net.cpp:156] Memory required for data: 763479072
I0403 16:20:48.490779 20975 layer_factory.hpp:77] Creating layer inception_3b/pool_proj
I0403 16:20:48.490802 20975 net.cpp:91] Creating Layer inception_3b/pool_proj
I0403 16:20:48.490818 20975 net.cpp:425] inception_3b/pool_proj <- inception_3b/pool
I0403 16:20:48.490839 20975 net.cpp:399] inception_3b/pool_proj -> inception_3b/pool_proj
I0403 16:20:48.491915 20975 net.cpp:141] Setting up inception_3b/pool_proj
I0403 16:20:48.491942 20975 net.cpp:148] Top shape: 24 64 28 28 (1204224)
I0403 16:20:48.491961 20975 net.cpp:156] Memory required for data: 768295968
I0403 16:20:48.491982 20975 layer_factory.hpp:77] Creating layer inception_3b/relu_pool_proj
I0403 16:20:48.492000 20975 net.cpp:91] Creating Layer inception_3b/relu_pool_proj
I0403 16:20:48.492017 20975 net.cpp:425] inception_3b/relu_pool_proj <- inception_3b/pool_proj
I0403 16:20:48.492033 20975 net.cpp:386] inception_3b/relu_pool_proj -> inception_3b/pool_proj (in-place)
I0403 16:20:48.492430 20975 net.cpp:141] Setting up inception_3b/relu_pool_proj
I0403 16:20:48.492457 20975 net.cpp:148] Top shape: 24 64 28 28 (1204224)
I0403 16:20:48.492475 20975 net.cpp:156] Memory required for data: 773112864
I0403 16:20:48.492491 20975 layer_factory.hpp:77] Creating layer inception_3b/output
I0403 16:20:48.492507 20975 net.cpp:91] Creating Layer inception_3b/output
I0403 16:20:48.492522 20975 net.cpp:425] inception_3b/output <- inception_3b/1x1
I0403 16:20:48.492538 20975 net.cpp:425] inception_3b/output <- inception_3b/3x3
I0403 16:20:48.492553 20975 net.cpp:425] inception_3b/output <- inception_3b/5x5
I0403 16:20:48.492569 20975 net.cpp:425] inception_3b/output <- inception_3b/pool_proj
I0403 16:20:48.492585 20975 net.cpp:399] inception_3b/output -> inception_3b/output
I0403 16:20:48.492630 20975 net.cpp:141] Setting up inception_3b/output
I0403 16:20:48.492652 20975 net.cpp:148] Top shape: 24 480 28 28 (9031680)
I0403 16:20:48.492666 20975 net.cpp:156] Memory required for data: 809239584
I0403 16:20:48.492681 20975 layer_factory.hpp:77] Creating layer pool3/3x3_s2
I0403 16:20:48.492699 20975 net.cpp:91] Creating Layer pool3/3x3_s2
I0403 16:20:48.492715 20975 net.cpp:425] pool3/3x3_s2 <- inception_3b/output
I0403 16:20:48.492733 20975 net.cpp:399] pool3/3x3_s2 -> pool3/3x3_s2
I0403 16:20:48.492806 20975 net.cpp:141] Setting up pool3/3x3_s2
I0403 16:20:48.492830 20975 net.cpp:148] Top shape: 24 480 14 14 (2257920)
I0403 16:20:48.492843 20975 net.cpp:156] Memory required for data: 818271264
I0403 16:20:48.492857 20975 layer_factory.hpp:77] Creating layer pool3/3x3_s2_pool3/3x3_s2_0_split
I0403 16:20:48.492874 20975 net.cpp:91] Creating Layer pool3/3x3_s2_pool3/3x3_s2_0_split
I0403 16:20:48.492888 20975 net.cpp:425] pool3/3x3_s2_pool3/3x3_s2_0_split <- pool3/3x3_s2
I0403 16:20:48.492908 20975 net.cpp:399] pool3/3x3_s2_pool3/3x3_s2_0_split -> pool3/3x3_s2_pool3/3x3_s2_0_split_0
I0403 16:20:48.492928 20975 net.cpp:399] pool3/3x3_s2_pool3/3x3_s2_0_split -> pool3/3x3_s2_pool3/3x3_s2_0_split_1
I0403 16:20:48.492946 20975 net.cpp:399] pool3/3x3_s2_pool3/3x3_s2_0_split -> pool3/3x3_s2_pool3/3x3_s2_0_split_2
I0403 16:20:48.492970 20975 net.cpp:399] pool3/3x3_s2_pool3/3x3_s2_0_split -> pool3/3x3_s2_pool3/3x3_s2_0_split_3
I0403 16:20:48.493048 20975 net.cpp:141] Setting up pool3/3x3_s2_pool3/3x3_s2_0_split
I0403 16:20:48.493072 20975 net.cpp:148] Top shape: 24 480 14 14 (2257920)
I0403 16:20:48.493088 20975 net.cpp:148] Top shape: 24 480 14 14 (2257920)
I0403 16:20:48.493103 20975 net.cpp:148] Top shape: 24 480 14 14 (2257920)
I0403 16:20:48.493118 20975 net.cpp:148] Top shape: 24 480 14 14 (2257920)
I0403 16:20:48.493131 20975 net.cpp:156] Memory required for data: 854397984
I0403 16:20:48.493145 20975 layer_factory.hpp:77] Creating layer inception_4a/1x1
I0403 16:20:48.493168 20975 net.cpp:91] Creating Layer inception_4a/1x1
I0403 16:20:48.493185 20975 net.cpp:425] inception_4a/1x1 <- pool3/3x3_s2_pool3/3x3_s2_0_split_0
I0403 16:20:48.493203 20975 net.cpp:399] inception_4a/1x1 -> inception_4a/1x1
I0403 16:20:48.494814 20975 net.cpp:141] Setting up inception_4a/1x1
I0403 16:20:48.494845 20975 net.cpp:148] Top shape: 24 192 14 14 (903168)
I0403 16:20:48.494863 20975 net.cpp:156] Memory required for data: 858010656
I0403 16:20:48.494881 20975 layer_factory.hpp:77] Creating layer inception_4a/relu_1x1
I0403 16:20:48.494900 20975 net.cpp:91] Creating Layer inception_4a/relu_1x1
I0403 16:20:48.494915 20975 net.cpp:425] inception_4a/relu_1x1 <- inception_4a/1x1
I0403 16:20:48.494935 20975 net.cpp:386] inception_4a/relu_1x1 -> inception_4a/1x1 (in-place)
I0403 16:20:48.495118 20975 net.cpp:141] Setting up inception_4a/relu_1x1
I0403 16:20:48.495144 20975 net.cpp:148] Top shape: 24 192 14 14 (903168)
I0403 16:20:48.495158 20975 net.cpp:156] Memory required for data: 861623328
I0403 16:20:48.495173 20975 layer_factory.hpp:77] Creating layer inception_4a/3x3_reduce
I0403 16:20:48.495196 20975 net.cpp:91] Creating Layer inception_4a/3x3_reduce
I0403 16:20:48.495213 20975 net.cpp:425] inception_4a/3x3_reduce <- pool3/3x3_s2_pool3/3x3_s2_0_split_1
I0403 16:20:48.495235 20975 net.cpp:399] inception_4a/3x3_reduce -> inception_4a/3x3_reduce
I0403 16:20:48.496542 20975 net.cpp:141] Setting up inception_4a/3x3_reduce
I0403 16:20:48.496572 20975 net.cpp:148] Top shape: 24 96 14 14 (451584)
I0403 16:20:48.496588 20975 net.cpp:156] Memory required for data: 863429664
I0403 16:20:48.496611 20975 layer_factory.hpp:77] Creating layer inception_4a/relu_3x3_reduce
I0403 16:20:48.496633 20975 net.cpp:91] Creating Layer inception_4a/relu_3x3_reduce
I0403 16:20:48.496649 20975 net.cpp:425] inception_4a/relu_3x3_reduce <- inception_4a/3x3_reduce
I0403 16:20:48.496667 20975 net.cpp:386] inception_4a/relu_3x3_reduce -> inception_4a/3x3_reduce (in-place)
I0403 16:20:48.496853 20975 net.cpp:141] Setting up inception_4a/relu_3x3_reduce
I0403 16:20:48.496878 20975 net.cpp:148] Top shape: 24 96 14 14 (451584)
I0403 16:20:48.496893 20975 net.cpp:156] Memory required for data: 865236000
I0403 16:20:48.496908 20975 layer_factory.hpp:77] Creating layer inception_4a/3x3
I0403 16:20:48.496932 20975 net.cpp:91] Creating Layer inception_4a/3x3
I0403 16:20:48.496949 20975 net.cpp:425] inception_4a/3x3 <- inception_4a/3x3_reduce
I0403 16:20:48.496976 20975 net.cpp:399] inception_4a/3x3 -> inception_4a/3x3
I0403 16:20:48.499802 20975 net.cpp:141] Setting up inception_4a/3x3
I0403 16:20:48.499831 20975 net.cpp:148] Top shape: 24 208 14 14 (978432)
I0403 16:20:48.499847 20975 net.cpp:156] Memory required for data: 869149728
I0403 16:20:48.499866 20975 layer_factory.hpp:77] Creating layer inception_4a/relu_3x3
I0403 16:20:48.499886 20975 net.cpp:91] Creating Layer inception_4a/relu_3x3
I0403 16:20:48.499904 20975 net.cpp:425] inception_4a/relu_3x3 <- inception_4a/3x3
I0403 16:20:48.499922 20975 net.cpp:386] inception_4a/relu_3x3 -> inception_4a/3x3 (in-place)
I0403 16:20:48.500221 20975 net.cpp:141] Setting up inception_4a/relu_3x3
I0403 16:20:48.500248 20975 net.cpp:148] Top shape: 24 208 14 14 (978432)
I0403 16:20:48.500263 20975 net.cpp:156] Memory required for data: 873063456
I0403 16:20:48.500278 20975 layer_factory.hpp:77] Creating layer inception_4a/5x5_reduce
I0403 16:20:48.500303 20975 net.cpp:91] Creating Layer inception_4a/5x5_reduce
I0403 16:20:48.500320 20975 net.cpp:425] inception_4a/5x5_reduce <- pool3/3x3_s2_pool3/3x3_s2_0_split_2
I0403 16:20:48.500342 20975 net.cpp:399] inception_4a/5x5_reduce -> inception_4a/5x5_reduce
I0403 16:20:48.501386 20975 net.cpp:141] Setting up inception_4a/5x5_reduce
I0403 16:20:48.501415 20975 net.cpp:148] Top shape: 24 16 14 14 (75264)
I0403 16:20:48.501430 20975 net.cpp:156] Memory required for data: 873364512
I0403 16:20:48.501448 20975 layer_factory.hpp:77] Creating layer inception_4a/relu_5x5_reduce
I0403 16:20:48.501469 20975 net.cpp:91] Creating Layer inception_4a/relu_5x5_reduce
I0403 16:20:48.501487 20975 net.cpp:425] inception_4a/relu_5x5_reduce <- inception_4a/5x5_reduce
I0403 16:20:48.501503 20975 net.cpp:386] inception_4a/relu_5x5_reduce -> inception_4a/5x5_reduce (in-place)
I0403 16:20:48.501685 20975 net.cpp:141] Setting up inception_4a/relu_5x5_reduce
I0403 16:20:48.501710 20975 net.cpp:148] Top shape: 24 16 14 14 (75264)
I0403 16:20:48.501725 20975 net.cpp:156] Memory required for data: 873665568
I0403 16:20:48.501740 20975 layer_factory.hpp:77] Creating layer inception_4a/5x5
I0403 16:20:48.501765 20975 net.cpp:91] Creating Layer inception_4a/5x5
I0403 16:20:48.501782 20975 net.cpp:425] inception_4a/5x5 <- inception_4a/5x5_reduce
I0403 16:20:48.501801 20975 net.cpp:399] inception_4a/5x5 -> inception_4a/5x5
I0403 16:20:48.502921 20975 net.cpp:141] Setting up inception_4a/5x5
I0403 16:20:48.502951 20975 net.cpp:148] Top shape: 24 48 14 14 (225792)
I0403 16:20:48.502974 20975 net.cpp:156] Memory required for data: 874568736
I0403 16:20:48.502992 20975 layer_factory.hpp:77] Creating layer inception_4a/relu_5x5
I0403 16:20:48.503010 20975 net.cpp:91] Creating Layer inception_4a/relu_5x5
I0403 16:20:48.503027 20975 net.cpp:425] inception_4a/relu_5x5 <- inception_4a/5x5
I0403 16:20:48.503044 20975 net.cpp:386] inception_4a/relu_5x5 -> inception_4a/5x5 (in-place)
I0403 16:20:48.503227 20975 net.cpp:141] Setting up inception_4a/relu_5x5
I0403 16:20:48.503257 20975 net.cpp:148] Top shape: 24 48 14 14 (225792)
I0403 16:20:48.503273 20975 net.cpp:156] Memory required for data: 875471904
I0403 16:20:48.503288 20975 layer_factory.hpp:77] Creating layer inception_4a/pool
I0403 16:20:48.503306 20975 net.cpp:91] Creating Layer inception_4a/pool
I0403 16:20:48.503324 20975 net.cpp:425] inception_4a/pool <- pool3/3x3_s2_pool3/3x3_s2_0_split_3
I0403 16:20:48.503343 20975 net.cpp:399] inception_4a/pool -> inception_4a/pool
I0403 16:20:48.503406 20975 net.cpp:141] Setting up inception_4a/pool
I0403 16:20:48.503434 20975 net.cpp:148] Top shape: 24 480 14 14 (2257920)
I0403 16:20:48.503449 20975 net.cpp:156] Memory required for data: 884503584
I0403 16:20:48.503465 20975 layer_factory.hpp:77] Creating layer inception_4a/pool_proj
I0403 16:20:48.503485 20975 net.cpp:91] Creating Layer inception_4a/pool_proj
I0403 16:20:48.503501 20975 net.cpp:425] inception_4a/pool_proj <- inception_4a/pool
I0403 16:20:48.503522 20975 net.cpp:399] inception_4a/pool_proj -> inception_4a/pool_proj
I0403 16:20:48.504715 20975 net.cpp:141] Setting up inception_4a/pool_proj
I0403 16:20:48.504747 20975 net.cpp:148] Top shape: 24 64 14 14 (301056)
I0403 16:20:48.504777 20975 net.cpp:156] Memory required for data: 885707808
I0403 16:20:48.504797 20975 layer_factory.hpp:77] Creating layer inception_4a/relu_pool_proj
I0403 16:20:48.504815 20975 net.cpp:91] Creating Layer inception_4a/relu_pool_proj
I0403 16:20:48.504832 20975 net.cpp:425] inception_4a/relu_pool_proj <- inception_4a/pool_proj
I0403 16:20:48.504848 20975 net.cpp:386] inception_4a/relu_pool_proj -> inception_4a/pool_proj (in-place)
I0403 16:20:48.505141 20975 net.cpp:141] Setting up inception_4a/relu_pool_proj
I0403 16:20:48.505170 20975 net.cpp:148] Top shape: 24 64 14 14 (301056)
I0403 16:20:48.505187 20975 net.cpp:156] Memory required for data: 886912032
I0403 16:20:48.505203 20975 layer_factory.hpp:77] Creating layer inception_4a/output
I0403 16:20:48.505219 20975 net.cpp:91] Creating Layer inception_4a/output
I0403 16:20:48.505235 20975 net.cpp:425] inception_4a/output <- inception_4a/1x1
I0403 16:20:48.505251 20975 net.cpp:425] inception_4a/output <- inception_4a/3x3
I0403 16:20:48.505269 20975 net.cpp:425] inception_4a/output <- inception_4a/5x5
I0403 16:20:48.505283 20975 net.cpp:425] inception_4a/output <- inception_4a/pool_proj
I0403 16:20:48.505300 20975 net.cpp:399] inception_4a/output -> inception_4a/output
I0403 16:20:48.505347 20975 net.cpp:141] Setting up inception_4a/output
I0403 16:20:48.505369 20975 net.cpp:148] Top shape: 24 512 14 14 (2408448)
I0403 16:20:48.505383 20975 net.cpp:156] Memory required for data: 896545824
I0403 16:20:48.505398 20975 layer_factory.hpp:77] Creating layer inception_4a/output_inception_4a/output_0_split
I0403 16:20:48.505419 20975 net.cpp:91] Creating Layer inception_4a/output_inception_4a/output_0_split
I0403 16:20:48.505434 20975 net.cpp:425] inception_4a/output_inception_4a/output_0_split <- inception_4a/output
I0403 16:20:48.505452 20975 net.cpp:399] inception_4a/output_inception_4a/output_0_split -> inception_4a/output_inception_4a/output_0_split_0
I0403 16:20:48.505472 20975 net.cpp:399] inception_4a/output_inception_4a/output_0_split -> inception_4a/output_inception_4a/output_0_split_1
I0403 16:20:48.505493 20975 net.cpp:399] inception_4a/output_inception_4a/output_0_split -> inception_4a/output_inception_4a/output_0_split_2
I0403 16:20:48.505516 20975 net.cpp:399] inception_4a/output_inception_4a/output_0_split -> inception_4a/output_inception_4a/output_0_split_3
I0403 16:20:48.505537 20975 net.cpp:399] inception_4a/output_inception_4a/output_0_split -> inception_4a/output_inception_4a/output_0_split_4
I0403 16:20:48.505630 20975 net.cpp:141] Setting up inception_4a/output_inception_4a/output_0_split
I0403 16:20:48.505653 20975 net.cpp:148] Top shape: 24 512 14 14 (2408448)
I0403 16:20:48.505669 20975 net.cpp:148] Top shape: 24 512 14 14 (2408448)
I0403 16:20:48.505684 20975 net.cpp:148] Top shape: 24 512 14 14 (2408448)
I0403 16:20:48.505699 20975 net.cpp:148] Top shape: 24 512 14 14 (2408448)
I0403 16:20:48.505714 20975 net.cpp:148] Top shape: 24 512 14 14 (2408448)
I0403 16:20:48.505728 20975 net.cpp:156] Memory required for data: 944714784
I0403 16:20:48.505743 20975 layer_factory.hpp:77] Creating layer loss1/ave_pool
I0403 16:20:48.505764 20975 net.cpp:91] Creating Layer loss1/ave_pool
I0403 16:20:48.505780 20975 net.cpp:425] loss1/ave_pool <- inception_4a/output_inception_4a/output_0_split_0
I0403 16:20:48.505797 20975 net.cpp:399] loss1/ave_pool -> loss1/ave_pool
I0403 16:20:48.506012 20975 net.cpp:141] Setting up loss1/ave_pool
I0403 16:20:48.506041 20975 net.cpp:148] Top shape: 24 512 4 4 (196608)
I0403 16:20:48.506058 20975 net.cpp:156] Memory required for data: 945501216
I0403 16:20:48.506073 20975 layer_factory.hpp:77] Creating layer loss1/conv
I0403 16:20:48.506095 20975 net.cpp:91] Creating Layer loss1/conv
I0403 16:20:48.506114 20975 net.cpp:425] loss1/conv <- loss1/ave_pool
I0403 16:20:48.506132 20975 net.cpp:399] loss1/conv -> loss1/conv
I0403 16:20:48.507578 20975 net.cpp:141] Setting up loss1/conv
I0403 16:20:48.507606 20975 net.cpp:148] Top shape: 24 128 4 4 (49152)
I0403 16:20:48.507622 20975 net.cpp:156] Memory required for data: 945697824
I0403 16:20:48.507655 20975 layer_factory.hpp:77] Creating layer loss1/relu_conv
I0403 16:20:48.507676 20975 net.cpp:91] Creating Layer loss1/relu_conv
I0403 16:20:48.507694 20975 net.cpp:425] loss1/relu_conv <- loss1/conv
I0403 16:20:48.507710 20975 net.cpp:386] loss1/relu_conv -> loss1/conv (in-place)
I0403 16:20:48.508004 20975 net.cpp:141] Setting up loss1/relu_conv
I0403 16:20:48.508031 20975 net.cpp:148] Top shape: 24 128 4 4 (49152)
I0403 16:20:48.508046 20975 net.cpp:156] Memory required for data: 945894432
I0403 16:20:48.508061 20975 layer_factory.hpp:77] Creating layer loss1/fc
I0403 16:20:48.508087 20975 net.cpp:91] Creating Layer loss1/fc
I0403 16:20:48.508105 20975 net.cpp:425] loss1/fc <- loss1/conv
I0403 16:20:48.508124 20975 net.cpp:399] loss1/fc -> loss1/fc
I0403 16:20:48.526012 20975 net.cpp:141] Setting up loss1/fc
I0403 16:20:48.526046 20975 net.cpp:148] Top shape: 24 1024 (24576)
I0403 16:20:48.526060 20975 net.cpp:156] Memory required for data: 945992736
I0403 16:20:48.526078 20975 layer_factory.hpp:77] Creating layer loss1/relu_fc
I0403 16:20:48.526096 20975 net.cpp:91] Creating Layer loss1/relu_fc
I0403 16:20:48.526113 20975 net.cpp:425] loss1/relu_fc <- loss1/fc
I0403 16:20:48.526131 20975 net.cpp:386] loss1/relu_fc -> loss1/fc (in-place)
I0403 16:20:48.526312 20975 net.cpp:141] Setting up loss1/relu_fc
I0403 16:20:48.526337 20975 net.cpp:148] Top shape: 24 1024 (24576)
I0403 16:20:48.526351 20975 net.cpp:156] Memory required for data: 946091040
I0403 16:20:48.526366 20975 layer_factory.hpp:77] Creating layer loss1/drop_fc
I0403 16:20:48.526392 20975 net.cpp:91] Creating Layer loss1/drop_fc
I0403 16:20:48.526409 20975 net.cpp:425] loss1/drop_fc <- loss1/fc
I0403 16:20:48.526429 20975 net.cpp:386] loss1/drop_fc -> loss1/fc (in-place)
I0403 16:20:48.526479 20975 net.cpp:141] Setting up loss1/drop_fc
I0403 16:20:48.526501 20975 net.cpp:148] Top shape: 24 1024 (24576)
I0403 16:20:48.526515 20975 net.cpp:156] Memory required for data: 946189344
I0403 16:20:48.526530 20975 layer_factory.hpp:77] Creating layer loss1/classifier_plantvillage
I0403 16:20:48.526551 20975 net.cpp:91] Creating Layer loss1/classifier_plantvillage
I0403 16:20:48.526568 20975 net.cpp:425] loss1/classifier_plantvillage <- loss1/fc
I0403 16:20:48.526588 20975 net.cpp:399] loss1/classifier_plantvillage -> loss1/classifier_plantvillage
I0403 16:20:48.527493 20975 net.cpp:141] Setting up loss1/classifier_plantvillage
I0403 16:20:48.527523 20975 net.cpp:148] Top shape: 24 38 (912)
I0403 16:20:48.527539 20975 net.cpp:156] Memory required for data: 946192992
I0403 16:20:48.527557 20975 layer_factory.hpp:77] Creating layer loss1/classifier_plantvillage_loss1/classifier_plantvillage_0_split
I0403 16:20:48.527575 20975 net.cpp:91] Creating Layer loss1/classifier_plantvillage_loss1/classifier_plantvillage_0_split
I0403 16:20:48.527590 20975 net.cpp:425] loss1/classifier_plantvillage_loss1/classifier_plantvillage_0_split <- loss1/classifier_plantvillage
I0403 16:20:48.527611 20975 net.cpp:399] loss1/classifier_plantvillage_loss1/classifier_plantvillage_0_split -> loss1/classifier_plantvillage_loss1/classifier_plantvillage_0_split_0
I0403 16:20:48.527631 20975 net.cpp:399] loss1/classifier_plantvillage_loss1/classifier_plantvillage_0_split -> loss1/classifier_plantvillage_loss1/classifier_plantvillage_0_split_1
I0403 16:20:48.527650 20975 net.cpp:399] loss1/classifier_plantvillage_loss1/classifier_plantvillage_0_split -> loss1/classifier_plantvillage_loss1/classifier_plantvillage_0_split_2
I0403 16:20:48.527715 20975 net.cpp:141] Setting up loss1/classifier_plantvillage_loss1/classifier_plantvillage_0_split
I0403 16:20:48.527739 20975 net.cpp:148] Top shape: 24 38 (912)
I0403 16:20:48.527753 20975 net.cpp:148] Top shape: 24 38 (912)
I0403 16:20:48.527768 20975 net.cpp:148] Top shape: 24 38 (912)
I0403 16:20:48.527781 20975 net.cpp:156] Memory required for data: 946203936
I0403 16:20:48.527796 20975 layer_factory.hpp:77] Creating layer inception_4b/1x1
I0403 16:20:48.527818 20975 net.cpp:91] Creating Layer inception_4b/1x1
I0403 16:20:48.527851 20975 net.cpp:425] inception_4b/1x1 <- inception_4a/output_inception_4a/output_0_split_1
I0403 16:20:48.527871 20975 net.cpp:399] inception_4b/1x1 -> inception_4b/1x1
I0403 16:20:48.529521 20975 net.cpp:141] Setting up inception_4b/1x1
I0403 16:20:48.529549 20975 net.cpp:148] Top shape: 24 160 14 14 (752640)
I0403 16:20:48.529564 20975 net.cpp:156] Memory required for data: 949214496
I0403 16:20:48.529582 20975 layer_factory.hpp:77] Creating layer inception_4b/relu_1x1
I0403 16:20:48.529603 20975 net.cpp:91] Creating Layer inception_4b/relu_1x1
I0403 16:20:48.529619 20975 net.cpp:425] inception_4b/relu_1x1 <- inception_4b/1x1
I0403 16:20:48.529636 20975 net.cpp:386] inception_4b/relu_1x1 -> inception_4b/1x1 (in-place)
I0403 16:20:48.529813 20975 net.cpp:141] Setting up inception_4b/relu_1x1
I0403 16:20:48.529836 20975 net.cpp:148] Top shape: 24 160 14 14 (752640)
I0403 16:20:48.529851 20975 net.cpp:156] Memory required for data: 952225056
I0403 16:20:48.529865 20975 layer_factory.hpp:77] Creating layer inception_4b/3x3_reduce
I0403 16:20:48.529888 20975 net.cpp:91] Creating Layer inception_4b/3x3_reduce
I0403 16:20:48.529906 20975 net.cpp:425] inception_4b/3x3_reduce <- inception_4a/output_inception_4a/output_0_split_2
I0403 16:20:48.529924 20975 net.cpp:399] inception_4b/3x3_reduce -> inception_4b/3x3_reduce
I0403 16:20:48.531285 20975 net.cpp:141] Setting up inception_4b/3x3_reduce
I0403 16:20:48.531311 20975 net.cpp:148] Top shape: 24 112 14 14 (526848)
I0403 16:20:48.531327 20975 net.cpp:156] Memory required for data: 954332448
I0403 16:20:48.531343 20975 layer_factory.hpp:77] Creating layer inception_4b/relu_3x3_reduce
I0403 16:20:48.531363 20975 net.cpp:91] Creating Layer inception_4b/relu_3x3_reduce
I0403 16:20:48.531380 20975 net.cpp:425] inception_4b/relu_3x3_reduce <- inception_4b/3x3_reduce
I0403 16:20:48.531397 20975 net.cpp:386] inception_4b/relu_3x3_reduce -> inception_4b/3x3_reduce (in-place)
I0403 16:20:48.531781 20975 net.cpp:141] Setting up inception_4b/relu_3x3_reduce
I0403 16:20:48.531807 20975 net.cpp:148] Top shape: 24 112 14 14 (526848)
I0403 16:20:48.531822 20975 net.cpp:156] Memory required for data: 956439840
I0403 16:20:48.531837 20975 layer_factory.hpp:77] Creating layer inception_4b/3x3
I0403 16:20:48.531859 20975 net.cpp:91] Creating Layer inception_4b/3x3
I0403 16:20:48.531877 20975 net.cpp:425] inception_4b/3x3 <- inception_4b/3x3_reduce
I0403 16:20:48.531898 20975 net.cpp:399] inception_4b/3x3 -> inception_4b/3x3
I0403 16:20:48.534889 20975 net.cpp:141] Setting up inception_4b/3x3
I0403 16:20:48.534921 20975 net.cpp:148] Top shape: 24 224 14 14 (1053696)
I0403 16:20:48.534939 20975 net.cpp:156] Memory required for data: 960654624
I0403 16:20:48.534960 20975 layer_factory.hpp:77] Creating layer inception_4b/relu_3x3
I0403 16:20:48.534981 20975 net.cpp:91] Creating Layer inception_4b/relu_3x3
I0403 16:20:48.534998 20975 net.cpp:425] inception_4b/relu_3x3 <- inception_4b/3x3
I0403 16:20:48.535017 20975 net.cpp:386] inception_4b/relu_3x3 -> inception_4b/3x3 (in-place)
I0403 16:20:48.535210 20975 net.cpp:141] Setting up inception_4b/relu_3x3
I0403 16:20:48.535236 20975 net.cpp:148] Top shape: 24 224 14 14 (1053696)
I0403 16:20:48.535250 20975 net.cpp:156] Memory required for data: 964869408
I0403 16:20:48.535265 20975 layer_factory.hpp:77] Creating layer inception_4b/5x5_reduce
I0403 16:20:48.535290 20975 net.cpp:91] Creating Layer inception_4b/5x5_reduce
I0403 16:20:48.535307 20975 net.cpp:425] inception_4b/5x5_reduce <- inception_4a/output_inception_4a/output_0_split_3
I0403 16:20:48.535331 20975 net.cpp:399] inception_4b/5x5_reduce -> inception_4b/5x5_reduce
I0403 16:20:48.536456 20975 net.cpp:141] Setting up inception_4b/5x5_reduce
I0403 16:20:48.536485 20975 net.cpp:148] Top shape: 24 24 14 14 (112896)
I0403 16:20:48.536500 20975 net.cpp:156] Memory required for data: 965320992
I0403 16:20:48.536519 20975 layer_factory.hpp:77] Creating layer inception_4b/relu_5x5_reduce
I0403 16:20:48.536540 20975 net.cpp:91] Creating Layer inception_4b/relu_5x5_reduce
I0403 16:20:48.536571 20975 net.cpp:425] inception_4b/relu_5x5_reduce <- inception_4b/5x5_reduce
I0403 16:20:48.536589 20975 net.cpp:386] inception_4b/relu_5x5_reduce -> inception_4b/5x5_reduce (in-place)
I0403 16:20:48.536777 20975 net.cpp:141] Setting up inception_4b/relu_5x5_reduce
I0403 16:20:48.536803 20975 net.cpp:148] Top shape: 24 24 14 14 (112896)
I0403 16:20:48.536819 20975 net.cpp:156] Memory required for data: 965772576
I0403 16:20:48.536834 20975 layer_factory.hpp:77] Creating layer inception_4b/5x5
I0403 16:20:48.536856 20975 net.cpp:91] Creating Layer inception_4b/5x5
I0403 16:20:48.536875 20975 net.cpp:425] inception_4b/5x5 <- inception_4b/5x5_reduce
I0403 16:20:48.536893 20975 net.cpp:399] inception_4b/5x5 -> inception_4b/5x5
I0403 16:20:48.538164 20975 net.cpp:141] Setting up inception_4b/5x5
I0403 16:20:48.538192 20975 net.cpp:148] Top shape: 24 64 14 14 (301056)
I0403 16:20:48.538208 20975 net.cpp:156] Memory required for data: 966976800
I0403 16:20:48.538228 20975 layer_factory.hpp:77] Creating layer inception_4b/relu_5x5
I0403 16:20:48.538247 20975 net.cpp:91] Creating Layer inception_4b/relu_5x5
I0403 16:20:48.538264 20975 net.cpp:425] inception_4b/relu_5x5 <- inception_4b/5x5
I0403 16:20:48.538282 20975 net.cpp:386] inception_4b/relu_5x5 -> inception_4b/5x5 (in-place)
I0403 16:20:48.538574 20975 net.cpp:141] Setting up inception_4b/relu_5x5
I0403 16:20:48.538601 20975 net.cpp:148] Top shape: 24 64 14 14 (301056)
I0403 16:20:48.538616 20975 net.cpp:156] Memory required for data: 968181024
I0403 16:20:48.538631 20975 layer_factory.hpp:77] Creating layer inception_4b/pool
I0403 16:20:48.538650 20975 net.cpp:91] Creating Layer inception_4b/pool
I0403 16:20:48.538669 20975 net.cpp:425] inception_4b/pool <- inception_4a/output_inception_4a/output_0_split_4
I0403 16:20:48.538687 20975 net.cpp:399] inception_4b/pool -> inception_4b/pool
I0403 16:20:48.538756 20975 net.cpp:141] Setting up inception_4b/pool
I0403 16:20:48.538780 20975 net.cpp:148] Top shape: 24 512 14 14 (2408448)
I0403 16:20:48.538795 20975 net.cpp:156] Memory required for data: 977814816
I0403 16:20:48.538811 20975 layer_factory.hpp:77] Creating layer inception_4b/pool_proj
I0403 16:20:48.538833 20975 net.cpp:91] Creating Layer inception_4b/pool_proj
I0403 16:20:48.538851 20975 net.cpp:425] inception_4b/pool_proj <- inception_4b/pool
I0403 16:20:48.538872 20975 net.cpp:399] inception_4b/pool_proj -> inception_4b/pool_proj
I0403 16:20:48.540124 20975 net.cpp:141] Setting up inception_4b/pool_proj
I0403 16:20:48.540154 20975 net.cpp:148] Top shape: 24 64 14 14 (301056)
I0403 16:20:48.540170 20975 net.cpp:156] Memory required for data: 979019040
I0403 16:20:48.540189 20975 layer_factory.hpp:77] Creating layer inception_4b/relu_pool_proj
I0403 16:20:48.540210 20975 net.cpp:91] Creating Layer inception_4b/relu_pool_proj
I0403 16:20:48.540228 20975 net.cpp:425] inception_4b/relu_pool_proj <- inception_4b/pool_proj
I0403 16:20:48.540246 20975 net.cpp:386] inception_4b/relu_pool_proj -> inception_4b/pool_proj (in-place)
I0403 16:20:48.540432 20975 net.cpp:141] Setting up inception_4b/relu_pool_proj
I0403 16:20:48.540457 20975 net.cpp:148] Top shape: 24 64 14 14 (301056)
I0403 16:20:48.540472 20975 net.cpp:156] Memory required for data: 980223264
I0403 16:20:48.540487 20975 layer_factory.hpp:77] Creating layer inception_4b/output
I0403 16:20:48.540506 20975 net.cpp:91] Creating Layer inception_4b/output
I0403 16:20:48.540524 20975 net.cpp:425] inception_4b/output <- inception_4b/1x1
I0403 16:20:48.540539 20975 net.cpp:425] inception_4b/output <- inception_4b/3x3
I0403 16:20:48.540556 20975 net.cpp:425] inception_4b/output <- inception_4b/5x5
I0403 16:20:48.540572 20975 net.cpp:425] inception_4b/output <- inception_4b/pool_proj
I0403 16:20:48.540588 20975 net.cpp:399] inception_4b/output -> inception_4b/output
I0403 16:20:48.540637 20975 net.cpp:141] Setting up inception_4b/output
I0403 16:20:48.540659 20975 net.cpp:148] Top shape: 24 512 14 14 (2408448)
I0403 16:20:48.540673 20975 net.cpp:156] Memory required for data: 989857056
I0403 16:20:48.540704 20975 layer_factory.hpp:77] Creating layer inception_4b/output_inception_4b/output_0_split
I0403 16:20:48.540721 20975 net.cpp:91] Creating Layer inception_4b/output_inception_4b/output_0_split
I0403 16:20:48.540737 20975 net.cpp:425] inception_4b/output_inception_4b/output_0_split <- inception_4b/output
I0403 16:20:48.540757 20975 net.cpp:399] inception_4b/output_inception_4b/output_0_split -> inception_4b/output_inception_4b/output_0_split_0
I0403 16:20:48.540778 20975 net.cpp:399] inception_4b/output_inception_4b/output_0_split -> inception_4b/output_inception_4b/output_0_split_1
I0403 16:20:48.540799 20975 net.cpp:399] inception_4b/output_inception_4b/output_0_split -> inception_4b/output_inception_4b/output_0_split_2
I0403 16:20:48.540819 20975 net.cpp:399] inception_4b/output_inception_4b/output_0_split -> inception_4b/output_inception_4b/output_0_split_3
I0403 16:20:48.540909 20975 net.cpp:141] Setting up inception_4b/output_inception_4b/output_0_split
I0403 16:20:48.540931 20975 net.cpp:148] Top shape: 24 512 14 14 (2408448)
I0403 16:20:48.540948 20975 net.cpp:148] Top shape: 24 512 14 14 (2408448)
I0403 16:20:48.540969 20975 net.cpp:148] Top shape: 24 512 14 14 (2408448)
I0403 16:20:48.540985 20975 net.cpp:148] Top shape: 24 512 14 14 (2408448)
I0403 16:20:48.540999 20975 net.cpp:156] Memory required for data: 1028392224
I0403 16:20:48.541014 20975 layer_factory.hpp:77] Creating layer inception_4c/1x1
I0403 16:20:48.541038 20975 net.cpp:91] Creating Layer inception_4c/1x1
I0403 16:20:48.541056 20975 net.cpp:425] inception_4c/1x1 <- inception_4b/output_inception_4b/output_0_split_0
I0403 16:20:48.541077 20975 net.cpp:399] inception_4c/1x1 -> inception_4c/1x1
I0403 16:20:48.542587 20975 net.cpp:141] Setting up inception_4c/1x1
I0403 16:20:48.542619 20975 net.cpp:148] Top shape: 24 128 14 14 (602112)
I0403 16:20:48.542639 20975 net.cpp:156] Memory required for data: 1030800672
I0403 16:20:48.542657 20975 layer_factory.hpp:77] Creating layer inception_4c/relu_1x1
I0403 16:20:48.542675 20975 net.cpp:91] Creating Layer inception_4c/relu_1x1
I0403 16:20:48.542692 20975 net.cpp:425] inception_4c/relu_1x1 <- inception_4c/1x1
I0403 16:20:48.542716 20975 net.cpp:386] inception_4c/relu_1x1 -> inception_4c/1x1 (in-place)
I0403 16:20:48.542912 20975 net.cpp:141] Setting up inception_4c/relu_1x1
I0403 16:20:48.542937 20975 net.cpp:148] Top shape: 24 128 14 14 (602112)
I0403 16:20:48.542958 20975 net.cpp:156] Memory required for data: 1033209120
I0403 16:20:48.542974 20975 layer_factory.hpp:77] Creating layer inception_4c/3x3_reduce
I0403 16:20:48.542999 20975 net.cpp:91] Creating Layer inception_4c/3x3_reduce
I0403 16:20:48.543016 20975 net.cpp:425] inception_4c/3x3_reduce <- inception_4b/output_inception_4b/output_0_split_1
I0403 16:20:48.543040 20975 net.cpp:399] inception_4c/3x3_reduce -> inception_4c/3x3_reduce
I0403 16:20:48.545106 20975 net.cpp:141] Setting up inception_4c/3x3_reduce
I0403 16:20:48.545138 20975 net.cpp:148] Top shape: 24 128 14 14 (602112)
I0403 16:20:48.545155 20975 net.cpp:156] Memory required for data: 1035617568
I0403 16:20:48.545174 20975 layer_factory.hpp:77] Creating layer inception_4c/relu_3x3_reduce
I0403 16:20:48.545192 20975 net.cpp:91] Creating Layer inception_4c/relu_3x3_reduce
I0403 16:20:48.545210 20975 net.cpp:425] inception_4c/relu_3x3_reduce <- inception_4c/3x3_reduce
I0403 16:20:48.545230 20975 net.cpp:386] inception_4c/relu_3x3_reduce -> inception_4c/3x3_reduce (in-place)
I0403 16:20:48.545533 20975 net.cpp:141] Setting up inception_4c/relu_3x3_reduce
I0403 16:20:48.545562 20975 net.cpp:148] Top shape: 24 128 14 14 (602112)
I0403 16:20:48.545577 20975 net.cpp:156] Memory required for data: 1038026016
I0403 16:20:48.545593 20975 layer_factory.hpp:77] Creating layer inception_4c/3x3
I0403 16:20:48.545619 20975 net.cpp:91] Creating Layer inception_4c/3x3
I0403 16:20:48.545639 20975 net.cpp:425] inception_4c/3x3 <- inception_4c/3x3_reduce
I0403 16:20:48.545661 20975 net.cpp:399] inception_4c/3x3 -> inception_4c/3x3
I0403 16:20:48.549507 20975 net.cpp:141] Setting up inception_4c/3x3
I0403 16:20:48.549551 20975 net.cpp:148] Top shape: 24 256 14 14 (1204224)
I0403 16:20:48.549569 20975 net.cpp:156] Memory required for data: 1042842912
I0403 16:20:48.549603 20975 layer_factory.hpp:77] Creating layer inception_4c/relu_3x3
I0403 16:20:48.549628 20975 net.cpp:91] Creating Layer inception_4c/relu_3x3
I0403 16:20:48.549645 20975 net.cpp:425] inception_4c/relu_3x3 <- inception_4c/3x3
I0403 16:20:48.549664 20975 net.cpp:386] inception_4c/relu_3x3 -> inception_4c/3x3 (in-place)
I0403 16:20:48.549860 20975 net.cpp:141] Setting up inception_4c/relu_3x3
I0403 16:20:48.549887 20975 net.cpp:148] Top shape: 24 256 14 14 (1204224)
I0403 16:20:48.549902 20975 net.cpp:156] Memory required for data: 1047659808
I0403 16:20:48.549917 20975 layer_factory.hpp:77] Creating layer inception_4c/5x5_reduce
I0403 16:20:48.549942 20975 net.cpp:91] Creating Layer inception_4c/5x5_reduce
I0403 16:20:48.549964 20975 net.cpp:425] inception_4c/5x5_reduce <- inception_4b/output_inception_4b/output_0_split_2
I0403 16:20:48.549990 20975 net.cpp:399] inception_4c/5x5_reduce -> inception_4c/5x5_reduce
I0403 16:20:48.551152 20975 net.cpp:141] Setting up inception_4c/5x5_reduce
I0403 16:20:48.551182 20975 net.cpp:148] Top shape: 24 24 14 14 (112896)
I0403 16:20:48.551199 20975 net.cpp:156] Memory required for data: 1048111392
I0403 16:20:48.551219 20975 layer_factory.hpp:77] Creating layer inception_4c/relu_5x5_reduce
I0403 16:20:48.551240 20975 net.cpp:91] Creating Layer inception_4c/relu_5x5_reduce
I0403 16:20:48.551260 20975 net.cpp:425] inception_4c/relu_5x5_reduce <- inception_4c/5x5_reduce
I0403 16:20:48.551278 20975 net.cpp:386] inception_4c/relu_5x5_reduce -> inception_4c/5x5_reduce (in-place)
I0403 16:20:48.551476 20975 net.cpp:141] Setting up inception_4c/relu_5x5_reduce
I0403 16:20:48.551506 20975 net.cpp:148] Top shape: 24 24 14 14 (112896)
I0403 16:20:48.551522 20975 net.cpp:156] Memory required for data: 1048562976
I0403 16:20:48.551538 20975 layer_factory.hpp:77] Creating layer inception_4c/5x5
I0403 16:20:48.551558 20975 net.cpp:91] Creating Layer inception_4c/5x5
I0403 16:20:48.551576 20975 net.cpp:425] inception_4c/5x5 <- inception_4c/5x5_reduce
I0403 16:20:48.551599 20975 net.cpp:399] inception_4c/5x5 -> inception_4c/5x5
I0403 16:20:48.552924 20975 net.cpp:141] Setting up inception_4c/5x5
I0403 16:20:48.552958 20975 net.cpp:148] Top shape: 24 64 14 14 (301056)
I0403 16:20:48.552975 20975 net.cpp:156] Memory required for data: 1049767200
I0403 16:20:48.552994 20975 layer_factory.hpp:77] Creating layer inception_4c/relu_5x5
I0403 16:20:48.553016 20975 net.cpp:91] Creating Layer inception_4c/relu_5x5
I0403 16:20:48.553035 20975 net.cpp:425] inception_4c/relu_5x5 <- inception_4c/5x5
I0403 16:20:48.553051 20975 net.cpp:386] inception_4c/relu_5x5 -> inception_4c/5x5 (in-place)
I0403 16:20:48.553356 20975 net.cpp:141] Setting up inception_4c/relu_5x5
I0403 16:20:48.553385 20975 net.cpp:148] Top shape: 24 64 14 14 (301056)
I0403 16:20:48.553400 20975 net.cpp:156] Memory required for data: 1050971424
I0403 16:20:48.553414 20975 layer_factory.hpp:77] Creating layer inception_4c/pool
I0403 16:20:48.553436 20975 net.cpp:91] Creating Layer inception_4c/pool
I0403 16:20:48.553453 20975 net.cpp:425] inception_4c/pool <- inception_4b/output_inception_4b/output_0_split_3
I0403 16:20:48.553472 20975 net.cpp:399] inception_4c/pool -> inception_4c/pool
I0403 16:20:48.553544 20975 net.cpp:141] Setting up inception_4c/pool
I0403 16:20:48.553570 20975 net.cpp:148] Top shape: 24 512 14 14 (2408448)
I0403 16:20:48.553585 20975 net.cpp:156] Memory required for data: 1060605216
I0403 16:20:48.553599 20975 layer_factory.hpp:77] Creating layer inception_4c/pool_proj
I0403 16:20:48.553623 20975 net.cpp:91] Creating Layer inception_4c/pool_proj
I0403 16:20:48.553642 20975 net.cpp:425] inception_4c/pool_proj <- inception_4c/pool
I0403 16:20:48.553663 20975 net.cpp:399] inception_4c/pool_proj -> inception_4c/pool_proj
I0403 16:20:48.554965 20975 net.cpp:141] Setting up inception_4c/pool_proj
I0403 16:20:48.554993 20975 net.cpp:148] Top shape: 24 64 14 14 (301056)
I0403 16:20:48.555025 20975 net.cpp:156] Memory required for data: 1061809440
I0403 16:20:48.555045 20975 layer_factory.hpp:77] Creating layer inception_4c/relu_pool_proj
I0403 16:20:48.555068 20975 net.cpp:91] Creating Layer inception_4c/relu_pool_proj
I0403 16:20:48.555086 20975 net.cpp:425] inception_4c/relu_pool_proj <- inception_4c/pool_proj
I0403 16:20:48.555104 20975 net.cpp:386] inception_4c/relu_pool_proj -> inception_4c/pool_proj (in-place)
I0403 16:20:48.555301 20975 net.cpp:141] Setting up inception_4c/relu_pool_proj
I0403 16:20:48.555327 20975 net.cpp:148] Top shape: 24 64 14 14 (301056)
I0403 16:20:48.555342 20975 net.cpp:156] Memory required for data: 1063013664
I0403 16:20:48.555358 20975 layer_factory.hpp:77] Creating layer inception_4c/output
I0403 16:20:48.555378 20975 net.cpp:91] Creating Layer inception_4c/output
I0403 16:20:48.555397 20975 net.cpp:425] inception_4c/output <- inception_4c/1x1
I0403 16:20:48.555414 20975 net.cpp:425] inception_4c/output <- inception_4c/3x3
I0403 16:20:48.555431 20975 net.cpp:425] inception_4c/output <- inception_4c/5x5
I0403 16:20:48.555447 20975 net.cpp:425] inception_4c/output <- inception_4c/pool_proj
I0403 16:20:48.555465 20975 net.cpp:399] inception_4c/output -> inception_4c/output
I0403 16:20:48.555516 20975 net.cpp:141] Setting up inception_4c/output
I0403 16:20:48.555541 20975 net.cpp:148] Top shape: 24 512 14 14 (2408448)
I0403 16:20:48.555555 20975 net.cpp:156] Memory required for data: 1072647456
I0403 16:20:48.555569 20975 layer_factory.hpp:77] Creating layer inception_4c/output_inception_4c/output_0_split
I0403 16:20:48.555588 20975 net.cpp:91] Creating Layer inception_4c/output_inception_4c/output_0_split
I0403 16:20:48.555603 20975 net.cpp:425] inception_4c/output_inception_4c/output_0_split <- inception_4c/output
I0403 16:20:48.555624 20975 net.cpp:399] inception_4c/output_inception_4c/output_0_split -> inception_4c/output_inception_4c/output_0_split_0
I0403 16:20:48.555645 20975 net.cpp:399] inception_4c/output_inception_4c/output_0_split -> inception_4c/output_inception_4c/output_0_split_1
I0403 16:20:48.555665 20975 net.cpp:399] inception_4c/output_inception_4c/output_0_split -> inception_4c/output_inception_4c/output_0_split_2
I0403 16:20:48.555686 20975 net.cpp:399] inception_4c/output_inception_4c/output_0_split -> inception_4c/output_inception_4c/output_0_split_3
I0403 16:20:48.555781 20975 net.cpp:141] Setting up inception_4c/output_inception_4c/output_0_split
I0403 16:20:48.555805 20975 net.cpp:148] Top shape: 24 512 14 14 (2408448)
I0403 16:20:48.555822 20975 net.cpp:148] Top shape: 24 512 14 14 (2408448)
I0403 16:20:48.555838 20975 net.cpp:148] Top shape: 24 512 14 14 (2408448)
I0403 16:20:48.555855 20975 net.cpp:148] Top shape: 24 512 14 14 (2408448)
I0403 16:20:48.555868 20975 net.cpp:156] Memory required for data: 1111182624
I0403 16:20:48.555883 20975 layer_factory.hpp:77] Creating layer inception_4d/1x1
I0403 16:20:48.555907 20975 net.cpp:91] Creating Layer inception_4d/1x1
I0403 16:20:48.555923 20975 net.cpp:425] inception_4d/1x1 <- inception_4c/output_inception_4c/output_0_split_0
I0403 16:20:48.555945 20975 net.cpp:399] inception_4d/1x1 -> inception_4d/1x1
I0403 16:20:48.557423 20975 net.cpp:141] Setting up inception_4d/1x1
I0403 16:20:48.557456 20975 net.cpp:148] Top shape: 24 112 14 14 (526848)
I0403 16:20:48.557472 20975 net.cpp:156] Memory required for data: 1113290016
I0403 16:20:48.557492 20975 layer_factory.hpp:77] Creating layer inception_4d/relu_1x1
I0403 16:20:48.557510 20975 net.cpp:91] Creating Layer inception_4d/relu_1x1
I0403 16:20:48.557528 20975 net.cpp:425] inception_4d/relu_1x1 <- inception_4d/1x1
I0403 16:20:48.557548 20975 net.cpp:386] inception_4d/relu_1x1 -> inception_4d/1x1 (in-place)
I0403 16:20:48.557744 20975 net.cpp:141] Setting up inception_4d/relu_1x1
I0403 16:20:48.557770 20975 net.cpp:148] Top shape: 24 112 14 14 (526848)
I0403 16:20:48.557785 20975 net.cpp:156] Memory required for data: 1115397408
I0403 16:20:48.557801 20975 layer_factory.hpp:77] Creating layer inception_4d/3x3_reduce
I0403 16:20:48.557839 20975 net.cpp:91] Creating Layer inception_4d/3x3_reduce
I0403 16:20:48.557859 20975 net.cpp:425] inception_4d/3x3_reduce <- inception_4c/output_inception_4c/output_0_split_1
I0403 16:20:48.557883 20975 net.cpp:399] inception_4d/3x3_reduce -> inception_4d/3x3_reduce
I0403 16:20:48.559506 20975 net.cpp:141] Setting up inception_4d/3x3_reduce
I0403 16:20:48.559538 20975 net.cpp:148] Top shape: 24 144 14 14 (677376)
I0403 16:20:48.559556 20975 net.cpp:156] Memory required for data: 1118106912
I0403 16:20:48.559574 20975 layer_factory.hpp:77] Creating layer inception_4d/relu_3x3_reduce
I0403 16:20:48.559593 20975 net.cpp:91] Creating Layer inception_4d/relu_3x3_reduce
I0403 16:20:48.559610 20975 net.cpp:425] inception_4d/relu_3x3_reduce <- inception_4d/3x3_reduce
I0403 16:20:48.559628 20975 net.cpp:386] inception_4d/relu_3x3_reduce -> inception_4d/3x3_reduce (in-place)
I0403 16:20:48.559943 20975 net.cpp:141] Setting up inception_4d/relu_3x3_reduce
I0403 16:20:48.559978 20975 net.cpp:148] Top shape: 24 144 14 14 (677376)
I0403 16:20:48.559995 20975 net.cpp:156] Memory required for data: 1120816416
I0403 16:20:48.560011 20975 layer_factory.hpp:77] Creating layer inception_4d/3x3
I0403 16:20:48.560034 20975 net.cpp:91] Creating Layer inception_4d/3x3
I0403 16:20:48.560055 20975 net.cpp:425] inception_4d/3x3 <- inception_4d/3x3_reduce
I0403 16:20:48.560075 20975 net.cpp:399] inception_4d/3x3 -> inception_4d/3x3
I0403 16:20:48.564599 20975 net.cpp:141] Setting up inception_4d/3x3
I0403 16:20:48.564630 20975 net.cpp:148] Top shape: 24 288 14 14 (1354752)
I0403 16:20:48.564645 20975 net.cpp:156] Memory required for data: 1126235424
I0403 16:20:48.564663 20975 layer_factory.hpp:77] Creating layer inception_4d/relu_3x3
I0403 16:20:48.564682 20975 net.cpp:91] Creating Layer inception_4d/relu_3x3
I0403 16:20:48.564698 20975 net.cpp:425] inception_4d/relu_3x3 <- inception_4d/3x3
I0403 16:20:48.564718 20975 net.cpp:386] inception_4d/relu_3x3 -> inception_4d/3x3 (in-place)
I0403 16:20:48.564910 20975 net.cpp:141] Setting up inception_4d/relu_3x3
I0403 16:20:48.564935 20975 net.cpp:148] Top shape: 24 288 14 14 (1354752)
I0403 16:20:48.564950 20975 net.cpp:156] Memory required for data: 1131654432
I0403 16:20:48.564970 20975 layer_factory.hpp:77] Creating layer inception_4d/5x5_reduce
I0403 16:20:48.564995 20975 net.cpp:91] Creating Layer inception_4d/5x5_reduce
I0403 16:20:48.565012 20975 net.cpp:425] inception_4d/5x5_reduce <- inception_4c/output_inception_4c/output_0_split_2
I0403 16:20:48.565033 20975 net.cpp:399] inception_4d/5x5_reduce -> inception_4d/5x5_reduce
I0403 16:20:48.566220 20975 net.cpp:141] Setting up inception_4d/5x5_reduce
I0403 16:20:48.566249 20975 net.cpp:148] Top shape: 24 32 14 14 (150528)
I0403 16:20:48.566265 20975 net.cpp:156] Memory required for data: 1132256544
I0403 16:20:48.566283 20975 layer_factory.hpp:77] Creating layer inception_4d/relu_5x5_reduce
I0403 16:20:48.566301 20975 net.cpp:91] Creating Layer inception_4d/relu_5x5_reduce
I0403 16:20:48.566318 20975 net.cpp:425] inception_4d/relu_5x5_reduce <- inception_4d/5x5_reduce
I0403 16:20:48.566337 20975 net.cpp:386] inception_4d/relu_5x5_reduce -> inception_4d/5x5_reduce (in-place)
I0403 16:20:48.566530 20975 net.cpp:141] Setting up inception_4d/relu_5x5_reduce
I0403 16:20:48.566555 20975 net.cpp:148] Top shape: 24 32 14 14 (150528)
I0403 16:20:48.566570 20975 net.cpp:156] Memory required for data: 1132858656
I0403 16:20:48.566584 20975 layer_factory.hpp:77] Creating layer inception_4d/5x5
I0403 16:20:48.566607 20975 net.cpp:91] Creating Layer inception_4d/5x5
I0403 16:20:48.566625 20975 net.cpp:425] inception_4d/5x5 <- inception_4d/5x5_reduce
I0403 16:20:48.566649 20975 net.cpp:399] inception_4d/5x5 -> inception_4d/5x5
I0403 16:20:48.568199 20975 net.cpp:141] Setting up inception_4d/5x5
I0403 16:20:48.568228 20975 net.cpp:148] Top shape: 24 64 14 14 (301056)
I0403 16:20:48.568243 20975 net.cpp:156] Memory required for data: 1134062880
I0403 16:20:48.568262 20975 layer_factory.hpp:77] Creating layer inception_4d/relu_5x5
I0403 16:20:48.568300 20975 net.cpp:91] Creating Layer inception_4d/relu_5x5
I0403 16:20:48.568317 20975 net.cpp:425] inception_4d/relu_5x5 <- inception_4d/5x5
I0403 16:20:48.568336 20975 net.cpp:386] inception_4d/relu_5x5 -> inception_4d/5x5 (in-place)
I0403 16:20:48.568645 20975 net.cpp:141] Setting up inception_4d/relu_5x5
I0403 16:20:48.568672 20975 net.cpp:148] Top shape: 24 64 14 14 (301056)
I0403 16:20:48.568686 20975 net.cpp:156] Memory required for data: 1135267104
I0403 16:20:48.568701 20975 layer_factory.hpp:77] Creating layer inception_4d/pool
I0403 16:20:48.568722 20975 net.cpp:91] Creating Layer inception_4d/pool
I0403 16:20:48.568739 20975 net.cpp:425] inception_4d/pool <- inception_4c/output_inception_4c/output_0_split_3
I0403 16:20:48.568758 20975 net.cpp:399] inception_4d/pool -> inception_4d/pool
I0403 16:20:48.568830 20975 net.cpp:141] Setting up inception_4d/pool
I0403 16:20:48.568853 20975 net.cpp:148] Top shape: 24 512 14 14 (2408448)
I0403 16:20:48.568867 20975 net.cpp:156] Memory required for data: 1144900896
I0403 16:20:48.568882 20975 layer_factory.hpp:77] Creating layer inception_4d/pool_proj
I0403 16:20:48.568905 20975 net.cpp:91] Creating Layer inception_4d/pool_proj
I0403 16:20:48.568922 20975 net.cpp:425] inception_4d/pool_proj <- inception_4d/pool
I0403 16:20:48.568943 20975 net.cpp:399] inception_4d/pool_proj -> inception_4d/pool_proj
I0403 16:20:48.570792 20975 net.cpp:141] Setting up inception_4d/pool_proj
I0403 16:20:48.570835 20975 net.cpp:148] Top shape: 24 64 14 14 (301056)
I0403 16:20:48.570852 20975 net.cpp:156] Memory required for data: 1146105120
I0403 16:20:48.570869 20975 layer_factory.hpp:77] Creating layer inception_4d/relu_pool_proj
I0403 16:20:48.570888 20975 net.cpp:91] Creating Layer inception_4d/relu_pool_proj
I0403 16:20:48.570905 20975 net.cpp:425] inception_4d/relu_pool_proj <- inception_4d/pool_proj
I0403 16:20:48.570924 20975 net.cpp:386] inception_4d/relu_pool_proj -> inception_4d/pool_proj (in-place)
I0403 16:20:48.571123 20975 net.cpp:141] Setting up inception_4d/relu_pool_proj
I0403 16:20:48.571149 20975 net.cpp:148] Top shape: 24 64 14 14 (301056)
I0403 16:20:48.571164 20975 net.cpp:156] Memory required for data: 1147309344
I0403 16:20:48.571179 20975 layer_factory.hpp:77] Creating layer inception_4d/output
I0403 16:20:48.571199 20975 net.cpp:91] Creating Layer inception_4d/output
I0403 16:20:48.571215 20975 net.cpp:425] inception_4d/output <- inception_4d/1x1
I0403 16:20:48.571233 20975 net.cpp:425] inception_4d/output <- inception_4d/3x3
I0403 16:20:48.571249 20975 net.cpp:425] inception_4d/output <- inception_4d/5x5
I0403 16:20:48.571264 20975 net.cpp:425] inception_4d/output <- inception_4d/pool_proj
I0403 16:20:48.571281 20975 net.cpp:399] inception_4d/output -> inception_4d/output
I0403 16:20:48.571332 20975 net.cpp:141] Setting up inception_4d/output
I0403 16:20:48.571355 20975 net.cpp:148] Top shape: 24 528 14 14 (2483712)
I0403 16:20:48.571370 20975 net.cpp:156] Memory required for data: 1157244192
I0403 16:20:48.571384 20975 layer_factory.hpp:77] Creating layer inception_4d/output_inception_4d/output_0_split
I0403 16:20:48.571401 20975 net.cpp:91] Creating Layer inception_4d/output_inception_4d/output_0_split
I0403 16:20:48.571418 20975 net.cpp:425] inception_4d/output_inception_4d/output_0_split <- inception_4d/output
I0403 16:20:48.571437 20975 net.cpp:399] inception_4d/output_inception_4d/output_0_split -> inception_4d/output_inception_4d/output_0_split_0
I0403 16:20:48.571460 20975 net.cpp:399] inception_4d/output_inception_4d/output_0_split -> inception_4d/output_inception_4d/output_0_split_1
I0403 16:20:48.571480 20975 net.cpp:399] inception_4d/output_inception_4d/output_0_split -> inception_4d/output_inception_4d/output_0_split_2
I0403 16:20:48.571501 20975 net.cpp:399] inception_4d/output_inception_4d/output_0_split -> inception_4d/output_inception_4d/output_0_split_3
I0403 16:20:48.571521 20975 net.cpp:399] inception_4d/output_inception_4d/output_0_split -> inception_4d/output_inception_4d/output_0_split_4
I0403 16:20:48.571626 20975 net.cpp:141] Setting up inception_4d/output_inception_4d/output_0_split
I0403 16:20:48.571663 20975 net.cpp:148] Top shape: 24 528 14 14 (2483712)
I0403 16:20:48.571683 20975 net.cpp:148] Top shape: 24 528 14 14 (2483712)
I0403 16:20:48.571701 20975 net.cpp:148] Top shape: 24 528 14 14 (2483712)
I0403 16:20:48.571715 20975 net.cpp:148] Top shape: 24 528 14 14 (2483712)
I0403 16:20:48.571732 20975 net.cpp:148] Top shape: 24 528 14 14 (2483712)
I0403 16:20:48.571745 20975 net.cpp:156] Memory required for data: 1206918432
I0403 16:20:48.571759 20975 layer_factory.hpp:77] Creating layer loss2/ave_pool
I0403 16:20:48.571779 20975 net.cpp:91] Creating Layer loss2/ave_pool
I0403 16:20:48.571794 20975 net.cpp:425] loss2/ave_pool <- inception_4d/output_inception_4d/output_0_split_0
I0403 16:20:48.571815 20975 net.cpp:399] loss2/ave_pool -> loss2/ave_pool
I0403 16:20:48.572144 20975 net.cpp:141] Setting up loss2/ave_pool
I0403 16:20:48.572171 20975 net.cpp:148] Top shape: 24 528 4 4 (202752)
I0403 16:20:48.572186 20975 net.cpp:156] Memory required for data: 1207729440
I0403 16:20:48.572201 20975 layer_factory.hpp:77] Creating layer loss2/conv
I0403 16:20:48.572223 20975 net.cpp:91] Creating Layer loss2/conv
I0403 16:20:48.572242 20975 net.cpp:425] loss2/conv <- loss2/ave_pool
I0403 16:20:48.572263 20975 net.cpp:399] loss2/conv -> loss2/conv
I0403 16:20:48.574239 20975 net.cpp:141] Setting up loss2/conv
I0403 16:20:48.574270 20975 net.cpp:148] Top shape: 24 128 4 4 (49152)
I0403 16:20:48.574285 20975 net.cpp:156] Memory required for data: 1207926048
I0403 16:20:48.574303 20975 layer_factory.hpp:77] Creating layer loss2/relu_conv
I0403 16:20:48.574323 20975 net.cpp:91] Creating Layer loss2/relu_conv
I0403 16:20:48.574340 20975 net.cpp:425] loss2/relu_conv <- loss2/conv
I0403 16:20:48.574357 20975 net.cpp:386] loss2/relu_conv -> loss2/conv (in-place)
I0403 16:20:48.574654 20975 net.cpp:141] Setting up loss2/relu_conv
I0403 16:20:48.574681 20975 net.cpp:148] Top shape: 24 128 4 4 (49152)
I0403 16:20:48.574697 20975 net.cpp:156] Memory required for data: 1208122656
I0403 16:20:48.574712 20975 layer_factory.hpp:77] Creating layer loss2/fc
I0403 16:20:48.574733 20975 net.cpp:91] Creating Layer loss2/fc
I0403 16:20:48.574750 20975 net.cpp:425] loss2/fc <- loss2/conv
I0403 16:20:48.574772 20975 net.cpp:399] loss2/fc -> loss2/fc
I0403 16:20:48.592643 20975 net.cpp:141] Setting up loss2/fc
I0403 16:20:48.592676 20975 net.cpp:148] Top shape: 24 1024 (24576)
I0403 16:20:48.592691 20975 net.cpp:156] Memory required for data: 1208220960
I0403 16:20:48.592710 20975 layer_factory.hpp:77] Creating layer loss2/relu_fc
I0403 16:20:48.592727 20975 net.cpp:91] Creating Layer loss2/relu_fc
I0403 16:20:48.592743 20975 net.cpp:425] loss2/relu_fc <- loss2/fc
I0403 16:20:48.592763 20975 net.cpp:386] loss2/relu_fc -> loss2/fc (in-place)
I0403 16:20:48.593075 20975 net.cpp:141] Setting up loss2/relu_fc
I0403 16:20:48.593101 20975 net.cpp:148] Top shape: 24 1024 (24576)
I0403 16:20:48.593116 20975 net.cpp:156] Memory required for data: 1208319264
I0403 16:20:48.593129 20975 layer_factory.hpp:77] Creating layer loss2/drop_fc
I0403 16:20:48.593147 20975 net.cpp:91] Creating Layer loss2/drop_fc
I0403 16:20:48.593165 20975 net.cpp:425] loss2/drop_fc <- loss2/fc
I0403 16:20:48.593184 20975 net.cpp:386] loss2/drop_fc -> loss2/fc (in-place)
I0403 16:20:48.593235 20975 net.cpp:141] Setting up loss2/drop_fc
I0403 16:20:48.593260 20975 net.cpp:148] Top shape: 24 1024 (24576)
I0403 16:20:48.593274 20975 net.cpp:156] Memory required for data: 1208417568
I0403 16:20:48.593288 20975 layer_factory.hpp:77] Creating layer loss2/classifier_plantvillage
I0403 16:20:48.593307 20975 net.cpp:91] Creating Layer loss2/classifier_plantvillage
I0403 16:20:48.593322 20975 net.cpp:425] loss2/classifier_plantvillage <- loss2/fc
I0403 16:20:48.593343 20975 net.cpp:399] loss2/classifier_plantvillage -> loss2/classifier_plantvillage
I0403 16:20:48.593750 20975 net.cpp:141] Setting up loss2/classifier_plantvillage
I0403 16:20:48.593777 20975 net.cpp:148] Top shape: 24 38 (912)
I0403 16:20:48.593791 20975 net.cpp:156] Memory required for data: 1208421216
I0403 16:20:48.593828 20975 layer_factory.hpp:77] Creating layer loss2/classifier_plantvillage_loss2/classifier_plantvillage_0_split
I0403 16:20:48.593847 20975 net.cpp:91] Creating Layer loss2/classifier_plantvillage_loss2/classifier_plantvillage_0_split
I0403 16:20:48.593863 20975 net.cpp:425] loss2/classifier_plantvillage_loss2/classifier_plantvillage_0_split <- loss2/classifier_plantvillage
I0403 16:20:48.593880 20975 net.cpp:399] loss2/classifier_plantvillage_loss2/classifier_plantvillage_0_split -> loss2/classifier_plantvillage_loss2/classifier_plantvillage_0_split_0
I0403 16:20:48.593900 20975 net.cpp:399] loss2/classifier_plantvillage_loss2/classifier_plantvillage_0_split -> loss2/classifier_plantvillage_loss2/classifier_plantvillage_0_split_1
I0403 16:20:48.593924 20975 net.cpp:399] loss2/classifier_plantvillage_loss2/classifier_plantvillage_0_split -> loss2/classifier_plantvillage_loss2/classifier_plantvillage_0_split_2
I0403 16:20:48.594005 20975 net.cpp:141] Setting up loss2/classifier_plantvillage_loss2/classifier_plantvillage_0_split
I0403 16:20:48.594029 20975 net.cpp:148] Top shape: 24 38 (912)
I0403 16:20:48.594044 20975 net.cpp:148] Top shape: 24 38 (912)
I0403 16:20:48.594059 20975 net.cpp:148] Top shape: 24 38 (912)
I0403 16:20:48.594072 20975 net.cpp:156] Memory required for data: 1208432160
I0403 16:20:48.594087 20975 layer_factory.hpp:77] Creating layer inception_4e/1x1
I0403 16:20:48.594107 20975 net.cpp:91] Creating Layer inception_4e/1x1
I0403 16:20:48.594123 20975 net.cpp:425] inception_4e/1x1 <- inception_4d/output_inception_4d/output_0_split_1
I0403 16:20:48.594144 20975 net.cpp:399] inception_4e/1x1 -> inception_4e/1x1
I0403 16:20:48.596034 20975 net.cpp:141] Setting up inception_4e/1x1
I0403 16:20:48.596065 20975 net.cpp:148] Top shape: 24 256 14 14 (1204224)
I0403 16:20:48.596081 20975 net.cpp:156] Memory required for data: 1213249056
I0403 16:20:48.596098 20975 layer_factory.hpp:77] Creating layer inception_4e/relu_1x1
I0403 16:20:48.596118 20975 net.cpp:91] Creating Layer inception_4e/relu_1x1
I0403 16:20:48.596137 20975 net.cpp:425] inception_4e/relu_1x1 <- inception_4e/1x1
I0403 16:20:48.596153 20975 net.cpp:386] inception_4e/relu_1x1 -> inception_4e/1x1 (in-place)
I0403 16:20:48.596458 20975 net.cpp:141] Setting up inception_4e/relu_1x1
I0403 16:20:48.596484 20975 net.cpp:148] Top shape: 24 256 14 14 (1204224)
I0403 16:20:48.596499 20975 net.cpp:156] Memory required for data: 1218065952
I0403 16:20:48.596514 20975 layer_factory.hpp:77] Creating layer inception_4e/3x3_reduce
I0403 16:20:48.596539 20975 net.cpp:91] Creating Layer inception_4e/3x3_reduce
I0403 16:20:48.596556 20975 net.cpp:425] inception_4e/3x3_reduce <- inception_4d/output_inception_4d/output_0_split_2
I0403 16:20:48.596575 20975 net.cpp:399] inception_4e/3x3_reduce -> inception_4e/3x3_reduce
I0403 16:20:48.598824 20975 net.cpp:141] Setting up inception_4e/3x3_reduce
I0403 16:20:48.598853 20975 net.cpp:148] Top shape: 24 160 14 14 (752640)
I0403 16:20:48.598870 20975 net.cpp:156] Memory required for data: 1221076512
I0403 16:20:48.598887 20975 layer_factory.hpp:77] Creating layer inception_4e/relu_3x3_reduce
I0403 16:20:48.598909 20975 net.cpp:91] Creating Layer inception_4e/relu_3x3_reduce
I0403 16:20:48.598925 20975 net.cpp:425] inception_4e/relu_3x3_reduce <- inception_4e/3x3_reduce
I0403 16:20:48.598942 20975 net.cpp:386] inception_4e/relu_3x3_reduce -> inception_4e/3x3_reduce (in-place)
I0403 16:20:48.599141 20975 net.cpp:141] Setting up inception_4e/relu_3x3_reduce
I0403 16:20:48.599169 20975 net.cpp:148] Top shape: 24 160 14 14 (752640)
I0403 16:20:48.599184 20975 net.cpp:156] Memory required for data: 1224087072
I0403 16:20:48.599200 20975 layer_factory.hpp:77] Creating layer inception_4e/3x3
I0403 16:20:48.599222 20975 net.cpp:91] Creating Layer inception_4e/3x3
I0403 16:20:48.599239 20975 net.cpp:425] inception_4e/3x3 <- inception_4e/3x3_reduce
I0403 16:20:48.599258 20975 net.cpp:399] inception_4e/3x3 -> inception_4e/3x3
I0403 16:20:48.604401 20975 net.cpp:141] Setting up inception_4e/3x3
I0403 16:20:48.604449 20975 net.cpp:148] Top shape: 24 320 14 14 (1505280)
I0403 16:20:48.604466 20975 net.cpp:156] Memory required for data: 1230108192
I0403 16:20:48.604485 20975 layer_factory.hpp:77] Creating layer inception_4e/relu_3x3
I0403 16:20:48.604502 20975 net.cpp:91] Creating Layer inception_4e/relu_3x3
I0403 16:20:48.604518 20975 net.cpp:425] inception_4e/relu_3x3 <- inception_4e/3x3
I0403 16:20:48.604537 20975 net.cpp:386] inception_4e/relu_3x3 -> inception_4e/3x3 (in-place)
I0403 16:20:48.604837 20975 net.cpp:141] Setting up inception_4e/relu_3x3
I0403 16:20:48.604866 20975 net.cpp:148] Top shape: 24 320 14 14 (1505280)
I0403 16:20:48.604882 20975 net.cpp:156] Memory required for data: 1236129312
I0403 16:20:48.604897 20975 layer_factory.hpp:77] Creating layer inception_4e/5x5_reduce
I0403 16:20:48.604919 20975 net.cpp:91] Creating Layer inception_4e/5x5_reduce
I0403 16:20:48.604938 20975 net.cpp:425] inception_4e/5x5_reduce <- inception_4d/output_inception_4d/output_0_split_3
I0403 16:20:48.604962 20975 net.cpp:399] inception_4e/5x5_reduce -> inception_4e/5x5_reduce
I0403 16:20:48.606040 20975 net.cpp:141] Setting up inception_4e/5x5_reduce
I0403 16:20:48.606068 20975 net.cpp:148] Top shape: 24 32 14 14 (150528)
I0403 16:20:48.606083 20975 net.cpp:156] Memory required for data: 1236731424
I0403 16:20:48.606101 20975 layer_factory.hpp:77] Creating layer inception_4e/relu_5x5_reduce
I0403 16:20:48.606122 20975 net.cpp:91] Creating Layer inception_4e/relu_5x5_reduce
I0403 16:20:48.606138 20975 net.cpp:425] inception_4e/relu_5x5_reduce <- inception_4e/5x5_reduce
I0403 16:20:48.606156 20975 net.cpp:386] inception_4e/relu_5x5_reduce -> inception_4e/5x5_reduce (in-place)
I0403 16:20:48.606457 20975 net.cpp:141] Setting up inception_4e/relu_5x5_reduce
I0403 16:20:48.606483 20975 net.cpp:148] Top shape: 24 32 14 14 (150528)
I0403 16:20:48.606498 20975 net.cpp:156] Memory required for data: 1237333536
I0403 16:20:48.606513 20975 layer_factory.hpp:77] Creating layer inception_4e/5x5
I0403 16:20:48.606550 20975 net.cpp:91] Creating Layer inception_4e/5x5
I0403 16:20:48.606570 20975 net.cpp:425] inception_4e/5x5 <- inception_4e/5x5_reduce
I0403 16:20:48.606590 20975 net.cpp:399] inception_4e/5x5 -> inception_4e/5x5
I0403 16:20:48.608464 20975 net.cpp:141] Setting up inception_4e/5x5
I0403 16:20:48.608491 20975 net.cpp:148] Top shape: 24 128 14 14 (602112)
I0403 16:20:48.608506 20975 net.cpp:156] Memory required for data: 1239741984
I0403 16:20:48.608525 20975 layer_factory.hpp:77] Creating layer inception_4e/relu_5x5
I0403 16:20:48.608542 20975 net.cpp:91] Creating Layer inception_4e/relu_5x5
I0403 16:20:48.608558 20975 net.cpp:425] inception_4e/relu_5x5 <- inception_4e/5x5
I0403 16:20:48.608577 20975 net.cpp:386] inception_4e/relu_5x5 -> inception_4e/5x5 (in-place)
I0403 16:20:48.608777 20975 net.cpp:141] Setting up inception_4e/relu_5x5
I0403 16:20:48.608803 20975 net.cpp:148] Top shape: 24 128 14 14 (602112)
I0403 16:20:48.608816 20975 net.cpp:156] Memory required for data: 1242150432
I0403 16:20:48.608831 20975 layer_factory.hpp:77] Creating layer inception_4e/pool
I0403 16:20:48.608852 20975 net.cpp:91] Creating Layer inception_4e/pool
I0403 16:20:48.608870 20975 net.cpp:425] inception_4e/pool <- inception_4d/output_inception_4d/output_0_split_4
I0403 16:20:48.608886 20975 net.cpp:399] inception_4e/pool -> inception_4e/pool
I0403 16:20:48.608968 20975 net.cpp:141] Setting up inception_4e/pool
I0403 16:20:48.608991 20975 net.cpp:148] Top shape: 24 528 14 14 (2483712)
I0403 16:20:48.609005 20975 net.cpp:156] Memory required for data: 1252085280
I0403 16:20:48.609019 20975 layer_factory.hpp:77] Creating layer inception_4e/pool_proj
I0403 16:20:48.609041 20975 net.cpp:91] Creating Layer inception_4e/pool_proj
I0403 16:20:48.609060 20975 net.cpp:425] inception_4e/pool_proj <- inception_4e/pool
I0403 16:20:48.609081 20975 net.cpp:399] inception_4e/pool_proj -> inception_4e/pool_proj
I0403 16:20:48.610589 20975 net.cpp:141] Setting up inception_4e/pool_proj
I0403 16:20:48.610617 20975 net.cpp:148] Top shape: 24 128 14 14 (602112)
I0403 16:20:48.610646 20975 net.cpp:156] Memory required for data: 1254493728
I0403 16:20:48.610666 20975 layer_factory.hpp:77] Creating layer inception_4e/relu_pool_proj
I0403 16:20:48.610684 20975 net.cpp:91] Creating Layer inception_4e/relu_pool_proj
I0403 16:20:48.610699 20975 net.cpp:425] inception_4e/relu_pool_proj <- inception_4e/pool_proj
I0403 16:20:48.610718 20975 net.cpp:386] inception_4e/relu_pool_proj -> inception_4e/pool_proj (in-place)
I0403 16:20:48.611016 20975 net.cpp:141] Setting up inception_4e/relu_pool_proj
I0403 16:20:48.611042 20975 net.cpp:148] Top shape: 24 128 14 14 (602112)
I0403 16:20:48.611059 20975 net.cpp:156] Memory required for data: 1256902176
I0403 16:20:48.611073 20975 layer_factory.hpp:77] Creating layer inception_4e/output
I0403 16:20:48.611091 20975 net.cpp:91] Creating Layer inception_4e/output
I0403 16:20:48.611106 20975 net.cpp:425] inception_4e/output <- inception_4e/1x1
I0403 16:20:48.611122 20975 net.cpp:425] inception_4e/output <- inception_4e/3x3
I0403 16:20:48.611138 20975 net.cpp:425] inception_4e/output <- inception_4e/5x5
I0403 16:20:48.611155 20975 net.cpp:425] inception_4e/output <- inception_4e/pool_proj
I0403 16:20:48.611173 20975 net.cpp:399] inception_4e/output -> inception_4e/output
I0403 16:20:48.611222 20975 net.cpp:141] Setting up inception_4e/output
I0403 16:20:48.611248 20975 net.cpp:148] Top shape: 24 832 14 14 (3913728)
I0403 16:20:48.611263 20975 net.cpp:156] Memory required for data: 1272557088
I0403 16:20:48.611277 20975 layer_factory.hpp:77] Creating layer pool4/3x3_s2
I0403 16:20:48.611295 20975 net.cpp:91] Creating Layer pool4/3x3_s2
I0403 16:20:48.611311 20975 net.cpp:425] pool4/3x3_s2 <- inception_4e/output
I0403 16:20:48.611328 20975 net.cpp:399] pool4/3x3_s2 -> pool4/3x3_s2
I0403 16:20:48.611395 20975 net.cpp:141] Setting up pool4/3x3_s2
I0403 16:20:48.611419 20975 net.cpp:148] Top shape: 24 832 7 7 (978432)
I0403 16:20:48.611433 20975 net.cpp:156] Memory required for data: 1276470816
I0403 16:20:48.611448 20975 layer_factory.hpp:77] Creating layer pool4/3x3_s2_pool4/3x3_s2_0_split
I0403 16:20:48.611466 20975 net.cpp:91] Creating Layer pool4/3x3_s2_pool4/3x3_s2_0_split
I0403 16:20:48.611482 20975 net.cpp:425] pool4/3x3_s2_pool4/3x3_s2_0_split <- pool4/3x3_s2
I0403 16:20:48.611500 20975 net.cpp:399] pool4/3x3_s2_pool4/3x3_s2_0_split -> pool4/3x3_s2_pool4/3x3_s2_0_split_0
I0403 16:20:48.611518 20975 net.cpp:399] pool4/3x3_s2_pool4/3x3_s2_0_split -> pool4/3x3_s2_pool4/3x3_s2_0_split_1
I0403 16:20:48.611538 20975 net.cpp:399] pool4/3x3_s2_pool4/3x3_s2_0_split -> pool4/3x3_s2_pool4/3x3_s2_0_split_2
I0403 16:20:48.611560 20975 net.cpp:399] pool4/3x3_s2_pool4/3x3_s2_0_split -> pool4/3x3_s2_pool4/3x3_s2_0_split_3
I0403 16:20:48.611657 20975 net.cpp:141] Setting up pool4/3x3_s2_pool4/3x3_s2_0_split
I0403 16:20:48.611680 20975 net.cpp:148] Top shape: 24 832 7 7 (978432)
I0403 16:20:48.611696 20975 net.cpp:148] Top shape: 24 832 7 7 (978432)
I0403 16:20:48.611711 20975 net.cpp:148] Top shape: 24 832 7 7 (978432)
I0403 16:20:48.611726 20975 net.cpp:148] Top shape: 24 832 7 7 (978432)
I0403 16:20:48.611738 20975 net.cpp:156] Memory required for data: 1292125728
I0403 16:20:48.611753 20975 layer_factory.hpp:77] Creating layer inception_5a/1x1
I0403 16:20:48.611775 20975 net.cpp:91] Creating Layer inception_5a/1x1
I0403 16:20:48.611793 20975 net.cpp:425] inception_5a/1x1 <- pool4/3x3_s2_pool4/3x3_s2_0_split_0
I0403 16:20:48.611814 20975 net.cpp:399] inception_5a/1x1 -> inception_5a/1x1
I0403 16:20:48.614665 20975 net.cpp:141] Setting up inception_5a/1x1
I0403 16:20:48.614692 20975 net.cpp:148] Top shape: 24 256 7 7 (301056)
I0403 16:20:48.614707 20975 net.cpp:156] Memory required for data: 1293329952
I0403 16:20:48.614725 20975 layer_factory.hpp:77] Creating layer inception_5a/relu_1x1
I0403 16:20:48.614744 20975 net.cpp:91] Creating Layer inception_5a/relu_1x1
I0403 16:20:48.614760 20975 net.cpp:425] inception_5a/relu_1x1 <- inception_5a/1x1
I0403 16:20:48.614776 20975 net.cpp:386] inception_5a/relu_1x1 -> inception_5a/1x1 (in-place)
I0403 16:20:48.615085 20975 net.cpp:141] Setting up inception_5a/relu_1x1
I0403 16:20:48.615110 20975 net.cpp:148] Top shape: 24 256 7 7 (301056)
I0403 16:20:48.615124 20975 net.cpp:156] Memory required for data: 1294534176
I0403 16:20:48.615139 20975 layer_factory.hpp:77] Creating layer inception_5a/3x3_reduce
I0403 16:20:48.615160 20975 net.cpp:91] Creating Layer inception_5a/3x3_reduce
I0403 16:20:48.615177 20975 net.cpp:425] inception_5a/3x3_reduce <- pool4/3x3_s2_pool4/3x3_s2_0_split_1
I0403 16:20:48.615197 20975 net.cpp:399] inception_5a/3x3_reduce -> inception_5a/3x3_reduce
I0403 16:20:48.617597 20975 net.cpp:141] Setting up inception_5a/3x3_reduce
I0403 16:20:48.617625 20975 net.cpp:148] Top shape: 24 160 7 7 (188160)
I0403 16:20:48.617640 20975 net.cpp:156] Memory required for data: 1295286816
I0403 16:20:48.617658 20975 layer_factory.hpp:77] Creating layer inception_5a/relu_3x3_reduce
I0403 16:20:48.617676 20975 net.cpp:91] Creating Layer inception_5a/relu_3x3_reduce
I0403 16:20:48.617691 20975 net.cpp:425] inception_5a/relu_3x3_reduce <- inception_5a/3x3_reduce
I0403 16:20:48.617709 20975 net.cpp:386] inception_5a/relu_3x3_reduce -> inception_5a/3x3_reduce (in-place)
I0403 16:20:48.617890 20975 net.cpp:141] Setting up inception_5a/relu_3x3_reduce
I0403 16:20:48.617914 20975 net.cpp:148] Top shape: 24 160 7 7 (188160)
I0403 16:20:48.617929 20975 net.cpp:156] Memory required for data: 1296039456
I0403 16:20:48.617943 20975 layer_factory.hpp:77] Creating layer inception_5a/3x3
I0403 16:20:48.617969 20975 net.cpp:91] Creating Layer inception_5a/3x3
I0403 16:20:48.617986 20975 net.cpp:425] inception_5a/3x3 <- inception_5a/3x3_reduce
I0403 16:20:48.618007 20975 net.cpp:399] inception_5a/3x3 -> inception_5a/3x3
I0403 16:20:48.622946 20975 net.cpp:141] Setting up inception_5a/3x3
I0403 16:20:48.622977 20975 net.cpp:148] Top shape: 24 320 7 7 (376320)
I0403 16:20:48.622999 20975 net.cpp:156] Memory required for data: 1297544736
I0403 16:20:48.623018 20975 layer_factory.hpp:77] Creating layer inception_5a/relu_3x3
I0403 16:20:48.623039 20975 net.cpp:91] Creating Layer inception_5a/relu_3x3
I0403 16:20:48.623059 20975 net.cpp:425] inception_5a/relu_3x3 <- inception_5a/3x3
I0403 16:20:48.623075 20975 net.cpp:386] inception_5a/relu_3x3 -> inception_5a/3x3 (in-place)
I0403 16:20:48.623364 20975 net.cpp:141] Setting up inception_5a/relu_3x3
I0403 16:20:48.623389 20975 net.cpp:148] Top shape: 24 320 7 7 (376320)
I0403 16:20:48.623404 20975 net.cpp:156] Memory required for data: 1299050016
I0403 16:20:48.623417 20975 layer_factory.hpp:77] Creating layer inception_5a/5x5_reduce
I0403 16:20:48.623440 20975 net.cpp:91] Creating Layer inception_5a/5x5_reduce
I0403 16:20:48.623457 20975 net.cpp:425] inception_5a/5x5_reduce <- pool4/3x3_s2_pool4/3x3_s2_0_split_2
I0403 16:20:48.623478 20975 net.cpp:399] inception_5a/5x5_reduce -> inception_5a/5x5_reduce
I0403 16:20:48.624701 20975 net.cpp:141] Setting up inception_5a/5x5_reduce
I0403 16:20:48.624730 20975 net.cpp:148] Top shape: 24 32 7 7 (37632)
I0403 16:20:48.624747 20975 net.cpp:156] Memory required for data: 1299200544
I0403 16:20:48.624765 20975 layer_factory.hpp:77] Creating layer inception_5a/relu_5x5_reduce
I0403 16:20:48.624783 20975 net.cpp:91] Creating Layer inception_5a/relu_5x5_reduce
I0403 16:20:48.624799 20975 net.cpp:425] inception_5a/relu_5x5_reduce <- inception_5a/5x5_reduce
I0403 16:20:48.624816 20975 net.cpp:386] inception_5a/relu_5x5_reduce -> inception_5a/5x5_reduce (in-place)
I0403 16:20:48.625125 20975 net.cpp:141] Setting up inception_5a/relu_5x5_reduce
I0403 16:20:48.625151 20975 net.cpp:148] Top shape: 24 32 7 7 (37632)
I0403 16:20:48.625165 20975 net.cpp:156] Memory required for data: 1299351072
I0403 16:20:48.625180 20975 layer_factory.hpp:77] Creating layer inception_5a/5x5
I0403 16:20:48.625203 20975 net.cpp:91] Creating Layer inception_5a/5x5
I0403 16:20:48.625221 20975 net.cpp:425] inception_5a/5x5 <- inception_5a/5x5_reduce
I0403 16:20:48.625241 20975 net.cpp:399] inception_5a/5x5 -> inception_5a/5x5
I0403 16:20:48.627043 20975 net.cpp:141] Setting up inception_5a/5x5
I0403 16:20:48.627084 20975 net.cpp:148] Top shape: 24 128 7 7 (150528)
I0403 16:20:48.627099 20975 net.cpp:156] Memory required for data: 1299953184
I0403 16:20:48.627130 20975 layer_factory.hpp:77] Creating layer inception_5a/relu_5x5
I0403 16:20:48.627151 20975 net.cpp:91] Creating Layer inception_5a/relu_5x5
I0403 16:20:48.627167 20975 net.cpp:425] inception_5a/relu_5x5 <- inception_5a/5x5
I0403 16:20:48.627185 20975 net.cpp:386] inception_5a/relu_5x5 -> inception_5a/5x5 (in-place)
I0403 16:20:48.627374 20975 net.cpp:141] Setting up inception_5a/relu_5x5
I0403 16:20:48.627398 20975 net.cpp:148] Top shape: 24 128 7 7 (150528)
I0403 16:20:48.627415 20975 net.cpp:156] Memory required for data: 1300555296
I0403 16:20:48.627430 20975 layer_factory.hpp:77] Creating layer inception_5a/pool
I0403 16:20:48.627449 20975 net.cpp:91] Creating Layer inception_5a/pool
I0403 16:20:48.627465 20975 net.cpp:425] inception_5a/pool <- pool4/3x3_s2_pool4/3x3_s2_0_split_3
I0403 16:20:48.627482 20975 net.cpp:399] inception_5a/pool -> inception_5a/pool
I0403 16:20:48.627554 20975 net.cpp:141] Setting up inception_5a/pool
I0403 16:20:48.627578 20975 net.cpp:148] Top shape: 24 832 7 7 (978432)
I0403 16:20:48.627591 20975 net.cpp:156] Memory required for data: 1304469024
I0403 16:20:48.627606 20975 layer_factory.hpp:77] Creating layer inception_5a/pool_proj
I0403 16:20:48.627629 20975 net.cpp:91] Creating Layer inception_5a/pool_proj
I0403 16:20:48.627646 20975 net.cpp:425] inception_5a/pool_proj <- inception_5a/pool
I0403 16:20:48.627667 20975 net.cpp:399] inception_5a/pool_proj -> inception_5a/pool_proj
I0403 16:20:48.629986 20975 net.cpp:141] Setting up inception_5a/pool_proj
I0403 16:20:48.630015 20975 net.cpp:148] Top shape: 24 128 7 7 (150528)
I0403 16:20:48.630033 20975 net.cpp:156] Memory required for data: 1305071136
I0403 16:20:48.630050 20975 layer_factory.hpp:77] Creating layer inception_5a/relu_pool_proj
I0403 16:20:48.630069 20975 net.cpp:91] Creating Layer inception_5a/relu_pool_proj
I0403 16:20:48.630087 20975 net.cpp:425] inception_5a/relu_pool_proj <- inception_5a/pool_proj
I0403 16:20:48.630105 20975 net.cpp:386] inception_5a/relu_pool_proj -> inception_5a/pool_proj (in-place)
I0403 16:20:48.630511 20975 net.cpp:141] Setting up inception_5a/relu_pool_proj
I0403 16:20:48.630537 20975 net.cpp:148] Top shape: 24 128 7 7 (150528)
I0403 16:20:48.630553 20975 net.cpp:156] Memory required for data: 1305673248
I0403 16:20:48.630566 20975 layer_factory.hpp:77] Creating layer inception_5a/output
I0403 16:20:48.630584 20975 net.cpp:91] Creating Layer inception_5a/output
I0403 16:20:48.630599 20975 net.cpp:425] inception_5a/output <- inception_5a/1x1
I0403 16:20:48.630615 20975 net.cpp:425] inception_5a/output <- inception_5a/3x3
I0403 16:20:48.630630 20975 net.cpp:425] inception_5a/output <- inception_5a/5x5
I0403 16:20:48.630646 20975 net.cpp:425] inception_5a/output <- inception_5a/pool_proj
I0403 16:20:48.630666 20975 net.cpp:399] inception_5a/output -> inception_5a/output
I0403 16:20:48.630715 20975 net.cpp:141] Setting up inception_5a/output
I0403 16:20:48.630741 20975 net.cpp:148] Top shape: 24 832 7 7 (978432)
I0403 16:20:48.630755 20975 net.cpp:156] Memory required for data: 1309586976
I0403 16:20:48.630769 20975 layer_factory.hpp:77] Creating layer inception_5a/output_inception_5a/output_0_split
I0403 16:20:48.630786 20975 net.cpp:91] Creating Layer inception_5a/output_inception_5a/output_0_split
I0403 16:20:48.630801 20975 net.cpp:425] inception_5a/output_inception_5a/output_0_split <- inception_5a/output
I0403 16:20:48.630818 20975 net.cpp:399] inception_5a/output_inception_5a/output_0_split -> inception_5a/output_inception_5a/output_0_split_0
I0403 16:20:48.630842 20975 net.cpp:399] inception_5a/output_inception_5a/output_0_split -> inception_5a/output_inception_5a/output_0_split_1
I0403 16:20:48.630862 20975 net.cpp:399] inception_5a/output_inception_5a/output_0_split -> inception_5a/output_inception_5a/output_0_split_2
I0403 16:20:48.630882 20975 net.cpp:399] inception_5a/output_inception_5a/output_0_split -> inception_5a/output_inception_5a/output_0_split_3
I0403 16:20:48.631000 20975 net.cpp:141] Setting up inception_5a/output_inception_5a/output_0_split
I0403 16:20:48.631024 20975 net.cpp:148] Top shape: 24 832 7 7 (978432)
I0403 16:20:48.631039 20975 net.cpp:148] Top shape: 24 832 7 7 (978432)
I0403 16:20:48.631055 20975 net.cpp:148] Top shape: 24 832 7 7 (978432)
I0403 16:20:48.631069 20975 net.cpp:148] Top shape: 24 832 7 7 (978432)
I0403 16:20:48.631083 20975 net.cpp:156] Memory required for data: 1325241888
I0403 16:20:48.631096 20975 layer_factory.hpp:77] Creating layer inception_5b/1x1
I0403 16:20:48.631119 20975 net.cpp:91] Creating Layer inception_5b/1x1
I0403 16:20:48.631136 20975 net.cpp:425] inception_5b/1x1 <- inception_5a/output_inception_5a/output_0_split_0
I0403 16:20:48.631157 20975 net.cpp:399] inception_5b/1x1 -> inception_5b/1x1
I0403 16:20:48.634953 20975 net.cpp:141] Setting up inception_5b/1x1
I0403 16:20:48.634989 20975 net.cpp:148] Top shape: 24 384 7 7 (451584)
I0403 16:20:48.635004 20975 net.cpp:156] Memory required for data: 1327048224
I0403 16:20:48.635022 20975 layer_factory.hpp:77] Creating layer inception_5b/relu_1x1
I0403 16:20:48.635040 20975 net.cpp:91] Creating Layer inception_5b/relu_1x1
I0403 16:20:48.635056 20975 net.cpp:425] inception_5b/relu_1x1 <- inception_5b/1x1
I0403 16:20:48.635076 20975 net.cpp:386] inception_5b/relu_1x1 -> inception_5b/1x1 (in-place)
I0403 16:20:48.635383 20975 net.cpp:141] Setting up inception_5b/relu_1x1
I0403 16:20:48.635411 20975 net.cpp:148] Top shape: 24 384 7 7 (451584)
I0403 16:20:48.635426 20975 net.cpp:156] Memory required for data: 1328854560
I0403 16:20:48.635442 20975 layer_factory.hpp:77] Creating layer inception_5b/3x3_reduce
I0403 16:20:48.635463 20975 net.cpp:91] Creating Layer inception_5b/3x3_reduce
I0403 16:20:48.635481 20975 net.cpp:425] inception_5b/3x3_reduce <- inception_5a/output_inception_5a/output_0_split_1
I0403 16:20:48.635504 20975 net.cpp:399] inception_5b/3x3_reduce -> inception_5b/3x3_reduce
I0403 16:20:48.638196 20975 net.cpp:141] Setting up inception_5b/3x3_reduce
I0403 16:20:48.638226 20975 net.cpp:148] Top shape: 24 192 7 7 (225792)
I0403 16:20:48.638242 20975 net.cpp:156] Memory required for data: 1329757728
I0403 16:20:48.638259 20975 layer_factory.hpp:77] Creating layer inception_5b/relu_3x3_reduce
I0403 16:20:48.638278 20975 net.cpp:91] Creating Layer inception_5b/relu_3x3_reduce
I0403 16:20:48.638294 20975 net.cpp:425] inception_5b/relu_3x3_reduce <- inception_5b/3x3_reduce
I0403 16:20:48.638314 20975 net.cpp:386] inception_5b/relu_3x3_reduce -> inception_5b/3x3_reduce (in-place)
I0403 16:20:48.638505 20975 net.cpp:141] Setting up inception_5b/relu_3x3_reduce
I0403 16:20:48.638531 20975 net.cpp:148] Top shape: 24 192 7 7 (225792)
I0403 16:20:48.638545 20975 net.cpp:156] Memory required for data: 1330660896
I0403 16:20:48.638559 20975 layer_factory.hpp:77] Creating layer inception_5b/3x3
I0403 16:20:48.638582 20975 net.cpp:91] Creating Layer inception_5b/3x3
I0403 16:20:48.638600 20975 net.cpp:425] inception_5b/3x3 <- inception_5b/3x3_reduce
I0403 16:20:48.638623 20975 net.cpp:399] inception_5b/3x3 -> inception_5b/3x3
I0403 16:20:48.645568 20975 net.cpp:141] Setting up inception_5b/3x3
I0403 16:20:48.645601 20975 net.cpp:148] Top shape: 24 384 7 7 (451584)
I0403 16:20:48.645617 20975 net.cpp:156] Memory required for data: 1332467232
I0403 16:20:48.645635 20975 layer_factory.hpp:77] Creating layer inception_5b/relu_3x3
I0403 16:20:48.645653 20975 net.cpp:91] Creating Layer inception_5b/relu_3x3
I0403 16:20:48.645671 20975 net.cpp:425] inception_5b/relu_3x3 <- inception_5b/3x3
I0403 16:20:48.645689 20975 net.cpp:386] inception_5b/relu_3x3 -> inception_5b/3x3 (in-place)
I0403 16:20:48.646003 20975 net.cpp:141] Setting up inception_5b/relu_3x3
I0403 16:20:48.646030 20975 net.cpp:148] Top shape: 24 384 7 7 (451584)
I0403 16:20:48.646046 20975 net.cpp:156] Memory required for data: 1334273568
I0403 16:20:48.646061 20975 layer_factory.hpp:77] Creating layer inception_5b/5x5_reduce
I0403 16:20:48.646103 20975 net.cpp:91] Creating Layer inception_5b/5x5_reduce
I0403 16:20:48.646122 20975 net.cpp:425] inception_5b/5x5_reduce <- inception_5a/output_inception_5a/output_0_split_2
I0403 16:20:48.646145 20975 net.cpp:399] inception_5b/5x5_reduce -> inception_5b/5x5_reduce
I0403 16:20:48.647474 20975 net.cpp:141] Setting up inception_5b/5x5_reduce
I0403 16:20:48.647502 20975 net.cpp:148] Top shape: 24 48 7 7 (56448)
I0403 16:20:48.647517 20975 net.cpp:156] Memory required for data: 1334499360
I0403 16:20:48.647536 20975 layer_factory.hpp:77] Creating layer inception_5b/relu_5x5_reduce
I0403 16:20:48.647555 20975 net.cpp:91] Creating Layer inception_5b/relu_5x5_reduce
I0403 16:20:48.647572 20975 net.cpp:425] inception_5b/relu_5x5_reduce <- inception_5b/5x5_reduce
I0403 16:20:48.647591 20975 net.cpp:386] inception_5b/relu_5x5_reduce -> inception_5b/5x5_reduce (in-place)
I0403 16:20:48.647990 20975 net.cpp:141] Setting up inception_5b/relu_5x5_reduce
I0403 16:20:48.648017 20975 net.cpp:148] Top shape: 24 48 7 7 (56448)
I0403 16:20:48.648032 20975 net.cpp:156] Memory required for data: 1334725152
I0403 16:20:48.648048 20975 layer_factory.hpp:77] Creating layer inception_5b/5x5
I0403 16:20:48.648069 20975 net.cpp:91] Creating Layer inception_5b/5x5
I0403 16:20:48.648087 20975 net.cpp:425] inception_5b/5x5 <- inception_5b/5x5_reduce
I0403 16:20:48.648105 20975 net.cpp:399] inception_5b/5x5 -> inception_5b/5x5
I0403 16:20:48.650267 20975 net.cpp:141] Setting up inception_5b/5x5
I0403 16:20:48.650295 20975 net.cpp:148] Top shape: 24 128 7 7 (150528)
I0403 16:20:48.650311 20975 net.cpp:156] Memory required for data: 1335327264
I0403 16:20:48.650329 20975 layer_factory.hpp:77] Creating layer inception_5b/relu_5x5
I0403 16:20:48.650351 20975 net.cpp:91] Creating Layer inception_5b/relu_5x5
I0403 16:20:48.650367 20975 net.cpp:425] inception_5b/relu_5x5 <- inception_5b/5x5
I0403 16:20:48.650385 20975 net.cpp:386] inception_5b/relu_5x5 -> inception_5b/5x5 (in-place)
I0403 16:20:48.650585 20975 net.cpp:141] Setting up inception_5b/relu_5x5
I0403 16:20:48.650610 20975 net.cpp:148] Top shape: 24 128 7 7 (150528)
I0403 16:20:48.650625 20975 net.cpp:156] Memory required for data: 1335929376
I0403 16:20:48.650640 20975 layer_factory.hpp:77] Creating layer inception_5b/pool
I0403 16:20:48.650661 20975 net.cpp:91] Creating Layer inception_5b/pool
I0403 16:20:48.650678 20975 net.cpp:425] inception_5b/pool <- inception_5a/output_inception_5a/output_0_split_3
I0403 16:20:48.650697 20975 net.cpp:399] inception_5b/pool -> inception_5b/pool
I0403 16:20:48.650775 20975 net.cpp:141] Setting up inception_5b/pool
I0403 16:20:48.650799 20975 net.cpp:148] Top shape: 24 832 7 7 (978432)
I0403 16:20:48.650813 20975 net.cpp:156] Memory required for data: 1339843104
I0403 16:20:48.650828 20975 layer_factory.hpp:77] Creating layer inception_5b/pool_proj
I0403 16:20:48.650851 20975 net.cpp:91] Creating Layer inception_5b/pool_proj
I0403 16:20:48.650869 20975 net.cpp:425] inception_5b/pool_proj <- inception_5b/pool
I0403 16:20:48.650890 20975 net.cpp:399] inception_5b/pool_proj -> inception_5b/pool_proj
I0403 16:20:48.653312 20975 net.cpp:141] Setting up inception_5b/pool_proj
I0403 16:20:48.653342 20975 net.cpp:148] Top shape: 24 128 7 7 (150528)
I0403 16:20:48.653358 20975 net.cpp:156] Memory required for data: 1340445216
I0403 16:20:48.653378 20975 layer_factory.hpp:77] Creating layer inception_5b/relu_pool_proj
I0403 16:20:48.653395 20975 net.cpp:91] Creating Layer inception_5b/relu_pool_proj
I0403 16:20:48.653412 20975 net.cpp:425] inception_5b/relu_pool_proj <- inception_5b/pool_proj
I0403 16:20:48.653432 20975 net.cpp:386] inception_5b/relu_pool_proj -> inception_5b/pool_proj (in-place)
I0403 16:20:48.653746 20975 net.cpp:141] Setting up inception_5b/relu_pool_proj
I0403 16:20:48.653774 20975 net.cpp:148] Top shape: 24 128 7 7 (150528)
I0403 16:20:48.653789 20975 net.cpp:156] Memory required for data: 1341047328
I0403 16:20:48.653803 20975 layer_factory.hpp:77] Creating layer inception_5b/output
I0403 16:20:48.653821 20975 net.cpp:91] Creating Layer inception_5b/output
I0403 16:20:48.653852 20975 net.cpp:425] inception_5b/output <- inception_5b/1x1
I0403 16:20:48.653870 20975 net.cpp:425] inception_5b/output <- inception_5b/3x3
I0403 16:20:48.653887 20975 net.cpp:425] inception_5b/output <- inception_5b/5x5
I0403 16:20:48.653903 20975 net.cpp:425] inception_5b/output <- inception_5b/pool_proj
I0403 16:20:48.653923 20975 net.cpp:399] inception_5b/output -> inception_5b/output
I0403 16:20:48.653982 20975 net.cpp:141] Setting up inception_5b/output
I0403 16:20:48.654009 20975 net.cpp:148] Top shape: 24 1024 7 7 (1204224)
I0403 16:20:48.654026 20975 net.cpp:156] Memory required for data: 1345864224
I0403 16:20:48.654041 20975 layer_factory.hpp:77] Creating layer pool5/7x7_s1
I0403 16:20:48.654057 20975 net.cpp:91] Creating Layer pool5/7x7_s1
I0403 16:20:48.654074 20975 net.cpp:425] pool5/7x7_s1 <- inception_5b/output
I0403 16:20:48.654094 20975 net.cpp:399] pool5/7x7_s1 -> pool5/7x7_s1
I0403 16:20:48.654320 20975 net.cpp:141] Setting up pool5/7x7_s1
I0403 16:20:48.654346 20975 net.cpp:148] Top shape: 24 1024 1 1 (24576)
I0403 16:20:48.654361 20975 net.cpp:156] Memory required for data: 1345962528
I0403 16:20:48.654376 20975 layer_factory.hpp:77] Creating layer pool5/drop_7x7_s1
I0403 16:20:48.654393 20975 net.cpp:91] Creating Layer pool5/drop_7x7_s1
I0403 16:20:48.654409 20975 net.cpp:425] pool5/drop_7x7_s1 <- pool5/7x7_s1
I0403 16:20:48.654429 20975 net.cpp:386] pool5/drop_7x7_s1 -> pool5/7x7_s1 (in-place)
I0403 16:20:48.654484 20975 net.cpp:141] Setting up pool5/drop_7x7_s1
I0403 16:20:48.654507 20975 net.cpp:148] Top shape: 24 1024 1 1 (24576)
I0403 16:20:48.654521 20975 net.cpp:156] Memory required for data: 1346060832
I0403 16:20:48.654536 20975 layer_factory.hpp:77] Creating layer loss3/classifier_plantvillage
I0403 16:20:48.654556 20975 net.cpp:91] Creating Layer loss3/classifier_plantvillage
I0403 16:20:48.654572 20975 net.cpp:425] loss3/classifier_plantvillage <- pool5/7x7_s1
I0403 16:20:48.654593 20975 net.cpp:399] loss3/classifier_plantvillage -> loss3/classifier_plantvillage
I0403 16:20:48.655045 20975 net.cpp:141] Setting up loss3/classifier_plantvillage
I0403 16:20:48.655071 20975 net.cpp:148] Top shape: 24 38 (912)
I0403 16:20:48.655084 20975 net.cpp:156] Memory required for data: 1346064480
I0403 16:20:48.655102 20975 layer_factory.hpp:77] Creating layer loss3/classifier_plantvillage_loss3/classifier_plantvillage_0_split
I0403 16:20:48.655124 20975 net.cpp:91] Creating Layer loss3/classifier_plantvillage_loss3/classifier_plantvillage_0_split
I0403 16:20:48.655143 20975 net.cpp:425] loss3/classifier_plantvillage_loss3/classifier_plantvillage_0_split <- loss3/classifier_plantvillage
I0403 16:20:48.655163 20975 net.cpp:399] loss3/classifier_plantvillage_loss3/classifier_plantvillage_0_split -> loss3/classifier_plantvillage_loss3/classifier_plantvillage_0_split_0
I0403 16:20:48.655184 20975 net.cpp:399] loss3/classifier_plantvillage_loss3/classifier_plantvillage_0_split -> loss3/classifier_plantvillage_loss3/classifier_plantvillage_0_split_1
I0403 16:20:48.655205 20975 net.cpp:399] loss3/classifier_plantvillage_loss3/classifier_plantvillage_0_split -> loss3/classifier_plantvillage_loss3/classifier_plantvillage_0_split_2
I0403 16:20:48.655225 20975 net.cpp:399] loss3/classifier_plantvillage_loss3/classifier_plantvillage_0_split -> loss3/classifier_plantvillage_loss3/classifier_plantvillage_0_split_3
I0403 16:20:48.655330 20975 net.cpp:141] Setting up loss3/classifier_plantvillage_loss3/classifier_plantvillage_0_split
I0403 16:20:48.655354 20975 net.cpp:148] Top shape: 24 38 (912)
I0403 16:20:48.655372 20975 net.cpp:148] Top shape: 24 38 (912)
I0403 16:20:48.655387 20975 net.cpp:148] Top shape: 24 38 (912)
I0403 16:20:48.655402 20975 net.cpp:148] Top shape: 24 38 (912)
I0403 16:20:48.655416 20975 net.cpp:156] Memory required for data: 1346079072
I0403 16:20:48.655431 20975 layer_factory.hpp:77] Creating layer loss1/loss
I0403 16:20:48.655452 20975 net.cpp:91] Creating Layer loss1/loss
I0403 16:20:48.655470 20975 net.cpp:425] loss1/loss <- loss1/classifier_plantvillage_loss1/classifier_plantvillage_0_split_0
I0403 16:20:48.655500 20975 net.cpp:425] loss1/loss <- label_data_1_split_0
…
