…
I0403 16:22:51.756683 21009 net.cpp:313] The NetState phase (1) differed from the phase (0) specified by a rule in layer data
I0403 16:22:51.757813 21009 net.cpp:49] Initializing net from parameters: 
state {
  phase: TEST
}
layer {
  name: "data"
  type: "Data"
  top: "data"
  top: "label"
  include {
    phase: TEST
  }
  transform_param {
    mirror: false
    crop_size: 224
    mean_file: "/home/mohanty/data/final_dataset/lmdb/color-40-60/mean.binaryproto"
  }
  data_param {
    source: "/home/mohanty/data/final_dataset/lmdb/color-40-60/test_db"
    batch_size: 24
    backend: LMDB
  }
}
layer {
  name: "conv1/7x7_s2"
  type: "Convolution"
  bottom: "data"
  top: "conv1/7x7_s2"
  param {
    lr_mult: 1
    decay_mult: 1
  }
  param {
    lr_mult: 2
    decay_mult: 0
  }
  convolution_param {
    num_output: 64
    pad: 3
    kernel_size: 7
    stride: 2
    weight_filler {
      type: "xavier"
      std: 0.1
    }
    bias_filler {
      type: "constant"
      value: 0.2
    }
  }
}
layer {
  name: "conv1/relu_7x7"
  type: "ReLU"
  bottom: "conv1/7x7_s2"
  top: "conv1/7x7_s2"
}
layer {
  name: "pool1/3x3_s2"
  type: "Pooling"
  bottom: "conv1/7x7_s2"
  top: "pool1/3x3_s2"
  pooling_param {
    pool: MAX
    kernel_size: 3
    stride: 2
  }
}
layer {
  name: "pool1/norm1"
  type: "LRN"
  bottom: "pool1/3x3_s2"
  top: "pool1/norm1"
  lrn_param {
    local_size: 5
    alpha: 0.0001
    beta: 0.75
  }
}
layer {
  name: "conv2/3x3_reduce"
  type: "Convolution"
  bottom: "pool1/norm1"
  top: "conv2/3x3_reduce"
  param {
    lr_mult: 1
    decay_mult: 1
  }
  param {
    lr_mult: 2
    decay_mult: 0
  }
  convolution_param {
    num_output: 64
    kernel_size: 1
    weight_filler {
      type: "xavier"
      std: 0.1
    }
    bias_filler {
      type: "constant"
      value: 0.2
    }
  }
}
layer {
  name: "conv2/relu_3x3_reduce"
  type: "ReLU"
  bottom: "conv2/3x3_reduce"
  top: "conv2/3x3_reduce"
}
layer {
  name: "conv2/3x3"
  type: "Convolution"
  bottom: "conv2/3x3_reduce"
  top: "conv2/3x3"
  param {
    lr_mult: 1
    decay_mult: 1
  }
  param {
    lr_mult: 2
    decay_mult: 0
  }
  convolution_param {
    num_output: 192
    pad: 1
    kernel_size: 3
    weight_filler {
      type: "xavier"
      std: 0.03
    }
    bias_filler {
      type: "constant"
      value: 0.2
    }
  }
}
layer {
  name: "conv2/relu_3x3"
  type: "ReLU"
  bottom: "conv2/3x3"
  top: "conv2/3x3"
}
layer {
  name: "conv2/norm2"
  type: "LRN"
  bottom: "conv2/3x3"
  top: "conv2/norm2"
  lrn_param {
    local_size: 5
    alpha: 0.0001
    beta: 0.75
  }
}
layer {
  name: "pool2/3x3_s2"
  type: "Pooling"
  bottom: "conv2/norm2"
  top: "pool2/3x3_s2"
  pooling_param {
    pool: MAX
    kernel_size: 3
    stride: 2
  }
}
layer {
  name: "inception_3a/1x1"
  type: "Convolution"
  bottom: "pool2/3x3_s2"
  top: "inception_3a/1x1"
  param {
    lr_mult: 1
    decay_mult: 1
  }
  param {
    lr_mult: 2
    decay_mult: 0
  }
  convolution_param {
    num_output: 64
    kernel_size: 1
    weight_filler {
      type: "xavier"
      std: 0.03
    }
    bias_filler {
      type: "constant"
      value: 0.2
    }
  }
}
layer {
  name: "inception_3a/relu_1x1"
  type: "ReLU"
  bottom: "inception_3a/1x1"
  top: "inception_3a/1x1"
}
layer {
  name: "inception_3a/3x3_reduce"
  type: "Convolution"
  bottom: "pool2/3x3_s2"
  top: "inception_3a/3x3_reduce"
  param {
    lr_mult: 1
    decay_mult: 1
  }
  param {
    lr_mult: 2
    decay_mult: 0
  }
  convolution_param {
    num_output: 96
    kernel_size: 1
    weight_filler {
      type: "xavier"
      std: 0.09
    }
    bias_filler {
      type: "constant"
      value: 0.2
    }
  }
}
layer {
  name: "inception_3a/relu_3x3_reduce"
  type: "ReLU"
  bottom: "inception_3a/3x3_reduce"
  top: "inception_3a/3x3_reduce"
}
layer {
  name: "inception_3a/3x3"
  type: "Convolution"
  bottom: "inception_3a/3x3_reduce"
  top: "inception_3a/3x3"
  param {
    lr_mult: 1
    decay_mult: 1
  }
  param {
    lr_mult: 2
    decay_mult: 0
  }
  convolution_param {
    num_output: 128
    pad: 1
    kernel_size: 3
    weight_filler {
      type: "xavier"
      std: 0.03
    }
    bias_filler {
      type: "constant"
      value: 0.2
    }
  }
}
layer {
  name: "inception_3a/relu_3x3"
  type: "ReLU"
  bottom: "inception_3a/3x3"
  top: "inception_3a/3x3"
}
layer {
  name: "inception_3a/5x5_reduce"
  type: "Convolution"
  bottom: "pool2/3x3_s2"
  top: "inception_3a/5x5_reduce"
  param {
    lr_mult: 1
    decay_mult: 1
  }
  param {
    lr_mult: 2
    decay_mult: 0
  }
  convolution_param {
    num_output: 16
    kernel_size: 1
    weight_filler {
      type: "xavier"
      std: 0.2
    }
    bias_filler {
      type: "constant"
      value: 0.2
    }
  }
}
layer {
  name: "inception_3a/relu_5x5_reduce"
  type: "ReLU"
  bottom: "inception_3a/5x5_reduce"
  top: "inception_3a/5x5_reduce"
}
layer {
  name: "inception_3a/5x5"
  type: "Convolution"
  bottom: "inception_3a/5x5_reduce"
  top: "inception_3a/5x5"
  param {
    lr_mult: 1
    decay_mult: 1
  }
  param {
    lr_mult: 2
    decay_mult: 0
  }
  convolution_param {
    num_output: 32
    pad: 2
    kernel_size: 5
    weight_filler {
      type: "xavier"
      std: 0.03
    }
    bias_filler {
      type: "constant"
      value: 0.2
    }
  }
}
layer {
  name: "inception_3a/relu_5x5"
  type: "ReLU"
  bottom: "inception_3a/5x5"
  top: "inception_3a/5x5"
}
layer {
  name: "inception_3a/pool"
  type: "Pooling"
  bottom: "pool2/3x3_s2"
  top: "inception_3a/pool"
  pooling_param {
    pool: MAX
    kernel_size: 3
    stride: 1
    pad: 1
  }
}
layer {
  name: "inception_3a/pool_proj"
  type: "Convolution"
  bottom: "inception_3a/pool"
  top: "inception_3a/pool_proj"
  param {
    lr_mult: 1
    decay_mult: 1
  }
  param {
    lr_mult: 2
    decay_mult: 0
  }
  convolution_param {
    num_output: 32
    kernel_size: 1
    weight_filler {
      type: "xavier"
      std: 0.1
    }
    bias_filler {
      type: "constant"
      value: 0.2
    }
  }
}
layer {
  name: "inception_3a/relu_pool_proj"
  type: "ReLU"
  bottom: "inception_3a/pool_proj"
  top: "inception_3a/pool_proj"
}
layer {
  name: "inception_3a/output"
  type: "Concat"
  bottom: "inception_3a/1x1"
  bottom: "inception_3a/3x3"
  bottom: "inception_3a/5x5"
  bottom: "inception_3a/pool_proj"
  top: "inception_3a/output"
}
layer {
  name: "inception_3b/1x1"
  type: "Convolution"
  bottom: "inception_3a/output"
  top: "inception_3b/1x1"
  param {
    lr_mult: 1
    decay_mult: 1
  }
  param {
    lr_mult: 2
    decay_mult: 0
  }
  convolution_param {
    num_output: 128
    kernel_size: 1
    weight_filler {
      type: "xavier"
      std: 0.03
    }
    bias_filler {
      type: "constant"
      value: 0.2
    }
  }
}
layer {
  name: "inception_3b/relu_1x1"
  type: "ReLU"
  bottom: "inception_3b/1x1"
  top: "inception_3b/1x1"
}
layer {
  name: "inception_3b/3x3_reduce"
  type: "Convolution"
  bottom: "inception_3a/output"
  top: "inception_3b/3x3_reduce"
  param {
    lr_mult: 1
    decay_mult: 1
  }
  param {
    lr_mult: 2
    decay_mult: 0
  }
  convolution_param {
    num_output: 128
    kernel_size: 1
    weight_filler {
      type: "xavier"
      std: 0.09
    }
    bias_filler {
      type: "constant"
      value: 0.2
    }
  }
}
layer {
  name: "inception_3b/relu_3x3_reduce"
  type: "ReLU"
  bottom: "inception_3b/3x3_reduce"
  top: "inception_3b/3x3_reduce"
}
layer {
  name: "inception_3b/3x3"
  type: "Convolution"
  bottom: "inception_3b/3x3_reduce"
  top: "inception_3b/3x3"
  param {
    lr_mult: 1
    decay_mult: 1
  }
  param {
    lr_mult: 2
    decay_mult: 0
  }
  convolution_param {
    num_output: 192
    pad: 1
    kernel_size: 3
    weight_filler {
      type: "xavier"
      std: 0.03
    }
    bias_filler {
      type: "constant"
      value: 0.2
    }
  }
}
layer {
  name: "inception_3b/relu_3x3"
  type: "ReLU"
  bottom: "inception_3b/3x3"
  top: "inception_3b/3x3"
}
layer {
  name: "inception_3b/5x5_reduce"
  type: "Convolution"
  bottom: "inception_3a/output"
  top: "inception_3b/5x5_reduce"
  param {
    lr_mult: 1
    decay_mult: 1
  }
  param {
    lr_mult: 2
    decay_mult: 0
  }
  convolution_param {
    num_output: 32
    kernel_size: 1
    weight_filler {
      type: "xavier"
      std: 0.2
    }
    bias_filler {
      type: "constant"
      value: 0.2
    }
  }
}
layer {
  name: "inception_3b/relu_5x5_reduce"
  type: "ReLU"
  bottom: "inception_3b/5x5_reduce"
  top: "inception_3b/5x5_reduce"
}
layer {
  name: "inception_3b/5x5"
  type: "Convolution"
  bottom: "inception_3b/5x5_reduce"
  top: "inception_3b/5x5"
  param {
    lr_mult: 1
    decay_mult: 1
  }
  param {
    lr_mult: 2
    decay_mult: 0
  }
  convolution_param {
    num_output: 96
    pad: 2
    kernel_size: 5
    weight_filler {
      type: "xavier"
      std: 0.03
    }
    bias_filler {
      type: "constant"
      value: 0.2
    }
  }
}
layer {
  name: "inception_3b/relu_5x5"
  type: "ReLU"
  bottom: "inception_3b/5x5"
  top: "inception_3b/5x5"
}
layer {
  name: "inception_3b/pool"
  type: "Pooling"
  bottom: "inception_3a/output"
  top: "inception_3b/pool"
  pooling_param {
    pool: MAX
    kernel_size: 3
    stride: 1
    pad: 1
  }
}
layer {
  name: "inception_3b/pool_proj"
  type: "Convolution"
  bottom: "inception_3b/pool"
  top: "inception_3b/pool_proj"
  param {
    lr_mult: 1
    decay_mult: 1
  }
  param {
    lr_mult: 2
    decay_mult: 0
  }
  convolution_param {
    num_output: 64
    kernel_size: 1
    weight_filler {
      type: "xavier"
      std: 0.1
    }
    bias_filler {
      type: "constant"
      value: 0.2
    }
  }
}
layer {
  name: "inception_3b/relu_pool_proj"
  type: "ReLU"
  bottom: "inception_3b/pool_proj"
  top: "inception_3b/pool_proj"
}
layer {
  name: "inception_3b/output"
  type: "Concat"
  bottom: "inception_3b/1x1"
  bottom: "inception_3b/3x3"
  bottom: "inception_3b/5x5"
  bottom: "inception_3b/pool_proj"
  top: "inception_3b/output"
}
layer {
  name: "pool3/3x3_s2"
  type: "Pooling"
  bottom: "inception_3b/output"
  top: "pool3/3x3_s2"
  pooling_param {
    pool: MAX
    kernel_size: 3
    stride: 2
  }
}
layer {
  name: "inception_4a/1x1"
  type: "Convolution"
  bottom: "pool3/3x3_s2"
  top: "inception_4a/1x1"
  param {
    lr_mult: 1
    decay_mult: 1
  }
  param {
    lr_mult: 2
    decay_mult: 0
  }
  convolution_param {
    num_output: 192
    kernel_size: 1
    weight_filler {
      type: "xavier"
      std: 0.03
    }
    bias_filler {
      type: "constant"
      value: 0.2
    }
  }
}
layer {
  name: "inception_4a/relu_1x1"
  type: "ReLU"
  bottom: "inception_4a/1x1"
  top: "inception_4a/1x1"
}
layer {
  name: "inception_4a/3x3_reduce"
  type: "Convolution"
  bottom: "pool3/3x3_s2"
  top: "inception_4a/3x3_reduce"
  param {
    lr_mult: 1
    decay_mult: 1
  }
  param {
    lr_mult: 2
    decay_mult: 0
  }
  convolution_param {
    num_output: 96
    kernel_size: 1
    weight_filler {
      type: "xavier"
      std: 0.09
    }
    bias_filler {
      type: "constant"
      value: 0.2
    }
  }
}
layer {
  name: "inception_4a/relu_3x3_reduce"
  type: "ReLU"
  bottom: "inception_4a/3x3_reduce"
  top: "inception_4a/3x3_reduce"
}
layer {
  name: "inception_4a/3x3"
  type: "Convolution"
  bottom: "inception_4a/3x3_reduce"
  top: "inception_4a/3x3"
  param {
    lr_mult: 1
    decay_mult: 1
  }
  param {
    lr_mult: 2
    decay_mult: 0
  }
  convolution_param {
    num_output: 208
    pad: 1
    kernel_size: 3
    weight_filler {
      type: "xavier"
      std: 0.03
    }
    bias_filler {
      type: "constant"
      value: 0.2
    }
  }
}
layer {
  name: "inception_4a/relu_3x3"
  type: "ReLU"
  bottom: "inception_4a/3x3"
  top: "inception_4a/3x3"
}
layer {
  name: "inception_4a/5x5_reduce"
  type: "Convolution"
  bottom: "pool3/3x3_s2"
  top: "inception_4a/5x5_reduce"
  param {
    lr_mult: 1
    decay_mult: 1
  }
  param {
    lr_mult: 2
    decay_mult: 0
  }
  convolution_param {
    num_output: 16
    kernel_size: 1
    weight_filler {
      type: "xavier"
      std: 0.2
    }
    bias_filler {
      type: "constant"
      value: 0.2
    }
  }
}
layer {
  name: "inception_4a/relu_5x5_reduce"
  type: "ReLU"
  bottom: "inception_4a/5x5_reduce"
  top: "inception_4a/5x5_reduce"
}
layer {
  name: "inception_4a/5x5"
  type: "Convolution"
  bottom: "inception_4a/5x5_reduce"
  top: "inception_4a/5x5"
  param {
    lr_mult: 1
    decay_mult: 1
  }
  param {
    lr_mult: 2
    decay_mult: 0
  }
  convolution_param {
    num_output: 48
    pad: 2
    kernel_size: 5
    weight_filler {
      type: "xavier"
      std: 0.03
    }
    bias_filler {
      type: "constant"
      value: 0.2
    }
  }
}
layer {
  name: "inception_4a/relu_5x5"
  type: "ReLU"
  bottom: "inception_4a/5x5"
  top: "inception_4a/5x5"
}
layer {
  name: "inception_4a/pool"
  type: "Pooling"
  bottom: "pool3/3x3_s2"
  top: "inception_4a/pool"
  pooling_param {
    pool: MAX
    kernel_size: 3
    stride: 1
    pad: 1
  }
}
layer {
  name: "inception_4a/pool_proj"
  type: "Convolution"
  bottom: "inception_4a/pool"
  top: "inception_4a/pool_proj"
  param {
    lr_mult: 1
    decay_mult: 1
  }
  param {
    lr_mult: 2
    decay_mult: 0
  }
  convolution_param {
    num_output: 64
    kernel_size: 1
    weight_filler {
      type: "xavier"
      std: 0.1
    }
    bias_filler {
      type: "constant"
      value: 0.2
    }
  }
}
layer {
  name: "inception_4a/relu_pool_proj"
  type: "ReLU"
  bottom: "inception_4a/pool_proj"
  top: "inception_4a/pool_proj"
}
layer {
  name: "inception_4a/output"
  type: "Concat"
  bottom: "inception_4a/1x1"
  bottom: "inception_4a/3x3"
  bottom: "inception_4a/5x5"
  bottom: "inception_4a/pool_proj"
  top: "inception_4a/output"
}
layer {
  name: "loss1/ave_pool"
  type: "Pooling"
  bottom: "inception_4a/output"
  top: "loss1/ave_pool"
  pooling_param {
    pool: AVE
    kernel_size: 5
    stride: 3
  }
}
layer {
  name: "loss1/conv"
  type: "Convolution"
  bottom: "loss1/ave_pool"
  top: "loss1/conv"
  param {
    lr_mult: 1
    decay_mult: 1
  }
  param {
    lr_mult: 2
    decay_mult: 0
  }
  convolution_param {
    num_output: 128
    kernel_size: 1
    weight_filler {
      type: "xavier"
      std: 0.08
    }
    bias_filler {
      type: "constant"
      value: 0.2
    }
  }
}
layer {
  name: "loss1/relu_conv"
  type: "ReLU"
  bottom: "loss1/conv"
  top: "loss1/conv"
}
layer {
  name: "loss1/fc"
  type: "InnerProduct"
  bottom: "loss1/conv"
  top: "loss1/fc"
  param {
    lr_mult: 1
    decay_mult: 1
  }
  param {
    lr_mult: 2
    decay_mult: 0
  }
  inner_product_param {
    num_output: 1024
    weight_filler {
      type: "xavier"
      std: 0.02
    }
    bias_filler {
      type: "constant"
      value: 0.2
    }
  }
}
layer {
  name: "loss1/relu_fc"
  type: "ReLU"
  bottom: "loss1/fc"
  top: "loss1/fc"
}
layer {
  name: "loss1/drop_fc"
  type: "Dropout"
  bottom: "loss1/fc"
  top: "loss1/fc"
  dropout_param {
    dropout_ratio: 0.7
  }
}
layer {
  name: "loss1/classifier_plantvillage"
  type: "InnerProduct"
  bottom: "loss1/fc"
  top: "loss1/classifier_plantvillage"
  param {
    lr_mult: 1
    decay_mult: 1
  }
  param {
    lr_mult: 2
    decay_mult: 0
  }
  inner_product_param {
    num_output: 38
    weight_filler {
      type: "xavier"
      std: 0.0009765625
    }
    bias_filler {
      type: "constant"
      value: 0
    }
  }
}
layer {
  name: "inception_4b/1x1"
  type: "Convolution"
  bottom: "inception_4a/output"
  top: "inception_4b/1x1"
  param {
    lr_mult: 1
    decay_mult: 1
  }
  param {
    lr_mult: 2
    decay_mult: 0
  }
  convolution_param {
    num_output: 160
    kernel_size: 1
    weight_filler {
      type: "xavier"
      std: 0.03
    }
    bias_filler {
      type: "constant"
      value: 0.2
    }
  }
}
layer {
  name: "inception_4b/relu_1x1"
  type: "ReLU"
  bottom: "inception_4b/1x1"
  top: "inception_4b/1x1"
}
layer {
  name: "inception_4b/3x3_reduce"
  type: "Convolution"
  bottom: "inception_4a/output"
  top: "inception_4b/3x3_reduce"
  param {
    lr_mult: 1
    decay_mult: 1
  }
  param {
    lr_mult: 2
    decay_mult: 0
  }
  convolution_param {
    num_output: 112
    kernel_size: 1
    weight_filler {
      type: "xavier"
      std: 0.09
    }
    bias_filler {
      type: "constant"
      value: 0.2
    }
  }
}
layer {
  name: "inception_4b/relu_3x3_reduce"
  type: "ReLU"
  bottom: "inception_4b/3x3_reduce"
  top: "inception_4b/3x3_reduce"
}
layer {
  name: "inception_4b/3x3"
  type: "Convolution"
  bottom: "inception_4b/3x3_reduce"
  top: "inception_4b/3x3"
  param {
    lr_mult: 1
    decay_mult: 1
  }
  param {
    lr_mult: 2
    decay_mult: 0
  }
  convolution_param {
    num_output: 224
    pad: 1
    kernel_size: 3
    weight_filler {
      type: "xavier"
      std: 0.03
    }
    bias_filler {
      type: "constant"
      value: 0.2
    }
  }
}
layer {
  name: "inception_4b/relu_3x3"
  type: "ReLU"
  bottom: "inception_4b/3x3"
  top: "inception_4b/3x3"
}
layer {
  name: "inception_4b/5x5_reduce"
  type: "Convolution"
  bottom: "inception_4a/output"
  top: "inception_4b/5x5_reduce"
  param {
    lr_mult: 1
    decay_mult: 1
  }
  param {
    lr_mult: 2
    decay_mult: 0
  }
  convolution_param {
    num_output: 24
    kernel_size: 1
    weight_filler {
      type: "xavier"
      std: 0.2
    }
    bias_filler {
      type: "constant"
      value: 0.2
    }
  }
}
layer {
  name: "inception_4b/relu_5x5_reduce"
  type: "ReLU"
  bottom: "inception_4b/5x5_reduce"
  top: "inception_4b/5x5_reduce"
}
layer {
  name: "inception_4b/5x5"
  type: "Convolution"
  bottom: "inception_4b/5x5_reduce"
  top: "inception_4b/5x5"
  param {
    lr_mult: 1
    decay_mult: 1
  }
  param {
    lr_mult: 2
    decay_mult: 0
  }
  convolution_param {
    num_output: 64
    pad: 2
    kernel_size: 5
    weight_filler {
      type: "xavier"
      std: 0.03
    }
    bias_filler {
      type: "constant"
      value: 0.2
    }
  }
}
layer {
  name: "inception_4b/relu_5x5"
  type: "ReLU"
  bottom: "inception_4b/5x5"
  top: "inception_4b/5x5"
}
layer {
  name: "inception_4b/pool"
  type: "Pooling"
  bottom: "inception_4a/output"
  top: "inception_4b/pool"
  pooling_param {
    pool: MAX
    kernel_size: 3
    stride: 1
    pad: 1
  }
}
layer {
  name: "inception_4b/pool_proj"
  type: "Convolution"
  bottom: "inception_4b/pool"
  top: "inception_4b/pool_proj"
  param {
    lr_mult: 1
    decay_mult: 1
  }
  param {
    lr_mult: 2
    decay_mult: 0
  }
  convolution_param {
    num_output: 64
    kernel_size: 1
    weight_filler {
      type: "xavier"
      std: 0.1
    }
    bias_filler {
      type: "constant"
      value: 0.2
    }
  }
}
layer {
  name: "inception_4b/relu_pool_proj"
  type: "ReLU"
  bottom: "inception_4b/pool_proj"
  top: "inception_4b/pool_proj"
}
layer {
  name: "inception_4b/output"
  type: "Concat"
  bottom: "inception_4b/1x1"
  bottom: "inception_4b/3x3"
  bottom: "inception_4b/5x5"
  bottom: "inception_4b/pool_proj"
  top: "inception_4b/output"
}
layer {
  name: "inception_4c/1x1"
  type: "Convolution"
  bottom: "inception_4b/output"
  top: "inception_4c/1x1"
  param {
    lr_mult: 1
    decay_mult: 1
  }
  param {
    lr_mult: 2
    decay_mult: 0
  }
  convolution_param {
    num_output: 128
    kernel_size: 1
    weight_filler {
      type: "xavier"
      std: 0.03
    }
    bias_filler {
      type: "constant"
      value: 0.2
    }
  }
}
layer {
  name: "inception_4c/relu_1x1"
  type: "ReLU"
  bottom: "inception_4c/1x1"
  top: "inception_4c/1x1"
}
layer {
  name: "inception_4c/3x3_reduce"
  type: "Convolution"
  bottom: "inception_4b/output"
  top: "inception_4c/3x3_reduce"
  param {
    lr_mult: 1
    decay_mult: 1
  }
  param {
    lr_mult: 2
    decay_mult: 0
  }
  convolution_param {
    num_output: 128
    kernel_size: 1
    weight_filler {
      type: "xavier"
      std: 0.09
    }
    bias_filler {
      type: "constant"
      value: 0.2
    }
  }
}
layer {
  name: "inception_4c/relu_3x3_reduce"
  type: "ReLU"
  bottom: "inception_4c/3x3_reduce"
  top: "inception_4c/3x3_reduce"
}
layer {
  name: "inception_4c/3x3"
  type: "Convolution"
  bottom: "inception_4c/3x3_reduce"
  top: "inception_4c/3x3"
  param {
    lr_mult: 1
    decay_mult: 1
  }
  param {
    lr_mult: 2
    decay_mult: 0
  }
  convolution_param {
    num_output: 256
    pad: 1
    kernel_size: 3
    weight_filler {
      type: "xavier"
      std: 0.03
    }
    bias_filler {
      type: "constant"
      value: 0.2
    }
  }
}
layer {
  name: "inception_4c/relu_3x3"
  type: "ReLU"
  bottom: "inception_4c/3x3"
  top: "inception_4c/3x3"
}
layer {
  name: "inception_4c/5x5_reduce"
  type: "Convolution"
  bottom: "inception_4b/output"
  top: "inception_4c/5x5_reduce"
  param {
    lr_mult: 1
    decay_mult: 1
  }
  param {
    lr_mult: 2
    decay_mult: 0
  }
  convolution_param {
    num_output: 24
    kernel_size: 1
    weight_filler {
      type: "xavier"
      std: 0.2
    }
    bias_filler {
      type: "constant"
      value: 0.2
    }
  }
}
layer {
  name: "inception_4c/relu_5x5_reduce"
  type: "ReLU"
  bottom: "inception_4c/5x5_reduce"
  top: "inception_4c/5x5_reduce"
}
layer {
  name: "inception_4c/5x5"
  type: "Convolution"
  bottom: "inception_4c/5x5_reduce"
  top: "inception_4c/5x5"
  param {
    lr_mult: 1
    decay_mult: 1
  }
  param {
    lr_mult: 2
    decay_mult: 0
  }
  convolution_param {
    num_output: 64
    pad: 2
    kernel_size: 5
    weight_filler {
      type: "xavier"
      std: 0.03
    }
    bias_filler {
      type: "constant"
      value: 0.2
    }
  }
}
layer {
  name: "inception_4c/relu_5x5"
  type: "ReLU"
  bottom: "inception_4c/5x5"
  top: "inception_4c/5x5"
}
layer {
  name: "inception_4c/pool"
  type: "Pooling"
  bottom: "inception_4b/output"
  top: "inception_4c/pool"
  pooling_param {
    pool: MAX
    kernel_size: 3
    stride: 1
    pad: 1
  }
}
layer {
  name: "inception_4c/pool_proj"
  type: "Convolution"
  bottom: "inception_4c/pool"
  top: "inception_4c/pool_proj"
  param {
    lr_mult: 1
    decay_mult: 1
  }
  param {
    lr_mult: 2
    decay_mult: 0
  }
  convolution_param {
    num_output: 64
    kernel_size: 1
    weight_filler {
      type: "xavier"
      std: 0.1
    }
    bias_filler {
      type: "constant"
      value: 0.2
    }
  }
}
layer {
  name: "inception_4c/relu_pool_proj"
  type: "ReLU"
  bottom: "inception_4c/pool_proj"
  top: "inception_4c/pool_proj"
}
layer {
  name: "inception_4c/output"
  type: "Concat"
  bottom: "inception_4c/1x1"
  bottom: "inception_4c/3x3"
  bottom: "inception_4c/5x5"
  bottom: "inception_4c/pool_proj"
  top: "inception_4c/output"
}
layer {
  name: "inception_4d/1x1"
  type: "Convolution"
  bottom: "inception_4c/output"
  top: "inception_4d/1x1"
  param {
    lr_mult: 1
    decay_mult: 1
  }
  param {
    lr_mult: 2
    decay_mult: 0
  }
  convolution_param {
    num_output: 112
    kernel_size: 1
    weight_filler {
      type: "xavier"
      std: 0.03
    }
    bias_filler {
      type: "constant"
      value: 0.2
    }
  }
}
layer {
  name: "inception_4d/relu_1x1"
  type: "ReLU"
  bottom: "inception_4d/1x1"
  top: "inception_4d/1x1"
}
layer {
  name: "inception_4d/3x3_reduce"
  type: "Convolution"
  bottom: "inception_4c/output"
  top: "inception_4d/3x3_reduce"
  param {
    lr_mult: 1
    decay_mult: 1
  }
  param {
    lr_mult: 2
    decay_mult: 0
  }
  convolution_param {
    num_output: 144
    kernel_size: 1
    weight_filler {
      type: "xavier"
      std: 0.09
    }
    bias_filler {
      type: "constant"
      value: 0.2
    }
  }
}
layer {
  name: "inception_4d/relu_3x3_reduce"
  type: "ReLU"
  bottom: "inception_4d/3x3_reduce"
  top: "inception_4d/3x3_reduce"
}
layer {
  name: "inception_4d/3x3"
  type: "Convolution"
  bottom: "inception_4d/3x3_reduce"
  top: "inception_4d/3x3"
  param {
    lr_mult: 1
    decay_mult: 1
  }
  param {
    lr_mult: 2
    decay_mult: 0
  }
  convolution_param {
    num_output: 288
    pad: 1
    kernel_size: 3
    weight_filler {
      type: "xavier"
      std: 0.03
    }
    bias_filler {
      type: "constant"
      value: 0.2
    }
  }
}
layer {
  name: "inception_4d/relu_3x3"
  type: "ReLU"
  bottom: "inception_4d/3x3"
  top: "inception_4d/3x3"
}
layer {
  name: "inception_4d/5x5_reduce"
  type: "Convolution"
  bottom: "inception_4c/output"
  top: "inception_4d/5x5_reduce"
  param {
    lr_mult: 1
    decay_mult: 1
  }
  param {
    lr_mult: 2
    decay_mult: 0
  }
  convolution_param {
    num_output: 32
    kernel_size: 1
    weight_filler {
      type: "xavier"
      std: 0.2
    }
    bias_filler {
      type: "constant"
      value: 0.2
    }
  }
}
layer {
  name: "inception_4d/relu_5x5_reduce"
  type: "ReLU"
  bottom: "inception_4d/5x5_reduce"
  top: "inception_4d/5x5_reduce"
}
layer {
  name: "inception_4d/5x5"
  type: "Convolution"
  bottom: "inception_4d/5x5_reduce"
  top: "inception_4d/5x5"
  param {
    lr_mult: 1
    decay_mult: 1
  }
  param {
    lr_mult: 2
    decay_mult: 0
  }
  convolution_param {
    num_output: 64
    pad: 2
    kernel_size: 5
    weight_filler {
      type: "xavier"
      std: 0.03
    }
    bias_filler {
      type: "constant"
      value: 0.2
    }
  }
}
layer {
  name: "inception_4d/relu_5x5"
  type: "ReLU"
  bottom: "inception_4d/5x5"
  top: "inception_4d/5x5"
}
layer {
  name: "inception_4d/pool"
  type: "Pooling"
  bottom: "inception_4c/output"
  top: "inception_4d/pool"
  pooling_param {
    pool: MAX
    kernel_size: 3
    stride: 1
    pad: 1
  }
}
layer {
  name: "inception_4d/pool_proj"
  type: "Convolution"
  bottom: "inception_4d/pool"
  top: "inception_4d/pool_proj"
  param {
    lr_mult: 1
    decay_mult: 1
  }
  param {
    lr_mult: 2
    decay_mult: 0
  }
  convolution_param {
    num_output: 64
    kernel_size: 1
    weight_filler {
      type: "xavier"
      std: 0.1
    }
    bias_filler {
      type: "constant"
      value: 0.2
    }
  }
}
layer {
  name: "inception_4d/relu_pool_proj"
  type: "ReLU"
  bottom: "inception_4d/pool_proj"
  top: "inception_4d/pool_proj"
}
layer {
  name: "inception_4d/output"
  type: "Concat"
  bottom: "inception_4d/1x1"
  bottom: "inception_4d/3x3"
  bottom: "inception_4d/5x5"
  bottom: "inception_4d/pool_proj"
  top: "inception_4d/output"
}
layer {
  name: "loss2/ave_pool"
  type: "Pooling"
  bottom: "inception_4d/output"
  top: "loss2/ave_pool"
  pooling_param {
    pool: AVE
    kernel_size: 5
    stride: 3
  }
}
layer {
  name: "loss2/conv"
  type: "Convolution"
  bottom: "loss2/ave_pool"
  top: "loss2/conv"
  param {
    lr_mult: 1
    decay_mult: 1
  }
  param {
    lr_mult: 2
    decay_mult: 0
  }
  convolution_param {
    num_output: 128
    kernel_size: 1
    weight_filler {
      type: "xavier"
      std: 0.08
    }
    bias_filler {
      type: "constant"
      value: 0.2
    }
  }
}
layer {
  name: "loss2/relu_conv"
  type: "ReLU"
  bottom: "loss2/conv"
  top: "loss2/conv"
}
layer {
  name: "loss2/fc"
  type: "InnerProduct"
  bottom: "loss2/conv"
  top: "loss2/fc"
  param {
    lr_mult: 1
    decay_mult: 1
  }
  param {
    lr_mult: 2
    decay_mult: 0
  }
  inner_product_param {
    num_output: 1024
    weight_filler {
      type: "xavier"
      std: 0.02
    }
    bias_filler {
      type: "constant"
      value: 0.2
    }
  }
}
layer {
  name: "loss2/relu_fc"
  type: "ReLU"
  bottom: "loss2/fc"
  top: "loss2/fc"
}
layer {
  name: "loss2/drop_fc"
  type: "Dropout"
  bottom: "loss2/fc"
  top: "loss2/fc"
  dropout_param {
    dropout_ratio: 0.7
  }
}
layer {
  name: "loss2/classifier_plantvillage"
  type: "InnerProduct"
  bottom: "loss2/fc"
  top: "loss2/classifier_plantvillage"
  param {
    lr_mult: 1
    decay_mult: 1
  }
  param {
    lr_mult: 2
    decay_mult: 0
  }
  inner_product_param {
    num_output: 38
    weight_filler {
      type: "xavier"
      std: 0.0009765625
    }
    bias_filler {
      type: "constant"
      value: 0
    }
  }
}
layer {
  name: "inception_4e/1x1"
  type: "Convolution"
  bottom: "inception_4d/output"
  top: "inception_4e/1x1"
  param {
    lr_mult: 1
    decay_mult: 1
  }
  param {
    lr_mult: 2
    decay_mult: 0
  }
  convolution_param {
    num_output: 256
    kernel_size: 1
    weight_filler {
      type: "xavier"
      std: 0.03
    }
    bias_filler {
      type: "constant"
      value: 0.2
    }
  }
}
layer {
  name: "inception_4e/relu_1x1"
  type: "ReLU"
  bottom: "inception_4e/1x1"
  top: "inception_4e/1x1"
}
layer {
  name: "inception_4e/3x3_reduce"
  type: "Convolution"
  bottom: "inception_4d/output"
  top: "inception_4e/3x3_reduce"
  param {
    lr_mult: 1
    decay_mult: 1
  }
  param {
    lr_mult: 2
    decay_mult: 0
  }
  convolution_param {
    num_output: 160
    kernel_size: 1
    weight_filler {
      type: "xavier"
      std: 0.09
    }
    bias_filler {
      type: "constant"
      value: 0.2
    }
  }
}
layer {
  name: "inception_4e/relu_3x3_reduce"
  type: "ReLU"
  bottom: "inception_4e/3x3_reduce"
  top: "inception_4e/3x3_reduce"
}
layer {
  name: "inception_4e/3x3"
  type: "Convolution"
  bottom: "inception_4e/3x3_reduce"
  top: "inception_4e/3x3"
  param {
    lr_mult: 1
    decay_mult: 1
  }
  param {
    lr_mult: 2
    decay_mult: 0
  }
  convolution_param {
    num_output: 320
    pad: 1
    kernel_size: 3
    weight_filler {
      type: "xavier"
      std: 0.03
    }
    bias_filler {
      type: "constant"
      value: 0.2
    }
  }
}
layer {
  name: "inception_4e/relu_3x3"
  type: "ReLU"
  bottom: "inception_4e/3x3"
  top: "inception_4e/3x3"
}
layer {
  name: "inception_4e/5x5_reduce"
  type: "Convolution"
  bottom: "inception_4d/output"
  top: "inception_4e/5x5_reduce"
  param {
    lr_mult: 1
    decay_mult: 1
  }
  param {
    lr_mult: 2
    decay_mult: 0
  }
  convolution_param {
    num_output: 32
    kernel_size: 1
    weight_filler {
      type: "xavier"
      std: 0.2
    }
    bias_filler {
      type: "constant"
      value: 0.2
    }
  }
}
layer {
  name: "inception_4e/relu_5x5_reduce"
  type: "ReLU"
  bottom: "inception_4e/5x5_reduce"
  top: "inception_4e/5x5_reduce"
}
layer {
  name: "inception_4e/5x5"
  type: "Convolution"
  bottom: "inception_4e/5x5_reduce"
  top: "inception_4e/5x5"
  p
I0403 16:22:51.759024 21009 layer_factory.hpp:77] Creating layer data
I0403 16:22:51.759634 21009 net.cpp:91] Creating Layer data
I0403 16:22:51.759663 21009 net.cpp:399] data -> data
I0403 16:22:51.759711 21009 net.cpp:399] data -> label
I0403 16:22:51.759747 21009 data_transformer.cpp:25] Loading mean file from: /home/mohanty/data/final_dataset/lmdb/color-40-60/mean.binaryproto
I0403 16:22:51.760861 21014 db_lmdb.cpp:38] Opened lmdb /home/mohanty/data/final_dataset/lmdb/color-40-60/test_db
I0403 16:22:51.772763 21009 data_layer.cpp:41] output data size: 24,3,224,224
I0403 16:22:51.803295 21009 net.cpp:141] Setting up data
I0403 16:22:51.803401 21009 net.cpp:148] Top shape: 24 3 224 224 (3612672)
I0403 16:22:51.803423 21009 net.cpp:148] Top shape: 24 (24)
I0403 16:22:51.803438 21009 net.cpp:156] Memory required for data: 14450784
I0403 16:22:51.803467 21009 layer_factory.hpp:77] Creating layer label_data_1_split
I0403 16:22:51.803493 21009 net.cpp:91] Creating Layer label_data_1_split
I0403 16:22:51.803510 21009 net.cpp:425] label_data_1_split <- label
I0403 16:22:51.803544 21009 net.cpp:399] label_data_1_split -> label_data_1_split_0
I0403 16:22:51.803571 21009 net.cpp:399] label_data_1_split -> label_data_1_split_1
I0403 16:22:51.803593 21009 net.cpp:399] label_data_1_split -> label_data_1_split_2
I0403 16:22:51.803614 21009 net.cpp:399] label_data_1_split -> label_data_1_split_3
I0403 16:22:51.803633 21009 net.cpp:399] label_data_1_split -> label_data_1_split_4
I0403 16:22:51.803653 21009 net.cpp:399] label_data_1_split -> label_data_1_split_5
I0403 16:22:51.803673 21009 net.cpp:399] label_data_1_split -> label_data_1_split_6
I0403 16:22:51.803694 21009 net.cpp:399] label_data_1_split -> label_data_1_split_7
I0403 16:22:51.803712 21009 net.cpp:399] label_data_1_split -> label_data_1_split_8
I0403 16:22:51.803732 21009 net.cpp:399] label_data_1_split -> label_data_1_split_9
I0403 16:22:51.803848 21009 net.cpp:141] Setting up label_data_1_split
I0403 16:22:51.803871 21009 net.cpp:148] Top shape: 24 (24)
I0403 16:22:51.803889 21009 net.cpp:148] Top shape: 24 (24)
I0403 16:22:51.803905 21009 net.cpp:148] Top shape: 24 (24)
I0403 16:22:51.803920 21009 net.cpp:148] Top shape: 24 (24)
I0403 16:22:51.803935 21009 net.cpp:148] Top shape: 24 (24)
I0403 16:22:51.803949 21009 net.cpp:148] Top shape: 24 (24)
I0403 16:22:51.803966 21009 net.cpp:148] Top shape: 24 (24)
I0403 16:22:51.803980 21009 net.cpp:148] Top shape: 24 (24)
I0403 16:22:51.804002 21009 net.cpp:148] Top shape: 24 (24)
I0403 16:22:51.804018 21009 net.cpp:148] Top shape: 24 (24)
I0403 16:22:51.804061 21009 net.cpp:156] Memory required for data: 14451744
I0403 16:22:51.804077 21009 layer_factory.hpp:77] Creating layer conv1/7x7_s2
I0403 16:22:51.804108 21009 net.cpp:91] Creating Layer conv1/7x7_s2
I0403 16:22:51.804126 21009 net.cpp:425] conv1/7x7_s2 <- data
I0403 16:22:51.804147 21009 net.cpp:399] conv1/7x7_s2 -> conv1/7x7_s2
I0403 16:22:51.947298 21009 net.cpp:141] Setting up conv1/7x7_s2
I0403 16:22:51.947345 21009 net.cpp:148] Top shape: 24 64 112 112 (19267584)
I0403 16:22:51.947362 21009 net.cpp:156] Memory required for data: 91522080
I0403 16:22:51.947393 21009 layer_factory.hpp:77] Creating layer conv1/relu_7x7
I0403 16:22:51.947420 21009 net.cpp:91] Creating Layer conv1/relu_7x7
I0403 16:22:51.947438 21009 net.cpp:425] conv1/relu_7x7 <- conv1/7x7_s2
I0403 16:22:51.947458 21009 net.cpp:386] conv1/relu_7x7 -> conv1/7x7_s2 (in-place)
I0403 16:22:51.947734 21009 net.cpp:141] Setting up conv1/relu_7x7
I0403 16:22:51.947762 21009 net.cpp:148] Top shape: 24 64 112 112 (19267584)
I0403 16:22:51.947778 21009 net.cpp:156] Memory required for data: 168592416
I0403 16:22:51.947794 21009 layer_factory.hpp:77] Creating layer pool1/3x3_s2
I0403 16:22:51.947819 21009 net.cpp:91] Creating Layer pool1/3x3_s2
I0403 16:22:51.947837 21009 net.cpp:425] pool1/3x3_s2 <- conv1/7x7_s2
I0403 16:22:51.947857 21009 net.cpp:399] pool1/3x3_s2 -> pool1/3x3_s2
I0403 16:22:51.947935 21009 net.cpp:141] Setting up pool1/3x3_s2
I0403 16:22:51.947967 21009 net.cpp:148] Top shape: 24 64 56 56 (4816896)
I0403 16:22:51.947983 21009 net.cpp:156] Memory required for data: 187860000
I0403 16:22:51.947999 21009 layer_factory.hpp:77] Creating layer pool1/norm1
I0403 16:22:51.948024 21009 net.cpp:91] Creating Layer pool1/norm1
I0403 16:22:51.948043 21009 net.cpp:425] pool1/norm1 <- pool1/3x3_s2
I0403 16:22:51.948062 21009 net.cpp:399] pool1/norm1 -> pool1/norm1
I0403 16:22:51.948357 21009 net.cpp:141] Setting up pool1/norm1
I0403 16:22:51.948385 21009 net.cpp:148] Top shape: 24 64 56 56 (4816896)
I0403 16:22:51.948402 21009 net.cpp:156] Memory required for data: 207127584
I0403 16:22:51.948417 21009 layer_factory.hpp:77] Creating layer conv2/3x3_reduce
I0403 16:22:51.948443 21009 net.cpp:91] Creating Layer conv2/3x3_reduce
I0403 16:22:51.948462 21009 net.cpp:425] conv2/3x3_reduce <- pool1/norm1
I0403 16:22:51.948480 21009 net.cpp:399] conv2/3x3_reduce -> conv2/3x3_reduce
I0403 16:22:51.949880 21009 net.cpp:141] Setting up conv2/3x3_reduce
I0403 16:22:51.949913 21009 net.cpp:148] Top shape: 24 64 56 56 (4816896)
I0403 16:22:51.949929 21009 net.cpp:156] Memory required for data: 226395168
I0403 16:22:51.949952 21009 layer_factory.hpp:77] Creating layer conv2/relu_3x3_reduce
I0403 16:22:51.949977 21009 net.cpp:91] Creating Layer conv2/relu_3x3_reduce
I0403 16:22:51.949995 21009 net.cpp:425] conv2/relu_3x3_reduce <- conv2/3x3_reduce
I0403 16:22:51.950012 21009 net.cpp:386] conv2/relu_3x3_reduce -> conv2/3x3_reduce (in-place)
I0403 16:22:51.950274 21009 net.cpp:141] Setting up conv2/relu_3x3_reduce
I0403 16:22:51.950302 21009 net.cpp:148] Top shape: 24 64 56 56 (4816896)
I0403 16:22:51.950320 21009 net.cpp:156] Memory required for data: 245662752
I0403 16:22:51.950335 21009 layer_factory.hpp:77] Creating layer conv2/3x3
I0403 16:22:51.950357 21009 net.cpp:91] Creating Layer conv2/3x3
I0403 16:22:51.950376 21009 net.cpp:425] conv2/3x3 <- conv2/3x3_reduce
I0403 16:22:51.950394 21009 net.cpp:399] conv2/3x3 -> conv2/3x3
I0403 16:22:51.952766 21009 net.cpp:141] Setting up conv2/3x3
I0403 16:22:51.952798 21009 net.cpp:148] Top shape: 24 192 56 56 (14450688)
I0403 16:22:51.952816 21009 net.cpp:156] Memory required for data: 303465504
I0403 16:22:51.952841 21009 layer_factory.hpp:77] Creating layer conv2/relu_3x3
I0403 16:22:51.952862 21009 net.cpp:91] Creating Layer conv2/relu_3x3
I0403 16:22:51.952879 21009 net.cpp:425] conv2/relu_3x3 <- conv2/3x3
I0403 16:22:51.952898 21009 net.cpp:386] conv2/relu_3x3 -> conv2/3x3 (in-place)
I0403 16:22:51.953088 21009 net.cpp:141] Setting up conv2/relu_3x3
I0403 16:22:51.953119 21009 net.cpp:148] Top shape: 24 192 56 56 (14450688)
I0403 16:22:51.953163 21009 net.cpp:156] Memory required for data: 361268256
I0403 16:22:51.953181 21009 layer_factory.hpp:77] Creating layer conv2/norm2
I0403 16:22:51.953202 21009 net.cpp:91] Creating Layer conv2/norm2
I0403 16:22:51.953218 21009 net.cpp:425] conv2/norm2 <- conv2/3x3
I0403 16:22:51.953236 21009 net.cpp:399] conv2/norm2 -> conv2/norm2
I0403 16:22:51.953560 21009 net.cpp:141] Setting up conv2/norm2
I0403 16:22:51.953588 21009 net.cpp:148] Top shape: 24 192 56 56 (14450688)
I0403 16:22:51.953603 21009 net.cpp:156] Memory required for data: 419071008
I0403 16:22:51.953619 21009 layer_factory.hpp:77] Creating layer pool2/3x3_s2
I0403 16:22:51.953639 21009 net.cpp:91] Creating Layer pool2/3x3_s2
I0403 16:22:51.953656 21009 net.cpp:425] pool2/3x3_s2 <- conv2/norm2
I0403 16:22:51.953675 21009 net.cpp:399] pool2/3x3_s2 -> pool2/3x3_s2
I0403 16:22:51.953732 21009 net.cpp:141] Setting up pool2/3x3_s2
I0403 16:22:51.953755 21009 net.cpp:148] Top shape: 24 192 28 28 (3612672)
I0403 16:22:51.953771 21009 net.cpp:156] Memory required for data: 433521696
I0403 16:22:51.953786 21009 layer_factory.hpp:77] Creating layer pool2/3x3_s2_pool2/3x3_s2_0_split
I0403 16:22:51.953804 21009 net.cpp:91] Creating Layer pool2/3x3_s2_pool2/3x3_s2_0_split
I0403 16:22:51.953820 21009 net.cpp:425] pool2/3x3_s2_pool2/3x3_s2_0_split <- pool2/3x3_s2
I0403 16:22:51.953840 21009 net.cpp:399] pool2/3x3_s2_pool2/3x3_s2_0_split -> pool2/3x3_s2_pool2/3x3_s2_0_split_0
I0403 16:22:51.953862 21009 net.cpp:399] pool2/3x3_s2_pool2/3x3_s2_0_split -> pool2/3x3_s2_pool2/3x3_s2_0_split_1
I0403 16:22:51.953882 21009 net.cpp:399] pool2/3x3_s2_pool2/3x3_s2_0_split -> pool2/3x3_s2_pool2/3x3_s2_0_split_2
I0403 16:22:51.953902 21009 net.cpp:399] pool2/3x3_s2_pool2/3x3_s2_0_split -> pool2/3x3_s2_pool2/3x3_s2_0_split_3
I0403 16:22:51.953979 21009 net.cpp:141] Setting up pool2/3x3_s2_pool2/3x3_s2_0_split
I0403 16:22:51.954005 21009 net.cpp:148] Top shape: 24 192 28 28 (3612672)
I0403 16:22:51.954023 21009 net.cpp:148] Top shape: 24 192 28 28 (3612672)
I0403 16:22:51.954041 21009 net.cpp:148] Top shape: 24 192 28 28 (3612672)
I0403 16:22:51.954056 21009 net.cpp:148] Top shape: 24 192 28 28 (3612672)
I0403 16:22:51.954071 21009 net.cpp:156] Memory required for data: 491324448
I0403 16:22:51.954087 21009 layer_factory.hpp:77] Creating layer inception_3a/1x1
I0403 16:22:51.954110 21009 net.cpp:91] Creating Layer inception_3a/1x1
I0403 16:22:51.954128 21009 net.cpp:425] inception_3a/1x1 <- pool2/3x3_s2_pool2/3x3_s2_0_split_0
I0403 16:22:51.954147 21009 net.cpp:399] inception_3a/1x1 -> inception_3a/1x1
I0403 16:22:51.955741 21009 net.cpp:141] Setting up inception_3a/1x1
I0403 16:22:51.955772 21009 net.cpp:148] Top shape: 24 64 28 28 (1204224)
I0403 16:22:51.955790 21009 net.cpp:156] Memory required for data: 496141344
I0403 16:22:51.955808 21009 layer_factory.hpp:77] Creating layer inception_3a/relu_1x1
I0403 16:22:51.955829 21009 net.cpp:91] Creating Layer inception_3a/relu_1x1
I0403 16:22:51.955847 21009 net.cpp:425] inception_3a/relu_1x1 <- inception_3a/1x1
I0403 16:22:51.955864 21009 net.cpp:386] inception_3a/relu_1x1 -> inception_3a/1x1 (in-place)
I0403 16:22:51.956050 21009 net.cpp:141] Setting up inception_3a/relu_1x1
I0403 16:22:51.956079 21009 net.cpp:148] Top shape: 24 64 28 28 (1204224)
I0403 16:22:51.956095 21009 net.cpp:156] Memory required for data: 500958240
I0403 16:22:51.956110 21009 layer_factory.hpp:77] Creating layer inception_3a/3x3_reduce
I0403 16:22:51.956132 21009 net.cpp:91] Creating Layer inception_3a/3x3_reduce
I0403 16:22:51.956151 21009 net.cpp:425] inception_3a/3x3_reduce <- pool2/3x3_s2_pool2/3x3_s2_0_split_1
I0403 16:22:51.956171 21009 net.cpp:399] inception_3a/3x3_reduce -> inception_3a/3x3_reduce
I0403 16:22:51.957914 21009 net.cpp:141] Setting up inception_3a/3x3_reduce
I0403 16:22:51.957944 21009 net.cpp:148] Top shape: 24 96 28 28 (1806336)
I0403 16:22:51.957967 21009 net.cpp:156] Memory required for data: 508183584
I0403 16:22:51.957991 21009 layer_factory.hpp:77] Creating layer inception_3a/relu_3x3_reduce
I0403 16:22:51.958029 21009 net.cpp:91] Creating Layer inception_3a/relu_3x3_reduce
I0403 16:22:51.958047 21009 net.cpp:425] inception_3a/relu_3x3_reduce <- inception_3a/3x3_reduce
I0403 16:22:51.958067 21009 net.cpp:386] inception_3a/relu_3x3_reduce -> inception_3a/3x3_reduce (in-place)
I0403 16:22:51.958268 21009 net.cpp:141] Setting up inception_3a/relu_3x3_reduce
I0403 16:22:51.958294 21009 net.cpp:148] Top shape: 24 96 28 28 (1806336)
I0403 16:22:51.958309 21009 net.cpp:156] Memory required for data: 515408928
I0403 16:22:51.958325 21009 layer_factory.hpp:77] Creating layer inception_3a/3x3
I0403 16:22:51.958348 21009 net.cpp:91] Creating Layer inception_3a/3x3
I0403 16:22:51.958366 21009 net.cpp:425] inception_3a/3x3 <- inception_3a/3x3_reduce
I0403 16:22:51.958389 21009 net.cpp:399] inception_3a/3x3 -> inception_3a/3x3
I0403 16:22:51.960161 21009 net.cpp:141] Setting up inception_3a/3x3
I0403 16:22:51.960192 21009 net.cpp:148] Top shape: 24 128 28 28 (2408448)
I0403 16:22:51.960209 21009 net.cpp:156] Memory required for data: 525042720
I0403 16:22:51.960228 21009 layer_factory.hpp:77] Creating layer inception_3a/relu_3x3
I0403 16:22:51.960249 21009 net.cpp:91] Creating Layer inception_3a/relu_3x3
I0403 16:22:51.960268 21009 net.cpp:425] inception_3a/relu_3x3 <- inception_3a/3x3
I0403 16:22:51.960285 21009 net.cpp:386] inception_3a/relu_3x3 -> inception_3a/3x3 (in-place)
I0403 16:22:51.960577 21009 net.cpp:141] Setting up inception_3a/relu_3x3
I0403 16:22:51.960605 21009 net.cpp:148] Top shape: 24 128 28 28 (2408448)
I0403 16:22:51.960620 21009 net.cpp:156] Memory required for data: 534676512
I0403 16:22:51.960635 21009 layer_factory.hpp:77] Creating layer inception_3a/5x5_reduce
I0403 16:22:51.960660 21009 net.cpp:91] Creating Layer inception_3a/5x5_reduce
I0403 16:22:51.960678 21009 net.cpp:425] inception_3a/5x5_reduce <- pool2/3x3_s2_pool2/3x3_s2_0_split_2
I0403 16:22:51.960698 21009 net.cpp:399] inception_3a/5x5_reduce -> inception_3a/5x5_reduce
I0403 16:22:51.961720 21009 net.cpp:141] Setting up inception_3a/5x5_reduce
I0403 16:22:51.961753 21009 net.cpp:148] Top shape: 24 16 28 28 (301056)
I0403 16:22:51.961771 21009 net.cpp:156] Memory required for data: 535880736
I0403 16:22:51.961789 21009 layer_factory.hpp:77] Creating layer inception_3a/relu_5x5_reduce
I0403 16:22:51.961809 21009 net.cpp:91] Creating Layer inception_3a/relu_5x5_reduce
I0403 16:22:51.961825 21009 net.cpp:425] inception_3a/relu_5x5_reduce <- inception_3a/5x5_reduce
I0403 16:22:51.961846 21009 net.cpp:386] inception_3a/relu_5x5_reduce -> inception_3a/5x5_reduce (in-place)
I0403 16:22:51.962173 21009 net.cpp:141] Setting up inception_3a/relu_5x5_reduce
I0403 16:22:51.962200 21009 net.cpp:148] Top shape: 24 16 28 28 (301056)
I0403 16:22:51.962216 21009 net.cpp:156] Memory required for data: 537084960
I0403 16:22:51.962231 21009 layer_factory.hpp:77] Creating layer inception_3a/5x5
I0403 16:22:51.962261 21009 net.cpp:91] Creating Layer inception_3a/5x5
I0403 16:22:51.962280 21009 net.cpp:425] inception_3a/5x5 <- inception_3a/5x5_reduce
I0403 16:22:51.962301 21009 net.cpp:399] inception_3a/5x5 -> inception_3a/5x5
I0403 16:22:51.963363 21009 net.cpp:141] Setting up inception_3a/5x5
I0403 16:22:51.963392 21009 net.cpp:148] Top shape: 24 32 28 28 (602112)
I0403 16:22:51.963408 21009 net.cpp:156] Memory required for data: 539493408
I0403 16:22:51.963428 21009 layer_factory.hpp:77] Creating layer inception_3a/relu_5x5
I0403 16:22:51.963449 21009 net.cpp:91] Creating Layer inception_3a/relu_5x5
I0403 16:22:51.963466 21009 net.cpp:425] inception_3a/relu_5x5 <- inception_3a/5x5
I0403 16:22:51.963485 21009 net.cpp:386] inception_3a/relu_5x5 -> inception_3a/5x5 (in-place)
I0403 16:22:51.963666 21009 net.cpp:141] Setting up inception_3a/relu_5x5
I0403 16:22:51.963693 21009 net.cpp:148] Top shape: 24 32 28 28 (602112)
I0403 16:22:51.963708 21009 net.cpp:156] Memory required for data: 541901856
I0403 16:22:51.963723 21009 layer_factory.hpp:77] Creating layer inception_3a/pool
I0403 16:22:51.963742 21009 net.cpp:91] Creating Layer inception_3a/pool
I0403 16:22:51.963758 21009 net.cpp:425] inception_3a/pool <- pool2/3x3_s2_pool2/3x3_s2_0_split_3
I0403 16:22:51.963794 21009 net.cpp:399] inception_3a/pool -> inception_3a/pool
I0403 16:22:51.963855 21009 net.cpp:141] Setting up inception_3a/pool
I0403 16:22:51.963879 21009 net.cpp:148] Top shape: 24 192 28 28 (3612672)
I0403 16:22:51.963894 21009 net.cpp:156] Memory required for data: 556352544
I0403 16:22:51.963909 21009 layer_factory.hpp:77] Creating layer inception_3a/pool_proj
I0403 16:22:51.963935 21009 net.cpp:91] Creating Layer inception_3a/pool_proj
I0403 16:22:51.963958 21009 net.cpp:425] inception_3a/pool_proj <- inception_3a/pool
I0403 16:22:51.963979 21009 net.cpp:399] inception_3a/pool_proj -> inception_3a/pool_proj
I0403 16:22:51.964983 21009 net.cpp:141] Setting up inception_3a/pool_proj
I0403 16:22:51.965013 21009 net.cpp:148] Top shape: 24 32 28 28 (602112)
I0403 16:22:51.965029 21009 net.cpp:156] Memory required for data: 558760992
I0403 16:22:51.965054 21009 layer_factory.hpp:77] Creating layer inception_3a/relu_pool_proj
I0403 16:22:51.965075 21009 net.cpp:91] Creating Layer inception_3a/relu_pool_proj
I0403 16:22:51.965090 21009 net.cpp:425] inception_3a/relu_pool_proj <- inception_3a/pool_proj
I0403 16:22:51.965111 21009 net.cpp:386] inception_3a/relu_pool_proj -> inception_3a/pool_proj (in-place)
I0403 16:22:51.965399 21009 net.cpp:141] Setting up inception_3a/relu_pool_proj
I0403 16:22:51.965425 21009 net.cpp:148] Top shape: 24 32 28 28 (602112)
I0403 16:22:51.965441 21009 net.cpp:156] Memory required for data: 561169440
I0403 16:22:51.965456 21009 layer_factory.hpp:77] Creating layer inception_3a/output
I0403 16:22:51.965477 21009 net.cpp:91] Creating Layer inception_3a/output
I0403 16:22:51.965494 21009 net.cpp:425] inception_3a/output <- inception_3a/1x1
I0403 16:22:51.965510 21009 net.cpp:425] inception_3a/output <- inception_3a/3x3
I0403 16:22:51.965526 21009 net.cpp:425] inception_3a/output <- inception_3a/5x5
I0403 16:22:51.965543 21009 net.cpp:425] inception_3a/output <- inception_3a/pool_proj
I0403 16:22:51.965560 21009 net.cpp:399] inception_3a/output -> inception_3a/output
I0403 16:22:51.965610 21009 net.cpp:141] Setting up inception_3a/output
I0403 16:22:51.965634 21009 net.cpp:148] Top shape: 24 256 28 28 (4816896)
I0403 16:22:51.965649 21009 net.cpp:156] Memory required for data: 580437024
I0403 16:22:51.965664 21009 layer_factory.hpp:77] Creating layer inception_3a/output_inception_3a/output_0_split
I0403 16:22:51.965682 21009 net.cpp:91] Creating Layer inception_3a/output_inception_3a/output_0_split
I0403 16:22:51.965698 21009 net.cpp:425] inception_3a/output_inception_3a/output_0_split <- inception_3a/output
I0403 16:22:51.965718 21009 net.cpp:399] inception_3a/output_inception_3a/output_0_split -> inception_3a/output_inception_3a/output_0_split_0
I0403 16:22:51.965739 21009 net.cpp:399] inception_3a/output_inception_3a/output_0_split -> inception_3a/output_inception_3a/output_0_split_1
I0403 16:22:51.965764 21009 net.cpp:399] inception_3a/output_inception_3a/output_0_split -> inception_3a/output_inception_3a/output_0_split_2
I0403 16:22:51.965786 21009 net.cpp:399] inception_3a/output_inception_3a/output_0_split -> inception_3a/output_inception_3a/output_0_split_3
I0403 16:22:51.965862 21009 net.cpp:141] Setting up inception_3a/output_inception_3a/output_0_split
I0403 16:22:51.965885 21009 net.cpp:148] Top shape: 24 256 28 28 (4816896)
I0403 16:22:51.965905 21009 net.cpp:148] Top shape: 24 256 28 28 (4816896)
I0403 16:22:51.965922 21009 net.cpp:148] Top shape: 24 256 28 28 (4816896)
I0403 16:22:51.965939 21009 net.cpp:148] Top shape: 24 256 28 28 (4816896)
I0403 16:22:51.965952 21009 net.cpp:156] Memory required for data: 657507360
I0403 16:22:51.965973 21009 layer_factory.hpp:77] Creating layer inception_3b/1x1
I0403 16:22:51.965994 21009 net.cpp:91] Creating Layer inception_3b/1x1
I0403 16:22:51.966012 21009 net.cpp:425] inception_3b/1x1 <- inception_3a/output_inception_3a/output_0_split_0
I0403 16:22:51.966034 21009 net.cpp:399] inception_3b/1x1 -> inception_3b/1x1
I0403 16:22:51.967242 21009 net.cpp:141] Setting up inception_3b/1x1
I0403 16:22:51.967283 21009 net.cpp:148] Top shape: 24 128 28 28 (2408448)
I0403 16:22:51.967298 21009 net.cpp:156] Memory required for data: 667141152
I0403 16:22:51.967317 21009 layer_factory.hpp:77] Creating layer inception_3b/relu_1x1
I0403 16:22:51.967339 21009 net.cpp:91] Creating Layer inception_3b/relu_1x1
I0403 16:22:51.967355 21009 net.cpp:425] inception_3b/relu_1x1 <- inception_3b/1x1
I0403 16:22:51.967373 21009 net.cpp:386] inception_3b/relu_1x1 -> inception_3b/1x1 (in-place)
I0403 16:22:51.967557 21009 net.cpp:141] Setting up inception_3b/relu_1x1
I0403 16:22:51.967582 21009 net.cpp:148] Top shape: 24 128 28 28 (2408448)
I0403 16:22:51.967597 21009 net.cpp:156] Memory required for data: 676774944
I0403 16:22:51.967612 21009 layer_factory.hpp:77] Creating layer inception_3b/3x3_reduce
I0403 16:22:51.967636 21009 net.cpp:91] Creating Layer inception_3b/3x3_reduce
I0403 16:22:51.967654 21009 net.cpp:425] inception_3b/3x3_reduce <- inception_3a/output_inception_3a/output_0_split_1
I0403 16:22:51.967674 21009 net.cpp:399] inception_3b/3x3_reduce -> inception_3b/3x3_reduce
I0403 16:22:51.968891 21009 net.cpp:141] Setting up inception_3b/3x3_reduce
I0403 16:22:51.968921 21009 net.cpp:148] Top shape: 24 128 28 28 (2408448)
I0403 16:22:51.968937 21009 net.cpp:156] Memory required for data: 686408736
I0403 16:22:51.968966 21009 layer_factory.hpp:77] Creating layer inception_3b/relu_3x3_reduce
I0403 16:22:51.968992 21009 net.cpp:91] Creating Layer inception_3b/relu_3x3_reduce
I0403 16:22:51.969009 21009 net.cpp:425] inception_3b/relu_3x3_reduce <- inception_3b/3x3_reduce
I0403 16:22:51.969027 21009 net.cpp:386] inception_3b/relu_3x3_reduce -> inception_3b/3x3_reduce (in-place)
I0403 16:22:51.969213 21009 net.cpp:141] Setting up inception_3b/relu_3x3_reduce
I0403 16:22:51.969240 21009 net.cpp:148] Top shape: 24 128 28 28 (2408448)
I0403 16:22:51.969256 21009 net.cpp:156] Memory required for data: 696042528
I0403 16:22:51.969272 21009 layer_factory.hpp:77] Creating layer inception_3b/3x3
I0403 16:22:51.969297 21009 net.cpp:91] Creating Layer inception_3b/3x3
I0403 16:22:51.969316 21009 net.cpp:425] inception_3b/3x3 <- inception_3b/3x3_reduce
I0403 16:22:51.969338 21009 net.cpp:399] inception_3b/3x3 -> inception_3b/3x3
I0403 16:22:51.972398 21009 net.cpp:141] Setting up inception_3b/3x3
I0403 16:22:51.972427 21009 net.cpp:148] Top shape: 24 192 28 28 (3612672)
I0403 16:22:51.972443 21009 net.cpp:156] Memory required for data: 710493216
I0403 16:22:51.972462 21009 layer_factory.hpp:77] Creating layer inception_3b/relu_3x3
I0403 16:22:51.972483 21009 net.cpp:91] Creating Layer inception_3b/relu_3x3
I0403 16:22:51.972499 21009 net.cpp:425] inception_3b/relu_3x3 <- inception_3b/3x3
I0403 16:22:51.972518 21009 net.cpp:386] inception_3b/relu_3x3 -> inception_3b/3x3 (in-place)
I0403 16:22:51.972806 21009 net.cpp:141] Setting up inception_3b/relu_3x3
I0403 16:22:51.972834 21009 net.cpp:148] Top shape: 24 192 28 28 (3612672)
I0403 16:22:51.972849 21009 net.cpp:156] Memory required for data: 724943904
I0403 16:22:51.972865 21009 layer_factory.hpp:77] Creating layer inception_3b/5x5_reduce
I0403 16:22:51.972893 21009 net.cpp:91] Creating Layer inception_3b/5x5_reduce
I0403 16:22:51.972911 21009 net.cpp:425] inception_3b/5x5_reduce <- inception_3a/output_inception_3a/output_0_split_2
I0403 16:22:51.972931 21009 net.cpp:399] inception_3b/5x5_reduce -> inception_3b/5x5_reduce
I0403 16:22:51.973973 21009 net.cpp:141] Setting up inception_3b/5x5_reduce
I0403 16:22:51.974002 21009 net.cpp:148] Top shape: 24 32 28 28 (602112)
I0403 16:22:51.974019 21009 net.cpp:156] Memory required for data: 727352352
I0403 16:22:51.974037 21009 layer_factory.hpp:77] Creating layer inception_3b/relu_5x5_reduce
I0403 16:22:51.974059 21009 net.cpp:91] Creating Layer inception_3b/relu_5x5_reduce
I0403 16:22:51.974076 21009 net.cpp:425] inception_3b/relu_5x5_reduce <- inception_3b/5x5_reduce
I0403 16:22:51.974094 21009 net.cpp:386] inception_3b/relu_5x5_reduce -> inception_3b/5x5_reduce (in-place)
I0403 16:22:51.974278 21009 net.cpp:141] Setting up inception_3b/relu_5x5_reduce
I0403 16:22:51.974318 21009 net.cpp:148] Top shape: 24 32 28 28 (602112)
I0403 16:22:51.974334 21009 net.cpp:156] Memory required for data: 729760800
I0403 16:22:51.974349 21009 layer_factory.hpp:77] Creating layer inception_3b/5x5
I0403 16:22:51.974372 21009 net.cpp:91] Creating Layer inception_3b/5x5
I0403 16:22:51.974392 21009 net.cpp:425] inception_3b/5x5 <- inception_3b/5x5_reduce
I0403 16:22:51.974414 21009 net.cpp:399] inception_3b/5x5 -> inception_3b/5x5
I0403 16:22:51.976476 21009 net.cpp:141] Setting up inception_3b/5x5
I0403 16:22:51.976507 21009 net.cpp:148] Top shape: 24 96 28 28 (1806336)
I0403 16:22:51.976523 21009 net.cpp:156] Memory required for data: 736986144
I0403 16:22:51.976543 21009 layer_factory.hpp:77] Creating layer inception_3b/relu_5x5
I0403 16:22:51.976564 21009 net.cpp:91] Creating Layer inception_3b/relu_5x5
I0403 16:22:51.976582 21009 net.cpp:425] inception_3b/relu_5x5 <- inception_3b/5x5
I0403 16:22:51.976599 21009 net.cpp:386] inception_3b/relu_5x5 -> inception_3b/5x5 (in-place)
I0403 16:22:51.976804 21009 net.cpp:141] Setting up inception_3b/relu_5x5
I0403 16:22:51.976830 21009 net.cpp:148] Top shape: 24 96 28 28 (1806336)
I0403 16:22:51.976845 21009 net.cpp:156] Memory required for data: 744211488
I0403 16:22:51.976861 21009 layer_factory.hpp:77] Creating layer inception_3b/pool
I0403 16:22:51.976878 21009 net.cpp:91] Creating Layer inception_3b/pool
I0403 16:22:51.976896 21009 net.cpp:425] inception_3b/pool <- inception_3a/output_inception_3a/output_0_split_3
I0403 16:22:51.976914 21009 net.cpp:399] inception_3b/pool -> inception_3b/pool
I0403 16:22:51.976979 21009 net.cpp:141] Setting up inception_3b/pool
I0403 16:22:51.977004 21009 net.cpp:148] Top shape: 24 256 28 28 (4816896)
I0403 16:22:51.977020 21009 net.cpp:156] Memory required for data: 763479072
I0403 16:22:51.977035 21009 layer_factory.hpp:77] Creating layer inception_3b/pool_proj
I0403 16:22:51.977057 21009 net.cpp:91] Creating Layer inception_3b/pool_proj
I0403 16:22:51.977075 21009 net.cpp:425] inception_3b/pool_proj <- inception_3b/pool
I0403 16:22:51.977097 21009 net.cpp:399] inception_3b/pool_proj -> inception_3b/pool_proj
I0403 16:22:51.978207 21009 net.cpp:141] Setting up inception_3b/pool_proj
I0403 16:22:51.978235 21009 net.cpp:148] Top shape: 24 64 28 28 (1204224)
I0403 16:22:51.978252 21009 net.cpp:156] Memory required for data: 768295968
I0403 16:22:51.978271 21009 layer_factory.hpp:77] Creating layer inception_3b/relu_pool_proj
I0403 16:22:51.978291 21009 net.cpp:91] Creating Layer inception_3b/relu_pool_proj
I0403 16:22:51.978307 21009 net.cpp:425] inception_3b/relu_pool_proj <- inception_3b/pool_proj
I0403 16:22:51.978327 21009 net.cpp:386] inception_3b/relu_pool_proj -> inception_3b/pool_proj (in-place)
I0403 16:22:51.978740 21009 net.cpp:141] Setting up inception_3b/relu_pool_proj
I0403 16:22:51.978770 21009 net.cpp:148] Top shape: 24 64 28 28 (1204224)
I0403 16:22:51.978787 21009 net.cpp:156] Memory required for data: 773112864
I0403 16:22:51.978803 21009 layer_factory.hpp:77] Creating layer inception_3b/output
I0403 16:22:51.978821 21009 net.cpp:91] Creating Layer inception_3b/output
I0403 16:22:51.978837 21009 net.cpp:425] inception_3b/output <- inception_3b/1x1
I0403 16:22:51.978854 21009 net.cpp:425] inception_3b/output <- inception_3b/3x3
I0403 16:22:51.978871 21009 net.cpp:425] inception_3b/output <- inception_3b/5x5
I0403 16:22:51.978888 21009 net.cpp:425] inception_3b/output <- inception_3b/pool_proj
I0403 16:22:51.978907 21009 net.cpp:399] inception_3b/output -> inception_3b/output
I0403 16:22:51.978963 21009 net.cpp:141] Setting up inception_3b/output
I0403 16:22:51.978989 21009 net.cpp:148] Top shape: 24 480 28 28 (9031680)
I0403 16:22:51.979004 21009 net.cpp:156] Memory required for data: 809239584
I0403 16:22:51.979020 21009 layer_factory.hpp:77] Creating layer pool3/3x3_s2
I0403 16:22:51.979041 21009 net.cpp:91] Creating Layer pool3/3x3_s2
I0403 16:22:51.979058 21009 net.cpp:425] pool3/3x3_s2 <- inception_3b/output
I0403 16:22:51.979076 21009 net.cpp:399] pool3/3x3_s2 -> pool3/3x3_s2
I0403 16:22:51.979156 21009 net.cpp:141] Setting up pool3/3x3_s2
I0403 16:22:51.979182 21009 net.cpp:148] Top shape: 24 480 14 14 (2257920)
I0403 16:22:51.979197 21009 net.cpp:156] Memory required for data: 818271264
I0403 16:22:51.979212 21009 layer_factory.hpp:77] Creating layer pool3/3x3_s2_pool3/3x3_s2_0_split
I0403 16:22:51.979229 21009 net.cpp:91] Creating Layer pool3/3x3_s2_pool3/3x3_s2_0_split
I0403 16:22:51.979246 21009 net.cpp:425] pool3/3x3_s2_pool3/3x3_s2_0_split <- pool3/3x3_s2
I0403 16:22:51.979266 21009 net.cpp:399] pool3/3x3_s2_pool3/3x3_s2_0_split -> pool3/3x3_s2_pool3/3x3_s2_0_split_0
I0403 16:22:51.979287 21009 net.cpp:399] pool3/3x3_s2_pool3/3x3_s2_0_split -> pool3/3x3_s2_pool3/3x3_s2_0_split_1
I0403 16:22:51.979307 21009 net.cpp:399] pool3/3x3_s2_pool3/3x3_s2_0_split -> pool3/3x3_s2_pool3/3x3_s2_0_split_2
I0403 16:22:51.979327 21009 net.cpp:399] pool3/3x3_s2_pool3/3x3_s2_0_split -> pool3/3x3_s2_pool3/3x3_s2_0_split_3
I0403 16:22:51.979406 21009 net.cpp:141] Setting up pool3/3x3_s2_pool3/3x3_s2_0_split
I0403 16:22:51.979431 21009 net.cpp:148] Top shape: 24 480 14 14 (2257920)
I0403 16:22:51.979449 21009 net.cpp:148] Top shape: 24 480 14 14 (2257920)
I0403 16:22:51.979466 21009 net.cpp:148] Top shape: 24 480 14 14 (2257920)
I0403 16:22:51.979482 21009 net.cpp:148] Top shape: 24 480 14 14 (2257920)
I0403 16:22:51.979496 21009 net.cpp:156] Memory required for data: 854397984
I0403 16:22:51.979511 21009 layer_factory.hpp:77] Creating layer inception_4a/1x1
I0403 16:22:51.979535 21009 net.cpp:91] Creating Layer inception_4a/1x1
I0403 16:22:51.979553 21009 net.cpp:425] inception_4a/1x1 <- pool3/3x3_s2_pool3/3x3_s2_0_split_0
I0403 16:22:51.979575 21009 net.cpp:399] inception_4a/1x1 -> inception_4a/1x1
I0403 16:22:51.981241 21009 net.cpp:141] Setting up inception_4a/1x1
I0403 16:22:51.981271 21009 net.cpp:148] Top shape: 24 192 14 14 (903168)
I0403 16:22:51.981287 21009 net.cpp:156] Memory required for data: 858010656
I0403 16:22:51.981307 21009 layer_factory.hpp:77] Creating layer inception_4a/relu_1x1
I0403 16:22:51.981325 21009 net.cpp:91] Creating Layer inception_4a/relu_1x1
I0403 16:22:51.981341 21009 net.cpp:425] inception_4a/relu_1x1 <- inception_4a/1x1
I0403 16:22:51.981362 21009 net.cpp:386] inception_4a/relu_1x1 -> inception_4a/1x1 (in-place)
I0403 16:22:51.981544 21009 net.cpp:141] Setting up inception_4a/relu_1x1
I0403 16:22:51.981570 21009 net.cpp:148] Top shape: 24 192 14 14 (903168)
I0403 16:22:51.981585 21009 net.cpp:156] Memory required for data: 861623328
I0403 16:22:51.981600 21009 layer_factory.hpp:77] Creating layer inception_4a/3x3_reduce
I0403 16:22:51.981623 21009 net.cpp:91] Creating Layer inception_4a/3x3_reduce
I0403 16:22:51.981642 21009 net.cpp:425] inception_4a/3x3_reduce <- pool3/3x3_s2_pool3/3x3_s2_0_split_1
I0403 16:22:51.981664 21009 net.cpp:399] inception_4a/3x3_reduce -> inception_4a/3x3_reduce
I0403 16:22:51.983021 21009 net.cpp:141] Setting up inception_4a/3x3_reduce
I0403 16:22:51.983050 21009 net.cpp:148] Top shape: 24 96 14 14 (451584)
I0403 16:22:51.983067 21009 net.cpp:156] Memory required for data: 863429664
I0403 16:22:51.983093 21009 layer_factory.hpp:77] Creating layer inception_4a/relu_3x3_reduce
I0403 16:22:51.983114 21009 net.cpp:91] Creating Layer inception_4a/relu_3x3_reduce
I0403 16:22:51.983129 21009 net.cpp:425] inception_4a/relu_3x3_reduce <- inception_4a/3x3_reduce
I0403 16:22:51.983150 21009 net.cpp:386] inception_4a/relu_3x3_reduce -> inception_4a/3x3_reduce (in-place)
I0403 16:22:51.983332 21009 net.cpp:141] Setting up inception_4a/relu_3x3_reduce
I0403 16:22:51.983357 21009 net.cpp:148] Top shape: 24 96 14 14 (451584)
I0403 16:22:51.983372 21009 net.cpp:156] Memory required for data: 865236000
I0403 16:22:51.983388 21009 layer_factory.hpp:77] Creating layer inception_4a/3x3
I0403 16:22:51.983412 21009 net.cpp:91] Creating Layer inception_4a/3x3
I0403 16:22:51.983430 21009 net.cpp:425] inception_4a/3x3 <- inception_4a/3x3_reduce
I0403 16:22:51.983453 21009 net.cpp:399] inception_4a/3x3 -> inception_4a/3x3
I0403 16:22:51.986264 21009 net.cpp:141] Setting up inception_4a/3x3
I0403 16:22:51.986294 21009 net.cpp:148] Top shape: 24 208 14 14 (978432)
I0403 16:22:51.986310 21009 net.cpp:156] Memory required for data: 869149728
I0403 16:22:51.986330 21009 layer_factory.hpp:77] Creating layer inception_4a/relu_3x3
I0403 16:22:51.986351 21009 net.cpp:91] Creating Layer inception_4a/relu_3x3
I0403 16:22:51.986367 21009 net.cpp:425] inception_4a/relu_3x3 <- inception_4a/3x3
I0403 16:22:51.986385 21009 net.cpp:386] inception_4a/relu_3x3 -> inception_4a/3x3 (in-place)
I0403 16:22:51.986676 21009 net.cpp:141] Setting up inception_4a/relu_3x3
I0403 16:22:51.986703 21009 net.cpp:148] Top shape: 24 208 14 14 (978432)
I0403 16:22:51.986718 21009 net.cpp:156] Memory required for data: 873063456
I0403 16:22:51.986734 21009 layer_factory.hpp:77] Creating layer inception_4a/5x5_reduce
I0403 16:22:51.986758 21009 net.cpp:91] Creating Layer inception_4a/5x5_reduce
I0403 16:22:51.986776 21009 net.cpp:425] inception_4a/5x5_reduce <- pool3/3x3_s2_pool3/3x3_s2_0_split_2
I0403 16:22:51.986799 21009 net.cpp:399] inception_4a/5x5_reduce -> inception_4a/5x5_reduce
I0403 16:22:51.987866 21009 net.cpp:141] Setting up inception_4a/5x5_reduce
I0403 16:22:51.987900 21009 net.cpp:148] Top shape: 24 16 14 14 (75264)
I0403 16:22:51.987915 21009 net.cpp:156] Memory required for data: 873364512
I0403 16:22:51.987934 21009 layer_factory.hpp:77] Creating layer inception_4a/relu_5x5_reduce
I0403 16:22:51.987959 21009 net.cpp:91] Creating Layer inception_4a/relu_5x5_reduce
I0403 16:22:51.987979 21009 net.cpp:425] inception_4a/relu_5x5_reduce <- inception_4a/5x5_reduce
I0403 16:22:51.987998 21009 net.cpp:386] inception_4a/relu_5x5_reduce -> inception_4a/5x5_reduce (in-place)
I0403 16:22:51.988184 21009 net.cpp:141] Setting up inception_4a/relu_5x5_reduce
I0403 16:22:51.988211 21009 net.cpp:148] Top shape: 24 16 14 14 (75264)
I0403 16:22:51.988226 21009 net.cpp:156] Memory required for data: 873665568
I0403 16:22:51.988243 21009 layer_factory.hpp:77] Creating layer inception_4a/5x5
I0403 16:22:51.988266 21009 net.cpp:91] Creating Layer inception_4a/5x5
I0403 16:22:51.988284 21009 net.cpp:425] inception_4a/5x5 <- inception_4a/5x5_reduce
I0403 16:22:51.988306 21009 net.cpp:399] inception_4a/5x5 -> inception_4a/5x5
I0403 16:22:51.989455 21009 net.cpp:141] Setting up inception_4a/5x5
I0403 16:22:51.989486 21009 net.cpp:148] Top shape: 24 48 14 14 (225792)
I0403 16:22:51.989503 21009 net.cpp:156] Memory required for data: 874568736
I0403 16:22:51.989523 21009 layer_factory.hpp:77] Creating layer inception_4a/relu_5x5
I0403 16:22:51.989542 21009 net.cpp:91] Creating Layer inception_4a/relu_5x5
I0403 16:22:51.989558 21009 net.cpp:425] inception_4a/relu_5x5 <- inception_4a/5x5
I0403 16:22:51.989578 21009 net.cpp:386] inception_4a/relu_5x5 -> inception_4a/5x5 (in-place)
I0403 16:22:51.989765 21009 net.cpp:141] Setting up inception_4a/relu_5x5
I0403 16:22:51.989790 21009 net.cpp:148] Top shape: 24 48 14 14 (225792)
I0403 16:22:51.989805 21009 net.cpp:156] Memory required for data: 875471904
I0403 16:22:51.989820 21009 layer_factory.hpp:77] Creating layer inception_4a/pool
I0403 16:22:51.989840 21009 net.cpp:91] Creating Layer inception_4a/pool
I0403 16:22:51.989855 21009 net.cpp:425] inception_4a/pool <- pool3/3x3_s2_pool3/3x3_s2_0_split_3
I0403 16:22:51.989876 21009 net.cpp:399] inception_4a/pool -> inception_4a/pool
I0403 16:22:51.989939 21009 net.cpp:141] Setting up inception_4a/pool
I0403 16:22:51.989969 21009 net.cpp:148] Top shape: 24 480 14 14 (2257920)
I0403 16:22:51.989985 21009 net.cpp:156] Memory required for data: 884503584
I0403 16:22:51.990000 21009 layer_factory.hpp:77] Creating layer inception_4a/pool_proj
I0403 16:22:51.990025 21009 net.cpp:91] Creating Layer inception_4a/pool_proj
I0403 16:22:51.990043 21009 net.cpp:425] inception_4a/pool_proj <- inception_4a/pool
I0403 16:22:51.990063 21009 net.cpp:399] inception_4a/pool_proj -> inception_4a/pool_proj
I0403 16:22:51.991291 21009 net.cpp:141] Setting up inception_4a/pool_proj
I0403 16:22:51.991320 21009 net.cpp:148] Top shape: 24 64 14 14 (301056)
I0403 16:22:51.991351 21009 net.cpp:156] Memory required for data: 885707808
I0403 16:22:51.991371 21009 layer_factory.hpp:77] Creating layer inception_4a/relu_pool_proj
I0403 16:22:51.991390 21009 net.cpp:91] Creating Layer inception_4a/relu_pool_proj
I0403 16:22:51.991406 21009 net.cpp:425] inception_4a/relu_pool_proj <- inception_4a/pool_proj
I0403 16:22:51.991428 21009 net.cpp:386] inception_4a/relu_pool_proj -> inception_4a/pool_proj (in-place)
I0403 16:22:51.991724 21009 net.cpp:141] Setting up inception_4a/relu_pool_proj
I0403 16:22:51.991750 21009 net.cpp:148] Top shape: 24 64 14 14 (301056)
I0403 16:22:51.991765 21009 net.cpp:156] Memory required for data: 886912032
I0403 16:22:51.991780 21009 layer_factory.hpp:77] Creating layer inception_4a/output
I0403 16:22:51.991798 21009 net.cpp:91] Creating Layer inception_4a/output
I0403 16:22:51.991814 21009 net.cpp:425] inception_4a/output <- inception_4a/1x1
I0403 16:22:51.991830 21009 net.cpp:425] inception_4a/output <- inception_4a/3x3
I0403 16:22:51.991847 21009 net.cpp:425] inception_4a/output <- inception_4a/5x5
I0403 16:22:51.991863 21009 net.cpp:425] inception_4a/output <- inception_4a/pool_proj
I0403 16:22:51.991883 21009 net.cpp:399] inception_4a/output -> inception_4a/output
I0403 16:22:51.991930 21009 net.cpp:141] Setting up inception_4a/output
I0403 16:22:51.991960 21009 net.cpp:148] Top shape: 24 512 14 14 (2408448)
I0403 16:22:51.991977 21009 net.cpp:156] Memory required for data: 896545824
I0403 16:22:51.991992 21009 layer_factory.hpp:77] Creating layer inception_4a/output_inception_4a/output_0_split
I0403 16:22:51.992010 21009 net.cpp:91] Creating Layer inception_4a/output_inception_4a/output_0_split
I0403 16:22:51.992027 21009 net.cpp:425] inception_4a/output_inception_4a/output_0_split <- inception_4a/output
I0403 16:22:51.992048 21009 net.cpp:399] inception_4a/output_inception_4a/output_0_split -> inception_4a/output_inception_4a/output_0_split_0
I0403 16:22:51.992069 21009 net.cpp:399] inception_4a/output_inception_4a/output_0_split -> inception_4a/output_inception_4a/output_0_split_1
I0403 16:22:51.992090 21009 net.cpp:399] inception_4a/output_inception_4a/output_0_split -> inception_4a/output_inception_4a/output_0_split_2
I0403 16:22:51.992111 21009 net.cpp:399] inception_4a/output_inception_4a/output_0_split -> inception_4a/output_inception_4a/output_0_split_3
I0403 16:22:51.992132 21009 net.cpp:399] inception_4a/output_inception_4a/output_0_split -> inception_4a/output_inception_4a/output_0_split_4
I0403 16:22:51.992228 21009 net.cpp:141] Setting up inception_4a/output_inception_4a/output_0_split
I0403 16:22:51.992254 21009 net.cpp:148] Top shape: 24 512 14 14 (2408448)
I0403 16:22:51.992271 21009 net.cpp:148] Top shape: 24 512 14 14 (2408448)
I0403 16:22:51.992288 21009 net.cpp:148] Top shape: 24 512 14 14 (2408448)
I0403 16:22:51.992305 21009 net.cpp:148] Top shape: 24 512 14 14 (2408448)
I0403 16:22:51.992321 21009 net.cpp:148] Top shape: 24 512 14 14 (2408448)
I0403 16:22:51.992334 21009 net.cpp:156] Memory required for data: 944714784
I0403 16:22:51.992349 21009 layer_factory.hpp:77] Creating layer loss1/ave_pool
I0403 16:22:51.992370 21009 net.cpp:91] Creating Layer loss1/ave_pool
I0403 16:22:51.992388 21009 net.cpp:425] loss1/ave_pool <- inception_4a/output_inception_4a/output_0_split_0
I0403 16:22:51.992406 21009 net.cpp:399] loss1/ave_pool -> loss1/ave_pool
I0403 16:22:51.992621 21009 net.cpp:141] Setting up loss1/ave_pool
I0403 16:22:51.992650 21009 net.cpp:148] Top shape: 24 512 4 4 (196608)
I0403 16:22:51.992665 21009 net.cpp:156] Memory required for data: 945501216
I0403 16:22:51.992679 21009 layer_factory.hpp:77] Creating layer loss1/conv
I0403 16:22:51.992702 21009 net.cpp:91] Creating Layer loss1/conv
I0403 16:22:51.992720 21009 net.cpp:425] loss1/conv <- loss1/ave_pool
I0403 16:22:51.992740 21009 net.cpp:399] loss1/conv -> loss1/conv
I0403 16:22:51.994228 21009 net.cpp:141] Setting up loss1/conv
I0403 16:22:51.994259 21009 net.cpp:148] Top shape: 24 128 4 4 (49152)
I0403 16:22:51.994276 21009 net.cpp:156] Memory required for data: 945697824
I0403 16:22:51.994309 21009 layer_factory.hpp:77] Creating layer loss1/relu_conv
I0403 16:22:51.994331 21009 net.cpp:91] Creating Layer loss1/relu_conv
I0403 16:22:51.994348 21009 net.cpp:425] loss1/relu_conv <- loss1/conv
I0403 16:22:51.994365 21009 net.cpp:386] loss1/relu_conv -> loss1/conv (in-place)
I0403 16:22:51.994662 21009 net.cpp:141] Setting up loss1/relu_conv
I0403 16:22:51.994689 21009 net.cpp:148] Top shape: 24 128 4 4 (49152)
I0403 16:22:51.994704 21009 net.cpp:156] Memory required for data: 945894432
I0403 16:22:51.994720 21009 layer_factory.hpp:77] Creating layer loss1/fc
I0403 16:22:51.994746 21009 net.cpp:91] Creating Layer loss1/fc
I0403 16:22:51.994766 21009 net.cpp:425] loss1/fc <- loss1/conv
I0403 16:22:51.994787 21009 net.cpp:399] loss1/fc -> loss1/fc
I0403 16:22:52.013079 21009 net.cpp:141] Setting up loss1/fc
I0403 16:22:52.013118 21009 net.cpp:148] Top shape: 24 1024 (24576)
I0403 16:22:52.013134 21009 net.cpp:156] Memory required for data: 945992736
I0403 16:22:52.013151 21009 layer_factory.hpp:77] Creating layer loss1/relu_fc
I0403 16:22:52.013170 21009 net.cpp:91] Creating Layer loss1/relu_fc
I0403 16:22:52.013185 21009 net.cpp:425] loss1/relu_fc <- loss1/fc
I0403 16:22:52.013205 21009 net.cpp:386] loss1/relu_fc -> loss1/fc (in-place)
I0403 16:22:52.013386 21009 net.cpp:141] Setting up loss1/relu_fc
I0403 16:22:52.013411 21009 net.cpp:148] Top shape: 24 1024 (24576)
I0403 16:22:52.013427 21009 net.cpp:156] Memory required for data: 946091040
I0403 16:22:52.013440 21009 layer_factory.hpp:77] Creating layer loss1/drop_fc
I0403 16:22:52.013468 21009 net.cpp:91] Creating Layer loss1/drop_fc
I0403 16:22:52.013485 21009 net.cpp:425] loss1/drop_fc <- loss1/fc
I0403 16:22:52.013502 21009 net.cpp:386] loss1/drop_fc -> loss1/fc (in-place)
I0403 16:22:52.013552 21009 net.cpp:141] Setting up loss1/drop_fc
I0403 16:22:52.013578 21009 net.cpp:148] Top shape: 24 1024 (24576)
I0403 16:22:52.013593 21009 net.cpp:156] Memory required for data: 946189344
I0403 16:22:52.013608 21009 layer_factory.hpp:77] Creating layer loss1/classifier_plantvillage
I0403 16:22:52.013625 21009 net.cpp:91] Creating Layer loss1/classifier_plantvillage
I0403 16:22:52.013641 21009 net.cpp:425] loss1/classifier_plantvillage <- loss1/fc
I0403 16:22:52.013662 21009 net.cpp:399] loss1/classifier_plantvillage -> loss1/classifier_plantvillage
I0403 16:22:52.014564 21009 net.cpp:141] Setting up loss1/classifier_plantvillage
I0403 16:22:52.014591 21009 net.cpp:148] Top shape: 24 38 (912)
I0403 16:22:52.014606 21009 net.cpp:156] Memory required for data: 946192992
I0403 16:22:52.014623 21009 layer_factory.hpp:77] Creating layer loss1/classifier_plantvillage_loss1/classifier_plantvillage_0_split
I0403 16:22:52.014642 21009 net.cpp:91] Creating Layer loss1/classifier_plantvillage_loss1/classifier_plantvillage_0_split
I0403 16:22:52.014657 21009 net.cpp:425] loss1/classifier_plantvillage_loss1/classifier_plantvillage_0_split <- loss1/classifier_plantvillage
I0403 16:22:52.014678 21009 net.cpp:399] loss1/classifier_plantvillage_loss1/classifier_plantvillage_0_split -> loss1/classifier_plantvillage_loss1/classifier_plantvillage_0_split_0
I0403 16:22:52.014698 21009 net.cpp:399] loss1/classifier_plantvillage_loss1/classifier_plantvillage_0_split -> loss1/classifier_plantvillage_loss1/classifier_plantvillage_0_split_1
I0403 16:22:52.014717 21009 net.cpp:399] loss1/classifier_plantvillage_loss1/classifier_plantvillage_0_split -> loss1/classifier_plantvillage_loss1/classifier_plantvillage_0_split_2
I0403 16:22:52.014785 21009 net.cpp:141] Setting up loss1/classifier_plantvillage_loss1/classifier_plantvillage_0_split
I0403 16:22:52.014806 21009 net.cpp:148] Top shape: 24 38 (912)
I0403 16:22:52.014822 21009 net.cpp:148] Top shape: 24 38 (912)
I0403 16:22:52.014838 21009 net.cpp:148] Top shape: 24 38 (912)
I0403 16:22:52.014852 21009 net.cpp:156] Memory required for data: 946203936
I0403 16:22:52.014865 21009 layer_factory.hpp:77] Creating layer inception_4b/1x1
I0403 16:22:52.014888 21009 net.cpp:91] Creating Layer inception_4b/1x1
I0403 16:22:52.014921 21009 net.cpp:425] inception_4b/1x1 <- inception_4a/output_inception_4a/output_0_split_1
I0403 16:22:52.014940 21009 net.cpp:399] inception_4b/1x1 -> inception_4b/1x1
I0403 16:22:52.016589 21009 net.cpp:141] Setting up inception_4b/1x1
I0403 16:22:52.016618 21009 net.cpp:148] Top shape: 24 160 14 14 (752640)
I0403 16:22:52.016633 21009 net.cpp:156] Memory required for data: 949214496
I0403 16:22:52.016651 21009 layer_factory.hpp:77] Creating layer inception_4b/relu_1x1
I0403 16:22:52.016671 21009 net.cpp:91] Creating Layer inception_4b/relu_1x1
I0403 16:22:52.016688 21009 net.cpp:425] inception_4b/relu_1x1 <- inception_4b/1x1
I0403 16:22:52.016705 21009 net.cpp:386] inception_4b/relu_1x1 -> inception_4b/1x1 (in-place)
I0403 16:22:52.016881 21009 net.cpp:141] Setting up inception_4b/relu_1x1
I0403 16:22:52.016907 21009 net.cpp:148] Top shape: 24 160 14 14 (752640)
I0403 16:22:52.016922 21009 net.cpp:156] Memory required for data: 952225056
I0403 16:22:52.016937 21009 layer_factory.hpp:77] Creating layer inception_4b/3x3_reduce
I0403 16:22:52.016964 21009 net.cpp:91] Creating Layer inception_4b/3x3_reduce
I0403 16:22:52.016983 21009 net.cpp:425] inception_4b/3x3_reduce <- inception_4a/output_inception_4a/output_0_split_2
I0403 16:22:52.017001 21009 net.cpp:399] inception_4b/3x3_reduce -> inception_4b/3x3_reduce
I0403 16:22:52.018340 21009 net.cpp:141] Setting up inception_4b/3x3_reduce
I0403 16:22:52.018370 21009 net.cpp:148] Top shape: 24 112 14 14 (526848)
I0403 16:22:52.018386 21009 net.cpp:156] Memory required for data: 954332448
I0403 16:22:52.018404 21009 layer_factory.hpp:77] Creating layer inception_4b/relu_3x3_reduce
I0403 16:22:52.018422 21009 net.cpp:91] Creating Layer inception_4b/relu_3x3_reduce
I0403 16:22:52.018438 21009 net.cpp:425] inception_4b/relu_3x3_reduce <- inception_4b/3x3_reduce
I0403 16:22:52.018455 21009 net.cpp:386] inception_4b/relu_3x3_reduce -> inception_4b/3x3_reduce (in-place)
I0403 16:22:52.018733 21009 net.cpp:141] Setting up inception_4b/relu_3x3_reduce
I0403 16:22:52.018761 21009 net.cpp:148] Top shape: 24 112 14 14 (526848)
I0403 16:22:52.018776 21009 net.cpp:156] Memory required for data: 956439840
I0403 16:22:52.018791 21009 layer_factory.hpp:77] Creating layer inception_4b/3x3
I0403 16:22:52.018812 21009 net.cpp:91] Creating Layer inception_4b/3x3
I0403 16:22:52.018829 21009 net.cpp:425] inception_4b/3x3 <- inception_4b/3x3_reduce
I0403 16:22:52.018848 21009 net.cpp:399] inception_4b/3x3 -> inception_4b/3x3
I0403 16:22:52.021813 21009 net.cpp:141] Setting up inception_4b/3x3
I0403 16:22:52.021842 21009 net.cpp:148] Top shape: 24 224 14 14 (1053696)
I0403 16:22:52.021857 21009 net.cpp:156] Memory required for data: 960654624
I0403 16:22:52.021874 21009 layer_factory.hpp:77] Creating layer inception_4b/relu_3x3
I0403 16:22:52.021891 21009 net.cpp:91] Creating Layer inception_4b/relu_3x3
I0403 16:22:52.021908 21009 net.cpp:425] inception_4b/relu_3x3 <- inception_4b/3x3
I0403 16:22:52.021927 21009 net.cpp:386] inception_4b/relu_3x3 -> inception_4b/3x3 (in-place)
I0403 16:22:52.022111 21009 net.cpp:141] Setting up inception_4b/relu_3x3
I0403 16:22:52.022136 21009 net.cpp:148] Top shape: 24 224 14 14 (1053696)
I0403 16:22:52.022150 21009 net.cpp:156] Memory required for data: 964869408
I0403 16:22:52.022166 21009 layer_factory.hpp:77] Creating layer inception_4b/5x5_reduce
I0403 16:22:52.022186 21009 net.cpp:91] Creating Layer inception_4b/5x5_reduce
I0403 16:22:52.022203 21009 net.cpp:425] inception_4b/5x5_reduce <- inception_4a/output_inception_4a/output_0_split_3
I0403 16:22:52.022225 21009 net.cpp:399] inception_4b/5x5_reduce -> inception_4b/5x5_reduce
I0403 16:22:52.023304 21009 net.cpp:141] Setting up inception_4b/5x5_reduce
I0403 16:22:52.023334 21009 net.cpp:148] Top shape: 24 24 14 14 (112896)
I0403 16:22:52.023350 21009 net.cpp:156] Memory required for data: 965320992
I0403 16:22:52.023368 21009 layer_factory.hpp:77] Creating layer inception_4b/relu_5x5_reduce
I0403 16:22:52.023386 21009 net.cpp:91] Creating Layer inception_4b/relu_5x5_reduce
I0403 16:22:52.023416 21009 net.cpp:425] inception_4b/relu_5x5_reduce <- inception_4b/5x5_reduce
I0403 16:22:52.023434 21009 net.cpp:386] inception_4b/relu_5x5_reduce -> inception_4b/5x5_reduce (in-place)
I0403 16:22:52.023617 21009 net.cpp:141] Setting up inception_4b/relu_5x5_reduce
I0403 16:22:52.023643 21009 net.cpp:148] Top shape: 24 24 14 14 (112896)
I0403 16:22:52.023658 21009 net.cpp:156] Memory required for data: 965772576
I0403 16:22:52.023674 21009 layer_factory.hpp:77] Creating layer inception_4b/5x5
I0403 16:22:52.023694 21009 net.cpp:91] Creating Layer inception_4b/5x5
I0403 16:22:52.023712 21009 net.cpp:425] inception_4b/5x5 <- inception_4b/5x5_reduce
I0403 16:22:52.023735 21009 net.cpp:399] inception_4b/5x5 -> inception_4b/5x5
I0403 16:22:52.024950 21009 net.cpp:141] Setting up inception_4b/5x5
I0403 16:22:52.024981 21009 net.cpp:148] Top shape: 24 64 14 14 (301056)
I0403 16:22:52.024996 21009 net.cpp:156] Memory required for data: 966976800
I0403 16:22:52.025014 21009 layer_factory.hpp:77] Creating layer inception_4b/relu_5x5
I0403 16:22:52.025034 21009 net.cpp:91] Creating Layer inception_4b/relu_5x5
I0403 16:22:52.025050 21009 net.cpp:425] inception_4b/relu_5x5 <- inception_4b/5x5
I0403 16:22:52.025068 21009 net.cpp:386] inception_4b/relu_5x5 -> inception_4b/5x5 (in-place)
I0403 16:22:52.025352 21009 net.cpp:141] Setting up inception_4b/relu_5x5
I0403 16:22:52.025377 21009 net.cpp:148] Top shape: 24 64 14 14 (301056)
I0403 16:22:52.025391 21009 net.cpp:156] Memory required for data: 968181024
I0403 16:22:52.025405 21009 layer_factory.hpp:77] Creating layer inception_4b/pool
I0403 16:22:52.025425 21009 net.cpp:91] Creating Layer inception_4b/pool
I0403 16:22:52.025442 21009 net.cpp:425] inception_4b/pool <- inception_4a/output_inception_4a/output_0_split_4
I0403 16:22:52.025460 21009 net.cpp:399] inception_4b/pool -> inception_4b/pool
I0403 16:22:52.025523 21009 net.cpp:141] Setting up inception_4b/pool
I0403 16:22:52.025547 21009 net.cpp:148] Top shape: 24 512 14 14 (2408448)
I0403 16:22:52.025562 21009 net.cpp:156] Memory required for data: 977814816
I0403 16:22:52.025574 21009 layer_factory.hpp:77] Creating layer inception_4b/pool_proj
I0403 16:22:52.025596 21009 net.cpp:91] Creating Layer inception_4b/pool_proj
I0403 16:22:52.025612 21009 net.cpp:425] inception_4b/pool_proj <- inception_4b/pool
I0403 16:22:52.025634 21009 net.cpp:399] inception_4b/pool_proj -> inception_4b/pool_proj
I0403 16:22:52.026830 21009 net.cpp:141] Setting up inception_4b/pool_proj
I0403 16:22:52.026857 21009 net.cpp:148] Top shape: 24 64 14 14 (301056)
I0403 16:22:52.026873 21009 net.cpp:156] Memory required for data: 979019040
I0403 16:22:52.026891 21009 layer_factory.hpp:77] Creating layer inception_4b/relu_pool_proj
I0403 16:22:52.026911 21009 net.cpp:91] Creating Layer inception_4b/relu_pool_proj
I0403 16:22:52.026928 21009 net.cpp:425] inception_4b/relu_pool_proj <- inception_4b/pool_proj
I0403 16:22:52.026947 21009 net.cpp:386] inception_4b/relu_pool_proj -> inception_4b/pool_proj (in-place)
I0403 16:22:52.027130 21009 net.cpp:141] Setting up inception_4b/relu_pool_proj
I0403 16:22:52.027155 21009 net.cpp:148] Top shape: 24 64 14 14 (301056)
I0403 16:22:52.027169 21009 net.cpp:156] Memory required for data: 980223264
I0403 16:22:52.027184 21009 layer_factory.hpp:77] Creating layer inception_4b/output
I0403 16:22:52.027200 21009 net.cpp:91] Creating Layer inception_4b/output
I0403 16:22:52.027215 21009 net.cpp:425] inception_4b/output <- inception_4b/1x1
I0403 16:22:52.027231 21009 net.cpp:425] inception_4b/output <- inception_4b/3x3
I0403 16:22:52.027248 21009 net.cpp:425] inception_4b/output <- inception_4b/5x5
I0403 16:22:52.027263 21009 net.cpp:425] inception_4b/output <- inception_4b/pool_proj
I0403 16:22:52.027281 21009 net.cpp:399] inception_4b/output -> inception_4b/output
I0403 16:22:52.027328 21009 net.cpp:141] Setting up inception_4b/output
I0403 16:22:52.027353 21009 net.cpp:148] Top shape: 24 512 14 14 (2408448)
I0403 16:22:52.027366 21009 net.cpp:156] Memory required for data: 989857056
I0403 16:22:52.027395 21009 layer_factory.hpp:77] Creating layer inception_4b/output_inception_4b/output_0_split
I0403 16:22:52.027412 21009 net.cpp:91] Creating Layer inception_4b/output_inception_4b/output_0_split
I0403 16:22:52.027427 21009 net.cpp:425] inception_4b/output_inception_4b/output_0_split <- inception_4b/output
I0403 16:22:52.027446 21009 net.cpp:399] inception_4b/output_inception_4b/output_0_split -> inception_4b/output_inception_4b/output_0_split_0
I0403 16:22:52.027465 21009 net.cpp:399] inception_4b/output_inception_4b/output_0_split -> inception_4b/output_inception_4b/output_0_split_1
I0403 16:22:52.027487 21009 net.cpp:399] inception_4b/output_inception_4b/output_0_split -> inception_4b/output_inception_4b/output_0_split_2
I0403 16:22:52.027508 21009 net.cpp:399] inception_4b/output_inception_4b/output_0_split -> inception_4b/output_inception_4b/output_0_split_3
I0403 16:22:52.027592 21009 net.cpp:141] Setting up inception_4b/output_inception_4b/output_0_split
I0403 16:22:52.027616 21009 net.cpp:148] Top shape: 24 512 14 14 (2408448)
I0403 16:22:52.027631 21009 net.cpp:148] Top shape: 24 512 14 14 (2408448)
I0403 16:22:52.027647 21009 net.cpp:148] Top shape: 24 512 14 14 (2408448)
I0403 16:22:52.027662 21009 net.cpp:148] Top shape: 24 512 14 14 (2408448)
I0403 16:22:52.027675 21009 net.cpp:156] Memory required for data: 1028392224
I0403 16:22:52.027689 21009 layer_factory.hpp:77] Creating layer inception_4c/1x1
I0403 16:22:52.027710 21009 net.cpp:91] Creating Layer inception_4c/1x1
I0403 16:22:52.027727 21009 net.cpp:425] inception_4c/1x1 <- inception_4b/output_inception_4b/output_0_split_0
I0403 16:22:52.027748 21009 net.cpp:399] inception_4c/1x1 -> inception_4c/1x1
I0403 16:22:52.029191 21009 net.cpp:141] Setting up inception_4c/1x1
I0403 16:22:52.029219 21009 net.cpp:148] Top shape: 24 128 14 14 (602112)
I0403 16:22:52.029234 21009 net.cpp:156] Memory required for data: 1030800672
I0403 16:22:52.029253 21009 layer_factory.hpp:77] Creating layer inception_4c/relu_1x1
I0403 16:22:52.029270 21009 net.cpp:91] Creating Layer inception_4c/relu_1x1
I0403 16:22:52.029287 21009 net.cpp:425] inception_4c/relu_1x1 <- inception_4c/1x1
I0403 16:22:52.029307 21009 net.cpp:386] inception_4c/relu_1x1 -> inception_4c/1x1 (in-place)
I0403 16:22:52.029487 21009 net.cpp:141] Setting up inception_4c/relu_1x1
I0403 16:22:52.029511 21009 net.cpp:148] Top shape: 24 128 14 14 (602112)
I0403 16:22:52.029526 21009 net.cpp:156] Memory required for data: 1033209120
I0403 16:22:52.029541 21009 layer_factory.hpp:77] Creating layer inception_4c/3x3_reduce
I0403 16:22:52.029561 21009 net.cpp:91] Creating Layer inception_4c/3x3_reduce
I0403 16:22:52.029578 21009 net.cpp:425] inception_4c/3x3_reduce <- inception_4b/output_inception_4b/output_0_split_1
I0403 16:22:52.029599 21009 net.cpp:399] inception_4c/3x3_reduce -> inception_4c/3x3_reduce
I0403 16:22:52.031571 21009 net.cpp:141] Setting up inception_4c/3x3_reduce
I0403 16:22:52.031601 21009 net.cpp:148] Top shape: 24 128 14 14 (602112)
I0403 16:22:52.031617 21009 net.cpp:156] Memory required for data: 1035617568
I0403 16:22:52.031636 21009 layer_factory.hpp:77] Creating layer inception_4c/relu_3x3_reduce
I0403 16:22:52.031657 21009 net.cpp:91] Creating Layer inception_4c/relu_3x3_reduce
I0403 16:22:52.031674 21009 net.cpp:425] inception_4c/relu_3x3_reduce <- inception_4c/3x3_reduce
I0403 16:22:52.031692 21009 net.cpp:386] inception_4c/relu_3x3_reduce -> inception_4c/3x3_reduce (in-place)
I0403 16:22:52.031987 21009 net.cpp:141] Setting up inception_4c/relu_3x3_reduce
I0403 16:22:52.032013 21009 net.cpp:148] Top shape: 24 128 14 14 (602112)
I0403 16:22:52.032028 21009 net.cpp:156] Memory required for data: 1038026016
I0403 16:22:52.032044 21009 layer_factory.hpp:77] Creating layer inception_4c/3x3
I0403 16:22:52.032068 21009 net.cpp:91] Creating Layer inception_4c/3x3
I0403 16:22:52.032084 21009 net.cpp:425] inception_4c/3x3 <- inception_4c/3x3_reduce
I0403 16:22:52.032107 21009 net.cpp:399] inception_4c/3x3 -> inception_4c/3x3
I0403 16:22:52.035814 21009 net.cpp:141] Setting up inception_4c/3x3
I0403 16:22:52.035856 21009 net.cpp:148] Top shape: 24 256 14 14 (1204224)
I0403 16:22:52.035873 21009 net.cpp:156] Memory required for data: 1042842912
I0403 16:22:52.035907 21009 layer_factory.hpp:77] Creating layer inception_4c/relu_3x3
I0403 16:22:52.035929 21009 net.cpp:91] Creating Layer inception_4c/relu_3x3
I0403 16:22:52.035948 21009 net.cpp:425] inception_4c/relu_3x3 <- inception_4c/3x3
I0403 16:22:52.035970 21009 net.cpp:386] inception_4c/relu_3x3 -> inception_4c/3x3 (in-place)
I0403 16:22:52.036157 21009 net.cpp:141] Setting up inception_4c/relu_3x3
I0403 16:22:52.036190 21009 net.cpp:148] Top shape: 24 256 14 14 (1204224)
I0403 16:22:52.036214 21009 net.cpp:156] Memory required for data: 1047659808
I0403 16:22:52.036237 21009 layer_factory.hpp:77] Creating layer inception_4c/5x5_reduce
I0403 16:22:52.036267 21009 net.cpp:91] Creating Layer inception_4c/5x5_reduce
I0403 16:22:52.036286 21009 net.cpp:425] inception_4c/5x5_reduce <- inception_4b/output_inception_4b/output_0_split_2
I0403 16:22:52.036305 21009 net.cpp:399] inception_4c/5x5_reduce -> inception_4c/5x5_reduce
I0403 16:22:52.037472 21009 net.cpp:141] Setting up inception_4c/5x5_reduce
I0403 16:22:52.037502 21009 net.cpp:148] Top shape: 24 24 14 14 (112896)
I0403 16:22:52.037520 21009 net.cpp:156] Memory required for data: 1048111392
I0403 16:22:52.037539 21009 layer_factory.hpp:77] Creating layer inception_4c/relu_5x5_reduce
I0403 16:22:52.037559 21009 net.cpp:91] Creating Layer inception_4c/relu_5x5_reduce
I0403 16:22:52.037575 21009 net.cpp:425] inception_4c/relu_5x5_reduce <- inception_4c/5x5_reduce
I0403 16:22:52.037593 21009 net.cpp:386] inception_4c/relu_5x5_reduce -> inception_4c/5x5_reduce (in-place)
I0403 16:22:52.037787 21009 net.cpp:141] Setting up inception_4c/relu_5x5_reduce
I0403 16:22:52.037816 21009 net.cpp:148] Top shape: 24 24 14 14 (112896)
I0403 16:22:52.037832 21009 net.cpp:156] Memory required for data: 1048562976
I0403 16:22:52.037847 21009 layer_factory.hpp:77] Creating layer inception_4c/5x5
I0403 16:22:52.037869 21009 net.cpp:91] Creating Layer inception_4c/5x5
I0403 16:22:52.037889 21009 net.cpp:425] inception_4c/5x5 <- inception_4c/5x5_reduce
I0403 16:22:52.037909 21009 net.cpp:399] inception_4c/5x5 -> inception_4c/5x5
I0403 16:22:52.039240 21009 net.cpp:141] Setting up inception_4c/5x5
I0403 16:22:52.039270 21009 net.cpp:148] Top shape: 24 64 14 14 (301056)
I0403 16:22:52.039286 21009 net.cpp:156] Memory required for data: 1049767200
I0403 16:22:52.039305 21009 layer_factory.hpp:77] Creating layer inception_4c/relu_5x5
I0403 16:22:52.039324 21009 net.cpp:91] Creating Layer inception_4c/relu_5x5
I0403 16:22:52.039340 21009 net.cpp:425] inception_4c/relu_5x5 <- inception_4c/5x5
I0403 16:22:52.039361 21009 net.cpp:386] inception_4c/relu_5x5 -> inception_4c/5x5 (in-place)
I0403 16:22:52.039664 21009 net.cpp:141] Setting up inception_4c/relu_5x5
I0403 16:22:52.039691 21009 net.cpp:148] Top shape: 24 64 14 14 (301056)
I0403 16:22:52.039707 21009 net.cpp:156] Memory required for data: 1050971424
I0403 16:22:52.039722 21009 layer_factory.hpp:77] Creating layer inception_4c/pool
I0403 16:22:52.039741 21009 net.cpp:91] Creating Layer inception_4c/pool
I0403 16:22:52.039757 21009 net.cpp:425] inception_4c/pool <- inception_4b/output_inception_4b/output_0_split_3
I0403 16:22:52.039778 21009 net.cpp:399] inception_4c/pool -> inception_4c/pool
I0403 16:22:52.039849 21009 net.cpp:141] Setting up inception_4c/pool
I0403 16:22:52.039873 21009 net.cpp:148] Top shape: 24 512 14 14 (2408448)
I0403 16:22:52.039888 21009 net.cpp:156] Memory required for data: 1060605216
I0403 16:22:52.039904 21009 layer_factory.hpp:77] Creating layer inception_4c/pool_proj
I0403 16:22:52.039928 21009 net.cpp:91] Creating Layer inception_4c/pool_proj
I0403 16:22:52.039947 21009 net.cpp:425] inception_4c/pool_proj <- inception_4c/pool
I0403 16:22:52.039973 21009 net.cpp:399] inception_4c/pool_proj -> inception_4c/pool_proj
I0403 16:22:52.041271 21009 net.cpp:141] Setting up inception_4c/pool_proj
I0403 16:22:52.041301 21009 net.cpp:148] Top shape: 24 64 14 14 (301056)
I0403 16:22:52.041332 21009 net.cpp:156] Memory required for data: 1061809440
I0403 16:22:52.041352 21009 layer_factory.hpp:77] Creating layer inception_4c/relu_pool_proj
I0403 16:22:52.041373 21009 net.cpp:91] Creating Layer inception_4c/relu_pool_proj
I0403 16:22:52.041391 21009 net.cpp:425] inception_4c/relu_pool_proj <- inception_4c/pool_proj
I0403 16:22:52.041409 21009 net.cpp:386] inception_4c/relu_pool_proj -> inception_4c/pool_proj (in-place)
I0403 16:22:52.041601 21009 net.cpp:141] Setting up inception_4c/relu_pool_proj
I0403 16:22:52.041627 21009 net.cpp:148] Top shape: 24 64 14 14 (301056)
I0403 16:22:52.041642 21009 net.cpp:156] Memory required for data: 1063013664
I0403 16:22:52.041657 21009 layer_factory.hpp:77] Creating layer inception_4c/output
I0403 16:22:52.041676 21009 net.cpp:91] Creating Layer inception_4c/output
I0403 16:22:52.041692 21009 net.cpp:425] inception_4c/output <- inception_4c/1x1
I0403 16:22:52.041708 21009 net.cpp:425] inception_4c/output <- inception_4c/3x3
I0403 16:22:52.041725 21009 net.cpp:425] inception_4c/output <- inception_4c/5x5
I0403 16:22:52.041741 21009 net.cpp:425] inception_4c/output <- inception_4c/pool_proj
I0403 16:22:52.041761 21009 net.cpp:399] inception_4c/output -> inception_4c/output
I0403 16:22:52.041810 21009 net.cpp:141] Setting up inception_4c/output
I0403 16:22:52.041834 21009 net.cpp:148] Top shape: 24 512 14 14 (2408448)
I0403 16:22:52.041853 21009 net.cpp:156] Memory required for data: 1072647456
I0403 16:22:52.041869 21009 layer_factory.hpp:77] Creating layer inception_4c/output_inception_4c/output_0_split
I0403 16:22:52.041887 21009 net.cpp:91] Creating Layer inception_4c/output_inception_4c/output_0_split
I0403 16:22:52.041903 21009 net.cpp:425] inception_4c/output_inception_4c/output_0_split <- inception_4c/output
I0403 16:22:52.041920 21009 net.cpp:399] inception_4c/output_inception_4c/output_0_split -> inception_4c/output_inception_4c/output_0_split_0
I0403 16:22:52.041940 21009 net.cpp:399] inception_4c/output_inception_4c/output_0_split -> inception_4c/output_inception_4c/output_0_split_1
I0403 16:22:52.041966 21009 net.cpp:399] inception_4c/output_inception_4c/output_0_split -> inception_4c/output_inception_4c/output_0_split_2
I0403 16:22:52.041993 21009 net.cpp:399] inception_4c/output_inception_4c/output_0_split -> inception_4c/output_inception_4c/output_0_split_3
I0403 16:22:52.042086 21009 net.cpp:141] Setting up inception_4c/output_inception_4c/output_0_split
I0403 16:22:52.042111 21009 net.cpp:148] Top shape: 24 512 14 14 (2408448)
I0403 16:22:52.042129 21009 net.cpp:148] Top shape: 24 512 14 14 (2408448)
I0403 16:22:52.042145 21009 net.cpp:148] Top shape: 24 512 14 14 (2408448)
I0403 16:22:52.042160 21009 net.cpp:148] Top shape: 24 512 14 14 (2408448)
I0403 16:22:52.042176 21009 net.cpp:156] Memory required for data: 1111182624
I0403 16:22:52.042189 21009 layer_factory.hpp:77] Creating layer inception_4d/1x1
I0403 16:22:52.042212 21009 net.cpp:91] Creating Layer inception_4d/1x1
I0403 16:22:52.042230 21009 net.cpp:425] inception_4d/1x1 <- inception_4c/output_inception_4c/output_0_split_0
I0403 16:22:52.042254 21009 net.cpp:399] inception_4d/1x1 -> inception_4d/1x1
I0403 16:22:52.043723 21009 net.cpp:141] Setting up inception_4d/1x1
I0403 16:22:52.043752 21009 net.cpp:148] Top shape: 24 112 14 14 (526848)
I0403 16:22:52.043768 21009 net.cpp:156] Memory required for data: 1113290016
I0403 16:22:52.043787 21009 layer_factory.hpp:77] Creating layer inception_4d/relu_1x1
I0403 16:22:52.043808 21009 net.cpp:91] Creating Layer inception_4d/relu_1x1
I0403 16:22:52.043825 21009 net.cpp:425] inception_4d/relu_1x1 <- inception_4d/1x1
I0403 16:22:52.043843 21009 net.cpp:386] inception_4d/relu_1x1 -> inception_4d/1x1 (in-place)
I0403 16:22:52.044041 21009 net.cpp:141] Setting up inception_4d/relu_1x1
I0403 16:22:52.044067 21009 net.cpp:148] Top shape: 24 112 14 14 (526848)
I0403 16:22:52.044085 21009 net.cpp:156] Memory required for data: 1115397408
I0403 16:22:52.044101 21009 layer_factory.hpp:77] Creating layer inception_4d/3x3_reduce
I0403 16:22:52.044137 21009 net.cpp:91] Creating Layer inception_4d/3x3_reduce
I0403 16:22:52.044155 21009 net.cpp:425] inception_4d/3x3_reduce <- inception_4c/output_inception_4c/output_0_split_1
I0403 16:22:52.044178 21009 net.cpp:399] inception_4d/3x3_reduce -> inception_4d/3x3_reduce
I0403 16:22:52.045775 21009 net.cpp:141] Setting up inception_4d/3x3_reduce
I0403 16:22:52.045806 21009 net.cpp:148] Top shape: 24 144 14 14 (677376)
I0403 16:22:52.045824 21009 net.cpp:156] Memory required for data: 1118106912
I0403 16:22:52.045842 21009 layer_factory.hpp:77] Creating layer inception_4d/relu_3x3_reduce
I0403 16:22:52.045861 21009 net.cpp:91] Creating Layer inception_4d/relu_3x3_reduce
I0403 16:22:52.045878 21009 net.cpp:425] inception_4d/relu_3x3_reduce <- inception_4d/3x3_reduce
I0403 16:22:52.045898 21009 net.cpp:386] inception_4d/relu_3x3_reduce -> inception_4d/3x3_reduce (in-place)
I0403 16:22:52.046206 21009 net.cpp:141] Setting up inception_4d/relu_3x3_reduce
I0403 16:22:52.046236 21009 net.cpp:148] Top shape: 24 144 14 14 (677376)
I0403 16:22:52.046252 21009 net.cpp:156] Memory required for data: 1120816416
I0403 16:22:52.046267 21009 layer_factory.hpp:77] Creating layer inception_4d/3x3
I0403 16:22:52.046293 21009 net.cpp:91] Creating Layer inception_4d/3x3
I0403 16:22:52.046313 21009 net.cpp:425] inception_4d/3x3 <- inception_4d/3x3_reduce
I0403 16:22:52.046334 21009 net.cpp:399] inception_4d/3x3 -> inception_4d/3x3
I0403 16:22:52.051046 21009 net.cpp:141] Setting up inception_4d/3x3
I0403 16:22:52.051079 21009 net.cpp:148] Top shape: 24 288 14 14 (1354752)
I0403 16:22:52.051095 21009 net.cpp:156] Memory required for data: 1126235424
I0403 16:22:52.051112 21009 layer_factory.hpp:77] Creating layer inception_4d/relu_3x3
I0403 16:22:52.051134 21009 net.cpp:91] Creating Layer inception_4d/relu_3x3
I0403 16:22:52.051152 21009 net.cpp:425] inception_4d/relu_3x3 <- inception_4d/3x3
I0403 16:22:52.051170 21009 net.cpp:386] inception_4d/relu_3x3 -> inception_4d/3x3 (in-place)
I0403 16:22:52.051360 21009 net.cpp:141] Setting up inception_4d/relu_3x3
I0403 16:22:52.051385 21009 net.cpp:148] Top shape: 24 288 14 14 (1354752)
I0403 16:22:52.051399 21009 net.cpp:156] Memory required for data: 1131654432
I0403 16:22:52.051414 21009 layer_factory.hpp:77] Creating layer inception_4d/5x5_reduce
I0403 16:22:52.051439 21009 net.cpp:91] Creating Layer inception_4d/5x5_reduce
I0403 16:22:52.051456 21009 net.cpp:425] inception_4d/5x5_reduce <- inception_4c/output_inception_4c/output_0_split_2
I0403 16:22:52.051476 21009 net.cpp:399] inception_4d/5x5_reduce -> inception_4d/5x5_reduce
I0403 16:22:52.052654 21009 net.cpp:141] Setting up inception_4d/5x5_reduce
I0403 16:22:52.052683 21009 net.cpp:148] Top shape: 24 32 14 14 (150528)
I0403 16:22:52.052700 21009 net.cpp:156] Memory required for data: 1132256544
I0403 16:22:52.052717 21009 layer_factory.hpp:77] Creating layer inception_4d/relu_5x5_reduce
I0403 16:22:52.052738 21009 net.cpp:91] Creating Layer inception_4d/relu_5x5_reduce
I0403 16:22:52.052755 21009 net.cpp:425] inception_4d/relu_5x5_reduce <- inception_4d/5x5_reduce
I0403 16:22:52.052773 21009 net.cpp:386] inception_4d/relu_5x5_reduce -> inception_4d/5x5_reduce (in-place)
I0403 16:22:52.052969 21009 net.cpp:141] Setting up inception_4d/relu_5x5_reduce
I0403 16:22:52.052999 21009 net.cpp:148] Top shape: 24 32 14 14 (150528)
I0403 16:22:52.053014 21009 net.cpp:156] Memory required for data: 1132858656
I0403 16:22:52.053028 21009 layer_factory.hpp:77] Creating layer inception_4d/5x5
I0403 16:22:52.053048 21009 net.cpp:91] Creating Layer inception_4d/5x5
I0403 16:22:52.053066 21009 net.cpp:425] inception_4d/5x5 <- inception_4d/5x5_reduce
I0403 16:22:52.053087 21009 net.cpp:399] inception_4d/5x5 -> inception_4d/5x5
I0403 16:22:52.054617 21009 net.cpp:141] Setting up inception_4d/5x5
I0403 16:22:52.054648 21009 net.cpp:148] Top shape: 24 64 14 14 (301056)
I0403 16:22:52.054666 21009 net.cpp:156] Memory required for data: 1134062880
I0403 16:22:52.054683 21009 layer_factory.hpp:77] Creating layer inception_4d/relu_5x5
I0403 16:22:52.054719 21009 net.cpp:91] Creating Layer inception_4d/relu_5x5
I0403 16:22:52.054736 21009 net.cpp:425] inception_4d/relu_5x5 <- inception_4d/5x5
I0403 16:22:52.054754 21009 net.cpp:386] inception_4d/relu_5x5 -> inception_4d/5x5 (in-place)
I0403 16:22:52.055071 21009 net.cpp:141] Setting up inception_4d/relu_5x5
I0403 16:22:52.055100 21009 net.cpp:148] Top shape: 24 64 14 14 (301056)
I0403 16:22:52.055116 21009 net.cpp:156] Memory required for data: 1135267104
I0403 16:22:52.055131 21009 layer_factory.hpp:77] Creating layer inception_4d/pool
I0403 16:22:52.055150 21009 net.cpp:91] Creating Layer inception_4d/pool
I0403 16:22:52.055166 21009 net.cpp:425] inception_4d/pool <- inception_4c/output_inception_4c/output_0_split_3
I0403 16:22:52.055183 21009 net.cpp:399] inception_4d/pool -> inception_4d/pool
I0403 16:22:52.055253 21009 net.cpp:141] Setting up inception_4d/pool
I0403 16:22:52.055276 21009 net.cpp:148] Top shape: 24 512 14 14 (2408448)
I0403 16:22:52.055291 21009 net.cpp:156] Memory required for data: 1144900896
I0403 16:22:52.055305 21009 layer_factory.hpp:77] Creating layer inception_4d/pool_proj
I0403 16:22:52.055327 21009 net.cpp:91] Creating Layer inception_4d/pool_proj
I0403 16:22:52.055346 21009 net.cpp:425] inception_4d/pool_proj <- inception_4d/pool
I0403 16:22:52.055366 21009 net.cpp:399] inception_4d/pool_proj -> inception_4d/pool_proj
I0403 16:22:52.057184 21009 net.cpp:141] Setting up inception_4d/pool_proj
I0403 16:22:52.057214 21009 net.cpp:148] Top shape: 24 64 14 14 (301056)
I0403 16:22:52.057230 21009 net.cpp:156] Memory required for data: 1146105120
I0403 16:22:52.057248 21009 layer_factory.hpp:77] Creating layer inception_4d/relu_pool_proj
I0403 16:22:52.057270 21009 net.cpp:91] Creating Layer inception_4d/relu_pool_proj
I0403 16:22:52.057286 21009 net.cpp:425] inception_4d/relu_pool_proj <- inception_4d/pool_proj
I0403 16:22:52.057304 21009 net.cpp:386] inception_4d/relu_pool_proj -> inception_4d/pool_proj (in-place)
I0403 16:22:52.057498 21009 net.cpp:141] Setting up inception_4d/relu_pool_proj
I0403 16:22:52.057523 21009 net.cpp:148] Top shape: 24 64 14 14 (301056)
I0403 16:22:52.057538 21009 net.cpp:156] Memory required for data: 1147309344
I0403 16:22:52.057553 21009 layer_factory.hpp:77] Creating layer inception_4d/output
I0403 16:22:52.057572 21009 net.cpp:91] Creating Layer inception_4d/output
I0403 16:22:52.057588 21009 net.cpp:425] inception_4d/output <- inception_4d/1x1
I0403 16:22:52.057605 21009 net.cpp:425] inception_4d/output <- inception_4d/3x3
I0403 16:22:52.057623 21009 net.cpp:425] inception_4d/output <- inception_4d/5x5
I0403 16:22:52.057639 21009 net.cpp:425] inception_4d/output <- inception_4d/pool_proj
I0403 16:22:52.057657 21009 net.cpp:399] inception_4d/output -> inception_4d/output
I0403 16:22:52.057706 21009 net.cpp:141] Setting up inception_4d/output
I0403 16:22:52.057730 21009 net.cpp:148] Top shape: 24 528 14 14 (2483712)
I0403 16:22:52.057744 21009 net.cpp:156] Memory required for data: 1157244192
I0403 16:22:52.057760 21009 layer_factory.hpp:77] Creating layer inception_4d/output_inception_4d/output_0_split
I0403 16:22:52.057777 21009 net.cpp:91] Creating Layer inception_4d/output_inception_4d/output_0_split
I0403 16:22:52.057793 21009 net.cpp:425] inception_4d/output_inception_4d/output_0_split <- inception_4d/output
I0403 16:22:52.057813 21009 net.cpp:399] inception_4d/output_inception_4d/output_0_split -> inception_4d/output_inception_4d/output_0_split_0
I0403 16:22:52.057835 21009 net.cpp:399] inception_4d/output_inception_4d/output_0_split -> inception_4d/output_inception_4d/output_0_split_1
I0403 16:22:52.057857 21009 net.cpp:399] inception_4d/output_inception_4d/output_0_split -> inception_4d/output_inception_4d/output_0_split_2
I0403 16:22:52.057883 21009 net.cpp:399] inception_4d/output_inception_4d/output_0_split -> inception_4d/output_inception_4d/output_0_split_3
I0403 16:22:52.057904 21009 net.cpp:399] inception_4d/output_inception_4d/output_0_split -> inception_4d/output_inception_4d/output_0_split_4
I0403 16:22:52.058015 21009 net.cpp:141] Setting up inception_4d/output_inception_4d/output_0_split
I0403 16:22:52.058053 21009 net.cpp:148] Top shape: 24 528 14 14 (2483712)
I0403 16:22:52.058068 21009 net.cpp:148] Top shape: 24 528 14 14 (2483712)
I0403 16:22:52.058084 21009 net.cpp:148] Top shape: 24 528 14 14 (2483712)
I0403 16:22:52.058099 21009 net.cpp:148] Top shape: 24 528 14 14 (2483712)
I0403 16:22:52.058115 21009 net.cpp:148] Top shape: 24 528 14 14 (2483712)
I0403 16:22:52.058130 21009 net.cpp:156] Memory required for data: 1206918432
I0403 16:22:52.058143 21009 layer_factory.hpp:77] Creating layer loss2/ave_pool
I0403 16:22:52.058162 21009 net.cpp:91] Creating Layer loss2/ave_pool
I0403 16:22:52.058178 21009 net.cpp:425] loss2/ave_pool <- inception_4d/output_inception_4d/output_0_split_0
I0403 16:22:52.058199 21009 net.cpp:399] loss2/ave_pool -> loss2/ave_pool
I0403 16:22:52.058521 21009 net.cpp:141] Setting up loss2/ave_pool
I0403 16:22:52.058547 21009 net.cpp:148] Top shape: 24 528 4 4 (202752)
I0403 16:22:52.058562 21009 net.cpp:156] Memory required for data: 1207729440
I0403 16:22:52.058578 21009 layer_factory.hpp:77] Creating layer loss2/conv
I0403 16:22:52.058599 21009 net.cpp:91] Creating Layer loss2/conv
I0403 16:22:52.058617 21009 net.cpp:425] loss2/conv <- loss2/ave_pool
I0403 16:22:52.058639 21009 net.cpp:399] loss2/conv -> loss2/conv
I0403 16:22:52.060597 21009 net.cpp:141] Setting up loss2/conv
I0403 16:22:52.060628 21009 net.cpp:148] Top shape: 24 128 4 4 (49152)
I0403 16:22:52.060644 21009 net.cpp:156] Memory required for data: 1207926048
I0403 16:22:52.060663 21009 layer_factory.hpp:77] Creating layer loss2/relu_conv
I0403 16:22:52.060683 21009 net.cpp:91] Creating Layer loss2/relu_conv
I0403 16:22:52.060698 21009 net.cpp:425] loss2/relu_conv <- loss2/conv
I0403 16:22:52.060719 21009 net.cpp:386] loss2/relu_conv -> loss2/conv (in-place)
I0403 16:22:52.061017 21009 net.cpp:141] Setting up loss2/relu_conv
I0403 16:22:52.061046 21009 net.cpp:148] Top shape: 24 128 4 4 (49152)
I0403 16:22:52.061063 21009 net.cpp:156] Memory required for data: 1208122656
I0403 16:22:52.061076 21009 layer_factory.hpp:77] Creating layer loss2/fc
I0403 16:22:52.061096 21009 net.cpp:91] Creating Layer loss2/fc
I0403 16:22:52.061113 21009 net.cpp:425] loss2/fc <- loss2/conv
I0403 16:22:52.061136 21009 net.cpp:399] loss2/fc -> loss2/fc
I0403 16:22:52.078817 21009 net.cpp:141] Setting up loss2/fc
I0403 16:22:52.078866 21009 net.cpp:148] Top shape: 24 1024 (24576)
I0403 16:22:52.078881 21009 net.cpp:156] Memory required for data: 1208220960
I0403 16:22:52.078901 21009 layer_factory.hpp:77] Creating layer loss2/relu_fc
I0403 16:22:52.078922 21009 net.cpp:91] Creating Layer loss2/relu_fc
I0403 16:22:52.078938 21009 net.cpp:425] loss2/relu_fc <- loss2/fc
I0403 16:22:52.078964 21009 net.cpp:386] loss2/relu_fc -> loss2/fc (in-place)
I0403 16:22:52.079298 21009 net.cpp:141] Setting up loss2/relu_fc
I0403 16:22:52.079324 21009 net.cpp:148] Top shape: 24 1024 (24576)
I0403 16:22:52.079339 21009 net.cpp:156] Memory required for data: 1208319264
I0403 16:22:52.079355 21009 layer_factory.hpp:77] Creating layer loss2/drop_fc
I0403 16:22:52.079375 21009 net.cpp:91] Creating Layer loss2/drop_fc
I0403 16:22:52.079391 21009 net.cpp:425] loss2/drop_fc <- loss2/fc
I0403 16:22:52.079408 21009 net.cpp:386] loss2/drop_fc -> loss2/fc (in-place)
I0403 16:22:52.079462 21009 net.cpp:141] Setting up loss2/drop_fc
I0403 16:22:52.079484 21009 net.cpp:148] Top shape: 24 1024 (24576)
I0403 16:22:52.079499 21009 net.cpp:156] Memory required for data: 1208417568
I0403 16:22:52.079512 21009 layer_factory.hpp:77] Creating layer loss2/classifier_plantvillage
I0403 16:22:52.079531 21009 net.cpp:91] Creating Layer loss2/classifier_plantvillage
I0403 16:22:52.079547 21009 net.cpp:425] loss2/classifier_plantvillage <- loss2/fc
I0403 16:22:52.079569 21009 net.cpp:399] loss2/classifier_plantvillage -> loss2/classifier_plantvillage
I0403 16:22:52.079991 21009 net.cpp:141] Setting up loss2/classifier_plantvillage
I0403 16:22:52.080015 21009 net.cpp:148] Top shape: 24 38 (912)
I0403 16:22:52.080029 21009 net.cpp:156] Memory required for data: 1208421216
I0403 16:22:52.080070 21009 layer_factory.hpp:77] Creating layer loss2/classifier_plantvillage_loss2/classifier_plantvillage_0_split
I0403 16:22:52.080099 21009 net.cpp:91] Creating Layer loss2/classifier_plantvillage_loss2/classifier_plantvillage_0_split
I0403 16:22:52.080113 21009 net.cpp:425] loss2/classifier_plantvillage_loss2/classifier_plantvillage_0_split <- loss2/classifier_plantvillage
I0403 16:22:52.080133 21009 net.cpp:399] loss2/classifier_plantvillage_loss2/classifier_plantvillage_0_split -> loss2/classifier_plantvillage_loss2/classifier_plantvillage_0_split_0
I0403 16:22:52.080153 21009 net.cpp:399] loss2/classifier_plantvillage_loss2/classifier_plantvillage_0_split -> loss2/classifier_plantvillage_loss2/classifier_plantvillage_0_split_1
I0403 16:22:52.080173 21009 net.cpp:399] loss2/classifier_plantvillage_loss2/classifier_plantvillage_0_split -> loss2/classifier_plantvillage_loss2/classifier_plantvillage_0_split_2
I0403 16:22:52.080247 21009 net.cpp:141] Setting up loss2/classifier_plantvillage_loss2/classifier_plantvillage_0_split
I0403 16:22:52.080270 21009 net.cpp:148] Top shape: 24 38 (912)
I0403 16:22:52.080286 21009 net.cpp:148] Top shape: 24 38 (912)
I0403 16:22:52.080299 21009 net.cpp:148] Top shape: 24 38 (912)
I0403 16:22:52.080312 21009 net.cpp:156] Memory required for data: 1208432160
I0403 16:22:52.080325 21009 layer_factory.hpp:77] Creating layer inception_4e/1x1
I0403 16:22:52.080348 21009 net.cpp:91] Creating Layer inception_4e/1x1
I0403 16:22:52.080365 21009 net.cpp:425] inception_4e/1x1 <- inception_4d/output_inception_4d/output_0_split_1
I0403 16:22:52.080385 21009 net.cpp:399] inception_4e/1x1 -> inception_4e/1x1
I0403 16:22:52.082293 21009 net.cpp:141] Setting up inception_4e/1x1
I0403 16:22:52.082329 21009 net.cpp:148] Top shape: 24 256 14 14 (1204224)
I0403 16:22:52.082343 21009 net.cpp:156] Memory required for data: 1213249056
I0403 16:22:52.082362 21009 layer_factory.hpp:77] Creating layer inception_4e/relu_1x1
I0403 16:22:52.082381 21009 net.cpp:91] Creating Layer inception_4e/relu_1x1
I0403 16:22:52.082396 21009 net.cpp:425] inception_4e/relu_1x1 <- inception_4e/1x1
I0403 16:22:52.082414 21009 net.cpp:386] inception_4e/relu_1x1 -> inception_4e/1x1 (in-place)
I0403 16:22:52.082715 21009 net.cpp:141] Setting up inception_4e/relu_1x1
I0403 16:22:52.082741 21009 net.cpp:148] Top shape: 24 256 14 14 (1204224)
I0403 16:22:52.082757 21009 net.cpp:156] Memory required for data: 1218065952
I0403 16:22:52.082772 21009 layer_factory.hpp:77] Creating layer inception_4e/3x3_reduce
I0403 16:22:52.082794 21009 net.cpp:91] Creating Layer inception_4e/3x3_reduce
I0403 16:22:52.082811 21009 net.cpp:425] inception_4e/3x3_reduce <- inception_4d/output_inception_4d/output_0_split_2
I0403 16:22:52.082833 21009 net.cpp:399] inception_4e/3x3_reduce -> inception_4e/3x3_reduce
I0403 16:22:52.084965 21009 net.cpp:141] Setting up inception_4e/3x3_reduce
I0403 16:22:52.084993 21009 net.cpp:148] Top shape: 24 160 14 14 (752640)
I0403 16:22:52.085010 21009 net.cpp:156] Memory required for data: 1221076512
I0403 16:22:52.085027 21009 layer_factory.hpp:77] Creating layer inception_4e/relu_3x3_reduce
I0403 16:22:52.085047 21009 net.cpp:91] Creating Layer inception_4e/relu_3x3_reduce
I0403 16:22:52.085063 21009 net.cpp:425] inception_4e/relu_3x3_reduce <- inception_4e/3x3_reduce
I0403 16:22:52.085080 21009 net.cpp:386] inception_4e/relu_3x3_reduce -> inception_4e/3x3_reduce (in-place)
I0403 16:22:52.085268 21009 net.cpp:141] Setting up inception_4e/relu_3x3_reduce
I0403 16:22:52.085291 21009 net.cpp:148] Top shape: 24 160 14 14 (752640)
I0403 16:22:52.085305 21009 net.cpp:156] Memory required for data: 1224087072
I0403 16:22:52.085319 21009 layer_factory.hpp:77] Creating layer inception_4e/3x3
I0403 16:22:52.085341 21009 net.cpp:91] Creating Layer inception_4e/3x3
I0403 16:22:52.085357 21009 net.cpp:425] inception_4e/3x3 <- inception_4e/3x3_reduce
I0403 16:22:52.085381 21009 net.cpp:399] inception_4e/3x3 -> inception_4e/3x3
I0403 16:22:52.090463 21009 net.cpp:141] Setting up inception_4e/3x3
I0403 16:22:52.090503 21009 net.cpp:148] Top shape: 24 320 14 14 (1505280)
I0403 16:22:52.090519 21009 net.cpp:156] Memory required for data: 1230108192
I0403 16:22:52.090538 21009 layer_factory.hpp:77] Creating layer inception_4e/relu_3x3
I0403 16:22:52.090555 21009 net.cpp:91] Creating Layer inception_4e/relu_3x3
I0403 16:22:52.090570 21009 net.cpp:425] inception_4e/relu_3x3 <- inception_4e/3x3
I0403 16:22:52.090590 21009 net.cpp:386] inception_4e/relu_3x3 -> inception_4e/3x3 (in-place)
I0403 16:22:52.090889 21009 net.cpp:141] Setting up inception_4e/relu_3x3
I0403 16:22:52.090915 21009 net.cpp:148] Top shape: 24 320 14 14 (1505280)
I0403 16:22:52.090930 21009 net.cpp:156] Memory required for data: 1236129312
I0403 16:22:52.090945 21009 layer_factory.hpp:77] Creating layer inception_4e/5x5_reduce
I0403 16:22:52.090975 21009 net.cpp:91] Creating Layer inception_4e/5x5_reduce
I0403 16:22:52.090993 21009 net.cpp:425] inception_4e/5x5_reduce <- inception_4d/output_inception_4d/output_0_split_3
I0403 16:22:52.091014 21009 net.cpp:399] inception_4e/5x5_reduce -> inception_4e/5x5_reduce
I0403 16:22:52.092087 21009 net.cpp:141] Setting up inception_4e/5x5_reduce
I0403 16:22:52.092116 21009 net.cpp:148] Top shape: 24 32 14 14 (150528)
I0403 16:22:52.092133 21009 net.cpp:156] Memory required for data: 1236731424
I0403 16:22:52.092150 21009 layer_factory.hpp:77] Creating layer inception_4e/relu_5x5_reduce
I0403 16:22:52.092169 21009 net.cpp:91] Creating Layer inception_4e/relu_5x5_reduce
I0403 16:22:52.092185 21009 net.cpp:425] inception_4e/relu_5x5_reduce <- inception_4e/5x5_reduce
I0403 16:22:52.092201 21009 net.cpp:386] inception_4e/relu_5x5_reduce -> inception_4e/5x5_reduce (in-place)
I0403 16:22:52.092500 21009 net.cpp:141] Setting up inception_4e/relu_5x5_reduce
I0403 16:22:52.092530 21009 net.cpp:148] Top shape: 24 32 14 14 (150528)
I0403 16:22:52.092545 21009 net.cpp:156] Memory required for data: 1237333536
I0403 16:22:52.092558 21009 layer_factory.hpp:77] Creating layer inception_4e/5x5
I0403 16:22:52.092598 21009 net.cpp:91] Creating Layer inception_4e/5x5
I0403 16:22:52.092617 21009 net.cpp:425] inception_4e/5x5 <- inception_4e/5x5_reduce
I0403 16:22:52.092636 21009 net.cpp:399] inception_4e/5x5 -> inception_4e/5x5
I0403 16:22:52.094481 21009 net.cpp:141] Setting up inception_4e/5x5
I0403 16:22:52.094509 21009 net.cpp:148] Top shape: 24 128 14 14 (602112)
I0403 16:22:52.094524 21009 net.cpp:156] Memory required for data: 1239741984
I0403 16:22:52.094542 21009 layer_factory.hpp:77] Creating layer inception_4e/relu_5x5
I0403 16:22:52.094563 21009 net.cpp:91] Creating Layer inception_4e/relu_5x5
I0403 16:22:52.094578 21009 net.cpp:425] inception_4e/relu_5x5 <- inception_4e/5x5
I0403 16:22:52.094595 21009 net.cpp:386] inception_4e/relu_5x5 -> inception_4e/5x5 (in-place)
I0403 16:22:52.094792 21009 net.cpp:141] Setting up inception_4e/relu_5x5
I0403 16:22:52.094820 21009 net.cpp:148] Top shape: 24 128 14 14 (602112)
I0403 16:22:52.094833 21009 net.cpp:156] Memory required for data: 1242150432
I0403 16:22:52.094848 21009 layer_factory.hpp:77] Creating layer inception_4e/pool
I0403 16:22:52.094866 21009 net.cpp:91] Creating Layer inception_4e/pool
I0403 16:22:52.094882 21009 net.cpp:425] inception_4e/pool <- inception_4d/output_inception_4d/output_0_split_4
I0403 16:22:52.094902 21009 net.cpp:399] inception_4e/pool -> inception_4e/pool
I0403 16:22:52.094979 21009 net.cpp:141] Setting up inception_4e/pool
I0403 16:22:52.095002 21009 net.cpp:148] Top shape: 24 528 14 14 (2483712)
I0403 16:22:52.095016 21009 net.cpp:156] Memory required for data: 1252085280
I0403 16:22:52.095031 21009 layer_factory.hpp:77] Creating layer inception_4e/pool_proj
I0403 16:22:52.095052 21009 net.cpp:91] Creating Layer inception_4e/pool_proj
I0403 16:22:52.095069 21009 net.cpp:425] inception_4e/pool_proj <- inception_4e/pool
I0403 16:22:52.095089 21009 net.cpp:399] inception_4e/pool_proj -> inception_4e/pool_proj
I0403 16:22:52.096645 21009 net.cpp:141] Setting up inception_4e/pool_proj
I0403 16:22:52.096673 21009 net.cpp:148] Top shape: 24 128 14 14 (602112)
I0403 16:22:52.096704 21009 net.cpp:156] Memory required for data: 1254493728
I0403 16:22:52.096722 21009 layer_factory.hpp:77] Creating layer inception_4e/relu_pool_proj
I0403 16:22:52.096742 21009 net.cpp:91] Creating Layer inception_4e/relu_pool_proj
I0403 16:22:52.096760 21009 net.cpp:425] inception_4e/relu_pool_proj <- inception_4e/pool_proj
I0403 16:22:52.096776 21009 net.cpp:386] inception_4e/relu_pool_proj -> inception_4e/pool_proj (in-place)
I0403 16:22:52.097074 21009 net.cpp:141] Setting up inception_4e/relu_pool_proj
I0403 16:22:52.097100 21009 net.cpp:148] Top shape: 24 128 14 14 (602112)
I0403 16:22:52.097115 21009 net.cpp:156] Memory required for data: 1256902176
I0403 16:22:52.097129 21009 layer_factory.hpp:77] Creating layer inception_4e/output
I0403 16:22:52.097149 21009 net.cpp:91] Creating Layer inception_4e/output
I0403 16:22:52.097167 21009 net.cpp:425] inception_4e/output <- inception_4e/1x1
I0403 16:22:52.097182 21009 net.cpp:425] inception_4e/output <- inception_4e/3x3
I0403 16:22:52.097198 21009 net.cpp:425] inception_4e/output <- inception_4e/5x5
I0403 16:22:52.097213 21009 net.cpp:425] inception_4e/output <- inception_4e/pool_proj
I0403 16:22:52.097229 21009 net.cpp:399] inception_4e/output -> inception_4e/output
I0403 16:22:52.097286 21009 net.cpp:141] Setting up inception_4e/output
I0403 16:22:52.097311 21009 net.cpp:148] Top shape: 24 832 14 14 (3913728)
I0403 16:22:52.097323 21009 net.cpp:156] Memory required for data: 1272557088
I0403 16:22:52.097338 21009 layer_factory.hpp:77] Creating layer pool4/3x3_s2
I0403 16:22:52.097355 21009 net.cpp:91] Creating Layer pool4/3x3_s2
I0403 16:22:52.097370 21009 net.cpp:425] pool4/3x3_s2 <- inception_4e/output
I0403 16:22:52.097390 21009 net.cpp:399] pool4/3x3_s2 -> pool4/3x3_s2
I0403 16:22:52.097458 21009 net.cpp:141] Setting up pool4/3x3_s2
I0403 16:22:52.097483 21009 net.cpp:148] Top shape: 24 832 7 7 (978432)
I0403 16:22:52.097498 21009 net.cpp:156] Memory required for data: 1276470816
I0403 16:22:52.097512 21009 layer_factory.hpp:77] Creating layer pool4/3x3_s2_pool4/3x3_s2_0_split
I0403 16:22:52.097530 21009 net.cpp:91] Creating Layer pool4/3x3_s2_pool4/3x3_s2_0_split
I0403 16:22:52.097545 21009 net.cpp:425] pool4/3x3_s2_pool4/3x3_s2_0_split <- pool4/3x3_s2
I0403 16:22:52.097563 21009 net.cpp:399] pool4/3x3_s2_pool4/3x3_s2_0_split -> pool4/3x3_s2_pool4/3x3_s2_0_split_0
I0403 16:22:52.097582 21009 net.cpp:399] pool4/3x3_s2_pool4/3x3_s2_0_split -> pool4/3x3_s2_pool4/3x3_s2_0_split_1
I0403 16:22:52.097604 21009 net.cpp:399] pool4/3x3_s2_pool4/3x3_s2_0_split -> pool4/3x3_s2_pool4/3x3_s2_0_split_2
I0403 16:22:52.097625 21009 net.cpp:399] pool4/3x3_s2_pool4/3x3_s2_0_split -> pool4/3x3_s2_pool4/3x3_s2_0_split_3
I0403 16:22:52.097718 21009 net.cpp:141] Setting up pool4/3x3_s2_pool4/3x3_s2_0_split
I0403 16:22:52.097740 21009 net.cpp:148] Top shape: 24 832 7 7 (978432)
I0403 16:22:52.097756 21009 net.cpp:148] Top shape: 24 832 7 7 (978432)
I0403 16:22:52.097772 21009 net.cpp:148] Top shape: 24 832 7 7 (978432)
I0403 16:22:52.097786 21009 net.cpp:148] Top shape: 24 832 7 7 (978432)
I0403 16:22:52.097800 21009 net.cpp:156] Memory required for data: 1292125728
I0403 16:22:52.097815 21009 layer_factory.hpp:77] Creating layer inception_5a/1x1
I0403 16:22:52.097836 21009 net.cpp:91] Creating Layer inception_5a/1x1
I0403 16:22:52.097853 21009 net.cpp:425] inception_5a/1x1 <- pool4/3x3_s2_pool4/3x3_s2_0_split_0
I0403 16:22:52.097874 21009 net.cpp:399] inception_5a/1x1 -> inception_5a/1x1
I0403 16:22:52.100803 21009 net.cpp:141] Setting up inception_5a/1x1
I0403 16:22:52.100831 21009 net.cpp:148] Top shape: 24 256 7 7 (301056)
I0403 16:22:52.100847 21009 net.cpp:156] Memory required for data: 1293329952
I0403 16:22:52.100864 21009 layer_factory.hpp:77] Creating layer inception_5a/relu_1x1
I0403 16:22:52.100884 21009 net.cpp:91] Creating Layer inception_5a/relu_1x1
I0403 16:22:52.100909 21009 net.cpp:425] inception_5a/relu_1x1 <- inception_5a/1x1
I0403 16:22:52.100926 21009 net.cpp:386] inception_5a/relu_1x1 -> inception_5a/1x1 (in-place)
I0403 16:22:52.101235 21009 net.cpp:141] Setting up inception_5a/relu_1x1
I0403 16:22:52.101260 21009 net.cpp:148] Top shape: 24 256 7 7 (301056)
I0403 16:22:52.101274 21009 net.cpp:156] Memory required for data: 1294534176
I0403 16:22:52.101289 21009 layer_factory.hpp:77] Creating layer inception_5a/3x3_reduce
I0403 16:22:52.101312 21009 net.cpp:91] Creating Layer inception_5a/3x3_reduce
I0403 16:22:52.101330 21009 net.cpp:425] inception_5a/3x3_reduce <- pool4/3x3_s2_pool4/3x3_s2_0_split_1
I0403 16:22:52.101348 21009 net.cpp:399] inception_5a/3x3_reduce -> inception_5a/3x3_reduce
I0403 16:22:52.103754 21009 net.cpp:141] Setting up inception_5a/3x3_reduce
I0403 16:22:52.103781 21009 net.cpp:148] Top shape: 24 160 7 7 (188160)
I0403 16:22:52.103796 21009 net.cpp:156] Memory required for data: 1295286816
I0403 16:22:52.103813 21009 layer_factory.hpp:77] Creating layer inception_5a/relu_3x3_reduce
I0403 16:22:52.103833 21009 net.cpp:91] Creating Layer inception_5a/relu_3x3_reduce
I0403 16:22:52.103850 21009 net.cpp:425] inception_5a/relu_3x3_reduce <- inception_5a/3x3_reduce
I0403 16:22:52.103868 21009 net.cpp:386] inception_5a/relu_3x3_reduce -> inception_5a/3x3_reduce (in-place)
I0403 16:22:52.104054 21009 net.cpp:141] Setting up inception_5a/relu_3x3_reduce
I0403 16:22:52.104079 21009 net.cpp:148] Top shape: 24 160 7 7 (188160)
I0403 16:22:52.104092 21009 net.cpp:156] Memory required for data: 1296039456
I0403 16:22:52.104106 21009 layer_factory.hpp:77] Creating layer inception_5a/3x3
I0403 16:22:52.104130 21009 net.cpp:91] Creating Layer inception_5a/3x3
I0403 16:22:52.104146 21009 net.cpp:425] inception_5a/3x3 <- inception_5a/3x3_reduce
I0403 16:22:52.104164 21009 net.cpp:399] inception_5a/3x3 -> inception_5a/3x3
I0403 16:22:52.109202 21009 net.cpp:141] Setting up inception_5a/3x3
I0403 16:22:52.109232 21009 net.cpp:148] Top shape: 24 320 7 7 (376320)
I0403 16:22:52.109248 21009 net.cpp:156] Memory required for data: 1297544736
I0403 16:22:52.109266 21009 layer_factory.hpp:77] Creating layer inception_5a/relu_3x3
I0403 16:22:52.109287 21009 net.cpp:91] Creating Layer inception_5a/relu_3x3
I0403 16:22:52.109302 21009 net.cpp:425] inception_5a/relu_3x3 <- inception_5a/3x3
I0403 16:22:52.109319 21009 net.cpp:386] inception_5a/relu_3x3 -> inception_5a/3x3 (in-place)
I0403 16:22:52.109608 21009 net.cpp:141] Setting up inception_5a/relu_3x3
I0403 16:22:52.109633 21009 net.cpp:148] Top shape: 24 320 7 7 (376320)
I0403 16:22:52.109647 21009 net.cpp:156] Memory required for data: 1299050016
I0403 16:22:52.109661 21009 layer_factory.hpp:77] Creating layer inception_5a/5x5_reduce
I0403 16:22:52.109683 21009 net.cpp:91] Creating Layer inception_5a/5x5_reduce
I0403 16:22:52.109700 21009 net.cpp:425] inception_5a/5x5_reduce <- pool4/3x3_s2_pool4/3x3_s2_0_split_2
I0403 16:22:52.109720 21009 net.cpp:399] inception_5a/5x5_reduce -> inception_5a/5x5_reduce
I0403 16:22:52.110865 21009 net.cpp:141] Setting up inception_5a/5x5_reduce
I0403 16:22:52.110895 21009 net.cpp:148] Top shape: 24 32 7 7 (37632)
I0403 16:22:52.110911 21009 net.cpp:156] Memory required for data: 1299200544
I0403 16:22:52.110929 21009 layer_factory.hpp:77] Creating layer inception_5a/relu_5x5_reduce
I0403 16:22:52.110945 21009 net.cpp:91] Creating Layer inception_5a/relu_5x5_reduce
I0403 16:22:52.110965 21009 net.cpp:425] inception_5a/relu_5x5_reduce <- inception_5a/5x5_reduce
I0403 16:22:52.110985 21009 net.cpp:386] inception_5a/relu_5x5_reduce -> inception_5a/5x5_reduce (in-place)
I0403 16:22:52.111277 21009 net.cpp:141] Setting up inception_5a/relu_5x5_reduce
I0403 16:22:52.111304 21009 net.cpp:148] Top shape: 24 32 7 7 (37632)
I0403 16:22:52.111320 21009 net.cpp:156] Memory required for data: 1299351072
I0403 16:22:52.111335 21009 layer_factory.hpp:77] Creating layer inception_5a/5x5
I0403 16:22:52.111356 21009 net.cpp:91] Creating Layer inception_5a/5x5
I0403 16:22:52.111372 21009 net.cpp:425] inception_5a/5x5 <- inception_5a/5x5_reduce
I0403 16:22:52.111390 21009 net.cpp:399] inception_5a/5x5 -> inception_5a/5x5
I0403 16:22:52.113075 21009 net.cpp:141] Setting up inception_5a/5x5
I0403 16:22:52.113112 21009 net.cpp:148] Top shape: 24 128 7 7 (150528)
I0403 16:22:52.113128 21009 net.cpp:156] Memory required for data: 1299953184
I0403 16:22:52.113145 21009 layer_factory.hpp:77] Creating layer inception_5a/relu_5x5
I0403 16:22:52.113165 21009 net.cpp:91] Creating Layer inception_5a/relu_5x5
I0403 16:22:52.113183 21009 net.cpp:425] inception_5a/relu_5x5 <- inception_5a/5x5
I0403 16:22:52.113199 21009 net.cpp:386] inception_5a/relu_5x5 -> inception_5a/5x5 (in-place)
I0403 16:22:52.113389 21009 net.cpp:141] Setting up inception_5a/relu_5x5
I0403 16:22:52.113415 21009 net.cpp:148] Top shape: 24 128 7 7 (150528)
I0403 16:22:52.113428 21009 net.cpp:156] Memory required for data: 1300555296
I0403 16:22:52.113443 21009 layer_factory.hpp:77] Creating layer inception_5a/pool
I0403 16:22:52.113461 21009 net.cpp:91] Creating Layer inception_5a/pool
I0403 16:22:52.113476 21009 net.cpp:425] inception_5a/pool <- pool4/3x3_s2_pool4/3x3_s2_0_split_3
I0403 16:22:52.113495 21009 net.cpp:399] inception_5a/pool -> inception_5a/pool
I0403 16:22:52.113564 21009 net.cpp:141] Setting up inception_5a/pool
I0403 16:22:52.113586 21009 net.cpp:148] Top shape: 24 832 7 7 (978432)
I0403 16:22:52.113600 21009 net.cpp:156] Memory required for data: 1304469024
I0403 16:22:52.113615 21009 layer_factory.hpp:77] Creating layer inception_5a/pool_proj
I0403 16:22:52.113636 21009 net.cpp:91] Creating Layer inception_5a/pool_proj
I0403 16:22:52.113652 21009 net.cpp:425] inception_5a/pool_proj <- inception_5a/pool
I0403 16:22:52.113672 21009 net.cpp:399] inception_5a/pool_proj -> inception_5a/pool_proj
I0403 16:22:52.115916 21009 net.cpp:141] Setting up inception_5a/pool_proj
I0403 16:22:52.115943 21009 net.cpp:148] Top shape: 24 128 7 7 (150528)
I0403 16:22:52.115962 21009 net.cpp:156] Memory required for data: 1305071136
I0403 16:22:52.115981 21009 layer_factory.hpp:77] Creating layer inception_5a/relu_pool_proj
I0403 16:22:52.116000 21009 net.cpp:91] Creating Layer inception_5a/relu_pool_proj
I0403 16:22:52.116016 21009 net.cpp:425] inception_5a/relu_pool_proj <- inception_5a/pool_proj
I0403 16:22:52.116034 21009 net.cpp:386] inception_5a/relu_pool_proj -> inception_5a/pool_proj (in-place)
I0403 16:22:52.116322 21009 net.cpp:141] Setting up inception_5a/relu_pool_proj
I0403 16:22:52.116348 21009 net.cpp:148] Top shape: 24 128 7 7 (150528)
I0403 16:22:52.116363 21009 net.cpp:156] Memory required for data: 1305673248
I0403 16:22:52.116376 21009 layer_factory.hpp:77] Creating layer inception_5a/output
I0403 16:22:52.116392 21009 net.cpp:91] Creating Layer inception_5a/output
I0403 16:22:52.116407 21009 net.cpp:425] inception_5a/output <- inception_5a/1x1
I0403 16:22:52.116425 21009 net.cpp:425] inception_5a/output <- inception_5a/3x3
I0403 16:22:52.116442 21009 net.cpp:425] inception_5a/output <- inception_5a/5x5
I0403 16:22:52.116457 21009 net.cpp:425] inception_5a/output <- inception_5a/pool_proj
I0403 16:22:52.116473 21009 net.cpp:399] inception_5a/output -> inception_5a/output
I0403 16:22:52.116524 21009 net.cpp:141] Setting up inception_5a/output
I0403 16:22:52.116547 21009 net.cpp:148] Top shape: 24 832 7 7 (978432)
I0403 16:22:52.116561 21009 net.cpp:156] Memory required for data: 1309586976
I0403 16:22:52.116575 21009 layer_factory.hpp:77] Creating layer inception_5a/output_inception_5a/output_0_split
I0403 16:22:52.116591 21009 net.cpp:91] Creating Layer inception_5a/output_inception_5a/output_0_split
I0403 16:22:52.116605 21009 net.cpp:425] inception_5a/output_inception_5a/output_0_split <- inception_5a/output
I0403 16:22:52.116624 21009 net.cpp:399] inception_5a/output_inception_5a/output_0_split -> inception_5a/output_inception_5a/output_0_split_0
I0403 16:22:52.116646 21009 net.cpp:399] inception_5a/output_inception_5a/output_0_split -> inception_5a/output_inception_5a/output_0_split_1
I0403 16:22:52.116664 21009 net.cpp:399] inception_5a/output_inception_5a/output_0_split -> inception_5a/output_inception_5a/output_0_split_2
I0403 16:22:52.116683 21009 net.cpp:399] inception_5a/output_inception_5a/output_0_split -> inception_5a/output_inception_5a/output_0_split_3
I0403 16:22:52.116797 21009 net.cpp:141] Setting up inception_5a/output_inception_5a/output_0_split
I0403 16:22:52.116822 21009 net.cpp:148] Top shape: 24 832 7 7 (978432)
I0403 16:22:52.116838 21009 net.cpp:148] Top shape: 24 832 7 7 (978432)
I0403 16:22:52.116852 21009 net.cpp:148] Top shape: 24 832 7 7 (978432)
I0403 16:22:52.116868 21009 net.cpp:148] Top shape: 24 832 7 7 (978432)
I0403 16:22:52.116880 21009 net.cpp:156] Memory required for data: 1325241888
I0403 16:22:52.116895 21009 layer_factory.hpp:77] Creating layer inception_5b/1x1
I0403 16:22:52.116916 21009 net.cpp:91] Creating Layer inception_5b/1x1
I0403 16:22:52.116933 21009 net.cpp:425] inception_5b/1x1 <- inception_5a/output_inception_5a/output_0_split_0
I0403 16:22:52.116950 21009 net.cpp:399] inception_5b/1x1 -> inception_5b/1x1
I0403 16:22:52.120633 21009 net.cpp:141] Setting up inception_5b/1x1
I0403 16:22:52.120662 21009 net.cpp:148] Top shape: 24 384 7 7 (451584)
I0403 16:22:52.120677 21009 net.cpp:156] Memory required for data: 1327048224
I0403 16:22:52.120694 21009 layer_factory.hpp:77] Creating layer inception_5b/relu_1x1
I0403 16:22:52.120714 21009 net.cpp:91] Creating Layer inception_5b/relu_1x1
I0403 16:22:52.120731 21009 net.cpp:425] inception_5b/relu_1x1 <- inception_5b/1x1
I0403 16:22:52.120748 21009 net.cpp:386] inception_5b/relu_1x1 -> inception_5b/1x1 (in-place)
I0403 16:22:52.121049 21009 net.cpp:141] Setting up inception_5b/relu_1x1
I0403 16:22:52.121074 21009 net.cpp:148] Top shape: 24 384 7 7 (451584)
I0403 16:22:52.121088 21009 net.cpp:156] Memory required for data: 1328854560
I0403 16:22:52.121103 21009 layer_factory.hpp:77] Creating layer inception_5b/3x3_reduce
I0403 16:22:52.121124 21009 net.cpp:91] Creating Layer inception_5b/3x3_reduce
I0403 16:22:52.121141 21009 net.cpp:425] inception_5b/3x3_reduce <- inception_5a/output_inception_5a/output_0_split_1
I0403 16:22:52.121163 21009 net.cpp:399] inception_5b/3x3_reduce -> inception_5b/3x3_reduce
I0403 16:22:52.123744 21009 net.cpp:141] Setting up inception_5b/3x3_reduce
I0403 16:22:52.123772 21009 net.cpp:148] Top shape: 24 192 7 7 (225792)
I0403 16:22:52.123787 21009 net.cpp:156] Memory required for data: 1329757728
I0403 16:22:52.123805 21009 layer_factory.hpp:77] Creating layer inception_5b/relu_3x3_reduce
I0403 16:22:52.123823 21009 net.cpp:91] Creating Layer inception_5b/relu_3x3_reduce
I0403 16:22:52.123841 21009 net.cpp:425] inception_5b/relu_3x3_reduce <- inception_5b/3x3_reduce
I0403 16:22:52.123857 21009 net.cpp:386] inception_5b/relu_3x3_reduce -> inception_5b/3x3_reduce (in-place)
I0403 16:22:52.124047 21009 net.cpp:141] Setting up inception_5b/relu_3x3_reduce
I0403 16:22:52.124073 21009 net.cpp:148] Top shape: 24 192 7 7 (225792)
I0403 16:22:52.124086 21009 net.cpp:156] Memory required for data: 1330660896
I0403 16:22:52.124100 21009 layer_factory.hpp:77] Creating layer inception_5b/3x3
I0403 16:22:52.124121 21009 net.cpp:91] Creating Layer inception_5b/3x3
I0403 16:22:52.124138 21009 net.cpp:425] inception_5b/3x3 <- inception_5b/3x3_reduce
I0403 16:22:52.124156 21009 net.cpp:399] inception_5b/3x3 -> inception_5b/3x3
I0403 16:22:52.130851 21009 net.cpp:141] Setting up inception_5b/3x3
I0403 16:22:52.130880 21009 net.cpp:148] Top shape: 24 384 7 7 (451584)
I0403 16:22:52.130895 21009 net.cpp:156] Memory required for data: 1332467232
I0403 16:22:52.130913 21009 layer_factory.hpp:77] Creating layer inception_5b/relu_3x3
I0403 16:22:52.130934 21009 net.cpp:91] Creating Layer inception_5b/relu_3x3
I0403 16:22:52.130950 21009 net.cpp:425] inception_5b/relu_3x3 <- inception_5b/3x3
I0403 16:22:52.130973 21009 net.cpp:386] inception_5b/relu_3x3 -> inception_5b/3x3 (in-place)
I0403 16:22:52.131274 21009 net.cpp:141] Setting up inception_5b/relu_3x3
I0403 16:22:52.131300 21009 net.cpp:148] Top shape: 24 384 7 7 (451584)
I0403 16:22:52.131315 21009 net.cpp:156] Memory required for data: 1334273568
I0403 16:22:52.131330 21009 layer_factory.hpp:77] Creating layer inception_5b/5x5_reduce
I0403 16:22:52.131367 21009 net.cpp:91] Creating Layer inception_5b/5x5_reduce
I0403 16:22:52.131386 21009 net.cpp:425] inception_5b/5x5_reduce <- inception_5a/output_inception_5a/output_0_split_2
I0403 16:22:52.131408 21009 net.cpp:399] inception_5b/5x5_reduce -> inception_5b/5x5_reduce
I0403 16:22:52.132689 21009 net.cpp:141] Setting up inception_5b/5x5_reduce
I0403 16:22:52.132716 21009 net.cpp:148] Top shape: 24 48 7 7 (56448)
I0403 16:22:52.132732 21009 net.cpp:156] Memory required for data: 1334499360
I0403 16:22:52.132750 21009 layer_factory.hpp:77] Creating layer inception_5b/relu_5x5_reduce
I0403 16:22:52.132771 21009 net.cpp:91] Creating Layer inception_5b/relu_5x5_reduce
I0403 16:22:52.132787 21009 net.cpp:425] inception_5b/relu_5x5_reduce <- inception_5b/5x5_reduce
I0403 16:22:52.132804 21009 net.cpp:386] inception_5b/relu_5x5_reduce -> inception_5b/5x5_reduce (in-place)
I0403 16:22:52.133186 21009 net.cpp:141] Setting up inception_5b/relu_5x5_reduce
I0403 16:22:52.133213 21009 net.cpp:148] Top shape: 24 48 7 7 (56448)
I0403 16:22:52.133229 21009 net.cpp:156] Memory required for data: 1334725152
I0403 16:22:52.133246 21009 layer_factory.hpp:77] Creating layer inception_5b/5x5
I0403 16:22:52.133266 21009 net.cpp:91] Creating Layer inception_5b/5x5
I0403 16:22:52.133282 21009 net.cpp:425] inception_5b/5x5 <- inception_5b/5x5_reduce
I0403 16:22:52.133302 21009 net.cpp:399] inception_5b/5x5 -> inception_5b/5x5
I0403 16:22:52.135421 21009 net.cpp:141] Setting up inception_5b/5x5
I0403 16:22:52.135448 21009 net.cpp:148] Top shape: 24 128 7 7 (150528)
I0403 16:22:52.135464 21009 net.cpp:156] Memory required for data: 1335327264
I0403 16:22:52.135483 21009 layer_factory.hpp:77] Creating layer inception_5b/relu_5x5
I0403 16:22:52.135504 21009 net.cpp:91] Creating Layer inception_5b/relu_5x5
I0403 16:22:52.135520 21009 net.cpp:425] inception_5b/relu_5x5 <- inception_5b/5x5
I0403 16:22:52.135537 21009 net.cpp:386] inception_5b/relu_5x5 -> inception_5b/5x5 (in-place)
I0403 16:22:52.135740 21009 net.cpp:141] Setting up inception_5b/relu_5x5
I0403 16:22:52.135766 21009 net.cpp:148] Top shape: 24 128 7 7 (150528)
I0403 16:22:52.135779 21009 net.cpp:156] Memory required for data: 1335929376
I0403 16:22:52.135794 21009 layer_factory.hpp:77] Creating layer inception_5b/pool
I0403 16:22:52.135812 21009 net.cpp:91] Creating Layer inception_5b/pool
I0403 16:22:52.135828 21009 net.cpp:425] inception_5b/pool <- inception_5a/output_inception_5a/output_0_split_3
I0403 16:22:52.135849 21009 net.cpp:399] inception_5b/pool -> inception_5b/pool
I0403 16:22:52.135924 21009 net.cpp:141] Setting up inception_5b/pool
I0403 16:22:52.135948 21009 net.cpp:148] Top shape: 24 832 7 7 (978432)
I0403 16:22:52.135967 21009 net.cpp:156] Memory required for data: 1339843104
I0403 16:22:52.135983 21009 layer_factory.hpp:77] Creating layer inception_5b/pool_proj
I0403 16:22:52.136008 21009 net.cpp:91] Creating Layer inception_5b/pool_proj
I0403 16:22:52.136026 21009 net.cpp:425] inception_5b/pool_proj <- inception_5b/pool
I0403 16:22:52.136045 21009 net.cpp:399] inception_5b/pool_proj -> inception_5b/pool_proj
I0403 16:22:52.138425 21009 net.cpp:141] Setting up inception_5b/pool_proj
I0403 16:22:52.138455 21009 net.cpp:148] Top shape: 24 128 7 7 (150528)
I0403 16:22:52.138471 21009 net.cpp:156] Memory required for data: 1340445216
I0403 16:22:52.138489 21009 layer_factory.hpp:77] Creating layer inception_5b/relu_pool_proj
I0403 16:22:52.138510 21009 net.cpp:91] Creating Layer inception_5b/relu_pool_proj
I0403 16:22:52.138527 21009 net.cpp:425] inception_5b/relu_pool_proj <- inception_5b/pool_proj
I0403 16:22:52.138545 21009 net.cpp:386] inception_5b/relu_pool_proj -> inception_5b/pool_proj (in-place)
I0403 16:22:52.138855 21009 net.cpp:141] Setting up inception_5b/relu_pool_proj
I0403 16:22:52.138882 21009 net.cpp:148] Top shape: 24 128 7 7 (150528)
I0403 16:22:52.138897 21009 net.cpp:156] Memory required for data: 1341047328
I0403 16:22:52.138912 21009 layer_factory.hpp:77] Creating layer inception_5b/output
I0403 16:22:52.138932 21009 net.cpp:91] Creating Layer inception_5b/output
I0403 16:22:52.138975 21009 net.cpp:425] inception_5b/output <- inception_5b/1x1
I0403 16:22:52.138995 21009 net.cpp:425] inception_5b/output <- inception_5b/3x3
I0403 16:22:52.139013 21009 net.cpp:425] inception_5b/output <- inception_5b/5x5
I0403 16:22:52.139029 21009 net.cpp:425] inception_5b/output <- inception_5b/pool_proj
I0403 16:22:52.139046 21009 net.cpp:399] inception_5b/output -> inception_5b/output
I0403 16:22:52.139101 21009 net.cpp:141] Setting up inception_5b/output
I0403 16:22:52.139127 21009 net.cpp:148] Top shape: 24 1024 7 7 (1204224)
I0403 16:22:52.139142 21009 net.cpp:156] Memory required for data: 1345864224
I0403 16:22:52.139156 21009 layer_factory.hpp:77] Creating layer pool5/7x7_s1
I0403 16:22:52.139173 21009 net.cpp:91] Creating Layer pool5/7x7_s1
I0403 16:22:52.139189 21009 net.cpp:425] pool5/7x7_s1 <- inception_5b/output
I0403 16:22:52.139210 21009 net.cpp:399] pool5/7x7_s1 -> pool5/7x7_s1
I0403 16:22:52.139436 21009 net.cpp:141] Setting up pool5/7x7_s1
I0403 16:22:52.139463 21009 net.cpp:148] Top shape: 24 1024 1 1 (24576)
I0403 16:22:52.139479 21009 net.cpp:156] Memory required for data: 1345962528
I0403 16:22:52.139494 21009 layer_factory.hpp:77] Creating layer pool5/drop_7x7_s1
I0403 16:22:52.139513 21009 net.cpp:91] Creating Layer pool5/drop_7x7_s1
I0403 16:22:52.139528 21009 net.cpp:425] pool5/drop_7x7_s1 <- pool5/7x7_s1
I0403 16:22:52.139545 21009 net.cpp:386] pool5/drop_7x7_s1 -> pool5/7x7_s1 (in-place)
I0403 16:22:52.139598 21009 net.cpp:141] Setting up pool5/drop_7x7_s1
I0403 16:22:52.139621 21009 net.cpp:148] Top shape: 24 1024 1 1 (24576)
I0403 16:22:52.139636 21009 net.cpp:156] Memory required for data: 1346060832
I0403 16:22:52.139652 21009 layer_factory.hpp:77] Creating layer loss3/classifier_plantvillage
I0403 16:22:52.139673 21009 net.cpp:91] Creating Layer loss3/classifier_plantvillage
I0403 16:22:52.139690 21009 net.cpp:425] loss3/classifier_plantvillage <- pool5/7x7_s1
I0403 16:22:52.139709 21009 net.cpp:399] loss3/classifier_plantvillage -> loss3/classifier_plantvillage
I0403 16:22:52.140156 21009 net.cpp:141] Setting up loss3/classifier_plantvillage
I0403 16:22:52.140180 21009 net.cpp:148] Top shape: 24 38 (912)
I0403 16:22:52.140195 21009 net.cpp:156] Memory required for data: 1346064480
I0403 16:22:52.140213 21009 layer_factory.hpp:77] Creating layer loss3/classifier_plantvillage_loss3/classifier_plantvillage_0_split
I0403 16:22:52.140233 21009 net.cpp:91] Creating Layer loss3/classifier_plantvillage_loss3/classifier_plantvillage_0_split
I0403 16:22:52.140249 21009 net.cpp:425] loss3/classifier_plantvillage_loss3/classifier_plantvillage_0_split <- loss3/classifier_plantvillage
I0403 16:22:52.140269 21009 net.cpp:399] loss3/classifier_plantvillage_loss3/classifier_plantvillage_0_split -> loss3/classifier_plantvillage_loss3/classifier_plantvillage_0_split_0
I0403 16:22:52.140291 21009 net.cpp:399] loss3/classifier_plantvillage_loss3/classifier_plantvillage_0_split -> loss3/classifier_plantvillage_loss3/classifier_plantvillage_0_split_1
I0403 16:22:52.140311 21009 net.cpp:399] loss3/classifier_plantvillage_loss3/classifier_plantvillage_0_split -> loss3/classifier_plantvillage_loss3/classifier_plantvillage_0_split_2
I0403 16:22:52.140332 21009 net.cpp:399] loss3/classifier_plantvillage_loss3/classifier_plantvillage_0_split -> loss3/classifier_plantvillage_loss3/classifier_plantvillage_0_split_3
I0403 16:22:52.140439 21009 net.cpp:141] Setting up loss3/classifier_plantvillage_loss3/classifier_plantvillage_0_split
I0403 16:22:52.140465 21009 net.cpp:148] Top shape: 24 38 (912)
I0403 16:22:52.140481 21009 net.cpp:148] Top shape: 24 38 (912)
I0403 16:22:52.140497 21009 net.cpp:148] Top shape: 24 38 (912)
I0403 16:22:52.140512 21009 net.cpp:148] Top shape: 24 38 (912)
I0403 16:22:52.140527 21009 net.cpp:156] Memory required for data: 1346079072
I0403 16:22:52.140542 21009 layer_factory.hpp:77] Creating layer loss1/loss
I0403 16:22:52.140563 21009 net.cpp:91] Creating Layer loss1/loss
I0403 16:22:52.140581 21009 net.cpp:425] loss1/loss <- loss1/classifier_plantvillage_loss1/classifier_plantvillage_0_split_0
I0403 16:22:52.140612 21009 net.cpp:425] loss1/loss <- label_data_1_split_0
…
