…
I0403 16:12:32.930820 20827 net.cpp:313] The NetState phase (1) differed from the phase (0) specified by a rule in layer data
I0403 16:12:32.932045 20827 net.cpp:49] Initializing net from parameters: 
state {
  phase: TEST
}
layer {
  name: "data"
  type: "Data"
  top: "data"
  top: "label"
  include {
    phase: TEST
  }
  transform_param {
    mirror: false
    crop_size: 224
    mean_file: "/home/mohanty/data/final_dataset/lmdb/color-40-60/mean.binaryproto"
  }
  data_param {
    source: "/home/mohanty/data/final_dataset/lmdb/color-40-60/test_db"
    batch_size: 24
    backend: LMDB
  }
}
layer {
  name: "conv1/7x7_s2"
  type: "Convolution"
  bottom: "data"
  top: "conv1/7x7_s2"
  param {
    lr_mult: 1
    decay_mult: 1
  }
  param {
    lr_mult: 2
    decay_mult: 0
  }
  convolution_param {
    num_output: 64
    pad: 3
    kernel_size: 7
    stride: 2
    weight_filler {
      type: "xavier"
      std: 0.1
    }
    bias_filler {
      type: "constant"
      value: 0.2
    }
  }
}
layer {
  name: "conv1/relu_7x7"
  type: "ReLU"
  bottom: "conv1/7x7_s2"
  top: "conv1/7x7_s2"
}
layer {
  name: "pool1/3x3_s2"
  type: "Pooling"
  bottom: "conv1/7x7_s2"
  top: "pool1/3x3_s2"
  pooling_param {
    pool: MAX
    kernel_size: 3
    stride: 2
  }
}
layer {
  name: "pool1/norm1"
  type: "LRN"
  bottom: "pool1/3x3_s2"
  top: "pool1/norm1"
  lrn_param {
    local_size: 5
    alpha: 0.0001
    beta: 0.75
  }
}
layer {
  name: "conv2/3x3_reduce"
  type: "Convolution"
  bottom: "pool1/norm1"
  top: "conv2/3x3_reduce"
  param {
    lr_mult: 1
    decay_mult: 1
  }
  param {
    lr_mult: 2
    decay_mult: 0
  }
  convolution_param {
    num_output: 64
    kernel_size: 1
    weight_filler {
      type: "xavier"
      std: 0.1
    }
    bias_filler {
      type: "constant"
      value: 0.2
    }
  }
}
layer {
  name: "conv2/relu_3x3_reduce"
  type: "ReLU"
  bottom: "conv2/3x3_reduce"
  top: "conv2/3x3_reduce"
}
layer {
  name: "conv2/3x3"
  type: "Convolution"
  bottom: "conv2/3x3_reduce"
  top: "conv2/3x3"
  param {
    lr_mult: 1
    decay_mult: 1
  }
  param {
    lr_mult: 2
    decay_mult: 0
  }
  convolution_param {
    num_output: 192
    pad: 1
    kernel_size: 3
    weight_filler {
      type: "xavier"
      std: 0.03
    }
    bias_filler {
      type: "constant"
      value: 0.2
    }
  }
}
layer {
  name: "conv2/relu_3x3"
  type: "ReLU"
  bottom: "conv2/3x3"
  top: "conv2/3x3"
}
layer {
  name: "conv2/norm2"
  type: "LRN"
  bottom: "conv2/3x3"
  top: "conv2/norm2"
  lrn_param {
    local_size: 5
    alpha: 0.0001
    beta: 0.75
  }
}
layer {
  name: "pool2/3x3_s2"
  type: "Pooling"
  bottom: "conv2/norm2"
  top: "pool2/3x3_s2"
  pooling_param {
    pool: MAX
    kernel_size: 3
    stride: 2
  }
}
layer {
  name: "inception_3a/1x1"
  type: "Convolution"
  bottom: "pool2/3x3_s2"
  top: "inception_3a/1x1"
  param {
    lr_mult: 1
    decay_mult: 1
  }
  param {
    lr_mult: 2
    decay_mult: 0
  }
  convolution_param {
    num_output: 64
    kernel_size: 1
    weight_filler {
      type: "xavier"
      std: 0.03
    }
    bias_filler {
      type: "constant"
      value: 0.2
    }
  }
}
layer {
  name: "inception_3a/relu_1x1"
  type: "ReLU"
  bottom: "inception_3a/1x1"
  top: "inception_3a/1x1"
}
layer {
  name: "inception_3a/3x3_reduce"
  type: "Convolution"
  bottom: "pool2/3x3_s2"
  top: "inception_3a/3x3_reduce"
  param {
    lr_mult: 1
    decay_mult: 1
  }
  param {
    lr_mult: 2
    decay_mult: 0
  }
  convolution_param {
    num_output: 96
    kernel_size: 1
    weight_filler {
      type: "xavier"
      std: 0.09
    }
    bias_filler {
      type: "constant"
      value: 0.2
    }
  }
}
layer {
  name: "inception_3a/relu_3x3_reduce"
  type: "ReLU"
  bottom: "inception_3a/3x3_reduce"
  top: "inception_3a/3x3_reduce"
}
layer {
  name: "inception_3a/3x3"
  type: "Convolution"
  bottom: "inception_3a/3x3_reduce"
  top: "inception_3a/3x3"
  param {
    lr_mult: 1
    decay_mult: 1
  }
  param {
    lr_mult: 2
    decay_mult: 0
  }
  convolution_param {
    num_output: 128
    pad: 1
    kernel_size: 3
    weight_filler {
      type: "xavier"
      std: 0.03
    }
    bias_filler {
      type: "constant"
      value: 0.2
    }
  }
}
layer {
  name: "inception_3a/relu_3x3"
  type: "ReLU"
  bottom: "inception_3a/3x3"
  top: "inception_3a/3x3"
}
layer {
  name: "inception_3a/5x5_reduce"
  type: "Convolution"
  bottom: "pool2/3x3_s2"
  top: "inception_3a/5x5_reduce"
  param {
    lr_mult: 1
    decay_mult: 1
  }
  param {
    lr_mult: 2
    decay_mult: 0
  }
  convolution_param {
    num_output: 16
    kernel_size: 1
    weight_filler {
      type: "xavier"
      std: 0.2
    }
    bias_filler {
      type: "constant"
      value: 0.2
    }
  }
}
layer {
  name: "inception_3a/relu_5x5_reduce"
  type: "ReLU"
  bottom: "inception_3a/5x5_reduce"
  top: "inception_3a/5x5_reduce"
}
layer {
  name: "inception_3a/5x5"
  type: "Convolution"
  bottom: "inception_3a/5x5_reduce"
  top: "inception_3a/5x5"
  param {
    lr_mult: 1
    decay_mult: 1
  }
  param {
    lr_mult: 2
    decay_mult: 0
  }
  convolution_param {
    num_output: 32
    pad: 2
    kernel_size: 5
    weight_filler {
      type: "xavier"
      std: 0.03
    }
    bias_filler {
      type: "constant"
      value: 0.2
    }
  }
}
layer {
  name: "inception_3a/relu_5x5"
  type: "ReLU"
  bottom: "inception_3a/5x5"
  top: "inception_3a/5x5"
}
layer {
  name: "inception_3a/pool"
  type: "Pooling"
  bottom: "pool2/3x3_s2"
  top: "inception_3a/pool"
  pooling_param {
    pool: MAX
    kernel_size: 3
    stride: 1
    pad: 1
  }
}
layer {
  name: "inception_3a/pool_proj"
  type: "Convolution"
  bottom: "inception_3a/pool"
  top: "inception_3a/pool_proj"
  param {
    lr_mult: 1
    decay_mult: 1
  }
  param {
    lr_mult: 2
    decay_mult: 0
  }
  convolution_param {
    num_output: 32
    kernel_size: 1
    weight_filler {
      type: "xavier"
      std: 0.1
    }
    bias_filler {
      type: "constant"
      value: 0.2
    }
  }
}
layer {
  name: "inception_3a/relu_pool_proj"
  type: "ReLU"
  bottom: "inception_3a/pool_proj"
  top: "inception_3a/pool_proj"
}
layer {
  name: "inception_3a/output"
  type: "Concat"
  bottom: "inception_3a/1x1"
  bottom: "inception_3a/3x3"
  bottom: "inception_3a/5x5"
  bottom: "inception_3a/pool_proj"
  top: "inception_3a/output"
}
layer {
  name: "inception_3b/1x1"
  type: "Convolution"
  bottom: "inception_3a/output"
  top: "inception_3b/1x1"
  param {
    lr_mult: 1
    decay_mult: 1
  }
  param {
    lr_mult: 2
    decay_mult: 0
  }
  convolution_param {
    num_output: 128
    kernel_size: 1
    weight_filler {
      type: "xavier"
      std: 0.03
    }
    bias_filler {
      type: "constant"
      value: 0.2
    }
  }
}
layer {
  name: "inception_3b/relu_1x1"
  type: "ReLU"
  bottom: "inception_3b/1x1"
  top: "inception_3b/1x1"
}
layer {
  name: "inception_3b/3x3_reduce"
  type: "Convolution"
  bottom: "inception_3a/output"
  top: "inception_3b/3x3_reduce"
  param {
    lr_mult: 1
    decay_mult: 1
  }
  param {
    lr_mult: 2
    decay_mult: 0
  }
  convolution_param {
    num_output: 128
    kernel_size: 1
    weight_filler {
      type: "xavier"
      std: 0.09
    }
    bias_filler {
      type: "constant"
      value: 0.2
    }
  }
}
layer {
  name: "inception_3b/relu_3x3_reduce"
  type: "ReLU"
  bottom: "inception_3b/3x3_reduce"
  top: "inception_3b/3x3_reduce"
}
layer {
  name: "inception_3b/3x3"
  type: "Convolution"
  bottom: "inception_3b/3x3_reduce"
  top: "inception_3b/3x3"
  param {
    lr_mult: 1
    decay_mult: 1
  }
  param {
    lr_mult: 2
    decay_mult: 0
  }
  convolution_param {
    num_output: 192
    pad: 1
    kernel_size: 3
    weight_filler {
      type: "xavier"
      std: 0.03
    }
    bias_filler {
      type: "constant"
      value: 0.2
    }
  }
}
layer {
  name: "inception_3b/relu_3x3"
  type: "ReLU"
  bottom: "inception_3b/3x3"
  top: "inception_3b/3x3"
}
layer {
  name: "inception_3b/5x5_reduce"
  type: "Convolution"
  bottom: "inception_3a/output"
  top: "inception_3b/5x5_reduce"
  param {
    lr_mult: 1
    decay_mult: 1
  }
  param {
    lr_mult: 2
    decay_mult: 0
  }
  convolution_param {
    num_output: 32
    kernel_size: 1
    weight_filler {
      type: "xavier"
      std: 0.2
    }
    bias_filler {
      type: "constant"
      value: 0.2
    }
  }
}
layer {
  name: "inception_3b/relu_5x5_reduce"
  type: "ReLU"
  bottom: "inception_3b/5x5_reduce"
  top: "inception_3b/5x5_reduce"
}
layer {
  name: "inception_3b/5x5"
  type: "Convolution"
  bottom: "inception_3b/5x5_reduce"
  top: "inception_3b/5x5"
  param {
    lr_mult: 1
    decay_mult: 1
  }
  param {
    lr_mult: 2
    decay_mult: 0
  }
  convolution_param {
    num_output: 96
    pad: 2
    kernel_size: 5
    weight_filler {
      type: "xavier"
      std: 0.03
    }
    bias_filler {
      type: "constant"
      value: 0.2
    }
  }
}
layer {
  name: "inception_3b/relu_5x5"
  type: "ReLU"
  bottom: "inception_3b/5x5"
  top: "inception_3b/5x5"
}
layer {
  name: "inception_3b/pool"
  type: "Pooling"
  bottom: "inception_3a/output"
  top: "inception_3b/pool"
  pooling_param {
    pool: MAX
    kernel_size: 3
    stride: 1
    pad: 1
  }
}
layer {
  name: "inception_3b/pool_proj"
  type: "Convolution"
  bottom: "inception_3b/pool"
  top: "inception_3b/pool_proj"
  param {
    lr_mult: 1
    decay_mult: 1
  }
  param {
    lr_mult: 2
    decay_mult: 0
  }
  convolution_param {
    num_output: 64
    kernel_size: 1
    weight_filler {
      type: "xavier"
      std: 0.1
    }
    bias_filler {
      type: "constant"
      value: 0.2
    }
  }
}
layer {
  name: "inception_3b/relu_pool_proj"
  type: "ReLU"
  bottom: "inception_3b/pool_proj"
  top: "inception_3b/pool_proj"
}
layer {
  name: "inception_3b/output"
  type: "Concat"
  bottom: "inception_3b/1x1"
  bottom: "inception_3b/3x3"
  bottom: "inception_3b/5x5"
  bottom: "inception_3b/pool_proj"
  top: "inception_3b/output"
}
layer {
  name: "pool3/3x3_s2"
  type: "Pooling"
  bottom: "inception_3b/output"
  top: "pool3/3x3_s2"
  pooling_param {
    pool: MAX
    kernel_size: 3
    stride: 2
  }
}
layer {
  name: "inception_4a/1x1"
  type: "Convolution"
  bottom: "pool3/3x3_s2"
  top: "inception_4a/1x1"
  param {
    lr_mult: 1
    decay_mult: 1
  }
  param {
    lr_mult: 2
    decay_mult: 0
  }
  convolution_param {
    num_output: 192
    kernel_size: 1
    weight_filler {
      type: "xavier"
      std: 0.03
    }
    bias_filler {
      type: "constant"
      value: 0.2
    }
  }
}
layer {
  name: "inception_4a/relu_1x1"
  type: "ReLU"
  bottom: "inception_4a/1x1"
  top: "inception_4a/1x1"
}
layer {
  name: "inception_4a/3x3_reduce"
  type: "Convolution"
  bottom: "pool3/3x3_s2"
  top: "inception_4a/3x3_reduce"
  param {
    lr_mult: 1
    decay_mult: 1
  }
  param {
    lr_mult: 2
    decay_mult: 0
  }
  convolution_param {
    num_output: 96
    kernel_size: 1
    weight_filler {
      type: "xavier"
      std: 0.09
    }
    bias_filler {
      type: "constant"
      value: 0.2
    }
  }
}
layer {
  name: "inception_4a/relu_3x3_reduce"
  type: "ReLU"
  bottom: "inception_4a/3x3_reduce"
  top: "inception_4a/3x3_reduce"
}
layer {
  name: "inception_4a/3x3"
  type: "Convolution"
  bottom: "inception_4a/3x3_reduce"
  top: "inception_4a/3x3"
  param {
    lr_mult: 1
    decay_mult: 1
  }
  param {
    lr_mult: 2
    decay_mult: 0
  }
  convolution_param {
    num_output: 208
    pad: 1
    kernel_size: 3
    weight_filler {
      type: "xavier"
      std: 0.03
    }
    bias_filler {
      type: "constant"
      value: 0.2
    }
  }
}
layer {
  name: "inception_4a/relu_3x3"
  type: "ReLU"
  bottom: "inception_4a/3x3"
  top: "inception_4a/3x3"
}
layer {
  name: "inception_4a/5x5_reduce"
  type: "Convolution"
  bottom: "pool3/3x3_s2"
  top: "inception_4a/5x5_reduce"
  param {
    lr_mult: 1
    decay_mult: 1
  }
  param {
    lr_mult: 2
    decay_mult: 0
  }
  convolution_param {
    num_output: 16
    kernel_size: 1
    weight_filler {
      type: "xavier"
      std: 0.2
    }
    bias_filler {
      type: "constant"
      value: 0.2
    }
  }
}
layer {
  name: "inception_4a/relu_5x5_reduce"
  type: "ReLU"
  bottom: "inception_4a/5x5_reduce"
  top: "inception_4a/5x5_reduce"
}
layer {
  name: "inception_4a/5x5"
  type: "Convolution"
  bottom: "inception_4a/5x5_reduce"
  top: "inception_4a/5x5"
  param {
    lr_mult: 1
    decay_mult: 1
  }
  param {
    lr_mult: 2
    decay_mult: 0
  }
  convolution_param {
    num_output: 48
    pad: 2
    kernel_size: 5
    weight_filler {
      type: "xavier"
      std: 0.03
    }
    bias_filler {
      type: "constant"
      value: 0.2
    }
  }
}
layer {
  name: "inception_4a/relu_5x5"
  type: "ReLU"
  bottom: "inception_4a/5x5"
  top: "inception_4a/5x5"
}
layer {
  name: "inception_4a/pool"
  type: "Pooling"
  bottom: "pool3/3x3_s2"
  top: "inception_4a/pool"
  pooling_param {
    pool: MAX
    kernel_size: 3
    stride: 1
    pad: 1
  }
}
layer {
  name: "inception_4a/pool_proj"
  type: "Convolution"
  bottom: "inception_4a/pool"
  top: "inception_4a/pool_proj"
  param {
    lr_mult: 1
    decay_mult: 1
  }
  param {
    lr_mult: 2
    decay_mult: 0
  }
  convolution_param {
    num_output: 64
    kernel_size: 1
    weight_filler {
      type: "xavier"
      std: 0.1
    }
    bias_filler {
      type: "constant"
      value: 0.2
    }
  }
}
layer {
  name: "inception_4a/relu_pool_proj"
  type: "ReLU"
  bottom: "inception_4a/pool_proj"
  top: "inception_4a/pool_proj"
}
layer {
  name: "inception_4a/output"
  type: "Concat"
  bottom: "inception_4a/1x1"
  bottom: "inception_4a/3x3"
  bottom: "inception_4a/5x5"
  bottom: "inception_4a/pool_proj"
  top: "inception_4a/output"
}
layer {
  name: "loss1/ave_pool"
  type: "Pooling"
  bottom: "inception_4a/output"
  top: "loss1/ave_pool"
  pooling_param {
    pool: AVE
    kernel_size: 5
    stride: 3
  }
}
layer {
  name: "loss1/conv"
  type: "Convolution"
  bottom: "loss1/ave_pool"
  top: "loss1/conv"
  param {
    lr_mult: 1
    decay_mult: 1
  }
  param {
    lr_mult: 2
    decay_mult: 0
  }
  convolution_param {
    num_output: 128
    kernel_size: 1
    weight_filler {
      type: "xavier"
      std: 0.08
    }
    bias_filler {
      type: "constant"
      value: 0.2
    }
  }
}
layer {
  name: "loss1/relu_conv"
  type: "ReLU"
  bottom: "loss1/conv"
  top: "loss1/conv"
}
layer {
  name: "loss1/fc"
  type: "InnerProduct"
  bottom: "loss1/conv"
  top: "loss1/fc"
  param {
    lr_mult: 1
    decay_mult: 1
  }
  param {
    lr_mult: 2
    decay_mult: 0
  }
  inner_product_param {
    num_output: 1024
    weight_filler {
      type: "xavier"
      std: 0.02
    }
    bias_filler {
      type: "constant"
      value: 0.2
    }
  }
}
layer {
  name: "loss1/relu_fc"
  type: "ReLU"
  bottom: "loss1/fc"
  top: "loss1/fc"
}
layer {
  name: "loss1/drop_fc"
  type: "Dropout"
  bottom: "loss1/fc"
  top: "loss1/fc"
  dropout_param {
    dropout_ratio: 0.7
  }
}
layer {
  name: "loss1/classifier_plantvillage"
  type: "InnerProduct"
  bottom: "loss1/fc"
  top: "loss1/classifier_plantvillage"
  param {
    lr_mult: 1
    decay_mult: 1
  }
  param {
    lr_mult: 2
    decay_mult: 0
  }
  inner_product_param {
    num_output: 38
    weight_filler {
      type: "xavier"
      std: 0.0009765625
    }
    bias_filler {
      type: "constant"
      value: 0
    }
  }
}
layer {
  name: "inception_4b/1x1"
  type: "Convolution"
  bottom: "inception_4a/output"
  top: "inception_4b/1x1"
  param {
    lr_mult: 1
    decay_mult: 1
  }
  param {
    lr_mult: 2
    decay_mult: 0
  }
  convolution_param {
    num_output: 160
    kernel_size: 1
    weight_filler {
      type: "xavier"
      std: 0.03
    }
    bias_filler {
      type: "constant"
      value: 0.2
    }
  }
}
layer {
  name: "inception_4b/relu_1x1"
  type: "ReLU"
  bottom: "inception_4b/1x1"
  top: "inception_4b/1x1"
}
layer {
  name: "inception_4b/3x3_reduce"
  type: "Convolution"
  bottom: "inception_4a/output"
  top: "inception_4b/3x3_reduce"
  param {
    lr_mult: 1
    decay_mult: 1
  }
  param {
    lr_mult: 2
    decay_mult: 0
  }
  convolution_param {
    num_output: 112
    kernel_size: 1
    weight_filler {
      type: "xavier"
      std: 0.09
    }
    bias_filler {
      type: "constant"
      value: 0.2
    }
  }
}
layer {
  name: "inception_4b/relu_3x3_reduce"
  type: "ReLU"
  bottom: "inception_4b/3x3_reduce"
  top: "inception_4b/3x3_reduce"
}
layer {
  name: "inception_4b/3x3"
  type: "Convolution"
  bottom: "inception_4b/3x3_reduce"
  top: "inception_4b/3x3"
  param {
    lr_mult: 1
    decay_mult: 1
  }
  param {
    lr_mult: 2
    decay_mult: 0
  }
  convolution_param {
    num_output: 224
    pad: 1
    kernel_size: 3
    weight_filler {
      type: "xavier"
      std: 0.03
    }
    bias_filler {
      type: "constant"
      value: 0.2
    }
  }
}
layer {
  name: "inception_4b/relu_3x3"
  type: "ReLU"
  bottom: "inception_4b/3x3"
  top: "inception_4b/3x3"
}
layer {
  name: "inception_4b/5x5_reduce"
  type: "Convolution"
  bottom: "inception_4a/output"
  top: "inception_4b/5x5_reduce"
  param {
    lr_mult: 1
    decay_mult: 1
  }
  param {
    lr_mult: 2
    decay_mult: 0
  }
  convolution_param {
    num_output: 24
    kernel_size: 1
    weight_filler {
      type: "xavier"
      std: 0.2
    }
    bias_filler {
      type: "constant"
      value: 0.2
    }
  }
}
layer {
  name: "inception_4b/relu_5x5_reduce"
  type: "ReLU"
  bottom: "inception_4b/5x5_reduce"
  top: "inception_4b/5x5_reduce"
}
layer {
  name: "inception_4b/5x5"
  type: "Convolution"
  bottom: "inception_4b/5x5_reduce"
  top: "inception_4b/5x5"
  param {
    lr_mult: 1
    decay_mult: 1
  }
  param {
    lr_mult: 2
    decay_mult: 0
  }
  convolution_param {
    num_output: 64
    pad: 2
    kernel_size: 5
    weight_filler {
      type: "xavier"
      std: 0.03
    }
    bias_filler {
      type: "constant"
      value: 0.2
    }
  }
}
layer {
  name: "inception_4b/relu_5x5"
  type: "ReLU"
  bottom: "inception_4b/5x5"
  top: "inception_4b/5x5"
}
layer {
  name: "inception_4b/pool"
  type: "Pooling"
  bottom: "inception_4a/output"
  top: "inception_4b/pool"
  pooling_param {
    pool: MAX
    kernel_size: 3
    stride: 1
    pad: 1
  }
}
layer {
  name: "inception_4b/pool_proj"
  type: "Convolution"
  bottom: "inception_4b/pool"
  top: "inception_4b/pool_proj"
  param {
    lr_mult: 1
    decay_mult: 1
  }
  param {
    lr_mult: 2
    decay_mult: 0
  }
  convolution_param {
    num_output: 64
    kernel_size: 1
    weight_filler {
      type: "xavier"
      std: 0.1
    }
    bias_filler {
      type: "constant"
      value: 0.2
    }
  }
}
layer {
  name: "inception_4b/relu_pool_proj"
  type: "ReLU"
  bottom: "inception_4b/pool_proj"
  top: "inception_4b/pool_proj"
}
layer {
  name: "inception_4b/output"
  type: "Concat"
  bottom: "inception_4b/1x1"
  bottom: "inception_4b/3x3"
  bottom: "inception_4b/5x5"
  bottom: "inception_4b/pool_proj"
  top: "inception_4b/output"
}
layer {
  name: "inception_4c/1x1"
  type: "Convolution"
  bottom: "inception_4b/output"
  top: "inception_4c/1x1"
  param {
    lr_mult: 1
    decay_mult: 1
  }
  param {
    lr_mult: 2
    decay_mult: 0
  }
  convolution_param {
    num_output: 128
    kernel_size: 1
    weight_filler {
      type: "xavier"
      std: 0.03
    }
    bias_filler {
      type: "constant"
      value: 0.2
    }
  }
}
layer {
  name: "inception_4c/relu_1x1"
  type: "ReLU"
  bottom: "inception_4c/1x1"
  top: "inception_4c/1x1"
}
layer {
  name: "inception_4c/3x3_reduce"
  type: "Convolution"
  bottom: "inception_4b/output"
  top: "inception_4c/3x3_reduce"
  param {
    lr_mult: 1
    decay_mult: 1
  }
  param {
    lr_mult: 2
    decay_mult: 0
  }
  convolution_param {
    num_output: 128
    kernel_size: 1
    weight_filler {
      type: "xavier"
      std: 0.09
    }
    bias_filler {
      type: "constant"
      value: 0.2
    }
  }
}
layer {
  name: "inception_4c/relu_3x3_reduce"
  type: "ReLU"
  bottom: "inception_4c/3x3_reduce"
  top: "inception_4c/3x3_reduce"
}
layer {
  name: "inception_4c/3x3"
  type: "Convolution"
  bottom: "inception_4c/3x3_reduce"
  top: "inception_4c/3x3"
  param {
    lr_mult: 1
    decay_mult: 1
  }
  param {
    lr_mult: 2
    decay_mult: 0
  }
  convolution_param {
    num_output: 256
    pad: 1
    kernel_size: 3
    weight_filler {
      type: "xavier"
      std: 0.03
    }
    bias_filler {
      type: "constant"
      value: 0.2
    }
  }
}
layer {
  name: "inception_4c/relu_3x3"
  type: "ReLU"
  bottom: "inception_4c/3x3"
  top: "inception_4c/3x3"
}
layer {
  name: "inception_4c/5x5_reduce"
  type: "Convolution"
  bottom: "inception_4b/output"
  top: "inception_4c/5x5_reduce"
  param {
    lr_mult: 1
    decay_mult: 1
  }
  param {
    lr_mult: 2
    decay_mult: 0
  }
  convolution_param {
    num_output: 24
    kernel_size: 1
    weight_filler {
      type: "xavier"
      std: 0.2
    }
    bias_filler {
      type: "constant"
      value: 0.2
    }
  }
}
layer {
  name: "inception_4c/relu_5x5_reduce"
  type: "ReLU"
  bottom: "inception_4c/5x5_reduce"
  top: "inception_4c/5x5_reduce"
}
layer {
  name: "inception_4c/5x5"
  type: "Convolution"
  bottom: "inception_4c/5x5_reduce"
  top: "inception_4c/5x5"
  param {
    lr_mult: 1
    decay_mult: 1
  }
  param {
    lr_mult: 2
    decay_mult: 0
  }
  convolution_param {
    num_output: 64
    pad: 2
    kernel_size: 5
    weight_filler {
      type: "xavier"
      std: 0.03
    }
    bias_filler {
      type: "constant"
      value: 0.2
    }
  }
}
layer {
  name: "inception_4c/relu_5x5"
  type: "ReLU"
  bottom: "inception_4c/5x5"
  top: "inception_4c/5x5"
}
layer {
  name: "inception_4c/pool"
  type: "Pooling"
  bottom: "inception_4b/output"
  top: "inception_4c/pool"
  pooling_param {
    pool: MAX
    kernel_size: 3
    stride: 1
    pad: 1
  }
}
layer {
  name: "inception_4c/pool_proj"
  type: "Convolution"
  bottom: "inception_4c/pool"
  top: "inception_4c/pool_proj"
  param {
    lr_mult: 1
    decay_mult: 1
  }
  param {
    lr_mult: 2
    decay_mult: 0
  }
  convolution_param {
    num_output: 64
    kernel_size: 1
    weight_filler {
      type: "xavier"
      std: 0.1
    }
    bias_filler {
      type: "constant"
      value: 0.2
    }
  }
}
layer {
  name: "inception_4c/relu_pool_proj"
  type: "ReLU"
  bottom: "inception_4c/pool_proj"
  top: "inception_4c/pool_proj"
}
layer {
  name: "inception_4c/output"
  type: "Concat"
  bottom: "inception_4c/1x1"
  bottom: "inception_4c/3x3"
  bottom: "inception_4c/5x5"
  bottom: "inception_4c/pool_proj"
  top: "inception_4c/output"
}
layer {
  name: "inception_4d/1x1"
  type: "Convolution"
  bottom: "inception_4c/output"
  top: "inception_4d/1x1"
  param {
    lr_mult: 1
    decay_mult: 1
  }
  param {
    lr_mult: 2
    decay_mult: 0
  }
  convolution_param {
    num_output: 112
    kernel_size: 1
    weight_filler {
      type: "xavier"
      std: 0.03
    }
    bias_filler {
      type: "constant"
      value: 0.2
    }
  }
}
layer {
  name: "inception_4d/relu_1x1"
  type: "ReLU"
  bottom: "inception_4d/1x1"
  top: "inception_4d/1x1"
}
layer {
  name: "inception_4d/3x3_reduce"
  type: "Convolution"
  bottom: "inception_4c/output"
  top: "inception_4d/3x3_reduce"
  param {
    lr_mult: 1
    decay_mult: 1
  }
  param {
    lr_mult: 2
    decay_mult: 0
  }
  convolution_param {
    num_output: 144
    kernel_size: 1
    weight_filler {
      type: "xavier"
      std: 0.09
    }
    bias_filler {
      type: "constant"
      value: 0.2
    }
  }
}
layer {
  name: "inception_4d/relu_3x3_reduce"
  type: "ReLU"
  bottom: "inception_4d/3x3_reduce"
  top: "inception_4d/3x3_reduce"
}
layer {
  name: "inception_4d/3x3"
  type: "Convolution"
  bottom: "inception_4d/3x3_reduce"
  top: "inception_4d/3x3"
  param {
    lr_mult: 1
    decay_mult: 1
  }
  param {
    lr_mult: 2
    decay_mult: 0
  }
  convolution_param {
    num_output: 288
    pad: 1
    kernel_size: 3
    weight_filler {
      type: "xavier"
      std: 0.03
    }
    bias_filler {
      type: "constant"
      value: 0.2
    }
  }
}
layer {
  name: "inception_4d/relu_3x3"
  type: "ReLU"
  bottom: "inception_4d/3x3"
  top: "inception_4d/3x3"
}
layer {
  name: "inception_4d/5x5_reduce"
  type: "Convolution"
  bottom: "inception_4c/output"
  top: "inception_4d/5x5_reduce"
  param {
    lr_mult: 1
    decay_mult: 1
  }
  param {
    lr_mult: 2
    decay_mult: 0
  }
  convolution_param {
    num_output: 32
    kernel_size: 1
    weight_filler {
      type: "xavier"
      std: 0.2
    }
    bias_filler {
      type: "constant"
      value: 0.2
    }
  }
}
layer {
  name: "inception_4d/relu_5x5_reduce"
  type: "ReLU"
  bottom: "inception_4d/5x5_reduce"
  top: "inception_4d/5x5_reduce"
}
layer {
  name: "inception_4d/5x5"
  type: "Convolution"
  bottom: "inception_4d/5x5_reduce"
  top: "inception_4d/5x5"
  param {
    lr_mult: 1
    decay_mult: 1
  }
  param {
    lr_mult: 2
    decay_mult: 0
  }
  convolution_param {
    num_output: 64
    pad: 2
    kernel_size: 5
    weight_filler {
      type: "xavier"
      std: 0.03
    }
    bias_filler {
      type: "constant"
      value: 0.2
    }
  }
}
layer {
  name: "inception_4d/relu_5x5"
  type: "ReLU"
  bottom: "inception_4d/5x5"
  top: "inception_4d/5x5"
}
layer {
  name: "inception_4d/pool"
  type: "Pooling"
  bottom: "inception_4c/output"
  top: "inception_4d/pool"
  pooling_param {
    pool: MAX
    kernel_size: 3
    stride: 1
    pad: 1
  }
}
layer {
  name: "inception_4d/pool_proj"
  type: "Convolution"
  bottom: "inception_4d/pool"
  top: "inception_4d/pool_proj"
  param {
    lr_mult: 1
    decay_mult: 1
  }
  param {
    lr_mult: 2
    decay_mult: 0
  }
  convolution_param {
    num_output: 64
    kernel_size: 1
    weight_filler {
      type: "xavier"
      std: 0.1
    }
    bias_filler {
      type: "constant"
      value: 0.2
    }
  }
}
layer {
  name: "inception_4d/relu_pool_proj"
  type: "ReLU"
  bottom: "inception_4d/pool_proj"
  top: "inception_4d/pool_proj"
}
layer {
  name: "inception_4d/output"
  type: "Concat"
  bottom: "inception_4d/1x1"
  bottom: "inception_4d/3x3"
  bottom: "inception_4d/5x5"
  bottom: "inception_4d/pool_proj"
  top: "inception_4d/output"
}
layer {
  name: "loss2/ave_pool"
  type: "Pooling"
  bottom: "inception_4d/output"
  top: "loss2/ave_pool"
  pooling_param {
    pool: AVE
    kernel_size: 5
    stride: 3
  }
}
layer {
  name: "loss2/conv"
  type: "Convolution"
  bottom: "loss2/ave_pool"
  top: "loss2/conv"
  param {
    lr_mult: 1
    decay_mult: 1
  }
  param {
    lr_mult: 2
    decay_mult: 0
  }
  convolution_param {
    num_output: 128
    kernel_size: 1
    weight_filler {
      type: "xavier"
      std: 0.08
    }
    bias_filler {
      type: "constant"
      value: 0.2
    }
  }
}
layer {
  name: "loss2/relu_conv"
  type: "ReLU"
  bottom: "loss2/conv"
  top: "loss2/conv"
}
layer {
  name: "loss2/fc"
  type: "InnerProduct"
  bottom: "loss2/conv"
  top: "loss2/fc"
  param {
    lr_mult: 1
    decay_mult: 1
  }
  param {
    lr_mult: 2
    decay_mult: 0
  }
  inner_product_param {
    num_output: 1024
    weight_filler {
      type: "xavier"
      std: 0.02
    }
    bias_filler {
      type: "constant"
      value: 0.2
    }
  }
}
layer {
  name: "loss2/relu_fc"
  type: "ReLU"
  bottom: "loss2/fc"
  top: "loss2/fc"
}
layer {
  name: "loss2/drop_fc"
  type: "Dropout"
  bottom: "loss2/fc"
  top: "loss2/fc"
  dropout_param {
    dropout_ratio: 0.7
  }
}
layer {
  name: "loss2/classifier_plantvillage"
  type: "InnerProduct"
  bottom: "loss2/fc"
  top: "loss2/classifier_plantvillage"
  param {
    lr_mult: 1
    decay_mult: 1
  }
  param {
    lr_mult: 2
    decay_mult: 0
  }
  inner_product_param {
    num_output: 38
    weight_filler {
      type: "xavier"
      std: 0.0009765625
    }
    bias_filler {
      type: "constant"
      value: 0
    }
  }
}
layer {
  name: "inception_4e/1x1"
  type: "Convolution"
  bottom: "inception_4d/output"
  top: "inception_4e/1x1"
  param {
    lr_mult: 1
    decay_mult: 1
  }
  param {
    lr_mult: 2
    decay_mult: 0
  }
  convolution_param {
    num_output: 256
    kernel_size: 1
    weight_filler {
      type: "xavier"
      std: 0.03
    }
    bias_filler {
      type: "constant"
      value: 0.2
    }
  }
}
layer {
  name: "inception_4e/relu_1x1"
  type: "ReLU"
  bottom: "inception_4e/1x1"
  top: "inception_4e/1x1"
}
layer {
  name: "inception_4e/3x3_reduce"
  type: "Convolution"
  bottom: "inception_4d/output"
  top: "inception_4e/3x3_reduce"
  param {
    lr_mult: 1
    decay_mult: 1
  }
  param {
    lr_mult: 2
    decay_mult: 0
  }
  convolution_param {
    num_output: 160
    kernel_size: 1
    weight_filler {
      type: "xavier"
      std: 0.09
    }
    bias_filler {
      type: "constant"
      value: 0.2
    }
  }
}
layer {
  name: "inception_4e/relu_3x3_reduce"
  type: "ReLU"
  bottom: "inception_4e/3x3_reduce"
  top: "inception_4e/3x3_reduce"
}
layer {
  name: "inception_4e/3x3"
  type: "Convolution"
  bottom: "inception_4e/3x3_reduce"
  top: "inception_4e/3x3"
  param {
    lr_mult: 1
    decay_mult: 1
  }
  param {
    lr_mult: 2
    decay_mult: 0
  }
  convolution_param {
    num_output: 320
    pad: 1
    kernel_size: 3
    weight_filler {
      type: "xavier"
      std: 0.03
    }
    bias_filler {
      type: "constant"
      value: 0.2
    }
  }
}
layer {
  name: "inception_4e/relu_3x3"
  type: "ReLU"
  bottom: "inception_4e/3x3"
  top: "inception_4e/3x3"
}
layer {
  name: "inception_4e/5x5_reduce"
  type: "Convolution"
  bottom: "inception_4d/output"
  top: "inception_4e/5x5_reduce"
  param {
    lr_mult: 1
    decay_mult: 1
  }
  param {
    lr_mult: 2
    decay_mult: 0
  }
  convolution_param {
    num_output: 32
    kernel_size: 1
    weight_filler {
      type: "xavier"
      std: 0.2
    }
    bias_filler {
      type: "constant"
      value: 0.2
    }
  }
}
layer {
  name: "inception_4e/relu_5x5_reduce"
  type: "ReLU"
  bottom: "inception_4e/5x5_reduce"
  top: "inception_4e/5x5_reduce"
}
layer {
  name: "inception_4e/5x5"
  type: "Convolution"
  bottom: "inception_4e/5x5_reduce"
  top: "inception_4e/5x5"
  p
I0403 16:12:32.933325 20827 layer_factory.hpp:77] Creating layer data
I0403 16:12:32.933931 20827 net.cpp:91] Creating Layer data
I0403 16:12:32.933967 20827 net.cpp:399] data -> data
I0403 16:12:32.934017 20827 net.cpp:399] data -> label
I0403 16:12:32.934053 20827 data_transformer.cpp:25] Loading mean file from: /home/mohanty/data/final_dataset/lmdb/color-40-60/mean.binaryproto
I0403 16:12:32.935286 20830 db_lmdb.cpp:38] Opened lmdb /home/mohanty/data/final_dataset/lmdb/color-40-60/test_db
I0403 16:12:32.947428 20827 data_layer.cpp:41] output data size: 24,3,224,224
I0403 16:12:32.977598 20827 net.cpp:141] Setting up data
I0403 16:12:32.977671 20827 net.cpp:148] Top shape: 24 3 224 224 (3612672)
I0403 16:12:32.977695 20827 net.cpp:148] Top shape: 24 (24)
I0403 16:12:32.977710 20827 net.cpp:156] Memory required for data: 14450784
I0403 16:12:32.977740 20827 layer_factory.hpp:77] Creating layer label_data_1_split
I0403 16:12:32.977766 20827 net.cpp:91] Creating Layer label_data_1_split
I0403 16:12:32.977783 20827 net.cpp:425] label_data_1_split <- label
I0403 16:12:32.977816 20827 net.cpp:399] label_data_1_split -> label_data_1_split_0
I0403 16:12:32.977844 20827 net.cpp:399] label_data_1_split -> label_data_1_split_1
I0403 16:12:32.977865 20827 net.cpp:399] label_data_1_split -> label_data_1_split_2
I0403 16:12:32.977886 20827 net.cpp:399] label_data_1_split -> label_data_1_split_3
I0403 16:12:32.977906 20827 net.cpp:399] label_data_1_split -> label_data_1_split_4
I0403 16:12:32.977926 20827 net.cpp:399] label_data_1_split -> label_data_1_split_5
I0403 16:12:32.977946 20827 net.cpp:399] label_data_1_split -> label_data_1_split_6
I0403 16:12:32.977983 20827 net.cpp:399] label_data_1_split -> label_data_1_split_7
I0403 16:12:32.978005 20827 net.cpp:399] label_data_1_split -> label_data_1_split_8
I0403 16:12:32.978026 20827 net.cpp:399] label_data_1_split -> label_data_1_split_9
I0403 16:12:32.978147 20827 net.cpp:141] Setting up label_data_1_split
I0403 16:12:32.978173 20827 net.cpp:148] Top shape: 24 (24)
I0403 16:12:32.978189 20827 net.cpp:148] Top shape: 24 (24)
I0403 16:12:32.978204 20827 net.cpp:148] Top shape: 24 (24)
I0403 16:12:32.978220 20827 net.cpp:148] Top shape: 24 (24)
I0403 16:12:32.978236 20827 net.cpp:148] Top shape: 24 (24)
I0403 16:12:32.978251 20827 net.cpp:148] Top shape: 24 (24)
I0403 16:12:32.978268 20827 net.cpp:148] Top shape: 24 (24)
I0403 16:12:32.978283 20827 net.cpp:148] Top shape: 24 (24)
I0403 16:12:32.978299 20827 net.cpp:148] Top shape: 24 (24)
I0403 16:12:32.978315 20827 net.cpp:148] Top shape: 24 (24)
I0403 16:12:32.978360 20827 net.cpp:156] Memory required for data: 14451744
I0403 16:12:32.978376 20827 layer_factory.hpp:77] Creating layer conv1/7x7_s2
I0403 16:12:32.978409 20827 net.cpp:91] Creating Layer conv1/7x7_s2
I0403 16:12:32.978427 20827 net.cpp:425] conv1/7x7_s2 <- data
I0403 16:12:32.978446 20827 net.cpp:399] conv1/7x7_s2 -> conv1/7x7_s2
I0403 16:12:33.125104 20827 net.cpp:141] Setting up conv1/7x7_s2
I0403 16:12:33.125200 20827 net.cpp:148] Top shape: 24 64 112 112 (19267584)
I0403 16:12:33.125216 20827 net.cpp:156] Memory required for data: 91522080
I0403 16:12:33.125246 20827 layer_factory.hpp:77] Creating layer conv1/relu_7x7
I0403 16:12:33.125272 20827 net.cpp:91] Creating Layer conv1/relu_7x7
I0403 16:12:33.125289 20827 net.cpp:425] conv1/relu_7x7 <- conv1/7x7_s2
I0403 16:12:33.125308 20827 net.cpp:386] conv1/relu_7x7 -> conv1/7x7_s2 (in-place)
I0403 16:12:33.125566 20827 net.cpp:141] Setting up conv1/relu_7x7
I0403 16:12:33.125592 20827 net.cpp:148] Top shape: 24 64 112 112 (19267584)
I0403 16:12:33.125608 20827 net.cpp:156] Memory required for data: 168592416
I0403 16:12:33.125623 20827 layer_factory.hpp:77] Creating layer pool1/3x3_s2
I0403 16:12:33.125648 20827 net.cpp:91] Creating Layer pool1/3x3_s2
I0403 16:12:33.125664 20827 net.cpp:425] pool1/3x3_s2 <- conv1/7x7_s2
I0403 16:12:33.125682 20827 net.cpp:399] pool1/3x3_s2 -> pool1/3x3_s2
I0403 16:12:33.125756 20827 net.cpp:141] Setting up pool1/3x3_s2
I0403 16:12:33.125778 20827 net.cpp:148] Top shape: 24 64 56 56 (4816896)
I0403 16:12:33.125793 20827 net.cpp:156] Memory required for data: 187860000
I0403 16:12:33.125808 20827 layer_factory.hpp:77] Creating layer pool1/norm1
I0403 16:12:33.125830 20827 net.cpp:91] Creating Layer pool1/norm1
I0403 16:12:33.125847 20827 net.cpp:425] pool1/norm1 <- pool1/3x3_s2
I0403 16:12:33.125865 20827 net.cpp:399] pool1/norm1 -> pool1/norm1
I0403 16:12:33.126153 20827 net.cpp:141] Setting up pool1/norm1
I0403 16:12:33.126180 20827 net.cpp:148] Top shape: 24 64 56 56 (4816896)
I0403 16:12:33.126194 20827 net.cpp:156] Memory required for data: 207127584
I0403 16:12:33.126210 20827 layer_factory.hpp:77] Creating layer conv2/3x3_reduce
I0403 16:12:33.126235 20827 net.cpp:91] Creating Layer conv2/3x3_reduce
I0403 16:12:33.126252 20827 net.cpp:425] conv2/3x3_reduce <- pool1/norm1
I0403 16:12:33.126271 20827 net.cpp:399] conv2/3x3_reduce -> conv2/3x3_reduce
I0403 16:12:33.127609 20827 net.cpp:141] Setting up conv2/3x3_reduce
I0403 16:12:33.127638 20827 net.cpp:148] Top shape: 24 64 56 56 (4816896)
I0403 16:12:33.127655 20827 net.cpp:156] Memory required for data: 226395168
I0403 16:12:33.127676 20827 layer_factory.hpp:77] Creating layer conv2/relu_3x3_reduce
I0403 16:12:33.127694 20827 net.cpp:91] Creating Layer conv2/relu_3x3_reduce
I0403 16:12:33.127709 20827 net.cpp:425] conv2/relu_3x3_reduce <- conv2/3x3_reduce
I0403 16:12:33.127725 20827 net.cpp:386] conv2/relu_3x3_reduce -> conv2/3x3_reduce (in-place)
I0403 16:12:33.127980 20827 net.cpp:141] Setting up conv2/relu_3x3_reduce
I0403 16:12:33.128006 20827 net.cpp:148] Top shape: 24 64 56 56 (4816896)
I0403 16:12:33.128054 20827 net.cpp:156] Memory required for data: 245662752
I0403 16:12:33.128072 20827 layer_factory.hpp:77] Creating layer conv2/3x3
I0403 16:12:33.128094 20827 net.cpp:91] Creating Layer conv2/3x3
I0403 16:12:33.128110 20827 net.cpp:425] conv2/3x3 <- conv2/3x3_reduce
I0403 16:12:33.128129 20827 net.cpp:399] conv2/3x3 -> conv2/3x3
I0403 16:12:33.130426 20827 net.cpp:141] Setting up conv2/3x3
I0403 16:12:33.130458 20827 net.cpp:148] Top shape: 24 192 56 56 (14450688)
I0403 16:12:33.130475 20827 net.cpp:156] Memory required for data: 303465504
I0403 16:12:33.130496 20827 layer_factory.hpp:77] Creating layer conv2/relu_3x3
I0403 16:12:33.130514 20827 net.cpp:91] Creating Layer conv2/relu_3x3
I0403 16:12:33.130529 20827 net.cpp:425] conv2/relu_3x3 <- conv2/3x3
I0403 16:12:33.130549 20827 net.cpp:386] conv2/relu_3x3 -> conv2/3x3 (in-place)
I0403 16:12:33.130724 20827 net.cpp:141] Setting up conv2/relu_3x3
I0403 16:12:33.130749 20827 net.cpp:148] Top shape: 24 192 56 56 (14450688)
I0403 16:12:33.130795 20827 net.cpp:156] Memory required for data: 361268256
I0403 16:12:33.130810 20827 layer_factory.hpp:77] Creating layer conv2/norm2
I0403 16:12:33.130831 20827 net.cpp:91] Creating Layer conv2/norm2
I0403 16:12:33.130847 20827 net.cpp:425] conv2/norm2 <- conv2/3x3
I0403 16:12:33.130867 20827 net.cpp:399] conv2/norm2 -> conv2/norm2
I0403 16:12:33.131170 20827 net.cpp:141] Setting up conv2/norm2
I0403 16:12:33.131199 20827 net.cpp:148] Top shape: 24 192 56 56 (14450688)
I0403 16:12:33.131216 20827 net.cpp:156] Memory required for data: 419071008
I0403 16:12:33.131230 20827 layer_factory.hpp:77] Creating layer pool2/3x3_s2
I0403 16:12:33.131263 20827 net.cpp:91] Creating Layer pool2/3x3_s2
I0403 16:12:33.131278 20827 net.cpp:425] pool2/3x3_s2 <- conv2/norm2
I0403 16:12:33.131297 20827 net.cpp:399] pool2/3x3_s2 -> pool2/3x3_s2
I0403 16:12:33.131351 20827 net.cpp:141] Setting up pool2/3x3_s2
I0403 16:12:33.131374 20827 net.cpp:148] Top shape: 24 192 28 28 (3612672)
I0403 16:12:33.131389 20827 net.cpp:156] Memory required for data: 433521696
I0403 16:12:33.131404 20827 layer_factory.hpp:77] Creating layer pool2/3x3_s2_pool2/3x3_s2_0_split
I0403 16:12:33.131425 20827 net.cpp:91] Creating Layer pool2/3x3_s2_pool2/3x3_s2_0_split
I0403 16:12:33.131443 20827 net.cpp:425] pool2/3x3_s2_pool2/3x3_s2_0_split <- pool2/3x3_s2
I0403 16:12:33.131459 20827 net.cpp:399] pool2/3x3_s2_pool2/3x3_s2_0_split -> pool2/3x3_s2_pool2/3x3_s2_0_split_0
I0403 16:12:33.131505 20827 net.cpp:399] pool2/3x3_s2_pool2/3x3_s2_0_split -> pool2/3x3_s2_pool2/3x3_s2_0_split_1
I0403 16:12:33.131527 20827 net.cpp:399] pool2/3x3_s2_pool2/3x3_s2_0_split -> pool2/3x3_s2_pool2/3x3_s2_0_split_2
I0403 16:12:33.131562 20827 net.cpp:399] pool2/3x3_s2_pool2/3x3_s2_0_split -> pool2/3x3_s2_pool2/3x3_s2_0_split_3
I0403 16:12:33.131634 20827 net.cpp:141] Setting up pool2/3x3_s2_pool2/3x3_s2_0_split
I0403 16:12:33.131657 20827 net.cpp:148] Top shape: 24 192 28 28 (3612672)
I0403 16:12:33.131674 20827 net.cpp:148] Top shape: 24 192 28 28 (3612672)
I0403 16:12:33.131688 20827 net.cpp:148] Top shape: 24 192 28 28 (3612672)
I0403 16:12:33.131703 20827 net.cpp:148] Top shape: 24 192 28 28 (3612672)
I0403 16:12:33.131717 20827 net.cpp:156] Memory required for data: 491324448
I0403 16:12:33.131732 20827 layer_factory.hpp:77] Creating layer inception_3a/1x1
I0403 16:12:33.131754 20827 net.cpp:91] Creating Layer inception_3a/1x1
I0403 16:12:33.131770 20827 net.cpp:425] inception_3a/1x1 <- pool2/3x3_s2_pool2/3x3_s2_0_split_0
I0403 16:12:33.131791 20827 net.cpp:399] inception_3a/1x1 -> inception_3a/1x1
I0403 16:12:33.133350 20827 net.cpp:141] Setting up inception_3a/1x1
I0403 16:12:33.133393 20827 net.cpp:148] Top shape: 24 64 28 28 (1204224)
I0403 16:12:33.133407 20827 net.cpp:156] Memory required for data: 496141344
I0403 16:12:33.133426 20827 layer_factory.hpp:77] Creating layer inception_3a/relu_1x1
I0403 16:12:33.133443 20827 net.cpp:91] Creating Layer inception_3a/relu_1x1
I0403 16:12:33.133460 20827 net.cpp:425] inception_3a/relu_1x1 <- inception_3a/1x1
I0403 16:12:33.133478 20827 net.cpp:386] inception_3a/relu_1x1 -> inception_3a/1x1 (in-place)
I0403 16:12:33.133656 20827 net.cpp:141] Setting up inception_3a/relu_1x1
I0403 16:12:33.133680 20827 net.cpp:148] Top shape: 24 64 28 28 (1204224)
I0403 16:12:33.133694 20827 net.cpp:156] Memory required for data: 500958240
I0403 16:12:33.133709 20827 layer_factory.hpp:77] Creating layer inception_3a/3x3_reduce
I0403 16:12:33.133731 20827 net.cpp:91] Creating Layer inception_3a/3x3_reduce
I0403 16:12:33.133749 20827 net.cpp:425] inception_3a/3x3_reduce <- pool2/3x3_s2_pool2/3x3_s2_0_split_1
I0403 16:12:33.133769 20827 net.cpp:399] inception_3a/3x3_reduce -> inception_3a/3x3_reduce
I0403 16:12:33.135555 20827 net.cpp:141] Setting up inception_3a/3x3_reduce
I0403 16:12:33.135586 20827 net.cpp:148] Top shape: 24 96 28 28 (1806336)
I0403 16:12:33.135602 20827 net.cpp:156] Memory required for data: 508183584
I0403 16:12:33.135623 20827 layer_factory.hpp:77] Creating layer inception_3a/relu_3x3_reduce
I0403 16:12:33.135660 20827 net.cpp:91] Creating Layer inception_3a/relu_3x3_reduce
I0403 16:12:33.135678 20827 net.cpp:425] inception_3a/relu_3x3_reduce <- inception_3a/3x3_reduce
I0403 16:12:33.135695 20827 net.cpp:386] inception_3a/relu_3x3_reduce -> inception_3a/3x3_reduce (in-place)
I0403 16:12:33.135874 20827 net.cpp:141] Setting up inception_3a/relu_3x3_reduce
I0403 16:12:33.135900 20827 net.cpp:148] Top shape: 24 96 28 28 (1806336)
I0403 16:12:33.135915 20827 net.cpp:156] Memory required for data: 515408928
I0403 16:12:33.135929 20827 layer_factory.hpp:77] Creating layer inception_3a/3x3
I0403 16:12:33.135951 20827 net.cpp:91] Creating Layer inception_3a/3x3
I0403 16:12:33.135973 20827 net.cpp:425] inception_3a/3x3 <- inception_3a/3x3_reduce
I0403 16:12:33.135992 20827 net.cpp:399] inception_3a/3x3 -> inception_3a/3x3
I0403 16:12:33.137586 20827 net.cpp:141] Setting up inception_3a/3x3
I0403 16:12:33.137614 20827 net.cpp:148] Top shape: 24 128 28 28 (2408448)
I0403 16:12:33.137627 20827 net.cpp:156] Memory required for data: 525042720
I0403 16:12:33.137645 20827 layer_factory.hpp:77] Creating layer inception_3a/relu_3x3
I0403 16:12:33.137662 20827 net.cpp:91] Creating Layer inception_3a/relu_3x3
I0403 16:12:33.137677 20827 net.cpp:425] inception_3a/relu_3x3 <- inception_3a/3x3
I0403 16:12:33.137696 20827 net.cpp:386] inception_3a/relu_3x3 -> inception_3a/3x3 (in-place)
I0403 16:12:33.137969 20827 net.cpp:141] Setting up inception_3a/relu_3x3
I0403 16:12:33.137994 20827 net.cpp:148] Top shape: 24 128 28 28 (2408448)
I0403 16:12:33.138008 20827 net.cpp:156] Memory required for data: 534676512
I0403 16:12:33.138023 20827 layer_factory.hpp:77] Creating layer inception_3a/5x5_reduce
I0403 16:12:33.138044 20827 net.cpp:91] Creating Layer inception_3a/5x5_reduce
I0403 16:12:33.138062 20827 net.cpp:425] inception_3a/5x5_reduce <- pool2/3x3_s2_pool2/3x3_s2_0_split_2
I0403 16:12:33.138082 20827 net.cpp:399] inception_3a/5x5_reduce -> inception_3a/5x5_reduce
I0403 16:12:33.139034 20827 net.cpp:141] Setting up inception_3a/5x5_reduce
I0403 16:12:33.139065 20827 net.cpp:148] Top shape: 24 16 28 28 (301056)
I0403 16:12:33.139082 20827 net.cpp:156] Memory required for data: 535880736
I0403 16:12:33.139103 20827 layer_factory.hpp:77] Creating layer inception_3a/relu_5x5_reduce
I0403 16:12:33.139132 20827 net.cpp:91] Creating Layer inception_3a/relu_5x5_reduce
I0403 16:12:33.139155 20827 net.cpp:425] inception_3a/relu_5x5_reduce <- inception_3a/5x5_reduce
I0403 16:12:33.139178 20827 net.cpp:386] inception_3a/relu_5x5_reduce -> inception_3a/5x5_reduce (in-place)
I0403 16:12:33.139495 20827 net.cpp:141] Setting up inception_3a/relu_5x5_reduce
I0403 16:12:33.139533 20827 net.cpp:148] Top shape: 24 16 28 28 (301056)
I0403 16:12:33.139549 20827 net.cpp:156] Memory required for data: 537084960
I0403 16:12:33.139564 20827 layer_factory.hpp:77] Creating layer inception_3a/5x5
I0403 16:12:33.139585 20827 net.cpp:91] Creating Layer inception_3a/5x5
I0403 16:12:33.139603 20827 net.cpp:425] inception_3a/5x5 <- inception_3a/5x5_reduce
I0403 16:12:33.139623 20827 net.cpp:399] inception_3a/5x5 -> inception_3a/5x5
I0403 16:12:33.140635 20827 net.cpp:141] Setting up inception_3a/5x5
I0403 16:12:33.140662 20827 net.cpp:148] Top shape: 24 32 28 28 (602112)
I0403 16:12:33.140677 20827 net.cpp:156] Memory required for data: 539493408
I0403 16:12:33.140696 20827 layer_factory.hpp:77] Creating layer inception_3a/relu_5x5
I0403 16:12:33.140713 20827 net.cpp:91] Creating Layer inception_3a/relu_5x5
I0403 16:12:33.140728 20827 net.cpp:425] inception_3a/relu_5x5 <- inception_3a/5x5
I0403 16:12:33.140751 20827 net.cpp:386] inception_3a/relu_5x5 -> inception_3a/5x5 (in-place)
I0403 16:12:33.140923 20827 net.cpp:141] Setting up inception_3a/relu_5x5
I0403 16:12:33.140947 20827 net.cpp:148] Top shape: 24 32 28 28 (602112)
I0403 16:12:33.140967 20827 net.cpp:156] Memory required for data: 541901856
I0403 16:12:33.140983 20827 layer_factory.hpp:77] Creating layer inception_3a/pool
I0403 16:12:33.141002 20827 net.cpp:91] Creating Layer inception_3a/pool
I0403 16:12:33.141019 20827 net.cpp:425] inception_3a/pool <- pool2/3x3_s2_pool2/3x3_s2_0_split_3
I0403 16:12:33.141052 20827 net.cpp:399] inception_3a/pool -> inception_3a/pool
I0403 16:12:33.141109 20827 net.cpp:141] Setting up inception_3a/pool
I0403 16:12:33.141134 20827 net.cpp:148] Top shape: 24 192 28 28 (3612672)
I0403 16:12:33.141147 20827 net.cpp:156] Memory required for data: 556352544
I0403 16:12:33.141161 20827 layer_factory.hpp:77] Creating layer inception_3a/pool_proj
I0403 16:12:33.141182 20827 net.cpp:91] Creating Layer inception_3a/pool_proj
I0403 16:12:33.141199 20827 net.cpp:425] inception_3a/pool_proj <- inception_3a/pool
I0403 16:12:33.141221 20827 net.cpp:399] inception_3a/pool_proj -> inception_3a/pool_proj
I0403 16:12:33.142179 20827 net.cpp:141] Setting up inception_3a/pool_proj
I0403 16:12:33.142210 20827 net.cpp:148] Top shape: 24 32 28 28 (602112)
I0403 16:12:33.142226 20827 net.cpp:156] Memory required for data: 558760992
I0403 16:12:33.142249 20827 layer_factory.hpp:77] Creating layer inception_3a/relu_pool_proj
I0403 16:12:33.142269 20827 net.cpp:91] Creating Layer inception_3a/relu_pool_proj
I0403 16:12:33.142287 20827 net.cpp:425] inception_3a/relu_pool_proj <- inception_3a/pool_proj
I0403 16:12:33.142304 20827 net.cpp:386] inception_3a/relu_pool_proj -> inception_3a/pool_proj (in-place)
I0403 16:12:33.142575 20827 net.cpp:141] Setting up inception_3a/relu_pool_proj
I0403 16:12:33.142601 20827 net.cpp:148] Top shape: 24 32 28 28 (602112)
I0403 16:12:33.142616 20827 net.cpp:156] Memory required for data: 561169440
I0403 16:12:33.142630 20827 layer_factory.hpp:77] Creating layer inception_3a/output
I0403 16:12:33.142647 20827 net.cpp:91] Creating Layer inception_3a/output
I0403 16:12:33.142663 20827 net.cpp:425] inception_3a/output <- inception_3a/1x1
I0403 16:12:33.142679 20827 net.cpp:425] inception_3a/output <- inception_3a/3x3
I0403 16:12:33.142694 20827 net.cpp:425] inception_3a/output <- inception_3a/5x5
I0403 16:12:33.142710 20827 net.cpp:425] inception_3a/output <- inception_3a/pool_proj
I0403 16:12:33.142729 20827 net.cpp:399] inception_3a/output -> inception_3a/output
I0403 16:12:33.142773 20827 net.cpp:141] Setting up inception_3a/output
I0403 16:12:33.142799 20827 net.cpp:148] Top shape: 24 256 28 28 (4816896)
I0403 16:12:33.142814 20827 net.cpp:156] Memory required for data: 580437024
I0403 16:12:33.142829 20827 layer_factory.hpp:77] Creating layer inception_3a/output_inception_3a/output_0_split
I0403 16:12:33.142846 20827 net.cpp:91] Creating Layer inception_3a/output_inception_3a/output_0_split
I0403 16:12:33.142860 20827 net.cpp:425] inception_3a/output_inception_3a/output_0_split <- inception_3a/output
I0403 16:12:33.142877 20827 net.cpp:399] inception_3a/output_inception_3a/output_0_split -> inception_3a/output_inception_3a/output_0_split_0
I0403 16:12:33.142899 20827 net.cpp:399] inception_3a/output_inception_3a/output_0_split -> inception_3a/output_inception_3a/output_0_split_1
I0403 16:12:33.142921 20827 net.cpp:399] inception_3a/output_inception_3a/output_0_split -> inception_3a/output_inception_3a/output_0_split_2
I0403 16:12:33.142942 20827 net.cpp:399] inception_3a/output_inception_3a/output_0_split -> inception_3a/output_inception_3a/output_0_split_3
I0403 16:12:33.143023 20827 net.cpp:141] Setting up inception_3a/output_inception_3a/output_0_split
I0403 16:12:33.143049 20827 net.cpp:148] Top shape: 24 256 28 28 (4816896)
I0403 16:12:33.143065 20827 net.cpp:148] Top shape: 24 256 28 28 (4816896)
I0403 16:12:33.143081 20827 net.cpp:148] Top shape: 24 256 28 28 (4816896)
I0403 16:12:33.143096 20827 net.cpp:148] Top shape: 24 256 28 28 (4816896)
I0403 16:12:33.143110 20827 net.cpp:156] Memory required for data: 657507360
I0403 16:12:33.143123 20827 layer_factory.hpp:77] Creating layer inception_3b/1x1
I0403 16:12:33.143146 20827 net.cpp:91] Creating Layer inception_3b/1x1
I0403 16:12:33.143162 20827 net.cpp:425] inception_3b/1x1 <- inception_3a/output_inception_3a/output_0_split_0
I0403 16:12:33.143180 20827 net.cpp:399] inception_3b/1x1 -> inception_3b/1x1
I0403 16:12:33.144301 20827 net.cpp:141] Setting up inception_3b/1x1
I0403 16:12:33.144342 20827 net.cpp:148] Top shape: 24 128 28 28 (2408448)
I0403 16:12:33.144359 20827 net.cpp:156] Memory required for data: 667141152
I0403 16:12:33.144377 20827 layer_factory.hpp:77] Creating layer inception_3b/relu_1x1
I0403 16:12:33.144395 20827 net.cpp:91] Creating Layer inception_3b/relu_1x1
I0403 16:12:33.144410 20827 net.cpp:425] inception_3b/relu_1x1 <- inception_3b/1x1
I0403 16:12:33.144429 20827 net.cpp:386] inception_3b/relu_1x1 -> inception_3b/1x1 (in-place)
I0403 16:12:33.144604 20827 net.cpp:141] Setting up inception_3b/relu_1x1
I0403 16:12:33.144629 20827 net.cpp:148] Top shape: 24 128 28 28 (2408448)
I0403 16:12:33.144642 20827 net.cpp:156] Memory required for data: 676774944
I0403 16:12:33.144656 20827 layer_factory.hpp:77] Creating layer inception_3b/3x3_reduce
I0403 16:12:33.144678 20827 net.cpp:91] Creating Layer inception_3b/3x3_reduce
I0403 16:12:33.144695 20827 net.cpp:425] inception_3b/3x3_reduce <- inception_3a/output_inception_3a/output_0_split_1
I0403 16:12:33.144717 20827 net.cpp:399] inception_3b/3x3_reduce -> inception_3b/3x3_reduce
I0403 16:12:33.145833 20827 net.cpp:141] Setting up inception_3b/3x3_reduce
I0403 16:12:33.145864 20827 net.cpp:148] Top shape: 24 128 28 28 (2408448)
I0403 16:12:33.145879 20827 net.cpp:156] Memory required for data: 686408736
I0403 16:12:33.145897 20827 layer_factory.hpp:77] Creating layer inception_3b/relu_3x3_reduce
I0403 16:12:33.145915 20827 net.cpp:91] Creating Layer inception_3b/relu_3x3_reduce
I0403 16:12:33.145931 20827 net.cpp:425] inception_3b/relu_3x3_reduce <- inception_3b/3x3_reduce
I0403 16:12:33.145948 20827 net.cpp:386] inception_3b/relu_3x3_reduce -> inception_3b/3x3_reduce (in-place)
I0403 16:12:33.146124 20827 net.cpp:141] Setting up inception_3b/relu_3x3_reduce
I0403 16:12:33.146149 20827 net.cpp:148] Top shape: 24 128 28 28 (2408448)
I0403 16:12:33.146163 20827 net.cpp:156] Memory required for data: 696042528
I0403 16:12:33.146178 20827 layer_factory.hpp:77] Creating layer inception_3b/3x3
I0403 16:12:33.146203 20827 net.cpp:91] Creating Layer inception_3b/3x3
I0403 16:12:33.146220 20827 net.cpp:425] inception_3b/3x3 <- inception_3b/3x3_reduce
I0403 16:12:33.146241 20827 net.cpp:399] inception_3b/3x3 -> inception_3b/3x3
I0403 16:12:33.149263 20827 net.cpp:141] Setting up inception_3b/3x3
I0403 16:12:33.149293 20827 net.cpp:148] Top shape: 24 192 28 28 (3612672)
I0403 16:12:33.149308 20827 net.cpp:156] Memory required for data: 710493216
I0403 16:12:33.149327 20827 layer_factory.hpp:77] Creating layer inception_3b/relu_3x3
I0403 16:12:33.149345 20827 net.cpp:91] Creating Layer inception_3b/relu_3x3
I0403 16:12:33.149361 20827 net.cpp:425] inception_3b/relu_3x3 <- inception_3b/3x3
I0403 16:12:33.149380 20827 net.cpp:386] inception_3b/relu_3x3 -> inception_3b/3x3 (in-place)
I0403 16:12:33.149664 20827 net.cpp:141] Setting up inception_3b/relu_3x3
I0403 16:12:33.149691 20827 net.cpp:148] Top shape: 24 192 28 28 (3612672)
I0403 16:12:33.149708 20827 net.cpp:156] Memory required for data: 724943904
I0403 16:12:33.149724 20827 layer_factory.hpp:77] Creating layer inception_3b/5x5_reduce
I0403 16:12:33.149745 20827 net.cpp:91] Creating Layer inception_3b/5x5_reduce
I0403 16:12:33.149763 20827 net.cpp:425] inception_3b/5x5_reduce <- inception_3a/output_inception_3a/output_0_split_2
I0403 16:12:33.149787 20827 net.cpp:399] inception_3b/5x5_reduce -> inception_3b/5x5_reduce
I0403 16:12:33.150801 20827 net.cpp:141] Setting up inception_3b/5x5_reduce
I0403 16:12:33.150830 20827 net.cpp:148] Top shape: 24 32 28 28 (602112)
I0403 16:12:33.150845 20827 net.cpp:156] Memory required for data: 727352352
I0403 16:12:33.150863 20827 layer_factory.hpp:77] Creating layer inception_3b/relu_5x5_reduce
I0403 16:12:33.150882 20827 net.cpp:91] Creating Layer inception_3b/relu_5x5_reduce
I0403 16:12:33.150897 20827 net.cpp:425] inception_3b/relu_5x5_reduce <- inception_3b/5x5_reduce
I0403 16:12:33.150918 20827 net.cpp:386] inception_3b/relu_5x5_reduce -> inception_3b/5x5_reduce (in-place)
I0403 16:12:33.151108 20827 net.cpp:141] Setting up inception_3b/relu_5x5_reduce
I0403 16:12:33.151145 20827 net.cpp:148] Top shape: 24 32 28 28 (602112)
I0403 16:12:33.151161 20827 net.cpp:156] Memory required for data: 729760800
I0403 16:12:33.151175 20827 layer_factory.hpp:77] Creating layer inception_3b/5x5
I0403 16:12:33.151198 20827 net.cpp:91] Creating Layer inception_3b/5x5
I0403 16:12:33.151216 20827 net.cpp:425] inception_3b/5x5 <- inception_3b/5x5_reduce
I0403 16:12:33.151237 20827 net.cpp:399] inception_3b/5x5 -> inception_3b/5x5
I0403 16:12:33.153337 20827 net.cpp:141] Setting up inception_3b/5x5
I0403 16:12:33.153368 20827 net.cpp:148] Top shape: 24 96 28 28 (1806336)
I0403 16:12:33.153384 20827 net.cpp:156] Memory required for data: 736986144
I0403 16:12:33.153403 20827 layer_factory.hpp:77] Creating layer inception_3b/relu_5x5
I0403 16:12:33.153422 20827 net.cpp:91] Creating Layer inception_3b/relu_5x5
I0403 16:12:33.153439 20827 net.cpp:425] inception_3b/relu_5x5 <- inception_3b/5x5
I0403 16:12:33.153455 20827 net.cpp:386] inception_3b/relu_5x5 -> inception_3b/5x5 (in-place)
I0403 16:12:33.153651 20827 net.cpp:141] Setting up inception_3b/relu_5x5
I0403 16:12:33.153677 20827 net.cpp:148] Top shape: 24 96 28 28 (1806336)
I0403 16:12:33.153692 20827 net.cpp:156] Memory required for data: 744211488
I0403 16:12:33.153707 20827 layer_factory.hpp:77] Creating layer inception_3b/pool
I0403 16:12:33.153725 20827 net.cpp:91] Creating Layer inception_3b/pool
I0403 16:12:33.153741 20827 net.cpp:425] inception_3b/pool <- inception_3a/output_inception_3a/output_0_split_3
I0403 16:12:33.153759 20827 net.cpp:399] inception_3b/pool -> inception_3b/pool
I0403 16:12:33.153815 20827 net.cpp:141] Setting up inception_3b/pool
I0403 16:12:33.153841 20827 net.cpp:148] Top shape: 24 256 28 28 (4816896)
I0403 16:12:33.153857 20827 net.cpp:156] Memory required for data: 763479072
I0403 16:12:33.153872 20827 layer_factory.hpp:77] Creating layer inception_3b/pool_proj
I0403 16:12:33.153898 20827 net.cpp:91] Creating Layer inception_3b/pool_proj
I0403 16:12:33.153914 20827 net.cpp:425] inception_3b/pool_proj <- inception_3b/pool
I0403 16:12:33.153934 20827 net.cpp:399] inception_3b/pool_proj -> inception_3b/pool_proj
I0403 16:12:33.155025 20827 net.cpp:141] Setting up inception_3b/pool_proj
I0403 16:12:33.155053 20827 net.cpp:148] Top shape: 24 64 28 28 (1204224)
I0403 16:12:33.155068 20827 net.cpp:156] Memory required for data: 768295968
I0403 16:12:33.155087 20827 layer_factory.hpp:77] Creating layer inception_3b/relu_pool_proj
I0403 16:12:33.155108 20827 net.cpp:91] Creating Layer inception_3b/relu_pool_proj
I0403 16:12:33.155125 20827 net.cpp:425] inception_3b/relu_pool_proj <- inception_3b/pool_proj
I0403 16:12:33.155143 20827 net.cpp:386] inception_3b/relu_pool_proj -> inception_3b/pool_proj (in-place)
I0403 16:12:33.155589 20827 net.cpp:141] Setting up inception_3b/relu_pool_proj
I0403 16:12:33.155616 20827 net.cpp:148] Top shape: 24 64 28 28 (1204224)
I0403 16:12:33.155632 20827 net.cpp:156] Memory required for data: 773112864
I0403 16:12:33.155647 20827 layer_factory.hpp:77] Creating layer inception_3b/output
I0403 16:12:33.155663 20827 net.cpp:91] Creating Layer inception_3b/output
I0403 16:12:33.155679 20827 net.cpp:425] inception_3b/output <- inception_3b/1x1
I0403 16:12:33.155696 20827 net.cpp:425] inception_3b/output <- inception_3b/3x3
I0403 16:12:33.155714 20827 net.cpp:425] inception_3b/output <- inception_3b/5x5
I0403 16:12:33.155730 20827 net.cpp:425] inception_3b/output <- inception_3b/pool_proj
I0403 16:12:33.155750 20827 net.cpp:399] inception_3b/output -> inception_3b/output
I0403 16:12:33.155796 20827 net.cpp:141] Setting up inception_3b/output
I0403 16:12:33.155819 20827 net.cpp:148] Top shape: 24 480 28 28 (9031680)
I0403 16:12:33.155834 20827 net.cpp:156] Memory required for data: 809239584
I0403 16:12:33.155848 20827 layer_factory.hpp:77] Creating layer pool3/3x3_s2
I0403 16:12:33.155866 20827 net.cpp:91] Creating Layer pool3/3x3_s2
I0403 16:12:33.155882 20827 net.cpp:425] pool3/3x3_s2 <- inception_3b/output
I0403 16:12:33.155902 20827 net.cpp:399] pool3/3x3_s2 -> pool3/3x3_s2
I0403 16:12:33.155980 20827 net.cpp:141] Setting up pool3/3x3_s2
I0403 16:12:33.156004 20827 net.cpp:148] Top shape: 24 480 14 14 (2257920)
I0403 16:12:33.156018 20827 net.cpp:156] Memory required for data: 818271264
I0403 16:12:33.156033 20827 layer_factory.hpp:77] Creating layer pool3/3x3_s2_pool3/3x3_s2_0_split
I0403 16:12:33.156054 20827 net.cpp:91] Creating Layer pool3/3x3_s2_pool3/3x3_s2_0_split
I0403 16:12:33.156069 20827 net.cpp:425] pool3/3x3_s2_pool3/3x3_s2_0_split <- pool3/3x3_s2
I0403 16:12:33.156087 20827 net.cpp:399] pool3/3x3_s2_pool3/3x3_s2_0_split -> pool3/3x3_s2_pool3/3x3_s2_0_split_0
I0403 16:12:33.156108 20827 net.cpp:399] pool3/3x3_s2_pool3/3x3_s2_0_split -> pool3/3x3_s2_pool3/3x3_s2_0_split_1
I0403 16:12:33.156128 20827 net.cpp:399] pool3/3x3_s2_pool3/3x3_s2_0_split -> pool3/3x3_s2_pool3/3x3_s2_0_split_2
I0403 16:12:33.156147 20827 net.cpp:399] pool3/3x3_s2_pool3/3x3_s2_0_split -> pool3/3x3_s2_pool3/3x3_s2_0_split_3
I0403 16:12:33.156224 20827 net.cpp:141] Setting up pool3/3x3_s2_pool3/3x3_s2_0_split
I0403 16:12:33.156250 20827 net.cpp:148] Top shape: 24 480 14 14 (2257920)
I0403 16:12:33.156265 20827 net.cpp:148] Top shape: 24 480 14 14 (2257920)
I0403 16:12:33.156281 20827 net.cpp:148] Top shape: 24 480 14 14 (2257920)
I0403 16:12:33.156296 20827 net.cpp:148] Top shape: 24 480 14 14 (2257920)
I0403 16:12:33.156309 20827 net.cpp:156] Memory required for data: 854397984
I0403 16:12:33.156324 20827 layer_factory.hpp:77] Creating layer inception_4a/1x1
I0403 16:12:33.156347 20827 net.cpp:91] Creating Layer inception_4a/1x1
I0403 16:12:33.156363 20827 net.cpp:425] inception_4a/1x1 <- pool3/3x3_s2_pool3/3x3_s2_0_split_0
I0403 16:12:33.156385 20827 net.cpp:399] inception_4a/1x1 -> inception_4a/1x1
I0403 16:12:33.157990 20827 net.cpp:141] Setting up inception_4a/1x1
I0403 16:12:33.158018 20827 net.cpp:148] Top shape: 24 192 14 14 (903168)
I0403 16:12:33.158035 20827 net.cpp:156] Memory required for data: 858010656
I0403 16:12:33.158052 20827 layer_factory.hpp:77] Creating layer inception_4a/relu_1x1
I0403 16:12:33.158073 20827 net.cpp:91] Creating Layer inception_4a/relu_1x1
I0403 16:12:33.158090 20827 net.cpp:425] inception_4a/relu_1x1 <- inception_4a/1x1
I0403 16:12:33.158108 20827 net.cpp:386] inception_4a/relu_1x1 -> inception_4a/1x1 (in-place)
I0403 16:12:33.158289 20827 net.cpp:141] Setting up inception_4a/relu_1x1
I0403 16:12:33.158318 20827 net.cpp:148] Top shape: 24 192 14 14 (903168)
I0403 16:12:33.158332 20827 net.cpp:156] Memory required for data: 861623328
I0403 16:12:33.158347 20827 layer_factory.hpp:77] Creating layer inception_4a/3x3_reduce
I0403 16:12:33.158370 20827 net.cpp:91] Creating Layer inception_4a/3x3_reduce
I0403 16:12:33.158387 20827 net.cpp:425] inception_4a/3x3_reduce <- pool3/3x3_s2_pool3/3x3_s2_0_split_1
I0403 16:12:33.158407 20827 net.cpp:399] inception_4a/3x3_reduce -> inception_4a/3x3_reduce
I0403 16:12:33.159716 20827 net.cpp:141] Setting up inception_4a/3x3_reduce
I0403 16:12:33.159744 20827 net.cpp:148] Top shape: 24 96 14 14 (451584)
I0403 16:12:33.159760 20827 net.cpp:156] Memory required for data: 863429664
I0403 16:12:33.159786 20827 layer_factory.hpp:77] Creating layer inception_4a/relu_3x3_reduce
I0403 16:12:33.159808 20827 net.cpp:91] Creating Layer inception_4a/relu_3x3_reduce
I0403 16:12:33.159826 20827 net.cpp:425] inception_4a/relu_3x3_reduce <- inception_4a/3x3_reduce
I0403 16:12:33.159843 20827 net.cpp:386] inception_4a/relu_3x3_reduce -> inception_4a/3x3_reduce (in-place)
I0403 16:12:33.160024 20827 net.cpp:141] Setting up inception_4a/relu_3x3_reduce
I0403 16:12:33.160053 20827 net.cpp:148] Top shape: 24 96 14 14 (451584)
I0403 16:12:33.160068 20827 net.cpp:156] Memory required for data: 865236000
I0403 16:12:33.160082 20827 layer_factory.hpp:77] Creating layer inception_4a/3x3
I0403 16:12:33.160105 20827 net.cpp:91] Creating Layer inception_4a/3x3
I0403 16:12:33.160122 20827 net.cpp:425] inception_4a/3x3 <- inception_4a/3x3_reduce
I0403 16:12:33.160142 20827 net.cpp:399] inception_4a/3x3 -> inception_4a/3x3
I0403 16:12:33.162886 20827 net.cpp:141] Setting up inception_4a/3x3
I0403 16:12:33.162920 20827 net.cpp:148] Top shape: 24 208 14 14 (978432)
I0403 16:12:33.162936 20827 net.cpp:156] Memory required for data: 869149728
I0403 16:12:33.162961 20827 layer_factory.hpp:77] Creating layer inception_4a/relu_3x3
I0403 16:12:33.162981 20827 net.cpp:91] Creating Layer inception_4a/relu_3x3
I0403 16:12:33.162997 20827 net.cpp:425] inception_4a/relu_3x3 <- inception_4a/3x3
I0403 16:12:33.163017 20827 net.cpp:386] inception_4a/relu_3x3 -> inception_4a/3x3 (in-place)
I0403 16:12:33.163303 20827 net.cpp:141] Setting up inception_4a/relu_3x3
I0403 16:12:33.163331 20827 net.cpp:148] Top shape: 24 208 14 14 (978432)
I0403 16:12:33.163347 20827 net.cpp:156] Memory required for data: 873063456
I0403 16:12:33.163362 20827 layer_factory.hpp:77] Creating layer inception_4a/5x5_reduce
I0403 16:12:33.163385 20827 net.cpp:91] Creating Layer inception_4a/5x5_reduce
I0403 16:12:33.163403 20827 net.cpp:425] inception_4a/5x5_reduce <- pool3/3x3_s2_pool3/3x3_s2_0_split_2
I0403 16:12:33.163422 20827 net.cpp:399] inception_4a/5x5_reduce -> inception_4a/5x5_reduce
I0403 16:12:33.164477 20827 net.cpp:141] Setting up inception_4a/5x5_reduce
I0403 16:12:33.164505 20827 net.cpp:148] Top shape: 24 16 14 14 (75264)
I0403 16:12:33.164520 20827 net.cpp:156] Memory required for data: 873364512
I0403 16:12:33.164538 20827 layer_factory.hpp:77] Creating layer inception_4a/relu_5x5_reduce
I0403 16:12:33.164556 20827 net.cpp:91] Creating Layer inception_4a/relu_5x5_reduce
I0403 16:12:33.164572 20827 net.cpp:425] inception_4a/relu_5x5_reduce <- inception_4a/5x5_reduce
I0403 16:12:33.164592 20827 net.cpp:386] inception_4a/relu_5x5_reduce -> inception_4a/5x5_reduce (in-place)
I0403 16:12:33.164774 20827 net.cpp:141] Setting up inception_4a/relu_5x5_reduce
I0403 16:12:33.164800 20827 net.cpp:148] Top shape: 24 16 14 14 (75264)
I0403 16:12:33.164814 20827 net.cpp:156] Memory required for data: 873665568
I0403 16:12:33.164829 20827 layer_factory.hpp:77] Creating layer inception_4a/5x5
I0403 16:12:33.164852 20827 net.cpp:91] Creating Layer inception_4a/5x5
I0403 16:12:33.164870 20827 net.cpp:425] inception_4a/5x5 <- inception_4a/5x5_reduce
I0403 16:12:33.164891 20827 net.cpp:399] inception_4a/5x5 -> inception_4a/5x5
I0403 16:12:33.166038 20827 net.cpp:141] Setting up inception_4a/5x5
I0403 16:12:33.166066 20827 net.cpp:148] Top shape: 24 48 14 14 (225792)
I0403 16:12:33.166081 20827 net.cpp:156] Memory required for data: 874568736
I0403 16:12:33.166100 20827 layer_factory.hpp:77] Creating layer inception_4a/relu_5x5
I0403 16:12:33.166121 20827 net.cpp:91] Creating Layer inception_4a/relu_5x5
I0403 16:12:33.166136 20827 net.cpp:425] inception_4a/relu_5x5 <- inception_4a/5x5
I0403 16:12:33.166154 20827 net.cpp:386] inception_4a/relu_5x5 -> inception_4a/5x5 (in-place)
I0403 16:12:33.166332 20827 net.cpp:141] Setting up inception_4a/relu_5x5
I0403 16:12:33.166358 20827 net.cpp:148] Top shape: 24 48 14 14 (225792)
I0403 16:12:33.166374 20827 net.cpp:156] Memory required for data: 875471904
I0403 16:12:33.166388 20827 layer_factory.hpp:77] Creating layer inception_4a/pool
I0403 16:12:33.166405 20827 net.cpp:91] Creating Layer inception_4a/pool
I0403 16:12:33.166421 20827 net.cpp:425] inception_4a/pool <- pool3/3x3_s2_pool3/3x3_s2_0_split_3
I0403 16:12:33.166440 20827 net.cpp:399] inception_4a/pool -> inception_4a/pool
I0403 16:12:33.166501 20827 net.cpp:141] Setting up inception_4a/pool
I0403 16:12:33.166524 20827 net.cpp:148] Top shape: 24 480 14 14 (2257920)
I0403 16:12:33.166538 20827 net.cpp:156] Memory required for data: 884503584
I0403 16:12:33.166553 20827 layer_factory.hpp:77] Creating layer inception_4a/pool_proj
I0403 16:12:33.166574 20827 net.cpp:91] Creating Layer inception_4a/pool_proj
I0403 16:12:33.166591 20827 net.cpp:425] inception_4a/pool_proj <- inception_4a/pool
I0403 16:12:33.166612 20827 net.cpp:399] inception_4a/pool_proj -> inception_4a/pool_proj
I0403 16:12:33.167780 20827 net.cpp:141] Setting up inception_4a/pool_proj
I0403 16:12:33.167807 20827 net.cpp:148] Top shape: 24 64 14 14 (301056)
I0403 16:12:33.167839 20827 net.cpp:156] Memory required for data: 885707808
I0403 16:12:33.167857 20827 layer_factory.hpp:77] Creating layer inception_4a/relu_pool_proj
I0403 16:12:33.167879 20827 net.cpp:91] Creating Layer inception_4a/relu_pool_proj
I0403 16:12:33.167896 20827 net.cpp:425] inception_4a/relu_pool_proj <- inception_4a/pool_proj
I0403 16:12:33.167913 20827 net.cpp:386] inception_4a/relu_pool_proj -> inception_4a/pool_proj (in-place)
I0403 16:12:33.168212 20827 net.cpp:141] Setting up inception_4a/relu_pool_proj
I0403 16:12:33.168239 20827 net.cpp:148] Top shape: 24 64 14 14 (301056)
I0403 16:12:33.168254 20827 net.cpp:156] Memory required for data: 886912032
I0403 16:12:33.168268 20827 layer_factory.hpp:77] Creating layer inception_4a/output
I0403 16:12:33.168288 20827 net.cpp:91] Creating Layer inception_4a/output
I0403 16:12:33.168305 20827 net.cpp:425] inception_4a/output <- inception_4a/1x1
I0403 16:12:33.168321 20827 net.cpp:425] inception_4a/output <- inception_4a/3x3
I0403 16:12:33.168337 20827 net.cpp:425] inception_4a/output <- inception_4a/5x5
I0403 16:12:33.168354 20827 net.cpp:425] inception_4a/output <- inception_4a/pool_proj
I0403 16:12:33.168370 20827 net.cpp:399] inception_4a/output -> inception_4a/output
I0403 16:12:33.168416 20827 net.cpp:141] Setting up inception_4a/output
I0403 16:12:33.168439 20827 net.cpp:148] Top shape: 24 512 14 14 (2408448)
I0403 16:12:33.168453 20827 net.cpp:156] Memory required for data: 896545824
I0403 16:12:33.168468 20827 layer_factory.hpp:77] Creating layer inception_4a/output_inception_4a/output_0_split
I0403 16:12:33.168485 20827 net.cpp:91] Creating Layer inception_4a/output_inception_4a/output_0_split
I0403 16:12:33.168501 20827 net.cpp:425] inception_4a/output_inception_4a/output_0_split <- inception_4a/output
I0403 16:12:33.168520 20827 net.cpp:399] inception_4a/output_inception_4a/output_0_split -> inception_4a/output_inception_4a/output_0_split_0
I0403 16:12:33.168542 20827 net.cpp:399] inception_4a/output_inception_4a/output_0_split -> inception_4a/output_inception_4a/output_0_split_1
I0403 16:12:33.168562 20827 net.cpp:399] inception_4a/output_inception_4a/output_0_split -> inception_4a/output_inception_4a/output_0_split_2
I0403 16:12:33.168582 20827 net.cpp:399] inception_4a/output_inception_4a/output_0_split -> inception_4a/output_inception_4a/output_0_split_3
I0403 16:12:33.168602 20827 net.cpp:399] inception_4a/output_inception_4a/output_0_split -> inception_4a/output_inception_4a/output_0_split_4
I0403 16:12:33.168699 20827 net.cpp:141] Setting up inception_4a/output_inception_4a/output_0_split
I0403 16:12:33.168720 20827 net.cpp:148] Top shape: 24 512 14 14 (2408448)
I0403 16:12:33.168736 20827 net.cpp:148] Top shape: 24 512 14 14 (2408448)
I0403 16:12:33.168752 20827 net.cpp:148] Top shape: 24 512 14 14 (2408448)
I0403 16:12:33.168767 20827 net.cpp:148] Top shape: 24 512 14 14 (2408448)
I0403 16:12:33.168782 20827 net.cpp:148] Top shape: 24 512 14 14 (2408448)
I0403 16:12:33.168797 20827 net.cpp:156] Memory required for data: 944714784
I0403 16:12:33.168810 20827 layer_factory.hpp:77] Creating layer loss1/ave_pool
I0403 16:12:33.168828 20827 net.cpp:91] Creating Layer loss1/ave_pool
I0403 16:12:33.168843 20827 net.cpp:425] loss1/ave_pool <- inception_4a/output_inception_4a/output_0_split_0
I0403 16:12:33.168864 20827 net.cpp:399] loss1/ave_pool -> loss1/ave_pool
I0403 16:12:33.169081 20827 net.cpp:141] Setting up loss1/ave_pool
I0403 16:12:33.169107 20827 net.cpp:148] Top shape: 24 512 4 4 (196608)
I0403 16:12:33.169122 20827 net.cpp:156] Memory required for data: 945501216
I0403 16:12:33.169137 20827 layer_factory.hpp:77] Creating layer loss1/conv
I0403 16:12:33.169159 20827 net.cpp:91] Creating Layer loss1/conv
I0403 16:12:33.169178 20827 net.cpp:425] loss1/conv <- loss1/ave_pool
I0403 16:12:33.169196 20827 net.cpp:399] loss1/conv -> loss1/conv
I0403 16:12:33.170611 20827 net.cpp:141] Setting up loss1/conv
I0403 16:12:33.170641 20827 net.cpp:148] Top shape: 24 128 4 4 (49152)
I0403 16:12:33.170655 20827 net.cpp:156] Memory required for data: 945697824
I0403 16:12:33.170688 20827 layer_factory.hpp:77] Creating layer loss1/relu_conv
I0403 16:12:33.170706 20827 net.cpp:91] Creating Layer loss1/relu_conv
I0403 16:12:33.170722 20827 net.cpp:425] loss1/relu_conv <- loss1/conv
I0403 16:12:33.170742 20827 net.cpp:386] loss1/relu_conv -> loss1/conv (in-place)
I0403 16:12:33.171044 20827 net.cpp:141] Setting up loss1/relu_conv
I0403 16:12:33.171073 20827 net.cpp:148] Top shape: 24 128 4 4 (49152)
I0403 16:12:33.171088 20827 net.cpp:156] Memory required for data: 945894432
I0403 16:12:33.171103 20827 layer_factory.hpp:77] Creating layer loss1/fc
I0403 16:12:33.171128 20827 net.cpp:91] Creating Layer loss1/fc
I0403 16:12:33.171144 20827 net.cpp:425] loss1/fc <- loss1/conv
I0403 16:12:33.171166 20827 net.cpp:399] loss1/fc -> loss1/fc
I0403 16:12:33.189005 20827 net.cpp:141] Setting up loss1/fc
I0403 16:12:33.189054 20827 net.cpp:148] Top shape: 24 1024 (24576)
I0403 16:12:33.189069 20827 net.cpp:156] Memory required for data: 945992736
I0403 16:12:33.189088 20827 layer_factory.hpp:77] Creating layer loss1/relu_fc
I0403 16:12:33.189106 20827 net.cpp:91] Creating Layer loss1/relu_fc
I0403 16:12:33.189122 20827 net.cpp:425] loss1/relu_fc <- loss1/fc
I0403 16:12:33.189139 20827 net.cpp:386] loss1/relu_fc -> loss1/fc (in-place)
I0403 16:12:33.189335 20827 net.cpp:141] Setting up loss1/relu_fc
I0403 16:12:33.189362 20827 net.cpp:148] Top shape: 24 1024 (24576)
I0403 16:12:33.189376 20827 net.cpp:156] Memory required for data: 946091040
I0403 16:12:33.189391 20827 layer_factory.hpp:77] Creating layer loss1/drop_fc
I0403 16:12:33.189419 20827 net.cpp:91] Creating Layer loss1/drop_fc
I0403 16:12:33.189435 20827 net.cpp:425] loss1/drop_fc <- loss1/fc
I0403 16:12:33.189452 20827 net.cpp:386] loss1/drop_fc -> loss1/fc (in-place)
I0403 16:12:33.189504 20827 net.cpp:141] Setting up loss1/drop_fc
I0403 16:12:33.189527 20827 net.cpp:148] Top shape: 24 1024 (24576)
I0403 16:12:33.189541 20827 net.cpp:156] Memory required for data: 946189344
I0403 16:12:33.189556 20827 layer_factory.hpp:77] Creating layer loss1/classifier_plantvillage
I0403 16:12:33.189577 20827 net.cpp:91] Creating Layer loss1/classifier_plantvillage
I0403 16:12:33.189594 20827 net.cpp:425] loss1/classifier_plantvillage <- loss1/fc
I0403 16:12:33.189611 20827 net.cpp:399] loss1/classifier_plantvillage -> loss1/classifier_plantvillage
I0403 16:12:33.190518 20827 net.cpp:141] Setting up loss1/classifier_plantvillage
I0403 16:12:33.190548 20827 net.cpp:148] Top shape: 24 38 (912)
I0403 16:12:33.190564 20827 net.cpp:156] Memory required for data: 946192992
I0403 16:12:33.190583 20827 layer_factory.hpp:77] Creating layer loss1/classifier_plantvillage_loss1/classifier_plantvillage_0_split
I0403 16:12:33.190601 20827 net.cpp:91] Creating Layer loss1/classifier_plantvillage_loss1/classifier_plantvillage_0_split
I0403 16:12:33.190616 20827 net.cpp:425] loss1/classifier_plantvillage_loss1/classifier_plantvillage_0_split <- loss1/classifier_plantvillage
I0403 16:12:33.190634 20827 net.cpp:399] loss1/classifier_plantvillage_loss1/classifier_plantvillage_0_split -> loss1/classifier_plantvillage_loss1/classifier_plantvillage_0_split_0
I0403 16:12:33.190654 20827 net.cpp:399] loss1/classifier_plantvillage_loss1/classifier_plantvillage_0_split -> loss1/classifier_plantvillage_loss1/classifier_plantvillage_0_split_1
I0403 16:12:33.190676 20827 net.cpp:399] loss1/classifier_plantvillage_loss1/classifier_plantvillage_0_split -> loss1/classifier_plantvillage_loss1/classifier_plantvillage_0_split_2
I0403 16:12:33.190743 20827 net.cpp:141] Setting up loss1/classifier_plantvillage_loss1/classifier_plantvillage_0_split
I0403 16:12:33.190767 20827 net.cpp:148] Top shape: 24 38 (912)
I0403 16:12:33.190783 20827 net.cpp:148] Top shape: 24 38 (912)
I0403 16:12:33.190798 20827 net.cpp:148] Top shape: 24 38 (912)
I0403 16:12:33.190811 20827 net.cpp:156] Memory required for data: 946203936
I0403 16:12:33.190825 20827 layer_factory.hpp:77] Creating layer inception_4b/1x1
I0403 16:12:33.190846 20827 net.cpp:91] Creating Layer inception_4b/1x1
I0403 16:12:33.190882 20827 net.cpp:425] inception_4b/1x1 <- inception_4a/output_inception_4a/output_0_split_1
I0403 16:12:33.190906 20827 net.cpp:399] inception_4b/1x1 -> inception_4b/1x1
I0403 16:12:33.192613 20827 net.cpp:141] Setting up inception_4b/1x1
I0403 16:12:33.192641 20827 net.cpp:148] Top shape: 24 160 14 14 (752640)
I0403 16:12:33.192656 20827 net.cpp:156] Memory required for data: 949214496
I0403 16:12:33.192674 20827 layer_factory.hpp:77] Creating layer inception_4b/relu_1x1
I0403 16:12:33.192692 20827 net.cpp:91] Creating Layer inception_4b/relu_1x1
I0403 16:12:33.192706 20827 net.cpp:425] inception_4b/relu_1x1 <- inception_4b/1x1
I0403 16:12:33.192724 20827 net.cpp:386] inception_4b/relu_1x1 -> inception_4b/1x1 (in-place)
I0403 16:12:33.192903 20827 net.cpp:141] Setting up inception_4b/relu_1x1
I0403 16:12:33.192927 20827 net.cpp:148] Top shape: 24 160 14 14 (752640)
I0403 16:12:33.192942 20827 net.cpp:156] Memory required for data: 952225056
I0403 16:12:33.192962 20827 layer_factory.hpp:77] Creating layer inception_4b/3x3_reduce
I0403 16:12:33.192986 20827 net.cpp:91] Creating Layer inception_4b/3x3_reduce
I0403 16:12:33.193003 20827 net.cpp:425] inception_4b/3x3_reduce <- inception_4a/output_inception_4a/output_0_split_2
I0403 16:12:33.193024 20827 net.cpp:399] inception_4b/3x3_reduce -> inception_4b/3x3_reduce
I0403 16:12:33.194344 20827 net.cpp:141] Setting up inception_4b/3x3_reduce
I0403 16:12:33.194370 20827 net.cpp:148] Top shape: 24 112 14 14 (526848)
I0403 16:12:33.194386 20827 net.cpp:156] Memory required for data: 954332448
I0403 16:12:33.194403 20827 layer_factory.hpp:77] Creating layer inception_4b/relu_3x3_reduce
I0403 16:12:33.194423 20827 net.cpp:91] Creating Layer inception_4b/relu_3x3_reduce
I0403 16:12:33.194439 20827 net.cpp:425] inception_4b/relu_3x3_reduce <- inception_4b/3x3_reduce
I0403 16:12:33.194456 20827 net.cpp:386] inception_4b/relu_3x3_reduce -> inception_4b/3x3_reduce (in-place)
I0403 16:12:33.194730 20827 net.cpp:141] Setting up inception_4b/relu_3x3_reduce
I0403 16:12:33.194754 20827 net.cpp:148] Top shape: 24 112 14 14 (526848)
I0403 16:12:33.194769 20827 net.cpp:156] Memory required for data: 956439840
I0403 16:12:33.194784 20827 layer_factory.hpp:77] Creating layer inception_4b/3x3
I0403 16:12:33.194807 20827 net.cpp:91] Creating Layer inception_4b/3x3
I0403 16:12:33.194823 20827 net.cpp:425] inception_4b/3x3 <- inception_4b/3x3_reduce
I0403 16:12:33.194846 20827 net.cpp:399] inception_4b/3x3 -> inception_4b/3x3
I0403 16:12:33.197872 20827 net.cpp:141] Setting up inception_4b/3x3
I0403 16:12:33.197901 20827 net.cpp:148] Top shape: 24 224 14 14 (1053696)
I0403 16:12:33.197922 20827 net.cpp:156] Memory required for data: 960654624
I0403 16:12:33.197940 20827 layer_factory.hpp:77] Creating layer inception_4b/relu_3x3
I0403 16:12:33.197973 20827 net.cpp:91] Creating Layer inception_4b/relu_3x3
I0403 16:12:33.197991 20827 net.cpp:425] inception_4b/relu_3x3 <- inception_4b/3x3
I0403 16:12:33.198009 20827 net.cpp:386] inception_4b/relu_3x3 -> inception_4b/3x3 (in-place)
I0403 16:12:33.198191 20827 net.cpp:141] Setting up inception_4b/relu_3x3
I0403 16:12:33.198218 20827 net.cpp:148] Top shape: 24 224 14 14 (1053696)
I0403 16:12:33.198235 20827 net.cpp:156] Memory required for data: 964869408
I0403 16:12:33.198248 20827 layer_factory.hpp:77] Creating layer inception_4b/5x5_reduce
I0403 16:12:33.198271 20827 net.cpp:91] Creating Layer inception_4b/5x5_reduce
I0403 16:12:33.198288 20827 net.cpp:425] inception_4b/5x5_reduce <- inception_4a/output_inception_4a/output_0_split_3
I0403 16:12:33.198307 20827 net.cpp:399] inception_4b/5x5_reduce -> inception_4b/5x5_reduce
I0403 16:12:33.199434 20827 net.cpp:141] Setting up inception_4b/5x5_reduce
I0403 16:12:33.199462 20827 net.cpp:148] Top shape: 24 24 14 14 (112896)
I0403 16:12:33.199476 20827 net.cpp:156] Memory required for data: 965320992
I0403 16:12:33.199494 20827 layer_factory.hpp:77] Creating layer inception_4b/relu_5x5_reduce
I0403 16:12:33.199512 20827 net.cpp:91] Creating Layer inception_4b/relu_5x5_reduce
I0403 16:12:33.199544 20827 net.cpp:425] inception_4b/relu_5x5_reduce <- inception_4b/5x5_reduce
I0403 16:12:33.199563 20827 net.cpp:386] inception_4b/relu_5x5_reduce -> inception_4b/5x5_reduce (in-place)
I0403 16:12:33.199744 20827 net.cpp:141] Setting up inception_4b/relu_5x5_reduce
I0403 16:12:33.199769 20827 net.cpp:148] Top shape: 24 24 14 14 (112896)
I0403 16:12:33.199784 20827 net.cpp:156] Memory required for data: 965772576
I0403 16:12:33.199797 20827 layer_factory.hpp:77] Creating layer inception_4b/5x5
I0403 16:12:33.199820 20827 net.cpp:91] Creating Layer inception_4b/5x5
I0403 16:12:33.199836 20827 net.cpp:425] inception_4b/5x5 <- inception_4b/5x5_reduce
I0403 16:12:33.199857 20827 net.cpp:399] inception_4b/5x5 -> inception_4b/5x5
I0403 16:12:33.201097 20827 net.cpp:141] Setting up inception_4b/5x5
I0403 16:12:33.201123 20827 net.cpp:148] Top shape: 24 64 14 14 (301056)
I0403 16:12:33.201139 20827 net.cpp:156] Memory required for data: 966976800
I0403 16:12:33.201158 20827 layer_factory.hpp:77] Creating layer inception_4b/relu_5x5
I0403 16:12:33.201174 20827 net.cpp:91] Creating Layer inception_4b/relu_5x5
I0403 16:12:33.201190 20827 net.cpp:425] inception_4b/relu_5x5 <- inception_4b/5x5
I0403 16:12:33.201210 20827 net.cpp:386] inception_4b/relu_5x5 -> inception_4b/5x5 (in-place)
I0403 16:12:33.201504 20827 net.cpp:141] Setting up inception_4b/relu_5x5
I0403 16:12:33.201530 20827 net.cpp:148] Top shape: 24 64 14 14 (301056)
I0403 16:12:33.201545 20827 net.cpp:156] Memory required for data: 968181024
I0403 16:12:33.201560 20827 layer_factory.hpp:77] Creating layer inception_4b/pool
I0403 16:12:33.201577 20827 net.cpp:91] Creating Layer inception_4b/pool
I0403 16:12:33.201593 20827 net.cpp:425] inception_4b/pool <- inception_4a/output_inception_4a/output_0_split_4
I0403 16:12:33.201616 20827 net.cpp:399] inception_4b/pool -> inception_4b/pool
I0403 16:12:33.201679 20827 net.cpp:141] Setting up inception_4b/pool
I0403 16:12:33.201702 20827 net.cpp:148] Top shape: 24 512 14 14 (2408448)
I0403 16:12:33.201716 20827 net.cpp:156] Memory required for data: 977814816
I0403 16:12:33.201731 20827 layer_factory.hpp:77] Creating layer inception_4b/pool_proj
I0403 16:12:33.201755 20827 net.cpp:91] Creating Layer inception_4b/pool_proj
I0403 16:12:33.201771 20827 net.cpp:425] inception_4b/pool_proj <- inception_4b/pool
I0403 16:12:33.201791 20827 net.cpp:399] inception_4b/pool_proj -> inception_4b/pool_proj
I0403 16:12:33.203003 20827 net.cpp:141] Setting up inception_4b/pool_proj
I0403 16:12:33.203042 20827 net.cpp:148] Top shape: 24 64 14 14 (301056)
I0403 16:12:33.203058 20827 net.cpp:156] Memory required for data: 979019040
I0403 16:12:33.203078 20827 layer_factory.hpp:77] Creating layer inception_4b/relu_pool_proj
I0403 16:12:33.203094 20827 net.cpp:91] Creating Layer inception_4b/relu_pool_proj
I0403 16:12:33.203110 20827 net.cpp:425] inception_4b/relu_pool_proj <- inception_4b/pool_proj
I0403 16:12:33.203132 20827 net.cpp:386] inception_4b/relu_pool_proj -> inception_4b/pool_proj (in-place)
I0403 16:12:33.203330 20827 net.cpp:141] Setting up inception_4b/relu_pool_proj
I0403 16:12:33.203354 20827 net.cpp:148] Top shape: 24 64 14 14 (301056)
I0403 16:12:33.203369 20827 net.cpp:156] Memory required for data: 980223264
I0403 16:12:33.203383 20827 layer_factory.hpp:77] Creating layer inception_4b/output
I0403 16:12:33.203402 20827 net.cpp:91] Creating Layer inception_4b/output
I0403 16:12:33.203418 20827 net.cpp:425] inception_4b/output <- inception_4b/1x1
I0403 16:12:33.203434 20827 net.cpp:425] inception_4b/output <- inception_4b/3x3
I0403 16:12:33.203450 20827 net.cpp:425] inception_4b/output <- inception_4b/5x5
I0403 16:12:33.203466 20827 net.cpp:425] inception_4b/output <- inception_4b/pool_proj
I0403 16:12:33.203482 20827 net.cpp:399] inception_4b/output -> inception_4b/output
I0403 16:12:33.203529 20827 net.cpp:141] Setting up inception_4b/output
I0403 16:12:33.203552 20827 net.cpp:148] Top shape: 24 512 14 14 (2408448)
I0403 16:12:33.203567 20827 net.cpp:156] Memory required for data: 989857056
I0403 16:12:33.203594 20827 layer_factory.hpp:77] Creating layer inception_4b/output_inception_4b/output_0_split
I0403 16:12:33.203613 20827 net.cpp:91] Creating Layer inception_4b/output_inception_4b/output_0_split
I0403 16:12:33.203629 20827 net.cpp:425] inception_4b/output_inception_4b/output_0_split <- inception_4b/output
I0403 16:12:33.203649 20827 net.cpp:399] inception_4b/output_inception_4b/output_0_split -> inception_4b/output_inception_4b/output_0_split_0
I0403 16:12:33.203668 20827 net.cpp:399] inception_4b/output_inception_4b/output_0_split -> inception_4b/output_inception_4b/output_0_split_1
I0403 16:12:33.203688 20827 net.cpp:399] inception_4b/output_inception_4b/output_0_split -> inception_4b/output_inception_4b/output_0_split_2
I0403 16:12:33.203708 20827 net.cpp:399] inception_4b/output_inception_4b/output_0_split -> inception_4b/output_inception_4b/output_0_split_3
I0403 16:12:33.203789 20827 net.cpp:141] Setting up inception_4b/output_inception_4b/output_0_split
I0403 16:12:33.203814 20827 net.cpp:148] Top shape: 24 512 14 14 (2408448)
I0403 16:12:33.203831 20827 net.cpp:148] Top shape: 24 512 14 14 (2408448)
I0403 16:12:33.203846 20827 net.cpp:148] Top shape: 24 512 14 14 (2408448)
I0403 16:12:33.203861 20827 net.cpp:148] Top shape: 24 512 14 14 (2408448)
I0403 16:12:33.203876 20827 net.cpp:156] Memory required for data: 1028392224
I0403 16:12:33.203889 20827 layer_factory.hpp:77] Creating layer inception_4c/1x1
I0403 16:12:33.203913 20827 net.cpp:91] Creating Layer inception_4c/1x1
I0403 16:12:33.203930 20827 net.cpp:425] inception_4c/1x1 <- inception_4b/output_inception_4b/output_0_split_0
I0403 16:12:33.203949 20827 net.cpp:399] inception_4c/1x1 -> inception_4c/1x1
I0403 16:12:33.205401 20827 net.cpp:141] Setting up inception_4c/1x1
I0403 16:12:33.205430 20827 net.cpp:148] Top shape: 24 128 14 14 (602112)
I0403 16:12:33.205445 20827 net.cpp:156] Memory required for data: 1030800672
I0403 16:12:33.205463 20827 layer_factory.hpp:77] Creating layer inception_4c/relu_1x1
I0403 16:12:33.205483 20827 net.cpp:91] Creating Layer inception_4c/relu_1x1
I0403 16:12:33.205499 20827 net.cpp:425] inception_4c/relu_1x1 <- inception_4c/1x1
I0403 16:12:33.205516 20827 net.cpp:386] inception_4c/relu_1x1 -> inception_4c/1x1 (in-place)
I0403 16:12:33.205698 20827 net.cpp:141] Setting up inception_4c/relu_1x1
I0403 16:12:33.205725 20827 net.cpp:148] Top shape: 24 128 14 14 (602112)
I0403 16:12:33.205740 20827 net.cpp:156] Memory required for data: 1033209120
I0403 16:12:33.205754 20827 layer_factory.hpp:77] Creating layer inception_4c/3x3_reduce
I0403 16:12:33.205776 20827 net.cpp:91] Creating Layer inception_4c/3x3_reduce
I0403 16:12:33.205793 20827 net.cpp:425] inception_4c/3x3_reduce <- inception_4b/output_inception_4b/output_0_split_1
I0403 16:12:33.205812 20827 net.cpp:399] inception_4c/3x3_reduce -> inception_4c/3x3_reduce
I0403 16:12:33.207798 20827 net.cpp:141] Setting up inception_4c/3x3_reduce
I0403 16:12:33.207831 20827 net.cpp:148] Top shape: 24 128 14 14 (602112)
I0403 16:12:33.207849 20827 net.cpp:156] Memory required for data: 1035617568
I0403 16:12:33.207866 20827 layer_factory.hpp:77] Creating layer inception_4c/relu_3x3_reduce
I0403 16:12:33.207885 20827 net.cpp:91] Creating Layer inception_4c/relu_3x3_reduce
I0403 16:12:33.207901 20827 net.cpp:425] inception_4c/relu_3x3_reduce <- inception_4c/3x3_reduce
I0403 16:12:33.207919 20827 net.cpp:386] inception_4c/relu_3x3_reduce -> inception_4c/3x3_reduce (in-place)
I0403 16:12:33.208219 20827 net.cpp:141] Setting up inception_4c/relu_3x3_reduce
I0403 16:12:33.208246 20827 net.cpp:148] Top shape: 24 128 14 14 (602112)
I0403 16:12:33.208262 20827 net.cpp:156] Memory required for data: 1038026016
I0403 16:12:33.208277 20827 layer_factory.hpp:77] Creating layer inception_4c/3x3
I0403 16:12:33.208302 20827 net.cpp:91] Creating Layer inception_4c/3x3
I0403 16:12:33.208319 20827 net.cpp:425] inception_4c/3x3 <- inception_4c/3x3_reduce
I0403 16:12:33.208338 20827 net.cpp:399] inception_4c/3x3 -> inception_4c/3x3
I0403 16:12:33.212000 20827 net.cpp:141] Setting up inception_4c/3x3
I0403 16:12:33.212041 20827 net.cpp:148] Top shape: 24 256 14 14 (1204224)
I0403 16:12:33.212057 20827 net.cpp:156] Memory required for data: 1042842912
I0403 16:12:33.212090 20827 layer_factory.hpp:77] Creating layer inception_4c/relu_3x3
I0403 16:12:33.212110 20827 net.cpp:91] Creating Layer inception_4c/relu_3x3
I0403 16:12:33.212126 20827 net.cpp:425] inception_4c/relu_3x3 <- inception_4c/3x3
I0403 16:12:33.212146 20827 net.cpp:386] inception_4c/relu_3x3 -> inception_4c/3x3 (in-place)
I0403 16:12:33.212332 20827 net.cpp:141] Setting up inception_4c/relu_3x3
I0403 16:12:33.212357 20827 net.cpp:148] Top shape: 24 256 14 14 (1204224)
I0403 16:12:33.212373 20827 net.cpp:156] Memory required for data: 1047659808
I0403 16:12:33.212386 20827 layer_factory.hpp:77] Creating layer inception_4c/5x5_reduce
I0403 16:12:33.212410 20827 net.cpp:91] Creating Layer inception_4c/5x5_reduce
I0403 16:12:33.212429 20827 net.cpp:425] inception_4c/5x5_reduce <- inception_4b/output_inception_4b/output_0_split_2
I0403 16:12:33.212450 20827 net.cpp:399] inception_4c/5x5_reduce -> inception_4c/5x5_reduce
I0403 16:12:33.213572 20827 net.cpp:141] Setting up inception_4c/5x5_reduce
I0403 16:12:33.213598 20827 net.cpp:148] Top shape: 24 24 14 14 (112896)
I0403 16:12:33.213613 20827 net.cpp:156] Memory required for data: 1048111392
I0403 16:12:33.213630 20827 layer_factory.hpp:77] Creating layer inception_4c/relu_5x5_reduce
I0403 16:12:33.213649 20827 net.cpp:91] Creating Layer inception_4c/relu_5x5_reduce
I0403 16:12:33.213663 20827 net.cpp:425] inception_4c/relu_5x5_reduce <- inception_4c/5x5_reduce
I0403 16:12:33.213682 20827 net.cpp:386] inception_4c/relu_5x5_reduce -> inception_4c/5x5_reduce (in-place)
I0403 16:12:33.213862 20827 net.cpp:141] Setting up inception_4c/relu_5x5_reduce
I0403 16:12:33.213886 20827 net.cpp:148] Top shape: 24 24 14 14 (112896)
I0403 16:12:33.213901 20827 net.cpp:156] Memory required for data: 1048562976
I0403 16:12:33.213914 20827 layer_factory.hpp:77] Creating layer inception_4c/5x5
I0403 16:12:33.213937 20827 net.cpp:91] Creating Layer inception_4c/5x5
I0403 16:12:33.213959 20827 net.cpp:425] inception_4c/5x5 <- inception_4c/5x5_reduce
I0403 16:12:33.213982 20827 net.cpp:399] inception_4c/5x5 -> inception_4c/5x5
I0403 16:12:33.215226 20827 net.cpp:141] Setting up inception_4c/5x5
I0403 16:12:33.215253 20827 net.cpp:148] Top shape: 24 64 14 14 (301056)
I0403 16:12:33.215270 20827 net.cpp:156] Memory required for data: 1049767200
I0403 16:12:33.215289 20827 layer_factory.hpp:77] Creating layer inception_4c/relu_5x5
I0403 16:12:33.215311 20827 net.cpp:91] Creating Layer inception_4c/relu_5x5
I0403 16:12:33.215339 20827 net.cpp:425] inception_4c/relu_5x5 <- inception_4c/5x5
I0403 16:12:33.215356 20827 net.cpp:386] inception_4c/relu_5x5 -> inception_4c/5x5 (in-place)
I0403 16:12:33.215638 20827 net.cpp:141] Setting up inception_4c/relu_5x5
I0403 16:12:33.215663 20827 net.cpp:148] Top shape: 24 64 14 14 (301056)
I0403 16:12:33.215678 20827 net.cpp:156] Memory required for data: 1050971424
I0403 16:12:33.215692 20827 layer_factory.hpp:77] Creating layer inception_4c/pool
I0403 16:12:33.215714 20827 net.cpp:91] Creating Layer inception_4c/pool
I0403 16:12:33.215730 20827 net.cpp:425] inception_4c/pool <- inception_4b/output_inception_4b/output_0_split_3
I0403 16:12:33.215749 20827 net.cpp:399] inception_4c/pool -> inception_4c/pool
I0403 16:12:33.215813 20827 net.cpp:141] Setting up inception_4c/pool
I0403 16:12:33.215837 20827 net.cpp:148] Top shape: 24 512 14 14 (2408448)
I0403 16:12:33.215850 20827 net.cpp:156] Memory required for data: 1060605216
I0403 16:12:33.215864 20827 layer_factory.hpp:77] Creating layer inception_4c/pool_proj
I0403 16:12:33.215885 20827 net.cpp:91] Creating Layer inception_4c/pool_proj
I0403 16:12:33.215903 20827 net.cpp:425] inception_4c/pool_proj <- inception_4c/pool
I0403 16:12:33.215922 20827 net.cpp:399] inception_4c/pool_proj -> inception_4c/pool_proj
I0403 16:12:33.217134 20827 net.cpp:141] Setting up inception_4c/pool_proj
I0403 16:12:33.217161 20827 net.cpp:148] Top shape: 24 64 14 14 (301056)
I0403 16:12:33.217190 20827 net.cpp:156] Memory required for data: 1061809440
I0403 16:12:33.217208 20827 layer_factory.hpp:77] Creating layer inception_4c/relu_pool_proj
I0403 16:12:33.217226 20827 net.cpp:91] Creating Layer inception_4c/relu_pool_proj
I0403 16:12:33.217242 20827 net.cpp:425] inception_4c/relu_pool_proj <- inception_4c/pool_proj
I0403 16:12:33.217260 20827 net.cpp:386] inception_4c/relu_pool_proj -> inception_4c/pool_proj (in-place)
I0403 16:12:33.217439 20827 net.cpp:141] Setting up inception_4c/relu_pool_proj
I0403 16:12:33.217463 20827 net.cpp:148] Top shape: 24 64 14 14 (301056)
I0403 16:12:33.217478 20827 net.cpp:156] Memory required for data: 1063013664
I0403 16:12:33.217491 20827 layer_factory.hpp:77] Creating layer inception_4c/output
I0403 16:12:33.217510 20827 net.cpp:91] Creating Layer inception_4c/output
I0403 16:12:33.217526 20827 net.cpp:425] inception_4c/output <- inception_4c/1x1
I0403 16:12:33.217542 20827 net.cpp:425] inception_4c/output <- inception_4c/3x3
I0403 16:12:33.217558 20827 net.cpp:425] inception_4c/output <- inception_4c/5x5
I0403 16:12:33.217573 20827 net.cpp:425] inception_4c/output <- inception_4c/pool_proj
I0403 16:12:33.217589 20827 net.cpp:399] inception_4c/output -> inception_4c/output
I0403 16:12:33.217636 20827 net.cpp:141] Setting up inception_4c/output
I0403 16:12:33.217658 20827 net.cpp:148] Top shape: 24 512 14 14 (2408448)
I0403 16:12:33.217672 20827 net.cpp:156] Memory required for data: 1072647456
I0403 16:12:33.217687 20827 layer_factory.hpp:77] Creating layer inception_4c/output_inception_4c/output_0_split
I0403 16:12:33.217703 20827 net.cpp:91] Creating Layer inception_4c/output_inception_4c/output_0_split
I0403 16:12:33.217718 20827 net.cpp:425] inception_4c/output_inception_4c/output_0_split <- inception_4c/output
I0403 16:12:33.217737 20827 net.cpp:399] inception_4c/output_inception_4c/output_0_split -> inception_4c/output_inception_4c/output_0_split_0
I0403 16:12:33.217756 20827 net.cpp:399] inception_4c/output_inception_4c/output_0_split -> inception_4c/output_inception_4c/output_0_split_1
I0403 16:12:33.217777 20827 net.cpp:399] inception_4c/output_inception_4c/output_0_split -> inception_4c/output_inception_4c/output_0_split_2
I0403 16:12:33.217795 20827 net.cpp:399] inception_4c/output_inception_4c/output_0_split -> inception_4c/output_inception_4c/output_0_split_3
I0403 16:12:33.217876 20827 net.cpp:141] Setting up inception_4c/output_inception_4c/output_0_split
I0403 16:12:33.217902 20827 net.cpp:148] Top shape: 24 512 14 14 (2408448)
I0403 16:12:33.217918 20827 net.cpp:148] Top shape: 24 512 14 14 (2408448)
I0403 16:12:33.217933 20827 net.cpp:148] Top shape: 24 512 14 14 (2408448)
I0403 16:12:33.217948 20827 net.cpp:148] Top shape: 24 512 14 14 (2408448)
I0403 16:12:33.217975 20827 net.cpp:156] Memory required for data: 1111182624
I0403 16:12:33.217991 20827 layer_factory.hpp:77] Creating layer inception_4d/1x1
I0403 16:12:33.218013 20827 net.cpp:91] Creating Layer inception_4d/1x1
I0403 16:12:33.218029 20827 net.cpp:425] inception_4d/1x1 <- inception_4c/output_inception_4c/output_0_split_0
I0403 16:12:33.218047 20827 net.cpp:399] inception_4d/1x1 -> inception_4d/1x1
I0403 16:12:33.219425 20827 net.cpp:141] Setting up inception_4d/1x1
I0403 16:12:33.219455 20827 net.cpp:148] Top shape: 24 112 14 14 (526848)
I0403 16:12:33.219470 20827 net.cpp:156] Memory required for data: 1113290016
I0403 16:12:33.219488 20827 layer_factory.hpp:77] Creating layer inception_4d/relu_1x1
I0403 16:12:33.219506 20827 net.cpp:91] Creating Layer inception_4d/relu_1x1
I0403 16:12:33.219521 20827 net.cpp:425] inception_4d/relu_1x1 <- inception_4d/1x1
I0403 16:12:33.219537 20827 net.cpp:386] inception_4d/relu_1x1 -> inception_4d/1x1 (in-place)
I0403 16:12:33.219720 20827 net.cpp:141] Setting up inception_4d/relu_1x1
I0403 16:12:33.219743 20827 net.cpp:148] Top shape: 24 112 14 14 (526848)
I0403 16:12:33.219758 20827 net.cpp:156] Memory required for data: 1115397408
I0403 16:12:33.219772 20827 layer_factory.hpp:77] Creating layer inception_4d/3x3_reduce
I0403 16:12:33.219808 20827 net.cpp:91] Creating Layer inception_4d/3x3_reduce
I0403 16:12:33.219825 20827 net.cpp:425] inception_4d/3x3_reduce <- inception_4c/output_inception_4c/output_0_split_1
I0403 16:12:33.219847 20827 net.cpp:399] inception_4d/3x3_reduce -> inception_4d/3x3_reduce
I0403 16:12:33.221328 20827 net.cpp:141] Setting up inception_4d/3x3_reduce
I0403 16:12:33.221354 20827 net.cpp:148] Top shape: 24 144 14 14 (677376)
I0403 16:12:33.221369 20827 net.cpp:156] Memory required for data: 1118106912
I0403 16:12:33.221386 20827 layer_factory.hpp:77] Creating layer inception_4d/relu_3x3_reduce
I0403 16:12:33.221406 20827 net.cpp:91] Creating Layer inception_4d/relu_3x3_reduce
I0403 16:12:33.221422 20827 net.cpp:425] inception_4d/relu_3x3_reduce <- inception_4d/3x3_reduce
I0403 16:12:33.221439 20827 net.cpp:386] inception_4d/relu_3x3_reduce -> inception_4d/3x3_reduce (in-place)
I0403 16:12:33.221719 20827 net.cpp:141] Setting up inception_4d/relu_3x3_reduce
I0403 16:12:33.221745 20827 net.cpp:148] Top shape: 24 144 14 14 (677376)
I0403 16:12:33.221760 20827 net.cpp:156] Memory required for data: 1120816416
I0403 16:12:33.221773 20827 layer_factory.hpp:77] Creating layer inception_4d/3x3
I0403 16:12:33.221794 20827 net.cpp:91] Creating Layer inception_4d/3x3
I0403 16:12:33.221812 20827 net.cpp:425] inception_4d/3x3 <- inception_4d/3x3_reduce
I0403 16:12:33.221832 20827 net.cpp:399] inception_4d/3x3 -> inception_4d/3x3
I0403 16:12:33.226016 20827 net.cpp:141] Setting up inception_4d/3x3
I0403 16:12:33.226052 20827 net.cpp:148] Top shape: 24 288 14 14 (1354752)
I0403 16:12:33.226076 20827 net.cpp:156] Memory required for data: 1126235424
I0403 16:12:33.226094 20827 layer_factory.hpp:77] Creating layer inception_4d/relu_3x3
I0403 16:12:33.226112 20827 net.cpp:91] Creating Layer inception_4d/relu_3x3
I0403 16:12:33.226127 20827 net.cpp:425] inception_4d/relu_3x3 <- inception_4d/3x3
I0403 16:12:33.226147 20827 net.cpp:386] inception_4d/relu_3x3 -> inception_4d/3x3 (in-place)
I0403 16:12:33.226325 20827 net.cpp:141] Setting up inception_4d/relu_3x3
I0403 16:12:33.226354 20827 net.cpp:148] Top shape: 24 288 14 14 (1354752)
I0403 16:12:33.226377 20827 net.cpp:156] Memory required for data: 1131654432
I0403 16:12:33.226398 20827 layer_factory.hpp:77] Creating layer inception_4d/5x5_reduce
I0403 16:12:33.226428 20827 net.cpp:91] Creating Layer inception_4d/5x5_reduce
I0403 16:12:33.226447 20827 net.cpp:425] inception_4d/5x5_reduce <- inception_4c/output_inception_4c/output_0_split_2
I0403 16:12:33.226470 20827 net.cpp:399] inception_4d/5x5_reduce -> inception_4d/5x5_reduce
I0403 16:12:33.227654 20827 net.cpp:141] Setting up inception_4d/5x5_reduce
I0403 16:12:33.227685 20827 net.cpp:148] Top shape: 24 32 14 14 (150528)
I0403 16:12:33.227701 20827 net.cpp:156] Memory required for data: 1132256544
I0403 16:12:33.227720 20827 layer_factory.hpp:77] Creating layer inception_4d/relu_5x5_reduce
I0403 16:12:33.227736 20827 net.cpp:91] Creating Layer inception_4d/relu_5x5_reduce
I0403 16:12:33.227752 20827 net.cpp:425] inception_4d/relu_5x5_reduce <- inception_4d/5x5_reduce
I0403 16:12:33.227769 20827 net.cpp:386] inception_4d/relu_5x5_reduce -> inception_4d/5x5_reduce (in-place)
I0403 16:12:33.227973 20827 net.cpp:141] Setting up inception_4d/relu_5x5_reduce
I0403 16:12:33.227998 20827 net.cpp:148] Top shape: 24 32 14 14 (150528)
I0403 16:12:33.228013 20827 net.cpp:156] Memory required for data: 1132858656
I0403 16:12:33.228027 20827 layer_factory.hpp:77] Creating layer inception_4d/5x5
I0403 16:12:33.228050 20827 net.cpp:91] Creating Layer inception_4d/5x5
I0403 16:12:33.228067 20827 net.cpp:425] inception_4d/5x5 <- inception_4d/5x5_reduce
I0403 16:12:33.228088 20827 net.cpp:399] inception_4d/5x5 -> inception_4d/5x5
I0403 16:12:33.229578 20827 net.cpp:141] Setting up inception_4d/5x5
I0403 16:12:33.229606 20827 net.cpp:148] Top shape: 24 64 14 14 (301056)
I0403 16:12:33.229621 20827 net.cpp:156] Memory required for data: 1134062880
I0403 16:12:33.229640 20827 layer_factory.hpp:77] Creating layer inception_4d/relu_5x5
I0403 16:12:33.229674 20827 net.cpp:91] Creating Layer inception_4d/relu_5x5
I0403 16:12:33.229692 20827 net.cpp:425] inception_4d/relu_5x5 <- inception_4d/5x5
I0403 16:12:33.229709 20827 net.cpp:386] inception_4d/relu_5x5 -> inception_4d/5x5 (in-place)
I0403 16:12:33.230023 20827 net.cpp:141] Setting up inception_4d/relu_5x5
I0403 16:12:33.230049 20827 net.cpp:148] Top shape: 24 64 14 14 (301056)
I0403 16:12:33.230064 20827 net.cpp:156] Memory required for data: 1135267104
I0403 16:12:33.230079 20827 layer_factory.hpp:77] Creating layer inception_4d/pool
I0403 16:12:33.230096 20827 net.cpp:91] Creating Layer inception_4d/pool
I0403 16:12:33.230115 20827 net.cpp:425] inception_4d/pool <- inception_4c/output_inception_4c/output_0_split_3
I0403 16:12:33.230134 20827 net.cpp:399] inception_4d/pool -> inception_4d/pool
I0403 16:12:33.230201 20827 net.cpp:141] Setting up inception_4d/pool
I0403 16:12:33.230224 20827 net.cpp:148] Top shape: 24 512 14 14 (2408448)
I0403 16:12:33.230238 20827 net.cpp:156] Memory required for data: 1144900896
I0403 16:12:33.230252 20827 layer_factory.hpp:77] Creating layer inception_4d/pool_proj
I0403 16:12:33.230273 20827 net.cpp:91] Creating Layer inception_4d/pool_proj
I0403 16:12:33.230291 20827 net.cpp:425] inception_4d/pool_proj <- inception_4d/pool
I0403 16:12:33.230312 20827 net.cpp:399] inception_4d/pool_proj -> inception_4d/pool_proj
I0403 16:12:33.232141 20827 net.cpp:141] Setting up inception_4d/pool_proj
I0403 16:12:33.232172 20827 net.cpp:148] Top shape: 24 64 14 14 (301056)
I0403 16:12:33.232188 20827 net.cpp:156] Memory required for data: 1146105120
I0403 16:12:33.232208 20827 layer_factory.hpp:77] Creating layer inception_4d/relu_pool_proj
I0403 16:12:33.232225 20827 net.cpp:91] Creating Layer inception_4d/relu_pool_proj
I0403 16:12:33.232241 20827 net.cpp:425] inception_4d/relu_pool_proj <- inception_4d/pool_proj
I0403 16:12:33.232261 20827 net.cpp:386] inception_4d/relu_pool_proj -> inception_4d/pool_proj (in-place)
I0403 16:12:33.232445 20827 net.cpp:141] Setting up inception_4d/relu_pool_proj
I0403 16:12:33.232470 20827 net.cpp:148] Top shape: 24 64 14 14 (301056)
I0403 16:12:33.232484 20827 net.cpp:156] Memory required for data: 1147309344
I0403 16:12:33.232498 20827 layer_factory.hpp:77] Creating layer inception_4d/output
I0403 16:12:33.232516 20827 net.cpp:91] Creating Layer inception_4d/output
I0403 16:12:33.232532 20827 net.cpp:425] inception_4d/output <- inception_4d/1x1
I0403 16:12:33.232548 20827 net.cpp:425] inception_4d/output <- inception_4d/3x3
I0403 16:12:33.232564 20827 net.cpp:425] inception_4d/output <- inception_4d/5x5
I0403 16:12:33.232580 20827 net.cpp:425] inception_4d/output <- inception_4d/pool_proj
I0403 16:12:33.232599 20827 net.cpp:399] inception_4d/output -> inception_4d/output
I0403 16:12:33.232646 20827 net.cpp:141] Setting up inception_4d/output
I0403 16:12:33.232671 20827 net.cpp:148] Top shape: 24 528 14 14 (2483712)
I0403 16:12:33.232686 20827 net.cpp:156] Memory required for data: 1157244192
I0403 16:12:33.232702 20827 layer_factory.hpp:77] Creating layer inception_4d/output_inception_4d/output_0_split
I0403 16:12:33.232718 20827 net.cpp:91] Creating Layer inception_4d/output_inception_4d/output_0_split
I0403 16:12:33.232733 20827 net.cpp:425] inception_4d/output_inception_4d/output_0_split <- inception_4d/output
I0403 16:12:33.232753 20827 net.cpp:399] inception_4d/output_inception_4d/output_0_split -> inception_4d/output_inception_4d/output_0_split_0
I0403 16:12:33.232774 20827 net.cpp:399] inception_4d/output_inception_4d/output_0_split -> inception_4d/output_inception_4d/output_0_split_1
I0403 16:12:33.232795 20827 net.cpp:399] inception_4d/output_inception_4d/output_0_split -> inception_4d/output_inception_4d/output_0_split_2
I0403 16:12:33.232815 20827 net.cpp:399] inception_4d/output_inception_4d/output_0_split -> inception_4d/output_inception_4d/output_0_split_3
I0403 16:12:33.232833 20827 net.cpp:399] inception_4d/output_inception_4d/output_0_split -> inception_4d/output_inception_4d/output_0_split_4
I0403 16:12:33.232938 20827 net.cpp:141] Setting up inception_4d/output_inception_4d/output_0_split
I0403 16:12:33.232995 20827 net.cpp:148] Top shape: 24 528 14 14 (2483712)
I0403 16:12:33.233014 20827 net.cpp:148] Top shape: 24 528 14 14 (2483712)
I0403 16:12:33.233031 20827 net.cpp:148] Top shape: 24 528 14 14 (2483712)
I0403 16:12:33.233047 20827 net.cpp:148] Top shape: 24 528 14 14 (2483712)
I0403 16:12:33.233062 20827 net.cpp:148] Top shape: 24 528 14 14 (2483712)
I0403 16:12:33.233077 20827 net.cpp:156] Memory required for data: 1206918432
I0403 16:12:33.233091 20827 layer_factory.hpp:77] Creating layer loss2/ave_pool
I0403 16:12:33.233109 20827 net.cpp:91] Creating Layer loss2/ave_pool
I0403 16:12:33.233125 20827 net.cpp:425] loss2/ave_pool <- inception_4d/output_inception_4d/output_0_split_0
I0403 16:12:33.233144 20827 net.cpp:399] loss2/ave_pool -> loss2/ave_pool
I0403 16:12:33.233469 20827 net.cpp:141] Setting up loss2/ave_pool
I0403 16:12:33.233499 20827 net.cpp:148] Top shape: 24 528 4 4 (202752)
I0403 16:12:33.233513 20827 net.cpp:156] Memory required for data: 1207729440
I0403 16:12:33.233528 20827 layer_factory.hpp:77] Creating layer loss2/conv
I0403 16:12:33.233556 20827 net.cpp:91] Creating Layer loss2/conv
I0403 16:12:33.233574 20827 net.cpp:425] loss2/conv <- loss2/ave_pool
I0403 16:12:33.233593 20827 net.cpp:399] loss2/conv -> loss2/conv
I0403 16:12:33.235594 20827 net.cpp:141] Setting up loss2/conv
I0403 16:12:33.235623 20827 net.cpp:148] Top shape: 24 128 4 4 (49152)
I0403 16:12:33.235640 20827 net.cpp:156] Memory required for data: 1207926048
I0403 16:12:33.235658 20827 layer_factory.hpp:77] Creating layer loss2/relu_conv
I0403 16:12:33.235679 20827 net.cpp:91] Creating Layer loss2/relu_conv
I0403 16:12:33.235697 20827 net.cpp:425] loss2/relu_conv <- loss2/conv
I0403 16:12:33.235714 20827 net.cpp:386] loss2/relu_conv -> loss2/conv (in-place)
I0403 16:12:33.236016 20827 net.cpp:141] Setting up loss2/relu_conv
I0403 16:12:33.236043 20827 net.cpp:148] Top shape: 24 128 4 4 (49152)
I0403 16:12:33.236058 20827 net.cpp:156] Memory required for data: 1208122656
I0403 16:12:33.236074 20827 layer_factory.hpp:77] Creating layer loss2/fc
I0403 16:12:33.236096 20827 net.cpp:91] Creating Layer loss2/fc
I0403 16:12:33.236114 20827 net.cpp:425] loss2/fc <- loss2/conv
I0403 16:12:33.236132 20827 net.cpp:399] loss2/fc -> loss2/fc
I0403 16:12:33.254490 20827 net.cpp:141] Setting up loss2/fc
I0403 16:12:33.254552 20827 net.cpp:148] Top shape: 24 1024 (24576)
I0403 16:12:33.254570 20827 net.cpp:156] Memory required for data: 1208220960
I0403 16:12:33.254590 20827 layer_factory.hpp:77] Creating layer loss2/relu_fc
I0403 16:12:33.254608 20827 net.cpp:91] Creating Layer loss2/relu_fc
I0403 16:12:33.254626 20827 net.cpp:425] loss2/relu_fc <- loss2/fc
I0403 16:12:33.254647 20827 net.cpp:386] loss2/relu_fc -> loss2/fc (in-place)
I0403 16:12:33.255007 20827 net.cpp:141] Setting up loss2/relu_fc
I0403 16:12:33.255045 20827 net.cpp:148] Top shape: 24 1024 (24576)
I0403 16:12:33.255062 20827 net.cpp:156] Memory required for data: 1208319264
I0403 16:12:33.255077 20827 layer_factory.hpp:77] Creating layer loss2/drop_fc
I0403 16:12:33.255095 20827 net.cpp:91] Creating Layer loss2/drop_fc
I0403 16:12:33.255112 20827 net.cpp:425] loss2/drop_fc <- loss2/fc
I0403 16:12:33.255132 20827 net.cpp:386] loss2/drop_fc -> loss2/fc (in-place)
I0403 16:12:33.255184 20827 net.cpp:141] Setting up loss2/drop_fc
I0403 16:12:33.255208 20827 net.cpp:148] Top shape: 24 1024 (24576)
I0403 16:12:33.255223 20827 net.cpp:156] Memory required for data: 1208417568
I0403 16:12:33.255239 20827 layer_factory.hpp:77] Creating layer loss2/classifier_plantvillage
I0403 16:12:33.255260 20827 net.cpp:91] Creating Layer loss2/classifier_plantvillage
I0403 16:12:33.255280 20827 net.cpp:425] loss2/classifier_plantvillage <- loss2/fc
I0403 16:12:33.255301 20827 net.cpp:399] loss2/classifier_plantvillage -> loss2/classifier_plantvillage
I0403 16:12:33.255728 20827 net.cpp:141] Setting up loss2/classifier_plantvillage
I0403 16:12:33.255753 20827 net.cpp:148] Top shape: 24 38 (912)
I0403 16:12:33.255767 20827 net.cpp:156] Memory required for data: 1208421216
I0403 16:12:33.255811 20827 layer_factory.hpp:77] Creating layer loss2/classifier_plantvillage_loss2/classifier_plantvillage_0_split
I0403 16:12:33.255831 20827 net.cpp:91] Creating Layer loss2/classifier_plantvillage_loss2/classifier_plantvillage_0_split
I0403 16:12:33.255847 20827 net.cpp:425] loss2/classifier_plantvillage_loss2/classifier_plantvillage_0_split <- loss2/classifier_plantvillage
I0403 16:12:33.255867 20827 net.cpp:399] loss2/classifier_plantvillage_loss2/classifier_plantvillage_0_split -> loss2/classifier_plantvillage_loss2/classifier_plantvillage_0_split_0
I0403 16:12:33.255888 20827 net.cpp:399] loss2/classifier_plantvillage_loss2/classifier_plantvillage_0_split -> loss2/classifier_plantvillage_loss2/classifier_plantvillage_0_split_1
I0403 16:12:33.255908 20827 net.cpp:399] loss2/classifier_plantvillage_loss2/classifier_plantvillage_0_split -> loss2/classifier_plantvillage_loss2/classifier_plantvillage_0_split_2
I0403 16:12:33.255995 20827 net.cpp:141] Setting up loss2/classifier_plantvillage_loss2/classifier_plantvillage_0_split
I0403 16:12:33.256017 20827 net.cpp:148] Top shape: 24 38 (912)
I0403 16:12:33.256034 20827 net.cpp:148] Top shape: 24 38 (912)
I0403 16:12:33.256050 20827 net.cpp:148] Top shape: 24 38 (912)
I0403 16:12:33.256063 20827 net.cpp:156] Memory required for data: 1208432160
I0403 16:12:33.256078 20827 layer_factory.hpp:77] Creating layer inception_4e/1x1
I0403 16:12:33.256103 20827 net.cpp:91] Creating Layer inception_4e/1x1
I0403 16:12:33.256120 20827 net.cpp:425] inception_4e/1x1 <- inception_4d/output_inception_4d/output_0_split_1
I0403 16:12:33.256140 20827 net.cpp:399] inception_4e/1x1 -> inception_4e/1x1
I0403 16:12:33.258126 20827 net.cpp:141] Setting up inception_4e/1x1
I0403 16:12:33.258154 20827 net.cpp:148] Top shape: 24 256 14 14 (1204224)
I0403 16:12:33.258170 20827 net.cpp:156] Memory required for data: 1213249056
I0403 16:12:33.258189 20827 layer_factory.hpp:77] Creating layer inception_4e/relu_1x1
I0403 16:12:33.258210 20827 net.cpp:91] Creating Layer inception_4e/relu_1x1
I0403 16:12:33.258227 20827 net.cpp:425] inception_4e/relu_1x1 <- inception_4e/1x1
I0403 16:12:33.258244 20827 net.cpp:386] inception_4e/relu_1x1 -> inception_4e/1x1 (in-place)
I0403 16:12:33.258545 20827 net.cpp:141] Setting up inception_4e/relu_1x1
I0403 16:12:33.258571 20827 net.cpp:148] Top shape: 24 256 14 14 (1204224)
I0403 16:12:33.258587 20827 net.cpp:156] Memory required for data: 1218065952
I0403 16:12:33.258601 20827 layer_factory.hpp:77] Creating layer inception_4e/3x3_reduce
I0403 16:12:33.258623 20827 net.cpp:91] Creating Layer inception_4e/3x3_reduce
I0403 16:12:33.258641 20827 net.cpp:425] inception_4e/3x3_reduce <- inception_4d/output_inception_4d/output_0_split_2
I0403 16:12:33.258662 20827 net.cpp:399] inception_4e/3x3_reduce -> inception_4e/3x3_reduce
I0403 16:12:33.260874 20827 net.cpp:141] Setting up inception_4e/3x3_reduce
I0403 16:12:33.260902 20827 net.cpp:148] Top shape: 24 160 14 14 (752640)
I0403 16:12:33.260918 20827 net.cpp:156] Memory required for data: 1221076512
I0403 16:12:33.260936 20827 layer_factory.hpp:77] Creating layer inception_4e/relu_3x3_reduce
I0403 16:12:33.260960 20827 net.cpp:91] Creating Layer inception_4e/relu_3x3_reduce
I0403 16:12:33.260978 20827 net.cpp:425] inception_4e/relu_3x3_reduce <- inception_4e/3x3_reduce
I0403 16:12:33.260998 20827 net.cpp:386] inception_4e/relu_3x3_reduce -> inception_4e/3x3_reduce (in-place)
I0403 16:12:33.261184 20827 net.cpp:141] Setting up inception_4e/relu_3x3_reduce
I0403 16:12:33.261209 20827 net.cpp:148] Top shape: 24 160 14 14 (752640)
I0403 16:12:33.261224 20827 net.cpp:156] Memory required for data: 1224087072
I0403 16:12:33.261239 20827 layer_factory.hpp:77] Creating layer inception_4e/3x3
I0403 16:12:33.261260 20827 net.cpp:91] Creating Layer inception_4e/3x3
I0403 16:12:33.261278 20827 net.cpp:425] inception_4e/3x3 <- inception_4e/3x3_reduce
I0403 16:12:33.261299 20827 net.cpp:399] inception_4e/3x3 -> inception_4e/3x3
I0403 16:12:33.266392 20827 net.cpp:141] Setting up inception_4e/3x3
I0403 16:12:33.266433 20827 net.cpp:148] Top shape: 24 320 14 14 (1505280)
I0403 16:12:33.266449 20827 net.cpp:156] Memory required for data: 1230108192
I0403 16:12:33.266469 20827 layer_factory.hpp:77] Creating layer inception_4e/relu_3x3
I0403 16:12:33.266489 20827 net.cpp:91] Creating Layer inception_4e/relu_3x3
I0403 16:12:33.266505 20827 net.cpp:425] inception_4e/relu_3x3 <- inception_4e/3x3
I0403 16:12:33.266521 20827 net.cpp:386] inception_4e/relu_3x3 -> inception_4e/3x3 (in-place)
I0403 16:12:33.266825 20827 net.cpp:141] Setting up inception_4e/relu_3x3
I0403 16:12:33.266855 20827 net.cpp:148] Top shape: 24 320 14 14 (1505280)
I0403 16:12:33.266870 20827 net.cpp:156] Memory required for data: 1236129312
I0403 16:12:33.266885 20827 layer_factory.hpp:77] Creating layer inception_4e/5x5_reduce
I0403 16:12:33.266908 20827 net.cpp:91] Creating Layer inception_4e/5x5_reduce
I0403 16:12:33.266926 20827 net.cpp:425] inception_4e/5x5_reduce <- inception_4d/output_inception_4d/output_0_split_3
I0403 16:12:33.266947 20827 net.cpp:399] inception_4e/5x5_reduce -> inception_4e/5x5_reduce
I0403 16:12:33.268102 20827 net.cpp:141] Setting up inception_4e/5x5_reduce
I0403 16:12:33.268131 20827 net.cpp:148] Top shape: 24 32 14 14 (150528)
I0403 16:12:33.268146 20827 net.cpp:156] Memory required for data: 1236731424
I0403 16:12:33.268165 20827 layer_factory.hpp:77] Creating layer inception_4e/relu_5x5_reduce
I0403 16:12:33.268187 20827 net.cpp:91] Creating Layer inception_4e/relu_5x5_reduce
I0403 16:12:33.268203 20827 net.cpp:425] inception_4e/relu_5x5_reduce <- inception_4e/5x5_reduce
I0403 16:12:33.268221 20827 net.cpp:386] inception_4e/relu_5x5_reduce -> inception_4e/5x5_reduce (in-place)
I0403 16:12:33.268537 20827 net.cpp:141] Setting up inception_4e/relu_5x5_reduce
I0403 16:12:33.268563 20827 net.cpp:148] Top shape: 24 32 14 14 (150528)
I0403 16:12:33.268579 20827 net.cpp:156] Memory required for data: 1237333536
I0403 16:12:33.268594 20827 layer_factory.hpp:77] Creating layer inception_4e/5x5
I0403 16:12:33.268632 20827 net.cpp:91] Creating Layer inception_4e/5x5
I0403 16:12:33.268651 20827 net.cpp:425] inception_4e/5x5 <- inception_4e/5x5_reduce
I0403 16:12:33.268671 20827 net.cpp:399] inception_4e/5x5 -> inception_4e/5x5
I0403 16:12:33.270546 20827 net.cpp:141] Setting up inception_4e/5x5
I0403 16:12:33.270576 20827 net.cpp:148] Top shape: 24 128 14 14 (602112)
I0403 16:12:33.270592 20827 net.cpp:156] Memory required for data: 1239741984
I0403 16:12:33.270611 20827 layer_factory.hpp:77] Creating layer inception_4e/relu_5x5
I0403 16:12:33.270629 20827 net.cpp:91] Creating Layer inception_4e/relu_5x5
I0403 16:12:33.270645 20827 net.cpp:425] inception_4e/relu_5x5 <- inception_4e/5x5
I0403 16:12:33.270664 20827 net.cpp:386] inception_4e/relu_5x5 -> inception_4e/5x5 (in-place)
I0403 16:12:33.270874 20827 net.cpp:141] Setting up inception_4e/relu_5x5
I0403 16:12:33.270897 20827 net.cpp:148] Top shape: 24 128 14 14 (602112)
I0403 16:12:33.270910 20827 net.cpp:156] Memory required for data: 1242150432
I0403 16:12:33.270925 20827 layer_factory.hpp:77] Creating layer inception_4e/pool
I0403 16:12:33.270942 20827 net.cpp:91] Creating Layer inception_4e/pool
I0403 16:12:33.270964 20827 net.cpp:425] inception_4e/pool <- inception_4d/output_inception_4d/output_0_split_4
I0403 16:12:33.270987 20827 net.cpp:399] inception_4e/pool -> inception_4e/pool
I0403 16:12:33.271071 20827 net.cpp:141] Setting up inception_4e/pool
I0403 16:12:33.271095 20827 net.cpp:148] Top shape: 24 528 14 14 (2483712)
I0403 16:12:33.271108 20827 net.cpp:156] Memory required for data: 1252085280
I0403 16:12:33.271123 20827 layer_factory.hpp:77] Creating layer inception_4e/pool_proj
I0403 16:12:33.271145 20827 net.cpp:91] Creating Layer inception_4e/pool_proj
I0403 16:12:33.271162 20827 net.cpp:425] inception_4e/pool_proj <- inception_4e/pool
I0403 16:12:33.271183 20827 net.cpp:399] inception_4e/pool_proj -> inception_4e/pool_proj
I0403 16:12:33.272675 20827 net.cpp:141] Setting up inception_4e/pool_proj
I0403 16:12:33.272703 20827 net.cpp:148] Top shape: 24 128 14 14 (602112)
I0403 16:12:33.272732 20827 net.cpp:156] Memory required for data: 1254493728
I0403 16:12:33.272750 20827 layer_factory.hpp:77] Creating layer inception_4e/relu_pool_proj
I0403 16:12:33.272768 20827 net.cpp:91] Creating Layer inception_4e/relu_pool_proj
I0403 16:12:33.272781 20827 net.cpp:425] inception_4e/relu_pool_proj <- inception_4e/pool_proj
I0403 16:12:33.272800 20827 net.cpp:386] inception_4e/relu_pool_proj -> inception_4e/pool_proj (in-place)
I0403 16:12:33.273095 20827 net.cpp:141] Setting up inception_4e/relu_pool_proj
I0403 16:12:33.273123 20827 net.cpp:148] Top shape: 24 128 14 14 (602112)
I0403 16:12:33.273138 20827 net.cpp:156] Memory required for data: 1256902176
I0403 16:12:33.273152 20827 layer_factory.hpp:77] Creating layer inception_4e/output
I0403 16:12:33.273169 20827 net.cpp:91] Creating Layer inception_4e/output
I0403 16:12:33.273185 20827 net.cpp:425] inception_4e/output <- inception_4e/1x1
I0403 16:12:33.273200 20827 net.cpp:425] inception_4e/output <- inception_4e/3x3
I0403 16:12:33.273216 20827 net.cpp:425] inception_4e/output <- inception_4e/5x5
I0403 16:12:33.273231 20827 net.cpp:425] inception_4e/output <- inception_4e/pool_proj
I0403 16:12:33.273249 20827 net.cpp:399] inception_4e/output -> inception_4e/output
I0403 16:12:33.273298 20827 net.cpp:141] Setting up inception_4e/output
I0403 16:12:33.273319 20827 net.cpp:148] Top shape: 24 832 14 14 (3913728)
I0403 16:12:33.273334 20827 net.cpp:156] Memory required for data: 1272557088
I0403 16:12:33.273347 20827 layer_factory.hpp:77] Creating layer pool4/3x3_s2
I0403 16:12:33.273366 20827 net.cpp:91] Creating Layer pool4/3x3_s2
I0403 16:12:33.273381 20827 net.cpp:425] pool4/3x3_s2 <- inception_4e/output
I0403 16:12:33.273399 20827 net.cpp:399] pool4/3x3_s2 -> pool4/3x3_s2
I0403 16:12:33.273466 20827 net.cpp:141] Setting up pool4/3x3_s2
I0403 16:12:33.273489 20827 net.cpp:148] Top shape: 24 832 7 7 (978432)
I0403 16:12:33.273504 20827 net.cpp:156] Memory required for data: 1276470816
I0403 16:12:33.273516 20827 layer_factory.hpp:77] Creating layer pool4/3x3_s2_pool4/3x3_s2_0_split
I0403 16:12:33.273533 20827 net.cpp:91] Creating Layer pool4/3x3_s2_pool4/3x3_s2_0_split
I0403 16:12:33.273548 20827 net.cpp:425] pool4/3x3_s2_pool4/3x3_s2_0_split <- pool4/3x3_s2
I0403 16:12:33.273567 20827 net.cpp:399] pool4/3x3_s2_pool4/3x3_s2_0_split -> pool4/3x3_s2_pool4/3x3_s2_0_split_0
I0403 16:12:33.273587 20827 net.cpp:399] pool4/3x3_s2_pool4/3x3_s2_0_split -> pool4/3x3_s2_pool4/3x3_s2_0_split_1
I0403 16:12:33.273607 20827 net.cpp:399] pool4/3x3_s2_pool4/3x3_s2_0_split -> pool4/3x3_s2_pool4/3x3_s2_0_split_2
I0403 16:12:33.273625 20827 net.cpp:399] pool4/3x3_s2_pool4/3x3_s2_0_split -> pool4/3x3_s2_pool4/3x3_s2_0_split_3
I0403 16:12:33.273715 20827 net.cpp:141] Setting up pool4/3x3_s2_pool4/3x3_s2_0_split
I0403 16:12:33.273737 20827 net.cpp:148] Top shape: 24 832 7 7 (978432)
I0403 16:12:33.273752 20827 net.cpp:148] Top shape: 24 832 7 7 (978432)
I0403 16:12:33.273767 20827 net.cpp:148] Top shape: 24 832 7 7 (978432)
I0403 16:12:33.273782 20827 net.cpp:148] Top shape: 24 832 7 7 (978432)
I0403 16:12:33.273795 20827 net.cpp:156] Memory required for data: 1292125728
I0403 16:12:33.273808 20827 layer_factory.hpp:77] Creating layer inception_5a/1x1
I0403 16:12:33.273830 20827 net.cpp:91] Creating Layer inception_5a/1x1
I0403 16:12:33.273847 20827 net.cpp:425] inception_5a/1x1 <- pool4/3x3_s2_pool4/3x3_s2_0_split_0
I0403 16:12:33.273867 20827 net.cpp:399] inception_5a/1x1 -> inception_5a/1x1
I0403 16:12:33.276721 20827 net.cpp:141] Setting up inception_5a/1x1
I0403 16:12:33.276748 20827 net.cpp:148] Top shape: 24 256 7 7 (301056)
I0403 16:12:33.276763 20827 net.cpp:156] Memory required for data: 1293329952
I0403 16:12:33.276780 20827 layer_factory.hpp:77] Creating layer inception_5a/relu_1x1
I0403 16:12:33.276798 20827 net.cpp:91] Creating Layer inception_5a/relu_1x1
I0403 16:12:33.276813 20827 net.cpp:425] inception_5a/relu_1x1 <- inception_5a/1x1
I0403 16:12:33.276832 20827 net.cpp:386] inception_5a/relu_1x1 -> inception_5a/1x1 (in-place)
I0403 16:12:33.277150 20827 net.cpp:141] Setting up inception_5a/relu_1x1
I0403 16:12:33.277175 20827 net.cpp:148] Top shape: 24 256 7 7 (301056)
I0403 16:12:33.277189 20827 net.cpp:156] Memory required for data: 1294534176
I0403 16:12:33.277204 20827 layer_factory.hpp:77] Creating layer inception_5a/3x3_reduce
I0403 16:12:33.277225 20827 net.cpp:91] Creating Layer inception_5a/3x3_reduce
I0403 16:12:33.277243 20827 net.cpp:425] inception_5a/3x3_reduce <- pool4/3x3_s2_pool4/3x3_s2_0_split_1
I0403 16:12:33.277266 20827 net.cpp:399] inception_5a/3x3_reduce -> inception_5a/3x3_reduce
I0403 16:12:33.279770 20827 net.cpp:141] Setting up inception_5a/3x3_reduce
I0403 16:12:33.279810 20827 net.cpp:148] Top shape: 24 160 7 7 (188160)
I0403 16:12:33.279825 20827 net.cpp:156] Memory required for data: 1295286816
I0403 16:12:33.279844 20827 layer_factory.hpp:77] Creating layer inception_5a/relu_3x3_reduce
I0403 16:12:33.279862 20827 net.cpp:91] Creating Layer inception_5a/relu_3x3_reduce
I0403 16:12:33.279878 20827 net.cpp:425] inception_5a/relu_3x3_reduce <- inception_5a/3x3_reduce
I0403 16:12:33.279896 20827 net.cpp:386] inception_5a/relu_3x3_reduce -> inception_5a/3x3_reduce (in-place)
I0403 16:12:33.280086 20827 net.cpp:141] Setting up inception_5a/relu_3x3_reduce
I0403 16:12:33.280110 20827 net.cpp:148] Top shape: 24 160 7 7 (188160)
I0403 16:12:33.280125 20827 net.cpp:156] Memory required for data: 1296039456
I0403 16:12:33.280139 20827 layer_factory.hpp:77] Creating layer inception_5a/3x3
I0403 16:12:33.280163 20827 net.cpp:91] Creating Layer inception_5a/3x3
I0403 16:12:33.280179 20827 net.cpp:425] inception_5a/3x3 <- inception_5a/3x3_reduce
I0403 16:12:33.280201 20827 net.cpp:399] inception_5a/3x3 -> inception_5a/3x3
I0403 16:12:33.285225 20827 net.cpp:141] Setting up inception_5a/3x3
I0403 16:12:33.285254 20827 net.cpp:148] Top shape: 24 320 7 7 (376320)
I0403 16:12:33.285269 20827 net.cpp:156] Memory required for data: 1297544736
I0403 16:12:33.285285 20827 layer_factory.hpp:77] Creating layer inception_5a/relu_3x3
I0403 16:12:33.285303 20827 net.cpp:91] Creating Layer inception_5a/relu_3x3
I0403 16:12:33.285318 20827 net.cpp:425] inception_5a/relu_3x3 <- inception_5a/3x3
I0403 16:12:33.285337 20827 net.cpp:386] inception_5a/relu_3x3 -> inception_5a/3x3 (in-place)
I0403 16:12:33.285624 20827 net.cpp:141] Setting up inception_5a/relu_3x3
I0403 16:12:33.285650 20827 net.cpp:148] Top shape: 24 320 7 7 (376320)
I0403 16:12:33.285663 20827 net.cpp:156] Memory required for data: 1299050016
I0403 16:12:33.285678 20827 layer_factory.hpp:77] Creating layer inception_5a/5x5_reduce
I0403 16:12:33.285701 20827 net.cpp:91] Creating Layer inception_5a/5x5_reduce
I0403 16:12:33.285718 20827 net.cpp:425] inception_5a/5x5_reduce <- pool4/3x3_s2_pool4/3x3_s2_0_split_2
I0403 16:12:33.285739 20827 net.cpp:399] inception_5a/5x5_reduce -> inception_5a/5x5_reduce
I0403 16:12:33.286886 20827 net.cpp:141] Setting up inception_5a/5x5_reduce
I0403 16:12:33.286914 20827 net.cpp:148] Top shape: 24 32 7 7 (37632)
I0403 16:12:33.286928 20827 net.cpp:156] Memory required for data: 1299200544
I0403 16:12:33.286947 20827 layer_factory.hpp:77] Creating layer inception_5a/relu_5x5_reduce
I0403 16:12:33.286972 20827 net.cpp:91] Creating Layer inception_5a/relu_5x5_reduce
I0403 16:12:33.286988 20827 net.cpp:425] inception_5a/relu_5x5_reduce <- inception_5a/5x5_reduce
I0403 16:12:33.287006 20827 net.cpp:386] inception_5a/relu_5x5_reduce -> inception_5a/5x5_reduce (in-place)
I0403 16:12:33.287338 20827 net.cpp:141] Setting up inception_5a/relu_5x5_reduce
I0403 16:12:33.287363 20827 net.cpp:148] Top shape: 24 32 7 7 (37632)
I0403 16:12:33.287376 20827 net.cpp:156] Memory required for data: 1299351072
I0403 16:12:33.287390 20827 layer_factory.hpp:77] Creating layer inception_5a/5x5
I0403 16:12:33.287412 20827 net.cpp:91] Creating Layer inception_5a/5x5
I0403 16:12:33.287430 20827 net.cpp:425] inception_5a/5x5 <- inception_5a/5x5_reduce
I0403 16:12:33.287449 20827 net.cpp:399] inception_5a/5x5 -> inception_5a/5x5
I0403 16:12:33.289145 20827 net.cpp:141] Setting up inception_5a/5x5
I0403 16:12:33.289185 20827 net.cpp:148] Top shape: 24 128 7 7 (150528)
I0403 16:12:33.289201 20827 net.cpp:156] Memory required for data: 1299953184
I0403 16:12:33.289219 20827 layer_factory.hpp:77] Creating layer inception_5a/relu_5x5
I0403 16:12:33.289237 20827 net.cpp:91] Creating Layer inception_5a/relu_5x5
I0403 16:12:33.289252 20827 net.cpp:425] inception_5a/relu_5x5 <- inception_5a/5x5
I0403 16:12:33.289270 20827 net.cpp:386] inception_5a/relu_5x5 -> inception_5a/5x5 (in-place)
I0403 16:12:33.289458 20827 net.cpp:141] Setting up inception_5a/relu_5x5
I0403 16:12:33.289481 20827 net.cpp:148] Top shape: 24 128 7 7 (150528)
I0403 16:12:33.289495 20827 net.cpp:156] Memory required for data: 1300555296
I0403 16:12:33.289510 20827 layer_factory.hpp:77] Creating layer inception_5a/pool
I0403 16:12:33.289530 20827 net.cpp:91] Creating Layer inception_5a/pool
I0403 16:12:33.289546 20827 net.cpp:425] inception_5a/pool <- pool4/3x3_s2_pool4/3x3_s2_0_split_3
I0403 16:12:33.289562 20827 net.cpp:399] inception_5a/pool -> inception_5a/pool
I0403 16:12:33.289633 20827 net.cpp:141] Setting up inception_5a/pool
I0403 16:12:33.289655 20827 net.cpp:148] Top shape: 24 832 7 7 (978432)
I0403 16:12:33.289669 20827 net.cpp:156] Memory required for data: 1304469024
I0403 16:12:33.289683 20827 layer_factory.hpp:77] Creating layer inception_5a/pool_proj
I0403 16:12:33.289705 20827 net.cpp:91] Creating Layer inception_5a/pool_proj
I0403 16:12:33.289721 20827 net.cpp:425] inception_5a/pool_proj <- inception_5a/pool
I0403 16:12:33.289741 20827 net.cpp:399] inception_5a/pool_proj -> inception_5a/pool_proj
I0403 16:12:33.292435 20827 net.cpp:141] Setting up inception_5a/pool_proj
I0403 16:12:33.292465 20827 net.cpp:148] Top shape: 24 128 7 7 (150528)
I0403 16:12:33.292481 20827 net.cpp:156] Memory required for data: 1305071136
I0403 16:12:33.292498 20827 layer_factory.hpp:77] Creating layer inception_5a/relu_pool_proj
I0403 16:12:33.292515 20827 net.cpp:91] Creating Layer inception_5a/relu_pool_proj
I0403 16:12:33.292531 20827 net.cpp:425] inception_5a/relu_pool_proj <- inception_5a/pool_proj
I0403 16:12:33.292551 20827 net.cpp:386] inception_5a/relu_pool_proj -> inception_5a/pool_proj (in-place)
I0403 16:12:33.292842 20827 net.cpp:141] Setting up inception_5a/relu_pool_proj
I0403 16:12:33.292870 20827 net.cpp:148] Top shape: 24 128 7 7 (150528)
I0403 16:12:33.292886 20827 net.cpp:156] Memory required for data: 1305673248
I0403 16:12:33.292899 20827 layer_factory.hpp:77] Creating layer inception_5a/output
I0403 16:12:33.292917 20827 net.cpp:91] Creating Layer inception_5a/output
I0403 16:12:33.292932 20827 net.cpp:425] inception_5a/output <- inception_5a/1x1
I0403 16:12:33.292948 20827 net.cpp:425] inception_5a/output <- inception_5a/3x3
I0403 16:12:33.292973 20827 net.cpp:425] inception_5a/output <- inception_5a/5x5
I0403 16:12:33.292989 20827 net.cpp:425] inception_5a/output <- inception_5a/pool_proj
I0403 16:12:33.293005 20827 net.cpp:399] inception_5a/output -> inception_5a/output
I0403 16:12:33.293056 20827 net.cpp:141] Setting up inception_5a/output
I0403 16:12:33.293079 20827 net.cpp:148] Top shape: 24 832 7 7 (978432)
I0403 16:12:33.293093 20827 net.cpp:156] Memory required for data: 1309586976
I0403 16:12:33.293107 20827 layer_factory.hpp:77] Creating layer inception_5a/output_inception_5a/output_0_split
I0403 16:12:33.293126 20827 net.cpp:91] Creating Layer inception_5a/output_inception_5a/output_0_split
I0403 16:12:33.293141 20827 net.cpp:425] inception_5a/output_inception_5a/output_0_split <- inception_5a/output
I0403 16:12:33.293159 20827 net.cpp:399] inception_5a/output_inception_5a/output_0_split -> inception_5a/output_inception_5a/output_0_split_0
I0403 16:12:33.293177 20827 net.cpp:399] inception_5a/output_inception_5a/output_0_split -> inception_5a/output_inception_5a/output_0_split_1
I0403 16:12:33.293197 20827 net.cpp:399] inception_5a/output_inception_5a/output_0_split -> inception_5a/output_inception_5a/output_0_split_2
I0403 16:12:33.293217 20827 net.cpp:399] inception_5a/output_inception_5a/output_0_split -> inception_5a/output_inception_5a/output_0_split_3
I0403 16:12:33.293329 20827 net.cpp:141] Setting up inception_5a/output_inception_5a/output_0_split
I0403 16:12:33.293351 20827 net.cpp:148] Top shape: 24 832 7 7 (978432)
I0403 16:12:33.293366 20827 net.cpp:148] Top shape: 24 832 7 7 (978432)
I0403 16:12:33.293381 20827 net.cpp:148] Top shape: 24 832 7 7 (978432)
I0403 16:12:33.293396 20827 net.cpp:148] Top shape: 24 832 7 7 (978432)
I0403 16:12:33.293409 20827 net.cpp:156] Memory required for data: 1325241888
I0403 16:12:33.293423 20827 layer_factory.hpp:77] Creating layer inception_5b/1x1
I0403 16:12:33.293444 20827 net.cpp:91] Creating Layer inception_5b/1x1
I0403 16:12:33.293462 20827 net.cpp:425] inception_5b/1x1 <- inception_5a/output_inception_5a/output_0_split_0
I0403 16:12:33.293481 20827 net.cpp:399] inception_5b/1x1 -> inception_5b/1x1
I0403 16:12:33.297297 20827 net.cpp:141] Setting up inception_5b/1x1
I0403 16:12:33.297327 20827 net.cpp:148] Top shape: 24 384 7 7 (451584)
I0403 16:12:33.297343 20827 net.cpp:156] Memory required for data: 1327048224
I0403 16:12:33.297360 20827 layer_factory.hpp:77] Creating layer inception_5b/relu_1x1
I0403 16:12:33.297381 20827 net.cpp:91] Creating Layer inception_5b/relu_1x1
I0403 16:12:33.297399 20827 net.cpp:425] inception_5b/relu_1x1 <- inception_5b/1x1
I0403 16:12:33.297415 20827 net.cpp:386] inception_5b/relu_1x1 -> inception_5b/1x1 (in-place)
I0403 16:12:33.297724 20827 net.cpp:141] Setting up inception_5b/relu_1x1
I0403 16:12:33.297750 20827 net.cpp:148] Top shape: 24 384 7 7 (451584)
I0403 16:12:33.297765 20827 net.cpp:156] Memory required for data: 1328854560
I0403 16:12:33.297780 20827 layer_factory.hpp:77] Creating layer inception_5b/3x3_reduce
I0403 16:12:33.297804 20827 net.cpp:91] Creating Layer inception_5b/3x3_reduce
I0403 16:12:33.297822 20827 net.cpp:425] inception_5b/3x3_reduce <- inception_5a/output_inception_5a/output_0_split_1
I0403 16:12:33.297842 20827 net.cpp:399] inception_5b/3x3_reduce -> inception_5b/3x3_reduce
I0403 16:12:33.300570 20827 net.cpp:141] Setting up inception_5b/3x3_reduce
I0403 16:12:33.300602 20827 net.cpp:148] Top shape: 24 192 7 7 (225792)
I0403 16:12:33.300618 20827 net.cpp:156] Memory required for data: 1329757728
I0403 16:12:33.300637 20827 layer_factory.hpp:77] Creating layer inception_5b/relu_3x3_reduce
I0403 16:12:33.300654 20827 net.cpp:91] Creating Layer inception_5b/relu_3x3_reduce
I0403 16:12:33.300670 20827 net.cpp:425] inception_5b/relu_3x3_reduce <- inception_5b/3x3_reduce
I0403 16:12:33.300688 20827 net.cpp:386] inception_5b/relu_3x3_reduce -> inception_5b/3x3_reduce (in-place)
I0403 16:12:33.300881 20827 net.cpp:141] Setting up inception_5b/relu_3x3_reduce
I0403 16:12:33.300906 20827 net.cpp:148] Top shape: 24 192 7 7 (225792)
I0403 16:12:33.300920 20827 net.cpp:156] Memory required for data: 1330660896
I0403 16:12:33.300935 20827 layer_factory.hpp:77] Creating layer inception_5b/3x3
I0403 16:12:33.300962 20827 net.cpp:91] Creating Layer inception_5b/3x3
I0403 16:12:33.300981 20827 net.cpp:425] inception_5b/3x3 <- inception_5b/3x3_reduce
I0403 16:12:33.301003 20827 net.cpp:399] inception_5b/3x3 -> inception_5b/3x3
I0403 16:12:33.307732 20827 net.cpp:141] Setting up inception_5b/3x3
I0403 16:12:33.307762 20827 net.cpp:148] Top shape: 24 384 7 7 (451584)
I0403 16:12:33.307778 20827 net.cpp:156] Memory required for data: 1332467232
I0403 16:12:33.307797 20827 layer_factory.hpp:77] Creating layer inception_5b/relu_3x3
I0403 16:12:33.307814 20827 net.cpp:91] Creating Layer inception_5b/relu_3x3
I0403 16:12:33.307831 20827 net.cpp:425] inception_5b/relu_3x3 <- inception_5b/3x3
I0403 16:12:33.307849 20827 net.cpp:386] inception_5b/relu_3x3 -> inception_5b/3x3 (in-place)
I0403 16:12:33.308166 20827 net.cpp:141] Setting up inception_5b/relu_3x3
I0403 16:12:33.308195 20827 net.cpp:148] Top shape: 24 384 7 7 (451584)
I0403 16:12:33.308210 20827 net.cpp:156] Memory required for data: 1334273568
I0403 16:12:33.308225 20827 layer_factory.hpp:77] Creating layer inception_5b/5x5_reduce
I0403 16:12:33.308262 20827 net.cpp:91] Creating Layer inception_5b/5x5_reduce
I0403 16:12:33.308281 20827 net.cpp:425] inception_5b/5x5_reduce <- inception_5a/output_inception_5a/output_0_split_2
I0403 16:12:33.308300 20827 net.cpp:399] inception_5b/5x5_reduce -> inception_5b/5x5_reduce
I0403 16:12:33.309653 20827 net.cpp:141] Setting up inception_5b/5x5_reduce
I0403 16:12:33.309696 20827 net.cpp:148] Top shape: 24 48 7 7 (56448)
I0403 16:12:33.309713 20827 net.cpp:156] Memory required for data: 1334499360
I0403 16:12:33.309731 20827 layer_factory.hpp:77] Creating layer inception_5b/relu_5x5_reduce
I0403 16:12:33.309751 20827 net.cpp:91] Creating Layer inception_5b/relu_5x5_reduce
I0403 16:12:33.309767 20827 net.cpp:425] inception_5b/relu_5x5_reduce <- inception_5b/5x5_reduce
I0403 16:12:33.309787 20827 net.cpp:386] inception_5b/relu_5x5_reduce -> inception_5b/5x5_reduce (in-place)
I0403 16:12:33.310178 20827 net.cpp:141] Setting up inception_5b/relu_5x5_reduce
I0403 16:12:33.310205 20827 net.cpp:148] Top shape: 24 48 7 7 (56448)
I0403 16:12:33.310221 20827 net.cpp:156] Memory required for data: 1334725152
I0403 16:12:33.310250 20827 layer_factory.hpp:77] Creating layer inception_5b/5x5
I0403 16:12:33.310269 20827 net.cpp:91] Creating Layer inception_5b/5x5
I0403 16:12:33.310286 20827 net.cpp:425] inception_5b/5x5 <- inception_5b/5x5_reduce
I0403 16:12:33.310304 20827 net.cpp:399] inception_5b/5x5 -> inception_5b/5x5
I0403 16:12:33.312430 20827 net.cpp:141] Setting up inception_5b/5x5
I0403 16:12:33.312458 20827 net.cpp:148] Top shape: 24 128 7 7 (150528)
I0403 16:12:33.312472 20827 net.cpp:156] Memory required for data: 1335327264
I0403 16:12:33.312491 20827 layer_factory.hpp:77] Creating layer inception_5b/relu_5x5
I0403 16:12:33.312508 20827 net.cpp:91] Creating Layer inception_5b/relu_5x5
I0403 16:12:33.312523 20827 net.cpp:425] inception_5b/relu_5x5 <- inception_5b/5x5
I0403 16:12:33.312542 20827 net.cpp:386] inception_5b/relu_5x5 -> inception_5b/5x5 (in-place)
I0403 16:12:33.312734 20827 net.cpp:141] Setting up inception_5b/relu_5x5
I0403 16:12:33.312758 20827 net.cpp:148] Top shape: 24 128 7 7 (150528)
I0403 16:12:33.312772 20827 net.cpp:156] Memory required for data: 1335929376
I0403 16:12:33.312786 20827 layer_factory.hpp:77] Creating layer inception_5b/pool
I0403 16:12:33.312806 20827 net.cpp:91] Creating Layer inception_5b/pool
I0403 16:12:33.312822 20827 net.cpp:425] inception_5b/pool <- inception_5a/output_inception_5a/output_0_split_3
I0403 16:12:33.312840 20827 net.cpp:399] inception_5b/pool -> inception_5b/pool
I0403 16:12:33.312912 20827 net.cpp:141] Setting up inception_5b/pool
I0403 16:12:33.312934 20827 net.cpp:148] Top shape: 24 832 7 7 (978432)
I0403 16:12:33.312947 20827 net.cpp:156] Memory required for data: 1339843104
I0403 16:12:33.312968 20827 layer_factory.hpp:77] Creating layer inception_5b/pool_proj
I0403 16:12:33.312991 20827 net.cpp:91] Creating Layer inception_5b/pool_proj
I0403 16:12:33.313007 20827 net.cpp:425] inception_5b/pool_proj <- inception_5b/pool
I0403 16:12:33.313027 20827 net.cpp:399] inception_5b/pool_proj -> inception_5b/pool_proj
I0403 16:12:33.315347 20827 net.cpp:141] Setting up inception_5b/pool_proj
I0403 16:12:33.315378 20827 net.cpp:148] Top shape: 24 128 7 7 (150528)
I0403 16:12:33.315394 20827 net.cpp:156] Memory required for data: 1340445216
I0403 16:12:33.315412 20827 layer_factory.hpp:77] Creating layer inception_5b/relu_pool_proj
I0403 16:12:33.315431 20827 net.cpp:91] Creating Layer inception_5b/relu_pool_proj
I0403 16:12:33.315448 20827 net.cpp:425] inception_5b/relu_pool_proj <- inception_5b/pool_proj
I0403 16:12:33.315466 20827 net.cpp:386] inception_5b/relu_pool_proj -> inception_5b/pool_proj (in-place)
I0403 16:12:33.315763 20827 net.cpp:141] Setting up inception_5b/relu_pool_proj
I0403 16:12:33.315791 20827 net.cpp:148] Top shape: 24 128 7 7 (150528)
I0403 16:12:33.315807 20827 net.cpp:156] Memory required for data: 1341047328
I0403 16:12:33.315822 20827 layer_factory.hpp:77] Creating layer inception_5b/output
I0403 16:12:33.315840 20827 net.cpp:91] Creating Layer inception_5b/output
I0403 16:12:33.315870 20827 net.cpp:425] inception_5b/output <- inception_5b/1x1
I0403 16:12:33.315886 20827 net.cpp:425] inception_5b/output <- inception_5b/3x3
I0403 16:12:33.315902 20827 net.cpp:425] inception_5b/output <- inception_5b/5x5
I0403 16:12:33.315917 20827 net.cpp:425] inception_5b/output <- inception_5b/pool_proj
I0403 16:12:33.315937 20827 net.cpp:399] inception_5b/output -> inception_5b/output
I0403 16:12:33.315995 20827 net.cpp:141] Setting up inception_5b/output
I0403 16:12:33.316020 20827 net.cpp:148] Top shape: 24 1024 7 7 (1204224)
I0403 16:12:33.316033 20827 net.cpp:156] Memory required for data: 1345864224
I0403 16:12:33.316048 20827 layer_factory.hpp:77] Creating layer pool5/7x7_s1
I0403 16:12:33.316069 20827 net.cpp:91] Creating Layer pool5/7x7_s1
I0403 16:12:33.316087 20827 net.cpp:425] pool5/7x7_s1 <- inception_5b/output
I0403 16:12:33.316103 20827 net.cpp:399] pool5/7x7_s1 -> pool5/7x7_s1
I0403 16:12:33.316320 20827 net.cpp:141] Setting up pool5/7x7_s1
I0403 16:12:33.316346 20827 net.cpp:148] Top shape: 24 1024 1 1 (24576)
I0403 16:12:33.316360 20827 net.cpp:156] Memory required for data: 1345962528
I0403 16:12:33.316375 20827 layer_factory.hpp:77] Creating layer pool5/drop_7x7_s1
I0403 16:12:33.316392 20827 net.cpp:91] Creating Layer pool5/drop_7x7_s1
I0403 16:12:33.316408 20827 net.cpp:425] pool5/drop_7x7_s1 <- pool5/7x7_s1
I0403 16:12:33.316427 20827 net.cpp:386] pool5/drop_7x7_s1 -> pool5/7x7_s1 (in-place)
I0403 16:12:33.316478 20827 net.cpp:141] Setting up pool5/drop_7x7_s1
I0403 16:12:33.316499 20827 net.cpp:148] Top shape: 24 1024 1 1 (24576)
I0403 16:12:33.316514 20827 net.cpp:156] Memory required for data: 1346060832
I0403 16:12:33.316529 20827 layer_factory.hpp:77] Creating layer loss3/classifier_plantvillage
I0403 16:12:33.316550 20827 net.cpp:91] Creating Layer loss3/classifier_plantvillage
I0403 16:12:33.316566 20827 net.cpp:425] loss3/classifier_plantvillage <- pool5/7x7_s1
I0403 16:12:33.316587 20827 net.cpp:399] loss3/classifier_plantvillage -> loss3/classifier_plantvillage
I0403 16:12:33.317025 20827 net.cpp:141] Setting up loss3/classifier_plantvillage
I0403 16:12:33.317052 20827 net.cpp:148] Top shape: 24 38 (912)
I0403 16:12:33.317067 20827 net.cpp:156] Memory required for data: 1346064480
I0403 16:12:33.317085 20827 layer_factory.hpp:77] Creating layer loss3/classifier_plantvillage_loss3/classifier_plantvillage_0_split
I0403 16:12:33.317103 20827 net.cpp:91] Creating Layer loss3/classifier_plantvillage_loss3/classifier_plantvillage_0_split
I0403 16:12:33.317119 20827 net.cpp:425] loss3/classifier_plantvillage_loss3/classifier_plantvillage_0_split <- loss3/classifier_plantvillage
I0403 16:12:33.317137 20827 net.cpp:399] loss3/classifier_plantvillage_loss3/classifier_plantvillage_0_split -> loss3/classifier_plantvillage_loss3/classifier_plantvillage_0_split_0
I0403 16:12:33.317155 20827 net.cpp:399] loss3/classifier_plantvillage_loss3/classifier_plantvillage_0_split -> loss3/classifier_plantvillage_loss3/classifier_plantvillage_0_split_1
I0403 16:12:33.317174 20827 net.cpp:399] loss3/classifier_plantvillage_loss3/classifier_plantvillage_0_split -> loss3/classifier_plantvillage_loss3/classifier_plantvillage_0_split_2
I0403 16:12:33.317198 20827 net.cpp:399] loss3/classifier_plantvillage_loss3/classifier_plantvillage_0_split -> loss3/classifier_plantvillage_loss3/classifier_plantvillage_0_split_3
I0403 16:12:33.317302 20827 net.cpp:141] Setting up loss3/classifier_plantvillage_loss3/classifier_plantvillage_0_split
I0403 16:12:33.317325 20827 net.cpp:148] Top shape: 24 38 (912)
I0403 16:12:33.317342 20827 net.cpp:148] Top shape: 24 38 (912)
I0403 16:12:33.317356 20827 net.cpp:148] Top shape: 24 38 (912)
I0403 16:12:33.317370 20827 net.cpp:148] Top shape: 24 38 (912)
I0403 16:12:33.317386 20827 net.cpp:156] Memory required for data: 1346079072
I0403 16:12:33.317400 20827 layer_factory.hpp:77] Creating layer loss1/loss
I0403 16:12:33.317421 20827 net.cpp:91] Creating Layer loss1/loss
I0403 16:12:33.317438 20827 net.cpp:425] loss1/loss <- loss1/classifier_plantvillage_loss1/classifier_plantvillage_0_split_0
I0403 16:12:33.317468 20827 net.cpp:425] loss1/loss <- label_data_1_split_0
…
