…
I0403 16:55:51.057333 21598 net.cpp:313] The NetState phase (1) differed from the phase (0) specified by a rule in layer data
I0403 16:55:51.058533 21598 net.cpp:49] Initializing net from parameters: 
state {
  phase: TEST
}
layer {
  name: "data"
  type: "Data"
  top: "data"
  top: "label"
  include {
    phase: TEST
  }
  transform_param {
    mirror: false
    crop_size: 224
    mean_file: "/home/mohanty/data/final_dataset/lmdb/color-40-60/mean.binaryproto"
  }
  data_param {
    source: "/home/mohanty/data/final_dataset/lmdb/color-40-60/test_db"
    batch_size: 24
    backend: LMDB
  }
}
layer {
  name: "conv1/7x7_s2"
  type: "Convolution"
  bottom: "data"
  top: "conv1/7x7_s2"
  param {
    lr_mult: 1
    decay_mult: 1
  }
  param {
    lr_mult: 2
    decay_mult: 0
  }
  convolution_param {
    num_output: 64
    pad: 3
    kernel_size: 7
    stride: 2
    weight_filler {
      type: "xavier"
      std: 0.1
    }
    bias_filler {
      type: "constant"
      value: 0.2
    }
  }
}
layer {
  name: "conv1/relu_7x7"
  type: "ReLU"
  bottom: "conv1/7x7_s2"
  top: "conv1/7x7_s2"
}
layer {
  name: "pool1/3x3_s2"
  type: "Pooling"
  bottom: "conv1/7x7_s2"
  top: "pool1/3x3_s2"
  pooling_param {
    pool: MAX
    kernel_size: 3
    stride: 2
  }
}
layer {
  name: "pool1/norm1"
  type: "LRN"
  bottom: "pool1/3x3_s2"
  top: "pool1/norm1"
  lrn_param {
    local_size: 5
    alpha: 0.0001
    beta: 0.75
  }
}
layer {
  name: "conv2/3x3_reduce"
  type: "Convolution"
  bottom: "pool1/norm1"
  top: "conv2/3x3_reduce"
  param {
    lr_mult: 1
    decay_mult: 1
  }
  param {
    lr_mult: 2
    decay_mult: 0
  }
  convolution_param {
    num_output: 64
    kernel_size: 1
    weight_filler {
      type: "xavier"
      std: 0.1
    }
    bias_filler {
      type: "constant"
      value: 0.2
    }
  }
}
layer {
  name: "conv2/relu_3x3_reduce"
  type: "ReLU"
  bottom: "conv2/3x3_reduce"
  top: "conv2/3x3_reduce"
}
layer {
  name: "conv2/3x3"
  type: "Convolution"
  bottom: "conv2/3x3_reduce"
  top: "conv2/3x3"
  param {
    lr_mult: 1
    decay_mult: 1
  }
  param {
    lr_mult: 2
    decay_mult: 0
  }
  convolution_param {
    num_output: 192
    pad: 1
    kernel_size: 3
    weight_filler {
      type: "xavier"
      std: 0.03
    }
    bias_filler {
      type: "constant"
      value: 0.2
    }
  }
}
layer {
  name: "conv2/relu_3x3"
  type: "ReLU"
  bottom: "conv2/3x3"
  top: "conv2/3x3"
}
layer {
  name: "conv2/norm2"
  type: "LRN"
  bottom: "conv2/3x3"
  top: "conv2/norm2"
  lrn_param {
    local_size: 5
    alpha: 0.0001
    beta: 0.75
  }
}
layer {
  name: "pool2/3x3_s2"
  type: "Pooling"
  bottom: "conv2/norm2"
  top: "pool2/3x3_s2"
  pooling_param {
    pool: MAX
    kernel_size: 3
    stride: 2
  }
}
layer {
  name: "inception_3a/1x1"
  type: "Convolution"
  bottom: "pool2/3x3_s2"
  top: "inception_3a/1x1"
  param {
    lr_mult: 1
    decay_mult: 1
  }
  param {
    lr_mult: 2
    decay_mult: 0
  }
  convolution_param {
    num_output: 64
    kernel_size: 1
    weight_filler {
      type: "xavier"
      std: 0.03
    }
    bias_filler {
      type: "constant"
      value: 0.2
    }
  }
}
layer {
  name: "inception_3a/relu_1x1"
  type: "ReLU"
  bottom: "inception_3a/1x1"
  top: "inception_3a/1x1"
}
layer {
  name: "inception_3a/3x3_reduce"
  type: "Convolution"
  bottom: "pool2/3x3_s2"
  top: "inception_3a/3x3_reduce"
  param {
    lr_mult: 1
    decay_mult: 1
  }
  param {
    lr_mult: 2
    decay_mult: 0
  }
  convolution_param {
    num_output: 96
    kernel_size: 1
    weight_filler {
      type: "xavier"
      std: 0.09
    }
    bias_filler {
      type: "constant"
      value: 0.2
    }
  }
}
layer {
  name: "inception_3a/relu_3x3_reduce"
  type: "ReLU"
  bottom: "inception_3a/3x3_reduce"
  top: "inception_3a/3x3_reduce"
}
layer {
  name: "inception_3a/3x3"
  type: "Convolution"
  bottom: "inception_3a/3x3_reduce"
  top: "inception_3a/3x3"
  param {
    lr_mult: 1
    decay_mult: 1
  }
  param {
    lr_mult: 2
    decay_mult: 0
  }
  convolution_param {
    num_output: 128
    pad: 1
    kernel_size: 3
    weight_filler {
      type: "xavier"
      std: 0.03
    }
    bias_filler {
      type: "constant"
      value: 0.2
    }
  }
}
layer {
  name: "inception_3a/relu_3x3"
  type: "ReLU"
  bottom: "inception_3a/3x3"
  top: "inception_3a/3x3"
}
layer {
  name: "inception_3a/5x5_reduce"
  type: "Convolution"
  bottom: "pool2/3x3_s2"
  top: "inception_3a/5x5_reduce"
  param {
    lr_mult: 1
    decay_mult: 1
  }
  param {
    lr_mult: 2
    decay_mult: 0
  }
  convolution_param {
    num_output: 16
    kernel_size: 1
    weight_filler {
      type: "xavier"
      std: 0.2
    }
    bias_filler {
      type: "constant"
      value: 0.2
    }
  }
}
layer {
  name: "inception_3a/relu_5x5_reduce"
  type: "ReLU"
  bottom: "inception_3a/5x5_reduce"
  top: "inception_3a/5x5_reduce"
}
layer {
  name: "inception_3a/5x5"
  type: "Convolution"
  bottom: "inception_3a/5x5_reduce"
  top: "inception_3a/5x5"
  param {
    lr_mult: 1
    decay_mult: 1
  }
  param {
    lr_mult: 2
    decay_mult: 0
  }
  convolution_param {
    num_output: 32
    pad: 2
    kernel_size: 5
    weight_filler {
      type: "xavier"
      std: 0.03
    }
    bias_filler {
      type: "constant"
      value: 0.2
    }
  }
}
layer {
  name: "inception_3a/relu_5x5"
  type: "ReLU"
  bottom: "inception_3a/5x5"
  top: "inception_3a/5x5"
}
layer {
  name: "inception_3a/pool"
  type: "Pooling"
  bottom: "pool2/3x3_s2"
  top: "inception_3a/pool"
  pooling_param {
    pool: MAX
    kernel_size: 3
    stride: 1
    pad: 1
  }
}
layer {
  name: "inception_3a/pool_proj"
  type: "Convolution"
  bottom: "inception_3a/pool"
  top: "inception_3a/pool_proj"
  param {
    lr_mult: 1
    decay_mult: 1
  }
  param {
    lr_mult: 2
    decay_mult: 0
  }
  convolution_param {
    num_output: 32
    kernel_size: 1
    weight_filler {
      type: "xavier"
      std: 0.1
    }
    bias_filler {
      type: "constant"
      value: 0.2
    }
  }
}
layer {
  name: "inception_3a/relu_pool_proj"
  type: "ReLU"
  bottom: "inception_3a/pool_proj"
  top: "inception_3a/pool_proj"
}
layer {
  name: "inception_3a/output"
  type: "Concat"
  bottom: "inception_3a/1x1"
  bottom: "inception_3a/3x3"
  bottom: "inception_3a/5x5"
  bottom: "inception_3a/pool_proj"
  top: "inception_3a/output"
}
layer {
  name: "inception_3b/1x1"
  type: "Convolution"
  bottom: "inception_3a/output"
  top: "inception_3b/1x1"
  param {
    lr_mult: 1
    decay_mult: 1
  }
  param {
    lr_mult: 2
    decay_mult: 0
  }
  convolution_param {
    num_output: 128
    kernel_size: 1
    weight_filler {
      type: "xavier"
      std: 0.03
    }
    bias_filler {
      type: "constant"
      value: 0.2
    }
  }
}
layer {
  name: "inception_3b/relu_1x1"
  type: "ReLU"
  bottom: "inception_3b/1x1"
  top: "inception_3b/1x1"
}
layer {
  name: "inception_3b/3x3_reduce"
  type: "Convolution"
  bottom: "inception_3a/output"
  top: "inception_3b/3x3_reduce"
  param {
    lr_mult: 1
    decay_mult: 1
  }
  param {
    lr_mult: 2
    decay_mult: 0
  }
  convolution_param {
    num_output: 128
    kernel_size: 1
    weight_filler {
      type: "xavier"
      std: 0.09
    }
    bias_filler {
      type: "constant"
      value: 0.2
    }
  }
}
layer {
  name: "inception_3b/relu_3x3_reduce"
  type: "ReLU"
  bottom: "inception_3b/3x3_reduce"
  top: "inception_3b/3x3_reduce"
}
layer {
  name: "inception_3b/3x3"
  type: "Convolution"
  bottom: "inception_3b/3x3_reduce"
  top: "inception_3b/3x3"
  param {
    lr_mult: 1
    decay_mult: 1
  }
  param {
    lr_mult: 2
    decay_mult: 0
  }
  convolution_param {
    num_output: 192
    pad: 1
    kernel_size: 3
    weight_filler {
      type: "xavier"
      std: 0.03
    }
    bias_filler {
      type: "constant"
      value: 0.2
    }
  }
}
layer {
  name: "inception_3b/relu_3x3"
  type: "ReLU"
  bottom: "inception_3b/3x3"
  top: "inception_3b/3x3"
}
layer {
  name: "inception_3b/5x5_reduce"
  type: "Convolution"
  bottom: "inception_3a/output"
  top: "inception_3b/5x5_reduce"
  param {
    lr_mult: 1
    decay_mult: 1
  }
  param {
    lr_mult: 2
    decay_mult: 0
  }
  convolution_param {
    num_output: 32
    kernel_size: 1
    weight_filler {
      type: "xavier"
      std: 0.2
    }
    bias_filler {
      type: "constant"
      value: 0.2
    }
  }
}
layer {
  name: "inception_3b/relu_5x5_reduce"
  type: "ReLU"
  bottom: "inception_3b/5x5_reduce"
  top: "inception_3b/5x5_reduce"
}
layer {
  name: "inception_3b/5x5"
  type: "Convolution"
  bottom: "inception_3b/5x5_reduce"
  top: "inception_3b/5x5"
  param {
    lr_mult: 1
    decay_mult: 1
  }
  param {
    lr_mult: 2
    decay_mult: 0
  }
  convolution_param {
    num_output: 96
    pad: 2
    kernel_size: 5
    weight_filler {
      type: "xavier"
      std: 0.03
    }
    bias_filler {
      type: "constant"
      value: 0.2
    }
  }
}
layer {
  name: "inception_3b/relu_5x5"
  type: "ReLU"
  bottom: "inception_3b/5x5"
  top: "inception_3b/5x5"
}
layer {
  name: "inception_3b/pool"
  type: "Pooling"
  bottom: "inception_3a/output"
  top: "inception_3b/pool"
  pooling_param {
    pool: MAX
    kernel_size: 3
    stride: 1
    pad: 1
  }
}
layer {
  name: "inception_3b/pool_proj"
  type: "Convolution"
  bottom: "inception_3b/pool"
  top: "inception_3b/pool_proj"
  param {
    lr_mult: 1
    decay_mult: 1
  }
  param {
    lr_mult: 2
    decay_mult: 0
  }
  convolution_param {
    num_output: 64
    kernel_size: 1
    weight_filler {
      type: "xavier"
      std: 0.1
    }
    bias_filler {
      type: "constant"
      value: 0.2
    }
  }
}
layer {
  name: "inception_3b/relu_pool_proj"
  type: "ReLU"
  bottom: "inception_3b/pool_proj"
  top: "inception_3b/pool_proj"
}
layer {
  name: "inception_3b/output"
  type: "Concat"
  bottom: "inception_3b/1x1"
  bottom: "inception_3b/3x3"
  bottom: "inception_3b/5x5"
  bottom: "inception_3b/pool_proj"
  top: "inception_3b/output"
}
layer {
  name: "pool3/3x3_s2"
  type: "Pooling"
  bottom: "inception_3b/output"
  top: "pool3/3x3_s2"
  pooling_param {
    pool: MAX
    kernel_size: 3
    stride: 2
  }
}
layer {
  name: "inception_4a/1x1"
  type: "Convolution"
  bottom: "pool3/3x3_s2"
  top: "inception_4a/1x1"
  param {
    lr_mult: 1
    decay_mult: 1
  }
  param {
    lr_mult: 2
    decay_mult: 0
  }
  convolution_param {
    num_output: 192
    kernel_size: 1
    weight_filler {
      type: "xavier"
      std: 0.03
    }
    bias_filler {
      type: "constant"
      value: 0.2
    }
  }
}
layer {
  name: "inception_4a/relu_1x1"
  type: "ReLU"
  bottom: "inception_4a/1x1"
  top: "inception_4a/1x1"
}
layer {
  name: "inception_4a/3x3_reduce"
  type: "Convolution"
  bottom: "pool3/3x3_s2"
  top: "inception_4a/3x3_reduce"
  param {
    lr_mult: 1
    decay_mult: 1
  }
  param {
    lr_mult: 2
    decay_mult: 0
  }
  convolution_param {
    num_output: 96
    kernel_size: 1
    weight_filler {
      type: "xavier"
      std: 0.09
    }
    bias_filler {
      type: "constant"
      value: 0.2
    }
  }
}
layer {
  name: "inception_4a/relu_3x3_reduce"
  type: "ReLU"
  bottom: "inception_4a/3x3_reduce"
  top: "inception_4a/3x3_reduce"
}
layer {
  name: "inception_4a/3x3"
  type: "Convolution"
  bottom: "inception_4a/3x3_reduce"
  top: "inception_4a/3x3"
  param {
    lr_mult: 1
    decay_mult: 1
  }
  param {
    lr_mult: 2
    decay_mult: 0
  }
  convolution_param {
    num_output: 208
    pad: 1
    kernel_size: 3
    weight_filler {
      type: "xavier"
      std: 0.03
    }
    bias_filler {
      type: "constant"
      value: 0.2
    }
  }
}
layer {
  name: "inception_4a/relu_3x3"
  type: "ReLU"
  bottom: "inception_4a/3x3"
  top: "inception_4a/3x3"
}
layer {
  name: "inception_4a/5x5_reduce"
  type: "Convolution"
  bottom: "pool3/3x3_s2"
  top: "inception_4a/5x5_reduce"
  param {
    lr_mult: 1
    decay_mult: 1
  }
  param {
    lr_mult: 2
    decay_mult: 0
  }
  convolution_param {
    num_output: 16
    kernel_size: 1
    weight_filler {
      type: "xavier"
      std: 0.2
    }
    bias_filler {
      type: "constant"
      value: 0.2
    }
  }
}
layer {
  name: "inception_4a/relu_5x5_reduce"
  type: "ReLU"
  bottom: "inception_4a/5x5_reduce"
  top: "inception_4a/5x5_reduce"
}
layer {
  name: "inception_4a/5x5"
  type: "Convolution"
  bottom: "inception_4a/5x5_reduce"
  top: "inception_4a/5x5"
  param {
    lr_mult: 1
    decay_mult: 1
  }
  param {
    lr_mult: 2
    decay_mult: 0
  }
  convolution_param {
    num_output: 48
    pad: 2
    kernel_size: 5
    weight_filler {
      type: "xavier"
      std: 0.03
    }
    bias_filler {
      type: "constant"
      value: 0.2
    }
  }
}
layer {
  name: "inception_4a/relu_5x5"
  type: "ReLU"
  bottom: "inception_4a/5x5"
  top: "inception_4a/5x5"
}
layer {
  name: "inception_4a/pool"
  type: "Pooling"
  bottom: "pool3/3x3_s2"
  top: "inception_4a/pool"
  pooling_param {
    pool: MAX
    kernel_size: 3
    stride: 1
    pad: 1
  }
}
layer {
  name: "inception_4a/pool_proj"
  type: "Convolution"
  bottom: "inception_4a/pool"
  top: "inception_4a/pool_proj"
  param {
    lr_mult: 1
    decay_mult: 1
  }
  param {
    lr_mult: 2
    decay_mult: 0
  }
  convolution_param {
    num_output: 64
    kernel_size: 1
    weight_filler {
      type: "xavier"
      std: 0.1
    }
    bias_filler {
      type: "constant"
      value: 0.2
    }
  }
}
layer {
  name: "inception_4a/relu_pool_proj"
  type: "ReLU"
  bottom: "inception_4a/pool_proj"
  top: "inception_4a/pool_proj"
}
layer {
  name: "inception_4a/output"
  type: "Concat"
  bottom: "inception_4a/1x1"
  bottom: "inception_4a/3x3"
  bottom: "inception_4a/5x5"
  bottom: "inception_4a/pool_proj"
  top: "inception_4a/output"
}
layer {
  name: "loss1/ave_pool"
  type: "Pooling"
  bottom: "inception_4a/output"
  top: "loss1/ave_pool"
  pooling_param {
    pool: AVE
    kernel_size: 5
    stride: 3
  }
}
layer {
  name: "loss1/conv"
  type: "Convolution"
  bottom: "loss1/ave_pool"
  top: "loss1/conv"
  param {
    lr_mult: 1
    decay_mult: 1
  }
  param {
    lr_mult: 2
    decay_mult: 0
  }
  convolution_param {
    num_output: 128
    kernel_size: 1
    weight_filler {
      type: "xavier"
      std: 0.08
    }
    bias_filler {
      type: "constant"
      value: 0.2
    }
  }
}
layer {
  name: "loss1/relu_conv"
  type: "ReLU"
  bottom: "loss1/conv"
  top: "loss1/conv"
}
layer {
  name: "loss1/fc"
  type: "InnerProduct"
  bottom: "loss1/conv"
  top: "loss1/fc"
  param {
    lr_mult: 1
    decay_mult: 1
  }
  param {
    lr_mult: 2
    decay_mult: 0
  }
  inner_product_param {
    num_output: 1024
    weight_filler {
      type: "xavier"
      std: 0.02
    }
    bias_filler {
      type: "constant"
      value: 0.2
    }
  }
}
layer {
  name: "loss1/relu_fc"
  type: "ReLU"
  bottom: "loss1/fc"
  top: "loss1/fc"
}
layer {
  name: "loss1/drop_fc"
  type: "Dropout"
  bottom: "loss1/fc"
  top: "loss1/fc"
  dropout_param {
    dropout_ratio: 0.7
  }
}
layer {
  name: "loss1/classifier_plantvillage"
  type: "InnerProduct"
  bottom: "loss1/fc"
  top: "loss1/classifier_plantvillage"
  param {
    lr_mult: 1
    decay_mult: 1
  }
  param {
    lr_mult: 2
    decay_mult: 0
  }
  inner_product_param {
    num_output: 38
    weight_filler {
      type: "xavier"
      std: 0.0009765625
    }
    bias_filler {
      type: "constant"
      value: 0
    }
  }
}
layer {
  name: "inception_4b/1x1"
  type: "Convolution"
  bottom: "inception_4a/output"
  top: "inception_4b/1x1"
  param {
    lr_mult: 1
    decay_mult: 1
  }
  param {
    lr_mult: 2
    decay_mult: 0
  }
  convolution_param {
    num_output: 160
    kernel_size: 1
    weight_filler {
      type: "xavier"
      std: 0.03
    }
    bias_filler {
      type: "constant"
      value: 0.2
    }
  }
}
layer {
  name: "inception_4b/relu_1x1"
  type: "ReLU"
  bottom: "inception_4b/1x1"
  top: "inception_4b/1x1"
}
layer {
  name: "inception_4b/3x3_reduce"
  type: "Convolution"
  bottom: "inception_4a/output"
  top: "inception_4b/3x3_reduce"
  param {
    lr_mult: 1
    decay_mult: 1
  }
  param {
    lr_mult: 2
    decay_mult: 0
  }
  convolution_param {
    num_output: 112
    kernel_size: 1
    weight_filler {
      type: "xavier"
      std: 0.09
    }
    bias_filler {
      type: "constant"
      value: 0.2
    }
  }
}
layer {
  name: "inception_4b/relu_3x3_reduce"
  type: "ReLU"
  bottom: "inception_4b/3x3_reduce"
  top: "inception_4b/3x3_reduce"
}
layer {
  name: "inception_4b/3x3"
  type: "Convolution"
  bottom: "inception_4b/3x3_reduce"
  top: "inception_4b/3x3"
  param {
    lr_mult: 1
    decay_mult: 1
  }
  param {
    lr_mult: 2
    decay_mult: 0
  }
  convolution_param {
    num_output: 224
    pad: 1
    kernel_size: 3
    weight_filler {
      type: "xavier"
      std: 0.03
    }
    bias_filler {
      type: "constant"
      value: 0.2
    }
  }
}
layer {
  name: "inception_4b/relu_3x3"
  type: "ReLU"
  bottom: "inception_4b/3x3"
  top: "inception_4b/3x3"
}
layer {
  name: "inception_4b/5x5_reduce"
  type: "Convolution"
  bottom: "inception_4a/output"
  top: "inception_4b/5x5_reduce"
  param {
    lr_mult: 1
    decay_mult: 1
  }
  param {
    lr_mult: 2
    decay_mult: 0
  }
  convolution_param {
    num_output: 24
    kernel_size: 1
    weight_filler {
      type: "xavier"
      std: 0.2
    }
    bias_filler {
      type: "constant"
      value: 0.2
    }
  }
}
layer {
  name: "inception_4b/relu_5x5_reduce"
  type: "ReLU"
  bottom: "inception_4b/5x5_reduce"
  top: "inception_4b/5x5_reduce"
}
layer {
  name: "inception_4b/5x5"
  type: "Convolution"
  bottom: "inception_4b/5x5_reduce"
  top: "inception_4b/5x5"
  param {
    lr_mult: 1
    decay_mult: 1
  }
  param {
    lr_mult: 2
    decay_mult: 0
  }
  convolution_param {
    num_output: 64
    pad: 2
    kernel_size: 5
    weight_filler {
      type: "xavier"
      std: 0.03
    }
    bias_filler {
      type: "constant"
      value: 0.2
    }
  }
}
layer {
  name: "inception_4b/relu_5x5"
  type: "ReLU"
  bottom: "inception_4b/5x5"
  top: "inception_4b/5x5"
}
layer {
  name: "inception_4b/pool"
  type: "Pooling"
  bottom: "inception_4a/output"
  top: "inception_4b/pool"
  pooling_param {
    pool: MAX
    kernel_size: 3
    stride: 1
    pad: 1
  }
}
layer {
  name: "inception_4b/pool_proj"
  type: "Convolution"
  bottom: "inception_4b/pool"
  top: "inception_4b/pool_proj"
  param {
    lr_mult: 1
    decay_mult: 1
  }
  param {
    lr_mult: 2
    decay_mult: 0
  }
  convolution_param {
    num_output: 64
    kernel_size: 1
    weight_filler {
      type: "xavier"
      std: 0.1
    }
    bias_filler {
      type: "constant"
      value: 0.2
    }
  }
}
layer {
  name: "inception_4b/relu_pool_proj"
  type: "ReLU"
  bottom: "inception_4b/pool_proj"
  top: "inception_4b/pool_proj"
}
layer {
  name: "inception_4b/output"
  type: "Concat"
  bottom: "inception_4b/1x1"
  bottom: "inception_4b/3x3"
  bottom: "inception_4b/5x5"
  bottom: "inception_4b/pool_proj"
  top: "inception_4b/output"
}
layer {
  name: "inception_4c/1x1"
  type: "Convolution"
  bottom: "inception_4b/output"
  top: "inception_4c/1x1"
  param {
    lr_mult: 1
    decay_mult: 1
  }
  param {
    lr_mult: 2
    decay_mult: 0
  }
  convolution_param {
    num_output: 128
    kernel_size: 1
    weight_filler {
      type: "xavier"
      std: 0.03
    }
    bias_filler {
      type: "constant"
      value: 0.2
    }
  }
}
layer {
  name: "inception_4c/relu_1x1"
  type: "ReLU"
  bottom: "inception_4c/1x1"
  top: "inception_4c/1x1"
}
layer {
  name: "inception_4c/3x3_reduce"
  type: "Convolution"
  bottom: "inception_4b/output"
  top: "inception_4c/3x3_reduce"
  param {
    lr_mult: 1
    decay_mult: 1
  }
  param {
    lr_mult: 2
    decay_mult: 0
  }
  convolution_param {
    num_output: 128
    kernel_size: 1
    weight_filler {
      type: "xavier"
      std: 0.09
    }
    bias_filler {
      type: "constant"
      value: 0.2
    }
  }
}
layer {
  name: "inception_4c/relu_3x3_reduce"
  type: "ReLU"
  bottom: "inception_4c/3x3_reduce"
  top: "inception_4c/3x3_reduce"
}
layer {
  name: "inception_4c/3x3"
  type: "Convolution"
  bottom: "inception_4c/3x3_reduce"
  top: "inception_4c/3x3"
  param {
    lr_mult: 1
    decay_mult: 1
  }
  param {
    lr_mult: 2
    decay_mult: 0
  }
  convolution_param {
    num_output: 256
    pad: 1
    kernel_size: 3
    weight_filler {
      type: "xavier"
      std: 0.03
    }
    bias_filler {
      type: "constant"
      value: 0.2
    }
  }
}
layer {
  name: "inception_4c/relu_3x3"
  type: "ReLU"
  bottom: "inception_4c/3x3"
  top: "inception_4c/3x3"
}
layer {
  name: "inception_4c/5x5_reduce"
  type: "Convolution"
  bottom: "inception_4b/output"
  top: "inception_4c/5x5_reduce"
  param {
    lr_mult: 1
    decay_mult: 1
  }
  param {
    lr_mult: 2
    decay_mult: 0
  }
  convolution_param {
    num_output: 24
    kernel_size: 1
    weight_filler {
      type: "xavier"
      std: 0.2
    }
    bias_filler {
      type: "constant"
      value: 0.2
    }
  }
}
layer {
  name: "inception_4c/relu_5x5_reduce"
  type: "ReLU"
  bottom: "inception_4c/5x5_reduce"
  top: "inception_4c/5x5_reduce"
}
layer {
  name: "inception_4c/5x5"
  type: "Convolution"
  bottom: "inception_4c/5x5_reduce"
  top: "inception_4c/5x5"
  param {
    lr_mult: 1
    decay_mult: 1
  }
  param {
    lr_mult: 2
    decay_mult: 0
  }
  convolution_param {
    num_output: 64
    pad: 2
    kernel_size: 5
    weight_filler {
      type: "xavier"
      std: 0.03
    }
    bias_filler {
      type: "constant"
      value: 0.2
    }
  }
}
layer {
  name: "inception_4c/relu_5x5"
  type: "ReLU"
  bottom: "inception_4c/5x5"
  top: "inception_4c/5x5"
}
layer {
  name: "inception_4c/pool"
  type: "Pooling"
  bottom: "inception_4b/output"
  top: "inception_4c/pool"
  pooling_param {
    pool: MAX
    kernel_size: 3
    stride: 1
    pad: 1
  }
}
layer {
  name: "inception_4c/pool_proj"
  type: "Convolution"
  bottom: "inception_4c/pool"
  top: "inception_4c/pool_proj"
  param {
    lr_mult: 1
    decay_mult: 1
  }
  param {
    lr_mult: 2
    decay_mult: 0
  }
  convolution_param {
    num_output: 64
    kernel_size: 1
    weight_filler {
      type: "xavier"
      std: 0.1
    }
    bias_filler {
      type: "constant"
      value: 0.2
    }
  }
}
layer {
  name: "inception_4c/relu_pool_proj"
  type: "ReLU"
  bottom: "inception_4c/pool_proj"
  top: "inception_4c/pool_proj"
}
layer {
  name: "inception_4c/output"
  type: "Concat"
  bottom: "inception_4c/1x1"
  bottom: "inception_4c/3x3"
  bottom: "inception_4c/5x5"
  bottom: "inception_4c/pool_proj"
  top: "inception_4c/output"
}
layer {
  name: "inception_4d/1x1"
  type: "Convolution"
  bottom: "inception_4c/output"
  top: "inception_4d/1x1"
  param {
    lr_mult: 1
    decay_mult: 1
  }
  param {
    lr_mult: 2
    decay_mult: 0
  }
  convolution_param {
    num_output: 112
    kernel_size: 1
    weight_filler {
      type: "xavier"
      std: 0.03
    }
    bias_filler {
      type: "constant"
      value: 0.2
    }
  }
}
layer {
  name: "inception_4d/relu_1x1"
  type: "ReLU"
  bottom: "inception_4d/1x1"
  top: "inception_4d/1x1"
}
layer {
  name: "inception_4d/3x3_reduce"
  type: "Convolution"
  bottom: "inception_4c/output"
  top: "inception_4d/3x3_reduce"
  param {
    lr_mult: 1
    decay_mult: 1
  }
  param {
    lr_mult: 2
    decay_mult: 0
  }
  convolution_param {
    num_output: 144
    kernel_size: 1
    weight_filler {
      type: "xavier"
      std: 0.09
    }
    bias_filler {
      type: "constant"
      value: 0.2
    }
  }
}
layer {
  name: "inception_4d/relu_3x3_reduce"
  type: "ReLU"
  bottom: "inception_4d/3x3_reduce"
  top: "inception_4d/3x3_reduce"
}
layer {
  name: "inception_4d/3x3"
  type: "Convolution"
  bottom: "inception_4d/3x3_reduce"
  top: "inception_4d/3x3"
  param {
    lr_mult: 1
    decay_mult: 1
  }
  param {
    lr_mult: 2
    decay_mult: 0
  }
  convolution_param {
    num_output: 288
    pad: 1
    kernel_size: 3
    weight_filler {
      type: "xavier"
      std: 0.03
    }
    bias_filler {
      type: "constant"
      value: 0.2
    }
  }
}
layer {
  name: "inception_4d/relu_3x3"
  type: "ReLU"
  bottom: "inception_4d/3x3"
  top: "inception_4d/3x3"
}
layer {
  name: "inception_4d/5x5_reduce"
  type: "Convolution"
  bottom: "inception_4c/output"
  top: "inception_4d/5x5_reduce"
  param {
    lr_mult: 1
    decay_mult: 1
  }
  param {
    lr_mult: 2
    decay_mult: 0
  }
  convolution_param {
    num_output: 32
    kernel_size: 1
    weight_filler {
      type: "xavier"
      std: 0.2
    }
    bias_filler {
      type: "constant"
      value: 0.2
    }
  }
}
layer {
  name: "inception_4d/relu_5x5_reduce"
  type: "ReLU"
  bottom: "inception_4d/5x5_reduce"
  top: "inception_4d/5x5_reduce"
}
layer {
  name: "inception_4d/5x5"
  type: "Convolution"
  bottom: "inception_4d/5x5_reduce"
  top: "inception_4d/5x5"
  param {
    lr_mult: 1
    decay_mult: 1
  }
  param {
    lr_mult: 2
    decay_mult: 0
  }
  convolution_param {
    num_output: 64
    pad: 2
    kernel_size: 5
    weight_filler {
      type: "xavier"
      std: 0.03
    }
    bias_filler {
      type: "constant"
      value: 0.2
    }
  }
}
layer {
  name: "inception_4d/relu_5x5"
  type: "ReLU"
  bottom: "inception_4d/5x5"
  top: "inception_4d/5x5"
}
layer {
  name: "inception_4d/pool"
  type: "Pooling"
  bottom: "inception_4c/output"
  top: "inception_4d/pool"
  pooling_param {
    pool: MAX
    kernel_size: 3
    stride: 1
    pad: 1
  }
}
layer {
  name: "inception_4d/pool_proj"
  type: "Convolution"
  bottom: "inception_4d/pool"
  top: "inception_4d/pool_proj"
  param {
    lr_mult: 1
    decay_mult: 1
  }
  param {
    lr_mult: 2
    decay_mult: 0
  }
  convolution_param {
    num_output: 64
    kernel_size: 1
    weight_filler {
      type: "xavier"
      std: 0.1
    }
    bias_filler {
      type: "constant"
      value: 0.2
    }
  }
}
layer {
  name: "inception_4d/relu_pool_proj"
  type: "ReLU"
  bottom: "inception_4d/pool_proj"
  top: "inception_4d/pool_proj"
}
layer {
  name: "inception_4d/output"
  type: "Concat"
  bottom: "inception_4d/1x1"
  bottom: "inception_4d/3x3"
  bottom: "inception_4d/5x5"
  bottom: "inception_4d/pool_proj"
  top: "inception_4d/output"
}
layer {
  name: "loss2/ave_pool"
  type: "Pooling"
  bottom: "inception_4d/output"
  top: "loss2/ave_pool"
  pooling_param {
    pool: AVE
    kernel_size: 5
    stride: 3
  }
}
layer {
  name: "loss2/conv"
  type: "Convolution"
  bottom: "loss2/ave_pool"
  top: "loss2/conv"
  param {
    lr_mult: 1
    decay_mult: 1
  }
  param {
    lr_mult: 2
    decay_mult: 0
  }
  convolution_param {
    num_output: 128
    kernel_size: 1
    weight_filler {
      type: "xavier"
      std: 0.08
    }
    bias_filler {
      type: "constant"
      value: 0.2
    }
  }
}
layer {
  name: "loss2/relu_conv"
  type: "ReLU"
  bottom: "loss2/conv"
  top: "loss2/conv"
}
layer {
  name: "loss2/fc"
  type: "InnerProduct"
  bottom: "loss2/conv"
  top: "loss2/fc"
  param {
    lr_mult: 1
    decay_mult: 1
  }
  param {
    lr_mult: 2
    decay_mult: 0
  }
  inner_product_param {
    num_output: 1024
    weight_filler {
      type: "xavier"
      std: 0.02
    }
    bias_filler {
      type: "constant"
      value: 0.2
    }
  }
}
layer {
  name: "loss2/relu_fc"
  type: "ReLU"
  bottom: "loss2/fc"
  top: "loss2/fc"
}
layer {
  name: "loss2/drop_fc"
  type: "Dropout"
  bottom: "loss2/fc"
  top: "loss2/fc"
  dropout_param {
    dropout_ratio: 0.7
  }
}
layer {
  name: "loss2/classifier_plantvillage"
  type: "InnerProduct"
  bottom: "loss2/fc"
  top: "loss2/classifier_plantvillage"
  param {
    lr_mult: 1
    decay_mult: 1
  }
  param {
    lr_mult: 2
    decay_mult: 0
  }
  inner_product_param {
    num_output: 38
    weight_filler {
      type: "xavier"
      std: 0.0009765625
    }
    bias_filler {
      type: "constant"
      value: 0
    }
  }
}
layer {
  name: "inception_4e/1x1"
  type: "Convolution"
  bottom: "inception_4d/output"
  top: "inception_4e/1x1"
  param {
    lr_mult: 1
    decay_mult: 1
  }
  param {
    lr_mult: 2
    decay_mult: 0
  }
  convolution_param {
    num_output: 256
    kernel_size: 1
    weight_filler {
      type: "xavier"
      std: 0.03
    }
    bias_filler {
      type: "constant"
      value: 0.2
    }
  }
}
layer {
  name: "inception_4e/relu_1x1"
  type: "ReLU"
  bottom: "inception_4e/1x1"
  top: "inception_4e/1x1"
}
layer {
  name: "inception_4e/3x3_reduce"
  type: "Convolution"
  bottom: "inception_4d/output"
  top: "inception_4e/3x3_reduce"
  param {
    lr_mult: 1
    decay_mult: 1
  }
  param {
    lr_mult: 2
    decay_mult: 0
  }
  convolution_param {
    num_output: 160
    kernel_size: 1
    weight_filler {
      type: "xavier"
      std: 0.09
    }
    bias_filler {
      type: "constant"
      value: 0.2
    }
  }
}
layer {
  name: "inception_4e/relu_3x3_reduce"
  type: "ReLU"
  bottom: "inception_4e/3x3_reduce"
  top: "inception_4e/3x3_reduce"
}
layer {
  name: "inception_4e/3x3"
  type: "Convolution"
  bottom: "inception_4e/3x3_reduce"
  top: "inception_4e/3x3"
  param {
    lr_mult: 1
    decay_mult: 1
  }
  param {
    lr_mult: 2
    decay_mult: 0
  }
  convolution_param {
    num_output: 320
    pad: 1
    kernel_size: 3
    weight_filler {
      type: "xavier"
      std: 0.03
    }
    bias_filler {
      type: "constant"
      value: 0.2
    }
  }
}
layer {
  name: "inception_4e/relu_3x3"
  type: "ReLU"
  bottom: "inception_4e/3x3"
  top: "inception_4e/3x3"
}
layer {
  name: "inception_4e/5x5_reduce"
  type: "Convolution"
  bottom: "inception_4d/output"
  top: "inception_4e/5x5_reduce"
  param {
    lr_mult: 1
    decay_mult: 1
  }
  param {
    lr_mult: 2
    decay_mult: 0
  }
  convolution_param {
    num_output: 32
    kernel_size: 1
    weight_filler {
      type: "xavier"
      std: 0.2
    }
    bias_filler {
      type: "constant"
      value: 0.2
    }
  }
}
layer {
  name: "inception_4e/relu_5x5_reduce"
  type: "ReLU"
  bottom: "inception_4e/5x5_reduce"
  top: "inception_4e/5x5_reduce"
}
layer {
  name: "inception_4e/5x5"
  type: "Convolution"
  bottom: "inception_4e/5x5_reduce"
  top: "inception_4e/5x5"
  p
I0403 16:55:51.059824 21598 layer_factory.hpp:77] Creating layer data
I0403 16:55:51.060448 21598 net.cpp:91] Creating Layer data
I0403 16:55:51.060479 21598 net.cpp:399] data -> data
I0403 16:55:51.060533 21598 net.cpp:399] data -> label
I0403 16:55:51.060570 21598 data_transformer.cpp:25] Loading mean file from: /home/mohanty/data/final_dataset/lmdb/color-40-60/mean.binaryproto
I0403 16:55:51.061748 21601 db_lmdb.cpp:38] Opened lmdb /home/mohanty/data/final_dataset/lmdb/color-40-60/test_db
I0403 16:55:51.073993 21598 data_layer.cpp:41] output data size: 24,3,224,224
I0403 16:55:51.104400 21598 net.cpp:141] Setting up data
I0403 16:55:51.104503 21598 net.cpp:148] Top shape: 24 3 224 224 (3612672)
I0403 16:55:51.104527 21598 net.cpp:148] Top shape: 24 (24)
I0403 16:55:51.104543 21598 net.cpp:156] Memory required for data: 14450784
I0403 16:55:51.104573 21598 layer_factory.hpp:77] Creating layer label_data_1_split
I0403 16:55:51.104601 21598 net.cpp:91] Creating Layer label_data_1_split
I0403 16:55:51.104620 21598 net.cpp:425] label_data_1_split <- label
I0403 16:55:51.104655 21598 net.cpp:399] label_data_1_split -> label_data_1_split_0
I0403 16:55:51.104684 21598 net.cpp:399] label_data_1_split -> label_data_1_split_1
I0403 16:55:51.104708 21598 net.cpp:399] label_data_1_split -> label_data_1_split_2
I0403 16:55:51.104730 21598 net.cpp:399] label_data_1_split -> label_data_1_split_3
I0403 16:55:51.104753 21598 net.cpp:399] label_data_1_split -> label_data_1_split_4
I0403 16:55:51.104773 21598 net.cpp:399] label_data_1_split -> label_data_1_split_5
I0403 16:55:51.104792 21598 net.cpp:399] label_data_1_split -> label_data_1_split_6
I0403 16:55:51.104812 21598 net.cpp:399] label_data_1_split -> label_data_1_split_7
I0403 16:55:51.104833 21598 net.cpp:399] label_data_1_split -> label_data_1_split_8
I0403 16:55:51.104853 21598 net.cpp:399] label_data_1_split -> label_data_1_split_9
I0403 16:55:51.104979 21598 net.cpp:141] Setting up label_data_1_split
I0403 16:55:51.105003 21598 net.cpp:148] Top shape: 24 (24)
I0403 16:55:51.105021 21598 net.cpp:148] Top shape: 24 (24)
I0403 16:55:51.105037 21598 net.cpp:148] Top shape: 24 (24)
I0403 16:55:51.105053 21598 net.cpp:148] Top shape: 24 (24)
I0403 16:55:51.105069 21598 net.cpp:148] Top shape: 24 (24)
I0403 16:55:51.105084 21598 net.cpp:148] Top shape: 24 (24)
I0403 16:55:51.105101 21598 net.cpp:148] Top shape: 24 (24)
I0403 16:55:51.105118 21598 net.cpp:148] Top shape: 24 (24)
I0403 16:55:51.105132 21598 net.cpp:148] Top shape: 24 (24)
I0403 16:55:51.105149 21598 net.cpp:148] Top shape: 24 (24)
I0403 16:55:51.105195 21598 net.cpp:156] Memory required for data: 14451744
I0403 16:55:51.105214 21598 layer_factory.hpp:77] Creating layer conv1/7x7_s2
I0403 16:55:51.105247 21598 net.cpp:91] Creating Layer conv1/7x7_s2
I0403 16:55:51.105265 21598 net.cpp:425] conv1/7x7_s2 <- data
I0403 16:55:51.105286 21598 net.cpp:399] conv1/7x7_s2 -> conv1/7x7_s2
I0403 16:55:51.251317 21598 net.cpp:141] Setting up conv1/7x7_s2
I0403 16:55:51.251374 21598 net.cpp:148] Top shape: 24 64 112 112 (19267584)
I0403 16:55:51.251391 21598 net.cpp:156] Memory required for data: 91522080
I0403 16:55:51.251423 21598 layer_factory.hpp:77] Creating layer conv1/relu_7x7
I0403 16:55:51.251452 21598 net.cpp:91] Creating Layer conv1/relu_7x7
I0403 16:55:51.251473 21598 net.cpp:425] conv1/relu_7x7 <- conv1/7x7_s2
I0403 16:55:51.251493 21598 net.cpp:386] conv1/relu_7x7 -> conv1/7x7_s2 (in-place)
I0403 16:55:51.251756 21598 net.cpp:141] Setting up conv1/relu_7x7
I0403 16:55:51.251786 21598 net.cpp:148] Top shape: 24 64 112 112 (19267584)
I0403 16:55:51.251804 21598 net.cpp:156] Memory required for data: 168592416
I0403 16:55:51.251819 21598 layer_factory.hpp:77] Creating layer pool1/3x3_s2
I0403 16:55:51.251845 21598 net.cpp:91] Creating Layer pool1/3x3_s2
I0403 16:55:51.251865 21598 net.cpp:425] pool1/3x3_s2 <- conv1/7x7_s2
I0403 16:55:51.251885 21598 net.cpp:399] pool1/3x3_s2 -> pool1/3x3_s2
I0403 16:55:51.251968 21598 net.cpp:141] Setting up pool1/3x3_s2
I0403 16:55:51.251994 21598 net.cpp:148] Top shape: 24 64 56 56 (4816896)
I0403 16:55:51.252012 21598 net.cpp:156] Memory required for data: 187860000
I0403 16:55:51.252027 21598 layer_factory.hpp:77] Creating layer pool1/norm1
I0403 16:55:51.252053 21598 net.cpp:91] Creating Layer pool1/norm1
I0403 16:55:51.252071 21598 net.cpp:425] pool1/norm1 <- pool1/3x3_s2
I0403 16:55:51.252089 21598 net.cpp:399] pool1/norm1 -> pool1/norm1
I0403 16:55:51.252384 21598 net.cpp:141] Setting up pool1/norm1
I0403 16:55:51.252413 21598 net.cpp:148] Top shape: 24 64 56 56 (4816896)
I0403 16:55:51.252430 21598 net.cpp:156] Memory required for data: 207127584
I0403 16:55:51.252446 21598 layer_factory.hpp:77] Creating layer conv2/3x3_reduce
I0403 16:55:51.252472 21598 net.cpp:91] Creating Layer conv2/3x3_reduce
I0403 16:55:51.252490 21598 net.cpp:425] conv2/3x3_reduce <- pool1/norm1
I0403 16:55:51.252509 21598 net.cpp:399] conv2/3x3_reduce -> conv2/3x3_reduce
I0403 16:55:51.253921 21598 net.cpp:141] Setting up conv2/3x3_reduce
I0403 16:55:51.253950 21598 net.cpp:148] Top shape: 24 64 56 56 (4816896)
I0403 16:55:51.253976 21598 net.cpp:156] Memory required for data: 226395168
I0403 16:55:51.254001 21598 layer_factory.hpp:77] Creating layer conv2/relu_3x3_reduce
I0403 16:55:51.254021 21598 net.cpp:91] Creating Layer conv2/relu_3x3_reduce
I0403 16:55:51.254039 21598 net.cpp:425] conv2/relu_3x3_reduce <- conv2/3x3_reduce
I0403 16:55:51.254057 21598 net.cpp:386] conv2/relu_3x3_reduce -> conv2/3x3_reduce (in-place)
I0403 16:55:51.254320 21598 net.cpp:141] Setting up conv2/relu_3x3_reduce
I0403 16:55:51.254348 21598 net.cpp:148] Top shape: 24 64 56 56 (4816896)
I0403 16:55:51.254364 21598 net.cpp:156] Memory required for data: 245662752
I0403 16:55:51.254380 21598 layer_factory.hpp:77] Creating layer conv2/3x3
I0403 16:55:51.254403 21598 net.cpp:91] Creating Layer conv2/3x3
I0403 16:55:51.254420 21598 net.cpp:425] conv2/3x3 <- conv2/3x3_reduce
I0403 16:55:51.254439 21598 net.cpp:399] conv2/3x3 -> conv2/3x3
I0403 16:55:51.258376 21598 net.cpp:141] Setting up conv2/3x3
I0403 16:55:51.258409 21598 net.cpp:148] Top shape: 24 192 56 56 (14450688)
I0403 16:55:51.258425 21598 net.cpp:156] Memory required for data: 303465504
I0403 16:55:51.258450 21598 layer_factory.hpp:77] Creating layer conv2/relu_3x3
I0403 16:55:51.258468 21598 net.cpp:91] Creating Layer conv2/relu_3x3
I0403 16:55:51.258488 21598 net.cpp:425] conv2/relu_3x3 <- conv2/3x3
I0403 16:55:51.258507 21598 net.cpp:386] conv2/relu_3x3 -> conv2/3x3 (in-place)
I0403 16:55:51.258687 21598 net.cpp:141] Setting up conv2/relu_3x3
I0403 16:55:51.258716 21598 net.cpp:148] Top shape: 24 192 56 56 (14450688)
I0403 16:55:51.258774 21598 net.cpp:156] Memory required for data: 361268256
I0403 16:55:51.258803 21598 layer_factory.hpp:77] Creating layer conv2/norm2
I0403 16:55:51.258823 21598 net.cpp:91] Creating Layer conv2/norm2
I0403 16:55:51.258838 21598 net.cpp:425] conv2/norm2 <- conv2/3x3
I0403 16:55:51.258859 21598 net.cpp:399] conv2/norm2 -> conv2/norm2
I0403 16:55:51.259171 21598 net.cpp:141] Setting up conv2/norm2
I0403 16:55:51.259202 21598 net.cpp:148] Top shape: 24 192 56 56 (14450688)
I0403 16:55:51.259217 21598 net.cpp:156] Memory required for data: 419071008
I0403 16:55:51.259232 21598 layer_factory.hpp:77] Creating layer pool2/3x3_s2
I0403 16:55:51.259251 21598 net.cpp:91] Creating Layer pool2/3x3_s2
I0403 16:55:51.259266 21598 net.cpp:425] pool2/3x3_s2 <- conv2/norm2
I0403 16:55:51.259286 21598 net.cpp:399] pool2/3x3_s2 -> pool2/3x3_s2
I0403 16:55:51.259338 21598 net.cpp:141] Setting up pool2/3x3_s2
I0403 16:55:51.259363 21598 net.cpp:148] Top shape: 24 192 28 28 (3612672)
I0403 16:55:51.259378 21598 net.cpp:156] Memory required for data: 433521696
I0403 16:55:51.259392 21598 layer_factory.hpp:77] Creating layer pool2/3x3_s2_pool2/3x3_s2_0_split
I0403 16:55:51.259409 21598 net.cpp:91] Creating Layer pool2/3x3_s2_pool2/3x3_s2_0_split
I0403 16:55:51.259423 21598 net.cpp:425] pool2/3x3_s2_pool2/3x3_s2_0_split <- pool2/3x3_s2
I0403 16:55:51.259440 21598 net.cpp:399] pool2/3x3_s2_pool2/3x3_s2_0_split -> pool2/3x3_s2_pool2/3x3_s2_0_split_0
I0403 16:55:51.259459 21598 net.cpp:399] pool2/3x3_s2_pool2/3x3_s2_0_split -> pool2/3x3_s2_pool2/3x3_s2_0_split_1
I0403 16:55:51.259480 21598 net.cpp:399] pool2/3x3_s2_pool2/3x3_s2_0_split -> pool2/3x3_s2_pool2/3x3_s2_0_split_2
I0403 16:55:51.259501 21598 net.cpp:399] pool2/3x3_s2_pool2/3x3_s2_0_split -> pool2/3x3_s2_pool2/3x3_s2_0_split_3
I0403 16:55:51.259569 21598 net.cpp:141] Setting up pool2/3x3_s2_pool2/3x3_s2_0_split
I0403 16:55:51.259591 21598 net.cpp:148] Top shape: 24 192 28 28 (3612672)
I0403 16:55:51.259608 21598 net.cpp:148] Top shape: 24 192 28 28 (3612672)
I0403 16:55:51.259623 21598 net.cpp:148] Top shape: 24 192 28 28 (3612672)
I0403 16:55:51.259636 21598 net.cpp:148] Top shape: 24 192 28 28 (3612672)
I0403 16:55:51.259650 21598 net.cpp:156] Memory required for data: 491324448
I0403 16:55:51.259665 21598 layer_factory.hpp:77] Creating layer inception_3a/1x1
I0403 16:55:51.259686 21598 net.cpp:91] Creating Layer inception_3a/1x1
I0403 16:55:51.259703 21598 net.cpp:425] inception_3a/1x1 <- pool2/3x3_s2_pool2/3x3_s2_0_split_0
I0403 16:55:51.259724 21598 net.cpp:399] inception_3a/1x1 -> inception_3a/1x1
I0403 16:55:51.261222 21598 net.cpp:141] Setting up inception_3a/1x1
I0403 16:55:51.261255 21598 net.cpp:148] Top shape: 24 64 28 28 (1204224)
I0403 16:55:51.261270 21598 net.cpp:156] Memory required for data: 496141344
I0403 16:55:51.261289 21598 layer_factory.hpp:77] Creating layer inception_3a/relu_1x1
I0403 16:55:51.261307 21598 net.cpp:91] Creating Layer inception_3a/relu_1x1
I0403 16:55:51.261322 21598 net.cpp:425] inception_3a/relu_1x1 <- inception_3a/1x1
I0403 16:55:51.261342 21598 net.cpp:386] inception_3a/relu_1x1 -> inception_3a/1x1 (in-place)
I0403 16:55:51.261512 21598 net.cpp:141] Setting up inception_3a/relu_1x1
I0403 16:55:51.261538 21598 net.cpp:148] Top shape: 24 64 28 28 (1204224)
I0403 16:55:51.261553 21598 net.cpp:156] Memory required for data: 500958240
I0403 16:55:51.261566 21598 layer_factory.hpp:77] Creating layer inception_3a/3x3_reduce
I0403 16:55:51.261589 21598 net.cpp:91] Creating Layer inception_3a/3x3_reduce
I0403 16:55:51.261605 21598 net.cpp:425] inception_3a/3x3_reduce <- pool2/3x3_s2_pool2/3x3_s2_0_split_1
I0403 16:55:51.261626 21598 net.cpp:399] inception_3a/3x3_reduce -> inception_3a/3x3_reduce
I0403 16:55:51.263324 21598 net.cpp:141] Setting up inception_3a/3x3_reduce
I0403 16:55:51.263355 21598 net.cpp:148] Top shape: 24 96 28 28 (1806336)
I0403 16:55:51.263370 21598 net.cpp:156] Memory required for data: 508183584
I0403 16:55:51.263391 21598 layer_factory.hpp:77] Creating layer inception_3a/relu_3x3_reduce
I0403 16:55:51.263429 21598 net.cpp:91] Creating Layer inception_3a/relu_3x3_reduce
I0403 16:55:51.263450 21598 net.cpp:425] inception_3a/relu_3x3_reduce <- inception_3a/3x3_reduce
I0403 16:55:51.263468 21598 net.cpp:386] inception_3a/relu_3x3_reduce -> inception_3a/3x3_reduce (in-place)
I0403 16:55:51.263644 21598 net.cpp:141] Setting up inception_3a/relu_3x3_reduce
I0403 16:55:51.263672 21598 net.cpp:148] Top shape: 24 96 28 28 (1806336)
I0403 16:55:51.263689 21598 net.cpp:156] Memory required for data: 515408928
I0403 16:55:51.263705 21598 layer_factory.hpp:77] Creating layer inception_3a/3x3
I0403 16:55:51.263727 21598 net.cpp:91] Creating Layer inception_3a/3x3
I0403 16:55:51.263746 21598 net.cpp:425] inception_3a/3x3 <- inception_3a/3x3_reduce
I0403 16:55:51.263767 21598 net.cpp:399] inception_3a/3x3 -> inception_3a/3x3
I0403 16:55:51.265391 21598 net.cpp:141] Setting up inception_3a/3x3
I0403 16:55:51.265421 21598 net.cpp:148] Top shape: 24 128 28 28 (2408448)
I0403 16:55:51.265436 21598 net.cpp:156] Memory required for data: 525042720
I0403 16:55:51.265455 21598 layer_factory.hpp:77] Creating layer inception_3a/relu_3x3
I0403 16:55:51.265475 21598 net.cpp:91] Creating Layer inception_3a/relu_3x3
I0403 16:55:51.265493 21598 net.cpp:425] inception_3a/relu_3x3 <- inception_3a/3x3
I0403 16:55:51.265512 21598 net.cpp:386] inception_3a/relu_3x3 -> inception_3a/3x3 (in-place)
I0403 16:55:51.265782 21598 net.cpp:141] Setting up inception_3a/relu_3x3
I0403 16:55:51.265810 21598 net.cpp:148] Top shape: 24 128 28 28 (2408448)
I0403 16:55:51.265825 21598 net.cpp:156] Memory required for data: 534676512
I0403 16:55:51.265841 21598 layer_factory.hpp:77] Creating layer inception_3a/5x5_reduce
I0403 16:55:51.265862 21598 net.cpp:91] Creating Layer inception_3a/5x5_reduce
I0403 16:55:51.265880 21598 net.cpp:425] inception_3a/5x5_reduce <- pool2/3x3_s2_pool2/3x3_s2_0_split_2
I0403 16:55:51.265902 21598 net.cpp:399] inception_3a/5x5_reduce -> inception_3a/5x5_reduce
I0403 16:55:51.266839 21598 net.cpp:141] Setting up inception_3a/5x5_reduce
I0403 16:55:51.266868 21598 net.cpp:148] Top shape: 24 16 28 28 (301056)
I0403 16:55:51.266883 21598 net.cpp:156] Memory required for data: 535880736
I0403 16:55:51.266901 21598 layer_factory.hpp:77] Creating layer inception_3a/relu_5x5_reduce
I0403 16:55:51.266922 21598 net.cpp:91] Creating Layer inception_3a/relu_5x5_reduce
I0403 16:55:51.266940 21598 net.cpp:425] inception_3a/relu_5x5_reduce <- inception_3a/5x5_reduce
I0403 16:55:51.266963 21598 net.cpp:386] inception_3a/relu_5x5_reduce -> inception_3a/5x5_reduce (in-place)
I0403 16:55:51.267261 21598 net.cpp:141] Setting up inception_3a/relu_5x5_reduce
I0403 16:55:51.267290 21598 net.cpp:148] Top shape: 24 16 28 28 (301056)
I0403 16:55:51.267308 21598 net.cpp:156] Memory required for data: 537084960
I0403 16:55:51.267323 21598 layer_factory.hpp:77] Creating layer inception_3a/5x5
I0403 16:55:51.267346 21598 net.cpp:91] Creating Layer inception_3a/5x5
I0403 16:55:51.267364 21598 net.cpp:425] inception_3a/5x5 <- inception_3a/5x5_reduce
I0403 16:55:51.267384 21598 net.cpp:399] inception_3a/5x5 -> inception_3a/5x5
I0403 16:55:51.268386 21598 net.cpp:141] Setting up inception_3a/5x5
I0403 16:55:51.268415 21598 net.cpp:148] Top shape: 24 32 28 28 (602112)
I0403 16:55:51.268430 21598 net.cpp:156] Memory required for data: 539493408
I0403 16:55:51.268447 21598 layer_factory.hpp:77] Creating layer inception_3a/relu_5x5
I0403 16:55:51.268468 21598 net.cpp:91] Creating Layer inception_3a/relu_5x5
I0403 16:55:51.268484 21598 net.cpp:425] inception_3a/relu_5x5 <- inception_3a/5x5
I0403 16:55:51.268502 21598 net.cpp:386] inception_3a/relu_5x5 -> inception_3a/5x5 (in-place)
I0403 16:55:51.268671 21598 net.cpp:141] Setting up inception_3a/relu_5x5
I0403 16:55:51.268694 21598 net.cpp:148] Top shape: 24 32 28 28 (602112)
I0403 16:55:51.268710 21598 net.cpp:156] Memory required for data: 541901856
I0403 16:55:51.268724 21598 layer_factory.hpp:77] Creating layer inception_3a/pool
I0403 16:55:51.268743 21598 net.cpp:91] Creating Layer inception_3a/pool
I0403 16:55:51.268760 21598 net.cpp:425] inception_3a/pool <- pool2/3x3_s2_pool2/3x3_s2_0_split_3
I0403 16:55:51.268792 21598 net.cpp:399] inception_3a/pool -> inception_3a/pool
I0403 16:55:51.268851 21598 net.cpp:141] Setting up inception_3a/pool
I0403 16:55:51.268874 21598 net.cpp:148] Top shape: 24 192 28 28 (3612672)
I0403 16:55:51.268888 21598 net.cpp:156] Memory required for data: 556352544
I0403 16:55:51.268901 21598 layer_factory.hpp:77] Creating layer inception_3a/pool_proj
I0403 16:55:51.268923 21598 net.cpp:91] Creating Layer inception_3a/pool_proj
I0403 16:55:51.268940 21598 net.cpp:425] inception_3a/pool_proj <- inception_3a/pool
I0403 16:55:51.268973 21598 net.cpp:399] inception_3a/pool_proj -> inception_3a/pool_proj
I0403 16:55:51.269915 21598 net.cpp:141] Setting up inception_3a/pool_proj
I0403 16:55:51.269945 21598 net.cpp:148] Top shape: 24 32 28 28 (602112)
I0403 16:55:51.269966 21598 net.cpp:156] Memory required for data: 558760992
I0403 16:55:51.269989 21598 layer_factory.hpp:77] Creating layer inception_3a/relu_pool_proj
I0403 16:55:51.270011 21598 net.cpp:91] Creating Layer inception_3a/relu_pool_proj
I0403 16:55:51.270027 21598 net.cpp:425] inception_3a/relu_pool_proj <- inception_3a/pool_proj
I0403 16:55:51.270045 21598 net.cpp:386] inception_3a/relu_pool_proj -> inception_3a/pool_proj (in-place)
I0403 16:55:51.270314 21598 net.cpp:141] Setting up inception_3a/relu_pool_proj
I0403 16:55:51.270341 21598 net.cpp:148] Top shape: 24 32 28 28 (602112)
I0403 16:55:51.270356 21598 net.cpp:156] Memory required for data: 561169440
I0403 16:55:51.270371 21598 layer_factory.hpp:77] Creating layer inception_3a/output
I0403 16:55:51.270390 21598 net.cpp:91] Creating Layer inception_3a/output
I0403 16:55:51.270406 21598 net.cpp:425] inception_3a/output <- inception_3a/1x1
I0403 16:55:51.270423 21598 net.cpp:425] inception_3a/output <- inception_3a/3x3
I0403 16:55:51.270438 21598 net.cpp:425] inception_3a/output <- inception_3a/5x5
I0403 16:55:51.270454 21598 net.cpp:425] inception_3a/output <- inception_3a/pool_proj
I0403 16:55:51.270474 21598 net.cpp:399] inception_3a/output -> inception_3a/output
I0403 16:55:51.270524 21598 net.cpp:141] Setting up inception_3a/output
I0403 16:55:51.270548 21598 net.cpp:148] Top shape: 24 256 28 28 (4816896)
I0403 16:55:51.270563 21598 net.cpp:156] Memory required for data: 580437024
I0403 16:55:51.270578 21598 layer_factory.hpp:77] Creating layer inception_3a/output_inception_3a/output_0_split
I0403 16:55:51.270596 21598 net.cpp:91] Creating Layer inception_3a/output_inception_3a/output_0_split
I0403 16:55:51.270611 21598 net.cpp:425] inception_3a/output_inception_3a/output_0_split <- inception_3a/output
I0403 16:55:51.270629 21598 net.cpp:399] inception_3a/output_inception_3a/output_0_split -> inception_3a/output_inception_3a/output_0_split_0
I0403 16:55:51.270651 21598 net.cpp:399] inception_3a/output_inception_3a/output_0_split -> inception_3a/output_inception_3a/output_0_split_1
I0403 16:55:51.270675 21598 net.cpp:399] inception_3a/output_inception_3a/output_0_split -> inception_3a/output_inception_3a/output_0_split_2
I0403 16:55:51.270697 21598 net.cpp:399] inception_3a/output_inception_3a/output_0_split -> inception_3a/output_inception_3a/output_0_split_3
I0403 16:55:51.270771 21598 net.cpp:141] Setting up inception_3a/output_inception_3a/output_0_split
I0403 16:55:51.270793 21598 net.cpp:148] Top shape: 24 256 28 28 (4816896)
I0403 16:55:51.270809 21598 net.cpp:148] Top shape: 24 256 28 28 (4816896)
I0403 16:55:51.270824 21598 net.cpp:148] Top shape: 24 256 28 28 (4816896)
I0403 16:55:51.270839 21598 net.cpp:148] Top shape: 24 256 28 28 (4816896)
I0403 16:55:51.270853 21598 net.cpp:156] Memory required for data: 657507360
I0403 16:55:51.270865 21598 layer_factory.hpp:77] Creating layer inception_3b/1x1
I0403 16:55:51.270887 21598 net.cpp:91] Creating Layer inception_3b/1x1
I0403 16:55:51.270905 21598 net.cpp:425] inception_3b/1x1 <- inception_3a/output_inception_3a/output_0_split_0
I0403 16:55:51.270925 21598 net.cpp:399] inception_3b/1x1 -> inception_3b/1x1
I0403 16:55:51.272047 21598 net.cpp:141] Setting up inception_3b/1x1
I0403 16:55:51.272086 21598 net.cpp:148] Top shape: 24 128 28 28 (2408448)
I0403 16:55:51.272104 21598 net.cpp:156] Memory required for data: 667141152
I0403 16:55:51.272122 21598 layer_factory.hpp:77] Creating layer inception_3b/relu_1x1
I0403 16:55:51.272140 21598 net.cpp:91] Creating Layer inception_3b/relu_1x1
I0403 16:55:51.272156 21598 net.cpp:425] inception_3b/relu_1x1 <- inception_3b/1x1
I0403 16:55:51.272176 21598 net.cpp:386] inception_3b/relu_1x1 -> inception_3b/1x1 (in-place)
I0403 16:55:51.272349 21598 net.cpp:141] Setting up inception_3b/relu_1x1
I0403 16:55:51.272377 21598 net.cpp:148] Top shape: 24 128 28 28 (2408448)
I0403 16:55:51.272392 21598 net.cpp:156] Memory required for data: 676774944
I0403 16:55:51.272408 21598 layer_factory.hpp:77] Creating layer inception_3b/3x3_reduce
I0403 16:55:51.272430 21598 net.cpp:91] Creating Layer inception_3b/3x3_reduce
I0403 16:55:51.272449 21598 net.cpp:425] inception_3b/3x3_reduce <- inception_3a/output_inception_3a/output_0_split_1
I0403 16:55:51.272470 21598 net.cpp:399] inception_3b/3x3_reduce -> inception_3b/3x3_reduce
I0403 16:55:51.273579 21598 net.cpp:141] Setting up inception_3b/3x3_reduce
I0403 16:55:51.273608 21598 net.cpp:148] Top shape: 24 128 28 28 (2408448)
I0403 16:55:51.273624 21598 net.cpp:156] Memory required for data: 686408736
I0403 16:55:51.273643 21598 layer_factory.hpp:77] Creating layer inception_3b/relu_3x3_reduce
I0403 16:55:51.273661 21598 net.cpp:91] Creating Layer inception_3b/relu_3x3_reduce
I0403 16:55:51.273679 21598 net.cpp:425] inception_3b/relu_3x3_reduce <- inception_3b/3x3_reduce
I0403 16:55:51.273697 21598 net.cpp:386] inception_3b/relu_3x3_reduce -> inception_3b/3x3_reduce (in-place)
I0403 16:55:51.273867 21598 net.cpp:141] Setting up inception_3b/relu_3x3_reduce
I0403 16:55:51.273893 21598 net.cpp:148] Top shape: 24 128 28 28 (2408448)
I0403 16:55:51.273908 21598 net.cpp:156] Memory required for data: 696042528
I0403 16:55:51.273923 21598 layer_factory.hpp:77] Creating layer inception_3b/3x3
I0403 16:55:51.273952 21598 net.cpp:91] Creating Layer inception_3b/3x3
I0403 16:55:51.273974 21598 net.cpp:425] inception_3b/3x3 <- inception_3b/3x3_reduce
I0403 16:55:51.273995 21598 net.cpp:399] inception_3b/3x3 -> inception_3b/3x3
I0403 16:55:51.276871 21598 net.cpp:141] Setting up inception_3b/3x3
I0403 16:55:51.276901 21598 net.cpp:148] Top shape: 24 192 28 28 (3612672)
I0403 16:55:51.276917 21598 net.cpp:156] Memory required for data: 710493216
I0403 16:55:51.276937 21598 layer_factory.hpp:77] Creating layer inception_3b/relu_3x3
I0403 16:55:51.276962 21598 net.cpp:91] Creating Layer inception_3b/relu_3x3
I0403 16:55:51.276981 21598 net.cpp:425] inception_3b/relu_3x3 <- inception_3b/3x3
I0403 16:55:51.277000 21598 net.cpp:386] inception_3b/relu_3x3 -> inception_3b/3x3 (in-place)
I0403 16:55:51.277271 21598 net.cpp:141] Setting up inception_3b/relu_3x3
I0403 16:55:51.277297 21598 net.cpp:148] Top shape: 24 192 28 28 (3612672)
I0403 16:55:51.277312 21598 net.cpp:156] Memory required for data: 724943904
I0403 16:55:51.277326 21598 layer_factory.hpp:77] Creating layer inception_3b/5x5_reduce
I0403 16:55:51.277349 21598 net.cpp:91] Creating Layer inception_3b/5x5_reduce
I0403 16:55:51.277366 21598 net.cpp:425] inception_3b/5x5_reduce <- inception_3a/output_inception_3a/output_0_split_2
I0403 16:55:51.277387 21598 net.cpp:399] inception_3b/5x5_reduce -> inception_3b/5x5_reduce
I0403 16:55:51.278358 21598 net.cpp:141] Setting up inception_3b/5x5_reduce
I0403 16:55:51.278388 21598 net.cpp:148] Top shape: 24 32 28 28 (602112)
I0403 16:55:51.278403 21598 net.cpp:156] Memory required for data: 727352352
I0403 16:55:51.278421 21598 layer_factory.hpp:77] Creating layer inception_3b/relu_5x5_reduce
I0403 16:55:51.278442 21598 net.cpp:91] Creating Layer inception_3b/relu_5x5_reduce
I0403 16:55:51.278460 21598 net.cpp:425] inception_3b/relu_5x5_reduce <- inception_3b/5x5_reduce
I0403 16:55:51.278480 21598 net.cpp:386] inception_3b/relu_5x5_reduce -> inception_3b/5x5_reduce (in-place)
I0403 16:55:51.278647 21598 net.cpp:141] Setting up inception_3b/relu_5x5_reduce
I0403 16:55:51.278687 21598 net.cpp:148] Top shape: 24 32 28 28 (602112)
I0403 16:55:51.278704 21598 net.cpp:156] Memory required for data: 729760800
I0403 16:55:51.278719 21598 layer_factory.hpp:77] Creating layer inception_3b/5x5
I0403 16:55:51.278738 21598 net.cpp:91] Creating Layer inception_3b/5x5
I0403 16:55:51.278755 21598 net.cpp:425] inception_3b/5x5 <- inception_3b/5x5_reduce
I0403 16:55:51.278775 21598 net.cpp:399] inception_3b/5x5 -> inception_3b/5x5
I0403 16:55:51.280732 21598 net.cpp:141] Setting up inception_3b/5x5
I0403 16:55:51.280762 21598 net.cpp:148] Top shape: 24 96 28 28 (1806336)
I0403 16:55:51.280779 21598 net.cpp:156] Memory required for data: 736986144
I0403 16:55:51.280797 21598 layer_factory.hpp:77] Creating layer inception_3b/relu_5x5
I0403 16:55:51.280817 21598 net.cpp:91] Creating Layer inception_3b/relu_5x5
I0403 16:55:51.280834 21598 net.cpp:425] inception_3b/relu_5x5 <- inception_3b/5x5
I0403 16:55:51.280853 21598 net.cpp:386] inception_3b/relu_5x5 -> inception_3b/5x5 (in-place)
I0403 16:55:51.281047 21598 net.cpp:141] Setting up inception_3b/relu_5x5
I0403 16:55:51.281074 21598 net.cpp:148] Top shape: 24 96 28 28 (1806336)
I0403 16:55:51.281088 21598 net.cpp:156] Memory required for data: 744211488
I0403 16:55:51.281103 21598 layer_factory.hpp:77] Creating layer inception_3b/pool
I0403 16:55:51.281121 21598 net.cpp:91] Creating Layer inception_3b/pool
I0403 16:55:51.281136 21598 net.cpp:425] inception_3b/pool <- inception_3a/output_inception_3a/output_0_split_3
I0403 16:55:51.281157 21598 net.cpp:399] inception_3b/pool -> inception_3b/pool
I0403 16:55:51.281211 21598 net.cpp:141] Setting up inception_3b/pool
I0403 16:55:51.281234 21598 net.cpp:148] Top shape: 24 256 28 28 (4816896)
I0403 16:55:51.281250 21598 net.cpp:156] Memory required for data: 763479072
I0403 16:55:51.281265 21598 layer_factory.hpp:77] Creating layer inception_3b/pool_proj
I0403 16:55:51.281286 21598 net.cpp:91] Creating Layer inception_3b/pool_proj
I0403 16:55:51.281303 21598 net.cpp:425] inception_3b/pool_proj <- inception_3b/pool
I0403 16:55:51.281324 21598 net.cpp:399] inception_3b/pool_proj -> inception_3b/pool_proj
I0403 16:55:51.282358 21598 net.cpp:141] Setting up inception_3b/pool_proj
I0403 16:55:51.282461 21598 net.cpp:148] Top shape: 24 64 28 28 (1204224)
I0403 16:55:51.282481 21598 net.cpp:156] Memory required for data: 768295968
I0403 16:55:51.282500 21598 layer_factory.hpp:77] Creating layer inception_3b/relu_pool_proj
I0403 16:55:51.282517 21598 net.cpp:91] Creating Layer inception_3b/relu_pool_proj
I0403 16:55:51.282533 21598 net.cpp:425] inception_3b/relu_pool_proj <- inception_3b/pool_proj
I0403 16:55:51.282551 21598 net.cpp:386] inception_3b/relu_pool_proj -> inception_3b/pool_proj (in-place)
I0403 16:55:51.282950 21598 net.cpp:141] Setting up inception_3b/relu_pool_proj
I0403 16:55:51.282984 21598 net.cpp:148] Top shape: 24 64 28 28 (1204224)
I0403 16:55:51.282999 21598 net.cpp:156] Memory required for data: 773112864
I0403 16:55:51.283015 21598 layer_factory.hpp:77] Creating layer inception_3b/output
I0403 16:55:51.283036 21598 net.cpp:91] Creating Layer inception_3b/output
I0403 16:55:51.283051 21598 net.cpp:425] inception_3b/output <- inception_3b/1x1
I0403 16:55:51.283068 21598 net.cpp:425] inception_3b/output <- inception_3b/3x3
I0403 16:55:51.283083 21598 net.cpp:425] inception_3b/output <- inception_3b/5x5
I0403 16:55:51.283098 21598 net.cpp:425] inception_3b/output <- inception_3b/pool_proj
I0403 16:55:51.283114 21598 net.cpp:399] inception_3b/output -> inception_3b/output
I0403 16:55:51.283159 21598 net.cpp:141] Setting up inception_3b/output
I0403 16:55:51.283181 21598 net.cpp:148] Top shape: 24 480 28 28 (9031680)
I0403 16:55:51.283195 21598 net.cpp:156] Memory required for data: 809239584
I0403 16:55:51.283210 21598 layer_factory.hpp:77] Creating layer pool3/3x3_s2
I0403 16:55:51.283227 21598 net.cpp:91] Creating Layer pool3/3x3_s2
I0403 16:55:51.283244 21598 net.cpp:425] pool3/3x3_s2 <- inception_3b/output
I0403 16:55:51.283263 21598 net.cpp:399] pool3/3x3_s2 -> pool3/3x3_s2
I0403 16:55:51.283334 21598 net.cpp:141] Setting up pool3/3x3_s2
I0403 16:55:51.283359 21598 net.cpp:148] Top shape: 24 480 14 14 (2257920)
I0403 16:55:51.283372 21598 net.cpp:156] Memory required for data: 818271264
I0403 16:55:51.283386 21598 layer_factory.hpp:77] Creating layer pool3/3x3_s2_pool3/3x3_s2_0_split
I0403 16:55:51.283406 21598 net.cpp:91] Creating Layer pool3/3x3_s2_pool3/3x3_s2_0_split
I0403 16:55:51.283421 21598 net.cpp:425] pool3/3x3_s2_pool3/3x3_s2_0_split <- pool3/3x3_s2
I0403 16:55:51.283440 21598 net.cpp:399] pool3/3x3_s2_pool3/3x3_s2_0_split -> pool3/3x3_s2_pool3/3x3_s2_0_split_0
I0403 16:55:51.283462 21598 net.cpp:399] pool3/3x3_s2_pool3/3x3_s2_0_split -> pool3/3x3_s2_pool3/3x3_s2_0_split_1
I0403 16:55:51.283480 21598 net.cpp:399] pool3/3x3_s2_pool3/3x3_s2_0_split -> pool3/3x3_s2_pool3/3x3_s2_0_split_2
I0403 16:55:51.283499 21598 net.cpp:399] pool3/3x3_s2_pool3/3x3_s2_0_split -> pool3/3x3_s2_pool3/3x3_s2_0_split_3
I0403 16:55:51.283571 21598 net.cpp:141] Setting up pool3/3x3_s2_pool3/3x3_s2_0_split
I0403 16:55:51.283596 21598 net.cpp:148] Top shape: 24 480 14 14 (2257920)
I0403 16:55:51.283612 21598 net.cpp:148] Top shape: 24 480 14 14 (2257920)
I0403 16:55:51.283627 21598 net.cpp:148] Top shape: 24 480 14 14 (2257920)
I0403 16:55:51.283643 21598 net.cpp:148] Top shape: 24 480 14 14 (2257920)
I0403 16:55:51.283655 21598 net.cpp:156] Memory required for data: 854397984
I0403 16:55:51.283669 21598 layer_factory.hpp:77] Creating layer inception_4a/1x1
I0403 16:55:51.283689 21598 net.cpp:91] Creating Layer inception_4a/1x1
I0403 16:55:51.283704 21598 net.cpp:425] inception_4a/1x1 <- pool3/3x3_s2_pool3/3x3_s2_0_split_0
I0403 16:55:51.283737 21598 net.cpp:399] inception_4a/1x1 -> inception_4a/1x1
I0403 16:55:51.285351 21598 net.cpp:141] Setting up inception_4a/1x1
I0403 16:55:51.285382 21598 net.cpp:148] Top shape: 24 192 14 14 (903168)
I0403 16:55:51.285400 21598 net.cpp:156] Memory required for data: 858010656
I0403 16:55:51.285419 21598 layer_factory.hpp:77] Creating layer inception_4a/relu_1x1
I0403 16:55:51.285437 21598 net.cpp:91] Creating Layer inception_4a/relu_1x1
I0403 16:55:51.285452 21598 net.cpp:425] inception_4a/relu_1x1 <- inception_4a/1x1
I0403 16:55:51.285470 21598 net.cpp:386] inception_4a/relu_1x1 -> inception_4a/1x1 (in-place)
I0403 16:55:51.285643 21598 net.cpp:141] Setting up inception_4a/relu_1x1
I0403 16:55:51.285667 21598 net.cpp:148] Top shape: 24 192 14 14 (903168)
I0403 16:55:51.285682 21598 net.cpp:156] Memory required for data: 861623328
I0403 16:55:51.285696 21598 layer_factory.hpp:77] Creating layer inception_4a/3x3_reduce
I0403 16:55:51.285718 21598 net.cpp:91] Creating Layer inception_4a/3x3_reduce
I0403 16:55:51.285735 21598 net.cpp:425] inception_4a/3x3_reduce <- pool3/3x3_s2_pool3/3x3_s2_0_split_1
I0403 16:55:51.285758 21598 net.cpp:399] inception_4a/3x3_reduce -> inception_4a/3x3_reduce
I0403 16:55:51.287042 21598 net.cpp:141] Setting up inception_4a/3x3_reduce
I0403 16:55:51.287073 21598 net.cpp:148] Top shape: 24 96 14 14 (451584)
I0403 16:55:51.287091 21598 net.cpp:156] Memory required for data: 863429664
I0403 16:55:51.287117 21598 layer_factory.hpp:77] Creating layer inception_4a/relu_3x3_reduce
I0403 16:55:51.287137 21598 net.cpp:91] Creating Layer inception_4a/relu_3x3_reduce
I0403 16:55:51.287154 21598 net.cpp:425] inception_4a/relu_3x3_reduce <- inception_4a/3x3_reduce
I0403 16:55:51.287171 21598 net.cpp:386] inception_4a/relu_3x3_reduce -> inception_4a/3x3_reduce (in-place)
I0403 16:55:51.287361 21598 net.cpp:141] Setting up inception_4a/relu_3x3_reduce
I0403 16:55:51.287389 21598 net.cpp:148] Top shape: 24 96 14 14 (451584)
I0403 16:55:51.287406 21598 net.cpp:156] Memory required for data: 865236000
I0403 16:55:51.287422 21598 layer_factory.hpp:77] Creating layer inception_4a/3x3
I0403 16:55:51.287446 21598 net.cpp:91] Creating Layer inception_4a/3x3
I0403 16:55:51.287463 21598 net.cpp:425] inception_4a/3x3 <- inception_4a/3x3_reduce
I0403 16:55:51.287485 21598 net.cpp:399] inception_4a/3x3 -> inception_4a/3x3
I0403 16:55:51.290146 21598 net.cpp:141] Setting up inception_4a/3x3
I0403 16:55:51.290175 21598 net.cpp:148] Top shape: 24 208 14 14 (978432)
I0403 16:55:51.290191 21598 net.cpp:156] Memory required for data: 869149728
I0403 16:55:51.290210 21598 layer_factory.hpp:77] Creating layer inception_4a/relu_3x3
I0403 16:55:51.290227 21598 net.cpp:91] Creating Layer inception_4a/relu_3x3
I0403 16:55:51.290246 21598 net.cpp:425] inception_4a/relu_3x3 <- inception_4a/3x3
I0403 16:55:51.290266 21598 net.cpp:386] inception_4a/relu_3x3 -> inception_4a/3x3 (in-place)
I0403 16:55:51.290549 21598 net.cpp:141] Setting up inception_4a/relu_3x3
I0403 16:55:51.290575 21598 net.cpp:148] Top shape: 24 208 14 14 (978432)
I0403 16:55:51.290590 21598 net.cpp:156] Memory required for data: 873063456
I0403 16:55:51.290603 21598 layer_factory.hpp:77] Creating layer inception_4a/5x5_reduce
I0403 16:55:51.290624 21598 net.cpp:91] Creating Layer inception_4a/5x5_reduce
I0403 16:55:51.290640 21598 net.cpp:425] inception_4a/5x5_reduce <- pool3/3x3_s2_pool3/3x3_s2_0_split_2
I0403 16:55:51.290662 21598 net.cpp:399] inception_4a/5x5_reduce -> inception_4a/5x5_reduce
I0403 16:55:51.291647 21598 net.cpp:141] Setting up inception_4a/5x5_reduce
I0403 16:55:51.291673 21598 net.cpp:148] Top shape: 24 16 14 14 (75264)
I0403 16:55:51.291689 21598 net.cpp:156] Memory required for data: 873364512
I0403 16:55:51.291707 21598 layer_factory.hpp:77] Creating layer inception_4a/relu_5x5_reduce
I0403 16:55:51.291725 21598 net.cpp:91] Creating Layer inception_4a/relu_5x5_reduce
I0403 16:55:51.291741 21598 net.cpp:425] inception_4a/relu_5x5_reduce <- inception_4a/5x5_reduce
I0403 16:55:51.291757 21598 net.cpp:386] inception_4a/relu_5x5_reduce -> inception_4a/5x5_reduce (in-place)
I0403 16:55:51.291928 21598 net.cpp:141] Setting up inception_4a/relu_5x5_reduce
I0403 16:55:51.291951 21598 net.cpp:148] Top shape: 24 16 14 14 (75264)
I0403 16:55:51.291970 21598 net.cpp:156] Memory required for data: 873665568
I0403 16:55:51.291985 21598 layer_factory.hpp:77] Creating layer inception_4a/5x5
I0403 16:55:51.292007 21598 net.cpp:91] Creating Layer inception_4a/5x5
I0403 16:55:51.292024 21598 net.cpp:425] inception_4a/5x5 <- inception_4a/5x5_reduce
I0403 16:55:51.292044 21598 net.cpp:399] inception_4a/5x5 -> inception_4a/5x5
I0403 16:55:51.293090 21598 net.cpp:141] Setting up inception_4a/5x5
I0403 16:55:51.293118 21598 net.cpp:148] Top shape: 24 48 14 14 (225792)
I0403 16:55:51.293133 21598 net.cpp:156] Memory required for data: 874568736
I0403 16:55:51.293150 21598 layer_factory.hpp:77] Creating layer inception_4a/relu_5x5
I0403 16:55:51.293170 21598 net.cpp:91] Creating Layer inception_4a/relu_5x5
I0403 16:55:51.293186 21598 net.cpp:425] inception_4a/relu_5x5 <- inception_4a/5x5
I0403 16:55:51.293203 21598 net.cpp:386] inception_4a/relu_5x5 -> inception_4a/5x5 (in-place)
I0403 16:55:51.293376 21598 net.cpp:141] Setting up inception_4a/relu_5x5
I0403 16:55:51.293400 21598 net.cpp:148] Top shape: 24 48 14 14 (225792)
I0403 16:55:51.293413 21598 net.cpp:156] Memory required for data: 875471904
I0403 16:55:51.293426 21598 layer_factory.hpp:77] Creating layer inception_4a/pool
I0403 16:55:51.293442 21598 net.cpp:91] Creating Layer inception_4a/pool
I0403 16:55:51.293457 21598 net.cpp:425] inception_4a/pool <- pool3/3x3_s2_pool3/3x3_s2_0_split_3
I0403 16:55:51.293476 21598 net.cpp:399] inception_4a/pool -> inception_4a/pool
I0403 16:55:51.293534 21598 net.cpp:141] Setting up inception_4a/pool
I0403 16:55:51.293557 21598 net.cpp:148] Top shape: 24 480 14 14 (2257920)
I0403 16:55:51.293571 21598 net.cpp:156] Memory required for data: 884503584
I0403 16:55:51.293584 21598 layer_factory.hpp:77] Creating layer inception_4a/pool_proj
I0403 16:55:51.293607 21598 net.cpp:91] Creating Layer inception_4a/pool_proj
I0403 16:55:51.293623 21598 net.cpp:425] inception_4a/pool_proj <- inception_4a/pool
I0403 16:55:51.293642 21598 net.cpp:399] inception_4a/pool_proj -> inception_4a/pool_proj
I0403 16:55:51.294764 21598 net.cpp:141] Setting up inception_4a/pool_proj
I0403 16:55:51.294793 21598 net.cpp:148] Top shape: 24 64 14 14 (301056)
I0403 16:55:51.294824 21598 net.cpp:156] Memory required for data: 885707808
I0403 16:55:51.294843 21598 layer_factory.hpp:77] Creating layer inception_4a/relu_pool_proj
I0403 16:55:51.294862 21598 net.cpp:91] Creating Layer inception_4a/relu_pool_proj
I0403 16:55:51.294878 21598 net.cpp:425] inception_4a/relu_pool_proj <- inception_4a/pool_proj
I0403 16:55:51.294898 21598 net.cpp:386] inception_4a/relu_pool_proj -> inception_4a/pool_proj (in-place)
I0403 16:55:51.295172 21598 net.cpp:141] Setting up inception_4a/relu_pool_proj
I0403 16:55:51.295199 21598 net.cpp:148] Top shape: 24 64 14 14 (301056)
I0403 16:55:51.295214 21598 net.cpp:156] Memory required for data: 886912032
I0403 16:55:51.295228 21598 layer_factory.hpp:77] Creating layer inception_4a/output
I0403 16:55:51.295246 21598 net.cpp:91] Creating Layer inception_4a/output
I0403 16:55:51.295261 21598 net.cpp:425] inception_4a/output <- inception_4a/1x1
I0403 16:55:51.295277 21598 net.cpp:425] inception_4a/output <- inception_4a/3x3
I0403 16:55:51.295292 21598 net.cpp:425] inception_4a/output <- inception_4a/5x5
I0403 16:55:51.295307 21598 net.cpp:425] inception_4a/output <- inception_4a/pool_proj
I0403 16:55:51.295323 21598 net.cpp:399] inception_4a/output -> inception_4a/output
I0403 16:55:51.295367 21598 net.cpp:141] Setting up inception_4a/output
I0403 16:55:51.295388 21598 net.cpp:148] Top shape: 24 512 14 14 (2408448)
I0403 16:55:51.295403 21598 net.cpp:156] Memory required for data: 896545824
I0403 16:55:51.295416 21598 layer_factory.hpp:77] Creating layer inception_4a/output_inception_4a/output_0_split
I0403 16:55:51.295435 21598 net.cpp:91] Creating Layer inception_4a/output_inception_4a/output_0_split
I0403 16:55:51.295450 21598 net.cpp:425] inception_4a/output_inception_4a/output_0_split <- inception_4a/output
I0403 16:55:51.295469 21598 net.cpp:399] inception_4a/output_inception_4a/output_0_split -> inception_4a/output_inception_4a/output_0_split_0
I0403 16:55:51.295487 21598 net.cpp:399] inception_4a/output_inception_4a/output_0_split -> inception_4a/output_inception_4a/output_0_split_1
I0403 16:55:51.295509 21598 net.cpp:399] inception_4a/output_inception_4a/output_0_split -> inception_4a/output_inception_4a/output_0_split_2
I0403 16:55:51.295529 21598 net.cpp:399] inception_4a/output_inception_4a/output_0_split -> inception_4a/output_inception_4a/output_0_split_3
I0403 16:55:51.295547 21598 net.cpp:399] inception_4a/output_inception_4a/output_0_split -> inception_4a/output_inception_4a/output_0_split_4
I0403 16:55:51.295635 21598 net.cpp:141] Setting up inception_4a/output_inception_4a/output_0_split
I0403 16:55:51.295657 21598 net.cpp:148] Top shape: 24 512 14 14 (2408448)
I0403 16:55:51.295672 21598 net.cpp:148] Top shape: 24 512 14 14 (2408448)
I0403 16:55:51.295687 21598 net.cpp:148] Top shape: 24 512 14 14 (2408448)
I0403 16:55:51.295701 21598 net.cpp:148] Top shape: 24 512 14 14 (2408448)
I0403 16:55:51.295717 21598 net.cpp:148] Top shape: 24 512 14 14 (2408448)
I0403 16:55:51.295729 21598 net.cpp:156] Memory required for data: 944714784
I0403 16:55:51.295742 21598 layer_factory.hpp:77] Creating layer loss1/ave_pool
I0403 16:55:51.295759 21598 net.cpp:91] Creating Layer loss1/ave_pool
I0403 16:55:51.295774 21598 net.cpp:425] loss1/ave_pool <- inception_4a/output_inception_4a/output_0_split_0
I0403 16:55:51.295794 21598 net.cpp:399] loss1/ave_pool -> loss1/ave_pool
I0403 16:55:51.295999 21598 net.cpp:141] Setting up loss1/ave_pool
I0403 16:55:51.296025 21598 net.cpp:148] Top shape: 24 512 4 4 (196608)
I0403 16:55:51.296041 21598 net.cpp:156] Memory required for data: 945501216
I0403 16:55:51.296054 21598 layer_factory.hpp:77] Creating layer loss1/conv
I0403 16:55:51.296078 21598 net.cpp:91] Creating Layer loss1/conv
I0403 16:55:51.296094 21598 net.cpp:425] loss1/conv <- loss1/ave_pool
I0403 16:55:51.296113 21598 net.cpp:399] loss1/conv -> loss1/conv
I0403 16:55:51.297467 21598 net.cpp:141] Setting up loss1/conv
I0403 16:55:51.297495 21598 net.cpp:148] Top shape: 24 128 4 4 (49152)
I0403 16:55:51.297511 21598 net.cpp:156] Memory required for data: 945697824
I0403 16:55:51.297544 21598 layer_factory.hpp:77] Creating layer loss1/relu_conv
I0403 16:55:51.297564 21598 net.cpp:91] Creating Layer loss1/relu_conv
I0403 16:55:51.297579 21598 net.cpp:425] loss1/relu_conv <- loss1/conv
I0403 16:55:51.297597 21598 net.cpp:386] loss1/relu_conv -> loss1/conv (in-place)
I0403 16:55:51.297869 21598 net.cpp:141] Setting up loss1/relu_conv
I0403 16:55:51.297895 21598 net.cpp:148] Top shape: 24 128 4 4 (49152)
I0403 16:55:51.297910 21598 net.cpp:156] Memory required for data: 945894432
I0403 16:55:51.297925 21598 layer_factory.hpp:77] Creating layer loss1/fc
I0403 16:55:51.297948 21598 net.cpp:91] Creating Layer loss1/fc
I0403 16:55:51.297971 21598 net.cpp:425] loss1/fc <- loss1/conv
I0403 16:55:51.297993 21598 net.cpp:399] loss1/fc -> loss1/fc
I0403 16:55:51.315253 21598 net.cpp:141] Setting up loss1/fc
I0403 16:55:51.315285 21598 net.cpp:148] Top shape: 24 1024 (24576)
I0403 16:55:51.315301 21598 net.cpp:156] Memory required for data: 945992736
I0403 16:55:51.315320 21598 layer_factory.hpp:77] Creating layer loss1/relu_fc
I0403 16:55:51.315337 21598 net.cpp:91] Creating Layer loss1/relu_fc
I0403 16:55:51.315353 21598 net.cpp:425] loss1/relu_fc <- loss1/fc
I0403 16:55:51.315371 21598 net.cpp:386] loss1/relu_fc -> loss1/fc (in-place)
I0403 16:55:51.315546 21598 net.cpp:141] Setting up loss1/relu_fc
I0403 16:55:51.315572 21598 net.cpp:148] Top shape: 24 1024 (24576)
I0403 16:55:51.315587 21598 net.cpp:156] Memory required for data: 946091040
I0403 16:55:51.315601 21598 layer_factory.hpp:77] Creating layer loss1/drop_fc
I0403 16:55:51.315628 21598 net.cpp:91] Creating Layer loss1/drop_fc
I0403 16:55:51.315646 21598 net.cpp:425] loss1/drop_fc <- loss1/fc
I0403 16:55:51.315667 21598 net.cpp:386] loss1/drop_fc -> loss1/fc (in-place)
I0403 16:55:51.315717 21598 net.cpp:141] Setting up loss1/drop_fc
I0403 16:55:51.315742 21598 net.cpp:148] Top shape: 24 1024 (24576)
I0403 16:55:51.315755 21598 net.cpp:156] Memory required for data: 946189344
I0403 16:55:51.315769 21598 layer_factory.hpp:77] Creating layer loss1/classifier_plantvillage
I0403 16:55:51.315793 21598 net.cpp:91] Creating Layer loss1/classifier_plantvillage
I0403 16:55:51.315809 21598 net.cpp:425] loss1/classifier_plantvillage <- loss1/fc
I0403 16:55:51.315829 21598 net.cpp:399] loss1/classifier_plantvillage -> loss1/classifier_plantvillage
I0403 16:55:51.316743 21598 net.cpp:141] Setting up loss1/classifier_plantvillage
I0403 16:55:51.316771 21598 net.cpp:148] Top shape: 24 38 (912)
I0403 16:55:51.316786 21598 net.cpp:156] Memory required for data: 946192992
I0403 16:55:51.316802 21598 layer_factory.hpp:77] Creating layer loss1/classifier_plantvillage_loss1/classifier_plantvillage_0_split
I0403 16:55:51.316819 21598 net.cpp:91] Creating Layer loss1/classifier_plantvillage_loss1/classifier_plantvillage_0_split
I0403 16:55:51.316834 21598 net.cpp:425] loss1/classifier_plantvillage_loss1/classifier_plantvillage_0_split <- loss1/classifier_plantvillage
I0403 16:55:51.316854 21598 net.cpp:399] loss1/classifier_plantvillage_loss1/classifier_plantvillage_0_split -> loss1/classifier_plantvillage_loss1/classifier_plantvillage_0_split_0
I0403 16:55:51.316874 21598 net.cpp:399] loss1/classifier_plantvillage_loss1/classifier_plantvillage_0_split -> loss1/classifier_plantvillage_loss1/classifier_plantvillage_0_split_1
I0403 16:55:51.316892 21598 net.cpp:399] loss1/classifier_plantvillage_loss1/classifier_plantvillage_0_split -> loss1/classifier_plantvillage_loss1/classifier_plantvillage_0_split_2
I0403 16:55:51.316958 21598 net.cpp:141] Setting up loss1/classifier_plantvillage_loss1/classifier_plantvillage_0_split
I0403 16:55:51.316982 21598 net.cpp:148] Top shape: 24 38 (912)
I0403 16:55:51.316997 21598 net.cpp:148] Top shape: 24 38 (912)
I0403 16:55:51.317011 21598 net.cpp:148] Top shape: 24 38 (912)
I0403 16:55:51.317024 21598 net.cpp:156] Memory required for data: 946203936
I0403 16:55:51.317039 21598 layer_factory.hpp:77] Creating layer inception_4b/1x1
I0403 16:55:51.317059 21598 net.cpp:91] Creating Layer inception_4b/1x1
I0403 16:55:51.317091 21598 net.cpp:425] inception_4b/1x1 <- inception_4a/output_inception_4a/output_0_split_1
I0403 16:55:51.317111 21598 net.cpp:399] inception_4b/1x1 -> inception_4b/1x1
I0403 16:55:51.318691 21598 net.cpp:141] Setting up inception_4b/1x1
I0403 16:55:51.318722 21598 net.cpp:148] Top shape: 24 160 14 14 (752640)
I0403 16:55:51.318737 21598 net.cpp:156] Memory required for data: 949214496
I0403 16:55:51.318753 21598 layer_factory.hpp:77] Creating layer inception_4b/relu_1x1
I0403 16:55:51.318771 21598 net.cpp:91] Creating Layer inception_4b/relu_1x1
I0403 16:55:51.318786 21598 net.cpp:425] inception_4b/relu_1x1 <- inception_4b/1x1
I0403 16:55:51.318805 21598 net.cpp:386] inception_4b/relu_1x1 -> inception_4b/1x1 (in-place)
I0403 16:55:51.318987 21598 net.cpp:141] Setting up inception_4b/relu_1x1
I0403 16:55:51.319012 21598 net.cpp:148] Top shape: 24 160 14 14 (752640)
I0403 16:55:51.319026 21598 net.cpp:156] Memory required for data: 952225056
I0403 16:55:51.319041 21598 layer_factory.hpp:77] Creating layer inception_4b/3x3_reduce
I0403 16:55:51.319061 21598 net.cpp:91] Creating Layer inception_4b/3x3_reduce
I0403 16:55:51.319078 21598 net.cpp:425] inception_4b/3x3_reduce <- inception_4a/output_inception_4a/output_0_split_2
I0403 16:55:51.319102 21598 net.cpp:399] inception_4b/3x3_reduce -> inception_4b/3x3_reduce
I0403 16:55:51.320614 21598 net.cpp:141] Setting up inception_4b/3x3_reduce
I0403 16:55:51.320643 21598 net.cpp:148] Top shape: 24 112 14 14 (526848)
I0403 16:55:51.320658 21598 net.cpp:156] Memory required for data: 954332448
I0403 16:55:51.320677 21598 layer_factory.hpp:77] Creating layer inception_4b/relu_3x3_reduce
I0403 16:55:51.320698 21598 net.cpp:91] Creating Layer inception_4b/relu_3x3_reduce
I0403 16:55:51.320714 21598 net.cpp:425] inception_4b/relu_3x3_reduce <- inception_4b/3x3_reduce
I0403 16:55:51.320731 21598 net.cpp:386] inception_4b/relu_3x3_reduce -> inception_4b/3x3_reduce (in-place)
I0403 16:55:51.321010 21598 net.cpp:141] Setting up inception_4b/relu_3x3_reduce
I0403 16:55:51.321036 21598 net.cpp:148] Top shape: 24 112 14 14 (526848)
I0403 16:55:51.321050 21598 net.cpp:156] Memory required for data: 956439840
I0403 16:55:51.321064 21598 layer_factory.hpp:77] Creating layer inception_4b/3x3
I0403 16:55:51.321086 21598 net.cpp:91] Creating Layer inception_4b/3x3
I0403 16:55:51.321104 21598 net.cpp:425] inception_4b/3x3 <- inception_4b/3x3_reduce
I0403 16:55:51.321123 21598 net.cpp:399] inception_4b/3x3 -> inception_4b/3x3
I0403 16:55:51.323994 21598 net.cpp:141] Setting up inception_4b/3x3
I0403 16:55:51.324026 21598 net.cpp:148] Top shape: 24 224 14 14 (1053696)
I0403 16:55:51.324043 21598 net.cpp:156] Memory required for data: 960654624
I0403 16:55:51.324061 21598 layer_factory.hpp:77] Creating layer inception_4b/relu_3x3
I0403 16:55:51.324080 21598 net.cpp:91] Creating Layer inception_4b/relu_3x3
I0403 16:55:51.324096 21598 net.cpp:425] inception_4b/relu_3x3 <- inception_4b/3x3
I0403 16:55:51.324115 21598 net.cpp:386] inception_4b/relu_3x3 -> inception_4b/3x3 (in-place)
I0403 16:55:51.324290 21598 net.cpp:141] Setting up inception_4b/relu_3x3
I0403 16:55:51.324313 21598 net.cpp:148] Top shape: 24 224 14 14 (1053696)
I0403 16:55:51.324328 21598 net.cpp:156] Memory required for data: 964869408
I0403 16:55:51.324342 21598 layer_factory.hpp:77] Creating layer inception_4b/5x5_reduce
I0403 16:55:51.324365 21598 net.cpp:91] Creating Layer inception_4b/5x5_reduce
I0403 16:55:51.324383 21598 net.cpp:425] inception_4b/5x5_reduce <- inception_4a/output_inception_4a/output_0_split_3
I0403 16:55:51.324403 21598 net.cpp:399] inception_4b/5x5_reduce -> inception_4b/5x5_reduce
I0403 16:55:51.325444 21598 net.cpp:141] Setting up inception_4b/5x5_reduce
I0403 16:55:51.325472 21598 net.cpp:148] Top shape: 24 24 14 14 (112896)
I0403 16:55:51.325487 21598 net.cpp:156] Memory required for data: 965320992
I0403 16:55:51.325505 21598 layer_factory.hpp:77] Creating layer inception_4b/relu_5x5_reduce
I0403 16:55:51.325525 21598 net.cpp:91] Creating Layer inception_4b/relu_5x5_reduce
I0403 16:55:51.325556 21598 net.cpp:425] inception_4b/relu_5x5_reduce <- inception_4b/5x5_reduce
I0403 16:55:51.325577 21598 net.cpp:386] inception_4b/relu_5x5_reduce -> inception_4b/5x5_reduce (in-place)
I0403 16:55:51.325754 21598 net.cpp:141] Setting up inception_4b/relu_5x5_reduce
I0403 16:55:51.325779 21598 net.cpp:148] Top shape: 24 24 14 14 (112896)
I0403 16:55:51.325794 21598 net.cpp:156] Memory required for data: 965772576
I0403 16:55:51.325809 21598 layer_factory.hpp:77] Creating layer inception_4b/5x5
I0403 16:55:51.325832 21598 net.cpp:91] Creating Layer inception_4b/5x5
I0403 16:55:51.325850 21598 net.cpp:425] inception_4b/5x5 <- inception_4b/5x5_reduce
I0403 16:55:51.325870 21598 net.cpp:399] inception_4b/5x5 -> inception_4b/5x5
I0403 16:55:51.327052 21598 net.cpp:141] Setting up inception_4b/5x5
I0403 16:55:51.327080 21598 net.cpp:148] Top shape: 24 64 14 14 (301056)
I0403 16:55:51.327096 21598 net.cpp:156] Memory required for data: 966976800
I0403 16:55:51.327114 21598 layer_factory.hpp:77] Creating layer inception_4b/relu_5x5
I0403 16:55:51.327132 21598 net.cpp:91] Creating Layer inception_4b/relu_5x5
I0403 16:55:51.327148 21598 net.cpp:425] inception_4b/relu_5x5 <- inception_4b/5x5
I0403 16:55:51.327167 21598 net.cpp:386] inception_4b/relu_5x5 -> inception_4b/5x5 (in-place)
I0403 16:55:51.327446 21598 net.cpp:141] Setting up inception_4b/relu_5x5
I0403 16:55:51.327471 21598 net.cpp:148] Top shape: 24 64 14 14 (301056)
I0403 16:55:51.327486 21598 net.cpp:156] Memory required for data: 968181024
I0403 16:55:51.327499 21598 layer_factory.hpp:77] Creating layer inception_4b/pool
I0403 16:55:51.327517 21598 net.cpp:91] Creating Layer inception_4b/pool
I0403 16:55:51.327532 21598 net.cpp:425] inception_4b/pool <- inception_4a/output_inception_4a/output_0_split_4
I0403 16:55:51.327551 21598 net.cpp:399] inception_4b/pool -> inception_4b/pool
I0403 16:55:51.327613 21598 net.cpp:141] Setting up inception_4b/pool
I0403 16:55:51.327636 21598 net.cpp:148] Top shape: 24 512 14 14 (2408448)
I0403 16:55:51.327651 21598 net.cpp:156] Memory required for data: 977814816
I0403 16:55:51.327663 21598 layer_factory.hpp:77] Creating layer inception_4b/pool_proj
I0403 16:55:51.327685 21598 net.cpp:91] Creating Layer inception_4b/pool_proj
I0403 16:55:51.327702 21598 net.cpp:425] inception_4b/pool_proj <- inception_4b/pool
I0403 16:55:51.327720 21598 net.cpp:399] inception_4b/pool_proj -> inception_4b/pool_proj
I0403 16:55:51.328881 21598 net.cpp:141] Setting up inception_4b/pool_proj
I0403 16:55:51.328908 21598 net.cpp:148] Top shape: 24 64 14 14 (301056)
I0403 16:55:51.328924 21598 net.cpp:156] Memory required for data: 979019040
I0403 16:55:51.328941 21598 layer_factory.hpp:77] Creating layer inception_4b/relu_pool_proj
I0403 16:55:51.328970 21598 net.cpp:91] Creating Layer inception_4b/relu_pool_proj
I0403 16:55:51.328990 21598 net.cpp:425] inception_4b/relu_pool_proj <- inception_4b/pool_proj
I0403 16:55:51.329007 21598 net.cpp:386] inception_4b/relu_pool_proj -> inception_4b/pool_proj (in-place)
I0403 16:55:51.329180 21598 net.cpp:141] Setting up inception_4b/relu_pool_proj
I0403 16:55:51.329206 21598 net.cpp:148] Top shape: 24 64 14 14 (301056)
I0403 16:55:51.329221 21598 net.cpp:156] Memory required for data: 980223264
I0403 16:55:51.329236 21598 layer_factory.hpp:77] Creating layer inception_4b/output
I0403 16:55:51.329252 21598 net.cpp:91] Creating Layer inception_4b/output
I0403 16:55:51.329267 21598 net.cpp:425] inception_4b/output <- inception_4b/1x1
I0403 16:55:51.329282 21598 net.cpp:425] inception_4b/output <- inception_4b/3x3
I0403 16:55:51.329298 21598 net.cpp:425] inception_4b/output <- inception_4b/5x5
I0403 16:55:51.329313 21598 net.cpp:425] inception_4b/output <- inception_4b/pool_proj
I0403 16:55:51.329327 21598 net.cpp:399] inception_4b/output -> inception_4b/output
I0403 16:55:51.329371 21598 net.cpp:141] Setting up inception_4b/output
I0403 16:55:51.329393 21598 net.cpp:148] Top shape: 24 512 14 14 (2408448)
I0403 16:55:51.329407 21598 net.cpp:156] Memory required for data: 989857056
I0403 16:55:51.329435 21598 layer_factory.hpp:77] Creating layer inception_4b/output_inception_4b/output_0_split
I0403 16:55:51.329453 21598 net.cpp:91] Creating Layer inception_4b/output_inception_4b/output_0_split
I0403 16:55:51.329471 21598 net.cpp:425] inception_4b/output_inception_4b/output_0_split <- inception_4b/output
I0403 16:55:51.329488 21598 net.cpp:399] inception_4b/output_inception_4b/output_0_split -> inception_4b/output_inception_4b/output_0_split_0
I0403 16:55:51.329507 21598 net.cpp:399] inception_4b/output_inception_4b/output_0_split -> inception_4b/output_inception_4b/output_0_split_1
I0403 16:55:51.329526 21598 net.cpp:399] inception_4b/output_inception_4b/output_0_split -> inception_4b/output_inception_4b/output_0_split_2
I0403 16:55:51.329545 21598 net.cpp:399] inception_4b/output_inception_4b/output_0_split -> inception_4b/output_inception_4b/output_0_split_3
I0403 16:55:51.329623 21598 net.cpp:141] Setting up inception_4b/output_inception_4b/output_0_split
I0403 16:55:51.329645 21598 net.cpp:148] Top shape: 24 512 14 14 (2408448)
I0403 16:55:51.329661 21598 net.cpp:148] Top shape: 24 512 14 14 (2408448)
I0403 16:55:51.329676 21598 net.cpp:148] Top shape: 24 512 14 14 (2408448)
I0403 16:55:51.329690 21598 net.cpp:148] Top shape: 24 512 14 14 (2408448)
I0403 16:55:51.329704 21598 net.cpp:156] Memory required for data: 1028392224
I0403 16:55:51.329717 21598 layer_factory.hpp:77] Creating layer inception_4c/1x1
I0403 16:55:51.329738 21598 net.cpp:91] Creating Layer inception_4c/1x1
I0403 16:55:51.329754 21598 net.cpp:425] inception_4c/1x1 <- inception_4b/output_inception_4b/output_0_split_0
I0403 16:55:51.329774 21598 net.cpp:399] inception_4c/1x1 -> inception_4c/1x1
I0403 16:55:51.331163 21598 net.cpp:141] Setting up inception_4c/1x1
I0403 16:55:51.331194 21598 net.cpp:148] Top shape: 24 128 14 14 (602112)
I0403 16:55:51.331209 21598 net.cpp:156] Memory required for data: 1030800672
I0403 16:55:51.331228 21598 layer_factory.hpp:77] Creating layer inception_4c/relu_1x1
I0403 16:55:51.331257 21598 net.cpp:91] Creating Layer inception_4c/relu_1x1
I0403 16:55:51.331274 21598 net.cpp:425] inception_4c/relu_1x1 <- inception_4c/1x1
I0403 16:55:51.331290 21598 net.cpp:386] inception_4c/relu_1x1 -> inception_4c/1x1 (in-place)
I0403 16:55:51.331472 21598 net.cpp:141] Setting up inception_4c/relu_1x1
I0403 16:55:51.331497 21598 net.cpp:148] Top shape: 24 128 14 14 (602112)
I0403 16:55:51.331511 21598 net.cpp:156] Memory required for data: 1033209120
I0403 16:55:51.331526 21598 layer_factory.hpp:77] Creating layer inception_4c/3x3_reduce
I0403 16:55:51.331558 21598 net.cpp:91] Creating Layer inception_4c/3x3_reduce
I0403 16:55:51.331576 21598 net.cpp:425] inception_4c/3x3_reduce <- inception_4b/output_inception_4b/output_0_split_1
I0403 16:55:51.331598 21598 net.cpp:399] inception_4c/3x3_reduce -> inception_4c/3x3_reduce
I0403 16:55:51.333483 21598 net.cpp:141] Setting up inception_4c/3x3_reduce
I0403 16:55:51.333513 21598 net.cpp:148] Top shape: 24 128 14 14 (602112)
I0403 16:55:51.333529 21598 net.cpp:156] Memory required for data: 1035617568
I0403 16:55:51.333561 21598 layer_factory.hpp:77] Creating layer inception_4c/relu_3x3_reduce
I0403 16:55:51.333582 21598 net.cpp:91] Creating Layer inception_4c/relu_3x3_reduce
I0403 16:55:51.333600 21598 net.cpp:425] inception_4c/relu_3x3_reduce <- inception_4c/3x3_reduce
I0403 16:55:51.333617 21598 net.cpp:386] inception_4c/relu_3x3_reduce -> inception_4c/3x3_reduce (in-place)
I0403 16:55:51.333894 21598 net.cpp:141] Setting up inception_4c/relu_3x3_reduce
I0403 16:55:51.333920 21598 net.cpp:148] Top shape: 24 128 14 14 (602112)
I0403 16:55:51.333935 21598 net.cpp:156] Memory required for data: 1038026016
I0403 16:55:51.333948 21598 layer_factory.hpp:77] Creating layer inception_4c/3x3
I0403 16:55:51.333976 21598 net.cpp:91] Creating Layer inception_4c/3x3
I0403 16:55:51.333992 21598 net.cpp:425] inception_4c/3x3 <- inception_4c/3x3_reduce
I0403 16:55:51.334013 21598 net.cpp:399] inception_4c/3x3 -> inception_4c/3x3
I0403 16:55:51.337623 21598 net.cpp:141] Setting up inception_4c/3x3
I0403 16:55:51.337666 21598 net.cpp:148] Top shape: 24 256 14 14 (1204224)
I0403 16:55:51.337683 21598 net.cpp:156] Memory required for data: 1042842912
I0403 16:55:51.337715 21598 layer_factory.hpp:77] Creating layer inception_4c/relu_3x3
I0403 16:55:51.337738 21598 net.cpp:91] Creating Layer inception_4c/relu_3x3
I0403 16:55:51.337754 21598 net.cpp:425] inception_4c/relu_3x3 <- inception_4c/3x3
I0403 16:55:51.337771 21598 net.cpp:386] inception_4c/relu_3x3 -> inception_4c/3x3 (in-place)
I0403 16:55:51.337949 21598 net.cpp:141] Setting up inception_4c/relu_3x3
I0403 16:55:51.337978 21598 net.cpp:148] Top shape: 24 256 14 14 (1204224)
I0403 16:55:51.337992 21598 net.cpp:156] Memory required for data: 1047659808
I0403 16:55:51.338007 21598 layer_factory.hpp:77] Creating layer inception_4c/5x5_reduce
I0403 16:55:51.338029 21598 net.cpp:91] Creating Layer inception_4c/5x5_reduce
I0403 16:55:51.338047 21598 net.cpp:425] inception_4c/5x5_reduce <- inception_4b/output_inception_4b/output_0_split_2
I0403 16:55:51.338068 21598 net.cpp:399] inception_4c/5x5_reduce -> inception_4c/5x5_reduce
I0403 16:55:51.339159 21598 net.cpp:141] Setting up inception_4c/5x5_reduce
I0403 16:55:51.339189 21598 net.cpp:148] Top shape: 24 24 14 14 (112896)
I0403 16:55:51.339205 21598 net.cpp:156] Memory required for data: 1048111392
I0403 16:55:51.339222 21598 layer_factory.hpp:77] Creating layer inception_4c/relu_5x5_reduce
I0403 16:55:51.339241 21598 net.cpp:91] Creating Layer inception_4c/relu_5x5_reduce
I0403 16:55:51.339258 21598 net.cpp:425] inception_4c/relu_5x5_reduce <- inception_4c/5x5_reduce
I0403 16:55:51.339275 21598 net.cpp:386] inception_4c/relu_5x5_reduce -> inception_4c/5x5_reduce (in-place)
I0403 16:55:51.339460 21598 net.cpp:141] Setting up inception_4c/relu_5x5_reduce
I0403 16:55:51.339485 21598 net.cpp:148] Top shape: 24 24 14 14 (112896)
I0403 16:55:51.339499 21598 net.cpp:156] Memory required for data: 1048562976
I0403 16:55:51.339514 21598 layer_factory.hpp:77] Creating layer inception_4c/5x5
I0403 16:55:51.339539 21598 net.cpp:91] Creating Layer inception_4c/5x5
I0403 16:55:51.339555 21598 net.cpp:425] inception_4c/5x5 <- inception_4c/5x5_reduce
I0403 16:55:51.339573 21598 net.cpp:399] inception_4c/5x5 -> inception_4c/5x5
I0403 16:55:51.340806 21598 net.cpp:141] Setting up inception_4c/5x5
I0403 16:55:51.340837 21598 net.cpp:148] Top shape: 24 64 14 14 (301056)
I0403 16:55:51.340855 21598 net.cpp:156] Memory required for data: 1049767200
I0403 16:55:51.340874 21598 layer_factory.hpp:77] Creating layer inception_4c/relu_5x5
I0403 16:55:51.340893 21598 net.cpp:91] Creating Layer inception_4c/relu_5x5
I0403 16:55:51.340909 21598 net.cpp:425] inception_4c/relu_5x5 <- inception_4c/5x5
I0403 16:55:51.340925 21598 net.cpp:386] inception_4c/relu_5x5 -> inception_4c/5x5 (in-place)
I0403 16:55:51.341219 21598 net.cpp:141] Setting up inception_4c/relu_5x5
I0403 16:55:51.341249 21598 net.cpp:148] Top shape: 24 64 14 14 (301056)
I0403 16:55:51.341265 21598 net.cpp:156] Memory required for data: 1050971424
I0403 16:55:51.341280 21598 layer_factory.hpp:77] Creating layer inception_4c/pool
I0403 16:55:51.341297 21598 net.cpp:91] Creating Layer inception_4c/pool
I0403 16:55:51.341313 21598 net.cpp:425] inception_4c/pool <- inception_4b/output_inception_4b/output_0_split_3
I0403 16:55:51.341331 21598 net.cpp:399] inception_4c/pool -> inception_4c/pool
I0403 16:55:51.341395 21598 net.cpp:141] Setting up inception_4c/pool
I0403 16:55:51.341419 21598 net.cpp:148] Top shape: 24 512 14 14 (2408448)
I0403 16:55:51.341434 21598 net.cpp:156] Memory required for data: 1060605216
I0403 16:55:51.341449 21598 layer_factory.hpp:77] Creating layer inception_4c/pool_proj
I0403 16:55:51.341470 21598 net.cpp:91] Creating Layer inception_4c/pool_proj
I0403 16:55:51.341487 21598 net.cpp:425] inception_4c/pool_proj <- inception_4c/pool
I0403 16:55:51.341507 21598 net.cpp:399] inception_4c/pool_proj -> inception_4c/pool_proj
I0403 16:55:51.342718 21598 net.cpp:141] Setting up inception_4c/pool_proj
I0403 16:55:51.342746 21598 net.cpp:148] Top shape: 24 64 14 14 (301056)
I0403 16:55:51.342774 21598 net.cpp:156] Memory required for data: 1061809440
I0403 16:55:51.342794 21598 layer_factory.hpp:77] Creating layer inception_4c/relu_pool_proj
I0403 16:55:51.342815 21598 net.cpp:91] Creating Layer inception_4c/relu_pool_proj
I0403 16:55:51.342833 21598 net.cpp:425] inception_4c/relu_pool_proj <- inception_4c/pool_proj
I0403 16:55:51.342849 21598 net.cpp:386] inception_4c/relu_pool_proj -> inception_4c/pool_proj (in-place)
I0403 16:55:51.343034 21598 net.cpp:141] Setting up inception_4c/relu_pool_proj
I0403 16:55:51.343061 21598 net.cpp:148] Top shape: 24 64 14 14 (301056)
I0403 16:55:51.343077 21598 net.cpp:156] Memory required for data: 1063013664
I0403 16:55:51.343092 21598 layer_factory.hpp:77] Creating layer inception_4c/output
I0403 16:55:51.343109 21598 net.cpp:91] Creating Layer inception_4c/output
I0403 16:55:51.343124 21598 net.cpp:425] inception_4c/output <- inception_4c/1x1
I0403 16:55:51.343140 21598 net.cpp:425] inception_4c/output <- inception_4c/3x3
I0403 16:55:51.343155 21598 net.cpp:425] inception_4c/output <- inception_4c/5x5
I0403 16:55:51.343171 21598 net.cpp:425] inception_4c/output <- inception_4c/pool_proj
I0403 16:55:51.343188 21598 net.cpp:399] inception_4c/output -> inception_4c/output
I0403 16:55:51.343233 21598 net.cpp:141] Setting up inception_4c/output
I0403 16:55:51.343258 21598 net.cpp:148] Top shape: 24 512 14 14 (2408448)
I0403 16:55:51.343272 21598 net.cpp:156] Memory required for data: 1072647456
I0403 16:55:51.343286 21598 layer_factory.hpp:77] Creating layer inception_4c/output_inception_4c/output_0_split
I0403 16:55:51.343303 21598 net.cpp:91] Creating Layer inception_4c/output_inception_4c/output_0_split
I0403 16:55:51.343318 21598 net.cpp:425] inception_4c/output_inception_4c/output_0_split <- inception_4c/output
I0403 16:55:51.343338 21598 net.cpp:399] inception_4c/output_inception_4c/output_0_split -> inception_4c/output_inception_4c/output_0_split_0
I0403 16:55:51.343358 21598 net.cpp:399] inception_4c/output_inception_4c/output_0_split -> inception_4c/output_inception_4c/output_0_split_1
I0403 16:55:51.343377 21598 net.cpp:399] inception_4c/output_inception_4c/output_0_split -> inception_4c/output_inception_4c/output_0_split_2
I0403 16:55:51.343397 21598 net.cpp:399] inception_4c/output_inception_4c/output_0_split -> inception_4c/output_inception_4c/output_0_split_3
I0403 16:55:51.343480 21598 net.cpp:141] Setting up inception_4c/output_inception_4c/output_0_split
I0403 16:55:51.343503 21598 net.cpp:148] Top shape: 24 512 14 14 (2408448)
I0403 16:55:51.343519 21598 net.cpp:148] Top shape: 24 512 14 14 (2408448)
I0403 16:55:51.343535 21598 net.cpp:148] Top shape: 24 512 14 14 (2408448)
I0403 16:55:51.343550 21598 net.cpp:148] Top shape: 24 512 14 14 (2408448)
I0403 16:55:51.343564 21598 net.cpp:156] Memory required for data: 1111182624
I0403 16:55:51.343578 21598 layer_factory.hpp:77] Creating layer inception_4d/1x1
I0403 16:55:51.343601 21598 net.cpp:91] Creating Layer inception_4d/1x1
I0403 16:55:51.343619 21598 net.cpp:425] inception_4d/1x1 <- inception_4c/output_inception_4c/output_0_split_0
I0403 16:55:51.343641 21598 net.cpp:399] inception_4d/1x1 -> inception_4d/1x1
I0403 16:55:51.345026 21598 net.cpp:141] Setting up inception_4d/1x1
I0403 16:55:51.345055 21598 net.cpp:148] Top shape: 24 112 14 14 (526848)
I0403 16:55:51.345072 21598 net.cpp:156] Memory required for data: 1113290016
I0403 16:55:51.345090 21598 layer_factory.hpp:77] Creating layer inception_4d/relu_1x1
I0403 16:55:51.345109 21598 net.cpp:91] Creating Layer inception_4d/relu_1x1
I0403 16:55:51.345126 21598 net.cpp:425] inception_4d/relu_1x1 <- inception_4d/1x1
I0403 16:55:51.345145 21598 net.cpp:386] inception_4d/relu_1x1 -> inception_4d/1x1 (in-place)
I0403 16:55:51.345329 21598 net.cpp:141] Setting up inception_4d/relu_1x1
I0403 16:55:51.345355 21598 net.cpp:148] Top shape: 24 112 14 14 (526848)
I0403 16:55:51.345369 21598 net.cpp:156] Memory required for data: 1115397408
I0403 16:55:51.345386 21598 layer_factory.hpp:77] Creating layer inception_4d/3x3_reduce
I0403 16:55:51.345422 21598 net.cpp:91] Creating Layer inception_4d/3x3_reduce
I0403 16:55:51.345443 21598 net.cpp:425] inception_4d/3x3_reduce <- inception_4c/output_inception_4c/output_0_split_1
I0403 16:55:51.345465 21598 net.cpp:399] inception_4d/3x3_reduce -> inception_4d/3x3_reduce
I0403 16:55:51.346984 21598 net.cpp:141] Setting up inception_4d/3x3_reduce
I0403 16:55:51.347012 21598 net.cpp:148] Top shape: 24 144 14 14 (677376)
I0403 16:55:51.347029 21598 net.cpp:156] Memory required for data: 1118106912
I0403 16:55:51.347048 21598 layer_factory.hpp:77] Creating layer inception_4d/relu_3x3_reduce
I0403 16:55:51.347069 21598 net.cpp:91] Creating Layer inception_4d/relu_3x3_reduce
I0403 16:55:51.347086 21598 net.cpp:425] inception_4d/relu_3x3_reduce <- inception_4d/3x3_reduce
I0403 16:55:51.347105 21598 net.cpp:386] inception_4d/relu_3x3_reduce -> inception_4d/3x3_reduce (in-place)
I0403 16:55:51.347395 21598 net.cpp:141] Setting up inception_4d/relu_3x3_reduce
I0403 16:55:51.347424 21598 net.cpp:148] Top shape: 24 144 14 14 (677376)
I0403 16:55:51.347437 21598 net.cpp:156] Memory required for data: 1120816416
I0403 16:55:51.347452 21598 layer_factory.hpp:77] Creating layer inception_4d/3x3
I0403 16:55:51.347476 21598 net.cpp:91] Creating Layer inception_4d/3x3
I0403 16:55:51.347493 21598 net.cpp:425] inception_4d/3x3 <- inception_4d/3x3_reduce
I0403 16:55:51.347512 21598 net.cpp:399] inception_4d/3x3 -> inception_4d/3x3
I0403 16:55:51.351820 21598 net.cpp:141] Setting up inception_4d/3x3
I0403 16:55:51.351853 21598 net.cpp:148] Top shape: 24 288 14 14 (1354752)
I0403 16:55:51.351871 21598 net.cpp:156] Memory required for data: 1126235424
I0403 16:55:51.351888 21598 layer_factory.hpp:77] Creating layer inception_4d/relu_3x3
I0403 16:55:51.351908 21598 net.cpp:91] Creating Layer inception_4d/relu_3x3
I0403 16:55:51.351924 21598 net.cpp:425] inception_4d/relu_3x3 <- inception_4d/3x3
I0403 16:55:51.351945 21598 net.cpp:386] inception_4d/relu_3x3 -> inception_4d/3x3 (in-place)
I0403 16:55:51.352133 21598 net.cpp:141] Setting up inception_4d/relu_3x3
I0403 16:55:51.352157 21598 net.cpp:148] Top shape: 24 288 14 14 (1354752)
I0403 16:55:51.352172 21598 net.cpp:156] Memory required for data: 1131654432
I0403 16:55:51.352186 21598 layer_factory.hpp:77] Creating layer inception_4d/5x5_reduce
I0403 16:55:51.352208 21598 net.cpp:91] Creating Layer inception_4d/5x5_reduce
I0403 16:55:51.352226 21598 net.cpp:425] inception_4d/5x5_reduce <- inception_4c/output_inception_4c/output_0_split_2
I0403 16:55:51.352248 21598 net.cpp:399] inception_4d/5x5_reduce -> inception_4d/5x5_reduce
I0403 16:55:51.353411 21598 net.cpp:141] Setting up inception_4d/5x5_reduce
I0403 16:55:51.353440 21598 net.cpp:148] Top shape: 24 32 14 14 (150528)
I0403 16:55:51.353456 21598 net.cpp:156] Memory required for data: 1132256544
I0403 16:55:51.353474 21598 layer_factory.hpp:77] Creating layer inception_4d/relu_5x5_reduce
I0403 16:55:51.353492 21598 net.cpp:91] Creating Layer inception_4d/relu_5x5_reduce
I0403 16:55:51.353508 21598 net.cpp:425] inception_4d/relu_5x5_reduce <- inception_4d/5x5_reduce
I0403 16:55:51.353528 21598 net.cpp:386] inception_4d/relu_5x5_reduce -> inception_4d/5x5_reduce (in-place)
I0403 16:55:51.353715 21598 net.cpp:141] Setting up inception_4d/relu_5x5_reduce
I0403 16:55:51.353741 21598 net.cpp:148] Top shape: 24 32 14 14 (150528)
I0403 16:55:51.353756 21598 net.cpp:156] Memory required for data: 1132858656
I0403 16:55:51.353771 21598 layer_factory.hpp:77] Creating layer inception_4d/5x5
I0403 16:55:51.353793 21598 net.cpp:91] Creating Layer inception_4d/5x5
I0403 16:55:51.353812 21598 net.cpp:425] inception_4d/5x5 <- inception_4d/5x5_reduce
I0403 16:55:51.353832 21598 net.cpp:399] inception_4d/5x5 -> inception_4d/5x5
I0403 16:55:51.355322 21598 net.cpp:141] Setting up inception_4d/5x5
I0403 16:55:51.355351 21598 net.cpp:148] Top shape: 24 64 14 14 (301056)
I0403 16:55:51.355368 21598 net.cpp:156] Memory required for data: 1134062880
I0403 16:55:51.355387 21598 layer_factory.hpp:77] Creating layer inception_4d/relu_5x5
I0403 16:55:51.355425 21598 net.cpp:91] Creating Layer inception_4d/relu_5x5
I0403 16:55:51.355446 21598 net.cpp:425] inception_4d/relu_5x5 <- inception_4d/5x5
I0403 16:55:51.355465 21598 net.cpp:386] inception_4d/relu_5x5 -> inception_4d/5x5 (in-place)
I0403 16:55:51.355777 21598 net.cpp:141] Setting up inception_4d/relu_5x5
I0403 16:55:51.355803 21598 net.cpp:148] Top shape: 24 64 14 14 (301056)
I0403 16:55:51.355819 21598 net.cpp:156] Memory required for data: 1135267104
I0403 16:55:51.355834 21598 layer_factory.hpp:77] Creating layer inception_4d/pool
I0403 16:55:51.355854 21598 net.cpp:91] Creating Layer inception_4d/pool
I0403 16:55:51.355872 21598 net.cpp:425] inception_4d/pool <- inception_4c/output_inception_4c/output_0_split_3
I0403 16:55:51.355890 21598 net.cpp:399] inception_4d/pool -> inception_4d/pool
I0403 16:55:51.355962 21598 net.cpp:141] Setting up inception_4d/pool
I0403 16:55:51.355988 21598 net.cpp:148] Top shape: 24 512 14 14 (2408448)
I0403 16:55:51.356003 21598 net.cpp:156] Memory required for data: 1144900896
I0403 16:55:51.356016 21598 layer_factory.hpp:77] Creating layer inception_4d/pool_proj
I0403 16:55:51.356039 21598 net.cpp:91] Creating Layer inception_4d/pool_proj
I0403 16:55:51.356056 21598 net.cpp:425] inception_4d/pool_proj <- inception_4d/pool
I0403 16:55:51.356078 21598 net.cpp:399] inception_4d/pool_proj -> inception_4d/pool_proj
I0403 16:55:51.357856 21598 net.cpp:141] Setting up inception_4d/pool_proj
I0403 16:55:51.357885 21598 net.cpp:148] Top shape: 24 64 14 14 (301056)
I0403 16:55:51.357902 21598 net.cpp:156] Memory required for data: 1146105120
I0403 16:55:51.357920 21598 layer_factory.hpp:77] Creating layer inception_4d/relu_pool_proj
I0403 16:55:51.357939 21598 net.cpp:91] Creating Layer inception_4d/relu_pool_proj
I0403 16:55:51.357959 21598 net.cpp:425] inception_4d/relu_pool_proj <- inception_4d/pool_proj
I0403 16:55:51.357980 21598 net.cpp:386] inception_4d/relu_pool_proj -> inception_4d/pool_proj (in-place)
I0403 16:55:51.358165 21598 net.cpp:141] Setting up inception_4d/relu_pool_proj
I0403 16:55:51.358191 21598 net.cpp:148] Top shape: 24 64 14 14 (301056)
I0403 16:55:51.358206 21598 net.cpp:156] Memory required for data: 1147309344
I0403 16:55:51.358220 21598 layer_factory.hpp:77] Creating layer inception_4d/output
I0403 16:55:51.358237 21598 net.cpp:91] Creating Layer inception_4d/output
I0403 16:55:51.358253 21598 net.cpp:425] inception_4d/output <- inception_4d/1x1
I0403 16:55:51.358268 21598 net.cpp:425] inception_4d/output <- inception_4d/3x3
I0403 16:55:51.358284 21598 net.cpp:425] inception_4d/output <- inception_4d/5x5
I0403 16:55:51.358300 21598 net.cpp:425] inception_4d/output <- inception_4d/pool_proj
I0403 16:55:51.358319 21598 net.cpp:399] inception_4d/output -> inception_4d/output
I0403 16:55:51.358367 21598 net.cpp:141] Setting up inception_4d/output
I0403 16:55:51.358392 21598 net.cpp:148] Top shape: 24 528 14 14 (2483712)
I0403 16:55:51.358407 21598 net.cpp:156] Memory required for data: 1157244192
I0403 16:55:51.358420 21598 layer_factory.hpp:77] Creating layer inception_4d/output_inception_4d/output_0_split
I0403 16:55:51.358438 21598 net.cpp:91] Creating Layer inception_4d/output_inception_4d/output_0_split
I0403 16:55:51.358453 21598 net.cpp:425] inception_4d/output_inception_4d/output_0_split <- inception_4d/output
I0403 16:55:51.358472 21598 net.cpp:399] inception_4d/output_inception_4d/output_0_split -> inception_4d/output_inception_4d/output_0_split_0
I0403 16:55:51.358494 21598 net.cpp:399] inception_4d/output_inception_4d/output_0_split -> inception_4d/output_inception_4d/output_0_split_1
I0403 16:55:51.358515 21598 net.cpp:399] inception_4d/output_inception_4d/output_0_split -> inception_4d/output_inception_4d/output_0_split_2
I0403 16:55:51.358535 21598 net.cpp:399] inception_4d/output_inception_4d/output_0_split -> inception_4d/output_inception_4d/output_0_split_3
I0403 16:55:51.358553 21598 net.cpp:399] inception_4d/output_inception_4d/output_0_split -> inception_4d/output_inception_4d/output_0_split_4
I0403 16:55:51.358651 21598 net.cpp:141] Setting up inception_4d/output_inception_4d/output_0_split
I0403 16:55:51.358688 21598 net.cpp:148] Top shape: 24 528 14 14 (2483712)
I0403 16:55:51.358705 21598 net.cpp:148] Top shape: 24 528 14 14 (2483712)
I0403 16:55:51.358721 21598 net.cpp:148] Top shape: 24 528 14 14 (2483712)
I0403 16:55:51.358736 21598 net.cpp:148] Top shape: 24 528 14 14 (2483712)
I0403 16:55:51.358752 21598 net.cpp:148] Top shape: 24 528 14 14 (2483712)
I0403 16:55:51.358765 21598 net.cpp:156] Memory required for data: 1206918432
I0403 16:55:51.358779 21598 layer_factory.hpp:77] Creating layer loss2/ave_pool
I0403 16:55:51.358796 21598 net.cpp:91] Creating Layer loss2/ave_pool
I0403 16:55:51.358813 21598 net.cpp:425] loss2/ave_pool <- inception_4d/output_inception_4d/output_0_split_0
I0403 16:55:51.358834 21598 net.cpp:399] loss2/ave_pool -> loss2/ave_pool
I0403 16:55:51.359159 21598 net.cpp:141] Setting up loss2/ave_pool
I0403 16:55:51.359186 21598 net.cpp:148] Top shape: 24 528 4 4 (202752)
I0403 16:55:51.359201 21598 net.cpp:156] Memory required for data: 1207729440
I0403 16:55:51.359215 21598 layer_factory.hpp:77] Creating layer loss2/conv
I0403 16:55:51.359237 21598 net.cpp:91] Creating Layer loss2/conv
I0403 16:55:51.359254 21598 net.cpp:425] loss2/conv <- loss2/ave_pool
I0403 16:55:51.359275 21598 net.cpp:399] loss2/conv -> loss2/conv
I0403 16:55:51.361163 21598 net.cpp:141] Setting up loss2/conv
I0403 16:55:51.361194 21598 net.cpp:148] Top shape: 24 128 4 4 (49152)
I0403 16:55:51.361210 21598 net.cpp:156] Memory required for data: 1207926048
I0403 16:55:51.361230 21598 layer_factory.hpp:77] Creating layer loss2/relu_conv
I0403 16:55:51.361264 21598 net.cpp:91] Creating Layer loss2/relu_conv
I0403 16:55:51.361282 21598 net.cpp:425] loss2/relu_conv <- loss2/conv
I0403 16:55:51.361300 21598 net.cpp:386] loss2/relu_conv -> loss2/conv (in-place)
I0403 16:55:51.361608 21598 net.cpp:141] Setting up loss2/relu_conv
I0403 16:55:51.361634 21598 net.cpp:148] Top shape: 24 128 4 4 (49152)
I0403 16:55:51.361649 21598 net.cpp:156] Memory required for data: 1208122656
I0403 16:55:51.361663 21598 layer_factory.hpp:77] Creating layer loss2/fc
I0403 16:55:51.361685 21598 net.cpp:91] Creating Layer loss2/fc
I0403 16:55:51.361701 21598 net.cpp:425] loss2/fc <- loss2/conv
I0403 16:55:51.361722 21598 net.cpp:399] loss2/fc -> loss2/fc
I0403 16:55:51.379447 21598 net.cpp:141] Setting up loss2/fc
I0403 16:55:51.379498 21598 net.cpp:148] Top shape: 24 1024 (24576)
I0403 16:55:51.379513 21598 net.cpp:156] Memory required for data: 1208220960
I0403 16:55:51.379533 21598 layer_factory.hpp:77] Creating layer loss2/relu_fc
I0403 16:55:51.379551 21598 net.cpp:91] Creating Layer loss2/relu_fc
I0403 16:55:51.379568 21598 net.cpp:425] loss2/relu_fc <- loss2/fc
I0403 16:55:51.379588 21598 net.cpp:386] loss2/relu_fc -> loss2/fc (in-place)
I0403 16:55:51.379911 21598 net.cpp:141] Setting up loss2/relu_fc
I0403 16:55:51.379936 21598 net.cpp:148] Top shape: 24 1024 (24576)
I0403 16:55:51.379951 21598 net.cpp:156] Memory required for data: 1208319264
I0403 16:55:51.379969 21598 layer_factory.hpp:77] Creating layer loss2/drop_fc
I0403 16:55:51.379987 21598 net.cpp:91] Creating Layer loss2/drop_fc
I0403 16:55:51.380002 21598 net.cpp:425] loss2/drop_fc <- loss2/fc
I0403 16:55:51.380023 21598 net.cpp:386] loss2/drop_fc -> loss2/fc (in-place)
I0403 16:55:51.380071 21598 net.cpp:141] Setting up loss2/drop_fc
I0403 16:55:51.380095 21598 net.cpp:148] Top shape: 24 1024 (24576)
I0403 16:55:51.380110 21598 net.cpp:156] Memory required for data: 1208417568
I0403 16:55:51.380125 21598 layer_factory.hpp:77] Creating layer loss2/classifier_plantvillage
I0403 16:55:51.380142 21598 net.cpp:91] Creating Layer loss2/classifier_plantvillage
I0403 16:55:51.380157 21598 net.cpp:425] loss2/classifier_plantvillage <- loss2/fc
I0403 16:55:51.380178 21598 net.cpp:399] loss2/classifier_plantvillage -> loss2/classifier_plantvillage
I0403 16:55:51.380607 21598 net.cpp:141] Setting up loss2/classifier_plantvillage
I0403 16:55:51.380631 21598 net.cpp:148] Top shape: 24 38 (912)
I0403 16:55:51.380646 21598 net.cpp:156] Memory required for data: 1208421216
I0403 16:55:51.380689 21598 layer_factory.hpp:77] Creating layer loss2/classifier_plantvillage_loss2/classifier_plantvillage_0_split
I0403 16:55:51.380710 21598 net.cpp:91] Creating Layer loss2/classifier_plantvillage_loss2/classifier_plantvillage_0_split
I0403 16:55:51.380727 21598 net.cpp:425] loss2/classifier_plantvillage_loss2/classifier_plantvillage_0_split <- loss2/classifier_plantvillage
I0403 16:55:51.380743 21598 net.cpp:399] loss2/classifier_plantvillage_loss2/classifier_plantvillage_0_split -> loss2/classifier_plantvillage_loss2/classifier_plantvillage_0_split_0
I0403 16:55:51.380764 21598 net.cpp:399] loss2/classifier_plantvillage_loss2/classifier_plantvillage_0_split -> loss2/classifier_plantvillage_loss2/classifier_plantvillage_0_split_1
I0403 16:55:51.380786 21598 net.cpp:399] loss2/classifier_plantvillage_loss2/classifier_plantvillage_0_split -> loss2/classifier_plantvillage_loss2/classifier_plantvillage_0_split_2
I0403 16:55:51.380859 21598 net.cpp:141] Setting up loss2/classifier_plantvillage_loss2/classifier_plantvillage_0_split
I0403 16:55:51.380882 21598 net.cpp:148] Top shape: 24 38 (912)
I0403 16:55:51.380897 21598 net.cpp:148] Top shape: 24 38 (912)
I0403 16:55:51.380911 21598 net.cpp:148] Top shape: 24 38 (912)
I0403 16:55:51.380924 21598 net.cpp:156] Memory required for data: 1208432160
I0403 16:55:51.380939 21598 layer_factory.hpp:77] Creating layer inception_4e/1x1
I0403 16:55:51.380964 21598 net.cpp:91] Creating Layer inception_4e/1x1
I0403 16:55:51.380982 21598 net.cpp:425] inception_4e/1x1 <- inception_4d/output_inception_4d/output_0_split_1
I0403 16:55:51.381001 21598 net.cpp:399] inception_4e/1x1 -> inception_4e/1x1
I0403 16:55:51.382786 21598 net.cpp:141] Setting up inception_4e/1x1
I0403 16:55:51.382814 21598 net.cpp:148] Top shape: 24 256 14 14 (1204224)
I0403 16:55:51.382829 21598 net.cpp:156] Memory required for data: 1213249056
I0403 16:55:51.382848 21598 layer_factory.hpp:77] Creating layer inception_4e/relu_1x1
I0403 16:55:51.382869 21598 net.cpp:91] Creating Layer inception_4e/relu_1x1
I0403 16:55:51.382885 21598 net.cpp:425] inception_4e/relu_1x1 <- inception_4e/1x1
I0403 16:55:51.382902 21598 net.cpp:386] inception_4e/relu_1x1 -> inception_4e/1x1 (in-place)
I0403 16:55:51.383191 21598 net.cpp:141] Setting up inception_4e/relu_1x1
I0403 16:55:51.383216 21598 net.cpp:148] Top shape: 24 256 14 14 (1204224)
I0403 16:55:51.383231 21598 net.cpp:156] Memory required for data: 1218065952
I0403 16:55:51.383260 21598 layer_factory.hpp:77] Creating layer inception_4e/3x3_reduce
I0403 16:55:51.383282 21598 net.cpp:91] Creating Layer inception_4e/3x3_reduce
I0403 16:55:51.383301 21598 net.cpp:425] inception_4e/3x3_reduce <- inception_4d/output_inception_4d/output_0_split_2
I0403 16:55:51.383322 21598 net.cpp:399] inception_4e/3x3_reduce -> inception_4e/3x3_reduce
I0403 16:55:51.385514 21598 net.cpp:141] Setting up inception_4e/3x3_reduce
I0403 16:55:51.385543 21598 net.cpp:148] Top shape: 24 160 14 14 (752640)
I0403 16:55:51.385560 21598 net.cpp:156] Memory required for data: 1221076512
I0403 16:55:51.385577 21598 layer_factory.hpp:77] Creating layer inception_4e/relu_3x3_reduce
I0403 16:55:51.385597 21598 net.cpp:91] Creating Layer inception_4e/relu_3x3_reduce
I0403 16:55:51.385614 21598 net.cpp:425] inception_4e/relu_3x3_reduce <- inception_4e/3x3_reduce
I0403 16:55:51.385632 21598 net.cpp:386] inception_4e/relu_3x3_reduce -> inception_4e/3x3_reduce (in-place)
I0403 16:55:51.385808 21598 net.cpp:141] Setting up inception_4e/relu_3x3_reduce
I0403 16:55:51.385834 21598 net.cpp:148] Top shape: 24 160 14 14 (752640)
I0403 16:55:51.385849 21598 net.cpp:156] Memory required for data: 1224087072
I0403 16:55:51.385864 21598 layer_factory.hpp:77] Creating layer inception_4e/3x3
I0403 16:55:51.385885 21598 net.cpp:91] Creating Layer inception_4e/3x3
I0403 16:55:51.385902 21598 net.cpp:425] inception_4e/3x3 <- inception_4e/3x3_reduce
I0403 16:55:51.385921 21598 net.cpp:399] inception_4e/3x3 -> inception_4e/3x3
I0403 16:55:51.390888 21598 net.cpp:141] Setting up inception_4e/3x3
I0403 16:55:51.390931 21598 net.cpp:148] Top shape: 24 320 14 14 (1505280)
I0403 16:55:51.390949 21598 net.cpp:156] Memory required for data: 1230108192
I0403 16:55:51.390974 21598 layer_factory.hpp:77] Creating layer inception_4e/relu_3x3
I0403 16:55:51.390991 21598 net.cpp:91] Creating Layer inception_4e/relu_3x3
I0403 16:55:51.391008 21598 net.cpp:425] inception_4e/relu_3x3 <- inception_4e/3x3
I0403 16:55:51.391026 21598 net.cpp:386] inception_4e/relu_3x3 -> inception_4e/3x3 (in-place)
I0403 16:55:51.391320 21598 net.cpp:141] Setting up inception_4e/relu_3x3
I0403 16:55:51.391346 21598 net.cpp:148] Top shape: 24 320 14 14 (1505280)
I0403 16:55:51.391360 21598 net.cpp:156] Memory required for data: 1236129312
I0403 16:55:51.391374 21598 layer_factory.hpp:77] Creating layer inception_4e/5x5_reduce
I0403 16:55:51.391396 21598 net.cpp:91] Creating Layer inception_4e/5x5_reduce
I0403 16:55:51.391414 21598 net.cpp:425] inception_4e/5x5_reduce <- inception_4d/output_inception_4d/output_0_split_3
I0403 16:55:51.391435 21598 net.cpp:399] inception_4e/5x5_reduce -> inception_4e/5x5_reduce
I0403 16:55:51.392465 21598 net.cpp:141] Setting up inception_4e/5x5_reduce
I0403 16:55:51.392493 21598 net.cpp:148] Top shape: 24 32 14 14 (150528)
I0403 16:55:51.392508 21598 net.cpp:156] Memory required for data: 1236731424
I0403 16:55:51.392525 21598 layer_factory.hpp:77] Creating layer inception_4e/relu_5x5_reduce
I0403 16:55:51.392544 21598 net.cpp:91] Creating Layer inception_4e/relu_5x5_reduce
I0403 16:55:51.392560 21598 net.cpp:425] inception_4e/relu_5x5_reduce <- inception_4e/5x5_reduce
I0403 16:55:51.392577 21598 net.cpp:386] inception_4e/relu_5x5_reduce -> inception_4e/5x5_reduce (in-place)
I0403 16:55:51.392864 21598 net.cpp:141] Setting up inception_4e/relu_5x5_reduce
I0403 16:55:51.392889 21598 net.cpp:148] Top shape: 24 32 14 14 (150528)
I0403 16:55:51.392904 21598 net.cpp:156] Memory required for data: 1237333536
I0403 16:55:51.392918 21598 layer_factory.hpp:77] Creating layer inception_4e/5x5
I0403 16:55:51.392961 21598 net.cpp:91] Creating Layer inception_4e/5x5
I0403 16:55:51.392981 21598 net.cpp:425] inception_4e/5x5 <- inception_4e/5x5_reduce
I0403 16:55:51.392999 21598 net.cpp:399] inception_4e/5x5 -> inception_4e/5x5
I0403 16:55:51.394788 21598 net.cpp:141] Setting up inception_4e/5x5
I0403 16:55:51.394815 21598 net.cpp:148] Top shape: 24 128 14 14 (602112)
I0403 16:55:51.394831 21598 net.cpp:156] Memory required for data: 1239741984
I0403 16:55:51.394850 21598 layer_factory.hpp:77] Creating layer inception_4e/relu_5x5
I0403 16:55:51.394870 21598 net.cpp:91] Creating Layer inception_4e/relu_5x5
I0403 16:55:51.394886 21598 net.cpp:425] inception_4e/relu_5x5 <- inception_4e/5x5
I0403 16:55:51.394902 21598 net.cpp:386] inception_4e/relu_5x5 -> inception_4e/5x5 (in-place)
I0403 16:55:51.395095 21598 net.cpp:141] Setting up inception_4e/relu_5x5
I0403 16:55:51.395120 21598 net.cpp:148] Top shape: 24 128 14 14 (602112)
I0403 16:55:51.395136 21598 net.cpp:156] Memory required for data: 1242150432
I0403 16:55:51.395150 21598 layer_factory.hpp:77] Creating layer inception_4e/pool
I0403 16:55:51.395169 21598 net.cpp:91] Creating Layer inception_4e/pool
I0403 16:55:51.395186 21598 net.cpp:425] inception_4e/pool <- inception_4d/output_inception_4d/output_0_split_4
I0403 16:55:51.395203 21598 net.cpp:399] inception_4e/pool -> inception_4e/pool
I0403 16:55:51.395272 21598 net.cpp:141] Setting up inception_4e/pool
I0403 16:55:51.395295 21598 net.cpp:148] Top shape: 24 528 14 14 (2483712)
I0403 16:55:51.395309 21598 net.cpp:156] Memory required for data: 1252085280
I0403 16:55:51.395323 21598 layer_factory.hpp:77] Creating layer inception_4e/pool_proj
I0403 16:55:51.395344 21598 net.cpp:91] Creating Layer inception_4e/pool_proj
I0403 16:55:51.395361 21598 net.cpp:425] inception_4e/pool_proj <- inception_4e/pool
I0403 16:55:51.395381 21598 net.cpp:399] inception_4e/pool_proj -> inception_4e/pool_proj
I0403 16:55:51.396833 21598 net.cpp:141] Setting up inception_4e/pool_proj
I0403 16:55:51.396862 21598 net.cpp:148] Top shape: 24 128 14 14 (602112)
I0403 16:55:51.396891 21598 net.cpp:156] Memory required for data: 1254493728
I0403 16:55:51.396911 21598 layer_factory.hpp:77] Creating layer inception_4e/relu_pool_proj
I0403 16:55:51.396929 21598 net.cpp:91] Creating Layer inception_4e/relu_pool_proj
I0403 16:55:51.396946 21598 net.cpp:425] inception_4e/relu_pool_proj <- inception_4e/pool_proj
I0403 16:55:51.396971 21598 net.cpp:386] inception_4e/relu_pool_proj -> inception_4e/pool_proj (in-place)
I0403 16:55:51.397255 21598 net.cpp:141] Setting up inception_4e/relu_pool_proj
I0403 16:55:51.397280 21598 net.cpp:148] Top shape: 24 128 14 14 (602112)
I0403 16:55:51.397294 21598 net.cpp:156] Memory required for data: 1256902176
I0403 16:55:51.397308 21598 layer_factory.hpp:77] Creating layer inception_4e/output
I0403 16:55:51.397325 21598 net.cpp:91] Creating Layer inception_4e/output
I0403 16:55:51.397341 21598 net.cpp:425] inception_4e/output <- inception_4e/1x1
I0403 16:55:51.397356 21598 net.cpp:425] inception_4e/output <- inception_4e/3x3
I0403 16:55:51.397372 21598 net.cpp:425] inception_4e/output <- inception_4e/5x5
I0403 16:55:51.397387 21598 net.cpp:425] inception_4e/output <- inception_4e/pool_proj
I0403 16:55:51.397404 21598 net.cpp:399] inception_4e/output -> inception_4e/output
I0403 16:55:51.397452 21598 net.cpp:141] Setting up inception_4e/output
I0403 16:55:51.397477 21598 net.cpp:148] Top shape: 24 832 14 14 (3913728)
I0403 16:55:51.397492 21598 net.cpp:156] Memory required for data: 1272557088
I0403 16:55:51.397506 21598 layer_factory.hpp:77] Creating layer pool4/3x3_s2
I0403 16:55:51.397522 21598 net.cpp:91] Creating Layer pool4/3x3_s2
I0403 16:55:51.397537 21598 net.cpp:425] pool4/3x3_s2 <- inception_4e/output
I0403 16:55:51.397558 21598 net.cpp:399] pool4/3x3_s2 -> pool4/3x3_s2
I0403 16:55:51.397624 21598 net.cpp:141] Setting up pool4/3x3_s2
I0403 16:55:51.397647 21598 net.cpp:148] Top shape: 24 832 7 7 (978432)
I0403 16:55:51.397661 21598 net.cpp:156] Memory required for data: 1276470816
I0403 16:55:51.397675 21598 layer_factory.hpp:77] Creating layer pool4/3x3_s2_pool4/3x3_s2_0_split
I0403 16:55:51.397693 21598 net.cpp:91] Creating Layer pool4/3x3_s2_pool4/3x3_s2_0_split
I0403 16:55:51.397709 21598 net.cpp:425] pool4/3x3_s2_pool4/3x3_s2_0_split <- pool4/3x3_s2
I0403 16:55:51.397725 21598 net.cpp:399] pool4/3x3_s2_pool4/3x3_s2_0_split -> pool4/3x3_s2_pool4/3x3_s2_0_split_0
I0403 16:55:51.397745 21598 net.cpp:399] pool4/3x3_s2_pool4/3x3_s2_0_split -> pool4/3x3_s2_pool4/3x3_s2_0_split_1
I0403 16:55:51.397764 21598 net.cpp:399] pool4/3x3_s2_pool4/3x3_s2_0_split -> pool4/3x3_s2_pool4/3x3_s2_0_split_2
I0403 16:55:51.397783 21598 net.cpp:399] pool4/3x3_s2_pool4/3x3_s2_0_split -> pool4/3x3_s2_pool4/3x3_s2_0_split_3
I0403 16:55:51.397869 21598 net.cpp:141] Setting up pool4/3x3_s2_pool4/3x3_s2_0_split
I0403 16:55:51.397892 21598 net.cpp:148] Top shape: 24 832 7 7 (978432)
I0403 16:55:51.397907 21598 net.cpp:148] Top shape: 24 832 7 7 (978432)
I0403 16:55:51.397922 21598 net.cpp:148] Top shape: 24 832 7 7 (978432)
I0403 16:55:51.397936 21598 net.cpp:148] Top shape: 24 832 7 7 (978432)
I0403 16:55:51.397949 21598 net.cpp:156] Memory required for data: 1292125728
I0403 16:55:51.397967 21598 layer_factory.hpp:77] Creating layer inception_5a/1x1
I0403 16:55:51.397990 21598 net.cpp:91] Creating Layer inception_5a/1x1
I0403 16:55:51.398007 21598 net.cpp:425] inception_5a/1x1 <- pool4/3x3_s2_pool4/3x3_s2_0_split_0
I0403 16:55:51.398028 21598 net.cpp:399] inception_5a/1x1 -> inception_5a/1x1
I0403 16:55:51.400804 21598 net.cpp:141] Setting up inception_5a/1x1
I0403 16:55:51.400832 21598 net.cpp:148] Top shape: 24 256 7 7 (301056)
I0403 16:55:51.400848 21598 net.cpp:156] Memory required for data: 1293329952
I0403 16:55:51.400866 21598 layer_factory.hpp:77] Creating layer inception_5a/relu_1x1
I0403 16:55:51.400887 21598 net.cpp:91] Creating Layer inception_5a/relu_1x1
I0403 16:55:51.400905 21598 net.cpp:425] inception_5a/relu_1x1 <- inception_5a/1x1
I0403 16:55:51.400923 21598 net.cpp:386] inception_5a/relu_1x1 -> inception_5a/1x1 (in-place)
I0403 16:55:51.401231 21598 net.cpp:141] Setting up inception_5a/relu_1x1
I0403 16:55:51.401257 21598 net.cpp:148] Top shape: 24 256 7 7 (301056)
I0403 16:55:51.401271 21598 net.cpp:156] Memory required for data: 1294534176
I0403 16:55:51.401285 21598 layer_factory.hpp:77] Creating layer inception_5a/3x3_reduce
I0403 16:55:51.401306 21598 net.cpp:91] Creating Layer inception_5a/3x3_reduce
I0403 16:55:51.401324 21598 net.cpp:425] inception_5a/3x3_reduce <- pool4/3x3_s2_pool4/3x3_s2_0_split_1
I0403 16:55:51.401345 21598 net.cpp:399] inception_5a/3x3_reduce -> inception_5a/3x3_reduce
I0403 16:55:51.403753 21598 net.cpp:141] Setting up inception_5a/3x3_reduce
I0403 16:55:51.403782 21598 net.cpp:148] Top shape: 24 160 7 7 (188160)
I0403 16:55:51.403798 21598 net.cpp:156] Memory required for data: 1295286816
I0403 16:55:51.403816 21598 layer_factory.hpp:77] Creating layer inception_5a/relu_3x3_reduce
I0403 16:55:51.403833 21598 net.cpp:91] Creating Layer inception_5a/relu_3x3_reduce
I0403 16:55:51.403849 21598 net.cpp:425] inception_5a/relu_3x3_reduce <- inception_5a/3x3_reduce
I0403 16:55:51.403868 21598 net.cpp:386] inception_5a/relu_3x3_reduce -> inception_5a/3x3_reduce (in-place)
I0403 16:55:51.404054 21598 net.cpp:141] Setting up inception_5a/relu_3x3_reduce
I0403 16:55:51.404078 21598 net.cpp:148] Top shape: 24 160 7 7 (188160)
I0403 16:55:51.404093 21598 net.cpp:156] Memory required for data: 1296039456
I0403 16:55:51.404106 21598 layer_factory.hpp:77] Creating layer inception_5a/3x3
I0403 16:55:51.404127 21598 net.cpp:91] Creating Layer inception_5a/3x3
I0403 16:55:51.404145 21598 net.cpp:425] inception_5a/3x3 <- inception_5a/3x3_reduce
I0403 16:55:51.404165 21598 net.cpp:399] inception_5a/3x3 -> inception_5a/3x3
I0403 16:55:51.409088 21598 net.cpp:141] Setting up inception_5a/3x3
I0403 16:55:51.409118 21598 net.cpp:148] Top shape: 24 320 7 7 (376320)
I0403 16:55:51.409133 21598 net.cpp:156] Memory required for data: 1297544736
I0403 16:55:51.409152 21598 layer_factory.hpp:77] Creating layer inception_5a/relu_3x3
I0403 16:55:51.409171 21598 net.cpp:91] Creating Layer inception_5a/relu_3x3
I0403 16:55:51.409188 21598 net.cpp:425] inception_5a/relu_3x3 <- inception_5a/3x3
I0403 16:55:51.409204 21598 net.cpp:386] inception_5a/relu_3x3 -> inception_5a/3x3 (in-place)
I0403 16:55:51.409487 21598 net.cpp:141] Setting up inception_5a/relu_3x3
I0403 16:55:51.409513 21598 net.cpp:148] Top shape: 24 320 7 7 (376320)
I0403 16:55:51.409528 21598 net.cpp:156] Memory required for data: 1299050016
I0403 16:55:51.409543 21598 layer_factory.hpp:77] Creating layer inception_5a/5x5_reduce
I0403 16:55:51.409564 21598 net.cpp:91] Creating Layer inception_5a/5x5_reduce
I0403 16:55:51.409581 21598 net.cpp:425] inception_5a/5x5_reduce <- pool4/3x3_s2_pool4/3x3_s2_0_split_2
I0403 16:55:51.409603 21598 net.cpp:399] inception_5a/5x5_reduce -> inception_5a/5x5_reduce
I0403 16:55:51.410730 21598 net.cpp:141] Setting up inception_5a/5x5_reduce
I0403 16:55:51.410759 21598 net.cpp:148] Top shape: 24 32 7 7 (37632)
I0403 16:55:51.410775 21598 net.cpp:156] Memory required for data: 1299200544
I0403 16:55:51.410794 21598 layer_factory.hpp:77] Creating layer inception_5a/relu_5x5_reduce
I0403 16:55:51.410814 21598 net.cpp:91] Creating Layer inception_5a/relu_5x5_reduce
I0403 16:55:51.410830 21598 net.cpp:425] inception_5a/relu_5x5_reduce <- inception_5a/5x5_reduce
I0403 16:55:51.410848 21598 net.cpp:386] inception_5a/relu_5x5_reduce -> inception_5a/5x5_reduce (in-place)
I0403 16:55:51.411144 21598 net.cpp:141] Setting up inception_5a/relu_5x5_reduce
I0403 16:55:51.411170 21598 net.cpp:148] Top shape: 24 32 7 7 (37632)
I0403 16:55:51.411186 21598 net.cpp:156] Memory required for data: 1299351072
I0403 16:55:51.411201 21598 layer_factory.hpp:77] Creating layer inception_5a/5x5
I0403 16:55:51.411223 21598 net.cpp:91] Creating Layer inception_5a/5x5
I0403 16:55:51.411242 21598 net.cpp:425] inception_5a/5x5 <- inception_5a/5x5_reduce
I0403 16:55:51.411265 21598 net.cpp:399] inception_5a/5x5 -> inception_5a/5x5
I0403 16:55:51.412974 21598 net.cpp:141] Setting up inception_5a/5x5
I0403 16:55:51.413014 21598 net.cpp:148] Top shape: 24 128 7 7 (150528)
I0403 16:55:51.413031 21598 net.cpp:156] Memory required for data: 1299953184
I0403 16:55:51.413048 21598 layer_factory.hpp:77] Creating layer inception_5a/relu_5x5
I0403 16:55:51.413067 21598 net.cpp:91] Creating Layer inception_5a/relu_5x5
I0403 16:55:51.413084 21598 net.cpp:425] inception_5a/relu_5x5 <- inception_5a/5x5
I0403 16:55:51.413101 21598 net.cpp:386] inception_5a/relu_5x5 -> inception_5a/5x5 (in-place)
I0403 16:55:51.413283 21598 net.cpp:141] Setting up inception_5a/relu_5x5
I0403 16:55:51.413308 21598 net.cpp:148] Top shape: 24 128 7 7 (150528)
I0403 16:55:51.413322 21598 net.cpp:156] Memory required for data: 1300555296
I0403 16:55:51.413336 21598 layer_factory.hpp:77] Creating layer inception_5a/pool
I0403 16:55:51.413353 21598 net.cpp:91] Creating Layer inception_5a/pool
I0403 16:55:51.413370 21598 net.cpp:425] inception_5a/pool <- pool4/3x3_s2_pool4/3x3_s2_0_split_3
I0403 16:55:51.413388 21598 net.cpp:399] inception_5a/pool -> inception_5a/pool
I0403 16:55:51.413455 21598 net.cpp:141] Setting up inception_5a/pool
I0403 16:55:51.413480 21598 net.cpp:148] Top shape: 24 832 7 7 (978432)
I0403 16:55:51.413493 21598 net.cpp:156] Memory required for data: 1304469024
I0403 16:55:51.413506 21598 layer_factory.hpp:77] Creating layer inception_5a/pool_proj
I0403 16:55:51.413527 21598 net.cpp:91] Creating Layer inception_5a/pool_proj
I0403 16:55:51.413544 21598 net.cpp:425] inception_5a/pool_proj <- inception_5a/pool
I0403 16:55:51.413565 21598 net.cpp:399] inception_5a/pool_proj -> inception_5a/pool_proj
I0403 16:55:51.415807 21598 net.cpp:141] Setting up inception_5a/pool_proj
I0403 16:55:51.415837 21598 net.cpp:148] Top shape: 24 128 7 7 (150528)
I0403 16:55:51.415853 21598 net.cpp:156] Memory required for data: 1305071136
I0403 16:55:51.415873 21598 layer_factory.hpp:77] Creating layer inception_5a/relu_pool_proj
I0403 16:55:51.415890 21598 net.cpp:91] Creating Layer inception_5a/relu_pool_proj
I0403 16:55:51.415906 21598 net.cpp:425] inception_5a/relu_pool_proj <- inception_5a/pool_proj
I0403 16:55:51.415925 21598 net.cpp:386] inception_5a/relu_pool_proj -> inception_5a/pool_proj (in-place)
I0403 16:55:51.416219 21598 net.cpp:141] Setting up inception_5a/relu_pool_proj
I0403 16:55:51.416247 21598 net.cpp:148] Top shape: 24 128 7 7 (150528)
I0403 16:55:51.416261 21598 net.cpp:156] Memory required for data: 1305673248
I0403 16:55:51.416275 21598 layer_factory.hpp:77] Creating layer inception_5a/output
I0403 16:55:51.416292 21598 net.cpp:91] Creating Layer inception_5a/output
I0403 16:55:51.416307 21598 net.cpp:425] inception_5a/output <- inception_5a/1x1
I0403 16:55:51.416322 21598 net.cpp:425] inception_5a/output <- inception_5a/3x3
I0403 16:55:51.416338 21598 net.cpp:425] inception_5a/output <- inception_5a/5x5
I0403 16:55:51.416353 21598 net.cpp:425] inception_5a/output <- inception_5a/pool_proj
I0403 16:55:51.416371 21598 net.cpp:399] inception_5a/output -> inception_5a/output
I0403 16:55:51.416419 21598 net.cpp:141] Setting up inception_5a/output
I0403 16:55:51.416445 21598 net.cpp:148] Top shape: 24 832 7 7 (978432)
I0403 16:55:51.416460 21598 net.cpp:156] Memory required for data: 1309586976
I0403 16:55:51.416473 21598 layer_factory.hpp:77] Creating layer inception_5a/output_inception_5a/output_0_split
I0403 16:55:51.416489 21598 net.cpp:91] Creating Layer inception_5a/output_inception_5a/output_0_split
I0403 16:55:51.416504 21598 net.cpp:425] inception_5a/output_inception_5a/output_0_split <- inception_5a/output
I0403 16:55:51.416520 21598 net.cpp:399] inception_5a/output_inception_5a/output_0_split -> inception_5a/output_inception_5a/output_0_split_0
I0403 16:55:51.416539 21598 net.cpp:399] inception_5a/output_inception_5a/output_0_split -> inception_5a/output_inception_5a/output_0_split_1
I0403 16:55:51.416560 21598 net.cpp:399] inception_5a/output_inception_5a/output_0_split -> inception_5a/output_inception_5a/output_0_split_2
I0403 16:55:51.416580 21598 net.cpp:399] inception_5a/output_inception_5a/output_0_split -> inception_5a/output_inception_5a/output_0_split_3
I0403 16:55:51.416688 21598 net.cpp:141] Setting up inception_5a/output_inception_5a/output_0_split
I0403 16:55:51.416712 21598 net.cpp:148] Top shape: 24 832 7 7 (978432)
I0403 16:55:51.416728 21598 net.cpp:148] Top shape: 24 832 7 7 (978432)
I0403 16:55:51.416743 21598 net.cpp:148] Top shape: 24 832 7 7 (978432)
I0403 16:55:51.416757 21598 net.cpp:148] Top shape: 24 832 7 7 (978432)
I0403 16:55:51.416770 21598 net.cpp:156] Memory required for data: 1325241888
I0403 16:55:51.416784 21598 layer_factory.hpp:77] Creating layer inception_5b/1x1
I0403 16:55:51.416805 21598 net.cpp:91] Creating Layer inception_5b/1x1
I0403 16:55:51.416822 21598 net.cpp:425] inception_5b/1x1 <- inception_5a/output_inception_5a/output_0_split_0
I0403 16:55:51.416843 21598 net.cpp:399] inception_5b/1x1 -> inception_5b/1x1
I0403 16:55:51.420514 21598 net.cpp:141] Setting up inception_5b/1x1
I0403 16:55:51.420547 21598 net.cpp:148] Top shape: 24 384 7 7 (451584)
I0403 16:55:51.420564 21598 net.cpp:156] Memory required for data: 1327048224
I0403 16:55:51.420583 21598 layer_factory.hpp:77] Creating layer inception_5b/relu_1x1
I0403 16:55:51.420600 21598 net.cpp:91] Creating Layer inception_5b/relu_1x1
I0403 16:55:51.420616 21598 net.cpp:425] inception_5b/relu_1x1 <- inception_5b/1x1
I0403 16:55:51.420635 21598 net.cpp:386] inception_5b/relu_1x1 -> inception_5b/1x1 (in-place)
I0403 16:55:51.420933 21598 net.cpp:141] Setting up inception_5b/relu_1x1
I0403 16:55:51.420964 21598 net.cpp:148] Top shape: 24 384 7 7 (451584)
I0403 16:55:51.420981 21598 net.cpp:156] Memory required for data: 1328854560
I0403 16:55:51.420995 21598 layer_factory.hpp:77] Creating layer inception_5b/3x3_reduce
I0403 16:55:51.421017 21598 net.cpp:91] Creating Layer inception_5b/3x3_reduce
I0403 16:55:51.421035 21598 net.cpp:425] inception_5b/3x3_reduce <- inception_5a/output_inception_5a/output_0_split_1
I0403 16:55:51.421052 21598 net.cpp:399] inception_5b/3x3_reduce -> inception_5b/3x3_reduce
I0403 16:55:51.423650 21598 net.cpp:141] Setting up inception_5b/3x3_reduce
I0403 16:55:51.423679 21598 net.cpp:148] Top shape: 24 192 7 7 (225792)
I0403 16:55:51.423694 21598 net.cpp:156] Memory required for data: 1329757728
I0403 16:55:51.423712 21598 layer_factory.hpp:77] Creating layer inception_5b/relu_3x3_reduce
I0403 16:55:51.423728 21598 net.cpp:91] Creating Layer inception_5b/relu_3x3_reduce
I0403 16:55:51.423744 21598 net.cpp:425] inception_5b/relu_3x3_reduce <- inception_5b/3x3_reduce
I0403 16:55:51.423763 21598 net.cpp:386] inception_5b/relu_3x3_reduce -> inception_5b/3x3_reduce (in-place)
I0403 16:55:51.423948 21598 net.cpp:141] Setting up inception_5b/relu_3x3_reduce
I0403 16:55:51.423975 21598 net.cpp:148] Top shape: 24 192 7 7 (225792)
I0403 16:55:51.423993 21598 net.cpp:156] Memory required for data: 1330660896
I0403 16:55:51.424011 21598 layer_factory.hpp:77] Creating layer inception_5b/3x3
I0403 16:55:51.424033 21598 net.cpp:91] Creating Layer inception_5b/3x3
I0403 16:55:51.424052 21598 net.cpp:425] inception_5b/3x3 <- inception_5b/3x3_reduce
I0403 16:55:51.424077 21598 net.cpp:399] inception_5b/3x3 -> inception_5b/3x3
I0403 16:55:51.430788 21598 net.cpp:141] Setting up inception_5b/3x3
I0403 16:55:51.430819 21598 net.cpp:148] Top shape: 24 384 7 7 (451584)
I0403 16:55:51.430835 21598 net.cpp:156] Memory required for data: 1332467232
I0403 16:55:51.430855 21598 layer_factory.hpp:77] Creating layer inception_5b/relu_3x3
I0403 16:55:51.430874 21598 net.cpp:91] Creating Layer inception_5b/relu_3x3
I0403 16:55:51.430891 21598 net.cpp:425] inception_5b/relu_3x3 <- inception_5b/3x3
I0403 16:55:51.430912 21598 net.cpp:386] inception_5b/relu_3x3 -> inception_5b/3x3 (in-place)
I0403 16:55:51.431213 21598 net.cpp:141] Setting up inception_5b/relu_3x3
I0403 16:55:51.431241 21598 net.cpp:148] Top shape: 24 384 7 7 (451584)
I0403 16:55:51.431255 21598 net.cpp:156] Memory required for data: 1334273568
I0403 16:55:51.431270 21598 layer_factory.hpp:77] Creating layer inception_5b/5x5_reduce
I0403 16:55:51.431309 21598 net.cpp:91] Creating Layer inception_5b/5x5_reduce
I0403 16:55:51.431329 21598 net.cpp:425] inception_5b/5x5_reduce <- inception_5a/output_inception_5a/output_0_split_2
I0403 16:55:51.431350 21598 net.cpp:399] inception_5b/5x5_reduce -> inception_5b/5x5_reduce
I0403 16:55:51.432622 21598 net.cpp:141] Setting up inception_5b/5x5_reduce
I0403 16:55:51.432651 21598 net.cpp:148] Top shape: 24 48 7 7 (56448)
I0403 16:55:51.432667 21598 net.cpp:156] Memory required for data: 1334499360
I0403 16:55:51.432687 21598 layer_factory.hpp:77] Creating layer inception_5b/relu_5x5_reduce
I0403 16:55:51.432705 21598 net.cpp:91] Creating Layer inception_5b/relu_5x5_reduce
I0403 16:55:51.432723 21598 net.cpp:425] inception_5b/relu_5x5_reduce <- inception_5b/5x5_reduce
I0403 16:55:51.432742 21598 net.cpp:386] inception_5b/relu_5x5_reduce -> inception_5b/5x5_reduce (in-place)
I0403 16:55:51.433118 21598 net.cpp:141] Setting up inception_5b/relu_5x5_reduce
I0403 16:55:51.433146 21598 net.cpp:148] Top shape: 24 48 7 7 (56448)
I0403 16:55:51.433161 21598 net.cpp:156] Memory required for data: 1334725152
I0403 16:55:51.433177 21598 layer_factory.hpp:77] Creating layer inception_5b/5x5
I0403 16:55:51.433197 21598 net.cpp:91] Creating Layer inception_5b/5x5
I0403 16:55:51.433214 21598 net.cpp:425] inception_5b/5x5 <- inception_5b/5x5_reduce
I0403 16:55:51.433233 21598 net.cpp:399] inception_5b/5x5 -> inception_5b/5x5
I0403 16:55:51.435308 21598 net.cpp:141] Setting up inception_5b/5x5
I0403 16:55:51.435336 21598 net.cpp:148] Top shape: 24 128 7 7 (150528)
I0403 16:55:51.435353 21598 net.cpp:156] Memory required for data: 1335327264
I0403 16:55:51.435372 21598 layer_factory.hpp:77] Creating layer inception_5b/relu_5x5
I0403 16:55:51.435392 21598 net.cpp:91] Creating Layer inception_5b/relu_5x5
I0403 16:55:51.435410 21598 net.cpp:425] inception_5b/relu_5x5 <- inception_5b/5x5
I0403 16:55:51.435426 21598 net.cpp:386] inception_5b/relu_5x5 -> inception_5b/5x5 (in-place)
I0403 16:55:51.435619 21598 net.cpp:141] Setting up inception_5b/relu_5x5
I0403 16:55:51.435647 21598 net.cpp:148] Top shape: 24 128 7 7 (150528)
I0403 16:55:51.435664 21598 net.cpp:156] Memory required for data: 1335929376
I0403 16:55:51.435679 21598 layer_factory.hpp:77] Creating layer inception_5b/pool
I0403 16:55:51.435699 21598 net.cpp:91] Creating Layer inception_5b/pool
I0403 16:55:51.435714 21598 net.cpp:425] inception_5b/pool <- inception_5a/output_inception_5a/output_0_split_3
I0403 16:55:51.435734 21598 net.cpp:399] inception_5b/pool -> inception_5b/pool
I0403 16:55:51.435808 21598 net.cpp:141] Setting up inception_5b/pool
I0403 16:55:51.435832 21598 net.cpp:148] Top shape: 24 832 7 7 (978432)
I0403 16:55:51.435847 21598 net.cpp:156] Memory required for data: 1339843104
I0403 16:55:51.435860 21598 layer_factory.hpp:77] Creating layer inception_5b/pool_proj
I0403 16:55:51.435883 21598 net.cpp:91] Creating Layer inception_5b/pool_proj
I0403 16:55:51.435899 21598 net.cpp:425] inception_5b/pool_proj <- inception_5b/pool
I0403 16:55:51.435920 21598 net.cpp:399] inception_5b/pool_proj -> inception_5b/pool_proj
I0403 16:55:51.438246 21598 net.cpp:141] Setting up inception_5b/pool_proj
I0403 16:55:51.438277 21598 net.cpp:148] Top shape: 24 128 7 7 (150528)
I0403 16:55:51.438292 21598 net.cpp:156] Memory required for data: 1340445216
I0403 16:55:51.438313 21598 layer_factory.hpp:77] Creating layer inception_5b/relu_pool_proj
I0403 16:55:51.438333 21598 net.cpp:91] Creating Layer inception_5b/relu_pool_proj
I0403 16:55:51.438352 21598 net.cpp:425] inception_5b/relu_pool_proj <- inception_5b/pool_proj
I0403 16:55:51.438371 21598 net.cpp:386] inception_5b/relu_pool_proj -> inception_5b/pool_proj (in-place)
I0403 16:55:51.438671 21598 net.cpp:141] Setting up inception_5b/relu_pool_proj
I0403 16:55:51.438699 21598 net.cpp:148] Top shape: 24 128 7 7 (150528)
I0403 16:55:51.438716 21598 net.cpp:156] Memory required for data: 1341047328
I0403 16:55:51.438732 21598 layer_factory.hpp:77] Creating layer inception_5b/output
I0403 16:55:51.438750 21598 net.cpp:91] Creating Layer inception_5b/output
I0403 16:55:51.438782 21598 net.cpp:425] inception_5b/output <- inception_5b/1x1
I0403 16:55:51.438802 21598 net.cpp:425] inception_5b/output <- inception_5b/3x3
I0403 16:55:51.438817 21598 net.cpp:425] inception_5b/output <- inception_5b/5x5
I0403 16:55:51.438835 21598 net.cpp:425] inception_5b/output <- inception_5b/pool_proj
I0403 16:55:51.438855 21598 net.cpp:399] inception_5b/output -> inception_5b/output
I0403 16:55:51.438907 21598 net.cpp:141] Setting up inception_5b/output
I0403 16:55:51.438933 21598 net.cpp:148] Top shape: 24 1024 7 7 (1204224)
I0403 16:55:51.438949 21598 net.cpp:156] Memory required for data: 1345864224
I0403 16:55:51.438977 21598 layer_factory.hpp:77] Creating layer pool5/7x7_s1
I0403 16:55:51.438995 21598 net.cpp:91] Creating Layer pool5/7x7_s1
I0403 16:55:51.439012 21598 net.cpp:425] pool5/7x7_s1 <- inception_5b/output
I0403 16:55:51.439033 21598 net.cpp:399] pool5/7x7_s1 -> pool5/7x7_s1
I0403 16:55:51.439246 21598 net.cpp:141] Setting up pool5/7x7_s1
I0403 16:55:51.439272 21598 net.cpp:148] Top shape: 24 1024 1 1 (24576)
I0403 16:55:51.439286 21598 net.cpp:156] Memory required for data: 1345962528
I0403 16:55:51.439301 21598 layer_factory.hpp:77] Creating layer pool5/drop_7x7_s1
I0403 16:55:51.439318 21598 net.cpp:91] Creating Layer pool5/drop_7x7_s1
I0403 16:55:51.439337 21598 net.cpp:425] pool5/drop_7x7_s1 <- pool5/7x7_s1
I0403 16:55:51.439354 21598 net.cpp:386] pool5/drop_7x7_s1 -> pool5/7x7_s1 (in-place)
I0403 16:55:51.439404 21598 net.cpp:141] Setting up pool5/drop_7x7_s1
I0403 16:55:51.439429 21598 net.cpp:148] Top shape: 24 1024 1 1 (24576)
I0403 16:55:51.439445 21598 net.cpp:156] Memory required for data: 1346060832
I0403 16:55:51.439458 21598 layer_factory.hpp:77] Creating layer loss3/classifier_plantvillage
I0403 16:55:51.439477 21598 net.cpp:91] Creating Layer loss3/classifier_plantvillage
I0403 16:55:51.439493 21598 net.cpp:425] loss3/classifier_plantvillage <- pool5/7x7_s1
I0403 16:55:51.439514 21598 net.cpp:399] loss3/classifier_plantvillage -> loss3/classifier_plantvillage
I0403 16:55:51.439940 21598 net.cpp:141] Setting up loss3/classifier_plantvillage
I0403 16:55:51.439971 21598 net.cpp:148] Top shape: 24 38 (912)
I0403 16:55:51.439986 21598 net.cpp:156] Memory required for data: 1346064480
I0403 16:55:51.440004 21598 layer_factory.hpp:77] Creating layer loss3/classifier_plantvillage_loss3/classifier_plantvillage_0_split
I0403 16:55:51.440022 21598 net.cpp:91] Creating Layer loss3/classifier_plantvillage_loss3/classifier_plantvillage_0_split
I0403 16:55:51.440038 21598 net.cpp:425] loss3/classifier_plantvillage_loss3/classifier_plantvillage_0_split <- loss3/classifier_plantvillage
I0403 16:55:51.440057 21598 net.cpp:399] loss3/classifier_plantvillage_loss3/classifier_plantvillage_0_split -> loss3/classifier_plantvillage_loss3/classifier_plantvillage_0_split_0
I0403 16:55:51.440078 21598 net.cpp:399] loss3/classifier_plantvillage_loss3/classifier_plantvillage_0_split -> loss3/classifier_plantvillage_loss3/classifier_plantvillage_0_split_1
I0403 16:55:51.440099 21598 net.cpp:399] loss3/classifier_plantvillage_loss3/classifier_plantvillage_0_split -> loss3/classifier_plantvillage_loss3/classifier_plantvillage_0_split_2
I0403 16:55:51.440119 21598 net.cpp:399] loss3/classifier_plantvillage_loss3/classifier_plantvillage_0_split -> loss3/classifier_plantvillage_loss3/classifier_plantvillage_0_split_3
I0403 16:55:51.440222 21598 net.cpp:141] Setting up loss3/classifier_plantvillage_loss3/classifier_plantvillage_0_split
I0403 16:55:51.440244 21598 net.cpp:148] Top shape: 24 38 (912)
I0403 16:55:51.440261 21598 net.cpp:148] Top shape: 24 38 (912)
I0403 16:55:51.440276 21598 net.cpp:148] Top shape: 24 38 (912)
I0403 16:55:51.440291 21598 net.cpp:148] Top shape: 24 38 (912)
I0403 16:55:51.440304 21598 net.cpp:156] Memory required for data: 1346079072
I0403 16:55:51.440318 21598 layer_factory.hpp:77] Creating layer loss1/loss
I0403 16:55:51.440342 21598 net.cpp:91] Creating Layer loss1/loss
I0403 16:55:51.440361 21598 net.cpp:425] loss1/loss <- loss1/classifier_plantvillage_loss1/classifier_plantvillage_0_split_0
I0403 16:55:51.440390 21598 net.cpp:425] loss1/loss <- label_data_1_split_0
…
