…
I0403 15:53:58.222867 20505 net.cpp:313] The NetState phase (1) differed from the phase (0) specified by a rule in layer data
I0403 15:53:58.224020 20505 net.cpp:49] Initializing net from parameters: 
state {
  phase: TEST
}
layer {
  name: "data"
  type: "Data"
  top: "data"
  top: "label"
  include {
    phase: TEST
  }
  transform_param {
    mirror: false
    crop_size: 224
    mean_file: "/home/mohanty/data/final_dataset/lmdb/color-40-60/mean.binaryproto"
  }
  data_param {
    source: "/home/mohanty/data/final_dataset/lmdb/color-40-60/test_db"
    batch_size: 24
    backend: LMDB
  }
}
layer {
  name: "conv1/7x7_s2"
  type: "Convolution"
  bottom: "data"
  top: "conv1/7x7_s2"
  param {
    lr_mult: 1
    decay_mult: 1
  }
  param {
    lr_mult: 2
    decay_mult: 0
  }
  convolution_param {
    num_output: 64
    pad: 3
    kernel_size: 7
    stride: 2
    weight_filler {
      type: "xavier"
      std: 0.1
    }
    bias_filler {
      type: "constant"
      value: 0.2
    }
  }
}
layer {
  name: "conv1/relu_7x7"
  type: "ReLU"
  bottom: "conv1/7x7_s2"
  top: "conv1/7x7_s2"
}
layer {
  name: "pool1/3x3_s2"
  type: "Pooling"
  bottom: "conv1/7x7_s2"
  top: "pool1/3x3_s2"
  pooling_param {
    pool: MAX
    kernel_size: 3
    stride: 2
  }
}
layer {
  name: "pool1/norm1"
  type: "LRN"
  bottom: "pool1/3x3_s2"
  top: "pool1/norm1"
  lrn_param {
    local_size: 5
    alpha: 0.0001
    beta: 0.75
  }
}
layer {
  name: "conv2/3x3_reduce"
  type: "Convolution"
  bottom: "pool1/norm1"
  top: "conv2/3x3_reduce"
  param {
    lr_mult: 1
    decay_mult: 1
  }
  param {
    lr_mult: 2
    decay_mult: 0
  }
  convolution_param {
    num_output: 64
    kernel_size: 1
    weight_filler {
      type: "xavier"
      std: 0.1
    }
    bias_filler {
      type: "constant"
      value: 0.2
    }
  }
}
layer {
  name: "conv2/relu_3x3_reduce"
  type: "ReLU"
  bottom: "conv2/3x3_reduce"
  top: "conv2/3x3_reduce"
}
layer {
  name: "conv2/3x3"
  type: "Convolution"
  bottom: "conv2/3x3_reduce"
  top: "conv2/3x3"
  param {
    lr_mult: 1
    decay_mult: 1
  }
  param {
    lr_mult: 2
    decay_mult: 0
  }
  convolution_param {
    num_output: 192
    pad: 1
    kernel_size: 3
    weight_filler {
      type: "xavier"
      std: 0.03
    }
    bias_filler {
      type: "constant"
      value: 0.2
    }
  }
}
layer {
  name: "conv2/relu_3x3"
  type: "ReLU"
  bottom: "conv2/3x3"
  top: "conv2/3x3"
}
layer {
  name: "conv2/norm2"
  type: "LRN"
  bottom: "conv2/3x3"
  top: "conv2/norm2"
  lrn_param {
    local_size: 5
    alpha: 0.0001
    beta: 0.75
  }
}
layer {
  name: "pool2/3x3_s2"
  type: "Pooling"
  bottom: "conv2/norm2"
  top: "pool2/3x3_s2"
  pooling_param {
    pool: MAX
    kernel_size: 3
    stride: 2
  }
}
layer {
  name: "inception_3a/1x1"
  type: "Convolution"
  bottom: "pool2/3x3_s2"
  top: "inception_3a/1x1"
  param {
    lr_mult: 1
    decay_mult: 1
  }
  param {
    lr_mult: 2
    decay_mult: 0
  }
  convolution_param {
    num_output: 64
    kernel_size: 1
    weight_filler {
      type: "xavier"
      std: 0.03
    }
    bias_filler {
      type: "constant"
      value: 0.2
    }
  }
}
layer {
  name: "inception_3a/relu_1x1"
  type: "ReLU"
  bottom: "inception_3a/1x1"
  top: "inception_3a/1x1"
}
layer {
  name: "inception_3a/3x3_reduce"
  type: "Convolution"
  bottom: "pool2/3x3_s2"
  top: "inception_3a/3x3_reduce"
  param {
    lr_mult: 1
    decay_mult: 1
  }
  param {
    lr_mult: 2
    decay_mult: 0
  }
  convolution_param {
    num_output: 96
    kernel_size: 1
    weight_filler {
      type: "xavier"
      std: 0.09
    }
    bias_filler {
      type: "constant"
      value: 0.2
    }
  }
}
layer {
  name: "inception_3a/relu_3x3_reduce"
  type: "ReLU"
  bottom: "inception_3a/3x3_reduce"
  top: "inception_3a/3x3_reduce"
}
layer {
  name: "inception_3a/3x3"
  type: "Convolution"
  bottom: "inception_3a/3x3_reduce"
  top: "inception_3a/3x3"
  param {
    lr_mult: 1
    decay_mult: 1
  }
  param {
    lr_mult: 2
    decay_mult: 0
  }
  convolution_param {
    num_output: 128
    pad: 1
    kernel_size: 3
    weight_filler {
      type: "xavier"
      std: 0.03
    }
    bias_filler {
      type: "constant"
      value: 0.2
    }
  }
}
layer {
  name: "inception_3a/relu_3x3"
  type: "ReLU"
  bottom: "inception_3a/3x3"
  top: "inception_3a/3x3"
}
layer {
  name: "inception_3a/5x5_reduce"
  type: "Convolution"
  bottom: "pool2/3x3_s2"
  top: "inception_3a/5x5_reduce"
  param {
    lr_mult: 1
    decay_mult: 1
  }
  param {
    lr_mult: 2
    decay_mult: 0
  }
  convolution_param {
    num_output: 16
    kernel_size: 1
    weight_filler {
      type: "xavier"
      std: 0.2
    }
    bias_filler {
      type: "constant"
      value: 0.2
    }
  }
}
layer {
  name: "inception_3a/relu_5x5_reduce"
  type: "ReLU"
  bottom: "inception_3a/5x5_reduce"
  top: "inception_3a/5x5_reduce"
}
layer {
  name: "inception_3a/5x5"
  type: "Convolution"
  bottom: "inception_3a/5x5_reduce"
  top: "inception_3a/5x5"
  param {
    lr_mult: 1
    decay_mult: 1
  }
  param {
    lr_mult: 2
    decay_mult: 0
  }
  convolution_param {
    num_output: 32
    pad: 2
    kernel_size: 5
    weight_filler {
      type: "xavier"
      std: 0.03
    }
    bias_filler {
      type: "constant"
      value: 0.2
    }
  }
}
layer {
  name: "inception_3a/relu_5x5"
  type: "ReLU"
  bottom: "inception_3a/5x5"
  top: "inception_3a/5x5"
}
layer {
  name: "inception_3a/pool"
  type: "Pooling"
  bottom: "pool2/3x3_s2"
  top: "inception_3a/pool"
  pooling_param {
    pool: MAX
    kernel_size: 3
    stride: 1
    pad: 1
  }
}
layer {
  name: "inception_3a/pool_proj"
  type: "Convolution"
  bottom: "inception_3a/pool"
  top: "inception_3a/pool_proj"
  param {
    lr_mult: 1
    decay_mult: 1
  }
  param {
    lr_mult: 2
    decay_mult: 0
  }
  convolution_param {
    num_output: 32
    kernel_size: 1
    weight_filler {
      type: "xavier"
      std: 0.1
    }
    bias_filler {
      type: "constant"
      value: 0.2
    }
  }
}
layer {
  name: "inception_3a/relu_pool_proj"
  type: "ReLU"
  bottom: "inception_3a/pool_proj"
  top: "inception_3a/pool_proj"
}
layer {
  name: "inception_3a/output"
  type: "Concat"
  bottom: "inception_3a/1x1"
  bottom: "inception_3a/3x3"
  bottom: "inception_3a/5x5"
  bottom: "inception_3a/pool_proj"
  top: "inception_3a/output"
}
layer {
  name: "inception_3b/1x1"
  type: "Convolution"
  bottom: "inception_3a/output"
  top: "inception_3b/1x1"
  param {
    lr_mult: 1
    decay_mult: 1
  }
  param {
    lr_mult: 2
    decay_mult: 0
  }
  convolution_param {
    num_output: 128
    kernel_size: 1
    weight_filler {
      type: "xavier"
      std: 0.03
    }
    bias_filler {
      type: "constant"
      value: 0.2
    }
  }
}
layer {
  name: "inception_3b/relu_1x1"
  type: "ReLU"
  bottom: "inception_3b/1x1"
  top: "inception_3b/1x1"
}
layer {
  name: "inception_3b/3x3_reduce"
  type: "Convolution"
  bottom: "inception_3a/output"
  top: "inception_3b/3x3_reduce"
  param {
    lr_mult: 1
    decay_mult: 1
  }
  param {
    lr_mult: 2
    decay_mult: 0
  }
  convolution_param {
    num_output: 128
    kernel_size: 1
    weight_filler {
      type: "xavier"
      std: 0.09
    }
    bias_filler {
      type: "constant"
      value: 0.2
    }
  }
}
layer {
  name: "inception_3b/relu_3x3_reduce"
  type: "ReLU"
  bottom: "inception_3b/3x3_reduce"
  top: "inception_3b/3x3_reduce"
}
layer {
  name: "inception_3b/3x3"
  type: "Convolution"
  bottom: "inception_3b/3x3_reduce"
  top: "inception_3b/3x3"
  param {
    lr_mult: 1
    decay_mult: 1
  }
  param {
    lr_mult: 2
    decay_mult: 0
  }
  convolution_param {
    num_output: 192
    pad: 1
    kernel_size: 3
    weight_filler {
      type: "xavier"
      std: 0.03
    }
    bias_filler {
      type: "constant"
      value: 0.2
    }
  }
}
layer {
  name: "inception_3b/relu_3x3"
  type: "ReLU"
  bottom: "inception_3b/3x3"
  top: "inception_3b/3x3"
}
layer {
  name: "inception_3b/5x5_reduce"
  type: "Convolution"
  bottom: "inception_3a/output"
  top: "inception_3b/5x5_reduce"
  param {
    lr_mult: 1
    decay_mult: 1
  }
  param {
    lr_mult: 2
    decay_mult: 0
  }
  convolution_param {
    num_output: 32
    kernel_size: 1
    weight_filler {
      type: "xavier"
      std: 0.2
    }
    bias_filler {
      type: "constant"
      value: 0.2
    }
  }
}
layer {
  name: "inception_3b/relu_5x5_reduce"
  type: "ReLU"
  bottom: "inception_3b/5x5_reduce"
  top: "inception_3b/5x5_reduce"
}
layer {
  name: "inception_3b/5x5"
  type: "Convolution"
  bottom: "inception_3b/5x5_reduce"
  top: "inception_3b/5x5"
  param {
    lr_mult: 1
    decay_mult: 1
  }
  param {
    lr_mult: 2
    decay_mult: 0
  }
  convolution_param {
    num_output: 96
    pad: 2
    kernel_size: 5
    weight_filler {
      type: "xavier"
      std: 0.03
    }
    bias_filler {
      type: "constant"
      value: 0.2
    }
  }
}
layer {
  name: "inception_3b/relu_5x5"
  type: "ReLU"
  bottom: "inception_3b/5x5"
  top: "inception_3b/5x5"
}
layer {
  name: "inception_3b/pool"
  type: "Pooling"
  bottom: "inception_3a/output"
  top: "inception_3b/pool"
  pooling_param {
    pool: MAX
    kernel_size: 3
    stride: 1
    pad: 1
  }
}
layer {
  name: "inception_3b/pool_proj"
  type: "Convolution"
  bottom: "inception_3b/pool"
  top: "inception_3b/pool_proj"
  param {
    lr_mult: 1
    decay_mult: 1
  }
  param {
    lr_mult: 2
    decay_mult: 0
  }
  convolution_param {
    num_output: 64
    kernel_size: 1
    weight_filler {
      type: "xavier"
      std: 0.1
    }
    bias_filler {
      type: "constant"
      value: 0.2
    }
  }
}
layer {
  name: "inception_3b/relu_pool_proj"
  type: "ReLU"
  bottom: "inception_3b/pool_proj"
  top: "inception_3b/pool_proj"
}
layer {
  name: "inception_3b/output"
  type: "Concat"
  bottom: "inception_3b/1x1"
  bottom: "inception_3b/3x3"
  bottom: "inception_3b/5x5"
  bottom: "inception_3b/pool_proj"
  top: "inception_3b/output"
}
layer {
  name: "pool3/3x3_s2"
  type: "Pooling"
  bottom: "inception_3b/output"
  top: "pool3/3x3_s2"
  pooling_param {
    pool: MAX
    kernel_size: 3
    stride: 2
  }
}
layer {
  name: "inception_4a/1x1"
  type: "Convolution"
  bottom: "pool3/3x3_s2"
  top: "inception_4a/1x1"
  param {
    lr_mult: 1
    decay_mult: 1
  }
  param {
    lr_mult: 2
    decay_mult: 0
  }
  convolution_param {
    num_output: 192
    kernel_size: 1
    weight_filler {
      type: "xavier"
      std: 0.03
    }
    bias_filler {
      type: "constant"
      value: 0.2
    }
  }
}
layer {
  name: "inception_4a/relu_1x1"
  type: "ReLU"
  bottom: "inception_4a/1x1"
  top: "inception_4a/1x1"
}
layer {
  name: "inception_4a/3x3_reduce"
  type: "Convolution"
  bottom: "pool3/3x3_s2"
  top: "inception_4a/3x3_reduce"
  param {
    lr_mult: 1
    decay_mult: 1
  }
  param {
    lr_mult: 2
    decay_mult: 0
  }
  convolution_param {
    num_output: 96
    kernel_size: 1
    weight_filler {
      type: "xavier"
      std: 0.09
    }
    bias_filler {
      type: "constant"
      value: 0.2
    }
  }
}
layer {
  name: "inception_4a/relu_3x3_reduce"
  type: "ReLU"
  bottom: "inception_4a/3x3_reduce"
  top: "inception_4a/3x3_reduce"
}
layer {
  name: "inception_4a/3x3"
  type: "Convolution"
  bottom: "inception_4a/3x3_reduce"
  top: "inception_4a/3x3"
  param {
    lr_mult: 1
    decay_mult: 1
  }
  param {
    lr_mult: 2
    decay_mult: 0
  }
  convolution_param {
    num_output: 208
    pad: 1
    kernel_size: 3
    weight_filler {
      type: "xavier"
      std: 0.03
    }
    bias_filler {
      type: "constant"
      value: 0.2
    }
  }
}
layer {
  name: "inception_4a/relu_3x3"
  type: "ReLU"
  bottom: "inception_4a/3x3"
  top: "inception_4a/3x3"
}
layer {
  name: "inception_4a/5x5_reduce"
  type: "Convolution"
  bottom: "pool3/3x3_s2"
  top: "inception_4a/5x5_reduce"
  param {
    lr_mult: 1
    decay_mult: 1
  }
  param {
    lr_mult: 2
    decay_mult: 0
  }
  convolution_param {
    num_output: 16
    kernel_size: 1
    weight_filler {
      type: "xavier"
      std: 0.2
    }
    bias_filler {
      type: "constant"
      value: 0.2
    }
  }
}
layer {
  name: "inception_4a/relu_5x5_reduce"
  type: "ReLU"
  bottom: "inception_4a/5x5_reduce"
  top: "inception_4a/5x5_reduce"
}
layer {
  name: "inception_4a/5x5"
  type: "Convolution"
  bottom: "inception_4a/5x5_reduce"
  top: "inception_4a/5x5"
  param {
    lr_mult: 1
    decay_mult: 1
  }
  param {
    lr_mult: 2
    decay_mult: 0
  }
  convolution_param {
    num_output: 48
    pad: 2
    kernel_size: 5
    weight_filler {
      type: "xavier"
      std: 0.03
    }
    bias_filler {
      type: "constant"
      value: 0.2
    }
  }
}
layer {
  name: "inception_4a/relu_5x5"
  type: "ReLU"
  bottom: "inception_4a/5x5"
  top: "inception_4a/5x5"
}
layer {
  name: "inception_4a/pool"
  type: "Pooling"
  bottom: "pool3/3x3_s2"
  top: "inception_4a/pool"
  pooling_param {
    pool: MAX
    kernel_size: 3
    stride: 1
    pad: 1
  }
}
layer {
  name: "inception_4a/pool_proj"
  type: "Convolution"
  bottom: "inception_4a/pool"
  top: "inception_4a/pool_proj"
  param {
    lr_mult: 1
    decay_mult: 1
  }
  param {
    lr_mult: 2
    decay_mult: 0
  }
  convolution_param {
    num_output: 64
    kernel_size: 1
    weight_filler {
      type: "xavier"
      std: 0.1
    }
    bias_filler {
      type: "constant"
      value: 0.2
    }
  }
}
layer {
  name: "inception_4a/relu_pool_proj"
  type: "ReLU"
  bottom: "inception_4a/pool_proj"
  top: "inception_4a/pool_proj"
}
layer {
  name: "inception_4a/output"
  type: "Concat"
  bottom: "inception_4a/1x1"
  bottom: "inception_4a/3x3"
  bottom: "inception_4a/5x5"
  bottom: "inception_4a/pool_proj"
  top: "inception_4a/output"
}
layer {
  name: "loss1/ave_pool"
  type: "Pooling"
  bottom: "inception_4a/output"
  top: "loss1/ave_pool"
  pooling_param {
    pool: AVE
    kernel_size: 5
    stride: 3
  }
}
layer {
  name: "loss1/conv"
  type: "Convolution"
  bottom: "loss1/ave_pool"
  top: "loss1/conv"
  param {
    lr_mult: 1
    decay_mult: 1
  }
  param {
    lr_mult: 2
    decay_mult: 0
  }
  convolution_param {
    num_output: 128
    kernel_size: 1
    weight_filler {
      type: "xavier"
      std: 0.08
    }
    bias_filler {
      type: "constant"
      value: 0.2
    }
  }
}
layer {
  name: "loss1/relu_conv"
  type: "ReLU"
  bottom: "loss1/conv"
  top: "loss1/conv"
}
layer {
  name: "loss1/fc"
  type: "InnerProduct"
  bottom: "loss1/conv"
  top: "loss1/fc"
  param {
    lr_mult: 1
    decay_mult: 1
  }
  param {
    lr_mult: 2
    decay_mult: 0
  }
  inner_product_param {
    num_output: 1024
    weight_filler {
      type: "xavier"
      std: 0.02
    }
    bias_filler {
      type: "constant"
      value: 0.2
    }
  }
}
layer {
  name: "loss1/relu_fc"
  type: "ReLU"
  bottom: "loss1/fc"
  top: "loss1/fc"
}
layer {
  name: "loss1/drop_fc"
  type: "Dropout"
  bottom: "loss1/fc"
  top: "loss1/fc"
  dropout_param {
    dropout_ratio: 0.7
  }
}
layer {
  name: "loss1/classifier_plantvillage"
  type: "InnerProduct"
  bottom: "loss1/fc"
  top: "loss1/classifier_plantvillage"
  param {
    lr_mult: 1
    decay_mult: 1
  }
  param {
    lr_mult: 2
    decay_mult: 0
  }
  inner_product_param {
    num_output: 38
    weight_filler {
      type: "xavier"
      std: 0.0009765625
    }
    bias_filler {
      type: "constant"
      value: 0
    }
  }
}
layer {
  name: "inception_4b/1x1"
  type: "Convolution"
  bottom: "inception_4a/output"
  top: "inception_4b/1x1"
  param {
    lr_mult: 1
    decay_mult: 1
  }
  param {
    lr_mult: 2
    decay_mult: 0
  }
  convolution_param {
    num_output: 160
    kernel_size: 1
    weight_filler {
      type: "xavier"
      std: 0.03
    }
    bias_filler {
      type: "constant"
      value: 0.2
    }
  }
}
layer {
  name: "inception_4b/relu_1x1"
  type: "ReLU"
  bottom: "inception_4b/1x1"
  top: "inception_4b/1x1"
}
layer {
  name: "inception_4b/3x3_reduce"
  type: "Convolution"
  bottom: "inception_4a/output"
  top: "inception_4b/3x3_reduce"
  param {
    lr_mult: 1
    decay_mult: 1
  }
  param {
    lr_mult: 2
    decay_mult: 0
  }
  convolution_param {
    num_output: 112
    kernel_size: 1
    weight_filler {
      type: "xavier"
      std: 0.09
    }
    bias_filler {
      type: "constant"
      value: 0.2
    }
  }
}
layer {
  name: "inception_4b/relu_3x3_reduce"
  type: "ReLU"
  bottom: "inception_4b/3x3_reduce"
  top: "inception_4b/3x3_reduce"
}
layer {
  name: "inception_4b/3x3"
  type: "Convolution"
  bottom: "inception_4b/3x3_reduce"
  top: "inception_4b/3x3"
  param {
    lr_mult: 1
    decay_mult: 1
  }
  param {
    lr_mult: 2
    decay_mult: 0
  }
  convolution_param {
    num_output: 224
    pad: 1
    kernel_size: 3
    weight_filler {
      type: "xavier"
      std: 0.03
    }
    bias_filler {
      type: "constant"
      value: 0.2
    }
  }
}
layer {
  name: "inception_4b/relu_3x3"
  type: "ReLU"
  bottom: "inception_4b/3x3"
  top: "inception_4b/3x3"
}
layer {
  name: "inception_4b/5x5_reduce"
  type: "Convolution"
  bottom: "inception_4a/output"
  top: "inception_4b/5x5_reduce"
  param {
    lr_mult: 1
    decay_mult: 1
  }
  param {
    lr_mult: 2
    decay_mult: 0
  }
  convolution_param {
    num_output: 24
    kernel_size: 1
    weight_filler {
      type: "xavier"
      std: 0.2
    }
    bias_filler {
      type: "constant"
      value: 0.2
    }
  }
}
layer {
  name: "inception_4b/relu_5x5_reduce"
  type: "ReLU"
  bottom: "inception_4b/5x5_reduce"
  top: "inception_4b/5x5_reduce"
}
layer {
  name: "inception_4b/5x5"
  type: "Convolution"
  bottom: "inception_4b/5x5_reduce"
  top: "inception_4b/5x5"
  param {
    lr_mult: 1
    decay_mult: 1
  }
  param {
    lr_mult: 2
    decay_mult: 0
  }
  convolution_param {
    num_output: 64
    pad: 2
    kernel_size: 5
    weight_filler {
      type: "xavier"
      std: 0.03
    }
    bias_filler {
      type: "constant"
      value: 0.2
    }
  }
}
layer {
  name: "inception_4b/relu_5x5"
  type: "ReLU"
  bottom: "inception_4b/5x5"
  top: "inception_4b/5x5"
}
layer {
  name: "inception_4b/pool"
  type: "Pooling"
  bottom: "inception_4a/output"
  top: "inception_4b/pool"
  pooling_param {
    pool: MAX
    kernel_size: 3
    stride: 1
    pad: 1
  }
}
layer {
  name: "inception_4b/pool_proj"
  type: "Convolution"
  bottom: "inception_4b/pool"
  top: "inception_4b/pool_proj"
  param {
    lr_mult: 1
    decay_mult: 1
  }
  param {
    lr_mult: 2
    decay_mult: 0
  }
  convolution_param {
    num_output: 64
    kernel_size: 1
    weight_filler {
      type: "xavier"
      std: 0.1
    }
    bias_filler {
      type: "constant"
      value: 0.2
    }
  }
}
layer {
  name: "inception_4b/relu_pool_proj"
  type: "ReLU"
  bottom: "inception_4b/pool_proj"
  top: "inception_4b/pool_proj"
}
layer {
  name: "inception_4b/output"
  type: "Concat"
  bottom: "inception_4b/1x1"
  bottom: "inception_4b/3x3"
  bottom: "inception_4b/5x5"
  bottom: "inception_4b/pool_proj"
  top: "inception_4b/output"
}
layer {
  name: "inception_4c/1x1"
  type: "Convolution"
  bottom: "inception_4b/output"
  top: "inception_4c/1x1"
  param {
    lr_mult: 1
    decay_mult: 1
  }
  param {
    lr_mult: 2
    decay_mult: 0
  }
  convolution_param {
    num_output: 128
    kernel_size: 1
    weight_filler {
      type: "xavier"
      std: 0.03
    }
    bias_filler {
      type: "constant"
      value: 0.2
    }
  }
}
layer {
  name: "inception_4c/relu_1x1"
  type: "ReLU"
  bottom: "inception_4c/1x1"
  top: "inception_4c/1x1"
}
layer {
  name: "inception_4c/3x3_reduce"
  type: "Convolution"
  bottom: "inception_4b/output"
  top: "inception_4c/3x3_reduce"
  param {
    lr_mult: 1
    decay_mult: 1
  }
  param {
    lr_mult: 2
    decay_mult: 0
  }
  convolution_param {
    num_output: 128
    kernel_size: 1
    weight_filler {
      type: "xavier"
      std: 0.09
    }
    bias_filler {
      type: "constant"
      value: 0.2
    }
  }
}
layer {
  name: "inception_4c/relu_3x3_reduce"
  type: "ReLU"
  bottom: "inception_4c/3x3_reduce"
  top: "inception_4c/3x3_reduce"
}
layer {
  name: "inception_4c/3x3"
  type: "Convolution"
  bottom: "inception_4c/3x3_reduce"
  top: "inception_4c/3x3"
  param {
    lr_mult: 1
    decay_mult: 1
  }
  param {
    lr_mult: 2
    decay_mult: 0
  }
  convolution_param {
    num_output: 256
    pad: 1
    kernel_size: 3
    weight_filler {
      type: "xavier"
      std: 0.03
    }
    bias_filler {
      type: "constant"
      value: 0.2
    }
  }
}
layer {
  name: "inception_4c/relu_3x3"
  type: "ReLU"
  bottom: "inception_4c/3x3"
  top: "inception_4c/3x3"
}
layer {
  name: "inception_4c/5x5_reduce"
  type: "Convolution"
  bottom: "inception_4b/output"
  top: "inception_4c/5x5_reduce"
  param {
    lr_mult: 1
    decay_mult: 1
  }
  param {
    lr_mult: 2
    decay_mult: 0
  }
  convolution_param {
    num_output: 24
    kernel_size: 1
    weight_filler {
      type: "xavier"
      std: 0.2
    }
    bias_filler {
      type: "constant"
      value: 0.2
    }
  }
}
layer {
  name: "inception_4c/relu_5x5_reduce"
  type: "ReLU"
  bottom: "inception_4c/5x5_reduce"
  top: "inception_4c/5x5_reduce"
}
layer {
  name: "inception_4c/5x5"
  type: "Convolution"
  bottom: "inception_4c/5x5_reduce"
  top: "inception_4c/5x5"
  param {
    lr_mult: 1
    decay_mult: 1
  }
  param {
    lr_mult: 2
    decay_mult: 0
  }
  convolution_param {
    num_output: 64
    pad: 2
    kernel_size: 5
    weight_filler {
      type: "xavier"
      std: 0.03
    }
    bias_filler {
      type: "constant"
      value: 0.2
    }
  }
}
layer {
  name: "inception_4c/relu_5x5"
  type: "ReLU"
  bottom: "inception_4c/5x5"
  top: "inception_4c/5x5"
}
layer {
  name: "inception_4c/pool"
  type: "Pooling"
  bottom: "inception_4b/output"
  top: "inception_4c/pool"
  pooling_param {
    pool: MAX
    kernel_size: 3
    stride: 1
    pad: 1
  }
}
layer {
  name: "inception_4c/pool_proj"
  type: "Convolution"
  bottom: "inception_4c/pool"
  top: "inception_4c/pool_proj"
  param {
    lr_mult: 1
    decay_mult: 1
  }
  param {
    lr_mult: 2
    decay_mult: 0
  }
  convolution_param {
    num_output: 64
    kernel_size: 1
    weight_filler {
      type: "xavier"
      std: 0.1
    }
    bias_filler {
      type: "constant"
      value: 0.2
    }
  }
}
layer {
  name: "inception_4c/relu_pool_proj"
  type: "ReLU"
  bottom: "inception_4c/pool_proj"
  top: "inception_4c/pool_proj"
}
layer {
  name: "inception_4c/output"
  type: "Concat"
  bottom: "inception_4c/1x1"
  bottom: "inception_4c/3x3"
  bottom: "inception_4c/5x5"
  bottom: "inception_4c/pool_proj"
  top: "inception_4c/output"
}
layer {
  name: "inception_4d/1x1"
  type: "Convolution"
  bottom: "inception_4c/output"
  top: "inception_4d/1x1"
  param {
    lr_mult: 1
    decay_mult: 1
  }
  param {
    lr_mult: 2
    decay_mult: 0
  }
  convolution_param {
    num_output: 112
    kernel_size: 1
    weight_filler {
      type: "xavier"
      std: 0.03
    }
    bias_filler {
      type: "constant"
      value: 0.2
    }
  }
}
layer {
  name: "inception_4d/relu_1x1"
  type: "ReLU"
  bottom: "inception_4d/1x1"
  top: "inception_4d/1x1"
}
layer {
  name: "inception_4d/3x3_reduce"
  type: "Convolution"
  bottom: "inception_4c/output"
  top: "inception_4d/3x3_reduce"
  param {
    lr_mult: 1
    decay_mult: 1
  }
  param {
    lr_mult: 2
    decay_mult: 0
  }
  convolution_param {
    num_output: 144
    kernel_size: 1
    weight_filler {
      type: "xavier"
      std: 0.09
    }
    bias_filler {
      type: "constant"
      value: 0.2
    }
  }
}
layer {
  name: "inception_4d/relu_3x3_reduce"
  type: "ReLU"
  bottom: "inception_4d/3x3_reduce"
  top: "inception_4d/3x3_reduce"
}
layer {
  name: "inception_4d/3x3"
  type: "Convolution"
  bottom: "inception_4d/3x3_reduce"
  top: "inception_4d/3x3"
  param {
    lr_mult: 1
    decay_mult: 1
  }
  param {
    lr_mult: 2
    decay_mult: 0
  }
  convolution_param {
    num_output: 288
    pad: 1
    kernel_size: 3
    weight_filler {
      type: "xavier"
      std: 0.03
    }
    bias_filler {
      type: "constant"
      value: 0.2
    }
  }
}
layer {
  name: "inception_4d/relu_3x3"
  type: "ReLU"
  bottom: "inception_4d/3x3"
  top: "inception_4d/3x3"
}
layer {
  name: "inception_4d/5x5_reduce"
  type: "Convolution"
  bottom: "inception_4c/output"
  top: "inception_4d/5x5_reduce"
  param {
    lr_mult: 1
    decay_mult: 1
  }
  param {
    lr_mult: 2
    decay_mult: 0
  }
  convolution_param {
    num_output: 32
    kernel_size: 1
    weight_filler {
      type: "xavier"
      std: 0.2
    }
    bias_filler {
      type: "constant"
      value: 0.2
    }
  }
}
layer {
  name: "inception_4d/relu_5x5_reduce"
  type: "ReLU"
  bottom: "inception_4d/5x5_reduce"
  top: "inception_4d/5x5_reduce"
}
layer {
  name: "inception_4d/5x5"
  type: "Convolution"
  bottom: "inception_4d/5x5_reduce"
  top: "inception_4d/5x5"
  param {
    lr_mult: 1
    decay_mult: 1
  }
  param {
    lr_mult: 2
    decay_mult: 0
  }
  convolution_param {
    num_output: 64
    pad: 2
    kernel_size: 5
    weight_filler {
      type: "xavier"
      std: 0.03
    }
    bias_filler {
      type: "constant"
      value: 0.2
    }
  }
}
layer {
  name: "inception_4d/relu_5x5"
  type: "ReLU"
  bottom: "inception_4d/5x5"
  top: "inception_4d/5x5"
}
layer {
  name: "inception_4d/pool"
  type: "Pooling"
  bottom: "inception_4c/output"
  top: "inception_4d/pool"
  pooling_param {
    pool: MAX
    kernel_size: 3
    stride: 1
    pad: 1
  }
}
layer {
  name: "inception_4d/pool_proj"
  type: "Convolution"
  bottom: "inception_4d/pool"
  top: "inception_4d/pool_proj"
  param {
    lr_mult: 1
    decay_mult: 1
  }
  param {
    lr_mult: 2
    decay_mult: 0
  }
  convolution_param {
    num_output: 64
    kernel_size: 1
    weight_filler {
      type: "xavier"
      std: 0.1
    }
    bias_filler {
      type: "constant"
      value: 0.2
    }
  }
}
layer {
  name: "inception_4d/relu_pool_proj"
  type: "ReLU"
  bottom: "inception_4d/pool_proj"
  top: "inception_4d/pool_proj"
}
layer {
  name: "inception_4d/output"
  type: "Concat"
  bottom: "inception_4d/1x1"
  bottom: "inception_4d/3x3"
  bottom: "inception_4d/5x5"
  bottom: "inception_4d/pool_proj"
  top: "inception_4d/output"
}
layer {
  name: "loss2/ave_pool"
  type: "Pooling"
  bottom: "inception_4d/output"
  top: "loss2/ave_pool"
  pooling_param {
    pool: AVE
    kernel_size: 5
    stride: 3
  }
}
layer {
  name: "loss2/conv"
  type: "Convolution"
  bottom: "loss2/ave_pool"
  top: "loss2/conv"
  param {
    lr_mult: 1
    decay_mult: 1
  }
  param {
    lr_mult: 2
    decay_mult: 0
  }
  convolution_param {
    num_output: 128
    kernel_size: 1
    weight_filler {
      type: "xavier"
      std: 0.08
    }
    bias_filler {
      type: "constant"
      value: 0.2
    }
  }
}
layer {
  name: "loss2/relu_conv"
  type: "ReLU"
  bottom: "loss2/conv"
  top: "loss2/conv"
}
layer {
  name: "loss2/fc"
  type: "InnerProduct"
  bottom: "loss2/conv"
  top: "loss2/fc"
  param {
    lr_mult: 1
    decay_mult: 1
  }
  param {
    lr_mult: 2
    decay_mult: 0
  }
  inner_product_param {
    num_output: 1024
    weight_filler {
      type: "xavier"
      std: 0.02
    }
    bias_filler {
      type: "constant"
      value: 0.2
    }
  }
}
layer {
  name: "loss2/relu_fc"
  type: "ReLU"
  bottom: "loss2/fc"
  top: "loss2/fc"
}
layer {
  name: "loss2/drop_fc"
  type: "Dropout"
  bottom: "loss2/fc"
  top: "loss2/fc"
  dropout_param {
    dropout_ratio: 0.7
  }
}
layer {
  name: "loss2/classifier_plantvillage"
  type: "InnerProduct"
  bottom: "loss2/fc"
  top: "loss2/classifier_plantvillage"
  param {
    lr_mult: 1
    decay_mult: 1
  }
  param {
    lr_mult: 2
    decay_mult: 0
  }
  inner_product_param {
    num_output: 38
    weight_filler {
      type: "xavier"
      std: 0.0009765625
    }
    bias_filler {
      type: "constant"
      value: 0
    }
  }
}
layer {
  name: "inception_4e/1x1"
  type: "Convolution"
  bottom: "inception_4d/output"
  top: "inception_4e/1x1"
  param {
    lr_mult: 1
    decay_mult: 1
  }
  param {
    lr_mult: 2
    decay_mult: 0
  }
  convolution_param {
    num_output: 256
    kernel_size: 1
    weight_filler {
      type: "xavier"
      std: 0.03
    }
    bias_filler {
      type: "constant"
      value: 0.2
    }
  }
}
layer {
  name: "inception_4e/relu_1x1"
  type: "ReLU"
  bottom: "inception_4e/1x1"
  top: "inception_4e/1x1"
}
layer {
  name: "inception_4e/3x3_reduce"
  type: "Convolution"
  bottom: "inception_4d/output"
  top: "inception_4e/3x3_reduce"
  param {
    lr_mult: 1
    decay_mult: 1
  }
  param {
    lr_mult: 2
    decay_mult: 0
  }
  convolution_param {
    num_output: 160
    kernel_size: 1
    weight_filler {
      type: "xavier"
      std: 0.09
    }
    bias_filler {
      type: "constant"
      value: 0.2
    }
  }
}
layer {
  name: "inception_4e/relu_3x3_reduce"
  type: "ReLU"
  bottom: "inception_4e/3x3_reduce"
  top: "inception_4e/3x3_reduce"
}
layer {
  name: "inception_4e/3x3"
  type: "Convolution"
  bottom: "inception_4e/3x3_reduce"
  top: "inception_4e/3x3"
  param {
    lr_mult: 1
    decay_mult: 1
  }
  param {
    lr_mult: 2
    decay_mult: 0
  }
  convolution_param {
    num_output: 320
    pad: 1
    kernel_size: 3
    weight_filler {
      type: "xavier"
      std: 0.03
    }
    bias_filler {
      type: "constant"
      value: 0.2
    }
  }
}
layer {
  name: "inception_4e/relu_3x3"
  type: "ReLU"
  bottom: "inception_4e/3x3"
  top: "inception_4e/3x3"
}
layer {
  name: "inception_4e/5x5_reduce"
  type: "Convolution"
  bottom: "inception_4d/output"
  top: "inception_4e/5x5_reduce"
  param {
    lr_mult: 1
    decay_mult: 1
  }
  param {
    lr_mult: 2
    decay_mult: 0
  }
  convolution_param {
    num_output: 32
    kernel_size: 1
    weight_filler {
      type: "xavier"
      std: 0.2
    }
    bias_filler {
      type: "constant"
      value: 0.2
    }
  }
}
layer {
  name: "inception_4e/relu_5x5_reduce"
  type: "ReLU"
  bottom: "inception_4e/5x5_reduce"
  top: "inception_4e/5x5_reduce"
}
layer {
  name: "inception_4e/5x5"
  type: "Convolution"
  bottom: "inception_4e/5x5_reduce"
  top: "inception_4e/5x5"
  p
I0403 15:53:58.226477 20505 layer_factory.hpp:77] Creating layer data
I0403 15:53:58.227090 20505 net.cpp:91] Creating Layer data
I0403 15:53:58.227121 20505 net.cpp:399] data -> data
I0403 15:53:58.227171 20505 net.cpp:399] data -> label
I0403 15:53:58.227207 20505 data_transformer.cpp:25] Loading mean file from: /home/mohanty/data/final_dataset/lmdb/color-40-60/mean.binaryproto
I0403 15:53:58.282941 20508 db_lmdb.cpp:38] Opened lmdb /home/mohanty/data/final_dataset/lmdb/color-40-60/test_db
I0403 15:53:58.316401 20505 data_layer.cpp:41] output data size: 24,3,224,224
I0403 15:53:58.356705 20505 net.cpp:141] Setting up data
I0403 15:53:58.356775 20505 net.cpp:148] Top shape: 24 3 224 224 (3612672)
I0403 15:53:58.356807 20505 net.cpp:148] Top shape: 24 (24)
I0403 15:53:58.356830 20505 net.cpp:156] Memory required for data: 14450784
I0403 15:53:58.356866 20505 layer_factory.hpp:77] Creating layer label_data_1_split
I0403 15:53:58.356896 20505 net.cpp:91] Creating Layer label_data_1_split
I0403 15:53:58.356925 20505 net.cpp:425] label_data_1_split <- label
I0403 15:53:58.356971 20505 net.cpp:399] label_data_1_split -> label_data_1_split_0
I0403 15:53:58.357023 20505 net.cpp:399] label_data_1_split -> label_data_1_split_1
I0403 15:53:58.357049 20505 net.cpp:399] label_data_1_split -> label_data_1_split_2
I0403 15:53:58.357077 20505 net.cpp:399] label_data_1_split -> label_data_1_split_3
I0403 15:53:58.357098 20505 net.cpp:399] label_data_1_split -> label_data_1_split_4
I0403 15:53:58.357125 20505 net.cpp:399] label_data_1_split -> label_data_1_split_5
I0403 15:53:58.357154 20505 net.cpp:399] label_data_1_split -> label_data_1_split_6
I0403 15:53:58.357182 20505 net.cpp:399] label_data_1_split -> label_data_1_split_7
I0403 15:53:58.357208 20505 net.cpp:399] label_data_1_split -> label_data_1_split_8
I0403 15:53:58.357234 20505 net.cpp:399] label_data_1_split -> label_data_1_split_9
I0403 15:53:58.357377 20505 net.cpp:141] Setting up label_data_1_split
I0403 15:53:58.357409 20505 net.cpp:148] Top shape: 24 (24)
I0403 15:53:58.357434 20505 net.cpp:148] Top shape: 24 (24)
I0403 15:53:58.357457 20505 net.cpp:148] Top shape: 24 (24)
I0403 15:53:58.357477 20505 net.cpp:148] Top shape: 24 (24)
I0403 15:53:58.357496 20505 net.cpp:148] Top shape: 24 (24)
I0403 15:53:58.357522 20505 net.cpp:148] Top shape: 24 (24)
I0403 15:53:58.357548 20505 net.cpp:148] Top shape: 24 (24)
I0403 15:53:58.357570 20505 net.cpp:148] Top shape: 24 (24)
I0403 15:53:58.357594 20505 net.cpp:148] Top shape: 24 (24)
I0403 15:53:58.357610 20505 net.cpp:148] Top shape: 24 (24)
I0403 15:53:58.357650 20505 net.cpp:156] Memory required for data: 14451744
I0403 15:53:58.357666 20505 layer_factory.hpp:77] Creating layer conv1/7x7_s2
I0403 15:53:58.357698 20505 net.cpp:91] Creating Layer conv1/7x7_s2
I0403 15:53:58.357717 20505 net.cpp:425] conv1/7x7_s2 <- data
I0403 15:53:58.357736 20505 net.cpp:399] conv1/7x7_s2 -> conv1/7x7_s2
I0403 15:53:58.504344 20505 net.cpp:141] Setting up conv1/7x7_s2
I0403 15:53:58.504420 20505 net.cpp:148] Top shape: 24 64 112 112 (19267584)
I0403 15:53:58.504437 20505 net.cpp:156] Memory required for data: 91522080
I0403 15:53:58.504468 20505 layer_factory.hpp:77] Creating layer conv1/relu_7x7
I0403 15:53:58.504498 20505 net.cpp:91] Creating Layer conv1/relu_7x7
I0403 15:53:58.504515 20505 net.cpp:425] conv1/relu_7x7 <- conv1/7x7_s2
I0403 15:53:58.504535 20505 net.cpp:386] conv1/relu_7x7 -> conv1/7x7_s2 (in-place)
I0403 15:53:58.504812 20505 net.cpp:141] Setting up conv1/relu_7x7
I0403 15:53:58.504840 20505 net.cpp:148] Top shape: 24 64 112 112 (19267584)
I0403 15:53:58.504856 20505 net.cpp:156] Memory required for data: 168592416
I0403 15:53:58.504871 20505 layer_factory.hpp:77] Creating layer pool1/3x3_s2
I0403 15:53:58.504897 20505 net.cpp:91] Creating Layer pool1/3x3_s2
I0403 15:53:58.504916 20505 net.cpp:425] pool1/3x3_s2 <- conv1/7x7_s2
I0403 15:53:58.504935 20505 net.cpp:399] pool1/3x3_s2 -> pool1/3x3_s2
I0403 15:53:58.505017 20505 net.cpp:141] Setting up pool1/3x3_s2
I0403 15:53:58.505043 20505 net.cpp:148] Top shape: 24 64 56 56 (4816896)
I0403 15:53:58.505059 20505 net.cpp:156] Memory required for data: 187860000
I0403 15:53:58.505074 20505 layer_factory.hpp:77] Creating layer pool1/norm1
I0403 15:53:58.505100 20505 net.cpp:91] Creating Layer pool1/norm1
I0403 15:53:58.505117 20505 net.cpp:425] pool1/norm1 <- pool1/3x3_s2
I0403 15:53:58.505136 20505 net.cpp:399] pool1/norm1 -> pool1/norm1
I0403 15:53:58.505468 20505 net.cpp:141] Setting up pool1/norm1
I0403 15:53:58.505496 20505 net.cpp:148] Top shape: 24 64 56 56 (4816896)
I0403 15:53:58.505512 20505 net.cpp:156] Memory required for data: 207127584
I0403 15:53:58.505528 20505 layer_factory.hpp:77] Creating layer conv2/3x3_reduce
I0403 15:53:58.505560 20505 net.cpp:91] Creating Layer conv2/3x3_reduce
I0403 15:53:58.505589 20505 net.cpp:425] conv2/3x3_reduce <- pool1/norm1
I0403 15:53:58.505616 20505 net.cpp:399] conv2/3x3_reduce -> conv2/3x3_reduce
I0403 15:53:58.507174 20505 net.cpp:141] Setting up conv2/3x3_reduce
I0403 15:53:58.507205 20505 net.cpp:148] Top shape: 24 64 56 56 (4816896)
I0403 15:53:58.507222 20505 net.cpp:156] Memory required for data: 226395168
I0403 15:53:58.507244 20505 layer_factory.hpp:77] Creating layer conv2/relu_3x3_reduce
I0403 15:53:58.507263 20505 net.cpp:91] Creating Layer conv2/relu_3x3_reduce
I0403 15:53:58.507287 20505 net.cpp:425] conv2/relu_3x3_reduce <- conv2/3x3_reduce
I0403 15:53:58.507305 20505 net.cpp:386] conv2/relu_3x3_reduce -> conv2/3x3_reduce (in-place)
I0403 15:53:58.507591 20505 net.cpp:141] Setting up conv2/relu_3x3_reduce
I0403 15:53:58.507617 20505 net.cpp:148] Top shape: 24 64 56 56 (4816896)
I0403 15:53:58.507633 20505 net.cpp:156] Memory required for data: 245662752
I0403 15:53:58.507648 20505 layer_factory.hpp:77] Creating layer conv2/3x3
I0403 15:53:58.507674 20505 net.cpp:91] Creating Layer conv2/3x3
I0403 15:53:58.507691 20505 net.cpp:425] conv2/3x3 <- conv2/3x3_reduce
I0403 15:53:58.507715 20505 net.cpp:399] conv2/3x3 -> conv2/3x3
I0403 15:53:58.510164 20505 net.cpp:141] Setting up conv2/3x3
I0403 15:53:58.510196 20505 net.cpp:148] Top shape: 24 192 56 56 (14450688)
I0403 15:53:58.510212 20505 net.cpp:156] Memory required for data: 303465504
I0403 15:53:58.510234 20505 layer_factory.hpp:77] Creating layer conv2/relu_3x3
I0403 15:53:58.510257 20505 net.cpp:91] Creating Layer conv2/relu_3x3
I0403 15:53:58.510274 20505 net.cpp:425] conv2/relu_3x3 <- conv2/3x3
I0403 15:53:58.510293 20505 net.cpp:386] conv2/relu_3x3 -> conv2/3x3 (in-place)
I0403 15:53:58.510479 20505 net.cpp:141] Setting up conv2/relu_3x3
I0403 15:53:58.510505 20505 net.cpp:148] Top shape: 24 192 56 56 (14450688)
I0403 15:53:58.510545 20505 net.cpp:156] Memory required for data: 361268256
I0403 15:53:58.510560 20505 layer_factory.hpp:77] Creating layer conv2/norm2
I0403 15:53:58.510581 20505 net.cpp:91] Creating Layer conv2/norm2
I0403 15:53:58.510599 20505 net.cpp:425] conv2/norm2 <- conv2/3x3
I0403 15:53:58.510619 20505 net.cpp:399] conv2/norm2 -> conv2/norm2
I0403 15:53:58.510939 20505 net.cpp:141] Setting up conv2/norm2
I0403 15:53:58.510978 20505 net.cpp:148] Top shape: 24 192 56 56 (14450688)
I0403 15:53:58.511003 20505 net.cpp:156] Memory required for data: 419071008
I0403 15:53:58.511018 20505 layer_factory.hpp:77] Creating layer pool2/3x3_s2
I0403 15:53:58.511036 20505 net.cpp:91] Creating Layer pool2/3x3_s2
I0403 15:53:58.511054 20505 net.cpp:425] pool2/3x3_s2 <- conv2/norm2
I0403 15:53:58.511075 20505 net.cpp:399] pool2/3x3_s2 -> pool2/3x3_s2
I0403 15:53:58.511132 20505 net.cpp:141] Setting up pool2/3x3_s2
I0403 15:53:58.511159 20505 net.cpp:148] Top shape: 24 192 28 28 (3612672)
I0403 15:53:58.511175 20505 net.cpp:156] Memory required for data: 433521696
I0403 15:53:58.511190 20505 layer_factory.hpp:77] Creating layer pool2/3x3_s2_pool2/3x3_s2_0_split
I0403 15:53:58.511209 20505 net.cpp:91] Creating Layer pool2/3x3_s2_pool2/3x3_s2_0_split
I0403 15:53:58.511226 20505 net.cpp:425] pool2/3x3_s2_pool2/3x3_s2_0_split <- pool2/3x3_s2
I0403 15:53:58.511251 20505 net.cpp:399] pool2/3x3_s2_pool2/3x3_s2_0_split -> pool2/3x3_s2_pool2/3x3_s2_0_split_0
I0403 15:53:58.511281 20505 net.cpp:399] pool2/3x3_s2_pool2/3x3_s2_0_split -> pool2/3x3_s2_pool2/3x3_s2_0_split_1
I0403 15:53:58.511307 20505 net.cpp:399] pool2/3x3_s2_pool2/3x3_s2_0_split -> pool2/3x3_s2_pool2/3x3_s2_0_split_2
I0403 15:53:58.511337 20505 net.cpp:399] pool2/3x3_s2_pool2/3x3_s2_0_split -> pool2/3x3_s2_pool2/3x3_s2_0_split_3
I0403 15:53:58.511423 20505 net.cpp:141] Setting up pool2/3x3_s2_pool2/3x3_s2_0_split
I0403 15:53:58.511448 20505 net.cpp:148] Top shape: 24 192 28 28 (3612672)
I0403 15:53:58.511466 20505 net.cpp:148] Top shape: 24 192 28 28 (3612672)
I0403 15:53:58.511482 20505 net.cpp:148] Top shape: 24 192 28 28 (3612672)
I0403 15:53:58.511498 20505 net.cpp:148] Top shape: 24 192 28 28 (3612672)
I0403 15:53:58.511512 20505 net.cpp:156] Memory required for data: 491324448
I0403 15:53:58.511528 20505 layer_factory.hpp:77] Creating layer inception_3a/1x1
I0403 15:53:58.511551 20505 net.cpp:91] Creating Layer inception_3a/1x1
I0403 15:53:58.511569 20505 net.cpp:425] inception_3a/1x1 <- pool2/3x3_s2_pool2/3x3_s2_0_split_0
I0403 15:53:58.511591 20505 net.cpp:399] inception_3a/1x1 -> inception_3a/1x1
I0403 15:53:58.513234 20505 net.cpp:141] Setting up inception_3a/1x1
I0403 15:53:58.513268 20505 net.cpp:148] Top shape: 24 64 28 28 (1204224)
I0403 15:53:58.513285 20505 net.cpp:156] Memory required for data: 496141344
I0403 15:53:58.513305 20505 layer_factory.hpp:77] Creating layer inception_3a/relu_1x1
I0403 15:53:58.513324 20505 net.cpp:91] Creating Layer inception_3a/relu_1x1
I0403 15:53:58.513339 20505 net.cpp:425] inception_3a/relu_1x1 <- inception_3a/1x1
I0403 15:53:58.513357 20505 net.cpp:386] inception_3a/relu_1x1 -> inception_3a/1x1 (in-place)
I0403 15:53:58.513545 20505 net.cpp:141] Setting up inception_3a/relu_1x1
I0403 15:53:58.513571 20505 net.cpp:148] Top shape: 24 64 28 28 (1204224)
I0403 15:53:58.513586 20505 net.cpp:156] Memory required for data: 500958240
I0403 15:53:58.513602 20505 layer_factory.hpp:77] Creating layer inception_3a/3x3_reduce
I0403 15:53:58.513625 20505 net.cpp:91] Creating Layer inception_3a/3x3_reduce
I0403 15:53:58.513644 20505 net.cpp:425] inception_3a/3x3_reduce <- pool2/3x3_s2_pool2/3x3_s2_0_split_1
I0403 15:53:58.513665 20505 net.cpp:399] inception_3a/3x3_reduce -> inception_3a/3x3_reduce
I0403 15:53:58.515450 20505 net.cpp:141] Setting up inception_3a/3x3_reduce
I0403 15:53:58.515485 20505 net.cpp:148] Top shape: 24 96 28 28 (1806336)
I0403 15:53:58.515502 20505 net.cpp:156] Memory required for data: 508183584
I0403 15:53:58.515525 20505 layer_factory.hpp:77] Creating layer inception_3a/relu_3x3_reduce
I0403 15:53:58.515565 20505 net.cpp:91] Creating Layer inception_3a/relu_3x3_reduce
I0403 15:53:58.515584 20505 net.cpp:425] inception_3a/relu_3x3_reduce <- inception_3a/3x3_reduce
I0403 15:53:58.515604 20505 net.cpp:386] inception_3a/relu_3x3_reduce -> inception_3a/3x3_reduce (in-place)
I0403 15:53:58.515797 20505 net.cpp:141] Setting up inception_3a/relu_3x3_reduce
I0403 15:53:58.515823 20505 net.cpp:148] Top shape: 24 96 28 28 (1806336)
I0403 15:53:58.515838 20505 net.cpp:156] Memory required for data: 515408928
I0403 15:53:58.515854 20505 layer_factory.hpp:77] Creating layer inception_3a/3x3
I0403 15:53:58.515878 20505 net.cpp:91] Creating Layer inception_3a/3x3
I0403 15:53:58.515897 20505 net.cpp:425] inception_3a/3x3 <- inception_3a/3x3_reduce
I0403 15:53:58.515916 20505 net.cpp:399] inception_3a/3x3 -> inception_3a/3x3
I0403 15:53:58.517683 20505 net.cpp:141] Setting up inception_3a/3x3
I0403 15:53:58.517714 20505 net.cpp:148] Top shape: 24 128 28 28 (2408448)
I0403 15:53:58.517729 20505 net.cpp:156] Memory required for data: 525042720
I0403 15:53:58.517748 20505 layer_factory.hpp:77] Creating layer inception_3a/relu_3x3
I0403 15:53:58.517767 20505 net.cpp:91] Creating Layer inception_3a/relu_3x3
I0403 15:53:58.517783 20505 net.cpp:425] inception_3a/relu_3x3 <- inception_3a/3x3
I0403 15:53:58.517804 20505 net.cpp:386] inception_3a/relu_3x3 -> inception_3a/3x3 (in-place)
I0403 15:53:58.518105 20505 net.cpp:141] Setting up inception_3a/relu_3x3
I0403 15:53:58.518133 20505 net.cpp:148] Top shape: 24 128 28 28 (2408448)
I0403 15:53:58.518149 20505 net.cpp:156] Memory required for data: 534676512
I0403 15:53:58.518164 20505 layer_factory.hpp:77] Creating layer inception_3a/5x5_reduce
I0403 15:53:58.518188 20505 net.cpp:91] Creating Layer inception_3a/5x5_reduce
I0403 15:53:58.518208 20505 net.cpp:425] inception_3a/5x5_reduce <- pool2/3x3_s2_pool2/3x3_s2_0_split_2
I0403 15:53:58.518230 20505 net.cpp:399] inception_3a/5x5_reduce -> inception_3a/5x5_reduce
I0403 15:53:58.519273 20505 net.cpp:141] Setting up inception_3a/5x5_reduce
I0403 15:53:58.519302 20505 net.cpp:148] Top shape: 24 16 28 28 (301056)
I0403 15:53:58.519318 20505 net.cpp:156] Memory required for data: 535880736
I0403 15:53:58.519338 20505 layer_factory.hpp:77] Creating layer inception_3a/relu_5x5_reduce
I0403 15:53:58.519356 20505 net.cpp:91] Creating Layer inception_3a/relu_5x5_reduce
I0403 15:53:58.519373 20505 net.cpp:425] inception_3a/relu_5x5_reduce <- inception_3a/5x5_reduce
I0403 15:53:58.519394 20505 net.cpp:386] inception_3a/relu_5x5_reduce -> inception_3a/5x5_reduce (in-place)
I0403 15:53:58.519709 20505 net.cpp:141] Setting up inception_3a/relu_5x5_reduce
I0403 15:53:58.519737 20505 net.cpp:148] Top shape: 24 16 28 28 (301056)
I0403 15:53:58.519753 20505 net.cpp:156] Memory required for data: 537084960
I0403 15:53:58.519769 20505 layer_factory.hpp:77] Creating layer inception_3a/5x5
I0403 15:53:58.519793 20505 net.cpp:91] Creating Layer inception_3a/5x5
I0403 15:53:58.519811 20505 net.cpp:425] inception_3a/5x5 <- inception_3a/5x5_reduce
I0403 15:53:58.519834 20505 net.cpp:399] inception_3a/5x5 -> inception_3a/5x5
I0403 15:53:58.520910 20505 net.cpp:141] Setting up inception_3a/5x5
I0403 15:53:58.520942 20505 net.cpp:148] Top shape: 24 32 28 28 (602112)
I0403 15:53:58.520963 20505 net.cpp:156] Memory required for data: 539493408
I0403 15:53:58.520984 20505 layer_factory.hpp:77] Creating layer inception_3a/relu_5x5
I0403 15:53:58.521003 20505 net.cpp:91] Creating Layer inception_3a/relu_5x5
I0403 15:53:58.521018 20505 net.cpp:425] inception_3a/relu_5x5 <- inception_3a/5x5
I0403 15:53:58.521039 20505 net.cpp:386] inception_3a/relu_5x5 -> inception_3a/5x5 (in-place)
I0403 15:53:58.521229 20505 net.cpp:141] Setting up inception_3a/relu_5x5
I0403 15:53:58.521256 20505 net.cpp:148] Top shape: 24 32 28 28 (602112)
I0403 15:53:58.521272 20505 net.cpp:156] Memory required for data: 541901856
I0403 15:53:58.521287 20505 layer_factory.hpp:77] Creating layer inception_3a/pool
I0403 15:53:58.521306 20505 net.cpp:91] Creating Layer inception_3a/pool
I0403 15:53:58.521327 20505 net.cpp:425] inception_3a/pool <- pool2/3x3_s2_pool2/3x3_s2_0_split_3
I0403 15:53:58.521360 20505 net.cpp:399] inception_3a/pool -> inception_3a/pool
I0403 15:53:58.521422 20505 net.cpp:141] Setting up inception_3a/pool
I0403 15:53:58.521447 20505 net.cpp:148] Top shape: 24 192 28 28 (3612672)
I0403 15:53:58.521462 20505 net.cpp:156] Memory required for data: 556352544
I0403 15:53:58.521478 20505 layer_factory.hpp:77] Creating layer inception_3a/pool_proj
I0403 15:53:58.521502 20505 net.cpp:91] Creating Layer inception_3a/pool_proj
I0403 15:53:58.521519 20505 net.cpp:425] inception_3a/pool_proj <- inception_3a/pool
I0403 15:53:58.521543 20505 net.cpp:399] inception_3a/pool_proj -> inception_3a/pool_proj
I0403 15:53:58.522570 20505 net.cpp:141] Setting up inception_3a/pool_proj
I0403 15:53:58.522599 20505 net.cpp:148] Top shape: 24 32 28 28 (602112)
I0403 15:53:58.522615 20505 net.cpp:156] Memory required for data: 558760992
I0403 15:53:58.522641 20505 layer_factory.hpp:77] Creating layer inception_3a/relu_pool_proj
I0403 15:53:58.522663 20505 net.cpp:91] Creating Layer inception_3a/relu_pool_proj
I0403 15:53:58.522680 20505 net.cpp:425] inception_3a/relu_pool_proj <- inception_3a/pool_proj
I0403 15:53:58.522701 20505 net.cpp:386] inception_3a/relu_pool_proj -> inception_3a/pool_proj (in-place)
I0403 15:53:58.523000 20505 net.cpp:141] Setting up inception_3a/relu_pool_proj
I0403 15:53:58.523027 20505 net.cpp:148] Top shape: 24 32 28 28 (602112)
I0403 15:53:58.523043 20505 net.cpp:156] Memory required for data: 561169440
I0403 15:53:58.523059 20505 layer_factory.hpp:77] Creating layer inception_3a/output
I0403 15:53:58.523078 20505 net.cpp:91] Creating Layer inception_3a/output
I0403 15:53:58.523094 20505 net.cpp:425] inception_3a/output <- inception_3a/1x1
I0403 15:53:58.523113 20505 net.cpp:425] inception_3a/output <- inception_3a/3x3
I0403 15:53:58.523128 20505 net.cpp:425] inception_3a/output <- inception_3a/5x5
I0403 15:53:58.523145 20505 net.cpp:425] inception_3a/output <- inception_3a/pool_proj
I0403 15:53:58.523165 20505 net.cpp:399] inception_3a/output -> inception_3a/output
I0403 15:53:58.523214 20505 net.cpp:141] Setting up inception_3a/output
I0403 15:53:58.523242 20505 net.cpp:148] Top shape: 24 256 28 28 (4816896)
I0403 15:53:58.523258 20505 net.cpp:156] Memory required for data: 580437024
I0403 15:53:58.523273 20505 layer_factory.hpp:77] Creating layer inception_3a/output_inception_3a/output_0_split
I0403 15:53:58.523291 20505 net.cpp:91] Creating Layer inception_3a/output_inception_3a/output_0_split
I0403 15:53:58.523308 20505 net.cpp:425] inception_3a/output_inception_3a/output_0_split <- inception_3a/output
I0403 15:53:58.523325 20505 net.cpp:399] inception_3a/output_inception_3a/output_0_split -> inception_3a/output_inception_3a/output_0_split_0
I0403 15:53:58.523345 20505 net.cpp:399] inception_3a/output_inception_3a/output_0_split -> inception_3a/output_inception_3a/output_0_split_1
I0403 15:53:58.523372 20505 net.cpp:399] inception_3a/output_inception_3a/output_0_split -> inception_3a/output_inception_3a/output_0_split_2
I0403 15:53:58.523396 20505 net.cpp:399] inception_3a/output_inception_3a/output_0_split -> inception_3a/output_inception_3a/output_0_split_3
I0403 15:53:58.523475 20505 net.cpp:141] Setting up inception_3a/output_inception_3a/output_0_split
I0403 15:53:58.523502 20505 net.cpp:148] Top shape: 24 256 28 28 (4816896)
I0403 15:53:58.523520 20505 net.cpp:148] Top shape: 24 256 28 28 (4816896)
I0403 15:53:58.523537 20505 net.cpp:148] Top shape: 24 256 28 28 (4816896)
I0403 15:53:58.523553 20505 net.cpp:148] Top shape: 24 256 28 28 (4816896)
I0403 15:53:58.523567 20505 net.cpp:156] Memory required for data: 657507360
I0403 15:53:58.523582 20505 layer_factory.hpp:77] Creating layer inception_3b/1x1
I0403 15:53:58.523607 20505 net.cpp:91] Creating Layer inception_3b/1x1
I0403 15:53:58.523625 20505 net.cpp:425] inception_3b/1x1 <- inception_3a/output_inception_3a/output_0_split_0
I0403 15:53:58.523644 20505 net.cpp:399] inception_3b/1x1 -> inception_3b/1x1
I0403 15:53:58.524868 20505 net.cpp:141] Setting up inception_3b/1x1
I0403 15:53:58.524909 20505 net.cpp:148] Top shape: 24 128 28 28 (2408448)
I0403 15:53:58.524925 20505 net.cpp:156] Memory required for data: 667141152
I0403 15:53:58.524947 20505 layer_factory.hpp:77] Creating layer inception_3b/relu_1x1
I0403 15:53:58.524973 20505 net.cpp:91] Creating Layer inception_3b/relu_1x1
I0403 15:53:58.524992 20505 net.cpp:425] inception_3b/relu_1x1 <- inception_3b/1x1
I0403 15:53:58.525009 20505 net.cpp:386] inception_3b/relu_1x1 -> inception_3b/1x1 (in-place)
I0403 15:53:58.525203 20505 net.cpp:141] Setting up inception_3b/relu_1x1
I0403 15:53:58.525229 20505 net.cpp:148] Top shape: 24 128 28 28 (2408448)
I0403 15:53:58.525244 20505 net.cpp:156] Memory required for data: 676774944
I0403 15:53:58.525259 20505 layer_factory.hpp:77] Creating layer inception_3b/3x3_reduce
I0403 15:53:58.525284 20505 net.cpp:91] Creating Layer inception_3b/3x3_reduce
I0403 15:53:58.525301 20505 net.cpp:425] inception_3b/3x3_reduce <- inception_3a/output_inception_3a/output_0_split_1
I0403 15:53:58.525323 20505 net.cpp:399] inception_3b/3x3_reduce -> inception_3b/3x3_reduce
I0403 15:53:58.526537 20505 net.cpp:141] Setting up inception_3b/3x3_reduce
I0403 15:53:58.526571 20505 net.cpp:148] Top shape: 24 128 28 28 (2408448)
I0403 15:53:58.526587 20505 net.cpp:156] Memory required for data: 686408736
I0403 15:53:58.526607 20505 layer_factory.hpp:77] Creating layer inception_3b/relu_3x3_reduce
I0403 15:53:58.526626 20505 net.cpp:91] Creating Layer inception_3b/relu_3x3_reduce
I0403 15:53:58.526643 20505 net.cpp:425] inception_3b/relu_3x3_reduce <- inception_3b/3x3_reduce
I0403 15:53:58.526660 20505 net.cpp:386] inception_3b/relu_3x3_reduce -> inception_3b/3x3_reduce (in-place)
I0403 15:53:58.526847 20505 net.cpp:141] Setting up inception_3b/relu_3x3_reduce
I0403 15:53:58.526875 20505 net.cpp:148] Top shape: 24 128 28 28 (2408448)
I0403 15:53:58.526890 20505 net.cpp:156] Memory required for data: 696042528
I0403 15:53:58.526906 20505 layer_factory.hpp:77] Creating layer inception_3b/3x3
I0403 15:53:58.526932 20505 net.cpp:91] Creating Layer inception_3b/3x3
I0403 15:53:58.526950 20505 net.cpp:425] inception_3b/3x3 <- inception_3b/3x3_reduce
I0403 15:53:58.526978 20505 net.cpp:399] inception_3b/3x3 -> inception_3b/3x3
I0403 15:53:58.530127 20505 net.cpp:141] Setting up inception_3b/3x3
I0403 15:53:58.530158 20505 net.cpp:148] Top shape: 24 192 28 28 (3612672)
I0403 15:53:58.530174 20505 net.cpp:156] Memory required for data: 710493216
I0403 15:53:58.530194 20505 layer_factory.hpp:77] Creating layer inception_3b/relu_3x3
I0403 15:53:58.530213 20505 net.cpp:91] Creating Layer inception_3b/relu_3x3
I0403 15:53:58.530230 20505 net.cpp:425] inception_3b/relu_3x3 <- inception_3b/3x3
I0403 15:53:58.530259 20505 net.cpp:386] inception_3b/relu_3x3 -> inception_3b/3x3 (in-place)
I0403 15:53:58.530562 20505 net.cpp:141] Setting up inception_3b/relu_3x3
I0403 15:53:58.530589 20505 net.cpp:148] Top shape: 24 192 28 28 (3612672)
I0403 15:53:58.530606 20505 net.cpp:156] Memory required for data: 724943904
I0403 15:53:58.530622 20505 layer_factory.hpp:77] Creating layer inception_3b/5x5_reduce
I0403 15:53:58.530644 20505 net.cpp:91] Creating Layer inception_3b/5x5_reduce
I0403 15:53:58.530663 20505 net.cpp:425] inception_3b/5x5_reduce <- inception_3a/output_inception_3a/output_0_split_2
I0403 15:53:58.530685 20505 net.cpp:399] inception_3b/5x5_reduce -> inception_3b/5x5_reduce
I0403 15:53:58.531770 20505 net.cpp:141] Setting up inception_3b/5x5_reduce
I0403 15:53:58.531800 20505 net.cpp:148] Top shape: 24 32 28 28 (602112)
I0403 15:53:58.531816 20505 net.cpp:156] Memory required for data: 727352352
I0403 15:53:58.531836 20505 layer_factory.hpp:77] Creating layer inception_3b/relu_5x5_reduce
I0403 15:53:58.531854 20505 net.cpp:91] Creating Layer inception_3b/relu_5x5_reduce
I0403 15:53:58.531872 20505 net.cpp:425] inception_3b/relu_5x5_reduce <- inception_3b/5x5_reduce
I0403 15:53:58.531891 20505 net.cpp:386] inception_3b/relu_5x5_reduce -> inception_3b/5x5_reduce (in-place)
I0403 15:53:58.532094 20505 net.cpp:141] Setting up inception_3b/relu_5x5_reduce
I0403 15:53:58.532133 20505 net.cpp:148] Top shape: 24 32 28 28 (602112)
I0403 15:53:58.532150 20505 net.cpp:156] Memory required for data: 729760800
I0403 15:53:58.532166 20505 layer_factory.hpp:77] Creating layer inception_3b/5x5
I0403 15:53:58.532189 20505 net.cpp:91] Creating Layer inception_3b/5x5
I0403 15:53:58.532208 20505 net.cpp:425] inception_3b/5x5 <- inception_3b/5x5_reduce
I0403 15:53:58.532230 20505 net.cpp:399] inception_3b/5x5 -> inception_3b/5x5
I0403 15:53:58.534343 20505 net.cpp:141] Setting up inception_3b/5x5
I0403 15:53:58.534376 20505 net.cpp:148] Top shape: 24 96 28 28 (1806336)
I0403 15:53:58.534395 20505 net.cpp:156] Memory required for data: 736986144
I0403 15:53:58.534415 20505 layer_factory.hpp:77] Creating layer inception_3b/relu_5x5
I0403 15:53:58.534433 20505 net.cpp:91] Creating Layer inception_3b/relu_5x5
I0403 15:53:58.534449 20505 net.cpp:425] inception_3b/relu_5x5 <- inception_3b/5x5
I0403 15:53:58.534468 20505 net.cpp:386] inception_3b/relu_5x5 -> inception_3b/5x5 (in-place)
I0403 15:53:58.534673 20505 net.cpp:141] Setting up inception_3b/relu_5x5
I0403 15:53:58.534700 20505 net.cpp:148] Top shape: 24 96 28 28 (1806336)
I0403 15:53:58.534716 20505 net.cpp:156] Memory required for data: 744211488
I0403 15:53:58.534731 20505 layer_factory.hpp:77] Creating layer inception_3b/pool
I0403 15:53:58.534750 20505 net.cpp:91] Creating Layer inception_3b/pool
I0403 15:53:58.534766 20505 net.cpp:425] inception_3b/pool <- inception_3a/output_inception_3a/output_0_split_3
I0403 15:53:58.534785 20505 net.cpp:399] inception_3b/pool -> inception_3b/pool
I0403 15:53:58.534847 20505 net.cpp:141] Setting up inception_3b/pool
I0403 15:53:58.534873 20505 net.cpp:148] Top shape: 24 256 28 28 (4816896)
I0403 15:53:58.534888 20505 net.cpp:156] Memory required for data: 763479072
I0403 15:53:58.534904 20505 layer_factory.hpp:77] Creating layer inception_3b/pool_proj
I0403 15:53:58.534927 20505 net.cpp:91] Creating Layer inception_3b/pool_proj
I0403 15:53:58.534945 20505 net.cpp:425] inception_3b/pool_proj <- inception_3b/pool
I0403 15:53:58.534970 20505 net.cpp:399] inception_3b/pool_proj -> inception_3b/pool_proj
I0403 15:53:58.536108 20505 net.cpp:141] Setting up inception_3b/pool_proj
I0403 15:53:58.536136 20505 net.cpp:148] Top shape: 24 64 28 28 (1204224)
I0403 15:53:58.536152 20505 net.cpp:156] Memory required for data: 768295968
I0403 15:53:58.536171 20505 layer_factory.hpp:77] Creating layer inception_3b/relu_pool_proj
I0403 15:53:58.536192 20505 net.cpp:91] Creating Layer inception_3b/relu_pool_proj
I0403 15:53:58.536211 20505 net.cpp:425] inception_3b/relu_pool_proj <- inception_3b/pool_proj
I0403 15:53:58.536228 20505 net.cpp:386] inception_3b/relu_pool_proj -> inception_3b/pool_proj (in-place)
I0403 15:53:58.536653 20505 net.cpp:141] Setting up inception_3b/relu_pool_proj
I0403 15:53:58.536679 20505 net.cpp:148] Top shape: 24 64 28 28 (1204224)
I0403 15:53:58.536695 20505 net.cpp:156] Memory required for data: 773112864
I0403 15:53:58.536711 20505 layer_factory.hpp:77] Creating layer inception_3b/output
I0403 15:53:58.536730 20505 net.cpp:91] Creating Layer inception_3b/output
I0403 15:53:58.536746 20505 net.cpp:425] inception_3b/output <- inception_3b/1x1
I0403 15:53:58.536762 20505 net.cpp:425] inception_3b/output <- inception_3b/3x3
I0403 15:53:58.536778 20505 net.cpp:425] inception_3b/output <- inception_3b/5x5
I0403 15:53:58.536795 20505 net.cpp:425] inception_3b/output <- inception_3b/pool_proj
I0403 15:53:58.536814 20505 net.cpp:399] inception_3b/output -> inception_3b/output
I0403 15:53:58.536861 20505 net.cpp:141] Setting up inception_3b/output
I0403 15:53:58.536887 20505 net.cpp:148] Top shape: 24 480 28 28 (9031680)
I0403 15:53:58.536903 20505 net.cpp:156] Memory required for data: 809239584
I0403 15:53:58.536918 20505 layer_factory.hpp:77] Creating layer pool3/3x3_s2
I0403 15:53:58.536936 20505 net.cpp:91] Creating Layer pool3/3x3_s2
I0403 15:53:58.536953 20505 net.cpp:425] pool3/3x3_s2 <- inception_3b/output
I0403 15:53:58.536979 20505 net.cpp:399] pool3/3x3_s2 -> pool3/3x3_s2
I0403 15:53:58.537056 20505 net.cpp:141] Setting up pool3/3x3_s2
I0403 15:53:58.537081 20505 net.cpp:148] Top shape: 24 480 14 14 (2257920)
I0403 15:53:58.537096 20505 net.cpp:156] Memory required for data: 818271264
I0403 15:53:58.537112 20505 layer_factory.hpp:77] Creating layer pool3/3x3_s2_pool3/3x3_s2_0_split
I0403 15:53:58.537132 20505 net.cpp:91] Creating Layer pool3/3x3_s2_pool3/3x3_s2_0_split
I0403 15:53:58.537148 20505 net.cpp:425] pool3/3x3_s2_pool3/3x3_s2_0_split <- pool3/3x3_s2
I0403 15:53:58.537166 20505 net.cpp:399] pool3/3x3_s2_pool3/3x3_s2_0_split -> pool3/3x3_s2_pool3/3x3_s2_0_split_0
I0403 15:53:58.537186 20505 net.cpp:399] pool3/3x3_s2_pool3/3x3_s2_0_split -> pool3/3x3_s2_pool3/3x3_s2_0_split_1
I0403 15:53:58.537209 20505 net.cpp:399] pool3/3x3_s2_pool3/3x3_s2_0_split -> pool3/3x3_s2_pool3/3x3_s2_0_split_2
I0403 15:53:58.537230 20505 net.cpp:399] pool3/3x3_s2_pool3/3x3_s2_0_split -> pool3/3x3_s2_pool3/3x3_s2_0_split_3
I0403 15:53:58.537312 20505 net.cpp:141] Setting up pool3/3x3_s2_pool3/3x3_s2_0_split
I0403 15:53:58.537338 20505 net.cpp:148] Top shape: 24 480 14 14 (2257920)
I0403 15:53:58.537353 20505 net.cpp:148] Top shape: 24 480 14 14 (2257920)
I0403 15:53:58.537369 20505 net.cpp:148] Top shape: 24 480 14 14 (2257920)
I0403 15:53:58.537385 20505 net.cpp:148] Top shape: 24 480 14 14 (2257920)
I0403 15:53:58.537400 20505 net.cpp:156] Memory required for data: 854397984
I0403 15:53:58.537415 20505 layer_factory.hpp:77] Creating layer inception_4a/1x1
I0403 15:53:58.537437 20505 net.cpp:91] Creating Layer inception_4a/1x1
I0403 15:53:58.537456 20505 net.cpp:425] inception_4a/1x1 <- pool3/3x3_s2_pool3/3x3_s2_0_split_0
I0403 15:53:58.537477 20505 net.cpp:399] inception_4a/1x1 -> inception_4a/1x1
I0403 15:53:58.539162 20505 net.cpp:141] Setting up inception_4a/1x1
I0403 15:53:58.539191 20505 net.cpp:148] Top shape: 24 192 14 14 (903168)
I0403 15:53:58.539207 20505 net.cpp:156] Memory required for data: 858010656
I0403 15:53:58.539227 20505 layer_factory.hpp:77] Creating layer inception_4a/relu_1x1
I0403 15:53:58.539248 20505 net.cpp:91] Creating Layer inception_4a/relu_1x1
I0403 15:53:58.539265 20505 net.cpp:425] inception_4a/relu_1x1 <- inception_4a/1x1
I0403 15:53:58.539283 20505 net.cpp:386] inception_4a/relu_1x1 -> inception_4a/1x1 (in-place)
I0403 15:53:58.539474 20505 net.cpp:141] Setting up inception_4a/relu_1x1
I0403 15:53:58.539504 20505 net.cpp:148] Top shape: 24 192 14 14 (903168)
I0403 15:53:58.539520 20505 net.cpp:156] Memory required for data: 861623328
I0403 15:53:58.539535 20505 layer_factory.hpp:77] Creating layer inception_4a/3x3_reduce
I0403 15:53:58.539557 20505 net.cpp:91] Creating Layer inception_4a/3x3_reduce
I0403 15:53:58.539577 20505 net.cpp:425] inception_4a/3x3_reduce <- pool3/3x3_s2_pool3/3x3_s2_0_split_1
I0403 15:53:58.539597 20505 net.cpp:399] inception_4a/3x3_reduce -> inception_4a/3x3_reduce
I0403 15:53:58.541003 20505 net.cpp:141] Setting up inception_4a/3x3_reduce
I0403 15:53:58.541033 20505 net.cpp:148] Top shape: 24 96 14 14 (451584)
I0403 15:53:58.541048 20505 net.cpp:156] Memory required for data: 863429664
I0403 15:53:58.541074 20505 layer_factory.hpp:77] Creating layer inception_4a/relu_3x3_reduce
I0403 15:53:58.541097 20505 net.cpp:91] Creating Layer inception_4a/relu_3x3_reduce
I0403 15:53:58.541115 20505 net.cpp:425] inception_4a/relu_3x3_reduce <- inception_4a/3x3_reduce
I0403 15:53:58.541133 20505 net.cpp:386] inception_4a/relu_3x3_reduce -> inception_4a/3x3_reduce (in-place)
I0403 15:53:58.541323 20505 net.cpp:141] Setting up inception_4a/relu_3x3_reduce
I0403 15:53:58.541349 20505 net.cpp:148] Top shape: 24 96 14 14 (451584)
I0403 15:53:58.541365 20505 net.cpp:156] Memory required for data: 865236000
I0403 15:53:58.541380 20505 layer_factory.hpp:77] Creating layer inception_4a/3x3
I0403 15:53:58.541404 20505 net.cpp:91] Creating Layer inception_4a/3x3
I0403 15:53:58.541424 20505 net.cpp:425] inception_4a/3x3 <- inception_4a/3x3_reduce
I0403 15:53:58.541442 20505 net.cpp:399] inception_4a/3x3 -> inception_4a/3x3
I0403 15:53:58.544980 20505 net.cpp:141] Setting up inception_4a/3x3
I0403 15:53:58.545012 20505 net.cpp:148] Top shape: 24 208 14 14 (978432)
I0403 15:53:58.545029 20505 net.cpp:156] Memory required for data: 869149728
I0403 15:53:58.545049 20505 layer_factory.hpp:77] Creating layer inception_4a/relu_3x3
I0403 15:53:58.545068 20505 net.cpp:91] Creating Layer inception_4a/relu_3x3
I0403 15:53:58.545084 20505 net.cpp:425] inception_4a/relu_3x3 <- inception_4a/3x3
I0403 15:53:58.545102 20505 net.cpp:386] inception_4a/relu_3x3 -> inception_4a/3x3 (in-place)
I0403 15:53:58.545442 20505 net.cpp:141] Setting up inception_4a/relu_3x3
I0403 15:53:58.545471 20505 net.cpp:148] Top shape: 24 208 14 14 (978432)
I0403 15:53:58.545488 20505 net.cpp:156] Memory required for data: 873063456
I0403 15:53:58.545503 20505 layer_factory.hpp:77] Creating layer inception_4a/5x5_reduce
I0403 15:53:58.545526 20505 net.cpp:91] Creating Layer inception_4a/5x5_reduce
I0403 15:53:58.545545 20505 net.cpp:425] inception_4a/5x5_reduce <- pool3/3x3_s2_pool3/3x3_s2_0_split_2
I0403 15:53:58.545564 20505 net.cpp:399] inception_4a/5x5_reduce -> inception_4a/5x5_reduce
I0403 15:53:58.546658 20505 net.cpp:141] Setting up inception_4a/5x5_reduce
I0403 15:53:58.546686 20505 net.cpp:148] Top shape: 24 16 14 14 (75264)
I0403 15:53:58.546701 20505 net.cpp:156] Memory required for data: 873364512
I0403 15:53:58.546720 20505 layer_factory.hpp:77] Creating layer inception_4a/relu_5x5_reduce
I0403 15:53:58.546737 20505 net.cpp:91] Creating Layer inception_4a/relu_5x5_reduce
I0403 15:53:58.546753 20505 net.cpp:425] inception_4a/relu_5x5_reduce <- inception_4a/5x5_reduce
I0403 15:53:58.546772 20505 net.cpp:386] inception_4a/relu_5x5_reduce -> inception_4a/5x5_reduce (in-place)
I0403 15:53:58.546959 20505 net.cpp:141] Setting up inception_4a/relu_5x5_reduce
I0403 15:53:58.546984 20505 net.cpp:148] Top shape: 24 16 14 14 (75264)
I0403 15:53:58.546999 20505 net.cpp:156] Memory required for data: 873665568
I0403 15:53:58.547014 20505 layer_factory.hpp:77] Creating layer inception_4a/5x5
I0403 15:53:58.547036 20505 net.cpp:91] Creating Layer inception_4a/5x5
I0403 15:53:58.547054 20505 net.cpp:425] inception_4a/5x5 <- inception_4a/5x5_reduce
I0403 15:53:58.547073 20505 net.cpp:399] inception_4a/5x5 -> inception_4a/5x5
I0403 15:53:58.548176 20505 net.cpp:141] Setting up inception_4a/5x5
I0403 15:53:58.548202 20505 net.cpp:148] Top shape: 24 48 14 14 (225792)
I0403 15:53:58.548218 20505 net.cpp:156] Memory required for data: 874568736
I0403 15:53:58.548235 20505 layer_factory.hpp:77] Creating layer inception_4a/relu_5x5
I0403 15:53:58.548256 20505 net.cpp:91] Creating Layer inception_4a/relu_5x5
I0403 15:53:58.548274 20505 net.cpp:425] inception_4a/relu_5x5 <- inception_4a/5x5
I0403 15:53:58.548290 20505 net.cpp:386] inception_4a/relu_5x5 -> inception_4a/5x5 (in-place)
I0403 15:53:58.548470 20505 net.cpp:141] Setting up inception_4a/relu_5x5
I0403 15:53:58.548494 20505 net.cpp:148] Top shape: 24 48 14 14 (225792)
I0403 15:53:58.548514 20505 net.cpp:156] Memory required for data: 875471904
I0403 15:53:58.548529 20505 layer_factory.hpp:77] Creating layer inception_4a/pool
I0403 15:53:58.548547 20505 net.cpp:91] Creating Layer inception_4a/pool
I0403 15:53:58.548563 20505 net.cpp:425] inception_4a/pool <- pool3/3x3_s2_pool3/3x3_s2_0_split_3
I0403 15:53:58.548579 20505 net.cpp:399] inception_4a/pool -> inception_4a/pool
I0403 15:53:58.548641 20505 net.cpp:141] Setting up inception_4a/pool
I0403 15:53:58.548666 20505 net.cpp:148] Top shape: 24 480 14 14 (2257920)
I0403 15:53:58.548679 20505 net.cpp:156] Memory required for data: 884503584
I0403 15:53:58.548694 20505 layer_factory.hpp:77] Creating layer inception_4a/pool_proj
I0403 15:53:58.548715 20505 net.cpp:91] Creating Layer inception_4a/pool_proj
I0403 15:53:58.548732 20505 net.cpp:425] inception_4a/pool_proj <- inception_4a/pool
I0403 15:53:58.548753 20505 net.cpp:399] inception_4a/pool_proj -> inception_4a/pool_proj
I0403 15:53:58.549942 20505 net.cpp:141] Setting up inception_4a/pool_proj
I0403 15:53:58.549974 20505 net.cpp:148] Top shape: 24 64 14 14 (301056)
I0403 15:53:58.550004 20505 net.cpp:156] Memory required for data: 885707808
I0403 15:53:58.550024 20505 layer_factory.hpp:77] Creating layer inception_4a/relu_pool_proj
I0403 15:53:58.550045 20505 net.cpp:91] Creating Layer inception_4a/relu_pool_proj
I0403 15:53:58.550061 20505 net.cpp:425] inception_4a/relu_pool_proj <- inception_4a/pool_proj
I0403 15:53:58.550078 20505 net.cpp:386] inception_4a/relu_pool_proj -> inception_4a/pool_proj (in-place)
I0403 15:53:58.550360 20505 net.cpp:141] Setting up inception_4a/relu_pool_proj
I0403 15:53:58.550386 20505 net.cpp:148] Top shape: 24 64 14 14 (301056)
I0403 15:53:58.550401 20505 net.cpp:156] Memory required for data: 886912032
I0403 15:53:58.550415 20505 layer_factory.hpp:77] Creating layer inception_4a/output
I0403 15:53:58.550433 20505 net.cpp:91] Creating Layer inception_4a/output
I0403 15:53:58.550448 20505 net.cpp:425] inception_4a/output <- inception_4a/1x1
I0403 15:53:58.550467 20505 net.cpp:425] inception_4a/output <- inception_4a/3x3
I0403 15:53:58.550483 20505 net.cpp:425] inception_4a/output <- inception_4a/5x5
I0403 15:53:58.550499 20505 net.cpp:425] inception_4a/output <- inception_4a/pool_proj
I0403 15:53:58.550515 20505 net.cpp:399] inception_4a/output -> inception_4a/output
I0403 15:53:58.550561 20505 net.cpp:141] Setting up inception_4a/output
I0403 15:53:58.550585 20505 net.cpp:148] Top shape: 24 512 14 14 (2408448)
I0403 15:53:58.550598 20505 net.cpp:156] Memory required for data: 896545824
I0403 15:53:58.550613 20505 layer_factory.hpp:77] Creating layer inception_4a/output_inception_4a/output_0_split
I0403 15:53:58.550631 20505 net.cpp:91] Creating Layer inception_4a/output_inception_4a/output_0_split
I0403 15:53:58.550645 20505 net.cpp:425] inception_4a/output_inception_4a/output_0_split <- inception_4a/output
I0403 15:53:58.550736 20505 net.cpp:399] inception_4a/output_inception_4a/output_0_split -> inception_4a/output_inception_4a/output_0_split_0
I0403 15:53:58.550763 20505 net.cpp:399] inception_4a/output_inception_4a/output_0_split -> inception_4a/output_inception_4a/output_0_split_1
I0403 15:53:58.550784 20505 net.cpp:399] inception_4a/output_inception_4a/output_0_split -> inception_4a/output_inception_4a/output_0_split_2
I0403 15:53:58.550804 20505 net.cpp:399] inception_4a/output_inception_4a/output_0_split -> inception_4a/output_inception_4a/output_0_split_3
I0403 15:53:58.550824 20505 net.cpp:399] inception_4a/output_inception_4a/output_0_split -> inception_4a/output_inception_4a/output_0_split_4
I0403 15:53:58.550920 20505 net.cpp:141] Setting up inception_4a/output_inception_4a/output_0_split
I0403 15:53:58.550943 20505 net.cpp:148] Top shape: 24 512 14 14 (2408448)
I0403 15:53:58.550964 20505 net.cpp:148] Top shape: 24 512 14 14 (2408448)
I0403 15:53:58.550981 20505 net.cpp:148] Top shape: 24 512 14 14 (2408448)
I0403 15:53:58.550997 20505 net.cpp:148] Top shape: 24 512 14 14 (2408448)
I0403 15:53:58.551012 20505 net.cpp:148] Top shape: 24 512 14 14 (2408448)
I0403 15:53:58.551024 20505 net.cpp:156] Memory required for data: 944714784
I0403 15:53:58.551038 20505 layer_factory.hpp:77] Creating layer loss1/ave_pool
I0403 15:53:58.551056 20505 net.cpp:91] Creating Layer loss1/ave_pool
I0403 15:53:58.551072 20505 net.cpp:425] loss1/ave_pool <- inception_4a/output_inception_4a/output_0_split_0
I0403 15:53:58.551092 20505 net.cpp:399] loss1/ave_pool -> loss1/ave_pool
I0403 15:53:58.551302 20505 net.cpp:141] Setting up loss1/ave_pool
I0403 15:53:58.551328 20505 net.cpp:148] Top shape: 24 512 4 4 (196608)
I0403 15:53:58.551342 20505 net.cpp:156] Memory required for data: 945501216
I0403 15:53:58.551357 20505 layer_factory.hpp:77] Creating layer loss1/conv
I0403 15:53:58.551378 20505 net.cpp:91] Creating Layer loss1/conv
I0403 15:53:58.551395 20505 net.cpp:425] loss1/conv <- loss1/ave_pool
I0403 15:53:58.551419 20505 net.cpp:399] loss1/conv -> loss1/conv
I0403 15:53:58.552925 20505 net.cpp:141] Setting up loss1/conv
I0403 15:53:58.552961 20505 net.cpp:148] Top shape: 24 128 4 4 (49152)
I0403 15:53:58.552979 20505 net.cpp:156] Memory required for data: 945697824
I0403 15:53:58.553012 20505 layer_factory.hpp:77] Creating layer loss1/relu_conv
I0403 15:53:58.553032 20505 net.cpp:91] Creating Layer loss1/relu_conv
I0403 15:53:58.553048 20505 net.cpp:425] loss1/relu_conv <- loss1/conv
I0403 15:53:58.553066 20505 net.cpp:386] loss1/relu_conv -> loss1/conv (in-place)
I0403 15:53:58.553354 20505 net.cpp:141] Setting up loss1/relu_conv
I0403 15:53:58.553383 20505 net.cpp:148] Top shape: 24 128 4 4 (49152)
I0403 15:53:58.553400 20505 net.cpp:156] Memory required for data: 945894432
I0403 15:53:58.553416 20505 layer_factory.hpp:77] Creating layer loss1/fc
I0403 15:53:58.553438 20505 net.cpp:91] Creating Layer loss1/fc
I0403 15:53:58.553455 20505 net.cpp:425] loss1/fc <- loss1/conv
I0403 15:53:58.553478 20505 net.cpp:399] loss1/fc -> loss1/fc
I0403 15:53:58.571755 20505 net.cpp:141] Setting up loss1/fc
I0403 15:53:58.571804 20505 net.cpp:148] Top shape: 24 1024 (24576)
I0403 15:53:58.571820 20505 net.cpp:156] Memory required for data: 945992736
I0403 15:53:58.571838 20505 layer_factory.hpp:77] Creating layer loss1/relu_fc
I0403 15:53:58.571856 20505 net.cpp:91] Creating Layer loss1/relu_fc
I0403 15:53:58.571872 20505 net.cpp:425] loss1/relu_fc <- loss1/fc
I0403 15:53:58.571889 20505 net.cpp:386] loss1/relu_fc -> loss1/fc (in-place)
I0403 15:53:58.572082 20505 net.cpp:141] Setting up loss1/relu_fc
I0403 15:53:58.572108 20505 net.cpp:148] Top shape: 24 1024 (24576)
I0403 15:53:58.572124 20505 net.cpp:156] Memory required for data: 946091040
I0403 15:53:58.572139 20505 layer_factory.hpp:77] Creating layer loss1/drop_fc
I0403 15:53:58.572165 20505 net.cpp:91] Creating Layer loss1/drop_fc
I0403 15:53:58.572182 20505 net.cpp:425] loss1/drop_fc <- loss1/fc
I0403 15:53:58.572198 20505 net.cpp:386] loss1/drop_fc -> loss1/fc (in-place)
I0403 15:53:58.572260 20505 net.cpp:141] Setting up loss1/drop_fc
I0403 15:53:58.572284 20505 net.cpp:148] Top shape: 24 1024 (24576)
I0403 15:53:58.572299 20505 net.cpp:156] Memory required for data: 946189344
I0403 15:53:58.572314 20505 layer_factory.hpp:77] Creating layer loss1/classifier_plantvillage
I0403 15:53:58.572335 20505 net.cpp:91] Creating Layer loss1/classifier_plantvillage
I0403 15:53:58.572352 20505 net.cpp:425] loss1/classifier_plantvillage <- loss1/fc
I0403 15:53:58.572371 20505 net.cpp:399] loss1/classifier_plantvillage -> loss1/classifier_plantvillage
I0403 15:53:58.573290 20505 net.cpp:141] Setting up loss1/classifier_plantvillage
I0403 15:53:58.573321 20505 net.cpp:148] Top shape: 24 38 (912)
I0403 15:53:58.573338 20505 net.cpp:156] Memory required for data: 946192992
I0403 15:53:58.573355 20505 layer_factory.hpp:77] Creating layer loss1/classifier_plantvillage_loss1/classifier_plantvillage_0_split
I0403 15:53:58.573374 20505 net.cpp:91] Creating Layer loss1/classifier_plantvillage_loss1/classifier_plantvillage_0_split
I0403 15:53:58.573400 20505 net.cpp:425] loss1/classifier_plantvillage_loss1/classifier_plantvillage_0_split <- loss1/classifier_plantvillage
I0403 15:53:58.573417 20505 net.cpp:399] loss1/classifier_plantvillage_loss1/classifier_plantvillage_0_split -> loss1/classifier_plantvillage_loss1/classifier_plantvillage_0_split_0
I0403 15:53:58.573436 20505 net.cpp:399] loss1/classifier_plantvillage_loss1/classifier_plantvillage_0_split -> loss1/classifier_plantvillage_loss1/classifier_plantvillage_0_split_1
I0403 15:53:58.573457 20505 net.cpp:399] loss1/classifier_plantvillage_loss1/classifier_plantvillage_0_split -> loss1/classifier_plantvillage_loss1/classifier_plantvillage_0_split_2
I0403 15:53:58.573520 20505 net.cpp:141] Setting up loss1/classifier_plantvillage_loss1/classifier_plantvillage_0_split
I0403 15:53:58.573542 20505 net.cpp:148] Top shape: 24 38 (912)
I0403 15:53:58.573559 20505 net.cpp:148] Top shape: 24 38 (912)
I0403 15:53:58.573573 20505 net.cpp:148] Top shape: 24 38 (912)
I0403 15:53:58.573586 20505 net.cpp:156] Memory required for data: 946203936
I0403 15:53:58.573601 20505 layer_factory.hpp:77] Creating layer inception_4b/1x1
I0403 15:53:58.573619 20505 net.cpp:91] Creating Layer inception_4b/1x1
I0403 15:53:58.573649 20505 net.cpp:425] inception_4b/1x1 <- inception_4a/output_inception_4a/output_0_split_1
I0403 15:53:58.573671 20505 net.cpp:399] inception_4b/1x1 -> inception_4b/1x1
I0403 15:53:58.575287 20505 net.cpp:141] Setting up inception_4b/1x1
I0403 15:53:58.575317 20505 net.cpp:148] Top shape: 24 160 14 14 (752640)
I0403 15:53:58.575332 20505 net.cpp:156] Memory required for data: 949214496
I0403 15:53:58.575350 20505 layer_factory.hpp:77] Creating layer inception_4b/relu_1x1
I0403 15:53:58.575367 20505 net.cpp:91] Creating Layer inception_4b/relu_1x1
I0403 15:53:58.575382 20505 net.cpp:425] inception_4b/relu_1x1 <- inception_4b/1x1
I0403 15:53:58.575402 20505 net.cpp:386] inception_4b/relu_1x1 -> inception_4b/1x1 (in-place)
I0403 15:53:58.575580 20505 net.cpp:141] Setting up inception_4b/relu_1x1
I0403 15:53:58.575605 20505 net.cpp:148] Top shape: 24 160 14 14 (752640)
I0403 15:53:58.575619 20505 net.cpp:156] Memory required for data: 952225056
I0403 15:53:58.575634 20505 layer_factory.hpp:77] Creating layer inception_4b/3x3_reduce
I0403 15:53:58.575655 20505 net.cpp:91] Creating Layer inception_4b/3x3_reduce
I0403 15:53:58.575671 20505 net.cpp:425] inception_4b/3x3_reduce <- inception_4a/output_inception_4a/output_0_split_2
I0403 15:53:58.575693 20505 net.cpp:399] inception_4b/3x3_reduce -> inception_4b/3x3_reduce
I0403 15:53:58.577036 20505 net.cpp:141] Setting up inception_4b/3x3_reduce
I0403 15:53:58.577064 20505 net.cpp:148] Top shape: 24 112 14 14 (526848)
I0403 15:53:58.577078 20505 net.cpp:156] Memory required for data: 954332448
I0403 15:53:58.577095 20505 layer_factory.hpp:77] Creating layer inception_4b/relu_3x3_reduce
I0403 15:53:58.577116 20505 net.cpp:91] Creating Layer inception_4b/relu_3x3_reduce
I0403 15:53:58.577131 20505 net.cpp:425] inception_4b/relu_3x3_reduce <- inception_4b/3x3_reduce
I0403 15:53:58.577148 20505 net.cpp:386] inception_4b/relu_3x3_reduce -> inception_4b/3x3_reduce (in-place)
I0403 15:53:58.577426 20505 net.cpp:141] Setting up inception_4b/relu_3x3_reduce
I0403 15:53:58.577451 20505 net.cpp:148] Top shape: 24 112 14 14 (526848)
I0403 15:53:58.577466 20505 net.cpp:156] Memory required for data: 956439840
I0403 15:53:58.577481 20505 layer_factory.hpp:77] Creating layer inception_4b/3x3
I0403 15:53:58.577502 20505 net.cpp:91] Creating Layer inception_4b/3x3
I0403 15:53:58.577518 20505 net.cpp:425] inception_4b/3x3 <- inception_4b/3x3_reduce
I0403 15:53:58.577539 20505 net.cpp:399] inception_4b/3x3 -> inception_4b/3x3
I0403 15:53:58.580471 20505 net.cpp:141] Setting up inception_4b/3x3
I0403 15:53:58.580498 20505 net.cpp:148] Top shape: 24 224 14 14 (1053696)
I0403 15:53:58.580513 20505 net.cpp:156] Memory required for data: 960654624
I0403 15:53:58.580530 20505 layer_factory.hpp:77] Creating layer inception_4b/relu_3x3
I0403 15:53:58.580550 20505 net.cpp:91] Creating Layer inception_4b/relu_3x3
I0403 15:53:58.580566 20505 net.cpp:425] inception_4b/relu_3x3 <- inception_4b/3x3
I0403 15:53:58.580584 20505 net.cpp:386] inception_4b/relu_3x3 -> inception_4b/3x3 (in-place)
I0403 15:53:58.580765 20505 net.cpp:141] Setting up inception_4b/relu_3x3
I0403 15:53:58.580790 20505 net.cpp:148] Top shape: 24 224 14 14 (1053696)
I0403 15:53:58.580806 20505 net.cpp:156] Memory required for data: 964869408
I0403 15:53:58.580819 20505 layer_factory.hpp:77] Creating layer inception_4b/5x5_reduce
I0403 15:53:58.580840 20505 net.cpp:91] Creating Layer inception_4b/5x5_reduce
I0403 15:53:58.580857 20505 net.cpp:425] inception_4b/5x5_reduce <- inception_4a/output_inception_4a/output_0_split_3
I0403 15:53:58.580875 20505 net.cpp:399] inception_4b/5x5_reduce -> inception_4b/5x5_reduce
I0403 15:53:58.581982 20505 net.cpp:141] Setting up inception_4b/5x5_reduce
I0403 15:53:58.582012 20505 net.cpp:148] Top shape: 24 24 14 14 (112896)
I0403 15:53:58.582027 20505 net.cpp:156] Memory required for data: 965320992
I0403 15:53:58.582046 20505 layer_factory.hpp:77] Creating layer inception_4b/relu_5x5_reduce
I0403 15:53:58.582062 20505 net.cpp:91] Creating Layer inception_4b/relu_5x5_reduce
I0403 15:53:58.582104 20505 net.cpp:425] inception_4b/relu_5x5_reduce <- inception_4b/5x5_reduce
I0403 15:53:58.582126 20505 net.cpp:386] inception_4b/relu_5x5_reduce -> inception_4b/5x5_reduce (in-place)
I0403 15:53:58.582312 20505 net.cpp:141] Setting up inception_4b/relu_5x5_reduce
I0403 15:53:58.582337 20505 net.cpp:148] Top shape: 24 24 14 14 (112896)
I0403 15:53:58.582351 20505 net.cpp:156] Memory required for data: 965772576
I0403 15:53:58.582365 20505 layer_factory.hpp:77] Creating layer inception_4b/5x5
I0403 15:53:58.582399 20505 net.cpp:91] Creating Layer inception_4b/5x5
I0403 15:53:58.582417 20505 net.cpp:425] inception_4b/5x5 <- inception_4b/5x5_reduce
I0403 15:53:58.582437 20505 net.cpp:399] inception_4b/5x5 -> inception_4b/5x5
I0403 15:53:58.583672 20505 net.cpp:141] Setting up inception_4b/5x5
I0403 15:53:58.583701 20505 net.cpp:148] Top shape: 24 64 14 14 (301056)
I0403 15:53:58.583717 20505 net.cpp:156] Memory required for data: 966976800
I0403 15:53:58.583736 20505 layer_factory.hpp:77] Creating layer inception_4b/relu_5x5
I0403 15:53:58.583753 20505 net.cpp:91] Creating Layer inception_4b/relu_5x5
I0403 15:53:58.583770 20505 net.cpp:425] inception_4b/relu_5x5 <- inception_4b/5x5
I0403 15:53:58.583789 20505 net.cpp:386] inception_4b/relu_5x5 -> inception_4b/5x5 (in-place)
I0403 15:53:58.584079 20505 net.cpp:141] Setting up inception_4b/relu_5x5
I0403 15:53:58.584111 20505 net.cpp:148] Top shape: 24 64 14 14 (301056)
I0403 15:53:58.584127 20505 net.cpp:156] Memory required for data: 968181024
I0403 15:53:58.584142 20505 layer_factory.hpp:77] Creating layer inception_4b/pool
I0403 15:53:58.584159 20505 net.cpp:91] Creating Layer inception_4b/pool
I0403 15:53:58.584177 20505 net.cpp:425] inception_4b/pool <- inception_4a/output_inception_4a/output_0_split_4
I0403 15:53:58.584197 20505 net.cpp:399] inception_4b/pool -> inception_4b/pool
I0403 15:53:58.584270 20505 net.cpp:141] Setting up inception_4b/pool
I0403 15:53:58.584292 20505 net.cpp:148] Top shape: 24 512 14 14 (2408448)
I0403 15:53:58.584307 20505 net.cpp:156] Memory required for data: 977814816
I0403 15:53:58.584321 20505 layer_factory.hpp:77] Creating layer inception_4b/pool_proj
I0403 15:53:58.584343 20505 net.cpp:91] Creating Layer inception_4b/pool_proj
I0403 15:53:58.584362 20505 net.cpp:425] inception_4b/pool_proj <- inception_4b/pool
I0403 15:53:58.584380 20505 net.cpp:399] inception_4b/pool_proj -> inception_4b/pool_proj
I0403 15:53:58.585597 20505 net.cpp:141] Setting up inception_4b/pool_proj
I0403 15:53:58.585625 20505 net.cpp:148] Top shape: 24 64 14 14 (301056)
I0403 15:53:58.585640 20505 net.cpp:156] Memory required for data: 979019040
I0403 15:53:58.585659 20505 layer_factory.hpp:77] Creating layer inception_4b/relu_pool_proj
I0403 15:53:58.585676 20505 net.cpp:91] Creating Layer inception_4b/relu_pool_proj
I0403 15:53:58.585692 20505 net.cpp:425] inception_4b/relu_pool_proj <- inception_4b/pool_proj
I0403 15:53:58.585712 20505 net.cpp:386] inception_4b/relu_pool_proj -> inception_4b/pool_proj (in-place)
I0403 15:53:58.585899 20505 net.cpp:141] Setting up inception_4b/relu_pool_proj
I0403 15:53:58.585925 20505 net.cpp:148] Top shape: 24 64 14 14 (301056)
I0403 15:53:58.585952 20505 net.cpp:156] Memory required for data: 980223264
I0403 15:53:58.585973 20505 layer_factory.hpp:77] Creating layer inception_4b/output
I0403 15:53:58.585993 20505 net.cpp:91] Creating Layer inception_4b/output
I0403 15:53:58.586009 20505 net.cpp:425] inception_4b/output <- inception_4b/1x1
I0403 15:53:58.586027 20505 net.cpp:425] inception_4b/output <- inception_4b/3x3
I0403 15:53:58.586043 20505 net.cpp:425] inception_4b/output <- inception_4b/5x5
I0403 15:53:58.586058 20505 net.cpp:425] inception_4b/output <- inception_4b/pool_proj
I0403 15:53:58.586076 20505 net.cpp:399] inception_4b/output -> inception_4b/output
I0403 15:53:58.586122 20505 net.cpp:141] Setting up inception_4b/output
I0403 15:53:58.586148 20505 net.cpp:148] Top shape: 24 512 14 14 (2408448)
I0403 15:53:58.586163 20505 net.cpp:156] Memory required for data: 989857056
I0403 15:53:58.586192 20505 layer_factory.hpp:77] Creating layer inception_4b/output_inception_4b/output_0_split
I0403 15:53:58.586211 20505 net.cpp:91] Creating Layer inception_4b/output_inception_4b/output_0_split
I0403 15:53:58.586227 20505 net.cpp:425] inception_4b/output_inception_4b/output_0_split <- inception_4b/output
I0403 15:53:58.586258 20505 net.cpp:399] inception_4b/output_inception_4b/output_0_split -> inception_4b/output_inception_4b/output_0_split_0
I0403 15:53:58.586279 20505 net.cpp:399] inception_4b/output_inception_4b/output_0_split -> inception_4b/output_inception_4b/output_0_split_1
I0403 15:53:58.586298 20505 net.cpp:399] inception_4b/output_inception_4b/output_0_split -> inception_4b/output_inception_4b/output_0_split_2
I0403 15:53:58.586318 20505 net.cpp:399] inception_4b/output_inception_4b/output_0_split -> inception_4b/output_inception_4b/output_0_split_3
I0403 15:53:58.586401 20505 net.cpp:141] Setting up inception_4b/output_inception_4b/output_0_split
I0403 15:53:58.586426 20505 net.cpp:148] Top shape: 24 512 14 14 (2408448)
I0403 15:53:58.586442 20505 net.cpp:148] Top shape: 24 512 14 14 (2408448)
I0403 15:53:58.586457 20505 net.cpp:148] Top shape: 24 512 14 14 (2408448)
I0403 15:53:58.586472 20505 net.cpp:148] Top shape: 24 512 14 14 (2408448)
I0403 15:53:58.586486 20505 net.cpp:156] Memory required for data: 1028392224
I0403 15:53:58.586500 20505 layer_factory.hpp:77] Creating layer inception_4c/1x1
I0403 15:53:58.586524 20505 net.cpp:91] Creating Layer inception_4c/1x1
I0403 15:53:58.586541 20505 net.cpp:425] inception_4c/1x1 <- inception_4b/output_inception_4b/output_0_split_0
I0403 15:53:58.586560 20505 net.cpp:399] inception_4c/1x1 -> inception_4c/1x1
I0403 15:53:58.588021 20505 net.cpp:141] Setting up inception_4c/1x1
I0403 15:53:58.588049 20505 net.cpp:148] Top shape: 24 128 14 14 (602112)
I0403 15:53:58.588064 20505 net.cpp:156] Memory required for data: 1030800672
I0403 15:53:58.588083 20505 layer_factory.hpp:77] Creating layer inception_4c/relu_1x1
I0403 15:53:58.588102 20505 net.cpp:91] Creating Layer inception_4c/relu_1x1
I0403 15:53:58.588119 20505 net.cpp:425] inception_4c/relu_1x1 <- inception_4c/1x1
I0403 15:53:58.588135 20505 net.cpp:386] inception_4c/relu_1x1 -> inception_4c/1x1 (in-place)
I0403 15:53:58.588323 20505 net.cpp:141] Setting up inception_4c/relu_1x1
I0403 15:53:58.588348 20505 net.cpp:148] Top shape: 24 128 14 14 (602112)
I0403 15:53:58.588363 20505 net.cpp:156] Memory required for data: 1033209120
I0403 15:53:58.588377 20505 layer_factory.hpp:77] Creating layer inception_4c/3x3_reduce
I0403 15:53:58.588402 20505 net.cpp:91] Creating Layer inception_4c/3x3_reduce
I0403 15:53:58.588418 20505 net.cpp:425] inception_4c/3x3_reduce <- inception_4b/output_inception_4b/output_0_split_1
I0403 15:53:58.588436 20505 net.cpp:399] inception_4c/3x3_reduce -> inception_4c/3x3_reduce
I0403 15:53:58.590436 20505 net.cpp:141] Setting up inception_4c/3x3_reduce
I0403 15:53:58.590467 20505 net.cpp:148] Top shape: 24 128 14 14 (602112)
I0403 15:53:58.590483 20505 net.cpp:156] Memory required for data: 1035617568
I0403 15:53:58.590502 20505 layer_factory.hpp:77] Creating layer inception_4c/relu_3x3_reduce
I0403 15:53:58.590520 20505 net.cpp:91] Creating Layer inception_4c/relu_3x3_reduce
I0403 15:53:58.590535 20505 net.cpp:425] inception_4c/relu_3x3_reduce <- inception_4c/3x3_reduce
I0403 15:53:58.590554 20505 net.cpp:386] inception_4c/relu_3x3_reduce -> inception_4c/3x3_reduce (in-place)
I0403 15:53:58.590847 20505 net.cpp:141] Setting up inception_4c/relu_3x3_reduce
I0403 15:53:58.590876 20505 net.cpp:148] Top shape: 24 128 14 14 (602112)
I0403 15:53:58.590891 20505 net.cpp:156] Memory required for data: 1038026016
I0403 15:53:58.590906 20505 layer_factory.hpp:77] Creating layer inception_4c/3x3
I0403 15:53:58.590930 20505 net.cpp:91] Creating Layer inception_4c/3x3
I0403 15:53:58.590947 20505 net.cpp:425] inception_4c/3x3 <- inception_4c/3x3_reduce
I0403 15:53:58.590971 20505 net.cpp:399] inception_4c/3x3 -> inception_4c/3x3
I0403 15:53:58.594640 20505 net.cpp:141] Setting up inception_4c/3x3
I0403 15:53:58.594681 20505 net.cpp:148] Top shape: 24 256 14 14 (1204224)
I0403 15:53:58.594696 20505 net.cpp:156] Memory required for data: 1042842912
I0403 15:53:58.594728 20505 layer_factory.hpp:77] Creating layer inception_4c/relu_3x3
I0403 15:53:58.594749 20505 net.cpp:91] Creating Layer inception_4c/relu_3x3
I0403 15:53:58.594765 20505 net.cpp:425] inception_4c/relu_3x3 <- inception_4c/3x3
I0403 15:53:58.594784 20505 net.cpp:386] inception_4c/relu_3x3 -> inception_4c/3x3 (in-place)
I0403 15:53:58.594975 20505 net.cpp:141] Setting up inception_4c/relu_3x3
I0403 15:53:58.595002 20505 net.cpp:148] Top shape: 24 256 14 14 (1204224)
I0403 15:53:58.595017 20505 net.cpp:156] Memory required for data: 1047659808
I0403 15:53:58.595031 20505 layer_factory.hpp:77] Creating layer inception_4c/5x5_reduce
I0403 15:53:58.595054 20505 net.cpp:91] Creating Layer inception_4c/5x5_reduce
I0403 15:53:58.595072 20505 net.cpp:425] inception_4c/5x5_reduce <- inception_4b/output_inception_4b/output_0_split_2
I0403 15:53:58.595093 20505 net.cpp:399] inception_4c/5x5_reduce -> inception_4c/5x5_reduce
I0403 15:53:58.596212 20505 net.cpp:141] Setting up inception_4c/5x5_reduce
I0403 15:53:58.596242 20505 net.cpp:148] Top shape: 24 24 14 14 (112896)
I0403 15:53:58.596258 20505 net.cpp:156] Memory required for data: 1048111392
I0403 15:53:58.596276 20505 layer_factory.hpp:77] Creating layer inception_4c/relu_5x5_reduce
I0403 15:53:58.596294 20505 net.cpp:91] Creating Layer inception_4c/relu_5x5_reduce
I0403 15:53:58.596310 20505 net.cpp:425] inception_4c/relu_5x5_reduce <- inception_4c/5x5_reduce
I0403 15:53:58.596330 20505 net.cpp:386] inception_4c/relu_5x5_reduce -> inception_4c/5x5_reduce (in-place)
I0403 15:53:58.596519 20505 net.cpp:141] Setting up inception_4c/relu_5x5_reduce
I0403 15:53:58.596544 20505 net.cpp:148] Top shape: 24 24 14 14 (112896)
I0403 15:53:58.596559 20505 net.cpp:156] Memory required for data: 1048562976
I0403 15:53:58.596573 20505 layer_factory.hpp:77] Creating layer inception_4c/5x5
I0403 15:53:58.596595 20505 net.cpp:91] Creating Layer inception_4c/5x5
I0403 15:53:58.596612 20505 net.cpp:425] inception_4c/5x5 <- inception_4c/5x5_reduce
I0403 15:53:58.596633 20505 net.cpp:399] inception_4c/5x5 -> inception_4c/5x5
I0403 15:53:58.598120 20505 net.cpp:141] Setting up inception_4c/5x5
I0403 15:53:58.598150 20505 net.cpp:148] Top shape: 24 64 14 14 (301056)
I0403 15:53:58.598168 20505 net.cpp:156] Memory required for data: 1049767200
I0403 15:53:58.598191 20505 layer_factory.hpp:77] Creating layer inception_4c/relu_5x5
I0403 15:53:58.598212 20505 net.cpp:91] Creating Layer inception_4c/relu_5x5
I0403 15:53:58.598229 20505 net.cpp:425] inception_4c/relu_5x5 <- inception_4c/5x5
I0403 15:53:58.598248 20505 net.cpp:386] inception_4c/relu_5x5 -> inception_4c/5x5 (in-place)
I0403 15:53:58.598618 20505 net.cpp:141] Setting up inception_4c/relu_5x5
I0403 15:53:58.598646 20505 net.cpp:148] Top shape: 24 64 14 14 (301056)
I0403 15:53:58.598662 20505 net.cpp:156] Memory required for data: 1050971424
I0403 15:53:58.598677 20505 layer_factory.hpp:77] Creating layer inception_4c/pool
I0403 15:53:58.598698 20505 net.cpp:91] Creating Layer inception_4c/pool
I0403 15:53:58.598717 20505 net.cpp:425] inception_4c/pool <- inception_4b/output_inception_4b/output_0_split_3
I0403 15:53:58.598737 20505 net.cpp:399] inception_4c/pool -> inception_4c/pool
I0403 15:53:58.598819 20505 net.cpp:141] Setting up inception_4c/pool
I0403 15:53:58.598844 20505 net.cpp:148] Top shape: 24 512 14 14 (2408448)
I0403 15:53:58.598875 20505 net.cpp:156] Memory required for data: 1060605216
I0403 15:53:58.598894 20505 layer_factory.hpp:77] Creating layer inception_4c/pool_proj
I0403 15:53:58.598929 20505 net.cpp:91] Creating Layer inception_4c/pool_proj
I0403 15:53:58.598966 20505 net.cpp:425] inception_4c/pool_proj <- inception_4c/pool
I0403 15:53:58.598996 20505 net.cpp:399] inception_4c/pool_proj -> inception_4c/pool_proj
I0403 15:53:58.600368 20505 net.cpp:141] Setting up inception_4c/pool_proj
I0403 15:53:58.600399 20505 net.cpp:148] Top shape: 24 64 14 14 (301056)
I0403 15:53:58.600430 20505 net.cpp:156] Memory required for data: 1061809440
I0403 15:53:58.600450 20505 layer_factory.hpp:77] Creating layer inception_4c/relu_pool_proj
I0403 15:53:58.600469 20505 net.cpp:91] Creating Layer inception_4c/relu_pool_proj
I0403 15:53:58.600486 20505 net.cpp:425] inception_4c/relu_pool_proj <- inception_4c/pool_proj
I0403 15:53:58.600507 20505 net.cpp:386] inception_4c/relu_pool_proj -> inception_4c/pool_proj (in-place)
I0403 15:53:58.600714 20505 net.cpp:141] Setting up inception_4c/relu_pool_proj
I0403 15:53:58.600751 20505 net.cpp:148] Top shape: 24 64 14 14 (301056)
I0403 15:53:58.600776 20505 net.cpp:156] Memory required for data: 1063013664
I0403 15:53:58.600805 20505 layer_factory.hpp:77] Creating layer inception_4c/output
I0403 15:53:58.600822 20505 net.cpp:91] Creating Layer inception_4c/output
I0403 15:53:58.600844 20505 net.cpp:425] inception_4c/output <- inception_4c/1x1
I0403 15:53:58.600874 20505 net.cpp:425] inception_4c/output <- inception_4c/3x3
I0403 15:53:58.600899 20505 net.cpp:425] inception_4c/output <- inception_4c/5x5
I0403 15:53:58.600916 20505 net.cpp:425] inception_4c/output <- inception_4c/pool_proj
I0403 15:53:58.600934 20505 net.cpp:399] inception_4c/output -> inception_4c/output
I0403 15:53:58.600987 20505 net.cpp:141] Setting up inception_4c/output
I0403 15:53:58.601016 20505 net.cpp:148] Top shape: 24 512 14 14 (2408448)
I0403 15:53:58.601033 20505 net.cpp:156] Memory required for data: 1072647456
I0403 15:53:58.601049 20505 layer_factory.hpp:77] Creating layer inception_4c/output_inception_4c/output_0_split
I0403 15:53:58.601068 20505 net.cpp:91] Creating Layer inception_4c/output_inception_4c/output_0_split
I0403 15:53:58.601083 20505 net.cpp:425] inception_4c/output_inception_4c/output_0_split <- inception_4c/output
I0403 15:53:58.601104 20505 net.cpp:399] inception_4c/output_inception_4c/output_0_split -> inception_4c/output_inception_4c/output_0_split_0
I0403 15:53:58.601127 20505 net.cpp:399] inception_4c/output_inception_4c/output_0_split -> inception_4c/output_inception_4c/output_0_split_1
I0403 15:53:58.601148 20505 net.cpp:399] inception_4c/output_inception_4c/output_0_split -> inception_4c/output_inception_4c/output_0_split_2
I0403 15:53:58.601169 20505 net.cpp:399] inception_4c/output_inception_4c/output_0_split -> inception_4c/output_inception_4c/output_0_split_3
I0403 15:53:58.601260 20505 net.cpp:141] Setting up inception_4c/output_inception_4c/output_0_split
I0403 15:53:58.601289 20505 net.cpp:148] Top shape: 24 512 14 14 (2408448)
I0403 15:53:58.601308 20505 net.cpp:148] Top shape: 24 512 14 14 (2408448)
I0403 15:53:58.601326 20505 net.cpp:148] Top shape: 24 512 14 14 (2408448)
I0403 15:53:58.601343 20505 net.cpp:148] Top shape: 24 512 14 14 (2408448)
I0403 15:53:58.601357 20505 net.cpp:156] Memory required for data: 1111182624
I0403 15:53:58.601373 20505 layer_factory.hpp:77] Creating layer inception_4d/1x1
I0403 15:53:58.601397 20505 net.cpp:91] Creating Layer inception_4d/1x1
I0403 15:53:58.601415 20505 net.cpp:425] inception_4d/1x1 <- inception_4c/output_inception_4c/output_0_split_0
I0403 15:53:58.601436 20505 net.cpp:399] inception_4d/1x1 -> inception_4d/1x1
I0403 15:53:58.602944 20505 net.cpp:141] Setting up inception_4d/1x1
I0403 15:53:58.602982 20505 net.cpp:148] Top shape: 24 112 14 14 (526848)
I0403 15:53:58.603003 20505 net.cpp:156] Memory required for data: 1113290016
I0403 15:53:58.603023 20505 layer_factory.hpp:77] Creating layer inception_4d/relu_1x1
I0403 15:53:58.603042 20505 net.cpp:91] Creating Layer inception_4d/relu_1x1
I0403 15:53:58.603060 20505 net.cpp:425] inception_4d/relu_1x1 <- inception_4d/1x1
I0403 15:53:58.603078 20505 net.cpp:386] inception_4d/relu_1x1 -> inception_4d/1x1 (in-place)
I0403 15:53:58.603286 20505 net.cpp:141] Setting up inception_4d/relu_1x1
I0403 15:53:58.603315 20505 net.cpp:148] Top shape: 24 112 14 14 (526848)
I0403 15:53:58.603332 20505 net.cpp:156] Memory required for data: 1115397408
I0403 15:53:58.603348 20505 layer_factory.hpp:77] Creating layer inception_4d/3x3_reduce
I0403 15:53:58.603384 20505 net.cpp:91] Creating Layer inception_4d/3x3_reduce
I0403 15:53:58.603404 20505 net.cpp:425] inception_4d/3x3_reduce <- inception_4c/output_inception_4c/output_0_split_1
I0403 15:53:58.603425 20505 net.cpp:399] inception_4d/3x3_reduce -> inception_4d/3x3_reduce
I0403 15:53:58.605079 20505 net.cpp:141] Setting up inception_4d/3x3_reduce
I0403 15:53:58.605109 20505 net.cpp:148] Top shape: 24 144 14 14 (677376)
I0403 15:53:58.605125 20505 net.cpp:156] Memory required for data: 1118106912
I0403 15:53:58.605145 20505 layer_factory.hpp:77] Creating layer inception_4d/relu_3x3_reduce
I0403 15:53:58.605166 20505 net.cpp:91] Creating Layer inception_4d/relu_3x3_reduce
I0403 15:53:58.605183 20505 net.cpp:425] inception_4d/relu_3x3_reduce <- inception_4d/3x3_reduce
I0403 15:53:58.605201 20505 net.cpp:386] inception_4d/relu_3x3_reduce -> inception_4d/3x3_reduce (in-place)
I0403 15:53:58.605511 20505 net.cpp:141] Setting up inception_4d/relu_3x3_reduce
I0403 15:53:58.605540 20505 net.cpp:148] Top shape: 24 144 14 14 (677376)
I0403 15:53:58.605556 20505 net.cpp:156] Memory required for data: 1120816416
I0403 15:53:58.605571 20505 layer_factory.hpp:77] Creating layer inception_4d/3x3
I0403 15:53:58.605595 20505 net.cpp:91] Creating Layer inception_4d/3x3
I0403 15:53:58.605613 20505 net.cpp:425] inception_4d/3x3 <- inception_4d/3x3_reduce
I0403 15:53:58.605636 20505 net.cpp:399] inception_4d/3x3 -> inception_4d/3x3
I0403 15:53:58.610234 20505 net.cpp:141] Setting up inception_4d/3x3
I0403 15:53:58.610265 20505 net.cpp:148] Top shape: 24 288 14 14 (1354752)
I0403 15:53:58.610282 20505 net.cpp:156] Memory required for data: 1126235424
I0403 15:53:58.610302 20505 layer_factory.hpp:77] Creating layer inception_4d/relu_3x3
I0403 15:53:58.610323 20505 net.cpp:91] Creating Layer inception_4d/relu_3x3
I0403 15:53:58.610342 20505 net.cpp:425] inception_4d/relu_3x3 <- inception_4d/3x3
I0403 15:53:58.610360 20505 net.cpp:386] inception_4d/relu_3x3 -> inception_4d/3x3 (in-place)
I0403 15:53:58.610563 20505 net.cpp:141] Setting up inception_4d/relu_3x3
I0403 15:53:58.610590 20505 net.cpp:148] Top shape: 24 288 14 14 (1354752)
I0403 15:53:58.610605 20505 net.cpp:156] Memory required for data: 1131654432
I0403 15:53:58.610620 20505 layer_factory.hpp:77] Creating layer inception_4d/5x5_reduce
I0403 15:53:58.610644 20505 net.cpp:91] Creating Layer inception_4d/5x5_reduce
I0403 15:53:58.610662 20505 net.cpp:425] inception_4d/5x5_reduce <- inception_4c/output_inception_4c/output_0_split_2
I0403 15:53:58.610684 20505 net.cpp:399] inception_4d/5x5_reduce -> inception_4d/5x5_reduce
I0403 15:53:58.611940 20505 net.cpp:141] Setting up inception_4d/5x5_reduce
I0403 15:53:58.611977 20505 net.cpp:148] Top shape: 24 32 14 14 (150528)
I0403 15:53:58.611994 20505 net.cpp:156] Memory required for data: 1132256544
I0403 15:53:58.612015 20505 layer_factory.hpp:77] Creating layer inception_4d/relu_5x5_reduce
I0403 15:53:58.612033 20505 net.cpp:91] Creating Layer inception_4d/relu_5x5_reduce
I0403 15:53:58.612049 20505 net.cpp:425] inception_4d/relu_5x5_reduce <- inception_4d/5x5_reduce
I0403 15:53:58.612067 20505 net.cpp:386] inception_4d/relu_5x5_reduce -> inception_4d/5x5_reduce (in-place)
I0403 15:53:58.612278 20505 net.cpp:141] Setting up inception_4d/relu_5x5_reduce
I0403 15:53:58.612308 20505 net.cpp:148] Top shape: 24 32 14 14 (150528)
I0403 15:53:58.612323 20505 net.cpp:156] Memory required for data: 1132858656
I0403 15:53:58.612339 20505 layer_factory.hpp:77] Creating layer inception_4d/5x5
I0403 15:53:58.612362 20505 net.cpp:91] Creating Layer inception_4d/5x5
I0403 15:53:58.612380 20505 net.cpp:425] inception_4d/5x5 <- inception_4d/5x5_reduce
I0403 15:53:58.612402 20505 net.cpp:399] inception_4d/5x5 -> inception_4d/5x5
I0403 15:53:58.614024 20505 net.cpp:141] Setting up inception_4d/5x5
I0403 15:53:58.614053 20505 net.cpp:148] Top shape: 24 64 14 14 (301056)
I0403 15:53:58.614069 20505 net.cpp:156] Memory required for data: 1134062880
I0403 15:53:58.614089 20505 layer_factory.hpp:77] Creating layer inception_4d/relu_5x5
I0403 15:53:58.614123 20505 net.cpp:91] Creating Layer inception_4d/relu_5x5
I0403 15:53:58.614145 20505 net.cpp:425] inception_4d/relu_5x5 <- inception_4d/5x5
I0403 15:53:58.614163 20505 net.cpp:386] inception_4d/relu_5x5 -> inception_4d/5x5 (in-place)
I0403 15:53:58.614485 20505 net.cpp:141] Setting up inception_4d/relu_5x5
I0403 15:53:58.614512 20505 net.cpp:148] Top shape: 24 64 14 14 (301056)
I0403 15:53:58.614527 20505 net.cpp:156] Memory required for data: 1135267104
I0403 15:53:58.614544 20505 layer_factory.hpp:77] Creating layer inception_4d/pool
I0403 15:53:58.614562 20505 net.cpp:91] Creating Layer inception_4d/pool
I0403 15:53:58.614579 20505 net.cpp:425] inception_4d/pool <- inception_4c/output_inception_4c/output_0_split_3
I0403 15:53:58.614601 20505 net.cpp:399] inception_4d/pool -> inception_4d/pool
I0403 15:53:58.614672 20505 net.cpp:141] Setting up inception_4d/pool
I0403 15:53:58.614699 20505 net.cpp:148] Top shape: 24 512 14 14 (2408448)
I0403 15:53:58.614717 20505 net.cpp:156] Memory required for data: 1144900896
I0403 15:53:58.614732 20505 layer_factory.hpp:77] Creating layer inception_4d/pool_proj
I0403 15:53:58.614755 20505 net.cpp:91] Creating Layer inception_4d/pool_proj
I0403 15:53:58.614773 20505 net.cpp:425] inception_4d/pool_proj <- inception_4d/pool
I0403 15:53:58.614794 20505 net.cpp:399] inception_4d/pool_proj -> inception_4d/pool_proj
I0403 15:53:58.616740 20505 net.cpp:141] Setting up inception_4d/pool_proj
I0403 15:53:58.616772 20505 net.cpp:148] Top shape: 24 64 14 14 (301056)
I0403 15:53:58.616788 20505 net.cpp:156] Memory required for data: 1146105120
I0403 15:53:58.616807 20505 layer_factory.hpp:77] Creating layer inception_4d/relu_pool_proj
I0403 15:53:58.616829 20505 net.cpp:91] Creating Layer inception_4d/relu_pool_proj
I0403 15:53:58.616847 20505 net.cpp:425] inception_4d/relu_pool_proj <- inception_4d/pool_proj
I0403 15:53:58.616864 20505 net.cpp:386] inception_4d/relu_pool_proj -> inception_4d/pool_proj (in-place)
I0403 15:53:58.617076 20505 net.cpp:141] Setting up inception_4d/relu_pool_proj
I0403 15:53:58.617103 20505 net.cpp:148] Top shape: 24 64 14 14 (301056)
I0403 15:53:58.617118 20505 net.cpp:156] Memory required for data: 1147309344
I0403 15:53:58.617135 20505 layer_factory.hpp:77] Creating layer inception_4d/output
I0403 15:53:58.617151 20505 net.cpp:91] Creating Layer inception_4d/output
I0403 15:53:58.617168 20505 net.cpp:425] inception_4d/output <- inception_4d/1x1
I0403 15:53:58.617184 20505 net.cpp:425] inception_4d/output <- inception_4d/3x3
I0403 15:53:58.617202 20505 net.cpp:425] inception_4d/output <- inception_4d/5x5
I0403 15:53:58.617218 20505 net.cpp:425] inception_4d/output <- inception_4d/pool_proj
I0403 15:53:58.617239 20505 net.cpp:399] inception_4d/output -> inception_4d/output
I0403 15:53:58.617290 20505 net.cpp:141] Setting up inception_4d/output
I0403 15:53:58.617316 20505 net.cpp:148] Top shape: 24 528 14 14 (2483712)
I0403 15:53:58.617333 20505 net.cpp:156] Memory required for data: 1157244192
I0403 15:53:58.617348 20505 layer_factory.hpp:77] Creating layer inception_4d/output_inception_4d/output_0_split
I0403 15:53:58.617367 20505 net.cpp:91] Creating Layer inception_4d/output_inception_4d/output_0_split
I0403 15:53:58.617383 20505 net.cpp:425] inception_4d/output_inception_4d/output_0_split <- inception_4d/output
I0403 15:53:58.617400 20505 net.cpp:399] inception_4d/output_inception_4d/output_0_split -> inception_4d/output_inception_4d/output_0_split_0
I0403 15:53:58.617424 20505 net.cpp:399] inception_4d/output_inception_4d/output_0_split -> inception_4d/output_inception_4d/output_0_split_1
I0403 15:53:58.617447 20505 net.cpp:399] inception_4d/output_inception_4d/output_0_split -> inception_4d/output_inception_4d/output_0_split_2
I0403 15:53:58.617468 20505 net.cpp:399] inception_4d/output_inception_4d/output_0_split -> inception_4d/output_inception_4d/output_0_split_3
I0403 15:53:58.617489 20505 net.cpp:399] inception_4d/output_inception_4d/output_0_split -> inception_4d/output_inception_4d/output_0_split_4
I0403 15:53:58.617611 20505 net.cpp:141] Setting up inception_4d/output_inception_4d/output_0_split
I0403 15:53:58.617648 20505 net.cpp:148] Top shape: 24 528 14 14 (2483712)
I0403 15:53:58.617666 20505 net.cpp:148] Top shape: 24 528 14 14 (2483712)
I0403 15:53:58.617683 20505 net.cpp:148] Top shape: 24 528 14 14 (2483712)
I0403 15:53:58.617698 20505 net.cpp:148] Top shape: 24 528 14 14 (2483712)
I0403 15:53:58.617715 20505 net.cpp:148] Top shape: 24 528 14 14 (2483712)
I0403 15:53:58.617730 20505 net.cpp:156] Memory required for data: 1206918432
I0403 15:53:58.617745 20505 layer_factory.hpp:77] Creating layer loss2/ave_pool
I0403 15:53:58.617766 20505 net.cpp:91] Creating Layer loss2/ave_pool
I0403 15:53:58.617784 20505 net.cpp:425] loss2/ave_pool <- inception_4d/output_inception_4d/output_0_split_0
I0403 15:53:58.617804 20505 net.cpp:399] loss2/ave_pool -> loss2/ave_pool
I0403 15:53:58.618146 20505 net.cpp:141] Setting up loss2/ave_pool
I0403 15:53:58.618177 20505 net.cpp:148] Top shape: 24 528 4 4 (202752)
I0403 15:53:58.618196 20505 net.cpp:156] Memory required for data: 1207729440
I0403 15:53:58.618211 20505 layer_factory.hpp:77] Creating layer loss2/conv
I0403 15:53:58.618235 20505 net.cpp:91] Creating Layer loss2/conv
I0403 15:53:58.618254 20505 net.cpp:425] loss2/conv <- loss2/ave_pool
I0403 15:53:58.618274 20505 net.cpp:399] loss2/conv -> loss2/conv
I0403 15:53:58.620344 20505 net.cpp:141] Setting up loss2/conv
I0403 15:53:58.620375 20505 net.cpp:148] Top shape: 24 128 4 4 (49152)
I0403 15:53:58.620391 20505 net.cpp:156] Memory required for data: 1207926048
I0403 15:53:58.620412 20505 layer_factory.hpp:77] Creating layer loss2/relu_conv
I0403 15:53:58.620431 20505 net.cpp:91] Creating Layer loss2/relu_conv
I0403 15:53:58.620447 20505 net.cpp:425] loss2/relu_conv <- loss2/conv
I0403 15:53:58.620468 20505 net.cpp:386] loss2/relu_conv -> loss2/conv (in-place)
I0403 15:53:58.620776 20505 net.cpp:141] Setting up loss2/relu_conv
I0403 15:53:58.620803 20505 net.cpp:148] Top shape: 24 128 4 4 (49152)
I0403 15:53:58.620820 20505 net.cpp:156] Memory required for data: 1208122656
I0403 15:53:58.620836 20505 layer_factory.hpp:77] Creating layer loss2/fc
I0403 15:53:58.620857 20505 net.cpp:91] Creating Layer loss2/fc
I0403 15:53:58.620873 20505 net.cpp:425] loss2/fc <- loss2/conv
I0403 15:53:58.620895 20505 net.cpp:399] loss2/fc -> loss2/fc
I0403 15:53:58.639106 20505 net.cpp:141] Setting up loss2/fc
I0403 15:53:58.639152 20505 net.cpp:148] Top shape: 24 1024 (24576)
I0403 15:53:58.639166 20505 net.cpp:156] Memory required for data: 1208220960
I0403 15:53:58.639185 20505 layer_factory.hpp:77] Creating layer loss2/relu_fc
I0403 15:53:58.639204 20505 net.cpp:91] Creating Layer loss2/relu_fc
I0403 15:53:58.639221 20505 net.cpp:425] loss2/relu_fc <- loss2/fc
I0403 15:53:58.639240 20505 net.cpp:386] loss2/relu_fc -> loss2/fc (in-place)
I0403 15:53:58.639571 20505 net.cpp:141] Setting up loss2/relu_fc
I0403 15:53:58.639600 20505 net.cpp:148] Top shape: 24 1024 (24576)
I0403 15:53:58.639616 20505 net.cpp:156] Memory required for data: 1208319264
I0403 15:53:58.639631 20505 layer_factory.hpp:77] Creating layer loss2/drop_fc
I0403 15:53:58.639649 20505 net.cpp:91] Creating Layer loss2/drop_fc
I0403 15:53:58.639665 20505 net.cpp:425] loss2/drop_fc <- loss2/fc
I0403 15:53:58.639683 20505 net.cpp:386] loss2/drop_fc -> loss2/fc (in-place)
I0403 15:53:58.639737 20505 net.cpp:141] Setting up loss2/drop_fc
I0403 15:53:58.639760 20505 net.cpp:148] Top shape: 24 1024 (24576)
I0403 15:53:58.639775 20505 net.cpp:156] Memory required for data: 1208417568
I0403 15:53:58.639788 20505 layer_factory.hpp:77] Creating layer loss2/classifier_plantvillage
I0403 15:53:58.639809 20505 net.cpp:91] Creating Layer loss2/classifier_plantvillage
I0403 15:53:58.639825 20505 net.cpp:425] loss2/classifier_plantvillage <- loss2/fc
I0403 15:53:58.639927 20505 net.cpp:399] loss2/classifier_plantvillage -> loss2/classifier_plantvillage
I0403 15:53:58.640349 20505 net.cpp:141] Setting up loss2/classifier_plantvillage
I0403 15:53:58.640374 20505 net.cpp:148] Top shape: 24 38 (912)
I0403 15:53:58.640388 20505 net.cpp:156] Memory required for data: 1208421216
I0403 15:53:58.640425 20505 layer_factory.hpp:77] Creating layer loss2/classifier_plantvillage_loss2/classifier_plantvillage_0_split
I0403 15:53:58.640444 20505 net.cpp:91] Creating Layer loss2/classifier_plantvillage_loss2/classifier_plantvillage_0_split
I0403 15:53:58.640460 20505 net.cpp:425] loss2/classifier_plantvillage_loss2/classifier_plantvillage_0_split <- loss2/classifier_plantvillage
I0403 15:53:58.640480 20505 net.cpp:399] loss2/classifier_plantvillage_loss2/classifier_plantvillage_0_split -> loss2/classifier_plantvillage_loss2/classifier_plantvillage_0_split_0
I0403 15:53:58.640501 20505 net.cpp:399] loss2/classifier_plantvillage_loss2/classifier_plantvillage_0_split -> loss2/classifier_plantvillage_loss2/classifier_plantvillage_0_split_1
I0403 15:53:58.640521 20505 net.cpp:399] loss2/classifier_plantvillage_loss2/classifier_plantvillage_0_split -> loss2/classifier_plantvillage_loss2/classifier_plantvillage_0_split_2
I0403 15:53:58.640599 20505 net.cpp:141] Setting up loss2/classifier_plantvillage_loss2/classifier_plantvillage_0_split
I0403 15:53:58.640622 20505 net.cpp:148] Top shape: 24 38 (912)
I0403 15:53:58.640637 20505 net.cpp:148] Top shape: 24 38 (912)
I0403 15:53:58.640652 20505 net.cpp:148] Top shape: 24 38 (912)
I0403 15:53:58.640666 20505 net.cpp:156] Memory required for data: 1208432160
I0403 15:53:58.640681 20505 layer_factory.hpp:77] Creating layer inception_4e/1x1
I0403 15:53:58.640702 20505 net.cpp:91] Creating Layer inception_4e/1x1
I0403 15:53:58.640720 20505 net.cpp:425] inception_4e/1x1 <- inception_4d/output_inception_4d/output_0_split_1
I0403 15:53:58.640738 20505 net.cpp:399] inception_4e/1x1 -> inception_4e/1x1
I0403 15:53:58.642709 20505 net.cpp:141] Setting up inception_4e/1x1
I0403 15:53:58.642737 20505 net.cpp:148] Top shape: 24 256 14 14 (1204224)
I0403 15:53:58.642752 20505 net.cpp:156] Memory required for data: 1213249056
I0403 15:53:58.642771 20505 layer_factory.hpp:77] Creating layer inception_4e/relu_1x1
I0403 15:53:58.642791 20505 net.cpp:91] Creating Layer inception_4e/relu_1x1
I0403 15:53:58.642807 20505 net.cpp:425] inception_4e/relu_1x1 <- inception_4e/1x1
I0403 15:53:58.642824 20505 net.cpp:386] inception_4e/relu_1x1 -> inception_4e/1x1 (in-place)
I0403 15:53:58.643131 20505 net.cpp:141] Setting up inception_4e/relu_1x1
I0403 15:53:58.643157 20505 net.cpp:148] Top shape: 24 256 14 14 (1204224)
I0403 15:53:58.643172 20505 net.cpp:156] Memory required for data: 1218065952
I0403 15:53:58.643187 20505 layer_factory.hpp:77] Creating layer inception_4e/3x3_reduce
I0403 15:53:58.643208 20505 net.cpp:91] Creating Layer inception_4e/3x3_reduce
I0403 15:53:58.643226 20505 net.cpp:425] inception_4e/3x3_reduce <- inception_4d/output_inception_4d/output_0_split_2
I0403 15:53:58.643249 20505 net.cpp:399] inception_4e/3x3_reduce -> inception_4e/3x3_reduce
I0403 15:53:58.645422 20505 net.cpp:141] Setting up inception_4e/3x3_reduce
I0403 15:53:58.645452 20505 net.cpp:148] Top shape: 24 160 14 14 (752640)
I0403 15:53:58.645467 20505 net.cpp:156] Memory required for data: 1221076512
I0403 15:53:58.645485 20505 layer_factory.hpp:77] Creating layer inception_4e/relu_3x3_reduce
I0403 15:53:58.645503 20505 net.cpp:91] Creating Layer inception_4e/relu_3x3_reduce
I0403 15:53:58.645519 20505 net.cpp:425] inception_4e/relu_3x3_reduce <- inception_4e/3x3_reduce
I0403 15:53:58.645539 20505 net.cpp:386] inception_4e/relu_3x3_reduce -> inception_4e/3x3_reduce (in-place)
I0403 15:53:58.645730 20505 net.cpp:141] Setting up inception_4e/relu_3x3_reduce
I0403 15:53:58.645756 20505 net.cpp:148] Top shape: 24 160 14 14 (752640)
I0403 15:53:58.645769 20505 net.cpp:156] Memory required for data: 1224087072
I0403 15:53:58.645784 20505 layer_factory.hpp:77] Creating layer inception_4e/3x3
I0403 15:53:58.645807 20505 net.cpp:91] Creating Layer inception_4e/3x3
I0403 15:53:58.645823 20505 net.cpp:425] inception_4e/3x3 <- inception_4e/3x3_reduce
I0403 15:53:58.645844 20505 net.cpp:399] inception_4e/3x3 -> inception_4e/3x3
I0403 15:53:58.650921 20505 net.cpp:141] Setting up inception_4e/3x3
I0403 15:53:58.650966 20505 net.cpp:148] Top shape: 24 320 14 14 (1505280)
I0403 15:53:58.650984 20505 net.cpp:156] Memory required for data: 1230108192
I0403 15:53:58.651001 20505 layer_factory.hpp:77] Creating layer inception_4e/relu_3x3
I0403 15:53:58.651022 20505 net.cpp:91] Creating Layer inception_4e/relu_3x3
I0403 15:53:58.651038 20505 net.cpp:425] inception_4e/relu_3x3 <- inception_4e/3x3
I0403 15:53:58.651056 20505 net.cpp:386] inception_4e/relu_3x3 -> inception_4e/3x3 (in-place)
I0403 15:53:58.651366 20505 net.cpp:141] Setting up inception_4e/relu_3x3
I0403 15:53:58.651394 20505 net.cpp:148] Top shape: 24 320 14 14 (1505280)
I0403 15:53:58.651410 20505 net.cpp:156] Memory required for data: 1236129312
I0403 15:53:58.651425 20505 layer_factory.hpp:77] Creating layer inception_4e/5x5_reduce
I0403 15:53:58.651445 20505 net.cpp:91] Creating Layer inception_4e/5x5_reduce
I0403 15:53:58.651461 20505 net.cpp:425] inception_4e/5x5_reduce <- inception_4d/output_inception_4d/output_0_split_3
I0403 15:53:58.651484 20505 net.cpp:399] inception_4e/5x5_reduce -> inception_4e/5x5_reduce
I0403 15:53:58.652595 20505 net.cpp:141] Setting up inception_4e/5x5_reduce
I0403 15:53:58.652623 20505 net.cpp:148] Top shape: 24 32 14 14 (150528)
I0403 15:53:58.652638 20505 net.cpp:156] Memory required for data: 1236731424
I0403 15:53:58.652657 20505 layer_factory.hpp:77] Creating layer inception_4e/relu_5x5_reduce
I0403 15:53:58.652674 20505 net.cpp:91] Creating Layer inception_4e/relu_5x5_reduce
I0403 15:53:58.652693 20505 net.cpp:425] inception_4e/relu_5x5_reduce <- inception_4e/5x5_reduce
I0403 15:53:58.652711 20505 net.cpp:386] inception_4e/relu_5x5_reduce -> inception_4e/5x5_reduce (in-place)
I0403 15:53:58.653023 20505 net.cpp:141] Setting up inception_4e/relu_5x5_reduce
I0403 15:53:58.653049 20505 net.cpp:148] Top shape: 24 32 14 14 (150528)
I0403 15:53:58.653064 20505 net.cpp:156] Memory required for data: 1237333536
I0403 15:53:58.653079 20505 layer_factory.hpp:77] Creating layer inception_4e/5x5
I0403 15:53:58.653117 20505 net.cpp:91] Creating Layer inception_4e/5x5
I0403 15:53:58.653136 20505 net.cpp:425] inception_4e/5x5 <- inception_4e/5x5_reduce
I0403 15:53:58.653156 20505 net.cpp:399] inception_4e/5x5 -> inception_4e/5x5
I0403 15:53:58.655055 20505 net.cpp:141] Setting up inception_4e/5x5
I0403 15:53:58.655086 20505 net.cpp:148] Top shape: 24 128 14 14 (602112)
I0403 15:53:58.655102 20505 net.cpp:156] Memory required for data: 1239741984
I0403 15:53:58.655120 20505 layer_factory.hpp:77] Creating layer inception_4e/relu_5x5
I0403 15:53:58.655138 20505 net.cpp:91] Creating Layer inception_4e/relu_5x5
I0403 15:53:58.655154 20505 net.cpp:425] inception_4e/relu_5x5 <- inception_4e/5x5
I0403 15:53:58.655174 20505 net.cpp:386] inception_4e/relu_5x5 -> inception_4e/5x5 (in-place)
I0403 15:53:58.655375 20505 net.cpp:141] Setting up inception_4e/relu_5x5
I0403 15:53:58.655401 20505 net.cpp:148] Top shape: 24 128 14 14 (602112)
I0403 15:53:58.655416 20505 net.cpp:156] Memory required for data: 1242150432
I0403 15:53:58.655429 20505 layer_factory.hpp:77] Creating layer inception_4e/pool
I0403 15:53:58.655447 20505 net.cpp:91] Creating Layer inception_4e/pool
I0403 15:53:58.655463 20505 net.cpp:425] inception_4e/pool <- inception_4d/output_inception_4d/output_0_split_4
I0403 15:53:58.655483 20505 net.cpp:399] inception_4e/pool -> inception_4e/pool
I0403 15:53:58.655555 20505 net.cpp:141] Setting up inception_4e/pool
I0403 15:53:58.655577 20505 net.cpp:148] Top shape: 24 528 14 14 (2483712)
I0403 15:53:58.655591 20505 net.cpp:156] Memory required for data: 1252085280
I0403 15:53:58.655606 20505 layer_factory.hpp:77] Creating layer inception_4e/pool_proj
I0403 15:53:58.655630 20505 net.cpp:91] Creating Layer inception_4e/pool_proj
I0403 15:53:58.655647 20505 net.cpp:425] inception_4e/pool_proj <- inception_4e/pool
I0403 15:53:58.655665 20505 net.cpp:399] inception_4e/pool_proj -> inception_4e/pool_proj
I0403 15:53:58.657196 20505 net.cpp:141] Setting up inception_4e/pool_proj
I0403 15:53:58.657227 20505 net.cpp:148] Top shape: 24 128 14 14 (602112)
I0403 15:53:58.657254 20505 net.cpp:156] Memory required for data: 1254493728
I0403 15:53:58.657274 20505 layer_factory.hpp:77] Creating layer inception_4e/relu_pool_proj
I0403 15:53:58.657291 20505 net.cpp:91] Creating Layer inception_4e/relu_pool_proj
I0403 15:53:58.657307 20505 net.cpp:425] inception_4e/relu_pool_proj <- inception_4e/pool_proj
I0403 15:53:58.657327 20505 net.cpp:386] inception_4e/relu_pool_proj -> inception_4e/pool_proj (in-place)
I0403 15:53:58.657621 20505 net.cpp:141] Setting up inception_4e/relu_pool_proj
I0403 15:53:58.657650 20505 net.cpp:148] Top shape: 24 128 14 14 (602112)
I0403 15:53:58.657666 20505 net.cpp:156] Memory required for data: 1256902176
I0403 15:53:58.657680 20505 layer_factory.hpp:77] Creating layer inception_4e/output
I0403 15:53:58.657698 20505 net.cpp:91] Creating Layer inception_4e/output
I0403 15:53:58.657713 20505 net.cpp:425] inception_4e/output <- inception_4e/1x1
I0403 15:53:58.657730 20505 net.cpp:425] inception_4e/output <- inception_4e/3x3
I0403 15:53:58.657745 20505 net.cpp:425] inception_4e/output <- inception_4e/5x5
I0403 15:53:58.657762 20505 net.cpp:425] inception_4e/output <- inception_4e/pool_proj
I0403 15:53:58.657778 20505 net.cpp:399] inception_4e/output -> inception_4e/output
I0403 15:53:58.657829 20505 net.cpp:141] Setting up inception_4e/output
I0403 15:53:58.657853 20505 net.cpp:148] Top shape: 24 832 14 14 (3913728)
I0403 15:53:58.657867 20505 net.cpp:156] Memory required for data: 1272557088
I0403 15:53:58.657881 20505 layer_factory.hpp:77] Creating layer pool4/3x3_s2
I0403 15:53:58.657902 20505 net.cpp:91] Creating Layer pool4/3x3_s2
I0403 15:53:58.657917 20505 net.cpp:425] pool4/3x3_s2 <- inception_4e/output
I0403 15:53:58.657935 20505 net.cpp:399] pool4/3x3_s2 -> pool4/3x3_s2
I0403 15:53:58.658013 20505 net.cpp:141] Setting up pool4/3x3_s2
I0403 15:53:58.658038 20505 net.cpp:148] Top shape: 24 832 7 7 (978432)
I0403 15:53:58.658052 20505 net.cpp:156] Memory required for data: 1276470816
I0403 15:53:58.658066 20505 layer_factory.hpp:77] Creating layer pool4/3x3_s2_pool4/3x3_s2_0_split
I0403 15:53:58.658083 20505 net.cpp:91] Creating Layer pool4/3x3_s2_pool4/3x3_s2_0_split
I0403 15:53:58.658099 20505 net.cpp:425] pool4/3x3_s2_pool4/3x3_s2_0_split <- pool4/3x3_s2
I0403 15:53:58.658118 20505 net.cpp:399] pool4/3x3_s2_pool4/3x3_s2_0_split -> pool4/3x3_s2_pool4/3x3_s2_0_split_0
I0403 15:53:58.658139 20505 net.cpp:399] pool4/3x3_s2_pool4/3x3_s2_0_split -> pool4/3x3_s2_pool4/3x3_s2_0_split_1
I0403 15:53:58.658159 20505 net.cpp:399] pool4/3x3_s2_pool4/3x3_s2_0_split -> pool4/3x3_s2_pool4/3x3_s2_0_split_2
I0403 15:53:58.658179 20505 net.cpp:399] pool4/3x3_s2_pool4/3x3_s2_0_split -> pool4/3x3_s2_pool4/3x3_s2_0_split_3
I0403 15:53:58.658269 20505 net.cpp:141] Setting up pool4/3x3_s2_pool4/3x3_s2_0_split
I0403 15:53:58.658295 20505 net.cpp:148] Top shape: 24 832 7 7 (978432)
I0403 15:53:58.658313 20505 net.cpp:148] Top shape: 24 832 7 7 (978432)
I0403 15:53:58.658327 20505 net.cpp:148] Top shape: 24 832 7 7 (978432)
I0403 15:53:58.658344 20505 net.cpp:148] Top shape: 24 832 7 7 (978432)
I0403 15:53:58.658357 20505 net.cpp:156] Memory required for data: 1292125728
I0403 15:53:58.658370 20505 layer_factory.hpp:77] Creating layer inception_5a/1x1
I0403 15:53:58.658392 20505 net.cpp:91] Creating Layer inception_5a/1x1
I0403 15:53:58.658409 20505 net.cpp:425] inception_5a/1x1 <- pool4/3x3_s2_pool4/3x3_s2_0_split_0
I0403 15:53:58.658428 20505 net.cpp:399] inception_5a/1x1 -> inception_5a/1x1
I0403 15:53:58.661424 20505 net.cpp:141] Setting up inception_5a/1x1
I0403 15:53:58.661454 20505 net.cpp:148] Top shape: 24 256 7 7 (301056)
I0403 15:53:58.661469 20505 net.cpp:156] Memory required for data: 1293329952
I0403 15:53:58.661489 20505 layer_factory.hpp:77] Creating layer inception_5a/relu_1x1
I0403 15:53:58.661506 20505 net.cpp:91] Creating Layer inception_5a/relu_1x1
I0403 15:53:58.661522 20505 net.cpp:425] inception_5a/relu_1x1 <- inception_5a/1x1
I0403 15:53:58.661542 20505 net.cpp:386] inception_5a/relu_1x1 -> inception_5a/1x1 (in-place)
I0403 15:53:58.661873 20505 net.cpp:141] Setting up inception_5a/relu_1x1
I0403 15:53:58.661900 20505 net.cpp:148] Top shape: 24 256 7 7 (301056)
I0403 15:53:58.661914 20505 net.cpp:156] Memory required for data: 1294534176
I0403 15:53:58.661929 20505 layer_factory.hpp:77] Creating layer inception_5a/3x3_reduce
I0403 15:53:58.661952 20505 net.cpp:91] Creating Layer inception_5a/3x3_reduce
I0403 15:53:58.661977 20505 net.cpp:425] inception_5a/3x3_reduce <- pool4/3x3_s2_pool4/3x3_s2_0_split_1
I0403 15:53:58.661999 20505 net.cpp:399] inception_5a/3x3_reduce -> inception_5a/3x3_reduce
I0403 15:53:58.664556 20505 net.cpp:141] Setting up inception_5a/3x3_reduce
I0403 15:53:58.664585 20505 net.cpp:148] Top shape: 24 160 7 7 (188160)
I0403 15:53:58.664602 20505 net.cpp:156] Memory required for data: 1295286816
I0403 15:53:58.664619 20505 layer_factory.hpp:77] Creating layer inception_5a/relu_3x3_reduce
I0403 15:53:58.664639 20505 net.cpp:91] Creating Layer inception_5a/relu_3x3_reduce
I0403 15:53:58.664655 20505 net.cpp:425] inception_5a/relu_3x3_reduce <- inception_5a/3x3_reduce
I0403 15:53:58.664672 20505 net.cpp:386] inception_5a/relu_3x3_reduce -> inception_5a/3x3_reduce (in-place)
I0403 15:53:58.664863 20505 net.cpp:141] Setting up inception_5a/relu_3x3_reduce
I0403 15:53:58.664890 20505 net.cpp:148] Top shape: 24 160 7 7 (188160)
I0403 15:53:58.664904 20505 net.cpp:156] Memory required for data: 1296039456
I0403 15:53:58.664918 20505 layer_factory.hpp:77] Creating layer inception_5a/3x3
I0403 15:53:58.664942 20505 net.cpp:91] Creating Layer inception_5a/3x3
I0403 15:53:58.664963 20505 net.cpp:425] inception_5a/3x3 <- inception_5a/3x3_reduce
I0403 15:53:58.664986 20505 net.cpp:399] inception_5a/3x3 -> inception_5a/3x3
I0403 15:53:58.670106 20505 net.cpp:141] Setting up inception_5a/3x3
I0403 15:53:58.670138 20505 net.cpp:148] Top shape: 24 320 7 7 (376320)
I0403 15:53:58.670156 20505 net.cpp:156] Memory required for data: 1297544736
I0403 15:53:58.670173 20505 layer_factory.hpp:77] Creating layer inception_5a/relu_3x3
I0403 15:53:58.670192 20505 net.cpp:91] Creating Layer inception_5a/relu_3x3
I0403 15:53:58.670208 20505 net.cpp:425] inception_5a/relu_3x3 <- inception_5a/3x3
I0403 15:53:58.670228 20505 net.cpp:386] inception_5a/relu_3x3 -> inception_5a/3x3 (in-place)
I0403 15:53:58.670534 20505 net.cpp:141] Setting up inception_5a/relu_3x3
I0403 15:53:58.670562 20505 net.cpp:148] Top shape: 24 320 7 7 (376320)
I0403 15:53:58.670578 20505 net.cpp:156] Memory required for data: 1299050016
I0403 15:53:58.670593 20505 layer_factory.hpp:77] Creating layer inception_5a/5x5_reduce
I0403 15:53:58.670616 20505 net.cpp:91] Creating Layer inception_5a/5x5_reduce
I0403 15:53:58.670634 20505 net.cpp:425] inception_5a/5x5_reduce <- pool4/3x3_s2_pool4/3x3_s2_0_split_2
I0403 15:53:58.670653 20505 net.cpp:399] inception_5a/5x5_reduce -> inception_5a/5x5_reduce
I0403 15:53:58.671911 20505 net.cpp:141] Setting up inception_5a/5x5_reduce
I0403 15:53:58.671941 20505 net.cpp:148] Top shape: 24 32 7 7 (37632)
I0403 15:53:58.671962 20505 net.cpp:156] Memory required for data: 1299200544
I0403 15:53:58.671982 20505 layer_factory.hpp:77] Creating layer inception_5a/relu_5x5_reduce
I0403 15:53:58.672000 20505 net.cpp:91] Creating Layer inception_5a/relu_5x5_reduce
I0403 15:53:58.672016 20505 net.cpp:425] inception_5a/relu_5x5_reduce <- inception_5a/5x5_reduce
I0403 15:53:58.672037 20505 net.cpp:386] inception_5a/relu_5x5_reduce -> inception_5a/5x5_reduce (in-place)
I0403 15:53:58.672353 20505 net.cpp:141] Setting up inception_5a/relu_5x5_reduce
I0403 15:53:58.672379 20505 net.cpp:148] Top shape: 24 32 7 7 (37632)
I0403 15:53:58.672394 20505 net.cpp:156] Memory required for data: 1299351072
I0403 15:53:58.672410 20505 layer_factory.hpp:77] Creating layer inception_5a/5x5
I0403 15:53:58.672432 20505 net.cpp:91] Creating Layer inception_5a/5x5
I0403 15:53:58.672451 20505 net.cpp:425] inception_5a/5x5 <- inception_5a/5x5_reduce
I0403 15:53:58.672477 20505 net.cpp:399] inception_5a/5x5 -> inception_5a/5x5
I0403 15:53:58.674325 20505 net.cpp:141] Setting up inception_5a/5x5
I0403 15:53:58.674368 20505 net.cpp:148] Top shape: 24 128 7 7 (150528)
I0403 15:53:58.674386 20505 net.cpp:156] Memory required for data: 1299953184
I0403 15:53:58.674404 20505 layer_factory.hpp:77] Creating layer inception_5a/relu_5x5
I0403 15:53:58.674422 20505 net.cpp:91] Creating Layer inception_5a/relu_5x5
I0403 15:53:58.674438 20505 net.cpp:425] inception_5a/relu_5x5 <- inception_5a/5x5
I0403 15:53:58.674459 20505 net.cpp:386] inception_5a/relu_5x5 -> inception_5a/5x5 (in-place)
I0403 15:53:58.674661 20505 net.cpp:141] Setting up inception_5a/relu_5x5
I0403 15:53:58.674687 20505 net.cpp:148] Top shape: 24 128 7 7 (150528)
I0403 15:53:58.674701 20505 net.cpp:156] Memory required for data: 1300555296
I0403 15:53:58.674716 20505 layer_factory.hpp:77] Creating layer inception_5a/pool
I0403 15:53:58.674734 20505 net.cpp:91] Creating Layer inception_5a/pool
I0403 15:53:58.674751 20505 net.cpp:425] inception_5a/pool <- pool4/3x3_s2_pool4/3x3_s2_0_split_3
I0403 15:53:58.674772 20505 net.cpp:399] inception_5a/pool -> inception_5a/pool
I0403 15:53:58.674844 20505 net.cpp:141] Setting up inception_5a/pool
I0403 15:53:58.674870 20505 net.cpp:148] Top shape: 24 832 7 7 (978432)
I0403 15:53:58.674885 20505 net.cpp:156] Memory required for data: 1304469024
I0403 15:53:58.674899 20505 layer_factory.hpp:77] Creating layer inception_5a/pool_proj
I0403 15:53:58.674923 20505 net.cpp:91] Creating Layer inception_5a/pool_proj
I0403 15:53:58.674942 20505 net.cpp:425] inception_5a/pool_proj <- inception_5a/pool
I0403 15:53:58.674964 20505 net.cpp:399] inception_5a/pool_proj -> inception_5a/pool_proj
I0403 15:53:58.677373 20505 net.cpp:141] Setting up inception_5a/pool_proj
I0403 15:53:58.677405 20505 net.cpp:148] Top shape: 24 128 7 7 (150528)
I0403 15:53:58.677434 20505 net.cpp:156] Memory required for data: 1305071136
I0403 15:53:58.677454 20505 layer_factory.hpp:77] Creating layer inception_5a/relu_pool_proj
I0403 15:53:58.677474 20505 net.cpp:91] Creating Layer inception_5a/relu_pool_proj
I0403 15:53:58.677490 20505 net.cpp:425] inception_5a/relu_pool_proj <- inception_5a/pool_proj
I0403 15:53:58.677508 20505 net.cpp:386] inception_5a/relu_pool_proj -> inception_5a/pool_proj (in-place)
I0403 15:53:58.677862 20505 net.cpp:141] Setting up inception_5a/relu_pool_proj
I0403 15:53:58.677892 20505 net.cpp:148] Top shape: 24 128 7 7 (150528)
I0403 15:53:58.677909 20505 net.cpp:156] Memory required for data: 1305673248
I0403 15:53:58.677924 20505 layer_factory.hpp:77] Creating layer inception_5a/output
I0403 15:53:58.677942 20505 net.cpp:91] Creating Layer inception_5a/output
I0403 15:53:58.677963 20505 net.cpp:425] inception_5a/output <- inception_5a/1x1
I0403 15:53:58.677981 20505 net.cpp:425] inception_5a/output <- inception_5a/3x3
I0403 15:53:58.678009 20505 net.cpp:425] inception_5a/output <- inception_5a/5x5
I0403 15:53:58.678025 20505 net.cpp:425] inception_5a/output <- inception_5a/pool_proj
I0403 15:53:58.678041 20505 net.cpp:399] inception_5a/output -> inception_5a/output
I0403 15:53:58.678093 20505 net.cpp:141] Setting up inception_5a/output
I0403 15:53:58.678117 20505 net.cpp:148] Top shape: 24 832 7 7 (978432)
I0403 15:53:58.678131 20505 net.cpp:156] Memory required for data: 1309586976
I0403 15:53:58.678145 20505 layer_factory.hpp:77] Creating layer inception_5a/output_inception_5a/output_0_split
I0403 15:53:58.678164 20505 net.cpp:91] Creating Layer inception_5a/output_inception_5a/output_0_split
I0403 15:53:58.678180 20505 net.cpp:425] inception_5a/output_inception_5a/output_0_split <- inception_5a/output
I0403 15:53:58.678197 20505 net.cpp:399] inception_5a/output_inception_5a/output_0_split -> inception_5a/output_inception_5a/output_0_split_0
I0403 15:53:58.678217 20505 net.cpp:399] inception_5a/output_inception_5a/output_0_split -> inception_5a/output_inception_5a/output_0_split_1
I0403 15:53:58.678238 20505 net.cpp:399] inception_5a/output_inception_5a/output_0_split -> inception_5a/output_inception_5a/output_0_split_2
I0403 15:53:58.678258 20505 net.cpp:399] inception_5a/output_inception_5a/output_0_split -> inception_5a/output_inception_5a/output_0_split_3
I0403 15:53:58.678374 20505 net.cpp:141] Setting up inception_5a/output_inception_5a/output_0_split
I0403 15:53:58.678397 20505 net.cpp:148] Top shape: 24 832 7 7 (978432)
I0403 15:53:58.678413 20505 net.cpp:148] Top shape: 24 832 7 7 (978432)
I0403 15:53:58.678428 20505 net.cpp:148] Top shape: 24 832 7 7 (978432)
I0403 15:53:58.678444 20505 net.cpp:148] Top shape: 24 832 7 7 (978432)
I0403 15:53:58.678457 20505 net.cpp:156] Memory required for data: 1325241888
I0403 15:53:58.678472 20505 layer_factory.hpp:77] Creating layer inception_5b/1x1
I0403 15:53:58.678493 20505 net.cpp:91] Creating Layer inception_5b/1x1
I0403 15:53:58.678510 20505 net.cpp:425] inception_5b/1x1 <- inception_5a/output_inception_5a/output_0_split_0
I0403 15:53:58.678531 20505 net.cpp:399] inception_5b/1x1 -> inception_5b/1x1
I0403 15:53:58.682389 20505 net.cpp:141] Setting up inception_5b/1x1
I0403 15:53:58.682417 20505 net.cpp:148] Top shape: 24 384 7 7 (451584)
I0403 15:53:58.682433 20505 net.cpp:156] Memory required for data: 1327048224
I0403 15:53:58.682451 20505 layer_factory.hpp:77] Creating layer inception_5b/relu_1x1
I0403 15:53:58.682471 20505 net.cpp:91] Creating Layer inception_5b/relu_1x1
I0403 15:53:58.682488 20505 net.cpp:425] inception_5b/relu_1x1 <- inception_5b/1x1
I0403 15:53:58.682505 20505 net.cpp:386] inception_5b/relu_1x1 -> inception_5b/1x1 (in-place)
I0403 15:53:58.682818 20505 net.cpp:141] Setting up inception_5b/relu_1x1
I0403 15:53:58.682843 20505 net.cpp:148] Top shape: 24 384 7 7 (451584)
I0403 15:53:58.682859 20505 net.cpp:156] Memory required for data: 1328854560
I0403 15:53:58.682874 20505 layer_factory.hpp:77] Creating layer inception_5b/3x3_reduce
I0403 15:53:58.682898 20505 net.cpp:91] Creating Layer inception_5b/3x3_reduce
I0403 15:53:58.682916 20505 net.cpp:425] inception_5b/3x3_reduce <- inception_5a/output_inception_5a/output_0_split_1
I0403 15:53:58.682936 20505 net.cpp:399] inception_5b/3x3_reduce -> inception_5b/3x3_reduce
I0403 15:53:58.685669 20505 net.cpp:141] Setting up inception_5b/3x3_reduce
I0403 15:53:58.685700 20505 net.cpp:148] Top shape: 24 192 7 7 (225792)
I0403 15:53:58.685716 20505 net.cpp:156] Memory required for data: 1329757728
I0403 15:53:58.685734 20505 layer_factory.hpp:77] Creating layer inception_5b/relu_3x3_reduce
I0403 15:53:58.685752 20505 net.cpp:91] Creating Layer inception_5b/relu_3x3_reduce
I0403 15:53:58.685768 20505 net.cpp:425] inception_5b/relu_3x3_reduce <- inception_5b/3x3_reduce
I0403 15:53:58.685786 20505 net.cpp:386] inception_5b/relu_3x3_reduce -> inception_5b/3x3_reduce (in-place)
I0403 15:53:58.685987 20505 net.cpp:141] Setting up inception_5b/relu_3x3_reduce
I0403 15:53:58.686015 20505 net.cpp:148] Top shape: 24 192 7 7 (225792)
I0403 15:53:58.686030 20505 net.cpp:156] Memory required for data: 1330660896
I0403 15:53:58.686045 20505 layer_factory.hpp:77] Creating layer inception_5b/3x3
I0403 15:53:58.686067 20505 net.cpp:91] Creating Layer inception_5b/3x3
I0403 15:53:58.686085 20505 net.cpp:425] inception_5b/3x3 <- inception_5b/3x3_reduce
I0403 15:53:58.686107 20505 net.cpp:399] inception_5b/3x3 -> inception_5b/3x3
I0403 15:53:58.692908 20505 net.cpp:141] Setting up inception_5b/3x3
I0403 15:53:58.692952 20505 net.cpp:148] Top shape: 24 384 7 7 (451584)
I0403 15:53:58.692975 20505 net.cpp:156] Memory required for data: 1332467232
I0403 15:53:58.692994 20505 layer_factory.hpp:77] Creating layer inception_5b/relu_3x3
I0403 15:53:58.693013 20505 net.cpp:91] Creating Layer inception_5b/relu_3x3
I0403 15:53:58.693030 20505 net.cpp:425] inception_5b/relu_3x3 <- inception_5b/3x3
I0403 15:53:58.693048 20505 net.cpp:386] inception_5b/relu_3x3 -> inception_5b/3x3 (in-place)
I0403 15:53:58.693387 20505 net.cpp:141] Setting up inception_5b/relu_3x3
I0403 15:53:58.693418 20505 net.cpp:148] Top shape: 24 384 7 7 (451584)
I0403 15:53:58.693434 20505 net.cpp:156] Memory required for data: 1334273568
I0403 15:53:58.693449 20505 layer_factory.hpp:77] Creating layer inception_5b/5x5_reduce
I0403 15:53:58.693493 20505 net.cpp:91] Creating Layer inception_5b/5x5_reduce
I0403 15:53:58.693512 20505 net.cpp:425] inception_5b/5x5_reduce <- inception_5a/output_inception_5a/output_0_split_2
I0403 15:53:58.693532 20505 net.cpp:399] inception_5b/5x5_reduce -> inception_5b/5x5_reduce
I0403 15:53:58.694897 20505 net.cpp:141] Setting up inception_5b/5x5_reduce
I0403 15:53:58.694927 20505 net.cpp:148] Top shape: 24 48 7 7 (56448)
I0403 15:53:58.694943 20505 net.cpp:156] Memory required for data: 1334499360
I0403 15:53:58.694967 20505 layer_factory.hpp:77] Creating layer inception_5b/relu_5x5_reduce
I0403 15:53:58.694986 20505 net.cpp:91] Creating Layer inception_5b/relu_5x5_reduce
I0403 15:53:58.695003 20505 net.cpp:425] inception_5b/relu_5x5_reduce <- inception_5b/5x5_reduce
I0403 15:53:58.695022 20505 net.cpp:386] inception_5b/relu_5x5_reduce -> inception_5b/5x5_reduce (in-place)
I0403 15:53:58.695404 20505 net.cpp:141] Setting up inception_5b/relu_5x5_reduce
I0403 15:53:58.695430 20505 net.cpp:148] Top shape: 24 48 7 7 (56448)
I0403 15:53:58.695444 20505 net.cpp:156] Memory required for data: 1334725152
I0403 15:53:58.695459 20505 layer_factory.hpp:77] Creating layer inception_5b/5x5
I0403 15:53:58.695480 20505 net.cpp:91] Creating Layer inception_5b/5x5
I0403 15:53:58.695497 20505 net.cpp:425] inception_5b/5x5 <- inception_5b/5x5_reduce
I0403 15:53:58.695515 20505 net.cpp:399] inception_5b/5x5 -> inception_5b/5x5
I0403 15:53:58.697631 20505 net.cpp:141] Setting up inception_5b/5x5
I0403 15:53:58.697659 20505 net.cpp:148] Top shape: 24 128 7 7 (150528)
I0403 15:53:58.697674 20505 net.cpp:156] Memory required for data: 1335327264
I0403 15:53:58.697691 20505 layer_factory.hpp:77] Creating layer inception_5b/relu_5x5
I0403 15:53:58.697710 20505 net.cpp:91] Creating Layer inception_5b/relu_5x5
I0403 15:53:58.697728 20505 net.cpp:425] inception_5b/relu_5x5 <- inception_5b/5x5
I0403 15:53:58.697748 20505 net.cpp:386] inception_5b/relu_5x5 -> inception_5b/5x5 (in-place)
I0403 15:53:58.697948 20505 net.cpp:141] Setting up inception_5b/relu_5x5
I0403 15:53:58.697978 20505 net.cpp:148] Top shape: 24 128 7 7 (150528)
I0403 15:53:58.697993 20505 net.cpp:156] Memory required for data: 1335929376
I0403 15:53:58.698006 20505 layer_factory.hpp:77] Creating layer inception_5b/pool
I0403 15:53:58.698029 20505 net.cpp:91] Creating Layer inception_5b/pool
I0403 15:53:58.698045 20505 net.cpp:425] inception_5b/pool <- inception_5a/output_inception_5a/output_0_split_3
I0403 15:53:58.698063 20505 net.cpp:399] inception_5b/pool -> inception_5b/pool
I0403 15:53:58.698138 20505 net.cpp:141] Setting up inception_5b/pool
I0403 15:53:58.698163 20505 net.cpp:148] Top shape: 24 832 7 7 (978432)
I0403 15:53:58.698178 20505 net.cpp:156] Memory required for data: 1339843104
I0403 15:53:58.698191 20505 layer_factory.hpp:77] Creating layer inception_5b/pool_proj
I0403 15:53:58.698215 20505 net.cpp:91] Creating Layer inception_5b/pool_proj
I0403 15:53:58.698231 20505 net.cpp:425] inception_5b/pool_proj <- inception_5b/pool
I0403 15:53:58.698254 20505 net.cpp:399] inception_5b/pool_proj -> inception_5b/pool_proj
I0403 15:53:58.700637 20505 net.cpp:141] Setting up inception_5b/pool_proj
I0403 15:53:58.700670 20505 net.cpp:148] Top shape: 24 128 7 7 (150528)
I0403 15:53:58.700685 20505 net.cpp:156] Memory required for data: 1340445216
I0403 15:53:58.700705 20505 layer_factory.hpp:77] Creating layer inception_5b/relu_pool_proj
I0403 15:53:58.700722 20505 net.cpp:91] Creating Layer inception_5b/relu_pool_proj
I0403 15:53:58.700739 20505 net.cpp:425] inception_5b/relu_pool_proj <- inception_5b/pool_proj
I0403 15:53:58.700759 20505 net.cpp:386] inception_5b/relu_pool_proj -> inception_5b/pool_proj (in-place)
I0403 15:53:58.701068 20505 net.cpp:141] Setting up inception_5b/relu_pool_proj
I0403 15:53:58.701097 20505 net.cpp:148] Top shape: 24 128 7 7 (150528)
I0403 15:53:58.701113 20505 net.cpp:156] Memory required for data: 1341047328
I0403 15:53:58.701128 20505 layer_factory.hpp:77] Creating layer inception_5b/output
I0403 15:53:58.701145 20505 net.cpp:91] Creating Layer inception_5b/output
I0403 15:53:58.701176 20505 net.cpp:425] inception_5b/output <- inception_5b/1x1
I0403 15:53:58.701194 20505 net.cpp:425] inception_5b/output <- inception_5b/3x3
I0403 15:53:58.701212 20505 net.cpp:425] inception_5b/output <- inception_5b/5x5
I0403 15:53:58.701228 20505 net.cpp:425] inception_5b/output <- inception_5b/pool_proj
I0403 15:53:58.701246 20505 net.cpp:399] inception_5b/output -> inception_5b/output
I0403 15:53:58.701299 20505 net.cpp:141] Setting up inception_5b/output
I0403 15:53:58.701323 20505 net.cpp:148] Top shape: 24 1024 7 7 (1204224)
I0403 15:53:58.701338 20505 net.cpp:156] Memory required for data: 1345864224
I0403 15:53:58.701351 20505 layer_factory.hpp:77] Creating layer pool5/7x7_s1
I0403 15:53:58.701372 20505 net.cpp:91] Creating Layer pool5/7x7_s1
I0403 15:53:58.701390 20505 net.cpp:425] pool5/7x7_s1 <- inception_5b/output
I0403 15:53:58.701408 20505 net.cpp:399] pool5/7x7_s1 -> pool5/7x7_s1
I0403 15:53:58.701627 20505 net.cpp:141] Setting up pool5/7x7_s1
I0403 15:53:58.701655 20505 net.cpp:148] Top shape: 24 1024 1 1 (24576)
I0403 15:53:58.701670 20505 net.cpp:156] Memory required for data: 1345962528
I0403 15:53:58.701685 20505 layer_factory.hpp:77] Creating layer pool5/drop_7x7_s1
I0403 15:53:58.701702 20505 net.cpp:91] Creating Layer pool5/drop_7x7_s1
I0403 15:53:58.701719 20505 net.cpp:425] pool5/drop_7x7_s1 <- pool5/7x7_s1
I0403 15:53:58.701737 20505 net.cpp:386] pool5/drop_7x7_s1 -> pool5/7x7_s1 (in-place)
I0403 15:53:58.701786 20505 net.cpp:141] Setting up pool5/drop_7x7_s1
I0403 15:53:58.701810 20505 net.cpp:148] Top shape: 24 1024 1 1 (24576)
I0403 15:53:58.701824 20505 net.cpp:156] Memory required for data: 1346060832
I0403 15:53:58.701838 20505 layer_factory.hpp:77] Creating layer loss3/classifier_plantvillage
I0403 15:53:58.701859 20505 net.cpp:91] Creating Layer loss3/classifier_plantvillage
I0403 15:53:58.701876 20505 net.cpp:425] loss3/classifier_plantvillage <- pool5/7x7_s1
I0403 15:53:58.701897 20505 net.cpp:399] loss3/classifier_plantvillage -> loss3/classifier_plantvillage
I0403 15:53:58.702332 20505 net.cpp:141] Setting up loss3/classifier_plantvillage
I0403 15:53:58.702358 20505 net.cpp:148] Top shape: 24 38 (912)
I0403 15:53:58.702373 20505 net.cpp:156] Memory required for data: 1346064480
I0403 15:53:58.702390 20505 layer_factory.hpp:77] Creating layer loss3/classifier_plantvillage_loss3/classifier_plantvillage_0_split
I0403 15:53:58.702410 20505 net.cpp:91] Creating Layer loss3/classifier_plantvillage_loss3/classifier_plantvillage_0_split
I0403 15:53:58.702427 20505 net.cpp:425] loss3/classifier_plantvillage_loss3/classifier_plantvillage_0_split <- loss3/classifier_plantvillage
I0403 15:53:58.702445 20505 net.cpp:399] loss3/classifier_plantvillage_loss3/classifier_plantvillage_0_split -> loss3/classifier_plantvillage_loss3/classifier_plantvillage_0_split_0
I0403 15:53:58.702466 20505 net.cpp:399] loss3/classifier_plantvillage_loss3/classifier_plantvillage_0_split -> loss3/classifier_plantvillage_loss3/classifier_plantvillage_0_split_1
I0403 15:53:58.702486 20505 net.cpp:399] loss3/classifier_plantvillage_loss3/classifier_plantvillage_0_split -> loss3/classifier_plantvillage_loss3/classifier_plantvillage_0_split_2
I0403 15:53:58.702504 20505 net.cpp:399] loss3/classifier_plantvillage_loss3/classifier_plantvillage_0_split -> loss3/classifier_plantvillage_loss3/classifier_plantvillage_0_split_3
I0403 15:53:58.702608 20505 net.cpp:141] Setting up loss3/classifier_plantvillage_loss3/classifier_plantvillage_0_split
I0403 15:53:58.702631 20505 net.cpp:148] Top shape: 24 38 (912)
I0403 15:53:58.702647 20505 net.cpp:148] Top shape: 24 38 (912)
I0403 15:53:58.702662 20505 net.cpp:148] Top shape: 24 38 (912)
I0403 15:53:58.702677 20505 net.cpp:148] Top shape: 24 38 (912)
I0403 15:53:58.702692 20505 net.cpp:156] Memory required for data: 1346079072
I0403 15:53:58.702705 20505 layer_factory.hpp:77] Creating layer loss1/loss
I0403 15:53:58.702726 20505 net.cpp:91] Creating Layer loss1/loss
I0403 15:53:58.702744 20505 net.cpp:425] loss1/loss <- loss1/classifier_plantvillage_loss1/classifier_plantvillage_0_split_0
I0403 15:53:58.702775 20505 net.cpp:425] loss1/loss <- label_data_1_split_0
…
