…
I0403 16:35:14.074878 21242 net.cpp:313] The NetState phase (1) differed from the phase (0) specified by a rule in layer data
I0403 16:35:14.075979 21242 net.cpp:49] Initializing net from parameters: 
state {
  phase: TEST
}
layer {
  name: "data"
  type: "Data"
  top: "data"
  top: "label"
  include {
    phase: TEST
  }
  transform_param {
    mirror: false
    crop_size: 224
    mean_file: "/home/mohanty/data/final_dataset/lmdb/color-40-60/mean.binaryproto"
  }
  data_param {
    source: "/home/mohanty/data/final_dataset/lmdb/color-40-60/test_db"
    batch_size: 24
    backend: LMDB
  }
}
layer {
  name: "conv1/7x7_s2"
  type: "Convolution"
  bottom: "data"
  top: "conv1/7x7_s2"
  param {
    lr_mult: 1
    decay_mult: 1
  }
  param {
    lr_mult: 2
    decay_mult: 0
  }
  convolution_param {
    num_output: 64
    pad: 3
    kernel_size: 7
    stride: 2
    weight_filler {
      type: "xavier"
      std: 0.1
    }
    bias_filler {
      type: "constant"
      value: 0.2
    }
  }
}
layer {
  name: "conv1/relu_7x7"
  type: "ReLU"
  bottom: "conv1/7x7_s2"
  top: "conv1/7x7_s2"
}
layer {
  name: "pool1/3x3_s2"
  type: "Pooling"
  bottom: "conv1/7x7_s2"
  top: "pool1/3x3_s2"
  pooling_param {
    pool: MAX
    kernel_size: 3
    stride: 2
  }
}
layer {
  name: "pool1/norm1"
  type: "LRN"
  bottom: "pool1/3x3_s2"
  top: "pool1/norm1"
  lrn_param {
    local_size: 5
    alpha: 0.0001
    beta: 0.75
  }
}
layer {
  name: "conv2/3x3_reduce"
  type: "Convolution"
  bottom: "pool1/norm1"
  top: "conv2/3x3_reduce"
  param {
    lr_mult: 1
    decay_mult: 1
  }
  param {
    lr_mult: 2
    decay_mult: 0
  }
  convolution_param {
    num_output: 64
    kernel_size: 1
    weight_filler {
      type: "xavier"
      std: 0.1
    }
    bias_filler {
      type: "constant"
      value: 0.2
    }
  }
}
layer {
  name: "conv2/relu_3x3_reduce"
  type: "ReLU"
  bottom: "conv2/3x3_reduce"
  top: "conv2/3x3_reduce"
}
layer {
  name: "conv2/3x3"
  type: "Convolution"
  bottom: "conv2/3x3_reduce"
  top: "conv2/3x3"
  param {
    lr_mult: 1
    decay_mult: 1
  }
  param {
    lr_mult: 2
    decay_mult: 0
  }
  convolution_param {
    num_output: 192
    pad: 1
    kernel_size: 3
    weight_filler {
      type: "xavier"
      std: 0.03
    }
    bias_filler {
      type: "constant"
      value: 0.2
    }
  }
}
layer {
  name: "conv2/relu_3x3"
  type: "ReLU"
  bottom: "conv2/3x3"
  top: "conv2/3x3"
}
layer {
  name: "conv2/norm2"
  type: "LRN"
  bottom: "conv2/3x3"
  top: "conv2/norm2"
  lrn_param {
    local_size: 5
    alpha: 0.0001
    beta: 0.75
  }
}
layer {
  name: "pool2/3x3_s2"
  type: "Pooling"
  bottom: "conv2/norm2"
  top: "pool2/3x3_s2"
  pooling_param {
    pool: MAX
    kernel_size: 3
    stride: 2
  }
}
layer {
  name: "inception_3a/1x1"
  type: "Convolution"
  bottom: "pool2/3x3_s2"
  top: "inception_3a/1x1"
  param {
    lr_mult: 1
    decay_mult: 1
  }
  param {
    lr_mult: 2
    decay_mult: 0
  }
  convolution_param {
    num_output: 64
    kernel_size: 1
    weight_filler {
      type: "xavier"
      std: 0.03
    }
    bias_filler {
      type: "constant"
      value: 0.2
    }
  }
}
layer {
  name: "inception_3a/relu_1x1"
  type: "ReLU"
  bottom: "inception_3a/1x1"
  top: "inception_3a/1x1"
}
layer {
  name: "inception_3a/3x3_reduce"
  type: "Convolution"
  bottom: "pool2/3x3_s2"
  top: "inception_3a/3x3_reduce"
  param {
    lr_mult: 1
    decay_mult: 1
  }
  param {
    lr_mult: 2
    decay_mult: 0
  }
  convolution_param {
    num_output: 96
    kernel_size: 1
    weight_filler {
      type: "xavier"
      std: 0.09
    }
    bias_filler {
      type: "constant"
      value: 0.2
    }
  }
}
layer {
  name: "inception_3a/relu_3x3_reduce"
  type: "ReLU"
  bottom: "inception_3a/3x3_reduce"
  top: "inception_3a/3x3_reduce"
}
layer {
  name: "inception_3a/3x3"
  type: "Convolution"
  bottom: "inception_3a/3x3_reduce"
  top: "inception_3a/3x3"
  param {
    lr_mult: 1
    decay_mult: 1
  }
  param {
    lr_mult: 2
    decay_mult: 0
  }
  convolution_param {
    num_output: 128
    pad: 1
    kernel_size: 3
    weight_filler {
      type: "xavier"
      std: 0.03
    }
    bias_filler {
      type: "constant"
      value: 0.2
    }
  }
}
layer {
  name: "inception_3a/relu_3x3"
  type: "ReLU"
  bottom: "inception_3a/3x3"
  top: "inception_3a/3x3"
}
layer {
  name: "inception_3a/5x5_reduce"
  type: "Convolution"
  bottom: "pool2/3x3_s2"
  top: "inception_3a/5x5_reduce"
  param {
    lr_mult: 1
    decay_mult: 1
  }
  param {
    lr_mult: 2
    decay_mult: 0
  }
  convolution_param {
    num_output: 16
    kernel_size: 1
    weight_filler {
      type: "xavier"
      std: 0.2
    }
    bias_filler {
      type: "constant"
      value: 0.2
    }
  }
}
layer {
  name: "inception_3a/relu_5x5_reduce"
  type: "ReLU"
  bottom: "inception_3a/5x5_reduce"
  top: "inception_3a/5x5_reduce"
}
layer {
  name: "inception_3a/5x5"
  type: "Convolution"
  bottom: "inception_3a/5x5_reduce"
  top: "inception_3a/5x5"
  param {
    lr_mult: 1
    decay_mult: 1
  }
  param {
    lr_mult: 2
    decay_mult: 0
  }
  convolution_param {
    num_output: 32
    pad: 2
    kernel_size: 5
    weight_filler {
      type: "xavier"
      std: 0.03
    }
    bias_filler {
      type: "constant"
      value: 0.2
    }
  }
}
layer {
  name: "inception_3a/relu_5x5"
  type: "ReLU"
  bottom: "inception_3a/5x5"
  top: "inception_3a/5x5"
}
layer {
  name: "inception_3a/pool"
  type: "Pooling"
  bottom: "pool2/3x3_s2"
  top: "inception_3a/pool"
  pooling_param {
    pool: MAX
    kernel_size: 3
    stride: 1
    pad: 1
  }
}
layer {
  name: "inception_3a/pool_proj"
  type: "Convolution"
  bottom: "inception_3a/pool"
  top: "inception_3a/pool_proj"
  param {
    lr_mult: 1
    decay_mult: 1
  }
  param {
    lr_mult: 2
    decay_mult: 0
  }
  convolution_param {
    num_output: 32
    kernel_size: 1
    weight_filler {
      type: "xavier"
      std: 0.1
    }
    bias_filler {
      type: "constant"
      value: 0.2
    }
  }
}
layer {
  name: "inception_3a/relu_pool_proj"
  type: "ReLU"
  bottom: "inception_3a/pool_proj"
  top: "inception_3a/pool_proj"
}
layer {
  name: "inception_3a/output"
  type: "Concat"
  bottom: "inception_3a/1x1"
  bottom: "inception_3a/3x3"
  bottom: "inception_3a/5x5"
  bottom: "inception_3a/pool_proj"
  top: "inception_3a/output"
}
layer {
  name: "inception_3b/1x1"
  type: "Convolution"
  bottom: "inception_3a/output"
  top: "inception_3b/1x1"
  param {
    lr_mult: 1
    decay_mult: 1
  }
  param {
    lr_mult: 2
    decay_mult: 0
  }
  convolution_param {
    num_output: 128
    kernel_size: 1
    weight_filler {
      type: "xavier"
      std: 0.03
    }
    bias_filler {
      type: "constant"
      value: 0.2
    }
  }
}
layer {
  name: "inception_3b/relu_1x1"
  type: "ReLU"
  bottom: "inception_3b/1x1"
  top: "inception_3b/1x1"
}
layer {
  name: "inception_3b/3x3_reduce"
  type: "Convolution"
  bottom: "inception_3a/output"
  top: "inception_3b/3x3_reduce"
  param {
    lr_mult: 1
    decay_mult: 1
  }
  param {
    lr_mult: 2
    decay_mult: 0
  }
  convolution_param {
    num_output: 128
    kernel_size: 1
    weight_filler {
      type: "xavier"
      std: 0.09
    }
    bias_filler {
      type: "constant"
      value: 0.2
    }
  }
}
layer {
  name: "inception_3b/relu_3x3_reduce"
  type: "ReLU"
  bottom: "inception_3b/3x3_reduce"
  top: "inception_3b/3x3_reduce"
}
layer {
  name: "inception_3b/3x3"
  type: "Convolution"
  bottom: "inception_3b/3x3_reduce"
  top: "inception_3b/3x3"
  param {
    lr_mult: 1
    decay_mult: 1
  }
  param {
    lr_mult: 2
    decay_mult: 0
  }
  convolution_param {
    num_output: 192
    pad: 1
    kernel_size: 3
    weight_filler {
      type: "xavier"
      std: 0.03
    }
    bias_filler {
      type: "constant"
      value: 0.2
    }
  }
}
layer {
  name: "inception_3b/relu_3x3"
  type: "ReLU"
  bottom: "inception_3b/3x3"
  top: "inception_3b/3x3"
}
layer {
  name: "inception_3b/5x5_reduce"
  type: "Convolution"
  bottom: "inception_3a/output"
  top: "inception_3b/5x5_reduce"
  param {
    lr_mult: 1
    decay_mult: 1
  }
  param {
    lr_mult: 2
    decay_mult: 0
  }
  convolution_param {
    num_output: 32
    kernel_size: 1
    weight_filler {
      type: "xavier"
      std: 0.2
    }
    bias_filler {
      type: "constant"
      value: 0.2
    }
  }
}
layer {
  name: "inception_3b/relu_5x5_reduce"
  type: "ReLU"
  bottom: "inception_3b/5x5_reduce"
  top: "inception_3b/5x5_reduce"
}
layer {
  name: "inception_3b/5x5"
  type: "Convolution"
  bottom: "inception_3b/5x5_reduce"
  top: "inception_3b/5x5"
  param {
    lr_mult: 1
    decay_mult: 1
  }
  param {
    lr_mult: 2
    decay_mult: 0
  }
  convolution_param {
    num_output: 96
    pad: 2
    kernel_size: 5
    weight_filler {
      type: "xavier"
      std: 0.03
    }
    bias_filler {
      type: "constant"
      value: 0.2
    }
  }
}
layer {
  name: "inception_3b/relu_5x5"
  type: "ReLU"
  bottom: "inception_3b/5x5"
  top: "inception_3b/5x5"
}
layer {
  name: "inception_3b/pool"
  type: "Pooling"
  bottom: "inception_3a/output"
  top: "inception_3b/pool"
  pooling_param {
    pool: MAX
    kernel_size: 3
    stride: 1
    pad: 1
  }
}
layer {
  name: "inception_3b/pool_proj"
  type: "Convolution"
  bottom: "inception_3b/pool"
  top: "inception_3b/pool_proj"
  param {
    lr_mult: 1
    decay_mult: 1
  }
  param {
    lr_mult: 2
    decay_mult: 0
  }
  convolution_param {
    num_output: 64
    kernel_size: 1
    weight_filler {
      type: "xavier"
      std: 0.1
    }
    bias_filler {
      type: "constant"
      value: 0.2
    }
  }
}
layer {
  name: "inception_3b/relu_pool_proj"
  type: "ReLU"
  bottom: "inception_3b/pool_proj"
  top: "inception_3b/pool_proj"
}
layer {
  name: "inception_3b/output"
  type: "Concat"
  bottom: "inception_3b/1x1"
  bottom: "inception_3b/3x3"
  bottom: "inception_3b/5x5"
  bottom: "inception_3b/pool_proj"
  top: "inception_3b/output"
}
layer {
  name: "pool3/3x3_s2"
  type: "Pooling"
  bottom: "inception_3b/output"
  top: "pool3/3x3_s2"
  pooling_param {
    pool: MAX
    kernel_size: 3
    stride: 2
  }
}
layer {
  name: "inception_4a/1x1"
  type: "Convolution"
  bottom: "pool3/3x3_s2"
  top: "inception_4a/1x1"
  param {
    lr_mult: 1
    decay_mult: 1
  }
  param {
    lr_mult: 2
    decay_mult: 0
  }
  convolution_param {
    num_output: 192
    kernel_size: 1
    weight_filler {
      type: "xavier"
      std: 0.03
    }
    bias_filler {
      type: "constant"
      value: 0.2
    }
  }
}
layer {
  name: "inception_4a/relu_1x1"
  type: "ReLU"
  bottom: "inception_4a/1x1"
  top: "inception_4a/1x1"
}
layer {
  name: "inception_4a/3x3_reduce"
  type: "Convolution"
  bottom: "pool3/3x3_s2"
  top: "inception_4a/3x3_reduce"
  param {
    lr_mult: 1
    decay_mult: 1
  }
  param {
    lr_mult: 2
    decay_mult: 0
  }
  convolution_param {
    num_output: 96
    kernel_size: 1
    weight_filler {
      type: "xavier"
      std: 0.09
    }
    bias_filler {
      type: "constant"
      value: 0.2
    }
  }
}
layer {
  name: "inception_4a/relu_3x3_reduce"
  type: "ReLU"
  bottom: "inception_4a/3x3_reduce"
  top: "inception_4a/3x3_reduce"
}
layer {
  name: "inception_4a/3x3"
  type: "Convolution"
  bottom: "inception_4a/3x3_reduce"
  top: "inception_4a/3x3"
  param {
    lr_mult: 1
    decay_mult: 1
  }
  param {
    lr_mult: 2
    decay_mult: 0
  }
  convolution_param {
    num_output: 208
    pad: 1
    kernel_size: 3
    weight_filler {
      type: "xavier"
      std: 0.03
    }
    bias_filler {
      type: "constant"
      value: 0.2
    }
  }
}
layer {
  name: "inception_4a/relu_3x3"
  type: "ReLU"
  bottom: "inception_4a/3x3"
  top: "inception_4a/3x3"
}
layer {
  name: "inception_4a/5x5_reduce"
  type: "Convolution"
  bottom: "pool3/3x3_s2"
  top: "inception_4a/5x5_reduce"
  param {
    lr_mult: 1
    decay_mult: 1
  }
  param {
    lr_mult: 2
    decay_mult: 0
  }
  convolution_param {
    num_output: 16
    kernel_size: 1
    weight_filler {
      type: "xavier"
      std: 0.2
    }
    bias_filler {
      type: "constant"
      value: 0.2
    }
  }
}
layer {
  name: "inception_4a/relu_5x5_reduce"
  type: "ReLU"
  bottom: "inception_4a/5x5_reduce"
  top: "inception_4a/5x5_reduce"
}
layer {
  name: "inception_4a/5x5"
  type: "Convolution"
  bottom: "inception_4a/5x5_reduce"
  top: "inception_4a/5x5"
  param {
    lr_mult: 1
    decay_mult: 1
  }
  param {
    lr_mult: 2
    decay_mult: 0
  }
  convolution_param {
    num_output: 48
    pad: 2
    kernel_size: 5
    weight_filler {
      type: "xavier"
      std: 0.03
    }
    bias_filler {
      type: "constant"
      value: 0.2
    }
  }
}
layer {
  name: "inception_4a/relu_5x5"
  type: "ReLU"
  bottom: "inception_4a/5x5"
  top: "inception_4a/5x5"
}
layer {
  name: "inception_4a/pool"
  type: "Pooling"
  bottom: "pool3/3x3_s2"
  top: "inception_4a/pool"
  pooling_param {
    pool: MAX
    kernel_size: 3
    stride: 1
    pad: 1
  }
}
layer {
  name: "inception_4a/pool_proj"
  type: "Convolution"
  bottom: "inception_4a/pool"
  top: "inception_4a/pool_proj"
  param {
    lr_mult: 1
    decay_mult: 1
  }
  param {
    lr_mult: 2
    decay_mult: 0
  }
  convolution_param {
    num_output: 64
    kernel_size: 1
    weight_filler {
      type: "xavier"
      std: 0.1
    }
    bias_filler {
      type: "constant"
      value: 0.2
    }
  }
}
layer {
  name: "inception_4a/relu_pool_proj"
  type: "ReLU"
  bottom: "inception_4a/pool_proj"
  top: "inception_4a/pool_proj"
}
layer {
  name: "inception_4a/output"
  type: "Concat"
  bottom: "inception_4a/1x1"
  bottom: "inception_4a/3x3"
  bottom: "inception_4a/5x5"
  bottom: "inception_4a/pool_proj"
  top: "inception_4a/output"
}
layer {
  name: "loss1/ave_pool"
  type: "Pooling"
  bottom: "inception_4a/output"
  top: "loss1/ave_pool"
  pooling_param {
    pool: AVE
    kernel_size: 5
    stride: 3
  }
}
layer {
  name: "loss1/conv"
  type: "Convolution"
  bottom: "loss1/ave_pool"
  top: "loss1/conv"
  param {
    lr_mult: 1
    decay_mult: 1
  }
  param {
    lr_mult: 2
    decay_mult: 0
  }
  convolution_param {
    num_output: 128
    kernel_size: 1
    weight_filler {
      type: "xavier"
      std: 0.08
    }
    bias_filler {
      type: "constant"
      value: 0.2
    }
  }
}
layer {
  name: "loss1/relu_conv"
  type: "ReLU"
  bottom: "loss1/conv"
  top: "loss1/conv"
}
layer {
  name: "loss1/fc"
  type: "InnerProduct"
  bottom: "loss1/conv"
  top: "loss1/fc"
  param {
    lr_mult: 1
    decay_mult: 1
  }
  param {
    lr_mult: 2
    decay_mult: 0
  }
  inner_product_param {
    num_output: 1024
    weight_filler {
      type: "xavier"
      std: 0.02
    }
    bias_filler {
      type: "constant"
      value: 0.2
    }
  }
}
layer {
  name: "loss1/relu_fc"
  type: "ReLU"
  bottom: "loss1/fc"
  top: "loss1/fc"
}
layer {
  name: "loss1/drop_fc"
  type: "Dropout"
  bottom: "loss1/fc"
  top: "loss1/fc"
  dropout_param {
    dropout_ratio: 0.7
  }
}
layer {
  name: "loss1/classifier_plantvillage"
  type: "InnerProduct"
  bottom: "loss1/fc"
  top: "loss1/classifier_plantvillage"
  param {
    lr_mult: 1
    decay_mult: 1
  }
  param {
    lr_mult: 2
    decay_mult: 0
  }
  inner_product_param {
    num_output: 38
    weight_filler {
      type: "xavier"
      std: 0.0009765625
    }
    bias_filler {
      type: "constant"
      value: 0
    }
  }
}
layer {
  name: "inception_4b/1x1"
  type: "Convolution"
  bottom: "inception_4a/output"
  top: "inception_4b/1x1"
  param {
    lr_mult: 1
    decay_mult: 1
  }
  param {
    lr_mult: 2
    decay_mult: 0
  }
  convolution_param {
    num_output: 160
    kernel_size: 1
    weight_filler {
      type: "xavier"
      std: 0.03
    }
    bias_filler {
      type: "constant"
      value: 0.2
    }
  }
}
layer {
  name: "inception_4b/relu_1x1"
  type: "ReLU"
  bottom: "inception_4b/1x1"
  top: "inception_4b/1x1"
}
layer {
  name: "inception_4b/3x3_reduce"
  type: "Convolution"
  bottom: "inception_4a/output"
  top: "inception_4b/3x3_reduce"
  param {
    lr_mult: 1
    decay_mult: 1
  }
  param {
    lr_mult: 2
    decay_mult: 0
  }
  convolution_param {
    num_output: 112
    kernel_size: 1
    weight_filler {
      type: "xavier"
      std: 0.09
    }
    bias_filler {
      type: "constant"
      value: 0.2
    }
  }
}
layer {
  name: "inception_4b/relu_3x3_reduce"
  type: "ReLU"
  bottom: "inception_4b/3x3_reduce"
  top: "inception_4b/3x3_reduce"
}
layer {
  name: "inception_4b/3x3"
  type: "Convolution"
  bottom: "inception_4b/3x3_reduce"
  top: "inception_4b/3x3"
  param {
    lr_mult: 1
    decay_mult: 1
  }
  param {
    lr_mult: 2
    decay_mult: 0
  }
  convolution_param {
    num_output: 224
    pad: 1
    kernel_size: 3
    weight_filler {
      type: "xavier"
      std: 0.03
    }
    bias_filler {
      type: "constant"
      value: 0.2
    }
  }
}
layer {
  name: "inception_4b/relu_3x3"
  type: "ReLU"
  bottom: "inception_4b/3x3"
  top: "inception_4b/3x3"
}
layer {
  name: "inception_4b/5x5_reduce"
  type: "Convolution"
  bottom: "inception_4a/output"
  top: "inception_4b/5x5_reduce"
  param {
    lr_mult: 1
    decay_mult: 1
  }
  param {
    lr_mult: 2
    decay_mult: 0
  }
  convolution_param {
    num_output: 24
    kernel_size: 1
    weight_filler {
      type: "xavier"
      std: 0.2
    }
    bias_filler {
      type: "constant"
      value: 0.2
    }
  }
}
layer {
  name: "inception_4b/relu_5x5_reduce"
  type: "ReLU"
  bottom: "inception_4b/5x5_reduce"
  top: "inception_4b/5x5_reduce"
}
layer {
  name: "inception_4b/5x5"
  type: "Convolution"
  bottom: "inception_4b/5x5_reduce"
  top: "inception_4b/5x5"
  param {
    lr_mult: 1
    decay_mult: 1
  }
  param {
    lr_mult: 2
    decay_mult: 0
  }
  convolution_param {
    num_output: 64
    pad: 2
    kernel_size: 5
    weight_filler {
      type: "xavier"
      std: 0.03
    }
    bias_filler {
      type: "constant"
      value: 0.2
    }
  }
}
layer {
  name: "inception_4b/relu_5x5"
  type: "ReLU"
  bottom: "inception_4b/5x5"
  top: "inception_4b/5x5"
}
layer {
  name: "inception_4b/pool"
  type: "Pooling"
  bottom: "inception_4a/output"
  top: "inception_4b/pool"
  pooling_param {
    pool: MAX
    kernel_size: 3
    stride: 1
    pad: 1
  }
}
layer {
  name: "inception_4b/pool_proj"
  type: "Convolution"
  bottom: "inception_4b/pool"
  top: "inception_4b/pool_proj"
  param {
    lr_mult: 1
    decay_mult: 1
  }
  param {
    lr_mult: 2
    decay_mult: 0
  }
  convolution_param {
    num_output: 64
    kernel_size: 1
    weight_filler {
      type: "xavier"
      std: 0.1
    }
    bias_filler {
      type: "constant"
      value: 0.2
    }
  }
}
layer {
  name: "inception_4b/relu_pool_proj"
  type: "ReLU"
  bottom: "inception_4b/pool_proj"
  top: "inception_4b/pool_proj"
}
layer {
  name: "inception_4b/output"
  type: "Concat"
  bottom: "inception_4b/1x1"
  bottom: "inception_4b/3x3"
  bottom: "inception_4b/5x5"
  bottom: "inception_4b/pool_proj"
  top: "inception_4b/output"
}
layer {
  name: "inception_4c/1x1"
  type: "Convolution"
  bottom: "inception_4b/output"
  top: "inception_4c/1x1"
  param {
    lr_mult: 1
    decay_mult: 1
  }
  param {
    lr_mult: 2
    decay_mult: 0
  }
  convolution_param {
    num_output: 128
    kernel_size: 1
    weight_filler {
      type: "xavier"
      std: 0.03
    }
    bias_filler {
      type: "constant"
      value: 0.2
    }
  }
}
layer {
  name: "inception_4c/relu_1x1"
  type: "ReLU"
  bottom: "inception_4c/1x1"
  top: "inception_4c/1x1"
}
layer {
  name: "inception_4c/3x3_reduce"
  type: "Convolution"
  bottom: "inception_4b/output"
  top: "inception_4c/3x3_reduce"
  param {
    lr_mult: 1
    decay_mult: 1
  }
  param {
    lr_mult: 2
    decay_mult: 0
  }
  convolution_param {
    num_output: 128
    kernel_size: 1
    weight_filler {
      type: "xavier"
      std: 0.09
    }
    bias_filler {
      type: "constant"
      value: 0.2
    }
  }
}
layer {
  name: "inception_4c/relu_3x3_reduce"
  type: "ReLU"
  bottom: "inception_4c/3x3_reduce"
  top: "inception_4c/3x3_reduce"
}
layer {
  name: "inception_4c/3x3"
  type: "Convolution"
  bottom: "inception_4c/3x3_reduce"
  top: "inception_4c/3x3"
  param {
    lr_mult: 1
    decay_mult: 1
  }
  param {
    lr_mult: 2
    decay_mult: 0
  }
  convolution_param {
    num_output: 256
    pad: 1
    kernel_size: 3
    weight_filler {
      type: "xavier"
      std: 0.03
    }
    bias_filler {
      type: "constant"
      value: 0.2
    }
  }
}
layer {
  name: "inception_4c/relu_3x3"
  type: "ReLU"
  bottom: "inception_4c/3x3"
  top: "inception_4c/3x3"
}
layer {
  name: "inception_4c/5x5_reduce"
  type: "Convolution"
  bottom: "inception_4b/output"
  top: "inception_4c/5x5_reduce"
  param {
    lr_mult: 1
    decay_mult: 1
  }
  param {
    lr_mult: 2
    decay_mult: 0
  }
  convolution_param {
    num_output: 24
    kernel_size: 1
    weight_filler {
      type: "xavier"
      std: 0.2
    }
    bias_filler {
      type: "constant"
      value: 0.2
    }
  }
}
layer {
  name: "inception_4c/relu_5x5_reduce"
  type: "ReLU"
  bottom: "inception_4c/5x5_reduce"
  top: "inception_4c/5x5_reduce"
}
layer {
  name: "inception_4c/5x5"
  type: "Convolution"
  bottom: "inception_4c/5x5_reduce"
  top: "inception_4c/5x5"
  param {
    lr_mult: 1
    decay_mult: 1
  }
  param {
    lr_mult: 2
    decay_mult: 0
  }
  convolution_param {
    num_output: 64
    pad: 2
    kernel_size: 5
    weight_filler {
      type: "xavier"
      std: 0.03
    }
    bias_filler {
      type: "constant"
      value: 0.2
    }
  }
}
layer {
  name: "inception_4c/relu_5x5"
  type: "ReLU"
  bottom: "inception_4c/5x5"
  top: "inception_4c/5x5"
}
layer {
  name: "inception_4c/pool"
  type: "Pooling"
  bottom: "inception_4b/output"
  top: "inception_4c/pool"
  pooling_param {
    pool: MAX
    kernel_size: 3
    stride: 1
    pad: 1
  }
}
layer {
  name: "inception_4c/pool_proj"
  type: "Convolution"
  bottom: "inception_4c/pool"
  top: "inception_4c/pool_proj"
  param {
    lr_mult: 1
    decay_mult: 1
  }
  param {
    lr_mult: 2
    decay_mult: 0
  }
  convolution_param {
    num_output: 64
    kernel_size: 1
    weight_filler {
      type: "xavier"
      std: 0.1
    }
    bias_filler {
      type: "constant"
      value: 0.2
    }
  }
}
layer {
  name: "inception_4c/relu_pool_proj"
  type: "ReLU"
  bottom: "inception_4c/pool_proj"
  top: "inception_4c/pool_proj"
}
layer {
  name: "inception_4c/output"
  type: "Concat"
  bottom: "inception_4c/1x1"
  bottom: "inception_4c/3x3"
  bottom: "inception_4c/5x5"
  bottom: "inception_4c/pool_proj"
  top: "inception_4c/output"
}
layer {
  name: "inception_4d/1x1"
  type: "Convolution"
  bottom: "inception_4c/output"
  top: "inception_4d/1x1"
  param {
    lr_mult: 1
    decay_mult: 1
  }
  param {
    lr_mult: 2
    decay_mult: 0
  }
  convolution_param {
    num_output: 112
    kernel_size: 1
    weight_filler {
      type: "xavier"
      std: 0.03
    }
    bias_filler {
      type: "constant"
      value: 0.2
    }
  }
}
layer {
  name: "inception_4d/relu_1x1"
  type: "ReLU"
  bottom: "inception_4d/1x1"
  top: "inception_4d/1x1"
}
layer {
  name: "inception_4d/3x3_reduce"
  type: "Convolution"
  bottom: "inception_4c/output"
  top: "inception_4d/3x3_reduce"
  param {
    lr_mult: 1
    decay_mult: 1
  }
  param {
    lr_mult: 2
    decay_mult: 0
  }
  convolution_param {
    num_output: 144
    kernel_size: 1
    weight_filler {
      type: "xavier"
      std: 0.09
    }
    bias_filler {
      type: "constant"
      value: 0.2
    }
  }
}
layer {
  name: "inception_4d/relu_3x3_reduce"
  type: "ReLU"
  bottom: "inception_4d/3x3_reduce"
  top: "inception_4d/3x3_reduce"
}
layer {
  name: "inception_4d/3x3"
  type: "Convolution"
  bottom: "inception_4d/3x3_reduce"
  top: "inception_4d/3x3"
  param {
    lr_mult: 1
    decay_mult: 1
  }
  param {
    lr_mult: 2
    decay_mult: 0
  }
  convolution_param {
    num_output: 288
    pad: 1
    kernel_size: 3
    weight_filler {
      type: "xavier"
      std: 0.03
    }
    bias_filler {
      type: "constant"
      value: 0.2
    }
  }
}
layer {
  name: "inception_4d/relu_3x3"
  type: "ReLU"
  bottom: "inception_4d/3x3"
  top: "inception_4d/3x3"
}
layer {
  name: "inception_4d/5x5_reduce"
  type: "Convolution"
  bottom: "inception_4c/output"
  top: "inception_4d/5x5_reduce"
  param {
    lr_mult: 1
    decay_mult: 1
  }
  param {
    lr_mult: 2
    decay_mult: 0
  }
  convolution_param {
    num_output: 32
    kernel_size: 1
    weight_filler {
      type: "xavier"
      std: 0.2
    }
    bias_filler {
      type: "constant"
      value: 0.2
    }
  }
}
layer {
  name: "inception_4d/relu_5x5_reduce"
  type: "ReLU"
  bottom: "inception_4d/5x5_reduce"
  top: "inception_4d/5x5_reduce"
}
layer {
  name: "inception_4d/5x5"
  type: "Convolution"
  bottom: "inception_4d/5x5_reduce"
  top: "inception_4d/5x5"
  param {
    lr_mult: 1
    decay_mult: 1
  }
  param {
    lr_mult: 2
    decay_mult: 0
  }
  convolution_param {
    num_output: 64
    pad: 2
    kernel_size: 5
    weight_filler {
      type: "xavier"
      std: 0.03
    }
    bias_filler {
      type: "constant"
      value: 0.2
    }
  }
}
layer {
  name: "inception_4d/relu_5x5"
  type: "ReLU"
  bottom: "inception_4d/5x5"
  top: "inception_4d/5x5"
}
layer {
  name: "inception_4d/pool"
  type: "Pooling"
  bottom: "inception_4c/output"
  top: "inception_4d/pool"
  pooling_param {
    pool: MAX
    kernel_size: 3
    stride: 1
    pad: 1
  }
}
layer {
  name: "inception_4d/pool_proj"
  type: "Convolution"
  bottom: "inception_4d/pool"
  top: "inception_4d/pool_proj"
  param {
    lr_mult: 1
    decay_mult: 1
  }
  param {
    lr_mult: 2
    decay_mult: 0
  }
  convolution_param {
    num_output: 64
    kernel_size: 1
    weight_filler {
      type: "xavier"
      std: 0.1
    }
    bias_filler {
      type: "constant"
      value: 0.2
    }
  }
}
layer {
  name: "inception_4d/relu_pool_proj"
  type: "ReLU"
  bottom: "inception_4d/pool_proj"
  top: "inception_4d/pool_proj"
}
layer {
  name: "inception_4d/output"
  type: "Concat"
  bottom: "inception_4d/1x1"
  bottom: "inception_4d/3x3"
  bottom: "inception_4d/5x5"
  bottom: "inception_4d/pool_proj"
  top: "inception_4d/output"
}
layer {
  name: "loss2/ave_pool"
  type: "Pooling"
  bottom: "inception_4d/output"
  top: "loss2/ave_pool"
  pooling_param {
    pool: AVE
    kernel_size: 5
    stride: 3
  }
}
layer {
  name: "loss2/conv"
  type: "Convolution"
  bottom: "loss2/ave_pool"
  top: "loss2/conv"
  param {
    lr_mult: 1
    decay_mult: 1
  }
  param {
    lr_mult: 2
    decay_mult: 0
  }
  convolution_param {
    num_output: 128
    kernel_size: 1
    weight_filler {
      type: "xavier"
      std: 0.08
    }
    bias_filler {
      type: "constant"
      value: 0.2
    }
  }
}
layer {
  name: "loss2/relu_conv"
  type: "ReLU"
  bottom: "loss2/conv"
  top: "loss2/conv"
}
layer {
  name: "loss2/fc"
  type: "InnerProduct"
  bottom: "loss2/conv"
  top: "loss2/fc"
  param {
    lr_mult: 1
    decay_mult: 1
  }
  param {
    lr_mult: 2
    decay_mult: 0
  }
  inner_product_param {
    num_output: 1024
    weight_filler {
      type: "xavier"
      std: 0.02
    }
    bias_filler {
      type: "constant"
      value: 0.2
    }
  }
}
layer {
  name: "loss2/relu_fc"
  type: "ReLU"
  bottom: "loss2/fc"
  top: "loss2/fc"
}
layer {
  name: "loss2/drop_fc"
  type: "Dropout"
  bottom: "loss2/fc"
  top: "loss2/fc"
  dropout_param {
    dropout_ratio: 0.7
  }
}
layer {
  name: "loss2/classifier_plantvillage"
  type: "InnerProduct"
  bottom: "loss2/fc"
  top: "loss2/classifier_plantvillage"
  param {
    lr_mult: 1
    decay_mult: 1
  }
  param {
    lr_mult: 2
    decay_mult: 0
  }
  inner_product_param {
    num_output: 38
    weight_filler {
      type: "xavier"
      std: 0.0009765625
    }
    bias_filler {
      type: "constant"
      value: 0
    }
  }
}
layer {
  name: "inception_4e/1x1"
  type: "Convolution"
  bottom: "inception_4d/output"
  top: "inception_4e/1x1"
  param {
    lr_mult: 1
    decay_mult: 1
  }
  param {
    lr_mult: 2
    decay_mult: 0
  }
  convolution_param {
    num_output: 256
    kernel_size: 1
    weight_filler {
      type: "xavier"
      std: 0.03
    }
    bias_filler {
      type: "constant"
      value: 0.2
    }
  }
}
layer {
  name: "inception_4e/relu_1x1"
  type: "ReLU"
  bottom: "inception_4e/1x1"
  top: "inception_4e/1x1"
}
layer {
  name: "inception_4e/3x3_reduce"
  type: "Convolution"
  bottom: "inception_4d/output"
  top: "inception_4e/3x3_reduce"
  param {
    lr_mult: 1
    decay_mult: 1
  }
  param {
    lr_mult: 2
    decay_mult: 0
  }
  convolution_param {
    num_output: 160
    kernel_size: 1
    weight_filler {
      type: "xavier"
      std: 0.09
    }
    bias_filler {
      type: "constant"
      value: 0.2
    }
  }
}
layer {
  name: "inception_4e/relu_3x3_reduce"
  type: "ReLU"
  bottom: "inception_4e/3x3_reduce"
  top: "inception_4e/3x3_reduce"
}
layer {
  name: "inception_4e/3x3"
  type: "Convolution"
  bottom: "inception_4e/3x3_reduce"
  top: "inception_4e/3x3"
  param {
    lr_mult: 1
    decay_mult: 1
  }
  param {
    lr_mult: 2
    decay_mult: 0
  }
  convolution_param {
    num_output: 320
    pad: 1
    kernel_size: 3
    weight_filler {
      type: "xavier"
      std: 0.03
    }
    bias_filler {
      type: "constant"
      value: 0.2
    }
  }
}
layer {
  name: "inception_4e/relu_3x3"
  type: "ReLU"
  bottom: "inception_4e/3x3"
  top: "inception_4e/3x3"
}
layer {
  name: "inception_4e/5x5_reduce"
  type: "Convolution"
  bottom: "inception_4d/output"
  top: "inception_4e/5x5_reduce"
  param {
    lr_mult: 1
    decay_mult: 1
  }
  param {
    lr_mult: 2
    decay_mult: 0
  }
  convolution_param {
    num_output: 32
    kernel_size: 1
    weight_filler {
      type: "xavier"
      std: 0.2
    }
    bias_filler {
      type: "constant"
      value: 0.2
    }
  }
}
layer {
  name: "inception_4e/relu_5x5_reduce"
  type: "ReLU"
  bottom: "inception_4e/5x5_reduce"
  top: "inception_4e/5x5_reduce"
}
layer {
  name: "inception_4e/5x5"
  type: "Convolution"
  bottom: "inception_4e/5x5_reduce"
  top: "inception_4e/5x5"
  p
I0403 16:35:14.077245 21242 layer_factory.hpp:77] Creating layer data
I0403 16:35:14.077831 21242 net.cpp:91] Creating Layer data
I0403 16:35:14.077860 21242 net.cpp:399] data -> data
I0403 16:35:14.077910 21242 net.cpp:399] data -> label
I0403 16:35:14.077945 21242 data_transformer.cpp:25] Loading mean file from: /home/mohanty/data/final_dataset/lmdb/color-40-60/mean.binaryproto
I0403 16:35:14.079282 21245 db_lmdb.cpp:38] Opened lmdb /home/mohanty/data/final_dataset/lmdb/color-40-60/test_db
I0403 16:35:14.091186 21242 data_layer.cpp:41] output data size: 24,3,224,224
I0403 16:35:14.121309 21242 net.cpp:141] Setting up data
I0403 16:35:14.121413 21242 net.cpp:148] Top shape: 24 3 224 224 (3612672)
I0403 16:35:14.121436 21242 net.cpp:148] Top shape: 24 (24)
I0403 16:35:14.121450 21242 net.cpp:156] Memory required for data: 14450784
I0403 16:35:14.121477 21242 layer_factory.hpp:77] Creating layer label_data_1_split
I0403 16:35:14.121505 21242 net.cpp:91] Creating Layer label_data_1_split
I0403 16:35:14.121522 21242 net.cpp:425] label_data_1_split <- label
I0403 16:35:14.121556 21242 net.cpp:399] label_data_1_split -> label_data_1_split_0
I0403 16:35:14.121583 21242 net.cpp:399] label_data_1_split -> label_data_1_split_1
I0403 16:35:14.121604 21242 net.cpp:399] label_data_1_split -> label_data_1_split_2
I0403 16:35:14.121625 21242 net.cpp:399] label_data_1_split -> label_data_1_split_3
I0403 16:35:14.121644 21242 net.cpp:399] label_data_1_split -> label_data_1_split_4
I0403 16:35:14.121664 21242 net.cpp:399] label_data_1_split -> label_data_1_split_5
I0403 16:35:14.121682 21242 net.cpp:399] label_data_1_split -> label_data_1_split_6
I0403 16:35:14.121703 21242 net.cpp:399] label_data_1_split -> label_data_1_split_7
I0403 16:35:14.121721 21242 net.cpp:399] label_data_1_split -> label_data_1_split_8
I0403 16:35:14.121742 21242 net.cpp:399] label_data_1_split -> label_data_1_split_9
I0403 16:35:14.121860 21242 net.cpp:141] Setting up label_data_1_split
I0403 16:35:14.121883 21242 net.cpp:148] Top shape: 24 (24)
I0403 16:35:14.121899 21242 net.cpp:148] Top shape: 24 (24)
I0403 16:35:14.121915 21242 net.cpp:148] Top shape: 24 (24)
I0403 16:35:14.121930 21242 net.cpp:148] Top shape: 24 (24)
I0403 16:35:14.121947 21242 net.cpp:148] Top shape: 24 (24)
I0403 16:35:14.121960 21242 net.cpp:148] Top shape: 24 (24)
I0403 16:35:14.121976 21242 net.cpp:148] Top shape: 24 (24)
I0403 16:35:14.121999 21242 net.cpp:148] Top shape: 24 (24)
I0403 16:35:14.122014 21242 net.cpp:148] Top shape: 24 (24)
I0403 16:35:14.122031 21242 net.cpp:148] Top shape: 24 (24)
I0403 16:35:14.122074 21242 net.cpp:156] Memory required for data: 14451744
I0403 16:35:14.122092 21242 layer_factory.hpp:77] Creating layer conv1/7x7_s2
I0403 16:35:14.122123 21242 net.cpp:91] Creating Layer conv1/7x7_s2
I0403 16:35:14.122141 21242 net.cpp:425] conv1/7x7_s2 <- data
I0403 16:35:14.122161 21242 net.cpp:399] conv1/7x7_s2 -> conv1/7x7_s2
I0403 16:35:14.264348 21242 net.cpp:141] Setting up conv1/7x7_s2
I0403 16:35:14.264392 21242 net.cpp:148] Top shape: 24 64 112 112 (19267584)
I0403 16:35:14.264410 21242 net.cpp:156] Memory required for data: 91522080
I0403 16:35:14.264441 21242 layer_factory.hpp:77] Creating layer conv1/relu_7x7
I0403 16:35:14.264468 21242 net.cpp:91] Creating Layer conv1/relu_7x7
I0403 16:35:14.264487 21242 net.cpp:425] conv1/relu_7x7 <- conv1/7x7_s2
I0403 16:35:14.264506 21242 net.cpp:386] conv1/relu_7x7 -> conv1/7x7_s2 (in-place)
I0403 16:35:14.264783 21242 net.cpp:141] Setting up conv1/relu_7x7
I0403 16:35:14.264811 21242 net.cpp:148] Top shape: 24 64 112 112 (19267584)
I0403 16:35:14.264825 21242 net.cpp:156] Memory required for data: 168592416
I0403 16:35:14.264840 21242 layer_factory.hpp:77] Creating layer pool1/3x3_s2
I0403 16:35:14.264866 21242 net.cpp:91] Creating Layer pool1/3x3_s2
I0403 16:35:14.264884 21242 net.cpp:425] pool1/3x3_s2 <- conv1/7x7_s2
I0403 16:35:14.264904 21242 net.cpp:399] pool1/3x3_s2 -> pool1/3x3_s2
I0403 16:35:14.264981 21242 net.cpp:141] Setting up pool1/3x3_s2
I0403 16:35:14.265009 21242 net.cpp:148] Top shape: 24 64 56 56 (4816896)
I0403 16:35:14.265024 21242 net.cpp:156] Memory required for data: 187860000
I0403 16:35:14.265039 21242 layer_factory.hpp:77] Creating layer pool1/norm1
I0403 16:35:14.265066 21242 net.cpp:91] Creating Layer pool1/norm1
I0403 16:35:14.265084 21242 net.cpp:425] pool1/norm1 <- pool1/3x3_s2
I0403 16:35:14.265101 21242 net.cpp:399] pool1/norm1 -> pool1/norm1
I0403 16:35:14.265408 21242 net.cpp:141] Setting up pool1/norm1
I0403 16:35:14.265435 21242 net.cpp:148] Top shape: 24 64 56 56 (4816896)
I0403 16:35:14.265452 21242 net.cpp:156] Memory required for data: 207127584
I0403 16:35:14.265467 21242 layer_factory.hpp:77] Creating layer conv2/3x3_reduce
I0403 16:35:14.265493 21242 net.cpp:91] Creating Layer conv2/3x3_reduce
I0403 16:35:14.265511 21242 net.cpp:425] conv2/3x3_reduce <- pool1/norm1
I0403 16:35:14.265532 21242 net.cpp:399] conv2/3x3_reduce -> conv2/3x3_reduce
I0403 16:35:14.267050 21242 net.cpp:141] Setting up conv2/3x3_reduce
I0403 16:35:14.267083 21242 net.cpp:148] Top shape: 24 64 56 56 (4816896)
I0403 16:35:14.267101 21242 net.cpp:156] Memory required for data: 226395168
I0403 16:35:14.267122 21242 layer_factory.hpp:77] Creating layer conv2/relu_3x3_reduce
I0403 16:35:14.267143 21242 net.cpp:91] Creating Layer conv2/relu_3x3_reduce
I0403 16:35:14.267158 21242 net.cpp:425] conv2/relu_3x3_reduce <- conv2/3x3_reduce
I0403 16:35:14.267179 21242 net.cpp:386] conv2/relu_3x3_reduce -> conv2/3x3_reduce (in-place)
I0403 16:35:14.267496 21242 net.cpp:141] Setting up conv2/relu_3x3_reduce
I0403 16:35:14.267525 21242 net.cpp:148] Top shape: 24 64 56 56 (4816896)
I0403 16:35:14.267542 21242 net.cpp:156] Memory required for data: 245662752
I0403 16:35:14.267557 21242 layer_factory.hpp:77] Creating layer conv2/3x3
I0403 16:35:14.267582 21242 net.cpp:91] Creating Layer conv2/3x3
I0403 16:35:14.267601 21242 net.cpp:425] conv2/3x3 <- conv2/3x3_reduce
I0403 16:35:14.267623 21242 net.cpp:399] conv2/3x3 -> conv2/3x3
I0403 16:35:14.270061 21242 net.cpp:141] Setting up conv2/3x3
I0403 16:35:14.270097 21242 net.cpp:148] Top shape: 24 192 56 56 (14450688)
I0403 16:35:14.270113 21242 net.cpp:156] Memory required for data: 303465504
I0403 16:35:14.270136 21242 layer_factory.hpp:77] Creating layer conv2/relu_3x3
I0403 16:35:14.270155 21242 net.cpp:91] Creating Layer conv2/relu_3x3
I0403 16:35:14.270172 21242 net.cpp:425] conv2/relu_3x3 <- conv2/3x3
I0403 16:35:14.270195 21242 net.cpp:386] conv2/relu_3x3 -> conv2/3x3 (in-place)
I0403 16:35:14.270378 21242 net.cpp:141] Setting up conv2/relu_3x3
I0403 16:35:14.270404 21242 net.cpp:148] Top shape: 24 192 56 56 (14450688)
I0403 16:35:14.270450 21242 net.cpp:156] Memory required for data: 361268256
I0403 16:35:14.270467 21242 layer_factory.hpp:77] Creating layer conv2/norm2
I0403 16:35:14.270488 21242 net.cpp:91] Creating Layer conv2/norm2
I0403 16:35:14.270504 21242 net.cpp:425] conv2/norm2 <- conv2/3x3
I0403 16:35:14.270526 21242 net.cpp:399] conv2/norm2 -> conv2/norm2
I0403 16:35:14.270850 21242 net.cpp:141] Setting up conv2/norm2
I0403 16:35:14.270881 21242 net.cpp:148] Top shape: 24 192 56 56 (14450688)
I0403 16:35:14.270897 21242 net.cpp:156] Memory required for data: 419071008
I0403 16:35:14.270912 21242 layer_factory.hpp:77] Creating layer pool2/3x3_s2
I0403 16:35:14.270931 21242 net.cpp:91] Creating Layer pool2/3x3_s2
I0403 16:35:14.270947 21242 net.cpp:425] pool2/3x3_s2 <- conv2/norm2
I0403 16:35:14.270969 21242 net.cpp:399] pool2/3x3_s2 -> pool2/3x3_s2
I0403 16:35:14.271030 21242 net.cpp:141] Setting up pool2/3x3_s2
I0403 16:35:14.271078 21242 net.cpp:148] Top shape: 24 192 28 28 (3612672)
I0403 16:35:14.271098 21242 net.cpp:156] Memory required for data: 433521696
I0403 16:35:14.271114 21242 layer_factory.hpp:77] Creating layer pool2/3x3_s2_pool2/3x3_s2_0_split
I0403 16:35:14.271136 21242 net.cpp:91] Creating Layer pool2/3x3_s2_pool2/3x3_s2_0_split
I0403 16:35:14.271152 21242 net.cpp:425] pool2/3x3_s2_pool2/3x3_s2_0_split <- pool2/3x3_s2
I0403 16:35:14.271170 21242 net.cpp:399] pool2/3x3_s2_pool2/3x3_s2_0_split -> pool2/3x3_s2_pool2/3x3_s2_0_split_0
I0403 16:35:14.271190 21242 net.cpp:399] pool2/3x3_s2_pool2/3x3_s2_0_split -> pool2/3x3_s2_pool2/3x3_s2_0_split_1
I0403 16:35:14.271210 21242 net.cpp:399] pool2/3x3_s2_pool2/3x3_s2_0_split -> pool2/3x3_s2_pool2/3x3_s2_0_split_2
I0403 16:35:14.271231 21242 net.cpp:399] pool2/3x3_s2_pool2/3x3_s2_0_split -> pool2/3x3_s2_pool2/3x3_s2_0_split_3
I0403 16:35:14.271308 21242 net.cpp:141] Setting up pool2/3x3_s2_pool2/3x3_s2_0_split
I0403 16:35:14.271332 21242 net.cpp:148] Top shape: 24 192 28 28 (3612672)
I0403 16:35:14.271348 21242 net.cpp:148] Top shape: 24 192 28 28 (3612672)
I0403 16:35:14.271364 21242 net.cpp:148] Top shape: 24 192 28 28 (3612672)
I0403 16:35:14.271380 21242 net.cpp:148] Top shape: 24 192 28 28 (3612672)
I0403 16:35:14.271395 21242 net.cpp:156] Memory required for data: 491324448
I0403 16:35:14.271409 21242 layer_factory.hpp:77] Creating layer inception_3a/1x1
I0403 16:35:14.271432 21242 net.cpp:91] Creating Layer inception_3a/1x1
I0403 16:35:14.271451 21242 net.cpp:425] inception_3a/1x1 <- pool2/3x3_s2_pool2/3x3_s2_0_split_0
I0403 16:35:14.271472 21242 net.cpp:399] inception_3a/1x1 -> inception_3a/1x1
I0403 16:35:14.273123 21242 net.cpp:141] Setting up inception_3a/1x1
I0403 16:35:14.273155 21242 net.cpp:148] Top shape: 24 64 28 28 (1204224)
I0403 16:35:14.273171 21242 net.cpp:156] Memory required for data: 496141344
I0403 16:35:14.273191 21242 layer_factory.hpp:77] Creating layer inception_3a/relu_1x1
I0403 16:35:14.273211 21242 net.cpp:91] Creating Layer inception_3a/relu_1x1
I0403 16:35:14.273227 21242 net.cpp:425] inception_3a/relu_1x1 <- inception_3a/1x1
I0403 16:35:14.273248 21242 net.cpp:386] inception_3a/relu_1x1 -> inception_3a/1x1 (in-place)
I0403 16:35:14.273437 21242 net.cpp:141] Setting up inception_3a/relu_1x1
I0403 16:35:14.273463 21242 net.cpp:148] Top shape: 24 64 28 28 (1204224)
I0403 16:35:14.273478 21242 net.cpp:156] Memory required for data: 500958240
I0403 16:35:14.273494 21242 layer_factory.hpp:77] Creating layer inception_3a/3x3_reduce
I0403 16:35:14.273516 21242 net.cpp:91] Creating Layer inception_3a/3x3_reduce
I0403 16:35:14.273535 21242 net.cpp:425] inception_3a/3x3_reduce <- pool2/3x3_s2_pool2/3x3_s2_0_split_1
I0403 16:35:14.273556 21242 net.cpp:399] inception_3a/3x3_reduce -> inception_3a/3x3_reduce
I0403 16:35:14.275373 21242 net.cpp:141] Setting up inception_3a/3x3_reduce
I0403 16:35:14.275406 21242 net.cpp:148] Top shape: 24 96 28 28 (1806336)
I0403 16:35:14.275424 21242 net.cpp:156] Memory required for data: 508183584
I0403 16:35:14.275445 21242 layer_factory.hpp:77] Creating layer inception_3a/relu_3x3_reduce
I0403 16:35:14.275487 21242 net.cpp:91] Creating Layer inception_3a/relu_3x3_reduce
I0403 16:35:14.275506 21242 net.cpp:425] inception_3a/relu_3x3_reduce <- inception_3a/3x3_reduce
I0403 16:35:14.275526 21242 net.cpp:386] inception_3a/relu_3x3_reduce -> inception_3a/3x3_reduce (in-place)
I0403 16:35:14.275713 21242 net.cpp:141] Setting up inception_3a/relu_3x3_reduce
I0403 16:35:14.275741 21242 net.cpp:148] Top shape: 24 96 28 28 (1806336)
I0403 16:35:14.275758 21242 net.cpp:156] Memory required for data: 515408928
I0403 16:35:14.275784 21242 layer_factory.hpp:77] Creating layer inception_3a/3x3
I0403 16:35:14.275807 21242 net.cpp:91] Creating Layer inception_3a/3x3
I0403 16:35:14.275825 21242 net.cpp:425] inception_3a/3x3 <- inception_3a/3x3_reduce
I0403 16:35:14.275843 21242 net.cpp:399] inception_3a/3x3 -> inception_3a/3x3
I0403 16:35:14.277554 21242 net.cpp:141] Setting up inception_3a/3x3
I0403 16:35:14.277581 21242 net.cpp:148] Top shape: 24 128 28 28 (2408448)
I0403 16:35:14.277597 21242 net.cpp:156] Memory required for data: 525042720
I0403 16:35:14.277616 21242 layer_factory.hpp:77] Creating layer inception_3a/relu_3x3
I0403 16:35:14.277634 21242 net.cpp:91] Creating Layer inception_3a/relu_3x3
I0403 16:35:14.277650 21242 net.cpp:425] inception_3a/relu_3x3 <- inception_3a/3x3
I0403 16:35:14.277669 21242 net.cpp:386] inception_3a/relu_3x3 -> inception_3a/3x3 (in-place)
I0403 16:35:14.277950 21242 net.cpp:141] Setting up inception_3a/relu_3x3
I0403 16:35:14.277976 21242 net.cpp:148] Top shape: 24 128 28 28 (2408448)
I0403 16:35:14.278005 21242 net.cpp:156] Memory required for data: 534676512
I0403 16:35:14.278023 21242 layer_factory.hpp:77] Creating layer inception_3a/5x5_reduce
I0403 16:35:14.278046 21242 net.cpp:91] Creating Layer inception_3a/5x5_reduce
I0403 16:35:14.278064 21242 net.cpp:425] inception_3a/5x5_reduce <- pool2/3x3_s2_pool2/3x3_s2_0_split_2
I0403 16:35:14.278084 21242 net.cpp:399] inception_3a/5x5_reduce -> inception_3a/5x5_reduce
I0403 16:35:14.279064 21242 net.cpp:141] Setting up inception_3a/5x5_reduce
I0403 16:35:14.279093 21242 net.cpp:148] Top shape: 24 16 28 28 (301056)
I0403 16:35:14.279109 21242 net.cpp:156] Memory required for data: 535880736
I0403 16:35:14.279129 21242 layer_factory.hpp:77] Creating layer inception_3a/relu_5x5_reduce
I0403 16:35:14.279150 21242 net.cpp:91] Creating Layer inception_3a/relu_5x5_reduce
I0403 16:35:14.279167 21242 net.cpp:425] inception_3a/relu_5x5_reduce <- inception_3a/5x5_reduce
I0403 16:35:14.279186 21242 net.cpp:386] inception_3a/relu_5x5_reduce -> inception_3a/5x5_reduce (in-place)
I0403 16:35:14.279491 21242 net.cpp:141] Setting up inception_3a/relu_5x5_reduce
I0403 16:35:14.279518 21242 net.cpp:148] Top shape: 24 16 28 28 (301056)
I0403 16:35:14.279534 21242 net.cpp:156] Memory required for data: 537084960
I0403 16:35:14.279551 21242 layer_factory.hpp:77] Creating layer inception_3a/5x5
I0403 16:35:14.279573 21242 net.cpp:91] Creating Layer inception_3a/5x5
I0403 16:35:14.279592 21242 net.cpp:425] inception_3a/5x5 <- inception_3a/5x5_reduce
I0403 16:35:14.279613 21242 net.cpp:399] inception_3a/5x5 -> inception_3a/5x5
I0403 16:35:14.280642 21242 net.cpp:141] Setting up inception_3a/5x5
I0403 16:35:14.280671 21242 net.cpp:148] Top shape: 24 32 28 28 (602112)
I0403 16:35:14.280686 21242 net.cpp:156] Memory required for data: 539493408
I0403 16:35:14.280704 21242 layer_factory.hpp:77] Creating layer inception_3a/relu_5x5
I0403 16:35:14.280724 21242 net.cpp:91] Creating Layer inception_3a/relu_5x5
I0403 16:35:14.280740 21242 net.cpp:425] inception_3a/relu_5x5 <- inception_3a/5x5
I0403 16:35:14.280761 21242 net.cpp:386] inception_3a/relu_5x5 -> inception_3a/5x5 (in-place)
I0403 16:35:14.280936 21242 net.cpp:141] Setting up inception_3a/relu_5x5
I0403 16:35:14.280963 21242 net.cpp:148] Top shape: 24 32 28 28 (602112)
I0403 16:35:14.280978 21242 net.cpp:156] Memory required for data: 541901856
I0403 16:35:14.281000 21242 layer_factory.hpp:77] Creating layer inception_3a/pool
I0403 16:35:14.281023 21242 net.cpp:91] Creating Layer inception_3a/pool
I0403 16:35:14.281041 21242 net.cpp:425] inception_3a/pool <- pool2/3x3_s2_pool2/3x3_s2_0_split_3
I0403 16:35:14.281075 21242 net.cpp:399] inception_3a/pool -> inception_3a/pool
I0403 16:35:14.281136 21242 net.cpp:141] Setting up inception_3a/pool
I0403 16:35:14.281159 21242 net.cpp:148] Top shape: 24 192 28 28 (3612672)
I0403 16:35:14.281174 21242 net.cpp:156] Memory required for data: 556352544
I0403 16:35:14.281188 21242 layer_factory.hpp:77] Creating layer inception_3a/pool_proj
I0403 16:35:14.281211 21242 net.cpp:91] Creating Layer inception_3a/pool_proj
I0403 16:35:14.281229 21242 net.cpp:425] inception_3a/pool_proj <- inception_3a/pool
I0403 16:35:14.281250 21242 net.cpp:399] inception_3a/pool_proj -> inception_3a/pool_proj
I0403 16:35:14.282235 21242 net.cpp:141] Setting up inception_3a/pool_proj
I0403 16:35:14.282266 21242 net.cpp:148] Top shape: 24 32 28 28 (602112)
I0403 16:35:14.282284 21242 net.cpp:156] Memory required for data: 558760992
I0403 16:35:14.282305 21242 layer_factory.hpp:77] Creating layer inception_3a/relu_pool_proj
I0403 16:35:14.282333 21242 net.cpp:91] Creating Layer inception_3a/relu_pool_proj
I0403 16:35:14.282351 21242 net.cpp:425] inception_3a/relu_pool_proj <- inception_3a/pool_proj
I0403 16:35:14.282367 21242 net.cpp:386] inception_3a/relu_pool_proj -> inception_3a/pool_proj (in-place)
I0403 16:35:14.282649 21242 net.cpp:141] Setting up inception_3a/relu_pool_proj
I0403 16:35:14.282675 21242 net.cpp:148] Top shape: 24 32 28 28 (602112)
I0403 16:35:14.282691 21242 net.cpp:156] Memory required for data: 561169440
I0403 16:35:14.282706 21242 layer_factory.hpp:77] Creating layer inception_3a/output
I0403 16:35:14.282724 21242 net.cpp:91] Creating Layer inception_3a/output
I0403 16:35:14.282739 21242 net.cpp:425] inception_3a/output <- inception_3a/1x1
I0403 16:35:14.282757 21242 net.cpp:425] inception_3a/output <- inception_3a/3x3
I0403 16:35:14.282773 21242 net.cpp:425] inception_3a/output <- inception_3a/5x5
I0403 16:35:14.282788 21242 net.cpp:425] inception_3a/output <- inception_3a/pool_proj
I0403 16:35:14.282807 21242 net.cpp:399] inception_3a/output -> inception_3a/output
I0403 16:35:14.282855 21242 net.cpp:141] Setting up inception_3a/output
I0403 16:35:14.282881 21242 net.cpp:148] Top shape: 24 256 28 28 (4816896)
I0403 16:35:14.282896 21242 net.cpp:156] Memory required for data: 580437024
I0403 16:35:14.282910 21242 layer_factory.hpp:77] Creating layer inception_3a/output_inception_3a/output_0_split
I0403 16:35:14.282927 21242 net.cpp:91] Creating Layer inception_3a/output_inception_3a/output_0_split
I0403 16:35:14.282943 21242 net.cpp:425] inception_3a/output_inception_3a/output_0_split <- inception_3a/output
I0403 16:35:14.282960 21242 net.cpp:399] inception_3a/output_inception_3a/output_0_split -> inception_3a/output_inception_3a/output_0_split_0
I0403 16:35:14.282982 21242 net.cpp:399] inception_3a/output_inception_3a/output_0_split -> inception_3a/output_inception_3a/output_0_split_1
I0403 16:35:14.283015 21242 net.cpp:399] inception_3a/output_inception_3a/output_0_split -> inception_3a/output_inception_3a/output_0_split_2
I0403 16:35:14.283038 21242 net.cpp:399] inception_3a/output_inception_3a/output_0_split -> inception_3a/output_inception_3a/output_0_split_3
I0403 16:35:14.283115 21242 net.cpp:141] Setting up inception_3a/output_inception_3a/output_0_split
I0403 16:35:14.283143 21242 net.cpp:148] Top shape: 24 256 28 28 (4816896)
I0403 16:35:14.283160 21242 net.cpp:148] Top shape: 24 256 28 28 (4816896)
I0403 16:35:14.283177 21242 net.cpp:148] Top shape: 24 256 28 28 (4816896)
I0403 16:35:14.283193 21242 net.cpp:148] Top shape: 24 256 28 28 (4816896)
I0403 16:35:14.283208 21242 net.cpp:156] Memory required for data: 657507360
I0403 16:35:14.283223 21242 layer_factory.hpp:77] Creating layer inception_3b/1x1
I0403 16:35:14.283246 21242 net.cpp:91] Creating Layer inception_3b/1x1
I0403 16:35:14.283264 21242 net.cpp:425] inception_3b/1x1 <- inception_3a/output_inception_3a/output_0_split_0
I0403 16:35:14.283283 21242 net.cpp:399] inception_3b/1x1 -> inception_3b/1x1
I0403 16:35:14.284440 21242 net.cpp:141] Setting up inception_3b/1x1
I0403 16:35:14.284482 21242 net.cpp:148] Top shape: 24 128 28 28 (2408448)
I0403 16:35:14.284500 21242 net.cpp:156] Memory required for data: 667141152
I0403 16:35:14.284519 21242 layer_factory.hpp:77] Creating layer inception_3b/relu_1x1
I0403 16:35:14.284538 21242 net.cpp:91] Creating Layer inception_3b/relu_1x1
I0403 16:35:14.284554 21242 net.cpp:425] inception_3b/relu_1x1 <- inception_3b/1x1
I0403 16:35:14.284574 21242 net.cpp:386] inception_3b/relu_1x1 -> inception_3b/1x1 (in-place)
I0403 16:35:14.284751 21242 net.cpp:141] Setting up inception_3b/relu_1x1
I0403 16:35:14.284778 21242 net.cpp:148] Top shape: 24 128 28 28 (2408448)
I0403 16:35:14.284793 21242 net.cpp:156] Memory required for data: 676774944
I0403 16:35:14.284808 21242 layer_factory.hpp:77] Creating layer inception_3b/3x3_reduce
I0403 16:35:14.284832 21242 net.cpp:91] Creating Layer inception_3b/3x3_reduce
I0403 16:35:14.284849 21242 net.cpp:425] inception_3b/3x3_reduce <- inception_3a/output_inception_3a/output_0_split_1
I0403 16:35:14.284873 21242 net.cpp:399] inception_3b/3x3_reduce -> inception_3b/3x3_reduce
I0403 16:35:14.286104 21242 net.cpp:141] Setting up inception_3b/3x3_reduce
I0403 16:35:14.286135 21242 net.cpp:148] Top shape: 24 128 28 28 (2408448)
I0403 16:35:14.286152 21242 net.cpp:156] Memory required for data: 686408736
I0403 16:35:14.286170 21242 layer_factory.hpp:77] Creating layer inception_3b/relu_3x3_reduce
I0403 16:35:14.286187 21242 net.cpp:91] Creating Layer inception_3b/relu_3x3_reduce
I0403 16:35:14.286203 21242 net.cpp:425] inception_3b/relu_3x3_reduce <- inception_3b/3x3_reduce
I0403 16:35:14.286221 21242 net.cpp:386] inception_3b/relu_3x3_reduce -> inception_3b/3x3_reduce (in-place)
I0403 16:35:14.286404 21242 net.cpp:141] Setting up inception_3b/relu_3x3_reduce
I0403 16:35:14.286428 21242 net.cpp:148] Top shape: 24 128 28 28 (2408448)
I0403 16:35:14.286442 21242 net.cpp:156] Memory required for data: 696042528
I0403 16:35:14.286456 21242 layer_factory.hpp:77] Creating layer inception_3b/3x3
I0403 16:35:14.286480 21242 net.cpp:91] Creating Layer inception_3b/3x3
I0403 16:35:14.286499 21242 net.cpp:425] inception_3b/3x3 <- inception_3b/3x3_reduce
I0403 16:35:14.286520 21242 net.cpp:399] inception_3b/3x3 -> inception_3b/3x3
I0403 16:35:14.289414 21242 net.cpp:141] Setting up inception_3b/3x3
I0403 16:35:14.289443 21242 net.cpp:148] Top shape: 24 192 28 28 (3612672)
I0403 16:35:14.289460 21242 net.cpp:156] Memory required for data: 710493216
I0403 16:35:14.289479 21242 layer_factory.hpp:77] Creating layer inception_3b/relu_3x3
I0403 16:35:14.289496 21242 net.cpp:91] Creating Layer inception_3b/relu_3x3
I0403 16:35:14.289511 21242 net.cpp:425] inception_3b/relu_3x3 <- inception_3b/3x3
I0403 16:35:14.289530 21242 net.cpp:386] inception_3b/relu_3x3 -> inception_3b/3x3 (in-place)
I0403 16:35:14.289811 21242 net.cpp:141] Setting up inception_3b/relu_3x3
I0403 16:35:14.289839 21242 net.cpp:148] Top shape: 24 192 28 28 (3612672)
I0403 16:35:14.289855 21242 net.cpp:156] Memory required for data: 724943904
I0403 16:35:14.289870 21242 layer_factory.hpp:77] Creating layer inception_3b/5x5_reduce
I0403 16:35:14.289891 21242 net.cpp:91] Creating Layer inception_3b/5x5_reduce
I0403 16:35:14.289908 21242 net.cpp:425] inception_3b/5x5_reduce <- inception_3a/output_inception_3a/output_0_split_2
I0403 16:35:14.289930 21242 net.cpp:399] inception_3b/5x5_reduce -> inception_3b/5x5_reduce
I0403 16:35:14.290931 21242 net.cpp:141] Setting up inception_3b/5x5_reduce
I0403 16:35:14.290957 21242 net.cpp:148] Top shape: 24 32 28 28 (602112)
I0403 16:35:14.290973 21242 net.cpp:156] Memory required for data: 727352352
I0403 16:35:14.290998 21242 layer_factory.hpp:77] Creating layer inception_3b/relu_5x5_reduce
I0403 16:35:14.291018 21242 net.cpp:91] Creating Layer inception_3b/relu_5x5_reduce
I0403 16:35:14.291033 21242 net.cpp:425] inception_3b/relu_5x5_reduce <- inception_3b/5x5_reduce
I0403 16:35:14.291052 21242 net.cpp:386] inception_3b/relu_5x5_reduce -> inception_3b/5x5_reduce (in-place)
I0403 16:35:14.291225 21242 net.cpp:141] Setting up inception_3b/relu_5x5_reduce
I0403 16:35:14.291263 21242 net.cpp:148] Top shape: 24 32 28 28 (602112)
I0403 16:35:14.291280 21242 net.cpp:156] Memory required for data: 729760800
I0403 16:35:14.291293 21242 layer_factory.hpp:77] Creating layer inception_3b/5x5
I0403 16:35:14.291316 21242 net.cpp:91] Creating Layer inception_3b/5x5
I0403 16:35:14.291332 21242 net.cpp:425] inception_3b/5x5 <- inception_3b/5x5_reduce
I0403 16:35:14.291353 21242 net.cpp:399] inception_3b/5x5 -> inception_3b/5x5
I0403 16:35:14.293311 21242 net.cpp:141] Setting up inception_3b/5x5
I0403 16:35:14.293344 21242 net.cpp:148] Top shape: 24 96 28 28 (1806336)
I0403 16:35:14.293360 21242 net.cpp:156] Memory required for data: 736986144
I0403 16:35:14.293380 21242 layer_factory.hpp:77] Creating layer inception_3b/relu_5x5
I0403 16:35:14.293396 21242 net.cpp:91] Creating Layer inception_3b/relu_5x5
I0403 16:35:14.293412 21242 net.cpp:425] inception_3b/relu_5x5 <- inception_3b/5x5
I0403 16:35:14.293428 21242 net.cpp:386] inception_3b/relu_5x5 -> inception_3b/5x5 (in-place)
I0403 16:35:14.293617 21242 net.cpp:141] Setting up inception_3b/relu_5x5
I0403 16:35:14.293642 21242 net.cpp:148] Top shape: 24 96 28 28 (1806336)
I0403 16:35:14.293656 21242 net.cpp:156] Memory required for data: 744211488
I0403 16:35:14.293670 21242 layer_factory.hpp:77] Creating layer inception_3b/pool
I0403 16:35:14.293687 21242 net.cpp:91] Creating Layer inception_3b/pool
I0403 16:35:14.293702 21242 net.cpp:425] inception_3b/pool <- inception_3a/output_inception_3a/output_0_split_3
I0403 16:35:14.293720 21242 net.cpp:399] inception_3b/pool -> inception_3b/pool
I0403 16:35:14.293776 21242 net.cpp:141] Setting up inception_3b/pool
I0403 16:35:14.293800 21242 net.cpp:148] Top shape: 24 256 28 28 (4816896)
I0403 16:35:14.293815 21242 net.cpp:156] Memory required for data: 763479072
I0403 16:35:14.293829 21242 layer_factory.hpp:77] Creating layer inception_3b/pool_proj
I0403 16:35:14.293850 21242 net.cpp:91] Creating Layer inception_3b/pool_proj
I0403 16:35:14.293867 21242 net.cpp:425] inception_3b/pool_proj <- inception_3b/pool
I0403 16:35:14.293885 21242 net.cpp:399] inception_3b/pool_proj -> inception_3b/pool_proj
I0403 16:35:14.294931 21242 net.cpp:141] Setting up inception_3b/pool_proj
I0403 16:35:14.294958 21242 net.cpp:148] Top shape: 24 64 28 28 (1204224)
I0403 16:35:14.294973 21242 net.cpp:156] Memory required for data: 768295968
I0403 16:35:14.294997 21242 layer_factory.hpp:77] Creating layer inception_3b/relu_pool_proj
I0403 16:35:14.295018 21242 net.cpp:91] Creating Layer inception_3b/relu_pool_proj
I0403 16:35:14.295035 21242 net.cpp:425] inception_3b/relu_pool_proj <- inception_3b/pool_proj
I0403 16:35:14.295053 21242 net.cpp:386] inception_3b/relu_pool_proj -> inception_3b/pool_proj (in-place)
I0403 16:35:14.295446 21242 net.cpp:141] Setting up inception_3b/relu_pool_proj
I0403 16:35:14.295472 21242 net.cpp:148] Top shape: 24 64 28 28 (1204224)
I0403 16:35:14.295487 21242 net.cpp:156] Memory required for data: 773112864
I0403 16:35:14.295501 21242 layer_factory.hpp:77] Creating layer inception_3b/output
I0403 16:35:14.295519 21242 net.cpp:91] Creating Layer inception_3b/output
I0403 16:35:14.295534 21242 net.cpp:425] inception_3b/output <- inception_3b/1x1
I0403 16:35:14.295550 21242 net.cpp:425] inception_3b/output <- inception_3b/3x3
I0403 16:35:14.295567 21242 net.cpp:425] inception_3b/output <- inception_3b/5x5
I0403 16:35:14.295581 21242 net.cpp:425] inception_3b/output <- inception_3b/pool_proj
I0403 16:35:14.295600 21242 net.cpp:399] inception_3b/output -> inception_3b/output
I0403 16:35:14.295644 21242 net.cpp:141] Setting up inception_3b/output
I0403 16:35:14.295666 21242 net.cpp:148] Top shape: 24 480 28 28 (9031680)
I0403 16:35:14.295680 21242 net.cpp:156] Memory required for data: 809239584
I0403 16:35:14.295694 21242 layer_factory.hpp:77] Creating layer pool3/3x3_s2
I0403 16:35:14.295711 21242 net.cpp:91] Creating Layer pool3/3x3_s2
I0403 16:35:14.295727 21242 net.cpp:425] pool3/3x3_s2 <- inception_3b/output
I0403 16:35:14.295745 21242 net.cpp:399] pool3/3x3_s2 -> pool3/3x3_s2
I0403 16:35:14.295819 21242 net.cpp:141] Setting up pool3/3x3_s2
I0403 16:35:14.295841 21242 net.cpp:148] Top shape: 24 480 14 14 (2257920)
I0403 16:35:14.295855 21242 net.cpp:156] Memory required for data: 818271264
I0403 16:35:14.295869 21242 layer_factory.hpp:77] Creating layer pool3/3x3_s2_pool3/3x3_s2_0_split
I0403 16:35:14.295888 21242 net.cpp:91] Creating Layer pool3/3x3_s2_pool3/3x3_s2_0_split
I0403 16:35:14.295903 21242 net.cpp:425] pool3/3x3_s2_pool3/3x3_s2_0_split <- pool3/3x3_s2
I0403 16:35:14.295920 21242 net.cpp:399] pool3/3x3_s2_pool3/3x3_s2_0_split -> pool3/3x3_s2_pool3/3x3_s2_0_split_0
I0403 16:35:14.295941 21242 net.cpp:399] pool3/3x3_s2_pool3/3x3_s2_0_split -> pool3/3x3_s2_pool3/3x3_s2_0_split_1
I0403 16:35:14.295960 21242 net.cpp:399] pool3/3x3_s2_pool3/3x3_s2_0_split -> pool3/3x3_s2_pool3/3x3_s2_0_split_2
I0403 16:35:14.295979 21242 net.cpp:399] pool3/3x3_s2_pool3/3x3_s2_0_split -> pool3/3x3_s2_pool3/3x3_s2_0_split_3
I0403 16:35:14.296059 21242 net.cpp:141] Setting up pool3/3x3_s2_pool3/3x3_s2_0_split
I0403 16:35:14.296082 21242 net.cpp:148] Top shape: 24 480 14 14 (2257920)
I0403 16:35:14.296098 21242 net.cpp:148] Top shape: 24 480 14 14 (2257920)
I0403 16:35:14.296113 21242 net.cpp:148] Top shape: 24 480 14 14 (2257920)
I0403 16:35:14.296128 21242 net.cpp:148] Top shape: 24 480 14 14 (2257920)
I0403 16:35:14.296141 21242 net.cpp:156] Memory required for data: 854397984
I0403 16:35:14.296155 21242 layer_factory.hpp:77] Creating layer inception_4a/1x1
I0403 16:35:14.296176 21242 net.cpp:91] Creating Layer inception_4a/1x1
I0403 16:35:14.296192 21242 net.cpp:425] inception_4a/1x1 <- pool3/3x3_s2_pool3/3x3_s2_0_split_0
I0403 16:35:14.296213 21242 net.cpp:399] inception_4a/1x1 -> inception_4a/1x1
I0403 16:35:14.297770 21242 net.cpp:141] Setting up inception_4a/1x1
I0403 16:35:14.297797 21242 net.cpp:148] Top shape: 24 192 14 14 (903168)
I0403 16:35:14.297812 21242 net.cpp:156] Memory required for data: 858010656
I0403 16:35:14.297830 21242 layer_factory.hpp:77] Creating layer inception_4a/relu_1x1
I0403 16:35:14.297849 21242 net.cpp:91] Creating Layer inception_4a/relu_1x1
I0403 16:35:14.297865 21242 net.cpp:425] inception_4a/relu_1x1 <- inception_4a/1x1
I0403 16:35:14.297883 21242 net.cpp:386] inception_4a/relu_1x1 -> inception_4a/1x1 (in-place)
I0403 16:35:14.298089 21242 net.cpp:141] Setting up inception_4a/relu_1x1
I0403 16:35:14.298117 21242 net.cpp:148] Top shape: 24 192 14 14 (903168)
I0403 16:35:14.298133 21242 net.cpp:156] Memory required for data: 861623328
I0403 16:35:14.298148 21242 layer_factory.hpp:77] Creating layer inception_4a/3x3_reduce
I0403 16:35:14.298171 21242 net.cpp:91] Creating Layer inception_4a/3x3_reduce
I0403 16:35:14.298189 21242 net.cpp:425] inception_4a/3x3_reduce <- pool3/3x3_s2_pool3/3x3_s2_0_split_1
I0403 16:35:14.298208 21242 net.cpp:399] inception_4a/3x3_reduce -> inception_4a/3x3_reduce
I0403 16:35:14.299516 21242 net.cpp:141] Setting up inception_4a/3x3_reduce
I0403 16:35:14.299543 21242 net.cpp:148] Top shape: 24 96 14 14 (451584)
I0403 16:35:14.299559 21242 net.cpp:156] Memory required for data: 863429664
I0403 16:35:14.299585 21242 layer_factory.hpp:77] Creating layer inception_4a/relu_3x3_reduce
I0403 16:35:14.299607 21242 net.cpp:91] Creating Layer inception_4a/relu_3x3_reduce
I0403 16:35:14.299624 21242 net.cpp:425] inception_4a/relu_3x3_reduce <- inception_4a/3x3_reduce
I0403 16:35:14.299641 21242 net.cpp:386] inception_4a/relu_3x3_reduce -> inception_4a/3x3_reduce (in-place)
I0403 16:35:14.299816 21242 net.cpp:141] Setting up inception_4a/relu_3x3_reduce
I0403 16:35:14.299844 21242 net.cpp:148] Top shape: 24 96 14 14 (451584)
I0403 16:35:14.299860 21242 net.cpp:156] Memory required for data: 865236000
I0403 16:35:14.299875 21242 layer_factory.hpp:77] Creating layer inception_4a/3x3
I0403 16:35:14.299899 21242 net.cpp:91] Creating Layer inception_4a/3x3
I0403 16:35:14.299916 21242 net.cpp:425] inception_4a/3x3 <- inception_4a/3x3_reduce
I0403 16:35:14.299937 21242 net.cpp:399] inception_4a/3x3 -> inception_4a/3x3
I0403 16:35:14.302677 21242 net.cpp:141] Setting up inception_4a/3x3
I0403 16:35:14.302709 21242 net.cpp:148] Top shape: 24 208 14 14 (978432)
I0403 16:35:14.302726 21242 net.cpp:156] Memory required for data: 869149728
I0403 16:35:14.302744 21242 layer_factory.hpp:77] Creating layer inception_4a/relu_3x3
I0403 16:35:14.302762 21242 net.cpp:91] Creating Layer inception_4a/relu_3x3
I0403 16:35:14.302778 21242 net.cpp:425] inception_4a/relu_3x3 <- inception_4a/3x3
I0403 16:35:14.302798 21242 net.cpp:386] inception_4a/relu_3x3 -> inception_4a/3x3 (in-place)
I0403 16:35:14.303086 21242 net.cpp:141] Setting up inception_4a/relu_3x3
I0403 16:35:14.303115 21242 net.cpp:148] Top shape: 24 208 14 14 (978432)
I0403 16:35:14.303131 21242 net.cpp:156] Memory required for data: 873063456
I0403 16:35:14.303148 21242 layer_factory.hpp:77] Creating layer inception_4a/5x5_reduce
I0403 16:35:14.303170 21242 net.cpp:91] Creating Layer inception_4a/5x5_reduce
I0403 16:35:14.303187 21242 net.cpp:425] inception_4a/5x5_reduce <- pool3/3x3_s2_pool3/3x3_s2_0_split_2
I0403 16:35:14.303207 21242 net.cpp:399] inception_4a/5x5_reduce -> inception_4a/5x5_reduce
I0403 16:35:14.304291 21242 net.cpp:141] Setting up inception_4a/5x5_reduce
I0403 16:35:14.304321 21242 net.cpp:148] Top shape: 24 16 14 14 (75264)
I0403 16:35:14.304338 21242 net.cpp:156] Memory required for data: 873364512
I0403 16:35:14.304358 21242 layer_factory.hpp:77] Creating layer inception_4a/relu_5x5_reduce
I0403 16:35:14.304376 21242 net.cpp:91] Creating Layer inception_4a/relu_5x5_reduce
I0403 16:35:14.304393 21242 net.cpp:425] inception_4a/relu_5x5_reduce <- inception_4a/5x5_reduce
I0403 16:35:14.304412 21242 net.cpp:386] inception_4a/relu_5x5_reduce -> inception_4a/5x5_reduce (in-place)
I0403 16:35:14.304637 21242 net.cpp:141] Setting up inception_4a/relu_5x5_reduce
I0403 16:35:14.304662 21242 net.cpp:148] Top shape: 24 16 14 14 (75264)
I0403 16:35:14.304677 21242 net.cpp:156] Memory required for data: 873665568
I0403 16:35:14.304692 21242 layer_factory.hpp:77] Creating layer inception_4a/5x5
I0403 16:35:14.304714 21242 net.cpp:91] Creating Layer inception_4a/5x5
I0403 16:35:14.304733 21242 net.cpp:425] inception_4a/5x5 <- inception_4a/5x5_reduce
I0403 16:35:14.304754 21242 net.cpp:399] inception_4a/5x5 -> inception_4a/5x5
I0403 16:35:14.305873 21242 net.cpp:141] Setting up inception_4a/5x5
I0403 16:35:14.305899 21242 net.cpp:148] Top shape: 24 48 14 14 (225792)
I0403 16:35:14.305914 21242 net.cpp:156] Memory required for data: 874568736
I0403 16:35:14.305932 21242 layer_factory.hpp:77] Creating layer inception_4a/relu_5x5
I0403 16:35:14.305951 21242 net.cpp:91] Creating Layer inception_4a/relu_5x5
I0403 16:35:14.305968 21242 net.cpp:425] inception_4a/relu_5x5 <- inception_4a/5x5
I0403 16:35:14.305984 21242 net.cpp:386] inception_4a/relu_5x5 -> inception_4a/5x5 (in-place)
I0403 16:35:14.306179 21242 net.cpp:141] Setting up inception_4a/relu_5x5
I0403 16:35:14.306205 21242 net.cpp:148] Top shape: 24 48 14 14 (225792)
I0403 16:35:14.306219 21242 net.cpp:156] Memory required for data: 875471904
I0403 16:35:14.306233 21242 layer_factory.hpp:77] Creating layer inception_4a/pool
I0403 16:35:14.306251 21242 net.cpp:91] Creating Layer inception_4a/pool
I0403 16:35:14.306265 21242 net.cpp:425] inception_4a/pool <- pool3/3x3_s2_pool3/3x3_s2_0_split_3
I0403 16:35:14.306283 21242 net.cpp:399] inception_4a/pool -> inception_4a/pool
I0403 16:35:14.306344 21242 net.cpp:141] Setting up inception_4a/pool
I0403 16:35:14.306366 21242 net.cpp:148] Top shape: 24 480 14 14 (2257920)
I0403 16:35:14.306380 21242 net.cpp:156] Memory required for data: 884503584
I0403 16:35:14.306394 21242 layer_factory.hpp:77] Creating layer inception_4a/pool_proj
I0403 16:35:14.306416 21242 net.cpp:91] Creating Layer inception_4a/pool_proj
I0403 16:35:14.306432 21242 net.cpp:425] inception_4a/pool_proj <- inception_4a/pool
I0403 16:35:14.306452 21242 net.cpp:399] inception_4a/pool_proj -> inception_4a/pool_proj
I0403 16:35:14.307624 21242 net.cpp:141] Setting up inception_4a/pool_proj
I0403 16:35:14.307651 21242 net.cpp:148] Top shape: 24 64 14 14 (301056)
I0403 16:35:14.307682 21242 net.cpp:156] Memory required for data: 885707808
I0403 16:35:14.307700 21242 layer_factory.hpp:77] Creating layer inception_4a/relu_pool_proj
I0403 16:35:14.307721 21242 net.cpp:91] Creating Layer inception_4a/relu_pool_proj
I0403 16:35:14.307737 21242 net.cpp:425] inception_4a/relu_pool_proj <- inception_4a/pool_proj
I0403 16:35:14.307754 21242 net.cpp:386] inception_4a/relu_pool_proj -> inception_4a/pool_proj (in-place)
I0403 16:35:14.308049 21242 net.cpp:141] Setting up inception_4a/relu_pool_proj
I0403 16:35:14.308076 21242 net.cpp:148] Top shape: 24 64 14 14 (301056)
I0403 16:35:14.308090 21242 net.cpp:156] Memory required for data: 886912032
I0403 16:35:14.308105 21242 layer_factory.hpp:77] Creating layer inception_4a/output
I0403 16:35:14.308125 21242 net.cpp:91] Creating Layer inception_4a/output
I0403 16:35:14.308140 21242 net.cpp:425] inception_4a/output <- inception_4a/1x1
I0403 16:35:14.308156 21242 net.cpp:425] inception_4a/output <- inception_4a/3x3
I0403 16:35:14.308171 21242 net.cpp:425] inception_4a/output <- inception_4a/5x5
I0403 16:35:14.308187 21242 net.cpp:425] inception_4a/output <- inception_4a/pool_proj
I0403 16:35:14.308202 21242 net.cpp:399] inception_4a/output -> inception_4a/output
I0403 16:35:14.308248 21242 net.cpp:141] Setting up inception_4a/output
I0403 16:35:14.308271 21242 net.cpp:148] Top shape: 24 512 14 14 (2408448)
I0403 16:35:14.308284 21242 net.cpp:156] Memory required for data: 896545824
I0403 16:35:14.308298 21242 layer_factory.hpp:77] Creating layer inception_4a/output_inception_4a/output_0_split
I0403 16:35:14.308316 21242 net.cpp:91] Creating Layer inception_4a/output_inception_4a/output_0_split
I0403 16:35:14.308331 21242 net.cpp:425] inception_4a/output_inception_4a/output_0_split <- inception_4a/output
I0403 16:35:14.308351 21242 net.cpp:399] inception_4a/output_inception_4a/output_0_split -> inception_4a/output_inception_4a/output_0_split_0
I0403 16:35:14.308370 21242 net.cpp:399] inception_4a/output_inception_4a/output_0_split -> inception_4a/output_inception_4a/output_0_split_1
I0403 16:35:14.308390 21242 net.cpp:399] inception_4a/output_inception_4a/output_0_split -> inception_4a/output_inception_4a/output_0_split_2
I0403 16:35:14.308409 21242 net.cpp:399] inception_4a/output_inception_4a/output_0_split -> inception_4a/output_inception_4a/output_0_split_3
I0403 16:35:14.308431 21242 net.cpp:399] inception_4a/output_inception_4a/output_0_split -> inception_4a/output_inception_4a/output_0_split_4
I0403 16:35:14.308523 21242 net.cpp:141] Setting up inception_4a/output_inception_4a/output_0_split
I0403 16:35:14.308547 21242 net.cpp:148] Top shape: 24 512 14 14 (2408448)
I0403 16:35:14.308562 21242 net.cpp:148] Top shape: 24 512 14 14 (2408448)
I0403 16:35:14.308578 21242 net.cpp:148] Top shape: 24 512 14 14 (2408448)
I0403 16:35:14.308593 21242 net.cpp:148] Top shape: 24 512 14 14 (2408448)
I0403 16:35:14.308607 21242 net.cpp:148] Top shape: 24 512 14 14 (2408448)
I0403 16:35:14.308620 21242 net.cpp:156] Memory required for data: 944714784
I0403 16:35:14.308634 21242 layer_factory.hpp:77] Creating layer loss1/ave_pool
I0403 16:35:14.308650 21242 net.cpp:91] Creating Layer loss1/ave_pool
I0403 16:35:14.308666 21242 net.cpp:425] loss1/ave_pool <- inception_4a/output_inception_4a/output_0_split_0
I0403 16:35:14.308686 21242 net.cpp:399] loss1/ave_pool -> loss1/ave_pool
I0403 16:35:14.308890 21242 net.cpp:141] Setting up loss1/ave_pool
I0403 16:35:14.308917 21242 net.cpp:148] Top shape: 24 512 4 4 (196608)
I0403 16:35:14.308930 21242 net.cpp:156] Memory required for data: 945501216
I0403 16:35:14.308944 21242 layer_factory.hpp:77] Creating layer loss1/conv
I0403 16:35:14.308965 21242 net.cpp:91] Creating Layer loss1/conv
I0403 16:35:14.308984 21242 net.cpp:425] loss1/conv <- loss1/ave_pool
I0403 16:35:14.309008 21242 net.cpp:399] loss1/conv -> loss1/conv
I0403 16:35:14.310423 21242 net.cpp:141] Setting up loss1/conv
I0403 16:35:14.310451 21242 net.cpp:148] Top shape: 24 128 4 4 (49152)
I0403 16:35:14.310467 21242 net.cpp:156] Memory required for data: 945697824
I0403 16:35:14.310499 21242 layer_factory.hpp:77] Creating layer loss1/relu_conv
I0403 16:35:14.310518 21242 net.cpp:91] Creating Layer loss1/relu_conv
I0403 16:35:14.310533 21242 net.cpp:425] loss1/relu_conv <- loss1/conv
I0403 16:35:14.310552 21242 net.cpp:386] loss1/relu_conv -> loss1/conv (in-place)
I0403 16:35:14.310830 21242 net.cpp:141] Setting up loss1/relu_conv
I0403 16:35:14.310858 21242 net.cpp:148] Top shape: 24 128 4 4 (49152)
I0403 16:35:14.310871 21242 net.cpp:156] Memory required for data: 945894432
I0403 16:35:14.310886 21242 layer_factory.hpp:77] Creating layer loss1/fc
I0403 16:35:14.310909 21242 net.cpp:91] Creating Layer loss1/fc
I0403 16:35:14.310926 21242 net.cpp:425] loss1/fc <- loss1/conv
I0403 16:35:14.310947 21242 net.cpp:399] loss1/fc -> loss1/fc
I0403 16:35:14.328375 21242 net.cpp:141] Setting up loss1/fc
I0403 16:35:14.328420 21242 net.cpp:148] Top shape: 24 1024 (24576)
I0403 16:35:14.328436 21242 net.cpp:156] Memory required for data: 945992736
I0403 16:35:14.328454 21242 layer_factory.hpp:77] Creating layer loss1/relu_fc
I0403 16:35:14.328472 21242 net.cpp:91] Creating Layer loss1/relu_fc
I0403 16:35:14.328487 21242 net.cpp:425] loss1/relu_fc <- loss1/fc
I0403 16:35:14.328503 21242 net.cpp:386] loss1/relu_fc -> loss1/fc (in-place)
I0403 16:35:14.328688 21242 net.cpp:141] Setting up loss1/relu_fc
I0403 16:35:14.328727 21242 net.cpp:148] Top shape: 24 1024 (24576)
I0403 16:35:14.328742 21242 net.cpp:156] Memory required for data: 946091040
I0403 16:35:14.328755 21242 layer_factory.hpp:77] Creating layer loss1/drop_fc
I0403 16:35:14.328781 21242 net.cpp:91] Creating Layer loss1/drop_fc
I0403 16:35:14.328797 21242 net.cpp:425] loss1/drop_fc <- loss1/fc
I0403 16:35:14.328814 21242 net.cpp:386] loss1/drop_fc -> loss1/fc (in-place)
I0403 16:35:14.328863 21242 net.cpp:141] Setting up loss1/drop_fc
I0403 16:35:14.328886 21242 net.cpp:148] Top shape: 24 1024 (24576)
I0403 16:35:14.328899 21242 net.cpp:156] Memory required for data: 946189344
I0403 16:35:14.328913 21242 layer_factory.hpp:77] Creating layer loss1/classifier_plantvillage
I0403 16:35:14.328934 21242 net.cpp:91] Creating Layer loss1/classifier_plantvillage
I0403 16:35:14.328949 21242 net.cpp:425] loss1/classifier_plantvillage <- loss1/fc
I0403 16:35:14.328968 21242 net.cpp:399] loss1/classifier_plantvillage -> loss1/classifier_plantvillage
I0403 16:35:14.329843 21242 net.cpp:141] Setting up loss1/classifier_plantvillage
I0403 16:35:14.329871 21242 net.cpp:148] Top shape: 24 38 (912)
I0403 16:35:14.329886 21242 net.cpp:156] Memory required for data: 946192992
I0403 16:35:14.329905 21242 layer_factory.hpp:77] Creating layer loss1/classifier_plantvillage_loss1/classifier_plantvillage_0_split
I0403 16:35:14.329921 21242 net.cpp:91] Creating Layer loss1/classifier_plantvillage_loss1/classifier_plantvillage_0_split
I0403 16:35:14.329936 21242 net.cpp:425] loss1/classifier_plantvillage_loss1/classifier_plantvillage_0_split <- loss1/classifier_plantvillage
I0403 16:35:14.329952 21242 net.cpp:399] loss1/classifier_plantvillage_loss1/classifier_plantvillage_0_split -> loss1/classifier_plantvillage_loss1/classifier_plantvillage_0_split_0
I0403 16:35:14.329972 21242 net.cpp:399] loss1/classifier_plantvillage_loss1/classifier_plantvillage_0_split -> loss1/classifier_plantvillage_loss1/classifier_plantvillage_0_split_1
I0403 16:35:14.329998 21242 net.cpp:399] loss1/classifier_plantvillage_loss1/classifier_plantvillage_0_split -> loss1/classifier_plantvillage_loss1/classifier_plantvillage_0_split_2
I0403 16:35:14.330065 21242 net.cpp:141] Setting up loss1/classifier_plantvillage_loss1/classifier_plantvillage_0_split
I0403 16:35:14.330086 21242 net.cpp:148] Top shape: 24 38 (912)
I0403 16:35:14.330101 21242 net.cpp:148] Top shape: 24 38 (912)
I0403 16:35:14.330116 21242 net.cpp:148] Top shape: 24 38 (912)
I0403 16:35:14.330129 21242 net.cpp:156] Memory required for data: 946203936
I0403 16:35:14.330143 21242 layer_factory.hpp:77] Creating layer inception_4b/1x1
I0403 16:35:14.330163 21242 net.cpp:91] Creating Layer inception_4b/1x1
I0403 16:35:14.330195 21242 net.cpp:425] inception_4b/1x1 <- inception_4a/output_inception_4a/output_0_split_1
I0403 16:35:14.330216 21242 net.cpp:399] inception_4b/1x1 -> inception_4b/1x1
I0403 16:35:14.331810 21242 net.cpp:141] Setting up inception_4b/1x1
I0403 16:35:14.331838 21242 net.cpp:148] Top shape: 24 160 14 14 (752640)
I0403 16:35:14.331853 21242 net.cpp:156] Memory required for data: 949214496
I0403 16:35:14.331871 21242 layer_factory.hpp:77] Creating layer inception_4b/relu_1x1
I0403 16:35:14.331888 21242 net.cpp:91] Creating Layer inception_4b/relu_1x1
I0403 16:35:14.331903 21242 net.cpp:425] inception_4b/relu_1x1 <- inception_4b/1x1
I0403 16:35:14.331921 21242 net.cpp:386] inception_4b/relu_1x1 -> inception_4b/1x1 (in-place)
I0403 16:35:14.332109 21242 net.cpp:141] Setting up inception_4b/relu_1x1
I0403 16:35:14.332134 21242 net.cpp:148] Top shape: 24 160 14 14 (752640)
I0403 16:35:14.332149 21242 net.cpp:156] Memory required for data: 952225056
I0403 16:35:14.332161 21242 layer_factory.hpp:77] Creating layer inception_4b/3x3_reduce
I0403 16:35:14.332182 21242 net.cpp:91] Creating Layer inception_4b/3x3_reduce
I0403 16:35:14.332200 21242 net.cpp:425] inception_4b/3x3_reduce <- inception_4a/output_inception_4a/output_0_split_2
I0403 16:35:14.332222 21242 net.cpp:399] inception_4b/3x3_reduce -> inception_4b/3x3_reduce
I0403 16:35:14.333547 21242 net.cpp:141] Setting up inception_4b/3x3_reduce
I0403 16:35:14.333573 21242 net.cpp:148] Top shape: 24 112 14 14 (526848)
I0403 16:35:14.333588 21242 net.cpp:156] Memory required for data: 954332448
I0403 16:35:14.333606 21242 layer_factory.hpp:77] Creating layer inception_4b/relu_3x3_reduce
I0403 16:35:14.333626 21242 net.cpp:91] Creating Layer inception_4b/relu_3x3_reduce
I0403 16:35:14.333642 21242 net.cpp:425] inception_4b/relu_3x3_reduce <- inception_4b/3x3_reduce
I0403 16:35:14.333658 21242 net.cpp:386] inception_4b/relu_3x3_reduce -> inception_4b/3x3_reduce (in-place)
I0403 16:35:14.333938 21242 net.cpp:141] Setting up inception_4b/relu_3x3_reduce
I0403 16:35:14.333963 21242 net.cpp:148] Top shape: 24 112 14 14 (526848)
I0403 16:35:14.333977 21242 net.cpp:156] Memory required for data: 956439840
I0403 16:35:14.333997 21242 layer_factory.hpp:77] Creating layer inception_4b/3x3
I0403 16:35:14.334022 21242 net.cpp:91] Creating Layer inception_4b/3x3
I0403 16:35:14.334039 21242 net.cpp:425] inception_4b/3x3 <- inception_4b/3x3_reduce
I0403 16:35:14.334059 21242 net.cpp:399] inception_4b/3x3 -> inception_4b/3x3
I0403 16:35:14.336961 21242 net.cpp:141] Setting up inception_4b/3x3
I0403 16:35:14.336995 21242 net.cpp:148] Top shape: 24 224 14 14 (1053696)
I0403 16:35:14.337013 21242 net.cpp:156] Memory required for data: 960654624
I0403 16:35:14.337033 21242 layer_factory.hpp:77] Creating layer inception_4b/relu_3x3
I0403 16:35:14.337049 21242 net.cpp:91] Creating Layer inception_4b/relu_3x3
I0403 16:35:14.337065 21242 net.cpp:425] inception_4b/relu_3x3 <- inception_4b/3x3
I0403 16:35:14.337081 21242 net.cpp:386] inception_4b/relu_3x3 -> inception_4b/3x3 (in-place)
I0403 16:35:14.337277 21242 net.cpp:141] Setting up inception_4b/relu_3x3
I0403 16:35:14.337302 21242 net.cpp:148] Top shape: 24 224 14 14 (1053696)
I0403 16:35:14.337317 21242 net.cpp:156] Memory required for data: 964869408
I0403 16:35:14.337332 21242 layer_factory.hpp:77] Creating layer inception_4b/5x5_reduce
I0403 16:35:14.337353 21242 net.cpp:91] Creating Layer inception_4b/5x5_reduce
I0403 16:35:14.337369 21242 net.cpp:425] inception_4b/5x5_reduce <- inception_4a/output_inception_4a/output_0_split_3
I0403 16:35:14.337388 21242 net.cpp:399] inception_4b/5x5_reduce -> inception_4b/5x5_reduce
I0403 16:35:14.338456 21242 net.cpp:141] Setting up inception_4b/5x5_reduce
I0403 16:35:14.338482 21242 net.cpp:148] Top shape: 24 24 14 14 (112896)
I0403 16:35:14.338497 21242 net.cpp:156] Memory required for data: 965320992
I0403 16:35:14.338515 21242 layer_factory.hpp:77] Creating layer inception_4b/relu_5x5_reduce
I0403 16:35:14.338531 21242 net.cpp:91] Creating Layer inception_4b/relu_5x5_reduce
I0403 16:35:14.338563 21242 net.cpp:425] inception_4b/relu_5x5_reduce <- inception_4b/5x5_reduce
I0403 16:35:14.338580 21242 net.cpp:386] inception_4b/relu_5x5_reduce -> inception_4b/5x5_reduce (in-place)
I0403 16:35:14.338762 21242 net.cpp:141] Setting up inception_4b/relu_5x5_reduce
I0403 16:35:14.338786 21242 net.cpp:148] Top shape: 24 24 14 14 (112896)
I0403 16:35:14.338800 21242 net.cpp:156] Memory required for data: 965772576
I0403 16:35:14.338814 21242 layer_factory.hpp:77] Creating layer inception_4b/5x5
I0403 16:35:14.338835 21242 net.cpp:91] Creating Layer inception_4b/5x5
I0403 16:35:14.338852 21242 net.cpp:425] inception_4b/5x5 <- inception_4b/5x5_reduce
I0403 16:35:14.338872 21242 net.cpp:399] inception_4b/5x5 -> inception_4b/5x5
I0403 16:35:14.340081 21242 net.cpp:141] Setting up inception_4b/5x5
I0403 16:35:14.340108 21242 net.cpp:148] Top shape: 24 64 14 14 (301056)
I0403 16:35:14.340122 21242 net.cpp:156] Memory required for data: 966976800
I0403 16:35:14.340139 21242 layer_factory.hpp:77] Creating layer inception_4b/relu_5x5
I0403 16:35:14.340157 21242 net.cpp:91] Creating Layer inception_4b/relu_5x5
I0403 16:35:14.340172 21242 net.cpp:425] inception_4b/relu_5x5 <- inception_4b/5x5
I0403 16:35:14.340190 21242 net.cpp:386] inception_4b/relu_5x5 -> inception_4b/5x5 (in-place)
I0403 16:35:14.340467 21242 net.cpp:141] Setting up inception_4b/relu_5x5
I0403 16:35:14.340492 21242 net.cpp:148] Top shape: 24 64 14 14 (301056)
I0403 16:35:14.340507 21242 net.cpp:156] Memory required for data: 968181024
I0403 16:35:14.340520 21242 layer_factory.hpp:77] Creating layer inception_4b/pool
I0403 16:35:14.340538 21242 net.cpp:91] Creating Layer inception_4b/pool
I0403 16:35:14.340553 21242 net.cpp:425] inception_4b/pool <- inception_4a/output_inception_4a/output_0_split_4
I0403 16:35:14.340572 21242 net.cpp:399] inception_4b/pool -> inception_4b/pool
I0403 16:35:14.340633 21242 net.cpp:141] Setting up inception_4b/pool
I0403 16:35:14.340656 21242 net.cpp:148] Top shape: 24 512 14 14 (2408448)
I0403 16:35:14.340669 21242 net.cpp:156] Memory required for data: 977814816
I0403 16:35:14.340682 21242 layer_factory.hpp:77] Creating layer inception_4b/pool_proj
I0403 16:35:14.340704 21242 net.cpp:91] Creating Layer inception_4b/pool_proj
I0403 16:35:14.340723 21242 net.cpp:425] inception_4b/pool_proj <- inception_4b/pool
I0403 16:35:14.340739 21242 net.cpp:399] inception_4b/pool_proj -> inception_4b/pool_proj
I0403 16:35:14.341912 21242 net.cpp:141] Setting up inception_4b/pool_proj
I0403 16:35:14.341938 21242 net.cpp:148] Top shape: 24 64 14 14 (301056)
I0403 16:35:14.341953 21242 net.cpp:156] Memory required for data: 979019040
I0403 16:35:14.341969 21242 layer_factory.hpp:77] Creating layer inception_4b/relu_pool_proj
I0403 16:35:14.341991 21242 net.cpp:91] Creating Layer inception_4b/relu_pool_proj
I0403 16:35:14.342008 21242 net.cpp:425] inception_4b/relu_pool_proj <- inception_4b/pool_proj
I0403 16:35:14.342036 21242 net.cpp:386] inception_4b/relu_pool_proj -> inception_4b/pool_proj (in-place)
I0403 16:35:14.342216 21242 net.cpp:141] Setting up inception_4b/relu_pool_proj
I0403 16:35:14.342241 21242 net.cpp:148] Top shape: 24 64 14 14 (301056)
I0403 16:35:14.342253 21242 net.cpp:156] Memory required for data: 980223264
I0403 16:35:14.342267 21242 layer_factory.hpp:77] Creating layer inception_4b/output
I0403 16:35:14.342286 21242 net.cpp:91] Creating Layer inception_4b/output
I0403 16:35:14.342303 21242 net.cpp:425] inception_4b/output <- inception_4b/1x1
I0403 16:35:14.342317 21242 net.cpp:425] inception_4b/output <- inception_4b/3x3
I0403 16:35:14.342332 21242 net.cpp:425] inception_4b/output <- inception_4b/5x5
I0403 16:35:14.342346 21242 net.cpp:425] inception_4b/output <- inception_4b/pool_proj
I0403 16:35:14.342362 21242 net.cpp:399] inception_4b/output -> inception_4b/output
I0403 16:35:14.342406 21242 net.cpp:141] Setting up inception_4b/output
I0403 16:35:14.342429 21242 net.cpp:148] Top shape: 24 512 14 14 (2408448)
I0403 16:35:14.342442 21242 net.cpp:156] Memory required for data: 989857056
I0403 16:35:14.342470 21242 layer_factory.hpp:77] Creating layer inception_4b/output_inception_4b/output_0_split
I0403 16:35:14.342488 21242 net.cpp:91] Creating Layer inception_4b/output_inception_4b/output_0_split
I0403 16:35:14.342502 21242 net.cpp:425] inception_4b/output_inception_4b/output_0_split <- inception_4b/output
I0403 16:35:14.342521 21242 net.cpp:399] inception_4b/output_inception_4b/output_0_split -> inception_4b/output_inception_4b/output_0_split_0
I0403 16:35:14.342541 21242 net.cpp:399] inception_4b/output_inception_4b/output_0_split -> inception_4b/output_inception_4b/output_0_split_1
I0403 16:35:14.342561 21242 net.cpp:399] inception_4b/output_inception_4b/output_0_split -> inception_4b/output_inception_4b/output_0_split_2
I0403 16:35:14.342578 21242 net.cpp:399] inception_4b/output_inception_4b/output_0_split -> inception_4b/output_inception_4b/output_0_split_3
I0403 16:35:14.342656 21242 net.cpp:141] Setting up inception_4b/output_inception_4b/output_0_split
I0403 16:35:14.342680 21242 net.cpp:148] Top shape: 24 512 14 14 (2408448)
I0403 16:35:14.342696 21242 net.cpp:148] Top shape: 24 512 14 14 (2408448)
I0403 16:35:14.342711 21242 net.cpp:148] Top shape: 24 512 14 14 (2408448)
I0403 16:35:14.342726 21242 net.cpp:148] Top shape: 24 512 14 14 (2408448)
I0403 16:35:14.342738 21242 net.cpp:156] Memory required for data: 1028392224
I0403 16:35:14.342752 21242 layer_factory.hpp:77] Creating layer inception_4c/1x1
I0403 16:35:14.342773 21242 net.cpp:91] Creating Layer inception_4c/1x1
I0403 16:35:14.342790 21242 net.cpp:425] inception_4c/1x1 <- inception_4b/output_inception_4b/output_0_split_0
I0403 16:35:14.342808 21242 net.cpp:399] inception_4c/1x1 -> inception_4c/1x1
I0403 16:35:14.344208 21242 net.cpp:141] Setting up inception_4c/1x1
I0403 16:35:14.344235 21242 net.cpp:148] Top shape: 24 128 14 14 (602112)
I0403 16:35:14.344249 21242 net.cpp:156] Memory required for data: 1030800672
I0403 16:35:14.344266 21242 layer_factory.hpp:77] Creating layer inception_4c/relu_1x1
I0403 16:35:14.344286 21242 net.cpp:91] Creating Layer inception_4c/relu_1x1
I0403 16:35:14.344302 21242 net.cpp:425] inception_4c/relu_1x1 <- inception_4c/1x1
I0403 16:35:14.344319 21242 net.cpp:386] inception_4c/relu_1x1 -> inception_4c/1x1 (in-place)
I0403 16:35:14.344496 21242 net.cpp:141] Setting up inception_4c/relu_1x1
I0403 16:35:14.344522 21242 net.cpp:148] Top shape: 24 128 14 14 (602112)
I0403 16:35:14.344537 21242 net.cpp:156] Memory required for data: 1033209120
I0403 16:35:14.344550 21242 layer_factory.hpp:77] Creating layer inception_4c/3x3_reduce
I0403 16:35:14.344573 21242 net.cpp:91] Creating Layer inception_4c/3x3_reduce
I0403 16:35:14.344590 21242 net.cpp:425] inception_4c/3x3_reduce <- inception_4b/output_inception_4b/output_0_split_1
I0403 16:35:14.344609 21242 net.cpp:399] inception_4c/3x3_reduce -> inception_4c/3x3_reduce
I0403 16:35:14.346582 21242 net.cpp:141] Setting up inception_4c/3x3_reduce
I0403 16:35:14.346613 21242 net.cpp:148] Top shape: 24 128 14 14 (602112)
I0403 16:35:14.346631 21242 net.cpp:156] Memory required for data: 1035617568
I0403 16:35:14.346648 21242 layer_factory.hpp:77] Creating layer inception_4c/relu_3x3_reduce
I0403 16:35:14.346665 21242 net.cpp:91] Creating Layer inception_4c/relu_3x3_reduce
I0403 16:35:14.346681 21242 net.cpp:425] inception_4c/relu_3x3_reduce <- inception_4c/3x3_reduce
I0403 16:35:14.346700 21242 net.cpp:386] inception_4c/relu_3x3_reduce -> inception_4c/3x3_reduce (in-place)
I0403 16:35:14.346984 21242 net.cpp:141] Setting up inception_4c/relu_3x3_reduce
I0403 16:35:14.347018 21242 net.cpp:148] Top shape: 24 128 14 14 (602112)
I0403 16:35:14.347033 21242 net.cpp:156] Memory required for data: 1038026016
I0403 16:35:14.347048 21242 layer_factory.hpp:77] Creating layer inception_4c/3x3
I0403 16:35:14.347071 21242 net.cpp:91] Creating Layer inception_4c/3x3
I0403 16:35:14.347089 21242 net.cpp:425] inception_4c/3x3 <- inception_4c/3x3_reduce
I0403 16:35:14.347106 21242 net.cpp:399] inception_4c/3x3 -> inception_4c/3x3
I0403 16:35:14.350775 21242 net.cpp:141] Setting up inception_4c/3x3
I0403 16:35:14.350818 21242 net.cpp:148] Top shape: 24 256 14 14 (1204224)
I0403 16:35:14.350834 21242 net.cpp:156] Memory required for data: 1042842912
I0403 16:35:14.350867 21242 layer_factory.hpp:77] Creating layer inception_4c/relu_3x3
I0403 16:35:14.350888 21242 net.cpp:91] Creating Layer inception_4c/relu_3x3
I0403 16:35:14.350904 21242 net.cpp:425] inception_4c/relu_3x3 <- inception_4c/3x3
I0403 16:35:14.350924 21242 net.cpp:386] inception_4c/relu_3x3 -> inception_4c/3x3 (in-place)
I0403 16:35:14.351121 21242 net.cpp:141] Setting up inception_4c/relu_3x3
I0403 16:35:14.351147 21242 net.cpp:148] Top shape: 24 256 14 14 (1204224)
I0403 16:35:14.351162 21242 net.cpp:156] Memory required for data: 1047659808
I0403 16:35:14.351177 21242 layer_factory.hpp:77] Creating layer inception_4c/5x5_reduce
I0403 16:35:14.351202 21242 net.cpp:91] Creating Layer inception_4c/5x5_reduce
I0403 16:35:14.351220 21242 net.cpp:425] inception_4c/5x5_reduce <- inception_4b/output_inception_4b/output_0_split_2
I0403 16:35:14.351241 21242 net.cpp:399] inception_4c/5x5_reduce -> inception_4c/5x5_reduce
I0403 16:35:14.352413 21242 net.cpp:141] Setting up inception_4c/5x5_reduce
I0403 16:35:14.352442 21242 net.cpp:148] Top shape: 24 24 14 14 (112896)
I0403 16:35:14.352458 21242 net.cpp:156] Memory required for data: 1048111392
I0403 16:35:14.352475 21242 layer_factory.hpp:77] Creating layer inception_4c/relu_5x5_reduce
I0403 16:35:14.352494 21242 net.cpp:91] Creating Layer inception_4c/relu_5x5_reduce
I0403 16:35:14.352509 21242 net.cpp:425] inception_4c/relu_5x5_reduce <- inception_4c/5x5_reduce
I0403 16:35:14.352530 21242 net.cpp:386] inception_4c/relu_5x5_reduce -> inception_4c/5x5_reduce (in-place)
I0403 16:35:14.352722 21242 net.cpp:141] Setting up inception_4c/relu_5x5_reduce
I0403 16:35:14.352747 21242 net.cpp:148] Top shape: 24 24 14 14 (112896)
I0403 16:35:14.352761 21242 net.cpp:156] Memory required for data: 1048562976
I0403 16:35:14.352777 21242 layer_factory.hpp:77] Creating layer inception_4c/5x5
I0403 16:35:14.352798 21242 net.cpp:91] Creating Layer inception_4c/5x5
I0403 16:35:14.352816 21242 net.cpp:425] inception_4c/5x5 <- inception_4c/5x5_reduce
I0403 16:35:14.352839 21242 net.cpp:399] inception_4c/5x5 -> inception_4c/5x5
I0403 16:35:14.354140 21242 net.cpp:141] Setting up inception_4c/5x5
I0403 16:35:14.354168 21242 net.cpp:148] Top shape: 24 64 14 14 (301056)
I0403 16:35:14.354183 21242 net.cpp:156] Memory required for data: 1049767200
I0403 16:35:14.354202 21242 layer_factory.hpp:77] Creating layer inception_4c/relu_5x5
I0403 16:35:14.354223 21242 net.cpp:91] Creating Layer inception_4c/relu_5x5
I0403 16:35:14.354239 21242 net.cpp:425] inception_4c/relu_5x5 <- inception_4c/5x5
I0403 16:35:14.354257 21242 net.cpp:386] inception_4c/relu_5x5 -> inception_4c/5x5 (in-place)
I0403 16:35:14.354557 21242 net.cpp:141] Setting up inception_4c/relu_5x5
I0403 16:35:14.354583 21242 net.cpp:148] Top shape: 24 64 14 14 (301056)
I0403 16:35:14.354598 21242 net.cpp:156] Memory required for data: 1050971424
I0403 16:35:14.354614 21242 layer_factory.hpp:77] Creating layer inception_4c/pool
I0403 16:35:14.354634 21242 net.cpp:91] Creating Layer inception_4c/pool
I0403 16:35:14.354650 21242 net.cpp:425] inception_4c/pool <- inception_4b/output_inception_4b/output_0_split_3
I0403 16:35:14.354668 21242 net.cpp:399] inception_4c/pool -> inception_4c/pool
I0403 16:35:14.354735 21242 net.cpp:141] Setting up inception_4c/pool
I0403 16:35:14.354759 21242 net.cpp:148] Top shape: 24 512 14 14 (2408448)
I0403 16:35:14.354774 21242 net.cpp:156] Memory required for data: 1060605216
I0403 16:35:14.354789 21242 layer_factory.hpp:77] Creating layer inception_4c/pool_proj
I0403 16:35:14.354811 21242 net.cpp:91] Creating Layer inception_4c/pool_proj
I0403 16:35:14.354828 21242 net.cpp:425] inception_4c/pool_proj <- inception_4c/pool
I0403 16:35:14.354849 21242 net.cpp:399] inception_4c/pool_proj -> inception_4c/pool_proj
I0403 16:35:14.356127 21242 net.cpp:141] Setting up inception_4c/pool_proj
I0403 16:35:14.356154 21242 net.cpp:148] Top shape: 24 64 14 14 (301056)
I0403 16:35:14.356184 21242 net.cpp:156] Memory required for data: 1061809440
I0403 16:35:14.356204 21242 layer_factory.hpp:77] Creating layer inception_4c/relu_pool_proj
I0403 16:35:14.356222 21242 net.cpp:91] Creating Layer inception_4c/relu_pool_proj
I0403 16:35:14.356238 21242 net.cpp:425] inception_4c/relu_pool_proj <- inception_4c/pool_proj
I0403 16:35:14.356261 21242 net.cpp:386] inception_4c/relu_pool_proj -> inception_4c/pool_proj (in-place)
I0403 16:35:14.356449 21242 net.cpp:141] Setting up inception_4c/relu_pool_proj
I0403 16:35:14.356475 21242 net.cpp:148] Top shape: 24 64 14 14 (301056)
I0403 16:35:14.356490 21242 net.cpp:156] Memory required for data: 1063013664
I0403 16:35:14.356505 21242 layer_factory.hpp:77] Creating layer inception_4c/output
I0403 16:35:14.356524 21242 net.cpp:91] Creating Layer inception_4c/output
I0403 16:35:14.356540 21242 net.cpp:425] inception_4c/output <- inception_4c/1x1
I0403 16:35:14.356556 21242 net.cpp:425] inception_4c/output <- inception_4c/3x3
I0403 16:35:14.356573 21242 net.cpp:425] inception_4c/output <- inception_4c/5x5
I0403 16:35:14.356588 21242 net.cpp:425] inception_4c/output <- inception_4c/pool_proj
I0403 16:35:14.356606 21242 net.cpp:399] inception_4c/output -> inception_4c/output
I0403 16:35:14.356654 21242 net.cpp:141] Setting up inception_4c/output
I0403 16:35:14.356678 21242 net.cpp:148] Top shape: 24 512 14 14 (2408448)
I0403 16:35:14.356693 21242 net.cpp:156] Memory required for data: 1072647456
I0403 16:35:14.356708 21242 layer_factory.hpp:77] Creating layer inception_4c/output_inception_4c/output_0_split
I0403 16:35:14.356724 21242 net.cpp:91] Creating Layer inception_4c/output_inception_4c/output_0_split
I0403 16:35:14.356740 21242 net.cpp:425] inception_4c/output_inception_4c/output_0_split <- inception_4c/output
I0403 16:35:14.356761 21242 net.cpp:399] inception_4c/output_inception_4c/output_0_split -> inception_4c/output_inception_4c/output_0_split_0
I0403 16:35:14.356782 21242 net.cpp:399] inception_4c/output_inception_4c/output_0_split -> inception_4c/output_inception_4c/output_0_split_1
I0403 16:35:14.356802 21242 net.cpp:399] inception_4c/output_inception_4c/output_0_split -> inception_4c/output_inception_4c/output_0_split_2
I0403 16:35:14.356822 21242 net.cpp:399] inception_4c/output_inception_4c/output_0_split -> inception_4c/output_inception_4c/output_0_split_3
I0403 16:35:14.356909 21242 net.cpp:141] Setting up inception_4c/output_inception_4c/output_0_split
I0403 16:35:14.356935 21242 net.cpp:148] Top shape: 24 512 14 14 (2408448)
I0403 16:35:14.356953 21242 net.cpp:148] Top shape: 24 512 14 14 (2408448)
I0403 16:35:14.356969 21242 net.cpp:148] Top shape: 24 512 14 14 (2408448)
I0403 16:35:14.356991 21242 net.cpp:148] Top shape: 24 512 14 14 (2408448)
I0403 16:35:14.357007 21242 net.cpp:156] Memory required for data: 1111182624
I0403 16:35:14.357020 21242 layer_factory.hpp:77] Creating layer inception_4d/1x1
I0403 16:35:14.357043 21242 net.cpp:91] Creating Layer inception_4d/1x1
I0403 16:35:14.357060 21242 net.cpp:425] inception_4d/1x1 <- inception_4c/output_inception_4c/output_0_split_0
I0403 16:35:14.357079 21242 net.cpp:399] inception_4d/1x1 -> inception_4d/1x1
I0403 16:35:14.358531 21242 net.cpp:141] Setting up inception_4d/1x1
I0403 16:35:14.358561 21242 net.cpp:148] Top shape: 24 112 14 14 (526848)
I0403 16:35:14.358577 21242 net.cpp:156] Memory required for data: 1113290016
I0403 16:35:14.358597 21242 layer_factory.hpp:77] Creating layer inception_4d/relu_1x1
I0403 16:35:14.358614 21242 net.cpp:91] Creating Layer inception_4d/relu_1x1
I0403 16:35:14.358630 21242 net.cpp:425] inception_4d/relu_1x1 <- inception_4d/1x1
I0403 16:35:14.358647 21242 net.cpp:386] inception_4d/relu_1x1 -> inception_4d/1x1 (in-place)
I0403 16:35:14.358839 21242 net.cpp:141] Setting up inception_4d/relu_1x1
I0403 16:35:14.358865 21242 net.cpp:148] Top shape: 24 112 14 14 (526848)
I0403 16:35:14.358880 21242 net.cpp:156] Memory required for data: 1115397408
I0403 16:35:14.358894 21242 layer_factory.hpp:77] Creating layer inception_4d/3x3_reduce
I0403 16:35:14.358930 21242 net.cpp:91] Creating Layer inception_4d/3x3_reduce
I0403 16:35:14.358949 21242 net.cpp:425] inception_4d/3x3_reduce <- inception_4c/output_inception_4c/output_0_split_1
I0403 16:35:14.358970 21242 net.cpp:399] inception_4d/3x3_reduce -> inception_4d/3x3_reduce
I0403 16:35:14.360566 21242 net.cpp:141] Setting up inception_4d/3x3_reduce
I0403 16:35:14.360594 21242 net.cpp:148] Top shape: 24 144 14 14 (677376)
I0403 16:35:14.360610 21242 net.cpp:156] Memory required for data: 1118106912
I0403 16:35:14.360627 21242 layer_factory.hpp:77] Creating layer inception_4d/relu_3x3_reduce
I0403 16:35:14.360648 21242 net.cpp:91] Creating Layer inception_4d/relu_3x3_reduce
I0403 16:35:14.360666 21242 net.cpp:425] inception_4d/relu_3x3_reduce <- inception_4d/3x3_reduce
I0403 16:35:14.360683 21242 net.cpp:386] inception_4d/relu_3x3_reduce -> inception_4d/3x3_reduce (in-place)
I0403 16:35:14.360980 21242 net.cpp:141] Setting up inception_4d/relu_3x3_reduce
I0403 16:35:14.361012 21242 net.cpp:148] Top shape: 24 144 14 14 (677376)
I0403 16:35:14.361027 21242 net.cpp:156] Memory required for data: 1120816416
I0403 16:35:14.361042 21242 layer_factory.hpp:77] Creating layer inception_4d/3x3
I0403 16:35:14.361068 21242 net.cpp:91] Creating Layer inception_4d/3x3
I0403 16:35:14.361085 21242 net.cpp:425] inception_4d/3x3 <- inception_4d/3x3_reduce
I0403 16:35:14.361107 21242 net.cpp:399] inception_4d/3x3 -> inception_4d/3x3
I0403 16:35:14.365483 21242 net.cpp:141] Setting up inception_4d/3x3
I0403 16:35:14.365515 21242 net.cpp:148] Top shape: 24 288 14 14 (1354752)
I0403 16:35:14.365531 21242 net.cpp:156] Memory required for data: 1126235424
I0403 16:35:14.365550 21242 layer_factory.hpp:77] Creating layer inception_4d/relu_3x3
I0403 16:35:14.365567 21242 net.cpp:91] Creating Layer inception_4d/relu_3x3
I0403 16:35:14.365582 21242 net.cpp:425] inception_4d/relu_3x3 <- inception_4d/3x3
I0403 16:35:14.365602 21242 net.cpp:386] inception_4d/relu_3x3 -> inception_4d/3x3 (in-place)
I0403 16:35:14.365787 21242 net.cpp:141] Setting up inception_4d/relu_3x3
I0403 16:35:14.365813 21242 net.cpp:148] Top shape: 24 288 14 14 (1354752)
I0403 16:35:14.365826 21242 net.cpp:156] Memory required for data: 1131654432
I0403 16:35:14.365841 21242 layer_factory.hpp:77] Creating layer inception_4d/5x5_reduce
I0403 16:35:14.365864 21242 net.cpp:91] Creating Layer inception_4d/5x5_reduce
I0403 16:35:14.365880 21242 net.cpp:425] inception_4d/5x5_reduce <- inception_4c/output_inception_4c/output_0_split_2
I0403 16:35:14.365900 21242 net.cpp:399] inception_4d/5x5_reduce -> inception_4d/5x5_reduce
I0403 16:35:14.367072 21242 net.cpp:141] Setting up inception_4d/5x5_reduce
I0403 16:35:14.367102 21242 net.cpp:148] Top shape: 24 32 14 14 (150528)
I0403 16:35:14.367118 21242 net.cpp:156] Memory required for data: 1132256544
I0403 16:35:14.367136 21242 layer_factory.hpp:77] Creating layer inception_4d/relu_5x5_reduce
I0403 16:35:14.367154 21242 net.cpp:91] Creating Layer inception_4d/relu_5x5_reduce
I0403 16:35:14.367169 21242 net.cpp:425] inception_4d/relu_5x5_reduce <- inception_4d/5x5_reduce
I0403 16:35:14.367187 21242 net.cpp:386] inception_4d/relu_5x5_reduce -> inception_4d/5x5_reduce (in-place)
I0403 16:35:14.367377 21242 net.cpp:141] Setting up inception_4d/relu_5x5_reduce
I0403 16:35:14.367401 21242 net.cpp:148] Top shape: 24 32 14 14 (150528)
I0403 16:35:14.367415 21242 net.cpp:156] Memory required for data: 1132858656
I0403 16:35:14.367429 21242 layer_factory.hpp:77] Creating layer inception_4d/5x5
I0403 16:35:14.367450 21242 net.cpp:91] Creating Layer inception_4d/5x5
I0403 16:35:14.367467 21242 net.cpp:425] inception_4d/5x5 <- inception_4d/5x5_reduce
I0403 16:35:14.367488 21242 net.cpp:399] inception_4d/5x5 -> inception_4d/5x5
I0403 16:35:14.368996 21242 net.cpp:141] Setting up inception_4d/5x5
I0403 16:35:14.369024 21242 net.cpp:148] Top shape: 24 64 14 14 (301056)
I0403 16:35:14.369040 21242 net.cpp:156] Memory required for data: 1134062880
I0403 16:35:14.369057 21242 layer_factory.hpp:77] Creating layer inception_4d/relu_5x5
I0403 16:35:14.369092 21242 net.cpp:91] Creating Layer inception_4d/relu_5x5
I0403 16:35:14.369109 21242 net.cpp:425] inception_4d/relu_5x5 <- inception_4d/5x5
I0403 16:35:14.369127 21242 net.cpp:386] inception_4d/relu_5x5 -> inception_4d/5x5 (in-place)
I0403 16:35:14.369429 21242 net.cpp:141] Setting up inception_4d/relu_5x5
I0403 16:35:14.369454 21242 net.cpp:148] Top shape: 24 64 14 14 (301056)
I0403 16:35:14.369469 21242 net.cpp:156] Memory required for data: 1135267104
I0403 16:35:14.369484 21242 layer_factory.hpp:77] Creating layer inception_4d/pool
I0403 16:35:14.369503 21242 net.cpp:91] Creating Layer inception_4d/pool
I0403 16:35:14.369521 21242 net.cpp:425] inception_4d/pool <- inception_4c/output_inception_4c/output_0_split_3
I0403 16:35:14.369539 21242 net.cpp:399] inception_4d/pool -> inception_4d/pool
I0403 16:35:14.369606 21242 net.cpp:141] Setting up inception_4d/pool
I0403 16:35:14.369628 21242 net.cpp:148] Top shape: 24 512 14 14 (2408448)
I0403 16:35:14.369643 21242 net.cpp:156] Memory required for data: 1144900896
I0403 16:35:14.369657 21242 layer_factory.hpp:77] Creating layer inception_4d/pool_proj
I0403 16:35:14.369678 21242 net.cpp:91] Creating Layer inception_4d/pool_proj
I0403 16:35:14.369696 21242 net.cpp:425] inception_4d/pool_proj <- inception_4d/pool
I0403 16:35:14.369716 21242 net.cpp:399] inception_4d/pool_proj -> inception_4d/pool_proj
I0403 16:35:14.371517 21242 net.cpp:141] Setting up inception_4d/pool_proj
I0403 16:35:14.371548 21242 net.cpp:148] Top shape: 24 64 14 14 (301056)
I0403 16:35:14.371564 21242 net.cpp:156] Memory required for data: 1146105120
I0403 16:35:14.371582 21242 layer_factory.hpp:77] Creating layer inception_4d/relu_pool_proj
I0403 16:35:14.371600 21242 net.cpp:91] Creating Layer inception_4d/relu_pool_proj
I0403 16:35:14.371616 21242 net.cpp:425] inception_4d/relu_pool_proj <- inception_4d/pool_proj
I0403 16:35:14.371634 21242 net.cpp:386] inception_4d/relu_pool_proj -> inception_4d/pool_proj (in-place)
I0403 16:35:14.371821 21242 net.cpp:141] Setting up inception_4d/relu_pool_proj
I0403 16:35:14.371846 21242 net.cpp:148] Top shape: 24 64 14 14 (301056)
I0403 16:35:14.371860 21242 net.cpp:156] Memory required for data: 1147309344
I0403 16:35:14.371873 21242 layer_factory.hpp:77] Creating layer inception_4d/output
I0403 16:35:14.371891 21242 net.cpp:91] Creating Layer inception_4d/output
I0403 16:35:14.371906 21242 net.cpp:425] inception_4d/output <- inception_4d/1x1
I0403 16:35:14.371922 21242 net.cpp:425] inception_4d/output <- inception_4d/3x3
I0403 16:35:14.371937 21242 net.cpp:425] inception_4d/output <- inception_4d/5x5
I0403 16:35:14.371953 21242 net.cpp:425] inception_4d/output <- inception_4d/pool_proj
I0403 16:35:14.371971 21242 net.cpp:399] inception_4d/output -> inception_4d/output
I0403 16:35:14.372025 21242 net.cpp:141] Setting up inception_4d/output
I0403 16:35:14.372051 21242 net.cpp:148] Top shape: 24 528 14 14 (2483712)
I0403 16:35:14.372066 21242 net.cpp:156] Memory required for data: 1157244192
I0403 16:35:14.372081 21242 layer_factory.hpp:77] Creating layer inception_4d/output_inception_4d/output_0_split
I0403 16:35:14.372097 21242 net.cpp:91] Creating Layer inception_4d/output_inception_4d/output_0_split
I0403 16:35:14.372113 21242 net.cpp:425] inception_4d/output_inception_4d/output_0_split <- inception_4d/output
I0403 16:35:14.372130 21242 net.cpp:399] inception_4d/output_inception_4d/output_0_split -> inception_4d/output_inception_4d/output_0_split_0
I0403 16:35:14.372155 21242 net.cpp:399] inception_4d/output_inception_4d/output_0_split -> inception_4d/output_inception_4d/output_0_split_1
I0403 16:35:14.372176 21242 net.cpp:399] inception_4d/output_inception_4d/output_0_split -> inception_4d/output_inception_4d/output_0_split_2
I0403 16:35:14.372196 21242 net.cpp:399] inception_4d/output_inception_4d/output_0_split -> inception_4d/output_inception_4d/output_0_split_3
I0403 16:35:14.372215 21242 net.cpp:399] inception_4d/output_inception_4d/output_0_split -> inception_4d/output_inception_4d/output_0_split_4
I0403 16:35:14.372318 21242 net.cpp:141] Setting up inception_4d/output_inception_4d/output_0_split
I0403 16:35:14.372356 21242 net.cpp:148] Top shape: 24 528 14 14 (2483712)
I0403 16:35:14.372375 21242 net.cpp:148] Top shape: 24 528 14 14 (2483712)
I0403 16:35:14.372390 21242 net.cpp:148] Top shape: 24 528 14 14 (2483712)
I0403 16:35:14.372405 21242 net.cpp:148] Top shape: 24 528 14 14 (2483712)
I0403 16:35:14.372419 21242 net.cpp:148] Top shape: 24 528 14 14 (2483712)
I0403 16:35:14.372432 21242 net.cpp:156] Memory required for data: 1206918432
I0403 16:35:14.372447 21242 layer_factory.hpp:77] Creating layer loss2/ave_pool
I0403 16:35:14.372463 21242 net.cpp:91] Creating Layer loss2/ave_pool
I0403 16:35:14.372479 21242 net.cpp:425] loss2/ave_pool <- inception_4d/output_inception_4d/output_0_split_0
I0403 16:35:14.372498 21242 net.cpp:399] loss2/ave_pool -> loss2/ave_pool
I0403 16:35:14.372812 21242 net.cpp:141] Setting up loss2/ave_pool
I0403 16:35:14.372840 21242 net.cpp:148] Top shape: 24 528 4 4 (202752)
I0403 16:35:14.372855 21242 net.cpp:156] Memory required for data: 1207729440
I0403 16:35:14.372870 21242 layer_factory.hpp:77] Creating layer loss2/conv
I0403 16:35:14.372892 21242 net.cpp:91] Creating Layer loss2/conv
I0403 16:35:14.372910 21242 net.cpp:425] loss2/conv <- loss2/ave_pool
I0403 16:35:14.372930 21242 net.cpp:399] loss2/conv -> loss2/conv
I0403 16:35:14.374835 21242 net.cpp:141] Setting up loss2/conv
I0403 16:35:14.374863 21242 net.cpp:148] Top shape: 24 128 4 4 (49152)
I0403 16:35:14.374879 21242 net.cpp:156] Memory required for data: 1207926048
I0403 16:35:14.374898 21242 layer_factory.hpp:77] Creating layer loss2/relu_conv
I0403 16:35:14.374918 21242 net.cpp:91] Creating Layer loss2/relu_conv
I0403 16:35:14.374934 21242 net.cpp:425] loss2/relu_conv <- loss2/conv
I0403 16:35:14.374953 21242 net.cpp:386] loss2/relu_conv -> loss2/conv (in-place)
I0403 16:35:14.375247 21242 net.cpp:141] Setting up loss2/relu_conv
I0403 16:35:14.375273 21242 net.cpp:148] Top shape: 24 128 4 4 (49152)
I0403 16:35:14.375288 21242 net.cpp:156] Memory required for data: 1208122656
I0403 16:35:14.375303 21242 layer_factory.hpp:77] Creating layer loss2/fc
I0403 16:35:14.375324 21242 net.cpp:91] Creating Layer loss2/fc
I0403 16:35:14.375341 21242 net.cpp:425] loss2/fc <- loss2/conv
I0403 16:35:14.375360 21242 net.cpp:399] loss2/fc -> loss2/fc
I0403 16:35:14.393054 21242 net.cpp:141] Setting up loss2/fc
I0403 16:35:14.393107 21242 net.cpp:148] Top shape: 24 1024 (24576)
I0403 16:35:14.393122 21242 net.cpp:156] Memory required for data: 1208220960
I0403 16:35:14.393141 21242 layer_factory.hpp:77] Creating layer loss2/relu_fc
I0403 16:35:14.393159 21242 net.cpp:91] Creating Layer loss2/relu_fc
I0403 16:35:14.393177 21242 net.cpp:425] loss2/relu_fc <- loss2/fc
I0403 16:35:14.393195 21242 net.cpp:386] loss2/relu_fc -> loss2/fc (in-place)
I0403 16:35:14.393524 21242 net.cpp:141] Setting up loss2/relu_fc
I0403 16:35:14.393549 21242 net.cpp:148] Top shape: 24 1024 (24576)
I0403 16:35:14.393563 21242 net.cpp:156] Memory required for data: 1208319264
I0403 16:35:14.393579 21242 layer_factory.hpp:77] Creating layer loss2/drop_fc
I0403 16:35:14.393597 21242 net.cpp:91] Creating Layer loss2/drop_fc
I0403 16:35:14.393612 21242 net.cpp:425] loss2/drop_fc <- loss2/fc
I0403 16:35:14.393630 21242 net.cpp:386] loss2/drop_fc -> loss2/fc (in-place)
I0403 16:35:14.393681 21242 net.cpp:141] Setting up loss2/drop_fc
I0403 16:35:14.393702 21242 net.cpp:148] Top shape: 24 1024 (24576)
I0403 16:35:14.393717 21242 net.cpp:156] Memory required for data: 1208417568
I0403 16:35:14.393729 21242 layer_factory.hpp:77] Creating layer loss2/classifier_plantvillage
I0403 16:35:14.393750 21242 net.cpp:91] Creating Layer loss2/classifier_plantvillage
I0403 16:35:14.393766 21242 net.cpp:425] loss2/classifier_plantvillage <- loss2/fc
I0403 16:35:14.393787 21242 net.cpp:399] loss2/classifier_plantvillage -> loss2/classifier_plantvillage
I0403 16:35:14.394201 21242 net.cpp:141] Setting up loss2/classifier_plantvillage
I0403 16:35:14.394224 21242 net.cpp:148] Top shape: 24 38 (912)
I0403 16:35:14.394238 21242 net.cpp:156] Memory required for data: 1208421216
I0403 16:35:14.394278 21242 layer_factory.hpp:77] Creating layer loss2/classifier_plantvillage_loss2/classifier_plantvillage_0_split
I0403 16:35:14.394295 21242 net.cpp:91] Creating Layer loss2/classifier_plantvillage_loss2/classifier_plantvillage_0_split
I0403 16:35:14.394311 21242 net.cpp:425] loss2/classifier_plantvillage_loss2/classifier_plantvillage_0_split <- loss2/classifier_plantvillage
I0403 16:35:14.394337 21242 net.cpp:399] loss2/classifier_plantvillage_loss2/classifier_plantvillage_0_split -> loss2/classifier_plantvillage_loss2/classifier_plantvillage_0_split_0
I0403 16:35:14.394356 21242 net.cpp:399] loss2/classifier_plantvillage_loss2/classifier_plantvillage_0_split -> loss2/classifier_plantvillage_loss2/classifier_plantvillage_0_split_1
I0403 16:35:14.394376 21242 net.cpp:399] loss2/classifier_plantvillage_loss2/classifier_plantvillage_0_split -> loss2/classifier_plantvillage_loss2/classifier_plantvillage_0_split_2
I0403 16:35:14.394451 21242 net.cpp:141] Setting up loss2/classifier_plantvillage_loss2/classifier_plantvillage_0_split
I0403 16:35:14.394474 21242 net.cpp:148] Top shape: 24 38 (912)
I0403 16:35:14.394490 21242 net.cpp:148] Top shape: 24 38 (912)
I0403 16:35:14.394503 21242 net.cpp:148] Top shape: 24 38 (912)
I0403 16:35:14.394517 21242 net.cpp:156] Memory required for data: 1208432160
I0403 16:35:14.394531 21242 layer_factory.hpp:77] Creating layer inception_4e/1x1
I0403 16:35:14.394556 21242 net.cpp:91] Creating Layer inception_4e/1x1
I0403 16:35:14.394572 21242 net.cpp:425] inception_4e/1x1 <- inception_4d/output_inception_4d/output_0_split_1
I0403 16:35:14.394590 21242 net.cpp:399] inception_4e/1x1 -> inception_4e/1x1
I0403 16:35:14.396399 21242 net.cpp:141] Setting up inception_4e/1x1
I0403 16:35:14.396425 21242 net.cpp:148] Top shape: 24 256 14 14 (1204224)
I0403 16:35:14.396440 21242 net.cpp:156] Memory required for data: 1213249056
I0403 16:35:14.396456 21242 layer_factory.hpp:77] Creating layer inception_4e/relu_1x1
I0403 16:35:14.396476 21242 net.cpp:91] Creating Layer inception_4e/relu_1x1
I0403 16:35:14.396492 21242 net.cpp:425] inception_4e/relu_1x1 <- inception_4e/1x1
I0403 16:35:14.396507 21242 net.cpp:386] inception_4e/relu_1x1 -> inception_4e/1x1 (in-place)
I0403 16:35:14.396802 21242 net.cpp:141] Setting up inception_4e/relu_1x1
I0403 16:35:14.396826 21242 net.cpp:148] Top shape: 24 256 14 14 (1204224)
I0403 16:35:14.396842 21242 net.cpp:156] Memory required for data: 1218065952
I0403 16:35:14.396857 21242 layer_factory.hpp:77] Creating layer inception_4e/3x3_reduce
I0403 16:35:14.396878 21242 net.cpp:91] Creating Layer inception_4e/3x3_reduce
I0403 16:35:14.396894 21242 net.cpp:425] inception_4e/3x3_reduce <- inception_4d/output_inception_4d/output_0_split_2
I0403 16:35:14.396914 21242 net.cpp:399] inception_4e/3x3_reduce -> inception_4e/3x3_reduce
I0403 16:35:14.399104 21242 net.cpp:141] Setting up inception_4e/3x3_reduce
I0403 16:35:14.399132 21242 net.cpp:148] Top shape: 24 160 14 14 (752640)
I0403 16:35:14.399148 21242 net.cpp:156] Memory required for data: 1221076512
I0403 16:35:14.399166 21242 layer_factory.hpp:77] Creating layer inception_4e/relu_3x3_reduce
I0403 16:35:14.399184 21242 net.cpp:91] Creating Layer inception_4e/relu_3x3_reduce
I0403 16:35:14.399200 21242 net.cpp:425] inception_4e/relu_3x3_reduce <- inception_4e/3x3_reduce
I0403 16:35:14.399219 21242 net.cpp:386] inception_4e/relu_3x3_reduce -> inception_4e/3x3_reduce (in-place)
I0403 16:35:14.399408 21242 net.cpp:141] Setting up inception_4e/relu_3x3_reduce
I0403 16:35:14.399432 21242 net.cpp:148] Top shape: 24 160 14 14 (752640)
I0403 16:35:14.399447 21242 net.cpp:156] Memory required for data: 1224087072
I0403 16:35:14.399461 21242 layer_factory.hpp:77] Creating layer inception_4e/3x3
I0403 16:35:14.399483 21242 net.cpp:91] Creating Layer inception_4e/3x3
I0403 16:35:14.399500 21242 net.cpp:425] inception_4e/3x3 <- inception_4e/3x3_reduce
I0403 16:35:14.399523 21242 net.cpp:399] inception_4e/3x3 -> inception_4e/3x3
I0403 16:35:14.404649 21242 net.cpp:141] Setting up inception_4e/3x3
I0403 16:35:14.404690 21242 net.cpp:148] Top shape: 24 320 14 14 (1505280)
I0403 16:35:14.404706 21242 net.cpp:156] Memory required for data: 1230108192
I0403 16:35:14.404723 21242 layer_factory.hpp:77] Creating layer inception_4e/relu_3x3
I0403 16:35:14.404743 21242 net.cpp:91] Creating Layer inception_4e/relu_3x3
I0403 16:35:14.404760 21242 net.cpp:425] inception_4e/relu_3x3 <- inception_4e/3x3
I0403 16:35:14.404778 21242 net.cpp:386] inception_4e/relu_3x3 -> inception_4e/3x3 (in-place)
I0403 16:35:14.405100 21242 net.cpp:141] Setting up inception_4e/relu_3x3
I0403 16:35:14.405133 21242 net.cpp:148] Top shape: 24 320 14 14 (1505280)
I0403 16:35:14.405149 21242 net.cpp:156] Memory required for data: 1236129312
I0403 16:35:14.405164 21242 layer_factory.hpp:77] Creating layer inception_4e/5x5_reduce
I0403 16:35:14.405189 21242 net.cpp:91] Creating Layer inception_4e/5x5_reduce
I0403 16:35:14.405206 21242 net.cpp:425] inception_4e/5x5_reduce <- inception_4d/output_inception_4d/output_0_split_3
I0403 16:35:14.405226 21242 net.cpp:399] inception_4e/5x5_reduce -> inception_4e/5x5_reduce
I0403 16:35:14.406328 21242 net.cpp:141] Setting up inception_4e/5x5_reduce
I0403 16:35:14.406355 21242 net.cpp:148] Top shape: 24 32 14 14 (150528)
I0403 16:35:14.406370 21242 net.cpp:156] Memory required for data: 1236731424
I0403 16:35:14.406388 21242 layer_factory.hpp:77] Creating layer inception_4e/relu_5x5_reduce
I0403 16:35:14.406409 21242 net.cpp:91] Creating Layer inception_4e/relu_5x5_reduce
I0403 16:35:14.406425 21242 net.cpp:425] inception_4e/relu_5x5_reduce <- inception_4e/5x5_reduce
I0403 16:35:14.406442 21242 net.cpp:386] inception_4e/relu_5x5_reduce -> inception_4e/5x5_reduce (in-place)
I0403 16:35:14.406743 21242 net.cpp:141] Setting up inception_4e/relu_5x5_reduce
I0403 16:35:14.406767 21242 net.cpp:148] Top shape: 24 32 14 14 (150528)
I0403 16:35:14.406782 21242 net.cpp:156] Memory required for data: 1237333536
I0403 16:35:14.406797 21242 layer_factory.hpp:77] Creating layer inception_4e/5x5
I0403 16:35:14.406836 21242 net.cpp:91] Creating Layer inception_4e/5x5
I0403 16:35:14.406855 21242 net.cpp:425] inception_4e/5x5 <- inception_4e/5x5_reduce
I0403 16:35:14.406874 21242 net.cpp:399] inception_4e/5x5 -> inception_4e/5x5
I0403 16:35:14.408745 21242 net.cpp:141] Setting up inception_4e/5x5
I0403 16:35:14.408774 21242 net.cpp:148] Top shape: 24 128 14 14 (602112)
I0403 16:35:14.408789 21242 net.cpp:156] Memory required for data: 1239741984
I0403 16:35:14.408808 21242 layer_factory.hpp:77] Creating layer inception_4e/relu_5x5
I0403 16:35:14.408826 21242 net.cpp:91] Creating Layer inception_4e/relu_5x5
I0403 16:35:14.408843 21242 net.cpp:425] inception_4e/relu_5x5 <- inception_4e/5x5
I0403 16:35:14.408862 21242 net.cpp:386] inception_4e/relu_5x5 -> inception_4e/5x5 (in-place)
I0403 16:35:14.409067 21242 net.cpp:141] Setting up inception_4e/relu_5x5
I0403 16:35:14.409092 21242 net.cpp:148] Top shape: 24 128 14 14 (602112)
I0403 16:35:14.409107 21242 net.cpp:156] Memory required for data: 1242150432
I0403 16:35:14.409122 21242 layer_factory.hpp:77] Creating layer inception_4e/pool
I0403 16:35:14.409139 21242 net.cpp:91] Creating Layer inception_4e/pool
I0403 16:35:14.409155 21242 net.cpp:425] inception_4e/pool <- inception_4d/output_inception_4d/output_0_split_4
I0403 16:35:14.409175 21242 net.cpp:399] inception_4e/pool -> inception_4e/pool
I0403 16:35:14.409247 21242 net.cpp:141] Setting up inception_4e/pool
I0403 16:35:14.409271 21242 net.cpp:148] Top shape: 24 528 14 14 (2483712)
I0403 16:35:14.409284 21242 net.cpp:156] Memory required for data: 1252085280
I0403 16:35:14.409298 21242 layer_factory.hpp:77] Creating layer inception_4e/pool_proj
I0403 16:35:14.409322 21242 net.cpp:91] Creating Layer inception_4e/pool_proj
I0403 16:35:14.409338 21242 net.cpp:425] inception_4e/pool_proj <- inception_4e/pool
I0403 16:35:14.409359 21242 net.cpp:399] inception_4e/pool_proj -> inception_4e/pool_proj
I0403 16:35:14.410884 21242 net.cpp:141] Setting up inception_4e/pool_proj
I0403 16:35:14.410913 21242 net.cpp:148] Top shape: 24 128 14 14 (602112)
I0403 16:35:14.410943 21242 net.cpp:156] Memory required for data: 1254493728
I0403 16:35:14.410962 21242 layer_factory.hpp:77] Creating layer inception_4e/relu_pool_proj
I0403 16:35:14.410980 21242 net.cpp:91] Creating Layer inception_4e/relu_pool_proj
I0403 16:35:14.411005 21242 net.cpp:425] inception_4e/relu_pool_proj <- inception_4e/pool_proj
I0403 16:35:14.411025 21242 net.cpp:386] inception_4e/relu_pool_proj -> inception_4e/pool_proj (in-place)
I0403 16:35:14.411319 21242 net.cpp:141] Setting up inception_4e/relu_pool_proj
I0403 16:35:14.411346 21242 net.cpp:148] Top shape: 24 128 14 14 (602112)
I0403 16:35:14.411362 21242 net.cpp:156] Memory required for data: 1256902176
I0403 16:35:14.411376 21242 layer_factory.hpp:77] Creating layer inception_4e/output
I0403 16:35:14.411394 21242 net.cpp:91] Creating Layer inception_4e/output
I0403 16:35:14.411409 21242 net.cpp:425] inception_4e/output <- inception_4e/1x1
I0403 16:35:14.411425 21242 net.cpp:425] inception_4e/output <- inception_4e/3x3
I0403 16:35:14.411440 21242 net.cpp:425] inception_4e/output <- inception_4e/5x5
I0403 16:35:14.411455 21242 net.cpp:425] inception_4e/output <- inception_4e/pool_proj
I0403 16:35:14.411474 21242 net.cpp:399] inception_4e/output -> inception_4e/output
I0403 16:35:14.411523 21242 net.cpp:141] Setting up inception_4e/output
I0403 16:35:14.411546 21242 net.cpp:148] Top shape: 24 832 14 14 (3913728)
I0403 16:35:14.411561 21242 net.cpp:156] Memory required for data: 1272557088
I0403 16:35:14.411574 21242 layer_factory.hpp:77] Creating layer pool4/3x3_s2
I0403 16:35:14.411594 21242 net.cpp:91] Creating Layer pool4/3x3_s2
I0403 16:35:14.411610 21242 net.cpp:425] pool4/3x3_s2 <- inception_4e/output
I0403 16:35:14.411628 21242 net.cpp:399] pool4/3x3_s2 -> pool4/3x3_s2
I0403 16:35:14.411695 21242 net.cpp:141] Setting up pool4/3x3_s2
I0403 16:35:14.411718 21242 net.cpp:148] Top shape: 24 832 7 7 (978432)
I0403 16:35:14.411732 21242 net.cpp:156] Memory required for data: 1276470816
I0403 16:35:14.411746 21242 layer_factory.hpp:77] Creating layer pool4/3x3_s2_pool4/3x3_s2_0_split
I0403 16:35:14.411763 21242 net.cpp:91] Creating Layer pool4/3x3_s2_pool4/3x3_s2_0_split
I0403 16:35:14.411778 21242 net.cpp:425] pool4/3x3_s2_pool4/3x3_s2_0_split <- pool4/3x3_s2
I0403 16:35:14.411798 21242 net.cpp:399] pool4/3x3_s2_pool4/3x3_s2_0_split -> pool4/3x3_s2_pool4/3x3_s2_0_split_0
I0403 16:35:14.411818 21242 net.cpp:399] pool4/3x3_s2_pool4/3x3_s2_0_split -> pool4/3x3_s2_pool4/3x3_s2_0_split_1
I0403 16:35:14.411836 21242 net.cpp:399] pool4/3x3_s2_pool4/3x3_s2_0_split -> pool4/3x3_s2_pool4/3x3_s2_0_split_2
I0403 16:35:14.411856 21242 net.cpp:399] pool4/3x3_s2_pool4/3x3_s2_0_split -> pool4/3x3_s2_pool4/3x3_s2_0_split_3
I0403 16:35:14.411955 21242 net.cpp:141] Setting up pool4/3x3_s2_pool4/3x3_s2_0_split
I0403 16:35:14.411980 21242 net.cpp:148] Top shape: 24 832 7 7 (978432)
I0403 16:35:14.412001 21242 net.cpp:148] Top shape: 24 832 7 7 (978432)
I0403 16:35:14.412017 21242 net.cpp:148] Top shape: 24 832 7 7 (978432)
I0403 16:35:14.412032 21242 net.cpp:148] Top shape: 24 832 7 7 (978432)
I0403 16:35:14.412045 21242 net.cpp:156] Memory required for data: 1292125728
I0403 16:35:14.412060 21242 layer_factory.hpp:77] Creating layer inception_5a/1x1
I0403 16:35:14.412081 21242 net.cpp:91] Creating Layer inception_5a/1x1
I0403 16:35:14.412098 21242 net.cpp:425] inception_5a/1x1 <- pool4/3x3_s2_pool4/3x3_s2_0_split_0
I0403 16:35:14.412118 21242 net.cpp:399] inception_5a/1x1 -> inception_5a/1x1
I0403 16:35:14.415024 21242 net.cpp:141] Setting up inception_5a/1x1
I0403 16:35:14.415053 21242 net.cpp:148] Top shape: 24 256 7 7 (301056)
I0403 16:35:14.415068 21242 net.cpp:156] Memory required for data: 1293329952
I0403 16:35:14.415087 21242 layer_factory.hpp:77] Creating layer inception_5a/relu_1x1
I0403 16:35:14.415104 21242 net.cpp:91] Creating Layer inception_5a/relu_1x1
I0403 16:35:14.415119 21242 net.cpp:425] inception_5a/relu_1x1 <- inception_5a/1x1
I0403 16:35:14.415139 21242 net.cpp:386] inception_5a/relu_1x1 -> inception_5a/1x1 (in-place)
I0403 16:35:14.415463 21242 net.cpp:141] Setting up inception_5a/relu_1x1
I0403 16:35:14.415488 21242 net.cpp:148] Top shape: 24 256 7 7 (301056)
I0403 16:35:14.415503 21242 net.cpp:156] Memory required for data: 1294534176
I0403 16:35:14.415516 21242 layer_factory.hpp:77] Creating layer inception_5a/3x3_reduce
I0403 16:35:14.415539 21242 net.cpp:91] Creating Layer inception_5a/3x3_reduce
I0403 16:35:14.415555 21242 net.cpp:425] inception_5a/3x3_reduce <- pool4/3x3_s2_pool4/3x3_s2_0_split_1
I0403 16:35:14.415576 21242 net.cpp:399] inception_5a/3x3_reduce -> inception_5a/3x3_reduce
I0403 16:35:14.417973 21242 net.cpp:141] Setting up inception_5a/3x3_reduce
I0403 16:35:14.418014 21242 net.cpp:148] Top shape: 24 160 7 7 (188160)
I0403 16:35:14.418030 21242 net.cpp:156] Memory required for data: 1295286816
I0403 16:35:14.418048 21242 layer_factory.hpp:77] Creating layer inception_5a/relu_3x3_reduce
I0403 16:35:14.418067 21242 net.cpp:91] Creating Layer inception_5a/relu_3x3_reduce
I0403 16:35:14.418083 21242 net.cpp:425] inception_5a/relu_3x3_reduce <- inception_5a/3x3_reduce
I0403 16:35:14.418100 21242 net.cpp:386] inception_5a/relu_3x3_reduce -> inception_5a/3x3_reduce (in-place)
I0403 16:35:14.418285 21242 net.cpp:141] Setting up inception_5a/relu_3x3_reduce
I0403 16:35:14.418309 21242 net.cpp:148] Top shape: 24 160 7 7 (188160)
I0403 16:35:14.418323 21242 net.cpp:156] Memory required for data: 1296039456
I0403 16:35:14.418337 21242 layer_factory.hpp:77] Creating layer inception_5a/3x3
I0403 16:35:14.418359 21242 net.cpp:91] Creating Layer inception_5a/3x3
I0403 16:35:14.418376 21242 net.cpp:425] inception_5a/3x3 <- inception_5a/3x3_reduce
I0403 16:35:14.418396 21242 net.cpp:399] inception_5a/3x3 -> inception_5a/3x3
I0403 16:35:14.423305 21242 net.cpp:141] Setting up inception_5a/3x3
I0403 16:35:14.423339 21242 net.cpp:148] Top shape: 24 320 7 7 (376320)
I0403 16:35:14.423355 21242 net.cpp:156] Memory required for data: 1297544736
I0403 16:35:14.423373 21242 layer_factory.hpp:77] Creating layer inception_5a/relu_3x3
I0403 16:35:14.423389 21242 net.cpp:91] Creating Layer inception_5a/relu_3x3
I0403 16:35:14.423404 21242 net.cpp:425] inception_5a/relu_3x3 <- inception_5a/3x3
I0403 16:35:14.423424 21242 net.cpp:386] inception_5a/relu_3x3 -> inception_5a/3x3 (in-place)
I0403 16:35:14.423712 21242 net.cpp:141] Setting up inception_5a/relu_3x3
I0403 16:35:14.423739 21242 net.cpp:148] Top shape: 24 320 7 7 (376320)
I0403 16:35:14.423754 21242 net.cpp:156] Memory required for data: 1299050016
I0403 16:35:14.423768 21242 layer_factory.hpp:77] Creating layer inception_5a/5x5_reduce
I0403 16:35:14.423790 21242 net.cpp:91] Creating Layer inception_5a/5x5_reduce
I0403 16:35:14.423807 21242 net.cpp:425] inception_5a/5x5_reduce <- pool4/3x3_s2_pool4/3x3_s2_0_split_2
I0403 16:35:14.423827 21242 net.cpp:399] inception_5a/5x5_reduce -> inception_5a/5x5_reduce
I0403 16:35:14.424998 21242 net.cpp:141] Setting up inception_5a/5x5_reduce
I0403 16:35:14.425024 21242 net.cpp:148] Top shape: 24 32 7 7 (37632)
I0403 16:35:14.425040 21242 net.cpp:156] Memory required for data: 1299200544
I0403 16:35:14.425056 21242 layer_factory.hpp:77] Creating layer inception_5a/relu_5x5_reduce
I0403 16:35:14.425073 21242 net.cpp:91] Creating Layer inception_5a/relu_5x5_reduce
I0403 16:35:14.425088 21242 net.cpp:425] inception_5a/relu_5x5_reduce <- inception_5a/5x5_reduce
I0403 16:35:14.425107 21242 net.cpp:386] inception_5a/relu_5x5_reduce -> inception_5a/5x5_reduce (in-place)
I0403 16:35:14.425415 21242 net.cpp:141] Setting up inception_5a/relu_5x5_reduce
I0403 16:35:14.425438 21242 net.cpp:148] Top shape: 24 32 7 7 (37632)
I0403 16:35:14.425453 21242 net.cpp:156] Memory required for data: 1299351072
I0403 16:35:14.425467 21242 layer_factory.hpp:77] Creating layer inception_5a/5x5
I0403 16:35:14.425488 21242 net.cpp:91] Creating Layer inception_5a/5x5
I0403 16:35:14.425505 21242 net.cpp:425] inception_5a/5x5 <- inception_5a/5x5_reduce
I0403 16:35:14.425525 21242 net.cpp:399] inception_5a/5x5 -> inception_5a/5x5
I0403 16:35:14.427220 21242 net.cpp:141] Setting up inception_5a/5x5
I0403 16:35:14.427260 21242 net.cpp:148] Top shape: 24 128 7 7 (150528)
I0403 16:35:14.427275 21242 net.cpp:156] Memory required for data: 1299953184
I0403 16:35:14.427294 21242 layer_factory.hpp:77] Creating layer inception_5a/relu_5x5
I0403 16:35:14.427310 21242 net.cpp:91] Creating Layer inception_5a/relu_5x5
I0403 16:35:14.427325 21242 net.cpp:425] inception_5a/relu_5x5 <- inception_5a/5x5
I0403 16:35:14.427345 21242 net.cpp:386] inception_5a/relu_5x5 -> inception_5a/5x5 (in-place)
I0403 16:35:14.427533 21242 net.cpp:141] Setting up inception_5a/relu_5x5
I0403 16:35:14.427557 21242 net.cpp:148] Top shape: 24 128 7 7 (150528)
I0403 16:35:14.427570 21242 net.cpp:156] Memory required for data: 1300555296
I0403 16:35:14.427584 21242 layer_factory.hpp:77] Creating layer inception_5a/pool
I0403 16:35:14.427602 21242 net.cpp:91] Creating Layer inception_5a/pool
I0403 16:35:14.427618 21242 net.cpp:425] inception_5a/pool <- pool4/3x3_s2_pool4/3x3_s2_0_split_3
I0403 16:35:14.427636 21242 net.cpp:399] inception_5a/pool -> inception_5a/pool
I0403 16:35:14.427707 21242 net.cpp:141] Setting up inception_5a/pool
I0403 16:35:14.427729 21242 net.cpp:148] Top shape: 24 832 7 7 (978432)
I0403 16:35:14.427743 21242 net.cpp:156] Memory required for data: 1304469024
I0403 16:35:14.427757 21242 layer_factory.hpp:77] Creating layer inception_5a/pool_proj
I0403 16:35:14.427778 21242 net.cpp:91] Creating Layer inception_5a/pool_proj
I0403 16:35:14.427793 21242 net.cpp:425] inception_5a/pool_proj <- inception_5a/pool
I0403 16:35:14.427814 21242 net.cpp:399] inception_5a/pool_proj -> inception_5a/pool_proj
I0403 16:35:14.430097 21242 net.cpp:141] Setting up inception_5a/pool_proj
I0403 16:35:14.430127 21242 net.cpp:148] Top shape: 24 128 7 7 (150528)
I0403 16:35:14.430142 21242 net.cpp:156] Memory required for data: 1305071136
I0403 16:35:14.430160 21242 layer_factory.hpp:77] Creating layer inception_5a/relu_pool_proj
I0403 16:35:14.430177 21242 net.cpp:91] Creating Layer inception_5a/relu_pool_proj
I0403 16:35:14.430193 21242 net.cpp:425] inception_5a/relu_pool_proj <- inception_5a/pool_proj
I0403 16:35:14.430212 21242 net.cpp:386] inception_5a/relu_pool_proj -> inception_5a/pool_proj (in-place)
I0403 16:35:14.430503 21242 net.cpp:141] Setting up inception_5a/relu_pool_proj
I0403 16:35:14.430531 21242 net.cpp:148] Top shape: 24 128 7 7 (150528)
I0403 16:35:14.430546 21242 net.cpp:156] Memory required for data: 1305673248
I0403 16:35:14.430562 21242 layer_factory.hpp:77] Creating layer inception_5a/output
I0403 16:35:14.430578 21242 net.cpp:91] Creating Layer inception_5a/output
I0403 16:35:14.430593 21242 net.cpp:425] inception_5a/output <- inception_5a/1x1
I0403 16:35:14.430609 21242 net.cpp:425] inception_5a/output <- inception_5a/3x3
I0403 16:35:14.430624 21242 net.cpp:425] inception_5a/output <- inception_5a/5x5
I0403 16:35:14.430639 21242 net.cpp:425] inception_5a/output <- inception_5a/pool_proj
I0403 16:35:14.430655 21242 net.cpp:399] inception_5a/output -> inception_5a/output
I0403 16:35:14.430706 21242 net.cpp:141] Setting up inception_5a/output
I0403 16:35:14.430727 21242 net.cpp:148] Top shape: 24 832 7 7 (978432)
I0403 16:35:14.430742 21242 net.cpp:156] Memory required for data: 1309586976
I0403 16:35:14.430755 21242 layer_factory.hpp:77] Creating layer inception_5a/output_inception_5a/output_0_split
I0403 16:35:14.430773 21242 net.cpp:91] Creating Layer inception_5a/output_inception_5a/output_0_split
I0403 16:35:14.430789 21242 net.cpp:425] inception_5a/output_inception_5a/output_0_split <- inception_5a/output
I0403 16:35:14.430806 21242 net.cpp:399] inception_5a/output_inception_5a/output_0_split -> inception_5a/output_inception_5a/output_0_split_0
I0403 16:35:14.430825 21242 net.cpp:399] inception_5a/output_inception_5a/output_0_split -> inception_5a/output_inception_5a/output_0_split_1
I0403 16:35:14.430845 21242 net.cpp:399] inception_5a/output_inception_5a/output_0_split -> inception_5a/output_inception_5a/output_0_split_2
I0403 16:35:14.430866 21242 net.cpp:399] inception_5a/output_inception_5a/output_0_split -> inception_5a/output_inception_5a/output_0_split_3
I0403 16:35:14.430977 21242 net.cpp:141] Setting up inception_5a/output_inception_5a/output_0_split
I0403 16:35:14.431006 21242 net.cpp:148] Top shape: 24 832 7 7 (978432)
I0403 16:35:14.431022 21242 net.cpp:148] Top shape: 24 832 7 7 (978432)
I0403 16:35:14.431037 21242 net.cpp:148] Top shape: 24 832 7 7 (978432)
I0403 16:35:14.431052 21242 net.cpp:148] Top shape: 24 832 7 7 (978432)
I0403 16:35:14.431064 21242 net.cpp:156] Memory required for data: 1325241888
I0403 16:35:14.431078 21242 layer_factory.hpp:77] Creating layer inception_5b/1x1
I0403 16:35:14.431099 21242 net.cpp:91] Creating Layer inception_5b/1x1
I0403 16:35:14.431116 21242 net.cpp:425] inception_5b/1x1 <- inception_5a/output_inception_5a/output_0_split_0
I0403 16:35:14.431135 21242 net.cpp:399] inception_5b/1x1 -> inception_5b/1x1
I0403 16:35:14.434818 21242 net.cpp:141] Setting up inception_5b/1x1
I0403 16:35:14.434845 21242 net.cpp:148] Top shape: 24 384 7 7 (451584)
I0403 16:35:14.434860 21242 net.cpp:156] Memory required for data: 1327048224
I0403 16:35:14.434878 21242 layer_factory.hpp:77] Creating layer inception_5b/relu_1x1
I0403 16:35:14.434898 21242 net.cpp:91] Creating Layer inception_5b/relu_1x1
I0403 16:35:14.434914 21242 net.cpp:425] inception_5b/relu_1x1 <- inception_5b/1x1
I0403 16:35:14.434931 21242 net.cpp:386] inception_5b/relu_1x1 -> inception_5b/1x1 (in-place)
I0403 16:35:14.435236 21242 net.cpp:141] Setting up inception_5b/relu_1x1
I0403 16:35:14.435261 21242 net.cpp:148] Top shape: 24 384 7 7 (451584)
I0403 16:35:14.435276 21242 net.cpp:156] Memory required for data: 1328854560
I0403 16:35:14.435291 21242 layer_factory.hpp:77] Creating layer inception_5b/3x3_reduce
I0403 16:35:14.435312 21242 net.cpp:91] Creating Layer inception_5b/3x3_reduce
I0403 16:35:14.435330 21242 net.cpp:425] inception_5b/3x3_reduce <- inception_5a/output_inception_5a/output_0_split_1
I0403 16:35:14.435348 21242 net.cpp:399] inception_5b/3x3_reduce -> inception_5b/3x3_reduce
I0403 16:35:14.437952 21242 net.cpp:141] Setting up inception_5b/3x3_reduce
I0403 16:35:14.437981 21242 net.cpp:148] Top shape: 24 192 7 7 (225792)
I0403 16:35:14.438009 21242 net.cpp:156] Memory required for data: 1329757728
I0403 16:35:14.438032 21242 layer_factory.hpp:77] Creating layer inception_5b/relu_3x3_reduce
I0403 16:35:14.438053 21242 net.cpp:91] Creating Layer inception_5b/relu_3x3_reduce
I0403 16:35:14.438069 21242 net.cpp:425] inception_5b/relu_3x3_reduce <- inception_5b/3x3_reduce
I0403 16:35:14.438086 21242 net.cpp:386] inception_5b/relu_3x3_reduce -> inception_5b/3x3_reduce (in-place)
I0403 16:35:14.438283 21242 net.cpp:141] Setting up inception_5b/relu_3x3_reduce
I0403 16:35:14.438308 21242 net.cpp:148] Top shape: 24 192 7 7 (225792)
I0403 16:35:14.438321 21242 net.cpp:156] Memory required for data: 1330660896
I0403 16:35:14.438343 21242 layer_factory.hpp:77] Creating layer inception_5b/3x3
I0403 16:35:14.438369 21242 net.cpp:91] Creating Layer inception_5b/3x3
I0403 16:35:14.438391 21242 net.cpp:425] inception_5b/3x3 <- inception_5b/3x3_reduce
I0403 16:35:14.438421 21242 net.cpp:399] inception_5b/3x3 -> inception_5b/3x3
I0403 16:35:14.445191 21242 net.cpp:141] Setting up inception_5b/3x3
I0403 16:35:14.445225 21242 net.cpp:148] Top shape: 24 384 7 7 (451584)
I0403 16:35:14.445241 21242 net.cpp:156] Memory required for data: 1332467232
I0403 16:35:14.445260 21242 layer_factory.hpp:77] Creating layer inception_5b/relu_3x3
I0403 16:35:14.445277 21242 net.cpp:91] Creating Layer inception_5b/relu_3x3
I0403 16:35:14.445293 21242 net.cpp:425] inception_5b/relu_3x3 <- inception_5b/3x3
I0403 16:35:14.445319 21242 net.cpp:386] inception_5b/relu_3x3 -> inception_5b/3x3 (in-place)
I0403 16:35:14.445619 21242 net.cpp:141] Setting up inception_5b/relu_3x3
I0403 16:35:14.445647 21242 net.cpp:148] Top shape: 24 384 7 7 (451584)
I0403 16:35:14.445662 21242 net.cpp:156] Memory required for data: 1334273568
I0403 16:35:14.445677 21242 layer_factory.hpp:77] Creating layer inception_5b/5x5_reduce
I0403 16:35:14.445714 21242 net.cpp:91] Creating Layer inception_5b/5x5_reduce
I0403 16:35:14.445734 21242 net.cpp:425] inception_5b/5x5_reduce <- inception_5a/output_inception_5a/output_0_split_2
I0403 16:35:14.445751 21242 net.cpp:399] inception_5b/5x5_reduce -> inception_5b/5x5_reduce
I0403 16:35:14.447049 21242 net.cpp:141] Setting up inception_5b/5x5_reduce
I0403 16:35:14.447078 21242 net.cpp:148] Top shape: 24 48 7 7 (56448)
I0403 16:35:14.447094 21242 net.cpp:156] Memory required for data: 1334499360
I0403 16:35:14.447113 21242 layer_factory.hpp:77] Creating layer inception_5b/relu_5x5_reduce
I0403 16:35:14.447130 21242 net.cpp:91] Creating Layer inception_5b/relu_5x5_reduce
I0403 16:35:14.447145 21242 net.cpp:425] inception_5b/relu_5x5_reduce <- inception_5b/5x5_reduce
I0403 16:35:14.447165 21242 net.cpp:386] inception_5b/relu_5x5_reduce -> inception_5b/5x5_reduce (in-place)
I0403 16:35:14.447541 21242 net.cpp:141] Setting up inception_5b/relu_5x5_reduce
I0403 16:35:14.447566 21242 net.cpp:148] Top shape: 24 48 7 7 (56448)
I0403 16:35:14.447581 21242 net.cpp:156] Memory required for data: 1334725152
I0403 16:35:14.447595 21242 layer_factory.hpp:77] Creating layer inception_5b/5x5
I0403 16:35:14.447615 21242 net.cpp:91] Creating Layer inception_5b/5x5
I0403 16:35:14.447633 21242 net.cpp:425] inception_5b/5x5 <- inception_5b/5x5_reduce
I0403 16:35:14.447650 21242 net.cpp:399] inception_5b/5x5 -> inception_5b/5x5
I0403 16:35:14.449749 21242 net.cpp:141] Setting up inception_5b/5x5
I0403 16:35:14.449776 21242 net.cpp:148] Top shape: 24 128 7 7 (150528)
I0403 16:35:14.449791 21242 net.cpp:156] Memory required for data: 1335327264
I0403 16:35:14.449810 21242 layer_factory.hpp:77] Creating layer inception_5b/relu_5x5
I0403 16:35:14.449827 21242 net.cpp:91] Creating Layer inception_5b/relu_5x5
I0403 16:35:14.449843 21242 net.cpp:425] inception_5b/relu_5x5 <- inception_5b/5x5
I0403 16:35:14.449863 21242 net.cpp:386] inception_5b/relu_5x5 -> inception_5b/5x5 (in-place)
I0403 16:35:14.450067 21242 net.cpp:141] Setting up inception_5b/relu_5x5
I0403 16:35:14.450091 21242 net.cpp:148] Top shape: 24 128 7 7 (150528)
I0403 16:35:14.450108 21242 net.cpp:156] Memory required for data: 1335929376
I0403 16:35:14.450121 21242 layer_factory.hpp:77] Creating layer inception_5b/pool
I0403 16:35:14.450142 21242 net.cpp:91] Creating Layer inception_5b/pool
I0403 16:35:14.450160 21242 net.cpp:425] inception_5b/pool <- inception_5a/output_inception_5a/output_0_split_3
I0403 16:35:14.450178 21242 net.cpp:399] inception_5b/pool -> inception_5b/pool
I0403 16:35:14.450253 21242 net.cpp:141] Setting up inception_5b/pool
I0403 16:35:14.450279 21242 net.cpp:148] Top shape: 24 832 7 7 (978432)
I0403 16:35:14.450294 21242 net.cpp:156] Memory required for data: 1339843104
I0403 16:35:14.450309 21242 layer_factory.hpp:77] Creating layer inception_5b/pool_proj
I0403 16:35:14.450330 21242 net.cpp:91] Creating Layer inception_5b/pool_proj
I0403 16:35:14.450347 21242 net.cpp:425] inception_5b/pool_proj <- inception_5b/pool
I0403 16:35:14.450368 21242 net.cpp:399] inception_5b/pool_proj -> inception_5b/pool_proj
I0403 16:35:14.452761 21242 net.cpp:141] Setting up inception_5b/pool_proj
I0403 16:35:14.452793 21242 net.cpp:148] Top shape: 24 128 7 7 (150528)
I0403 16:35:14.452810 21242 net.cpp:156] Memory required for data: 1340445216
I0403 16:35:14.452828 21242 layer_factory.hpp:77] Creating layer inception_5b/relu_pool_proj
I0403 16:35:14.452847 21242 net.cpp:91] Creating Layer inception_5b/relu_pool_proj
I0403 16:35:14.452863 21242 net.cpp:425] inception_5b/relu_pool_proj <- inception_5b/pool_proj
I0403 16:35:14.452883 21242 net.cpp:386] inception_5b/relu_pool_proj -> inception_5b/pool_proj (in-place)
I0403 16:35:14.453204 21242 net.cpp:141] Setting up inception_5b/relu_pool_proj
I0403 16:35:14.453233 21242 net.cpp:148] Top shape: 24 128 7 7 (150528)
I0403 16:35:14.453248 21242 net.cpp:156] Memory required for data: 1341047328
I0403 16:35:14.453263 21242 layer_factory.hpp:77] Creating layer inception_5b/output
I0403 16:35:14.453281 21242 net.cpp:91] Creating Layer inception_5b/output
I0403 16:35:14.453312 21242 net.cpp:425] inception_5b/output <- inception_5b/1x1
I0403 16:35:14.453330 21242 net.cpp:425] inception_5b/output <- inception_5b/3x3
I0403 16:35:14.453346 21242 net.cpp:425] inception_5b/output <- inception_5b/5x5
I0403 16:35:14.453362 21242 net.cpp:425] inception_5b/output <- inception_5b/pool_proj
I0403 16:35:14.453382 21242 net.cpp:399] inception_5b/output -> inception_5b/output
I0403 16:35:14.453434 21242 net.cpp:141] Setting up inception_5b/output
I0403 16:35:14.453459 21242 net.cpp:148] Top shape: 24 1024 7 7 (1204224)
I0403 16:35:14.453474 21242 net.cpp:156] Memory required for data: 1345864224
I0403 16:35:14.453488 21242 layer_factory.hpp:77] Creating layer pool5/7x7_s1
I0403 16:35:14.453510 21242 net.cpp:91] Creating Layer pool5/7x7_s1
I0403 16:35:14.453526 21242 net.cpp:425] pool5/7x7_s1 <- inception_5b/output
I0403 16:35:14.453546 21242 net.cpp:399] pool5/7x7_s1 -> pool5/7x7_s1
I0403 16:35:14.453773 21242 net.cpp:141] Setting up pool5/7x7_s1
I0403 16:35:14.453799 21242 net.cpp:148] Top shape: 24 1024 1 1 (24576)
I0403 16:35:14.453812 21242 net.cpp:156] Memory required for data: 1345962528
I0403 16:35:14.453827 21242 layer_factory.hpp:77] Creating layer pool5/drop_7x7_s1
I0403 16:35:14.453846 21242 net.cpp:91] Creating Layer pool5/drop_7x7_s1
I0403 16:35:14.453862 21242 net.cpp:425] pool5/drop_7x7_s1 <- pool5/7x7_s1
I0403 16:35:14.453882 21242 net.cpp:386] pool5/drop_7x7_s1 -> pool5/7x7_s1 (in-place)
I0403 16:35:14.453933 21242 net.cpp:141] Setting up pool5/drop_7x7_s1
I0403 16:35:14.453956 21242 net.cpp:148] Top shape: 24 1024 1 1 (24576)
I0403 16:35:14.453971 21242 net.cpp:156] Memory required for data: 1346060832
I0403 16:35:14.453991 21242 layer_factory.hpp:77] Creating layer loss3/classifier_plantvillage
I0403 16:35:14.454015 21242 net.cpp:91] Creating Layer loss3/classifier_plantvillage
I0403 16:35:14.454032 21242 net.cpp:425] loss3/classifier_plantvillage <- pool5/7x7_s1
I0403 16:35:14.454053 21242 net.cpp:399] loss3/classifier_plantvillage -> loss3/classifier_plantvillage
I0403 16:35:14.454495 21242 net.cpp:141] Setting up loss3/classifier_plantvillage
I0403 16:35:14.454522 21242 net.cpp:148] Top shape: 24 38 (912)
I0403 16:35:14.454537 21242 net.cpp:156] Memory required for data: 1346064480
I0403 16:35:14.454555 21242 layer_factory.hpp:77] Creating layer loss3/classifier_plantvillage_loss3/classifier_plantvillage_0_split
I0403 16:35:14.454574 21242 net.cpp:91] Creating Layer loss3/classifier_plantvillage_loss3/classifier_plantvillage_0_split
I0403 16:35:14.454591 21242 net.cpp:425] loss3/classifier_plantvillage_loss3/classifier_plantvillage_0_split <- loss3/classifier_plantvillage
I0403 16:35:14.454608 21242 net.cpp:399] loss3/classifier_plantvillage_loss3/classifier_plantvillage_0_split -> loss3/classifier_plantvillage_loss3/classifier_plantvillage_0_split_0
I0403 16:35:14.454628 21242 net.cpp:399] loss3/classifier_plantvillage_loss3/classifier_plantvillage_0_split -> loss3/classifier_plantvillage_loss3/classifier_plantvillage_0_split_1
I0403 16:35:14.454648 21242 net.cpp:399] loss3/classifier_plantvillage_loss3/classifier_plantvillage_0_split -> loss3/classifier_plantvillage_loss3/classifier_plantvillage_0_split_2
I0403 16:35:14.454670 21242 net.cpp:399] loss3/classifier_plantvillage_loss3/classifier_plantvillage_0_split -> loss3/classifier_plantvillage_loss3/classifier_plantvillage_0_split_3
I0403 16:35:14.454777 21242 net.cpp:141] Setting up loss3/classifier_plantvillage_loss3/classifier_plantvillage_0_split
I0403 16:35:14.454800 21242 net.cpp:148] Top shape: 24 38 (912)
I0403 16:35:14.454816 21242 net.cpp:148] Top shape: 24 38 (912)
I0403 16:35:14.454833 21242 net.cpp:148] Top shape: 24 38 (912)
I0403 16:35:14.454849 21242 net.cpp:148] Top shape: 24 38 (912)
I0403 16:35:14.454861 21242 net.cpp:156] Memory required for data: 1346079072
I0403 16:35:14.454876 21242 layer_factory.hpp:77] Creating layer loss1/loss
I0403 16:35:14.454897 21242 net.cpp:91] Creating Layer loss1/loss
I0403 16:35:14.454916 21242 net.cpp:425] loss1/loss <- loss1/classifier_plantvillage_loss1/classifier_plantvillage_0_split_0
I0403 16:35:14.454948 21242 net.cpp:425] loss1/loss <- label_data_1_split_0
…
