…
I0403 16:31:06.505666 21158 net.cpp:313] The NetState phase (1) differed from the phase (0) specified by a rule in layer data
I0403 16:31:06.506825 21158 net.cpp:49] Initializing net from parameters: 
state {
  phase: TEST
}
layer {
  name: "data"
  type: "Data"
  top: "data"
  top: "label"
  include {
    phase: TEST
  }
  transform_param {
    mirror: false
    crop_size: 224
    mean_file: "/home/mohanty/data/final_dataset/lmdb/color-40-60/mean.binaryproto"
  }
  data_param {
    source: "/home/mohanty/data/final_dataset/lmdb/color-40-60/test_db"
    batch_size: 24
    backend: LMDB
  }
}
layer {
  name: "conv1/7x7_s2"
  type: "Convolution"
  bottom: "data"
  top: "conv1/7x7_s2"
  param {
    lr_mult: 1
    decay_mult: 1
  }
  param {
    lr_mult: 2
    decay_mult: 0
  }
  convolution_param {
    num_output: 64
    pad: 3
    kernel_size: 7
    stride: 2
    weight_filler {
      type: "xavier"
      std: 0.1
    }
    bias_filler {
      type: "constant"
      value: 0.2
    }
  }
}
layer {
  name: "conv1/relu_7x7"
  type: "ReLU"
  bottom: "conv1/7x7_s2"
  top: "conv1/7x7_s2"
}
layer {
  name: "pool1/3x3_s2"
  type: "Pooling"
  bottom: "conv1/7x7_s2"
  top: "pool1/3x3_s2"
  pooling_param {
    pool: MAX
    kernel_size: 3
    stride: 2
  }
}
layer {
  name: "pool1/norm1"
  type: "LRN"
  bottom: "pool1/3x3_s2"
  top: "pool1/norm1"
  lrn_param {
    local_size: 5
    alpha: 0.0001
    beta: 0.75
  }
}
layer {
  name: "conv2/3x3_reduce"
  type: "Convolution"
  bottom: "pool1/norm1"
  top: "conv2/3x3_reduce"
  param {
    lr_mult: 1
    decay_mult: 1
  }
  param {
    lr_mult: 2
    decay_mult: 0
  }
  convolution_param {
    num_output: 64
    kernel_size: 1
    weight_filler {
      type: "xavier"
      std: 0.1
    }
    bias_filler {
      type: "constant"
      value: 0.2
    }
  }
}
layer {
  name: "conv2/relu_3x3_reduce"
  type: "ReLU"
  bottom: "conv2/3x3_reduce"
  top: "conv2/3x3_reduce"
}
layer {
  name: "conv2/3x3"
  type: "Convolution"
  bottom: "conv2/3x3_reduce"
  top: "conv2/3x3"
  param {
    lr_mult: 1
    decay_mult: 1
  }
  param {
    lr_mult: 2
    decay_mult: 0
  }
  convolution_param {
    num_output: 192
    pad: 1
    kernel_size: 3
    weight_filler {
      type: "xavier"
      std: 0.03
    }
    bias_filler {
      type: "constant"
      value: 0.2
    }
  }
}
layer {
  name: "conv2/relu_3x3"
  type: "ReLU"
  bottom: "conv2/3x3"
  top: "conv2/3x3"
}
layer {
  name: "conv2/norm2"
  type: "LRN"
  bottom: "conv2/3x3"
  top: "conv2/norm2"
  lrn_param {
    local_size: 5
    alpha: 0.0001
    beta: 0.75
  }
}
layer {
  name: "pool2/3x3_s2"
  type: "Pooling"
  bottom: "conv2/norm2"
  top: "pool2/3x3_s2"
  pooling_param {
    pool: MAX
    kernel_size: 3
    stride: 2
  }
}
layer {
  name: "inception_3a/1x1"
  type: "Convolution"
  bottom: "pool2/3x3_s2"
  top: "inception_3a/1x1"
  param {
    lr_mult: 1
    decay_mult: 1
  }
  param {
    lr_mult: 2
    decay_mult: 0
  }
  convolution_param {
    num_output: 64
    kernel_size: 1
    weight_filler {
      type: "xavier"
      std: 0.03
    }
    bias_filler {
      type: "constant"
      value: 0.2
    }
  }
}
layer {
  name: "inception_3a/relu_1x1"
  type: "ReLU"
  bottom: "inception_3a/1x1"
  top: "inception_3a/1x1"
}
layer {
  name: "inception_3a/3x3_reduce"
  type: "Convolution"
  bottom: "pool2/3x3_s2"
  top: "inception_3a/3x3_reduce"
  param {
    lr_mult: 1
    decay_mult: 1
  }
  param {
    lr_mult: 2
    decay_mult: 0
  }
  convolution_param {
    num_output: 96
    kernel_size: 1
    weight_filler {
      type: "xavier"
      std: 0.09
    }
    bias_filler {
      type: "constant"
      value: 0.2
    }
  }
}
layer {
  name: "inception_3a/relu_3x3_reduce"
  type: "ReLU"
  bottom: "inception_3a/3x3_reduce"
  top: "inception_3a/3x3_reduce"
}
layer {
  name: "inception_3a/3x3"
  type: "Convolution"
  bottom: "inception_3a/3x3_reduce"
  top: "inception_3a/3x3"
  param {
    lr_mult: 1
    decay_mult: 1
  }
  param {
    lr_mult: 2
    decay_mult: 0
  }
  convolution_param {
    num_output: 128
    pad: 1
    kernel_size: 3
    weight_filler {
      type: "xavier"
      std: 0.03
    }
    bias_filler {
      type: "constant"
      value: 0.2
    }
  }
}
layer {
  name: "inception_3a/relu_3x3"
  type: "ReLU"
  bottom: "inception_3a/3x3"
  top: "inception_3a/3x3"
}
layer {
  name: "inception_3a/5x5_reduce"
  type: "Convolution"
  bottom: "pool2/3x3_s2"
  top: "inception_3a/5x5_reduce"
  param {
    lr_mult: 1
    decay_mult: 1
  }
  param {
    lr_mult: 2
    decay_mult: 0
  }
  convolution_param {
    num_output: 16
    kernel_size: 1
    weight_filler {
      type: "xavier"
      std: 0.2
    }
    bias_filler {
      type: "constant"
      value: 0.2
    }
  }
}
layer {
  name: "inception_3a/relu_5x5_reduce"
  type: "ReLU"
  bottom: "inception_3a/5x5_reduce"
  top: "inception_3a/5x5_reduce"
}
layer {
  name: "inception_3a/5x5"
  type: "Convolution"
  bottom: "inception_3a/5x5_reduce"
  top: "inception_3a/5x5"
  param {
    lr_mult: 1
    decay_mult: 1
  }
  param {
    lr_mult: 2
    decay_mult: 0
  }
  convolution_param {
    num_output: 32
    pad: 2
    kernel_size: 5
    weight_filler {
      type: "xavier"
      std: 0.03
    }
    bias_filler {
      type: "constant"
      value: 0.2
    }
  }
}
layer {
  name: "inception_3a/relu_5x5"
  type: "ReLU"
  bottom: "inception_3a/5x5"
  top: "inception_3a/5x5"
}
layer {
  name: "inception_3a/pool"
  type: "Pooling"
  bottom: "pool2/3x3_s2"
  top: "inception_3a/pool"
  pooling_param {
    pool: MAX
    kernel_size: 3
    stride: 1
    pad: 1
  }
}
layer {
  name: "inception_3a/pool_proj"
  type: "Convolution"
  bottom: "inception_3a/pool"
  top: "inception_3a/pool_proj"
  param {
    lr_mult: 1
    decay_mult: 1
  }
  param {
    lr_mult: 2
    decay_mult: 0
  }
  convolution_param {
    num_output: 32
    kernel_size: 1
    weight_filler {
      type: "xavier"
      std: 0.1
    }
    bias_filler {
      type: "constant"
      value: 0.2
    }
  }
}
layer {
  name: "inception_3a/relu_pool_proj"
  type: "ReLU"
  bottom: "inception_3a/pool_proj"
  top: "inception_3a/pool_proj"
}
layer {
  name: "inception_3a/output"
  type: "Concat"
  bottom: "inception_3a/1x1"
  bottom: "inception_3a/3x3"
  bottom: "inception_3a/5x5"
  bottom: "inception_3a/pool_proj"
  top: "inception_3a/output"
}
layer {
  name: "inception_3b/1x1"
  type: "Convolution"
  bottom: "inception_3a/output"
  top: "inception_3b/1x1"
  param {
    lr_mult: 1
    decay_mult: 1
  }
  param {
    lr_mult: 2
    decay_mult: 0
  }
  convolution_param {
    num_output: 128
    kernel_size: 1
    weight_filler {
      type: "xavier"
      std: 0.03
    }
    bias_filler {
      type: "constant"
      value: 0.2
    }
  }
}
layer {
  name: "inception_3b/relu_1x1"
  type: "ReLU"
  bottom: "inception_3b/1x1"
  top: "inception_3b/1x1"
}
layer {
  name: "inception_3b/3x3_reduce"
  type: "Convolution"
  bottom: "inception_3a/output"
  top: "inception_3b/3x3_reduce"
  param {
    lr_mult: 1
    decay_mult: 1
  }
  param {
    lr_mult: 2
    decay_mult: 0
  }
  convolution_param {
    num_output: 128
    kernel_size: 1
    weight_filler {
      type: "xavier"
      std: 0.09
    }
    bias_filler {
      type: "constant"
      value: 0.2
    }
  }
}
layer {
  name: "inception_3b/relu_3x3_reduce"
  type: "ReLU"
  bottom: "inception_3b/3x3_reduce"
  top: "inception_3b/3x3_reduce"
}
layer {
  name: "inception_3b/3x3"
  type: "Convolution"
  bottom: "inception_3b/3x3_reduce"
  top: "inception_3b/3x3"
  param {
    lr_mult: 1
    decay_mult: 1
  }
  param {
    lr_mult: 2
    decay_mult: 0
  }
  convolution_param {
    num_output: 192
    pad: 1
    kernel_size: 3
    weight_filler {
      type: "xavier"
      std: 0.03
    }
    bias_filler {
      type: "constant"
      value: 0.2
    }
  }
}
layer {
  name: "inception_3b/relu_3x3"
  type: "ReLU"
  bottom: "inception_3b/3x3"
  top: "inception_3b/3x3"
}
layer {
  name: "inception_3b/5x5_reduce"
  type: "Convolution"
  bottom: "inception_3a/output"
  top: "inception_3b/5x5_reduce"
  param {
    lr_mult: 1
    decay_mult: 1
  }
  param {
    lr_mult: 2
    decay_mult: 0
  }
  convolution_param {
    num_output: 32
    kernel_size: 1
    weight_filler {
      type: "xavier"
      std: 0.2
    }
    bias_filler {
      type: "constant"
      value: 0.2
    }
  }
}
layer {
  name: "inception_3b/relu_5x5_reduce"
  type: "ReLU"
  bottom: "inception_3b/5x5_reduce"
  top: "inception_3b/5x5_reduce"
}
layer {
  name: "inception_3b/5x5"
  type: "Convolution"
  bottom: "inception_3b/5x5_reduce"
  top: "inception_3b/5x5"
  param {
    lr_mult: 1
    decay_mult: 1
  }
  param {
    lr_mult: 2
    decay_mult: 0
  }
  convolution_param {
    num_output: 96
    pad: 2
    kernel_size: 5
    weight_filler {
      type: "xavier"
      std: 0.03
    }
    bias_filler {
      type: "constant"
      value: 0.2
    }
  }
}
layer {
  name: "inception_3b/relu_5x5"
  type: "ReLU"
  bottom: "inception_3b/5x5"
  top: "inception_3b/5x5"
}
layer {
  name: "inception_3b/pool"
  type: "Pooling"
  bottom: "inception_3a/output"
  top: "inception_3b/pool"
  pooling_param {
    pool: MAX
    kernel_size: 3
    stride: 1
    pad: 1
  }
}
layer {
  name: "inception_3b/pool_proj"
  type: "Convolution"
  bottom: "inception_3b/pool"
  top: "inception_3b/pool_proj"
  param {
    lr_mult: 1
    decay_mult: 1
  }
  param {
    lr_mult: 2
    decay_mult: 0
  }
  convolution_param {
    num_output: 64
    kernel_size: 1
    weight_filler {
      type: "xavier"
      std: 0.1
    }
    bias_filler {
      type: "constant"
      value: 0.2
    }
  }
}
layer {
  name: "inception_3b/relu_pool_proj"
  type: "ReLU"
  bottom: "inception_3b/pool_proj"
  top: "inception_3b/pool_proj"
}
layer {
  name: "inception_3b/output"
  type: "Concat"
  bottom: "inception_3b/1x1"
  bottom: "inception_3b/3x3"
  bottom: "inception_3b/5x5"
  bottom: "inception_3b/pool_proj"
  top: "inception_3b/output"
}
layer {
  name: "pool3/3x3_s2"
  type: "Pooling"
  bottom: "inception_3b/output"
  top: "pool3/3x3_s2"
  pooling_param {
    pool: MAX
    kernel_size: 3
    stride: 2
  }
}
layer {
  name: "inception_4a/1x1"
  type: "Convolution"
  bottom: "pool3/3x3_s2"
  top: "inception_4a/1x1"
  param {
    lr_mult: 1
    decay_mult: 1
  }
  param {
    lr_mult: 2
    decay_mult: 0
  }
  convolution_param {
    num_output: 192
    kernel_size: 1
    weight_filler {
      type: "xavier"
      std: 0.03
    }
    bias_filler {
      type: "constant"
      value: 0.2
    }
  }
}
layer {
  name: "inception_4a/relu_1x1"
  type: "ReLU"
  bottom: "inception_4a/1x1"
  top: "inception_4a/1x1"
}
layer {
  name: "inception_4a/3x3_reduce"
  type: "Convolution"
  bottom: "pool3/3x3_s2"
  top: "inception_4a/3x3_reduce"
  param {
    lr_mult: 1
    decay_mult: 1
  }
  param {
    lr_mult: 2
    decay_mult: 0
  }
  convolution_param {
    num_output: 96
    kernel_size: 1
    weight_filler {
      type: "xavier"
      std: 0.09
    }
    bias_filler {
      type: "constant"
      value: 0.2
    }
  }
}
layer {
  name: "inception_4a/relu_3x3_reduce"
  type: "ReLU"
  bottom: "inception_4a/3x3_reduce"
  top: "inception_4a/3x3_reduce"
}
layer {
  name: "inception_4a/3x3"
  type: "Convolution"
  bottom: "inception_4a/3x3_reduce"
  top: "inception_4a/3x3"
  param {
    lr_mult: 1
    decay_mult: 1
  }
  param {
    lr_mult: 2
    decay_mult: 0
  }
  convolution_param {
    num_output: 208
    pad: 1
    kernel_size: 3
    weight_filler {
      type: "xavier"
      std: 0.03
    }
    bias_filler {
      type: "constant"
      value: 0.2
    }
  }
}
layer {
  name: "inception_4a/relu_3x3"
  type: "ReLU"
  bottom: "inception_4a/3x3"
  top: "inception_4a/3x3"
}
layer {
  name: "inception_4a/5x5_reduce"
  type: "Convolution"
  bottom: "pool3/3x3_s2"
  top: "inception_4a/5x5_reduce"
  param {
    lr_mult: 1
    decay_mult: 1
  }
  param {
    lr_mult: 2
    decay_mult: 0
  }
  convolution_param {
    num_output: 16
    kernel_size: 1
    weight_filler {
      type: "xavier"
      std: 0.2
    }
    bias_filler {
      type: "constant"
      value: 0.2
    }
  }
}
layer {
  name: "inception_4a/relu_5x5_reduce"
  type: "ReLU"
  bottom: "inception_4a/5x5_reduce"
  top: "inception_4a/5x5_reduce"
}
layer {
  name: "inception_4a/5x5"
  type: "Convolution"
  bottom: "inception_4a/5x5_reduce"
  top: "inception_4a/5x5"
  param {
    lr_mult: 1
    decay_mult: 1
  }
  param {
    lr_mult: 2
    decay_mult: 0
  }
  convolution_param {
    num_output: 48
    pad: 2
    kernel_size: 5
    weight_filler {
      type: "xavier"
      std: 0.03
    }
    bias_filler {
      type: "constant"
      value: 0.2
    }
  }
}
layer {
  name: "inception_4a/relu_5x5"
  type: "ReLU"
  bottom: "inception_4a/5x5"
  top: "inception_4a/5x5"
}
layer {
  name: "inception_4a/pool"
  type: "Pooling"
  bottom: "pool3/3x3_s2"
  top: "inception_4a/pool"
  pooling_param {
    pool: MAX
    kernel_size: 3
    stride: 1
    pad: 1
  }
}
layer {
  name: "inception_4a/pool_proj"
  type: "Convolution"
  bottom: "inception_4a/pool"
  top: "inception_4a/pool_proj"
  param {
    lr_mult: 1
    decay_mult: 1
  }
  param {
    lr_mult: 2
    decay_mult: 0
  }
  convolution_param {
    num_output: 64
    kernel_size: 1
    weight_filler {
      type: "xavier"
      std: 0.1
    }
    bias_filler {
      type: "constant"
      value: 0.2
    }
  }
}
layer {
  name: "inception_4a/relu_pool_proj"
  type: "ReLU"
  bottom: "inception_4a/pool_proj"
  top: "inception_4a/pool_proj"
}
layer {
  name: "inception_4a/output"
  type: "Concat"
  bottom: "inception_4a/1x1"
  bottom: "inception_4a/3x3"
  bottom: "inception_4a/5x5"
  bottom: "inception_4a/pool_proj"
  top: "inception_4a/output"
}
layer {
  name: "loss1/ave_pool"
  type: "Pooling"
  bottom: "inception_4a/output"
  top: "loss1/ave_pool"
  pooling_param {
    pool: AVE
    kernel_size: 5
    stride: 3
  }
}
layer {
  name: "loss1/conv"
  type: "Convolution"
  bottom: "loss1/ave_pool"
  top: "loss1/conv"
  param {
    lr_mult: 1
    decay_mult: 1
  }
  param {
    lr_mult: 2
    decay_mult: 0
  }
  convolution_param {
    num_output: 128
    kernel_size: 1
    weight_filler {
      type: "xavier"
      std: 0.08
    }
    bias_filler {
      type: "constant"
      value: 0.2
    }
  }
}
layer {
  name: "loss1/relu_conv"
  type: "ReLU"
  bottom: "loss1/conv"
  top: "loss1/conv"
}
layer {
  name: "loss1/fc"
  type: "InnerProduct"
  bottom: "loss1/conv"
  top: "loss1/fc"
  param {
    lr_mult: 1
    decay_mult: 1
  }
  param {
    lr_mult: 2
    decay_mult: 0
  }
  inner_product_param {
    num_output: 1024
    weight_filler {
      type: "xavier"
      std: 0.02
    }
    bias_filler {
      type: "constant"
      value: 0.2
    }
  }
}
layer {
  name: "loss1/relu_fc"
  type: "ReLU"
  bottom: "loss1/fc"
  top: "loss1/fc"
}
layer {
  name: "loss1/drop_fc"
  type: "Dropout"
  bottom: "loss1/fc"
  top: "loss1/fc"
  dropout_param {
    dropout_ratio: 0.7
  }
}
layer {
  name: "loss1/classifier_plantvillage"
  type: "InnerProduct"
  bottom: "loss1/fc"
  top: "loss1/classifier_plantvillage"
  param {
    lr_mult: 1
    decay_mult: 1
  }
  param {
    lr_mult: 2
    decay_mult: 0
  }
  inner_product_param {
    num_output: 38
    weight_filler {
      type: "xavier"
      std: 0.0009765625
    }
    bias_filler {
      type: "constant"
      value: 0
    }
  }
}
layer {
  name: "inception_4b/1x1"
  type: "Convolution"
  bottom: "inception_4a/output"
  top: "inception_4b/1x1"
  param {
    lr_mult: 1
    decay_mult: 1
  }
  param {
    lr_mult: 2
    decay_mult: 0
  }
  convolution_param {
    num_output: 160
    kernel_size: 1
    weight_filler {
      type: "xavier"
      std: 0.03
    }
    bias_filler {
      type: "constant"
      value: 0.2
    }
  }
}
layer {
  name: "inception_4b/relu_1x1"
  type: "ReLU"
  bottom: "inception_4b/1x1"
  top: "inception_4b/1x1"
}
layer {
  name: "inception_4b/3x3_reduce"
  type: "Convolution"
  bottom: "inception_4a/output"
  top: "inception_4b/3x3_reduce"
  param {
    lr_mult: 1
    decay_mult: 1
  }
  param {
    lr_mult: 2
    decay_mult: 0
  }
  convolution_param {
    num_output: 112
    kernel_size: 1
    weight_filler {
      type: "xavier"
      std: 0.09
    }
    bias_filler {
      type: "constant"
      value: 0.2
    }
  }
}
layer {
  name: "inception_4b/relu_3x3_reduce"
  type: "ReLU"
  bottom: "inception_4b/3x3_reduce"
  top: "inception_4b/3x3_reduce"
}
layer {
  name: "inception_4b/3x3"
  type: "Convolution"
  bottom: "inception_4b/3x3_reduce"
  top: "inception_4b/3x3"
  param {
    lr_mult: 1
    decay_mult: 1
  }
  param {
    lr_mult: 2
    decay_mult: 0
  }
  convolution_param {
    num_output: 224
    pad: 1
    kernel_size: 3
    weight_filler {
      type: "xavier"
      std: 0.03
    }
    bias_filler {
      type: "constant"
      value: 0.2
    }
  }
}
layer {
  name: "inception_4b/relu_3x3"
  type: "ReLU"
  bottom: "inception_4b/3x3"
  top: "inception_4b/3x3"
}
layer {
  name: "inception_4b/5x5_reduce"
  type: "Convolution"
  bottom: "inception_4a/output"
  top: "inception_4b/5x5_reduce"
  param {
    lr_mult: 1
    decay_mult: 1
  }
  param {
    lr_mult: 2
    decay_mult: 0
  }
  convolution_param {
    num_output: 24
    kernel_size: 1
    weight_filler {
      type: "xavier"
      std: 0.2
    }
    bias_filler {
      type: "constant"
      value: 0.2
    }
  }
}
layer {
  name: "inception_4b/relu_5x5_reduce"
  type: "ReLU"
  bottom: "inception_4b/5x5_reduce"
  top: "inception_4b/5x5_reduce"
}
layer {
  name: "inception_4b/5x5"
  type: "Convolution"
  bottom: "inception_4b/5x5_reduce"
  top: "inception_4b/5x5"
  param {
    lr_mult: 1
    decay_mult: 1
  }
  param {
    lr_mult: 2
    decay_mult: 0
  }
  convolution_param {
    num_output: 64
    pad: 2
    kernel_size: 5
    weight_filler {
      type: "xavier"
      std: 0.03
    }
    bias_filler {
      type: "constant"
      value: 0.2
    }
  }
}
layer {
  name: "inception_4b/relu_5x5"
  type: "ReLU"
  bottom: "inception_4b/5x5"
  top: "inception_4b/5x5"
}
layer {
  name: "inception_4b/pool"
  type: "Pooling"
  bottom: "inception_4a/output"
  top: "inception_4b/pool"
  pooling_param {
    pool: MAX
    kernel_size: 3
    stride: 1
    pad: 1
  }
}
layer {
  name: "inception_4b/pool_proj"
  type: "Convolution"
  bottom: "inception_4b/pool"
  top: "inception_4b/pool_proj"
  param {
    lr_mult: 1
    decay_mult: 1
  }
  param {
    lr_mult: 2
    decay_mult: 0
  }
  convolution_param {
    num_output: 64
    kernel_size: 1
    weight_filler {
      type: "xavier"
      std: 0.1
    }
    bias_filler {
      type: "constant"
      value: 0.2
    }
  }
}
layer {
  name: "inception_4b/relu_pool_proj"
  type: "ReLU"
  bottom: "inception_4b/pool_proj"
  top: "inception_4b/pool_proj"
}
layer {
  name: "inception_4b/output"
  type: "Concat"
  bottom: "inception_4b/1x1"
  bottom: "inception_4b/3x3"
  bottom: "inception_4b/5x5"
  bottom: "inception_4b/pool_proj"
  top: "inception_4b/output"
}
layer {
  name: "inception_4c/1x1"
  type: "Convolution"
  bottom: "inception_4b/output"
  top: "inception_4c/1x1"
  param {
    lr_mult: 1
    decay_mult: 1
  }
  param {
    lr_mult: 2
    decay_mult: 0
  }
  convolution_param {
    num_output: 128
    kernel_size: 1
    weight_filler {
      type: "xavier"
      std: 0.03
    }
    bias_filler {
      type: "constant"
      value: 0.2
    }
  }
}
layer {
  name: "inception_4c/relu_1x1"
  type: "ReLU"
  bottom: "inception_4c/1x1"
  top: "inception_4c/1x1"
}
layer {
  name: "inception_4c/3x3_reduce"
  type: "Convolution"
  bottom: "inception_4b/output"
  top: "inception_4c/3x3_reduce"
  param {
    lr_mult: 1
    decay_mult: 1
  }
  param {
    lr_mult: 2
    decay_mult: 0
  }
  convolution_param {
    num_output: 128
    kernel_size: 1
    weight_filler {
      type: "xavier"
      std: 0.09
    }
    bias_filler {
      type: "constant"
      value: 0.2
    }
  }
}
layer {
  name: "inception_4c/relu_3x3_reduce"
  type: "ReLU"
  bottom: "inception_4c/3x3_reduce"
  top: "inception_4c/3x3_reduce"
}
layer {
  name: "inception_4c/3x3"
  type: "Convolution"
  bottom: "inception_4c/3x3_reduce"
  top: "inception_4c/3x3"
  param {
    lr_mult: 1
    decay_mult: 1
  }
  param {
    lr_mult: 2
    decay_mult: 0
  }
  convolution_param {
    num_output: 256
    pad: 1
    kernel_size: 3
    weight_filler {
      type: "xavier"
      std: 0.03
    }
    bias_filler {
      type: "constant"
      value: 0.2
    }
  }
}
layer {
  name: "inception_4c/relu_3x3"
  type: "ReLU"
  bottom: "inception_4c/3x3"
  top: "inception_4c/3x3"
}
layer {
  name: "inception_4c/5x5_reduce"
  type: "Convolution"
  bottom: "inception_4b/output"
  top: "inception_4c/5x5_reduce"
  param {
    lr_mult: 1
    decay_mult: 1
  }
  param {
    lr_mult: 2
    decay_mult: 0
  }
  convolution_param {
    num_output: 24
    kernel_size: 1
    weight_filler {
      type: "xavier"
      std: 0.2
    }
    bias_filler {
      type: "constant"
      value: 0.2
    }
  }
}
layer {
  name: "inception_4c/relu_5x5_reduce"
  type: "ReLU"
  bottom: "inception_4c/5x5_reduce"
  top: "inception_4c/5x5_reduce"
}
layer {
  name: "inception_4c/5x5"
  type: "Convolution"
  bottom: "inception_4c/5x5_reduce"
  top: "inception_4c/5x5"
  param {
    lr_mult: 1
    decay_mult: 1
  }
  param {
    lr_mult: 2
    decay_mult: 0
  }
  convolution_param {
    num_output: 64
    pad: 2
    kernel_size: 5
    weight_filler {
      type: "xavier"
      std: 0.03
    }
    bias_filler {
      type: "constant"
      value: 0.2
    }
  }
}
layer {
  name: "inception_4c/relu_5x5"
  type: "ReLU"
  bottom: "inception_4c/5x5"
  top: "inception_4c/5x5"
}
layer {
  name: "inception_4c/pool"
  type: "Pooling"
  bottom: "inception_4b/output"
  top: "inception_4c/pool"
  pooling_param {
    pool: MAX
    kernel_size: 3
    stride: 1
    pad: 1
  }
}
layer {
  name: "inception_4c/pool_proj"
  type: "Convolution"
  bottom: "inception_4c/pool"
  top: "inception_4c/pool_proj"
  param {
    lr_mult: 1
    decay_mult: 1
  }
  param {
    lr_mult: 2
    decay_mult: 0
  }
  convolution_param {
    num_output: 64
    kernel_size: 1
    weight_filler {
      type: "xavier"
      std: 0.1
    }
    bias_filler {
      type: "constant"
      value: 0.2
    }
  }
}
layer {
  name: "inception_4c/relu_pool_proj"
  type: "ReLU"
  bottom: "inception_4c/pool_proj"
  top: "inception_4c/pool_proj"
}
layer {
  name: "inception_4c/output"
  type: "Concat"
  bottom: "inception_4c/1x1"
  bottom: "inception_4c/3x3"
  bottom: "inception_4c/5x5"
  bottom: "inception_4c/pool_proj"
  top: "inception_4c/output"
}
layer {
  name: "inception_4d/1x1"
  type: "Convolution"
  bottom: "inception_4c/output"
  top: "inception_4d/1x1"
  param {
    lr_mult: 1
    decay_mult: 1
  }
  param {
    lr_mult: 2
    decay_mult: 0
  }
  convolution_param {
    num_output: 112
    kernel_size: 1
    weight_filler {
      type: "xavier"
      std: 0.03
    }
    bias_filler {
      type: "constant"
      value: 0.2
    }
  }
}
layer {
  name: "inception_4d/relu_1x1"
  type: "ReLU"
  bottom: "inception_4d/1x1"
  top: "inception_4d/1x1"
}
layer {
  name: "inception_4d/3x3_reduce"
  type: "Convolution"
  bottom: "inception_4c/output"
  top: "inception_4d/3x3_reduce"
  param {
    lr_mult: 1
    decay_mult: 1
  }
  param {
    lr_mult: 2
    decay_mult: 0
  }
  convolution_param {
    num_output: 144
    kernel_size: 1
    weight_filler {
      type: "xavier"
      std: 0.09
    }
    bias_filler {
      type: "constant"
      value: 0.2
    }
  }
}
layer {
  name: "inception_4d/relu_3x3_reduce"
  type: "ReLU"
  bottom: "inception_4d/3x3_reduce"
  top: "inception_4d/3x3_reduce"
}
layer {
  name: "inception_4d/3x3"
  type: "Convolution"
  bottom: "inception_4d/3x3_reduce"
  top: "inception_4d/3x3"
  param {
    lr_mult: 1
    decay_mult: 1
  }
  param {
    lr_mult: 2
    decay_mult: 0
  }
  convolution_param {
    num_output: 288
    pad: 1
    kernel_size: 3
    weight_filler {
      type: "xavier"
      std: 0.03
    }
    bias_filler {
      type: "constant"
      value: 0.2
    }
  }
}
layer {
  name: "inception_4d/relu_3x3"
  type: "ReLU"
  bottom: "inception_4d/3x3"
  top: "inception_4d/3x3"
}
layer {
  name: "inception_4d/5x5_reduce"
  type: "Convolution"
  bottom: "inception_4c/output"
  top: "inception_4d/5x5_reduce"
  param {
    lr_mult: 1
    decay_mult: 1
  }
  param {
    lr_mult: 2
    decay_mult: 0
  }
  convolution_param {
    num_output: 32
    kernel_size: 1
    weight_filler {
      type: "xavier"
      std: 0.2
    }
    bias_filler {
      type: "constant"
      value: 0.2
    }
  }
}
layer {
  name: "inception_4d/relu_5x5_reduce"
  type: "ReLU"
  bottom: "inception_4d/5x5_reduce"
  top: "inception_4d/5x5_reduce"
}
layer {
  name: "inception_4d/5x5"
  type: "Convolution"
  bottom: "inception_4d/5x5_reduce"
  top: "inception_4d/5x5"
  param {
    lr_mult: 1
    decay_mult: 1
  }
  param {
    lr_mult: 2
    decay_mult: 0
  }
  convolution_param {
    num_output: 64
    pad: 2
    kernel_size: 5
    weight_filler {
      type: "xavier"
      std: 0.03
    }
    bias_filler {
      type: "constant"
      value: 0.2
    }
  }
}
layer {
  name: "inception_4d/relu_5x5"
  type: "ReLU"
  bottom: "inception_4d/5x5"
  top: "inception_4d/5x5"
}
layer {
  name: "inception_4d/pool"
  type: "Pooling"
  bottom: "inception_4c/output"
  top: "inception_4d/pool"
  pooling_param {
    pool: MAX
    kernel_size: 3
    stride: 1
    pad: 1
  }
}
layer {
  name: "inception_4d/pool_proj"
  type: "Convolution"
  bottom: "inception_4d/pool"
  top: "inception_4d/pool_proj"
  param {
    lr_mult: 1
    decay_mult: 1
  }
  param {
    lr_mult: 2
    decay_mult: 0
  }
  convolution_param {
    num_output: 64
    kernel_size: 1
    weight_filler {
      type: "xavier"
      std: 0.1
    }
    bias_filler {
      type: "constant"
      value: 0.2
    }
  }
}
layer {
  name: "inception_4d/relu_pool_proj"
  type: "ReLU"
  bottom: "inception_4d/pool_proj"
  top: "inception_4d/pool_proj"
}
layer {
  name: "inception_4d/output"
  type: "Concat"
  bottom: "inception_4d/1x1"
  bottom: "inception_4d/3x3"
  bottom: "inception_4d/5x5"
  bottom: "inception_4d/pool_proj"
  top: "inception_4d/output"
}
layer {
  name: "loss2/ave_pool"
  type: "Pooling"
  bottom: "inception_4d/output"
  top: "loss2/ave_pool"
  pooling_param {
    pool: AVE
    kernel_size: 5
    stride: 3
  }
}
layer {
  name: "loss2/conv"
  type: "Convolution"
  bottom: "loss2/ave_pool"
  top: "loss2/conv"
  param {
    lr_mult: 1
    decay_mult: 1
  }
  param {
    lr_mult: 2
    decay_mult: 0
  }
  convolution_param {
    num_output: 128
    kernel_size: 1
    weight_filler {
      type: "xavier"
      std: 0.08
    }
    bias_filler {
      type: "constant"
      value: 0.2
    }
  }
}
layer {
  name: "loss2/relu_conv"
  type: "ReLU"
  bottom: "loss2/conv"
  top: "loss2/conv"
}
layer {
  name: "loss2/fc"
  type: "InnerProduct"
  bottom: "loss2/conv"
  top: "loss2/fc"
  param {
    lr_mult: 1
    decay_mult: 1
  }
  param {
    lr_mult: 2
    decay_mult: 0
  }
  inner_product_param {
    num_output: 1024
    weight_filler {
      type: "xavier"
      std: 0.02
    }
    bias_filler {
      type: "constant"
      value: 0.2
    }
  }
}
layer {
  name: "loss2/relu_fc"
  type: "ReLU"
  bottom: "loss2/fc"
  top: "loss2/fc"
}
layer {
  name: "loss2/drop_fc"
  type: "Dropout"
  bottom: "loss2/fc"
  top: "loss2/fc"
  dropout_param {
    dropout_ratio: 0.7
  }
}
layer {
  name: "loss2/classifier_plantvillage"
  type: "InnerProduct"
  bottom: "loss2/fc"
  top: "loss2/classifier_plantvillage"
  param {
    lr_mult: 1
    decay_mult: 1
  }
  param {
    lr_mult: 2
    decay_mult: 0
  }
  inner_product_param {
    num_output: 38
    weight_filler {
      type: "xavier"
      std: 0.0009765625
    }
    bias_filler {
      type: "constant"
      value: 0
    }
  }
}
layer {
  name: "inception_4e/1x1"
  type: "Convolution"
  bottom: "inception_4d/output"
  top: "inception_4e/1x1"
  param {
    lr_mult: 1
    decay_mult: 1
  }
  param {
    lr_mult: 2
    decay_mult: 0
  }
  convolution_param {
    num_output: 256
    kernel_size: 1
    weight_filler {
      type: "xavier"
      std: 0.03
    }
    bias_filler {
      type: "constant"
      value: 0.2
    }
  }
}
layer {
  name: "inception_4e/relu_1x1"
  type: "ReLU"
  bottom: "inception_4e/1x1"
  top: "inception_4e/1x1"
}
layer {
  name: "inception_4e/3x3_reduce"
  type: "Convolution"
  bottom: "inception_4d/output"
  top: "inception_4e/3x3_reduce"
  param {
    lr_mult: 1
    decay_mult: 1
  }
  param {
    lr_mult: 2
    decay_mult: 0
  }
  convolution_param {
    num_output: 160
    kernel_size: 1
    weight_filler {
      type: "xavier"
      std: 0.09
    }
    bias_filler {
      type: "constant"
      value: 0.2
    }
  }
}
layer {
  name: "inception_4e/relu_3x3_reduce"
  type: "ReLU"
  bottom: "inception_4e/3x3_reduce"
  top: "inception_4e/3x3_reduce"
}
layer {
  name: "inception_4e/3x3"
  type: "Convolution"
  bottom: "inception_4e/3x3_reduce"
  top: "inception_4e/3x3"
  param {
    lr_mult: 1
    decay_mult: 1
  }
  param {
    lr_mult: 2
    decay_mult: 0
  }
  convolution_param {
    num_output: 320
    pad: 1
    kernel_size: 3
    weight_filler {
      type: "xavier"
      std: 0.03
    }
    bias_filler {
      type: "constant"
      value: 0.2
    }
  }
}
layer {
  name: "inception_4e/relu_3x3"
  type: "ReLU"
  bottom: "inception_4e/3x3"
  top: "inception_4e/3x3"
}
layer {
  name: "inception_4e/5x5_reduce"
  type: "Convolution"
  bottom: "inception_4d/output"
  top: "inception_4e/5x5_reduce"
  param {
    lr_mult: 1
    decay_mult: 1
  }
  param {
    lr_mult: 2
    decay_mult: 0
  }
  convolution_param {
    num_output: 32
    kernel_size: 1
    weight_filler {
      type: "xavier"
      std: 0.2
    }
    bias_filler {
      type: "constant"
      value: 0.2
    }
  }
}
layer {
  name: "inception_4e/relu_5x5_reduce"
  type: "ReLU"
  bottom: "inception_4e/5x5_reduce"
  top: "inception_4e/5x5_reduce"
}
layer {
  name: "inception_4e/5x5"
  type: "Convolution"
  bottom: "inception_4e/5x5_reduce"
  top: "inception_4e/5x5"
  p
I0403 16:31:06.508054 21158 layer_factory.hpp:77] Creating layer data
I0403 16:31:06.508656 21158 net.cpp:91] Creating Layer data
I0403 16:31:06.508689 21158 net.cpp:399] data -> data
I0403 16:31:06.508739 21158 net.cpp:399] data -> label
I0403 16:31:06.508775 21158 data_transformer.cpp:25] Loading mean file from: /home/mohanty/data/final_dataset/lmdb/color-40-60/mean.binaryproto
I0403 16:31:06.510010 21164 db_lmdb.cpp:38] Opened lmdb /home/mohanty/data/final_dataset/lmdb/color-40-60/test_db
I0403 16:31:06.521764 21158 data_layer.cpp:41] output data size: 24,3,224,224
I0403 16:31:06.551408 21158 net.cpp:141] Setting up data
I0403 16:31:06.551509 21158 net.cpp:148] Top shape: 24 3 224 224 (3612672)
I0403 16:31:06.551530 21158 net.cpp:148] Top shape: 24 (24)
I0403 16:31:06.551545 21158 net.cpp:156] Memory required for data: 14450784
I0403 16:31:06.551571 21158 layer_factory.hpp:77] Creating layer label_data_1_split
I0403 16:31:06.551596 21158 net.cpp:91] Creating Layer label_data_1_split
I0403 16:31:06.551614 21158 net.cpp:425] label_data_1_split <- label
I0403 16:31:06.551646 21158 net.cpp:399] label_data_1_split -> label_data_1_split_0
I0403 16:31:06.551673 21158 net.cpp:399] label_data_1_split -> label_data_1_split_1
I0403 16:31:06.551694 21158 net.cpp:399] label_data_1_split -> label_data_1_split_2
I0403 16:31:06.551714 21158 net.cpp:399] label_data_1_split -> label_data_1_split_3
I0403 16:31:06.551733 21158 net.cpp:399] label_data_1_split -> label_data_1_split_4
I0403 16:31:06.551753 21158 net.cpp:399] label_data_1_split -> label_data_1_split_5
I0403 16:31:06.551771 21158 net.cpp:399] label_data_1_split -> label_data_1_split_6
I0403 16:31:06.551790 21158 net.cpp:399] label_data_1_split -> label_data_1_split_7
I0403 16:31:06.551808 21158 net.cpp:399] label_data_1_split -> label_data_1_split_8
I0403 16:31:06.551828 21158 net.cpp:399] label_data_1_split -> label_data_1_split_9
I0403 16:31:06.551940 21158 net.cpp:141] Setting up label_data_1_split
I0403 16:31:06.551964 21158 net.cpp:148] Top shape: 24 (24)
I0403 16:31:06.551980 21158 net.cpp:148] Top shape: 24 (24)
I0403 16:31:06.552001 21158 net.cpp:148] Top shape: 24 (24)
I0403 16:31:06.552017 21158 net.cpp:148] Top shape: 24 (24)
I0403 16:31:06.552032 21158 net.cpp:148] Top shape: 24 (24)
I0403 16:31:06.552047 21158 net.cpp:148] Top shape: 24 (24)
I0403 16:31:06.552062 21158 net.cpp:148] Top shape: 24 (24)
I0403 16:31:06.552078 21158 net.cpp:148] Top shape: 24 (24)
I0403 16:31:06.552093 21158 net.cpp:148] Top shape: 24 (24)
I0403 16:31:06.552109 21158 net.cpp:148] Top shape: 24 (24)
I0403 16:31:06.552151 21158 net.cpp:156] Memory required for data: 14451744
I0403 16:31:06.552166 21158 layer_factory.hpp:77] Creating layer conv1/7x7_s2
I0403 16:31:06.552197 21158 net.cpp:91] Creating Layer conv1/7x7_s2
I0403 16:31:06.552217 21158 net.cpp:425] conv1/7x7_s2 <- data
I0403 16:31:06.552235 21158 net.cpp:399] conv1/7x7_s2 -> conv1/7x7_s2
I0403 16:31:06.695062 21158 net.cpp:141] Setting up conv1/7x7_s2
I0403 16:31:06.695152 21158 net.cpp:148] Top shape: 24 64 112 112 (19267584)
I0403 16:31:06.695169 21158 net.cpp:156] Memory required for data: 91522080
I0403 16:31:06.695201 21158 layer_factory.hpp:77] Creating layer conv1/relu_7x7
I0403 16:31:06.695230 21158 net.cpp:91] Creating Layer conv1/relu_7x7
I0403 16:31:06.695250 21158 net.cpp:425] conv1/relu_7x7 <- conv1/7x7_s2
I0403 16:31:06.695269 21158 net.cpp:386] conv1/relu_7x7 -> conv1/7x7_s2 (in-place)
I0403 16:31:06.695562 21158 net.cpp:141] Setting up conv1/relu_7x7
I0403 16:31:06.695591 21158 net.cpp:148] Top shape: 24 64 112 112 (19267584)
I0403 16:31:06.695608 21158 net.cpp:156] Memory required for data: 168592416
I0403 16:31:06.695624 21158 layer_factory.hpp:77] Creating layer pool1/3x3_s2
I0403 16:31:06.695649 21158 net.cpp:91] Creating Layer pool1/3x3_s2
I0403 16:31:06.695667 21158 net.cpp:425] pool1/3x3_s2 <- conv1/7x7_s2
I0403 16:31:06.695688 21158 net.cpp:399] pool1/3x3_s2 -> pool1/3x3_s2
I0403 16:31:06.695765 21158 net.cpp:141] Setting up pool1/3x3_s2
I0403 16:31:06.695790 21158 net.cpp:148] Top shape: 24 64 56 56 (4816896)
I0403 16:31:06.695804 21158 net.cpp:156] Memory required for data: 187860000
I0403 16:31:06.695819 21158 layer_factory.hpp:77] Creating layer pool1/norm1
I0403 16:31:06.695844 21158 net.cpp:91] Creating Layer pool1/norm1
I0403 16:31:06.695863 21158 net.cpp:425] pool1/norm1 <- pool1/3x3_s2
I0403 16:31:06.695883 21158 net.cpp:399] pool1/norm1 -> pool1/norm1
I0403 16:31:06.696184 21158 net.cpp:141] Setting up pool1/norm1
I0403 16:31:06.696213 21158 net.cpp:148] Top shape: 24 64 56 56 (4816896)
I0403 16:31:06.696230 21158 net.cpp:156] Memory required for data: 207127584
I0403 16:31:06.696249 21158 layer_factory.hpp:77] Creating layer conv2/3x3_reduce
I0403 16:31:06.696274 21158 net.cpp:91] Creating Layer conv2/3x3_reduce
I0403 16:31:06.696291 21158 net.cpp:425] conv2/3x3_reduce <- pool1/norm1
I0403 16:31:06.696311 21158 net.cpp:399] conv2/3x3_reduce -> conv2/3x3_reduce
I0403 16:31:06.698997 21158 net.cpp:141] Setting up conv2/3x3_reduce
I0403 16:31:06.699038 21158 net.cpp:148] Top shape: 24 64 56 56 (4816896)
I0403 16:31:06.699085 21158 net.cpp:156] Memory required for data: 226395168
I0403 16:31:06.699110 21158 layer_factory.hpp:77] Creating layer conv2/relu_3x3_reduce
I0403 16:31:06.699129 21158 net.cpp:91] Creating Layer conv2/relu_3x3_reduce
I0403 16:31:06.699146 21158 net.cpp:425] conv2/relu_3x3_reduce <- conv2/3x3_reduce
I0403 16:31:06.699164 21158 net.cpp:386] conv2/relu_3x3_reduce -> conv2/3x3_reduce (in-place)
I0403 16:31:06.699439 21158 net.cpp:141] Setting up conv2/relu_3x3_reduce
I0403 16:31:06.699466 21158 net.cpp:148] Top shape: 24 64 56 56 (4816896)
I0403 16:31:06.699482 21158 net.cpp:156] Memory required for data: 245662752
I0403 16:31:06.699498 21158 layer_factory.hpp:77] Creating layer conv2/3x3
I0403 16:31:06.699522 21158 net.cpp:91] Creating Layer conv2/3x3
I0403 16:31:06.699540 21158 net.cpp:425] conv2/3x3 <- conv2/3x3_reduce
I0403 16:31:06.699560 21158 net.cpp:399] conv2/3x3 -> conv2/3x3
I0403 16:31:06.701941 21158 net.cpp:141] Setting up conv2/3x3
I0403 16:31:06.701973 21158 net.cpp:148] Top shape: 24 192 56 56 (14450688)
I0403 16:31:06.701997 21158 net.cpp:156] Memory required for data: 303465504
I0403 16:31:06.702021 21158 layer_factory.hpp:77] Creating layer conv2/relu_3x3
I0403 16:31:06.702042 21158 net.cpp:91] Creating Layer conv2/relu_3x3
I0403 16:31:06.702059 21158 net.cpp:425] conv2/relu_3x3 <- conv2/3x3
I0403 16:31:06.702077 21158 net.cpp:386] conv2/relu_3x3 -> conv2/3x3 (in-place)
I0403 16:31:06.702244 21158 net.cpp:141] Setting up conv2/relu_3x3
I0403 16:31:06.702270 21158 net.cpp:148] Top shape: 24 192 56 56 (14450688)
I0403 16:31:06.702319 21158 net.cpp:156] Memory required for data: 361268256
I0403 16:31:06.702337 21158 layer_factory.hpp:77] Creating layer conv2/norm2
I0403 16:31:06.702358 21158 net.cpp:91] Creating Layer conv2/norm2
I0403 16:31:06.702374 21158 net.cpp:425] conv2/norm2 <- conv2/3x3
I0403 16:31:06.702394 21158 net.cpp:399] conv2/norm2 -> conv2/norm2
I0403 16:31:06.702695 21158 net.cpp:141] Setting up conv2/norm2
I0403 16:31:06.702724 21158 net.cpp:148] Top shape: 24 192 56 56 (14450688)
I0403 16:31:06.702739 21158 net.cpp:156] Memory required for data: 419071008
I0403 16:31:06.702755 21158 layer_factory.hpp:77] Creating layer pool2/3x3_s2
I0403 16:31:06.702775 21158 net.cpp:91] Creating Layer pool2/3x3_s2
I0403 16:31:06.702790 21158 net.cpp:425] pool2/3x3_s2 <- conv2/norm2
I0403 16:31:06.702810 21158 net.cpp:399] pool2/3x3_s2 -> pool2/3x3_s2
I0403 16:31:06.702862 21158 net.cpp:141] Setting up pool2/3x3_s2
I0403 16:31:06.702885 21158 net.cpp:148] Top shape: 24 192 28 28 (3612672)
I0403 16:31:06.702900 21158 net.cpp:156] Memory required for data: 433521696
I0403 16:31:06.702916 21158 layer_factory.hpp:77] Creating layer pool2/3x3_s2_pool2/3x3_s2_0_split
I0403 16:31:06.702934 21158 net.cpp:91] Creating Layer pool2/3x3_s2_pool2/3x3_s2_0_split
I0403 16:31:06.702951 21158 net.cpp:425] pool2/3x3_s2_pool2/3x3_s2_0_split <- pool2/3x3_s2
I0403 16:31:06.702970 21158 net.cpp:399] pool2/3x3_s2_pool2/3x3_s2_0_split -> pool2/3x3_s2_pool2/3x3_s2_0_split_0
I0403 16:31:06.702997 21158 net.cpp:399] pool2/3x3_s2_pool2/3x3_s2_0_split -> pool2/3x3_s2_pool2/3x3_s2_0_split_1
I0403 16:31:06.703019 21158 net.cpp:399] pool2/3x3_s2_pool2/3x3_s2_0_split -> pool2/3x3_s2_pool2/3x3_s2_0_split_2
I0403 16:31:06.703039 21158 net.cpp:399] pool2/3x3_s2_pool2/3x3_s2_0_split -> pool2/3x3_s2_pool2/3x3_s2_0_split_3
I0403 16:31:06.703104 21158 net.cpp:141] Setting up pool2/3x3_s2_pool2/3x3_s2_0_split
I0403 16:31:06.703127 21158 net.cpp:148] Top shape: 24 192 28 28 (3612672)
I0403 16:31:06.703145 21158 net.cpp:148] Top shape: 24 192 28 28 (3612672)
I0403 16:31:06.703161 21158 net.cpp:148] Top shape: 24 192 28 28 (3612672)
I0403 16:31:06.703178 21158 net.cpp:148] Top shape: 24 192 28 28 (3612672)
I0403 16:31:06.703193 21158 net.cpp:156] Memory required for data: 491324448
I0403 16:31:06.703208 21158 layer_factory.hpp:77] Creating layer inception_3a/1x1
I0403 16:31:06.703229 21158 net.cpp:91] Creating Layer inception_3a/1x1
I0403 16:31:06.703246 21158 net.cpp:425] inception_3a/1x1 <- pool2/3x3_s2_pool2/3x3_s2_0_split_0
I0403 16:31:06.703265 21158 net.cpp:399] inception_3a/1x1 -> inception_3a/1x1
I0403 16:31:06.706241 21158 net.cpp:141] Setting up inception_3a/1x1
I0403 16:31:06.706272 21158 net.cpp:148] Top shape: 24 64 28 28 (1204224)
I0403 16:31:06.706289 21158 net.cpp:156] Memory required for data: 496141344
I0403 16:31:06.706308 21158 layer_factory.hpp:77] Creating layer inception_3a/relu_1x1
I0403 16:31:06.706327 21158 net.cpp:91] Creating Layer inception_3a/relu_1x1
I0403 16:31:06.706344 21158 net.cpp:425] inception_3a/relu_1x1 <- inception_3a/1x1
I0403 16:31:06.706362 21158 net.cpp:386] inception_3a/relu_1x1 -> inception_3a/1x1 (in-place)
I0403 16:31:06.706529 21158 net.cpp:141] Setting up inception_3a/relu_1x1
I0403 16:31:06.706555 21158 net.cpp:148] Top shape: 24 64 28 28 (1204224)
I0403 16:31:06.706571 21158 net.cpp:156] Memory required for data: 500958240
I0403 16:31:06.706588 21158 layer_factory.hpp:77] Creating layer inception_3a/3x3_reduce
I0403 16:31:06.706609 21158 net.cpp:91] Creating Layer inception_3a/3x3_reduce
I0403 16:31:06.706626 21158 net.cpp:425] inception_3a/3x3_reduce <- pool2/3x3_s2_pool2/3x3_s2_0_split_1
I0403 16:31:06.706645 21158 net.cpp:399] inception_3a/3x3_reduce -> inception_3a/3x3_reduce
I0403 16:31:06.709461 21158 net.cpp:141] Setting up inception_3a/3x3_reduce
I0403 16:31:06.709492 21158 net.cpp:148] Top shape: 24 96 28 28 (1806336)
I0403 16:31:06.709509 21158 net.cpp:156] Memory required for data: 508183584
I0403 16:31:06.709532 21158 layer_factory.hpp:77] Creating layer inception_3a/relu_3x3_reduce
I0403 16:31:06.709571 21158 net.cpp:91] Creating Layer inception_3a/relu_3x3_reduce
I0403 16:31:06.709590 21158 net.cpp:425] inception_3a/relu_3x3_reduce <- inception_3a/3x3_reduce
I0403 16:31:06.709609 21158 net.cpp:386] inception_3a/relu_3x3_reduce -> inception_3a/3x3_reduce (in-place)
I0403 16:31:06.709803 21158 net.cpp:141] Setting up inception_3a/relu_3x3_reduce
I0403 16:31:06.709830 21158 net.cpp:148] Top shape: 24 96 28 28 (1806336)
I0403 16:31:06.709846 21158 net.cpp:156] Memory required for data: 515408928
I0403 16:31:06.709861 21158 layer_factory.hpp:77] Creating layer inception_3a/3x3
I0403 16:31:06.709885 21158 net.cpp:91] Creating Layer inception_3a/3x3
I0403 16:31:06.709903 21158 net.cpp:425] inception_3a/3x3 <- inception_3a/3x3_reduce
I0403 16:31:06.709925 21158 net.cpp:399] inception_3a/3x3 -> inception_3a/3x3
I0403 16:31:06.711673 21158 net.cpp:141] Setting up inception_3a/3x3
I0403 16:31:06.711700 21158 net.cpp:148] Top shape: 24 128 28 28 (2408448)
I0403 16:31:06.711716 21158 net.cpp:156] Memory required for data: 525042720
I0403 16:31:06.711735 21158 layer_factory.hpp:77] Creating layer inception_3a/relu_3x3
I0403 16:31:06.711757 21158 net.cpp:91] Creating Layer inception_3a/relu_3x3
I0403 16:31:06.711774 21158 net.cpp:425] inception_3a/relu_3x3 <- inception_3a/3x3
I0403 16:31:06.711793 21158 net.cpp:386] inception_3a/relu_3x3 -> inception_3a/3x3 (in-place)
I0403 16:31:06.712080 21158 net.cpp:141] Setting up inception_3a/relu_3x3
I0403 16:31:06.712107 21158 net.cpp:148] Top shape: 24 128 28 28 (2408448)
I0403 16:31:06.712122 21158 net.cpp:156] Memory required for data: 534676512
I0403 16:31:06.712138 21158 layer_factory.hpp:77] Creating layer inception_3a/5x5_reduce
I0403 16:31:06.712162 21158 net.cpp:91] Creating Layer inception_3a/5x5_reduce
I0403 16:31:06.712179 21158 net.cpp:425] inception_3a/5x5_reduce <- pool2/3x3_s2_pool2/3x3_s2_0_split_2
I0403 16:31:06.712200 21158 net.cpp:399] inception_3a/5x5_reduce -> inception_3a/5x5_reduce
I0403 16:31:06.713189 21158 net.cpp:141] Setting up inception_3a/5x5_reduce
I0403 16:31:06.713218 21158 net.cpp:148] Top shape: 24 16 28 28 (301056)
I0403 16:31:06.713233 21158 net.cpp:156] Memory required for data: 535880736
I0403 16:31:06.713253 21158 layer_factory.hpp:77] Creating layer inception_3a/relu_5x5_reduce
I0403 16:31:06.713274 21158 net.cpp:91] Creating Layer inception_3a/relu_5x5_reduce
I0403 16:31:06.713291 21158 net.cpp:425] inception_3a/relu_5x5_reduce <- inception_3a/5x5_reduce
I0403 16:31:06.713310 21158 net.cpp:386] inception_3a/relu_5x5_reduce -> inception_3a/5x5_reduce (in-place)
I0403 16:31:06.713618 21158 net.cpp:141] Setting up inception_3a/relu_5x5_reduce
I0403 16:31:06.713649 21158 net.cpp:148] Top shape: 24 16 28 28 (301056)
I0403 16:31:06.713665 21158 net.cpp:156] Memory required for data: 537084960
I0403 16:31:06.713680 21158 layer_factory.hpp:77] Creating layer inception_3a/5x5
I0403 16:31:06.713703 21158 net.cpp:91] Creating Layer inception_3a/5x5
I0403 16:31:06.713721 21158 net.cpp:425] inception_3a/5x5 <- inception_3a/5x5_reduce
I0403 16:31:06.713740 21158 net.cpp:399] inception_3a/5x5 -> inception_3a/5x5
I0403 16:31:06.714772 21158 net.cpp:141] Setting up inception_3a/5x5
I0403 16:31:06.714800 21158 net.cpp:148] Top shape: 24 32 28 28 (602112)
I0403 16:31:06.714817 21158 net.cpp:156] Memory required for data: 539493408
I0403 16:31:06.714834 21158 layer_factory.hpp:77] Creating layer inception_3a/relu_5x5
I0403 16:31:06.714856 21158 net.cpp:91] Creating Layer inception_3a/relu_5x5
I0403 16:31:06.714874 21158 net.cpp:425] inception_3a/relu_5x5 <- inception_3a/5x5
I0403 16:31:06.714891 21158 net.cpp:386] inception_3a/relu_5x5 -> inception_3a/5x5 (in-place)
I0403 16:31:06.715070 21158 net.cpp:141] Setting up inception_3a/relu_5x5
I0403 16:31:06.715100 21158 net.cpp:148] Top shape: 24 32 28 28 (602112)
I0403 16:31:06.715116 21158 net.cpp:156] Memory required for data: 541901856
I0403 16:31:06.715131 21158 layer_factory.hpp:77] Creating layer inception_3a/pool
I0403 16:31:06.715149 21158 net.cpp:91] Creating Layer inception_3a/pool
I0403 16:31:06.715165 21158 net.cpp:425] inception_3a/pool <- pool2/3x3_s2_pool2/3x3_s2_0_split_3
I0403 16:31:06.715198 21158 net.cpp:399] inception_3a/pool -> inception_3a/pool
I0403 16:31:06.715258 21158 net.cpp:141] Setting up inception_3a/pool
I0403 16:31:06.715281 21158 net.cpp:148] Top shape: 24 192 28 28 (3612672)
I0403 16:31:06.715296 21158 net.cpp:156] Memory required for data: 556352544
I0403 16:31:06.715312 21158 layer_factory.hpp:77] Creating layer inception_3a/pool_proj
I0403 16:31:06.715333 21158 net.cpp:91] Creating Layer inception_3a/pool_proj
I0403 16:31:06.715350 21158 net.cpp:425] inception_3a/pool_proj <- inception_3a/pool
I0403 16:31:06.715373 21158 net.cpp:399] inception_3a/pool_proj -> inception_3a/pool_proj
I0403 16:31:06.716357 21158 net.cpp:141] Setting up inception_3a/pool_proj
I0403 16:31:06.716387 21158 net.cpp:148] Top shape: 24 32 28 28 (602112)
I0403 16:31:06.716403 21158 net.cpp:156] Memory required for data: 558760992
I0403 16:31:06.716424 21158 layer_factory.hpp:77] Creating layer inception_3a/relu_pool_proj
I0403 16:31:06.716445 21158 net.cpp:91] Creating Layer inception_3a/relu_pool_proj
I0403 16:31:06.716464 21158 net.cpp:425] inception_3a/relu_pool_proj <- inception_3a/pool_proj
I0403 16:31:06.716480 21158 net.cpp:386] inception_3a/relu_pool_proj -> inception_3a/pool_proj (in-place)
I0403 16:31:06.716763 21158 net.cpp:141] Setting up inception_3a/relu_pool_proj
I0403 16:31:06.716790 21158 net.cpp:148] Top shape: 24 32 28 28 (602112)
I0403 16:31:06.716805 21158 net.cpp:156] Memory required for data: 561169440
I0403 16:31:06.716821 21158 layer_factory.hpp:77] Creating layer inception_3a/output
I0403 16:31:06.716840 21158 net.cpp:91] Creating Layer inception_3a/output
I0403 16:31:06.716856 21158 net.cpp:425] inception_3a/output <- inception_3a/1x1
I0403 16:31:06.716874 21158 net.cpp:425] inception_3a/output <- inception_3a/3x3
I0403 16:31:06.716892 21158 net.cpp:425] inception_3a/output <- inception_3a/5x5
I0403 16:31:06.716908 21158 net.cpp:425] inception_3a/output <- inception_3a/pool_proj
I0403 16:31:06.716925 21158 net.cpp:399] inception_3a/output -> inception_3a/output
I0403 16:31:06.716974 21158 net.cpp:141] Setting up inception_3a/output
I0403 16:31:06.717005 21158 net.cpp:148] Top shape: 24 256 28 28 (4816896)
I0403 16:31:06.717020 21158 net.cpp:156] Memory required for data: 580437024
I0403 16:31:06.717036 21158 layer_factory.hpp:77] Creating layer inception_3a/output_inception_3a/output_0_split
I0403 16:31:06.717053 21158 net.cpp:91] Creating Layer inception_3a/output_inception_3a/output_0_split
I0403 16:31:06.717068 21158 net.cpp:425] inception_3a/output_inception_3a/output_0_split <- inception_3a/output
I0403 16:31:06.717088 21158 net.cpp:399] inception_3a/output_inception_3a/output_0_split -> inception_3a/output_inception_3a/output_0_split_0
I0403 16:31:06.717109 21158 net.cpp:399] inception_3a/output_inception_3a/output_0_split -> inception_3a/output_inception_3a/output_0_split_1
I0403 16:31:06.717131 21158 net.cpp:399] inception_3a/output_inception_3a/output_0_split -> inception_3a/output_inception_3a/output_0_split_2
I0403 16:31:06.717156 21158 net.cpp:399] inception_3a/output_inception_3a/output_0_split -> inception_3a/output_inception_3a/output_0_split_3
I0403 16:31:06.717231 21158 net.cpp:141] Setting up inception_3a/output_inception_3a/output_0_split
I0403 16:31:06.717253 21158 net.cpp:148] Top shape: 24 256 28 28 (4816896)
I0403 16:31:06.717270 21158 net.cpp:148] Top shape: 24 256 28 28 (4816896)
I0403 16:31:06.717286 21158 net.cpp:148] Top shape: 24 256 28 28 (4816896)
I0403 16:31:06.717303 21158 net.cpp:148] Top shape: 24 256 28 28 (4816896)
I0403 16:31:06.717316 21158 net.cpp:156] Memory required for data: 657507360
I0403 16:31:06.717331 21158 layer_factory.hpp:77] Creating layer inception_3b/1x1
I0403 16:31:06.717355 21158 net.cpp:91] Creating Layer inception_3b/1x1
I0403 16:31:06.717371 21158 net.cpp:425] inception_3b/1x1 <- inception_3a/output_inception_3a/output_0_split_0
I0403 16:31:06.717394 21158 net.cpp:399] inception_3b/1x1 -> inception_3b/1x1
I0403 16:31:06.718569 21158 net.cpp:141] Setting up inception_3b/1x1
I0403 16:31:06.718611 21158 net.cpp:148] Top shape: 24 128 28 28 (2408448)
I0403 16:31:06.718627 21158 net.cpp:156] Memory required for data: 667141152
I0403 16:31:06.718647 21158 layer_factory.hpp:77] Creating layer inception_3b/relu_1x1
I0403 16:31:06.718667 21158 net.cpp:91] Creating Layer inception_3b/relu_1x1
I0403 16:31:06.718685 21158 net.cpp:425] inception_3b/relu_1x1 <- inception_3b/1x1
I0403 16:31:06.718703 21158 net.cpp:386] inception_3b/relu_1x1 -> inception_3b/1x1 (in-place)
I0403 16:31:06.718879 21158 net.cpp:141] Setting up inception_3b/relu_1x1
I0403 16:31:06.718904 21158 net.cpp:148] Top shape: 24 128 28 28 (2408448)
I0403 16:31:06.718919 21158 net.cpp:156] Memory required for data: 676774944
I0403 16:31:06.718935 21158 layer_factory.hpp:77] Creating layer inception_3b/3x3_reduce
I0403 16:31:06.718957 21158 net.cpp:91] Creating Layer inception_3b/3x3_reduce
I0403 16:31:06.718976 21158 net.cpp:425] inception_3b/3x3_reduce <- inception_3a/output_inception_3a/output_0_split_1
I0403 16:31:06.719007 21158 net.cpp:399] inception_3b/3x3_reduce -> inception_3b/3x3_reduce
I0403 16:31:06.720173 21158 net.cpp:141] Setting up inception_3b/3x3_reduce
I0403 16:31:06.720201 21158 net.cpp:148] Top shape: 24 128 28 28 (2408448)
I0403 16:31:06.720217 21158 net.cpp:156] Memory required for data: 686408736
I0403 16:31:06.720235 21158 layer_factory.hpp:77] Creating layer inception_3b/relu_3x3_reduce
I0403 16:31:06.720255 21158 net.cpp:91] Creating Layer inception_3b/relu_3x3_reduce
I0403 16:31:06.720271 21158 net.cpp:425] inception_3b/relu_3x3_reduce <- inception_3b/3x3_reduce
I0403 16:31:06.720290 21158 net.cpp:386] inception_3b/relu_3x3_reduce -> inception_3b/3x3_reduce (in-place)
I0403 16:31:06.720459 21158 net.cpp:141] Setting up inception_3b/relu_3x3_reduce
I0403 16:31:06.720484 21158 net.cpp:148] Top shape: 24 128 28 28 (2408448)
I0403 16:31:06.720499 21158 net.cpp:156] Memory required for data: 696042528
I0403 16:31:06.720513 21158 layer_factory.hpp:77] Creating layer inception_3b/3x3
I0403 16:31:06.720540 21158 net.cpp:91] Creating Layer inception_3b/3x3
I0403 16:31:06.720557 21158 net.cpp:425] inception_3b/3x3 <- inception_3b/3x3_reduce
I0403 16:31:06.720577 21158 net.cpp:399] inception_3b/3x3 -> inception_3b/3x3
I0403 16:31:06.723464 21158 net.cpp:141] Setting up inception_3b/3x3
I0403 16:31:06.723494 21158 net.cpp:148] Top shape: 24 192 28 28 (3612672)
I0403 16:31:06.723508 21158 net.cpp:156] Memory required for data: 710493216
I0403 16:31:06.723527 21158 layer_factory.hpp:77] Creating layer inception_3b/relu_3x3
I0403 16:31:06.723547 21158 net.cpp:91] Creating Layer inception_3b/relu_3x3
I0403 16:31:06.723564 21158 net.cpp:425] inception_3b/relu_3x3 <- inception_3b/3x3
I0403 16:31:06.723582 21158 net.cpp:386] inception_3b/relu_3x3 -> inception_3b/3x3 (in-place)
I0403 16:31:06.723860 21158 net.cpp:141] Setting up inception_3b/relu_3x3
I0403 16:31:06.723884 21158 net.cpp:148] Top shape: 24 192 28 28 (3612672)
I0403 16:31:06.723899 21158 net.cpp:156] Memory required for data: 724943904
I0403 16:31:06.723914 21158 layer_factory.hpp:77] Creating layer inception_3b/5x5_reduce
I0403 16:31:06.723938 21158 net.cpp:91] Creating Layer inception_3b/5x5_reduce
I0403 16:31:06.723955 21158 net.cpp:425] inception_3b/5x5_reduce <- inception_3a/output_inception_3a/output_0_split_2
I0403 16:31:06.723978 21158 net.cpp:399] inception_3b/5x5_reduce -> inception_3b/5x5_reduce
I0403 16:31:06.724956 21158 net.cpp:141] Setting up inception_3b/5x5_reduce
I0403 16:31:06.724983 21158 net.cpp:148] Top shape: 24 32 28 28 (602112)
I0403 16:31:06.725008 21158 net.cpp:156] Memory required for data: 727352352
I0403 16:31:06.725026 21158 layer_factory.hpp:77] Creating layer inception_3b/relu_5x5_reduce
I0403 16:31:06.725050 21158 net.cpp:91] Creating Layer inception_3b/relu_5x5_reduce
I0403 16:31:06.725069 21158 net.cpp:425] inception_3b/relu_5x5_reduce <- inception_3b/5x5_reduce
I0403 16:31:06.725088 21158 net.cpp:386] inception_3b/relu_5x5_reduce -> inception_3b/5x5_reduce (in-place)
I0403 16:31:06.725261 21158 net.cpp:141] Setting up inception_3b/relu_5x5_reduce
I0403 16:31:06.725303 21158 net.cpp:148] Top shape: 24 32 28 28 (602112)
I0403 16:31:06.725320 21158 net.cpp:156] Memory required for data: 729760800
I0403 16:31:06.725337 21158 layer_factory.hpp:77] Creating layer inception_3b/5x5
I0403 16:31:06.725359 21158 net.cpp:91] Creating Layer inception_3b/5x5
I0403 16:31:06.725378 21158 net.cpp:425] inception_3b/5x5 <- inception_3b/5x5_reduce
I0403 16:31:06.725395 21158 net.cpp:399] inception_3b/5x5 -> inception_3b/5x5
I0403 16:31:06.727391 21158 net.cpp:141] Setting up inception_3b/5x5
I0403 16:31:06.727421 21158 net.cpp:148] Top shape: 24 96 28 28 (1806336)
I0403 16:31:06.727438 21158 net.cpp:156] Memory required for data: 736986144
I0403 16:31:06.727458 21158 layer_factory.hpp:77] Creating layer inception_3b/relu_5x5
I0403 16:31:06.727476 21158 net.cpp:91] Creating Layer inception_3b/relu_5x5
I0403 16:31:06.727493 21158 net.cpp:425] inception_3b/relu_5x5 <- inception_3b/5x5
I0403 16:31:06.727512 21158 net.cpp:386] inception_3b/relu_5x5 -> inception_3b/5x5 (in-place)
I0403 16:31:06.727699 21158 net.cpp:141] Setting up inception_3b/relu_5x5
I0403 16:31:06.727725 21158 net.cpp:148] Top shape: 24 96 28 28 (1806336)
I0403 16:31:06.727740 21158 net.cpp:156] Memory required for data: 744211488
I0403 16:31:06.727754 21158 layer_factory.hpp:77] Creating layer inception_3b/pool
I0403 16:31:06.727772 21158 net.cpp:91] Creating Layer inception_3b/pool
I0403 16:31:06.727788 21158 net.cpp:425] inception_3b/pool <- inception_3a/output_inception_3a/output_0_split_3
I0403 16:31:06.727805 21158 net.cpp:399] inception_3b/pool -> inception_3b/pool
I0403 16:31:06.727860 21158 net.cpp:141] Setting up inception_3b/pool
I0403 16:31:06.727883 21158 net.cpp:148] Top shape: 24 256 28 28 (4816896)
I0403 16:31:06.727898 21158 net.cpp:156] Memory required for data: 763479072
I0403 16:31:06.727913 21158 layer_factory.hpp:77] Creating layer inception_3b/pool_proj
I0403 16:31:06.727936 21158 net.cpp:91] Creating Layer inception_3b/pool_proj
I0403 16:31:06.727953 21158 net.cpp:425] inception_3b/pool_proj <- inception_3b/pool
I0403 16:31:06.727973 21158 net.cpp:399] inception_3b/pool_proj -> inception_3b/pool_proj
I0403 16:31:06.729043 21158 net.cpp:141] Setting up inception_3b/pool_proj
I0403 16:31:06.729075 21158 net.cpp:148] Top shape: 24 64 28 28 (1204224)
I0403 16:31:06.729092 21158 net.cpp:156] Memory required for data: 768295968
I0403 16:31:06.729112 21158 layer_factory.hpp:77] Creating layer inception_3b/relu_pool_proj
I0403 16:31:06.729132 21158 net.cpp:91] Creating Layer inception_3b/relu_pool_proj
I0403 16:31:06.729149 21158 net.cpp:425] inception_3b/relu_pool_proj <- inception_3b/pool_proj
I0403 16:31:06.729167 21158 net.cpp:386] inception_3b/relu_pool_proj -> inception_3b/pool_proj (in-place)
I0403 16:31:06.729569 21158 net.cpp:141] Setting up inception_3b/relu_pool_proj
I0403 16:31:06.729598 21158 net.cpp:148] Top shape: 24 64 28 28 (1204224)
I0403 16:31:06.729614 21158 net.cpp:156] Memory required for data: 773112864
I0403 16:31:06.729629 21158 layer_factory.hpp:77] Creating layer inception_3b/output
I0403 16:31:06.729650 21158 net.cpp:91] Creating Layer inception_3b/output
I0403 16:31:06.729667 21158 net.cpp:425] inception_3b/output <- inception_3b/1x1
I0403 16:31:06.729684 21158 net.cpp:425] inception_3b/output <- inception_3b/3x3
I0403 16:31:06.729701 21158 net.cpp:425] inception_3b/output <- inception_3b/5x5
I0403 16:31:06.729718 21158 net.cpp:425] inception_3b/output <- inception_3b/pool_proj
I0403 16:31:06.729735 21158 net.cpp:399] inception_3b/output -> inception_3b/output
I0403 16:31:06.729781 21158 net.cpp:141] Setting up inception_3b/output
I0403 16:31:06.729804 21158 net.cpp:148] Top shape: 24 480 28 28 (9031680)
I0403 16:31:06.729820 21158 net.cpp:156] Memory required for data: 809239584
I0403 16:31:06.729835 21158 layer_factory.hpp:77] Creating layer pool3/3x3_s2
I0403 16:31:06.729852 21158 net.cpp:91] Creating Layer pool3/3x3_s2
I0403 16:31:06.729868 21158 net.cpp:425] pool3/3x3_s2 <- inception_3b/output
I0403 16:31:06.729888 21158 net.cpp:399] pool3/3x3_s2 -> pool3/3x3_s2
I0403 16:31:06.729969 21158 net.cpp:141] Setting up pool3/3x3_s2
I0403 16:31:06.729996 21158 net.cpp:148] Top shape: 24 480 14 14 (2257920)
I0403 16:31:06.730012 21158 net.cpp:156] Memory required for data: 818271264
I0403 16:31:06.730027 21158 layer_factory.hpp:77] Creating layer pool3/3x3_s2_pool3/3x3_s2_0_split
I0403 16:31:06.730047 21158 net.cpp:91] Creating Layer pool3/3x3_s2_pool3/3x3_s2_0_split
I0403 16:31:06.730063 21158 net.cpp:425] pool3/3x3_s2_pool3/3x3_s2_0_split <- pool3/3x3_s2
I0403 16:31:06.730082 21158 net.cpp:399] pool3/3x3_s2_pool3/3x3_s2_0_split -> pool3/3x3_s2_pool3/3x3_s2_0_split_0
I0403 16:31:06.730103 21158 net.cpp:399] pool3/3x3_s2_pool3/3x3_s2_0_split -> pool3/3x3_s2_pool3/3x3_s2_0_split_1
I0403 16:31:06.730121 21158 net.cpp:399] pool3/3x3_s2_pool3/3x3_s2_0_split -> pool3/3x3_s2_pool3/3x3_s2_0_split_2
I0403 16:31:06.730140 21158 net.cpp:399] pool3/3x3_s2_pool3/3x3_s2_0_split -> pool3/3x3_s2_pool3/3x3_s2_0_split_3
I0403 16:31:06.730214 21158 net.cpp:141] Setting up pool3/3x3_s2_pool3/3x3_s2_0_split
I0403 16:31:06.730239 21158 net.cpp:148] Top shape: 24 480 14 14 (2257920)
I0403 16:31:06.730255 21158 net.cpp:148] Top shape: 24 480 14 14 (2257920)
I0403 16:31:06.730279 21158 net.cpp:148] Top shape: 24 480 14 14 (2257920)
I0403 16:31:06.730294 21158 net.cpp:148] Top shape: 24 480 14 14 (2257920)
I0403 16:31:06.730309 21158 net.cpp:156] Memory required for data: 854397984
I0403 16:31:06.730324 21158 layer_factory.hpp:77] Creating layer inception_4a/1x1
I0403 16:31:06.730345 21158 net.cpp:91] Creating Layer inception_4a/1x1
I0403 16:31:06.730362 21158 net.cpp:425] inception_4a/1x1 <- pool3/3x3_s2_pool3/3x3_s2_0_split_0
I0403 16:31:06.730381 21158 net.cpp:399] inception_4a/1x1 -> inception_4a/1x1
I0403 16:31:06.731943 21158 net.cpp:141] Setting up inception_4a/1x1
I0403 16:31:06.731974 21158 net.cpp:148] Top shape: 24 192 14 14 (903168)
I0403 16:31:06.731999 21158 net.cpp:156] Memory required for data: 858010656
I0403 16:31:06.732019 21158 layer_factory.hpp:77] Creating layer inception_4a/relu_1x1
I0403 16:31:06.732038 21158 net.cpp:91] Creating Layer inception_4a/relu_1x1
I0403 16:31:06.732053 21158 net.cpp:425] inception_4a/relu_1x1 <- inception_4a/1x1
I0403 16:31:06.732074 21158 net.cpp:386] inception_4a/relu_1x1 -> inception_4a/1x1 (in-place)
I0403 16:31:06.732249 21158 net.cpp:141] Setting up inception_4a/relu_1x1
I0403 16:31:06.732275 21158 net.cpp:148] Top shape: 24 192 14 14 (903168)
I0403 16:31:06.732291 21158 net.cpp:156] Memory required for data: 861623328
I0403 16:31:06.732307 21158 layer_factory.hpp:77] Creating layer inception_4a/3x3_reduce
I0403 16:31:06.732331 21158 net.cpp:91] Creating Layer inception_4a/3x3_reduce
I0403 16:31:06.732349 21158 net.cpp:425] inception_4a/3x3_reduce <- pool3/3x3_s2_pool3/3x3_s2_0_split_1
I0403 16:31:06.732372 21158 net.cpp:399] inception_4a/3x3_reduce -> inception_4a/3x3_reduce
I0403 16:31:06.733620 21158 net.cpp:141] Setting up inception_4a/3x3_reduce
I0403 16:31:06.733649 21158 net.cpp:148] Top shape: 24 96 14 14 (451584)
I0403 16:31:06.733666 21158 net.cpp:156] Memory required for data: 863429664
I0403 16:31:06.733690 21158 layer_factory.hpp:77] Creating layer inception_4a/relu_3x3_reduce
I0403 16:31:06.733711 21158 net.cpp:91] Creating Layer inception_4a/relu_3x3_reduce
I0403 16:31:06.733727 21158 net.cpp:425] inception_4a/relu_3x3_reduce <- inception_4a/3x3_reduce
I0403 16:31:06.733746 21158 net.cpp:386] inception_4a/relu_3x3_reduce -> inception_4a/3x3_reduce (in-place)
I0403 16:31:06.733922 21158 net.cpp:141] Setting up inception_4a/relu_3x3_reduce
I0403 16:31:06.733945 21158 net.cpp:148] Top shape: 24 96 14 14 (451584)
I0403 16:31:06.733960 21158 net.cpp:156] Memory required for data: 865236000
I0403 16:31:06.733975 21158 layer_factory.hpp:77] Creating layer inception_4a/3x3
I0403 16:31:06.734004 21158 net.cpp:91] Creating Layer inception_4a/3x3
I0403 16:31:06.734024 21158 net.cpp:425] inception_4a/3x3 <- inception_4a/3x3_reduce
I0403 16:31:06.734045 21158 net.cpp:399] inception_4a/3x3 -> inception_4a/3x3
I0403 16:31:06.736696 21158 net.cpp:141] Setting up inception_4a/3x3
I0403 16:31:06.736726 21158 net.cpp:148] Top shape: 24 208 14 14 (978432)
I0403 16:31:06.736742 21158 net.cpp:156] Memory required for data: 869149728
I0403 16:31:06.736763 21158 layer_factory.hpp:77] Creating layer inception_4a/relu_3x3
I0403 16:31:06.736780 21158 net.cpp:91] Creating Layer inception_4a/relu_3x3
I0403 16:31:06.736799 21158 net.cpp:425] inception_4a/relu_3x3 <- inception_4a/3x3
I0403 16:31:06.736819 21158 net.cpp:386] inception_4a/relu_3x3 -> inception_4a/3x3 (in-place)
I0403 16:31:06.737102 21158 net.cpp:141] Setting up inception_4a/relu_3x3
I0403 16:31:06.737128 21158 net.cpp:148] Top shape: 24 208 14 14 (978432)
I0403 16:31:06.737144 21158 net.cpp:156] Memory required for data: 873063456
I0403 16:31:06.737159 21158 layer_factory.hpp:77] Creating layer inception_4a/5x5_reduce
I0403 16:31:06.737181 21158 net.cpp:91] Creating Layer inception_4a/5x5_reduce
I0403 16:31:06.737198 21158 net.cpp:425] inception_4a/5x5_reduce <- pool3/3x3_s2_pool3/3x3_s2_0_split_2
I0403 16:31:06.737220 21158 net.cpp:399] inception_4a/5x5_reduce -> inception_4a/5x5_reduce
I0403 16:31:06.738260 21158 net.cpp:141] Setting up inception_4a/5x5_reduce
I0403 16:31:06.738289 21158 net.cpp:148] Top shape: 24 16 14 14 (75264)
I0403 16:31:06.738306 21158 net.cpp:156] Memory required for data: 873364512
I0403 16:31:06.738324 21158 layer_factory.hpp:77] Creating layer inception_4a/relu_5x5_reduce
I0403 16:31:06.738346 21158 net.cpp:91] Creating Layer inception_4a/relu_5x5_reduce
I0403 16:31:06.738363 21158 net.cpp:425] inception_4a/relu_5x5_reduce <- inception_4a/5x5_reduce
I0403 16:31:06.738381 21158 net.cpp:386] inception_4a/relu_5x5_reduce -> inception_4a/5x5_reduce (in-place)
I0403 16:31:06.738571 21158 net.cpp:141] Setting up inception_4a/relu_5x5_reduce
I0403 16:31:06.738600 21158 net.cpp:148] Top shape: 24 16 14 14 (75264)
I0403 16:31:06.738627 21158 net.cpp:156] Memory required for data: 873665568
I0403 16:31:06.738642 21158 layer_factory.hpp:77] Creating layer inception_4a/5x5
I0403 16:31:06.738664 21158 net.cpp:91] Creating Layer inception_4a/5x5
I0403 16:31:06.738682 21158 net.cpp:425] inception_4a/5x5 <- inception_4a/5x5_reduce
I0403 16:31:06.738703 21158 net.cpp:399] inception_4a/5x5 -> inception_4a/5x5
I0403 16:31:06.739802 21158 net.cpp:141] Setting up inception_4a/5x5
I0403 16:31:06.739831 21158 net.cpp:148] Top shape: 24 48 14 14 (225792)
I0403 16:31:06.739848 21158 net.cpp:156] Memory required for data: 874568736
I0403 16:31:06.739867 21158 layer_factory.hpp:77] Creating layer inception_4a/relu_5x5
I0403 16:31:06.739889 21158 net.cpp:91] Creating Layer inception_4a/relu_5x5
I0403 16:31:06.739907 21158 net.cpp:425] inception_4a/relu_5x5 <- inception_4a/5x5
I0403 16:31:06.739925 21158 net.cpp:386] inception_4a/relu_5x5 -> inception_4a/5x5 (in-place)
I0403 16:31:06.740109 21158 net.cpp:141] Setting up inception_4a/relu_5x5
I0403 16:31:06.740134 21158 net.cpp:148] Top shape: 24 48 14 14 (225792)
I0403 16:31:06.740149 21158 net.cpp:156] Memory required for data: 875471904
I0403 16:31:06.740164 21158 layer_factory.hpp:77] Creating layer inception_4a/pool
I0403 16:31:06.740181 21158 net.cpp:91] Creating Layer inception_4a/pool
I0403 16:31:06.740198 21158 net.cpp:425] inception_4a/pool <- pool3/3x3_s2_pool3/3x3_s2_0_split_3
I0403 16:31:06.740218 21158 net.cpp:399] inception_4a/pool -> inception_4a/pool
I0403 16:31:06.740278 21158 net.cpp:141] Setting up inception_4a/pool
I0403 16:31:06.740303 21158 net.cpp:148] Top shape: 24 480 14 14 (2257920)
I0403 16:31:06.740317 21158 net.cpp:156] Memory required for data: 884503584
I0403 16:31:06.740332 21158 layer_factory.hpp:77] Creating layer inception_4a/pool_proj
I0403 16:31:06.740355 21158 net.cpp:91] Creating Layer inception_4a/pool_proj
I0403 16:31:06.740373 21158 net.cpp:425] inception_4a/pool_proj <- inception_4a/pool
I0403 16:31:06.740391 21158 net.cpp:399] inception_4a/pool_proj -> inception_4a/pool_proj
I0403 16:31:06.745748 21158 net.cpp:141] Setting up inception_4a/pool_proj
I0403 16:31:06.745779 21158 net.cpp:148] Top shape: 24 64 14 14 (301056)
I0403 16:31:06.745812 21158 net.cpp:156] Memory required for data: 885707808
I0403 16:31:06.745832 21158 layer_factory.hpp:77] Creating layer inception_4a/relu_pool_proj
I0403 16:31:06.745851 21158 net.cpp:91] Creating Layer inception_4a/relu_pool_proj
I0403 16:31:06.745868 21158 net.cpp:425] inception_4a/relu_pool_proj <- inception_4a/pool_proj
I0403 16:31:06.745901 21158 net.cpp:386] inception_4a/relu_pool_proj -> inception_4a/pool_proj (in-place)
I0403 16:31:06.746191 21158 net.cpp:141] Setting up inception_4a/relu_pool_proj
I0403 16:31:06.746220 21158 net.cpp:148] Top shape: 24 64 14 14 (301056)
I0403 16:31:06.746235 21158 net.cpp:156] Memory required for data: 886912032
I0403 16:31:06.746250 21158 layer_factory.hpp:77] Creating layer inception_4a/output
I0403 16:31:06.746268 21158 net.cpp:91] Creating Layer inception_4a/output
I0403 16:31:06.746284 21158 net.cpp:425] inception_4a/output <- inception_4a/1x1
I0403 16:31:06.746301 21158 net.cpp:425] inception_4a/output <- inception_4a/3x3
I0403 16:31:06.746317 21158 net.cpp:425] inception_4a/output <- inception_4a/5x5
I0403 16:31:06.746332 21158 net.cpp:425] inception_4a/output <- inception_4a/pool_proj
I0403 16:31:06.746351 21158 net.cpp:399] inception_4a/output -> inception_4a/output
I0403 16:31:06.746395 21158 net.cpp:141] Setting up inception_4a/output
I0403 16:31:06.746418 21158 net.cpp:148] Top shape: 24 512 14 14 (2408448)
I0403 16:31:06.746433 21158 net.cpp:156] Memory required for data: 896545824
I0403 16:31:06.746448 21158 layer_factory.hpp:77] Creating layer inception_4a/output_inception_4a/output_0_split
I0403 16:31:06.746469 21158 net.cpp:91] Creating Layer inception_4a/output_inception_4a/output_0_split
I0403 16:31:06.746485 21158 net.cpp:425] inception_4a/output_inception_4a/output_0_split <- inception_4a/output
I0403 16:31:06.746502 21158 net.cpp:399] inception_4a/output_inception_4a/output_0_split -> inception_4a/output_inception_4a/output_0_split_0
I0403 16:31:06.746522 21158 net.cpp:399] inception_4a/output_inception_4a/output_0_split -> inception_4a/output_inception_4a/output_0_split_1
I0403 16:31:06.746546 21158 net.cpp:399] inception_4a/output_inception_4a/output_0_split -> inception_4a/output_inception_4a/output_0_split_2
I0403 16:31:06.746565 21158 net.cpp:399] inception_4a/output_inception_4a/output_0_split -> inception_4a/output_inception_4a/output_0_split_3
I0403 16:31:06.746585 21158 net.cpp:399] inception_4a/output_inception_4a/output_0_split -> inception_4a/output_inception_4a/output_0_split_4
I0403 16:31:06.746675 21158 net.cpp:141] Setting up inception_4a/output_inception_4a/output_0_split
I0403 16:31:06.746696 21158 net.cpp:148] Top shape: 24 512 14 14 (2408448)
I0403 16:31:06.746712 21158 net.cpp:148] Top shape: 24 512 14 14 (2408448)
I0403 16:31:06.746728 21158 net.cpp:148] Top shape: 24 512 14 14 (2408448)
I0403 16:31:06.746743 21158 net.cpp:148] Top shape: 24 512 14 14 (2408448)
I0403 16:31:06.746758 21158 net.cpp:148] Top shape: 24 512 14 14 (2408448)
I0403 16:31:06.746773 21158 net.cpp:156] Memory required for data: 944714784
I0403 16:31:06.746786 21158 layer_factory.hpp:77] Creating layer loss1/ave_pool
I0403 16:31:06.746804 21158 net.cpp:91] Creating Layer loss1/ave_pool
I0403 16:31:06.746820 21158 net.cpp:425] loss1/ave_pool <- inception_4a/output_inception_4a/output_0_split_0
I0403 16:31:06.746841 21158 net.cpp:399] loss1/ave_pool -> loss1/ave_pool
I0403 16:31:06.747047 21158 net.cpp:141] Setting up loss1/ave_pool
I0403 16:31:06.747076 21158 net.cpp:148] Top shape: 24 512 4 4 (196608)
I0403 16:31:06.747092 21158 net.cpp:156] Memory required for data: 945501216
I0403 16:31:06.747107 21158 layer_factory.hpp:77] Creating layer loss1/conv
I0403 16:31:06.747128 21158 net.cpp:91] Creating Layer loss1/conv
I0403 16:31:06.747146 21158 net.cpp:425] loss1/conv <- loss1/ave_pool
I0403 16:31:06.747165 21158 net.cpp:399] loss1/conv -> loss1/conv
I0403 16:31:06.748570 21158 net.cpp:141] Setting up loss1/conv
I0403 16:31:06.748601 21158 net.cpp:148] Top shape: 24 128 4 4 (49152)
I0403 16:31:06.748618 21158 net.cpp:156] Memory required for data: 945697824
I0403 16:31:06.748664 21158 layer_factory.hpp:77] Creating layer loss1/relu_conv
I0403 16:31:06.748683 21158 net.cpp:91] Creating Layer loss1/relu_conv
I0403 16:31:06.748700 21158 net.cpp:425] loss1/relu_conv <- loss1/conv
I0403 16:31:06.748720 21158 net.cpp:386] loss1/relu_conv -> loss1/conv (in-place)
I0403 16:31:06.749017 21158 net.cpp:141] Setting up loss1/relu_conv
I0403 16:31:06.749042 21158 net.cpp:148] Top shape: 24 128 4 4 (49152)
I0403 16:31:06.749059 21158 net.cpp:156] Memory required for data: 945894432
I0403 16:31:06.749074 21158 layer_factory.hpp:77] Creating layer loss1/fc
I0403 16:31:06.749099 21158 net.cpp:91] Creating Layer loss1/fc
I0403 16:31:06.749116 21158 net.cpp:425] loss1/fc <- loss1/conv
I0403 16:31:06.749137 21158 net.cpp:399] loss1/fc -> loss1/fc
I0403 16:31:06.767261 21158 net.cpp:141] Setting up loss1/fc
I0403 16:31:06.767299 21158 net.cpp:148] Top shape: 24 1024 (24576)
I0403 16:31:06.767318 21158 net.cpp:156] Memory required for data: 945992736
I0403 16:31:06.767339 21158 layer_factory.hpp:77] Creating layer loss1/relu_fc
I0403 16:31:06.767362 21158 net.cpp:91] Creating Layer loss1/relu_fc
I0403 16:31:06.767381 21158 net.cpp:425] loss1/relu_fc <- loss1/fc
I0403 16:31:06.767402 21158 net.cpp:386] loss1/relu_fc -> loss1/fc (in-place)
I0403 16:31:06.767617 21158 net.cpp:141] Setting up loss1/relu_fc
I0403 16:31:06.767657 21158 net.cpp:148] Top shape: 24 1024 (24576)
I0403 16:31:06.767673 21158 net.cpp:156] Memory required for data: 946091040
I0403 16:31:06.767688 21158 layer_factory.hpp:77] Creating layer loss1/drop_fc
I0403 16:31:06.767717 21158 net.cpp:91] Creating Layer loss1/drop_fc
I0403 16:31:06.767735 21158 net.cpp:425] loss1/drop_fc <- loss1/fc
I0403 16:31:06.767756 21158 net.cpp:386] loss1/drop_fc -> loss1/fc (in-place)
I0403 16:31:06.767810 21158 net.cpp:141] Setting up loss1/drop_fc
I0403 16:31:06.767833 21158 net.cpp:148] Top shape: 24 1024 (24576)
I0403 16:31:06.767853 21158 net.cpp:156] Memory required for data: 946189344
I0403 16:31:06.767869 21158 layer_factory.hpp:77] Creating layer loss1/classifier_plantvillage
I0403 16:31:06.767889 21158 net.cpp:91] Creating Layer loss1/classifier_plantvillage
I0403 16:31:06.767906 21158 net.cpp:425] loss1/classifier_plantvillage <- loss1/fc
I0403 16:31:06.767926 21158 net.cpp:399] loss1/classifier_plantvillage -> loss1/classifier_plantvillage
I0403 16:31:06.768873 21158 net.cpp:141] Setting up loss1/classifier_plantvillage
I0403 16:31:06.768903 21158 net.cpp:148] Top shape: 24 38 (912)
I0403 16:31:06.768919 21158 net.cpp:156] Memory required for data: 946192992
I0403 16:31:06.768939 21158 layer_factory.hpp:77] Creating layer loss1/classifier_plantvillage_loss1/classifier_plantvillage_0_split
I0403 16:31:06.768960 21158 net.cpp:91] Creating Layer loss1/classifier_plantvillage_loss1/classifier_plantvillage_0_split
I0403 16:31:06.768978 21158 net.cpp:425] loss1/classifier_plantvillage_loss1/classifier_plantvillage_0_split <- loss1/classifier_plantvillage
I0403 16:31:06.769008 21158 net.cpp:399] loss1/classifier_plantvillage_loss1/classifier_plantvillage_0_split -> loss1/classifier_plantvillage_loss1/classifier_plantvillage_0_split_0
I0403 16:31:06.769032 21158 net.cpp:399] loss1/classifier_plantvillage_loss1/classifier_plantvillage_0_split -> loss1/classifier_plantvillage_loss1/classifier_plantvillage_0_split_1
I0403 16:31:06.769054 21158 net.cpp:399] loss1/classifier_plantvillage_loss1/classifier_plantvillage_0_split -> loss1/classifier_plantvillage_loss1/classifier_plantvillage_0_split_2
I0403 16:31:06.769122 21158 net.cpp:141] Setting up loss1/classifier_plantvillage_loss1/classifier_plantvillage_0_split
I0403 16:31:06.769146 21158 net.cpp:148] Top shape: 24 38 (912)
I0403 16:31:06.769162 21158 net.cpp:148] Top shape: 24 38 (912)
I0403 16:31:06.769178 21158 net.cpp:148] Top shape: 24 38 (912)
I0403 16:31:06.769192 21158 net.cpp:156] Memory required for data: 946203936
I0403 16:31:06.769207 21158 layer_factory.hpp:77] Creating layer inception_4b/1x1
I0403 16:31:06.769232 21158 net.cpp:91] Creating Layer inception_4b/1x1
I0403 16:31:06.769273 21158 net.cpp:425] inception_4b/1x1 <- inception_4a/output_inception_4a/output_0_split_1
I0403 16:31:06.769294 21158 net.cpp:399] inception_4b/1x1 -> inception_4b/1x1
I0403 16:31:06.771018 21158 net.cpp:141] Setting up inception_4b/1x1
I0403 16:31:06.771049 21158 net.cpp:148] Top shape: 24 160 14 14 (752640)
I0403 16:31:06.771066 21158 net.cpp:156] Memory required for data: 949214496
I0403 16:31:06.771086 21158 layer_factory.hpp:77] Creating layer inception_4b/relu_1x1
I0403 16:31:06.771107 21158 net.cpp:91] Creating Layer inception_4b/relu_1x1
I0403 16:31:06.771126 21158 net.cpp:425] inception_4b/relu_1x1 <- inception_4b/1x1
I0403 16:31:06.771143 21158 net.cpp:386] inception_4b/relu_1x1 -> inception_4b/1x1 (in-place)
I0403 16:31:06.771327 21158 net.cpp:141] Setting up inception_4b/relu_1x1
I0403 16:31:06.771353 21158 net.cpp:148] Top shape: 24 160 14 14 (752640)
I0403 16:31:06.771370 21158 net.cpp:156] Memory required for data: 952225056
I0403 16:31:06.771386 21158 layer_factory.hpp:77] Creating layer inception_4b/3x3_reduce
I0403 16:31:06.771406 21158 net.cpp:91] Creating Layer inception_4b/3x3_reduce
I0403 16:31:06.771425 21158 net.cpp:425] inception_4b/3x3_reduce <- inception_4a/output_inception_4a/output_0_split_2
I0403 16:31:06.771450 21158 net.cpp:399] inception_4b/3x3_reduce -> inception_4b/3x3_reduce
I0403 16:31:06.772841 21158 net.cpp:141] Setting up inception_4b/3x3_reduce
I0403 16:31:06.772871 21158 net.cpp:148] Top shape: 24 112 14 14 (526848)
I0403 16:31:06.772889 21158 net.cpp:156] Memory required for data: 954332448
I0403 16:31:06.772908 21158 layer_factory.hpp:77] Creating layer inception_4b/relu_3x3_reduce
I0403 16:31:06.772930 21158 net.cpp:91] Creating Layer inception_4b/relu_3x3_reduce
I0403 16:31:06.772948 21158 net.cpp:425] inception_4b/relu_3x3_reduce <- inception_4b/3x3_reduce
I0403 16:31:06.772967 21158 net.cpp:386] inception_4b/relu_3x3_reduce -> inception_4b/3x3_reduce (in-place)
I0403 16:31:06.773277 21158 net.cpp:141] Setting up inception_4b/relu_3x3_reduce
I0403 16:31:06.773306 21158 net.cpp:148] Top shape: 24 112 14 14 (526848)
I0403 16:31:06.773322 21158 net.cpp:156] Memory required for data: 956439840
I0403 16:31:06.773339 21158 layer_factory.hpp:77] Creating layer inception_4b/3x3
I0403 16:31:06.773362 21158 net.cpp:91] Creating Layer inception_4b/3x3
I0403 16:31:06.773382 21158 net.cpp:425] inception_4b/3x3 <- inception_4b/3x3_reduce
I0403 16:31:06.773406 21158 net.cpp:399] inception_4b/3x3 -> inception_4b/3x3
I0403 16:31:06.776473 21158 net.cpp:141] Setting up inception_4b/3x3
I0403 16:31:06.776506 21158 net.cpp:148] Top shape: 24 224 14 14 (1053696)
I0403 16:31:06.776522 21158 net.cpp:156] Memory required for data: 960654624
I0403 16:31:06.776541 21158 layer_factory.hpp:77] Creating layer inception_4b/relu_3x3
I0403 16:31:06.776561 21158 net.cpp:91] Creating Layer inception_4b/relu_3x3
I0403 16:31:06.776577 21158 net.cpp:425] inception_4b/relu_3x3 <- inception_4b/3x3
I0403 16:31:06.776598 21158 net.cpp:386] inception_4b/relu_3x3 -> inception_4b/3x3 (in-place)
I0403 16:31:06.776783 21158 net.cpp:141] Setting up inception_4b/relu_3x3
I0403 16:31:06.776809 21158 net.cpp:148] Top shape: 24 224 14 14 (1053696)
I0403 16:31:06.776825 21158 net.cpp:156] Memory required for data: 964869408
I0403 16:31:06.776841 21158 layer_factory.hpp:77] Creating layer inception_4b/5x5_reduce
I0403 16:31:06.776865 21158 net.cpp:91] Creating Layer inception_4b/5x5_reduce
I0403 16:31:06.776882 21158 net.cpp:425] inception_4b/5x5_reduce <- inception_4a/output_inception_4a/output_0_split_3
I0403 16:31:06.776904 21158 net.cpp:399] inception_4b/5x5_reduce -> inception_4b/5x5_reduce
I0403 16:31:06.778038 21158 net.cpp:141] Setting up inception_4b/5x5_reduce
I0403 16:31:06.778069 21158 net.cpp:148] Top shape: 24 24 14 14 (112896)
I0403 16:31:06.778084 21158 net.cpp:156] Memory required for data: 965320992
I0403 16:31:06.778105 21158 layer_factory.hpp:77] Creating layer inception_4b/relu_5x5_reduce
I0403 16:31:06.778128 21158 net.cpp:91] Creating Layer inception_4b/relu_5x5_reduce
I0403 16:31:06.778161 21158 net.cpp:425] inception_4b/relu_5x5_reduce <- inception_4b/5x5_reduce
I0403 16:31:06.778179 21158 net.cpp:386] inception_4b/relu_5x5_reduce -> inception_4b/5x5_reduce (in-place)
I0403 16:31:06.778368 21158 net.cpp:141] Setting up inception_4b/relu_5x5_reduce
I0403 16:31:06.778395 21158 net.cpp:148] Top shape: 24 24 14 14 (112896)
I0403 16:31:06.778412 21158 net.cpp:156] Memory required for data: 965772576
I0403 16:31:06.778427 21158 layer_factory.hpp:77] Creating layer inception_4b/5x5
I0403 16:31:06.778451 21158 net.cpp:91] Creating Layer inception_4b/5x5
I0403 16:31:06.778470 21158 net.cpp:425] inception_4b/5x5 <- inception_4b/5x5_reduce
I0403 16:31:06.778491 21158 net.cpp:399] inception_4b/5x5 -> inception_4b/5x5
I0403 16:31:06.779743 21158 net.cpp:141] Setting up inception_4b/5x5
I0403 16:31:06.779773 21158 net.cpp:148] Top shape: 24 64 14 14 (301056)
I0403 16:31:06.779791 21158 net.cpp:156] Memory required for data: 966976800
I0403 16:31:06.779811 21158 layer_factory.hpp:77] Creating layer inception_4b/relu_5x5
I0403 16:31:06.779834 21158 net.cpp:91] Creating Layer inception_4b/relu_5x5
I0403 16:31:06.779851 21158 net.cpp:425] inception_4b/relu_5x5 <- inception_4b/5x5
I0403 16:31:06.779870 21158 net.cpp:386] inception_4b/relu_5x5 -> inception_4b/5x5 (in-place)
I0403 16:31:06.780167 21158 net.cpp:141] Setting up inception_4b/relu_5x5
I0403 16:31:06.780195 21158 net.cpp:148] Top shape: 24 64 14 14 (301056)
I0403 16:31:06.780211 21158 net.cpp:156] Memory required for data: 968181024
I0403 16:31:06.780227 21158 layer_factory.hpp:77] Creating layer inception_4b/pool
I0403 16:31:06.780248 21158 net.cpp:91] Creating Layer inception_4b/pool
I0403 16:31:06.780264 21158 net.cpp:425] inception_4b/pool <- inception_4a/output_inception_4a/output_0_split_4
I0403 16:31:06.780285 21158 net.cpp:399] inception_4b/pool -> inception_4b/pool
I0403 16:31:06.780352 21158 net.cpp:141] Setting up inception_4b/pool
I0403 16:31:06.780378 21158 net.cpp:148] Top shape: 24 512 14 14 (2408448)
I0403 16:31:06.780395 21158 net.cpp:156] Memory required for data: 977814816
I0403 16:31:06.780411 21158 layer_factory.hpp:77] Creating layer inception_4b/pool_proj
I0403 16:31:06.780434 21158 net.cpp:91] Creating Layer inception_4b/pool_proj
I0403 16:31:06.780455 21158 net.cpp:425] inception_4b/pool_proj <- inception_4b/pool
I0403 16:31:06.780475 21158 net.cpp:399] inception_4b/pool_proj -> inception_4b/pool_proj
I0403 16:31:06.781708 21158 net.cpp:141] Setting up inception_4b/pool_proj
I0403 16:31:06.781738 21158 net.cpp:148] Top shape: 24 64 14 14 (301056)
I0403 16:31:06.781754 21158 net.cpp:156] Memory required for data: 979019040
I0403 16:31:06.781774 21158 layer_factory.hpp:77] Creating layer inception_4b/relu_pool_proj
I0403 16:31:06.781798 21158 net.cpp:91] Creating Layer inception_4b/relu_pool_proj
I0403 16:31:06.781817 21158 net.cpp:425] inception_4b/relu_pool_proj <- inception_4b/pool_proj
I0403 16:31:06.781836 21158 net.cpp:386] inception_4b/relu_pool_proj -> inception_4b/pool_proj (in-place)
I0403 16:31:06.782028 21158 net.cpp:141] Setting up inception_4b/relu_pool_proj
I0403 16:31:06.782057 21158 net.cpp:148] Top shape: 24 64 14 14 (301056)
I0403 16:31:06.782073 21158 net.cpp:156] Memory required for data: 980223264
I0403 16:31:06.782088 21158 layer_factory.hpp:77] Creating layer inception_4b/output
I0403 16:31:06.782106 21158 net.cpp:91] Creating Layer inception_4b/output
I0403 16:31:06.782124 21158 net.cpp:425] inception_4b/output <- inception_4b/1x1
I0403 16:31:06.782140 21158 net.cpp:425] inception_4b/output <- inception_4b/3x3
I0403 16:31:06.782157 21158 net.cpp:425] inception_4b/output <- inception_4b/5x5
I0403 16:31:06.782174 21158 net.cpp:425] inception_4b/output <- inception_4b/pool_proj
I0403 16:31:06.782191 21158 net.cpp:399] inception_4b/output -> inception_4b/output
I0403 16:31:06.782239 21158 net.cpp:141] Setting up inception_4b/output
I0403 16:31:06.782263 21158 net.cpp:148] Top shape: 24 512 14 14 (2408448)
I0403 16:31:06.782279 21158 net.cpp:156] Memory required for data: 989857056
I0403 16:31:06.782307 21158 layer_factory.hpp:77] Creating layer inception_4b/output_inception_4b/output_0_split
I0403 16:31:06.782328 21158 net.cpp:91] Creating Layer inception_4b/output_inception_4b/output_0_split
I0403 16:31:06.782346 21158 net.cpp:425] inception_4b/output_inception_4b/output_0_split <- inception_4b/output
I0403 16:31:06.782366 21158 net.cpp:399] inception_4b/output_inception_4b/output_0_split -> inception_4b/output_inception_4b/output_0_split_0
I0403 16:31:06.782385 21158 net.cpp:399] inception_4b/output_inception_4b/output_0_split -> inception_4b/output_inception_4b/output_0_split_1
I0403 16:31:06.782407 21158 net.cpp:399] inception_4b/output_inception_4b/output_0_split -> inception_4b/output_inception_4b/output_0_split_2
I0403 16:31:06.782426 21158 net.cpp:399] inception_4b/output_inception_4b/output_0_split -> inception_4b/output_inception_4b/output_0_split_3
I0403 16:31:06.782512 21158 net.cpp:141] Setting up inception_4b/output_inception_4b/output_0_split
I0403 16:31:06.782536 21158 net.cpp:148] Top shape: 24 512 14 14 (2408448)
I0403 16:31:06.782554 21158 net.cpp:148] Top shape: 24 512 14 14 (2408448)
I0403 16:31:06.782570 21158 net.cpp:148] Top shape: 24 512 14 14 (2408448)
I0403 16:31:06.782585 21158 net.cpp:148] Top shape: 24 512 14 14 (2408448)
I0403 16:31:06.782600 21158 net.cpp:156] Memory required for data: 1028392224
I0403 16:31:06.782615 21158 layer_factory.hpp:77] Creating layer inception_4c/1x1
I0403 16:31:06.782639 21158 net.cpp:91] Creating Layer inception_4c/1x1
I0403 16:31:06.782656 21158 net.cpp:425] inception_4c/1x1 <- inception_4b/output_inception_4b/output_0_split_0
I0403 16:31:06.782677 21158 net.cpp:399] inception_4c/1x1 -> inception_4c/1x1
I0403 16:31:06.784148 21158 net.cpp:141] Setting up inception_4c/1x1
I0403 16:31:06.784183 21158 net.cpp:148] Top shape: 24 128 14 14 (602112)
I0403 16:31:06.784203 21158 net.cpp:156] Memory required for data: 1030800672
I0403 16:31:06.784222 21158 layer_factory.hpp:77] Creating layer inception_4c/relu_1x1
I0403 16:31:06.784242 21158 net.cpp:91] Creating Layer inception_4c/relu_1x1
I0403 16:31:06.784261 21158 net.cpp:425] inception_4c/relu_1x1 <- inception_4c/1x1
I0403 16:31:06.784279 21158 net.cpp:386] inception_4c/relu_1x1 -> inception_4c/1x1 (in-place)
I0403 16:31:06.784468 21158 net.cpp:141] Setting up inception_4c/relu_1x1
I0403 16:31:06.784497 21158 net.cpp:148] Top shape: 24 128 14 14 (602112)
I0403 16:31:06.784512 21158 net.cpp:156] Memory required for data: 1033209120
I0403 16:31:06.784528 21158 layer_factory.hpp:77] Creating layer inception_4c/3x3_reduce
I0403 16:31:06.784553 21158 net.cpp:91] Creating Layer inception_4c/3x3_reduce
I0403 16:31:06.784572 21158 net.cpp:425] inception_4c/3x3_reduce <- inception_4b/output_inception_4b/output_0_split_1
I0403 16:31:06.784595 21158 net.cpp:399] inception_4c/3x3_reduce -> inception_4c/3x3_reduce
I0403 16:31:06.786660 21158 net.cpp:141] Setting up inception_4c/3x3_reduce
I0403 16:31:06.786692 21158 net.cpp:148] Top shape: 24 128 14 14 (602112)
I0403 16:31:06.786710 21158 net.cpp:156] Memory required for data: 1035617568
I0403 16:31:06.786730 21158 layer_factory.hpp:77] Creating layer inception_4c/relu_3x3_reduce
I0403 16:31:06.786751 21158 net.cpp:91] Creating Layer inception_4c/relu_3x3_reduce
I0403 16:31:06.786770 21158 net.cpp:425] inception_4c/relu_3x3_reduce <- inception_4c/3x3_reduce
I0403 16:31:06.786789 21158 net.cpp:386] inception_4c/relu_3x3_reduce -> inception_4c/3x3_reduce (in-place)
I0403 16:31:06.787091 21158 net.cpp:141] Setting up inception_4c/relu_3x3_reduce
I0403 16:31:06.787119 21158 net.cpp:148] Top shape: 24 128 14 14 (602112)
I0403 16:31:06.787137 21158 net.cpp:156] Memory required for data: 1038026016
I0403 16:31:06.787153 21158 layer_factory.hpp:77] Creating layer inception_4c/3x3
I0403 16:31:06.787176 21158 net.cpp:91] Creating Layer inception_4c/3x3
I0403 16:31:06.787196 21158 net.cpp:425] inception_4c/3x3 <- inception_4c/3x3_reduce
I0403 16:31:06.787220 21158 net.cpp:399] inception_4c/3x3 -> inception_4c/3x3
I0403 16:31:06.790952 21158 net.cpp:141] Setting up inception_4c/3x3
I0403 16:31:06.791003 21158 net.cpp:148] Top shape: 24 256 14 14 (1204224)
I0403 16:31:06.791023 21158 net.cpp:156] Memory required for data: 1042842912
I0403 16:31:06.791057 21158 layer_factory.hpp:77] Creating layer inception_4c/relu_3x3
I0403 16:31:06.791082 21158 net.cpp:91] Creating Layer inception_4c/relu_3x3
I0403 16:31:06.791101 21158 net.cpp:425] inception_4c/relu_3x3 <- inception_4c/3x3
I0403 16:31:06.791121 21158 net.cpp:386] inception_4c/relu_3x3 -> inception_4c/3x3 (in-place)
I0403 16:31:06.791308 21158 net.cpp:141] Setting up inception_4c/relu_3x3
I0403 16:31:06.791337 21158 net.cpp:148] Top shape: 24 256 14 14 (1204224)
I0403 16:31:06.791352 21158 net.cpp:156] Memory required for data: 1047659808
I0403 16:31:06.791368 21158 layer_factory.hpp:77] Creating layer inception_4c/5x5_reduce
I0403 16:31:06.791393 21158 net.cpp:91] Creating Layer inception_4c/5x5_reduce
I0403 16:31:06.791411 21158 net.cpp:425] inception_4c/5x5_reduce <- inception_4b/output_inception_4b/output_0_split_2
I0403 16:31:06.791434 21158 net.cpp:399] inception_4c/5x5_reduce -> inception_4c/5x5_reduce
I0403 16:31:06.792559 21158 net.cpp:141] Setting up inception_4c/5x5_reduce
I0403 16:31:06.792589 21158 net.cpp:148] Top shape: 24 24 14 14 (112896)
I0403 16:31:06.792606 21158 net.cpp:156] Memory required for data: 1048111392
I0403 16:31:06.792626 21158 layer_factory.hpp:77] Creating layer inception_4c/relu_5x5_reduce
I0403 16:31:06.792649 21158 net.cpp:91] Creating Layer inception_4c/relu_5x5_reduce
I0403 16:31:06.792670 21158 net.cpp:425] inception_4c/relu_5x5_reduce <- inception_4c/5x5_reduce
I0403 16:31:06.792688 21158 net.cpp:386] inception_4c/relu_5x5_reduce -> inception_4c/5x5_reduce (in-place)
I0403 16:31:06.792881 21158 net.cpp:141] Setting up inception_4c/relu_5x5_reduce
I0403 16:31:06.792906 21158 net.cpp:148] Top shape: 24 24 14 14 (112896)
I0403 16:31:06.792922 21158 net.cpp:156] Memory required for data: 1048562976
I0403 16:31:06.792937 21158 layer_factory.hpp:77] Creating layer inception_4c/5x5
I0403 16:31:06.792961 21158 net.cpp:91] Creating Layer inception_4c/5x5
I0403 16:31:06.792979 21158 net.cpp:425] inception_4c/5x5 <- inception_4c/5x5_reduce
I0403 16:31:06.793009 21158 net.cpp:399] inception_4c/5x5 -> inception_4c/5x5
I0403 16:31:06.794288 21158 net.cpp:141] Setting up inception_4c/5x5
I0403 16:31:06.794320 21158 net.cpp:148] Top shape: 24 64 14 14 (301056)
I0403 16:31:06.794339 21158 net.cpp:156] Memory required for data: 1049767200
I0403 16:31:06.794358 21158 layer_factory.hpp:77] Creating layer inception_4c/relu_5x5
I0403 16:31:06.794378 21158 net.cpp:91] Creating Layer inception_4c/relu_5x5
I0403 16:31:06.794394 21158 net.cpp:425] inception_4c/relu_5x5 <- inception_4c/5x5
I0403 16:31:06.794412 21158 net.cpp:386] inception_4c/relu_5x5 -> inception_4c/5x5 (in-place)
I0403 16:31:06.794709 21158 net.cpp:141] Setting up inception_4c/relu_5x5
I0403 16:31:06.794739 21158 net.cpp:148] Top shape: 24 64 14 14 (301056)
I0403 16:31:06.794757 21158 net.cpp:156] Memory required for data: 1050971424
I0403 16:31:06.794773 21158 layer_factory.hpp:77] Creating layer inception_4c/pool
I0403 16:31:06.794792 21158 net.cpp:91] Creating Layer inception_4c/pool
I0403 16:31:06.794809 21158 net.cpp:425] inception_4c/pool <- inception_4b/output_inception_4b/output_0_split_3
I0403 16:31:06.794828 21158 net.cpp:399] inception_4c/pool -> inception_4c/pool
I0403 16:31:06.794899 21158 net.cpp:141] Setting up inception_4c/pool
I0403 16:31:06.794924 21158 net.cpp:148] Top shape: 24 512 14 14 (2408448)
I0403 16:31:06.794939 21158 net.cpp:156] Memory required for data: 1060605216
I0403 16:31:06.794953 21158 layer_factory.hpp:77] Creating layer inception_4c/pool_proj
I0403 16:31:06.794976 21158 net.cpp:91] Creating Layer inception_4c/pool_proj
I0403 16:31:06.795001 21158 net.cpp:425] inception_4c/pool_proj <- inception_4c/pool
I0403 16:31:06.795024 21158 net.cpp:399] inception_4c/pool_proj -> inception_4c/pool_proj
I0403 16:31:06.796322 21158 net.cpp:141] Setting up inception_4c/pool_proj
I0403 16:31:06.796350 21158 net.cpp:148] Top shape: 24 64 14 14 (301056)
I0403 16:31:06.796380 21158 net.cpp:156] Memory required for data: 1061809440
I0403 16:31:06.796401 21158 layer_factory.hpp:77] Creating layer inception_4c/relu_pool_proj
I0403 16:31:06.796423 21158 net.cpp:91] Creating Layer inception_4c/relu_pool_proj
I0403 16:31:06.796442 21158 net.cpp:425] inception_4c/relu_pool_proj <- inception_4c/pool_proj
I0403 16:31:06.796460 21158 net.cpp:386] inception_4c/relu_pool_proj -> inception_4c/pool_proj (in-place)
I0403 16:31:06.796649 21158 net.cpp:141] Setting up inception_4c/relu_pool_proj
I0403 16:31:06.796677 21158 net.cpp:148] Top shape: 24 64 14 14 (301056)
I0403 16:31:06.796694 21158 net.cpp:156] Memory required for data: 1063013664
I0403 16:31:06.796710 21158 layer_factory.hpp:77] Creating layer inception_4c/output
I0403 16:31:06.796727 21158 net.cpp:91] Creating Layer inception_4c/output
I0403 16:31:06.796743 21158 net.cpp:425] inception_4c/output <- inception_4c/1x1
I0403 16:31:06.796761 21158 net.cpp:425] inception_4c/output <- inception_4c/3x3
I0403 16:31:06.796778 21158 net.cpp:425] inception_4c/output <- inception_4c/5x5
I0403 16:31:06.796794 21158 net.cpp:425] inception_4c/output <- inception_4c/pool_proj
I0403 16:31:06.796811 21158 net.cpp:399] inception_4c/output -> inception_4c/output
I0403 16:31:06.796860 21158 net.cpp:141] Setting up inception_4c/output
I0403 16:31:06.796885 21158 net.cpp:148] Top shape: 24 512 14 14 (2408448)
I0403 16:31:06.796900 21158 net.cpp:156] Memory required for data: 1072647456
I0403 16:31:06.796916 21158 layer_factory.hpp:77] Creating layer inception_4c/output_inception_4c/output_0_split
I0403 16:31:06.796933 21158 net.cpp:91] Creating Layer inception_4c/output_inception_4c/output_0_split
I0403 16:31:06.796953 21158 net.cpp:425] inception_4c/output_inception_4c/output_0_split <- inception_4c/output
I0403 16:31:06.796972 21158 net.cpp:399] inception_4c/output_inception_4c/output_0_split -> inception_4c/output_inception_4c/output_0_split_0
I0403 16:31:06.796998 21158 net.cpp:399] inception_4c/output_inception_4c/output_0_split -> inception_4c/output_inception_4c/output_0_split_1
I0403 16:31:06.797021 21158 net.cpp:399] inception_4c/output_inception_4c/output_0_split -> inception_4c/output_inception_4c/output_0_split_2
I0403 16:31:06.797042 21158 net.cpp:399] inception_4c/output_inception_4c/output_0_split -> inception_4c/output_inception_4c/output_0_split_3
I0403 16:31:06.797130 21158 net.cpp:141] Setting up inception_4c/output_inception_4c/output_0_split
I0403 16:31:06.797154 21158 net.cpp:148] Top shape: 24 512 14 14 (2408448)
I0403 16:31:06.797171 21158 net.cpp:148] Top shape: 24 512 14 14 (2408448)
I0403 16:31:06.797186 21158 net.cpp:148] Top shape: 24 512 14 14 (2408448)
I0403 16:31:06.797202 21158 net.cpp:148] Top shape: 24 512 14 14 (2408448)
I0403 16:31:06.797216 21158 net.cpp:156] Memory required for data: 1111182624
I0403 16:31:06.797231 21158 layer_factory.hpp:77] Creating layer inception_4d/1x1
I0403 16:31:06.797255 21158 net.cpp:91] Creating Layer inception_4d/1x1
I0403 16:31:06.797274 21158 net.cpp:425] inception_4d/1x1 <- inception_4c/output_inception_4c/output_0_split_0
I0403 16:31:06.797297 21158 net.cpp:399] inception_4d/1x1 -> inception_4d/1x1
I0403 16:31:06.798723 21158 net.cpp:141] Setting up inception_4d/1x1
I0403 16:31:06.798754 21158 net.cpp:148] Top shape: 24 112 14 14 (526848)
I0403 16:31:06.798773 21158 net.cpp:156] Memory required for data: 1113290016
I0403 16:31:06.798804 21158 layer_factory.hpp:77] Creating layer inception_4d/relu_1x1
I0403 16:31:06.798822 21158 net.cpp:91] Creating Layer inception_4d/relu_1x1
I0403 16:31:06.798840 21158 net.cpp:425] inception_4d/relu_1x1 <- inception_4d/1x1
I0403 16:31:06.798861 21158 net.cpp:386] inception_4d/relu_1x1 -> inception_4d/1x1 (in-place)
I0403 16:31:06.799051 21158 net.cpp:141] Setting up inception_4d/relu_1x1
I0403 16:31:06.799077 21158 net.cpp:148] Top shape: 24 112 14 14 (526848)
I0403 16:31:06.799093 21158 net.cpp:156] Memory required for data: 1115397408
I0403 16:31:06.799108 21158 layer_factory.hpp:77] Creating layer inception_4d/3x3_reduce
I0403 16:31:06.799145 21158 net.cpp:91] Creating Layer inception_4d/3x3_reduce
I0403 16:31:06.799165 21158 net.cpp:425] inception_4d/3x3_reduce <- inception_4c/output_inception_4c/output_0_split_1
I0403 16:31:06.799187 21158 net.cpp:399] inception_4d/3x3_reduce -> inception_4d/3x3_reduce
I0403 16:31:06.800694 21158 net.cpp:141] Setting up inception_4d/3x3_reduce
I0403 16:31:06.800725 21158 net.cpp:148] Top shape: 24 144 14 14 (677376)
I0403 16:31:06.800743 21158 net.cpp:156] Memory required for data: 1118106912
I0403 16:31:06.800763 21158 layer_factory.hpp:77] Creating layer inception_4d/relu_3x3_reduce
I0403 16:31:06.800782 21158 net.cpp:91] Creating Layer inception_4d/relu_3x3_reduce
I0403 16:31:06.800799 21158 net.cpp:425] inception_4d/relu_3x3_reduce <- inception_4d/3x3_reduce
I0403 16:31:06.800819 21158 net.cpp:386] inception_4d/relu_3x3_reduce -> inception_4d/3x3_reduce (in-place)
I0403 16:31:06.801117 21158 net.cpp:141] Setting up inception_4d/relu_3x3_reduce
I0403 16:31:06.801146 21158 net.cpp:148] Top shape: 24 144 14 14 (677376)
I0403 16:31:06.801162 21158 net.cpp:156] Memory required for data: 1120816416
I0403 16:31:06.801178 21158 layer_factory.hpp:77] Creating layer inception_4d/3x3
I0403 16:31:06.801200 21158 net.cpp:91] Creating Layer inception_4d/3x3
I0403 16:31:06.801218 21158 net.cpp:425] inception_4d/3x3 <- inception_4d/3x3_reduce
I0403 16:31:06.801237 21158 net.cpp:399] inception_4d/3x3 -> inception_4d/3x3
I0403 16:31:06.805491 21158 net.cpp:141] Setting up inception_4d/3x3
I0403 16:31:06.805522 21158 net.cpp:148] Top shape: 24 288 14 14 (1354752)
I0403 16:31:06.805538 21158 net.cpp:156] Memory required for data: 1126235424
I0403 16:31:06.805557 21158 layer_factory.hpp:77] Creating layer inception_4d/relu_3x3
I0403 16:31:06.805575 21158 net.cpp:91] Creating Layer inception_4d/relu_3x3
I0403 16:31:06.805593 21158 net.cpp:425] inception_4d/relu_3x3 <- inception_4d/3x3
I0403 16:31:06.805613 21158 net.cpp:386] inception_4d/relu_3x3 -> inception_4d/3x3 (in-place)
I0403 16:31:06.805799 21158 net.cpp:141] Setting up inception_4d/relu_3x3
I0403 16:31:06.805824 21158 net.cpp:148] Top shape: 24 288 14 14 (1354752)
I0403 16:31:06.805840 21158 net.cpp:156] Memory required for data: 1131654432
I0403 16:31:06.805855 21158 layer_factory.hpp:77] Creating layer inception_4d/5x5_reduce
I0403 16:31:06.805876 21158 net.cpp:91] Creating Layer inception_4d/5x5_reduce
I0403 16:31:06.805896 21158 net.cpp:425] inception_4d/5x5_reduce <- inception_4c/output_inception_4c/output_0_split_2
I0403 16:31:06.805917 21158 net.cpp:399] inception_4d/5x5_reduce -> inception_4d/5x5_reduce
I0403 16:31:06.807124 21158 net.cpp:141] Setting up inception_4d/5x5_reduce
I0403 16:31:06.807155 21158 net.cpp:148] Top shape: 24 32 14 14 (150528)
I0403 16:31:06.807171 21158 net.cpp:156] Memory required for data: 1132256544
I0403 16:31:06.807191 21158 layer_factory.hpp:77] Creating layer inception_4d/relu_5x5_reduce
I0403 16:31:06.807211 21158 net.cpp:91] Creating Layer inception_4d/relu_5x5_reduce
I0403 16:31:06.807229 21158 net.cpp:425] inception_4d/relu_5x5_reduce <- inception_4d/5x5_reduce
I0403 16:31:06.807250 21158 net.cpp:386] inception_4d/relu_5x5_reduce -> inception_4d/5x5_reduce (in-place)
I0403 16:31:06.807445 21158 net.cpp:141] Setting up inception_4d/relu_5x5_reduce
I0403 16:31:06.807469 21158 net.cpp:148] Top shape: 24 32 14 14 (150528)
I0403 16:31:06.807485 21158 net.cpp:156] Memory required for data: 1132858656
I0403 16:31:06.807500 21158 layer_factory.hpp:77] Creating layer inception_4d/5x5
I0403 16:31:06.807524 21158 net.cpp:91] Creating Layer inception_4d/5x5
I0403 16:31:06.807543 21158 net.cpp:425] inception_4d/5x5 <- inception_4d/5x5_reduce
I0403 16:31:06.807564 21158 net.cpp:399] inception_4d/5x5 -> inception_4d/5x5
I0403 16:31:06.809082 21158 net.cpp:141] Setting up inception_4d/5x5
I0403 16:31:06.809110 21158 net.cpp:148] Top shape: 24 64 14 14 (301056)
I0403 16:31:06.809126 21158 net.cpp:156] Memory required for data: 1134062880
I0403 16:31:06.809145 21158 layer_factory.hpp:77] Creating layer inception_4d/relu_5x5
I0403 16:31:06.809182 21158 net.cpp:91] Creating Layer inception_4d/relu_5x5
I0403 16:31:06.809201 21158 net.cpp:425] inception_4d/relu_5x5 <- inception_4d/5x5
I0403 16:31:06.809218 21158 net.cpp:386] inception_4d/relu_5x5 -> inception_4d/5x5 (in-place)
I0403 16:31:06.809520 21158 net.cpp:141] Setting up inception_4d/relu_5x5
I0403 16:31:06.809546 21158 net.cpp:148] Top shape: 24 64 14 14 (301056)
I0403 16:31:06.809561 21158 net.cpp:156] Memory required for data: 1135267104
I0403 16:31:06.809576 21158 layer_factory.hpp:77] Creating layer inception_4d/pool
I0403 16:31:06.809597 21158 net.cpp:91] Creating Layer inception_4d/pool
I0403 16:31:06.809614 21158 net.cpp:425] inception_4d/pool <- inception_4c/output_inception_4c/output_0_split_3
I0403 16:31:06.809631 21158 net.cpp:399] inception_4d/pool -> inception_4d/pool
I0403 16:31:06.809698 21158 net.cpp:141] Setting up inception_4d/pool
I0403 16:31:06.809722 21158 net.cpp:148] Top shape: 24 512 14 14 (2408448)
I0403 16:31:06.809737 21158 net.cpp:156] Memory required for data: 1144900896
I0403 16:31:06.809752 21158 layer_factory.hpp:77] Creating layer inception_4d/pool_proj
I0403 16:31:06.809774 21158 net.cpp:91] Creating Layer inception_4d/pool_proj
I0403 16:31:06.809793 21158 net.cpp:425] inception_4d/pool_proj <- inception_4d/pool
I0403 16:31:06.809814 21158 net.cpp:399] inception_4d/pool_proj -> inception_4d/pool_proj
I0403 16:31:06.811578 21158 net.cpp:141] Setting up inception_4d/pool_proj
I0403 16:31:06.811607 21158 net.cpp:148] Top shape: 24 64 14 14 (301056)
I0403 16:31:06.811625 21158 net.cpp:156] Memory required for data: 1146105120
I0403 16:31:06.811645 21158 layer_factory.hpp:77] Creating layer inception_4d/relu_pool_proj
I0403 16:31:06.811664 21158 net.cpp:91] Creating Layer inception_4d/relu_pool_proj
I0403 16:31:06.811681 21158 net.cpp:425] inception_4d/relu_pool_proj <- inception_4d/pool_proj
I0403 16:31:06.811703 21158 net.cpp:386] inception_4d/relu_pool_proj -> inception_4d/pool_proj (in-place)
I0403 16:31:06.811889 21158 net.cpp:141] Setting up inception_4d/relu_pool_proj
I0403 16:31:06.811914 21158 net.cpp:148] Top shape: 24 64 14 14 (301056)
I0403 16:31:06.811929 21158 net.cpp:156] Memory required for data: 1147309344
I0403 16:31:06.811944 21158 layer_factory.hpp:77] Creating layer inception_4d/output
I0403 16:31:06.811961 21158 net.cpp:91] Creating Layer inception_4d/output
I0403 16:31:06.811977 21158 net.cpp:425] inception_4d/output <- inception_4d/1x1
I0403 16:31:06.812003 21158 net.cpp:425] inception_4d/output <- inception_4d/3x3
I0403 16:31:06.812022 21158 net.cpp:425] inception_4d/output <- inception_4d/5x5
I0403 16:31:06.812038 21158 net.cpp:425] inception_4d/output <- inception_4d/pool_proj
I0403 16:31:06.812055 21158 net.cpp:399] inception_4d/output -> inception_4d/output
I0403 16:31:06.812104 21158 net.cpp:141] Setting up inception_4d/output
I0403 16:31:06.812127 21158 net.cpp:148] Top shape: 24 528 14 14 (2483712)
I0403 16:31:06.812142 21158 net.cpp:156] Memory required for data: 1157244192
I0403 16:31:06.812156 21158 layer_factory.hpp:77] Creating layer inception_4d/output_inception_4d/output_0_split
I0403 16:31:06.812175 21158 net.cpp:91] Creating Layer inception_4d/output_inception_4d/output_0_split
I0403 16:31:06.812191 21158 net.cpp:425] inception_4d/output_inception_4d/output_0_split <- inception_4d/output
I0403 16:31:06.812209 21158 net.cpp:399] inception_4d/output_inception_4d/output_0_split -> inception_4d/output_inception_4d/output_0_split_0
I0403 16:31:06.812230 21158 net.cpp:399] inception_4d/output_inception_4d/output_0_split -> inception_4d/output_inception_4d/output_0_split_1
I0403 16:31:06.812252 21158 net.cpp:399] inception_4d/output_inception_4d/output_0_split -> inception_4d/output_inception_4d/output_0_split_2
I0403 16:31:06.812271 21158 net.cpp:399] inception_4d/output_inception_4d/output_0_split -> inception_4d/output_inception_4d/output_0_split_3
I0403 16:31:06.812293 21158 net.cpp:399] inception_4d/output_inception_4d/output_0_split -> inception_4d/output_inception_4d/output_0_split_4
I0403 16:31:06.812396 21158 net.cpp:141] Setting up inception_4d/output_inception_4d/output_0_split
I0403 16:31:06.812430 21158 net.cpp:148] Top shape: 24 528 14 14 (2483712)
I0403 16:31:06.812448 21158 net.cpp:148] Top shape: 24 528 14 14 (2483712)
I0403 16:31:06.812464 21158 net.cpp:148] Top shape: 24 528 14 14 (2483712)
I0403 16:31:06.812479 21158 net.cpp:148] Top shape: 24 528 14 14 (2483712)
I0403 16:31:06.812496 21158 net.cpp:148] Top shape: 24 528 14 14 (2483712)
I0403 16:31:06.812510 21158 net.cpp:156] Memory required for data: 1206918432
I0403 16:31:06.812525 21158 layer_factory.hpp:77] Creating layer loss2/ave_pool
I0403 16:31:06.812543 21158 net.cpp:91] Creating Layer loss2/ave_pool
I0403 16:31:06.812559 21158 net.cpp:425] loss2/ave_pool <- inception_4d/output_inception_4d/output_0_split_0
I0403 16:31:06.812580 21158 net.cpp:399] loss2/ave_pool -> loss2/ave_pool
I0403 16:31:06.812893 21158 net.cpp:141] Setting up loss2/ave_pool
I0403 16:31:06.812921 21158 net.cpp:148] Top shape: 24 528 4 4 (202752)
I0403 16:31:06.812935 21158 net.cpp:156] Memory required for data: 1207729440
I0403 16:31:06.812950 21158 layer_factory.hpp:77] Creating layer loss2/conv
I0403 16:31:06.812973 21158 net.cpp:91] Creating Layer loss2/conv
I0403 16:31:06.812999 21158 net.cpp:425] loss2/conv <- loss2/ave_pool
I0403 16:31:06.813029 21158 net.cpp:399] loss2/conv -> loss2/conv
I0403 16:31:06.814925 21158 net.cpp:141] Setting up loss2/conv
I0403 16:31:06.814954 21158 net.cpp:148] Top shape: 24 128 4 4 (49152)
I0403 16:31:06.814971 21158 net.cpp:156] Memory required for data: 1207926048
I0403 16:31:06.814998 21158 layer_factory.hpp:77] Creating layer loss2/relu_conv
I0403 16:31:06.815022 21158 net.cpp:91] Creating Layer loss2/relu_conv
I0403 16:31:06.815042 21158 net.cpp:425] loss2/relu_conv <- loss2/conv
I0403 16:31:06.815060 21158 net.cpp:386] loss2/relu_conv -> loss2/conv (in-place)
I0403 16:31:06.815349 21158 net.cpp:141] Setting up loss2/relu_conv
I0403 16:31:06.815376 21158 net.cpp:148] Top shape: 24 128 4 4 (49152)
I0403 16:31:06.815392 21158 net.cpp:156] Memory required for data: 1208122656
I0403 16:31:06.815407 21158 layer_factory.hpp:77] Creating layer loss2/fc
I0403 16:31:06.815428 21158 net.cpp:91] Creating Layer loss2/fc
I0403 16:31:06.815446 21158 net.cpp:425] loss2/fc <- loss2/conv
I0403 16:31:06.815467 21158 net.cpp:399] loss2/fc -> loss2/fc
I0403 16:31:06.833153 21158 net.cpp:141] Setting up loss2/fc
I0403 16:31:06.833186 21158 net.cpp:148] Top shape: 24 1024 (24576)
I0403 16:31:06.833202 21158 net.cpp:156] Memory required for data: 1208220960
I0403 16:31:06.833222 21158 layer_factory.hpp:77] Creating layer loss2/relu_fc
I0403 16:31:06.833242 21158 net.cpp:91] Creating Layer loss2/relu_fc
I0403 16:31:06.833261 21158 net.cpp:425] loss2/relu_fc <- loss2/fc
I0403 16:31:06.833281 21158 net.cpp:386] loss2/relu_fc -> loss2/fc (in-place)
I0403 16:31:06.833576 21158 net.cpp:141] Setting up loss2/relu_fc
I0403 16:31:06.833603 21158 net.cpp:148] Top shape: 24 1024 (24576)
I0403 16:31:06.833618 21158 net.cpp:156] Memory required for data: 1208319264
I0403 16:31:06.833634 21158 layer_factory.hpp:77] Creating layer loss2/drop_fc
I0403 16:31:06.833654 21158 net.cpp:91] Creating Layer loss2/drop_fc
I0403 16:31:06.833672 21158 net.cpp:425] loss2/drop_fc <- loss2/fc
I0403 16:31:06.833691 21158 net.cpp:386] loss2/drop_fc -> loss2/fc (in-place)
I0403 16:31:06.833740 21158 net.cpp:141] Setting up loss2/drop_fc
I0403 16:31:06.833765 21158 net.cpp:148] Top shape: 24 1024 (24576)
I0403 16:31:06.833781 21158 net.cpp:156] Memory required for data: 1208417568
I0403 16:31:06.833796 21158 layer_factory.hpp:77] Creating layer loss2/classifier_plantvillage
I0403 16:31:06.833813 21158 net.cpp:91] Creating Layer loss2/classifier_plantvillage
I0403 16:31:06.833830 21158 net.cpp:425] loss2/classifier_plantvillage <- loss2/fc
I0403 16:31:06.833852 21158 net.cpp:399] loss2/classifier_plantvillage -> loss2/classifier_plantvillage
I0403 16:31:06.834260 21158 net.cpp:141] Setting up loss2/classifier_plantvillage
I0403 16:31:06.834285 21158 net.cpp:148] Top shape: 24 38 (912)
I0403 16:31:06.834300 21158 net.cpp:156] Memory required for data: 1208421216
I0403 16:31:06.834336 21158 layer_factory.hpp:77] Creating layer loss2/classifier_plantvillage_loss2/classifier_plantvillage_0_split
I0403 16:31:06.834358 21158 net.cpp:91] Creating Layer loss2/classifier_plantvillage_loss2/classifier_plantvillage_0_split
I0403 16:31:06.834377 21158 net.cpp:425] loss2/classifier_plantvillage_loss2/classifier_plantvillage_0_split <- loss2/classifier_plantvillage
I0403 16:31:06.834395 21158 net.cpp:399] loss2/classifier_plantvillage_loss2/classifier_plantvillage_0_split -> loss2/classifier_plantvillage_loss2/classifier_plantvillage_0_split_0
I0403 16:31:06.834417 21158 net.cpp:399] loss2/classifier_plantvillage_loss2/classifier_plantvillage_0_split -> loss2/classifier_plantvillage_loss2/classifier_plantvillage_0_split_1
I0403 16:31:06.834439 21158 net.cpp:399] loss2/classifier_plantvillage_loss2/classifier_plantvillage_0_split -> loss2/classifier_plantvillage_loss2/classifier_plantvillage_0_split_2
I0403 16:31:06.834514 21158 net.cpp:141] Setting up loss2/classifier_plantvillage_loss2/classifier_plantvillage_0_split
I0403 16:31:06.834538 21158 net.cpp:148] Top shape: 24 38 (912)
I0403 16:31:06.834554 21158 net.cpp:148] Top shape: 24 38 (912)
I0403 16:31:06.834570 21158 net.cpp:148] Top shape: 24 38 (912)
I0403 16:31:06.834584 21158 net.cpp:156] Memory required for data: 1208432160
I0403 16:31:06.834599 21158 layer_factory.hpp:77] Creating layer inception_4e/1x1
I0403 16:31:06.834621 21158 net.cpp:91] Creating Layer inception_4e/1x1
I0403 16:31:06.834640 21158 net.cpp:425] inception_4e/1x1 <- inception_4d/output_inception_4d/output_0_split_1
I0403 16:31:06.834658 21158 net.cpp:399] inception_4e/1x1 -> inception_4e/1x1
I0403 16:31:06.836522 21158 net.cpp:141] Setting up inception_4e/1x1
I0403 16:31:06.836554 21158 net.cpp:148] Top shape: 24 256 14 14 (1204224)
I0403 16:31:06.836571 21158 net.cpp:156] Memory required for data: 1213249056
I0403 16:31:06.836591 21158 layer_factory.hpp:77] Creating layer inception_4e/relu_1x1
I0403 16:31:06.836609 21158 net.cpp:91] Creating Layer inception_4e/relu_1x1
I0403 16:31:06.836627 21158 net.cpp:425] inception_4e/relu_1x1 <- inception_4e/1x1
I0403 16:31:06.836643 21158 net.cpp:386] inception_4e/relu_1x1 -> inception_4e/1x1 (in-place)
I0403 16:31:06.836944 21158 net.cpp:141] Setting up inception_4e/relu_1x1
I0403 16:31:06.836972 21158 net.cpp:148] Top shape: 24 256 14 14 (1204224)
I0403 16:31:06.836995 21158 net.cpp:156] Memory required for data: 1218065952
I0403 16:31:06.837013 21158 layer_factory.hpp:77] Creating layer inception_4e/3x3_reduce
I0403 16:31:06.837033 21158 net.cpp:91] Creating Layer inception_4e/3x3_reduce
I0403 16:31:06.837049 21158 net.cpp:425] inception_4e/3x3_reduce <- inception_4d/output_inception_4d/output_0_split_2
I0403 16:31:06.837071 21158 net.cpp:399] inception_4e/3x3_reduce -> inception_4e/3x3_reduce
I0403 16:31:06.839262 21158 net.cpp:141] Setting up inception_4e/3x3_reduce
I0403 16:31:06.839293 21158 net.cpp:148] Top shape: 24 160 14 14 (752640)
I0403 16:31:06.839310 21158 net.cpp:156] Memory required for data: 1221076512
I0403 16:31:06.839329 21158 layer_factory.hpp:77] Creating layer inception_4e/relu_3x3_reduce
I0403 16:31:06.839350 21158 net.cpp:91] Creating Layer inception_4e/relu_3x3_reduce
I0403 16:31:06.839367 21158 net.cpp:425] inception_4e/relu_3x3_reduce <- inception_4e/3x3_reduce
I0403 16:31:06.839385 21158 net.cpp:386] inception_4e/relu_3x3_reduce -> inception_4e/3x3_reduce (in-place)
I0403 16:31:06.839573 21158 net.cpp:141] Setting up inception_4e/relu_3x3_reduce
I0403 16:31:06.839601 21158 net.cpp:148] Top shape: 24 160 14 14 (752640)
I0403 16:31:06.839617 21158 net.cpp:156] Memory required for data: 1224087072
I0403 16:31:06.839632 21158 layer_factory.hpp:77] Creating layer inception_4e/3x3
I0403 16:31:06.839653 21158 net.cpp:91] Creating Layer inception_4e/3x3
I0403 16:31:06.839671 21158 net.cpp:425] inception_4e/3x3 <- inception_4e/3x3_reduce
I0403 16:31:06.839690 21158 net.cpp:399] inception_4e/3x3 -> inception_4e/3x3
I0403 16:31:06.844782 21158 net.cpp:141] Setting up inception_4e/3x3
I0403 16:31:06.844828 21158 net.cpp:148] Top shape: 24 320 14 14 (1505280)
I0403 16:31:06.844846 21158 net.cpp:156] Memory required for data: 1230108192
I0403 16:31:06.844866 21158 layer_factory.hpp:77] Creating layer inception_4e/relu_3x3
I0403 16:31:06.844884 21158 net.cpp:91] Creating Layer inception_4e/relu_3x3
I0403 16:31:06.844902 21158 net.cpp:425] inception_4e/relu_3x3 <- inception_4e/3x3
I0403 16:31:06.844920 21158 net.cpp:386] inception_4e/relu_3x3 -> inception_4e/3x3 (in-place)
I0403 16:31:06.845240 21158 net.cpp:141] Setting up inception_4e/relu_3x3
I0403 16:31:06.845268 21158 net.cpp:148] Top shape: 24 320 14 14 (1505280)
I0403 16:31:06.845284 21158 net.cpp:156] Memory required for data: 1236129312
I0403 16:31:06.845299 21158 layer_factory.hpp:77] Creating layer inception_4e/5x5_reduce
I0403 16:31:06.845324 21158 net.cpp:91] Creating Layer inception_4e/5x5_reduce
I0403 16:31:06.845343 21158 net.cpp:425] inception_4e/5x5_reduce <- inception_4d/output_inception_4d/output_0_split_3
I0403 16:31:06.845366 21158 net.cpp:399] inception_4e/5x5_reduce -> inception_4e/5x5_reduce
I0403 16:31:06.846472 21158 net.cpp:141] Setting up inception_4e/5x5_reduce
I0403 16:31:06.846503 21158 net.cpp:148] Top shape: 24 32 14 14 (150528)
I0403 16:31:06.846521 21158 net.cpp:156] Memory required for data: 1236731424
I0403 16:31:06.846541 21158 layer_factory.hpp:77] Creating layer inception_4e/relu_5x5_reduce
I0403 16:31:06.846563 21158 net.cpp:91] Creating Layer inception_4e/relu_5x5_reduce
I0403 16:31:06.846582 21158 net.cpp:425] inception_4e/relu_5x5_reduce <- inception_4e/5x5_reduce
I0403 16:31:06.846601 21158 net.cpp:386] inception_4e/relu_5x5_reduce -> inception_4e/5x5_reduce (in-place)
I0403 16:31:06.846909 21158 net.cpp:141] Setting up inception_4e/relu_5x5_reduce
I0403 16:31:06.846935 21158 net.cpp:148] Top shape: 24 32 14 14 (150528)
I0403 16:31:06.846953 21158 net.cpp:156] Memory required for data: 1237333536
I0403 16:31:06.846969 21158 layer_factory.hpp:77] Creating layer inception_4e/5x5
I0403 16:31:06.847015 21158 net.cpp:91] Creating Layer inception_4e/5x5
I0403 16:31:06.847036 21158 net.cpp:425] inception_4e/5x5 <- inception_4e/5x5_reduce
I0403 16:31:06.847059 21158 net.cpp:399] inception_4e/5x5 -> inception_4e/5x5
I0403 16:31:06.848976 21158 net.cpp:141] Setting up inception_4e/5x5
I0403 16:31:06.849014 21158 net.cpp:148] Top shape: 24 128 14 14 (602112)
I0403 16:31:06.849032 21158 net.cpp:156] Memory required for data: 1239741984
I0403 16:31:06.849053 21158 layer_factory.hpp:77] Creating layer inception_4e/relu_5x5
I0403 16:31:06.849074 21158 net.cpp:91] Creating Layer inception_4e/relu_5x5
I0403 16:31:06.849092 21158 net.cpp:425] inception_4e/relu_5x5 <- inception_4e/5x5
I0403 16:31:06.849112 21158 net.cpp:386] inception_4e/relu_5x5 -> inception_4e/5x5 (in-place)
I0403 16:31:06.849314 21158 net.cpp:141] Setting up inception_4e/relu_5x5
I0403 16:31:06.849340 21158 net.cpp:148] Top shape: 24 128 14 14 (602112)
I0403 16:31:06.849355 21158 net.cpp:156] Memory required for data: 1242150432
I0403 16:31:06.849370 21158 layer_factory.hpp:77] Creating layer inception_4e/pool
I0403 16:31:06.849392 21158 net.cpp:91] Creating Layer inception_4e/pool
I0403 16:31:06.849411 21158 net.cpp:425] inception_4e/pool <- inception_4d/output_inception_4d/output_0_split_4
I0403 16:31:06.849429 21158 net.cpp:399] inception_4e/pool -> inception_4e/pool
I0403 16:31:06.849503 21158 net.cpp:141] Setting up inception_4e/pool
I0403 16:31:06.849526 21158 net.cpp:148] Top shape: 24 528 14 14 (2483712)
I0403 16:31:06.849542 21158 net.cpp:156] Memory required for data: 1252085280
I0403 16:31:06.849558 21158 layer_factory.hpp:77] Creating layer inception_4e/pool_proj
I0403 16:31:06.849581 21158 net.cpp:91] Creating Layer inception_4e/pool_proj
I0403 16:31:06.849599 21158 net.cpp:425] inception_4e/pool_proj <- inception_4e/pool
I0403 16:31:06.849620 21158 net.cpp:399] inception_4e/pool_proj -> inception_4e/pool_proj
I0403 16:31:06.851186 21158 net.cpp:141] Setting up inception_4e/pool_proj
I0403 16:31:06.851215 21158 net.cpp:148] Top shape: 24 128 14 14 (602112)
I0403 16:31:06.851246 21158 net.cpp:156] Memory required for data: 1254493728
I0403 16:31:06.851269 21158 layer_factory.hpp:77] Creating layer inception_4e/relu_pool_proj
I0403 16:31:06.851290 21158 net.cpp:91] Creating Layer inception_4e/relu_pool_proj
I0403 16:31:06.851310 21158 net.cpp:425] inception_4e/relu_pool_proj <- inception_4e/pool_proj
I0403 16:31:06.851330 21158 net.cpp:386] inception_4e/relu_pool_proj -> inception_4e/pool_proj (in-place)
I0403 16:31:06.851632 21158 net.cpp:141] Setting up inception_4e/relu_pool_proj
I0403 16:31:06.851660 21158 net.cpp:148] Top shape: 24 128 14 14 (602112)
I0403 16:31:06.851676 21158 net.cpp:156] Memory required for data: 1256902176
I0403 16:31:06.851692 21158 layer_factory.hpp:77] Creating layer inception_4e/output
I0403 16:31:06.851711 21158 net.cpp:91] Creating Layer inception_4e/output
I0403 16:31:06.851727 21158 net.cpp:425] inception_4e/output <- inception_4e/1x1
I0403 16:31:06.851745 21158 net.cpp:425] inception_4e/output <- inception_4e/3x3
I0403 16:31:06.851761 21158 net.cpp:425] inception_4e/output <- inception_4e/5x5
I0403 16:31:06.851778 21158 net.cpp:425] inception_4e/output <- inception_4e/pool_proj
I0403 16:31:06.851799 21158 net.cpp:399] inception_4e/output -> inception_4e/output
I0403 16:31:06.851850 21158 net.cpp:141] Setting up inception_4e/output
I0403 16:31:06.851876 21158 net.cpp:148] Top shape: 24 832 14 14 (3913728)
I0403 16:31:06.851892 21158 net.cpp:156] Memory required for data: 1272557088
I0403 16:31:06.851907 21158 layer_factory.hpp:77] Creating layer pool4/3x3_s2
I0403 16:31:06.851925 21158 net.cpp:91] Creating Layer pool4/3x3_s2
I0403 16:31:06.851941 21158 net.cpp:425] pool4/3x3_s2 <- inception_4e/output
I0403 16:31:06.851963 21158 net.cpp:399] pool4/3x3_s2 -> pool4/3x3_s2
I0403 16:31:06.852037 21158 net.cpp:141] Setting up pool4/3x3_s2
I0403 16:31:06.852063 21158 net.cpp:148] Top shape: 24 832 7 7 (978432)
I0403 16:31:06.852077 21158 net.cpp:156] Memory required for data: 1276470816
I0403 16:31:06.852093 21158 layer_factory.hpp:77] Creating layer pool4/3x3_s2_pool4/3x3_s2_0_split
I0403 16:31:06.852113 21158 net.cpp:91] Creating Layer pool4/3x3_s2_pool4/3x3_s2_0_split
I0403 16:31:06.852130 21158 net.cpp:425] pool4/3x3_s2_pool4/3x3_s2_0_split <- pool4/3x3_s2
I0403 16:31:06.852149 21158 net.cpp:399] pool4/3x3_s2_pool4/3x3_s2_0_split -> pool4/3x3_s2_pool4/3x3_s2_0_split_0
I0403 16:31:06.852170 21158 net.cpp:399] pool4/3x3_s2_pool4/3x3_s2_0_split -> pool4/3x3_s2_pool4/3x3_s2_0_split_1
I0403 16:31:06.852190 21158 net.cpp:399] pool4/3x3_s2_pool4/3x3_s2_0_split -> pool4/3x3_s2_pool4/3x3_s2_0_split_2
I0403 16:31:06.852210 21158 net.cpp:399] pool4/3x3_s2_pool4/3x3_s2_0_split -> pool4/3x3_s2_pool4/3x3_s2_0_split_3
I0403 16:31:06.852303 21158 net.cpp:141] Setting up pool4/3x3_s2_pool4/3x3_s2_0_split
I0403 16:31:06.852326 21158 net.cpp:148] Top shape: 24 832 7 7 (978432)
I0403 16:31:06.852344 21158 net.cpp:148] Top shape: 24 832 7 7 (978432)
I0403 16:31:06.852360 21158 net.cpp:148] Top shape: 24 832 7 7 (978432)
I0403 16:31:06.852375 21158 net.cpp:148] Top shape: 24 832 7 7 (978432)
I0403 16:31:06.852391 21158 net.cpp:156] Memory required for data: 1292125728
I0403 16:31:06.852406 21158 layer_factory.hpp:77] Creating layer inception_5a/1x1
I0403 16:31:06.852428 21158 net.cpp:91] Creating Layer inception_5a/1x1
I0403 16:31:06.852447 21158 net.cpp:425] inception_5a/1x1 <- pool4/3x3_s2_pool4/3x3_s2_0_split_0
I0403 16:31:06.852469 21158 net.cpp:399] inception_5a/1x1 -> inception_5a/1x1
I0403 16:31:06.855425 21158 net.cpp:141] Setting up inception_5a/1x1
I0403 16:31:06.855458 21158 net.cpp:148] Top shape: 24 256 7 7 (301056)
I0403 16:31:06.855474 21158 net.cpp:156] Memory required for data: 1293329952
I0403 16:31:06.855495 21158 layer_factory.hpp:77] Creating layer inception_5a/relu_1x1
I0403 16:31:06.855516 21158 net.cpp:91] Creating Layer inception_5a/relu_1x1
I0403 16:31:06.855537 21158 net.cpp:425] inception_5a/relu_1x1 <- inception_5a/1x1
I0403 16:31:06.855557 21158 net.cpp:386] inception_5a/relu_1x1 -> inception_5a/1x1 (in-place)
I0403 16:31:06.855878 21158 net.cpp:141] Setting up inception_5a/relu_1x1
I0403 16:31:06.855907 21158 net.cpp:148] Top shape: 24 256 7 7 (301056)
I0403 16:31:06.855923 21158 net.cpp:156] Memory required for data: 1294534176
I0403 16:31:06.855940 21158 layer_factory.hpp:77] Creating layer inception_5a/3x3_reduce
I0403 16:31:06.855964 21158 net.cpp:91] Creating Layer inception_5a/3x3_reduce
I0403 16:31:06.855990 21158 net.cpp:425] inception_5a/3x3_reduce <- pool4/3x3_s2_pool4/3x3_s2_0_split_1
I0403 16:31:06.856017 21158 net.cpp:399] inception_5a/3x3_reduce -> inception_5a/3x3_reduce
I0403 16:31:06.858563 21158 net.cpp:141] Setting up inception_5a/3x3_reduce
I0403 16:31:06.858597 21158 net.cpp:148] Top shape: 24 160 7 7 (188160)
I0403 16:31:06.858615 21158 net.cpp:156] Memory required for data: 1295286816
I0403 16:31:06.858635 21158 layer_factory.hpp:77] Creating layer inception_5a/relu_3x3_reduce
I0403 16:31:06.858654 21158 net.cpp:91] Creating Layer inception_5a/relu_3x3_reduce
I0403 16:31:06.858672 21158 net.cpp:425] inception_5a/relu_3x3_reduce <- inception_5a/3x3_reduce
I0403 16:31:06.858697 21158 net.cpp:386] inception_5a/relu_3x3_reduce -> inception_5a/3x3_reduce (in-place)
I0403 16:31:06.858891 21158 net.cpp:141] Setting up inception_5a/relu_3x3_reduce
I0403 16:31:06.858917 21158 net.cpp:148] Top shape: 24 160 7 7 (188160)
I0403 16:31:06.858934 21158 net.cpp:156] Memory required for data: 1296039456
I0403 16:31:06.858950 21158 layer_factory.hpp:77] Creating layer inception_5a/3x3
I0403 16:31:06.858974 21158 net.cpp:91] Creating Layer inception_5a/3x3
I0403 16:31:06.859002 21158 net.cpp:425] inception_5a/3x3 <- inception_5a/3x3_reduce
I0403 16:31:06.859027 21158 net.cpp:399] inception_5a/3x3 -> inception_5a/3x3
I0403 16:31:06.864271 21158 net.cpp:141] Setting up inception_5a/3x3
I0403 16:31:06.864305 21158 net.cpp:148] Top shape: 24 320 7 7 (376320)
I0403 16:31:06.864325 21158 net.cpp:156] Memory required for data: 1297544736
I0403 16:31:06.864344 21158 layer_factory.hpp:77] Creating layer inception_5a/relu_3x3
I0403 16:31:06.864367 21158 net.cpp:91] Creating Layer inception_5a/relu_3x3
I0403 16:31:06.864385 21158 net.cpp:425] inception_5a/relu_3x3 <- inception_5a/3x3
I0403 16:31:06.864404 21158 net.cpp:386] inception_5a/relu_3x3 -> inception_5a/3x3 (in-place)
I0403 16:31:06.864716 21158 net.cpp:141] Setting up inception_5a/relu_3x3
I0403 16:31:06.864742 21158 net.cpp:148] Top shape: 24 320 7 7 (376320)
I0403 16:31:06.864758 21158 net.cpp:156] Memory required for data: 1299050016
I0403 16:31:06.864775 21158 layer_factory.hpp:77] Creating layer inception_5a/5x5_reduce
I0403 16:31:06.864799 21158 net.cpp:91] Creating Layer inception_5a/5x5_reduce
I0403 16:31:06.864816 21158 net.cpp:425] inception_5a/5x5_reduce <- pool4/3x3_s2_pool4/3x3_s2_0_split_2
I0403 16:31:06.864838 21158 net.cpp:399] inception_5a/5x5_reduce -> inception_5a/5x5_reduce
I0403 16:31:06.866065 21158 net.cpp:141] Setting up inception_5a/5x5_reduce
I0403 16:31:06.866094 21158 net.cpp:148] Top shape: 24 32 7 7 (37632)
I0403 16:31:06.866112 21158 net.cpp:156] Memory required for data: 1299200544
I0403 16:31:06.866132 21158 layer_factory.hpp:77] Creating layer inception_5a/relu_5x5_reduce
I0403 16:31:06.866154 21158 net.cpp:91] Creating Layer inception_5a/relu_5x5_reduce
I0403 16:31:06.866174 21158 net.cpp:425] inception_5a/relu_5x5_reduce <- inception_5a/5x5_reduce
I0403 16:31:06.866194 21158 net.cpp:386] inception_5a/relu_5x5_reduce -> inception_5a/5x5_reduce (in-place)
I0403 16:31:06.866504 21158 net.cpp:141] Setting up inception_5a/relu_5x5_reduce
I0403 16:31:06.866533 21158 net.cpp:148] Top shape: 24 32 7 7 (37632)
I0403 16:31:06.866550 21158 net.cpp:156] Memory required for data: 1299351072
I0403 16:31:06.866567 21158 layer_factory.hpp:77] Creating layer inception_5a/5x5
I0403 16:31:06.866591 21158 net.cpp:91] Creating Layer inception_5a/5x5
I0403 16:31:06.866612 21158 net.cpp:425] inception_5a/5x5 <- inception_5a/5x5_reduce
I0403 16:31:06.866632 21158 net.cpp:399] inception_5a/5x5 -> inception_5a/5x5
I0403 16:31:06.868433 21158 net.cpp:141] Setting up inception_5a/5x5
I0403 16:31:06.868476 21158 net.cpp:148] Top shape: 24 128 7 7 (150528)
I0403 16:31:06.868494 21158 net.cpp:156] Memory required for data: 1299953184
I0403 16:31:06.868515 21158 layer_factory.hpp:77] Creating layer inception_5a/relu_5x5
I0403 16:31:06.868537 21158 net.cpp:91] Creating Layer inception_5a/relu_5x5
I0403 16:31:06.868556 21158 net.cpp:425] inception_5a/relu_5x5 <- inception_5a/5x5
I0403 16:31:06.868576 21158 net.cpp:386] inception_5a/relu_5x5 -> inception_5a/5x5 (in-place)
I0403 16:31:06.868775 21158 net.cpp:141] Setting up inception_5a/relu_5x5
I0403 16:31:06.868801 21158 net.cpp:148] Top shape: 24 128 7 7 (150528)
I0403 16:31:06.868816 21158 net.cpp:156] Memory required for data: 1300555296
I0403 16:31:06.868832 21158 layer_factory.hpp:77] Creating layer inception_5a/pool
I0403 16:31:06.868854 21158 net.cpp:91] Creating Layer inception_5a/pool
I0403 16:31:06.868872 21158 net.cpp:425] inception_5a/pool <- pool4/3x3_s2_pool4/3x3_s2_0_split_3
I0403 16:31:06.868891 21158 net.cpp:399] inception_5a/pool -> inception_5a/pool
I0403 16:31:06.868964 21158 net.cpp:141] Setting up inception_5a/pool
I0403 16:31:06.868994 21158 net.cpp:148] Top shape: 24 832 7 7 (978432)
I0403 16:31:06.869012 21158 net.cpp:156] Memory required for data: 1304469024
I0403 16:31:06.869027 21158 layer_factory.hpp:77] Creating layer inception_5a/pool_proj
I0403 16:31:06.869050 21158 net.cpp:91] Creating Layer inception_5a/pool_proj
I0403 16:31:06.869068 21158 net.cpp:425] inception_5a/pool_proj <- inception_5a/pool
I0403 16:31:06.869091 21158 net.cpp:399] inception_5a/pool_proj -> inception_5a/pool_proj
I0403 16:31:06.871450 21158 net.cpp:141] Setting up inception_5a/pool_proj
I0403 16:31:06.871482 21158 net.cpp:148] Top shape: 24 128 7 7 (150528)
I0403 16:31:06.871500 21158 net.cpp:156] Memory required for data: 1305071136
I0403 16:31:06.871520 21158 layer_factory.hpp:77] Creating layer inception_5a/relu_pool_proj
I0403 16:31:06.871538 21158 net.cpp:91] Creating Layer inception_5a/relu_pool_proj
I0403 16:31:06.871556 21158 net.cpp:425] inception_5a/relu_pool_proj <- inception_5a/pool_proj
I0403 16:31:06.871575 21158 net.cpp:386] inception_5a/relu_pool_proj -> inception_5a/pool_proj (in-place)
I0403 16:31:06.871881 21158 net.cpp:141] Setting up inception_5a/relu_pool_proj
I0403 16:31:06.871908 21158 net.cpp:148] Top shape: 24 128 7 7 (150528)
I0403 16:31:06.871924 21158 net.cpp:156] Memory required for data: 1305673248
I0403 16:31:06.871940 21158 layer_factory.hpp:77] Creating layer inception_5a/output
I0403 16:31:06.871958 21158 net.cpp:91] Creating Layer inception_5a/output
I0403 16:31:06.871975 21158 net.cpp:425] inception_5a/output <- inception_5a/1x1
I0403 16:31:06.871999 21158 net.cpp:425] inception_5a/output <- inception_5a/3x3
I0403 16:31:06.872019 21158 net.cpp:425] inception_5a/output <- inception_5a/5x5
I0403 16:31:06.872035 21158 net.cpp:425] inception_5a/output <- inception_5a/pool_proj
I0403 16:31:06.872056 21158 net.cpp:399] inception_5a/output -> inception_5a/output
I0403 16:31:06.872107 21158 net.cpp:141] Setting up inception_5a/output
I0403 16:31:06.872136 21158 net.cpp:148] Top shape: 24 832 7 7 (978432)
I0403 16:31:06.872153 21158 net.cpp:156] Memory required for data: 1309586976
I0403 16:31:06.872169 21158 layer_factory.hpp:77] Creating layer inception_5a/output_inception_5a/output_0_split
I0403 16:31:06.872186 21158 net.cpp:91] Creating Layer inception_5a/output_inception_5a/output_0_split
I0403 16:31:06.872202 21158 net.cpp:425] inception_5a/output_inception_5a/output_0_split <- inception_5a/output
I0403 16:31:06.872222 21158 net.cpp:399] inception_5a/output_inception_5a/output_0_split -> inception_5a/output_inception_5a/output_0_split_0
I0403 16:31:06.872246 21158 net.cpp:399] inception_5a/output_inception_5a/output_0_split -> inception_5a/output_inception_5a/output_0_split_1
I0403 16:31:06.872267 21158 net.cpp:399] inception_5a/output_inception_5a/output_0_split -> inception_5a/output_inception_5a/output_0_split_2
I0403 16:31:06.872287 21158 net.cpp:399] inception_5a/output_inception_5a/output_0_split -> inception_5a/output_inception_5a/output_0_split_3
I0403 16:31:06.872405 21158 net.cpp:141] Setting up inception_5a/output_inception_5a/output_0_split
I0403 16:31:06.872429 21158 net.cpp:148] Top shape: 24 832 7 7 (978432)
I0403 16:31:06.872445 21158 net.cpp:148] Top shape: 24 832 7 7 (978432)
I0403 16:31:06.872462 21158 net.cpp:148] Top shape: 24 832 7 7 (978432)
I0403 16:31:06.872478 21158 net.cpp:148] Top shape: 24 832 7 7 (978432)
I0403 16:31:06.872493 21158 net.cpp:156] Memory required for data: 1325241888
I0403 16:31:06.872508 21158 layer_factory.hpp:77] Creating layer inception_5b/1x1
I0403 16:31:06.872530 21158 net.cpp:91] Creating Layer inception_5b/1x1
I0403 16:31:06.872551 21158 net.cpp:425] inception_5b/1x1 <- inception_5a/output_inception_5a/output_0_split_0
I0403 16:31:06.872570 21158 net.cpp:399] inception_5b/1x1 -> inception_5b/1x1
I0403 16:31:06.876492 21158 net.cpp:141] Setting up inception_5b/1x1
I0403 16:31:06.876526 21158 net.cpp:148] Top shape: 24 384 7 7 (451584)
I0403 16:31:06.876544 21158 net.cpp:156] Memory required for data: 1327048224
I0403 16:31:06.876565 21158 layer_factory.hpp:77] Creating layer inception_5b/relu_1x1
I0403 16:31:06.876585 21158 net.cpp:91] Creating Layer inception_5b/relu_1x1
I0403 16:31:06.876603 21158 net.cpp:425] inception_5b/relu_1x1 <- inception_5b/1x1
I0403 16:31:06.876624 21158 net.cpp:386] inception_5b/relu_1x1 -> inception_5b/1x1 (in-place)
I0403 16:31:06.876943 21158 net.cpp:141] Setting up inception_5b/relu_1x1
I0403 16:31:06.876972 21158 net.cpp:148] Top shape: 24 384 7 7 (451584)
I0403 16:31:06.877019 21158 net.cpp:156] Memory required for data: 1328854560
I0403 16:31:06.877038 21158 layer_factory.hpp:77] Creating layer inception_5b/3x3_reduce
I0403 16:31:06.877063 21158 net.cpp:91] Creating Layer inception_5b/3x3_reduce
I0403 16:31:06.877081 21158 net.cpp:425] inception_5b/3x3_reduce <- inception_5a/output_inception_5a/output_0_split_1
I0403 16:31:06.877101 21158 net.cpp:399] inception_5b/3x3_reduce -> inception_5b/3x3_reduce
I0403 16:31:06.879890 21158 net.cpp:141] Setting up inception_5b/3x3_reduce
I0403 16:31:06.879926 21158 net.cpp:148] Top shape: 24 192 7 7 (225792)
I0403 16:31:06.879945 21158 net.cpp:156] Memory required for data: 1329757728
I0403 16:31:06.879966 21158 layer_factory.hpp:77] Creating layer inception_5b/relu_3x3_reduce
I0403 16:31:06.879993 21158 net.cpp:91] Creating Layer inception_5b/relu_3x3_reduce
I0403 16:31:06.880014 21158 net.cpp:425] inception_5b/relu_3x3_reduce <- inception_5b/3x3_reduce
I0403 16:31:06.880038 21158 net.cpp:386] inception_5b/relu_3x3_reduce -> inception_5b/3x3_reduce (in-place)
I0403 16:31:06.880249 21158 net.cpp:141] Setting up inception_5b/relu_3x3_reduce
I0403 16:31:06.880278 21158 net.cpp:148] Top shape: 24 192 7 7 (225792)
I0403 16:31:06.880295 21158 net.cpp:156] Memory required for data: 1330660896
I0403 16:31:06.880312 21158 layer_factory.hpp:77] Creating layer inception_5b/3x3
I0403 16:31:06.880336 21158 net.cpp:91] Creating Layer inception_5b/3x3
I0403 16:31:06.880355 21158 net.cpp:425] inception_5b/3x3 <- inception_5b/3x3_reduce
I0403 16:31:06.880378 21158 net.cpp:399] inception_5b/3x3 -> inception_5b/3x3
I0403 16:31:06.887339 21158 net.cpp:141] Setting up inception_5b/3x3
I0403 16:31:06.887369 21158 net.cpp:148] Top shape: 24 384 7 7 (451584)
I0403 16:31:06.887387 21158 net.cpp:156] Memory required for data: 1332467232
I0403 16:31:06.887404 21158 layer_factory.hpp:77] Creating layer inception_5b/relu_3x3
I0403 16:31:06.887423 21158 net.cpp:91] Creating Layer inception_5b/relu_3x3
I0403 16:31:06.887440 21158 net.cpp:425] inception_5b/relu_3x3 <- inception_5b/3x3
I0403 16:31:06.887460 21158 net.cpp:386] inception_5b/relu_3x3 -> inception_5b/3x3 (in-place)
I0403 16:31:06.887771 21158 net.cpp:141] Setting up inception_5b/relu_3x3
I0403 16:31:06.887807 21158 net.cpp:148] Top shape: 24 384 7 7 (451584)
I0403 16:31:06.887822 21158 net.cpp:156] Memory required for data: 1334273568
I0403 16:31:06.887837 21158 layer_factory.hpp:77] Creating layer inception_5b/5x5_reduce
I0403 16:31:06.887876 21158 net.cpp:91] Creating Layer inception_5b/5x5_reduce
I0403 16:31:06.887894 21158 net.cpp:425] inception_5b/5x5_reduce <- inception_5a/output_inception_5a/output_0_split_2
I0403 16:31:06.887917 21158 net.cpp:399] inception_5b/5x5_reduce -> inception_5b/5x5_reduce
I0403 16:31:06.889174 21158 net.cpp:141] Setting up inception_5b/5x5_reduce
I0403 16:31:06.889204 21158 net.cpp:148] Top shape: 24 48 7 7 (56448)
I0403 16:31:06.889219 21158 net.cpp:156] Memory required for data: 1334499360
I0403 16:31:06.889238 21158 layer_factory.hpp:77] Creating layer inception_5b/relu_5x5_reduce
I0403 16:31:06.889257 21158 net.cpp:91] Creating Layer inception_5b/relu_5x5_reduce
I0403 16:31:06.889277 21158 net.cpp:425] inception_5b/relu_5x5_reduce <- inception_5b/5x5_reduce
I0403 16:31:06.889295 21158 net.cpp:386] inception_5b/relu_5x5_reduce -> inception_5b/5x5_reduce (in-place)
I0403 16:31:06.889659 21158 net.cpp:141] Setting up inception_5b/relu_5x5_reduce
I0403 16:31:06.889685 21158 net.cpp:148] Top shape: 24 48 7 7 (56448)
I0403 16:31:06.889700 21158 net.cpp:156] Memory required for data: 1334725152
I0403 16:31:06.889715 21158 layer_factory.hpp:77] Creating layer inception_5b/5x5
I0403 16:31:06.889746 21158 net.cpp:91] Creating Layer inception_5b/5x5
I0403 16:31:06.889763 21158 net.cpp:425] inception_5b/5x5 <- inception_5b/5x5_reduce
I0403 16:31:06.889782 21158 net.cpp:399] inception_5b/5x5 -> inception_5b/5x5
I0403 16:31:06.891850 21158 net.cpp:141] Setting up inception_5b/5x5
I0403 16:31:06.891878 21158 net.cpp:148] Top shape: 24 128 7 7 (150528)
I0403 16:31:06.891894 21158 net.cpp:156] Memory required for data: 1335327264
I0403 16:31:06.891911 21158 layer_factory.hpp:77] Creating layer inception_5b/relu_5x5
I0403 16:31:06.891932 21158 net.cpp:91] Creating Layer inception_5b/relu_5x5
I0403 16:31:06.891948 21158 net.cpp:425] inception_5b/relu_5x5 <- inception_5b/5x5
I0403 16:31:06.891965 21158 net.cpp:386] inception_5b/relu_5x5 -> inception_5b/5x5 (in-place)
I0403 16:31:06.892161 21158 net.cpp:141] Setting up inception_5b/relu_5x5
I0403 16:31:06.892189 21158 net.cpp:148] Top shape: 24 128 7 7 (150528)
I0403 16:31:06.892204 21158 net.cpp:156] Memory required for data: 1335929376
I0403 16:31:06.892218 21158 layer_factory.hpp:77] Creating layer inception_5b/pool
I0403 16:31:06.892236 21158 net.cpp:91] Creating Layer inception_5b/pool
I0403 16:31:06.892252 21158 net.cpp:425] inception_5b/pool <- inception_5a/output_inception_5a/output_0_split_3
I0403 16:31:06.892271 21158 net.cpp:399] inception_5b/pool -> inception_5b/pool
I0403 16:31:06.892343 21158 net.cpp:141] Setting up inception_5b/pool
I0403 16:31:06.892365 21158 net.cpp:148] Top shape: 24 832 7 7 (978432)
I0403 16:31:06.892380 21158 net.cpp:156] Memory required for data: 1339843104
I0403 16:31:06.892395 21158 layer_factory.hpp:77] Creating layer inception_5b/pool_proj
I0403 16:31:06.892417 21158 net.cpp:91] Creating Layer inception_5b/pool_proj
I0403 16:31:06.892434 21158 net.cpp:425] inception_5b/pool_proj <- inception_5b/pool
I0403 16:31:06.892455 21158 net.cpp:399] inception_5b/pool_proj -> inception_5b/pool_proj
I0403 16:31:06.894819 21158 net.cpp:141] Setting up inception_5b/pool_proj
I0403 16:31:06.894850 21158 net.cpp:148] Top shape: 24 128 7 7 (150528)
I0403 16:31:06.894870 21158 net.cpp:156] Memory required for data: 1340445216
I0403 16:31:06.894901 21158 layer_factory.hpp:77] Creating layer inception_5b/relu_pool_proj
I0403 16:31:06.894922 21158 net.cpp:91] Creating Layer inception_5b/relu_pool_proj
I0403 16:31:06.894940 21158 net.cpp:425] inception_5b/relu_pool_proj <- inception_5b/pool_proj
I0403 16:31:06.894958 21158 net.cpp:386] inception_5b/relu_pool_proj -> inception_5b/pool_proj (in-place)
I0403 16:31:06.895313 21158 net.cpp:141] Setting up inception_5b/relu_pool_proj
I0403 16:31:06.895342 21158 net.cpp:148] Top shape: 24 128 7 7 (150528)
I0403 16:31:06.895359 21158 net.cpp:156] Memory required for data: 1341047328
I0403 16:31:06.895375 21158 layer_factory.hpp:77] Creating layer inception_5b/output
I0403 16:31:06.895395 21158 net.cpp:91] Creating Layer inception_5b/output
I0403 16:31:06.895438 21158 net.cpp:425] inception_5b/output <- inception_5b/1x1
I0403 16:31:06.895457 21158 net.cpp:425] inception_5b/output <- inception_5b/3x3
I0403 16:31:06.895485 21158 net.cpp:425] inception_5b/output <- inception_5b/5x5
I0403 16:31:06.895503 21158 net.cpp:425] inception_5b/output <- inception_5b/pool_proj
I0403 16:31:06.895524 21158 net.cpp:399] inception_5b/output -> inception_5b/output
I0403 16:31:06.895591 21158 net.cpp:141] Setting up inception_5b/output
I0403 16:31:06.895617 21158 net.cpp:148] Top shape: 24 1024 7 7 (1204224)
I0403 16:31:06.895634 21158 net.cpp:156] Memory required for data: 1345864224
I0403 16:31:06.895649 21158 layer_factory.hpp:77] Creating layer pool5/7x7_s1
I0403 16:31:06.895668 21158 net.cpp:91] Creating Layer pool5/7x7_s1
I0403 16:31:06.895684 21158 net.cpp:425] pool5/7x7_s1 <- inception_5b/output
I0403 16:31:06.895720 21158 net.cpp:399] pool5/7x7_s1 -> pool5/7x7_s1
I0403 16:31:06.895941 21158 net.cpp:141] Setting up pool5/7x7_s1
I0403 16:31:06.895966 21158 net.cpp:148] Top shape: 24 1024 1 1 (24576)
I0403 16:31:06.895979 21158 net.cpp:156] Memory required for data: 1345962528
I0403 16:31:06.896001 21158 layer_factory.hpp:77] Creating layer pool5/drop_7x7_s1
I0403 16:31:06.896023 21158 net.cpp:91] Creating Layer pool5/drop_7x7_s1
I0403 16:31:06.896039 21158 net.cpp:425] pool5/drop_7x7_s1 <- pool5/7x7_s1
I0403 16:31:06.896056 21158 net.cpp:386] pool5/drop_7x7_s1 -> pool5/7x7_s1 (in-place)
I0403 16:31:06.896105 21158 net.cpp:141] Setting up pool5/drop_7x7_s1
I0403 16:31:06.896129 21158 net.cpp:148] Top shape: 24 1024 1 1 (24576)
I0403 16:31:06.896144 21158 net.cpp:156] Memory required for data: 1346060832
I0403 16:31:06.896158 21158 layer_factory.hpp:77] Creating layer loss3/classifier_plantvillage
I0403 16:31:06.896178 21158 net.cpp:91] Creating Layer loss3/classifier_plantvillage
I0403 16:31:06.896193 21158 net.cpp:425] loss3/classifier_plantvillage <- pool5/7x7_s1
I0403 16:31:06.896214 21158 net.cpp:399] loss3/classifier_plantvillage -> loss3/classifier_plantvillage
I0403 16:31:06.896666 21158 net.cpp:141] Setting up loss3/classifier_plantvillage
I0403 16:31:06.896689 21158 net.cpp:148] Top shape: 24 38 (912)
I0403 16:31:06.896703 21158 net.cpp:156] Memory required for data: 1346064480
I0403 16:31:06.896720 21158 layer_factory.hpp:77] Creating layer loss3/classifier_plantvillage_loss3/classifier_plantvillage_0_split
I0403 16:31:06.896739 21158 net.cpp:91] Creating Layer loss3/classifier_plantvillage_loss3/classifier_plantvillage_0_split
I0403 16:31:06.896754 21158 net.cpp:425] loss3/classifier_plantvillage_loss3/classifier_plantvillage_0_split <- loss3/classifier_plantvillage
I0403 16:31:06.896772 21158 net.cpp:399] loss3/classifier_plantvillage_loss3/classifier_plantvillage_0_split -> loss3/classifier_plantvillage_loss3/classifier_plantvillage_0_split_0
I0403 16:31:06.896796 21158 net.cpp:399] loss3/classifier_plantvillage_loss3/classifier_plantvillage_0_split -> loss3/classifier_plantvillage_loss3/classifier_plantvillage_0_split_1
I0403 16:31:06.896817 21158 net.cpp:399] loss3/classifier_plantvillage_loss3/classifier_plantvillage_0_split -> loss3/classifier_plantvillage_loss3/classifier_plantvillage_0_split_2
I0403 16:31:06.896836 21158 net.cpp:399] loss3/classifier_plantvillage_loss3/classifier_plantvillage_0_split -> loss3/classifier_plantvillage_loss3/classifier_plantvillage_0_split_3
I0403 16:31:06.896936 21158 net.cpp:141] Setting up loss3/classifier_plantvillage_loss3/classifier_plantvillage_0_split
I0403 16:31:06.896960 21158 net.cpp:148] Top shape: 24 38 (912)
I0403 16:31:06.896975 21158 net.cpp:148] Top shape: 24 38 (912)
I0403 16:31:06.896996 21158 net.cpp:148] Top shape: 24 38 (912)
I0403 16:31:06.897012 21158 net.cpp:148] Top shape: 24 38 (912)
I0403 16:31:06.897034 21158 net.cpp:156] Memory required for data: 1346079072
I0403 16:31:06.897049 21158 layer_factory.hpp:77] Creating layer loss1/loss
I0403 16:31:06.897073 21158 net.cpp:91] Creating Layer loss1/loss
I0403 16:31:06.897091 21158 net.cpp:425] loss1/loss <- loss1/classifier_plantvillage_loss1/classifier_plantvillage_0_split_0
I0403 16:31:06.897121 21158 net.cpp:425] loss1/loss <- label_data_1_split_0
…
