…
I0403 15:58:07.017904 20579 net.cpp:313] The NetState phase (1) differed from the phase (0) specified by a rule in layer data
I0403 15:58:07.019142 20579 net.cpp:49] Initializing net from parameters: 
state {
  phase: TEST
}
layer {
  name: "data"
  type: "Data"
  top: "data"
  top: "label"
  include {
    phase: TEST
  }
  transform_param {
    mirror: false
    crop_size: 224
    mean_file: "/home/mohanty/data/final_dataset/lmdb/color-40-60/mean.binaryproto"
  }
  data_param {
    source: "/home/mohanty/data/final_dataset/lmdb/color-40-60/test_db"
    batch_size: 24
    backend: LMDB
  }
}
layer {
  name: "conv1/7x7_s2"
  type: "Convolution"
  bottom: "data"
  top: "conv1/7x7_s2"
  param {
    lr_mult: 1
    decay_mult: 1
  }
  param {
    lr_mult: 2
    decay_mult: 0
  }
  convolution_param {
    num_output: 64
    pad: 3
    kernel_size: 7
    stride: 2
    weight_filler {
      type: "xavier"
      std: 0.1
    }
    bias_filler {
      type: "constant"
      value: 0.2
    }
  }
}
layer {
  name: "conv1/relu_7x7"
  type: "ReLU"
  bottom: "conv1/7x7_s2"
  top: "conv1/7x7_s2"
}
layer {
  name: "pool1/3x3_s2"
  type: "Pooling"
  bottom: "conv1/7x7_s2"
  top: "pool1/3x3_s2"
  pooling_param {
    pool: MAX
    kernel_size: 3
    stride: 2
  }
}
layer {
  name: "pool1/norm1"
  type: "LRN"
  bottom: "pool1/3x3_s2"
  top: "pool1/norm1"
  lrn_param {
    local_size: 5
    alpha: 0.0001
    beta: 0.75
  }
}
layer {
  name: "conv2/3x3_reduce"
  type: "Convolution"
  bottom: "pool1/norm1"
  top: "conv2/3x3_reduce"
  param {
    lr_mult: 1
    decay_mult: 1
  }
  param {
    lr_mult: 2
    decay_mult: 0
  }
  convolution_param {
    num_output: 64
    kernel_size: 1
    weight_filler {
      type: "xavier"
      std: 0.1
    }
    bias_filler {
      type: "constant"
      value: 0.2
    }
  }
}
layer {
  name: "conv2/relu_3x3_reduce"
  type: "ReLU"
  bottom: "conv2/3x3_reduce"
  top: "conv2/3x3_reduce"
}
layer {
  name: "conv2/3x3"
  type: "Convolution"
  bottom: "conv2/3x3_reduce"
  top: "conv2/3x3"
  param {
    lr_mult: 1
    decay_mult: 1
  }
  param {
    lr_mult: 2
    decay_mult: 0
  }
  convolution_param {
    num_output: 192
    pad: 1
    kernel_size: 3
    weight_filler {
      type: "xavier"
      std: 0.03
    }
    bias_filler {
      type: "constant"
      value: 0.2
    }
  }
}
layer {
  name: "conv2/relu_3x3"
  type: "ReLU"
  bottom: "conv2/3x3"
  top: "conv2/3x3"
}
layer {
  name: "conv2/norm2"
  type: "LRN"
  bottom: "conv2/3x3"
  top: "conv2/norm2"
  lrn_param {
    local_size: 5
    alpha: 0.0001
    beta: 0.75
  }
}
layer {
  name: "pool2/3x3_s2"
  type: "Pooling"
  bottom: "conv2/norm2"
  top: "pool2/3x3_s2"
  pooling_param {
    pool: MAX
    kernel_size: 3
    stride: 2
  }
}
layer {
  name: "inception_3a/1x1"
  type: "Convolution"
  bottom: "pool2/3x3_s2"
  top: "inception_3a/1x1"
  param {
    lr_mult: 1
    decay_mult: 1
  }
  param {
    lr_mult: 2
    decay_mult: 0
  }
  convolution_param {
    num_output: 64
    kernel_size: 1
    weight_filler {
      type: "xavier"
      std: 0.03
    }
    bias_filler {
      type: "constant"
      value: 0.2
    }
  }
}
layer {
  name: "inception_3a/relu_1x1"
  type: "ReLU"
  bottom: "inception_3a/1x1"
  top: "inception_3a/1x1"
}
layer {
  name: "inception_3a/3x3_reduce"
  type: "Convolution"
  bottom: "pool2/3x3_s2"
  top: "inception_3a/3x3_reduce"
  param {
    lr_mult: 1
    decay_mult: 1
  }
  param {
    lr_mult: 2
    decay_mult: 0
  }
  convolution_param {
    num_output: 96
    kernel_size: 1
    weight_filler {
      type: "xavier"
      std: 0.09
    }
    bias_filler {
      type: "constant"
      value: 0.2
    }
  }
}
layer {
  name: "inception_3a/relu_3x3_reduce"
  type: "ReLU"
  bottom: "inception_3a/3x3_reduce"
  top: "inception_3a/3x3_reduce"
}
layer {
  name: "inception_3a/3x3"
  type: "Convolution"
  bottom: "inception_3a/3x3_reduce"
  top: "inception_3a/3x3"
  param {
    lr_mult: 1
    decay_mult: 1
  }
  param {
    lr_mult: 2
    decay_mult: 0
  }
  convolution_param {
    num_output: 128
    pad: 1
    kernel_size: 3
    weight_filler {
      type: "xavier"
      std: 0.03
    }
    bias_filler {
      type: "constant"
      value: 0.2
    }
  }
}
layer {
  name: "inception_3a/relu_3x3"
  type: "ReLU"
  bottom: "inception_3a/3x3"
  top: "inception_3a/3x3"
}
layer {
  name: "inception_3a/5x5_reduce"
  type: "Convolution"
  bottom: "pool2/3x3_s2"
  top: "inception_3a/5x5_reduce"
  param {
    lr_mult: 1
    decay_mult: 1
  }
  param {
    lr_mult: 2
    decay_mult: 0
  }
  convolution_param {
    num_output: 16
    kernel_size: 1
    weight_filler {
      type: "xavier"
      std: 0.2
    }
    bias_filler {
      type: "constant"
      value: 0.2
    }
  }
}
layer {
  name: "inception_3a/relu_5x5_reduce"
  type: "ReLU"
  bottom: "inception_3a/5x5_reduce"
  top: "inception_3a/5x5_reduce"
}
layer {
  name: "inception_3a/5x5"
  type: "Convolution"
  bottom: "inception_3a/5x5_reduce"
  top: "inception_3a/5x5"
  param {
    lr_mult: 1
    decay_mult: 1
  }
  param {
    lr_mult: 2
    decay_mult: 0
  }
  convolution_param {
    num_output: 32
    pad: 2
    kernel_size: 5
    weight_filler {
      type: "xavier"
      std: 0.03
    }
    bias_filler {
      type: "constant"
      value: 0.2
    }
  }
}
layer {
  name: "inception_3a/relu_5x5"
  type: "ReLU"
  bottom: "inception_3a/5x5"
  top: "inception_3a/5x5"
}
layer {
  name: "inception_3a/pool"
  type: "Pooling"
  bottom: "pool2/3x3_s2"
  top: "inception_3a/pool"
  pooling_param {
    pool: MAX
    kernel_size: 3
    stride: 1
    pad: 1
  }
}
layer {
  name: "inception_3a/pool_proj"
  type: "Convolution"
  bottom: "inception_3a/pool"
  top: "inception_3a/pool_proj"
  param {
    lr_mult: 1
    decay_mult: 1
  }
  param {
    lr_mult: 2
    decay_mult: 0
  }
  convolution_param {
    num_output: 32
    kernel_size: 1
    weight_filler {
      type: "xavier"
      std: 0.1
    }
    bias_filler {
      type: "constant"
      value: 0.2
    }
  }
}
layer {
  name: "inception_3a/relu_pool_proj"
  type: "ReLU"
  bottom: "inception_3a/pool_proj"
  top: "inception_3a/pool_proj"
}
layer {
  name: "inception_3a/output"
  type: "Concat"
  bottom: "inception_3a/1x1"
  bottom: "inception_3a/3x3"
  bottom: "inception_3a/5x5"
  bottom: "inception_3a/pool_proj"
  top: "inception_3a/output"
}
layer {
  name: "inception_3b/1x1"
  type: "Convolution"
  bottom: "inception_3a/output"
  top: "inception_3b/1x1"
  param {
    lr_mult: 1
    decay_mult: 1
  }
  param {
    lr_mult: 2
    decay_mult: 0
  }
  convolution_param {
    num_output: 128
    kernel_size: 1
    weight_filler {
      type: "xavier"
      std: 0.03
    }
    bias_filler {
      type: "constant"
      value: 0.2
    }
  }
}
layer {
  name: "inception_3b/relu_1x1"
  type: "ReLU"
  bottom: "inception_3b/1x1"
  top: "inception_3b/1x1"
}
layer {
  name: "inception_3b/3x3_reduce"
  type: "Convolution"
  bottom: "inception_3a/output"
  top: "inception_3b/3x3_reduce"
  param {
    lr_mult: 1
    decay_mult: 1
  }
  param {
    lr_mult: 2
    decay_mult: 0
  }
  convolution_param {
    num_output: 128
    kernel_size: 1
    weight_filler {
      type: "xavier"
      std: 0.09
    }
    bias_filler {
      type: "constant"
      value: 0.2
    }
  }
}
layer {
  name: "inception_3b/relu_3x3_reduce"
  type: "ReLU"
  bottom: "inception_3b/3x3_reduce"
  top: "inception_3b/3x3_reduce"
}
layer {
  name: "inception_3b/3x3"
  type: "Convolution"
  bottom: "inception_3b/3x3_reduce"
  top: "inception_3b/3x3"
  param {
    lr_mult: 1
    decay_mult: 1
  }
  param {
    lr_mult: 2
    decay_mult: 0
  }
  convolution_param {
    num_output: 192
    pad: 1
    kernel_size: 3
    weight_filler {
      type: "xavier"
      std: 0.03
    }
    bias_filler {
      type: "constant"
      value: 0.2
    }
  }
}
layer {
  name: "inception_3b/relu_3x3"
  type: "ReLU"
  bottom: "inception_3b/3x3"
  top: "inception_3b/3x3"
}
layer {
  name: "inception_3b/5x5_reduce"
  type: "Convolution"
  bottom: "inception_3a/output"
  top: "inception_3b/5x5_reduce"
  param {
    lr_mult: 1
    decay_mult: 1
  }
  param {
    lr_mult: 2
    decay_mult: 0
  }
  convolution_param {
    num_output: 32
    kernel_size: 1
    weight_filler {
      type: "xavier"
      std: 0.2
    }
    bias_filler {
      type: "constant"
      value: 0.2
    }
  }
}
layer {
  name: "inception_3b/relu_5x5_reduce"
  type: "ReLU"
  bottom: "inception_3b/5x5_reduce"
  top: "inception_3b/5x5_reduce"
}
layer {
  name: "inception_3b/5x5"
  type: "Convolution"
  bottom: "inception_3b/5x5_reduce"
  top: "inception_3b/5x5"
  param {
    lr_mult: 1
    decay_mult: 1
  }
  param {
    lr_mult: 2
    decay_mult: 0
  }
  convolution_param {
    num_output: 96
    pad: 2
    kernel_size: 5
    weight_filler {
      type: "xavier"
      std: 0.03
    }
    bias_filler {
      type: "constant"
      value: 0.2
    }
  }
}
layer {
  name: "inception_3b/relu_5x5"
  type: "ReLU"
  bottom: "inception_3b/5x5"
  top: "inception_3b/5x5"
}
layer {
  name: "inception_3b/pool"
  type: "Pooling"
  bottom: "inception_3a/output"
  top: "inception_3b/pool"
  pooling_param {
    pool: MAX
    kernel_size: 3
    stride: 1
    pad: 1
  }
}
layer {
  name: "inception_3b/pool_proj"
  type: "Convolution"
  bottom: "inception_3b/pool"
  top: "inception_3b/pool_proj"
  param {
    lr_mult: 1
    decay_mult: 1
  }
  param {
    lr_mult: 2
    decay_mult: 0
  }
  convolution_param {
    num_output: 64
    kernel_size: 1
    weight_filler {
      type: "xavier"
      std: 0.1
    }
    bias_filler {
      type: "constant"
      value: 0.2
    }
  }
}
layer {
  name: "inception_3b/relu_pool_proj"
  type: "ReLU"
  bottom: "inception_3b/pool_proj"
  top: "inception_3b/pool_proj"
}
layer {
  name: "inception_3b/output"
  type: "Concat"
  bottom: "inception_3b/1x1"
  bottom: "inception_3b/3x3"
  bottom: "inception_3b/5x5"
  bottom: "inception_3b/pool_proj"
  top: "inception_3b/output"
}
layer {
  name: "pool3/3x3_s2"
  type: "Pooling"
  bottom: "inception_3b/output"
  top: "pool3/3x3_s2"
  pooling_param {
    pool: MAX
    kernel_size: 3
    stride: 2
  }
}
layer {
  name: "inception_4a/1x1"
  type: "Convolution"
  bottom: "pool3/3x3_s2"
  top: "inception_4a/1x1"
  param {
    lr_mult: 1
    decay_mult: 1
  }
  param {
    lr_mult: 2
    decay_mult: 0
  }
  convolution_param {
    num_output: 192
    kernel_size: 1
    weight_filler {
      type: "xavier"
      std: 0.03
    }
    bias_filler {
      type: "constant"
      value: 0.2
    }
  }
}
layer {
  name: "inception_4a/relu_1x1"
  type: "ReLU"
  bottom: "inception_4a/1x1"
  top: "inception_4a/1x1"
}
layer {
  name: "inception_4a/3x3_reduce"
  type: "Convolution"
  bottom: "pool3/3x3_s2"
  top: "inception_4a/3x3_reduce"
  param {
    lr_mult: 1
    decay_mult: 1
  }
  param {
    lr_mult: 2
    decay_mult: 0
  }
  convolution_param {
    num_output: 96
    kernel_size: 1
    weight_filler {
      type: "xavier"
      std: 0.09
    }
    bias_filler {
      type: "constant"
      value: 0.2
    }
  }
}
layer {
  name: "inception_4a/relu_3x3_reduce"
  type: "ReLU"
  bottom: "inception_4a/3x3_reduce"
  top: "inception_4a/3x3_reduce"
}
layer {
  name: "inception_4a/3x3"
  type: "Convolution"
  bottom: "inception_4a/3x3_reduce"
  top: "inception_4a/3x3"
  param {
    lr_mult: 1
    decay_mult: 1
  }
  param {
    lr_mult: 2
    decay_mult: 0
  }
  convolution_param {
    num_output: 208
    pad: 1
    kernel_size: 3
    weight_filler {
      type: "xavier"
      std: 0.03
    }
    bias_filler {
      type: "constant"
      value: 0.2
    }
  }
}
layer {
  name: "inception_4a/relu_3x3"
  type: "ReLU"
  bottom: "inception_4a/3x3"
  top: "inception_4a/3x3"
}
layer {
  name: "inception_4a/5x5_reduce"
  type: "Convolution"
  bottom: "pool3/3x3_s2"
  top: "inception_4a/5x5_reduce"
  param {
    lr_mult: 1
    decay_mult: 1
  }
  param {
    lr_mult: 2
    decay_mult: 0
  }
  convolution_param {
    num_output: 16
    kernel_size: 1
    weight_filler {
      type: "xavier"
      std: 0.2
    }
    bias_filler {
      type: "constant"
      value: 0.2
    }
  }
}
layer {
  name: "inception_4a/relu_5x5_reduce"
  type: "ReLU"
  bottom: "inception_4a/5x5_reduce"
  top: "inception_4a/5x5_reduce"
}
layer {
  name: "inception_4a/5x5"
  type: "Convolution"
  bottom: "inception_4a/5x5_reduce"
  top: "inception_4a/5x5"
  param {
    lr_mult: 1
    decay_mult: 1
  }
  param {
    lr_mult: 2
    decay_mult: 0
  }
  convolution_param {
    num_output: 48
    pad: 2
    kernel_size: 5
    weight_filler {
      type: "xavier"
      std: 0.03
    }
    bias_filler {
      type: "constant"
      value: 0.2
    }
  }
}
layer {
  name: "inception_4a/relu_5x5"
  type: "ReLU"
  bottom: "inception_4a/5x5"
  top: "inception_4a/5x5"
}
layer {
  name: "inception_4a/pool"
  type: "Pooling"
  bottom: "pool3/3x3_s2"
  top: "inception_4a/pool"
  pooling_param {
    pool: MAX
    kernel_size: 3
    stride: 1
    pad: 1
  }
}
layer {
  name: "inception_4a/pool_proj"
  type: "Convolution"
  bottom: "inception_4a/pool"
  top: "inception_4a/pool_proj"
  param {
    lr_mult: 1
    decay_mult: 1
  }
  param {
    lr_mult: 2
    decay_mult: 0
  }
  convolution_param {
    num_output: 64
    kernel_size: 1
    weight_filler {
      type: "xavier"
      std: 0.1
    }
    bias_filler {
      type: "constant"
      value: 0.2
    }
  }
}
layer {
  name: "inception_4a/relu_pool_proj"
  type: "ReLU"
  bottom: "inception_4a/pool_proj"
  top: "inception_4a/pool_proj"
}
layer {
  name: "inception_4a/output"
  type: "Concat"
  bottom: "inception_4a/1x1"
  bottom: "inception_4a/3x3"
  bottom: "inception_4a/5x5"
  bottom: "inception_4a/pool_proj"
  top: "inception_4a/output"
}
layer {
  name: "loss1/ave_pool"
  type: "Pooling"
  bottom: "inception_4a/output"
  top: "loss1/ave_pool"
  pooling_param {
    pool: AVE
    kernel_size: 5
    stride: 3
  }
}
layer {
  name: "loss1/conv"
  type: "Convolution"
  bottom: "loss1/ave_pool"
  top: "loss1/conv"
  param {
    lr_mult: 1
    decay_mult: 1
  }
  param {
    lr_mult: 2
    decay_mult: 0
  }
  convolution_param {
    num_output: 128
    kernel_size: 1
    weight_filler {
      type: "xavier"
      std: 0.08
    }
    bias_filler {
      type: "constant"
      value: 0.2
    }
  }
}
layer {
  name: "loss1/relu_conv"
  type: "ReLU"
  bottom: "loss1/conv"
  top: "loss1/conv"
}
layer {
  name: "loss1/fc"
  type: "InnerProduct"
  bottom: "loss1/conv"
  top: "loss1/fc"
  param {
    lr_mult: 1
    decay_mult: 1
  }
  param {
    lr_mult: 2
    decay_mult: 0
  }
  inner_product_param {
    num_output: 1024
    weight_filler {
      type: "xavier"
      std: 0.02
    }
    bias_filler {
      type: "constant"
      value: 0.2
    }
  }
}
layer {
  name: "loss1/relu_fc"
  type: "ReLU"
  bottom: "loss1/fc"
  top: "loss1/fc"
}
layer {
  name: "loss1/drop_fc"
  type: "Dropout"
  bottom: "loss1/fc"
  top: "loss1/fc"
  dropout_param {
    dropout_ratio: 0.7
  }
}
layer {
  name: "loss1/classifier_plantvillage"
  type: "InnerProduct"
  bottom: "loss1/fc"
  top: "loss1/classifier_plantvillage"
  param {
    lr_mult: 1
    decay_mult: 1
  }
  param {
    lr_mult: 2
    decay_mult: 0
  }
  inner_product_param {
    num_output: 38
    weight_filler {
      type: "xavier"
      std: 0.0009765625
    }
    bias_filler {
      type: "constant"
      value: 0
    }
  }
}
layer {
  name: "inception_4b/1x1"
  type: "Convolution"
  bottom: "inception_4a/output"
  top: "inception_4b/1x1"
  param {
    lr_mult: 1
    decay_mult: 1
  }
  param {
    lr_mult: 2
    decay_mult: 0
  }
  convolution_param {
    num_output: 160
    kernel_size: 1
    weight_filler {
      type: "xavier"
      std: 0.03
    }
    bias_filler {
      type: "constant"
      value: 0.2
    }
  }
}
layer {
  name: "inception_4b/relu_1x1"
  type: "ReLU"
  bottom: "inception_4b/1x1"
  top: "inception_4b/1x1"
}
layer {
  name: "inception_4b/3x3_reduce"
  type: "Convolution"
  bottom: "inception_4a/output"
  top: "inception_4b/3x3_reduce"
  param {
    lr_mult: 1
    decay_mult: 1
  }
  param {
    lr_mult: 2
    decay_mult: 0
  }
  convolution_param {
    num_output: 112
    kernel_size: 1
    weight_filler {
      type: "xavier"
      std: 0.09
    }
    bias_filler {
      type: "constant"
      value: 0.2
    }
  }
}
layer {
  name: "inception_4b/relu_3x3_reduce"
  type: "ReLU"
  bottom: "inception_4b/3x3_reduce"
  top: "inception_4b/3x3_reduce"
}
layer {
  name: "inception_4b/3x3"
  type: "Convolution"
  bottom: "inception_4b/3x3_reduce"
  top: "inception_4b/3x3"
  param {
    lr_mult: 1
    decay_mult: 1
  }
  param {
    lr_mult: 2
    decay_mult: 0
  }
  convolution_param {
    num_output: 224
    pad: 1
    kernel_size: 3
    weight_filler {
      type: "xavier"
      std: 0.03
    }
    bias_filler {
      type: "constant"
      value: 0.2
    }
  }
}
layer {
  name: "inception_4b/relu_3x3"
  type: "ReLU"
  bottom: "inception_4b/3x3"
  top: "inception_4b/3x3"
}
layer {
  name: "inception_4b/5x5_reduce"
  type: "Convolution"
  bottom: "inception_4a/output"
  top: "inception_4b/5x5_reduce"
  param {
    lr_mult: 1
    decay_mult: 1
  }
  param {
    lr_mult: 2
    decay_mult: 0
  }
  convolution_param {
    num_output: 24
    kernel_size: 1
    weight_filler {
      type: "xavier"
      std: 0.2
    }
    bias_filler {
      type: "constant"
      value: 0.2
    }
  }
}
layer {
  name: "inception_4b/relu_5x5_reduce"
  type: "ReLU"
  bottom: "inception_4b/5x5_reduce"
  top: "inception_4b/5x5_reduce"
}
layer {
  name: "inception_4b/5x5"
  type: "Convolution"
  bottom: "inception_4b/5x5_reduce"
  top: "inception_4b/5x5"
  param {
    lr_mult: 1
    decay_mult: 1
  }
  param {
    lr_mult: 2
    decay_mult: 0
  }
  convolution_param {
    num_output: 64
    pad: 2
    kernel_size: 5
    weight_filler {
      type: "xavier"
      std: 0.03
    }
    bias_filler {
      type: "constant"
      value: 0.2
    }
  }
}
layer {
  name: "inception_4b/relu_5x5"
  type: "ReLU"
  bottom: "inception_4b/5x5"
  top: "inception_4b/5x5"
}
layer {
  name: "inception_4b/pool"
  type: "Pooling"
  bottom: "inception_4a/output"
  top: "inception_4b/pool"
  pooling_param {
    pool: MAX
    kernel_size: 3
    stride: 1
    pad: 1
  }
}
layer {
  name: "inception_4b/pool_proj"
  type: "Convolution"
  bottom: "inception_4b/pool"
  top: "inception_4b/pool_proj"
  param {
    lr_mult: 1
    decay_mult: 1
  }
  param {
    lr_mult: 2
    decay_mult: 0
  }
  convolution_param {
    num_output: 64
    kernel_size: 1
    weight_filler {
      type: "xavier"
      std: 0.1
    }
    bias_filler {
      type: "constant"
      value: 0.2
    }
  }
}
layer {
  name: "inception_4b/relu_pool_proj"
  type: "ReLU"
  bottom: "inception_4b/pool_proj"
  top: "inception_4b/pool_proj"
}
layer {
  name: "inception_4b/output"
  type: "Concat"
  bottom: "inception_4b/1x1"
  bottom: "inception_4b/3x3"
  bottom: "inception_4b/5x5"
  bottom: "inception_4b/pool_proj"
  top: "inception_4b/output"
}
layer {
  name: "inception_4c/1x1"
  type: "Convolution"
  bottom: "inception_4b/output"
  top: "inception_4c/1x1"
  param {
    lr_mult: 1
    decay_mult: 1
  }
  param {
    lr_mult: 2
    decay_mult: 0
  }
  convolution_param {
    num_output: 128
    kernel_size: 1
    weight_filler {
      type: "xavier"
      std: 0.03
    }
    bias_filler {
      type: "constant"
      value: 0.2
    }
  }
}
layer {
  name: "inception_4c/relu_1x1"
  type: "ReLU"
  bottom: "inception_4c/1x1"
  top: "inception_4c/1x1"
}
layer {
  name: "inception_4c/3x3_reduce"
  type: "Convolution"
  bottom: "inception_4b/output"
  top: "inception_4c/3x3_reduce"
  param {
    lr_mult: 1
    decay_mult: 1
  }
  param {
    lr_mult: 2
    decay_mult: 0
  }
  convolution_param {
    num_output: 128
    kernel_size: 1
    weight_filler {
      type: "xavier"
      std: 0.09
    }
    bias_filler {
      type: "constant"
      value: 0.2
    }
  }
}
layer {
  name: "inception_4c/relu_3x3_reduce"
  type: "ReLU"
  bottom: "inception_4c/3x3_reduce"
  top: "inception_4c/3x3_reduce"
}
layer {
  name: "inception_4c/3x3"
  type: "Convolution"
  bottom: "inception_4c/3x3_reduce"
  top: "inception_4c/3x3"
  param {
    lr_mult: 1
    decay_mult: 1
  }
  param {
    lr_mult: 2
    decay_mult: 0
  }
  convolution_param {
    num_output: 256
    pad: 1
    kernel_size: 3
    weight_filler {
      type: "xavier"
      std: 0.03
    }
    bias_filler {
      type: "constant"
      value: 0.2
    }
  }
}
layer {
  name: "inception_4c/relu_3x3"
  type: "ReLU"
  bottom: "inception_4c/3x3"
  top: "inception_4c/3x3"
}
layer {
  name: "inception_4c/5x5_reduce"
  type: "Convolution"
  bottom: "inception_4b/output"
  top: "inception_4c/5x5_reduce"
  param {
    lr_mult: 1
    decay_mult: 1
  }
  param {
    lr_mult: 2
    decay_mult: 0
  }
  convolution_param {
    num_output: 24
    kernel_size: 1
    weight_filler {
      type: "xavier"
      std: 0.2
    }
    bias_filler {
      type: "constant"
      value: 0.2
    }
  }
}
layer {
  name: "inception_4c/relu_5x5_reduce"
  type: "ReLU"
  bottom: "inception_4c/5x5_reduce"
  top: "inception_4c/5x5_reduce"
}
layer {
  name: "inception_4c/5x5"
  type: "Convolution"
  bottom: "inception_4c/5x5_reduce"
  top: "inception_4c/5x5"
  param {
    lr_mult: 1
    decay_mult: 1
  }
  param {
    lr_mult: 2
    decay_mult: 0
  }
  convolution_param {
    num_output: 64
    pad: 2
    kernel_size: 5
    weight_filler {
      type: "xavier"
      std: 0.03
    }
    bias_filler {
      type: "constant"
      value: 0.2
    }
  }
}
layer {
  name: "inception_4c/relu_5x5"
  type: "ReLU"
  bottom: "inception_4c/5x5"
  top: "inception_4c/5x5"
}
layer {
  name: "inception_4c/pool"
  type: "Pooling"
  bottom: "inception_4b/output"
  top: "inception_4c/pool"
  pooling_param {
    pool: MAX
    kernel_size: 3
    stride: 1
    pad: 1
  }
}
layer {
  name: "inception_4c/pool_proj"
  type: "Convolution"
  bottom: "inception_4c/pool"
  top: "inception_4c/pool_proj"
  param {
    lr_mult: 1
    decay_mult: 1
  }
  param {
    lr_mult: 2
    decay_mult: 0
  }
  convolution_param {
    num_output: 64
    kernel_size: 1
    weight_filler {
      type: "xavier"
      std: 0.1
    }
    bias_filler {
      type: "constant"
      value: 0.2
    }
  }
}
layer {
  name: "inception_4c/relu_pool_proj"
  type: "ReLU"
  bottom: "inception_4c/pool_proj"
  top: "inception_4c/pool_proj"
}
layer {
  name: "inception_4c/output"
  type: "Concat"
  bottom: "inception_4c/1x1"
  bottom: "inception_4c/3x3"
  bottom: "inception_4c/5x5"
  bottom: "inception_4c/pool_proj"
  top: "inception_4c/output"
}
layer {
  name: "inception_4d/1x1"
  type: "Convolution"
  bottom: "inception_4c/output"
  top: "inception_4d/1x1"
  param {
    lr_mult: 1
    decay_mult: 1
  }
  param {
    lr_mult: 2
    decay_mult: 0
  }
  convolution_param {
    num_output: 112
    kernel_size: 1
    weight_filler {
      type: "xavier"
      std: 0.03
    }
    bias_filler {
      type: "constant"
      value: 0.2
    }
  }
}
layer {
  name: "inception_4d/relu_1x1"
  type: "ReLU"
  bottom: "inception_4d/1x1"
  top: "inception_4d/1x1"
}
layer {
  name: "inception_4d/3x3_reduce"
  type: "Convolution"
  bottom: "inception_4c/output"
  top: "inception_4d/3x3_reduce"
  param {
    lr_mult: 1
    decay_mult: 1
  }
  param {
    lr_mult: 2
    decay_mult: 0
  }
  convolution_param {
    num_output: 144
    kernel_size: 1
    weight_filler {
      type: "xavier"
      std: 0.09
    }
    bias_filler {
      type: "constant"
      value: 0.2
    }
  }
}
layer {
  name: "inception_4d/relu_3x3_reduce"
  type: "ReLU"
  bottom: "inception_4d/3x3_reduce"
  top: "inception_4d/3x3_reduce"
}
layer {
  name: "inception_4d/3x3"
  type: "Convolution"
  bottom: "inception_4d/3x3_reduce"
  top: "inception_4d/3x3"
  param {
    lr_mult: 1
    decay_mult: 1
  }
  param {
    lr_mult: 2
    decay_mult: 0
  }
  convolution_param {
    num_output: 288
    pad: 1
    kernel_size: 3
    weight_filler {
      type: "xavier"
      std: 0.03
    }
    bias_filler {
      type: "constant"
      value: 0.2
    }
  }
}
layer {
  name: "inception_4d/relu_3x3"
  type: "ReLU"
  bottom: "inception_4d/3x3"
  top: "inception_4d/3x3"
}
layer {
  name: "inception_4d/5x5_reduce"
  type: "Convolution"
  bottom: "inception_4c/output"
  top: "inception_4d/5x5_reduce"
  param {
    lr_mult: 1
    decay_mult: 1
  }
  param {
    lr_mult: 2
    decay_mult: 0
  }
  convolution_param {
    num_output: 32
    kernel_size: 1
    weight_filler {
      type: "xavier"
      std: 0.2
    }
    bias_filler {
      type: "constant"
      value: 0.2
    }
  }
}
layer {
  name: "inception_4d/relu_5x5_reduce"
  type: "ReLU"
  bottom: "inception_4d/5x5_reduce"
  top: "inception_4d/5x5_reduce"
}
layer {
  name: "inception_4d/5x5"
  type: "Convolution"
  bottom: "inception_4d/5x5_reduce"
  top: "inception_4d/5x5"
  param {
    lr_mult: 1
    decay_mult: 1
  }
  param {
    lr_mult: 2
    decay_mult: 0
  }
  convolution_param {
    num_output: 64
    pad: 2
    kernel_size: 5
    weight_filler {
      type: "xavier"
      std: 0.03
    }
    bias_filler {
      type: "constant"
      value: 0.2
    }
  }
}
layer {
  name: "inception_4d/relu_5x5"
  type: "ReLU"
  bottom: "inception_4d/5x5"
  top: "inception_4d/5x5"
}
layer {
  name: "inception_4d/pool"
  type: "Pooling"
  bottom: "inception_4c/output"
  top: "inception_4d/pool"
  pooling_param {
    pool: MAX
    kernel_size: 3
    stride: 1
    pad: 1
  }
}
layer {
  name: "inception_4d/pool_proj"
  type: "Convolution"
  bottom: "inception_4d/pool"
  top: "inception_4d/pool_proj"
  param {
    lr_mult: 1
    decay_mult: 1
  }
  param {
    lr_mult: 2
    decay_mult: 0
  }
  convolution_param {
    num_output: 64
    kernel_size: 1
    weight_filler {
      type: "xavier"
      std: 0.1
    }
    bias_filler {
      type: "constant"
      value: 0.2
    }
  }
}
layer {
  name: "inception_4d/relu_pool_proj"
  type: "ReLU"
  bottom: "inception_4d/pool_proj"
  top: "inception_4d/pool_proj"
}
layer {
  name: "inception_4d/output"
  type: "Concat"
  bottom: "inception_4d/1x1"
  bottom: "inception_4d/3x3"
  bottom: "inception_4d/5x5"
  bottom: "inception_4d/pool_proj"
  top: "inception_4d/output"
}
layer {
  name: "loss2/ave_pool"
  type: "Pooling"
  bottom: "inception_4d/output"
  top: "loss2/ave_pool"
  pooling_param {
    pool: AVE
    kernel_size: 5
    stride: 3
  }
}
layer {
  name: "loss2/conv"
  type: "Convolution"
  bottom: "loss2/ave_pool"
  top: "loss2/conv"
  param {
    lr_mult: 1
    decay_mult: 1
  }
  param {
    lr_mult: 2
    decay_mult: 0
  }
  convolution_param {
    num_output: 128
    kernel_size: 1
    weight_filler {
      type: "xavier"
      std: 0.08
    }
    bias_filler {
      type: "constant"
      value: 0.2
    }
  }
}
layer {
  name: "loss2/relu_conv"
  type: "ReLU"
  bottom: "loss2/conv"
  top: "loss2/conv"
}
layer {
  name: "loss2/fc"
  type: "InnerProduct"
  bottom: "loss2/conv"
  top: "loss2/fc"
  param {
    lr_mult: 1
    decay_mult: 1
  }
  param {
    lr_mult: 2
    decay_mult: 0
  }
  inner_product_param {
    num_output: 1024
    weight_filler {
      type: "xavier"
      std: 0.02
    }
    bias_filler {
      type: "constant"
      value: 0.2
    }
  }
}
layer {
  name: "loss2/relu_fc"
  type: "ReLU"
  bottom: "loss2/fc"
  top: "loss2/fc"
}
layer {
  name: "loss2/drop_fc"
  type: "Dropout"
  bottom: "loss2/fc"
  top: "loss2/fc"
  dropout_param {
    dropout_ratio: 0.7
  }
}
layer {
  name: "loss2/classifier_plantvillage"
  type: "InnerProduct"
  bottom: "loss2/fc"
  top: "loss2/classifier_plantvillage"
  param {
    lr_mult: 1
    decay_mult: 1
  }
  param {
    lr_mult: 2
    decay_mult: 0
  }
  inner_product_param {
    num_output: 38
    weight_filler {
      type: "xavier"
      std: 0.0009765625
    }
    bias_filler {
      type: "constant"
      value: 0
    }
  }
}
layer {
  name: "inception_4e/1x1"
  type: "Convolution"
  bottom: "inception_4d/output"
  top: "inception_4e/1x1"
  param {
    lr_mult: 1
    decay_mult: 1
  }
  param {
    lr_mult: 2
    decay_mult: 0
  }
  convolution_param {
    num_output: 256
    kernel_size: 1
    weight_filler {
      type: "xavier"
      std: 0.03
    }
    bias_filler {
      type: "constant"
      value: 0.2
    }
  }
}
layer {
  name: "inception_4e/relu_1x1"
  type: "ReLU"
  bottom: "inception_4e/1x1"
  top: "inception_4e/1x1"
}
layer {
  name: "inception_4e/3x3_reduce"
  type: "Convolution"
  bottom: "inception_4d/output"
  top: "inception_4e/3x3_reduce"
  param {
    lr_mult: 1
    decay_mult: 1
  }
  param {
    lr_mult: 2
    decay_mult: 0
  }
  convolution_param {
    num_output: 160
    kernel_size: 1
    weight_filler {
      type: "xavier"
      std: 0.09
    }
    bias_filler {
      type: "constant"
      value: 0.2
    }
  }
}
layer {
  name: "inception_4e/relu_3x3_reduce"
  type: "ReLU"
  bottom: "inception_4e/3x3_reduce"
  top: "inception_4e/3x3_reduce"
}
layer {
  name: "inception_4e/3x3"
  type: "Convolution"
  bottom: "inception_4e/3x3_reduce"
  top: "inception_4e/3x3"
  param {
    lr_mult: 1
    decay_mult: 1
  }
  param {
    lr_mult: 2
    decay_mult: 0
  }
  convolution_param {
    num_output: 320
    pad: 1
    kernel_size: 3
    weight_filler {
      type: "xavier"
      std: 0.03
    }
    bias_filler {
      type: "constant"
      value: 0.2
    }
  }
}
layer {
  name: "inception_4e/relu_3x3"
  type: "ReLU"
  bottom: "inception_4e/3x3"
  top: "inception_4e/3x3"
}
layer {
  name: "inception_4e/5x5_reduce"
  type: "Convolution"
  bottom: "inception_4d/output"
  top: "inception_4e/5x5_reduce"
  param {
    lr_mult: 1
    decay_mult: 1
  }
  param {
    lr_mult: 2
    decay_mult: 0
  }
  convolution_param {
    num_output: 32
    kernel_size: 1
    weight_filler {
      type: "xavier"
      std: 0.2
    }
    bias_filler {
      type: "constant"
      value: 0.2
    }
  }
}
layer {
  name: "inception_4e/relu_5x5_reduce"
  type: "ReLU"
  bottom: "inception_4e/5x5_reduce"
  top: "inception_4e/5x5_reduce"
}
layer {
  name: "inception_4e/5x5"
  type: "Convolution"
  bottom: "inception_4e/5x5_reduce"
  top: "inception_4e/5x5"
  p
I0403 15:58:07.020398 20579 layer_factory.hpp:77] Creating layer data
I0403 15:58:07.021021 20579 net.cpp:91] Creating Layer data
I0403 15:58:07.021055 20579 net.cpp:399] data -> data
I0403 15:58:07.021108 20579 net.cpp:399] data -> label
I0403 15:58:07.021144 20579 data_transformer.cpp:25] Loading mean file from: /home/mohanty/data/final_dataset/lmdb/color-40-60/mean.binaryproto
I0403 15:58:07.022300 20582 db_lmdb.cpp:38] Opened lmdb /home/mohanty/data/final_dataset/lmdb/color-40-60/test_db
I0403 15:58:07.034554 20579 data_layer.cpp:41] output data size: 24,3,224,224
I0403 15:58:07.065397 20579 net.cpp:141] Setting up data
I0403 15:58:07.065495 20579 net.cpp:148] Top shape: 24 3 224 224 (3612672)
I0403 15:58:07.065518 20579 net.cpp:148] Top shape: 24 (24)
I0403 15:58:07.065536 20579 net.cpp:156] Memory required for data: 14450784
I0403 15:58:07.065563 20579 layer_factory.hpp:77] Creating layer label_data_1_split
I0403 15:58:07.065593 20579 net.cpp:91] Creating Layer label_data_1_split
I0403 15:58:07.065611 20579 net.cpp:425] label_data_1_split <- label
I0403 15:58:07.065644 20579 net.cpp:399] label_data_1_split -> label_data_1_split_0
I0403 15:58:07.065673 20579 net.cpp:399] label_data_1_split -> label_data_1_split_1
I0403 15:58:07.065696 20579 net.cpp:399] label_data_1_split -> label_data_1_split_2
I0403 15:58:07.065717 20579 net.cpp:399] label_data_1_split -> label_data_1_split_3
I0403 15:58:07.065737 20579 net.cpp:399] label_data_1_split -> label_data_1_split_4
I0403 15:58:07.065758 20579 net.cpp:399] label_data_1_split -> label_data_1_split_5
I0403 15:58:07.065779 20579 net.cpp:399] label_data_1_split -> label_data_1_split_6
I0403 15:58:07.065800 20579 net.cpp:399] label_data_1_split -> label_data_1_split_7
I0403 15:58:07.065821 20579 net.cpp:399] label_data_1_split -> label_data_1_split_8
I0403 15:58:07.065842 20579 net.cpp:399] label_data_1_split -> label_data_1_split_9
I0403 15:58:07.065968 20579 net.cpp:141] Setting up label_data_1_split
I0403 15:58:07.065994 20579 net.cpp:148] Top shape: 24 (24)
I0403 15:58:07.066012 20579 net.cpp:148] Top shape: 24 (24)
I0403 15:58:07.066030 20579 net.cpp:148] Top shape: 24 (24)
I0403 15:58:07.066045 20579 net.cpp:148] Top shape: 24 (24)
I0403 15:58:07.066062 20579 net.cpp:148] Top shape: 24 (24)
I0403 15:58:07.066079 20579 net.cpp:148] Top shape: 24 (24)
I0403 15:58:07.066097 20579 net.cpp:148] Top shape: 24 (24)
I0403 15:58:07.066112 20579 net.cpp:148] Top shape: 24 (24)
I0403 15:58:07.066128 20579 net.cpp:148] Top shape: 24 (24)
I0403 15:58:07.066145 20579 net.cpp:148] Top shape: 24 (24)
I0403 15:58:07.066200 20579 net.cpp:156] Memory required for data: 14451744
I0403 15:58:07.066218 20579 layer_factory.hpp:77] Creating layer conv1/7x7_s2
I0403 15:58:07.066252 20579 net.cpp:91] Creating Layer conv1/7x7_s2
I0403 15:58:07.066272 20579 net.cpp:425] conv1/7x7_s2 <- data
I0403 15:58:07.066292 20579 net.cpp:399] conv1/7x7_s2 -> conv1/7x7_s2
I0403 15:58:07.209383 20579 net.cpp:141] Setting up conv1/7x7_s2
I0403 15:58:07.209449 20579 net.cpp:148] Top shape: 24 64 112 112 (19267584)
I0403 15:58:07.209466 20579 net.cpp:156] Memory required for data: 91522080
I0403 15:58:07.209497 20579 layer_factory.hpp:77] Creating layer conv1/relu_7x7
I0403 15:58:07.209525 20579 net.cpp:91] Creating Layer conv1/relu_7x7
I0403 15:58:07.209544 20579 net.cpp:425] conv1/relu_7x7 <- conv1/7x7_s2
I0403 15:58:07.209564 20579 net.cpp:386] conv1/relu_7x7 -> conv1/7x7_s2 (in-place)
I0403 15:58:07.209877 20579 net.cpp:141] Setting up conv1/relu_7x7
I0403 15:58:07.209905 20579 net.cpp:148] Top shape: 24 64 112 112 (19267584)
I0403 15:58:07.209921 20579 net.cpp:156] Memory required for data: 168592416
I0403 15:58:07.209939 20579 layer_factory.hpp:77] Creating layer pool1/3x3_s2
I0403 15:58:07.209986 20579 net.cpp:91] Creating Layer pool1/3x3_s2
I0403 15:58:07.210006 20579 net.cpp:425] pool1/3x3_s2 <- conv1/7x7_s2
I0403 15:58:07.210026 20579 net.cpp:399] pool1/3x3_s2 -> pool1/3x3_s2
I0403 15:58:07.210101 20579 net.cpp:141] Setting up pool1/3x3_s2
I0403 15:58:07.210127 20579 net.cpp:148] Top shape: 24 64 56 56 (4816896)
I0403 15:58:07.210144 20579 net.cpp:156] Memory required for data: 187860000
I0403 15:58:07.210160 20579 layer_factory.hpp:77] Creating layer pool1/norm1
I0403 15:58:07.210186 20579 net.cpp:91] Creating Layer pool1/norm1
I0403 15:58:07.210204 20579 net.cpp:425] pool1/norm1 <- pool1/3x3_s2
I0403 15:58:07.210223 20579 net.cpp:399] pool1/norm1 -> pool1/norm1
I0403 15:58:07.210521 20579 net.cpp:141] Setting up pool1/norm1
I0403 15:58:07.210548 20579 net.cpp:148] Top shape: 24 64 56 56 (4816896)
I0403 15:58:07.210564 20579 net.cpp:156] Memory required for data: 207127584
I0403 15:58:07.210580 20579 layer_factory.hpp:77] Creating layer conv2/3x3_reduce
I0403 15:58:07.210605 20579 net.cpp:91] Creating Layer conv2/3x3_reduce
I0403 15:58:07.210621 20579 net.cpp:425] conv2/3x3_reduce <- pool1/norm1
I0403 15:58:07.210641 20579 net.cpp:399] conv2/3x3_reduce -> conv2/3x3_reduce
I0403 15:58:07.212095 20579 net.cpp:141] Setting up conv2/3x3_reduce
I0403 15:58:07.212127 20579 net.cpp:148] Top shape: 24 64 56 56 (4816896)
I0403 15:58:07.212146 20579 net.cpp:156] Memory required for data: 226395168
I0403 15:58:07.212179 20579 layer_factory.hpp:77] Creating layer conv2/relu_3x3_reduce
I0403 15:58:07.212198 20579 net.cpp:91] Creating Layer conv2/relu_3x3_reduce
I0403 15:58:07.212216 20579 net.cpp:425] conv2/relu_3x3_reduce <- conv2/3x3_reduce
I0403 15:58:07.212234 20579 net.cpp:386] conv2/relu_3x3_reduce -> conv2/3x3_reduce (in-place)
I0403 15:58:07.212493 20579 net.cpp:141] Setting up conv2/relu_3x3_reduce
I0403 15:58:07.212522 20579 net.cpp:148] Top shape: 24 64 56 56 (4816896)
I0403 15:58:07.212538 20579 net.cpp:156] Memory required for data: 245662752
I0403 15:58:07.212553 20579 layer_factory.hpp:77] Creating layer conv2/3x3
I0403 15:58:07.212576 20579 net.cpp:91] Creating Layer conv2/3x3
I0403 15:58:07.212594 20579 net.cpp:425] conv2/3x3 <- conv2/3x3_reduce
I0403 15:58:07.212613 20579 net.cpp:399] conv2/3x3 -> conv2/3x3
I0403 15:58:07.214941 20579 net.cpp:141] Setting up conv2/3x3
I0403 15:58:07.214978 20579 net.cpp:148] Top shape: 24 192 56 56 (14450688)
I0403 15:58:07.214997 20579 net.cpp:156] Memory required for data: 303465504
I0403 15:58:07.215019 20579 layer_factory.hpp:77] Creating layer conv2/relu_3x3
I0403 15:58:07.215039 20579 net.cpp:91] Creating Layer conv2/relu_3x3
I0403 15:58:07.215055 20579 net.cpp:425] conv2/relu_3x3 <- conv2/3x3
I0403 15:58:07.215076 20579 net.cpp:386] conv2/relu_3x3 -> conv2/3x3 (in-place)
I0403 15:58:07.215255 20579 net.cpp:141] Setting up conv2/relu_3x3
I0403 15:58:07.215283 20579 net.cpp:148] Top shape: 24 192 56 56 (14450688)
I0403 15:58:07.215327 20579 net.cpp:156] Memory required for data: 361268256
I0403 15:58:07.215344 20579 layer_factory.hpp:77] Creating layer conv2/norm2
I0403 15:58:07.215363 20579 net.cpp:91] Creating Layer conv2/norm2
I0403 15:58:07.215380 20579 net.cpp:425] conv2/norm2 <- conv2/3x3
I0403 15:58:07.215400 20579 net.cpp:399] conv2/norm2 -> conv2/norm2
I0403 15:58:07.215716 20579 net.cpp:141] Setting up conv2/norm2
I0403 15:58:07.215744 20579 net.cpp:148] Top shape: 24 192 56 56 (14450688)
I0403 15:58:07.215759 20579 net.cpp:156] Memory required for data: 419071008
I0403 15:58:07.215775 20579 layer_factory.hpp:77] Creating layer pool2/3x3_s2
I0403 15:58:07.215795 20579 net.cpp:91] Creating Layer pool2/3x3_s2
I0403 15:58:07.215811 20579 net.cpp:425] pool2/3x3_s2 <- conv2/norm2
I0403 15:58:07.215831 20579 net.cpp:399] pool2/3x3_s2 -> pool2/3x3_s2
I0403 15:58:07.215884 20579 net.cpp:141] Setting up pool2/3x3_s2
I0403 15:58:07.215910 20579 net.cpp:148] Top shape: 24 192 28 28 (3612672)
I0403 15:58:07.215927 20579 net.cpp:156] Memory required for data: 433521696
I0403 15:58:07.215944 20579 layer_factory.hpp:77] Creating layer pool2/3x3_s2_pool2/3x3_s2_0_split
I0403 15:58:07.215966 20579 net.cpp:91] Creating Layer pool2/3x3_s2_pool2/3x3_s2_0_split
I0403 15:58:07.215984 20579 net.cpp:425] pool2/3x3_s2_pool2/3x3_s2_0_split <- pool2/3x3_s2
I0403 15:58:07.216002 20579 net.cpp:399] pool2/3x3_s2_pool2/3x3_s2_0_split -> pool2/3x3_s2_pool2/3x3_s2_0_split_0
I0403 15:58:07.216024 20579 net.cpp:399] pool2/3x3_s2_pool2/3x3_s2_0_split -> pool2/3x3_s2_pool2/3x3_s2_0_split_1
I0403 15:58:07.216047 20579 net.cpp:399] pool2/3x3_s2_pool2/3x3_s2_0_split -> pool2/3x3_s2_pool2/3x3_s2_0_split_2
I0403 15:58:07.216066 20579 net.cpp:399] pool2/3x3_s2_pool2/3x3_s2_0_split -> pool2/3x3_s2_pool2/3x3_s2_0_split_3
I0403 15:58:07.216138 20579 net.cpp:141] Setting up pool2/3x3_s2_pool2/3x3_s2_0_split
I0403 15:58:07.216161 20579 net.cpp:148] Top shape: 24 192 28 28 (3612672)
I0403 15:58:07.216178 20579 net.cpp:148] Top shape: 24 192 28 28 (3612672)
I0403 15:58:07.216195 20579 net.cpp:148] Top shape: 24 192 28 28 (3612672)
I0403 15:58:07.216213 20579 net.cpp:148] Top shape: 24 192 28 28 (3612672)
I0403 15:58:07.216228 20579 net.cpp:156] Memory required for data: 491324448
I0403 15:58:07.216243 20579 layer_factory.hpp:77] Creating layer inception_3a/1x1
I0403 15:58:07.216269 20579 net.cpp:91] Creating Layer inception_3a/1x1
I0403 15:58:07.216287 20579 net.cpp:425] inception_3a/1x1 <- pool2/3x3_s2_pool2/3x3_s2_0_split_0
I0403 15:58:07.216306 20579 net.cpp:399] inception_3a/1x1 -> inception_3a/1x1
I0403 15:58:07.217937 20579 net.cpp:141] Setting up inception_3a/1x1
I0403 15:58:07.217973 20579 net.cpp:148] Top shape: 24 64 28 28 (1204224)
I0403 15:58:07.217991 20579 net.cpp:156] Memory required for data: 496141344
I0403 15:58:07.218013 20579 layer_factory.hpp:77] Creating layer inception_3a/relu_1x1
I0403 15:58:07.218034 20579 net.cpp:91] Creating Layer inception_3a/relu_1x1
I0403 15:58:07.218052 20579 net.cpp:425] inception_3a/relu_1x1 <- inception_3a/1x1
I0403 15:58:07.218071 20579 net.cpp:386] inception_3a/relu_1x1 -> inception_3a/1x1 (in-place)
I0403 15:58:07.218255 20579 net.cpp:141] Setting up inception_3a/relu_1x1
I0403 15:58:07.218281 20579 net.cpp:148] Top shape: 24 64 28 28 (1204224)
I0403 15:58:07.218302 20579 net.cpp:156] Memory required for data: 500958240
I0403 15:58:07.218318 20579 layer_factory.hpp:77] Creating layer inception_3a/3x3_reduce
I0403 15:58:07.218340 20579 net.cpp:91] Creating Layer inception_3a/3x3_reduce
I0403 15:58:07.218358 20579 net.cpp:425] inception_3a/3x3_reduce <- pool2/3x3_s2_pool2/3x3_s2_0_split_1
I0403 15:58:07.218380 20579 net.cpp:399] inception_3a/3x3_reduce -> inception_3a/3x3_reduce
I0403 15:58:07.220177 20579 net.cpp:141] Setting up inception_3a/3x3_reduce
I0403 15:58:07.220234 20579 net.cpp:148] Top shape: 24 96 28 28 (1806336)
I0403 15:58:07.220254 20579 net.cpp:156] Memory required for data: 508183584
I0403 15:58:07.220281 20579 layer_factory.hpp:77] Creating layer inception_3a/relu_3x3_reduce
I0403 15:58:07.220321 20579 net.cpp:91] Creating Layer inception_3a/relu_3x3_reduce
I0403 15:58:07.220341 20579 net.cpp:425] inception_3a/relu_3x3_reduce <- inception_3a/3x3_reduce
I0403 15:58:07.220361 20579 net.cpp:386] inception_3a/relu_3x3_reduce -> inception_3a/3x3_reduce (in-place)
I0403 15:58:07.220553 20579 net.cpp:141] Setting up inception_3a/relu_3x3_reduce
I0403 15:58:07.220579 20579 net.cpp:148] Top shape: 24 96 28 28 (1806336)
I0403 15:58:07.220595 20579 net.cpp:156] Memory required for data: 515408928
I0403 15:58:07.220612 20579 layer_factory.hpp:77] Creating layer inception_3a/3x3
I0403 15:58:07.220635 20579 net.cpp:91] Creating Layer inception_3a/3x3
I0403 15:58:07.220654 20579 net.cpp:425] inception_3a/3x3 <- inception_3a/3x3_reduce
I0403 15:58:07.220677 20579 net.cpp:399] inception_3a/3x3 -> inception_3a/3x3
I0403 15:58:07.222435 20579 net.cpp:141] Setting up inception_3a/3x3
I0403 15:58:07.222465 20579 net.cpp:148] Top shape: 24 128 28 28 (2408448)
I0403 15:58:07.222484 20579 net.cpp:156] Memory required for data: 525042720
I0403 15:58:07.222503 20579 layer_factory.hpp:77] Creating layer inception_3a/relu_3x3
I0403 15:58:07.222525 20579 net.cpp:91] Creating Layer inception_3a/relu_3x3
I0403 15:58:07.222543 20579 net.cpp:425] inception_3a/relu_3x3 <- inception_3a/3x3
I0403 15:58:07.222563 20579 net.cpp:386] inception_3a/relu_3x3 -> inception_3a/3x3 (in-place)
I0403 15:58:07.222846 20579 net.cpp:141] Setting up inception_3a/relu_3x3
I0403 15:58:07.222874 20579 net.cpp:148] Top shape: 24 128 28 28 (2408448)
I0403 15:58:07.222890 20579 net.cpp:156] Memory required for data: 534676512
I0403 15:58:07.222908 20579 layer_factory.hpp:77] Creating layer inception_3a/5x5_reduce
I0403 15:58:07.222932 20579 net.cpp:91] Creating Layer inception_3a/5x5_reduce
I0403 15:58:07.222952 20579 net.cpp:425] inception_3a/5x5_reduce <- pool2/3x3_s2_pool2/3x3_s2_0_split_2
I0403 15:58:07.222982 20579 net.cpp:399] inception_3a/5x5_reduce -> inception_3a/5x5_reduce
I0403 15:58:07.224050 20579 net.cpp:141] Setting up inception_3a/5x5_reduce
I0403 15:58:07.224081 20579 net.cpp:148] Top shape: 24 16 28 28 (301056)
I0403 15:58:07.224098 20579 net.cpp:156] Memory required for data: 535880736
I0403 15:58:07.224118 20579 layer_factory.hpp:77] Creating layer inception_3a/relu_5x5_reduce
I0403 15:58:07.224140 20579 net.cpp:91] Creating Layer inception_3a/relu_5x5_reduce
I0403 15:58:07.224159 20579 net.cpp:425] inception_3a/relu_5x5_reduce <- inception_3a/5x5_reduce
I0403 15:58:07.224177 20579 net.cpp:386] inception_3a/relu_5x5_reduce -> inception_3a/5x5_reduce (in-place)
I0403 15:58:07.224496 20579 net.cpp:141] Setting up inception_3a/relu_5x5_reduce
I0403 15:58:07.224526 20579 net.cpp:148] Top shape: 24 16 28 28 (301056)
I0403 15:58:07.224545 20579 net.cpp:156] Memory required for data: 537084960
I0403 15:58:07.224561 20579 layer_factory.hpp:77] Creating layer inception_3a/5x5
I0403 15:58:07.224586 20579 net.cpp:91] Creating Layer inception_3a/5x5
I0403 15:58:07.224604 20579 net.cpp:425] inception_3a/5x5 <- inception_3a/5x5_reduce
I0403 15:58:07.224624 20579 net.cpp:399] inception_3a/5x5 -> inception_3a/5x5
I0403 15:58:07.225769 20579 net.cpp:141] Setting up inception_3a/5x5
I0403 15:58:07.225800 20579 net.cpp:148] Top shape: 24 32 28 28 (602112)
I0403 15:58:07.225816 20579 net.cpp:156] Memory required for data: 539493408
I0403 15:58:07.225836 20579 layer_factory.hpp:77] Creating layer inception_3a/relu_5x5
I0403 15:58:07.225858 20579 net.cpp:91] Creating Layer inception_3a/relu_5x5
I0403 15:58:07.225878 20579 net.cpp:425] inception_3a/relu_5x5 <- inception_3a/5x5
I0403 15:58:07.225896 20579 net.cpp:386] inception_3a/relu_5x5 -> inception_3a/5x5 (in-place)
I0403 15:58:07.226084 20579 net.cpp:141] Setting up inception_3a/relu_5x5
I0403 15:58:07.226114 20579 net.cpp:148] Top shape: 24 32 28 28 (602112)
I0403 15:58:07.226131 20579 net.cpp:156] Memory required for data: 541901856
I0403 15:58:07.226148 20579 layer_factory.hpp:77] Creating layer inception_3a/pool
I0403 15:58:07.226167 20579 net.cpp:91] Creating Layer inception_3a/pool
I0403 15:58:07.226186 20579 net.cpp:425] inception_3a/pool <- pool2/3x3_s2_pool2/3x3_s2_0_split_3
I0403 15:58:07.226222 20579 net.cpp:399] inception_3a/pool -> inception_3a/pool
I0403 15:58:07.226284 20579 net.cpp:141] Setting up inception_3a/pool
I0403 15:58:07.226308 20579 net.cpp:148] Top shape: 24 192 28 28 (3612672)
I0403 15:58:07.226325 20579 net.cpp:156] Memory required for data: 556352544
I0403 15:58:07.226341 20579 layer_factory.hpp:77] Creating layer inception_3a/pool_proj
I0403 15:58:07.226364 20579 net.cpp:91] Creating Layer inception_3a/pool_proj
I0403 15:58:07.226383 20579 net.cpp:425] inception_3a/pool_proj <- inception_3a/pool
I0403 15:58:07.226407 20579 net.cpp:399] inception_3a/pool_proj -> inception_3a/pool_proj
I0403 15:58:07.227409 20579 net.cpp:141] Setting up inception_3a/pool_proj
I0403 15:58:07.227439 20579 net.cpp:148] Top shape: 24 32 28 28 (602112)
I0403 15:58:07.227458 20579 net.cpp:156] Memory required for data: 558760992
I0403 15:58:07.227481 20579 layer_factory.hpp:77] Creating layer inception_3a/relu_pool_proj
I0403 15:58:07.227504 20579 net.cpp:91] Creating Layer inception_3a/relu_pool_proj
I0403 15:58:07.227522 20579 net.cpp:425] inception_3a/relu_pool_proj <- inception_3a/pool_proj
I0403 15:58:07.227541 20579 net.cpp:386] inception_3a/relu_pool_proj -> inception_3a/pool_proj (in-place)
I0403 15:58:07.227828 20579 net.cpp:141] Setting up inception_3a/relu_pool_proj
I0403 15:58:07.227856 20579 net.cpp:148] Top shape: 24 32 28 28 (602112)
I0403 15:58:07.227872 20579 net.cpp:156] Memory required for data: 561169440
I0403 15:58:07.227888 20579 layer_factory.hpp:77] Creating layer inception_3a/output
I0403 15:58:07.227910 20579 net.cpp:91] Creating Layer inception_3a/output
I0403 15:58:07.227929 20579 net.cpp:425] inception_3a/output <- inception_3a/1x1
I0403 15:58:07.227947 20579 net.cpp:425] inception_3a/output <- inception_3a/3x3
I0403 15:58:07.227970 20579 net.cpp:425] inception_3a/output <- inception_3a/5x5
I0403 15:58:07.227989 20579 net.cpp:425] inception_3a/output <- inception_3a/pool_proj
I0403 15:58:07.228008 20579 net.cpp:399] inception_3a/output -> inception_3a/output
I0403 15:58:07.228057 20579 net.cpp:141] Setting up inception_3a/output
I0403 15:58:07.228082 20579 net.cpp:148] Top shape: 24 256 28 28 (4816896)
I0403 15:58:07.228097 20579 net.cpp:156] Memory required for data: 580437024
I0403 15:58:07.228112 20579 layer_factory.hpp:77] Creating layer inception_3a/output_inception_3a/output_0_split
I0403 15:58:07.228132 20579 net.cpp:91] Creating Layer inception_3a/output_inception_3a/output_0_split
I0403 15:58:07.228148 20579 net.cpp:425] inception_3a/output_inception_3a/output_0_split <- inception_3a/output
I0403 15:58:07.228169 20579 net.cpp:399] inception_3a/output_inception_3a/output_0_split -> inception_3a/output_inception_3a/output_0_split_0
I0403 15:58:07.228191 20579 net.cpp:399] inception_3a/output_inception_3a/output_0_split -> inception_3a/output_inception_3a/output_0_split_1
I0403 15:58:07.228220 20579 net.cpp:399] inception_3a/output_inception_3a/output_0_split -> inception_3a/output_inception_3a/output_0_split_2
I0403 15:58:07.228243 20579 net.cpp:399] inception_3a/output_inception_3a/output_0_split -> inception_3a/output_inception_3a/output_0_split_3
I0403 15:58:07.228322 20579 net.cpp:141] Setting up inception_3a/output_inception_3a/output_0_split
I0403 15:58:07.228346 20579 net.cpp:148] Top shape: 24 256 28 28 (4816896)
I0403 15:58:07.228364 20579 net.cpp:148] Top shape: 24 256 28 28 (4816896)
I0403 15:58:07.228381 20579 net.cpp:148] Top shape: 24 256 28 28 (4816896)
I0403 15:58:07.228399 20579 net.cpp:148] Top shape: 24 256 28 28 (4816896)
I0403 15:58:07.228412 20579 net.cpp:156] Memory required for data: 657507360
I0403 15:58:07.228428 20579 layer_factory.hpp:77] Creating layer inception_3b/1x1
I0403 15:58:07.228452 20579 net.cpp:91] Creating Layer inception_3b/1x1
I0403 15:58:07.228471 20579 net.cpp:425] inception_3b/1x1 <- inception_3a/output_inception_3a/output_0_split_0
I0403 15:58:07.228494 20579 net.cpp:399] inception_3b/1x1 -> inception_3b/1x1
I0403 15:58:07.229696 20579 net.cpp:141] Setting up inception_3b/1x1
I0403 15:58:07.229738 20579 net.cpp:148] Top shape: 24 128 28 28 (2408448)
I0403 15:58:07.229758 20579 net.cpp:156] Memory required for data: 667141152
I0403 15:58:07.229778 20579 layer_factory.hpp:77] Creating layer inception_3b/relu_1x1
I0403 15:58:07.229801 20579 net.cpp:91] Creating Layer inception_3b/relu_1x1
I0403 15:58:07.229820 20579 net.cpp:425] inception_3b/relu_1x1 <- inception_3b/1x1
I0403 15:58:07.229840 20579 net.cpp:386] inception_3b/relu_1x1 -> inception_3b/1x1 (in-place)
I0403 15:58:07.230026 20579 net.cpp:141] Setting up inception_3b/relu_1x1
I0403 15:58:07.230053 20579 net.cpp:148] Top shape: 24 128 28 28 (2408448)
I0403 15:58:07.230070 20579 net.cpp:156] Memory required for data: 676774944
I0403 15:58:07.230087 20579 layer_factory.hpp:77] Creating layer inception_3b/3x3_reduce
I0403 15:58:07.230110 20579 net.cpp:91] Creating Layer inception_3b/3x3_reduce
I0403 15:58:07.230129 20579 net.cpp:425] inception_3b/3x3_reduce <- inception_3a/output_inception_3a/output_0_split_1
I0403 15:58:07.230152 20579 net.cpp:399] inception_3b/3x3_reduce -> inception_3b/3x3_reduce
I0403 15:58:07.231359 20579 net.cpp:141] Setting up inception_3b/3x3_reduce
I0403 15:58:07.231389 20579 net.cpp:148] Top shape: 24 128 28 28 (2408448)
I0403 15:58:07.231406 20579 net.cpp:156] Memory required for data: 686408736
I0403 15:58:07.231426 20579 layer_factory.hpp:77] Creating layer inception_3b/relu_3x3_reduce
I0403 15:58:07.231446 20579 net.cpp:91] Creating Layer inception_3b/relu_3x3_reduce
I0403 15:58:07.231464 20579 net.cpp:425] inception_3b/relu_3x3_reduce <- inception_3b/3x3_reduce
I0403 15:58:07.231484 20579 net.cpp:386] inception_3b/relu_3x3_reduce -> inception_3b/3x3_reduce (in-place)
I0403 15:58:07.231663 20579 net.cpp:141] Setting up inception_3b/relu_3x3_reduce
I0403 15:58:07.231691 20579 net.cpp:148] Top shape: 24 128 28 28 (2408448)
I0403 15:58:07.231708 20579 net.cpp:156] Memory required for data: 696042528
I0403 15:58:07.231724 20579 layer_factory.hpp:77] Creating layer inception_3b/3x3
I0403 15:58:07.231751 20579 net.cpp:91] Creating Layer inception_3b/3x3
I0403 15:58:07.231771 20579 net.cpp:425] inception_3b/3x3 <- inception_3b/3x3_reduce
I0403 15:58:07.231791 20579 net.cpp:399] inception_3b/3x3 -> inception_3b/3x3
I0403 15:58:07.234838 20579 net.cpp:141] Setting up inception_3b/3x3
I0403 15:58:07.234869 20579 net.cpp:148] Top shape: 24 192 28 28 (3612672)
I0403 15:58:07.234887 20579 net.cpp:156] Memory required for data: 710493216
I0403 15:58:07.234907 20579 layer_factory.hpp:77] Creating layer inception_3b/relu_3x3
I0403 15:58:07.234930 20579 net.cpp:91] Creating Layer inception_3b/relu_3x3
I0403 15:58:07.234947 20579 net.cpp:425] inception_3b/relu_3x3 <- inception_3b/3x3
I0403 15:58:07.234972 20579 net.cpp:386] inception_3b/relu_3x3 -> inception_3b/3x3 (in-place)
I0403 15:58:07.235260 20579 net.cpp:141] Setting up inception_3b/relu_3x3
I0403 15:58:07.235288 20579 net.cpp:148] Top shape: 24 192 28 28 (3612672)
I0403 15:58:07.235304 20579 net.cpp:156] Memory required for data: 724943904
I0403 15:58:07.235321 20579 layer_factory.hpp:77] Creating layer inception_3b/5x5_reduce
I0403 15:58:07.235347 20579 net.cpp:91] Creating Layer inception_3b/5x5_reduce
I0403 15:58:07.235364 20579 net.cpp:425] inception_3b/5x5_reduce <- inception_3a/output_inception_3a/output_0_split_2
I0403 15:58:07.235388 20579 net.cpp:399] inception_3b/5x5_reduce -> inception_3b/5x5_reduce
I0403 15:58:07.236420 20579 net.cpp:141] Setting up inception_3b/5x5_reduce
I0403 15:58:07.236450 20579 net.cpp:148] Top shape: 24 32 28 28 (602112)
I0403 15:58:07.236467 20579 net.cpp:156] Memory required for data: 727352352
I0403 15:58:07.236486 20579 layer_factory.hpp:77] Creating layer inception_3b/relu_5x5_reduce
I0403 15:58:07.236508 20579 net.cpp:91] Creating Layer inception_3b/relu_5x5_reduce
I0403 15:58:07.236527 20579 net.cpp:425] inception_3b/relu_5x5_reduce <- inception_3b/5x5_reduce
I0403 15:58:07.236546 20579 net.cpp:386] inception_3b/relu_5x5_reduce -> inception_3b/5x5_reduce (in-place)
I0403 15:58:07.236729 20579 net.cpp:141] Setting up inception_3b/relu_5x5_reduce
I0403 15:58:07.236771 20579 net.cpp:148] Top shape: 24 32 28 28 (602112)
I0403 15:58:07.236789 20579 net.cpp:156] Memory required for data: 729760800
I0403 15:58:07.236805 20579 layer_factory.hpp:77] Creating layer inception_3b/5x5
I0403 15:58:07.236829 20579 net.cpp:91] Creating Layer inception_3b/5x5
I0403 15:58:07.236848 20579 net.cpp:425] inception_3b/5x5 <- inception_3b/5x5_reduce
I0403 15:58:07.236868 20579 net.cpp:399] inception_3b/5x5 -> inception_3b/5x5
I0403 15:58:07.238941 20579 net.cpp:141] Setting up inception_3b/5x5
I0403 15:58:07.238982 20579 net.cpp:148] Top shape: 24 96 28 28 (1806336)
I0403 15:58:07.239001 20579 net.cpp:156] Memory required for data: 736986144
I0403 15:58:07.239022 20579 layer_factory.hpp:77] Creating layer inception_3b/relu_5x5
I0403 15:58:07.239040 20579 net.cpp:91] Creating Layer inception_3b/relu_5x5
I0403 15:58:07.239058 20579 net.cpp:425] inception_3b/relu_5x5 <- inception_3b/5x5
I0403 15:58:07.239079 20579 net.cpp:386] inception_3b/relu_5x5 -> inception_3b/5x5 (in-place)
I0403 15:58:07.239289 20579 net.cpp:141] Setting up inception_3b/relu_5x5
I0403 15:58:07.239315 20579 net.cpp:148] Top shape: 24 96 28 28 (1806336)
I0403 15:58:07.239331 20579 net.cpp:156] Memory required for data: 744211488
I0403 15:58:07.239347 20579 layer_factory.hpp:77] Creating layer inception_3b/pool
I0403 15:58:07.239367 20579 net.cpp:91] Creating Layer inception_3b/pool
I0403 15:58:07.239384 20579 net.cpp:425] inception_3b/pool <- inception_3a/output_inception_3a/output_0_split_3
I0403 15:58:07.239403 20579 net.cpp:399] inception_3b/pool -> inception_3b/pool
I0403 15:58:07.239461 20579 net.cpp:141] Setting up inception_3b/pool
I0403 15:58:07.239486 20579 net.cpp:148] Top shape: 24 256 28 28 (4816896)
I0403 15:58:07.239502 20579 net.cpp:156] Memory required for data: 763479072
I0403 15:58:07.239517 20579 layer_factory.hpp:77] Creating layer inception_3b/pool_proj
I0403 15:58:07.239548 20579 net.cpp:91] Creating Layer inception_3b/pool_proj
I0403 15:58:07.239567 20579 net.cpp:425] inception_3b/pool_proj <- inception_3b/pool
I0403 15:58:07.239589 20579 net.cpp:399] inception_3b/pool_proj -> inception_3b/pool_proj
I0403 15:58:07.240689 20579 net.cpp:141] Setting up inception_3b/pool_proj
I0403 15:58:07.240722 20579 net.cpp:148] Top shape: 24 64 28 28 (1204224)
I0403 15:58:07.240741 20579 net.cpp:156] Memory required for data: 768295968
I0403 15:58:07.240761 20579 layer_factory.hpp:77] Creating layer inception_3b/relu_pool_proj
I0403 15:58:07.240779 20579 net.cpp:91] Creating Layer inception_3b/relu_pool_proj
I0403 15:58:07.240797 20579 net.cpp:425] inception_3b/relu_pool_proj <- inception_3b/pool_proj
I0403 15:58:07.240816 20579 net.cpp:386] inception_3b/relu_pool_proj -> inception_3b/pool_proj (in-place)
I0403 15:58:07.241233 20579 net.cpp:141] Setting up inception_3b/relu_pool_proj
I0403 15:58:07.241261 20579 net.cpp:148] Top shape: 24 64 28 28 (1204224)
I0403 15:58:07.241278 20579 net.cpp:156] Memory required for data: 773112864
I0403 15:58:07.241296 20579 layer_factory.hpp:77] Creating layer inception_3b/output
I0403 15:58:07.241317 20579 net.cpp:91] Creating Layer inception_3b/output
I0403 15:58:07.241334 20579 net.cpp:425] inception_3b/output <- inception_3b/1x1
I0403 15:58:07.241353 20579 net.cpp:425] inception_3b/output <- inception_3b/3x3
I0403 15:58:07.241370 20579 net.cpp:425] inception_3b/output <- inception_3b/5x5
I0403 15:58:07.241386 20579 net.cpp:425] inception_3b/output <- inception_3b/pool_proj
I0403 15:58:07.241405 20579 net.cpp:399] inception_3b/output -> inception_3b/output
I0403 15:58:07.241452 20579 net.cpp:141] Setting up inception_3b/output
I0403 15:58:07.241478 20579 net.cpp:148] Top shape: 24 480 28 28 (9031680)
I0403 15:58:07.241493 20579 net.cpp:156] Memory required for data: 809239584
I0403 15:58:07.241509 20579 layer_factory.hpp:77] Creating layer pool3/3x3_s2
I0403 15:58:07.241528 20579 net.cpp:91] Creating Layer pool3/3x3_s2
I0403 15:58:07.241545 20579 net.cpp:425] pool3/3x3_s2 <- inception_3b/output
I0403 15:58:07.241566 20579 net.cpp:399] pool3/3x3_s2 -> pool3/3x3_s2
I0403 15:58:07.241644 20579 net.cpp:141] Setting up pool3/3x3_s2
I0403 15:58:07.241669 20579 net.cpp:148] Top shape: 24 480 14 14 (2257920)
I0403 15:58:07.241685 20579 net.cpp:156] Memory required for data: 818271264
I0403 15:58:07.241701 20579 layer_factory.hpp:77] Creating layer pool3/3x3_s2_pool3/3x3_s2_0_split
I0403 15:58:07.241719 20579 net.cpp:91] Creating Layer pool3/3x3_s2_pool3/3x3_s2_0_split
I0403 15:58:07.241735 20579 net.cpp:425] pool3/3x3_s2_pool3/3x3_s2_0_split <- pool3/3x3_s2
I0403 15:58:07.241756 20579 net.cpp:399] pool3/3x3_s2_pool3/3x3_s2_0_split -> pool3/3x3_s2_pool3/3x3_s2_0_split_0
I0403 15:58:07.241778 20579 net.cpp:399] pool3/3x3_s2_pool3/3x3_s2_0_split -> pool3/3x3_s2_pool3/3x3_s2_0_split_1
I0403 15:58:07.241799 20579 net.cpp:399] pool3/3x3_s2_pool3/3x3_s2_0_split -> pool3/3x3_s2_pool3/3x3_s2_0_split_2
I0403 15:58:07.241819 20579 net.cpp:399] pool3/3x3_s2_pool3/3x3_s2_0_split -> pool3/3x3_s2_pool3/3x3_s2_0_split_3
I0403 15:58:07.241899 20579 net.cpp:141] Setting up pool3/3x3_s2_pool3/3x3_s2_0_split
I0403 15:58:07.241925 20579 net.cpp:148] Top shape: 24 480 14 14 (2257920)
I0403 15:58:07.241945 20579 net.cpp:148] Top shape: 24 480 14 14 (2257920)
I0403 15:58:07.241966 20579 net.cpp:148] Top shape: 24 480 14 14 (2257920)
I0403 15:58:07.241984 20579 net.cpp:148] Top shape: 24 480 14 14 (2257920)
I0403 15:58:07.241999 20579 net.cpp:156] Memory required for data: 854397984
I0403 15:58:07.242015 20579 layer_factory.hpp:77] Creating layer inception_4a/1x1
I0403 15:58:07.242039 20579 net.cpp:91] Creating Layer inception_4a/1x1
I0403 15:58:07.242058 20579 net.cpp:425] inception_4a/1x1 <- pool3/3x3_s2_pool3/3x3_s2_0_split_0
I0403 15:58:07.242079 20579 net.cpp:399] inception_4a/1x1 -> inception_4a/1x1
I0403 15:58:07.243727 20579 net.cpp:141] Setting up inception_4a/1x1
I0403 15:58:07.243758 20579 net.cpp:148] Top shape: 24 192 14 14 (903168)
I0403 15:58:07.243775 20579 net.cpp:156] Memory required for data: 858010656
I0403 15:58:07.243795 20579 layer_factory.hpp:77] Creating layer inception_4a/relu_1x1
I0403 15:58:07.243815 20579 net.cpp:91] Creating Layer inception_4a/relu_1x1
I0403 15:58:07.243834 20579 net.cpp:425] inception_4a/relu_1x1 <- inception_4a/1x1
I0403 15:58:07.243854 20579 net.cpp:386] inception_4a/relu_1x1 -> inception_4a/1x1 (in-place)
I0403 15:58:07.244043 20579 net.cpp:141] Setting up inception_4a/relu_1x1
I0403 15:58:07.244070 20579 net.cpp:148] Top shape: 24 192 14 14 (903168)
I0403 15:58:07.244086 20579 net.cpp:156] Memory required for data: 861623328
I0403 15:58:07.244102 20579 layer_factory.hpp:77] Creating layer inception_4a/3x3_reduce
I0403 15:58:07.244125 20579 net.cpp:91] Creating Layer inception_4a/3x3_reduce
I0403 15:58:07.244143 20579 net.cpp:425] inception_4a/3x3_reduce <- pool3/3x3_s2_pool3/3x3_s2_0_split_1
I0403 15:58:07.244169 20579 net.cpp:399] inception_4a/3x3_reduce -> inception_4a/3x3_reduce
I0403 15:58:07.245477 20579 net.cpp:141] Setting up inception_4a/3x3_reduce
I0403 15:58:07.245507 20579 net.cpp:148] Top shape: 24 96 14 14 (451584)
I0403 15:58:07.245524 20579 net.cpp:156] Memory required for data: 863429664
I0403 15:58:07.245551 20579 layer_factory.hpp:77] Creating layer inception_4a/relu_3x3_reduce
I0403 15:58:07.245573 20579 net.cpp:91] Creating Layer inception_4a/relu_3x3_reduce
I0403 15:58:07.245589 20579 net.cpp:425] inception_4a/relu_3x3_reduce <- inception_4a/3x3_reduce
I0403 15:58:07.245607 20579 net.cpp:386] inception_4a/relu_3x3_reduce -> inception_4a/3x3_reduce (in-place)
I0403 15:58:07.245781 20579 net.cpp:141] Setting up inception_4a/relu_3x3_reduce
I0403 15:58:07.245806 20579 net.cpp:148] Top shape: 24 96 14 14 (451584)
I0403 15:58:07.245822 20579 net.cpp:156] Memory required for data: 865236000
I0403 15:58:07.245838 20579 layer_factory.hpp:77] Creating layer inception_4a/3x3
I0403 15:58:07.245862 20579 net.cpp:91] Creating Layer inception_4a/3x3
I0403 15:58:07.245880 20579 net.cpp:425] inception_4a/3x3 <- inception_4a/3x3_reduce
I0403 15:58:07.245903 20579 net.cpp:399] inception_4a/3x3 -> inception_4a/3x3
I0403 15:58:07.248618 20579 net.cpp:141] Setting up inception_4a/3x3
I0403 15:58:07.248648 20579 net.cpp:148] Top shape: 24 208 14 14 (978432)
I0403 15:58:07.248664 20579 net.cpp:156] Memory required for data: 869149728
I0403 15:58:07.248683 20579 layer_factory.hpp:77] Creating layer inception_4a/relu_3x3
I0403 15:58:07.248703 20579 net.cpp:91] Creating Layer inception_4a/relu_3x3
I0403 15:58:07.248719 20579 net.cpp:425] inception_4a/relu_3x3 <- inception_4a/3x3
I0403 15:58:07.248741 20579 net.cpp:386] inception_4a/relu_3x3 -> inception_4a/3x3 (in-place)
I0403 15:58:07.249034 20579 net.cpp:141] Setting up inception_4a/relu_3x3
I0403 15:58:07.249061 20579 net.cpp:148] Top shape: 24 208 14 14 (978432)
I0403 15:58:07.249076 20579 net.cpp:156] Memory required for data: 873063456
I0403 15:58:07.249092 20579 layer_factory.hpp:77] Creating layer inception_4a/5x5_reduce
I0403 15:58:07.249115 20579 net.cpp:91] Creating Layer inception_4a/5x5_reduce
I0403 15:58:07.249133 20579 net.cpp:425] inception_4a/5x5_reduce <- pool3/3x3_s2_pool3/3x3_s2_0_split_2
I0403 15:58:07.249155 20579 net.cpp:399] inception_4a/5x5_reduce -> inception_4a/5x5_reduce
I0403 15:58:07.250200 20579 net.cpp:141] Setting up inception_4a/5x5_reduce
I0403 15:58:07.250229 20579 net.cpp:148] Top shape: 24 16 14 14 (75264)
I0403 15:58:07.250247 20579 net.cpp:156] Memory required for data: 873364512
I0403 15:58:07.250267 20579 layer_factory.hpp:77] Creating layer inception_4a/relu_5x5_reduce
I0403 15:58:07.250288 20579 net.cpp:91] Creating Layer inception_4a/relu_5x5_reduce
I0403 15:58:07.250306 20579 net.cpp:425] inception_4a/relu_5x5_reduce <- inception_4a/5x5_reduce
I0403 15:58:07.250325 20579 net.cpp:386] inception_4a/relu_5x5_reduce -> inception_4a/5x5_reduce (in-place)
I0403 15:58:07.250519 20579 net.cpp:141] Setting up inception_4a/relu_5x5_reduce
I0403 15:58:07.250547 20579 net.cpp:148] Top shape: 24 16 14 14 (75264)
I0403 15:58:07.250563 20579 net.cpp:156] Memory required for data: 873665568
I0403 15:58:07.250578 20579 layer_factory.hpp:77] Creating layer inception_4a/5x5
I0403 15:58:07.250602 20579 net.cpp:91] Creating Layer inception_4a/5x5
I0403 15:58:07.250620 20579 net.cpp:425] inception_4a/5x5 <- inception_4a/5x5_reduce
I0403 15:58:07.250641 20579 net.cpp:399] inception_4a/5x5 -> inception_4a/5x5
I0403 15:58:07.251732 20579 net.cpp:141] Setting up inception_4a/5x5
I0403 15:58:07.251760 20579 net.cpp:148] Top shape: 24 48 14 14 (225792)
I0403 15:58:07.251775 20579 net.cpp:156] Memory required for data: 874568736
I0403 15:58:07.251794 20579 layer_factory.hpp:77] Creating layer inception_4a/relu_5x5
I0403 15:58:07.251816 20579 net.cpp:91] Creating Layer inception_4a/relu_5x5
I0403 15:58:07.251835 20579 net.cpp:425] inception_4a/relu_5x5 <- inception_4a/5x5
I0403 15:58:07.251853 20579 net.cpp:386] inception_4a/relu_5x5 -> inception_4a/5x5 (in-place)
I0403 15:58:07.252038 20579 net.cpp:141] Setting up inception_4a/relu_5x5
I0403 15:58:07.252064 20579 net.cpp:148] Top shape: 24 48 14 14 (225792)
I0403 15:58:07.252081 20579 net.cpp:156] Memory required for data: 875471904
I0403 15:58:07.252097 20579 layer_factory.hpp:77] Creating layer inception_4a/pool
I0403 15:58:07.252115 20579 net.cpp:91] Creating Layer inception_4a/pool
I0403 15:58:07.252131 20579 net.cpp:425] inception_4a/pool <- pool3/3x3_s2_pool3/3x3_s2_0_split_3
I0403 15:58:07.252153 20579 net.cpp:399] inception_4a/pool -> inception_4a/pool
I0403 15:58:07.252215 20579 net.cpp:141] Setting up inception_4a/pool
I0403 15:58:07.252239 20579 net.cpp:148] Top shape: 24 480 14 14 (2257920)
I0403 15:58:07.252255 20579 net.cpp:156] Memory required for data: 884503584
I0403 15:58:07.252270 20579 layer_factory.hpp:77] Creating layer inception_4a/pool_proj
I0403 15:58:07.252295 20579 net.cpp:91] Creating Layer inception_4a/pool_proj
I0403 15:58:07.252313 20579 net.cpp:425] inception_4a/pool_proj <- inception_4a/pool
I0403 15:58:07.252333 20579 net.cpp:399] inception_4a/pool_proj -> inception_4a/pool_proj
I0403 15:58:07.253546 20579 net.cpp:141] Setting up inception_4a/pool_proj
I0403 15:58:07.253578 20579 net.cpp:148] Top shape: 24 64 14 14 (301056)
I0403 15:58:07.253610 20579 net.cpp:156] Memory required for data: 885707808
I0403 15:58:07.253631 20579 layer_factory.hpp:77] Creating layer inception_4a/relu_pool_proj
I0403 15:58:07.253653 20579 net.cpp:91] Creating Layer inception_4a/relu_pool_proj
I0403 15:58:07.253670 20579 net.cpp:425] inception_4a/relu_pool_proj <- inception_4a/pool_proj
I0403 15:58:07.253693 20579 net.cpp:386] inception_4a/relu_pool_proj -> inception_4a/pool_proj (in-place)
I0403 15:58:07.253989 20579 net.cpp:141] Setting up inception_4a/relu_pool_proj
I0403 15:58:07.254020 20579 net.cpp:148] Top shape: 24 64 14 14 (301056)
I0403 15:58:07.254037 20579 net.cpp:156] Memory required for data: 886912032
I0403 15:58:07.254053 20579 layer_factory.hpp:77] Creating layer inception_4a/output
I0403 15:58:07.254072 20579 net.cpp:91] Creating Layer inception_4a/output
I0403 15:58:07.254089 20579 net.cpp:425] inception_4a/output <- inception_4a/1x1
I0403 15:58:07.254107 20579 net.cpp:425] inception_4a/output <- inception_4a/3x3
I0403 15:58:07.254125 20579 net.cpp:425] inception_4a/output <- inception_4a/5x5
I0403 15:58:07.254142 20579 net.cpp:425] inception_4a/output <- inception_4a/pool_proj
I0403 15:58:07.254163 20579 net.cpp:399] inception_4a/output -> inception_4a/output
I0403 15:58:07.254210 20579 net.cpp:141] Setting up inception_4a/output
I0403 15:58:07.254235 20579 net.cpp:148] Top shape: 24 512 14 14 (2408448)
I0403 15:58:07.254251 20579 net.cpp:156] Memory required for data: 896545824
I0403 15:58:07.254267 20579 layer_factory.hpp:77] Creating layer inception_4a/output_inception_4a/output_0_split
I0403 15:58:07.254288 20579 net.cpp:91] Creating Layer inception_4a/output_inception_4a/output_0_split
I0403 15:58:07.254305 20579 net.cpp:425] inception_4a/output_inception_4a/output_0_split <- inception_4a/output
I0403 15:58:07.254324 20579 net.cpp:399] inception_4a/output_inception_4a/output_0_split -> inception_4a/output_inception_4a/output_0_split_0
I0403 15:58:07.254345 20579 net.cpp:399] inception_4a/output_inception_4a/output_0_split -> inception_4a/output_inception_4a/output_0_split_1
I0403 15:58:07.254371 20579 net.cpp:399] inception_4a/output_inception_4a/output_0_split -> inception_4a/output_inception_4a/output_0_split_2
I0403 15:58:07.254393 20579 net.cpp:399] inception_4a/output_inception_4a/output_0_split -> inception_4a/output_inception_4a/output_0_split_3
I0403 15:58:07.254415 20579 net.cpp:399] inception_4a/output_inception_4a/output_0_split -> inception_4a/output_inception_4a/output_0_split_4
I0403 15:58:07.254513 20579 net.cpp:141] Setting up inception_4a/output_inception_4a/output_0_split
I0403 15:58:07.254539 20579 net.cpp:148] Top shape: 24 512 14 14 (2408448)
I0403 15:58:07.254556 20579 net.cpp:148] Top shape: 24 512 14 14 (2408448)
I0403 15:58:07.254573 20579 net.cpp:148] Top shape: 24 512 14 14 (2408448)
I0403 15:58:07.254590 20579 net.cpp:148] Top shape: 24 512 14 14 (2408448)
I0403 15:58:07.254607 20579 net.cpp:148] Top shape: 24 512 14 14 (2408448)
I0403 15:58:07.254623 20579 net.cpp:156] Memory required for data: 944714784
I0403 15:58:07.254638 20579 layer_factory.hpp:77] Creating layer loss1/ave_pool
I0403 15:58:07.254660 20579 net.cpp:91] Creating Layer loss1/ave_pool
I0403 15:58:07.254679 20579 net.cpp:425] loss1/ave_pool <- inception_4a/output_inception_4a/output_0_split_0
I0403 15:58:07.254698 20579 net.cpp:399] loss1/ave_pool -> loss1/ave_pool
I0403 15:58:07.254920 20579 net.cpp:141] Setting up loss1/ave_pool
I0403 15:58:07.254950 20579 net.cpp:148] Top shape: 24 512 4 4 (196608)
I0403 15:58:07.254972 20579 net.cpp:156] Memory required for data: 945501216
I0403 15:58:07.254988 20579 layer_factory.hpp:77] Creating layer loss1/conv
I0403 15:58:07.255012 20579 net.cpp:91] Creating Layer loss1/conv
I0403 15:58:07.255031 20579 net.cpp:425] loss1/conv <- loss1/ave_pool
I0403 15:58:07.255053 20579 net.cpp:399] loss1/conv -> loss1/conv
I0403 15:58:07.256541 20579 net.cpp:141] Setting up loss1/conv
I0403 15:58:07.256570 20579 net.cpp:148] Top shape: 24 128 4 4 (49152)
I0403 15:58:07.256587 20579 net.cpp:156] Memory required for data: 945697824
I0403 15:58:07.256623 20579 layer_factory.hpp:77] Creating layer loss1/relu_conv
I0403 15:58:07.256645 20579 net.cpp:91] Creating Layer loss1/relu_conv
I0403 15:58:07.256664 20579 net.cpp:425] loss1/relu_conv <- loss1/conv
I0403 15:58:07.256682 20579 net.cpp:386] loss1/relu_conv -> loss1/conv (in-place)
I0403 15:58:07.256978 20579 net.cpp:141] Setting up loss1/relu_conv
I0403 15:58:07.257007 20579 net.cpp:148] Top shape: 24 128 4 4 (49152)
I0403 15:58:07.257025 20579 net.cpp:156] Memory required for data: 945894432
I0403 15:58:07.257041 20579 layer_factory.hpp:77] Creating layer loss1/fc
I0403 15:58:07.257069 20579 net.cpp:91] Creating Layer loss1/fc
I0403 15:58:07.257089 20579 net.cpp:425] loss1/fc <- loss1/conv
I0403 15:58:07.257109 20579 net.cpp:399] loss1/fc -> loss1/fc
I0403 15:58:07.275457 20579 net.cpp:141] Setting up loss1/fc
I0403 15:58:07.275499 20579 net.cpp:148] Top shape: 24 1024 (24576)
I0403 15:58:07.275514 20579 net.cpp:156] Memory required for data: 945992736
I0403 15:58:07.275533 20579 layer_factory.hpp:77] Creating layer loss1/relu_fc
I0403 15:58:07.275552 20579 net.cpp:91] Creating Layer loss1/relu_fc
I0403 15:58:07.275569 20579 net.cpp:425] loss1/relu_fc <- loss1/fc
I0403 15:58:07.275590 20579 net.cpp:386] loss1/relu_fc -> loss1/fc (in-place)
I0403 15:58:07.275781 20579 net.cpp:141] Setting up loss1/relu_fc
I0403 15:58:07.275806 20579 net.cpp:148] Top shape: 24 1024 (24576)
I0403 15:58:07.275821 20579 net.cpp:156] Memory required for data: 946091040
I0403 15:58:07.275837 20579 layer_factory.hpp:77] Creating layer loss1/drop_fc
I0403 15:58:07.275868 20579 net.cpp:91] Creating Layer loss1/drop_fc
I0403 15:58:07.275887 20579 net.cpp:425] loss1/drop_fc <- loss1/fc
I0403 15:58:07.275907 20579 net.cpp:386] loss1/drop_fc -> loss1/fc (in-place)
I0403 15:58:07.275965 20579 net.cpp:141] Setting up loss1/drop_fc
I0403 15:58:07.275992 20579 net.cpp:148] Top shape: 24 1024 (24576)
I0403 15:58:07.276010 20579 net.cpp:156] Memory required for data: 946189344
I0403 15:58:07.276026 20579 layer_factory.hpp:77] Creating layer loss1/classifier_plantvillage
I0403 15:58:07.276046 20579 net.cpp:91] Creating Layer loss1/classifier_plantvillage
I0403 15:58:07.276062 20579 net.cpp:425] loss1/classifier_plantvillage <- loss1/fc
I0403 15:58:07.276083 20579 net.cpp:399] loss1/classifier_plantvillage -> loss1/classifier_plantvillage
I0403 15:58:07.276998 20579 net.cpp:141] Setting up loss1/classifier_plantvillage
I0403 15:58:07.277026 20579 net.cpp:148] Top shape: 24 38 (912)
I0403 15:58:07.277041 20579 net.cpp:156] Memory required for data: 946192992
I0403 15:58:07.277060 20579 layer_factory.hpp:77] Creating layer loss1/classifier_plantvillage_loss1/classifier_plantvillage_0_split
I0403 15:58:07.277078 20579 net.cpp:91] Creating Layer loss1/classifier_plantvillage_loss1/classifier_plantvillage_0_split
I0403 15:58:07.277094 20579 net.cpp:425] loss1/classifier_plantvillage_loss1/classifier_plantvillage_0_split <- loss1/classifier_plantvillage
I0403 15:58:07.277115 20579 net.cpp:399] loss1/classifier_plantvillage_loss1/classifier_plantvillage_0_split -> loss1/classifier_plantvillage_loss1/classifier_plantvillage_0_split_0
I0403 15:58:07.277137 20579 net.cpp:399] loss1/classifier_plantvillage_loss1/classifier_plantvillage_0_split -> loss1/classifier_plantvillage_loss1/classifier_plantvillage_0_split_1
I0403 15:58:07.277158 20579 net.cpp:399] loss1/classifier_plantvillage_loss1/classifier_plantvillage_0_split -> loss1/classifier_plantvillage_loss1/classifier_plantvillage_0_split_2
I0403 15:58:07.277225 20579 net.cpp:141] Setting up loss1/classifier_plantvillage_loss1/classifier_plantvillage_0_split
I0403 15:58:07.277248 20579 net.cpp:148] Top shape: 24 38 (912)
I0403 15:58:07.277264 20579 net.cpp:148] Top shape: 24 38 (912)
I0403 15:58:07.277281 20579 net.cpp:148] Top shape: 24 38 (912)
I0403 15:58:07.277295 20579 net.cpp:156] Memory required for data: 946203936
I0403 15:58:07.277310 20579 layer_factory.hpp:77] Creating layer inception_4b/1x1
I0403 15:58:07.277334 20579 net.cpp:91] Creating Layer inception_4b/1x1
I0403 15:58:07.277369 20579 net.cpp:425] inception_4b/1x1 <- inception_4a/output_inception_4a/output_0_split_1
I0403 15:58:07.277390 20579 net.cpp:399] inception_4b/1x1 -> inception_4b/1x1
I0403 15:58:07.279052 20579 net.cpp:141] Setting up inception_4b/1x1
I0403 15:58:07.279080 20579 net.cpp:148] Top shape: 24 160 14 14 (752640)
I0403 15:58:07.279096 20579 net.cpp:156] Memory required for data: 949214496
I0403 15:58:07.279116 20579 layer_factory.hpp:77] Creating layer inception_4b/relu_1x1
I0403 15:58:07.279137 20579 net.cpp:91] Creating Layer inception_4b/relu_1x1
I0403 15:58:07.279155 20579 net.cpp:425] inception_4b/relu_1x1 <- inception_4b/1x1
I0403 15:58:07.279173 20579 net.cpp:386] inception_4b/relu_1x1 -> inception_4b/1x1 (in-place)
I0403 15:58:07.279350 20579 net.cpp:141] Setting up inception_4b/relu_1x1
I0403 15:58:07.279378 20579 net.cpp:148] Top shape: 24 160 14 14 (752640)
I0403 15:58:07.279395 20579 net.cpp:156] Memory required for data: 952225056
I0403 15:58:07.279412 20579 layer_factory.hpp:77] Creating layer inception_4b/3x3_reduce
I0403 15:58:07.279433 20579 net.cpp:91] Creating Layer inception_4b/3x3_reduce
I0403 15:58:07.279449 20579 net.cpp:425] inception_4b/3x3_reduce <- inception_4a/output_inception_4a/output_0_split_2
I0403 15:58:07.279471 20579 net.cpp:399] inception_4b/3x3_reduce -> inception_4b/3x3_reduce
I0403 15:58:07.280817 20579 net.cpp:141] Setting up inception_4b/3x3_reduce
I0403 15:58:07.280845 20579 net.cpp:148] Top shape: 24 112 14 14 (526848)
I0403 15:58:07.280863 20579 net.cpp:156] Memory required for data: 954332448
I0403 15:58:07.280881 20579 layer_factory.hpp:77] Creating layer inception_4b/relu_3x3_reduce
I0403 15:58:07.280905 20579 net.cpp:91] Creating Layer inception_4b/relu_3x3_reduce
I0403 15:58:07.280923 20579 net.cpp:425] inception_4b/relu_3x3_reduce <- inception_4b/3x3_reduce
I0403 15:58:07.280941 20579 net.cpp:386] inception_4b/relu_3x3_reduce -> inception_4b/3x3_reduce (in-place)
I0403 15:58:07.281229 20579 net.cpp:141] Setting up inception_4b/relu_3x3_reduce
I0403 15:58:07.281255 20579 net.cpp:148] Top shape: 24 112 14 14 (526848)
I0403 15:58:07.281271 20579 net.cpp:156] Memory required for data: 956439840
I0403 15:58:07.281287 20579 layer_factory.hpp:77] Creating layer inception_4b/3x3
I0403 15:58:07.281311 20579 net.cpp:91] Creating Layer inception_4b/3x3
I0403 15:58:07.281329 20579 net.cpp:425] inception_4b/3x3 <- inception_4b/3x3_reduce
I0403 15:58:07.281352 20579 net.cpp:399] inception_4b/3x3 -> inception_4b/3x3
I0403 15:58:07.284339 20579 net.cpp:141] Setting up inception_4b/3x3
I0403 15:58:07.284368 20579 net.cpp:148] Top shape: 24 224 14 14 (1053696)
I0403 15:58:07.284384 20579 net.cpp:156] Memory required for data: 960654624
I0403 15:58:07.284402 20579 layer_factory.hpp:77] Creating layer inception_4b/relu_3x3
I0403 15:58:07.284421 20579 net.cpp:91] Creating Layer inception_4b/relu_3x3
I0403 15:58:07.284437 20579 net.cpp:425] inception_4b/relu_3x3 <- inception_4b/3x3
I0403 15:58:07.284457 20579 net.cpp:386] inception_4b/relu_3x3 -> inception_4b/3x3 (in-place)
I0403 15:58:07.284637 20579 net.cpp:141] Setting up inception_4b/relu_3x3
I0403 15:58:07.284663 20579 net.cpp:148] Top shape: 24 224 14 14 (1053696)
I0403 15:58:07.284678 20579 net.cpp:156] Memory required for data: 964869408
I0403 15:58:07.284693 20579 layer_factory.hpp:77] Creating layer inception_4b/5x5_reduce
I0403 15:58:07.284716 20579 net.cpp:91] Creating Layer inception_4b/5x5_reduce
I0403 15:58:07.284734 20579 net.cpp:425] inception_4b/5x5_reduce <- inception_4a/output_inception_4a/output_0_split_3
I0403 15:58:07.284756 20579 net.cpp:399] inception_4b/5x5_reduce -> inception_4b/5x5_reduce
I0403 15:58:07.285832 20579 net.cpp:141] Setting up inception_4b/5x5_reduce
I0403 15:58:07.285861 20579 net.cpp:148] Top shape: 24 24 14 14 (112896)
I0403 15:58:07.285876 20579 net.cpp:156] Memory required for data: 965320992
I0403 15:58:07.285895 20579 layer_factory.hpp:77] Creating layer inception_4b/relu_5x5_reduce
I0403 15:58:07.285917 20579 net.cpp:91] Creating Layer inception_4b/relu_5x5_reduce
I0403 15:58:07.285946 20579 net.cpp:425] inception_4b/relu_5x5_reduce <- inception_4b/5x5_reduce
I0403 15:58:07.285974 20579 net.cpp:386] inception_4b/relu_5x5_reduce -> inception_4b/5x5_reduce (in-place)
I0403 15:58:07.286155 20579 net.cpp:141] Setting up inception_4b/relu_5x5_reduce
I0403 15:58:07.286183 20579 net.cpp:148] Top shape: 24 24 14 14 (112896)
I0403 15:58:07.286201 20579 net.cpp:156] Memory required for data: 965772576
I0403 15:58:07.286216 20579 layer_factory.hpp:77] Creating layer inception_4b/5x5
I0403 15:58:07.286238 20579 net.cpp:91] Creating Layer inception_4b/5x5
I0403 15:58:07.286257 20579 net.cpp:425] inception_4b/5x5 <- inception_4b/5x5_reduce
I0403 15:58:07.286275 20579 net.cpp:399] inception_4b/5x5 -> inception_4b/5x5
I0403 15:58:07.287494 20579 net.cpp:141] Setting up inception_4b/5x5
I0403 15:58:07.287523 20579 net.cpp:148] Top shape: 24 64 14 14 (301056)
I0403 15:58:07.287539 20579 net.cpp:156] Memory required for data: 966976800
I0403 15:58:07.287556 20579 layer_factory.hpp:77] Creating layer inception_4b/relu_5x5
I0403 15:58:07.287577 20579 net.cpp:91] Creating Layer inception_4b/relu_5x5
I0403 15:58:07.287593 20579 net.cpp:425] inception_4b/relu_5x5 <- inception_4b/5x5
I0403 15:58:07.287611 20579 net.cpp:386] inception_4b/relu_5x5 -> inception_4b/5x5 (in-place)
I0403 15:58:07.287892 20579 net.cpp:141] Setting up inception_4b/relu_5x5
I0403 15:58:07.287919 20579 net.cpp:148] Top shape: 24 64 14 14 (301056)
I0403 15:58:07.287935 20579 net.cpp:156] Memory required for data: 968181024
I0403 15:58:07.287950 20579 layer_factory.hpp:77] Creating layer inception_4b/pool
I0403 15:58:07.287983 20579 net.cpp:91] Creating Layer inception_4b/pool
I0403 15:58:07.288000 20579 net.cpp:425] inception_4b/pool <- inception_4a/output_inception_4a/output_0_split_4
I0403 15:58:07.288023 20579 net.cpp:399] inception_4b/pool -> inception_4b/pool
I0403 15:58:07.288090 20579 net.cpp:141] Setting up inception_4b/pool
I0403 15:58:07.288115 20579 net.cpp:148] Top shape: 24 512 14 14 (2408448)
I0403 15:58:07.288130 20579 net.cpp:156] Memory required for data: 977814816
I0403 15:58:07.288144 20579 layer_factory.hpp:77] Creating layer inception_4b/pool_proj
I0403 15:58:07.288167 20579 net.cpp:91] Creating Layer inception_4b/pool_proj
I0403 15:58:07.288185 20579 net.cpp:425] inception_4b/pool_proj <- inception_4b/pool
I0403 15:58:07.288206 20579 net.cpp:399] inception_4b/pool_proj -> inception_4b/pool_proj
I0403 15:58:07.289440 20579 net.cpp:141] Setting up inception_4b/pool_proj
I0403 15:58:07.289469 20579 net.cpp:148] Top shape: 24 64 14 14 (301056)
I0403 15:58:07.289484 20579 net.cpp:156] Memory required for data: 979019040
I0403 15:58:07.289504 20579 layer_factory.hpp:77] Creating layer inception_4b/relu_pool_proj
I0403 15:58:07.289525 20579 net.cpp:91] Creating Layer inception_4b/relu_pool_proj
I0403 15:58:07.289542 20579 net.cpp:425] inception_4b/relu_pool_proj <- inception_4b/pool_proj
I0403 15:58:07.289559 20579 net.cpp:386] inception_4b/relu_pool_proj -> inception_4b/pool_proj (in-place)
I0403 15:58:07.289736 20579 net.cpp:141] Setting up inception_4b/relu_pool_proj
I0403 15:58:07.289763 20579 net.cpp:148] Top shape: 24 64 14 14 (301056)
I0403 15:58:07.289779 20579 net.cpp:156] Memory required for data: 980223264
I0403 15:58:07.289794 20579 layer_factory.hpp:77] Creating layer inception_4b/output
I0403 15:58:07.289813 20579 net.cpp:91] Creating Layer inception_4b/output
I0403 15:58:07.289827 20579 net.cpp:425] inception_4b/output <- inception_4b/1x1
I0403 15:58:07.289844 20579 net.cpp:425] inception_4b/output <- inception_4b/3x3
I0403 15:58:07.289860 20579 net.cpp:425] inception_4b/output <- inception_4b/5x5
I0403 15:58:07.289875 20579 net.cpp:425] inception_4b/output <- inception_4b/pool_proj
I0403 15:58:07.289892 20579 net.cpp:399] inception_4b/output -> inception_4b/output
I0403 15:58:07.289939 20579 net.cpp:141] Setting up inception_4b/output
I0403 15:58:07.289974 20579 net.cpp:148] Top shape: 24 512 14 14 (2408448)
I0403 15:58:07.289990 20579 net.cpp:156] Memory required for data: 989857056
I0403 15:58:07.290020 20579 layer_factory.hpp:77] Creating layer inception_4b/output_inception_4b/output_0_split
I0403 15:58:07.290041 20579 net.cpp:91] Creating Layer inception_4b/output_inception_4b/output_0_split
I0403 15:58:07.290058 20579 net.cpp:425] inception_4b/output_inception_4b/output_0_split <- inception_4b/output
I0403 15:58:07.290076 20579 net.cpp:399] inception_4b/output_inception_4b/output_0_split -> inception_4b/output_inception_4b/output_0_split_0
I0403 15:58:07.290096 20579 net.cpp:399] inception_4b/output_inception_4b/output_0_split -> inception_4b/output_inception_4b/output_0_split_1
I0403 15:58:07.290115 20579 net.cpp:399] inception_4b/output_inception_4b/output_0_split -> inception_4b/output_inception_4b/output_0_split_2
I0403 15:58:07.290135 20579 net.cpp:399] inception_4b/output_inception_4b/output_0_split -> inception_4b/output_inception_4b/output_0_split_3
I0403 15:58:07.290220 20579 net.cpp:141] Setting up inception_4b/output_inception_4b/output_0_split
I0403 15:58:07.290251 20579 net.cpp:148] Top shape: 24 512 14 14 (2408448)
I0403 15:58:07.290267 20579 net.cpp:148] Top shape: 24 512 14 14 (2408448)
I0403 15:58:07.290283 20579 net.cpp:148] Top shape: 24 512 14 14 (2408448)
I0403 15:58:07.290298 20579 net.cpp:148] Top shape: 24 512 14 14 (2408448)
I0403 15:58:07.290313 20579 net.cpp:156] Memory required for data: 1028392224
I0403 15:58:07.290328 20579 layer_factory.hpp:77] Creating layer inception_4c/1x1
I0403 15:58:07.290350 20579 net.cpp:91] Creating Layer inception_4c/1x1
I0403 15:58:07.290369 20579 net.cpp:425] inception_4c/1x1 <- inception_4b/output_inception_4b/output_0_split_0
I0403 15:58:07.290390 20579 net.cpp:399] inception_4c/1x1 -> inception_4c/1x1
I0403 15:58:07.291823 20579 net.cpp:141] Setting up inception_4c/1x1
I0403 15:58:07.291856 20579 net.cpp:148] Top shape: 24 128 14 14 (602112)
I0403 15:58:07.291873 20579 net.cpp:156] Memory required for data: 1030800672
I0403 15:58:07.291893 20579 layer_factory.hpp:77] Creating layer inception_4c/relu_1x1
I0403 15:58:07.291913 20579 net.cpp:91] Creating Layer inception_4c/relu_1x1
I0403 15:58:07.291929 20579 net.cpp:425] inception_4c/relu_1x1 <- inception_4c/1x1
I0403 15:58:07.291945 20579 net.cpp:386] inception_4c/relu_1x1 -> inception_4c/1x1 (in-place)
I0403 15:58:07.292132 20579 net.cpp:141] Setting up inception_4c/relu_1x1
I0403 15:58:07.292158 20579 net.cpp:148] Top shape: 24 128 14 14 (602112)
I0403 15:58:07.292173 20579 net.cpp:156] Memory required for data: 1033209120
I0403 15:58:07.292188 20579 layer_factory.hpp:77] Creating layer inception_4c/3x3_reduce
I0403 15:58:07.292212 20579 net.cpp:91] Creating Layer inception_4c/3x3_reduce
I0403 15:58:07.292229 20579 net.cpp:425] inception_4c/3x3_reduce <- inception_4b/output_inception_4b/output_0_split_1
I0403 15:58:07.292253 20579 net.cpp:399] inception_4c/3x3_reduce -> inception_4c/3x3_reduce
I0403 15:58:07.294167 20579 net.cpp:141] Setting up inception_4c/3x3_reduce
I0403 15:58:07.294195 20579 net.cpp:148] Top shape: 24 128 14 14 (602112)
I0403 15:58:07.294211 20579 net.cpp:156] Memory required for data: 1035617568
I0403 15:58:07.294230 20579 layer_factory.hpp:77] Creating layer inception_4c/relu_3x3_reduce
I0403 15:58:07.294251 20579 net.cpp:91] Creating Layer inception_4c/relu_3x3_reduce
I0403 15:58:07.294268 20579 net.cpp:425] inception_4c/relu_3x3_reduce <- inception_4c/3x3_reduce
I0403 15:58:07.294286 20579 net.cpp:386] inception_4c/relu_3x3_reduce -> inception_4c/3x3_reduce (in-place)
I0403 15:58:07.294570 20579 net.cpp:141] Setting up inception_4c/relu_3x3_reduce
I0403 15:58:07.294597 20579 net.cpp:148] Top shape: 24 128 14 14 (602112)
I0403 15:58:07.294612 20579 net.cpp:156] Memory required for data: 1038026016
I0403 15:58:07.294627 20579 layer_factory.hpp:77] Creating layer inception_4c/3x3
I0403 15:58:07.294651 20579 net.cpp:91] Creating Layer inception_4c/3x3
I0403 15:58:07.294668 20579 net.cpp:425] inception_4c/3x3 <- inception_4c/3x3_reduce
I0403 15:58:07.294690 20579 net.cpp:399] inception_4c/3x3 -> inception_4c/3x3
I0403 15:58:07.298296 20579 net.cpp:141] Setting up inception_4c/3x3
I0403 15:58:07.298337 20579 net.cpp:148] Top shape: 24 256 14 14 (1204224)
I0403 15:58:07.298354 20579 net.cpp:156] Memory required for data: 1042842912
I0403 15:58:07.298388 20579 layer_factory.hpp:77] Creating layer inception_4c/relu_3x3
I0403 15:58:07.298410 20579 net.cpp:91] Creating Layer inception_4c/relu_3x3
I0403 15:58:07.298429 20579 net.cpp:425] inception_4c/relu_3x3 <- inception_4c/3x3
I0403 15:58:07.298446 20579 net.cpp:386] inception_4c/relu_3x3 -> inception_4c/3x3 (in-place)
I0403 15:58:07.298626 20579 net.cpp:141] Setting up inception_4c/relu_3x3
I0403 15:58:07.298651 20579 net.cpp:148] Top shape: 24 256 14 14 (1204224)
I0403 15:58:07.298667 20579 net.cpp:156] Memory required for data: 1047659808
I0403 15:58:07.298683 20579 layer_factory.hpp:77] Creating layer inception_4c/5x5_reduce
I0403 15:58:07.298705 20579 net.cpp:91] Creating Layer inception_4c/5x5_reduce
I0403 15:58:07.298723 20579 net.cpp:425] inception_4c/5x5_reduce <- inception_4b/output_inception_4b/output_0_split_2
I0403 15:58:07.298746 20579 net.cpp:399] inception_4c/5x5_reduce -> inception_4c/5x5_reduce
I0403 15:58:07.299832 20579 net.cpp:141] Setting up inception_4c/5x5_reduce
I0403 15:58:07.299860 20579 net.cpp:148] Top shape: 24 24 14 14 (112896)
I0403 15:58:07.299875 20579 net.cpp:156] Memory required for data: 1048111392
I0403 15:58:07.299895 20579 layer_factory.hpp:77] Creating layer inception_4c/relu_5x5_reduce
I0403 15:58:07.299916 20579 net.cpp:91] Creating Layer inception_4c/relu_5x5_reduce
I0403 15:58:07.299934 20579 net.cpp:425] inception_4c/relu_5x5_reduce <- inception_4c/5x5_reduce
I0403 15:58:07.299952 20579 net.cpp:386] inception_4c/relu_5x5_reduce -> inception_4c/5x5_reduce (in-place)
I0403 15:58:07.300142 20579 net.cpp:141] Setting up inception_4c/relu_5x5_reduce
I0403 15:58:07.300171 20579 net.cpp:148] Top shape: 24 24 14 14 (112896)
I0403 15:58:07.300187 20579 net.cpp:156] Memory required for data: 1048562976
I0403 15:58:07.300204 20579 layer_factory.hpp:77] Creating layer inception_4c/5x5
I0403 15:58:07.300226 20579 net.cpp:91] Creating Layer inception_4c/5x5
I0403 15:58:07.300243 20579 net.cpp:425] inception_4c/5x5 <- inception_4c/5x5_reduce
I0403 15:58:07.300262 20579 net.cpp:399] inception_4c/5x5 -> inception_4c/5x5
I0403 15:58:07.301492 20579 net.cpp:141] Setting up inception_4c/5x5
I0403 15:58:07.301523 20579 net.cpp:148] Top shape: 24 64 14 14 (301056)
I0403 15:58:07.301542 20579 net.cpp:156] Memory required for data: 1049767200
I0403 15:58:07.301559 20579 layer_factory.hpp:77] Creating layer inception_4c/relu_5x5
I0403 15:58:07.301578 20579 net.cpp:91] Creating Layer inception_4c/relu_5x5
I0403 15:58:07.301594 20579 net.cpp:425] inception_4c/relu_5x5 <- inception_4c/5x5
I0403 15:58:07.301612 20579 net.cpp:386] inception_4c/relu_5x5 -> inception_4c/5x5 (in-place)
I0403 15:58:07.301895 20579 net.cpp:141] Setting up inception_4c/relu_5x5
I0403 15:58:07.301924 20579 net.cpp:148] Top shape: 24 64 14 14 (301056)
I0403 15:58:07.301940 20579 net.cpp:156] Memory required for data: 1050971424
I0403 15:58:07.301962 20579 layer_factory.hpp:77] Creating layer inception_4c/pool
I0403 15:58:07.301983 20579 net.cpp:91] Creating Layer inception_4c/pool
I0403 15:58:07.302000 20579 net.cpp:425] inception_4c/pool <- inception_4b/output_inception_4b/output_0_split_3
I0403 15:58:07.302018 20579 net.cpp:399] inception_4c/pool -> inception_4c/pool
I0403 15:58:07.302085 20579 net.cpp:141] Setting up inception_4c/pool
I0403 15:58:07.302109 20579 net.cpp:148] Top shape: 24 512 14 14 (2408448)
I0403 15:58:07.302124 20579 net.cpp:156] Memory required for data: 1060605216
I0403 15:58:07.302139 20579 layer_factory.hpp:77] Creating layer inception_4c/pool_proj
I0403 15:58:07.302162 20579 net.cpp:91] Creating Layer inception_4c/pool_proj
I0403 15:58:07.302181 20579 net.cpp:425] inception_4c/pool_proj <- inception_4c/pool
I0403 15:58:07.302202 20579 net.cpp:399] inception_4c/pool_proj -> inception_4c/pool_proj
I0403 15:58:07.303448 20579 net.cpp:141] Setting up inception_4c/pool_proj
I0403 15:58:07.303478 20579 net.cpp:148] Top shape: 24 64 14 14 (301056)
I0403 15:58:07.303508 20579 net.cpp:156] Memory required for data: 1061809440
I0403 15:58:07.303527 20579 layer_factory.hpp:77] Creating layer inception_4c/relu_pool_proj
I0403 15:58:07.303550 20579 net.cpp:91] Creating Layer inception_4c/relu_pool_proj
I0403 15:58:07.303568 20579 net.cpp:425] inception_4c/relu_pool_proj <- inception_4c/pool_proj
I0403 15:58:07.303587 20579 net.cpp:386] inception_4c/relu_pool_proj -> inception_4c/pool_proj (in-place)
I0403 15:58:07.303771 20579 net.cpp:141] Setting up inception_4c/relu_pool_proj
I0403 15:58:07.303799 20579 net.cpp:148] Top shape: 24 64 14 14 (301056)
I0403 15:58:07.303815 20579 net.cpp:156] Memory required for data: 1063013664
I0403 15:58:07.303830 20579 layer_factory.hpp:77] Creating layer inception_4c/output
I0403 15:58:07.303849 20579 net.cpp:91] Creating Layer inception_4c/output
I0403 15:58:07.303865 20579 net.cpp:425] inception_4c/output <- inception_4c/1x1
I0403 15:58:07.303882 20579 net.cpp:425] inception_4c/output <- inception_4c/3x3
I0403 15:58:07.303900 20579 net.cpp:425] inception_4c/output <- inception_4c/5x5
I0403 15:58:07.303915 20579 net.cpp:425] inception_4c/output <- inception_4c/pool_proj
I0403 15:58:07.303932 20579 net.cpp:399] inception_4c/output -> inception_4c/output
I0403 15:58:07.303987 20579 net.cpp:141] Setting up inception_4c/output
I0403 15:58:07.304013 20579 net.cpp:148] Top shape: 24 512 14 14 (2408448)
I0403 15:58:07.304028 20579 net.cpp:156] Memory required for data: 1072647456
I0403 15:58:07.304044 20579 layer_factory.hpp:77] Creating layer inception_4c/output_inception_4c/output_0_split
I0403 15:58:07.304064 20579 net.cpp:91] Creating Layer inception_4c/output_inception_4c/output_0_split
I0403 15:58:07.304080 20579 net.cpp:425] inception_4c/output_inception_4c/output_0_split <- inception_4c/output
I0403 15:58:07.304098 20579 net.cpp:399] inception_4c/output_inception_4c/output_0_split -> inception_4c/output_inception_4c/output_0_split_0
I0403 15:58:07.304118 20579 net.cpp:399] inception_4c/output_inception_4c/output_0_split -> inception_4c/output_inception_4c/output_0_split_1
I0403 15:58:07.304141 20579 net.cpp:399] inception_4c/output_inception_4c/output_0_split -> inception_4c/output_inception_4c/output_0_split_2
I0403 15:58:07.304160 20579 net.cpp:399] inception_4c/output_inception_4c/output_0_split -> inception_4c/output_inception_4c/output_0_split_3
I0403 15:58:07.304250 20579 net.cpp:141] Setting up inception_4c/output_inception_4c/output_0_split
I0403 15:58:07.304273 20579 net.cpp:148] Top shape: 24 512 14 14 (2408448)
I0403 15:58:07.304291 20579 net.cpp:148] Top shape: 24 512 14 14 (2408448)
I0403 15:58:07.304306 20579 net.cpp:148] Top shape: 24 512 14 14 (2408448)
I0403 15:58:07.304323 20579 net.cpp:148] Top shape: 24 512 14 14 (2408448)
I0403 15:58:07.304337 20579 net.cpp:156] Memory required for data: 1111182624
I0403 15:58:07.304352 20579 layer_factory.hpp:77] Creating layer inception_4d/1x1
I0403 15:58:07.304376 20579 net.cpp:91] Creating Layer inception_4d/1x1
I0403 15:58:07.304394 20579 net.cpp:425] inception_4d/1x1 <- inception_4c/output_inception_4c/output_0_split_0
I0403 15:58:07.304416 20579 net.cpp:399] inception_4d/1x1 -> inception_4d/1x1
I0403 15:58:07.305845 20579 net.cpp:141] Setting up inception_4d/1x1
I0403 15:58:07.305874 20579 net.cpp:148] Top shape: 24 112 14 14 (526848)
I0403 15:58:07.305896 20579 net.cpp:156] Memory required for data: 1113290016
I0403 15:58:07.305920 20579 layer_factory.hpp:77] Creating layer inception_4d/relu_1x1
I0403 15:58:07.305938 20579 net.cpp:91] Creating Layer inception_4d/relu_1x1
I0403 15:58:07.305961 20579 net.cpp:425] inception_4d/relu_1x1 <- inception_4d/1x1
I0403 15:58:07.305984 20579 net.cpp:386] inception_4d/relu_1x1 -> inception_4d/1x1 (in-place)
I0403 15:58:07.306174 20579 net.cpp:141] Setting up inception_4d/relu_1x1
I0403 15:58:07.306200 20579 net.cpp:148] Top shape: 24 112 14 14 (526848)
I0403 15:58:07.306215 20579 net.cpp:156] Memory required for data: 1115397408
I0403 15:58:07.306231 20579 layer_factory.hpp:77] Creating layer inception_4d/3x3_reduce
I0403 15:58:07.306268 20579 net.cpp:91] Creating Layer inception_4d/3x3_reduce
I0403 15:58:07.306288 20579 net.cpp:425] inception_4d/3x3_reduce <- inception_4c/output_inception_4c/output_0_split_1
I0403 15:58:07.306313 20579 net.cpp:399] inception_4d/3x3_reduce -> inception_4d/3x3_reduce
I0403 15:58:07.307922 20579 net.cpp:141] Setting up inception_4d/3x3_reduce
I0403 15:58:07.307967 20579 net.cpp:148] Top shape: 24 144 14 14 (677376)
I0403 15:58:07.307988 20579 net.cpp:156] Memory required for data: 1118106912
I0403 15:58:07.308009 20579 layer_factory.hpp:77] Creating layer inception_4d/relu_3x3_reduce
I0403 15:58:07.308029 20579 net.cpp:91] Creating Layer inception_4d/relu_3x3_reduce
I0403 15:58:07.308048 20579 net.cpp:425] inception_4d/relu_3x3_reduce <- inception_4d/3x3_reduce
I0403 15:58:07.308068 20579 net.cpp:386] inception_4d/relu_3x3_reduce -> inception_4d/3x3_reduce (in-place)
I0403 15:58:07.308372 20579 net.cpp:141] Setting up inception_4d/relu_3x3_reduce
I0403 15:58:07.308401 20579 net.cpp:148] Top shape: 24 144 14 14 (677376)
I0403 15:58:07.308418 20579 net.cpp:156] Memory required for data: 1120816416
I0403 15:58:07.308435 20579 layer_factory.hpp:77] Creating layer inception_4d/3x3
I0403 15:58:07.308459 20579 net.cpp:91] Creating Layer inception_4d/3x3
I0403 15:58:07.308477 20579 net.cpp:425] inception_4d/3x3 <- inception_4d/3x3_reduce
I0403 15:58:07.308497 20579 net.cpp:399] inception_4d/3x3 -> inception_4d/3x3
I0403 15:58:07.312994 20579 net.cpp:141] Setting up inception_4d/3x3
I0403 15:58:07.313024 20579 net.cpp:148] Top shape: 24 288 14 14 (1354752)
I0403 15:58:07.313040 20579 net.cpp:156] Memory required for data: 1126235424
I0403 15:58:07.313061 20579 layer_factory.hpp:77] Creating layer inception_4d/relu_3x3
I0403 15:58:07.313083 20579 net.cpp:91] Creating Layer inception_4d/relu_3x3
I0403 15:58:07.313102 20579 net.cpp:425] inception_4d/relu_3x3 <- inception_4d/3x3
I0403 15:58:07.313120 20579 net.cpp:386] inception_4d/relu_3x3 -> inception_4d/3x3 (in-place)
I0403 15:58:07.313311 20579 net.cpp:141] Setting up inception_4d/relu_3x3
I0403 15:58:07.313338 20579 net.cpp:148] Top shape: 24 288 14 14 (1354752)
I0403 15:58:07.313354 20579 net.cpp:156] Memory required for data: 1131654432
I0403 15:58:07.313370 20579 layer_factory.hpp:77] Creating layer inception_4d/5x5_reduce
I0403 15:58:07.313395 20579 net.cpp:91] Creating Layer inception_4d/5x5_reduce
I0403 15:58:07.313415 20579 net.cpp:425] inception_4d/5x5_reduce <- inception_4c/output_inception_4c/output_0_split_2
I0403 15:58:07.313437 20579 net.cpp:399] inception_4d/5x5_reduce -> inception_4d/5x5_reduce
I0403 15:58:07.314649 20579 net.cpp:141] Setting up inception_4d/5x5_reduce
I0403 15:58:07.314678 20579 net.cpp:148] Top shape: 24 32 14 14 (150528)
I0403 15:58:07.314695 20579 net.cpp:156] Memory required for data: 1132256544
I0403 15:58:07.314715 20579 layer_factory.hpp:77] Creating layer inception_4d/relu_5x5_reduce
I0403 15:58:07.314735 20579 net.cpp:91] Creating Layer inception_4d/relu_5x5_reduce
I0403 15:58:07.314752 20579 net.cpp:425] inception_4d/relu_5x5_reduce <- inception_4d/5x5_reduce
I0403 15:58:07.314774 20579 net.cpp:386] inception_4d/relu_5x5_reduce -> inception_4d/5x5_reduce (in-place)
I0403 15:58:07.314980 20579 net.cpp:141] Setting up inception_4d/relu_5x5_reduce
I0403 15:58:07.315007 20579 net.cpp:148] Top shape: 24 32 14 14 (150528)
I0403 15:58:07.315024 20579 net.cpp:156] Memory required for data: 1132858656
I0403 15:58:07.315040 20579 layer_factory.hpp:77] Creating layer inception_4d/5x5
I0403 15:58:07.315063 20579 net.cpp:91] Creating Layer inception_4d/5x5
I0403 15:58:07.315083 20579 net.cpp:425] inception_4d/5x5 <- inception_4d/5x5_reduce
I0403 15:58:07.315105 20579 net.cpp:399] inception_4d/5x5 -> inception_4d/5x5
I0403 15:58:07.316682 20579 net.cpp:141] Setting up inception_4d/5x5
I0403 15:58:07.316711 20579 net.cpp:148] Top shape: 24 64 14 14 (301056)
I0403 15:58:07.316728 20579 net.cpp:156] Memory required for data: 1134062880
I0403 15:58:07.316750 20579 layer_factory.hpp:77] Creating layer inception_4d/relu_5x5
I0403 15:58:07.316787 20579 net.cpp:91] Creating Layer inception_4d/relu_5x5
I0403 15:58:07.316804 20579 net.cpp:425] inception_4d/relu_5x5 <- inception_4d/5x5
I0403 15:58:07.316843 20579 net.cpp:386] inception_4d/relu_5x5 -> inception_4d/5x5 (in-place)
I0403 15:58:07.317183 20579 net.cpp:141] Setting up inception_4d/relu_5x5
I0403 15:58:07.317211 20579 net.cpp:148] Top shape: 24 64 14 14 (301056)
I0403 15:58:07.317227 20579 net.cpp:156] Memory required for data: 1135267104
I0403 15:58:07.317244 20579 layer_factory.hpp:77] Creating layer inception_4d/pool
I0403 15:58:07.317265 20579 net.cpp:91] Creating Layer inception_4d/pool
I0403 15:58:07.317284 20579 net.cpp:425] inception_4d/pool <- inception_4c/output_inception_4c/output_0_split_3
I0403 15:58:07.317304 20579 net.cpp:399] inception_4d/pool -> inception_4d/pool
I0403 15:58:07.317376 20579 net.cpp:141] Setting up inception_4d/pool
I0403 15:58:07.317402 20579 net.cpp:148] Top shape: 24 512 14 14 (2408448)
I0403 15:58:07.317417 20579 net.cpp:156] Memory required for data: 1144900896
I0403 15:58:07.317433 20579 layer_factory.hpp:77] Creating layer inception_4d/pool_proj
I0403 15:58:07.317456 20579 net.cpp:91] Creating Layer inception_4d/pool_proj
I0403 15:58:07.317474 20579 net.cpp:425] inception_4d/pool_proj <- inception_4d/pool
I0403 15:58:07.317497 20579 net.cpp:399] inception_4d/pool_proj -> inception_4d/pool_proj
I0403 15:58:07.319377 20579 net.cpp:141] Setting up inception_4d/pool_proj
I0403 15:58:07.319408 20579 net.cpp:148] Top shape: 24 64 14 14 (301056)
I0403 15:58:07.319425 20579 net.cpp:156] Memory required for data: 1146105120
I0403 15:58:07.319444 20579 layer_factory.hpp:77] Creating layer inception_4d/relu_pool_proj
I0403 15:58:07.319468 20579 net.cpp:91] Creating Layer inception_4d/relu_pool_proj
I0403 15:58:07.319485 20579 net.cpp:425] inception_4d/relu_pool_proj <- inception_4d/pool_proj
I0403 15:58:07.319504 20579 net.cpp:386] inception_4d/relu_pool_proj -> inception_4d/pool_proj (in-place)
I0403 15:58:07.319697 20579 net.cpp:141] Setting up inception_4d/relu_pool_proj
I0403 15:58:07.319725 20579 net.cpp:148] Top shape: 24 64 14 14 (301056)
I0403 15:58:07.319739 20579 net.cpp:156] Memory required for data: 1147309344
I0403 15:58:07.319756 20579 layer_factory.hpp:77] Creating layer inception_4d/output
I0403 15:58:07.319777 20579 net.cpp:91] Creating Layer inception_4d/output
I0403 15:58:07.319794 20579 net.cpp:425] inception_4d/output <- inception_4d/1x1
I0403 15:58:07.319813 20579 net.cpp:425] inception_4d/output <- inception_4d/3x3
I0403 15:58:07.319829 20579 net.cpp:425] inception_4d/output <- inception_4d/5x5
I0403 15:58:07.319846 20579 net.cpp:425] inception_4d/output <- inception_4d/pool_proj
I0403 15:58:07.319864 20579 net.cpp:399] inception_4d/output -> inception_4d/output
I0403 15:58:07.319917 20579 net.cpp:141] Setting up inception_4d/output
I0403 15:58:07.319942 20579 net.cpp:148] Top shape: 24 528 14 14 (2483712)
I0403 15:58:07.319967 20579 net.cpp:156] Memory required for data: 1157244192
I0403 15:58:07.319984 20579 layer_factory.hpp:77] Creating layer inception_4d/output_inception_4d/output_0_split
I0403 15:58:07.320003 20579 net.cpp:91] Creating Layer inception_4d/output_inception_4d/output_0_split
I0403 15:58:07.320020 20579 net.cpp:425] inception_4d/output_inception_4d/output_0_split <- inception_4d/output
I0403 15:58:07.320041 20579 net.cpp:399] inception_4d/output_inception_4d/output_0_split -> inception_4d/output_inception_4d/output_0_split_0
I0403 15:58:07.320065 20579 net.cpp:399] inception_4d/output_inception_4d/output_0_split -> inception_4d/output_inception_4d/output_0_split_1
I0403 15:58:07.320087 20579 net.cpp:399] inception_4d/output_inception_4d/output_0_split -> inception_4d/output_inception_4d/output_0_split_2
I0403 15:58:07.320108 20579 net.cpp:399] inception_4d/output_inception_4d/output_0_split -> inception_4d/output_inception_4d/output_0_split_3
I0403 15:58:07.320129 20579 net.cpp:399] inception_4d/output_inception_4d/output_0_split -> inception_4d/output_inception_4d/output_0_split_4
I0403 15:58:07.320242 20579 net.cpp:141] Setting up inception_4d/output_inception_4d/output_0_split
I0403 15:58:07.320281 20579 net.cpp:148] Top shape: 24 528 14 14 (2483712)
I0403 15:58:07.320299 20579 net.cpp:148] Top shape: 24 528 14 14 (2483712)
I0403 15:58:07.320317 20579 net.cpp:148] Top shape: 24 528 14 14 (2483712)
I0403 15:58:07.320334 20579 net.cpp:148] Top shape: 24 528 14 14 (2483712)
I0403 15:58:07.320351 20579 net.cpp:148] Top shape: 24 528 14 14 (2483712)
I0403 15:58:07.320366 20579 net.cpp:156] Memory required for data: 1206918432
I0403 15:58:07.320381 20579 layer_factory.hpp:77] Creating layer loss2/ave_pool
I0403 15:58:07.320400 20579 net.cpp:91] Creating Layer loss2/ave_pool
I0403 15:58:07.320417 20579 net.cpp:425] loss2/ave_pool <- inception_4d/output_inception_4d/output_0_split_0
I0403 15:58:07.320441 20579 net.cpp:399] loss2/ave_pool -> loss2/ave_pool
I0403 15:58:07.320771 20579 net.cpp:141] Setting up loss2/ave_pool
I0403 15:58:07.320799 20579 net.cpp:148] Top shape: 24 528 4 4 (202752)
I0403 15:58:07.320816 20579 net.cpp:156] Memory required for data: 1207729440
I0403 15:58:07.320832 20579 layer_factory.hpp:77] Creating layer loss2/conv
I0403 15:58:07.320855 20579 net.cpp:91] Creating Layer loss2/conv
I0403 15:58:07.320874 20579 net.cpp:425] loss2/conv <- loss2/ave_pool
I0403 15:58:07.320896 20579 net.cpp:399] loss2/conv -> loss2/conv
I0403 15:58:07.322897 20579 net.cpp:141] Setting up loss2/conv
I0403 15:58:07.322926 20579 net.cpp:148] Top shape: 24 128 4 4 (49152)
I0403 15:58:07.322942 20579 net.cpp:156] Memory required for data: 1207926048
I0403 15:58:07.322969 20579 layer_factory.hpp:77] Creating layer loss2/relu_conv
I0403 15:58:07.322993 20579 net.cpp:91] Creating Layer loss2/relu_conv
I0403 15:58:07.323010 20579 net.cpp:425] loss2/relu_conv <- loss2/conv
I0403 15:58:07.323029 20579 net.cpp:386] loss2/relu_conv -> loss2/conv (in-place)
I0403 15:58:07.323328 20579 net.cpp:141] Setting up loss2/relu_conv
I0403 15:58:07.323355 20579 net.cpp:148] Top shape: 24 128 4 4 (49152)
I0403 15:58:07.323370 20579 net.cpp:156] Memory required for data: 1208122656
I0403 15:58:07.323386 20579 layer_factory.hpp:77] Creating layer loss2/fc
I0403 15:58:07.323408 20579 net.cpp:91] Creating Layer loss2/fc
I0403 15:58:07.323426 20579 net.cpp:425] loss2/fc <- loss2/conv
I0403 15:58:07.323448 20579 net.cpp:399] loss2/fc -> loss2/fc
I0403 15:58:07.341740 20579 net.cpp:141] Setting up loss2/fc
I0403 15:58:07.341795 20579 net.cpp:148] Top shape: 24 1024 (24576)
I0403 15:58:07.341811 20579 net.cpp:156] Memory required for data: 1208220960
I0403 15:58:07.341832 20579 layer_factory.hpp:77] Creating layer loss2/relu_fc
I0403 15:58:07.341852 20579 net.cpp:91] Creating Layer loss2/relu_fc
I0403 15:58:07.341869 20579 net.cpp:425] loss2/relu_fc <- loss2/fc
I0403 15:58:07.341892 20579 net.cpp:386] loss2/relu_fc -> loss2/fc (in-place)
I0403 15:58:07.342244 20579 net.cpp:141] Setting up loss2/relu_fc
I0403 15:58:07.342272 20579 net.cpp:148] Top shape: 24 1024 (24576)
I0403 15:58:07.342288 20579 net.cpp:156] Memory required for data: 1208319264
I0403 15:58:07.342303 20579 layer_factory.hpp:77] Creating layer loss2/drop_fc
I0403 15:58:07.342322 20579 net.cpp:91] Creating Layer loss2/drop_fc
I0403 15:58:07.342340 20579 net.cpp:425] loss2/drop_fc <- loss2/fc
I0403 15:58:07.342360 20579 net.cpp:386] loss2/drop_fc -> loss2/fc (in-place)
I0403 15:58:07.342414 20579 net.cpp:141] Setting up loss2/drop_fc
I0403 15:58:07.342439 20579 net.cpp:148] Top shape: 24 1024 (24576)
I0403 15:58:07.342454 20579 net.cpp:156] Memory required for data: 1208417568
I0403 15:58:07.342469 20579 layer_factory.hpp:77] Creating layer loss2/classifier_plantvillage
I0403 15:58:07.342489 20579 net.cpp:91] Creating Layer loss2/classifier_plantvillage
I0403 15:58:07.342506 20579 net.cpp:425] loss2/classifier_plantvillage <- loss2/fc
I0403 15:58:07.342528 20579 net.cpp:399] loss2/classifier_plantvillage -> loss2/classifier_plantvillage
I0403 15:58:07.342959 20579 net.cpp:141] Setting up loss2/classifier_plantvillage
I0403 15:58:07.342985 20579 net.cpp:148] Top shape: 24 38 (912)
I0403 15:58:07.343000 20579 net.cpp:156] Memory required for data: 1208421216
I0403 15:58:07.343046 20579 layer_factory.hpp:77] Creating layer loss2/classifier_plantvillage_loss2/classifier_plantvillage_0_split
I0403 15:58:07.343070 20579 net.cpp:91] Creating Layer loss2/classifier_plantvillage_loss2/classifier_plantvillage_0_split
I0403 15:58:07.343087 20579 net.cpp:425] loss2/classifier_plantvillage_loss2/classifier_plantvillage_0_split <- loss2/classifier_plantvillage
I0403 15:58:07.343106 20579 net.cpp:399] loss2/classifier_plantvillage_loss2/classifier_plantvillage_0_split -> loss2/classifier_plantvillage_loss2/classifier_plantvillage_0_split_0
I0403 15:58:07.343129 20579 net.cpp:399] loss2/classifier_plantvillage_loss2/classifier_plantvillage_0_split -> loss2/classifier_plantvillage_loss2/classifier_plantvillage_0_split_1
I0403 15:58:07.343152 20579 net.cpp:399] loss2/classifier_plantvillage_loss2/classifier_plantvillage_0_split -> loss2/classifier_plantvillage_loss2/classifier_plantvillage_0_split_2
I0403 15:58:07.343230 20579 net.cpp:141] Setting up loss2/classifier_plantvillage_loss2/classifier_plantvillage_0_split
I0403 15:58:07.343255 20579 net.cpp:148] Top shape: 24 38 (912)
I0403 15:58:07.343271 20579 net.cpp:148] Top shape: 24 38 (912)
I0403 15:58:07.343287 20579 net.cpp:148] Top shape: 24 38 (912)
I0403 15:58:07.343302 20579 net.cpp:156] Memory required for data: 1208432160
I0403 15:58:07.343317 20579 layer_factory.hpp:77] Creating layer inception_4e/1x1
I0403 15:58:07.343341 20579 net.cpp:91] Creating Layer inception_4e/1x1
I0403 15:58:07.343360 20579 net.cpp:425] inception_4e/1x1 <- inception_4d/output_inception_4d/output_0_split_1
I0403 15:58:07.343380 20579 net.cpp:399] inception_4e/1x1 -> inception_4e/1x1
I0403 15:58:07.345299 20579 net.cpp:141] Setting up inception_4e/1x1
I0403 15:58:07.345330 20579 net.cpp:148] Top shape: 24 256 14 14 (1204224)
I0403 15:58:07.345347 20579 net.cpp:156] Memory required for data: 1213249056
I0403 15:58:07.345367 20579 layer_factory.hpp:77] Creating layer inception_4e/relu_1x1
I0403 15:58:07.345386 20579 net.cpp:91] Creating Layer inception_4e/relu_1x1
I0403 15:58:07.345402 20579 net.cpp:425] inception_4e/relu_1x1 <- inception_4e/1x1
I0403 15:58:07.345419 20579 net.cpp:386] inception_4e/relu_1x1 -> inception_4e/1x1 (in-place)
I0403 15:58:07.345724 20579 net.cpp:141] Setting up inception_4e/relu_1x1
I0403 15:58:07.345753 20579 net.cpp:148] Top shape: 24 256 14 14 (1204224)
I0403 15:58:07.345770 20579 net.cpp:156] Memory required for data: 1218065952
I0403 15:58:07.345787 20579 layer_factory.hpp:77] Creating layer inception_4e/3x3_reduce
I0403 15:58:07.345809 20579 net.cpp:91] Creating Layer inception_4e/3x3_reduce
I0403 15:58:07.345827 20579 net.cpp:425] inception_4e/3x3_reduce <- inception_4d/output_inception_4d/output_0_split_2
I0403 15:58:07.345847 20579 net.cpp:399] inception_4e/3x3_reduce -> inception_4e/3x3_reduce
I0403 15:58:07.348075 20579 net.cpp:141] Setting up inception_4e/3x3_reduce
I0403 15:58:07.348105 20579 net.cpp:148] Top shape: 24 160 14 14 (752640)
I0403 15:58:07.348121 20579 net.cpp:156] Memory required for data: 1221076512
I0403 15:58:07.348140 20579 layer_factory.hpp:77] Creating layer inception_4e/relu_3x3_reduce
I0403 15:58:07.348162 20579 net.cpp:91] Creating Layer inception_4e/relu_3x3_reduce
I0403 15:58:07.348179 20579 net.cpp:425] inception_4e/relu_3x3_reduce <- inception_4e/3x3_reduce
I0403 15:58:07.348197 20579 net.cpp:386] inception_4e/relu_3x3_reduce -> inception_4e/3x3_reduce (in-place)
I0403 15:58:07.348387 20579 net.cpp:141] Setting up inception_4e/relu_3x3_reduce
I0403 15:58:07.348417 20579 net.cpp:148] Top shape: 24 160 14 14 (752640)
I0403 15:58:07.348433 20579 net.cpp:156] Memory required for data: 1224087072
I0403 15:58:07.348448 20579 layer_factory.hpp:77] Creating layer inception_4e/3x3
I0403 15:58:07.348470 20579 net.cpp:91] Creating Layer inception_4e/3x3
I0403 15:58:07.348489 20579 net.cpp:425] inception_4e/3x3 <- inception_4e/3x3_reduce
I0403 15:58:07.348507 20579 net.cpp:399] inception_4e/3x3 -> inception_4e/3x3
I0403 15:58:07.353667 20579 net.cpp:141] Setting up inception_4e/3x3
I0403 15:58:07.353709 20579 net.cpp:148] Top shape: 24 320 14 14 (1505280)
I0403 15:58:07.353726 20579 net.cpp:156] Memory required for data: 1230108192
I0403 15:58:07.353745 20579 layer_factory.hpp:77] Creating layer inception_4e/relu_3x3
I0403 15:58:07.353765 20579 net.cpp:91] Creating Layer inception_4e/relu_3x3
I0403 15:58:07.353780 20579 net.cpp:425] inception_4e/relu_3x3 <- inception_4e/3x3
I0403 15:58:07.353801 20579 net.cpp:386] inception_4e/relu_3x3 -> inception_4e/3x3 (in-place)
I0403 15:58:07.354105 20579 net.cpp:141] Setting up inception_4e/relu_3x3
I0403 15:58:07.354132 20579 net.cpp:148] Top shape: 24 320 14 14 (1505280)
I0403 15:58:07.354147 20579 net.cpp:156] Memory required for data: 1236129312
I0403 15:58:07.354162 20579 layer_factory.hpp:77] Creating layer inception_4e/5x5_reduce
I0403 15:58:07.354187 20579 net.cpp:91] Creating Layer inception_4e/5x5_reduce
I0403 15:58:07.354204 20579 net.cpp:425] inception_4e/5x5_reduce <- inception_4d/output_inception_4d/output_0_split_3
I0403 15:58:07.354226 20579 net.cpp:399] inception_4e/5x5_reduce -> inception_4e/5x5_reduce
I0403 15:58:07.355303 20579 net.cpp:141] Setting up inception_4e/5x5_reduce
I0403 15:58:07.355329 20579 net.cpp:148] Top shape: 24 32 14 14 (150528)
I0403 15:58:07.355345 20579 net.cpp:156] Memory required for data: 1236731424
I0403 15:58:07.355363 20579 layer_factory.hpp:77] Creating layer inception_4e/relu_5x5_reduce
I0403 15:58:07.355384 20579 net.cpp:91] Creating Layer inception_4e/relu_5x5_reduce
I0403 15:58:07.355401 20579 net.cpp:425] inception_4e/relu_5x5_reduce <- inception_4e/5x5_reduce
I0403 15:58:07.355417 20579 net.cpp:386] inception_4e/relu_5x5_reduce -> inception_4e/5x5_reduce (in-place)
I0403 15:58:07.355715 20579 net.cpp:141] Setting up inception_4e/relu_5x5_reduce
I0403 15:58:07.355739 20579 net.cpp:148] Top shape: 24 32 14 14 (150528)
I0403 15:58:07.355756 20579 net.cpp:156] Memory required for data: 1237333536
I0403 15:58:07.355770 20579 layer_factory.hpp:77] Creating layer inception_4e/5x5
I0403 15:58:07.355810 20579 net.cpp:91] Creating Layer inception_4e/5x5
I0403 15:58:07.355829 20579 net.cpp:425] inception_4e/5x5 <- inception_4e/5x5_reduce
I0403 15:58:07.355854 20579 net.cpp:399] inception_4e/5x5 -> inception_4e/5x5
I0403 15:58:07.357707 20579 net.cpp:141] Setting up inception_4e/5x5
I0403 15:58:07.357734 20579 net.cpp:148] Top shape: 24 128 14 14 (602112)
I0403 15:58:07.357750 20579 net.cpp:156] Memory required for data: 1239741984
I0403 15:58:07.357770 20579 layer_factory.hpp:77] Creating layer inception_4e/relu_5x5
I0403 15:58:07.357790 20579 net.cpp:91] Creating Layer inception_4e/relu_5x5
I0403 15:58:07.357807 20579 net.cpp:425] inception_4e/relu_5x5 <- inception_4e/5x5
I0403 15:58:07.357825 20579 net.cpp:386] inception_4e/relu_5x5 -> inception_4e/5x5 (in-place)
I0403 15:58:07.358034 20579 net.cpp:141] Setting up inception_4e/relu_5x5
I0403 15:58:07.358062 20579 net.cpp:148] Top shape: 24 128 14 14 (602112)
I0403 15:58:07.358077 20579 net.cpp:156] Memory required for data: 1242150432
I0403 15:58:07.358091 20579 layer_factory.hpp:77] Creating layer inception_4e/pool
I0403 15:58:07.358113 20579 net.cpp:91] Creating Layer inception_4e/pool
I0403 15:58:07.358130 20579 net.cpp:425] inception_4e/pool <- inception_4d/output_inception_4d/output_0_split_4
I0403 15:58:07.358150 20579 net.cpp:399] inception_4e/pool -> inception_4e/pool
I0403 15:58:07.358222 20579 net.cpp:141] Setting up inception_4e/pool
I0403 15:58:07.358247 20579 net.cpp:148] Top shape: 24 528 14 14 (2483712)
I0403 15:58:07.358261 20579 net.cpp:156] Memory required for data: 1252085280
I0403 15:58:07.358276 20579 layer_factory.hpp:77] Creating layer inception_4e/pool_proj
I0403 15:58:07.358299 20579 net.cpp:91] Creating Layer inception_4e/pool_proj
I0403 15:58:07.358316 20579 net.cpp:425] inception_4e/pool_proj <- inception_4e/pool
I0403 15:58:07.358337 20579 net.cpp:399] inception_4e/pool_proj -> inception_4e/pool_proj
I0403 15:58:07.359949 20579 net.cpp:141] Setting up inception_4e/pool_proj
I0403 15:58:07.359985 20579 net.cpp:148] Top shape: 24 128 14 14 (602112)
I0403 15:58:07.360018 20579 net.cpp:156] Memory required for data: 1254493728
I0403 15:58:07.360038 20579 layer_factory.hpp:77] Creating layer inception_4e/relu_pool_proj
I0403 15:58:07.360060 20579 net.cpp:91] Creating Layer inception_4e/relu_pool_proj
I0403 15:58:07.360080 20579 net.cpp:425] inception_4e/relu_pool_proj <- inception_4e/pool_proj
I0403 15:58:07.360098 20579 net.cpp:386] inception_4e/relu_pool_proj -> inception_4e/pool_proj (in-place)
I0403 15:58:07.360416 20579 net.cpp:141] Setting up inception_4e/relu_pool_proj
I0403 15:58:07.360443 20579 net.cpp:148] Top shape: 24 128 14 14 (602112)
I0403 15:58:07.360458 20579 net.cpp:156] Memory required for data: 1256902176
I0403 15:58:07.360474 20579 layer_factory.hpp:77] Creating layer inception_4e/output
I0403 15:58:07.360492 20579 net.cpp:91] Creating Layer inception_4e/output
I0403 15:58:07.360509 20579 net.cpp:425] inception_4e/output <- inception_4e/1x1
I0403 15:58:07.360527 20579 net.cpp:425] inception_4e/output <- inception_4e/3x3
I0403 15:58:07.360543 20579 net.cpp:425] inception_4e/output <- inception_4e/5x5
I0403 15:58:07.360559 20579 net.cpp:425] inception_4e/output <- inception_4e/pool_proj
I0403 15:58:07.360580 20579 net.cpp:399] inception_4e/output -> inception_4e/output
I0403 15:58:07.360630 20579 net.cpp:141] Setting up inception_4e/output
I0403 15:58:07.360659 20579 net.cpp:148] Top shape: 24 832 14 14 (3913728)
I0403 15:58:07.360677 20579 net.cpp:156] Memory required for data: 1272557088
I0403 15:58:07.360693 20579 layer_factory.hpp:77] Creating layer pool4/3x3_s2
I0403 15:58:07.360712 20579 net.cpp:91] Creating Layer pool4/3x3_s2
I0403 15:58:07.360728 20579 net.cpp:425] pool4/3x3_s2 <- inception_4e/output
I0403 15:58:07.360750 20579 net.cpp:399] pool4/3x3_s2 -> pool4/3x3_s2
I0403 15:58:07.360818 20579 net.cpp:141] Setting up pool4/3x3_s2
I0403 15:58:07.360842 20579 net.cpp:148] Top shape: 24 832 7 7 (978432)
I0403 15:58:07.360857 20579 net.cpp:156] Memory required for data: 1276470816
I0403 15:58:07.360873 20579 layer_factory.hpp:77] Creating layer pool4/3x3_s2_pool4/3x3_s2_0_split
I0403 15:58:07.360893 20579 net.cpp:91] Creating Layer pool4/3x3_s2_pool4/3x3_s2_0_split
I0403 15:58:07.360910 20579 net.cpp:425] pool4/3x3_s2_pool4/3x3_s2_0_split <- pool4/3x3_s2
I0403 15:58:07.360929 20579 net.cpp:399] pool4/3x3_s2_pool4/3x3_s2_0_split -> pool4/3x3_s2_pool4/3x3_s2_0_split_0
I0403 15:58:07.360949 20579 net.cpp:399] pool4/3x3_s2_pool4/3x3_s2_0_split -> pool4/3x3_s2_pool4/3x3_s2_0_split_1
I0403 15:58:07.360993 20579 net.cpp:399] pool4/3x3_s2_pool4/3x3_s2_0_split -> pool4/3x3_s2_pool4/3x3_s2_0_split_2
I0403 15:58:07.361018 20579 net.cpp:399] pool4/3x3_s2_pool4/3x3_s2_0_split -> pool4/3x3_s2_pool4/3x3_s2_0_split_3
I0403 15:58:07.361115 20579 net.cpp:141] Setting up pool4/3x3_s2_pool4/3x3_s2_0_split
I0403 15:58:07.361140 20579 net.cpp:148] Top shape: 24 832 7 7 (978432)
I0403 15:58:07.361157 20579 net.cpp:148] Top shape: 24 832 7 7 (978432)
I0403 15:58:07.361174 20579 net.cpp:148] Top shape: 24 832 7 7 (978432)
I0403 15:58:07.361191 20579 net.cpp:148] Top shape: 24 832 7 7 (978432)
I0403 15:58:07.361205 20579 net.cpp:156] Memory required for data: 1292125728
I0403 15:58:07.361222 20579 layer_factory.hpp:77] Creating layer inception_5a/1x1
I0403 15:58:07.361245 20579 net.cpp:91] Creating Layer inception_5a/1x1
I0403 15:58:07.361276 20579 net.cpp:425] inception_5a/1x1 <- pool4/3x3_s2_pool4/3x3_s2_0_split_0
I0403 15:58:07.361299 20579 net.cpp:399] inception_5a/1x1 -> inception_5a/1x1
I0403 15:58:07.364253 20579 net.cpp:141] Setting up inception_5a/1x1
I0403 15:58:07.364282 20579 net.cpp:148] Top shape: 24 256 7 7 (301056)
I0403 15:58:07.364298 20579 net.cpp:156] Memory required for data: 1293329952
I0403 15:58:07.364318 20579 layer_factory.hpp:77] Creating layer inception_5a/relu_1x1
I0403 15:58:07.364339 20579 net.cpp:91] Creating Layer inception_5a/relu_1x1
I0403 15:58:07.364356 20579 net.cpp:425] inception_5a/relu_1x1 <- inception_5a/1x1
I0403 15:58:07.364375 20579 net.cpp:386] inception_5a/relu_1x1 -> inception_5a/1x1 (in-place)
I0403 15:58:07.364702 20579 net.cpp:141] Setting up inception_5a/relu_1x1
I0403 15:58:07.364729 20579 net.cpp:148] Top shape: 24 256 7 7 (301056)
I0403 15:58:07.364745 20579 net.cpp:156] Memory required for data: 1294534176
I0403 15:58:07.364761 20579 layer_factory.hpp:77] Creating layer inception_5a/3x3_reduce
I0403 15:58:07.364784 20579 net.cpp:91] Creating Layer inception_5a/3x3_reduce
I0403 15:58:07.364804 20579 net.cpp:425] inception_5a/3x3_reduce <- pool4/3x3_s2_pool4/3x3_s2_0_split_1
I0403 15:58:07.364826 20579 net.cpp:399] inception_5a/3x3_reduce -> inception_5a/3x3_reduce
I0403 15:58:07.367399 20579 net.cpp:141] Setting up inception_5a/3x3_reduce
I0403 15:58:07.367431 20579 net.cpp:148] Top shape: 24 160 7 7 (188160)
I0403 15:58:07.367449 20579 net.cpp:156] Memory required for data: 1295286816
I0403 15:58:07.367468 20579 layer_factory.hpp:77] Creating layer inception_5a/relu_3x3_reduce
I0403 15:58:07.367488 20579 net.cpp:91] Creating Layer inception_5a/relu_3x3_reduce
I0403 15:58:07.367506 20579 net.cpp:425] inception_5a/relu_3x3_reduce <- inception_5a/3x3_reduce
I0403 15:58:07.367525 20579 net.cpp:386] inception_5a/relu_3x3_reduce -> inception_5a/3x3_reduce (in-place)
I0403 15:58:07.367717 20579 net.cpp:141] Setting up inception_5a/relu_3x3_reduce
I0403 15:58:07.367743 20579 net.cpp:148] Top shape: 24 160 7 7 (188160)
I0403 15:58:07.367758 20579 net.cpp:156] Memory required for data: 1296039456
I0403 15:58:07.367774 20579 layer_factory.hpp:77] Creating layer inception_5a/3x3
I0403 15:58:07.367797 20579 net.cpp:91] Creating Layer inception_5a/3x3
I0403 15:58:07.367815 20579 net.cpp:425] inception_5a/3x3 <- inception_5a/3x3_reduce
I0403 15:58:07.367838 20579 net.cpp:399] inception_5a/3x3 -> inception_5a/3x3
I0403 15:58:07.373144 20579 net.cpp:141] Setting up inception_5a/3x3
I0403 15:58:07.373175 20579 net.cpp:148] Top shape: 24 320 7 7 (376320)
I0403 15:58:07.373191 20579 net.cpp:156] Memory required for data: 1297544736
I0403 15:58:07.373210 20579 layer_factory.hpp:77] Creating layer inception_5a/relu_3x3
I0403 15:58:07.373232 20579 net.cpp:91] Creating Layer inception_5a/relu_3x3
I0403 15:58:07.373250 20579 net.cpp:425] inception_5a/relu_3x3 <- inception_5a/3x3
I0403 15:58:07.373267 20579 net.cpp:386] inception_5a/relu_3x3 -> inception_5a/3x3 (in-place)
I0403 15:58:07.373570 20579 net.cpp:141] Setting up inception_5a/relu_3x3
I0403 15:58:07.373597 20579 net.cpp:148] Top shape: 24 320 7 7 (376320)
I0403 15:58:07.373613 20579 net.cpp:156] Memory required for data: 1299050016
I0403 15:58:07.373630 20579 layer_factory.hpp:77] Creating layer inception_5a/5x5_reduce
I0403 15:58:07.373652 20579 net.cpp:91] Creating Layer inception_5a/5x5_reduce
I0403 15:58:07.373670 20579 net.cpp:425] inception_5a/5x5_reduce <- pool4/3x3_s2_pool4/3x3_s2_0_split_2
I0403 15:58:07.373692 20579 net.cpp:399] inception_5a/5x5_reduce -> inception_5a/5x5_reduce
I0403 15:58:07.374902 20579 net.cpp:141] Setting up inception_5a/5x5_reduce
I0403 15:58:07.374932 20579 net.cpp:148] Top shape: 24 32 7 7 (37632)
I0403 15:58:07.374948 20579 net.cpp:156] Memory required for data: 1299200544
I0403 15:58:07.374976 20579 layer_factory.hpp:77] Creating layer inception_5a/relu_5x5_reduce
I0403 15:58:07.374999 20579 net.cpp:91] Creating Layer inception_5a/relu_5x5_reduce
I0403 15:58:07.375016 20579 net.cpp:425] inception_5a/relu_5x5_reduce <- inception_5a/5x5_reduce
I0403 15:58:07.375035 20579 net.cpp:386] inception_5a/relu_5x5_reduce -> inception_5a/5x5_reduce (in-place)
I0403 15:58:07.375344 20579 net.cpp:141] Setting up inception_5a/relu_5x5_reduce
I0403 15:58:07.375371 20579 net.cpp:148] Top shape: 24 32 7 7 (37632)
I0403 15:58:07.375388 20579 net.cpp:156] Memory required for data: 1299351072
I0403 15:58:07.375403 20579 layer_factory.hpp:77] Creating layer inception_5a/5x5
I0403 15:58:07.375428 20579 net.cpp:91] Creating Layer inception_5a/5x5
I0403 15:58:07.375447 20579 net.cpp:425] inception_5a/5x5 <- inception_5a/5x5_reduce
I0403 15:58:07.375466 20579 net.cpp:399] inception_5a/5x5 -> inception_5a/5x5
I0403 15:58:07.377261 20579 net.cpp:141] Setting up inception_5a/5x5
I0403 15:58:07.377301 20579 net.cpp:148] Top shape: 24 128 7 7 (150528)
I0403 15:58:07.377318 20579 net.cpp:156] Memory required for data: 1299953184
I0403 15:58:07.377337 20579 layer_factory.hpp:77] Creating layer inception_5a/relu_5x5
I0403 15:58:07.377358 20579 net.cpp:91] Creating Layer inception_5a/relu_5x5
I0403 15:58:07.377377 20579 net.cpp:425] inception_5a/relu_5x5 <- inception_5a/5x5
I0403 15:58:07.377394 20579 net.cpp:386] inception_5a/relu_5x5 -> inception_5a/5x5 (in-place)
I0403 15:58:07.377591 20579 net.cpp:141] Setting up inception_5a/relu_5x5
I0403 15:58:07.377619 20579 net.cpp:148] Top shape: 24 128 7 7 (150528)
I0403 15:58:07.377634 20579 net.cpp:156] Memory required for data: 1300555296
I0403 15:58:07.377648 20579 layer_factory.hpp:77] Creating layer inception_5a/pool
I0403 15:58:07.377670 20579 net.cpp:91] Creating Layer inception_5a/pool
I0403 15:58:07.377724 20579 net.cpp:425] inception_5a/pool <- pool4/3x3_s2_pool4/3x3_s2_0_split_3
I0403 15:58:07.377746 20579 net.cpp:399] inception_5a/pool -> inception_5a/pool
I0403 15:58:07.377820 20579 net.cpp:141] Setting up inception_5a/pool
I0403 15:58:07.377845 20579 net.cpp:148] Top shape: 24 832 7 7 (978432)
I0403 15:58:07.377861 20579 net.cpp:156] Memory required for data: 1304469024
I0403 15:58:07.377874 20579 layer_factory.hpp:77] Creating layer inception_5a/pool_proj
I0403 15:58:07.377897 20579 net.cpp:91] Creating Layer inception_5a/pool_proj
I0403 15:58:07.377914 20579 net.cpp:425] inception_5a/pool_proj <- inception_5a/pool
I0403 15:58:07.377936 20579 net.cpp:399] inception_5a/pool_proj -> inception_5a/pool_proj
I0403 15:58:07.380306 20579 net.cpp:141] Setting up inception_5a/pool_proj
I0403 15:58:07.380334 20579 net.cpp:148] Top shape: 24 128 7 7 (150528)
I0403 15:58:07.380350 20579 net.cpp:156] Memory required for data: 1305071136
I0403 15:58:07.380369 20579 layer_factory.hpp:77] Creating layer inception_5a/relu_pool_proj
I0403 15:58:07.380388 20579 net.cpp:91] Creating Layer inception_5a/relu_pool_proj
I0403 15:58:07.380404 20579 net.cpp:425] inception_5a/relu_pool_proj <- inception_5a/pool_proj
I0403 15:58:07.380426 20579 net.cpp:386] inception_5a/relu_pool_proj -> inception_5a/pool_proj (in-place)
I0403 15:58:07.380724 20579 net.cpp:141] Setting up inception_5a/relu_pool_proj
I0403 15:58:07.380750 20579 net.cpp:148] Top shape: 24 128 7 7 (150528)
I0403 15:58:07.380765 20579 net.cpp:156] Memory required for data: 1305673248
I0403 15:58:07.380780 20579 layer_factory.hpp:77] Creating layer inception_5a/output
I0403 15:58:07.380797 20579 net.cpp:91] Creating Layer inception_5a/output
I0403 15:58:07.380815 20579 net.cpp:425] inception_5a/output <- inception_5a/1x1
I0403 15:58:07.380831 20579 net.cpp:425] inception_5a/output <- inception_5a/3x3
I0403 15:58:07.380848 20579 net.cpp:425] inception_5a/output <- inception_5a/5x5
I0403 15:58:07.380864 20579 net.cpp:425] inception_5a/output <- inception_5a/pool_proj
I0403 15:58:07.380883 20579 net.cpp:399] inception_5a/output -> inception_5a/output
I0403 15:58:07.380934 20579 net.cpp:141] Setting up inception_5a/output
I0403 15:58:07.380967 20579 net.cpp:148] Top shape: 24 832 7 7 (978432)
I0403 15:58:07.380985 20579 net.cpp:156] Memory required for data: 1309586976
I0403 15:58:07.381000 20579 layer_factory.hpp:77] Creating layer inception_5a/output_inception_5a/output_0_split
I0403 15:58:07.381016 20579 net.cpp:91] Creating Layer inception_5a/output_inception_5a/output_0_split
I0403 15:58:07.381033 20579 net.cpp:425] inception_5a/output_inception_5a/output_0_split <- inception_5a/output
I0403 15:58:07.381052 20579 net.cpp:399] inception_5a/output_inception_5a/output_0_split -> inception_5a/output_inception_5a/output_0_split_0
I0403 15:58:07.381073 20579 net.cpp:399] inception_5a/output_inception_5a/output_0_split -> inception_5a/output_inception_5a/output_0_split_1
I0403 15:58:07.381095 20579 net.cpp:399] inception_5a/output_inception_5a/output_0_split -> inception_5a/output_inception_5a/output_0_split_2
I0403 15:58:07.381116 20579 net.cpp:399] inception_5a/output_inception_5a/output_0_split -> inception_5a/output_inception_5a/output_0_split_3
I0403 15:58:07.381229 20579 net.cpp:141] Setting up inception_5a/output_inception_5a/output_0_split
I0403 15:58:07.381253 20579 net.cpp:148] Top shape: 24 832 7 7 (978432)
I0403 15:58:07.381270 20579 net.cpp:148] Top shape: 24 832 7 7 (978432)
I0403 15:58:07.381285 20579 net.cpp:148] Top shape: 24 832 7 7 (978432)
I0403 15:58:07.381301 20579 net.cpp:148] Top shape: 24 832 7 7 (978432)
I0403 15:58:07.381315 20579 net.cpp:156] Memory required for data: 1325241888
I0403 15:58:07.381330 20579 layer_factory.hpp:77] Creating layer inception_5b/1x1
I0403 15:58:07.381353 20579 net.cpp:91] Creating Layer inception_5b/1x1
I0403 15:58:07.381371 20579 net.cpp:425] inception_5b/1x1 <- inception_5a/output_inception_5a/output_0_split_0
I0403 15:58:07.381392 20579 net.cpp:399] inception_5b/1x1 -> inception_5b/1x1
I0403 15:58:07.385174 20579 net.cpp:141] Setting up inception_5b/1x1
I0403 15:58:07.385203 20579 net.cpp:148] Top shape: 24 384 7 7 (451584)
I0403 15:58:07.385220 20579 net.cpp:156] Memory required for data: 1327048224
I0403 15:58:07.385238 20579 layer_factory.hpp:77] Creating layer inception_5b/relu_1x1
I0403 15:58:07.385257 20579 net.cpp:91] Creating Layer inception_5b/relu_1x1
I0403 15:58:07.385273 20579 net.cpp:425] inception_5b/relu_1x1 <- inception_5b/1x1
I0403 15:58:07.385293 20579 net.cpp:386] inception_5b/relu_1x1 -> inception_5b/1x1 (in-place)
I0403 15:58:07.385597 20579 net.cpp:141] Setting up inception_5b/relu_1x1
I0403 15:58:07.385622 20579 net.cpp:148] Top shape: 24 384 7 7 (451584)
I0403 15:58:07.385638 20579 net.cpp:156] Memory required for data: 1328854560
I0403 15:58:07.385653 20579 layer_factory.hpp:77] Creating layer inception_5b/3x3_reduce
I0403 15:58:07.385678 20579 net.cpp:91] Creating Layer inception_5b/3x3_reduce
I0403 15:58:07.385707 20579 net.cpp:425] inception_5b/3x3_reduce <- inception_5a/output_inception_5a/output_0_split_1
I0403 15:58:07.385731 20579 net.cpp:399] inception_5b/3x3_reduce -> inception_5b/3x3_reduce
I0403 15:58:07.388473 20579 net.cpp:141] Setting up inception_5b/3x3_reduce
I0403 15:58:07.388501 20579 net.cpp:148] Top shape: 24 192 7 7 (225792)
I0403 15:58:07.388517 20579 net.cpp:156] Memory required for data: 1329757728
I0403 15:58:07.388536 20579 layer_factory.hpp:77] Creating layer inception_5b/relu_3x3_reduce
I0403 15:58:07.388556 20579 net.cpp:91] Creating Layer inception_5b/relu_3x3_reduce
I0403 15:58:07.388571 20579 net.cpp:425] inception_5b/relu_3x3_reduce <- inception_5b/3x3_reduce
I0403 15:58:07.388592 20579 net.cpp:386] inception_5b/relu_3x3_reduce -> inception_5b/3x3_reduce (in-place)
I0403 15:58:07.388780 20579 net.cpp:141] Setting up inception_5b/relu_3x3_reduce
I0403 15:58:07.388805 20579 net.cpp:148] Top shape: 24 192 7 7 (225792)
I0403 15:58:07.388820 20579 net.cpp:156] Memory required for data: 1330660896
I0403 15:58:07.388835 20579 layer_factory.hpp:77] Creating layer inception_5b/3x3
I0403 15:58:07.388857 20579 net.cpp:91] Creating Layer inception_5b/3x3
I0403 15:58:07.388875 20579 net.cpp:425] inception_5b/3x3 <- inception_5b/3x3_reduce
I0403 15:58:07.388896 20579 net.cpp:399] inception_5b/3x3 -> inception_5b/3x3
I0403 15:58:07.395761 20579 net.cpp:141] Setting up inception_5b/3x3
I0403 15:58:07.395792 20579 net.cpp:148] Top shape: 24 384 7 7 (451584)
I0403 15:58:07.395807 20579 net.cpp:156] Memory required for data: 1332467232
I0403 15:58:07.395828 20579 layer_factory.hpp:77] Creating layer inception_5b/relu_3x3
I0403 15:58:07.395848 20579 net.cpp:91] Creating Layer inception_5b/relu_3x3
I0403 15:58:07.395864 20579 net.cpp:425] inception_5b/relu_3x3 <- inception_5b/3x3
I0403 15:58:07.395885 20579 net.cpp:386] inception_5b/relu_3x3 -> inception_5b/3x3 (in-place)
I0403 15:58:07.396206 20579 net.cpp:141] Setting up inception_5b/relu_3x3
I0403 15:58:07.396234 20579 net.cpp:148] Top shape: 24 384 7 7 (451584)
I0403 15:58:07.396250 20579 net.cpp:156] Memory required for data: 1334273568
I0403 15:58:07.396266 20579 layer_factory.hpp:77] Creating layer inception_5b/5x5_reduce
I0403 15:58:07.396306 20579 net.cpp:91] Creating Layer inception_5b/5x5_reduce
I0403 15:58:07.396325 20579 net.cpp:425] inception_5b/5x5_reduce <- inception_5a/output_inception_5a/output_0_split_2
I0403 15:58:07.396349 20579 net.cpp:399] inception_5b/5x5_reduce -> inception_5b/5x5_reduce
I0403 15:58:07.397675 20579 net.cpp:141] Setting up inception_5b/5x5_reduce
I0403 15:58:07.397703 20579 net.cpp:148] Top shape: 24 48 7 7 (56448)
I0403 15:58:07.397719 20579 net.cpp:156] Memory required for data: 1334499360
I0403 15:58:07.397738 20579 layer_factory.hpp:77] Creating layer inception_5b/relu_5x5_reduce
I0403 15:58:07.397760 20579 net.cpp:91] Creating Layer inception_5b/relu_5x5_reduce
I0403 15:58:07.397778 20579 net.cpp:425] inception_5b/relu_5x5_reduce <- inception_5b/5x5_reduce
I0403 15:58:07.397796 20579 net.cpp:386] inception_5b/relu_5x5_reduce -> inception_5b/5x5_reduce (in-place)
I0403 15:58:07.398198 20579 net.cpp:141] Setting up inception_5b/relu_5x5_reduce
I0403 15:58:07.398226 20579 net.cpp:148] Top shape: 24 48 7 7 (56448)
I0403 15:58:07.398242 20579 net.cpp:156] Memory required for data: 1334725152
I0403 15:58:07.398258 20579 layer_factory.hpp:77] Creating layer inception_5b/5x5
I0403 15:58:07.398279 20579 net.cpp:91] Creating Layer inception_5b/5x5
I0403 15:58:07.398298 20579 net.cpp:425] inception_5b/5x5 <- inception_5b/5x5_reduce
I0403 15:58:07.398318 20579 net.cpp:399] inception_5b/5x5 -> inception_5b/5x5
I0403 15:58:07.400527 20579 net.cpp:141] Setting up inception_5b/5x5
I0403 15:58:07.400557 20579 net.cpp:148] Top shape: 24 128 7 7 (150528)
I0403 15:58:07.400573 20579 net.cpp:156] Memory required for data: 1335327264
I0403 15:58:07.400593 20579 layer_factory.hpp:77] Creating layer inception_5b/relu_5x5
I0403 15:58:07.400614 20579 net.cpp:91] Creating Layer inception_5b/relu_5x5
I0403 15:58:07.400631 20579 net.cpp:425] inception_5b/relu_5x5 <- inception_5b/5x5
I0403 15:58:07.400650 20579 net.cpp:386] inception_5b/relu_5x5 -> inception_5b/5x5 (in-place)
I0403 15:58:07.400848 20579 net.cpp:141] Setting up inception_5b/relu_5x5
I0403 15:58:07.400876 20579 net.cpp:148] Top shape: 24 128 7 7 (150528)
I0403 15:58:07.400893 20579 net.cpp:156] Memory required for data: 1335929376
I0403 15:58:07.400909 20579 layer_factory.hpp:77] Creating layer inception_5b/pool
I0403 15:58:07.400928 20579 net.cpp:91] Creating Layer inception_5b/pool
I0403 15:58:07.400944 20579 net.cpp:425] inception_5b/pool <- inception_5a/output_inception_5a/output_0_split_3
I0403 15:58:07.400972 20579 net.cpp:399] inception_5b/pool -> inception_5b/pool
I0403 15:58:07.401051 20579 net.cpp:141] Setting up inception_5b/pool
I0403 15:58:07.401074 20579 net.cpp:148] Top shape: 24 832 7 7 (978432)
I0403 15:58:07.401090 20579 net.cpp:156] Memory required for data: 1339843104
I0403 15:58:07.401105 20579 layer_factory.hpp:77] Creating layer inception_5b/pool_proj
I0403 15:58:07.401129 20579 net.cpp:91] Creating Layer inception_5b/pool_proj
I0403 15:58:07.401146 20579 net.cpp:425] inception_5b/pool_proj <- inception_5b/pool
I0403 15:58:07.401168 20579 net.cpp:399] inception_5b/pool_proj -> inception_5b/pool_proj
I0403 15:58:07.405115 20579 net.cpp:141] Setting up inception_5b/pool_proj
I0403 15:58:07.405145 20579 net.cpp:148] Top shape: 24 128 7 7 (150528)
I0403 15:58:07.405161 20579 net.cpp:156] Memory required for data: 1340445216
I0403 15:58:07.405180 20579 layer_factory.hpp:77] Creating layer inception_5b/relu_pool_proj
I0403 15:58:07.405205 20579 net.cpp:91] Creating Layer inception_5b/relu_pool_proj
I0403 15:58:07.405223 20579 net.cpp:425] inception_5b/relu_pool_proj <- inception_5b/pool_proj
I0403 15:58:07.405241 20579 net.cpp:386] inception_5b/relu_pool_proj -> inception_5b/pool_proj (in-place)
I0403 15:58:07.405547 20579 net.cpp:141] Setting up inception_5b/relu_pool_proj
I0403 15:58:07.405575 20579 net.cpp:148] Top shape: 24 128 7 7 (150528)
I0403 15:58:07.405591 20579 net.cpp:156] Memory required for data: 1341047328
I0403 15:58:07.405606 20579 layer_factory.hpp:77] Creating layer inception_5b/output
I0403 15:58:07.405623 20579 net.cpp:91] Creating Layer inception_5b/output
I0403 15:58:07.405655 20579 net.cpp:425] inception_5b/output <- inception_5b/1x1
I0403 15:58:07.405674 20579 net.cpp:425] inception_5b/output <- inception_5b/3x3
I0403 15:58:07.405695 20579 net.cpp:425] inception_5b/output <- inception_5b/5x5
I0403 15:58:07.405712 20579 net.cpp:425] inception_5b/output <- inception_5b/pool_proj
I0403 15:58:07.405741 20579 net.cpp:399] inception_5b/output -> inception_5b/output
I0403 15:58:07.405797 20579 net.cpp:141] Setting up inception_5b/output
I0403 15:58:07.405823 20579 net.cpp:148] Top shape: 24 1024 7 7 (1204224)
I0403 15:58:07.405840 20579 net.cpp:156] Memory required for data: 1345864224
I0403 15:58:07.405856 20579 layer_factory.hpp:77] Creating layer pool5/7x7_s1
I0403 15:58:07.405874 20579 net.cpp:91] Creating Layer pool5/7x7_s1
I0403 15:58:07.405891 20579 net.cpp:425] pool5/7x7_s1 <- inception_5b/output
I0403 15:58:07.405913 20579 net.cpp:399] pool5/7x7_s1 -> pool5/7x7_s1
I0403 15:58:07.406155 20579 net.cpp:141] Setting up pool5/7x7_s1
I0403 15:58:07.406183 20579 net.cpp:148] Top shape: 24 1024 1 1 (24576)
I0403 15:58:07.406198 20579 net.cpp:156] Memory required for data: 1345962528
I0403 15:58:07.406214 20579 layer_factory.hpp:77] Creating layer pool5/drop_7x7_s1
I0403 15:58:07.406235 20579 net.cpp:91] Creating Layer pool5/drop_7x7_s1
I0403 15:58:07.406254 20579 net.cpp:425] pool5/drop_7x7_s1 <- pool5/7x7_s1
I0403 15:58:07.406271 20579 net.cpp:386] pool5/drop_7x7_s1 -> pool5/7x7_s1 (in-place)
I0403 15:58:07.406324 20579 net.cpp:141] Setting up pool5/drop_7x7_s1
I0403 15:58:07.406348 20579 net.cpp:148] Top shape: 24 1024 1 1 (24576)
I0403 15:58:07.406364 20579 net.cpp:156] Memory required for data: 1346060832
I0403 15:58:07.406380 20579 layer_factory.hpp:77] Creating layer loss3/classifier_plantvillage
I0403 15:58:07.406400 20579 net.cpp:91] Creating Layer loss3/classifier_plantvillage
I0403 15:58:07.406417 20579 net.cpp:425] loss3/classifier_plantvillage <- pool5/7x7_s1
I0403 15:58:07.406440 20579 net.cpp:399] loss3/classifier_plantvillage -> loss3/classifier_plantvillage
I0403 15:58:07.406882 20579 net.cpp:141] Setting up loss3/classifier_plantvillage
I0403 15:58:07.406908 20579 net.cpp:148] Top shape: 24 38 (912)
I0403 15:58:07.406924 20579 net.cpp:156] Memory required for data: 1346064480
I0403 15:58:07.406961 20579 layer_factory.hpp:77] Creating layer loss3/classifier_plantvillage_loss3/classifier_plantvillage_0_split
I0403 15:58:07.406982 20579 net.cpp:91] Creating Layer loss3/classifier_plantvillage_loss3/classifier_plantvillage_0_split
I0403 15:58:07.406999 20579 net.cpp:425] loss3/classifier_plantvillage_loss3/classifier_plantvillage_0_split <- loss3/classifier_plantvillage
I0403 15:58:07.407018 20579 net.cpp:399] loss3/classifier_plantvillage_loss3/classifier_plantvillage_0_split -> loss3/classifier_plantvillage_loss3/classifier_plantvillage_0_split_0
I0403 15:58:07.407044 20579 net.cpp:399] loss3/classifier_plantvillage_loss3/classifier_plantvillage_0_split -> loss3/classifier_plantvillage_loss3/classifier_plantvillage_0_split_1
I0403 15:58:07.407068 20579 net.cpp:399] loss3/classifier_plantvillage_loss3/classifier_plantvillage_0_split -> loss3/classifier_plantvillage_loss3/classifier_plantvillage_0_split_2
I0403 15:58:07.407090 20579 net.cpp:399] loss3/classifier_plantvillage_loss3/classifier_plantvillage_0_split -> loss3/classifier_plantvillage_loss3/classifier_plantvillage_0_split_3
I0403 15:58:07.407203 20579 net.cpp:141] Setting up loss3/classifier_plantvillage_loss3/classifier_plantvillage_0_split
I0403 15:58:07.407229 20579 net.cpp:148] Top shape: 24 38 (912)
I0403 15:58:07.407258 20579 net.cpp:148] Top shape: 24 38 (912)
I0403 15:58:07.407274 20579 net.cpp:148] Top shape: 24 38 (912)
I0403 15:58:07.407291 20579 net.cpp:148] Top shape: 24 38 (912)
I0403 15:58:07.407305 20579 net.cpp:156] Memory required for data: 1346079072
I0403 15:58:07.407320 20579 layer_factory.hpp:77] Creating layer loss1/loss
I0403 15:58:07.407346 20579 net.cpp:91] Creating Layer loss1/loss
I0403 15:58:07.407363 20579 net.cpp:425] loss1/loss <- loss1/classifier_plantvillage_loss1/classifier_plantvillage_0_split_0
I0403 15:58:07.407398 20579 net.cpp:425] loss1/loss <- label_data_1_split_0
…
