…
I0403 16:29:02.709909 21111 net.cpp:313] The NetState phase (1) differed from the phase (0) specified by a rule in layer data
I0403 16:29:02.711123 21111 net.cpp:49] Initializing net from parameters: 
state {
  phase: TEST
}
layer {
  name: "data"
  type: "Data"
  top: "data"
  top: "label"
  include {
    phase: TEST
  }
  transform_param {
    mirror: false
    crop_size: 224
    mean_file: "/home/mohanty/data/final_dataset/lmdb/color-40-60/mean.binaryproto"
  }
  data_param {
    source: "/home/mohanty/data/final_dataset/lmdb/color-40-60/test_db"
    batch_size: 24
    backend: LMDB
  }
}
layer {
  name: "conv1/7x7_s2"
  type: "Convolution"
  bottom: "data"
  top: "conv1/7x7_s2"
  param {
    lr_mult: 1
    decay_mult: 1
  }
  param {
    lr_mult: 2
    decay_mult: 0
  }
  convolution_param {
    num_output: 64
    pad: 3
    kernel_size: 7
    stride: 2
    weight_filler {
      type: "xavier"
      std: 0.1
    }
    bias_filler {
      type: "constant"
      value: 0.2
    }
  }
}
layer {
  name: "conv1/relu_7x7"
  type: "ReLU"
  bottom: "conv1/7x7_s2"
  top: "conv1/7x7_s2"
}
layer {
  name: "pool1/3x3_s2"
  type: "Pooling"
  bottom: "conv1/7x7_s2"
  top: "pool1/3x3_s2"
  pooling_param {
    pool: MAX
    kernel_size: 3
    stride: 2
  }
}
layer {
  name: "pool1/norm1"
  type: "LRN"
  bottom: "pool1/3x3_s2"
  top: "pool1/norm1"
  lrn_param {
    local_size: 5
    alpha: 0.0001
    beta: 0.75
  }
}
layer {
  name: "conv2/3x3_reduce"
  type: "Convolution"
  bottom: "pool1/norm1"
  top: "conv2/3x3_reduce"
  param {
    lr_mult: 1
    decay_mult: 1
  }
  param {
    lr_mult: 2
    decay_mult: 0
  }
  convolution_param {
    num_output: 64
    kernel_size: 1
    weight_filler {
      type: "xavier"
      std: 0.1
    }
    bias_filler {
      type: "constant"
      value: 0.2
    }
  }
}
layer {
  name: "conv2/relu_3x3_reduce"
  type: "ReLU"
  bottom: "conv2/3x3_reduce"
  top: "conv2/3x3_reduce"
}
layer {
  name: "conv2/3x3"
  type: "Convolution"
  bottom: "conv2/3x3_reduce"
  top: "conv2/3x3"
  param {
    lr_mult: 1
    decay_mult: 1
  }
  param {
    lr_mult: 2
    decay_mult: 0
  }
  convolution_param {
    num_output: 192
    pad: 1
    kernel_size: 3
    weight_filler {
      type: "xavier"
      std: 0.03
    }
    bias_filler {
      type: "constant"
      value: 0.2
    }
  }
}
layer {
  name: "conv2/relu_3x3"
  type: "ReLU"
  bottom: "conv2/3x3"
  top: "conv2/3x3"
}
layer {
  name: "conv2/norm2"
  type: "LRN"
  bottom: "conv2/3x3"
  top: "conv2/norm2"
  lrn_param {
    local_size: 5
    alpha: 0.0001
    beta: 0.75
  }
}
layer {
  name: "pool2/3x3_s2"
  type: "Pooling"
  bottom: "conv2/norm2"
  top: "pool2/3x3_s2"
  pooling_param {
    pool: MAX
    kernel_size: 3
    stride: 2
  }
}
layer {
  name: "inception_3a/1x1"
  type: "Convolution"
  bottom: "pool2/3x3_s2"
  top: "inception_3a/1x1"
  param {
    lr_mult: 1
    decay_mult: 1
  }
  param {
    lr_mult: 2
    decay_mult: 0
  }
  convolution_param {
    num_output: 64
    kernel_size: 1
    weight_filler {
      type: "xavier"
      std: 0.03
    }
    bias_filler {
      type: "constant"
      value: 0.2
    }
  }
}
layer {
  name: "inception_3a/relu_1x1"
  type: "ReLU"
  bottom: "inception_3a/1x1"
  top: "inception_3a/1x1"
}
layer {
  name: "inception_3a/3x3_reduce"
  type: "Convolution"
  bottom: "pool2/3x3_s2"
  top: "inception_3a/3x3_reduce"
  param {
    lr_mult: 1
    decay_mult: 1
  }
  param {
    lr_mult: 2
    decay_mult: 0
  }
  convolution_param {
    num_output: 96
    kernel_size: 1
    weight_filler {
      type: "xavier"
      std: 0.09
    }
    bias_filler {
      type: "constant"
      value: 0.2
    }
  }
}
layer {
  name: "inception_3a/relu_3x3_reduce"
  type: "ReLU"
  bottom: "inception_3a/3x3_reduce"
  top: "inception_3a/3x3_reduce"
}
layer {
  name: "inception_3a/3x3"
  type: "Convolution"
  bottom: "inception_3a/3x3_reduce"
  top: "inception_3a/3x3"
  param {
    lr_mult: 1
    decay_mult: 1
  }
  param {
    lr_mult: 2
    decay_mult: 0
  }
  convolution_param {
    num_output: 128
    pad: 1
    kernel_size: 3
    weight_filler {
      type: "xavier"
      std: 0.03
    }
    bias_filler {
      type: "constant"
      value: 0.2
    }
  }
}
layer {
  name: "inception_3a/relu_3x3"
  type: "ReLU"
  bottom: "inception_3a/3x3"
  top: "inception_3a/3x3"
}
layer {
  name: "inception_3a/5x5_reduce"
  type: "Convolution"
  bottom: "pool2/3x3_s2"
  top: "inception_3a/5x5_reduce"
  param {
    lr_mult: 1
    decay_mult: 1
  }
  param {
    lr_mult: 2
    decay_mult: 0
  }
  convolution_param {
    num_output: 16
    kernel_size: 1
    weight_filler {
      type: "xavier"
      std: 0.2
    }
    bias_filler {
      type: "constant"
      value: 0.2
    }
  }
}
layer {
  name: "inception_3a/relu_5x5_reduce"
  type: "ReLU"
  bottom: "inception_3a/5x5_reduce"
  top: "inception_3a/5x5_reduce"
}
layer {
  name: "inception_3a/5x5"
  type: "Convolution"
  bottom: "inception_3a/5x5_reduce"
  top: "inception_3a/5x5"
  param {
    lr_mult: 1
    decay_mult: 1
  }
  param {
    lr_mult: 2
    decay_mult: 0
  }
  convolution_param {
    num_output: 32
    pad: 2
    kernel_size: 5
    weight_filler {
      type: "xavier"
      std: 0.03
    }
    bias_filler {
      type: "constant"
      value: 0.2
    }
  }
}
layer {
  name: "inception_3a/relu_5x5"
  type: "ReLU"
  bottom: "inception_3a/5x5"
  top: "inception_3a/5x5"
}
layer {
  name: "inception_3a/pool"
  type: "Pooling"
  bottom: "pool2/3x3_s2"
  top: "inception_3a/pool"
  pooling_param {
    pool: MAX
    kernel_size: 3
    stride: 1
    pad: 1
  }
}
layer {
  name: "inception_3a/pool_proj"
  type: "Convolution"
  bottom: "inception_3a/pool"
  top: "inception_3a/pool_proj"
  param {
    lr_mult: 1
    decay_mult: 1
  }
  param {
    lr_mult: 2
    decay_mult: 0
  }
  convolution_param {
    num_output: 32
    kernel_size: 1
    weight_filler {
      type: "xavier"
      std: 0.1
    }
    bias_filler {
      type: "constant"
      value: 0.2
    }
  }
}
layer {
  name: "inception_3a/relu_pool_proj"
  type: "ReLU"
  bottom: "inception_3a/pool_proj"
  top: "inception_3a/pool_proj"
}
layer {
  name: "inception_3a/output"
  type: "Concat"
  bottom: "inception_3a/1x1"
  bottom: "inception_3a/3x3"
  bottom: "inception_3a/5x5"
  bottom: "inception_3a/pool_proj"
  top: "inception_3a/output"
}
layer {
  name: "inception_3b/1x1"
  type: "Convolution"
  bottom: "inception_3a/output"
  top: "inception_3b/1x1"
  param {
    lr_mult: 1
    decay_mult: 1
  }
  param {
    lr_mult: 2
    decay_mult: 0
  }
  convolution_param {
    num_output: 128
    kernel_size: 1
    weight_filler {
      type: "xavier"
      std: 0.03
    }
    bias_filler {
      type: "constant"
      value: 0.2
    }
  }
}
layer {
  name: "inception_3b/relu_1x1"
  type: "ReLU"
  bottom: "inception_3b/1x1"
  top: "inception_3b/1x1"
}
layer {
  name: "inception_3b/3x3_reduce"
  type: "Convolution"
  bottom: "inception_3a/output"
  top: "inception_3b/3x3_reduce"
  param {
    lr_mult: 1
    decay_mult: 1
  }
  param {
    lr_mult: 2
    decay_mult: 0
  }
  convolution_param {
    num_output: 128
    kernel_size: 1
    weight_filler {
      type: "xavier"
      std: 0.09
    }
    bias_filler {
      type: "constant"
      value: 0.2
    }
  }
}
layer {
  name: "inception_3b/relu_3x3_reduce"
  type: "ReLU"
  bottom: "inception_3b/3x3_reduce"
  top: "inception_3b/3x3_reduce"
}
layer {
  name: "inception_3b/3x3"
  type: "Convolution"
  bottom: "inception_3b/3x3_reduce"
  top: "inception_3b/3x3"
  param {
    lr_mult: 1
    decay_mult: 1
  }
  param {
    lr_mult: 2
    decay_mult: 0
  }
  convolution_param {
    num_output: 192
    pad: 1
    kernel_size: 3
    weight_filler {
      type: "xavier"
      std: 0.03
    }
    bias_filler {
      type: "constant"
      value: 0.2
    }
  }
}
layer {
  name: "inception_3b/relu_3x3"
  type: "ReLU"
  bottom: "inception_3b/3x3"
  top: "inception_3b/3x3"
}
layer {
  name: "inception_3b/5x5_reduce"
  type: "Convolution"
  bottom: "inception_3a/output"
  top: "inception_3b/5x5_reduce"
  param {
    lr_mult: 1
    decay_mult: 1
  }
  param {
    lr_mult: 2
    decay_mult: 0
  }
  convolution_param {
    num_output: 32
    kernel_size: 1
    weight_filler {
      type: "xavier"
      std: 0.2
    }
    bias_filler {
      type: "constant"
      value: 0.2
    }
  }
}
layer {
  name: "inception_3b/relu_5x5_reduce"
  type: "ReLU"
  bottom: "inception_3b/5x5_reduce"
  top: "inception_3b/5x5_reduce"
}
layer {
  name: "inception_3b/5x5"
  type: "Convolution"
  bottom: "inception_3b/5x5_reduce"
  top: "inception_3b/5x5"
  param {
    lr_mult: 1
    decay_mult: 1
  }
  param {
    lr_mult: 2
    decay_mult: 0
  }
  convolution_param {
    num_output: 96
    pad: 2
    kernel_size: 5
    weight_filler {
      type: "xavier"
      std: 0.03
    }
    bias_filler {
      type: "constant"
      value: 0.2
    }
  }
}
layer {
  name: "inception_3b/relu_5x5"
  type: "ReLU"
  bottom: "inception_3b/5x5"
  top: "inception_3b/5x5"
}
layer {
  name: "inception_3b/pool"
  type: "Pooling"
  bottom: "inception_3a/output"
  top: "inception_3b/pool"
  pooling_param {
    pool: MAX
    kernel_size: 3
    stride: 1
    pad: 1
  }
}
layer {
  name: "inception_3b/pool_proj"
  type: "Convolution"
  bottom: "inception_3b/pool"
  top: "inception_3b/pool_proj"
  param {
    lr_mult: 1
    decay_mult: 1
  }
  param {
    lr_mult: 2
    decay_mult: 0
  }
  convolution_param {
    num_output: 64
    kernel_size: 1
    weight_filler {
      type: "xavier"
      std: 0.1
    }
    bias_filler {
      type: "constant"
      value: 0.2
    }
  }
}
layer {
  name: "inception_3b/relu_pool_proj"
  type: "ReLU"
  bottom: "inception_3b/pool_proj"
  top: "inception_3b/pool_proj"
}
layer {
  name: "inception_3b/output"
  type: "Concat"
  bottom: "inception_3b/1x1"
  bottom: "inception_3b/3x3"
  bottom: "inception_3b/5x5"
  bottom: "inception_3b/pool_proj"
  top: "inception_3b/output"
}
layer {
  name: "pool3/3x3_s2"
  type: "Pooling"
  bottom: "inception_3b/output"
  top: "pool3/3x3_s2"
  pooling_param {
    pool: MAX
    kernel_size: 3
    stride: 2
  }
}
layer {
  name: "inception_4a/1x1"
  type: "Convolution"
  bottom: "pool3/3x3_s2"
  top: "inception_4a/1x1"
  param {
    lr_mult: 1
    decay_mult: 1
  }
  param {
    lr_mult: 2
    decay_mult: 0
  }
  convolution_param {
    num_output: 192
    kernel_size: 1
    weight_filler {
      type: "xavier"
      std: 0.03
    }
    bias_filler {
      type: "constant"
      value: 0.2
    }
  }
}
layer {
  name: "inception_4a/relu_1x1"
  type: "ReLU"
  bottom: "inception_4a/1x1"
  top: "inception_4a/1x1"
}
layer {
  name: "inception_4a/3x3_reduce"
  type: "Convolution"
  bottom: "pool3/3x3_s2"
  top: "inception_4a/3x3_reduce"
  param {
    lr_mult: 1
    decay_mult: 1
  }
  param {
    lr_mult: 2
    decay_mult: 0
  }
  convolution_param {
    num_output: 96
    kernel_size: 1
    weight_filler {
      type: "xavier"
      std: 0.09
    }
    bias_filler {
      type: "constant"
      value: 0.2
    }
  }
}
layer {
  name: "inception_4a/relu_3x3_reduce"
  type: "ReLU"
  bottom: "inception_4a/3x3_reduce"
  top: "inception_4a/3x3_reduce"
}
layer {
  name: "inception_4a/3x3"
  type: "Convolution"
  bottom: "inception_4a/3x3_reduce"
  top: "inception_4a/3x3"
  param {
    lr_mult: 1
    decay_mult: 1
  }
  param {
    lr_mult: 2
    decay_mult: 0
  }
  convolution_param {
    num_output: 208
    pad: 1
    kernel_size: 3
    weight_filler {
      type: "xavier"
      std: 0.03
    }
    bias_filler {
      type: "constant"
      value: 0.2
    }
  }
}
layer {
  name: "inception_4a/relu_3x3"
  type: "ReLU"
  bottom: "inception_4a/3x3"
  top: "inception_4a/3x3"
}
layer {
  name: "inception_4a/5x5_reduce"
  type: "Convolution"
  bottom: "pool3/3x3_s2"
  top: "inception_4a/5x5_reduce"
  param {
    lr_mult: 1
    decay_mult: 1
  }
  param {
    lr_mult: 2
    decay_mult: 0
  }
  convolution_param {
    num_output: 16
    kernel_size: 1
    weight_filler {
      type: "xavier"
      std: 0.2
    }
    bias_filler {
      type: "constant"
      value: 0.2
    }
  }
}
layer {
  name: "inception_4a/relu_5x5_reduce"
  type: "ReLU"
  bottom: "inception_4a/5x5_reduce"
  top: "inception_4a/5x5_reduce"
}
layer {
  name: "inception_4a/5x5"
  type: "Convolution"
  bottom: "inception_4a/5x5_reduce"
  top: "inception_4a/5x5"
  param {
    lr_mult: 1
    decay_mult: 1
  }
  param {
    lr_mult: 2
    decay_mult: 0
  }
  convolution_param {
    num_output: 48
    pad: 2
    kernel_size: 5
    weight_filler {
      type: "xavier"
      std: 0.03
    }
    bias_filler {
      type: "constant"
      value: 0.2
    }
  }
}
layer {
  name: "inception_4a/relu_5x5"
  type: "ReLU"
  bottom: "inception_4a/5x5"
  top: "inception_4a/5x5"
}
layer {
  name: "inception_4a/pool"
  type: "Pooling"
  bottom: "pool3/3x3_s2"
  top: "inception_4a/pool"
  pooling_param {
    pool: MAX
    kernel_size: 3
    stride: 1
    pad: 1
  }
}
layer {
  name: "inception_4a/pool_proj"
  type: "Convolution"
  bottom: "inception_4a/pool"
  top: "inception_4a/pool_proj"
  param {
    lr_mult: 1
    decay_mult: 1
  }
  param {
    lr_mult: 2
    decay_mult: 0
  }
  convolution_param {
    num_output: 64
    kernel_size: 1
    weight_filler {
      type: "xavier"
      std: 0.1
    }
    bias_filler {
      type: "constant"
      value: 0.2
    }
  }
}
layer {
  name: "inception_4a/relu_pool_proj"
  type: "ReLU"
  bottom: "inception_4a/pool_proj"
  top: "inception_4a/pool_proj"
}
layer {
  name: "inception_4a/output"
  type: "Concat"
  bottom: "inception_4a/1x1"
  bottom: "inception_4a/3x3"
  bottom: "inception_4a/5x5"
  bottom: "inception_4a/pool_proj"
  top: "inception_4a/output"
}
layer {
  name: "loss1/ave_pool"
  type: "Pooling"
  bottom: "inception_4a/output"
  top: "loss1/ave_pool"
  pooling_param {
    pool: AVE
    kernel_size: 5
    stride: 3
  }
}
layer {
  name: "loss1/conv"
  type: "Convolution"
  bottom: "loss1/ave_pool"
  top: "loss1/conv"
  param {
    lr_mult: 1
    decay_mult: 1
  }
  param {
    lr_mult: 2
    decay_mult: 0
  }
  convolution_param {
    num_output: 128
    kernel_size: 1
    weight_filler {
      type: "xavier"
      std: 0.08
    }
    bias_filler {
      type: "constant"
      value: 0.2
    }
  }
}
layer {
  name: "loss1/relu_conv"
  type: "ReLU"
  bottom: "loss1/conv"
  top: "loss1/conv"
}
layer {
  name: "loss1/fc"
  type: "InnerProduct"
  bottom: "loss1/conv"
  top: "loss1/fc"
  param {
    lr_mult: 1
    decay_mult: 1
  }
  param {
    lr_mult: 2
    decay_mult: 0
  }
  inner_product_param {
    num_output: 1024
    weight_filler {
      type: "xavier"
      std: 0.02
    }
    bias_filler {
      type: "constant"
      value: 0.2
    }
  }
}
layer {
  name: "loss1/relu_fc"
  type: "ReLU"
  bottom: "loss1/fc"
  top: "loss1/fc"
}
layer {
  name: "loss1/drop_fc"
  type: "Dropout"
  bottom: "loss1/fc"
  top: "loss1/fc"
  dropout_param {
    dropout_ratio: 0.7
  }
}
layer {
  name: "loss1/classifier_plantvillage"
  type: "InnerProduct"
  bottom: "loss1/fc"
  top: "loss1/classifier_plantvillage"
  param {
    lr_mult: 1
    decay_mult: 1
  }
  param {
    lr_mult: 2
    decay_mult: 0
  }
  inner_product_param {
    num_output: 38
    weight_filler {
      type: "xavier"
      std: 0.0009765625
    }
    bias_filler {
      type: "constant"
      value: 0
    }
  }
}
layer {
  name: "inception_4b/1x1"
  type: "Convolution"
  bottom: "inception_4a/output"
  top: "inception_4b/1x1"
  param {
    lr_mult: 1
    decay_mult: 1
  }
  param {
    lr_mult: 2
    decay_mult: 0
  }
  convolution_param {
    num_output: 160
    kernel_size: 1
    weight_filler {
      type: "xavier"
      std: 0.03
    }
    bias_filler {
      type: "constant"
      value: 0.2
    }
  }
}
layer {
  name: "inception_4b/relu_1x1"
  type: "ReLU"
  bottom: "inception_4b/1x1"
  top: "inception_4b/1x1"
}
layer {
  name: "inception_4b/3x3_reduce"
  type: "Convolution"
  bottom: "inception_4a/output"
  top: "inception_4b/3x3_reduce"
  param {
    lr_mult: 1
    decay_mult: 1
  }
  param {
    lr_mult: 2
    decay_mult: 0
  }
  convolution_param {
    num_output: 112
    kernel_size: 1
    weight_filler {
      type: "xavier"
      std: 0.09
    }
    bias_filler {
      type: "constant"
      value: 0.2
    }
  }
}
layer {
  name: "inception_4b/relu_3x3_reduce"
  type: "ReLU"
  bottom: "inception_4b/3x3_reduce"
  top: "inception_4b/3x3_reduce"
}
layer {
  name: "inception_4b/3x3"
  type: "Convolution"
  bottom: "inception_4b/3x3_reduce"
  top: "inception_4b/3x3"
  param {
    lr_mult: 1
    decay_mult: 1
  }
  param {
    lr_mult: 2
    decay_mult: 0
  }
  convolution_param {
    num_output: 224
    pad: 1
    kernel_size: 3
    weight_filler {
      type: "xavier"
      std: 0.03
    }
    bias_filler {
      type: "constant"
      value: 0.2
    }
  }
}
layer {
  name: "inception_4b/relu_3x3"
  type: "ReLU"
  bottom: "inception_4b/3x3"
  top: "inception_4b/3x3"
}
layer {
  name: "inception_4b/5x5_reduce"
  type: "Convolution"
  bottom: "inception_4a/output"
  top: "inception_4b/5x5_reduce"
  param {
    lr_mult: 1
    decay_mult: 1
  }
  param {
    lr_mult: 2
    decay_mult: 0
  }
  convolution_param {
    num_output: 24
    kernel_size: 1
    weight_filler {
      type: "xavier"
      std: 0.2
    }
    bias_filler {
      type: "constant"
      value: 0.2
    }
  }
}
layer {
  name: "inception_4b/relu_5x5_reduce"
  type: "ReLU"
  bottom: "inception_4b/5x5_reduce"
  top: "inception_4b/5x5_reduce"
}
layer {
  name: "inception_4b/5x5"
  type: "Convolution"
  bottom: "inception_4b/5x5_reduce"
  top: "inception_4b/5x5"
  param {
    lr_mult: 1
    decay_mult: 1
  }
  param {
    lr_mult: 2
    decay_mult: 0
  }
  convolution_param {
    num_output: 64
    pad: 2
    kernel_size: 5
    weight_filler {
      type: "xavier"
      std: 0.03
    }
    bias_filler {
      type: "constant"
      value: 0.2
    }
  }
}
layer {
  name: "inception_4b/relu_5x5"
  type: "ReLU"
  bottom: "inception_4b/5x5"
  top: "inception_4b/5x5"
}
layer {
  name: "inception_4b/pool"
  type: "Pooling"
  bottom: "inception_4a/output"
  top: "inception_4b/pool"
  pooling_param {
    pool: MAX
    kernel_size: 3
    stride: 1
    pad: 1
  }
}
layer {
  name: "inception_4b/pool_proj"
  type: "Convolution"
  bottom: "inception_4b/pool"
  top: "inception_4b/pool_proj"
  param {
    lr_mult: 1
    decay_mult: 1
  }
  param {
    lr_mult: 2
    decay_mult: 0
  }
  convolution_param {
    num_output: 64
    kernel_size: 1
    weight_filler {
      type: "xavier"
      std: 0.1
    }
    bias_filler {
      type: "constant"
      value: 0.2
    }
  }
}
layer {
  name: "inception_4b/relu_pool_proj"
  type: "ReLU"
  bottom: "inception_4b/pool_proj"
  top: "inception_4b/pool_proj"
}
layer {
  name: "inception_4b/output"
  type: "Concat"
  bottom: "inception_4b/1x1"
  bottom: "inception_4b/3x3"
  bottom: "inception_4b/5x5"
  bottom: "inception_4b/pool_proj"
  top: "inception_4b/output"
}
layer {
  name: "inception_4c/1x1"
  type: "Convolution"
  bottom: "inception_4b/output"
  top: "inception_4c/1x1"
  param {
    lr_mult: 1
    decay_mult: 1
  }
  param {
    lr_mult: 2
    decay_mult: 0
  }
  convolution_param {
    num_output: 128
    kernel_size: 1
    weight_filler {
      type: "xavier"
      std: 0.03
    }
    bias_filler {
      type: "constant"
      value: 0.2
    }
  }
}
layer {
  name: "inception_4c/relu_1x1"
  type: "ReLU"
  bottom: "inception_4c/1x1"
  top: "inception_4c/1x1"
}
layer {
  name: "inception_4c/3x3_reduce"
  type: "Convolution"
  bottom: "inception_4b/output"
  top: "inception_4c/3x3_reduce"
  param {
    lr_mult: 1
    decay_mult: 1
  }
  param {
    lr_mult: 2
    decay_mult: 0
  }
  convolution_param {
    num_output: 128
    kernel_size: 1
    weight_filler {
      type: "xavier"
      std: 0.09
    }
    bias_filler {
      type: "constant"
      value: 0.2
    }
  }
}
layer {
  name: "inception_4c/relu_3x3_reduce"
  type: "ReLU"
  bottom: "inception_4c/3x3_reduce"
  top: "inception_4c/3x3_reduce"
}
layer {
  name: "inception_4c/3x3"
  type: "Convolution"
  bottom: "inception_4c/3x3_reduce"
  top: "inception_4c/3x3"
  param {
    lr_mult: 1
    decay_mult: 1
  }
  param {
    lr_mult: 2
    decay_mult: 0
  }
  convolution_param {
    num_output: 256
    pad: 1
    kernel_size: 3
    weight_filler {
      type: "xavier"
      std: 0.03
    }
    bias_filler {
      type: "constant"
      value: 0.2
    }
  }
}
layer {
  name: "inception_4c/relu_3x3"
  type: "ReLU"
  bottom: "inception_4c/3x3"
  top: "inception_4c/3x3"
}
layer {
  name: "inception_4c/5x5_reduce"
  type: "Convolution"
  bottom: "inception_4b/output"
  top: "inception_4c/5x5_reduce"
  param {
    lr_mult: 1
    decay_mult: 1
  }
  param {
    lr_mult: 2
    decay_mult: 0
  }
  convolution_param {
    num_output: 24
    kernel_size: 1
    weight_filler {
      type: "xavier"
      std: 0.2
    }
    bias_filler {
      type: "constant"
      value: 0.2
    }
  }
}
layer {
  name: "inception_4c/relu_5x5_reduce"
  type: "ReLU"
  bottom: "inception_4c/5x5_reduce"
  top: "inception_4c/5x5_reduce"
}
layer {
  name: "inception_4c/5x5"
  type: "Convolution"
  bottom: "inception_4c/5x5_reduce"
  top: "inception_4c/5x5"
  param {
    lr_mult: 1
    decay_mult: 1
  }
  param {
    lr_mult: 2
    decay_mult: 0
  }
  convolution_param {
    num_output: 64
    pad: 2
    kernel_size: 5
    weight_filler {
      type: "xavier"
      std: 0.03
    }
    bias_filler {
      type: "constant"
      value: 0.2
    }
  }
}
layer {
  name: "inception_4c/relu_5x5"
  type: "ReLU"
  bottom: "inception_4c/5x5"
  top: "inception_4c/5x5"
}
layer {
  name: "inception_4c/pool"
  type: "Pooling"
  bottom: "inception_4b/output"
  top: "inception_4c/pool"
  pooling_param {
    pool: MAX
    kernel_size: 3
    stride: 1
    pad: 1
  }
}
layer {
  name: "inception_4c/pool_proj"
  type: "Convolution"
  bottom: "inception_4c/pool"
  top: "inception_4c/pool_proj"
  param {
    lr_mult: 1
    decay_mult: 1
  }
  param {
    lr_mult: 2
    decay_mult: 0
  }
  convolution_param {
    num_output: 64
    kernel_size: 1
    weight_filler {
      type: "xavier"
      std: 0.1
    }
    bias_filler {
      type: "constant"
      value: 0.2
    }
  }
}
layer {
  name: "inception_4c/relu_pool_proj"
  type: "ReLU"
  bottom: "inception_4c/pool_proj"
  top: "inception_4c/pool_proj"
}
layer {
  name: "inception_4c/output"
  type: "Concat"
  bottom: "inception_4c/1x1"
  bottom: "inception_4c/3x3"
  bottom: "inception_4c/5x5"
  bottom: "inception_4c/pool_proj"
  top: "inception_4c/output"
}
layer {
  name: "inception_4d/1x1"
  type: "Convolution"
  bottom: "inception_4c/output"
  top: "inception_4d/1x1"
  param {
    lr_mult: 1
    decay_mult: 1
  }
  param {
    lr_mult: 2
    decay_mult: 0
  }
  convolution_param {
    num_output: 112
    kernel_size: 1
    weight_filler {
      type: "xavier"
      std: 0.03
    }
    bias_filler {
      type: "constant"
      value: 0.2
    }
  }
}
layer {
  name: "inception_4d/relu_1x1"
  type: "ReLU"
  bottom: "inception_4d/1x1"
  top: "inception_4d/1x1"
}
layer {
  name: "inception_4d/3x3_reduce"
  type: "Convolution"
  bottom: "inception_4c/output"
  top: "inception_4d/3x3_reduce"
  param {
    lr_mult: 1
    decay_mult: 1
  }
  param {
    lr_mult: 2
    decay_mult: 0
  }
  convolution_param {
    num_output: 144
    kernel_size: 1
    weight_filler {
      type: "xavier"
      std: 0.09
    }
    bias_filler {
      type: "constant"
      value: 0.2
    }
  }
}
layer {
  name: "inception_4d/relu_3x3_reduce"
  type: "ReLU"
  bottom: "inception_4d/3x3_reduce"
  top: "inception_4d/3x3_reduce"
}
layer {
  name: "inception_4d/3x3"
  type: "Convolution"
  bottom: "inception_4d/3x3_reduce"
  top: "inception_4d/3x3"
  param {
    lr_mult: 1
    decay_mult: 1
  }
  param {
    lr_mult: 2
    decay_mult: 0
  }
  convolution_param {
    num_output: 288
    pad: 1
    kernel_size: 3
    weight_filler {
      type: "xavier"
      std: 0.03
    }
    bias_filler {
      type: "constant"
      value: 0.2
    }
  }
}
layer {
  name: "inception_4d/relu_3x3"
  type: "ReLU"
  bottom: "inception_4d/3x3"
  top: "inception_4d/3x3"
}
layer {
  name: "inception_4d/5x5_reduce"
  type: "Convolution"
  bottom: "inception_4c/output"
  top: "inception_4d/5x5_reduce"
  param {
    lr_mult: 1
    decay_mult: 1
  }
  param {
    lr_mult: 2
    decay_mult: 0
  }
  convolution_param {
    num_output: 32
    kernel_size: 1
    weight_filler {
      type: "xavier"
      std: 0.2
    }
    bias_filler {
      type: "constant"
      value: 0.2
    }
  }
}
layer {
  name: "inception_4d/relu_5x5_reduce"
  type: "ReLU"
  bottom: "inception_4d/5x5_reduce"
  top: "inception_4d/5x5_reduce"
}
layer {
  name: "inception_4d/5x5"
  type: "Convolution"
  bottom: "inception_4d/5x5_reduce"
  top: "inception_4d/5x5"
  param {
    lr_mult: 1
    decay_mult: 1
  }
  param {
    lr_mult: 2
    decay_mult: 0
  }
  convolution_param {
    num_output: 64
    pad: 2
    kernel_size: 5
    weight_filler {
      type: "xavier"
      std: 0.03
    }
    bias_filler {
      type: "constant"
      value: 0.2
    }
  }
}
layer {
  name: "inception_4d/relu_5x5"
  type: "ReLU"
  bottom: "inception_4d/5x5"
  top: "inception_4d/5x5"
}
layer {
  name: "inception_4d/pool"
  type: "Pooling"
  bottom: "inception_4c/output"
  top: "inception_4d/pool"
  pooling_param {
    pool: MAX
    kernel_size: 3
    stride: 1
    pad: 1
  }
}
layer {
  name: "inception_4d/pool_proj"
  type: "Convolution"
  bottom: "inception_4d/pool"
  top: "inception_4d/pool_proj"
  param {
    lr_mult: 1
    decay_mult: 1
  }
  param {
    lr_mult: 2
    decay_mult: 0
  }
  convolution_param {
    num_output: 64
    kernel_size: 1
    weight_filler {
      type: "xavier"
      std: 0.1
    }
    bias_filler {
      type: "constant"
      value: 0.2
    }
  }
}
layer {
  name: "inception_4d/relu_pool_proj"
  type: "ReLU"
  bottom: "inception_4d/pool_proj"
  top: "inception_4d/pool_proj"
}
layer {
  name: "inception_4d/output"
  type: "Concat"
  bottom: "inception_4d/1x1"
  bottom: "inception_4d/3x3"
  bottom: "inception_4d/5x5"
  bottom: "inception_4d/pool_proj"
  top: "inception_4d/output"
}
layer {
  name: "loss2/ave_pool"
  type: "Pooling"
  bottom: "inception_4d/output"
  top: "loss2/ave_pool"
  pooling_param {
    pool: AVE
    kernel_size: 5
    stride: 3
  }
}
layer {
  name: "loss2/conv"
  type: "Convolution"
  bottom: "loss2/ave_pool"
  top: "loss2/conv"
  param {
    lr_mult: 1
    decay_mult: 1
  }
  param {
    lr_mult: 2
    decay_mult: 0
  }
  convolution_param {
    num_output: 128
    kernel_size: 1
    weight_filler {
      type: "xavier"
      std: 0.08
    }
    bias_filler {
      type: "constant"
      value: 0.2
    }
  }
}
layer {
  name: "loss2/relu_conv"
  type: "ReLU"
  bottom: "loss2/conv"
  top: "loss2/conv"
}
layer {
  name: "loss2/fc"
  type: "InnerProduct"
  bottom: "loss2/conv"
  top: "loss2/fc"
  param {
    lr_mult: 1
    decay_mult: 1
  }
  param {
    lr_mult: 2
    decay_mult: 0
  }
  inner_product_param {
    num_output: 1024
    weight_filler {
      type: "xavier"
      std: 0.02
    }
    bias_filler {
      type: "constant"
      value: 0.2
    }
  }
}
layer {
  name: "loss2/relu_fc"
  type: "ReLU"
  bottom: "loss2/fc"
  top: "loss2/fc"
}
layer {
  name: "loss2/drop_fc"
  type: "Dropout"
  bottom: "loss2/fc"
  top: "loss2/fc"
  dropout_param {
    dropout_ratio: 0.7
  }
}
layer {
  name: "loss2/classifier_plantvillage"
  type: "InnerProduct"
  bottom: "loss2/fc"
  top: "loss2/classifier_plantvillage"
  param {
    lr_mult: 1
    decay_mult: 1
  }
  param {
    lr_mult: 2
    decay_mult: 0
  }
  inner_product_param {
    num_output: 38
    weight_filler {
      type: "xavier"
      std: 0.0009765625
    }
    bias_filler {
      type: "constant"
      value: 0
    }
  }
}
layer {
  name: "inception_4e/1x1"
  type: "Convolution"
  bottom: "inception_4d/output"
  top: "inception_4e/1x1"
  param {
    lr_mult: 1
    decay_mult: 1
  }
  param {
    lr_mult: 2
    decay_mult: 0
  }
  convolution_param {
    num_output: 256
    kernel_size: 1
    weight_filler {
      type: "xavier"
      std: 0.03
    }
    bias_filler {
      type: "constant"
      value: 0.2
    }
  }
}
layer {
  name: "inception_4e/relu_1x1"
  type: "ReLU"
  bottom: "inception_4e/1x1"
  top: "inception_4e/1x1"
}
layer {
  name: "inception_4e/3x3_reduce"
  type: "Convolution"
  bottom: "inception_4d/output"
  top: "inception_4e/3x3_reduce"
  param {
    lr_mult: 1
    decay_mult: 1
  }
  param {
    lr_mult: 2
    decay_mult: 0
  }
  convolution_param {
    num_output: 160
    kernel_size: 1
    weight_filler {
      type: "xavier"
      std: 0.09
    }
    bias_filler {
      type: "constant"
      value: 0.2
    }
  }
}
layer {
  name: "inception_4e/relu_3x3_reduce"
  type: "ReLU"
  bottom: "inception_4e/3x3_reduce"
  top: "inception_4e/3x3_reduce"
}
layer {
  name: "inception_4e/3x3"
  type: "Convolution"
  bottom: "inception_4e/3x3_reduce"
  top: "inception_4e/3x3"
  param {
    lr_mult: 1
    decay_mult: 1
  }
  param {
    lr_mult: 2
    decay_mult: 0
  }
  convolution_param {
    num_output: 320
    pad: 1
    kernel_size: 3
    weight_filler {
      type: "xavier"
      std: 0.03
    }
    bias_filler {
      type: "constant"
      value: 0.2
    }
  }
}
layer {
  name: "inception_4e/relu_3x3"
  type: "ReLU"
  bottom: "inception_4e/3x3"
  top: "inception_4e/3x3"
}
layer {
  name: "inception_4e/5x5_reduce"
  type: "Convolution"
  bottom: "inception_4d/output"
  top: "inception_4e/5x5_reduce"
  param {
    lr_mult: 1
    decay_mult: 1
  }
  param {
    lr_mult: 2
    decay_mult: 0
  }
  convolution_param {
    num_output: 32
    kernel_size: 1
    weight_filler {
      type: "xavier"
      std: 0.2
    }
    bias_filler {
      type: "constant"
      value: 0.2
    }
  }
}
layer {
  name: "inception_4e/relu_5x5_reduce"
  type: "ReLU"
  bottom: "inception_4e/5x5_reduce"
  top: "inception_4e/5x5_reduce"
}
layer {
  name: "inception_4e/5x5"
  type: "Convolution"
  bottom: "inception_4e/5x5_reduce"
  top: "inception_4e/5x5"
  p
I0403 16:29:02.712404 21111 layer_factory.hpp:77] Creating layer data
I0403 16:29:02.713014 21111 net.cpp:91] Creating Layer data
I0403 16:29:02.713043 21111 net.cpp:399] data -> data
I0403 16:29:02.713095 21111 net.cpp:399] data -> label
I0403 16:29:02.713130 21111 data_transformer.cpp:25] Loading mean file from: /home/mohanty/data/final_dataset/lmdb/color-40-60/mean.binaryproto
I0403 16:29:02.714337 21115 db_lmdb.cpp:38] Opened lmdb /home/mohanty/data/final_dataset/lmdb/color-40-60/test_db
I0403 16:29:02.725862 21111 data_layer.cpp:41] output data size: 24,3,224,224
I0403 16:29:02.754957 21111 net.cpp:141] Setting up data
I0403 16:29:02.755041 21111 net.cpp:148] Top shape: 24 3 224 224 (3612672)
I0403 16:29:02.755064 21111 net.cpp:148] Top shape: 24 (24)
I0403 16:29:02.755079 21111 net.cpp:156] Memory required for data: 14450784
I0403 16:29:02.755105 21111 layer_factory.hpp:77] Creating layer label_data_1_split
I0403 16:29:02.755131 21111 net.cpp:91] Creating Layer label_data_1_split
I0403 16:29:02.755149 21111 net.cpp:425] label_data_1_split <- label
I0403 16:29:02.755180 21111 net.cpp:399] label_data_1_split -> label_data_1_split_0
I0403 16:29:02.755208 21111 net.cpp:399] label_data_1_split -> label_data_1_split_1
I0403 16:29:02.755229 21111 net.cpp:399] label_data_1_split -> label_data_1_split_2
I0403 16:29:02.755250 21111 net.cpp:399] label_data_1_split -> label_data_1_split_3
I0403 16:29:02.755270 21111 net.cpp:399] label_data_1_split -> label_data_1_split_4
I0403 16:29:02.755288 21111 net.cpp:399] label_data_1_split -> label_data_1_split_5
I0403 16:29:02.755307 21111 net.cpp:399] label_data_1_split -> label_data_1_split_6
I0403 16:29:02.755327 21111 net.cpp:399] label_data_1_split -> label_data_1_split_7
I0403 16:29:02.755347 21111 net.cpp:399] label_data_1_split -> label_data_1_split_8
I0403 16:29:02.755365 21111 net.cpp:399] label_data_1_split -> label_data_1_split_9
I0403 16:29:02.755477 21111 net.cpp:141] Setting up label_data_1_split
I0403 16:29:02.755501 21111 net.cpp:148] Top shape: 24 (24)
I0403 16:29:02.755517 21111 net.cpp:148] Top shape: 24 (24)
I0403 16:29:02.755532 21111 net.cpp:148] Top shape: 24 (24)
I0403 16:29:02.755548 21111 net.cpp:148] Top shape: 24 (24)
I0403 16:29:02.755563 21111 net.cpp:148] Top shape: 24 (24)
I0403 16:29:02.755578 21111 net.cpp:148] Top shape: 24 (24)
I0403 16:29:02.755594 21111 net.cpp:148] Top shape: 24 (24)
I0403 16:29:02.755609 21111 net.cpp:148] Top shape: 24 (24)
I0403 16:29:02.755625 21111 net.cpp:148] Top shape: 24 (24)
I0403 16:29:02.755640 21111 net.cpp:148] Top shape: 24 (24)
I0403 16:29:02.755684 21111 net.cpp:156] Memory required for data: 14451744
I0403 16:29:02.755700 21111 layer_factory.hpp:77] Creating layer conv1/7x7_s2
I0403 16:29:02.755731 21111 net.cpp:91] Creating Layer conv1/7x7_s2
I0403 16:29:02.755750 21111 net.cpp:425] conv1/7x7_s2 <- data
I0403 16:29:02.755769 21111 net.cpp:399] conv1/7x7_s2 -> conv1/7x7_s2
I0403 16:29:02.898382 21111 net.cpp:141] Setting up conv1/7x7_s2
I0403 16:29:02.898468 21111 net.cpp:148] Top shape: 24 64 112 112 (19267584)
I0403 16:29:02.898486 21111 net.cpp:156] Memory required for data: 91522080
I0403 16:29:02.898516 21111 layer_factory.hpp:77] Creating layer conv1/relu_7x7
I0403 16:29:02.898543 21111 net.cpp:91] Creating Layer conv1/relu_7x7
I0403 16:29:02.898562 21111 net.cpp:425] conv1/relu_7x7 <- conv1/7x7_s2
I0403 16:29:02.898581 21111 net.cpp:386] conv1/relu_7x7 -> conv1/7x7_s2 (in-place)
I0403 16:29:02.898833 21111 net.cpp:141] Setting up conv1/relu_7x7
I0403 16:29:02.898859 21111 net.cpp:148] Top shape: 24 64 112 112 (19267584)
I0403 16:29:02.898874 21111 net.cpp:156] Memory required for data: 168592416
I0403 16:29:02.898888 21111 layer_factory.hpp:77] Creating layer pool1/3x3_s2
I0403 16:29:02.898913 21111 net.cpp:91] Creating Layer pool1/3x3_s2
I0403 16:29:02.898931 21111 net.cpp:425] pool1/3x3_s2 <- conv1/7x7_s2
I0403 16:29:02.898949 21111 net.cpp:399] pool1/3x3_s2 -> pool1/3x3_s2
I0403 16:29:02.899036 21111 net.cpp:141] Setting up pool1/3x3_s2
I0403 16:29:02.899061 21111 net.cpp:148] Top shape: 24 64 56 56 (4816896)
I0403 16:29:02.899076 21111 net.cpp:156] Memory required for data: 187860000
I0403 16:29:02.899091 21111 layer_factory.hpp:77] Creating layer pool1/norm1
I0403 16:29:02.899116 21111 net.cpp:91] Creating Layer pool1/norm1
I0403 16:29:02.899132 21111 net.cpp:425] pool1/norm1 <- pool1/3x3_s2
I0403 16:29:02.899150 21111 net.cpp:399] pool1/norm1 -> pool1/norm1
I0403 16:29:02.899432 21111 net.cpp:141] Setting up pool1/norm1
I0403 16:29:02.899459 21111 net.cpp:148] Top shape: 24 64 56 56 (4816896)
I0403 16:29:02.899474 21111 net.cpp:156] Memory required for data: 207127584
I0403 16:29:02.899489 21111 layer_factory.hpp:77] Creating layer conv2/3x3_reduce
I0403 16:29:02.899516 21111 net.cpp:91] Creating Layer conv2/3x3_reduce
I0403 16:29:02.899533 21111 net.cpp:425] conv2/3x3_reduce <- pool1/norm1
I0403 16:29:02.899552 21111 net.cpp:399] conv2/3x3_reduce -> conv2/3x3_reduce
I0403 16:29:02.900975 21111 net.cpp:141] Setting up conv2/3x3_reduce
I0403 16:29:02.901010 21111 net.cpp:148] Top shape: 24 64 56 56 (4816896)
I0403 16:29:02.901027 21111 net.cpp:156] Memory required for data: 226395168
I0403 16:29:02.901049 21111 layer_factory.hpp:77] Creating layer conv2/relu_3x3_reduce
I0403 16:29:02.901072 21111 net.cpp:91] Creating Layer conv2/relu_3x3_reduce
I0403 16:29:02.901088 21111 net.cpp:425] conv2/relu_3x3_reduce <- conv2/3x3_reduce
I0403 16:29:02.901106 21111 net.cpp:386] conv2/relu_3x3_reduce -> conv2/3x3_reduce (in-place)
I0403 16:29:02.901386 21111 net.cpp:141] Setting up conv2/relu_3x3_reduce
I0403 16:29:02.901412 21111 net.cpp:148] Top shape: 24 64 56 56 (4816896)
I0403 16:29:02.901428 21111 net.cpp:156] Memory required for data: 245662752
I0403 16:29:02.901443 21111 layer_factory.hpp:77] Creating layer conv2/3x3
I0403 16:29:02.901468 21111 net.cpp:91] Creating Layer conv2/3x3
I0403 16:29:02.901487 21111 net.cpp:425] conv2/3x3 <- conv2/3x3_reduce
I0403 16:29:02.901510 21111 net.cpp:399] conv2/3x3 -> conv2/3x3
I0403 16:29:02.903843 21111 net.cpp:141] Setting up conv2/3x3
I0403 16:29:02.903872 21111 net.cpp:148] Top shape: 24 192 56 56 (14450688)
I0403 16:29:02.903888 21111 net.cpp:156] Memory required for data: 303465504
I0403 16:29:02.903908 21111 layer_factory.hpp:77] Creating layer conv2/relu_3x3
I0403 16:29:02.903929 21111 net.cpp:91] Creating Layer conv2/relu_3x3
I0403 16:29:02.903945 21111 net.cpp:425] conv2/relu_3x3 <- conv2/3x3
I0403 16:29:02.903962 21111 net.cpp:386] conv2/relu_3x3 -> conv2/3x3 (in-place)
I0403 16:29:02.904136 21111 net.cpp:141] Setting up conv2/relu_3x3
I0403 16:29:02.904163 21111 net.cpp:148] Top shape: 24 192 56 56 (14450688)
I0403 16:29:02.904211 21111 net.cpp:156] Memory required for data: 361268256
I0403 16:29:02.904227 21111 layer_factory.hpp:77] Creating layer conv2/norm2
I0403 16:29:02.904244 21111 net.cpp:91] Creating Layer conv2/norm2
I0403 16:29:02.904263 21111 net.cpp:425] conv2/norm2 <- conv2/3x3
I0403 16:29:02.904283 21111 net.cpp:399] conv2/norm2 -> conv2/norm2
I0403 16:29:02.904587 21111 net.cpp:141] Setting up conv2/norm2
I0403 16:29:02.904613 21111 net.cpp:148] Top shape: 24 192 56 56 (14450688)
I0403 16:29:02.904628 21111 net.cpp:156] Memory required for data: 419071008
I0403 16:29:02.904644 21111 layer_factory.hpp:77] Creating layer pool2/3x3_s2
I0403 16:29:02.904660 21111 net.cpp:91] Creating Layer pool2/3x3_s2
I0403 16:29:02.904675 21111 net.cpp:425] pool2/3x3_s2 <- conv2/norm2
I0403 16:29:02.904695 21111 net.cpp:399] pool2/3x3_s2 -> pool2/3x3_s2
I0403 16:29:02.904745 21111 net.cpp:141] Setting up pool2/3x3_s2
I0403 16:29:02.904768 21111 net.cpp:148] Top shape: 24 192 28 28 (3612672)
I0403 16:29:02.904783 21111 net.cpp:156] Memory required for data: 433521696
I0403 16:29:02.904796 21111 layer_factory.hpp:77] Creating layer pool2/3x3_s2_pool2/3x3_s2_0_split
I0403 16:29:02.904816 21111 net.cpp:91] Creating Layer pool2/3x3_s2_pool2/3x3_s2_0_split
I0403 16:29:02.904834 21111 net.cpp:425] pool2/3x3_s2_pool2/3x3_s2_0_split <- pool2/3x3_s2
I0403 16:29:02.904852 21111 net.cpp:399] pool2/3x3_s2_pool2/3x3_s2_0_split -> pool2/3x3_s2_pool2/3x3_s2_0_split_0
I0403 16:29:02.904872 21111 net.cpp:399] pool2/3x3_s2_pool2/3x3_s2_0_split -> pool2/3x3_s2_pool2/3x3_s2_0_split_1
I0403 16:29:02.904891 21111 net.cpp:399] pool2/3x3_s2_pool2/3x3_s2_0_split -> pool2/3x3_s2_pool2/3x3_s2_0_split_2
I0403 16:29:02.904909 21111 net.cpp:399] pool2/3x3_s2_pool2/3x3_s2_0_split -> pool2/3x3_s2_pool2/3x3_s2_0_split_3
I0403 16:29:02.904976 21111 net.cpp:141] Setting up pool2/3x3_s2_pool2/3x3_s2_0_split
I0403 16:29:02.905005 21111 net.cpp:148] Top shape: 24 192 28 28 (3612672)
I0403 16:29:02.905024 21111 net.cpp:148] Top shape: 24 192 28 28 (3612672)
I0403 16:29:02.905038 21111 net.cpp:148] Top shape: 24 192 28 28 (3612672)
I0403 16:29:02.905055 21111 net.cpp:148] Top shape: 24 192 28 28 (3612672)
I0403 16:29:02.905068 21111 net.cpp:156] Memory required for data: 491324448
I0403 16:29:02.905082 21111 layer_factory.hpp:77] Creating layer inception_3a/1x1
I0403 16:29:02.905102 21111 net.cpp:91] Creating Layer inception_3a/1x1
I0403 16:29:02.905118 21111 net.cpp:425] inception_3a/1x1 <- pool2/3x3_s2_pool2/3x3_s2_0_split_0
I0403 16:29:02.905138 21111 net.cpp:399] inception_3a/1x1 -> inception_3a/1x1
I0403 16:29:02.906617 21111 net.cpp:141] Setting up inception_3a/1x1
I0403 16:29:02.906646 21111 net.cpp:148] Top shape: 24 64 28 28 (1204224)
I0403 16:29:02.906661 21111 net.cpp:156] Memory required for data: 496141344
I0403 16:29:02.906678 21111 layer_factory.hpp:77] Creating layer inception_3a/relu_1x1
I0403 16:29:02.906698 21111 net.cpp:91] Creating Layer inception_3a/relu_1x1
I0403 16:29:02.906714 21111 net.cpp:425] inception_3a/relu_1x1 <- inception_3a/1x1
I0403 16:29:02.906731 21111 net.cpp:386] inception_3a/relu_1x1 -> inception_3a/1x1 (in-place)
I0403 16:29:02.906896 21111 net.cpp:141] Setting up inception_3a/relu_1x1
I0403 16:29:02.906920 21111 net.cpp:148] Top shape: 24 64 28 28 (1204224)
I0403 16:29:02.906935 21111 net.cpp:156] Memory required for data: 500958240
I0403 16:29:02.906949 21111 layer_factory.hpp:77] Creating layer inception_3a/3x3_reduce
I0403 16:29:02.906972 21111 net.cpp:91] Creating Layer inception_3a/3x3_reduce
I0403 16:29:02.906993 21111 net.cpp:425] inception_3a/3x3_reduce <- pool2/3x3_s2_pool2/3x3_s2_0_split_1
I0403 16:29:02.907013 21111 net.cpp:399] inception_3a/3x3_reduce -> inception_3a/3x3_reduce
I0403 16:29:02.908635 21111 net.cpp:141] Setting up inception_3a/3x3_reduce
I0403 16:29:02.908663 21111 net.cpp:148] Top shape: 24 96 28 28 (1806336)
I0403 16:29:02.908679 21111 net.cpp:156] Memory required for data: 508183584
I0403 16:29:02.908699 21111 layer_factory.hpp:77] Creating layer inception_3a/relu_3x3_reduce
I0403 16:29:02.908735 21111 net.cpp:91] Creating Layer inception_3a/relu_3x3_reduce
I0403 16:29:02.908753 21111 net.cpp:425] inception_3a/relu_3x3_reduce <- inception_3a/3x3_reduce
I0403 16:29:02.908773 21111 net.cpp:386] inception_3a/relu_3x3_reduce -> inception_3a/3x3_reduce (in-place)
I0403 16:29:02.908949 21111 net.cpp:141] Setting up inception_3a/relu_3x3_reduce
I0403 16:29:02.908973 21111 net.cpp:148] Top shape: 24 96 28 28 (1806336)
I0403 16:29:02.908998 21111 net.cpp:156] Memory required for data: 515408928
I0403 16:29:02.909015 21111 layer_factory.hpp:77] Creating layer inception_3a/3x3
I0403 16:29:02.909037 21111 net.cpp:91] Creating Layer inception_3a/3x3
I0403 16:29:02.909054 21111 net.cpp:425] inception_3a/3x3 <- inception_3a/3x3_reduce
I0403 16:29:02.909076 21111 net.cpp:399] inception_3a/3x3 -> inception_3a/3x3
I0403 16:29:02.910653 21111 net.cpp:141] Setting up inception_3a/3x3
I0403 16:29:02.910681 21111 net.cpp:148] Top shape: 24 128 28 28 (2408448)
I0403 16:29:02.910696 21111 net.cpp:156] Memory required for data: 525042720
I0403 16:29:02.910713 21111 layer_factory.hpp:77] Creating layer inception_3a/relu_3x3
I0403 16:29:02.910733 21111 net.cpp:91] Creating Layer inception_3a/relu_3x3
I0403 16:29:02.910749 21111 net.cpp:425] inception_3a/relu_3x3 <- inception_3a/3x3
I0403 16:29:02.910766 21111 net.cpp:386] inception_3a/relu_3x3 -> inception_3a/3x3 (in-place)
I0403 16:29:02.911047 21111 net.cpp:141] Setting up inception_3a/relu_3x3
I0403 16:29:02.911073 21111 net.cpp:148] Top shape: 24 128 28 28 (2408448)
I0403 16:29:02.911088 21111 net.cpp:156] Memory required for data: 534676512
I0403 16:29:02.911103 21111 layer_factory.hpp:77] Creating layer inception_3a/5x5_reduce
I0403 16:29:02.911126 21111 net.cpp:91] Creating Layer inception_3a/5x5_reduce
I0403 16:29:02.911144 21111 net.cpp:425] inception_3a/5x5_reduce <- pool2/3x3_s2_pool2/3x3_s2_0_split_2
I0403 16:29:02.911165 21111 net.cpp:399] inception_3a/5x5_reduce -> inception_3a/5x5_reduce
I0403 16:29:02.912099 21111 net.cpp:141] Setting up inception_3a/5x5_reduce
I0403 16:29:02.912128 21111 net.cpp:148] Top shape: 24 16 28 28 (301056)
I0403 16:29:02.912144 21111 net.cpp:156] Memory required for data: 535880736
I0403 16:29:02.912163 21111 layer_factory.hpp:77] Creating layer inception_3a/relu_5x5_reduce
I0403 16:29:02.912179 21111 net.cpp:91] Creating Layer inception_3a/relu_5x5_reduce
I0403 16:29:02.912195 21111 net.cpp:425] inception_3a/relu_5x5_reduce <- inception_3a/5x5_reduce
I0403 16:29:02.912214 21111 net.cpp:386] inception_3a/relu_5x5_reduce -> inception_3a/5x5_reduce (in-place)
I0403 16:29:02.912503 21111 net.cpp:141] Setting up inception_3a/relu_5x5_reduce
I0403 16:29:02.912529 21111 net.cpp:148] Top shape: 24 16 28 28 (301056)
I0403 16:29:02.912544 21111 net.cpp:156] Memory required for data: 537084960
I0403 16:29:02.912559 21111 layer_factory.hpp:77] Creating layer inception_3a/5x5
I0403 16:29:02.912581 21111 net.cpp:91] Creating Layer inception_3a/5x5
I0403 16:29:02.912597 21111 net.cpp:425] inception_3a/5x5 <- inception_3a/5x5_reduce
I0403 16:29:02.912618 21111 net.cpp:399] inception_3a/5x5 -> inception_3a/5x5
I0403 16:29:02.913589 21111 net.cpp:141] Setting up inception_3a/5x5
I0403 16:29:02.913615 21111 net.cpp:148] Top shape: 24 32 28 28 (602112)
I0403 16:29:02.913630 21111 net.cpp:156] Memory required for data: 539493408
I0403 16:29:02.913648 21111 layer_factory.hpp:77] Creating layer inception_3a/relu_5x5
I0403 16:29:02.913669 21111 net.cpp:91] Creating Layer inception_3a/relu_5x5
I0403 16:29:02.913686 21111 net.cpp:425] inception_3a/relu_5x5 <- inception_3a/5x5
I0403 16:29:02.913702 21111 net.cpp:386] inception_3a/relu_5x5 -> inception_3a/5x5 (in-place)
I0403 16:29:02.913867 21111 net.cpp:141] Setting up inception_3a/relu_5x5
I0403 16:29:02.913893 21111 net.cpp:148] Top shape: 24 32 28 28 (602112)
I0403 16:29:02.913908 21111 net.cpp:156] Memory required for data: 541901856
I0403 16:29:02.913923 21111 layer_factory.hpp:77] Creating layer inception_3a/pool
I0403 16:29:02.913940 21111 net.cpp:91] Creating Layer inception_3a/pool
I0403 16:29:02.913955 21111 net.cpp:425] inception_3a/pool <- pool2/3x3_s2_pool2/3x3_s2_0_split_3
I0403 16:29:02.913993 21111 net.cpp:399] inception_3a/pool -> inception_3a/pool
I0403 16:29:02.914052 21111 net.cpp:141] Setting up inception_3a/pool
I0403 16:29:02.914074 21111 net.cpp:148] Top shape: 24 192 28 28 (3612672)
I0403 16:29:02.914088 21111 net.cpp:156] Memory required for data: 556352544
I0403 16:29:02.914103 21111 layer_factory.hpp:77] Creating layer inception_3a/pool_proj
I0403 16:29:02.914124 21111 net.cpp:91] Creating Layer inception_3a/pool_proj
I0403 16:29:02.914140 21111 net.cpp:425] inception_3a/pool_proj <- inception_3a/pool
I0403 16:29:02.914161 21111 net.cpp:399] inception_3a/pool_proj -> inception_3a/pool_proj
I0403 16:29:02.915091 21111 net.cpp:141] Setting up inception_3a/pool_proj
I0403 16:29:02.915117 21111 net.cpp:148] Top shape: 24 32 28 28 (602112)
I0403 16:29:02.915133 21111 net.cpp:156] Memory required for data: 558760992
I0403 16:29:02.915158 21111 layer_factory.hpp:77] Creating layer inception_3a/relu_pool_proj
I0403 16:29:02.915176 21111 net.cpp:91] Creating Layer inception_3a/relu_pool_proj
I0403 16:29:02.915191 21111 net.cpp:425] inception_3a/relu_pool_proj <- inception_3a/pool_proj
I0403 16:29:02.915208 21111 net.cpp:386] inception_3a/relu_pool_proj -> inception_3a/pool_proj (in-place)
I0403 16:29:02.915493 21111 net.cpp:141] Setting up inception_3a/relu_pool_proj
I0403 16:29:02.915518 21111 net.cpp:148] Top shape: 24 32 28 28 (602112)
I0403 16:29:02.915534 21111 net.cpp:156] Memory required for data: 561169440
I0403 16:29:02.915547 21111 layer_factory.hpp:77] Creating layer inception_3a/output
I0403 16:29:02.915568 21111 net.cpp:91] Creating Layer inception_3a/output
I0403 16:29:02.915598 21111 net.cpp:425] inception_3a/output <- inception_3a/1x1
I0403 16:29:02.915614 21111 net.cpp:425] inception_3a/output <- inception_3a/3x3
I0403 16:29:02.915630 21111 net.cpp:425] inception_3a/output <- inception_3a/5x5
I0403 16:29:02.915645 21111 net.cpp:425] inception_3a/output <- inception_3a/pool_proj
I0403 16:29:02.915662 21111 net.cpp:399] inception_3a/output -> inception_3a/output
I0403 16:29:02.915707 21111 net.cpp:141] Setting up inception_3a/output
I0403 16:29:02.915730 21111 net.cpp:148] Top shape: 24 256 28 28 (4816896)
I0403 16:29:02.915745 21111 net.cpp:156] Memory required for data: 580437024
I0403 16:29:02.915760 21111 layer_factory.hpp:77] Creating layer inception_3a/output_inception_3a/output_0_split
I0403 16:29:02.915776 21111 net.cpp:91] Creating Layer inception_3a/output_inception_3a/output_0_split
I0403 16:29:02.915791 21111 net.cpp:425] inception_3a/output_inception_3a/output_0_split <- inception_3a/output
I0403 16:29:02.915809 21111 net.cpp:399] inception_3a/output_inception_3a/output_0_split -> inception_3a/output_inception_3a/output_0_split_0
I0403 16:29:02.915829 21111 net.cpp:399] inception_3a/output_inception_3a/output_0_split -> inception_3a/output_inception_3a/output_0_split_1
I0403 16:29:02.915850 21111 net.cpp:399] inception_3a/output_inception_3a/output_0_split -> inception_3a/output_inception_3a/output_0_split_2
I0403 16:29:02.915874 21111 net.cpp:399] inception_3a/output_inception_3a/output_0_split -> inception_3a/output_inception_3a/output_0_split_3
I0403 16:29:02.915946 21111 net.cpp:141] Setting up inception_3a/output_inception_3a/output_0_split
I0403 16:29:02.915968 21111 net.cpp:148] Top shape: 24 256 28 28 (4816896)
I0403 16:29:02.915988 21111 net.cpp:148] Top shape: 24 256 28 28 (4816896)
I0403 16:29:02.916005 21111 net.cpp:148] Top shape: 24 256 28 28 (4816896)
I0403 16:29:02.916021 21111 net.cpp:148] Top shape: 24 256 28 28 (4816896)
I0403 16:29:02.916034 21111 net.cpp:156] Memory required for data: 657507360
I0403 16:29:02.916049 21111 layer_factory.hpp:77] Creating layer inception_3b/1x1
I0403 16:29:02.916070 21111 net.cpp:91] Creating Layer inception_3b/1x1
I0403 16:29:02.916087 21111 net.cpp:425] inception_3b/1x1 <- inception_3a/output_inception_3a/output_0_split_0
I0403 16:29:02.916110 21111 net.cpp:399] inception_3b/1x1 -> inception_3b/1x1
I0403 16:29:02.917230 21111 net.cpp:141] Setting up inception_3b/1x1
I0403 16:29:02.917270 21111 net.cpp:148] Top shape: 24 128 28 28 (2408448)
I0403 16:29:02.917286 21111 net.cpp:156] Memory required for data: 667141152
I0403 16:29:02.917305 21111 layer_factory.hpp:77] Creating layer inception_3b/relu_1x1
I0403 16:29:02.917323 21111 net.cpp:91] Creating Layer inception_3b/relu_1x1
I0403 16:29:02.917346 21111 net.cpp:425] inception_3b/relu_1x1 <- inception_3b/1x1
I0403 16:29:02.917366 21111 net.cpp:386] inception_3b/relu_1x1 -> inception_3b/1x1 (in-place)
I0403 16:29:02.917541 21111 net.cpp:141] Setting up inception_3b/relu_1x1
I0403 16:29:02.917565 21111 net.cpp:148] Top shape: 24 128 28 28 (2408448)
I0403 16:29:02.917580 21111 net.cpp:156] Memory required for data: 676774944
I0403 16:29:02.917594 21111 layer_factory.hpp:77] Creating layer inception_3b/3x3_reduce
I0403 16:29:02.917618 21111 net.cpp:91] Creating Layer inception_3b/3x3_reduce
I0403 16:29:02.917634 21111 net.cpp:425] inception_3b/3x3_reduce <- inception_3a/output_inception_3a/output_0_split_1
I0403 16:29:02.917655 21111 net.cpp:399] inception_3b/3x3_reduce -> inception_3b/3x3_reduce
I0403 16:29:02.918788 21111 net.cpp:141] Setting up inception_3b/3x3_reduce
I0403 16:29:02.918817 21111 net.cpp:148] Top shape: 24 128 28 28 (2408448)
I0403 16:29:02.918831 21111 net.cpp:156] Memory required for data: 686408736
I0403 16:29:02.918849 21111 layer_factory.hpp:77] Creating layer inception_3b/relu_3x3_reduce
I0403 16:29:02.918870 21111 net.cpp:91] Creating Layer inception_3b/relu_3x3_reduce
I0403 16:29:02.918887 21111 net.cpp:425] inception_3b/relu_3x3_reduce <- inception_3b/3x3_reduce
I0403 16:29:02.918905 21111 net.cpp:386] inception_3b/relu_3x3_reduce -> inception_3b/3x3_reduce (in-place)
I0403 16:29:02.919090 21111 net.cpp:141] Setting up inception_3b/relu_3x3_reduce
I0403 16:29:02.919116 21111 net.cpp:148] Top shape: 24 128 28 28 (2408448)
I0403 16:29:02.919131 21111 net.cpp:156] Memory required for data: 696042528
I0403 16:29:02.919144 21111 layer_factory.hpp:77] Creating layer inception_3b/3x3
I0403 16:29:02.919172 21111 net.cpp:91] Creating Layer inception_3b/3x3
I0403 16:29:02.919189 21111 net.cpp:425] inception_3b/3x3 <- inception_3b/3x3_reduce
I0403 16:29:02.919209 21111 net.cpp:399] inception_3b/3x3 -> inception_3b/3x3
I0403 16:29:02.922107 21111 net.cpp:141] Setting up inception_3b/3x3
I0403 16:29:02.922135 21111 net.cpp:148] Top shape: 24 192 28 28 (3612672)
I0403 16:29:02.922152 21111 net.cpp:156] Memory required for data: 710493216
I0403 16:29:02.922169 21111 layer_factory.hpp:77] Creating layer inception_3b/relu_3x3
I0403 16:29:02.922190 21111 net.cpp:91] Creating Layer inception_3b/relu_3x3
I0403 16:29:02.922207 21111 net.cpp:425] inception_3b/relu_3x3 <- inception_3b/3x3
I0403 16:29:02.922225 21111 net.cpp:386] inception_3b/relu_3x3 -> inception_3b/3x3 (in-place)
I0403 16:29:02.922499 21111 net.cpp:141] Setting up inception_3b/relu_3x3
I0403 16:29:02.922525 21111 net.cpp:148] Top shape: 24 192 28 28 (3612672)
I0403 16:29:02.922539 21111 net.cpp:156] Memory required for data: 724943904
I0403 16:29:02.922554 21111 layer_factory.hpp:77] Creating layer inception_3b/5x5_reduce
I0403 16:29:02.922577 21111 net.cpp:91] Creating Layer inception_3b/5x5_reduce
I0403 16:29:02.922595 21111 net.cpp:425] inception_3b/5x5_reduce <- inception_3a/output_inception_3a/output_0_split_2
I0403 16:29:02.922617 21111 net.cpp:399] inception_3b/5x5_reduce -> inception_3b/5x5_reduce
I0403 16:29:02.923605 21111 net.cpp:141] Setting up inception_3b/5x5_reduce
I0403 16:29:02.923632 21111 net.cpp:148] Top shape: 24 32 28 28 (602112)
I0403 16:29:02.923647 21111 net.cpp:156] Memory required for data: 727352352
I0403 16:29:02.923666 21111 layer_factory.hpp:77] Creating layer inception_3b/relu_5x5_reduce
I0403 16:29:02.923686 21111 net.cpp:91] Creating Layer inception_3b/relu_5x5_reduce
I0403 16:29:02.923703 21111 net.cpp:425] inception_3b/relu_5x5_reduce <- inception_3b/5x5_reduce
I0403 16:29:02.923720 21111 net.cpp:386] inception_3b/relu_5x5_reduce -> inception_3b/5x5_reduce (in-place)
I0403 16:29:02.923897 21111 net.cpp:141] Setting up inception_3b/relu_5x5_reduce
I0403 16:29:02.923935 21111 net.cpp:148] Top shape: 24 32 28 28 (602112)
I0403 16:29:02.923952 21111 net.cpp:156] Memory required for data: 729760800
I0403 16:29:02.923967 21111 layer_factory.hpp:77] Creating layer inception_3b/5x5
I0403 16:29:02.923995 21111 net.cpp:91] Creating Layer inception_3b/5x5
I0403 16:29:02.924013 21111 net.cpp:425] inception_3b/5x5 <- inception_3b/5x5_reduce
I0403 16:29:02.924033 21111 net.cpp:399] inception_3b/5x5 -> inception_3b/5x5
I0403 16:29:02.925978 21111 net.cpp:141] Setting up inception_3b/5x5
I0403 16:29:02.926012 21111 net.cpp:148] Top shape: 24 96 28 28 (1806336)
I0403 16:29:02.926028 21111 net.cpp:156] Memory required for data: 736986144
I0403 16:29:02.926046 21111 layer_factory.hpp:77] Creating layer inception_3b/relu_5x5
I0403 16:29:02.926066 21111 net.cpp:91] Creating Layer inception_3b/relu_5x5
I0403 16:29:02.926084 21111 net.cpp:425] inception_3b/relu_5x5 <- inception_3b/5x5
I0403 16:29:02.926101 21111 net.cpp:386] inception_3b/relu_5x5 -> inception_3b/5x5 (in-place)
I0403 16:29:02.926295 21111 net.cpp:141] Setting up inception_3b/relu_5x5
I0403 16:29:02.926319 21111 net.cpp:148] Top shape: 24 96 28 28 (1806336)
I0403 16:29:02.926334 21111 net.cpp:156] Memory required for data: 744211488
I0403 16:29:02.926349 21111 layer_factory.hpp:77] Creating layer inception_3b/pool
I0403 16:29:02.926367 21111 net.cpp:91] Creating Layer inception_3b/pool
I0403 16:29:02.926383 21111 net.cpp:425] inception_3b/pool <- inception_3a/output_inception_3a/output_0_split_3
I0403 16:29:02.926401 21111 net.cpp:399] inception_3b/pool -> inception_3b/pool
I0403 16:29:02.926456 21111 net.cpp:141] Setting up inception_3b/pool
I0403 16:29:02.926481 21111 net.cpp:148] Top shape: 24 256 28 28 (4816896)
I0403 16:29:02.926494 21111 net.cpp:156] Memory required for data: 763479072
I0403 16:29:02.926509 21111 layer_factory.hpp:77] Creating layer inception_3b/pool_proj
I0403 16:29:02.926532 21111 net.cpp:91] Creating Layer inception_3b/pool_proj
I0403 16:29:02.926549 21111 net.cpp:425] inception_3b/pool_proj <- inception_3b/pool
I0403 16:29:02.926570 21111 net.cpp:399] inception_3b/pool_proj -> inception_3b/pool_proj
I0403 16:29:02.927613 21111 net.cpp:141] Setting up inception_3b/pool_proj
I0403 16:29:02.927644 21111 net.cpp:148] Top shape: 24 64 28 28 (1204224)
I0403 16:29:02.927659 21111 net.cpp:156] Memory required for data: 768295968
I0403 16:29:02.927678 21111 layer_factory.hpp:77] Creating layer inception_3b/relu_pool_proj
I0403 16:29:02.927696 21111 net.cpp:91] Creating Layer inception_3b/relu_pool_proj
I0403 16:29:02.927712 21111 net.cpp:425] inception_3b/relu_pool_proj <- inception_3b/pool_proj
I0403 16:29:02.927732 21111 net.cpp:386] inception_3b/relu_pool_proj -> inception_3b/pool_proj (in-place)
I0403 16:29:02.928128 21111 net.cpp:141] Setting up inception_3b/relu_pool_proj
I0403 16:29:02.928158 21111 net.cpp:148] Top shape: 24 64 28 28 (1204224)
I0403 16:29:02.928174 21111 net.cpp:156] Memory required for data: 773112864
I0403 16:29:02.928189 21111 layer_factory.hpp:77] Creating layer inception_3b/output
I0403 16:29:02.928205 21111 net.cpp:91] Creating Layer inception_3b/output
I0403 16:29:02.928221 21111 net.cpp:425] inception_3b/output <- inception_3b/1x1
I0403 16:29:02.928238 21111 net.cpp:425] inception_3b/output <- inception_3b/3x3
I0403 16:29:02.928256 21111 net.cpp:425] inception_3b/output <- inception_3b/5x5
I0403 16:29:02.928270 21111 net.cpp:425] inception_3b/output <- inception_3b/pool_proj
I0403 16:29:02.928287 21111 net.cpp:399] inception_3b/output -> inception_3b/output
I0403 16:29:02.928331 21111 net.cpp:141] Setting up inception_3b/output
I0403 16:29:02.928355 21111 net.cpp:148] Top shape: 24 480 28 28 (9031680)
I0403 16:29:02.928369 21111 net.cpp:156] Memory required for data: 809239584
I0403 16:29:02.928385 21111 layer_factory.hpp:77] Creating layer pool3/3x3_s2
I0403 16:29:02.928405 21111 net.cpp:91] Creating Layer pool3/3x3_s2
I0403 16:29:02.928421 21111 net.cpp:425] pool3/3x3_s2 <- inception_3b/output
I0403 16:29:02.928439 21111 net.cpp:399] pool3/3x3_s2 -> pool3/3x3_s2
I0403 16:29:02.928511 21111 net.cpp:141] Setting up pool3/3x3_s2
I0403 16:29:02.928534 21111 net.cpp:148] Top shape: 24 480 14 14 (2257920)
I0403 16:29:02.928550 21111 net.cpp:156] Memory required for data: 818271264
I0403 16:29:02.928565 21111 layer_factory.hpp:77] Creating layer pool3/3x3_s2_pool3/3x3_s2_0_split
I0403 16:29:02.928580 21111 net.cpp:91] Creating Layer pool3/3x3_s2_pool3/3x3_s2_0_split
I0403 16:29:02.928596 21111 net.cpp:425] pool3/3x3_s2_pool3/3x3_s2_0_split <- pool3/3x3_s2
I0403 16:29:02.928617 21111 net.cpp:399] pool3/3x3_s2_pool3/3x3_s2_0_split -> pool3/3x3_s2_pool3/3x3_s2_0_split_0
I0403 16:29:02.928637 21111 net.cpp:399] pool3/3x3_s2_pool3/3x3_s2_0_split -> pool3/3x3_s2_pool3/3x3_s2_0_split_1
I0403 16:29:02.928655 21111 net.cpp:399] pool3/3x3_s2_pool3/3x3_s2_0_split -> pool3/3x3_s2_pool3/3x3_s2_0_split_2
I0403 16:29:02.928674 21111 net.cpp:399] pool3/3x3_s2_pool3/3x3_s2_0_split -> pool3/3x3_s2_pool3/3x3_s2_0_split_3
I0403 16:29:02.928752 21111 net.cpp:141] Setting up pool3/3x3_s2_pool3/3x3_s2_0_split
I0403 16:29:02.928778 21111 net.cpp:148] Top shape: 24 480 14 14 (2257920)
I0403 16:29:02.928796 21111 net.cpp:148] Top shape: 24 480 14 14 (2257920)
I0403 16:29:02.928810 21111 net.cpp:148] Top shape: 24 480 14 14 (2257920)
I0403 16:29:02.928825 21111 net.cpp:148] Top shape: 24 480 14 14 (2257920)
I0403 16:29:02.928839 21111 net.cpp:156] Memory required for data: 854397984
I0403 16:29:02.928853 21111 layer_factory.hpp:77] Creating layer inception_4a/1x1
I0403 16:29:02.928876 21111 net.cpp:91] Creating Layer inception_4a/1x1
I0403 16:29:02.928894 21111 net.cpp:425] inception_4a/1x1 <- pool3/3x3_s2_pool3/3x3_s2_0_split_0
I0403 16:29:02.928912 21111 net.cpp:399] inception_4a/1x1 -> inception_4a/1x1
I0403 16:29:02.930477 21111 net.cpp:141] Setting up inception_4a/1x1
I0403 16:29:02.930507 21111 net.cpp:148] Top shape: 24 192 14 14 (903168)
I0403 16:29:02.930523 21111 net.cpp:156] Memory required for data: 858010656
I0403 16:29:02.930542 21111 layer_factory.hpp:77] Creating layer inception_4a/relu_1x1
I0403 16:29:02.930562 21111 net.cpp:91] Creating Layer inception_4a/relu_1x1
I0403 16:29:02.930577 21111 net.cpp:425] inception_4a/relu_1x1 <- inception_4a/1x1
I0403 16:29:02.930596 21111 net.cpp:386] inception_4a/relu_1x1 -> inception_4a/1x1 (in-place)
I0403 16:29:02.930773 21111 net.cpp:141] Setting up inception_4a/relu_1x1
I0403 16:29:02.930797 21111 net.cpp:148] Top shape: 24 192 14 14 (903168)
I0403 16:29:02.930811 21111 net.cpp:156] Memory required for data: 861623328
I0403 16:29:02.930826 21111 layer_factory.hpp:77] Creating layer inception_4a/3x3_reduce
I0403 16:29:02.930848 21111 net.cpp:91] Creating Layer inception_4a/3x3_reduce
I0403 16:29:02.930866 21111 net.cpp:425] inception_4a/3x3_reduce <- pool3/3x3_s2_pool3/3x3_s2_0_split_1
I0403 16:29:02.930887 21111 net.cpp:399] inception_4a/3x3_reduce -> inception_4a/3x3_reduce
I0403 16:29:02.932148 21111 net.cpp:141] Setting up inception_4a/3x3_reduce
I0403 16:29:02.932175 21111 net.cpp:148] Top shape: 24 96 14 14 (451584)
I0403 16:29:02.932191 21111 net.cpp:156] Memory required for data: 863429664
I0403 16:29:02.932214 21111 layer_factory.hpp:77] Creating layer inception_4a/relu_3x3_reduce
I0403 16:29:02.932235 21111 net.cpp:91] Creating Layer inception_4a/relu_3x3_reduce
I0403 16:29:02.932252 21111 net.cpp:425] inception_4a/relu_3x3_reduce <- inception_4a/3x3_reduce
I0403 16:29:02.932272 21111 net.cpp:386] inception_4a/relu_3x3_reduce -> inception_4a/3x3_reduce (in-place)
I0403 16:29:02.932446 21111 net.cpp:141] Setting up inception_4a/relu_3x3_reduce
I0403 16:29:02.932471 21111 net.cpp:148] Top shape: 24 96 14 14 (451584)
I0403 16:29:02.932485 21111 net.cpp:156] Memory required for data: 865236000
I0403 16:29:02.932500 21111 layer_factory.hpp:77] Creating layer inception_4a/3x3
I0403 16:29:02.932523 21111 net.cpp:91] Creating Layer inception_4a/3x3
I0403 16:29:02.932539 21111 net.cpp:425] inception_4a/3x3 <- inception_4a/3x3_reduce
I0403 16:29:02.932561 21111 net.cpp:399] inception_4a/3x3 -> inception_4a/3x3
I0403 16:29:02.935261 21111 net.cpp:141] Setting up inception_4a/3x3
I0403 16:29:02.935289 21111 net.cpp:148] Top shape: 24 208 14 14 (978432)
I0403 16:29:02.935304 21111 net.cpp:156] Memory required for data: 869149728
I0403 16:29:02.935322 21111 layer_factory.hpp:77] Creating layer inception_4a/relu_3x3
I0403 16:29:02.935343 21111 net.cpp:91] Creating Layer inception_4a/relu_3x3
I0403 16:29:02.935359 21111 net.cpp:425] inception_4a/relu_3x3 <- inception_4a/3x3
I0403 16:29:02.935375 21111 net.cpp:386] inception_4a/relu_3x3 -> inception_4a/3x3 (in-place)
I0403 16:29:02.935645 21111 net.cpp:141] Setting up inception_4a/relu_3x3
I0403 16:29:02.935670 21111 net.cpp:148] Top shape: 24 208 14 14 (978432)
I0403 16:29:02.935685 21111 net.cpp:156] Memory required for data: 873063456
I0403 16:29:02.935699 21111 layer_factory.hpp:77] Creating layer inception_4a/5x5_reduce
I0403 16:29:02.935721 21111 net.cpp:91] Creating Layer inception_4a/5x5_reduce
I0403 16:29:02.935739 21111 net.cpp:425] inception_4a/5x5_reduce <- pool3/3x3_s2_pool3/3x3_s2_0_split_2
I0403 16:29:02.935760 21111 net.cpp:399] inception_4a/5x5_reduce -> inception_4a/5x5_reduce
I0403 16:29:02.936748 21111 net.cpp:141] Setting up inception_4a/5x5_reduce
I0403 16:29:02.936774 21111 net.cpp:148] Top shape: 24 16 14 14 (75264)
I0403 16:29:02.936789 21111 net.cpp:156] Memory required for data: 873364512
I0403 16:29:02.936807 21111 layer_factory.hpp:77] Creating layer inception_4a/relu_5x5_reduce
I0403 16:29:02.936827 21111 net.cpp:91] Creating Layer inception_4a/relu_5x5_reduce
I0403 16:29:02.936844 21111 net.cpp:425] inception_4a/relu_5x5_reduce <- inception_4a/5x5_reduce
I0403 16:29:02.936861 21111 net.cpp:386] inception_4a/relu_5x5_reduce -> inception_4a/5x5_reduce (in-place)
I0403 16:29:02.937054 21111 net.cpp:141] Setting up inception_4a/relu_5x5_reduce
I0403 16:29:02.937083 21111 net.cpp:148] Top shape: 24 16 14 14 (75264)
I0403 16:29:02.937098 21111 net.cpp:156] Memory required for data: 873665568
I0403 16:29:02.937114 21111 layer_factory.hpp:77] Creating layer inception_4a/5x5
I0403 16:29:02.937136 21111 net.cpp:91] Creating Layer inception_4a/5x5
I0403 16:29:02.937155 21111 net.cpp:425] inception_4a/5x5 <- inception_4a/5x5_reduce
I0403 16:29:02.937175 21111 net.cpp:399] inception_4a/5x5 -> inception_4a/5x5
I0403 16:29:02.938254 21111 net.cpp:141] Setting up inception_4a/5x5
I0403 16:29:02.938283 21111 net.cpp:148] Top shape: 24 48 14 14 (225792)
I0403 16:29:02.938300 21111 net.cpp:156] Memory required for data: 874568736
I0403 16:29:02.938318 21111 layer_factory.hpp:77] Creating layer inception_4a/relu_5x5
I0403 16:29:02.938336 21111 net.cpp:91] Creating Layer inception_4a/relu_5x5
I0403 16:29:02.938352 21111 net.cpp:425] inception_4a/relu_5x5 <- inception_4a/5x5
I0403 16:29:02.938369 21111 net.cpp:386] inception_4a/relu_5x5 -> inception_4a/5x5 (in-place)
I0403 16:29:02.938545 21111 net.cpp:141] Setting up inception_4a/relu_5x5
I0403 16:29:02.938570 21111 net.cpp:148] Top shape: 24 48 14 14 (225792)
I0403 16:29:02.938585 21111 net.cpp:156] Memory required for data: 875471904
I0403 16:29:02.938599 21111 layer_factory.hpp:77] Creating layer inception_4a/pool
I0403 16:29:02.938618 21111 net.cpp:91] Creating Layer inception_4a/pool
I0403 16:29:02.938634 21111 net.cpp:425] inception_4a/pool <- pool3/3x3_s2_pool3/3x3_s2_0_split_3
I0403 16:29:02.938654 21111 net.cpp:399] inception_4a/pool -> inception_4a/pool
I0403 16:29:02.938715 21111 net.cpp:141] Setting up inception_4a/pool
I0403 16:29:02.938742 21111 net.cpp:148] Top shape: 24 480 14 14 (2257920)
I0403 16:29:02.938757 21111 net.cpp:156] Memory required for data: 884503584
I0403 16:29:02.938771 21111 layer_factory.hpp:77] Creating layer inception_4a/pool_proj
I0403 16:29:02.938793 21111 net.cpp:91] Creating Layer inception_4a/pool_proj
I0403 16:29:02.938812 21111 net.cpp:425] inception_4a/pool_proj <- inception_4a/pool
I0403 16:29:02.938830 21111 net.cpp:399] inception_4a/pool_proj -> inception_4a/pool_proj
I0403 16:29:02.939990 21111 net.cpp:141] Setting up inception_4a/pool_proj
I0403 16:29:02.940018 21111 net.cpp:148] Top shape: 24 64 14 14 (301056)
I0403 16:29:02.940048 21111 net.cpp:156] Memory required for data: 885707808
I0403 16:29:02.940068 21111 layer_factory.hpp:77] Creating layer inception_4a/relu_pool_proj
I0403 16:29:02.940086 21111 net.cpp:91] Creating Layer inception_4a/relu_pool_proj
I0403 16:29:02.940102 21111 net.cpp:425] inception_4a/relu_pool_proj <- inception_4a/pool_proj
I0403 16:29:02.940124 21111 net.cpp:386] inception_4a/relu_pool_proj -> inception_4a/pool_proj (in-place)
I0403 16:29:02.940407 21111 net.cpp:141] Setting up inception_4a/relu_pool_proj
I0403 16:29:02.940433 21111 net.cpp:148] Top shape: 24 64 14 14 (301056)
I0403 16:29:02.940448 21111 net.cpp:156] Memory required for data: 886912032
I0403 16:29:02.940462 21111 layer_factory.hpp:77] Creating layer inception_4a/output
I0403 16:29:02.940480 21111 net.cpp:91] Creating Layer inception_4a/output
I0403 16:29:02.940496 21111 net.cpp:425] inception_4a/output <- inception_4a/1x1
I0403 16:29:02.940512 21111 net.cpp:425] inception_4a/output <- inception_4a/3x3
I0403 16:29:02.940528 21111 net.cpp:425] inception_4a/output <- inception_4a/5x5
I0403 16:29:02.940546 21111 net.cpp:425] inception_4a/output <- inception_4a/pool_proj
I0403 16:29:02.940564 21111 net.cpp:399] inception_4a/output -> inception_4a/output
I0403 16:29:02.940609 21111 net.cpp:141] Setting up inception_4a/output
I0403 16:29:02.940632 21111 net.cpp:148] Top shape: 24 512 14 14 (2408448)
I0403 16:29:02.940650 21111 net.cpp:156] Memory required for data: 896545824
I0403 16:29:02.940666 21111 layer_factory.hpp:77] Creating layer inception_4a/output_inception_4a/output_0_split
I0403 16:29:02.940683 21111 net.cpp:91] Creating Layer inception_4a/output_inception_4a/output_0_split
I0403 16:29:02.940699 21111 net.cpp:425] inception_4a/output_inception_4a/output_0_split <- inception_4a/output
I0403 16:29:02.940717 21111 net.cpp:399] inception_4a/output_inception_4a/output_0_split -> inception_4a/output_inception_4a/output_0_split_0
I0403 16:29:02.940737 21111 net.cpp:399] inception_4a/output_inception_4a/output_0_split -> inception_4a/output_inception_4a/output_0_split_1
I0403 16:29:02.940760 21111 net.cpp:399] inception_4a/output_inception_4a/output_0_split -> inception_4a/output_inception_4a/output_0_split_2
I0403 16:29:02.940783 21111 net.cpp:399] inception_4a/output_inception_4a/output_0_split -> inception_4a/output_inception_4a/output_0_split_3
I0403 16:29:02.940803 21111 net.cpp:399] inception_4a/output_inception_4a/output_0_split -> inception_4a/output_inception_4a/output_0_split_4
I0403 16:29:02.940893 21111 net.cpp:141] Setting up inception_4a/output_inception_4a/output_0_split
I0403 16:29:02.940917 21111 net.cpp:148] Top shape: 24 512 14 14 (2408448)
I0403 16:29:02.940932 21111 net.cpp:148] Top shape: 24 512 14 14 (2408448)
I0403 16:29:02.940948 21111 net.cpp:148] Top shape: 24 512 14 14 (2408448)
I0403 16:29:02.940963 21111 net.cpp:148] Top shape: 24 512 14 14 (2408448)
I0403 16:29:02.940979 21111 net.cpp:148] Top shape: 24 512 14 14 (2408448)
I0403 16:29:02.940999 21111 net.cpp:156] Memory required for data: 944714784
I0403 16:29:02.941014 21111 layer_factory.hpp:77] Creating layer loss1/ave_pool
I0403 16:29:02.941033 21111 net.cpp:91] Creating Layer loss1/ave_pool
I0403 16:29:02.941051 21111 net.cpp:425] loss1/ave_pool <- inception_4a/output_inception_4a/output_0_split_0
I0403 16:29:02.941069 21111 net.cpp:399] loss1/ave_pool -> loss1/ave_pool
I0403 16:29:02.941270 21111 net.cpp:141] Setting up loss1/ave_pool
I0403 16:29:02.941296 21111 net.cpp:148] Top shape: 24 512 4 4 (196608)
I0403 16:29:02.941311 21111 net.cpp:156] Memory required for data: 945501216
I0403 16:29:02.941326 21111 layer_factory.hpp:77] Creating layer loss1/conv
I0403 16:29:02.941349 21111 net.cpp:91] Creating Layer loss1/conv
I0403 16:29:02.941366 21111 net.cpp:425] loss1/conv <- loss1/ave_pool
I0403 16:29:02.941387 21111 net.cpp:399] loss1/conv -> loss1/conv
I0403 16:29:02.942775 21111 net.cpp:141] Setting up loss1/conv
I0403 16:29:02.942803 21111 net.cpp:148] Top shape: 24 128 4 4 (49152)
I0403 16:29:02.942818 21111 net.cpp:156] Memory required for data: 945697824
I0403 16:29:02.942852 21111 layer_factory.hpp:77] Creating layer loss1/relu_conv
I0403 16:29:02.942873 21111 net.cpp:91] Creating Layer loss1/relu_conv
I0403 16:29:02.942890 21111 net.cpp:425] loss1/relu_conv <- loss1/conv
I0403 16:29:02.942908 21111 net.cpp:386] loss1/relu_conv -> loss1/conv (in-place)
I0403 16:29:02.943192 21111 net.cpp:141] Setting up loss1/relu_conv
I0403 16:29:02.943220 21111 net.cpp:148] Top shape: 24 128 4 4 (49152)
I0403 16:29:02.943235 21111 net.cpp:156] Memory required for data: 945894432
I0403 16:29:02.943250 21111 layer_factory.hpp:77] Creating layer loss1/fc
I0403 16:29:02.943276 21111 net.cpp:91] Creating Layer loss1/fc
I0403 16:29:02.943295 21111 net.cpp:425] loss1/fc <- loss1/conv
I0403 16:29:02.943313 21111 net.cpp:399] loss1/fc -> loss1/fc
I0403 16:29:02.961030 21111 net.cpp:141] Setting up loss1/fc
I0403 16:29:02.961083 21111 net.cpp:148] Top shape: 24 1024 (24576)
I0403 16:29:02.961099 21111 net.cpp:156] Memory required for data: 945992736
I0403 16:29:02.961118 21111 layer_factory.hpp:77] Creating layer loss1/relu_fc
I0403 16:29:02.961139 21111 net.cpp:91] Creating Layer loss1/relu_fc
I0403 16:29:02.961158 21111 net.cpp:425] loss1/relu_fc <- loss1/fc
I0403 16:29:02.961179 21111 net.cpp:386] loss1/relu_fc -> loss1/fc (in-place)
I0403 16:29:02.961391 21111 net.cpp:141] Setting up loss1/relu_fc
I0403 16:29:02.961416 21111 net.cpp:148] Top shape: 24 1024 (24576)
I0403 16:29:02.961431 21111 net.cpp:156] Memory required for data: 946091040
I0403 16:29:02.961447 21111 layer_factory.hpp:77] Creating layer loss1/drop_fc
I0403 16:29:02.961477 21111 net.cpp:91] Creating Layer loss1/drop_fc
I0403 16:29:02.961495 21111 net.cpp:425] loss1/drop_fc <- loss1/fc
I0403 16:29:02.961513 21111 net.cpp:386] loss1/drop_fc -> loss1/fc (in-place)
I0403 16:29:02.961566 21111 net.cpp:141] Setting up loss1/drop_fc
I0403 16:29:02.961590 21111 net.cpp:148] Top shape: 24 1024 (24576)
I0403 16:29:02.961604 21111 net.cpp:156] Memory required for data: 946189344
I0403 16:29:02.961621 21111 layer_factory.hpp:77] Creating layer loss1/classifier_plantvillage
I0403 16:29:02.961642 21111 net.cpp:91] Creating Layer loss1/classifier_plantvillage
I0403 16:29:02.961659 21111 net.cpp:425] loss1/classifier_plantvillage <- loss1/fc
I0403 16:29:02.961680 21111 net.cpp:399] loss1/classifier_plantvillage -> loss1/classifier_plantvillage
I0403 16:29:02.962673 21111 net.cpp:141] Setting up loss1/classifier_plantvillage
I0403 16:29:02.962702 21111 net.cpp:148] Top shape: 24 38 (912)
I0403 16:29:02.962718 21111 net.cpp:156] Memory required for data: 946192992
I0403 16:29:02.962738 21111 layer_factory.hpp:77] Creating layer loss1/classifier_plantvillage_loss1/classifier_plantvillage_0_split
I0403 16:29:02.962757 21111 net.cpp:91] Creating Layer loss1/classifier_plantvillage_loss1/classifier_plantvillage_0_split
I0403 16:29:02.962774 21111 net.cpp:425] loss1/classifier_plantvillage_loss1/classifier_plantvillage_0_split <- loss1/classifier_plantvillage
I0403 16:29:02.962795 21111 net.cpp:399] loss1/classifier_plantvillage_loss1/classifier_plantvillage_0_split -> loss1/classifier_plantvillage_loss1/classifier_plantvillage_0_split_0
I0403 16:29:02.962816 21111 net.cpp:399] loss1/classifier_plantvillage_loss1/classifier_plantvillage_0_split -> loss1/classifier_plantvillage_loss1/classifier_plantvillage_0_split_1
I0403 16:29:02.962837 21111 net.cpp:399] loss1/classifier_plantvillage_loss1/classifier_plantvillage_0_split -> loss1/classifier_plantvillage_loss1/classifier_plantvillage_0_split_2
I0403 16:29:02.962908 21111 net.cpp:141] Setting up loss1/classifier_plantvillage_loss1/classifier_plantvillage_0_split
I0403 16:29:02.962934 21111 net.cpp:148] Top shape: 24 38 (912)
I0403 16:29:02.962951 21111 net.cpp:148] Top shape: 24 38 (912)
I0403 16:29:02.962967 21111 net.cpp:148] Top shape: 24 38 (912)
I0403 16:29:02.962981 21111 net.cpp:156] Memory required for data: 946203936
I0403 16:29:02.963002 21111 layer_factory.hpp:77] Creating layer inception_4b/1x1
I0403 16:29:02.963024 21111 net.cpp:91] Creating Layer inception_4b/1x1
I0403 16:29:02.963066 21111 net.cpp:425] inception_4b/1x1 <- inception_4a/output_inception_4a/output_0_split_1
I0403 16:29:02.963088 21111 net.cpp:399] inception_4b/1x1 -> inception_4b/1x1
I0403 16:29:02.964823 21111 net.cpp:141] Setting up inception_4b/1x1
I0403 16:29:02.964853 21111 net.cpp:148] Top shape: 24 160 14 14 (752640)
I0403 16:29:02.964869 21111 net.cpp:156] Memory required for data: 949214496
I0403 16:29:02.964889 21111 layer_factory.hpp:77] Creating layer inception_4b/relu_1x1
I0403 16:29:02.964910 21111 net.cpp:91] Creating Layer inception_4b/relu_1x1
I0403 16:29:02.964926 21111 net.cpp:425] inception_4b/relu_1x1 <- inception_4b/1x1
I0403 16:29:02.964944 21111 net.cpp:386] inception_4b/relu_1x1 -> inception_4b/1x1 (in-place)
I0403 16:29:02.965147 21111 net.cpp:141] Setting up inception_4b/relu_1x1
I0403 16:29:02.965174 21111 net.cpp:148] Top shape: 24 160 14 14 (752640)
I0403 16:29:02.965189 21111 net.cpp:156] Memory required for data: 952225056
I0403 16:29:02.965204 21111 layer_factory.hpp:77] Creating layer inception_4b/3x3_reduce
I0403 16:29:02.965230 21111 net.cpp:91] Creating Layer inception_4b/3x3_reduce
I0403 16:29:02.965250 21111 net.cpp:425] inception_4b/3x3_reduce <- inception_4a/output_inception_4a/output_0_split_2
I0403 16:29:02.965270 21111 net.cpp:399] inception_4b/3x3_reduce -> inception_4b/3x3_reduce
I0403 16:29:02.966691 21111 net.cpp:141] Setting up inception_4b/3x3_reduce
I0403 16:29:02.966719 21111 net.cpp:148] Top shape: 24 112 14 14 (526848)
I0403 16:29:02.966737 21111 net.cpp:156] Memory required for data: 954332448
I0403 16:29:02.966756 21111 layer_factory.hpp:77] Creating layer inception_4b/relu_3x3_reduce
I0403 16:29:02.966779 21111 net.cpp:91] Creating Layer inception_4b/relu_3x3_reduce
I0403 16:29:02.966809 21111 net.cpp:425] inception_4b/relu_3x3_reduce <- inception_4b/3x3_reduce
I0403 16:29:02.966827 21111 net.cpp:386] inception_4b/relu_3x3_reduce -> inception_4b/3x3_reduce (in-place)
I0403 16:29:02.967120 21111 net.cpp:141] Setting up inception_4b/relu_3x3_reduce
I0403 16:29:02.967147 21111 net.cpp:148] Top shape: 24 112 14 14 (526848)
I0403 16:29:02.967164 21111 net.cpp:156] Memory required for data: 956439840
I0403 16:29:02.967178 21111 layer_factory.hpp:77] Creating layer inception_4b/3x3
I0403 16:29:02.967203 21111 net.cpp:91] Creating Layer inception_4b/3x3
I0403 16:29:02.967222 21111 net.cpp:425] inception_4b/3x3 <- inception_4b/3x3_reduce
I0403 16:29:02.967242 21111 net.cpp:399] inception_4b/3x3 -> inception_4b/3x3
I0403 16:29:02.970314 21111 net.cpp:141] Setting up inception_4b/3x3
I0403 16:29:02.970343 21111 net.cpp:148] Top shape: 24 224 14 14 (1053696)
I0403 16:29:02.970360 21111 net.cpp:156] Memory required for data: 960654624
I0403 16:29:02.970379 21111 layer_factory.hpp:77] Creating layer inception_4b/relu_3x3
I0403 16:29:02.970398 21111 net.cpp:91] Creating Layer inception_4b/relu_3x3
I0403 16:29:02.970414 21111 net.cpp:425] inception_4b/relu_3x3 <- inception_4b/3x3
I0403 16:29:02.970435 21111 net.cpp:386] inception_4b/relu_3x3 -> inception_4b/3x3 (in-place)
I0403 16:29:02.970619 21111 net.cpp:141] Setting up inception_4b/relu_3x3
I0403 16:29:02.970645 21111 net.cpp:148] Top shape: 24 224 14 14 (1053696)
I0403 16:29:02.970661 21111 net.cpp:156] Memory required for data: 964869408
I0403 16:29:02.970676 21111 layer_factory.hpp:77] Creating layer inception_4b/5x5_reduce
I0403 16:29:02.970700 21111 net.cpp:91] Creating Layer inception_4b/5x5_reduce
I0403 16:29:02.970718 21111 net.cpp:425] inception_4b/5x5_reduce <- inception_4a/output_inception_4a/output_0_split_3
I0403 16:29:02.970741 21111 net.cpp:399] inception_4b/5x5_reduce -> inception_4b/5x5_reduce
I0403 16:29:02.971850 21111 net.cpp:141] Setting up inception_4b/5x5_reduce
I0403 16:29:02.971879 21111 net.cpp:148] Top shape: 24 24 14 14 (112896)
I0403 16:29:02.971894 21111 net.cpp:156] Memory required for data: 965320992
I0403 16:29:02.971914 21111 layer_factory.hpp:77] Creating layer inception_4b/relu_5x5_reduce
I0403 16:29:02.971935 21111 net.cpp:91] Creating Layer inception_4b/relu_5x5_reduce
I0403 16:29:02.971967 21111 net.cpp:425] inception_4b/relu_5x5_reduce <- inception_4b/5x5_reduce
I0403 16:29:02.971990 21111 net.cpp:386] inception_4b/relu_5x5_reduce -> inception_4b/5x5_reduce (in-place)
I0403 16:29:02.972179 21111 net.cpp:141] Setting up inception_4b/relu_5x5_reduce
I0403 16:29:02.972208 21111 net.cpp:148] Top shape: 24 24 14 14 (112896)
I0403 16:29:02.972225 21111 net.cpp:156] Memory required for data: 965772576
I0403 16:29:02.972240 21111 layer_factory.hpp:77] Creating layer inception_4b/5x5
I0403 16:29:02.972264 21111 net.cpp:91] Creating Layer inception_4b/5x5
I0403 16:29:02.972281 21111 net.cpp:425] inception_4b/5x5 <- inception_4b/5x5_reduce
I0403 16:29:02.972301 21111 net.cpp:399] inception_4b/5x5 -> inception_4b/5x5
I0403 16:29:02.973553 21111 net.cpp:141] Setting up inception_4b/5x5
I0403 16:29:02.973582 21111 net.cpp:148] Top shape: 24 64 14 14 (301056)
I0403 16:29:02.973598 21111 net.cpp:156] Memory required for data: 966976800
I0403 16:29:02.973616 21111 layer_factory.hpp:77] Creating layer inception_4b/relu_5x5
I0403 16:29:02.973639 21111 net.cpp:91] Creating Layer inception_4b/relu_5x5
I0403 16:29:02.973655 21111 net.cpp:425] inception_4b/relu_5x5 <- inception_4b/5x5
I0403 16:29:02.973673 21111 net.cpp:386] inception_4b/relu_5x5 -> inception_4b/5x5 (in-place)
I0403 16:29:02.973961 21111 net.cpp:141] Setting up inception_4b/relu_5x5
I0403 16:29:02.973992 21111 net.cpp:148] Top shape: 24 64 14 14 (301056)
I0403 16:29:02.974010 21111 net.cpp:156] Memory required for data: 968181024
I0403 16:29:02.974026 21111 layer_factory.hpp:77] Creating layer inception_4b/pool
I0403 16:29:02.974047 21111 net.cpp:91] Creating Layer inception_4b/pool
I0403 16:29:02.974066 21111 net.cpp:425] inception_4b/pool <- inception_4a/output_inception_4a/output_0_split_4
I0403 16:29:02.974084 21111 net.cpp:399] inception_4b/pool -> inception_4b/pool
I0403 16:29:02.974154 21111 net.cpp:141] Setting up inception_4b/pool
I0403 16:29:02.974179 21111 net.cpp:148] Top shape: 24 512 14 14 (2408448)
I0403 16:29:02.974195 21111 net.cpp:156] Memory required for data: 977814816
I0403 16:29:02.974211 21111 layer_factory.hpp:77] Creating layer inception_4b/pool_proj
I0403 16:29:02.974236 21111 net.cpp:91] Creating Layer inception_4b/pool_proj
I0403 16:29:02.974256 21111 net.cpp:425] inception_4b/pool_proj <- inception_4b/pool
I0403 16:29:02.974278 21111 net.cpp:399] inception_4b/pool_proj -> inception_4b/pool_proj
I0403 16:29:02.975502 21111 net.cpp:141] Setting up inception_4b/pool_proj
I0403 16:29:02.975531 21111 net.cpp:148] Top shape: 24 64 14 14 (301056)
I0403 16:29:02.975548 21111 net.cpp:156] Memory required for data: 979019040
I0403 16:29:02.975566 21111 layer_factory.hpp:77] Creating layer inception_4b/relu_pool_proj
I0403 16:29:02.975589 21111 net.cpp:91] Creating Layer inception_4b/relu_pool_proj
I0403 16:29:02.975607 21111 net.cpp:425] inception_4b/relu_pool_proj <- inception_4b/pool_proj
I0403 16:29:02.975625 21111 net.cpp:386] inception_4b/relu_pool_proj -> inception_4b/pool_proj (in-place)
I0403 16:29:02.975807 21111 net.cpp:141] Setting up inception_4b/relu_pool_proj
I0403 16:29:02.975838 21111 net.cpp:148] Top shape: 24 64 14 14 (301056)
I0403 16:29:02.975855 21111 net.cpp:156] Memory required for data: 980223264
I0403 16:29:02.975872 21111 layer_factory.hpp:77] Creating layer inception_4b/output
I0403 16:29:02.975889 21111 net.cpp:91] Creating Layer inception_4b/output
I0403 16:29:02.975905 21111 net.cpp:425] inception_4b/output <- inception_4b/1x1
I0403 16:29:02.975924 21111 net.cpp:425] inception_4b/output <- inception_4b/3x3
I0403 16:29:02.975940 21111 net.cpp:425] inception_4b/output <- inception_4b/5x5
I0403 16:29:02.975956 21111 net.cpp:425] inception_4b/output <- inception_4b/pool_proj
I0403 16:29:02.975977 21111 net.cpp:399] inception_4b/output -> inception_4b/output
I0403 16:29:02.976030 21111 net.cpp:141] Setting up inception_4b/output
I0403 16:29:02.976055 21111 net.cpp:148] Top shape: 24 512 14 14 (2408448)
I0403 16:29:02.976070 21111 net.cpp:156] Memory required for data: 989857056
I0403 16:29:02.976099 21111 layer_factory.hpp:77] Creating layer inception_4b/output_inception_4b/output_0_split
I0403 16:29:02.976121 21111 net.cpp:91] Creating Layer inception_4b/output_inception_4b/output_0_split
I0403 16:29:02.976138 21111 net.cpp:425] inception_4b/output_inception_4b/output_0_split <- inception_4b/output
I0403 16:29:02.976156 21111 net.cpp:399] inception_4b/output_inception_4b/output_0_split -> inception_4b/output_inception_4b/output_0_split_0
I0403 16:29:02.976177 21111 net.cpp:399] inception_4b/output_inception_4b/output_0_split -> inception_4b/output_inception_4b/output_0_split_1
I0403 16:29:02.976198 21111 net.cpp:399] inception_4b/output_inception_4b/output_0_split -> inception_4b/output_inception_4b/output_0_split_2
I0403 16:29:02.976223 21111 net.cpp:399] inception_4b/output_inception_4b/output_0_split -> inception_4b/output_inception_4b/output_0_split_3
I0403 16:29:02.976311 21111 net.cpp:141] Setting up inception_4b/output_inception_4b/output_0_split
I0403 16:29:02.976336 21111 net.cpp:148] Top shape: 24 512 14 14 (2408448)
I0403 16:29:02.976352 21111 net.cpp:148] Top shape: 24 512 14 14 (2408448)
I0403 16:29:02.976368 21111 net.cpp:148] Top shape: 24 512 14 14 (2408448)
I0403 16:29:02.976384 21111 net.cpp:148] Top shape: 24 512 14 14 (2408448)
I0403 16:29:02.976399 21111 net.cpp:156] Memory required for data: 1028392224
I0403 16:29:02.976414 21111 layer_factory.hpp:77] Creating layer inception_4c/1x1
I0403 16:29:02.976438 21111 net.cpp:91] Creating Layer inception_4c/1x1
I0403 16:29:02.976455 21111 net.cpp:425] inception_4c/1x1 <- inception_4b/output_inception_4b/output_0_split_0
I0403 16:29:02.976477 21111 net.cpp:399] inception_4c/1x1 -> inception_4c/1x1
I0403 16:29:02.977948 21111 net.cpp:141] Setting up inception_4c/1x1
I0403 16:29:02.977980 21111 net.cpp:148] Top shape: 24 128 14 14 (602112)
I0403 16:29:02.978003 21111 net.cpp:156] Memory required for data: 1030800672
I0403 16:29:02.978024 21111 layer_factory.hpp:77] Creating layer inception_4c/relu_1x1
I0403 16:29:02.978042 21111 net.cpp:91] Creating Layer inception_4c/relu_1x1
I0403 16:29:02.978058 21111 net.cpp:425] inception_4c/relu_1x1 <- inception_4c/1x1
I0403 16:29:02.978080 21111 net.cpp:386] inception_4c/relu_1x1 -> inception_4c/1x1 (in-place)
I0403 16:29:02.978265 21111 net.cpp:141] Setting up inception_4c/relu_1x1
I0403 16:29:02.978289 21111 net.cpp:148] Top shape: 24 128 14 14 (602112)
I0403 16:29:02.978304 21111 net.cpp:156] Memory required for data: 1033209120
I0403 16:29:02.978320 21111 layer_factory.hpp:77] Creating layer inception_4c/3x3_reduce
I0403 16:29:02.978346 21111 net.cpp:91] Creating Layer inception_4c/3x3_reduce
I0403 16:29:02.978364 21111 net.cpp:425] inception_4c/3x3_reduce <- inception_4b/output_inception_4b/output_0_split_1
I0403 16:29:02.978387 21111 net.cpp:399] inception_4c/3x3_reduce -> inception_4c/3x3_reduce
I0403 16:29:02.980419 21111 net.cpp:141] Setting up inception_4c/3x3_reduce
I0403 16:29:02.980448 21111 net.cpp:148] Top shape: 24 128 14 14 (602112)
I0403 16:29:02.980464 21111 net.cpp:156] Memory required for data: 1035617568
I0403 16:29:02.980484 21111 layer_factory.hpp:77] Creating layer inception_4c/relu_3x3_reduce
I0403 16:29:02.980512 21111 net.cpp:91] Creating Layer inception_4c/relu_3x3_reduce
I0403 16:29:02.980530 21111 net.cpp:425] inception_4c/relu_3x3_reduce <- inception_4c/3x3_reduce
I0403 16:29:02.980550 21111 net.cpp:386] inception_4c/relu_3x3_reduce -> inception_4c/3x3_reduce (in-place)
I0403 16:29:02.980870 21111 net.cpp:141] Setting up inception_4c/relu_3x3_reduce
I0403 16:29:02.980903 21111 net.cpp:148] Top shape: 24 128 14 14 (602112)
I0403 16:29:02.980918 21111 net.cpp:156] Memory required for data: 1038026016
I0403 16:29:02.980934 21111 layer_factory.hpp:77] Creating layer inception_4c/3x3
I0403 16:29:02.980957 21111 net.cpp:91] Creating Layer inception_4c/3x3
I0403 16:29:02.980975 21111 net.cpp:425] inception_4c/3x3 <- inception_4c/3x3_reduce
I0403 16:29:02.981003 21111 net.cpp:399] inception_4c/3x3 -> inception_4c/3x3
I0403 16:29:02.984598 21111 net.cpp:141] Setting up inception_4c/3x3
I0403 16:29:02.984639 21111 net.cpp:148] Top shape: 24 256 14 14 (1204224)
I0403 16:29:02.984654 21111 net.cpp:156] Memory required for data: 1042842912
I0403 16:29:02.984686 21111 layer_factory.hpp:77] Creating layer inception_4c/relu_3x3
I0403 16:29:02.984709 21111 net.cpp:91] Creating Layer inception_4c/relu_3x3
I0403 16:29:02.984726 21111 net.cpp:425] inception_4c/relu_3x3 <- inception_4c/3x3
I0403 16:29:02.984743 21111 net.cpp:386] inception_4c/relu_3x3 -> inception_4c/3x3 (in-place)
I0403 16:29:02.984920 21111 net.cpp:141] Setting up inception_4c/relu_3x3
I0403 16:29:02.984944 21111 net.cpp:148] Top shape: 24 256 14 14 (1204224)
I0403 16:29:02.984958 21111 net.cpp:156] Memory required for data: 1047659808
I0403 16:29:02.984973 21111 layer_factory.hpp:77] Creating layer inception_4c/5x5_reduce
I0403 16:29:02.985002 21111 net.cpp:91] Creating Layer inception_4c/5x5_reduce
I0403 16:29:02.985021 21111 net.cpp:425] inception_4c/5x5_reduce <- inception_4b/output_inception_4b/output_0_split_2
I0403 16:29:02.985040 21111 net.cpp:399] inception_4c/5x5_reduce -> inception_4c/5x5_reduce
I0403 16:29:02.986091 21111 net.cpp:141] Setting up inception_4c/5x5_reduce
I0403 16:29:02.986119 21111 net.cpp:148] Top shape: 24 24 14 14 (112896)
I0403 16:29:02.986134 21111 net.cpp:156] Memory required for data: 1048111392
I0403 16:29:02.986152 21111 layer_factory.hpp:77] Creating layer inception_4c/relu_5x5_reduce
I0403 16:29:02.986171 21111 net.cpp:91] Creating Layer inception_4c/relu_5x5_reduce
I0403 16:29:02.986188 21111 net.cpp:425] inception_4c/relu_5x5_reduce <- inception_4c/5x5_reduce
I0403 16:29:02.986207 21111 net.cpp:386] inception_4c/relu_5x5_reduce -> inception_4c/5x5_reduce (in-place)
I0403 16:29:02.986382 21111 net.cpp:141] Setting up inception_4c/relu_5x5_reduce
I0403 16:29:02.986408 21111 net.cpp:148] Top shape: 24 24 14 14 (112896)
I0403 16:29:02.986424 21111 net.cpp:156] Memory required for data: 1048562976
I0403 16:29:02.986439 21111 layer_factory.hpp:77] Creating layer inception_4c/5x5
I0403 16:29:02.986461 21111 net.cpp:91] Creating Layer inception_4c/5x5
I0403 16:29:02.986479 21111 net.cpp:425] inception_4c/5x5 <- inception_4c/5x5_reduce
I0403 16:29:02.986497 21111 net.cpp:399] inception_4c/5x5 -> inception_4c/5x5
I0403 16:29:02.987696 21111 net.cpp:141] Setting up inception_4c/5x5
I0403 16:29:02.987728 21111 net.cpp:148] Top shape: 24 64 14 14 (301056)
I0403 16:29:02.987745 21111 net.cpp:156] Memory required for data: 1049767200
I0403 16:29:02.987762 21111 layer_factory.hpp:77] Creating layer inception_4c/relu_5x5
I0403 16:29:02.987781 21111 net.cpp:91] Creating Layer inception_4c/relu_5x5
I0403 16:29:02.987797 21111 net.cpp:425] inception_4c/relu_5x5 <- inception_4c/5x5
I0403 16:29:02.987815 21111 net.cpp:386] inception_4c/relu_5x5 -> inception_4c/5x5 (in-place)
I0403 16:29:02.988100 21111 net.cpp:141] Setting up inception_4c/relu_5x5
I0403 16:29:02.988127 21111 net.cpp:148] Top shape: 24 64 14 14 (301056)
I0403 16:29:02.988143 21111 net.cpp:156] Memory required for data: 1050971424
I0403 16:29:02.988158 21111 layer_factory.hpp:77] Creating layer inception_4c/pool
I0403 16:29:02.988175 21111 net.cpp:91] Creating Layer inception_4c/pool
I0403 16:29:02.988191 21111 net.cpp:425] inception_4c/pool <- inception_4b/output_inception_4b/output_0_split_3
I0403 16:29:02.988211 21111 net.cpp:399] inception_4c/pool -> inception_4c/pool
I0403 16:29:02.988275 21111 net.cpp:141] Setting up inception_4c/pool
I0403 16:29:02.988298 21111 net.cpp:148] Top shape: 24 512 14 14 (2408448)
I0403 16:29:02.988313 21111 net.cpp:156] Memory required for data: 1060605216
I0403 16:29:02.988327 21111 layer_factory.hpp:77] Creating layer inception_4c/pool_proj
I0403 16:29:02.988349 21111 net.cpp:91] Creating Layer inception_4c/pool_proj
I0403 16:29:02.988366 21111 net.cpp:425] inception_4c/pool_proj <- inception_4c/pool
I0403 16:29:02.988387 21111 net.cpp:399] inception_4c/pool_proj -> inception_4c/pool_proj
I0403 16:29:02.989610 21111 net.cpp:141] Setting up inception_4c/pool_proj
I0403 16:29:02.989639 21111 net.cpp:148] Top shape: 24 64 14 14 (301056)
I0403 16:29:02.989668 21111 net.cpp:156] Memory required for data: 1061809440
I0403 16:29:02.989688 21111 layer_factory.hpp:77] Creating layer inception_4c/relu_pool_proj
I0403 16:29:02.989711 21111 net.cpp:91] Creating Layer inception_4c/relu_pool_proj
I0403 16:29:02.989728 21111 net.cpp:425] inception_4c/relu_pool_proj <- inception_4c/pool_proj
I0403 16:29:02.989748 21111 net.cpp:386] inception_4c/relu_pool_proj -> inception_4c/pool_proj (in-place)
I0403 16:29:02.989929 21111 net.cpp:141] Setting up inception_4c/relu_pool_proj
I0403 16:29:02.989958 21111 net.cpp:148] Top shape: 24 64 14 14 (301056)
I0403 16:29:02.989974 21111 net.cpp:156] Memory required for data: 1063013664
I0403 16:29:02.989995 21111 layer_factory.hpp:77] Creating layer inception_4c/output
I0403 16:29:02.990013 21111 net.cpp:91] Creating Layer inception_4c/output
I0403 16:29:02.990030 21111 net.cpp:425] inception_4c/output <- inception_4c/1x1
I0403 16:29:02.990046 21111 net.cpp:425] inception_4c/output <- inception_4c/3x3
I0403 16:29:02.990062 21111 net.cpp:425] inception_4c/output <- inception_4c/5x5
I0403 16:29:02.990078 21111 net.cpp:425] inception_4c/output <- inception_4c/pool_proj
I0403 16:29:02.990098 21111 net.cpp:399] inception_4c/output -> inception_4c/output
I0403 16:29:02.990146 21111 net.cpp:141] Setting up inception_4c/output
I0403 16:29:02.990170 21111 net.cpp:148] Top shape: 24 512 14 14 (2408448)
I0403 16:29:02.990183 21111 net.cpp:156] Memory required for data: 1072647456
I0403 16:29:02.990198 21111 layer_factory.hpp:77] Creating layer inception_4c/output_inception_4c/output_0_split
I0403 16:29:02.990221 21111 net.cpp:91] Creating Layer inception_4c/output_inception_4c/output_0_split
I0403 16:29:02.990237 21111 net.cpp:425] inception_4c/output_inception_4c/output_0_split <- inception_4c/output
I0403 16:29:02.990255 21111 net.cpp:399] inception_4c/output_inception_4c/output_0_split -> inception_4c/output_inception_4c/output_0_split_0
I0403 16:29:02.990275 21111 net.cpp:399] inception_4c/output_inception_4c/output_0_split -> inception_4c/output_inception_4c/output_0_split_1
I0403 16:29:02.990295 21111 net.cpp:399] inception_4c/output_inception_4c/output_0_split -> inception_4c/output_inception_4c/output_0_split_2
I0403 16:29:02.990319 21111 net.cpp:399] inception_4c/output_inception_4c/output_0_split -> inception_4c/output_inception_4c/output_0_split_3
I0403 16:29:02.990407 21111 net.cpp:141] Setting up inception_4c/output_inception_4c/output_0_split
I0403 16:29:02.990432 21111 net.cpp:148] Top shape: 24 512 14 14 (2408448)
I0403 16:29:02.990448 21111 net.cpp:148] Top shape: 24 512 14 14 (2408448)
I0403 16:29:02.990463 21111 net.cpp:148] Top shape: 24 512 14 14 (2408448)
I0403 16:29:02.990479 21111 net.cpp:148] Top shape: 24 512 14 14 (2408448)
I0403 16:29:02.990494 21111 net.cpp:156] Memory required for data: 1111182624
I0403 16:29:02.990509 21111 layer_factory.hpp:77] Creating layer inception_4d/1x1
I0403 16:29:02.990531 21111 net.cpp:91] Creating Layer inception_4d/1x1
I0403 16:29:02.990550 21111 net.cpp:425] inception_4d/1x1 <- inception_4c/output_inception_4c/output_0_split_0
I0403 16:29:02.990571 21111 net.cpp:399] inception_4d/1x1 -> inception_4d/1x1
I0403 16:29:02.991916 21111 net.cpp:141] Setting up inception_4d/1x1
I0403 16:29:02.991945 21111 net.cpp:148] Top shape: 24 112 14 14 (526848)
I0403 16:29:02.991960 21111 net.cpp:156] Memory required for data: 1113290016
I0403 16:29:02.991977 21111 layer_factory.hpp:77] Creating layer inception_4d/relu_1x1
I0403 16:29:02.992002 21111 net.cpp:91] Creating Layer inception_4d/relu_1x1
I0403 16:29:02.992019 21111 net.cpp:425] inception_4d/relu_1x1 <- inception_4d/1x1
I0403 16:29:02.992038 21111 net.cpp:386] inception_4d/relu_1x1 -> inception_4d/1x1 (in-place)
I0403 16:29:02.992215 21111 net.cpp:141] Setting up inception_4d/relu_1x1
I0403 16:29:02.992240 21111 net.cpp:148] Top shape: 24 112 14 14 (526848)
I0403 16:29:02.992254 21111 net.cpp:156] Memory required for data: 1115397408
I0403 16:29:02.992269 21111 layer_factory.hpp:77] Creating layer inception_4d/3x3_reduce
I0403 16:29:02.992303 21111 net.cpp:91] Creating Layer inception_4d/3x3_reduce
I0403 16:29:02.992321 21111 net.cpp:425] inception_4d/3x3_reduce <- inception_4c/output_inception_4c/output_0_split_1
I0403 16:29:02.992342 21111 net.cpp:399] inception_4d/3x3_reduce -> inception_4d/3x3_reduce
I0403 16:29:02.993808 21111 net.cpp:141] Setting up inception_4d/3x3_reduce
I0403 16:29:02.993839 21111 net.cpp:148] Top shape: 24 144 14 14 (677376)
I0403 16:29:02.993854 21111 net.cpp:156] Memory required for data: 1118106912
I0403 16:29:02.993871 21111 layer_factory.hpp:77] Creating layer inception_4d/relu_3x3_reduce
I0403 16:29:02.993888 21111 net.cpp:91] Creating Layer inception_4d/relu_3x3_reduce
I0403 16:29:02.993904 21111 net.cpp:425] inception_4d/relu_3x3_reduce <- inception_4d/3x3_reduce
I0403 16:29:02.993923 21111 net.cpp:386] inception_4d/relu_3x3_reduce -> inception_4d/3x3_reduce (in-place)
I0403 16:29:02.994215 21111 net.cpp:141] Setting up inception_4d/relu_3x3_reduce
I0403 16:29:02.994242 21111 net.cpp:148] Top shape: 24 144 14 14 (677376)
I0403 16:29:02.994257 21111 net.cpp:156] Memory required for data: 1120816416
I0403 16:29:02.994271 21111 layer_factory.hpp:77] Creating layer inception_4d/3x3
I0403 16:29:02.994293 21111 net.cpp:91] Creating Layer inception_4d/3x3
I0403 16:29:02.994312 21111 net.cpp:425] inception_4d/3x3 <- inception_4d/3x3_reduce
I0403 16:29:02.994333 21111 net.cpp:399] inception_4d/3x3 -> inception_4d/3x3
I0403 16:29:02.998538 21111 net.cpp:141] Setting up inception_4d/3x3
I0403 16:29:02.998565 21111 net.cpp:148] Top shape: 24 288 14 14 (1354752)
I0403 16:29:02.998581 21111 net.cpp:156] Memory required for data: 1126235424
I0403 16:29:02.998600 21111 layer_factory.hpp:77] Creating layer inception_4d/relu_3x3
I0403 16:29:02.998617 21111 net.cpp:91] Creating Layer inception_4d/relu_3x3
I0403 16:29:02.998633 21111 net.cpp:425] inception_4d/relu_3x3 <- inception_4d/3x3
I0403 16:29:02.998653 21111 net.cpp:386] inception_4d/relu_3x3 -> inception_4d/3x3 (in-place)
I0403 16:29:02.998836 21111 net.cpp:141] Setting up inception_4d/relu_3x3
I0403 16:29:02.998859 21111 net.cpp:148] Top shape: 24 288 14 14 (1354752)
I0403 16:29:02.998874 21111 net.cpp:156] Memory required for data: 1131654432
I0403 16:29:02.998889 21111 layer_factory.hpp:77] Creating layer inception_4d/5x5_reduce
I0403 16:29:02.998911 21111 net.cpp:91] Creating Layer inception_4d/5x5_reduce
I0403 16:29:02.998929 21111 net.cpp:425] inception_4d/5x5_reduce <- inception_4c/output_inception_4c/output_0_split_2
I0403 16:29:02.998951 21111 net.cpp:399] inception_4d/5x5_reduce -> inception_4d/5x5_reduce
I0403 16:29:03.000099 21111 net.cpp:141] Setting up inception_4d/5x5_reduce
I0403 16:29:03.000128 21111 net.cpp:148] Top shape: 24 32 14 14 (150528)
I0403 16:29:03.000144 21111 net.cpp:156] Memory required for data: 1132256544
I0403 16:29:03.000162 21111 layer_factory.hpp:77] Creating layer inception_4d/relu_5x5_reduce
I0403 16:29:03.000183 21111 net.cpp:91] Creating Layer inception_4d/relu_5x5_reduce
I0403 16:29:03.000201 21111 net.cpp:425] inception_4d/relu_5x5_reduce <- inception_4d/5x5_reduce
I0403 16:29:03.000219 21111 net.cpp:386] inception_4d/relu_5x5_reduce -> inception_4d/5x5_reduce (in-place)
I0403 16:29:03.000409 21111 net.cpp:141] Setting up inception_4d/relu_5x5_reduce
I0403 16:29:03.000434 21111 net.cpp:148] Top shape: 24 32 14 14 (150528)
I0403 16:29:03.000449 21111 net.cpp:156] Memory required for data: 1132858656
I0403 16:29:03.000464 21111 layer_factory.hpp:77] Creating layer inception_4d/5x5
I0403 16:29:03.000488 21111 net.cpp:91] Creating Layer inception_4d/5x5
I0403 16:29:03.000506 21111 net.cpp:425] inception_4d/5x5 <- inception_4d/5x5_reduce
I0403 16:29:03.000526 21111 net.cpp:399] inception_4d/5x5 -> inception_4d/5x5
I0403 16:29:03.002002 21111 net.cpp:141] Setting up inception_4d/5x5
I0403 16:29:03.002032 21111 net.cpp:148] Top shape: 24 64 14 14 (301056)
I0403 16:29:03.002048 21111 net.cpp:156] Memory required for data: 1134062880
I0403 16:29:03.002068 21111 layer_factory.hpp:77] Creating layer inception_4d/relu_5x5
I0403 16:29:03.002104 21111 net.cpp:91] Creating Layer inception_4d/relu_5x5
I0403 16:29:03.002123 21111 net.cpp:425] inception_4d/relu_5x5 <- inception_4d/5x5
I0403 16:29:03.002142 21111 net.cpp:386] inception_4d/relu_5x5 -> inception_4d/5x5 (in-place)
I0403 16:29:03.002451 21111 net.cpp:141] Setting up inception_4d/relu_5x5
I0403 16:29:03.002490 21111 net.cpp:148] Top shape: 24 64 14 14 (301056)
I0403 16:29:03.002506 21111 net.cpp:156] Memory required for data: 1135267104
I0403 16:29:03.002521 21111 layer_factory.hpp:77] Creating layer inception_4d/pool
I0403 16:29:03.002540 21111 net.cpp:91] Creating Layer inception_4d/pool
I0403 16:29:03.002557 21111 net.cpp:425] inception_4d/pool <- inception_4c/output_inception_4c/output_0_split_3
I0403 16:29:03.002576 21111 net.cpp:399] inception_4d/pool -> inception_4d/pool
I0403 16:29:03.002660 21111 net.cpp:141] Setting up inception_4d/pool
I0403 16:29:03.002684 21111 net.cpp:148] Top shape: 24 512 14 14 (2408448)
I0403 16:29:03.002699 21111 net.cpp:156] Memory required for data: 1144900896
I0403 16:29:03.002715 21111 layer_factory.hpp:77] Creating layer inception_4d/pool_proj
I0403 16:29:03.002738 21111 net.cpp:91] Creating Layer inception_4d/pool_proj
I0403 16:29:03.002756 21111 net.cpp:425] inception_4d/pool_proj <- inception_4d/pool
I0403 16:29:03.002779 21111 net.cpp:399] inception_4d/pool_proj -> inception_4d/pool_proj
I0403 16:29:03.004564 21111 net.cpp:141] Setting up inception_4d/pool_proj
I0403 16:29:03.004592 21111 net.cpp:148] Top shape: 24 64 14 14 (301056)
I0403 16:29:03.004608 21111 net.cpp:156] Memory required for data: 1146105120
I0403 16:29:03.004627 21111 layer_factory.hpp:77] Creating layer inception_4d/relu_pool_proj
I0403 16:29:03.004647 21111 net.cpp:91] Creating Layer inception_4d/relu_pool_proj
I0403 16:29:03.004665 21111 net.cpp:425] inception_4d/relu_pool_proj <- inception_4d/pool_proj
I0403 16:29:03.004683 21111 net.cpp:386] inception_4d/relu_pool_proj -> inception_4d/pool_proj (in-place)
I0403 16:29:03.004866 21111 net.cpp:141] Setting up inception_4d/relu_pool_proj
I0403 16:29:03.004891 21111 net.cpp:148] Top shape: 24 64 14 14 (301056)
I0403 16:29:03.004906 21111 net.cpp:156] Memory required for data: 1147309344
I0403 16:29:03.004922 21111 layer_factory.hpp:77] Creating layer inception_4d/output
I0403 16:29:03.004941 21111 net.cpp:91] Creating Layer inception_4d/output
I0403 16:29:03.004971 21111 net.cpp:425] inception_4d/output <- inception_4d/1x1
I0403 16:29:03.004994 21111 net.cpp:425] inception_4d/output <- inception_4d/3x3
I0403 16:29:03.005013 21111 net.cpp:425] inception_4d/output <- inception_4d/5x5
I0403 16:29:03.005031 21111 net.cpp:425] inception_4d/output <- inception_4d/pool_proj
I0403 16:29:03.005049 21111 net.cpp:399] inception_4d/output -> inception_4d/output
I0403 16:29:03.005101 21111 net.cpp:141] Setting up inception_4d/output
I0403 16:29:03.005126 21111 net.cpp:148] Top shape: 24 528 14 14 (2483712)
I0403 16:29:03.005142 21111 net.cpp:156] Memory required for data: 1157244192
I0403 16:29:03.005157 21111 layer_factory.hpp:77] Creating layer inception_4d/output_inception_4d/output_0_split
I0403 16:29:03.005175 21111 net.cpp:91] Creating Layer inception_4d/output_inception_4d/output_0_split
I0403 16:29:03.005192 21111 net.cpp:425] inception_4d/output_inception_4d/output_0_split <- inception_4d/output
I0403 16:29:03.005214 21111 net.cpp:399] inception_4d/output_inception_4d/output_0_split -> inception_4d/output_inception_4d/output_0_split_0
I0403 16:29:03.005237 21111 net.cpp:399] inception_4d/output_inception_4d/output_0_split -> inception_4d/output_inception_4d/output_0_split_1
I0403 16:29:03.005259 21111 net.cpp:399] inception_4d/output_inception_4d/output_0_split -> inception_4d/output_inception_4d/output_0_split_2
I0403 16:29:03.005291 21111 net.cpp:399] inception_4d/output_inception_4d/output_0_split -> inception_4d/output_inception_4d/output_0_split_3
I0403 16:29:03.005311 21111 net.cpp:399] inception_4d/output_inception_4d/output_0_split -> inception_4d/output_inception_4d/output_0_split_4
I0403 16:29:03.005415 21111 net.cpp:141] Setting up inception_4d/output_inception_4d/output_0_split
I0403 16:29:03.005455 21111 net.cpp:148] Top shape: 24 528 14 14 (2483712)
I0403 16:29:03.005471 21111 net.cpp:148] Top shape: 24 528 14 14 (2483712)
I0403 16:29:03.005487 21111 net.cpp:148] Top shape: 24 528 14 14 (2483712)
I0403 16:29:03.005503 21111 net.cpp:148] Top shape: 24 528 14 14 (2483712)
I0403 16:29:03.005518 21111 net.cpp:148] Top shape: 24 528 14 14 (2483712)
I0403 16:29:03.005532 21111 net.cpp:156] Memory required for data: 1206918432
I0403 16:29:03.005548 21111 layer_factory.hpp:77] Creating layer loss2/ave_pool
I0403 16:29:03.005565 21111 net.cpp:91] Creating Layer loss2/ave_pool
I0403 16:29:03.005581 21111 net.cpp:425] loss2/ave_pool <- inception_4d/output_inception_4d/output_0_split_0
I0403 16:29:03.005604 21111 net.cpp:399] loss2/ave_pool -> loss2/ave_pool
I0403 16:29:03.005916 21111 net.cpp:141] Setting up loss2/ave_pool
I0403 16:29:03.005942 21111 net.cpp:148] Top shape: 24 528 4 4 (202752)
I0403 16:29:03.005957 21111 net.cpp:156] Memory required for data: 1207729440
I0403 16:29:03.005972 21111 layer_factory.hpp:77] Creating layer loss2/conv
I0403 16:29:03.006000 21111 net.cpp:91] Creating Layer loss2/conv
I0403 16:29:03.006018 21111 net.cpp:425] loss2/conv <- loss2/ave_pool
I0403 16:29:03.006041 21111 net.cpp:399] loss2/conv -> loss2/conv
I0403 16:29:03.007930 21111 net.cpp:141] Setting up loss2/conv
I0403 16:29:03.007961 21111 net.cpp:148] Top shape: 24 128 4 4 (49152)
I0403 16:29:03.007978 21111 net.cpp:156] Memory required for data: 1207926048
I0403 16:29:03.008002 21111 layer_factory.hpp:77] Creating layer loss2/relu_conv
I0403 16:29:03.008023 21111 net.cpp:91] Creating Layer loss2/relu_conv
I0403 16:29:03.008038 21111 net.cpp:425] loss2/relu_conv <- loss2/conv
I0403 16:29:03.008056 21111 net.cpp:386] loss2/relu_conv -> loss2/conv (in-place)
I0403 16:29:03.008347 21111 net.cpp:141] Setting up loss2/relu_conv
I0403 16:29:03.008376 21111 net.cpp:148] Top shape: 24 128 4 4 (49152)
I0403 16:29:03.008393 21111 net.cpp:156] Memory required for data: 1208122656
I0403 16:29:03.008407 21111 layer_factory.hpp:77] Creating layer loss2/fc
I0403 16:29:03.008427 21111 net.cpp:91] Creating Layer loss2/fc
I0403 16:29:03.008445 21111 net.cpp:425] loss2/fc <- loss2/conv
I0403 16:29:03.008468 21111 net.cpp:399] loss2/fc -> loss2/fc
I0403 16:29:03.025924 21111 net.cpp:141] Setting up loss2/fc
I0403 16:29:03.025952 21111 net.cpp:148] Top shape: 24 1024 (24576)
I0403 16:29:03.025969 21111 net.cpp:156] Memory required for data: 1208220960
I0403 16:29:03.025990 21111 layer_factory.hpp:77] Creating layer loss2/relu_fc
I0403 16:29:03.026013 21111 net.cpp:91] Creating Layer loss2/relu_fc
I0403 16:29:03.026031 21111 net.cpp:425] loss2/relu_fc <- loss2/fc
I0403 16:29:03.026051 21111 net.cpp:386] loss2/relu_fc -> loss2/fc (in-place)
I0403 16:29:03.026355 21111 net.cpp:141] Setting up loss2/relu_fc
I0403 16:29:03.026381 21111 net.cpp:148] Top shape: 24 1024 (24576)
I0403 16:29:03.026396 21111 net.cpp:156] Memory required for data: 1208319264
I0403 16:29:03.026412 21111 layer_factory.hpp:77] Creating layer loss2/drop_fc
I0403 16:29:03.026432 21111 net.cpp:91] Creating Layer loss2/drop_fc
I0403 16:29:03.026450 21111 net.cpp:425] loss2/drop_fc <- loss2/fc
I0403 16:29:03.026468 21111 net.cpp:386] loss2/drop_fc -> loss2/fc (in-place)
I0403 16:29:03.026515 21111 net.cpp:141] Setting up loss2/drop_fc
I0403 16:29:03.026541 21111 net.cpp:148] Top shape: 24 1024 (24576)
I0403 16:29:03.026556 21111 net.cpp:156] Memory required for data: 1208417568
I0403 16:29:03.026571 21111 layer_factory.hpp:77] Creating layer loss2/classifier_plantvillage
I0403 16:29:03.026589 21111 net.cpp:91] Creating Layer loss2/classifier_plantvillage
I0403 16:29:03.026605 21111 net.cpp:425] loss2/classifier_plantvillage <- loss2/fc
I0403 16:29:03.026628 21111 net.cpp:399] loss2/classifier_plantvillage -> loss2/classifier_plantvillage
I0403 16:29:03.027042 21111 net.cpp:141] Setting up loss2/classifier_plantvillage
I0403 16:29:03.027067 21111 net.cpp:148] Top shape: 24 38 (912)
I0403 16:29:03.027082 21111 net.cpp:156] Memory required for data: 1208421216
I0403 16:29:03.027117 21111 layer_factory.hpp:77] Creating layer loss2/classifier_plantvillage_loss2/classifier_plantvillage_0_split
I0403 16:29:03.027137 21111 net.cpp:91] Creating Layer loss2/classifier_plantvillage_loss2/classifier_plantvillage_0_split
I0403 16:29:03.027153 21111 net.cpp:425] loss2/classifier_plantvillage_loss2/classifier_plantvillage_0_split <- loss2/classifier_plantvillage
I0403 16:29:03.027170 21111 net.cpp:399] loss2/classifier_plantvillage_loss2/classifier_plantvillage_0_split -> loss2/classifier_plantvillage_loss2/classifier_plantvillage_0_split_0
I0403 16:29:03.027194 21111 net.cpp:399] loss2/classifier_plantvillage_loss2/classifier_plantvillage_0_split -> loss2/classifier_plantvillage_loss2/classifier_plantvillage_0_split_1
I0403 16:29:03.027217 21111 net.cpp:399] loss2/classifier_plantvillage_loss2/classifier_plantvillage_0_split -> loss2/classifier_plantvillage_loss2/classifier_plantvillage_0_split_2
I0403 16:29:03.027295 21111 net.cpp:141] Setting up loss2/classifier_plantvillage_loss2/classifier_plantvillage_0_split
I0403 16:29:03.027319 21111 net.cpp:148] Top shape: 24 38 (912)
I0403 16:29:03.027335 21111 net.cpp:148] Top shape: 24 38 (912)
I0403 16:29:03.027350 21111 net.cpp:148] Top shape: 24 38 (912)
I0403 16:29:03.027364 21111 net.cpp:156] Memory required for data: 1208432160
I0403 16:29:03.027379 21111 layer_factory.hpp:77] Creating layer inception_4e/1x1
I0403 16:29:03.027402 21111 net.cpp:91] Creating Layer inception_4e/1x1
I0403 16:29:03.027420 21111 net.cpp:425] inception_4e/1x1 <- inception_4d/output_inception_4d/output_0_split_1
I0403 16:29:03.027441 21111 net.cpp:399] inception_4e/1x1 -> inception_4e/1x1
I0403 16:29:03.029278 21111 net.cpp:141] Setting up inception_4e/1x1
I0403 16:29:03.029309 21111 net.cpp:148] Top shape: 24 256 14 14 (1204224)
I0403 16:29:03.029325 21111 net.cpp:156] Memory required for data: 1213249056
I0403 16:29:03.029343 21111 layer_factory.hpp:77] Creating layer inception_4e/relu_1x1
I0403 16:29:03.029361 21111 net.cpp:91] Creating Layer inception_4e/relu_1x1
I0403 16:29:03.029378 21111 net.cpp:425] inception_4e/relu_1x1 <- inception_4e/1x1
I0403 16:29:03.029397 21111 net.cpp:386] inception_4e/relu_1x1 -> inception_4e/1x1 (in-place)
I0403 16:29:03.029697 21111 net.cpp:141] Setting up inception_4e/relu_1x1
I0403 16:29:03.029726 21111 net.cpp:148] Top shape: 24 256 14 14 (1204224)
I0403 16:29:03.029742 21111 net.cpp:156] Memory required for data: 1218065952
I0403 16:29:03.029757 21111 layer_factory.hpp:77] Creating layer inception_4e/3x3_reduce
I0403 16:29:03.029779 21111 net.cpp:91] Creating Layer inception_4e/3x3_reduce
I0403 16:29:03.029798 21111 net.cpp:425] inception_4e/3x3_reduce <- inception_4d/output_inception_4d/output_0_split_2
I0403 16:29:03.029816 21111 net.cpp:399] inception_4e/3x3_reduce -> inception_4e/3x3_reduce
I0403 16:29:03.031949 21111 net.cpp:141] Setting up inception_4e/3x3_reduce
I0403 16:29:03.031978 21111 net.cpp:148] Top shape: 24 160 14 14 (752640)
I0403 16:29:03.032002 21111 net.cpp:156] Memory required for data: 1221076512
I0403 16:29:03.032021 21111 layer_factory.hpp:77] Creating layer inception_4e/relu_3x3_reduce
I0403 16:29:03.032040 21111 net.cpp:91] Creating Layer inception_4e/relu_3x3_reduce
I0403 16:29:03.032058 21111 net.cpp:425] inception_4e/relu_3x3_reduce <- inception_4e/3x3_reduce
I0403 16:29:03.032075 21111 net.cpp:386] inception_4e/relu_3x3_reduce -> inception_4e/3x3_reduce (in-place)
I0403 16:29:03.032261 21111 net.cpp:141] Setting up inception_4e/relu_3x3_reduce
I0403 16:29:03.032289 21111 net.cpp:148] Top shape: 24 160 14 14 (752640)
I0403 16:29:03.032305 21111 net.cpp:156] Memory required for data: 1224087072
I0403 16:29:03.032320 21111 layer_factory.hpp:77] Creating layer inception_4e/3x3
I0403 16:29:03.032343 21111 net.cpp:91] Creating Layer inception_4e/3x3
I0403 16:29:03.032361 21111 net.cpp:425] inception_4e/3x3 <- inception_4e/3x3_reduce
I0403 16:29:03.032379 21111 net.cpp:399] inception_4e/3x3 -> inception_4e/3x3
I0403 16:29:03.037380 21111 net.cpp:141] Setting up inception_4e/3x3
I0403 16:29:03.037425 21111 net.cpp:148] Top shape: 24 320 14 14 (1505280)
I0403 16:29:03.037441 21111 net.cpp:156] Memory required for data: 1230108192
I0403 16:29:03.037461 21111 layer_factory.hpp:77] Creating layer inception_4e/relu_3x3
I0403 16:29:03.037479 21111 net.cpp:91] Creating Layer inception_4e/relu_3x3
I0403 16:29:03.037495 21111 net.cpp:425] inception_4e/relu_3x3 <- inception_4e/3x3
I0403 16:29:03.037516 21111 net.cpp:386] inception_4e/relu_3x3 -> inception_4e/3x3 (in-place)
I0403 16:29:03.037814 21111 net.cpp:141] Setting up inception_4e/relu_3x3
I0403 16:29:03.037842 21111 net.cpp:148] Top shape: 24 320 14 14 (1505280)
I0403 16:29:03.037855 21111 net.cpp:156] Memory required for data: 1236129312
I0403 16:29:03.037871 21111 layer_factory.hpp:77] Creating layer inception_4e/5x5_reduce
I0403 16:29:03.037894 21111 net.cpp:91] Creating Layer inception_4e/5x5_reduce
I0403 16:29:03.037912 21111 net.cpp:425] inception_4e/5x5_reduce <- inception_4d/output_inception_4d/output_0_split_3
I0403 16:29:03.037935 21111 net.cpp:399] inception_4e/5x5_reduce -> inception_4e/5x5_reduce
I0403 16:29:03.039029 21111 net.cpp:141] Setting up inception_4e/5x5_reduce
I0403 16:29:03.039058 21111 net.cpp:148] Top shape: 24 32 14 14 (150528)
I0403 16:29:03.039073 21111 net.cpp:156] Memory required for data: 1236731424
I0403 16:29:03.039091 21111 layer_factory.hpp:77] Creating layer inception_4e/relu_5x5_reduce
I0403 16:29:03.039111 21111 net.cpp:91] Creating Layer inception_4e/relu_5x5_reduce
I0403 16:29:03.039129 21111 net.cpp:425] inception_4e/relu_5x5_reduce <- inception_4e/5x5_reduce
I0403 16:29:03.039146 21111 net.cpp:386] inception_4e/relu_5x5_reduce -> inception_4e/5x5_reduce (in-place)
I0403 16:29:03.039450 21111 net.cpp:141] Setting up inception_4e/relu_5x5_reduce
I0403 16:29:03.039476 21111 net.cpp:148] Top shape: 24 32 14 14 (150528)
I0403 16:29:03.039491 21111 net.cpp:156] Memory required for data: 1237333536
I0403 16:29:03.039506 21111 layer_factory.hpp:77] Creating layer inception_4e/5x5
I0403 16:29:03.039546 21111 net.cpp:91] Creating Layer inception_4e/5x5
I0403 16:29:03.039566 21111 net.cpp:425] inception_4e/5x5 <- inception_4e/5x5_reduce
I0403 16:29:03.039585 21111 net.cpp:399] inception_4e/5x5 -> inception_4e/5x5
I0403 16:29:03.041488 21111 net.cpp:141] Setting up inception_4e/5x5
I0403 16:29:03.041517 21111 net.cpp:148] Top shape: 24 128 14 14 (602112)
I0403 16:29:03.041532 21111 net.cpp:156] Memory required for data: 1239741984
I0403 16:29:03.041551 21111 layer_factory.hpp:77] Creating layer inception_4e/relu_5x5
I0403 16:29:03.041573 21111 net.cpp:91] Creating Layer inception_4e/relu_5x5
I0403 16:29:03.041589 21111 net.cpp:425] inception_4e/relu_5x5 <- inception_4e/5x5
I0403 16:29:03.041607 21111 net.cpp:386] inception_4e/relu_5x5 -> inception_4e/5x5 (in-place)
I0403 16:29:03.041805 21111 net.cpp:141] Setting up inception_4e/relu_5x5
I0403 16:29:03.041832 21111 net.cpp:148] Top shape: 24 128 14 14 (602112)
I0403 16:29:03.041848 21111 net.cpp:156] Memory required for data: 1242150432
I0403 16:29:03.041864 21111 layer_factory.hpp:77] Creating layer inception_4e/pool
I0403 16:29:03.041883 21111 net.cpp:91] Creating Layer inception_4e/pool
I0403 16:29:03.041899 21111 net.cpp:425] inception_4e/pool <- inception_4d/output_inception_4d/output_0_split_4
I0403 16:29:03.041921 21111 net.cpp:399] inception_4e/pool -> inception_4e/pool
I0403 16:29:03.041998 21111 net.cpp:141] Setting up inception_4e/pool
I0403 16:29:03.042022 21111 net.cpp:148] Top shape: 24 528 14 14 (2483712)
I0403 16:29:03.042037 21111 net.cpp:156] Memory required for data: 1252085280
I0403 16:29:03.042052 21111 layer_factory.hpp:77] Creating layer inception_4e/pool_proj
I0403 16:29:03.042074 21111 net.cpp:91] Creating Layer inception_4e/pool_proj
I0403 16:29:03.042091 21111 net.cpp:425] inception_4e/pool_proj <- inception_4e/pool
I0403 16:29:03.042114 21111 net.cpp:399] inception_4e/pool_proj -> inception_4e/pool_proj
I0403 16:29:03.043622 21111 net.cpp:141] Setting up inception_4e/pool_proj
I0403 16:29:03.043649 21111 net.cpp:148] Top shape: 24 128 14 14 (602112)
I0403 16:29:03.043678 21111 net.cpp:156] Memory required for data: 1254493728
I0403 16:29:03.043697 21111 layer_factory.hpp:77] Creating layer inception_4e/relu_pool_proj
I0403 16:29:03.043718 21111 net.cpp:91] Creating Layer inception_4e/relu_pool_proj
I0403 16:29:03.043735 21111 net.cpp:425] inception_4e/relu_pool_proj <- inception_4e/pool_proj
I0403 16:29:03.043753 21111 net.cpp:386] inception_4e/relu_pool_proj -> inception_4e/pool_proj (in-place)
I0403 16:29:03.044050 21111 net.cpp:141] Setting up inception_4e/relu_pool_proj
I0403 16:29:03.044076 21111 net.cpp:148] Top shape: 24 128 14 14 (602112)
I0403 16:29:03.044092 21111 net.cpp:156] Memory required for data: 1256902176
I0403 16:29:03.044107 21111 layer_factory.hpp:77] Creating layer inception_4e/output
I0403 16:29:03.044124 21111 net.cpp:91] Creating Layer inception_4e/output
I0403 16:29:03.044140 21111 net.cpp:425] inception_4e/output <- inception_4e/1x1
I0403 16:29:03.044157 21111 net.cpp:425] inception_4e/output <- inception_4e/3x3
I0403 16:29:03.044174 21111 net.cpp:425] inception_4e/output <- inception_4e/5x5
I0403 16:29:03.044190 21111 net.cpp:425] inception_4e/output <- inception_4e/pool_proj
I0403 16:29:03.044209 21111 net.cpp:399] inception_4e/output -> inception_4e/output
I0403 16:29:03.044263 21111 net.cpp:141] Setting up inception_4e/output
I0403 16:29:03.044287 21111 net.cpp:148] Top shape: 24 832 14 14 (3913728)
I0403 16:29:03.044302 21111 net.cpp:156] Memory required for data: 1272557088
I0403 16:29:03.044317 21111 layer_factory.hpp:77] Creating layer pool4/3x3_s2
I0403 16:29:03.044335 21111 net.cpp:91] Creating Layer pool4/3x3_s2
I0403 16:29:03.044351 21111 net.cpp:425] pool4/3x3_s2 <- inception_4e/output
I0403 16:29:03.044373 21111 net.cpp:399] pool4/3x3_s2 -> pool4/3x3_s2
I0403 16:29:03.044440 21111 net.cpp:141] Setting up pool4/3x3_s2
I0403 16:29:03.044464 21111 net.cpp:148] Top shape: 24 832 7 7 (978432)
I0403 16:29:03.044479 21111 net.cpp:156] Memory required for data: 1276470816
I0403 16:29:03.044494 21111 layer_factory.hpp:77] Creating layer pool4/3x3_s2_pool4/3x3_s2_0_split
I0403 16:29:03.044514 21111 net.cpp:91] Creating Layer pool4/3x3_s2_pool4/3x3_s2_0_split
I0403 16:29:03.044531 21111 net.cpp:425] pool4/3x3_s2_pool4/3x3_s2_0_split <- pool4/3x3_s2
I0403 16:29:03.044549 21111 net.cpp:399] pool4/3x3_s2_pool4/3x3_s2_0_split -> pool4/3x3_s2_pool4/3x3_s2_0_split_0
I0403 16:29:03.044569 21111 net.cpp:399] pool4/3x3_s2_pool4/3x3_s2_0_split -> pool4/3x3_s2_pool4/3x3_s2_0_split_1
I0403 16:29:03.044592 21111 net.cpp:399] pool4/3x3_s2_pool4/3x3_s2_0_split -> pool4/3x3_s2_pool4/3x3_s2_0_split_2
I0403 16:29:03.044613 21111 net.cpp:399] pool4/3x3_s2_pool4/3x3_s2_0_split -> pool4/3x3_s2_pool4/3x3_s2_0_split_3
I0403 16:29:03.044702 21111 net.cpp:141] Setting up pool4/3x3_s2_pool4/3x3_s2_0_split
I0403 16:29:03.044724 21111 net.cpp:148] Top shape: 24 832 7 7 (978432)
I0403 16:29:03.044741 21111 net.cpp:148] Top shape: 24 832 7 7 (978432)
I0403 16:29:03.044757 21111 net.cpp:148] Top shape: 24 832 7 7 (978432)
I0403 16:29:03.044772 21111 net.cpp:148] Top shape: 24 832 7 7 (978432)
I0403 16:29:03.044786 21111 net.cpp:156] Memory required for data: 1292125728
I0403 16:29:03.044801 21111 layer_factory.hpp:77] Creating layer inception_5a/1x1
I0403 16:29:03.044824 21111 net.cpp:91] Creating Layer inception_5a/1x1
I0403 16:29:03.044842 21111 net.cpp:425] inception_5a/1x1 <- pool4/3x3_s2_pool4/3x3_s2_0_split_0
I0403 16:29:03.044863 21111 net.cpp:399] inception_5a/1x1 -> inception_5a/1x1
I0403 16:29:03.047736 21111 net.cpp:141] Setting up inception_5a/1x1
I0403 16:29:03.047765 21111 net.cpp:148] Top shape: 24 256 7 7 (301056)
I0403 16:29:03.047782 21111 net.cpp:156] Memory required for data: 1293329952
I0403 16:29:03.047801 21111 layer_factory.hpp:77] Creating layer inception_5a/relu_1x1
I0403 16:29:03.047821 21111 net.cpp:91] Creating Layer inception_5a/relu_1x1
I0403 16:29:03.047838 21111 net.cpp:425] inception_5a/relu_1x1 <- inception_5a/1x1
I0403 16:29:03.047857 21111 net.cpp:386] inception_5a/relu_1x1 -> inception_5a/1x1 (in-place)
I0403 16:29:03.048177 21111 net.cpp:141] Setting up inception_5a/relu_1x1
I0403 16:29:03.048204 21111 net.cpp:148] Top shape: 24 256 7 7 (301056)
I0403 16:29:03.048220 21111 net.cpp:156] Memory required for data: 1294534176
I0403 16:29:03.048236 21111 layer_factory.hpp:77] Creating layer inception_5a/3x3_reduce
I0403 16:29:03.048259 21111 net.cpp:91] Creating Layer inception_5a/3x3_reduce
I0403 16:29:03.048279 21111 net.cpp:425] inception_5a/3x3_reduce <- pool4/3x3_s2_pool4/3x3_s2_0_split_1
I0403 16:29:03.048300 21111 net.cpp:399] inception_5a/3x3_reduce -> inception_5a/3x3_reduce
I0403 16:29:03.050771 21111 net.cpp:141] Setting up inception_5a/3x3_reduce
I0403 16:29:03.050801 21111 net.cpp:148] Top shape: 24 160 7 7 (188160)
I0403 16:29:03.050817 21111 net.cpp:156] Memory required for data: 1295286816
I0403 16:29:03.050837 21111 layer_factory.hpp:77] Creating layer inception_5a/relu_3x3_reduce
I0403 16:29:03.050854 21111 net.cpp:91] Creating Layer inception_5a/relu_3x3_reduce
I0403 16:29:03.050870 21111 net.cpp:425] inception_5a/relu_3x3_reduce <- inception_5a/3x3_reduce
I0403 16:29:03.050891 21111 net.cpp:386] inception_5a/relu_3x3_reduce -> inception_5a/3x3_reduce (in-place)
I0403 16:29:03.051084 21111 net.cpp:141] Setting up inception_5a/relu_3x3_reduce
I0403 16:29:03.051110 21111 net.cpp:148] Top shape: 24 160 7 7 (188160)
I0403 16:29:03.051125 21111 net.cpp:156] Memory required for data: 1296039456
I0403 16:29:03.051139 21111 layer_factory.hpp:77] Creating layer inception_5a/3x3
I0403 16:29:03.051162 21111 net.cpp:91] Creating Layer inception_5a/3x3
I0403 16:29:03.051179 21111 net.cpp:425] inception_5a/3x3 <- inception_5a/3x3_reduce
I0403 16:29:03.051204 21111 net.cpp:399] inception_5a/3x3 -> inception_5a/3x3
I0403 16:29:03.056289 21111 net.cpp:141] Setting up inception_5a/3x3
I0403 16:29:03.056320 21111 net.cpp:148] Top shape: 24 320 7 7 (376320)
I0403 16:29:03.056336 21111 net.cpp:156] Memory required for data: 1297544736
I0403 16:29:03.056355 21111 layer_factory.hpp:77] Creating layer inception_5a/relu_3x3
I0403 16:29:03.056377 21111 net.cpp:91] Creating Layer inception_5a/relu_3x3
I0403 16:29:03.056396 21111 net.cpp:425] inception_5a/relu_3x3 <- inception_5a/3x3
I0403 16:29:03.056413 21111 net.cpp:386] inception_5a/relu_3x3 -> inception_5a/3x3 (in-place)
I0403 16:29:03.056722 21111 net.cpp:141] Setting up inception_5a/relu_3x3
I0403 16:29:03.056749 21111 net.cpp:148] Top shape: 24 320 7 7 (376320)
I0403 16:29:03.056764 21111 net.cpp:156] Memory required for data: 1299050016
I0403 16:29:03.056779 21111 layer_factory.hpp:77] Creating layer inception_5a/5x5_reduce
I0403 16:29:03.056803 21111 net.cpp:91] Creating Layer inception_5a/5x5_reduce
I0403 16:29:03.056821 21111 net.cpp:425] inception_5a/5x5_reduce <- pool4/3x3_s2_pool4/3x3_s2_0_split_2
I0403 16:29:03.056848 21111 net.cpp:399] inception_5a/5x5_reduce -> inception_5a/5x5_reduce
I0403 16:29:03.058063 21111 net.cpp:141] Setting up inception_5a/5x5_reduce
I0403 16:29:03.058094 21111 net.cpp:148] Top shape: 24 32 7 7 (37632)
I0403 16:29:03.058111 21111 net.cpp:156] Memory required for data: 1299200544
I0403 16:29:03.058130 21111 layer_factory.hpp:77] Creating layer inception_5a/relu_5x5_reduce
I0403 16:29:03.058148 21111 net.cpp:91] Creating Layer inception_5a/relu_5x5_reduce
I0403 16:29:03.058166 21111 net.cpp:425] inception_5a/relu_5x5_reduce <- inception_5a/5x5_reduce
I0403 16:29:03.058183 21111 net.cpp:386] inception_5a/relu_5x5_reduce -> inception_5a/5x5_reduce (in-place)
I0403 16:29:03.058492 21111 net.cpp:141] Setting up inception_5a/relu_5x5_reduce
I0403 16:29:03.058521 21111 net.cpp:148] Top shape: 24 32 7 7 (37632)
I0403 16:29:03.058538 21111 net.cpp:156] Memory required for data: 1299351072
I0403 16:29:03.058553 21111 layer_factory.hpp:77] Creating layer inception_5a/5x5
I0403 16:29:03.058578 21111 net.cpp:91] Creating Layer inception_5a/5x5
I0403 16:29:03.058596 21111 net.cpp:425] inception_5a/5x5 <- inception_5a/5x5_reduce
I0403 16:29:03.058616 21111 net.cpp:399] inception_5a/5x5 -> inception_5a/5x5
I0403 16:29:03.060402 21111 net.cpp:141] Setting up inception_5a/5x5
I0403 16:29:03.060444 21111 net.cpp:148] Top shape: 24 128 7 7 (150528)
I0403 16:29:03.060461 21111 net.cpp:156] Memory required for data: 1299953184
I0403 16:29:03.060480 21111 layer_factory.hpp:77] Creating layer inception_5a/relu_5x5
I0403 16:29:03.060502 21111 net.cpp:91] Creating Layer inception_5a/relu_5x5
I0403 16:29:03.060519 21111 net.cpp:425] inception_5a/relu_5x5 <- inception_5a/5x5
I0403 16:29:03.060539 21111 net.cpp:386] inception_5a/relu_5x5 -> inception_5a/5x5 (in-place)
I0403 16:29:03.060734 21111 net.cpp:141] Setting up inception_5a/relu_5x5
I0403 16:29:03.060763 21111 net.cpp:148] Top shape: 24 128 7 7 (150528)
I0403 16:29:03.060781 21111 net.cpp:156] Memory required for data: 1300555296
I0403 16:29:03.060796 21111 layer_factory.hpp:77] Creating layer inception_5a/pool
I0403 16:29:03.060814 21111 net.cpp:91] Creating Layer inception_5a/pool
I0403 16:29:03.060832 21111 net.cpp:425] inception_5a/pool <- pool4/3x3_s2_pool4/3x3_s2_0_split_3
I0403 16:29:03.060852 21111 net.cpp:399] inception_5a/pool -> inception_5a/pool
I0403 16:29:03.060925 21111 net.cpp:141] Setting up inception_5a/pool
I0403 16:29:03.060950 21111 net.cpp:148] Top shape: 24 832 7 7 (978432)
I0403 16:29:03.060966 21111 net.cpp:156] Memory required for data: 1304469024
I0403 16:29:03.060981 21111 layer_factory.hpp:77] Creating layer inception_5a/pool_proj
I0403 16:29:03.061012 21111 net.cpp:91] Creating Layer inception_5a/pool_proj
I0403 16:29:03.061031 21111 net.cpp:425] inception_5a/pool_proj <- inception_5a/pool
I0403 16:29:03.061053 21111 net.cpp:399] inception_5a/pool_proj -> inception_5a/pool_proj
I0403 16:29:03.063400 21111 net.cpp:141] Setting up inception_5a/pool_proj
I0403 16:29:03.063431 21111 net.cpp:148] Top shape: 24 128 7 7 (150528)
I0403 16:29:03.063447 21111 net.cpp:156] Memory required for data: 1305071136
I0403 16:29:03.063465 21111 layer_factory.hpp:77] Creating layer inception_5a/relu_pool_proj
I0403 16:29:03.063488 21111 net.cpp:91] Creating Layer inception_5a/relu_pool_proj
I0403 16:29:03.063504 21111 net.cpp:425] inception_5a/relu_pool_proj <- inception_5a/pool_proj
I0403 16:29:03.063524 21111 net.cpp:386] inception_5a/relu_pool_proj -> inception_5a/pool_proj (in-place)
I0403 16:29:03.063828 21111 net.cpp:141] Setting up inception_5a/relu_pool_proj
I0403 16:29:03.063855 21111 net.cpp:148] Top shape: 24 128 7 7 (150528)
I0403 16:29:03.063871 21111 net.cpp:156] Memory required for data: 1305673248
I0403 16:29:03.063886 21111 layer_factory.hpp:77] Creating layer inception_5a/output
I0403 16:29:03.063905 21111 net.cpp:91] Creating Layer inception_5a/output
I0403 16:29:03.063921 21111 net.cpp:425] inception_5a/output <- inception_5a/1x1
I0403 16:29:03.063942 21111 net.cpp:425] inception_5a/output <- inception_5a/3x3
I0403 16:29:03.063961 21111 net.cpp:425] inception_5a/output <- inception_5a/5x5
I0403 16:29:03.063977 21111 net.cpp:425] inception_5a/output <- inception_5a/pool_proj
I0403 16:29:03.064002 21111 net.cpp:399] inception_5a/output -> inception_5a/output
I0403 16:29:03.064054 21111 net.cpp:141] Setting up inception_5a/output
I0403 16:29:03.064080 21111 net.cpp:148] Top shape: 24 832 7 7 (978432)
I0403 16:29:03.064096 21111 net.cpp:156] Memory required for data: 1309586976
I0403 16:29:03.064112 21111 layer_factory.hpp:77] Creating layer inception_5a/output_inception_5a/output_0_split
I0403 16:29:03.064131 21111 net.cpp:91] Creating Layer inception_5a/output_inception_5a/output_0_split
I0403 16:29:03.064147 21111 net.cpp:425] inception_5a/output_inception_5a/output_0_split <- inception_5a/output
I0403 16:29:03.064167 21111 net.cpp:399] inception_5a/output_inception_5a/output_0_split -> inception_5a/output_inception_5a/output_0_split_0
I0403 16:29:03.064190 21111 net.cpp:399] inception_5a/output_inception_5a/output_0_split -> inception_5a/output_inception_5a/output_0_split_1
I0403 16:29:03.064211 21111 net.cpp:399] inception_5a/output_inception_5a/output_0_split -> inception_5a/output_inception_5a/output_0_split_2
I0403 16:29:03.064232 21111 net.cpp:399] inception_5a/output_inception_5a/output_0_split -> inception_5a/output_inception_5a/output_0_split_3
I0403 16:29:03.064353 21111 net.cpp:141] Setting up inception_5a/output_inception_5a/output_0_split
I0403 16:29:03.064381 21111 net.cpp:148] Top shape: 24 832 7 7 (978432)
I0403 16:29:03.064399 21111 net.cpp:148] Top shape: 24 832 7 7 (978432)
I0403 16:29:03.064415 21111 net.cpp:148] Top shape: 24 832 7 7 (978432)
I0403 16:29:03.064431 21111 net.cpp:148] Top shape: 24 832 7 7 (978432)
I0403 16:29:03.064445 21111 net.cpp:156] Memory required for data: 1325241888
I0403 16:29:03.064461 21111 layer_factory.hpp:77] Creating layer inception_5b/1x1
I0403 16:29:03.064486 21111 net.cpp:91] Creating Layer inception_5b/1x1
I0403 16:29:03.064503 21111 net.cpp:425] inception_5b/1x1 <- inception_5a/output_inception_5a/output_0_split_0
I0403 16:29:03.064523 21111 net.cpp:399] inception_5b/1x1 -> inception_5b/1x1
I0403 16:29:03.068455 21111 net.cpp:141] Setting up inception_5b/1x1
I0403 16:29:03.068486 21111 net.cpp:148] Top shape: 24 384 7 7 (451584)
I0403 16:29:03.068502 21111 net.cpp:156] Memory required for data: 1327048224
I0403 16:29:03.068521 21111 layer_factory.hpp:77] Creating layer inception_5b/relu_1x1
I0403 16:29:03.068541 21111 net.cpp:91] Creating Layer inception_5b/relu_1x1
I0403 16:29:03.068558 21111 net.cpp:425] inception_5b/relu_1x1 <- inception_5b/1x1
I0403 16:29:03.068578 21111 net.cpp:386] inception_5b/relu_1x1 -> inception_5b/1x1 (in-place)
I0403 16:29:03.068912 21111 net.cpp:141] Setting up inception_5b/relu_1x1
I0403 16:29:03.068938 21111 net.cpp:148] Top shape: 24 384 7 7 (451584)
I0403 16:29:03.068953 21111 net.cpp:156] Memory required for data: 1328854560
I0403 16:29:03.068969 21111 layer_factory.hpp:77] Creating layer inception_5b/3x3_reduce
I0403 16:29:03.069001 21111 net.cpp:91] Creating Layer inception_5b/3x3_reduce
I0403 16:29:03.069022 21111 net.cpp:425] inception_5b/3x3_reduce <- inception_5a/output_inception_5a/output_0_split_1
I0403 16:29:03.069046 21111 net.cpp:399] inception_5b/3x3_reduce -> inception_5b/3x3_reduce
I0403 16:29:03.071732 21111 net.cpp:141] Setting up inception_5b/3x3_reduce
I0403 16:29:03.071761 21111 net.cpp:148] Top shape: 24 192 7 7 (225792)
I0403 16:29:03.071777 21111 net.cpp:156] Memory required for data: 1329757728
I0403 16:29:03.071796 21111 layer_factory.hpp:77] Creating layer inception_5b/relu_3x3_reduce
I0403 16:29:03.071817 21111 net.cpp:91] Creating Layer inception_5b/relu_3x3_reduce
I0403 16:29:03.071835 21111 net.cpp:425] inception_5b/relu_3x3_reduce <- inception_5b/3x3_reduce
I0403 16:29:03.071851 21111 net.cpp:386] inception_5b/relu_3x3_reduce -> inception_5b/3x3_reduce (in-place)
I0403 16:29:03.072048 21111 net.cpp:141] Setting up inception_5b/relu_3x3_reduce
I0403 16:29:03.072073 21111 net.cpp:148] Top shape: 24 192 7 7 (225792)
I0403 16:29:03.072088 21111 net.cpp:156] Memory required for data: 1330660896
I0403 16:29:03.072103 21111 layer_factory.hpp:77] Creating layer inception_5b/3x3
I0403 16:29:03.072127 21111 net.cpp:91] Creating Layer inception_5b/3x3
I0403 16:29:03.072146 21111 net.cpp:425] inception_5b/3x3 <- inception_5b/3x3_reduce
I0403 16:29:03.072165 21111 net.cpp:399] inception_5b/3x3 -> inception_5b/3x3
I0403 16:29:03.078827 21111 net.cpp:141] Setting up inception_5b/3x3
I0403 16:29:03.078855 21111 net.cpp:148] Top shape: 24 384 7 7 (451584)
I0403 16:29:03.078871 21111 net.cpp:156] Memory required for data: 1332467232
I0403 16:29:03.078891 21111 layer_factory.hpp:77] Creating layer inception_5b/relu_3x3
I0403 16:29:03.078912 21111 net.cpp:91] Creating Layer inception_5b/relu_3x3
I0403 16:29:03.078928 21111 net.cpp:425] inception_5b/relu_3x3 <- inception_5b/3x3
I0403 16:29:03.078946 21111 net.cpp:386] inception_5b/relu_3x3 -> inception_5b/3x3 (in-place)
I0403 16:29:03.079257 21111 net.cpp:141] Setting up inception_5b/relu_3x3
I0403 16:29:03.079285 21111 net.cpp:148] Top shape: 24 384 7 7 (451584)
I0403 16:29:03.079299 21111 net.cpp:156] Memory required for data: 1334273568
I0403 16:29:03.079314 21111 layer_factory.hpp:77] Creating layer inception_5b/5x5_reduce
I0403 16:29:03.079355 21111 net.cpp:91] Creating Layer inception_5b/5x5_reduce
I0403 16:29:03.079375 21111 net.cpp:425] inception_5b/5x5_reduce <- inception_5a/output_inception_5a/output_0_split_2
I0403 16:29:03.079396 21111 net.cpp:399] inception_5b/5x5_reduce -> inception_5b/5x5_reduce
I0403 16:29:03.080656 21111 net.cpp:141] Setting up inception_5b/5x5_reduce
I0403 16:29:03.080682 21111 net.cpp:148] Top shape: 24 48 7 7 (56448)
I0403 16:29:03.080698 21111 net.cpp:156] Memory required for data: 1334499360
I0403 16:29:03.080716 21111 layer_factory.hpp:77] Creating layer inception_5b/relu_5x5_reduce
I0403 16:29:03.080737 21111 net.cpp:91] Creating Layer inception_5b/relu_5x5_reduce
I0403 16:29:03.080754 21111 net.cpp:425] inception_5b/relu_5x5_reduce <- inception_5b/5x5_reduce
I0403 16:29:03.080771 21111 net.cpp:386] inception_5b/relu_5x5_reduce -> inception_5b/5x5_reduce (in-place)
I0403 16:29:03.081138 21111 net.cpp:141] Setting up inception_5b/relu_5x5_reduce
I0403 16:29:03.081164 21111 net.cpp:148] Top shape: 24 48 7 7 (56448)
I0403 16:29:03.081179 21111 net.cpp:156] Memory required for data: 1334725152
I0403 16:29:03.081193 21111 layer_factory.hpp:77] Creating layer inception_5b/5x5
I0403 16:29:03.081214 21111 net.cpp:91] Creating Layer inception_5b/5x5
I0403 16:29:03.081231 21111 net.cpp:425] inception_5b/5x5 <- inception_5b/5x5_reduce
I0403 16:29:03.081250 21111 net.cpp:399] inception_5b/5x5 -> inception_5b/5x5
I0403 16:29:03.083264 21111 net.cpp:141] Setting up inception_5b/5x5
I0403 16:29:03.083290 21111 net.cpp:148] Top shape: 24 128 7 7 (150528)
I0403 16:29:03.083307 21111 net.cpp:156] Memory required for data: 1335327264
I0403 16:29:03.083323 21111 layer_factory.hpp:77] Creating layer inception_5b/relu_5x5
I0403 16:29:03.083343 21111 net.cpp:91] Creating Layer inception_5b/relu_5x5
I0403 16:29:03.083361 21111 net.cpp:425] inception_5b/relu_5x5 <- inception_5b/5x5
I0403 16:29:03.083379 21111 net.cpp:386] inception_5b/relu_5x5 -> inception_5b/5x5 (in-place)
I0403 16:29:03.083569 21111 net.cpp:141] Setting up inception_5b/relu_5x5
I0403 16:29:03.083595 21111 net.cpp:148] Top shape: 24 128 7 7 (150528)
I0403 16:29:03.083611 21111 net.cpp:156] Memory required for data: 1335929376
I0403 16:29:03.083624 21111 layer_factory.hpp:77] Creating layer inception_5b/pool
I0403 16:29:03.083642 21111 net.cpp:91] Creating Layer inception_5b/pool
I0403 16:29:03.083658 21111 net.cpp:425] inception_5b/pool <- inception_5a/output_inception_5a/output_0_split_3
I0403 16:29:03.083678 21111 net.cpp:399] inception_5b/pool -> inception_5b/pool
I0403 16:29:03.083748 21111 net.cpp:141] Setting up inception_5b/pool
I0403 16:29:03.083772 21111 net.cpp:148] Top shape: 24 832 7 7 (978432)
I0403 16:29:03.083786 21111 net.cpp:156] Memory required for data: 1339843104
I0403 16:29:03.083801 21111 layer_factory.hpp:77] Creating layer inception_5b/pool_proj
I0403 16:29:03.083824 21111 net.cpp:91] Creating Layer inception_5b/pool_proj
I0403 16:29:03.083842 21111 net.cpp:425] inception_5b/pool_proj <- inception_5b/pool
I0403 16:29:03.083863 21111 net.cpp:399] inception_5b/pool_proj -> inception_5b/pool_proj
I0403 16:29:03.086133 21111 net.cpp:141] Setting up inception_5b/pool_proj
I0403 16:29:03.086161 21111 net.cpp:148] Top shape: 24 128 7 7 (150528)
I0403 16:29:03.086176 21111 net.cpp:156] Memory required for data: 1340445216
I0403 16:29:03.086194 21111 layer_factory.hpp:77] Creating layer inception_5b/relu_pool_proj
I0403 16:29:03.086216 21111 net.cpp:91] Creating Layer inception_5b/relu_pool_proj
I0403 16:29:03.086233 21111 net.cpp:425] inception_5b/relu_pool_proj <- inception_5b/pool_proj
I0403 16:29:03.086251 21111 net.cpp:386] inception_5b/relu_pool_proj -> inception_5b/pool_proj (in-place)
I0403 16:29:03.086544 21111 net.cpp:141] Setting up inception_5b/relu_pool_proj
I0403 16:29:03.086570 21111 net.cpp:148] Top shape: 24 128 7 7 (150528)
I0403 16:29:03.086585 21111 net.cpp:156] Memory required for data: 1341047328
I0403 16:29:03.086599 21111 layer_factory.hpp:77] Creating layer inception_5b/output
I0403 16:29:03.086616 21111 net.cpp:91] Creating Layer inception_5b/output
I0403 16:29:03.086645 21111 net.cpp:425] inception_5b/output <- inception_5b/1x1
I0403 16:29:03.086663 21111 net.cpp:425] inception_5b/output <- inception_5b/3x3
I0403 16:29:03.086679 21111 net.cpp:425] inception_5b/output <- inception_5b/5x5
I0403 16:29:03.086695 21111 net.cpp:425] inception_5b/output <- inception_5b/pool_proj
I0403 16:29:03.086714 21111 net.cpp:399] inception_5b/output -> inception_5b/output
I0403 16:29:03.086768 21111 net.cpp:141] Setting up inception_5b/output
I0403 16:29:03.086791 21111 net.cpp:148] Top shape: 24 1024 7 7 (1204224)
I0403 16:29:03.086807 21111 net.cpp:156] Memory required for data: 1345864224
I0403 16:29:03.086820 21111 layer_factory.hpp:77] Creating layer pool5/7x7_s1
I0403 16:29:03.086838 21111 net.cpp:91] Creating Layer pool5/7x7_s1
I0403 16:29:03.086853 21111 net.cpp:425] pool5/7x7_s1 <- inception_5b/output
I0403 16:29:03.086874 21111 net.cpp:399] pool5/7x7_s1 -> pool5/7x7_s1
I0403 16:29:03.087093 21111 net.cpp:141] Setting up pool5/7x7_s1
I0403 16:29:03.087118 21111 net.cpp:148] Top shape: 24 1024 1 1 (24576)
I0403 16:29:03.087133 21111 net.cpp:156] Memory required for data: 1345962528
I0403 16:29:03.087147 21111 layer_factory.hpp:77] Creating layer pool5/drop_7x7_s1
I0403 16:29:03.087167 21111 net.cpp:91] Creating Layer pool5/drop_7x7_s1
I0403 16:29:03.087185 21111 net.cpp:425] pool5/drop_7x7_s1 <- pool5/7x7_s1
I0403 16:29:03.087203 21111 net.cpp:386] pool5/drop_7x7_s1 -> pool5/7x7_s1 (in-place)
I0403 16:29:03.087255 21111 net.cpp:141] Setting up pool5/drop_7x7_s1
I0403 16:29:03.087276 21111 net.cpp:148] Top shape: 24 1024 1 1 (24576)
I0403 16:29:03.087291 21111 net.cpp:156] Memory required for data: 1346060832
I0403 16:29:03.087306 21111 layer_factory.hpp:77] Creating layer loss3/classifier_plantvillage
I0403 16:29:03.087324 21111 net.cpp:91] Creating Layer loss3/classifier_plantvillage
I0403 16:29:03.087340 21111 net.cpp:425] loss3/classifier_plantvillage <- pool5/7x7_s1
I0403 16:29:03.087360 21111 net.cpp:399] loss3/classifier_plantvillage -> loss3/classifier_plantvillage
I0403 16:29:03.087780 21111 net.cpp:141] Setting up loss3/classifier_plantvillage
I0403 16:29:03.087805 21111 net.cpp:148] Top shape: 24 38 (912)
I0403 16:29:03.087818 21111 net.cpp:156] Memory required for data: 1346064480
I0403 16:29:03.087836 21111 layer_factory.hpp:77] Creating layer loss3/classifier_plantvillage_loss3/classifier_plantvillage_0_split
I0403 16:29:03.087853 21111 net.cpp:91] Creating Layer loss3/classifier_plantvillage_loss3/classifier_plantvillage_0_split
I0403 16:29:03.087869 21111 net.cpp:425] loss3/classifier_plantvillage_loss3/classifier_plantvillage_0_split <- loss3/classifier_plantvillage
I0403 16:29:03.087888 21111 net.cpp:399] loss3/classifier_plantvillage_loss3/classifier_plantvillage_0_split -> loss3/classifier_plantvillage_loss3/classifier_plantvillage_0_split_0
I0403 16:29:03.087909 21111 net.cpp:399] loss3/classifier_plantvillage_loss3/classifier_plantvillage_0_split -> loss3/classifier_plantvillage_loss3/classifier_plantvillage_0_split_1
I0403 16:29:03.087929 21111 net.cpp:399] loss3/classifier_plantvillage_loss3/classifier_plantvillage_0_split -> loss3/classifier_plantvillage_loss3/classifier_plantvillage_0_split_2
I0403 16:29:03.087949 21111 net.cpp:399] loss3/classifier_plantvillage_loss3/classifier_plantvillage_0_split -> loss3/classifier_plantvillage_loss3/classifier_plantvillage_0_split_3
I0403 16:29:03.088052 21111 net.cpp:141] Setting up loss3/classifier_plantvillage_loss3/classifier_plantvillage_0_split
I0403 16:29:03.088075 21111 net.cpp:148] Top shape: 24 38 (912)
I0403 16:29:03.088090 21111 net.cpp:148] Top shape: 24 38 (912)
I0403 16:29:03.088105 21111 net.cpp:148] Top shape: 24 38 (912)
I0403 16:29:03.088120 21111 net.cpp:148] Top shape: 24 38 (912)
I0403 16:29:03.088135 21111 net.cpp:156] Memory required for data: 1346079072
I0403 16:29:03.088148 21111 layer_factory.hpp:77] Creating layer loss1/loss
I0403 16:29:03.088170 21111 net.cpp:91] Creating Layer loss1/loss
I0403 16:29:03.088186 21111 net.cpp:425] loss1/loss <- loss1/classifier_plantvillage_loss1/classifier_plantvillage_0_split_0
I0403 16:29:03.088219 21111 net.cpp:425] loss1/loss <- label_data_1_split_0
…
