…
I0403 16:06:22.174764 20728 net.cpp:313] The NetState phase (1) differed from the phase (0) specified by a rule in layer data
I0403 16:06:22.175914 20728 net.cpp:49] Initializing net from parameters: 
state {
  phase: TEST
}
layer {
  name: "data"
  type: "Data"
  top: "data"
  top: "label"
  include {
    phase: TEST
  }
  transform_param {
    mirror: false
    crop_size: 224
    mean_file: "/home/mohanty/data/final_dataset/lmdb/color-40-60/mean.binaryproto"
  }
  data_param {
    source: "/home/mohanty/data/final_dataset/lmdb/color-40-60/test_db"
    batch_size: 24
    backend: LMDB
  }
}
layer {
  name: "conv1/7x7_s2"
  type: "Convolution"
  bottom: "data"
  top: "conv1/7x7_s2"
  param {
    lr_mult: 1
    decay_mult: 1
  }
  param {
    lr_mult: 2
    decay_mult: 0
  }
  convolution_param {
    num_output: 64
    pad: 3
    kernel_size: 7
    stride: 2
    weight_filler {
      type: "xavier"
      std: 0.1
    }
    bias_filler {
      type: "constant"
      value: 0.2
    }
  }
}
layer {
  name: "conv1/relu_7x7"
  type: "ReLU"
  bottom: "conv1/7x7_s2"
  top: "conv1/7x7_s2"
}
layer {
  name: "pool1/3x3_s2"
  type: "Pooling"
  bottom: "conv1/7x7_s2"
  top: "pool1/3x3_s2"
  pooling_param {
    pool: MAX
    kernel_size: 3
    stride: 2
  }
}
layer {
  name: "pool1/norm1"
  type: "LRN"
  bottom: "pool1/3x3_s2"
  top: "pool1/norm1"
  lrn_param {
    local_size: 5
    alpha: 0.0001
    beta: 0.75
  }
}
layer {
  name: "conv2/3x3_reduce"
  type: "Convolution"
  bottom: "pool1/norm1"
  top: "conv2/3x3_reduce"
  param {
    lr_mult: 1
    decay_mult: 1
  }
  param {
    lr_mult: 2
    decay_mult: 0
  }
  convolution_param {
    num_output: 64
    kernel_size: 1
    weight_filler {
      type: "xavier"
      std: 0.1
    }
    bias_filler {
      type: "constant"
      value: 0.2
    }
  }
}
layer {
  name: "conv2/relu_3x3_reduce"
  type: "ReLU"
  bottom: "conv2/3x3_reduce"
  top: "conv2/3x3_reduce"
}
layer {
  name: "conv2/3x3"
  type: "Convolution"
  bottom: "conv2/3x3_reduce"
  top: "conv2/3x3"
  param {
    lr_mult: 1
    decay_mult: 1
  }
  param {
    lr_mult: 2
    decay_mult: 0
  }
  convolution_param {
    num_output: 192
    pad: 1
    kernel_size: 3
    weight_filler {
      type: "xavier"
      std: 0.03
    }
    bias_filler {
      type: "constant"
      value: 0.2
    }
  }
}
layer {
  name: "conv2/relu_3x3"
  type: "ReLU"
  bottom: "conv2/3x3"
  top: "conv2/3x3"
}
layer {
  name: "conv2/norm2"
  type: "LRN"
  bottom: "conv2/3x3"
  top: "conv2/norm2"
  lrn_param {
    local_size: 5
    alpha: 0.0001
    beta: 0.75
  }
}
layer {
  name: "pool2/3x3_s2"
  type: "Pooling"
  bottom: "conv2/norm2"
  top: "pool2/3x3_s2"
  pooling_param {
    pool: MAX
    kernel_size: 3
    stride: 2
  }
}
layer {
  name: "inception_3a/1x1"
  type: "Convolution"
  bottom: "pool2/3x3_s2"
  top: "inception_3a/1x1"
  param {
    lr_mult: 1
    decay_mult: 1
  }
  param {
    lr_mult: 2
    decay_mult: 0
  }
  convolution_param {
    num_output: 64
    kernel_size: 1
    weight_filler {
      type: "xavier"
      std: 0.03
    }
    bias_filler {
      type: "constant"
      value: 0.2
    }
  }
}
layer {
  name: "inception_3a/relu_1x1"
  type: "ReLU"
  bottom: "inception_3a/1x1"
  top: "inception_3a/1x1"
}
layer {
  name: "inception_3a/3x3_reduce"
  type: "Convolution"
  bottom: "pool2/3x3_s2"
  top: "inception_3a/3x3_reduce"
  param {
    lr_mult: 1
    decay_mult: 1
  }
  param {
    lr_mult: 2
    decay_mult: 0
  }
  convolution_param {
    num_output: 96
    kernel_size: 1
    weight_filler {
      type: "xavier"
      std: 0.09
    }
    bias_filler {
      type: "constant"
      value: 0.2
    }
  }
}
layer {
  name: "inception_3a/relu_3x3_reduce"
  type: "ReLU"
  bottom: "inception_3a/3x3_reduce"
  top: "inception_3a/3x3_reduce"
}
layer {
  name: "inception_3a/3x3"
  type: "Convolution"
  bottom: "inception_3a/3x3_reduce"
  top: "inception_3a/3x3"
  param {
    lr_mult: 1
    decay_mult: 1
  }
  param {
    lr_mult: 2
    decay_mult: 0
  }
  convolution_param {
    num_output: 128
    pad: 1
    kernel_size: 3
    weight_filler {
      type: "xavier"
      std: 0.03
    }
    bias_filler {
      type: "constant"
      value: 0.2
    }
  }
}
layer {
  name: "inception_3a/relu_3x3"
  type: "ReLU"
  bottom: "inception_3a/3x3"
  top: "inception_3a/3x3"
}
layer {
  name: "inception_3a/5x5_reduce"
  type: "Convolution"
  bottom: "pool2/3x3_s2"
  top: "inception_3a/5x5_reduce"
  param {
    lr_mult: 1
    decay_mult: 1
  }
  param {
    lr_mult: 2
    decay_mult: 0
  }
  convolution_param {
    num_output: 16
    kernel_size: 1
    weight_filler {
      type: "xavier"
      std: 0.2
    }
    bias_filler {
      type: "constant"
      value: 0.2
    }
  }
}
layer {
  name: "inception_3a/relu_5x5_reduce"
  type: "ReLU"
  bottom: "inception_3a/5x5_reduce"
  top: "inception_3a/5x5_reduce"
}
layer {
  name: "inception_3a/5x5"
  type: "Convolution"
  bottom: "inception_3a/5x5_reduce"
  top: "inception_3a/5x5"
  param {
    lr_mult: 1
    decay_mult: 1
  }
  param {
    lr_mult: 2
    decay_mult: 0
  }
  convolution_param {
    num_output: 32
    pad: 2
    kernel_size: 5
    weight_filler {
      type: "xavier"
      std: 0.03
    }
    bias_filler {
      type: "constant"
      value: 0.2
    }
  }
}
layer {
  name: "inception_3a/relu_5x5"
  type: "ReLU"
  bottom: "inception_3a/5x5"
  top: "inception_3a/5x5"
}
layer {
  name: "inception_3a/pool"
  type: "Pooling"
  bottom: "pool2/3x3_s2"
  top: "inception_3a/pool"
  pooling_param {
    pool: MAX
    kernel_size: 3
    stride: 1
    pad: 1
  }
}
layer {
  name: "inception_3a/pool_proj"
  type: "Convolution"
  bottom: "inception_3a/pool"
  top: "inception_3a/pool_proj"
  param {
    lr_mult: 1
    decay_mult: 1
  }
  param {
    lr_mult: 2
    decay_mult: 0
  }
  convolution_param {
    num_output: 32
    kernel_size: 1
    weight_filler {
      type: "xavier"
      std: 0.1
    }
    bias_filler {
      type: "constant"
      value: 0.2
    }
  }
}
layer {
  name: "inception_3a/relu_pool_proj"
  type: "ReLU"
  bottom: "inception_3a/pool_proj"
  top: "inception_3a/pool_proj"
}
layer {
  name: "inception_3a/output"
  type: "Concat"
  bottom: "inception_3a/1x1"
  bottom: "inception_3a/3x3"
  bottom: "inception_3a/5x5"
  bottom: "inception_3a/pool_proj"
  top: "inception_3a/output"
}
layer {
  name: "inception_3b/1x1"
  type: "Convolution"
  bottom: "inception_3a/output"
  top: "inception_3b/1x1"
  param {
    lr_mult: 1
    decay_mult: 1
  }
  param {
    lr_mult: 2
    decay_mult: 0
  }
  convolution_param {
    num_output: 128
    kernel_size: 1
    weight_filler {
      type: "xavier"
      std: 0.03
    }
    bias_filler {
      type: "constant"
      value: 0.2
    }
  }
}
layer {
  name: "inception_3b/relu_1x1"
  type: "ReLU"
  bottom: "inception_3b/1x1"
  top: "inception_3b/1x1"
}
layer {
  name: "inception_3b/3x3_reduce"
  type: "Convolution"
  bottom: "inception_3a/output"
  top: "inception_3b/3x3_reduce"
  param {
    lr_mult: 1
    decay_mult: 1
  }
  param {
    lr_mult: 2
    decay_mult: 0
  }
  convolution_param {
    num_output: 128
    kernel_size: 1
    weight_filler {
      type: "xavier"
      std: 0.09
    }
    bias_filler {
      type: "constant"
      value: 0.2
    }
  }
}
layer {
  name: "inception_3b/relu_3x3_reduce"
  type: "ReLU"
  bottom: "inception_3b/3x3_reduce"
  top: "inception_3b/3x3_reduce"
}
layer {
  name: "inception_3b/3x3"
  type: "Convolution"
  bottom: "inception_3b/3x3_reduce"
  top: "inception_3b/3x3"
  param {
    lr_mult: 1
    decay_mult: 1
  }
  param {
    lr_mult: 2
    decay_mult: 0
  }
  convolution_param {
    num_output: 192
    pad: 1
    kernel_size: 3
    weight_filler {
      type: "xavier"
      std: 0.03
    }
    bias_filler {
      type: "constant"
      value: 0.2
    }
  }
}
layer {
  name: "inception_3b/relu_3x3"
  type: "ReLU"
  bottom: "inception_3b/3x3"
  top: "inception_3b/3x3"
}
layer {
  name: "inception_3b/5x5_reduce"
  type: "Convolution"
  bottom: "inception_3a/output"
  top: "inception_3b/5x5_reduce"
  param {
    lr_mult: 1
    decay_mult: 1
  }
  param {
    lr_mult: 2
    decay_mult: 0
  }
  convolution_param {
    num_output: 32
    kernel_size: 1
    weight_filler {
      type: "xavier"
      std: 0.2
    }
    bias_filler {
      type: "constant"
      value: 0.2
    }
  }
}
layer {
  name: "inception_3b/relu_5x5_reduce"
  type: "ReLU"
  bottom: "inception_3b/5x5_reduce"
  top: "inception_3b/5x5_reduce"
}
layer {
  name: "inception_3b/5x5"
  type: "Convolution"
  bottom: "inception_3b/5x5_reduce"
  top: "inception_3b/5x5"
  param {
    lr_mult: 1
    decay_mult: 1
  }
  param {
    lr_mult: 2
    decay_mult: 0
  }
  convolution_param {
    num_output: 96
    pad: 2
    kernel_size: 5
    weight_filler {
      type: "xavier"
      std: 0.03
    }
    bias_filler {
      type: "constant"
      value: 0.2
    }
  }
}
layer {
  name: "inception_3b/relu_5x5"
  type: "ReLU"
  bottom: "inception_3b/5x5"
  top: "inception_3b/5x5"
}
layer {
  name: "inception_3b/pool"
  type: "Pooling"
  bottom: "inception_3a/output"
  top: "inception_3b/pool"
  pooling_param {
    pool: MAX
    kernel_size: 3
    stride: 1
    pad: 1
  }
}
layer {
  name: "inception_3b/pool_proj"
  type: "Convolution"
  bottom: "inception_3b/pool"
  top: "inception_3b/pool_proj"
  param {
    lr_mult: 1
    decay_mult: 1
  }
  param {
    lr_mult: 2
    decay_mult: 0
  }
  convolution_param {
    num_output: 64
    kernel_size: 1
    weight_filler {
      type: "xavier"
      std: 0.1
    }
    bias_filler {
      type: "constant"
      value: 0.2
    }
  }
}
layer {
  name: "inception_3b/relu_pool_proj"
  type: "ReLU"
  bottom: "inception_3b/pool_proj"
  top: "inception_3b/pool_proj"
}
layer {
  name: "inception_3b/output"
  type: "Concat"
  bottom: "inception_3b/1x1"
  bottom: "inception_3b/3x3"
  bottom: "inception_3b/5x5"
  bottom: "inception_3b/pool_proj"
  top: "inception_3b/output"
}
layer {
  name: "pool3/3x3_s2"
  type: "Pooling"
  bottom: "inception_3b/output"
  top: "pool3/3x3_s2"
  pooling_param {
    pool: MAX
    kernel_size: 3
    stride: 2
  }
}
layer {
  name: "inception_4a/1x1"
  type: "Convolution"
  bottom: "pool3/3x3_s2"
  top: "inception_4a/1x1"
  param {
    lr_mult: 1
    decay_mult: 1
  }
  param {
    lr_mult: 2
    decay_mult: 0
  }
  convolution_param {
    num_output: 192
    kernel_size: 1
    weight_filler {
      type: "xavier"
      std: 0.03
    }
    bias_filler {
      type: "constant"
      value: 0.2
    }
  }
}
layer {
  name: "inception_4a/relu_1x1"
  type: "ReLU"
  bottom: "inception_4a/1x1"
  top: "inception_4a/1x1"
}
layer {
  name: "inception_4a/3x3_reduce"
  type: "Convolution"
  bottom: "pool3/3x3_s2"
  top: "inception_4a/3x3_reduce"
  param {
    lr_mult: 1
    decay_mult: 1
  }
  param {
    lr_mult: 2
    decay_mult: 0
  }
  convolution_param {
    num_output: 96
    kernel_size: 1
    weight_filler {
      type: "xavier"
      std: 0.09
    }
    bias_filler {
      type: "constant"
      value: 0.2
    }
  }
}
layer {
  name: "inception_4a/relu_3x3_reduce"
  type: "ReLU"
  bottom: "inception_4a/3x3_reduce"
  top: "inception_4a/3x3_reduce"
}
layer {
  name: "inception_4a/3x3"
  type: "Convolution"
  bottom: "inception_4a/3x3_reduce"
  top: "inception_4a/3x3"
  param {
    lr_mult: 1
    decay_mult: 1
  }
  param {
    lr_mult: 2
    decay_mult: 0
  }
  convolution_param {
    num_output: 208
    pad: 1
    kernel_size: 3
    weight_filler {
      type: "xavier"
      std: 0.03
    }
    bias_filler {
      type: "constant"
      value: 0.2
    }
  }
}
layer {
  name: "inception_4a/relu_3x3"
  type: "ReLU"
  bottom: "inception_4a/3x3"
  top: "inception_4a/3x3"
}
layer {
  name: "inception_4a/5x5_reduce"
  type: "Convolution"
  bottom: "pool3/3x3_s2"
  top: "inception_4a/5x5_reduce"
  param {
    lr_mult: 1
    decay_mult: 1
  }
  param {
    lr_mult: 2
    decay_mult: 0
  }
  convolution_param {
    num_output: 16
    kernel_size: 1
    weight_filler {
      type: "xavier"
      std: 0.2
    }
    bias_filler {
      type: "constant"
      value: 0.2
    }
  }
}
layer {
  name: "inception_4a/relu_5x5_reduce"
  type: "ReLU"
  bottom: "inception_4a/5x5_reduce"
  top: "inception_4a/5x5_reduce"
}
layer {
  name: "inception_4a/5x5"
  type: "Convolution"
  bottom: "inception_4a/5x5_reduce"
  top: "inception_4a/5x5"
  param {
    lr_mult: 1
    decay_mult: 1
  }
  param {
    lr_mult: 2
    decay_mult: 0
  }
  convolution_param {
    num_output: 48
    pad: 2
    kernel_size: 5
    weight_filler {
      type: "xavier"
      std: 0.03
    }
    bias_filler {
      type: "constant"
      value: 0.2
    }
  }
}
layer {
  name: "inception_4a/relu_5x5"
  type: "ReLU"
  bottom: "inception_4a/5x5"
  top: "inception_4a/5x5"
}
layer {
  name: "inception_4a/pool"
  type: "Pooling"
  bottom: "pool3/3x3_s2"
  top: "inception_4a/pool"
  pooling_param {
    pool: MAX
    kernel_size: 3
    stride: 1
    pad: 1
  }
}
layer {
  name: "inception_4a/pool_proj"
  type: "Convolution"
  bottom: "inception_4a/pool"
  top: "inception_4a/pool_proj"
  param {
    lr_mult: 1
    decay_mult: 1
  }
  param {
    lr_mult: 2
    decay_mult: 0
  }
  convolution_param {
    num_output: 64
    kernel_size: 1
    weight_filler {
      type: "xavier"
      std: 0.1
    }
    bias_filler {
      type: "constant"
      value: 0.2
    }
  }
}
layer {
  name: "inception_4a/relu_pool_proj"
  type: "ReLU"
  bottom: "inception_4a/pool_proj"
  top: "inception_4a/pool_proj"
}
layer {
  name: "inception_4a/output"
  type: "Concat"
  bottom: "inception_4a/1x1"
  bottom: "inception_4a/3x3"
  bottom: "inception_4a/5x5"
  bottom: "inception_4a/pool_proj"
  top: "inception_4a/output"
}
layer {
  name: "loss1/ave_pool"
  type: "Pooling"
  bottom: "inception_4a/output"
  top: "loss1/ave_pool"
  pooling_param {
    pool: AVE
    kernel_size: 5
    stride: 3
  }
}
layer {
  name: "loss1/conv"
  type: "Convolution"
  bottom: "loss1/ave_pool"
  top: "loss1/conv"
  param {
    lr_mult: 1
    decay_mult: 1
  }
  param {
    lr_mult: 2
    decay_mult: 0
  }
  convolution_param {
    num_output: 128
    kernel_size: 1
    weight_filler {
      type: "xavier"
      std: 0.08
    }
    bias_filler {
      type: "constant"
      value: 0.2
    }
  }
}
layer {
  name: "loss1/relu_conv"
  type: "ReLU"
  bottom: "loss1/conv"
  top: "loss1/conv"
}
layer {
  name: "loss1/fc"
  type: "InnerProduct"
  bottom: "loss1/conv"
  top: "loss1/fc"
  param {
    lr_mult: 1
    decay_mult: 1
  }
  param {
    lr_mult: 2
    decay_mult: 0
  }
  inner_product_param {
    num_output: 1024
    weight_filler {
      type: "xavier"
      std: 0.02
    }
    bias_filler {
      type: "constant"
      value: 0.2
    }
  }
}
layer {
  name: "loss1/relu_fc"
  type: "ReLU"
  bottom: "loss1/fc"
  top: "loss1/fc"
}
layer {
  name: "loss1/drop_fc"
  type: "Dropout"
  bottom: "loss1/fc"
  top: "loss1/fc"
  dropout_param {
    dropout_ratio: 0.7
  }
}
layer {
  name: "loss1/classifier_plantvillage"
  type: "InnerProduct"
  bottom: "loss1/fc"
  top: "loss1/classifier_plantvillage"
  param {
    lr_mult: 1
    decay_mult: 1
  }
  param {
    lr_mult: 2
    decay_mult: 0
  }
  inner_product_param {
    num_output: 38
    weight_filler {
      type: "xavier"
      std: 0.0009765625
    }
    bias_filler {
      type: "constant"
      value: 0
    }
  }
}
layer {
  name: "inception_4b/1x1"
  type: "Convolution"
  bottom: "inception_4a/output"
  top: "inception_4b/1x1"
  param {
    lr_mult: 1
    decay_mult: 1
  }
  param {
    lr_mult: 2
    decay_mult: 0
  }
  convolution_param {
    num_output: 160
    kernel_size: 1
    weight_filler {
      type: "xavier"
      std: 0.03
    }
    bias_filler {
      type: "constant"
      value: 0.2
    }
  }
}
layer {
  name: "inception_4b/relu_1x1"
  type: "ReLU"
  bottom: "inception_4b/1x1"
  top: "inception_4b/1x1"
}
layer {
  name: "inception_4b/3x3_reduce"
  type: "Convolution"
  bottom: "inception_4a/output"
  top: "inception_4b/3x3_reduce"
  param {
    lr_mult: 1
    decay_mult: 1
  }
  param {
    lr_mult: 2
    decay_mult: 0
  }
  convolution_param {
    num_output: 112
    kernel_size: 1
    weight_filler {
      type: "xavier"
      std: 0.09
    }
    bias_filler {
      type: "constant"
      value: 0.2
    }
  }
}
layer {
  name: "inception_4b/relu_3x3_reduce"
  type: "ReLU"
  bottom: "inception_4b/3x3_reduce"
  top: "inception_4b/3x3_reduce"
}
layer {
  name: "inception_4b/3x3"
  type: "Convolution"
  bottom: "inception_4b/3x3_reduce"
  top: "inception_4b/3x3"
  param {
    lr_mult: 1
    decay_mult: 1
  }
  param {
    lr_mult: 2
    decay_mult: 0
  }
  convolution_param {
    num_output: 224
    pad: 1
    kernel_size: 3
    weight_filler {
      type: "xavier"
      std: 0.03
    }
    bias_filler {
      type: "constant"
      value: 0.2
    }
  }
}
layer {
  name: "inception_4b/relu_3x3"
  type: "ReLU"
  bottom: "inception_4b/3x3"
  top: "inception_4b/3x3"
}
layer {
  name: "inception_4b/5x5_reduce"
  type: "Convolution"
  bottom: "inception_4a/output"
  top: "inception_4b/5x5_reduce"
  param {
    lr_mult: 1
    decay_mult: 1
  }
  param {
    lr_mult: 2
    decay_mult: 0
  }
  convolution_param {
    num_output: 24
    kernel_size: 1
    weight_filler {
      type: "xavier"
      std: 0.2
    }
    bias_filler {
      type: "constant"
      value: 0.2
    }
  }
}
layer {
  name: "inception_4b/relu_5x5_reduce"
  type: "ReLU"
  bottom: "inception_4b/5x5_reduce"
  top: "inception_4b/5x5_reduce"
}
layer {
  name: "inception_4b/5x5"
  type: "Convolution"
  bottom: "inception_4b/5x5_reduce"
  top: "inception_4b/5x5"
  param {
    lr_mult: 1
    decay_mult: 1
  }
  param {
    lr_mult: 2
    decay_mult: 0
  }
  convolution_param {
    num_output: 64
    pad: 2
    kernel_size: 5
    weight_filler {
      type: "xavier"
      std: 0.03
    }
    bias_filler {
      type: "constant"
      value: 0.2
    }
  }
}
layer {
  name: "inception_4b/relu_5x5"
  type: "ReLU"
  bottom: "inception_4b/5x5"
  top: "inception_4b/5x5"
}
layer {
  name: "inception_4b/pool"
  type: "Pooling"
  bottom: "inception_4a/output"
  top: "inception_4b/pool"
  pooling_param {
    pool: MAX
    kernel_size: 3
    stride: 1
    pad: 1
  }
}
layer {
  name: "inception_4b/pool_proj"
  type: "Convolution"
  bottom: "inception_4b/pool"
  top: "inception_4b/pool_proj"
  param {
    lr_mult: 1
    decay_mult: 1
  }
  param {
    lr_mult: 2
    decay_mult: 0
  }
  convolution_param {
    num_output: 64
    kernel_size: 1
    weight_filler {
      type: "xavier"
      std: 0.1
    }
    bias_filler {
      type: "constant"
      value: 0.2
    }
  }
}
layer {
  name: "inception_4b/relu_pool_proj"
  type: "ReLU"
  bottom: "inception_4b/pool_proj"
  top: "inception_4b/pool_proj"
}
layer {
  name: "inception_4b/output"
  type: "Concat"
  bottom: "inception_4b/1x1"
  bottom: "inception_4b/3x3"
  bottom: "inception_4b/5x5"
  bottom: "inception_4b/pool_proj"
  top: "inception_4b/output"
}
layer {
  name: "inception_4c/1x1"
  type: "Convolution"
  bottom: "inception_4b/output"
  top: "inception_4c/1x1"
  param {
    lr_mult: 1
    decay_mult: 1
  }
  param {
    lr_mult: 2
    decay_mult: 0
  }
  convolution_param {
    num_output: 128
    kernel_size: 1
    weight_filler {
      type: "xavier"
      std: 0.03
    }
    bias_filler {
      type: "constant"
      value: 0.2
    }
  }
}
layer {
  name: "inception_4c/relu_1x1"
  type: "ReLU"
  bottom: "inception_4c/1x1"
  top: "inception_4c/1x1"
}
layer {
  name: "inception_4c/3x3_reduce"
  type: "Convolution"
  bottom: "inception_4b/output"
  top: "inception_4c/3x3_reduce"
  param {
    lr_mult: 1
    decay_mult: 1
  }
  param {
    lr_mult: 2
    decay_mult: 0
  }
  convolution_param {
    num_output: 128
    kernel_size: 1
    weight_filler {
      type: "xavier"
      std: 0.09
    }
    bias_filler {
      type: "constant"
      value: 0.2
    }
  }
}
layer {
  name: "inception_4c/relu_3x3_reduce"
  type: "ReLU"
  bottom: "inception_4c/3x3_reduce"
  top: "inception_4c/3x3_reduce"
}
layer {
  name: "inception_4c/3x3"
  type: "Convolution"
  bottom: "inception_4c/3x3_reduce"
  top: "inception_4c/3x3"
  param {
    lr_mult: 1
    decay_mult: 1
  }
  param {
    lr_mult: 2
    decay_mult: 0
  }
  convolution_param {
    num_output: 256
    pad: 1
    kernel_size: 3
    weight_filler {
      type: "xavier"
      std: 0.03
    }
    bias_filler {
      type: "constant"
      value: 0.2
    }
  }
}
layer {
  name: "inception_4c/relu_3x3"
  type: "ReLU"
  bottom: "inception_4c/3x3"
  top: "inception_4c/3x3"
}
layer {
  name: "inception_4c/5x5_reduce"
  type: "Convolution"
  bottom: "inception_4b/output"
  top: "inception_4c/5x5_reduce"
  param {
    lr_mult: 1
    decay_mult: 1
  }
  param {
    lr_mult: 2
    decay_mult: 0
  }
  convolution_param {
    num_output: 24
    kernel_size: 1
    weight_filler {
      type: "xavier"
      std: 0.2
    }
    bias_filler {
      type: "constant"
      value: 0.2
    }
  }
}
layer {
  name: "inception_4c/relu_5x5_reduce"
  type: "ReLU"
  bottom: "inception_4c/5x5_reduce"
  top: "inception_4c/5x5_reduce"
}
layer {
  name: "inception_4c/5x5"
  type: "Convolution"
  bottom: "inception_4c/5x5_reduce"
  top: "inception_4c/5x5"
  param {
    lr_mult: 1
    decay_mult: 1
  }
  param {
    lr_mult: 2
    decay_mult: 0
  }
  convolution_param {
    num_output: 64
    pad: 2
    kernel_size: 5
    weight_filler {
      type: "xavier"
      std: 0.03
    }
    bias_filler {
      type: "constant"
      value: 0.2
    }
  }
}
layer {
  name: "inception_4c/relu_5x5"
  type: "ReLU"
  bottom: "inception_4c/5x5"
  top: "inception_4c/5x5"
}
layer {
  name: "inception_4c/pool"
  type: "Pooling"
  bottom: "inception_4b/output"
  top: "inception_4c/pool"
  pooling_param {
    pool: MAX
    kernel_size: 3
    stride: 1
    pad: 1
  }
}
layer {
  name: "inception_4c/pool_proj"
  type: "Convolution"
  bottom: "inception_4c/pool"
  top: "inception_4c/pool_proj"
  param {
    lr_mult: 1
    decay_mult: 1
  }
  param {
    lr_mult: 2
    decay_mult: 0
  }
  convolution_param {
    num_output: 64
    kernel_size: 1
    weight_filler {
      type: "xavier"
      std: 0.1
    }
    bias_filler {
      type: "constant"
      value: 0.2
    }
  }
}
layer {
  name: "inception_4c/relu_pool_proj"
  type: "ReLU"
  bottom: "inception_4c/pool_proj"
  top: "inception_4c/pool_proj"
}
layer {
  name: "inception_4c/output"
  type: "Concat"
  bottom: "inception_4c/1x1"
  bottom: "inception_4c/3x3"
  bottom: "inception_4c/5x5"
  bottom: "inception_4c/pool_proj"
  top: "inception_4c/output"
}
layer {
  name: "inception_4d/1x1"
  type: "Convolution"
  bottom: "inception_4c/output"
  top: "inception_4d/1x1"
  param {
    lr_mult: 1
    decay_mult: 1
  }
  param {
    lr_mult: 2
    decay_mult: 0
  }
  convolution_param {
    num_output: 112
    kernel_size: 1
    weight_filler {
      type: "xavier"
      std: 0.03
    }
    bias_filler {
      type: "constant"
      value: 0.2
    }
  }
}
layer {
  name: "inception_4d/relu_1x1"
  type: "ReLU"
  bottom: "inception_4d/1x1"
  top: "inception_4d/1x1"
}
layer {
  name: "inception_4d/3x3_reduce"
  type: "Convolution"
  bottom: "inception_4c/output"
  top: "inception_4d/3x3_reduce"
  param {
    lr_mult: 1
    decay_mult: 1
  }
  param {
    lr_mult: 2
    decay_mult: 0
  }
  convolution_param {
    num_output: 144
    kernel_size: 1
    weight_filler {
      type: "xavier"
      std: 0.09
    }
    bias_filler {
      type: "constant"
      value: 0.2
    }
  }
}
layer {
  name: "inception_4d/relu_3x3_reduce"
  type: "ReLU"
  bottom: "inception_4d/3x3_reduce"
  top: "inception_4d/3x3_reduce"
}
layer {
  name: "inception_4d/3x3"
  type: "Convolution"
  bottom: "inception_4d/3x3_reduce"
  top: "inception_4d/3x3"
  param {
    lr_mult: 1
    decay_mult: 1
  }
  param {
    lr_mult: 2
    decay_mult: 0
  }
  convolution_param {
    num_output: 288
    pad: 1
    kernel_size: 3
    weight_filler {
      type: "xavier"
      std: 0.03
    }
    bias_filler {
      type: "constant"
      value: 0.2
    }
  }
}
layer {
  name: "inception_4d/relu_3x3"
  type: "ReLU"
  bottom: "inception_4d/3x3"
  top: "inception_4d/3x3"
}
layer {
  name: "inception_4d/5x5_reduce"
  type: "Convolution"
  bottom: "inception_4c/output"
  top: "inception_4d/5x5_reduce"
  param {
    lr_mult: 1
    decay_mult: 1
  }
  param {
    lr_mult: 2
    decay_mult: 0
  }
  convolution_param {
    num_output: 32
    kernel_size: 1
    weight_filler {
      type: "xavier"
      std: 0.2
    }
    bias_filler {
      type: "constant"
      value: 0.2
    }
  }
}
layer {
  name: "inception_4d/relu_5x5_reduce"
  type: "ReLU"
  bottom: "inception_4d/5x5_reduce"
  top: "inception_4d/5x5_reduce"
}
layer {
  name: "inception_4d/5x5"
  type: "Convolution"
  bottom: "inception_4d/5x5_reduce"
  top: "inception_4d/5x5"
  param {
    lr_mult: 1
    decay_mult: 1
  }
  param {
    lr_mult: 2
    decay_mult: 0
  }
  convolution_param {
    num_output: 64
    pad: 2
    kernel_size: 5
    weight_filler {
      type: "xavier"
      std: 0.03
    }
    bias_filler {
      type: "constant"
      value: 0.2
    }
  }
}
layer {
  name: "inception_4d/relu_5x5"
  type: "ReLU"
  bottom: "inception_4d/5x5"
  top: "inception_4d/5x5"
}
layer {
  name: "inception_4d/pool"
  type: "Pooling"
  bottom: "inception_4c/output"
  top: "inception_4d/pool"
  pooling_param {
    pool: MAX
    kernel_size: 3
    stride: 1
    pad: 1
  }
}
layer {
  name: "inception_4d/pool_proj"
  type: "Convolution"
  bottom: "inception_4d/pool"
  top: "inception_4d/pool_proj"
  param {
    lr_mult: 1
    decay_mult: 1
  }
  param {
    lr_mult: 2
    decay_mult: 0
  }
  convolution_param {
    num_output: 64
    kernel_size: 1
    weight_filler {
      type: "xavier"
      std: 0.1
    }
    bias_filler {
      type: "constant"
      value: 0.2
    }
  }
}
layer {
  name: "inception_4d/relu_pool_proj"
  type: "ReLU"
  bottom: "inception_4d/pool_proj"
  top: "inception_4d/pool_proj"
}
layer {
  name: "inception_4d/output"
  type: "Concat"
  bottom: "inception_4d/1x1"
  bottom: "inception_4d/3x3"
  bottom: "inception_4d/5x5"
  bottom: "inception_4d/pool_proj"
  top: "inception_4d/output"
}
layer {
  name: "loss2/ave_pool"
  type: "Pooling"
  bottom: "inception_4d/output"
  top: "loss2/ave_pool"
  pooling_param {
    pool: AVE
    kernel_size: 5
    stride: 3
  }
}
layer {
  name: "loss2/conv"
  type: "Convolution"
  bottom: "loss2/ave_pool"
  top: "loss2/conv"
  param {
    lr_mult: 1
    decay_mult: 1
  }
  param {
    lr_mult: 2
    decay_mult: 0
  }
  convolution_param {
    num_output: 128
    kernel_size: 1
    weight_filler {
      type: "xavier"
      std: 0.08
    }
    bias_filler {
      type: "constant"
      value: 0.2
    }
  }
}
layer {
  name: "loss2/relu_conv"
  type: "ReLU"
  bottom: "loss2/conv"
  top: "loss2/conv"
}
layer {
  name: "loss2/fc"
  type: "InnerProduct"
  bottom: "loss2/conv"
  top: "loss2/fc"
  param {
    lr_mult: 1
    decay_mult: 1
  }
  param {
    lr_mult: 2
    decay_mult: 0
  }
  inner_product_param {
    num_output: 1024
    weight_filler {
      type: "xavier"
      std: 0.02
    }
    bias_filler {
      type: "constant"
      value: 0.2
    }
  }
}
layer {
  name: "loss2/relu_fc"
  type: "ReLU"
  bottom: "loss2/fc"
  top: "loss2/fc"
}
layer {
  name: "loss2/drop_fc"
  type: "Dropout"
  bottom: "loss2/fc"
  top: "loss2/fc"
  dropout_param {
    dropout_ratio: 0.7
  }
}
layer {
  name: "loss2/classifier_plantvillage"
  type: "InnerProduct"
  bottom: "loss2/fc"
  top: "loss2/classifier_plantvillage"
  param {
    lr_mult: 1
    decay_mult: 1
  }
  param {
    lr_mult: 2
    decay_mult: 0
  }
  inner_product_param {
    num_output: 38
    weight_filler {
      type: "xavier"
      std: 0.0009765625
    }
    bias_filler {
      type: "constant"
      value: 0
    }
  }
}
layer {
  name: "inception_4e/1x1"
  type: "Convolution"
  bottom: "inception_4d/output"
  top: "inception_4e/1x1"
  param {
    lr_mult: 1
    decay_mult: 1
  }
  param {
    lr_mult: 2
    decay_mult: 0
  }
  convolution_param {
    num_output: 256
    kernel_size: 1
    weight_filler {
      type: "xavier"
      std: 0.03
    }
    bias_filler {
      type: "constant"
      value: 0.2
    }
  }
}
layer {
  name: "inception_4e/relu_1x1"
  type: "ReLU"
  bottom: "inception_4e/1x1"
  top: "inception_4e/1x1"
}
layer {
  name: "inception_4e/3x3_reduce"
  type: "Convolution"
  bottom: "inception_4d/output"
  top: "inception_4e/3x3_reduce"
  param {
    lr_mult: 1
    decay_mult: 1
  }
  param {
    lr_mult: 2
    decay_mult: 0
  }
  convolution_param {
    num_output: 160
    kernel_size: 1
    weight_filler {
      type: "xavier"
      std: 0.09
    }
    bias_filler {
      type: "constant"
      value: 0.2
    }
  }
}
layer {
  name: "inception_4e/relu_3x3_reduce"
  type: "ReLU"
  bottom: "inception_4e/3x3_reduce"
  top: "inception_4e/3x3_reduce"
}
layer {
  name: "inception_4e/3x3"
  type: "Convolution"
  bottom: "inception_4e/3x3_reduce"
  top: "inception_4e/3x3"
  param {
    lr_mult: 1
    decay_mult: 1
  }
  param {
    lr_mult: 2
    decay_mult: 0
  }
  convolution_param {
    num_output: 320
    pad: 1
    kernel_size: 3
    weight_filler {
      type: "xavier"
      std: 0.03
    }
    bias_filler {
      type: "constant"
      value: 0.2
    }
  }
}
layer {
  name: "inception_4e/relu_3x3"
  type: "ReLU"
  bottom: "inception_4e/3x3"
  top: "inception_4e/3x3"
}
layer {
  name: "inception_4e/5x5_reduce"
  type: "Convolution"
  bottom: "inception_4d/output"
  top: "inception_4e/5x5_reduce"
  param {
    lr_mult: 1
    decay_mult: 1
  }
  param {
    lr_mult: 2
    decay_mult: 0
  }
  convolution_param {
    num_output: 32
    kernel_size: 1
    weight_filler {
      type: "xavier"
      std: 0.2
    }
    bias_filler {
      type: "constant"
      value: 0.2
    }
  }
}
layer {
  name: "inception_4e/relu_5x5_reduce"
  type: "ReLU"
  bottom: "inception_4e/5x5_reduce"
  top: "inception_4e/5x5_reduce"
}
layer {
  name: "inception_4e/5x5"
  type: "Convolution"
  bottom: "inception_4e/5x5_reduce"
  top: "inception_4e/5x5"
  p
I0403 16:06:22.177189 20728 layer_factory.hpp:77] Creating layer data
I0403 16:06:22.177834 20728 net.cpp:91] Creating Layer data
I0403 16:06:22.177867 20728 net.cpp:399] data -> data
I0403 16:06:22.177927 20728 net.cpp:399] data -> label
I0403 16:06:22.177976 20728 data_transformer.cpp:25] Loading mean file from: /home/mohanty/data/final_dataset/lmdb/color-40-60/mean.binaryproto
I0403 16:06:22.179231 20731 db_lmdb.cpp:38] Opened lmdb /home/mohanty/data/final_dataset/lmdb/color-40-60/test_db
I0403 16:06:22.191148 20728 data_layer.cpp:41] output data size: 24,3,224,224
I0403 16:06:22.221171 20728 net.cpp:141] Setting up data
I0403 16:06:22.221230 20728 net.cpp:148] Top shape: 24 3 224 224 (3612672)
I0403 16:06:22.221253 20728 net.cpp:148] Top shape: 24 (24)
I0403 16:06:22.221268 20728 net.cpp:156] Memory required for data: 14450784
I0403 16:06:22.221295 20728 layer_factory.hpp:77] Creating layer label_data_1_split
I0403 16:06:22.221321 20728 net.cpp:91] Creating Layer label_data_1_split
I0403 16:06:22.221338 20728 net.cpp:425] label_data_1_split <- label
I0403 16:06:22.221369 20728 net.cpp:399] label_data_1_split -> label_data_1_split_0
I0403 16:06:22.221395 20728 net.cpp:399] label_data_1_split -> label_data_1_split_1
I0403 16:06:22.221416 20728 net.cpp:399] label_data_1_split -> label_data_1_split_2
I0403 16:06:22.221437 20728 net.cpp:399] label_data_1_split -> label_data_1_split_3
I0403 16:06:22.221457 20728 net.cpp:399] label_data_1_split -> label_data_1_split_4
I0403 16:06:22.221475 20728 net.cpp:399] label_data_1_split -> label_data_1_split_5
I0403 16:06:22.221494 20728 net.cpp:399] label_data_1_split -> label_data_1_split_6
I0403 16:06:22.221513 20728 net.cpp:399] label_data_1_split -> label_data_1_split_7
I0403 16:06:22.221532 20728 net.cpp:399] label_data_1_split -> label_data_1_split_8
I0403 16:06:22.221552 20728 net.cpp:399] label_data_1_split -> label_data_1_split_9
I0403 16:06:22.221668 20728 net.cpp:141] Setting up label_data_1_split
I0403 16:06:22.221691 20728 net.cpp:148] Top shape: 24 (24)
I0403 16:06:22.221707 20728 net.cpp:148] Top shape: 24 (24)
I0403 16:06:22.221724 20728 net.cpp:148] Top shape: 24 (24)
I0403 16:06:22.221738 20728 net.cpp:148] Top shape: 24 (24)
I0403 16:06:22.221755 20728 net.cpp:148] Top shape: 24 (24)
I0403 16:06:22.221770 20728 net.cpp:148] Top shape: 24 (24)
I0403 16:06:22.221784 20728 net.cpp:148] Top shape: 24 (24)
I0403 16:06:22.221799 20728 net.cpp:148] Top shape: 24 (24)
I0403 16:06:22.221814 20728 net.cpp:148] Top shape: 24 (24)
I0403 16:06:22.221830 20728 net.cpp:148] Top shape: 24 (24)
I0403 16:06:22.221873 20728 net.cpp:156] Memory required for data: 14451744
I0403 16:06:22.221890 20728 layer_factory.hpp:77] Creating layer conv1/7x7_s2
I0403 16:06:22.221921 20728 net.cpp:91] Creating Layer conv1/7x7_s2
I0403 16:06:22.221940 20728 net.cpp:425] conv1/7x7_s2 <- data
I0403 16:06:22.221958 20728 net.cpp:399] conv1/7x7_s2 -> conv1/7x7_s2
I0403 16:06:22.364648 20728 net.cpp:141] Setting up conv1/7x7_s2
I0403 16:06:22.364737 20728 net.cpp:148] Top shape: 24 64 112 112 (19267584)
I0403 16:06:22.364755 20728 net.cpp:156] Memory required for data: 91522080
I0403 16:06:22.364784 20728 layer_factory.hpp:77] Creating layer conv1/relu_7x7
I0403 16:06:22.364810 20728 net.cpp:91] Creating Layer conv1/relu_7x7
I0403 16:06:22.364828 20728 net.cpp:425] conv1/relu_7x7 <- conv1/7x7_s2
I0403 16:06:22.364848 20728 net.cpp:386] conv1/relu_7x7 -> conv1/7x7_s2 (in-place)
I0403 16:06:22.365108 20728 net.cpp:141] Setting up conv1/relu_7x7
I0403 16:06:22.365135 20728 net.cpp:148] Top shape: 24 64 112 112 (19267584)
I0403 16:06:22.365150 20728 net.cpp:156] Memory required for data: 168592416
I0403 16:06:22.365164 20728 layer_factory.hpp:77] Creating layer pool1/3x3_s2
I0403 16:06:22.365188 20728 net.cpp:91] Creating Layer pool1/3x3_s2
I0403 16:06:22.365206 20728 net.cpp:425] pool1/3x3_s2 <- conv1/7x7_s2
I0403 16:06:22.365223 20728 net.cpp:399] pool1/3x3_s2 -> pool1/3x3_s2
I0403 16:06:22.365295 20728 net.cpp:141] Setting up pool1/3x3_s2
I0403 16:06:22.365319 20728 net.cpp:148] Top shape: 24 64 56 56 (4816896)
I0403 16:06:22.365334 20728 net.cpp:156] Memory required for data: 187860000
I0403 16:06:22.365347 20728 layer_factory.hpp:77] Creating layer pool1/norm1
I0403 16:06:22.365371 20728 net.cpp:91] Creating Layer pool1/norm1
I0403 16:06:22.365389 20728 net.cpp:425] pool1/norm1 <- pool1/3x3_s2
I0403 16:06:22.365406 20728 net.cpp:399] pool1/norm1 -> pool1/norm1
I0403 16:06:22.365685 20728 net.cpp:141] Setting up pool1/norm1
I0403 16:06:22.365712 20728 net.cpp:148] Top shape: 24 64 56 56 (4816896)
I0403 16:06:22.365726 20728 net.cpp:156] Memory required for data: 207127584
I0403 16:06:22.365741 20728 layer_factory.hpp:77] Creating layer conv2/3x3_reduce
I0403 16:06:22.365764 20728 net.cpp:91] Creating Layer conv2/3x3_reduce
I0403 16:06:22.365780 20728 net.cpp:425] conv2/3x3_reduce <- pool1/norm1
I0403 16:06:22.365799 20728 net.cpp:399] conv2/3x3_reduce -> conv2/3x3_reduce
I0403 16:06:22.367097 20728 net.cpp:141] Setting up conv2/3x3_reduce
I0403 16:06:22.367126 20728 net.cpp:148] Top shape: 24 64 56 56 (4816896)
I0403 16:06:22.367141 20728 net.cpp:156] Memory required for data: 226395168
I0403 16:06:22.367161 20728 layer_factory.hpp:77] Creating layer conv2/relu_3x3_reduce
I0403 16:06:22.367182 20728 net.cpp:91] Creating Layer conv2/relu_3x3_reduce
I0403 16:06:22.367197 20728 net.cpp:425] conv2/relu_3x3_reduce <- conv2/3x3_reduce
I0403 16:06:22.367214 20728 net.cpp:386] conv2/relu_3x3_reduce -> conv2/3x3_reduce (in-place)
I0403 16:06:22.367460 20728 net.cpp:141] Setting up conv2/relu_3x3_reduce
I0403 16:06:22.367486 20728 net.cpp:148] Top shape: 24 64 56 56 (4816896)
I0403 16:06:22.367501 20728 net.cpp:156] Memory required for data: 245662752
I0403 16:06:22.367516 20728 layer_factory.hpp:77] Creating layer conv2/3x3
I0403 16:06:22.367537 20728 net.cpp:91] Creating Layer conv2/3x3
I0403 16:06:22.367553 20728 net.cpp:425] conv2/3x3 <- conv2/3x3_reduce
I0403 16:06:22.367573 20728 net.cpp:399] conv2/3x3 -> conv2/3x3
I0403 16:06:22.369768 20728 net.cpp:141] Setting up conv2/3x3
I0403 16:06:22.369799 20728 net.cpp:148] Top shape: 24 192 56 56 (14450688)
I0403 16:06:22.369817 20728 net.cpp:156] Memory required for data: 303465504
I0403 16:06:22.369837 20728 layer_factory.hpp:77] Creating layer conv2/relu_3x3
I0403 16:06:22.369855 20728 net.cpp:91] Creating Layer conv2/relu_3x3
I0403 16:06:22.369870 20728 net.cpp:425] conv2/relu_3x3 <- conv2/3x3
I0403 16:06:22.369887 20728 net.cpp:386] conv2/relu_3x3 -> conv2/3x3 (in-place)
I0403 16:06:22.370050 20728 net.cpp:141] Setting up conv2/relu_3x3
I0403 16:06:22.370074 20728 net.cpp:148] Top shape: 24 192 56 56 (14450688)
I0403 16:06:22.370120 20728 net.cpp:156] Memory required for data: 361268256
I0403 16:06:22.370136 20728 layer_factory.hpp:77] Creating layer conv2/norm2
I0403 16:06:22.370153 20728 net.cpp:91] Creating Layer conv2/norm2
I0403 16:06:22.370169 20728 net.cpp:425] conv2/norm2 <- conv2/3x3
I0403 16:06:22.370187 20728 net.cpp:399] conv2/norm2 -> conv2/norm2
I0403 16:06:22.370468 20728 net.cpp:141] Setting up conv2/norm2
I0403 16:06:22.370496 20728 net.cpp:148] Top shape: 24 192 56 56 (14450688)
I0403 16:06:22.370510 20728 net.cpp:156] Memory required for data: 419071008
I0403 16:06:22.370525 20728 layer_factory.hpp:77] Creating layer pool2/3x3_s2
I0403 16:06:22.370543 20728 net.cpp:91] Creating Layer pool2/3x3_s2
I0403 16:06:22.370558 20728 net.cpp:425] pool2/3x3_s2 <- conv2/norm2
I0403 16:06:22.370576 20728 net.cpp:399] pool2/3x3_s2 -> pool2/3x3_s2
I0403 16:06:22.370625 20728 net.cpp:141] Setting up pool2/3x3_s2
I0403 16:06:22.370647 20728 net.cpp:148] Top shape: 24 192 28 28 (3612672)
I0403 16:06:22.370661 20728 net.cpp:156] Memory required for data: 433521696
I0403 16:06:22.370676 20728 layer_factory.hpp:77] Creating layer pool2/3x3_s2_pool2/3x3_s2_0_split
I0403 16:06:22.370693 20728 net.cpp:91] Creating Layer pool2/3x3_s2_pool2/3x3_s2_0_split
I0403 16:06:22.370708 20728 net.cpp:425] pool2/3x3_s2_pool2/3x3_s2_0_split <- pool2/3x3_s2
I0403 16:06:22.370725 20728 net.cpp:399] pool2/3x3_s2_pool2/3x3_s2_0_split -> pool2/3x3_s2_pool2/3x3_s2_0_split_0
I0403 16:06:22.370743 20728 net.cpp:399] pool2/3x3_s2_pool2/3x3_s2_0_split -> pool2/3x3_s2_pool2/3x3_s2_0_split_1
I0403 16:06:22.370762 20728 net.cpp:399] pool2/3x3_s2_pool2/3x3_s2_0_split -> pool2/3x3_s2_pool2/3x3_s2_0_split_2
I0403 16:06:22.370781 20728 net.cpp:399] pool2/3x3_s2_pool2/3x3_s2_0_split -> pool2/3x3_s2_pool2/3x3_s2_0_split_3
I0403 16:06:22.370842 20728 net.cpp:141] Setting up pool2/3x3_s2_pool2/3x3_s2_0_split
I0403 16:06:22.370864 20728 net.cpp:148] Top shape: 24 192 28 28 (3612672)
I0403 16:06:22.370880 20728 net.cpp:148] Top shape: 24 192 28 28 (3612672)
I0403 16:06:22.370895 20728 net.cpp:148] Top shape: 24 192 28 28 (3612672)
I0403 16:06:22.370910 20728 net.cpp:148] Top shape: 24 192 28 28 (3612672)
I0403 16:06:22.370923 20728 net.cpp:156] Memory required for data: 491324448
I0403 16:06:22.370937 20728 layer_factory.hpp:77] Creating layer inception_3a/1x1
I0403 16:06:22.370957 20728 net.cpp:91] Creating Layer inception_3a/1x1
I0403 16:06:22.370973 20728 net.cpp:425] inception_3a/1x1 <- pool2/3x3_s2_pool2/3x3_s2_0_split_0
I0403 16:06:22.370996 20728 net.cpp:399] inception_3a/1x1 -> inception_3a/1x1
I0403 16:06:22.372486 20728 net.cpp:141] Setting up inception_3a/1x1
I0403 16:06:22.372516 20728 net.cpp:148] Top shape: 24 64 28 28 (1204224)
I0403 16:06:22.372531 20728 net.cpp:156] Memory required for data: 496141344
I0403 16:06:22.372550 20728 layer_factory.hpp:77] Creating layer inception_3a/relu_1x1
I0403 16:06:22.372567 20728 net.cpp:91] Creating Layer inception_3a/relu_1x1
I0403 16:06:22.372582 20728 net.cpp:425] inception_3a/relu_1x1 <- inception_3a/1x1
I0403 16:06:22.372602 20728 net.cpp:386] inception_3a/relu_1x1 -> inception_3a/1x1 (in-place)
I0403 16:06:22.372776 20728 net.cpp:141] Setting up inception_3a/relu_1x1
I0403 16:06:22.372800 20728 net.cpp:148] Top shape: 24 64 28 28 (1204224)
I0403 16:06:22.372814 20728 net.cpp:156] Memory required for data: 500958240
I0403 16:06:22.372828 20728 layer_factory.hpp:77] Creating layer inception_3a/3x3_reduce
I0403 16:06:22.372851 20728 net.cpp:91] Creating Layer inception_3a/3x3_reduce
I0403 16:06:22.372869 20728 net.cpp:425] inception_3a/3x3_reduce <- pool2/3x3_s2_pool2/3x3_s2_0_split_1
I0403 16:06:22.372889 20728 net.cpp:399] inception_3a/3x3_reduce -> inception_3a/3x3_reduce
I0403 16:06:22.374603 20728 net.cpp:141] Setting up inception_3a/3x3_reduce
I0403 16:06:22.374634 20728 net.cpp:148] Top shape: 24 96 28 28 (1806336)
I0403 16:06:22.374650 20728 net.cpp:156] Memory required for data: 508183584
I0403 16:06:22.374671 20728 layer_factory.hpp:77] Creating layer inception_3a/relu_3x3_reduce
I0403 16:06:22.374709 20728 net.cpp:91] Creating Layer inception_3a/relu_3x3_reduce
I0403 16:06:22.374727 20728 net.cpp:425] inception_3a/relu_3x3_reduce <- inception_3a/3x3_reduce
I0403 16:06:22.374744 20728 net.cpp:386] inception_3a/relu_3x3_reduce -> inception_3a/3x3_reduce (in-place)
I0403 16:06:22.374923 20728 net.cpp:141] Setting up inception_3a/relu_3x3_reduce
I0403 16:06:22.374953 20728 net.cpp:148] Top shape: 24 96 28 28 (1806336)
I0403 16:06:22.374969 20728 net.cpp:156] Memory required for data: 515408928
I0403 16:06:22.374984 20728 layer_factory.hpp:77] Creating layer inception_3a/3x3
I0403 16:06:22.375011 20728 net.cpp:91] Creating Layer inception_3a/3x3
I0403 16:06:22.375030 20728 net.cpp:425] inception_3a/3x3 <- inception_3a/3x3_reduce
I0403 16:06:22.375048 20728 net.cpp:399] inception_3a/3x3 -> inception_3a/3x3
I0403 16:06:22.376693 20728 net.cpp:141] Setting up inception_3a/3x3
I0403 16:06:22.376719 20728 net.cpp:148] Top shape: 24 128 28 28 (2408448)
I0403 16:06:22.376734 20728 net.cpp:156] Memory required for data: 525042720
I0403 16:06:22.376751 20728 layer_factory.hpp:77] Creating layer inception_3a/relu_3x3
I0403 16:06:22.376768 20728 net.cpp:91] Creating Layer inception_3a/relu_3x3
I0403 16:06:22.376783 20728 net.cpp:425] inception_3a/relu_3x3 <- inception_3a/3x3
I0403 16:06:22.376802 20728 net.cpp:386] inception_3a/relu_3x3 -> inception_3a/3x3 (in-place)
I0403 16:06:22.377069 20728 net.cpp:141] Setting up inception_3a/relu_3x3
I0403 16:06:22.377094 20728 net.cpp:148] Top shape: 24 128 28 28 (2408448)
I0403 16:06:22.377110 20728 net.cpp:156] Memory required for data: 534676512
I0403 16:06:22.377123 20728 layer_factory.hpp:77] Creating layer inception_3a/5x5_reduce
I0403 16:06:22.377145 20728 net.cpp:91] Creating Layer inception_3a/5x5_reduce
I0403 16:06:22.377161 20728 net.cpp:425] inception_3a/5x5_reduce <- pool2/3x3_s2_pool2/3x3_s2_0_split_2
I0403 16:06:22.377182 20728 net.cpp:399] inception_3a/5x5_reduce -> inception_3a/5x5_reduce
I0403 16:06:22.378137 20728 net.cpp:141] Setting up inception_3a/5x5_reduce
I0403 16:06:22.378165 20728 net.cpp:148] Top shape: 24 16 28 28 (301056)
I0403 16:06:22.378180 20728 net.cpp:156] Memory required for data: 535880736
I0403 16:06:22.378198 20728 layer_factory.hpp:77] Creating layer inception_3a/relu_5x5_reduce
I0403 16:06:22.378218 20728 net.cpp:91] Creating Layer inception_3a/relu_5x5_reduce
I0403 16:06:22.378235 20728 net.cpp:425] inception_3a/relu_5x5_reduce <- inception_3a/5x5_reduce
I0403 16:06:22.378263 20728 net.cpp:386] inception_3a/relu_5x5_reduce -> inception_3a/5x5_reduce (in-place)
I0403 16:06:22.378557 20728 net.cpp:141] Setting up inception_3a/relu_5x5_reduce
I0403 16:06:22.378582 20728 net.cpp:148] Top shape: 24 16 28 28 (301056)
I0403 16:06:22.378597 20728 net.cpp:156] Memory required for data: 537084960
I0403 16:06:22.378610 20728 layer_factory.hpp:77] Creating layer inception_3a/5x5
I0403 16:06:22.378633 20728 net.cpp:91] Creating Layer inception_3a/5x5
I0403 16:06:22.378651 20728 net.cpp:425] inception_3a/5x5 <- inception_3a/5x5_reduce
I0403 16:06:22.378669 20728 net.cpp:399] inception_3a/5x5 -> inception_3a/5x5
I0403 16:06:22.379648 20728 net.cpp:141] Setting up inception_3a/5x5
I0403 16:06:22.379675 20728 net.cpp:148] Top shape: 24 32 28 28 (602112)
I0403 16:06:22.379689 20728 net.cpp:156] Memory required for data: 539493408
I0403 16:06:22.379708 20728 layer_factory.hpp:77] Creating layer inception_3a/relu_5x5
I0403 16:06:22.379724 20728 net.cpp:91] Creating Layer inception_3a/relu_5x5
I0403 16:06:22.379739 20728 net.cpp:425] inception_3a/relu_5x5 <- inception_3a/5x5
I0403 16:06:22.379758 20728 net.cpp:386] inception_3a/relu_5x5 -> inception_3a/5x5 (in-place)
I0403 16:06:22.379922 20728 net.cpp:141] Setting up inception_3a/relu_5x5
I0403 16:06:22.379945 20728 net.cpp:148] Top shape: 24 32 28 28 (602112)
I0403 16:06:22.379959 20728 net.cpp:156] Memory required for data: 541901856
I0403 16:06:22.379973 20728 layer_factory.hpp:77] Creating layer inception_3a/pool
I0403 16:06:22.379997 20728 net.cpp:91] Creating Layer inception_3a/pool
I0403 16:06:22.380014 20728 net.cpp:425] inception_3a/pool <- pool2/3x3_s2_pool2/3x3_s2_0_split_3
I0403 16:06:22.380045 20728 net.cpp:399] inception_3a/pool -> inception_3a/pool
I0403 16:06:22.380102 20728 net.cpp:141] Setting up inception_3a/pool
I0403 16:06:22.380125 20728 net.cpp:148] Top shape: 24 192 28 28 (3612672)
I0403 16:06:22.380138 20728 net.cpp:156] Memory required for data: 556352544
I0403 16:06:22.380152 20728 layer_factory.hpp:77] Creating layer inception_3a/pool_proj
I0403 16:06:22.380173 20728 net.cpp:91] Creating Layer inception_3a/pool_proj
I0403 16:06:22.380189 20728 net.cpp:425] inception_3a/pool_proj <- inception_3a/pool
I0403 16:06:22.380209 20728 net.cpp:399] inception_3a/pool_proj -> inception_3a/pool_proj
I0403 16:06:22.381139 20728 net.cpp:141] Setting up inception_3a/pool_proj
I0403 16:06:22.381168 20728 net.cpp:148] Top shape: 24 32 28 28 (602112)
I0403 16:06:22.381184 20728 net.cpp:156] Memory required for data: 558760992
I0403 16:06:22.381204 20728 layer_factory.hpp:77] Creating layer inception_3a/relu_pool_proj
I0403 16:06:22.381224 20728 net.cpp:91] Creating Layer inception_3a/relu_pool_proj
I0403 16:06:22.381240 20728 net.cpp:425] inception_3a/relu_pool_proj <- inception_3a/pool_proj
I0403 16:06:22.381258 20728 net.cpp:386] inception_3a/relu_pool_proj -> inception_3a/pool_proj (in-place)
I0403 16:06:22.381525 20728 net.cpp:141] Setting up inception_3a/relu_pool_proj
I0403 16:06:22.381549 20728 net.cpp:148] Top shape: 24 32 28 28 (602112)
I0403 16:06:22.381563 20728 net.cpp:156] Memory required for data: 561169440
I0403 16:06:22.381577 20728 layer_factory.hpp:77] Creating layer inception_3a/output
I0403 16:06:22.381593 20728 net.cpp:91] Creating Layer inception_3a/output
I0403 16:06:22.381608 20728 net.cpp:425] inception_3a/output <- inception_3a/1x1
I0403 16:06:22.381624 20728 net.cpp:425] inception_3a/output <- inception_3a/3x3
I0403 16:06:22.381640 20728 net.cpp:425] inception_3a/output <- inception_3a/5x5
I0403 16:06:22.381655 20728 net.cpp:425] inception_3a/output <- inception_3a/pool_proj
I0403 16:06:22.381675 20728 net.cpp:399] inception_3a/output -> inception_3a/output
I0403 16:06:22.381721 20728 net.cpp:141] Setting up inception_3a/output
I0403 16:06:22.381744 20728 net.cpp:148] Top shape: 24 256 28 28 (4816896)
I0403 16:06:22.381759 20728 net.cpp:156] Memory required for data: 580437024
I0403 16:06:22.381773 20728 layer_factory.hpp:77] Creating layer inception_3a/output_inception_3a/output_0_split
I0403 16:06:22.381788 20728 net.cpp:91] Creating Layer inception_3a/output_inception_3a/output_0_split
I0403 16:06:22.381803 20728 net.cpp:425] inception_3a/output_inception_3a/output_0_split <- inception_3a/output
I0403 16:06:22.381819 20728 net.cpp:399] inception_3a/output_inception_3a/output_0_split -> inception_3a/output_inception_3a/output_0_split_0
I0403 16:06:22.381840 20728 net.cpp:399] inception_3a/output_inception_3a/output_0_split -> inception_3a/output_inception_3a/output_0_split_1
I0403 16:06:22.381861 20728 net.cpp:399] inception_3a/output_inception_3a/output_0_split -> inception_3a/output_inception_3a/output_0_split_2
I0403 16:06:22.381881 20728 net.cpp:399] inception_3a/output_inception_3a/output_0_split -> inception_3a/output_inception_3a/output_0_split_3
I0403 16:06:22.381953 20728 net.cpp:141] Setting up inception_3a/output_inception_3a/output_0_split
I0403 16:06:22.381976 20728 net.cpp:148] Top shape: 24 256 28 28 (4816896)
I0403 16:06:22.381999 20728 net.cpp:148] Top shape: 24 256 28 28 (4816896)
I0403 16:06:22.382014 20728 net.cpp:148] Top shape: 24 256 28 28 (4816896)
I0403 16:06:22.382028 20728 net.cpp:148] Top shape: 24 256 28 28 (4816896)
I0403 16:06:22.382042 20728 net.cpp:156] Memory required for data: 657507360
I0403 16:06:22.382055 20728 layer_factory.hpp:77] Creating layer inception_3b/1x1
I0403 16:06:22.382076 20728 net.cpp:91] Creating Layer inception_3b/1x1
I0403 16:06:22.382092 20728 net.cpp:425] inception_3b/1x1 <- inception_3a/output_inception_3a/output_0_split_0
I0403 16:06:22.382112 20728 net.cpp:399] inception_3b/1x1 -> inception_3b/1x1
I0403 16:06:22.383200 20728 net.cpp:141] Setting up inception_3b/1x1
I0403 16:06:22.383241 20728 net.cpp:148] Top shape: 24 128 28 28 (2408448)
I0403 16:06:22.383257 20728 net.cpp:156] Memory required for data: 667141152
I0403 16:06:22.383275 20728 layer_factory.hpp:77] Creating layer inception_3b/relu_1x1
I0403 16:06:22.383292 20728 net.cpp:91] Creating Layer inception_3b/relu_1x1
I0403 16:06:22.383307 20728 net.cpp:425] inception_3b/relu_1x1 <- inception_3b/1x1
I0403 16:06:22.383327 20728 net.cpp:386] inception_3b/relu_1x1 -> inception_3b/1x1 (in-place)
I0403 16:06:22.383496 20728 net.cpp:141] Setting up inception_3b/relu_1x1
I0403 16:06:22.383518 20728 net.cpp:148] Top shape: 24 128 28 28 (2408448)
I0403 16:06:22.383533 20728 net.cpp:156] Memory required for data: 676774944
I0403 16:06:22.383546 20728 layer_factory.hpp:77] Creating layer inception_3b/3x3_reduce
I0403 16:06:22.383569 20728 net.cpp:91] Creating Layer inception_3b/3x3_reduce
I0403 16:06:22.383584 20728 net.cpp:425] inception_3b/3x3_reduce <- inception_3a/output_inception_3a/output_0_split_1
I0403 16:06:22.383605 20728 net.cpp:399] inception_3b/3x3_reduce -> inception_3b/3x3_reduce
I0403 16:06:22.384696 20728 net.cpp:141] Setting up inception_3b/3x3_reduce
I0403 16:06:22.384724 20728 net.cpp:148] Top shape: 24 128 28 28 (2408448)
I0403 16:06:22.384740 20728 net.cpp:156] Memory required for data: 686408736
I0403 16:06:22.384757 20728 layer_factory.hpp:77] Creating layer inception_3b/relu_3x3_reduce
I0403 16:06:22.384774 20728 net.cpp:91] Creating Layer inception_3b/relu_3x3_reduce
I0403 16:06:22.384789 20728 net.cpp:425] inception_3b/relu_3x3_reduce <- inception_3b/3x3_reduce
I0403 16:06:22.384807 20728 net.cpp:386] inception_3b/relu_3x3_reduce -> inception_3b/3x3_reduce (in-place)
I0403 16:06:22.384975 20728 net.cpp:141] Setting up inception_3b/relu_3x3_reduce
I0403 16:06:22.385004 20728 net.cpp:148] Top shape: 24 128 28 28 (2408448)
I0403 16:06:22.385018 20728 net.cpp:156] Memory required for data: 696042528
I0403 16:06:22.385033 20728 layer_factory.hpp:77] Creating layer inception_3b/3x3
I0403 16:06:22.385058 20728 net.cpp:91] Creating Layer inception_3b/3x3
I0403 16:06:22.385076 20728 net.cpp:425] inception_3b/3x3 <- inception_3b/3x3_reduce
I0403 16:06:22.385094 20728 net.cpp:399] inception_3b/3x3 -> inception_3b/3x3
I0403 16:06:22.387935 20728 net.cpp:141] Setting up inception_3b/3x3
I0403 16:06:22.387964 20728 net.cpp:148] Top shape: 24 192 28 28 (3612672)
I0403 16:06:22.387979 20728 net.cpp:156] Memory required for data: 710493216
I0403 16:06:22.388002 20728 layer_factory.hpp:77] Creating layer inception_3b/relu_3x3
I0403 16:06:22.388022 20728 net.cpp:91] Creating Layer inception_3b/relu_3x3
I0403 16:06:22.388038 20728 net.cpp:425] inception_3b/relu_3x3 <- inception_3b/3x3
I0403 16:06:22.388057 20728 net.cpp:386] inception_3b/relu_3x3 -> inception_3b/3x3 (in-place)
I0403 16:06:22.388330 20728 net.cpp:141] Setting up inception_3b/relu_3x3
I0403 16:06:22.388357 20728 net.cpp:148] Top shape: 24 192 28 28 (3612672)
I0403 16:06:22.388372 20728 net.cpp:156] Memory required for data: 724943904
I0403 16:06:22.388386 20728 layer_factory.hpp:77] Creating layer inception_3b/5x5_reduce
I0403 16:06:22.388408 20728 net.cpp:91] Creating Layer inception_3b/5x5_reduce
I0403 16:06:22.388425 20728 net.cpp:425] inception_3b/5x5_reduce <- inception_3a/output_inception_3a/output_0_split_2
I0403 16:06:22.388447 20728 net.cpp:399] inception_3b/5x5_reduce -> inception_3b/5x5_reduce
I0403 16:06:22.389430 20728 net.cpp:141] Setting up inception_3b/5x5_reduce
I0403 16:06:22.389458 20728 net.cpp:148] Top shape: 24 32 28 28 (602112)
I0403 16:06:22.389473 20728 net.cpp:156] Memory required for data: 727352352
I0403 16:06:22.389492 20728 layer_factory.hpp:77] Creating layer inception_3b/relu_5x5_reduce
I0403 16:06:22.389509 20728 net.cpp:91] Creating Layer inception_3b/relu_5x5_reduce
I0403 16:06:22.389524 20728 net.cpp:425] inception_3b/relu_5x5_reduce <- inception_3b/5x5_reduce
I0403 16:06:22.389544 20728 net.cpp:386] inception_3b/relu_5x5_reduce -> inception_3b/5x5_reduce (in-place)
I0403 16:06:22.389720 20728 net.cpp:141] Setting up inception_3b/relu_5x5_reduce
I0403 16:06:22.389758 20728 net.cpp:148] Top shape: 24 32 28 28 (602112)
I0403 16:06:22.389775 20728 net.cpp:156] Memory required for data: 729760800
I0403 16:06:22.389789 20728 layer_factory.hpp:77] Creating layer inception_3b/5x5
I0403 16:06:22.389811 20728 net.cpp:91] Creating Layer inception_3b/5x5
I0403 16:06:22.389828 20728 net.cpp:425] inception_3b/5x5 <- inception_3b/5x5_reduce
I0403 16:06:22.389849 20728 net.cpp:399] inception_3b/5x5 -> inception_3b/5x5
I0403 16:06:22.391830 20728 net.cpp:141] Setting up inception_3b/5x5
I0403 16:06:22.391861 20728 net.cpp:148] Top shape: 24 96 28 28 (1806336)
I0403 16:06:22.391878 20728 net.cpp:156] Memory required for data: 736986144
I0403 16:06:22.391896 20728 layer_factory.hpp:77] Creating layer inception_3b/relu_5x5
I0403 16:06:22.391914 20728 net.cpp:91] Creating Layer inception_3b/relu_5x5
I0403 16:06:22.391930 20728 net.cpp:425] inception_3b/relu_5x5 <- inception_3b/5x5
I0403 16:06:22.391947 20728 net.cpp:386] inception_3b/relu_5x5 -> inception_3b/5x5 (in-place)
I0403 16:06:22.392141 20728 net.cpp:141] Setting up inception_3b/relu_5x5
I0403 16:06:22.392166 20728 net.cpp:148] Top shape: 24 96 28 28 (1806336)
I0403 16:06:22.392180 20728 net.cpp:156] Memory required for data: 744211488
I0403 16:06:22.392195 20728 layer_factory.hpp:77] Creating layer inception_3b/pool
I0403 16:06:22.392215 20728 net.cpp:91] Creating Layer inception_3b/pool
I0403 16:06:22.392230 20728 net.cpp:425] inception_3b/pool <- inception_3a/output_inception_3a/output_0_split_3
I0403 16:06:22.392247 20728 net.cpp:399] inception_3b/pool -> inception_3b/pool
I0403 16:06:22.392302 20728 net.cpp:141] Setting up inception_3b/pool
I0403 16:06:22.392328 20728 net.cpp:148] Top shape: 24 256 28 28 (4816896)
I0403 16:06:22.392343 20728 net.cpp:156] Memory required for data: 763479072
I0403 16:06:22.392357 20728 layer_factory.hpp:77] Creating layer inception_3b/pool_proj
I0403 16:06:22.392379 20728 net.cpp:91] Creating Layer inception_3b/pool_proj
I0403 16:06:22.392395 20728 net.cpp:425] inception_3b/pool_proj <- inception_3b/pool
I0403 16:06:22.392416 20728 net.cpp:399] inception_3b/pool_proj -> inception_3b/pool_proj
I0403 16:06:22.393467 20728 net.cpp:141] Setting up inception_3b/pool_proj
I0403 16:06:22.393494 20728 net.cpp:148] Top shape: 24 64 28 28 (1204224)
I0403 16:06:22.393509 20728 net.cpp:156] Memory required for data: 768295968
I0403 16:06:22.393527 20728 layer_factory.hpp:77] Creating layer inception_3b/relu_pool_proj
I0403 16:06:22.393548 20728 net.cpp:91] Creating Layer inception_3b/relu_pool_proj
I0403 16:06:22.393564 20728 net.cpp:425] inception_3b/relu_pool_proj <- inception_3b/pool_proj
I0403 16:06:22.393581 20728 net.cpp:386] inception_3b/relu_pool_proj -> inception_3b/pool_proj (in-place)
I0403 16:06:22.393981 20728 net.cpp:141] Setting up inception_3b/relu_pool_proj
I0403 16:06:22.394011 20728 net.cpp:148] Top shape: 24 64 28 28 (1204224)
I0403 16:06:22.394026 20728 net.cpp:156] Memory required for data: 773112864
I0403 16:06:22.394042 20728 layer_factory.hpp:77] Creating layer inception_3b/output
I0403 16:06:22.394059 20728 net.cpp:91] Creating Layer inception_3b/output
I0403 16:06:22.394074 20728 net.cpp:425] inception_3b/output <- inception_3b/1x1
I0403 16:06:22.394093 20728 net.cpp:425] inception_3b/output <- inception_3b/3x3
I0403 16:06:22.394110 20728 net.cpp:425] inception_3b/output <- inception_3b/5x5
I0403 16:06:22.394125 20728 net.cpp:425] inception_3b/output <- inception_3b/pool_proj
I0403 16:06:22.394141 20728 net.cpp:399] inception_3b/output -> inception_3b/output
I0403 16:06:22.394186 20728 net.cpp:141] Setting up inception_3b/output
I0403 16:06:22.394209 20728 net.cpp:148] Top shape: 24 480 28 28 (9031680)
I0403 16:06:22.394224 20728 net.cpp:156] Memory required for data: 809239584
I0403 16:06:22.394238 20728 layer_factory.hpp:77] Creating layer pool3/3x3_s2
I0403 16:06:22.394254 20728 net.cpp:91] Creating Layer pool3/3x3_s2
I0403 16:06:22.394269 20728 net.cpp:425] pool3/3x3_s2 <- inception_3b/output
I0403 16:06:22.394289 20728 net.cpp:399] pool3/3x3_s2 -> pool3/3x3_s2
I0403 16:06:22.394361 20728 net.cpp:141] Setting up pool3/3x3_s2
I0403 16:06:22.394383 20728 net.cpp:148] Top shape: 24 480 14 14 (2257920)
I0403 16:06:22.394397 20728 net.cpp:156] Memory required for data: 818271264
I0403 16:06:22.394412 20728 layer_factory.hpp:77] Creating layer pool3/3x3_s2_pool3/3x3_s2_0_split
I0403 16:06:22.394430 20728 net.cpp:91] Creating Layer pool3/3x3_s2_pool3/3x3_s2_0_split
I0403 16:06:22.394446 20728 net.cpp:425] pool3/3x3_s2_pool3/3x3_s2_0_split <- pool3/3x3_s2
I0403 16:06:22.394464 20728 net.cpp:399] pool3/3x3_s2_pool3/3x3_s2_0_split -> pool3/3x3_s2_pool3/3x3_s2_0_split_0
I0403 16:06:22.394485 20728 net.cpp:399] pool3/3x3_s2_pool3/3x3_s2_0_split -> pool3/3x3_s2_pool3/3x3_s2_0_split_1
I0403 16:06:22.394505 20728 net.cpp:399] pool3/3x3_s2_pool3/3x3_s2_0_split -> pool3/3x3_s2_pool3/3x3_s2_0_split_2
I0403 16:06:22.394523 20728 net.cpp:399] pool3/3x3_s2_pool3/3x3_s2_0_split -> pool3/3x3_s2_pool3/3x3_s2_0_split_3
I0403 16:06:22.394596 20728 net.cpp:141] Setting up pool3/3x3_s2_pool3/3x3_s2_0_split
I0403 16:06:22.394619 20728 net.cpp:148] Top shape: 24 480 14 14 (2257920)
I0403 16:06:22.394635 20728 net.cpp:148] Top shape: 24 480 14 14 (2257920)
I0403 16:06:22.394650 20728 net.cpp:148] Top shape: 24 480 14 14 (2257920)
I0403 16:06:22.394665 20728 net.cpp:148] Top shape: 24 480 14 14 (2257920)
I0403 16:06:22.394678 20728 net.cpp:156] Memory required for data: 854397984
I0403 16:06:22.394692 20728 layer_factory.hpp:77] Creating layer inception_4a/1x1
I0403 16:06:22.394713 20728 net.cpp:91] Creating Layer inception_4a/1x1
I0403 16:06:22.394731 20728 net.cpp:425] inception_4a/1x1 <- pool3/3x3_s2_pool3/3x3_s2_0_split_0
I0403 16:06:22.394752 20728 net.cpp:399] inception_4a/1x1 -> inception_4a/1x1
I0403 16:06:22.396340 20728 net.cpp:141] Setting up inception_4a/1x1
I0403 16:06:22.396370 20728 net.cpp:148] Top shape: 24 192 14 14 (903168)
I0403 16:06:22.396386 20728 net.cpp:156] Memory required for data: 858010656
I0403 16:06:22.396404 20728 layer_factory.hpp:77] Creating layer inception_4a/relu_1x1
I0403 16:06:22.396423 20728 net.cpp:91] Creating Layer inception_4a/relu_1x1
I0403 16:06:22.396438 20728 net.cpp:425] inception_4a/relu_1x1 <- inception_4a/1x1
I0403 16:06:22.396456 20728 net.cpp:386] inception_4a/relu_1x1 -> inception_4a/1x1 (in-place)
I0403 16:06:22.396632 20728 net.cpp:141] Setting up inception_4a/relu_1x1
I0403 16:06:22.396658 20728 net.cpp:148] Top shape: 24 192 14 14 (903168)
I0403 16:06:22.396673 20728 net.cpp:156] Memory required for data: 861623328
I0403 16:06:22.396687 20728 layer_factory.hpp:77] Creating layer inception_4a/3x3_reduce
I0403 16:06:22.396708 20728 net.cpp:91] Creating Layer inception_4a/3x3_reduce
I0403 16:06:22.396725 20728 net.cpp:425] inception_4a/3x3_reduce <- pool3/3x3_s2_pool3/3x3_s2_0_split_1
I0403 16:06:22.396744 20728 net.cpp:399] inception_4a/3x3_reduce -> inception_4a/3x3_reduce
I0403 16:06:22.398005 20728 net.cpp:141] Setting up inception_4a/3x3_reduce
I0403 16:06:22.398033 20728 net.cpp:148] Top shape: 24 96 14 14 (451584)
I0403 16:06:22.398048 20728 net.cpp:156] Memory required for data: 863429664
I0403 16:06:22.398074 20728 layer_factory.hpp:77] Creating layer inception_4a/relu_3x3_reduce
I0403 16:06:22.398094 20728 net.cpp:91] Creating Layer inception_4a/relu_3x3_reduce
I0403 16:06:22.398110 20728 net.cpp:425] inception_4a/relu_3x3_reduce <- inception_4a/3x3_reduce
I0403 16:06:22.398128 20728 net.cpp:386] inception_4a/relu_3x3_reduce -> inception_4a/3x3_reduce (in-place)
I0403 16:06:22.398301 20728 net.cpp:141] Setting up inception_4a/relu_3x3_reduce
I0403 16:06:22.398327 20728 net.cpp:148] Top shape: 24 96 14 14 (451584)
I0403 16:06:22.398342 20728 net.cpp:156] Memory required for data: 865236000
I0403 16:06:22.398357 20728 layer_factory.hpp:77] Creating layer inception_4a/3x3
I0403 16:06:22.398377 20728 net.cpp:91] Creating Layer inception_4a/3x3
I0403 16:06:22.398394 20728 net.cpp:425] inception_4a/3x3 <- inception_4a/3x3_reduce
I0403 16:06:22.398413 20728 net.cpp:399] inception_4a/3x3 -> inception_4a/3x3
I0403 16:06:22.401067 20728 net.cpp:141] Setting up inception_4a/3x3
I0403 16:06:22.401098 20728 net.cpp:148] Top shape: 24 208 14 14 (978432)
I0403 16:06:22.401113 20728 net.cpp:156] Memory required for data: 869149728
I0403 16:06:22.401130 20728 layer_factory.hpp:77] Creating layer inception_4a/relu_3x3
I0403 16:06:22.401149 20728 net.cpp:91] Creating Layer inception_4a/relu_3x3
I0403 16:06:22.401165 20728 net.cpp:425] inception_4a/relu_3x3 <- inception_4a/3x3
I0403 16:06:22.401183 20728 net.cpp:386] inception_4a/relu_3x3 -> inception_4a/3x3 (in-place)
I0403 16:06:22.401459 20728 net.cpp:141] Setting up inception_4a/relu_3x3
I0403 16:06:22.401486 20728 net.cpp:148] Top shape: 24 208 14 14 (978432)
I0403 16:06:22.401501 20728 net.cpp:156] Memory required for data: 873063456
I0403 16:06:22.401516 20728 layer_factory.hpp:77] Creating layer inception_4a/5x5_reduce
I0403 16:06:22.401538 20728 net.cpp:91] Creating Layer inception_4a/5x5_reduce
I0403 16:06:22.401556 20728 net.cpp:425] inception_4a/5x5_reduce <- pool3/3x3_s2_pool3/3x3_s2_0_split_2
I0403 16:06:22.401578 20728 net.cpp:399] inception_4a/5x5_reduce -> inception_4a/5x5_reduce
I0403 16:06:22.402588 20728 net.cpp:141] Setting up inception_4a/5x5_reduce
I0403 16:06:22.402616 20728 net.cpp:148] Top shape: 24 16 14 14 (75264)
I0403 16:06:22.402631 20728 net.cpp:156] Memory required for data: 873364512
I0403 16:06:22.402648 20728 layer_factory.hpp:77] Creating layer inception_4a/relu_5x5_reduce
I0403 16:06:22.402667 20728 net.cpp:91] Creating Layer inception_4a/relu_5x5_reduce
I0403 16:06:22.402683 20728 net.cpp:425] inception_4a/relu_5x5_reduce <- inception_4a/5x5_reduce
I0403 16:06:22.402701 20728 net.cpp:386] inception_4a/relu_5x5_reduce -> inception_4a/5x5_reduce (in-place)
I0403 16:06:22.402878 20728 net.cpp:141] Setting up inception_4a/relu_5x5_reduce
I0403 16:06:22.402902 20728 net.cpp:148] Top shape: 24 16 14 14 (75264)
I0403 16:06:22.402916 20728 net.cpp:156] Memory required for data: 873665568
I0403 16:06:22.402931 20728 layer_factory.hpp:77] Creating layer inception_4a/5x5
I0403 16:06:22.402953 20728 net.cpp:91] Creating Layer inception_4a/5x5
I0403 16:06:22.402971 20728 net.cpp:425] inception_4a/5x5 <- inception_4a/5x5_reduce
I0403 16:06:22.402995 20728 net.cpp:399] inception_4a/5x5 -> inception_4a/5x5
I0403 16:06:22.404105 20728 net.cpp:141] Setting up inception_4a/5x5
I0403 16:06:22.404132 20728 net.cpp:148] Top shape: 24 48 14 14 (225792)
I0403 16:06:22.404147 20728 net.cpp:156] Memory required for data: 874568736
I0403 16:06:22.404165 20728 layer_factory.hpp:77] Creating layer inception_4a/relu_5x5
I0403 16:06:22.404186 20728 net.cpp:91] Creating Layer inception_4a/relu_5x5
I0403 16:06:22.404201 20728 net.cpp:425] inception_4a/relu_5x5 <- inception_4a/5x5
I0403 16:06:22.404219 20728 net.cpp:386] inception_4a/relu_5x5 -> inception_4a/5x5 (in-place)
I0403 16:06:22.404393 20728 net.cpp:141] Setting up inception_4a/relu_5x5
I0403 16:06:22.404419 20728 net.cpp:148] Top shape: 24 48 14 14 (225792)
I0403 16:06:22.404434 20728 net.cpp:156] Memory required for data: 875471904
I0403 16:06:22.404449 20728 layer_factory.hpp:77] Creating layer inception_4a/pool
I0403 16:06:22.404466 20728 net.cpp:91] Creating Layer inception_4a/pool
I0403 16:06:22.404482 20728 net.cpp:425] inception_4a/pool <- pool3/3x3_s2_pool3/3x3_s2_0_split_3
I0403 16:06:22.404500 20728 net.cpp:399] inception_4a/pool -> inception_4a/pool
I0403 16:06:22.404561 20728 net.cpp:141] Setting up inception_4a/pool
I0403 16:06:22.404584 20728 net.cpp:148] Top shape: 24 480 14 14 (2257920)
I0403 16:06:22.404598 20728 net.cpp:156] Memory required for data: 884503584
I0403 16:06:22.404613 20728 layer_factory.hpp:77] Creating layer inception_4a/pool_proj
I0403 16:06:22.404633 20728 net.cpp:91] Creating Layer inception_4a/pool_proj
I0403 16:06:22.404650 20728 net.cpp:425] inception_4a/pool_proj <- inception_4a/pool
I0403 16:06:22.404671 20728 net.cpp:399] inception_4a/pool_proj -> inception_4a/pool_proj
I0403 16:06:22.405827 20728 net.cpp:141] Setting up inception_4a/pool_proj
I0403 16:06:22.405855 20728 net.cpp:148] Top shape: 24 64 14 14 (301056)
I0403 16:06:22.405885 20728 net.cpp:156] Memory required for data: 885707808
I0403 16:06:22.405905 20728 layer_factory.hpp:77] Creating layer inception_4a/relu_pool_proj
I0403 16:06:22.405926 20728 net.cpp:91] Creating Layer inception_4a/relu_pool_proj
I0403 16:06:22.405943 20728 net.cpp:425] inception_4a/relu_pool_proj <- inception_4a/pool_proj
I0403 16:06:22.405963 20728 net.cpp:386] inception_4a/relu_pool_proj -> inception_4a/pool_proj (in-place)
I0403 16:06:22.406267 20728 net.cpp:141] Setting up inception_4a/relu_pool_proj
I0403 16:06:22.406293 20728 net.cpp:148] Top shape: 24 64 14 14 (301056)
I0403 16:06:22.406308 20728 net.cpp:156] Memory required for data: 886912032
I0403 16:06:22.406324 20728 layer_factory.hpp:77] Creating layer inception_4a/output
I0403 16:06:22.406355 20728 net.cpp:91] Creating Layer inception_4a/output
I0403 16:06:22.406371 20728 net.cpp:425] inception_4a/output <- inception_4a/1x1
I0403 16:06:22.406388 20728 net.cpp:425] inception_4a/output <- inception_4a/3x3
I0403 16:06:22.406404 20728 net.cpp:425] inception_4a/output <- inception_4a/5x5
I0403 16:06:22.406419 20728 net.cpp:425] inception_4a/output <- inception_4a/pool_proj
I0403 16:06:22.406435 20728 net.cpp:399] inception_4a/output -> inception_4a/output
I0403 16:06:22.406481 20728 net.cpp:141] Setting up inception_4a/output
I0403 16:06:22.406503 20728 net.cpp:148] Top shape: 24 512 14 14 (2408448)
I0403 16:06:22.406518 20728 net.cpp:156] Memory required for data: 896545824
I0403 16:06:22.406533 20728 layer_factory.hpp:77] Creating layer inception_4a/output_inception_4a/output_0_split
I0403 16:06:22.406549 20728 net.cpp:91] Creating Layer inception_4a/output_inception_4a/output_0_split
I0403 16:06:22.406564 20728 net.cpp:425] inception_4a/output_inception_4a/output_0_split <- inception_4a/output
I0403 16:06:22.406584 20728 net.cpp:399] inception_4a/output_inception_4a/output_0_split -> inception_4a/output_inception_4a/output_0_split_0
I0403 16:06:22.406605 20728 net.cpp:399] inception_4a/output_inception_4a/output_0_split -> inception_4a/output_inception_4a/output_0_split_1
I0403 16:06:22.406625 20728 net.cpp:399] inception_4a/output_inception_4a/output_0_split -> inception_4a/output_inception_4a/output_0_split_2
I0403 16:06:22.406643 20728 net.cpp:399] inception_4a/output_inception_4a/output_0_split -> inception_4a/output_inception_4a/output_0_split_3
I0403 16:06:22.406668 20728 net.cpp:399] inception_4a/output_inception_4a/output_0_split -> inception_4a/output_inception_4a/output_0_split_4
I0403 16:06:22.406759 20728 net.cpp:141] Setting up inception_4a/output_inception_4a/output_0_split
I0403 16:06:22.406782 20728 net.cpp:148] Top shape: 24 512 14 14 (2408448)
I0403 16:06:22.406798 20728 net.cpp:148] Top shape: 24 512 14 14 (2408448)
I0403 16:06:22.406813 20728 net.cpp:148] Top shape: 24 512 14 14 (2408448)
I0403 16:06:22.406828 20728 net.cpp:148] Top shape: 24 512 14 14 (2408448)
I0403 16:06:22.406843 20728 net.cpp:148] Top shape: 24 512 14 14 (2408448)
I0403 16:06:22.406857 20728 net.cpp:156] Memory required for data: 944714784
I0403 16:06:22.406872 20728 layer_factory.hpp:77] Creating layer loss1/ave_pool
I0403 16:06:22.406888 20728 net.cpp:91] Creating Layer loss1/ave_pool
I0403 16:06:22.406903 20728 net.cpp:425] loss1/ave_pool <- inception_4a/output_inception_4a/output_0_split_0
I0403 16:06:22.406922 20728 net.cpp:399] loss1/ave_pool -> loss1/ave_pool
I0403 16:06:22.407133 20728 net.cpp:141] Setting up loss1/ave_pool
I0403 16:06:22.407158 20728 net.cpp:148] Top shape: 24 512 4 4 (196608)
I0403 16:06:22.407173 20728 net.cpp:156] Memory required for data: 945501216
I0403 16:06:22.407188 20728 layer_factory.hpp:77] Creating layer loss1/conv
I0403 16:06:22.407212 20728 net.cpp:91] Creating Layer loss1/conv
I0403 16:06:22.407228 20728 net.cpp:425] loss1/conv <- loss1/ave_pool
I0403 16:06:22.407246 20728 net.cpp:399] loss1/conv -> loss1/conv
I0403 16:06:22.408658 20728 net.cpp:141] Setting up loss1/conv
I0403 16:06:22.408685 20728 net.cpp:148] Top shape: 24 128 4 4 (49152)
I0403 16:06:22.408701 20728 net.cpp:156] Memory required for data: 945697824
I0403 16:06:22.408733 20728 layer_factory.hpp:77] Creating layer loss1/relu_conv
I0403 16:06:22.408752 20728 net.cpp:91] Creating Layer loss1/relu_conv
I0403 16:06:22.408767 20728 net.cpp:425] loss1/relu_conv <- loss1/conv
I0403 16:06:22.408787 20728 net.cpp:386] loss1/relu_conv -> loss1/conv (in-place)
I0403 16:06:22.409082 20728 net.cpp:141] Setting up loss1/relu_conv
I0403 16:06:22.409108 20728 net.cpp:148] Top shape: 24 128 4 4 (49152)
I0403 16:06:22.409123 20728 net.cpp:156] Memory required for data: 945894432
I0403 16:06:22.409138 20728 layer_factory.hpp:77] Creating layer loss1/fc
I0403 16:06:22.409160 20728 net.cpp:91] Creating Layer loss1/fc
I0403 16:06:22.409178 20728 net.cpp:425] loss1/fc <- loss1/conv
I0403 16:06:22.409198 20728 net.cpp:399] loss1/fc -> loss1/fc
I0403 16:06:22.426992 20728 net.cpp:141] Setting up loss1/fc
I0403 16:06:22.427050 20728 net.cpp:148] Top shape: 24 1024 (24576)
I0403 16:06:22.427067 20728 net.cpp:156] Memory required for data: 945992736
I0403 16:06:22.427086 20728 layer_factory.hpp:77] Creating layer loss1/relu_fc
I0403 16:06:22.427105 20728 net.cpp:91] Creating Layer loss1/relu_fc
I0403 16:06:22.427122 20728 net.cpp:425] loss1/relu_fc <- loss1/fc
I0403 16:06:22.427139 20728 net.cpp:386] loss1/relu_fc -> loss1/fc (in-place)
I0403 16:06:22.427361 20728 net.cpp:141] Setting up loss1/relu_fc
I0403 16:06:22.427387 20728 net.cpp:148] Top shape: 24 1024 (24576)
I0403 16:06:22.427402 20728 net.cpp:156] Memory required for data: 946091040
I0403 16:06:22.427417 20728 layer_factory.hpp:77] Creating layer loss1/drop_fc
I0403 16:06:22.427445 20728 net.cpp:91] Creating Layer loss1/drop_fc
I0403 16:06:22.427462 20728 net.cpp:425] loss1/drop_fc <- loss1/fc
I0403 16:06:22.427480 20728 net.cpp:386] loss1/drop_fc -> loss1/fc (in-place)
I0403 16:06:22.427547 20728 net.cpp:141] Setting up loss1/drop_fc
I0403 16:06:22.427570 20728 net.cpp:148] Top shape: 24 1024 (24576)
I0403 16:06:22.427584 20728 net.cpp:156] Memory required for data: 946189344
I0403 16:06:22.427599 20728 layer_factory.hpp:77] Creating layer loss1/classifier_plantvillage
I0403 16:06:22.427621 20728 net.cpp:91] Creating Layer loss1/classifier_plantvillage
I0403 16:06:22.427639 20728 net.cpp:425] loss1/classifier_plantvillage <- loss1/fc
I0403 16:06:22.427656 20728 net.cpp:399] loss1/classifier_plantvillage -> loss1/classifier_plantvillage
I0403 16:06:22.428611 20728 net.cpp:141] Setting up loss1/classifier_plantvillage
I0403 16:06:22.428642 20728 net.cpp:148] Top shape: 24 38 (912)
I0403 16:06:22.428656 20728 net.cpp:156] Memory required for data: 946192992
I0403 16:06:22.428674 20728 layer_factory.hpp:77] Creating layer loss1/classifier_plantvillage_loss1/classifier_plantvillage_0_split
I0403 16:06:22.428692 20728 net.cpp:91] Creating Layer loss1/classifier_plantvillage_loss1/classifier_plantvillage_0_split
I0403 16:06:22.428709 20728 net.cpp:425] loss1/classifier_plantvillage_loss1/classifier_plantvillage_0_split <- loss1/classifier_plantvillage
I0403 16:06:22.428725 20728 net.cpp:399] loss1/classifier_plantvillage_loss1/classifier_plantvillage_0_split -> loss1/classifier_plantvillage_loss1/classifier_plantvillage_0_split_0
I0403 16:06:22.428746 20728 net.cpp:399] loss1/classifier_plantvillage_loss1/classifier_plantvillage_0_split -> loss1/classifier_plantvillage_loss1/classifier_plantvillage_0_split_1
I0403 16:06:22.428767 20728 net.cpp:399] loss1/classifier_plantvillage_loss1/classifier_plantvillage_0_split -> loss1/classifier_plantvillage_loss1/classifier_plantvillage_0_split_2
I0403 16:06:22.428833 20728 net.cpp:141] Setting up loss1/classifier_plantvillage_loss1/classifier_plantvillage_0_split
I0403 16:06:22.428855 20728 net.cpp:148] Top shape: 24 38 (912)
I0403 16:06:22.428870 20728 net.cpp:148] Top shape: 24 38 (912)
I0403 16:06:22.428886 20728 net.cpp:148] Top shape: 24 38 (912)
I0403 16:06:22.428900 20728 net.cpp:156] Memory required for data: 946203936
I0403 16:06:22.428913 20728 layer_factory.hpp:77] Creating layer inception_4b/1x1
I0403 16:06:22.428935 20728 net.cpp:91] Creating Layer inception_4b/1x1
I0403 16:06:22.428973 20728 net.cpp:425] inception_4b/1x1 <- inception_4a/output_inception_4a/output_0_split_1
I0403 16:06:22.429008 20728 net.cpp:399] inception_4b/1x1 -> inception_4b/1x1
I0403 16:06:22.430701 20728 net.cpp:141] Setting up inception_4b/1x1
I0403 16:06:22.430727 20728 net.cpp:148] Top shape: 24 160 14 14 (752640)
I0403 16:06:22.430742 20728 net.cpp:156] Memory required for data: 949214496
I0403 16:06:22.430760 20728 layer_factory.hpp:77] Creating layer inception_4b/relu_1x1
I0403 16:06:22.430778 20728 net.cpp:91] Creating Layer inception_4b/relu_1x1
I0403 16:06:22.430793 20728 net.cpp:425] inception_4b/relu_1x1 <- inception_4b/1x1
I0403 16:06:22.430814 20728 net.cpp:386] inception_4b/relu_1x1 -> inception_4b/1x1 (in-place)
I0403 16:06:22.430994 20728 net.cpp:141] Setting up inception_4b/relu_1x1
I0403 16:06:22.431017 20728 net.cpp:148] Top shape: 24 160 14 14 (752640)
I0403 16:06:22.431031 20728 net.cpp:156] Memory required for data: 952225056
I0403 16:06:22.431046 20728 layer_factory.hpp:77] Creating layer inception_4b/3x3_reduce
I0403 16:06:22.431067 20728 net.cpp:91] Creating Layer inception_4b/3x3_reduce
I0403 16:06:22.431083 20728 net.cpp:425] inception_4b/3x3_reduce <- inception_4a/output_inception_4a/output_0_split_2
I0403 16:06:22.431104 20728 net.cpp:399] inception_4b/3x3_reduce -> inception_4b/3x3_reduce
I0403 16:06:22.432416 20728 net.cpp:141] Setting up inception_4b/3x3_reduce
I0403 16:06:22.432443 20728 net.cpp:148] Top shape: 24 112 14 14 (526848)
I0403 16:06:22.432458 20728 net.cpp:156] Memory required for data: 954332448
I0403 16:06:22.432476 20728 layer_factory.hpp:77] Creating layer inception_4b/relu_3x3_reduce
I0403 16:06:22.432495 20728 net.cpp:91] Creating Layer inception_4b/relu_3x3_reduce
I0403 16:06:22.432512 20728 net.cpp:425] inception_4b/relu_3x3_reduce <- inception_4b/3x3_reduce
I0403 16:06:22.432528 20728 net.cpp:386] inception_4b/relu_3x3_reduce -> inception_4b/3x3_reduce (in-place)
I0403 16:06:22.432804 20728 net.cpp:141] Setting up inception_4b/relu_3x3_reduce
I0403 16:06:22.432829 20728 net.cpp:148] Top shape: 24 112 14 14 (526848)
I0403 16:06:22.432843 20728 net.cpp:156] Memory required for data: 956439840
I0403 16:06:22.432857 20728 layer_factory.hpp:77] Creating layer inception_4b/3x3
I0403 16:06:22.432879 20728 net.cpp:91] Creating Layer inception_4b/3x3
I0403 16:06:22.432895 20728 net.cpp:425] inception_4b/3x3 <- inception_4b/3x3_reduce
I0403 16:06:22.432917 20728 net.cpp:399] inception_4b/3x3 -> inception_4b/3x3
I0403 16:06:22.435920 20728 net.cpp:141] Setting up inception_4b/3x3
I0403 16:06:22.435950 20728 net.cpp:148] Top shape: 24 224 14 14 (1053696)
I0403 16:06:22.435966 20728 net.cpp:156] Memory required for data: 960654624
I0403 16:06:22.435983 20728 layer_factory.hpp:77] Creating layer inception_4b/relu_3x3
I0403 16:06:22.436005 20728 net.cpp:91] Creating Layer inception_4b/relu_3x3
I0403 16:06:22.436022 20728 net.cpp:425] inception_4b/relu_3x3 <- inception_4b/3x3
I0403 16:06:22.436038 20728 net.cpp:386] inception_4b/relu_3x3 -> inception_4b/3x3 (in-place)
I0403 16:06:22.436214 20728 net.cpp:141] Setting up inception_4b/relu_3x3
I0403 16:06:22.436239 20728 net.cpp:148] Top shape: 24 224 14 14 (1053696)
I0403 16:06:22.436254 20728 net.cpp:156] Memory required for data: 964869408
I0403 16:06:22.436269 20728 layer_factory.hpp:77] Creating layer inception_4b/5x5_reduce
I0403 16:06:22.436290 20728 net.cpp:91] Creating Layer inception_4b/5x5_reduce
I0403 16:06:22.436308 20728 net.cpp:425] inception_4b/5x5_reduce <- inception_4a/output_inception_4a/output_0_split_3
I0403 16:06:22.436328 20728 net.cpp:399] inception_4b/5x5_reduce -> inception_4b/5x5_reduce
I0403 16:06:22.437393 20728 net.cpp:141] Setting up inception_4b/5x5_reduce
I0403 16:06:22.437419 20728 net.cpp:148] Top shape: 24 24 14 14 (112896)
I0403 16:06:22.437434 20728 net.cpp:156] Memory required for data: 965320992
I0403 16:06:22.437451 20728 layer_factory.hpp:77] Creating layer inception_4b/relu_5x5_reduce
I0403 16:06:22.437471 20728 net.cpp:91] Creating Layer inception_4b/relu_5x5_reduce
I0403 16:06:22.437501 20728 net.cpp:425] inception_4b/relu_5x5_reduce <- inception_4b/5x5_reduce
I0403 16:06:22.437520 20728 net.cpp:386] inception_4b/relu_5x5_reduce -> inception_4b/5x5_reduce (in-place)
I0403 16:06:22.437698 20728 net.cpp:141] Setting up inception_4b/relu_5x5_reduce
I0403 16:06:22.437726 20728 net.cpp:148] Top shape: 24 24 14 14 (112896)
I0403 16:06:22.437741 20728 net.cpp:156] Memory required for data: 965772576
I0403 16:06:22.437755 20728 layer_factory.hpp:77] Creating layer inception_4b/5x5
I0403 16:06:22.437777 20728 net.cpp:91] Creating Layer inception_4b/5x5
I0403 16:06:22.437795 20728 net.cpp:425] inception_4b/5x5 <- inception_4b/5x5_reduce
I0403 16:06:22.437816 20728 net.cpp:399] inception_4b/5x5 -> inception_4b/5x5
I0403 16:06:22.439024 20728 net.cpp:141] Setting up inception_4b/5x5
I0403 16:06:22.439054 20728 net.cpp:148] Top shape: 24 64 14 14 (301056)
I0403 16:06:22.439070 20728 net.cpp:156] Memory required for data: 966976800
I0403 16:06:22.439088 20728 layer_factory.hpp:77] Creating layer inception_4b/relu_5x5
I0403 16:06:22.439106 20728 net.cpp:91] Creating Layer inception_4b/relu_5x5
I0403 16:06:22.439121 20728 net.cpp:425] inception_4b/relu_5x5 <- inception_4b/5x5
I0403 16:06:22.439142 20728 net.cpp:386] inception_4b/relu_5x5 -> inception_4b/5x5 (in-place)
I0403 16:06:22.439425 20728 net.cpp:141] Setting up inception_4b/relu_5x5
I0403 16:06:22.439463 20728 net.cpp:148] Top shape: 24 64 14 14 (301056)
I0403 16:06:22.439477 20728 net.cpp:156] Memory required for data: 968181024
I0403 16:06:22.439492 20728 layer_factory.hpp:77] Creating layer inception_4b/pool
I0403 16:06:22.439510 20728 net.cpp:91] Creating Layer inception_4b/pool
I0403 16:06:22.439527 20728 net.cpp:425] inception_4b/pool <- inception_4a/output_inception_4a/output_0_split_4
I0403 16:06:22.439549 20728 net.cpp:399] inception_4b/pool -> inception_4b/pool
I0403 16:06:22.439615 20728 net.cpp:141] Setting up inception_4b/pool
I0403 16:06:22.439638 20728 net.cpp:148] Top shape: 24 512 14 14 (2408448)
I0403 16:06:22.439653 20728 net.cpp:156] Memory required for data: 977814816
I0403 16:06:22.439667 20728 layer_factory.hpp:77] Creating layer inception_4b/pool_proj
I0403 16:06:22.439690 20728 net.cpp:91] Creating Layer inception_4b/pool_proj
I0403 16:06:22.439708 20728 net.cpp:425] inception_4b/pool_proj <- inception_4b/pool
I0403 16:06:22.439728 20728 net.cpp:399] inception_4b/pool_proj -> inception_4b/pool_proj
I0403 16:06:22.440934 20728 net.cpp:141] Setting up inception_4b/pool_proj
I0403 16:06:22.440963 20728 net.cpp:148] Top shape: 24 64 14 14 (301056)
I0403 16:06:22.440979 20728 net.cpp:156] Memory required for data: 979019040
I0403 16:06:22.441004 20728 layer_factory.hpp:77] Creating layer inception_4b/relu_pool_proj
I0403 16:06:22.441025 20728 net.cpp:91] Creating Layer inception_4b/relu_pool_proj
I0403 16:06:22.441041 20728 net.cpp:425] inception_4b/relu_pool_proj <- inception_4b/pool_proj
I0403 16:06:22.441061 20728 net.cpp:386] inception_4b/relu_pool_proj -> inception_4b/pool_proj (in-place)
I0403 16:06:22.441251 20728 net.cpp:141] Setting up inception_4b/relu_pool_proj
I0403 16:06:22.441275 20728 net.cpp:148] Top shape: 24 64 14 14 (301056)
I0403 16:06:22.441289 20728 net.cpp:156] Memory required for data: 980223264
I0403 16:06:22.441304 20728 layer_factory.hpp:77] Creating layer inception_4b/output
I0403 16:06:22.441323 20728 net.cpp:91] Creating Layer inception_4b/output
I0403 16:06:22.441339 20728 net.cpp:425] inception_4b/output <- inception_4b/1x1
I0403 16:06:22.441354 20728 net.cpp:425] inception_4b/output <- inception_4b/3x3
I0403 16:06:22.441370 20728 net.cpp:425] inception_4b/output <- inception_4b/5x5
I0403 16:06:22.441385 20728 net.cpp:425] inception_4b/output <- inception_4b/pool_proj
I0403 16:06:22.441401 20728 net.cpp:399] inception_4b/output -> inception_4b/output
I0403 16:06:22.441447 20728 net.cpp:141] Setting up inception_4b/output
I0403 16:06:22.441468 20728 net.cpp:148] Top shape: 24 512 14 14 (2408448)
I0403 16:06:22.441483 20728 net.cpp:156] Memory required for data: 989857056
I0403 16:06:22.441509 20728 layer_factory.hpp:77] Creating layer inception_4b/output_inception_4b/output_0_split
I0403 16:06:22.441527 20728 net.cpp:91] Creating Layer inception_4b/output_inception_4b/output_0_split
I0403 16:06:22.441541 20728 net.cpp:425] inception_4b/output_inception_4b/output_0_split <- inception_4b/output
I0403 16:06:22.441561 20728 net.cpp:399] inception_4b/output_inception_4b/output_0_split -> inception_4b/output_inception_4b/output_0_split_0
I0403 16:06:22.441581 20728 net.cpp:399] inception_4b/output_inception_4b/output_0_split -> inception_4b/output_inception_4b/output_0_split_1
I0403 16:06:22.441601 20728 net.cpp:399] inception_4b/output_inception_4b/output_0_split -> inception_4b/output_inception_4b/output_0_split_2
I0403 16:06:22.441619 20728 net.cpp:399] inception_4b/output_inception_4b/output_0_split -> inception_4b/output_inception_4b/output_0_split_3
I0403 16:06:22.441700 20728 net.cpp:141] Setting up inception_4b/output_inception_4b/output_0_split
I0403 16:06:22.441725 20728 net.cpp:148] Top shape: 24 512 14 14 (2408448)
I0403 16:06:22.441740 20728 net.cpp:148] Top shape: 24 512 14 14 (2408448)
I0403 16:06:22.441756 20728 net.cpp:148] Top shape: 24 512 14 14 (2408448)
I0403 16:06:22.441771 20728 net.cpp:148] Top shape: 24 512 14 14 (2408448)
I0403 16:06:22.441782 20728 net.cpp:156] Memory required for data: 1028392224
I0403 16:06:22.441797 20728 layer_factory.hpp:77] Creating layer inception_4c/1x1
I0403 16:06:22.441817 20728 net.cpp:91] Creating Layer inception_4c/1x1
I0403 16:06:22.441833 20728 net.cpp:425] inception_4c/1x1 <- inception_4b/output_inception_4b/output_0_split_0
I0403 16:06:22.441854 20728 net.cpp:399] inception_4c/1x1 -> inception_4c/1x1
I0403 16:06:22.443259 20728 net.cpp:141] Setting up inception_4c/1x1
I0403 16:06:22.443287 20728 net.cpp:148] Top shape: 24 128 14 14 (602112)
I0403 16:06:22.443315 20728 net.cpp:156] Memory required for data: 1030800672
I0403 16:06:22.443334 20728 layer_factory.hpp:77] Creating layer inception_4c/relu_1x1
I0403 16:06:22.443356 20728 net.cpp:91] Creating Layer inception_4c/relu_1x1
I0403 16:06:22.443373 20728 net.cpp:425] inception_4c/relu_1x1 <- inception_4c/1x1
I0403 16:06:22.443392 20728 net.cpp:386] inception_4c/relu_1x1 -> inception_4c/1x1 (in-place)
I0403 16:06:22.443577 20728 net.cpp:141] Setting up inception_4c/relu_1x1
I0403 16:06:22.443615 20728 net.cpp:148] Top shape: 24 128 14 14 (602112)
I0403 16:06:22.443631 20728 net.cpp:156] Memory required for data: 1033209120
I0403 16:06:22.443645 20728 layer_factory.hpp:77] Creating layer inception_4c/3x3_reduce
I0403 16:06:22.443678 20728 net.cpp:91] Creating Layer inception_4c/3x3_reduce
I0403 16:06:22.443696 20728 net.cpp:425] inception_4c/3x3_reduce <- inception_4b/output_inception_4b/output_0_split_1
I0403 16:06:22.443713 20728 net.cpp:399] inception_4c/3x3_reduce -> inception_4c/3x3_reduce
I0403 16:06:22.445601 20728 net.cpp:141] Setting up inception_4c/3x3_reduce
I0403 16:06:22.445632 20728 net.cpp:148] Top shape: 24 128 14 14 (602112)
I0403 16:06:22.445648 20728 net.cpp:156] Memory required for data: 1035617568
I0403 16:06:22.445667 20728 layer_factory.hpp:77] Creating layer inception_4c/relu_3x3_reduce
I0403 16:06:22.445686 20728 net.cpp:91] Creating Layer inception_4c/relu_3x3_reduce
I0403 16:06:22.445703 20728 net.cpp:425] inception_4c/relu_3x3_reduce <- inception_4c/3x3_reduce
I0403 16:06:22.445721 20728 net.cpp:386] inception_4c/relu_3x3_reduce -> inception_4c/3x3_reduce (in-place)
I0403 16:06:22.446003 20728 net.cpp:141] Setting up inception_4c/relu_3x3_reduce
I0403 16:06:22.446030 20728 net.cpp:148] Top shape: 24 128 14 14 (602112)
I0403 16:06:22.446046 20728 net.cpp:156] Memory required for data: 1038026016
I0403 16:06:22.446060 20728 layer_factory.hpp:77] Creating layer inception_4c/3x3
I0403 16:06:22.446084 20728 net.cpp:91] Creating Layer inception_4c/3x3
I0403 16:06:22.446101 20728 net.cpp:425] inception_4c/3x3 <- inception_4c/3x3_reduce
I0403 16:06:22.446121 20728 net.cpp:399] inception_4c/3x3 -> inception_4c/3x3
I0403 16:06:22.449656 20728 net.cpp:141] Setting up inception_4c/3x3
I0403 16:06:22.449697 20728 net.cpp:148] Top shape: 24 256 14 14 (1204224)
I0403 16:06:22.449715 20728 net.cpp:156] Memory required for data: 1042842912
I0403 16:06:22.449749 20728 layer_factory.hpp:77] Creating layer inception_4c/relu_3x3
I0403 16:06:22.449769 20728 net.cpp:91] Creating Layer inception_4c/relu_3x3
I0403 16:06:22.449785 20728 net.cpp:425] inception_4c/relu_3x3 <- inception_4c/3x3
I0403 16:06:22.449805 20728 net.cpp:386] inception_4c/relu_3x3 -> inception_4c/3x3 (in-place)
I0403 16:06:22.449980 20728 net.cpp:141] Setting up inception_4c/relu_3x3
I0403 16:06:22.450009 20728 net.cpp:148] Top shape: 24 256 14 14 (1204224)
I0403 16:06:22.450023 20728 net.cpp:156] Memory required for data: 1047659808
I0403 16:06:22.450038 20728 layer_factory.hpp:77] Creating layer inception_4c/5x5_reduce
I0403 16:06:22.450059 20728 net.cpp:91] Creating Layer inception_4c/5x5_reduce
I0403 16:06:22.450078 20728 net.cpp:425] inception_4c/5x5_reduce <- inception_4b/output_inception_4b/output_0_split_2
I0403 16:06:22.450098 20728 net.cpp:399] inception_4c/5x5_reduce -> inception_4c/5x5_reduce
I0403 16:06:22.451154 20728 net.cpp:141] Setting up inception_4c/5x5_reduce
I0403 16:06:22.451184 20728 net.cpp:148] Top shape: 24 24 14 14 (112896)
I0403 16:06:22.451200 20728 net.cpp:156] Memory required for data: 1048111392
I0403 16:06:22.451220 20728 layer_factory.hpp:77] Creating layer inception_4c/relu_5x5_reduce
I0403 16:06:22.451238 20728 net.cpp:91] Creating Layer inception_4c/relu_5x5_reduce
I0403 16:06:22.451267 20728 net.cpp:425] inception_4c/relu_5x5_reduce <- inception_4c/5x5_reduce
I0403 16:06:22.451284 20728 net.cpp:386] inception_4c/relu_5x5_reduce -> inception_4c/5x5_reduce (in-place)
I0403 16:06:22.451468 20728 net.cpp:141] Setting up inception_4c/relu_5x5_reduce
I0403 16:06:22.451493 20728 net.cpp:148] Top shape: 24 24 14 14 (112896)
I0403 16:06:22.451508 20728 net.cpp:156] Memory required for data: 1048562976
I0403 16:06:22.451521 20728 layer_factory.hpp:77] Creating layer inception_4c/5x5
I0403 16:06:22.451555 20728 net.cpp:91] Creating Layer inception_4c/5x5
I0403 16:06:22.451572 20728 net.cpp:425] inception_4c/5x5 <- inception_4c/5x5_reduce
I0403 16:06:22.451592 20728 net.cpp:399] inception_4c/5x5 -> inception_4c/5x5
I0403 16:06:22.452797 20728 net.cpp:141] Setting up inception_4c/5x5
I0403 16:06:22.452826 20728 net.cpp:148] Top shape: 24 64 14 14 (301056)
I0403 16:06:22.452841 20728 net.cpp:156] Memory required for data: 1049767200
I0403 16:06:22.452859 20728 layer_factory.hpp:77] Creating layer inception_4c/relu_5x5
I0403 16:06:22.452880 20728 net.cpp:91] Creating Layer inception_4c/relu_5x5
I0403 16:06:22.452898 20728 net.cpp:425] inception_4c/relu_5x5 <- inception_4c/5x5
I0403 16:06:22.452915 20728 net.cpp:386] inception_4c/relu_5x5 -> inception_4c/5x5 (in-place)
I0403 16:06:22.453204 20728 net.cpp:141] Setting up inception_4c/relu_5x5
I0403 16:06:22.453229 20728 net.cpp:148] Top shape: 24 64 14 14 (301056)
I0403 16:06:22.453244 20728 net.cpp:156] Memory required for data: 1050971424
I0403 16:06:22.453258 20728 layer_factory.hpp:77] Creating layer inception_4c/pool
I0403 16:06:22.453277 20728 net.cpp:91] Creating Layer inception_4c/pool
I0403 16:06:22.453294 20728 net.cpp:425] inception_4c/pool <- inception_4b/output_inception_4b/output_0_split_3
I0403 16:06:22.453311 20728 net.cpp:399] inception_4c/pool -> inception_4c/pool
I0403 16:06:22.453375 20728 net.cpp:141] Setting up inception_4c/pool
I0403 16:06:22.453398 20728 net.cpp:148] Top shape: 24 512 14 14 (2408448)
I0403 16:06:22.453413 20728 net.cpp:156] Memory required for data: 1060605216
I0403 16:06:22.453426 20728 layer_factory.hpp:77] Creating layer inception_4c/pool_proj
I0403 16:06:22.453449 20728 net.cpp:91] Creating Layer inception_4c/pool_proj
I0403 16:06:22.453464 20728 net.cpp:425] inception_4c/pool_proj <- inception_4c/pool
I0403 16:06:22.453485 20728 net.cpp:399] inception_4c/pool_proj -> inception_4c/pool_proj
I0403 16:06:22.454706 20728 net.cpp:141] Setting up inception_4c/pool_proj
I0403 16:06:22.454733 20728 net.cpp:148] Top shape: 24 64 14 14 (301056)
I0403 16:06:22.454762 20728 net.cpp:156] Memory required for data: 1061809440
I0403 16:06:22.454782 20728 layer_factory.hpp:77] Creating layer inception_4c/relu_pool_proj
I0403 16:06:22.454799 20728 net.cpp:91] Creating Layer inception_4c/relu_pool_proj
I0403 16:06:22.454814 20728 net.cpp:425] inception_4c/relu_pool_proj <- inception_4c/pool_proj
I0403 16:06:22.454833 20728 net.cpp:386] inception_4c/relu_pool_proj -> inception_4c/pool_proj (in-place)
I0403 16:06:22.455016 20728 net.cpp:141] Setting up inception_4c/relu_pool_proj
I0403 16:06:22.455041 20728 net.cpp:148] Top shape: 24 64 14 14 (301056)
I0403 16:06:22.455055 20728 net.cpp:156] Memory required for data: 1063013664
I0403 16:06:22.455070 20728 layer_factory.hpp:77] Creating layer inception_4c/output
I0403 16:06:22.455090 20728 net.cpp:91] Creating Layer inception_4c/output
I0403 16:06:22.455104 20728 net.cpp:425] inception_4c/output <- inception_4c/1x1
I0403 16:06:22.455121 20728 net.cpp:425] inception_4c/output <- inception_4c/3x3
I0403 16:06:22.455137 20728 net.cpp:425] inception_4c/output <- inception_4c/5x5
I0403 16:06:22.455152 20728 net.cpp:425] inception_4c/output <- inception_4c/pool_proj
I0403 16:06:22.455169 20728 net.cpp:399] inception_4c/output -> inception_4c/output
I0403 16:06:22.455215 20728 net.cpp:141] Setting up inception_4c/output
I0403 16:06:22.455237 20728 net.cpp:148] Top shape: 24 512 14 14 (2408448)
I0403 16:06:22.455251 20728 net.cpp:156] Memory required for data: 1072647456
I0403 16:06:22.455265 20728 layer_factory.hpp:77] Creating layer inception_4c/output_inception_4c/output_0_split
I0403 16:06:22.455281 20728 net.cpp:91] Creating Layer inception_4c/output_inception_4c/output_0_split
I0403 16:06:22.455297 20728 net.cpp:425] inception_4c/output_inception_4c/output_0_split <- inception_4c/output
I0403 16:06:22.455317 20728 net.cpp:399] inception_4c/output_inception_4c/output_0_split -> inception_4c/output_inception_4c/output_0_split_0
I0403 16:06:22.455335 20728 net.cpp:399] inception_4c/output_inception_4c/output_0_split -> inception_4c/output_inception_4c/output_0_split_1
I0403 16:06:22.455354 20728 net.cpp:399] inception_4c/output_inception_4c/output_0_split -> inception_4c/output_inception_4c/output_0_split_2
I0403 16:06:22.455374 20728 net.cpp:399] inception_4c/output_inception_4c/output_0_split -> inception_4c/output_inception_4c/output_0_split_3
I0403 16:06:22.455456 20728 net.cpp:141] Setting up inception_4c/output_inception_4c/output_0_split
I0403 16:06:22.455481 20728 net.cpp:148] Top shape: 24 512 14 14 (2408448)
I0403 16:06:22.455497 20728 net.cpp:148] Top shape: 24 512 14 14 (2408448)
I0403 16:06:22.455510 20728 net.cpp:148] Top shape: 24 512 14 14 (2408448)
I0403 16:06:22.455525 20728 net.cpp:148] Top shape: 24 512 14 14 (2408448)
I0403 16:06:22.455538 20728 net.cpp:156] Memory required for data: 1111182624
I0403 16:06:22.455551 20728 layer_factory.hpp:77] Creating layer inception_4d/1x1
I0403 16:06:22.455574 20728 net.cpp:91] Creating Layer inception_4d/1x1
I0403 16:06:22.455590 20728 net.cpp:425] inception_4d/1x1 <- inception_4c/output_inception_4c/output_0_split_0
I0403 16:06:22.455608 20728 net.cpp:399] inception_4d/1x1 -> inception_4d/1x1
I0403 16:06:22.456943 20728 net.cpp:141] Setting up inception_4d/1x1
I0403 16:06:22.456974 20728 net.cpp:148] Top shape: 24 112 14 14 (526848)
I0403 16:06:22.456995 20728 net.cpp:156] Memory required for data: 1113290016
I0403 16:06:22.457016 20728 layer_factory.hpp:77] Creating layer inception_4d/relu_1x1
I0403 16:06:22.457036 20728 net.cpp:91] Creating Layer inception_4d/relu_1x1
I0403 16:06:22.457051 20728 net.cpp:425] inception_4d/relu_1x1 <- inception_4d/1x1
I0403 16:06:22.457067 20728 net.cpp:386] inception_4d/relu_1x1 -> inception_4d/1x1 (in-place)
I0403 16:06:22.457252 20728 net.cpp:141] Setting up inception_4d/relu_1x1
I0403 16:06:22.457278 20728 net.cpp:148] Top shape: 24 112 14 14 (526848)
I0403 16:06:22.457293 20728 net.cpp:156] Memory required for data: 1115397408
I0403 16:06:22.457309 20728 layer_factory.hpp:77] Creating layer inception_4d/3x3_reduce
I0403 16:06:22.457343 20728 net.cpp:91] Creating Layer inception_4d/3x3_reduce
I0403 16:06:22.457361 20728 net.cpp:425] inception_4d/3x3_reduce <- inception_4c/output_inception_4c/output_0_split_1
I0403 16:06:22.457382 20728 net.cpp:399] inception_4d/3x3_reduce -> inception_4d/3x3_reduce
I0403 16:06:22.458879 20728 net.cpp:141] Setting up inception_4d/3x3_reduce
I0403 16:06:22.458907 20728 net.cpp:148] Top shape: 24 144 14 14 (677376)
I0403 16:06:22.458921 20728 net.cpp:156] Memory required for data: 1118106912
I0403 16:06:22.458950 20728 layer_factory.hpp:77] Creating layer inception_4d/relu_3x3_reduce
I0403 16:06:22.458971 20728 net.cpp:91] Creating Layer inception_4d/relu_3x3_reduce
I0403 16:06:22.458997 20728 net.cpp:425] inception_4d/relu_3x3_reduce <- inception_4d/3x3_reduce
I0403 16:06:22.459017 20728 net.cpp:386] inception_4d/relu_3x3_reduce -> inception_4d/3x3_reduce (in-place)
I0403 16:06:22.459307 20728 net.cpp:141] Setting up inception_4d/relu_3x3_reduce
I0403 16:06:22.459334 20728 net.cpp:148] Top shape: 24 144 14 14 (677376)
I0403 16:06:22.459349 20728 net.cpp:156] Memory required for data: 1120816416
I0403 16:06:22.459364 20728 layer_factory.hpp:77] Creating layer inception_4d/3x3
I0403 16:06:22.459385 20728 net.cpp:91] Creating Layer inception_4d/3x3
I0403 16:06:22.459405 20728 net.cpp:425] inception_4d/3x3 <- inception_4d/3x3_reduce
I0403 16:06:22.459424 20728 net.cpp:399] inception_4d/3x3 -> inception_4d/3x3
I0403 16:06:22.463560 20728 net.cpp:141] Setting up inception_4d/3x3
I0403 16:06:22.463593 20728 net.cpp:148] Top shape: 24 288 14 14 (1354752)
I0403 16:06:22.463609 20728 net.cpp:156] Memory required for data: 1126235424
I0403 16:06:22.463627 20728 layer_factory.hpp:77] Creating layer inception_4d/relu_3x3
I0403 16:06:22.463645 20728 net.cpp:91] Creating Layer inception_4d/relu_3x3
I0403 16:06:22.463661 20728 net.cpp:425] inception_4d/relu_3x3 <- inception_4d/3x3
I0403 16:06:22.463680 20728 net.cpp:386] inception_4d/relu_3x3 -> inception_4d/3x3 (in-place)
I0403 16:06:22.463860 20728 net.cpp:141] Setting up inception_4d/relu_3x3
I0403 16:06:22.463884 20728 net.cpp:148] Top shape: 24 288 14 14 (1354752)
I0403 16:06:22.463898 20728 net.cpp:156] Memory required for data: 1131654432
I0403 16:06:22.463912 20728 layer_factory.hpp:77] Creating layer inception_4d/5x5_reduce
I0403 16:06:22.463933 20728 net.cpp:91] Creating Layer inception_4d/5x5_reduce
I0403 16:06:22.463951 20728 net.cpp:425] inception_4d/5x5_reduce <- inception_4c/output_inception_4c/output_0_split_2
I0403 16:06:22.463974 20728 net.cpp:399] inception_4d/5x5_reduce -> inception_4d/5x5_reduce
I0403 16:06:22.465086 20728 net.cpp:141] Setting up inception_4d/5x5_reduce
I0403 16:06:22.465116 20728 net.cpp:148] Top shape: 24 32 14 14 (150528)
I0403 16:06:22.465133 20728 net.cpp:156] Memory required for data: 1132256544
I0403 16:06:22.465152 20728 layer_factory.hpp:77] Creating layer inception_4d/relu_5x5_reduce
I0403 16:06:22.465169 20728 net.cpp:91] Creating Layer inception_4d/relu_5x5_reduce
I0403 16:06:22.465186 20728 net.cpp:425] inception_4d/relu_5x5_reduce <- inception_4d/5x5_reduce
I0403 16:06:22.465204 20728 net.cpp:386] inception_4d/relu_5x5_reduce -> inception_4d/5x5_reduce (in-place)
I0403 16:06:22.465387 20728 net.cpp:141] Setting up inception_4d/relu_5x5_reduce
I0403 16:06:22.465411 20728 net.cpp:148] Top shape: 24 32 14 14 (150528)
I0403 16:06:22.465425 20728 net.cpp:156] Memory required for data: 1132858656
I0403 16:06:22.465440 20728 layer_factory.hpp:77] Creating layer inception_4d/5x5
I0403 16:06:22.465461 20728 net.cpp:91] Creating Layer inception_4d/5x5
I0403 16:06:22.465478 20728 net.cpp:425] inception_4d/5x5 <- inception_4d/5x5_reduce
I0403 16:06:22.465498 20728 net.cpp:399] inception_4d/5x5 -> inception_4d/5x5
I0403 16:06:22.466920 20728 net.cpp:141] Setting up inception_4d/5x5
I0403 16:06:22.466948 20728 net.cpp:148] Top shape: 24 64 14 14 (301056)
I0403 16:06:22.466964 20728 net.cpp:156] Memory required for data: 1134062880
I0403 16:06:22.466984 20728 layer_factory.hpp:77] Creating layer inception_4d/relu_5x5
I0403 16:06:22.467025 20728 net.cpp:91] Creating Layer inception_4d/relu_5x5
I0403 16:06:22.467046 20728 net.cpp:425] inception_4d/relu_5x5 <- inception_4d/5x5
I0403 16:06:22.467062 20728 net.cpp:386] inception_4d/relu_5x5 -> inception_4d/5x5 (in-place)
I0403 16:06:22.467371 20728 net.cpp:141] Setting up inception_4d/relu_5x5
I0403 16:06:22.467399 20728 net.cpp:148] Top shape: 24 64 14 14 (301056)
I0403 16:06:22.467416 20728 net.cpp:156] Memory required for data: 1135267104
I0403 16:06:22.467430 20728 layer_factory.hpp:77] Creating layer inception_4d/pool
I0403 16:06:22.467450 20728 net.cpp:91] Creating Layer inception_4d/pool
I0403 16:06:22.467468 20728 net.cpp:425] inception_4d/pool <- inception_4c/output_inception_4c/output_0_split_3
I0403 16:06:22.467488 20728 net.cpp:399] inception_4d/pool -> inception_4d/pool
I0403 16:06:22.467567 20728 net.cpp:141] Setting up inception_4d/pool
I0403 16:06:22.467591 20728 net.cpp:148] Top shape: 24 512 14 14 (2408448)
I0403 16:06:22.467604 20728 net.cpp:156] Memory required for data: 1144900896
I0403 16:06:22.467618 20728 layer_factory.hpp:77] Creating layer inception_4d/pool_proj
I0403 16:06:22.467643 20728 net.cpp:91] Creating Layer inception_4d/pool_proj
I0403 16:06:22.467659 20728 net.cpp:425] inception_4d/pool_proj <- inception_4d/pool
I0403 16:06:22.467679 20728 net.cpp:399] inception_4d/pool_proj -> inception_4d/pool_proj
I0403 16:06:22.469411 20728 net.cpp:141] Setting up inception_4d/pool_proj
I0403 16:06:22.469442 20728 net.cpp:148] Top shape: 24 64 14 14 (301056)
I0403 16:06:22.469460 20728 net.cpp:156] Memory required for data: 1146105120
I0403 16:06:22.469478 20728 layer_factory.hpp:77] Creating layer inception_4d/relu_pool_proj
I0403 16:06:22.469496 20728 net.cpp:91] Creating Layer inception_4d/relu_pool_proj
I0403 16:06:22.469512 20728 net.cpp:425] inception_4d/relu_pool_proj <- inception_4d/pool_proj
I0403 16:06:22.469532 20728 net.cpp:386] inception_4d/relu_pool_proj -> inception_4d/pool_proj (in-place)
I0403 16:06:22.469712 20728 net.cpp:141] Setting up inception_4d/relu_pool_proj
I0403 16:06:22.469735 20728 net.cpp:148] Top shape: 24 64 14 14 (301056)
I0403 16:06:22.469749 20728 net.cpp:156] Memory required for data: 1147309344
I0403 16:06:22.469764 20728 layer_factory.hpp:77] Creating layer inception_4d/output
I0403 16:06:22.469780 20728 net.cpp:91] Creating Layer inception_4d/output
I0403 16:06:22.469795 20728 net.cpp:425] inception_4d/output <- inception_4d/1x1
I0403 16:06:22.469812 20728 net.cpp:425] inception_4d/output <- inception_4d/3x3
I0403 16:06:22.469827 20728 net.cpp:425] inception_4d/output <- inception_4d/5x5
I0403 16:06:22.469843 20728 net.cpp:425] inception_4d/output <- inception_4d/pool_proj
I0403 16:06:22.469861 20728 net.cpp:399] inception_4d/output -> inception_4d/output
I0403 16:06:22.469907 20728 net.cpp:141] Setting up inception_4d/output
I0403 16:06:22.469933 20728 net.cpp:148] Top shape: 24 528 14 14 (2483712)
I0403 16:06:22.469946 20728 net.cpp:156] Memory required for data: 1157244192
I0403 16:06:22.469960 20728 layer_factory.hpp:77] Creating layer inception_4d/output_inception_4d/output_0_split
I0403 16:06:22.469977 20728 net.cpp:91] Creating Layer inception_4d/output_inception_4d/output_0_split
I0403 16:06:22.469997 20728 net.cpp:425] inception_4d/output_inception_4d/output_0_split <- inception_4d/output
I0403 16:06:22.470018 20728 net.cpp:399] inception_4d/output_inception_4d/output_0_split -> inception_4d/output_inception_4d/output_0_split_0
I0403 16:06:22.470039 20728 net.cpp:399] inception_4d/output_inception_4d/output_0_split -> inception_4d/output_inception_4d/output_0_split_1
I0403 16:06:22.470059 20728 net.cpp:399] inception_4d/output_inception_4d/output_0_split -> inception_4d/output_inception_4d/output_0_split_2
I0403 16:06:22.470079 20728 net.cpp:399] inception_4d/output_inception_4d/output_0_split -> inception_4d/output_inception_4d/output_0_split_3
I0403 16:06:22.470098 20728 net.cpp:399] inception_4d/output_inception_4d/output_0_split -> inception_4d/output_inception_4d/output_0_split_4
I0403 16:06:22.470196 20728 net.cpp:141] Setting up inception_4d/output_inception_4d/output_0_split
I0403 16:06:22.470232 20728 net.cpp:148] Top shape: 24 528 14 14 (2483712)
I0403 16:06:22.470250 20728 net.cpp:148] Top shape: 24 528 14 14 (2483712)
I0403 16:06:22.470264 20728 net.cpp:148] Top shape: 24 528 14 14 (2483712)
I0403 16:06:22.470279 20728 net.cpp:148] Top shape: 24 528 14 14 (2483712)
I0403 16:06:22.470293 20728 net.cpp:148] Top shape: 24 528 14 14 (2483712)
I0403 16:06:22.470306 20728 net.cpp:156] Memory required for data: 1206918432
I0403 16:06:22.470320 20728 layer_factory.hpp:77] Creating layer loss2/ave_pool
I0403 16:06:22.470336 20728 net.cpp:91] Creating Layer loss2/ave_pool
I0403 16:06:22.470351 20728 net.cpp:425] loss2/ave_pool <- inception_4d/output_inception_4d/output_0_split_0
I0403 16:06:22.470368 20728 net.cpp:399] loss2/ave_pool -> loss2/ave_pool
I0403 16:06:22.470680 20728 net.cpp:141] Setting up loss2/ave_pool
I0403 16:06:22.470707 20728 net.cpp:148] Top shape: 24 528 4 4 (202752)
I0403 16:06:22.470722 20728 net.cpp:156] Memory required for data: 1207729440
I0403 16:06:22.470736 20728 layer_factory.hpp:77] Creating layer loss2/conv
I0403 16:06:22.470758 20728 net.cpp:91] Creating Layer loss2/conv
I0403 16:06:22.470775 20728 net.cpp:425] loss2/conv <- loss2/ave_pool
I0403 16:06:22.470793 20728 net.cpp:399] loss2/conv -> loss2/conv
I0403 16:06:22.472628 20728 net.cpp:141] Setting up loss2/conv
I0403 16:06:22.472657 20728 net.cpp:148] Top shape: 24 128 4 4 (49152)
I0403 16:06:22.472673 20728 net.cpp:156] Memory required for data: 1207926048
I0403 16:06:22.472692 20728 layer_factory.hpp:77] Creating layer loss2/relu_conv
I0403 16:06:22.472712 20728 net.cpp:91] Creating Layer loss2/relu_conv
I0403 16:06:22.472728 20728 net.cpp:425] loss2/relu_conv <- loss2/conv
I0403 16:06:22.472745 20728 net.cpp:386] loss2/relu_conv -> loss2/conv (in-place)
I0403 16:06:22.473027 20728 net.cpp:141] Setting up loss2/relu_conv
I0403 16:06:22.473053 20728 net.cpp:148] Top shape: 24 128 4 4 (49152)
I0403 16:06:22.473067 20728 net.cpp:156] Memory required for data: 1208122656
I0403 16:06:22.473081 20728 layer_factory.hpp:77] Creating layer loss2/fc
I0403 16:06:22.473101 20728 net.cpp:91] Creating Layer loss2/fc
I0403 16:06:22.473119 20728 net.cpp:425] loss2/fc <- loss2/conv
I0403 16:06:22.473136 20728 net.cpp:399] loss2/fc -> loss2/fc
I0403 16:06:22.490815 20728 net.cpp:141] Setting up loss2/fc
I0403 16:06:22.490854 20728 net.cpp:148] Top shape: 24 1024 (24576)
I0403 16:06:22.490870 20728 net.cpp:156] Memory required for data: 1208220960
I0403 16:06:22.490890 20728 layer_factory.hpp:77] Creating layer loss2/relu_fc
I0403 16:06:22.490911 20728 net.cpp:91] Creating Layer loss2/relu_fc
I0403 16:06:22.490926 20728 net.cpp:425] loss2/relu_fc <- loss2/fc
I0403 16:06:22.490948 20728 net.cpp:386] loss2/relu_fc -> loss2/fc (in-place)
I0403 16:06:22.491305 20728 net.cpp:141] Setting up loss2/relu_fc
I0403 16:06:22.491333 20728 net.cpp:148] Top shape: 24 1024 (24576)
I0403 16:06:22.491349 20728 net.cpp:156] Memory required for data: 1208319264
I0403 16:06:22.491364 20728 layer_factory.hpp:77] Creating layer loss2/drop_fc
I0403 16:06:22.491397 20728 net.cpp:91] Creating Layer loss2/drop_fc
I0403 16:06:22.491415 20728 net.cpp:425] loss2/drop_fc <- loss2/fc
I0403 16:06:22.491436 20728 net.cpp:386] loss2/drop_fc -> loss2/fc (in-place)
I0403 16:06:22.491489 20728 net.cpp:141] Setting up loss2/drop_fc
I0403 16:06:22.491516 20728 net.cpp:148] Top shape: 24 1024 (24576)
I0403 16:06:22.491533 20728 net.cpp:156] Memory required for data: 1208417568
I0403 16:06:22.491559 20728 layer_factory.hpp:77] Creating layer loss2/classifier_plantvillage
I0403 16:06:22.491580 20728 net.cpp:91] Creating Layer loss2/classifier_plantvillage
I0403 16:06:22.491595 20728 net.cpp:425] loss2/classifier_plantvillage <- loss2/fc
I0403 16:06:22.491617 20728 net.cpp:399] loss2/classifier_plantvillage -> loss2/classifier_plantvillage
I0403 16:06:22.492058 20728 net.cpp:141] Setting up loss2/classifier_plantvillage
I0403 16:06:22.492081 20728 net.cpp:148] Top shape: 24 38 (912)
I0403 16:06:22.492096 20728 net.cpp:156] Memory required for data: 1208421216
I0403 16:06:22.492137 20728 layer_factory.hpp:77] Creating layer loss2/classifier_plantvillage_loss2/classifier_plantvillage_0_split
I0403 16:06:22.492159 20728 net.cpp:91] Creating Layer loss2/classifier_plantvillage_loss2/classifier_plantvillage_0_split
I0403 16:06:22.492177 20728 net.cpp:425] loss2/classifier_plantvillage_loss2/classifier_plantvillage_0_split <- loss2/classifier_plantvillage
I0403 16:06:22.492193 20728 net.cpp:399] loss2/classifier_plantvillage_loss2/classifier_plantvillage_0_split -> loss2/classifier_plantvillage_loss2/classifier_plantvillage_0_split_0
I0403 16:06:22.492215 20728 net.cpp:399] loss2/classifier_plantvillage_loss2/classifier_plantvillage_0_split -> loss2/classifier_plantvillage_loss2/classifier_plantvillage_0_split_1
I0403 16:06:22.492236 20728 net.cpp:399] loss2/classifier_plantvillage_loss2/classifier_plantvillage_0_split -> loss2/classifier_plantvillage_loss2/classifier_plantvillage_0_split_2
I0403 16:06:22.492316 20728 net.cpp:141] Setting up loss2/classifier_plantvillage_loss2/classifier_plantvillage_0_split
I0403 16:06:22.492338 20728 net.cpp:148] Top shape: 24 38 (912)
I0403 16:06:22.492354 20728 net.cpp:148] Top shape: 24 38 (912)
I0403 16:06:22.492369 20728 net.cpp:148] Top shape: 24 38 (912)
I0403 16:06:22.492383 20728 net.cpp:156] Memory required for data: 1208432160
I0403 16:06:22.492398 20728 layer_factory.hpp:77] Creating layer inception_4e/1x1
I0403 16:06:22.492419 20728 net.cpp:91] Creating Layer inception_4e/1x1
I0403 16:06:22.492436 20728 net.cpp:425] inception_4e/1x1 <- inception_4d/output_inception_4d/output_0_split_1
I0403 16:06:22.492455 20728 net.cpp:399] inception_4e/1x1 -> inception_4e/1x1
I0403 16:06:22.494297 20728 net.cpp:141] Setting up inception_4e/1x1
I0403 16:06:22.494326 20728 net.cpp:148] Top shape: 24 256 14 14 (1204224)
I0403 16:06:22.494343 20728 net.cpp:156] Memory required for data: 1213249056
I0403 16:06:22.494361 20728 layer_factory.hpp:77] Creating layer inception_4e/relu_1x1
I0403 16:06:22.494381 20728 net.cpp:91] Creating Layer inception_4e/relu_1x1
I0403 16:06:22.494400 20728 net.cpp:425] inception_4e/relu_1x1 <- inception_4e/1x1
I0403 16:06:22.494417 20728 net.cpp:386] inception_4e/relu_1x1 -> inception_4e/1x1 (in-place)
I0403 16:06:22.494717 20728 net.cpp:141] Setting up inception_4e/relu_1x1
I0403 16:06:22.494745 20728 net.cpp:148] Top shape: 24 256 14 14 (1204224)
I0403 16:06:22.494760 20728 net.cpp:156] Memory required for data: 1218065952
I0403 16:06:22.494776 20728 layer_factory.hpp:77] Creating layer inception_4e/3x3_reduce
I0403 16:06:22.494801 20728 net.cpp:91] Creating Layer inception_4e/3x3_reduce
I0403 16:06:22.494819 20728 net.cpp:425] inception_4e/3x3_reduce <- inception_4d/output_inception_4d/output_0_split_2
I0403 16:06:22.494842 20728 net.cpp:399] inception_4e/3x3_reduce -> inception_4e/3x3_reduce
I0403 16:06:22.497045 20728 net.cpp:141] Setting up inception_4e/3x3_reduce
I0403 16:06:22.497076 20728 net.cpp:148] Top shape: 24 160 14 14 (752640)
I0403 16:06:22.497092 20728 net.cpp:156] Memory required for data: 1221076512
I0403 16:06:22.497112 20728 layer_factory.hpp:77] Creating layer inception_4e/relu_3x3_reduce
I0403 16:06:22.497130 20728 net.cpp:91] Creating Layer inception_4e/relu_3x3_reduce
I0403 16:06:22.497148 20728 net.cpp:425] inception_4e/relu_3x3_reduce <- inception_4e/3x3_reduce
I0403 16:06:22.497169 20728 net.cpp:386] inception_4e/relu_3x3_reduce -> inception_4e/3x3_reduce (in-place)
I0403 16:06:22.497354 20728 net.cpp:141] Setting up inception_4e/relu_3x3_reduce
I0403 16:06:22.497380 20728 net.cpp:148] Top shape: 24 160 14 14 (752640)
I0403 16:06:22.497395 20728 net.cpp:156] Memory required for data: 1224087072
I0403 16:06:22.497409 20728 layer_factory.hpp:77] Creating layer inception_4e/3x3
I0403 16:06:22.497432 20728 net.cpp:91] Creating Layer inception_4e/3x3
I0403 16:06:22.497452 20728 net.cpp:425] inception_4e/3x3 <- inception_4e/3x3_reduce
I0403 16:06:22.497473 20728 net.cpp:399] inception_4e/3x3 -> inception_4e/3x3
I0403 16:06:22.502521 20728 net.cpp:141] Setting up inception_4e/3x3
I0403 16:06:22.502564 20728 net.cpp:148] Top shape: 24 320 14 14 (1505280)
I0403 16:06:22.502584 20728 net.cpp:156] Memory required for data: 1230108192
I0403 16:06:22.502604 20728 layer_factory.hpp:77] Creating layer inception_4e/relu_3x3
I0403 16:06:22.502622 20728 net.cpp:91] Creating Layer inception_4e/relu_3x3
I0403 16:06:22.502638 20728 net.cpp:425] inception_4e/relu_3x3 <- inception_4e/3x3
I0403 16:06:22.502656 20728 net.cpp:386] inception_4e/relu_3x3 -> inception_4e/3x3 (in-place)
I0403 16:06:22.502956 20728 net.cpp:141] Setting up inception_4e/relu_3x3
I0403 16:06:22.502988 20728 net.cpp:148] Top shape: 24 320 14 14 (1505280)
I0403 16:06:22.503005 20728 net.cpp:156] Memory required for data: 1236129312
I0403 16:06:22.503021 20728 layer_factory.hpp:77] Creating layer inception_4e/5x5_reduce
I0403 16:06:22.503044 20728 net.cpp:91] Creating Layer inception_4e/5x5_reduce
I0403 16:06:22.503062 20728 net.cpp:425] inception_4e/5x5_reduce <- inception_4d/output_inception_4d/output_0_split_3
I0403 16:06:22.503080 20728 net.cpp:399] inception_4e/5x5_reduce -> inception_4e/5x5_reduce
I0403 16:06:22.504155 20728 net.cpp:141] Setting up inception_4e/5x5_reduce
I0403 16:06:22.504184 20728 net.cpp:148] Top shape: 24 32 14 14 (150528)
I0403 16:06:22.504199 20728 net.cpp:156] Memory required for data: 1236731424
I0403 16:06:22.504220 20728 layer_factory.hpp:77] Creating layer inception_4e/relu_5x5_reduce
I0403 16:06:22.504240 20728 net.cpp:91] Creating Layer inception_4e/relu_5x5_reduce
I0403 16:06:22.504257 20728 net.cpp:425] inception_4e/relu_5x5_reduce <- inception_4e/5x5_reduce
I0403 16:06:22.504273 20728 net.cpp:386] inception_4e/relu_5x5_reduce -> inception_4e/5x5_reduce (in-place)
I0403 16:06:22.504572 20728 net.cpp:141] Setting up inception_4e/relu_5x5_reduce
I0403 16:06:22.504600 20728 net.cpp:148] Top shape: 24 32 14 14 (150528)
I0403 16:06:22.504614 20728 net.cpp:156] Memory required for data: 1237333536
I0403 16:06:22.504629 20728 layer_factory.hpp:77] Creating layer inception_4e/5x5
I0403 16:06:22.504673 20728 net.cpp:91] Creating Layer inception_4e/5x5
I0403 16:06:22.504691 20728 net.cpp:425] inception_4e/5x5 <- inception_4e/5x5_reduce
I0403 16:06:22.504710 20728 net.cpp:399] inception_4e/5x5 -> inception_4e/5x5
I0403 16:06:22.506598 20728 net.cpp:141] Setting up inception_4e/5x5
I0403 16:06:22.506629 20728 net.cpp:148] Top shape: 24 128 14 14 (602112)
I0403 16:06:22.506646 20728 net.cpp:156] Memory required for data: 1239741984
I0403 16:06:22.506666 20728 layer_factory.hpp:77] Creating layer inception_4e/relu_5x5
I0403 16:06:22.506686 20728 net.cpp:91] Creating Layer inception_4e/relu_5x5
I0403 16:06:22.506703 20728 net.cpp:425] inception_4e/relu_5x5 <- inception_4e/5x5
I0403 16:06:22.506722 20728 net.cpp:386] inception_4e/relu_5x5 -> inception_4e/5x5 (in-place)
I0403 16:06:22.506918 20728 net.cpp:141] Setting up inception_4e/relu_5x5
I0403 16:06:22.506945 20728 net.cpp:148] Top shape: 24 128 14 14 (602112)
I0403 16:06:22.506959 20728 net.cpp:156] Memory required for data: 1242150432
I0403 16:06:22.506975 20728 layer_factory.hpp:77] Creating layer inception_4e/pool
I0403 16:06:22.507000 20728 net.cpp:91] Creating Layer inception_4e/pool
I0403 16:06:22.507019 20728 net.cpp:425] inception_4e/pool <- inception_4d/output_inception_4d/output_0_split_4
I0403 16:06:22.507036 20728 net.cpp:399] inception_4e/pool -> inception_4e/pool
I0403 16:06:22.507109 20728 net.cpp:141] Setting up inception_4e/pool
I0403 16:06:22.507133 20728 net.cpp:148] Top shape: 24 528 14 14 (2483712)
I0403 16:06:22.507148 20728 net.cpp:156] Memory required for data: 1252085280
I0403 16:06:22.507161 20728 layer_factory.hpp:77] Creating layer inception_4e/pool_proj
I0403 16:06:22.507184 20728 net.cpp:91] Creating Layer inception_4e/pool_proj
I0403 16:06:22.507200 20728 net.cpp:425] inception_4e/pool_proj <- inception_4e/pool
I0403 16:06:22.507222 20728 net.cpp:399] inception_4e/pool_proj -> inception_4e/pool_proj
I0403 16:06:22.508750 20728 net.cpp:141] Setting up inception_4e/pool_proj
I0403 16:06:22.508782 20728 net.cpp:148] Top shape: 24 128 14 14 (602112)
I0403 16:06:22.508812 20728 net.cpp:156] Memory required for data: 1254493728
I0403 16:06:22.508833 20728 layer_factory.hpp:77] Creating layer inception_4e/relu_pool_proj
I0403 16:06:22.508852 20728 net.cpp:91] Creating Layer inception_4e/relu_pool_proj
I0403 16:06:22.508869 20728 net.cpp:425] inception_4e/relu_pool_proj <- inception_4e/pool_proj
I0403 16:06:22.508890 20728 net.cpp:386] inception_4e/relu_pool_proj -> inception_4e/pool_proj (in-place)
I0403 16:06:22.509196 20728 net.cpp:141] Setting up inception_4e/relu_pool_proj
I0403 16:06:22.509225 20728 net.cpp:148] Top shape: 24 128 14 14 (602112)
I0403 16:06:22.509243 20728 net.cpp:156] Memory required for data: 1256902176
I0403 16:06:22.509258 20728 layer_factory.hpp:77] Creating layer inception_4e/output
I0403 16:06:22.509277 20728 net.cpp:91] Creating Layer inception_4e/output
I0403 16:06:22.509292 20728 net.cpp:425] inception_4e/output <- inception_4e/1x1
I0403 16:06:22.509310 20728 net.cpp:425] inception_4e/output <- inception_4e/3x3
I0403 16:06:22.509326 20728 net.cpp:425] inception_4e/output <- inception_4e/5x5
I0403 16:06:22.509342 20728 net.cpp:425] inception_4e/output <- inception_4e/pool_proj
I0403 16:06:22.509362 20728 net.cpp:399] inception_4e/output -> inception_4e/output
I0403 16:06:22.509412 20728 net.cpp:141] Setting up inception_4e/output
I0403 16:06:22.509435 20728 net.cpp:148] Top shape: 24 832 14 14 (3913728)
I0403 16:06:22.509449 20728 net.cpp:156] Memory required for data: 1272557088
I0403 16:06:22.509464 20728 layer_factory.hpp:77] Creating layer pool4/3x3_s2
I0403 16:06:22.509482 20728 net.cpp:91] Creating Layer pool4/3x3_s2
I0403 16:06:22.509500 20728 net.cpp:425] pool4/3x3_s2 <- inception_4e/output
I0403 16:06:22.509517 20728 net.cpp:399] pool4/3x3_s2 -> pool4/3x3_s2
I0403 16:06:22.509587 20728 net.cpp:141] Setting up pool4/3x3_s2
I0403 16:06:22.509610 20728 net.cpp:148] Top shape: 24 832 7 7 (978432)
I0403 16:06:22.509624 20728 net.cpp:156] Memory required for data: 1276470816
I0403 16:06:22.509639 20728 layer_factory.hpp:77] Creating layer pool4/3x3_s2_pool4/3x3_s2_0_split
I0403 16:06:22.509655 20728 net.cpp:91] Creating Layer pool4/3x3_s2_pool4/3x3_s2_0_split
I0403 16:06:22.509670 20728 net.cpp:425] pool4/3x3_s2_pool4/3x3_s2_0_split <- pool4/3x3_s2
I0403 16:06:22.509690 20728 net.cpp:399] pool4/3x3_s2_pool4/3x3_s2_0_split -> pool4/3x3_s2_pool4/3x3_s2_0_split_0
I0403 16:06:22.509711 20728 net.cpp:399] pool4/3x3_s2_pool4/3x3_s2_0_split -> pool4/3x3_s2_pool4/3x3_s2_0_split_1
I0403 16:06:22.509729 20728 net.cpp:399] pool4/3x3_s2_pool4/3x3_s2_0_split -> pool4/3x3_s2_pool4/3x3_s2_0_split_2
I0403 16:06:22.509749 20728 net.cpp:399] pool4/3x3_s2_pool4/3x3_s2_0_split -> pool4/3x3_s2_pool4/3x3_s2_0_split_3
I0403 16:06:22.509840 20728 net.cpp:141] Setting up pool4/3x3_s2_pool4/3x3_s2_0_split
I0403 16:06:22.509862 20728 net.cpp:148] Top shape: 24 832 7 7 (978432)
I0403 16:06:22.509878 20728 net.cpp:148] Top shape: 24 832 7 7 (978432)
I0403 16:06:22.509893 20728 net.cpp:148] Top shape: 24 832 7 7 (978432)
I0403 16:06:22.509908 20728 net.cpp:148] Top shape: 24 832 7 7 (978432)
I0403 16:06:22.509922 20728 net.cpp:156] Memory required for data: 1292125728
I0403 16:06:22.509935 20728 layer_factory.hpp:77] Creating layer inception_5a/1x1
I0403 16:06:22.509958 20728 net.cpp:91] Creating Layer inception_5a/1x1
I0403 16:06:22.509974 20728 net.cpp:425] inception_5a/1x1 <- pool4/3x3_s2_pool4/3x3_s2_0_split_0
I0403 16:06:22.510001 20728 net.cpp:399] inception_5a/1x1 -> inception_5a/1x1
I0403 16:06:22.512856 20728 net.cpp:141] Setting up inception_5a/1x1
I0403 16:06:22.512887 20728 net.cpp:148] Top shape: 24 256 7 7 (301056)
I0403 16:06:22.512903 20728 net.cpp:156] Memory required for data: 1293329952
I0403 16:06:22.512922 20728 layer_factory.hpp:77] Creating layer inception_5a/relu_1x1
I0403 16:06:22.512939 20728 net.cpp:91] Creating Layer inception_5a/relu_1x1
I0403 16:06:22.512955 20728 net.cpp:425] inception_5a/relu_1x1 <- inception_5a/1x1
I0403 16:06:22.512975 20728 net.cpp:386] inception_5a/relu_1x1 -> inception_5a/1x1 (in-place)
I0403 16:06:22.513335 20728 net.cpp:141] Setting up inception_5a/relu_1x1
I0403 16:06:22.513362 20728 net.cpp:148] Top shape: 24 256 7 7 (301056)
I0403 16:06:22.513378 20728 net.cpp:156] Memory required for data: 1294534176
I0403 16:06:22.513393 20728 layer_factory.hpp:77] Creating layer inception_5a/3x3_reduce
I0403 16:06:22.513416 20728 net.cpp:91] Creating Layer inception_5a/3x3_reduce
I0403 16:06:22.513432 20728 net.cpp:425] inception_5a/3x3_reduce <- pool4/3x3_s2_pool4/3x3_s2_0_split_1
I0403 16:06:22.513453 20728 net.cpp:399] inception_5a/3x3_reduce -> inception_5a/3x3_reduce
I0403 16:06:22.515909 20728 net.cpp:141] Setting up inception_5a/3x3_reduce
I0403 16:06:22.515943 20728 net.cpp:148] Top shape: 24 160 7 7 (188160)
I0403 16:06:22.515960 20728 net.cpp:156] Memory required for data: 1295286816
I0403 16:06:22.515980 20728 layer_factory.hpp:77] Creating layer inception_5a/relu_3x3_reduce
I0403 16:06:22.516016 20728 net.cpp:91] Creating Layer inception_5a/relu_3x3_reduce
I0403 16:06:22.516033 20728 net.cpp:425] inception_5a/relu_3x3_reduce <- inception_5a/3x3_reduce
I0403 16:06:22.516053 20728 net.cpp:386] inception_5a/relu_3x3_reduce -> inception_5a/3x3_reduce (in-place)
I0403 16:06:22.516247 20728 net.cpp:141] Setting up inception_5a/relu_3x3_reduce
I0403 16:06:22.516271 20728 net.cpp:148] Top shape: 24 160 7 7 (188160)
I0403 16:06:22.516299 20728 net.cpp:156] Memory required for data: 1296039456
I0403 16:06:22.516312 20728 layer_factory.hpp:77] Creating layer inception_5a/3x3
I0403 16:06:22.516335 20728 net.cpp:91] Creating Layer inception_5a/3x3
I0403 16:06:22.516352 20728 net.cpp:425] inception_5a/3x3 <- inception_5a/3x3_reduce
I0403 16:06:22.516374 20728 net.cpp:399] inception_5a/3x3 -> inception_5a/3x3
I0403 16:06:22.521394 20728 net.cpp:141] Setting up inception_5a/3x3
I0403 16:06:22.521423 20728 net.cpp:148] Top shape: 24 320 7 7 (376320)
I0403 16:06:22.521440 20728 net.cpp:156] Memory required for data: 1297544736
I0403 16:06:22.521458 20728 layer_factory.hpp:77] Creating layer inception_5a/relu_3x3
I0403 16:06:22.521476 20728 net.cpp:91] Creating Layer inception_5a/relu_3x3
I0403 16:06:22.521494 20728 net.cpp:425] inception_5a/relu_3x3 <- inception_5a/3x3
I0403 16:06:22.521512 20728 net.cpp:386] inception_5a/relu_3x3 -> inception_5a/3x3 (in-place)
I0403 16:06:22.521796 20728 net.cpp:141] Setting up inception_5a/relu_3x3
I0403 16:06:22.521821 20728 net.cpp:148] Top shape: 24 320 7 7 (376320)
I0403 16:06:22.521836 20728 net.cpp:156] Memory required for data: 1299050016
I0403 16:06:22.521850 20728 layer_factory.hpp:77] Creating layer inception_5a/5x5_reduce
I0403 16:06:22.521872 20728 net.cpp:91] Creating Layer inception_5a/5x5_reduce
I0403 16:06:22.521890 20728 net.cpp:425] inception_5a/5x5_reduce <- pool4/3x3_s2_pool4/3x3_s2_0_split_2
I0403 16:06:22.521911 20728 net.cpp:399] inception_5a/5x5_reduce -> inception_5a/5x5_reduce
I0403 16:06:22.523072 20728 net.cpp:141] Setting up inception_5a/5x5_reduce
I0403 16:06:22.523100 20728 net.cpp:148] Top shape: 24 32 7 7 (37632)
I0403 16:06:22.523116 20728 net.cpp:156] Memory required for data: 1299200544
I0403 16:06:22.523135 20728 layer_factory.hpp:77] Creating layer inception_5a/relu_5x5_reduce
I0403 16:06:22.523155 20728 net.cpp:91] Creating Layer inception_5a/relu_5x5_reduce
I0403 16:06:22.523175 20728 net.cpp:425] inception_5a/relu_5x5_reduce <- inception_5a/5x5_reduce
I0403 16:06:22.523193 20728 net.cpp:386] inception_5a/relu_5x5_reduce -> inception_5a/5x5_reduce (in-place)
I0403 16:06:22.523496 20728 net.cpp:141] Setting up inception_5a/relu_5x5_reduce
I0403 16:06:22.523524 20728 net.cpp:148] Top shape: 24 32 7 7 (37632)
I0403 16:06:22.523537 20728 net.cpp:156] Memory required for data: 1299351072
I0403 16:06:22.523553 20728 layer_factory.hpp:77] Creating layer inception_5a/5x5
I0403 16:06:22.523576 20728 net.cpp:91] Creating Layer inception_5a/5x5
I0403 16:06:22.523592 20728 net.cpp:425] inception_5a/5x5 <- inception_5a/5x5_reduce
I0403 16:06:22.523613 20728 net.cpp:399] inception_5a/5x5 -> inception_5a/5x5
I0403 16:06:22.525321 20728 net.cpp:141] Setting up inception_5a/5x5
I0403 16:06:22.525362 20728 net.cpp:148] Top shape: 24 128 7 7 (150528)
I0403 16:06:22.525377 20728 net.cpp:156] Memory required for data: 1299953184
I0403 16:06:22.525394 20728 layer_factory.hpp:77] Creating layer inception_5a/relu_5x5
I0403 16:06:22.525411 20728 net.cpp:91] Creating Layer inception_5a/relu_5x5
I0403 16:06:22.525426 20728 net.cpp:425] inception_5a/relu_5x5 <- inception_5a/5x5
I0403 16:06:22.525445 20728 net.cpp:386] inception_5a/relu_5x5 -> inception_5a/5x5 (in-place)
I0403 16:06:22.525629 20728 net.cpp:141] Setting up inception_5a/relu_5x5
I0403 16:06:22.525653 20728 net.cpp:148] Top shape: 24 128 7 7 (150528)
I0403 16:06:22.525667 20728 net.cpp:156] Memory required for data: 1300555296
I0403 16:06:22.525681 20728 layer_factory.hpp:77] Creating layer inception_5a/pool
I0403 16:06:22.525701 20728 net.cpp:91] Creating Layer inception_5a/pool
I0403 16:06:22.525717 20728 net.cpp:425] inception_5a/pool <- pool4/3x3_s2_pool4/3x3_s2_0_split_3
I0403 16:06:22.525734 20728 net.cpp:399] inception_5a/pool -> inception_5a/pool
I0403 16:06:22.525804 20728 net.cpp:141] Setting up inception_5a/pool
I0403 16:06:22.525827 20728 net.cpp:148] Top shape: 24 832 7 7 (978432)
I0403 16:06:22.525841 20728 net.cpp:156] Memory required for data: 1304469024
I0403 16:06:22.525856 20728 layer_factory.hpp:77] Creating layer inception_5a/pool_proj
I0403 16:06:22.525876 20728 net.cpp:91] Creating Layer inception_5a/pool_proj
I0403 16:06:22.525892 20728 net.cpp:425] inception_5a/pool_proj <- inception_5a/pool
I0403 16:06:22.525913 20728 net.cpp:399] inception_5a/pool_proj -> inception_5a/pool_proj
I0403 16:06:22.528177 20728 net.cpp:141] Setting up inception_5a/pool_proj
I0403 16:06:22.528210 20728 net.cpp:148] Top shape: 24 128 7 7 (150528)
I0403 16:06:22.528228 20728 net.cpp:156] Memory required for data: 1305071136
I0403 16:06:22.528247 20728 layer_factory.hpp:77] Creating layer inception_5a/relu_pool_proj
I0403 16:06:22.528266 20728 net.cpp:91] Creating Layer inception_5a/relu_pool_proj
I0403 16:06:22.528295 20728 net.cpp:425] inception_5a/relu_pool_proj <- inception_5a/pool_proj
I0403 16:06:22.528314 20728 net.cpp:386] inception_5a/relu_pool_proj -> inception_5a/pool_proj (in-place)
I0403 16:06:22.528638 20728 net.cpp:141] Setting up inception_5a/relu_pool_proj
I0403 16:06:22.528664 20728 net.cpp:148] Top shape: 24 128 7 7 (150528)
I0403 16:06:22.528678 20728 net.cpp:156] Memory required for data: 1305673248
I0403 16:06:22.528693 20728 layer_factory.hpp:77] Creating layer inception_5a/output
I0403 16:06:22.528710 20728 net.cpp:91] Creating Layer inception_5a/output
I0403 16:06:22.528725 20728 net.cpp:425] inception_5a/output <- inception_5a/1x1
I0403 16:06:22.528743 20728 net.cpp:425] inception_5a/output <- inception_5a/3x3
I0403 16:06:22.528759 20728 net.cpp:425] inception_5a/output <- inception_5a/5x5
I0403 16:06:22.528774 20728 net.cpp:425] inception_5a/output <- inception_5a/pool_proj
I0403 16:06:22.528790 20728 net.cpp:399] inception_5a/output -> inception_5a/output
I0403 16:06:22.528843 20728 net.cpp:141] Setting up inception_5a/output
I0403 16:06:22.528867 20728 net.cpp:148] Top shape: 24 832 7 7 (978432)
I0403 16:06:22.528880 20728 net.cpp:156] Memory required for data: 1309586976
I0403 16:06:22.528894 20728 layer_factory.hpp:77] Creating layer inception_5a/output_inception_5a/output_0_split
I0403 16:06:22.528914 20728 net.cpp:91] Creating Layer inception_5a/output_inception_5a/output_0_split
I0403 16:06:22.528931 20728 net.cpp:425] inception_5a/output_inception_5a/output_0_split <- inception_5a/output
I0403 16:06:22.528949 20728 net.cpp:399] inception_5a/output_inception_5a/output_0_split -> inception_5a/output_inception_5a/output_0_split_0
I0403 16:06:22.528970 20728 net.cpp:399] inception_5a/output_inception_5a/output_0_split -> inception_5a/output_inception_5a/output_0_split_1
I0403 16:06:22.529003 20728 net.cpp:399] inception_5a/output_inception_5a/output_0_split -> inception_5a/output_inception_5a/output_0_split_2
I0403 16:06:22.529031 20728 net.cpp:399] inception_5a/output_inception_5a/output_0_split -> inception_5a/output_inception_5a/output_0_split_3
I0403 16:06:22.529146 20728 net.cpp:141] Setting up inception_5a/output_inception_5a/output_0_split
I0403 16:06:22.529171 20728 net.cpp:148] Top shape: 24 832 7 7 (978432)
I0403 16:06:22.529188 20728 net.cpp:148] Top shape: 24 832 7 7 (978432)
I0403 16:06:22.529204 20728 net.cpp:148] Top shape: 24 832 7 7 (978432)
I0403 16:06:22.529220 20728 net.cpp:148] Top shape: 24 832 7 7 (978432)
I0403 16:06:22.529235 20728 net.cpp:156] Memory required for data: 1325241888
I0403 16:06:22.529249 20728 layer_factory.hpp:77] Creating layer inception_5b/1x1
I0403 16:06:22.529271 20728 net.cpp:91] Creating Layer inception_5b/1x1
I0403 16:06:22.529289 20728 net.cpp:425] inception_5b/1x1 <- inception_5a/output_inception_5a/output_0_split_0
I0403 16:06:22.529311 20728 net.cpp:399] inception_5b/1x1 -> inception_5b/1x1
I0403 16:06:22.533044 20728 net.cpp:141] Setting up inception_5b/1x1
I0403 16:06:22.533078 20728 net.cpp:148] Top shape: 24 384 7 7 (451584)
I0403 16:06:22.533095 20728 net.cpp:156] Memory required for data: 1327048224
I0403 16:06:22.533115 20728 layer_factory.hpp:77] Creating layer inception_5b/relu_1x1
I0403 16:06:22.533133 20728 net.cpp:91] Creating Layer inception_5b/relu_1x1
I0403 16:06:22.533149 20728 net.cpp:425] inception_5b/relu_1x1 <- inception_5b/1x1
I0403 16:06:22.533170 20728 net.cpp:386] inception_5b/relu_1x1 -> inception_5b/1x1 (in-place)
I0403 16:06:22.533484 20728 net.cpp:141] Setting up inception_5b/relu_1x1
I0403 16:06:22.533511 20728 net.cpp:148] Top shape: 24 384 7 7 (451584)
I0403 16:06:22.533526 20728 net.cpp:156] Memory required for data: 1328854560
I0403 16:06:22.533540 20728 layer_factory.hpp:77] Creating layer inception_5b/3x3_reduce
I0403 16:06:22.533561 20728 net.cpp:91] Creating Layer inception_5b/3x3_reduce
I0403 16:06:22.533578 20728 net.cpp:425] inception_5b/3x3_reduce <- inception_5a/output_inception_5a/output_0_split_1
I0403 16:06:22.533597 20728 net.cpp:399] inception_5b/3x3_reduce -> inception_5b/3x3_reduce
I0403 16:06:22.536190 20728 net.cpp:141] Setting up inception_5b/3x3_reduce
I0403 16:06:22.536222 20728 net.cpp:148] Top shape: 24 192 7 7 (225792)
I0403 16:06:22.536240 20728 net.cpp:156] Memory required for data: 1329757728
I0403 16:06:22.536259 20728 layer_factory.hpp:77] Creating layer inception_5b/relu_3x3_reduce
I0403 16:06:22.536278 20728 net.cpp:91] Creating Layer inception_5b/relu_3x3_reduce
I0403 16:06:22.536295 20728 net.cpp:425] inception_5b/relu_3x3_reduce <- inception_5b/3x3_reduce
I0403 16:06:22.536315 20728 net.cpp:386] inception_5b/relu_3x3_reduce -> inception_5b/3x3_reduce (in-place)
I0403 16:06:22.536501 20728 net.cpp:141] Setting up inception_5b/relu_3x3_reduce
I0403 16:06:22.536527 20728 net.cpp:148] Top shape: 24 192 7 7 (225792)
I0403 16:06:22.536541 20728 net.cpp:156] Memory required for data: 1330660896
I0403 16:06:22.536556 20728 layer_factory.hpp:77] Creating layer inception_5b/3x3
I0403 16:06:22.536581 20728 net.cpp:91] Creating Layer inception_5b/3x3
I0403 16:06:22.536598 20728 net.cpp:425] inception_5b/3x3 <- inception_5b/3x3_reduce
I0403 16:06:22.536620 20728 net.cpp:399] inception_5b/3x3 -> inception_5b/3x3
I0403 16:06:22.543208 20728 net.cpp:141] Setting up inception_5b/3x3
I0403 16:06:22.543237 20728 net.cpp:148] Top shape: 24 384 7 7 (451584)
I0403 16:06:22.543254 20728 net.cpp:156] Memory required for data: 1332467232
I0403 16:06:22.543272 20728 layer_factory.hpp:77] Creating layer inception_5b/relu_3x3
I0403 16:06:22.543289 20728 net.cpp:91] Creating Layer inception_5b/relu_3x3
I0403 16:06:22.543304 20728 net.cpp:425] inception_5b/relu_3x3 <- inception_5b/3x3
I0403 16:06:22.543324 20728 net.cpp:386] inception_5b/relu_3x3 -> inception_5b/3x3 (in-place)
I0403 16:06:22.543624 20728 net.cpp:141] Setting up inception_5b/relu_3x3
I0403 16:06:22.543649 20728 net.cpp:148] Top shape: 24 384 7 7 (451584)
I0403 16:06:22.543663 20728 net.cpp:156] Memory required for data: 1334273568
I0403 16:06:22.543678 20728 layer_factory.hpp:77] Creating layer inception_5b/5x5_reduce
I0403 16:06:22.543715 20728 net.cpp:91] Creating Layer inception_5b/5x5_reduce
I0403 16:06:22.543732 20728 net.cpp:425] inception_5b/5x5_reduce <- inception_5a/output_inception_5a/output_0_split_2
I0403 16:06:22.543754 20728 net.cpp:399] inception_5b/5x5_reduce -> inception_5b/5x5_reduce
I0403 16:06:22.544993 20728 net.cpp:141] Setting up inception_5b/5x5_reduce
I0403 16:06:22.545023 20728 net.cpp:148] Top shape: 24 48 7 7 (56448)
I0403 16:06:22.545040 20728 net.cpp:156] Memory required for data: 1334499360
I0403 16:06:22.545059 20728 layer_factory.hpp:77] Creating layer inception_5b/relu_5x5_reduce
I0403 16:06:22.545076 20728 net.cpp:91] Creating Layer inception_5b/relu_5x5_reduce
I0403 16:06:22.545094 20728 net.cpp:425] inception_5b/relu_5x5_reduce <- inception_5b/5x5_reduce
I0403 16:06:22.545114 20728 net.cpp:386] inception_5b/relu_5x5_reduce -> inception_5b/5x5_reduce (in-place)
I0403 16:06:22.545480 20728 net.cpp:141] Setting up inception_5b/relu_5x5_reduce
I0403 16:06:22.545506 20728 net.cpp:148] Top shape: 24 48 7 7 (56448)
I0403 16:06:22.545521 20728 net.cpp:156] Memory required for data: 1334725152
I0403 16:06:22.545536 20728 layer_factory.hpp:77] Creating layer inception_5b/5x5
I0403 16:06:22.545554 20728 net.cpp:91] Creating Layer inception_5b/5x5
I0403 16:06:22.545572 20728 net.cpp:425] inception_5b/5x5 <- inception_5b/5x5_reduce
I0403 16:06:22.545589 20728 net.cpp:399] inception_5b/5x5 -> inception_5b/5x5
I0403 16:06:22.547657 20728 net.cpp:141] Setting up inception_5b/5x5
I0403 16:06:22.547684 20728 net.cpp:148] Top shape: 24 128 7 7 (150528)
I0403 16:06:22.547698 20728 net.cpp:156] Memory required for data: 1335327264
I0403 16:06:22.547715 20728 layer_factory.hpp:77] Creating layer inception_5b/relu_5x5
I0403 16:06:22.547734 20728 net.cpp:91] Creating Layer inception_5b/relu_5x5
I0403 16:06:22.547749 20728 net.cpp:425] inception_5b/relu_5x5 <- inception_5b/5x5
I0403 16:06:22.547767 20728 net.cpp:386] inception_5b/relu_5x5 -> inception_5b/5x5 (in-place)
I0403 16:06:22.547956 20728 net.cpp:141] Setting up inception_5b/relu_5x5
I0403 16:06:22.547981 20728 net.cpp:148] Top shape: 24 128 7 7 (150528)
I0403 16:06:22.547998 20728 net.cpp:156] Memory required for data: 1335929376
I0403 16:06:22.548013 20728 layer_factory.hpp:77] Creating layer inception_5b/pool
I0403 16:06:22.548032 20728 net.cpp:91] Creating Layer inception_5b/pool
I0403 16:06:22.548049 20728 net.cpp:425] inception_5b/pool <- inception_5a/output_inception_5a/output_0_split_3
I0403 16:06:22.548066 20728 net.cpp:399] inception_5b/pool -> inception_5b/pool
I0403 16:06:22.548138 20728 net.cpp:141] Setting up inception_5b/pool
I0403 16:06:22.548161 20728 net.cpp:148] Top shape: 24 832 7 7 (978432)
I0403 16:06:22.548176 20728 net.cpp:156] Memory required for data: 1339843104
I0403 16:06:22.548189 20728 layer_factory.hpp:77] Creating layer inception_5b/pool_proj
I0403 16:06:22.548210 20728 net.cpp:91] Creating Layer inception_5b/pool_proj
I0403 16:06:22.548226 20728 net.cpp:425] inception_5b/pool_proj <- inception_5b/pool
I0403 16:06:22.548248 20728 net.cpp:399] inception_5b/pool_proj -> inception_5b/pool_proj
I0403 16:06:22.550531 20728 net.cpp:141] Setting up inception_5b/pool_proj
I0403 16:06:22.550565 20728 net.cpp:148] Top shape: 24 128 7 7 (150528)
I0403 16:06:22.550581 20728 net.cpp:156] Memory required for data: 1340445216
I0403 16:06:22.550600 20728 layer_factory.hpp:77] Creating layer inception_5b/relu_pool_proj
I0403 16:06:22.550617 20728 net.cpp:91] Creating Layer inception_5b/relu_pool_proj
I0403 16:06:22.550636 20728 net.cpp:425] inception_5b/relu_pool_proj <- inception_5b/pool_proj
I0403 16:06:22.550654 20728 net.cpp:386] inception_5b/relu_pool_proj -> inception_5b/pool_proj (in-place)
I0403 16:06:22.550947 20728 net.cpp:141] Setting up inception_5b/relu_pool_proj
I0403 16:06:22.550976 20728 net.cpp:148] Top shape: 24 128 7 7 (150528)
I0403 16:06:22.551007 20728 net.cpp:156] Memory required for data: 1341047328
I0403 16:06:22.551024 20728 layer_factory.hpp:77] Creating layer inception_5b/output
I0403 16:06:22.551043 20728 net.cpp:91] Creating Layer inception_5b/output
I0403 16:06:22.551074 20728 net.cpp:425] inception_5b/output <- inception_5b/1x1
I0403 16:06:22.551091 20728 net.cpp:425] inception_5b/output <- inception_5b/3x3
I0403 16:06:22.551107 20728 net.cpp:425] inception_5b/output <- inception_5b/5x5
I0403 16:06:22.551123 20728 net.cpp:425] inception_5b/output <- inception_5b/pool_proj
I0403 16:06:22.551143 20728 net.cpp:399] inception_5b/output -> inception_5b/output
I0403 16:06:22.551195 20728 net.cpp:141] Setting up inception_5b/output
I0403 16:06:22.551219 20728 net.cpp:148] Top shape: 24 1024 7 7 (1204224)
I0403 16:06:22.551234 20728 net.cpp:156] Memory required for data: 1345864224
I0403 16:06:22.551246 20728 layer_factory.hpp:77] Creating layer pool5/7x7_s1
I0403 16:06:22.551267 20728 net.cpp:91] Creating Layer pool5/7x7_s1
I0403 16:06:22.551295 20728 net.cpp:425] pool5/7x7_s1 <- inception_5b/output
I0403 16:06:22.551313 20728 net.cpp:399] pool5/7x7_s1 -> pool5/7x7_s1
I0403 16:06:22.551523 20728 net.cpp:141] Setting up pool5/7x7_s1
I0403 16:06:22.551548 20728 net.cpp:148] Top shape: 24 1024 1 1 (24576)
I0403 16:06:22.551563 20728 net.cpp:156] Memory required for data: 1345962528
I0403 16:06:22.551576 20728 layer_factory.hpp:77] Creating layer pool5/drop_7x7_s1
I0403 16:06:22.551594 20728 net.cpp:91] Creating Layer pool5/drop_7x7_s1
I0403 16:06:22.551609 20728 net.cpp:425] pool5/drop_7x7_s1 <- pool5/7x7_s1
I0403 16:06:22.551627 20728 net.cpp:386] pool5/drop_7x7_s1 -> pool5/7x7_s1 (in-place)
I0403 16:06:22.551676 20728 net.cpp:141] Setting up pool5/drop_7x7_s1
I0403 16:06:22.551702 20728 net.cpp:148] Top shape: 24 1024 1 1 (24576)
I0403 16:06:22.551717 20728 net.cpp:156] Memory required for data: 1346060832
I0403 16:06:22.551730 20728 layer_factory.hpp:77] Creating layer loss3/classifier_plantvillage
I0403 16:06:22.551748 20728 net.cpp:91] Creating Layer loss3/classifier_plantvillage
I0403 16:06:22.551764 20728 net.cpp:425] loss3/classifier_plantvillage <- pool5/7x7_s1
I0403 16:06:22.551786 20728 net.cpp:399] loss3/classifier_plantvillage -> loss3/classifier_plantvillage
I0403 16:06:22.552207 20728 net.cpp:141] Setting up loss3/classifier_plantvillage
I0403 16:06:22.552233 20728 net.cpp:148] Top shape: 24 38 (912)
I0403 16:06:22.552248 20728 net.cpp:156] Memory required for data: 1346064480
I0403 16:06:22.552265 20728 layer_factory.hpp:77] Creating layer loss3/classifier_plantvillage_loss3/classifier_plantvillage_0_split
I0403 16:06:22.552284 20728 net.cpp:91] Creating Layer loss3/classifier_plantvillage_loss3/classifier_plantvillage_0_split
I0403 16:06:22.552299 20728 net.cpp:425] loss3/classifier_plantvillage_loss3/classifier_plantvillage_0_split <- loss3/classifier_plantvillage
I0403 16:06:22.552316 20728 net.cpp:399] loss3/classifier_plantvillage_loss3/classifier_plantvillage_0_split -> loss3/classifier_plantvillage_loss3/classifier_plantvillage_0_split_0
I0403 16:06:22.552336 20728 net.cpp:399] loss3/classifier_plantvillage_loss3/classifier_plantvillage_0_split -> loss3/classifier_plantvillage_loss3/classifier_plantvillage_0_split_1
I0403 16:06:22.552356 20728 net.cpp:399] loss3/classifier_plantvillage_loss3/classifier_plantvillage_0_split -> loss3/classifier_plantvillage_loss3/classifier_plantvillage_0_split_2
I0403 16:06:22.552377 20728 net.cpp:399] loss3/classifier_plantvillage_loss3/classifier_plantvillage_0_split -> loss3/classifier_plantvillage_loss3/classifier_plantvillage_0_split_3
I0403 16:06:22.552476 20728 net.cpp:141] Setting up loss3/classifier_plantvillage_loss3/classifier_plantvillage_0_split
I0403 16:06:22.552498 20728 net.cpp:148] Top shape: 24 38 (912)
I0403 16:06:22.552515 20728 net.cpp:148] Top shape: 24 38 (912)
I0403 16:06:22.552528 20728 net.cpp:148] Top shape: 24 38 (912)
I0403 16:06:22.552543 20728 net.cpp:148] Top shape: 24 38 (912)
I0403 16:06:22.552556 20728 net.cpp:156] Memory required for data: 1346079072
I0403 16:06:22.552570 20728 layer_factory.hpp:77] Creating layer loss1/loss
I0403 16:06:22.552592 20728 net.cpp:91] Creating Layer loss1/loss
I0403 16:06:22.552608 20728 net.cpp:425] loss1/loss <- loss1/classifier_plantvillage_loss1/classifier_plantvillage_0_split_0
I0403 16:06:22.552640 20728 net.cpp:425] loss1/loss <- label_data_1_split_0
…
