…
I0403 16:16:40.841281 20899 net.cpp:313] The NetState phase (1) differed from the phase (0) specified by a rule in layer data
I0403 16:16:40.842448 20899 net.cpp:49] Initializing net from parameters: 
state {
  phase: TEST
}
layer {
  name: "data"
  type: "Data"
  top: "data"
  top: "label"
  include {
    phase: TEST
  }
  transform_param {
    mirror: false
    crop_size: 224
    mean_file: "/home/mohanty/data/final_dataset/lmdb/color-40-60/mean.binaryproto"
  }
  data_param {
    source: "/home/mohanty/data/final_dataset/lmdb/color-40-60/test_db"
    batch_size: 24
    backend: LMDB
  }
}
layer {
  name: "conv1/7x7_s2"
  type: "Convolution"
  bottom: "data"
  top: "conv1/7x7_s2"
  param {
    lr_mult: 1
    decay_mult: 1
  }
  param {
    lr_mult: 2
    decay_mult: 0
  }
  convolution_param {
    num_output: 64
    pad: 3
    kernel_size: 7
    stride: 2
    weight_filler {
      type: "xavier"
      std: 0.1
    }
    bias_filler {
      type: "constant"
      value: 0.2
    }
  }
}
layer {
  name: "conv1/relu_7x7"
  type: "ReLU"
  bottom: "conv1/7x7_s2"
  top: "conv1/7x7_s2"
}
layer {
  name: "pool1/3x3_s2"
  type: "Pooling"
  bottom: "conv1/7x7_s2"
  top: "pool1/3x3_s2"
  pooling_param {
    pool: MAX
    kernel_size: 3
    stride: 2
  }
}
layer {
  name: "pool1/norm1"
  type: "LRN"
  bottom: "pool1/3x3_s2"
  top: "pool1/norm1"
  lrn_param {
    local_size: 5
    alpha: 0.0001
    beta: 0.75
  }
}
layer {
  name: "conv2/3x3_reduce"
  type: "Convolution"
  bottom: "pool1/norm1"
  top: "conv2/3x3_reduce"
  param {
    lr_mult: 1
    decay_mult: 1
  }
  param {
    lr_mult: 2
    decay_mult: 0
  }
  convolution_param {
    num_output: 64
    kernel_size: 1
    weight_filler {
      type: "xavier"
      std: 0.1
    }
    bias_filler {
      type: "constant"
      value: 0.2
    }
  }
}
layer {
  name: "conv2/relu_3x3_reduce"
  type: "ReLU"
  bottom: "conv2/3x3_reduce"
  top: "conv2/3x3_reduce"
}
layer {
  name: "conv2/3x3"
  type: "Convolution"
  bottom: "conv2/3x3_reduce"
  top: "conv2/3x3"
  param {
    lr_mult: 1
    decay_mult: 1
  }
  param {
    lr_mult: 2
    decay_mult: 0
  }
  convolution_param {
    num_output: 192
    pad: 1
    kernel_size: 3
    weight_filler {
      type: "xavier"
      std: 0.03
    }
    bias_filler {
      type: "constant"
      value: 0.2
    }
  }
}
layer {
  name: "conv2/relu_3x3"
  type: "ReLU"
  bottom: "conv2/3x3"
  top: "conv2/3x3"
}
layer {
  name: "conv2/norm2"
  type: "LRN"
  bottom: "conv2/3x3"
  top: "conv2/norm2"
  lrn_param {
    local_size: 5
    alpha: 0.0001
    beta: 0.75
  }
}
layer {
  name: "pool2/3x3_s2"
  type: "Pooling"
  bottom: "conv2/norm2"
  top: "pool2/3x3_s2"
  pooling_param {
    pool: MAX
    kernel_size: 3
    stride: 2
  }
}
layer {
  name: "inception_3a/1x1"
  type: "Convolution"
  bottom: "pool2/3x3_s2"
  top: "inception_3a/1x1"
  param {
    lr_mult: 1
    decay_mult: 1
  }
  param {
    lr_mult: 2
    decay_mult: 0
  }
  convolution_param {
    num_output: 64
    kernel_size: 1
    weight_filler {
      type: "xavier"
      std: 0.03
    }
    bias_filler {
      type: "constant"
      value: 0.2
    }
  }
}
layer {
  name: "inception_3a/relu_1x1"
  type: "ReLU"
  bottom: "inception_3a/1x1"
  top: "inception_3a/1x1"
}
layer {
  name: "inception_3a/3x3_reduce"
  type: "Convolution"
  bottom: "pool2/3x3_s2"
  top: "inception_3a/3x3_reduce"
  param {
    lr_mult: 1
    decay_mult: 1
  }
  param {
    lr_mult: 2
    decay_mult: 0
  }
  convolution_param {
    num_output: 96
    kernel_size: 1
    weight_filler {
      type: "xavier"
      std: 0.09
    }
    bias_filler {
      type: "constant"
      value: 0.2
    }
  }
}
layer {
  name: "inception_3a/relu_3x3_reduce"
  type: "ReLU"
  bottom: "inception_3a/3x3_reduce"
  top: "inception_3a/3x3_reduce"
}
layer {
  name: "inception_3a/3x3"
  type: "Convolution"
  bottom: "inception_3a/3x3_reduce"
  top: "inception_3a/3x3"
  param {
    lr_mult: 1
    decay_mult: 1
  }
  param {
    lr_mult: 2
    decay_mult: 0
  }
  convolution_param {
    num_output: 128
    pad: 1
    kernel_size: 3
    weight_filler {
      type: "xavier"
      std: 0.03
    }
    bias_filler {
      type: "constant"
      value: 0.2
    }
  }
}
layer {
  name: "inception_3a/relu_3x3"
  type: "ReLU"
  bottom: "inception_3a/3x3"
  top: "inception_3a/3x3"
}
layer {
  name: "inception_3a/5x5_reduce"
  type: "Convolution"
  bottom: "pool2/3x3_s2"
  top: "inception_3a/5x5_reduce"
  param {
    lr_mult: 1
    decay_mult: 1
  }
  param {
    lr_mult: 2
    decay_mult: 0
  }
  convolution_param {
    num_output: 16
    kernel_size: 1
    weight_filler {
      type: "xavier"
      std: 0.2
    }
    bias_filler {
      type: "constant"
      value: 0.2
    }
  }
}
layer {
  name: "inception_3a/relu_5x5_reduce"
  type: "ReLU"
  bottom: "inception_3a/5x5_reduce"
  top: "inception_3a/5x5_reduce"
}
layer {
  name: "inception_3a/5x5"
  type: "Convolution"
  bottom: "inception_3a/5x5_reduce"
  top: "inception_3a/5x5"
  param {
    lr_mult: 1
    decay_mult: 1
  }
  param {
    lr_mult: 2
    decay_mult: 0
  }
  convolution_param {
    num_output: 32
    pad: 2
    kernel_size: 5
    weight_filler {
      type: "xavier"
      std: 0.03
    }
    bias_filler {
      type: "constant"
      value: 0.2
    }
  }
}
layer {
  name: "inception_3a/relu_5x5"
  type: "ReLU"
  bottom: "inception_3a/5x5"
  top: "inception_3a/5x5"
}
layer {
  name: "inception_3a/pool"
  type: "Pooling"
  bottom: "pool2/3x3_s2"
  top: "inception_3a/pool"
  pooling_param {
    pool: MAX
    kernel_size: 3
    stride: 1
    pad: 1
  }
}
layer {
  name: "inception_3a/pool_proj"
  type: "Convolution"
  bottom: "inception_3a/pool"
  top: "inception_3a/pool_proj"
  param {
    lr_mult: 1
    decay_mult: 1
  }
  param {
    lr_mult: 2
    decay_mult: 0
  }
  convolution_param {
    num_output: 32
    kernel_size: 1
    weight_filler {
      type: "xavier"
      std: 0.1
    }
    bias_filler {
      type: "constant"
      value: 0.2
    }
  }
}
layer {
  name: "inception_3a/relu_pool_proj"
  type: "ReLU"
  bottom: "inception_3a/pool_proj"
  top: "inception_3a/pool_proj"
}
layer {
  name: "inception_3a/output"
  type: "Concat"
  bottom: "inception_3a/1x1"
  bottom: "inception_3a/3x3"
  bottom: "inception_3a/5x5"
  bottom: "inception_3a/pool_proj"
  top: "inception_3a/output"
}
layer {
  name: "inception_3b/1x1"
  type: "Convolution"
  bottom: "inception_3a/output"
  top: "inception_3b/1x1"
  param {
    lr_mult: 1
    decay_mult: 1
  }
  param {
    lr_mult: 2
    decay_mult: 0
  }
  convolution_param {
    num_output: 128
    kernel_size: 1
    weight_filler {
      type: "xavier"
      std: 0.03
    }
    bias_filler {
      type: "constant"
      value: 0.2
    }
  }
}
layer {
  name: "inception_3b/relu_1x1"
  type: "ReLU"
  bottom: "inception_3b/1x1"
  top: "inception_3b/1x1"
}
layer {
  name: "inception_3b/3x3_reduce"
  type: "Convolution"
  bottom: "inception_3a/output"
  top: "inception_3b/3x3_reduce"
  param {
    lr_mult: 1
    decay_mult: 1
  }
  param {
    lr_mult: 2
    decay_mult: 0
  }
  convolution_param {
    num_output: 128
    kernel_size: 1
    weight_filler {
      type: "xavier"
      std: 0.09
    }
    bias_filler {
      type: "constant"
      value: 0.2
    }
  }
}
layer {
  name: "inception_3b/relu_3x3_reduce"
  type: "ReLU"
  bottom: "inception_3b/3x3_reduce"
  top: "inception_3b/3x3_reduce"
}
layer {
  name: "inception_3b/3x3"
  type: "Convolution"
  bottom: "inception_3b/3x3_reduce"
  top: "inception_3b/3x3"
  param {
    lr_mult: 1
    decay_mult: 1
  }
  param {
    lr_mult: 2
    decay_mult: 0
  }
  convolution_param {
    num_output: 192
    pad: 1
    kernel_size: 3
    weight_filler {
      type: "xavier"
      std: 0.03
    }
    bias_filler {
      type: "constant"
      value: 0.2
    }
  }
}
layer {
  name: "inception_3b/relu_3x3"
  type: "ReLU"
  bottom: "inception_3b/3x3"
  top: "inception_3b/3x3"
}
layer {
  name: "inception_3b/5x5_reduce"
  type: "Convolution"
  bottom: "inception_3a/output"
  top: "inception_3b/5x5_reduce"
  param {
    lr_mult: 1
    decay_mult: 1
  }
  param {
    lr_mult: 2
    decay_mult: 0
  }
  convolution_param {
    num_output: 32
    kernel_size: 1
    weight_filler {
      type: "xavier"
      std: 0.2
    }
    bias_filler {
      type: "constant"
      value: 0.2
    }
  }
}
layer {
  name: "inception_3b/relu_5x5_reduce"
  type: "ReLU"
  bottom: "inception_3b/5x5_reduce"
  top: "inception_3b/5x5_reduce"
}
layer {
  name: "inception_3b/5x5"
  type: "Convolution"
  bottom: "inception_3b/5x5_reduce"
  top: "inception_3b/5x5"
  param {
    lr_mult: 1
    decay_mult: 1
  }
  param {
    lr_mult: 2
    decay_mult: 0
  }
  convolution_param {
    num_output: 96
    pad: 2
    kernel_size: 5
    weight_filler {
      type: "xavier"
      std: 0.03
    }
    bias_filler {
      type: "constant"
      value: 0.2
    }
  }
}
layer {
  name: "inception_3b/relu_5x5"
  type: "ReLU"
  bottom: "inception_3b/5x5"
  top: "inception_3b/5x5"
}
layer {
  name: "inception_3b/pool"
  type: "Pooling"
  bottom: "inception_3a/output"
  top: "inception_3b/pool"
  pooling_param {
    pool: MAX
    kernel_size: 3
    stride: 1
    pad: 1
  }
}
layer {
  name: "inception_3b/pool_proj"
  type: "Convolution"
  bottom: "inception_3b/pool"
  top: "inception_3b/pool_proj"
  param {
    lr_mult: 1
    decay_mult: 1
  }
  param {
    lr_mult: 2
    decay_mult: 0
  }
  convolution_param {
    num_output: 64
    kernel_size: 1
    weight_filler {
      type: "xavier"
      std: 0.1
    }
    bias_filler {
      type: "constant"
      value: 0.2
    }
  }
}
layer {
  name: "inception_3b/relu_pool_proj"
  type: "ReLU"
  bottom: "inception_3b/pool_proj"
  top: "inception_3b/pool_proj"
}
layer {
  name: "inception_3b/output"
  type: "Concat"
  bottom: "inception_3b/1x1"
  bottom: "inception_3b/3x3"
  bottom: "inception_3b/5x5"
  bottom: "inception_3b/pool_proj"
  top: "inception_3b/output"
}
layer {
  name: "pool3/3x3_s2"
  type: "Pooling"
  bottom: "inception_3b/output"
  top: "pool3/3x3_s2"
  pooling_param {
    pool: MAX
    kernel_size: 3
    stride: 2
  }
}
layer {
  name: "inception_4a/1x1"
  type: "Convolution"
  bottom: "pool3/3x3_s2"
  top: "inception_4a/1x1"
  param {
    lr_mult: 1
    decay_mult: 1
  }
  param {
    lr_mult: 2
    decay_mult: 0
  }
  convolution_param {
    num_output: 192
    kernel_size: 1
    weight_filler {
      type: "xavier"
      std: 0.03
    }
    bias_filler {
      type: "constant"
      value: 0.2
    }
  }
}
layer {
  name: "inception_4a/relu_1x1"
  type: "ReLU"
  bottom: "inception_4a/1x1"
  top: "inception_4a/1x1"
}
layer {
  name: "inception_4a/3x3_reduce"
  type: "Convolution"
  bottom: "pool3/3x3_s2"
  top: "inception_4a/3x3_reduce"
  param {
    lr_mult: 1
    decay_mult: 1
  }
  param {
    lr_mult: 2
    decay_mult: 0
  }
  convolution_param {
    num_output: 96
    kernel_size: 1
    weight_filler {
      type: "xavier"
      std: 0.09
    }
    bias_filler {
      type: "constant"
      value: 0.2
    }
  }
}
layer {
  name: "inception_4a/relu_3x3_reduce"
  type: "ReLU"
  bottom: "inception_4a/3x3_reduce"
  top: "inception_4a/3x3_reduce"
}
layer {
  name: "inception_4a/3x3"
  type: "Convolution"
  bottom: "inception_4a/3x3_reduce"
  top: "inception_4a/3x3"
  param {
    lr_mult: 1
    decay_mult: 1
  }
  param {
    lr_mult: 2
    decay_mult: 0
  }
  convolution_param {
    num_output: 208
    pad: 1
    kernel_size: 3
    weight_filler {
      type: "xavier"
      std: 0.03
    }
    bias_filler {
      type: "constant"
      value: 0.2
    }
  }
}
layer {
  name: "inception_4a/relu_3x3"
  type: "ReLU"
  bottom: "inception_4a/3x3"
  top: "inception_4a/3x3"
}
layer {
  name: "inception_4a/5x5_reduce"
  type: "Convolution"
  bottom: "pool3/3x3_s2"
  top: "inception_4a/5x5_reduce"
  param {
    lr_mult: 1
    decay_mult: 1
  }
  param {
    lr_mult: 2
    decay_mult: 0
  }
  convolution_param {
    num_output: 16
    kernel_size: 1
    weight_filler {
      type: "xavier"
      std: 0.2
    }
    bias_filler {
      type: "constant"
      value: 0.2
    }
  }
}
layer {
  name: "inception_4a/relu_5x5_reduce"
  type: "ReLU"
  bottom: "inception_4a/5x5_reduce"
  top: "inception_4a/5x5_reduce"
}
layer {
  name: "inception_4a/5x5"
  type: "Convolution"
  bottom: "inception_4a/5x5_reduce"
  top: "inception_4a/5x5"
  param {
    lr_mult: 1
    decay_mult: 1
  }
  param {
    lr_mult: 2
    decay_mult: 0
  }
  convolution_param {
    num_output: 48
    pad: 2
    kernel_size: 5
    weight_filler {
      type: "xavier"
      std: 0.03
    }
    bias_filler {
      type: "constant"
      value: 0.2
    }
  }
}
layer {
  name: "inception_4a/relu_5x5"
  type: "ReLU"
  bottom: "inception_4a/5x5"
  top: "inception_4a/5x5"
}
layer {
  name: "inception_4a/pool"
  type: "Pooling"
  bottom: "pool3/3x3_s2"
  top: "inception_4a/pool"
  pooling_param {
    pool: MAX
    kernel_size: 3
    stride: 1
    pad: 1
  }
}
layer {
  name: "inception_4a/pool_proj"
  type: "Convolution"
  bottom: "inception_4a/pool"
  top: "inception_4a/pool_proj"
  param {
    lr_mult: 1
    decay_mult: 1
  }
  param {
    lr_mult: 2
    decay_mult: 0
  }
  convolution_param {
    num_output: 64
    kernel_size: 1
    weight_filler {
      type: "xavier"
      std: 0.1
    }
    bias_filler {
      type: "constant"
      value: 0.2
    }
  }
}
layer {
  name: "inception_4a/relu_pool_proj"
  type: "ReLU"
  bottom: "inception_4a/pool_proj"
  top: "inception_4a/pool_proj"
}
layer {
  name: "inception_4a/output"
  type: "Concat"
  bottom: "inception_4a/1x1"
  bottom: "inception_4a/3x3"
  bottom: "inception_4a/5x5"
  bottom: "inception_4a/pool_proj"
  top: "inception_4a/output"
}
layer {
  name: "loss1/ave_pool"
  type: "Pooling"
  bottom: "inception_4a/output"
  top: "loss1/ave_pool"
  pooling_param {
    pool: AVE
    kernel_size: 5
    stride: 3
  }
}
layer {
  name: "loss1/conv"
  type: "Convolution"
  bottom: "loss1/ave_pool"
  top: "loss1/conv"
  param {
    lr_mult: 1
    decay_mult: 1
  }
  param {
    lr_mult: 2
    decay_mult: 0
  }
  convolution_param {
    num_output: 128
    kernel_size: 1
    weight_filler {
      type: "xavier"
      std: 0.08
    }
    bias_filler {
      type: "constant"
      value: 0.2
    }
  }
}
layer {
  name: "loss1/relu_conv"
  type: "ReLU"
  bottom: "loss1/conv"
  top: "loss1/conv"
}
layer {
  name: "loss1/fc"
  type: "InnerProduct"
  bottom: "loss1/conv"
  top: "loss1/fc"
  param {
    lr_mult: 1
    decay_mult: 1
  }
  param {
    lr_mult: 2
    decay_mult: 0
  }
  inner_product_param {
    num_output: 1024
    weight_filler {
      type: "xavier"
      std: 0.02
    }
    bias_filler {
      type: "constant"
      value: 0.2
    }
  }
}
layer {
  name: "loss1/relu_fc"
  type: "ReLU"
  bottom: "loss1/fc"
  top: "loss1/fc"
}
layer {
  name: "loss1/drop_fc"
  type: "Dropout"
  bottom: "loss1/fc"
  top: "loss1/fc"
  dropout_param {
    dropout_ratio: 0.7
  }
}
layer {
  name: "loss1/classifier_plantvillage"
  type: "InnerProduct"
  bottom: "loss1/fc"
  top: "loss1/classifier_plantvillage"
  param {
    lr_mult: 1
    decay_mult: 1
  }
  param {
    lr_mult: 2
    decay_mult: 0
  }
  inner_product_param {
    num_output: 38
    weight_filler {
      type: "xavier"
      std: 0.0009765625
    }
    bias_filler {
      type: "constant"
      value: 0
    }
  }
}
layer {
  name: "inception_4b/1x1"
  type: "Convolution"
  bottom: "inception_4a/output"
  top: "inception_4b/1x1"
  param {
    lr_mult: 1
    decay_mult: 1
  }
  param {
    lr_mult: 2
    decay_mult: 0
  }
  convolution_param {
    num_output: 160
    kernel_size: 1
    weight_filler {
      type: "xavier"
      std: 0.03
    }
    bias_filler {
      type: "constant"
      value: 0.2
    }
  }
}
layer {
  name: "inception_4b/relu_1x1"
  type: "ReLU"
  bottom: "inception_4b/1x1"
  top: "inception_4b/1x1"
}
layer {
  name: "inception_4b/3x3_reduce"
  type: "Convolution"
  bottom: "inception_4a/output"
  top: "inception_4b/3x3_reduce"
  param {
    lr_mult: 1
    decay_mult: 1
  }
  param {
    lr_mult: 2
    decay_mult: 0
  }
  convolution_param {
    num_output: 112
    kernel_size: 1
    weight_filler {
      type: "xavier"
      std: 0.09
    }
    bias_filler {
      type: "constant"
      value: 0.2
    }
  }
}
layer {
  name: "inception_4b/relu_3x3_reduce"
  type: "ReLU"
  bottom: "inception_4b/3x3_reduce"
  top: "inception_4b/3x3_reduce"
}
layer {
  name: "inception_4b/3x3"
  type: "Convolution"
  bottom: "inception_4b/3x3_reduce"
  top: "inception_4b/3x3"
  param {
    lr_mult: 1
    decay_mult: 1
  }
  param {
    lr_mult: 2
    decay_mult: 0
  }
  convolution_param {
    num_output: 224
    pad: 1
    kernel_size: 3
    weight_filler {
      type: "xavier"
      std: 0.03
    }
    bias_filler {
      type: "constant"
      value: 0.2
    }
  }
}
layer {
  name: "inception_4b/relu_3x3"
  type: "ReLU"
  bottom: "inception_4b/3x3"
  top: "inception_4b/3x3"
}
layer {
  name: "inception_4b/5x5_reduce"
  type: "Convolution"
  bottom: "inception_4a/output"
  top: "inception_4b/5x5_reduce"
  param {
    lr_mult: 1
    decay_mult: 1
  }
  param {
    lr_mult: 2
    decay_mult: 0
  }
  convolution_param {
    num_output: 24
    kernel_size: 1
    weight_filler {
      type: "xavier"
      std: 0.2
    }
    bias_filler {
      type: "constant"
      value: 0.2
    }
  }
}
layer {
  name: "inception_4b/relu_5x5_reduce"
  type: "ReLU"
  bottom: "inception_4b/5x5_reduce"
  top: "inception_4b/5x5_reduce"
}
layer {
  name: "inception_4b/5x5"
  type: "Convolution"
  bottom: "inception_4b/5x5_reduce"
  top: "inception_4b/5x5"
  param {
    lr_mult: 1
    decay_mult: 1
  }
  param {
    lr_mult: 2
    decay_mult: 0
  }
  convolution_param {
    num_output: 64
    pad: 2
    kernel_size: 5
    weight_filler {
      type: "xavier"
      std: 0.03
    }
    bias_filler {
      type: "constant"
      value: 0.2
    }
  }
}
layer {
  name: "inception_4b/relu_5x5"
  type: "ReLU"
  bottom: "inception_4b/5x5"
  top: "inception_4b/5x5"
}
layer {
  name: "inception_4b/pool"
  type: "Pooling"
  bottom: "inception_4a/output"
  top: "inception_4b/pool"
  pooling_param {
    pool: MAX
    kernel_size: 3
    stride: 1
    pad: 1
  }
}
layer {
  name: "inception_4b/pool_proj"
  type: "Convolution"
  bottom: "inception_4b/pool"
  top: "inception_4b/pool_proj"
  param {
    lr_mult: 1
    decay_mult: 1
  }
  param {
    lr_mult: 2
    decay_mult: 0
  }
  convolution_param {
    num_output: 64
    kernel_size: 1
    weight_filler {
      type: "xavier"
      std: 0.1
    }
    bias_filler {
      type: "constant"
      value: 0.2
    }
  }
}
layer {
  name: "inception_4b/relu_pool_proj"
  type: "ReLU"
  bottom: "inception_4b/pool_proj"
  top: "inception_4b/pool_proj"
}
layer {
  name: "inception_4b/output"
  type: "Concat"
  bottom: "inception_4b/1x1"
  bottom: "inception_4b/3x3"
  bottom: "inception_4b/5x5"
  bottom: "inception_4b/pool_proj"
  top: "inception_4b/output"
}
layer {
  name: "inception_4c/1x1"
  type: "Convolution"
  bottom: "inception_4b/output"
  top: "inception_4c/1x1"
  param {
    lr_mult: 1
    decay_mult: 1
  }
  param {
    lr_mult: 2
    decay_mult: 0
  }
  convolution_param {
    num_output: 128
    kernel_size: 1
    weight_filler {
      type: "xavier"
      std: 0.03
    }
    bias_filler {
      type: "constant"
      value: 0.2
    }
  }
}
layer {
  name: "inception_4c/relu_1x1"
  type: "ReLU"
  bottom: "inception_4c/1x1"
  top: "inception_4c/1x1"
}
layer {
  name: "inception_4c/3x3_reduce"
  type: "Convolution"
  bottom: "inception_4b/output"
  top: "inception_4c/3x3_reduce"
  param {
    lr_mult: 1
    decay_mult: 1
  }
  param {
    lr_mult: 2
    decay_mult: 0
  }
  convolution_param {
    num_output: 128
    kernel_size: 1
    weight_filler {
      type: "xavier"
      std: 0.09
    }
    bias_filler {
      type: "constant"
      value: 0.2
    }
  }
}
layer {
  name: "inception_4c/relu_3x3_reduce"
  type: "ReLU"
  bottom: "inception_4c/3x3_reduce"
  top: "inception_4c/3x3_reduce"
}
layer {
  name: "inception_4c/3x3"
  type: "Convolution"
  bottom: "inception_4c/3x3_reduce"
  top: "inception_4c/3x3"
  param {
    lr_mult: 1
    decay_mult: 1
  }
  param {
    lr_mult: 2
    decay_mult: 0
  }
  convolution_param {
    num_output: 256
    pad: 1
    kernel_size: 3
    weight_filler {
      type: "xavier"
      std: 0.03
    }
    bias_filler {
      type: "constant"
      value: 0.2
    }
  }
}
layer {
  name: "inception_4c/relu_3x3"
  type: "ReLU"
  bottom: "inception_4c/3x3"
  top: "inception_4c/3x3"
}
layer {
  name: "inception_4c/5x5_reduce"
  type: "Convolution"
  bottom: "inception_4b/output"
  top: "inception_4c/5x5_reduce"
  param {
    lr_mult: 1
    decay_mult: 1
  }
  param {
    lr_mult: 2
    decay_mult: 0
  }
  convolution_param {
    num_output: 24
    kernel_size: 1
    weight_filler {
      type: "xavier"
      std: 0.2
    }
    bias_filler {
      type: "constant"
      value: 0.2
    }
  }
}
layer {
  name: "inception_4c/relu_5x5_reduce"
  type: "ReLU"
  bottom: "inception_4c/5x5_reduce"
  top: "inception_4c/5x5_reduce"
}
layer {
  name: "inception_4c/5x5"
  type: "Convolution"
  bottom: "inception_4c/5x5_reduce"
  top: "inception_4c/5x5"
  param {
    lr_mult: 1
    decay_mult: 1
  }
  param {
    lr_mult: 2
    decay_mult: 0
  }
  convolution_param {
    num_output: 64
    pad: 2
    kernel_size: 5
    weight_filler {
      type: "xavier"
      std: 0.03
    }
    bias_filler {
      type: "constant"
      value: 0.2
    }
  }
}
layer {
  name: "inception_4c/relu_5x5"
  type: "ReLU"
  bottom: "inception_4c/5x5"
  top: "inception_4c/5x5"
}
layer {
  name: "inception_4c/pool"
  type: "Pooling"
  bottom: "inception_4b/output"
  top: "inception_4c/pool"
  pooling_param {
    pool: MAX
    kernel_size: 3
    stride: 1
    pad: 1
  }
}
layer {
  name: "inception_4c/pool_proj"
  type: "Convolution"
  bottom: "inception_4c/pool"
  top: "inception_4c/pool_proj"
  param {
    lr_mult: 1
    decay_mult: 1
  }
  param {
    lr_mult: 2
    decay_mult: 0
  }
  convolution_param {
    num_output: 64
    kernel_size: 1
    weight_filler {
      type: "xavier"
      std: 0.1
    }
    bias_filler {
      type: "constant"
      value: 0.2
    }
  }
}
layer {
  name: "inception_4c/relu_pool_proj"
  type: "ReLU"
  bottom: "inception_4c/pool_proj"
  top: "inception_4c/pool_proj"
}
layer {
  name: "inception_4c/output"
  type: "Concat"
  bottom: "inception_4c/1x1"
  bottom: "inception_4c/3x3"
  bottom: "inception_4c/5x5"
  bottom: "inception_4c/pool_proj"
  top: "inception_4c/output"
}
layer {
  name: "inception_4d/1x1"
  type: "Convolution"
  bottom: "inception_4c/output"
  top: "inception_4d/1x1"
  param {
    lr_mult: 1
    decay_mult: 1
  }
  param {
    lr_mult: 2
    decay_mult: 0
  }
  convolution_param {
    num_output: 112
    kernel_size: 1
    weight_filler {
      type: "xavier"
      std: 0.03
    }
    bias_filler {
      type: "constant"
      value: 0.2
    }
  }
}
layer {
  name: "inception_4d/relu_1x1"
  type: "ReLU"
  bottom: "inception_4d/1x1"
  top: "inception_4d/1x1"
}
layer {
  name: "inception_4d/3x3_reduce"
  type: "Convolution"
  bottom: "inception_4c/output"
  top: "inception_4d/3x3_reduce"
  param {
    lr_mult: 1
    decay_mult: 1
  }
  param {
    lr_mult: 2
    decay_mult: 0
  }
  convolution_param {
    num_output: 144
    kernel_size: 1
    weight_filler {
      type: "xavier"
      std: 0.09
    }
    bias_filler {
      type: "constant"
      value: 0.2
    }
  }
}
layer {
  name: "inception_4d/relu_3x3_reduce"
  type: "ReLU"
  bottom: "inception_4d/3x3_reduce"
  top: "inception_4d/3x3_reduce"
}
layer {
  name: "inception_4d/3x3"
  type: "Convolution"
  bottom: "inception_4d/3x3_reduce"
  top: "inception_4d/3x3"
  param {
    lr_mult: 1
    decay_mult: 1
  }
  param {
    lr_mult: 2
    decay_mult: 0
  }
  convolution_param {
    num_output: 288
    pad: 1
    kernel_size: 3
    weight_filler {
      type: "xavier"
      std: 0.03
    }
    bias_filler {
      type: "constant"
      value: 0.2
    }
  }
}
layer {
  name: "inception_4d/relu_3x3"
  type: "ReLU"
  bottom: "inception_4d/3x3"
  top: "inception_4d/3x3"
}
layer {
  name: "inception_4d/5x5_reduce"
  type: "Convolution"
  bottom: "inception_4c/output"
  top: "inception_4d/5x5_reduce"
  param {
    lr_mult: 1
    decay_mult: 1
  }
  param {
    lr_mult: 2
    decay_mult: 0
  }
  convolution_param {
    num_output: 32
    kernel_size: 1
    weight_filler {
      type: "xavier"
      std: 0.2
    }
    bias_filler {
      type: "constant"
      value: 0.2
    }
  }
}
layer {
  name: "inception_4d/relu_5x5_reduce"
  type: "ReLU"
  bottom: "inception_4d/5x5_reduce"
  top: "inception_4d/5x5_reduce"
}
layer {
  name: "inception_4d/5x5"
  type: "Convolution"
  bottom: "inception_4d/5x5_reduce"
  top: "inception_4d/5x5"
  param {
    lr_mult: 1
    decay_mult: 1
  }
  param {
    lr_mult: 2
    decay_mult: 0
  }
  convolution_param {
    num_output: 64
    pad: 2
    kernel_size: 5
    weight_filler {
      type: "xavier"
      std: 0.03
    }
    bias_filler {
      type: "constant"
      value: 0.2
    }
  }
}
layer {
  name: "inception_4d/relu_5x5"
  type: "ReLU"
  bottom: "inception_4d/5x5"
  top: "inception_4d/5x5"
}
layer {
  name: "inception_4d/pool"
  type: "Pooling"
  bottom: "inception_4c/output"
  top: "inception_4d/pool"
  pooling_param {
    pool: MAX
    kernel_size: 3
    stride: 1
    pad: 1
  }
}
layer {
  name: "inception_4d/pool_proj"
  type: "Convolution"
  bottom: "inception_4d/pool"
  top: "inception_4d/pool_proj"
  param {
    lr_mult: 1
    decay_mult: 1
  }
  param {
    lr_mult: 2
    decay_mult: 0
  }
  convolution_param {
    num_output: 64
    kernel_size: 1
    weight_filler {
      type: "xavier"
      std: 0.1
    }
    bias_filler {
      type: "constant"
      value: 0.2
    }
  }
}
layer {
  name: "inception_4d/relu_pool_proj"
  type: "ReLU"
  bottom: "inception_4d/pool_proj"
  top: "inception_4d/pool_proj"
}
layer {
  name: "inception_4d/output"
  type: "Concat"
  bottom: "inception_4d/1x1"
  bottom: "inception_4d/3x3"
  bottom: "inception_4d/5x5"
  bottom: "inception_4d/pool_proj"
  top: "inception_4d/output"
}
layer {
  name: "loss2/ave_pool"
  type: "Pooling"
  bottom: "inception_4d/output"
  top: "loss2/ave_pool"
  pooling_param {
    pool: AVE
    kernel_size: 5
    stride: 3
  }
}
layer {
  name: "loss2/conv"
  type: "Convolution"
  bottom: "loss2/ave_pool"
  top: "loss2/conv"
  param {
    lr_mult: 1
    decay_mult: 1
  }
  param {
    lr_mult: 2
    decay_mult: 0
  }
  convolution_param {
    num_output: 128
    kernel_size: 1
    weight_filler {
      type: "xavier"
      std: 0.08
    }
    bias_filler {
      type: "constant"
      value: 0.2
    }
  }
}
layer {
  name: "loss2/relu_conv"
  type: "ReLU"
  bottom: "loss2/conv"
  top: "loss2/conv"
}
layer {
  name: "loss2/fc"
  type: "InnerProduct"
  bottom: "loss2/conv"
  top: "loss2/fc"
  param {
    lr_mult: 1
    decay_mult: 1
  }
  param {
    lr_mult: 2
    decay_mult: 0
  }
  inner_product_param {
    num_output: 1024
    weight_filler {
      type: "xavier"
      std: 0.02
    }
    bias_filler {
      type: "constant"
      value: 0.2
    }
  }
}
layer {
  name: "loss2/relu_fc"
  type: "ReLU"
  bottom: "loss2/fc"
  top: "loss2/fc"
}
layer {
  name: "loss2/drop_fc"
  type: "Dropout"
  bottom: "loss2/fc"
  top: "loss2/fc"
  dropout_param {
    dropout_ratio: 0.7
  }
}
layer {
  name: "loss2/classifier_plantvillage"
  type: "InnerProduct"
  bottom: "loss2/fc"
  top: "loss2/classifier_plantvillage"
  param {
    lr_mult: 1
    decay_mult: 1
  }
  param {
    lr_mult: 2
    decay_mult: 0
  }
  inner_product_param {
    num_output: 38
    weight_filler {
      type: "xavier"
      std: 0.0009765625
    }
    bias_filler {
      type: "constant"
      value: 0
    }
  }
}
layer {
  name: "inception_4e/1x1"
  type: "Convolution"
  bottom: "inception_4d/output"
  top: "inception_4e/1x1"
  param {
    lr_mult: 1
    decay_mult: 1
  }
  param {
    lr_mult: 2
    decay_mult: 0
  }
  convolution_param {
    num_output: 256
    kernel_size: 1
    weight_filler {
      type: "xavier"
      std: 0.03
    }
    bias_filler {
      type: "constant"
      value: 0.2
    }
  }
}
layer {
  name: "inception_4e/relu_1x1"
  type: "ReLU"
  bottom: "inception_4e/1x1"
  top: "inception_4e/1x1"
}
layer {
  name: "inception_4e/3x3_reduce"
  type: "Convolution"
  bottom: "inception_4d/output"
  top: "inception_4e/3x3_reduce"
  param {
    lr_mult: 1
    decay_mult: 1
  }
  param {
    lr_mult: 2
    decay_mult: 0
  }
  convolution_param {
    num_output: 160
    kernel_size: 1
    weight_filler {
      type: "xavier"
      std: 0.09
    }
    bias_filler {
      type: "constant"
      value: 0.2
    }
  }
}
layer {
  name: "inception_4e/relu_3x3_reduce"
  type: "ReLU"
  bottom: "inception_4e/3x3_reduce"
  top: "inception_4e/3x3_reduce"
}
layer {
  name: "inception_4e/3x3"
  type: "Convolution"
  bottom: "inception_4e/3x3_reduce"
  top: "inception_4e/3x3"
  param {
    lr_mult: 1
    decay_mult: 1
  }
  param {
    lr_mult: 2
    decay_mult: 0
  }
  convolution_param {
    num_output: 320
    pad: 1
    kernel_size: 3
    weight_filler {
      type: "xavier"
      std: 0.03
    }
    bias_filler {
      type: "constant"
      value: 0.2
    }
  }
}
layer {
  name: "inception_4e/relu_3x3"
  type: "ReLU"
  bottom: "inception_4e/3x3"
  top: "inception_4e/3x3"
}
layer {
  name: "inception_4e/5x5_reduce"
  type: "Convolution"
  bottom: "inception_4d/output"
  top: "inception_4e/5x5_reduce"
  param {
    lr_mult: 1
    decay_mult: 1
  }
  param {
    lr_mult: 2
    decay_mult: 0
  }
  convolution_param {
    num_output: 32
    kernel_size: 1
    weight_filler {
      type: "xavier"
      std: 0.2
    }
    bias_filler {
      type: "constant"
      value: 0.2
    }
  }
}
layer {
  name: "inception_4e/relu_5x5_reduce"
  type: "ReLU"
  bottom: "inception_4e/5x5_reduce"
  top: "inception_4e/5x5_reduce"
}
layer {
  name: "inception_4e/5x5"
  type: "Convolution"
  bottom: "inception_4e/5x5_reduce"
  top: "inception_4e/5x5"
  p
I0403 16:16:40.843627 20899 layer_factory.hpp:77] Creating layer data
I0403 16:16:40.844220 20899 net.cpp:91] Creating Layer data
I0403 16:16:40.844254 20899 net.cpp:399] data -> data
I0403 16:16:40.844305 20899 net.cpp:399] data -> label
I0403 16:16:40.844341 20899 data_transformer.cpp:25] Loading mean file from: /home/mohanty/data/final_dataset/lmdb/color-40-60/mean.binaryproto
I0403 16:16:40.845491 20903 db_lmdb.cpp:38] Opened lmdb /home/mohanty/data/final_dataset/lmdb/color-40-60/test_db
I0403 16:16:40.857143 20899 data_layer.cpp:41] output data size: 24,3,224,224
I0403 16:16:40.886816 20899 net.cpp:141] Setting up data
I0403 16:16:40.886909 20899 net.cpp:148] Top shape: 24 3 224 224 (3612672)
I0403 16:16:40.886930 20899 net.cpp:148] Top shape: 24 (24)
I0403 16:16:40.886945 20899 net.cpp:156] Memory required for data: 14450784
I0403 16:16:40.886981 20899 layer_factory.hpp:77] Creating layer label_data_1_split
I0403 16:16:40.887006 20899 net.cpp:91] Creating Layer label_data_1_split
I0403 16:16:40.887024 20899 net.cpp:425] label_data_1_split <- label
I0403 16:16:40.887056 20899 net.cpp:399] label_data_1_split -> label_data_1_split_0
I0403 16:16:40.887084 20899 net.cpp:399] label_data_1_split -> label_data_1_split_1
I0403 16:16:40.887105 20899 net.cpp:399] label_data_1_split -> label_data_1_split_2
I0403 16:16:40.887126 20899 net.cpp:399] label_data_1_split -> label_data_1_split_3
I0403 16:16:40.887145 20899 net.cpp:399] label_data_1_split -> label_data_1_split_4
I0403 16:16:40.887166 20899 net.cpp:399] label_data_1_split -> label_data_1_split_5
I0403 16:16:40.887184 20899 net.cpp:399] label_data_1_split -> label_data_1_split_6
I0403 16:16:40.887204 20899 net.cpp:399] label_data_1_split -> label_data_1_split_7
I0403 16:16:40.887224 20899 net.cpp:399] label_data_1_split -> label_data_1_split_8
I0403 16:16:40.887244 20899 net.cpp:399] label_data_1_split -> label_data_1_split_9
I0403 16:16:40.887359 20899 net.cpp:141] Setting up label_data_1_split
I0403 16:16:40.887382 20899 net.cpp:148] Top shape: 24 (24)
I0403 16:16:40.887400 20899 net.cpp:148] Top shape: 24 (24)
I0403 16:16:40.887416 20899 net.cpp:148] Top shape: 24 (24)
I0403 16:16:40.887434 20899 net.cpp:148] Top shape: 24 (24)
I0403 16:16:40.887449 20899 net.cpp:148] Top shape: 24 (24)
I0403 16:16:40.887465 20899 net.cpp:148] Top shape: 24 (24)
I0403 16:16:40.887480 20899 net.cpp:148] Top shape: 24 (24)
I0403 16:16:40.887496 20899 net.cpp:148] Top shape: 24 (24)
I0403 16:16:40.887511 20899 net.cpp:148] Top shape: 24 (24)
I0403 16:16:40.887527 20899 net.cpp:148] Top shape: 24 (24)
I0403 16:16:40.887568 20899 net.cpp:156] Memory required for data: 14451744
I0403 16:16:40.887584 20899 layer_factory.hpp:77] Creating layer conv1/7x7_s2
I0403 16:16:40.887615 20899 net.cpp:91] Creating Layer conv1/7x7_s2
I0403 16:16:40.887634 20899 net.cpp:425] conv1/7x7_s2 <- data
I0403 16:16:40.887655 20899 net.cpp:399] conv1/7x7_s2 -> conv1/7x7_s2
I0403 16:16:41.031306 20899 net.cpp:141] Setting up conv1/7x7_s2
I0403 16:16:41.031397 20899 net.cpp:148] Top shape: 24 64 112 112 (19267584)
I0403 16:16:41.031414 20899 net.cpp:156] Memory required for data: 91522080
I0403 16:16:41.031446 20899 layer_factory.hpp:77] Creating layer conv1/relu_7x7
I0403 16:16:41.031474 20899 net.cpp:91] Creating Layer conv1/relu_7x7
I0403 16:16:41.031492 20899 net.cpp:425] conv1/relu_7x7 <- conv1/7x7_s2
I0403 16:16:41.031512 20899 net.cpp:386] conv1/relu_7x7 -> conv1/7x7_s2 (in-place)
I0403 16:16:41.031785 20899 net.cpp:141] Setting up conv1/relu_7x7
I0403 16:16:41.031813 20899 net.cpp:148] Top shape: 24 64 112 112 (19267584)
I0403 16:16:41.031829 20899 net.cpp:156] Memory required for data: 168592416
I0403 16:16:41.031844 20899 layer_factory.hpp:77] Creating layer pool1/3x3_s2
I0403 16:16:41.031868 20899 net.cpp:91] Creating Layer pool1/3x3_s2
I0403 16:16:41.031885 20899 net.cpp:425] pool1/3x3_s2 <- conv1/7x7_s2
I0403 16:16:41.031903 20899 net.cpp:399] pool1/3x3_s2 -> pool1/3x3_s2
I0403 16:16:41.031985 20899 net.cpp:141] Setting up pool1/3x3_s2
I0403 16:16:41.032008 20899 net.cpp:148] Top shape: 24 64 56 56 (4816896)
I0403 16:16:41.032022 20899 net.cpp:156] Memory required for data: 187860000
I0403 16:16:41.032037 20899 layer_factory.hpp:77] Creating layer pool1/norm1
I0403 16:16:41.032063 20899 net.cpp:91] Creating Layer pool1/norm1
I0403 16:16:41.032080 20899 net.cpp:425] pool1/norm1 <- pool1/3x3_s2
I0403 16:16:41.032100 20899 net.cpp:399] pool1/norm1 -> pool1/norm1
I0403 16:16:41.032402 20899 net.cpp:141] Setting up pool1/norm1
I0403 16:16:41.032430 20899 net.cpp:148] Top shape: 24 64 56 56 (4816896)
I0403 16:16:41.032447 20899 net.cpp:156] Memory required for data: 207127584
I0403 16:16:41.032461 20899 layer_factory.hpp:77] Creating layer conv2/3x3_reduce
I0403 16:16:41.032488 20899 net.cpp:91] Creating Layer conv2/3x3_reduce
I0403 16:16:41.032505 20899 net.cpp:425] conv2/3x3_reduce <- pool1/norm1
I0403 16:16:41.032523 20899 net.cpp:399] conv2/3x3_reduce -> conv2/3x3_reduce
I0403 16:16:41.033924 20899 net.cpp:141] Setting up conv2/3x3_reduce
I0403 16:16:41.033957 20899 net.cpp:148] Top shape: 24 64 56 56 (4816896)
I0403 16:16:41.033974 20899 net.cpp:156] Memory required for data: 226395168
I0403 16:16:41.033995 20899 layer_factory.hpp:77] Creating layer conv2/relu_3x3_reduce
I0403 16:16:41.034016 20899 net.cpp:91] Creating Layer conv2/relu_3x3_reduce
I0403 16:16:41.034034 20899 net.cpp:425] conv2/relu_3x3_reduce <- conv2/3x3_reduce
I0403 16:16:41.034050 20899 net.cpp:386] conv2/relu_3x3_reduce -> conv2/3x3_reduce (in-place)
I0403 16:16:41.034375 20899 net.cpp:141] Setting up conv2/relu_3x3_reduce
I0403 16:16:41.034401 20899 net.cpp:148] Top shape: 24 64 56 56 (4816896)
I0403 16:16:41.034416 20899 net.cpp:156] Memory required for data: 245662752
I0403 16:16:41.034431 20899 layer_factory.hpp:77] Creating layer conv2/3x3
I0403 16:16:41.034456 20899 net.cpp:91] Creating Layer conv2/3x3
I0403 16:16:41.034473 20899 net.cpp:425] conv2/3x3 <- conv2/3x3_reduce
I0403 16:16:41.034493 20899 net.cpp:399] conv2/3x3 -> conv2/3x3
I0403 16:16:41.036783 20899 net.cpp:141] Setting up conv2/3x3
I0403 16:16:41.036813 20899 net.cpp:148] Top shape: 24 192 56 56 (14450688)
I0403 16:16:41.036829 20899 net.cpp:156] Memory required for data: 303465504
I0403 16:16:41.036854 20899 layer_factory.hpp:77] Creating layer conv2/relu_3x3
I0403 16:16:41.036873 20899 net.cpp:91] Creating Layer conv2/relu_3x3
I0403 16:16:41.036890 20899 net.cpp:425] conv2/relu_3x3 <- conv2/3x3
I0403 16:16:41.036906 20899 net.cpp:386] conv2/relu_3x3 -> conv2/3x3 (in-place)
I0403 16:16:41.037088 20899 net.cpp:141] Setting up conv2/relu_3x3
I0403 16:16:41.037116 20899 net.cpp:148] Top shape: 24 192 56 56 (14450688)
I0403 16:16:41.037161 20899 net.cpp:156] Memory required for data: 361268256
I0403 16:16:41.037178 20899 layer_factory.hpp:77] Creating layer conv2/norm2
I0403 16:16:41.037195 20899 net.cpp:91] Creating Layer conv2/norm2
I0403 16:16:41.037211 20899 net.cpp:425] conv2/norm2 <- conv2/3x3
I0403 16:16:41.037232 20899 net.cpp:399] conv2/norm2 -> conv2/norm2
I0403 16:16:41.037534 20899 net.cpp:141] Setting up conv2/norm2
I0403 16:16:41.037561 20899 net.cpp:148] Top shape: 24 192 56 56 (14450688)
I0403 16:16:41.037576 20899 net.cpp:156] Memory required for data: 419071008
I0403 16:16:41.037591 20899 layer_factory.hpp:77] Creating layer pool2/3x3_s2
I0403 16:16:41.037609 20899 net.cpp:91] Creating Layer pool2/3x3_s2
I0403 16:16:41.037626 20899 net.cpp:425] pool2/3x3_s2 <- conv2/norm2
I0403 16:16:41.037644 20899 net.cpp:399] pool2/3x3_s2 -> pool2/3x3_s2
I0403 16:16:41.037696 20899 net.cpp:141] Setting up pool2/3x3_s2
I0403 16:16:41.037722 20899 net.cpp:148] Top shape: 24 192 28 28 (3612672)
I0403 16:16:41.037737 20899 net.cpp:156] Memory required for data: 433521696
I0403 16:16:41.037752 20899 layer_factory.hpp:77] Creating layer pool2/3x3_s2_pool2/3x3_s2_0_split
I0403 16:16:41.037770 20899 net.cpp:91] Creating Layer pool2/3x3_s2_pool2/3x3_s2_0_split
I0403 16:16:41.037786 20899 net.cpp:425] pool2/3x3_s2_pool2/3x3_s2_0_split <- pool2/3x3_s2
I0403 16:16:41.037802 20899 net.cpp:399] pool2/3x3_s2_pool2/3x3_s2_0_split -> pool2/3x3_s2_pool2/3x3_s2_0_split_0
I0403 16:16:41.037824 20899 net.cpp:399] pool2/3x3_s2_pool2/3x3_s2_0_split -> pool2/3x3_s2_pool2/3x3_s2_0_split_1
I0403 16:16:41.037845 20899 net.cpp:399] pool2/3x3_s2_pool2/3x3_s2_0_split -> pool2/3x3_s2_pool2/3x3_s2_0_split_2
I0403 16:16:41.037865 20899 net.cpp:399] pool2/3x3_s2_pool2/3x3_s2_0_split -> pool2/3x3_s2_pool2/3x3_s2_0_split_3
I0403 16:16:41.037933 20899 net.cpp:141] Setting up pool2/3x3_s2_pool2/3x3_s2_0_split
I0403 16:16:41.037960 20899 net.cpp:148] Top shape: 24 192 28 28 (3612672)
I0403 16:16:41.037978 20899 net.cpp:148] Top shape: 24 192 28 28 (3612672)
I0403 16:16:41.037993 20899 net.cpp:148] Top shape: 24 192 28 28 (3612672)
I0403 16:16:41.038009 20899 net.cpp:148] Top shape: 24 192 28 28 (3612672)
I0403 16:16:41.038023 20899 net.cpp:156] Memory required for data: 491324448
I0403 16:16:41.038038 20899 layer_factory.hpp:77] Creating layer inception_3a/1x1
I0403 16:16:41.038063 20899 net.cpp:91] Creating Layer inception_3a/1x1
I0403 16:16:41.038079 20899 net.cpp:425] inception_3a/1x1 <- pool2/3x3_s2_pool2/3x3_s2_0_split_0
I0403 16:16:41.038097 20899 net.cpp:399] inception_3a/1x1 -> inception_3a/1x1
I0403 16:16:41.039656 20899 net.cpp:141] Setting up inception_3a/1x1
I0403 16:16:41.039690 20899 net.cpp:148] Top shape: 24 64 28 28 (1204224)
I0403 16:16:41.039706 20899 net.cpp:156] Memory required for data: 496141344
I0403 16:16:41.039726 20899 layer_factory.hpp:77] Creating layer inception_3a/relu_1x1
I0403 16:16:41.039746 20899 net.cpp:91] Creating Layer inception_3a/relu_1x1
I0403 16:16:41.039762 20899 net.cpp:425] inception_3a/relu_1x1 <- inception_3a/1x1
I0403 16:16:41.039780 20899 net.cpp:386] inception_3a/relu_1x1 -> inception_3a/1x1 (in-place)
I0403 16:16:41.039952 20899 net.cpp:141] Setting up inception_3a/relu_1x1
I0403 16:16:41.039981 20899 net.cpp:148] Top shape: 24 64 28 28 (1204224)
I0403 16:16:41.039999 20899 net.cpp:156] Memory required for data: 500958240
I0403 16:16:41.040014 20899 layer_factory.hpp:77] Creating layer inception_3a/3x3_reduce
I0403 16:16:41.040035 20899 net.cpp:91] Creating Layer inception_3a/3x3_reduce
I0403 16:16:41.040051 20899 net.cpp:425] inception_3a/3x3_reduce <- pool2/3x3_s2_pool2/3x3_s2_0_split_1
I0403 16:16:41.040072 20899 net.cpp:399] inception_3a/3x3_reduce -> inception_3a/3x3_reduce
I0403 16:16:41.041831 20899 net.cpp:141] Setting up inception_3a/3x3_reduce
I0403 16:16:41.041862 20899 net.cpp:148] Top shape: 24 96 28 28 (1806336)
I0403 16:16:41.041878 20899 net.cpp:156] Memory required for data: 508183584
I0403 16:16:41.041905 20899 layer_factory.hpp:77] Creating layer inception_3a/relu_3x3_reduce
I0403 16:16:41.041941 20899 net.cpp:91] Creating Layer inception_3a/relu_3x3_reduce
I0403 16:16:41.041965 20899 net.cpp:425] inception_3a/relu_3x3_reduce <- inception_3a/3x3_reduce
I0403 16:16:41.041983 20899 net.cpp:386] inception_3a/relu_3x3_reduce -> inception_3a/3x3_reduce (in-place)
I0403 16:16:41.042174 20899 net.cpp:141] Setting up inception_3a/relu_3x3_reduce
I0403 16:16:41.042199 20899 net.cpp:148] Top shape: 24 96 28 28 (1806336)
I0403 16:16:41.042227 20899 net.cpp:156] Memory required for data: 515408928
I0403 16:16:41.042244 20899 layer_factory.hpp:77] Creating layer inception_3a/3x3
I0403 16:16:41.042268 20899 net.cpp:91] Creating Layer inception_3a/3x3
I0403 16:16:41.042286 20899 net.cpp:425] inception_3a/3x3 <- inception_3a/3x3_reduce
I0403 16:16:41.042309 20899 net.cpp:399] inception_3a/3x3 -> inception_3a/3x3
I0403 16:16:41.044018 20899 net.cpp:141] Setting up inception_3a/3x3
I0403 16:16:41.044046 20899 net.cpp:148] Top shape: 24 128 28 28 (2408448)
I0403 16:16:41.044061 20899 net.cpp:156] Memory required for data: 525042720
I0403 16:16:41.044081 20899 layer_factory.hpp:77] Creating layer inception_3a/relu_3x3
I0403 16:16:41.044102 20899 net.cpp:91] Creating Layer inception_3a/relu_3x3
I0403 16:16:41.044119 20899 net.cpp:425] inception_3a/relu_3x3 <- inception_3a/3x3
I0403 16:16:41.044137 20899 net.cpp:386] inception_3a/relu_3x3 -> inception_3a/3x3 (in-place)
I0403 16:16:41.044417 20899 net.cpp:141] Setting up inception_3a/relu_3x3
I0403 16:16:41.044445 20899 net.cpp:148] Top shape: 24 128 28 28 (2408448)
I0403 16:16:41.044459 20899 net.cpp:156] Memory required for data: 534676512
I0403 16:16:41.044474 20899 layer_factory.hpp:77] Creating layer inception_3a/5x5_reduce
I0403 16:16:41.044497 20899 net.cpp:91] Creating Layer inception_3a/5x5_reduce
I0403 16:16:41.044514 20899 net.cpp:425] inception_3a/5x5_reduce <- pool2/3x3_s2_pool2/3x3_s2_0_split_2
I0403 16:16:41.044536 20899 net.cpp:399] inception_3a/5x5_reduce -> inception_3a/5x5_reduce
I0403 16:16:41.045522 20899 net.cpp:141] Setting up inception_3a/5x5_reduce
I0403 16:16:41.045550 20899 net.cpp:148] Top shape: 24 16 28 28 (301056)
I0403 16:16:41.045567 20899 net.cpp:156] Memory required for data: 535880736
I0403 16:16:41.045585 20899 layer_factory.hpp:77] Creating layer inception_3a/relu_5x5_reduce
I0403 16:16:41.045606 20899 net.cpp:91] Creating Layer inception_3a/relu_5x5_reduce
I0403 16:16:41.045624 20899 net.cpp:425] inception_3a/relu_5x5_reduce <- inception_3a/5x5_reduce
I0403 16:16:41.045642 20899 net.cpp:386] inception_3a/relu_5x5_reduce -> inception_3a/5x5_reduce (in-place)
I0403 16:16:41.045943 20899 net.cpp:141] Setting up inception_3a/relu_5x5_reduce
I0403 16:16:41.045977 20899 net.cpp:148] Top shape: 24 16 28 28 (301056)
I0403 16:16:41.045995 20899 net.cpp:156] Memory required for data: 537084960
I0403 16:16:41.046010 20899 layer_factory.hpp:77] Creating layer inception_3a/5x5
I0403 16:16:41.046033 20899 net.cpp:91] Creating Layer inception_3a/5x5
I0403 16:16:41.046051 20899 net.cpp:425] inception_3a/5x5 <- inception_3a/5x5_reduce
I0403 16:16:41.046071 20899 net.cpp:399] inception_3a/5x5 -> inception_3a/5x5
I0403 16:16:41.047128 20899 net.cpp:141] Setting up inception_3a/5x5
I0403 16:16:41.047157 20899 net.cpp:148] Top shape: 24 32 28 28 (602112)
I0403 16:16:41.047173 20899 net.cpp:156] Memory required for data: 539493408
I0403 16:16:41.047193 20899 layer_factory.hpp:77] Creating layer inception_3a/relu_5x5
I0403 16:16:41.047214 20899 net.cpp:91] Creating Layer inception_3a/relu_5x5
I0403 16:16:41.047230 20899 net.cpp:425] inception_3a/relu_5x5 <- inception_3a/5x5
I0403 16:16:41.047250 20899 net.cpp:386] inception_3a/relu_5x5 -> inception_3a/5x5 (in-place)
I0403 16:16:41.047425 20899 net.cpp:141] Setting up inception_3a/relu_5x5
I0403 16:16:41.047453 20899 net.cpp:148] Top shape: 24 32 28 28 (602112)
I0403 16:16:41.047468 20899 net.cpp:156] Memory required for data: 541901856
I0403 16:16:41.047483 20899 layer_factory.hpp:77] Creating layer inception_3a/pool
I0403 16:16:41.047502 20899 net.cpp:91] Creating Layer inception_3a/pool
I0403 16:16:41.047518 20899 net.cpp:425] inception_3a/pool <- pool2/3x3_s2_pool2/3x3_s2_0_split_3
I0403 16:16:41.047550 20899 net.cpp:399] inception_3a/pool -> inception_3a/pool
I0403 16:16:41.047612 20899 net.cpp:141] Setting up inception_3a/pool
I0403 16:16:41.047636 20899 net.cpp:148] Top shape: 24 192 28 28 (3612672)
I0403 16:16:41.047652 20899 net.cpp:156] Memory required for data: 556352544
I0403 16:16:41.047665 20899 layer_factory.hpp:77] Creating layer inception_3a/pool_proj
I0403 16:16:41.047688 20899 net.cpp:91] Creating Layer inception_3a/pool_proj
I0403 16:16:41.047706 20899 net.cpp:425] inception_3a/pool_proj <- inception_3a/pool
I0403 16:16:41.047729 20899 net.cpp:399] inception_3a/pool_proj -> inception_3a/pool_proj
I0403 16:16:41.048744 20899 net.cpp:141] Setting up inception_3a/pool_proj
I0403 16:16:41.048774 20899 net.cpp:148] Top shape: 24 32 28 28 (602112)
I0403 16:16:41.048789 20899 net.cpp:156] Memory required for data: 558760992
I0403 16:16:41.048811 20899 layer_factory.hpp:77] Creating layer inception_3a/relu_pool_proj
I0403 16:16:41.048833 20899 net.cpp:91] Creating Layer inception_3a/relu_pool_proj
I0403 16:16:41.048851 20899 net.cpp:425] inception_3a/relu_pool_proj <- inception_3a/pool_proj
I0403 16:16:41.048869 20899 net.cpp:386] inception_3a/relu_pool_proj -> inception_3a/pool_proj (in-place)
I0403 16:16:41.049160 20899 net.cpp:141] Setting up inception_3a/relu_pool_proj
I0403 16:16:41.049187 20899 net.cpp:148] Top shape: 24 32 28 28 (602112)
I0403 16:16:41.049203 20899 net.cpp:156] Memory required for data: 561169440
I0403 16:16:41.049218 20899 layer_factory.hpp:77] Creating layer inception_3a/output
I0403 16:16:41.049239 20899 net.cpp:91] Creating Layer inception_3a/output
I0403 16:16:41.049257 20899 net.cpp:425] inception_3a/output <- inception_3a/1x1
I0403 16:16:41.049274 20899 net.cpp:425] inception_3a/output <- inception_3a/3x3
I0403 16:16:41.049290 20899 net.cpp:425] inception_3a/output <- inception_3a/5x5
I0403 16:16:41.049306 20899 net.cpp:425] inception_3a/output <- inception_3a/pool_proj
I0403 16:16:41.049324 20899 net.cpp:399] inception_3a/output -> inception_3a/output
I0403 16:16:41.049371 20899 net.cpp:141] Setting up inception_3a/output
I0403 16:16:41.049396 20899 net.cpp:148] Top shape: 24 256 28 28 (4816896)
I0403 16:16:41.049410 20899 net.cpp:156] Memory required for data: 580437024
I0403 16:16:41.049425 20899 layer_factory.hpp:77] Creating layer inception_3a/output_inception_3a/output_0_split
I0403 16:16:41.049443 20899 net.cpp:91] Creating Layer inception_3a/output_inception_3a/output_0_split
I0403 16:16:41.049458 20899 net.cpp:425] inception_3a/output_inception_3a/output_0_split <- inception_3a/output
I0403 16:16:41.049479 20899 net.cpp:399] inception_3a/output_inception_3a/output_0_split -> inception_3a/output_inception_3a/output_0_split_0
I0403 16:16:41.049499 20899 net.cpp:399] inception_3a/output_inception_3a/output_0_split -> inception_3a/output_inception_3a/output_0_split_1
I0403 16:16:41.049525 20899 net.cpp:399] inception_3a/output_inception_3a/output_0_split -> inception_3a/output_inception_3a/output_0_split_2
I0403 16:16:41.049547 20899 net.cpp:399] inception_3a/output_inception_3a/output_0_split -> inception_3a/output_inception_3a/output_0_split_3
I0403 16:16:41.049623 20899 net.cpp:141] Setting up inception_3a/output_inception_3a/output_0_split
I0403 16:16:41.049646 20899 net.cpp:148] Top shape: 24 256 28 28 (4816896)
I0403 16:16:41.049664 20899 net.cpp:148] Top shape: 24 256 28 28 (4816896)
I0403 16:16:41.049679 20899 net.cpp:148] Top shape: 24 256 28 28 (4816896)
I0403 16:16:41.049695 20899 net.cpp:148] Top shape: 24 256 28 28 (4816896)
I0403 16:16:41.049710 20899 net.cpp:156] Memory required for data: 657507360
I0403 16:16:41.049724 20899 layer_factory.hpp:77] Creating layer inception_3b/1x1
I0403 16:16:41.049747 20899 net.cpp:91] Creating Layer inception_3b/1x1
I0403 16:16:41.049765 20899 net.cpp:425] inception_3b/1x1 <- inception_3a/output_inception_3a/output_0_split_0
I0403 16:16:41.049787 20899 net.cpp:399] inception_3b/1x1 -> inception_3b/1x1
I0403 16:16:41.050945 20899 net.cpp:141] Setting up inception_3b/1x1
I0403 16:16:41.050989 20899 net.cpp:148] Top shape: 24 128 28 28 (2408448)
I0403 16:16:41.051007 20899 net.cpp:156] Memory required for data: 667141152
I0403 16:16:41.051025 20899 layer_factory.hpp:77] Creating layer inception_3b/relu_1x1
I0403 16:16:41.051048 20899 net.cpp:91] Creating Layer inception_3b/relu_1x1
I0403 16:16:41.051066 20899 net.cpp:425] inception_3b/relu_1x1 <- inception_3b/1x1
I0403 16:16:41.051084 20899 net.cpp:386] inception_3b/relu_1x1 -> inception_3b/1x1 (in-place)
I0403 16:16:41.051261 20899 net.cpp:141] Setting up inception_3b/relu_1x1
I0403 16:16:41.051286 20899 net.cpp:148] Top shape: 24 128 28 28 (2408448)
I0403 16:16:41.051301 20899 net.cpp:156] Memory required for data: 676774944
I0403 16:16:41.051317 20899 layer_factory.hpp:77] Creating layer inception_3b/3x3_reduce
I0403 16:16:41.051339 20899 net.cpp:91] Creating Layer inception_3b/3x3_reduce
I0403 16:16:41.051359 20899 net.cpp:425] inception_3b/3x3_reduce <- inception_3a/output_inception_3a/output_0_split_1
I0403 16:16:41.051379 20899 net.cpp:399] inception_3b/3x3_reduce -> inception_3b/3x3_reduce
I0403 16:16:41.052532 20899 net.cpp:141] Setting up inception_3b/3x3_reduce
I0403 16:16:41.052561 20899 net.cpp:148] Top shape: 24 128 28 28 (2408448)
I0403 16:16:41.052577 20899 net.cpp:156] Memory required for data: 686408736
I0403 16:16:41.052595 20899 layer_factory.hpp:77] Creating layer inception_3b/relu_3x3_reduce
I0403 16:16:41.052614 20899 net.cpp:91] Creating Layer inception_3b/relu_3x3_reduce
I0403 16:16:41.052630 20899 net.cpp:425] inception_3b/relu_3x3_reduce <- inception_3b/3x3_reduce
I0403 16:16:41.052652 20899 net.cpp:386] inception_3b/relu_3x3_reduce -> inception_3b/3x3_reduce (in-place)
I0403 16:16:41.052827 20899 net.cpp:141] Setting up inception_3b/relu_3x3_reduce
I0403 16:16:41.052852 20899 net.cpp:148] Top shape: 24 128 28 28 (2408448)
I0403 16:16:41.052867 20899 net.cpp:156] Memory required for data: 696042528
I0403 16:16:41.052883 20899 layer_factory.hpp:77] Creating layer inception_3b/3x3
I0403 16:16:41.052909 20899 net.cpp:91] Creating Layer inception_3b/3x3
I0403 16:16:41.052927 20899 net.cpp:425] inception_3b/3x3 <- inception_3b/3x3_reduce
I0403 16:16:41.052949 20899 net.cpp:399] inception_3b/3x3 -> inception_3b/3x3
I0403 16:16:41.055910 20899 net.cpp:141] Setting up inception_3b/3x3
I0403 16:16:41.055939 20899 net.cpp:148] Top shape: 24 192 28 28 (3612672)
I0403 16:16:41.055959 20899 net.cpp:156] Memory required for data: 710493216
I0403 16:16:41.055980 20899 layer_factory.hpp:77] Creating layer inception_3b/relu_3x3
I0403 16:16:41.056002 20899 net.cpp:91] Creating Layer inception_3b/relu_3x3
I0403 16:16:41.056020 20899 net.cpp:425] inception_3b/relu_3x3 <- inception_3b/3x3
I0403 16:16:41.056038 20899 net.cpp:386] inception_3b/relu_3x3 -> inception_3b/3x3 (in-place)
I0403 16:16:41.056324 20899 net.cpp:141] Setting up inception_3b/relu_3x3
I0403 16:16:41.056350 20899 net.cpp:148] Top shape: 24 192 28 28 (3612672)
I0403 16:16:41.056365 20899 net.cpp:156] Memory required for data: 724943904
I0403 16:16:41.056380 20899 layer_factory.hpp:77] Creating layer inception_3b/5x5_reduce
I0403 16:16:41.056404 20899 net.cpp:91] Creating Layer inception_3b/5x5_reduce
I0403 16:16:41.056421 20899 net.cpp:425] inception_3b/5x5_reduce <- inception_3a/output_inception_3a/output_0_split_2
I0403 16:16:41.056443 20899 net.cpp:399] inception_3b/5x5_reduce -> inception_3b/5x5_reduce
I0403 16:16:41.057453 20899 net.cpp:141] Setting up inception_3b/5x5_reduce
I0403 16:16:41.057482 20899 net.cpp:148] Top shape: 24 32 28 28 (602112)
I0403 16:16:41.057498 20899 net.cpp:156] Memory required for data: 727352352
I0403 16:16:41.057517 20899 layer_factory.hpp:77] Creating layer inception_3b/relu_5x5_reduce
I0403 16:16:41.057538 20899 net.cpp:91] Creating Layer inception_3b/relu_5x5_reduce
I0403 16:16:41.057554 20899 net.cpp:425] inception_3b/relu_5x5_reduce <- inception_3b/5x5_reduce
I0403 16:16:41.057572 20899 net.cpp:386] inception_3b/relu_5x5_reduce -> inception_3b/5x5_reduce (in-place)
I0403 16:16:41.057751 20899 net.cpp:141] Setting up inception_3b/relu_5x5_reduce
I0403 16:16:41.057793 20899 net.cpp:148] Top shape: 24 32 28 28 (602112)
I0403 16:16:41.057811 20899 net.cpp:156] Memory required for data: 729760800
I0403 16:16:41.057827 20899 layer_factory.hpp:77] Creating layer inception_3b/5x5
I0403 16:16:41.057849 20899 net.cpp:91] Creating Layer inception_3b/5x5
I0403 16:16:41.057868 20899 net.cpp:425] inception_3b/5x5 <- inception_3b/5x5_reduce
I0403 16:16:41.057886 20899 net.cpp:399] inception_3b/5x5 -> inception_3b/5x5
I0403 16:16:41.059896 20899 net.cpp:141] Setting up inception_3b/5x5
I0403 16:16:41.059927 20899 net.cpp:148] Top shape: 24 96 28 28 (1806336)
I0403 16:16:41.059942 20899 net.cpp:156] Memory required for data: 736986144
I0403 16:16:41.059967 20899 layer_factory.hpp:77] Creating layer inception_3b/relu_5x5
I0403 16:16:41.059985 20899 net.cpp:91] Creating Layer inception_3b/relu_5x5
I0403 16:16:41.060003 20899 net.cpp:425] inception_3b/relu_5x5 <- inception_3b/5x5
I0403 16:16:41.060024 20899 net.cpp:386] inception_3b/relu_5x5 -> inception_3b/5x5 (in-place)
I0403 16:16:41.060219 20899 net.cpp:141] Setting up inception_3b/relu_5x5
I0403 16:16:41.060245 20899 net.cpp:148] Top shape: 24 96 28 28 (1806336)
I0403 16:16:41.060259 20899 net.cpp:156] Memory required for data: 744211488
I0403 16:16:41.060274 20899 layer_factory.hpp:77] Creating layer inception_3b/pool
I0403 16:16:41.060292 20899 net.cpp:91] Creating Layer inception_3b/pool
I0403 16:16:41.060309 20899 net.cpp:425] inception_3b/pool <- inception_3a/output_inception_3a/output_0_split_3
I0403 16:16:41.060328 20899 net.cpp:399] inception_3b/pool -> inception_3b/pool
I0403 16:16:41.060384 20899 net.cpp:141] Setting up inception_3b/pool
I0403 16:16:41.060408 20899 net.cpp:148] Top shape: 24 256 28 28 (4816896)
I0403 16:16:41.060422 20899 net.cpp:156] Memory required for data: 763479072
I0403 16:16:41.060437 20899 layer_factory.hpp:77] Creating layer inception_3b/pool_proj
I0403 16:16:41.060461 20899 net.cpp:91] Creating Layer inception_3b/pool_proj
I0403 16:16:41.060478 20899 net.cpp:425] inception_3b/pool_proj <- inception_3b/pool
I0403 16:16:41.060499 20899 net.cpp:399] inception_3b/pool_proj -> inception_3b/pool_proj
I0403 16:16:41.061576 20899 net.cpp:141] Setting up inception_3b/pool_proj
I0403 16:16:41.061607 20899 net.cpp:148] Top shape: 24 64 28 28 (1204224)
I0403 16:16:41.061625 20899 net.cpp:156] Memory required for data: 768295968
I0403 16:16:41.061645 20899 layer_factory.hpp:77] Creating layer inception_3b/relu_pool_proj
I0403 16:16:41.061663 20899 net.cpp:91] Creating Layer inception_3b/relu_pool_proj
I0403 16:16:41.061679 20899 net.cpp:425] inception_3b/relu_pool_proj <- inception_3b/pool_proj
I0403 16:16:41.061697 20899 net.cpp:386] inception_3b/relu_pool_proj -> inception_3b/pool_proj (in-place)
I0403 16:16:41.062101 20899 net.cpp:141] Setting up inception_3b/relu_pool_proj
I0403 16:16:41.062129 20899 net.cpp:148] Top shape: 24 64 28 28 (1204224)
I0403 16:16:41.062144 20899 net.cpp:156] Memory required for data: 773112864
I0403 16:16:41.062160 20899 layer_factory.hpp:77] Creating layer inception_3b/output
I0403 16:16:41.062180 20899 net.cpp:91] Creating Layer inception_3b/output
I0403 16:16:41.062196 20899 net.cpp:425] inception_3b/output <- inception_3b/1x1
I0403 16:16:41.062212 20899 net.cpp:425] inception_3b/output <- inception_3b/3x3
I0403 16:16:41.062229 20899 net.cpp:425] inception_3b/output <- inception_3b/5x5
I0403 16:16:41.062247 20899 net.cpp:425] inception_3b/output <- inception_3b/pool_proj
I0403 16:16:41.062264 20899 net.cpp:399] inception_3b/output -> inception_3b/output
I0403 16:16:41.062310 20899 net.cpp:141] Setting up inception_3b/output
I0403 16:16:41.062335 20899 net.cpp:148] Top shape: 24 480 28 28 (9031680)
I0403 16:16:41.062348 20899 net.cpp:156] Memory required for data: 809239584
I0403 16:16:41.062363 20899 layer_factory.hpp:77] Creating layer pool3/3x3_s2
I0403 16:16:41.062381 20899 net.cpp:91] Creating Layer pool3/3x3_s2
I0403 16:16:41.062397 20899 net.cpp:425] pool3/3x3_s2 <- inception_3b/output
I0403 16:16:41.062420 20899 net.cpp:399] pool3/3x3_s2 -> pool3/3x3_s2
I0403 16:16:41.062495 20899 net.cpp:141] Setting up pool3/3x3_s2
I0403 16:16:41.062520 20899 net.cpp:148] Top shape: 24 480 14 14 (2257920)
I0403 16:16:41.062535 20899 net.cpp:156] Memory required for data: 818271264
I0403 16:16:41.062549 20899 layer_factory.hpp:77] Creating layer pool3/3x3_s2_pool3/3x3_s2_0_split
I0403 16:16:41.062567 20899 net.cpp:91] Creating Layer pool3/3x3_s2_pool3/3x3_s2_0_split
I0403 16:16:41.062582 20899 net.cpp:425] pool3/3x3_s2_pool3/3x3_s2_0_split <- pool3/3x3_s2
I0403 16:16:41.062602 20899 net.cpp:399] pool3/3x3_s2_pool3/3x3_s2_0_split -> pool3/3x3_s2_pool3/3x3_s2_0_split_0
I0403 16:16:41.062623 20899 net.cpp:399] pool3/3x3_s2_pool3/3x3_s2_0_split -> pool3/3x3_s2_pool3/3x3_s2_0_split_1
I0403 16:16:41.062644 20899 net.cpp:399] pool3/3x3_s2_pool3/3x3_s2_0_split -> pool3/3x3_s2_pool3/3x3_s2_0_split_2
I0403 16:16:41.062662 20899 net.cpp:399] pool3/3x3_s2_pool3/3x3_s2_0_split -> pool3/3x3_s2_pool3/3x3_s2_0_split_3
I0403 16:16:41.062738 20899 net.cpp:141] Setting up pool3/3x3_s2_pool3/3x3_s2_0_split
I0403 16:16:41.062765 20899 net.cpp:148] Top shape: 24 480 14 14 (2257920)
I0403 16:16:41.062783 20899 net.cpp:148] Top shape: 24 480 14 14 (2257920)
I0403 16:16:41.062799 20899 net.cpp:148] Top shape: 24 480 14 14 (2257920)
I0403 16:16:41.062815 20899 net.cpp:148] Top shape: 24 480 14 14 (2257920)
I0403 16:16:41.062829 20899 net.cpp:156] Memory required for data: 854397984
I0403 16:16:41.062844 20899 layer_factory.hpp:77] Creating layer inception_4a/1x1
I0403 16:16:41.062867 20899 net.cpp:91] Creating Layer inception_4a/1x1
I0403 16:16:41.062885 20899 net.cpp:425] inception_4a/1x1 <- pool3/3x3_s2_pool3/3x3_s2_0_split_0
I0403 16:16:41.062904 20899 net.cpp:399] inception_4a/1x1 -> inception_4a/1x1
I0403 16:16:41.064509 20899 net.cpp:141] Setting up inception_4a/1x1
I0403 16:16:41.064538 20899 net.cpp:148] Top shape: 24 192 14 14 (903168)
I0403 16:16:41.064553 20899 net.cpp:156] Memory required for data: 858010656
I0403 16:16:41.064571 20899 layer_factory.hpp:77] Creating layer inception_4a/relu_1x1
I0403 16:16:41.064590 20899 net.cpp:91] Creating Layer inception_4a/relu_1x1
I0403 16:16:41.064607 20899 net.cpp:425] inception_4a/relu_1x1 <- inception_4a/1x1
I0403 16:16:41.064628 20899 net.cpp:386] inception_4a/relu_1x1 -> inception_4a/1x1 (in-place)
I0403 16:16:41.064810 20899 net.cpp:141] Setting up inception_4a/relu_1x1
I0403 16:16:41.064834 20899 net.cpp:148] Top shape: 24 192 14 14 (903168)
I0403 16:16:41.064849 20899 net.cpp:156] Memory required for data: 861623328
I0403 16:16:41.064864 20899 layer_factory.hpp:77] Creating layer inception_4a/3x3_reduce
I0403 16:16:41.064888 20899 net.cpp:91] Creating Layer inception_4a/3x3_reduce
I0403 16:16:41.064904 20899 net.cpp:425] inception_4a/3x3_reduce <- pool3/3x3_s2_pool3/3x3_s2_0_split_1
I0403 16:16:41.064926 20899 net.cpp:399] inception_4a/3x3_reduce -> inception_4a/3x3_reduce
I0403 16:16:41.066227 20899 net.cpp:141] Setting up inception_4a/3x3_reduce
I0403 16:16:41.066258 20899 net.cpp:148] Top shape: 24 96 14 14 (451584)
I0403 16:16:41.066275 20899 net.cpp:156] Memory required for data: 863429664
I0403 16:16:41.066300 20899 layer_factory.hpp:77] Creating layer inception_4a/relu_3x3_reduce
I0403 16:16:41.066321 20899 net.cpp:91] Creating Layer inception_4a/relu_3x3_reduce
I0403 16:16:41.066337 20899 net.cpp:425] inception_4a/relu_3x3_reduce <- inception_4a/3x3_reduce
I0403 16:16:41.066355 20899 net.cpp:386] inception_4a/relu_3x3_reduce -> inception_4a/3x3_reduce (in-place)
I0403 16:16:41.066535 20899 net.cpp:141] Setting up inception_4a/relu_3x3_reduce
I0403 16:16:41.066561 20899 net.cpp:148] Top shape: 24 96 14 14 (451584)
I0403 16:16:41.066576 20899 net.cpp:156] Memory required for data: 865236000
I0403 16:16:41.066591 20899 layer_factory.hpp:77] Creating layer inception_4a/3x3
I0403 16:16:41.066613 20899 net.cpp:91] Creating Layer inception_4a/3x3
I0403 16:16:41.066632 20899 net.cpp:425] inception_4a/3x3 <- inception_4a/3x3_reduce
I0403 16:16:41.066653 20899 net.cpp:399] inception_4a/3x3 -> inception_4a/3x3
I0403 16:16:41.069386 20899 net.cpp:141] Setting up inception_4a/3x3
I0403 16:16:41.069416 20899 net.cpp:148] Top shape: 24 208 14 14 (978432)
I0403 16:16:41.069432 20899 net.cpp:156] Memory required for data: 869149728
I0403 16:16:41.069450 20899 layer_factory.hpp:77] Creating layer inception_4a/relu_3x3
I0403 16:16:41.069468 20899 net.cpp:91] Creating Layer inception_4a/relu_3x3
I0403 16:16:41.069484 20899 net.cpp:425] inception_4a/relu_3x3 <- inception_4a/3x3
I0403 16:16:41.069505 20899 net.cpp:386] inception_4a/relu_3x3 -> inception_4a/3x3 (in-place)
I0403 16:16:41.069792 20899 net.cpp:141] Setting up inception_4a/relu_3x3
I0403 16:16:41.069818 20899 net.cpp:148] Top shape: 24 208 14 14 (978432)
I0403 16:16:41.069833 20899 net.cpp:156] Memory required for data: 873063456
I0403 16:16:41.069849 20899 layer_factory.hpp:77] Creating layer inception_4a/5x5_reduce
I0403 16:16:41.069872 20899 net.cpp:91] Creating Layer inception_4a/5x5_reduce
I0403 16:16:41.069890 20899 net.cpp:425] inception_4a/5x5_reduce <- pool3/3x3_s2_pool3/3x3_s2_0_split_2
I0403 16:16:41.069912 20899 net.cpp:399] inception_4a/5x5_reduce -> inception_4a/5x5_reduce
I0403 16:16:41.070961 20899 net.cpp:141] Setting up inception_4a/5x5_reduce
I0403 16:16:41.070991 20899 net.cpp:148] Top shape: 24 16 14 14 (75264)
I0403 16:16:41.071007 20899 net.cpp:156] Memory required for data: 873364512
I0403 16:16:41.071024 20899 layer_factory.hpp:77] Creating layer inception_4a/relu_5x5_reduce
I0403 16:16:41.071045 20899 net.cpp:91] Creating Layer inception_4a/relu_5x5_reduce
I0403 16:16:41.071063 20899 net.cpp:425] inception_4a/relu_5x5_reduce <- inception_4a/5x5_reduce
I0403 16:16:41.071080 20899 net.cpp:386] inception_4a/relu_5x5_reduce -> inception_4a/5x5_reduce (in-place)
I0403 16:16:41.071265 20899 net.cpp:141] Setting up inception_4a/relu_5x5_reduce
I0403 16:16:41.071295 20899 net.cpp:148] Top shape: 24 16 14 14 (75264)
I0403 16:16:41.071310 20899 net.cpp:156] Memory required for data: 873665568
I0403 16:16:41.071326 20899 layer_factory.hpp:77] Creating layer inception_4a/5x5
I0403 16:16:41.071347 20899 net.cpp:91] Creating Layer inception_4a/5x5
I0403 16:16:41.071365 20899 net.cpp:425] inception_4a/5x5 <- inception_4a/5x5_reduce
I0403 16:16:41.071385 20899 net.cpp:399] inception_4a/5x5 -> inception_4a/5x5
I0403 16:16:41.072504 20899 net.cpp:141] Setting up inception_4a/5x5
I0403 16:16:41.072531 20899 net.cpp:148] Top shape: 24 48 14 14 (225792)
I0403 16:16:41.072546 20899 net.cpp:156] Memory required for data: 874568736
I0403 16:16:41.072567 20899 layer_factory.hpp:77] Creating layer inception_4a/relu_5x5
I0403 16:16:41.072587 20899 net.cpp:91] Creating Layer inception_4a/relu_5x5
I0403 16:16:41.072603 20899 net.cpp:425] inception_4a/relu_5x5 <- inception_4a/5x5
I0403 16:16:41.072620 20899 net.cpp:386] inception_4a/relu_5x5 -> inception_4a/5x5 (in-place)
I0403 16:16:41.072803 20899 net.cpp:141] Setting up inception_4a/relu_5x5
I0403 16:16:41.072829 20899 net.cpp:148] Top shape: 24 48 14 14 (225792)
I0403 16:16:41.072844 20899 net.cpp:156] Memory required for data: 875471904
I0403 16:16:41.072859 20899 layer_factory.hpp:77] Creating layer inception_4a/pool
I0403 16:16:41.072876 20899 net.cpp:91] Creating Layer inception_4a/pool
I0403 16:16:41.072892 20899 net.cpp:425] inception_4a/pool <- pool3/3x3_s2_pool3/3x3_s2_0_split_3
I0403 16:16:41.072913 20899 net.cpp:399] inception_4a/pool -> inception_4a/pool
I0403 16:16:41.072980 20899 net.cpp:141] Setting up inception_4a/pool
I0403 16:16:41.073005 20899 net.cpp:148] Top shape: 24 480 14 14 (2257920)
I0403 16:16:41.073021 20899 net.cpp:156] Memory required for data: 884503584
I0403 16:16:41.073036 20899 layer_factory.hpp:77] Creating layer inception_4a/pool_proj
I0403 16:16:41.073060 20899 net.cpp:91] Creating Layer inception_4a/pool_proj
I0403 16:16:41.073078 20899 net.cpp:425] inception_4a/pool_proj <- inception_4a/pool
I0403 16:16:41.073097 20899 net.cpp:399] inception_4a/pool_proj -> inception_4a/pool_proj
I0403 16:16:41.074298 20899 net.cpp:141] Setting up inception_4a/pool_proj
I0403 16:16:41.074331 20899 net.cpp:148] Top shape: 24 64 14 14 (301056)
I0403 16:16:41.074362 20899 net.cpp:156] Memory required for data: 885707808
I0403 16:16:41.074381 20899 layer_factory.hpp:77] Creating layer inception_4a/relu_pool_proj
I0403 16:16:41.074400 20899 net.cpp:91] Creating Layer inception_4a/relu_pool_proj
I0403 16:16:41.074416 20899 net.cpp:425] inception_4a/relu_pool_proj <- inception_4a/pool_proj
I0403 16:16:41.074439 20899 net.cpp:386] inception_4a/relu_pool_proj -> inception_4a/pool_proj (in-place)
I0403 16:16:41.074728 20899 net.cpp:141] Setting up inception_4a/relu_pool_proj
I0403 16:16:41.074756 20899 net.cpp:148] Top shape: 24 64 14 14 (301056)
I0403 16:16:41.074771 20899 net.cpp:156] Memory required for data: 886912032
I0403 16:16:41.074787 20899 layer_factory.hpp:77] Creating layer inception_4a/output
I0403 16:16:41.074805 20899 net.cpp:91] Creating Layer inception_4a/output
I0403 16:16:41.074821 20899 net.cpp:425] inception_4a/output <- inception_4a/1x1
I0403 16:16:41.074837 20899 net.cpp:425] inception_4a/output <- inception_4a/3x3
I0403 16:16:41.074854 20899 net.cpp:425] inception_4a/output <- inception_4a/5x5
I0403 16:16:41.074870 20899 net.cpp:425] inception_4a/output <- inception_4a/pool_proj
I0403 16:16:41.074890 20899 net.cpp:399] inception_4a/output -> inception_4a/output
I0403 16:16:41.074935 20899 net.cpp:141] Setting up inception_4a/output
I0403 16:16:41.074962 20899 net.cpp:148] Top shape: 24 512 14 14 (2408448)
I0403 16:16:41.074980 20899 net.cpp:156] Memory required for data: 896545824
I0403 16:16:41.074995 20899 layer_factory.hpp:77] Creating layer inception_4a/output_inception_4a/output_0_split
I0403 16:16:41.075016 20899 net.cpp:91] Creating Layer inception_4a/output_inception_4a/output_0_split
I0403 16:16:41.075031 20899 net.cpp:425] inception_4a/output_inception_4a/output_0_split <- inception_4a/output
I0403 16:16:41.075048 20899 net.cpp:399] inception_4a/output_inception_4a/output_0_split -> inception_4a/output_inception_4a/output_0_split_0
I0403 16:16:41.075069 20899 net.cpp:399] inception_4a/output_inception_4a/output_0_split -> inception_4a/output_inception_4a/output_0_split_1
I0403 16:16:41.075093 20899 net.cpp:399] inception_4a/output_inception_4a/output_0_split -> inception_4a/output_inception_4a/output_0_split_2
I0403 16:16:41.075114 20899 net.cpp:399] inception_4a/output_inception_4a/output_0_split -> inception_4a/output_inception_4a/output_0_split_3
I0403 16:16:41.075134 20899 net.cpp:399] inception_4a/output_inception_4a/output_0_split -> inception_4a/output_inception_4a/output_0_split_4
I0403 16:16:41.075227 20899 net.cpp:141] Setting up inception_4a/output_inception_4a/output_0_split
I0403 16:16:41.075251 20899 net.cpp:148] Top shape: 24 512 14 14 (2408448)
I0403 16:16:41.075268 20899 net.cpp:148] Top shape: 24 512 14 14 (2408448)
I0403 16:16:41.075284 20899 net.cpp:148] Top shape: 24 512 14 14 (2408448)
I0403 16:16:41.075300 20899 net.cpp:148] Top shape: 24 512 14 14 (2408448)
I0403 16:16:41.075316 20899 net.cpp:148] Top shape: 24 512 14 14 (2408448)
I0403 16:16:41.075330 20899 net.cpp:156] Memory required for data: 944714784
I0403 16:16:41.075345 20899 layer_factory.hpp:77] Creating layer loss1/ave_pool
I0403 16:16:41.075366 20899 net.cpp:91] Creating Layer loss1/ave_pool
I0403 16:16:41.075382 20899 net.cpp:425] loss1/ave_pool <- inception_4a/output_inception_4a/output_0_split_0
I0403 16:16:41.075400 20899 net.cpp:399] loss1/ave_pool -> loss1/ave_pool
I0403 16:16:41.075610 20899 net.cpp:141] Setting up loss1/ave_pool
I0403 16:16:41.075639 20899 net.cpp:148] Top shape: 24 512 4 4 (196608)
I0403 16:16:41.075655 20899 net.cpp:156] Memory required for data: 945501216
I0403 16:16:41.075671 20899 layer_factory.hpp:77] Creating layer loss1/conv
I0403 16:16:41.075693 20899 net.cpp:91] Creating Layer loss1/conv
I0403 16:16:41.075711 20899 net.cpp:425] loss1/conv <- loss1/ave_pool
I0403 16:16:41.075731 20899 net.cpp:399] loss1/conv -> loss1/conv
I0403 16:16:41.077175 20899 net.cpp:141] Setting up loss1/conv
I0403 16:16:41.077203 20899 net.cpp:148] Top shape: 24 128 4 4 (49152)
I0403 16:16:41.077219 20899 net.cpp:156] Memory required for data: 945697824
I0403 16:16:41.077255 20899 layer_factory.hpp:77] Creating layer loss1/relu_conv
I0403 16:16:41.077277 20899 net.cpp:91] Creating Layer loss1/relu_conv
I0403 16:16:41.077294 20899 net.cpp:425] loss1/relu_conv <- loss1/conv
I0403 16:16:41.077312 20899 net.cpp:386] loss1/relu_conv -> loss1/conv (in-place)
I0403 16:16:41.077600 20899 net.cpp:141] Setting up loss1/relu_conv
I0403 16:16:41.077626 20899 net.cpp:148] Top shape: 24 128 4 4 (49152)
I0403 16:16:41.077641 20899 net.cpp:156] Memory required for data: 945894432
I0403 16:16:41.077656 20899 layer_factory.hpp:77] Creating layer loss1/fc
I0403 16:16:41.077683 20899 net.cpp:91] Creating Layer loss1/fc
I0403 16:16:41.077702 20899 net.cpp:425] loss1/fc <- loss1/conv
I0403 16:16:41.077720 20899 net.cpp:399] loss1/fc -> loss1/fc
I0403 16:16:41.095245 20899 net.cpp:141] Setting up loss1/fc
I0403 16:16:41.095284 20899 net.cpp:148] Top shape: 24 1024 (24576)
I0403 16:16:41.095299 20899 net.cpp:156] Memory required for data: 945992736
I0403 16:16:41.095316 20899 layer_factory.hpp:77] Creating layer loss1/relu_fc
I0403 16:16:41.095335 20899 net.cpp:91] Creating Layer loss1/relu_fc
I0403 16:16:41.095350 20899 net.cpp:425] loss1/relu_fc <- loss1/fc
I0403 16:16:41.095371 20899 net.cpp:386] loss1/relu_fc -> loss1/fc (in-place)
I0403 16:16:41.095553 20899 net.cpp:141] Setting up loss1/relu_fc
I0403 16:16:41.095577 20899 net.cpp:148] Top shape: 24 1024 (24576)
I0403 16:16:41.095592 20899 net.cpp:156] Memory required for data: 946091040
I0403 16:16:41.095607 20899 layer_factory.hpp:77] Creating layer loss1/drop_fc
I0403 16:16:41.095633 20899 net.cpp:91] Creating Layer loss1/drop_fc
I0403 16:16:41.095649 20899 net.cpp:425] loss1/drop_fc <- loss1/fc
I0403 16:16:41.095669 20899 net.cpp:386] loss1/drop_fc -> loss1/fc (in-place)
I0403 16:16:41.095716 20899 net.cpp:141] Setting up loss1/drop_fc
I0403 16:16:41.095742 20899 net.cpp:148] Top shape: 24 1024 (24576)
I0403 16:16:41.095757 20899 net.cpp:156] Memory required for data: 946189344
I0403 16:16:41.095772 20899 layer_factory.hpp:77] Creating layer loss1/classifier_plantvillage
I0403 16:16:41.095788 20899 net.cpp:91] Creating Layer loss1/classifier_plantvillage
I0403 16:16:41.095803 20899 net.cpp:425] loss1/classifier_plantvillage <- loss1/fc
I0403 16:16:41.095824 20899 net.cpp:399] loss1/classifier_plantvillage -> loss1/classifier_plantvillage
I0403 16:16:41.096706 20899 net.cpp:141] Setting up loss1/classifier_plantvillage
I0403 16:16:41.096734 20899 net.cpp:148] Top shape: 24 38 (912)
I0403 16:16:41.096748 20899 net.cpp:156] Memory required for data: 946192992
I0403 16:16:41.096766 20899 layer_factory.hpp:77] Creating layer loss1/classifier_plantvillage_loss1/classifier_plantvillage_0_split
I0403 16:16:41.096783 20899 net.cpp:91] Creating Layer loss1/classifier_plantvillage_loss1/classifier_plantvillage_0_split
I0403 16:16:41.096798 20899 net.cpp:425] loss1/classifier_plantvillage_loss1/classifier_plantvillage_0_split <- loss1/classifier_plantvillage
I0403 16:16:41.096817 20899 net.cpp:399] loss1/classifier_plantvillage_loss1/classifier_plantvillage_0_split -> loss1/classifier_plantvillage_loss1/classifier_plantvillage_0_split_0
I0403 16:16:41.096838 20899 net.cpp:399] loss1/classifier_plantvillage_loss1/classifier_plantvillage_0_split -> loss1/classifier_plantvillage_loss1/classifier_plantvillage_0_split_1
I0403 16:16:41.096858 20899 net.cpp:399] loss1/classifier_plantvillage_loss1/classifier_plantvillage_0_split -> loss1/classifier_plantvillage_loss1/classifier_plantvillage_0_split_2
I0403 16:16:41.096923 20899 net.cpp:141] Setting up loss1/classifier_plantvillage_loss1/classifier_plantvillage_0_split
I0403 16:16:41.096946 20899 net.cpp:148] Top shape: 24 38 (912)
I0403 16:16:41.096966 20899 net.cpp:148] Top shape: 24 38 (912)
I0403 16:16:41.096982 20899 net.cpp:148] Top shape: 24 38 (912)
I0403 16:16:41.096995 20899 net.cpp:156] Memory required for data: 946203936
I0403 16:16:41.097009 20899 layer_factory.hpp:77] Creating layer inception_4b/1x1
I0403 16:16:41.097031 20899 net.cpp:91] Creating Layer inception_4b/1x1
I0403 16:16:41.097066 20899 net.cpp:425] inception_4b/1x1 <- inception_4a/output_inception_4a/output_0_split_1
I0403 16:16:41.097086 20899 net.cpp:399] inception_4b/1x1 -> inception_4b/1x1
I0403 16:16:41.098716 20899 net.cpp:141] Setting up inception_4b/1x1
I0403 16:16:41.098743 20899 net.cpp:148] Top shape: 24 160 14 14 (752640)
I0403 16:16:41.098758 20899 net.cpp:156] Memory required for data: 949214496
I0403 16:16:41.098776 20899 layer_factory.hpp:77] Creating layer inception_4b/relu_1x1
I0403 16:16:41.098798 20899 net.cpp:91] Creating Layer inception_4b/relu_1x1
I0403 16:16:41.098814 20899 net.cpp:425] inception_4b/relu_1x1 <- inception_4b/1x1
I0403 16:16:41.098831 20899 net.cpp:386] inception_4b/relu_1x1 -> inception_4b/1x1 (in-place)
I0403 16:16:41.099012 20899 net.cpp:141] Setting up inception_4b/relu_1x1
I0403 16:16:41.099038 20899 net.cpp:148] Top shape: 24 160 14 14 (752640)
I0403 16:16:41.099053 20899 net.cpp:156] Memory required for data: 952225056
I0403 16:16:41.099067 20899 layer_factory.hpp:77] Creating layer inception_4b/3x3_reduce
I0403 16:16:41.099089 20899 net.cpp:91] Creating Layer inception_4b/3x3_reduce
I0403 16:16:41.099105 20899 net.cpp:425] inception_4b/3x3_reduce <- inception_4a/output_inception_4a/output_0_split_2
I0403 16:16:41.099123 20899 net.cpp:399] inception_4b/3x3_reduce -> inception_4b/3x3_reduce
I0403 16:16:41.100458 20899 net.cpp:141] Setting up inception_4b/3x3_reduce
I0403 16:16:41.100484 20899 net.cpp:148] Top shape: 24 112 14 14 (526848)
I0403 16:16:41.100503 20899 net.cpp:156] Memory required for data: 954332448
I0403 16:16:41.100522 20899 layer_factory.hpp:77] Creating layer inception_4b/relu_3x3_reduce
I0403 16:16:41.100539 20899 net.cpp:91] Creating Layer inception_4b/relu_3x3_reduce
I0403 16:16:41.100554 20899 net.cpp:425] inception_4b/relu_3x3_reduce <- inception_4b/3x3_reduce
I0403 16:16:41.100570 20899 net.cpp:386] inception_4b/relu_3x3_reduce -> inception_4b/3x3_reduce (in-place)
I0403 16:16:41.100847 20899 net.cpp:141] Setting up inception_4b/relu_3x3_reduce
I0403 16:16:41.100872 20899 net.cpp:148] Top shape: 24 112 14 14 (526848)
I0403 16:16:41.100889 20899 net.cpp:156] Memory required for data: 956439840
I0403 16:16:41.100903 20899 layer_factory.hpp:77] Creating layer inception_4b/3x3
I0403 16:16:41.100924 20899 net.cpp:91] Creating Layer inception_4b/3x3
I0403 16:16:41.100939 20899 net.cpp:425] inception_4b/3x3 <- inception_4b/3x3_reduce
I0403 16:16:41.100963 20899 net.cpp:399] inception_4b/3x3 -> inception_4b/3x3
I0403 16:16:41.103839 20899 net.cpp:141] Setting up inception_4b/3x3
I0403 16:16:41.103866 20899 net.cpp:148] Top shape: 24 224 14 14 (1053696)
I0403 16:16:41.103881 20899 net.cpp:156] Memory required for data: 960654624
I0403 16:16:41.103899 20899 layer_factory.hpp:77] Creating layer inception_4b/relu_3x3
I0403 16:16:41.103917 20899 net.cpp:91] Creating Layer inception_4b/relu_3x3
I0403 16:16:41.103931 20899 net.cpp:425] inception_4b/relu_3x3 <- inception_4b/3x3
I0403 16:16:41.103950 20899 net.cpp:386] inception_4b/relu_3x3 -> inception_4b/3x3 (in-place)
I0403 16:16:41.104130 20899 net.cpp:141] Setting up inception_4b/relu_3x3
I0403 16:16:41.104153 20899 net.cpp:148] Top shape: 24 224 14 14 (1053696)
I0403 16:16:41.104168 20899 net.cpp:156] Memory required for data: 964869408
I0403 16:16:41.104182 20899 layer_factory.hpp:77] Creating layer inception_4b/5x5_reduce
I0403 16:16:41.104204 20899 net.cpp:91] Creating Layer inception_4b/5x5_reduce
I0403 16:16:41.104220 20899 net.cpp:425] inception_4b/5x5_reduce <- inception_4a/output_inception_4a/output_0_split_3
I0403 16:16:41.104241 20899 net.cpp:399] inception_4b/5x5_reduce -> inception_4b/5x5_reduce
I0403 16:16:41.105280 20899 net.cpp:141] Setting up inception_4b/5x5_reduce
I0403 16:16:41.105306 20899 net.cpp:148] Top shape: 24 24 14 14 (112896)
I0403 16:16:41.105322 20899 net.cpp:156] Memory required for data: 965320992
I0403 16:16:41.105340 20899 layer_factory.hpp:77] Creating layer inception_4b/relu_5x5_reduce
I0403 16:16:41.105360 20899 net.cpp:91] Creating Layer inception_4b/relu_5x5_reduce
I0403 16:16:41.105391 20899 net.cpp:425] inception_4b/relu_5x5_reduce <- inception_4b/5x5_reduce
I0403 16:16:41.105408 20899 net.cpp:386] inception_4b/relu_5x5_reduce -> inception_4b/5x5_reduce (in-place)
I0403 16:16:41.105586 20899 net.cpp:141] Setting up inception_4b/relu_5x5_reduce
I0403 16:16:41.105612 20899 net.cpp:148] Top shape: 24 24 14 14 (112896)
I0403 16:16:41.105626 20899 net.cpp:156] Memory required for data: 965772576
I0403 16:16:41.105641 20899 layer_factory.hpp:77] Creating layer inception_4b/5x5
I0403 16:16:41.105664 20899 net.cpp:91] Creating Layer inception_4b/5x5
I0403 16:16:41.105680 20899 net.cpp:425] inception_4b/5x5 <- inception_4b/5x5_reduce
I0403 16:16:41.105698 20899 net.cpp:399] inception_4b/5x5 -> inception_4b/5x5
I0403 16:16:41.106881 20899 net.cpp:141] Setting up inception_4b/5x5
I0403 16:16:41.106909 20899 net.cpp:148] Top shape: 24 64 14 14 (301056)
I0403 16:16:41.106922 20899 net.cpp:156] Memory required for data: 966976800
I0403 16:16:41.106940 20899 layer_factory.hpp:77] Creating layer inception_4b/relu_5x5
I0403 16:16:41.106978 20899 net.cpp:91] Creating Layer inception_4b/relu_5x5
I0403 16:16:41.106998 20899 net.cpp:425] inception_4b/relu_5x5 <- inception_4b/5x5
I0403 16:16:41.107015 20899 net.cpp:386] inception_4b/relu_5x5 -> inception_4b/5x5 (in-place)
I0403 16:16:41.107314 20899 net.cpp:141] Setting up inception_4b/relu_5x5
I0403 16:16:41.107341 20899 net.cpp:148] Top shape: 24 64 14 14 (301056)
I0403 16:16:41.107355 20899 net.cpp:156] Memory required for data: 968181024
I0403 16:16:41.107370 20899 layer_factory.hpp:77] Creating layer inception_4b/pool
I0403 16:16:41.107389 20899 net.cpp:91] Creating Layer inception_4b/pool
I0403 16:16:41.107405 20899 net.cpp:425] inception_4b/pool <- inception_4a/output_inception_4a/output_0_split_4
I0403 16:16:41.107426 20899 net.cpp:399] inception_4b/pool -> inception_4b/pool
I0403 16:16:41.107493 20899 net.cpp:141] Setting up inception_4b/pool
I0403 16:16:41.107517 20899 net.cpp:148] Top shape: 24 512 14 14 (2408448)
I0403 16:16:41.107532 20899 net.cpp:156] Memory required for data: 977814816
I0403 16:16:41.107547 20899 layer_factory.hpp:77] Creating layer inception_4b/pool_proj
I0403 16:16:41.107568 20899 net.cpp:91] Creating Layer inception_4b/pool_proj
I0403 16:16:41.107585 20899 net.cpp:425] inception_4b/pool_proj <- inception_4b/pool
I0403 16:16:41.107606 20899 net.cpp:399] inception_4b/pool_proj -> inception_4b/pool_proj
I0403 16:16:41.108800 20899 net.cpp:141] Setting up inception_4b/pool_proj
I0403 16:16:41.108827 20899 net.cpp:148] Top shape: 24 64 14 14 (301056)
I0403 16:16:41.108844 20899 net.cpp:156] Memory required for data: 979019040
I0403 16:16:41.108861 20899 layer_factory.hpp:77] Creating layer inception_4b/relu_pool_proj
I0403 16:16:41.108881 20899 net.cpp:91] Creating Layer inception_4b/relu_pool_proj
I0403 16:16:41.108897 20899 net.cpp:425] inception_4b/relu_pool_proj <- inception_4b/pool_proj
I0403 16:16:41.108914 20899 net.cpp:386] inception_4b/relu_pool_proj -> inception_4b/pool_proj (in-place)
I0403 16:16:41.109107 20899 net.cpp:141] Setting up inception_4b/relu_pool_proj
I0403 16:16:41.109134 20899 net.cpp:148] Top shape: 24 64 14 14 (301056)
I0403 16:16:41.109149 20899 net.cpp:156] Memory required for data: 980223264
I0403 16:16:41.109164 20899 layer_factory.hpp:77] Creating layer inception_4b/output
I0403 16:16:41.109181 20899 net.cpp:91] Creating Layer inception_4b/output
I0403 16:16:41.109197 20899 net.cpp:425] inception_4b/output <- inception_4b/1x1
I0403 16:16:41.109213 20899 net.cpp:425] inception_4b/output <- inception_4b/3x3
I0403 16:16:41.109230 20899 net.cpp:425] inception_4b/output <- inception_4b/5x5
I0403 16:16:41.109247 20899 net.cpp:425] inception_4b/output <- inception_4b/pool_proj
I0403 16:16:41.109264 20899 net.cpp:399] inception_4b/output -> inception_4b/output
I0403 16:16:41.109310 20899 net.cpp:141] Setting up inception_4b/output
I0403 16:16:41.109333 20899 net.cpp:148] Top shape: 24 512 14 14 (2408448)
I0403 16:16:41.109349 20899 net.cpp:156] Memory required for data: 989857056
I0403 16:16:41.109377 20899 layer_factory.hpp:77] Creating layer inception_4b/output_inception_4b/output_0_split
I0403 16:16:41.109397 20899 net.cpp:91] Creating Layer inception_4b/output_inception_4b/output_0_split
I0403 16:16:41.109414 20899 net.cpp:425] inception_4b/output_inception_4b/output_0_split <- inception_4b/output
I0403 16:16:41.109431 20899 net.cpp:399] inception_4b/output_inception_4b/output_0_split -> inception_4b/output_inception_4b/output_0_split_0
I0403 16:16:41.109452 20899 net.cpp:399] inception_4b/output_inception_4b/output_0_split -> inception_4b/output_inception_4b/output_0_split_1
I0403 16:16:41.109472 20899 net.cpp:399] inception_4b/output_inception_4b/output_0_split -> inception_4b/output_inception_4b/output_0_split_2
I0403 16:16:41.109490 20899 net.cpp:399] inception_4b/output_inception_4b/output_0_split -> inception_4b/output_inception_4b/output_0_split_3
I0403 16:16:41.109575 20899 net.cpp:141] Setting up inception_4b/output_inception_4b/output_0_split
I0403 16:16:41.109597 20899 net.cpp:148] Top shape: 24 512 14 14 (2408448)
I0403 16:16:41.109613 20899 net.cpp:148] Top shape: 24 512 14 14 (2408448)
I0403 16:16:41.109628 20899 net.cpp:148] Top shape: 24 512 14 14 (2408448)
I0403 16:16:41.109644 20899 net.cpp:148] Top shape: 24 512 14 14 (2408448)
I0403 16:16:41.109658 20899 net.cpp:156] Memory required for data: 1028392224
I0403 16:16:41.109673 20899 layer_factory.hpp:77] Creating layer inception_4c/1x1
I0403 16:16:41.109694 20899 net.cpp:91] Creating Layer inception_4c/1x1
I0403 16:16:41.109711 20899 net.cpp:425] inception_4c/1x1 <- inception_4b/output_inception_4b/output_0_split_0
I0403 16:16:41.109731 20899 net.cpp:399] inception_4c/1x1 -> inception_4c/1x1
I0403 16:16:41.111169 20899 net.cpp:141] Setting up inception_4c/1x1
I0403 16:16:41.111202 20899 net.cpp:148] Top shape: 24 128 14 14 (602112)
I0403 16:16:41.111217 20899 net.cpp:156] Memory required for data: 1030800672
I0403 16:16:41.111235 20899 layer_factory.hpp:77] Creating layer inception_4c/relu_1x1
I0403 16:16:41.111253 20899 net.cpp:91] Creating Layer inception_4c/relu_1x1
I0403 16:16:41.111269 20899 net.cpp:425] inception_4c/relu_1x1 <- inception_4c/1x1
I0403 16:16:41.111289 20899 net.cpp:386] inception_4c/relu_1x1 -> inception_4c/1x1 (in-place)
I0403 16:16:41.111472 20899 net.cpp:141] Setting up inception_4c/relu_1x1
I0403 16:16:41.111497 20899 net.cpp:148] Top shape: 24 128 14 14 (602112)
I0403 16:16:41.111511 20899 net.cpp:156] Memory required for data: 1033209120
I0403 16:16:41.111526 20899 layer_factory.hpp:77] Creating layer inception_4c/3x3_reduce
I0403 16:16:41.111548 20899 net.cpp:91] Creating Layer inception_4c/3x3_reduce
I0403 16:16:41.111565 20899 net.cpp:425] inception_4c/3x3_reduce <- inception_4b/output_inception_4b/output_0_split_1
I0403 16:16:41.111588 20899 net.cpp:399] inception_4c/3x3_reduce -> inception_4c/3x3_reduce
I0403 16:16:41.113517 20899 net.cpp:141] Setting up inception_4c/3x3_reduce
I0403 16:16:41.113544 20899 net.cpp:148] Top shape: 24 128 14 14 (602112)
I0403 16:16:41.113559 20899 net.cpp:156] Memory required for data: 1035617568
I0403 16:16:41.113579 20899 layer_factory.hpp:77] Creating layer inception_4c/relu_3x3_reduce
I0403 16:16:41.113598 20899 net.cpp:91] Creating Layer inception_4c/relu_3x3_reduce
I0403 16:16:41.113615 20899 net.cpp:425] inception_4c/relu_3x3_reduce <- inception_4c/3x3_reduce
I0403 16:16:41.113631 20899 net.cpp:386] inception_4c/relu_3x3_reduce -> inception_4c/3x3_reduce (in-place)
I0403 16:16:41.113919 20899 net.cpp:141] Setting up inception_4c/relu_3x3_reduce
I0403 16:16:41.113961 20899 net.cpp:148] Top shape: 24 128 14 14 (602112)
I0403 16:16:41.113979 20899 net.cpp:156] Memory required for data: 1038026016
I0403 16:16:41.113994 20899 layer_factory.hpp:77] Creating layer inception_4c/3x3
I0403 16:16:41.114017 20899 net.cpp:91] Creating Layer inception_4c/3x3
I0403 16:16:41.114035 20899 net.cpp:425] inception_4c/3x3 <- inception_4c/3x3_reduce
I0403 16:16:41.114056 20899 net.cpp:399] inception_4c/3x3 -> inception_4c/3x3
I0403 16:16:41.117743 20899 net.cpp:141] Setting up inception_4c/3x3
I0403 16:16:41.117784 20899 net.cpp:148] Top shape: 24 256 14 14 (1204224)
I0403 16:16:41.117799 20899 net.cpp:156] Memory required for data: 1042842912
I0403 16:16:41.117831 20899 layer_factory.hpp:77] Creating layer inception_4c/relu_3x3
I0403 16:16:41.117854 20899 net.cpp:91] Creating Layer inception_4c/relu_3x3
I0403 16:16:41.117871 20899 net.cpp:425] inception_4c/relu_3x3 <- inception_4c/3x3
I0403 16:16:41.117889 20899 net.cpp:386] inception_4c/relu_3x3 -> inception_4c/3x3 (in-place)
I0403 16:16:41.118077 20899 net.cpp:141] Setting up inception_4c/relu_3x3
I0403 16:16:41.118101 20899 net.cpp:148] Top shape: 24 256 14 14 (1204224)
I0403 16:16:41.118115 20899 net.cpp:156] Memory required for data: 1047659808
I0403 16:16:41.118130 20899 layer_factory.hpp:77] Creating layer inception_4c/5x5_reduce
I0403 16:16:41.118152 20899 net.cpp:91] Creating Layer inception_4c/5x5_reduce
I0403 16:16:41.118170 20899 net.cpp:425] inception_4c/5x5_reduce <- inception_4b/output_inception_4b/output_0_split_2
I0403 16:16:41.118192 20899 net.cpp:399] inception_4c/5x5_reduce -> inception_4c/5x5_reduce
I0403 16:16:41.119333 20899 net.cpp:141] Setting up inception_4c/5x5_reduce
I0403 16:16:41.119361 20899 net.cpp:148] Top shape: 24 24 14 14 (112896)
I0403 16:16:41.119377 20899 net.cpp:156] Memory required for data: 1048111392
I0403 16:16:41.119395 20899 layer_factory.hpp:77] Creating layer inception_4c/relu_5x5_reduce
I0403 16:16:41.119415 20899 net.cpp:91] Creating Layer inception_4c/relu_5x5_reduce
I0403 16:16:41.119432 20899 net.cpp:425] inception_4c/relu_5x5_reduce <- inception_4c/5x5_reduce
I0403 16:16:41.119449 20899 net.cpp:386] inception_4c/relu_5x5_reduce -> inception_4c/5x5_reduce (in-place)
I0403 16:16:41.119637 20899 net.cpp:141] Setting up inception_4c/relu_5x5_reduce
I0403 16:16:41.119663 20899 net.cpp:148] Top shape: 24 24 14 14 (112896)
I0403 16:16:41.119678 20899 net.cpp:156] Memory required for data: 1048562976
I0403 16:16:41.119693 20899 layer_factory.hpp:77] Creating layer inception_4c/5x5
I0403 16:16:41.119714 20899 net.cpp:91] Creating Layer inception_4c/5x5
I0403 16:16:41.119731 20899 net.cpp:425] inception_4c/5x5 <- inception_4c/5x5_reduce
I0403 16:16:41.119750 20899 net.cpp:399] inception_4c/5x5 -> inception_4c/5x5
I0403 16:16:41.121000 20899 net.cpp:141] Setting up inception_4c/5x5
I0403 16:16:41.121029 20899 net.cpp:148] Top shape: 24 64 14 14 (301056)
I0403 16:16:41.121045 20899 net.cpp:156] Memory required for data: 1049767200
I0403 16:16:41.121063 20899 layer_factory.hpp:77] Creating layer inception_4c/relu_5x5
I0403 16:16:41.121081 20899 net.cpp:91] Creating Layer inception_4c/relu_5x5
I0403 16:16:41.121098 20899 net.cpp:425] inception_4c/relu_5x5 <- inception_4c/5x5
I0403 16:16:41.121114 20899 net.cpp:386] inception_4c/relu_5x5 -> inception_4c/5x5 (in-place)
I0403 16:16:41.121404 20899 net.cpp:141] Setting up inception_4c/relu_5x5
I0403 16:16:41.121433 20899 net.cpp:148] Top shape: 24 64 14 14 (301056)
I0403 16:16:41.121448 20899 net.cpp:156] Memory required for data: 1050971424
I0403 16:16:41.121464 20899 layer_factory.hpp:77] Creating layer inception_4c/pool
I0403 16:16:41.121481 20899 net.cpp:91] Creating Layer inception_4c/pool
I0403 16:16:41.121496 20899 net.cpp:425] inception_4c/pool <- inception_4b/output_inception_4b/output_0_split_3
I0403 16:16:41.121515 20899 net.cpp:399] inception_4c/pool -> inception_4c/pool
I0403 16:16:41.121580 20899 net.cpp:141] Setting up inception_4c/pool
I0403 16:16:41.121603 20899 net.cpp:148] Top shape: 24 512 14 14 (2408448)
I0403 16:16:41.121618 20899 net.cpp:156] Memory required for data: 1060605216
I0403 16:16:41.121633 20899 layer_factory.hpp:77] Creating layer inception_4c/pool_proj
I0403 16:16:41.121654 20899 net.cpp:91] Creating Layer inception_4c/pool_proj
I0403 16:16:41.121671 20899 net.cpp:425] inception_4c/pool_proj <- inception_4c/pool
I0403 16:16:41.121692 20899 net.cpp:399] inception_4c/pool_proj -> inception_4c/pool_proj
I0403 16:16:41.122946 20899 net.cpp:141] Setting up inception_4c/pool_proj
I0403 16:16:41.122978 20899 net.cpp:148] Top shape: 24 64 14 14 (301056)
I0403 16:16:41.123008 20899 net.cpp:156] Memory required for data: 1061809440
I0403 16:16:41.123028 20899 layer_factory.hpp:77] Creating layer inception_4c/relu_pool_proj
I0403 16:16:41.123047 20899 net.cpp:91] Creating Layer inception_4c/relu_pool_proj
I0403 16:16:41.123064 20899 net.cpp:425] inception_4c/relu_pool_proj <- inception_4c/pool_proj
I0403 16:16:41.123081 20899 net.cpp:386] inception_4c/relu_pool_proj -> inception_4c/pool_proj (in-place)
I0403 16:16:41.123265 20899 net.cpp:141] Setting up inception_4c/relu_pool_proj
I0403 16:16:41.123294 20899 net.cpp:148] Top shape: 24 64 14 14 (301056)
I0403 16:16:41.123309 20899 net.cpp:156] Memory required for data: 1063013664
I0403 16:16:41.123324 20899 layer_factory.hpp:77] Creating layer inception_4c/output
I0403 16:16:41.123342 20899 net.cpp:91] Creating Layer inception_4c/output
I0403 16:16:41.123356 20899 net.cpp:425] inception_4c/output <- inception_4c/1x1
I0403 16:16:41.123373 20899 net.cpp:425] inception_4c/output <- inception_4c/3x3
I0403 16:16:41.123389 20899 net.cpp:425] inception_4c/output <- inception_4c/5x5
I0403 16:16:41.123404 20899 net.cpp:425] inception_4c/output <- inception_4c/pool_proj
I0403 16:16:41.123420 20899 net.cpp:399] inception_4c/output -> inception_4c/output
I0403 16:16:41.123467 20899 net.cpp:141] Setting up inception_4c/output
I0403 16:16:41.123492 20899 net.cpp:148] Top shape: 24 512 14 14 (2408448)
I0403 16:16:41.123505 20899 net.cpp:156] Memory required for data: 1072647456
I0403 16:16:41.123520 20899 layer_factory.hpp:77] Creating layer inception_4c/output_inception_4c/output_0_split
I0403 16:16:41.123539 20899 net.cpp:91] Creating Layer inception_4c/output_inception_4c/output_0_split
I0403 16:16:41.123555 20899 net.cpp:425] inception_4c/output_inception_4c/output_0_split <- inception_4c/output
I0403 16:16:41.123572 20899 net.cpp:399] inception_4c/output_inception_4c/output_0_split -> inception_4c/output_inception_4c/output_0_split_0
I0403 16:16:41.123592 20899 net.cpp:399] inception_4c/output_inception_4c/output_0_split -> inception_4c/output_inception_4c/output_0_split_1
I0403 16:16:41.123611 20899 net.cpp:399] inception_4c/output_inception_4c/output_0_split -> inception_4c/output_inception_4c/output_0_split_2
I0403 16:16:41.123631 20899 net.cpp:399] inception_4c/output_inception_4c/output_0_split -> inception_4c/output_inception_4c/output_0_split_3
I0403 16:16:41.123716 20899 net.cpp:141] Setting up inception_4c/output_inception_4c/output_0_split
I0403 16:16:41.123739 20899 net.cpp:148] Top shape: 24 512 14 14 (2408448)
I0403 16:16:41.123755 20899 net.cpp:148] Top shape: 24 512 14 14 (2408448)
I0403 16:16:41.123770 20899 net.cpp:148] Top shape: 24 512 14 14 (2408448)
I0403 16:16:41.123785 20899 net.cpp:148] Top shape: 24 512 14 14 (2408448)
I0403 16:16:41.123800 20899 net.cpp:156] Memory required for data: 1111182624
I0403 16:16:41.123814 20899 layer_factory.hpp:77] Creating layer inception_4d/1x1
I0403 16:16:41.123836 20899 net.cpp:91] Creating Layer inception_4d/1x1
I0403 16:16:41.123853 20899 net.cpp:425] inception_4d/1x1 <- inception_4c/output_inception_4c/output_0_split_0
I0403 16:16:41.123874 20899 net.cpp:399] inception_4d/1x1 -> inception_4d/1x1
I0403 16:16:41.125260 20899 net.cpp:141] Setting up inception_4d/1x1
I0403 16:16:41.125288 20899 net.cpp:148] Top shape: 24 112 14 14 (526848)
I0403 16:16:41.125303 20899 net.cpp:156] Memory required for data: 1113290016
I0403 16:16:41.125321 20899 layer_factory.hpp:77] Creating layer inception_4d/relu_1x1
I0403 16:16:41.125339 20899 net.cpp:91] Creating Layer inception_4d/relu_1x1
I0403 16:16:41.125355 20899 net.cpp:425] inception_4d/relu_1x1 <- inception_4d/1x1
I0403 16:16:41.125375 20899 net.cpp:386] inception_4d/relu_1x1 -> inception_4d/1x1 (in-place)
I0403 16:16:41.125562 20899 net.cpp:141] Setting up inception_4d/relu_1x1
I0403 16:16:41.125587 20899 net.cpp:148] Top shape: 24 112 14 14 (526848)
I0403 16:16:41.125602 20899 net.cpp:156] Memory required for data: 1115397408
I0403 16:16:41.125617 20899 layer_factory.hpp:77] Creating layer inception_4d/3x3_reduce
I0403 16:16:41.125654 20899 net.cpp:91] Creating Layer inception_4d/3x3_reduce
I0403 16:16:41.125674 20899 net.cpp:425] inception_4d/3x3_reduce <- inception_4c/output_inception_4c/output_0_split_1
I0403 16:16:41.125694 20899 net.cpp:399] inception_4d/3x3_reduce -> inception_4d/3x3_reduce
I0403 16:16:41.127184 20899 net.cpp:141] Setting up inception_4d/3x3_reduce
I0403 16:16:41.127213 20899 net.cpp:148] Top shape: 24 144 14 14 (677376)
I0403 16:16:41.127228 20899 net.cpp:156] Memory required for data: 1118106912
I0403 16:16:41.127248 20899 layer_factory.hpp:77] Creating layer inception_4d/relu_3x3_reduce
I0403 16:16:41.127264 20899 net.cpp:91] Creating Layer inception_4d/relu_3x3_reduce
I0403 16:16:41.127280 20899 net.cpp:425] inception_4d/relu_3x3_reduce <- inception_4d/3x3_reduce
I0403 16:16:41.127300 20899 net.cpp:386] inception_4d/relu_3x3_reduce -> inception_4d/3x3_reduce (in-place)
I0403 16:16:41.127830 20899 net.cpp:141] Setting up inception_4d/relu_3x3_reduce
I0403 16:16:41.127858 20899 net.cpp:148] Top shape: 24 144 14 14 (677376)
I0403 16:16:41.127874 20899 net.cpp:156] Memory required for data: 1120816416
I0403 16:16:41.127888 20899 layer_factory.hpp:77] Creating layer inception_4d/3x3
I0403 16:16:41.127910 20899 net.cpp:91] Creating Layer inception_4d/3x3
I0403 16:16:41.127928 20899 net.cpp:425] inception_4d/3x3 <- inception_4d/3x3_reduce
I0403 16:16:41.127946 20899 net.cpp:399] inception_4d/3x3 -> inception_4d/3x3
I0403 16:16:41.132179 20899 net.cpp:141] Setting up inception_4d/3x3
I0403 16:16:41.132207 20899 net.cpp:148] Top shape: 24 288 14 14 (1354752)
I0403 16:16:41.132222 20899 net.cpp:156] Memory required for data: 1126235424
I0403 16:16:41.132241 20899 layer_factory.hpp:77] Creating layer inception_4d/relu_3x3
I0403 16:16:41.132261 20899 net.cpp:91] Creating Layer inception_4d/relu_3x3
I0403 16:16:41.132279 20899 net.cpp:425] inception_4d/relu_3x3 <- inception_4d/3x3
I0403 16:16:41.132297 20899 net.cpp:386] inception_4d/relu_3x3 -> inception_4d/3x3 (in-place)
I0403 16:16:41.132480 20899 net.cpp:141] Setting up inception_4d/relu_3x3
I0403 16:16:41.132505 20899 net.cpp:148] Top shape: 24 288 14 14 (1354752)
I0403 16:16:41.132519 20899 net.cpp:156] Memory required for data: 1131654432
I0403 16:16:41.132534 20899 layer_factory.hpp:77] Creating layer inception_4d/5x5_reduce
I0403 16:16:41.132556 20899 net.cpp:91] Creating Layer inception_4d/5x5_reduce
I0403 16:16:41.132573 20899 net.cpp:425] inception_4d/5x5_reduce <- inception_4c/output_inception_4c/output_0_split_2
I0403 16:16:41.132596 20899 net.cpp:399] inception_4d/5x5_reduce -> inception_4d/5x5_reduce
I0403 16:16:41.133754 20899 net.cpp:141] Setting up inception_4d/5x5_reduce
I0403 16:16:41.133781 20899 net.cpp:148] Top shape: 24 32 14 14 (150528)
I0403 16:16:41.133797 20899 net.cpp:156] Memory required for data: 1132256544
I0403 16:16:41.133816 20899 layer_factory.hpp:77] Creating layer inception_4d/relu_5x5_reduce
I0403 16:16:41.133834 20899 net.cpp:91] Creating Layer inception_4d/relu_5x5_reduce
I0403 16:16:41.133852 20899 net.cpp:425] inception_4d/relu_5x5_reduce <- inception_4d/5x5_reduce
I0403 16:16:41.133870 20899 net.cpp:386] inception_4d/relu_5x5_reduce -> inception_4d/5x5_reduce (in-place)
I0403 16:16:41.134065 20899 net.cpp:141] Setting up inception_4d/relu_5x5_reduce
I0403 16:16:41.134090 20899 net.cpp:148] Top shape: 24 32 14 14 (150528)
I0403 16:16:41.134104 20899 net.cpp:156] Memory required for data: 1132858656
I0403 16:16:41.134119 20899 layer_factory.hpp:77] Creating layer inception_4d/5x5
I0403 16:16:41.134141 20899 net.cpp:91] Creating Layer inception_4d/5x5
I0403 16:16:41.134160 20899 net.cpp:425] inception_4d/5x5 <- inception_4d/5x5_reduce
I0403 16:16:41.134181 20899 net.cpp:399] inception_4d/5x5 -> inception_4d/5x5
I0403 16:16:41.135664 20899 net.cpp:141] Setting up inception_4d/5x5
I0403 16:16:41.135691 20899 net.cpp:148] Top shape: 24 64 14 14 (301056)
I0403 16:16:41.135710 20899 net.cpp:156] Memory required for data: 1134062880
I0403 16:16:41.135730 20899 layer_factory.hpp:77] Creating layer inception_4d/relu_5x5
I0403 16:16:41.135763 20899 net.cpp:91] Creating Layer inception_4d/relu_5x5
I0403 16:16:41.135781 20899 net.cpp:425] inception_4d/relu_5x5 <- inception_4d/5x5
I0403 16:16:41.135797 20899 net.cpp:386] inception_4d/relu_5x5 -> inception_4d/5x5 (in-place)
I0403 16:16:41.136106 20899 net.cpp:141] Setting up inception_4d/relu_5x5
I0403 16:16:41.136132 20899 net.cpp:148] Top shape: 24 64 14 14 (301056)
I0403 16:16:41.136150 20899 net.cpp:156] Memory required for data: 1135267104
I0403 16:16:41.136165 20899 layer_factory.hpp:77] Creating layer inception_4d/pool
I0403 16:16:41.136183 20899 net.cpp:91] Creating Layer inception_4d/pool
I0403 16:16:41.136199 20899 net.cpp:425] inception_4d/pool <- inception_4c/output_inception_4c/output_0_split_3
I0403 16:16:41.136217 20899 net.cpp:399] inception_4d/pool -> inception_4d/pool
I0403 16:16:41.136284 20899 net.cpp:141] Setting up inception_4d/pool
I0403 16:16:41.136308 20899 net.cpp:148] Top shape: 24 512 14 14 (2408448)
I0403 16:16:41.136322 20899 net.cpp:156] Memory required for data: 1144900896
I0403 16:16:41.136337 20899 layer_factory.hpp:77] Creating layer inception_4d/pool_proj
I0403 16:16:41.136358 20899 net.cpp:91] Creating Layer inception_4d/pool_proj
I0403 16:16:41.136376 20899 net.cpp:425] inception_4d/pool_proj <- inception_4d/pool
I0403 16:16:41.136397 20899 net.cpp:399] inception_4d/pool_proj -> inception_4d/pool_proj
I0403 16:16:41.138154 20899 net.cpp:141] Setting up inception_4d/pool_proj
I0403 16:16:41.138183 20899 net.cpp:148] Top shape: 24 64 14 14 (301056)
I0403 16:16:41.138198 20899 net.cpp:156] Memory required for data: 1146105120
I0403 16:16:41.138216 20899 layer_factory.hpp:77] Creating layer inception_4d/relu_pool_proj
I0403 16:16:41.138237 20899 net.cpp:91] Creating Layer inception_4d/relu_pool_proj
I0403 16:16:41.138254 20899 net.cpp:425] inception_4d/relu_pool_proj <- inception_4d/pool_proj
I0403 16:16:41.138272 20899 net.cpp:386] inception_4d/relu_pool_proj -> inception_4d/pool_proj (in-place)
I0403 16:16:41.138456 20899 net.cpp:141] Setting up inception_4d/relu_pool_proj
I0403 16:16:41.138481 20899 net.cpp:148] Top shape: 24 64 14 14 (301056)
I0403 16:16:41.138495 20899 net.cpp:156] Memory required for data: 1147309344
I0403 16:16:41.138510 20899 layer_factory.hpp:77] Creating layer inception_4d/output
I0403 16:16:41.138531 20899 net.cpp:91] Creating Layer inception_4d/output
I0403 16:16:41.138548 20899 net.cpp:425] inception_4d/output <- inception_4d/1x1
I0403 16:16:41.138563 20899 net.cpp:425] inception_4d/output <- inception_4d/3x3
I0403 16:16:41.138579 20899 net.cpp:425] inception_4d/output <- inception_4d/5x5
I0403 16:16:41.138595 20899 net.cpp:425] inception_4d/output <- inception_4d/pool_proj
I0403 16:16:41.138612 20899 net.cpp:399] inception_4d/output -> inception_4d/output
I0403 16:16:41.138660 20899 net.cpp:141] Setting up inception_4d/output
I0403 16:16:41.138684 20899 net.cpp:148] Top shape: 24 528 14 14 (2483712)
I0403 16:16:41.138698 20899 net.cpp:156] Memory required for data: 1157244192
I0403 16:16:41.138712 20899 layer_factory.hpp:77] Creating layer inception_4d/output_inception_4d/output_0_split
I0403 16:16:41.138731 20899 net.cpp:91] Creating Layer inception_4d/output_inception_4d/output_0_split
I0403 16:16:41.138746 20899 net.cpp:425] inception_4d/output_inception_4d/output_0_split <- inception_4d/output
I0403 16:16:41.138766 20899 net.cpp:399] inception_4d/output_inception_4d/output_0_split -> inception_4d/output_inception_4d/output_0_split_0
I0403 16:16:41.138785 20899 net.cpp:399] inception_4d/output_inception_4d/output_0_split -> inception_4d/output_inception_4d/output_0_split_1
I0403 16:16:41.138806 20899 net.cpp:399] inception_4d/output_inception_4d/output_0_split -> inception_4d/output_inception_4d/output_0_split_2
I0403 16:16:41.138826 20899 net.cpp:399] inception_4d/output_inception_4d/output_0_split -> inception_4d/output_inception_4d/output_0_split_3
I0403 16:16:41.138850 20899 net.cpp:399] inception_4d/output_inception_4d/output_0_split -> inception_4d/output_inception_4d/output_0_split_4
I0403 16:16:41.138965 20899 net.cpp:141] Setting up inception_4d/output_inception_4d/output_0_split
I0403 16:16:41.139003 20899 net.cpp:148] Top shape: 24 528 14 14 (2483712)
I0403 16:16:41.139020 20899 net.cpp:148] Top shape: 24 528 14 14 (2483712)
I0403 16:16:41.139035 20899 net.cpp:148] Top shape: 24 528 14 14 (2483712)
I0403 16:16:41.139051 20899 net.cpp:148] Top shape: 24 528 14 14 (2483712)
I0403 16:16:41.139066 20899 net.cpp:148] Top shape: 24 528 14 14 (2483712)
I0403 16:16:41.139081 20899 net.cpp:156] Memory required for data: 1206918432
I0403 16:16:41.139096 20899 layer_factory.hpp:77] Creating layer loss2/ave_pool
I0403 16:16:41.139113 20899 net.cpp:91] Creating Layer loss2/ave_pool
I0403 16:16:41.139129 20899 net.cpp:425] loss2/ave_pool <- inception_4d/output_inception_4d/output_0_split_0
I0403 16:16:41.139152 20899 net.cpp:399] loss2/ave_pool -> loss2/ave_pool
I0403 16:16:41.139466 20899 net.cpp:141] Setting up loss2/ave_pool
I0403 16:16:41.139492 20899 net.cpp:148] Top shape: 24 528 4 4 (202752)
I0403 16:16:41.139508 20899 net.cpp:156] Memory required for data: 1207729440
I0403 16:16:41.139523 20899 layer_factory.hpp:77] Creating layer loss2/conv
I0403 16:16:41.139545 20899 net.cpp:91] Creating Layer loss2/conv
I0403 16:16:41.139562 20899 net.cpp:425] loss2/conv <- loss2/ave_pool
I0403 16:16:41.139583 20899 net.cpp:399] loss2/conv -> loss2/conv
I0403 16:16:41.141549 20899 net.cpp:141] Setting up loss2/conv
I0403 16:16:41.141578 20899 net.cpp:148] Top shape: 24 128 4 4 (49152)
I0403 16:16:41.141594 20899 net.cpp:156] Memory required for data: 1207926048
I0403 16:16:41.141613 20899 layer_factory.hpp:77] Creating layer loss2/relu_conv
I0403 16:16:41.141634 20899 net.cpp:91] Creating Layer loss2/relu_conv
I0403 16:16:41.141652 20899 net.cpp:425] loss2/relu_conv <- loss2/conv
I0403 16:16:41.141669 20899 net.cpp:386] loss2/relu_conv -> loss2/conv (in-place)
I0403 16:16:41.141970 20899 net.cpp:141] Setting up loss2/relu_conv
I0403 16:16:41.141998 20899 net.cpp:148] Top shape: 24 128 4 4 (49152)
I0403 16:16:41.142012 20899 net.cpp:156] Memory required for data: 1208122656
I0403 16:16:41.142027 20899 layer_factory.hpp:77] Creating layer loss2/fc
I0403 16:16:41.142050 20899 net.cpp:91] Creating Layer loss2/fc
I0403 16:16:41.142067 20899 net.cpp:425] loss2/fc <- loss2/conv
I0403 16:16:41.142089 20899 net.cpp:399] loss2/fc -> loss2/fc
I0403 16:16:41.160318 20899 net.cpp:141] Setting up loss2/fc
I0403 16:16:41.160378 20899 net.cpp:148] Top shape: 24 1024 (24576)
I0403 16:16:41.160394 20899 net.cpp:156] Memory required for data: 1208220960
I0403 16:16:41.160413 20899 layer_factory.hpp:77] Creating layer loss2/relu_fc
I0403 16:16:41.160434 20899 net.cpp:91] Creating Layer loss2/relu_fc
I0403 16:16:41.160452 20899 net.cpp:425] loss2/relu_fc <- loss2/fc
I0403 16:16:41.160473 20899 net.cpp:386] loss2/relu_fc -> loss2/fc (in-place)
I0403 16:16:41.160825 20899 net.cpp:141] Setting up loss2/relu_fc
I0403 16:16:41.160851 20899 net.cpp:148] Top shape: 24 1024 (24576)
I0403 16:16:41.160866 20899 net.cpp:156] Memory required for data: 1208319264
I0403 16:16:41.160881 20899 layer_factory.hpp:77] Creating layer loss2/drop_fc
I0403 16:16:41.160899 20899 net.cpp:91] Creating Layer loss2/drop_fc
I0403 16:16:41.160915 20899 net.cpp:425] loss2/drop_fc <- loss2/fc
I0403 16:16:41.160935 20899 net.cpp:386] loss2/drop_fc -> loss2/fc (in-place)
I0403 16:16:41.160992 20899 net.cpp:141] Setting up loss2/drop_fc
I0403 16:16:41.161015 20899 net.cpp:148] Top shape: 24 1024 (24576)
I0403 16:16:41.161031 20899 net.cpp:156] Memory required for data: 1208417568
I0403 16:16:41.161044 20899 layer_factory.hpp:77] Creating layer loss2/classifier_plantvillage
I0403 16:16:41.161063 20899 net.cpp:91] Creating Layer loss2/classifier_plantvillage
I0403 16:16:41.161079 20899 net.cpp:425] loss2/classifier_plantvillage <- loss2/fc
I0403 16:16:41.161100 20899 net.cpp:399] loss2/classifier_plantvillage -> loss2/classifier_plantvillage
I0403 16:16:41.161516 20899 net.cpp:141] Setting up loss2/classifier_plantvillage
I0403 16:16:41.161541 20899 net.cpp:148] Top shape: 24 38 (912)
I0403 16:16:41.161556 20899 net.cpp:156] Memory required for data: 1208421216
I0403 16:16:41.161602 20899 layer_factory.hpp:77] Creating layer loss2/classifier_plantvillage_loss2/classifier_plantvillage_0_split
I0403 16:16:41.161625 20899 net.cpp:91] Creating Layer loss2/classifier_plantvillage_loss2/classifier_plantvillage_0_split
I0403 16:16:41.161641 20899 net.cpp:425] loss2/classifier_plantvillage_loss2/classifier_plantvillage_0_split <- loss2/classifier_plantvillage
I0403 16:16:41.161659 20899 net.cpp:399] loss2/classifier_plantvillage_loss2/classifier_plantvillage_0_split -> loss2/classifier_plantvillage_loss2/classifier_plantvillage_0_split_0
I0403 16:16:41.161684 20899 net.cpp:399] loss2/classifier_plantvillage_loss2/classifier_plantvillage_0_split -> loss2/classifier_plantvillage_loss2/classifier_plantvillage_0_split_1
I0403 16:16:41.161705 20899 net.cpp:399] loss2/classifier_plantvillage_loss2/classifier_plantvillage_0_split -> loss2/classifier_plantvillage_loss2/classifier_plantvillage_0_split_2
I0403 16:16:41.161783 20899 net.cpp:141] Setting up loss2/classifier_plantvillage_loss2/classifier_plantvillage_0_split
I0403 16:16:41.161806 20899 net.cpp:148] Top shape: 24 38 (912)
I0403 16:16:41.161823 20899 net.cpp:148] Top shape: 24 38 (912)
I0403 16:16:41.161839 20899 net.cpp:148] Top shape: 24 38 (912)
I0403 16:16:41.161852 20899 net.cpp:156] Memory required for data: 1208432160
I0403 16:16:41.161866 20899 layer_factory.hpp:77] Creating layer inception_4e/1x1
I0403 16:16:41.161890 20899 net.cpp:91] Creating Layer inception_4e/1x1
I0403 16:16:41.161907 20899 net.cpp:425] inception_4e/1x1 <- inception_4d/output_inception_4d/output_0_split_1
I0403 16:16:41.161926 20899 net.cpp:399] inception_4e/1x1 -> inception_4e/1x1
I0403 16:16:41.163821 20899 net.cpp:141] Setting up inception_4e/1x1
I0403 16:16:41.163851 20899 net.cpp:148] Top shape: 24 256 14 14 (1204224)
I0403 16:16:41.163868 20899 net.cpp:156] Memory required for data: 1213249056
I0403 16:16:41.163887 20899 layer_factory.hpp:77] Creating layer inception_4e/relu_1x1
I0403 16:16:41.163904 20899 net.cpp:91] Creating Layer inception_4e/relu_1x1
I0403 16:16:41.163920 20899 net.cpp:425] inception_4e/relu_1x1 <- inception_4e/1x1
I0403 16:16:41.163938 20899 net.cpp:386] inception_4e/relu_1x1 -> inception_4e/1x1 (in-place)
I0403 16:16:41.164244 20899 net.cpp:141] Setting up inception_4e/relu_1x1
I0403 16:16:41.164273 20899 net.cpp:148] Top shape: 24 256 14 14 (1204224)
I0403 16:16:41.164288 20899 net.cpp:156] Memory required for data: 1218065952
I0403 16:16:41.164304 20899 layer_factory.hpp:77] Creating layer inception_4e/3x3_reduce
I0403 16:16:41.164326 20899 net.cpp:91] Creating Layer inception_4e/3x3_reduce
I0403 16:16:41.164343 20899 net.cpp:425] inception_4e/3x3_reduce <- inception_4d/output_inception_4d/output_0_split_2
I0403 16:16:41.164363 20899 net.cpp:399] inception_4e/3x3_reduce -> inception_4e/3x3_reduce
I0403 16:16:41.166510 20899 net.cpp:141] Setting up inception_4e/3x3_reduce
I0403 16:16:41.166538 20899 net.cpp:148] Top shape: 24 160 14 14 (752640)
I0403 16:16:41.166553 20899 net.cpp:156] Memory required for data: 1221076512
I0403 16:16:41.166573 20899 layer_factory.hpp:77] Creating layer inception_4e/relu_3x3_reduce
I0403 16:16:41.166594 20899 net.cpp:91] Creating Layer inception_4e/relu_3x3_reduce
I0403 16:16:41.166610 20899 net.cpp:425] inception_4e/relu_3x3_reduce <- inception_4e/3x3_reduce
I0403 16:16:41.166627 20899 net.cpp:386] inception_4e/relu_3x3_reduce -> inception_4e/3x3_reduce (in-place)
I0403 16:16:41.166815 20899 net.cpp:141] Setting up inception_4e/relu_3x3_reduce
I0403 16:16:41.166842 20899 net.cpp:148] Top shape: 24 160 14 14 (752640)
I0403 16:16:41.166858 20899 net.cpp:156] Memory required for data: 1224087072
I0403 16:16:41.166873 20899 layer_factory.hpp:77] Creating layer inception_4e/3x3
I0403 16:16:41.166896 20899 net.cpp:91] Creating Layer inception_4e/3x3
I0403 16:16:41.166913 20899 net.cpp:425] inception_4e/3x3 <- inception_4e/3x3_reduce
I0403 16:16:41.166932 20899 net.cpp:399] inception_4e/3x3 -> inception_4e/3x3
I0403 16:16:41.171988 20899 net.cpp:141] Setting up inception_4e/3x3
I0403 16:16:41.172030 20899 net.cpp:148] Top shape: 24 320 14 14 (1505280)
I0403 16:16:41.172046 20899 net.cpp:156] Memory required for data: 1230108192
I0403 16:16:41.172065 20899 layer_factory.hpp:77] Creating layer inception_4e/relu_3x3
I0403 16:16:41.172082 20899 net.cpp:91] Creating Layer inception_4e/relu_3x3
I0403 16:16:41.172098 20899 net.cpp:425] inception_4e/relu_3x3 <- inception_4e/3x3
I0403 16:16:41.172117 20899 net.cpp:386] inception_4e/relu_3x3 -> inception_4e/3x3 (in-place)
I0403 16:16:41.172415 20899 net.cpp:141] Setting up inception_4e/relu_3x3
I0403 16:16:41.172440 20899 net.cpp:148] Top shape: 24 320 14 14 (1505280)
I0403 16:16:41.172454 20899 net.cpp:156] Memory required for data: 1236129312
I0403 16:16:41.172469 20899 layer_factory.hpp:77] Creating layer inception_4e/5x5_reduce
I0403 16:16:41.172492 20899 net.cpp:91] Creating Layer inception_4e/5x5_reduce
I0403 16:16:41.172510 20899 net.cpp:425] inception_4e/5x5_reduce <- inception_4d/output_inception_4d/output_0_split_3
I0403 16:16:41.172531 20899 net.cpp:399] inception_4e/5x5_reduce -> inception_4e/5x5_reduce
I0403 16:16:41.173579 20899 net.cpp:141] Setting up inception_4e/5x5_reduce
I0403 16:16:41.173605 20899 net.cpp:148] Top shape: 24 32 14 14 (150528)
I0403 16:16:41.173624 20899 net.cpp:156] Memory required for data: 1236731424
I0403 16:16:41.173641 20899 layer_factory.hpp:77] Creating layer inception_4e/relu_5x5_reduce
I0403 16:16:41.173658 20899 net.cpp:91] Creating Layer inception_4e/relu_5x5_reduce
I0403 16:16:41.173674 20899 net.cpp:425] inception_4e/relu_5x5_reduce <- inception_4e/5x5_reduce
I0403 16:16:41.173691 20899 net.cpp:386] inception_4e/relu_5x5_reduce -> inception_4e/5x5_reduce (in-place)
I0403 16:16:41.173985 20899 net.cpp:141] Setting up inception_4e/relu_5x5_reduce
I0403 16:16:41.174010 20899 net.cpp:148] Top shape: 24 32 14 14 (150528)
I0403 16:16:41.174028 20899 net.cpp:156] Memory required for data: 1237333536
I0403 16:16:41.174043 20899 layer_factory.hpp:77] Creating layer inception_4e/5x5
I0403 16:16:41.174082 20899 net.cpp:91] Creating Layer inception_4e/5x5
I0403 16:16:41.174099 20899 net.cpp:425] inception_4e/5x5 <- inception_4e/5x5_reduce
I0403 16:16:41.174120 20899 net.cpp:399] inception_4e/5x5 -> inception_4e/5x5
I0403 16:16:41.176005 20899 net.cpp:141] Setting up inception_4e/5x5
I0403 16:16:41.176033 20899 net.cpp:148] Top shape: 24 128 14 14 (602112)
I0403 16:16:41.176048 20899 net.cpp:156] Memory required for data: 1239741984
I0403 16:16:41.176066 20899 layer_factory.hpp:77] Creating layer inception_4e/relu_5x5
I0403 16:16:41.176086 20899 net.cpp:91] Creating Layer inception_4e/relu_5x5
I0403 16:16:41.176102 20899 net.cpp:425] inception_4e/relu_5x5 <- inception_4e/5x5
I0403 16:16:41.176120 20899 net.cpp:386] inception_4e/relu_5x5 -> inception_4e/5x5 (in-place)
I0403 16:16:41.176316 20899 net.cpp:141] Setting up inception_4e/relu_5x5
I0403 16:16:41.176339 20899 net.cpp:148] Top shape: 24 128 14 14 (602112)
I0403 16:16:41.176354 20899 net.cpp:156] Memory required for data: 1242150432
I0403 16:16:41.176368 20899 layer_factory.hpp:77] Creating layer inception_4e/pool
I0403 16:16:41.176388 20899 net.cpp:91] Creating Layer inception_4e/pool
I0403 16:16:41.176405 20899 net.cpp:425] inception_4e/pool <- inception_4d/output_inception_4d/output_0_split_4
I0403 16:16:41.176422 20899 net.cpp:399] inception_4e/pool -> inception_4e/pool
I0403 16:16:41.176494 20899 net.cpp:141] Setting up inception_4e/pool
I0403 16:16:41.176517 20899 net.cpp:148] Top shape: 24 528 14 14 (2483712)
I0403 16:16:41.176532 20899 net.cpp:156] Memory required for data: 1252085280
I0403 16:16:41.176545 20899 layer_factory.hpp:77] Creating layer inception_4e/pool_proj
I0403 16:16:41.176568 20899 net.cpp:91] Creating Layer inception_4e/pool_proj
I0403 16:16:41.176584 20899 net.cpp:425] inception_4e/pool_proj <- inception_4e/pool
I0403 16:16:41.176604 20899 net.cpp:399] inception_4e/pool_proj -> inception_4e/pool_proj
I0403 16:16:41.178079 20899 net.cpp:141] Setting up inception_4e/pool_proj
I0403 16:16:41.178107 20899 net.cpp:148] Top shape: 24 128 14 14 (602112)
I0403 16:16:41.178134 20899 net.cpp:156] Memory required for data: 1254493728
I0403 16:16:41.178153 20899 layer_factory.hpp:77] Creating layer inception_4e/relu_pool_proj
I0403 16:16:41.178174 20899 net.cpp:91] Creating Layer inception_4e/relu_pool_proj
I0403 16:16:41.178189 20899 net.cpp:425] inception_4e/relu_pool_proj <- inception_4e/pool_proj
I0403 16:16:41.178206 20899 net.cpp:386] inception_4e/relu_pool_proj -> inception_4e/pool_proj (in-place)
I0403 16:16:41.178493 20899 net.cpp:141] Setting up inception_4e/relu_pool_proj
I0403 16:16:41.178517 20899 net.cpp:148] Top shape: 24 128 14 14 (602112)
I0403 16:16:41.178532 20899 net.cpp:156] Memory required for data: 1256902176
I0403 16:16:41.178546 20899 layer_factory.hpp:77] Creating layer inception_4e/output
I0403 16:16:41.178563 20899 net.cpp:91] Creating Layer inception_4e/output
I0403 16:16:41.178578 20899 net.cpp:425] inception_4e/output <- inception_4e/1x1
I0403 16:16:41.178594 20899 net.cpp:425] inception_4e/output <- inception_4e/3x3
I0403 16:16:41.178611 20899 net.cpp:425] inception_4e/output <- inception_4e/5x5
I0403 16:16:41.178625 20899 net.cpp:425] inception_4e/output <- inception_4e/pool_proj
I0403 16:16:41.178643 20899 net.cpp:399] inception_4e/output -> inception_4e/output
I0403 16:16:41.178692 20899 net.cpp:141] Setting up inception_4e/output
I0403 16:16:41.178717 20899 net.cpp:148] Top shape: 24 832 14 14 (3913728)
I0403 16:16:41.178732 20899 net.cpp:156] Memory required for data: 1272557088
I0403 16:16:41.178747 20899 layer_factory.hpp:77] Creating layer pool4/3x3_s2
I0403 16:16:41.178764 20899 net.cpp:91] Creating Layer pool4/3x3_s2
I0403 16:16:41.178779 20899 net.cpp:425] pool4/3x3_s2 <- inception_4e/output
I0403 16:16:41.178800 20899 net.cpp:399] pool4/3x3_s2 -> pool4/3x3_s2
I0403 16:16:41.178864 20899 net.cpp:141] Setting up pool4/3x3_s2
I0403 16:16:41.178887 20899 net.cpp:148] Top shape: 24 832 7 7 (978432)
I0403 16:16:41.178902 20899 net.cpp:156] Memory required for data: 1276470816
I0403 16:16:41.178916 20899 layer_factory.hpp:77] Creating layer pool4/3x3_s2_pool4/3x3_s2_0_split
I0403 16:16:41.178936 20899 net.cpp:91] Creating Layer pool4/3x3_s2_pool4/3x3_s2_0_split
I0403 16:16:41.178951 20899 net.cpp:425] pool4/3x3_s2_pool4/3x3_s2_0_split <- pool4/3x3_s2
I0403 16:16:41.178980 20899 net.cpp:399] pool4/3x3_s2_pool4/3x3_s2_0_split -> pool4/3x3_s2_pool4/3x3_s2_0_split_0
I0403 16:16:41.179000 20899 net.cpp:399] pool4/3x3_s2_pool4/3x3_s2_0_split -> pool4/3x3_s2_pool4/3x3_s2_0_split_1
I0403 16:16:41.179020 20899 net.cpp:399] pool4/3x3_s2_pool4/3x3_s2_0_split -> pool4/3x3_s2_pool4/3x3_s2_0_split_2
I0403 16:16:41.179042 20899 net.cpp:399] pool4/3x3_s2_pool4/3x3_s2_0_split -> pool4/3x3_s2_pool4/3x3_s2_0_split_3
I0403 16:16:41.179133 20899 net.cpp:141] Setting up pool4/3x3_s2_pool4/3x3_s2_0_split
I0403 16:16:41.179155 20899 net.cpp:148] Top shape: 24 832 7 7 (978432)
I0403 16:16:41.179172 20899 net.cpp:148] Top shape: 24 832 7 7 (978432)
I0403 16:16:41.179186 20899 net.cpp:148] Top shape: 24 832 7 7 (978432)
I0403 16:16:41.179203 20899 net.cpp:148] Top shape: 24 832 7 7 (978432)
I0403 16:16:41.179215 20899 net.cpp:156] Memory required for data: 1292125728
I0403 16:16:41.179229 20899 layer_factory.hpp:77] Creating layer inception_5a/1x1
I0403 16:16:41.179252 20899 net.cpp:91] Creating Layer inception_5a/1x1
I0403 16:16:41.179268 20899 net.cpp:425] inception_5a/1x1 <- pool4/3x3_s2_pool4/3x3_s2_0_split_0
I0403 16:16:41.179288 20899 net.cpp:399] inception_5a/1x1 -> inception_5a/1x1
I0403 16:16:41.182129 20899 net.cpp:141] Setting up inception_5a/1x1
I0403 16:16:41.182159 20899 net.cpp:148] Top shape: 24 256 7 7 (301056)
I0403 16:16:41.182174 20899 net.cpp:156] Memory required for data: 1293329952
I0403 16:16:41.182193 20899 layer_factory.hpp:77] Creating layer inception_5a/relu_1x1
I0403 16:16:41.182214 20899 net.cpp:91] Creating Layer inception_5a/relu_1x1
I0403 16:16:41.182229 20899 net.cpp:425] inception_5a/relu_1x1 <- inception_5a/1x1
I0403 16:16:41.182248 20899 net.cpp:386] inception_5a/relu_1x1 -> inception_5a/1x1 (in-place)
I0403 16:16:41.182564 20899 net.cpp:141] Setting up inception_5a/relu_1x1
I0403 16:16:41.182590 20899 net.cpp:148] Top shape: 24 256 7 7 (301056)
I0403 16:16:41.182605 20899 net.cpp:156] Memory required for data: 1294534176
I0403 16:16:41.182621 20899 layer_factory.hpp:77] Creating layer inception_5a/3x3_reduce
I0403 16:16:41.182642 20899 net.cpp:91] Creating Layer inception_5a/3x3_reduce
I0403 16:16:41.182660 20899 net.cpp:425] inception_5a/3x3_reduce <- pool4/3x3_s2_pool4/3x3_s2_0_split_1
I0403 16:16:41.182682 20899 net.cpp:399] inception_5a/3x3_reduce -> inception_5a/3x3_reduce
I0403 16:16:41.185116 20899 net.cpp:141] Setting up inception_5a/3x3_reduce
I0403 16:16:41.185142 20899 net.cpp:148] Top shape: 24 160 7 7 (188160)
I0403 16:16:41.185158 20899 net.cpp:156] Memory required for data: 1295286816
I0403 16:16:41.185175 20899 layer_factory.hpp:77] Creating layer inception_5a/relu_3x3_reduce
I0403 16:16:41.185194 20899 net.cpp:91] Creating Layer inception_5a/relu_3x3_reduce
I0403 16:16:41.185209 20899 net.cpp:425] inception_5a/relu_3x3_reduce <- inception_5a/3x3_reduce
I0403 16:16:41.185228 20899 net.cpp:386] inception_5a/relu_3x3_reduce -> inception_5a/3x3_reduce (in-place)
I0403 16:16:41.185415 20899 net.cpp:141] Setting up inception_5a/relu_3x3_reduce
I0403 16:16:41.185439 20899 net.cpp:148] Top shape: 24 160 7 7 (188160)
I0403 16:16:41.185453 20899 net.cpp:156] Memory required for data: 1296039456
I0403 16:16:41.185467 20899 layer_factory.hpp:77] Creating layer inception_5a/3x3
I0403 16:16:41.185488 20899 net.cpp:91] Creating Layer inception_5a/3x3
I0403 16:16:41.185504 20899 net.cpp:425] inception_5a/3x3 <- inception_5a/3x3_reduce
I0403 16:16:41.185526 20899 net.cpp:399] inception_5a/3x3 -> inception_5a/3x3
I0403 16:16:41.190454 20899 net.cpp:141] Setting up inception_5a/3x3
I0403 16:16:41.190481 20899 net.cpp:148] Top shape: 24 320 7 7 (376320)
I0403 16:16:41.190497 20899 net.cpp:156] Memory required for data: 1297544736
I0403 16:16:41.190515 20899 layer_factory.hpp:77] Creating layer inception_5a/relu_3x3
I0403 16:16:41.190536 20899 net.cpp:91] Creating Layer inception_5a/relu_3x3
I0403 16:16:41.190552 20899 net.cpp:425] inception_5a/relu_3x3 <- inception_5a/3x3
I0403 16:16:41.190569 20899 net.cpp:386] inception_5a/relu_3x3 -> inception_5a/3x3 (in-place)
I0403 16:16:41.190858 20899 net.cpp:141] Setting up inception_5a/relu_3x3
I0403 16:16:41.190883 20899 net.cpp:148] Top shape: 24 320 7 7 (376320)
I0403 16:16:41.190898 20899 net.cpp:156] Memory required for data: 1299050016
I0403 16:16:41.190912 20899 layer_factory.hpp:77] Creating layer inception_5a/5x5_reduce
I0403 16:16:41.190934 20899 net.cpp:91] Creating Layer inception_5a/5x5_reduce
I0403 16:16:41.190950 20899 net.cpp:425] inception_5a/5x5_reduce <- pool4/3x3_s2_pool4/3x3_s2_0_split_2
I0403 16:16:41.190978 20899 net.cpp:399] inception_5a/5x5_reduce -> inception_5a/5x5_reduce
I0403 16:16:41.192126 20899 net.cpp:141] Setting up inception_5a/5x5_reduce
I0403 16:16:41.192152 20899 net.cpp:148] Top shape: 24 32 7 7 (37632)
I0403 16:16:41.192167 20899 net.cpp:156] Memory required for data: 1299200544
I0403 16:16:41.192185 20899 layer_factory.hpp:77] Creating layer inception_5a/relu_5x5_reduce
I0403 16:16:41.192204 20899 net.cpp:91] Creating Layer inception_5a/relu_5x5_reduce
I0403 16:16:41.192221 20899 net.cpp:425] inception_5a/relu_5x5_reduce <- inception_5a/5x5_reduce
I0403 16:16:41.192239 20899 net.cpp:386] inception_5a/relu_5x5_reduce -> inception_5a/5x5_reduce (in-place)
I0403 16:16:41.192533 20899 net.cpp:141] Setting up inception_5a/relu_5x5_reduce
I0403 16:16:41.192559 20899 net.cpp:148] Top shape: 24 32 7 7 (37632)
I0403 16:16:41.192574 20899 net.cpp:156] Memory required for data: 1299351072
I0403 16:16:41.192587 20899 layer_factory.hpp:77] Creating layer inception_5a/5x5
I0403 16:16:41.192610 20899 net.cpp:91] Creating Layer inception_5a/5x5
I0403 16:16:41.192627 20899 net.cpp:425] inception_5a/5x5 <- inception_5a/5x5_reduce
I0403 16:16:41.192646 20899 net.cpp:399] inception_5a/5x5 -> inception_5a/5x5
I0403 16:16:41.194324 20899 net.cpp:141] Setting up inception_5a/5x5
I0403 16:16:41.194361 20899 net.cpp:148] Top shape: 24 128 7 7 (150528)
I0403 16:16:41.194377 20899 net.cpp:156] Memory required for data: 1299953184
I0403 16:16:41.194396 20899 layer_factory.hpp:77] Creating layer inception_5a/relu_5x5
I0403 16:16:41.194416 20899 net.cpp:91] Creating Layer inception_5a/relu_5x5
I0403 16:16:41.194432 20899 net.cpp:425] inception_5a/relu_5x5 <- inception_5a/5x5
I0403 16:16:41.194448 20899 net.cpp:386] inception_5a/relu_5x5 -> inception_5a/5x5 (in-place)
I0403 16:16:41.194638 20899 net.cpp:141] Setting up inception_5a/relu_5x5
I0403 16:16:41.194663 20899 net.cpp:148] Top shape: 24 128 7 7 (150528)
I0403 16:16:41.194677 20899 net.cpp:156] Memory required for data: 1300555296
I0403 16:16:41.194691 20899 layer_factory.hpp:77] Creating layer inception_5a/pool
I0403 16:16:41.194711 20899 net.cpp:91] Creating Layer inception_5a/pool
I0403 16:16:41.194727 20899 net.cpp:425] inception_5a/pool <- pool4/3x3_s2_pool4/3x3_s2_0_split_3
I0403 16:16:41.194747 20899 net.cpp:399] inception_5a/pool -> inception_5a/pool
I0403 16:16:41.194815 20899 net.cpp:141] Setting up inception_5a/pool
I0403 16:16:41.194839 20899 net.cpp:148] Top shape: 24 832 7 7 (978432)
I0403 16:16:41.194852 20899 net.cpp:156] Memory required for data: 1304469024
I0403 16:16:41.194866 20899 layer_factory.hpp:77] Creating layer inception_5a/pool_proj
I0403 16:16:41.194887 20899 net.cpp:91] Creating Layer inception_5a/pool_proj
I0403 16:16:41.194905 20899 net.cpp:425] inception_5a/pool_proj <- inception_5a/pool
I0403 16:16:41.194924 20899 net.cpp:399] inception_5a/pool_proj -> inception_5a/pool_proj
I0403 16:16:41.197154 20899 net.cpp:141] Setting up inception_5a/pool_proj
I0403 16:16:41.197182 20899 net.cpp:148] Top shape: 24 128 7 7 (150528)
I0403 16:16:41.197197 20899 net.cpp:156] Memory required for data: 1305071136
I0403 16:16:41.197227 20899 layer_factory.hpp:77] Creating layer inception_5a/relu_pool_proj
I0403 16:16:41.197245 20899 net.cpp:91] Creating Layer inception_5a/relu_pool_proj
I0403 16:16:41.197263 20899 net.cpp:425] inception_5a/relu_pool_proj <- inception_5a/pool_proj
I0403 16:16:41.197281 20899 net.cpp:386] inception_5a/relu_pool_proj -> inception_5a/pool_proj (in-place)
I0403 16:16:41.197588 20899 net.cpp:141] Setting up inception_5a/relu_pool_proj
I0403 16:16:41.197613 20899 net.cpp:148] Top shape: 24 128 7 7 (150528)
I0403 16:16:41.197628 20899 net.cpp:156] Memory required for data: 1305673248
I0403 16:16:41.197643 20899 layer_factory.hpp:77] Creating layer inception_5a/output
I0403 16:16:41.197659 20899 net.cpp:91] Creating Layer inception_5a/output
I0403 16:16:41.197674 20899 net.cpp:425] inception_5a/output <- inception_5a/1x1
I0403 16:16:41.197690 20899 net.cpp:425] inception_5a/output <- inception_5a/3x3
I0403 16:16:41.197706 20899 net.cpp:425] inception_5a/output <- inception_5a/5x5
I0403 16:16:41.197722 20899 net.cpp:425] inception_5a/output <- inception_5a/pool_proj
I0403 16:16:41.197752 20899 net.cpp:399] inception_5a/output -> inception_5a/output
I0403 16:16:41.197803 20899 net.cpp:141] Setting up inception_5a/output
I0403 16:16:41.197829 20899 net.cpp:148] Top shape: 24 832 7 7 (978432)
I0403 16:16:41.197844 20899 net.cpp:156] Memory required for data: 1309586976
I0403 16:16:41.197860 20899 layer_factory.hpp:77] Creating layer inception_5a/output_inception_5a/output_0_split
I0403 16:16:41.197876 20899 net.cpp:91] Creating Layer inception_5a/output_inception_5a/output_0_split
I0403 16:16:41.197892 20899 net.cpp:425] inception_5a/output_inception_5a/output_0_split <- inception_5a/output
I0403 16:16:41.197911 20899 net.cpp:399] inception_5a/output_inception_5a/output_0_split -> inception_5a/output_inception_5a/output_0_split_0
I0403 16:16:41.197932 20899 net.cpp:399] inception_5a/output_inception_5a/output_0_split -> inception_5a/output_inception_5a/output_0_split_1
I0403 16:16:41.197958 20899 net.cpp:399] inception_5a/output_inception_5a/output_0_split -> inception_5a/output_inception_5a/output_0_split_2
I0403 16:16:41.197980 20899 net.cpp:399] inception_5a/output_inception_5a/output_0_split -> inception_5a/output_inception_5a/output_0_split_3
I0403 16:16:41.198107 20899 net.cpp:141] Setting up inception_5a/output_inception_5a/output_0_split
I0403 16:16:41.198130 20899 net.cpp:148] Top shape: 24 832 7 7 (978432)
I0403 16:16:41.198145 20899 net.cpp:148] Top shape: 24 832 7 7 (978432)
I0403 16:16:41.198160 20899 net.cpp:148] Top shape: 24 832 7 7 (978432)
I0403 16:16:41.198176 20899 net.cpp:148] Top shape: 24 832 7 7 (978432)
I0403 16:16:41.198189 20899 net.cpp:156] Memory required for data: 1325241888
I0403 16:16:41.198204 20899 layer_factory.hpp:77] Creating layer inception_5b/1x1
I0403 16:16:41.198226 20899 net.cpp:91] Creating Layer inception_5b/1x1
I0403 16:16:41.198246 20899 net.cpp:425] inception_5b/1x1 <- inception_5a/output_inception_5a/output_0_split_0
I0403 16:16:41.198263 20899 net.cpp:399] inception_5b/1x1 -> inception_5b/1x1
I0403 16:16:41.201967 20899 net.cpp:141] Setting up inception_5b/1x1
I0403 16:16:41.201995 20899 net.cpp:148] Top shape: 24 384 7 7 (451584)
I0403 16:16:41.202013 20899 net.cpp:156] Memory required for data: 1327048224
I0403 16:16:41.202030 20899 layer_factory.hpp:77] Creating layer inception_5b/relu_1x1
I0403 16:16:41.202049 20899 net.cpp:91] Creating Layer inception_5b/relu_1x1
I0403 16:16:41.202065 20899 net.cpp:425] inception_5b/relu_1x1 <- inception_5b/1x1
I0403 16:16:41.202085 20899 net.cpp:386] inception_5b/relu_1x1 -> inception_5b/1x1 (in-place)
I0403 16:16:41.202383 20899 net.cpp:141] Setting up inception_5b/relu_1x1
I0403 16:16:41.202409 20899 net.cpp:148] Top shape: 24 384 7 7 (451584)
I0403 16:16:41.202424 20899 net.cpp:156] Memory required for data: 1328854560
I0403 16:16:41.202438 20899 layer_factory.hpp:77] Creating layer inception_5b/3x3_reduce
I0403 16:16:41.202461 20899 net.cpp:91] Creating Layer inception_5b/3x3_reduce
I0403 16:16:41.202478 20899 net.cpp:425] inception_5b/3x3_reduce <- inception_5a/output_inception_5a/output_0_split_1
I0403 16:16:41.202500 20899 net.cpp:399] inception_5b/3x3_reduce -> inception_5b/3x3_reduce
I0403 16:16:41.205188 20899 net.cpp:141] Setting up inception_5b/3x3_reduce
I0403 16:16:41.205217 20899 net.cpp:148] Top shape: 24 192 7 7 (225792)
I0403 16:16:41.205234 20899 net.cpp:156] Memory required for data: 1329757728
I0403 16:16:41.205251 20899 layer_factory.hpp:77] Creating layer inception_5b/relu_3x3_reduce
I0403 16:16:41.205270 20899 net.cpp:91] Creating Layer inception_5b/relu_3x3_reduce
I0403 16:16:41.205286 20899 net.cpp:425] inception_5b/relu_3x3_reduce <- inception_5b/3x3_reduce
I0403 16:16:41.205307 20899 net.cpp:386] inception_5b/relu_3x3_reduce -> inception_5b/3x3_reduce (in-place)
I0403 16:16:41.205498 20899 net.cpp:141] Setting up inception_5b/relu_3x3_reduce
I0403 16:16:41.205523 20899 net.cpp:148] Top shape: 24 192 7 7 (225792)
I0403 16:16:41.205538 20899 net.cpp:156] Memory required for data: 1330660896
I0403 16:16:41.205552 20899 layer_factory.hpp:77] Creating layer inception_5b/3x3
I0403 16:16:41.205574 20899 net.cpp:91] Creating Layer inception_5b/3x3
I0403 16:16:41.205592 20899 net.cpp:425] inception_5b/3x3 <- inception_5b/3x3_reduce
I0403 16:16:41.205613 20899 net.cpp:399] inception_5b/3x3 -> inception_5b/3x3
I0403 16:16:41.212318 20899 net.cpp:141] Setting up inception_5b/3x3
I0403 16:16:41.212348 20899 net.cpp:148] Top shape: 24 384 7 7 (451584)
I0403 16:16:41.212363 20899 net.cpp:156] Memory required for data: 1332467232
I0403 16:16:41.212383 20899 layer_factory.hpp:77] Creating layer inception_5b/relu_3x3
I0403 16:16:41.212400 20899 net.cpp:91] Creating Layer inception_5b/relu_3x3
I0403 16:16:41.212416 20899 net.cpp:425] inception_5b/relu_3x3 <- inception_5b/3x3
I0403 16:16:41.212435 20899 net.cpp:386] inception_5b/relu_3x3 -> inception_5b/3x3 (in-place)
I0403 16:16:41.212743 20899 net.cpp:141] Setting up inception_5b/relu_3x3
I0403 16:16:41.212767 20899 net.cpp:148] Top shape: 24 384 7 7 (451584)
I0403 16:16:41.212782 20899 net.cpp:156] Memory required for data: 1334273568
I0403 16:16:41.212797 20899 layer_factory.hpp:77] Creating layer inception_5b/5x5_reduce
I0403 16:16:41.212836 20899 net.cpp:91] Creating Layer inception_5b/5x5_reduce
I0403 16:16:41.212854 20899 net.cpp:425] inception_5b/5x5_reduce <- inception_5a/output_inception_5a/output_0_split_2
I0403 16:16:41.212877 20899 net.cpp:399] inception_5b/5x5_reduce -> inception_5b/5x5_reduce
I0403 16:16:41.214202 20899 net.cpp:141] Setting up inception_5b/5x5_reduce
I0403 16:16:41.214231 20899 net.cpp:148] Top shape: 24 48 7 7 (56448)
I0403 16:16:41.214247 20899 net.cpp:156] Memory required for data: 1334499360
I0403 16:16:41.214267 20899 layer_factory.hpp:77] Creating layer inception_5b/relu_5x5_reduce
I0403 16:16:41.214287 20899 net.cpp:91] Creating Layer inception_5b/relu_5x5_reduce
I0403 16:16:41.214303 20899 net.cpp:425] inception_5b/relu_5x5_reduce <- inception_5b/5x5_reduce
I0403 16:16:41.214320 20899 net.cpp:386] inception_5b/relu_5x5_reduce -> inception_5b/5x5_reduce (in-place)
I0403 16:16:41.214697 20899 net.cpp:141] Setting up inception_5b/relu_5x5_reduce
I0403 16:16:41.214723 20899 net.cpp:148] Top shape: 24 48 7 7 (56448)
I0403 16:16:41.214740 20899 net.cpp:156] Memory required for data: 1334725152
I0403 16:16:41.214754 20899 layer_factory.hpp:77] Creating layer inception_5b/5x5
I0403 16:16:41.214774 20899 net.cpp:91] Creating Layer inception_5b/5x5
I0403 16:16:41.214792 20899 net.cpp:425] inception_5b/5x5 <- inception_5b/5x5_reduce
I0403 16:16:41.214810 20899 net.cpp:399] inception_5b/5x5 -> inception_5b/5x5
I0403 16:16:41.216904 20899 net.cpp:141] Setting up inception_5b/5x5
I0403 16:16:41.216933 20899 net.cpp:148] Top shape: 24 128 7 7 (150528)
I0403 16:16:41.216948 20899 net.cpp:156] Memory required for data: 1335327264
I0403 16:16:41.216970 20899 layer_factory.hpp:77] Creating layer inception_5b/relu_5x5
I0403 16:16:41.216991 20899 net.cpp:91] Creating Layer inception_5b/relu_5x5
I0403 16:16:41.217008 20899 net.cpp:425] inception_5b/relu_5x5 <- inception_5b/5x5
I0403 16:16:41.217026 20899 net.cpp:386] inception_5b/relu_5x5 -> inception_5b/5x5 (in-place)
I0403 16:16:41.217224 20899 net.cpp:141] Setting up inception_5b/relu_5x5
I0403 16:16:41.217252 20899 net.cpp:148] Top shape: 24 128 7 7 (150528)
I0403 16:16:41.217268 20899 net.cpp:156] Memory required for data: 1335929376
I0403 16:16:41.217283 20899 layer_factory.hpp:77] Creating layer inception_5b/pool
I0403 16:16:41.217300 20899 net.cpp:91] Creating Layer inception_5b/pool
I0403 16:16:41.217316 20899 net.cpp:425] inception_5b/pool <- inception_5a/output_inception_5a/output_0_split_3
I0403 16:16:41.217335 20899 net.cpp:399] inception_5b/pool -> inception_5b/pool
I0403 16:16:41.217409 20899 net.cpp:141] Setting up inception_5b/pool
I0403 16:16:41.217432 20899 net.cpp:148] Top shape: 24 832 7 7 (978432)
I0403 16:16:41.217447 20899 net.cpp:156] Memory required for data: 1339843104
I0403 16:16:41.217461 20899 layer_factory.hpp:77] Creating layer inception_5b/pool_proj
I0403 16:16:41.217484 20899 net.cpp:91] Creating Layer inception_5b/pool_proj
I0403 16:16:41.217502 20899 net.cpp:425] inception_5b/pool_proj <- inception_5b/pool
I0403 16:16:41.217524 20899 net.cpp:399] inception_5b/pool_proj -> inception_5b/pool_proj
I0403 16:16:41.219892 20899 net.cpp:141] Setting up inception_5b/pool_proj
I0403 16:16:41.219921 20899 net.cpp:148] Top shape: 24 128 7 7 (150528)
I0403 16:16:41.219938 20899 net.cpp:156] Memory required for data: 1340445216
I0403 16:16:41.219961 20899 layer_factory.hpp:77] Creating layer inception_5b/relu_pool_proj
I0403 16:16:41.219985 20899 net.cpp:91] Creating Layer inception_5b/relu_pool_proj
I0403 16:16:41.220001 20899 net.cpp:425] inception_5b/relu_pool_proj <- inception_5b/pool_proj
I0403 16:16:41.220019 20899 net.cpp:386] inception_5b/relu_pool_proj -> inception_5b/pool_proj (in-place)
I0403 16:16:41.220330 20899 net.cpp:141] Setting up inception_5b/relu_pool_proj
I0403 16:16:41.220357 20899 net.cpp:148] Top shape: 24 128 7 7 (150528)
I0403 16:16:41.220372 20899 net.cpp:156] Memory required for data: 1341047328
I0403 16:16:41.220387 20899 layer_factory.hpp:77] Creating layer inception_5b/output
I0403 16:16:41.220405 20899 net.cpp:91] Creating Layer inception_5b/output
I0403 16:16:41.220438 20899 net.cpp:425] inception_5b/output <- inception_5b/1x1
I0403 16:16:41.220458 20899 net.cpp:425] inception_5b/output <- inception_5b/3x3
I0403 16:16:41.220475 20899 net.cpp:425] inception_5b/output <- inception_5b/5x5
I0403 16:16:41.220491 20899 net.cpp:425] inception_5b/output <- inception_5b/pool_proj
I0403 16:16:41.220510 20899 net.cpp:399] inception_5b/output -> inception_5b/output
I0403 16:16:41.220562 20899 net.cpp:141] Setting up inception_5b/output
I0403 16:16:41.220589 20899 net.cpp:148] Top shape: 24 1024 7 7 (1204224)
I0403 16:16:41.220605 20899 net.cpp:156] Memory required for data: 1345864224
I0403 16:16:41.220621 20899 layer_factory.hpp:77] Creating layer pool5/7x7_s1
I0403 16:16:41.220639 20899 net.cpp:91] Creating Layer pool5/7x7_s1
I0403 16:16:41.220655 20899 net.cpp:425] pool5/7x7_s1 <- inception_5b/output
I0403 16:16:41.220676 20899 net.cpp:399] pool5/7x7_s1 -> pool5/7x7_s1
I0403 16:16:41.220904 20899 net.cpp:141] Setting up pool5/7x7_s1
I0403 16:16:41.220930 20899 net.cpp:148] Top shape: 24 1024 1 1 (24576)
I0403 16:16:41.220947 20899 net.cpp:156] Memory required for data: 1345962528
I0403 16:16:41.220966 20899 layer_factory.hpp:77] Creating layer pool5/drop_7x7_s1
I0403 16:16:41.220988 20899 net.cpp:91] Creating Layer pool5/drop_7x7_s1
I0403 16:16:41.221006 20899 net.cpp:425] pool5/drop_7x7_s1 <- pool5/7x7_s1
I0403 16:16:41.221035 20899 net.cpp:386] pool5/drop_7x7_s1 -> pool5/7x7_s1 (in-place)
I0403 16:16:41.221101 20899 net.cpp:141] Setting up pool5/drop_7x7_s1
I0403 16:16:41.221124 20899 net.cpp:148] Top shape: 24 1024 1 1 (24576)
I0403 16:16:41.221138 20899 net.cpp:156] Memory required for data: 1346060832
I0403 16:16:41.221153 20899 layer_factory.hpp:77] Creating layer loss3/classifier_plantvillage
I0403 16:16:41.221173 20899 net.cpp:91] Creating Layer loss3/classifier_plantvillage
I0403 16:16:41.221189 20899 net.cpp:425] loss3/classifier_plantvillage <- pool5/7x7_s1
I0403 16:16:41.221210 20899 net.cpp:399] loss3/classifier_plantvillage -> loss3/classifier_plantvillage
I0403 16:16:41.221640 20899 net.cpp:141] Setting up loss3/classifier_plantvillage
I0403 16:16:41.221664 20899 net.cpp:148] Top shape: 24 38 (912)
I0403 16:16:41.221679 20899 net.cpp:156] Memory required for data: 1346064480
I0403 16:16:41.221698 20899 layer_factory.hpp:77] Creating layer loss3/classifier_plantvillage_loss3/classifier_plantvillage_0_split
I0403 16:16:41.221715 20899 net.cpp:91] Creating Layer loss3/classifier_plantvillage_loss3/classifier_plantvillage_0_split
I0403 16:16:41.221731 20899 net.cpp:425] loss3/classifier_plantvillage_loss3/classifier_plantvillage_0_split <- loss3/classifier_plantvillage
I0403 16:16:41.221751 20899 net.cpp:399] loss3/classifier_plantvillage_loss3/classifier_plantvillage_0_split -> loss3/classifier_plantvillage_loss3/classifier_plantvillage_0_split_0
I0403 16:16:41.221772 20899 net.cpp:399] loss3/classifier_plantvillage_loss3/classifier_plantvillage_0_split -> loss3/classifier_plantvillage_loss3/classifier_plantvillage_0_split_1
I0403 16:16:41.221792 20899 net.cpp:399] loss3/classifier_plantvillage_loss3/classifier_plantvillage_0_split -> loss3/classifier_plantvillage_loss3/classifier_plantvillage_0_split_2
I0403 16:16:41.221812 20899 net.cpp:399] loss3/classifier_plantvillage_loss3/classifier_plantvillage_0_split -> loss3/classifier_plantvillage_loss3/classifier_plantvillage_0_split_3
I0403 16:16:41.221916 20899 net.cpp:141] Setting up loss3/classifier_plantvillage_loss3/classifier_plantvillage_0_split
I0403 16:16:41.221940 20899 net.cpp:148] Top shape: 24 38 (912)
I0403 16:16:41.221959 20899 net.cpp:148] Top shape: 24 38 (912)
I0403 16:16:41.221976 20899 net.cpp:148] Top shape: 24 38 (912)
I0403 16:16:41.221992 20899 net.cpp:148] Top shape: 24 38 (912)
I0403 16:16:41.222007 20899 net.cpp:156] Memory required for data: 1346079072
I0403 16:16:41.222021 20899 layer_factory.hpp:77] Creating layer loss1/loss
I0403 16:16:41.222044 20899 net.cpp:91] Creating Layer loss1/loss
I0403 16:16:41.222062 20899 net.cpp:425] loss1/loss <- loss1/classifier_plantvillage_loss1/classifier_plantvillage_0_split_0
I0403 16:16:41.222093 20899 net.cpp:425] loss1/loss <- label_data_1_split_0
…
