…
I0403 16:10:29.247964 20798 net.cpp:313] The NetState phase (1) differed from the phase (0) specified by a rule in layer data
I0403 16:10:29.249173 20798 net.cpp:49] Initializing net from parameters: 
state {
  phase: TEST
}
layer {
  name: "data"
  type: "Data"
  top: "data"
  top: "label"
  include {
    phase: TEST
  }
  transform_param {
    mirror: false
    crop_size: 224
    mean_file: "/home/mohanty/data/final_dataset/lmdb/color-40-60/mean.binaryproto"
  }
  data_param {
    source: "/home/mohanty/data/final_dataset/lmdb/color-40-60/test_db"
    batch_size: 24
    backend: LMDB
  }
}
layer {
  name: "conv1/7x7_s2"
  type: "Convolution"
  bottom: "data"
  top: "conv1/7x7_s2"
  param {
    lr_mult: 1
    decay_mult: 1
  }
  param {
    lr_mult: 2
    decay_mult: 0
  }
  convolution_param {
    num_output: 64
    pad: 3
    kernel_size: 7
    stride: 2
    weight_filler {
      type: "xavier"
      std: 0.1
    }
    bias_filler {
      type: "constant"
      value: 0.2
    }
  }
}
layer {
  name: "conv1/relu_7x7"
  type: "ReLU"
  bottom: "conv1/7x7_s2"
  top: "conv1/7x7_s2"
}
layer {
  name: "pool1/3x3_s2"
  type: "Pooling"
  bottom: "conv1/7x7_s2"
  top: "pool1/3x3_s2"
  pooling_param {
    pool: MAX
    kernel_size: 3
    stride: 2
  }
}
layer {
  name: "pool1/norm1"
  type: "LRN"
  bottom: "pool1/3x3_s2"
  top: "pool1/norm1"
  lrn_param {
    local_size: 5
    alpha: 0.0001
    beta: 0.75
  }
}
layer {
  name: "conv2/3x3_reduce"
  type: "Convolution"
  bottom: "pool1/norm1"
  top: "conv2/3x3_reduce"
  param {
    lr_mult: 1
    decay_mult: 1
  }
  param {
    lr_mult: 2
    decay_mult: 0
  }
  convolution_param {
    num_output: 64
    kernel_size: 1
    weight_filler {
      type: "xavier"
      std: 0.1
    }
    bias_filler {
      type: "constant"
      value: 0.2
    }
  }
}
layer {
  name: "conv2/relu_3x3_reduce"
  type: "ReLU"
  bottom: "conv2/3x3_reduce"
  top: "conv2/3x3_reduce"
}
layer {
  name: "conv2/3x3"
  type: "Convolution"
  bottom: "conv2/3x3_reduce"
  top: "conv2/3x3"
  param {
    lr_mult: 1
    decay_mult: 1
  }
  param {
    lr_mult: 2
    decay_mult: 0
  }
  convolution_param {
    num_output: 192
    pad: 1
    kernel_size: 3
    weight_filler {
      type: "xavier"
      std: 0.03
    }
    bias_filler {
      type: "constant"
      value: 0.2
    }
  }
}
layer {
  name: "conv2/relu_3x3"
  type: "ReLU"
  bottom: "conv2/3x3"
  top: "conv2/3x3"
}
layer {
  name: "conv2/norm2"
  type: "LRN"
  bottom: "conv2/3x3"
  top: "conv2/norm2"
  lrn_param {
    local_size: 5
    alpha: 0.0001
    beta: 0.75
  }
}
layer {
  name: "pool2/3x3_s2"
  type: "Pooling"
  bottom: "conv2/norm2"
  top: "pool2/3x3_s2"
  pooling_param {
    pool: MAX
    kernel_size: 3
    stride: 2
  }
}
layer {
  name: "inception_3a/1x1"
  type: "Convolution"
  bottom: "pool2/3x3_s2"
  top: "inception_3a/1x1"
  param {
    lr_mult: 1
    decay_mult: 1
  }
  param {
    lr_mult: 2
    decay_mult: 0
  }
  convolution_param {
    num_output: 64
    kernel_size: 1
    weight_filler {
      type: "xavier"
      std: 0.03
    }
    bias_filler {
      type: "constant"
      value: 0.2
    }
  }
}
layer {
  name: "inception_3a/relu_1x1"
  type: "ReLU"
  bottom: "inception_3a/1x1"
  top: "inception_3a/1x1"
}
layer {
  name: "inception_3a/3x3_reduce"
  type: "Convolution"
  bottom: "pool2/3x3_s2"
  top: "inception_3a/3x3_reduce"
  param {
    lr_mult: 1
    decay_mult: 1
  }
  param {
    lr_mult: 2
    decay_mult: 0
  }
  convolution_param {
    num_output: 96
    kernel_size: 1
    weight_filler {
      type: "xavier"
      std: 0.09
    }
    bias_filler {
      type: "constant"
      value: 0.2
    }
  }
}
layer {
  name: "inception_3a/relu_3x3_reduce"
  type: "ReLU"
  bottom: "inception_3a/3x3_reduce"
  top: "inception_3a/3x3_reduce"
}
layer {
  name: "inception_3a/3x3"
  type: "Convolution"
  bottom: "inception_3a/3x3_reduce"
  top: "inception_3a/3x3"
  param {
    lr_mult: 1
    decay_mult: 1
  }
  param {
    lr_mult: 2
    decay_mult: 0
  }
  convolution_param {
    num_output: 128
    pad: 1
    kernel_size: 3
    weight_filler {
      type: "xavier"
      std: 0.03
    }
    bias_filler {
      type: "constant"
      value: 0.2
    }
  }
}
layer {
  name: "inception_3a/relu_3x3"
  type: "ReLU"
  bottom: "inception_3a/3x3"
  top: "inception_3a/3x3"
}
layer {
  name: "inception_3a/5x5_reduce"
  type: "Convolution"
  bottom: "pool2/3x3_s2"
  top: "inception_3a/5x5_reduce"
  param {
    lr_mult: 1
    decay_mult: 1
  }
  param {
    lr_mult: 2
    decay_mult: 0
  }
  convolution_param {
    num_output: 16
    kernel_size: 1
    weight_filler {
      type: "xavier"
      std: 0.2
    }
    bias_filler {
      type: "constant"
      value: 0.2
    }
  }
}
layer {
  name: "inception_3a/relu_5x5_reduce"
  type: "ReLU"
  bottom: "inception_3a/5x5_reduce"
  top: "inception_3a/5x5_reduce"
}
layer {
  name: "inception_3a/5x5"
  type: "Convolution"
  bottom: "inception_3a/5x5_reduce"
  top: "inception_3a/5x5"
  param {
    lr_mult: 1
    decay_mult: 1
  }
  param {
    lr_mult: 2
    decay_mult: 0
  }
  convolution_param {
    num_output: 32
    pad: 2
    kernel_size: 5
    weight_filler {
      type: "xavier"
      std: 0.03
    }
    bias_filler {
      type: "constant"
      value: 0.2
    }
  }
}
layer {
  name: "inception_3a/relu_5x5"
  type: "ReLU"
  bottom: "inception_3a/5x5"
  top: "inception_3a/5x5"
}
layer {
  name: "inception_3a/pool"
  type: "Pooling"
  bottom: "pool2/3x3_s2"
  top: "inception_3a/pool"
  pooling_param {
    pool: MAX
    kernel_size: 3
    stride: 1
    pad: 1
  }
}
layer {
  name: "inception_3a/pool_proj"
  type: "Convolution"
  bottom: "inception_3a/pool"
  top: "inception_3a/pool_proj"
  param {
    lr_mult: 1
    decay_mult: 1
  }
  param {
    lr_mult: 2
    decay_mult: 0
  }
  convolution_param {
    num_output: 32
    kernel_size: 1
    weight_filler {
      type: "xavier"
      std: 0.1
    }
    bias_filler {
      type: "constant"
      value: 0.2
    }
  }
}
layer {
  name: "inception_3a/relu_pool_proj"
  type: "ReLU"
  bottom: "inception_3a/pool_proj"
  top: "inception_3a/pool_proj"
}
layer {
  name: "inception_3a/output"
  type: "Concat"
  bottom: "inception_3a/1x1"
  bottom: "inception_3a/3x3"
  bottom: "inception_3a/5x5"
  bottom: "inception_3a/pool_proj"
  top: "inception_3a/output"
}
layer {
  name: "inception_3b/1x1"
  type: "Convolution"
  bottom: "inception_3a/output"
  top: "inception_3b/1x1"
  param {
    lr_mult: 1
    decay_mult: 1
  }
  param {
    lr_mult: 2
    decay_mult: 0
  }
  convolution_param {
    num_output: 128
    kernel_size: 1
    weight_filler {
      type: "xavier"
      std: 0.03
    }
    bias_filler {
      type: "constant"
      value: 0.2
    }
  }
}
layer {
  name: "inception_3b/relu_1x1"
  type: "ReLU"
  bottom: "inception_3b/1x1"
  top: "inception_3b/1x1"
}
layer {
  name: "inception_3b/3x3_reduce"
  type: "Convolution"
  bottom: "inception_3a/output"
  top: "inception_3b/3x3_reduce"
  param {
    lr_mult: 1
    decay_mult: 1
  }
  param {
    lr_mult: 2
    decay_mult: 0
  }
  convolution_param {
    num_output: 128
    kernel_size: 1
    weight_filler {
      type: "xavier"
      std: 0.09
    }
    bias_filler {
      type: "constant"
      value: 0.2
    }
  }
}
layer {
  name: "inception_3b/relu_3x3_reduce"
  type: "ReLU"
  bottom: "inception_3b/3x3_reduce"
  top: "inception_3b/3x3_reduce"
}
layer {
  name: "inception_3b/3x3"
  type: "Convolution"
  bottom: "inception_3b/3x3_reduce"
  top: "inception_3b/3x3"
  param {
    lr_mult: 1
    decay_mult: 1
  }
  param {
    lr_mult: 2
    decay_mult: 0
  }
  convolution_param {
    num_output: 192
    pad: 1
    kernel_size: 3
    weight_filler {
      type: "xavier"
      std: 0.03
    }
    bias_filler {
      type: "constant"
      value: 0.2
    }
  }
}
layer {
  name: "inception_3b/relu_3x3"
  type: "ReLU"
  bottom: "inception_3b/3x3"
  top: "inception_3b/3x3"
}
layer {
  name: "inception_3b/5x5_reduce"
  type: "Convolution"
  bottom: "inception_3a/output"
  top: "inception_3b/5x5_reduce"
  param {
    lr_mult: 1
    decay_mult: 1
  }
  param {
    lr_mult: 2
    decay_mult: 0
  }
  convolution_param {
    num_output: 32
    kernel_size: 1
    weight_filler {
      type: "xavier"
      std: 0.2
    }
    bias_filler {
      type: "constant"
      value: 0.2
    }
  }
}
layer {
  name: "inception_3b/relu_5x5_reduce"
  type: "ReLU"
  bottom: "inception_3b/5x5_reduce"
  top: "inception_3b/5x5_reduce"
}
layer {
  name: "inception_3b/5x5"
  type: "Convolution"
  bottom: "inception_3b/5x5_reduce"
  top: "inception_3b/5x5"
  param {
    lr_mult: 1
    decay_mult: 1
  }
  param {
    lr_mult: 2
    decay_mult: 0
  }
  convolution_param {
    num_output: 96
    pad: 2
    kernel_size: 5
    weight_filler {
      type: "xavier"
      std: 0.03
    }
    bias_filler {
      type: "constant"
      value: 0.2
    }
  }
}
layer {
  name: "inception_3b/relu_5x5"
  type: "ReLU"
  bottom: "inception_3b/5x5"
  top: "inception_3b/5x5"
}
layer {
  name: "inception_3b/pool"
  type: "Pooling"
  bottom: "inception_3a/output"
  top: "inception_3b/pool"
  pooling_param {
    pool: MAX
    kernel_size: 3
    stride: 1
    pad: 1
  }
}
layer {
  name: "inception_3b/pool_proj"
  type: "Convolution"
  bottom: "inception_3b/pool"
  top: "inception_3b/pool_proj"
  param {
    lr_mult: 1
    decay_mult: 1
  }
  param {
    lr_mult: 2
    decay_mult: 0
  }
  convolution_param {
    num_output: 64
    kernel_size: 1
    weight_filler {
      type: "xavier"
      std: 0.1
    }
    bias_filler {
      type: "constant"
      value: 0.2
    }
  }
}
layer {
  name: "inception_3b/relu_pool_proj"
  type: "ReLU"
  bottom: "inception_3b/pool_proj"
  top: "inception_3b/pool_proj"
}
layer {
  name: "inception_3b/output"
  type: "Concat"
  bottom: "inception_3b/1x1"
  bottom: "inception_3b/3x3"
  bottom: "inception_3b/5x5"
  bottom: "inception_3b/pool_proj"
  top: "inception_3b/output"
}
layer {
  name: "pool3/3x3_s2"
  type: "Pooling"
  bottom: "inception_3b/output"
  top: "pool3/3x3_s2"
  pooling_param {
    pool: MAX
    kernel_size: 3
    stride: 2
  }
}
layer {
  name: "inception_4a/1x1"
  type: "Convolution"
  bottom: "pool3/3x3_s2"
  top: "inception_4a/1x1"
  param {
    lr_mult: 1
    decay_mult: 1
  }
  param {
    lr_mult: 2
    decay_mult: 0
  }
  convolution_param {
    num_output: 192
    kernel_size: 1
    weight_filler {
      type: "xavier"
      std: 0.03
    }
    bias_filler {
      type: "constant"
      value: 0.2
    }
  }
}
layer {
  name: "inception_4a/relu_1x1"
  type: "ReLU"
  bottom: "inception_4a/1x1"
  top: "inception_4a/1x1"
}
layer {
  name: "inception_4a/3x3_reduce"
  type: "Convolution"
  bottom: "pool3/3x3_s2"
  top: "inception_4a/3x3_reduce"
  param {
    lr_mult: 1
    decay_mult: 1
  }
  param {
    lr_mult: 2
    decay_mult: 0
  }
  convolution_param {
    num_output: 96
    kernel_size: 1
    weight_filler {
      type: "xavier"
      std: 0.09
    }
    bias_filler {
      type: "constant"
      value: 0.2
    }
  }
}
layer {
  name: "inception_4a/relu_3x3_reduce"
  type: "ReLU"
  bottom: "inception_4a/3x3_reduce"
  top: "inception_4a/3x3_reduce"
}
layer {
  name: "inception_4a/3x3"
  type: "Convolution"
  bottom: "inception_4a/3x3_reduce"
  top: "inception_4a/3x3"
  param {
    lr_mult: 1
    decay_mult: 1
  }
  param {
    lr_mult: 2
    decay_mult: 0
  }
  convolution_param {
    num_output: 208
    pad: 1
    kernel_size: 3
    weight_filler {
      type: "xavier"
      std: 0.03
    }
    bias_filler {
      type: "constant"
      value: 0.2
    }
  }
}
layer {
  name: "inception_4a/relu_3x3"
  type: "ReLU"
  bottom: "inception_4a/3x3"
  top: "inception_4a/3x3"
}
layer {
  name: "inception_4a/5x5_reduce"
  type: "Convolution"
  bottom: "pool3/3x3_s2"
  top: "inception_4a/5x5_reduce"
  param {
    lr_mult: 1
    decay_mult: 1
  }
  param {
    lr_mult: 2
    decay_mult: 0
  }
  convolution_param {
    num_output: 16
    kernel_size: 1
    weight_filler {
      type: "xavier"
      std: 0.2
    }
    bias_filler {
      type: "constant"
      value: 0.2
    }
  }
}
layer {
  name: "inception_4a/relu_5x5_reduce"
  type: "ReLU"
  bottom: "inception_4a/5x5_reduce"
  top: "inception_4a/5x5_reduce"
}
layer {
  name: "inception_4a/5x5"
  type: "Convolution"
  bottom: "inception_4a/5x5_reduce"
  top: "inception_4a/5x5"
  param {
    lr_mult: 1
    decay_mult: 1
  }
  param {
    lr_mult: 2
    decay_mult: 0
  }
  convolution_param {
    num_output: 48
    pad: 2
    kernel_size: 5
    weight_filler {
      type: "xavier"
      std: 0.03
    }
    bias_filler {
      type: "constant"
      value: 0.2
    }
  }
}
layer {
  name: "inception_4a/relu_5x5"
  type: "ReLU"
  bottom: "inception_4a/5x5"
  top: "inception_4a/5x5"
}
layer {
  name: "inception_4a/pool"
  type: "Pooling"
  bottom: "pool3/3x3_s2"
  top: "inception_4a/pool"
  pooling_param {
    pool: MAX
    kernel_size: 3
    stride: 1
    pad: 1
  }
}
layer {
  name: "inception_4a/pool_proj"
  type: "Convolution"
  bottom: "inception_4a/pool"
  top: "inception_4a/pool_proj"
  param {
    lr_mult: 1
    decay_mult: 1
  }
  param {
    lr_mult: 2
    decay_mult: 0
  }
  convolution_param {
    num_output: 64
    kernel_size: 1
    weight_filler {
      type: "xavier"
      std: 0.1
    }
    bias_filler {
      type: "constant"
      value: 0.2
    }
  }
}
layer {
  name: "inception_4a/relu_pool_proj"
  type: "ReLU"
  bottom: "inception_4a/pool_proj"
  top: "inception_4a/pool_proj"
}
layer {
  name: "inception_4a/output"
  type: "Concat"
  bottom: "inception_4a/1x1"
  bottom: "inception_4a/3x3"
  bottom: "inception_4a/5x5"
  bottom: "inception_4a/pool_proj"
  top: "inception_4a/output"
}
layer {
  name: "loss1/ave_pool"
  type: "Pooling"
  bottom: "inception_4a/output"
  top: "loss1/ave_pool"
  pooling_param {
    pool: AVE
    kernel_size: 5
    stride: 3
  }
}
layer {
  name: "loss1/conv"
  type: "Convolution"
  bottom: "loss1/ave_pool"
  top: "loss1/conv"
  param {
    lr_mult: 1
    decay_mult: 1
  }
  param {
    lr_mult: 2
    decay_mult: 0
  }
  convolution_param {
    num_output: 128
    kernel_size: 1
    weight_filler {
      type: "xavier"
      std: 0.08
    }
    bias_filler {
      type: "constant"
      value: 0.2
    }
  }
}
layer {
  name: "loss1/relu_conv"
  type: "ReLU"
  bottom: "loss1/conv"
  top: "loss1/conv"
}
layer {
  name: "loss1/fc"
  type: "InnerProduct"
  bottom: "loss1/conv"
  top: "loss1/fc"
  param {
    lr_mult: 1
    decay_mult: 1
  }
  param {
    lr_mult: 2
    decay_mult: 0
  }
  inner_product_param {
    num_output: 1024
    weight_filler {
      type: "xavier"
      std: 0.02
    }
    bias_filler {
      type: "constant"
      value: 0.2
    }
  }
}
layer {
  name: "loss1/relu_fc"
  type: "ReLU"
  bottom: "loss1/fc"
  top: "loss1/fc"
}
layer {
  name: "loss1/drop_fc"
  type: "Dropout"
  bottom: "loss1/fc"
  top: "loss1/fc"
  dropout_param {
    dropout_ratio: 0.7
  }
}
layer {
  name: "loss1/classifier_plantvillage"
  type: "InnerProduct"
  bottom: "loss1/fc"
  top: "loss1/classifier_plantvillage"
  param {
    lr_mult: 1
    decay_mult: 1
  }
  param {
    lr_mult: 2
    decay_mult: 0
  }
  inner_product_param {
    num_output: 38
    weight_filler {
      type: "xavier"
      std: 0.0009765625
    }
    bias_filler {
      type: "constant"
      value: 0
    }
  }
}
layer {
  name: "inception_4b/1x1"
  type: "Convolution"
  bottom: "inception_4a/output"
  top: "inception_4b/1x1"
  param {
    lr_mult: 1
    decay_mult: 1
  }
  param {
    lr_mult: 2
    decay_mult: 0
  }
  convolution_param {
    num_output: 160
    kernel_size: 1
    weight_filler {
      type: "xavier"
      std: 0.03
    }
    bias_filler {
      type: "constant"
      value: 0.2
    }
  }
}
layer {
  name: "inception_4b/relu_1x1"
  type: "ReLU"
  bottom: "inception_4b/1x1"
  top: "inception_4b/1x1"
}
layer {
  name: "inception_4b/3x3_reduce"
  type: "Convolution"
  bottom: "inception_4a/output"
  top: "inception_4b/3x3_reduce"
  param {
    lr_mult: 1
    decay_mult: 1
  }
  param {
    lr_mult: 2
    decay_mult: 0
  }
  convolution_param {
    num_output: 112
    kernel_size: 1
    weight_filler {
      type: "xavier"
      std: 0.09
    }
    bias_filler {
      type: "constant"
      value: 0.2
    }
  }
}
layer {
  name: "inception_4b/relu_3x3_reduce"
  type: "ReLU"
  bottom: "inception_4b/3x3_reduce"
  top: "inception_4b/3x3_reduce"
}
layer {
  name: "inception_4b/3x3"
  type: "Convolution"
  bottom: "inception_4b/3x3_reduce"
  top: "inception_4b/3x3"
  param {
    lr_mult: 1
    decay_mult: 1
  }
  param {
    lr_mult: 2
    decay_mult: 0
  }
  convolution_param {
    num_output: 224
    pad: 1
    kernel_size: 3
    weight_filler {
      type: "xavier"
      std: 0.03
    }
    bias_filler {
      type: "constant"
      value: 0.2
    }
  }
}
layer {
  name: "inception_4b/relu_3x3"
  type: "ReLU"
  bottom: "inception_4b/3x3"
  top: "inception_4b/3x3"
}
layer {
  name: "inception_4b/5x5_reduce"
  type: "Convolution"
  bottom: "inception_4a/output"
  top: "inception_4b/5x5_reduce"
  param {
    lr_mult: 1
    decay_mult: 1
  }
  param {
    lr_mult: 2
    decay_mult: 0
  }
  convolution_param {
    num_output: 24
    kernel_size: 1
    weight_filler {
      type: "xavier"
      std: 0.2
    }
    bias_filler {
      type: "constant"
      value: 0.2
    }
  }
}
layer {
  name: "inception_4b/relu_5x5_reduce"
  type: "ReLU"
  bottom: "inception_4b/5x5_reduce"
  top: "inception_4b/5x5_reduce"
}
layer {
  name: "inception_4b/5x5"
  type: "Convolution"
  bottom: "inception_4b/5x5_reduce"
  top: "inception_4b/5x5"
  param {
    lr_mult: 1
    decay_mult: 1
  }
  param {
    lr_mult: 2
    decay_mult: 0
  }
  convolution_param {
    num_output: 64
    pad: 2
    kernel_size: 5
    weight_filler {
      type: "xavier"
      std: 0.03
    }
    bias_filler {
      type: "constant"
      value: 0.2
    }
  }
}
layer {
  name: "inception_4b/relu_5x5"
  type: "ReLU"
  bottom: "inception_4b/5x5"
  top: "inception_4b/5x5"
}
layer {
  name: "inception_4b/pool"
  type: "Pooling"
  bottom: "inception_4a/output"
  top: "inception_4b/pool"
  pooling_param {
    pool: MAX
    kernel_size: 3
    stride: 1
    pad: 1
  }
}
layer {
  name: "inception_4b/pool_proj"
  type: "Convolution"
  bottom: "inception_4b/pool"
  top: "inception_4b/pool_proj"
  param {
    lr_mult: 1
    decay_mult: 1
  }
  param {
    lr_mult: 2
    decay_mult: 0
  }
  convolution_param {
    num_output: 64
    kernel_size: 1
    weight_filler {
      type: "xavier"
      std: 0.1
    }
    bias_filler {
      type: "constant"
      value: 0.2
    }
  }
}
layer {
  name: "inception_4b/relu_pool_proj"
  type: "ReLU"
  bottom: "inception_4b/pool_proj"
  top: "inception_4b/pool_proj"
}
layer {
  name: "inception_4b/output"
  type: "Concat"
  bottom: "inception_4b/1x1"
  bottom: "inception_4b/3x3"
  bottom: "inception_4b/5x5"
  bottom: "inception_4b/pool_proj"
  top: "inception_4b/output"
}
layer {
  name: "inception_4c/1x1"
  type: "Convolution"
  bottom: "inception_4b/output"
  top: "inception_4c/1x1"
  param {
    lr_mult: 1
    decay_mult: 1
  }
  param {
    lr_mult: 2
    decay_mult: 0
  }
  convolution_param {
    num_output: 128
    kernel_size: 1
    weight_filler {
      type: "xavier"
      std: 0.03
    }
    bias_filler {
      type: "constant"
      value: 0.2
    }
  }
}
layer {
  name: "inception_4c/relu_1x1"
  type: "ReLU"
  bottom: "inception_4c/1x1"
  top: "inception_4c/1x1"
}
layer {
  name: "inception_4c/3x3_reduce"
  type: "Convolution"
  bottom: "inception_4b/output"
  top: "inception_4c/3x3_reduce"
  param {
    lr_mult: 1
    decay_mult: 1
  }
  param {
    lr_mult: 2
    decay_mult: 0
  }
  convolution_param {
    num_output: 128
    kernel_size: 1
    weight_filler {
      type: "xavier"
      std: 0.09
    }
    bias_filler {
      type: "constant"
      value: 0.2
    }
  }
}
layer {
  name: "inception_4c/relu_3x3_reduce"
  type: "ReLU"
  bottom: "inception_4c/3x3_reduce"
  top: "inception_4c/3x3_reduce"
}
layer {
  name: "inception_4c/3x3"
  type: "Convolution"
  bottom: "inception_4c/3x3_reduce"
  top: "inception_4c/3x3"
  param {
    lr_mult: 1
    decay_mult: 1
  }
  param {
    lr_mult: 2
    decay_mult: 0
  }
  convolution_param {
    num_output: 256
    pad: 1
    kernel_size: 3
    weight_filler {
      type: "xavier"
      std: 0.03
    }
    bias_filler {
      type: "constant"
      value: 0.2
    }
  }
}
layer {
  name: "inception_4c/relu_3x3"
  type: "ReLU"
  bottom: "inception_4c/3x3"
  top: "inception_4c/3x3"
}
layer {
  name: "inception_4c/5x5_reduce"
  type: "Convolution"
  bottom: "inception_4b/output"
  top: "inception_4c/5x5_reduce"
  param {
    lr_mult: 1
    decay_mult: 1
  }
  param {
    lr_mult: 2
    decay_mult: 0
  }
  convolution_param {
    num_output: 24
    kernel_size: 1
    weight_filler {
      type: "xavier"
      std: 0.2
    }
    bias_filler {
      type: "constant"
      value: 0.2
    }
  }
}
layer {
  name: "inception_4c/relu_5x5_reduce"
  type: "ReLU"
  bottom: "inception_4c/5x5_reduce"
  top: "inception_4c/5x5_reduce"
}
layer {
  name: "inception_4c/5x5"
  type: "Convolution"
  bottom: "inception_4c/5x5_reduce"
  top: "inception_4c/5x5"
  param {
    lr_mult: 1
    decay_mult: 1
  }
  param {
    lr_mult: 2
    decay_mult: 0
  }
  convolution_param {
    num_output: 64
    pad: 2
    kernel_size: 5
    weight_filler {
      type: "xavier"
      std: 0.03
    }
    bias_filler {
      type: "constant"
      value: 0.2
    }
  }
}
layer {
  name: "inception_4c/relu_5x5"
  type: "ReLU"
  bottom: "inception_4c/5x5"
  top: "inception_4c/5x5"
}
layer {
  name: "inception_4c/pool"
  type: "Pooling"
  bottom: "inception_4b/output"
  top: "inception_4c/pool"
  pooling_param {
    pool: MAX
    kernel_size: 3
    stride: 1
    pad: 1
  }
}
layer {
  name: "inception_4c/pool_proj"
  type: "Convolution"
  bottom: "inception_4c/pool"
  top: "inception_4c/pool_proj"
  param {
    lr_mult: 1
    decay_mult: 1
  }
  param {
    lr_mult: 2
    decay_mult: 0
  }
  convolution_param {
    num_output: 64
    kernel_size: 1
    weight_filler {
      type: "xavier"
      std: 0.1
    }
    bias_filler {
      type: "constant"
      value: 0.2
    }
  }
}
layer {
  name: "inception_4c/relu_pool_proj"
  type: "ReLU"
  bottom: "inception_4c/pool_proj"
  top: "inception_4c/pool_proj"
}
layer {
  name: "inception_4c/output"
  type: "Concat"
  bottom: "inception_4c/1x1"
  bottom: "inception_4c/3x3"
  bottom: "inception_4c/5x5"
  bottom: "inception_4c/pool_proj"
  top: "inception_4c/output"
}
layer {
  name: "inception_4d/1x1"
  type: "Convolution"
  bottom: "inception_4c/output"
  top: "inception_4d/1x1"
  param {
    lr_mult: 1
    decay_mult: 1
  }
  param {
    lr_mult: 2
    decay_mult: 0
  }
  convolution_param {
    num_output: 112
    kernel_size: 1
    weight_filler {
      type: "xavier"
      std: 0.03
    }
    bias_filler {
      type: "constant"
      value: 0.2
    }
  }
}
layer {
  name: "inception_4d/relu_1x1"
  type: "ReLU"
  bottom: "inception_4d/1x1"
  top: "inception_4d/1x1"
}
layer {
  name: "inception_4d/3x3_reduce"
  type: "Convolution"
  bottom: "inception_4c/output"
  top: "inception_4d/3x3_reduce"
  param {
    lr_mult: 1
    decay_mult: 1
  }
  param {
    lr_mult: 2
    decay_mult: 0
  }
  convolution_param {
    num_output: 144
    kernel_size: 1
    weight_filler {
      type: "xavier"
      std: 0.09
    }
    bias_filler {
      type: "constant"
      value: 0.2
    }
  }
}
layer {
  name: "inception_4d/relu_3x3_reduce"
  type: "ReLU"
  bottom: "inception_4d/3x3_reduce"
  top: "inception_4d/3x3_reduce"
}
layer {
  name: "inception_4d/3x3"
  type: "Convolution"
  bottom: "inception_4d/3x3_reduce"
  top: "inception_4d/3x3"
  param {
    lr_mult: 1
    decay_mult: 1
  }
  param {
    lr_mult: 2
    decay_mult: 0
  }
  convolution_param {
    num_output: 288
    pad: 1
    kernel_size: 3
    weight_filler {
      type: "xavier"
      std: 0.03
    }
    bias_filler {
      type: "constant"
      value: 0.2
    }
  }
}
layer {
  name: "inception_4d/relu_3x3"
  type: "ReLU"
  bottom: "inception_4d/3x3"
  top: "inception_4d/3x3"
}
layer {
  name: "inception_4d/5x5_reduce"
  type: "Convolution"
  bottom: "inception_4c/output"
  top: "inception_4d/5x5_reduce"
  param {
    lr_mult: 1
    decay_mult: 1
  }
  param {
    lr_mult: 2
    decay_mult: 0
  }
  convolution_param {
    num_output: 32
    kernel_size: 1
    weight_filler {
      type: "xavier"
      std: 0.2
    }
    bias_filler {
      type: "constant"
      value: 0.2
    }
  }
}
layer {
  name: "inception_4d/relu_5x5_reduce"
  type: "ReLU"
  bottom: "inception_4d/5x5_reduce"
  top: "inception_4d/5x5_reduce"
}
layer {
  name: "inception_4d/5x5"
  type: "Convolution"
  bottom: "inception_4d/5x5_reduce"
  top: "inception_4d/5x5"
  param {
    lr_mult: 1
    decay_mult: 1
  }
  param {
    lr_mult: 2
    decay_mult: 0
  }
  convolution_param {
    num_output: 64
    pad: 2
    kernel_size: 5
    weight_filler {
      type: "xavier"
      std: 0.03
    }
    bias_filler {
      type: "constant"
      value: 0.2
    }
  }
}
layer {
  name: "inception_4d/relu_5x5"
  type: "ReLU"
  bottom: "inception_4d/5x5"
  top: "inception_4d/5x5"
}
layer {
  name: "inception_4d/pool"
  type: "Pooling"
  bottom: "inception_4c/output"
  top: "inception_4d/pool"
  pooling_param {
    pool: MAX
    kernel_size: 3
    stride: 1
    pad: 1
  }
}
layer {
  name: "inception_4d/pool_proj"
  type: "Convolution"
  bottom: "inception_4d/pool"
  top: "inception_4d/pool_proj"
  param {
    lr_mult: 1
    decay_mult: 1
  }
  param {
    lr_mult: 2
    decay_mult: 0
  }
  convolution_param {
    num_output: 64
    kernel_size: 1
    weight_filler {
      type: "xavier"
      std: 0.1
    }
    bias_filler {
      type: "constant"
      value: 0.2
    }
  }
}
layer {
  name: "inception_4d/relu_pool_proj"
  type: "ReLU"
  bottom: "inception_4d/pool_proj"
  top: "inception_4d/pool_proj"
}
layer {
  name: "inception_4d/output"
  type: "Concat"
  bottom: "inception_4d/1x1"
  bottom: "inception_4d/3x3"
  bottom: "inception_4d/5x5"
  bottom: "inception_4d/pool_proj"
  top: "inception_4d/output"
}
layer {
  name: "loss2/ave_pool"
  type: "Pooling"
  bottom: "inception_4d/output"
  top: "loss2/ave_pool"
  pooling_param {
    pool: AVE
    kernel_size: 5
    stride: 3
  }
}
layer {
  name: "loss2/conv"
  type: "Convolution"
  bottom: "loss2/ave_pool"
  top: "loss2/conv"
  param {
    lr_mult: 1
    decay_mult: 1
  }
  param {
    lr_mult: 2
    decay_mult: 0
  }
  convolution_param {
    num_output: 128
    kernel_size: 1
    weight_filler {
      type: "xavier"
      std: 0.08
    }
    bias_filler {
      type: "constant"
      value: 0.2
    }
  }
}
layer {
  name: "loss2/relu_conv"
  type: "ReLU"
  bottom: "loss2/conv"
  top: "loss2/conv"
}
layer {
  name: "loss2/fc"
  type: "InnerProduct"
  bottom: "loss2/conv"
  top: "loss2/fc"
  param {
    lr_mult: 1
    decay_mult: 1
  }
  param {
    lr_mult: 2
    decay_mult: 0
  }
  inner_product_param {
    num_output: 1024
    weight_filler {
      type: "xavier"
      std: 0.02
    }
    bias_filler {
      type: "constant"
      value: 0.2
    }
  }
}
layer {
  name: "loss2/relu_fc"
  type: "ReLU"
  bottom: "loss2/fc"
  top: "loss2/fc"
}
layer {
  name: "loss2/drop_fc"
  type: "Dropout"
  bottom: "loss2/fc"
  top: "loss2/fc"
  dropout_param {
    dropout_ratio: 0.7
  }
}
layer {
  name: "loss2/classifier_plantvillage"
  type: "InnerProduct"
  bottom: "loss2/fc"
  top: "loss2/classifier_plantvillage"
  param {
    lr_mult: 1
    decay_mult: 1
  }
  param {
    lr_mult: 2
    decay_mult: 0
  }
  inner_product_param {
    num_output: 38
    weight_filler {
      type: "xavier"
      std: 0.0009765625
    }
    bias_filler {
      type: "constant"
      value: 0
    }
  }
}
layer {
  name: "inception_4e/1x1"
  type: "Convolution"
  bottom: "inception_4d/output"
  top: "inception_4e/1x1"
  param {
    lr_mult: 1
    decay_mult: 1
  }
  param {
    lr_mult: 2
    decay_mult: 0
  }
  convolution_param {
    num_output: 256
    kernel_size: 1
    weight_filler {
      type: "xavier"
      std: 0.03
    }
    bias_filler {
      type: "constant"
      value: 0.2
    }
  }
}
layer {
  name: "inception_4e/relu_1x1"
  type: "ReLU"
  bottom: "inception_4e/1x1"
  top: "inception_4e/1x1"
}
layer {
  name: "inception_4e/3x3_reduce"
  type: "Convolution"
  bottom: "inception_4d/output"
  top: "inception_4e/3x3_reduce"
  param {
    lr_mult: 1
    decay_mult: 1
  }
  param {
    lr_mult: 2
    decay_mult: 0
  }
  convolution_param {
    num_output: 160
    kernel_size: 1
    weight_filler {
      type: "xavier"
      std: 0.09
    }
    bias_filler {
      type: "constant"
      value: 0.2
    }
  }
}
layer {
  name: "inception_4e/relu_3x3_reduce"
  type: "ReLU"
  bottom: "inception_4e/3x3_reduce"
  top: "inception_4e/3x3_reduce"
}
layer {
  name: "inception_4e/3x3"
  type: "Convolution"
  bottom: "inception_4e/3x3_reduce"
  top: "inception_4e/3x3"
  param {
    lr_mult: 1
    decay_mult: 1
  }
  param {
    lr_mult: 2
    decay_mult: 0
  }
  convolution_param {
    num_output: 320
    pad: 1
    kernel_size: 3
    weight_filler {
      type: "xavier"
      std: 0.03
    }
    bias_filler {
      type: "constant"
      value: 0.2
    }
  }
}
layer {
  name: "inception_4e/relu_3x3"
  type: "ReLU"
  bottom: "inception_4e/3x3"
  top: "inception_4e/3x3"
}
layer {
  name: "inception_4e/5x5_reduce"
  type: "Convolution"
  bottom: "inception_4d/output"
  top: "inception_4e/5x5_reduce"
  param {
    lr_mult: 1
    decay_mult: 1
  }
  param {
    lr_mult: 2
    decay_mult: 0
  }
  convolution_param {
    num_output: 32
    kernel_size: 1
    weight_filler {
      type: "xavier"
      std: 0.2
    }
    bias_filler {
      type: "constant"
      value: 0.2
    }
  }
}
layer {
  name: "inception_4e/relu_5x5_reduce"
  type: "ReLU"
  bottom: "inception_4e/5x5_reduce"
  top: "inception_4e/5x5_reduce"
}
layer {
  name: "inception_4e/5x5"
  type: "Convolution"
  bottom: "inception_4e/5x5_reduce"
  top: "inception_4e/5x5"
  p
I0403 16:10:29.250530 20798 layer_factory.hpp:77] Creating layer data
I0403 16:10:29.251130 20798 net.cpp:91] Creating Layer data
I0403 16:10:29.251171 20798 net.cpp:399] data -> data
I0403 16:10:29.251224 20798 net.cpp:399] data -> label
I0403 16:10:29.251260 20798 data_transformer.cpp:25] Loading mean file from: /home/mohanty/data/final_dataset/lmdb/color-40-60/mean.binaryproto
I0403 16:10:29.252439 20801 db_lmdb.cpp:38] Opened lmdb /home/mohanty/data/final_dataset/lmdb/color-40-60/test_db
I0403 16:10:29.264607 20798 data_layer.cpp:41] output data size: 24,3,224,224
I0403 16:10:29.295028 20798 net.cpp:141] Setting up data
I0403 16:10:29.295135 20798 net.cpp:148] Top shape: 24 3 224 224 (3612672)
I0403 16:10:29.295157 20798 net.cpp:148] Top shape: 24 (24)
I0403 16:10:29.295173 20798 net.cpp:156] Memory required for data: 14450784
I0403 16:10:29.295202 20798 layer_factory.hpp:77] Creating layer label_data_1_split
I0403 16:10:29.295231 20798 net.cpp:91] Creating Layer label_data_1_split
I0403 16:10:29.295249 20798 net.cpp:425] label_data_1_split <- label
I0403 16:10:29.295284 20798 net.cpp:399] label_data_1_split -> label_data_1_split_0
I0403 16:10:29.295311 20798 net.cpp:399] label_data_1_split -> label_data_1_split_1
I0403 16:10:29.295334 20798 net.cpp:399] label_data_1_split -> label_data_1_split_2
I0403 16:10:29.295356 20798 net.cpp:399] label_data_1_split -> label_data_1_split_3
I0403 16:10:29.295377 20798 net.cpp:399] label_data_1_split -> label_data_1_split_4
I0403 16:10:29.295397 20798 net.cpp:399] label_data_1_split -> label_data_1_split_5
I0403 16:10:29.295418 20798 net.cpp:399] label_data_1_split -> label_data_1_split_6
I0403 16:10:29.295439 20798 net.cpp:399] label_data_1_split -> label_data_1_split_7
I0403 16:10:29.295459 20798 net.cpp:399] label_data_1_split -> label_data_1_split_8
I0403 16:10:29.295481 20798 net.cpp:399] label_data_1_split -> label_data_1_split_9
I0403 16:10:29.295601 20798 net.cpp:141] Setting up label_data_1_split
I0403 16:10:29.295626 20798 net.cpp:148] Top shape: 24 (24)
I0403 16:10:29.295644 20798 net.cpp:148] Top shape: 24 (24)
I0403 16:10:29.295660 20798 net.cpp:148] Top shape: 24 (24)
I0403 16:10:29.295676 20798 net.cpp:148] Top shape: 24 (24)
I0403 16:10:29.295692 20798 net.cpp:148] Top shape: 24 (24)
I0403 16:10:29.295707 20798 net.cpp:148] Top shape: 24 (24)
I0403 16:10:29.295724 20798 net.cpp:148] Top shape: 24 (24)
I0403 16:10:29.295740 20798 net.cpp:148] Top shape: 24 (24)
I0403 16:10:29.295756 20798 net.cpp:148] Top shape: 24 (24)
I0403 16:10:29.295773 20798 net.cpp:148] Top shape: 24 (24)
I0403 16:10:29.295819 20798 net.cpp:156] Memory required for data: 14451744
I0403 16:10:29.295835 20798 layer_factory.hpp:77] Creating layer conv1/7x7_s2
I0403 16:10:29.295868 20798 net.cpp:91] Creating Layer conv1/7x7_s2
I0403 16:10:29.295887 20798 net.cpp:425] conv1/7x7_s2 <- data
I0403 16:10:29.295907 20798 net.cpp:399] conv1/7x7_s2 -> conv1/7x7_s2
I0403 16:10:29.441615 20798 net.cpp:141] Setting up conv1/7x7_s2
I0403 16:10:29.441676 20798 net.cpp:148] Top shape: 24 64 112 112 (19267584)
I0403 16:10:29.441695 20798 net.cpp:156] Memory required for data: 91522080
I0403 16:10:29.441726 20798 layer_factory.hpp:77] Creating layer conv1/relu_7x7
I0403 16:10:29.441754 20798 net.cpp:91] Creating Layer conv1/relu_7x7
I0403 16:10:29.441773 20798 net.cpp:425] conv1/relu_7x7 <- conv1/7x7_s2
I0403 16:10:29.441795 20798 net.cpp:386] conv1/relu_7x7 -> conv1/7x7_s2 (in-place)
I0403 16:10:29.442086 20798 net.cpp:141] Setting up conv1/relu_7x7
I0403 16:10:29.442116 20798 net.cpp:148] Top shape: 24 64 112 112 (19267584)
I0403 16:10:29.442131 20798 net.cpp:156] Memory required for data: 168592416
I0403 16:10:29.442147 20798 layer_factory.hpp:77] Creating layer pool1/3x3_s2
I0403 16:10:29.442173 20798 net.cpp:91] Creating Layer pool1/3x3_s2
I0403 16:10:29.442193 20798 net.cpp:425] pool1/3x3_s2 <- conv1/7x7_s2
I0403 16:10:29.442214 20798 net.cpp:399] pool1/3x3_s2 -> pool1/3x3_s2
I0403 16:10:29.442293 20798 net.cpp:141] Setting up pool1/3x3_s2
I0403 16:10:29.442319 20798 net.cpp:148] Top shape: 24 64 56 56 (4816896)
I0403 16:10:29.442334 20798 net.cpp:156] Memory required for data: 187860000
I0403 16:10:29.442349 20798 layer_factory.hpp:77] Creating layer pool1/norm1
I0403 16:10:29.442375 20798 net.cpp:91] Creating Layer pool1/norm1
I0403 16:10:29.442394 20798 net.cpp:425] pool1/norm1 <- pool1/3x3_s2
I0403 16:10:29.442414 20798 net.cpp:399] pool1/norm1 -> pool1/norm1
I0403 16:10:29.442724 20798 net.cpp:141] Setting up pool1/norm1
I0403 16:10:29.442754 20798 net.cpp:148] Top shape: 24 64 56 56 (4816896)
I0403 16:10:29.442770 20798 net.cpp:156] Memory required for data: 207127584
I0403 16:10:29.442785 20798 layer_factory.hpp:77] Creating layer conv2/3x3_reduce
I0403 16:10:29.442811 20798 net.cpp:91] Creating Layer conv2/3x3_reduce
I0403 16:10:29.442829 20798 net.cpp:425] conv2/3x3_reduce <- pool1/norm1
I0403 16:10:29.442850 20798 net.cpp:399] conv2/3x3_reduce -> conv2/3x3_reduce
I0403 16:10:29.444155 20798 net.cpp:141] Setting up conv2/3x3_reduce
I0403 16:10:29.444190 20798 net.cpp:148] Top shape: 24 64 56 56 (4816896)
I0403 16:10:29.444206 20798 net.cpp:156] Memory required for data: 226395168
I0403 16:10:29.444228 20798 layer_factory.hpp:77] Creating layer conv2/relu_3x3_reduce
I0403 16:10:29.444247 20798 net.cpp:91] Creating Layer conv2/relu_3x3_reduce
I0403 16:10:29.444263 20798 net.cpp:425] conv2/relu_3x3_reduce <- conv2/3x3_reduce
I0403 16:10:29.444283 20798 net.cpp:386] conv2/relu_3x3_reduce -> conv2/3x3_reduce (in-place)
I0403 16:10:29.444566 20798 net.cpp:141] Setting up conv2/relu_3x3_reduce
I0403 16:10:29.444596 20798 net.cpp:148] Top shape: 24 64 56 56 (4816896)
I0403 16:10:29.444612 20798 net.cpp:156] Memory required for data: 245662752
I0403 16:10:29.444627 20798 layer_factory.hpp:77] Creating layer conv2/3x3
I0403 16:10:29.444651 20798 net.cpp:91] Creating Layer conv2/3x3
I0403 16:10:29.444670 20798 net.cpp:425] conv2/3x3 <- conv2/3x3_reduce
I0403 16:10:29.444694 20798 net.cpp:399] conv2/3x3 -> conv2/3x3
I0403 16:10:29.447124 20798 net.cpp:141] Setting up conv2/3x3
I0403 16:10:29.447157 20798 net.cpp:148] Top shape: 24 192 56 56 (14450688)
I0403 16:10:29.447175 20798 net.cpp:156] Memory required for data: 303465504
I0403 16:10:29.447196 20798 layer_factory.hpp:77] Creating layer conv2/relu_3x3
I0403 16:10:29.447218 20798 net.cpp:91] Creating Layer conv2/relu_3x3
I0403 16:10:29.447235 20798 net.cpp:425] conv2/relu_3x3 <- conv2/3x3
I0403 16:10:29.447255 20798 net.cpp:386] conv2/relu_3x3 -> conv2/3x3 (in-place)
I0403 16:10:29.447441 20798 net.cpp:141] Setting up conv2/relu_3x3
I0403 16:10:29.447468 20798 net.cpp:148] Top shape: 24 192 56 56 (14450688)
I0403 16:10:29.447510 20798 net.cpp:156] Memory required for data: 361268256
I0403 16:10:29.447527 20798 layer_factory.hpp:77] Creating layer conv2/norm2
I0403 16:10:29.447548 20798 net.cpp:91] Creating Layer conv2/norm2
I0403 16:10:29.447566 20798 net.cpp:425] conv2/norm2 <- conv2/3x3
I0403 16:10:29.447584 20798 net.cpp:399] conv2/norm2 -> conv2/norm2
I0403 16:10:29.447909 20798 net.cpp:141] Setting up conv2/norm2
I0403 16:10:29.447940 20798 net.cpp:148] Top shape: 24 192 56 56 (14450688)
I0403 16:10:29.447957 20798 net.cpp:156] Memory required for data: 419071008
I0403 16:10:29.447973 20798 layer_factory.hpp:77] Creating layer pool2/3x3_s2
I0403 16:10:29.447995 20798 net.cpp:91] Creating Layer pool2/3x3_s2
I0403 16:10:29.448012 20798 net.cpp:425] pool2/3x3_s2 <- conv2/norm2
I0403 16:10:29.448031 20798 net.cpp:399] pool2/3x3_s2 -> pool2/3x3_s2
I0403 16:10:29.448088 20798 net.cpp:141] Setting up pool2/3x3_s2
I0403 16:10:29.448112 20798 net.cpp:148] Top shape: 24 192 28 28 (3612672)
I0403 16:10:29.448127 20798 net.cpp:156] Memory required for data: 433521696
I0403 16:10:29.448143 20798 layer_factory.hpp:77] Creating layer pool2/3x3_s2_pool2/3x3_s2_0_split
I0403 16:10:29.448163 20798 net.cpp:91] Creating Layer pool2/3x3_s2_pool2/3x3_s2_0_split
I0403 16:10:29.448179 20798 net.cpp:425] pool2/3x3_s2_pool2/3x3_s2_0_split <- pool2/3x3_s2
I0403 16:10:29.448200 20798 net.cpp:399] pool2/3x3_s2_pool2/3x3_s2_0_split -> pool2/3x3_s2_pool2/3x3_s2_0_split_0
I0403 16:10:29.448223 20798 net.cpp:399] pool2/3x3_s2_pool2/3x3_s2_0_split -> pool2/3x3_s2_pool2/3x3_s2_0_split_1
I0403 16:10:29.448245 20798 net.cpp:399] pool2/3x3_s2_pool2/3x3_s2_0_split -> pool2/3x3_s2_pool2/3x3_s2_0_split_2
I0403 16:10:29.448266 20798 net.cpp:399] pool2/3x3_s2_pool2/3x3_s2_0_split -> pool2/3x3_s2_pool2/3x3_s2_0_split_3
I0403 16:10:29.448341 20798 net.cpp:141] Setting up pool2/3x3_s2_pool2/3x3_s2_0_split
I0403 16:10:29.448365 20798 net.cpp:148] Top shape: 24 192 28 28 (3612672)
I0403 16:10:29.448381 20798 net.cpp:148] Top shape: 24 192 28 28 (3612672)
I0403 16:10:29.448397 20798 net.cpp:148] Top shape: 24 192 28 28 (3612672)
I0403 16:10:29.448415 20798 net.cpp:148] Top shape: 24 192 28 28 (3612672)
I0403 16:10:29.448428 20798 net.cpp:156] Memory required for data: 491324448
I0403 16:10:29.448443 20798 layer_factory.hpp:77] Creating layer inception_3a/1x1
I0403 16:10:29.448467 20798 net.cpp:91] Creating Layer inception_3a/1x1
I0403 16:10:29.448484 20798 net.cpp:425] inception_3a/1x1 <- pool2/3x3_s2_pool2/3x3_s2_0_split_0
I0403 16:10:29.448506 20798 net.cpp:399] inception_3a/1x1 -> inception_3a/1x1
I0403 16:10:29.450120 20798 net.cpp:141] Setting up inception_3a/1x1
I0403 16:10:29.450153 20798 net.cpp:148] Top shape: 24 64 28 28 (1204224)
I0403 16:10:29.450171 20798 net.cpp:156] Memory required for data: 496141344
I0403 16:10:29.450191 20798 layer_factory.hpp:77] Creating layer inception_3a/relu_1x1
I0403 16:10:29.450211 20798 net.cpp:91] Creating Layer inception_3a/relu_1x1
I0403 16:10:29.450227 20798 net.cpp:425] inception_3a/relu_1x1 <- inception_3a/1x1
I0403 16:10:29.450248 20798 net.cpp:386] inception_3a/relu_1x1 -> inception_3a/1x1 (in-place)
I0403 16:10:29.450434 20798 net.cpp:141] Setting up inception_3a/relu_1x1
I0403 16:10:29.450459 20798 net.cpp:148] Top shape: 24 64 28 28 (1204224)
I0403 16:10:29.450474 20798 net.cpp:156] Memory required for data: 500958240
I0403 16:10:29.450491 20798 layer_factory.hpp:77] Creating layer inception_3a/3x3_reduce
I0403 16:10:29.450515 20798 net.cpp:91] Creating Layer inception_3a/3x3_reduce
I0403 16:10:29.450532 20798 net.cpp:425] inception_3a/3x3_reduce <- pool2/3x3_s2_pool2/3x3_s2_0_split_1
I0403 16:10:29.450554 20798 net.cpp:399] inception_3a/3x3_reduce -> inception_3a/3x3_reduce
I0403 16:10:29.452322 20798 net.cpp:141] Setting up inception_3a/3x3_reduce
I0403 16:10:29.452354 20798 net.cpp:148] Top shape: 24 96 28 28 (1806336)
I0403 16:10:29.452371 20798 net.cpp:156] Memory required for data: 508183584
I0403 16:10:29.452394 20798 layer_factory.hpp:77] Creating layer inception_3a/relu_3x3_reduce
I0403 16:10:29.452430 20798 net.cpp:91] Creating Layer inception_3a/relu_3x3_reduce
I0403 16:10:29.452447 20798 net.cpp:425] inception_3a/relu_3x3_reduce <- inception_3a/3x3_reduce
I0403 16:10:29.452468 20798 net.cpp:386] inception_3a/relu_3x3_reduce -> inception_3a/3x3_reduce (in-place)
I0403 16:10:29.452662 20798 net.cpp:141] Setting up inception_3a/relu_3x3_reduce
I0403 16:10:29.452690 20798 net.cpp:148] Top shape: 24 96 28 28 (1806336)
I0403 16:10:29.452707 20798 net.cpp:156] Memory required for data: 515408928
I0403 16:10:29.452723 20798 layer_factory.hpp:77] Creating layer inception_3a/3x3
I0403 16:10:29.452746 20798 net.cpp:91] Creating Layer inception_3a/3x3
I0403 16:10:29.452764 20798 net.cpp:425] inception_3a/3x3 <- inception_3a/3x3_reduce
I0403 16:10:29.452783 20798 net.cpp:399] inception_3a/3x3 -> inception_3a/3x3
I0403 16:10:29.454535 20798 net.cpp:141] Setting up inception_3a/3x3
I0403 16:10:29.454565 20798 net.cpp:148] Top shape: 24 128 28 28 (2408448)
I0403 16:10:29.454581 20798 net.cpp:156] Memory required for data: 525042720
I0403 16:10:29.454599 20798 layer_factory.hpp:77] Creating layer inception_3a/relu_3x3
I0403 16:10:29.454618 20798 net.cpp:91] Creating Layer inception_3a/relu_3x3
I0403 16:10:29.454635 20798 net.cpp:425] inception_3a/relu_3x3 <- inception_3a/3x3
I0403 16:10:29.454655 20798 net.cpp:386] inception_3a/relu_3x3 -> inception_3a/3x3 (in-place)
I0403 16:10:29.454946 20798 net.cpp:141] Setting up inception_3a/relu_3x3
I0403 16:10:29.454974 20798 net.cpp:148] Top shape: 24 128 28 28 (2408448)
I0403 16:10:29.454994 20798 net.cpp:156] Memory required for data: 534676512
I0403 16:10:29.455011 20798 layer_factory.hpp:77] Creating layer inception_3a/5x5_reduce
I0403 16:10:29.455035 20798 net.cpp:91] Creating Layer inception_3a/5x5_reduce
I0403 16:10:29.455054 20798 net.cpp:425] inception_3a/5x5_reduce <- pool2/3x3_s2_pool2/3x3_s2_0_split_2
I0403 16:10:29.455075 20798 net.cpp:399] inception_3a/5x5_reduce -> inception_3a/5x5_reduce
I0403 16:10:29.456085 20798 net.cpp:141] Setting up inception_3a/5x5_reduce
I0403 16:10:29.456115 20798 net.cpp:148] Top shape: 24 16 28 28 (301056)
I0403 16:10:29.456131 20798 net.cpp:156] Memory required for data: 535880736
I0403 16:10:29.456149 20798 layer_factory.hpp:77] Creating layer inception_3a/relu_5x5_reduce
I0403 16:10:29.456171 20798 net.cpp:91] Creating Layer inception_3a/relu_5x5_reduce
I0403 16:10:29.456188 20798 net.cpp:425] inception_3a/relu_5x5_reduce <- inception_3a/5x5_reduce
I0403 16:10:29.456207 20798 net.cpp:386] inception_3a/relu_5x5_reduce -> inception_3a/5x5_reduce (in-place)
I0403 16:10:29.456521 20798 net.cpp:141] Setting up inception_3a/relu_5x5_reduce
I0403 16:10:29.456549 20798 net.cpp:148] Top shape: 24 16 28 28 (301056)
I0403 16:10:29.456565 20798 net.cpp:156] Memory required for data: 537084960
I0403 16:10:29.456580 20798 layer_factory.hpp:77] Creating layer inception_3a/5x5
I0403 16:10:29.456604 20798 net.cpp:91] Creating Layer inception_3a/5x5
I0403 16:10:29.456622 20798 net.cpp:425] inception_3a/5x5 <- inception_3a/5x5_reduce
I0403 16:10:29.456645 20798 net.cpp:399] inception_3a/5x5 -> inception_3a/5x5
I0403 16:10:29.457715 20798 net.cpp:141] Setting up inception_3a/5x5
I0403 16:10:29.457746 20798 net.cpp:148] Top shape: 24 32 28 28 (602112)
I0403 16:10:29.457762 20798 net.cpp:156] Memory required for data: 539493408
I0403 16:10:29.457782 20798 layer_factory.hpp:77] Creating layer inception_3a/relu_5x5
I0403 16:10:29.457800 20798 net.cpp:91] Creating Layer inception_3a/relu_5x5
I0403 16:10:29.457818 20798 net.cpp:425] inception_3a/relu_5x5 <- inception_3a/5x5
I0403 16:10:29.457839 20798 net.cpp:386] inception_3a/relu_5x5 -> inception_3a/5x5 (in-place)
I0403 16:10:29.458029 20798 net.cpp:141] Setting up inception_3a/relu_5x5
I0403 16:10:29.458055 20798 net.cpp:148] Top shape: 24 32 28 28 (602112)
I0403 16:10:29.458070 20798 net.cpp:156] Memory required for data: 541901856
I0403 16:10:29.458086 20798 layer_factory.hpp:77] Creating layer inception_3a/pool
I0403 16:10:29.458104 20798 net.cpp:91] Creating Layer inception_3a/pool
I0403 16:10:29.458120 20798 net.cpp:425] inception_3a/pool <- pool2/3x3_s2_pool2/3x3_s2_0_split_3
I0403 16:10:29.458156 20798 net.cpp:399] inception_3a/pool -> inception_3a/pool
I0403 16:10:29.458220 20798 net.cpp:141] Setting up inception_3a/pool
I0403 16:10:29.458245 20798 net.cpp:148] Top shape: 24 192 28 28 (3612672)
I0403 16:10:29.458259 20798 net.cpp:156] Memory required for data: 556352544
I0403 16:10:29.458274 20798 layer_factory.hpp:77] Creating layer inception_3a/pool_proj
I0403 16:10:29.458297 20798 net.cpp:91] Creating Layer inception_3a/pool_proj
I0403 16:10:29.458315 20798 net.cpp:425] inception_3a/pool_proj <- inception_3a/pool
I0403 16:10:29.458338 20798 net.cpp:399] inception_3a/pool_proj -> inception_3a/pool_proj
I0403 16:10:29.459363 20798 net.cpp:141] Setting up inception_3a/pool_proj
I0403 16:10:29.459393 20798 net.cpp:148] Top shape: 24 32 28 28 (602112)
I0403 16:10:29.459409 20798 net.cpp:156] Memory required for data: 558760992
I0403 16:10:29.459434 20798 layer_factory.hpp:77] Creating layer inception_3a/relu_pool_proj
I0403 16:10:29.459456 20798 net.cpp:91] Creating Layer inception_3a/relu_pool_proj
I0403 16:10:29.459475 20798 net.cpp:425] inception_3a/relu_pool_proj <- inception_3a/pool_proj
I0403 16:10:29.459492 20798 net.cpp:386] inception_3a/relu_pool_proj -> inception_3a/pool_proj (in-place)
I0403 16:10:29.459780 20798 net.cpp:141] Setting up inception_3a/relu_pool_proj
I0403 16:10:29.459808 20798 net.cpp:148] Top shape: 24 32 28 28 (602112)
I0403 16:10:29.459825 20798 net.cpp:156] Memory required for data: 561169440
I0403 16:10:29.459841 20798 layer_factory.hpp:77] Creating layer inception_3a/output
I0403 16:10:29.459859 20798 net.cpp:91] Creating Layer inception_3a/output
I0403 16:10:29.459875 20798 net.cpp:425] inception_3a/output <- inception_3a/1x1
I0403 16:10:29.459892 20798 net.cpp:425] inception_3a/output <- inception_3a/3x3
I0403 16:10:29.459908 20798 net.cpp:425] inception_3a/output <- inception_3a/5x5
I0403 16:10:29.459925 20798 net.cpp:425] inception_3a/output <- inception_3a/pool_proj
I0403 16:10:29.459945 20798 net.cpp:399] inception_3a/output -> inception_3a/output
I0403 16:10:29.459998 20798 net.cpp:141] Setting up inception_3a/output
I0403 16:10:29.460026 20798 net.cpp:148] Top shape: 24 256 28 28 (4816896)
I0403 16:10:29.460042 20798 net.cpp:156] Memory required for data: 580437024
I0403 16:10:29.460057 20798 layer_factory.hpp:77] Creating layer inception_3a/output_inception_3a/output_0_split
I0403 16:10:29.460075 20798 net.cpp:91] Creating Layer inception_3a/output_inception_3a/output_0_split
I0403 16:10:29.460093 20798 net.cpp:425] inception_3a/output_inception_3a/output_0_split <- inception_3a/output
I0403 16:10:29.460110 20798 net.cpp:399] inception_3a/output_inception_3a/output_0_split -> inception_3a/output_inception_3a/output_0_split_0
I0403 16:10:29.460134 20798 net.cpp:399] inception_3a/output_inception_3a/output_0_split -> inception_3a/output_inception_3a/output_0_split_1
I0403 16:10:29.460157 20798 net.cpp:399] inception_3a/output_inception_3a/output_0_split -> inception_3a/output_inception_3a/output_0_split_2
I0403 16:10:29.460178 20798 net.cpp:399] inception_3a/output_inception_3a/output_0_split -> inception_3a/output_inception_3a/output_0_split_3
I0403 16:10:29.460254 20798 net.cpp:141] Setting up inception_3a/output_inception_3a/output_0_split
I0403 16:10:29.460281 20798 net.cpp:148] Top shape: 24 256 28 28 (4816896)
I0403 16:10:29.460299 20798 net.cpp:148] Top shape: 24 256 28 28 (4816896)
I0403 16:10:29.460315 20798 net.cpp:148] Top shape: 24 256 28 28 (4816896)
I0403 16:10:29.460332 20798 net.cpp:148] Top shape: 24 256 28 28 (4816896)
I0403 16:10:29.460346 20798 net.cpp:156] Memory required for data: 657507360
I0403 16:10:29.460361 20798 layer_factory.hpp:77] Creating layer inception_3b/1x1
I0403 16:10:29.460384 20798 net.cpp:91] Creating Layer inception_3b/1x1
I0403 16:10:29.460402 20798 net.cpp:425] inception_3b/1x1 <- inception_3a/output_inception_3a/output_0_split_0
I0403 16:10:29.460425 20798 net.cpp:399] inception_3b/1x1 -> inception_3b/1x1
I0403 16:10:29.461633 20798 net.cpp:141] Setting up inception_3b/1x1
I0403 16:10:29.461678 20798 net.cpp:148] Top shape: 24 128 28 28 (2408448)
I0403 16:10:29.461696 20798 net.cpp:156] Memory required for data: 667141152
I0403 16:10:29.461715 20798 layer_factory.hpp:77] Creating layer inception_3b/relu_1x1
I0403 16:10:29.461735 20798 net.cpp:91] Creating Layer inception_3b/relu_1x1
I0403 16:10:29.461751 20798 net.cpp:425] inception_3b/relu_1x1 <- inception_3b/1x1
I0403 16:10:29.461769 20798 net.cpp:386] inception_3b/relu_1x1 -> inception_3b/1x1 (in-place)
I0403 16:10:29.461962 20798 net.cpp:141] Setting up inception_3b/relu_1x1
I0403 16:10:29.461992 20798 net.cpp:148] Top shape: 24 128 28 28 (2408448)
I0403 16:10:29.462009 20798 net.cpp:156] Memory required for data: 676774944
I0403 16:10:29.462025 20798 layer_factory.hpp:77] Creating layer inception_3b/3x3_reduce
I0403 16:10:29.462049 20798 net.cpp:91] Creating Layer inception_3b/3x3_reduce
I0403 16:10:29.462067 20798 net.cpp:425] inception_3b/3x3_reduce <- inception_3a/output_inception_3a/output_0_split_1
I0403 16:10:29.462090 20798 net.cpp:399] inception_3b/3x3_reduce -> inception_3b/3x3_reduce
I0403 16:10:29.463304 20798 net.cpp:141] Setting up inception_3b/3x3_reduce
I0403 16:10:29.463335 20798 net.cpp:148] Top shape: 24 128 28 28 (2408448)
I0403 16:10:29.463353 20798 net.cpp:156] Memory required for data: 686408736
I0403 16:10:29.463372 20798 layer_factory.hpp:77] Creating layer inception_3b/relu_3x3_reduce
I0403 16:10:29.463392 20798 net.cpp:91] Creating Layer inception_3b/relu_3x3_reduce
I0403 16:10:29.463408 20798 net.cpp:425] inception_3b/relu_3x3_reduce <- inception_3b/3x3_reduce
I0403 16:10:29.463429 20798 net.cpp:386] inception_3b/relu_3x3_reduce -> inception_3b/3x3_reduce (in-place)
I0403 16:10:29.463616 20798 net.cpp:141] Setting up inception_3b/relu_3x3_reduce
I0403 16:10:29.463642 20798 net.cpp:148] Top shape: 24 128 28 28 (2408448)
I0403 16:10:29.463656 20798 net.cpp:156] Memory required for data: 696042528
I0403 16:10:29.463672 20798 layer_factory.hpp:77] Creating layer inception_3b/3x3
I0403 16:10:29.463699 20798 net.cpp:91] Creating Layer inception_3b/3x3
I0403 16:10:29.463718 20798 net.cpp:425] inception_3b/3x3 <- inception_3b/3x3_reduce
I0403 16:10:29.463738 20798 net.cpp:399] inception_3b/3x3 -> inception_3b/3x3
I0403 16:10:29.466819 20798 net.cpp:141] Setting up inception_3b/3x3
I0403 16:10:29.466850 20798 net.cpp:148] Top shape: 24 192 28 28 (3612672)
I0403 16:10:29.466866 20798 net.cpp:156] Memory required for data: 710493216
I0403 16:10:29.466886 20798 layer_factory.hpp:77] Creating layer inception_3b/relu_3x3
I0403 16:10:29.466904 20798 net.cpp:91] Creating Layer inception_3b/relu_3x3
I0403 16:10:29.466920 20798 net.cpp:425] inception_3b/relu_3x3 <- inception_3b/3x3
I0403 16:10:29.466941 20798 net.cpp:386] inception_3b/relu_3x3 -> inception_3b/3x3 (in-place)
I0403 16:10:29.467241 20798 net.cpp:141] Setting up inception_3b/relu_3x3
I0403 16:10:29.467267 20798 net.cpp:148] Top shape: 24 192 28 28 (3612672)
I0403 16:10:29.467283 20798 net.cpp:156] Memory required for data: 724943904
I0403 16:10:29.467298 20798 layer_factory.hpp:77] Creating layer inception_3b/5x5_reduce
I0403 16:10:29.467324 20798 net.cpp:91] Creating Layer inception_3b/5x5_reduce
I0403 16:10:29.467341 20798 net.cpp:425] inception_3b/5x5_reduce <- inception_3a/output_inception_3a/output_0_split_2
I0403 16:10:29.467363 20798 net.cpp:399] inception_3b/5x5_reduce -> inception_3b/5x5_reduce
I0403 16:10:29.468417 20798 net.cpp:141] Setting up inception_3b/5x5_reduce
I0403 16:10:29.468448 20798 net.cpp:148] Top shape: 24 32 28 28 (602112)
I0403 16:10:29.468466 20798 net.cpp:156] Memory required for data: 727352352
I0403 16:10:29.468485 20798 layer_factory.hpp:77] Creating layer inception_3b/relu_5x5_reduce
I0403 16:10:29.468504 20798 net.cpp:91] Creating Layer inception_3b/relu_5x5_reduce
I0403 16:10:29.468520 20798 net.cpp:425] inception_3b/relu_5x5_reduce <- inception_3b/5x5_reduce
I0403 16:10:29.468541 20798 net.cpp:386] inception_3b/relu_5x5_reduce -> inception_3b/5x5_reduce (in-place)
I0403 16:10:29.468732 20798 net.cpp:141] Setting up inception_3b/relu_5x5_reduce
I0403 16:10:29.468771 20798 net.cpp:148] Top shape: 24 32 28 28 (602112)
I0403 16:10:29.468787 20798 net.cpp:156] Memory required for data: 729760800
I0403 16:10:29.468802 20798 layer_factory.hpp:77] Creating layer inception_3b/5x5
I0403 16:10:29.468827 20798 net.cpp:91] Creating Layer inception_3b/5x5
I0403 16:10:29.468844 20798 net.cpp:425] inception_3b/5x5 <- inception_3b/5x5_reduce
I0403 16:10:29.468866 20798 net.cpp:399] inception_3b/5x5 -> inception_3b/5x5
I0403 16:10:29.470960 20798 net.cpp:141] Setting up inception_3b/5x5
I0403 16:10:29.470994 20798 net.cpp:148] Top shape: 24 96 28 28 (1806336)
I0403 16:10:29.471014 20798 net.cpp:156] Memory required for data: 736986144
I0403 16:10:29.471035 20798 layer_factory.hpp:77] Creating layer inception_3b/relu_5x5
I0403 16:10:29.471057 20798 net.cpp:91] Creating Layer inception_3b/relu_5x5
I0403 16:10:29.471073 20798 net.cpp:425] inception_3b/relu_5x5 <- inception_3b/5x5
I0403 16:10:29.471091 20798 net.cpp:386] inception_3b/relu_5x5 -> inception_3b/5x5 (in-place)
I0403 16:10:29.471299 20798 net.cpp:141] Setting up inception_3b/relu_5x5
I0403 16:10:29.471326 20798 net.cpp:148] Top shape: 24 96 28 28 (1806336)
I0403 16:10:29.471341 20798 net.cpp:156] Memory required for data: 744211488
I0403 16:10:29.471357 20798 layer_factory.hpp:77] Creating layer inception_3b/pool
I0403 16:10:29.471375 20798 net.cpp:91] Creating Layer inception_3b/pool
I0403 16:10:29.471391 20798 net.cpp:425] inception_3b/pool <- inception_3a/output_inception_3a/output_0_split_3
I0403 16:10:29.471410 20798 net.cpp:399] inception_3b/pool -> inception_3b/pool
I0403 16:10:29.471468 20798 net.cpp:141] Setting up inception_3b/pool
I0403 16:10:29.471493 20798 net.cpp:148] Top shape: 24 256 28 28 (4816896)
I0403 16:10:29.471508 20798 net.cpp:156] Memory required for data: 763479072
I0403 16:10:29.471524 20798 layer_factory.hpp:77] Creating layer inception_3b/pool_proj
I0403 16:10:29.471547 20798 net.cpp:91] Creating Layer inception_3b/pool_proj
I0403 16:10:29.471566 20798 net.cpp:425] inception_3b/pool_proj <- inception_3b/pool
I0403 16:10:29.471597 20798 net.cpp:399] inception_3b/pool_proj -> inception_3b/pool_proj
I0403 16:10:29.472692 20798 net.cpp:141] Setting up inception_3b/pool_proj
I0403 16:10:29.472720 20798 net.cpp:148] Top shape: 24 64 28 28 (1204224)
I0403 16:10:29.472735 20798 net.cpp:156] Memory required for data: 768295968
I0403 16:10:29.472754 20798 layer_factory.hpp:77] Creating layer inception_3b/relu_pool_proj
I0403 16:10:29.472776 20798 net.cpp:91] Creating Layer inception_3b/relu_pool_proj
I0403 16:10:29.472793 20798 net.cpp:425] inception_3b/relu_pool_proj <- inception_3b/pool_proj
I0403 16:10:29.472811 20798 net.cpp:386] inception_3b/relu_pool_proj -> inception_3b/pool_proj (in-place)
I0403 16:10:29.473224 20798 net.cpp:141] Setting up inception_3b/relu_pool_proj
I0403 16:10:29.473251 20798 net.cpp:148] Top shape: 24 64 28 28 (1204224)
I0403 16:10:29.473268 20798 net.cpp:156] Memory required for data: 773112864
I0403 16:10:29.473283 20798 layer_factory.hpp:77] Creating layer inception_3b/output
I0403 16:10:29.473300 20798 net.cpp:91] Creating Layer inception_3b/output
I0403 16:10:29.473315 20798 net.cpp:425] inception_3b/output <- inception_3b/1x1
I0403 16:10:29.473335 20798 net.cpp:425] inception_3b/output <- inception_3b/3x3
I0403 16:10:29.473351 20798 net.cpp:425] inception_3b/output <- inception_3b/5x5
I0403 16:10:29.473368 20798 net.cpp:425] inception_3b/output <- inception_3b/pool_proj
I0403 16:10:29.473386 20798 net.cpp:399] inception_3b/output -> inception_3b/output
I0403 16:10:29.473429 20798 net.cpp:141] Setting up inception_3b/output
I0403 16:10:29.473454 20798 net.cpp:148] Top shape: 24 480 28 28 (9031680)
I0403 16:10:29.473470 20798 net.cpp:156] Memory required for data: 809239584
I0403 16:10:29.473485 20798 layer_factory.hpp:77] Creating layer pool3/3x3_s2
I0403 16:10:29.473502 20798 net.cpp:91] Creating Layer pool3/3x3_s2
I0403 16:10:29.473518 20798 net.cpp:425] pool3/3x3_s2 <- inception_3b/output
I0403 16:10:29.473539 20798 net.cpp:399] pool3/3x3_s2 -> pool3/3x3_s2
I0403 16:10:29.473613 20798 net.cpp:141] Setting up pool3/3x3_s2
I0403 16:10:29.473639 20798 net.cpp:148] Top shape: 24 480 14 14 (2257920)
I0403 16:10:29.473654 20798 net.cpp:156] Memory required for data: 818271264
I0403 16:10:29.473670 20798 layer_factory.hpp:77] Creating layer pool3/3x3_s2_pool3/3x3_s2_0_split
I0403 16:10:29.473686 20798 net.cpp:91] Creating Layer pool3/3x3_s2_pool3/3x3_s2_0_split
I0403 16:10:29.473701 20798 net.cpp:425] pool3/3x3_s2_pool3/3x3_s2_0_split <- pool3/3x3_s2
I0403 16:10:29.473718 20798 net.cpp:399] pool3/3x3_s2_pool3/3x3_s2_0_split -> pool3/3x3_s2_pool3/3x3_s2_0_split_0
I0403 16:10:29.473737 20798 net.cpp:399] pool3/3x3_s2_pool3/3x3_s2_0_split -> pool3/3x3_s2_pool3/3x3_s2_0_split_1
I0403 16:10:29.473757 20798 net.cpp:399] pool3/3x3_s2_pool3/3x3_s2_0_split -> pool3/3x3_s2_pool3/3x3_s2_0_split_2
I0403 16:10:29.473778 20798 net.cpp:399] pool3/3x3_s2_pool3/3x3_s2_0_split -> pool3/3x3_s2_pool3/3x3_s2_0_split_3
I0403 16:10:29.473858 20798 net.cpp:141] Setting up pool3/3x3_s2_pool3/3x3_s2_0_split
I0403 16:10:29.473881 20798 net.cpp:148] Top shape: 24 480 14 14 (2257920)
I0403 16:10:29.473897 20798 net.cpp:148] Top shape: 24 480 14 14 (2257920)
I0403 16:10:29.473912 20798 net.cpp:148] Top shape: 24 480 14 14 (2257920)
I0403 16:10:29.473932 20798 net.cpp:148] Top shape: 24 480 14 14 (2257920)
I0403 16:10:29.473945 20798 net.cpp:156] Memory required for data: 854397984
I0403 16:10:29.473959 20798 layer_factory.hpp:77] Creating layer inception_4a/1x1
I0403 16:10:29.473983 20798 net.cpp:91] Creating Layer inception_4a/1x1
I0403 16:10:29.474004 20798 net.cpp:425] inception_4a/1x1 <- pool3/3x3_s2_pool3/3x3_s2_0_split_0
I0403 16:10:29.474027 20798 net.cpp:399] inception_4a/1x1 -> inception_4a/1x1
I0403 16:10:29.475644 20798 net.cpp:141] Setting up inception_4a/1x1
I0403 16:10:29.475672 20798 net.cpp:148] Top shape: 24 192 14 14 (903168)
I0403 16:10:29.475687 20798 net.cpp:156] Memory required for data: 858010656
I0403 16:10:29.475706 20798 layer_factory.hpp:77] Creating layer inception_4a/relu_1x1
I0403 16:10:29.475728 20798 net.cpp:91] Creating Layer inception_4a/relu_1x1
I0403 16:10:29.475744 20798 net.cpp:425] inception_4a/relu_1x1 <- inception_4a/1x1
I0403 16:10:29.475765 20798 net.cpp:386] inception_4a/relu_1x1 -> inception_4a/1x1 (in-place)
I0403 16:10:29.475950 20798 net.cpp:141] Setting up inception_4a/relu_1x1
I0403 16:10:29.475978 20798 net.cpp:148] Top shape: 24 192 14 14 (903168)
I0403 16:10:29.475999 20798 net.cpp:156] Memory required for data: 861623328
I0403 16:10:29.476016 20798 layer_factory.hpp:77] Creating layer inception_4a/3x3_reduce
I0403 16:10:29.476038 20798 net.cpp:91] Creating Layer inception_4a/3x3_reduce
I0403 16:10:29.476057 20798 net.cpp:425] inception_4a/3x3_reduce <- pool3/3x3_s2_pool3/3x3_s2_0_split_1
I0403 16:10:29.476075 20798 net.cpp:399] inception_4a/3x3_reduce -> inception_4a/3x3_reduce
I0403 16:10:29.477422 20798 net.cpp:141] Setting up inception_4a/3x3_reduce
I0403 16:10:29.477452 20798 net.cpp:148] Top shape: 24 96 14 14 (451584)
I0403 16:10:29.477468 20798 net.cpp:156] Memory required for data: 863429664
I0403 16:10:29.477493 20798 layer_factory.hpp:77] Creating layer inception_4a/relu_3x3_reduce
I0403 16:10:29.477515 20798 net.cpp:91] Creating Layer inception_4a/relu_3x3_reduce
I0403 16:10:29.477532 20798 net.cpp:425] inception_4a/relu_3x3_reduce <- inception_4a/3x3_reduce
I0403 16:10:29.477550 20798 net.cpp:386] inception_4a/relu_3x3_reduce -> inception_4a/3x3_reduce (in-place)
I0403 16:10:29.477732 20798 net.cpp:141] Setting up inception_4a/relu_3x3_reduce
I0403 16:10:29.477759 20798 net.cpp:148] Top shape: 24 96 14 14 (451584)
I0403 16:10:29.477776 20798 net.cpp:156] Memory required for data: 865236000
I0403 16:10:29.477790 20798 layer_factory.hpp:77] Creating layer inception_4a/3x3
I0403 16:10:29.477813 20798 net.cpp:91] Creating Layer inception_4a/3x3
I0403 16:10:29.477830 20798 net.cpp:425] inception_4a/3x3 <- inception_4a/3x3_reduce
I0403 16:10:29.477849 20798 net.cpp:399] inception_4a/3x3 -> inception_4a/3x3
I0403 16:10:29.480618 20798 net.cpp:141] Setting up inception_4a/3x3
I0403 16:10:29.480650 20798 net.cpp:148] Top shape: 24 208 14 14 (978432)
I0403 16:10:29.480669 20798 net.cpp:156] Memory required for data: 869149728
I0403 16:10:29.480687 20798 layer_factory.hpp:77] Creating layer inception_4a/relu_3x3
I0403 16:10:29.480705 20798 net.cpp:91] Creating Layer inception_4a/relu_3x3
I0403 16:10:29.480721 20798 net.cpp:425] inception_4a/relu_3x3 <- inception_4a/3x3
I0403 16:10:29.480741 20798 net.cpp:386] inception_4a/relu_3x3 -> inception_4a/3x3 (in-place)
I0403 16:10:29.481040 20798 net.cpp:141] Setting up inception_4a/relu_3x3
I0403 16:10:29.481068 20798 net.cpp:148] Top shape: 24 208 14 14 (978432)
I0403 16:10:29.481086 20798 net.cpp:156] Memory required for data: 873063456
I0403 16:10:29.481101 20798 layer_factory.hpp:77] Creating layer inception_4a/5x5_reduce
I0403 16:10:29.481124 20798 net.cpp:91] Creating Layer inception_4a/5x5_reduce
I0403 16:10:29.481142 20798 net.cpp:425] inception_4a/5x5_reduce <- pool3/3x3_s2_pool3/3x3_s2_0_split_2
I0403 16:10:29.481163 20798 net.cpp:399] inception_4a/5x5_reduce -> inception_4a/5x5_reduce
I0403 16:10:29.482197 20798 net.cpp:141] Setting up inception_4a/5x5_reduce
I0403 16:10:29.482228 20798 net.cpp:148] Top shape: 24 16 14 14 (75264)
I0403 16:10:29.482244 20798 net.cpp:156] Memory required for data: 873364512
I0403 16:10:29.482262 20798 layer_factory.hpp:77] Creating layer inception_4a/relu_5x5_reduce
I0403 16:10:29.482280 20798 net.cpp:91] Creating Layer inception_4a/relu_5x5_reduce
I0403 16:10:29.482295 20798 net.cpp:425] inception_4a/relu_5x5_reduce <- inception_4a/5x5_reduce
I0403 16:10:29.482316 20798 net.cpp:386] inception_4a/relu_5x5_reduce -> inception_4a/5x5_reduce (in-place)
I0403 16:10:29.482493 20798 net.cpp:141] Setting up inception_4a/relu_5x5_reduce
I0403 16:10:29.482517 20798 net.cpp:148] Top shape: 24 16 14 14 (75264)
I0403 16:10:29.482532 20798 net.cpp:156] Memory required for data: 873665568
I0403 16:10:29.482547 20798 layer_factory.hpp:77] Creating layer inception_4a/5x5
I0403 16:10:29.482568 20798 net.cpp:91] Creating Layer inception_4a/5x5
I0403 16:10:29.482586 20798 net.cpp:425] inception_4a/5x5 <- inception_4a/5x5_reduce
I0403 16:10:29.482606 20798 net.cpp:399] inception_4a/5x5 -> inception_4a/5x5
I0403 16:10:29.483700 20798 net.cpp:141] Setting up inception_4a/5x5
I0403 16:10:29.483741 20798 net.cpp:148] Top shape: 24 48 14 14 (225792)
I0403 16:10:29.483757 20798 net.cpp:156] Memory required for data: 874568736
I0403 16:10:29.483774 20798 layer_factory.hpp:77] Creating layer inception_4a/relu_5x5
I0403 16:10:29.483795 20798 net.cpp:91] Creating Layer inception_4a/relu_5x5
I0403 16:10:29.483813 20798 net.cpp:425] inception_4a/relu_5x5 <- inception_4a/5x5
I0403 16:10:29.483829 20798 net.cpp:386] inception_4a/relu_5x5 -> inception_4a/5x5 (in-place)
I0403 16:10:29.484035 20798 net.cpp:141] Setting up inception_4a/relu_5x5
I0403 16:10:29.484060 20798 net.cpp:148] Top shape: 24 48 14 14 (225792)
I0403 16:10:29.484073 20798 net.cpp:156] Memory required for data: 875471904
I0403 16:10:29.484088 20798 layer_factory.hpp:77] Creating layer inception_4a/pool
I0403 16:10:29.484107 20798 net.cpp:91] Creating Layer inception_4a/pool
I0403 16:10:29.484123 20798 net.cpp:425] inception_4a/pool <- pool3/3x3_s2_pool3/3x3_s2_0_split_3
I0403 16:10:29.484141 20798 net.cpp:399] inception_4a/pool -> inception_4a/pool
I0403 16:10:29.484202 20798 net.cpp:141] Setting up inception_4a/pool
I0403 16:10:29.484225 20798 net.cpp:148] Top shape: 24 480 14 14 (2257920)
I0403 16:10:29.484239 20798 net.cpp:156] Memory required for data: 884503584
I0403 16:10:29.484254 20798 layer_factory.hpp:77] Creating layer inception_4a/pool_proj
I0403 16:10:29.484277 20798 net.cpp:91] Creating Layer inception_4a/pool_proj
I0403 16:10:29.484293 20798 net.cpp:425] inception_4a/pool_proj <- inception_4a/pool
I0403 16:10:29.484314 20798 net.cpp:399] inception_4a/pool_proj -> inception_4a/pool_proj
I0403 16:10:29.485486 20798 net.cpp:141] Setting up inception_4a/pool_proj
I0403 16:10:29.485513 20798 net.cpp:148] Top shape: 24 64 14 14 (301056)
I0403 16:10:29.485543 20798 net.cpp:156] Memory required for data: 885707808
I0403 16:10:29.485563 20798 layer_factory.hpp:77] Creating layer inception_4a/relu_pool_proj
I0403 16:10:29.485584 20798 net.cpp:91] Creating Layer inception_4a/relu_pool_proj
I0403 16:10:29.485600 20798 net.cpp:425] inception_4a/relu_pool_proj <- inception_4a/pool_proj
I0403 16:10:29.485617 20798 net.cpp:386] inception_4a/relu_pool_proj -> inception_4a/pool_proj (in-place)
I0403 16:10:29.485901 20798 net.cpp:141] Setting up inception_4a/relu_pool_proj
I0403 16:10:29.485926 20798 net.cpp:148] Top shape: 24 64 14 14 (301056)
I0403 16:10:29.485941 20798 net.cpp:156] Memory required for data: 886912032
I0403 16:10:29.485956 20798 layer_factory.hpp:77] Creating layer inception_4a/output
I0403 16:10:29.485976 20798 net.cpp:91] Creating Layer inception_4a/output
I0403 16:10:29.486011 20798 net.cpp:425] inception_4a/output <- inception_4a/1x1
I0403 16:10:29.486030 20798 net.cpp:425] inception_4a/output <- inception_4a/3x3
I0403 16:10:29.486047 20798 net.cpp:425] inception_4a/output <- inception_4a/5x5
I0403 16:10:29.486063 20798 net.cpp:425] inception_4a/output <- inception_4a/pool_proj
I0403 16:10:29.486080 20798 net.cpp:399] inception_4a/output -> inception_4a/output
I0403 16:10:29.486127 20798 net.cpp:141] Setting up inception_4a/output
I0403 16:10:29.486150 20798 net.cpp:148] Top shape: 24 512 14 14 (2408448)
I0403 16:10:29.486166 20798 net.cpp:156] Memory required for data: 896545824
I0403 16:10:29.486179 20798 layer_factory.hpp:77] Creating layer inception_4a/output_inception_4a/output_0_split
I0403 16:10:29.486197 20798 net.cpp:91] Creating Layer inception_4a/output_inception_4a/output_0_split
I0403 16:10:29.486214 20798 net.cpp:425] inception_4a/output_inception_4a/output_0_split <- inception_4a/output
I0403 16:10:29.486234 20798 net.cpp:399] inception_4a/output_inception_4a/output_0_split -> inception_4a/output_inception_4a/output_0_split_0
I0403 16:10:29.486256 20798 net.cpp:399] inception_4a/output_inception_4a/output_0_split -> inception_4a/output_inception_4a/output_0_split_1
I0403 16:10:29.486276 20798 net.cpp:399] inception_4a/output_inception_4a/output_0_split -> inception_4a/output_inception_4a/output_0_split_2
I0403 16:10:29.486296 20798 net.cpp:399] inception_4a/output_inception_4a/output_0_split -> inception_4a/output_inception_4a/output_0_split_3
I0403 16:10:29.486316 20798 net.cpp:399] inception_4a/output_inception_4a/output_0_split -> inception_4a/output_inception_4a/output_0_split_4
I0403 16:10:29.486410 20798 net.cpp:141] Setting up inception_4a/output_inception_4a/output_0_split
I0403 16:10:29.486434 20798 net.cpp:148] Top shape: 24 512 14 14 (2408448)
I0403 16:10:29.486454 20798 net.cpp:148] Top shape: 24 512 14 14 (2408448)
I0403 16:10:29.486469 20798 net.cpp:148] Top shape: 24 512 14 14 (2408448)
I0403 16:10:29.486485 20798 net.cpp:148] Top shape: 24 512 14 14 (2408448)
I0403 16:10:29.486501 20798 net.cpp:148] Top shape: 24 512 14 14 (2408448)
I0403 16:10:29.486515 20798 net.cpp:156] Memory required for data: 944714784
I0403 16:10:29.486531 20798 layer_factory.hpp:77] Creating layer loss1/ave_pool
I0403 16:10:29.486547 20798 net.cpp:91] Creating Layer loss1/ave_pool
I0403 16:10:29.486563 20798 net.cpp:425] loss1/ave_pool <- inception_4a/output_inception_4a/output_0_split_0
I0403 16:10:29.486582 20798 net.cpp:399] loss1/ave_pool -> loss1/ave_pool
I0403 16:10:29.486798 20798 net.cpp:141] Setting up loss1/ave_pool
I0403 16:10:29.486824 20798 net.cpp:148] Top shape: 24 512 4 4 (196608)
I0403 16:10:29.486840 20798 net.cpp:156] Memory required for data: 945501216
I0403 16:10:29.486855 20798 layer_factory.hpp:77] Creating layer loss1/conv
I0403 16:10:29.486879 20798 net.cpp:91] Creating Layer loss1/conv
I0403 16:10:29.486897 20798 net.cpp:425] loss1/conv <- loss1/ave_pool
I0403 16:10:29.486918 20798 net.cpp:399] loss1/conv -> loss1/conv
I0403 16:10:29.488433 20798 net.cpp:141] Setting up loss1/conv
I0403 16:10:29.488466 20798 net.cpp:148] Top shape: 24 128 4 4 (49152)
I0403 16:10:29.488483 20798 net.cpp:156] Memory required for data: 945697824
I0403 16:10:29.488517 20798 layer_factory.hpp:77] Creating layer loss1/relu_conv
I0403 16:10:29.488538 20798 net.cpp:91] Creating Layer loss1/relu_conv
I0403 16:10:29.488554 20798 net.cpp:425] loss1/relu_conv <- loss1/conv
I0403 16:10:29.488574 20798 net.cpp:386] loss1/relu_conv -> loss1/conv (in-place)
I0403 16:10:29.488873 20798 net.cpp:141] Setting up loss1/relu_conv
I0403 16:10:29.488903 20798 net.cpp:148] Top shape: 24 128 4 4 (49152)
I0403 16:10:29.488919 20798 net.cpp:156] Memory required for data: 945894432
I0403 16:10:29.488934 20798 layer_factory.hpp:77] Creating layer loss1/fc
I0403 16:10:29.488960 20798 net.cpp:91] Creating Layer loss1/fc
I0403 16:10:29.488977 20798 net.cpp:425] loss1/fc <- loss1/conv
I0403 16:10:29.489025 20798 net.cpp:399] loss1/fc -> loss1/fc
I0403 16:10:29.507159 20798 net.cpp:141] Setting up loss1/fc
I0403 16:10:29.507194 20798 net.cpp:148] Top shape: 24 1024 (24576)
I0403 16:10:29.507210 20798 net.cpp:156] Memory required for data: 945992736
I0403 16:10:29.507228 20798 layer_factory.hpp:77] Creating layer loss1/relu_fc
I0403 16:10:29.507248 20798 net.cpp:91] Creating Layer loss1/relu_fc
I0403 16:10:29.507266 20798 net.cpp:425] loss1/relu_fc <- loss1/fc
I0403 16:10:29.507282 20798 net.cpp:386] loss1/relu_fc -> loss1/fc (in-place)
I0403 16:10:29.507475 20798 net.cpp:141] Setting up loss1/relu_fc
I0403 16:10:29.507501 20798 net.cpp:148] Top shape: 24 1024 (24576)
I0403 16:10:29.507515 20798 net.cpp:156] Memory required for data: 946091040
I0403 16:10:29.507529 20798 layer_factory.hpp:77] Creating layer loss1/drop_fc
I0403 16:10:29.507558 20798 net.cpp:91] Creating Layer loss1/drop_fc
I0403 16:10:29.507576 20798 net.cpp:425] loss1/drop_fc <- loss1/fc
I0403 16:10:29.507593 20798 net.cpp:386] loss1/drop_fc -> loss1/fc (in-place)
I0403 16:10:29.507647 20798 net.cpp:141] Setting up loss1/drop_fc
I0403 16:10:29.507669 20798 net.cpp:148] Top shape: 24 1024 (24576)
I0403 16:10:29.507683 20798 net.cpp:156] Memory required for data: 946189344
I0403 16:10:29.507699 20798 layer_factory.hpp:77] Creating layer loss1/classifier_plantvillage
I0403 16:10:29.507721 20798 net.cpp:91] Creating Layer loss1/classifier_plantvillage
I0403 16:10:29.507738 20798 net.cpp:425] loss1/classifier_plantvillage <- loss1/fc
I0403 16:10:29.507756 20798 net.cpp:399] loss1/classifier_plantvillage -> loss1/classifier_plantvillage
I0403 16:10:29.508656 20798 net.cpp:141] Setting up loss1/classifier_plantvillage
I0403 16:10:29.508684 20798 net.cpp:148] Top shape: 24 38 (912)
I0403 16:10:29.508699 20798 net.cpp:156] Memory required for data: 946192992
I0403 16:10:29.508718 20798 layer_factory.hpp:77] Creating layer loss1/classifier_plantvillage_loss1/classifier_plantvillage_0_split
I0403 16:10:29.508736 20798 net.cpp:91] Creating Layer loss1/classifier_plantvillage_loss1/classifier_plantvillage_0_split
I0403 16:10:29.508754 20798 net.cpp:425] loss1/classifier_plantvillage_loss1/classifier_plantvillage_0_split <- loss1/classifier_plantvillage
I0403 16:10:29.508771 20798 net.cpp:399] loss1/classifier_plantvillage_loss1/classifier_plantvillage_0_split -> loss1/classifier_plantvillage_loss1/classifier_plantvillage_0_split_0
I0403 16:10:29.508793 20798 net.cpp:399] loss1/classifier_plantvillage_loss1/classifier_plantvillage_0_split -> loss1/classifier_plantvillage_loss1/classifier_plantvillage_0_split_1
I0403 16:10:29.508815 20798 net.cpp:399] loss1/classifier_plantvillage_loss1/classifier_plantvillage_0_split -> loss1/classifier_plantvillage_loss1/classifier_plantvillage_0_split_2
I0403 16:10:29.508880 20798 net.cpp:141] Setting up loss1/classifier_plantvillage_loss1/classifier_plantvillage_0_split
I0403 16:10:29.508903 20798 net.cpp:148] Top shape: 24 38 (912)
I0403 16:10:29.508919 20798 net.cpp:148] Top shape: 24 38 (912)
I0403 16:10:29.508934 20798 net.cpp:148] Top shape: 24 38 (912)
I0403 16:10:29.508947 20798 net.cpp:156] Memory required for data: 946203936
I0403 16:10:29.508962 20798 layer_factory.hpp:77] Creating layer inception_4b/1x1
I0403 16:10:29.508985 20798 net.cpp:91] Creating Layer inception_4b/1x1
I0403 16:10:29.509029 20798 net.cpp:425] inception_4b/1x1 <- inception_4a/output_inception_4a/output_0_split_1
I0403 16:10:29.509050 20798 net.cpp:399] inception_4b/1x1 -> inception_4b/1x1
I0403 16:10:29.510725 20798 net.cpp:141] Setting up inception_4b/1x1
I0403 16:10:29.510756 20798 net.cpp:148] Top shape: 24 160 14 14 (752640)
I0403 16:10:29.510772 20798 net.cpp:156] Memory required for data: 949214496
I0403 16:10:29.510790 20798 layer_factory.hpp:77] Creating layer inception_4b/relu_1x1
I0403 16:10:29.510808 20798 net.cpp:91] Creating Layer inception_4b/relu_1x1
I0403 16:10:29.510824 20798 net.cpp:425] inception_4b/relu_1x1 <- inception_4b/1x1
I0403 16:10:29.510844 20798 net.cpp:386] inception_4b/relu_1x1 -> inception_4b/1x1 (in-place)
I0403 16:10:29.511030 20798 net.cpp:141] Setting up inception_4b/relu_1x1
I0403 16:10:29.511055 20798 net.cpp:148] Top shape: 24 160 14 14 (752640)
I0403 16:10:29.511070 20798 net.cpp:156] Memory required for data: 952225056
I0403 16:10:29.511085 20798 layer_factory.hpp:77] Creating layer inception_4b/3x3_reduce
I0403 16:10:29.511107 20798 net.cpp:91] Creating Layer inception_4b/3x3_reduce
I0403 16:10:29.511124 20798 net.cpp:425] inception_4b/3x3_reduce <- inception_4a/output_inception_4a/output_0_split_2
I0403 16:10:29.511147 20798 net.cpp:399] inception_4b/3x3_reduce -> inception_4b/3x3_reduce
I0403 16:10:29.512501 20798 net.cpp:141] Setting up inception_4b/3x3_reduce
I0403 16:10:29.512529 20798 net.cpp:148] Top shape: 24 112 14 14 (526848)
I0403 16:10:29.512544 20798 net.cpp:156] Memory required for data: 954332448
I0403 16:10:29.512562 20798 layer_factory.hpp:77] Creating layer inception_4b/relu_3x3_reduce
I0403 16:10:29.512579 20798 net.cpp:91] Creating Layer inception_4b/relu_3x3_reduce
I0403 16:10:29.512595 20798 net.cpp:425] inception_4b/relu_3x3_reduce <- inception_4b/3x3_reduce
I0403 16:10:29.512615 20798 net.cpp:386] inception_4b/relu_3x3_reduce -> inception_4b/3x3_reduce (in-place)
I0403 16:10:29.512902 20798 net.cpp:141] Setting up inception_4b/relu_3x3_reduce
I0403 16:10:29.512928 20798 net.cpp:148] Top shape: 24 112 14 14 (526848)
I0403 16:10:29.512943 20798 net.cpp:156] Memory required for data: 956439840
I0403 16:10:29.512958 20798 layer_factory.hpp:77] Creating layer inception_4b/3x3
I0403 16:10:29.512979 20798 net.cpp:91] Creating Layer inception_4b/3x3
I0403 16:10:29.513001 20798 net.cpp:425] inception_4b/3x3 <- inception_4b/3x3_reduce
I0403 16:10:29.513022 20798 net.cpp:399] inception_4b/3x3 -> inception_4b/3x3
I0403 16:10:29.516031 20798 net.cpp:141] Setting up inception_4b/3x3
I0403 16:10:29.516060 20798 net.cpp:148] Top shape: 24 224 14 14 (1053696)
I0403 16:10:29.516075 20798 net.cpp:156] Memory required for data: 960654624
I0403 16:10:29.516093 20798 layer_factory.hpp:77] Creating layer inception_4b/relu_3x3
I0403 16:10:29.516114 20798 net.cpp:91] Creating Layer inception_4b/relu_3x3
I0403 16:10:29.516131 20798 net.cpp:425] inception_4b/relu_3x3 <- inception_4b/3x3
I0403 16:10:29.516149 20798 net.cpp:386] inception_4b/relu_3x3 -> inception_4b/3x3 (in-place)
I0403 16:10:29.516333 20798 net.cpp:141] Setting up inception_4b/relu_3x3
I0403 16:10:29.516360 20798 net.cpp:148] Top shape: 24 224 14 14 (1053696)
I0403 16:10:29.516373 20798 net.cpp:156] Memory required for data: 964869408
I0403 16:10:29.516388 20798 layer_factory.hpp:77] Creating layer inception_4b/5x5_reduce
I0403 16:10:29.516410 20798 net.cpp:91] Creating Layer inception_4b/5x5_reduce
I0403 16:10:29.516427 20798 net.cpp:425] inception_4b/5x5_reduce <- inception_4a/output_inception_4a/output_0_split_3
I0403 16:10:29.516449 20798 net.cpp:399] inception_4b/5x5_reduce -> inception_4b/5x5_reduce
I0403 16:10:29.517537 20798 net.cpp:141] Setting up inception_4b/5x5_reduce
I0403 16:10:29.517565 20798 net.cpp:148] Top shape: 24 24 14 14 (112896)
I0403 16:10:29.517580 20798 net.cpp:156] Memory required for data: 965320992
I0403 16:10:29.517597 20798 layer_factory.hpp:77] Creating layer inception_4b/relu_5x5_reduce
I0403 16:10:29.517616 20798 net.cpp:91] Creating Layer inception_4b/relu_5x5_reduce
I0403 16:10:29.517645 20798 net.cpp:425] inception_4b/relu_5x5_reduce <- inception_4b/5x5_reduce
I0403 16:10:29.517666 20798 net.cpp:386] inception_4b/relu_5x5_reduce -> inception_4b/5x5_reduce (in-place)
I0403 16:10:29.517850 20798 net.cpp:141] Setting up inception_4b/relu_5x5_reduce
I0403 16:10:29.517874 20798 net.cpp:148] Top shape: 24 24 14 14 (112896)
I0403 16:10:29.517889 20798 net.cpp:156] Memory required for data: 965772576
I0403 16:10:29.517904 20798 layer_factory.hpp:77] Creating layer inception_4b/5x5
I0403 16:10:29.517925 20798 net.cpp:91] Creating Layer inception_4b/5x5
I0403 16:10:29.517942 20798 net.cpp:425] inception_4b/5x5 <- inception_4b/5x5_reduce
I0403 16:10:29.517962 20798 net.cpp:399] inception_4b/5x5 -> inception_4b/5x5
I0403 16:10:29.519210 20798 net.cpp:141] Setting up inception_4b/5x5
I0403 16:10:29.519242 20798 net.cpp:148] Top shape: 24 64 14 14 (301056)
I0403 16:10:29.519258 20798 net.cpp:156] Memory required for data: 966976800
I0403 16:10:29.519276 20798 layer_factory.hpp:77] Creating layer inception_4b/relu_5x5
I0403 16:10:29.519294 20798 net.cpp:91] Creating Layer inception_4b/relu_5x5
I0403 16:10:29.519309 20798 net.cpp:425] inception_4b/relu_5x5 <- inception_4b/5x5
I0403 16:10:29.519330 20798 net.cpp:386] inception_4b/relu_5x5 -> inception_4b/5x5 (in-place)
I0403 16:10:29.519615 20798 net.cpp:141] Setting up inception_4b/relu_5x5
I0403 16:10:29.519645 20798 net.cpp:148] Top shape: 24 64 14 14 (301056)
I0403 16:10:29.519661 20798 net.cpp:156] Memory required for data: 968181024
I0403 16:10:29.519676 20798 layer_factory.hpp:77] Creating layer inception_4b/pool
I0403 16:10:29.519695 20798 net.cpp:91] Creating Layer inception_4b/pool
I0403 16:10:29.519711 20798 net.cpp:425] inception_4b/pool <- inception_4a/output_inception_4a/output_0_split_4
I0403 16:10:29.519731 20798 net.cpp:399] inception_4b/pool -> inception_4b/pool
I0403 16:10:29.519794 20798 net.cpp:141] Setting up inception_4b/pool
I0403 16:10:29.519820 20798 net.cpp:148] Top shape: 24 512 14 14 (2408448)
I0403 16:10:29.519836 20798 net.cpp:156] Memory required for data: 977814816
I0403 16:10:29.519851 20798 layer_factory.hpp:77] Creating layer inception_4b/pool_proj
I0403 16:10:29.519871 20798 net.cpp:91] Creating Layer inception_4b/pool_proj
I0403 16:10:29.519887 20798 net.cpp:425] inception_4b/pool_proj <- inception_4b/pool
I0403 16:10:29.519908 20798 net.cpp:399] inception_4b/pool_proj -> inception_4b/pool_proj
I0403 16:10:29.521121 20798 net.cpp:141] Setting up inception_4b/pool_proj
I0403 16:10:29.521147 20798 net.cpp:148] Top shape: 24 64 14 14 (301056)
I0403 16:10:29.521163 20798 net.cpp:156] Memory required for data: 979019040
I0403 16:10:29.521181 20798 layer_factory.hpp:77] Creating layer inception_4b/relu_pool_proj
I0403 16:10:29.521198 20798 net.cpp:91] Creating Layer inception_4b/relu_pool_proj
I0403 16:10:29.521216 20798 net.cpp:425] inception_4b/relu_pool_proj <- inception_4b/pool_proj
I0403 16:10:29.521236 20798 net.cpp:386] inception_4b/relu_pool_proj -> inception_4b/pool_proj (in-place)
I0403 16:10:29.521417 20798 net.cpp:141] Setting up inception_4b/relu_pool_proj
I0403 16:10:29.521442 20798 net.cpp:148] Top shape: 24 64 14 14 (301056)
I0403 16:10:29.521456 20798 net.cpp:156] Memory required for data: 980223264
I0403 16:10:29.521471 20798 layer_factory.hpp:77] Creating layer inception_4b/output
I0403 16:10:29.521488 20798 net.cpp:91] Creating Layer inception_4b/output
I0403 16:10:29.521503 20798 net.cpp:425] inception_4b/output <- inception_4b/1x1
I0403 16:10:29.521522 20798 net.cpp:425] inception_4b/output <- inception_4b/3x3
I0403 16:10:29.521538 20798 net.cpp:425] inception_4b/output <- inception_4b/5x5
I0403 16:10:29.521554 20798 net.cpp:425] inception_4b/output <- inception_4b/pool_proj
I0403 16:10:29.521570 20798 net.cpp:399] inception_4b/output -> inception_4b/output
I0403 16:10:29.521617 20798 net.cpp:141] Setting up inception_4b/output
I0403 16:10:29.521639 20798 net.cpp:148] Top shape: 24 512 14 14 (2408448)
I0403 16:10:29.521654 20798 net.cpp:156] Memory required for data: 989857056
I0403 16:10:29.521682 20798 layer_factory.hpp:77] Creating layer inception_4b/output_inception_4b/output_0_split
I0403 16:10:29.521700 20798 net.cpp:91] Creating Layer inception_4b/output_inception_4b/output_0_split
I0403 16:10:29.521716 20798 net.cpp:425] inception_4b/output_inception_4b/output_0_split <- inception_4b/output
I0403 16:10:29.521736 20798 net.cpp:399] inception_4b/output_inception_4b/output_0_split -> inception_4b/output_inception_4b/output_0_split_0
I0403 16:10:29.521756 20798 net.cpp:399] inception_4b/output_inception_4b/output_0_split -> inception_4b/output_inception_4b/output_0_split_1
I0403 16:10:29.521776 20798 net.cpp:399] inception_4b/output_inception_4b/output_0_split -> inception_4b/output_inception_4b/output_0_split_2
I0403 16:10:29.521795 20798 net.cpp:399] inception_4b/output_inception_4b/output_0_split -> inception_4b/output_inception_4b/output_0_split_3
I0403 16:10:29.521878 20798 net.cpp:141] Setting up inception_4b/output_inception_4b/output_0_split
I0403 16:10:29.521903 20798 net.cpp:148] Top shape: 24 512 14 14 (2408448)
I0403 16:10:29.521921 20798 net.cpp:148] Top shape: 24 512 14 14 (2408448)
I0403 16:10:29.521936 20798 net.cpp:148] Top shape: 24 512 14 14 (2408448)
I0403 16:10:29.521951 20798 net.cpp:148] Top shape: 24 512 14 14 (2408448)
I0403 16:10:29.521965 20798 net.cpp:156] Memory required for data: 1028392224
I0403 16:10:29.521980 20798 layer_factory.hpp:77] Creating layer inception_4c/1x1
I0403 16:10:29.522006 20798 net.cpp:91] Creating Layer inception_4c/1x1
I0403 16:10:29.522024 20798 net.cpp:425] inception_4c/1x1 <- inception_4b/output_inception_4b/output_0_split_0
I0403 16:10:29.522042 20798 net.cpp:399] inception_4c/1x1 -> inception_4c/1x1
I0403 16:10:29.523485 20798 net.cpp:141] Setting up inception_4c/1x1
I0403 16:10:29.523514 20798 net.cpp:148] Top shape: 24 128 14 14 (602112)
I0403 16:10:29.523537 20798 net.cpp:156] Memory required for data: 1030800672
I0403 16:10:29.523556 20798 layer_factory.hpp:77] Creating layer inception_4c/relu_1x1
I0403 16:10:29.523583 20798 net.cpp:91] Creating Layer inception_4c/relu_1x1
I0403 16:10:29.523602 20798 net.cpp:425] inception_4c/relu_1x1 <- inception_4c/1x1
I0403 16:10:29.523618 20798 net.cpp:386] inception_4c/relu_1x1 -> inception_4c/1x1 (in-place)
I0403 16:10:29.523802 20798 net.cpp:141] Setting up inception_4c/relu_1x1
I0403 16:10:29.523830 20798 net.cpp:148] Top shape: 24 128 14 14 (602112)
I0403 16:10:29.523852 20798 net.cpp:156] Memory required for data: 1033209120
I0403 16:10:29.523874 20798 layer_factory.hpp:77] Creating layer inception_4c/3x3_reduce
I0403 16:10:29.523901 20798 net.cpp:91] Creating Layer inception_4c/3x3_reduce
I0403 16:10:29.523924 20798 net.cpp:425] inception_4c/3x3_reduce <- inception_4b/output_inception_4b/output_0_split_1
I0403 16:10:29.523960 20798 net.cpp:399] inception_4c/3x3_reduce -> inception_4c/3x3_reduce
I0403 16:10:29.525974 20798 net.cpp:141] Setting up inception_4c/3x3_reduce
I0403 16:10:29.526010 20798 net.cpp:148] Top shape: 24 128 14 14 (602112)
I0403 16:10:29.526027 20798 net.cpp:156] Memory required for data: 1035617568
I0403 16:10:29.526046 20798 layer_factory.hpp:77] Creating layer inception_4c/relu_3x3_reduce
I0403 16:10:29.526064 20798 net.cpp:91] Creating Layer inception_4c/relu_3x3_reduce
I0403 16:10:29.526080 20798 net.cpp:425] inception_4c/relu_3x3_reduce <- inception_4c/3x3_reduce
I0403 16:10:29.526100 20798 net.cpp:386] inception_4c/relu_3x3_reduce -> inception_4c/3x3_reduce (in-place)
I0403 16:10:29.526399 20798 net.cpp:141] Setting up inception_4c/relu_3x3_reduce
I0403 16:10:29.526427 20798 net.cpp:148] Top shape: 24 128 14 14 (602112)
I0403 16:10:29.526443 20798 net.cpp:156] Memory required for data: 1038026016
I0403 16:10:29.526458 20798 layer_factory.hpp:77] Creating layer inception_4c/3x3
I0403 16:10:29.526482 20798 net.cpp:91] Creating Layer inception_4c/3x3
I0403 16:10:29.526500 20798 net.cpp:425] inception_4c/3x3 <- inception_4c/3x3_reduce
I0403 16:10:29.526522 20798 net.cpp:399] inception_4c/3x3 -> inception_4c/3x3
I0403 16:10:29.530254 20798 net.cpp:141] Setting up inception_4c/3x3
I0403 16:10:29.530299 20798 net.cpp:148] Top shape: 24 256 14 14 (1204224)
I0403 16:10:29.530316 20798 net.cpp:156] Memory required for data: 1042842912
I0403 16:10:29.530349 20798 layer_factory.hpp:77] Creating layer inception_4c/relu_3x3
I0403 16:10:29.530370 20798 net.cpp:91] Creating Layer inception_4c/relu_3x3
I0403 16:10:29.530387 20798 net.cpp:425] inception_4c/relu_3x3 <- inception_4c/3x3
I0403 16:10:29.530407 20798 net.cpp:386] inception_4c/relu_3x3 -> inception_4c/3x3 (in-place)
I0403 16:10:29.530598 20798 net.cpp:141] Setting up inception_4c/relu_3x3
I0403 16:10:29.530624 20798 net.cpp:148] Top shape: 24 256 14 14 (1204224)
I0403 16:10:29.530639 20798 net.cpp:156] Memory required for data: 1047659808
I0403 16:10:29.530654 20798 layer_factory.hpp:77] Creating layer inception_4c/5x5_reduce
I0403 16:10:29.530678 20798 net.cpp:91] Creating Layer inception_4c/5x5_reduce
I0403 16:10:29.530695 20798 net.cpp:425] inception_4c/5x5_reduce <- inception_4b/output_inception_4b/output_0_split_2
I0403 16:10:29.530719 20798 net.cpp:399] inception_4c/5x5_reduce -> inception_4c/5x5_reduce
I0403 16:10:29.531855 20798 net.cpp:141] Setting up inception_4c/5x5_reduce
I0403 16:10:29.531884 20798 net.cpp:148] Top shape: 24 24 14 14 (112896)
I0403 16:10:29.531900 20798 net.cpp:156] Memory required for data: 1048111392
I0403 16:10:29.531919 20798 layer_factory.hpp:77] Creating layer inception_4c/relu_5x5_reduce
I0403 16:10:29.531937 20798 net.cpp:91] Creating Layer inception_4c/relu_5x5_reduce
I0403 16:10:29.531954 20798 net.cpp:425] inception_4c/relu_5x5_reduce <- inception_4c/5x5_reduce
I0403 16:10:29.531975 20798 net.cpp:386] inception_4c/relu_5x5_reduce -> inception_4c/5x5_reduce (in-place)
I0403 16:10:29.532171 20798 net.cpp:141] Setting up inception_4c/relu_5x5_reduce
I0403 16:10:29.532197 20798 net.cpp:148] Top shape: 24 24 14 14 (112896)
I0403 16:10:29.532213 20798 net.cpp:156] Memory required for data: 1048562976
I0403 16:10:29.532228 20798 layer_factory.hpp:77] Creating layer inception_4c/5x5
I0403 16:10:29.532251 20798 net.cpp:91] Creating Layer inception_4c/5x5
I0403 16:10:29.532269 20798 net.cpp:425] inception_4c/5x5 <- inception_4c/5x5_reduce
I0403 16:10:29.532290 20798 net.cpp:399] inception_4c/5x5 -> inception_4c/5x5
I0403 16:10:29.533584 20798 net.cpp:141] Setting up inception_4c/5x5
I0403 16:10:29.533612 20798 net.cpp:148] Top shape: 24 64 14 14 (301056)
I0403 16:10:29.533628 20798 net.cpp:156] Memory required for data: 1049767200
I0403 16:10:29.533646 20798 layer_factory.hpp:77] Creating layer inception_4c/relu_5x5
I0403 16:10:29.533668 20798 net.cpp:91] Creating Layer inception_4c/relu_5x5
I0403 16:10:29.533684 20798 net.cpp:425] inception_4c/relu_5x5 <- inception_4c/5x5
I0403 16:10:29.533701 20798 net.cpp:386] inception_4c/relu_5x5 -> inception_4c/5x5 (in-place)
I0403 16:10:29.534008 20798 net.cpp:141] Setting up inception_4c/relu_5x5
I0403 16:10:29.534034 20798 net.cpp:148] Top shape: 24 64 14 14 (301056)
I0403 16:10:29.534049 20798 net.cpp:156] Memory required for data: 1050971424
I0403 16:10:29.534063 20798 layer_factory.hpp:77] Creating layer inception_4c/pool
I0403 16:10:29.534085 20798 net.cpp:91] Creating Layer inception_4c/pool
I0403 16:10:29.534102 20798 net.cpp:425] inception_4c/pool <- inception_4b/output_inception_4b/output_0_split_3
I0403 16:10:29.534121 20798 net.cpp:399] inception_4c/pool -> inception_4c/pool
I0403 16:10:29.534189 20798 net.cpp:141] Setting up inception_4c/pool
I0403 16:10:29.534214 20798 net.cpp:148] Top shape: 24 512 14 14 (2408448)
I0403 16:10:29.534229 20798 net.cpp:156] Memory required for data: 1060605216
I0403 16:10:29.534245 20798 layer_factory.hpp:77] Creating layer inception_4c/pool_proj
I0403 16:10:29.534267 20798 net.cpp:91] Creating Layer inception_4c/pool_proj
I0403 16:10:29.534286 20798 net.cpp:425] inception_4c/pool_proj <- inception_4c/pool
I0403 16:10:29.534309 20798 net.cpp:399] inception_4c/pool_proj -> inception_4c/pool_proj
I0403 16:10:29.535578 20798 net.cpp:141] Setting up inception_4c/pool_proj
I0403 16:10:29.535609 20798 net.cpp:148] Top shape: 24 64 14 14 (301056)
I0403 16:10:29.535640 20798 net.cpp:156] Memory required for data: 1061809440
I0403 16:10:29.535658 20798 layer_factory.hpp:77] Creating layer inception_4c/relu_pool_proj
I0403 16:10:29.535677 20798 net.cpp:91] Creating Layer inception_4c/relu_pool_proj
I0403 16:10:29.535694 20798 net.cpp:425] inception_4c/relu_pool_proj <- inception_4c/pool_proj
I0403 16:10:29.535714 20798 net.cpp:386] inception_4c/relu_pool_proj -> inception_4c/pool_proj (in-place)
I0403 16:10:29.535907 20798 net.cpp:141] Setting up inception_4c/relu_pool_proj
I0403 16:10:29.535931 20798 net.cpp:148] Top shape: 24 64 14 14 (301056)
I0403 16:10:29.535946 20798 net.cpp:156] Memory required for data: 1063013664
I0403 16:10:29.535961 20798 layer_factory.hpp:77] Creating layer inception_4c/output
I0403 16:10:29.535979 20798 net.cpp:91] Creating Layer inception_4c/output
I0403 16:10:29.536015 20798 net.cpp:425] inception_4c/output <- inception_4c/1x1
I0403 16:10:29.536034 20798 net.cpp:425] inception_4c/output <- inception_4c/3x3
I0403 16:10:29.536061 20798 net.cpp:425] inception_4c/output <- inception_4c/5x5
I0403 16:10:29.536077 20798 net.cpp:425] inception_4c/output <- inception_4c/pool_proj
I0403 16:10:29.536098 20798 net.cpp:399] inception_4c/output -> inception_4c/output
I0403 16:10:29.536150 20798 net.cpp:141] Setting up inception_4c/output
I0403 16:10:29.536175 20798 net.cpp:148] Top shape: 24 512 14 14 (2408448)
I0403 16:10:29.536190 20798 net.cpp:156] Memory required for data: 1072647456
I0403 16:10:29.536206 20798 layer_factory.hpp:77] Creating layer inception_4c/output_inception_4c/output_0_split
I0403 16:10:29.536223 20798 net.cpp:91] Creating Layer inception_4c/output_inception_4c/output_0_split
I0403 16:10:29.536239 20798 net.cpp:425] inception_4c/output_inception_4c/output_0_split <- inception_4c/output
I0403 16:10:29.536260 20798 net.cpp:399] inception_4c/output_inception_4c/output_0_split -> inception_4c/output_inception_4c/output_0_split_0
I0403 16:10:29.536283 20798 net.cpp:399] inception_4c/output_inception_4c/output_0_split -> inception_4c/output_inception_4c/output_0_split_1
I0403 16:10:29.536303 20798 net.cpp:399] inception_4c/output_inception_4c/output_0_split -> inception_4c/output_inception_4c/output_0_split_2
I0403 16:10:29.536324 20798 net.cpp:399] inception_4c/output_inception_4c/output_0_split -> inception_4c/output_inception_4c/output_0_split_3
I0403 16:10:29.536420 20798 net.cpp:141] Setting up inception_4c/output_inception_4c/output_0_split
I0403 16:10:29.536448 20798 net.cpp:148] Top shape: 24 512 14 14 (2408448)
I0403 16:10:29.536465 20798 net.cpp:148] Top shape: 24 512 14 14 (2408448)
I0403 16:10:29.536483 20798 net.cpp:148] Top shape: 24 512 14 14 (2408448)
I0403 16:10:29.536499 20798 net.cpp:148] Top shape: 24 512 14 14 (2408448)
I0403 16:10:29.536514 20798 net.cpp:156] Memory required for data: 1111182624
I0403 16:10:29.536528 20798 layer_factory.hpp:77] Creating layer inception_4d/1x1
I0403 16:10:29.536551 20798 net.cpp:91] Creating Layer inception_4d/1x1
I0403 16:10:29.536569 20798 net.cpp:425] inception_4d/1x1 <- inception_4c/output_inception_4c/output_0_split_0
I0403 16:10:29.536592 20798 net.cpp:399] inception_4d/1x1 -> inception_4d/1x1
I0403 16:10:29.538087 20798 net.cpp:141] Setting up inception_4d/1x1
I0403 16:10:29.538117 20798 net.cpp:148] Top shape: 24 112 14 14 (526848)
I0403 16:10:29.538133 20798 net.cpp:156] Memory required for data: 1113290016
I0403 16:10:29.538152 20798 layer_factory.hpp:77] Creating layer inception_4d/relu_1x1
I0403 16:10:29.538173 20798 net.cpp:91] Creating Layer inception_4d/relu_1x1
I0403 16:10:29.538192 20798 net.cpp:425] inception_4d/relu_1x1 <- inception_4d/1x1
I0403 16:10:29.538209 20798 net.cpp:386] inception_4d/relu_1x1 -> inception_4d/1x1 (in-place)
I0403 16:10:29.538409 20798 net.cpp:141] Setting up inception_4d/relu_1x1
I0403 16:10:29.538436 20798 net.cpp:148] Top shape: 24 112 14 14 (526848)
I0403 16:10:29.538452 20798 net.cpp:156] Memory required for data: 1115397408
I0403 16:10:29.538468 20798 layer_factory.hpp:77] Creating layer inception_4d/3x3_reduce
I0403 16:10:29.538506 20798 net.cpp:91] Creating Layer inception_4d/3x3_reduce
I0403 16:10:29.538525 20798 net.cpp:425] inception_4d/3x3_reduce <- inception_4c/output_inception_4c/output_0_split_1
I0403 16:10:29.538550 20798 net.cpp:399] inception_4d/3x3_reduce -> inception_4d/3x3_reduce
I0403 16:10:29.540191 20798 net.cpp:141] Setting up inception_4d/3x3_reduce
I0403 16:10:29.540222 20798 net.cpp:148] Top shape: 24 144 14 14 (677376)
I0403 16:10:29.540238 20798 net.cpp:156] Memory required for data: 1118106912
I0403 16:10:29.540258 20798 layer_factory.hpp:77] Creating layer inception_4d/relu_3x3_reduce
I0403 16:10:29.540280 20798 net.cpp:91] Creating Layer inception_4d/relu_3x3_reduce
I0403 16:10:29.540297 20798 net.cpp:425] inception_4d/relu_3x3_reduce <- inception_4d/3x3_reduce
I0403 16:10:29.540315 20798 net.cpp:386] inception_4d/relu_3x3_reduce -> inception_4d/3x3_reduce (in-place)
I0403 16:10:29.540632 20798 net.cpp:141] Setting up inception_4d/relu_3x3_reduce
I0403 16:10:29.540658 20798 net.cpp:148] Top shape: 24 144 14 14 (677376)
I0403 16:10:29.540674 20798 net.cpp:156] Memory required for data: 1120816416
I0403 16:10:29.540690 20798 layer_factory.hpp:77] Creating layer inception_4d/3x3
I0403 16:10:29.540714 20798 net.cpp:91] Creating Layer inception_4d/3x3
I0403 16:10:29.540734 20798 net.cpp:425] inception_4d/3x3 <- inception_4d/3x3_reduce
I0403 16:10:29.540755 20798 net.cpp:399] inception_4d/3x3 -> inception_4d/3x3
I0403 16:10:29.545289 20798 net.cpp:141] Setting up inception_4d/3x3
I0403 16:10:29.545322 20798 net.cpp:148] Top shape: 24 288 14 14 (1354752)
I0403 16:10:29.545339 20798 net.cpp:156] Memory required for data: 1126235424
I0403 16:10:29.545358 20798 layer_factory.hpp:77] Creating layer inception_4d/relu_3x3
I0403 16:10:29.545378 20798 net.cpp:91] Creating Layer inception_4d/relu_3x3
I0403 16:10:29.545394 20798 net.cpp:425] inception_4d/relu_3x3 <- inception_4d/3x3
I0403 16:10:29.545413 20798 net.cpp:386] inception_4d/relu_3x3 -> inception_4d/3x3 (in-place)
I0403 16:10:29.545614 20798 net.cpp:141] Setting up inception_4d/relu_3x3
I0403 16:10:29.545641 20798 net.cpp:148] Top shape: 24 288 14 14 (1354752)
I0403 16:10:29.545656 20798 net.cpp:156] Memory required for data: 1131654432
I0403 16:10:29.545672 20798 layer_factory.hpp:77] Creating layer inception_4d/5x5_reduce
I0403 16:10:29.545696 20798 net.cpp:91] Creating Layer inception_4d/5x5_reduce
I0403 16:10:29.545714 20798 net.cpp:425] inception_4d/5x5_reduce <- inception_4c/output_inception_4c/output_0_split_2
I0403 16:10:29.545737 20798 net.cpp:399] inception_4d/5x5_reduce -> inception_4d/5x5_reduce
I0403 16:10:29.546974 20798 net.cpp:141] Setting up inception_4d/5x5_reduce
I0403 16:10:29.547011 20798 net.cpp:148] Top shape: 24 32 14 14 (150528)
I0403 16:10:29.547029 20798 net.cpp:156] Memory required for data: 1132256544
I0403 16:10:29.547049 20798 layer_factory.hpp:77] Creating layer inception_4d/relu_5x5_reduce
I0403 16:10:29.547068 20798 net.cpp:91] Creating Layer inception_4d/relu_5x5_reduce
I0403 16:10:29.547086 20798 net.cpp:425] inception_4d/relu_5x5_reduce <- inception_4d/5x5_reduce
I0403 16:10:29.547106 20798 net.cpp:386] inception_4d/relu_5x5_reduce -> inception_4d/5x5_reduce (in-place)
I0403 16:10:29.547310 20798 net.cpp:141] Setting up inception_4d/relu_5x5_reduce
I0403 16:10:29.547336 20798 net.cpp:148] Top shape: 24 32 14 14 (150528)
I0403 16:10:29.547351 20798 net.cpp:156] Memory required for data: 1132858656
I0403 16:10:29.547368 20798 layer_factory.hpp:77] Creating layer inception_4d/5x5
I0403 16:10:29.547391 20798 net.cpp:91] Creating Layer inception_4d/5x5
I0403 16:10:29.547410 20798 net.cpp:425] inception_4d/5x5 <- inception_4d/5x5_reduce
I0403 16:10:29.547431 20798 net.cpp:399] inception_4d/5x5 -> inception_4d/5x5
I0403 16:10:29.549026 20798 net.cpp:141] Setting up inception_4d/5x5
I0403 16:10:29.549055 20798 net.cpp:148] Top shape: 24 64 14 14 (301056)
I0403 16:10:29.549072 20798 net.cpp:156] Memory required for data: 1134062880
I0403 16:10:29.549091 20798 layer_factory.hpp:77] Creating layer inception_4d/relu_5x5
I0403 16:10:29.549125 20798 net.cpp:91] Creating Layer inception_4d/relu_5x5
I0403 16:10:29.549144 20798 net.cpp:425] inception_4d/relu_5x5 <- inception_4d/5x5
I0403 16:10:29.549166 20798 net.cpp:386] inception_4d/relu_5x5 -> inception_4d/5x5 (in-place)
I0403 16:10:29.549486 20798 net.cpp:141] Setting up inception_4d/relu_5x5
I0403 16:10:29.549515 20798 net.cpp:148] Top shape: 24 64 14 14 (301056)
I0403 16:10:29.549530 20798 net.cpp:156] Memory required for data: 1135267104
I0403 16:10:29.549546 20798 layer_factory.hpp:77] Creating layer inception_4d/pool
I0403 16:10:29.549566 20798 net.cpp:91] Creating Layer inception_4d/pool
I0403 16:10:29.549582 20798 net.cpp:425] inception_4d/pool <- inception_4c/output_inception_4c/output_0_split_3
I0403 16:10:29.549603 20798 net.cpp:399] inception_4d/pool -> inception_4d/pool
I0403 16:10:29.549674 20798 net.cpp:141] Setting up inception_4d/pool
I0403 16:10:29.549700 20798 net.cpp:148] Top shape: 24 512 14 14 (2408448)
I0403 16:10:29.549717 20798 net.cpp:156] Memory required for data: 1144900896
I0403 16:10:29.549732 20798 layer_factory.hpp:77] Creating layer inception_4d/pool_proj
I0403 16:10:29.549758 20798 net.cpp:91] Creating Layer inception_4d/pool_proj
I0403 16:10:29.549777 20798 net.cpp:425] inception_4d/pool_proj <- inception_4d/pool
I0403 16:10:29.549796 20798 net.cpp:399] inception_4d/pool_proj -> inception_4d/pool_proj
I0403 16:10:29.551674 20798 net.cpp:141] Setting up inception_4d/pool_proj
I0403 16:10:29.551708 20798 net.cpp:148] Top shape: 24 64 14 14 (301056)
I0403 16:10:29.551725 20798 net.cpp:156] Memory required for data: 1146105120
I0403 16:10:29.551744 20798 layer_factory.hpp:77] Creating layer inception_4d/relu_pool_proj
I0403 16:10:29.551764 20798 net.cpp:91] Creating Layer inception_4d/relu_pool_proj
I0403 16:10:29.551781 20798 net.cpp:425] inception_4d/relu_pool_proj <- inception_4d/pool_proj
I0403 16:10:29.551800 20798 net.cpp:386] inception_4d/relu_pool_proj -> inception_4d/pool_proj (in-place)
I0403 16:10:29.552006 20798 net.cpp:141] Setting up inception_4d/relu_pool_proj
I0403 16:10:29.552032 20798 net.cpp:148] Top shape: 24 64 14 14 (301056)
I0403 16:10:29.552048 20798 net.cpp:156] Memory required for data: 1147309344
I0403 16:10:29.552063 20798 layer_factory.hpp:77] Creating layer inception_4d/output
I0403 16:10:29.552081 20798 net.cpp:91] Creating Layer inception_4d/output
I0403 16:10:29.552098 20798 net.cpp:425] inception_4d/output <- inception_4d/1x1
I0403 16:10:29.552115 20798 net.cpp:425] inception_4d/output <- inception_4d/3x3
I0403 16:10:29.552132 20798 net.cpp:425] inception_4d/output <- inception_4d/5x5
I0403 16:10:29.552150 20798 net.cpp:425] inception_4d/output <- inception_4d/pool_proj
I0403 16:10:29.552170 20798 net.cpp:399] inception_4d/output -> inception_4d/output
I0403 16:10:29.552220 20798 net.cpp:141] Setting up inception_4d/output
I0403 16:10:29.552248 20798 net.cpp:148] Top shape: 24 528 14 14 (2483712)
I0403 16:10:29.552263 20798 net.cpp:156] Memory required for data: 1157244192
I0403 16:10:29.552279 20798 layer_factory.hpp:77] Creating layer inception_4d/output_inception_4d/output_0_split
I0403 16:10:29.552297 20798 net.cpp:91] Creating Layer inception_4d/output_inception_4d/output_0_split
I0403 16:10:29.552314 20798 net.cpp:425] inception_4d/output_inception_4d/output_0_split <- inception_4d/output
I0403 16:10:29.552337 20798 net.cpp:399] inception_4d/output_inception_4d/output_0_split -> inception_4d/output_inception_4d/output_0_split_0
I0403 16:10:29.552361 20798 net.cpp:399] inception_4d/output_inception_4d/output_0_split -> inception_4d/output_inception_4d/output_0_split_1
I0403 16:10:29.552382 20798 net.cpp:399] inception_4d/output_inception_4d/output_0_split -> inception_4d/output_inception_4d/output_0_split_2
I0403 16:10:29.552405 20798 net.cpp:399] inception_4d/output_inception_4d/output_0_split -> inception_4d/output_inception_4d/output_0_split_3
I0403 16:10:29.552425 20798 net.cpp:399] inception_4d/output_inception_4d/output_0_split -> inception_4d/output_inception_4d/output_0_split_4
I0403 16:10:29.552532 20798 net.cpp:141] Setting up inception_4d/output_inception_4d/output_0_split
I0403 16:10:29.552570 20798 net.cpp:148] Top shape: 24 528 14 14 (2483712)
I0403 16:10:29.552588 20798 net.cpp:148] Top shape: 24 528 14 14 (2483712)
I0403 16:10:29.552604 20798 net.cpp:148] Top shape: 24 528 14 14 (2483712)
I0403 16:10:29.552620 20798 net.cpp:148] Top shape: 24 528 14 14 (2483712)
I0403 16:10:29.552636 20798 net.cpp:148] Top shape: 24 528 14 14 (2483712)
I0403 16:10:29.552651 20798 net.cpp:156] Memory required for data: 1206918432
I0403 16:10:29.552666 20798 layer_factory.hpp:77] Creating layer loss2/ave_pool
I0403 16:10:29.552687 20798 net.cpp:91] Creating Layer loss2/ave_pool
I0403 16:10:29.552705 20798 net.cpp:425] loss2/ave_pool <- inception_4d/output_inception_4d/output_0_split_0
I0403 16:10:29.552724 20798 net.cpp:399] loss2/ave_pool -> loss2/ave_pool
I0403 16:10:29.553067 20798 net.cpp:141] Setting up loss2/ave_pool
I0403 16:10:29.553097 20798 net.cpp:148] Top shape: 24 528 4 4 (202752)
I0403 16:10:29.553114 20798 net.cpp:156] Memory required for data: 1207729440
I0403 16:10:29.553130 20798 layer_factory.hpp:77] Creating layer loss2/conv
I0403 16:10:29.553154 20798 net.cpp:91] Creating Layer loss2/conv
I0403 16:10:29.553172 20798 net.cpp:425] loss2/conv <- loss2/ave_pool
I0403 16:10:29.553192 20798 net.cpp:399] loss2/conv -> loss2/conv
I0403 16:10:29.555227 20798 net.cpp:141] Setting up loss2/conv
I0403 16:10:29.555255 20798 net.cpp:148] Top shape: 24 128 4 4 (49152)
I0403 16:10:29.555272 20798 net.cpp:156] Memory required for data: 1207926048
I0403 16:10:29.555291 20798 layer_factory.hpp:77] Creating layer loss2/relu_conv
I0403 16:10:29.555313 20798 net.cpp:91] Creating Layer loss2/relu_conv
I0403 16:10:29.555331 20798 net.cpp:425] loss2/relu_conv <- loss2/conv
I0403 16:10:29.555349 20798 net.cpp:386] loss2/relu_conv -> loss2/conv (in-place)
I0403 16:10:29.555660 20798 net.cpp:141] Setting up loss2/relu_conv
I0403 16:10:29.555686 20798 net.cpp:148] Top shape: 24 128 4 4 (49152)
I0403 16:10:29.555701 20798 net.cpp:156] Memory required for data: 1208122656
I0403 16:10:29.555716 20798 layer_factory.hpp:77] Creating layer loss2/fc
I0403 16:10:29.555739 20798 net.cpp:91] Creating Layer loss2/fc
I0403 16:10:29.555757 20798 net.cpp:425] loss2/fc <- loss2/conv
I0403 16:10:29.555775 20798 net.cpp:399] loss2/fc -> loss2/fc
I0403 16:10:29.573801 20798 net.cpp:141] Setting up loss2/fc
I0403 16:10:29.573848 20798 net.cpp:148] Top shape: 24 1024 (24576)
I0403 16:10:29.573863 20798 net.cpp:156] Memory required for data: 1208220960
I0403 16:10:29.573881 20798 layer_factory.hpp:77] Creating layer loss2/relu_fc
I0403 16:10:29.573899 20798 net.cpp:91] Creating Layer loss2/relu_fc
I0403 16:10:29.573915 20798 net.cpp:425] loss2/relu_fc <- loss2/fc
I0403 16:10:29.573935 20798 net.cpp:386] loss2/relu_fc -> loss2/fc (in-place)
I0403 16:10:29.574256 20798 net.cpp:141] Setting up loss2/relu_fc
I0403 16:10:29.574283 20798 net.cpp:148] Top shape: 24 1024 (24576)
I0403 16:10:29.574300 20798 net.cpp:156] Memory required for data: 1208319264
I0403 16:10:29.574314 20798 layer_factory.hpp:77] Creating layer loss2/drop_fc
I0403 16:10:29.574332 20798 net.cpp:91] Creating Layer loss2/drop_fc
I0403 16:10:29.574348 20798 net.cpp:425] loss2/drop_fc <- loss2/fc
I0403 16:10:29.574368 20798 net.cpp:386] loss2/drop_fc -> loss2/fc (in-place)
I0403 16:10:29.574415 20798 net.cpp:141] Setting up loss2/drop_fc
I0403 16:10:29.574437 20798 net.cpp:148] Top shape: 24 1024 (24576)
I0403 16:10:29.574451 20798 net.cpp:156] Memory required for data: 1208417568
I0403 16:10:29.574466 20798 layer_factory.hpp:77] Creating layer loss2/classifier_plantvillage
I0403 16:10:29.574487 20798 net.cpp:91] Creating Layer loss2/classifier_plantvillage
I0403 16:10:29.574504 20798 net.cpp:425] loss2/classifier_plantvillage <- loss2/fc
I0403 16:10:29.574524 20798 net.cpp:399] loss2/classifier_plantvillage -> loss2/classifier_plantvillage
I0403 16:10:29.574923 20798 net.cpp:141] Setting up loss2/classifier_plantvillage
I0403 16:10:29.574946 20798 net.cpp:148] Top shape: 24 38 (912)
I0403 16:10:29.574961 20798 net.cpp:156] Memory required for data: 1208421216
I0403 16:10:29.575006 20798 layer_factory.hpp:77] Creating layer loss2/classifier_plantvillage_loss2/classifier_plantvillage_0_split
I0403 16:10:29.575027 20798 net.cpp:91] Creating Layer loss2/classifier_plantvillage_loss2/classifier_plantvillage_0_split
I0403 16:10:29.575043 20798 net.cpp:425] loss2/classifier_plantvillage_loss2/classifier_plantvillage_0_split <- loss2/classifier_plantvillage
I0403 16:10:29.575060 20798 net.cpp:399] loss2/classifier_plantvillage_loss2/classifier_plantvillage_0_split -> loss2/classifier_plantvillage_loss2/classifier_plantvillage_0_split_0
I0403 16:10:29.575080 20798 net.cpp:399] loss2/classifier_plantvillage_loss2/classifier_plantvillage_0_split -> loss2/classifier_plantvillage_loss2/classifier_plantvillage_0_split_1
I0403 16:10:29.575100 20798 net.cpp:399] loss2/classifier_plantvillage_loss2/classifier_plantvillage_0_split -> loss2/classifier_plantvillage_loss2/classifier_plantvillage_0_split_2
I0403 16:10:29.575176 20798 net.cpp:141] Setting up loss2/classifier_plantvillage_loss2/classifier_plantvillage_0_split
I0403 16:10:29.575199 20798 net.cpp:148] Top shape: 24 38 (912)
I0403 16:10:29.575215 20798 net.cpp:148] Top shape: 24 38 (912)
I0403 16:10:29.575230 20798 net.cpp:148] Top shape: 24 38 (912)
I0403 16:10:29.575243 20798 net.cpp:156] Memory required for data: 1208432160
I0403 16:10:29.575258 20798 layer_factory.hpp:77] Creating layer inception_4e/1x1
I0403 16:10:29.575278 20798 net.cpp:91] Creating Layer inception_4e/1x1
I0403 16:10:29.575294 20798 net.cpp:425] inception_4e/1x1 <- inception_4d/output_inception_4d/output_0_split_1
I0403 16:10:29.575314 20798 net.cpp:399] inception_4e/1x1 -> inception_4e/1x1
I0403 16:10:29.577162 20798 net.cpp:141] Setting up inception_4e/1x1
I0403 16:10:29.577189 20798 net.cpp:148] Top shape: 24 256 14 14 (1204224)
I0403 16:10:29.577204 20798 net.cpp:156] Memory required for data: 1213249056
I0403 16:10:29.577222 20798 layer_factory.hpp:77] Creating layer inception_4e/relu_1x1
I0403 16:10:29.577242 20798 net.cpp:91] Creating Layer inception_4e/relu_1x1
I0403 16:10:29.577260 20798 net.cpp:425] inception_4e/relu_1x1 <- inception_4e/1x1
I0403 16:10:29.577276 20798 net.cpp:386] inception_4e/relu_1x1 -> inception_4e/1x1 (in-place)
I0403 16:10:29.577574 20798 net.cpp:141] Setting up inception_4e/relu_1x1
I0403 16:10:29.577600 20798 net.cpp:148] Top shape: 24 256 14 14 (1204224)
I0403 16:10:29.577615 20798 net.cpp:156] Memory required for data: 1218065952
I0403 16:10:29.577630 20798 layer_factory.hpp:77] Creating layer inception_4e/3x3_reduce
I0403 16:10:29.577652 20798 net.cpp:91] Creating Layer inception_4e/3x3_reduce
I0403 16:10:29.577668 20798 net.cpp:425] inception_4e/3x3_reduce <- inception_4d/output_inception_4d/output_0_split_2
I0403 16:10:29.577689 20798 net.cpp:399] inception_4e/3x3_reduce -> inception_4e/3x3_reduce
I0403 16:10:29.579793 20798 net.cpp:141] Setting up inception_4e/3x3_reduce
I0403 16:10:29.579821 20798 net.cpp:148] Top shape: 24 160 14 14 (752640)
I0403 16:10:29.579836 20798 net.cpp:156] Memory required for data: 1221076512
I0403 16:10:29.579854 20798 layer_factory.hpp:77] Creating layer inception_4e/relu_3x3_reduce
I0403 16:10:29.579871 20798 net.cpp:91] Creating Layer inception_4e/relu_3x3_reduce
I0403 16:10:29.579890 20798 net.cpp:425] inception_4e/relu_3x3_reduce <- inception_4e/3x3_reduce
I0403 16:10:29.579906 20798 net.cpp:386] inception_4e/relu_3x3_reduce -> inception_4e/3x3_reduce (in-place)
I0403 16:10:29.580093 20798 net.cpp:141] Setting up inception_4e/relu_3x3_reduce
I0403 16:10:29.580117 20798 net.cpp:148] Top shape: 24 160 14 14 (752640)
I0403 16:10:29.580132 20798 net.cpp:156] Memory required for data: 1224087072
I0403 16:10:29.580145 20798 layer_factory.hpp:77] Creating layer inception_4e/3x3
I0403 16:10:29.580168 20798 net.cpp:91] Creating Layer inception_4e/3x3
I0403 16:10:29.580184 20798 net.cpp:425] inception_4e/3x3 <- inception_4e/3x3_reduce
I0403 16:10:29.580204 20798 net.cpp:399] inception_4e/3x3 -> inception_4e/3x3
I0403 16:10:29.585111 20798 net.cpp:141] Setting up inception_4e/3x3
I0403 16:10:29.585151 20798 net.cpp:148] Top shape: 24 320 14 14 (1505280)
I0403 16:10:29.585167 20798 net.cpp:156] Memory required for data: 1230108192
I0403 16:10:29.585185 20798 layer_factory.hpp:77] Creating layer inception_4e/relu_3x3
I0403 16:10:29.585204 20798 net.cpp:91] Creating Layer inception_4e/relu_3x3
I0403 16:10:29.585222 20798 net.cpp:425] inception_4e/relu_3x3 <- inception_4e/3x3
I0403 16:10:29.585238 20798 net.cpp:386] inception_4e/relu_3x3 -> inception_4e/3x3 (in-place)
I0403 16:10:29.585539 20798 net.cpp:141] Setting up inception_4e/relu_3x3
I0403 16:10:29.585566 20798 net.cpp:148] Top shape: 24 320 14 14 (1505280)
I0403 16:10:29.585579 20798 net.cpp:156] Memory required for data: 1236129312
I0403 16:10:29.585593 20798 layer_factory.hpp:77] Creating layer inception_4e/5x5_reduce
I0403 16:10:29.585618 20798 net.cpp:91] Creating Layer inception_4e/5x5_reduce
I0403 16:10:29.585635 20798 net.cpp:425] inception_4e/5x5_reduce <- inception_4d/output_inception_4d/output_0_split_3
I0403 16:10:29.585654 20798 net.cpp:399] inception_4e/5x5_reduce -> inception_4e/5x5_reduce
I0403 16:10:29.586721 20798 net.cpp:141] Setting up inception_4e/5x5_reduce
I0403 16:10:29.586748 20798 net.cpp:148] Top shape: 24 32 14 14 (150528)
I0403 16:10:29.586763 20798 net.cpp:156] Memory required for data: 1236731424
I0403 16:10:29.586781 20798 layer_factory.hpp:77] Creating layer inception_4e/relu_5x5_reduce
I0403 16:10:29.586797 20798 net.cpp:91] Creating Layer inception_4e/relu_5x5_reduce
I0403 16:10:29.586813 20798 net.cpp:425] inception_4e/relu_5x5_reduce <- inception_4e/5x5_reduce
I0403 16:10:29.586833 20798 net.cpp:386] inception_4e/relu_5x5_reduce -> inception_4e/5x5_reduce (in-place)
I0403 16:10:29.587131 20798 net.cpp:141] Setting up inception_4e/relu_5x5_reduce
I0403 16:10:29.587157 20798 net.cpp:148] Top shape: 24 32 14 14 (150528)
I0403 16:10:29.587170 20798 net.cpp:156] Memory required for data: 1237333536
I0403 16:10:29.587185 20798 layer_factory.hpp:77] Creating layer inception_4e/5x5
I0403 16:10:29.587223 20798 net.cpp:91] Creating Layer inception_4e/5x5
I0403 16:10:29.587240 20798 net.cpp:425] inception_4e/5x5 <- inception_4e/5x5_reduce
I0403 16:10:29.587258 20798 net.cpp:399] inception_4e/5x5 -> inception_4e/5x5
I0403 16:10:29.589087 20798 net.cpp:141] Setting up inception_4e/5x5
I0403 16:10:29.589117 20798 net.cpp:148] Top shape: 24 128 14 14 (602112)
I0403 16:10:29.589131 20798 net.cpp:156] Memory required for data: 1239741984
I0403 16:10:29.589149 20798 layer_factory.hpp:77] Creating layer inception_4e/relu_5x5
I0403 16:10:29.589166 20798 net.cpp:91] Creating Layer inception_4e/relu_5x5
I0403 16:10:29.589182 20798 net.cpp:425] inception_4e/relu_5x5 <- inception_4e/5x5
I0403 16:10:29.589201 20798 net.cpp:386] inception_4e/relu_5x5 -> inception_4e/5x5 (in-place)
I0403 16:10:29.589398 20798 net.cpp:141] Setting up inception_4e/relu_5x5
I0403 16:10:29.589422 20798 net.cpp:148] Top shape: 24 128 14 14 (602112)
I0403 16:10:29.589437 20798 net.cpp:156] Memory required for data: 1242150432
I0403 16:10:29.589452 20798 layer_factory.hpp:77] Creating layer inception_4e/pool
I0403 16:10:29.589471 20798 net.cpp:91] Creating Layer inception_4e/pool
I0403 16:10:29.589486 20798 net.cpp:425] inception_4e/pool <- inception_4d/output_inception_4d/output_0_split_4
I0403 16:10:29.589504 20798 net.cpp:399] inception_4e/pool -> inception_4e/pool
I0403 16:10:29.589572 20798 net.cpp:141] Setting up inception_4e/pool
I0403 16:10:29.589596 20798 net.cpp:148] Top shape: 24 528 14 14 (2483712)
I0403 16:10:29.589609 20798 net.cpp:156] Memory required for data: 1252085280
I0403 16:10:29.589624 20798 layer_factory.hpp:77] Creating layer inception_4e/pool_proj
I0403 16:10:29.589645 20798 net.cpp:91] Creating Layer inception_4e/pool_proj
I0403 16:10:29.589663 20798 net.cpp:425] inception_4e/pool_proj <- inception_4e/pool
I0403 16:10:29.589682 20798 net.cpp:399] inception_4e/pool_proj -> inception_4e/pool_proj
I0403 16:10:29.591161 20798 net.cpp:141] Setting up inception_4e/pool_proj
I0403 16:10:29.591190 20798 net.cpp:148] Top shape: 24 128 14 14 (602112)
I0403 16:10:29.591220 20798 net.cpp:156] Memory required for data: 1254493728
I0403 16:10:29.591238 20798 layer_factory.hpp:77] Creating layer inception_4e/relu_pool_proj
I0403 16:10:29.591256 20798 net.cpp:91] Creating Layer inception_4e/relu_pool_proj
I0403 16:10:29.591271 20798 net.cpp:425] inception_4e/relu_pool_proj <- inception_4e/pool_proj
I0403 16:10:29.591289 20798 net.cpp:386] inception_4e/relu_pool_proj -> inception_4e/pool_proj (in-place)
I0403 16:10:29.591579 20798 net.cpp:141] Setting up inception_4e/relu_pool_proj
I0403 16:10:29.591608 20798 net.cpp:148] Top shape: 24 128 14 14 (602112)
I0403 16:10:29.591622 20798 net.cpp:156] Memory required for data: 1256902176
I0403 16:10:29.591637 20798 layer_factory.hpp:77] Creating layer inception_4e/output
I0403 16:10:29.591655 20798 net.cpp:91] Creating Layer inception_4e/output
I0403 16:10:29.591670 20798 net.cpp:425] inception_4e/output <- inception_4e/1x1
I0403 16:10:29.591686 20798 net.cpp:425] inception_4e/output <- inception_4e/3x3
I0403 16:10:29.591701 20798 net.cpp:425] inception_4e/output <- inception_4e/5x5
I0403 16:10:29.591717 20798 net.cpp:425] inception_4e/output <- inception_4e/pool_proj
I0403 16:10:29.591732 20798 net.cpp:399] inception_4e/output -> inception_4e/output
I0403 16:10:29.591783 20798 net.cpp:141] Setting up inception_4e/output
I0403 16:10:29.591805 20798 net.cpp:148] Top shape: 24 832 14 14 (3913728)
I0403 16:10:29.591820 20798 net.cpp:156] Memory required for data: 1272557088
I0403 16:10:29.591833 20798 layer_factory.hpp:77] Creating layer pool4/3x3_s2
I0403 16:10:29.591852 20798 net.cpp:91] Creating Layer pool4/3x3_s2
I0403 16:10:29.591868 20798 net.cpp:425] pool4/3x3_s2 <- inception_4e/output
I0403 16:10:29.591886 20798 net.cpp:399] pool4/3x3_s2 -> pool4/3x3_s2
I0403 16:10:29.591954 20798 net.cpp:141] Setting up pool4/3x3_s2
I0403 16:10:29.591977 20798 net.cpp:148] Top shape: 24 832 7 7 (978432)
I0403 16:10:29.591996 20798 net.cpp:156] Memory required for data: 1276470816
I0403 16:10:29.592011 20798 layer_factory.hpp:77] Creating layer pool4/3x3_s2_pool4/3x3_s2_0_split
I0403 16:10:29.592028 20798 net.cpp:91] Creating Layer pool4/3x3_s2_pool4/3x3_s2_0_split
I0403 16:10:29.592043 20798 net.cpp:425] pool4/3x3_s2_pool4/3x3_s2_0_split <- pool4/3x3_s2
I0403 16:10:29.592062 20798 net.cpp:399] pool4/3x3_s2_pool4/3x3_s2_0_split -> pool4/3x3_s2_pool4/3x3_s2_0_split_0
I0403 16:10:29.592082 20798 net.cpp:399] pool4/3x3_s2_pool4/3x3_s2_0_split -> pool4/3x3_s2_pool4/3x3_s2_0_split_1
I0403 16:10:29.592103 20798 net.cpp:399] pool4/3x3_s2_pool4/3x3_s2_0_split -> pool4/3x3_s2_pool4/3x3_s2_0_split_2
I0403 16:10:29.592121 20798 net.cpp:399] pool4/3x3_s2_pool4/3x3_s2_0_split -> pool4/3x3_s2_pool4/3x3_s2_0_split_3
I0403 16:10:29.592211 20798 net.cpp:141] Setting up pool4/3x3_s2_pool4/3x3_s2_0_split
I0403 16:10:29.592234 20798 net.cpp:148] Top shape: 24 832 7 7 (978432)
I0403 16:10:29.592252 20798 net.cpp:148] Top shape: 24 832 7 7 (978432)
I0403 16:10:29.592267 20798 net.cpp:148] Top shape: 24 832 7 7 (978432)
I0403 16:10:29.592281 20798 net.cpp:148] Top shape: 24 832 7 7 (978432)
I0403 16:10:29.592294 20798 net.cpp:156] Memory required for data: 1292125728
I0403 16:10:29.592309 20798 layer_factory.hpp:77] Creating layer inception_5a/1x1
I0403 16:10:29.592330 20798 net.cpp:91] Creating Layer inception_5a/1x1
I0403 16:10:29.592347 20798 net.cpp:425] inception_5a/1x1 <- pool4/3x3_s2_pool4/3x3_s2_0_split_0
I0403 16:10:29.592365 20798 net.cpp:399] inception_5a/1x1 -> inception_5a/1x1
I0403 16:10:29.595263 20798 net.cpp:141] Setting up inception_5a/1x1
I0403 16:10:29.595293 20798 net.cpp:148] Top shape: 24 256 7 7 (301056)
I0403 16:10:29.595309 20798 net.cpp:156] Memory required for data: 1293329952
I0403 16:10:29.595326 20798 layer_factory.hpp:77] Creating layer inception_5a/relu_1x1
I0403 16:10:29.595343 20798 net.cpp:91] Creating Layer inception_5a/relu_1x1
I0403 16:10:29.595360 20798 net.cpp:425] inception_5a/relu_1x1 <- inception_5a/1x1
I0403 16:10:29.595378 20798 net.cpp:386] inception_5a/relu_1x1 -> inception_5a/1x1 (in-place)
I0403 16:10:29.595695 20798 net.cpp:141] Setting up inception_5a/relu_1x1
I0403 16:10:29.595722 20798 net.cpp:148] Top shape: 24 256 7 7 (301056)
I0403 16:10:29.595737 20798 net.cpp:156] Memory required for data: 1294534176
I0403 16:10:29.595752 20798 layer_factory.hpp:77] Creating layer inception_5a/3x3_reduce
I0403 16:10:29.595774 20798 net.cpp:91] Creating Layer inception_5a/3x3_reduce
I0403 16:10:29.595793 20798 net.cpp:425] inception_5a/3x3_reduce <- pool4/3x3_s2_pool4/3x3_s2_0_split_1
I0403 16:10:29.595814 20798 net.cpp:399] inception_5a/3x3_reduce -> inception_5a/3x3_reduce
I0403 16:10:29.598312 20798 net.cpp:141] Setting up inception_5a/3x3_reduce
I0403 16:10:29.598342 20798 net.cpp:148] Top shape: 24 160 7 7 (188160)
I0403 16:10:29.598358 20798 net.cpp:156] Memory required for data: 1295286816
I0403 16:10:29.598377 20798 layer_factory.hpp:77] Creating layer inception_5a/relu_3x3_reduce
I0403 16:10:29.598395 20798 net.cpp:91] Creating Layer inception_5a/relu_3x3_reduce
I0403 16:10:29.598412 20798 net.cpp:425] inception_5a/relu_3x3_reduce <- inception_5a/3x3_reduce
I0403 16:10:29.598428 20798 net.cpp:386] inception_5a/relu_3x3_reduce -> inception_5a/3x3_reduce (in-place)
I0403 16:10:29.598620 20798 net.cpp:141] Setting up inception_5a/relu_3x3_reduce
I0403 16:10:29.598647 20798 net.cpp:148] Top shape: 24 160 7 7 (188160)
I0403 16:10:29.598662 20798 net.cpp:156] Memory required for data: 1296039456
I0403 16:10:29.598676 20798 layer_factory.hpp:77] Creating layer inception_5a/3x3
I0403 16:10:29.598698 20798 net.cpp:91] Creating Layer inception_5a/3x3
I0403 16:10:29.598716 20798 net.cpp:425] inception_5a/3x3 <- inception_5a/3x3_reduce
I0403 16:10:29.598734 20798 net.cpp:399] inception_5a/3x3 -> inception_5a/3x3
I0403 16:10:29.603785 20798 net.cpp:141] Setting up inception_5a/3x3
I0403 16:10:29.603814 20798 net.cpp:148] Top shape: 24 320 7 7 (376320)
I0403 16:10:29.603829 20798 net.cpp:156] Memory required for data: 1297544736
I0403 16:10:29.603847 20798 layer_factory.hpp:77] Creating layer inception_5a/relu_3x3
I0403 16:10:29.603865 20798 net.cpp:91] Creating Layer inception_5a/relu_3x3
I0403 16:10:29.603881 20798 net.cpp:425] inception_5a/relu_3x3 <- inception_5a/3x3
I0403 16:10:29.603901 20798 net.cpp:386] inception_5a/relu_3x3 -> inception_5a/3x3 (in-place)
I0403 16:10:29.604207 20798 net.cpp:141] Setting up inception_5a/relu_3x3
I0403 16:10:29.604233 20798 net.cpp:148] Top shape: 24 320 7 7 (376320)
I0403 16:10:29.604249 20798 net.cpp:156] Memory required for data: 1299050016
I0403 16:10:29.604262 20798 layer_factory.hpp:77] Creating layer inception_5a/5x5_reduce
I0403 16:10:29.604285 20798 net.cpp:91] Creating Layer inception_5a/5x5_reduce
I0403 16:10:29.604302 20798 net.cpp:425] inception_5a/5x5_reduce <- pool4/3x3_s2_pool4/3x3_s2_0_split_2
I0403 16:10:29.604324 20798 net.cpp:399] inception_5a/5x5_reduce -> inception_5a/5x5_reduce
I0403 16:10:29.605518 20798 net.cpp:141] Setting up inception_5a/5x5_reduce
I0403 16:10:29.605550 20798 net.cpp:148] Top shape: 24 32 7 7 (37632)
I0403 16:10:29.605566 20798 net.cpp:156] Memory required for data: 1299200544
I0403 16:10:29.605583 20798 layer_factory.hpp:77] Creating layer inception_5a/relu_5x5_reduce
I0403 16:10:29.605603 20798 net.cpp:91] Creating Layer inception_5a/relu_5x5_reduce
I0403 16:10:29.605622 20798 net.cpp:425] inception_5a/relu_5x5_reduce <- inception_5a/5x5_reduce
I0403 16:10:29.605638 20798 net.cpp:386] inception_5a/relu_5x5_reduce -> inception_5a/5x5_reduce (in-place)
I0403 16:10:29.605944 20798 net.cpp:141] Setting up inception_5a/relu_5x5_reduce
I0403 16:10:29.605970 20798 net.cpp:148] Top shape: 24 32 7 7 (37632)
I0403 16:10:29.605989 20798 net.cpp:156] Memory required for data: 1299351072
I0403 16:10:29.606005 20798 layer_factory.hpp:77] Creating layer inception_5a/5x5
I0403 16:10:29.606029 20798 net.cpp:91] Creating Layer inception_5a/5x5
I0403 16:10:29.606045 20798 net.cpp:425] inception_5a/5x5 <- inception_5a/5x5_reduce
I0403 16:10:29.606066 20798 net.cpp:399] inception_5a/5x5 -> inception_5a/5x5
I0403 16:10:29.607803 20798 net.cpp:141] Setting up inception_5a/5x5
I0403 16:10:29.607843 20798 net.cpp:148] Top shape: 24 128 7 7 (150528)
I0403 16:10:29.607859 20798 net.cpp:156] Memory required for data: 1299953184
I0403 16:10:29.607877 20798 layer_factory.hpp:77] Creating layer inception_5a/relu_5x5
I0403 16:10:29.607895 20798 net.cpp:91] Creating Layer inception_5a/relu_5x5
I0403 16:10:29.607913 20798 net.cpp:425] inception_5a/relu_5x5 <- inception_5a/5x5
I0403 16:10:29.607931 20798 net.cpp:386] inception_5a/relu_5x5 -> inception_5a/5x5 (in-place)
I0403 16:10:29.608130 20798 net.cpp:141] Setting up inception_5a/relu_5x5
I0403 16:10:29.608155 20798 net.cpp:148] Top shape: 24 128 7 7 (150528)
I0403 16:10:29.608170 20798 net.cpp:156] Memory required for data: 1300555296
I0403 16:10:29.608185 20798 layer_factory.hpp:77] Creating layer inception_5a/pool
I0403 16:10:29.608203 20798 net.cpp:91] Creating Layer inception_5a/pool
I0403 16:10:29.608220 20798 net.cpp:425] inception_5a/pool <- pool4/3x3_s2_pool4/3x3_s2_0_split_3
I0403 16:10:29.608239 20798 net.cpp:399] inception_5a/pool -> inception_5a/pool
I0403 16:10:29.608311 20798 net.cpp:141] Setting up inception_5a/pool
I0403 16:10:29.608335 20798 net.cpp:148] Top shape: 24 832 7 7 (978432)
I0403 16:10:29.608350 20798 net.cpp:156] Memory required for data: 1304469024
I0403 16:10:29.608363 20798 layer_factory.hpp:77] Creating layer inception_5a/pool_proj
I0403 16:10:29.608386 20798 net.cpp:91] Creating Layer inception_5a/pool_proj
I0403 16:10:29.608403 20798 net.cpp:425] inception_5a/pool_proj <- inception_5a/pool
I0403 16:10:29.608424 20798 net.cpp:399] inception_5a/pool_proj -> inception_5a/pool_proj
I0403 16:10:29.610733 20798 net.cpp:141] Setting up inception_5a/pool_proj
I0403 16:10:29.610764 20798 net.cpp:148] Top shape: 24 128 7 7 (150528)
I0403 16:10:29.610795 20798 net.cpp:156] Memory required for data: 1305071136
I0403 16:10:29.610813 20798 layer_factory.hpp:77] Creating layer inception_5a/relu_pool_proj
I0403 16:10:29.610831 20798 net.cpp:91] Creating Layer inception_5a/relu_pool_proj
I0403 16:10:29.610865 20798 net.cpp:425] inception_5a/relu_pool_proj <- inception_5a/pool_proj
I0403 16:10:29.610888 20798 net.cpp:386] inception_5a/relu_pool_proj -> inception_5a/pool_proj (in-place)
I0403 16:10:29.611217 20798 net.cpp:141] Setting up inception_5a/relu_pool_proj
I0403 16:10:29.611243 20798 net.cpp:148] Top shape: 24 128 7 7 (150528)
I0403 16:10:29.611259 20798 net.cpp:156] Memory required for data: 1305673248
I0403 16:10:29.611274 20798 layer_factory.hpp:77] Creating layer inception_5a/output
I0403 16:10:29.611290 20798 net.cpp:91] Creating Layer inception_5a/output
I0403 16:10:29.611305 20798 net.cpp:425] inception_5a/output <- inception_5a/1x1
I0403 16:10:29.611321 20798 net.cpp:425] inception_5a/output <- inception_5a/3x3
I0403 16:10:29.611336 20798 net.cpp:425] inception_5a/output <- inception_5a/5x5
I0403 16:10:29.611351 20798 net.cpp:425] inception_5a/output <- inception_5a/pool_proj
I0403 16:10:29.611369 20798 net.cpp:399] inception_5a/output -> inception_5a/output
I0403 16:10:29.611418 20798 net.cpp:141] Setting up inception_5a/output
I0403 16:10:29.611440 20798 net.cpp:148] Top shape: 24 832 7 7 (978432)
I0403 16:10:29.611454 20798 net.cpp:156] Memory required for data: 1309586976
I0403 16:10:29.611469 20798 layer_factory.hpp:77] Creating layer inception_5a/output_inception_5a/output_0_split
I0403 16:10:29.611490 20798 net.cpp:91] Creating Layer inception_5a/output_inception_5a/output_0_split
I0403 16:10:29.611505 20798 net.cpp:425] inception_5a/output_inception_5a/output_0_split <- inception_5a/output
I0403 16:10:29.611522 20798 net.cpp:399] inception_5a/output_inception_5a/output_0_split -> inception_5a/output_inception_5a/output_0_split_0
I0403 16:10:29.611542 20798 net.cpp:399] inception_5a/output_inception_5a/output_0_split -> inception_5a/output_inception_5a/output_0_split_1
I0403 16:10:29.611562 20798 net.cpp:399] inception_5a/output_inception_5a/output_0_split -> inception_5a/output_inception_5a/output_0_split_2
I0403 16:10:29.611585 20798 net.cpp:399] inception_5a/output_inception_5a/output_0_split -> inception_5a/output_inception_5a/output_0_split_3
I0403 16:10:29.611692 20798 net.cpp:141] Setting up inception_5a/output_inception_5a/output_0_split
I0403 16:10:29.611716 20798 net.cpp:148] Top shape: 24 832 7 7 (978432)
I0403 16:10:29.611732 20798 net.cpp:148] Top shape: 24 832 7 7 (978432)
I0403 16:10:29.611747 20798 net.cpp:148] Top shape: 24 832 7 7 (978432)
I0403 16:10:29.611762 20798 net.cpp:148] Top shape: 24 832 7 7 (978432)
I0403 16:10:29.611774 20798 net.cpp:156] Memory required for data: 1325241888
I0403 16:10:29.611789 20798 layer_factory.hpp:77] Creating layer inception_5b/1x1
I0403 16:10:29.611810 20798 net.cpp:91] Creating Layer inception_5b/1x1
I0403 16:10:29.611827 20798 net.cpp:425] inception_5b/1x1 <- inception_5a/output_inception_5a/output_0_split_0
I0403 16:10:29.611847 20798 net.cpp:399] inception_5b/1x1 -> inception_5b/1x1
I0403 16:10:29.615617 20798 net.cpp:141] Setting up inception_5b/1x1
I0403 16:10:29.615648 20798 net.cpp:148] Top shape: 24 384 7 7 (451584)
I0403 16:10:29.615664 20798 net.cpp:156] Memory required for data: 1327048224
I0403 16:10:29.615682 20798 layer_factory.hpp:77] Creating layer inception_5b/relu_1x1
I0403 16:10:29.615700 20798 net.cpp:91] Creating Layer inception_5b/relu_1x1
I0403 16:10:29.615717 20798 net.cpp:425] inception_5b/relu_1x1 <- inception_5b/1x1
I0403 16:10:29.615734 20798 net.cpp:386] inception_5b/relu_1x1 -> inception_5b/1x1 (in-place)
I0403 16:10:29.616052 20798 net.cpp:141] Setting up inception_5b/relu_1x1
I0403 16:10:29.616080 20798 net.cpp:148] Top shape: 24 384 7 7 (451584)
I0403 16:10:29.616096 20798 net.cpp:156] Memory required for data: 1328854560
I0403 16:10:29.616111 20798 layer_factory.hpp:77] Creating layer inception_5b/3x3_reduce
I0403 16:10:29.616130 20798 net.cpp:91] Creating Layer inception_5b/3x3_reduce
I0403 16:10:29.616147 20798 net.cpp:425] inception_5b/3x3_reduce <- inception_5a/output_inception_5a/output_0_split_1
I0403 16:10:29.616168 20798 net.cpp:399] inception_5b/3x3_reduce -> inception_5b/3x3_reduce
I0403 16:10:29.618851 20798 net.cpp:141] Setting up inception_5b/3x3_reduce
I0403 16:10:29.618883 20798 net.cpp:148] Top shape: 24 192 7 7 (225792)
I0403 16:10:29.618901 20798 net.cpp:156] Memory required for data: 1329757728
I0403 16:10:29.618918 20798 layer_factory.hpp:77] Creating layer inception_5b/relu_3x3_reduce
I0403 16:10:29.618937 20798 net.cpp:91] Creating Layer inception_5b/relu_3x3_reduce
I0403 16:10:29.618953 20798 net.cpp:425] inception_5b/relu_3x3_reduce <- inception_5b/3x3_reduce
I0403 16:10:29.618973 20798 net.cpp:386] inception_5b/relu_3x3_reduce -> inception_5b/3x3_reduce (in-place)
I0403 16:10:29.619179 20798 net.cpp:141] Setting up inception_5b/relu_3x3_reduce
I0403 16:10:29.619204 20798 net.cpp:148] Top shape: 24 192 7 7 (225792)
I0403 16:10:29.619220 20798 net.cpp:156] Memory required for data: 1330660896
I0403 16:10:29.619233 20798 layer_factory.hpp:77] Creating layer inception_5b/3x3
I0403 16:10:29.619256 20798 net.cpp:91] Creating Layer inception_5b/3x3
I0403 16:10:29.619273 20798 net.cpp:425] inception_5b/3x3 <- inception_5b/3x3_reduce
I0403 16:10:29.619295 20798 net.cpp:399] inception_5b/3x3 -> inception_5b/3x3
I0403 16:10:29.626500 20798 net.cpp:141] Setting up inception_5b/3x3
I0403 16:10:29.626531 20798 net.cpp:148] Top shape: 24 384 7 7 (451584)
I0403 16:10:29.626548 20798 net.cpp:156] Memory required for data: 1332467232
I0403 16:10:29.626566 20798 layer_factory.hpp:77] Creating layer inception_5b/relu_3x3
I0403 16:10:29.626585 20798 net.cpp:91] Creating Layer inception_5b/relu_3x3
I0403 16:10:29.626600 20798 net.cpp:425] inception_5b/relu_3x3 <- inception_5b/3x3
I0403 16:10:29.626619 20798 net.cpp:386] inception_5b/relu_3x3 -> inception_5b/3x3 (in-place)
I0403 16:10:29.626924 20798 net.cpp:141] Setting up inception_5b/relu_3x3
I0403 16:10:29.626952 20798 net.cpp:148] Top shape: 24 384 7 7 (451584)
I0403 16:10:29.626968 20798 net.cpp:156] Memory required for data: 1334273568
I0403 16:10:29.626982 20798 layer_factory.hpp:77] Creating layer inception_5b/5x5_reduce
I0403 16:10:29.627029 20798 net.cpp:91] Creating Layer inception_5b/5x5_reduce
I0403 16:10:29.627048 20798 net.cpp:425] inception_5b/5x5_reduce <- inception_5a/output_inception_5a/output_0_split_2
I0403 16:10:29.627068 20798 net.cpp:399] inception_5b/5x5_reduce -> inception_5b/5x5_reduce
I0403 16:10:29.628392 20798 net.cpp:141] Setting up inception_5b/5x5_reduce
I0403 16:10:29.628422 20798 net.cpp:148] Top shape: 24 48 7 7 (56448)
I0403 16:10:29.628438 20798 net.cpp:156] Memory required for data: 1334499360
I0403 16:10:29.628458 20798 layer_factory.hpp:77] Creating layer inception_5b/relu_5x5_reduce
I0403 16:10:29.628474 20798 net.cpp:91] Creating Layer inception_5b/relu_5x5_reduce
I0403 16:10:29.628490 20798 net.cpp:425] inception_5b/relu_5x5_reduce <- inception_5b/5x5_reduce
I0403 16:10:29.628507 20798 net.cpp:386] inception_5b/relu_5x5_reduce -> inception_5b/5x5_reduce (in-place)
I0403 16:10:29.628893 20798 net.cpp:141] Setting up inception_5b/relu_5x5_reduce
I0403 16:10:29.628919 20798 net.cpp:148] Top shape: 24 48 7 7 (56448)
I0403 16:10:29.628934 20798 net.cpp:156] Memory required for data: 1334725152
I0403 16:10:29.628948 20798 layer_factory.hpp:77] Creating layer inception_5b/5x5
I0403 16:10:29.628968 20798 net.cpp:91] Creating Layer inception_5b/5x5
I0403 16:10:29.628995 20798 net.cpp:425] inception_5b/5x5 <- inception_5b/5x5_reduce
I0403 16:10:29.629019 20798 net.cpp:399] inception_5b/5x5 -> inception_5b/5x5
I0403 16:10:29.631129 20798 net.cpp:141] Setting up inception_5b/5x5
I0403 16:10:29.631156 20798 net.cpp:148] Top shape: 24 128 7 7 (150528)
I0403 16:10:29.631171 20798 net.cpp:156] Memory required for data: 1335327264
I0403 16:10:29.631189 20798 layer_factory.hpp:77] Creating layer inception_5b/relu_5x5
I0403 16:10:29.631206 20798 net.cpp:91] Creating Layer inception_5b/relu_5x5
I0403 16:10:29.631223 20798 net.cpp:425] inception_5b/relu_5x5 <- inception_5b/5x5
I0403 16:10:29.631242 20798 net.cpp:386] inception_5b/relu_5x5 -> inception_5b/5x5 (in-place)
I0403 16:10:29.631443 20798 net.cpp:141] Setting up inception_5b/relu_5x5
I0403 16:10:29.631467 20798 net.cpp:148] Top shape: 24 128 7 7 (150528)
I0403 16:10:29.631481 20798 net.cpp:156] Memory required for data: 1335929376
I0403 16:10:29.631496 20798 layer_factory.hpp:77] Creating layer inception_5b/pool
I0403 16:10:29.631515 20798 net.cpp:91] Creating Layer inception_5b/pool
I0403 16:10:29.631532 20798 net.cpp:425] inception_5b/pool <- inception_5a/output_inception_5a/output_0_split_3
I0403 16:10:29.631551 20798 net.cpp:399] inception_5b/pool -> inception_5b/pool
I0403 16:10:29.631625 20798 net.cpp:141] Setting up inception_5b/pool
I0403 16:10:29.631649 20798 net.cpp:148] Top shape: 24 832 7 7 (978432)
I0403 16:10:29.631664 20798 net.cpp:156] Memory required for data: 1339843104
I0403 16:10:29.631677 20798 layer_factory.hpp:77] Creating layer inception_5b/pool_proj
I0403 16:10:29.631700 20798 net.cpp:91] Creating Layer inception_5b/pool_proj
I0403 16:10:29.631716 20798 net.cpp:425] inception_5b/pool_proj <- inception_5b/pool
I0403 16:10:29.631736 20798 net.cpp:399] inception_5b/pool_proj -> inception_5b/pool_proj
I0403 16:10:29.634135 20798 net.cpp:141] Setting up inception_5b/pool_proj
I0403 16:10:29.634166 20798 net.cpp:148] Top shape: 24 128 7 7 (150528)
I0403 16:10:29.634183 20798 net.cpp:156] Memory required for data: 1340445216
I0403 16:10:29.634202 20798 layer_factory.hpp:77] Creating layer inception_5b/relu_pool_proj
I0403 16:10:29.634219 20798 net.cpp:91] Creating Layer inception_5b/relu_pool_proj
I0403 16:10:29.634235 20798 net.cpp:425] inception_5b/relu_pool_proj <- inception_5b/pool_proj
I0403 16:10:29.634255 20798 net.cpp:386] inception_5b/relu_pool_proj -> inception_5b/pool_proj (in-place)
I0403 16:10:29.634562 20798 net.cpp:141] Setting up inception_5b/relu_pool_proj
I0403 16:10:29.634589 20798 net.cpp:148] Top shape: 24 128 7 7 (150528)
I0403 16:10:29.634604 20798 net.cpp:156] Memory required for data: 1341047328
I0403 16:10:29.634619 20798 layer_factory.hpp:77] Creating layer inception_5b/output
I0403 16:10:29.634636 20798 net.cpp:91] Creating Layer inception_5b/output
I0403 16:10:29.634667 20798 net.cpp:425] inception_5b/output <- inception_5b/1x1
I0403 16:10:29.634685 20798 net.cpp:425] inception_5b/output <- inception_5b/3x3
I0403 16:10:29.634701 20798 net.cpp:425] inception_5b/output <- inception_5b/5x5
I0403 16:10:29.634716 20798 net.cpp:425] inception_5b/output <- inception_5b/pool_proj
I0403 16:10:29.634733 20798 net.cpp:399] inception_5b/output -> inception_5b/output
I0403 16:10:29.634786 20798 net.cpp:141] Setting up inception_5b/output
I0403 16:10:29.634810 20798 net.cpp:148] Top shape: 24 1024 7 7 (1204224)
I0403 16:10:29.634824 20798 net.cpp:156] Memory required for data: 1345864224
I0403 16:10:29.634841 20798 layer_factory.hpp:77] Creating layer pool5/7x7_s1
I0403 16:10:29.634861 20798 net.cpp:91] Creating Layer pool5/7x7_s1
I0403 16:10:29.634877 20798 net.cpp:425] pool5/7x7_s1 <- inception_5b/output
I0403 16:10:29.634896 20798 net.cpp:399] pool5/7x7_s1 -> pool5/7x7_s1
I0403 16:10:29.635123 20798 net.cpp:141] Setting up pool5/7x7_s1
I0403 16:10:29.635149 20798 net.cpp:148] Top shape: 24 1024 1 1 (24576)
I0403 16:10:29.635162 20798 net.cpp:156] Memory required for data: 1345962528
I0403 16:10:29.635177 20798 layer_factory.hpp:77] Creating layer pool5/drop_7x7_s1
I0403 16:10:29.635195 20798 net.cpp:91] Creating Layer pool5/drop_7x7_s1
I0403 16:10:29.635212 20798 net.cpp:425] pool5/drop_7x7_s1 <- pool5/7x7_s1
I0403 16:10:29.635231 20798 net.cpp:386] pool5/drop_7x7_s1 -> pool5/7x7_s1 (in-place)
I0403 16:10:29.635282 20798 net.cpp:141] Setting up pool5/drop_7x7_s1
I0403 16:10:29.635308 20798 net.cpp:148] Top shape: 24 1024 1 1 (24576)
I0403 16:10:29.635324 20798 net.cpp:156] Memory required for data: 1346060832
I0403 16:10:29.635339 20798 layer_factory.hpp:77] Creating layer loss3/classifier_plantvillage
I0403 16:10:29.635359 20798 net.cpp:91] Creating Layer loss3/classifier_plantvillage
I0403 16:10:29.635375 20798 net.cpp:425] loss3/classifier_plantvillage <- pool5/7x7_s1
I0403 16:10:29.635395 20798 net.cpp:399] loss3/classifier_plantvillage -> loss3/classifier_plantvillage
I0403 16:10:29.635823 20798 net.cpp:141] Setting up loss3/classifier_plantvillage
I0403 16:10:29.635848 20798 net.cpp:148] Top shape: 24 38 (912)
I0403 16:10:29.635864 20798 net.cpp:156] Memory required for data: 1346064480
I0403 16:10:29.635881 20798 layer_factory.hpp:77] Creating layer loss3/classifier_plantvillage_loss3/classifier_plantvillage_0_split
I0403 16:10:29.635902 20798 net.cpp:91] Creating Layer loss3/classifier_plantvillage_loss3/classifier_plantvillage_0_split
I0403 16:10:29.635920 20798 net.cpp:425] loss3/classifier_plantvillage_loss3/classifier_plantvillage_0_split <- loss3/classifier_plantvillage
I0403 16:10:29.635937 20798 net.cpp:399] loss3/classifier_plantvillage_loss3/classifier_plantvillage_0_split -> loss3/classifier_plantvillage_loss3/classifier_plantvillage_0_split_0
I0403 16:10:29.635957 20798 net.cpp:399] loss3/classifier_plantvillage_loss3/classifier_plantvillage_0_split -> loss3/classifier_plantvillage_loss3/classifier_plantvillage_0_split_1
I0403 16:10:29.635977 20798 net.cpp:399] loss3/classifier_plantvillage_loss3/classifier_plantvillage_0_split -> loss3/classifier_plantvillage_loss3/classifier_plantvillage_0_split_2
I0403 16:10:29.636006 20798 net.cpp:399] loss3/classifier_plantvillage_loss3/classifier_plantvillage_0_split -> loss3/classifier_plantvillage_loss3/classifier_plantvillage_0_split_3
I0403 16:10:29.636111 20798 net.cpp:141] Setting up loss3/classifier_plantvillage_loss3/classifier_plantvillage_0_split
I0403 16:10:29.636134 20798 net.cpp:148] Top shape: 24 38 (912)
I0403 16:10:29.636149 20798 net.cpp:148] Top shape: 24 38 (912)
I0403 16:10:29.636164 20798 net.cpp:148] Top shape: 24 38 (912)
I0403 16:10:29.636180 20798 net.cpp:148] Top shape: 24 38 (912)
I0403 16:10:29.636193 20798 net.cpp:156] Memory required for data: 1346079072
I0403 16:10:29.636210 20798 layer_factory.hpp:77] Creating layer loss1/loss
I0403 16:10:29.636231 20798 net.cpp:91] Creating Layer loss1/loss
I0403 16:10:29.636248 20798 net.cpp:425] loss1/loss <- loss1/classifier_plantvillage_loss1/classifier_plantvillage_0_split_0
I0403 16:10:29.636282 20798 net.cpp:425] loss1/loss <- label_data_1_split_0
…
