…
I0403 16:24:55.552170 21045 net.cpp:313] The NetState phase (1) differed from the phase (0) specified by a rule in layer data
I0403 16:24:55.553354 21045 net.cpp:49] Initializing net from parameters: 
state {
  phase: TEST
}
layer {
  name: "data"
  type: "Data"
  top: "data"
  top: "label"
  include {
    phase: TEST
  }
  transform_param {
    mirror: false
    crop_size: 224
    mean_file: "/home/mohanty/data/final_dataset/lmdb/color-40-60/mean.binaryproto"
  }
  data_param {
    source: "/home/mohanty/data/final_dataset/lmdb/color-40-60/test_db"
    batch_size: 24
    backend: LMDB
  }
}
layer {
  name: "conv1/7x7_s2"
  type: "Convolution"
  bottom: "data"
  top: "conv1/7x7_s2"
  param {
    lr_mult: 1
    decay_mult: 1
  }
  param {
    lr_mult: 2
    decay_mult: 0
  }
  convolution_param {
    num_output: 64
    pad: 3
    kernel_size: 7
    stride: 2
    weight_filler {
      type: "xavier"
      std: 0.1
    }
    bias_filler {
      type: "constant"
      value: 0.2
    }
  }
}
layer {
  name: "conv1/relu_7x7"
  type: "ReLU"
  bottom: "conv1/7x7_s2"
  top: "conv1/7x7_s2"
}
layer {
  name: "pool1/3x3_s2"
  type: "Pooling"
  bottom: "conv1/7x7_s2"
  top: "pool1/3x3_s2"
  pooling_param {
    pool: MAX
    kernel_size: 3
    stride: 2
  }
}
layer {
  name: "pool1/norm1"
  type: "LRN"
  bottom: "pool1/3x3_s2"
  top: "pool1/norm1"
  lrn_param {
    local_size: 5
    alpha: 0.0001
    beta: 0.75
  }
}
layer {
  name: "conv2/3x3_reduce"
  type: "Convolution"
  bottom: "pool1/norm1"
  top: "conv2/3x3_reduce"
  param {
    lr_mult: 1
    decay_mult: 1
  }
  param {
    lr_mult: 2
    decay_mult: 0
  }
  convolution_param {
    num_output: 64
    kernel_size: 1
    weight_filler {
      type: "xavier"
      std: 0.1
    }
    bias_filler {
      type: "constant"
      value: 0.2
    }
  }
}
layer {
  name: "conv2/relu_3x3_reduce"
  type: "ReLU"
  bottom: "conv2/3x3_reduce"
  top: "conv2/3x3_reduce"
}
layer {
  name: "conv2/3x3"
  type: "Convolution"
  bottom: "conv2/3x3_reduce"
  top: "conv2/3x3"
  param {
    lr_mult: 1
    decay_mult: 1
  }
  param {
    lr_mult: 2
    decay_mult: 0
  }
  convolution_param {
    num_output: 192
    pad: 1
    kernel_size: 3
    weight_filler {
      type: "xavier"
      std: 0.03
    }
    bias_filler {
      type: "constant"
      value: 0.2
    }
  }
}
layer {
  name: "conv2/relu_3x3"
  type: "ReLU"
  bottom: "conv2/3x3"
  top: "conv2/3x3"
}
layer {
  name: "conv2/norm2"
  type: "LRN"
  bottom: "conv2/3x3"
  top: "conv2/norm2"
  lrn_param {
    local_size: 5
    alpha: 0.0001
    beta: 0.75
  }
}
layer {
  name: "pool2/3x3_s2"
  type: "Pooling"
  bottom: "conv2/norm2"
  top: "pool2/3x3_s2"
  pooling_param {
    pool: MAX
    kernel_size: 3
    stride: 2
  }
}
layer {
  name: "inception_3a/1x1"
  type: "Convolution"
  bottom: "pool2/3x3_s2"
  top: "inception_3a/1x1"
  param {
    lr_mult: 1
    decay_mult: 1
  }
  param {
    lr_mult: 2
    decay_mult: 0
  }
  convolution_param {
    num_output: 64
    kernel_size: 1
    weight_filler {
      type: "xavier"
      std: 0.03
    }
    bias_filler {
      type: "constant"
      value: 0.2
    }
  }
}
layer {
  name: "inception_3a/relu_1x1"
  type: "ReLU"
  bottom: "inception_3a/1x1"
  top: "inception_3a/1x1"
}
layer {
  name: "inception_3a/3x3_reduce"
  type: "Convolution"
  bottom: "pool2/3x3_s2"
  top: "inception_3a/3x3_reduce"
  param {
    lr_mult: 1
    decay_mult: 1
  }
  param {
    lr_mult: 2
    decay_mult: 0
  }
  convolution_param {
    num_output: 96
    kernel_size: 1
    weight_filler {
      type: "xavier"
      std: 0.09
    }
    bias_filler {
      type: "constant"
      value: 0.2
    }
  }
}
layer {
  name: "inception_3a/relu_3x3_reduce"
  type: "ReLU"
  bottom: "inception_3a/3x3_reduce"
  top: "inception_3a/3x3_reduce"
}
layer {
  name: "inception_3a/3x3"
  type: "Convolution"
  bottom: "inception_3a/3x3_reduce"
  top: "inception_3a/3x3"
  param {
    lr_mult: 1
    decay_mult: 1
  }
  param {
    lr_mult: 2
    decay_mult: 0
  }
  convolution_param {
    num_output: 128
    pad: 1
    kernel_size: 3
    weight_filler {
      type: "xavier"
      std: 0.03
    }
    bias_filler {
      type: "constant"
      value: 0.2
    }
  }
}
layer {
  name: "inception_3a/relu_3x3"
  type: "ReLU"
  bottom: "inception_3a/3x3"
  top: "inception_3a/3x3"
}
layer {
  name: "inception_3a/5x5_reduce"
  type: "Convolution"
  bottom: "pool2/3x3_s2"
  top: "inception_3a/5x5_reduce"
  param {
    lr_mult: 1
    decay_mult: 1
  }
  param {
    lr_mult: 2
    decay_mult: 0
  }
  convolution_param {
    num_output: 16
    kernel_size: 1
    weight_filler {
      type: "xavier"
      std: 0.2
    }
    bias_filler {
      type: "constant"
      value: 0.2
    }
  }
}
layer {
  name: "inception_3a/relu_5x5_reduce"
  type: "ReLU"
  bottom: "inception_3a/5x5_reduce"
  top: "inception_3a/5x5_reduce"
}
layer {
  name: "inception_3a/5x5"
  type: "Convolution"
  bottom: "inception_3a/5x5_reduce"
  top: "inception_3a/5x5"
  param {
    lr_mult: 1
    decay_mult: 1
  }
  param {
    lr_mult: 2
    decay_mult: 0
  }
  convolution_param {
    num_output: 32
    pad: 2
    kernel_size: 5
    weight_filler {
      type: "xavier"
      std: 0.03
    }
    bias_filler {
      type: "constant"
      value: 0.2
    }
  }
}
layer {
  name: "inception_3a/relu_5x5"
  type: "ReLU"
  bottom: "inception_3a/5x5"
  top: "inception_3a/5x5"
}
layer {
  name: "inception_3a/pool"
  type: "Pooling"
  bottom: "pool2/3x3_s2"
  top: "inception_3a/pool"
  pooling_param {
    pool: MAX
    kernel_size: 3
    stride: 1
    pad: 1
  }
}
layer {
  name: "inception_3a/pool_proj"
  type: "Convolution"
  bottom: "inception_3a/pool"
  top: "inception_3a/pool_proj"
  param {
    lr_mult: 1
    decay_mult: 1
  }
  param {
    lr_mult: 2
    decay_mult: 0
  }
  convolution_param {
    num_output: 32
    kernel_size: 1
    weight_filler {
      type: "xavier"
      std: 0.1
    }
    bias_filler {
      type: "constant"
      value: 0.2
    }
  }
}
layer {
  name: "inception_3a/relu_pool_proj"
  type: "ReLU"
  bottom: "inception_3a/pool_proj"
  top: "inception_3a/pool_proj"
}
layer {
  name: "inception_3a/output"
  type: "Concat"
  bottom: "inception_3a/1x1"
  bottom: "inception_3a/3x3"
  bottom: "inception_3a/5x5"
  bottom: "inception_3a/pool_proj"
  top: "inception_3a/output"
}
layer {
  name: "inception_3b/1x1"
  type: "Convolution"
  bottom: "inception_3a/output"
  top: "inception_3b/1x1"
  param {
    lr_mult: 1
    decay_mult: 1
  }
  param {
    lr_mult: 2
    decay_mult: 0
  }
  convolution_param {
    num_output: 128
    kernel_size: 1
    weight_filler {
      type: "xavier"
      std: 0.03
    }
    bias_filler {
      type: "constant"
      value: 0.2
    }
  }
}
layer {
  name: "inception_3b/relu_1x1"
  type: "ReLU"
  bottom: "inception_3b/1x1"
  top: "inception_3b/1x1"
}
layer {
  name: "inception_3b/3x3_reduce"
  type: "Convolution"
  bottom: "inception_3a/output"
  top: "inception_3b/3x3_reduce"
  param {
    lr_mult: 1
    decay_mult: 1
  }
  param {
    lr_mult: 2
    decay_mult: 0
  }
  convolution_param {
    num_output: 128
    kernel_size: 1
    weight_filler {
      type: "xavier"
      std: 0.09
    }
    bias_filler {
      type: "constant"
      value: 0.2
    }
  }
}
layer {
  name: "inception_3b/relu_3x3_reduce"
  type: "ReLU"
  bottom: "inception_3b/3x3_reduce"
  top: "inception_3b/3x3_reduce"
}
layer {
  name: "inception_3b/3x3"
  type: "Convolution"
  bottom: "inception_3b/3x3_reduce"
  top: "inception_3b/3x3"
  param {
    lr_mult: 1
    decay_mult: 1
  }
  param {
    lr_mult: 2
    decay_mult: 0
  }
  convolution_param {
    num_output: 192
    pad: 1
    kernel_size: 3
    weight_filler {
      type: "xavier"
      std: 0.03
    }
    bias_filler {
      type: "constant"
      value: 0.2
    }
  }
}
layer {
  name: "inception_3b/relu_3x3"
  type: "ReLU"
  bottom: "inception_3b/3x3"
  top: "inception_3b/3x3"
}
layer {
  name: "inception_3b/5x5_reduce"
  type: "Convolution"
  bottom: "inception_3a/output"
  top: "inception_3b/5x5_reduce"
  param {
    lr_mult: 1
    decay_mult: 1
  }
  param {
    lr_mult: 2
    decay_mult: 0
  }
  convolution_param {
    num_output: 32
    kernel_size: 1
    weight_filler {
      type: "xavier"
      std: 0.2
    }
    bias_filler {
      type: "constant"
      value: 0.2
    }
  }
}
layer {
  name: "inception_3b/relu_5x5_reduce"
  type: "ReLU"
  bottom: "inception_3b/5x5_reduce"
  top: "inception_3b/5x5_reduce"
}
layer {
  name: "inception_3b/5x5"
  type: "Convolution"
  bottom: "inception_3b/5x5_reduce"
  top: "inception_3b/5x5"
  param {
    lr_mult: 1
    decay_mult: 1
  }
  param {
    lr_mult: 2
    decay_mult: 0
  }
  convolution_param {
    num_output: 96
    pad: 2
    kernel_size: 5
    weight_filler {
      type: "xavier"
      std: 0.03
    }
    bias_filler {
      type: "constant"
      value: 0.2
    }
  }
}
layer {
  name: "inception_3b/relu_5x5"
  type: "ReLU"
  bottom: "inception_3b/5x5"
  top: "inception_3b/5x5"
}
layer {
  name: "inception_3b/pool"
  type: "Pooling"
  bottom: "inception_3a/output"
  top: "inception_3b/pool"
  pooling_param {
    pool: MAX
    kernel_size: 3
    stride: 1
    pad: 1
  }
}
layer {
  name: "inception_3b/pool_proj"
  type: "Convolution"
  bottom: "inception_3b/pool"
  top: "inception_3b/pool_proj"
  param {
    lr_mult: 1
    decay_mult: 1
  }
  param {
    lr_mult: 2
    decay_mult: 0
  }
  convolution_param {
    num_output: 64
    kernel_size: 1
    weight_filler {
      type: "xavier"
      std: 0.1
    }
    bias_filler {
      type: "constant"
      value: 0.2
    }
  }
}
layer {
  name: "inception_3b/relu_pool_proj"
  type: "ReLU"
  bottom: "inception_3b/pool_proj"
  top: "inception_3b/pool_proj"
}
layer {
  name: "inception_3b/output"
  type: "Concat"
  bottom: "inception_3b/1x1"
  bottom: "inception_3b/3x3"
  bottom: "inception_3b/5x5"
  bottom: "inception_3b/pool_proj"
  top: "inception_3b/output"
}
layer {
  name: "pool3/3x3_s2"
  type: "Pooling"
  bottom: "inception_3b/output"
  top: "pool3/3x3_s2"
  pooling_param {
    pool: MAX
    kernel_size: 3
    stride: 2
  }
}
layer {
  name: "inception_4a/1x1"
  type: "Convolution"
  bottom: "pool3/3x3_s2"
  top: "inception_4a/1x1"
  param {
    lr_mult: 1
    decay_mult: 1
  }
  param {
    lr_mult: 2
    decay_mult: 0
  }
  convolution_param {
    num_output: 192
    kernel_size: 1
    weight_filler {
      type: "xavier"
      std: 0.03
    }
    bias_filler {
      type: "constant"
      value: 0.2
    }
  }
}
layer {
  name: "inception_4a/relu_1x1"
  type: "ReLU"
  bottom: "inception_4a/1x1"
  top: "inception_4a/1x1"
}
layer {
  name: "inception_4a/3x3_reduce"
  type: "Convolution"
  bottom: "pool3/3x3_s2"
  top: "inception_4a/3x3_reduce"
  param {
    lr_mult: 1
    decay_mult: 1
  }
  param {
    lr_mult: 2
    decay_mult: 0
  }
  convolution_param {
    num_output: 96
    kernel_size: 1
    weight_filler {
      type: "xavier"
      std: 0.09
    }
    bias_filler {
      type: "constant"
      value: 0.2
    }
  }
}
layer {
  name: "inception_4a/relu_3x3_reduce"
  type: "ReLU"
  bottom: "inception_4a/3x3_reduce"
  top: "inception_4a/3x3_reduce"
}
layer {
  name: "inception_4a/3x3"
  type: "Convolution"
  bottom: "inception_4a/3x3_reduce"
  top: "inception_4a/3x3"
  param {
    lr_mult: 1
    decay_mult: 1
  }
  param {
    lr_mult: 2
    decay_mult: 0
  }
  convolution_param {
    num_output: 208
    pad: 1
    kernel_size: 3
    weight_filler {
      type: "xavier"
      std: 0.03
    }
    bias_filler {
      type: "constant"
      value: 0.2
    }
  }
}
layer {
  name: "inception_4a/relu_3x3"
  type: "ReLU"
  bottom: "inception_4a/3x3"
  top: "inception_4a/3x3"
}
layer {
  name: "inception_4a/5x5_reduce"
  type: "Convolution"
  bottom: "pool3/3x3_s2"
  top: "inception_4a/5x5_reduce"
  param {
    lr_mult: 1
    decay_mult: 1
  }
  param {
    lr_mult: 2
    decay_mult: 0
  }
  convolution_param {
    num_output: 16
    kernel_size: 1
    weight_filler {
      type: "xavier"
      std: 0.2
    }
    bias_filler {
      type: "constant"
      value: 0.2
    }
  }
}
layer {
  name: "inception_4a/relu_5x5_reduce"
  type: "ReLU"
  bottom: "inception_4a/5x5_reduce"
  top: "inception_4a/5x5_reduce"
}
layer {
  name: "inception_4a/5x5"
  type: "Convolution"
  bottom: "inception_4a/5x5_reduce"
  top: "inception_4a/5x5"
  param {
    lr_mult: 1
    decay_mult: 1
  }
  param {
    lr_mult: 2
    decay_mult: 0
  }
  convolution_param {
    num_output: 48
    pad: 2
    kernel_size: 5
    weight_filler {
      type: "xavier"
      std: 0.03
    }
    bias_filler {
      type: "constant"
      value: 0.2
    }
  }
}
layer {
  name: "inception_4a/relu_5x5"
  type: "ReLU"
  bottom: "inception_4a/5x5"
  top: "inception_4a/5x5"
}
layer {
  name: "inception_4a/pool"
  type: "Pooling"
  bottom: "pool3/3x3_s2"
  top: "inception_4a/pool"
  pooling_param {
    pool: MAX
    kernel_size: 3
    stride: 1
    pad: 1
  }
}
layer {
  name: "inception_4a/pool_proj"
  type: "Convolution"
  bottom: "inception_4a/pool"
  top: "inception_4a/pool_proj"
  param {
    lr_mult: 1
    decay_mult: 1
  }
  param {
    lr_mult: 2
    decay_mult: 0
  }
  convolution_param {
    num_output: 64
    kernel_size: 1
    weight_filler {
      type: "xavier"
      std: 0.1
    }
    bias_filler {
      type: "constant"
      value: 0.2
    }
  }
}
layer {
  name: "inception_4a/relu_pool_proj"
  type: "ReLU"
  bottom: "inception_4a/pool_proj"
  top: "inception_4a/pool_proj"
}
layer {
  name: "inception_4a/output"
  type: "Concat"
  bottom: "inception_4a/1x1"
  bottom: "inception_4a/3x3"
  bottom: "inception_4a/5x5"
  bottom: "inception_4a/pool_proj"
  top: "inception_4a/output"
}
layer {
  name: "loss1/ave_pool"
  type: "Pooling"
  bottom: "inception_4a/output"
  top: "loss1/ave_pool"
  pooling_param {
    pool: AVE
    kernel_size: 5
    stride: 3
  }
}
layer {
  name: "loss1/conv"
  type: "Convolution"
  bottom: "loss1/ave_pool"
  top: "loss1/conv"
  param {
    lr_mult: 1
    decay_mult: 1
  }
  param {
    lr_mult: 2
    decay_mult: 0
  }
  convolution_param {
    num_output: 128
    kernel_size: 1
    weight_filler {
      type: "xavier"
      std: 0.08
    }
    bias_filler {
      type: "constant"
      value: 0.2
    }
  }
}
layer {
  name: "loss1/relu_conv"
  type: "ReLU"
  bottom: "loss1/conv"
  top: "loss1/conv"
}
layer {
  name: "loss1/fc"
  type: "InnerProduct"
  bottom: "loss1/conv"
  top: "loss1/fc"
  param {
    lr_mult: 1
    decay_mult: 1
  }
  param {
    lr_mult: 2
    decay_mult: 0
  }
  inner_product_param {
    num_output: 1024
    weight_filler {
      type: "xavier"
      std: 0.02
    }
    bias_filler {
      type: "constant"
      value: 0.2
    }
  }
}
layer {
  name: "loss1/relu_fc"
  type: "ReLU"
  bottom: "loss1/fc"
  top: "loss1/fc"
}
layer {
  name: "loss1/drop_fc"
  type: "Dropout"
  bottom: "loss1/fc"
  top: "loss1/fc"
  dropout_param {
    dropout_ratio: 0.7
  }
}
layer {
  name: "loss1/classifier_plantvillage"
  type: "InnerProduct"
  bottom: "loss1/fc"
  top: "loss1/classifier_plantvillage"
  param {
    lr_mult: 1
    decay_mult: 1
  }
  param {
    lr_mult: 2
    decay_mult: 0
  }
  inner_product_param {
    num_output: 38
    weight_filler {
      type: "xavier"
      std: 0.0009765625
    }
    bias_filler {
      type: "constant"
      value: 0
    }
  }
}
layer {
  name: "inception_4b/1x1"
  type: "Convolution"
  bottom: "inception_4a/output"
  top: "inception_4b/1x1"
  param {
    lr_mult: 1
    decay_mult: 1
  }
  param {
    lr_mult: 2
    decay_mult: 0
  }
  convolution_param {
    num_output: 160
    kernel_size: 1
    weight_filler {
      type: "xavier"
      std: 0.03
    }
    bias_filler {
      type: "constant"
      value: 0.2
    }
  }
}
layer {
  name: "inception_4b/relu_1x1"
  type: "ReLU"
  bottom: "inception_4b/1x1"
  top: "inception_4b/1x1"
}
layer {
  name: "inception_4b/3x3_reduce"
  type: "Convolution"
  bottom: "inception_4a/output"
  top: "inception_4b/3x3_reduce"
  param {
    lr_mult: 1
    decay_mult: 1
  }
  param {
    lr_mult: 2
    decay_mult: 0
  }
  convolution_param {
    num_output: 112
    kernel_size: 1
    weight_filler {
      type: "xavier"
      std: 0.09
    }
    bias_filler {
      type: "constant"
      value: 0.2
    }
  }
}
layer {
  name: "inception_4b/relu_3x3_reduce"
  type: "ReLU"
  bottom: "inception_4b/3x3_reduce"
  top: "inception_4b/3x3_reduce"
}
layer {
  name: "inception_4b/3x3"
  type: "Convolution"
  bottom: "inception_4b/3x3_reduce"
  top: "inception_4b/3x3"
  param {
    lr_mult: 1
    decay_mult: 1
  }
  param {
    lr_mult: 2
    decay_mult: 0
  }
  convolution_param {
    num_output: 224
    pad: 1
    kernel_size: 3
    weight_filler {
      type: "xavier"
      std: 0.03
    }
    bias_filler {
      type: "constant"
      value: 0.2
    }
  }
}
layer {
  name: "inception_4b/relu_3x3"
  type: "ReLU"
  bottom: "inception_4b/3x3"
  top: "inception_4b/3x3"
}
layer {
  name: "inception_4b/5x5_reduce"
  type: "Convolution"
  bottom: "inception_4a/output"
  top: "inception_4b/5x5_reduce"
  param {
    lr_mult: 1
    decay_mult: 1
  }
  param {
    lr_mult: 2
    decay_mult: 0
  }
  convolution_param {
    num_output: 24
    kernel_size: 1
    weight_filler {
      type: "xavier"
      std: 0.2
    }
    bias_filler {
      type: "constant"
      value: 0.2
    }
  }
}
layer {
  name: "inception_4b/relu_5x5_reduce"
  type: "ReLU"
  bottom: "inception_4b/5x5_reduce"
  top: "inception_4b/5x5_reduce"
}
layer {
  name: "inception_4b/5x5"
  type: "Convolution"
  bottom: "inception_4b/5x5_reduce"
  top: "inception_4b/5x5"
  param {
    lr_mult: 1
    decay_mult: 1
  }
  param {
    lr_mult: 2
    decay_mult: 0
  }
  convolution_param {
    num_output: 64
    pad: 2
    kernel_size: 5
    weight_filler {
      type: "xavier"
      std: 0.03
    }
    bias_filler {
      type: "constant"
      value: 0.2
    }
  }
}
layer {
  name: "inception_4b/relu_5x5"
  type: "ReLU"
  bottom: "inception_4b/5x5"
  top: "inception_4b/5x5"
}
layer {
  name: "inception_4b/pool"
  type: "Pooling"
  bottom: "inception_4a/output"
  top: "inception_4b/pool"
  pooling_param {
    pool: MAX
    kernel_size: 3
    stride: 1
    pad: 1
  }
}
layer {
  name: "inception_4b/pool_proj"
  type: "Convolution"
  bottom: "inception_4b/pool"
  top: "inception_4b/pool_proj"
  param {
    lr_mult: 1
    decay_mult: 1
  }
  param {
    lr_mult: 2
    decay_mult: 0
  }
  convolution_param {
    num_output: 64
    kernel_size: 1
    weight_filler {
      type: "xavier"
      std: 0.1
    }
    bias_filler {
      type: "constant"
      value: 0.2
    }
  }
}
layer {
  name: "inception_4b/relu_pool_proj"
  type: "ReLU"
  bottom: "inception_4b/pool_proj"
  top: "inception_4b/pool_proj"
}
layer {
  name: "inception_4b/output"
  type: "Concat"
  bottom: "inception_4b/1x1"
  bottom: "inception_4b/3x3"
  bottom: "inception_4b/5x5"
  bottom: "inception_4b/pool_proj"
  top: "inception_4b/output"
}
layer {
  name: "inception_4c/1x1"
  type: "Convolution"
  bottom: "inception_4b/output"
  top: "inception_4c/1x1"
  param {
    lr_mult: 1
    decay_mult: 1
  }
  param {
    lr_mult: 2
    decay_mult: 0
  }
  convolution_param {
    num_output: 128
    kernel_size: 1
    weight_filler {
      type: "xavier"
      std: 0.03
    }
    bias_filler {
      type: "constant"
      value: 0.2
    }
  }
}
layer {
  name: "inception_4c/relu_1x1"
  type: "ReLU"
  bottom: "inception_4c/1x1"
  top: "inception_4c/1x1"
}
layer {
  name: "inception_4c/3x3_reduce"
  type: "Convolution"
  bottom: "inception_4b/output"
  top: "inception_4c/3x3_reduce"
  param {
    lr_mult: 1
    decay_mult: 1
  }
  param {
    lr_mult: 2
    decay_mult: 0
  }
  convolution_param {
    num_output: 128
    kernel_size: 1
    weight_filler {
      type: "xavier"
      std: 0.09
    }
    bias_filler {
      type: "constant"
      value: 0.2
    }
  }
}
layer {
  name: "inception_4c/relu_3x3_reduce"
  type: "ReLU"
  bottom: "inception_4c/3x3_reduce"
  top: "inception_4c/3x3_reduce"
}
layer {
  name: "inception_4c/3x3"
  type: "Convolution"
  bottom: "inception_4c/3x3_reduce"
  top: "inception_4c/3x3"
  param {
    lr_mult: 1
    decay_mult: 1
  }
  param {
    lr_mult: 2
    decay_mult: 0
  }
  convolution_param {
    num_output: 256
    pad: 1
    kernel_size: 3
    weight_filler {
      type: "xavier"
      std: 0.03
    }
    bias_filler {
      type: "constant"
      value: 0.2
    }
  }
}
layer {
  name: "inception_4c/relu_3x3"
  type: "ReLU"
  bottom: "inception_4c/3x3"
  top: "inception_4c/3x3"
}
layer {
  name: "inception_4c/5x5_reduce"
  type: "Convolution"
  bottom: "inception_4b/output"
  top: "inception_4c/5x5_reduce"
  param {
    lr_mult: 1
    decay_mult: 1
  }
  param {
    lr_mult: 2
    decay_mult: 0
  }
  convolution_param {
    num_output: 24
    kernel_size: 1
    weight_filler {
      type: "xavier"
      std: 0.2
    }
    bias_filler {
      type: "constant"
      value: 0.2
    }
  }
}
layer {
  name: "inception_4c/relu_5x5_reduce"
  type: "ReLU"
  bottom: "inception_4c/5x5_reduce"
  top: "inception_4c/5x5_reduce"
}
layer {
  name: "inception_4c/5x5"
  type: "Convolution"
  bottom: "inception_4c/5x5_reduce"
  top: "inception_4c/5x5"
  param {
    lr_mult: 1
    decay_mult: 1
  }
  param {
    lr_mult: 2
    decay_mult: 0
  }
  convolution_param {
    num_output: 64
    pad: 2
    kernel_size: 5
    weight_filler {
      type: "xavier"
      std: 0.03
    }
    bias_filler {
      type: "constant"
      value: 0.2
    }
  }
}
layer {
  name: "inception_4c/relu_5x5"
  type: "ReLU"
  bottom: "inception_4c/5x5"
  top: "inception_4c/5x5"
}
layer {
  name: "inception_4c/pool"
  type: "Pooling"
  bottom: "inception_4b/output"
  top: "inception_4c/pool"
  pooling_param {
    pool: MAX
    kernel_size: 3
    stride: 1
    pad: 1
  }
}
layer {
  name: "inception_4c/pool_proj"
  type: "Convolution"
  bottom: "inception_4c/pool"
  top: "inception_4c/pool_proj"
  param {
    lr_mult: 1
    decay_mult: 1
  }
  param {
    lr_mult: 2
    decay_mult: 0
  }
  convolution_param {
    num_output: 64
    kernel_size: 1
    weight_filler {
      type: "xavier"
      std: 0.1
    }
    bias_filler {
      type: "constant"
      value: 0.2
    }
  }
}
layer {
  name: "inception_4c/relu_pool_proj"
  type: "ReLU"
  bottom: "inception_4c/pool_proj"
  top: "inception_4c/pool_proj"
}
layer {
  name: "inception_4c/output"
  type: "Concat"
  bottom: "inception_4c/1x1"
  bottom: "inception_4c/3x3"
  bottom: "inception_4c/5x5"
  bottom: "inception_4c/pool_proj"
  top: "inception_4c/output"
}
layer {
  name: "inception_4d/1x1"
  type: "Convolution"
  bottom: "inception_4c/output"
  top: "inception_4d/1x1"
  param {
    lr_mult: 1
    decay_mult: 1
  }
  param {
    lr_mult: 2
    decay_mult: 0
  }
  convolution_param {
    num_output: 112
    kernel_size: 1
    weight_filler {
      type: "xavier"
      std: 0.03
    }
    bias_filler {
      type: "constant"
      value: 0.2
    }
  }
}
layer {
  name: "inception_4d/relu_1x1"
  type: "ReLU"
  bottom: "inception_4d/1x1"
  top: "inception_4d/1x1"
}
layer {
  name: "inception_4d/3x3_reduce"
  type: "Convolution"
  bottom: "inception_4c/output"
  top: "inception_4d/3x3_reduce"
  param {
    lr_mult: 1
    decay_mult: 1
  }
  param {
    lr_mult: 2
    decay_mult: 0
  }
  convolution_param {
    num_output: 144
    kernel_size: 1
    weight_filler {
      type: "xavier"
      std: 0.09
    }
    bias_filler {
      type: "constant"
      value: 0.2
    }
  }
}
layer {
  name: "inception_4d/relu_3x3_reduce"
  type: "ReLU"
  bottom: "inception_4d/3x3_reduce"
  top: "inception_4d/3x3_reduce"
}
layer {
  name: "inception_4d/3x3"
  type: "Convolution"
  bottom: "inception_4d/3x3_reduce"
  top: "inception_4d/3x3"
  param {
    lr_mult: 1
    decay_mult: 1
  }
  param {
    lr_mult: 2
    decay_mult: 0
  }
  convolution_param {
    num_output: 288
    pad: 1
    kernel_size: 3
    weight_filler {
      type: "xavier"
      std: 0.03
    }
    bias_filler {
      type: "constant"
      value: 0.2
    }
  }
}
layer {
  name: "inception_4d/relu_3x3"
  type: "ReLU"
  bottom: "inception_4d/3x3"
  top: "inception_4d/3x3"
}
layer {
  name: "inception_4d/5x5_reduce"
  type: "Convolution"
  bottom: "inception_4c/output"
  top: "inception_4d/5x5_reduce"
  param {
    lr_mult: 1
    decay_mult: 1
  }
  param {
    lr_mult: 2
    decay_mult: 0
  }
  convolution_param {
    num_output: 32
    kernel_size: 1
    weight_filler {
      type: "xavier"
      std: 0.2
    }
    bias_filler {
      type: "constant"
      value: 0.2
    }
  }
}
layer {
  name: "inception_4d/relu_5x5_reduce"
  type: "ReLU"
  bottom: "inception_4d/5x5_reduce"
  top: "inception_4d/5x5_reduce"
}
layer {
  name: "inception_4d/5x5"
  type: "Convolution"
  bottom: "inception_4d/5x5_reduce"
  top: "inception_4d/5x5"
  param {
    lr_mult: 1
    decay_mult: 1
  }
  param {
    lr_mult: 2
    decay_mult: 0
  }
  convolution_param {
    num_output: 64
    pad: 2
    kernel_size: 5
    weight_filler {
      type: "xavier"
      std: 0.03
    }
    bias_filler {
      type: "constant"
      value: 0.2
    }
  }
}
layer {
  name: "inception_4d/relu_5x5"
  type: "ReLU"
  bottom: "inception_4d/5x5"
  top: "inception_4d/5x5"
}
layer {
  name: "inception_4d/pool"
  type: "Pooling"
  bottom: "inception_4c/output"
  top: "inception_4d/pool"
  pooling_param {
    pool: MAX
    kernel_size: 3
    stride: 1
    pad: 1
  }
}
layer {
  name: "inception_4d/pool_proj"
  type: "Convolution"
  bottom: "inception_4d/pool"
  top: "inception_4d/pool_proj"
  param {
    lr_mult: 1
    decay_mult: 1
  }
  param {
    lr_mult: 2
    decay_mult: 0
  }
  convolution_param {
    num_output: 64
    kernel_size: 1
    weight_filler {
      type: "xavier"
      std: 0.1
    }
    bias_filler {
      type: "constant"
      value: 0.2
    }
  }
}
layer {
  name: "inception_4d/relu_pool_proj"
  type: "ReLU"
  bottom: "inception_4d/pool_proj"
  top: "inception_4d/pool_proj"
}
layer {
  name: "inception_4d/output"
  type: "Concat"
  bottom: "inception_4d/1x1"
  bottom: "inception_4d/3x3"
  bottom: "inception_4d/5x5"
  bottom: "inception_4d/pool_proj"
  top: "inception_4d/output"
}
layer {
  name: "loss2/ave_pool"
  type: "Pooling"
  bottom: "inception_4d/output"
  top: "loss2/ave_pool"
  pooling_param {
    pool: AVE
    kernel_size: 5
    stride: 3
  }
}
layer {
  name: "loss2/conv"
  type: "Convolution"
  bottom: "loss2/ave_pool"
  top: "loss2/conv"
  param {
    lr_mult: 1
    decay_mult: 1
  }
  param {
    lr_mult: 2
    decay_mult: 0
  }
  convolution_param {
    num_output: 128
    kernel_size: 1
    weight_filler {
      type: "xavier"
      std: 0.08
    }
    bias_filler {
      type: "constant"
      value: 0.2
    }
  }
}
layer {
  name: "loss2/relu_conv"
  type: "ReLU"
  bottom: "loss2/conv"
  top: "loss2/conv"
}
layer {
  name: "loss2/fc"
  type: "InnerProduct"
  bottom: "loss2/conv"
  top: "loss2/fc"
  param {
    lr_mult: 1
    decay_mult: 1
  }
  param {
    lr_mult: 2
    decay_mult: 0
  }
  inner_product_param {
    num_output: 1024
    weight_filler {
      type: "xavier"
      std: 0.02
    }
    bias_filler {
      type: "constant"
      value: 0.2
    }
  }
}
layer {
  name: "loss2/relu_fc"
  type: "ReLU"
  bottom: "loss2/fc"
  top: "loss2/fc"
}
layer {
  name: "loss2/drop_fc"
  type: "Dropout"
  bottom: "loss2/fc"
  top: "loss2/fc"
  dropout_param {
    dropout_ratio: 0.7
  }
}
layer {
  name: "loss2/classifier_plantvillage"
  type: "InnerProduct"
  bottom: "loss2/fc"
  top: "loss2/classifier_plantvillage"
  param {
    lr_mult: 1
    decay_mult: 1
  }
  param {
    lr_mult: 2
    decay_mult: 0
  }
  inner_product_param {
    num_output: 38
    weight_filler {
      type: "xavier"
      std: 0.0009765625
    }
    bias_filler {
      type: "constant"
      value: 0
    }
  }
}
layer {
  name: "inception_4e/1x1"
  type: "Convolution"
  bottom: "inception_4d/output"
  top: "inception_4e/1x1"
  param {
    lr_mult: 1
    decay_mult: 1
  }
  param {
    lr_mult: 2
    decay_mult: 0
  }
  convolution_param {
    num_output: 256
    kernel_size: 1
    weight_filler {
      type: "xavier"
      std: 0.03
    }
    bias_filler {
      type: "constant"
      value: 0.2
    }
  }
}
layer {
  name: "inception_4e/relu_1x1"
  type: "ReLU"
  bottom: "inception_4e/1x1"
  top: "inception_4e/1x1"
}
layer {
  name: "inception_4e/3x3_reduce"
  type: "Convolution"
  bottom: "inception_4d/output"
  top: "inception_4e/3x3_reduce"
  param {
    lr_mult: 1
    decay_mult: 1
  }
  param {
    lr_mult: 2
    decay_mult: 0
  }
  convolution_param {
    num_output: 160
    kernel_size: 1
    weight_filler {
      type: "xavier"
      std: 0.09
    }
    bias_filler {
      type: "constant"
      value: 0.2
    }
  }
}
layer {
  name: "inception_4e/relu_3x3_reduce"
  type: "ReLU"
  bottom: "inception_4e/3x3_reduce"
  top: "inception_4e/3x3_reduce"
}
layer {
  name: "inception_4e/3x3"
  type: "Convolution"
  bottom: "inception_4e/3x3_reduce"
  top: "inception_4e/3x3"
  param {
    lr_mult: 1
    decay_mult: 1
  }
  param {
    lr_mult: 2
    decay_mult: 0
  }
  convolution_param {
    num_output: 320
    pad: 1
    kernel_size: 3
    weight_filler {
      type: "xavier"
      std: 0.03
    }
    bias_filler {
      type: "constant"
      value: 0.2
    }
  }
}
layer {
  name: "inception_4e/relu_3x3"
  type: "ReLU"
  bottom: "inception_4e/3x3"
  top: "inception_4e/3x3"
}
layer {
  name: "inception_4e/5x5_reduce"
  type: "Convolution"
  bottom: "inception_4d/output"
  top: "inception_4e/5x5_reduce"
  param {
    lr_mult: 1
    decay_mult: 1
  }
  param {
    lr_mult: 2
    decay_mult: 0
  }
  convolution_param {
    num_output: 32
    kernel_size: 1
    weight_filler {
      type: "xavier"
      std: 0.2
    }
    bias_filler {
      type: "constant"
      value: 0.2
    }
  }
}
layer {
  name: "inception_4e/relu_5x5_reduce"
  type: "ReLU"
  bottom: "inception_4e/5x5_reduce"
  top: "inception_4e/5x5_reduce"
}
layer {
  name: "inception_4e/5x5"
  type: "Convolution"
  bottom: "inception_4e/5x5_reduce"
  top: "inception_4e/5x5"
  p
I0403 16:24:55.554625 21045 layer_factory.hpp:77] Creating layer data
I0403 16:24:55.555233 21045 net.cpp:91] Creating Layer data
I0403 16:24:55.555264 21045 net.cpp:399] data -> data
I0403 16:24:55.555315 21045 net.cpp:399] data -> label
I0403 16:24:55.555351 21045 data_transformer.cpp:25] Loading mean file from: /home/mohanty/data/final_dataset/lmdb/color-40-60/mean.binaryproto
I0403 16:24:55.556556 21057 db_lmdb.cpp:38] Opened lmdb /home/mohanty/data/final_dataset/lmdb/color-40-60/test_db
I0403 16:24:55.568935 21045 data_layer.cpp:41] output data size: 24,3,224,224
I0403 16:24:55.599642 21045 net.cpp:141] Setting up data
I0403 16:24:55.599747 21045 net.cpp:148] Top shape: 24 3 224 224 (3612672)
I0403 16:24:55.599773 21045 net.cpp:148] Top shape: 24 (24)
I0403 16:24:55.599789 21045 net.cpp:156] Memory required for data: 14450784
I0403 16:24:55.599819 21045 layer_factory.hpp:77] Creating layer label_data_1_split
I0403 16:24:55.599846 21045 net.cpp:91] Creating Layer label_data_1_split
I0403 16:24:55.599866 21045 net.cpp:425] label_data_1_split <- label
I0403 16:24:55.599900 21045 net.cpp:399] label_data_1_split -> label_data_1_split_0
I0403 16:24:55.599932 21045 net.cpp:399] label_data_1_split -> label_data_1_split_1
I0403 16:24:55.599956 21045 net.cpp:399] label_data_1_split -> label_data_1_split_2
I0403 16:24:55.599978 21045 net.cpp:399] label_data_1_split -> label_data_1_split_3
I0403 16:24:55.600004 21045 net.cpp:399] label_data_1_split -> label_data_1_split_4
I0403 16:24:55.600028 21045 net.cpp:399] label_data_1_split -> label_data_1_split_5
I0403 16:24:55.600049 21045 net.cpp:399] label_data_1_split -> label_data_1_split_6
I0403 16:24:55.600070 21045 net.cpp:399] label_data_1_split -> label_data_1_split_7
I0403 16:24:55.600090 21045 net.cpp:399] label_data_1_split -> label_data_1_split_8
I0403 16:24:55.600111 21045 net.cpp:399] label_data_1_split -> label_data_1_split_9
I0403 16:24:55.600230 21045 net.cpp:141] Setting up label_data_1_split
I0403 16:24:55.600257 21045 net.cpp:148] Top shape: 24 (24)
I0403 16:24:55.600275 21045 net.cpp:148] Top shape: 24 (24)
I0403 16:24:55.600291 21045 net.cpp:148] Top shape: 24 (24)
I0403 16:24:55.600307 21045 net.cpp:148] Top shape: 24 (24)
I0403 16:24:55.600323 21045 net.cpp:148] Top shape: 24 (24)
I0403 16:24:55.600339 21045 net.cpp:148] Top shape: 24 (24)
I0403 16:24:55.600354 21045 net.cpp:148] Top shape: 24 (24)
I0403 16:24:55.600370 21045 net.cpp:148] Top shape: 24 (24)
I0403 16:24:55.600385 21045 net.cpp:148] Top shape: 24 (24)
I0403 16:24:55.600402 21045 net.cpp:148] Top shape: 24 (24)
I0403 16:24:55.600446 21045 net.cpp:156] Memory required for data: 14451744
I0403 16:24:55.600462 21045 layer_factory.hpp:77] Creating layer conv1/7x7_s2
I0403 16:24:55.600495 21045 net.cpp:91] Creating Layer conv1/7x7_s2
I0403 16:24:55.600514 21045 net.cpp:425] conv1/7x7_s2 <- data
I0403 16:24:55.600533 21045 net.cpp:399] conv1/7x7_s2 -> conv1/7x7_s2
I0403 16:24:55.743544 21045 net.cpp:141] Setting up conv1/7x7_s2
I0403 16:24:55.743605 21045 net.cpp:148] Top shape: 24 64 112 112 (19267584)
I0403 16:24:55.743623 21045 net.cpp:156] Memory required for data: 91522080
I0403 16:24:55.743654 21045 layer_factory.hpp:77] Creating layer conv1/relu_7x7
I0403 16:24:55.743681 21045 net.cpp:91] Creating Layer conv1/relu_7x7
I0403 16:24:55.743700 21045 net.cpp:425] conv1/relu_7x7 <- conv1/7x7_s2
I0403 16:24:55.743719 21045 net.cpp:386] conv1/relu_7x7 -> conv1/7x7_s2 (in-place)
I0403 16:24:55.743981 21045 net.cpp:141] Setting up conv1/relu_7x7
I0403 16:24:55.744014 21045 net.cpp:148] Top shape: 24 64 112 112 (19267584)
I0403 16:24:55.744030 21045 net.cpp:156] Memory required for data: 168592416
I0403 16:24:55.744046 21045 layer_factory.hpp:77] Creating layer pool1/3x3_s2
I0403 16:24:55.744071 21045 net.cpp:91] Creating Layer pool1/3x3_s2
I0403 16:24:55.744088 21045 net.cpp:425] pool1/3x3_s2 <- conv1/7x7_s2
I0403 16:24:55.744107 21045 net.cpp:399] pool1/3x3_s2 -> pool1/3x3_s2
I0403 16:24:55.744184 21045 net.cpp:141] Setting up pool1/3x3_s2
I0403 16:24:55.744209 21045 net.cpp:148] Top shape: 24 64 56 56 (4816896)
I0403 16:24:55.744223 21045 net.cpp:156] Memory required for data: 187860000
I0403 16:24:55.744238 21045 layer_factory.hpp:77] Creating layer pool1/norm1
I0403 16:24:55.744263 21045 net.cpp:91] Creating Layer pool1/norm1
I0403 16:24:55.744282 21045 net.cpp:425] pool1/norm1 <- pool1/3x3_s2
I0403 16:24:55.744299 21045 net.cpp:399] pool1/norm1 -> pool1/norm1
I0403 16:24:55.744596 21045 net.cpp:141] Setting up pool1/norm1
I0403 16:24:55.744623 21045 net.cpp:148] Top shape: 24 64 56 56 (4816896)
I0403 16:24:55.744639 21045 net.cpp:156] Memory required for data: 207127584
I0403 16:24:55.744655 21045 layer_factory.hpp:77] Creating layer conv2/3x3_reduce
I0403 16:24:55.744680 21045 net.cpp:91] Creating Layer conv2/3x3_reduce
I0403 16:24:55.744699 21045 net.cpp:425] conv2/3x3_reduce <- pool1/norm1
I0403 16:24:55.744716 21045 net.cpp:399] conv2/3x3_reduce -> conv2/3x3_reduce
I0403 16:24:55.747305 21045 net.cpp:141] Setting up conv2/3x3_reduce
I0403 16:24:55.747339 21045 net.cpp:148] Top shape: 24 64 56 56 (4816896)
I0403 16:24:55.747356 21045 net.cpp:156] Memory required for data: 226395168
I0403 16:24:55.747380 21045 layer_factory.hpp:77] Creating layer conv2/relu_3x3_reduce
I0403 16:24:55.747400 21045 net.cpp:91] Creating Layer conv2/relu_3x3_reduce
I0403 16:24:55.747416 21045 net.cpp:425] conv2/relu_3x3_reduce <- conv2/3x3_reduce
I0403 16:24:55.747432 21045 net.cpp:386] conv2/relu_3x3_reduce -> conv2/3x3_reduce (in-place)
I0403 16:24:55.747732 21045 net.cpp:141] Setting up conv2/relu_3x3_reduce
I0403 16:24:55.747763 21045 net.cpp:148] Top shape: 24 64 56 56 (4816896)
I0403 16:24:55.747779 21045 net.cpp:156] Memory required for data: 245662752
I0403 16:24:55.747795 21045 layer_factory.hpp:77] Creating layer conv2/3x3
I0403 16:24:55.747822 21045 net.cpp:91] Creating Layer conv2/3x3
I0403 16:24:55.747840 21045 net.cpp:425] conv2/3x3 <- conv2/3x3_reduce
I0403 16:24:55.747864 21045 net.cpp:399] conv2/3x3 -> conv2/3x3
I0403 16:24:55.750334 21045 net.cpp:141] Setting up conv2/3x3
I0403 16:24:55.750367 21045 net.cpp:148] Top shape: 24 192 56 56 (14450688)
I0403 16:24:55.750385 21045 net.cpp:156] Memory required for data: 303465504
I0403 16:24:55.750407 21045 layer_factory.hpp:77] Creating layer conv2/relu_3x3
I0403 16:24:55.750427 21045 net.cpp:91] Creating Layer conv2/relu_3x3
I0403 16:24:55.750443 21045 net.cpp:425] conv2/relu_3x3 <- conv2/3x3
I0403 16:24:55.750463 21045 net.cpp:386] conv2/relu_3x3 -> conv2/3x3 (in-place)
I0403 16:24:55.750648 21045 net.cpp:141] Setting up conv2/relu_3x3
I0403 16:24:55.750675 21045 net.cpp:148] Top shape: 24 192 56 56 (14450688)
I0403 16:24:55.750721 21045 net.cpp:156] Memory required for data: 361268256
I0403 16:24:55.750737 21045 layer_factory.hpp:77] Creating layer conv2/norm2
I0403 16:24:55.750759 21045 net.cpp:91] Creating Layer conv2/norm2
I0403 16:24:55.750777 21045 net.cpp:425] conv2/norm2 <- conv2/3x3
I0403 16:24:55.750794 21045 net.cpp:399] conv2/norm2 -> conv2/norm2
I0403 16:24:55.751126 21045 net.cpp:141] Setting up conv2/norm2
I0403 16:24:55.751154 21045 net.cpp:148] Top shape: 24 192 56 56 (14450688)
I0403 16:24:55.751173 21045 net.cpp:156] Memory required for data: 419071008
I0403 16:24:55.751189 21045 layer_factory.hpp:77] Creating layer pool2/3x3_s2
I0403 16:24:55.751207 21045 net.cpp:91] Creating Layer pool2/3x3_s2
I0403 16:24:55.751224 21045 net.cpp:425] pool2/3x3_s2 <- conv2/norm2
I0403 16:24:55.751242 21045 net.cpp:399] pool2/3x3_s2 -> pool2/3x3_s2
I0403 16:24:55.751299 21045 net.cpp:141] Setting up pool2/3x3_s2
I0403 16:24:55.751324 21045 net.cpp:148] Top shape: 24 192 28 28 (3612672)
I0403 16:24:55.751339 21045 net.cpp:156] Memory required for data: 433521696
I0403 16:24:55.751354 21045 layer_factory.hpp:77] Creating layer pool2/3x3_s2_pool2/3x3_s2_0_split
I0403 16:24:55.751373 21045 net.cpp:91] Creating Layer pool2/3x3_s2_pool2/3x3_s2_0_split
I0403 16:24:55.751389 21045 net.cpp:425] pool2/3x3_s2_pool2/3x3_s2_0_split <- pool2/3x3_s2
I0403 16:24:55.751410 21045 net.cpp:399] pool2/3x3_s2_pool2/3x3_s2_0_split -> pool2/3x3_s2_pool2/3x3_s2_0_split_0
I0403 16:24:55.751430 21045 net.cpp:399] pool2/3x3_s2_pool2/3x3_s2_0_split -> pool2/3x3_s2_pool2/3x3_s2_0_split_1
I0403 16:24:55.751449 21045 net.cpp:399] pool2/3x3_s2_pool2/3x3_s2_0_split -> pool2/3x3_s2_pool2/3x3_s2_0_split_2
I0403 16:24:55.751468 21045 net.cpp:399] pool2/3x3_s2_pool2/3x3_s2_0_split -> pool2/3x3_s2_pool2/3x3_s2_0_split_3
I0403 16:24:55.751546 21045 net.cpp:141] Setting up pool2/3x3_s2_pool2/3x3_s2_0_split
I0403 16:24:55.751569 21045 net.cpp:148] Top shape: 24 192 28 28 (3612672)
I0403 16:24:55.751586 21045 net.cpp:148] Top shape: 24 192 28 28 (3612672)
I0403 16:24:55.751602 21045 net.cpp:148] Top shape: 24 192 28 28 (3612672)
I0403 16:24:55.751618 21045 net.cpp:148] Top shape: 24 192 28 28 (3612672)
I0403 16:24:55.751633 21045 net.cpp:156] Memory required for data: 491324448
I0403 16:24:55.751647 21045 layer_factory.hpp:77] Creating layer inception_3a/1x1
I0403 16:24:55.751672 21045 net.cpp:91] Creating Layer inception_3a/1x1
I0403 16:24:55.751690 21045 net.cpp:425] inception_3a/1x1 <- pool2/3x3_s2_pool2/3x3_s2_0_split_0
I0403 16:24:55.751711 21045 net.cpp:399] inception_3a/1x1 -> inception_3a/1x1
I0403 16:24:55.753321 21045 net.cpp:141] Setting up inception_3a/1x1
I0403 16:24:55.753355 21045 net.cpp:148] Top shape: 24 64 28 28 (1204224)
I0403 16:24:55.753373 21045 net.cpp:156] Memory required for data: 496141344
I0403 16:24:55.753393 21045 layer_factory.hpp:77] Creating layer inception_3a/relu_1x1
I0403 16:24:55.753414 21045 net.cpp:91] Creating Layer inception_3a/relu_1x1
I0403 16:24:55.753432 21045 net.cpp:425] inception_3a/relu_1x1 <- inception_3a/1x1
I0403 16:24:55.753451 21045 net.cpp:386] inception_3a/relu_1x1 -> inception_3a/1x1 (in-place)
I0403 16:24:55.753631 21045 net.cpp:141] Setting up inception_3a/relu_1x1
I0403 16:24:55.753657 21045 net.cpp:148] Top shape: 24 64 28 28 (1204224)
I0403 16:24:55.753672 21045 net.cpp:156] Memory required for data: 500958240
I0403 16:24:55.753689 21045 layer_factory.hpp:77] Creating layer inception_3a/3x3_reduce
I0403 16:24:55.753710 21045 net.cpp:91] Creating Layer inception_3a/3x3_reduce
I0403 16:24:55.753728 21045 net.cpp:425] inception_3a/3x3_reduce <- pool2/3x3_s2_pool2/3x3_s2_0_split_1
I0403 16:24:55.753751 21045 net.cpp:399] inception_3a/3x3_reduce -> inception_3a/3x3_reduce
I0403 16:24:55.755532 21045 net.cpp:141] Setting up inception_3a/3x3_reduce
I0403 16:24:55.755564 21045 net.cpp:148] Top shape: 24 96 28 28 (1806336)
I0403 16:24:55.755581 21045 net.cpp:156] Memory required for data: 508183584
I0403 16:24:55.755602 21045 layer_factory.hpp:77] Creating layer inception_3a/relu_3x3_reduce
I0403 16:24:55.755638 21045 net.cpp:91] Creating Layer inception_3a/relu_3x3_reduce
I0403 16:24:55.755657 21045 net.cpp:425] inception_3a/relu_3x3_reduce <- inception_3a/3x3_reduce
I0403 16:24:55.755677 21045 net.cpp:386] inception_3a/relu_3x3_reduce -> inception_3a/3x3_reduce (in-place)
I0403 16:24:55.755859 21045 net.cpp:141] Setting up inception_3a/relu_3x3_reduce
I0403 16:24:55.755884 21045 net.cpp:148] Top shape: 24 96 28 28 (1806336)
I0403 16:24:55.755903 21045 net.cpp:156] Memory required for data: 515408928
I0403 16:24:55.755918 21045 layer_factory.hpp:77] Creating layer inception_3a/3x3
I0403 16:24:55.755938 21045 net.cpp:91] Creating Layer inception_3a/3x3
I0403 16:24:55.755954 21045 net.cpp:425] inception_3a/3x3 <- inception_3a/3x3_reduce
I0403 16:24:55.755975 21045 net.cpp:399] inception_3a/3x3 -> inception_3a/3x3
I0403 16:24:55.757660 21045 net.cpp:141] Setting up inception_3a/3x3
I0403 16:24:55.757690 21045 net.cpp:148] Top shape: 24 128 28 28 (2408448)
I0403 16:24:55.757706 21045 net.cpp:156] Memory required for data: 525042720
I0403 16:24:55.757725 21045 layer_factory.hpp:77] Creating layer inception_3a/relu_3x3
I0403 16:24:55.757743 21045 net.cpp:91] Creating Layer inception_3a/relu_3x3
I0403 16:24:55.757761 21045 net.cpp:425] inception_3a/relu_3x3 <- inception_3a/3x3
I0403 16:24:55.757779 21045 net.cpp:386] inception_3a/relu_3x3 -> inception_3a/3x3 (in-place)
I0403 16:24:55.758069 21045 net.cpp:141] Setting up inception_3a/relu_3x3
I0403 16:24:55.758098 21045 net.cpp:148] Top shape: 24 128 28 28 (2408448)
I0403 16:24:55.758114 21045 net.cpp:156] Memory required for data: 534676512
I0403 16:24:55.758129 21045 layer_factory.hpp:77] Creating layer inception_3a/5x5_reduce
I0403 16:24:55.758152 21045 net.cpp:91] Creating Layer inception_3a/5x5_reduce
I0403 16:24:55.758169 21045 net.cpp:425] inception_3a/5x5_reduce <- pool2/3x3_s2_pool2/3x3_s2_0_split_2
I0403 16:24:55.758188 21045 net.cpp:399] inception_3a/5x5_reduce -> inception_3a/5x5_reduce
I0403 16:24:55.759163 21045 net.cpp:141] Setting up inception_3a/5x5_reduce
I0403 16:24:55.759192 21045 net.cpp:148] Top shape: 24 16 28 28 (301056)
I0403 16:24:55.759207 21045 net.cpp:156] Memory required for data: 535880736
I0403 16:24:55.759227 21045 layer_factory.hpp:77] Creating layer inception_3a/relu_5x5_reduce
I0403 16:24:55.759245 21045 net.cpp:91] Creating Layer inception_3a/relu_5x5_reduce
I0403 16:24:55.759265 21045 net.cpp:425] inception_3a/relu_5x5_reduce <- inception_3a/5x5_reduce
I0403 16:24:55.759284 21045 net.cpp:386] inception_3a/relu_5x5_reduce -> inception_3a/5x5_reduce (in-place)
I0403 16:24:55.759580 21045 net.cpp:141] Setting up inception_3a/relu_5x5_reduce
I0403 16:24:55.759608 21045 net.cpp:148] Top shape: 24 16 28 28 (301056)
I0403 16:24:55.759623 21045 net.cpp:156] Memory required for data: 537084960
I0403 16:24:55.759636 21045 layer_factory.hpp:77] Creating layer inception_3a/5x5
I0403 16:24:55.759660 21045 net.cpp:91] Creating Layer inception_3a/5x5
I0403 16:24:55.759677 21045 net.cpp:425] inception_3a/5x5 <- inception_3a/5x5_reduce
I0403 16:24:55.759698 21045 net.cpp:399] inception_3a/5x5 -> inception_3a/5x5
I0403 16:24:55.760766 21045 net.cpp:141] Setting up inception_3a/5x5
I0403 16:24:55.760795 21045 net.cpp:148] Top shape: 24 32 28 28 (602112)
I0403 16:24:55.760812 21045 net.cpp:156] Memory required for data: 539493408
I0403 16:24:55.760830 21045 layer_factory.hpp:77] Creating layer inception_3a/relu_5x5
I0403 16:24:55.760848 21045 net.cpp:91] Creating Layer inception_3a/relu_5x5
I0403 16:24:55.760864 21045 net.cpp:425] inception_3a/relu_5x5 <- inception_3a/5x5
I0403 16:24:55.760882 21045 net.cpp:386] inception_3a/relu_5x5 -> inception_3a/5x5 (in-place)
I0403 16:24:55.761059 21045 net.cpp:141] Setting up inception_3a/relu_5x5
I0403 16:24:55.761083 21045 net.cpp:148] Top shape: 24 32 28 28 (602112)
I0403 16:24:55.761097 21045 net.cpp:156] Memory required for data: 541901856
I0403 16:24:55.761111 21045 layer_factory.hpp:77] Creating layer inception_3a/pool
I0403 16:24:55.761128 21045 net.cpp:91] Creating Layer inception_3a/pool
I0403 16:24:55.761144 21045 net.cpp:425] inception_3a/pool <- pool2/3x3_s2_pool2/3x3_s2_0_split_3
I0403 16:24:55.761180 21045 net.cpp:399] inception_3a/pool -> inception_3a/pool
I0403 16:24:55.761237 21045 net.cpp:141] Setting up inception_3a/pool
I0403 16:24:55.761260 21045 net.cpp:148] Top shape: 24 192 28 28 (3612672)
I0403 16:24:55.761275 21045 net.cpp:156] Memory required for data: 556352544
I0403 16:24:55.761288 21045 layer_factory.hpp:77] Creating layer inception_3a/pool_proj
I0403 16:24:55.761314 21045 net.cpp:91] Creating Layer inception_3a/pool_proj
I0403 16:24:55.761332 21045 net.cpp:425] inception_3a/pool_proj <- inception_3a/pool
I0403 16:24:55.761350 21045 net.cpp:399] inception_3a/pool_proj -> inception_3a/pool_proj
I0403 16:24:55.762292 21045 net.cpp:141] Setting up inception_3a/pool_proj
I0403 16:24:55.762320 21045 net.cpp:148] Top shape: 24 32 28 28 (602112)
I0403 16:24:55.762333 21045 net.cpp:156] Memory required for data: 558760992
I0403 16:24:55.762357 21045 layer_factory.hpp:77] Creating layer inception_3a/relu_pool_proj
I0403 16:24:55.762377 21045 net.cpp:91] Creating Layer inception_3a/relu_pool_proj
I0403 16:24:55.762397 21045 net.cpp:425] inception_3a/relu_pool_proj <- inception_3a/pool_proj
I0403 16:24:55.762413 21045 net.cpp:386] inception_3a/relu_pool_proj -> inception_3a/pool_proj (in-place)
I0403 16:24:55.762681 21045 net.cpp:141] Setting up inception_3a/relu_pool_proj
I0403 16:24:55.762708 21045 net.cpp:148] Top shape: 24 32 28 28 (602112)
I0403 16:24:55.762724 21045 net.cpp:156] Memory required for data: 561169440
I0403 16:24:55.762738 21045 layer_factory.hpp:77] Creating layer inception_3a/output
I0403 16:24:55.762756 21045 net.cpp:91] Creating Layer inception_3a/output
I0403 16:24:55.762771 21045 net.cpp:425] inception_3a/output <- inception_3a/1x1
I0403 16:24:55.762789 21045 net.cpp:425] inception_3a/output <- inception_3a/3x3
I0403 16:24:55.762804 21045 net.cpp:425] inception_3a/output <- inception_3a/5x5
I0403 16:24:55.762819 21045 net.cpp:425] inception_3a/output <- inception_3a/pool_proj
I0403 16:24:55.762837 21045 net.cpp:399] inception_3a/output -> inception_3a/output
I0403 16:24:55.762882 21045 net.cpp:141] Setting up inception_3a/output
I0403 16:24:55.762907 21045 net.cpp:148] Top shape: 24 256 28 28 (4816896)
I0403 16:24:55.762920 21045 net.cpp:156] Memory required for data: 580437024
I0403 16:24:55.762935 21045 layer_factory.hpp:77] Creating layer inception_3a/output_inception_3a/output_0_split
I0403 16:24:55.762954 21045 net.cpp:91] Creating Layer inception_3a/output_inception_3a/output_0_split
I0403 16:24:55.762972 21045 net.cpp:425] inception_3a/output_inception_3a/output_0_split <- inception_3a/output
I0403 16:24:55.762995 21045 net.cpp:399] inception_3a/output_inception_3a/output_0_split -> inception_3a/output_inception_3a/output_0_split_0
I0403 16:24:55.763016 21045 net.cpp:399] inception_3a/output_inception_3a/output_0_split -> inception_3a/output_inception_3a/output_0_split_1
I0403 16:24:55.763042 21045 net.cpp:399] inception_3a/output_inception_3a/output_0_split -> inception_3a/output_inception_3a/output_0_split_2
I0403 16:24:55.763062 21045 net.cpp:399] inception_3a/output_inception_3a/output_0_split -> inception_3a/output_inception_3a/output_0_split_3
I0403 16:24:55.763133 21045 net.cpp:141] Setting up inception_3a/output_inception_3a/output_0_split
I0403 16:24:55.763156 21045 net.cpp:148] Top shape: 24 256 28 28 (4816896)
I0403 16:24:55.763173 21045 net.cpp:148] Top shape: 24 256 28 28 (4816896)
I0403 16:24:55.763188 21045 net.cpp:148] Top shape: 24 256 28 28 (4816896)
I0403 16:24:55.763205 21045 net.cpp:148] Top shape: 24 256 28 28 (4816896)
I0403 16:24:55.763217 21045 net.cpp:156] Memory required for data: 657507360
I0403 16:24:55.763231 21045 layer_factory.hpp:77] Creating layer inception_3b/1x1
I0403 16:24:55.763253 21045 net.cpp:91] Creating Layer inception_3b/1x1
I0403 16:24:55.763272 21045 net.cpp:425] inception_3b/1x1 <- inception_3a/output_inception_3a/output_0_split_0
I0403 16:24:55.763289 21045 net.cpp:399] inception_3b/1x1 -> inception_3b/1x1
I0403 16:24:55.764406 21045 net.cpp:141] Setting up inception_3b/1x1
I0403 16:24:55.764447 21045 net.cpp:148] Top shape: 24 128 28 28 (2408448)
I0403 16:24:55.764464 21045 net.cpp:156] Memory required for data: 667141152
I0403 16:24:55.764482 21045 layer_factory.hpp:77] Creating layer inception_3b/relu_1x1
I0403 16:24:55.764502 21045 net.cpp:91] Creating Layer inception_3b/relu_1x1
I0403 16:24:55.764516 21045 net.cpp:425] inception_3b/relu_1x1 <- inception_3b/1x1
I0403 16:24:55.764533 21045 net.cpp:386] inception_3b/relu_1x1 -> inception_3b/1x1 (in-place)
I0403 16:24:55.764705 21045 net.cpp:141] Setting up inception_3b/relu_1x1
I0403 16:24:55.764734 21045 net.cpp:148] Top shape: 24 128 28 28 (2408448)
I0403 16:24:55.764750 21045 net.cpp:156] Memory required for data: 676774944
I0403 16:24:55.764765 21045 layer_factory.hpp:77] Creating layer inception_3b/3x3_reduce
I0403 16:24:55.764786 21045 net.cpp:91] Creating Layer inception_3b/3x3_reduce
I0403 16:24:55.764803 21045 net.cpp:425] inception_3b/3x3_reduce <- inception_3a/output_inception_3a/output_0_split_1
I0403 16:24:55.764823 21045 net.cpp:399] inception_3b/3x3_reduce -> inception_3b/3x3_reduce
I0403 16:24:55.765940 21045 net.cpp:141] Setting up inception_3b/3x3_reduce
I0403 16:24:55.765969 21045 net.cpp:148] Top shape: 24 128 28 28 (2408448)
I0403 16:24:55.765983 21045 net.cpp:156] Memory required for data: 686408736
I0403 16:24:55.766008 21045 layer_factory.hpp:77] Creating layer inception_3b/relu_3x3_reduce
I0403 16:24:55.766031 21045 net.cpp:91] Creating Layer inception_3b/relu_3x3_reduce
I0403 16:24:55.766047 21045 net.cpp:425] inception_3b/relu_3x3_reduce <- inception_3b/3x3_reduce
I0403 16:24:55.766064 21045 net.cpp:386] inception_3b/relu_3x3_reduce -> inception_3b/3x3_reduce (in-place)
I0403 16:24:55.766234 21045 net.cpp:141] Setting up inception_3b/relu_3x3_reduce
I0403 16:24:55.766258 21045 net.cpp:148] Top shape: 24 128 28 28 (2408448)
I0403 16:24:55.766273 21045 net.cpp:156] Memory required for data: 696042528
I0403 16:24:55.766288 21045 layer_factory.hpp:77] Creating layer inception_3b/3x3
I0403 16:24:55.766311 21045 net.cpp:91] Creating Layer inception_3b/3x3
I0403 16:24:55.766329 21045 net.cpp:425] inception_3b/3x3 <- inception_3b/3x3_reduce
I0403 16:24:55.766350 21045 net.cpp:399] inception_3b/3x3 -> inception_3b/3x3
I0403 16:24:55.769249 21045 net.cpp:141] Setting up inception_3b/3x3
I0403 16:24:55.769279 21045 net.cpp:148] Top shape: 24 192 28 28 (3612672)
I0403 16:24:55.769295 21045 net.cpp:156] Memory required for data: 710493216
I0403 16:24:55.769315 21045 layer_factory.hpp:77] Creating layer inception_3b/relu_3x3
I0403 16:24:55.769332 21045 net.cpp:91] Creating Layer inception_3b/relu_3x3
I0403 16:24:55.769348 21045 net.cpp:425] inception_3b/relu_3x3 <- inception_3b/3x3
I0403 16:24:55.769367 21045 net.cpp:386] inception_3b/relu_3x3 -> inception_3b/3x3 (in-place)
I0403 16:24:55.769652 21045 net.cpp:141] Setting up inception_3b/relu_3x3
I0403 16:24:55.769680 21045 net.cpp:148] Top shape: 24 192 28 28 (3612672)
I0403 16:24:55.769696 21045 net.cpp:156] Memory required for data: 724943904
I0403 16:24:55.769711 21045 layer_factory.hpp:77] Creating layer inception_3b/5x5_reduce
I0403 16:24:55.769734 21045 net.cpp:91] Creating Layer inception_3b/5x5_reduce
I0403 16:24:55.769752 21045 net.cpp:425] inception_3b/5x5_reduce <- inception_3a/output_inception_3a/output_0_split_2
I0403 16:24:55.769770 21045 net.cpp:399] inception_3b/5x5_reduce -> inception_3b/5x5_reduce
I0403 16:24:55.770750 21045 net.cpp:141] Setting up inception_3b/5x5_reduce
I0403 16:24:55.770779 21045 net.cpp:148] Top shape: 24 32 28 28 (602112)
I0403 16:24:55.770795 21045 net.cpp:156] Memory required for data: 727352352
I0403 16:24:55.770813 21045 layer_factory.hpp:77] Creating layer inception_3b/relu_5x5_reduce
I0403 16:24:55.770830 21045 net.cpp:91] Creating Layer inception_3b/relu_5x5_reduce
I0403 16:24:55.770846 21045 net.cpp:425] inception_3b/relu_5x5_reduce <- inception_3b/5x5_reduce
I0403 16:24:55.770864 21045 net.cpp:386] inception_3b/relu_5x5_reduce -> inception_3b/5x5_reduce (in-place)
I0403 16:24:55.771044 21045 net.cpp:141] Setting up inception_3b/relu_5x5_reduce
I0403 16:24:55.771080 21045 net.cpp:148] Top shape: 24 32 28 28 (602112)
I0403 16:24:55.771096 21045 net.cpp:156] Memory required for data: 729760800
I0403 16:24:55.771111 21045 layer_factory.hpp:77] Creating layer inception_3b/5x5
I0403 16:24:55.771132 21045 net.cpp:91] Creating Layer inception_3b/5x5
I0403 16:24:55.771149 21045 net.cpp:425] inception_3b/5x5 <- inception_3b/5x5_reduce
I0403 16:24:55.771170 21045 net.cpp:399] inception_3b/5x5 -> inception_3b/5x5
I0403 16:24:55.773135 21045 net.cpp:141] Setting up inception_3b/5x5
I0403 16:24:55.773165 21045 net.cpp:148] Top shape: 24 96 28 28 (1806336)
I0403 16:24:55.773181 21045 net.cpp:156] Memory required for data: 736986144
I0403 16:24:55.773200 21045 layer_factory.hpp:77] Creating layer inception_3b/relu_5x5
I0403 16:24:55.773221 21045 net.cpp:91] Creating Layer inception_3b/relu_5x5
I0403 16:24:55.773238 21045 net.cpp:425] inception_3b/relu_5x5 <- inception_3b/5x5
I0403 16:24:55.773255 21045 net.cpp:386] inception_3b/relu_5x5 -> inception_3b/5x5 (in-place)
I0403 16:24:55.773455 21045 net.cpp:141] Setting up inception_3b/relu_5x5
I0403 16:24:55.773479 21045 net.cpp:148] Top shape: 24 96 28 28 (1806336)
I0403 16:24:55.773494 21045 net.cpp:156] Memory required for data: 744211488
I0403 16:24:55.773509 21045 layer_factory.hpp:77] Creating layer inception_3b/pool
I0403 16:24:55.773526 21045 net.cpp:91] Creating Layer inception_3b/pool
I0403 16:24:55.773541 21045 net.cpp:425] inception_3b/pool <- inception_3a/output_inception_3a/output_0_split_3
I0403 16:24:55.773558 21045 net.cpp:399] inception_3b/pool -> inception_3b/pool
I0403 16:24:55.773613 21045 net.cpp:141] Setting up inception_3b/pool
I0403 16:24:55.773638 21045 net.cpp:148] Top shape: 24 256 28 28 (4816896)
I0403 16:24:55.773651 21045 net.cpp:156] Memory required for data: 763479072
I0403 16:24:55.773665 21045 layer_factory.hpp:77] Creating layer inception_3b/pool_proj
I0403 16:24:55.773689 21045 net.cpp:91] Creating Layer inception_3b/pool_proj
I0403 16:24:55.773707 21045 net.cpp:425] inception_3b/pool_proj <- inception_3b/pool
I0403 16:24:55.773725 21045 net.cpp:399] inception_3b/pool_proj -> inception_3b/pool_proj
I0403 16:24:55.774763 21045 net.cpp:141] Setting up inception_3b/pool_proj
I0403 16:24:55.774791 21045 net.cpp:148] Top shape: 24 64 28 28 (1204224)
I0403 16:24:55.774806 21045 net.cpp:156] Memory required for data: 768295968
I0403 16:24:55.774823 21045 layer_factory.hpp:77] Creating layer inception_3b/relu_pool_proj
I0403 16:24:55.774843 21045 net.cpp:91] Creating Layer inception_3b/relu_pool_proj
I0403 16:24:55.774860 21045 net.cpp:425] inception_3b/relu_pool_proj <- inception_3b/pool_proj
I0403 16:24:55.774876 21045 net.cpp:386] inception_3b/relu_pool_proj -> inception_3b/pool_proj (in-place)
I0403 16:24:55.775274 21045 net.cpp:141] Setting up inception_3b/relu_pool_proj
I0403 16:24:55.775300 21045 net.cpp:148] Top shape: 24 64 28 28 (1204224)
I0403 16:24:55.775315 21045 net.cpp:156] Memory required for data: 773112864
I0403 16:24:55.775328 21045 layer_factory.hpp:77] Creating layer inception_3b/output
I0403 16:24:55.775346 21045 net.cpp:91] Creating Layer inception_3b/output
I0403 16:24:55.775360 21045 net.cpp:425] inception_3b/output <- inception_3b/1x1
I0403 16:24:55.775377 21045 net.cpp:425] inception_3b/output <- inception_3b/3x3
I0403 16:24:55.775391 21045 net.cpp:425] inception_3b/output <- inception_3b/5x5
I0403 16:24:55.775406 21045 net.cpp:425] inception_3b/output <- inception_3b/pool_proj
I0403 16:24:55.775425 21045 net.cpp:399] inception_3b/output -> inception_3b/output
I0403 16:24:55.775468 21045 net.cpp:141] Setting up inception_3b/output
I0403 16:24:55.775495 21045 net.cpp:148] Top shape: 24 480 28 28 (9031680)
I0403 16:24:55.775509 21045 net.cpp:156] Memory required for data: 809239584
I0403 16:24:55.775524 21045 layer_factory.hpp:77] Creating layer pool3/3x3_s2
I0403 16:24:55.775540 21045 net.cpp:91] Creating Layer pool3/3x3_s2
I0403 16:24:55.775555 21045 net.cpp:425] pool3/3x3_s2 <- inception_3b/output
I0403 16:24:55.775575 21045 net.cpp:399] pool3/3x3_s2 -> pool3/3x3_s2
I0403 16:24:55.775645 21045 net.cpp:141] Setting up pool3/3x3_s2
I0403 16:24:55.775671 21045 net.cpp:148] Top shape: 24 480 14 14 (2257920)
I0403 16:24:55.775684 21045 net.cpp:156] Memory required for data: 818271264
I0403 16:24:55.775698 21045 layer_factory.hpp:77] Creating layer pool3/3x3_s2_pool3/3x3_s2_0_split
I0403 16:24:55.775717 21045 net.cpp:91] Creating Layer pool3/3x3_s2_pool3/3x3_s2_0_split
I0403 16:24:55.775733 21045 net.cpp:425] pool3/3x3_s2_pool3/3x3_s2_0_split <- pool3/3x3_s2
I0403 16:24:55.775749 21045 net.cpp:399] pool3/3x3_s2_pool3/3x3_s2_0_split -> pool3/3x3_s2_pool3/3x3_s2_0_split_0
I0403 16:24:55.775768 21045 net.cpp:399] pool3/3x3_s2_pool3/3x3_s2_0_split -> pool3/3x3_s2_pool3/3x3_s2_0_split_1
I0403 16:24:55.775786 21045 net.cpp:399] pool3/3x3_s2_pool3/3x3_s2_0_split -> pool3/3x3_s2_pool3/3x3_s2_0_split_2
I0403 16:24:55.775807 21045 net.cpp:399] pool3/3x3_s2_pool3/3x3_s2_0_split -> pool3/3x3_s2_pool3/3x3_s2_0_split_3
I0403 16:24:55.775883 21045 net.cpp:141] Setting up pool3/3x3_s2_pool3/3x3_s2_0_split
I0403 16:24:55.775907 21045 net.cpp:148] Top shape: 24 480 14 14 (2257920)
I0403 16:24:55.775924 21045 net.cpp:148] Top shape: 24 480 14 14 (2257920)
I0403 16:24:55.775939 21045 net.cpp:148] Top shape: 24 480 14 14 (2257920)
I0403 16:24:55.775954 21045 net.cpp:148] Top shape: 24 480 14 14 (2257920)
I0403 16:24:55.775966 21045 net.cpp:156] Memory required for data: 854397984
I0403 16:24:55.775981 21045 layer_factory.hpp:77] Creating layer inception_4a/1x1
I0403 16:24:55.776026 21045 net.cpp:91] Creating Layer inception_4a/1x1
I0403 16:24:55.776044 21045 net.cpp:425] inception_4a/1x1 <- pool3/3x3_s2_pool3/3x3_s2_0_split_0
I0403 16:24:55.776065 21045 net.cpp:399] inception_4a/1x1 -> inception_4a/1x1
I0403 16:24:55.777667 21045 net.cpp:141] Setting up inception_4a/1x1
I0403 16:24:55.777695 21045 net.cpp:148] Top shape: 24 192 14 14 (903168)
I0403 16:24:55.777711 21045 net.cpp:156] Memory required for data: 858010656
I0403 16:24:55.777729 21045 layer_factory.hpp:77] Creating layer inception_4a/relu_1x1
I0403 16:24:55.777750 21045 net.cpp:91] Creating Layer inception_4a/relu_1x1
I0403 16:24:55.777767 21045 net.cpp:425] inception_4a/relu_1x1 <- inception_4a/1x1
I0403 16:24:55.777786 21045 net.cpp:386] inception_4a/relu_1x1 -> inception_4a/1x1 (in-place)
I0403 16:24:55.777959 21045 net.cpp:141] Setting up inception_4a/relu_1x1
I0403 16:24:55.778000 21045 net.cpp:148] Top shape: 24 192 14 14 (903168)
I0403 16:24:55.778019 21045 net.cpp:156] Memory required for data: 861623328
I0403 16:24:55.778034 21045 layer_factory.hpp:77] Creating layer inception_4a/3x3_reduce
I0403 16:24:55.778059 21045 net.cpp:91] Creating Layer inception_4a/3x3_reduce
I0403 16:24:55.778076 21045 net.cpp:425] inception_4a/3x3_reduce <- pool3/3x3_s2_pool3/3x3_s2_0_split_1
I0403 16:24:55.778095 21045 net.cpp:399] inception_4a/3x3_reduce -> inception_4a/3x3_reduce
I0403 16:24:55.779392 21045 net.cpp:141] Setting up inception_4a/3x3_reduce
I0403 16:24:55.779420 21045 net.cpp:148] Top shape: 24 96 14 14 (451584)
I0403 16:24:55.779436 21045 net.cpp:156] Memory required for data: 863429664
I0403 16:24:55.779463 21045 layer_factory.hpp:77] Creating layer inception_4a/relu_3x3_reduce
I0403 16:24:55.779484 21045 net.cpp:91] Creating Layer inception_4a/relu_3x3_reduce
I0403 16:24:55.779500 21045 net.cpp:425] inception_4a/relu_3x3_reduce <- inception_4a/3x3_reduce
I0403 16:24:55.779520 21045 net.cpp:386] inception_4a/relu_3x3_reduce -> inception_4a/3x3_reduce (in-place)
I0403 16:24:55.779703 21045 net.cpp:141] Setting up inception_4a/relu_3x3_reduce
I0403 16:24:55.779728 21045 net.cpp:148] Top shape: 24 96 14 14 (451584)
I0403 16:24:55.779747 21045 net.cpp:156] Memory required for data: 865236000
I0403 16:24:55.779762 21045 layer_factory.hpp:77] Creating layer inception_4a/3x3
I0403 16:24:55.779781 21045 net.cpp:91] Creating Layer inception_4a/3x3
I0403 16:24:55.779799 21045 net.cpp:425] inception_4a/3x3 <- inception_4a/3x3_reduce
I0403 16:24:55.779820 21045 net.cpp:399] inception_4a/3x3 -> inception_4a/3x3
I0403 16:24:55.782491 21045 net.cpp:141] Setting up inception_4a/3x3
I0403 16:24:55.782519 21045 net.cpp:148] Top shape: 24 208 14 14 (978432)
I0403 16:24:55.782534 21045 net.cpp:156] Memory required for data: 869149728
I0403 16:24:55.782552 21045 layer_factory.hpp:77] Creating layer inception_4a/relu_3x3
I0403 16:24:55.782572 21045 net.cpp:91] Creating Layer inception_4a/relu_3x3
I0403 16:24:55.782589 21045 net.cpp:425] inception_4a/relu_3x3 <- inception_4a/3x3
I0403 16:24:55.782606 21045 net.cpp:386] inception_4a/relu_3x3 -> inception_4a/3x3 (in-place)
I0403 16:24:55.782883 21045 net.cpp:141] Setting up inception_4a/relu_3x3
I0403 16:24:55.782909 21045 net.cpp:148] Top shape: 24 208 14 14 (978432)
I0403 16:24:55.782923 21045 net.cpp:156] Memory required for data: 873063456
I0403 16:24:55.782938 21045 layer_factory.hpp:77] Creating layer inception_4a/5x5_reduce
I0403 16:24:55.782963 21045 net.cpp:91] Creating Layer inception_4a/5x5_reduce
I0403 16:24:55.782980 21045 net.cpp:425] inception_4a/5x5_reduce <- pool3/3x3_s2_pool3/3x3_s2_0_split_2
I0403 16:24:55.783007 21045 net.cpp:399] inception_4a/5x5_reduce -> inception_4a/5x5_reduce
I0403 16:24:55.784020 21045 net.cpp:141] Setting up inception_4a/5x5_reduce
I0403 16:24:55.784050 21045 net.cpp:148] Top shape: 24 16 14 14 (75264)
I0403 16:24:55.784066 21045 net.cpp:156] Memory required for data: 873364512
I0403 16:24:55.784085 21045 layer_factory.hpp:77] Creating layer inception_4a/relu_5x5_reduce
I0403 16:24:55.784102 21045 net.cpp:91] Creating Layer inception_4a/relu_5x5_reduce
I0403 16:24:55.784118 21045 net.cpp:425] inception_4a/relu_5x5_reduce <- inception_4a/5x5_reduce
I0403 16:24:55.784137 21045 net.cpp:386] inception_4a/relu_5x5_reduce -> inception_4a/5x5_reduce (in-place)
I0403 16:24:55.784312 21045 net.cpp:141] Setting up inception_4a/relu_5x5_reduce
I0403 16:24:55.784335 21045 net.cpp:148] Top shape: 24 16 14 14 (75264)
I0403 16:24:55.784349 21045 net.cpp:156] Memory required for data: 873665568
I0403 16:24:55.784363 21045 layer_factory.hpp:77] Creating layer inception_4a/5x5
I0403 16:24:55.784385 21045 net.cpp:91] Creating Layer inception_4a/5x5
I0403 16:24:55.784402 21045 net.cpp:425] inception_4a/5x5 <- inception_4a/5x5_reduce
I0403 16:24:55.784422 21045 net.cpp:399] inception_4a/5x5 -> inception_4a/5x5
I0403 16:24:55.785506 21045 net.cpp:141] Setting up inception_4a/5x5
I0403 16:24:55.785533 21045 net.cpp:148] Top shape: 24 48 14 14 (225792)
I0403 16:24:55.785548 21045 net.cpp:156] Memory required for data: 874568736
I0403 16:24:55.785567 21045 layer_factory.hpp:77] Creating layer inception_4a/relu_5x5
I0403 16:24:55.785588 21045 net.cpp:91] Creating Layer inception_4a/relu_5x5
I0403 16:24:55.785604 21045 net.cpp:425] inception_4a/relu_5x5 <- inception_4a/5x5
I0403 16:24:55.785622 21045 net.cpp:386] inception_4a/relu_5x5 -> inception_4a/5x5 (in-place)
I0403 16:24:55.785795 21045 net.cpp:141] Setting up inception_4a/relu_5x5
I0403 16:24:55.785820 21045 net.cpp:148] Top shape: 24 48 14 14 (225792)
I0403 16:24:55.785833 21045 net.cpp:156] Memory required for data: 875471904
I0403 16:24:55.785847 21045 layer_factory.hpp:77] Creating layer inception_4a/pool
I0403 16:24:55.785867 21045 net.cpp:91] Creating Layer inception_4a/pool
I0403 16:24:55.785884 21045 net.cpp:425] inception_4a/pool <- pool3/3x3_s2_pool3/3x3_s2_0_split_3
I0403 16:24:55.785902 21045 net.cpp:399] inception_4a/pool -> inception_4a/pool
I0403 16:24:55.785961 21045 net.cpp:141] Setting up inception_4a/pool
I0403 16:24:55.785991 21045 net.cpp:148] Top shape: 24 480 14 14 (2257920)
I0403 16:24:55.786007 21045 net.cpp:156] Memory required for data: 884503584
I0403 16:24:55.786021 21045 layer_factory.hpp:77] Creating layer inception_4a/pool_proj
I0403 16:24:55.786043 21045 net.cpp:91] Creating Layer inception_4a/pool_proj
I0403 16:24:55.786061 21045 net.cpp:425] inception_4a/pool_proj <- inception_4a/pool
I0403 16:24:55.786080 21045 net.cpp:399] inception_4a/pool_proj -> inception_4a/pool_proj
I0403 16:24:55.787235 21045 net.cpp:141] Setting up inception_4a/pool_proj
I0403 16:24:55.787263 21045 net.cpp:148] Top shape: 24 64 14 14 (301056)
I0403 16:24:55.787294 21045 net.cpp:156] Memory required for data: 885707808
I0403 16:24:55.787314 21045 layer_factory.hpp:77] Creating layer inception_4a/relu_pool_proj
I0403 16:24:55.787335 21045 net.cpp:91] Creating Layer inception_4a/relu_pool_proj
I0403 16:24:55.787353 21045 net.cpp:425] inception_4a/relu_pool_proj <- inception_4a/pool_proj
I0403 16:24:55.787369 21045 net.cpp:386] inception_4a/relu_pool_proj -> inception_4a/pool_proj (in-place)
I0403 16:24:55.787647 21045 net.cpp:141] Setting up inception_4a/relu_pool_proj
I0403 16:24:55.787672 21045 net.cpp:148] Top shape: 24 64 14 14 (301056)
I0403 16:24:55.787686 21045 net.cpp:156] Memory required for data: 886912032
I0403 16:24:55.787700 21045 layer_factory.hpp:77] Creating layer inception_4a/output
I0403 16:24:55.787719 21045 net.cpp:91] Creating Layer inception_4a/output
I0403 16:24:55.787735 21045 net.cpp:425] inception_4a/output <- inception_4a/1x1
I0403 16:24:55.787752 21045 net.cpp:425] inception_4a/output <- inception_4a/3x3
I0403 16:24:55.787767 21045 net.cpp:425] inception_4a/output <- inception_4a/5x5
I0403 16:24:55.787783 21045 net.cpp:425] inception_4a/output <- inception_4a/pool_proj
I0403 16:24:55.787799 21045 net.cpp:399] inception_4a/output -> inception_4a/output
I0403 16:24:55.787842 21045 net.cpp:141] Setting up inception_4a/output
I0403 16:24:55.787866 21045 net.cpp:148] Top shape: 24 512 14 14 (2408448)
I0403 16:24:55.787881 21045 net.cpp:156] Memory required for data: 896545824
I0403 16:24:55.787895 21045 layer_factory.hpp:77] Creating layer inception_4a/output_inception_4a/output_0_split
I0403 16:24:55.787912 21045 net.cpp:91] Creating Layer inception_4a/output_inception_4a/output_0_split
I0403 16:24:55.787926 21045 net.cpp:425] inception_4a/output_inception_4a/output_0_split <- inception_4a/output
I0403 16:24:55.787945 21045 net.cpp:399] inception_4a/output_inception_4a/output_0_split -> inception_4a/output_inception_4a/output_0_split_0
I0403 16:24:55.787966 21045 net.cpp:399] inception_4a/output_inception_4a/output_0_split -> inception_4a/output_inception_4a/output_0_split_1
I0403 16:24:55.787999 21045 net.cpp:399] inception_4a/output_inception_4a/output_0_split -> inception_4a/output_inception_4a/output_0_split_2
I0403 16:24:55.788023 21045 net.cpp:399] inception_4a/output_inception_4a/output_0_split -> inception_4a/output_inception_4a/output_0_split_3
I0403 16:24:55.788043 21045 net.cpp:399] inception_4a/output_inception_4a/output_0_split -> inception_4a/output_inception_4a/output_0_split_4
I0403 16:24:55.788135 21045 net.cpp:141] Setting up inception_4a/output_inception_4a/output_0_split
I0403 16:24:55.788156 21045 net.cpp:148] Top shape: 24 512 14 14 (2408448)
I0403 16:24:55.788175 21045 net.cpp:148] Top shape: 24 512 14 14 (2408448)
I0403 16:24:55.788192 21045 net.cpp:148] Top shape: 24 512 14 14 (2408448)
I0403 16:24:55.788206 21045 net.cpp:148] Top shape: 24 512 14 14 (2408448)
I0403 16:24:55.788220 21045 net.cpp:148] Top shape: 24 512 14 14 (2408448)
I0403 16:24:55.788234 21045 net.cpp:156] Memory required for data: 944714784
I0403 16:24:55.788249 21045 layer_factory.hpp:77] Creating layer loss1/ave_pool
I0403 16:24:55.788265 21045 net.cpp:91] Creating Layer loss1/ave_pool
I0403 16:24:55.788281 21045 net.cpp:425] loss1/ave_pool <- inception_4a/output_inception_4a/output_0_split_0
I0403 16:24:55.788300 21045 net.cpp:399] loss1/ave_pool -> loss1/ave_pool
I0403 16:24:55.788506 21045 net.cpp:141] Setting up loss1/ave_pool
I0403 16:24:55.788530 21045 net.cpp:148] Top shape: 24 512 4 4 (196608)
I0403 16:24:55.788544 21045 net.cpp:156] Memory required for data: 945501216
I0403 16:24:55.788558 21045 layer_factory.hpp:77] Creating layer loss1/conv
I0403 16:24:55.788580 21045 net.cpp:91] Creating Layer loss1/conv
I0403 16:24:55.788597 21045 net.cpp:425] loss1/conv <- loss1/ave_pool
I0403 16:24:55.788630 21045 net.cpp:399] loss1/conv -> loss1/conv
I0403 16:24:55.790083 21045 net.cpp:141] Setting up loss1/conv
I0403 16:24:55.790114 21045 net.cpp:148] Top shape: 24 128 4 4 (49152)
I0403 16:24:55.790132 21045 net.cpp:156] Memory required for data: 945697824
I0403 16:24:55.790165 21045 layer_factory.hpp:77] Creating layer loss1/relu_conv
I0403 16:24:55.790184 21045 net.cpp:91] Creating Layer loss1/relu_conv
I0403 16:24:55.790200 21045 net.cpp:425] loss1/relu_conv <- loss1/conv
I0403 16:24:55.790223 21045 net.cpp:386] loss1/relu_conv -> loss1/conv (in-place)
I0403 16:24:55.790518 21045 net.cpp:141] Setting up loss1/relu_conv
I0403 16:24:55.790545 21045 net.cpp:148] Top shape: 24 128 4 4 (49152)
I0403 16:24:55.790561 21045 net.cpp:156] Memory required for data: 945894432
I0403 16:24:55.790576 21045 layer_factory.hpp:77] Creating layer loss1/fc
I0403 16:24:55.790598 21045 net.cpp:91] Creating Layer loss1/fc
I0403 16:24:55.790616 21045 net.cpp:425] loss1/fc <- loss1/conv
I0403 16:24:55.790637 21045 net.cpp:399] loss1/fc -> loss1/fc
I0403 16:24:55.808116 21045 net.cpp:141] Setting up loss1/fc
I0403 16:24:55.808147 21045 net.cpp:148] Top shape: 24 1024 (24576)
I0403 16:24:55.808162 21045 net.cpp:156] Memory required for data: 945992736
I0403 16:24:55.808179 21045 layer_factory.hpp:77] Creating layer loss1/relu_fc
I0403 16:24:55.808199 21045 net.cpp:91] Creating Layer loss1/relu_fc
I0403 16:24:55.808215 21045 net.cpp:425] loss1/relu_fc <- loss1/fc
I0403 16:24:55.808233 21045 net.cpp:386] loss1/relu_fc -> loss1/fc (in-place)
I0403 16:24:55.808408 21045 net.cpp:141] Setting up loss1/relu_fc
I0403 16:24:55.808434 21045 net.cpp:148] Top shape: 24 1024 (24576)
I0403 16:24:55.808449 21045 net.cpp:156] Memory required for data: 946091040
I0403 16:24:55.808464 21045 layer_factory.hpp:77] Creating layer loss1/drop_fc
I0403 16:24:55.808488 21045 net.cpp:91] Creating Layer loss1/drop_fc
I0403 16:24:55.808506 21045 net.cpp:425] loss1/drop_fc <- loss1/fc
I0403 16:24:55.808521 21045 net.cpp:386] loss1/drop_fc -> loss1/fc (in-place)
I0403 16:24:55.808573 21045 net.cpp:141] Setting up loss1/drop_fc
I0403 16:24:55.808594 21045 net.cpp:148] Top shape: 24 1024 (24576)
I0403 16:24:55.808607 21045 net.cpp:156] Memory required for data: 946189344
I0403 16:24:55.808622 21045 layer_factory.hpp:77] Creating layer loss1/classifier_plantvillage
I0403 16:24:55.808640 21045 net.cpp:91] Creating Layer loss1/classifier_plantvillage
I0403 16:24:55.808655 21045 net.cpp:425] loss1/classifier_plantvillage <- loss1/fc
I0403 16:24:55.808676 21045 net.cpp:399] loss1/classifier_plantvillage -> loss1/classifier_plantvillage
I0403 16:24:55.809554 21045 net.cpp:141] Setting up loss1/classifier_plantvillage
I0403 16:24:55.809581 21045 net.cpp:148] Top shape: 24 38 (912)
I0403 16:24:55.809595 21045 net.cpp:156] Memory required for data: 946192992
I0403 16:24:55.809612 21045 layer_factory.hpp:77] Creating layer loss1/classifier_plantvillage_loss1/classifier_plantvillage_0_split
I0403 16:24:55.809633 21045 net.cpp:91] Creating Layer loss1/classifier_plantvillage_loss1/classifier_plantvillage_0_split
I0403 16:24:55.809648 21045 net.cpp:425] loss1/classifier_plantvillage_loss1/classifier_plantvillage_0_split <- loss1/classifier_plantvillage
I0403 16:24:55.809664 21045 net.cpp:399] loss1/classifier_plantvillage_loss1/classifier_plantvillage_0_split -> loss1/classifier_plantvillage_loss1/classifier_plantvillage_0_split_0
I0403 16:24:55.809684 21045 net.cpp:399] loss1/classifier_plantvillage_loss1/classifier_plantvillage_0_split -> loss1/classifier_plantvillage_loss1/classifier_plantvillage_0_split_1
I0403 16:24:55.809705 21045 net.cpp:399] loss1/classifier_plantvillage_loss1/classifier_plantvillage_0_split -> loss1/classifier_plantvillage_loss1/classifier_plantvillage_0_split_2
I0403 16:24:55.809768 21045 net.cpp:141] Setting up loss1/classifier_plantvillage_loss1/classifier_plantvillage_0_split
I0403 16:24:55.809790 21045 net.cpp:148] Top shape: 24 38 (912)
I0403 16:24:55.809805 21045 net.cpp:148] Top shape: 24 38 (912)
I0403 16:24:55.809819 21045 net.cpp:148] Top shape: 24 38 (912)
I0403 16:24:55.809833 21045 net.cpp:156] Memory required for data: 946203936
I0403 16:24:55.809845 21045 layer_factory.hpp:77] Creating layer inception_4b/1x1
I0403 16:24:55.809866 21045 net.cpp:91] Creating Layer inception_4b/1x1
I0403 16:24:55.809897 21045 net.cpp:425] inception_4b/1x1 <- inception_4a/output_inception_4a/output_0_split_1
I0403 16:24:55.809917 21045 net.cpp:399] inception_4b/1x1 -> inception_4b/1x1
I0403 16:24:55.811509 21045 net.cpp:141] Setting up inception_4b/1x1
I0403 16:24:55.811538 21045 net.cpp:148] Top shape: 24 160 14 14 (752640)
I0403 16:24:55.811554 21045 net.cpp:156] Memory required for data: 949214496
I0403 16:24:55.811571 21045 layer_factory.hpp:77] Creating layer inception_4b/relu_1x1
I0403 16:24:55.811589 21045 net.cpp:91] Creating Layer inception_4b/relu_1x1
I0403 16:24:55.811604 21045 net.cpp:425] inception_4b/relu_1x1 <- inception_4b/1x1
I0403 16:24:55.811621 21045 net.cpp:386] inception_4b/relu_1x1 -> inception_4b/1x1 (in-place)
I0403 16:24:55.811794 21045 net.cpp:141] Setting up inception_4b/relu_1x1
I0403 16:24:55.811817 21045 net.cpp:148] Top shape: 24 160 14 14 (752640)
I0403 16:24:55.811831 21045 net.cpp:156] Memory required for data: 952225056
I0403 16:24:55.811846 21045 layer_factory.hpp:77] Creating layer inception_4b/3x3_reduce
I0403 16:24:55.811868 21045 net.cpp:91] Creating Layer inception_4b/3x3_reduce
I0403 16:24:55.811884 21045 net.cpp:425] inception_4b/3x3_reduce <- inception_4a/output_inception_4a/output_0_split_2
I0403 16:24:55.811904 21045 net.cpp:399] inception_4b/3x3_reduce -> inception_4b/3x3_reduce
I0403 16:24:55.813220 21045 net.cpp:141] Setting up inception_4b/3x3_reduce
I0403 16:24:55.813246 21045 net.cpp:148] Top shape: 24 112 14 14 (526848)
I0403 16:24:55.813261 21045 net.cpp:156] Memory required for data: 954332448
I0403 16:24:55.813279 21045 layer_factory.hpp:77] Creating layer inception_4b/relu_3x3_reduce
I0403 16:24:55.813297 21045 net.cpp:91] Creating Layer inception_4b/relu_3x3_reduce
I0403 16:24:55.813310 21045 net.cpp:425] inception_4b/relu_3x3_reduce <- inception_4b/3x3_reduce
I0403 16:24:55.813328 21045 net.cpp:386] inception_4b/relu_3x3_reduce -> inception_4b/3x3_reduce (in-place)
I0403 16:24:55.813606 21045 net.cpp:141] Setting up inception_4b/relu_3x3_reduce
I0403 16:24:55.813632 21045 net.cpp:148] Top shape: 24 112 14 14 (526848)
I0403 16:24:55.813645 21045 net.cpp:156] Memory required for data: 956439840
I0403 16:24:55.813660 21045 layer_factory.hpp:77] Creating layer inception_4b/3x3
I0403 16:24:55.813681 21045 net.cpp:91] Creating Layer inception_4b/3x3
I0403 16:24:55.813699 21045 net.cpp:425] inception_4b/3x3 <- inception_4b/3x3_reduce
I0403 16:24:55.813719 21045 net.cpp:399] inception_4b/3x3 -> inception_4b/3x3
I0403 16:24:55.816599 21045 net.cpp:141] Setting up inception_4b/3x3
I0403 16:24:55.816627 21045 net.cpp:148] Top shape: 24 224 14 14 (1053696)
I0403 16:24:55.816642 21045 net.cpp:156] Memory required for data: 960654624
I0403 16:24:55.816659 21045 layer_factory.hpp:77] Creating layer inception_4b/relu_3x3
I0403 16:24:55.816679 21045 net.cpp:91] Creating Layer inception_4b/relu_3x3
I0403 16:24:55.816695 21045 net.cpp:425] inception_4b/relu_3x3 <- inception_4b/3x3
I0403 16:24:55.816711 21045 net.cpp:386] inception_4b/relu_3x3 -> inception_4b/3x3 (in-place)
I0403 16:24:55.816884 21045 net.cpp:141] Setting up inception_4b/relu_3x3
I0403 16:24:55.816908 21045 net.cpp:148] Top shape: 24 224 14 14 (1053696)
I0403 16:24:55.816923 21045 net.cpp:156] Memory required for data: 964869408
I0403 16:24:55.816948 21045 layer_factory.hpp:77] Creating layer inception_4b/5x5_reduce
I0403 16:24:55.816974 21045 net.cpp:91] Creating Layer inception_4b/5x5_reduce
I0403 16:24:55.816997 21045 net.cpp:425] inception_4b/5x5_reduce <- inception_4a/output_inception_4a/output_0_split_3
I0403 16:24:55.817016 21045 net.cpp:399] inception_4b/5x5_reduce -> inception_4b/5x5_reduce
I0403 16:24:55.818097 21045 net.cpp:141] Setting up inception_4b/5x5_reduce
I0403 16:24:55.818125 21045 net.cpp:148] Top shape: 24 24 14 14 (112896)
I0403 16:24:55.818138 21045 net.cpp:156] Memory required for data: 965320992
I0403 16:24:55.818156 21045 layer_factory.hpp:77] Creating layer inception_4b/relu_5x5_reduce
I0403 16:24:55.818173 21045 net.cpp:91] Creating Layer inception_4b/relu_5x5_reduce
I0403 16:24:55.818202 21045 net.cpp:425] inception_4b/relu_5x5_reduce <- inception_4b/5x5_reduce
I0403 16:24:55.818222 21045 net.cpp:386] inception_4b/relu_5x5_reduce -> inception_4b/5x5_reduce (in-place)
I0403 16:24:55.818398 21045 net.cpp:141] Setting up inception_4b/relu_5x5_reduce
I0403 16:24:55.818423 21045 net.cpp:148] Top shape: 24 24 14 14 (112896)
I0403 16:24:55.818436 21045 net.cpp:156] Memory required for data: 965772576
I0403 16:24:55.818449 21045 layer_factory.hpp:77] Creating layer inception_4b/5x5
I0403 16:24:55.818471 21045 net.cpp:91] Creating Layer inception_4b/5x5
I0403 16:24:55.818487 21045 net.cpp:425] inception_4b/5x5 <- inception_4b/5x5_reduce
I0403 16:24:55.818507 21045 net.cpp:399] inception_4b/5x5 -> inception_4b/5x5
I0403 16:24:55.819689 21045 net.cpp:141] Setting up inception_4b/5x5
I0403 16:24:55.819718 21045 net.cpp:148] Top shape: 24 64 14 14 (301056)
I0403 16:24:55.819735 21045 net.cpp:156] Memory required for data: 966976800
I0403 16:24:55.819751 21045 layer_factory.hpp:77] Creating layer inception_4b/relu_5x5
I0403 16:24:55.819768 21045 net.cpp:91] Creating Layer inception_4b/relu_5x5
I0403 16:24:55.819784 21045 net.cpp:425] inception_4b/relu_5x5 <- inception_4b/5x5
I0403 16:24:55.819802 21045 net.cpp:386] inception_4b/relu_5x5 -> inception_4b/5x5 (in-place)
I0403 16:24:55.820097 21045 net.cpp:141] Setting up inception_4b/relu_5x5
I0403 16:24:55.820125 21045 net.cpp:148] Top shape: 24 64 14 14 (301056)
I0403 16:24:55.820140 21045 net.cpp:156] Memory required for data: 968181024
I0403 16:24:55.820155 21045 layer_factory.hpp:77] Creating layer inception_4b/pool
I0403 16:24:55.820173 21045 net.cpp:91] Creating Layer inception_4b/pool
I0403 16:24:55.820188 21045 net.cpp:425] inception_4b/pool <- inception_4a/output_inception_4a/output_0_split_4
I0403 16:24:55.820209 21045 net.cpp:399] inception_4b/pool -> inception_4b/pool
I0403 16:24:55.820271 21045 net.cpp:141] Setting up inception_4b/pool
I0403 16:24:55.820294 21045 net.cpp:148] Top shape: 24 512 14 14 (2408448)
I0403 16:24:55.820308 21045 net.cpp:156] Memory required for data: 977814816
I0403 16:24:55.820334 21045 layer_factory.hpp:77] Creating layer inception_4b/pool_proj
I0403 16:24:55.820355 21045 net.cpp:91] Creating Layer inception_4b/pool_proj
I0403 16:24:55.820372 21045 net.cpp:425] inception_4b/pool_proj <- inception_4b/pool
I0403 16:24:55.820391 21045 net.cpp:399] inception_4b/pool_proj -> inception_4b/pool_proj
I0403 16:24:55.821554 21045 net.cpp:141] Setting up inception_4b/pool_proj
I0403 16:24:55.821583 21045 net.cpp:148] Top shape: 24 64 14 14 (301056)
I0403 16:24:55.821599 21045 net.cpp:156] Memory required for data: 979019040
I0403 16:24:55.821615 21045 layer_factory.hpp:77] Creating layer inception_4b/relu_pool_proj
I0403 16:24:55.821632 21045 net.cpp:91] Creating Layer inception_4b/relu_pool_proj
I0403 16:24:55.821647 21045 net.cpp:425] inception_4b/relu_pool_proj <- inception_4b/pool_proj
I0403 16:24:55.821666 21045 net.cpp:386] inception_4b/relu_pool_proj -> inception_4b/pool_proj (in-place)
I0403 16:24:55.821837 21045 net.cpp:141] Setting up inception_4b/relu_pool_proj
I0403 16:24:55.821861 21045 net.cpp:148] Top shape: 24 64 14 14 (301056)
I0403 16:24:55.821874 21045 net.cpp:156] Memory required for data: 980223264
I0403 16:24:55.821888 21045 layer_factory.hpp:77] Creating layer inception_4b/output
I0403 16:24:55.821904 21045 net.cpp:91] Creating Layer inception_4b/output
I0403 16:24:55.821919 21045 net.cpp:425] inception_4b/output <- inception_4b/1x1
I0403 16:24:55.821935 21045 net.cpp:425] inception_4b/output <- inception_4b/3x3
I0403 16:24:55.821950 21045 net.cpp:425] inception_4b/output <- inception_4b/5x5
I0403 16:24:55.821965 21045 net.cpp:425] inception_4b/output <- inception_4b/pool_proj
I0403 16:24:55.821982 21045 net.cpp:399] inception_4b/output -> inception_4b/output
I0403 16:24:55.822036 21045 net.cpp:141] Setting up inception_4b/output
I0403 16:24:55.822058 21045 net.cpp:148] Top shape: 24 512 14 14 (2408448)
I0403 16:24:55.822072 21045 net.cpp:156] Memory required for data: 989857056
I0403 16:24:55.822099 21045 layer_factory.hpp:77] Creating layer inception_4b/output_inception_4b/output_0_split
I0403 16:24:55.822116 21045 net.cpp:91] Creating Layer inception_4b/output_inception_4b/output_0_split
I0403 16:24:55.822130 21045 net.cpp:425] inception_4b/output_inception_4b/output_0_split <- inception_4b/output
I0403 16:24:55.822149 21045 net.cpp:399] inception_4b/output_inception_4b/output_0_split -> inception_4b/output_inception_4b/output_0_split_0
I0403 16:24:55.822170 21045 net.cpp:399] inception_4b/output_inception_4b/output_0_split -> inception_4b/output_inception_4b/output_0_split_1
I0403 16:24:55.822190 21045 net.cpp:399] inception_4b/output_inception_4b/output_0_split -> inception_4b/output_inception_4b/output_0_split_2
I0403 16:24:55.822208 21045 net.cpp:399] inception_4b/output_inception_4b/output_0_split -> inception_4b/output_inception_4b/output_0_split_3
I0403 16:24:55.822289 21045 net.cpp:141] Setting up inception_4b/output_inception_4b/output_0_split
I0403 16:24:55.822312 21045 net.cpp:148] Top shape: 24 512 14 14 (2408448)
I0403 16:24:55.822327 21045 net.cpp:148] Top shape: 24 512 14 14 (2408448)
I0403 16:24:55.822341 21045 net.cpp:148] Top shape: 24 512 14 14 (2408448)
I0403 16:24:55.822355 21045 net.cpp:148] Top shape: 24 512 14 14 (2408448)
I0403 16:24:55.822368 21045 net.cpp:156] Memory required for data: 1028392224
I0403 16:24:55.822382 21045 layer_factory.hpp:77] Creating layer inception_4c/1x1
I0403 16:24:55.822404 21045 net.cpp:91] Creating Layer inception_4c/1x1
I0403 16:24:55.822420 21045 net.cpp:425] inception_4c/1x1 <- inception_4b/output_inception_4b/output_0_split_0
I0403 16:24:55.822438 21045 net.cpp:399] inception_4c/1x1 -> inception_4c/1x1
I0403 16:24:55.823890 21045 net.cpp:141] Setting up inception_4c/1x1
I0403 16:24:55.823917 21045 net.cpp:148] Top shape: 24 128 14 14 (602112)
I0403 16:24:55.823932 21045 net.cpp:156] Memory required for data: 1030800672
I0403 16:24:55.823951 21045 layer_factory.hpp:77] Creating layer inception_4c/relu_1x1
I0403 16:24:55.823971 21045 net.cpp:91] Creating Layer inception_4c/relu_1x1
I0403 16:24:55.823993 21045 net.cpp:425] inception_4c/relu_1x1 <- inception_4c/1x1
I0403 16:24:55.824012 21045 net.cpp:386] inception_4c/relu_1x1 -> inception_4c/1x1 (in-place)
I0403 16:24:55.824193 21045 net.cpp:141] Setting up inception_4c/relu_1x1
I0403 16:24:55.824219 21045 net.cpp:148] Top shape: 24 128 14 14 (602112)
I0403 16:24:55.824234 21045 net.cpp:156] Memory required for data: 1033209120
I0403 16:24:55.824249 21045 layer_factory.hpp:77] Creating layer inception_4c/3x3_reduce
I0403 16:24:55.824268 21045 net.cpp:91] Creating Layer inception_4c/3x3_reduce
I0403 16:24:55.824285 21045 net.cpp:425] inception_4c/3x3_reduce <- inception_4b/output_inception_4b/output_0_split_1
I0403 16:24:55.824306 21045 net.cpp:399] inception_4c/3x3_reduce -> inception_4c/3x3_reduce
I0403 16:24:55.826283 21045 net.cpp:141] Setting up inception_4c/3x3_reduce
I0403 16:24:55.826328 21045 net.cpp:148] Top shape: 24 128 14 14 (602112)
I0403 16:24:55.826345 21045 net.cpp:156] Memory required for data: 1035617568
I0403 16:24:55.826364 21045 layer_factory.hpp:77] Creating layer inception_4c/relu_3x3_reduce
I0403 16:24:55.826382 21045 net.cpp:91] Creating Layer inception_4c/relu_3x3_reduce
I0403 16:24:55.826397 21045 net.cpp:425] inception_4c/relu_3x3_reduce <- inception_4c/3x3_reduce
I0403 16:24:55.826416 21045 net.cpp:386] inception_4c/relu_3x3_reduce -> inception_4c/3x3_reduce (in-place)
I0403 16:24:55.826709 21045 net.cpp:141] Setting up inception_4c/relu_3x3_reduce
I0403 16:24:55.826737 21045 net.cpp:148] Top shape: 24 128 14 14 (602112)
I0403 16:24:55.826753 21045 net.cpp:156] Memory required for data: 1038026016
I0403 16:24:55.826768 21045 layer_factory.hpp:77] Creating layer inception_4c/3x3
I0403 16:24:55.826792 21045 net.cpp:91] Creating Layer inception_4c/3x3
I0403 16:24:55.826810 21045 net.cpp:425] inception_4c/3x3 <- inception_4c/3x3_reduce
I0403 16:24:55.826829 21045 net.cpp:399] inception_4c/3x3 -> inception_4c/3x3
I0403 16:24:55.830621 21045 net.cpp:141] Setting up inception_4c/3x3
I0403 16:24:55.830667 21045 net.cpp:148] Top shape: 24 256 14 14 (1204224)
I0403 16:24:55.830685 21045 net.cpp:156] Memory required for data: 1042842912
I0403 16:24:55.830718 21045 layer_factory.hpp:77] Creating layer inception_4c/relu_3x3
I0403 16:24:55.830740 21045 net.cpp:91] Creating Layer inception_4c/relu_3x3
I0403 16:24:55.830757 21045 net.cpp:425] inception_4c/relu_3x3 <- inception_4c/3x3
I0403 16:24:55.830777 21045 net.cpp:386] inception_4c/relu_3x3 -> inception_4c/3x3 (in-place)
I0403 16:24:55.830968 21045 net.cpp:141] Setting up inception_4c/relu_3x3
I0403 16:24:55.831001 21045 net.cpp:148] Top shape: 24 256 14 14 (1204224)
I0403 16:24:55.831017 21045 net.cpp:156] Memory required for data: 1047659808
I0403 16:24:55.831032 21045 layer_factory.hpp:77] Creating layer inception_4c/5x5_reduce
I0403 16:24:55.831056 21045 net.cpp:91] Creating Layer inception_4c/5x5_reduce
I0403 16:24:55.831075 21045 net.cpp:425] inception_4c/5x5_reduce <- inception_4b/output_inception_4b/output_0_split_2
I0403 16:24:55.831097 21045 net.cpp:399] inception_4c/5x5_reduce -> inception_4c/5x5_reduce
I0403 16:24:55.832229 21045 net.cpp:141] Setting up inception_4c/5x5_reduce
I0403 16:24:55.832262 21045 net.cpp:148] Top shape: 24 24 14 14 (112896)
I0403 16:24:55.832278 21045 net.cpp:156] Memory required for data: 1048111392
I0403 16:24:55.832296 21045 layer_factory.hpp:77] Creating layer inception_4c/relu_5x5_reduce
I0403 16:24:55.832314 21045 net.cpp:91] Creating Layer inception_4c/relu_5x5_reduce
I0403 16:24:55.832330 21045 net.cpp:425] inception_4c/relu_5x5_reduce <- inception_4c/5x5_reduce
I0403 16:24:55.832350 21045 net.cpp:386] inception_4c/relu_5x5_reduce -> inception_4c/5x5_reduce (in-place)
I0403 16:24:55.832541 21045 net.cpp:141] Setting up inception_4c/relu_5x5_reduce
I0403 16:24:55.832568 21045 net.cpp:148] Top shape: 24 24 14 14 (112896)
I0403 16:24:55.832584 21045 net.cpp:156] Memory required for data: 1048562976
I0403 16:24:55.832598 21045 layer_factory.hpp:77] Creating layer inception_4c/5x5
I0403 16:24:55.832620 21045 net.cpp:91] Creating Layer inception_4c/5x5
I0403 16:24:55.832638 21045 net.cpp:425] inception_4c/5x5 <- inception_4c/5x5_reduce
I0403 16:24:55.832659 21045 net.cpp:399] inception_4c/5x5 -> inception_4c/5x5
I0403 16:24:55.833937 21045 net.cpp:141] Setting up inception_4c/5x5
I0403 16:24:55.833966 21045 net.cpp:148] Top shape: 24 64 14 14 (301056)
I0403 16:24:55.833981 21045 net.cpp:156] Memory required for data: 1049767200
I0403 16:24:55.834007 21045 layer_factory.hpp:77] Creating layer inception_4c/relu_5x5
I0403 16:24:55.834028 21045 net.cpp:91] Creating Layer inception_4c/relu_5x5
I0403 16:24:55.834044 21045 net.cpp:425] inception_4c/relu_5x5 <- inception_4c/5x5
I0403 16:24:55.834061 21045 net.cpp:386] inception_4c/relu_5x5 -> inception_4c/5x5 (in-place)
I0403 16:24:55.834360 21045 net.cpp:141] Setting up inception_4c/relu_5x5
I0403 16:24:55.834386 21045 net.cpp:148] Top shape: 24 64 14 14 (301056)
I0403 16:24:55.834401 21045 net.cpp:156] Memory required for data: 1050971424
I0403 16:24:55.834415 21045 layer_factory.hpp:77] Creating layer inception_4c/pool
I0403 16:24:55.834434 21045 net.cpp:91] Creating Layer inception_4c/pool
I0403 16:24:55.834450 21045 net.cpp:425] inception_4c/pool <- inception_4b/output_inception_4b/output_0_split_3
I0403 16:24:55.834470 21045 net.cpp:399] inception_4c/pool -> inception_4c/pool
I0403 16:24:55.834537 21045 net.cpp:141] Setting up inception_4c/pool
I0403 16:24:55.834563 21045 net.cpp:148] Top shape: 24 512 14 14 (2408448)
I0403 16:24:55.834578 21045 net.cpp:156] Memory required for data: 1060605216
I0403 16:24:55.834591 21045 layer_factory.hpp:77] Creating layer inception_4c/pool_proj
I0403 16:24:55.834614 21045 net.cpp:91] Creating Layer inception_4c/pool_proj
I0403 16:24:55.834632 21045 net.cpp:425] inception_4c/pool_proj <- inception_4c/pool
I0403 16:24:55.834650 21045 net.cpp:399] inception_4c/pool_proj -> inception_4c/pool_proj
I0403 16:24:55.835929 21045 net.cpp:141] Setting up inception_4c/pool_proj
I0403 16:24:55.835959 21045 net.cpp:148] Top shape: 24 64 14 14 (301056)
I0403 16:24:55.835996 21045 net.cpp:156] Memory required for data: 1061809440
I0403 16:24:55.836019 21045 layer_factory.hpp:77] Creating layer inception_4c/relu_pool_proj
I0403 16:24:55.836036 21045 net.cpp:91] Creating Layer inception_4c/relu_pool_proj
I0403 16:24:55.836052 21045 net.cpp:425] inception_4c/relu_pool_proj <- inception_4c/pool_proj
I0403 16:24:55.836073 21045 net.cpp:386] inception_4c/relu_pool_proj -> inception_4c/pool_proj (in-place)
I0403 16:24:55.836262 21045 net.cpp:141] Setting up inception_4c/relu_pool_proj
I0403 16:24:55.836287 21045 net.cpp:148] Top shape: 24 64 14 14 (301056)
I0403 16:24:55.836302 21045 net.cpp:156] Memory required for data: 1063013664
I0403 16:24:55.836316 21045 layer_factory.hpp:77] Creating layer inception_4c/output
I0403 16:24:55.836334 21045 net.cpp:91] Creating Layer inception_4c/output
I0403 16:24:55.836349 21045 net.cpp:425] inception_4c/output <- inception_4c/1x1
I0403 16:24:55.836365 21045 net.cpp:425] inception_4c/output <- inception_4c/3x3
I0403 16:24:55.836381 21045 net.cpp:425] inception_4c/output <- inception_4c/5x5
I0403 16:24:55.836397 21045 net.cpp:425] inception_4c/output <- inception_4c/pool_proj
I0403 16:24:55.836416 21045 net.cpp:399] inception_4c/output -> inception_4c/output
I0403 16:24:55.836464 21045 net.cpp:141] Setting up inception_4c/output
I0403 16:24:55.836490 21045 net.cpp:148] Top shape: 24 512 14 14 (2408448)
I0403 16:24:55.836506 21045 net.cpp:156] Memory required for data: 1072647456
I0403 16:24:55.836521 21045 layer_factory.hpp:77] Creating layer inception_4c/output_inception_4c/output_0_split
I0403 16:24:55.836539 21045 net.cpp:91] Creating Layer inception_4c/output_inception_4c/output_0_split
I0403 16:24:55.836552 21045 net.cpp:425] inception_4c/output_inception_4c/output_0_split <- inception_4c/output
I0403 16:24:55.836570 21045 net.cpp:399] inception_4c/output_inception_4c/output_0_split -> inception_4c/output_inception_4c/output_0_split_0
I0403 16:24:55.836592 21045 net.cpp:399] inception_4c/output_inception_4c/output_0_split -> inception_4c/output_inception_4c/output_0_split_1
I0403 16:24:55.836614 21045 net.cpp:399] inception_4c/output_inception_4c/output_0_split -> inception_4c/output_inception_4c/output_0_split_2
I0403 16:24:55.836634 21045 net.cpp:399] inception_4c/output_inception_4c/output_0_split -> inception_4c/output_inception_4c/output_0_split_3
I0403 16:24:55.836724 21045 net.cpp:141] Setting up inception_4c/output_inception_4c/output_0_split
I0403 16:24:55.836746 21045 net.cpp:148] Top shape: 24 512 14 14 (2408448)
I0403 16:24:55.836762 21045 net.cpp:148] Top shape: 24 512 14 14 (2408448)
I0403 16:24:55.836778 21045 net.cpp:148] Top shape: 24 512 14 14 (2408448)
I0403 16:24:55.836794 21045 net.cpp:148] Top shape: 24 512 14 14 (2408448)
I0403 16:24:55.836808 21045 net.cpp:156] Memory required for data: 1111182624
I0403 16:24:55.836822 21045 layer_factory.hpp:77] Creating layer inception_4d/1x1
I0403 16:24:55.836846 21045 net.cpp:91] Creating Layer inception_4d/1x1
I0403 16:24:55.836864 21045 net.cpp:425] inception_4d/1x1 <- inception_4c/output_inception_4c/output_0_split_0
I0403 16:24:55.836884 21045 net.cpp:399] inception_4d/1x1 -> inception_4d/1x1
I0403 16:24:55.838367 21045 net.cpp:141] Setting up inception_4d/1x1
I0403 16:24:55.838397 21045 net.cpp:148] Top shape: 24 112 14 14 (526848)
I0403 16:24:55.838413 21045 net.cpp:156] Memory required for data: 1113290016
I0403 16:24:55.838431 21045 layer_factory.hpp:77] Creating layer inception_4d/relu_1x1
I0403 16:24:55.838451 21045 net.cpp:91] Creating Layer inception_4d/relu_1x1
I0403 16:24:55.838469 21045 net.cpp:425] inception_4d/relu_1x1 <- inception_4d/1x1
I0403 16:24:55.838485 21045 net.cpp:386] inception_4d/relu_1x1 -> inception_4d/1x1 (in-place)
I0403 16:24:55.838673 21045 net.cpp:141] Setting up inception_4d/relu_1x1
I0403 16:24:55.838701 21045 net.cpp:148] Top shape: 24 112 14 14 (526848)
I0403 16:24:55.838716 21045 net.cpp:156] Memory required for data: 1115397408
I0403 16:24:55.838732 21045 layer_factory.hpp:77] Creating layer inception_4d/3x3_reduce
I0403 16:24:55.838768 21045 net.cpp:91] Creating Layer inception_4d/3x3_reduce
I0403 16:24:55.838786 21045 net.cpp:425] inception_4d/3x3_reduce <- inception_4c/output_inception_4c/output_0_split_1
I0403 16:24:55.838805 21045 net.cpp:399] inception_4d/3x3_reduce -> inception_4d/3x3_reduce
I0403 16:24:55.840375 21045 net.cpp:141] Setting up inception_4d/3x3_reduce
I0403 16:24:55.840404 21045 net.cpp:148] Top shape: 24 144 14 14 (677376)
I0403 16:24:55.840420 21045 net.cpp:156] Memory required for data: 1118106912
I0403 16:24:55.840438 21045 layer_factory.hpp:77] Creating layer inception_4d/relu_3x3_reduce
I0403 16:24:55.840458 21045 net.cpp:91] Creating Layer inception_4d/relu_3x3_reduce
I0403 16:24:55.840476 21045 net.cpp:425] inception_4d/relu_3x3_reduce <- inception_4d/3x3_reduce
I0403 16:24:55.840492 21045 net.cpp:386] inception_4d/relu_3x3_reduce -> inception_4d/3x3_reduce (in-place)
I0403 16:24:55.840791 21045 net.cpp:141] Setting up inception_4d/relu_3x3_reduce
I0403 16:24:55.840818 21045 net.cpp:148] Top shape: 24 144 14 14 (677376)
I0403 16:24:55.840832 21045 net.cpp:156] Memory required for data: 1120816416
I0403 16:24:55.840847 21045 layer_factory.hpp:77] Creating layer inception_4d/3x3
I0403 16:24:55.840870 21045 net.cpp:91] Creating Layer inception_4d/3x3
I0403 16:24:55.840888 21045 net.cpp:425] inception_4d/3x3 <- inception_4d/3x3_reduce
I0403 16:24:55.840909 21045 net.cpp:399] inception_4d/3x3 -> inception_4d/3x3
I0403 16:24:55.845245 21045 net.cpp:141] Setting up inception_4d/3x3
I0403 16:24:55.845276 21045 net.cpp:148] Top shape: 24 288 14 14 (1354752)
I0403 16:24:55.845293 21045 net.cpp:156] Memory required for data: 1126235424
I0403 16:24:55.845311 21045 layer_factory.hpp:77] Creating layer inception_4d/relu_3x3
I0403 16:24:55.845329 21045 net.cpp:91] Creating Layer inception_4d/relu_3x3
I0403 16:24:55.845346 21045 net.cpp:425] inception_4d/relu_3x3 <- inception_4d/3x3
I0403 16:24:55.845363 21045 net.cpp:386] inception_4d/relu_3x3 -> inception_4d/3x3 (in-place)
I0403 16:24:55.845547 21045 net.cpp:141] Setting up inception_4d/relu_3x3
I0403 16:24:55.845573 21045 net.cpp:148] Top shape: 24 288 14 14 (1354752)
I0403 16:24:55.845589 21045 net.cpp:156] Memory required for data: 1131654432
I0403 16:24:55.845603 21045 layer_factory.hpp:77] Creating layer inception_4d/5x5_reduce
I0403 16:24:55.845625 21045 net.cpp:91] Creating Layer inception_4d/5x5_reduce
I0403 16:24:55.845643 21045 net.cpp:425] inception_4d/5x5_reduce <- inception_4c/output_inception_4c/output_0_split_2
I0403 16:24:55.845660 21045 net.cpp:399] inception_4d/5x5_reduce -> inception_4d/5x5_reduce
I0403 16:24:55.846812 21045 net.cpp:141] Setting up inception_4d/5x5_reduce
I0403 16:24:55.846839 21045 net.cpp:148] Top shape: 24 32 14 14 (150528)
I0403 16:24:55.846854 21045 net.cpp:156] Memory required for data: 1132256544
I0403 16:24:55.846873 21045 layer_factory.hpp:77] Creating layer inception_4d/relu_5x5_reduce
I0403 16:24:55.846892 21045 net.cpp:91] Creating Layer inception_4d/relu_5x5_reduce
I0403 16:24:55.846909 21045 net.cpp:425] inception_4d/relu_5x5_reduce <- inception_4d/5x5_reduce
I0403 16:24:55.846925 21045 net.cpp:386] inception_4d/relu_5x5_reduce -> inception_4d/5x5_reduce (in-place)
I0403 16:24:55.847118 21045 net.cpp:141] Setting up inception_4d/relu_5x5_reduce
I0403 16:24:55.847143 21045 net.cpp:148] Top shape: 24 32 14 14 (150528)
I0403 16:24:55.847157 21045 net.cpp:156] Memory required for data: 1132858656
I0403 16:24:55.847172 21045 layer_factory.hpp:77] Creating layer inception_4d/5x5
I0403 16:24:55.847193 21045 net.cpp:91] Creating Layer inception_4d/5x5
I0403 16:24:55.847209 21045 net.cpp:425] inception_4d/5x5 <- inception_4d/5x5_reduce
I0403 16:24:55.847230 21045 net.cpp:399] inception_4d/5x5 -> inception_4d/5x5
I0403 16:24:55.848729 21045 net.cpp:141] Setting up inception_4d/5x5
I0403 16:24:55.848757 21045 net.cpp:148] Top shape: 24 64 14 14 (301056)
I0403 16:24:55.848773 21045 net.cpp:156] Memory required for data: 1134062880
I0403 16:24:55.848791 21045 layer_factory.hpp:77] Creating layer inception_4d/relu_5x5
I0403 16:24:55.848824 21045 net.cpp:91] Creating Layer inception_4d/relu_5x5
I0403 16:24:55.848841 21045 net.cpp:425] inception_4d/relu_5x5 <- inception_4d/5x5
I0403 16:24:55.848861 21045 net.cpp:386] inception_4d/relu_5x5 -> inception_4d/5x5 (in-place)
I0403 16:24:55.849169 21045 net.cpp:141] Setting up inception_4d/relu_5x5
I0403 16:24:55.849195 21045 net.cpp:148] Top shape: 24 64 14 14 (301056)
I0403 16:24:55.849210 21045 net.cpp:156] Memory required for data: 1135267104
I0403 16:24:55.849223 21045 layer_factory.hpp:77] Creating layer inception_4d/pool
I0403 16:24:55.849241 21045 net.cpp:91] Creating Layer inception_4d/pool
I0403 16:24:55.849256 21045 net.cpp:425] inception_4d/pool <- inception_4c/output_inception_4c/output_0_split_3
I0403 16:24:55.849277 21045 net.cpp:399] inception_4d/pool -> inception_4d/pool
I0403 16:24:55.849344 21045 net.cpp:141] Setting up inception_4d/pool
I0403 16:24:55.849367 21045 net.cpp:148] Top shape: 24 512 14 14 (2408448)
I0403 16:24:55.849381 21045 net.cpp:156] Memory required for data: 1144900896
I0403 16:24:55.849395 21045 layer_factory.hpp:77] Creating layer inception_4d/pool_proj
I0403 16:24:55.849419 21045 net.cpp:91] Creating Layer inception_4d/pool_proj
I0403 16:24:55.849436 21045 net.cpp:425] inception_4d/pool_proj <- inception_4d/pool
I0403 16:24:55.849454 21045 net.cpp:399] inception_4d/pool_proj -> inception_4d/pool_proj
I0403 16:24:55.851220 21045 net.cpp:141] Setting up inception_4d/pool_proj
I0403 16:24:55.851251 21045 net.cpp:148] Top shape: 24 64 14 14 (301056)
I0403 16:24:55.851268 21045 net.cpp:156] Memory required for data: 1146105120
I0403 16:24:55.851286 21045 layer_factory.hpp:77] Creating layer inception_4d/relu_pool_proj
I0403 16:24:55.851303 21045 net.cpp:91] Creating Layer inception_4d/relu_pool_proj
I0403 16:24:55.851320 21045 net.cpp:425] inception_4d/relu_pool_proj <- inception_4d/pool_proj
I0403 16:24:55.851336 21045 net.cpp:386] inception_4d/relu_pool_proj -> inception_4d/pool_proj (in-place)
I0403 16:24:55.851522 21045 net.cpp:141] Setting up inception_4d/relu_pool_proj
I0403 16:24:55.851549 21045 net.cpp:148] Top shape: 24 64 14 14 (301056)
I0403 16:24:55.851564 21045 net.cpp:156] Memory required for data: 1147309344
I0403 16:24:55.851578 21045 layer_factory.hpp:77] Creating layer inception_4d/output
I0403 16:24:55.851595 21045 net.cpp:91] Creating Layer inception_4d/output
I0403 16:24:55.851610 21045 net.cpp:425] inception_4d/output <- inception_4d/1x1
I0403 16:24:55.851626 21045 net.cpp:425] inception_4d/output <- inception_4d/3x3
I0403 16:24:55.851641 21045 net.cpp:425] inception_4d/output <- inception_4d/5x5
I0403 16:24:55.851656 21045 net.cpp:425] inception_4d/output <- inception_4d/pool_proj
I0403 16:24:55.851675 21045 net.cpp:399] inception_4d/output -> inception_4d/output
I0403 16:24:55.851722 21045 net.cpp:141] Setting up inception_4d/output
I0403 16:24:55.851743 21045 net.cpp:148] Top shape: 24 528 14 14 (2483712)
I0403 16:24:55.851758 21045 net.cpp:156] Memory required for data: 1157244192
I0403 16:24:55.851773 21045 layer_factory.hpp:77] Creating layer inception_4d/output_inception_4d/output_0_split
I0403 16:24:55.851791 21045 net.cpp:91] Creating Layer inception_4d/output_inception_4d/output_0_split
I0403 16:24:55.851807 21045 net.cpp:425] inception_4d/output_inception_4d/output_0_split <- inception_4d/output
I0403 16:24:55.851824 21045 net.cpp:399] inception_4d/output_inception_4d/output_0_split -> inception_4d/output_inception_4d/output_0_split_0
I0403 16:24:55.851848 21045 net.cpp:399] inception_4d/output_inception_4d/output_0_split -> inception_4d/output_inception_4d/output_0_split_1
I0403 16:24:55.851868 21045 net.cpp:399] inception_4d/output_inception_4d/output_0_split -> inception_4d/output_inception_4d/output_0_split_2
I0403 16:24:55.851887 21045 net.cpp:399] inception_4d/output_inception_4d/output_0_split -> inception_4d/output_inception_4d/output_0_split_3
I0403 16:24:55.851907 21045 net.cpp:399] inception_4d/output_inception_4d/output_0_split -> inception_4d/output_inception_4d/output_0_split_4
I0403 16:24:55.852016 21045 net.cpp:141] Setting up inception_4d/output_inception_4d/output_0_split
I0403 16:24:55.852051 21045 net.cpp:148] Top shape: 24 528 14 14 (2483712)
I0403 16:24:55.852068 21045 net.cpp:148] Top shape: 24 528 14 14 (2483712)
I0403 16:24:55.852083 21045 net.cpp:148] Top shape: 24 528 14 14 (2483712)
I0403 16:24:55.852098 21045 net.cpp:148] Top shape: 24 528 14 14 (2483712)
I0403 16:24:55.852114 21045 net.cpp:148] Top shape: 24 528 14 14 (2483712)
I0403 16:24:55.852128 21045 net.cpp:156] Memory required for data: 1206918432
I0403 16:24:55.852141 21045 layer_factory.hpp:77] Creating layer loss2/ave_pool
I0403 16:24:55.852161 21045 net.cpp:91] Creating Layer loss2/ave_pool
I0403 16:24:55.852177 21045 net.cpp:425] loss2/ave_pool <- inception_4d/output_inception_4d/output_0_split_0
I0403 16:24:55.852196 21045 net.cpp:399] loss2/ave_pool -> loss2/ave_pool
I0403 16:24:55.852509 21045 net.cpp:141] Setting up loss2/ave_pool
I0403 16:24:55.852537 21045 net.cpp:148] Top shape: 24 528 4 4 (202752)
I0403 16:24:55.852553 21045 net.cpp:156] Memory required for data: 1207729440
I0403 16:24:55.852567 21045 layer_factory.hpp:77] Creating layer loss2/conv
I0403 16:24:55.852587 21045 net.cpp:91] Creating Layer loss2/conv
I0403 16:24:55.852604 21045 net.cpp:425] loss2/conv <- loss2/ave_pool
I0403 16:24:55.852624 21045 net.cpp:399] loss2/conv -> loss2/conv
I0403 16:24:55.854533 21045 net.cpp:141] Setting up loss2/conv
I0403 16:24:55.854562 21045 net.cpp:148] Top shape: 24 128 4 4 (49152)
I0403 16:24:55.854578 21045 net.cpp:156] Memory required for data: 1207926048
I0403 16:24:55.854595 21045 layer_factory.hpp:77] Creating layer loss2/relu_conv
I0403 16:24:55.854612 21045 net.cpp:91] Creating Layer loss2/relu_conv
I0403 16:24:55.854629 21045 net.cpp:425] loss2/relu_conv <- loss2/conv
I0403 16:24:55.854647 21045 net.cpp:386] loss2/relu_conv -> loss2/conv (in-place)
I0403 16:24:55.854934 21045 net.cpp:141] Setting up loss2/relu_conv
I0403 16:24:55.854960 21045 net.cpp:148] Top shape: 24 128 4 4 (49152)
I0403 16:24:55.854975 21045 net.cpp:156] Memory required for data: 1208122656
I0403 16:24:55.854996 21045 layer_factory.hpp:77] Creating layer loss2/fc
I0403 16:24:55.855016 21045 net.cpp:91] Creating Layer loss2/fc
I0403 16:24:55.855032 21045 net.cpp:425] loss2/fc <- loss2/conv
I0403 16:24:55.855054 21045 net.cpp:399] loss2/fc -> loss2/fc
I0403 16:24:55.872638 21045 net.cpp:141] Setting up loss2/fc
I0403 16:24:55.872683 21045 net.cpp:148] Top shape: 24 1024 (24576)
I0403 16:24:55.872697 21045 net.cpp:156] Memory required for data: 1208220960
I0403 16:24:55.872715 21045 layer_factory.hpp:77] Creating layer loss2/relu_fc
I0403 16:24:55.872747 21045 net.cpp:91] Creating Layer loss2/relu_fc
I0403 16:24:55.872764 21045 net.cpp:425] loss2/relu_fc <- loss2/fc
I0403 16:24:55.872782 21045 net.cpp:386] loss2/relu_fc -> loss2/fc (in-place)
I0403 16:24:55.873119 21045 net.cpp:141] Setting up loss2/relu_fc
I0403 16:24:55.873147 21045 net.cpp:148] Top shape: 24 1024 (24576)
I0403 16:24:55.873162 21045 net.cpp:156] Memory required for data: 1208319264
I0403 16:24:55.873175 21045 layer_factory.hpp:77] Creating layer loss2/drop_fc
I0403 16:24:55.873193 21045 net.cpp:91] Creating Layer loss2/drop_fc
I0403 16:24:55.873208 21045 net.cpp:425] loss2/drop_fc <- loss2/fc
I0403 16:24:55.873224 21045 net.cpp:386] loss2/drop_fc -> loss2/fc (in-place)
I0403 16:24:55.873275 21045 net.cpp:141] Setting up loss2/drop_fc
I0403 16:24:55.873296 21045 net.cpp:148] Top shape: 24 1024 (24576)
I0403 16:24:55.873311 21045 net.cpp:156] Memory required for data: 1208417568
I0403 16:24:55.873323 21045 layer_factory.hpp:77] Creating layer loss2/classifier_plantvillage
I0403 16:24:55.873344 21045 net.cpp:91] Creating Layer loss2/classifier_plantvillage
I0403 16:24:55.873361 21045 net.cpp:425] loss2/classifier_plantvillage <- loss2/fc
I0403 16:24:55.873379 21045 net.cpp:399] loss2/classifier_plantvillage -> loss2/classifier_plantvillage
I0403 16:24:55.873777 21045 net.cpp:141] Setting up loss2/classifier_plantvillage
I0403 16:24:55.873803 21045 net.cpp:148] Top shape: 24 38 (912)
I0403 16:24:55.873817 21045 net.cpp:156] Memory required for data: 1208421216
I0403 16:24:55.873857 21045 layer_factory.hpp:77] Creating layer loss2/classifier_plantvillage_loss2/classifier_plantvillage_0_split
I0403 16:24:55.873875 21045 net.cpp:91] Creating Layer loss2/classifier_plantvillage_loss2/classifier_plantvillage_0_split
I0403 16:24:55.873890 21045 net.cpp:425] loss2/classifier_plantvillage_loss2/classifier_plantvillage_0_split <- loss2/classifier_plantvillage
I0403 16:24:55.873910 21045 net.cpp:399] loss2/classifier_plantvillage_loss2/classifier_plantvillage_0_split -> loss2/classifier_plantvillage_loss2/classifier_plantvillage_0_split_0
I0403 16:24:55.873930 21045 net.cpp:399] loss2/classifier_plantvillage_loss2/classifier_plantvillage_0_split -> loss2/classifier_plantvillage_loss2/classifier_plantvillage_0_split_1
I0403 16:24:55.873950 21045 net.cpp:399] loss2/classifier_plantvillage_loss2/classifier_plantvillage_0_split -> loss2/classifier_plantvillage_loss2/classifier_plantvillage_0_split_2
I0403 16:24:55.874058 21045 net.cpp:141] Setting up loss2/classifier_plantvillage_loss2/classifier_plantvillage_0_split
I0403 16:24:55.874084 21045 net.cpp:148] Top shape: 24 38 (912)
I0403 16:24:55.874101 21045 net.cpp:148] Top shape: 24 38 (912)
I0403 16:24:55.874116 21045 net.cpp:148] Top shape: 24 38 (912)
I0403 16:24:55.874130 21045 net.cpp:156] Memory required for data: 1208432160
I0403 16:24:55.874143 21045 layer_factory.hpp:77] Creating layer inception_4e/1x1
I0403 16:24:55.874164 21045 net.cpp:91] Creating Layer inception_4e/1x1
I0403 16:24:55.874181 21045 net.cpp:425] inception_4e/1x1 <- inception_4d/output_inception_4d/output_0_split_1
I0403 16:24:55.874199 21045 net.cpp:399] inception_4e/1x1 -> inception_4e/1x1
I0403 16:24:55.876065 21045 net.cpp:141] Setting up inception_4e/1x1
I0403 16:24:55.876092 21045 net.cpp:148] Top shape: 24 256 14 14 (1204224)
I0403 16:24:55.876107 21045 net.cpp:156] Memory required for data: 1213249056
I0403 16:24:55.876126 21045 layer_factory.hpp:77] Creating layer inception_4e/relu_1x1
I0403 16:24:55.876143 21045 net.cpp:91] Creating Layer inception_4e/relu_1x1
I0403 16:24:55.876158 21045 net.cpp:425] inception_4e/relu_1x1 <- inception_4e/1x1
I0403 16:24:55.876178 21045 net.cpp:386] inception_4e/relu_1x1 -> inception_4e/1x1 (in-place)
I0403 16:24:55.876474 21045 net.cpp:141] Setting up inception_4e/relu_1x1
I0403 16:24:55.876500 21045 net.cpp:148] Top shape: 24 256 14 14 (1204224)
I0403 16:24:55.876514 21045 net.cpp:156] Memory required for data: 1218065952
I0403 16:24:55.876529 21045 layer_factory.hpp:77] Creating layer inception_4e/3x3_reduce
I0403 16:24:55.876550 21045 net.cpp:91] Creating Layer inception_4e/3x3_reduce
I0403 16:24:55.876567 21045 net.cpp:425] inception_4e/3x3_reduce <- inception_4d/output_inception_4d/output_0_split_2
I0403 16:24:55.876588 21045 net.cpp:399] inception_4e/3x3_reduce -> inception_4e/3x3_reduce
I0403 16:24:55.878758 21045 net.cpp:141] Setting up inception_4e/3x3_reduce
I0403 16:24:55.878789 21045 net.cpp:148] Top shape: 24 160 14 14 (752640)
I0403 16:24:55.878806 21045 net.cpp:156] Memory required for data: 1221076512
I0403 16:24:55.878825 21045 layer_factory.hpp:77] Creating layer inception_4e/relu_3x3_reduce
I0403 16:24:55.878844 21045 net.cpp:91] Creating Layer inception_4e/relu_3x3_reduce
I0403 16:24:55.878859 21045 net.cpp:425] inception_4e/relu_3x3_reduce <- inception_4e/3x3_reduce
I0403 16:24:55.878880 21045 net.cpp:386] inception_4e/relu_3x3_reduce -> inception_4e/3x3_reduce (in-place)
I0403 16:24:55.879081 21045 net.cpp:141] Setting up inception_4e/relu_3x3_reduce
I0403 16:24:55.879106 21045 net.cpp:148] Top shape: 24 160 14 14 (752640)
I0403 16:24:55.879120 21045 net.cpp:156] Memory required for data: 1224087072
I0403 16:24:55.879135 21045 layer_factory.hpp:77] Creating layer inception_4e/3x3
I0403 16:24:55.879158 21045 net.cpp:91] Creating Layer inception_4e/3x3
I0403 16:24:55.879175 21045 net.cpp:425] inception_4e/3x3 <- inception_4e/3x3_reduce
I0403 16:24:55.879196 21045 net.cpp:399] inception_4e/3x3 -> inception_4e/3x3
I0403 16:24:55.884230 21045 net.cpp:141] Setting up inception_4e/3x3
I0403 16:24:55.884270 21045 net.cpp:148] Top shape: 24 320 14 14 (1505280)
I0403 16:24:55.884287 21045 net.cpp:156] Memory required for data: 1230108192
I0403 16:24:55.884305 21045 layer_factory.hpp:77] Creating layer inception_4e/relu_3x3
I0403 16:24:55.884325 21045 net.cpp:91] Creating Layer inception_4e/relu_3x3
I0403 16:24:55.884341 21045 net.cpp:425] inception_4e/relu_3x3 <- inception_4e/3x3
I0403 16:24:55.884359 21045 net.cpp:386] inception_4e/relu_3x3 -> inception_4e/3x3 (in-place)
I0403 16:24:55.884661 21045 net.cpp:141] Setting up inception_4e/relu_3x3
I0403 16:24:55.884686 21045 net.cpp:148] Top shape: 24 320 14 14 (1505280)
I0403 16:24:55.884701 21045 net.cpp:156] Memory required for data: 1236129312
I0403 16:24:55.884716 21045 layer_factory.hpp:77] Creating layer inception_4e/5x5_reduce
I0403 16:24:55.884739 21045 net.cpp:91] Creating Layer inception_4e/5x5_reduce
I0403 16:24:55.884757 21045 net.cpp:425] inception_4e/5x5_reduce <- inception_4d/output_inception_4d/output_0_split_3
I0403 16:24:55.884776 21045 net.cpp:399] inception_4e/5x5_reduce -> inception_4e/5x5_reduce
I0403 16:24:55.885860 21045 net.cpp:141] Setting up inception_4e/5x5_reduce
I0403 16:24:55.885887 21045 net.cpp:148] Top shape: 24 32 14 14 (150528)
I0403 16:24:55.885902 21045 net.cpp:156] Memory required for data: 1236731424
I0403 16:24:55.885921 21045 layer_factory.hpp:77] Creating layer inception_4e/relu_5x5_reduce
I0403 16:24:55.885937 21045 net.cpp:91] Creating Layer inception_4e/relu_5x5_reduce
I0403 16:24:55.885953 21045 net.cpp:425] inception_4e/relu_5x5_reduce <- inception_4e/5x5_reduce
I0403 16:24:55.885973 21045 net.cpp:386] inception_4e/relu_5x5_reduce -> inception_4e/5x5_reduce (in-place)
I0403 16:24:55.886278 21045 net.cpp:141] Setting up inception_4e/relu_5x5_reduce
I0403 16:24:55.886304 21045 net.cpp:148] Top shape: 24 32 14 14 (150528)
I0403 16:24:55.886319 21045 net.cpp:156] Memory required for data: 1237333536
I0403 16:24:55.886333 21045 layer_factory.hpp:77] Creating layer inception_4e/5x5
I0403 16:24:55.886371 21045 net.cpp:91] Creating Layer inception_4e/5x5
I0403 16:24:55.886389 21045 net.cpp:425] inception_4e/5x5 <- inception_4e/5x5_reduce
I0403 16:24:55.886409 21045 net.cpp:399] inception_4e/5x5 -> inception_4e/5x5
I0403 16:24:55.888293 21045 net.cpp:141] Setting up inception_4e/5x5
I0403 16:24:55.888324 21045 net.cpp:148] Top shape: 24 128 14 14 (602112)
I0403 16:24:55.888339 21045 net.cpp:156] Memory required for data: 1239741984
I0403 16:24:55.888358 21045 layer_factory.hpp:77] Creating layer inception_4e/relu_5x5
I0403 16:24:55.888376 21045 net.cpp:91] Creating Layer inception_4e/relu_5x5
I0403 16:24:55.888392 21045 net.cpp:425] inception_4e/relu_5x5 <- inception_4e/5x5
I0403 16:24:55.888408 21045 net.cpp:386] inception_4e/relu_5x5 -> inception_4e/5x5 (in-place)
I0403 16:24:55.888609 21045 net.cpp:141] Setting up inception_4e/relu_5x5
I0403 16:24:55.888633 21045 net.cpp:148] Top shape: 24 128 14 14 (602112)
I0403 16:24:55.888648 21045 net.cpp:156] Memory required for data: 1242150432
I0403 16:24:55.888661 21045 layer_factory.hpp:77] Creating layer inception_4e/pool
I0403 16:24:55.888679 21045 net.cpp:91] Creating Layer inception_4e/pool
I0403 16:24:55.888695 21045 net.cpp:425] inception_4e/pool <- inception_4d/output_inception_4d/output_0_split_4
I0403 16:24:55.888715 21045 net.cpp:399] inception_4e/pool -> inception_4e/pool
I0403 16:24:55.888783 21045 net.cpp:141] Setting up inception_4e/pool
I0403 16:24:55.888809 21045 net.cpp:148] Top shape: 24 528 14 14 (2483712)
I0403 16:24:55.888824 21045 net.cpp:156] Memory required for data: 1252085280
I0403 16:24:55.888839 21045 layer_factory.hpp:77] Creating layer inception_4e/pool_proj
I0403 16:24:55.888860 21045 net.cpp:91] Creating Layer inception_4e/pool_proj
I0403 16:24:55.888876 21045 net.cpp:425] inception_4e/pool_proj <- inception_4e/pool
I0403 16:24:55.888895 21045 net.cpp:399] inception_4e/pool_proj -> inception_4e/pool_proj
I0403 16:24:55.890419 21045 net.cpp:141] Setting up inception_4e/pool_proj
I0403 16:24:55.890449 21045 net.cpp:148] Top shape: 24 128 14 14 (602112)
I0403 16:24:55.890477 21045 net.cpp:156] Memory required for data: 1254493728
I0403 16:24:55.890497 21045 layer_factory.hpp:77] Creating layer inception_4e/relu_pool_proj
I0403 16:24:55.890514 21045 net.cpp:91] Creating Layer inception_4e/relu_pool_proj
I0403 16:24:55.890529 21045 net.cpp:425] inception_4e/relu_pool_proj <- inception_4e/pool_proj
I0403 16:24:55.890547 21045 net.cpp:386] inception_4e/relu_pool_proj -> inception_4e/pool_proj (in-place)
I0403 16:24:55.890843 21045 net.cpp:141] Setting up inception_4e/relu_pool_proj
I0403 16:24:55.890872 21045 net.cpp:148] Top shape: 24 128 14 14 (602112)
I0403 16:24:55.890887 21045 net.cpp:156] Memory required for data: 1256902176
I0403 16:24:55.890902 21045 layer_factory.hpp:77] Creating layer inception_4e/output
I0403 16:24:55.890918 21045 net.cpp:91] Creating Layer inception_4e/output
I0403 16:24:55.890933 21045 net.cpp:425] inception_4e/output <- inception_4e/1x1
I0403 16:24:55.890950 21045 net.cpp:425] inception_4e/output <- inception_4e/3x3
I0403 16:24:55.890966 21045 net.cpp:425] inception_4e/output <- inception_4e/5x5
I0403 16:24:55.890981 21045 net.cpp:425] inception_4e/output <- inception_4e/pool_proj
I0403 16:24:55.891005 21045 net.cpp:399] inception_4e/output -> inception_4e/output
I0403 16:24:55.891057 21045 net.cpp:141] Setting up inception_4e/output
I0403 16:24:55.891080 21045 net.cpp:148] Top shape: 24 832 14 14 (3913728)
I0403 16:24:55.891094 21045 net.cpp:156] Memory required for data: 1272557088
I0403 16:24:55.891108 21045 layer_factory.hpp:77] Creating layer pool4/3x3_s2
I0403 16:24:55.891127 21045 net.cpp:91] Creating Layer pool4/3x3_s2
I0403 16:24:55.891144 21045 net.cpp:425] pool4/3x3_s2 <- inception_4e/output
I0403 16:24:55.891161 21045 net.cpp:399] pool4/3x3_s2 -> pool4/3x3_s2
I0403 16:24:55.891228 21045 net.cpp:141] Setting up pool4/3x3_s2
I0403 16:24:55.891252 21045 net.cpp:148] Top shape: 24 832 7 7 (978432)
I0403 16:24:55.891265 21045 net.cpp:156] Memory required for data: 1276470816
I0403 16:24:55.891279 21045 layer_factory.hpp:77] Creating layer pool4/3x3_s2_pool4/3x3_s2_0_split
I0403 16:24:55.891295 21045 net.cpp:91] Creating Layer pool4/3x3_s2_pool4/3x3_s2_0_split
I0403 16:24:55.891310 21045 net.cpp:425] pool4/3x3_s2_pool4/3x3_s2_0_split <- pool4/3x3_s2
I0403 16:24:55.891330 21045 net.cpp:399] pool4/3x3_s2_pool4/3x3_s2_0_split -> pool4/3x3_s2_pool4/3x3_s2_0_split_0
I0403 16:24:55.891350 21045 net.cpp:399] pool4/3x3_s2_pool4/3x3_s2_0_split -> pool4/3x3_s2_pool4/3x3_s2_0_split_1
I0403 16:24:55.891368 21045 net.cpp:399] pool4/3x3_s2_pool4/3x3_s2_0_split -> pool4/3x3_s2_pool4/3x3_s2_0_split_2
I0403 16:24:55.891387 21045 net.cpp:399] pool4/3x3_s2_pool4/3x3_s2_0_split -> pool4/3x3_s2_pool4/3x3_s2_0_split_3
I0403 16:24:55.891477 21045 net.cpp:141] Setting up pool4/3x3_s2_pool4/3x3_s2_0_split
I0403 16:24:55.891501 21045 net.cpp:148] Top shape: 24 832 7 7 (978432)
I0403 16:24:55.891518 21045 net.cpp:148] Top shape: 24 832 7 7 (978432)
I0403 16:24:55.891533 21045 net.cpp:148] Top shape: 24 832 7 7 (978432)
I0403 16:24:55.891548 21045 net.cpp:148] Top shape: 24 832 7 7 (978432)
I0403 16:24:55.891562 21045 net.cpp:156] Memory required for data: 1292125728
I0403 16:24:55.891577 21045 layer_factory.hpp:77] Creating layer inception_5a/1x1
I0403 16:24:55.891597 21045 net.cpp:91] Creating Layer inception_5a/1x1
I0403 16:24:55.891614 21045 net.cpp:425] inception_5a/1x1 <- pool4/3x3_s2_pool4/3x3_s2_0_split_0
I0403 16:24:55.891633 21045 net.cpp:399] inception_5a/1x1 -> inception_5a/1x1
I0403 16:24:55.894485 21045 net.cpp:141] Setting up inception_5a/1x1
I0403 16:24:55.894515 21045 net.cpp:148] Top shape: 24 256 7 7 (301056)
I0403 16:24:55.894531 21045 net.cpp:156] Memory required for data: 1293329952
I0403 16:24:55.894548 21045 layer_factory.hpp:77] Creating layer inception_5a/relu_1x1
I0403 16:24:55.894564 21045 net.cpp:91] Creating Layer inception_5a/relu_1x1
I0403 16:24:55.894579 21045 net.cpp:425] inception_5a/relu_1x1 <- inception_5a/1x1
I0403 16:24:55.894598 21045 net.cpp:386] inception_5a/relu_1x1 -> inception_5a/1x1 (in-place)
I0403 16:24:55.894901 21045 net.cpp:141] Setting up inception_5a/relu_1x1
I0403 16:24:55.894927 21045 net.cpp:148] Top shape: 24 256 7 7 (301056)
I0403 16:24:55.894942 21045 net.cpp:156] Memory required for data: 1294534176
I0403 16:24:55.894956 21045 layer_factory.hpp:77] Creating layer inception_5a/3x3_reduce
I0403 16:24:55.894978 21045 net.cpp:91] Creating Layer inception_5a/3x3_reduce
I0403 16:24:55.895000 21045 net.cpp:425] inception_5a/3x3_reduce <- pool4/3x3_s2_pool4/3x3_s2_0_split_1
I0403 16:24:55.895020 21045 net.cpp:399] inception_5a/3x3_reduce -> inception_5a/3x3_reduce
I0403 16:24:55.897441 21045 net.cpp:141] Setting up inception_5a/3x3_reduce
I0403 16:24:55.897469 21045 net.cpp:148] Top shape: 24 160 7 7 (188160)
I0403 16:24:55.897485 21045 net.cpp:156] Memory required for data: 1295286816
I0403 16:24:55.897501 21045 layer_factory.hpp:77] Creating layer inception_5a/relu_3x3_reduce
I0403 16:24:55.897522 21045 net.cpp:91] Creating Layer inception_5a/relu_3x3_reduce
I0403 16:24:55.897539 21045 net.cpp:425] inception_5a/relu_3x3_reduce <- inception_5a/3x3_reduce
I0403 16:24:55.897555 21045 net.cpp:386] inception_5a/relu_3x3_reduce -> inception_5a/3x3_reduce (in-place)
I0403 16:24:55.897737 21045 net.cpp:141] Setting up inception_5a/relu_3x3_reduce
I0403 16:24:55.897763 21045 net.cpp:148] Top shape: 24 160 7 7 (188160)
I0403 16:24:55.897778 21045 net.cpp:156] Memory required for data: 1296039456
I0403 16:24:55.897791 21045 layer_factory.hpp:77] Creating layer inception_5a/3x3
I0403 16:24:55.897814 21045 net.cpp:91] Creating Layer inception_5a/3x3
I0403 16:24:55.897830 21045 net.cpp:425] inception_5a/3x3 <- inception_5a/3x3_reduce
I0403 16:24:55.897847 21045 net.cpp:399] inception_5a/3x3 -> inception_5a/3x3
I0403 16:24:55.902786 21045 net.cpp:141] Setting up inception_5a/3x3
I0403 16:24:55.902817 21045 net.cpp:148] Top shape: 24 320 7 7 (376320)
I0403 16:24:55.902832 21045 net.cpp:156] Memory required for data: 1297544736
I0403 16:24:55.902849 21045 layer_factory.hpp:77] Creating layer inception_5a/relu_3x3
I0403 16:24:55.902866 21045 net.cpp:91] Creating Layer inception_5a/relu_3x3
I0403 16:24:55.902881 21045 net.cpp:425] inception_5a/relu_3x3 <- inception_5a/3x3
I0403 16:24:55.902902 21045 net.cpp:386] inception_5a/relu_3x3 -> inception_5a/3x3 (in-place)
I0403 16:24:55.903198 21045 net.cpp:141] Setting up inception_5a/relu_3x3
I0403 16:24:55.903224 21045 net.cpp:148] Top shape: 24 320 7 7 (376320)
I0403 16:24:55.903240 21045 net.cpp:156] Memory required for data: 1299050016
I0403 16:24:55.903254 21045 layer_factory.hpp:77] Creating layer inception_5a/5x5_reduce
I0403 16:24:55.903276 21045 net.cpp:91] Creating Layer inception_5a/5x5_reduce
I0403 16:24:55.903293 21045 net.cpp:425] inception_5a/5x5_reduce <- pool4/3x3_s2_pool4/3x3_s2_0_split_2
I0403 16:24:55.903311 21045 net.cpp:399] inception_5a/5x5_reduce -> inception_5a/5x5_reduce
I0403 16:24:55.904458 21045 net.cpp:141] Setting up inception_5a/5x5_reduce
I0403 16:24:55.904487 21045 net.cpp:148] Top shape: 24 32 7 7 (37632)
I0403 16:24:55.904503 21045 net.cpp:156] Memory required for data: 1299200544
I0403 16:24:55.904520 21045 layer_factory.hpp:77] Creating layer inception_5a/relu_5x5_reduce
I0403 16:24:55.904538 21045 net.cpp:91] Creating Layer inception_5a/relu_5x5_reduce
I0403 16:24:55.904554 21045 net.cpp:425] inception_5a/relu_5x5_reduce <- inception_5a/5x5_reduce
I0403 16:24:55.904572 21045 net.cpp:386] inception_5a/relu_5x5_reduce -> inception_5a/5x5_reduce (in-place)
I0403 16:24:55.904868 21045 net.cpp:141] Setting up inception_5a/relu_5x5_reduce
I0403 16:24:55.904893 21045 net.cpp:148] Top shape: 24 32 7 7 (37632)
I0403 16:24:55.904908 21045 net.cpp:156] Memory required for data: 1299351072
I0403 16:24:55.904922 21045 layer_factory.hpp:77] Creating layer inception_5a/5x5
I0403 16:24:55.904943 21045 net.cpp:91] Creating Layer inception_5a/5x5
I0403 16:24:55.904960 21045 net.cpp:425] inception_5a/5x5 <- inception_5a/5x5_reduce
I0403 16:24:55.904980 21045 net.cpp:399] inception_5a/5x5 -> inception_5a/5x5
I0403 16:24:55.906669 21045 net.cpp:141] Setting up inception_5a/5x5
I0403 16:24:55.906709 21045 net.cpp:148] Top shape: 24 128 7 7 (150528)
I0403 16:24:55.906725 21045 net.cpp:156] Memory required for data: 1299953184
I0403 16:24:55.906744 21045 layer_factory.hpp:77] Creating layer inception_5a/relu_5x5
I0403 16:24:55.906760 21045 net.cpp:91] Creating Layer inception_5a/relu_5x5
I0403 16:24:55.906775 21045 net.cpp:425] inception_5a/relu_5x5 <- inception_5a/5x5
I0403 16:24:55.906791 21045 net.cpp:386] inception_5a/relu_5x5 -> inception_5a/5x5 (in-place)
I0403 16:24:55.906980 21045 net.cpp:141] Setting up inception_5a/relu_5x5
I0403 16:24:55.907011 21045 net.cpp:148] Top shape: 24 128 7 7 (150528)
I0403 16:24:55.907026 21045 net.cpp:156] Memory required for data: 1300555296
I0403 16:24:55.907039 21045 layer_factory.hpp:77] Creating layer inception_5a/pool
I0403 16:24:55.907057 21045 net.cpp:91] Creating Layer inception_5a/pool
I0403 16:24:55.907071 21045 net.cpp:425] inception_5a/pool <- pool4/3x3_s2_pool4/3x3_s2_0_split_3
I0403 16:24:55.907091 21045 net.cpp:399] inception_5a/pool -> inception_5a/pool
I0403 16:24:55.907158 21045 net.cpp:141] Setting up inception_5a/pool
I0403 16:24:55.907183 21045 net.cpp:148] Top shape: 24 832 7 7 (978432)
I0403 16:24:55.907196 21045 net.cpp:156] Memory required for data: 1304469024
I0403 16:24:55.907210 21045 layer_factory.hpp:77] Creating layer inception_5a/pool_proj
I0403 16:24:55.907230 21045 net.cpp:91] Creating Layer inception_5a/pool_proj
I0403 16:24:55.907248 21045 net.cpp:425] inception_5a/pool_proj <- inception_5a/pool
I0403 16:24:55.907268 21045 net.cpp:399] inception_5a/pool_proj -> inception_5a/pool_proj
I0403 16:24:55.909521 21045 net.cpp:141] Setting up inception_5a/pool_proj
I0403 16:24:55.909550 21045 net.cpp:148] Top shape: 24 128 7 7 (150528)
I0403 16:24:55.909564 21045 net.cpp:156] Memory required for data: 1305071136
I0403 16:24:55.909582 21045 layer_factory.hpp:77] Creating layer inception_5a/relu_pool_proj
I0403 16:24:55.909601 21045 net.cpp:91] Creating Layer inception_5a/relu_pool_proj
I0403 16:24:55.909617 21045 net.cpp:425] inception_5a/relu_pool_proj <- inception_5a/pool_proj
I0403 16:24:55.909634 21045 net.cpp:386] inception_5a/relu_pool_proj -> inception_5a/pool_proj (in-place)
I0403 16:24:55.909924 21045 net.cpp:141] Setting up inception_5a/relu_pool_proj
I0403 16:24:55.909950 21045 net.cpp:148] Top shape: 24 128 7 7 (150528)
I0403 16:24:55.909963 21045 net.cpp:156] Memory required for data: 1305673248
I0403 16:24:55.909978 21045 layer_factory.hpp:77] Creating layer inception_5a/output
I0403 16:24:55.910006 21045 net.cpp:91] Creating Layer inception_5a/output
I0403 16:24:55.910023 21045 net.cpp:425] inception_5a/output <- inception_5a/1x1
I0403 16:24:55.910039 21045 net.cpp:425] inception_5a/output <- inception_5a/3x3
I0403 16:24:55.910055 21045 net.cpp:425] inception_5a/output <- inception_5a/5x5
I0403 16:24:55.910069 21045 net.cpp:425] inception_5a/output <- inception_5a/pool_proj
I0403 16:24:55.910085 21045 net.cpp:399] inception_5a/output -> inception_5a/output
I0403 16:24:55.910135 21045 net.cpp:141] Setting up inception_5a/output
I0403 16:24:55.910157 21045 net.cpp:148] Top shape: 24 832 7 7 (978432)
I0403 16:24:55.910171 21045 net.cpp:156] Memory required for data: 1309586976
I0403 16:24:55.910186 21045 layer_factory.hpp:77] Creating layer inception_5a/output_inception_5a/output_0_split
I0403 16:24:55.910202 21045 net.cpp:91] Creating Layer inception_5a/output_inception_5a/output_0_split
I0403 16:24:55.910217 21045 net.cpp:425] inception_5a/output_inception_5a/output_0_split <- inception_5a/output
I0403 16:24:55.910234 21045 net.cpp:399] inception_5a/output_inception_5a/output_0_split -> inception_5a/output_inception_5a/output_0_split_0
I0403 16:24:55.910254 21045 net.cpp:399] inception_5a/output_inception_5a/output_0_split -> inception_5a/output_inception_5a/output_0_split_1
I0403 16:24:55.910274 21045 net.cpp:399] inception_5a/output_inception_5a/output_0_split -> inception_5a/output_inception_5a/output_0_split_2
I0403 16:24:55.910292 21045 net.cpp:399] inception_5a/output_inception_5a/output_0_split -> inception_5a/output_inception_5a/output_0_split_3
I0403 16:24:55.910403 21045 net.cpp:141] Setting up inception_5a/output_inception_5a/output_0_split
I0403 16:24:55.910425 21045 net.cpp:148] Top shape: 24 832 7 7 (978432)
I0403 16:24:55.910440 21045 net.cpp:148] Top shape: 24 832 7 7 (978432)
I0403 16:24:55.910455 21045 net.cpp:148] Top shape: 24 832 7 7 (978432)
I0403 16:24:55.910470 21045 net.cpp:148] Top shape: 24 832 7 7 (978432)
I0403 16:24:55.910482 21045 net.cpp:156] Memory required for data: 1325241888
I0403 16:24:55.910496 21045 layer_factory.hpp:77] Creating layer inception_5b/1x1
I0403 16:24:55.910517 21045 net.cpp:91] Creating Layer inception_5b/1x1
I0403 16:24:55.910534 21045 net.cpp:425] inception_5b/1x1 <- inception_5a/output_inception_5a/output_0_split_0
I0403 16:24:55.910554 21045 net.cpp:399] inception_5b/1x1 -> inception_5b/1x1
I0403 16:24:55.914228 21045 net.cpp:141] Setting up inception_5b/1x1
I0403 16:24:55.914258 21045 net.cpp:148] Top shape: 24 384 7 7 (451584)
I0403 16:24:55.914275 21045 net.cpp:156] Memory required for data: 1327048224
I0403 16:24:55.914294 21045 layer_factory.hpp:77] Creating layer inception_5b/relu_1x1
I0403 16:24:55.914314 21045 net.cpp:91] Creating Layer inception_5b/relu_1x1
I0403 16:24:55.914336 21045 net.cpp:425] inception_5b/relu_1x1 <- inception_5b/1x1
I0403 16:24:55.914353 21045 net.cpp:386] inception_5b/relu_1x1 -> inception_5b/1x1 (in-place)
I0403 16:24:55.914654 21045 net.cpp:141] Setting up inception_5b/relu_1x1
I0403 16:24:55.914681 21045 net.cpp:148] Top shape: 24 384 7 7 (451584)
I0403 16:24:55.914698 21045 net.cpp:156] Memory required for data: 1328854560
I0403 16:24:55.914716 21045 layer_factory.hpp:77] Creating layer inception_5b/3x3_reduce
I0403 16:24:55.914744 21045 net.cpp:91] Creating Layer inception_5b/3x3_reduce
I0403 16:24:55.914762 21045 net.cpp:425] inception_5b/3x3_reduce <- inception_5a/output_inception_5a/output_0_split_1
I0403 16:24:55.914782 21045 net.cpp:399] inception_5b/3x3_reduce -> inception_5b/3x3_reduce
I0403 16:24:55.917500 21045 net.cpp:141] Setting up inception_5b/3x3_reduce
I0403 16:24:55.917527 21045 net.cpp:148] Top shape: 24 192 7 7 (225792)
I0403 16:24:55.917543 21045 net.cpp:156] Memory required for data: 1329757728
I0403 16:24:55.917562 21045 layer_factory.hpp:77] Creating layer inception_5b/relu_3x3_reduce
I0403 16:24:55.917582 21045 net.cpp:91] Creating Layer inception_5b/relu_3x3_reduce
I0403 16:24:55.917599 21045 net.cpp:425] inception_5b/relu_3x3_reduce <- inception_5b/3x3_reduce
I0403 16:24:55.917616 21045 net.cpp:386] inception_5b/relu_3x3_reduce -> inception_5b/3x3_reduce (in-place)
I0403 16:24:55.917809 21045 net.cpp:141] Setting up inception_5b/relu_3x3_reduce
I0403 16:24:55.917832 21045 net.cpp:148] Top shape: 24 192 7 7 (225792)
I0403 16:24:55.917846 21045 net.cpp:156] Memory required for data: 1330660896
I0403 16:24:55.917861 21045 layer_factory.hpp:77] Creating layer inception_5b/3x3
I0403 16:24:55.917883 21045 net.cpp:91] Creating Layer inception_5b/3x3
I0403 16:24:55.917901 21045 net.cpp:425] inception_5b/3x3 <- inception_5b/3x3_reduce
I0403 16:24:55.917922 21045 net.cpp:399] inception_5b/3x3 -> inception_5b/3x3
I0403 16:24:55.924677 21045 net.cpp:141] Setting up inception_5b/3x3
I0403 16:24:55.924707 21045 net.cpp:148] Top shape: 24 384 7 7 (451584)
I0403 16:24:55.924723 21045 net.cpp:156] Memory required for data: 1332467232
I0403 16:24:55.924741 21045 layer_factory.hpp:77] Creating layer inception_5b/relu_3x3
I0403 16:24:55.924762 21045 net.cpp:91] Creating Layer inception_5b/relu_3x3
I0403 16:24:55.924778 21045 net.cpp:425] inception_5b/relu_3x3 <- inception_5b/3x3
I0403 16:24:55.924796 21045 net.cpp:386] inception_5b/relu_3x3 -> inception_5b/3x3 (in-place)
I0403 16:24:55.925103 21045 net.cpp:141] Setting up inception_5b/relu_3x3
I0403 16:24:55.925130 21045 net.cpp:148] Top shape: 24 384 7 7 (451584)
I0403 16:24:55.925145 21045 net.cpp:156] Memory required for data: 1334273568
I0403 16:24:55.925161 21045 layer_factory.hpp:77] Creating layer inception_5b/5x5_reduce
I0403 16:24:55.925202 21045 net.cpp:91] Creating Layer inception_5b/5x5_reduce
I0403 16:24:55.925221 21045 net.cpp:425] inception_5b/5x5_reduce <- inception_5a/output_inception_5a/output_0_split_2
I0403 16:24:55.925240 21045 net.cpp:399] inception_5b/5x5_reduce -> inception_5b/5x5_reduce
I0403 16:24:55.926554 21045 net.cpp:141] Setting up inception_5b/5x5_reduce
I0403 16:24:55.926585 21045 net.cpp:148] Top shape: 24 48 7 7 (56448)
I0403 16:24:55.926601 21045 net.cpp:156] Memory required for data: 1334499360
I0403 16:24:55.926620 21045 layer_factory.hpp:77] Creating layer inception_5b/relu_5x5_reduce
I0403 16:24:55.926638 21045 net.cpp:91] Creating Layer inception_5b/relu_5x5_reduce
I0403 16:24:55.926656 21045 net.cpp:425] inception_5b/relu_5x5_reduce <- inception_5b/5x5_reduce
I0403 16:24:55.926672 21045 net.cpp:386] inception_5b/relu_5x5_reduce -> inception_5b/5x5_reduce (in-place)
I0403 16:24:55.927067 21045 net.cpp:141] Setting up inception_5b/relu_5x5_reduce
I0403 16:24:55.927094 21045 net.cpp:148] Top shape: 24 48 7 7 (56448)
I0403 16:24:55.927109 21045 net.cpp:156] Memory required for data: 1334725152
I0403 16:24:55.927124 21045 layer_factory.hpp:77] Creating layer inception_5b/5x5
I0403 16:24:55.927145 21045 net.cpp:91] Creating Layer inception_5b/5x5
I0403 16:24:55.927161 21045 net.cpp:425] inception_5b/5x5 <- inception_5b/5x5_reduce
I0403 16:24:55.927181 21045 net.cpp:399] inception_5b/5x5 -> inception_5b/5x5
I0403 16:24:55.929330 21045 net.cpp:141] Setting up inception_5b/5x5
I0403 16:24:55.929360 21045 net.cpp:148] Top shape: 24 128 7 7 (150528)
I0403 16:24:55.929376 21045 net.cpp:156] Memory required for data: 1335327264
I0403 16:24:55.929395 21045 layer_factory.hpp:77] Creating layer inception_5b/relu_5x5
I0403 16:24:55.929414 21045 net.cpp:91] Creating Layer inception_5b/relu_5x5
I0403 16:24:55.929430 21045 net.cpp:425] inception_5b/relu_5x5 <- inception_5b/5x5
I0403 16:24:55.929450 21045 net.cpp:386] inception_5b/relu_5x5 -> inception_5b/5x5 (in-place)
I0403 16:24:55.929651 21045 net.cpp:141] Setting up inception_5b/relu_5x5
I0403 16:24:55.929677 21045 net.cpp:148] Top shape: 24 128 7 7 (150528)
I0403 16:24:55.929690 21045 net.cpp:156] Memory required for data: 1335929376
I0403 16:24:55.929705 21045 layer_factory.hpp:77] Creating layer inception_5b/pool
I0403 16:24:55.929723 21045 net.cpp:91] Creating Layer inception_5b/pool
I0403 16:24:55.929739 21045 net.cpp:425] inception_5b/pool <- inception_5a/output_inception_5a/output_0_split_3
I0403 16:24:55.929761 21045 net.cpp:399] inception_5b/pool -> inception_5b/pool
I0403 16:24:55.929838 21045 net.cpp:141] Setting up inception_5b/pool
I0403 16:24:55.929862 21045 net.cpp:148] Top shape: 24 832 7 7 (978432)
I0403 16:24:55.929877 21045 net.cpp:156] Memory required for data: 1339843104
I0403 16:24:55.929893 21045 layer_factory.hpp:77] Creating layer inception_5b/pool_proj
I0403 16:24:55.929918 21045 net.cpp:91] Creating Layer inception_5b/pool_proj
I0403 16:24:55.929935 21045 net.cpp:425] inception_5b/pool_proj <- inception_5b/pool
I0403 16:24:55.929955 21045 net.cpp:399] inception_5b/pool_proj -> inception_5b/pool_proj
I0403 16:24:55.932348 21045 net.cpp:141] Setting up inception_5b/pool_proj
I0403 16:24:55.932379 21045 net.cpp:148] Top shape: 24 128 7 7 (150528)
I0403 16:24:55.932396 21045 net.cpp:156] Memory required for data: 1340445216
I0403 16:24:55.932415 21045 layer_factory.hpp:77] Creating layer inception_5b/relu_pool_proj
I0403 16:24:55.932433 21045 net.cpp:91] Creating Layer inception_5b/relu_pool_proj
I0403 16:24:55.932449 21045 net.cpp:425] inception_5b/relu_pool_proj <- inception_5b/pool_proj
I0403 16:24:55.932466 21045 net.cpp:386] inception_5b/relu_pool_proj -> inception_5b/pool_proj (in-place)
I0403 16:24:55.932780 21045 net.cpp:141] Setting up inception_5b/relu_pool_proj
I0403 16:24:55.932809 21045 net.cpp:148] Top shape: 24 128 7 7 (150528)
I0403 16:24:55.932826 21045 net.cpp:156] Memory required for data: 1341047328
I0403 16:24:55.932840 21045 layer_factory.hpp:77] Creating layer inception_5b/output
I0403 16:24:55.932857 21045 net.cpp:91] Creating Layer inception_5b/output
I0403 16:24:55.932890 21045 net.cpp:425] inception_5b/output <- inception_5b/1x1
I0403 16:24:55.932909 21045 net.cpp:425] inception_5b/output <- inception_5b/3x3
I0403 16:24:55.932926 21045 net.cpp:425] inception_5b/output <- inception_5b/5x5
I0403 16:24:55.932942 21045 net.cpp:425] inception_5b/output <- inception_5b/pool_proj
I0403 16:24:55.932960 21045 net.cpp:399] inception_5b/output -> inception_5b/output
I0403 16:24:55.933020 21045 net.cpp:141] Setting up inception_5b/output
I0403 16:24:55.933058 21045 net.cpp:148] Top shape: 24 1024 7 7 (1204224)
I0403 16:24:55.933073 21045 net.cpp:156] Memory required for data: 1345864224
I0403 16:24:55.933089 21045 layer_factory.hpp:77] Creating layer pool5/7x7_s1
I0403 16:24:55.933109 21045 net.cpp:91] Creating Layer pool5/7x7_s1
I0403 16:24:55.933127 21045 net.cpp:425] pool5/7x7_s1 <- inception_5b/output
I0403 16:24:55.933146 21045 net.cpp:399] pool5/7x7_s1 -> pool5/7x7_s1
I0403 16:24:55.933384 21045 net.cpp:141] Setting up pool5/7x7_s1
I0403 16:24:55.933413 21045 net.cpp:148] Top shape: 24 1024 1 1 (24576)
I0403 16:24:55.933428 21045 net.cpp:156] Memory required for data: 1345962528
I0403 16:24:55.933442 21045 layer_factory.hpp:77] Creating layer pool5/drop_7x7_s1
I0403 16:24:55.933459 21045 net.cpp:91] Creating Layer pool5/drop_7x7_s1
I0403 16:24:55.933475 21045 net.cpp:425] pool5/drop_7x7_s1 <- pool5/7x7_s1
I0403 16:24:55.933492 21045 net.cpp:386] pool5/drop_7x7_s1 -> pool5/7x7_s1 (in-place)
I0403 16:24:55.933544 21045 net.cpp:141] Setting up pool5/drop_7x7_s1
I0403 16:24:55.933568 21045 net.cpp:148] Top shape: 24 1024 1 1 (24576)
I0403 16:24:55.933583 21045 net.cpp:156] Memory required for data: 1346060832
I0403 16:24:55.933598 21045 layer_factory.hpp:77] Creating layer loss3/classifier_plantvillage
I0403 16:24:55.933619 21045 net.cpp:91] Creating Layer loss3/classifier_plantvillage
I0403 16:24:55.933635 21045 net.cpp:425] loss3/classifier_plantvillage <- pool5/7x7_s1
I0403 16:24:55.933655 21045 net.cpp:399] loss3/classifier_plantvillage -> loss3/classifier_plantvillage
I0403 16:24:55.934105 21045 net.cpp:141] Setting up loss3/classifier_plantvillage
I0403 16:24:55.934130 21045 net.cpp:148] Top shape: 24 38 (912)
I0403 16:24:55.934145 21045 net.cpp:156] Memory required for data: 1346064480
I0403 16:24:55.934164 21045 layer_factory.hpp:77] Creating layer loss3/classifier_plantvillage_loss3/classifier_plantvillage_0_split
I0403 16:24:55.934181 21045 net.cpp:91] Creating Layer loss3/classifier_plantvillage_loss3/classifier_plantvillage_0_split
I0403 16:24:55.934197 21045 net.cpp:425] loss3/classifier_plantvillage_loss3/classifier_plantvillage_0_split <- loss3/classifier_plantvillage
I0403 16:24:55.934218 21045 net.cpp:399] loss3/classifier_plantvillage_loss3/classifier_plantvillage_0_split -> loss3/classifier_plantvillage_loss3/classifier_plantvillage_0_split_0
I0403 16:24:55.934240 21045 net.cpp:399] loss3/classifier_plantvillage_loss3/classifier_plantvillage_0_split -> loss3/classifier_plantvillage_loss3/classifier_plantvillage_0_split_1
I0403 16:24:55.934262 21045 net.cpp:399] loss3/classifier_plantvillage_loss3/classifier_plantvillage_0_split -> loss3/classifier_plantvillage_loss3/classifier_plantvillage_0_split_2
I0403 16:24:55.934281 21045 net.cpp:399] loss3/classifier_plantvillage_loss3/classifier_plantvillage_0_split -> loss3/classifier_plantvillage_loss3/classifier_plantvillage_0_split_3
I0403 16:24:55.934391 21045 net.cpp:141] Setting up loss3/classifier_plantvillage_loss3/classifier_plantvillage_0_split
I0403 16:24:55.934414 21045 net.cpp:148] Top shape: 24 38 (912)
I0403 16:24:55.934430 21045 net.cpp:148] Top shape: 24 38 (912)
I0403 16:24:55.934445 21045 net.cpp:148] Top shape: 24 38 (912)
I0403 16:24:55.934460 21045 net.cpp:148] Top shape: 24 38 (912)
I0403 16:24:55.934473 21045 net.cpp:156] Memory required for data: 1346079072
I0403 16:24:55.934489 21045 layer_factory.hpp:77] Creating layer loss1/loss
I0403 16:24:55.934509 21045 net.cpp:91] Creating Layer loss1/loss
I0403 16:24:55.934527 21045 net.cpp:425] loss1/loss <- loss1/classifier_plantvillage_loss1/classifier_plantvillage_0_split_0
I0403 16:24:55.934558 21045 net.cpp:425] loss1/loss <- label_data_1_split_0
…
