…
I0403 16:04:18.336536 20687 net.cpp:313] The NetState phase (1) differed from the phase (0) specified by a rule in layer data
I0403 16:04:18.337755 20687 net.cpp:49] Initializing net from parameters: 
state {
  phase: TEST
}
layer {
  name: "data"
  type: "Data"
  top: "data"
  top: "label"
  include {
    phase: TEST
  }
  transform_param {
    mirror: false
    crop_size: 224
    mean_file: "/home/mohanty/data/final_dataset/lmdb/color-40-60/mean.binaryproto"
  }
  data_param {
    source: "/home/mohanty/data/final_dataset/lmdb/color-40-60/test_db"
    batch_size: 24
    backend: LMDB
  }
}
layer {
  name: "conv1/7x7_s2"
  type: "Convolution"
  bottom: "data"
  top: "conv1/7x7_s2"
  param {
    lr_mult: 1
    decay_mult: 1
  }
  param {
    lr_mult: 2
    decay_mult: 0
  }
  convolution_param {
    num_output: 64
    pad: 3
    kernel_size: 7
    stride: 2
    weight_filler {
      type: "xavier"
      std: 0.1
    }
    bias_filler {
      type: "constant"
      value: 0.2
    }
  }
}
layer {
  name: "conv1/relu_7x7"
  type: "ReLU"
  bottom: "conv1/7x7_s2"
  top: "conv1/7x7_s2"
}
layer {
  name: "pool1/3x3_s2"
  type: "Pooling"
  bottom: "conv1/7x7_s2"
  top: "pool1/3x3_s2"
  pooling_param {
    pool: MAX
    kernel_size: 3
    stride: 2
  }
}
layer {
  name: "pool1/norm1"
  type: "LRN"
  bottom: "pool1/3x3_s2"
  top: "pool1/norm1"
  lrn_param {
    local_size: 5
    alpha: 0.0001
    beta: 0.75
  }
}
layer {
  name: "conv2/3x3_reduce"
  type: "Convolution"
  bottom: "pool1/norm1"
  top: "conv2/3x3_reduce"
  param {
    lr_mult: 1
    decay_mult: 1
  }
  param {
    lr_mult: 2
    decay_mult: 0
  }
  convolution_param {
    num_output: 64
    kernel_size: 1
    weight_filler {
      type: "xavier"
      std: 0.1
    }
    bias_filler {
      type: "constant"
      value: 0.2
    }
  }
}
layer {
  name: "conv2/relu_3x3_reduce"
  type: "ReLU"
  bottom: "conv2/3x3_reduce"
  top: "conv2/3x3_reduce"
}
layer {
  name: "conv2/3x3"
  type: "Convolution"
  bottom: "conv2/3x3_reduce"
  top: "conv2/3x3"
  param {
    lr_mult: 1
    decay_mult: 1
  }
  param {
    lr_mult: 2
    decay_mult: 0
  }
  convolution_param {
    num_output: 192
    pad: 1
    kernel_size: 3
    weight_filler {
      type: "xavier"
      std: 0.03
    }
    bias_filler {
      type: "constant"
      value: 0.2
    }
  }
}
layer {
  name: "conv2/relu_3x3"
  type: "ReLU"
  bottom: "conv2/3x3"
  top: "conv2/3x3"
}
layer {
  name: "conv2/norm2"
  type: "LRN"
  bottom: "conv2/3x3"
  top: "conv2/norm2"
  lrn_param {
    local_size: 5
    alpha: 0.0001
    beta: 0.75
  }
}
layer {
  name: "pool2/3x3_s2"
  type: "Pooling"
  bottom: "conv2/norm2"
  top: "pool2/3x3_s2"
  pooling_param {
    pool: MAX
    kernel_size: 3
    stride: 2
  }
}
layer {
  name: "inception_3a/1x1"
  type: "Convolution"
  bottom: "pool2/3x3_s2"
  top: "inception_3a/1x1"
  param {
    lr_mult: 1
    decay_mult: 1
  }
  param {
    lr_mult: 2
    decay_mult: 0
  }
  convolution_param {
    num_output: 64
    kernel_size: 1
    weight_filler {
      type: "xavier"
      std: 0.03
    }
    bias_filler {
      type: "constant"
      value: 0.2
    }
  }
}
layer {
  name: "inception_3a/relu_1x1"
  type: "ReLU"
  bottom: "inception_3a/1x1"
  top: "inception_3a/1x1"
}
layer {
  name: "inception_3a/3x3_reduce"
  type: "Convolution"
  bottom: "pool2/3x3_s2"
  top: "inception_3a/3x3_reduce"
  param {
    lr_mult: 1
    decay_mult: 1
  }
  param {
    lr_mult: 2
    decay_mult: 0
  }
  convolution_param {
    num_output: 96
    kernel_size: 1
    weight_filler {
      type: "xavier"
      std: 0.09
    }
    bias_filler {
      type: "constant"
      value: 0.2
    }
  }
}
layer {
  name: "inception_3a/relu_3x3_reduce"
  type: "ReLU"
  bottom: "inception_3a/3x3_reduce"
  top: "inception_3a/3x3_reduce"
}
layer {
  name: "inception_3a/3x3"
  type: "Convolution"
  bottom: "inception_3a/3x3_reduce"
  top: "inception_3a/3x3"
  param {
    lr_mult: 1
    decay_mult: 1
  }
  param {
    lr_mult: 2
    decay_mult: 0
  }
  convolution_param {
    num_output: 128
    pad: 1
    kernel_size: 3
    weight_filler {
      type: "xavier"
      std: 0.03
    }
    bias_filler {
      type: "constant"
      value: 0.2
    }
  }
}
layer {
  name: "inception_3a/relu_3x3"
  type: "ReLU"
  bottom: "inception_3a/3x3"
  top: "inception_3a/3x3"
}
layer {
  name: "inception_3a/5x5_reduce"
  type: "Convolution"
  bottom: "pool2/3x3_s2"
  top: "inception_3a/5x5_reduce"
  param {
    lr_mult: 1
    decay_mult: 1
  }
  param {
    lr_mult: 2
    decay_mult: 0
  }
  convolution_param {
    num_output: 16
    kernel_size: 1
    weight_filler {
      type: "xavier"
      std: 0.2
    }
    bias_filler {
      type: "constant"
      value: 0.2
    }
  }
}
layer {
  name: "inception_3a/relu_5x5_reduce"
  type: "ReLU"
  bottom: "inception_3a/5x5_reduce"
  top: "inception_3a/5x5_reduce"
}
layer {
  name: "inception_3a/5x5"
  type: "Convolution"
  bottom: "inception_3a/5x5_reduce"
  top: "inception_3a/5x5"
  param {
    lr_mult: 1
    decay_mult: 1
  }
  param {
    lr_mult: 2
    decay_mult: 0
  }
  convolution_param {
    num_output: 32
    pad: 2
    kernel_size: 5
    weight_filler {
      type: "xavier"
      std: 0.03
    }
    bias_filler {
      type: "constant"
      value: 0.2
    }
  }
}
layer {
  name: "inception_3a/relu_5x5"
  type: "ReLU"
  bottom: "inception_3a/5x5"
  top: "inception_3a/5x5"
}
layer {
  name: "inception_3a/pool"
  type: "Pooling"
  bottom: "pool2/3x3_s2"
  top: "inception_3a/pool"
  pooling_param {
    pool: MAX
    kernel_size: 3
    stride: 1
    pad: 1
  }
}
layer {
  name: "inception_3a/pool_proj"
  type: "Convolution"
  bottom: "inception_3a/pool"
  top: "inception_3a/pool_proj"
  param {
    lr_mult: 1
    decay_mult: 1
  }
  param {
    lr_mult: 2
    decay_mult: 0
  }
  convolution_param {
    num_output: 32
    kernel_size: 1
    weight_filler {
      type: "xavier"
      std: 0.1
    }
    bias_filler {
      type: "constant"
      value: 0.2
    }
  }
}
layer {
  name: "inception_3a/relu_pool_proj"
  type: "ReLU"
  bottom: "inception_3a/pool_proj"
  top: "inception_3a/pool_proj"
}
layer {
  name: "inception_3a/output"
  type: "Concat"
  bottom: "inception_3a/1x1"
  bottom: "inception_3a/3x3"
  bottom: "inception_3a/5x5"
  bottom: "inception_3a/pool_proj"
  top: "inception_3a/output"
}
layer {
  name: "inception_3b/1x1"
  type: "Convolution"
  bottom: "inception_3a/output"
  top: "inception_3b/1x1"
  param {
    lr_mult: 1
    decay_mult: 1
  }
  param {
    lr_mult: 2
    decay_mult: 0
  }
  convolution_param {
    num_output: 128
    kernel_size: 1
    weight_filler {
      type: "xavier"
      std: 0.03
    }
    bias_filler {
      type: "constant"
      value: 0.2
    }
  }
}
layer {
  name: "inception_3b/relu_1x1"
  type: "ReLU"
  bottom: "inception_3b/1x1"
  top: "inception_3b/1x1"
}
layer {
  name: "inception_3b/3x3_reduce"
  type: "Convolution"
  bottom: "inception_3a/output"
  top: "inception_3b/3x3_reduce"
  param {
    lr_mult: 1
    decay_mult: 1
  }
  param {
    lr_mult: 2
    decay_mult: 0
  }
  convolution_param {
    num_output: 128
    kernel_size: 1
    weight_filler {
      type: "xavier"
      std: 0.09
    }
    bias_filler {
      type: "constant"
      value: 0.2
    }
  }
}
layer {
  name: "inception_3b/relu_3x3_reduce"
  type: "ReLU"
  bottom: "inception_3b/3x3_reduce"
  top: "inception_3b/3x3_reduce"
}
layer {
  name: "inception_3b/3x3"
  type: "Convolution"
  bottom: "inception_3b/3x3_reduce"
  top: "inception_3b/3x3"
  param {
    lr_mult: 1
    decay_mult: 1
  }
  param {
    lr_mult: 2
    decay_mult: 0
  }
  convolution_param {
    num_output: 192
    pad: 1
    kernel_size: 3
    weight_filler {
      type: "xavier"
      std: 0.03
    }
    bias_filler {
      type: "constant"
      value: 0.2
    }
  }
}
layer {
  name: "inception_3b/relu_3x3"
  type: "ReLU"
  bottom: "inception_3b/3x3"
  top: "inception_3b/3x3"
}
layer {
  name: "inception_3b/5x5_reduce"
  type: "Convolution"
  bottom: "inception_3a/output"
  top: "inception_3b/5x5_reduce"
  param {
    lr_mult: 1
    decay_mult: 1
  }
  param {
    lr_mult: 2
    decay_mult: 0
  }
  convolution_param {
    num_output: 32
    kernel_size: 1
    weight_filler {
      type: "xavier"
      std: 0.2
    }
    bias_filler {
      type: "constant"
      value: 0.2
    }
  }
}
layer {
  name: "inception_3b/relu_5x5_reduce"
  type: "ReLU"
  bottom: "inception_3b/5x5_reduce"
  top: "inception_3b/5x5_reduce"
}
layer {
  name: "inception_3b/5x5"
  type: "Convolution"
  bottom: "inception_3b/5x5_reduce"
  top: "inception_3b/5x5"
  param {
    lr_mult: 1
    decay_mult: 1
  }
  param {
    lr_mult: 2
    decay_mult: 0
  }
  convolution_param {
    num_output: 96
    pad: 2
    kernel_size: 5
    weight_filler {
      type: "xavier"
      std: 0.03
    }
    bias_filler {
      type: "constant"
      value: 0.2
    }
  }
}
layer {
  name: "inception_3b/relu_5x5"
  type: "ReLU"
  bottom: "inception_3b/5x5"
  top: "inception_3b/5x5"
}
layer {
  name: "inception_3b/pool"
  type: "Pooling"
  bottom: "inception_3a/output"
  top: "inception_3b/pool"
  pooling_param {
    pool: MAX
    kernel_size: 3
    stride: 1
    pad: 1
  }
}
layer {
  name: "inception_3b/pool_proj"
  type: "Convolution"
  bottom: "inception_3b/pool"
  top: "inception_3b/pool_proj"
  param {
    lr_mult: 1
    decay_mult: 1
  }
  param {
    lr_mult: 2
    decay_mult: 0
  }
  convolution_param {
    num_output: 64
    kernel_size: 1
    weight_filler {
      type: "xavier"
      std: 0.1
    }
    bias_filler {
      type: "constant"
      value: 0.2
    }
  }
}
layer {
  name: "inception_3b/relu_pool_proj"
  type: "ReLU"
  bottom: "inception_3b/pool_proj"
  top: "inception_3b/pool_proj"
}
layer {
  name: "inception_3b/output"
  type: "Concat"
  bottom: "inception_3b/1x1"
  bottom: "inception_3b/3x3"
  bottom: "inception_3b/5x5"
  bottom: "inception_3b/pool_proj"
  top: "inception_3b/output"
}
layer {
  name: "pool3/3x3_s2"
  type: "Pooling"
  bottom: "inception_3b/output"
  top: "pool3/3x3_s2"
  pooling_param {
    pool: MAX
    kernel_size: 3
    stride: 2
  }
}
layer {
  name: "inception_4a/1x1"
  type: "Convolution"
  bottom: "pool3/3x3_s2"
  top: "inception_4a/1x1"
  param {
    lr_mult: 1
    decay_mult: 1
  }
  param {
    lr_mult: 2
    decay_mult: 0
  }
  convolution_param {
    num_output: 192
    kernel_size: 1
    weight_filler {
      type: "xavier"
      std: 0.03
    }
    bias_filler {
      type: "constant"
      value: 0.2
    }
  }
}
layer {
  name: "inception_4a/relu_1x1"
  type: "ReLU"
  bottom: "inception_4a/1x1"
  top: "inception_4a/1x1"
}
layer {
  name: "inception_4a/3x3_reduce"
  type: "Convolution"
  bottom: "pool3/3x3_s2"
  top: "inception_4a/3x3_reduce"
  param {
    lr_mult: 1
    decay_mult: 1
  }
  param {
    lr_mult: 2
    decay_mult: 0
  }
  convolution_param {
    num_output: 96
    kernel_size: 1
    weight_filler {
      type: "xavier"
      std: 0.09
    }
    bias_filler {
      type: "constant"
      value: 0.2
    }
  }
}
layer {
  name: "inception_4a/relu_3x3_reduce"
  type: "ReLU"
  bottom: "inception_4a/3x3_reduce"
  top: "inception_4a/3x3_reduce"
}
layer {
  name: "inception_4a/3x3"
  type: "Convolution"
  bottom: "inception_4a/3x3_reduce"
  top: "inception_4a/3x3"
  param {
    lr_mult: 1
    decay_mult: 1
  }
  param {
    lr_mult: 2
    decay_mult: 0
  }
  convolution_param {
    num_output: 208
    pad: 1
    kernel_size: 3
    weight_filler {
      type: "xavier"
      std: 0.03
    }
    bias_filler {
      type: "constant"
      value: 0.2
    }
  }
}
layer {
  name: "inception_4a/relu_3x3"
  type: "ReLU"
  bottom: "inception_4a/3x3"
  top: "inception_4a/3x3"
}
layer {
  name: "inception_4a/5x5_reduce"
  type: "Convolution"
  bottom: "pool3/3x3_s2"
  top: "inception_4a/5x5_reduce"
  param {
    lr_mult: 1
    decay_mult: 1
  }
  param {
    lr_mult: 2
    decay_mult: 0
  }
  convolution_param {
    num_output: 16
    kernel_size: 1
    weight_filler {
      type: "xavier"
      std: 0.2
    }
    bias_filler {
      type: "constant"
      value: 0.2
    }
  }
}
layer {
  name: "inception_4a/relu_5x5_reduce"
  type: "ReLU"
  bottom: "inception_4a/5x5_reduce"
  top: "inception_4a/5x5_reduce"
}
layer {
  name: "inception_4a/5x5"
  type: "Convolution"
  bottom: "inception_4a/5x5_reduce"
  top: "inception_4a/5x5"
  param {
    lr_mult: 1
    decay_mult: 1
  }
  param {
    lr_mult: 2
    decay_mult: 0
  }
  convolution_param {
    num_output: 48
    pad: 2
    kernel_size: 5
    weight_filler {
      type: "xavier"
      std: 0.03
    }
    bias_filler {
      type: "constant"
      value: 0.2
    }
  }
}
layer {
  name: "inception_4a/relu_5x5"
  type: "ReLU"
  bottom: "inception_4a/5x5"
  top: "inception_4a/5x5"
}
layer {
  name: "inception_4a/pool"
  type: "Pooling"
  bottom: "pool3/3x3_s2"
  top: "inception_4a/pool"
  pooling_param {
    pool: MAX
    kernel_size: 3
    stride: 1
    pad: 1
  }
}
layer {
  name: "inception_4a/pool_proj"
  type: "Convolution"
  bottom: "inception_4a/pool"
  top: "inception_4a/pool_proj"
  param {
    lr_mult: 1
    decay_mult: 1
  }
  param {
    lr_mult: 2
    decay_mult: 0
  }
  convolution_param {
    num_output: 64
    kernel_size: 1
    weight_filler {
      type: "xavier"
      std: 0.1
    }
    bias_filler {
      type: "constant"
      value: 0.2
    }
  }
}
layer {
  name: "inception_4a/relu_pool_proj"
  type: "ReLU"
  bottom: "inception_4a/pool_proj"
  top: "inception_4a/pool_proj"
}
layer {
  name: "inception_4a/output"
  type: "Concat"
  bottom: "inception_4a/1x1"
  bottom: "inception_4a/3x3"
  bottom: "inception_4a/5x5"
  bottom: "inception_4a/pool_proj"
  top: "inception_4a/output"
}
layer {
  name: "loss1/ave_pool"
  type: "Pooling"
  bottom: "inception_4a/output"
  top: "loss1/ave_pool"
  pooling_param {
    pool: AVE
    kernel_size: 5
    stride: 3
  }
}
layer {
  name: "loss1/conv"
  type: "Convolution"
  bottom: "loss1/ave_pool"
  top: "loss1/conv"
  param {
    lr_mult: 1
    decay_mult: 1
  }
  param {
    lr_mult: 2
    decay_mult: 0
  }
  convolution_param {
    num_output: 128
    kernel_size: 1
    weight_filler {
      type: "xavier"
      std: 0.08
    }
    bias_filler {
      type: "constant"
      value: 0.2
    }
  }
}
layer {
  name: "loss1/relu_conv"
  type: "ReLU"
  bottom: "loss1/conv"
  top: "loss1/conv"
}
layer {
  name: "loss1/fc"
  type: "InnerProduct"
  bottom: "loss1/conv"
  top: "loss1/fc"
  param {
    lr_mult: 1
    decay_mult: 1
  }
  param {
    lr_mult: 2
    decay_mult: 0
  }
  inner_product_param {
    num_output: 1024
    weight_filler {
      type: "xavier"
      std: 0.02
    }
    bias_filler {
      type: "constant"
      value: 0.2
    }
  }
}
layer {
  name: "loss1/relu_fc"
  type: "ReLU"
  bottom: "loss1/fc"
  top: "loss1/fc"
}
layer {
  name: "loss1/drop_fc"
  type: "Dropout"
  bottom: "loss1/fc"
  top: "loss1/fc"
  dropout_param {
    dropout_ratio: 0.7
  }
}
layer {
  name: "loss1/classifier_plantvillage"
  type: "InnerProduct"
  bottom: "loss1/fc"
  top: "loss1/classifier_plantvillage"
  param {
    lr_mult: 1
    decay_mult: 1
  }
  param {
    lr_mult: 2
    decay_mult: 0
  }
  inner_product_param {
    num_output: 38
    weight_filler {
      type: "xavier"
      std: 0.0009765625
    }
    bias_filler {
      type: "constant"
      value: 0
    }
  }
}
layer {
  name: "inception_4b/1x1"
  type: "Convolution"
  bottom: "inception_4a/output"
  top: "inception_4b/1x1"
  param {
    lr_mult: 1
    decay_mult: 1
  }
  param {
    lr_mult: 2
    decay_mult: 0
  }
  convolution_param {
    num_output: 160
    kernel_size: 1
    weight_filler {
      type: "xavier"
      std: 0.03
    }
    bias_filler {
      type: "constant"
      value: 0.2
    }
  }
}
layer {
  name: "inception_4b/relu_1x1"
  type: "ReLU"
  bottom: "inception_4b/1x1"
  top: "inception_4b/1x1"
}
layer {
  name: "inception_4b/3x3_reduce"
  type: "Convolution"
  bottom: "inception_4a/output"
  top: "inception_4b/3x3_reduce"
  param {
    lr_mult: 1
    decay_mult: 1
  }
  param {
    lr_mult: 2
    decay_mult: 0
  }
  convolution_param {
    num_output: 112
    kernel_size: 1
    weight_filler {
      type: "xavier"
      std: 0.09
    }
    bias_filler {
      type: "constant"
      value: 0.2
    }
  }
}
layer {
  name: "inception_4b/relu_3x3_reduce"
  type: "ReLU"
  bottom: "inception_4b/3x3_reduce"
  top: "inception_4b/3x3_reduce"
}
layer {
  name: "inception_4b/3x3"
  type: "Convolution"
  bottom: "inception_4b/3x3_reduce"
  top: "inception_4b/3x3"
  param {
    lr_mult: 1
    decay_mult: 1
  }
  param {
    lr_mult: 2
    decay_mult: 0
  }
  convolution_param {
    num_output: 224
    pad: 1
    kernel_size: 3
    weight_filler {
      type: "xavier"
      std: 0.03
    }
    bias_filler {
      type: "constant"
      value: 0.2
    }
  }
}
layer {
  name: "inception_4b/relu_3x3"
  type: "ReLU"
  bottom: "inception_4b/3x3"
  top: "inception_4b/3x3"
}
layer {
  name: "inception_4b/5x5_reduce"
  type: "Convolution"
  bottom: "inception_4a/output"
  top: "inception_4b/5x5_reduce"
  param {
    lr_mult: 1
    decay_mult: 1
  }
  param {
    lr_mult: 2
    decay_mult: 0
  }
  convolution_param {
    num_output: 24
    kernel_size: 1
    weight_filler {
      type: "xavier"
      std: 0.2
    }
    bias_filler {
      type: "constant"
      value: 0.2
    }
  }
}
layer {
  name: "inception_4b/relu_5x5_reduce"
  type: "ReLU"
  bottom: "inception_4b/5x5_reduce"
  top: "inception_4b/5x5_reduce"
}
layer {
  name: "inception_4b/5x5"
  type: "Convolution"
  bottom: "inception_4b/5x5_reduce"
  top: "inception_4b/5x5"
  param {
    lr_mult: 1
    decay_mult: 1
  }
  param {
    lr_mult: 2
    decay_mult: 0
  }
  convolution_param {
    num_output: 64
    pad: 2
    kernel_size: 5
    weight_filler {
      type: "xavier"
      std: 0.03
    }
    bias_filler {
      type: "constant"
      value: 0.2
    }
  }
}
layer {
  name: "inception_4b/relu_5x5"
  type: "ReLU"
  bottom: "inception_4b/5x5"
  top: "inception_4b/5x5"
}
layer {
  name: "inception_4b/pool"
  type: "Pooling"
  bottom: "inception_4a/output"
  top: "inception_4b/pool"
  pooling_param {
    pool: MAX
    kernel_size: 3
    stride: 1
    pad: 1
  }
}
layer {
  name: "inception_4b/pool_proj"
  type: "Convolution"
  bottom: "inception_4b/pool"
  top: "inception_4b/pool_proj"
  param {
    lr_mult: 1
    decay_mult: 1
  }
  param {
    lr_mult: 2
    decay_mult: 0
  }
  convolution_param {
    num_output: 64
    kernel_size: 1
    weight_filler {
      type: "xavier"
      std: 0.1
    }
    bias_filler {
      type: "constant"
      value: 0.2
    }
  }
}
layer {
  name: "inception_4b/relu_pool_proj"
  type: "ReLU"
  bottom: "inception_4b/pool_proj"
  top: "inception_4b/pool_proj"
}
layer {
  name: "inception_4b/output"
  type: "Concat"
  bottom: "inception_4b/1x1"
  bottom: "inception_4b/3x3"
  bottom: "inception_4b/5x5"
  bottom: "inception_4b/pool_proj"
  top: "inception_4b/output"
}
layer {
  name: "inception_4c/1x1"
  type: "Convolution"
  bottom: "inception_4b/output"
  top: "inception_4c/1x1"
  param {
    lr_mult: 1
    decay_mult: 1
  }
  param {
    lr_mult: 2
    decay_mult: 0
  }
  convolution_param {
    num_output: 128
    kernel_size: 1
    weight_filler {
      type: "xavier"
      std: 0.03
    }
    bias_filler {
      type: "constant"
      value: 0.2
    }
  }
}
layer {
  name: "inception_4c/relu_1x1"
  type: "ReLU"
  bottom: "inception_4c/1x1"
  top: "inception_4c/1x1"
}
layer {
  name: "inception_4c/3x3_reduce"
  type: "Convolution"
  bottom: "inception_4b/output"
  top: "inception_4c/3x3_reduce"
  param {
    lr_mult: 1
    decay_mult: 1
  }
  param {
    lr_mult: 2
    decay_mult: 0
  }
  convolution_param {
    num_output: 128
    kernel_size: 1
    weight_filler {
      type: "xavier"
      std: 0.09
    }
    bias_filler {
      type: "constant"
      value: 0.2
    }
  }
}
layer {
  name: "inception_4c/relu_3x3_reduce"
  type: "ReLU"
  bottom: "inception_4c/3x3_reduce"
  top: "inception_4c/3x3_reduce"
}
layer {
  name: "inception_4c/3x3"
  type: "Convolution"
  bottom: "inception_4c/3x3_reduce"
  top: "inception_4c/3x3"
  param {
    lr_mult: 1
    decay_mult: 1
  }
  param {
    lr_mult: 2
    decay_mult: 0
  }
  convolution_param {
    num_output: 256
    pad: 1
    kernel_size: 3
    weight_filler {
      type: "xavier"
      std: 0.03
    }
    bias_filler {
      type: "constant"
      value: 0.2
    }
  }
}
layer {
  name: "inception_4c/relu_3x3"
  type: "ReLU"
  bottom: "inception_4c/3x3"
  top: "inception_4c/3x3"
}
layer {
  name: "inception_4c/5x5_reduce"
  type: "Convolution"
  bottom: "inception_4b/output"
  top: "inception_4c/5x5_reduce"
  param {
    lr_mult: 1
    decay_mult: 1
  }
  param {
    lr_mult: 2
    decay_mult: 0
  }
  convolution_param {
    num_output: 24
    kernel_size: 1
    weight_filler {
      type: "xavier"
      std: 0.2
    }
    bias_filler {
      type: "constant"
      value: 0.2
    }
  }
}
layer {
  name: "inception_4c/relu_5x5_reduce"
  type: "ReLU"
  bottom: "inception_4c/5x5_reduce"
  top: "inception_4c/5x5_reduce"
}
layer {
  name: "inception_4c/5x5"
  type: "Convolution"
  bottom: "inception_4c/5x5_reduce"
  top: "inception_4c/5x5"
  param {
    lr_mult: 1
    decay_mult: 1
  }
  param {
    lr_mult: 2
    decay_mult: 0
  }
  convolution_param {
    num_output: 64
    pad: 2
    kernel_size: 5
    weight_filler {
      type: "xavier"
      std: 0.03
    }
    bias_filler {
      type: "constant"
      value: 0.2
    }
  }
}
layer {
  name: "inception_4c/relu_5x5"
  type: "ReLU"
  bottom: "inception_4c/5x5"
  top: "inception_4c/5x5"
}
layer {
  name: "inception_4c/pool"
  type: "Pooling"
  bottom: "inception_4b/output"
  top: "inception_4c/pool"
  pooling_param {
    pool: MAX
    kernel_size: 3
    stride: 1
    pad: 1
  }
}
layer {
  name: "inception_4c/pool_proj"
  type: "Convolution"
  bottom: "inception_4c/pool"
  top: "inception_4c/pool_proj"
  param {
    lr_mult: 1
    decay_mult: 1
  }
  param {
    lr_mult: 2
    decay_mult: 0
  }
  convolution_param {
    num_output: 64
    kernel_size: 1
    weight_filler {
      type: "xavier"
      std: 0.1
    }
    bias_filler {
      type: "constant"
      value: 0.2
    }
  }
}
layer {
  name: "inception_4c/relu_pool_proj"
  type: "ReLU"
  bottom: "inception_4c/pool_proj"
  top: "inception_4c/pool_proj"
}
layer {
  name: "inception_4c/output"
  type: "Concat"
  bottom: "inception_4c/1x1"
  bottom: "inception_4c/3x3"
  bottom: "inception_4c/5x5"
  bottom: "inception_4c/pool_proj"
  top: "inception_4c/output"
}
layer {
  name: "inception_4d/1x1"
  type: "Convolution"
  bottom: "inception_4c/output"
  top: "inception_4d/1x1"
  param {
    lr_mult: 1
    decay_mult: 1
  }
  param {
    lr_mult: 2
    decay_mult: 0
  }
  convolution_param {
    num_output: 112
    kernel_size: 1
    weight_filler {
      type: "xavier"
      std: 0.03
    }
    bias_filler {
      type: "constant"
      value: 0.2
    }
  }
}
layer {
  name: "inception_4d/relu_1x1"
  type: "ReLU"
  bottom: "inception_4d/1x1"
  top: "inception_4d/1x1"
}
layer {
  name: "inception_4d/3x3_reduce"
  type: "Convolution"
  bottom: "inception_4c/output"
  top: "inception_4d/3x3_reduce"
  param {
    lr_mult: 1
    decay_mult: 1
  }
  param {
    lr_mult: 2
    decay_mult: 0
  }
  convolution_param {
    num_output: 144
    kernel_size: 1
    weight_filler {
      type: "xavier"
      std: 0.09
    }
    bias_filler {
      type: "constant"
      value: 0.2
    }
  }
}
layer {
  name: "inception_4d/relu_3x3_reduce"
  type: "ReLU"
  bottom: "inception_4d/3x3_reduce"
  top: "inception_4d/3x3_reduce"
}
layer {
  name: "inception_4d/3x3"
  type: "Convolution"
  bottom: "inception_4d/3x3_reduce"
  top: "inception_4d/3x3"
  param {
    lr_mult: 1
    decay_mult: 1
  }
  param {
    lr_mult: 2
    decay_mult: 0
  }
  convolution_param {
    num_output: 288
    pad: 1
    kernel_size: 3
    weight_filler {
      type: "xavier"
      std: 0.03
    }
    bias_filler {
      type: "constant"
      value: 0.2
    }
  }
}
layer {
  name: "inception_4d/relu_3x3"
  type: "ReLU"
  bottom: "inception_4d/3x3"
  top: "inception_4d/3x3"
}
layer {
  name: "inception_4d/5x5_reduce"
  type: "Convolution"
  bottom: "inception_4c/output"
  top: "inception_4d/5x5_reduce"
  param {
    lr_mult: 1
    decay_mult: 1
  }
  param {
    lr_mult: 2
    decay_mult: 0
  }
  convolution_param {
    num_output: 32
    kernel_size: 1
    weight_filler {
      type: "xavier"
      std: 0.2
    }
    bias_filler {
      type: "constant"
      value: 0.2
    }
  }
}
layer {
  name: "inception_4d/relu_5x5_reduce"
  type: "ReLU"
  bottom: "inception_4d/5x5_reduce"
  top: "inception_4d/5x5_reduce"
}
layer {
  name: "inception_4d/5x5"
  type: "Convolution"
  bottom: "inception_4d/5x5_reduce"
  top: "inception_4d/5x5"
  param {
    lr_mult: 1
    decay_mult: 1
  }
  param {
    lr_mult: 2
    decay_mult: 0
  }
  convolution_param {
    num_output: 64
    pad: 2
    kernel_size: 5
    weight_filler {
      type: "xavier"
      std: 0.03
    }
    bias_filler {
      type: "constant"
      value: 0.2
    }
  }
}
layer {
  name: "inception_4d/relu_5x5"
  type: "ReLU"
  bottom: "inception_4d/5x5"
  top: "inception_4d/5x5"
}
layer {
  name: "inception_4d/pool"
  type: "Pooling"
  bottom: "inception_4c/output"
  top: "inception_4d/pool"
  pooling_param {
    pool: MAX
    kernel_size: 3
    stride: 1
    pad: 1
  }
}
layer {
  name: "inception_4d/pool_proj"
  type: "Convolution"
  bottom: "inception_4d/pool"
  top: "inception_4d/pool_proj"
  param {
    lr_mult: 1
    decay_mult: 1
  }
  param {
    lr_mult: 2
    decay_mult: 0
  }
  convolution_param {
    num_output: 64
    kernel_size: 1
    weight_filler {
      type: "xavier"
      std: 0.1
    }
    bias_filler {
      type: "constant"
      value: 0.2
    }
  }
}
layer {
  name: "inception_4d/relu_pool_proj"
  type: "ReLU"
  bottom: "inception_4d/pool_proj"
  top: "inception_4d/pool_proj"
}
layer {
  name: "inception_4d/output"
  type: "Concat"
  bottom: "inception_4d/1x1"
  bottom: "inception_4d/3x3"
  bottom: "inception_4d/5x5"
  bottom: "inception_4d/pool_proj"
  top: "inception_4d/output"
}
layer {
  name: "loss2/ave_pool"
  type: "Pooling"
  bottom: "inception_4d/output"
  top: "loss2/ave_pool"
  pooling_param {
    pool: AVE
    kernel_size: 5
    stride: 3
  }
}
layer {
  name: "loss2/conv"
  type: "Convolution"
  bottom: "loss2/ave_pool"
  top: "loss2/conv"
  param {
    lr_mult: 1
    decay_mult: 1
  }
  param {
    lr_mult: 2
    decay_mult: 0
  }
  convolution_param {
    num_output: 128
    kernel_size: 1
    weight_filler {
      type: "xavier"
      std: 0.08
    }
    bias_filler {
      type: "constant"
      value: 0.2
    }
  }
}
layer {
  name: "loss2/relu_conv"
  type: "ReLU"
  bottom: "loss2/conv"
  top: "loss2/conv"
}
layer {
  name: "loss2/fc"
  type: "InnerProduct"
  bottom: "loss2/conv"
  top: "loss2/fc"
  param {
    lr_mult: 1
    decay_mult: 1
  }
  param {
    lr_mult: 2
    decay_mult: 0
  }
  inner_product_param {
    num_output: 1024
    weight_filler {
      type: "xavier"
      std: 0.02
    }
    bias_filler {
      type: "constant"
      value: 0.2
    }
  }
}
layer {
  name: "loss2/relu_fc"
  type: "ReLU"
  bottom: "loss2/fc"
  top: "loss2/fc"
}
layer {
  name: "loss2/drop_fc"
  type: "Dropout"
  bottom: "loss2/fc"
  top: "loss2/fc"
  dropout_param {
    dropout_ratio: 0.7
  }
}
layer {
  name: "loss2/classifier_plantvillage"
  type: "InnerProduct"
  bottom: "loss2/fc"
  top: "loss2/classifier_plantvillage"
  param {
    lr_mult: 1
    decay_mult: 1
  }
  param {
    lr_mult: 2
    decay_mult: 0
  }
  inner_product_param {
    num_output: 38
    weight_filler {
      type: "xavier"
      std: 0.0009765625
    }
    bias_filler {
      type: "constant"
      value: 0
    }
  }
}
layer {
  name: "inception_4e/1x1"
  type: "Convolution"
  bottom: "inception_4d/output"
  top: "inception_4e/1x1"
  param {
    lr_mult: 1
    decay_mult: 1
  }
  param {
    lr_mult: 2
    decay_mult: 0
  }
  convolution_param {
    num_output: 256
    kernel_size: 1
    weight_filler {
      type: "xavier"
      std: 0.03
    }
    bias_filler {
      type: "constant"
      value: 0.2
    }
  }
}
layer {
  name: "inception_4e/relu_1x1"
  type: "ReLU"
  bottom: "inception_4e/1x1"
  top: "inception_4e/1x1"
}
layer {
  name: "inception_4e/3x3_reduce"
  type: "Convolution"
  bottom: "inception_4d/output"
  top: "inception_4e/3x3_reduce"
  param {
    lr_mult: 1
    decay_mult: 1
  }
  param {
    lr_mult: 2
    decay_mult: 0
  }
  convolution_param {
    num_output: 160
    kernel_size: 1
    weight_filler {
      type: "xavier"
      std: 0.09
    }
    bias_filler {
      type: "constant"
      value: 0.2
    }
  }
}
layer {
  name: "inception_4e/relu_3x3_reduce"
  type: "ReLU"
  bottom: "inception_4e/3x3_reduce"
  top: "inception_4e/3x3_reduce"
}
layer {
  name: "inception_4e/3x3"
  type: "Convolution"
  bottom: "inception_4e/3x3_reduce"
  top: "inception_4e/3x3"
  param {
    lr_mult: 1
    decay_mult: 1
  }
  param {
    lr_mult: 2
    decay_mult: 0
  }
  convolution_param {
    num_output: 320
    pad: 1
    kernel_size: 3
    weight_filler {
      type: "xavier"
      std: 0.03
    }
    bias_filler {
      type: "constant"
      value: 0.2
    }
  }
}
layer {
  name: "inception_4e/relu_3x3"
  type: "ReLU"
  bottom: "inception_4e/3x3"
  top: "inception_4e/3x3"
}
layer {
  name: "inception_4e/5x5_reduce"
  type: "Convolution"
  bottom: "inception_4d/output"
  top: "inception_4e/5x5_reduce"
  param {
    lr_mult: 1
    decay_mult: 1
  }
  param {
    lr_mult: 2
    decay_mult: 0
  }
  convolution_param {
    num_output: 32
    kernel_size: 1
    weight_filler {
      type: "xavier"
      std: 0.2
    }
    bias_filler {
      type: "constant"
      value: 0.2
    }
  }
}
layer {
  name: "inception_4e/relu_5x5_reduce"
  type: "ReLU"
  bottom: "inception_4e/5x5_reduce"
  top: "inception_4e/5x5_reduce"
}
layer {
  name: "inception_4e/5x5"
  type: "Convolution"
  bottom: "inception_4e/5x5_reduce"
  top: "inception_4e/5x5"
  p
I0403 16:04:18.339038 20687 layer_factory.hpp:77] Creating layer data
I0403 16:04:18.339668 20687 net.cpp:91] Creating Layer data
I0403 16:04:18.339701 20687 net.cpp:399] data -> data
I0403 16:04:18.339753 20687 net.cpp:399] data -> label
I0403 16:04:18.339789 20687 data_transformer.cpp:25] Loading mean file from: /home/mohanty/data/final_dataset/lmdb/color-40-60/mean.binaryproto
I0403 16:04:18.340997 20690 db_lmdb.cpp:38] Opened lmdb /home/mohanty/data/final_dataset/lmdb/color-40-60/test_db
I0403 16:04:18.353729 20687 data_layer.cpp:41] output data size: 24,3,224,224
I0403 16:04:18.384299 20687 net.cpp:141] Setting up data
I0403 16:04:18.384385 20687 net.cpp:148] Top shape: 24 3 224 224 (3612672)
I0403 16:04:18.384408 20687 net.cpp:148] Top shape: 24 (24)
I0403 16:04:18.384423 20687 net.cpp:156] Memory required for data: 14450784
I0403 16:04:18.384451 20687 layer_factory.hpp:77] Creating layer label_data_1_split
I0403 16:04:18.384477 20687 net.cpp:91] Creating Layer label_data_1_split
I0403 16:04:18.384496 20687 net.cpp:425] label_data_1_split <- label
I0403 16:04:18.384528 20687 net.cpp:399] label_data_1_split -> label_data_1_split_0
I0403 16:04:18.384560 20687 net.cpp:399] label_data_1_split -> label_data_1_split_1
I0403 16:04:18.384590 20687 net.cpp:399] label_data_1_split -> label_data_1_split_2
I0403 16:04:18.384613 20687 net.cpp:399] label_data_1_split -> label_data_1_split_3
I0403 16:04:18.384632 20687 net.cpp:399] label_data_1_split -> label_data_1_split_4
I0403 16:04:18.384654 20687 net.cpp:399] label_data_1_split -> label_data_1_split_5
I0403 16:04:18.384673 20687 net.cpp:399] label_data_1_split -> label_data_1_split_6
I0403 16:04:18.384693 20687 net.cpp:399] label_data_1_split -> label_data_1_split_7
I0403 16:04:18.384713 20687 net.cpp:399] label_data_1_split -> label_data_1_split_8
I0403 16:04:18.384733 20687 net.cpp:399] label_data_1_split -> label_data_1_split_9
I0403 16:04:18.384867 20687 net.cpp:141] Setting up label_data_1_split
I0403 16:04:18.384892 20687 net.cpp:148] Top shape: 24 (24)
I0403 16:04:18.384910 20687 net.cpp:148] Top shape: 24 (24)
I0403 16:04:18.384927 20687 net.cpp:148] Top shape: 24 (24)
I0403 16:04:18.384943 20687 net.cpp:148] Top shape: 24 (24)
I0403 16:04:18.384965 20687 net.cpp:148] Top shape: 24 (24)
I0403 16:04:18.384982 20687 net.cpp:148] Top shape: 24 (24)
I0403 16:04:18.384999 20687 net.cpp:148] Top shape: 24 (24)
I0403 16:04:18.385015 20687 net.cpp:148] Top shape: 24 (24)
I0403 16:04:18.385030 20687 net.cpp:148] Top shape: 24 (24)
I0403 16:04:18.385047 20687 net.cpp:148] Top shape: 24 (24)
I0403 16:04:18.385085 20687 net.cpp:156] Memory required for data: 14451744
I0403 16:04:18.385102 20687 layer_factory.hpp:77] Creating layer conv1/7x7_s2
I0403 16:04:18.385134 20687 net.cpp:91] Creating Layer conv1/7x7_s2
I0403 16:04:18.385152 20687 net.cpp:425] conv1/7x7_s2 <- data
I0403 16:04:18.385172 20687 net.cpp:399] conv1/7x7_s2 -> conv1/7x7_s2
I0403 16:04:18.532861 20687 net.cpp:141] Setting up conv1/7x7_s2
I0403 16:04:18.532966 20687 net.cpp:148] Top shape: 24 64 112 112 (19267584)
I0403 16:04:18.532984 20687 net.cpp:156] Memory required for data: 91522080
I0403 16:04:18.533015 20687 layer_factory.hpp:77] Creating layer conv1/relu_7x7
I0403 16:04:18.533041 20687 net.cpp:91] Creating Layer conv1/relu_7x7
I0403 16:04:18.533061 20687 net.cpp:425] conv1/relu_7x7 <- conv1/7x7_s2
I0403 16:04:18.533079 20687 net.cpp:386] conv1/relu_7x7 -> conv1/7x7_s2 (in-place)
I0403 16:04:18.533346 20687 net.cpp:141] Setting up conv1/relu_7x7
I0403 16:04:18.533375 20687 net.cpp:148] Top shape: 24 64 112 112 (19267584)
I0403 16:04:18.533390 20687 net.cpp:156] Memory required for data: 168592416
I0403 16:04:18.533406 20687 layer_factory.hpp:77] Creating layer pool1/3x3_s2
I0403 16:04:18.533430 20687 net.cpp:91] Creating Layer pool1/3x3_s2
I0403 16:04:18.533448 20687 net.cpp:425] pool1/3x3_s2 <- conv1/7x7_s2
I0403 16:04:18.533466 20687 net.cpp:399] pool1/3x3_s2 -> pool1/3x3_s2
I0403 16:04:18.533542 20687 net.cpp:141] Setting up pool1/3x3_s2
I0403 16:04:18.533566 20687 net.cpp:148] Top shape: 24 64 56 56 (4816896)
I0403 16:04:18.533581 20687 net.cpp:156] Memory required for data: 187860000
I0403 16:04:18.533596 20687 layer_factory.hpp:77] Creating layer pool1/norm1
I0403 16:04:18.533620 20687 net.cpp:91] Creating Layer pool1/norm1
I0403 16:04:18.533638 20687 net.cpp:425] pool1/norm1 <- pool1/3x3_s2
I0403 16:04:18.533655 20687 net.cpp:399] pool1/norm1 -> pool1/norm1
I0403 16:04:18.533988 20687 net.cpp:141] Setting up pool1/norm1
I0403 16:04:18.534016 20687 net.cpp:148] Top shape: 24 64 56 56 (4816896)
I0403 16:04:18.534032 20687 net.cpp:156] Memory required for data: 207127584
I0403 16:04:18.534047 20687 layer_factory.hpp:77] Creating layer conv2/3x3_reduce
I0403 16:04:18.534072 20687 net.cpp:91] Creating Layer conv2/3x3_reduce
I0403 16:04:18.534090 20687 net.cpp:425] conv2/3x3_reduce <- pool1/norm1
I0403 16:04:18.534116 20687 net.cpp:399] conv2/3x3_reduce -> conv2/3x3_reduce
I0403 16:04:18.535583 20687 net.cpp:141] Setting up conv2/3x3_reduce
I0403 16:04:18.535612 20687 net.cpp:148] Top shape: 24 64 56 56 (4816896)
I0403 16:04:18.535629 20687 net.cpp:156] Memory required for data: 226395168
I0403 16:04:18.535650 20687 layer_factory.hpp:77] Creating layer conv2/relu_3x3_reduce
I0403 16:04:18.535671 20687 net.cpp:91] Creating Layer conv2/relu_3x3_reduce
I0403 16:04:18.535687 20687 net.cpp:425] conv2/relu_3x3_reduce <- conv2/3x3_reduce
I0403 16:04:18.535706 20687 net.cpp:386] conv2/relu_3x3_reduce -> conv2/3x3_reduce (in-place)
I0403 16:04:18.535989 20687 net.cpp:141] Setting up conv2/relu_3x3_reduce
I0403 16:04:18.536017 20687 net.cpp:148] Top shape: 24 64 56 56 (4816896)
I0403 16:04:18.536032 20687 net.cpp:156] Memory required for data: 245662752
I0403 16:04:18.536047 20687 layer_factory.hpp:77] Creating layer conv2/3x3
I0403 16:04:18.536072 20687 net.cpp:91] Creating Layer conv2/3x3
I0403 16:04:18.536089 20687 net.cpp:425] conv2/3x3 <- conv2/3x3_reduce
I0403 16:04:18.536110 20687 net.cpp:399] conv2/3x3 -> conv2/3x3
I0403 16:04:18.538524 20687 net.cpp:141] Setting up conv2/3x3
I0403 16:04:18.538555 20687 net.cpp:148] Top shape: 24 192 56 56 (14450688)
I0403 16:04:18.538571 20687 net.cpp:156] Memory required for data: 303465504
I0403 16:04:18.538594 20687 layer_factory.hpp:77] Creating layer conv2/relu_3x3
I0403 16:04:18.538614 20687 net.cpp:91] Creating Layer conv2/relu_3x3
I0403 16:04:18.538631 20687 net.cpp:425] conv2/relu_3x3 <- conv2/3x3
I0403 16:04:18.538648 20687 net.cpp:386] conv2/relu_3x3 -> conv2/3x3 (in-place)
I0403 16:04:18.538830 20687 net.cpp:141] Setting up conv2/relu_3x3
I0403 16:04:18.538857 20687 net.cpp:148] Top shape: 24 192 56 56 (14450688)
I0403 16:04:18.538903 20687 net.cpp:156] Memory required for data: 361268256
I0403 16:04:18.538919 20687 layer_factory.hpp:77] Creating layer conv2/norm2
I0403 16:04:18.538972 20687 net.cpp:91] Creating Layer conv2/norm2
I0403 16:04:18.538991 20687 net.cpp:425] conv2/norm2 <- conv2/3x3
I0403 16:04:18.539016 20687 net.cpp:399] conv2/norm2 -> conv2/norm2
I0403 16:04:18.539331 20687 net.cpp:141] Setting up conv2/norm2
I0403 16:04:18.539360 20687 net.cpp:148] Top shape: 24 192 56 56 (14450688)
I0403 16:04:18.539376 20687 net.cpp:156] Memory required for data: 419071008
I0403 16:04:18.539391 20687 layer_factory.hpp:77] Creating layer pool2/3x3_s2
I0403 16:04:18.539409 20687 net.cpp:91] Creating Layer pool2/3x3_s2
I0403 16:04:18.539424 20687 net.cpp:425] pool2/3x3_s2 <- conv2/norm2
I0403 16:04:18.539444 20687 net.cpp:399] pool2/3x3_s2 -> pool2/3x3_s2
I0403 16:04:18.539499 20687 net.cpp:141] Setting up pool2/3x3_s2
I0403 16:04:18.539525 20687 net.cpp:148] Top shape: 24 192 28 28 (3612672)
I0403 16:04:18.539541 20687 net.cpp:156] Memory required for data: 433521696
I0403 16:04:18.539556 20687 layer_factory.hpp:77] Creating layer pool2/3x3_s2_pool2/3x3_s2_0_split
I0403 16:04:18.539573 20687 net.cpp:91] Creating Layer pool2/3x3_s2_pool2/3x3_s2_0_split
I0403 16:04:18.539589 20687 net.cpp:425] pool2/3x3_s2_pool2/3x3_s2_0_split <- pool2/3x3_s2
I0403 16:04:18.539607 20687 net.cpp:399] pool2/3x3_s2_pool2/3x3_s2_0_split -> pool2/3x3_s2_pool2/3x3_s2_0_split_0
I0403 16:04:18.539625 20687 net.cpp:399] pool2/3x3_s2_pool2/3x3_s2_0_split -> pool2/3x3_s2_pool2/3x3_s2_0_split_1
I0403 16:04:18.539647 20687 net.cpp:399] pool2/3x3_s2_pool2/3x3_s2_0_split -> pool2/3x3_s2_pool2/3x3_s2_0_split_2
I0403 16:04:18.539669 20687 net.cpp:399] pool2/3x3_s2_pool2/3x3_s2_0_split -> pool2/3x3_s2_pool2/3x3_s2_0_split_3
I0403 16:04:18.539741 20687 net.cpp:141] Setting up pool2/3x3_s2_pool2/3x3_s2_0_split
I0403 16:04:18.539763 20687 net.cpp:148] Top shape: 24 192 28 28 (3612672)
I0403 16:04:18.539780 20687 net.cpp:148] Top shape: 24 192 28 28 (3612672)
I0403 16:04:18.539795 20687 net.cpp:148] Top shape: 24 192 28 28 (3612672)
I0403 16:04:18.539811 20687 net.cpp:148] Top shape: 24 192 28 28 (3612672)
I0403 16:04:18.539825 20687 net.cpp:156] Memory required for data: 491324448
I0403 16:04:18.539839 20687 layer_factory.hpp:77] Creating layer inception_3a/1x1
I0403 16:04:18.539861 20687 net.cpp:91] Creating Layer inception_3a/1x1
I0403 16:04:18.539878 20687 net.cpp:425] inception_3a/1x1 <- pool2/3x3_s2_pool2/3x3_s2_0_split_0
I0403 16:04:18.539901 20687 net.cpp:399] inception_3a/1x1 -> inception_3a/1x1
I0403 16:04:18.541573 20687 net.cpp:141] Setting up inception_3a/1x1
I0403 16:04:18.541604 20687 net.cpp:148] Top shape: 24 64 28 28 (1204224)
I0403 16:04:18.541621 20687 net.cpp:156] Memory required for data: 496141344
I0403 16:04:18.541640 20687 layer_factory.hpp:77] Creating layer inception_3a/relu_1x1
I0403 16:04:18.541659 20687 net.cpp:91] Creating Layer inception_3a/relu_1x1
I0403 16:04:18.541676 20687 net.cpp:425] inception_3a/relu_1x1 <- inception_3a/1x1
I0403 16:04:18.541697 20687 net.cpp:386] inception_3a/relu_1x1 -> inception_3a/1x1 (in-place)
I0403 16:04:18.541887 20687 net.cpp:141] Setting up inception_3a/relu_1x1
I0403 16:04:18.541914 20687 net.cpp:148] Top shape: 24 64 28 28 (1204224)
I0403 16:04:18.541929 20687 net.cpp:156] Memory required for data: 500958240
I0403 16:04:18.541944 20687 layer_factory.hpp:77] Creating layer inception_3a/3x3_reduce
I0403 16:04:18.541973 20687 net.cpp:91] Creating Layer inception_3a/3x3_reduce
I0403 16:04:18.541992 20687 net.cpp:425] inception_3a/3x3_reduce <- pool2/3x3_s2_pool2/3x3_s2_0_split_1
I0403 16:04:18.542014 20687 net.cpp:399] inception_3a/3x3_reduce -> inception_3a/3x3_reduce
I0403 16:04:18.543805 20687 net.cpp:141] Setting up inception_3a/3x3_reduce
I0403 16:04:18.543834 20687 net.cpp:148] Top shape: 24 96 28 28 (1806336)
I0403 16:04:18.543851 20687 net.cpp:156] Memory required for data: 508183584
I0403 16:04:18.543874 20687 layer_factory.hpp:77] Creating layer inception_3a/relu_3x3_reduce
I0403 16:04:18.543911 20687 net.cpp:91] Creating Layer inception_3a/relu_3x3_reduce
I0403 16:04:18.543931 20687 net.cpp:425] inception_3a/relu_3x3_reduce <- inception_3a/3x3_reduce
I0403 16:04:18.543947 20687 net.cpp:386] inception_3a/relu_3x3_reduce -> inception_3a/3x3_reduce (in-place)
I0403 16:04:18.544139 20687 net.cpp:141] Setting up inception_3a/relu_3x3_reduce
I0403 16:04:18.544168 20687 net.cpp:148] Top shape: 24 96 28 28 (1806336)
I0403 16:04:18.544183 20687 net.cpp:156] Memory required for data: 515408928
I0403 16:04:18.544198 20687 layer_factory.hpp:77] Creating layer inception_3a/3x3
I0403 16:04:18.544222 20687 net.cpp:91] Creating Layer inception_3a/3x3
I0403 16:04:18.544241 20687 net.cpp:425] inception_3a/3x3 <- inception_3a/3x3_reduce
I0403 16:04:18.544265 20687 net.cpp:399] inception_3a/3x3 -> inception_3a/3x3
I0403 16:04:18.545964 20687 net.cpp:141] Setting up inception_3a/3x3
I0403 16:04:18.545994 20687 net.cpp:148] Top shape: 24 128 28 28 (2408448)
I0403 16:04:18.546010 20687 net.cpp:156] Memory required for data: 525042720
I0403 16:04:18.546027 20687 layer_factory.hpp:77] Creating layer inception_3a/relu_3x3
I0403 16:04:18.546047 20687 net.cpp:91] Creating Layer inception_3a/relu_3x3
I0403 16:04:18.546064 20687 net.cpp:425] inception_3a/relu_3x3 <- inception_3a/3x3
I0403 16:04:18.546082 20687 net.cpp:386] inception_3a/relu_3x3 -> inception_3a/3x3 (in-place)
I0403 16:04:18.546373 20687 net.cpp:141] Setting up inception_3a/relu_3x3
I0403 16:04:18.546401 20687 net.cpp:148] Top shape: 24 128 28 28 (2408448)
I0403 16:04:18.546416 20687 net.cpp:156] Memory required for data: 534676512
I0403 16:04:18.546430 20687 layer_factory.hpp:77] Creating layer inception_3a/5x5_reduce
I0403 16:04:18.546452 20687 net.cpp:91] Creating Layer inception_3a/5x5_reduce
I0403 16:04:18.546470 20687 net.cpp:425] inception_3a/5x5_reduce <- pool2/3x3_s2_pool2/3x3_s2_0_split_2
I0403 16:04:18.546491 20687 net.cpp:399] inception_3a/5x5_reduce -> inception_3a/5x5_reduce
I0403 16:04:18.547497 20687 net.cpp:141] Setting up inception_3a/5x5_reduce
I0403 16:04:18.547525 20687 net.cpp:148] Top shape: 24 16 28 28 (301056)
I0403 16:04:18.547541 20687 net.cpp:156] Memory required for data: 535880736
I0403 16:04:18.547559 20687 layer_factory.hpp:77] Creating layer inception_3a/relu_5x5_reduce
I0403 16:04:18.547580 20687 net.cpp:91] Creating Layer inception_3a/relu_5x5_reduce
I0403 16:04:18.547597 20687 net.cpp:425] inception_3a/relu_5x5_reduce <- inception_3a/5x5_reduce
I0403 16:04:18.547616 20687 net.cpp:386] inception_3a/relu_5x5_reduce -> inception_3a/5x5_reduce (in-place)
I0403 16:04:18.547937 20687 net.cpp:141] Setting up inception_3a/relu_5x5_reduce
I0403 16:04:18.547971 20687 net.cpp:148] Top shape: 24 16 28 28 (301056)
I0403 16:04:18.547988 20687 net.cpp:156] Memory required for data: 537084960
I0403 16:04:18.548003 20687 layer_factory.hpp:77] Creating layer inception_3a/5x5
I0403 16:04:18.548027 20687 net.cpp:91] Creating Layer inception_3a/5x5
I0403 16:04:18.548043 20687 net.cpp:425] inception_3a/5x5 <- inception_3a/5x5_reduce
I0403 16:04:18.548063 20687 net.cpp:399] inception_3a/5x5 -> inception_3a/5x5
I0403 16:04:18.549118 20687 net.cpp:141] Setting up inception_3a/5x5
I0403 16:04:18.549146 20687 net.cpp:148] Top shape: 24 32 28 28 (602112)
I0403 16:04:18.549162 20687 net.cpp:156] Memory required for data: 539493408
I0403 16:04:18.549180 20687 layer_factory.hpp:77] Creating layer inception_3a/relu_5x5
I0403 16:04:18.549201 20687 net.cpp:91] Creating Layer inception_3a/relu_5x5
I0403 16:04:18.549219 20687 net.cpp:425] inception_3a/relu_5x5 <- inception_3a/5x5
I0403 16:04:18.549237 20687 net.cpp:386] inception_3a/relu_5x5 -> inception_3a/5x5 (in-place)
I0403 16:04:18.549413 20687 net.cpp:141] Setting up inception_3a/relu_5x5
I0403 16:04:18.549439 20687 net.cpp:148] Top shape: 24 32 28 28 (602112)
I0403 16:04:18.549458 20687 net.cpp:156] Memory required for data: 541901856
I0403 16:04:18.549473 20687 layer_factory.hpp:77] Creating layer inception_3a/pool
I0403 16:04:18.549489 20687 net.cpp:91] Creating Layer inception_3a/pool
I0403 16:04:18.549504 20687 net.cpp:425] inception_3a/pool <- pool2/3x3_s2_pool2/3x3_s2_0_split_3
I0403 16:04:18.549537 20687 net.cpp:399] inception_3a/pool -> inception_3a/pool
I0403 16:04:18.549598 20687 net.cpp:141] Setting up inception_3a/pool
I0403 16:04:18.549623 20687 net.cpp:148] Top shape: 24 192 28 28 (3612672)
I0403 16:04:18.549638 20687 net.cpp:156] Memory required for data: 556352544
I0403 16:04:18.549652 20687 layer_factory.hpp:77] Creating layer inception_3a/pool_proj
I0403 16:04:18.549674 20687 net.cpp:91] Creating Layer inception_3a/pool_proj
I0403 16:04:18.549692 20687 net.cpp:425] inception_3a/pool_proj <- inception_3a/pool
I0403 16:04:18.549715 20687 net.cpp:399] inception_3a/pool_proj -> inception_3a/pool_proj
I0403 16:04:18.550717 20687 net.cpp:141] Setting up inception_3a/pool_proj
I0403 16:04:18.550745 20687 net.cpp:148] Top shape: 24 32 28 28 (602112)
I0403 16:04:18.550761 20687 net.cpp:156] Memory required for data: 558760992
I0403 16:04:18.550783 20687 layer_factory.hpp:77] Creating layer inception_3a/relu_pool_proj
I0403 16:04:18.550804 20687 net.cpp:91] Creating Layer inception_3a/relu_pool_proj
I0403 16:04:18.550822 20687 net.cpp:425] inception_3a/relu_pool_proj <- inception_3a/pool_proj
I0403 16:04:18.550838 20687 net.cpp:386] inception_3a/relu_pool_proj -> inception_3a/pool_proj (in-place)
I0403 16:04:18.551177 20687 net.cpp:141] Setting up inception_3a/relu_pool_proj
I0403 16:04:18.551205 20687 net.cpp:148] Top shape: 24 32 28 28 (602112)
I0403 16:04:18.551220 20687 net.cpp:156] Memory required for data: 561169440
I0403 16:04:18.551235 20687 layer_factory.hpp:77] Creating layer inception_3a/output
I0403 16:04:18.551254 20687 net.cpp:91] Creating Layer inception_3a/output
I0403 16:04:18.551268 20687 net.cpp:425] inception_3a/output <- inception_3a/1x1
I0403 16:04:18.551285 20687 net.cpp:425] inception_3a/output <- inception_3a/3x3
I0403 16:04:18.551301 20687 net.cpp:425] inception_3a/output <- inception_3a/5x5
I0403 16:04:18.551317 20687 net.cpp:425] inception_3a/output <- inception_3a/pool_proj
I0403 16:04:18.551337 20687 net.cpp:399] inception_3a/output -> inception_3a/output
I0403 16:04:18.551388 20687 net.cpp:141] Setting up inception_3a/output
I0403 16:04:18.551411 20687 net.cpp:148] Top shape: 24 256 28 28 (4816896)
I0403 16:04:18.551426 20687 net.cpp:156] Memory required for data: 580437024
I0403 16:04:18.551440 20687 layer_factory.hpp:77] Creating layer inception_3a/output_inception_3a/output_0_split
I0403 16:04:18.551456 20687 net.cpp:91] Creating Layer inception_3a/output_inception_3a/output_0_split
I0403 16:04:18.551471 20687 net.cpp:425] inception_3a/output_inception_3a/output_0_split <- inception_3a/output
I0403 16:04:18.551493 20687 net.cpp:399] inception_3a/output_inception_3a/output_0_split -> inception_3a/output_inception_3a/output_0_split_0
I0403 16:04:18.551514 20687 net.cpp:399] inception_3a/output_inception_3a/output_0_split -> inception_3a/output_inception_3a/output_0_split_1
I0403 16:04:18.551537 20687 net.cpp:399] inception_3a/output_inception_3a/output_0_split -> inception_3a/output_inception_3a/output_0_split_2
I0403 16:04:18.551561 20687 net.cpp:399] inception_3a/output_inception_3a/output_0_split -> inception_3a/output_inception_3a/output_0_split_3
I0403 16:04:18.551638 20687 net.cpp:141] Setting up inception_3a/output_inception_3a/output_0_split
I0403 16:04:18.551662 20687 net.cpp:148] Top shape: 24 256 28 28 (4816896)
I0403 16:04:18.551679 20687 net.cpp:148] Top shape: 24 256 28 28 (4816896)
I0403 16:04:18.551694 20687 net.cpp:148] Top shape: 24 256 28 28 (4816896)
I0403 16:04:18.551710 20687 net.cpp:148] Top shape: 24 256 28 28 (4816896)
I0403 16:04:18.551724 20687 net.cpp:156] Memory required for data: 657507360
I0403 16:04:18.551738 20687 layer_factory.hpp:77] Creating layer inception_3b/1x1
I0403 16:04:18.551762 20687 net.cpp:91] Creating Layer inception_3b/1x1
I0403 16:04:18.551779 20687 net.cpp:425] inception_3b/1x1 <- inception_3a/output_inception_3a/output_0_split_0
I0403 16:04:18.551800 20687 net.cpp:399] inception_3b/1x1 -> inception_3b/1x1
I0403 16:04:18.552973 20687 net.cpp:141] Setting up inception_3b/1x1
I0403 16:04:18.553014 20687 net.cpp:148] Top shape: 24 128 28 28 (2408448)
I0403 16:04:18.553030 20687 net.cpp:156] Memory required for data: 667141152
I0403 16:04:18.553050 20687 layer_factory.hpp:77] Creating layer inception_3b/relu_1x1
I0403 16:04:18.553068 20687 net.cpp:91] Creating Layer inception_3b/relu_1x1
I0403 16:04:18.553084 20687 net.cpp:425] inception_3b/relu_1x1 <- inception_3b/1x1
I0403 16:04:18.553105 20687 net.cpp:386] inception_3b/relu_1x1 -> inception_3b/1x1 (in-place)
I0403 16:04:18.553290 20687 net.cpp:141] Setting up inception_3b/relu_1x1
I0403 16:04:18.553315 20687 net.cpp:148] Top shape: 24 128 28 28 (2408448)
I0403 16:04:18.553330 20687 net.cpp:156] Memory required for data: 676774944
I0403 16:04:18.553344 20687 layer_factory.hpp:77] Creating layer inception_3b/3x3_reduce
I0403 16:04:18.553366 20687 net.cpp:91] Creating Layer inception_3b/3x3_reduce
I0403 16:04:18.553383 20687 net.cpp:425] inception_3b/3x3_reduce <- inception_3a/output_inception_3a/output_0_split_1
I0403 16:04:18.553406 20687 net.cpp:399] inception_3b/3x3_reduce -> inception_3b/3x3_reduce
I0403 16:04:18.554653 20687 net.cpp:141] Setting up inception_3b/3x3_reduce
I0403 16:04:18.554682 20687 net.cpp:148] Top shape: 24 128 28 28 (2408448)
I0403 16:04:18.554698 20687 net.cpp:156] Memory required for data: 686408736
I0403 16:04:18.554716 20687 layer_factory.hpp:77] Creating layer inception_3b/relu_3x3_reduce
I0403 16:04:18.554734 20687 net.cpp:91] Creating Layer inception_3b/relu_3x3_reduce
I0403 16:04:18.554750 20687 net.cpp:425] inception_3b/relu_3x3_reduce <- inception_3b/3x3_reduce
I0403 16:04:18.554769 20687 net.cpp:386] inception_3b/relu_3x3_reduce -> inception_3b/3x3_reduce (in-place)
I0403 16:04:18.554945 20687 net.cpp:141] Setting up inception_3b/relu_3x3_reduce
I0403 16:04:18.554975 20687 net.cpp:148] Top shape: 24 128 28 28 (2408448)
I0403 16:04:18.554991 20687 net.cpp:156] Memory required for data: 696042528
I0403 16:04:18.555006 20687 layer_factory.hpp:77] Creating layer inception_3b/3x3
I0403 16:04:18.555032 20687 net.cpp:91] Creating Layer inception_3b/3x3
I0403 16:04:18.555050 20687 net.cpp:425] inception_3b/3x3 <- inception_3b/3x3_reduce
I0403 16:04:18.555070 20687 net.cpp:399] inception_3b/3x3 -> inception_3b/3x3
I0403 16:04:18.558050 20687 net.cpp:141] Setting up inception_3b/3x3
I0403 16:04:18.558080 20687 net.cpp:148] Top shape: 24 192 28 28 (3612672)
I0403 16:04:18.558096 20687 net.cpp:156] Memory required for data: 710493216
I0403 16:04:18.558115 20687 layer_factory.hpp:77] Creating layer inception_3b/relu_3x3
I0403 16:04:18.558135 20687 net.cpp:91] Creating Layer inception_3b/relu_3x3
I0403 16:04:18.558152 20687 net.cpp:425] inception_3b/relu_3x3 <- inception_3b/3x3
I0403 16:04:18.558171 20687 net.cpp:386] inception_3b/relu_3x3 -> inception_3b/3x3 (in-place)
I0403 16:04:18.558450 20687 net.cpp:141] Setting up inception_3b/relu_3x3
I0403 16:04:18.558478 20687 net.cpp:148] Top shape: 24 192 28 28 (3612672)
I0403 16:04:18.558493 20687 net.cpp:156] Memory required for data: 724943904
I0403 16:04:18.558507 20687 layer_factory.hpp:77] Creating layer inception_3b/5x5_reduce
I0403 16:04:18.558531 20687 net.cpp:91] Creating Layer inception_3b/5x5_reduce
I0403 16:04:18.558548 20687 net.cpp:425] inception_3b/5x5_reduce <- inception_3a/output_inception_3a/output_0_split_2
I0403 16:04:18.558570 20687 net.cpp:399] inception_3b/5x5_reduce -> inception_3b/5x5_reduce
I0403 16:04:18.559599 20687 net.cpp:141] Setting up inception_3b/5x5_reduce
I0403 16:04:18.559628 20687 net.cpp:148] Top shape: 24 32 28 28 (602112)
I0403 16:04:18.559644 20687 net.cpp:156] Memory required for data: 727352352
I0403 16:04:18.559664 20687 layer_factory.hpp:77] Creating layer inception_3b/relu_5x5_reduce
I0403 16:04:18.559684 20687 net.cpp:91] Creating Layer inception_3b/relu_5x5_reduce
I0403 16:04:18.559700 20687 net.cpp:425] inception_3b/relu_5x5_reduce <- inception_3b/5x5_reduce
I0403 16:04:18.559718 20687 net.cpp:386] inception_3b/relu_5x5_reduce -> inception_3b/5x5_reduce (in-place)
I0403 16:04:18.559902 20687 net.cpp:141] Setting up inception_3b/relu_5x5_reduce
I0403 16:04:18.559943 20687 net.cpp:148] Top shape: 24 32 28 28 (602112)
I0403 16:04:18.559964 20687 net.cpp:156] Memory required for data: 729760800
I0403 16:04:18.559980 20687 layer_factory.hpp:77] Creating layer inception_3b/5x5
I0403 16:04:18.560001 20687 net.cpp:91] Creating Layer inception_3b/5x5
I0403 16:04:18.560019 20687 net.cpp:425] inception_3b/5x5 <- inception_3b/5x5_reduce
I0403 16:04:18.560039 20687 net.cpp:399] inception_3b/5x5 -> inception_3b/5x5
I0403 16:04:18.562111 20687 net.cpp:141] Setting up inception_3b/5x5
I0403 16:04:18.562140 20687 net.cpp:148] Top shape: 24 96 28 28 (1806336)
I0403 16:04:18.562156 20687 net.cpp:156] Memory required for data: 736986144
I0403 16:04:18.562175 20687 layer_factory.hpp:77] Creating layer inception_3b/relu_5x5
I0403 16:04:18.562193 20687 net.cpp:91] Creating Layer inception_3b/relu_5x5
I0403 16:04:18.562209 20687 net.cpp:425] inception_3b/relu_5x5 <- inception_3b/5x5
I0403 16:04:18.562229 20687 net.cpp:386] inception_3b/relu_5x5 -> inception_3b/5x5 (in-place)
I0403 16:04:18.562427 20687 net.cpp:141] Setting up inception_3b/relu_5x5
I0403 16:04:18.562454 20687 net.cpp:148] Top shape: 24 96 28 28 (1806336)
I0403 16:04:18.562469 20687 net.cpp:156] Memory required for data: 744211488
I0403 16:04:18.562484 20687 layer_factory.hpp:77] Creating layer inception_3b/pool
I0403 16:04:18.562501 20687 net.cpp:91] Creating Layer inception_3b/pool
I0403 16:04:18.562517 20687 net.cpp:425] inception_3b/pool <- inception_3a/output_inception_3a/output_0_split_3
I0403 16:04:18.562536 20687 net.cpp:399] inception_3b/pool -> inception_3b/pool
I0403 16:04:18.562593 20687 net.cpp:141] Setting up inception_3b/pool
I0403 16:04:18.562616 20687 net.cpp:148] Top shape: 24 256 28 28 (4816896)
I0403 16:04:18.562630 20687 net.cpp:156] Memory required for data: 763479072
I0403 16:04:18.562645 20687 layer_factory.hpp:77] Creating layer inception_3b/pool_proj
I0403 16:04:18.562667 20687 net.cpp:91] Creating Layer inception_3b/pool_proj
I0403 16:04:18.562685 20687 net.cpp:425] inception_3b/pool_proj <- inception_3b/pool
I0403 16:04:18.562705 20687 net.cpp:399] inception_3b/pool_proj -> inception_3b/pool_proj
I0403 16:04:18.563812 20687 net.cpp:141] Setting up inception_3b/pool_proj
I0403 16:04:18.563843 20687 net.cpp:148] Top shape: 24 64 28 28 (1204224)
I0403 16:04:18.563859 20687 net.cpp:156] Memory required for data: 768295968
I0403 16:04:18.563879 20687 layer_factory.hpp:77] Creating layer inception_3b/relu_pool_proj
I0403 16:04:18.563896 20687 net.cpp:91] Creating Layer inception_3b/relu_pool_proj
I0403 16:04:18.563911 20687 net.cpp:425] inception_3b/relu_pool_proj <- inception_3b/pool_proj
I0403 16:04:18.563930 20687 net.cpp:386] inception_3b/relu_pool_proj -> inception_3b/pool_proj (in-place)
I0403 16:04:18.564340 20687 net.cpp:141] Setting up inception_3b/relu_pool_proj
I0403 16:04:18.564368 20687 net.cpp:148] Top shape: 24 64 28 28 (1204224)
I0403 16:04:18.564383 20687 net.cpp:156] Memory required for data: 773112864
I0403 16:04:18.564399 20687 layer_factory.hpp:77] Creating layer inception_3b/output
I0403 16:04:18.564417 20687 net.cpp:91] Creating Layer inception_3b/output
I0403 16:04:18.564435 20687 net.cpp:425] inception_3b/output <- inception_3b/1x1
I0403 16:04:18.564450 20687 net.cpp:425] inception_3b/output <- inception_3b/3x3
I0403 16:04:18.564467 20687 net.cpp:425] inception_3b/output <- inception_3b/5x5
I0403 16:04:18.564482 20687 net.cpp:425] inception_3b/output <- inception_3b/pool_proj
I0403 16:04:18.564501 20687 net.cpp:399] inception_3b/output -> inception_3b/output
I0403 16:04:18.564546 20687 net.cpp:141] Setting up inception_3b/output
I0403 16:04:18.564570 20687 net.cpp:148] Top shape: 24 480 28 28 (9031680)
I0403 16:04:18.564584 20687 net.cpp:156] Memory required for data: 809239584
I0403 16:04:18.564599 20687 layer_factory.hpp:77] Creating layer pool3/3x3_s2
I0403 16:04:18.564616 20687 net.cpp:91] Creating Layer pool3/3x3_s2
I0403 16:04:18.564631 20687 net.cpp:425] pool3/3x3_s2 <- inception_3b/output
I0403 16:04:18.564651 20687 net.cpp:399] pool3/3x3_s2 -> pool3/3x3_s2
I0403 16:04:18.564725 20687 net.cpp:141] Setting up pool3/3x3_s2
I0403 16:04:18.564749 20687 net.cpp:148] Top shape: 24 480 14 14 (2257920)
I0403 16:04:18.564764 20687 net.cpp:156] Memory required for data: 818271264
I0403 16:04:18.564779 20687 layer_factory.hpp:77] Creating layer pool3/3x3_s2_pool3/3x3_s2_0_split
I0403 16:04:18.564797 20687 net.cpp:91] Creating Layer pool3/3x3_s2_pool3/3x3_s2_0_split
I0403 16:04:18.564813 20687 net.cpp:425] pool3/3x3_s2_pool3/3x3_s2_0_split <- pool3/3x3_s2
I0403 16:04:18.564833 20687 net.cpp:399] pool3/3x3_s2_pool3/3x3_s2_0_split -> pool3/3x3_s2_pool3/3x3_s2_0_split_0
I0403 16:04:18.564854 20687 net.cpp:399] pool3/3x3_s2_pool3/3x3_s2_0_split -> pool3/3x3_s2_pool3/3x3_s2_0_split_1
I0403 16:04:18.564873 20687 net.cpp:399] pool3/3x3_s2_pool3/3x3_s2_0_split -> pool3/3x3_s2_pool3/3x3_s2_0_split_2
I0403 16:04:18.564893 20687 net.cpp:399] pool3/3x3_s2_pool3/3x3_s2_0_split -> pool3/3x3_s2_pool3/3x3_s2_0_split_3
I0403 16:04:18.564975 20687 net.cpp:141] Setting up pool3/3x3_s2_pool3/3x3_s2_0_split
I0403 16:04:18.565001 20687 net.cpp:148] Top shape: 24 480 14 14 (2257920)
I0403 16:04:18.565019 20687 net.cpp:148] Top shape: 24 480 14 14 (2257920)
I0403 16:04:18.565035 20687 net.cpp:148] Top shape: 24 480 14 14 (2257920)
I0403 16:04:18.565050 20687 net.cpp:148] Top shape: 24 480 14 14 (2257920)
I0403 16:04:18.565064 20687 net.cpp:156] Memory required for data: 854397984
I0403 16:04:18.565078 20687 layer_factory.hpp:77] Creating layer inception_4a/1x1
I0403 16:04:18.565100 20687 net.cpp:91] Creating Layer inception_4a/1x1
I0403 16:04:18.565117 20687 net.cpp:425] inception_4a/1x1 <- pool3/3x3_s2_pool3/3x3_s2_0_split_0
I0403 16:04:18.565137 20687 net.cpp:399] inception_4a/1x1 -> inception_4a/1x1
I0403 16:04:18.566833 20687 net.cpp:141] Setting up inception_4a/1x1
I0403 16:04:18.566864 20687 net.cpp:148] Top shape: 24 192 14 14 (903168)
I0403 16:04:18.566880 20687 net.cpp:156] Memory required for data: 858010656
I0403 16:04:18.566900 20687 layer_factory.hpp:77] Creating layer inception_4a/relu_1x1
I0403 16:04:18.566917 20687 net.cpp:91] Creating Layer inception_4a/relu_1x1
I0403 16:04:18.566934 20687 net.cpp:425] inception_4a/relu_1x1 <- inception_4a/1x1
I0403 16:04:18.566951 20687 net.cpp:386] inception_4a/relu_1x1 -> inception_4a/1x1 (in-place)
I0403 16:04:18.567142 20687 net.cpp:141] Setting up inception_4a/relu_1x1
I0403 16:04:18.567168 20687 net.cpp:148] Top shape: 24 192 14 14 (903168)
I0403 16:04:18.567183 20687 net.cpp:156] Memory required for data: 861623328
I0403 16:04:18.567198 20687 layer_factory.hpp:77] Creating layer inception_4a/3x3_reduce
I0403 16:04:18.567221 20687 net.cpp:91] Creating Layer inception_4a/3x3_reduce
I0403 16:04:18.567239 20687 net.cpp:425] inception_4a/3x3_reduce <- pool3/3x3_s2_pool3/3x3_s2_0_split_1
I0403 16:04:18.567261 20687 net.cpp:399] inception_4a/3x3_reduce -> inception_4a/3x3_reduce
I0403 16:04:18.568598 20687 net.cpp:141] Setting up inception_4a/3x3_reduce
I0403 16:04:18.568629 20687 net.cpp:148] Top shape: 24 96 14 14 (451584)
I0403 16:04:18.568646 20687 net.cpp:156] Memory required for data: 863429664
I0403 16:04:18.568671 20687 layer_factory.hpp:77] Creating layer inception_4a/relu_3x3_reduce
I0403 16:04:18.568691 20687 net.cpp:91] Creating Layer inception_4a/relu_3x3_reduce
I0403 16:04:18.568707 20687 net.cpp:425] inception_4a/relu_3x3_reduce <- inception_4a/3x3_reduce
I0403 16:04:18.568725 20687 net.cpp:386] inception_4a/relu_3x3_reduce -> inception_4a/3x3_reduce (in-place)
I0403 16:04:18.568907 20687 net.cpp:141] Setting up inception_4a/relu_3x3_reduce
I0403 16:04:18.568934 20687 net.cpp:148] Top shape: 24 96 14 14 (451584)
I0403 16:04:18.568950 20687 net.cpp:156] Memory required for data: 865236000
I0403 16:04:18.568979 20687 layer_factory.hpp:77] Creating layer inception_4a/3x3
I0403 16:04:18.569001 20687 net.cpp:91] Creating Layer inception_4a/3x3
I0403 16:04:18.569020 20687 net.cpp:425] inception_4a/3x3 <- inception_4a/3x3_reduce
I0403 16:04:18.569041 20687 net.cpp:399] inception_4a/3x3 -> inception_4a/3x3
I0403 16:04:18.571779 20687 net.cpp:141] Setting up inception_4a/3x3
I0403 16:04:18.571807 20687 net.cpp:148] Top shape: 24 208 14 14 (978432)
I0403 16:04:18.571823 20687 net.cpp:156] Memory required for data: 869149728
I0403 16:04:18.571842 20687 layer_factory.hpp:77] Creating layer inception_4a/relu_3x3
I0403 16:04:18.571861 20687 net.cpp:91] Creating Layer inception_4a/relu_3x3
I0403 16:04:18.571876 20687 net.cpp:425] inception_4a/relu_3x3 <- inception_4a/3x3
I0403 16:04:18.571895 20687 net.cpp:386] inception_4a/relu_3x3 -> inception_4a/3x3 (in-place)
I0403 16:04:18.572190 20687 net.cpp:141] Setting up inception_4a/relu_3x3
I0403 16:04:18.572216 20687 net.cpp:148] Top shape: 24 208 14 14 (978432)
I0403 16:04:18.572232 20687 net.cpp:156] Memory required for data: 873063456
I0403 16:04:18.572248 20687 layer_factory.hpp:77] Creating layer inception_4a/5x5_reduce
I0403 16:04:18.572270 20687 net.cpp:91] Creating Layer inception_4a/5x5_reduce
I0403 16:04:18.572288 20687 net.cpp:425] inception_4a/5x5_reduce <- pool3/3x3_s2_pool3/3x3_s2_0_split_2
I0403 16:04:18.572309 20687 net.cpp:399] inception_4a/5x5_reduce -> inception_4a/5x5_reduce
I0403 16:04:18.573395 20687 net.cpp:141] Setting up inception_4a/5x5_reduce
I0403 16:04:18.573423 20687 net.cpp:148] Top shape: 24 16 14 14 (75264)
I0403 16:04:18.573441 20687 net.cpp:156] Memory required for data: 873364512
I0403 16:04:18.573458 20687 layer_factory.hpp:77] Creating layer inception_4a/relu_5x5_reduce
I0403 16:04:18.573478 20687 net.cpp:91] Creating Layer inception_4a/relu_5x5_reduce
I0403 16:04:18.573495 20687 net.cpp:425] inception_4a/relu_5x5_reduce <- inception_4a/5x5_reduce
I0403 16:04:18.573513 20687 net.cpp:386] inception_4a/relu_5x5_reduce -> inception_4a/5x5_reduce (in-place)
I0403 16:04:18.573693 20687 net.cpp:141] Setting up inception_4a/relu_5x5_reduce
I0403 16:04:18.573719 20687 net.cpp:148] Top shape: 24 16 14 14 (75264)
I0403 16:04:18.573740 20687 net.cpp:156] Memory required for data: 873665568
I0403 16:04:18.573755 20687 layer_factory.hpp:77] Creating layer inception_4a/5x5
I0403 16:04:18.573775 20687 net.cpp:91] Creating Layer inception_4a/5x5
I0403 16:04:18.573791 20687 net.cpp:425] inception_4a/5x5 <- inception_4a/5x5_reduce
I0403 16:04:18.573812 20687 net.cpp:399] inception_4a/5x5 -> inception_4a/5x5
I0403 16:04:18.574940 20687 net.cpp:141] Setting up inception_4a/5x5
I0403 16:04:18.574988 20687 net.cpp:148] Top shape: 24 48 14 14 (225792)
I0403 16:04:18.575006 20687 net.cpp:156] Memory required for data: 874568736
I0403 16:04:18.575024 20687 layer_factory.hpp:77] Creating layer inception_4a/relu_5x5
I0403 16:04:18.575047 20687 net.cpp:91] Creating Layer inception_4a/relu_5x5
I0403 16:04:18.575063 20687 net.cpp:425] inception_4a/relu_5x5 <- inception_4a/5x5
I0403 16:04:18.575081 20687 net.cpp:386] inception_4a/relu_5x5 -> inception_4a/5x5 (in-place)
I0403 16:04:18.575271 20687 net.cpp:141] Setting up inception_4a/relu_5x5
I0403 16:04:18.575297 20687 net.cpp:148] Top shape: 24 48 14 14 (225792)
I0403 16:04:18.575314 20687 net.cpp:156] Memory required for data: 875471904
I0403 16:04:18.575328 20687 layer_factory.hpp:77] Creating layer inception_4a/pool
I0403 16:04:18.575346 20687 net.cpp:91] Creating Layer inception_4a/pool
I0403 16:04:18.575363 20687 net.cpp:425] inception_4a/pool <- pool3/3x3_s2_pool3/3x3_s2_0_split_3
I0403 16:04:18.575384 20687 net.cpp:399] inception_4a/pool -> inception_4a/pool
I0403 16:04:18.575449 20687 net.cpp:141] Setting up inception_4a/pool
I0403 16:04:18.575474 20687 net.cpp:148] Top shape: 24 480 14 14 (2257920)
I0403 16:04:18.575489 20687 net.cpp:156] Memory required for data: 884503584
I0403 16:04:18.575505 20687 layer_factory.hpp:77] Creating layer inception_4a/pool_proj
I0403 16:04:18.575528 20687 net.cpp:91] Creating Layer inception_4a/pool_proj
I0403 16:04:18.575547 20687 net.cpp:425] inception_4a/pool_proj <- inception_4a/pool
I0403 16:04:18.575567 20687 net.cpp:399] inception_4a/pool_proj -> inception_4a/pool_proj
I0403 16:04:18.576822 20687 net.cpp:141] Setting up inception_4a/pool_proj
I0403 16:04:18.576853 20687 net.cpp:148] Top shape: 24 64 14 14 (301056)
I0403 16:04:18.576885 20687 net.cpp:156] Memory required for data: 885707808
I0403 16:04:18.576905 20687 layer_factory.hpp:77] Creating layer inception_4a/relu_pool_proj
I0403 16:04:18.576925 20687 net.cpp:91] Creating Layer inception_4a/relu_pool_proj
I0403 16:04:18.576941 20687 net.cpp:425] inception_4a/relu_pool_proj <- inception_4a/pool_proj
I0403 16:04:18.576978 20687 net.cpp:386] inception_4a/relu_pool_proj -> inception_4a/pool_proj (in-place)
I0403 16:04:18.577288 20687 net.cpp:141] Setting up inception_4a/relu_pool_proj
I0403 16:04:18.577318 20687 net.cpp:148] Top shape: 24 64 14 14 (301056)
I0403 16:04:18.577335 20687 net.cpp:156] Memory required for data: 886912032
I0403 16:04:18.577350 20687 layer_factory.hpp:77] Creating layer inception_4a/output
I0403 16:04:18.577368 20687 net.cpp:91] Creating Layer inception_4a/output
I0403 16:04:18.577384 20687 net.cpp:425] inception_4a/output <- inception_4a/1x1
I0403 16:04:18.577402 20687 net.cpp:425] inception_4a/output <- inception_4a/3x3
I0403 16:04:18.577419 20687 net.cpp:425] inception_4a/output <- inception_4a/5x5
I0403 16:04:18.577436 20687 net.cpp:425] inception_4a/output <- inception_4a/pool_proj
I0403 16:04:18.577453 20687 net.cpp:399] inception_4a/output -> inception_4a/output
I0403 16:04:18.577502 20687 net.cpp:141] Setting up inception_4a/output
I0403 16:04:18.577527 20687 net.cpp:148] Top shape: 24 512 14 14 (2408448)
I0403 16:04:18.577541 20687 net.cpp:156] Memory required for data: 896545824
I0403 16:04:18.577556 20687 layer_factory.hpp:77] Creating layer inception_4a/output_inception_4a/output_0_split
I0403 16:04:18.577577 20687 net.cpp:91] Creating Layer inception_4a/output_inception_4a/output_0_split
I0403 16:04:18.577594 20687 net.cpp:425] inception_4a/output_inception_4a/output_0_split <- inception_4a/output
I0403 16:04:18.577613 20687 net.cpp:399] inception_4a/output_inception_4a/output_0_split -> inception_4a/output_inception_4a/output_0_split_0
I0403 16:04:18.577635 20687 net.cpp:399] inception_4a/output_inception_4a/output_0_split -> inception_4a/output_inception_4a/output_0_split_1
I0403 16:04:18.577658 20687 net.cpp:399] inception_4a/output_inception_4a/output_0_split -> inception_4a/output_inception_4a/output_0_split_2
I0403 16:04:18.577682 20687 net.cpp:399] inception_4a/output_inception_4a/output_0_split -> inception_4a/output_inception_4a/output_0_split_3
I0403 16:04:18.577702 20687 net.cpp:399] inception_4a/output_inception_4a/output_0_split -> inception_4a/output_inception_4a/output_0_split_4
I0403 16:04:18.577802 20687 net.cpp:141] Setting up inception_4a/output_inception_4a/output_0_split
I0403 16:04:18.577827 20687 net.cpp:148] Top shape: 24 512 14 14 (2408448)
I0403 16:04:18.577844 20687 net.cpp:148] Top shape: 24 512 14 14 (2408448)
I0403 16:04:18.577860 20687 net.cpp:148] Top shape: 24 512 14 14 (2408448)
I0403 16:04:18.577877 20687 net.cpp:148] Top shape: 24 512 14 14 (2408448)
I0403 16:04:18.577893 20687 net.cpp:148] Top shape: 24 512 14 14 (2408448)
I0403 16:04:18.577906 20687 net.cpp:156] Memory required for data: 944714784
I0403 16:04:18.577921 20687 layer_factory.hpp:77] Creating layer loss1/ave_pool
I0403 16:04:18.577941 20687 net.cpp:91] Creating Layer loss1/ave_pool
I0403 16:04:18.577962 20687 net.cpp:425] loss1/ave_pool <- inception_4a/output_inception_4a/output_0_split_0
I0403 16:04:18.577986 20687 net.cpp:399] loss1/ave_pool -> loss1/ave_pool
I0403 16:04:18.578205 20687 net.cpp:141] Setting up loss1/ave_pool
I0403 16:04:18.578234 20687 net.cpp:148] Top shape: 24 512 4 4 (196608)
I0403 16:04:18.578253 20687 net.cpp:156] Memory required for data: 945501216
I0403 16:04:18.578269 20687 layer_factory.hpp:77] Creating layer loss1/conv
I0403 16:04:18.578291 20687 net.cpp:91] Creating Layer loss1/conv
I0403 16:04:18.578310 20687 net.cpp:425] loss1/conv <- loss1/ave_pool
I0403 16:04:18.578330 20687 net.cpp:399] loss1/conv -> loss1/conv
I0403 16:04:18.579843 20687 net.cpp:141] Setting up loss1/conv
I0403 16:04:18.579874 20687 net.cpp:148] Top shape: 24 128 4 4 (49152)
I0403 16:04:18.579890 20687 net.cpp:156] Memory required for data: 945697824
I0403 16:04:18.579926 20687 layer_factory.hpp:77] Creating layer loss1/relu_conv
I0403 16:04:18.579946 20687 net.cpp:91] Creating Layer loss1/relu_conv
I0403 16:04:18.579968 20687 net.cpp:425] loss1/relu_conv <- loss1/conv
I0403 16:04:18.579990 20687 net.cpp:386] loss1/relu_conv -> loss1/conv (in-place)
I0403 16:04:18.580291 20687 net.cpp:141] Setting up loss1/relu_conv
I0403 16:04:18.580319 20687 net.cpp:148] Top shape: 24 128 4 4 (49152)
I0403 16:04:18.580334 20687 net.cpp:156] Memory required for data: 945894432
I0403 16:04:18.580349 20687 layer_factory.hpp:77] Creating layer loss1/fc
I0403 16:04:18.580374 20687 net.cpp:91] Creating Layer loss1/fc
I0403 16:04:18.580391 20687 net.cpp:425] loss1/fc <- loss1/conv
I0403 16:04:18.580413 20687 net.cpp:399] loss1/fc -> loss1/fc
I0403 16:04:18.599119 20687 net.cpp:141] Setting up loss1/fc
I0403 16:04:18.599158 20687 net.cpp:148] Top shape: 24 1024 (24576)
I0403 16:04:18.599174 20687 net.cpp:156] Memory required for data: 945992736
I0403 16:04:18.599194 20687 layer_factory.hpp:77] Creating layer loss1/relu_fc
I0403 16:04:18.599213 20687 net.cpp:91] Creating Layer loss1/relu_fc
I0403 16:04:18.599230 20687 net.cpp:425] loss1/relu_fc <- loss1/fc
I0403 16:04:18.599249 20687 net.cpp:386] loss1/relu_fc -> loss1/fc (in-place)
I0403 16:04:18.599467 20687 net.cpp:141] Setting up loss1/relu_fc
I0403 16:04:18.599493 20687 net.cpp:148] Top shape: 24 1024 (24576)
I0403 16:04:18.599508 20687 net.cpp:156] Memory required for data: 946091040
I0403 16:04:18.599524 20687 layer_factory.hpp:77] Creating layer loss1/drop_fc
I0403 16:04:18.599552 20687 net.cpp:91] Creating Layer loss1/drop_fc
I0403 16:04:18.599570 20687 net.cpp:425] loss1/drop_fc <- loss1/fc
I0403 16:04:18.599589 20687 net.cpp:386] loss1/drop_fc -> loss1/fc (in-place)
I0403 16:04:18.599644 20687 net.cpp:141] Setting up loss1/drop_fc
I0403 16:04:18.599668 20687 net.cpp:148] Top shape: 24 1024 (24576)
I0403 16:04:18.599683 20687 net.cpp:156] Memory required for data: 946189344
I0403 16:04:18.599697 20687 layer_factory.hpp:77] Creating layer loss1/classifier_plantvillage
I0403 16:04:18.599720 20687 net.cpp:91] Creating Layer loss1/classifier_plantvillage
I0403 16:04:18.599737 20687 net.cpp:425] loss1/classifier_plantvillage <- loss1/fc
I0403 16:04:18.599757 20687 net.cpp:399] loss1/classifier_plantvillage -> loss1/classifier_plantvillage
I0403 16:04:18.600736 20687 net.cpp:141] Setting up loss1/classifier_plantvillage
I0403 16:04:18.600765 20687 net.cpp:148] Top shape: 24 38 (912)
I0403 16:04:18.600781 20687 net.cpp:156] Memory required for data: 946192992
I0403 16:04:18.600800 20687 layer_factory.hpp:77] Creating layer loss1/classifier_plantvillage_loss1/classifier_plantvillage_0_split
I0403 16:04:18.600817 20687 net.cpp:91] Creating Layer loss1/classifier_plantvillage_loss1/classifier_plantvillage_0_split
I0403 16:04:18.600833 20687 net.cpp:425] loss1/classifier_plantvillage_loss1/classifier_plantvillage_0_split <- loss1/classifier_plantvillage
I0403 16:04:18.600852 20687 net.cpp:399] loss1/classifier_plantvillage_loss1/classifier_plantvillage_0_split -> loss1/classifier_plantvillage_loss1/classifier_plantvillage_0_split_0
I0403 16:04:18.600874 20687 net.cpp:399] loss1/classifier_plantvillage_loss1/classifier_plantvillage_0_split -> loss1/classifier_plantvillage_loss1/classifier_plantvillage_0_split_1
I0403 16:04:18.600894 20687 net.cpp:399] loss1/classifier_plantvillage_loss1/classifier_plantvillage_0_split -> loss1/classifier_plantvillage_loss1/classifier_plantvillage_0_split_2
I0403 16:04:18.600967 20687 net.cpp:141] Setting up loss1/classifier_plantvillage_loss1/classifier_plantvillage_0_split
I0403 16:04:18.600991 20687 net.cpp:148] Top shape: 24 38 (912)
I0403 16:04:18.601006 20687 net.cpp:148] Top shape: 24 38 (912)
I0403 16:04:18.601022 20687 net.cpp:148] Top shape: 24 38 (912)
I0403 16:04:18.601035 20687 net.cpp:156] Memory required for data: 946203936
I0403 16:04:18.601049 20687 layer_factory.hpp:77] Creating layer inception_4b/1x1
I0403 16:04:18.601074 20687 net.cpp:91] Creating Layer inception_4b/1x1
I0403 16:04:18.601110 20687 net.cpp:425] inception_4b/1x1 <- inception_4a/output_inception_4a/output_0_split_1
I0403 16:04:18.601131 20687 net.cpp:399] inception_4b/1x1 -> inception_4b/1x1
I0403 16:04:18.602862 20687 net.cpp:141] Setting up inception_4b/1x1
I0403 16:04:18.602891 20687 net.cpp:148] Top shape: 24 160 14 14 (752640)
I0403 16:04:18.602907 20687 net.cpp:156] Memory required for data: 949214496
I0403 16:04:18.602926 20687 layer_factory.hpp:77] Creating layer inception_4b/relu_1x1
I0403 16:04:18.602944 20687 net.cpp:91] Creating Layer inception_4b/relu_1x1
I0403 16:04:18.602967 20687 net.cpp:425] inception_4b/relu_1x1 <- inception_4b/1x1
I0403 16:04:18.602988 20687 net.cpp:386] inception_4b/relu_1x1 -> inception_4b/1x1 (in-place)
I0403 16:04:18.603176 20687 net.cpp:141] Setting up inception_4b/relu_1x1
I0403 16:04:18.603201 20687 net.cpp:148] Top shape: 24 160 14 14 (752640)
I0403 16:04:18.603216 20687 net.cpp:156] Memory required for data: 952225056
I0403 16:04:18.603231 20687 layer_factory.hpp:77] Creating layer inception_4b/3x3_reduce
I0403 16:04:18.603255 20687 net.cpp:91] Creating Layer inception_4b/3x3_reduce
I0403 16:04:18.603272 20687 net.cpp:425] inception_4b/3x3_reduce <- inception_4a/output_inception_4a/output_0_split_2
I0403 16:04:18.603293 20687 net.cpp:399] inception_4b/3x3_reduce -> inception_4b/3x3_reduce
I0403 16:04:18.604696 20687 net.cpp:141] Setting up inception_4b/3x3_reduce
I0403 16:04:18.604727 20687 net.cpp:148] Top shape: 24 112 14 14 (526848)
I0403 16:04:18.604742 20687 net.cpp:156] Memory required for data: 954332448
I0403 16:04:18.604759 20687 layer_factory.hpp:77] Creating layer inception_4b/relu_3x3_reduce
I0403 16:04:18.604780 20687 net.cpp:91] Creating Layer inception_4b/relu_3x3_reduce
I0403 16:04:18.604797 20687 net.cpp:425] inception_4b/relu_3x3_reduce <- inception_4b/3x3_reduce
I0403 16:04:18.604815 20687 net.cpp:386] inception_4b/relu_3x3_reduce -> inception_4b/3x3_reduce (in-place)
I0403 16:04:18.605123 20687 net.cpp:141] Setting up inception_4b/relu_3x3_reduce
I0403 16:04:18.605151 20687 net.cpp:148] Top shape: 24 112 14 14 (526848)
I0403 16:04:18.605166 20687 net.cpp:156] Memory required for data: 956439840
I0403 16:04:18.605180 20687 layer_factory.hpp:77] Creating layer inception_4b/3x3
I0403 16:04:18.605203 20687 net.cpp:91] Creating Layer inception_4b/3x3
I0403 16:04:18.605221 20687 net.cpp:425] inception_4b/3x3 <- inception_4b/3x3_reduce
I0403 16:04:18.605242 20687 net.cpp:399] inception_4b/3x3 -> inception_4b/3x3
I0403 16:04:18.608253 20687 net.cpp:141] Setting up inception_4b/3x3
I0403 16:04:18.608284 20687 net.cpp:148] Top shape: 24 224 14 14 (1053696)
I0403 16:04:18.608300 20687 net.cpp:156] Memory required for data: 960654624
I0403 16:04:18.608319 20687 layer_factory.hpp:77] Creating layer inception_4b/relu_3x3
I0403 16:04:18.608336 20687 net.cpp:91] Creating Layer inception_4b/relu_3x3
I0403 16:04:18.608352 20687 net.cpp:425] inception_4b/relu_3x3 <- inception_4b/3x3
I0403 16:04:18.608371 20687 net.cpp:386] inception_4b/relu_3x3 -> inception_4b/3x3 (in-place)
I0403 16:04:18.608553 20687 net.cpp:141] Setting up inception_4b/relu_3x3
I0403 16:04:18.608578 20687 net.cpp:148] Top shape: 24 224 14 14 (1053696)
I0403 16:04:18.608593 20687 net.cpp:156] Memory required for data: 964869408
I0403 16:04:18.608608 20687 layer_factory.hpp:77] Creating layer inception_4b/5x5_reduce
I0403 16:04:18.608630 20687 net.cpp:91] Creating Layer inception_4b/5x5_reduce
I0403 16:04:18.608647 20687 net.cpp:425] inception_4b/5x5_reduce <- inception_4a/output_inception_4a/output_0_split_3
I0403 16:04:18.608669 20687 net.cpp:399] inception_4b/5x5_reduce -> inception_4b/5x5_reduce
I0403 16:04:18.609768 20687 net.cpp:141] Setting up inception_4b/5x5_reduce
I0403 16:04:18.609797 20687 net.cpp:148] Top shape: 24 24 14 14 (112896)
I0403 16:04:18.609812 20687 net.cpp:156] Memory required for data: 965320992
I0403 16:04:18.609830 20687 layer_factory.hpp:77] Creating layer inception_4b/relu_5x5_reduce
I0403 16:04:18.609850 20687 net.cpp:91] Creating Layer inception_4b/relu_5x5_reduce
I0403 16:04:18.609880 20687 net.cpp:425] inception_4b/relu_5x5_reduce <- inception_4b/5x5_reduce
I0403 16:04:18.609899 20687 net.cpp:386] inception_4b/relu_5x5_reduce -> inception_4b/5x5_reduce (in-place)
I0403 16:04:18.610090 20687 net.cpp:141] Setting up inception_4b/relu_5x5_reduce
I0403 16:04:18.610115 20687 net.cpp:148] Top shape: 24 24 14 14 (112896)
I0403 16:04:18.610129 20687 net.cpp:156] Memory required for data: 965772576
I0403 16:04:18.610143 20687 layer_factory.hpp:77] Creating layer inception_4b/5x5
I0403 16:04:18.610167 20687 net.cpp:91] Creating Layer inception_4b/5x5
I0403 16:04:18.610184 20687 net.cpp:425] inception_4b/5x5 <- inception_4b/5x5_reduce
I0403 16:04:18.610203 20687 net.cpp:399] inception_4b/5x5 -> inception_4b/5x5
I0403 16:04:18.611436 20687 net.cpp:141] Setting up inception_4b/5x5
I0403 16:04:18.611464 20687 net.cpp:148] Top shape: 24 64 14 14 (301056)
I0403 16:04:18.611480 20687 net.cpp:156] Memory required for data: 966976800
I0403 16:04:18.611498 20687 layer_factory.hpp:77] Creating layer inception_4b/relu_5x5
I0403 16:04:18.611516 20687 net.cpp:91] Creating Layer inception_4b/relu_5x5
I0403 16:04:18.611532 20687 net.cpp:425] inception_4b/relu_5x5 <- inception_4b/5x5
I0403 16:04:18.611552 20687 net.cpp:386] inception_4b/relu_5x5 -> inception_4b/5x5 (in-place)
I0403 16:04:18.611835 20687 net.cpp:141] Setting up inception_4b/relu_5x5
I0403 16:04:18.611862 20687 net.cpp:148] Top shape: 24 64 14 14 (301056)
I0403 16:04:18.611877 20687 net.cpp:156] Memory required for data: 968181024
I0403 16:04:18.611892 20687 layer_factory.hpp:77] Creating layer inception_4b/pool
I0403 16:04:18.611910 20687 net.cpp:91] Creating Layer inception_4b/pool
I0403 16:04:18.611925 20687 net.cpp:425] inception_4b/pool <- inception_4a/output_inception_4a/output_0_split_4
I0403 16:04:18.611948 20687 net.cpp:399] inception_4b/pool -> inception_4b/pool
I0403 16:04:18.612020 20687 net.cpp:141] Setting up inception_4b/pool
I0403 16:04:18.612045 20687 net.cpp:148] Top shape: 24 512 14 14 (2408448)
I0403 16:04:18.612059 20687 net.cpp:156] Memory required for data: 977814816
I0403 16:04:18.612073 20687 layer_factory.hpp:77] Creating layer inception_4b/pool_proj
I0403 16:04:18.612097 20687 net.cpp:91] Creating Layer inception_4b/pool_proj
I0403 16:04:18.612114 20687 net.cpp:425] inception_4b/pool_proj <- inception_4b/pool
I0403 16:04:18.612133 20687 net.cpp:399] inception_4b/pool_proj -> inception_4b/pool_proj
I0403 16:04:18.613342 20687 net.cpp:141] Setting up inception_4b/pool_proj
I0403 16:04:18.613378 20687 net.cpp:148] Top shape: 24 64 14 14 (301056)
I0403 16:04:18.613392 20687 net.cpp:156] Memory required for data: 979019040
I0403 16:04:18.613410 20687 layer_factory.hpp:77] Creating layer inception_4b/relu_pool_proj
I0403 16:04:18.613430 20687 net.cpp:91] Creating Layer inception_4b/relu_pool_proj
I0403 16:04:18.613446 20687 net.cpp:425] inception_4b/relu_pool_proj <- inception_4b/pool_proj
I0403 16:04:18.613463 20687 net.cpp:386] inception_4b/relu_pool_proj -> inception_4b/pool_proj (in-place)
I0403 16:04:18.613641 20687 net.cpp:141] Setting up inception_4b/relu_pool_proj
I0403 16:04:18.613668 20687 net.cpp:148] Top shape: 24 64 14 14 (301056)
I0403 16:04:18.613683 20687 net.cpp:156] Memory required for data: 980223264
I0403 16:04:18.613698 20687 layer_factory.hpp:77] Creating layer inception_4b/output
I0403 16:04:18.613714 20687 net.cpp:91] Creating Layer inception_4b/output
I0403 16:04:18.613730 20687 net.cpp:425] inception_4b/output <- inception_4b/1x1
I0403 16:04:18.613746 20687 net.cpp:425] inception_4b/output <- inception_4b/3x3
I0403 16:04:18.613762 20687 net.cpp:425] inception_4b/output <- inception_4b/5x5
I0403 16:04:18.613777 20687 net.cpp:425] inception_4b/output <- inception_4b/pool_proj
I0403 16:04:18.613793 20687 net.cpp:399] inception_4b/output -> inception_4b/output
I0403 16:04:18.613840 20687 net.cpp:141] Setting up inception_4b/output
I0403 16:04:18.613864 20687 net.cpp:148] Top shape: 24 512 14 14 (2408448)
I0403 16:04:18.613879 20687 net.cpp:156] Memory required for data: 989857056
I0403 16:04:18.613908 20687 layer_factory.hpp:77] Creating layer inception_4b/output_inception_4b/output_0_split
I0403 16:04:18.613927 20687 net.cpp:91] Creating Layer inception_4b/output_inception_4b/output_0_split
I0403 16:04:18.613943 20687 net.cpp:425] inception_4b/output_inception_4b/output_0_split <- inception_4b/output
I0403 16:04:18.613968 20687 net.cpp:399] inception_4b/output_inception_4b/output_0_split -> inception_4b/output_inception_4b/output_0_split_0
I0403 16:04:18.613989 20687 net.cpp:399] inception_4b/output_inception_4b/output_0_split -> inception_4b/output_inception_4b/output_0_split_1
I0403 16:04:18.614009 20687 net.cpp:399] inception_4b/output_inception_4b/output_0_split -> inception_4b/output_inception_4b/output_0_split_2
I0403 16:04:18.614028 20687 net.cpp:399] inception_4b/output_inception_4b/output_0_split -> inception_4b/output_inception_4b/output_0_split_3
I0403 16:04:18.614114 20687 net.cpp:141] Setting up inception_4b/output_inception_4b/output_0_split
I0403 16:04:18.614137 20687 net.cpp:148] Top shape: 24 512 14 14 (2408448)
I0403 16:04:18.614153 20687 net.cpp:148] Top shape: 24 512 14 14 (2408448)
I0403 16:04:18.614169 20687 net.cpp:148] Top shape: 24 512 14 14 (2408448)
I0403 16:04:18.614184 20687 net.cpp:148] Top shape: 24 512 14 14 (2408448)
I0403 16:04:18.614198 20687 net.cpp:156] Memory required for data: 1028392224
I0403 16:04:18.614213 20687 layer_factory.hpp:77] Creating layer inception_4c/1x1
I0403 16:04:18.614234 20687 net.cpp:91] Creating Layer inception_4c/1x1
I0403 16:04:18.614251 20687 net.cpp:425] inception_4c/1x1 <- inception_4b/output_inception_4b/output_0_split_0
I0403 16:04:18.614272 20687 net.cpp:399] inception_4c/1x1 -> inception_4c/1x1
I0403 16:04:18.615717 20687 net.cpp:141] Setting up inception_4c/1x1
I0403 16:04:18.615748 20687 net.cpp:148] Top shape: 24 128 14 14 (602112)
I0403 16:04:18.615766 20687 net.cpp:156] Memory required for data: 1030800672
I0403 16:04:18.615797 20687 layer_factory.hpp:77] Creating layer inception_4c/relu_1x1
I0403 16:04:18.615814 20687 net.cpp:91] Creating Layer inception_4c/relu_1x1
I0403 16:04:18.615830 20687 net.cpp:425] inception_4c/relu_1x1 <- inception_4c/1x1
I0403 16:04:18.615849 20687 net.cpp:386] inception_4c/relu_1x1 -> inception_4c/1x1 (in-place)
I0403 16:04:18.616047 20687 net.cpp:141] Setting up inception_4c/relu_1x1
I0403 16:04:18.616072 20687 net.cpp:148] Top shape: 24 128 14 14 (602112)
I0403 16:04:18.616088 20687 net.cpp:156] Memory required for data: 1033209120
I0403 16:04:18.616114 20687 layer_factory.hpp:77] Creating layer inception_4c/3x3_reduce
I0403 16:04:18.616137 20687 net.cpp:91] Creating Layer inception_4c/3x3_reduce
I0403 16:04:18.616153 20687 net.cpp:425] inception_4c/3x3_reduce <- inception_4b/output_inception_4b/output_0_split_1
I0403 16:04:18.616175 20687 net.cpp:399] inception_4c/3x3_reduce -> inception_4c/3x3_reduce
I0403 16:04:18.618149 20687 net.cpp:141] Setting up inception_4c/3x3_reduce
I0403 16:04:18.618178 20687 net.cpp:148] Top shape: 24 128 14 14 (602112)
I0403 16:04:18.618194 20687 net.cpp:156] Memory required for data: 1035617568
I0403 16:04:18.618211 20687 layer_factory.hpp:77] Creating layer inception_4c/relu_3x3_reduce
I0403 16:04:18.618232 20687 net.cpp:91] Creating Layer inception_4c/relu_3x3_reduce
I0403 16:04:18.618249 20687 net.cpp:425] inception_4c/relu_3x3_reduce <- inception_4c/3x3_reduce
I0403 16:04:18.618266 20687 net.cpp:386] inception_4c/relu_3x3_reduce -> inception_4c/3x3_reduce (in-place)
I0403 16:04:18.618561 20687 net.cpp:141] Setting up inception_4c/relu_3x3_reduce
I0403 16:04:18.618587 20687 net.cpp:148] Top shape: 24 128 14 14 (602112)
I0403 16:04:18.618602 20687 net.cpp:156] Memory required for data: 1038026016
I0403 16:04:18.618616 20687 layer_factory.hpp:77] Creating layer inception_4c/3x3
I0403 16:04:18.618639 20687 net.cpp:91] Creating Layer inception_4c/3x3
I0403 16:04:18.618656 20687 net.cpp:425] inception_4c/3x3 <- inception_4c/3x3_reduce
I0403 16:04:18.618679 20687 net.cpp:399] inception_4c/3x3 -> inception_4c/3x3
I0403 16:04:18.622311 20687 net.cpp:141] Setting up inception_4c/3x3
I0403 16:04:18.622351 20687 net.cpp:148] Top shape: 24 256 14 14 (1204224)
I0403 16:04:18.622367 20687 net.cpp:156] Memory required for data: 1042842912
I0403 16:04:18.622400 20687 layer_factory.hpp:77] Creating layer inception_4c/relu_3x3
I0403 16:04:18.622422 20687 net.cpp:91] Creating Layer inception_4c/relu_3x3
I0403 16:04:18.622439 20687 net.cpp:425] inception_4c/relu_3x3 <- inception_4c/3x3
I0403 16:04:18.622455 20687 net.cpp:386] inception_4c/relu_3x3 -> inception_4c/3x3 (in-place)
I0403 16:04:18.622642 20687 net.cpp:141] Setting up inception_4c/relu_3x3
I0403 16:04:18.622666 20687 net.cpp:148] Top shape: 24 256 14 14 (1204224)
I0403 16:04:18.622680 20687 net.cpp:156] Memory required for data: 1047659808
I0403 16:04:18.622695 20687 layer_factory.hpp:77] Creating layer inception_4c/5x5_reduce
I0403 16:04:18.622719 20687 net.cpp:91] Creating Layer inception_4c/5x5_reduce
I0403 16:04:18.622736 20687 net.cpp:425] inception_4c/5x5_reduce <- inception_4b/output_inception_4b/output_0_split_2
I0403 16:04:18.622757 20687 net.cpp:399] inception_4c/5x5_reduce -> inception_4c/5x5_reduce
I0403 16:04:18.623924 20687 net.cpp:141] Setting up inception_4c/5x5_reduce
I0403 16:04:18.623971 20687 net.cpp:148] Top shape: 24 24 14 14 (112896)
I0403 16:04:18.623987 20687 net.cpp:156] Memory required for data: 1048111392
I0403 16:04:18.624006 20687 layer_factory.hpp:77] Creating layer inception_4c/relu_5x5_reduce
I0403 16:04:18.624027 20687 net.cpp:91] Creating Layer inception_4c/relu_5x5_reduce
I0403 16:04:18.624042 20687 net.cpp:425] inception_4c/relu_5x5_reduce <- inception_4c/5x5_reduce
I0403 16:04:18.624060 20687 net.cpp:386] inception_4c/relu_5x5_reduce -> inception_4c/5x5_reduce (in-place)
I0403 16:04:18.624251 20687 net.cpp:141] Setting up inception_4c/relu_5x5_reduce
I0403 16:04:18.624276 20687 net.cpp:148] Top shape: 24 24 14 14 (112896)
I0403 16:04:18.624291 20687 net.cpp:156] Memory required for data: 1048562976
I0403 16:04:18.624306 20687 layer_factory.hpp:77] Creating layer inception_4c/5x5
I0403 16:04:18.624330 20687 net.cpp:91] Creating Layer inception_4c/5x5
I0403 16:04:18.624347 20687 net.cpp:425] inception_4c/5x5 <- inception_4c/5x5_reduce
I0403 16:04:18.624366 20687 net.cpp:399] inception_4c/5x5 -> inception_4c/5x5
I0403 16:04:18.625677 20687 net.cpp:141] Setting up inception_4c/5x5
I0403 16:04:18.625708 20687 net.cpp:148] Top shape: 24 64 14 14 (301056)
I0403 16:04:18.625725 20687 net.cpp:156] Memory required for data: 1049767200
I0403 16:04:18.625743 20687 layer_factory.hpp:77] Creating layer inception_4c/relu_5x5
I0403 16:04:18.625761 20687 net.cpp:91] Creating Layer inception_4c/relu_5x5
I0403 16:04:18.625777 20687 net.cpp:425] inception_4c/relu_5x5 <- inception_4c/5x5
I0403 16:04:18.625794 20687 net.cpp:386] inception_4c/relu_5x5 -> inception_4c/5x5 (in-place)
I0403 16:04:18.626103 20687 net.cpp:141] Setting up inception_4c/relu_5x5
I0403 16:04:18.626132 20687 net.cpp:148] Top shape: 24 64 14 14 (301056)
I0403 16:04:18.626148 20687 net.cpp:156] Memory required for data: 1050971424
I0403 16:04:18.626164 20687 layer_factory.hpp:77] Creating layer inception_4c/pool
I0403 16:04:18.626181 20687 net.cpp:91] Creating Layer inception_4c/pool
I0403 16:04:18.626197 20687 net.cpp:425] inception_4c/pool <- inception_4b/output_inception_4b/output_0_split_3
I0403 16:04:18.626215 20687 net.cpp:399] inception_4c/pool -> inception_4c/pool
I0403 16:04:18.626293 20687 net.cpp:141] Setting up inception_4c/pool
I0403 16:04:18.626318 20687 net.cpp:148] Top shape: 24 512 14 14 (2408448)
I0403 16:04:18.626332 20687 net.cpp:156] Memory required for data: 1060605216
I0403 16:04:18.626346 20687 layer_factory.hpp:77] Creating layer inception_4c/pool_proj
I0403 16:04:18.626368 20687 net.cpp:91] Creating Layer inception_4c/pool_proj
I0403 16:04:18.626384 20687 net.cpp:425] inception_4c/pool_proj <- inception_4c/pool
I0403 16:04:18.626406 20687 net.cpp:399] inception_4c/pool_proj -> inception_4c/pool_proj
I0403 16:04:18.627646 20687 net.cpp:141] Setting up inception_4c/pool_proj
I0403 16:04:18.627673 20687 net.cpp:148] Top shape: 24 64 14 14 (301056)
I0403 16:04:18.627702 20687 net.cpp:156] Memory required for data: 1061809440
I0403 16:04:18.627722 20687 layer_factory.hpp:77] Creating layer inception_4c/relu_pool_proj
I0403 16:04:18.627743 20687 net.cpp:91] Creating Layer inception_4c/relu_pool_proj
I0403 16:04:18.627760 20687 net.cpp:425] inception_4c/relu_pool_proj <- inception_4c/pool_proj
I0403 16:04:18.627777 20687 net.cpp:386] inception_4c/relu_pool_proj -> inception_4c/pool_proj (in-place)
I0403 16:04:18.627976 20687 net.cpp:141] Setting up inception_4c/relu_pool_proj
I0403 16:04:18.628005 20687 net.cpp:148] Top shape: 24 64 14 14 (301056)
I0403 16:04:18.628020 20687 net.cpp:156] Memory required for data: 1063013664
I0403 16:04:18.628034 20687 layer_factory.hpp:77] Creating layer inception_4c/output
I0403 16:04:18.628051 20687 net.cpp:91] Creating Layer inception_4c/output
I0403 16:04:18.628065 20687 net.cpp:425] inception_4c/output <- inception_4c/1x1
I0403 16:04:18.628082 20687 net.cpp:425] inception_4c/output <- inception_4c/3x3
I0403 16:04:18.628098 20687 net.cpp:425] inception_4c/output <- inception_4c/5x5
I0403 16:04:18.628113 20687 net.cpp:425] inception_4c/output <- inception_4c/pool_proj
I0403 16:04:18.628129 20687 net.cpp:399] inception_4c/output -> inception_4c/output
I0403 16:04:18.628176 20687 net.cpp:141] Setting up inception_4c/output
I0403 16:04:18.628199 20687 net.cpp:148] Top shape: 24 512 14 14 (2408448)
I0403 16:04:18.628214 20687 net.cpp:156] Memory required for data: 1072647456
I0403 16:04:18.628228 20687 layer_factory.hpp:77] Creating layer inception_4c/output_inception_4c/output_0_split
I0403 16:04:18.628245 20687 net.cpp:91] Creating Layer inception_4c/output_inception_4c/output_0_split
I0403 16:04:18.628262 20687 net.cpp:425] inception_4c/output_inception_4c/output_0_split <- inception_4c/output
I0403 16:04:18.628280 20687 net.cpp:399] inception_4c/output_inception_4c/output_0_split -> inception_4c/output_inception_4c/output_0_split_0
I0403 16:04:18.628299 20687 net.cpp:399] inception_4c/output_inception_4c/output_0_split -> inception_4c/output_inception_4c/output_0_split_1
I0403 16:04:18.628319 20687 net.cpp:399] inception_4c/output_inception_4c/output_0_split -> inception_4c/output_inception_4c/output_0_split_2
I0403 16:04:18.628336 20687 net.cpp:399] inception_4c/output_inception_4c/output_0_split -> inception_4c/output_inception_4c/output_0_split_3
I0403 16:04:18.628422 20687 net.cpp:141] Setting up inception_4c/output_inception_4c/output_0_split
I0403 16:04:18.628443 20687 net.cpp:148] Top shape: 24 512 14 14 (2408448)
I0403 16:04:18.628459 20687 net.cpp:148] Top shape: 24 512 14 14 (2408448)
I0403 16:04:18.628474 20687 net.cpp:148] Top shape: 24 512 14 14 (2408448)
I0403 16:04:18.628489 20687 net.cpp:148] Top shape: 24 512 14 14 (2408448)
I0403 16:04:18.628502 20687 net.cpp:156] Memory required for data: 1111182624
I0403 16:04:18.628515 20687 layer_factory.hpp:77] Creating layer inception_4d/1x1
I0403 16:04:18.628537 20687 net.cpp:91] Creating Layer inception_4d/1x1
I0403 16:04:18.628554 20687 net.cpp:425] inception_4d/1x1 <- inception_4c/output_inception_4c/output_0_split_0
I0403 16:04:18.628576 20687 net.cpp:399] inception_4d/1x1 -> inception_4d/1x1
I0403 16:04:18.629981 20687 net.cpp:141] Setting up inception_4d/1x1
I0403 16:04:18.630008 20687 net.cpp:148] Top shape: 24 112 14 14 (526848)
I0403 16:04:18.630023 20687 net.cpp:156] Memory required for data: 1113290016
I0403 16:04:18.630040 20687 layer_factory.hpp:77] Creating layer inception_4d/relu_1x1
I0403 16:04:18.630059 20687 net.cpp:91] Creating Layer inception_4d/relu_1x1
I0403 16:04:18.630074 20687 net.cpp:425] inception_4d/relu_1x1 <- inception_4d/1x1
I0403 16:04:18.630092 20687 net.cpp:386] inception_4d/relu_1x1 -> inception_4d/1x1 (in-place)
I0403 16:04:18.630280 20687 net.cpp:141] Setting up inception_4d/relu_1x1
I0403 16:04:18.630303 20687 net.cpp:148] Top shape: 24 112 14 14 (526848)
I0403 16:04:18.630318 20687 net.cpp:156] Memory required for data: 1115397408
I0403 16:04:18.630332 20687 layer_factory.hpp:77] Creating layer inception_4d/3x3_reduce
I0403 16:04:18.630369 20687 net.cpp:91] Creating Layer inception_4d/3x3_reduce
I0403 16:04:18.630388 20687 net.cpp:425] inception_4d/3x3_reduce <- inception_4c/output_inception_4c/output_0_split_1
I0403 16:04:18.630409 20687 net.cpp:399] inception_4d/3x3_reduce -> inception_4d/3x3_reduce
I0403 16:04:18.631935 20687 net.cpp:141] Setting up inception_4d/3x3_reduce
I0403 16:04:18.631971 20687 net.cpp:148] Top shape: 24 144 14 14 (677376)
I0403 16:04:18.631989 20687 net.cpp:156] Memory required for data: 1118106912
I0403 16:04:18.632007 20687 layer_factory.hpp:77] Creating layer inception_4d/relu_3x3_reduce
I0403 16:04:18.632025 20687 net.cpp:91] Creating Layer inception_4d/relu_3x3_reduce
I0403 16:04:18.632040 20687 net.cpp:425] inception_4d/relu_3x3_reduce <- inception_4d/3x3_reduce
I0403 16:04:18.632060 20687 net.cpp:386] inception_4d/relu_3x3_reduce -> inception_4d/3x3_reduce (in-place)
I0403 16:04:18.632351 20687 net.cpp:141] Setting up inception_4d/relu_3x3_reduce
I0403 16:04:18.632380 20687 net.cpp:148] Top shape: 24 144 14 14 (677376)
I0403 16:04:18.632396 20687 net.cpp:156] Memory required for data: 1120816416
I0403 16:04:18.632411 20687 layer_factory.hpp:77] Creating layer inception_4d/3x3
I0403 16:04:18.632432 20687 net.cpp:91] Creating Layer inception_4d/3x3
I0403 16:04:18.632450 20687 net.cpp:425] inception_4d/3x3 <- inception_4d/3x3_reduce
I0403 16:04:18.632468 20687 net.cpp:399] inception_4d/3x3 -> inception_4d/3x3
I0403 16:04:18.636778 20687 net.cpp:141] Setting up inception_4d/3x3
I0403 16:04:18.636806 20687 net.cpp:148] Top shape: 24 288 14 14 (1354752)
I0403 16:04:18.636822 20687 net.cpp:156] Memory required for data: 1126235424
I0403 16:04:18.636840 20687 layer_factory.hpp:77] Creating layer inception_4d/relu_3x3
I0403 16:04:18.636858 20687 net.cpp:91] Creating Layer inception_4d/relu_3x3
I0403 16:04:18.636873 20687 net.cpp:425] inception_4d/relu_3x3 <- inception_4d/3x3
I0403 16:04:18.636893 20687 net.cpp:386] inception_4d/relu_3x3 -> inception_4d/3x3 (in-place)
I0403 16:04:18.637104 20687 net.cpp:141] Setting up inception_4d/relu_3x3
I0403 16:04:18.637130 20687 net.cpp:148] Top shape: 24 288 14 14 (1354752)
I0403 16:04:18.637145 20687 net.cpp:156] Memory required for data: 1131654432
I0403 16:04:18.637158 20687 layer_factory.hpp:77] Creating layer inception_4d/5x5_reduce
I0403 16:04:18.637181 20687 net.cpp:91] Creating Layer inception_4d/5x5_reduce
I0403 16:04:18.637199 20687 net.cpp:425] inception_4d/5x5_reduce <- inception_4c/output_inception_4c/output_0_split_2
I0403 16:04:18.637220 20687 net.cpp:399] inception_4d/5x5_reduce -> inception_4d/5x5_reduce
I0403 16:04:18.638406 20687 net.cpp:141] Setting up inception_4d/5x5_reduce
I0403 16:04:18.638433 20687 net.cpp:148] Top shape: 24 32 14 14 (150528)
I0403 16:04:18.638449 20687 net.cpp:156] Memory required for data: 1132256544
I0403 16:04:18.638466 20687 layer_factory.hpp:77] Creating layer inception_4d/relu_5x5_reduce
I0403 16:04:18.638484 20687 net.cpp:91] Creating Layer inception_4d/relu_5x5_reduce
I0403 16:04:18.638499 20687 net.cpp:425] inception_4d/relu_5x5_reduce <- inception_4d/5x5_reduce
I0403 16:04:18.638519 20687 net.cpp:386] inception_4d/relu_5x5_reduce -> inception_4d/5x5_reduce (in-place)
I0403 16:04:18.638710 20687 net.cpp:141] Setting up inception_4d/relu_5x5_reduce
I0403 16:04:18.638734 20687 net.cpp:148] Top shape: 24 32 14 14 (150528)
I0403 16:04:18.638748 20687 net.cpp:156] Memory required for data: 1132858656
I0403 16:04:18.638762 20687 layer_factory.hpp:77] Creating layer inception_4d/5x5
I0403 16:04:18.638783 20687 net.cpp:91] Creating Layer inception_4d/5x5
I0403 16:04:18.638802 20687 net.cpp:425] inception_4d/5x5 <- inception_4d/5x5_reduce
I0403 16:04:18.638830 20687 net.cpp:399] inception_4d/5x5 -> inception_4d/5x5
I0403 16:04:18.640324 20687 net.cpp:141] Setting up inception_4d/5x5
I0403 16:04:18.640352 20687 net.cpp:148] Top shape: 24 64 14 14 (301056)
I0403 16:04:18.640367 20687 net.cpp:156] Memory required for data: 1134062880
I0403 16:04:18.640386 20687 layer_factory.hpp:77] Creating layer inception_4d/relu_5x5
I0403 16:04:18.640420 20687 net.cpp:91] Creating Layer inception_4d/relu_5x5
I0403 16:04:18.640439 20687 net.cpp:425] inception_4d/relu_5x5 <- inception_4d/5x5
I0403 16:04:18.640456 20687 net.cpp:386] inception_4d/relu_5x5 -> inception_4d/5x5 (in-place)
I0403 16:04:18.640760 20687 net.cpp:141] Setting up inception_4d/relu_5x5
I0403 16:04:18.640786 20687 net.cpp:148] Top shape: 24 64 14 14 (301056)
I0403 16:04:18.640801 20687 net.cpp:156] Memory required for data: 1135267104
I0403 16:04:18.640815 20687 layer_factory.hpp:77] Creating layer inception_4d/pool
I0403 16:04:18.640836 20687 net.cpp:91] Creating Layer inception_4d/pool
I0403 16:04:18.640866 20687 net.cpp:425] inception_4d/pool <- inception_4c/output_inception_4c/output_0_split_3
I0403 16:04:18.640883 20687 net.cpp:399] inception_4d/pool -> inception_4d/pool
I0403 16:04:18.640960 20687 net.cpp:141] Setting up inception_4d/pool
I0403 16:04:18.640985 20687 net.cpp:148] Top shape: 24 512 14 14 (2408448)
I0403 16:04:18.641001 20687 net.cpp:156] Memory required for data: 1144900896
I0403 16:04:18.641016 20687 layer_factory.hpp:77] Creating layer inception_4d/pool_proj
I0403 16:04:18.641037 20687 net.cpp:91] Creating Layer inception_4d/pool_proj
I0403 16:04:18.641055 20687 net.cpp:425] inception_4d/pool_proj <- inception_4d/pool
I0403 16:04:18.641084 20687 net.cpp:399] inception_4d/pool_proj -> inception_4d/pool_proj
I0403 16:04:18.642874 20687 net.cpp:141] Setting up inception_4d/pool_proj
I0403 16:04:18.642901 20687 net.cpp:148] Top shape: 24 64 14 14 (301056)
I0403 16:04:18.642917 20687 net.cpp:156] Memory required for data: 1146105120
I0403 16:04:18.642935 20687 layer_factory.hpp:77] Creating layer inception_4d/relu_pool_proj
I0403 16:04:18.642951 20687 net.cpp:91] Creating Layer inception_4d/relu_pool_proj
I0403 16:04:18.642974 20687 net.cpp:425] inception_4d/relu_pool_proj <- inception_4d/pool_proj
I0403 16:04:18.642993 20687 net.cpp:386] inception_4d/relu_pool_proj -> inception_4d/pool_proj (in-place)
I0403 16:04:18.643175 20687 net.cpp:141] Setting up inception_4d/relu_pool_proj
I0403 16:04:18.643199 20687 net.cpp:148] Top shape: 24 64 14 14 (301056)
I0403 16:04:18.643213 20687 net.cpp:156] Memory required for data: 1147309344
I0403 16:04:18.643227 20687 layer_factory.hpp:77] Creating layer inception_4d/output
I0403 16:04:18.643244 20687 net.cpp:91] Creating Layer inception_4d/output
I0403 16:04:18.643259 20687 net.cpp:425] inception_4d/output <- inception_4d/1x1
I0403 16:04:18.643276 20687 net.cpp:425] inception_4d/output <- inception_4d/3x3
I0403 16:04:18.643293 20687 net.cpp:425] inception_4d/output <- inception_4d/5x5
I0403 16:04:18.643308 20687 net.cpp:425] inception_4d/output <- inception_4d/pool_proj
I0403 16:04:18.643324 20687 net.cpp:399] inception_4d/output -> inception_4d/output
I0403 16:04:18.643371 20687 net.cpp:141] Setting up inception_4d/output
I0403 16:04:18.643394 20687 net.cpp:148] Top shape: 24 528 14 14 (2483712)
I0403 16:04:18.643409 20687 net.cpp:156] Memory required for data: 1157244192
I0403 16:04:18.643421 20687 layer_factory.hpp:77] Creating layer inception_4d/output_inception_4d/output_0_split
I0403 16:04:18.643438 20687 net.cpp:91] Creating Layer inception_4d/output_inception_4d/output_0_split
I0403 16:04:18.643452 20687 net.cpp:425] inception_4d/output_inception_4d/output_0_split <- inception_4d/output
I0403 16:04:18.643471 20687 net.cpp:399] inception_4d/output_inception_4d/output_0_split -> inception_4d/output_inception_4d/output_0_split_0
I0403 16:04:18.643492 20687 net.cpp:399] inception_4d/output_inception_4d/output_0_split -> inception_4d/output_inception_4d/output_0_split_1
I0403 16:04:18.643512 20687 net.cpp:399] inception_4d/output_inception_4d/output_0_split -> inception_4d/output_inception_4d/output_0_split_2
I0403 16:04:18.643532 20687 net.cpp:399] inception_4d/output_inception_4d/output_0_split -> inception_4d/output_inception_4d/output_0_split_3
I0403 16:04:18.643550 20687 net.cpp:399] inception_4d/output_inception_4d/output_0_split -> inception_4d/output_inception_4d/output_0_split_4
I0403 16:04:18.643652 20687 net.cpp:141] Setting up inception_4d/output_inception_4d/output_0_split
I0403 16:04:18.643687 20687 net.cpp:148] Top shape: 24 528 14 14 (2483712)
I0403 16:04:18.643703 20687 net.cpp:148] Top shape: 24 528 14 14 (2483712)
I0403 16:04:18.643718 20687 net.cpp:148] Top shape: 24 528 14 14 (2483712)
I0403 16:04:18.643733 20687 net.cpp:148] Top shape: 24 528 14 14 (2483712)
I0403 16:04:18.643746 20687 net.cpp:148] Top shape: 24 528 14 14 (2483712)
I0403 16:04:18.643759 20687 net.cpp:156] Memory required for data: 1206918432
I0403 16:04:18.643774 20687 layer_factory.hpp:77] Creating layer loss2/ave_pool
I0403 16:04:18.643790 20687 net.cpp:91] Creating Layer loss2/ave_pool
I0403 16:04:18.643805 20687 net.cpp:425] loss2/ave_pool <- inception_4d/output_inception_4d/output_0_split_0
I0403 16:04:18.643824 20687 net.cpp:399] loss2/ave_pool -> loss2/ave_pool
I0403 16:04:18.644140 20687 net.cpp:141] Setting up loss2/ave_pool
I0403 16:04:18.644165 20687 net.cpp:148] Top shape: 24 528 4 4 (202752)
I0403 16:04:18.644179 20687 net.cpp:156] Memory required for data: 1207729440
I0403 16:04:18.644193 20687 layer_factory.hpp:77] Creating layer loss2/conv
I0403 16:04:18.644215 20687 net.cpp:91] Creating Layer loss2/conv
I0403 16:04:18.644232 20687 net.cpp:425] loss2/conv <- loss2/ave_pool
I0403 16:04:18.644253 20687 net.cpp:399] loss2/conv -> loss2/conv
I0403 16:04:18.646103 20687 net.cpp:141] Setting up loss2/conv
I0403 16:04:18.646131 20687 net.cpp:148] Top shape: 24 128 4 4 (49152)
I0403 16:04:18.646147 20687 net.cpp:156] Memory required for data: 1207926048
I0403 16:04:18.646163 20687 layer_factory.hpp:77] Creating layer loss2/relu_conv
I0403 16:04:18.646183 20687 net.cpp:91] Creating Layer loss2/relu_conv
I0403 16:04:18.646198 20687 net.cpp:425] loss2/relu_conv <- loss2/conv
I0403 16:04:18.646215 20687 net.cpp:386] loss2/relu_conv -> loss2/conv (in-place)
I0403 16:04:18.646497 20687 net.cpp:141] Setting up loss2/relu_conv
I0403 16:04:18.646522 20687 net.cpp:148] Top shape: 24 128 4 4 (49152)
I0403 16:04:18.646536 20687 net.cpp:156] Memory required for data: 1208122656
I0403 16:04:18.646549 20687 layer_factory.hpp:77] Creating layer loss2/fc
I0403 16:04:18.646570 20687 net.cpp:91] Creating Layer loss2/fc
I0403 16:04:18.646586 20687 net.cpp:425] loss2/fc <- loss2/conv
I0403 16:04:18.646606 20687 net.cpp:399] loss2/fc -> loss2/fc
I0403 16:04:18.664307 20687 net.cpp:141] Setting up loss2/fc
I0403 16:04:18.664361 20687 net.cpp:148] Top shape: 24 1024 (24576)
I0403 16:04:18.664376 20687 net.cpp:156] Memory required for data: 1208220960
I0403 16:04:18.664394 20687 layer_factory.hpp:77] Creating layer loss2/relu_fc
I0403 16:04:18.664413 20687 net.cpp:91] Creating Layer loss2/relu_fc
I0403 16:04:18.664429 20687 net.cpp:425] loss2/relu_fc <- loss2/fc
I0403 16:04:18.664449 20687 net.cpp:386] loss2/relu_fc -> loss2/fc (in-place)
I0403 16:04:18.664782 20687 net.cpp:141] Setting up loss2/relu_fc
I0403 16:04:18.664808 20687 net.cpp:148] Top shape: 24 1024 (24576)
I0403 16:04:18.664822 20687 net.cpp:156] Memory required for data: 1208319264
I0403 16:04:18.664837 20687 layer_factory.hpp:77] Creating layer loss2/drop_fc
I0403 16:04:18.664855 20687 net.cpp:91] Creating Layer loss2/drop_fc
I0403 16:04:18.664870 20687 net.cpp:425] loss2/drop_fc <- loss2/fc
I0403 16:04:18.664890 20687 net.cpp:386] loss2/drop_fc -> loss2/fc (in-place)
I0403 16:04:18.664939 20687 net.cpp:141] Setting up loss2/drop_fc
I0403 16:04:18.664971 20687 net.cpp:148] Top shape: 24 1024 (24576)
I0403 16:04:18.664988 20687 net.cpp:156] Memory required for data: 1208417568
I0403 16:04:18.665002 20687 layer_factory.hpp:77] Creating layer loss2/classifier_plantvillage
I0403 16:04:18.665020 20687 net.cpp:91] Creating Layer loss2/classifier_plantvillage
I0403 16:04:18.665035 20687 net.cpp:425] loss2/classifier_plantvillage <- loss2/fc
I0403 16:04:18.665058 20687 net.cpp:399] loss2/classifier_plantvillage -> loss2/classifier_plantvillage
I0403 16:04:18.665594 20687 net.cpp:141] Setting up loss2/classifier_plantvillage
I0403 16:04:18.665621 20687 net.cpp:148] Top shape: 24 38 (912)
I0403 16:04:18.665635 20687 net.cpp:156] Memory required for data: 1208421216
I0403 16:04:18.665678 20687 layer_factory.hpp:77] Creating layer loss2/classifier_plantvillage_loss2/classifier_plantvillage_0_split
I0403 16:04:18.665699 20687 net.cpp:91] Creating Layer loss2/classifier_plantvillage_loss2/classifier_plantvillage_0_split
I0403 16:04:18.665716 20687 net.cpp:425] loss2/classifier_plantvillage_loss2/classifier_plantvillage_0_split <- loss2/classifier_plantvillage
I0403 16:04:18.665734 20687 net.cpp:399] loss2/classifier_plantvillage_loss2/classifier_plantvillage_0_split -> loss2/classifier_plantvillage_loss2/classifier_plantvillage_0_split_0
I0403 16:04:18.665757 20687 net.cpp:399] loss2/classifier_plantvillage_loss2/classifier_plantvillage_0_split -> loss2/classifier_plantvillage_loss2/classifier_plantvillage_0_split_1
I0403 16:04:18.665778 20687 net.cpp:399] loss2/classifier_plantvillage_loss2/classifier_plantvillage_0_split -> loss2/classifier_plantvillage_loss2/classifier_plantvillage_0_split_2
I0403 16:04:18.665854 20687 net.cpp:141] Setting up loss2/classifier_plantvillage_loss2/classifier_plantvillage_0_split
I0403 16:04:18.665877 20687 net.cpp:148] Top shape: 24 38 (912)
I0403 16:04:18.665894 20687 net.cpp:148] Top shape: 24 38 (912)
I0403 16:04:18.665909 20687 net.cpp:148] Top shape: 24 38 (912)
I0403 16:04:18.665922 20687 net.cpp:156] Memory required for data: 1208432160
I0403 16:04:18.665936 20687 layer_factory.hpp:77] Creating layer inception_4e/1x1
I0403 16:04:18.665966 20687 net.cpp:91] Creating Layer inception_4e/1x1
I0403 16:04:18.665985 20687 net.cpp:425] inception_4e/1x1 <- inception_4d/output_inception_4d/output_0_split_1
I0403 16:04:18.666004 20687 net.cpp:399] inception_4e/1x1 -> inception_4e/1x1
I0403 16:04:18.667933 20687 net.cpp:141] Setting up inception_4e/1x1
I0403 16:04:18.667978 20687 net.cpp:148] Top shape: 24 256 14 14 (1204224)
I0403 16:04:18.667996 20687 net.cpp:156] Memory required for data: 1213249056
I0403 16:04:18.668015 20687 layer_factory.hpp:77] Creating layer inception_4e/relu_1x1
I0403 16:04:18.668032 20687 net.cpp:91] Creating Layer inception_4e/relu_1x1
I0403 16:04:18.668048 20687 net.cpp:425] inception_4e/relu_1x1 <- inception_4e/1x1
I0403 16:04:18.668064 20687 net.cpp:386] inception_4e/relu_1x1 -> inception_4e/1x1 (in-place)
I0403 16:04:18.668367 20687 net.cpp:141] Setting up inception_4e/relu_1x1
I0403 16:04:18.668396 20687 net.cpp:148] Top shape: 24 256 14 14 (1204224)
I0403 16:04:18.668411 20687 net.cpp:156] Memory required for data: 1218065952
I0403 16:04:18.668426 20687 layer_factory.hpp:77] Creating layer inception_4e/3x3_reduce
I0403 16:04:18.668445 20687 net.cpp:91] Creating Layer inception_4e/3x3_reduce
I0403 16:04:18.668462 20687 net.cpp:425] inception_4e/3x3_reduce <- inception_4d/output_inception_4d/output_0_split_2
I0403 16:04:18.668483 20687 net.cpp:399] inception_4e/3x3_reduce -> inception_4e/3x3_reduce
I0403 16:04:18.670647 20687 net.cpp:141] Setting up inception_4e/3x3_reduce
I0403 16:04:18.670676 20687 net.cpp:148] Top shape: 24 160 14 14 (752640)
I0403 16:04:18.670691 20687 net.cpp:156] Memory required for data: 1221076512
I0403 16:04:18.670709 20687 layer_factory.hpp:77] Creating layer inception_4e/relu_3x3_reduce
I0403 16:04:18.670729 20687 net.cpp:91] Creating Layer inception_4e/relu_3x3_reduce
I0403 16:04:18.670747 20687 net.cpp:425] inception_4e/relu_3x3_reduce <- inception_4e/3x3_reduce
I0403 16:04:18.670763 20687 net.cpp:386] inception_4e/relu_3x3_reduce -> inception_4e/3x3_reduce (in-place)
I0403 16:04:18.670948 20687 net.cpp:141] Setting up inception_4e/relu_3x3_reduce
I0403 16:04:18.670982 20687 net.cpp:148] Top shape: 24 160 14 14 (752640)
I0403 16:04:18.670999 20687 net.cpp:156] Memory required for data: 1224087072
I0403 16:04:18.671013 20687 layer_factory.hpp:77] Creating layer inception_4e/3x3
I0403 16:04:18.671035 20687 net.cpp:91] Creating Layer inception_4e/3x3
I0403 16:04:18.671052 20687 net.cpp:425] inception_4e/3x3 <- inception_4e/3x3_reduce
I0403 16:04:18.671072 20687 net.cpp:399] inception_4e/3x3 -> inception_4e/3x3
I0403 16:04:18.676103 20687 net.cpp:141] Setting up inception_4e/3x3
I0403 16:04:18.676147 20687 net.cpp:148] Top shape: 24 320 14 14 (1505280)
I0403 16:04:18.676164 20687 net.cpp:156] Memory required for data: 1230108192
I0403 16:04:18.676182 20687 layer_factory.hpp:77] Creating layer inception_4e/relu_3x3
I0403 16:04:18.676200 20687 net.cpp:91] Creating Layer inception_4e/relu_3x3
I0403 16:04:18.676216 20687 net.cpp:425] inception_4e/relu_3x3 <- inception_4e/3x3
I0403 16:04:18.676234 20687 net.cpp:386] inception_4e/relu_3x3 -> inception_4e/3x3 (in-place)
I0403 16:04:18.676539 20687 net.cpp:141] Setting up inception_4e/relu_3x3
I0403 16:04:18.676565 20687 net.cpp:148] Top shape: 24 320 14 14 (1505280)
I0403 16:04:18.676580 20687 net.cpp:156] Memory required for data: 1236129312
I0403 16:04:18.676595 20687 layer_factory.hpp:77] Creating layer inception_4e/5x5_reduce
I0403 16:04:18.676619 20687 net.cpp:91] Creating Layer inception_4e/5x5_reduce
I0403 16:04:18.676636 20687 net.cpp:425] inception_4e/5x5_reduce <- inception_4d/output_inception_4d/output_0_split_3
I0403 16:04:18.676657 20687 net.cpp:399] inception_4e/5x5_reduce -> inception_4e/5x5_reduce
I0403 16:04:18.677747 20687 net.cpp:141] Setting up inception_4e/5x5_reduce
I0403 16:04:18.677774 20687 net.cpp:148] Top shape: 24 32 14 14 (150528)
I0403 16:04:18.677789 20687 net.cpp:156] Memory required for data: 1236731424
I0403 16:04:18.677808 20687 layer_factory.hpp:77] Creating layer inception_4e/relu_5x5_reduce
I0403 16:04:18.677827 20687 net.cpp:91] Creating Layer inception_4e/relu_5x5_reduce
I0403 16:04:18.677844 20687 net.cpp:425] inception_4e/relu_5x5_reduce <- inception_4e/5x5_reduce
I0403 16:04:18.677861 20687 net.cpp:386] inception_4e/relu_5x5_reduce -> inception_4e/5x5_reduce (in-place)
I0403 16:04:18.678215 20687 net.cpp:141] Setting up inception_4e/relu_5x5_reduce
I0403 16:04:18.678243 20687 net.cpp:148] Top shape: 24 32 14 14 (150528)
I0403 16:04:18.678261 20687 net.cpp:156] Memory required for data: 1237333536
I0403 16:04:18.678275 20687 layer_factory.hpp:77] Creating layer inception_4e/5x5
I0403 16:04:18.678330 20687 net.cpp:91] Creating Layer inception_4e/5x5
I0403 16:04:18.678350 20687 net.cpp:425] inception_4e/5x5 <- inception_4e/5x5_reduce
I0403 16:04:18.678372 20687 net.cpp:399] inception_4e/5x5 -> inception_4e/5x5
I0403 16:04:18.680300 20687 net.cpp:141] Setting up inception_4e/5x5
I0403 16:04:18.680330 20687 net.cpp:148] Top shape: 24 128 14 14 (602112)
I0403 16:04:18.680344 20687 net.cpp:156] Memory required for data: 1239741984
I0403 16:04:18.680363 20687 layer_factory.hpp:77] Creating layer inception_4e/relu_5x5
I0403 16:04:18.680384 20687 net.cpp:91] Creating Layer inception_4e/relu_5x5
I0403 16:04:18.680402 20687 net.cpp:425] inception_4e/relu_5x5 <- inception_4e/5x5
I0403 16:04:18.680419 20687 net.cpp:386] inception_4e/relu_5x5 -> inception_4e/5x5 (in-place)
I0403 16:04:18.680624 20687 net.cpp:141] Setting up inception_4e/relu_5x5
I0403 16:04:18.680650 20687 net.cpp:148] Top shape: 24 128 14 14 (602112)
I0403 16:04:18.680665 20687 net.cpp:156] Memory required for data: 1242150432
I0403 16:04:18.680680 20687 layer_factory.hpp:77] Creating layer inception_4e/pool
I0403 16:04:18.680701 20687 net.cpp:91] Creating Layer inception_4e/pool
I0403 16:04:18.680717 20687 net.cpp:425] inception_4e/pool <- inception_4d/output_inception_4d/output_0_split_4
I0403 16:04:18.680735 20687 net.cpp:399] inception_4e/pool -> inception_4e/pool
I0403 16:04:18.680809 20687 net.cpp:141] Setting up inception_4e/pool
I0403 16:04:18.680835 20687 net.cpp:148] Top shape: 24 528 14 14 (2483712)
I0403 16:04:18.680850 20687 net.cpp:156] Memory required for data: 1252085280
I0403 16:04:18.680863 20687 layer_factory.hpp:77] Creating layer inception_4e/pool_proj
I0403 16:04:18.680886 20687 net.cpp:91] Creating Layer inception_4e/pool_proj
I0403 16:04:18.680903 20687 net.cpp:425] inception_4e/pool_proj <- inception_4e/pool
I0403 16:04:18.680925 20687 net.cpp:399] inception_4e/pool_proj -> inception_4e/pool_proj
I0403 16:04:18.682519 20687 net.cpp:141] Setting up inception_4e/pool_proj
I0403 16:04:18.682548 20687 net.cpp:148] Top shape: 24 128 14 14 (602112)
I0403 16:04:18.682579 20687 net.cpp:156] Memory required for data: 1254493728
I0403 16:04:18.682600 20687 layer_factory.hpp:77] Creating layer inception_4e/relu_pool_proj
I0403 16:04:18.682617 20687 net.cpp:91] Creating Layer inception_4e/relu_pool_proj
I0403 16:04:18.682637 20687 net.cpp:425] inception_4e/relu_pool_proj <- inception_4e/pool_proj
I0403 16:04:18.682656 20687 net.cpp:386] inception_4e/relu_pool_proj -> inception_4e/pool_proj (in-place)
I0403 16:04:18.682971 20687 net.cpp:141] Setting up inception_4e/relu_pool_proj
I0403 16:04:18.682997 20687 net.cpp:148] Top shape: 24 128 14 14 (602112)
I0403 16:04:18.683015 20687 net.cpp:156] Memory required for data: 1256902176
I0403 16:04:18.683030 20687 layer_factory.hpp:77] Creating layer inception_4e/output
I0403 16:04:18.683048 20687 net.cpp:91] Creating Layer inception_4e/output
I0403 16:04:18.683064 20687 net.cpp:425] inception_4e/output <- inception_4e/1x1
I0403 16:04:18.683081 20687 net.cpp:425] inception_4e/output <- inception_4e/3x3
I0403 16:04:18.683097 20687 net.cpp:425] inception_4e/output <- inception_4e/5x5
I0403 16:04:18.683114 20687 net.cpp:425] inception_4e/output <- inception_4e/pool_proj
I0403 16:04:18.683132 20687 net.cpp:399] inception_4e/output -> inception_4e/output
I0403 16:04:18.683184 20687 net.cpp:141] Setting up inception_4e/output
I0403 16:04:18.683212 20687 net.cpp:148] Top shape: 24 832 14 14 (3913728)
I0403 16:04:18.683228 20687 net.cpp:156] Memory required for data: 1272557088
I0403 16:04:18.683251 20687 layer_factory.hpp:77] Creating layer pool4/3x3_s2
I0403 16:04:18.683275 20687 net.cpp:91] Creating Layer pool4/3x3_s2
I0403 16:04:18.683302 20687 net.cpp:425] pool4/3x3_s2 <- inception_4e/output
I0403 16:04:18.683332 20687 net.cpp:399] pool4/3x3_s2 -> pool4/3x3_s2
I0403 16:04:18.683405 20687 net.cpp:141] Setting up pool4/3x3_s2
I0403 16:04:18.683430 20687 net.cpp:148] Top shape: 24 832 7 7 (978432)
I0403 16:04:18.683445 20687 net.cpp:156] Memory required for data: 1276470816
I0403 16:04:18.683460 20687 layer_factory.hpp:77] Creating layer pool4/3x3_s2_pool4/3x3_s2_0_split
I0403 16:04:18.683480 20687 net.cpp:91] Creating Layer pool4/3x3_s2_pool4/3x3_s2_0_split
I0403 16:04:18.683496 20687 net.cpp:425] pool4/3x3_s2_pool4/3x3_s2_0_split <- pool4/3x3_s2
I0403 16:04:18.683514 20687 net.cpp:399] pool4/3x3_s2_pool4/3x3_s2_0_split -> pool4/3x3_s2_pool4/3x3_s2_0_split_0
I0403 16:04:18.683536 20687 net.cpp:399] pool4/3x3_s2_pool4/3x3_s2_0_split -> pool4/3x3_s2_pool4/3x3_s2_0_split_1
I0403 16:04:18.683555 20687 net.cpp:399] pool4/3x3_s2_pool4/3x3_s2_0_split -> pool4/3x3_s2_pool4/3x3_s2_0_split_2
I0403 16:04:18.683576 20687 net.cpp:399] pool4/3x3_s2_pool4/3x3_s2_0_split -> pool4/3x3_s2_pool4/3x3_s2_0_split_3
I0403 16:04:18.683671 20687 net.cpp:141] Setting up pool4/3x3_s2_pool4/3x3_s2_0_split
I0403 16:04:18.683694 20687 net.cpp:148] Top shape: 24 832 7 7 (978432)
I0403 16:04:18.683712 20687 net.cpp:148] Top shape: 24 832 7 7 (978432)
I0403 16:04:18.683727 20687 net.cpp:148] Top shape: 24 832 7 7 (978432)
I0403 16:04:18.683742 20687 net.cpp:148] Top shape: 24 832 7 7 (978432)
I0403 16:04:18.683755 20687 net.cpp:156] Memory required for data: 1292125728
I0403 16:04:18.683769 20687 layer_factory.hpp:77] Creating layer inception_5a/1x1
I0403 16:04:18.683792 20687 net.cpp:91] Creating Layer inception_5a/1x1
I0403 16:04:18.683809 20687 net.cpp:425] inception_5a/1x1 <- pool4/3x3_s2_pool4/3x3_s2_0_split_0
I0403 16:04:18.683831 20687 net.cpp:399] inception_5a/1x1 -> inception_5a/1x1
I0403 16:04:18.686900 20687 net.cpp:141] Setting up inception_5a/1x1
I0403 16:04:18.686930 20687 net.cpp:148] Top shape: 24 256 7 7 (301056)
I0403 16:04:18.686946 20687 net.cpp:156] Memory required for data: 1293329952
I0403 16:04:18.686974 20687 layer_factory.hpp:77] Creating layer inception_5a/relu_1x1
I0403 16:04:18.686995 20687 net.cpp:91] Creating Layer inception_5a/relu_1x1
I0403 16:04:18.687012 20687 net.cpp:425] inception_5a/relu_1x1 <- inception_5a/1x1
I0403 16:04:18.687029 20687 net.cpp:386] inception_5a/relu_1x1 -> inception_5a/1x1 (in-place)
I0403 16:04:18.687357 20687 net.cpp:141] Setting up inception_5a/relu_1x1
I0403 16:04:18.687384 20687 net.cpp:148] Top shape: 24 256 7 7 (301056)
I0403 16:04:18.687400 20687 net.cpp:156] Memory required for data: 1294534176
I0403 16:04:18.687415 20687 layer_factory.hpp:77] Creating layer inception_5a/3x3_reduce
I0403 16:04:18.687438 20687 net.cpp:91] Creating Layer inception_5a/3x3_reduce
I0403 16:04:18.687456 20687 net.cpp:425] inception_5a/3x3_reduce <- pool4/3x3_s2_pool4/3x3_s2_0_split_1
I0403 16:04:18.687479 20687 net.cpp:399] inception_5a/3x3_reduce -> inception_5a/3x3_reduce
I0403 16:04:18.690052 20687 net.cpp:141] Setting up inception_5a/3x3_reduce
I0403 16:04:18.690084 20687 net.cpp:148] Top shape: 24 160 7 7 (188160)
I0403 16:04:18.690101 20687 net.cpp:156] Memory required for data: 1295286816
I0403 16:04:18.690120 20687 layer_factory.hpp:77] Creating layer inception_5a/relu_3x3_reduce
I0403 16:04:18.690140 20687 net.cpp:91] Creating Layer inception_5a/relu_3x3_reduce
I0403 16:04:18.690155 20687 net.cpp:425] inception_5a/relu_3x3_reduce <- inception_5a/3x3_reduce
I0403 16:04:18.690176 20687 net.cpp:386] inception_5a/relu_3x3_reduce -> inception_5a/3x3_reduce (in-place)
I0403 16:04:18.690371 20687 net.cpp:141] Setting up inception_5a/relu_3x3_reduce
I0403 16:04:18.690397 20687 net.cpp:148] Top shape: 24 160 7 7 (188160)
I0403 16:04:18.690412 20687 net.cpp:156] Memory required for data: 1296039456
I0403 16:04:18.690426 20687 layer_factory.hpp:77] Creating layer inception_5a/3x3
I0403 16:04:18.690449 20687 net.cpp:91] Creating Layer inception_5a/3x3
I0403 16:04:18.690467 20687 net.cpp:425] inception_5a/3x3 <- inception_5a/3x3_reduce
I0403 16:04:18.690490 20687 net.cpp:399] inception_5a/3x3 -> inception_5a/3x3
I0403 16:04:18.695559 20687 net.cpp:141] Setting up inception_5a/3x3
I0403 16:04:18.695587 20687 net.cpp:148] Top shape: 24 320 7 7 (376320)
I0403 16:04:18.695603 20687 net.cpp:156] Memory required for data: 1297544736
I0403 16:04:18.695621 20687 layer_factory.hpp:77] Creating layer inception_5a/relu_3x3
I0403 16:04:18.695641 20687 net.cpp:91] Creating Layer inception_5a/relu_3x3
I0403 16:04:18.695658 20687 net.cpp:425] inception_5a/relu_3x3 <- inception_5a/3x3
I0403 16:04:18.695675 20687 net.cpp:386] inception_5a/relu_3x3 -> inception_5a/3x3 (in-place)
I0403 16:04:18.695998 20687 net.cpp:141] Setting up inception_5a/relu_3x3
I0403 16:04:18.696025 20687 net.cpp:148] Top shape: 24 320 7 7 (376320)
I0403 16:04:18.696041 20687 net.cpp:156] Memory required for data: 1299050016
I0403 16:04:18.696055 20687 layer_factory.hpp:77] Creating layer inception_5a/5x5_reduce
I0403 16:04:18.696079 20687 net.cpp:91] Creating Layer inception_5a/5x5_reduce
I0403 16:04:18.696097 20687 net.cpp:425] inception_5a/5x5_reduce <- pool4/3x3_s2_pool4/3x3_s2_0_split_2
I0403 16:04:18.696120 20687 net.cpp:399] inception_5a/5x5_reduce -> inception_5a/5x5_reduce
I0403 16:04:18.697345 20687 net.cpp:141] Setting up inception_5a/5x5_reduce
I0403 16:04:18.697374 20687 net.cpp:148] Top shape: 24 32 7 7 (37632)
I0403 16:04:18.697389 20687 net.cpp:156] Memory required for data: 1299200544
I0403 16:04:18.697407 20687 layer_factory.hpp:77] Creating layer inception_5a/relu_5x5_reduce
I0403 16:04:18.697425 20687 net.cpp:91] Creating Layer inception_5a/relu_5x5_reduce
I0403 16:04:18.697441 20687 net.cpp:425] inception_5a/relu_5x5_reduce <- inception_5a/5x5_reduce
I0403 16:04:18.697458 20687 net.cpp:386] inception_5a/relu_5x5_reduce -> inception_5a/5x5_reduce (in-place)
I0403 16:04:18.697759 20687 net.cpp:141] Setting up inception_5a/relu_5x5_reduce
I0403 16:04:18.697785 20687 net.cpp:148] Top shape: 24 32 7 7 (37632)
I0403 16:04:18.697799 20687 net.cpp:156] Memory required for data: 1299351072
I0403 16:04:18.697813 20687 layer_factory.hpp:77] Creating layer inception_5a/5x5
I0403 16:04:18.697835 20687 net.cpp:91] Creating Layer inception_5a/5x5
I0403 16:04:18.697854 20687 net.cpp:425] inception_5a/5x5 <- inception_5a/5x5_reduce
I0403 16:04:18.697872 20687 net.cpp:399] inception_5a/5x5 -> inception_5a/5x5
I0403 16:04:18.699580 20687 net.cpp:141] Setting up inception_5a/5x5
I0403 16:04:18.699620 20687 net.cpp:148] Top shape: 24 128 7 7 (150528)
I0403 16:04:18.699635 20687 net.cpp:156] Memory required for data: 1299953184
I0403 16:04:18.699652 20687 layer_factory.hpp:77] Creating layer inception_5a/relu_5x5
I0403 16:04:18.699671 20687 net.cpp:91] Creating Layer inception_5a/relu_5x5
I0403 16:04:18.699687 20687 net.cpp:425] inception_5a/relu_5x5 <- inception_5a/5x5
I0403 16:04:18.699704 20687 net.cpp:386] inception_5a/relu_5x5 -> inception_5a/5x5 (in-place)
I0403 16:04:18.699892 20687 net.cpp:141] Setting up inception_5a/relu_5x5
I0403 16:04:18.699916 20687 net.cpp:148] Top shape: 24 128 7 7 (150528)
I0403 16:04:18.699930 20687 net.cpp:156] Memory required for data: 1300555296
I0403 16:04:18.699944 20687 layer_factory.hpp:77] Creating layer inception_5a/pool
I0403 16:04:18.699970 20687 net.cpp:91] Creating Layer inception_5a/pool
I0403 16:04:18.699987 20687 net.cpp:425] inception_5a/pool <- pool4/3x3_s2_pool4/3x3_s2_0_split_3
I0403 16:04:18.700006 20687 net.cpp:399] inception_5a/pool -> inception_5a/pool
I0403 16:04:18.700075 20687 net.cpp:141] Setting up inception_5a/pool
I0403 16:04:18.700098 20687 net.cpp:148] Top shape: 24 832 7 7 (978432)
I0403 16:04:18.700112 20687 net.cpp:156] Memory required for data: 1304469024
I0403 16:04:18.700126 20687 layer_factory.hpp:77] Creating layer inception_5a/pool_proj
I0403 16:04:18.700147 20687 net.cpp:91] Creating Layer inception_5a/pool_proj
I0403 16:04:18.700165 20687 net.cpp:425] inception_5a/pool_proj <- inception_5a/pool
I0403 16:04:18.700184 20687 net.cpp:399] inception_5a/pool_proj -> inception_5a/pool_proj
I0403 16:04:18.702430 20687 net.cpp:141] Setting up inception_5a/pool_proj
I0403 16:04:18.702457 20687 net.cpp:148] Top shape: 24 128 7 7 (150528)
I0403 16:04:18.702472 20687 net.cpp:156] Memory required for data: 1305071136
I0403 16:04:18.702489 20687 layer_factory.hpp:77] Creating layer inception_5a/relu_pool_proj
I0403 16:04:18.702507 20687 net.cpp:91] Creating Layer inception_5a/relu_pool_proj
I0403 16:04:18.702522 20687 net.cpp:425] inception_5a/relu_pool_proj <- inception_5a/pool_proj
I0403 16:04:18.702540 20687 net.cpp:386] inception_5a/relu_pool_proj -> inception_5a/pool_proj (in-place)
I0403 16:04:18.702831 20687 net.cpp:141] Setting up inception_5a/relu_pool_proj
I0403 16:04:18.702855 20687 net.cpp:148] Top shape: 24 128 7 7 (150528)
I0403 16:04:18.702869 20687 net.cpp:156] Memory required for data: 1305673248
I0403 16:04:18.702883 20687 layer_factory.hpp:77] Creating layer inception_5a/output
I0403 16:04:18.702899 20687 net.cpp:91] Creating Layer inception_5a/output
I0403 16:04:18.702914 20687 net.cpp:425] inception_5a/output <- inception_5a/1x1
I0403 16:04:18.702930 20687 net.cpp:425] inception_5a/output <- inception_5a/3x3
I0403 16:04:18.702945 20687 net.cpp:425] inception_5a/output <- inception_5a/5x5
I0403 16:04:18.702968 20687 net.cpp:425] inception_5a/output <- inception_5a/pool_proj
I0403 16:04:18.702988 20687 net.cpp:399] inception_5a/output -> inception_5a/output
I0403 16:04:18.703037 20687 net.cpp:141] Setting up inception_5a/output
I0403 16:04:18.703063 20687 net.cpp:148] Top shape: 24 832 7 7 (978432)
I0403 16:04:18.703078 20687 net.cpp:156] Memory required for data: 1309586976
I0403 16:04:18.703093 20687 layer_factory.hpp:77] Creating layer inception_5a/output_inception_5a/output_0_split
I0403 16:04:18.703109 20687 net.cpp:91] Creating Layer inception_5a/output_inception_5a/output_0_split
I0403 16:04:18.703124 20687 net.cpp:425] inception_5a/output_inception_5a/output_0_split <- inception_5a/output
I0403 16:04:18.703140 20687 net.cpp:399] inception_5a/output_inception_5a/output_0_split -> inception_5a/output_inception_5a/output_0_split_0
I0403 16:04:18.703161 20687 net.cpp:399] inception_5a/output_inception_5a/output_0_split -> inception_5a/output_inception_5a/output_0_split_1
I0403 16:04:18.703181 20687 net.cpp:399] inception_5a/output_inception_5a/output_0_split -> inception_5a/output_inception_5a/output_0_split_2
I0403 16:04:18.703200 20687 net.cpp:399] inception_5a/output_inception_5a/output_0_split -> inception_5a/output_inception_5a/output_0_split_3
I0403 16:04:18.703310 20687 net.cpp:141] Setting up inception_5a/output_inception_5a/output_0_split
I0403 16:04:18.703335 20687 net.cpp:148] Top shape: 24 832 7 7 (978432)
I0403 16:04:18.703349 20687 net.cpp:148] Top shape: 24 832 7 7 (978432)
I0403 16:04:18.703364 20687 net.cpp:148] Top shape: 24 832 7 7 (978432)
I0403 16:04:18.703379 20687 net.cpp:148] Top shape: 24 832 7 7 (978432)
I0403 16:04:18.703392 20687 net.cpp:156] Memory required for data: 1325241888
I0403 16:04:18.703405 20687 layer_factory.hpp:77] Creating layer inception_5b/1x1
I0403 16:04:18.703426 20687 net.cpp:91] Creating Layer inception_5b/1x1
I0403 16:04:18.703444 20687 net.cpp:425] inception_5b/1x1 <- inception_5a/output_inception_5a/output_0_split_0
I0403 16:04:18.703464 20687 net.cpp:399] inception_5b/1x1 -> inception_5b/1x1
I0403 16:04:18.707144 20687 net.cpp:141] Setting up inception_5b/1x1
I0403 16:04:18.707173 20687 net.cpp:148] Top shape: 24 384 7 7 (451584)
I0403 16:04:18.707190 20687 net.cpp:156] Memory required for data: 1327048224
I0403 16:04:18.707207 20687 layer_factory.hpp:77] Creating layer inception_5b/relu_1x1
I0403 16:04:18.707224 20687 net.cpp:91] Creating Layer inception_5b/relu_1x1
I0403 16:04:18.707239 20687 net.cpp:425] inception_5b/relu_1x1 <- inception_5b/1x1
I0403 16:04:18.707258 20687 net.cpp:386] inception_5b/relu_1x1 -> inception_5b/1x1 (in-place)
I0403 16:04:18.707564 20687 net.cpp:141] Setting up inception_5b/relu_1x1
I0403 16:04:18.707592 20687 net.cpp:148] Top shape: 24 384 7 7 (451584)
I0403 16:04:18.707607 20687 net.cpp:156] Memory required for data: 1328854560
I0403 16:04:18.707620 20687 layer_factory.hpp:77] Creating layer inception_5b/3x3_reduce
I0403 16:04:18.707643 20687 net.cpp:91] Creating Layer inception_5b/3x3_reduce
I0403 16:04:18.707659 20687 net.cpp:425] inception_5b/3x3_reduce <- inception_5a/output_inception_5a/output_0_split_1
I0403 16:04:18.707677 20687 net.cpp:399] inception_5b/3x3_reduce -> inception_5b/3x3_reduce
I0403 16:04:18.710299 20687 net.cpp:141] Setting up inception_5b/3x3_reduce
I0403 16:04:18.710327 20687 net.cpp:148] Top shape: 24 192 7 7 (225792)
I0403 16:04:18.710342 20687 net.cpp:156] Memory required for data: 1329757728
I0403 16:04:18.710360 20687 layer_factory.hpp:77] Creating layer inception_5b/relu_3x3_reduce
I0403 16:04:18.710376 20687 net.cpp:91] Creating Layer inception_5b/relu_3x3_reduce
I0403 16:04:18.710392 20687 net.cpp:425] inception_5b/relu_3x3_reduce <- inception_5b/3x3_reduce
I0403 16:04:18.710412 20687 net.cpp:386] inception_5b/relu_3x3_reduce -> inception_5b/3x3_reduce (in-place)
I0403 16:04:18.710598 20687 net.cpp:141] Setting up inception_5b/relu_3x3_reduce
I0403 16:04:18.710623 20687 net.cpp:148] Top shape: 24 192 7 7 (225792)
I0403 16:04:18.710636 20687 net.cpp:156] Memory required for data: 1330660896
I0403 16:04:18.710650 20687 layer_factory.hpp:77] Creating layer inception_5b/3x3
I0403 16:04:18.710672 20687 net.cpp:91] Creating Layer inception_5b/3x3
I0403 16:04:18.710690 20687 net.cpp:425] inception_5b/3x3 <- inception_5b/3x3_reduce
I0403 16:04:18.710711 20687 net.cpp:399] inception_5b/3x3 -> inception_5b/3x3
I0403 16:04:18.717313 20687 net.cpp:141] Setting up inception_5b/3x3
I0403 16:04:18.717340 20687 net.cpp:148] Top shape: 24 384 7 7 (451584)
I0403 16:04:18.717355 20687 net.cpp:156] Memory required for data: 1332467232
I0403 16:04:18.717373 20687 layer_factory.hpp:77] Creating layer inception_5b/relu_3x3
I0403 16:04:18.717391 20687 net.cpp:91] Creating Layer inception_5b/relu_3x3
I0403 16:04:18.717406 20687 net.cpp:425] inception_5b/relu_3x3 <- inception_5b/3x3
I0403 16:04:18.717427 20687 net.cpp:386] inception_5b/relu_3x3 -> inception_5b/3x3 (in-place)
I0403 16:04:18.717720 20687 net.cpp:141] Setting up inception_5b/relu_3x3
I0403 16:04:18.717746 20687 net.cpp:148] Top shape: 24 384 7 7 (451584)
I0403 16:04:18.717759 20687 net.cpp:156] Memory required for data: 1334273568
I0403 16:04:18.717773 20687 layer_factory.hpp:77] Creating layer inception_5b/5x5_reduce
I0403 16:04:18.717809 20687 net.cpp:91] Creating Layer inception_5b/5x5_reduce
I0403 16:04:18.717828 20687 net.cpp:425] inception_5b/5x5_reduce <- inception_5a/output_inception_5a/output_0_split_2
I0403 16:04:18.717850 20687 net.cpp:399] inception_5b/5x5_reduce -> inception_5b/5x5_reduce
I0403 16:04:18.719121 20687 net.cpp:141] Setting up inception_5b/5x5_reduce
I0403 16:04:18.719148 20687 net.cpp:148] Top shape: 24 48 7 7 (56448)
I0403 16:04:18.719164 20687 net.cpp:156] Memory required for data: 1334499360
I0403 16:04:18.719182 20687 layer_factory.hpp:77] Creating layer inception_5b/relu_5x5_reduce
I0403 16:04:18.719198 20687 net.cpp:91] Creating Layer inception_5b/relu_5x5_reduce
I0403 16:04:18.719218 20687 net.cpp:425] inception_5b/relu_5x5_reduce <- inception_5b/5x5_reduce
I0403 16:04:18.719234 20687 net.cpp:386] inception_5b/relu_5x5_reduce -> inception_5b/5x5_reduce (in-place)
I0403 16:04:18.719599 20687 net.cpp:141] Setting up inception_5b/relu_5x5_reduce
I0403 16:04:18.719624 20687 net.cpp:148] Top shape: 24 48 7 7 (56448)
I0403 16:04:18.719640 20687 net.cpp:156] Memory required for data: 1334725152
I0403 16:04:18.719653 20687 layer_factory.hpp:77] Creating layer inception_5b/5x5
I0403 16:04:18.719672 20687 net.cpp:91] Creating Layer inception_5b/5x5
I0403 16:04:18.719689 20687 net.cpp:425] inception_5b/5x5 <- inception_5b/5x5_reduce
I0403 16:04:18.719707 20687 net.cpp:399] inception_5b/5x5 -> inception_5b/5x5
I0403 16:04:18.721725 20687 net.cpp:141] Setting up inception_5b/5x5
I0403 16:04:18.721753 20687 net.cpp:148] Top shape: 24 128 7 7 (150528)
I0403 16:04:18.721767 20687 net.cpp:156] Memory required for data: 1335327264
I0403 16:04:18.721784 20687 layer_factory.hpp:77] Creating layer inception_5b/relu_5x5
I0403 16:04:18.721804 20687 net.cpp:91] Creating Layer inception_5b/relu_5x5
I0403 16:04:18.721820 20687 net.cpp:425] inception_5b/relu_5x5 <- inception_5b/5x5
I0403 16:04:18.721837 20687 net.cpp:386] inception_5b/relu_5x5 -> inception_5b/5x5 (in-place)
I0403 16:04:18.722034 20687 net.cpp:141] Setting up inception_5b/relu_5x5
I0403 16:04:18.722061 20687 net.cpp:148] Top shape: 24 128 7 7 (150528)
I0403 16:04:18.722076 20687 net.cpp:156] Memory required for data: 1335929376
I0403 16:04:18.722090 20687 layer_factory.hpp:77] Creating layer inception_5b/pool
I0403 16:04:18.722106 20687 net.cpp:91] Creating Layer inception_5b/pool
I0403 16:04:18.722121 20687 net.cpp:425] inception_5b/pool <- inception_5a/output_inception_5a/output_0_split_3
I0403 16:04:18.722138 20687 net.cpp:399] inception_5b/pool -> inception_5b/pool
I0403 16:04:18.722210 20687 net.cpp:141] Setting up inception_5b/pool
I0403 16:04:18.722234 20687 net.cpp:148] Top shape: 24 832 7 7 (978432)
I0403 16:04:18.722247 20687 net.cpp:156] Memory required for data: 1339843104
I0403 16:04:18.722260 20687 layer_factory.hpp:77] Creating layer inception_5b/pool_proj
I0403 16:04:18.722281 20687 net.cpp:91] Creating Layer inception_5b/pool_proj
I0403 16:04:18.722297 20687 net.cpp:425] inception_5b/pool_proj <- inception_5b/pool
I0403 16:04:18.722318 20687 net.cpp:399] inception_5b/pool_proj -> inception_5b/pool_proj
I0403 16:04:18.724575 20687 net.cpp:141] Setting up inception_5b/pool_proj
I0403 16:04:18.724602 20687 net.cpp:148] Top shape: 24 128 7 7 (150528)
I0403 16:04:18.724617 20687 net.cpp:156] Memory required for data: 1340445216
I0403 16:04:18.724634 20687 layer_factory.hpp:77] Creating layer inception_5b/relu_pool_proj
I0403 16:04:18.724654 20687 net.cpp:91] Creating Layer inception_5b/relu_pool_proj
I0403 16:04:18.724671 20687 net.cpp:425] inception_5b/relu_pool_proj <- inception_5b/pool_proj
I0403 16:04:18.724689 20687 net.cpp:386] inception_5b/relu_pool_proj -> inception_5b/pool_proj (in-place)
I0403 16:04:18.724987 20687 net.cpp:141] Setting up inception_5b/relu_pool_proj
I0403 16:04:18.725013 20687 net.cpp:148] Top shape: 24 128 7 7 (150528)
I0403 16:04:18.725028 20687 net.cpp:156] Memory required for data: 1341047328
I0403 16:04:18.725041 20687 layer_factory.hpp:77] Creating layer inception_5b/output
I0403 16:04:18.725057 20687 net.cpp:91] Creating Layer inception_5b/output
I0403 16:04:18.725086 20687 net.cpp:425] inception_5b/output <- inception_5b/1x1
I0403 16:04:18.725103 20687 net.cpp:425] inception_5b/output <- inception_5b/3x3
I0403 16:04:18.725118 20687 net.cpp:425] inception_5b/output <- inception_5b/5x5
I0403 16:04:18.725133 20687 net.cpp:425] inception_5b/output <- inception_5b/pool_proj
I0403 16:04:18.725152 20687 net.cpp:399] inception_5b/output -> inception_5b/output
I0403 16:04:18.725203 20687 net.cpp:141] Setting up inception_5b/output
I0403 16:04:18.725229 20687 net.cpp:148] Top shape: 24 1024 7 7 (1204224)
I0403 16:04:18.725242 20687 net.cpp:156] Memory required for data: 1345864224
I0403 16:04:18.725256 20687 layer_factory.hpp:77] Creating layer pool5/7x7_s1
I0403 16:04:18.725272 20687 net.cpp:91] Creating Layer pool5/7x7_s1
I0403 16:04:18.725287 20687 net.cpp:425] pool5/7x7_s1 <- inception_5b/output
I0403 16:04:18.725307 20687 net.cpp:399] pool5/7x7_s1 -> pool5/7x7_s1
I0403 16:04:18.725528 20687 net.cpp:141] Setting up pool5/7x7_s1
I0403 16:04:18.725553 20687 net.cpp:148] Top shape: 24 1024 1 1 (24576)
I0403 16:04:18.725567 20687 net.cpp:156] Memory required for data: 1345962528
I0403 16:04:18.725581 20687 layer_factory.hpp:77] Creating layer pool5/drop_7x7_s1
I0403 16:04:18.725600 20687 net.cpp:91] Creating Layer pool5/drop_7x7_s1
I0403 16:04:18.725616 20687 net.cpp:425] pool5/drop_7x7_s1 <- pool5/7x7_s1
I0403 16:04:18.725633 20687 net.cpp:386] pool5/drop_7x7_s1 -> pool5/7x7_s1 (in-place)
I0403 16:04:18.725682 20687 net.cpp:141] Setting up pool5/drop_7x7_s1
I0403 16:04:18.725708 20687 net.cpp:148] Top shape: 24 1024 1 1 (24576)
I0403 16:04:18.725721 20687 net.cpp:156] Memory required for data: 1346060832
I0403 16:04:18.725735 20687 layer_factory.hpp:77] Creating layer loss3/classifier_plantvillage
I0403 16:04:18.725754 20687 net.cpp:91] Creating Layer loss3/classifier_plantvillage
I0403 16:04:18.725769 20687 net.cpp:425] loss3/classifier_plantvillage <- pool5/7x7_s1
I0403 16:04:18.725790 20687 net.cpp:399] loss3/classifier_plantvillage -> loss3/classifier_plantvillage
I0403 16:04:18.726258 20687 net.cpp:141] Setting up loss3/classifier_plantvillage
I0403 16:04:18.726282 20687 net.cpp:148] Top shape: 24 38 (912)
I0403 16:04:18.726297 20687 net.cpp:156] Memory required for data: 1346064480
I0403 16:04:18.726326 20687 layer_factory.hpp:77] Creating layer loss3/classifier_plantvillage_loss3/classifier_plantvillage_0_split
I0403 16:04:18.726344 20687 net.cpp:91] Creating Layer loss3/classifier_plantvillage_loss3/classifier_plantvillage_0_split
I0403 16:04:18.726361 20687 net.cpp:425] loss3/classifier_plantvillage_loss3/classifier_plantvillage_0_split <- loss3/classifier_plantvillage
I0403 16:04:18.726377 20687 net.cpp:399] loss3/classifier_plantvillage_loss3/classifier_plantvillage_0_split -> loss3/classifier_plantvillage_loss3/classifier_plantvillage_0_split_0
I0403 16:04:18.726400 20687 net.cpp:399] loss3/classifier_plantvillage_loss3/classifier_plantvillage_0_split -> loss3/classifier_plantvillage_loss3/classifier_plantvillage_0_split_1
I0403 16:04:18.726421 20687 net.cpp:399] loss3/classifier_plantvillage_loss3/classifier_plantvillage_0_split -> loss3/classifier_plantvillage_loss3/classifier_plantvillage_0_split_2
I0403 16:04:18.726441 20687 net.cpp:399] loss3/classifier_plantvillage_loss3/classifier_plantvillage_0_split -> loss3/classifier_plantvillage_loss3/classifier_plantvillage_0_split_3
I0403 16:04:18.726544 20687 net.cpp:141] Setting up loss3/classifier_plantvillage_loss3/classifier_plantvillage_0_split
I0403 16:04:18.726568 20687 net.cpp:148] Top shape: 24 38 (912)
I0403 16:04:18.726583 20687 net.cpp:148] Top shape: 24 38 (912)
I0403 16:04:18.726598 20687 net.cpp:148] Top shape: 24 38 (912)
I0403 16:04:18.726613 20687 net.cpp:148] Top shape: 24 38 (912)
I0403 16:04:18.726625 20687 net.cpp:156] Memory required for data: 1346079072
I0403 16:04:18.726639 20687 layer_factory.hpp:77] Creating layer loss1/loss
I0403 16:04:18.726662 20687 net.cpp:91] Creating Layer loss1/loss
I0403 16:04:18.726680 20687 net.cpp:425] loss1/loss <- loss1/classifier_plantvillage_loss1/classifier_plantvillage_0_split_0
I0403 16:04:18.726711 20687 net.cpp:425] loss1/loss <- label_data_1_split_0
…
