…
I0403 16:37:17.722300 21272 net.cpp:313] The NetState phase (1) differed from the phase (0) specified by a rule in layer data
I0403 16:37:17.723441 21272 net.cpp:49] Initializing net from parameters: 
state {
  phase: TEST
}
layer {
  name: "data"
  type: "Data"
  top: "data"
  top: "label"
  include {
    phase: TEST
  }
  transform_param {
    mirror: false
    crop_size: 224
    mean_file: "/home/mohanty/data/final_dataset/lmdb/color-40-60/mean.binaryproto"
  }
  data_param {
    source: "/home/mohanty/data/final_dataset/lmdb/color-40-60/test_db"
    batch_size: 24
    backend: LMDB
  }
}
layer {
  name: "conv1/7x7_s2"
  type: "Convolution"
  bottom: "data"
  top: "conv1/7x7_s2"
  param {
    lr_mult: 1
    decay_mult: 1
  }
  param {
    lr_mult: 2
    decay_mult: 0
  }
  convolution_param {
    num_output: 64
    pad: 3
    kernel_size: 7
    stride: 2
    weight_filler {
      type: "xavier"
      std: 0.1
    }
    bias_filler {
      type: "constant"
      value: 0.2
    }
  }
}
layer {
  name: "conv1/relu_7x7"
  type: "ReLU"
  bottom: "conv1/7x7_s2"
  top: "conv1/7x7_s2"
}
layer {
  name: "pool1/3x3_s2"
  type: "Pooling"
  bottom: "conv1/7x7_s2"
  top: "pool1/3x3_s2"
  pooling_param {
    pool: MAX
    kernel_size: 3
    stride: 2
  }
}
layer {
  name: "pool1/norm1"
  type: "LRN"
  bottom: "pool1/3x3_s2"
  top: "pool1/norm1"
  lrn_param {
    local_size: 5
    alpha: 0.0001
    beta: 0.75
  }
}
layer {
  name: "conv2/3x3_reduce"
  type: "Convolution"
  bottom: "pool1/norm1"
  top: "conv2/3x3_reduce"
  param {
    lr_mult: 1
    decay_mult: 1
  }
  param {
    lr_mult: 2
    decay_mult: 0
  }
  convolution_param {
    num_output: 64
    kernel_size: 1
    weight_filler {
      type: "xavier"
      std: 0.1
    }
    bias_filler {
      type: "constant"
      value: 0.2
    }
  }
}
layer {
  name: "conv2/relu_3x3_reduce"
  type: "ReLU"
  bottom: "conv2/3x3_reduce"
  top: "conv2/3x3_reduce"
}
layer {
  name: "conv2/3x3"
  type: "Convolution"
  bottom: "conv2/3x3_reduce"
  top: "conv2/3x3"
  param {
    lr_mult: 1
    decay_mult: 1
  }
  param {
    lr_mult: 2
    decay_mult: 0
  }
  convolution_param {
    num_output: 192
    pad: 1
    kernel_size: 3
    weight_filler {
      type: "xavier"
      std: 0.03
    }
    bias_filler {
      type: "constant"
      value: 0.2
    }
  }
}
layer {
  name: "conv2/relu_3x3"
  type: "ReLU"
  bottom: "conv2/3x3"
  top: "conv2/3x3"
}
layer {
  name: "conv2/norm2"
  type: "LRN"
  bottom: "conv2/3x3"
  top: "conv2/norm2"
  lrn_param {
    local_size: 5
    alpha: 0.0001
    beta: 0.75
  }
}
layer {
  name: "pool2/3x3_s2"
  type: "Pooling"
  bottom: "conv2/norm2"
  top: "pool2/3x3_s2"
  pooling_param {
    pool: MAX
    kernel_size: 3
    stride: 2
  }
}
layer {
  name: "inception_3a/1x1"
  type: "Convolution"
  bottom: "pool2/3x3_s2"
  top: "inception_3a/1x1"
  param {
    lr_mult: 1
    decay_mult: 1
  }
  param {
    lr_mult: 2
    decay_mult: 0
  }
  convolution_param {
    num_output: 64
    kernel_size: 1
    weight_filler {
      type: "xavier"
      std: 0.03
    }
    bias_filler {
      type: "constant"
      value: 0.2
    }
  }
}
layer {
  name: "inception_3a/relu_1x1"
  type: "ReLU"
  bottom: "inception_3a/1x1"
  top: "inception_3a/1x1"
}
layer {
  name: "inception_3a/3x3_reduce"
  type: "Convolution"
  bottom: "pool2/3x3_s2"
  top: "inception_3a/3x3_reduce"
  param {
    lr_mult: 1
    decay_mult: 1
  }
  param {
    lr_mult: 2
    decay_mult: 0
  }
  convolution_param {
    num_output: 96
    kernel_size: 1
    weight_filler {
      type: "xavier"
      std: 0.09
    }
    bias_filler {
      type: "constant"
      value: 0.2
    }
  }
}
layer {
  name: "inception_3a/relu_3x3_reduce"
  type: "ReLU"
  bottom: "inception_3a/3x3_reduce"
  top: "inception_3a/3x3_reduce"
}
layer {
  name: "inception_3a/3x3"
  type: "Convolution"
  bottom: "inception_3a/3x3_reduce"
  top: "inception_3a/3x3"
  param {
    lr_mult: 1
    decay_mult: 1
  }
  param {
    lr_mult: 2
    decay_mult: 0
  }
  convolution_param {
    num_output: 128
    pad: 1
    kernel_size: 3
    weight_filler {
      type: "xavier"
      std: 0.03
    }
    bias_filler {
      type: "constant"
      value: 0.2
    }
  }
}
layer {
  name: "inception_3a/relu_3x3"
  type: "ReLU"
  bottom: "inception_3a/3x3"
  top: "inception_3a/3x3"
}
layer {
  name: "inception_3a/5x5_reduce"
  type: "Convolution"
  bottom: "pool2/3x3_s2"
  top: "inception_3a/5x5_reduce"
  param {
    lr_mult: 1
    decay_mult: 1
  }
  param {
    lr_mult: 2
    decay_mult: 0
  }
  convolution_param {
    num_output: 16
    kernel_size: 1
    weight_filler {
      type: "xavier"
      std: 0.2
    }
    bias_filler {
      type: "constant"
      value: 0.2
    }
  }
}
layer {
  name: "inception_3a/relu_5x5_reduce"
  type: "ReLU"
  bottom: "inception_3a/5x5_reduce"
  top: "inception_3a/5x5_reduce"
}
layer {
  name: "inception_3a/5x5"
  type: "Convolution"
  bottom: "inception_3a/5x5_reduce"
  top: "inception_3a/5x5"
  param {
    lr_mult: 1
    decay_mult: 1
  }
  param {
    lr_mult: 2
    decay_mult: 0
  }
  convolution_param {
    num_output: 32
    pad: 2
    kernel_size: 5
    weight_filler {
      type: "xavier"
      std: 0.03
    }
    bias_filler {
      type: "constant"
      value: 0.2
    }
  }
}
layer {
  name: "inception_3a/relu_5x5"
  type: "ReLU"
  bottom: "inception_3a/5x5"
  top: "inception_3a/5x5"
}
layer {
  name: "inception_3a/pool"
  type: "Pooling"
  bottom: "pool2/3x3_s2"
  top: "inception_3a/pool"
  pooling_param {
    pool: MAX
    kernel_size: 3
    stride: 1
    pad: 1
  }
}
layer {
  name: "inception_3a/pool_proj"
  type: "Convolution"
  bottom: "inception_3a/pool"
  top: "inception_3a/pool_proj"
  param {
    lr_mult: 1
    decay_mult: 1
  }
  param {
    lr_mult: 2
    decay_mult: 0
  }
  convolution_param {
    num_output: 32
    kernel_size: 1
    weight_filler {
      type: "xavier"
      std: 0.1
    }
    bias_filler {
      type: "constant"
      value: 0.2
    }
  }
}
layer {
  name: "inception_3a/relu_pool_proj"
  type: "ReLU"
  bottom: "inception_3a/pool_proj"
  top: "inception_3a/pool_proj"
}
layer {
  name: "inception_3a/output"
  type: "Concat"
  bottom: "inception_3a/1x1"
  bottom: "inception_3a/3x3"
  bottom: "inception_3a/5x5"
  bottom: "inception_3a/pool_proj"
  top: "inception_3a/output"
}
layer {
  name: "inception_3b/1x1"
  type: "Convolution"
  bottom: "inception_3a/output"
  top: "inception_3b/1x1"
  param {
    lr_mult: 1
    decay_mult: 1
  }
  param {
    lr_mult: 2
    decay_mult: 0
  }
  convolution_param {
    num_output: 128
    kernel_size: 1
    weight_filler {
      type: "xavier"
      std: 0.03
    }
    bias_filler {
      type: "constant"
      value: 0.2
    }
  }
}
layer {
  name: "inception_3b/relu_1x1"
  type: "ReLU"
  bottom: "inception_3b/1x1"
  top: "inception_3b/1x1"
}
layer {
  name: "inception_3b/3x3_reduce"
  type: "Convolution"
  bottom: "inception_3a/output"
  top: "inception_3b/3x3_reduce"
  param {
    lr_mult: 1
    decay_mult: 1
  }
  param {
    lr_mult: 2
    decay_mult: 0
  }
  convolution_param {
    num_output: 128
    kernel_size: 1
    weight_filler {
      type: "xavier"
      std: 0.09
    }
    bias_filler {
      type: "constant"
      value: 0.2
    }
  }
}
layer {
  name: "inception_3b/relu_3x3_reduce"
  type: "ReLU"
  bottom: "inception_3b/3x3_reduce"
  top: "inception_3b/3x3_reduce"
}
layer {
  name: "inception_3b/3x3"
  type: "Convolution"
  bottom: "inception_3b/3x3_reduce"
  top: "inception_3b/3x3"
  param {
    lr_mult: 1
    decay_mult: 1
  }
  param {
    lr_mult: 2
    decay_mult: 0
  }
  convolution_param {
    num_output: 192
    pad: 1
    kernel_size: 3
    weight_filler {
      type: "xavier"
      std: 0.03
    }
    bias_filler {
      type: "constant"
      value: 0.2
    }
  }
}
layer {
  name: "inception_3b/relu_3x3"
  type: "ReLU"
  bottom: "inception_3b/3x3"
  top: "inception_3b/3x3"
}
layer {
  name: "inception_3b/5x5_reduce"
  type: "Convolution"
  bottom: "inception_3a/output"
  top: "inception_3b/5x5_reduce"
  param {
    lr_mult: 1
    decay_mult: 1
  }
  param {
    lr_mult: 2
    decay_mult: 0
  }
  convolution_param {
    num_output: 32
    kernel_size: 1
    weight_filler {
      type: "xavier"
      std: 0.2
    }
    bias_filler {
      type: "constant"
      value: 0.2
    }
  }
}
layer {
  name: "inception_3b/relu_5x5_reduce"
  type: "ReLU"
  bottom: "inception_3b/5x5_reduce"
  top: "inception_3b/5x5_reduce"
}
layer {
  name: "inception_3b/5x5"
  type: "Convolution"
  bottom: "inception_3b/5x5_reduce"
  top: "inception_3b/5x5"
  param {
    lr_mult: 1
    decay_mult: 1
  }
  param {
    lr_mult: 2
    decay_mult: 0
  }
  convolution_param {
    num_output: 96
    pad: 2
    kernel_size: 5
    weight_filler {
      type: "xavier"
      std: 0.03
    }
    bias_filler {
      type: "constant"
      value: 0.2
    }
  }
}
layer {
  name: "inception_3b/relu_5x5"
  type: "ReLU"
  bottom: "inception_3b/5x5"
  top: "inception_3b/5x5"
}
layer {
  name: "inception_3b/pool"
  type: "Pooling"
  bottom: "inception_3a/output"
  top: "inception_3b/pool"
  pooling_param {
    pool: MAX
    kernel_size: 3
    stride: 1
    pad: 1
  }
}
layer {
  name: "inception_3b/pool_proj"
  type: "Convolution"
  bottom: "inception_3b/pool"
  top: "inception_3b/pool_proj"
  param {
    lr_mult: 1
    decay_mult: 1
  }
  param {
    lr_mult: 2
    decay_mult: 0
  }
  convolution_param {
    num_output: 64
    kernel_size: 1
    weight_filler {
      type: "xavier"
      std: 0.1
    }
    bias_filler {
      type: "constant"
      value: 0.2
    }
  }
}
layer {
  name: "inception_3b/relu_pool_proj"
  type: "ReLU"
  bottom: "inception_3b/pool_proj"
  top: "inception_3b/pool_proj"
}
layer {
  name: "inception_3b/output"
  type: "Concat"
  bottom: "inception_3b/1x1"
  bottom: "inception_3b/3x3"
  bottom: "inception_3b/5x5"
  bottom: "inception_3b/pool_proj"
  top: "inception_3b/output"
}
layer {
  name: "pool3/3x3_s2"
  type: "Pooling"
  bottom: "inception_3b/output"
  top: "pool3/3x3_s2"
  pooling_param {
    pool: MAX
    kernel_size: 3
    stride: 2
  }
}
layer {
  name: "inception_4a/1x1"
  type: "Convolution"
  bottom: "pool3/3x3_s2"
  top: "inception_4a/1x1"
  param {
    lr_mult: 1
    decay_mult: 1
  }
  param {
    lr_mult: 2
    decay_mult: 0
  }
  convolution_param {
    num_output: 192
    kernel_size: 1
    weight_filler {
      type: "xavier"
      std: 0.03
    }
    bias_filler {
      type: "constant"
      value: 0.2
    }
  }
}
layer {
  name: "inception_4a/relu_1x1"
  type: "ReLU"
  bottom: "inception_4a/1x1"
  top: "inception_4a/1x1"
}
layer {
  name: "inception_4a/3x3_reduce"
  type: "Convolution"
  bottom: "pool3/3x3_s2"
  top: "inception_4a/3x3_reduce"
  param {
    lr_mult: 1
    decay_mult: 1
  }
  param {
    lr_mult: 2
    decay_mult: 0
  }
  convolution_param {
    num_output: 96
    kernel_size: 1
    weight_filler {
      type: "xavier"
      std: 0.09
    }
    bias_filler {
      type: "constant"
      value: 0.2
    }
  }
}
layer {
  name: "inception_4a/relu_3x3_reduce"
  type: "ReLU"
  bottom: "inception_4a/3x3_reduce"
  top: "inception_4a/3x3_reduce"
}
layer {
  name: "inception_4a/3x3"
  type: "Convolution"
  bottom: "inception_4a/3x3_reduce"
  top: "inception_4a/3x3"
  param {
    lr_mult: 1
    decay_mult: 1
  }
  param {
    lr_mult: 2
    decay_mult: 0
  }
  convolution_param {
    num_output: 208
    pad: 1
    kernel_size: 3
    weight_filler {
      type: "xavier"
      std: 0.03
    }
    bias_filler {
      type: "constant"
      value: 0.2
    }
  }
}
layer {
  name: "inception_4a/relu_3x3"
  type: "ReLU"
  bottom: "inception_4a/3x3"
  top: "inception_4a/3x3"
}
layer {
  name: "inception_4a/5x5_reduce"
  type: "Convolution"
  bottom: "pool3/3x3_s2"
  top: "inception_4a/5x5_reduce"
  param {
    lr_mult: 1
    decay_mult: 1
  }
  param {
    lr_mult: 2
    decay_mult: 0
  }
  convolution_param {
    num_output: 16
    kernel_size: 1
    weight_filler {
      type: "xavier"
      std: 0.2
    }
    bias_filler {
      type: "constant"
      value: 0.2
    }
  }
}
layer {
  name: "inception_4a/relu_5x5_reduce"
  type: "ReLU"
  bottom: "inception_4a/5x5_reduce"
  top: "inception_4a/5x5_reduce"
}
layer {
  name: "inception_4a/5x5"
  type: "Convolution"
  bottom: "inception_4a/5x5_reduce"
  top: "inception_4a/5x5"
  param {
    lr_mult: 1
    decay_mult: 1
  }
  param {
    lr_mult: 2
    decay_mult: 0
  }
  convolution_param {
    num_output: 48
    pad: 2
    kernel_size: 5
    weight_filler {
      type: "xavier"
      std: 0.03
    }
    bias_filler {
      type: "constant"
      value: 0.2
    }
  }
}
layer {
  name: "inception_4a/relu_5x5"
  type: "ReLU"
  bottom: "inception_4a/5x5"
  top: "inception_4a/5x5"
}
layer {
  name: "inception_4a/pool"
  type: "Pooling"
  bottom: "pool3/3x3_s2"
  top: "inception_4a/pool"
  pooling_param {
    pool: MAX
    kernel_size: 3
    stride: 1
    pad: 1
  }
}
layer {
  name: "inception_4a/pool_proj"
  type: "Convolution"
  bottom: "inception_4a/pool"
  top: "inception_4a/pool_proj"
  param {
    lr_mult: 1
    decay_mult: 1
  }
  param {
    lr_mult: 2
    decay_mult: 0
  }
  convolution_param {
    num_output: 64
    kernel_size: 1
    weight_filler {
      type: "xavier"
      std: 0.1
    }
    bias_filler {
      type: "constant"
      value: 0.2
    }
  }
}
layer {
  name: "inception_4a/relu_pool_proj"
  type: "ReLU"
  bottom: "inception_4a/pool_proj"
  top: "inception_4a/pool_proj"
}
layer {
  name: "inception_4a/output"
  type: "Concat"
  bottom: "inception_4a/1x1"
  bottom: "inception_4a/3x3"
  bottom: "inception_4a/5x5"
  bottom: "inception_4a/pool_proj"
  top: "inception_4a/output"
}
layer {
  name: "loss1/ave_pool"
  type: "Pooling"
  bottom: "inception_4a/output"
  top: "loss1/ave_pool"
  pooling_param {
    pool: AVE
    kernel_size: 5
    stride: 3
  }
}
layer {
  name: "loss1/conv"
  type: "Convolution"
  bottom: "loss1/ave_pool"
  top: "loss1/conv"
  param {
    lr_mult: 1
    decay_mult: 1
  }
  param {
    lr_mult: 2
    decay_mult: 0
  }
  convolution_param {
    num_output: 128
    kernel_size: 1
    weight_filler {
      type: "xavier"
      std: 0.08
    }
    bias_filler {
      type: "constant"
      value: 0.2
    }
  }
}
layer {
  name: "loss1/relu_conv"
  type: "ReLU"
  bottom: "loss1/conv"
  top: "loss1/conv"
}
layer {
  name: "loss1/fc"
  type: "InnerProduct"
  bottom: "loss1/conv"
  top: "loss1/fc"
  param {
    lr_mult: 1
    decay_mult: 1
  }
  param {
    lr_mult: 2
    decay_mult: 0
  }
  inner_product_param {
    num_output: 1024
    weight_filler {
      type: "xavier"
      std: 0.02
    }
    bias_filler {
      type: "constant"
      value: 0.2
    }
  }
}
layer {
  name: "loss1/relu_fc"
  type: "ReLU"
  bottom: "loss1/fc"
  top: "loss1/fc"
}
layer {
  name: "loss1/drop_fc"
  type: "Dropout"
  bottom: "loss1/fc"
  top: "loss1/fc"
  dropout_param {
    dropout_ratio: 0.7
  }
}
layer {
  name: "loss1/classifier_plantvillage"
  type: "InnerProduct"
  bottom: "loss1/fc"
  top: "loss1/classifier_plantvillage"
  param {
    lr_mult: 1
    decay_mult: 1
  }
  param {
    lr_mult: 2
    decay_mult: 0
  }
  inner_product_param {
    num_output: 38
    weight_filler {
      type: "xavier"
      std: 0.0009765625
    }
    bias_filler {
      type: "constant"
      value: 0
    }
  }
}
layer {
  name: "inception_4b/1x1"
  type: "Convolution"
  bottom: "inception_4a/output"
  top: "inception_4b/1x1"
  param {
    lr_mult: 1
    decay_mult: 1
  }
  param {
    lr_mult: 2
    decay_mult: 0
  }
  convolution_param {
    num_output: 160
    kernel_size: 1
    weight_filler {
      type: "xavier"
      std: 0.03
    }
    bias_filler {
      type: "constant"
      value: 0.2
    }
  }
}
layer {
  name: "inception_4b/relu_1x1"
  type: "ReLU"
  bottom: "inception_4b/1x1"
  top: "inception_4b/1x1"
}
layer {
  name: "inception_4b/3x3_reduce"
  type: "Convolution"
  bottom: "inception_4a/output"
  top: "inception_4b/3x3_reduce"
  param {
    lr_mult: 1
    decay_mult: 1
  }
  param {
    lr_mult: 2
    decay_mult: 0
  }
  convolution_param {
    num_output: 112
    kernel_size: 1
    weight_filler {
      type: "xavier"
      std: 0.09
    }
    bias_filler {
      type: "constant"
      value: 0.2
    }
  }
}
layer {
  name: "inception_4b/relu_3x3_reduce"
  type: "ReLU"
  bottom: "inception_4b/3x3_reduce"
  top: "inception_4b/3x3_reduce"
}
layer {
  name: "inception_4b/3x3"
  type: "Convolution"
  bottom: "inception_4b/3x3_reduce"
  top: "inception_4b/3x3"
  param {
    lr_mult: 1
    decay_mult: 1
  }
  param {
    lr_mult: 2
    decay_mult: 0
  }
  convolution_param {
    num_output: 224
    pad: 1
    kernel_size: 3
    weight_filler {
      type: "xavier"
      std: 0.03
    }
    bias_filler {
      type: "constant"
      value: 0.2
    }
  }
}
layer {
  name: "inception_4b/relu_3x3"
  type: "ReLU"
  bottom: "inception_4b/3x3"
  top: "inception_4b/3x3"
}
layer {
  name: "inception_4b/5x5_reduce"
  type: "Convolution"
  bottom: "inception_4a/output"
  top: "inception_4b/5x5_reduce"
  param {
    lr_mult: 1
    decay_mult: 1
  }
  param {
    lr_mult: 2
    decay_mult: 0
  }
  convolution_param {
    num_output: 24
    kernel_size: 1
    weight_filler {
      type: "xavier"
      std: 0.2
    }
    bias_filler {
      type: "constant"
      value: 0.2
    }
  }
}
layer {
  name: "inception_4b/relu_5x5_reduce"
  type: "ReLU"
  bottom: "inception_4b/5x5_reduce"
  top: "inception_4b/5x5_reduce"
}
layer {
  name: "inception_4b/5x5"
  type: "Convolution"
  bottom: "inception_4b/5x5_reduce"
  top: "inception_4b/5x5"
  param {
    lr_mult: 1
    decay_mult: 1
  }
  param {
    lr_mult: 2
    decay_mult: 0
  }
  convolution_param {
    num_output: 64
    pad: 2
    kernel_size: 5
    weight_filler {
      type: "xavier"
      std: 0.03
    }
    bias_filler {
      type: "constant"
      value: 0.2
    }
  }
}
layer {
  name: "inception_4b/relu_5x5"
  type: "ReLU"
  bottom: "inception_4b/5x5"
  top: "inception_4b/5x5"
}
layer {
  name: "inception_4b/pool"
  type: "Pooling"
  bottom: "inception_4a/output"
  top: "inception_4b/pool"
  pooling_param {
    pool: MAX
    kernel_size: 3
    stride: 1
    pad: 1
  }
}
layer {
  name: "inception_4b/pool_proj"
  type: "Convolution"
  bottom: "inception_4b/pool"
  top: "inception_4b/pool_proj"
  param {
    lr_mult: 1
    decay_mult: 1
  }
  param {
    lr_mult: 2
    decay_mult: 0
  }
  convolution_param {
    num_output: 64
    kernel_size: 1
    weight_filler {
      type: "xavier"
      std: 0.1
    }
    bias_filler {
      type: "constant"
      value: 0.2
    }
  }
}
layer {
  name: "inception_4b/relu_pool_proj"
  type: "ReLU"
  bottom: "inception_4b/pool_proj"
  top: "inception_4b/pool_proj"
}
layer {
  name: "inception_4b/output"
  type: "Concat"
  bottom: "inception_4b/1x1"
  bottom: "inception_4b/3x3"
  bottom: "inception_4b/5x5"
  bottom: "inception_4b/pool_proj"
  top: "inception_4b/output"
}
layer {
  name: "inception_4c/1x1"
  type: "Convolution"
  bottom: "inception_4b/output"
  top: "inception_4c/1x1"
  param {
    lr_mult: 1
    decay_mult: 1
  }
  param {
    lr_mult: 2
    decay_mult: 0
  }
  convolution_param {
    num_output: 128
    kernel_size: 1
    weight_filler {
      type: "xavier"
      std: 0.03
    }
    bias_filler {
      type: "constant"
      value: 0.2
    }
  }
}
layer {
  name: "inception_4c/relu_1x1"
  type: "ReLU"
  bottom: "inception_4c/1x1"
  top: "inception_4c/1x1"
}
layer {
  name: "inception_4c/3x3_reduce"
  type: "Convolution"
  bottom: "inception_4b/output"
  top: "inception_4c/3x3_reduce"
  param {
    lr_mult: 1
    decay_mult: 1
  }
  param {
    lr_mult: 2
    decay_mult: 0
  }
  convolution_param {
    num_output: 128
    kernel_size: 1
    weight_filler {
      type: "xavier"
      std: 0.09
    }
    bias_filler {
      type: "constant"
      value: 0.2
    }
  }
}
layer {
  name: "inception_4c/relu_3x3_reduce"
  type: "ReLU"
  bottom: "inception_4c/3x3_reduce"
  top: "inception_4c/3x3_reduce"
}
layer {
  name: "inception_4c/3x3"
  type: "Convolution"
  bottom: "inception_4c/3x3_reduce"
  top: "inception_4c/3x3"
  param {
    lr_mult: 1
    decay_mult: 1
  }
  param {
    lr_mult: 2
    decay_mult: 0
  }
  convolution_param {
    num_output: 256
    pad: 1
    kernel_size: 3
    weight_filler {
      type: "xavier"
      std: 0.03
    }
    bias_filler {
      type: "constant"
      value: 0.2
    }
  }
}
layer {
  name: "inception_4c/relu_3x3"
  type: "ReLU"
  bottom: "inception_4c/3x3"
  top: "inception_4c/3x3"
}
layer {
  name: "inception_4c/5x5_reduce"
  type: "Convolution"
  bottom: "inception_4b/output"
  top: "inception_4c/5x5_reduce"
  param {
    lr_mult: 1
    decay_mult: 1
  }
  param {
    lr_mult: 2
    decay_mult: 0
  }
  convolution_param {
    num_output: 24
    kernel_size: 1
    weight_filler {
      type: "xavier"
      std: 0.2
    }
    bias_filler {
      type: "constant"
      value: 0.2
    }
  }
}
layer {
  name: "inception_4c/relu_5x5_reduce"
  type: "ReLU"
  bottom: "inception_4c/5x5_reduce"
  top: "inception_4c/5x5_reduce"
}
layer {
  name: "inception_4c/5x5"
  type: "Convolution"
  bottom: "inception_4c/5x5_reduce"
  top: "inception_4c/5x5"
  param {
    lr_mult: 1
    decay_mult: 1
  }
  param {
    lr_mult: 2
    decay_mult: 0
  }
  convolution_param {
    num_output: 64
    pad: 2
    kernel_size: 5
    weight_filler {
      type: "xavier"
      std: 0.03
    }
    bias_filler {
      type: "constant"
      value: 0.2
    }
  }
}
layer {
  name: "inception_4c/relu_5x5"
  type: "ReLU"
  bottom: "inception_4c/5x5"
  top: "inception_4c/5x5"
}
layer {
  name: "inception_4c/pool"
  type: "Pooling"
  bottom: "inception_4b/output"
  top: "inception_4c/pool"
  pooling_param {
    pool: MAX
    kernel_size: 3
    stride: 1
    pad: 1
  }
}
layer {
  name: "inception_4c/pool_proj"
  type: "Convolution"
  bottom: "inception_4c/pool"
  top: "inception_4c/pool_proj"
  param {
    lr_mult: 1
    decay_mult: 1
  }
  param {
    lr_mult: 2
    decay_mult: 0
  }
  convolution_param {
    num_output: 64
    kernel_size: 1
    weight_filler {
      type: "xavier"
      std: 0.1
    }
    bias_filler {
      type: "constant"
      value: 0.2
    }
  }
}
layer {
  name: "inception_4c/relu_pool_proj"
  type: "ReLU"
  bottom: "inception_4c/pool_proj"
  top: "inception_4c/pool_proj"
}
layer {
  name: "inception_4c/output"
  type: "Concat"
  bottom: "inception_4c/1x1"
  bottom: "inception_4c/3x3"
  bottom: "inception_4c/5x5"
  bottom: "inception_4c/pool_proj"
  top: "inception_4c/output"
}
layer {
  name: "inception_4d/1x1"
  type: "Convolution"
  bottom: "inception_4c/output"
  top: "inception_4d/1x1"
  param {
    lr_mult: 1
    decay_mult: 1
  }
  param {
    lr_mult: 2
    decay_mult: 0
  }
  convolution_param {
    num_output: 112
    kernel_size: 1
    weight_filler {
      type: "xavier"
      std: 0.03
    }
    bias_filler {
      type: "constant"
      value: 0.2
    }
  }
}
layer {
  name: "inception_4d/relu_1x1"
  type: "ReLU"
  bottom: "inception_4d/1x1"
  top: "inception_4d/1x1"
}
layer {
  name: "inception_4d/3x3_reduce"
  type: "Convolution"
  bottom: "inception_4c/output"
  top: "inception_4d/3x3_reduce"
  param {
    lr_mult: 1
    decay_mult: 1
  }
  param {
    lr_mult: 2
    decay_mult: 0
  }
  convolution_param {
    num_output: 144
    kernel_size: 1
    weight_filler {
      type: "xavier"
      std: 0.09
    }
    bias_filler {
      type: "constant"
      value: 0.2
    }
  }
}
layer {
  name: "inception_4d/relu_3x3_reduce"
  type: "ReLU"
  bottom: "inception_4d/3x3_reduce"
  top: "inception_4d/3x3_reduce"
}
layer {
  name: "inception_4d/3x3"
  type: "Convolution"
  bottom: "inception_4d/3x3_reduce"
  top: "inception_4d/3x3"
  param {
    lr_mult: 1
    decay_mult: 1
  }
  param {
    lr_mult: 2
    decay_mult: 0
  }
  convolution_param {
    num_output: 288
    pad: 1
    kernel_size: 3
    weight_filler {
      type: "xavier"
      std: 0.03
    }
    bias_filler {
      type: "constant"
      value: 0.2
    }
  }
}
layer {
  name: "inception_4d/relu_3x3"
  type: "ReLU"
  bottom: "inception_4d/3x3"
  top: "inception_4d/3x3"
}
layer {
  name: "inception_4d/5x5_reduce"
  type: "Convolution"
  bottom: "inception_4c/output"
  top: "inception_4d/5x5_reduce"
  param {
    lr_mult: 1
    decay_mult: 1
  }
  param {
    lr_mult: 2
    decay_mult: 0
  }
  convolution_param {
    num_output: 32
    kernel_size: 1
    weight_filler {
      type: "xavier"
      std: 0.2
    }
    bias_filler {
      type: "constant"
      value: 0.2
    }
  }
}
layer {
  name: "inception_4d/relu_5x5_reduce"
  type: "ReLU"
  bottom: "inception_4d/5x5_reduce"
  top: "inception_4d/5x5_reduce"
}
layer {
  name: "inception_4d/5x5"
  type: "Convolution"
  bottom: "inception_4d/5x5_reduce"
  top: "inception_4d/5x5"
  param {
    lr_mult: 1
    decay_mult: 1
  }
  param {
    lr_mult: 2
    decay_mult: 0
  }
  convolution_param {
    num_output: 64
    pad: 2
    kernel_size: 5
    weight_filler {
      type: "xavier"
      std: 0.03
    }
    bias_filler {
      type: "constant"
      value: 0.2
    }
  }
}
layer {
  name: "inception_4d/relu_5x5"
  type: "ReLU"
  bottom: "inception_4d/5x5"
  top: "inception_4d/5x5"
}
layer {
  name: "inception_4d/pool"
  type: "Pooling"
  bottom: "inception_4c/output"
  top: "inception_4d/pool"
  pooling_param {
    pool: MAX
    kernel_size: 3
    stride: 1
    pad: 1
  }
}
layer {
  name: "inception_4d/pool_proj"
  type: "Convolution"
  bottom: "inception_4d/pool"
  top: "inception_4d/pool_proj"
  param {
    lr_mult: 1
    decay_mult: 1
  }
  param {
    lr_mult: 2
    decay_mult: 0
  }
  convolution_param {
    num_output: 64
    kernel_size: 1
    weight_filler {
      type: "xavier"
      std: 0.1
    }
    bias_filler {
      type: "constant"
      value: 0.2
    }
  }
}
layer {
  name: "inception_4d/relu_pool_proj"
  type: "ReLU"
  bottom: "inception_4d/pool_proj"
  top: "inception_4d/pool_proj"
}
layer {
  name: "inception_4d/output"
  type: "Concat"
  bottom: "inception_4d/1x1"
  bottom: "inception_4d/3x3"
  bottom: "inception_4d/5x5"
  bottom: "inception_4d/pool_proj"
  top: "inception_4d/output"
}
layer {
  name: "loss2/ave_pool"
  type: "Pooling"
  bottom: "inception_4d/output"
  top: "loss2/ave_pool"
  pooling_param {
    pool: AVE
    kernel_size: 5
    stride: 3
  }
}
layer {
  name: "loss2/conv"
  type: "Convolution"
  bottom: "loss2/ave_pool"
  top: "loss2/conv"
  param {
    lr_mult: 1
    decay_mult: 1
  }
  param {
    lr_mult: 2
    decay_mult: 0
  }
  convolution_param {
    num_output: 128
    kernel_size: 1
    weight_filler {
      type: "xavier"
      std: 0.08
    }
    bias_filler {
      type: "constant"
      value: 0.2
    }
  }
}
layer {
  name: "loss2/relu_conv"
  type: "ReLU"
  bottom: "loss2/conv"
  top: "loss2/conv"
}
layer {
  name: "loss2/fc"
  type: "InnerProduct"
  bottom: "loss2/conv"
  top: "loss2/fc"
  param {
    lr_mult: 1
    decay_mult: 1
  }
  param {
    lr_mult: 2
    decay_mult: 0
  }
  inner_product_param {
    num_output: 1024
    weight_filler {
      type: "xavier"
      std: 0.02
    }
    bias_filler {
      type: "constant"
      value: 0.2
    }
  }
}
layer {
  name: "loss2/relu_fc"
  type: "ReLU"
  bottom: "loss2/fc"
  top: "loss2/fc"
}
layer {
  name: "loss2/drop_fc"
  type: "Dropout"
  bottom: "loss2/fc"
  top: "loss2/fc"
  dropout_param {
    dropout_ratio: 0.7
  }
}
layer {
  name: "loss2/classifier_plantvillage"
  type: "InnerProduct"
  bottom: "loss2/fc"
  top: "loss2/classifier_plantvillage"
  param {
    lr_mult: 1
    decay_mult: 1
  }
  param {
    lr_mult: 2
    decay_mult: 0
  }
  inner_product_param {
    num_output: 38
    weight_filler {
      type: "xavier"
      std: 0.0009765625
    }
    bias_filler {
      type: "constant"
      value: 0
    }
  }
}
layer {
  name: "inception_4e/1x1"
  type: "Convolution"
  bottom: "inception_4d/output"
  top: "inception_4e/1x1"
  param {
    lr_mult: 1
    decay_mult: 1
  }
  param {
    lr_mult: 2
    decay_mult: 0
  }
  convolution_param {
    num_output: 256
    kernel_size: 1
    weight_filler {
      type: "xavier"
      std: 0.03
    }
    bias_filler {
      type: "constant"
      value: 0.2
    }
  }
}
layer {
  name: "inception_4e/relu_1x1"
  type: "ReLU"
  bottom: "inception_4e/1x1"
  top: "inception_4e/1x1"
}
layer {
  name: "inception_4e/3x3_reduce"
  type: "Convolution"
  bottom: "inception_4d/output"
  top: "inception_4e/3x3_reduce"
  param {
    lr_mult: 1
    decay_mult: 1
  }
  param {
    lr_mult: 2
    decay_mult: 0
  }
  convolution_param {
    num_output: 160
    kernel_size: 1
    weight_filler {
      type: "xavier"
      std: 0.09
    }
    bias_filler {
      type: "constant"
      value: 0.2
    }
  }
}
layer {
  name: "inception_4e/relu_3x3_reduce"
  type: "ReLU"
  bottom: "inception_4e/3x3_reduce"
  top: "inception_4e/3x3_reduce"
}
layer {
  name: "inception_4e/3x3"
  type: "Convolution"
  bottom: "inception_4e/3x3_reduce"
  top: "inception_4e/3x3"
  param {
    lr_mult: 1
    decay_mult: 1
  }
  param {
    lr_mult: 2
    decay_mult: 0
  }
  convolution_param {
    num_output: 320
    pad: 1
    kernel_size: 3
    weight_filler {
      type: "xavier"
      std: 0.03
    }
    bias_filler {
      type: "constant"
      value: 0.2
    }
  }
}
layer {
  name: "inception_4e/relu_3x3"
  type: "ReLU"
  bottom: "inception_4e/3x3"
  top: "inception_4e/3x3"
}
layer {
  name: "inception_4e/5x5_reduce"
  type: "Convolution"
  bottom: "inception_4d/output"
  top: "inception_4e/5x5_reduce"
  param {
    lr_mult: 1
    decay_mult: 1
  }
  param {
    lr_mult: 2
    decay_mult: 0
  }
  convolution_param {
    num_output: 32
    kernel_size: 1
    weight_filler {
      type: "xavier"
      std: 0.2
    }
    bias_filler {
      type: "constant"
      value: 0.2
    }
  }
}
layer {
  name: "inception_4e/relu_5x5_reduce"
  type: "ReLU"
  bottom: "inception_4e/5x5_reduce"
  top: "inception_4e/5x5_reduce"
}
layer {
  name: "inception_4e/5x5"
  type: "Convolution"
  bottom: "inception_4e/5x5_reduce"
  top: "inception_4e/5x5"
  p
I0403 16:37:17.724690 21272 layer_factory.hpp:77] Creating layer data
I0403 16:37:17.725276 21272 net.cpp:91] Creating Layer data
I0403 16:37:17.725308 21272 net.cpp:399] data -> data
I0403 16:37:17.725358 21272 net.cpp:399] data -> label
I0403 16:37:17.725394 21272 data_transformer.cpp:25] Loading mean file from: /home/mohanty/data/final_dataset/lmdb/color-40-60/mean.binaryproto
I0403 16:37:17.726568 21275 db_lmdb.cpp:38] Opened lmdb /home/mohanty/data/final_dataset/lmdb/color-40-60/test_db
I0403 16:37:17.738490 21272 data_layer.cpp:41] output data size: 24,3,224,224
I0403 16:37:17.768523 21272 net.cpp:141] Setting up data
I0403 16:37:17.768625 21272 net.cpp:148] Top shape: 24 3 224 224 (3612672)
I0403 16:37:17.768648 21272 net.cpp:148] Top shape: 24 (24)
I0403 16:37:17.768666 21272 net.cpp:156] Memory required for data: 14450784
I0403 16:37:17.768695 21272 layer_factory.hpp:77] Creating layer label_data_1_split
I0403 16:37:17.768724 21272 net.cpp:91] Creating Layer label_data_1_split
I0403 16:37:17.768743 21272 net.cpp:425] label_data_1_split <- label
I0403 16:37:17.768779 21272 net.cpp:399] label_data_1_split -> label_data_1_split_0
I0403 16:37:17.768808 21272 net.cpp:399] label_data_1_split -> label_data_1_split_1
I0403 16:37:17.768832 21272 net.cpp:399] label_data_1_split -> label_data_1_split_2
I0403 16:37:17.768854 21272 net.cpp:399] label_data_1_split -> label_data_1_split_3
I0403 16:37:17.768874 21272 net.cpp:399] label_data_1_split -> label_data_1_split_4
I0403 16:37:17.768894 21272 net.cpp:399] label_data_1_split -> label_data_1_split_5
I0403 16:37:17.768913 21272 net.cpp:399] label_data_1_split -> label_data_1_split_6
I0403 16:37:17.768934 21272 net.cpp:399] label_data_1_split -> label_data_1_split_7
I0403 16:37:17.768954 21272 net.cpp:399] label_data_1_split -> label_data_1_split_8
I0403 16:37:17.768975 21272 net.cpp:399] label_data_1_split -> label_data_1_split_9
I0403 16:37:17.769099 21272 net.cpp:141] Setting up label_data_1_split
I0403 16:37:17.769124 21272 net.cpp:148] Top shape: 24 (24)
I0403 16:37:17.769141 21272 net.cpp:148] Top shape: 24 (24)
I0403 16:37:17.769158 21272 net.cpp:148] Top shape: 24 (24)
I0403 16:37:17.769175 21272 net.cpp:148] Top shape: 24 (24)
I0403 16:37:17.769191 21272 net.cpp:148] Top shape: 24 (24)
I0403 16:37:17.769207 21272 net.cpp:148] Top shape: 24 (24)
I0403 16:37:17.769223 21272 net.cpp:148] Top shape: 24 (24)
I0403 16:37:17.769238 21272 net.cpp:148] Top shape: 24 (24)
I0403 16:37:17.769254 21272 net.cpp:148] Top shape: 24 (24)
I0403 16:37:17.769270 21272 net.cpp:148] Top shape: 24 (24)
I0403 16:37:17.769315 21272 net.cpp:156] Memory required for data: 14451744
I0403 16:37:17.769331 21272 layer_factory.hpp:77] Creating layer conv1/7x7_s2
I0403 16:37:17.769363 21272 net.cpp:91] Creating Layer conv1/7x7_s2
I0403 16:37:17.769382 21272 net.cpp:425] conv1/7x7_s2 <- data
I0403 16:37:17.769402 21272 net.cpp:399] conv1/7x7_s2 -> conv1/7x7_s2
I0403 16:37:17.915729 21272 net.cpp:141] Setting up conv1/7x7_s2
I0403 16:37:17.915787 21272 net.cpp:148] Top shape: 24 64 112 112 (19267584)
I0403 16:37:17.915813 21272 net.cpp:156] Memory required for data: 91522080
I0403 16:37:17.915848 21272 layer_factory.hpp:77] Creating layer conv1/relu_7x7
I0403 16:37:17.915875 21272 net.cpp:91] Creating Layer conv1/relu_7x7
I0403 16:37:17.915895 21272 net.cpp:425] conv1/relu_7x7 <- conv1/7x7_s2
I0403 16:37:17.915915 21272 net.cpp:386] conv1/relu_7x7 -> conv1/7x7_s2 (in-place)
I0403 16:37:17.916229 21272 net.cpp:141] Setting up conv1/relu_7x7
I0403 16:37:17.916267 21272 net.cpp:148] Top shape: 24 64 112 112 (19267584)
I0403 16:37:17.916287 21272 net.cpp:156] Memory required for data: 168592416
I0403 16:37:17.916304 21272 layer_factory.hpp:77] Creating layer pool1/3x3_s2
I0403 16:37:17.916332 21272 net.cpp:91] Creating Layer pool1/3x3_s2
I0403 16:37:17.916365 21272 net.cpp:425] pool1/3x3_s2 <- conv1/7x7_s2
I0403 16:37:17.916390 21272 net.cpp:399] pool1/3x3_s2 -> pool1/3x3_s2
I0403 16:37:17.916472 21272 net.cpp:141] Setting up pool1/3x3_s2
I0403 16:37:17.916503 21272 net.cpp:148] Top shape: 24 64 56 56 (4816896)
I0403 16:37:17.916530 21272 net.cpp:156] Memory required for data: 187860000
I0403 16:37:17.916546 21272 layer_factory.hpp:77] Creating layer pool1/norm1
I0403 16:37:17.916575 21272 net.cpp:91] Creating Layer pool1/norm1
I0403 16:37:17.916599 21272 net.cpp:425] pool1/norm1 <- pool1/3x3_s2
I0403 16:37:17.916618 21272 net.cpp:399] pool1/norm1 -> pool1/norm1
I0403 16:37:17.916932 21272 net.cpp:141] Setting up pool1/norm1
I0403 16:37:17.916961 21272 net.cpp:148] Top shape: 24 64 56 56 (4816896)
I0403 16:37:17.916981 21272 net.cpp:156] Memory required for data: 207127584
I0403 16:37:17.917004 21272 layer_factory.hpp:77] Creating layer conv2/3x3_reduce
I0403 16:37:17.917034 21272 net.cpp:91] Creating Layer conv2/3x3_reduce
I0403 16:37:17.917054 21272 net.cpp:425] conv2/3x3_reduce <- pool1/norm1
I0403 16:37:17.917074 21272 net.cpp:399] conv2/3x3_reduce -> conv2/3x3_reduce
I0403 16:37:17.918550 21272 net.cpp:141] Setting up conv2/3x3_reduce
I0403 16:37:17.918581 21272 net.cpp:148] Top shape: 24 64 56 56 (4816896)
I0403 16:37:17.918598 21272 net.cpp:156] Memory required for data: 226395168
I0403 16:37:17.918624 21272 layer_factory.hpp:77] Creating layer conv2/relu_3x3_reduce
I0403 16:37:17.918647 21272 net.cpp:91] Creating Layer conv2/relu_3x3_reduce
I0403 16:37:17.918665 21272 net.cpp:425] conv2/relu_3x3_reduce <- conv2/3x3_reduce
I0403 16:37:17.918684 21272 net.cpp:386] conv2/relu_3x3_reduce -> conv2/3x3_reduce (in-place)
I0403 16:37:17.918965 21272 net.cpp:141] Setting up conv2/relu_3x3_reduce
I0403 16:37:17.919015 21272 net.cpp:148] Top shape: 24 64 56 56 (4816896)
I0403 16:37:17.919041 21272 net.cpp:156] Memory required for data: 245662752
I0403 16:37:17.919057 21272 layer_factory.hpp:77] Creating layer conv2/3x3
I0403 16:37:17.919083 21272 net.cpp:91] Creating Layer conv2/3x3
I0403 16:37:17.919102 21272 net.cpp:425] conv2/3x3 <- conv2/3x3_reduce
I0403 16:37:17.919134 21272 net.cpp:399] conv2/3x3 -> conv2/3x3
I0403 16:37:17.921638 21272 net.cpp:141] Setting up conv2/3x3
I0403 16:37:17.921670 21272 net.cpp:148] Top shape: 24 192 56 56 (14450688)
I0403 16:37:17.921689 21272 net.cpp:156] Memory required for data: 303465504
I0403 16:37:17.921711 21272 layer_factory.hpp:77] Creating layer conv2/relu_3x3
I0403 16:37:17.921735 21272 net.cpp:91] Creating Layer conv2/relu_3x3
I0403 16:37:17.921752 21272 net.cpp:425] conv2/relu_3x3 <- conv2/3x3
I0403 16:37:17.921772 21272 net.cpp:386] conv2/relu_3x3 -> conv2/3x3 (in-place)
I0403 16:37:17.921955 21272 net.cpp:141] Setting up conv2/relu_3x3
I0403 16:37:17.921988 21272 net.cpp:148] Top shape: 24 192 56 56 (14450688)
I0403 16:37:17.922046 21272 net.cpp:156] Memory required for data: 361268256
I0403 16:37:17.922070 21272 layer_factory.hpp:77] Creating layer conv2/norm2
I0403 16:37:17.922093 21272 net.cpp:91] Creating Layer conv2/norm2
I0403 16:37:17.922112 21272 net.cpp:425] conv2/norm2 <- conv2/3x3
I0403 16:37:17.922149 21272 net.cpp:399] conv2/norm2 -> conv2/norm2
I0403 16:37:17.922474 21272 net.cpp:141] Setting up conv2/norm2
I0403 16:37:17.922516 21272 net.cpp:148] Top shape: 24 192 56 56 (14450688)
I0403 16:37:17.922536 21272 net.cpp:156] Memory required for data: 419071008
I0403 16:37:17.922554 21272 layer_factory.hpp:77] Creating layer pool2/3x3_s2
I0403 16:37:17.922574 21272 net.cpp:91] Creating Layer pool2/3x3_s2
I0403 16:37:17.922590 21272 net.cpp:425] pool2/3x3_s2 <- conv2/norm2
I0403 16:37:17.922618 21272 net.cpp:399] pool2/3x3_s2 -> pool2/3x3_s2
I0403 16:37:17.922680 21272 net.cpp:141] Setting up pool2/3x3_s2
I0403 16:37:17.922711 21272 net.cpp:148] Top shape: 24 192 28 28 (3612672)
I0403 16:37:17.922734 21272 net.cpp:156] Memory required for data: 433521696
I0403 16:37:17.922750 21272 layer_factory.hpp:77] Creating layer pool2/3x3_s2_pool2/3x3_s2_0_split
I0403 16:37:17.922771 21272 net.cpp:91] Creating Layer pool2/3x3_s2_pool2/3x3_s2_0_split
I0403 16:37:17.922790 21272 net.cpp:425] pool2/3x3_s2_pool2/3x3_s2_0_split <- pool2/3x3_s2
I0403 16:37:17.922812 21272 net.cpp:399] pool2/3x3_s2_pool2/3x3_s2_0_split -> pool2/3x3_s2_pool2/3x3_s2_0_split_0
I0403 16:37:17.922834 21272 net.cpp:399] pool2/3x3_s2_pool2/3x3_s2_0_split -> pool2/3x3_s2_pool2/3x3_s2_0_split_1
I0403 16:37:17.922859 21272 net.cpp:399] pool2/3x3_s2_pool2/3x3_s2_0_split -> pool2/3x3_s2_pool2/3x3_s2_0_split_2
I0403 16:37:17.922883 21272 net.cpp:399] pool2/3x3_s2_pool2/3x3_s2_0_split -> pool2/3x3_s2_pool2/3x3_s2_0_split_3
I0403 16:37:17.922958 21272 net.cpp:141] Setting up pool2/3x3_s2_pool2/3x3_s2_0_split
I0403 16:37:17.922991 21272 net.cpp:148] Top shape: 24 192 28 28 (3612672)
I0403 16:37:17.923012 21272 net.cpp:148] Top shape: 24 192 28 28 (3612672)
I0403 16:37:17.923032 21272 net.cpp:148] Top shape: 24 192 28 28 (3612672)
I0403 16:37:17.923048 21272 net.cpp:148] Top shape: 24 192 28 28 (3612672)
I0403 16:37:17.923063 21272 net.cpp:156] Memory required for data: 491324448
I0403 16:37:17.923081 21272 layer_factory.hpp:77] Creating layer inception_3a/1x1
I0403 16:37:17.923112 21272 net.cpp:91] Creating Layer inception_3a/1x1
I0403 16:37:17.923131 21272 net.cpp:425] inception_3a/1x1 <- pool2/3x3_s2_pool2/3x3_s2_0_split_0
I0403 16:37:17.923156 21272 net.cpp:399] inception_3a/1x1 -> inception_3a/1x1
I0403 16:37:17.924767 21272 net.cpp:141] Setting up inception_3a/1x1
I0403 16:37:17.924798 21272 net.cpp:148] Top shape: 24 64 28 28 (1204224)
I0403 16:37:17.924814 21272 net.cpp:156] Memory required for data: 496141344
I0403 16:37:17.924834 21272 layer_factory.hpp:77] Creating layer inception_3a/relu_1x1
I0403 16:37:17.924857 21272 net.cpp:91] Creating Layer inception_3a/relu_1x1
I0403 16:37:17.924875 21272 net.cpp:425] inception_3a/relu_1x1 <- inception_3a/1x1
I0403 16:37:17.924896 21272 net.cpp:386] inception_3a/relu_1x1 -> inception_3a/1x1 (in-place)
I0403 16:37:17.925088 21272 net.cpp:141] Setting up inception_3a/relu_1x1
I0403 16:37:17.925118 21272 net.cpp:148] Top shape: 24 64 28 28 (1204224)
I0403 16:37:17.925143 21272 net.cpp:156] Memory required for data: 500958240
I0403 16:37:17.925168 21272 layer_factory.hpp:77] Creating layer inception_3a/3x3_reduce
I0403 16:37:17.925191 21272 net.cpp:91] Creating Layer inception_3a/3x3_reduce
I0403 16:37:17.925210 21272 net.cpp:425] inception_3a/3x3_reduce <- pool2/3x3_s2_pool2/3x3_s2_0_split_1
I0403 16:37:17.925232 21272 net.cpp:399] inception_3a/3x3_reduce -> inception_3a/3x3_reduce
I0403 16:37:17.927006 21272 net.cpp:141] Setting up inception_3a/3x3_reduce
I0403 16:37:17.927038 21272 net.cpp:148] Top shape: 24 96 28 28 (1806336)
I0403 16:37:17.927057 21272 net.cpp:156] Memory required for data: 508183584
I0403 16:37:17.927079 21272 layer_factory.hpp:77] Creating layer inception_3a/relu_3x3_reduce
I0403 16:37:17.927120 21272 net.cpp:91] Creating Layer inception_3a/relu_3x3_reduce
I0403 16:37:17.927139 21272 net.cpp:425] inception_3a/relu_3x3_reduce <- inception_3a/3x3_reduce
I0403 16:37:17.927158 21272 net.cpp:386] inception_3a/relu_3x3_reduce -> inception_3a/3x3_reduce (in-place)
I0403 16:37:17.927350 21272 net.cpp:141] Setting up inception_3a/relu_3x3_reduce
I0403 16:37:17.927378 21272 net.cpp:148] Top shape: 24 96 28 28 (1806336)
I0403 16:37:17.927395 21272 net.cpp:156] Memory required for data: 515408928
I0403 16:37:17.927412 21272 layer_factory.hpp:77] Creating layer inception_3a/3x3
I0403 16:37:17.927438 21272 net.cpp:91] Creating Layer inception_3a/3x3
I0403 16:37:17.927456 21272 net.cpp:425] inception_3a/3x3 <- inception_3a/3x3_reduce
I0403 16:37:17.927481 21272 net.cpp:399] inception_3a/3x3 -> inception_3a/3x3
I0403 16:37:17.929240 21272 net.cpp:141] Setting up inception_3a/3x3
I0403 16:37:17.929271 21272 net.cpp:148] Top shape: 24 128 28 28 (2408448)
I0403 16:37:17.929288 21272 net.cpp:156] Memory required for data: 525042720
I0403 16:37:17.929309 21272 layer_factory.hpp:77] Creating layer inception_3a/relu_3x3
I0403 16:37:17.929334 21272 net.cpp:91] Creating Layer inception_3a/relu_3x3
I0403 16:37:17.929354 21272 net.cpp:425] inception_3a/relu_3x3 <- inception_3a/3x3
I0403 16:37:17.929374 21272 net.cpp:386] inception_3a/relu_3x3 -> inception_3a/3x3 (in-place)
I0403 16:37:17.929672 21272 net.cpp:141] Setting up inception_3a/relu_3x3
I0403 16:37:17.929700 21272 net.cpp:148] Top shape: 24 128 28 28 (2408448)
I0403 16:37:17.929716 21272 net.cpp:156] Memory required for data: 534676512
I0403 16:37:17.929733 21272 layer_factory.hpp:77] Creating layer inception_3a/5x5_reduce
I0403 16:37:17.929756 21272 net.cpp:91] Creating Layer inception_3a/5x5_reduce
I0403 16:37:17.929775 21272 net.cpp:425] inception_3a/5x5_reduce <- pool2/3x3_s2_pool2/3x3_s2_0_split_2
I0403 16:37:17.929798 21272 net.cpp:399] inception_3a/5x5_reduce -> inception_3a/5x5_reduce
I0403 16:37:17.930820 21272 net.cpp:141] Setting up inception_3a/5x5_reduce
I0403 16:37:17.930850 21272 net.cpp:148] Top shape: 24 16 28 28 (301056)
I0403 16:37:17.930867 21272 net.cpp:156] Memory required for data: 535880736
I0403 16:37:17.930887 21272 layer_factory.hpp:77] Creating layer inception_3a/relu_5x5_reduce
I0403 16:37:17.930910 21272 net.cpp:91] Creating Layer inception_3a/relu_5x5_reduce
I0403 16:37:17.930928 21272 net.cpp:425] inception_3a/relu_5x5_reduce <- inception_3a/5x5_reduce
I0403 16:37:17.930948 21272 net.cpp:386] inception_3a/relu_5x5_reduce -> inception_3a/5x5_reduce (in-place)
I0403 16:37:17.931264 21272 net.cpp:141] Setting up inception_3a/relu_5x5_reduce
I0403 16:37:17.931293 21272 net.cpp:148] Top shape: 24 16 28 28 (301056)
I0403 16:37:17.931310 21272 net.cpp:156] Memory required for data: 537084960
I0403 16:37:17.931326 21272 layer_factory.hpp:77] Creating layer inception_3a/5x5
I0403 16:37:17.931352 21272 net.cpp:91] Creating Layer inception_3a/5x5
I0403 16:37:17.931371 21272 net.cpp:425] inception_3a/5x5 <- inception_3a/5x5_reduce
I0403 16:37:17.931391 21272 net.cpp:399] inception_3a/5x5 -> inception_3a/5x5
I0403 16:37:17.932463 21272 net.cpp:141] Setting up inception_3a/5x5
I0403 16:37:17.932492 21272 net.cpp:148] Top shape: 24 32 28 28 (602112)
I0403 16:37:17.932509 21272 net.cpp:156] Memory required for data: 539493408
I0403 16:37:17.932529 21272 layer_factory.hpp:77] Creating layer inception_3a/relu_5x5
I0403 16:37:17.932553 21272 net.cpp:91] Creating Layer inception_3a/relu_5x5
I0403 16:37:17.932570 21272 net.cpp:425] inception_3a/relu_5x5 <- inception_3a/5x5
I0403 16:37:17.932590 21272 net.cpp:386] inception_3a/relu_5x5 -> inception_3a/5x5 (in-place)
I0403 16:37:17.932775 21272 net.cpp:141] Setting up inception_3a/relu_5x5
I0403 16:37:17.932801 21272 net.cpp:148] Top shape: 24 32 28 28 (602112)
I0403 16:37:17.932817 21272 net.cpp:156] Memory required for data: 541901856
I0403 16:37:17.932832 21272 layer_factory.hpp:77] Creating layer inception_3a/pool
I0403 16:37:17.932854 21272 net.cpp:91] Creating Layer inception_3a/pool
I0403 16:37:17.932873 21272 net.cpp:425] inception_3a/pool <- pool2/3x3_s2_pool2/3x3_s2_0_split_3
I0403 16:37:17.932907 21272 net.cpp:399] inception_3a/pool -> inception_3a/pool
I0403 16:37:17.932971 21272 net.cpp:141] Setting up inception_3a/pool
I0403 16:37:17.933002 21272 net.cpp:148] Top shape: 24 192 28 28 (3612672)
I0403 16:37:17.933019 21272 net.cpp:156] Memory required for data: 556352544
I0403 16:37:17.933035 21272 layer_factory.hpp:77] Creating layer inception_3a/pool_proj
I0403 16:37:17.933059 21272 net.cpp:91] Creating Layer inception_3a/pool_proj
I0403 16:37:17.933079 21272 net.cpp:425] inception_3a/pool_proj <- inception_3a/pool
I0403 16:37:17.933102 21272 net.cpp:399] inception_3a/pool_proj -> inception_3a/pool_proj
I0403 16:37:17.934120 21272 net.cpp:141] Setting up inception_3a/pool_proj
I0403 16:37:17.934151 21272 net.cpp:148] Top shape: 24 32 28 28 (602112)
I0403 16:37:17.934168 21272 net.cpp:156] Memory required for data: 558760992
I0403 16:37:17.934192 21272 layer_factory.hpp:77] Creating layer inception_3a/relu_pool_proj
I0403 16:37:17.934216 21272 net.cpp:91] Creating Layer inception_3a/relu_pool_proj
I0403 16:37:17.934233 21272 net.cpp:425] inception_3a/relu_pool_proj <- inception_3a/pool_proj
I0403 16:37:17.934252 21272 net.cpp:386] inception_3a/relu_pool_proj -> inception_3a/pool_proj (in-place)
I0403 16:37:17.934541 21272 net.cpp:141] Setting up inception_3a/relu_pool_proj
I0403 16:37:17.934569 21272 net.cpp:148] Top shape: 24 32 28 28 (602112)
I0403 16:37:17.934586 21272 net.cpp:156] Memory required for data: 561169440
I0403 16:37:17.934602 21272 layer_factory.hpp:77] Creating layer inception_3a/output
I0403 16:37:17.934622 21272 net.cpp:91] Creating Layer inception_3a/output
I0403 16:37:17.934638 21272 net.cpp:425] inception_3a/output <- inception_3a/1x1
I0403 16:37:17.934656 21272 net.cpp:425] inception_3a/output <- inception_3a/3x3
I0403 16:37:17.934674 21272 net.cpp:425] inception_3a/output <- inception_3a/5x5
I0403 16:37:17.934689 21272 net.cpp:425] inception_3a/output <- inception_3a/pool_proj
I0403 16:37:17.934710 21272 net.cpp:399] inception_3a/output -> inception_3a/output
I0403 16:37:17.934762 21272 net.cpp:141] Setting up inception_3a/output
I0403 16:37:17.934787 21272 net.cpp:148] Top shape: 24 256 28 28 (4816896)
I0403 16:37:17.934803 21272 net.cpp:156] Memory required for data: 580437024
I0403 16:37:17.934819 21272 layer_factory.hpp:77] Creating layer inception_3a/output_inception_3a/output_0_split
I0403 16:37:17.934837 21272 net.cpp:91] Creating Layer inception_3a/output_inception_3a/output_0_split
I0403 16:37:17.934854 21272 net.cpp:425] inception_3a/output_inception_3a/output_0_split <- inception_3a/output
I0403 16:37:17.934877 21272 net.cpp:399] inception_3a/output_inception_3a/output_0_split -> inception_3a/output_inception_3a/output_0_split_0
I0403 16:37:17.934900 21272 net.cpp:399] inception_3a/output_inception_3a/output_0_split -> inception_3a/output_inception_3a/output_0_split_1
I0403 16:37:17.934924 21272 net.cpp:399] inception_3a/output_inception_3a/output_0_split -> inception_3a/output_inception_3a/output_0_split_2
I0403 16:37:17.934947 21272 net.cpp:399] inception_3a/output_inception_3a/output_0_split -> inception_3a/output_inception_3a/output_0_split_3
I0403 16:37:17.935034 21272 net.cpp:141] Setting up inception_3a/output_inception_3a/output_0_split
I0403 16:37:17.935060 21272 net.cpp:148] Top shape: 24 256 28 28 (4816896)
I0403 16:37:17.935077 21272 net.cpp:148] Top shape: 24 256 28 28 (4816896)
I0403 16:37:17.935096 21272 net.cpp:148] Top shape: 24 256 28 28 (4816896)
I0403 16:37:17.935112 21272 net.cpp:148] Top shape: 24 256 28 28 (4816896)
I0403 16:37:17.935127 21272 net.cpp:156] Memory required for data: 657507360
I0403 16:37:17.935143 21272 layer_factory.hpp:77] Creating layer inception_3b/1x1
I0403 16:37:17.935168 21272 net.cpp:91] Creating Layer inception_3b/1x1
I0403 16:37:17.935186 21272 net.cpp:425] inception_3b/1x1 <- inception_3a/output_inception_3a/output_0_split_0
I0403 16:37:17.935209 21272 net.cpp:399] inception_3b/1x1 -> inception_3b/1x1
I0403 16:37:17.936408 21272 net.cpp:141] Setting up inception_3b/1x1
I0403 16:37:17.936451 21272 net.cpp:148] Top shape: 24 128 28 28 (2408448)
I0403 16:37:17.936470 21272 net.cpp:156] Memory required for data: 667141152
I0403 16:37:17.936491 21272 layer_factory.hpp:77] Creating layer inception_3b/relu_1x1
I0403 16:37:17.936513 21272 net.cpp:91] Creating Layer inception_3b/relu_1x1
I0403 16:37:17.936532 21272 net.cpp:425] inception_3b/relu_1x1 <- inception_3b/1x1
I0403 16:37:17.936554 21272 net.cpp:386] inception_3b/relu_1x1 -> inception_3b/1x1 (in-place)
I0403 16:37:17.936738 21272 net.cpp:141] Setting up inception_3b/relu_1x1
I0403 16:37:17.936764 21272 net.cpp:148] Top shape: 24 128 28 28 (2408448)
I0403 16:37:17.936779 21272 net.cpp:156] Memory required for data: 676774944
I0403 16:37:17.936795 21272 layer_factory.hpp:77] Creating layer inception_3b/3x3_reduce
I0403 16:37:17.936820 21272 net.cpp:91] Creating Layer inception_3b/3x3_reduce
I0403 16:37:17.936839 21272 net.cpp:425] inception_3b/3x3_reduce <- inception_3a/output_inception_3a/output_0_split_1
I0403 16:37:17.936862 21272 net.cpp:399] inception_3b/3x3_reduce -> inception_3b/3x3_reduce
I0403 16:37:17.938082 21272 net.cpp:141] Setting up inception_3b/3x3_reduce
I0403 16:37:17.938113 21272 net.cpp:148] Top shape: 24 128 28 28 (2408448)
I0403 16:37:17.938132 21272 net.cpp:156] Memory required for data: 686408736
I0403 16:37:17.938151 21272 layer_factory.hpp:77] Creating layer inception_3b/relu_3x3_reduce
I0403 16:37:17.938174 21272 net.cpp:91] Creating Layer inception_3b/relu_3x3_reduce
I0403 16:37:17.938191 21272 net.cpp:425] inception_3b/relu_3x3_reduce <- inception_3b/3x3_reduce
I0403 16:37:17.938212 21272 net.cpp:386] inception_3b/relu_3x3_reduce -> inception_3b/3x3_reduce (in-place)
I0403 16:37:17.938398 21272 net.cpp:141] Setting up inception_3b/relu_3x3_reduce
I0403 16:37:17.938426 21272 net.cpp:148] Top shape: 24 128 28 28 (2408448)
I0403 16:37:17.938441 21272 net.cpp:156] Memory required for data: 696042528
I0403 16:37:17.938457 21272 layer_factory.hpp:77] Creating layer inception_3b/3x3
I0403 16:37:17.938485 21272 net.cpp:91] Creating Layer inception_3b/3x3
I0403 16:37:17.938504 21272 net.cpp:425] inception_3b/3x3 <- inception_3b/3x3_reduce
I0403 16:37:17.938525 21272 net.cpp:399] inception_3b/3x3 -> inception_3b/3x3
I0403 16:37:17.941589 21272 net.cpp:141] Setting up inception_3b/3x3
I0403 16:37:17.941620 21272 net.cpp:148] Top shape: 24 192 28 28 (3612672)
I0403 16:37:17.941638 21272 net.cpp:156] Memory required for data: 710493216
I0403 16:37:17.941660 21272 layer_factory.hpp:77] Creating layer inception_3b/relu_3x3
I0403 16:37:17.941684 21272 net.cpp:91] Creating Layer inception_3b/relu_3x3
I0403 16:37:17.941702 21272 net.cpp:425] inception_3b/relu_3x3 <- inception_3b/3x3
I0403 16:37:17.941722 21272 net.cpp:386] inception_3b/relu_3x3 -> inception_3b/3x3 (in-place)
I0403 16:37:17.942018 21272 net.cpp:141] Setting up inception_3b/relu_3x3
I0403 16:37:17.942047 21272 net.cpp:148] Top shape: 24 192 28 28 (3612672)
I0403 16:37:17.942065 21272 net.cpp:156] Memory required for data: 724943904
I0403 16:37:17.942080 21272 layer_factory.hpp:77] Creating layer inception_3b/5x5_reduce
I0403 16:37:17.942106 21272 net.cpp:91] Creating Layer inception_3b/5x5_reduce
I0403 16:37:17.942126 21272 net.cpp:425] inception_3b/5x5_reduce <- inception_3a/output_inception_3a/output_0_split_2
I0403 16:37:17.942150 21272 net.cpp:399] inception_3b/5x5_reduce -> inception_3b/5x5_reduce
I0403 16:37:17.943210 21272 net.cpp:141] Setting up inception_3b/5x5_reduce
I0403 16:37:17.943241 21272 net.cpp:148] Top shape: 24 32 28 28 (602112)
I0403 16:37:17.943259 21272 net.cpp:156] Memory required for data: 727352352
I0403 16:37:17.943281 21272 layer_factory.hpp:77] Creating layer inception_3b/relu_5x5_reduce
I0403 16:37:17.943303 21272 net.cpp:91] Creating Layer inception_3b/relu_5x5_reduce
I0403 16:37:17.943323 21272 net.cpp:425] inception_3b/relu_5x5_reduce <- inception_3b/5x5_reduce
I0403 16:37:17.943343 21272 net.cpp:386] inception_3b/relu_5x5_reduce -> inception_3b/5x5_reduce (in-place)
I0403 16:37:17.943527 21272 net.cpp:141] Setting up inception_3b/relu_5x5_reduce
I0403 16:37:17.943570 21272 net.cpp:148] Top shape: 24 32 28 28 (602112)
I0403 16:37:17.943589 21272 net.cpp:156] Memory required for data: 729760800
I0403 16:37:17.943605 21272 layer_factory.hpp:77] Creating layer inception_3b/5x5
I0403 16:37:17.943626 21272 net.cpp:91] Creating Layer inception_3b/5x5
I0403 16:37:17.943645 21272 net.cpp:425] inception_3b/5x5 <- inception_3b/5x5_reduce
I0403 16:37:17.943667 21272 net.cpp:399] inception_3b/5x5 -> inception_3b/5x5
I0403 16:37:17.945746 21272 net.cpp:141] Setting up inception_3b/5x5
I0403 16:37:17.945777 21272 net.cpp:148] Top shape: 24 96 28 28 (1806336)
I0403 16:37:17.945796 21272 net.cpp:156] Memory required for data: 736986144
I0403 16:37:17.945817 21272 layer_factory.hpp:77] Creating layer inception_3b/relu_5x5
I0403 16:37:17.945837 21272 net.cpp:91] Creating Layer inception_3b/relu_5x5
I0403 16:37:17.945853 21272 net.cpp:425] inception_3b/relu_5x5 <- inception_3b/5x5
I0403 16:37:17.945875 21272 net.cpp:386] inception_3b/relu_5x5 -> inception_3b/5x5 (in-place)
I0403 16:37:17.946087 21272 net.cpp:141] Setting up inception_3b/relu_5x5
I0403 16:37:17.946115 21272 net.cpp:148] Top shape: 24 96 28 28 (1806336)
I0403 16:37:17.946131 21272 net.cpp:156] Memory required for data: 744211488
I0403 16:37:17.946147 21272 layer_factory.hpp:77] Creating layer inception_3b/pool
I0403 16:37:17.946166 21272 net.cpp:91] Creating Layer inception_3b/pool
I0403 16:37:17.946184 21272 net.cpp:425] inception_3b/pool <- inception_3a/output_inception_3a/output_0_split_3
I0403 16:37:17.946203 21272 net.cpp:399] inception_3b/pool -> inception_3b/pool
I0403 16:37:17.946266 21272 net.cpp:141] Setting up inception_3b/pool
I0403 16:37:17.946292 21272 net.cpp:148] Top shape: 24 256 28 28 (4816896)
I0403 16:37:17.946308 21272 net.cpp:156] Memory required for data: 763479072
I0403 16:37:17.946324 21272 layer_factory.hpp:77] Creating layer inception_3b/pool_proj
I0403 16:37:17.946349 21272 net.cpp:91] Creating Layer inception_3b/pool_proj
I0403 16:37:17.946370 21272 net.cpp:425] inception_3b/pool_proj <- inception_3b/pool
I0403 16:37:17.946393 21272 net.cpp:399] inception_3b/pool_proj -> inception_3b/pool_proj
I0403 16:37:17.947510 21272 net.cpp:141] Setting up inception_3b/pool_proj
I0403 16:37:17.947551 21272 net.cpp:148] Top shape: 24 64 28 28 (1204224)
I0403 16:37:17.947571 21272 net.cpp:156] Memory required for data: 768295968
I0403 16:37:17.947590 21272 layer_factory.hpp:77] Creating layer inception_3b/relu_pool_proj
I0403 16:37:17.947609 21272 net.cpp:91] Creating Layer inception_3b/relu_pool_proj
I0403 16:37:17.947628 21272 net.cpp:425] inception_3b/relu_pool_proj <- inception_3b/pool_proj
I0403 16:37:17.947646 21272 net.cpp:386] inception_3b/relu_pool_proj -> inception_3b/pool_proj (in-place)
I0403 16:37:17.948103 21272 net.cpp:141] Setting up inception_3b/relu_pool_proj
I0403 16:37:17.948133 21272 net.cpp:148] Top shape: 24 64 28 28 (1204224)
I0403 16:37:17.948158 21272 net.cpp:156] Memory required for data: 773112864
I0403 16:37:17.948175 21272 layer_factory.hpp:77] Creating layer inception_3b/output
I0403 16:37:17.948196 21272 net.cpp:91] Creating Layer inception_3b/output
I0403 16:37:17.948215 21272 net.cpp:425] inception_3b/output <- inception_3b/1x1
I0403 16:37:17.948233 21272 net.cpp:425] inception_3b/output <- inception_3b/3x3
I0403 16:37:17.948251 21272 net.cpp:425] inception_3b/output <- inception_3b/5x5
I0403 16:37:17.948267 21272 net.cpp:425] inception_3b/output <- inception_3b/pool_proj
I0403 16:37:17.948285 21272 net.cpp:399] inception_3b/output -> inception_3b/output
I0403 16:37:17.948333 21272 net.cpp:141] Setting up inception_3b/output
I0403 16:37:17.948359 21272 net.cpp:148] Top shape: 24 480 28 28 (9031680)
I0403 16:37:17.948375 21272 net.cpp:156] Memory required for data: 809239584
I0403 16:37:17.948392 21272 layer_factory.hpp:77] Creating layer pool3/3x3_s2
I0403 16:37:17.948421 21272 net.cpp:91] Creating Layer pool3/3x3_s2
I0403 16:37:17.948437 21272 net.cpp:425] pool3/3x3_s2 <- inception_3b/output
I0403 16:37:17.948459 21272 net.cpp:399] pool3/3x3_s2 -> pool3/3x3_s2
I0403 16:37:17.948541 21272 net.cpp:141] Setting up pool3/3x3_s2
I0403 16:37:17.948567 21272 net.cpp:148] Top shape: 24 480 14 14 (2257920)
I0403 16:37:17.948583 21272 net.cpp:156] Memory required for data: 818271264
I0403 16:37:17.948606 21272 layer_factory.hpp:77] Creating layer pool3/3x3_s2_pool3/3x3_s2_0_split
I0403 16:37:17.948627 21272 net.cpp:91] Creating Layer pool3/3x3_s2_pool3/3x3_s2_0_split
I0403 16:37:17.948647 21272 net.cpp:425] pool3/3x3_s2_pool3/3x3_s2_0_split <- pool3/3x3_s2
I0403 16:37:17.948668 21272 net.cpp:399] pool3/3x3_s2_pool3/3x3_s2_0_split -> pool3/3x3_s2_pool3/3x3_s2_0_split_0
I0403 16:37:17.948689 21272 net.cpp:399] pool3/3x3_s2_pool3/3x3_s2_0_split -> pool3/3x3_s2_pool3/3x3_s2_0_split_1
I0403 16:37:17.948710 21272 net.cpp:399] pool3/3x3_s2_pool3/3x3_s2_0_split -> pool3/3x3_s2_pool3/3x3_s2_0_split_2
I0403 16:37:17.948731 21272 net.cpp:399] pool3/3x3_s2_pool3/3x3_s2_0_split -> pool3/3x3_s2_pool3/3x3_s2_0_split_3
I0403 16:37:17.948814 21272 net.cpp:141] Setting up pool3/3x3_s2_pool3/3x3_s2_0_split
I0403 16:37:17.948843 21272 net.cpp:148] Top shape: 24 480 14 14 (2257920)
I0403 16:37:17.948863 21272 net.cpp:148] Top shape: 24 480 14 14 (2257920)
I0403 16:37:17.948879 21272 net.cpp:148] Top shape: 24 480 14 14 (2257920)
I0403 16:37:17.948896 21272 net.cpp:148] Top shape: 24 480 14 14 (2257920)
I0403 16:37:17.948910 21272 net.cpp:156] Memory required for data: 854397984
I0403 16:37:17.948926 21272 layer_factory.hpp:77] Creating layer inception_4a/1x1
I0403 16:37:17.948948 21272 net.cpp:91] Creating Layer inception_4a/1x1
I0403 16:37:17.948966 21272 net.cpp:425] inception_4a/1x1 <- pool3/3x3_s2_pool3/3x3_s2_0_split_0
I0403 16:37:17.948995 21272 net.cpp:399] inception_4a/1x1 -> inception_4a/1x1
I0403 16:37:17.950736 21272 net.cpp:141] Setting up inception_4a/1x1
I0403 16:37:17.950768 21272 net.cpp:148] Top shape: 24 192 14 14 (903168)
I0403 16:37:17.950788 21272 net.cpp:156] Memory required for data: 858010656
I0403 16:37:17.950809 21272 layer_factory.hpp:77] Creating layer inception_4a/relu_1x1
I0403 16:37:17.950829 21272 net.cpp:91] Creating Layer inception_4a/relu_1x1
I0403 16:37:17.950847 21272 net.cpp:425] inception_4a/relu_1x1 <- inception_4a/1x1
I0403 16:37:17.950865 21272 net.cpp:386] inception_4a/relu_1x1 -> inception_4a/1x1 (in-place)
I0403 16:37:17.951071 21272 net.cpp:141] Setting up inception_4a/relu_1x1
I0403 16:37:17.951099 21272 net.cpp:148] Top shape: 24 192 14 14 (903168)
I0403 16:37:17.951115 21272 net.cpp:156] Memory required for data: 861623328
I0403 16:37:17.951131 21272 layer_factory.hpp:77] Creating layer inception_4a/3x3_reduce
I0403 16:37:17.951155 21272 net.cpp:91] Creating Layer inception_4a/3x3_reduce
I0403 16:37:17.951174 21272 net.cpp:425] inception_4a/3x3_reduce <- pool3/3x3_s2_pool3/3x3_s2_0_split_1
I0403 16:37:17.951198 21272 net.cpp:399] inception_4a/3x3_reduce -> inception_4a/3x3_reduce
I0403 16:37:17.952563 21272 net.cpp:141] Setting up inception_4a/3x3_reduce
I0403 16:37:17.952597 21272 net.cpp:148] Top shape: 24 96 14 14 (451584)
I0403 16:37:17.952617 21272 net.cpp:156] Memory required for data: 863429664
I0403 16:37:17.952646 21272 layer_factory.hpp:77] Creating layer inception_4a/relu_3x3_reduce
I0403 16:37:17.952666 21272 net.cpp:91] Creating Layer inception_4a/relu_3x3_reduce
I0403 16:37:17.952685 21272 net.cpp:425] inception_4a/relu_3x3_reduce <- inception_4a/3x3_reduce
I0403 16:37:17.952713 21272 net.cpp:386] inception_4a/relu_3x3_reduce -> inception_4a/3x3_reduce (in-place)
I0403 16:37:17.952930 21272 net.cpp:141] Setting up inception_4a/relu_3x3_reduce
I0403 16:37:17.952960 21272 net.cpp:148] Top shape: 24 96 14 14 (451584)
I0403 16:37:17.952991 21272 net.cpp:156] Memory required for data: 865236000
I0403 16:37:17.953016 21272 layer_factory.hpp:77] Creating layer inception_4a/3x3
I0403 16:37:17.953042 21272 net.cpp:91] Creating Layer inception_4a/3x3
I0403 16:37:17.953061 21272 net.cpp:425] inception_4a/3x3 <- inception_4a/3x3_reduce
I0403 16:37:17.953083 21272 net.cpp:399] inception_4a/3x3 -> inception_4a/3x3
I0403 16:37:17.955960 21272 net.cpp:141] Setting up inception_4a/3x3
I0403 16:37:17.956001 21272 net.cpp:148] Top shape: 24 208 14 14 (978432)
I0403 16:37:17.956020 21272 net.cpp:156] Memory required for data: 869149728
I0403 16:37:17.956046 21272 layer_factory.hpp:77] Creating layer inception_4a/relu_3x3
I0403 16:37:17.956066 21272 net.cpp:91] Creating Layer inception_4a/relu_3x3
I0403 16:37:17.956092 21272 net.cpp:425] inception_4a/relu_3x3 <- inception_4a/3x3
I0403 16:37:17.956115 21272 net.cpp:386] inception_4a/relu_3x3 -> inception_4a/3x3 (in-place)
I0403 16:37:17.956424 21272 net.cpp:141] Setting up inception_4a/relu_3x3
I0403 16:37:17.956452 21272 net.cpp:148] Top shape: 24 208 14 14 (978432)
I0403 16:37:17.956470 21272 net.cpp:156] Memory required for data: 873063456
I0403 16:37:17.956485 21272 layer_factory.hpp:77] Creating layer inception_4a/5x5_reduce
I0403 16:37:17.956511 21272 net.cpp:91] Creating Layer inception_4a/5x5_reduce
I0403 16:37:17.956529 21272 net.cpp:425] inception_4a/5x5_reduce <- pool3/3x3_s2_pool3/3x3_s2_0_split_2
I0403 16:37:17.956552 21272 net.cpp:399] inception_4a/5x5_reduce -> inception_4a/5x5_reduce
I0403 16:37:17.957682 21272 net.cpp:141] Setting up inception_4a/5x5_reduce
I0403 16:37:17.957711 21272 net.cpp:148] Top shape: 24 16 14 14 (75264)
I0403 16:37:17.957728 21272 net.cpp:156] Memory required for data: 873364512
I0403 16:37:17.957749 21272 layer_factory.hpp:77] Creating layer inception_4a/relu_5x5_reduce
I0403 16:37:17.957769 21272 net.cpp:91] Creating Layer inception_4a/relu_5x5_reduce
I0403 16:37:17.957787 21272 net.cpp:425] inception_4a/relu_5x5_reduce <- inception_4a/5x5_reduce
I0403 16:37:17.957808 21272 net.cpp:386] inception_4a/relu_5x5_reduce -> inception_4a/5x5_reduce (in-place)
I0403 16:37:17.958015 21272 net.cpp:141] Setting up inception_4a/relu_5x5_reduce
I0403 16:37:17.958044 21272 net.cpp:148] Top shape: 24 16 14 14 (75264)
I0403 16:37:17.958060 21272 net.cpp:156] Memory required for data: 873665568
I0403 16:37:17.958076 21272 layer_factory.hpp:77] Creating layer inception_4a/5x5
I0403 16:37:17.958101 21272 net.cpp:91] Creating Layer inception_4a/5x5
I0403 16:37:17.958120 21272 net.cpp:425] inception_4a/5x5 <- inception_4a/5x5_reduce
I0403 16:37:17.958153 21272 net.cpp:399] inception_4a/5x5 -> inception_4a/5x5
I0403 16:37:17.959322 21272 net.cpp:141] Setting up inception_4a/5x5
I0403 16:37:17.959458 21272 net.cpp:148] Top shape: 24 48 14 14 (225792)
I0403 16:37:17.959496 21272 net.cpp:156] Memory required for data: 874568736
I0403 16:37:17.959518 21272 layer_factory.hpp:77] Creating layer inception_4a/relu_5x5
I0403 16:37:17.959542 21272 net.cpp:91] Creating Layer inception_4a/relu_5x5
I0403 16:37:17.959561 21272 net.cpp:425] inception_4a/relu_5x5 <- inception_4a/5x5
I0403 16:37:17.959583 21272 net.cpp:386] inception_4a/relu_5x5 -> inception_4a/5x5 (in-place)
I0403 16:37:17.959775 21272 net.cpp:141] Setting up inception_4a/relu_5x5
I0403 16:37:17.959812 21272 net.cpp:148] Top shape: 24 48 14 14 (225792)
I0403 16:37:17.959833 21272 net.cpp:156] Memory required for data: 875471904
I0403 16:37:17.959861 21272 layer_factory.hpp:77] Creating layer inception_4a/pool
I0403 16:37:17.959882 21272 net.cpp:91] Creating Layer inception_4a/pool
I0403 16:37:17.959900 21272 net.cpp:425] inception_4a/pool <- pool3/3x3_s2_pool3/3x3_s2_0_split_3
I0403 16:37:17.959923 21272 net.cpp:399] inception_4a/pool -> inception_4a/pool
I0403 16:37:17.959996 21272 net.cpp:141] Setting up inception_4a/pool
I0403 16:37:17.960023 21272 net.cpp:148] Top shape: 24 480 14 14 (2257920)
I0403 16:37:17.960039 21272 net.cpp:156] Memory required for data: 884503584
I0403 16:37:17.960062 21272 layer_factory.hpp:77] Creating layer inception_4a/pool_proj
I0403 16:37:17.960094 21272 net.cpp:91] Creating Layer inception_4a/pool_proj
I0403 16:37:17.960114 21272 net.cpp:425] inception_4a/pool_proj <- inception_4a/pool
I0403 16:37:17.960135 21272 net.cpp:399] inception_4a/pool_proj -> inception_4a/pool_proj
I0403 16:37:17.961392 21272 net.cpp:141] Setting up inception_4a/pool_proj
I0403 16:37:17.961424 21272 net.cpp:148] Top shape: 24 64 14 14 (301056)
I0403 16:37:17.961457 21272 net.cpp:156] Memory required for data: 885707808
I0403 16:37:17.961478 21272 layer_factory.hpp:77] Creating layer inception_4a/relu_pool_proj
I0403 16:37:17.961499 21272 net.cpp:91] Creating Layer inception_4a/relu_pool_proj
I0403 16:37:17.961516 21272 net.cpp:425] inception_4a/relu_pool_proj <- inception_4a/pool_proj
I0403 16:37:17.961539 21272 net.cpp:386] inception_4a/relu_pool_proj -> inception_4a/pool_proj (in-place)
I0403 16:37:17.961835 21272 net.cpp:141] Setting up inception_4a/relu_pool_proj
I0403 16:37:17.961868 21272 net.cpp:148] Top shape: 24 64 14 14 (301056)
I0403 16:37:17.961894 21272 net.cpp:156] Memory required for data: 886912032
I0403 16:37:17.961911 21272 layer_factory.hpp:77] Creating layer inception_4a/output
I0403 16:37:17.961930 21272 net.cpp:91] Creating Layer inception_4a/output
I0403 16:37:17.961947 21272 net.cpp:425] inception_4a/output <- inception_4a/1x1
I0403 16:37:17.961964 21272 net.cpp:425] inception_4a/output <- inception_4a/3x3
I0403 16:37:17.961982 21272 net.cpp:425] inception_4a/output <- inception_4a/5x5
I0403 16:37:17.962007 21272 net.cpp:425] inception_4a/output <- inception_4a/pool_proj
I0403 16:37:17.962026 21272 net.cpp:399] inception_4a/output -> inception_4a/output
I0403 16:37:17.962083 21272 net.cpp:141] Setting up inception_4a/output
I0403 16:37:17.962110 21272 net.cpp:148] Top shape: 24 512 14 14 (2408448)
I0403 16:37:17.962126 21272 net.cpp:156] Memory required for data: 896545824
I0403 16:37:17.962141 21272 layer_factory.hpp:77] Creating layer inception_4a/output_inception_4a/output_0_split
I0403 16:37:17.962163 21272 net.cpp:91] Creating Layer inception_4a/output_inception_4a/output_0_split
I0403 16:37:17.962182 21272 net.cpp:425] inception_4a/output_inception_4a/output_0_split <- inception_4a/output
I0403 16:37:17.962201 21272 net.cpp:399] inception_4a/output_inception_4a/output_0_split -> inception_4a/output_inception_4a/output_0_split_0
I0403 16:37:17.962224 21272 net.cpp:399] inception_4a/output_inception_4a/output_0_split -> inception_4a/output_inception_4a/output_0_split_1
I0403 16:37:17.962244 21272 net.cpp:399] inception_4a/output_inception_4a/output_0_split -> inception_4a/output_inception_4a/output_0_split_2
I0403 16:37:17.962270 21272 net.cpp:399] inception_4a/output_inception_4a/output_0_split -> inception_4a/output_inception_4a/output_0_split_3
I0403 16:37:17.962291 21272 net.cpp:399] inception_4a/output_inception_4a/output_0_split -> inception_4a/output_inception_4a/output_0_split_4
I0403 16:37:17.962390 21272 net.cpp:141] Setting up inception_4a/output_inception_4a/output_0_split
I0403 16:37:17.962415 21272 net.cpp:148] Top shape: 24 512 14 14 (2408448)
I0403 16:37:17.962435 21272 net.cpp:148] Top shape: 24 512 14 14 (2408448)
I0403 16:37:17.962455 21272 net.cpp:148] Top shape: 24 512 14 14 (2408448)
I0403 16:37:17.962472 21272 net.cpp:148] Top shape: 24 512 14 14 (2408448)
I0403 16:37:17.962489 21272 net.cpp:148] Top shape: 24 512 14 14 (2408448)
I0403 16:37:17.962504 21272 net.cpp:156] Memory required for data: 944714784
I0403 16:37:17.962520 21272 layer_factory.hpp:77] Creating layer loss1/ave_pool
I0403 16:37:17.962539 21272 net.cpp:91] Creating Layer loss1/ave_pool
I0403 16:37:17.962559 21272 net.cpp:425] loss1/ave_pool <- inception_4a/output_inception_4a/output_0_split_0
I0403 16:37:17.962589 21272 net.cpp:399] loss1/ave_pool -> loss1/ave_pool
I0403 16:37:17.962810 21272 net.cpp:141] Setting up loss1/ave_pool
I0403 16:37:17.962839 21272 net.cpp:148] Top shape: 24 512 4 4 (196608)
I0403 16:37:17.962857 21272 net.cpp:156] Memory required for data: 945501216
I0403 16:37:17.962874 21272 layer_factory.hpp:77] Creating layer loss1/conv
I0403 16:37:17.962898 21272 net.cpp:91] Creating Layer loss1/conv
I0403 16:37:17.962918 21272 net.cpp:425] loss1/conv <- loss1/ave_pool
I0403 16:37:17.962937 21272 net.cpp:399] loss1/conv -> loss1/conv
I0403 16:37:17.964447 21272 net.cpp:141] Setting up loss1/conv
I0403 16:37:17.964478 21272 net.cpp:148] Top shape: 24 128 4 4 (49152)
I0403 16:37:17.964495 21272 net.cpp:156] Memory required for data: 945697824
I0403 16:37:17.964532 21272 layer_factory.hpp:77] Creating layer loss1/relu_conv
I0403 16:37:17.964553 21272 net.cpp:91] Creating Layer loss1/relu_conv
I0403 16:37:17.964571 21272 net.cpp:425] loss1/relu_conv <- loss1/conv
I0403 16:37:17.964594 21272 net.cpp:386] loss1/relu_conv -> loss1/conv (in-place)
I0403 16:37:17.964893 21272 net.cpp:141] Setting up loss1/relu_conv
I0403 16:37:17.964921 21272 net.cpp:148] Top shape: 24 128 4 4 (49152)
I0403 16:37:17.964938 21272 net.cpp:156] Memory required for data: 945894432
I0403 16:37:17.964954 21272 layer_factory.hpp:77] Creating layer loss1/fc
I0403 16:37:17.964979 21272 net.cpp:91] Creating Layer loss1/fc
I0403 16:37:17.965005 21272 net.cpp:425] loss1/fc <- loss1/conv
I0403 16:37:17.965029 21272 net.cpp:399] loss1/fc -> loss1/fc
I0403 16:37:17.983801 21272 net.cpp:141] Setting up loss1/fc
I0403 16:37:17.983839 21272 net.cpp:148] Top shape: 24 1024 (24576)
I0403 16:37:17.983856 21272 net.cpp:156] Memory required for data: 945992736
I0403 16:37:17.983877 21272 layer_factory.hpp:77] Creating layer loss1/relu_fc
I0403 16:37:17.983897 21272 net.cpp:91] Creating Layer loss1/relu_fc
I0403 16:37:17.983916 21272 net.cpp:425] loss1/relu_fc <- loss1/fc
I0403 16:37:17.983935 21272 net.cpp:386] loss1/relu_fc -> loss1/fc (in-place)
I0403 16:37:17.984145 21272 net.cpp:141] Setting up loss1/relu_fc
I0403 16:37:17.984174 21272 net.cpp:148] Top shape: 24 1024 (24576)
I0403 16:37:17.984192 21272 net.cpp:156] Memory required for data: 946091040
I0403 16:37:17.984208 21272 layer_factory.hpp:77] Creating layer loss1/drop_fc
I0403 16:37:17.984237 21272 net.cpp:91] Creating Layer loss1/drop_fc
I0403 16:37:17.984258 21272 net.cpp:425] loss1/drop_fc <- loss1/fc
I0403 16:37:17.984282 21272 net.cpp:386] loss1/drop_fc -> loss1/fc (in-place)
I0403 16:37:17.984334 21272 net.cpp:141] Setting up loss1/drop_fc
I0403 16:37:17.984359 21272 net.cpp:148] Top shape: 24 1024 (24576)
I0403 16:37:17.984375 21272 net.cpp:156] Memory required for data: 946189344
I0403 16:37:17.984391 21272 layer_factory.hpp:77] Creating layer loss1/classifier_plantvillage
I0403 16:37:17.984416 21272 net.cpp:91] Creating Layer loss1/classifier_plantvillage
I0403 16:37:17.984434 21272 net.cpp:425] loss1/classifier_plantvillage <- loss1/fc
I0403 16:37:17.984457 21272 net.cpp:399] loss1/classifier_plantvillage -> loss1/classifier_plantvillage
I0403 16:37:17.985409 21272 net.cpp:141] Setting up loss1/classifier_plantvillage
I0403 16:37:17.985438 21272 net.cpp:148] Top shape: 24 38 (912)
I0403 16:37:17.985455 21272 net.cpp:156] Memory required for data: 946192992
I0403 16:37:17.985474 21272 layer_factory.hpp:77] Creating layer loss1/classifier_plantvillage_loss1/classifier_plantvillage_0_split
I0403 16:37:17.985494 21272 net.cpp:91] Creating Layer loss1/classifier_plantvillage_loss1/classifier_plantvillage_0_split
I0403 16:37:17.985512 21272 net.cpp:425] loss1/classifier_plantvillage_loss1/classifier_plantvillage_0_split <- loss1/classifier_plantvillage
I0403 16:37:17.985534 21272 net.cpp:399] loss1/classifier_plantvillage_loss1/classifier_plantvillage_0_split -> loss1/classifier_plantvillage_loss1/classifier_plantvillage_0_split_0
I0403 16:37:17.985558 21272 net.cpp:399] loss1/classifier_plantvillage_loss1/classifier_plantvillage_0_split -> loss1/classifier_plantvillage_loss1/classifier_plantvillage_0_split_1
I0403 16:37:17.985579 21272 net.cpp:399] loss1/classifier_plantvillage_loss1/classifier_plantvillage_0_split -> loss1/classifier_plantvillage_loss1/classifier_plantvillage_0_split_2
I0403 16:37:17.985666 21272 net.cpp:141] Setting up loss1/classifier_plantvillage_loss1/classifier_plantvillage_0_split
I0403 16:37:17.985689 21272 net.cpp:148] Top shape: 24 38 (912)
I0403 16:37:17.985707 21272 net.cpp:148] Top shape: 24 38 (912)
I0403 16:37:17.985724 21272 net.cpp:148] Top shape: 24 38 (912)
I0403 16:37:17.985739 21272 net.cpp:156] Memory required for data: 946203936
I0403 16:37:17.985754 21272 layer_factory.hpp:77] Creating layer inception_4b/1x1
I0403 16:37:17.985776 21272 net.cpp:91] Creating Layer inception_4b/1x1
I0403 16:37:17.985812 21272 net.cpp:425] inception_4b/1x1 <- inception_4a/output_inception_4a/output_0_split_1
I0403 16:37:17.985836 21272 net.cpp:399] inception_4b/1x1 -> inception_4b/1x1
I0403 16:37:17.987592 21272 net.cpp:141] Setting up inception_4b/1x1
I0403 16:37:17.987623 21272 net.cpp:148] Top shape: 24 160 14 14 (752640)
I0403 16:37:17.987640 21272 net.cpp:156] Memory required for data: 949214496
I0403 16:37:17.987661 21272 layer_factory.hpp:77] Creating layer inception_4b/relu_1x1
I0403 16:37:17.987682 21272 net.cpp:91] Creating Layer inception_4b/relu_1x1
I0403 16:37:17.987701 21272 net.cpp:425] inception_4b/relu_1x1 <- inception_4b/1x1
I0403 16:37:17.987722 21272 net.cpp:386] inception_4b/relu_1x1 -> inception_4b/1x1 (in-place)
I0403 16:37:17.987916 21272 net.cpp:141] Setting up inception_4b/relu_1x1
I0403 16:37:17.987943 21272 net.cpp:148] Top shape: 24 160 14 14 (752640)
I0403 16:37:17.987960 21272 net.cpp:156] Memory required for data: 952225056
I0403 16:37:17.987977 21272 layer_factory.hpp:77] Creating layer inception_4b/3x3_reduce
I0403 16:37:17.988014 21272 net.cpp:91] Creating Layer inception_4b/3x3_reduce
I0403 16:37:17.988036 21272 net.cpp:425] inception_4b/3x3_reduce <- inception_4a/output_inception_4a/output_0_split_2
I0403 16:37:17.988062 21272 net.cpp:399] inception_4b/3x3_reduce -> inception_4b/3x3_reduce
I0403 16:37:17.989506 21272 net.cpp:141] Setting up inception_4b/3x3_reduce
I0403 16:37:17.989536 21272 net.cpp:148] Top shape: 24 112 14 14 (526848)
I0403 16:37:17.989553 21272 net.cpp:156] Memory required for data: 954332448
I0403 16:37:17.989573 21272 layer_factory.hpp:77] Creating layer inception_4b/relu_3x3_reduce
I0403 16:37:17.989596 21272 net.cpp:91] Creating Layer inception_4b/relu_3x3_reduce
I0403 16:37:17.989617 21272 net.cpp:425] inception_4b/relu_3x3_reduce <- inception_4b/3x3_reduce
I0403 16:37:17.989637 21272 net.cpp:386] inception_4b/relu_3x3_reduce -> inception_4b/3x3_reduce (in-place)
I0403 16:37:17.989944 21272 net.cpp:141] Setting up inception_4b/relu_3x3_reduce
I0403 16:37:17.989974 21272 net.cpp:148] Top shape: 24 112 14 14 (526848)
I0403 16:37:17.989996 21272 net.cpp:156] Memory required for data: 956439840
I0403 16:37:17.990015 21272 layer_factory.hpp:77] Creating layer inception_4b/3x3
I0403 16:37:17.990039 21272 net.cpp:91] Creating Layer inception_4b/3x3
I0403 16:37:17.990058 21272 net.cpp:425] inception_4b/3x3 <- inception_4b/3x3_reduce
I0403 16:37:17.990082 21272 net.cpp:399] inception_4b/3x3 -> inception_4b/3x3
I0403 16:37:17.993226 21272 net.cpp:141] Setting up inception_4b/3x3
I0403 16:37:17.993259 21272 net.cpp:148] Top shape: 24 224 14 14 (1053696)
I0403 16:37:17.993278 21272 net.cpp:156] Memory required for data: 960654624
I0403 16:37:17.993299 21272 layer_factory.hpp:77] Creating layer inception_4b/relu_3x3
I0403 16:37:17.993319 21272 net.cpp:91] Creating Layer inception_4b/relu_3x3
I0403 16:37:17.993336 21272 net.cpp:425] inception_4b/relu_3x3 <- inception_4b/3x3
I0403 16:37:17.993357 21272 net.cpp:386] inception_4b/relu_3x3 -> inception_4b/3x3 (in-place)
I0403 16:37:17.993552 21272 net.cpp:141] Setting up inception_4b/relu_3x3
I0403 16:37:17.993579 21272 net.cpp:148] Top shape: 24 224 14 14 (1053696)
I0403 16:37:17.993595 21272 net.cpp:156] Memory required for data: 964869408
I0403 16:37:17.993612 21272 layer_factory.hpp:77] Creating layer inception_4b/5x5_reduce
I0403 16:37:17.993638 21272 net.cpp:91] Creating Layer inception_4b/5x5_reduce
I0403 16:37:17.993657 21272 net.cpp:425] inception_4b/5x5_reduce <- inception_4a/output_inception_4a/output_0_split_3
I0403 16:37:17.993680 21272 net.cpp:399] inception_4b/5x5_reduce -> inception_4b/5x5_reduce
I0403 16:37:17.994818 21272 net.cpp:141] Setting up inception_4b/5x5_reduce
I0403 16:37:17.994849 21272 net.cpp:148] Top shape: 24 24 14 14 (112896)
I0403 16:37:17.994866 21272 net.cpp:156] Memory required for data: 965320992
I0403 16:37:17.994886 21272 layer_factory.hpp:77] Creating layer inception_4b/relu_5x5_reduce
I0403 16:37:17.994910 21272 net.cpp:91] Creating Layer inception_4b/relu_5x5_reduce
I0403 16:37:17.994942 21272 net.cpp:425] inception_4b/relu_5x5_reduce <- inception_4b/5x5_reduce
I0403 16:37:17.994963 21272 net.cpp:386] inception_4b/relu_5x5_reduce -> inception_4b/5x5_reduce (in-place)
I0403 16:37:17.995173 21272 net.cpp:141] Setting up inception_4b/relu_5x5_reduce
I0403 16:37:17.995201 21272 net.cpp:148] Top shape: 24 24 14 14 (112896)
I0403 16:37:17.995218 21272 net.cpp:156] Memory required for data: 965772576
I0403 16:37:17.995234 21272 layer_factory.hpp:77] Creating layer inception_4b/5x5
I0403 16:37:17.995260 21272 net.cpp:91] Creating Layer inception_4b/5x5
I0403 16:37:17.995282 21272 net.cpp:425] inception_4b/5x5 <- inception_4b/5x5_reduce
I0403 16:37:17.995311 21272 net.cpp:399] inception_4b/5x5 -> inception_4b/5x5
I0403 16:37:17.996606 21272 net.cpp:141] Setting up inception_4b/5x5
I0403 16:37:17.996634 21272 net.cpp:148] Top shape: 24 64 14 14 (301056)
I0403 16:37:17.996651 21272 net.cpp:156] Memory required for data: 966976800
I0403 16:37:17.996670 21272 layer_factory.hpp:77] Creating layer inception_4b/relu_5x5
I0403 16:37:17.996690 21272 net.cpp:91] Creating Layer inception_4b/relu_5x5
I0403 16:37:17.996708 21272 net.cpp:425] inception_4b/relu_5x5 <- inception_4b/5x5
I0403 16:37:17.996729 21272 net.cpp:386] inception_4b/relu_5x5 -> inception_4b/5x5 (in-place)
I0403 16:37:17.997036 21272 net.cpp:141] Setting up inception_4b/relu_5x5
I0403 16:37:17.997064 21272 net.cpp:148] Top shape: 24 64 14 14 (301056)
I0403 16:37:17.997081 21272 net.cpp:156] Memory required for data: 968181024
I0403 16:37:17.997097 21272 layer_factory.hpp:77] Creating layer inception_4b/pool
I0403 16:37:17.997117 21272 net.cpp:91] Creating Layer inception_4b/pool
I0403 16:37:17.997134 21272 net.cpp:425] inception_4b/pool <- inception_4a/output_inception_4a/output_0_split_4
I0403 16:37:17.997158 21272 net.cpp:399] inception_4b/pool -> inception_4b/pool
I0403 16:37:17.997225 21272 net.cpp:141] Setting up inception_4b/pool
I0403 16:37:17.997252 21272 net.cpp:148] Top shape: 24 512 14 14 (2408448)
I0403 16:37:17.997268 21272 net.cpp:156] Memory required for data: 977814816
I0403 16:37:17.997283 21272 layer_factory.hpp:77] Creating layer inception_4b/pool_proj
I0403 16:37:17.997309 21272 net.cpp:91] Creating Layer inception_4b/pool_proj
I0403 16:37:17.997328 21272 net.cpp:425] inception_4b/pool_proj <- inception_4b/pool
I0403 16:37:17.997349 21272 net.cpp:399] inception_4b/pool_proj -> inception_4b/pool_proj
I0403 16:37:17.998631 21272 net.cpp:141] Setting up inception_4b/pool_proj
I0403 16:37:17.998661 21272 net.cpp:148] Top shape: 24 64 14 14 (301056)
I0403 16:37:17.998678 21272 net.cpp:156] Memory required for data: 979019040
I0403 16:37:17.998699 21272 layer_factory.hpp:77] Creating layer inception_4b/relu_pool_proj
I0403 16:37:17.998723 21272 net.cpp:91] Creating Layer inception_4b/relu_pool_proj
I0403 16:37:17.998742 21272 net.cpp:425] inception_4b/relu_pool_proj <- inception_4b/pool_proj
I0403 16:37:17.998762 21272 net.cpp:386] inception_4b/relu_pool_proj -> inception_4b/pool_proj (in-place)
I0403 16:37:17.998950 21272 net.cpp:141] Setting up inception_4b/relu_pool_proj
I0403 16:37:17.998981 21272 net.cpp:148] Top shape: 24 64 14 14 (301056)
I0403 16:37:17.999006 21272 net.cpp:156] Memory required for data: 980223264
I0403 16:37:17.999022 21272 layer_factory.hpp:77] Creating layer inception_4b/output
I0403 16:37:17.999042 21272 net.cpp:91] Creating Layer inception_4b/output
I0403 16:37:17.999058 21272 net.cpp:425] inception_4b/output <- inception_4b/1x1
I0403 16:37:17.999076 21272 net.cpp:425] inception_4b/output <- inception_4b/3x3
I0403 16:37:17.999094 21272 net.cpp:425] inception_4b/output <- inception_4b/5x5
I0403 16:37:17.999111 21272 net.cpp:425] inception_4b/output <- inception_4b/pool_proj
I0403 16:37:17.999130 21272 net.cpp:399] inception_4b/output -> inception_4b/output
I0403 16:37:17.999179 21272 net.cpp:141] Setting up inception_4b/output
I0403 16:37:17.999204 21272 net.cpp:148] Top shape: 24 512 14 14 (2408448)
I0403 16:37:17.999220 21272 net.cpp:156] Memory required for data: 989857056
I0403 16:37:17.999251 21272 layer_factory.hpp:77] Creating layer inception_4b/output_inception_4b/output_0_split
I0403 16:37:17.999270 21272 net.cpp:91] Creating Layer inception_4b/output_inception_4b/output_0_split
I0403 16:37:17.999290 21272 net.cpp:425] inception_4b/output_inception_4b/output_0_split <- inception_4b/output
I0403 16:37:17.999310 21272 net.cpp:399] inception_4b/output_inception_4b/output_0_split -> inception_4b/output_inception_4b/output_0_split_0
I0403 16:37:17.999330 21272 net.cpp:399] inception_4b/output_inception_4b/output_0_split -> inception_4b/output_inception_4b/output_0_split_1
I0403 16:37:17.999353 21272 net.cpp:399] inception_4b/output_inception_4b/output_0_split -> inception_4b/output_inception_4b/output_0_split_2
I0403 16:37:17.999374 21272 net.cpp:399] inception_4b/output_inception_4b/output_0_split -> inception_4b/output_inception_4b/output_0_split_3
I0403 16:37:17.999466 21272 net.cpp:141] Setting up inception_4b/output_inception_4b/output_0_split
I0403 16:37:17.999492 21272 net.cpp:148] Top shape: 24 512 14 14 (2408448)
I0403 16:37:17.999511 21272 net.cpp:148] Top shape: 24 512 14 14 (2408448)
I0403 16:37:17.999527 21272 net.cpp:148] Top shape: 24 512 14 14 (2408448)
I0403 16:37:17.999543 21272 net.cpp:148] Top shape: 24 512 14 14 (2408448)
I0403 16:37:17.999558 21272 net.cpp:156] Memory required for data: 1028392224
I0403 16:37:17.999574 21272 layer_factory.hpp:77] Creating layer inception_4c/1x1
I0403 16:37:17.999598 21272 net.cpp:91] Creating Layer inception_4c/1x1
I0403 16:37:17.999619 21272 net.cpp:425] inception_4c/1x1 <- inception_4b/output_inception_4b/output_0_split_0
I0403 16:37:17.999640 21272 net.cpp:399] inception_4c/1x1 -> inception_4c/1x1
I0403 16:37:18.001184 21272 net.cpp:141] Setting up inception_4c/1x1
I0403 16:37:18.001219 21272 net.cpp:148] Top shape: 24 128 14 14 (602112)
I0403 16:37:18.001240 21272 net.cpp:156] Memory required for data: 1030800672
I0403 16:37:18.001260 21272 layer_factory.hpp:77] Creating layer inception_4c/relu_1x1
I0403 16:37:18.001281 21272 net.cpp:91] Creating Layer inception_4c/relu_1x1
I0403 16:37:18.001297 21272 net.cpp:425] inception_4c/relu_1x1 <- inception_4c/1x1
I0403 16:37:18.001317 21272 net.cpp:386] inception_4c/relu_1x1 -> inception_4c/1x1 (in-place)
I0403 16:37:18.001513 21272 net.cpp:141] Setting up inception_4c/relu_1x1
I0403 16:37:18.001539 21272 net.cpp:148] Top shape: 24 128 14 14 (602112)
I0403 16:37:18.001556 21272 net.cpp:156] Memory required for data: 1033209120
I0403 16:37:18.001572 21272 layer_factory.hpp:77] Creating layer inception_4c/3x3_reduce
I0403 16:37:18.001597 21272 net.cpp:91] Creating Layer inception_4c/3x3_reduce
I0403 16:37:18.001616 21272 net.cpp:425] inception_4c/3x3_reduce <- inception_4b/output_inception_4b/output_0_split_1
I0403 16:37:18.001639 21272 net.cpp:399] inception_4c/3x3_reduce -> inception_4c/3x3_reduce
I0403 16:37:18.003717 21272 net.cpp:141] Setting up inception_4c/3x3_reduce
I0403 16:37:18.003748 21272 net.cpp:148] Top shape: 24 128 14 14 (602112)
I0403 16:37:18.003767 21272 net.cpp:156] Memory required for data: 1035617568
I0403 16:37:18.003789 21272 layer_factory.hpp:77] Creating layer inception_4c/relu_3x3_reduce
I0403 16:37:18.003813 21272 net.cpp:91] Creating Layer inception_4c/relu_3x3_reduce
I0403 16:37:18.003831 21272 net.cpp:425] inception_4c/relu_3x3_reduce <- inception_4c/3x3_reduce
I0403 16:37:18.003851 21272 net.cpp:386] inception_4c/relu_3x3_reduce -> inception_4c/3x3_reduce (in-place)
I0403 16:37:18.004161 21272 net.cpp:141] Setting up inception_4c/relu_3x3_reduce
I0403 16:37:18.004189 21272 net.cpp:148] Top shape: 24 128 14 14 (602112)
I0403 16:37:18.004206 21272 net.cpp:156] Memory required for data: 1038026016
I0403 16:37:18.004222 21272 layer_factory.hpp:77] Creating layer inception_4c/3x3
I0403 16:37:18.004247 21272 net.cpp:91] Creating Layer inception_4c/3x3
I0403 16:37:18.004266 21272 net.cpp:425] inception_4c/3x3 <- inception_4c/3x3_reduce
I0403 16:37:18.004290 21272 net.cpp:399] inception_4c/3x3 -> inception_4c/3x3
I0403 16:37:18.008128 21272 net.cpp:141] Setting up inception_4c/3x3
I0403 16:37:18.008173 21272 net.cpp:148] Top shape: 24 256 14 14 (1204224)
I0403 16:37:18.008193 21272 net.cpp:156] Memory required for data: 1042842912
I0403 16:37:18.008227 21272 layer_factory.hpp:77] Creating layer inception_4c/relu_3x3
I0403 16:37:18.008255 21272 net.cpp:91] Creating Layer inception_4c/relu_3x3
I0403 16:37:18.008275 21272 net.cpp:425] inception_4c/relu_3x3 <- inception_4c/3x3
I0403 16:37:18.008296 21272 net.cpp:386] inception_4c/relu_3x3 -> inception_4c/3x3 (in-place)
I0403 16:37:18.008491 21272 net.cpp:141] Setting up inception_4c/relu_3x3
I0403 16:37:18.008519 21272 net.cpp:148] Top shape: 24 256 14 14 (1204224)
I0403 16:37:18.008536 21272 net.cpp:156] Memory required for data: 1047659808
I0403 16:37:18.008553 21272 layer_factory.hpp:77] Creating layer inception_4c/5x5_reduce
I0403 16:37:18.008579 21272 net.cpp:91] Creating Layer inception_4c/5x5_reduce
I0403 16:37:18.008599 21272 net.cpp:425] inception_4c/5x5_reduce <- inception_4b/output_inception_4b/output_0_split_2
I0403 16:37:18.008621 21272 net.cpp:399] inception_4c/5x5_reduce -> inception_4c/5x5_reduce
I0403 16:37:18.009780 21272 net.cpp:141] Setting up inception_4c/5x5_reduce
I0403 16:37:18.009811 21272 net.cpp:148] Top shape: 24 24 14 14 (112896)
I0403 16:37:18.009829 21272 net.cpp:156] Memory required for data: 1048111392
I0403 16:37:18.009851 21272 layer_factory.hpp:77] Creating layer inception_4c/relu_5x5_reduce
I0403 16:37:18.009876 21272 net.cpp:91] Creating Layer inception_4c/relu_5x5_reduce
I0403 16:37:18.009896 21272 net.cpp:425] inception_4c/relu_5x5_reduce <- inception_4c/5x5_reduce
I0403 16:37:18.009915 21272 net.cpp:386] inception_4c/relu_5x5_reduce -> inception_4c/5x5_reduce (in-place)
I0403 16:37:18.010119 21272 net.cpp:141] Setting up inception_4c/relu_5x5_reduce
I0403 16:37:18.010149 21272 net.cpp:148] Top shape: 24 24 14 14 (112896)
I0403 16:37:18.010165 21272 net.cpp:156] Memory required for data: 1048562976
I0403 16:37:18.010181 21272 layer_factory.hpp:77] Creating layer inception_4c/5x5
I0403 16:37:18.010207 21272 net.cpp:91] Creating Layer inception_4c/5x5
I0403 16:37:18.010227 21272 net.cpp:425] inception_4c/5x5 <- inception_4c/5x5_reduce
I0403 16:37:18.010248 21272 net.cpp:399] inception_4c/5x5 -> inception_4c/5x5
I0403 16:37:18.011567 21272 net.cpp:141] Setting up inception_4c/5x5
I0403 16:37:18.011601 21272 net.cpp:148] Top shape: 24 64 14 14 (301056)
I0403 16:37:18.011620 21272 net.cpp:156] Memory required for data: 1049767200
I0403 16:37:18.011641 21272 layer_factory.hpp:77] Creating layer inception_4c/relu_5x5
I0403 16:37:18.011661 21272 net.cpp:91] Creating Layer inception_4c/relu_5x5
I0403 16:37:18.011678 21272 net.cpp:425] inception_4c/relu_5x5 <- inception_4c/5x5
I0403 16:37:18.011696 21272 net.cpp:386] inception_4c/relu_5x5 -> inception_4c/5x5 (in-place)
I0403 16:37:18.012012 21272 net.cpp:141] Setting up inception_4c/relu_5x5
I0403 16:37:18.012045 21272 net.cpp:148] Top shape: 24 64 14 14 (301056)
I0403 16:37:18.012063 21272 net.cpp:156] Memory required for data: 1050971424
I0403 16:37:18.012079 21272 layer_factory.hpp:77] Creating layer inception_4c/pool
I0403 16:37:18.012099 21272 net.cpp:91] Creating Layer inception_4c/pool
I0403 16:37:18.012117 21272 net.cpp:425] inception_4c/pool <- inception_4b/output_inception_4b/output_0_split_3
I0403 16:37:18.012136 21272 net.cpp:399] inception_4c/pool -> inception_4c/pool
I0403 16:37:18.012208 21272 net.cpp:141] Setting up inception_4c/pool
I0403 16:37:18.012235 21272 net.cpp:148] Top shape: 24 512 14 14 (2408448)
I0403 16:37:18.012251 21272 net.cpp:156] Memory required for data: 1060605216
I0403 16:37:18.012267 21272 layer_factory.hpp:77] Creating layer inception_4c/pool_proj
I0403 16:37:18.012291 21272 net.cpp:91] Creating Layer inception_4c/pool_proj
I0403 16:37:18.012310 21272 net.cpp:425] inception_4c/pool_proj <- inception_4c/pool
I0403 16:37:18.012332 21272 net.cpp:399] inception_4c/pool_proj -> inception_4c/pool_proj
I0403 16:37:18.013638 21272 net.cpp:141] Setting up inception_4c/pool_proj
I0403 16:37:18.013669 21272 net.cpp:148] Top shape: 24 64 14 14 (301056)
I0403 16:37:18.013700 21272 net.cpp:156] Memory required for data: 1061809440
I0403 16:37:18.013725 21272 layer_factory.hpp:77] Creating layer inception_4c/relu_pool_proj
I0403 16:37:18.013748 21272 net.cpp:91] Creating Layer inception_4c/relu_pool_proj
I0403 16:37:18.013767 21272 net.cpp:425] inception_4c/relu_pool_proj <- inception_4c/pool_proj
I0403 16:37:18.013787 21272 net.cpp:386] inception_4c/relu_pool_proj -> inception_4c/pool_proj (in-place)
I0403 16:37:18.013981 21272 net.cpp:141] Setting up inception_4c/relu_pool_proj
I0403 16:37:18.014016 21272 net.cpp:148] Top shape: 24 64 14 14 (301056)
I0403 16:37:18.014037 21272 net.cpp:156] Memory required for data: 1063013664
I0403 16:37:18.014055 21272 layer_factory.hpp:77] Creating layer inception_4c/output
I0403 16:37:18.014075 21272 net.cpp:91] Creating Layer inception_4c/output
I0403 16:37:18.014092 21272 net.cpp:425] inception_4c/output <- inception_4c/1x1
I0403 16:37:18.014111 21272 net.cpp:425] inception_4c/output <- inception_4c/3x3
I0403 16:37:18.014128 21272 net.cpp:425] inception_4c/output <- inception_4c/5x5
I0403 16:37:18.014145 21272 net.cpp:425] inception_4c/output <- inception_4c/pool_proj
I0403 16:37:18.014163 21272 net.cpp:399] inception_4c/output -> inception_4c/output
I0403 16:37:18.014215 21272 net.cpp:141] Setting up inception_4c/output
I0403 16:37:18.014240 21272 net.cpp:148] Top shape: 24 512 14 14 (2408448)
I0403 16:37:18.014257 21272 net.cpp:156] Memory required for data: 1072647456
I0403 16:37:18.014273 21272 layer_factory.hpp:77] Creating layer inception_4c/output_inception_4c/output_0_split
I0403 16:37:18.014292 21272 net.cpp:91] Creating Layer inception_4c/output_inception_4c/output_0_split
I0403 16:37:18.014308 21272 net.cpp:425] inception_4c/output_inception_4c/output_0_split <- inception_4c/output
I0403 16:37:18.014329 21272 net.cpp:399] inception_4c/output_inception_4c/output_0_split -> inception_4c/output_inception_4c/output_0_split_0
I0403 16:37:18.014353 21272 net.cpp:399] inception_4c/output_inception_4c/output_0_split -> inception_4c/output_inception_4c/output_0_split_1
I0403 16:37:18.014374 21272 net.cpp:399] inception_4c/output_inception_4c/output_0_split -> inception_4c/output_inception_4c/output_0_split_2
I0403 16:37:18.014395 21272 net.cpp:399] inception_4c/output_inception_4c/output_0_split -> inception_4c/output_inception_4c/output_0_split_3
I0403 16:37:18.014485 21272 net.cpp:141] Setting up inception_4c/output_inception_4c/output_0_split
I0403 16:37:18.014511 21272 net.cpp:148] Top shape: 24 512 14 14 (2408448)
I0403 16:37:18.014529 21272 net.cpp:148] Top shape: 24 512 14 14 (2408448)
I0403 16:37:18.014546 21272 net.cpp:148] Top shape: 24 512 14 14 (2408448)
I0403 16:37:18.014564 21272 net.cpp:148] Top shape: 24 512 14 14 (2408448)
I0403 16:37:18.014578 21272 net.cpp:156] Memory required for data: 1111182624
I0403 16:37:18.014595 21272 layer_factory.hpp:77] Creating layer inception_4d/1x1
I0403 16:37:18.014621 21272 net.cpp:91] Creating Layer inception_4d/1x1
I0403 16:37:18.014639 21272 net.cpp:425] inception_4d/1x1 <- inception_4c/output_inception_4c/output_0_split_0
I0403 16:37:18.014662 21272 net.cpp:399] inception_4d/1x1 -> inception_4d/1x1
I0403 16:37:18.016135 21272 net.cpp:141] Setting up inception_4d/1x1
I0403 16:37:18.016168 21272 net.cpp:148] Top shape: 24 112 14 14 (526848)
I0403 16:37:18.016186 21272 net.cpp:156] Memory required for data: 1113290016
I0403 16:37:18.016207 21272 layer_factory.hpp:77] Creating layer inception_4d/relu_1x1
I0403 16:37:18.016228 21272 net.cpp:91] Creating Layer inception_4d/relu_1x1
I0403 16:37:18.016247 21272 net.cpp:425] inception_4d/relu_1x1 <- inception_4d/1x1
I0403 16:37:18.016268 21272 net.cpp:386] inception_4d/relu_1x1 -> inception_4d/1x1 (in-place)
I0403 16:37:18.016469 21272 net.cpp:141] Setting up inception_4d/relu_1x1
I0403 16:37:18.016496 21272 net.cpp:148] Top shape: 24 112 14 14 (526848)
I0403 16:37:18.016512 21272 net.cpp:156] Memory required for data: 1115397408
I0403 16:37:18.016530 21272 layer_factory.hpp:77] Creating layer inception_4d/3x3_reduce
I0403 16:37:18.016569 21272 net.cpp:91] Creating Layer inception_4d/3x3_reduce
I0403 16:37:18.016589 21272 net.cpp:425] inception_4d/3x3_reduce <- inception_4c/output_inception_4c/output_0_split_1
I0403 16:37:18.016613 21272 net.cpp:399] inception_4d/3x3_reduce -> inception_4d/3x3_reduce
I0403 16:37:18.018236 21272 net.cpp:141] Setting up inception_4d/3x3_reduce
I0403 16:37:18.018267 21272 net.cpp:148] Top shape: 24 144 14 14 (677376)
I0403 16:37:18.018285 21272 net.cpp:156] Memory required for data: 1118106912
I0403 16:37:18.018303 21272 layer_factory.hpp:77] Creating layer inception_4d/relu_3x3_reduce
I0403 16:37:18.018326 21272 net.cpp:91] Creating Layer inception_4d/relu_3x3_reduce
I0403 16:37:18.018345 21272 net.cpp:425] inception_4d/relu_3x3_reduce <- inception_4d/3x3_reduce
I0403 16:37:18.018364 21272 net.cpp:386] inception_4d/relu_3x3_reduce -> inception_4d/3x3_reduce (in-place)
I0403 16:37:18.018676 21272 net.cpp:141] Setting up inception_4d/relu_3x3_reduce
I0403 16:37:18.018705 21272 net.cpp:148] Top shape: 24 144 14 14 (677376)
I0403 16:37:18.018721 21272 net.cpp:156] Memory required for data: 1120816416
I0403 16:37:18.018738 21272 layer_factory.hpp:77] Creating layer inception_4d/3x3
I0403 16:37:18.018762 21272 net.cpp:91] Creating Layer inception_4d/3x3
I0403 16:37:18.018782 21272 net.cpp:425] inception_4d/3x3 <- inception_4d/3x3_reduce
I0403 16:37:18.018803 21272 net.cpp:399] inception_4d/3x3 -> inception_4d/3x3
I0403 16:37:18.023332 21272 net.cpp:141] Setting up inception_4d/3x3
I0403 16:37:18.023367 21272 net.cpp:148] Top shape: 24 288 14 14 (1354752)
I0403 16:37:18.023386 21272 net.cpp:156] Memory required for data: 1126235424
I0403 16:37:18.023407 21272 layer_factory.hpp:77] Creating layer inception_4d/relu_3x3
I0403 16:37:18.023427 21272 net.cpp:91] Creating Layer inception_4d/relu_3x3
I0403 16:37:18.023447 21272 net.cpp:425] inception_4d/relu_3x3 <- inception_4d/3x3
I0403 16:37:18.023468 21272 net.cpp:386] inception_4d/relu_3x3 -> inception_4d/3x3 (in-place)
I0403 16:37:18.023663 21272 net.cpp:141] Setting up inception_4d/relu_3x3
I0403 16:37:18.023689 21272 net.cpp:148] Top shape: 24 288 14 14 (1354752)
I0403 16:37:18.023706 21272 net.cpp:156] Memory required for data: 1131654432
I0403 16:37:18.023722 21272 layer_factory.hpp:77] Creating layer inception_4d/5x5_reduce
I0403 16:37:18.023746 21272 net.cpp:91] Creating Layer inception_4d/5x5_reduce
I0403 16:37:18.023766 21272 net.cpp:425] inception_4d/5x5_reduce <- inception_4c/output_inception_4c/output_0_split_2
I0403 16:37:18.023789 21272 net.cpp:399] inception_4d/5x5_reduce -> inception_4d/5x5_reduce
I0403 16:37:18.025018 21272 net.cpp:141] Setting up inception_4d/5x5_reduce
I0403 16:37:18.025049 21272 net.cpp:148] Top shape: 24 32 14 14 (150528)
I0403 16:37:18.025066 21272 net.cpp:156] Memory required for data: 1132256544
I0403 16:37:18.025087 21272 layer_factory.hpp:77] Creating layer inception_4d/relu_5x5_reduce
I0403 16:37:18.025107 21272 net.cpp:91] Creating Layer inception_4d/relu_5x5_reduce
I0403 16:37:18.025126 21272 net.cpp:425] inception_4d/relu_5x5_reduce <- inception_4d/5x5_reduce
I0403 16:37:18.025147 21272 net.cpp:386] inception_4d/relu_5x5_reduce -> inception_4d/5x5_reduce (in-place)
I0403 16:37:18.025347 21272 net.cpp:141] Setting up inception_4d/relu_5x5_reduce
I0403 16:37:18.025375 21272 net.cpp:148] Top shape: 24 32 14 14 (150528)
I0403 16:37:18.025393 21272 net.cpp:156] Memory required for data: 1132858656
I0403 16:37:18.025408 21272 layer_factory.hpp:77] Creating layer inception_4d/5x5
I0403 16:37:18.025432 21272 net.cpp:91] Creating Layer inception_4d/5x5
I0403 16:37:18.025451 21272 net.cpp:425] inception_4d/5x5 <- inception_4d/5x5_reduce
I0403 16:37:18.025475 21272 net.cpp:399] inception_4d/5x5 -> inception_4d/5x5
I0403 16:37:18.027052 21272 net.cpp:141] Setting up inception_4d/5x5
I0403 16:37:18.027083 21272 net.cpp:148] Top shape: 24 64 14 14 (301056)
I0403 16:37:18.027101 21272 net.cpp:156] Memory required for data: 1134062880
I0403 16:37:18.027123 21272 layer_factory.hpp:77] Creating layer inception_4d/relu_5x5
I0403 16:37:18.027164 21272 net.cpp:91] Creating Layer inception_4d/relu_5x5
I0403 16:37:18.027184 21272 net.cpp:425] inception_4d/relu_5x5 <- inception_4d/5x5
I0403 16:37:18.027204 21272 net.cpp:386] inception_4d/relu_5x5 -> inception_4d/5x5 (in-place)
I0403 16:37:18.027523 21272 net.cpp:141] Setting up inception_4d/relu_5x5
I0403 16:37:18.027554 21272 net.cpp:148] Top shape: 24 64 14 14 (301056)
I0403 16:37:18.027571 21272 net.cpp:156] Memory required for data: 1135267104
I0403 16:37:18.027588 21272 layer_factory.hpp:77] Creating layer inception_4d/pool
I0403 16:37:18.027612 21272 net.cpp:91] Creating Layer inception_4d/pool
I0403 16:37:18.027631 21272 net.cpp:425] inception_4d/pool <- inception_4c/output_inception_4c/output_0_split_3
I0403 16:37:18.027650 21272 net.cpp:399] inception_4d/pool -> inception_4d/pool
I0403 16:37:18.027724 21272 net.cpp:141] Setting up inception_4d/pool
I0403 16:37:18.027750 21272 net.cpp:148] Top shape: 24 512 14 14 (2408448)
I0403 16:37:18.027766 21272 net.cpp:156] Memory required for data: 1144900896
I0403 16:37:18.027781 21272 layer_factory.hpp:77] Creating layer inception_4d/pool_proj
I0403 16:37:18.027806 21272 net.cpp:91] Creating Layer inception_4d/pool_proj
I0403 16:37:18.027824 21272 net.cpp:425] inception_4d/pool_proj <- inception_4d/pool
I0403 16:37:18.027848 21272 net.cpp:399] inception_4d/pool_proj -> inception_4d/pool_proj
I0403 16:37:18.029727 21272 net.cpp:141] Setting up inception_4d/pool_proj
I0403 16:37:18.029781 21272 net.cpp:148] Top shape: 24 64 14 14 (301056)
I0403 16:37:18.029801 21272 net.cpp:156] Memory required for data: 1146105120
I0403 16:37:18.029821 21272 layer_factory.hpp:77] Creating layer inception_4d/relu_pool_proj
I0403 16:37:18.029841 21272 net.cpp:91] Creating Layer inception_4d/relu_pool_proj
I0403 16:37:18.029860 21272 net.cpp:425] inception_4d/relu_pool_proj <- inception_4d/pool_proj
I0403 16:37:18.029881 21272 net.cpp:386] inception_4d/relu_pool_proj -> inception_4d/pool_proj (in-place)
I0403 16:37:18.030082 21272 net.cpp:141] Setting up inception_4d/relu_pool_proj
I0403 16:37:18.030109 21272 net.cpp:148] Top shape: 24 64 14 14 (301056)
I0403 16:37:18.030127 21272 net.cpp:156] Memory required for data: 1147309344
I0403 16:37:18.030143 21272 layer_factory.hpp:77] Creating layer inception_4d/output
I0403 16:37:18.030161 21272 net.cpp:91] Creating Layer inception_4d/output
I0403 16:37:18.030179 21272 net.cpp:425] inception_4d/output <- inception_4d/1x1
I0403 16:37:18.030196 21272 net.cpp:425] inception_4d/output <- inception_4d/3x3
I0403 16:37:18.030215 21272 net.cpp:425] inception_4d/output <- inception_4d/5x5
I0403 16:37:18.030231 21272 net.cpp:425] inception_4d/output <- inception_4d/pool_proj
I0403 16:37:18.030252 21272 net.cpp:399] inception_4d/output -> inception_4d/output
I0403 16:37:18.030305 21272 net.cpp:141] Setting up inception_4d/output
I0403 16:37:18.030331 21272 net.cpp:148] Top shape: 24 528 14 14 (2483712)
I0403 16:37:18.030347 21272 net.cpp:156] Memory required for data: 1157244192
I0403 16:37:18.030362 21272 layer_factory.hpp:77] Creating layer inception_4d/output_inception_4d/output_0_split
I0403 16:37:18.030382 21272 net.cpp:91] Creating Layer inception_4d/output_inception_4d/output_0_split
I0403 16:37:18.030400 21272 net.cpp:425] inception_4d/output_inception_4d/output_0_split <- inception_4d/output
I0403 16:37:18.030422 21272 net.cpp:399] inception_4d/output_inception_4d/output_0_split -> inception_4d/output_inception_4d/output_0_split_0
I0403 16:37:18.030447 21272 net.cpp:399] inception_4d/output_inception_4d/output_0_split -> inception_4d/output_inception_4d/output_0_split_1
I0403 16:37:18.030469 21272 net.cpp:399] inception_4d/output_inception_4d/output_0_split -> inception_4d/output_inception_4d/output_0_split_2
I0403 16:37:18.030490 21272 net.cpp:399] inception_4d/output_inception_4d/output_0_split -> inception_4d/output_inception_4d/output_0_split_3
I0403 16:37:18.030511 21272 net.cpp:399] inception_4d/output_inception_4d/output_0_split -> inception_4d/output_inception_4d/output_0_split_4
I0403 16:37:18.030618 21272 net.cpp:141] Setting up inception_4d/output_inception_4d/output_0_split
I0403 16:37:18.030658 21272 net.cpp:148] Top shape: 24 528 14 14 (2483712)
I0403 16:37:18.030678 21272 net.cpp:148] Top shape: 24 528 14 14 (2483712)
I0403 16:37:18.030694 21272 net.cpp:148] Top shape: 24 528 14 14 (2483712)
I0403 16:37:18.030711 21272 net.cpp:148] Top shape: 24 528 14 14 (2483712)
I0403 16:37:18.030728 21272 net.cpp:148] Top shape: 24 528 14 14 (2483712)
I0403 16:37:18.030743 21272 net.cpp:156] Memory required for data: 1206918432
I0403 16:37:18.030760 21272 layer_factory.hpp:77] Creating layer loss2/ave_pool
I0403 16:37:18.030778 21272 net.cpp:91] Creating Layer loss2/ave_pool
I0403 16:37:18.030797 21272 net.cpp:425] loss2/ave_pool <- inception_4d/output_inception_4d/output_0_split_0
I0403 16:37:18.030818 21272 net.cpp:399] loss2/ave_pool -> loss2/ave_pool
I0403 16:37:18.031167 21272 net.cpp:141] Setting up loss2/ave_pool
I0403 16:37:18.031196 21272 net.cpp:148] Top shape: 24 528 4 4 (202752)
I0403 16:37:18.031213 21272 net.cpp:156] Memory required for data: 1207729440
I0403 16:37:18.031229 21272 layer_factory.hpp:77] Creating layer loss2/conv
I0403 16:37:18.031254 21272 net.cpp:91] Creating Layer loss2/conv
I0403 16:37:18.031271 21272 net.cpp:425] loss2/conv <- loss2/ave_pool
I0403 16:37:18.031293 21272 net.cpp:399] loss2/conv -> loss2/conv
I0403 16:37:18.033308 21272 net.cpp:141] Setting up loss2/conv
I0403 16:37:18.033339 21272 net.cpp:148] Top shape: 24 128 4 4 (49152)
I0403 16:37:18.033355 21272 net.cpp:156] Memory required for data: 1207926048
I0403 16:37:18.033375 21272 layer_factory.hpp:77] Creating layer loss2/relu_conv
I0403 16:37:18.033398 21272 net.cpp:91] Creating Layer loss2/relu_conv
I0403 16:37:18.033416 21272 net.cpp:425] loss2/relu_conv <- loss2/conv
I0403 16:37:18.033437 21272 net.cpp:386] loss2/relu_conv -> loss2/conv (in-place)
I0403 16:37:18.033736 21272 net.cpp:141] Setting up loss2/relu_conv
I0403 16:37:18.033764 21272 net.cpp:148] Top shape: 24 128 4 4 (49152)
I0403 16:37:18.033781 21272 net.cpp:156] Memory required for data: 1208122656
I0403 16:37:18.033797 21272 layer_factory.hpp:77] Creating layer loss2/fc
I0403 16:37:18.033820 21272 net.cpp:91] Creating Layer loss2/fc
I0403 16:37:18.033839 21272 net.cpp:425] loss2/fc <- loss2/conv
I0403 16:37:18.033861 21272 net.cpp:399] loss2/fc -> loss2/fc
I0403 16:37:18.052462 21272 net.cpp:141] Setting up loss2/fc
I0403 16:37:18.052501 21272 net.cpp:148] Top shape: 24 1024 (24576)
I0403 16:37:18.052520 21272 net.cpp:156] Memory required for data: 1208220960
I0403 16:37:18.052539 21272 layer_factory.hpp:77] Creating layer loss2/relu_fc
I0403 16:37:18.052559 21272 net.cpp:91] Creating Layer loss2/relu_fc
I0403 16:37:18.052577 21272 net.cpp:425] loss2/relu_fc <- loss2/fc
I0403 16:37:18.052597 21272 net.cpp:386] loss2/relu_fc -> loss2/fc (in-place)
I0403 16:37:18.052917 21272 net.cpp:141] Setting up loss2/relu_fc
I0403 16:37:18.052944 21272 net.cpp:148] Top shape: 24 1024 (24576)
I0403 16:37:18.052960 21272 net.cpp:156] Memory required for data: 1208319264
I0403 16:37:18.052976 21272 layer_factory.hpp:77] Creating layer loss2/drop_fc
I0403 16:37:18.053001 21272 net.cpp:91] Creating Layer loss2/drop_fc
I0403 16:37:18.053020 21272 net.cpp:425] loss2/drop_fc <- loss2/fc
I0403 16:37:18.053040 21272 net.cpp:386] loss2/drop_fc -> loss2/fc (in-place)
I0403 16:37:18.053092 21272 net.cpp:141] Setting up loss2/drop_fc
I0403 16:37:18.053118 21272 net.cpp:148] Top shape: 24 1024 (24576)
I0403 16:37:18.053134 21272 net.cpp:156] Memory required for data: 1208417568
I0403 16:37:18.053150 21272 layer_factory.hpp:77] Creating layer loss2/classifier_plantvillage
I0403 16:37:18.053169 21272 net.cpp:91] Creating Layer loss2/classifier_plantvillage
I0403 16:37:18.053186 21272 net.cpp:425] loss2/classifier_plantvillage <- loss2/fc
I0403 16:37:18.053208 21272 net.cpp:399] loss2/classifier_plantvillage -> loss2/classifier_plantvillage
I0403 16:37:18.053632 21272 net.cpp:141] Setting up loss2/classifier_plantvillage
I0403 16:37:18.053658 21272 net.cpp:148] Top shape: 24 38 (912)
I0403 16:37:18.053673 21272 net.cpp:156] Memory required for data: 1208421216
I0403 16:37:18.053711 21272 layer_factory.hpp:77] Creating layer loss2/classifier_plantvillage_loss2/classifier_plantvillage_0_split
I0403 16:37:18.053735 21272 net.cpp:91] Creating Layer loss2/classifier_plantvillage_loss2/classifier_plantvillage_0_split
I0403 16:37:18.053752 21272 net.cpp:425] loss2/classifier_plantvillage_loss2/classifier_plantvillage_0_split <- loss2/classifier_plantvillage
I0403 16:37:18.053771 21272 net.cpp:399] loss2/classifier_plantvillage_loss2/classifier_plantvillage_0_split -> loss2/classifier_plantvillage_loss2/classifier_plantvillage_0_split_0
I0403 16:37:18.053791 21272 net.cpp:399] loss2/classifier_plantvillage_loss2/classifier_plantvillage_0_split -> loss2/classifier_plantvillage_loss2/classifier_plantvillage_0_split_1
I0403 16:37:18.053817 21272 net.cpp:399] loss2/classifier_plantvillage_loss2/classifier_plantvillage_0_split -> loss2/classifier_plantvillage_loss2/classifier_plantvillage_0_split_2
I0403 16:37:18.053895 21272 net.cpp:141] Setting up loss2/classifier_plantvillage_loss2/classifier_plantvillage_0_split
I0403 16:37:18.053920 21272 net.cpp:148] Top shape: 24 38 (912)
I0403 16:37:18.053937 21272 net.cpp:148] Top shape: 24 38 (912)
I0403 16:37:18.053953 21272 net.cpp:148] Top shape: 24 38 (912)
I0403 16:37:18.053967 21272 net.cpp:156] Memory required for data: 1208432160
I0403 16:37:18.053983 21272 layer_factory.hpp:77] Creating layer inception_4e/1x1
I0403 16:37:18.054014 21272 net.cpp:91] Creating Layer inception_4e/1x1
I0403 16:37:18.054033 21272 net.cpp:425] inception_4e/1x1 <- inception_4d/output_inception_4d/output_0_split_1
I0403 16:37:18.054052 21272 net.cpp:399] inception_4e/1x1 -> inception_4e/1x1
I0403 16:37:18.055935 21272 net.cpp:141] Setting up inception_4e/1x1
I0403 16:37:18.055964 21272 net.cpp:148] Top shape: 24 256 14 14 (1204224)
I0403 16:37:18.055982 21272 net.cpp:156] Memory required for data: 1213249056
I0403 16:37:18.056010 21272 layer_factory.hpp:77] Creating layer inception_4e/relu_1x1
I0403 16:37:18.056033 21272 net.cpp:91] Creating Layer inception_4e/relu_1x1
I0403 16:37:18.056051 21272 net.cpp:425] inception_4e/relu_1x1 <- inception_4e/1x1
I0403 16:37:18.056068 21272 net.cpp:386] inception_4e/relu_1x1 -> inception_4e/1x1 (in-place)
I0403 16:37:18.056372 21272 net.cpp:141] Setting up inception_4e/relu_1x1
I0403 16:37:18.056399 21272 net.cpp:148] Top shape: 24 256 14 14 (1204224)
I0403 16:37:18.056416 21272 net.cpp:156] Memory required for data: 1218065952
I0403 16:37:18.056432 21272 layer_factory.hpp:77] Creating layer inception_4e/3x3_reduce
I0403 16:37:18.056455 21272 net.cpp:91] Creating Layer inception_4e/3x3_reduce
I0403 16:37:18.056473 21272 net.cpp:425] inception_4e/3x3_reduce <- inception_4d/output_inception_4d/output_0_split_2
I0403 16:37:18.056496 21272 net.cpp:399] inception_4e/3x3_reduce -> inception_4e/3x3_reduce
I0403 16:37:18.058682 21272 net.cpp:141] Setting up inception_4e/3x3_reduce
I0403 16:37:18.058713 21272 net.cpp:148] Top shape: 24 160 14 14 (752640)
I0403 16:37:18.058729 21272 net.cpp:156] Memory required for data: 1221076512
I0403 16:37:18.058750 21272 layer_factory.hpp:77] Creating layer inception_4e/relu_3x3_reduce
I0403 16:37:18.058773 21272 net.cpp:91] Creating Layer inception_4e/relu_3x3_reduce
I0403 16:37:18.058791 21272 net.cpp:425] inception_4e/relu_3x3_reduce <- inception_4e/3x3_reduce
I0403 16:37:18.058809 21272 net.cpp:386] inception_4e/relu_3x3_reduce -> inception_4e/3x3_reduce (in-place)
I0403 16:37:18.059010 21272 net.cpp:141] Setting up inception_4e/relu_3x3_reduce
I0403 16:37:18.059038 21272 net.cpp:148] Top shape: 24 160 14 14 (752640)
I0403 16:37:18.059054 21272 net.cpp:156] Memory required for data: 1224087072
I0403 16:37:18.059070 21272 layer_factory.hpp:77] Creating layer inception_4e/3x3
I0403 16:37:18.059093 21272 net.cpp:91] Creating Layer inception_4e/3x3
I0403 16:37:18.059113 21272 net.cpp:425] inception_4e/3x3 <- inception_4e/3x3_reduce
I0403 16:37:18.059131 21272 net.cpp:399] inception_4e/3x3 -> inception_4e/3x3
I0403 16:37:18.064291 21272 net.cpp:141] Setting up inception_4e/3x3
I0403 16:37:18.064337 21272 net.cpp:148] Top shape: 24 320 14 14 (1505280)
I0403 16:37:18.064357 21272 net.cpp:156] Memory required for data: 1230108192
I0403 16:37:18.064376 21272 layer_factory.hpp:77] Creating layer inception_4e/relu_3x3
I0403 16:37:18.064398 21272 net.cpp:91] Creating Layer inception_4e/relu_3x3
I0403 16:37:18.064414 21272 net.cpp:425] inception_4e/relu_3x3 <- inception_4e/3x3
I0403 16:37:18.064435 21272 net.cpp:386] inception_4e/relu_3x3 -> inception_4e/3x3 (in-place)
I0403 16:37:18.064754 21272 net.cpp:141] Setting up inception_4e/relu_3x3
I0403 16:37:18.064782 21272 net.cpp:148] Top shape: 24 320 14 14 (1505280)
I0403 16:37:18.064797 21272 net.cpp:156] Memory required for data: 1236129312
I0403 16:37:18.064813 21272 layer_factory.hpp:77] Creating layer inception_4e/5x5_reduce
I0403 16:37:18.064837 21272 net.cpp:91] Creating Layer inception_4e/5x5_reduce
I0403 16:37:18.064857 21272 net.cpp:425] inception_4e/5x5_reduce <- inception_4d/output_inception_4d/output_0_split_3
I0403 16:37:18.064879 21272 net.cpp:399] inception_4e/5x5_reduce -> inception_4e/5x5_reduce
I0403 16:37:18.065996 21272 net.cpp:141] Setting up inception_4e/5x5_reduce
I0403 16:37:18.066025 21272 net.cpp:148] Top shape: 24 32 14 14 (150528)
I0403 16:37:18.066041 21272 net.cpp:156] Memory required for data: 1236731424
I0403 16:37:18.066061 21272 layer_factory.hpp:77] Creating layer inception_4e/relu_5x5_reduce
I0403 16:37:18.066082 21272 net.cpp:91] Creating Layer inception_4e/relu_5x5_reduce
I0403 16:37:18.066100 21272 net.cpp:425] inception_4e/relu_5x5_reduce <- inception_4e/5x5_reduce
I0403 16:37:18.066120 21272 net.cpp:386] inception_4e/relu_5x5_reduce -> inception_4e/5x5_reduce (in-place)
I0403 16:37:18.066433 21272 net.cpp:141] Setting up inception_4e/relu_5x5_reduce
I0403 16:37:18.066459 21272 net.cpp:148] Top shape: 24 32 14 14 (150528)
I0403 16:37:18.066475 21272 net.cpp:156] Memory required for data: 1237333536
I0403 16:37:18.066491 21272 layer_factory.hpp:77] Creating layer inception_4e/5x5
I0403 16:37:18.066541 21272 net.cpp:91] Creating Layer inception_4e/5x5
I0403 16:37:18.066560 21272 net.cpp:425] inception_4e/5x5 <- inception_4e/5x5_reduce
I0403 16:37:18.066581 21272 net.cpp:399] inception_4e/5x5 -> inception_4e/5x5
I0403 16:37:18.068496 21272 net.cpp:141] Setting up inception_4e/5x5
I0403 16:37:18.068526 21272 net.cpp:148] Top shape: 24 128 14 14 (602112)
I0403 16:37:18.068544 21272 net.cpp:156] Memory required for data: 1239741984
I0403 16:37:18.068565 21272 layer_factory.hpp:77] Creating layer inception_4e/relu_5x5
I0403 16:37:18.068588 21272 net.cpp:91] Creating Layer inception_4e/relu_5x5
I0403 16:37:18.068608 21272 net.cpp:425] inception_4e/relu_5x5 <- inception_4e/5x5
I0403 16:37:18.068627 21272 net.cpp:386] inception_4e/relu_5x5 -> inception_4e/5x5 (in-place)
I0403 16:37:18.068843 21272 net.cpp:141] Setting up inception_4e/relu_5x5
I0403 16:37:18.068871 21272 net.cpp:148] Top shape: 24 128 14 14 (602112)
I0403 16:37:18.068887 21272 net.cpp:156] Memory required for data: 1242150432
I0403 16:37:18.068903 21272 layer_factory.hpp:77] Creating layer inception_4e/pool
I0403 16:37:18.068925 21272 net.cpp:91] Creating Layer inception_4e/pool
I0403 16:37:18.068944 21272 net.cpp:425] inception_4e/pool <- inception_4d/output_inception_4d/output_0_split_4
I0403 16:37:18.068964 21272 net.cpp:399] inception_4e/pool -> inception_4e/pool
I0403 16:37:18.069046 21272 net.cpp:141] Setting up inception_4e/pool
I0403 16:37:18.069072 21272 net.cpp:148] Top shape: 24 528 14 14 (2483712)
I0403 16:37:18.069100 21272 net.cpp:156] Memory required for data: 1252085280
I0403 16:37:18.069116 21272 layer_factory.hpp:77] Creating layer inception_4e/pool_proj
I0403 16:37:18.069140 21272 net.cpp:91] Creating Layer inception_4e/pool_proj
I0403 16:37:18.069159 21272 net.cpp:425] inception_4e/pool_proj <- inception_4e/pool
I0403 16:37:18.069181 21272 net.cpp:399] inception_4e/pool_proj -> inception_4e/pool_proj
I0403 16:37:18.070724 21272 net.cpp:141] Setting up inception_4e/pool_proj
I0403 16:37:18.070755 21272 net.cpp:148] Top shape: 24 128 14 14 (602112)
I0403 16:37:18.070786 21272 net.cpp:156] Memory required for data: 1254493728
I0403 16:37:18.070808 21272 layer_factory.hpp:77] Creating layer inception_4e/relu_pool_proj
I0403 16:37:18.070827 21272 net.cpp:91] Creating Layer inception_4e/relu_pool_proj
I0403 16:37:18.070845 21272 net.cpp:425] inception_4e/relu_pool_proj <- inception_4e/pool_proj
I0403 16:37:18.070868 21272 net.cpp:386] inception_4e/relu_pool_proj -> inception_4e/pool_proj (in-place)
I0403 16:37:18.071178 21272 net.cpp:141] Setting up inception_4e/relu_pool_proj
I0403 16:37:18.071208 21272 net.cpp:148] Top shape: 24 128 14 14 (602112)
I0403 16:37:18.071223 21272 net.cpp:156] Memory required for data: 1256902176
I0403 16:37:18.071239 21272 layer_factory.hpp:77] Creating layer inception_4e/output
I0403 16:37:18.071259 21272 net.cpp:91] Creating Layer inception_4e/output
I0403 16:37:18.071276 21272 net.cpp:425] inception_4e/output <- inception_4e/1x1
I0403 16:37:18.071295 21272 net.cpp:425] inception_4e/output <- inception_4e/3x3
I0403 16:37:18.071312 21272 net.cpp:425] inception_4e/output <- inception_4e/5x5
I0403 16:37:18.071331 21272 net.cpp:425] inception_4e/output <- inception_4e/pool_proj
I0403 16:37:18.071352 21272 net.cpp:399] inception_4e/output -> inception_4e/output
I0403 16:37:18.071405 21272 net.cpp:141] Setting up inception_4e/output
I0403 16:37:18.071431 21272 net.cpp:148] Top shape: 24 832 14 14 (3913728)
I0403 16:37:18.071449 21272 net.cpp:156] Memory required for data: 1272557088
I0403 16:37:18.071465 21272 layer_factory.hpp:77] Creating layer pool4/3x3_s2
I0403 16:37:18.071485 21272 net.cpp:91] Creating Layer pool4/3x3_s2
I0403 16:37:18.071503 21272 net.cpp:425] pool4/3x3_s2 <- inception_4e/output
I0403 16:37:18.071527 21272 net.cpp:399] pool4/3x3_s2 -> pool4/3x3_s2
I0403 16:37:18.071596 21272 net.cpp:141] Setting up pool4/3x3_s2
I0403 16:37:18.071621 21272 net.cpp:148] Top shape: 24 832 7 7 (978432)
I0403 16:37:18.071636 21272 net.cpp:156] Memory required for data: 1276470816
I0403 16:37:18.071652 21272 layer_factory.hpp:77] Creating layer pool4/3x3_s2_pool4/3x3_s2_0_split
I0403 16:37:18.071672 21272 net.cpp:91] Creating Layer pool4/3x3_s2_pool4/3x3_s2_0_split
I0403 16:37:18.071691 21272 net.cpp:425] pool4/3x3_s2_pool4/3x3_s2_0_split <- pool4/3x3_s2
I0403 16:37:18.071708 21272 net.cpp:399] pool4/3x3_s2_pool4/3x3_s2_0_split -> pool4/3x3_s2_pool4/3x3_s2_0_split_0
I0403 16:37:18.071730 21272 net.cpp:399] pool4/3x3_s2_pool4/3x3_s2_0_split -> pool4/3x3_s2_pool4/3x3_s2_0_split_1
I0403 16:37:18.071753 21272 net.cpp:399] pool4/3x3_s2_pool4/3x3_s2_0_split -> pool4/3x3_s2_pool4/3x3_s2_0_split_2
I0403 16:37:18.071774 21272 net.cpp:399] pool4/3x3_s2_pool4/3x3_s2_0_split -> pool4/3x3_s2_pool4/3x3_s2_0_split_3
I0403 16:37:18.071867 21272 net.cpp:141] Setting up pool4/3x3_s2_pool4/3x3_s2_0_split
I0403 16:37:18.071892 21272 net.cpp:148] Top shape: 24 832 7 7 (978432)
I0403 16:37:18.071908 21272 net.cpp:148] Top shape: 24 832 7 7 (978432)
I0403 16:37:18.071925 21272 net.cpp:148] Top shape: 24 832 7 7 (978432)
I0403 16:37:18.071943 21272 net.cpp:148] Top shape: 24 832 7 7 (978432)
I0403 16:37:18.071956 21272 net.cpp:156] Memory required for data: 1292125728
I0403 16:37:18.071972 21272 layer_factory.hpp:77] Creating layer inception_5a/1x1
I0403 16:37:18.072002 21272 net.cpp:91] Creating Layer inception_5a/1x1
I0403 16:37:18.072022 21272 net.cpp:425] inception_5a/1x1 <- pool4/3x3_s2_pool4/3x3_s2_0_split_0
I0403 16:37:18.072044 21272 net.cpp:399] inception_5a/1x1 -> inception_5a/1x1
I0403 16:37:18.075029 21272 net.cpp:141] Setting up inception_5a/1x1
I0403 16:37:18.075060 21272 net.cpp:148] Top shape: 24 256 7 7 (301056)
I0403 16:37:18.075078 21272 net.cpp:156] Memory required for data: 1293329952
I0403 16:37:18.075098 21272 layer_factory.hpp:77] Creating layer inception_5a/relu_1x1
I0403 16:37:18.075121 21272 net.cpp:91] Creating Layer inception_5a/relu_1x1
I0403 16:37:18.075140 21272 net.cpp:425] inception_5a/relu_1x1 <- inception_5a/1x1
I0403 16:37:18.075160 21272 net.cpp:386] inception_5a/relu_1x1 -> inception_5a/1x1 (in-place)
I0403 16:37:18.075484 21272 net.cpp:141] Setting up inception_5a/relu_1x1
I0403 16:37:18.075512 21272 net.cpp:148] Top shape: 24 256 7 7 (301056)
I0403 16:37:18.075527 21272 net.cpp:156] Memory required for data: 1294534176
I0403 16:37:18.075543 21272 layer_factory.hpp:77] Creating layer inception_5a/3x3_reduce
I0403 16:37:18.075567 21272 net.cpp:91] Creating Layer inception_5a/3x3_reduce
I0403 16:37:18.075585 21272 net.cpp:425] inception_5a/3x3_reduce <- pool4/3x3_s2_pool4/3x3_s2_0_split_1
I0403 16:37:18.075608 21272 net.cpp:399] inception_5a/3x3_reduce -> inception_5a/3x3_reduce
I0403 16:37:18.078150 21272 net.cpp:141] Setting up inception_5a/3x3_reduce
I0403 16:37:18.078182 21272 net.cpp:148] Top shape: 24 160 7 7 (188160)
I0403 16:37:18.078202 21272 net.cpp:156] Memory required for data: 1295286816
I0403 16:37:18.078222 21272 layer_factory.hpp:77] Creating layer inception_5a/relu_3x3_reduce
I0403 16:37:18.078243 21272 net.cpp:91] Creating Layer inception_5a/relu_3x3_reduce
I0403 16:37:18.078259 21272 net.cpp:425] inception_5a/relu_3x3_reduce <- inception_5a/3x3_reduce
I0403 16:37:18.078279 21272 net.cpp:386] inception_5a/relu_3x3_reduce -> inception_5a/3x3_reduce (in-place)
I0403 16:37:18.078471 21272 net.cpp:141] Setting up inception_5a/relu_3x3_reduce
I0403 16:37:18.078498 21272 net.cpp:148] Top shape: 24 160 7 7 (188160)
I0403 16:37:18.078513 21272 net.cpp:156] Memory required for data: 1296039456
I0403 16:37:18.078529 21272 layer_factory.hpp:77] Creating layer inception_5a/3x3
I0403 16:37:18.078552 21272 net.cpp:91] Creating Layer inception_5a/3x3
I0403 16:37:18.078570 21272 net.cpp:425] inception_5a/3x3 <- inception_5a/3x3_reduce
I0403 16:37:18.078594 21272 net.cpp:399] inception_5a/3x3 -> inception_5a/3x3
I0403 16:37:18.083791 21272 net.cpp:141] Setting up inception_5a/3x3
I0403 16:37:18.083822 21272 net.cpp:148] Top shape: 24 320 7 7 (376320)
I0403 16:37:18.083839 21272 net.cpp:156] Memory required for data: 1297544736
I0403 16:37:18.083860 21272 layer_factory.hpp:77] Creating layer inception_5a/relu_3x3
I0403 16:37:18.083883 21272 net.cpp:91] Creating Layer inception_5a/relu_3x3
I0403 16:37:18.083901 21272 net.cpp:425] inception_5a/relu_3x3 <- inception_5a/3x3
I0403 16:37:18.083920 21272 net.cpp:386] inception_5a/relu_3x3 -> inception_5a/3x3 (in-place)
I0403 16:37:18.084238 21272 net.cpp:141] Setting up inception_5a/relu_3x3
I0403 16:37:18.084265 21272 net.cpp:148] Top shape: 24 320 7 7 (376320)
I0403 16:37:18.084282 21272 net.cpp:156] Memory required for data: 1299050016
I0403 16:37:18.084298 21272 layer_factory.hpp:77] Creating layer inception_5a/5x5_reduce
I0403 16:37:18.084323 21272 net.cpp:91] Creating Layer inception_5a/5x5_reduce
I0403 16:37:18.084342 21272 net.cpp:425] inception_5a/5x5_reduce <- pool4/3x3_s2_pool4/3x3_s2_0_split_2
I0403 16:37:18.084367 21272 net.cpp:399] inception_5a/5x5_reduce -> inception_5a/5x5_reduce
I0403 16:37:18.085610 21272 net.cpp:141] Setting up inception_5a/5x5_reduce
I0403 16:37:18.085643 21272 net.cpp:148] Top shape: 24 32 7 7 (37632)
I0403 16:37:18.085660 21272 net.cpp:156] Memory required for data: 1299200544
I0403 16:37:18.085681 21272 layer_factory.hpp:77] Creating layer inception_5a/relu_5x5_reduce
I0403 16:37:18.085703 21272 net.cpp:91] Creating Layer inception_5a/relu_5x5_reduce
I0403 16:37:18.085721 21272 net.cpp:425] inception_5a/relu_5x5_reduce <- inception_5a/5x5_reduce
I0403 16:37:18.085741 21272 net.cpp:386] inception_5a/relu_5x5_reduce -> inception_5a/5x5_reduce (in-place)
I0403 16:37:18.086068 21272 net.cpp:141] Setting up inception_5a/relu_5x5_reduce
I0403 16:37:18.086096 21272 net.cpp:148] Top shape: 24 32 7 7 (37632)
I0403 16:37:18.086112 21272 net.cpp:156] Memory required for data: 1299351072
I0403 16:37:18.086128 21272 layer_factory.hpp:77] Creating layer inception_5a/5x5
I0403 16:37:18.086153 21272 net.cpp:91] Creating Layer inception_5a/5x5
I0403 16:37:18.086172 21272 net.cpp:425] inception_5a/5x5 <- inception_5a/5x5_reduce
I0403 16:37:18.086195 21272 net.cpp:399] inception_5a/5x5 -> inception_5a/5x5
I0403 16:37:18.088045 21272 net.cpp:141] Setting up inception_5a/5x5
I0403 16:37:18.088089 21272 net.cpp:148] Top shape: 24 128 7 7 (150528)
I0403 16:37:18.088106 21272 net.cpp:156] Memory required for data: 1299953184
I0403 16:37:18.088126 21272 layer_factory.hpp:77] Creating layer inception_5a/relu_5x5
I0403 16:37:18.088148 21272 net.cpp:91] Creating Layer inception_5a/relu_5x5
I0403 16:37:18.088167 21272 net.cpp:425] inception_5a/relu_5x5 <- inception_5a/5x5
I0403 16:37:18.088186 21272 net.cpp:386] inception_5a/relu_5x5 -> inception_5a/5x5 (in-place)
I0403 16:37:18.088388 21272 net.cpp:141] Setting up inception_5a/relu_5x5
I0403 16:37:18.088416 21272 net.cpp:148] Top shape: 24 128 7 7 (150528)
I0403 16:37:18.088433 21272 net.cpp:156] Memory required for data: 1300555296
I0403 16:37:18.088449 21272 layer_factory.hpp:77] Creating layer inception_5a/pool
I0403 16:37:18.088470 21272 net.cpp:91] Creating Layer inception_5a/pool
I0403 16:37:18.088490 21272 net.cpp:425] inception_5a/pool <- pool4/3x3_s2_pool4/3x3_s2_0_split_3
I0403 16:37:18.088510 21272 net.cpp:399] inception_5a/pool -> inception_5a/pool
I0403 16:37:18.088587 21272 net.cpp:141] Setting up inception_5a/pool
I0403 16:37:18.088613 21272 net.cpp:148] Top shape: 24 832 7 7 (978432)
I0403 16:37:18.088629 21272 net.cpp:156] Memory required for data: 1304469024
I0403 16:37:18.088645 21272 layer_factory.hpp:77] Creating layer inception_5a/pool_proj
I0403 16:37:18.088668 21272 net.cpp:91] Creating Layer inception_5a/pool_proj
I0403 16:37:18.088688 21272 net.cpp:425] inception_5a/pool_proj <- inception_5a/pool
I0403 16:37:18.088711 21272 net.cpp:399] inception_5a/pool_proj -> inception_5a/pool_proj
I0403 16:37:18.091135 21272 net.cpp:141] Setting up inception_5a/pool_proj
I0403 16:37:18.091168 21272 net.cpp:148] Top shape: 24 128 7 7 (150528)
I0403 16:37:18.091187 21272 net.cpp:156] Memory required for data: 1305071136
I0403 16:37:18.091207 21272 layer_factory.hpp:77] Creating layer inception_5a/relu_pool_proj
I0403 16:37:18.091228 21272 net.cpp:91] Creating Layer inception_5a/relu_pool_proj
I0403 16:37:18.091244 21272 net.cpp:425] inception_5a/relu_pool_proj <- inception_5a/pool_proj
I0403 16:37:18.091266 21272 net.cpp:386] inception_5a/relu_pool_proj -> inception_5a/pool_proj (in-place)
I0403 16:37:18.091578 21272 net.cpp:141] Setting up inception_5a/relu_pool_proj
I0403 16:37:18.091608 21272 net.cpp:148] Top shape: 24 128 7 7 (150528)
I0403 16:37:18.091624 21272 net.cpp:156] Memory required for data: 1305673248
I0403 16:37:18.091640 21272 layer_factory.hpp:77] Creating layer inception_5a/output
I0403 16:37:18.091660 21272 net.cpp:91] Creating Layer inception_5a/output
I0403 16:37:18.091676 21272 net.cpp:425] inception_5a/output <- inception_5a/1x1
I0403 16:37:18.091694 21272 net.cpp:425] inception_5a/output <- inception_5a/3x3
I0403 16:37:18.091712 21272 net.cpp:425] inception_5a/output <- inception_5a/5x5
I0403 16:37:18.091729 21272 net.cpp:425] inception_5a/output <- inception_5a/pool_proj
I0403 16:37:18.091750 21272 net.cpp:399] inception_5a/output -> inception_5a/output
I0403 16:37:18.091804 21272 net.cpp:141] Setting up inception_5a/output
I0403 16:37:18.091832 21272 net.cpp:148] Top shape: 24 832 7 7 (978432)
I0403 16:37:18.091850 21272 net.cpp:156] Memory required for data: 1309586976
I0403 16:37:18.091866 21272 layer_factory.hpp:77] Creating layer inception_5a/output_inception_5a/output_0_split
I0403 16:37:18.091884 21272 net.cpp:91] Creating Layer inception_5a/output_inception_5a/output_0_split
I0403 16:37:18.091902 21272 net.cpp:425] inception_5a/output_inception_5a/output_0_split <- inception_5a/output
I0403 16:37:18.091919 21272 net.cpp:399] inception_5a/output_inception_5a/output_0_split -> inception_5a/output_inception_5a/output_0_split_0
I0403 16:37:18.091941 21272 net.cpp:399] inception_5a/output_inception_5a/output_0_split -> inception_5a/output_inception_5a/output_0_split_1
I0403 16:37:18.091966 21272 net.cpp:399] inception_5a/output_inception_5a/output_0_split -> inception_5a/output_inception_5a/output_0_split_2
I0403 16:37:18.091995 21272 net.cpp:399] inception_5a/output_inception_5a/output_0_split -> inception_5a/output_inception_5a/output_0_split_3
I0403 16:37:18.092115 21272 net.cpp:141] Setting up inception_5a/output_inception_5a/output_0_split
I0403 16:37:18.092141 21272 net.cpp:148] Top shape: 24 832 7 7 (978432)
I0403 16:37:18.092159 21272 net.cpp:148] Top shape: 24 832 7 7 (978432)
I0403 16:37:18.092176 21272 net.cpp:148] Top shape: 24 832 7 7 (978432)
I0403 16:37:18.092193 21272 net.cpp:148] Top shape: 24 832 7 7 (978432)
I0403 16:37:18.092208 21272 net.cpp:156] Memory required for data: 1325241888
I0403 16:37:18.092224 21272 layer_factory.hpp:77] Creating layer inception_5b/1x1
I0403 16:37:18.092248 21272 net.cpp:91] Creating Layer inception_5b/1x1
I0403 16:37:18.092268 21272 net.cpp:425] inception_5b/1x1 <- inception_5a/output_inception_5a/output_0_split_0
I0403 16:37:18.092291 21272 net.cpp:399] inception_5b/1x1 -> inception_5b/1x1
I0403 16:37:18.096307 21272 net.cpp:141] Setting up inception_5b/1x1
I0403 16:37:18.096341 21272 net.cpp:148] Top shape: 24 384 7 7 (451584)
I0403 16:37:18.096360 21272 net.cpp:156] Memory required for data: 1327048224
I0403 16:37:18.096381 21272 layer_factory.hpp:77] Creating layer inception_5b/relu_1x1
I0403 16:37:18.096401 21272 net.cpp:91] Creating Layer inception_5b/relu_1x1
I0403 16:37:18.096420 21272 net.cpp:425] inception_5b/relu_1x1 <- inception_5b/1x1
I0403 16:37:18.096441 21272 net.cpp:386] inception_5b/relu_1x1 -> inception_5b/1x1 (in-place)
I0403 16:37:18.096770 21272 net.cpp:141] Setting up inception_5b/relu_1x1
I0403 16:37:18.096801 21272 net.cpp:148] Top shape: 24 384 7 7 (451584)
I0403 16:37:18.096819 21272 net.cpp:156] Memory required for data: 1328854560
I0403 16:37:18.096837 21272 layer_factory.hpp:77] Creating layer inception_5b/3x3_reduce
I0403 16:37:18.096860 21272 net.cpp:91] Creating Layer inception_5b/3x3_reduce
I0403 16:37:18.096879 21272 net.cpp:425] inception_5b/3x3_reduce <- inception_5a/output_inception_5a/output_0_split_1
I0403 16:37:18.096900 21272 net.cpp:399] inception_5b/3x3_reduce -> inception_5b/3x3_reduce
I0403 16:37:18.099735 21272 net.cpp:141] Setting up inception_5b/3x3_reduce
I0403 16:37:18.099767 21272 net.cpp:148] Top shape: 24 192 7 7 (225792)
I0403 16:37:18.099786 21272 net.cpp:156] Memory required for data: 1329757728
I0403 16:37:18.099807 21272 layer_factory.hpp:77] Creating layer inception_5b/relu_3x3_reduce
I0403 16:37:18.099828 21272 net.cpp:91] Creating Layer inception_5b/relu_3x3_reduce
I0403 16:37:18.099846 21272 net.cpp:425] inception_5b/relu_3x3_reduce <- inception_5b/3x3_reduce
I0403 16:37:18.099869 21272 net.cpp:386] inception_5b/relu_3x3_reduce -> inception_5b/3x3_reduce (in-place)
I0403 16:37:18.100080 21272 net.cpp:141] Setting up inception_5b/relu_3x3_reduce
I0403 16:37:18.100109 21272 net.cpp:148] Top shape: 24 192 7 7 (225792)
I0403 16:37:18.100126 21272 net.cpp:156] Memory required for data: 1330660896
I0403 16:37:18.100143 21272 layer_factory.hpp:77] Creating layer inception_5b/3x3
I0403 16:37:18.100168 21272 net.cpp:91] Creating Layer inception_5b/3x3
I0403 16:37:18.100188 21272 net.cpp:425] inception_5b/3x3 <- inception_5b/3x3_reduce
I0403 16:37:18.100211 21272 net.cpp:399] inception_5b/3x3 -> inception_5b/3x3
I0403 16:37:18.107339 21272 net.cpp:141] Setting up inception_5b/3x3
I0403 16:37:18.107381 21272 net.cpp:148] Top shape: 24 384 7 7 (451584)
I0403 16:37:18.107399 21272 net.cpp:156] Memory required for data: 1332467232
I0403 16:37:18.107421 21272 layer_factory.hpp:77] Creating layer inception_5b/relu_3x3
I0403 16:37:18.107441 21272 net.cpp:91] Creating Layer inception_5b/relu_3x3
I0403 16:37:18.107460 21272 net.cpp:425] inception_5b/relu_3x3 <- inception_5b/3x3
I0403 16:37:18.107482 21272 net.cpp:386] inception_5b/relu_3x3 -> inception_5b/3x3 (in-place)
I0403 16:37:18.107797 21272 net.cpp:141] Setting up inception_5b/relu_3x3
I0403 16:37:18.107825 21272 net.cpp:148] Top shape: 24 384 7 7 (451584)
I0403 16:37:18.107842 21272 net.cpp:156] Memory required for data: 1334273568
I0403 16:37:18.107858 21272 layer_factory.hpp:77] Creating layer inception_5b/5x5_reduce
I0403 16:37:18.107900 21272 net.cpp:91] Creating Layer inception_5b/5x5_reduce
I0403 16:37:18.107921 21272 net.cpp:425] inception_5b/5x5_reduce <- inception_5a/output_inception_5a/output_0_split_2
I0403 16:37:18.107945 21272 net.cpp:399] inception_5b/5x5_reduce -> inception_5b/5x5_reduce
I0403 16:37:18.109316 21272 net.cpp:141] Setting up inception_5b/5x5_reduce
I0403 16:37:18.109347 21272 net.cpp:148] Top shape: 24 48 7 7 (56448)
I0403 16:37:18.109366 21272 net.cpp:156] Memory required for data: 1334499360
I0403 16:37:18.109388 21272 layer_factory.hpp:77] Creating layer inception_5b/relu_5x5_reduce
I0403 16:37:18.109408 21272 net.cpp:91] Creating Layer inception_5b/relu_5x5_reduce
I0403 16:37:18.109427 21272 net.cpp:425] inception_5b/relu_5x5_reduce <- inception_5b/5x5_reduce
I0403 16:37:18.109449 21272 net.cpp:386] inception_5b/relu_5x5_reduce -> inception_5b/5x5_reduce (in-place)
I0403 16:37:18.109846 21272 net.cpp:141] Setting up inception_5b/relu_5x5_reduce
I0403 16:37:18.109876 21272 net.cpp:148] Top shape: 24 48 7 7 (56448)
I0403 16:37:18.109894 21272 net.cpp:156] Memory required for data: 1334725152
I0403 16:37:18.109911 21272 layer_factory.hpp:77] Creating layer inception_5b/5x5
I0403 16:37:18.109933 21272 net.cpp:91] Creating Layer inception_5b/5x5
I0403 16:37:18.109953 21272 net.cpp:425] inception_5b/5x5 <- inception_5b/5x5_reduce
I0403 16:37:18.109975 21272 net.cpp:399] inception_5b/5x5 -> inception_5b/5x5
I0403 16:37:18.112192 21272 net.cpp:141] Setting up inception_5b/5x5
I0403 16:37:18.112223 21272 net.cpp:148] Top shape: 24 128 7 7 (150528)
I0403 16:37:18.112241 21272 net.cpp:156] Memory required for data: 1335327264
I0403 16:37:18.112262 21272 layer_factory.hpp:77] Creating layer inception_5b/relu_5x5
I0403 16:37:18.112284 21272 net.cpp:91] Creating Layer inception_5b/relu_5x5
I0403 16:37:18.112303 21272 net.cpp:425] inception_5b/relu_5x5 <- inception_5b/5x5
I0403 16:37:18.112323 21272 net.cpp:386] inception_5b/relu_5x5 -> inception_5b/5x5 (in-place)
I0403 16:37:18.112529 21272 net.cpp:141] Setting up inception_5b/relu_5x5
I0403 16:37:18.112558 21272 net.cpp:148] Top shape: 24 128 7 7 (150528)
I0403 16:37:18.112577 21272 net.cpp:156] Memory required for data: 1335929376
I0403 16:37:18.112594 21272 layer_factory.hpp:77] Creating layer inception_5b/pool
I0403 16:37:18.112614 21272 net.cpp:91] Creating Layer inception_5b/pool
I0403 16:37:18.112632 21272 net.cpp:425] inception_5b/pool <- inception_5a/output_inception_5a/output_0_split_3
I0403 16:37:18.112653 21272 net.cpp:399] inception_5b/pool -> inception_5b/pool
I0403 16:37:18.112733 21272 net.cpp:141] Setting up inception_5b/pool
I0403 16:37:18.112761 21272 net.cpp:148] Top shape: 24 832 7 7 (978432)
I0403 16:37:18.112776 21272 net.cpp:156] Memory required for data: 1339843104
I0403 16:37:18.112792 21272 layer_factory.hpp:77] Creating layer inception_5b/pool_proj
I0403 16:37:18.112818 21272 net.cpp:91] Creating Layer inception_5b/pool_proj
I0403 16:37:18.112840 21272 net.cpp:425] inception_5b/pool_proj <- inception_5b/pool
I0403 16:37:18.112864 21272 net.cpp:399] inception_5b/pool_proj -> inception_5b/pool_proj
I0403 16:37:18.115340 21272 net.cpp:141] Setting up inception_5b/pool_proj
I0403 16:37:18.115371 21272 net.cpp:148] Top shape: 24 128 7 7 (150528)
I0403 16:37:18.115389 21272 net.cpp:156] Memory required for data: 1340445216
I0403 16:37:18.115411 21272 layer_factory.hpp:77] Creating layer inception_5b/relu_pool_proj
I0403 16:37:18.115430 21272 net.cpp:91] Creating Layer inception_5b/relu_pool_proj
I0403 16:37:18.115453 21272 net.cpp:425] inception_5b/relu_pool_proj <- inception_5b/pool_proj
I0403 16:37:18.115473 21272 net.cpp:386] inception_5b/relu_pool_proj -> inception_5b/pool_proj (in-place)
I0403 16:37:18.115787 21272 net.cpp:141] Setting up inception_5b/relu_pool_proj
I0403 16:37:18.115816 21272 net.cpp:148] Top shape: 24 128 7 7 (150528)
I0403 16:37:18.115834 21272 net.cpp:156] Memory required for data: 1341047328
I0403 16:37:18.115850 21272 layer_factory.hpp:77] Creating layer inception_5b/output
I0403 16:37:18.115869 21272 net.cpp:91] Creating Layer inception_5b/output
I0403 16:37:18.115901 21272 net.cpp:425] inception_5b/output <- inception_5b/1x1
I0403 16:37:18.115921 21272 net.cpp:425] inception_5b/output <- inception_5b/3x3
I0403 16:37:18.115938 21272 net.cpp:425] inception_5b/output <- inception_5b/5x5
I0403 16:37:18.115957 21272 net.cpp:425] inception_5b/output <- inception_5b/pool_proj
I0403 16:37:18.115978 21272 net.cpp:399] inception_5b/output -> inception_5b/output
I0403 16:37:18.116041 21272 net.cpp:141] Setting up inception_5b/output
I0403 16:37:18.116070 21272 net.cpp:148] Top shape: 24 1024 7 7 (1204224)
I0403 16:37:18.116086 21272 net.cpp:156] Memory required for data: 1345864224
I0403 16:37:18.116102 21272 layer_factory.hpp:77] Creating layer pool5/7x7_s1
I0403 16:37:18.116122 21272 net.cpp:91] Creating Layer pool5/7x7_s1
I0403 16:37:18.116139 21272 net.cpp:425] pool5/7x7_s1 <- inception_5b/output
I0403 16:37:18.116164 21272 net.cpp:399] pool5/7x7_s1 -> pool5/7x7_s1
I0403 16:37:18.116392 21272 net.cpp:141] Setting up pool5/7x7_s1
I0403 16:37:18.116420 21272 net.cpp:148] Top shape: 24 1024 1 1 (24576)
I0403 16:37:18.116436 21272 net.cpp:156] Memory required for data: 1345962528
I0403 16:37:18.116452 21272 layer_factory.hpp:77] Creating layer pool5/drop_7x7_s1
I0403 16:37:18.116472 21272 net.cpp:91] Creating Layer pool5/drop_7x7_s1
I0403 16:37:18.116492 21272 net.cpp:425] pool5/drop_7x7_s1 <- pool5/7x7_s1
I0403 16:37:18.116511 21272 net.cpp:386] pool5/drop_7x7_s1 -> pool5/7x7_s1 (in-place)
I0403 16:37:18.116564 21272 net.cpp:141] Setting up pool5/drop_7x7_s1
I0403 16:37:18.116592 21272 net.cpp:148] Top shape: 24 1024 1 1 (24576)
I0403 16:37:18.116610 21272 net.cpp:156] Memory required for data: 1346060832
I0403 16:37:18.116626 21272 layer_factory.hpp:77] Creating layer loss3/classifier_plantvillage
I0403 16:37:18.116647 21272 net.cpp:91] Creating Layer loss3/classifier_plantvillage
I0403 16:37:18.116664 21272 net.cpp:425] loss3/classifier_plantvillage <- pool5/7x7_s1
I0403 16:37:18.116688 21272 net.cpp:399] loss3/classifier_plantvillage -> loss3/classifier_plantvillage
I0403 16:37:18.117169 21272 net.cpp:141] Setting up loss3/classifier_plantvillage
I0403 16:37:18.117199 21272 net.cpp:148] Top shape: 24 38 (912)
I0403 16:37:18.117215 21272 net.cpp:156] Memory required for data: 1346064480
I0403 16:37:18.117235 21272 layer_factory.hpp:77] Creating layer loss3/classifier_plantvillage_loss3/classifier_plantvillage_0_split
I0403 16:37:18.117254 21272 net.cpp:91] Creating Layer loss3/classifier_plantvillage_loss3/classifier_plantvillage_0_split
I0403 16:37:18.117272 21272 net.cpp:425] loss3/classifier_plantvillage_loss3/classifier_plantvillage_0_split <- loss3/classifier_plantvillage
I0403 16:37:18.117291 21272 net.cpp:399] loss3/classifier_plantvillage_loss3/classifier_plantvillage_0_split -> loss3/classifier_plantvillage_loss3/classifier_plantvillage_0_split_0
I0403 16:37:18.117312 21272 net.cpp:399] loss3/classifier_plantvillage_loss3/classifier_plantvillage_0_split -> loss3/classifier_plantvillage_loss3/classifier_plantvillage_0_split_1
I0403 16:37:18.117337 21272 net.cpp:399] loss3/classifier_plantvillage_loss3/classifier_plantvillage_0_split -> loss3/classifier_plantvillage_loss3/classifier_plantvillage_0_split_2
I0403 16:37:18.117370 21272 net.cpp:399] loss3/classifier_plantvillage_loss3/classifier_plantvillage_0_split -> loss3/classifier_plantvillage_loss3/classifier_plantvillage_0_split_3
I0403 16:37:18.117481 21272 net.cpp:141] Setting up loss3/classifier_plantvillage_loss3/classifier_plantvillage_0_split
I0403 16:37:18.117507 21272 net.cpp:148] Top shape: 24 38 (912)
I0403 16:37:18.117524 21272 net.cpp:148] Top shape: 24 38 (912)
I0403 16:37:18.117542 21272 net.cpp:148] Top shape: 24 38 (912)
I0403 16:37:18.117558 21272 net.cpp:148] Top shape: 24 38 (912)
I0403 16:37:18.117573 21272 net.cpp:156] Memory required for data: 1346079072
I0403 16:37:18.117588 21272 layer_factory.hpp:77] Creating layer loss1/loss
I0403 16:37:18.117614 21272 net.cpp:91] Creating Layer loss1/loss
I0403 16:37:18.117633 21272 net.cpp:425] loss1/loss <- loss1/classifier_plantvillage_loss1/classifier_plantvillage_0_split_0
I0403 16:37:18.117666 21272 net.cpp:425] loss1/loss <- label_data_1_split_0
…
