…
I0403 16:02:14.429069 20657 net.cpp:313] The NetState phase (1) differed from the phase (0) specified by a rule in layer data
I0403 16:02:14.430233 20657 net.cpp:49] Initializing net from parameters: 
state {
  phase: TEST
}
layer {
  name: "data"
  type: "Data"
  top: "data"
  top: "label"
  include {
    phase: TEST
  }
  transform_param {
    mirror: false
    crop_size: 224
    mean_file: "/home/mohanty/data/final_dataset/lmdb/color-40-60/mean.binaryproto"
  }
  data_param {
    source: "/home/mohanty/data/final_dataset/lmdb/color-40-60/test_db"
    batch_size: 24
    backend: LMDB
  }
}
layer {
  name: "conv1/7x7_s2"
  type: "Convolution"
  bottom: "data"
  top: "conv1/7x7_s2"
  param {
    lr_mult: 1
    decay_mult: 1
  }
  param {
    lr_mult: 2
    decay_mult: 0
  }
  convolution_param {
    num_output: 64
    pad: 3
    kernel_size: 7
    stride: 2
    weight_filler {
      type: "xavier"
      std: 0.1
    }
    bias_filler {
      type: "constant"
      value: 0.2
    }
  }
}
layer {
  name: "conv1/relu_7x7"
  type: "ReLU"
  bottom: "conv1/7x7_s2"
  top: "conv1/7x7_s2"
}
layer {
  name: "pool1/3x3_s2"
  type: "Pooling"
  bottom: "conv1/7x7_s2"
  top: "pool1/3x3_s2"
  pooling_param {
    pool: MAX
    kernel_size: 3
    stride: 2
  }
}
layer {
  name: "pool1/norm1"
  type: "LRN"
  bottom: "pool1/3x3_s2"
  top: "pool1/norm1"
  lrn_param {
    local_size: 5
    alpha: 0.0001
    beta: 0.75
  }
}
layer {
  name: "conv2/3x3_reduce"
  type: "Convolution"
  bottom: "pool1/norm1"
  top: "conv2/3x3_reduce"
  param {
    lr_mult: 1
    decay_mult: 1
  }
  param {
    lr_mult: 2
    decay_mult: 0
  }
  convolution_param {
    num_output: 64
    kernel_size: 1
    weight_filler {
      type: "xavier"
      std: 0.1
    }
    bias_filler {
      type: "constant"
      value: 0.2
    }
  }
}
layer {
  name: "conv2/relu_3x3_reduce"
  type: "ReLU"
  bottom: "conv2/3x3_reduce"
  top: "conv2/3x3_reduce"
}
layer {
  name: "conv2/3x3"
  type: "Convolution"
  bottom: "conv2/3x3_reduce"
  top: "conv2/3x3"
  param {
    lr_mult: 1
    decay_mult: 1
  }
  param {
    lr_mult: 2
    decay_mult: 0
  }
  convolution_param {
    num_output: 192
    pad: 1
    kernel_size: 3
    weight_filler {
      type: "xavier"
      std: 0.03
    }
    bias_filler {
      type: "constant"
      value: 0.2
    }
  }
}
layer {
  name: "conv2/relu_3x3"
  type: "ReLU"
  bottom: "conv2/3x3"
  top: "conv2/3x3"
}
layer {
  name: "conv2/norm2"
  type: "LRN"
  bottom: "conv2/3x3"
  top: "conv2/norm2"
  lrn_param {
    local_size: 5
    alpha: 0.0001
    beta: 0.75
  }
}
layer {
  name: "pool2/3x3_s2"
  type: "Pooling"
  bottom: "conv2/norm2"
  top: "pool2/3x3_s2"
  pooling_param {
    pool: MAX
    kernel_size: 3
    stride: 2
  }
}
layer {
  name: "inception_3a/1x1"
  type: "Convolution"
  bottom: "pool2/3x3_s2"
  top: "inception_3a/1x1"
  param {
    lr_mult: 1
    decay_mult: 1
  }
  param {
    lr_mult: 2
    decay_mult: 0
  }
  convolution_param {
    num_output: 64
    kernel_size: 1
    weight_filler {
      type: "xavier"
      std: 0.03
    }
    bias_filler {
      type: "constant"
      value: 0.2
    }
  }
}
layer {
  name: "inception_3a/relu_1x1"
  type: "ReLU"
  bottom: "inception_3a/1x1"
  top: "inception_3a/1x1"
}
layer {
  name: "inception_3a/3x3_reduce"
  type: "Convolution"
  bottom: "pool2/3x3_s2"
  top: "inception_3a/3x3_reduce"
  param {
    lr_mult: 1
    decay_mult: 1
  }
  param {
    lr_mult: 2
    decay_mult: 0
  }
  convolution_param {
    num_output: 96
    kernel_size: 1
    weight_filler {
      type: "xavier"
      std: 0.09
    }
    bias_filler {
      type: "constant"
      value: 0.2
    }
  }
}
layer {
  name: "inception_3a/relu_3x3_reduce"
  type: "ReLU"
  bottom: "inception_3a/3x3_reduce"
  top: "inception_3a/3x3_reduce"
}
layer {
  name: "inception_3a/3x3"
  type: "Convolution"
  bottom: "inception_3a/3x3_reduce"
  top: "inception_3a/3x3"
  param {
    lr_mult: 1
    decay_mult: 1
  }
  param {
    lr_mult: 2
    decay_mult: 0
  }
  convolution_param {
    num_output: 128
    pad: 1
    kernel_size: 3
    weight_filler {
      type: "xavier"
      std: 0.03
    }
    bias_filler {
      type: "constant"
      value: 0.2
    }
  }
}
layer {
  name: "inception_3a/relu_3x3"
  type: "ReLU"
  bottom: "inception_3a/3x3"
  top: "inception_3a/3x3"
}
layer {
  name: "inception_3a/5x5_reduce"
  type: "Convolution"
  bottom: "pool2/3x3_s2"
  top: "inception_3a/5x5_reduce"
  param {
    lr_mult: 1
    decay_mult: 1
  }
  param {
    lr_mult: 2
    decay_mult: 0
  }
  convolution_param {
    num_output: 16
    kernel_size: 1
    weight_filler {
      type: "xavier"
      std: 0.2
    }
    bias_filler {
      type: "constant"
      value: 0.2
    }
  }
}
layer {
  name: "inception_3a/relu_5x5_reduce"
  type: "ReLU"
  bottom: "inception_3a/5x5_reduce"
  top: "inception_3a/5x5_reduce"
}
layer {
  name: "inception_3a/5x5"
  type: "Convolution"
  bottom: "inception_3a/5x5_reduce"
  top: "inception_3a/5x5"
  param {
    lr_mult: 1
    decay_mult: 1
  }
  param {
    lr_mult: 2
    decay_mult: 0
  }
  convolution_param {
    num_output: 32
    pad: 2
    kernel_size: 5
    weight_filler {
      type: "xavier"
      std: 0.03
    }
    bias_filler {
      type: "constant"
      value: 0.2
    }
  }
}
layer {
  name: "inception_3a/relu_5x5"
  type: "ReLU"
  bottom: "inception_3a/5x5"
  top: "inception_3a/5x5"
}
layer {
  name: "inception_3a/pool"
  type: "Pooling"
  bottom: "pool2/3x3_s2"
  top: "inception_3a/pool"
  pooling_param {
    pool: MAX
    kernel_size: 3
    stride: 1
    pad: 1
  }
}
layer {
  name: "inception_3a/pool_proj"
  type: "Convolution"
  bottom: "inception_3a/pool"
  top: "inception_3a/pool_proj"
  param {
    lr_mult: 1
    decay_mult: 1
  }
  param {
    lr_mult: 2
    decay_mult: 0
  }
  convolution_param {
    num_output: 32
    kernel_size: 1
    weight_filler {
      type: "xavier"
      std: 0.1
    }
    bias_filler {
      type: "constant"
      value: 0.2
    }
  }
}
layer {
  name: "inception_3a/relu_pool_proj"
  type: "ReLU"
  bottom: "inception_3a/pool_proj"
  top: "inception_3a/pool_proj"
}
layer {
  name: "inception_3a/output"
  type: "Concat"
  bottom: "inception_3a/1x1"
  bottom: "inception_3a/3x3"
  bottom: "inception_3a/5x5"
  bottom: "inception_3a/pool_proj"
  top: "inception_3a/output"
}
layer {
  name: "inception_3b/1x1"
  type: "Convolution"
  bottom: "inception_3a/output"
  top: "inception_3b/1x1"
  param {
    lr_mult: 1
    decay_mult: 1
  }
  param {
    lr_mult: 2
    decay_mult: 0
  }
  convolution_param {
    num_output: 128
    kernel_size: 1
    weight_filler {
      type: "xavier"
      std: 0.03
    }
    bias_filler {
      type: "constant"
      value: 0.2
    }
  }
}
layer {
  name: "inception_3b/relu_1x1"
  type: "ReLU"
  bottom: "inception_3b/1x1"
  top: "inception_3b/1x1"
}
layer {
  name: "inception_3b/3x3_reduce"
  type: "Convolution"
  bottom: "inception_3a/output"
  top: "inception_3b/3x3_reduce"
  param {
    lr_mult: 1
    decay_mult: 1
  }
  param {
    lr_mult: 2
    decay_mult: 0
  }
  convolution_param {
    num_output: 128
    kernel_size: 1
    weight_filler {
      type: "xavier"
      std: 0.09
    }
    bias_filler {
      type: "constant"
      value: 0.2
    }
  }
}
layer {
  name: "inception_3b/relu_3x3_reduce"
  type: "ReLU"
  bottom: "inception_3b/3x3_reduce"
  top: "inception_3b/3x3_reduce"
}
layer {
  name: "inception_3b/3x3"
  type: "Convolution"
  bottom: "inception_3b/3x3_reduce"
  top: "inception_3b/3x3"
  param {
    lr_mult: 1
    decay_mult: 1
  }
  param {
    lr_mult: 2
    decay_mult: 0
  }
  convolution_param {
    num_output: 192
    pad: 1
    kernel_size: 3
    weight_filler {
      type: "xavier"
      std: 0.03
    }
    bias_filler {
      type: "constant"
      value: 0.2
    }
  }
}
layer {
  name: "inception_3b/relu_3x3"
  type: "ReLU"
  bottom: "inception_3b/3x3"
  top: "inception_3b/3x3"
}
layer {
  name: "inception_3b/5x5_reduce"
  type: "Convolution"
  bottom: "inception_3a/output"
  top: "inception_3b/5x5_reduce"
  param {
    lr_mult: 1
    decay_mult: 1
  }
  param {
    lr_mult: 2
    decay_mult: 0
  }
  convolution_param {
    num_output: 32
    kernel_size: 1
    weight_filler {
      type: "xavier"
      std: 0.2
    }
    bias_filler {
      type: "constant"
      value: 0.2
    }
  }
}
layer {
  name: "inception_3b/relu_5x5_reduce"
  type: "ReLU"
  bottom: "inception_3b/5x5_reduce"
  top: "inception_3b/5x5_reduce"
}
layer {
  name: "inception_3b/5x5"
  type: "Convolution"
  bottom: "inception_3b/5x5_reduce"
  top: "inception_3b/5x5"
  param {
    lr_mult: 1
    decay_mult: 1
  }
  param {
    lr_mult: 2
    decay_mult: 0
  }
  convolution_param {
    num_output: 96
    pad: 2
    kernel_size: 5
    weight_filler {
      type: "xavier"
      std: 0.03
    }
    bias_filler {
      type: "constant"
      value: 0.2
    }
  }
}
layer {
  name: "inception_3b/relu_5x5"
  type: "ReLU"
  bottom: "inception_3b/5x5"
  top: "inception_3b/5x5"
}
layer {
  name: "inception_3b/pool"
  type: "Pooling"
  bottom: "inception_3a/output"
  top: "inception_3b/pool"
  pooling_param {
    pool: MAX
    kernel_size: 3
    stride: 1
    pad: 1
  }
}
layer {
  name: "inception_3b/pool_proj"
  type: "Convolution"
  bottom: "inception_3b/pool"
  top: "inception_3b/pool_proj"
  param {
    lr_mult: 1
    decay_mult: 1
  }
  param {
    lr_mult: 2
    decay_mult: 0
  }
  convolution_param {
    num_output: 64
    kernel_size: 1
    weight_filler {
      type: "xavier"
      std: 0.1
    }
    bias_filler {
      type: "constant"
      value: 0.2
    }
  }
}
layer {
  name: "inception_3b/relu_pool_proj"
  type: "ReLU"
  bottom: "inception_3b/pool_proj"
  top: "inception_3b/pool_proj"
}
layer {
  name: "inception_3b/output"
  type: "Concat"
  bottom: "inception_3b/1x1"
  bottom: "inception_3b/3x3"
  bottom: "inception_3b/5x5"
  bottom: "inception_3b/pool_proj"
  top: "inception_3b/output"
}
layer {
  name: "pool3/3x3_s2"
  type: "Pooling"
  bottom: "inception_3b/output"
  top: "pool3/3x3_s2"
  pooling_param {
    pool: MAX
    kernel_size: 3
    stride: 2
  }
}
layer {
  name: "inception_4a/1x1"
  type: "Convolution"
  bottom: "pool3/3x3_s2"
  top: "inception_4a/1x1"
  param {
    lr_mult: 1
    decay_mult: 1
  }
  param {
    lr_mult: 2
    decay_mult: 0
  }
  convolution_param {
    num_output: 192
    kernel_size: 1
    weight_filler {
      type: "xavier"
      std: 0.03
    }
    bias_filler {
      type: "constant"
      value: 0.2
    }
  }
}
layer {
  name: "inception_4a/relu_1x1"
  type: "ReLU"
  bottom: "inception_4a/1x1"
  top: "inception_4a/1x1"
}
layer {
  name: "inception_4a/3x3_reduce"
  type: "Convolution"
  bottom: "pool3/3x3_s2"
  top: "inception_4a/3x3_reduce"
  param {
    lr_mult: 1
    decay_mult: 1
  }
  param {
    lr_mult: 2
    decay_mult: 0
  }
  convolution_param {
    num_output: 96
    kernel_size: 1
    weight_filler {
      type: "xavier"
      std: 0.09
    }
    bias_filler {
      type: "constant"
      value: 0.2
    }
  }
}
layer {
  name: "inception_4a/relu_3x3_reduce"
  type: "ReLU"
  bottom: "inception_4a/3x3_reduce"
  top: "inception_4a/3x3_reduce"
}
layer {
  name: "inception_4a/3x3"
  type: "Convolution"
  bottom: "inception_4a/3x3_reduce"
  top: "inception_4a/3x3"
  param {
    lr_mult: 1
    decay_mult: 1
  }
  param {
    lr_mult: 2
    decay_mult: 0
  }
  convolution_param {
    num_output: 208
    pad: 1
    kernel_size: 3
    weight_filler {
      type: "xavier"
      std: 0.03
    }
    bias_filler {
      type: "constant"
      value: 0.2
    }
  }
}
layer {
  name: "inception_4a/relu_3x3"
  type: "ReLU"
  bottom: "inception_4a/3x3"
  top: "inception_4a/3x3"
}
layer {
  name: "inception_4a/5x5_reduce"
  type: "Convolution"
  bottom: "pool3/3x3_s2"
  top: "inception_4a/5x5_reduce"
  param {
    lr_mult: 1
    decay_mult: 1
  }
  param {
    lr_mult: 2
    decay_mult: 0
  }
  convolution_param {
    num_output: 16
    kernel_size: 1
    weight_filler {
      type: "xavier"
      std: 0.2
    }
    bias_filler {
      type: "constant"
      value: 0.2
    }
  }
}
layer {
  name: "inception_4a/relu_5x5_reduce"
  type: "ReLU"
  bottom: "inception_4a/5x5_reduce"
  top: "inception_4a/5x5_reduce"
}
layer {
  name: "inception_4a/5x5"
  type: "Convolution"
  bottom: "inception_4a/5x5_reduce"
  top: "inception_4a/5x5"
  param {
    lr_mult: 1
    decay_mult: 1
  }
  param {
    lr_mult: 2
    decay_mult: 0
  }
  convolution_param {
    num_output: 48
    pad: 2
    kernel_size: 5
    weight_filler {
      type: "xavier"
      std: 0.03
    }
    bias_filler {
      type: "constant"
      value: 0.2
    }
  }
}
layer {
  name: "inception_4a/relu_5x5"
  type: "ReLU"
  bottom: "inception_4a/5x5"
  top: "inception_4a/5x5"
}
layer {
  name: "inception_4a/pool"
  type: "Pooling"
  bottom: "pool3/3x3_s2"
  top: "inception_4a/pool"
  pooling_param {
    pool: MAX
    kernel_size: 3
    stride: 1
    pad: 1
  }
}
layer {
  name: "inception_4a/pool_proj"
  type: "Convolution"
  bottom: "inception_4a/pool"
  top: "inception_4a/pool_proj"
  param {
    lr_mult: 1
    decay_mult: 1
  }
  param {
    lr_mult: 2
    decay_mult: 0
  }
  convolution_param {
    num_output: 64
    kernel_size: 1
    weight_filler {
      type: "xavier"
      std: 0.1
    }
    bias_filler {
      type: "constant"
      value: 0.2
    }
  }
}
layer {
  name: "inception_4a/relu_pool_proj"
  type: "ReLU"
  bottom: "inception_4a/pool_proj"
  top: "inception_4a/pool_proj"
}
layer {
  name: "inception_4a/output"
  type: "Concat"
  bottom: "inception_4a/1x1"
  bottom: "inception_4a/3x3"
  bottom: "inception_4a/5x5"
  bottom: "inception_4a/pool_proj"
  top: "inception_4a/output"
}
layer {
  name: "loss1/ave_pool"
  type: "Pooling"
  bottom: "inception_4a/output"
  top: "loss1/ave_pool"
  pooling_param {
    pool: AVE
    kernel_size: 5
    stride: 3
  }
}
layer {
  name: "loss1/conv"
  type: "Convolution"
  bottom: "loss1/ave_pool"
  top: "loss1/conv"
  param {
    lr_mult: 1
    decay_mult: 1
  }
  param {
    lr_mult: 2
    decay_mult: 0
  }
  convolution_param {
    num_output: 128
    kernel_size: 1
    weight_filler {
      type: "xavier"
      std: 0.08
    }
    bias_filler {
      type: "constant"
      value: 0.2
    }
  }
}
layer {
  name: "loss1/relu_conv"
  type: "ReLU"
  bottom: "loss1/conv"
  top: "loss1/conv"
}
layer {
  name: "loss1/fc"
  type: "InnerProduct"
  bottom: "loss1/conv"
  top: "loss1/fc"
  param {
    lr_mult: 1
    decay_mult: 1
  }
  param {
    lr_mult: 2
    decay_mult: 0
  }
  inner_product_param {
    num_output: 1024
    weight_filler {
      type: "xavier"
      std: 0.02
    }
    bias_filler {
      type: "constant"
      value: 0.2
    }
  }
}
layer {
  name: "loss1/relu_fc"
  type: "ReLU"
  bottom: "loss1/fc"
  top: "loss1/fc"
}
layer {
  name: "loss1/drop_fc"
  type: "Dropout"
  bottom: "loss1/fc"
  top: "loss1/fc"
  dropout_param {
    dropout_ratio: 0.7
  }
}
layer {
  name: "loss1/classifier_plantvillage"
  type: "InnerProduct"
  bottom: "loss1/fc"
  top: "loss1/classifier_plantvillage"
  param {
    lr_mult: 1
    decay_mult: 1
  }
  param {
    lr_mult: 2
    decay_mult: 0
  }
  inner_product_param {
    num_output: 38
    weight_filler {
      type: "xavier"
      std: 0.0009765625
    }
    bias_filler {
      type: "constant"
      value: 0
    }
  }
}
layer {
  name: "inception_4b/1x1"
  type: "Convolution"
  bottom: "inception_4a/output"
  top: "inception_4b/1x1"
  param {
    lr_mult: 1
    decay_mult: 1
  }
  param {
    lr_mult: 2
    decay_mult: 0
  }
  convolution_param {
    num_output: 160
    kernel_size: 1
    weight_filler {
      type: "xavier"
      std: 0.03
    }
    bias_filler {
      type: "constant"
      value: 0.2
    }
  }
}
layer {
  name: "inception_4b/relu_1x1"
  type: "ReLU"
  bottom: "inception_4b/1x1"
  top: "inception_4b/1x1"
}
layer {
  name: "inception_4b/3x3_reduce"
  type: "Convolution"
  bottom: "inception_4a/output"
  top: "inception_4b/3x3_reduce"
  param {
    lr_mult: 1
    decay_mult: 1
  }
  param {
    lr_mult: 2
    decay_mult: 0
  }
  convolution_param {
    num_output: 112
    kernel_size: 1
    weight_filler {
      type: "xavier"
      std: 0.09
    }
    bias_filler {
      type: "constant"
      value: 0.2
    }
  }
}
layer {
  name: "inception_4b/relu_3x3_reduce"
  type: "ReLU"
  bottom: "inception_4b/3x3_reduce"
  top: "inception_4b/3x3_reduce"
}
layer {
  name: "inception_4b/3x3"
  type: "Convolution"
  bottom: "inception_4b/3x3_reduce"
  top: "inception_4b/3x3"
  param {
    lr_mult: 1
    decay_mult: 1
  }
  param {
    lr_mult: 2
    decay_mult: 0
  }
  convolution_param {
    num_output: 224
    pad: 1
    kernel_size: 3
    weight_filler {
      type: "xavier"
      std: 0.03
    }
    bias_filler {
      type: "constant"
      value: 0.2
    }
  }
}
layer {
  name: "inception_4b/relu_3x3"
  type: "ReLU"
  bottom: "inception_4b/3x3"
  top: "inception_4b/3x3"
}
layer {
  name: "inception_4b/5x5_reduce"
  type: "Convolution"
  bottom: "inception_4a/output"
  top: "inception_4b/5x5_reduce"
  param {
    lr_mult: 1
    decay_mult: 1
  }
  param {
    lr_mult: 2
    decay_mult: 0
  }
  convolution_param {
    num_output: 24
    kernel_size: 1
    weight_filler {
      type: "xavier"
      std: 0.2
    }
    bias_filler {
      type: "constant"
      value: 0.2
    }
  }
}
layer {
  name: "inception_4b/relu_5x5_reduce"
  type: "ReLU"
  bottom: "inception_4b/5x5_reduce"
  top: "inception_4b/5x5_reduce"
}
layer {
  name: "inception_4b/5x5"
  type: "Convolution"
  bottom: "inception_4b/5x5_reduce"
  top: "inception_4b/5x5"
  param {
    lr_mult: 1
    decay_mult: 1
  }
  param {
    lr_mult: 2
    decay_mult: 0
  }
  convolution_param {
    num_output: 64
    pad: 2
    kernel_size: 5
    weight_filler {
      type: "xavier"
      std: 0.03
    }
    bias_filler {
      type: "constant"
      value: 0.2
    }
  }
}
layer {
  name: "inception_4b/relu_5x5"
  type: "ReLU"
  bottom: "inception_4b/5x5"
  top: "inception_4b/5x5"
}
layer {
  name: "inception_4b/pool"
  type: "Pooling"
  bottom: "inception_4a/output"
  top: "inception_4b/pool"
  pooling_param {
    pool: MAX
    kernel_size: 3
    stride: 1
    pad: 1
  }
}
layer {
  name: "inception_4b/pool_proj"
  type: "Convolution"
  bottom: "inception_4b/pool"
  top: "inception_4b/pool_proj"
  param {
    lr_mult: 1
    decay_mult: 1
  }
  param {
    lr_mult: 2
    decay_mult: 0
  }
  convolution_param {
    num_output: 64
    kernel_size: 1
    weight_filler {
      type: "xavier"
      std: 0.1
    }
    bias_filler {
      type: "constant"
      value: 0.2
    }
  }
}
layer {
  name: "inception_4b/relu_pool_proj"
  type: "ReLU"
  bottom: "inception_4b/pool_proj"
  top: "inception_4b/pool_proj"
}
layer {
  name: "inception_4b/output"
  type: "Concat"
  bottom: "inception_4b/1x1"
  bottom: "inception_4b/3x3"
  bottom: "inception_4b/5x5"
  bottom: "inception_4b/pool_proj"
  top: "inception_4b/output"
}
layer {
  name: "inception_4c/1x1"
  type: "Convolution"
  bottom: "inception_4b/output"
  top: "inception_4c/1x1"
  param {
    lr_mult: 1
    decay_mult: 1
  }
  param {
    lr_mult: 2
    decay_mult: 0
  }
  convolution_param {
    num_output: 128
    kernel_size: 1
    weight_filler {
      type: "xavier"
      std: 0.03
    }
    bias_filler {
      type: "constant"
      value: 0.2
    }
  }
}
layer {
  name: "inception_4c/relu_1x1"
  type: "ReLU"
  bottom: "inception_4c/1x1"
  top: "inception_4c/1x1"
}
layer {
  name: "inception_4c/3x3_reduce"
  type: "Convolution"
  bottom: "inception_4b/output"
  top: "inception_4c/3x3_reduce"
  param {
    lr_mult: 1
    decay_mult: 1
  }
  param {
    lr_mult: 2
    decay_mult: 0
  }
  convolution_param {
    num_output: 128
    kernel_size: 1
    weight_filler {
      type: "xavier"
      std: 0.09
    }
    bias_filler {
      type: "constant"
      value: 0.2
    }
  }
}
layer {
  name: "inception_4c/relu_3x3_reduce"
  type: "ReLU"
  bottom: "inception_4c/3x3_reduce"
  top: "inception_4c/3x3_reduce"
}
layer {
  name: "inception_4c/3x3"
  type: "Convolution"
  bottom: "inception_4c/3x3_reduce"
  top: "inception_4c/3x3"
  param {
    lr_mult: 1
    decay_mult: 1
  }
  param {
    lr_mult: 2
    decay_mult: 0
  }
  convolution_param {
    num_output: 256
    pad: 1
    kernel_size: 3
    weight_filler {
      type: "xavier"
      std: 0.03
    }
    bias_filler {
      type: "constant"
      value: 0.2
    }
  }
}
layer {
  name: "inception_4c/relu_3x3"
  type: "ReLU"
  bottom: "inception_4c/3x3"
  top: "inception_4c/3x3"
}
layer {
  name: "inception_4c/5x5_reduce"
  type: "Convolution"
  bottom: "inception_4b/output"
  top: "inception_4c/5x5_reduce"
  param {
    lr_mult: 1
    decay_mult: 1
  }
  param {
    lr_mult: 2
    decay_mult: 0
  }
  convolution_param {
    num_output: 24
    kernel_size: 1
    weight_filler {
      type: "xavier"
      std: 0.2
    }
    bias_filler {
      type: "constant"
      value: 0.2
    }
  }
}
layer {
  name: "inception_4c/relu_5x5_reduce"
  type: "ReLU"
  bottom: "inception_4c/5x5_reduce"
  top: "inception_4c/5x5_reduce"
}
layer {
  name: "inception_4c/5x5"
  type: "Convolution"
  bottom: "inception_4c/5x5_reduce"
  top: "inception_4c/5x5"
  param {
    lr_mult: 1
    decay_mult: 1
  }
  param {
    lr_mult: 2
    decay_mult: 0
  }
  convolution_param {
    num_output: 64
    pad: 2
    kernel_size: 5
    weight_filler {
      type: "xavier"
      std: 0.03
    }
    bias_filler {
      type: "constant"
      value: 0.2
    }
  }
}
layer {
  name: "inception_4c/relu_5x5"
  type: "ReLU"
  bottom: "inception_4c/5x5"
  top: "inception_4c/5x5"
}
layer {
  name: "inception_4c/pool"
  type: "Pooling"
  bottom: "inception_4b/output"
  top: "inception_4c/pool"
  pooling_param {
    pool: MAX
    kernel_size: 3
    stride: 1
    pad: 1
  }
}
layer {
  name: "inception_4c/pool_proj"
  type: "Convolution"
  bottom: "inception_4c/pool"
  top: "inception_4c/pool_proj"
  param {
    lr_mult: 1
    decay_mult: 1
  }
  param {
    lr_mult: 2
    decay_mult: 0
  }
  convolution_param {
    num_output: 64
    kernel_size: 1
    weight_filler {
      type: "xavier"
      std: 0.1
    }
    bias_filler {
      type: "constant"
      value: 0.2
    }
  }
}
layer {
  name: "inception_4c/relu_pool_proj"
  type: "ReLU"
  bottom: "inception_4c/pool_proj"
  top: "inception_4c/pool_proj"
}
layer {
  name: "inception_4c/output"
  type: "Concat"
  bottom: "inception_4c/1x1"
  bottom: "inception_4c/3x3"
  bottom: "inception_4c/5x5"
  bottom: "inception_4c/pool_proj"
  top: "inception_4c/output"
}
layer {
  name: "inception_4d/1x1"
  type: "Convolution"
  bottom: "inception_4c/output"
  top: "inception_4d/1x1"
  param {
    lr_mult: 1
    decay_mult: 1
  }
  param {
    lr_mult: 2
    decay_mult: 0
  }
  convolution_param {
    num_output: 112
    kernel_size: 1
    weight_filler {
      type: "xavier"
      std: 0.03
    }
    bias_filler {
      type: "constant"
      value: 0.2
    }
  }
}
layer {
  name: "inception_4d/relu_1x1"
  type: "ReLU"
  bottom: "inception_4d/1x1"
  top: "inception_4d/1x1"
}
layer {
  name: "inception_4d/3x3_reduce"
  type: "Convolution"
  bottom: "inception_4c/output"
  top: "inception_4d/3x3_reduce"
  param {
    lr_mult: 1
    decay_mult: 1
  }
  param {
    lr_mult: 2
    decay_mult: 0
  }
  convolution_param {
    num_output: 144
    kernel_size: 1
    weight_filler {
      type: "xavier"
      std: 0.09
    }
    bias_filler {
      type: "constant"
      value: 0.2
    }
  }
}
layer {
  name: "inception_4d/relu_3x3_reduce"
  type: "ReLU"
  bottom: "inception_4d/3x3_reduce"
  top: "inception_4d/3x3_reduce"
}
layer {
  name: "inception_4d/3x3"
  type: "Convolution"
  bottom: "inception_4d/3x3_reduce"
  top: "inception_4d/3x3"
  param {
    lr_mult: 1
    decay_mult: 1
  }
  param {
    lr_mult: 2
    decay_mult: 0
  }
  convolution_param {
    num_output: 288
    pad: 1
    kernel_size: 3
    weight_filler {
      type: "xavier"
      std: 0.03
    }
    bias_filler {
      type: "constant"
      value: 0.2
    }
  }
}
layer {
  name: "inception_4d/relu_3x3"
  type: "ReLU"
  bottom: "inception_4d/3x3"
  top: "inception_4d/3x3"
}
layer {
  name: "inception_4d/5x5_reduce"
  type: "Convolution"
  bottom: "inception_4c/output"
  top: "inception_4d/5x5_reduce"
  param {
    lr_mult: 1
    decay_mult: 1
  }
  param {
    lr_mult: 2
    decay_mult: 0
  }
  convolution_param {
    num_output: 32
    kernel_size: 1
    weight_filler {
      type: "xavier"
      std: 0.2
    }
    bias_filler {
      type: "constant"
      value: 0.2
    }
  }
}
layer {
  name: "inception_4d/relu_5x5_reduce"
  type: "ReLU"
  bottom: "inception_4d/5x5_reduce"
  top: "inception_4d/5x5_reduce"
}
layer {
  name: "inception_4d/5x5"
  type: "Convolution"
  bottom: "inception_4d/5x5_reduce"
  top: "inception_4d/5x5"
  param {
    lr_mult: 1
    decay_mult: 1
  }
  param {
    lr_mult: 2
    decay_mult: 0
  }
  convolution_param {
    num_output: 64
    pad: 2
    kernel_size: 5
    weight_filler {
      type: "xavier"
      std: 0.03
    }
    bias_filler {
      type: "constant"
      value: 0.2
    }
  }
}
layer {
  name: "inception_4d/relu_5x5"
  type: "ReLU"
  bottom: "inception_4d/5x5"
  top: "inception_4d/5x5"
}
layer {
  name: "inception_4d/pool"
  type: "Pooling"
  bottom: "inception_4c/output"
  top: "inception_4d/pool"
  pooling_param {
    pool: MAX
    kernel_size: 3
    stride: 1
    pad: 1
  }
}
layer {
  name: "inception_4d/pool_proj"
  type: "Convolution"
  bottom: "inception_4d/pool"
  top: "inception_4d/pool_proj"
  param {
    lr_mult: 1
    decay_mult: 1
  }
  param {
    lr_mult: 2
    decay_mult: 0
  }
  convolution_param {
    num_output: 64
    kernel_size: 1
    weight_filler {
      type: "xavier"
      std: 0.1
    }
    bias_filler {
      type: "constant"
      value: 0.2
    }
  }
}
layer {
  name: "inception_4d/relu_pool_proj"
  type: "ReLU"
  bottom: "inception_4d/pool_proj"
  top: "inception_4d/pool_proj"
}
layer {
  name: "inception_4d/output"
  type: "Concat"
  bottom: "inception_4d/1x1"
  bottom: "inception_4d/3x3"
  bottom: "inception_4d/5x5"
  bottom: "inception_4d/pool_proj"
  top: "inception_4d/output"
}
layer {
  name: "loss2/ave_pool"
  type: "Pooling"
  bottom: "inception_4d/output"
  top: "loss2/ave_pool"
  pooling_param {
    pool: AVE
    kernel_size: 5
    stride: 3
  }
}
layer {
  name: "loss2/conv"
  type: "Convolution"
  bottom: "loss2/ave_pool"
  top: "loss2/conv"
  param {
    lr_mult: 1
    decay_mult: 1
  }
  param {
    lr_mult: 2
    decay_mult: 0
  }
  convolution_param {
    num_output: 128
    kernel_size: 1
    weight_filler {
      type: "xavier"
      std: 0.08
    }
    bias_filler {
      type: "constant"
      value: 0.2
    }
  }
}
layer {
  name: "loss2/relu_conv"
  type: "ReLU"
  bottom: "loss2/conv"
  top: "loss2/conv"
}
layer {
  name: "loss2/fc"
  type: "InnerProduct"
  bottom: "loss2/conv"
  top: "loss2/fc"
  param {
    lr_mult: 1
    decay_mult: 1
  }
  param {
    lr_mult: 2
    decay_mult: 0
  }
  inner_product_param {
    num_output: 1024
    weight_filler {
      type: "xavier"
      std: 0.02
    }
    bias_filler {
      type: "constant"
      value: 0.2
    }
  }
}
layer {
  name: "loss2/relu_fc"
  type: "ReLU"
  bottom: "loss2/fc"
  top: "loss2/fc"
}
layer {
  name: "loss2/drop_fc"
  type: "Dropout"
  bottom: "loss2/fc"
  top: "loss2/fc"
  dropout_param {
    dropout_ratio: 0.7
  }
}
layer {
  name: "loss2/classifier_plantvillage"
  type: "InnerProduct"
  bottom: "loss2/fc"
  top: "loss2/classifier_plantvillage"
  param {
    lr_mult: 1
    decay_mult: 1
  }
  param {
    lr_mult: 2
    decay_mult: 0
  }
  inner_product_param {
    num_output: 38
    weight_filler {
      type: "xavier"
      std: 0.0009765625
    }
    bias_filler {
      type: "constant"
      value: 0
    }
  }
}
layer {
  name: "inception_4e/1x1"
  type: "Convolution"
  bottom: "inception_4d/output"
  top: "inception_4e/1x1"
  param {
    lr_mult: 1
    decay_mult: 1
  }
  param {
    lr_mult: 2
    decay_mult: 0
  }
  convolution_param {
    num_output: 256
    kernel_size: 1
    weight_filler {
      type: "xavier"
      std: 0.03
    }
    bias_filler {
      type: "constant"
      value: 0.2
    }
  }
}
layer {
  name: "inception_4e/relu_1x1"
  type: "ReLU"
  bottom: "inception_4e/1x1"
  top: "inception_4e/1x1"
}
layer {
  name: "inception_4e/3x3_reduce"
  type: "Convolution"
  bottom: "inception_4d/output"
  top: "inception_4e/3x3_reduce"
  param {
    lr_mult: 1
    decay_mult: 1
  }
  param {
    lr_mult: 2
    decay_mult: 0
  }
  convolution_param {
    num_output: 160
    kernel_size: 1
    weight_filler {
      type: "xavier"
      std: 0.09
    }
    bias_filler {
      type: "constant"
      value: 0.2
    }
  }
}
layer {
  name: "inception_4e/relu_3x3_reduce"
  type: "ReLU"
  bottom: "inception_4e/3x3_reduce"
  top: "inception_4e/3x3_reduce"
}
layer {
  name: "inception_4e/3x3"
  type: "Convolution"
  bottom: "inception_4e/3x3_reduce"
  top: "inception_4e/3x3"
  param {
    lr_mult: 1
    decay_mult: 1
  }
  param {
    lr_mult: 2
    decay_mult: 0
  }
  convolution_param {
    num_output: 320
    pad: 1
    kernel_size: 3
    weight_filler {
      type: "xavier"
      std: 0.03
    }
    bias_filler {
      type: "constant"
      value: 0.2
    }
  }
}
layer {
  name: "inception_4e/relu_3x3"
  type: "ReLU"
  bottom: "inception_4e/3x3"
  top: "inception_4e/3x3"
}
layer {
  name: "inception_4e/5x5_reduce"
  type: "Convolution"
  bottom: "inception_4d/output"
  top: "inception_4e/5x5_reduce"
  param {
    lr_mult: 1
    decay_mult: 1
  }
  param {
    lr_mult: 2
    decay_mult: 0
  }
  convolution_param {
    num_output: 32
    kernel_size: 1
    weight_filler {
      type: "xavier"
      std: 0.2
    }
    bias_filler {
      type: "constant"
      value: 0.2
    }
  }
}
layer {
  name: "inception_4e/relu_5x5_reduce"
  type: "ReLU"
  bottom: "inception_4e/5x5_reduce"
  top: "inception_4e/5x5_reduce"
}
layer {
  name: "inception_4e/5x5"
  type: "Convolution"
  bottom: "inception_4e/5x5_reduce"
  top: "inception_4e/5x5"
  p
I0403 16:02:14.431519 20657 layer_factory.hpp:77] Creating layer data
I0403 16:02:14.432108 20657 net.cpp:91] Creating Layer data
I0403 16:02:14.432138 20657 net.cpp:399] data -> data
I0403 16:02:14.432188 20657 net.cpp:399] data -> label
I0403 16:02:14.432222 20657 data_transformer.cpp:25] Loading mean file from: /home/mohanty/data/final_dataset/lmdb/color-40-60/mean.binaryproto
I0403 16:02:14.433339 20660 db_lmdb.cpp:38] Opened lmdb /home/mohanty/data/final_dataset/lmdb/color-40-60/test_db
I0403 16:02:14.445147 20657 data_layer.cpp:41] output data size: 24,3,224,224
I0403 16:02:14.474625 20657 net.cpp:141] Setting up data
I0403 16:02:14.474689 20657 net.cpp:148] Top shape: 24 3 224 224 (3612672)
I0403 16:02:14.474714 20657 net.cpp:148] Top shape: 24 (24)
I0403 16:02:14.474730 20657 net.cpp:156] Memory required for data: 14450784
I0403 16:02:14.474759 20657 layer_factory.hpp:77] Creating layer label_data_1_split
I0403 16:02:14.474786 20657 net.cpp:91] Creating Layer label_data_1_split
I0403 16:02:14.474805 20657 net.cpp:425] label_data_1_split <- label
I0403 16:02:14.474838 20657 net.cpp:399] label_data_1_split -> label_data_1_split_0
I0403 16:02:14.474865 20657 net.cpp:399] label_data_1_split -> label_data_1_split_1
I0403 16:02:14.474889 20657 net.cpp:399] label_data_1_split -> label_data_1_split_2
I0403 16:02:14.474910 20657 net.cpp:399] label_data_1_split -> label_data_1_split_3
I0403 16:02:14.474931 20657 net.cpp:399] label_data_1_split -> label_data_1_split_4
I0403 16:02:14.474951 20657 net.cpp:399] label_data_1_split -> label_data_1_split_5
I0403 16:02:14.474972 20657 net.cpp:399] label_data_1_split -> label_data_1_split_6
I0403 16:02:14.474998 20657 net.cpp:399] label_data_1_split -> label_data_1_split_7
I0403 16:02:14.475019 20657 net.cpp:399] label_data_1_split -> label_data_1_split_8
I0403 16:02:14.475040 20657 net.cpp:399] label_data_1_split -> label_data_1_split_9
I0403 16:02:14.475154 20657 net.cpp:141] Setting up label_data_1_split
I0403 16:02:14.475178 20657 net.cpp:148] Top shape: 24 (24)
I0403 16:02:14.475196 20657 net.cpp:148] Top shape: 24 (24)
I0403 16:02:14.475211 20657 net.cpp:148] Top shape: 24 (24)
I0403 16:02:14.475227 20657 net.cpp:148] Top shape: 24 (24)
I0403 16:02:14.475242 20657 net.cpp:148] Top shape: 24 (24)
I0403 16:02:14.475258 20657 net.cpp:148] Top shape: 24 (24)
I0403 16:02:14.475273 20657 net.cpp:148] Top shape: 24 (24)
I0403 16:02:14.475289 20657 net.cpp:148] Top shape: 24 (24)
I0403 16:02:14.475304 20657 net.cpp:148] Top shape: 24 (24)
I0403 16:02:14.475320 20657 net.cpp:148] Top shape: 24 (24)
I0403 16:02:14.475363 20657 net.cpp:156] Memory required for data: 14451744
I0403 16:02:14.475378 20657 layer_factory.hpp:77] Creating layer conv1/7x7_s2
I0403 16:02:14.475409 20657 net.cpp:91] Creating Layer conv1/7x7_s2
I0403 16:02:14.475427 20657 net.cpp:425] conv1/7x7_s2 <- data
I0403 16:02:14.475447 20657 net.cpp:399] conv1/7x7_s2 -> conv1/7x7_s2
I0403 16:02:14.616506 20657 net.cpp:141] Setting up conv1/7x7_s2
I0403 16:02:14.616595 20657 net.cpp:148] Top shape: 24 64 112 112 (19267584)
I0403 16:02:14.616611 20657 net.cpp:156] Memory required for data: 91522080
I0403 16:02:14.616641 20657 layer_factory.hpp:77] Creating layer conv1/relu_7x7
I0403 16:02:14.616667 20657 net.cpp:91] Creating Layer conv1/relu_7x7
I0403 16:02:14.616685 20657 net.cpp:425] conv1/relu_7x7 <- conv1/7x7_s2
I0403 16:02:14.616704 20657 net.cpp:386] conv1/relu_7x7 -> conv1/7x7_s2 (in-place)
I0403 16:02:14.616971 20657 net.cpp:141] Setting up conv1/relu_7x7
I0403 16:02:14.617015 20657 net.cpp:148] Top shape: 24 64 112 112 (19267584)
I0403 16:02:14.617033 20657 net.cpp:156] Memory required for data: 168592416
I0403 16:02:14.617049 20657 layer_factory.hpp:77] Creating layer pool1/3x3_s2
I0403 16:02:14.617074 20657 net.cpp:91] Creating Layer pool1/3x3_s2
I0403 16:02:14.617091 20657 net.cpp:425] pool1/3x3_s2 <- conv1/7x7_s2
I0403 16:02:14.617110 20657 net.cpp:399] pool1/3x3_s2 -> pool1/3x3_s2
I0403 16:02:14.617185 20657 net.cpp:141] Setting up pool1/3x3_s2
I0403 16:02:14.617210 20657 net.cpp:148] Top shape: 24 64 56 56 (4816896)
I0403 16:02:14.617224 20657 net.cpp:156] Memory required for data: 187860000
I0403 16:02:14.617239 20657 layer_factory.hpp:77] Creating layer pool1/norm1
I0403 16:02:14.617275 20657 net.cpp:91] Creating Layer pool1/norm1
I0403 16:02:14.617293 20657 net.cpp:425] pool1/norm1 <- pool1/3x3_s2
I0403 16:02:14.617311 20657 net.cpp:399] pool1/norm1 -> pool1/norm1
I0403 16:02:14.617594 20657 net.cpp:141] Setting up pool1/norm1
I0403 16:02:14.617620 20657 net.cpp:148] Top shape: 24 64 56 56 (4816896)
I0403 16:02:14.617635 20657 net.cpp:156] Memory required for data: 207127584
I0403 16:02:14.617650 20657 layer_factory.hpp:77] Creating layer conv2/3x3_reduce
I0403 16:02:14.617674 20657 net.cpp:91] Creating Layer conv2/3x3_reduce
I0403 16:02:14.617691 20657 net.cpp:425] conv2/3x3_reduce <- pool1/norm1
I0403 16:02:14.617708 20657 net.cpp:399] conv2/3x3_reduce -> conv2/3x3_reduce
I0403 16:02:14.619045 20657 net.cpp:141] Setting up conv2/3x3_reduce
I0403 16:02:14.619073 20657 net.cpp:148] Top shape: 24 64 56 56 (4816896)
I0403 16:02:14.619089 20657 net.cpp:156] Memory required for data: 226395168
I0403 16:02:14.619109 20657 layer_factory.hpp:77] Creating layer conv2/relu_3x3_reduce
I0403 16:02:14.619127 20657 net.cpp:91] Creating Layer conv2/relu_3x3_reduce
I0403 16:02:14.619143 20657 net.cpp:425] conv2/relu_3x3_reduce <- conv2/3x3_reduce
I0403 16:02:14.619159 20657 net.cpp:386] conv2/relu_3x3_reduce -> conv2/3x3_reduce (in-place)
I0403 16:02:14.619407 20657 net.cpp:141] Setting up conv2/relu_3x3_reduce
I0403 16:02:14.619433 20657 net.cpp:148] Top shape: 24 64 56 56 (4816896)
I0403 16:02:14.619449 20657 net.cpp:156] Memory required for data: 245662752
I0403 16:02:14.619463 20657 layer_factory.hpp:77] Creating layer conv2/3x3
I0403 16:02:14.619485 20657 net.cpp:91] Creating Layer conv2/3x3
I0403 16:02:14.619501 20657 net.cpp:425] conv2/3x3 <- conv2/3x3_reduce
I0403 16:02:14.619519 20657 net.cpp:399] conv2/3x3 -> conv2/3x3
I0403 16:02:14.621759 20657 net.cpp:141] Setting up conv2/3x3
I0403 16:02:14.621791 20657 net.cpp:148] Top shape: 24 192 56 56 (14450688)
I0403 16:02:14.621809 20657 net.cpp:156] Memory required for data: 303465504
I0403 16:02:14.621829 20657 layer_factory.hpp:77] Creating layer conv2/relu_3x3
I0403 16:02:14.621850 20657 net.cpp:91] Creating Layer conv2/relu_3x3
I0403 16:02:14.621867 20657 net.cpp:425] conv2/relu_3x3 <- conv2/3x3
I0403 16:02:14.621886 20657 net.cpp:386] conv2/relu_3x3 -> conv2/3x3 (in-place)
I0403 16:02:14.622052 20657 net.cpp:141] Setting up conv2/relu_3x3
I0403 16:02:14.622079 20657 net.cpp:148] Top shape: 24 192 56 56 (14450688)
I0403 16:02:14.622128 20657 net.cpp:156] Memory required for data: 361268256
I0403 16:02:14.622144 20657 layer_factory.hpp:77] Creating layer conv2/norm2
I0403 16:02:14.622162 20657 net.cpp:91] Creating Layer conv2/norm2
I0403 16:02:14.622179 20657 net.cpp:425] conv2/norm2 <- conv2/3x3
I0403 16:02:14.622195 20657 net.cpp:399] conv2/norm2 -> conv2/norm2
I0403 16:02:14.622495 20657 net.cpp:141] Setting up conv2/norm2
I0403 16:02:14.622524 20657 net.cpp:148] Top shape: 24 192 56 56 (14450688)
I0403 16:02:14.622539 20657 net.cpp:156] Memory required for data: 419071008
I0403 16:02:14.622555 20657 layer_factory.hpp:77] Creating layer pool2/3x3_s2
I0403 16:02:14.622573 20657 net.cpp:91] Creating Layer pool2/3x3_s2
I0403 16:02:14.622589 20657 net.cpp:425] pool2/3x3_s2 <- conv2/norm2
I0403 16:02:14.622606 20657 net.cpp:399] pool2/3x3_s2 -> pool2/3x3_s2
I0403 16:02:14.622656 20657 net.cpp:141] Setting up pool2/3x3_s2
I0403 16:02:14.622680 20657 net.cpp:148] Top shape: 24 192 28 28 (3612672)
I0403 16:02:14.622696 20657 net.cpp:156] Memory required for data: 433521696
I0403 16:02:14.622711 20657 layer_factory.hpp:77] Creating layer pool2/3x3_s2_pool2/3x3_s2_0_split
I0403 16:02:14.622730 20657 net.cpp:91] Creating Layer pool2/3x3_s2_pool2/3x3_s2_0_split
I0403 16:02:14.622745 20657 net.cpp:425] pool2/3x3_s2_pool2/3x3_s2_0_split <- pool2/3x3_s2
I0403 16:02:14.622763 20657 net.cpp:399] pool2/3x3_s2_pool2/3x3_s2_0_split -> pool2/3x3_s2_pool2/3x3_s2_0_split_0
I0403 16:02:14.622784 20657 net.cpp:399] pool2/3x3_s2_pool2/3x3_s2_0_split -> pool2/3x3_s2_pool2/3x3_s2_0_split_1
I0403 16:02:14.622804 20657 net.cpp:399] pool2/3x3_s2_pool2/3x3_s2_0_split -> pool2/3x3_s2_pool2/3x3_s2_0_split_2
I0403 16:02:14.622825 20657 net.cpp:399] pool2/3x3_s2_pool2/3x3_s2_0_split -> pool2/3x3_s2_pool2/3x3_s2_0_split_3
I0403 16:02:14.622889 20657 net.cpp:141] Setting up pool2/3x3_s2_pool2/3x3_s2_0_split
I0403 16:02:14.622911 20657 net.cpp:148] Top shape: 24 192 28 28 (3612672)
I0403 16:02:14.622928 20657 net.cpp:148] Top shape: 24 192 28 28 (3612672)
I0403 16:02:14.622946 20657 net.cpp:148] Top shape: 24 192 28 28 (3612672)
I0403 16:02:14.622961 20657 net.cpp:148] Top shape: 24 192 28 28 (3612672)
I0403 16:02:14.622974 20657 net.cpp:156] Memory required for data: 491324448
I0403 16:02:14.622994 20657 layer_factory.hpp:77] Creating layer inception_3a/1x1
I0403 16:02:14.623015 20657 net.cpp:91] Creating Layer inception_3a/1x1
I0403 16:02:14.623033 20657 net.cpp:425] inception_3a/1x1 <- pool2/3x3_s2_pool2/3x3_s2_0_split_0
I0403 16:02:14.623054 20657 net.cpp:399] inception_3a/1x1 -> inception_3a/1x1
I0403 16:02:14.624601 20657 net.cpp:141] Setting up inception_3a/1x1
I0403 16:02:14.624629 20657 net.cpp:148] Top shape: 24 64 28 28 (1204224)
I0403 16:02:14.624644 20657 net.cpp:156] Memory required for data: 496141344
I0403 16:02:14.624662 20657 layer_factory.hpp:77] Creating layer inception_3a/relu_1x1
I0403 16:02:14.624680 20657 net.cpp:91] Creating Layer inception_3a/relu_1x1
I0403 16:02:14.624694 20657 net.cpp:425] inception_3a/relu_1x1 <- inception_3a/1x1
I0403 16:02:14.624713 20657 net.cpp:386] inception_3a/relu_1x1 -> inception_3a/1x1 (in-place)
I0403 16:02:14.624882 20657 net.cpp:141] Setting up inception_3a/relu_1x1
I0403 16:02:14.624907 20657 net.cpp:148] Top shape: 24 64 28 28 (1204224)
I0403 16:02:14.624922 20657 net.cpp:156] Memory required for data: 500958240
I0403 16:02:14.624936 20657 layer_factory.hpp:77] Creating layer inception_3a/3x3_reduce
I0403 16:02:14.624958 20657 net.cpp:91] Creating Layer inception_3a/3x3_reduce
I0403 16:02:14.624974 20657 net.cpp:425] inception_3a/3x3_reduce <- pool2/3x3_s2_pool2/3x3_s2_0_split_1
I0403 16:02:14.624999 20657 net.cpp:399] inception_3a/3x3_reduce -> inception_3a/3x3_reduce
I0403 16:02:14.626684 20657 net.cpp:141] Setting up inception_3a/3x3_reduce
I0403 16:02:14.626714 20657 net.cpp:148] Top shape: 24 96 28 28 (1806336)
I0403 16:02:14.626729 20657 net.cpp:156] Memory required for data: 508183584
I0403 16:02:14.626751 20657 layer_factory.hpp:77] Creating layer inception_3a/relu_3x3_reduce
I0403 16:02:14.626788 20657 net.cpp:91] Creating Layer inception_3a/relu_3x3_reduce
I0403 16:02:14.626806 20657 net.cpp:425] inception_3a/relu_3x3_reduce <- inception_3a/3x3_reduce
I0403 16:02:14.626824 20657 net.cpp:386] inception_3a/relu_3x3_reduce -> inception_3a/3x3_reduce (in-place)
I0403 16:02:14.627003 20657 net.cpp:141] Setting up inception_3a/relu_3x3_reduce
I0403 16:02:14.627030 20657 net.cpp:148] Top shape: 24 96 28 28 (1806336)
I0403 16:02:14.627044 20657 net.cpp:156] Memory required for data: 515408928
I0403 16:02:14.627059 20657 layer_factory.hpp:77] Creating layer inception_3a/3x3
I0403 16:02:14.627080 20657 net.cpp:91] Creating Layer inception_3a/3x3
I0403 16:02:14.627096 20657 net.cpp:425] inception_3a/3x3 <- inception_3a/3x3_reduce
I0403 16:02:14.627117 20657 net.cpp:399] inception_3a/3x3 -> inception_3a/3x3
I0403 16:02:14.628739 20657 net.cpp:141] Setting up inception_3a/3x3
I0403 16:02:14.628767 20657 net.cpp:148] Top shape: 24 128 28 28 (2408448)
I0403 16:02:14.628782 20657 net.cpp:156] Memory required for data: 525042720
I0403 16:02:14.628801 20657 layer_factory.hpp:77] Creating layer inception_3a/relu_3x3
I0403 16:02:14.628821 20657 net.cpp:91] Creating Layer inception_3a/relu_3x3
I0403 16:02:14.628839 20657 net.cpp:425] inception_3a/relu_3x3 <- inception_3a/3x3
I0403 16:02:14.628856 20657 net.cpp:386] inception_3a/relu_3x3 -> inception_3a/3x3 (in-place)
I0403 16:02:14.629134 20657 net.cpp:141] Setting up inception_3a/relu_3x3
I0403 16:02:14.629160 20657 net.cpp:148] Top shape: 24 128 28 28 (2408448)
I0403 16:02:14.629174 20657 net.cpp:156] Memory required for data: 534676512
I0403 16:02:14.629189 20657 layer_factory.hpp:77] Creating layer inception_3a/5x5_reduce
I0403 16:02:14.629210 20657 net.cpp:91] Creating Layer inception_3a/5x5_reduce
I0403 16:02:14.629227 20657 net.cpp:425] inception_3a/5x5_reduce <- pool2/3x3_s2_pool2/3x3_s2_0_split_2
I0403 16:02:14.629247 20657 net.cpp:399] inception_3a/5x5_reduce -> inception_3a/5x5_reduce
I0403 16:02:14.630208 20657 net.cpp:141] Setting up inception_3a/5x5_reduce
I0403 16:02:14.630234 20657 net.cpp:148] Top shape: 24 16 28 28 (301056)
I0403 16:02:14.630262 20657 net.cpp:156] Memory required for data: 535880736
I0403 16:02:14.630280 20657 layer_factory.hpp:77] Creating layer inception_3a/relu_5x5_reduce
I0403 16:02:14.630300 20657 net.cpp:91] Creating Layer inception_3a/relu_5x5_reduce
I0403 16:02:14.630316 20657 net.cpp:425] inception_3a/relu_5x5_reduce <- inception_3a/5x5_reduce
I0403 16:02:14.630332 20657 net.cpp:386] inception_3a/relu_5x5_reduce -> inception_3a/5x5_reduce (in-place)
I0403 16:02:14.630622 20657 net.cpp:141] Setting up inception_3a/relu_5x5_reduce
I0403 16:02:14.630648 20657 net.cpp:148] Top shape: 24 16 28 28 (301056)
I0403 16:02:14.630666 20657 net.cpp:156] Memory required for data: 537084960
I0403 16:02:14.630681 20657 layer_factory.hpp:77] Creating layer inception_3a/5x5
I0403 16:02:14.630702 20657 net.cpp:91] Creating Layer inception_3a/5x5
I0403 16:02:14.630717 20657 net.cpp:425] inception_3a/5x5 <- inception_3a/5x5_reduce
I0403 16:02:14.630736 20657 net.cpp:399] inception_3a/5x5 -> inception_3a/5x5
I0403 16:02:14.631726 20657 net.cpp:141] Setting up inception_3a/5x5
I0403 16:02:14.631754 20657 net.cpp:148] Top shape: 24 32 28 28 (602112)
I0403 16:02:14.631769 20657 net.cpp:156] Memory required for data: 539493408
I0403 16:02:14.631788 20657 layer_factory.hpp:77] Creating layer inception_3a/relu_5x5
I0403 16:02:14.631808 20657 net.cpp:91] Creating Layer inception_3a/relu_5x5
I0403 16:02:14.631826 20657 net.cpp:425] inception_3a/relu_5x5 <- inception_3a/5x5
I0403 16:02:14.631845 20657 net.cpp:386] inception_3a/relu_5x5 -> inception_3a/5x5 (in-place)
I0403 16:02:14.632015 20657 net.cpp:141] Setting up inception_3a/relu_5x5
I0403 16:02:14.632041 20657 net.cpp:148] Top shape: 24 32 28 28 (602112)
I0403 16:02:14.632055 20657 net.cpp:156] Memory required for data: 541901856
I0403 16:02:14.632071 20657 layer_factory.hpp:77] Creating layer inception_3a/pool
I0403 16:02:14.632089 20657 net.cpp:91] Creating Layer inception_3a/pool
I0403 16:02:14.632107 20657 net.cpp:425] inception_3a/pool <- pool2/3x3_s2_pool2/3x3_s2_0_split_3
I0403 16:02:14.632138 20657 net.cpp:399] inception_3a/pool -> inception_3a/pool
I0403 16:02:14.632194 20657 net.cpp:141] Setting up inception_3a/pool
I0403 16:02:14.632220 20657 net.cpp:148] Top shape: 24 192 28 28 (3612672)
I0403 16:02:14.632233 20657 net.cpp:156] Memory required for data: 556352544
I0403 16:02:14.632247 20657 layer_factory.hpp:77] Creating layer inception_3a/pool_proj
I0403 16:02:14.632271 20657 net.cpp:91] Creating Layer inception_3a/pool_proj
I0403 16:02:14.632287 20657 net.cpp:425] inception_3a/pool_proj <- inception_3a/pool
I0403 16:02:14.632308 20657 net.cpp:399] inception_3a/pool_proj -> inception_3a/pool_proj
I0403 16:02:14.633247 20657 net.cpp:141] Setting up inception_3a/pool_proj
I0403 16:02:14.633275 20657 net.cpp:148] Top shape: 24 32 28 28 (602112)
I0403 16:02:14.633291 20657 net.cpp:156] Memory required for data: 558760992
I0403 16:02:14.633312 20657 layer_factory.hpp:77] Creating layer inception_3a/relu_pool_proj
I0403 16:02:14.633332 20657 net.cpp:91] Creating Layer inception_3a/relu_pool_proj
I0403 16:02:14.633348 20657 net.cpp:425] inception_3a/relu_pool_proj <- inception_3a/pool_proj
I0403 16:02:14.633365 20657 net.cpp:386] inception_3a/relu_pool_proj -> inception_3a/pool_proj (in-place)
I0403 16:02:14.633635 20657 net.cpp:141] Setting up inception_3a/relu_pool_proj
I0403 16:02:14.633659 20657 net.cpp:148] Top shape: 24 32 28 28 (602112)
I0403 16:02:14.633676 20657 net.cpp:156] Memory required for data: 561169440
I0403 16:02:14.633689 20657 layer_factory.hpp:77] Creating layer inception_3a/output
I0403 16:02:14.633707 20657 net.cpp:91] Creating Layer inception_3a/output
I0403 16:02:14.633721 20657 net.cpp:425] inception_3a/output <- inception_3a/1x1
I0403 16:02:14.633738 20657 net.cpp:425] inception_3a/output <- inception_3a/3x3
I0403 16:02:14.633755 20657 net.cpp:425] inception_3a/output <- inception_3a/5x5
I0403 16:02:14.633771 20657 net.cpp:425] inception_3a/output <- inception_3a/pool_proj
I0403 16:02:14.633787 20657 net.cpp:399] inception_3a/output -> inception_3a/output
I0403 16:02:14.633831 20657 net.cpp:141] Setting up inception_3a/output
I0403 16:02:14.633855 20657 net.cpp:148] Top shape: 24 256 28 28 (4816896)
I0403 16:02:14.633872 20657 net.cpp:156] Memory required for data: 580437024
I0403 16:02:14.633885 20657 layer_factory.hpp:77] Creating layer inception_3a/output_inception_3a/output_0_split
I0403 16:02:14.633901 20657 net.cpp:91] Creating Layer inception_3a/output_inception_3a/output_0_split
I0403 16:02:14.633915 20657 net.cpp:425] inception_3a/output_inception_3a/output_0_split <- inception_3a/output
I0403 16:02:14.633934 20657 net.cpp:399] inception_3a/output_inception_3a/output_0_split -> inception_3a/output_inception_3a/output_0_split_0
I0403 16:02:14.633954 20657 net.cpp:399] inception_3a/output_inception_3a/output_0_split -> inception_3a/output_inception_3a/output_0_split_1
I0403 16:02:14.633975 20657 net.cpp:399] inception_3a/output_inception_3a/output_0_split -> inception_3a/output_inception_3a/output_0_split_2
I0403 16:02:14.633999 20657 net.cpp:399] inception_3a/output_inception_3a/output_0_split -> inception_3a/output_inception_3a/output_0_split_3
I0403 16:02:14.634073 20657 net.cpp:141] Setting up inception_3a/output_inception_3a/output_0_split
I0403 16:02:14.634094 20657 net.cpp:148] Top shape: 24 256 28 28 (4816896)
I0403 16:02:14.634110 20657 net.cpp:148] Top shape: 24 256 28 28 (4816896)
I0403 16:02:14.634125 20657 net.cpp:148] Top shape: 24 256 28 28 (4816896)
I0403 16:02:14.634140 20657 net.cpp:148] Top shape: 24 256 28 28 (4816896)
I0403 16:02:14.634152 20657 net.cpp:156] Memory required for data: 657507360
I0403 16:02:14.634167 20657 layer_factory.hpp:77] Creating layer inception_3b/1x1
I0403 16:02:14.634189 20657 net.cpp:91] Creating Layer inception_3b/1x1
I0403 16:02:14.634205 20657 net.cpp:425] inception_3b/1x1 <- inception_3a/output_inception_3a/output_0_split_0
I0403 16:02:14.634227 20657 net.cpp:399] inception_3b/1x1 -> inception_3b/1x1
I0403 16:02:14.635335 20657 net.cpp:141] Setting up inception_3b/1x1
I0403 16:02:14.635375 20657 net.cpp:148] Top shape: 24 128 28 28 (2408448)
I0403 16:02:14.635391 20657 net.cpp:156] Memory required for data: 667141152
I0403 16:02:14.635411 20657 layer_factory.hpp:77] Creating layer inception_3b/relu_1x1
I0403 16:02:14.635434 20657 net.cpp:91] Creating Layer inception_3b/relu_1x1
I0403 16:02:14.635450 20657 net.cpp:425] inception_3b/relu_1x1 <- inception_3b/1x1
I0403 16:02:14.635469 20657 net.cpp:386] inception_3b/relu_1x1 -> inception_3b/1x1 (in-place)
I0403 16:02:14.635643 20657 net.cpp:141] Setting up inception_3b/relu_1x1
I0403 16:02:14.635666 20657 net.cpp:148] Top shape: 24 128 28 28 (2408448)
I0403 16:02:14.635680 20657 net.cpp:156] Memory required for data: 676774944
I0403 16:02:14.635705 20657 layer_factory.hpp:77] Creating layer inception_3b/3x3_reduce
I0403 16:02:14.635728 20657 net.cpp:91] Creating Layer inception_3b/3x3_reduce
I0403 16:02:14.635746 20657 net.cpp:425] inception_3b/3x3_reduce <- inception_3a/output_inception_3a/output_0_split_1
I0403 16:02:14.635785 20657 net.cpp:399] inception_3b/3x3_reduce -> inception_3b/3x3_reduce
I0403 16:02:14.636921 20657 net.cpp:141] Setting up inception_3b/3x3_reduce
I0403 16:02:14.636950 20657 net.cpp:148] Top shape: 24 128 28 28 (2408448)
I0403 16:02:14.636967 20657 net.cpp:156] Memory required for data: 686408736
I0403 16:02:14.636987 20657 layer_factory.hpp:77] Creating layer inception_3b/relu_3x3_reduce
I0403 16:02:14.637006 20657 net.cpp:91] Creating Layer inception_3b/relu_3x3_reduce
I0403 16:02:14.637022 20657 net.cpp:425] inception_3b/relu_3x3_reduce <- inception_3b/3x3_reduce
I0403 16:02:14.637042 20657 net.cpp:386] inception_3b/relu_3x3_reduce -> inception_3b/3x3_reduce (in-place)
I0403 16:02:14.637212 20657 net.cpp:141] Setting up inception_3b/relu_3x3_reduce
I0403 16:02:14.637238 20657 net.cpp:148] Top shape: 24 128 28 28 (2408448)
I0403 16:02:14.637251 20657 net.cpp:156] Memory required for data: 696042528
I0403 16:02:14.637265 20657 layer_factory.hpp:77] Creating layer inception_3b/3x3
I0403 16:02:14.637290 20657 net.cpp:91] Creating Layer inception_3b/3x3
I0403 16:02:14.637307 20657 net.cpp:425] inception_3b/3x3 <- inception_3b/3x3_reduce
I0403 16:02:14.637326 20657 net.cpp:399] inception_3b/3x3 -> inception_3b/3x3
I0403 16:02:14.640195 20657 net.cpp:141] Setting up inception_3b/3x3
I0403 16:02:14.640225 20657 net.cpp:148] Top shape: 24 192 28 28 (3612672)
I0403 16:02:14.640241 20657 net.cpp:156] Memory required for data: 710493216
I0403 16:02:14.640259 20657 layer_factory.hpp:77] Creating layer inception_3b/relu_3x3
I0403 16:02:14.640280 20657 net.cpp:91] Creating Layer inception_3b/relu_3x3
I0403 16:02:14.640296 20657 net.cpp:425] inception_3b/relu_3x3 <- inception_3b/3x3
I0403 16:02:14.640313 20657 net.cpp:386] inception_3b/relu_3x3 -> inception_3b/3x3 (in-place)
I0403 16:02:14.640600 20657 net.cpp:141] Setting up inception_3b/relu_3x3
I0403 16:02:14.640627 20657 net.cpp:148] Top shape: 24 192 28 28 (3612672)
I0403 16:02:14.640642 20657 net.cpp:156] Memory required for data: 724943904
I0403 16:02:14.640656 20657 layer_factory.hpp:77] Creating layer inception_3b/5x5_reduce
I0403 16:02:14.640681 20657 net.cpp:91] Creating Layer inception_3b/5x5_reduce
I0403 16:02:14.640697 20657 net.cpp:425] inception_3b/5x5_reduce <- inception_3a/output_inception_3a/output_0_split_2
I0403 16:02:14.640719 20657 net.cpp:399] inception_3b/5x5_reduce -> inception_3b/5x5_reduce
I0403 16:02:14.641721 20657 net.cpp:141] Setting up inception_3b/5x5_reduce
I0403 16:02:14.641749 20657 net.cpp:148] Top shape: 24 32 28 28 (602112)
I0403 16:02:14.641765 20657 net.cpp:156] Memory required for data: 727352352
I0403 16:02:14.641784 20657 layer_factory.hpp:77] Creating layer inception_3b/relu_5x5_reduce
I0403 16:02:14.641806 20657 net.cpp:91] Creating Layer inception_3b/relu_5x5_reduce
I0403 16:02:14.641824 20657 net.cpp:425] inception_3b/relu_5x5_reduce <- inception_3b/5x5_reduce
I0403 16:02:14.641844 20657 net.cpp:386] inception_3b/relu_5x5_reduce -> inception_3b/5x5_reduce (in-place)
I0403 16:02:14.642026 20657 net.cpp:141] Setting up inception_3b/relu_5x5_reduce
I0403 16:02:14.642066 20657 net.cpp:148] Top shape: 24 32 28 28 (602112)
I0403 16:02:14.642082 20657 net.cpp:156] Memory required for data: 729760800
I0403 16:02:14.642098 20657 layer_factory.hpp:77] Creating layer inception_3b/5x5
I0403 16:02:14.642122 20657 net.cpp:91] Creating Layer inception_3b/5x5
I0403 16:02:14.642141 20657 net.cpp:425] inception_3b/5x5 <- inception_3b/5x5_reduce
I0403 16:02:14.642163 20657 net.cpp:399] inception_3b/5x5 -> inception_3b/5x5
I0403 16:02:14.644122 20657 net.cpp:141] Setting up inception_3b/5x5
I0403 16:02:14.644155 20657 net.cpp:148] Top shape: 24 96 28 28 (1806336)
I0403 16:02:14.644173 20657 net.cpp:156] Memory required for data: 736986144
I0403 16:02:14.644193 20657 layer_factory.hpp:77] Creating layer inception_3b/relu_5x5
I0403 16:02:14.644212 20657 net.cpp:91] Creating Layer inception_3b/relu_5x5
I0403 16:02:14.644229 20657 net.cpp:425] inception_3b/relu_5x5 <- inception_3b/5x5
I0403 16:02:14.644249 20657 net.cpp:386] inception_3b/relu_5x5 -> inception_3b/5x5 (in-place)
I0403 16:02:14.644441 20657 net.cpp:141] Setting up inception_3b/relu_5x5
I0403 16:02:14.644467 20657 net.cpp:148] Top shape: 24 96 28 28 (1806336)
I0403 16:02:14.644481 20657 net.cpp:156] Memory required for data: 744211488
I0403 16:02:14.644496 20657 layer_factory.hpp:77] Creating layer inception_3b/pool
I0403 16:02:14.644515 20657 net.cpp:91] Creating Layer inception_3b/pool
I0403 16:02:14.644529 20657 net.cpp:425] inception_3b/pool <- inception_3a/output_inception_3a/output_0_split_3
I0403 16:02:14.644547 20657 net.cpp:399] inception_3b/pool -> inception_3b/pool
I0403 16:02:14.644603 20657 net.cpp:141] Setting up inception_3b/pool
I0403 16:02:14.644626 20657 net.cpp:148] Top shape: 24 256 28 28 (4816896)
I0403 16:02:14.644640 20657 net.cpp:156] Memory required for data: 763479072
I0403 16:02:14.644654 20657 layer_factory.hpp:77] Creating layer inception_3b/pool_proj
I0403 16:02:14.644677 20657 net.cpp:91] Creating Layer inception_3b/pool_proj
I0403 16:02:14.644695 20657 net.cpp:425] inception_3b/pool_proj <- inception_3b/pool
I0403 16:02:14.644713 20657 net.cpp:399] inception_3b/pool_proj -> inception_3b/pool_proj
I0403 16:02:14.645772 20657 net.cpp:141] Setting up inception_3b/pool_proj
I0403 16:02:14.645800 20657 net.cpp:148] Top shape: 24 64 28 28 (1204224)
I0403 16:02:14.645815 20657 net.cpp:156] Memory required for data: 768295968
I0403 16:02:14.645833 20657 layer_factory.hpp:77] Creating layer inception_3b/relu_pool_proj
I0403 16:02:14.645853 20657 net.cpp:91] Creating Layer inception_3b/relu_pool_proj
I0403 16:02:14.645869 20657 net.cpp:425] inception_3b/relu_pool_proj <- inception_3b/pool_proj
I0403 16:02:14.645887 20657 net.cpp:386] inception_3b/relu_pool_proj -> inception_3b/pool_proj (in-place)
I0403 16:02:14.646291 20657 net.cpp:141] Setting up inception_3b/relu_pool_proj
I0403 16:02:14.646318 20657 net.cpp:148] Top shape: 24 64 28 28 (1204224)
I0403 16:02:14.646333 20657 net.cpp:156] Memory required for data: 773112864
I0403 16:02:14.646348 20657 layer_factory.hpp:77] Creating layer inception_3b/output
I0403 16:02:14.646368 20657 net.cpp:91] Creating Layer inception_3b/output
I0403 16:02:14.646384 20657 net.cpp:425] inception_3b/output <- inception_3b/1x1
I0403 16:02:14.646400 20657 net.cpp:425] inception_3b/output <- inception_3b/3x3
I0403 16:02:14.646416 20657 net.cpp:425] inception_3b/output <- inception_3b/5x5
I0403 16:02:14.646433 20657 net.cpp:425] inception_3b/output <- inception_3b/pool_proj
I0403 16:02:14.646450 20657 net.cpp:399] inception_3b/output -> inception_3b/output
I0403 16:02:14.646494 20657 net.cpp:141] Setting up inception_3b/output
I0403 16:02:14.646518 20657 net.cpp:148] Top shape: 24 480 28 28 (9031680)
I0403 16:02:14.646533 20657 net.cpp:156] Memory required for data: 809239584
I0403 16:02:14.646548 20657 layer_factory.hpp:77] Creating layer pool3/3x3_s2
I0403 16:02:14.646564 20657 net.cpp:91] Creating Layer pool3/3x3_s2
I0403 16:02:14.646579 20657 net.cpp:425] pool3/3x3_s2 <- inception_3b/output
I0403 16:02:14.646598 20657 net.cpp:399] pool3/3x3_s2 -> pool3/3x3_s2
I0403 16:02:14.646670 20657 net.cpp:141] Setting up pool3/3x3_s2
I0403 16:02:14.646697 20657 net.cpp:148] Top shape: 24 480 14 14 (2257920)
I0403 16:02:14.646713 20657 net.cpp:156] Memory required for data: 818271264
I0403 16:02:14.646726 20657 layer_factory.hpp:77] Creating layer pool3/3x3_s2_pool3/3x3_s2_0_split
I0403 16:02:14.646744 20657 net.cpp:91] Creating Layer pool3/3x3_s2_pool3/3x3_s2_0_split
I0403 16:02:14.646759 20657 net.cpp:425] pool3/3x3_s2_pool3/3x3_s2_0_split <- pool3/3x3_s2
I0403 16:02:14.646775 20657 net.cpp:399] pool3/3x3_s2_pool3/3x3_s2_0_split -> pool3/3x3_s2_pool3/3x3_s2_0_split_0
I0403 16:02:14.646796 20657 net.cpp:399] pool3/3x3_s2_pool3/3x3_s2_0_split -> pool3/3x3_s2_pool3/3x3_s2_0_split_1
I0403 16:02:14.646816 20657 net.cpp:399] pool3/3x3_s2_pool3/3x3_s2_0_split -> pool3/3x3_s2_pool3/3x3_s2_0_split_2
I0403 16:02:14.646834 20657 net.cpp:399] pool3/3x3_s2_pool3/3x3_s2_0_split -> pool3/3x3_s2_pool3/3x3_s2_0_split_3
I0403 16:02:14.646910 20657 net.cpp:141] Setting up pool3/3x3_s2_pool3/3x3_s2_0_split
I0403 16:02:14.646934 20657 net.cpp:148] Top shape: 24 480 14 14 (2257920)
I0403 16:02:14.646950 20657 net.cpp:148] Top shape: 24 480 14 14 (2257920)
I0403 16:02:14.646965 20657 net.cpp:148] Top shape: 24 480 14 14 (2257920)
I0403 16:02:14.646981 20657 net.cpp:148] Top shape: 24 480 14 14 (2257920)
I0403 16:02:14.646998 20657 net.cpp:156] Memory required for data: 854397984
I0403 16:02:14.647012 20657 layer_factory.hpp:77] Creating layer inception_4a/1x1
I0403 16:02:14.647034 20657 net.cpp:91] Creating Layer inception_4a/1x1
I0403 16:02:14.647053 20657 net.cpp:425] inception_4a/1x1 <- pool3/3x3_s2_pool3/3x3_s2_0_split_0
I0403 16:02:14.647071 20657 net.cpp:399] inception_4a/1x1 -> inception_4a/1x1
I0403 16:02:14.648658 20657 net.cpp:141] Setting up inception_4a/1x1
I0403 16:02:14.648686 20657 net.cpp:148] Top shape: 24 192 14 14 (903168)
I0403 16:02:14.648702 20657 net.cpp:156] Memory required for data: 858010656
I0403 16:02:14.648722 20657 layer_factory.hpp:77] Creating layer inception_4a/relu_1x1
I0403 16:02:14.648742 20657 net.cpp:91] Creating Layer inception_4a/relu_1x1
I0403 16:02:14.648759 20657 net.cpp:425] inception_4a/relu_1x1 <- inception_4a/1x1
I0403 16:02:14.648777 20657 net.cpp:386] inception_4a/relu_1x1 -> inception_4a/1x1 (in-place)
I0403 16:02:14.648962 20657 net.cpp:141] Setting up inception_4a/relu_1x1
I0403 16:02:14.648996 20657 net.cpp:148] Top shape: 24 192 14 14 (903168)
I0403 16:02:14.649014 20657 net.cpp:156] Memory required for data: 861623328
I0403 16:02:14.649029 20657 layer_factory.hpp:77] Creating layer inception_4a/3x3_reduce
I0403 16:02:14.649050 20657 net.cpp:91] Creating Layer inception_4a/3x3_reduce
I0403 16:02:14.649067 20657 net.cpp:425] inception_4a/3x3_reduce <- pool3/3x3_s2_pool3/3x3_s2_0_split_1
I0403 16:02:14.649088 20657 net.cpp:399] inception_4a/3x3_reduce -> inception_4a/3x3_reduce
I0403 16:02:14.650374 20657 net.cpp:141] Setting up inception_4a/3x3_reduce
I0403 16:02:14.650405 20657 net.cpp:148] Top shape: 24 96 14 14 (451584)
I0403 16:02:14.650423 20657 net.cpp:156] Memory required for data: 863429664
I0403 16:02:14.650446 20657 layer_factory.hpp:77] Creating layer inception_4a/relu_3x3_reduce
I0403 16:02:14.650467 20657 net.cpp:91] Creating Layer inception_4a/relu_3x3_reduce
I0403 16:02:14.650485 20657 net.cpp:425] inception_4a/relu_3x3_reduce <- inception_4a/3x3_reduce
I0403 16:02:14.650503 20657 net.cpp:386] inception_4a/relu_3x3_reduce -> inception_4a/3x3_reduce (in-place)
I0403 16:02:14.650687 20657 net.cpp:141] Setting up inception_4a/relu_3x3_reduce
I0403 16:02:14.650717 20657 net.cpp:148] Top shape: 24 96 14 14 (451584)
I0403 16:02:14.650732 20657 net.cpp:156] Memory required for data: 865236000
I0403 16:02:14.650746 20657 layer_factory.hpp:77] Creating layer inception_4a/3x3
I0403 16:02:14.650768 20657 net.cpp:91] Creating Layer inception_4a/3x3
I0403 16:02:14.650784 20657 net.cpp:425] inception_4a/3x3 <- inception_4a/3x3_reduce
I0403 16:02:14.650805 20657 net.cpp:399] inception_4a/3x3 -> inception_4a/3x3
I0403 16:02:14.653483 20657 net.cpp:141] Setting up inception_4a/3x3
I0403 16:02:14.653517 20657 net.cpp:148] Top shape: 24 208 14 14 (978432)
I0403 16:02:14.653535 20657 net.cpp:156] Memory required for data: 869149728
I0403 16:02:14.653555 20657 layer_factory.hpp:77] Creating layer inception_4a/relu_3x3
I0403 16:02:14.653573 20657 net.cpp:91] Creating Layer inception_4a/relu_3x3
I0403 16:02:14.653590 20657 net.cpp:425] inception_4a/relu_3x3 <- inception_4a/3x3
I0403 16:02:14.653610 20657 net.cpp:386] inception_4a/relu_3x3 -> inception_4a/3x3 (in-place)
I0403 16:02:14.653890 20657 net.cpp:141] Setting up inception_4a/relu_3x3
I0403 16:02:14.653919 20657 net.cpp:148] Top shape: 24 208 14 14 (978432)
I0403 16:02:14.653937 20657 net.cpp:156] Memory required for data: 873063456
I0403 16:02:14.653952 20657 layer_factory.hpp:77] Creating layer inception_4a/5x5_reduce
I0403 16:02:14.653975 20657 net.cpp:91] Creating Layer inception_4a/5x5_reduce
I0403 16:02:14.654000 20657 net.cpp:425] inception_4a/5x5_reduce <- pool3/3x3_s2_pool3/3x3_s2_0_split_2
I0403 16:02:14.654022 20657 net.cpp:399] inception_4a/5x5_reduce -> inception_4a/5x5_reduce
I0403 16:02:14.655071 20657 net.cpp:141] Setting up inception_4a/5x5_reduce
I0403 16:02:14.655098 20657 net.cpp:148] Top shape: 24 16 14 14 (75264)
I0403 16:02:14.655114 20657 net.cpp:156] Memory required for data: 873364512
I0403 16:02:14.655133 20657 layer_factory.hpp:77] Creating layer inception_4a/relu_5x5_reduce
I0403 16:02:14.655154 20657 net.cpp:91] Creating Layer inception_4a/relu_5x5_reduce
I0403 16:02:14.655171 20657 net.cpp:425] inception_4a/relu_5x5_reduce <- inception_4a/5x5_reduce
I0403 16:02:14.655190 20657 net.cpp:386] inception_4a/relu_5x5_reduce -> inception_4a/5x5_reduce (in-place)
I0403 16:02:14.655372 20657 net.cpp:141] Setting up inception_4a/relu_5x5_reduce
I0403 16:02:14.655398 20657 net.cpp:148] Top shape: 24 16 14 14 (75264)
I0403 16:02:14.655414 20657 net.cpp:156] Memory required for data: 873665568
I0403 16:02:14.655429 20657 layer_factory.hpp:77] Creating layer inception_4a/5x5
I0403 16:02:14.655452 20657 net.cpp:91] Creating Layer inception_4a/5x5
I0403 16:02:14.655468 20657 net.cpp:425] inception_4a/5x5 <- inception_4a/5x5_reduce
I0403 16:02:14.655490 20657 net.cpp:399] inception_4a/5x5 -> inception_4a/5x5
I0403 16:02:14.656594 20657 net.cpp:141] Setting up inception_4a/5x5
I0403 16:02:14.656621 20657 net.cpp:148] Top shape: 24 48 14 14 (225792)
I0403 16:02:14.656637 20657 net.cpp:156] Memory required for data: 874568736
I0403 16:02:14.656656 20657 layer_factory.hpp:77] Creating layer inception_4a/relu_5x5
I0403 16:02:14.656677 20657 net.cpp:91] Creating Layer inception_4a/relu_5x5
I0403 16:02:14.656693 20657 net.cpp:425] inception_4a/relu_5x5 <- inception_4a/5x5
I0403 16:02:14.656711 20657 net.cpp:386] inception_4a/relu_5x5 -> inception_4a/5x5 (in-place)
I0403 16:02:14.656894 20657 net.cpp:141] Setting up inception_4a/relu_5x5
I0403 16:02:14.656924 20657 net.cpp:148] Top shape: 24 48 14 14 (225792)
I0403 16:02:14.656939 20657 net.cpp:156] Memory required for data: 875471904
I0403 16:02:14.656954 20657 layer_factory.hpp:77] Creating layer inception_4a/pool
I0403 16:02:14.656971 20657 net.cpp:91] Creating Layer inception_4a/pool
I0403 16:02:14.656991 20657 net.cpp:425] inception_4a/pool <- pool3/3x3_s2_pool3/3x3_s2_0_split_3
I0403 16:02:14.657012 20657 net.cpp:399] inception_4a/pool -> inception_4a/pool
I0403 16:02:14.657074 20657 net.cpp:141] Setting up inception_4a/pool
I0403 16:02:14.657099 20657 net.cpp:148] Top shape: 24 480 14 14 (2257920)
I0403 16:02:14.657114 20657 net.cpp:156] Memory required for data: 884503584
I0403 16:02:14.657127 20657 layer_factory.hpp:77] Creating layer inception_4a/pool_proj
I0403 16:02:14.657148 20657 net.cpp:91] Creating Layer inception_4a/pool_proj
I0403 16:02:14.657166 20657 net.cpp:425] inception_4a/pool_proj <- inception_4a/pool
I0403 16:02:14.657186 20657 net.cpp:399] inception_4a/pool_proj -> inception_4a/pool_proj
I0403 16:02:14.658375 20657 net.cpp:141] Setting up inception_4a/pool_proj
I0403 16:02:14.658411 20657 net.cpp:148] Top shape: 24 64 14 14 (301056)
I0403 16:02:14.658443 20657 net.cpp:156] Memory required for data: 885707808
I0403 16:02:14.658464 20657 layer_factory.hpp:77] Creating layer inception_4a/relu_pool_proj
I0403 16:02:14.658483 20657 net.cpp:91] Creating Layer inception_4a/relu_pool_proj
I0403 16:02:14.658500 20657 net.cpp:425] inception_4a/relu_pool_proj <- inception_4a/pool_proj
I0403 16:02:14.658519 20657 net.cpp:386] inception_4a/relu_pool_proj -> inception_4a/pool_proj (in-place)
I0403 16:02:14.658818 20657 net.cpp:141] Setting up inception_4a/relu_pool_proj
I0403 16:02:14.658849 20657 net.cpp:148] Top shape: 24 64 14 14 (301056)
I0403 16:02:14.658865 20657 net.cpp:156] Memory required for data: 886912032
I0403 16:02:14.658881 20657 layer_factory.hpp:77] Creating layer inception_4a/output
I0403 16:02:14.658898 20657 net.cpp:91] Creating Layer inception_4a/output
I0403 16:02:14.658915 20657 net.cpp:425] inception_4a/output <- inception_4a/1x1
I0403 16:02:14.658932 20657 net.cpp:425] inception_4a/output <- inception_4a/3x3
I0403 16:02:14.658948 20657 net.cpp:425] inception_4a/output <- inception_4a/5x5
I0403 16:02:14.658964 20657 net.cpp:425] inception_4a/output <- inception_4a/pool_proj
I0403 16:02:14.658982 20657 net.cpp:399] inception_4a/output -> inception_4a/output
I0403 16:02:14.659039 20657 net.cpp:141] Setting up inception_4a/output
I0403 16:02:14.659063 20657 net.cpp:148] Top shape: 24 512 14 14 (2408448)
I0403 16:02:14.659078 20657 net.cpp:156] Memory required for data: 896545824
I0403 16:02:14.659093 20657 layer_factory.hpp:77] Creating layer inception_4a/output_inception_4a/output_0_split
I0403 16:02:14.659112 20657 net.cpp:91] Creating Layer inception_4a/output_inception_4a/output_0_split
I0403 16:02:14.659128 20657 net.cpp:425] inception_4a/output_inception_4a/output_0_split <- inception_4a/output
I0403 16:02:14.659145 20657 net.cpp:399] inception_4a/output_inception_4a/output_0_split -> inception_4a/output_inception_4a/output_0_split_0
I0403 16:02:14.659165 20657 net.cpp:399] inception_4a/output_inception_4a/output_0_split -> inception_4a/output_inception_4a/output_0_split_1
I0403 16:02:14.659185 20657 net.cpp:399] inception_4a/output_inception_4a/output_0_split -> inception_4a/output_inception_4a/output_0_split_2
I0403 16:02:14.659205 20657 net.cpp:399] inception_4a/output_inception_4a/output_0_split -> inception_4a/output_inception_4a/output_0_split_3
I0403 16:02:14.659229 20657 net.cpp:399] inception_4a/output_inception_4a/output_0_split -> inception_4a/output_inception_4a/output_0_split_4
I0403 16:02:14.659323 20657 net.cpp:141] Setting up inception_4a/output_inception_4a/output_0_split
I0403 16:02:14.659348 20657 net.cpp:148] Top shape: 24 512 14 14 (2408448)
I0403 16:02:14.659363 20657 net.cpp:148] Top shape: 24 512 14 14 (2408448)
I0403 16:02:14.659379 20657 net.cpp:148] Top shape: 24 512 14 14 (2408448)
I0403 16:02:14.659394 20657 net.cpp:148] Top shape: 24 512 14 14 (2408448)
I0403 16:02:14.659409 20657 net.cpp:148] Top shape: 24 512 14 14 (2408448)
I0403 16:02:14.659422 20657 net.cpp:156] Memory required for data: 944714784
I0403 16:02:14.659437 20657 layer_factory.hpp:77] Creating layer loss1/ave_pool
I0403 16:02:14.659453 20657 net.cpp:91] Creating Layer loss1/ave_pool
I0403 16:02:14.659469 20657 net.cpp:425] loss1/ave_pool <- inception_4a/output_inception_4a/output_0_split_0
I0403 16:02:14.659489 20657 net.cpp:399] loss1/ave_pool -> loss1/ave_pool
I0403 16:02:14.659703 20657 net.cpp:141] Setting up loss1/ave_pool
I0403 16:02:14.659730 20657 net.cpp:148] Top shape: 24 512 4 4 (196608)
I0403 16:02:14.659746 20657 net.cpp:156] Memory required for data: 945501216
I0403 16:02:14.659761 20657 layer_factory.hpp:77] Creating layer loss1/conv
I0403 16:02:14.659782 20657 net.cpp:91] Creating Layer loss1/conv
I0403 16:02:14.659801 20657 net.cpp:425] loss1/conv <- loss1/ave_pool
I0403 16:02:14.659818 20657 net.cpp:399] loss1/conv -> loss1/conv
I0403 16:02:14.661267 20657 net.cpp:141] Setting up loss1/conv
I0403 16:02:14.661296 20657 net.cpp:148] Top shape: 24 128 4 4 (49152)
I0403 16:02:14.661314 20657 net.cpp:156] Memory required for data: 945697824
I0403 16:02:14.661348 20657 layer_factory.hpp:77] Creating layer loss1/relu_conv
I0403 16:02:14.661367 20657 net.cpp:91] Creating Layer loss1/relu_conv
I0403 16:02:14.661384 20657 net.cpp:425] loss1/relu_conv <- loss1/conv
I0403 16:02:14.661406 20657 net.cpp:386] loss1/relu_conv -> loss1/conv (in-place)
I0403 16:02:14.661691 20657 net.cpp:141] Setting up loss1/relu_conv
I0403 16:02:14.661720 20657 net.cpp:148] Top shape: 24 128 4 4 (49152)
I0403 16:02:14.661736 20657 net.cpp:156] Memory required for data: 945894432
I0403 16:02:14.661751 20657 layer_factory.hpp:77] Creating layer loss1/fc
I0403 16:02:14.661774 20657 net.cpp:91] Creating Layer loss1/fc
I0403 16:02:14.661793 20657 net.cpp:425] loss1/fc <- loss1/conv
I0403 16:02:14.661814 20657 net.cpp:399] loss1/fc -> loss1/fc
I0403 16:02:14.679512 20657 net.cpp:141] Setting up loss1/fc
I0403 16:02:14.679565 20657 net.cpp:148] Top shape: 24 1024 (24576)
I0403 16:02:14.679582 20657 net.cpp:156] Memory required for data: 945992736
I0403 16:02:14.679602 20657 layer_factory.hpp:77] Creating layer loss1/relu_fc
I0403 16:02:14.679625 20657 net.cpp:91] Creating Layer loss1/relu_fc
I0403 16:02:14.679643 20657 net.cpp:425] loss1/relu_fc <- loss1/fc
I0403 16:02:14.679661 20657 net.cpp:386] loss1/relu_fc -> loss1/fc (in-place)
I0403 16:02:14.679877 20657 net.cpp:141] Setting up loss1/relu_fc
I0403 16:02:14.679903 20657 net.cpp:148] Top shape: 24 1024 (24576)
I0403 16:02:14.679919 20657 net.cpp:156] Memory required for data: 946091040
I0403 16:02:14.679934 20657 layer_factory.hpp:77] Creating layer loss1/drop_fc
I0403 16:02:14.679962 20657 net.cpp:91] Creating Layer loss1/drop_fc
I0403 16:02:14.679980 20657 net.cpp:425] loss1/drop_fc <- loss1/fc
I0403 16:02:14.680004 20657 net.cpp:386] loss1/drop_fc -> loss1/fc (in-place)
I0403 16:02:14.680058 20657 net.cpp:141] Setting up loss1/drop_fc
I0403 16:02:14.680080 20657 net.cpp:148] Top shape: 24 1024 (24576)
I0403 16:02:14.680095 20657 net.cpp:156] Memory required for data: 946189344
I0403 16:02:14.680110 20657 layer_factory.hpp:77] Creating layer loss1/classifier_plantvillage
I0403 16:02:14.680133 20657 net.cpp:91] Creating Layer loss1/classifier_plantvillage
I0403 16:02:14.680150 20657 net.cpp:425] loss1/classifier_plantvillage <- loss1/fc
I0403 16:02:14.680169 20657 net.cpp:399] loss1/classifier_plantvillage -> loss1/classifier_plantvillage
I0403 16:02:14.681094 20657 net.cpp:141] Setting up loss1/classifier_plantvillage
I0403 16:02:14.681126 20657 net.cpp:148] Top shape: 24 38 (912)
I0403 16:02:14.681143 20657 net.cpp:156] Memory required for data: 946192992
I0403 16:02:14.681160 20657 layer_factory.hpp:77] Creating layer loss1/classifier_plantvillage_loss1/classifier_plantvillage_0_split
I0403 16:02:14.681179 20657 net.cpp:91] Creating Layer loss1/classifier_plantvillage_loss1/classifier_plantvillage_0_split
I0403 16:02:14.681193 20657 net.cpp:425] loss1/classifier_plantvillage_loss1/classifier_plantvillage_0_split <- loss1/classifier_plantvillage
I0403 16:02:14.681215 20657 net.cpp:399] loss1/classifier_plantvillage_loss1/classifier_plantvillage_0_split -> loss1/classifier_plantvillage_loss1/classifier_plantvillage_0_split_0
I0403 16:02:14.681236 20657 net.cpp:399] loss1/classifier_plantvillage_loss1/classifier_plantvillage_0_split -> loss1/classifier_plantvillage_loss1/classifier_plantvillage_0_split_1
I0403 16:02:14.681255 20657 net.cpp:399] loss1/classifier_plantvillage_loss1/classifier_plantvillage_0_split -> loss1/classifier_plantvillage_loss1/classifier_plantvillage_0_split_2
I0403 16:02:14.681323 20657 net.cpp:141] Setting up loss1/classifier_plantvillage_loss1/classifier_plantvillage_0_split
I0403 16:02:14.681346 20657 net.cpp:148] Top shape: 24 38 (912)
I0403 16:02:14.681362 20657 net.cpp:148] Top shape: 24 38 (912)
I0403 16:02:14.681377 20657 net.cpp:148] Top shape: 24 38 (912)
I0403 16:02:14.681403 20657 net.cpp:156] Memory required for data: 946203936
I0403 16:02:14.681416 20657 layer_factory.hpp:77] Creating layer inception_4b/1x1
I0403 16:02:14.681439 20657 net.cpp:91] Creating Layer inception_4b/1x1
I0403 16:02:14.681476 20657 net.cpp:425] inception_4b/1x1 <- inception_4a/output_inception_4a/output_0_split_1
I0403 16:02:14.681495 20657 net.cpp:399] inception_4b/1x1 -> inception_4b/1x1
I0403 16:02:14.683158 20657 net.cpp:141] Setting up inception_4b/1x1
I0403 16:02:14.683187 20657 net.cpp:148] Top shape: 24 160 14 14 (752640)
I0403 16:02:14.683202 20657 net.cpp:156] Memory required for data: 949214496
I0403 16:02:14.683223 20657 layer_factory.hpp:77] Creating layer inception_4b/relu_1x1
I0403 16:02:14.683239 20657 net.cpp:91] Creating Layer inception_4b/relu_1x1
I0403 16:02:14.683259 20657 net.cpp:425] inception_4b/relu_1x1 <- inception_4b/1x1
I0403 16:02:14.683275 20657 net.cpp:386] inception_4b/relu_1x1 -> inception_4b/1x1 (in-place)
I0403 16:02:14.683454 20657 net.cpp:141] Setting up inception_4b/relu_1x1
I0403 16:02:14.683480 20657 net.cpp:148] Top shape: 24 160 14 14 (752640)
I0403 16:02:14.683493 20657 net.cpp:156] Memory required for data: 952225056
I0403 16:02:14.683507 20657 layer_factory.hpp:77] Creating layer inception_4b/3x3_reduce
I0403 16:02:14.683528 20657 net.cpp:91] Creating Layer inception_4b/3x3_reduce
I0403 16:02:14.683545 20657 net.cpp:425] inception_4b/3x3_reduce <- inception_4a/output_inception_4a/output_0_split_2
I0403 16:02:14.683565 20657 net.cpp:399] inception_4b/3x3_reduce -> inception_4b/3x3_reduce
I0403 16:02:14.684911 20657 net.cpp:141] Setting up inception_4b/3x3_reduce
I0403 16:02:14.684937 20657 net.cpp:148] Top shape: 24 112 14 14 (526848)
I0403 16:02:14.684953 20657 net.cpp:156] Memory required for data: 954332448
I0403 16:02:14.684973 20657 layer_factory.hpp:77] Creating layer inception_4b/relu_3x3_reduce
I0403 16:02:14.684995 20657 net.cpp:91] Creating Layer inception_4b/relu_3x3_reduce
I0403 16:02:14.685014 20657 net.cpp:425] inception_4b/relu_3x3_reduce <- inception_4b/3x3_reduce
I0403 16:02:14.685031 20657 net.cpp:386] inception_4b/relu_3x3_reduce -> inception_4b/3x3_reduce (in-place)
I0403 16:02:14.685315 20657 net.cpp:141] Setting up inception_4b/relu_3x3_reduce
I0403 16:02:14.685341 20657 net.cpp:148] Top shape: 24 112 14 14 (526848)
I0403 16:02:14.685355 20657 net.cpp:156] Memory required for data: 956439840
I0403 16:02:14.685369 20657 layer_factory.hpp:77] Creating layer inception_4b/3x3
I0403 16:02:14.685391 20657 net.cpp:91] Creating Layer inception_4b/3x3
I0403 16:02:14.685408 20657 net.cpp:425] inception_4b/3x3 <- inception_4b/3x3_reduce
I0403 16:02:14.685428 20657 net.cpp:399] inception_4b/3x3 -> inception_4b/3x3
I0403 16:02:14.688338 20657 net.cpp:141] Setting up inception_4b/3x3
I0403 16:02:14.688369 20657 net.cpp:148] Top shape: 24 224 14 14 (1053696)
I0403 16:02:14.688385 20657 net.cpp:156] Memory required for data: 960654624
I0403 16:02:14.688403 20657 layer_factory.hpp:77] Creating layer inception_4b/relu_3x3
I0403 16:02:14.688421 20657 net.cpp:91] Creating Layer inception_4b/relu_3x3
I0403 16:02:14.688436 20657 net.cpp:425] inception_4b/relu_3x3 <- inception_4b/3x3
I0403 16:02:14.688455 20657 net.cpp:386] inception_4b/relu_3x3 -> inception_4b/3x3 (in-place)
I0403 16:02:14.688635 20657 net.cpp:141] Setting up inception_4b/relu_3x3
I0403 16:02:14.688659 20657 net.cpp:148] Top shape: 24 224 14 14 (1053696)
I0403 16:02:14.688674 20657 net.cpp:156] Memory required for data: 964869408
I0403 16:02:14.688688 20657 layer_factory.hpp:77] Creating layer inception_4b/5x5_reduce
I0403 16:02:14.688709 20657 net.cpp:91] Creating Layer inception_4b/5x5_reduce
I0403 16:02:14.688725 20657 net.cpp:425] inception_4b/5x5_reduce <- inception_4a/output_inception_4a/output_0_split_3
I0403 16:02:14.688747 20657 net.cpp:399] inception_4b/5x5_reduce -> inception_4b/5x5_reduce
I0403 16:02:14.689847 20657 net.cpp:141] Setting up inception_4b/5x5_reduce
I0403 16:02:14.689877 20657 net.cpp:148] Top shape: 24 24 14 14 (112896)
I0403 16:02:14.689893 20657 net.cpp:156] Memory required for data: 965320992
I0403 16:02:14.689911 20657 layer_factory.hpp:77] Creating layer inception_4b/relu_5x5_reduce
I0403 16:02:14.689932 20657 net.cpp:91] Creating Layer inception_4b/relu_5x5_reduce
I0403 16:02:14.689962 20657 net.cpp:425] inception_4b/relu_5x5_reduce <- inception_4b/5x5_reduce
I0403 16:02:14.689981 20657 net.cpp:386] inception_4b/relu_5x5_reduce -> inception_4b/5x5_reduce (in-place)
I0403 16:02:14.690184 20657 net.cpp:141] Setting up inception_4b/relu_5x5_reduce
I0403 16:02:14.690208 20657 net.cpp:148] Top shape: 24 24 14 14 (112896)
I0403 16:02:14.690223 20657 net.cpp:156] Memory required for data: 965772576
I0403 16:02:14.690237 20657 layer_factory.hpp:77] Creating layer inception_4b/5x5
I0403 16:02:14.690270 20657 net.cpp:91] Creating Layer inception_4b/5x5
I0403 16:02:14.690287 20657 net.cpp:425] inception_4b/5x5 <- inception_4b/5x5_reduce
I0403 16:02:14.690309 20657 net.cpp:399] inception_4b/5x5 -> inception_4b/5x5
I0403 16:02:14.691550 20657 net.cpp:141] Setting up inception_4b/5x5
I0403 16:02:14.691581 20657 net.cpp:148] Top shape: 24 64 14 14 (301056)
I0403 16:02:14.691596 20657 net.cpp:156] Memory required for data: 966976800
I0403 16:02:14.691615 20657 layer_factory.hpp:77] Creating layer inception_4b/relu_5x5
I0403 16:02:14.691633 20657 net.cpp:91] Creating Layer inception_4b/relu_5x5
I0403 16:02:14.691681 20657 net.cpp:425] inception_4b/relu_5x5 <- inception_4b/5x5
I0403 16:02:14.691701 20657 net.cpp:386] inception_4b/relu_5x5 -> inception_4b/5x5 (in-place)
I0403 16:02:14.692013 20657 net.cpp:141] Setting up inception_4b/relu_5x5
I0403 16:02:14.692040 20657 net.cpp:148] Top shape: 24 64 14 14 (301056)
I0403 16:02:14.692056 20657 net.cpp:156] Memory required for data: 968181024
I0403 16:02:14.692072 20657 layer_factory.hpp:77] Creating layer inception_4b/pool
I0403 16:02:14.692091 20657 net.cpp:91] Creating Layer inception_4b/pool
I0403 16:02:14.692107 20657 net.cpp:425] inception_4b/pool <- inception_4a/output_inception_4a/output_0_split_4
I0403 16:02:14.692128 20657 net.cpp:399] inception_4b/pool -> inception_4b/pool
I0403 16:02:14.692194 20657 net.cpp:141] Setting up inception_4b/pool
I0403 16:02:14.692224 20657 net.cpp:148] Top shape: 24 512 14 14 (2408448)
I0403 16:02:14.692239 20657 net.cpp:156] Memory required for data: 977814816
I0403 16:02:14.692255 20657 layer_factory.hpp:77] Creating layer inception_4b/pool_proj
I0403 16:02:14.692276 20657 net.cpp:91] Creating Layer inception_4b/pool_proj
I0403 16:02:14.692294 20657 net.cpp:425] inception_4b/pool_proj <- inception_4b/pool
I0403 16:02:14.692314 20657 net.cpp:399] inception_4b/pool_proj -> inception_4b/pool_proj
I0403 16:02:14.693567 20657 net.cpp:141] Setting up inception_4b/pool_proj
I0403 16:02:14.693594 20657 net.cpp:148] Top shape: 24 64 14 14 (301056)
I0403 16:02:14.693608 20657 net.cpp:156] Memory required for data: 979019040
I0403 16:02:14.693626 20657 layer_factory.hpp:77] Creating layer inception_4b/relu_pool_proj
I0403 16:02:14.693645 20657 net.cpp:91] Creating Layer inception_4b/relu_pool_proj
I0403 16:02:14.693661 20657 net.cpp:425] inception_4b/relu_pool_proj <- inception_4b/pool_proj
I0403 16:02:14.693678 20657 net.cpp:386] inception_4b/relu_pool_proj -> inception_4b/pool_proj (in-place)
I0403 16:02:14.693857 20657 net.cpp:141] Setting up inception_4b/relu_pool_proj
I0403 16:02:14.693882 20657 net.cpp:148] Top shape: 24 64 14 14 (301056)
I0403 16:02:14.693897 20657 net.cpp:156] Memory required for data: 980223264
I0403 16:02:14.693910 20657 layer_factory.hpp:77] Creating layer inception_4b/output
I0403 16:02:14.693929 20657 net.cpp:91] Creating Layer inception_4b/output
I0403 16:02:14.693946 20657 net.cpp:425] inception_4b/output <- inception_4b/1x1
I0403 16:02:14.693961 20657 net.cpp:425] inception_4b/output <- inception_4b/3x3
I0403 16:02:14.693976 20657 net.cpp:425] inception_4b/output <- inception_4b/5x5
I0403 16:02:14.693997 20657 net.cpp:425] inception_4b/output <- inception_4b/pool_proj
I0403 16:02:14.694016 20657 net.cpp:399] inception_4b/output -> inception_4b/output
I0403 16:02:14.694062 20657 net.cpp:141] Setting up inception_4b/output
I0403 16:02:14.694085 20657 net.cpp:148] Top shape: 24 512 14 14 (2408448)
I0403 16:02:14.694099 20657 net.cpp:156] Memory required for data: 989857056
I0403 16:02:14.694126 20657 layer_factory.hpp:77] Creating layer inception_4b/output_inception_4b/output_0_split
I0403 16:02:14.694144 20657 net.cpp:91] Creating Layer inception_4b/output_inception_4b/output_0_split
I0403 16:02:14.694159 20657 net.cpp:425] inception_4b/output_inception_4b/output_0_split <- inception_4b/output
I0403 16:02:14.694177 20657 net.cpp:399] inception_4b/output_inception_4b/output_0_split -> inception_4b/output_inception_4b/output_0_split_0
I0403 16:02:14.694197 20657 net.cpp:399] inception_4b/output_inception_4b/output_0_split -> inception_4b/output_inception_4b/output_0_split_1
I0403 16:02:14.694218 20657 net.cpp:399] inception_4b/output_inception_4b/output_0_split -> inception_4b/output_inception_4b/output_0_split_2
I0403 16:02:14.694237 20657 net.cpp:399] inception_4b/output_inception_4b/output_0_split -> inception_4b/output_inception_4b/output_0_split_3
I0403 16:02:14.694319 20657 net.cpp:141] Setting up inception_4b/output_inception_4b/output_0_split
I0403 16:02:14.694344 20657 net.cpp:148] Top shape: 24 512 14 14 (2408448)
I0403 16:02:14.694361 20657 net.cpp:148] Top shape: 24 512 14 14 (2408448)
I0403 16:02:14.694375 20657 net.cpp:148] Top shape: 24 512 14 14 (2408448)
I0403 16:02:14.694391 20657 net.cpp:148] Top shape: 24 512 14 14 (2408448)
I0403 16:02:14.694403 20657 net.cpp:156] Memory required for data: 1028392224
I0403 16:02:14.694416 20657 layer_factory.hpp:77] Creating layer inception_4c/1x1
I0403 16:02:14.694437 20657 net.cpp:91] Creating Layer inception_4c/1x1
I0403 16:02:14.694454 20657 net.cpp:425] inception_4c/1x1 <- inception_4b/output_inception_4b/output_0_split_0
I0403 16:02:14.694471 20657 net.cpp:399] inception_4c/1x1 -> inception_4c/1x1
I0403 16:02:14.695895 20657 net.cpp:141] Setting up inception_4c/1x1
I0403 16:02:14.695924 20657 net.cpp:148] Top shape: 24 128 14 14 (602112)
I0403 16:02:14.695940 20657 net.cpp:156] Memory required for data: 1030800672
I0403 16:02:14.695958 20657 layer_factory.hpp:77] Creating layer inception_4c/relu_1x1
I0403 16:02:14.695978 20657 net.cpp:91] Creating Layer inception_4c/relu_1x1
I0403 16:02:14.696001 20657 net.cpp:425] inception_4c/relu_1x1 <- inception_4c/1x1
I0403 16:02:14.696017 20657 net.cpp:386] inception_4c/relu_1x1 -> inception_4c/1x1 (in-place)
I0403 16:02:14.696200 20657 net.cpp:141] Setting up inception_4c/relu_1x1
I0403 16:02:14.696224 20657 net.cpp:148] Top shape: 24 128 14 14 (602112)
I0403 16:02:14.696238 20657 net.cpp:156] Memory required for data: 1033209120
I0403 16:02:14.696254 20657 layer_factory.hpp:77] Creating layer inception_4c/3x3_reduce
I0403 16:02:14.696274 20657 net.cpp:91] Creating Layer inception_4c/3x3_reduce
I0403 16:02:14.696290 20657 net.cpp:425] inception_4c/3x3_reduce <- inception_4b/output_inception_4b/output_0_split_1
I0403 16:02:14.696311 20657 net.cpp:399] inception_4c/3x3_reduce -> inception_4c/3x3_reduce
I0403 16:02:14.698215 20657 net.cpp:141] Setting up inception_4c/3x3_reduce
I0403 16:02:14.698245 20657 net.cpp:148] Top shape: 24 128 14 14 (602112)
I0403 16:02:14.698261 20657 net.cpp:156] Memory required for data: 1035617568
I0403 16:02:14.698282 20657 layer_factory.hpp:77] Creating layer inception_4c/relu_3x3_reduce
I0403 16:02:14.698299 20657 net.cpp:91] Creating Layer inception_4c/relu_3x3_reduce
I0403 16:02:14.698315 20657 net.cpp:425] inception_4c/relu_3x3_reduce <- inception_4c/3x3_reduce
I0403 16:02:14.698334 20657 net.cpp:386] inception_4c/relu_3x3_reduce -> inception_4c/3x3_reduce (in-place)
I0403 16:02:14.698624 20657 net.cpp:141] Setting up inception_4c/relu_3x3_reduce
I0403 16:02:14.698650 20657 net.cpp:148] Top shape: 24 128 14 14 (602112)
I0403 16:02:14.698664 20657 net.cpp:156] Memory required for data: 1038026016
I0403 16:02:14.698678 20657 layer_factory.hpp:77] Creating layer inception_4c/3x3
I0403 16:02:14.698701 20657 net.cpp:91] Creating Layer inception_4c/3x3
I0403 16:02:14.698719 20657 net.cpp:425] inception_4c/3x3 <- inception_4c/3x3_reduce
I0403 16:02:14.698740 20657 net.cpp:399] inception_4c/3x3 -> inception_4c/3x3
I0403 16:02:14.702276 20657 net.cpp:141] Setting up inception_4c/3x3
I0403 16:02:14.702317 20657 net.cpp:148] Top shape: 24 256 14 14 (1204224)
I0403 16:02:14.702333 20657 net.cpp:156] Memory required for data: 1042842912
I0403 16:02:14.702366 20657 layer_factory.hpp:77] Creating layer inception_4c/relu_3x3
I0403 16:02:14.702389 20657 net.cpp:91] Creating Layer inception_4c/relu_3x3
I0403 16:02:14.702404 20657 net.cpp:425] inception_4c/relu_3x3 <- inception_4c/3x3
I0403 16:02:14.702421 20657 net.cpp:386] inception_4c/relu_3x3 -> inception_4c/3x3 (in-place)
I0403 16:02:14.702600 20657 net.cpp:141] Setting up inception_4c/relu_3x3
I0403 16:02:14.702625 20657 net.cpp:148] Top shape: 24 256 14 14 (1204224)
I0403 16:02:14.702638 20657 net.cpp:156] Memory required for data: 1047659808
I0403 16:02:14.702652 20657 layer_factory.hpp:77] Creating layer inception_4c/5x5_reduce
I0403 16:02:14.702675 20657 net.cpp:91] Creating Layer inception_4c/5x5_reduce
I0403 16:02:14.702692 20657 net.cpp:425] inception_4c/5x5_reduce <- inception_4b/output_inception_4b/output_0_split_2
I0403 16:02:14.702713 20657 net.cpp:399] inception_4c/5x5_reduce -> inception_4c/5x5_reduce
I0403 16:02:14.703790 20657 net.cpp:141] Setting up inception_4c/5x5_reduce
I0403 16:02:14.703819 20657 net.cpp:148] Top shape: 24 24 14 14 (112896)
I0403 16:02:14.703835 20657 net.cpp:156] Memory required for data: 1048111392
I0403 16:02:14.703853 20657 layer_factory.hpp:77] Creating layer inception_4c/relu_5x5_reduce
I0403 16:02:14.703871 20657 net.cpp:91] Creating Layer inception_4c/relu_5x5_reduce
I0403 16:02:14.703887 20657 net.cpp:425] inception_4c/relu_5x5_reduce <- inception_4c/5x5_reduce
I0403 16:02:14.703907 20657 net.cpp:386] inception_4c/relu_5x5_reduce -> inception_4c/5x5_reduce (in-place)
I0403 16:02:14.704097 20657 net.cpp:141] Setting up inception_4c/relu_5x5_reduce
I0403 16:02:14.704123 20657 net.cpp:148] Top shape: 24 24 14 14 (112896)
I0403 16:02:14.704135 20657 net.cpp:156] Memory required for data: 1048562976
I0403 16:02:14.704150 20657 layer_factory.hpp:77] Creating layer inception_4c/5x5
I0403 16:02:14.704171 20657 net.cpp:91] Creating Layer inception_4c/5x5
I0403 16:02:14.704188 20657 net.cpp:425] inception_4c/5x5 <- inception_4c/5x5_reduce
I0403 16:02:14.704207 20657 net.cpp:399] inception_4c/5x5 -> inception_4c/5x5
I0403 16:02:14.705435 20657 net.cpp:141] Setting up inception_4c/5x5
I0403 16:02:14.705464 20657 net.cpp:148] Top shape: 24 64 14 14 (301056)
I0403 16:02:14.705481 20657 net.cpp:156] Memory required for data: 1049767200
I0403 16:02:14.705498 20657 layer_factory.hpp:77] Creating layer inception_4c/relu_5x5
I0403 16:02:14.705518 20657 net.cpp:91] Creating Layer inception_4c/relu_5x5
I0403 16:02:14.705534 20657 net.cpp:425] inception_4c/relu_5x5 <- inception_4c/5x5
I0403 16:02:14.705551 20657 net.cpp:386] inception_4c/relu_5x5 -> inception_4c/5x5 (in-place)
I0403 16:02:14.705835 20657 net.cpp:141] Setting up inception_4c/relu_5x5
I0403 16:02:14.705862 20657 net.cpp:148] Top shape: 24 64 14 14 (301056)
I0403 16:02:14.705876 20657 net.cpp:156] Memory required for data: 1050971424
I0403 16:02:14.705890 20657 layer_factory.hpp:77] Creating layer inception_4c/pool
I0403 16:02:14.705910 20657 net.cpp:91] Creating Layer inception_4c/pool
I0403 16:02:14.705926 20657 net.cpp:425] inception_4c/pool <- inception_4b/output_inception_4b/output_0_split_3
I0403 16:02:14.705945 20657 net.cpp:399] inception_4c/pool -> inception_4c/pool
I0403 16:02:14.706015 20657 net.cpp:141] Setting up inception_4c/pool
I0403 16:02:14.706038 20657 net.cpp:148] Top shape: 24 512 14 14 (2408448)
I0403 16:02:14.706053 20657 net.cpp:156] Memory required for data: 1060605216
I0403 16:02:14.706068 20657 layer_factory.hpp:77] Creating layer inception_4c/pool_proj
I0403 16:02:14.706089 20657 net.cpp:91] Creating Layer inception_4c/pool_proj
I0403 16:02:14.706106 20657 net.cpp:425] inception_4c/pool_proj <- inception_4c/pool
I0403 16:02:14.706125 20657 net.cpp:399] inception_4c/pool_proj -> inception_4c/pool_proj
I0403 16:02:14.707334 20657 net.cpp:141] Setting up inception_4c/pool_proj
I0403 16:02:14.707362 20657 net.cpp:148] Top shape: 24 64 14 14 (301056)
I0403 16:02:14.707392 20657 net.cpp:156] Memory required for data: 1061809440
I0403 16:02:14.707412 20657 layer_factory.hpp:77] Creating layer inception_4c/relu_pool_proj
I0403 16:02:14.707430 20657 net.cpp:91] Creating Layer inception_4c/relu_pool_proj
I0403 16:02:14.707447 20657 net.cpp:425] inception_4c/relu_pool_proj <- inception_4c/pool_proj
I0403 16:02:14.707463 20657 net.cpp:386] inception_4c/relu_pool_proj -> inception_4c/pool_proj (in-place)
I0403 16:02:14.707643 20657 net.cpp:141] Setting up inception_4c/relu_pool_proj
I0403 16:02:14.707667 20657 net.cpp:148] Top shape: 24 64 14 14 (301056)
I0403 16:02:14.707681 20657 net.cpp:156] Memory required for data: 1063013664
I0403 16:02:14.707695 20657 layer_factory.hpp:77] Creating layer inception_4c/output
I0403 16:02:14.707715 20657 net.cpp:91] Creating Layer inception_4c/output
I0403 16:02:14.707731 20657 net.cpp:425] inception_4c/output <- inception_4c/1x1
I0403 16:02:14.707746 20657 net.cpp:425] inception_4c/output <- inception_4c/3x3
I0403 16:02:14.707762 20657 net.cpp:425] inception_4c/output <- inception_4c/5x5
I0403 16:02:14.707777 20657 net.cpp:425] inception_4c/output <- inception_4c/pool_proj
I0403 16:02:14.707793 20657 net.cpp:399] inception_4c/output -> inception_4c/output
I0403 16:02:14.707840 20657 net.cpp:141] Setting up inception_4c/output
I0403 16:02:14.707864 20657 net.cpp:148] Top shape: 24 512 14 14 (2408448)
I0403 16:02:14.707876 20657 net.cpp:156] Memory required for data: 1072647456
I0403 16:02:14.707891 20657 layer_factory.hpp:77] Creating layer inception_4c/output_inception_4c/output_0_split
I0403 16:02:14.707907 20657 net.cpp:91] Creating Layer inception_4c/output_inception_4c/output_0_split
I0403 16:02:14.707922 20657 net.cpp:425] inception_4c/output_inception_4c/output_0_split <- inception_4c/output
I0403 16:02:14.707942 20657 net.cpp:399] inception_4c/output_inception_4c/output_0_split -> inception_4c/output_inception_4c/output_0_split_0
I0403 16:02:14.707962 20657 net.cpp:399] inception_4c/output_inception_4c/output_0_split -> inception_4c/output_inception_4c/output_0_split_1
I0403 16:02:14.707980 20657 net.cpp:399] inception_4c/output_inception_4c/output_0_split -> inception_4c/output_inception_4c/output_0_split_2
I0403 16:02:14.708006 20657 net.cpp:399] inception_4c/output_inception_4c/output_0_split -> inception_4c/output_inception_4c/output_0_split_3
I0403 16:02:14.708092 20657 net.cpp:141] Setting up inception_4c/output_inception_4c/output_0_split
I0403 16:02:14.708117 20657 net.cpp:148] Top shape: 24 512 14 14 (2408448)
I0403 16:02:14.708133 20657 net.cpp:148] Top shape: 24 512 14 14 (2408448)
I0403 16:02:14.708148 20657 net.cpp:148] Top shape: 24 512 14 14 (2408448)
I0403 16:02:14.708163 20657 net.cpp:148] Top shape: 24 512 14 14 (2408448)
I0403 16:02:14.708176 20657 net.cpp:156] Memory required for data: 1111182624
I0403 16:02:14.708190 20657 layer_factory.hpp:77] Creating layer inception_4d/1x1
I0403 16:02:14.708212 20657 net.cpp:91] Creating Layer inception_4d/1x1
I0403 16:02:14.708230 20657 net.cpp:425] inception_4d/1x1 <- inception_4c/output_inception_4c/output_0_split_0
I0403 16:02:14.708247 20657 net.cpp:399] inception_4d/1x1 -> inception_4d/1x1
I0403 16:02:14.709609 20657 net.cpp:141] Setting up inception_4d/1x1
I0403 16:02:14.709640 20657 net.cpp:148] Top shape: 24 112 14 14 (526848)
I0403 16:02:14.709657 20657 net.cpp:156] Memory required for data: 1113290016
I0403 16:02:14.709676 20657 layer_factory.hpp:77] Creating layer inception_4d/relu_1x1
I0403 16:02:14.709695 20657 net.cpp:91] Creating Layer inception_4d/relu_1x1
I0403 16:02:14.709712 20657 net.cpp:425] inception_4d/relu_1x1 <- inception_4d/1x1
I0403 16:02:14.709730 20657 net.cpp:386] inception_4d/relu_1x1 -> inception_4d/1x1 (in-place)
I0403 16:02:14.709916 20657 net.cpp:141] Setting up inception_4d/relu_1x1
I0403 16:02:14.709940 20657 net.cpp:148] Top shape: 24 112 14 14 (526848)
I0403 16:02:14.709954 20657 net.cpp:156] Memory required for data: 1115397408
I0403 16:02:14.709969 20657 layer_factory.hpp:77] Creating layer inception_4d/3x3_reduce
I0403 16:02:14.710007 20657 net.cpp:91] Creating Layer inception_4d/3x3_reduce
I0403 16:02:14.710026 20657 net.cpp:425] inception_4d/3x3_reduce <- inception_4c/output_inception_4c/output_0_split_1
I0403 16:02:14.710047 20657 net.cpp:399] inception_4d/3x3_reduce -> inception_4d/3x3_reduce
I0403 16:02:14.711532 20657 net.cpp:141] Setting up inception_4d/3x3_reduce
I0403 16:02:14.711561 20657 net.cpp:148] Top shape: 24 144 14 14 (677376)
I0403 16:02:14.711581 20657 net.cpp:156] Memory required for data: 1118106912
I0403 16:02:14.711599 20657 layer_factory.hpp:77] Creating layer inception_4d/relu_3x3_reduce
I0403 16:02:14.711618 20657 net.cpp:91] Creating Layer inception_4d/relu_3x3_reduce
I0403 16:02:14.711634 20657 net.cpp:425] inception_4d/relu_3x3_reduce <- inception_4d/3x3_reduce
I0403 16:02:14.711652 20657 net.cpp:386] inception_4d/relu_3x3_reduce -> inception_4d/3x3_reduce (in-place)
I0403 16:02:14.711951 20657 net.cpp:141] Setting up inception_4d/relu_3x3_reduce
I0403 16:02:14.711980 20657 net.cpp:148] Top shape: 24 144 14 14 (677376)
I0403 16:02:14.712003 20657 net.cpp:156] Memory required for data: 1120816416
I0403 16:02:14.712018 20657 layer_factory.hpp:77] Creating layer inception_4d/3x3
I0403 16:02:14.712038 20657 net.cpp:91] Creating Layer inception_4d/3x3
I0403 16:02:14.712055 20657 net.cpp:425] inception_4d/3x3 <- inception_4d/3x3_reduce
I0403 16:02:14.712076 20657 net.cpp:399] inception_4d/3x3 -> inception_4d/3x3
I0403 16:02:14.716303 20657 net.cpp:141] Setting up inception_4d/3x3
I0403 16:02:14.716334 20657 net.cpp:148] Top shape: 24 288 14 14 (1354752)
I0403 16:02:14.716349 20657 net.cpp:156] Memory required for data: 1126235424
I0403 16:02:14.716367 20657 layer_factory.hpp:77] Creating layer inception_4d/relu_3x3
I0403 16:02:14.716385 20657 net.cpp:91] Creating Layer inception_4d/relu_3x3
I0403 16:02:14.716401 20657 net.cpp:425] inception_4d/relu_3x3 <- inception_4d/3x3
I0403 16:02:14.716419 20657 net.cpp:386] inception_4d/relu_3x3 -> inception_4d/3x3 (in-place)
I0403 16:02:14.716604 20657 net.cpp:141] Setting up inception_4d/relu_3x3
I0403 16:02:14.716629 20657 net.cpp:148] Top shape: 24 288 14 14 (1354752)
I0403 16:02:14.716644 20657 net.cpp:156] Memory required for data: 1131654432
I0403 16:02:14.716657 20657 layer_factory.hpp:77] Creating layer inception_4d/5x5_reduce
I0403 16:02:14.716678 20657 net.cpp:91] Creating Layer inception_4d/5x5_reduce
I0403 16:02:14.716696 20657 net.cpp:425] inception_4d/5x5_reduce <- inception_4c/output_inception_4c/output_0_split_2
I0403 16:02:14.716717 20657 net.cpp:399] inception_4d/5x5_reduce -> inception_4d/5x5_reduce
I0403 16:02:14.717852 20657 net.cpp:141] Setting up inception_4d/5x5_reduce
I0403 16:02:14.717883 20657 net.cpp:148] Top shape: 24 32 14 14 (150528)
I0403 16:02:14.717900 20657 net.cpp:156] Memory required for data: 1132256544
I0403 16:02:14.717918 20657 layer_factory.hpp:77] Creating layer inception_4d/relu_5x5_reduce
I0403 16:02:14.717936 20657 net.cpp:91] Creating Layer inception_4d/relu_5x5_reduce
I0403 16:02:14.717954 20657 net.cpp:425] inception_4d/relu_5x5_reduce <- inception_4d/5x5_reduce
I0403 16:02:14.717973 20657 net.cpp:386] inception_4d/relu_5x5_reduce -> inception_4d/5x5_reduce (in-place)
I0403 16:02:14.718163 20657 net.cpp:141] Setting up inception_4d/relu_5x5_reduce
I0403 16:02:14.718189 20657 net.cpp:148] Top shape: 24 32 14 14 (150528)
I0403 16:02:14.718202 20657 net.cpp:156] Memory required for data: 1132858656
I0403 16:02:14.718217 20657 layer_factory.hpp:77] Creating layer inception_4d/5x5
I0403 16:02:14.718238 20657 net.cpp:91] Creating Layer inception_4d/5x5
I0403 16:02:14.718255 20657 net.cpp:425] inception_4d/5x5 <- inception_4d/5x5_reduce
I0403 16:02:14.718276 20657 net.cpp:399] inception_4d/5x5 -> inception_4d/5x5
I0403 16:02:14.719848 20657 net.cpp:141] Setting up inception_4d/5x5
I0403 16:02:14.719882 20657 net.cpp:148] Top shape: 24 64 14 14 (301056)
I0403 16:02:14.719899 20657 net.cpp:156] Memory required for data: 1134062880
I0403 16:02:14.719918 20657 layer_factory.hpp:77] Creating layer inception_4d/relu_5x5
I0403 16:02:14.719972 20657 net.cpp:91] Creating Layer inception_4d/relu_5x5
I0403 16:02:14.719995 20657 net.cpp:425] inception_4d/relu_5x5 <- inception_4d/5x5
I0403 16:02:14.720012 20657 net.cpp:386] inception_4d/relu_5x5 -> inception_4d/5x5 (in-place)
I0403 16:02:14.720312 20657 net.cpp:141] Setting up inception_4d/relu_5x5
I0403 16:02:14.720340 20657 net.cpp:148] Top shape: 24 64 14 14 (301056)
I0403 16:02:14.720353 20657 net.cpp:156] Memory required for data: 1135267104
I0403 16:02:14.720367 20657 layer_factory.hpp:77] Creating layer inception_4d/pool
I0403 16:02:14.720386 20657 net.cpp:91] Creating Layer inception_4d/pool
I0403 16:02:14.720403 20657 net.cpp:425] inception_4d/pool <- inception_4c/output_inception_4c/output_0_split_3
I0403 16:02:14.720422 20657 net.cpp:399] inception_4d/pool -> inception_4d/pool
I0403 16:02:14.720489 20657 net.cpp:141] Setting up inception_4d/pool
I0403 16:02:14.720512 20657 net.cpp:148] Top shape: 24 512 14 14 (2408448)
I0403 16:02:14.720526 20657 net.cpp:156] Memory required for data: 1144900896
I0403 16:02:14.720540 20657 layer_factory.hpp:77] Creating layer inception_4d/pool_proj
I0403 16:02:14.720561 20657 net.cpp:91] Creating Layer inception_4d/pool_proj
I0403 16:02:14.720577 20657 net.cpp:425] inception_4d/pool_proj <- inception_4d/pool
I0403 16:02:14.720597 20657 net.cpp:399] inception_4d/pool_proj -> inception_4d/pool_proj
I0403 16:02:14.722354 20657 net.cpp:141] Setting up inception_4d/pool_proj
I0403 16:02:14.722385 20657 net.cpp:148] Top shape: 24 64 14 14 (301056)
I0403 16:02:14.722403 20657 net.cpp:156] Memory required for data: 1146105120
I0403 16:02:14.722420 20657 layer_factory.hpp:77] Creating layer inception_4d/relu_pool_proj
I0403 16:02:14.722440 20657 net.cpp:91] Creating Layer inception_4d/relu_pool_proj
I0403 16:02:14.722457 20657 net.cpp:425] inception_4d/relu_pool_proj <- inception_4d/pool_proj
I0403 16:02:14.722478 20657 net.cpp:386] inception_4d/relu_pool_proj -> inception_4d/pool_proj (in-place)
I0403 16:02:14.722677 20657 net.cpp:141] Setting up inception_4d/relu_pool_proj
I0403 16:02:14.722702 20657 net.cpp:148] Top shape: 24 64 14 14 (301056)
I0403 16:02:14.722718 20657 net.cpp:156] Memory required for data: 1147309344
I0403 16:02:14.722731 20657 layer_factory.hpp:77] Creating layer inception_4d/output
I0403 16:02:14.722748 20657 net.cpp:91] Creating Layer inception_4d/output
I0403 16:02:14.722762 20657 net.cpp:425] inception_4d/output <- inception_4d/1x1
I0403 16:02:14.722779 20657 net.cpp:425] inception_4d/output <- inception_4d/3x3
I0403 16:02:14.722797 20657 net.cpp:425] inception_4d/output <- inception_4d/5x5
I0403 16:02:14.722813 20657 net.cpp:425] inception_4d/output <- inception_4d/pool_proj
I0403 16:02:14.722829 20657 net.cpp:399] inception_4d/output -> inception_4d/output
I0403 16:02:14.722875 20657 net.cpp:141] Setting up inception_4d/output
I0403 16:02:14.722901 20657 net.cpp:148] Top shape: 24 528 14 14 (2483712)
I0403 16:02:14.722916 20657 net.cpp:156] Memory required for data: 1157244192
I0403 16:02:14.722931 20657 layer_factory.hpp:77] Creating layer inception_4d/output_inception_4d/output_0_split
I0403 16:02:14.722949 20657 net.cpp:91] Creating Layer inception_4d/output_inception_4d/output_0_split
I0403 16:02:14.722970 20657 net.cpp:425] inception_4d/output_inception_4d/output_0_split <- inception_4d/output
I0403 16:02:14.722990 20657 net.cpp:399] inception_4d/output_inception_4d/output_0_split -> inception_4d/output_inception_4d/output_0_split_0
I0403 16:02:14.723011 20657 net.cpp:399] inception_4d/output_inception_4d/output_0_split -> inception_4d/output_inception_4d/output_0_split_1
I0403 16:02:14.723031 20657 net.cpp:399] inception_4d/output_inception_4d/output_0_split -> inception_4d/output_inception_4d/output_0_split_2
I0403 16:02:14.723052 20657 net.cpp:399] inception_4d/output_inception_4d/output_0_split -> inception_4d/output_inception_4d/output_0_split_3
I0403 16:02:14.723069 20657 net.cpp:399] inception_4d/output_inception_4d/output_0_split -> inception_4d/output_inception_4d/output_0_split_4
I0403 16:02:14.723170 20657 net.cpp:141] Setting up inception_4d/output_inception_4d/output_0_split
I0403 16:02:14.723206 20657 net.cpp:148] Top shape: 24 528 14 14 (2483712)
I0403 16:02:14.723225 20657 net.cpp:148] Top shape: 24 528 14 14 (2483712)
I0403 16:02:14.723242 20657 net.cpp:148] Top shape: 24 528 14 14 (2483712)
I0403 16:02:14.723258 20657 net.cpp:148] Top shape: 24 528 14 14 (2483712)
I0403 16:02:14.723273 20657 net.cpp:148] Top shape: 24 528 14 14 (2483712)
I0403 16:02:14.723285 20657 net.cpp:156] Memory required for data: 1206918432
I0403 16:02:14.723299 20657 layer_factory.hpp:77] Creating layer loss2/ave_pool
I0403 16:02:14.723316 20657 net.cpp:91] Creating Layer loss2/ave_pool
I0403 16:02:14.723332 20657 net.cpp:425] loss2/ave_pool <- inception_4d/output_inception_4d/output_0_split_0
I0403 16:02:14.723352 20657 net.cpp:399] loss2/ave_pool -> loss2/ave_pool
I0403 16:02:14.723660 20657 net.cpp:141] Setting up loss2/ave_pool
I0403 16:02:14.723685 20657 net.cpp:148] Top shape: 24 528 4 4 (202752)
I0403 16:02:14.723701 20657 net.cpp:156] Memory required for data: 1207729440
I0403 16:02:14.723716 20657 layer_factory.hpp:77] Creating layer loss2/conv
I0403 16:02:14.723737 20657 net.cpp:91] Creating Layer loss2/conv
I0403 16:02:14.723755 20657 net.cpp:425] loss2/conv <- loss2/ave_pool
I0403 16:02:14.723775 20657 net.cpp:399] loss2/conv -> loss2/conv
I0403 16:02:14.725630 20657 net.cpp:141] Setting up loss2/conv
I0403 16:02:14.725658 20657 net.cpp:148] Top shape: 24 128 4 4 (49152)
I0403 16:02:14.725674 20657 net.cpp:156] Memory required for data: 1207926048
I0403 16:02:14.725693 20657 layer_factory.hpp:77] Creating layer loss2/relu_conv
I0403 16:02:14.725713 20657 net.cpp:91] Creating Layer loss2/relu_conv
I0403 16:02:14.725730 20657 net.cpp:425] loss2/relu_conv <- loss2/conv
I0403 16:02:14.725747 20657 net.cpp:386] loss2/relu_conv -> loss2/conv (in-place)
I0403 16:02:14.726034 20657 net.cpp:141] Setting up loss2/relu_conv
I0403 16:02:14.726061 20657 net.cpp:148] Top shape: 24 128 4 4 (49152)
I0403 16:02:14.726076 20657 net.cpp:156] Memory required for data: 1208122656
I0403 16:02:14.726090 20657 layer_factory.hpp:77] Creating layer loss2/fc
I0403 16:02:14.726110 20657 net.cpp:91] Creating Layer loss2/fc
I0403 16:02:14.726126 20657 net.cpp:425] loss2/fc <- loss2/conv
I0403 16:02:14.726145 20657 net.cpp:399] loss2/fc -> loss2/fc
I0403 16:02:14.743724 20657 net.cpp:141] Setting up loss2/fc
I0403 16:02:14.743770 20657 net.cpp:148] Top shape: 24 1024 (24576)
I0403 16:02:14.743788 20657 net.cpp:156] Memory required for data: 1208220960
I0403 16:02:14.743808 20657 layer_factory.hpp:77] Creating layer loss2/relu_fc
I0403 16:02:14.743827 20657 net.cpp:91] Creating Layer loss2/relu_fc
I0403 16:02:14.743844 20657 net.cpp:425] loss2/relu_fc <- loss2/fc
I0403 16:02:14.743865 20657 net.cpp:386] loss2/relu_fc -> loss2/fc (in-place)
I0403 16:02:14.744213 20657 net.cpp:141] Setting up loss2/relu_fc
I0403 16:02:14.744241 20657 net.cpp:148] Top shape: 24 1024 (24576)
I0403 16:02:14.744258 20657 net.cpp:156] Memory required for data: 1208319264
I0403 16:02:14.744274 20657 layer_factory.hpp:77] Creating layer loss2/drop_fc
I0403 16:02:14.744293 20657 net.cpp:91] Creating Layer loss2/drop_fc
I0403 16:02:14.744310 20657 net.cpp:425] loss2/drop_fc <- loss2/fc
I0403 16:02:14.744330 20657 net.cpp:386] loss2/drop_fc -> loss2/fc (in-place)
I0403 16:02:14.744384 20657 net.cpp:141] Setting up loss2/drop_fc
I0403 16:02:14.744408 20657 net.cpp:148] Top shape: 24 1024 (24576)
I0403 16:02:14.744423 20657 net.cpp:156] Memory required for data: 1208417568
I0403 16:02:14.744441 20657 layer_factory.hpp:77] Creating layer loss2/classifier_plantvillage
I0403 16:02:14.744463 20657 net.cpp:91] Creating Layer loss2/classifier_plantvillage
I0403 16:02:14.744482 20657 net.cpp:425] loss2/classifier_plantvillage <- loss2/fc
I0403 16:02:14.744503 20657 net.cpp:399] loss2/classifier_plantvillage -> loss2/classifier_plantvillage
I0403 16:02:14.744920 20657 net.cpp:141] Setting up loss2/classifier_plantvillage
I0403 16:02:14.744948 20657 net.cpp:148] Top shape: 24 38 (912)
I0403 16:02:14.744971 20657 net.cpp:156] Memory required for data: 1208421216
I0403 16:02:14.745013 20657 layer_factory.hpp:77] Creating layer loss2/classifier_plantvillage_loss2/classifier_plantvillage_0_split
I0403 16:02:14.745033 20657 net.cpp:91] Creating Layer loss2/classifier_plantvillage_loss2/classifier_plantvillage_0_split
I0403 16:02:14.745048 20657 net.cpp:425] loss2/classifier_plantvillage_loss2/classifier_plantvillage_0_split <- loss2/classifier_plantvillage
I0403 16:02:14.745066 20657 net.cpp:399] loss2/classifier_plantvillage_loss2/classifier_plantvillage_0_split -> loss2/classifier_plantvillage_loss2/classifier_plantvillage_0_split_0
I0403 16:02:14.745086 20657 net.cpp:399] loss2/classifier_plantvillage_loss2/classifier_plantvillage_0_split -> loss2/classifier_plantvillage_loss2/classifier_plantvillage_0_split_1
I0403 16:02:14.745106 20657 net.cpp:399] loss2/classifier_plantvillage_loss2/classifier_plantvillage_0_split -> loss2/classifier_plantvillage_loss2/classifier_plantvillage_0_split_2
I0403 16:02:14.745184 20657 net.cpp:141] Setting up loss2/classifier_plantvillage_loss2/classifier_plantvillage_0_split
I0403 16:02:14.745208 20657 net.cpp:148] Top shape: 24 38 (912)
I0403 16:02:14.745223 20657 net.cpp:148] Top shape: 24 38 (912)
I0403 16:02:14.745239 20657 net.cpp:148] Top shape: 24 38 (912)
I0403 16:02:14.745252 20657 net.cpp:156] Memory required for data: 1208432160
I0403 16:02:14.745266 20657 layer_factory.hpp:77] Creating layer inception_4e/1x1
I0403 16:02:14.745287 20657 net.cpp:91] Creating Layer inception_4e/1x1
I0403 16:02:14.745304 20657 net.cpp:425] inception_4e/1x1 <- inception_4d/output_inception_4d/output_0_split_1
I0403 16:02:14.745326 20657 net.cpp:399] inception_4e/1x1 -> inception_4e/1x1
I0403 16:02:14.747210 20657 net.cpp:141] Setting up inception_4e/1x1
I0403 16:02:14.747241 20657 net.cpp:148] Top shape: 24 256 14 14 (1204224)
I0403 16:02:14.747256 20657 net.cpp:156] Memory required for data: 1213249056
I0403 16:02:14.747277 20657 layer_factory.hpp:77] Creating layer inception_4e/relu_1x1
I0403 16:02:14.747298 20657 net.cpp:91] Creating Layer inception_4e/relu_1x1
I0403 16:02:14.747314 20657 net.cpp:425] inception_4e/relu_1x1 <- inception_4e/1x1
I0403 16:02:14.747331 20657 net.cpp:386] inception_4e/relu_1x1 -> inception_4e/1x1 (in-place)
I0403 16:02:14.747630 20657 net.cpp:141] Setting up inception_4e/relu_1x1
I0403 16:02:14.747656 20657 net.cpp:148] Top shape: 24 256 14 14 (1204224)
I0403 16:02:14.747671 20657 net.cpp:156] Memory required for data: 1218065952
I0403 16:02:14.747686 20657 layer_factory.hpp:77] Creating layer inception_4e/3x3_reduce
I0403 16:02:14.747709 20657 net.cpp:91] Creating Layer inception_4e/3x3_reduce
I0403 16:02:14.747726 20657 net.cpp:425] inception_4e/3x3_reduce <- inception_4d/output_inception_4d/output_0_split_2
I0403 16:02:14.747747 20657 net.cpp:399] inception_4e/3x3_reduce -> inception_4e/3x3_reduce
I0403 16:02:14.749914 20657 net.cpp:141] Setting up inception_4e/3x3_reduce
I0403 16:02:14.749946 20657 net.cpp:148] Top shape: 24 160 14 14 (752640)
I0403 16:02:14.749969 20657 net.cpp:156] Memory required for data: 1221076512
I0403 16:02:14.749989 20657 layer_factory.hpp:77] Creating layer inception_4e/relu_3x3_reduce
I0403 16:02:14.750011 20657 net.cpp:91] Creating Layer inception_4e/relu_3x3_reduce
I0403 16:02:14.750028 20657 net.cpp:425] inception_4e/relu_3x3_reduce <- inception_4e/3x3_reduce
I0403 16:02:14.750046 20657 net.cpp:386] inception_4e/relu_3x3_reduce -> inception_4e/3x3_reduce (in-place)
I0403 16:02:14.750237 20657 net.cpp:141] Setting up inception_4e/relu_3x3_reduce
I0403 16:02:14.750263 20657 net.cpp:148] Top shape: 24 160 14 14 (752640)
I0403 16:02:14.750277 20657 net.cpp:156] Memory required for data: 1224087072
I0403 16:02:14.750293 20657 layer_factory.hpp:77] Creating layer inception_4e/3x3
I0403 16:02:14.750315 20657 net.cpp:91] Creating Layer inception_4e/3x3
I0403 16:02:14.750332 20657 net.cpp:425] inception_4e/3x3 <- inception_4e/3x3_reduce
I0403 16:02:14.750351 20657 net.cpp:399] inception_4e/3x3 -> inception_4e/3x3
I0403 16:02:14.755410 20657 net.cpp:141] Setting up inception_4e/3x3
I0403 16:02:14.755455 20657 net.cpp:148] Top shape: 24 320 14 14 (1505280)
I0403 16:02:14.755472 20657 net.cpp:156] Memory required for data: 1230108192
I0403 16:02:14.755491 20657 layer_factory.hpp:77] Creating layer inception_4e/relu_3x3
I0403 16:02:14.755513 20657 net.cpp:91] Creating Layer inception_4e/relu_3x3
I0403 16:02:14.755532 20657 net.cpp:425] inception_4e/relu_3x3 <- inception_4e/3x3
I0403 16:02:14.755550 20657 net.cpp:386] inception_4e/relu_3x3 -> inception_4e/3x3 (in-place)
I0403 16:02:14.755858 20657 net.cpp:141] Setting up inception_4e/relu_3x3
I0403 16:02:14.755888 20657 net.cpp:148] Top shape: 24 320 14 14 (1505280)
I0403 16:02:14.755906 20657 net.cpp:156] Memory required for data: 1236129312
I0403 16:02:14.755923 20657 layer_factory.hpp:77] Creating layer inception_4e/5x5_reduce
I0403 16:02:14.755946 20657 net.cpp:91] Creating Layer inception_4e/5x5_reduce
I0403 16:02:14.755971 20657 net.cpp:425] inception_4e/5x5_reduce <- inception_4d/output_inception_4d/output_0_split_3
I0403 16:02:14.755992 20657 net.cpp:399] inception_4e/5x5_reduce -> inception_4e/5x5_reduce
I0403 16:02:14.757093 20657 net.cpp:141] Setting up inception_4e/5x5_reduce
I0403 16:02:14.757124 20657 net.cpp:148] Top shape: 24 32 14 14 (150528)
I0403 16:02:14.757140 20657 net.cpp:156] Memory required for data: 1236731424
I0403 16:02:14.757160 20657 layer_factory.hpp:77] Creating layer inception_4e/relu_5x5_reduce
I0403 16:02:14.757181 20657 net.cpp:91] Creating Layer inception_4e/relu_5x5_reduce
I0403 16:02:14.757199 20657 net.cpp:425] inception_4e/relu_5x5_reduce <- inception_4e/5x5_reduce
I0403 16:02:14.757217 20657 net.cpp:386] inception_4e/relu_5x5_reduce -> inception_4e/5x5_reduce (in-place)
I0403 16:02:14.757525 20657 net.cpp:141] Setting up inception_4e/relu_5x5_reduce
I0403 16:02:14.757553 20657 net.cpp:148] Top shape: 24 32 14 14 (150528)
I0403 16:02:14.757570 20657 net.cpp:156] Memory required for data: 1237333536
I0403 16:02:14.757586 20657 layer_factory.hpp:77] Creating layer inception_4e/5x5
I0403 16:02:14.757624 20657 net.cpp:91] Creating Layer inception_4e/5x5
I0403 16:02:14.757643 20657 net.cpp:425] inception_4e/5x5 <- inception_4e/5x5_reduce
I0403 16:02:14.757664 20657 net.cpp:399] inception_4e/5x5 -> inception_4e/5x5
I0403 16:02:14.759567 20657 net.cpp:141] Setting up inception_4e/5x5
I0403 16:02:14.759598 20657 net.cpp:148] Top shape: 24 128 14 14 (602112)
I0403 16:02:14.759614 20657 net.cpp:156] Memory required for data: 1239741984
I0403 16:02:14.759634 20657 layer_factory.hpp:77] Creating layer inception_4e/relu_5x5
I0403 16:02:14.759652 20657 net.cpp:91] Creating Layer inception_4e/relu_5x5
I0403 16:02:14.759670 20657 net.cpp:425] inception_4e/relu_5x5 <- inception_4e/5x5
I0403 16:02:14.759690 20657 net.cpp:386] inception_4e/relu_5x5 -> inception_4e/5x5 (in-place)
I0403 16:02:14.759893 20657 net.cpp:141] Setting up inception_4e/relu_5x5
I0403 16:02:14.759920 20657 net.cpp:148] Top shape: 24 128 14 14 (602112)
I0403 16:02:14.759937 20657 net.cpp:156] Memory required for data: 1242150432
I0403 16:02:14.759968 20657 layer_factory.hpp:77] Creating layer inception_4e/pool
I0403 16:02:14.759991 20657 net.cpp:91] Creating Layer inception_4e/pool
I0403 16:02:14.760010 20657 net.cpp:425] inception_4e/pool <- inception_4d/output_inception_4d/output_0_split_4
I0403 16:02:14.760028 20657 net.cpp:399] inception_4e/pool -> inception_4e/pool
I0403 16:02:14.760103 20657 net.cpp:141] Setting up inception_4e/pool
I0403 16:02:14.760128 20657 net.cpp:148] Top shape: 24 528 14 14 (2483712)
I0403 16:02:14.760144 20657 net.cpp:156] Memory required for data: 1252085280
I0403 16:02:14.760160 20657 layer_factory.hpp:77] Creating layer inception_4e/pool_proj
I0403 16:02:14.760182 20657 net.cpp:91] Creating Layer inception_4e/pool_proj
I0403 16:02:14.760201 20657 net.cpp:425] inception_4e/pool_proj <- inception_4e/pool
I0403 16:02:14.760223 20657 net.cpp:399] inception_4e/pool_proj -> inception_4e/pool_proj
I0403 16:02:14.761752 20657 net.cpp:141] Setting up inception_4e/pool_proj
I0403 16:02:14.761781 20657 net.cpp:148] Top shape: 24 128 14 14 (602112)
I0403 16:02:14.761812 20657 net.cpp:156] Memory required for data: 1254493728
I0403 16:02:14.761833 20657 layer_factory.hpp:77] Creating layer inception_4e/relu_pool_proj
I0403 16:02:14.761853 20657 net.cpp:91] Creating Layer inception_4e/relu_pool_proj
I0403 16:02:14.761872 20657 net.cpp:425] inception_4e/relu_pool_proj <- inception_4e/pool_proj
I0403 16:02:14.761893 20657 net.cpp:386] inception_4e/relu_pool_proj -> inception_4e/pool_proj (in-place)
I0403 16:02:14.762202 20657 net.cpp:141] Setting up inception_4e/relu_pool_proj
I0403 16:02:14.762229 20657 net.cpp:148] Top shape: 24 128 14 14 (602112)
I0403 16:02:14.762245 20657 net.cpp:156] Memory required for data: 1256902176
I0403 16:02:14.762260 20657 layer_factory.hpp:77] Creating layer inception_4e/output
I0403 16:02:14.762279 20657 net.cpp:91] Creating Layer inception_4e/output
I0403 16:02:14.762295 20657 net.cpp:425] inception_4e/output <- inception_4e/1x1
I0403 16:02:14.762310 20657 net.cpp:425] inception_4e/output <- inception_4e/3x3
I0403 16:02:14.762326 20657 net.cpp:425] inception_4e/output <- inception_4e/5x5
I0403 16:02:14.762341 20657 net.cpp:425] inception_4e/output <- inception_4e/pool_proj
I0403 16:02:14.762362 20657 net.cpp:399] inception_4e/output -> inception_4e/output
I0403 16:02:14.762411 20657 net.cpp:141] Setting up inception_4e/output
I0403 16:02:14.762439 20657 net.cpp:148] Top shape: 24 832 14 14 (3913728)
I0403 16:02:14.762454 20657 net.cpp:156] Memory required for data: 1272557088
I0403 16:02:14.762468 20657 layer_factory.hpp:77] Creating layer pool4/3x3_s2
I0403 16:02:14.762485 20657 net.cpp:91] Creating Layer pool4/3x3_s2
I0403 16:02:14.762501 20657 net.cpp:425] pool4/3x3_s2 <- inception_4e/output
I0403 16:02:14.762519 20657 net.cpp:399] pool4/3x3_s2 -> pool4/3x3_s2
I0403 16:02:14.762588 20657 net.cpp:141] Setting up pool4/3x3_s2
I0403 16:02:14.762614 20657 net.cpp:148] Top shape: 24 832 7 7 (978432)
I0403 16:02:14.762627 20657 net.cpp:156] Memory required for data: 1276470816
I0403 16:02:14.762641 20657 layer_factory.hpp:77] Creating layer pool4/3x3_s2_pool4/3x3_s2_0_split
I0403 16:02:14.762658 20657 net.cpp:91] Creating Layer pool4/3x3_s2_pool4/3x3_s2_0_split
I0403 16:02:14.762675 20657 net.cpp:425] pool4/3x3_s2_pool4/3x3_s2_0_split <- pool4/3x3_s2
I0403 16:02:14.762693 20657 net.cpp:399] pool4/3x3_s2_pool4/3x3_s2_0_split -> pool4/3x3_s2_pool4/3x3_s2_0_split_0
I0403 16:02:14.762715 20657 net.cpp:399] pool4/3x3_s2_pool4/3x3_s2_0_split -> pool4/3x3_s2_pool4/3x3_s2_0_split_1
I0403 16:02:14.762735 20657 net.cpp:399] pool4/3x3_s2_pool4/3x3_s2_0_split -> pool4/3x3_s2_pool4/3x3_s2_0_split_2
I0403 16:02:14.762754 20657 net.cpp:399] pool4/3x3_s2_pool4/3x3_s2_0_split -> pool4/3x3_s2_pool4/3x3_s2_0_split_3
I0403 16:02:14.762847 20657 net.cpp:141] Setting up pool4/3x3_s2_pool4/3x3_s2_0_split
I0403 16:02:14.762871 20657 net.cpp:148] Top shape: 24 832 7 7 (978432)
I0403 16:02:14.762888 20657 net.cpp:148] Top shape: 24 832 7 7 (978432)
I0403 16:02:14.762903 20657 net.cpp:148] Top shape: 24 832 7 7 (978432)
I0403 16:02:14.762918 20657 net.cpp:148] Top shape: 24 832 7 7 (978432)
I0403 16:02:14.762933 20657 net.cpp:156] Memory required for data: 1292125728
I0403 16:02:14.762946 20657 layer_factory.hpp:77] Creating layer inception_5a/1x1
I0403 16:02:14.762974 20657 net.cpp:91] Creating Layer inception_5a/1x1
I0403 16:02:14.762992 20657 net.cpp:425] inception_5a/1x1 <- pool4/3x3_s2_pool4/3x3_s2_0_split_0
I0403 16:02:14.763013 20657 net.cpp:399] inception_5a/1x1 -> inception_5a/1x1
I0403 16:02:14.765938 20657 net.cpp:141] Setting up inception_5a/1x1
I0403 16:02:14.765974 20657 net.cpp:148] Top shape: 24 256 7 7 (301056)
I0403 16:02:14.765991 20657 net.cpp:156] Memory required for data: 1293329952
I0403 16:02:14.766010 20657 layer_factory.hpp:77] Creating layer inception_5a/relu_1x1
I0403 16:02:14.766031 20657 net.cpp:91] Creating Layer inception_5a/relu_1x1
I0403 16:02:14.766048 20657 net.cpp:425] inception_5a/relu_1x1 <- inception_5a/1x1
I0403 16:02:14.766067 20657 net.cpp:386] inception_5a/relu_1x1 -> inception_5a/1x1 (in-place)
I0403 16:02:14.766386 20657 net.cpp:141] Setting up inception_5a/relu_1x1
I0403 16:02:14.766413 20657 net.cpp:148] Top shape: 24 256 7 7 (301056)
I0403 16:02:14.766429 20657 net.cpp:156] Memory required for data: 1294534176
I0403 16:02:14.766445 20657 layer_factory.hpp:77] Creating layer inception_5a/3x3_reduce
I0403 16:02:14.766469 20657 net.cpp:91] Creating Layer inception_5a/3x3_reduce
I0403 16:02:14.766566 20657 net.cpp:425] inception_5a/3x3_reduce <- pool4/3x3_s2_pool4/3x3_s2_0_split_1
I0403 16:02:14.766592 20657 net.cpp:399] inception_5a/3x3_reduce -> inception_5a/3x3_reduce
I0403 16:02:14.769083 20657 net.cpp:141] Setting up inception_5a/3x3_reduce
I0403 16:02:14.769115 20657 net.cpp:148] Top shape: 24 160 7 7 (188160)
I0403 16:02:14.769136 20657 net.cpp:156] Memory required for data: 1295286816
I0403 16:02:14.769155 20657 layer_factory.hpp:77] Creating layer inception_5a/relu_3x3_reduce
I0403 16:02:14.769173 20657 net.cpp:91] Creating Layer inception_5a/relu_3x3_reduce
I0403 16:02:14.769191 20657 net.cpp:425] inception_5a/relu_3x3_reduce <- inception_5a/3x3_reduce
I0403 16:02:14.769208 20657 net.cpp:386] inception_5a/relu_3x3_reduce -> inception_5a/3x3_reduce (in-place)
I0403 16:02:14.769403 20657 net.cpp:141] Setting up inception_5a/relu_3x3_reduce
I0403 16:02:14.769430 20657 net.cpp:148] Top shape: 24 160 7 7 (188160)
I0403 16:02:14.769445 20657 net.cpp:156] Memory required for data: 1296039456
I0403 16:02:14.769461 20657 layer_factory.hpp:77] Creating layer inception_5a/3x3
I0403 16:02:14.769484 20657 net.cpp:91] Creating Layer inception_5a/3x3
I0403 16:02:14.769501 20657 net.cpp:425] inception_5a/3x3 <- inception_5a/3x3_reduce
I0403 16:02:14.769525 20657 net.cpp:399] inception_5a/3x3 -> inception_5a/3x3
I0403 16:02:14.774503 20657 net.cpp:141] Setting up inception_5a/3x3
I0403 16:02:14.774533 20657 net.cpp:148] Top shape: 24 320 7 7 (376320)
I0403 16:02:14.774549 20657 net.cpp:156] Memory required for data: 1297544736
I0403 16:02:14.774567 20657 layer_factory.hpp:77] Creating layer inception_5a/relu_3x3
I0403 16:02:14.774585 20657 net.cpp:91] Creating Layer inception_5a/relu_3x3
I0403 16:02:14.774600 20657 net.cpp:425] inception_5a/relu_3x3 <- inception_5a/3x3
I0403 16:02:14.774621 20657 net.cpp:386] inception_5a/relu_3x3 -> inception_5a/3x3 (in-place)
I0403 16:02:14.774915 20657 net.cpp:141] Setting up inception_5a/relu_3x3
I0403 16:02:14.774940 20657 net.cpp:148] Top shape: 24 320 7 7 (376320)
I0403 16:02:14.774958 20657 net.cpp:156] Memory required for data: 1299050016
I0403 16:02:14.774974 20657 layer_factory.hpp:77] Creating layer inception_5a/5x5_reduce
I0403 16:02:14.774996 20657 net.cpp:91] Creating Layer inception_5a/5x5_reduce
I0403 16:02:14.775013 20657 net.cpp:425] inception_5a/5x5_reduce <- pool4/3x3_s2_pool4/3x3_s2_0_split_2
I0403 16:02:14.775033 20657 net.cpp:399] inception_5a/5x5_reduce -> inception_5a/5x5_reduce
I0403 16:02:14.776204 20657 net.cpp:141] Setting up inception_5a/5x5_reduce
I0403 16:02:14.776235 20657 net.cpp:148] Top shape: 24 32 7 7 (37632)
I0403 16:02:14.776254 20657 net.cpp:156] Memory required for data: 1299200544
I0403 16:02:14.776273 20657 layer_factory.hpp:77] Creating layer inception_5a/relu_5x5_reduce
I0403 16:02:14.776289 20657 net.cpp:91] Creating Layer inception_5a/relu_5x5_reduce
I0403 16:02:14.776304 20657 net.cpp:425] inception_5a/relu_5x5_reduce <- inception_5a/5x5_reduce
I0403 16:02:14.776321 20657 net.cpp:386] inception_5a/relu_5x5_reduce -> inception_5a/5x5_reduce (in-place)
I0403 16:02:14.776625 20657 net.cpp:141] Setting up inception_5a/relu_5x5_reduce
I0403 16:02:14.776650 20657 net.cpp:148] Top shape: 24 32 7 7 (37632)
I0403 16:02:14.776665 20657 net.cpp:156] Memory required for data: 1299351072
I0403 16:02:14.776680 20657 layer_factory.hpp:77] Creating layer inception_5a/5x5
I0403 16:02:14.776701 20657 net.cpp:91] Creating Layer inception_5a/5x5
I0403 16:02:14.776718 20657 net.cpp:425] inception_5a/5x5 <- inception_5a/5x5_reduce
I0403 16:02:14.776739 20657 net.cpp:399] inception_5a/5x5 -> inception_5a/5x5
I0403 16:02:14.778441 20657 net.cpp:141] Setting up inception_5a/5x5
I0403 16:02:14.778480 20657 net.cpp:148] Top shape: 24 128 7 7 (150528)
I0403 16:02:14.778496 20657 net.cpp:156] Memory required for data: 1299953184
I0403 16:02:14.778514 20657 layer_factory.hpp:77] Creating layer inception_5a/relu_5x5
I0403 16:02:14.778532 20657 net.cpp:91] Creating Layer inception_5a/relu_5x5
I0403 16:02:14.778548 20657 net.cpp:425] inception_5a/relu_5x5 <- inception_5a/5x5
I0403 16:02:14.778568 20657 net.cpp:386] inception_5a/relu_5x5 -> inception_5a/5x5 (in-place)
I0403 16:02:14.778759 20657 net.cpp:141] Setting up inception_5a/relu_5x5
I0403 16:02:14.778784 20657 net.cpp:148] Top shape: 24 128 7 7 (150528)
I0403 16:02:14.778797 20657 net.cpp:156] Memory required for data: 1300555296
I0403 16:02:14.778811 20657 layer_factory.hpp:77] Creating layer inception_5a/pool
I0403 16:02:14.778831 20657 net.cpp:91] Creating Layer inception_5a/pool
I0403 16:02:14.778846 20657 net.cpp:425] inception_5a/pool <- pool4/3x3_s2_pool4/3x3_s2_0_split_3
I0403 16:02:14.778863 20657 net.cpp:399] inception_5a/pool -> inception_5a/pool
I0403 16:02:14.778934 20657 net.cpp:141] Setting up inception_5a/pool
I0403 16:02:14.778975 20657 net.cpp:148] Top shape: 24 832 7 7 (978432)
I0403 16:02:14.778990 20657 net.cpp:156] Memory required for data: 1304469024
I0403 16:02:14.779005 20657 layer_factory.hpp:77] Creating layer inception_5a/pool_proj
I0403 16:02:14.779026 20657 net.cpp:91] Creating Layer inception_5a/pool_proj
I0403 16:02:14.779042 20657 net.cpp:425] inception_5a/pool_proj <- inception_5a/pool
I0403 16:02:14.779063 20657 net.cpp:399] inception_5a/pool_proj -> inception_5a/pool_proj
I0403 16:02:14.781345 20657 net.cpp:141] Setting up inception_5a/pool_proj
I0403 16:02:14.781378 20657 net.cpp:148] Top shape: 24 128 7 7 (150528)
I0403 16:02:14.781394 20657 net.cpp:156] Memory required for data: 1305071136
I0403 16:02:14.781414 20657 layer_factory.hpp:77] Creating layer inception_5a/relu_pool_proj
I0403 16:02:14.781432 20657 net.cpp:91] Creating Layer inception_5a/relu_pool_proj
I0403 16:02:14.781450 20657 net.cpp:425] inception_5a/relu_pool_proj <- inception_5a/pool_proj
I0403 16:02:14.781471 20657 net.cpp:386] inception_5a/relu_pool_proj -> inception_5a/pool_proj (in-place)
I0403 16:02:14.781770 20657 net.cpp:141] Setting up inception_5a/relu_pool_proj
I0403 16:02:14.781800 20657 net.cpp:148] Top shape: 24 128 7 7 (150528)
I0403 16:02:14.781817 20657 net.cpp:156] Memory required for data: 1305673248
I0403 16:02:14.781832 20657 layer_factory.hpp:77] Creating layer inception_5a/output
I0403 16:02:14.781850 20657 net.cpp:91] Creating Layer inception_5a/output
I0403 16:02:14.781867 20657 net.cpp:425] inception_5a/output <- inception_5a/1x1
I0403 16:02:14.781885 20657 net.cpp:425] inception_5a/output <- inception_5a/3x3
I0403 16:02:14.781901 20657 net.cpp:425] inception_5a/output <- inception_5a/5x5
I0403 16:02:14.781919 20657 net.cpp:425] inception_5a/output <- inception_5a/pool_proj
I0403 16:02:14.781939 20657 net.cpp:399] inception_5a/output -> inception_5a/output
I0403 16:02:14.781993 20657 net.cpp:141] Setting up inception_5a/output
I0403 16:02:14.782019 20657 net.cpp:148] Top shape: 24 832 7 7 (978432)
I0403 16:02:14.782034 20657 net.cpp:156] Memory required for data: 1309586976
I0403 16:02:14.782048 20657 layer_factory.hpp:77] Creating layer inception_5a/output_inception_5a/output_0_split
I0403 16:02:14.782070 20657 net.cpp:91] Creating Layer inception_5a/output_inception_5a/output_0_split
I0403 16:02:14.782088 20657 net.cpp:425] inception_5a/output_inception_5a/output_0_split <- inception_5a/output
I0403 16:02:14.782109 20657 net.cpp:399] inception_5a/output_inception_5a/output_0_split -> inception_5a/output_inception_5a/output_0_split_0
I0403 16:02:14.782129 20657 net.cpp:399] inception_5a/output_inception_5a/output_0_split -> inception_5a/output_inception_5a/output_0_split_1
I0403 16:02:14.782153 20657 net.cpp:399] inception_5a/output_inception_5a/output_0_split -> inception_5a/output_inception_5a/output_0_split_2
I0403 16:02:14.782174 20657 net.cpp:399] inception_5a/output_inception_5a/output_0_split -> inception_5a/output_inception_5a/output_0_split_3
I0403 16:02:14.782296 20657 net.cpp:141] Setting up inception_5a/output_inception_5a/output_0_split
I0403 16:02:14.782320 20657 net.cpp:148] Top shape: 24 832 7 7 (978432)
I0403 16:02:14.782336 20657 net.cpp:148] Top shape: 24 832 7 7 (978432)
I0403 16:02:14.782351 20657 net.cpp:148] Top shape: 24 832 7 7 (978432)
I0403 16:02:14.782366 20657 net.cpp:148] Top shape: 24 832 7 7 (978432)
I0403 16:02:14.782380 20657 net.cpp:156] Memory required for data: 1325241888
I0403 16:02:14.782394 20657 layer_factory.hpp:77] Creating layer inception_5b/1x1
I0403 16:02:14.782418 20657 net.cpp:91] Creating Layer inception_5b/1x1
I0403 16:02:14.782434 20657 net.cpp:425] inception_5b/1x1 <- inception_5a/output_inception_5a/output_0_split_0
I0403 16:02:14.782454 20657 net.cpp:399] inception_5b/1x1 -> inception_5b/1x1
I0403 16:02:14.786175 20657 net.cpp:141] Setting up inception_5b/1x1
I0403 16:02:14.786206 20657 net.cpp:148] Top shape: 24 384 7 7 (451584)
I0403 16:02:14.786222 20657 net.cpp:156] Memory required for data: 1327048224
I0403 16:02:14.786242 20657 layer_factory.hpp:77] Creating layer inception_5b/relu_1x1
I0403 16:02:14.786272 20657 net.cpp:91] Creating Layer inception_5b/relu_1x1
I0403 16:02:14.786288 20657 net.cpp:425] inception_5b/relu_1x1 <- inception_5b/1x1
I0403 16:02:14.786304 20657 net.cpp:386] inception_5b/relu_1x1 -> inception_5b/1x1 (in-place)
I0403 16:02:14.786625 20657 net.cpp:141] Setting up inception_5b/relu_1x1
I0403 16:02:14.786653 20657 net.cpp:148] Top shape: 24 384 7 7 (451584)
I0403 16:02:14.786669 20657 net.cpp:156] Memory required for data: 1328854560
I0403 16:02:14.786682 20657 layer_factory.hpp:77] Creating layer inception_5b/3x3_reduce
I0403 16:02:14.786705 20657 net.cpp:91] Creating Layer inception_5b/3x3_reduce
I0403 16:02:14.786720 20657 net.cpp:425] inception_5b/3x3_reduce <- inception_5a/output_inception_5a/output_0_split_1
I0403 16:02:14.786739 20657 net.cpp:399] inception_5b/3x3_reduce -> inception_5b/3x3_reduce
I0403 16:02:14.789364 20657 net.cpp:141] Setting up inception_5b/3x3_reduce
I0403 16:02:14.789397 20657 net.cpp:148] Top shape: 24 192 7 7 (225792)
I0403 16:02:14.789413 20657 net.cpp:156] Memory required for data: 1329757728
I0403 16:02:14.789433 20657 layer_factory.hpp:77] Creating layer inception_5b/relu_3x3_reduce
I0403 16:02:14.789449 20657 net.cpp:91] Creating Layer inception_5b/relu_3x3_reduce
I0403 16:02:14.789465 20657 net.cpp:425] inception_5b/relu_3x3_reduce <- inception_5b/3x3_reduce
I0403 16:02:14.789485 20657 net.cpp:386] inception_5b/relu_3x3_reduce -> inception_5b/3x3_reduce (in-place)
I0403 16:02:14.789675 20657 net.cpp:141] Setting up inception_5b/relu_3x3_reduce
I0403 16:02:14.789700 20657 net.cpp:148] Top shape: 24 192 7 7 (225792)
I0403 16:02:14.789716 20657 net.cpp:156] Memory required for data: 1330660896
I0403 16:02:14.789729 20657 layer_factory.hpp:77] Creating layer inception_5b/3x3
I0403 16:02:14.789751 20657 net.cpp:91] Creating Layer inception_5b/3x3
I0403 16:02:14.789767 20657 net.cpp:425] inception_5b/3x3 <- inception_5b/3x3_reduce
I0403 16:02:14.789788 20657 net.cpp:399] inception_5b/3x3 -> inception_5b/3x3
I0403 16:02:14.796367 20657 net.cpp:141] Setting up inception_5b/3x3
I0403 16:02:14.796399 20657 net.cpp:148] Top shape: 24 384 7 7 (451584)
I0403 16:02:14.796417 20657 net.cpp:156] Memory required for data: 1332467232
I0403 16:02:14.796437 20657 layer_factory.hpp:77] Creating layer inception_5b/relu_3x3
I0403 16:02:14.796453 20657 net.cpp:91] Creating Layer inception_5b/relu_3x3
I0403 16:02:14.796469 20657 net.cpp:425] inception_5b/relu_3x3 <- inception_5b/3x3
I0403 16:02:14.796489 20657 net.cpp:386] inception_5b/relu_3x3 -> inception_5b/3x3 (in-place)
I0403 16:02:14.796785 20657 net.cpp:141] Setting up inception_5b/relu_3x3
I0403 16:02:14.796813 20657 net.cpp:148] Top shape: 24 384 7 7 (451584)
I0403 16:02:14.796828 20657 net.cpp:156] Memory required for data: 1334273568
I0403 16:02:14.796844 20657 layer_factory.hpp:77] Creating layer inception_5b/5x5_reduce
I0403 16:02:14.796880 20657 net.cpp:91] Creating Layer inception_5b/5x5_reduce
I0403 16:02:14.796898 20657 net.cpp:425] inception_5b/5x5_reduce <- inception_5a/output_inception_5a/output_0_split_2
I0403 16:02:14.796919 20657 net.cpp:399] inception_5b/5x5_reduce -> inception_5b/5x5_reduce
I0403 16:02:14.798187 20657 net.cpp:141] Setting up inception_5b/5x5_reduce
I0403 16:02:14.798218 20657 net.cpp:148] Top shape: 24 48 7 7 (56448)
I0403 16:02:14.798233 20657 net.cpp:156] Memory required for data: 1334499360
I0403 16:02:14.798252 20657 layer_factory.hpp:77] Creating layer inception_5b/relu_5x5_reduce
I0403 16:02:14.798270 20657 net.cpp:91] Creating Layer inception_5b/relu_5x5_reduce
I0403 16:02:14.798286 20657 net.cpp:425] inception_5b/relu_5x5_reduce <- inception_5b/5x5_reduce
I0403 16:02:14.798307 20657 net.cpp:386] inception_5b/relu_5x5_reduce -> inception_5b/5x5_reduce (in-place)
I0403 16:02:14.798677 20657 net.cpp:141] Setting up inception_5b/relu_5x5_reduce
I0403 16:02:14.798705 20657 net.cpp:148] Top shape: 24 48 7 7 (56448)
I0403 16:02:14.798722 20657 net.cpp:156] Memory required for data: 1334725152
I0403 16:02:14.798735 20657 layer_factory.hpp:77] Creating layer inception_5b/5x5
I0403 16:02:14.798755 20657 net.cpp:91] Creating Layer inception_5b/5x5
I0403 16:02:14.798774 20657 net.cpp:425] inception_5b/5x5 <- inception_5b/5x5_reduce
I0403 16:02:14.798794 20657 net.cpp:399] inception_5b/5x5 -> inception_5b/5x5
I0403 16:02:14.800825 20657 net.cpp:141] Setting up inception_5b/5x5
I0403 16:02:14.800854 20657 net.cpp:148] Top shape: 24 128 7 7 (150528)
I0403 16:02:14.800869 20657 net.cpp:156] Memory required for data: 1335327264
I0403 16:02:14.800889 20657 layer_factory.hpp:77] Creating layer inception_5b/relu_5x5
I0403 16:02:14.800909 20657 net.cpp:91] Creating Layer inception_5b/relu_5x5
I0403 16:02:14.800926 20657 net.cpp:425] inception_5b/relu_5x5 <- inception_5b/5x5
I0403 16:02:14.800942 20657 net.cpp:386] inception_5b/relu_5x5 -> inception_5b/5x5 (in-place)
I0403 16:02:14.801141 20657 net.cpp:141] Setting up inception_5b/relu_5x5
I0403 16:02:14.801165 20657 net.cpp:148] Top shape: 24 128 7 7 (150528)
I0403 16:02:14.801179 20657 net.cpp:156] Memory required for data: 1335929376
I0403 16:02:14.801193 20657 layer_factory.hpp:77] Creating layer inception_5b/pool
I0403 16:02:14.801214 20657 net.cpp:91] Creating Layer inception_5b/pool
I0403 16:02:14.801230 20657 net.cpp:425] inception_5b/pool <- inception_5a/output_inception_5a/output_0_split_3
I0403 16:02:14.801249 20657 net.cpp:399] inception_5b/pool -> inception_5b/pool
I0403 16:02:14.801321 20657 net.cpp:141] Setting up inception_5b/pool
I0403 16:02:14.801344 20657 net.cpp:148] Top shape: 24 832 7 7 (978432)
I0403 16:02:14.801358 20657 net.cpp:156] Memory required for data: 1339843104
I0403 16:02:14.801373 20657 layer_factory.hpp:77] Creating layer inception_5b/pool_proj
I0403 16:02:14.801393 20657 net.cpp:91] Creating Layer inception_5b/pool_proj
I0403 16:02:14.801411 20657 net.cpp:425] inception_5b/pool_proj <- inception_5b/pool
I0403 16:02:14.801431 20657 net.cpp:399] inception_5b/pool_proj -> inception_5b/pool_proj
I0403 16:02:14.803707 20657 net.cpp:141] Setting up inception_5b/pool_proj
I0403 16:02:14.803737 20657 net.cpp:148] Top shape: 24 128 7 7 (150528)
I0403 16:02:14.803755 20657 net.cpp:156] Memory required for data: 1340445216
I0403 16:02:14.803776 20657 layer_factory.hpp:77] Creating layer inception_5b/relu_pool_proj
I0403 16:02:14.803793 20657 net.cpp:91] Creating Layer inception_5b/relu_pool_proj
I0403 16:02:14.803809 20657 net.cpp:425] inception_5b/relu_pool_proj <- inception_5b/pool_proj
I0403 16:02:14.803829 20657 net.cpp:386] inception_5b/relu_pool_proj -> inception_5b/pool_proj (in-place)
I0403 16:02:14.804129 20657 net.cpp:141] Setting up inception_5b/relu_pool_proj
I0403 16:02:14.804155 20657 net.cpp:148] Top shape: 24 128 7 7 (150528)
I0403 16:02:14.804170 20657 net.cpp:156] Memory required for data: 1341047328
I0403 16:02:14.804184 20657 layer_factory.hpp:77] Creating layer inception_5b/output
I0403 16:02:14.804200 20657 net.cpp:91] Creating Layer inception_5b/output
I0403 16:02:14.804231 20657 net.cpp:425] inception_5b/output <- inception_5b/1x1
I0403 16:02:14.804250 20657 net.cpp:425] inception_5b/output <- inception_5b/3x3
I0403 16:02:14.804265 20657 net.cpp:425] inception_5b/output <- inception_5b/5x5
I0403 16:02:14.804281 20657 net.cpp:425] inception_5b/output <- inception_5b/pool_proj
I0403 16:02:14.804301 20657 net.cpp:399] inception_5b/output -> inception_5b/output
I0403 16:02:14.804350 20657 net.cpp:141] Setting up inception_5b/output
I0403 16:02:14.804378 20657 net.cpp:148] Top shape: 24 1024 7 7 (1204224)
I0403 16:02:14.804393 20657 net.cpp:156] Memory required for data: 1345864224
I0403 16:02:14.804406 20657 layer_factory.hpp:77] Creating layer pool5/7x7_s1
I0403 16:02:14.804425 20657 net.cpp:91] Creating Layer pool5/7x7_s1
I0403 16:02:14.804438 20657 net.cpp:425] pool5/7x7_s1 <- inception_5b/output
I0403 16:02:14.804455 20657 net.cpp:399] pool5/7x7_s1 -> pool5/7x7_s1
I0403 16:02:14.804673 20657 net.cpp:141] Setting up pool5/7x7_s1
I0403 16:02:14.804698 20657 net.cpp:148] Top shape: 24 1024 1 1 (24576)
I0403 16:02:14.804713 20657 net.cpp:156] Memory required for data: 1345962528
I0403 16:02:14.804728 20657 layer_factory.hpp:77] Creating layer pool5/drop_7x7_s1
I0403 16:02:14.804744 20657 net.cpp:91] Creating Layer pool5/drop_7x7_s1
I0403 16:02:14.804760 20657 net.cpp:425] pool5/drop_7x7_s1 <- pool5/7x7_s1
I0403 16:02:14.804779 20657 net.cpp:386] pool5/drop_7x7_s1 -> pool5/7x7_s1 (in-place)
I0403 16:02:14.804827 20657 net.cpp:141] Setting up pool5/drop_7x7_s1
I0403 16:02:14.804853 20657 net.cpp:148] Top shape: 24 1024 1 1 (24576)
I0403 16:02:14.804868 20657 net.cpp:156] Memory required for data: 1346060832
I0403 16:02:14.804883 20657 layer_factory.hpp:77] Creating layer loss3/classifier_plantvillage
I0403 16:02:14.804901 20657 net.cpp:91] Creating Layer loss3/classifier_plantvillage
I0403 16:02:14.804916 20657 net.cpp:425] loss3/classifier_plantvillage <- pool5/7x7_s1
I0403 16:02:14.804936 20657 net.cpp:399] loss3/classifier_plantvillage -> loss3/classifier_plantvillage
I0403 16:02:14.805379 20657 net.cpp:141] Setting up loss3/classifier_plantvillage
I0403 16:02:14.805405 20657 net.cpp:148] Top shape: 24 38 (912)
I0403 16:02:14.805421 20657 net.cpp:156] Memory required for data: 1346064480
I0403 16:02:14.805439 20657 layer_factory.hpp:77] Creating layer loss3/classifier_plantvillage_loss3/classifier_plantvillage_0_split
I0403 16:02:14.805464 20657 net.cpp:91] Creating Layer loss3/classifier_plantvillage_loss3/classifier_plantvillage_0_split
I0403 16:02:14.805480 20657 net.cpp:425] loss3/classifier_plantvillage_loss3/classifier_plantvillage_0_split <- loss3/classifier_plantvillage
I0403 16:02:14.805497 20657 net.cpp:399] loss3/classifier_plantvillage_loss3/classifier_plantvillage_0_split -> loss3/classifier_plantvillage_loss3/classifier_plantvillage_0_split_0
I0403 16:02:14.805519 20657 net.cpp:399] loss3/classifier_plantvillage_loss3/classifier_plantvillage_0_split -> loss3/classifier_plantvillage_loss3/classifier_plantvillage_0_split_1
I0403 16:02:14.805541 20657 net.cpp:399] loss3/classifier_plantvillage_loss3/classifier_plantvillage_0_split -> loss3/classifier_plantvillage_loss3/classifier_plantvillage_0_split_2
I0403 16:02:14.805559 20657 net.cpp:399] loss3/classifier_plantvillage_loss3/classifier_plantvillage_0_split -> loss3/classifier_plantvillage_loss3/classifier_plantvillage_0_split_3
I0403 16:02:14.805660 20657 net.cpp:141] Setting up loss3/classifier_plantvillage_loss3/classifier_plantvillage_0_split
I0403 16:02:14.805683 20657 net.cpp:148] Top shape: 24 38 (912)
I0403 16:02:14.805699 20657 net.cpp:148] Top shape: 24 38 (912)
I0403 16:02:14.805714 20657 net.cpp:148] Top shape: 24 38 (912)
I0403 16:02:14.805729 20657 net.cpp:148] Top shape: 24 38 (912)
I0403 16:02:14.805742 20657 net.cpp:156] Memory required for data: 1346079072
I0403 16:02:14.805757 20657 layer_factory.hpp:77] Creating layer loss1/loss
I0403 16:02:14.805778 20657 net.cpp:91] Creating Layer loss1/loss
I0403 16:02:14.805794 20657 net.cpp:425] loss1/loss <- loss1/classifier_plantvillage_loss1/classifier_plantvillage_0_split_0
I0403 16:02:14.805824 20657 net.cpp:425] loss1/loss <- label_data_1_split_0
…
