…
I0403 16:08:25.768276 20759 net.cpp:313] The NetState phase (1) differed from the phase (0) specified by a rule in layer data
I0403 16:08:25.769495 20759 net.cpp:49] Initializing net from parameters: 
state {
  phase: TEST
}
layer {
  name: "data"
  type: "Data"
  top: "data"
  top: "label"
  include {
    phase: TEST
  }
  transform_param {
    mirror: false
    crop_size: 224
    mean_file: "/home/mohanty/data/final_dataset/lmdb/color-40-60/mean.binaryproto"
  }
  data_param {
    source: "/home/mohanty/data/final_dataset/lmdb/color-40-60/test_db"
    batch_size: 24
    backend: LMDB
  }
}
layer {
  name: "conv1/7x7_s2"
  type: "Convolution"
  bottom: "data"
  top: "conv1/7x7_s2"
  param {
    lr_mult: 1
    decay_mult: 1
  }
  param {
    lr_mult: 2
    decay_mult: 0
  }
  convolution_param {
    num_output: 64
    pad: 3
    kernel_size: 7
    stride: 2
    weight_filler {
      type: "xavier"
      std: 0.1
    }
    bias_filler {
      type: "constant"
      value: 0.2
    }
  }
}
layer {
  name: "conv1/relu_7x7"
  type: "ReLU"
  bottom: "conv1/7x7_s2"
  top: "conv1/7x7_s2"
}
layer {
  name: "pool1/3x3_s2"
  type: "Pooling"
  bottom: "conv1/7x7_s2"
  top: "pool1/3x3_s2"
  pooling_param {
    pool: MAX
    kernel_size: 3
    stride: 2
  }
}
layer {
  name: "pool1/norm1"
  type: "LRN"
  bottom: "pool1/3x3_s2"
  top: "pool1/norm1"
  lrn_param {
    local_size: 5
    alpha: 0.0001
    beta: 0.75
  }
}
layer {
  name: "conv2/3x3_reduce"
  type: "Convolution"
  bottom: "pool1/norm1"
  top: "conv2/3x3_reduce"
  param {
    lr_mult: 1
    decay_mult: 1
  }
  param {
    lr_mult: 2
    decay_mult: 0
  }
  convolution_param {
    num_output: 64
    kernel_size: 1
    weight_filler {
      type: "xavier"
      std: 0.1
    }
    bias_filler {
      type: "constant"
      value: 0.2
    }
  }
}
layer {
  name: "conv2/relu_3x3_reduce"
  type: "ReLU"
  bottom: "conv2/3x3_reduce"
  top: "conv2/3x3_reduce"
}
layer {
  name: "conv2/3x3"
  type: "Convolution"
  bottom: "conv2/3x3_reduce"
  top: "conv2/3x3"
  param {
    lr_mult: 1
    decay_mult: 1
  }
  param {
    lr_mult: 2
    decay_mult: 0
  }
  convolution_param {
    num_output: 192
    pad: 1
    kernel_size: 3
    weight_filler {
      type: "xavier"
      std: 0.03
    }
    bias_filler {
      type: "constant"
      value: 0.2
    }
  }
}
layer {
  name: "conv2/relu_3x3"
  type: "ReLU"
  bottom: "conv2/3x3"
  top: "conv2/3x3"
}
layer {
  name: "conv2/norm2"
  type: "LRN"
  bottom: "conv2/3x3"
  top: "conv2/norm2"
  lrn_param {
    local_size: 5
    alpha: 0.0001
    beta: 0.75
  }
}
layer {
  name: "pool2/3x3_s2"
  type: "Pooling"
  bottom: "conv2/norm2"
  top: "pool2/3x3_s2"
  pooling_param {
    pool: MAX
    kernel_size: 3
    stride: 2
  }
}
layer {
  name: "inception_3a/1x1"
  type: "Convolution"
  bottom: "pool2/3x3_s2"
  top: "inception_3a/1x1"
  param {
    lr_mult: 1
    decay_mult: 1
  }
  param {
    lr_mult: 2
    decay_mult: 0
  }
  convolution_param {
    num_output: 64
    kernel_size: 1
    weight_filler {
      type: "xavier"
      std: 0.03
    }
    bias_filler {
      type: "constant"
      value: 0.2
    }
  }
}
layer {
  name: "inception_3a/relu_1x1"
  type: "ReLU"
  bottom: "inception_3a/1x1"
  top: "inception_3a/1x1"
}
layer {
  name: "inception_3a/3x3_reduce"
  type: "Convolution"
  bottom: "pool2/3x3_s2"
  top: "inception_3a/3x3_reduce"
  param {
    lr_mult: 1
    decay_mult: 1
  }
  param {
    lr_mult: 2
    decay_mult: 0
  }
  convolution_param {
    num_output: 96
    kernel_size: 1
    weight_filler {
      type: "xavier"
      std: 0.09
    }
    bias_filler {
      type: "constant"
      value: 0.2
    }
  }
}
layer {
  name: "inception_3a/relu_3x3_reduce"
  type: "ReLU"
  bottom: "inception_3a/3x3_reduce"
  top: "inception_3a/3x3_reduce"
}
layer {
  name: "inception_3a/3x3"
  type: "Convolution"
  bottom: "inception_3a/3x3_reduce"
  top: "inception_3a/3x3"
  param {
    lr_mult: 1
    decay_mult: 1
  }
  param {
    lr_mult: 2
    decay_mult: 0
  }
  convolution_param {
    num_output: 128
    pad: 1
    kernel_size: 3
    weight_filler {
      type: "xavier"
      std: 0.03
    }
    bias_filler {
      type: "constant"
      value: 0.2
    }
  }
}
layer {
  name: "inception_3a/relu_3x3"
  type: "ReLU"
  bottom: "inception_3a/3x3"
  top: "inception_3a/3x3"
}
layer {
  name: "inception_3a/5x5_reduce"
  type: "Convolution"
  bottom: "pool2/3x3_s2"
  top: "inception_3a/5x5_reduce"
  param {
    lr_mult: 1
    decay_mult: 1
  }
  param {
    lr_mult: 2
    decay_mult: 0
  }
  convolution_param {
    num_output: 16
    kernel_size: 1
    weight_filler {
      type: "xavier"
      std: 0.2
    }
    bias_filler {
      type: "constant"
      value: 0.2
    }
  }
}
layer {
  name: "inception_3a/relu_5x5_reduce"
  type: "ReLU"
  bottom: "inception_3a/5x5_reduce"
  top: "inception_3a/5x5_reduce"
}
layer {
  name: "inception_3a/5x5"
  type: "Convolution"
  bottom: "inception_3a/5x5_reduce"
  top: "inception_3a/5x5"
  param {
    lr_mult: 1
    decay_mult: 1
  }
  param {
    lr_mult: 2
    decay_mult: 0
  }
  convolution_param {
    num_output: 32
    pad: 2
    kernel_size: 5
    weight_filler {
      type: "xavier"
      std: 0.03
    }
    bias_filler {
      type: "constant"
      value: 0.2
    }
  }
}
layer {
  name: "inception_3a/relu_5x5"
  type: "ReLU"
  bottom: "inception_3a/5x5"
  top: "inception_3a/5x5"
}
layer {
  name: "inception_3a/pool"
  type: "Pooling"
  bottom: "pool2/3x3_s2"
  top: "inception_3a/pool"
  pooling_param {
    pool: MAX
    kernel_size: 3
    stride: 1
    pad: 1
  }
}
layer {
  name: "inception_3a/pool_proj"
  type: "Convolution"
  bottom: "inception_3a/pool"
  top: "inception_3a/pool_proj"
  param {
    lr_mult: 1
    decay_mult: 1
  }
  param {
    lr_mult: 2
    decay_mult: 0
  }
  convolution_param {
    num_output: 32
    kernel_size: 1
    weight_filler {
      type: "xavier"
      std: 0.1
    }
    bias_filler {
      type: "constant"
      value: 0.2
    }
  }
}
layer {
  name: "inception_3a/relu_pool_proj"
  type: "ReLU"
  bottom: "inception_3a/pool_proj"
  top: "inception_3a/pool_proj"
}
layer {
  name: "inception_3a/output"
  type: "Concat"
  bottom: "inception_3a/1x1"
  bottom: "inception_3a/3x3"
  bottom: "inception_3a/5x5"
  bottom: "inception_3a/pool_proj"
  top: "inception_3a/output"
}
layer {
  name: "inception_3b/1x1"
  type: "Convolution"
  bottom: "inception_3a/output"
  top: "inception_3b/1x1"
  param {
    lr_mult: 1
    decay_mult: 1
  }
  param {
    lr_mult: 2
    decay_mult: 0
  }
  convolution_param {
    num_output: 128
    kernel_size: 1
    weight_filler {
      type: "xavier"
      std: 0.03
    }
    bias_filler {
      type: "constant"
      value: 0.2
    }
  }
}
layer {
  name: "inception_3b/relu_1x1"
  type: "ReLU"
  bottom: "inception_3b/1x1"
  top: "inception_3b/1x1"
}
layer {
  name: "inception_3b/3x3_reduce"
  type: "Convolution"
  bottom: "inception_3a/output"
  top: "inception_3b/3x3_reduce"
  param {
    lr_mult: 1
    decay_mult: 1
  }
  param {
    lr_mult: 2
    decay_mult: 0
  }
  convolution_param {
    num_output: 128
    kernel_size: 1
    weight_filler {
      type: "xavier"
      std: 0.09
    }
    bias_filler {
      type: "constant"
      value: 0.2
    }
  }
}
layer {
  name: "inception_3b/relu_3x3_reduce"
  type: "ReLU"
  bottom: "inception_3b/3x3_reduce"
  top: "inception_3b/3x3_reduce"
}
layer {
  name: "inception_3b/3x3"
  type: "Convolution"
  bottom: "inception_3b/3x3_reduce"
  top: "inception_3b/3x3"
  param {
    lr_mult: 1
    decay_mult: 1
  }
  param {
    lr_mult: 2
    decay_mult: 0
  }
  convolution_param {
    num_output: 192
    pad: 1
    kernel_size: 3
    weight_filler {
      type: "xavier"
      std: 0.03
    }
    bias_filler {
      type: "constant"
      value: 0.2
    }
  }
}
layer {
  name: "inception_3b/relu_3x3"
  type: "ReLU"
  bottom: "inception_3b/3x3"
  top: "inception_3b/3x3"
}
layer {
  name: "inception_3b/5x5_reduce"
  type: "Convolution"
  bottom: "inception_3a/output"
  top: "inception_3b/5x5_reduce"
  param {
    lr_mult: 1
    decay_mult: 1
  }
  param {
    lr_mult: 2
    decay_mult: 0
  }
  convolution_param {
    num_output: 32
    kernel_size: 1
    weight_filler {
      type: "xavier"
      std: 0.2
    }
    bias_filler {
      type: "constant"
      value: 0.2
    }
  }
}
layer {
  name: "inception_3b/relu_5x5_reduce"
  type: "ReLU"
  bottom: "inception_3b/5x5_reduce"
  top: "inception_3b/5x5_reduce"
}
layer {
  name: "inception_3b/5x5"
  type: "Convolution"
  bottom: "inception_3b/5x5_reduce"
  top: "inception_3b/5x5"
  param {
    lr_mult: 1
    decay_mult: 1
  }
  param {
    lr_mult: 2
    decay_mult: 0
  }
  convolution_param {
    num_output: 96
    pad: 2
    kernel_size: 5
    weight_filler {
      type: "xavier"
      std: 0.03
    }
    bias_filler {
      type: "constant"
      value: 0.2
    }
  }
}
layer {
  name: "inception_3b/relu_5x5"
  type: "ReLU"
  bottom: "inception_3b/5x5"
  top: "inception_3b/5x5"
}
layer {
  name: "inception_3b/pool"
  type: "Pooling"
  bottom: "inception_3a/output"
  top: "inception_3b/pool"
  pooling_param {
    pool: MAX
    kernel_size: 3
    stride: 1
    pad: 1
  }
}
layer {
  name: "inception_3b/pool_proj"
  type: "Convolution"
  bottom: "inception_3b/pool"
  top: "inception_3b/pool_proj"
  param {
    lr_mult: 1
    decay_mult: 1
  }
  param {
    lr_mult: 2
    decay_mult: 0
  }
  convolution_param {
    num_output: 64
    kernel_size: 1
    weight_filler {
      type: "xavier"
      std: 0.1
    }
    bias_filler {
      type: "constant"
      value: 0.2
    }
  }
}
layer {
  name: "inception_3b/relu_pool_proj"
  type: "ReLU"
  bottom: "inception_3b/pool_proj"
  top: "inception_3b/pool_proj"
}
layer {
  name: "inception_3b/output"
  type: "Concat"
  bottom: "inception_3b/1x1"
  bottom: "inception_3b/3x3"
  bottom: "inception_3b/5x5"
  bottom: "inception_3b/pool_proj"
  top: "inception_3b/output"
}
layer {
  name: "pool3/3x3_s2"
  type: "Pooling"
  bottom: "inception_3b/output"
  top: "pool3/3x3_s2"
  pooling_param {
    pool: MAX
    kernel_size: 3
    stride: 2
  }
}
layer {
  name: "inception_4a/1x1"
  type: "Convolution"
  bottom: "pool3/3x3_s2"
  top: "inception_4a/1x1"
  param {
    lr_mult: 1
    decay_mult: 1
  }
  param {
    lr_mult: 2
    decay_mult: 0
  }
  convolution_param {
    num_output: 192
    kernel_size: 1
    weight_filler {
      type: "xavier"
      std: 0.03
    }
    bias_filler {
      type: "constant"
      value: 0.2
    }
  }
}
layer {
  name: "inception_4a/relu_1x1"
  type: "ReLU"
  bottom: "inception_4a/1x1"
  top: "inception_4a/1x1"
}
layer {
  name: "inception_4a/3x3_reduce"
  type: "Convolution"
  bottom: "pool3/3x3_s2"
  top: "inception_4a/3x3_reduce"
  param {
    lr_mult: 1
    decay_mult: 1
  }
  param {
    lr_mult: 2
    decay_mult: 0
  }
  convolution_param {
    num_output: 96
    kernel_size: 1
    weight_filler {
      type: "xavier"
      std: 0.09
    }
    bias_filler {
      type: "constant"
      value: 0.2
    }
  }
}
layer {
  name: "inception_4a/relu_3x3_reduce"
  type: "ReLU"
  bottom: "inception_4a/3x3_reduce"
  top: "inception_4a/3x3_reduce"
}
layer {
  name: "inception_4a/3x3"
  type: "Convolution"
  bottom: "inception_4a/3x3_reduce"
  top: "inception_4a/3x3"
  param {
    lr_mult: 1
    decay_mult: 1
  }
  param {
    lr_mult: 2
    decay_mult: 0
  }
  convolution_param {
    num_output: 208
    pad: 1
    kernel_size: 3
    weight_filler {
      type: "xavier"
      std: 0.03
    }
    bias_filler {
      type: "constant"
      value: 0.2
    }
  }
}
layer {
  name: "inception_4a/relu_3x3"
  type: "ReLU"
  bottom: "inception_4a/3x3"
  top: "inception_4a/3x3"
}
layer {
  name: "inception_4a/5x5_reduce"
  type: "Convolution"
  bottom: "pool3/3x3_s2"
  top: "inception_4a/5x5_reduce"
  param {
    lr_mult: 1
    decay_mult: 1
  }
  param {
    lr_mult: 2
    decay_mult: 0
  }
  convolution_param {
    num_output: 16
    kernel_size: 1
    weight_filler {
      type: "xavier"
      std: 0.2
    }
    bias_filler {
      type: "constant"
      value: 0.2
    }
  }
}
layer {
  name: "inception_4a/relu_5x5_reduce"
  type: "ReLU"
  bottom: "inception_4a/5x5_reduce"
  top: "inception_4a/5x5_reduce"
}
layer {
  name: "inception_4a/5x5"
  type: "Convolution"
  bottom: "inception_4a/5x5_reduce"
  top: "inception_4a/5x5"
  param {
    lr_mult: 1
    decay_mult: 1
  }
  param {
    lr_mult: 2
    decay_mult: 0
  }
  convolution_param {
    num_output: 48
    pad: 2
    kernel_size: 5
    weight_filler {
      type: "xavier"
      std: 0.03
    }
    bias_filler {
      type: "constant"
      value: 0.2
    }
  }
}
layer {
  name: "inception_4a/relu_5x5"
  type: "ReLU"
  bottom: "inception_4a/5x5"
  top: "inception_4a/5x5"
}
layer {
  name: "inception_4a/pool"
  type: "Pooling"
  bottom: "pool3/3x3_s2"
  top: "inception_4a/pool"
  pooling_param {
    pool: MAX
    kernel_size: 3
    stride: 1
    pad: 1
  }
}
layer {
  name: "inception_4a/pool_proj"
  type: "Convolution"
  bottom: "inception_4a/pool"
  top: "inception_4a/pool_proj"
  param {
    lr_mult: 1
    decay_mult: 1
  }
  param {
    lr_mult: 2
    decay_mult: 0
  }
  convolution_param {
    num_output: 64
    kernel_size: 1
    weight_filler {
      type: "xavier"
      std: 0.1
    }
    bias_filler {
      type: "constant"
      value: 0.2
    }
  }
}
layer {
  name: "inception_4a/relu_pool_proj"
  type: "ReLU"
  bottom: "inception_4a/pool_proj"
  top: "inception_4a/pool_proj"
}
layer {
  name: "inception_4a/output"
  type: "Concat"
  bottom: "inception_4a/1x1"
  bottom: "inception_4a/3x3"
  bottom: "inception_4a/5x5"
  bottom: "inception_4a/pool_proj"
  top: "inception_4a/output"
}
layer {
  name: "loss1/ave_pool"
  type: "Pooling"
  bottom: "inception_4a/output"
  top: "loss1/ave_pool"
  pooling_param {
    pool: AVE
    kernel_size: 5
    stride: 3
  }
}
layer {
  name: "loss1/conv"
  type: "Convolution"
  bottom: "loss1/ave_pool"
  top: "loss1/conv"
  param {
    lr_mult: 1
    decay_mult: 1
  }
  param {
    lr_mult: 2
    decay_mult: 0
  }
  convolution_param {
    num_output: 128
    kernel_size: 1
    weight_filler {
      type: "xavier"
      std: 0.08
    }
    bias_filler {
      type: "constant"
      value: 0.2
    }
  }
}
layer {
  name: "loss1/relu_conv"
  type: "ReLU"
  bottom: "loss1/conv"
  top: "loss1/conv"
}
layer {
  name: "loss1/fc"
  type: "InnerProduct"
  bottom: "loss1/conv"
  top: "loss1/fc"
  param {
    lr_mult: 1
    decay_mult: 1
  }
  param {
    lr_mult: 2
    decay_mult: 0
  }
  inner_product_param {
    num_output: 1024
    weight_filler {
      type: "xavier"
      std: 0.02
    }
    bias_filler {
      type: "constant"
      value: 0.2
    }
  }
}
layer {
  name: "loss1/relu_fc"
  type: "ReLU"
  bottom: "loss1/fc"
  top: "loss1/fc"
}
layer {
  name: "loss1/drop_fc"
  type: "Dropout"
  bottom: "loss1/fc"
  top: "loss1/fc"
  dropout_param {
    dropout_ratio: 0.7
  }
}
layer {
  name: "loss1/classifier_plantvillage"
  type: "InnerProduct"
  bottom: "loss1/fc"
  top: "loss1/classifier_plantvillage"
  param {
    lr_mult: 1
    decay_mult: 1
  }
  param {
    lr_mult: 2
    decay_mult: 0
  }
  inner_product_param {
    num_output: 38
    weight_filler {
      type: "xavier"
      std: 0.0009765625
    }
    bias_filler {
      type: "constant"
      value: 0
    }
  }
}
layer {
  name: "inception_4b/1x1"
  type: "Convolution"
  bottom: "inception_4a/output"
  top: "inception_4b/1x1"
  param {
    lr_mult: 1
    decay_mult: 1
  }
  param {
    lr_mult: 2
    decay_mult: 0
  }
  convolution_param {
    num_output: 160
    kernel_size: 1
    weight_filler {
      type: "xavier"
      std: 0.03
    }
    bias_filler {
      type: "constant"
      value: 0.2
    }
  }
}
layer {
  name: "inception_4b/relu_1x1"
  type: "ReLU"
  bottom: "inception_4b/1x1"
  top: "inception_4b/1x1"
}
layer {
  name: "inception_4b/3x3_reduce"
  type: "Convolution"
  bottom: "inception_4a/output"
  top: "inception_4b/3x3_reduce"
  param {
    lr_mult: 1
    decay_mult: 1
  }
  param {
    lr_mult: 2
    decay_mult: 0
  }
  convolution_param {
    num_output: 112
    kernel_size: 1
    weight_filler {
      type: "xavier"
      std: 0.09
    }
    bias_filler {
      type: "constant"
      value: 0.2
    }
  }
}
layer {
  name: "inception_4b/relu_3x3_reduce"
  type: "ReLU"
  bottom: "inception_4b/3x3_reduce"
  top: "inception_4b/3x3_reduce"
}
layer {
  name: "inception_4b/3x3"
  type: "Convolution"
  bottom: "inception_4b/3x3_reduce"
  top: "inception_4b/3x3"
  param {
    lr_mult: 1
    decay_mult: 1
  }
  param {
    lr_mult: 2
    decay_mult: 0
  }
  convolution_param {
    num_output: 224
    pad: 1
    kernel_size: 3
    weight_filler {
      type: "xavier"
      std: 0.03
    }
    bias_filler {
      type: "constant"
      value: 0.2
    }
  }
}
layer {
  name: "inception_4b/relu_3x3"
  type: "ReLU"
  bottom: "inception_4b/3x3"
  top: "inception_4b/3x3"
}
layer {
  name: "inception_4b/5x5_reduce"
  type: "Convolution"
  bottom: "inception_4a/output"
  top: "inception_4b/5x5_reduce"
  param {
    lr_mult: 1
    decay_mult: 1
  }
  param {
    lr_mult: 2
    decay_mult: 0
  }
  convolution_param {
    num_output: 24
    kernel_size: 1
    weight_filler {
      type: "xavier"
      std: 0.2
    }
    bias_filler {
      type: "constant"
      value: 0.2
    }
  }
}
layer {
  name: "inception_4b/relu_5x5_reduce"
  type: "ReLU"
  bottom: "inception_4b/5x5_reduce"
  top: "inception_4b/5x5_reduce"
}
layer {
  name: "inception_4b/5x5"
  type: "Convolution"
  bottom: "inception_4b/5x5_reduce"
  top: "inception_4b/5x5"
  param {
    lr_mult: 1
    decay_mult: 1
  }
  param {
    lr_mult: 2
    decay_mult: 0
  }
  convolution_param {
    num_output: 64
    pad: 2
    kernel_size: 5
    weight_filler {
      type: "xavier"
      std: 0.03
    }
    bias_filler {
      type: "constant"
      value: 0.2
    }
  }
}
layer {
  name: "inception_4b/relu_5x5"
  type: "ReLU"
  bottom: "inception_4b/5x5"
  top: "inception_4b/5x5"
}
layer {
  name: "inception_4b/pool"
  type: "Pooling"
  bottom: "inception_4a/output"
  top: "inception_4b/pool"
  pooling_param {
    pool: MAX
    kernel_size: 3
    stride: 1
    pad: 1
  }
}
layer {
  name: "inception_4b/pool_proj"
  type: "Convolution"
  bottom: "inception_4b/pool"
  top: "inception_4b/pool_proj"
  param {
    lr_mult: 1
    decay_mult: 1
  }
  param {
    lr_mult: 2
    decay_mult: 0
  }
  convolution_param {
    num_output: 64
    kernel_size: 1
    weight_filler {
      type: "xavier"
      std: 0.1
    }
    bias_filler {
      type: "constant"
      value: 0.2
    }
  }
}
layer {
  name: "inception_4b/relu_pool_proj"
  type: "ReLU"
  bottom: "inception_4b/pool_proj"
  top: "inception_4b/pool_proj"
}
layer {
  name: "inception_4b/output"
  type: "Concat"
  bottom: "inception_4b/1x1"
  bottom: "inception_4b/3x3"
  bottom: "inception_4b/5x5"
  bottom: "inception_4b/pool_proj"
  top: "inception_4b/output"
}
layer {
  name: "inception_4c/1x1"
  type: "Convolution"
  bottom: "inception_4b/output"
  top: "inception_4c/1x1"
  param {
    lr_mult: 1
    decay_mult: 1
  }
  param {
    lr_mult: 2
    decay_mult: 0
  }
  convolution_param {
    num_output: 128
    kernel_size: 1
    weight_filler {
      type: "xavier"
      std: 0.03
    }
    bias_filler {
      type: "constant"
      value: 0.2
    }
  }
}
layer {
  name: "inception_4c/relu_1x1"
  type: "ReLU"
  bottom: "inception_4c/1x1"
  top: "inception_4c/1x1"
}
layer {
  name: "inception_4c/3x3_reduce"
  type: "Convolution"
  bottom: "inception_4b/output"
  top: "inception_4c/3x3_reduce"
  param {
    lr_mult: 1
    decay_mult: 1
  }
  param {
    lr_mult: 2
    decay_mult: 0
  }
  convolution_param {
    num_output: 128
    kernel_size: 1
    weight_filler {
      type: "xavier"
      std: 0.09
    }
    bias_filler {
      type: "constant"
      value: 0.2
    }
  }
}
layer {
  name: "inception_4c/relu_3x3_reduce"
  type: "ReLU"
  bottom: "inception_4c/3x3_reduce"
  top: "inception_4c/3x3_reduce"
}
layer {
  name: "inception_4c/3x3"
  type: "Convolution"
  bottom: "inception_4c/3x3_reduce"
  top: "inception_4c/3x3"
  param {
    lr_mult: 1
    decay_mult: 1
  }
  param {
    lr_mult: 2
    decay_mult: 0
  }
  convolution_param {
    num_output: 256
    pad: 1
    kernel_size: 3
    weight_filler {
      type: "xavier"
      std: 0.03
    }
    bias_filler {
      type: "constant"
      value: 0.2
    }
  }
}
layer {
  name: "inception_4c/relu_3x3"
  type: "ReLU"
  bottom: "inception_4c/3x3"
  top: "inception_4c/3x3"
}
layer {
  name: "inception_4c/5x5_reduce"
  type: "Convolution"
  bottom: "inception_4b/output"
  top: "inception_4c/5x5_reduce"
  param {
    lr_mult: 1
    decay_mult: 1
  }
  param {
    lr_mult: 2
    decay_mult: 0
  }
  convolution_param {
    num_output: 24
    kernel_size: 1
    weight_filler {
      type: "xavier"
      std: 0.2
    }
    bias_filler {
      type: "constant"
      value: 0.2
    }
  }
}
layer {
  name: "inception_4c/relu_5x5_reduce"
  type: "ReLU"
  bottom: "inception_4c/5x5_reduce"
  top: "inception_4c/5x5_reduce"
}
layer {
  name: "inception_4c/5x5"
  type: "Convolution"
  bottom: "inception_4c/5x5_reduce"
  top: "inception_4c/5x5"
  param {
    lr_mult: 1
    decay_mult: 1
  }
  param {
    lr_mult: 2
    decay_mult: 0
  }
  convolution_param {
    num_output: 64
    pad: 2
    kernel_size: 5
    weight_filler {
      type: "xavier"
      std: 0.03
    }
    bias_filler {
      type: "constant"
      value: 0.2
    }
  }
}
layer {
  name: "inception_4c/relu_5x5"
  type: "ReLU"
  bottom: "inception_4c/5x5"
  top: "inception_4c/5x5"
}
layer {
  name: "inception_4c/pool"
  type: "Pooling"
  bottom: "inception_4b/output"
  top: "inception_4c/pool"
  pooling_param {
    pool: MAX
    kernel_size: 3
    stride: 1
    pad: 1
  }
}
layer {
  name: "inception_4c/pool_proj"
  type: "Convolution"
  bottom: "inception_4c/pool"
  top: "inception_4c/pool_proj"
  param {
    lr_mult: 1
    decay_mult: 1
  }
  param {
    lr_mult: 2
    decay_mult: 0
  }
  convolution_param {
    num_output: 64
    kernel_size: 1
    weight_filler {
      type: "xavier"
      std: 0.1
    }
    bias_filler {
      type: "constant"
      value: 0.2
    }
  }
}
layer {
  name: "inception_4c/relu_pool_proj"
  type: "ReLU"
  bottom: "inception_4c/pool_proj"
  top: "inception_4c/pool_proj"
}
layer {
  name: "inception_4c/output"
  type: "Concat"
  bottom: "inception_4c/1x1"
  bottom: "inception_4c/3x3"
  bottom: "inception_4c/5x5"
  bottom: "inception_4c/pool_proj"
  top: "inception_4c/output"
}
layer {
  name: "inception_4d/1x1"
  type: "Convolution"
  bottom: "inception_4c/output"
  top: "inception_4d/1x1"
  param {
    lr_mult: 1
    decay_mult: 1
  }
  param {
    lr_mult: 2
    decay_mult: 0
  }
  convolution_param {
    num_output: 112
    kernel_size: 1
    weight_filler {
      type: "xavier"
      std: 0.03
    }
    bias_filler {
      type: "constant"
      value: 0.2
    }
  }
}
layer {
  name: "inception_4d/relu_1x1"
  type: "ReLU"
  bottom: "inception_4d/1x1"
  top: "inception_4d/1x1"
}
layer {
  name: "inception_4d/3x3_reduce"
  type: "Convolution"
  bottom: "inception_4c/output"
  top: "inception_4d/3x3_reduce"
  param {
    lr_mult: 1
    decay_mult: 1
  }
  param {
    lr_mult: 2
    decay_mult: 0
  }
  convolution_param {
    num_output: 144
    kernel_size: 1
    weight_filler {
      type: "xavier"
      std: 0.09
    }
    bias_filler {
      type: "constant"
      value: 0.2
    }
  }
}
layer {
  name: "inception_4d/relu_3x3_reduce"
  type: "ReLU"
  bottom: "inception_4d/3x3_reduce"
  top: "inception_4d/3x3_reduce"
}
layer {
  name: "inception_4d/3x3"
  type: "Convolution"
  bottom: "inception_4d/3x3_reduce"
  top: "inception_4d/3x3"
  param {
    lr_mult: 1
    decay_mult: 1
  }
  param {
    lr_mult: 2
    decay_mult: 0
  }
  convolution_param {
    num_output: 288
    pad: 1
    kernel_size: 3
    weight_filler {
      type: "xavier"
      std: 0.03
    }
    bias_filler {
      type: "constant"
      value: 0.2
    }
  }
}
layer {
  name: "inception_4d/relu_3x3"
  type: "ReLU"
  bottom: "inception_4d/3x3"
  top: "inception_4d/3x3"
}
layer {
  name: "inception_4d/5x5_reduce"
  type: "Convolution"
  bottom: "inception_4c/output"
  top: "inception_4d/5x5_reduce"
  param {
    lr_mult: 1
    decay_mult: 1
  }
  param {
    lr_mult: 2
    decay_mult: 0
  }
  convolution_param {
    num_output: 32
    kernel_size: 1
    weight_filler {
      type: "xavier"
      std: 0.2
    }
    bias_filler {
      type: "constant"
      value: 0.2
    }
  }
}
layer {
  name: "inception_4d/relu_5x5_reduce"
  type: "ReLU"
  bottom: "inception_4d/5x5_reduce"
  top: "inception_4d/5x5_reduce"
}
layer {
  name: "inception_4d/5x5"
  type: "Convolution"
  bottom: "inception_4d/5x5_reduce"
  top: "inception_4d/5x5"
  param {
    lr_mult: 1
    decay_mult: 1
  }
  param {
    lr_mult: 2
    decay_mult: 0
  }
  convolution_param {
    num_output: 64
    pad: 2
    kernel_size: 5
    weight_filler {
      type: "xavier"
      std: 0.03
    }
    bias_filler {
      type: "constant"
      value: 0.2
    }
  }
}
layer {
  name: "inception_4d/relu_5x5"
  type: "ReLU"
  bottom: "inception_4d/5x5"
  top: "inception_4d/5x5"
}
layer {
  name: "inception_4d/pool"
  type: "Pooling"
  bottom: "inception_4c/output"
  top: "inception_4d/pool"
  pooling_param {
    pool: MAX
    kernel_size: 3
    stride: 1
    pad: 1
  }
}
layer {
  name: "inception_4d/pool_proj"
  type: "Convolution"
  bottom: "inception_4d/pool"
  top: "inception_4d/pool_proj"
  param {
    lr_mult: 1
    decay_mult: 1
  }
  param {
    lr_mult: 2
    decay_mult: 0
  }
  convolution_param {
    num_output: 64
    kernel_size: 1
    weight_filler {
      type: "xavier"
      std: 0.1
    }
    bias_filler {
      type: "constant"
      value: 0.2
    }
  }
}
layer {
  name: "inception_4d/relu_pool_proj"
  type: "ReLU"
  bottom: "inception_4d/pool_proj"
  top: "inception_4d/pool_proj"
}
layer {
  name: "inception_4d/output"
  type: "Concat"
  bottom: "inception_4d/1x1"
  bottom: "inception_4d/3x3"
  bottom: "inception_4d/5x5"
  bottom: "inception_4d/pool_proj"
  top: "inception_4d/output"
}
layer {
  name: "loss2/ave_pool"
  type: "Pooling"
  bottom: "inception_4d/output"
  top: "loss2/ave_pool"
  pooling_param {
    pool: AVE
    kernel_size: 5
    stride: 3
  }
}
layer {
  name: "loss2/conv"
  type: "Convolution"
  bottom: "loss2/ave_pool"
  top: "loss2/conv"
  param {
    lr_mult: 1
    decay_mult: 1
  }
  param {
    lr_mult: 2
    decay_mult: 0
  }
  convolution_param {
    num_output: 128
    kernel_size: 1
    weight_filler {
      type: "xavier"
      std: 0.08
    }
    bias_filler {
      type: "constant"
      value: 0.2
    }
  }
}
layer {
  name: "loss2/relu_conv"
  type: "ReLU"
  bottom: "loss2/conv"
  top: "loss2/conv"
}
layer {
  name: "loss2/fc"
  type: "InnerProduct"
  bottom: "loss2/conv"
  top: "loss2/fc"
  param {
    lr_mult: 1
    decay_mult: 1
  }
  param {
    lr_mult: 2
    decay_mult: 0
  }
  inner_product_param {
    num_output: 1024
    weight_filler {
      type: "xavier"
      std: 0.02
    }
    bias_filler {
      type: "constant"
      value: 0.2
    }
  }
}
layer {
  name: "loss2/relu_fc"
  type: "ReLU"
  bottom: "loss2/fc"
  top: "loss2/fc"
}
layer {
  name: "loss2/drop_fc"
  type: "Dropout"
  bottom: "loss2/fc"
  top: "loss2/fc"
  dropout_param {
    dropout_ratio: 0.7
  }
}
layer {
  name: "loss2/classifier_plantvillage"
  type: "InnerProduct"
  bottom: "loss2/fc"
  top: "loss2/classifier_plantvillage"
  param {
    lr_mult: 1
    decay_mult: 1
  }
  param {
    lr_mult: 2
    decay_mult: 0
  }
  inner_product_param {
    num_output: 38
    weight_filler {
      type: "xavier"
      std: 0.0009765625
    }
    bias_filler {
      type: "constant"
      value: 0
    }
  }
}
layer {
  name: "inception_4e/1x1"
  type: "Convolution"
  bottom: "inception_4d/output"
  top: "inception_4e/1x1"
  param {
    lr_mult: 1
    decay_mult: 1
  }
  param {
    lr_mult: 2
    decay_mult: 0
  }
  convolution_param {
    num_output: 256
    kernel_size: 1
    weight_filler {
      type: "xavier"
      std: 0.03
    }
    bias_filler {
      type: "constant"
      value: 0.2
    }
  }
}
layer {
  name: "inception_4e/relu_1x1"
  type: "ReLU"
  bottom: "inception_4e/1x1"
  top: "inception_4e/1x1"
}
layer {
  name: "inception_4e/3x3_reduce"
  type: "Convolution"
  bottom: "inception_4d/output"
  top: "inception_4e/3x3_reduce"
  param {
    lr_mult: 1
    decay_mult: 1
  }
  param {
    lr_mult: 2
    decay_mult: 0
  }
  convolution_param {
    num_output: 160
    kernel_size: 1
    weight_filler {
      type: "xavier"
      std: 0.09
    }
    bias_filler {
      type: "constant"
      value: 0.2
    }
  }
}
layer {
  name: "inception_4e/relu_3x3_reduce"
  type: "ReLU"
  bottom: "inception_4e/3x3_reduce"
  top: "inception_4e/3x3_reduce"
}
layer {
  name: "inception_4e/3x3"
  type: "Convolution"
  bottom: "inception_4e/3x3_reduce"
  top: "inception_4e/3x3"
  param {
    lr_mult: 1
    decay_mult: 1
  }
  param {
    lr_mult: 2
    decay_mult: 0
  }
  convolution_param {
    num_output: 320
    pad: 1
    kernel_size: 3
    weight_filler {
      type: "xavier"
      std: 0.03
    }
    bias_filler {
      type: "constant"
      value: 0.2
    }
  }
}
layer {
  name: "inception_4e/relu_3x3"
  type: "ReLU"
  bottom: "inception_4e/3x3"
  top: "inception_4e/3x3"
}
layer {
  name: "inception_4e/5x5_reduce"
  type: "Convolution"
  bottom: "inception_4d/output"
  top: "inception_4e/5x5_reduce"
  param {
    lr_mult: 1
    decay_mult: 1
  }
  param {
    lr_mult: 2
    decay_mult: 0
  }
  convolution_param {
    num_output: 32
    kernel_size: 1
    weight_filler {
      type: "xavier"
      std: 0.2
    }
    bias_filler {
      type: "constant"
      value: 0.2
    }
  }
}
layer {
  name: "inception_4e/relu_5x5_reduce"
  type: "ReLU"
  bottom: "inception_4e/5x5_reduce"
  top: "inception_4e/5x5_reduce"
}
layer {
  name: "inception_4e/5x5"
  type: "Convolution"
  bottom: "inception_4e/5x5_reduce"
  top: "inception_4e/5x5"
  p
I0403 16:08:25.770758 20759 layer_factory.hpp:77] Creating layer data
I0403 16:08:25.771391 20759 net.cpp:91] Creating Layer data
I0403 16:08:25.771425 20759 net.cpp:399] data -> data
I0403 16:08:25.771477 20759 net.cpp:399] data -> label
I0403 16:08:25.771517 20759 data_transformer.cpp:25] Loading mean file from: /home/mohanty/data/final_dataset/lmdb/color-40-60/mean.binaryproto
I0403 16:08:25.772759 20762 db_lmdb.cpp:38] Opened lmdb /home/mohanty/data/final_dataset/lmdb/color-40-60/test_db
I0403 16:08:25.785001 20759 data_layer.cpp:41] output data size: 24,3,224,224
I0403 16:08:25.815685 20759 net.cpp:141] Setting up data
I0403 16:08:25.815781 20759 net.cpp:148] Top shape: 24 3 224 224 (3612672)
I0403 16:08:25.815804 20759 net.cpp:148] Top shape: 24 (24)
I0403 16:08:25.815820 20759 net.cpp:156] Memory required for data: 14450784
I0403 16:08:25.815848 20759 layer_factory.hpp:77] Creating layer label_data_1_split
I0403 16:08:25.815876 20759 net.cpp:91] Creating Layer label_data_1_split
I0403 16:08:25.815892 20759 net.cpp:425] label_data_1_split <- label
I0403 16:08:25.815924 20759 net.cpp:399] label_data_1_split -> label_data_1_split_0
I0403 16:08:25.815953 20759 net.cpp:399] label_data_1_split -> label_data_1_split_1
I0403 16:08:25.815980 20759 net.cpp:399] label_data_1_split -> label_data_1_split_2
I0403 16:08:25.816002 20759 net.cpp:399] label_data_1_split -> label_data_1_split_3
I0403 16:08:25.816022 20759 net.cpp:399] label_data_1_split -> label_data_1_split_4
I0403 16:08:25.816042 20759 net.cpp:399] label_data_1_split -> label_data_1_split_5
I0403 16:08:25.816062 20759 net.cpp:399] label_data_1_split -> label_data_1_split_6
I0403 16:08:25.816082 20759 net.cpp:399] label_data_1_split -> label_data_1_split_7
I0403 16:08:25.816102 20759 net.cpp:399] label_data_1_split -> label_data_1_split_8
I0403 16:08:25.816121 20759 net.cpp:399] label_data_1_split -> label_data_1_split_9
I0403 16:08:25.816242 20759 net.cpp:141] Setting up label_data_1_split
I0403 16:08:25.816267 20759 net.cpp:148] Top shape: 24 (24)
I0403 16:08:25.816283 20759 net.cpp:148] Top shape: 24 (24)
I0403 16:08:25.816299 20759 net.cpp:148] Top shape: 24 (24)
I0403 16:08:25.816315 20759 net.cpp:148] Top shape: 24 (24)
I0403 16:08:25.816331 20759 net.cpp:148] Top shape: 24 (24)
I0403 16:08:25.816347 20759 net.cpp:148] Top shape: 24 (24)
I0403 16:08:25.816362 20759 net.cpp:148] Top shape: 24 (24)
I0403 16:08:25.816378 20759 net.cpp:148] Top shape: 24 (24)
I0403 16:08:25.816393 20759 net.cpp:148] Top shape: 24 (24)
I0403 16:08:25.816409 20759 net.cpp:148] Top shape: 24 (24)
I0403 16:08:25.816455 20759 net.cpp:156] Memory required for data: 14451744
I0403 16:08:25.816473 20759 layer_factory.hpp:77] Creating layer conv1/7x7_s2
I0403 16:08:25.816504 20759 net.cpp:91] Creating Layer conv1/7x7_s2
I0403 16:08:25.816524 20759 net.cpp:425] conv1/7x7_s2 <- data
I0403 16:08:25.816542 20759 net.cpp:399] conv1/7x7_s2 -> conv1/7x7_s2
I0403 16:08:25.960849 20759 net.cpp:141] Setting up conv1/7x7_s2
I0403 16:08:25.960938 20759 net.cpp:148] Top shape: 24 64 112 112 (19267584)
I0403 16:08:25.960961 20759 net.cpp:156] Memory required for data: 91522080
I0403 16:08:25.960994 20759 layer_factory.hpp:77] Creating layer conv1/relu_7x7
I0403 16:08:25.961020 20759 net.cpp:91] Creating Layer conv1/relu_7x7
I0403 16:08:25.961037 20759 net.cpp:425] conv1/relu_7x7 <- conv1/7x7_s2
I0403 16:08:25.961055 20759 net.cpp:386] conv1/relu_7x7 -> conv1/7x7_s2 (in-place)
I0403 16:08:25.961311 20759 net.cpp:141] Setting up conv1/relu_7x7
I0403 16:08:25.961338 20759 net.cpp:148] Top shape: 24 64 112 112 (19267584)
I0403 16:08:25.961354 20759 net.cpp:156] Memory required for data: 168592416
I0403 16:08:25.961367 20759 layer_factory.hpp:77] Creating layer pool1/3x3_s2
I0403 16:08:25.961391 20759 net.cpp:91] Creating Layer pool1/3x3_s2
I0403 16:08:25.961408 20759 net.cpp:425] pool1/3x3_s2 <- conv1/7x7_s2
I0403 16:08:25.961426 20759 net.cpp:399] pool1/3x3_s2 -> pool1/3x3_s2
I0403 16:08:25.961498 20759 net.cpp:141] Setting up pool1/3x3_s2
I0403 16:08:25.961522 20759 net.cpp:148] Top shape: 24 64 56 56 (4816896)
I0403 16:08:25.961536 20759 net.cpp:156] Memory required for data: 187860000
I0403 16:08:25.961550 20759 layer_factory.hpp:77] Creating layer pool1/norm1
I0403 16:08:25.961573 20759 net.cpp:91] Creating Layer pool1/norm1
I0403 16:08:25.961591 20759 net.cpp:425] pool1/norm1 <- pool1/3x3_s2
I0403 16:08:25.961607 20759 net.cpp:399] pool1/norm1 -> pool1/norm1
I0403 16:08:25.961889 20759 net.cpp:141] Setting up pool1/norm1
I0403 16:08:25.961915 20759 net.cpp:148] Top shape: 24 64 56 56 (4816896)
I0403 16:08:25.961930 20759 net.cpp:156] Memory required for data: 207127584
I0403 16:08:25.961944 20759 layer_factory.hpp:77] Creating layer conv2/3x3_reduce
I0403 16:08:25.961972 20759 net.cpp:91] Creating Layer conv2/3x3_reduce
I0403 16:08:25.961990 20759 net.cpp:425] conv2/3x3_reduce <- pool1/norm1
I0403 16:08:25.962008 20759 net.cpp:399] conv2/3x3_reduce -> conv2/3x3_reduce
I0403 16:08:25.965590 20759 net.cpp:141] Setting up conv2/3x3_reduce
I0403 16:08:25.965621 20759 net.cpp:148] Top shape: 24 64 56 56 (4816896)
I0403 16:08:25.965637 20759 net.cpp:156] Memory required for data: 226395168
I0403 16:08:25.965662 20759 layer_factory.hpp:77] Creating layer conv2/relu_3x3_reduce
I0403 16:08:25.965680 20759 net.cpp:91] Creating Layer conv2/relu_3x3_reduce
I0403 16:08:25.965697 20759 net.cpp:425] conv2/relu_3x3_reduce <- conv2/3x3_reduce
I0403 16:08:25.965713 20759 net.cpp:386] conv2/relu_3x3_reduce -> conv2/3x3_reduce (in-place)
I0403 16:08:25.966001 20759 net.cpp:141] Setting up conv2/relu_3x3_reduce
I0403 16:08:25.966027 20759 net.cpp:148] Top shape: 24 64 56 56 (4816896)
I0403 16:08:25.966042 20759 net.cpp:156] Memory required for data: 245662752
I0403 16:08:25.966056 20759 layer_factory.hpp:77] Creating layer conv2/3x3
I0403 16:08:25.966080 20759 net.cpp:91] Creating Layer conv2/3x3
I0403 16:08:25.966097 20759 net.cpp:425] conv2/3x3 <- conv2/3x3_reduce
I0403 16:08:25.966120 20759 net.cpp:399] conv2/3x3 -> conv2/3x3
I0403 16:08:25.968492 20759 net.cpp:141] Setting up conv2/3x3
I0403 16:08:25.968523 20759 net.cpp:148] Top shape: 24 192 56 56 (14450688)
I0403 16:08:25.968538 20759 net.cpp:156] Memory required for data: 303465504
I0403 16:08:25.968560 20759 layer_factory.hpp:77] Creating layer conv2/relu_3x3
I0403 16:08:25.968580 20759 net.cpp:91] Creating Layer conv2/relu_3x3
I0403 16:08:25.968595 20759 net.cpp:425] conv2/relu_3x3 <- conv2/3x3
I0403 16:08:25.968611 20759 net.cpp:386] conv2/relu_3x3 -> conv2/3x3 (in-place)
I0403 16:08:25.968782 20759 net.cpp:141] Setting up conv2/relu_3x3
I0403 16:08:25.968809 20759 net.cpp:148] Top shape: 24 192 56 56 (14450688)
I0403 16:08:25.968854 20759 net.cpp:156] Memory required for data: 361268256
I0403 16:08:25.968869 20759 layer_factory.hpp:77] Creating layer conv2/norm2
I0403 16:08:25.968890 20759 net.cpp:91] Creating Layer conv2/norm2
I0403 16:08:25.968906 20759 net.cpp:425] conv2/norm2 <- conv2/3x3
I0403 16:08:25.968924 20759 net.cpp:399] conv2/norm2 -> conv2/norm2
I0403 16:08:25.969238 20759 net.cpp:141] Setting up conv2/norm2
I0403 16:08:25.969265 20759 net.cpp:148] Top shape: 24 192 56 56 (14450688)
I0403 16:08:25.969280 20759 net.cpp:156] Memory required for data: 419071008
I0403 16:08:25.969295 20759 layer_factory.hpp:77] Creating layer pool2/3x3_s2
I0403 16:08:25.969315 20759 net.cpp:91] Creating Layer pool2/3x3_s2
I0403 16:08:25.969331 20759 net.cpp:425] pool2/3x3_s2 <- conv2/norm2
I0403 16:08:25.969347 20759 net.cpp:399] pool2/3x3_s2 -> pool2/3x3_s2
I0403 16:08:25.969401 20759 net.cpp:141] Setting up pool2/3x3_s2
I0403 16:08:25.969424 20759 net.cpp:148] Top shape: 24 192 28 28 (3612672)
I0403 16:08:25.969439 20759 net.cpp:156] Memory required for data: 433521696
I0403 16:08:25.969452 20759 layer_factory.hpp:77] Creating layer pool2/3x3_s2_pool2/3x3_s2_0_split
I0403 16:08:25.969470 20759 net.cpp:91] Creating Layer pool2/3x3_s2_pool2/3x3_s2_0_split
I0403 16:08:25.969485 20759 net.cpp:425] pool2/3x3_s2_pool2/3x3_s2_0_split <- pool2/3x3_s2
I0403 16:08:25.969516 20759 net.cpp:399] pool2/3x3_s2_pool2/3x3_s2_0_split -> pool2/3x3_s2_pool2/3x3_s2_0_split_0
I0403 16:08:25.969534 20759 net.cpp:399] pool2/3x3_s2_pool2/3x3_s2_0_split -> pool2/3x3_s2_pool2/3x3_s2_0_split_1
I0403 16:08:25.969552 20759 net.cpp:399] pool2/3x3_s2_pool2/3x3_s2_0_split -> pool2/3x3_s2_pool2/3x3_s2_0_split_2
I0403 16:08:25.969570 20759 net.cpp:399] pool2/3x3_s2_pool2/3x3_s2_0_split -> pool2/3x3_s2_pool2/3x3_s2_0_split_3
I0403 16:08:25.969638 20759 net.cpp:141] Setting up pool2/3x3_s2_pool2/3x3_s2_0_split
I0403 16:08:25.969661 20759 net.cpp:148] Top shape: 24 192 28 28 (3612672)
I0403 16:08:25.969677 20759 net.cpp:148] Top shape: 24 192 28 28 (3612672)
I0403 16:08:25.969692 20759 net.cpp:148] Top shape: 24 192 28 28 (3612672)
I0403 16:08:25.969707 20759 net.cpp:148] Top shape: 24 192 28 28 (3612672)
I0403 16:08:25.969720 20759 net.cpp:156] Memory required for data: 491324448
I0403 16:08:25.969734 20759 layer_factory.hpp:77] Creating layer inception_3a/1x1
I0403 16:08:25.969755 20759 net.cpp:91] Creating Layer inception_3a/1x1
I0403 16:08:25.969770 20759 net.cpp:425] inception_3a/1x1 <- pool2/3x3_s2_pool2/3x3_s2_0_split_0
I0403 16:08:25.969789 20759 net.cpp:399] inception_3a/1x1 -> inception_3a/1x1
I0403 16:08:25.971266 20759 net.cpp:141] Setting up inception_3a/1x1
I0403 16:08:25.971294 20759 net.cpp:148] Top shape: 24 64 28 28 (1204224)
I0403 16:08:25.971309 20759 net.cpp:156] Memory required for data: 496141344
I0403 16:08:25.971326 20759 layer_factory.hpp:77] Creating layer inception_3a/relu_1x1
I0403 16:08:25.971346 20759 net.cpp:91] Creating Layer inception_3a/relu_1x1
I0403 16:08:25.971362 20759 net.cpp:425] inception_3a/relu_1x1 <- inception_3a/1x1
I0403 16:08:25.971379 20759 net.cpp:386] inception_3a/relu_1x1 -> inception_3a/1x1 (in-place)
I0403 16:08:25.971544 20759 net.cpp:141] Setting up inception_3a/relu_1x1
I0403 16:08:25.971570 20759 net.cpp:148] Top shape: 24 64 28 28 (1204224)
I0403 16:08:25.971585 20759 net.cpp:156] Memory required for data: 500958240
I0403 16:08:25.971598 20759 layer_factory.hpp:77] Creating layer inception_3a/3x3_reduce
I0403 16:08:25.971619 20759 net.cpp:91] Creating Layer inception_3a/3x3_reduce
I0403 16:08:25.971635 20759 net.cpp:425] inception_3a/3x3_reduce <- pool2/3x3_s2_pool2/3x3_s2_0_split_1
I0403 16:08:25.971653 20759 net.cpp:399] inception_3a/3x3_reduce -> inception_3a/3x3_reduce
I0403 16:08:25.974635 20759 net.cpp:141] Setting up inception_3a/3x3_reduce
I0403 16:08:25.974663 20759 net.cpp:148] Top shape: 24 96 28 28 (1806336)
I0403 16:08:25.974678 20759 net.cpp:156] Memory required for data: 508183584
I0403 16:08:25.974701 20759 layer_factory.hpp:77] Creating layer inception_3a/relu_3x3_reduce
I0403 16:08:25.974735 20759 net.cpp:91] Creating Layer inception_3a/relu_3x3_reduce
I0403 16:08:25.974751 20759 net.cpp:425] inception_3a/relu_3x3_reduce <- inception_3a/3x3_reduce
I0403 16:08:25.974771 20759 net.cpp:386] inception_3a/relu_3x3_reduce -> inception_3a/3x3_reduce (in-place)
I0403 16:08:25.974942 20759 net.cpp:141] Setting up inception_3a/relu_3x3_reduce
I0403 16:08:25.974970 20759 net.cpp:148] Top shape: 24 96 28 28 (1806336)
I0403 16:08:25.974984 20759 net.cpp:156] Memory required for data: 515408928
I0403 16:08:25.974998 20759 layer_factory.hpp:77] Creating layer inception_3a/3x3
I0403 16:08:25.975019 20759 net.cpp:91] Creating Layer inception_3a/3x3
I0403 16:08:25.975036 20759 net.cpp:425] inception_3a/3x3 <- inception_3a/3x3_reduce
I0403 16:08:25.975056 20759 net.cpp:399] inception_3a/3x3 -> inception_3a/3x3
I0403 16:08:25.976632 20759 net.cpp:141] Setting up inception_3a/3x3
I0403 16:08:25.976658 20759 net.cpp:148] Top shape: 24 128 28 28 (2408448)
I0403 16:08:25.976673 20759 net.cpp:156] Memory required for data: 525042720
I0403 16:08:25.976691 20759 layer_factory.hpp:77] Creating layer inception_3a/relu_3x3
I0403 16:08:25.976709 20759 net.cpp:91] Creating Layer inception_3a/relu_3x3
I0403 16:08:25.976725 20759 net.cpp:425] inception_3a/relu_3x3 <- inception_3a/3x3
I0403 16:08:25.976742 20759 net.cpp:386] inception_3a/relu_3x3 -> inception_3a/3x3 (in-place)
I0403 16:08:25.977010 20759 net.cpp:141] Setting up inception_3a/relu_3x3
I0403 16:08:25.977035 20759 net.cpp:148] Top shape: 24 128 28 28 (2408448)
I0403 16:08:25.977051 20759 net.cpp:156] Memory required for data: 534676512
I0403 16:08:25.977064 20759 layer_factory.hpp:77] Creating layer inception_3a/5x5_reduce
I0403 16:08:25.977087 20759 net.cpp:91] Creating Layer inception_3a/5x5_reduce
I0403 16:08:25.977104 20759 net.cpp:425] inception_3a/5x5_reduce <- pool2/3x3_s2_pool2/3x3_s2_0_split_2
I0403 16:08:25.977123 20759 net.cpp:399] inception_3a/5x5_reduce -> inception_3a/5x5_reduce
I0403 16:08:25.978046 20759 net.cpp:141] Setting up inception_3a/5x5_reduce
I0403 16:08:25.978075 20759 net.cpp:148] Top shape: 24 16 28 28 (301056)
I0403 16:08:25.978091 20759 net.cpp:156] Memory required for data: 535880736
I0403 16:08:25.978108 20759 layer_factory.hpp:77] Creating layer inception_3a/relu_5x5_reduce
I0403 16:08:25.978126 20759 net.cpp:91] Creating Layer inception_3a/relu_5x5_reduce
I0403 16:08:25.978142 20759 net.cpp:425] inception_3a/relu_5x5_reduce <- inception_3a/5x5_reduce
I0403 16:08:25.978160 20759 net.cpp:386] inception_3a/relu_5x5_reduce -> inception_3a/5x5_reduce (in-place)
I0403 16:08:25.978447 20759 net.cpp:141] Setting up inception_3a/relu_5x5_reduce
I0403 16:08:25.978476 20759 net.cpp:148] Top shape: 24 16 28 28 (301056)
I0403 16:08:25.978489 20759 net.cpp:156] Memory required for data: 537084960
I0403 16:08:25.978504 20759 layer_factory.hpp:77] Creating layer inception_3a/5x5
I0403 16:08:25.978525 20759 net.cpp:91] Creating Layer inception_3a/5x5
I0403 16:08:25.978541 20759 net.cpp:425] inception_3a/5x5 <- inception_3a/5x5_reduce
I0403 16:08:25.978562 20759 net.cpp:399] inception_3a/5x5 -> inception_3a/5x5
I0403 16:08:25.979542 20759 net.cpp:141] Setting up inception_3a/5x5
I0403 16:08:25.979568 20759 net.cpp:148] Top shape: 24 32 28 28 (602112)
I0403 16:08:25.979581 20759 net.cpp:156] Memory required for data: 539493408
I0403 16:08:25.979599 20759 layer_factory.hpp:77] Creating layer inception_3a/relu_5x5
I0403 16:08:25.979619 20759 net.cpp:91] Creating Layer inception_3a/relu_5x5
I0403 16:08:25.979635 20759 net.cpp:425] inception_3a/relu_5x5 <- inception_3a/5x5
I0403 16:08:25.979650 20759 net.cpp:386] inception_3a/relu_5x5 -> inception_3a/5x5 (in-place)
I0403 16:08:25.979815 20759 net.cpp:141] Setting up inception_3a/relu_5x5
I0403 16:08:25.979842 20759 net.cpp:148] Top shape: 24 32 28 28 (602112)
I0403 16:08:25.979857 20759 net.cpp:156] Memory required for data: 541901856
I0403 16:08:25.979871 20759 layer_factory.hpp:77] Creating layer inception_3a/pool
I0403 16:08:25.979888 20759 net.cpp:91] Creating Layer inception_3a/pool
I0403 16:08:25.979903 20759 net.cpp:425] inception_3a/pool <- pool2/3x3_s2_pool2/3x3_s2_0_split_3
I0403 16:08:25.979935 20759 net.cpp:399] inception_3a/pool -> inception_3a/pool
I0403 16:08:25.979996 20759 net.cpp:141] Setting up inception_3a/pool
I0403 16:08:25.980020 20759 net.cpp:148] Top shape: 24 192 28 28 (3612672)
I0403 16:08:25.980033 20759 net.cpp:156] Memory required for data: 556352544
I0403 16:08:25.980047 20759 layer_factory.hpp:77] Creating layer inception_3a/pool_proj
I0403 16:08:25.980068 20759 net.cpp:91] Creating Layer inception_3a/pool_proj
I0403 16:08:25.980088 20759 net.cpp:425] inception_3a/pool_proj <- inception_3a/pool
I0403 16:08:25.980105 20759 net.cpp:399] inception_3a/pool_proj -> inception_3a/pool_proj
I0403 16:08:25.981042 20759 net.cpp:141] Setting up inception_3a/pool_proj
I0403 16:08:25.981070 20759 net.cpp:148] Top shape: 24 32 28 28 (602112)
I0403 16:08:25.981083 20759 net.cpp:156] Memory required for data: 558760992
I0403 16:08:25.981106 20759 layer_factory.hpp:77] Creating layer inception_3a/relu_pool_proj
I0403 16:08:25.981124 20759 net.cpp:91] Creating Layer inception_3a/relu_pool_proj
I0403 16:08:25.981139 20759 net.cpp:425] inception_3a/relu_pool_proj <- inception_3a/pool_proj
I0403 16:08:25.981158 20759 net.cpp:386] inception_3a/relu_pool_proj -> inception_3a/pool_proj (in-place)
I0403 16:08:25.981426 20759 net.cpp:141] Setting up inception_3a/relu_pool_proj
I0403 16:08:25.981451 20759 net.cpp:148] Top shape: 24 32 28 28 (602112)
I0403 16:08:25.981465 20759 net.cpp:156] Memory required for data: 561169440
I0403 16:08:25.981479 20759 layer_factory.hpp:77] Creating layer inception_3a/output
I0403 16:08:25.981498 20759 net.cpp:91] Creating Layer inception_3a/output
I0403 16:08:25.981513 20759 net.cpp:425] inception_3a/output <- inception_3a/1x1
I0403 16:08:25.981529 20759 net.cpp:425] inception_3a/output <- inception_3a/3x3
I0403 16:08:25.981544 20759 net.cpp:425] inception_3a/output <- inception_3a/5x5
I0403 16:08:25.981559 20759 net.cpp:425] inception_3a/output <- inception_3a/pool_proj
I0403 16:08:25.981575 20759 net.cpp:399] inception_3a/output -> inception_3a/output
I0403 16:08:25.981619 20759 net.cpp:141] Setting up inception_3a/output
I0403 16:08:25.981642 20759 net.cpp:148] Top shape: 24 256 28 28 (4816896)
I0403 16:08:25.981655 20759 net.cpp:156] Memory required for data: 580437024
I0403 16:08:25.981668 20759 layer_factory.hpp:77] Creating layer inception_3a/output_inception_3a/output_0_split
I0403 16:08:25.981685 20759 net.cpp:91] Creating Layer inception_3a/output_inception_3a/output_0_split
I0403 16:08:25.981699 20759 net.cpp:425] inception_3a/output_inception_3a/output_0_split <- inception_3a/output
I0403 16:08:25.981717 20759 net.cpp:399] inception_3a/output_inception_3a/output_0_split -> inception_3a/output_inception_3a/output_0_split_0
I0403 16:08:25.981736 20759 net.cpp:399] inception_3a/output_inception_3a/output_0_split -> inception_3a/output_inception_3a/output_0_split_1
I0403 16:08:25.981760 20759 net.cpp:399] inception_3a/output_inception_3a/output_0_split -> inception_3a/output_inception_3a/output_0_split_2
I0403 16:08:25.981780 20759 net.cpp:399] inception_3a/output_inception_3a/output_0_split -> inception_3a/output_inception_3a/output_0_split_3
I0403 16:08:25.981849 20759 net.cpp:141] Setting up inception_3a/output_inception_3a/output_0_split
I0403 16:08:25.981871 20759 net.cpp:148] Top shape: 24 256 28 28 (4816896)
I0403 16:08:25.981889 20759 net.cpp:148] Top shape: 24 256 28 28 (4816896)
I0403 16:08:25.981905 20759 net.cpp:148] Top shape: 24 256 28 28 (4816896)
I0403 16:08:25.981920 20759 net.cpp:148] Top shape: 24 256 28 28 (4816896)
I0403 16:08:25.981933 20759 net.cpp:156] Memory required for data: 657507360
I0403 16:08:25.981946 20759 layer_factory.hpp:77] Creating layer inception_3b/1x1
I0403 16:08:25.981971 20759 net.cpp:91] Creating Layer inception_3b/1x1
I0403 16:08:25.981989 20759 net.cpp:425] inception_3b/1x1 <- inception_3a/output_inception_3a/output_0_split_0
I0403 16:08:25.982009 20759 net.cpp:399] inception_3b/1x1 -> inception_3b/1x1
I0403 16:08:25.983125 20759 net.cpp:141] Setting up inception_3b/1x1
I0403 16:08:25.983165 20759 net.cpp:148] Top shape: 24 128 28 28 (2408448)
I0403 16:08:25.983180 20759 net.cpp:156] Memory required for data: 667141152
I0403 16:08:25.983198 20759 layer_factory.hpp:77] Creating layer inception_3b/relu_1x1
I0403 16:08:25.983218 20759 net.cpp:91] Creating Layer inception_3b/relu_1x1
I0403 16:08:25.983234 20759 net.cpp:425] inception_3b/relu_1x1 <- inception_3b/1x1
I0403 16:08:25.983252 20759 net.cpp:386] inception_3b/relu_1x1 -> inception_3b/1x1 (in-place)
I0403 16:08:25.983436 20759 net.cpp:141] Setting up inception_3b/relu_1x1
I0403 16:08:25.983463 20759 net.cpp:148] Top shape: 24 128 28 28 (2408448)
I0403 16:08:25.983476 20759 net.cpp:156] Memory required for data: 676774944
I0403 16:08:25.983491 20759 layer_factory.hpp:77] Creating layer inception_3b/3x3_reduce
I0403 16:08:25.983515 20759 net.cpp:91] Creating Layer inception_3b/3x3_reduce
I0403 16:08:25.983532 20759 net.cpp:425] inception_3b/3x3_reduce <- inception_3a/output_inception_3a/output_0_split_1
I0403 16:08:25.983551 20759 net.cpp:399] inception_3b/3x3_reduce -> inception_3b/3x3_reduce
I0403 16:08:25.984675 20759 net.cpp:141] Setting up inception_3b/3x3_reduce
I0403 16:08:25.984704 20759 net.cpp:148] Top shape: 24 128 28 28 (2408448)
I0403 16:08:25.984719 20759 net.cpp:156] Memory required for data: 686408736
I0403 16:08:25.984736 20759 layer_factory.hpp:77] Creating layer inception_3b/relu_3x3_reduce
I0403 16:08:25.984758 20759 net.cpp:91] Creating Layer inception_3b/relu_3x3_reduce
I0403 16:08:25.984774 20759 net.cpp:425] inception_3b/relu_3x3_reduce <- inception_3b/3x3_reduce
I0403 16:08:25.984792 20759 net.cpp:386] inception_3b/relu_3x3_reduce -> inception_3b/3x3_reduce (in-place)
I0403 16:08:25.984964 20759 net.cpp:141] Setting up inception_3b/relu_3x3_reduce
I0403 16:08:25.984992 20759 net.cpp:148] Top shape: 24 128 28 28 (2408448)
I0403 16:08:25.985008 20759 net.cpp:156] Memory required for data: 696042528
I0403 16:08:25.985023 20759 layer_factory.hpp:77] Creating layer inception_3b/3x3
I0403 16:08:25.985049 20759 net.cpp:91] Creating Layer inception_3b/3x3
I0403 16:08:25.985066 20759 net.cpp:425] inception_3b/3x3 <- inception_3b/3x3_reduce
I0403 16:08:25.985086 20759 net.cpp:399] inception_3b/3x3 -> inception_3b/3x3
I0403 16:08:25.987951 20759 net.cpp:141] Setting up inception_3b/3x3
I0403 16:08:25.987983 20759 net.cpp:148] Top shape: 24 192 28 28 (3612672)
I0403 16:08:25.987999 20759 net.cpp:156] Memory required for data: 710493216
I0403 16:08:25.988016 20759 layer_factory.hpp:77] Creating layer inception_3b/relu_3x3
I0403 16:08:25.988037 20759 net.cpp:91] Creating Layer inception_3b/relu_3x3
I0403 16:08:25.988055 20759 net.cpp:425] inception_3b/relu_3x3 <- inception_3b/3x3
I0403 16:08:25.988072 20759 net.cpp:386] inception_3b/relu_3x3 -> inception_3b/3x3 (in-place)
I0403 16:08:25.988343 20759 net.cpp:141] Setting up inception_3b/relu_3x3
I0403 16:08:25.988369 20759 net.cpp:148] Top shape: 24 192 28 28 (3612672)
I0403 16:08:25.988384 20759 net.cpp:156] Memory required for data: 724943904
I0403 16:08:25.988399 20759 layer_factory.hpp:77] Creating layer inception_3b/5x5_reduce
I0403 16:08:25.988422 20759 net.cpp:91] Creating Layer inception_3b/5x5_reduce
I0403 16:08:25.988440 20759 net.cpp:425] inception_3b/5x5_reduce <- inception_3a/output_inception_3a/output_0_split_2
I0403 16:08:25.988458 20759 net.cpp:399] inception_3b/5x5_reduce -> inception_3b/5x5_reduce
I0403 16:08:25.989444 20759 net.cpp:141] Setting up inception_3b/5x5_reduce
I0403 16:08:25.989471 20759 net.cpp:148] Top shape: 24 32 28 28 (602112)
I0403 16:08:25.989487 20759 net.cpp:156] Memory required for data: 727352352
I0403 16:08:25.989506 20759 layer_factory.hpp:77] Creating layer inception_3b/relu_5x5_reduce
I0403 16:08:25.989526 20759 net.cpp:91] Creating Layer inception_3b/relu_5x5_reduce
I0403 16:08:25.989542 20759 net.cpp:425] inception_3b/relu_5x5_reduce <- inception_3b/5x5_reduce
I0403 16:08:25.989559 20759 net.cpp:386] inception_3b/relu_5x5_reduce -> inception_3b/5x5_reduce (in-place)
I0403 16:08:25.989732 20759 net.cpp:141] Setting up inception_3b/relu_5x5_reduce
I0403 16:08:25.989770 20759 net.cpp:148] Top shape: 24 32 28 28 (602112)
I0403 16:08:25.989786 20759 net.cpp:156] Memory required for data: 729760800
I0403 16:08:25.989800 20759 layer_factory.hpp:77] Creating layer inception_3b/5x5
I0403 16:08:25.989822 20759 net.cpp:91] Creating Layer inception_3b/5x5
I0403 16:08:25.989840 20759 net.cpp:425] inception_3b/5x5 <- inception_3b/5x5_reduce
I0403 16:08:25.989861 20759 net.cpp:399] inception_3b/5x5 -> inception_3b/5x5
I0403 16:08:25.991876 20759 net.cpp:141] Setting up inception_3b/5x5
I0403 16:08:25.991905 20759 net.cpp:148] Top shape: 24 96 28 28 (1806336)
I0403 16:08:25.991921 20759 net.cpp:156] Memory required for data: 736986144
I0403 16:08:25.991938 20759 layer_factory.hpp:77] Creating layer inception_3b/relu_5x5
I0403 16:08:25.991963 20759 net.cpp:91] Creating Layer inception_3b/relu_5x5
I0403 16:08:25.991981 20759 net.cpp:425] inception_3b/relu_5x5 <- inception_3b/5x5
I0403 16:08:25.991998 20759 net.cpp:386] inception_3b/relu_5x5 -> inception_3b/5x5 (in-place)
I0403 16:08:25.992185 20759 net.cpp:141] Setting up inception_3b/relu_5x5
I0403 16:08:25.992210 20759 net.cpp:148] Top shape: 24 96 28 28 (1806336)
I0403 16:08:25.992226 20759 net.cpp:156] Memory required for data: 744211488
I0403 16:08:25.992240 20759 layer_factory.hpp:77] Creating layer inception_3b/pool
I0403 16:08:25.992259 20759 net.cpp:91] Creating Layer inception_3b/pool
I0403 16:08:25.992274 20759 net.cpp:425] inception_3b/pool <- inception_3a/output_inception_3a/output_0_split_3
I0403 16:08:25.992291 20759 net.cpp:399] inception_3b/pool -> inception_3b/pool
I0403 16:08:25.992346 20759 net.cpp:141] Setting up inception_3b/pool
I0403 16:08:25.992368 20759 net.cpp:148] Top shape: 24 256 28 28 (4816896)
I0403 16:08:25.992383 20759 net.cpp:156] Memory required for data: 763479072
I0403 16:08:25.992398 20759 layer_factory.hpp:77] Creating layer inception_3b/pool_proj
I0403 16:08:25.992419 20759 net.cpp:91] Creating Layer inception_3b/pool_proj
I0403 16:08:25.992437 20759 net.cpp:425] inception_3b/pool_proj <- inception_3b/pool
I0403 16:08:25.992457 20759 net.cpp:399] inception_3b/pool_proj -> inception_3b/pool_proj
I0403 16:08:25.993512 20759 net.cpp:141] Setting up inception_3b/pool_proj
I0403 16:08:25.993540 20759 net.cpp:148] Top shape: 24 64 28 28 (1204224)
I0403 16:08:25.993556 20759 net.cpp:156] Memory required for data: 768295968
I0403 16:08:25.993573 20759 layer_factory.hpp:77] Creating layer inception_3b/relu_pool_proj
I0403 16:08:25.993592 20759 net.cpp:91] Creating Layer inception_3b/relu_pool_proj
I0403 16:08:25.993607 20759 net.cpp:425] inception_3b/relu_pool_proj <- inception_3b/pool_proj
I0403 16:08:25.993625 20759 net.cpp:386] inception_3b/relu_pool_proj -> inception_3b/pool_proj (in-place)
I0403 16:08:25.994029 20759 net.cpp:141] Setting up inception_3b/relu_pool_proj
I0403 16:08:25.994058 20759 net.cpp:148] Top shape: 24 64 28 28 (1204224)
I0403 16:08:25.994074 20759 net.cpp:156] Memory required for data: 773112864
I0403 16:08:25.994088 20759 layer_factory.hpp:77] Creating layer inception_3b/output
I0403 16:08:25.994107 20759 net.cpp:91] Creating Layer inception_3b/output
I0403 16:08:25.994122 20759 net.cpp:425] inception_3b/output <- inception_3b/1x1
I0403 16:08:25.994138 20759 net.cpp:425] inception_3b/output <- inception_3b/3x3
I0403 16:08:25.994153 20759 net.cpp:425] inception_3b/output <- inception_3b/5x5
I0403 16:08:25.994168 20759 net.cpp:425] inception_3b/output <- inception_3b/pool_proj
I0403 16:08:25.994185 20759 net.cpp:399] inception_3b/output -> inception_3b/output
I0403 16:08:25.994230 20759 net.cpp:141] Setting up inception_3b/output
I0403 16:08:25.994251 20759 net.cpp:148] Top shape: 24 480 28 28 (9031680)
I0403 16:08:25.994266 20759 net.cpp:156] Memory required for data: 809239584
I0403 16:08:25.994282 20759 layer_factory.hpp:77] Creating layer pool3/3x3_s2
I0403 16:08:25.994302 20759 net.cpp:91] Creating Layer pool3/3x3_s2
I0403 16:08:25.994318 20759 net.cpp:425] pool3/3x3_s2 <- inception_3b/output
I0403 16:08:25.994335 20759 net.cpp:399] pool3/3x3_s2 -> pool3/3x3_s2
I0403 16:08:25.994406 20759 net.cpp:141] Setting up pool3/3x3_s2
I0403 16:08:25.994431 20759 net.cpp:148] Top shape: 24 480 14 14 (2257920)
I0403 16:08:25.994444 20759 net.cpp:156] Memory required for data: 818271264
I0403 16:08:25.994458 20759 layer_factory.hpp:77] Creating layer pool3/3x3_s2_pool3/3x3_s2_0_split
I0403 16:08:25.994474 20759 net.cpp:91] Creating Layer pool3/3x3_s2_pool3/3x3_s2_0_split
I0403 16:08:25.994489 20759 net.cpp:425] pool3/3x3_s2_pool3/3x3_s2_0_split <- pool3/3x3_s2
I0403 16:08:25.994508 20759 net.cpp:399] pool3/3x3_s2_pool3/3x3_s2_0_split -> pool3/3x3_s2_pool3/3x3_s2_0_split_0
I0403 16:08:25.994527 20759 net.cpp:399] pool3/3x3_s2_pool3/3x3_s2_0_split -> pool3/3x3_s2_pool3/3x3_s2_0_split_1
I0403 16:08:25.994546 20759 net.cpp:399] pool3/3x3_s2_pool3/3x3_s2_0_split -> pool3/3x3_s2_pool3/3x3_s2_0_split_2
I0403 16:08:25.994565 20759 net.cpp:399] pool3/3x3_s2_pool3/3x3_s2_0_split -> pool3/3x3_s2_pool3/3x3_s2_0_split_3
I0403 16:08:25.994639 20759 net.cpp:141] Setting up pool3/3x3_s2_pool3/3x3_s2_0_split
I0403 16:08:25.994663 20759 net.cpp:148] Top shape: 24 480 14 14 (2257920)
I0403 16:08:25.994679 20759 net.cpp:148] Top shape: 24 480 14 14 (2257920)
I0403 16:08:25.994695 20759 net.cpp:148] Top shape: 24 480 14 14 (2257920)
I0403 16:08:25.994710 20759 net.cpp:148] Top shape: 24 480 14 14 (2257920)
I0403 16:08:25.994724 20759 net.cpp:156] Memory required for data: 854397984
I0403 16:08:25.994738 20759 layer_factory.hpp:77] Creating layer inception_4a/1x1
I0403 16:08:25.994760 20759 net.cpp:91] Creating Layer inception_4a/1x1
I0403 16:08:25.994777 20759 net.cpp:425] inception_4a/1x1 <- pool3/3x3_s2_pool3/3x3_s2_0_split_0
I0403 16:08:25.994798 20759 net.cpp:399] inception_4a/1x1 -> inception_4a/1x1
I0403 16:08:25.996372 20759 net.cpp:141] Setting up inception_4a/1x1
I0403 16:08:25.996400 20759 net.cpp:148] Top shape: 24 192 14 14 (903168)
I0403 16:08:25.996415 20759 net.cpp:156] Memory required for data: 858010656
I0403 16:08:25.996433 20759 layer_factory.hpp:77] Creating layer inception_4a/relu_1x1
I0403 16:08:25.996451 20759 net.cpp:91] Creating Layer inception_4a/relu_1x1
I0403 16:08:25.996467 20759 net.cpp:425] inception_4a/relu_1x1 <- inception_4a/1x1
I0403 16:08:25.996486 20759 net.cpp:386] inception_4a/relu_1x1 -> inception_4a/1x1 (in-place)
I0403 16:08:25.996659 20759 net.cpp:141] Setting up inception_4a/relu_1x1
I0403 16:08:25.996683 20759 net.cpp:148] Top shape: 24 192 14 14 (903168)
I0403 16:08:25.996698 20759 net.cpp:156] Memory required for data: 861623328
I0403 16:08:25.996712 20759 layer_factory.hpp:77] Creating layer inception_4a/3x3_reduce
I0403 16:08:25.996734 20759 net.cpp:91] Creating Layer inception_4a/3x3_reduce
I0403 16:08:25.996752 20759 net.cpp:425] inception_4a/3x3_reduce <- pool3/3x3_s2_pool3/3x3_s2_0_split_1
I0403 16:08:25.996773 20759 net.cpp:399] inception_4a/3x3_reduce -> inception_4a/3x3_reduce
I0403 16:08:25.998037 20759 net.cpp:141] Setting up inception_4a/3x3_reduce
I0403 16:08:25.998065 20759 net.cpp:148] Top shape: 24 96 14 14 (451584)
I0403 16:08:25.998080 20759 net.cpp:156] Memory required for data: 863429664
I0403 16:08:25.998106 20759 layer_factory.hpp:77] Creating layer inception_4a/relu_3x3_reduce
I0403 16:08:25.998126 20759 net.cpp:91] Creating Layer inception_4a/relu_3x3_reduce
I0403 16:08:25.998142 20759 net.cpp:425] inception_4a/relu_3x3_reduce <- inception_4a/3x3_reduce
I0403 16:08:25.998162 20759 net.cpp:386] inception_4a/relu_3x3_reduce -> inception_4a/3x3_reduce (in-place)
I0403 16:08:25.998332 20759 net.cpp:141] Setting up inception_4a/relu_3x3_reduce
I0403 16:08:25.998355 20759 net.cpp:148] Top shape: 24 96 14 14 (451584)
I0403 16:08:25.998369 20759 net.cpp:156] Memory required for data: 865236000
I0403 16:08:25.998384 20759 layer_factory.hpp:77] Creating layer inception_4a/3x3
I0403 16:08:25.998406 20759 net.cpp:91] Creating Layer inception_4a/3x3
I0403 16:08:25.998423 20759 net.cpp:425] inception_4a/3x3 <- inception_4a/3x3_reduce
I0403 16:08:25.998445 20759 net.cpp:399] inception_4a/3x3 -> inception_4a/3x3
I0403 16:08:26.001190 20759 net.cpp:141] Setting up inception_4a/3x3
I0403 16:08:26.001220 20759 net.cpp:148] Top shape: 24 208 14 14 (978432)
I0403 16:08:26.001235 20759 net.cpp:156] Memory required for data: 869149728
I0403 16:08:26.001253 20759 layer_factory.hpp:77] Creating layer inception_4a/relu_3x3
I0403 16:08:26.001276 20759 net.cpp:91] Creating Layer inception_4a/relu_3x3
I0403 16:08:26.001291 20759 net.cpp:425] inception_4a/relu_3x3 <- inception_4a/3x3
I0403 16:08:26.001308 20759 net.cpp:386] inception_4a/relu_3x3 -> inception_4a/3x3 (in-place)
I0403 16:08:26.001587 20759 net.cpp:141] Setting up inception_4a/relu_3x3
I0403 16:08:26.001613 20759 net.cpp:148] Top shape: 24 208 14 14 (978432)
I0403 16:08:26.001629 20759 net.cpp:156] Memory required for data: 873063456
I0403 16:08:26.001644 20759 layer_factory.hpp:77] Creating layer inception_4a/5x5_reduce
I0403 16:08:26.001667 20759 net.cpp:91] Creating Layer inception_4a/5x5_reduce
I0403 16:08:26.001683 20759 net.cpp:425] inception_4a/5x5_reduce <- pool3/3x3_s2_pool3/3x3_s2_0_split_2
I0403 16:08:26.001704 20759 net.cpp:399] inception_4a/5x5_reduce -> inception_4a/5x5_reduce
I0403 16:08:26.002715 20759 net.cpp:141] Setting up inception_4a/5x5_reduce
I0403 16:08:26.002743 20759 net.cpp:148] Top shape: 24 16 14 14 (75264)
I0403 16:08:26.002758 20759 net.cpp:156] Memory required for data: 873364512
I0403 16:08:26.002776 20759 layer_factory.hpp:77] Creating layer inception_4a/relu_5x5_reduce
I0403 16:08:26.002796 20759 net.cpp:91] Creating Layer inception_4a/relu_5x5_reduce
I0403 16:08:26.002812 20759 net.cpp:425] inception_4a/relu_5x5_reduce <- inception_4a/5x5_reduce
I0403 16:08:26.002830 20759 net.cpp:386] inception_4a/relu_5x5_reduce -> inception_4a/5x5_reduce (in-place)
I0403 16:08:26.003010 20759 net.cpp:141] Setting up inception_4a/relu_5x5_reduce
I0403 16:08:26.003037 20759 net.cpp:148] Top shape: 24 16 14 14 (75264)
I0403 16:08:26.003051 20759 net.cpp:156] Memory required for data: 873665568
I0403 16:08:26.003067 20759 layer_factory.hpp:77] Creating layer inception_4a/5x5
I0403 16:08:26.003087 20759 net.cpp:91] Creating Layer inception_4a/5x5
I0403 16:08:26.003104 20759 net.cpp:425] inception_4a/5x5 <- inception_4a/5x5_reduce
I0403 16:08:26.003123 20759 net.cpp:399] inception_4a/5x5 -> inception_4a/5x5
I0403 16:08:26.004190 20759 net.cpp:141] Setting up inception_4a/5x5
I0403 16:08:26.004220 20759 net.cpp:148] Top shape: 24 48 14 14 (225792)
I0403 16:08:26.004235 20759 net.cpp:156] Memory required for data: 874568736
I0403 16:08:26.004253 20759 layer_factory.hpp:77] Creating layer inception_4a/relu_5x5
I0403 16:08:26.004271 20759 net.cpp:91] Creating Layer inception_4a/relu_5x5
I0403 16:08:26.004287 20759 net.cpp:425] inception_4a/relu_5x5 <- inception_4a/5x5
I0403 16:08:26.004305 20759 net.cpp:386] inception_4a/relu_5x5 -> inception_4a/5x5 (in-place)
I0403 16:08:26.004477 20759 net.cpp:141] Setting up inception_4a/relu_5x5
I0403 16:08:26.004501 20759 net.cpp:148] Top shape: 24 48 14 14 (225792)
I0403 16:08:26.004515 20759 net.cpp:156] Memory required for data: 875471904
I0403 16:08:26.004530 20759 layer_factory.hpp:77] Creating layer inception_4a/pool
I0403 16:08:26.004547 20759 net.cpp:91] Creating Layer inception_4a/pool
I0403 16:08:26.004562 20759 net.cpp:425] inception_4a/pool <- pool3/3x3_s2_pool3/3x3_s2_0_split_3
I0403 16:08:26.004581 20759 net.cpp:399] inception_4a/pool -> inception_4a/pool
I0403 16:08:26.004644 20759 net.cpp:141] Setting up inception_4a/pool
I0403 16:08:26.004668 20759 net.cpp:148] Top shape: 24 480 14 14 (2257920)
I0403 16:08:26.004683 20759 net.cpp:156] Memory required for data: 884503584
I0403 16:08:26.004696 20759 layer_factory.hpp:77] Creating layer inception_4a/pool_proj
I0403 16:08:26.004720 20759 net.cpp:91] Creating Layer inception_4a/pool_proj
I0403 16:08:26.004737 20759 net.cpp:425] inception_4a/pool_proj <- inception_4a/pool
I0403 16:08:26.004755 20759 net.cpp:399] inception_4a/pool_proj -> inception_4a/pool_proj
I0403 16:08:26.005908 20759 net.cpp:141] Setting up inception_4a/pool_proj
I0403 16:08:26.005936 20759 net.cpp:148] Top shape: 24 64 14 14 (301056)
I0403 16:08:26.005971 20759 net.cpp:156] Memory required for data: 885707808
I0403 16:08:26.005991 20759 layer_factory.hpp:77] Creating layer inception_4a/relu_pool_proj
I0403 16:08:26.006008 20759 net.cpp:91] Creating Layer inception_4a/relu_pool_proj
I0403 16:08:26.006023 20759 net.cpp:425] inception_4a/relu_pool_proj <- inception_4a/pool_proj
I0403 16:08:26.006042 20759 net.cpp:386] inception_4a/relu_pool_proj -> inception_4a/pool_proj (in-place)
I0403 16:08:26.006322 20759 net.cpp:141] Setting up inception_4a/relu_pool_proj
I0403 16:08:26.006348 20759 net.cpp:148] Top shape: 24 64 14 14 (301056)
I0403 16:08:26.006363 20759 net.cpp:156] Memory required for data: 886912032
I0403 16:08:26.006378 20759 layer_factory.hpp:77] Creating layer inception_4a/output
I0403 16:08:26.006395 20759 net.cpp:91] Creating Layer inception_4a/output
I0403 16:08:26.006410 20759 net.cpp:425] inception_4a/output <- inception_4a/1x1
I0403 16:08:26.006425 20759 net.cpp:425] inception_4a/output <- inception_4a/3x3
I0403 16:08:26.006441 20759 net.cpp:425] inception_4a/output <- inception_4a/5x5
I0403 16:08:26.006456 20759 net.cpp:425] inception_4a/output <- inception_4a/pool_proj
I0403 16:08:26.006475 20759 net.cpp:399] inception_4a/output -> inception_4a/output
I0403 16:08:26.006518 20759 net.cpp:141] Setting up inception_4a/output
I0403 16:08:26.006541 20759 net.cpp:148] Top shape: 24 512 14 14 (2408448)
I0403 16:08:26.006556 20759 net.cpp:156] Memory required for data: 896545824
I0403 16:08:26.006570 20759 layer_factory.hpp:77] Creating layer inception_4a/output_inception_4a/output_0_split
I0403 16:08:26.006589 20759 net.cpp:91] Creating Layer inception_4a/output_inception_4a/output_0_split
I0403 16:08:26.006604 20759 net.cpp:425] inception_4a/output_inception_4a/output_0_split <- inception_4a/output
I0403 16:08:26.006624 20759 net.cpp:399] inception_4a/output_inception_4a/output_0_split -> inception_4a/output_inception_4a/output_0_split_0
I0403 16:08:26.006644 20759 net.cpp:399] inception_4a/output_inception_4a/output_0_split -> inception_4a/output_inception_4a/output_0_split_1
I0403 16:08:26.006664 20759 net.cpp:399] inception_4a/output_inception_4a/output_0_split -> inception_4a/output_inception_4a/output_0_split_2
I0403 16:08:26.006685 20759 net.cpp:399] inception_4a/output_inception_4a/output_0_split -> inception_4a/output_inception_4a/output_0_split_3
I0403 16:08:26.006703 20759 net.cpp:399] inception_4a/output_inception_4a/output_0_split -> inception_4a/output_inception_4a/output_0_split_4
I0403 16:08:26.006793 20759 net.cpp:141] Setting up inception_4a/output_inception_4a/output_0_split
I0403 16:08:26.006816 20759 net.cpp:148] Top shape: 24 512 14 14 (2408448)
I0403 16:08:26.006831 20759 net.cpp:148] Top shape: 24 512 14 14 (2408448)
I0403 16:08:26.006847 20759 net.cpp:148] Top shape: 24 512 14 14 (2408448)
I0403 16:08:26.006862 20759 net.cpp:148] Top shape: 24 512 14 14 (2408448)
I0403 16:08:26.006877 20759 net.cpp:148] Top shape: 24 512 14 14 (2408448)
I0403 16:08:26.006891 20759 net.cpp:156] Memory required for data: 944714784
I0403 16:08:26.006904 20759 layer_factory.hpp:77] Creating layer loss1/ave_pool
I0403 16:08:26.006924 20759 net.cpp:91] Creating Layer loss1/ave_pool
I0403 16:08:26.006942 20759 net.cpp:425] loss1/ave_pool <- inception_4a/output_inception_4a/output_0_split_0
I0403 16:08:26.006964 20759 net.cpp:399] loss1/ave_pool -> loss1/ave_pool
I0403 16:08:26.007169 20759 net.cpp:141] Setting up loss1/ave_pool
I0403 16:08:26.007194 20759 net.cpp:148] Top shape: 24 512 4 4 (196608)
I0403 16:08:26.007208 20759 net.cpp:156] Memory required for data: 945501216
I0403 16:08:26.007223 20759 layer_factory.hpp:77] Creating layer loss1/conv
I0403 16:08:26.007246 20759 net.cpp:91] Creating Layer loss1/conv
I0403 16:08:26.007262 20759 net.cpp:425] loss1/conv <- loss1/ave_pool
I0403 16:08:26.007282 20759 net.cpp:399] loss1/conv -> loss1/conv
I0403 16:08:26.008693 20759 net.cpp:141] Setting up loss1/conv
I0403 16:08:26.008721 20759 net.cpp:148] Top shape: 24 128 4 4 (49152)
I0403 16:08:26.008736 20759 net.cpp:156] Memory required for data: 945697824
I0403 16:08:26.008771 20759 layer_factory.hpp:77] Creating layer loss1/relu_conv
I0403 16:08:26.008793 20759 net.cpp:91] Creating Layer loss1/relu_conv
I0403 16:08:26.008810 20759 net.cpp:425] loss1/relu_conv <- loss1/conv
I0403 16:08:26.008826 20759 net.cpp:386] loss1/relu_conv -> loss1/conv (in-place)
I0403 16:08:26.009111 20759 net.cpp:141] Setting up loss1/relu_conv
I0403 16:08:26.009137 20759 net.cpp:148] Top shape: 24 128 4 4 (49152)
I0403 16:08:26.009152 20759 net.cpp:156] Memory required for data: 945894432
I0403 16:08:26.009166 20759 layer_factory.hpp:77] Creating layer loss1/fc
I0403 16:08:26.009192 20759 net.cpp:91] Creating Layer loss1/fc
I0403 16:08:26.009210 20759 net.cpp:425] loss1/fc <- loss1/conv
I0403 16:08:26.009230 20759 net.cpp:399] loss1/fc -> loss1/fc
I0403 16:08:26.027107 20759 net.cpp:141] Setting up loss1/fc
I0403 16:08:26.027169 20759 net.cpp:148] Top shape: 24 1024 (24576)
I0403 16:08:26.027184 20759 net.cpp:156] Memory required for data: 945992736
I0403 16:08:26.027204 20759 layer_factory.hpp:77] Creating layer loss1/relu_fc
I0403 16:08:26.027223 20759 net.cpp:91] Creating Layer loss1/relu_fc
I0403 16:08:26.027240 20759 net.cpp:425] loss1/relu_fc <- loss1/fc
I0403 16:08:26.027259 20759 net.cpp:386] loss1/relu_fc -> loss1/fc (in-place)
I0403 16:08:26.027467 20759 net.cpp:141] Setting up loss1/relu_fc
I0403 16:08:26.027493 20759 net.cpp:148] Top shape: 24 1024 (24576)
I0403 16:08:26.027506 20759 net.cpp:156] Memory required for data: 946091040
I0403 16:08:26.027520 20759 layer_factory.hpp:77] Creating layer loss1/drop_fc
I0403 16:08:26.027549 20759 net.cpp:91] Creating Layer loss1/drop_fc
I0403 16:08:26.027567 20759 net.cpp:425] loss1/drop_fc <- loss1/fc
I0403 16:08:26.027585 20759 net.cpp:386] loss1/drop_fc -> loss1/fc (in-place)
I0403 16:08:26.027637 20759 net.cpp:141] Setting up loss1/drop_fc
I0403 16:08:26.027662 20759 net.cpp:148] Top shape: 24 1024 (24576)
I0403 16:08:26.027678 20759 net.cpp:156] Memory required for data: 946189344
I0403 16:08:26.027693 20759 layer_factory.hpp:77] Creating layer loss1/classifier_plantvillage
I0403 16:08:26.027711 20759 net.cpp:91] Creating Layer loss1/classifier_plantvillage
I0403 16:08:26.027725 20759 net.cpp:425] loss1/classifier_plantvillage <- loss1/fc
I0403 16:08:26.027747 20759 net.cpp:399] loss1/classifier_plantvillage -> loss1/classifier_plantvillage
I0403 16:08:26.028687 20759 net.cpp:141] Setting up loss1/classifier_plantvillage
I0403 16:08:26.028713 20759 net.cpp:148] Top shape: 24 38 (912)
I0403 16:08:26.028728 20759 net.cpp:156] Memory required for data: 946192992
I0403 16:08:26.028746 20759 layer_factory.hpp:77] Creating layer loss1/classifier_plantvillage_loss1/classifier_plantvillage_0_split
I0403 16:08:26.028764 20759 net.cpp:91] Creating Layer loss1/classifier_plantvillage_loss1/classifier_plantvillage_0_split
I0403 16:08:26.028780 20759 net.cpp:425] loss1/classifier_plantvillage_loss1/classifier_plantvillage_0_split <- loss1/classifier_plantvillage
I0403 16:08:26.028801 20759 net.cpp:399] loss1/classifier_plantvillage_loss1/classifier_plantvillage_0_split -> loss1/classifier_plantvillage_loss1/classifier_plantvillage_0_split_0
I0403 16:08:26.028823 20759 net.cpp:399] loss1/classifier_plantvillage_loss1/classifier_plantvillage_0_split -> loss1/classifier_plantvillage_loss1/classifier_plantvillage_0_split_1
I0403 16:08:26.028843 20759 net.cpp:399] loss1/classifier_plantvillage_loss1/classifier_plantvillage_0_split -> loss1/classifier_plantvillage_loss1/classifier_plantvillage_0_split_2
I0403 16:08:26.028910 20759 net.cpp:141] Setting up loss1/classifier_plantvillage_loss1/classifier_plantvillage_0_split
I0403 16:08:26.028934 20759 net.cpp:148] Top shape: 24 38 (912)
I0403 16:08:26.028949 20759 net.cpp:148] Top shape: 24 38 (912)
I0403 16:08:26.028987 20759 net.cpp:148] Top shape: 24 38 (912)
I0403 16:08:26.029002 20759 net.cpp:156] Memory required for data: 946203936
I0403 16:08:26.029017 20759 layer_factory.hpp:77] Creating layer inception_4b/1x1
I0403 16:08:26.029042 20759 net.cpp:91] Creating Layer inception_4b/1x1
I0403 16:08:26.029081 20759 net.cpp:425] inception_4b/1x1 <- inception_4a/output_inception_4a/output_0_split_1
I0403 16:08:26.029103 20759 net.cpp:399] inception_4b/1x1 -> inception_4b/1x1
I0403 16:08:26.030825 20759 net.cpp:141] Setting up inception_4b/1x1
I0403 16:08:26.030854 20759 net.cpp:148] Top shape: 24 160 14 14 (752640)
I0403 16:08:26.030870 20759 net.cpp:156] Memory required for data: 949214496
I0403 16:08:26.030889 20759 layer_factory.hpp:77] Creating layer inception_4b/relu_1x1
I0403 16:08:26.030910 20759 net.cpp:91] Creating Layer inception_4b/relu_1x1
I0403 16:08:26.030927 20759 net.cpp:425] inception_4b/relu_1x1 <- inception_4b/1x1
I0403 16:08:26.030944 20759 net.cpp:386] inception_4b/relu_1x1 -> inception_4b/1x1 (in-place)
I0403 16:08:26.031132 20759 net.cpp:141] Setting up inception_4b/relu_1x1
I0403 16:08:26.031160 20759 net.cpp:148] Top shape: 24 160 14 14 (752640)
I0403 16:08:26.031175 20759 net.cpp:156] Memory required for data: 952225056
I0403 16:08:26.031190 20759 layer_factory.hpp:77] Creating layer inception_4b/3x3_reduce
I0403 16:08:26.031213 20759 net.cpp:91] Creating Layer inception_4b/3x3_reduce
I0403 16:08:26.031230 20759 net.cpp:425] inception_4b/3x3_reduce <- inception_4a/output_inception_4a/output_0_split_2
I0403 16:08:26.031249 20759 net.cpp:399] inception_4b/3x3_reduce -> inception_4b/3x3_reduce
I0403 16:08:26.032635 20759 net.cpp:141] Setting up inception_4b/3x3_reduce
I0403 16:08:26.032670 20759 net.cpp:148] Top shape: 24 112 14 14 (526848)
I0403 16:08:26.032686 20759 net.cpp:156] Memory required for data: 954332448
I0403 16:08:26.032706 20759 layer_factory.hpp:77] Creating layer inception_4b/relu_3x3_reduce
I0403 16:08:26.032724 20759 net.cpp:91] Creating Layer inception_4b/relu_3x3_reduce
I0403 16:08:26.032740 20759 net.cpp:425] inception_4b/relu_3x3_reduce <- inception_4b/3x3_reduce
I0403 16:08:26.032758 20759 net.cpp:386] inception_4b/relu_3x3_reduce -> inception_4b/3x3_reduce (in-place)
I0403 16:08:26.033051 20759 net.cpp:141] Setting up inception_4b/relu_3x3_reduce
I0403 16:08:26.033082 20759 net.cpp:148] Top shape: 24 112 14 14 (526848)
I0403 16:08:26.033097 20759 net.cpp:156] Memory required for data: 956439840
I0403 16:08:26.033113 20759 layer_factory.hpp:77] Creating layer inception_4b/3x3
I0403 16:08:26.033134 20759 net.cpp:91] Creating Layer inception_4b/3x3
I0403 16:08:26.033152 20759 net.cpp:425] inception_4b/3x3 <- inception_4b/3x3_reduce
I0403 16:08:26.033171 20759 net.cpp:399] inception_4b/3x3 -> inception_4b/3x3
I0403 16:08:26.036228 20759 net.cpp:141] Setting up inception_4b/3x3
I0403 16:08:26.036259 20759 net.cpp:148] Top shape: 24 224 14 14 (1053696)
I0403 16:08:26.036275 20759 net.cpp:156] Memory required for data: 960654624
I0403 16:08:26.036293 20759 layer_factory.hpp:77] Creating layer inception_4b/relu_3x3
I0403 16:08:26.036311 20759 net.cpp:91] Creating Layer inception_4b/relu_3x3
I0403 16:08:26.036327 20759 net.cpp:425] inception_4b/relu_3x3 <- inception_4b/3x3
I0403 16:08:26.036347 20759 net.cpp:386] inception_4b/relu_3x3 -> inception_4b/3x3 (in-place)
I0403 16:08:26.036536 20759 net.cpp:141] Setting up inception_4b/relu_3x3
I0403 16:08:26.036562 20759 net.cpp:148] Top shape: 24 224 14 14 (1053696)
I0403 16:08:26.036577 20759 net.cpp:156] Memory required for data: 964869408
I0403 16:08:26.036592 20759 layer_factory.hpp:77] Creating layer inception_4b/5x5_reduce
I0403 16:08:26.036615 20759 net.cpp:91] Creating Layer inception_4b/5x5_reduce
I0403 16:08:26.036633 20759 net.cpp:425] inception_4b/5x5_reduce <- inception_4a/output_inception_4a/output_0_split_3
I0403 16:08:26.036654 20759 net.cpp:399] inception_4b/5x5_reduce -> inception_4b/5x5_reduce
I0403 16:08:26.037772 20759 net.cpp:141] Setting up inception_4b/5x5_reduce
I0403 16:08:26.037803 20759 net.cpp:148] Top shape: 24 24 14 14 (112896)
I0403 16:08:26.037819 20759 net.cpp:156] Memory required for data: 965320992
I0403 16:08:26.037837 20759 layer_factory.hpp:77] Creating layer inception_4b/relu_5x5_reduce
I0403 16:08:26.037856 20759 net.cpp:91] Creating Layer inception_4b/relu_5x5_reduce
I0403 16:08:26.037888 20759 net.cpp:425] inception_4b/relu_5x5_reduce <- inception_4b/5x5_reduce
I0403 16:08:26.037906 20759 net.cpp:386] inception_4b/relu_5x5_reduce -> inception_4b/5x5_reduce (in-place)
I0403 16:08:26.038108 20759 net.cpp:141] Setting up inception_4b/relu_5x5_reduce
I0403 16:08:26.038136 20759 net.cpp:148] Top shape: 24 24 14 14 (112896)
I0403 16:08:26.038151 20759 net.cpp:156] Memory required for data: 965772576
I0403 16:08:26.038166 20759 layer_factory.hpp:77] Creating layer inception_4b/5x5
I0403 16:08:26.038188 20759 net.cpp:91] Creating Layer inception_4b/5x5
I0403 16:08:26.038205 20759 net.cpp:425] inception_4b/5x5 <- inception_4b/5x5_reduce
I0403 16:08:26.038224 20759 net.cpp:399] inception_4b/5x5 -> inception_4b/5x5
I0403 16:08:26.039494 20759 net.cpp:141] Setting up inception_4b/5x5
I0403 16:08:26.039523 20759 net.cpp:148] Top shape: 24 64 14 14 (301056)
I0403 16:08:26.039538 20759 net.cpp:156] Memory required for data: 966976800
I0403 16:08:26.039556 20759 layer_factory.hpp:77] Creating layer inception_4b/relu_5x5
I0403 16:08:26.039577 20759 net.cpp:91] Creating Layer inception_4b/relu_5x5
I0403 16:08:26.039594 20759 net.cpp:425] inception_4b/relu_5x5 <- inception_4b/5x5
I0403 16:08:26.039613 20759 net.cpp:386] inception_4b/relu_5x5 -> inception_4b/5x5 (in-place)
I0403 16:08:26.039909 20759 net.cpp:141] Setting up inception_4b/relu_5x5
I0403 16:08:26.039937 20759 net.cpp:148] Top shape: 24 64 14 14 (301056)
I0403 16:08:26.039969 20759 net.cpp:156] Memory required for data: 968181024
I0403 16:08:26.039986 20759 layer_factory.hpp:77] Creating layer inception_4b/pool
I0403 16:08:26.040011 20759 net.cpp:91] Creating Layer inception_4b/pool
I0403 16:08:26.040030 20759 net.cpp:425] inception_4b/pool <- inception_4a/output_inception_4a/output_0_split_4
I0403 16:08:26.040048 20759 net.cpp:399] inception_4b/pool -> inception_4b/pool
I0403 16:08:26.040120 20759 net.cpp:141] Setting up inception_4b/pool
I0403 16:08:26.040145 20759 net.cpp:148] Top shape: 24 512 14 14 (2408448)
I0403 16:08:26.040160 20759 net.cpp:156] Memory required for data: 977814816
I0403 16:08:26.040175 20759 layer_factory.hpp:77] Creating layer inception_4b/pool_proj
I0403 16:08:26.040199 20759 net.cpp:91] Creating Layer inception_4b/pool_proj
I0403 16:08:26.040216 20759 net.cpp:425] inception_4b/pool_proj <- inception_4b/pool
I0403 16:08:26.040237 20759 net.cpp:399] inception_4b/pool_proj -> inception_4b/pool_proj
I0403 16:08:26.041502 20759 net.cpp:141] Setting up inception_4b/pool_proj
I0403 16:08:26.041532 20759 net.cpp:148] Top shape: 24 64 14 14 (301056)
I0403 16:08:26.041546 20759 net.cpp:156] Memory required for data: 979019040
I0403 16:08:26.041565 20759 layer_factory.hpp:77] Creating layer inception_4b/relu_pool_proj
I0403 16:08:26.041586 20759 net.cpp:91] Creating Layer inception_4b/relu_pool_proj
I0403 16:08:26.041604 20759 net.cpp:425] inception_4b/relu_pool_proj <- inception_4b/pool_proj
I0403 16:08:26.041621 20759 net.cpp:386] inception_4b/relu_pool_proj -> inception_4b/pool_proj (in-place)
I0403 16:08:26.041808 20759 net.cpp:141] Setting up inception_4b/relu_pool_proj
I0403 16:08:26.041833 20759 net.cpp:148] Top shape: 24 64 14 14 (301056)
I0403 16:08:26.041847 20759 net.cpp:156] Memory required for data: 980223264
I0403 16:08:26.041862 20759 layer_factory.hpp:77] Creating layer inception_4b/output
I0403 16:08:26.041879 20759 net.cpp:91] Creating Layer inception_4b/output
I0403 16:08:26.041894 20759 net.cpp:425] inception_4b/output <- inception_4b/1x1
I0403 16:08:26.041911 20759 net.cpp:425] inception_4b/output <- inception_4b/3x3
I0403 16:08:26.041926 20759 net.cpp:425] inception_4b/output <- inception_4b/5x5
I0403 16:08:26.041942 20759 net.cpp:425] inception_4b/output <- inception_4b/pool_proj
I0403 16:08:26.041967 20759 net.cpp:399] inception_4b/output -> inception_4b/output
I0403 16:08:26.042016 20759 net.cpp:141] Setting up inception_4b/output
I0403 16:08:26.042042 20759 net.cpp:148] Top shape: 24 512 14 14 (2408448)
I0403 16:08:26.042058 20759 net.cpp:156] Memory required for data: 989857056
I0403 16:08:26.042088 20759 layer_factory.hpp:77] Creating layer inception_4b/output_inception_4b/output_0_split
I0403 16:08:26.042105 20759 net.cpp:91] Creating Layer inception_4b/output_inception_4b/output_0_split
I0403 16:08:26.042121 20759 net.cpp:425] inception_4b/output_inception_4b/output_0_split <- inception_4b/output
I0403 16:08:26.042138 20759 net.cpp:399] inception_4b/output_inception_4b/output_0_split -> inception_4b/output_inception_4b/output_0_split_0
I0403 16:08:26.042158 20759 net.cpp:399] inception_4b/output_inception_4b/output_0_split -> inception_4b/output_inception_4b/output_0_split_1
I0403 16:08:26.042178 20759 net.cpp:399] inception_4b/output_inception_4b/output_0_split -> inception_4b/output_inception_4b/output_0_split_2
I0403 16:08:26.042201 20759 net.cpp:399] inception_4b/output_inception_4b/output_0_split -> inception_4b/output_inception_4b/output_0_split_3
I0403 16:08:26.042287 20759 net.cpp:141] Setting up inception_4b/output_inception_4b/output_0_split
I0403 16:08:26.042310 20759 net.cpp:148] Top shape: 24 512 14 14 (2408448)
I0403 16:08:26.042326 20759 net.cpp:148] Top shape: 24 512 14 14 (2408448)
I0403 16:08:26.042343 20759 net.cpp:148] Top shape: 24 512 14 14 (2408448)
I0403 16:08:26.042358 20759 net.cpp:148] Top shape: 24 512 14 14 (2408448)
I0403 16:08:26.042372 20759 net.cpp:156] Memory required for data: 1028392224
I0403 16:08:26.042387 20759 layer_factory.hpp:77] Creating layer inception_4c/1x1
I0403 16:08:26.042408 20759 net.cpp:91] Creating Layer inception_4c/1x1
I0403 16:08:26.042426 20759 net.cpp:425] inception_4c/1x1 <- inception_4b/output_inception_4b/output_0_split_0
I0403 16:08:26.042446 20759 net.cpp:399] inception_4c/1x1 -> inception_4c/1x1
I0403 16:08:26.043932 20759 net.cpp:141] Setting up inception_4c/1x1
I0403 16:08:26.043967 20759 net.cpp:148] Top shape: 24 128 14 14 (602112)
I0403 16:08:26.043983 20759 net.cpp:156] Memory required for data: 1030800672
I0403 16:08:26.044001 20759 layer_factory.hpp:77] Creating layer inception_4c/relu_1x1
I0403 16:08:26.044018 20759 net.cpp:91] Creating Layer inception_4c/relu_1x1
I0403 16:08:26.044034 20759 net.cpp:425] inception_4c/relu_1x1 <- inception_4c/1x1
I0403 16:08:26.044054 20759 net.cpp:386] inception_4c/relu_1x1 -> inception_4c/1x1 (in-place)
I0403 16:08:26.044232 20759 net.cpp:141] Setting up inception_4c/relu_1x1
I0403 16:08:26.044257 20759 net.cpp:148] Top shape: 24 128 14 14 (602112)
I0403 16:08:26.044271 20759 net.cpp:156] Memory required for data: 1033209120
I0403 16:08:26.044286 20759 layer_factory.hpp:77] Creating layer inception_4c/3x3_reduce
I0403 16:08:26.044307 20759 net.cpp:91] Creating Layer inception_4c/3x3_reduce
I0403 16:08:26.044324 20759 net.cpp:425] inception_4c/3x3_reduce <- inception_4b/output_inception_4b/output_0_split_1
I0403 16:08:26.044348 20759 net.cpp:399] inception_4c/3x3_reduce -> inception_4c/3x3_reduce
I0403 16:08:26.046296 20759 net.cpp:141] Setting up inception_4c/3x3_reduce
I0403 16:08:26.046324 20759 net.cpp:148] Top shape: 24 128 14 14 (602112)
I0403 16:08:26.046339 20759 net.cpp:156] Memory required for data: 1035617568
I0403 16:08:26.046357 20759 layer_factory.hpp:77] Creating layer inception_4c/relu_3x3_reduce
I0403 16:08:26.046377 20759 net.cpp:91] Creating Layer inception_4c/relu_3x3_reduce
I0403 16:08:26.046394 20759 net.cpp:425] inception_4c/relu_3x3_reduce <- inception_4c/3x3_reduce
I0403 16:08:26.046411 20759 net.cpp:386] inception_4c/relu_3x3_reduce -> inception_4c/3x3_reduce (in-place)
I0403 16:08:26.046697 20759 net.cpp:141] Setting up inception_4c/relu_3x3_reduce
I0403 16:08:26.046723 20759 net.cpp:148] Top shape: 24 128 14 14 (602112)
I0403 16:08:26.046738 20759 net.cpp:156] Memory required for data: 1038026016
I0403 16:08:26.046753 20759 layer_factory.hpp:77] Creating layer inception_4c/3x3
I0403 16:08:26.046775 20759 net.cpp:91] Creating Layer inception_4c/3x3
I0403 16:08:26.046792 20759 net.cpp:425] inception_4c/3x3 <- inception_4c/3x3_reduce
I0403 16:08:26.046814 20759 net.cpp:399] inception_4c/3x3 -> inception_4c/3x3
I0403 16:08:26.050434 20759 net.cpp:141] Setting up inception_4c/3x3
I0403 16:08:26.050474 20759 net.cpp:148] Top shape: 24 256 14 14 (1204224)
I0403 16:08:26.050489 20759 net.cpp:156] Memory required for data: 1042842912
I0403 16:08:26.050520 20759 layer_factory.hpp:77] Creating layer inception_4c/relu_3x3
I0403 16:08:26.050541 20759 net.cpp:91] Creating Layer inception_4c/relu_3x3
I0403 16:08:26.050559 20759 net.cpp:425] inception_4c/relu_3x3 <- inception_4c/3x3
I0403 16:08:26.050575 20759 net.cpp:386] inception_4c/relu_3x3 -> inception_4c/3x3 (in-place)
I0403 16:08:26.050750 20759 net.cpp:141] Setting up inception_4c/relu_3x3
I0403 16:08:26.050776 20759 net.cpp:148] Top shape: 24 256 14 14 (1204224)
I0403 16:08:26.050789 20759 net.cpp:156] Memory required for data: 1047659808
I0403 16:08:26.050804 20759 layer_factory.hpp:77] Creating layer inception_4c/5x5_reduce
I0403 16:08:26.050823 20759 net.cpp:91] Creating Layer inception_4c/5x5_reduce
I0403 16:08:26.050838 20759 net.cpp:425] inception_4c/5x5_reduce <- inception_4b/output_inception_4b/output_0_split_2
I0403 16:08:26.050859 20759 net.cpp:399] inception_4c/5x5_reduce -> inception_4c/5x5_reduce
I0403 16:08:26.051924 20759 net.cpp:141] Setting up inception_4c/5x5_reduce
I0403 16:08:26.051951 20759 net.cpp:148] Top shape: 24 24 14 14 (112896)
I0403 16:08:26.051978 20759 net.cpp:156] Memory required for data: 1048111392
I0403 16:08:26.051995 20759 layer_factory.hpp:77] Creating layer inception_4c/relu_5x5_reduce
I0403 16:08:26.052013 20759 net.cpp:91] Creating Layer inception_4c/relu_5x5_reduce
I0403 16:08:26.052028 20759 net.cpp:425] inception_4c/relu_5x5_reduce <- inception_4c/5x5_reduce
I0403 16:08:26.052044 20759 net.cpp:386] inception_4c/relu_5x5_reduce -> inception_4c/5x5_reduce (in-place)
I0403 16:08:26.052224 20759 net.cpp:141] Setting up inception_4c/relu_5x5_reduce
I0403 16:08:26.052250 20759 net.cpp:148] Top shape: 24 24 14 14 (112896)
I0403 16:08:26.052265 20759 net.cpp:156] Memory required for data: 1048562976
I0403 16:08:26.052279 20759 layer_factory.hpp:77] Creating layer inception_4c/5x5
I0403 16:08:26.052301 20759 net.cpp:91] Creating Layer inception_4c/5x5
I0403 16:08:26.052317 20759 net.cpp:425] inception_4c/5x5 <- inception_4c/5x5_reduce
I0403 16:08:26.052335 20759 net.cpp:399] inception_4c/5x5 -> inception_4c/5x5
I0403 16:08:26.053591 20759 net.cpp:141] Setting up inception_4c/5x5
I0403 16:08:26.053617 20759 net.cpp:148] Top shape: 24 64 14 14 (301056)
I0403 16:08:26.053632 20759 net.cpp:156] Memory required for data: 1049767200
I0403 16:08:26.053650 20759 layer_factory.hpp:77] Creating layer inception_4c/relu_5x5
I0403 16:08:26.053668 20759 net.cpp:91] Creating Layer inception_4c/relu_5x5
I0403 16:08:26.053683 20759 net.cpp:425] inception_4c/relu_5x5 <- inception_4c/5x5
I0403 16:08:26.053701 20759 net.cpp:386] inception_4c/relu_5x5 -> inception_4c/5x5 (in-place)
I0403 16:08:26.053998 20759 net.cpp:141] Setting up inception_4c/relu_5x5
I0403 16:08:26.054024 20759 net.cpp:148] Top shape: 24 64 14 14 (301056)
I0403 16:08:26.054039 20759 net.cpp:156] Memory required for data: 1050971424
I0403 16:08:26.054054 20759 layer_factory.hpp:77] Creating layer inception_4c/pool
I0403 16:08:26.054071 20759 net.cpp:91] Creating Layer inception_4c/pool
I0403 16:08:26.054087 20759 net.cpp:425] inception_4c/pool <- inception_4b/output_inception_4b/output_0_split_3
I0403 16:08:26.054107 20759 net.cpp:399] inception_4c/pool -> inception_4c/pool
I0403 16:08:26.054172 20759 net.cpp:141] Setting up inception_4c/pool
I0403 16:08:26.054196 20759 net.cpp:148] Top shape: 24 512 14 14 (2408448)
I0403 16:08:26.054209 20759 net.cpp:156] Memory required for data: 1060605216
I0403 16:08:26.054224 20759 layer_factory.hpp:77] Creating layer inception_4c/pool_proj
I0403 16:08:26.054247 20759 net.cpp:91] Creating Layer inception_4c/pool_proj
I0403 16:08:26.054265 20759 net.cpp:425] inception_4c/pool_proj <- inception_4c/pool
I0403 16:08:26.054282 20759 net.cpp:399] inception_4c/pool_proj -> inception_4c/pool_proj
I0403 16:08:26.055510 20759 net.cpp:141] Setting up inception_4c/pool_proj
I0403 16:08:26.055537 20759 net.cpp:148] Top shape: 24 64 14 14 (301056)
I0403 16:08:26.055565 20759 net.cpp:156] Memory required for data: 1061809440
I0403 16:08:26.055584 20759 layer_factory.hpp:77] Creating layer inception_4c/relu_pool_proj
I0403 16:08:26.055605 20759 net.cpp:91] Creating Layer inception_4c/relu_pool_proj
I0403 16:08:26.055622 20759 net.cpp:425] inception_4c/relu_pool_proj <- inception_4c/pool_proj
I0403 16:08:26.055639 20759 net.cpp:386] inception_4c/relu_pool_proj -> inception_4c/pool_proj (in-place)
I0403 16:08:26.055816 20759 net.cpp:141] Setting up inception_4c/relu_pool_proj
I0403 16:08:26.055841 20759 net.cpp:148] Top shape: 24 64 14 14 (301056)
I0403 16:08:26.055855 20759 net.cpp:156] Memory required for data: 1063013664
I0403 16:08:26.055868 20759 layer_factory.hpp:77] Creating layer inception_4c/output
I0403 16:08:26.055884 20759 net.cpp:91] Creating Layer inception_4c/output
I0403 16:08:26.055899 20759 net.cpp:425] inception_4c/output <- inception_4c/1x1
I0403 16:08:26.055914 20759 net.cpp:425] inception_4c/output <- inception_4c/3x3
I0403 16:08:26.055929 20759 net.cpp:425] inception_4c/output <- inception_4c/5x5
I0403 16:08:26.055944 20759 net.cpp:425] inception_4c/output <- inception_4c/pool_proj
I0403 16:08:26.055966 20759 net.cpp:399] inception_4c/output -> inception_4c/output
I0403 16:08:26.056015 20759 net.cpp:141] Setting up inception_4c/output
I0403 16:08:26.056036 20759 net.cpp:148] Top shape: 24 512 14 14 (2408448)
I0403 16:08:26.056051 20759 net.cpp:156] Memory required for data: 1072647456
I0403 16:08:26.056063 20759 layer_factory.hpp:77] Creating layer inception_4c/output_inception_4c/output_0_split
I0403 16:08:26.056082 20759 net.cpp:91] Creating Layer inception_4c/output_inception_4c/output_0_split
I0403 16:08:26.056097 20759 net.cpp:425] inception_4c/output_inception_4c/output_0_split <- inception_4c/output
I0403 16:08:26.056113 20759 net.cpp:399] inception_4c/output_inception_4c/output_0_split -> inception_4c/output_inception_4c/output_0_split_0
I0403 16:08:26.056131 20759 net.cpp:399] inception_4c/output_inception_4c/output_0_split -> inception_4c/output_inception_4c/output_0_split_1
I0403 16:08:26.056151 20759 net.cpp:399] inception_4c/output_inception_4c/output_0_split -> inception_4c/output_inception_4c/output_0_split_2
I0403 16:08:26.056171 20759 net.cpp:399] inception_4c/output_inception_4c/output_0_split -> inception_4c/output_inception_4c/output_0_split_3
I0403 16:08:26.056255 20759 net.cpp:141] Setting up inception_4c/output_inception_4c/output_0_split
I0403 16:08:26.056277 20759 net.cpp:148] Top shape: 24 512 14 14 (2408448)
I0403 16:08:26.056293 20759 net.cpp:148] Top shape: 24 512 14 14 (2408448)
I0403 16:08:26.056308 20759 net.cpp:148] Top shape: 24 512 14 14 (2408448)
I0403 16:08:26.056321 20759 net.cpp:148] Top shape: 24 512 14 14 (2408448)
I0403 16:08:26.056334 20759 net.cpp:156] Memory required for data: 1111182624
I0403 16:08:26.056347 20759 layer_factory.hpp:77] Creating layer inception_4d/1x1
I0403 16:08:26.056368 20759 net.cpp:91] Creating Layer inception_4d/1x1
I0403 16:08:26.056385 20759 net.cpp:425] inception_4d/1x1 <- inception_4c/output_inception_4c/output_0_split_0
I0403 16:08:26.056406 20759 net.cpp:399] inception_4d/1x1 -> inception_4d/1x1
I0403 16:08:26.057752 20759 net.cpp:141] Setting up inception_4d/1x1
I0403 16:08:26.057780 20759 net.cpp:148] Top shape: 24 112 14 14 (526848)
I0403 16:08:26.057793 20759 net.cpp:156] Memory required for data: 1113290016
I0403 16:08:26.057811 20759 layer_factory.hpp:77] Creating layer inception_4d/relu_1x1
I0403 16:08:26.057831 20759 net.cpp:91] Creating Layer inception_4d/relu_1x1
I0403 16:08:26.057847 20759 net.cpp:425] inception_4d/relu_1x1 <- inception_4d/1x1
I0403 16:08:26.057862 20759 net.cpp:386] inception_4d/relu_1x1 -> inception_4d/1x1 (in-place)
I0403 16:08:26.058053 20759 net.cpp:141] Setting up inception_4d/relu_1x1
I0403 16:08:26.058079 20759 net.cpp:148] Top shape: 24 112 14 14 (526848)
I0403 16:08:26.058092 20759 net.cpp:156] Memory required for data: 1115397408
I0403 16:08:26.058106 20759 layer_factory.hpp:77] Creating layer inception_4d/3x3_reduce
I0403 16:08:26.058141 20759 net.cpp:91] Creating Layer inception_4d/3x3_reduce
I0403 16:08:26.058159 20759 net.cpp:425] inception_4d/3x3_reduce <- inception_4c/output_inception_4c/output_0_split_1
I0403 16:08:26.058179 20759 net.cpp:399] inception_4d/3x3_reduce -> inception_4d/3x3_reduce
I0403 16:08:26.059659 20759 net.cpp:141] Setting up inception_4d/3x3_reduce
I0403 16:08:26.059689 20759 net.cpp:148] Top shape: 24 144 14 14 (677376)
I0403 16:08:26.059705 20759 net.cpp:156] Memory required for data: 1118106912
I0403 16:08:26.059721 20759 layer_factory.hpp:77] Creating layer inception_4d/relu_3x3_reduce
I0403 16:08:26.059739 20759 net.cpp:91] Creating Layer inception_4d/relu_3x3_reduce
I0403 16:08:26.059754 20759 net.cpp:425] inception_4d/relu_3x3_reduce <- inception_4d/3x3_reduce
I0403 16:08:26.059773 20759 net.cpp:386] inception_4d/relu_3x3_reduce -> inception_4d/3x3_reduce (in-place)
I0403 16:08:26.060060 20759 net.cpp:141] Setting up inception_4d/relu_3x3_reduce
I0403 16:08:26.060088 20759 net.cpp:148] Top shape: 24 144 14 14 (677376)
I0403 16:08:26.060103 20759 net.cpp:156] Memory required for data: 1120816416
I0403 16:08:26.060118 20759 layer_factory.hpp:77] Creating layer inception_4d/3x3
I0403 16:08:26.060139 20759 net.cpp:91] Creating Layer inception_4d/3x3
I0403 16:08:26.060156 20759 net.cpp:425] inception_4d/3x3 <- inception_4d/3x3_reduce
I0403 16:08:26.060175 20759 net.cpp:399] inception_4d/3x3 -> inception_4d/3x3
I0403 16:08:26.064326 20759 net.cpp:141] Setting up inception_4d/3x3
I0403 16:08:26.064353 20759 net.cpp:148] Top shape: 24 288 14 14 (1354752)
I0403 16:08:26.064368 20759 net.cpp:156] Memory required for data: 1126235424
I0403 16:08:26.064385 20759 layer_factory.hpp:77] Creating layer inception_4d/relu_3x3
I0403 16:08:26.064404 20759 net.cpp:91] Creating Layer inception_4d/relu_3x3
I0403 16:08:26.064420 20759 net.cpp:425] inception_4d/relu_3x3 <- inception_4d/3x3
I0403 16:08:26.064436 20759 net.cpp:386] inception_4d/relu_3x3 -> inception_4d/3x3 (in-place)
I0403 16:08:26.064613 20759 net.cpp:141] Setting up inception_4d/relu_3x3
I0403 16:08:26.064637 20759 net.cpp:148] Top shape: 24 288 14 14 (1354752)
I0403 16:08:26.064651 20759 net.cpp:156] Memory required for data: 1131654432
I0403 16:08:26.064666 20759 layer_factory.hpp:77] Creating layer inception_4d/5x5_reduce
I0403 16:08:26.064688 20759 net.cpp:91] Creating Layer inception_4d/5x5_reduce
I0403 16:08:26.064705 20759 net.cpp:425] inception_4d/5x5_reduce <- inception_4c/output_inception_4c/output_0_split_2
I0403 16:08:26.064723 20759 net.cpp:399] inception_4d/5x5_reduce -> inception_4d/5x5_reduce
I0403 16:08:26.065847 20759 net.cpp:141] Setting up inception_4d/5x5_reduce
I0403 16:08:26.065874 20759 net.cpp:148] Top shape: 24 32 14 14 (150528)
I0403 16:08:26.065889 20759 net.cpp:156] Memory required for data: 1132256544
I0403 16:08:26.065907 20759 layer_factory.hpp:77] Creating layer inception_4d/relu_5x5_reduce
I0403 16:08:26.065925 20759 net.cpp:91] Creating Layer inception_4d/relu_5x5_reduce
I0403 16:08:26.065942 20759 net.cpp:425] inception_4d/relu_5x5_reduce <- inception_4d/5x5_reduce
I0403 16:08:26.065963 20759 net.cpp:386] inception_4d/relu_5x5_reduce -> inception_4d/5x5_reduce (in-place)
I0403 16:08:26.066145 20759 net.cpp:141] Setting up inception_4d/relu_5x5_reduce
I0403 16:08:26.066174 20759 net.cpp:148] Top shape: 24 32 14 14 (150528)
I0403 16:08:26.066190 20759 net.cpp:156] Memory required for data: 1132858656
I0403 16:08:26.066205 20759 layer_factory.hpp:77] Creating layer inception_4d/5x5
I0403 16:08:26.066223 20759 net.cpp:91] Creating Layer inception_4d/5x5
I0403 16:08:26.066239 20759 net.cpp:425] inception_4d/5x5 <- inception_4d/5x5_reduce
I0403 16:08:26.066258 20759 net.cpp:399] inception_4d/5x5 -> inception_4d/5x5
I0403 16:08:26.067704 20759 net.cpp:141] Setting up inception_4d/5x5
I0403 16:08:26.067734 20759 net.cpp:148] Top shape: 24 64 14 14 (301056)
I0403 16:08:26.067749 20759 net.cpp:156] Memory required for data: 1134062880
I0403 16:08:26.067766 20759 layer_factory.hpp:77] Creating layer inception_4d/relu_5x5
I0403 16:08:26.067798 20759 net.cpp:91] Creating Layer inception_4d/relu_5x5
I0403 16:08:26.067814 20759 net.cpp:425] inception_4d/relu_5x5 <- inception_4d/5x5
I0403 16:08:26.067831 20759 net.cpp:386] inception_4d/relu_5x5 -> inception_4d/5x5 (in-place)
I0403 16:08:26.068171 20759 net.cpp:141] Setting up inception_4d/relu_5x5
I0403 16:08:26.068200 20759 net.cpp:148] Top shape: 24 64 14 14 (301056)
I0403 16:08:26.068217 20759 net.cpp:156] Memory required for data: 1135267104
I0403 16:08:26.068231 20759 layer_factory.hpp:77] Creating layer inception_4d/pool
I0403 16:08:26.068249 20759 net.cpp:91] Creating Layer inception_4d/pool
I0403 16:08:26.068265 20759 net.cpp:425] inception_4d/pool <- inception_4c/output_inception_4c/output_0_split_3
I0403 16:08:26.068284 20759 net.cpp:399] inception_4d/pool -> inception_4d/pool
I0403 16:08:26.068363 20759 net.cpp:141] Setting up inception_4d/pool
I0403 16:08:26.068387 20759 net.cpp:148] Top shape: 24 512 14 14 (2408448)
I0403 16:08:26.068402 20759 net.cpp:156] Memory required for data: 1144900896
I0403 16:08:26.068414 20759 layer_factory.hpp:77] Creating layer inception_4d/pool_proj
I0403 16:08:26.068438 20759 net.cpp:91] Creating Layer inception_4d/pool_proj
I0403 16:08:26.068454 20759 net.cpp:425] inception_4d/pool_proj <- inception_4d/pool
I0403 16:08:26.068475 20759 net.cpp:399] inception_4d/pool_proj -> inception_4d/pool_proj
I0403 16:08:26.070262 20759 net.cpp:141] Setting up inception_4d/pool_proj
I0403 16:08:26.070291 20759 net.cpp:148] Top shape: 24 64 14 14 (301056)
I0403 16:08:26.070307 20759 net.cpp:156] Memory required for data: 1146105120
I0403 16:08:26.070324 20759 layer_factory.hpp:77] Creating layer inception_4d/relu_pool_proj
I0403 16:08:26.070344 20759 net.cpp:91] Creating Layer inception_4d/relu_pool_proj
I0403 16:08:26.070361 20759 net.cpp:425] inception_4d/relu_pool_proj <- inception_4d/pool_proj
I0403 16:08:26.070379 20759 net.cpp:386] inception_4d/relu_pool_proj -> inception_4d/pool_proj (in-place)
I0403 16:08:26.070566 20759 net.cpp:141] Setting up inception_4d/relu_pool_proj
I0403 16:08:26.070590 20759 net.cpp:148] Top shape: 24 64 14 14 (301056)
I0403 16:08:26.070605 20759 net.cpp:156] Memory required for data: 1147309344
I0403 16:08:26.070619 20759 layer_factory.hpp:77] Creating layer inception_4d/output
I0403 16:08:26.070638 20759 net.cpp:91] Creating Layer inception_4d/output
I0403 16:08:26.070654 20759 net.cpp:425] inception_4d/output <- inception_4d/1x1
I0403 16:08:26.070669 20759 net.cpp:425] inception_4d/output <- inception_4d/3x3
I0403 16:08:26.070685 20759 net.cpp:425] inception_4d/output <- inception_4d/5x5
I0403 16:08:26.070700 20759 net.cpp:425] inception_4d/output <- inception_4d/pool_proj
I0403 16:08:26.070716 20759 net.cpp:399] inception_4d/output -> inception_4d/output
I0403 16:08:26.070765 20759 net.cpp:141] Setting up inception_4d/output
I0403 16:08:26.070790 20759 net.cpp:148] Top shape: 24 528 14 14 (2483712)
I0403 16:08:26.070803 20759 net.cpp:156] Memory required for data: 1157244192
I0403 16:08:26.070817 20759 layer_factory.hpp:77] Creating layer inception_4d/output_inception_4d/output_0_split
I0403 16:08:26.070834 20759 net.cpp:91] Creating Layer inception_4d/output_inception_4d/output_0_split
I0403 16:08:26.070849 20759 net.cpp:425] inception_4d/output_inception_4d/output_0_split <- inception_4d/output
I0403 16:08:26.070869 20759 net.cpp:399] inception_4d/output_inception_4d/output_0_split -> inception_4d/output_inception_4d/output_0_split_0
I0403 16:08:26.070889 20759 net.cpp:399] inception_4d/output_inception_4d/output_0_split -> inception_4d/output_inception_4d/output_0_split_1
I0403 16:08:26.070909 20759 net.cpp:399] inception_4d/output_inception_4d/output_0_split -> inception_4d/output_inception_4d/output_0_split_2
I0403 16:08:26.070933 20759 net.cpp:399] inception_4d/output_inception_4d/output_0_split -> inception_4d/output_inception_4d/output_0_split_3
I0403 16:08:26.070961 20759 net.cpp:399] inception_4d/output_inception_4d/output_0_split -> inception_4d/output_inception_4d/output_0_split_4
I0403 16:08:26.071064 20759 net.cpp:141] Setting up inception_4d/output_inception_4d/output_0_split
I0403 16:08:26.071100 20759 net.cpp:148] Top shape: 24 528 14 14 (2483712)
I0403 16:08:26.071116 20759 net.cpp:148] Top shape: 24 528 14 14 (2483712)
I0403 16:08:26.071132 20759 net.cpp:148] Top shape: 24 528 14 14 (2483712)
I0403 16:08:26.071146 20759 net.cpp:148] Top shape: 24 528 14 14 (2483712)
I0403 16:08:26.071161 20759 net.cpp:148] Top shape: 24 528 14 14 (2483712)
I0403 16:08:26.071176 20759 net.cpp:156] Memory required for data: 1206918432
I0403 16:08:26.071189 20759 layer_factory.hpp:77] Creating layer loss2/ave_pool
I0403 16:08:26.071207 20759 net.cpp:91] Creating Layer loss2/ave_pool
I0403 16:08:26.071223 20759 net.cpp:425] loss2/ave_pool <- inception_4d/output_inception_4d/output_0_split_0
I0403 16:08:26.071243 20759 net.cpp:399] loss2/ave_pool -> loss2/ave_pool
I0403 16:08:26.071557 20759 net.cpp:141] Setting up loss2/ave_pool
I0403 16:08:26.071583 20759 net.cpp:148] Top shape: 24 528 4 4 (202752)
I0403 16:08:26.071599 20759 net.cpp:156] Memory required for data: 1207729440
I0403 16:08:26.071614 20759 layer_factory.hpp:77] Creating layer loss2/conv
I0403 16:08:26.071636 20759 net.cpp:91] Creating Layer loss2/conv
I0403 16:08:26.071653 20759 net.cpp:425] loss2/conv <- loss2/ave_pool
I0403 16:08:26.071674 20759 net.cpp:399] loss2/conv -> loss2/conv
I0403 16:08:26.073582 20759 net.cpp:141] Setting up loss2/conv
I0403 16:08:26.073612 20759 net.cpp:148] Top shape: 24 128 4 4 (49152)
I0403 16:08:26.073629 20759 net.cpp:156] Memory required for data: 1207926048
I0403 16:08:26.073647 20759 layer_factory.hpp:77] Creating layer loss2/relu_conv
I0403 16:08:26.073664 20759 net.cpp:91] Creating Layer loss2/relu_conv
I0403 16:08:26.073680 20759 net.cpp:425] loss2/relu_conv <- loss2/conv
I0403 16:08:26.073698 20759 net.cpp:386] loss2/relu_conv -> loss2/conv (in-place)
I0403 16:08:26.073992 20759 net.cpp:141] Setting up loss2/relu_conv
I0403 16:08:26.074020 20759 net.cpp:148] Top shape: 24 128 4 4 (49152)
I0403 16:08:26.074036 20759 net.cpp:156] Memory required for data: 1208122656
I0403 16:08:26.074051 20759 layer_factory.hpp:77] Creating layer loss2/fc
I0403 16:08:26.074070 20759 net.cpp:91] Creating Layer loss2/fc
I0403 16:08:26.074086 20759 net.cpp:425] loss2/fc <- loss2/conv
I0403 16:08:26.074107 20759 net.cpp:399] loss2/fc -> loss2/fc
I0403 16:08:26.091810 20759 net.cpp:141] Setting up loss2/fc
I0403 16:08:26.091840 20759 net.cpp:148] Top shape: 24 1024 (24576)
I0403 16:08:26.091856 20759 net.cpp:156] Memory required for data: 1208220960
I0403 16:08:26.091873 20759 layer_factory.hpp:77] Creating layer loss2/relu_fc
I0403 16:08:26.091893 20759 net.cpp:91] Creating Layer loss2/relu_fc
I0403 16:08:26.091910 20759 net.cpp:425] loss2/relu_fc <- loss2/fc
I0403 16:08:26.091928 20759 net.cpp:386] loss2/relu_fc -> loss2/fc (in-place)
I0403 16:08:26.092234 20759 net.cpp:141] Setting up loss2/relu_fc
I0403 16:08:26.092262 20759 net.cpp:148] Top shape: 24 1024 (24576)
I0403 16:08:26.092277 20759 net.cpp:156] Memory required for data: 1208319264
I0403 16:08:26.092290 20759 layer_factory.hpp:77] Creating layer loss2/drop_fc
I0403 16:08:26.092310 20759 net.cpp:91] Creating Layer loss2/drop_fc
I0403 16:08:26.092327 20759 net.cpp:425] loss2/drop_fc <- loss2/fc
I0403 16:08:26.092344 20759 net.cpp:386] loss2/drop_fc -> loss2/fc (in-place)
I0403 16:08:26.092397 20759 net.cpp:141] Setting up loss2/drop_fc
I0403 16:08:26.092420 20759 net.cpp:148] Top shape: 24 1024 (24576)
I0403 16:08:26.092434 20759 net.cpp:156] Memory required for data: 1208417568
I0403 16:08:26.092448 20759 layer_factory.hpp:77] Creating layer loss2/classifier_plantvillage
I0403 16:08:26.092468 20759 net.cpp:91] Creating Layer loss2/classifier_plantvillage
I0403 16:08:26.092483 20759 net.cpp:425] loss2/classifier_plantvillage <- loss2/fc
I0403 16:08:26.092506 20759 net.cpp:399] loss2/classifier_plantvillage -> loss2/classifier_plantvillage
I0403 16:08:26.092918 20759 net.cpp:141] Setting up loss2/classifier_plantvillage
I0403 16:08:26.092943 20759 net.cpp:148] Top shape: 24 38 (912)
I0403 16:08:26.092964 20759 net.cpp:156] Memory required for data: 1208421216
I0403 16:08:26.092999 20759 layer_factory.hpp:77] Creating layer loss2/classifier_plantvillage_loss2/classifier_plantvillage_0_split
I0403 16:08:26.093019 20759 net.cpp:91] Creating Layer loss2/classifier_plantvillage_loss2/classifier_plantvillage_0_split
I0403 16:08:26.093034 20759 net.cpp:425] loss2/classifier_plantvillage_loss2/classifier_plantvillage_0_split <- loss2/classifier_plantvillage
I0403 16:08:26.093053 20759 net.cpp:399] loss2/classifier_plantvillage_loss2/classifier_plantvillage_0_split -> loss2/classifier_plantvillage_loss2/classifier_plantvillage_0_split_0
I0403 16:08:26.093075 20759 net.cpp:399] loss2/classifier_plantvillage_loss2/classifier_plantvillage_0_split -> loss2/classifier_plantvillage_loss2/classifier_plantvillage_0_split_1
I0403 16:08:26.093094 20759 net.cpp:399] loss2/classifier_plantvillage_loss2/classifier_plantvillage_0_split -> loss2/classifier_plantvillage_loss2/classifier_plantvillage_0_split_2
I0403 16:08:26.093170 20759 net.cpp:141] Setting up loss2/classifier_plantvillage_loss2/classifier_plantvillage_0_split
I0403 16:08:26.093194 20759 net.cpp:148] Top shape: 24 38 (912)
I0403 16:08:26.093209 20759 net.cpp:148] Top shape: 24 38 (912)
I0403 16:08:26.093224 20759 net.cpp:148] Top shape: 24 38 (912)
I0403 16:08:26.093237 20759 net.cpp:156] Memory required for data: 1208432160
I0403 16:08:26.093251 20759 layer_factory.hpp:77] Creating layer inception_4e/1x1
I0403 16:08:26.093274 20759 net.cpp:91] Creating Layer inception_4e/1x1
I0403 16:08:26.093291 20759 net.cpp:425] inception_4e/1x1 <- inception_4d/output_inception_4d/output_0_split_1
I0403 16:08:26.093310 20759 net.cpp:399] inception_4e/1x1 -> inception_4e/1x1
I0403 16:08:26.095152 20759 net.cpp:141] Setting up inception_4e/1x1
I0403 16:08:26.095183 20759 net.cpp:148] Top shape: 24 256 14 14 (1204224)
I0403 16:08:26.095199 20759 net.cpp:156] Memory required for data: 1213249056
I0403 16:08:26.095217 20759 layer_factory.hpp:77] Creating layer inception_4e/relu_1x1
I0403 16:08:26.095234 20759 net.cpp:91] Creating Layer inception_4e/relu_1x1
I0403 16:08:26.095250 20759 net.cpp:425] inception_4e/relu_1x1 <- inception_4e/1x1
I0403 16:08:26.095269 20759 net.cpp:386] inception_4e/relu_1x1 -> inception_4e/1x1 (in-place)
I0403 16:08:26.095564 20759 net.cpp:141] Setting up inception_4e/relu_1x1
I0403 16:08:26.095593 20759 net.cpp:148] Top shape: 24 256 14 14 (1204224)
I0403 16:08:26.095609 20759 net.cpp:156] Memory required for data: 1218065952
I0403 16:08:26.095623 20759 layer_factory.hpp:77] Creating layer inception_4e/3x3_reduce
I0403 16:08:26.095646 20759 net.cpp:91] Creating Layer inception_4e/3x3_reduce
I0403 16:08:26.095664 20759 net.cpp:425] inception_4e/3x3_reduce <- inception_4d/output_inception_4d/output_0_split_2
I0403 16:08:26.095685 20759 net.cpp:399] inception_4e/3x3_reduce -> inception_4e/3x3_reduce
I0403 16:08:26.097816 20759 net.cpp:141] Setting up inception_4e/3x3_reduce
I0403 16:08:26.097846 20759 net.cpp:148] Top shape: 24 160 14 14 (752640)
I0403 16:08:26.097862 20759 net.cpp:156] Memory required for data: 1221076512
I0403 16:08:26.097878 20759 layer_factory.hpp:77] Creating layer inception_4e/relu_3x3_reduce
I0403 16:08:26.097899 20759 net.cpp:91] Creating Layer inception_4e/relu_3x3_reduce
I0403 16:08:26.097916 20759 net.cpp:425] inception_4e/relu_3x3_reduce <- inception_4e/3x3_reduce
I0403 16:08:26.097934 20759 net.cpp:386] inception_4e/relu_3x3_reduce -> inception_4e/3x3_reduce (in-place)
I0403 16:08:26.098132 20759 net.cpp:141] Setting up inception_4e/relu_3x3_reduce
I0403 16:08:26.098157 20759 net.cpp:148] Top shape: 24 160 14 14 (752640)
I0403 16:08:26.098172 20759 net.cpp:156] Memory required for data: 1224087072
I0403 16:08:26.098186 20759 layer_factory.hpp:77] Creating layer inception_4e/3x3
I0403 16:08:26.098208 20759 net.cpp:91] Creating Layer inception_4e/3x3
I0403 16:08:26.098225 20759 net.cpp:425] inception_4e/3x3 <- inception_4e/3x3_reduce
I0403 16:08:26.098248 20759 net.cpp:399] inception_4e/3x3 -> inception_4e/3x3
I0403 16:08:26.103340 20759 net.cpp:141] Setting up inception_4e/3x3
I0403 16:08:26.103382 20759 net.cpp:148] Top shape: 24 320 14 14 (1505280)
I0403 16:08:26.103399 20759 net.cpp:156] Memory required for data: 1230108192
I0403 16:08:26.103416 20759 layer_factory.hpp:77] Creating layer inception_4e/relu_3x3
I0403 16:08:26.103435 20759 net.cpp:91] Creating Layer inception_4e/relu_3x3
I0403 16:08:26.103451 20759 net.cpp:425] inception_4e/relu_3x3 <- inception_4e/3x3
I0403 16:08:26.103468 20759 net.cpp:386] inception_4e/relu_3x3 -> inception_4e/3x3 (in-place)
I0403 16:08:26.103771 20759 net.cpp:141] Setting up inception_4e/relu_3x3
I0403 16:08:26.103797 20759 net.cpp:148] Top shape: 24 320 14 14 (1505280)
I0403 16:08:26.103811 20759 net.cpp:156] Memory required for data: 1236129312
I0403 16:08:26.103826 20759 layer_factory.hpp:77] Creating layer inception_4e/5x5_reduce
I0403 16:08:26.103849 20759 net.cpp:91] Creating Layer inception_4e/5x5_reduce
I0403 16:08:26.103866 20759 net.cpp:425] inception_4e/5x5_reduce <- inception_4d/output_inception_4d/output_0_split_3
I0403 16:08:26.103888 20759 net.cpp:399] inception_4e/5x5_reduce -> inception_4e/5x5_reduce
I0403 16:08:26.104975 20759 net.cpp:141] Setting up inception_4e/5x5_reduce
I0403 16:08:26.105005 20759 net.cpp:148] Top shape: 24 32 14 14 (150528)
I0403 16:08:26.105021 20759 net.cpp:156] Memory required for data: 1236731424
I0403 16:08:26.105039 20759 layer_factory.hpp:77] Creating layer inception_4e/relu_5x5_reduce
I0403 16:08:26.105057 20759 net.cpp:91] Creating Layer inception_4e/relu_5x5_reduce
I0403 16:08:26.105072 20759 net.cpp:425] inception_4e/relu_5x5_reduce <- inception_4e/5x5_reduce
I0403 16:08:26.105088 20759 net.cpp:386] inception_4e/relu_5x5_reduce -> inception_4e/5x5_reduce (in-place)
I0403 16:08:26.105387 20759 net.cpp:141] Setting up inception_4e/relu_5x5_reduce
I0403 16:08:26.105415 20759 net.cpp:148] Top shape: 24 32 14 14 (150528)
I0403 16:08:26.105432 20759 net.cpp:156] Memory required for data: 1237333536
I0403 16:08:26.105445 20759 layer_factory.hpp:77] Creating layer inception_4e/5x5
I0403 16:08:26.105485 20759 net.cpp:91] Creating Layer inception_4e/5x5
I0403 16:08:26.105504 20759 net.cpp:425] inception_4e/5x5 <- inception_4e/5x5_reduce
I0403 16:08:26.105523 20759 net.cpp:399] inception_4e/5x5 -> inception_4e/5x5
I0403 16:08:26.107383 20759 net.cpp:141] Setting up inception_4e/5x5
I0403 16:08:26.107411 20759 net.cpp:148] Top shape: 24 128 14 14 (602112)
I0403 16:08:26.107426 20759 net.cpp:156] Memory required for data: 1239741984
I0403 16:08:26.107445 20759 layer_factory.hpp:77] Creating layer inception_4e/relu_5x5
I0403 16:08:26.107467 20759 net.cpp:91] Creating Layer inception_4e/relu_5x5
I0403 16:08:26.107484 20759 net.cpp:425] inception_4e/relu_5x5 <- inception_4e/5x5
I0403 16:08:26.107501 20759 net.cpp:386] inception_4e/relu_5x5 -> inception_4e/5x5 (in-place)
I0403 16:08:26.107699 20759 net.cpp:141] Setting up inception_4e/relu_5x5
I0403 16:08:26.107727 20759 net.cpp:148] Top shape: 24 128 14 14 (602112)
I0403 16:08:26.107741 20759 net.cpp:156] Memory required for data: 1242150432
I0403 16:08:26.107755 20759 layer_factory.hpp:77] Creating layer inception_4e/pool
I0403 16:08:26.107774 20759 net.cpp:91] Creating Layer inception_4e/pool
I0403 16:08:26.107789 20759 net.cpp:425] inception_4e/pool <- inception_4d/output_inception_4d/output_0_split_4
I0403 16:08:26.107807 20759 net.cpp:399] inception_4e/pool -> inception_4e/pool
I0403 16:08:26.107878 20759 net.cpp:141] Setting up inception_4e/pool
I0403 16:08:26.107902 20759 net.cpp:148] Top shape: 24 528 14 14 (2483712)
I0403 16:08:26.107915 20759 net.cpp:156] Memory required for data: 1252085280
I0403 16:08:26.107930 20759 layer_factory.hpp:77] Creating layer inception_4e/pool_proj
I0403 16:08:26.107952 20759 net.cpp:91] Creating Layer inception_4e/pool_proj
I0403 16:08:26.107985 20759 net.cpp:425] inception_4e/pool_proj <- inception_4e/pool
I0403 16:08:26.108006 20759 net.cpp:399] inception_4e/pool_proj -> inception_4e/pool_proj
I0403 16:08:26.109519 20759 net.cpp:141] Setting up inception_4e/pool_proj
I0403 16:08:26.109546 20759 net.cpp:148] Top shape: 24 128 14 14 (602112)
I0403 16:08:26.109575 20759 net.cpp:156] Memory required for data: 1254493728
I0403 16:08:26.109594 20759 layer_factory.hpp:77] Creating layer inception_4e/relu_pool_proj
I0403 16:08:26.109616 20759 net.cpp:91] Creating Layer inception_4e/relu_pool_proj
I0403 16:08:26.109632 20759 net.cpp:425] inception_4e/relu_pool_proj <- inception_4e/pool_proj
I0403 16:08:26.109648 20759 net.cpp:386] inception_4e/relu_pool_proj -> inception_4e/pool_proj (in-place)
I0403 16:08:26.109941 20759 net.cpp:141] Setting up inception_4e/relu_pool_proj
I0403 16:08:26.109973 20759 net.cpp:148] Top shape: 24 128 14 14 (602112)
I0403 16:08:26.109989 20759 net.cpp:156] Memory required for data: 1256902176
I0403 16:08:26.110003 20759 layer_factory.hpp:77] Creating layer inception_4e/output
I0403 16:08:26.110023 20759 net.cpp:91] Creating Layer inception_4e/output
I0403 16:08:26.110039 20759 net.cpp:425] inception_4e/output <- inception_4e/1x1
I0403 16:08:26.110055 20759 net.cpp:425] inception_4e/output <- inception_4e/3x3
I0403 16:08:26.110070 20759 net.cpp:425] inception_4e/output <- inception_4e/5x5
I0403 16:08:26.110086 20759 net.cpp:425] inception_4e/output <- inception_4e/pool_proj
I0403 16:08:26.110102 20759 net.cpp:399] inception_4e/output -> inception_4e/output
I0403 16:08:26.110153 20759 net.cpp:141] Setting up inception_4e/output
I0403 16:08:26.110177 20759 net.cpp:148] Top shape: 24 832 14 14 (3913728)
I0403 16:08:26.110191 20759 net.cpp:156] Memory required for data: 1272557088
I0403 16:08:26.110205 20759 layer_factory.hpp:77] Creating layer pool4/3x3_s2
I0403 16:08:26.110222 20759 net.cpp:91] Creating Layer pool4/3x3_s2
I0403 16:08:26.110237 20759 net.cpp:425] pool4/3x3_s2 <- inception_4e/output
I0403 16:08:26.110257 20759 net.cpp:399] pool4/3x3_s2 -> pool4/3x3_s2
I0403 16:08:26.110323 20759 net.cpp:141] Setting up pool4/3x3_s2
I0403 16:08:26.110349 20759 net.cpp:148] Top shape: 24 832 7 7 (978432)
I0403 16:08:26.110364 20759 net.cpp:156] Memory required for data: 1276470816
I0403 16:08:26.110378 20759 layer_factory.hpp:77] Creating layer pool4/3x3_s2_pool4/3x3_s2_0_split
I0403 16:08:26.110394 20759 net.cpp:91] Creating Layer pool4/3x3_s2_pool4/3x3_s2_0_split
I0403 16:08:26.110410 20759 net.cpp:425] pool4/3x3_s2_pool4/3x3_s2_0_split <- pool4/3x3_s2
I0403 16:08:26.110426 20759 net.cpp:399] pool4/3x3_s2_pool4/3x3_s2_0_split -> pool4/3x3_s2_pool4/3x3_s2_0_split_0
I0403 16:08:26.110446 20759 net.cpp:399] pool4/3x3_s2_pool4/3x3_s2_0_split -> pool4/3x3_s2_pool4/3x3_s2_0_split_1
I0403 16:08:26.110468 20759 net.cpp:399] pool4/3x3_s2_pool4/3x3_s2_0_split -> pool4/3x3_s2_pool4/3x3_s2_0_split_2
I0403 16:08:26.110489 20759 net.cpp:399] pool4/3x3_s2_pool4/3x3_s2_0_split -> pool4/3x3_s2_pool4/3x3_s2_0_split_3
I0403 16:08:26.110582 20759 net.cpp:141] Setting up pool4/3x3_s2_pool4/3x3_s2_0_split
I0403 16:08:26.110605 20759 net.cpp:148] Top shape: 24 832 7 7 (978432)
I0403 16:08:26.110621 20759 net.cpp:148] Top shape: 24 832 7 7 (978432)
I0403 16:08:26.110636 20759 net.cpp:148] Top shape: 24 832 7 7 (978432)
I0403 16:08:26.110651 20759 net.cpp:148] Top shape: 24 832 7 7 (978432)
I0403 16:08:26.110664 20759 net.cpp:156] Memory required for data: 1292125728
I0403 16:08:26.110678 20759 layer_factory.hpp:77] Creating layer inception_5a/1x1
I0403 16:08:26.110700 20759 net.cpp:91] Creating Layer inception_5a/1x1
I0403 16:08:26.110716 20759 net.cpp:425] inception_5a/1x1 <- pool4/3x3_s2_pool4/3x3_s2_0_split_0
I0403 16:08:26.110738 20759 net.cpp:399] inception_5a/1x1 -> inception_5a/1x1
I0403 16:08:26.113605 20759 net.cpp:141] Setting up inception_5a/1x1
I0403 16:08:26.113633 20759 net.cpp:148] Top shape: 24 256 7 7 (301056)
I0403 16:08:26.113648 20759 net.cpp:156] Memory required for data: 1293329952
I0403 16:08:26.113667 20759 layer_factory.hpp:77] Creating layer inception_5a/relu_1x1
I0403 16:08:26.113687 20759 net.cpp:91] Creating Layer inception_5a/relu_1x1
I0403 16:08:26.113703 20759 net.cpp:425] inception_5a/relu_1x1 <- inception_5a/1x1
I0403 16:08:26.113719 20759 net.cpp:386] inception_5a/relu_1x1 -> inception_5a/1x1 (in-place)
I0403 16:08:26.114043 20759 net.cpp:141] Setting up inception_5a/relu_1x1
I0403 16:08:26.114069 20759 net.cpp:148] Top shape: 24 256 7 7 (301056)
I0403 16:08:26.114084 20759 net.cpp:156] Memory required for data: 1294534176
I0403 16:08:26.114099 20759 layer_factory.hpp:77] Creating layer inception_5a/3x3_reduce
I0403 16:08:26.114122 20759 net.cpp:91] Creating Layer inception_5a/3x3_reduce
I0403 16:08:26.114140 20759 net.cpp:425] inception_5a/3x3_reduce <- pool4/3x3_s2_pool4/3x3_s2_0_split_1
I0403 16:08:26.114159 20759 net.cpp:399] inception_5a/3x3_reduce -> inception_5a/3x3_reduce
I0403 16:08:26.116643 20759 net.cpp:141] Setting up inception_5a/3x3_reduce
I0403 16:08:26.116673 20759 net.cpp:148] Top shape: 24 160 7 7 (188160)
I0403 16:08:26.116688 20759 net.cpp:156] Memory required for data: 1295286816
I0403 16:08:26.116706 20759 layer_factory.hpp:77] Creating layer inception_5a/relu_3x3_reduce
I0403 16:08:26.116726 20759 net.cpp:91] Creating Layer inception_5a/relu_3x3_reduce
I0403 16:08:26.116742 20759 net.cpp:425] inception_5a/relu_3x3_reduce <- inception_5a/3x3_reduce
I0403 16:08:26.116760 20759 net.cpp:386] inception_5a/relu_3x3_reduce -> inception_5a/3x3_reduce (in-place)
I0403 16:08:26.116947 20759 net.cpp:141] Setting up inception_5a/relu_3x3_reduce
I0403 16:08:26.116978 20759 net.cpp:148] Top shape: 24 160 7 7 (188160)
I0403 16:08:26.116992 20759 net.cpp:156] Memory required for data: 1296039456
I0403 16:08:26.117007 20759 layer_factory.hpp:77] Creating layer inception_5a/3x3
I0403 16:08:26.117028 20759 net.cpp:91] Creating Layer inception_5a/3x3
I0403 16:08:26.117048 20759 net.cpp:425] inception_5a/3x3 <- inception_5a/3x3_reduce
I0403 16:08:26.117068 20759 net.cpp:399] inception_5a/3x3 -> inception_5a/3x3
I0403 16:08:26.122135 20759 net.cpp:141] Setting up inception_5a/3x3
I0403 16:08:26.122165 20759 net.cpp:148] Top shape: 24 320 7 7 (376320)
I0403 16:08:26.122180 20759 net.cpp:156] Memory required for data: 1297544736
I0403 16:08:26.122200 20759 layer_factory.hpp:77] Creating layer inception_5a/relu_3x3
I0403 16:08:26.122220 20759 net.cpp:91] Creating Layer inception_5a/relu_3x3
I0403 16:08:26.122236 20759 net.cpp:425] inception_5a/relu_3x3 <- inception_5a/3x3
I0403 16:08:26.122254 20759 net.cpp:386] inception_5a/relu_3x3 -> inception_5a/3x3 (in-place)
I0403 16:08:26.122550 20759 net.cpp:141] Setting up inception_5a/relu_3x3
I0403 16:08:26.122576 20759 net.cpp:148] Top shape: 24 320 7 7 (376320)
I0403 16:08:26.122593 20759 net.cpp:156] Memory required for data: 1299050016
I0403 16:08:26.122607 20759 layer_factory.hpp:77] Creating layer inception_5a/5x5_reduce
I0403 16:08:26.122630 20759 net.cpp:91] Creating Layer inception_5a/5x5_reduce
I0403 16:08:26.122648 20759 net.cpp:425] inception_5a/5x5_reduce <- pool4/3x3_s2_pool4/3x3_s2_0_split_2
I0403 16:08:26.122668 20759 net.cpp:399] inception_5a/5x5_reduce -> inception_5a/5x5_reduce
I0403 16:08:26.123881 20759 net.cpp:141] Setting up inception_5a/5x5_reduce
I0403 16:08:26.123911 20759 net.cpp:148] Top shape: 24 32 7 7 (37632)
I0403 16:08:26.123927 20759 net.cpp:156] Memory required for data: 1299200544
I0403 16:08:26.123945 20759 layer_factory.hpp:77] Creating layer inception_5a/relu_5x5_reduce
I0403 16:08:26.123970 20759 net.cpp:91] Creating Layer inception_5a/relu_5x5_reduce
I0403 16:08:26.123987 20759 net.cpp:425] inception_5a/relu_5x5_reduce <- inception_5a/5x5_reduce
I0403 16:08:26.124006 20759 net.cpp:386] inception_5a/relu_5x5_reduce -> inception_5a/5x5_reduce (in-place)
I0403 16:08:26.124305 20759 net.cpp:141] Setting up inception_5a/relu_5x5_reduce
I0403 16:08:26.124333 20759 net.cpp:148] Top shape: 24 32 7 7 (37632)
I0403 16:08:26.124351 20759 net.cpp:156] Memory required for data: 1299351072
I0403 16:08:26.124366 20759 layer_factory.hpp:77] Creating layer inception_5a/5x5
I0403 16:08:26.124392 20759 net.cpp:91] Creating Layer inception_5a/5x5
I0403 16:08:26.124408 20759 net.cpp:425] inception_5a/5x5 <- inception_5a/5x5_reduce
I0403 16:08:26.124426 20759 net.cpp:399] inception_5a/5x5 -> inception_5a/5x5
I0403 16:08:26.126217 20759 net.cpp:141] Setting up inception_5a/5x5
I0403 16:08:26.126260 20759 net.cpp:148] Top shape: 24 128 7 7 (150528)
I0403 16:08:26.126276 20759 net.cpp:156] Memory required for data: 1299953184
I0403 16:08:26.126293 20759 layer_factory.hpp:77] Creating layer inception_5a/relu_5x5
I0403 16:08:26.126315 20759 net.cpp:91] Creating Layer inception_5a/relu_5x5
I0403 16:08:26.126332 20759 net.cpp:425] inception_5a/relu_5x5 <- inception_5a/5x5
I0403 16:08:26.126349 20759 net.cpp:386] inception_5a/relu_5x5 -> inception_5a/5x5 (in-place)
I0403 16:08:26.126548 20759 net.cpp:141] Setting up inception_5a/relu_5x5
I0403 16:08:26.126575 20759 net.cpp:148] Top shape: 24 128 7 7 (150528)
I0403 16:08:26.126590 20759 net.cpp:156] Memory required for data: 1300555296
I0403 16:08:26.126605 20759 layer_factory.hpp:77] Creating layer inception_5a/pool
I0403 16:08:26.126623 20759 net.cpp:91] Creating Layer inception_5a/pool
I0403 16:08:26.126639 20759 net.cpp:425] inception_5a/pool <- pool4/3x3_s2_pool4/3x3_s2_0_split_3
I0403 16:08:26.126660 20759 net.cpp:399] inception_5a/pool -> inception_5a/pool
I0403 16:08:26.126732 20759 net.cpp:141] Setting up inception_5a/pool
I0403 16:08:26.126756 20759 net.cpp:148] Top shape: 24 832 7 7 (978432)
I0403 16:08:26.126771 20759 net.cpp:156] Memory required for data: 1304469024
I0403 16:08:26.126785 20759 layer_factory.hpp:77] Creating layer inception_5a/pool_proj
I0403 16:08:26.126808 20759 net.cpp:91] Creating Layer inception_5a/pool_proj
I0403 16:08:26.126827 20759 net.cpp:425] inception_5a/pool_proj <- inception_5a/pool
I0403 16:08:26.126847 20759 net.cpp:399] inception_5a/pool_proj -> inception_5a/pool_proj
I0403 16:08:26.129245 20759 net.cpp:141] Setting up inception_5a/pool_proj
I0403 16:08:26.129277 20759 net.cpp:148] Top shape: 24 128 7 7 (150528)
I0403 16:08:26.129293 20759 net.cpp:156] Memory required for data: 1305071136
I0403 16:08:26.129312 20759 layer_factory.hpp:77] Creating layer inception_5a/relu_pool_proj
I0403 16:08:26.129333 20759 net.cpp:91] Creating Layer inception_5a/relu_pool_proj
I0403 16:08:26.129351 20759 net.cpp:425] inception_5a/relu_pool_proj <- inception_5a/pool_proj
I0403 16:08:26.129369 20759 net.cpp:386] inception_5a/relu_pool_proj -> inception_5a/pool_proj (in-place)
I0403 16:08:26.129693 20759 net.cpp:141] Setting up inception_5a/relu_pool_proj
I0403 16:08:26.129719 20759 net.cpp:148] Top shape: 24 128 7 7 (150528)
I0403 16:08:26.129734 20759 net.cpp:156] Memory required for data: 1305673248
I0403 16:08:26.129750 20759 layer_factory.hpp:77] Creating layer inception_5a/output
I0403 16:08:26.129766 20759 net.cpp:91] Creating Layer inception_5a/output
I0403 16:08:26.129782 20759 net.cpp:425] inception_5a/output <- inception_5a/1x1
I0403 16:08:26.129799 20759 net.cpp:425] inception_5a/output <- inception_5a/3x3
I0403 16:08:26.129815 20759 net.cpp:425] inception_5a/output <- inception_5a/5x5
I0403 16:08:26.129830 20759 net.cpp:425] inception_5a/output <- inception_5a/pool_proj
I0403 16:08:26.129850 20759 net.cpp:399] inception_5a/output -> inception_5a/output
I0403 16:08:26.129904 20759 net.cpp:141] Setting up inception_5a/output
I0403 16:08:26.129927 20759 net.cpp:148] Top shape: 24 832 7 7 (978432)
I0403 16:08:26.129942 20759 net.cpp:156] Memory required for data: 1309586976
I0403 16:08:26.129963 20759 layer_factory.hpp:77] Creating layer inception_5a/output_inception_5a/output_0_split
I0403 16:08:26.129984 20759 net.cpp:91] Creating Layer inception_5a/output_inception_5a/output_0_split
I0403 16:08:26.129999 20759 net.cpp:425] inception_5a/output_inception_5a/output_0_split <- inception_5a/output
I0403 16:08:26.130019 20759 net.cpp:399] inception_5a/output_inception_5a/output_0_split -> inception_5a/output_inception_5a/output_0_split_0
I0403 16:08:26.130040 20759 net.cpp:399] inception_5a/output_inception_5a/output_0_split -> inception_5a/output_inception_5a/output_0_split_1
I0403 16:08:26.130061 20759 net.cpp:399] inception_5a/output_inception_5a/output_0_split -> inception_5a/output_inception_5a/output_0_split_2
I0403 16:08:26.130082 20759 net.cpp:399] inception_5a/output_inception_5a/output_0_split -> inception_5a/output_inception_5a/output_0_split_3
I0403 16:08:26.130198 20759 net.cpp:141] Setting up inception_5a/output_inception_5a/output_0_split
I0403 16:08:26.130223 20759 net.cpp:148] Top shape: 24 832 7 7 (978432)
I0403 16:08:26.130241 20759 net.cpp:148] Top shape: 24 832 7 7 (978432)
I0403 16:08:26.130256 20759 net.cpp:148] Top shape: 24 832 7 7 (978432)
I0403 16:08:26.130272 20759 net.cpp:148] Top shape: 24 832 7 7 (978432)
I0403 16:08:26.130286 20759 net.cpp:156] Memory required for data: 1325241888
I0403 16:08:26.130300 20759 layer_factory.hpp:77] Creating layer inception_5b/1x1
I0403 16:08:26.130323 20759 net.cpp:91] Creating Layer inception_5b/1x1
I0403 16:08:26.130341 20759 net.cpp:425] inception_5b/1x1 <- inception_5a/output_inception_5a/output_0_split_0
I0403 16:08:26.130359 20759 net.cpp:399] inception_5b/1x1 -> inception_5b/1x1
I0403 16:08:26.134186 20759 net.cpp:141] Setting up inception_5b/1x1
I0403 16:08:26.134217 20759 net.cpp:148] Top shape: 24 384 7 7 (451584)
I0403 16:08:26.134232 20759 net.cpp:156] Memory required for data: 1327048224
I0403 16:08:26.134249 20759 layer_factory.hpp:77] Creating layer inception_5b/relu_1x1
I0403 16:08:26.134271 20759 net.cpp:91] Creating Layer inception_5b/relu_1x1
I0403 16:08:26.134287 20759 net.cpp:425] inception_5b/relu_1x1 <- inception_5b/1x1
I0403 16:08:26.134305 20759 net.cpp:386] inception_5b/relu_1x1 -> inception_5b/1x1 (in-place)
I0403 16:08:26.134609 20759 net.cpp:141] Setting up inception_5b/relu_1x1
I0403 16:08:26.134635 20759 net.cpp:148] Top shape: 24 384 7 7 (451584)
I0403 16:08:26.134650 20759 net.cpp:156] Memory required for data: 1328854560
I0403 16:08:26.134665 20759 layer_factory.hpp:77] Creating layer inception_5b/3x3_reduce
I0403 16:08:26.134687 20759 net.cpp:91] Creating Layer inception_5b/3x3_reduce
I0403 16:08:26.134706 20759 net.cpp:425] inception_5b/3x3_reduce <- inception_5a/output_inception_5a/output_0_split_1
I0403 16:08:26.134727 20759 net.cpp:399] inception_5b/3x3_reduce -> inception_5b/3x3_reduce
I0403 16:08:26.137416 20759 net.cpp:141] Setting up inception_5b/3x3_reduce
I0403 16:08:26.137445 20759 net.cpp:148] Top shape: 24 192 7 7 (225792)
I0403 16:08:26.137461 20759 net.cpp:156] Memory required for data: 1329757728
I0403 16:08:26.137480 20759 layer_factory.hpp:77] Creating layer inception_5b/relu_3x3_reduce
I0403 16:08:26.137500 20759 net.cpp:91] Creating Layer inception_5b/relu_3x3_reduce
I0403 16:08:26.137516 20759 net.cpp:425] inception_5b/relu_3x3_reduce <- inception_5b/3x3_reduce
I0403 16:08:26.137533 20759 net.cpp:386] inception_5b/relu_3x3_reduce -> inception_5b/3x3_reduce (in-place)
I0403 16:08:26.137724 20759 net.cpp:141] Setting up inception_5b/relu_3x3_reduce
I0403 16:08:26.137751 20759 net.cpp:148] Top shape: 24 192 7 7 (225792)
I0403 16:08:26.137766 20759 net.cpp:156] Memory required for data: 1330660896
I0403 16:08:26.137781 20759 layer_factory.hpp:77] Creating layer inception_5b/3x3
I0403 16:08:26.137800 20759 net.cpp:91] Creating Layer inception_5b/3x3
I0403 16:08:26.137817 20759 net.cpp:425] inception_5b/3x3 <- inception_5b/3x3_reduce
I0403 16:08:26.137837 20759 net.cpp:399] inception_5b/3x3 -> inception_5b/3x3
I0403 16:08:26.144724 20759 net.cpp:141] Setting up inception_5b/3x3
I0403 16:08:26.144753 20759 net.cpp:148] Top shape: 24 384 7 7 (451584)
I0403 16:08:26.144768 20759 net.cpp:156] Memory required for data: 1332467232
I0403 16:08:26.144785 20759 layer_factory.hpp:77] Creating layer inception_5b/relu_3x3
I0403 16:08:26.144805 20759 net.cpp:91] Creating Layer inception_5b/relu_3x3
I0403 16:08:26.144822 20759 net.cpp:425] inception_5b/relu_3x3 <- inception_5b/3x3
I0403 16:08:26.144839 20759 net.cpp:386] inception_5b/relu_3x3 -> inception_5b/3x3 (in-place)
I0403 16:08:26.145140 20759 net.cpp:141] Setting up inception_5b/relu_3x3
I0403 16:08:26.145165 20759 net.cpp:148] Top shape: 24 384 7 7 (451584)
I0403 16:08:26.145180 20759 net.cpp:156] Memory required for data: 1334273568
I0403 16:08:26.145195 20759 layer_factory.hpp:77] Creating layer inception_5b/5x5_reduce
I0403 16:08:26.145231 20759 net.cpp:91] Creating Layer inception_5b/5x5_reduce
I0403 16:08:26.145249 20759 net.cpp:425] inception_5b/5x5_reduce <- inception_5a/output_inception_5a/output_0_split_2
I0403 16:08:26.145274 20759 net.cpp:399] inception_5b/5x5_reduce -> inception_5b/5x5_reduce
I0403 16:08:26.146531 20759 net.cpp:141] Setting up inception_5b/5x5_reduce
I0403 16:08:26.146559 20759 net.cpp:148] Top shape: 24 48 7 7 (56448)
I0403 16:08:26.146572 20759 net.cpp:156] Memory required for data: 1334499360
I0403 16:08:26.146590 20759 layer_factory.hpp:77] Creating layer inception_5b/relu_5x5_reduce
I0403 16:08:26.146610 20759 net.cpp:91] Creating Layer inception_5b/relu_5x5_reduce
I0403 16:08:26.146626 20759 net.cpp:425] inception_5b/relu_5x5_reduce <- inception_5b/5x5_reduce
I0403 16:08:26.146642 20759 net.cpp:386] inception_5b/relu_5x5_reduce -> inception_5b/5x5_reduce (in-place)
I0403 16:08:26.147017 20759 net.cpp:141] Setting up inception_5b/relu_5x5_reduce
I0403 16:08:26.147042 20759 net.cpp:148] Top shape: 24 48 7 7 (56448)
I0403 16:08:26.147056 20759 net.cpp:156] Memory required for data: 1334725152
I0403 16:08:26.147071 20759 layer_factory.hpp:77] Creating layer inception_5b/5x5
I0403 16:08:26.147090 20759 net.cpp:91] Creating Layer inception_5b/5x5
I0403 16:08:26.147106 20759 net.cpp:425] inception_5b/5x5 <- inception_5b/5x5_reduce
I0403 16:08:26.147124 20759 net.cpp:399] inception_5b/5x5 -> inception_5b/5x5
I0403 16:08:26.149152 20759 net.cpp:141] Setting up inception_5b/5x5
I0403 16:08:26.149179 20759 net.cpp:148] Top shape: 24 128 7 7 (150528)
I0403 16:08:26.149194 20759 net.cpp:156] Memory required for data: 1335327264
I0403 16:08:26.149210 20759 layer_factory.hpp:77] Creating layer inception_5b/relu_5x5
I0403 16:08:26.149230 20759 net.cpp:91] Creating Layer inception_5b/relu_5x5
I0403 16:08:26.149246 20759 net.cpp:425] inception_5b/relu_5x5 <- inception_5b/5x5
I0403 16:08:26.149262 20759 net.cpp:386] inception_5b/relu_5x5 -> inception_5b/5x5 (in-place)
I0403 16:08:26.149452 20759 net.cpp:141] Setting up inception_5b/relu_5x5
I0403 16:08:26.149477 20759 net.cpp:148] Top shape: 24 128 7 7 (150528)
I0403 16:08:26.149492 20759 net.cpp:156] Memory required for data: 1335929376
I0403 16:08:26.149505 20759 layer_factory.hpp:77] Creating layer inception_5b/pool
I0403 16:08:26.149523 20759 net.cpp:91] Creating Layer inception_5b/pool
I0403 16:08:26.149538 20759 net.cpp:425] inception_5b/pool <- inception_5a/output_inception_5a/output_0_split_3
I0403 16:08:26.149556 20759 net.cpp:399] inception_5b/pool -> inception_5b/pool
I0403 16:08:26.149629 20759 net.cpp:141] Setting up inception_5b/pool
I0403 16:08:26.149652 20759 net.cpp:148] Top shape: 24 832 7 7 (978432)
I0403 16:08:26.149667 20759 net.cpp:156] Memory required for data: 1339843104
I0403 16:08:26.149679 20759 layer_factory.hpp:77] Creating layer inception_5b/pool_proj
I0403 16:08:26.149703 20759 net.cpp:91] Creating Layer inception_5b/pool_proj
I0403 16:08:26.149719 20759 net.cpp:425] inception_5b/pool_proj <- inception_5b/pool
I0403 16:08:26.149736 20759 net.cpp:399] inception_5b/pool_proj -> inception_5b/pool_proj
I0403 16:08:26.152007 20759 net.cpp:141] Setting up inception_5b/pool_proj
I0403 16:08:26.152036 20759 net.cpp:148] Top shape: 24 128 7 7 (150528)
I0403 16:08:26.152051 20759 net.cpp:156] Memory required for data: 1340445216
I0403 16:08:26.152068 20759 layer_factory.hpp:77] Creating layer inception_5b/relu_pool_proj
I0403 16:08:26.152087 20759 net.cpp:91] Creating Layer inception_5b/relu_pool_proj
I0403 16:08:26.152103 20759 net.cpp:425] inception_5b/relu_pool_proj <- inception_5b/pool_proj
I0403 16:08:26.152120 20759 net.cpp:386] inception_5b/relu_pool_proj -> inception_5b/pool_proj (in-place)
I0403 16:08:26.152412 20759 net.cpp:141] Setting up inception_5b/relu_pool_proj
I0403 16:08:26.152438 20759 net.cpp:148] Top shape: 24 128 7 7 (150528)
I0403 16:08:26.152452 20759 net.cpp:156] Memory required for data: 1341047328
I0403 16:08:26.152467 20759 layer_factory.hpp:77] Creating layer inception_5b/output
I0403 16:08:26.152487 20759 net.cpp:91] Creating Layer inception_5b/output
I0403 16:08:26.152515 20759 net.cpp:425] inception_5b/output <- inception_5b/1x1
I0403 16:08:26.152534 20759 net.cpp:425] inception_5b/output <- inception_5b/3x3
I0403 16:08:26.152549 20759 net.cpp:425] inception_5b/output <- inception_5b/5x5
I0403 16:08:26.152564 20759 net.cpp:425] inception_5b/output <- inception_5b/pool_proj
I0403 16:08:26.152580 20759 net.cpp:399] inception_5b/output -> inception_5b/output
I0403 16:08:26.152631 20759 net.cpp:141] Setting up inception_5b/output
I0403 16:08:26.152653 20759 net.cpp:148] Top shape: 24 1024 7 7 (1204224)
I0403 16:08:26.152667 20759 net.cpp:156] Memory required for data: 1345864224
I0403 16:08:26.152681 20759 layer_factory.hpp:77] Creating layer pool5/7x7_s1
I0403 16:08:26.152698 20759 net.cpp:91] Creating Layer pool5/7x7_s1
I0403 16:08:26.152712 20759 net.cpp:425] pool5/7x7_s1 <- inception_5b/output
I0403 16:08:26.152731 20759 net.cpp:399] pool5/7x7_s1 -> pool5/7x7_s1
I0403 16:08:26.152943 20759 net.cpp:141] Setting up pool5/7x7_s1
I0403 16:08:26.152976 20759 net.cpp:148] Top shape: 24 1024 1 1 (24576)
I0403 16:08:26.152992 20759 net.cpp:156] Memory required for data: 1345962528
I0403 16:08:26.153007 20759 layer_factory.hpp:77] Creating layer pool5/drop_7x7_s1
I0403 16:08:26.153024 20759 net.cpp:91] Creating Layer pool5/drop_7x7_s1
I0403 16:08:26.153039 20759 net.cpp:425] pool5/drop_7x7_s1 <- pool5/7x7_s1
I0403 16:08:26.153055 20759 net.cpp:386] pool5/drop_7x7_s1 -> pool5/7x7_s1 (in-place)
I0403 16:08:26.153106 20759 net.cpp:141] Setting up pool5/drop_7x7_s1
I0403 16:08:26.153128 20759 net.cpp:148] Top shape: 24 1024 1 1 (24576)
I0403 16:08:26.153141 20759 net.cpp:156] Memory required for data: 1346060832
I0403 16:08:26.153156 20759 layer_factory.hpp:77] Creating layer loss3/classifier_plantvillage
I0403 16:08:26.153177 20759 net.cpp:91] Creating Layer loss3/classifier_plantvillage
I0403 16:08:26.153192 20759 net.cpp:425] loss3/classifier_plantvillage <- pool5/7x7_s1
I0403 16:08:26.153210 20759 net.cpp:399] loss3/classifier_plantvillage -> loss3/classifier_plantvillage
I0403 16:08:26.153625 20759 net.cpp:141] Setting up loss3/classifier_plantvillage
I0403 16:08:26.153648 20759 net.cpp:148] Top shape: 24 38 (912)
I0403 16:08:26.153662 20759 net.cpp:156] Memory required for data: 1346064480
I0403 16:08:26.153679 20759 layer_factory.hpp:77] Creating layer loss3/classifier_plantvillage_loss3/classifier_plantvillage_0_split
I0403 16:08:26.153697 20759 net.cpp:91] Creating Layer loss3/classifier_plantvillage_loss3/classifier_plantvillage_0_split
I0403 16:08:26.153710 20759 net.cpp:425] loss3/classifier_plantvillage_loss3/classifier_plantvillage_0_split <- loss3/classifier_plantvillage
I0403 16:08:26.153730 20759 net.cpp:399] loss3/classifier_plantvillage_loss3/classifier_plantvillage_0_split -> loss3/classifier_plantvillage_loss3/classifier_plantvillage_0_split_0
I0403 16:08:26.153750 20759 net.cpp:399] loss3/classifier_plantvillage_loss3/classifier_plantvillage_0_split -> loss3/classifier_plantvillage_loss3/classifier_plantvillage_0_split_1
I0403 16:08:26.153769 20759 net.cpp:399] loss3/classifier_plantvillage_loss3/classifier_plantvillage_0_split -> loss3/classifier_plantvillage_loss3/classifier_plantvillage_0_split_2
I0403 16:08:26.153786 20759 net.cpp:399] loss3/classifier_plantvillage_loss3/classifier_plantvillage_0_split -> loss3/classifier_plantvillage_loss3/classifier_plantvillage_0_split_3
I0403 16:08:26.153888 20759 net.cpp:141] Setting up loss3/classifier_plantvillage_loss3/classifier_plantvillage_0_split
I0403 16:08:26.153913 20759 net.cpp:148] Top shape: 24 38 (912)
I0403 16:08:26.153928 20759 net.cpp:148] Top shape: 24 38 (912)
I0403 16:08:26.153944 20759 net.cpp:148] Top shape: 24 38 (912)
I0403 16:08:26.153964 20759 net.cpp:148] Top shape: 24 38 (912)
I0403 16:08:26.153980 20759 net.cpp:156] Memory required for data: 1346079072
I0403 16:08:26.153992 20759 layer_factory.hpp:77] Creating layer loss1/loss
I0403 16:08:26.154013 20759 net.cpp:91] Creating Layer loss1/loss
I0403 16:08:26.154029 20759 net.cpp:425] loss1/loss <- loss1/classifier_plantvillage_loss1/classifier_plantvillage_0_split_0
I0403 16:08:26.154058 20759 net.cpp:425] loss1/loss <- label_data_1_split_0
…
