…
I0403 16:18:44.161783 20925 net.cpp:313] The NetState phase (1) differed from the phase (0) specified by a rule in layer data
I0403 16:18:44.162966 20925 net.cpp:49] Initializing net from parameters: 
state {
  phase: TEST
}
layer {
  name: "data"
  type: "Data"
  top: "data"
  top: "label"
  include {
    phase: TEST
  }
  transform_param {
    mirror: false
    crop_size: 224
    mean_file: "/home/mohanty/data/final_dataset/lmdb/color-40-60/mean.binaryproto"
  }
  data_param {
    source: "/home/mohanty/data/final_dataset/lmdb/color-40-60/test_db"
    batch_size: 24
    backend: LMDB
  }
}
layer {
  name: "conv1/7x7_s2"
  type: "Convolution"
  bottom: "data"
  top: "conv1/7x7_s2"
  param {
    lr_mult: 1
    decay_mult: 1
  }
  param {
    lr_mult: 2
    decay_mult: 0
  }
  convolution_param {
    num_output: 64
    pad: 3
    kernel_size: 7
    stride: 2
    weight_filler {
      type: "xavier"
      std: 0.1
    }
    bias_filler {
      type: "constant"
      value: 0.2
    }
  }
}
layer {
  name: "conv1/relu_7x7"
  type: "ReLU"
  bottom: "conv1/7x7_s2"
  top: "conv1/7x7_s2"
}
layer {
  name: "pool1/3x3_s2"
  type: "Pooling"
  bottom: "conv1/7x7_s2"
  top: "pool1/3x3_s2"
  pooling_param {
    pool: MAX
    kernel_size: 3
    stride: 2
  }
}
layer {
  name: "pool1/norm1"
  type: "LRN"
  bottom: "pool1/3x3_s2"
  top: "pool1/norm1"
  lrn_param {
    local_size: 5
    alpha: 0.0001
    beta: 0.75
  }
}
layer {
  name: "conv2/3x3_reduce"
  type: "Convolution"
  bottom: "pool1/norm1"
  top: "conv2/3x3_reduce"
  param {
    lr_mult: 1
    decay_mult: 1
  }
  param {
    lr_mult: 2
    decay_mult: 0
  }
  convolution_param {
    num_output: 64
    kernel_size: 1
    weight_filler {
      type: "xavier"
      std: 0.1
    }
    bias_filler {
      type: "constant"
      value: 0.2
    }
  }
}
layer {
  name: "conv2/relu_3x3_reduce"
  type: "ReLU"
  bottom: "conv2/3x3_reduce"
  top: "conv2/3x3_reduce"
}
layer {
  name: "conv2/3x3"
  type: "Convolution"
  bottom: "conv2/3x3_reduce"
  top: "conv2/3x3"
  param {
    lr_mult: 1
    decay_mult: 1
  }
  param {
    lr_mult: 2
    decay_mult: 0
  }
  convolution_param {
    num_output: 192
    pad: 1
    kernel_size: 3
    weight_filler {
      type: "xavier"
      std: 0.03
    }
    bias_filler {
      type: "constant"
      value: 0.2
    }
  }
}
layer {
  name: "conv2/relu_3x3"
  type: "ReLU"
  bottom: "conv2/3x3"
  top: "conv2/3x3"
}
layer {
  name: "conv2/norm2"
  type: "LRN"
  bottom: "conv2/3x3"
  top: "conv2/norm2"
  lrn_param {
    local_size: 5
    alpha: 0.0001
    beta: 0.75
  }
}
layer {
  name: "pool2/3x3_s2"
  type: "Pooling"
  bottom: "conv2/norm2"
  top: "pool2/3x3_s2"
  pooling_param {
    pool: MAX
    kernel_size: 3
    stride: 2
  }
}
layer {
  name: "inception_3a/1x1"
  type: "Convolution"
  bottom: "pool2/3x3_s2"
  top: "inception_3a/1x1"
  param {
    lr_mult: 1
    decay_mult: 1
  }
  param {
    lr_mult: 2
    decay_mult: 0
  }
  convolution_param {
    num_output: 64
    kernel_size: 1
    weight_filler {
      type: "xavier"
      std: 0.03
    }
    bias_filler {
      type: "constant"
      value: 0.2
    }
  }
}
layer {
  name: "inception_3a/relu_1x1"
  type: "ReLU"
  bottom: "inception_3a/1x1"
  top: "inception_3a/1x1"
}
layer {
  name: "inception_3a/3x3_reduce"
  type: "Convolution"
  bottom: "pool2/3x3_s2"
  top: "inception_3a/3x3_reduce"
  param {
    lr_mult: 1
    decay_mult: 1
  }
  param {
    lr_mult: 2
    decay_mult: 0
  }
  convolution_param {
    num_output: 96
    kernel_size: 1
    weight_filler {
      type: "xavier"
      std: 0.09
    }
    bias_filler {
      type: "constant"
      value: 0.2
    }
  }
}
layer {
  name: "inception_3a/relu_3x3_reduce"
  type: "ReLU"
  bottom: "inception_3a/3x3_reduce"
  top: "inception_3a/3x3_reduce"
}
layer {
  name: "inception_3a/3x3"
  type: "Convolution"
  bottom: "inception_3a/3x3_reduce"
  top: "inception_3a/3x3"
  param {
    lr_mult: 1
    decay_mult: 1
  }
  param {
    lr_mult: 2
    decay_mult: 0
  }
  convolution_param {
    num_output: 128
    pad: 1
    kernel_size: 3
    weight_filler {
      type: "xavier"
      std: 0.03
    }
    bias_filler {
      type: "constant"
      value: 0.2
    }
  }
}
layer {
  name: "inception_3a/relu_3x3"
  type: "ReLU"
  bottom: "inception_3a/3x3"
  top: "inception_3a/3x3"
}
layer {
  name: "inception_3a/5x5_reduce"
  type: "Convolution"
  bottom: "pool2/3x3_s2"
  top: "inception_3a/5x5_reduce"
  param {
    lr_mult: 1
    decay_mult: 1
  }
  param {
    lr_mult: 2
    decay_mult: 0
  }
  convolution_param {
    num_output: 16
    kernel_size: 1
    weight_filler {
      type: "xavier"
      std: 0.2
    }
    bias_filler {
      type: "constant"
      value: 0.2
    }
  }
}
layer {
  name: "inception_3a/relu_5x5_reduce"
  type: "ReLU"
  bottom: "inception_3a/5x5_reduce"
  top: "inception_3a/5x5_reduce"
}
layer {
  name: "inception_3a/5x5"
  type: "Convolution"
  bottom: "inception_3a/5x5_reduce"
  top: "inception_3a/5x5"
  param {
    lr_mult: 1
    decay_mult: 1
  }
  param {
    lr_mult: 2
    decay_mult: 0
  }
  convolution_param {
    num_output: 32
    pad: 2
    kernel_size: 5
    weight_filler {
      type: "xavier"
      std: 0.03
    }
    bias_filler {
      type: "constant"
      value: 0.2
    }
  }
}
layer {
  name: "inception_3a/relu_5x5"
  type: "ReLU"
  bottom: "inception_3a/5x5"
  top: "inception_3a/5x5"
}
layer {
  name: "inception_3a/pool"
  type: "Pooling"
  bottom: "pool2/3x3_s2"
  top: "inception_3a/pool"
  pooling_param {
    pool: MAX
    kernel_size: 3
    stride: 1
    pad: 1
  }
}
layer {
  name: "inception_3a/pool_proj"
  type: "Convolution"
  bottom: "inception_3a/pool"
  top: "inception_3a/pool_proj"
  param {
    lr_mult: 1
    decay_mult: 1
  }
  param {
    lr_mult: 2
    decay_mult: 0
  }
  convolution_param {
    num_output: 32
    kernel_size: 1
    weight_filler {
      type: "xavier"
      std: 0.1
    }
    bias_filler {
      type: "constant"
      value: 0.2
    }
  }
}
layer {
  name: "inception_3a/relu_pool_proj"
  type: "ReLU"
  bottom: "inception_3a/pool_proj"
  top: "inception_3a/pool_proj"
}
layer {
  name: "inception_3a/output"
  type: "Concat"
  bottom: "inception_3a/1x1"
  bottom: "inception_3a/3x3"
  bottom: "inception_3a/5x5"
  bottom: "inception_3a/pool_proj"
  top: "inception_3a/output"
}
layer {
  name: "inception_3b/1x1"
  type: "Convolution"
  bottom: "inception_3a/output"
  top: "inception_3b/1x1"
  param {
    lr_mult: 1
    decay_mult: 1
  }
  param {
    lr_mult: 2
    decay_mult: 0
  }
  convolution_param {
    num_output: 128
    kernel_size: 1
    weight_filler {
      type: "xavier"
      std: 0.03
    }
    bias_filler {
      type: "constant"
      value: 0.2
    }
  }
}
layer {
  name: "inception_3b/relu_1x1"
  type: "ReLU"
  bottom: "inception_3b/1x1"
  top: "inception_3b/1x1"
}
layer {
  name: "inception_3b/3x3_reduce"
  type: "Convolution"
  bottom: "inception_3a/output"
  top: "inception_3b/3x3_reduce"
  param {
    lr_mult: 1
    decay_mult: 1
  }
  param {
    lr_mult: 2
    decay_mult: 0
  }
  convolution_param {
    num_output: 128
    kernel_size: 1
    weight_filler {
      type: "xavier"
      std: 0.09
    }
    bias_filler {
      type: "constant"
      value: 0.2
    }
  }
}
layer {
  name: "inception_3b/relu_3x3_reduce"
  type: "ReLU"
  bottom: "inception_3b/3x3_reduce"
  top: "inception_3b/3x3_reduce"
}
layer {
  name: "inception_3b/3x3"
  type: "Convolution"
  bottom: "inception_3b/3x3_reduce"
  top: "inception_3b/3x3"
  param {
    lr_mult: 1
    decay_mult: 1
  }
  param {
    lr_mult: 2
    decay_mult: 0
  }
  convolution_param {
    num_output: 192
    pad: 1
    kernel_size: 3
    weight_filler {
      type: "xavier"
      std: 0.03
    }
    bias_filler {
      type: "constant"
      value: 0.2
    }
  }
}
layer {
  name: "inception_3b/relu_3x3"
  type: "ReLU"
  bottom: "inception_3b/3x3"
  top: "inception_3b/3x3"
}
layer {
  name: "inception_3b/5x5_reduce"
  type: "Convolution"
  bottom: "inception_3a/output"
  top: "inception_3b/5x5_reduce"
  param {
    lr_mult: 1
    decay_mult: 1
  }
  param {
    lr_mult: 2
    decay_mult: 0
  }
  convolution_param {
    num_output: 32
    kernel_size: 1
    weight_filler {
      type: "xavier"
      std: 0.2
    }
    bias_filler {
      type: "constant"
      value: 0.2
    }
  }
}
layer {
  name: "inception_3b/relu_5x5_reduce"
  type: "ReLU"
  bottom: "inception_3b/5x5_reduce"
  top: "inception_3b/5x5_reduce"
}
layer {
  name: "inception_3b/5x5"
  type: "Convolution"
  bottom: "inception_3b/5x5_reduce"
  top: "inception_3b/5x5"
  param {
    lr_mult: 1
    decay_mult: 1
  }
  param {
    lr_mult: 2
    decay_mult: 0
  }
  convolution_param {
    num_output: 96
    pad: 2
    kernel_size: 5
    weight_filler {
      type: "xavier"
      std: 0.03
    }
    bias_filler {
      type: "constant"
      value: 0.2
    }
  }
}
layer {
  name: "inception_3b/relu_5x5"
  type: "ReLU"
  bottom: "inception_3b/5x5"
  top: "inception_3b/5x5"
}
layer {
  name: "inception_3b/pool"
  type: "Pooling"
  bottom: "inception_3a/output"
  top: "inception_3b/pool"
  pooling_param {
    pool: MAX
    kernel_size: 3
    stride: 1
    pad: 1
  }
}
layer {
  name: "inception_3b/pool_proj"
  type: "Convolution"
  bottom: "inception_3b/pool"
  top: "inception_3b/pool_proj"
  param {
    lr_mult: 1
    decay_mult: 1
  }
  param {
    lr_mult: 2
    decay_mult: 0
  }
  convolution_param {
    num_output: 64
    kernel_size: 1
    weight_filler {
      type: "xavier"
      std: 0.1
    }
    bias_filler {
      type: "constant"
      value: 0.2
    }
  }
}
layer {
  name: "inception_3b/relu_pool_proj"
  type: "ReLU"
  bottom: "inception_3b/pool_proj"
  top: "inception_3b/pool_proj"
}
layer {
  name: "inception_3b/output"
  type: "Concat"
  bottom: "inception_3b/1x1"
  bottom: "inception_3b/3x3"
  bottom: "inception_3b/5x5"
  bottom: "inception_3b/pool_proj"
  top: "inception_3b/output"
}
layer {
  name: "pool3/3x3_s2"
  type: "Pooling"
  bottom: "inception_3b/output"
  top: "pool3/3x3_s2"
  pooling_param {
    pool: MAX
    kernel_size: 3
    stride: 2
  }
}
layer {
  name: "inception_4a/1x1"
  type: "Convolution"
  bottom: "pool3/3x3_s2"
  top: "inception_4a/1x1"
  param {
    lr_mult: 1
    decay_mult: 1
  }
  param {
    lr_mult: 2
    decay_mult: 0
  }
  convolution_param {
    num_output: 192
    kernel_size: 1
    weight_filler {
      type: "xavier"
      std: 0.03
    }
    bias_filler {
      type: "constant"
      value: 0.2
    }
  }
}
layer {
  name: "inception_4a/relu_1x1"
  type: "ReLU"
  bottom: "inception_4a/1x1"
  top: "inception_4a/1x1"
}
layer {
  name: "inception_4a/3x3_reduce"
  type: "Convolution"
  bottom: "pool3/3x3_s2"
  top: "inception_4a/3x3_reduce"
  param {
    lr_mult: 1
    decay_mult: 1
  }
  param {
    lr_mult: 2
    decay_mult: 0
  }
  convolution_param {
    num_output: 96
    kernel_size: 1
    weight_filler {
      type: "xavier"
      std: 0.09
    }
    bias_filler {
      type: "constant"
      value: 0.2
    }
  }
}
layer {
  name: "inception_4a/relu_3x3_reduce"
  type: "ReLU"
  bottom: "inception_4a/3x3_reduce"
  top: "inception_4a/3x3_reduce"
}
layer {
  name: "inception_4a/3x3"
  type: "Convolution"
  bottom: "inception_4a/3x3_reduce"
  top: "inception_4a/3x3"
  param {
    lr_mult: 1
    decay_mult: 1
  }
  param {
    lr_mult: 2
    decay_mult: 0
  }
  convolution_param {
    num_output: 208
    pad: 1
    kernel_size: 3
    weight_filler {
      type: "xavier"
      std: 0.03
    }
    bias_filler {
      type: "constant"
      value: 0.2
    }
  }
}
layer {
  name: "inception_4a/relu_3x3"
  type: "ReLU"
  bottom: "inception_4a/3x3"
  top: "inception_4a/3x3"
}
layer {
  name: "inception_4a/5x5_reduce"
  type: "Convolution"
  bottom: "pool3/3x3_s2"
  top: "inception_4a/5x5_reduce"
  param {
    lr_mult: 1
    decay_mult: 1
  }
  param {
    lr_mult: 2
    decay_mult: 0
  }
  convolution_param {
    num_output: 16
    kernel_size: 1
    weight_filler {
      type: "xavier"
      std: 0.2
    }
    bias_filler {
      type: "constant"
      value: 0.2
    }
  }
}
layer {
  name: "inception_4a/relu_5x5_reduce"
  type: "ReLU"
  bottom: "inception_4a/5x5_reduce"
  top: "inception_4a/5x5_reduce"
}
layer {
  name: "inception_4a/5x5"
  type: "Convolution"
  bottom: "inception_4a/5x5_reduce"
  top: "inception_4a/5x5"
  param {
    lr_mult: 1
    decay_mult: 1
  }
  param {
    lr_mult: 2
    decay_mult: 0
  }
  convolution_param {
    num_output: 48
    pad: 2
    kernel_size: 5
    weight_filler {
      type: "xavier"
      std: 0.03
    }
    bias_filler {
      type: "constant"
      value: 0.2
    }
  }
}
layer {
  name: "inception_4a/relu_5x5"
  type: "ReLU"
  bottom: "inception_4a/5x5"
  top: "inception_4a/5x5"
}
layer {
  name: "inception_4a/pool"
  type: "Pooling"
  bottom: "pool3/3x3_s2"
  top: "inception_4a/pool"
  pooling_param {
    pool: MAX
    kernel_size: 3
    stride: 1
    pad: 1
  }
}
layer {
  name: "inception_4a/pool_proj"
  type: "Convolution"
  bottom: "inception_4a/pool"
  top: "inception_4a/pool_proj"
  param {
    lr_mult: 1
    decay_mult: 1
  }
  param {
    lr_mult: 2
    decay_mult: 0
  }
  convolution_param {
    num_output: 64
    kernel_size: 1
    weight_filler {
      type: "xavier"
      std: 0.1
    }
    bias_filler {
      type: "constant"
      value: 0.2
    }
  }
}
layer {
  name: "inception_4a/relu_pool_proj"
  type: "ReLU"
  bottom: "inception_4a/pool_proj"
  top: "inception_4a/pool_proj"
}
layer {
  name: "inception_4a/output"
  type: "Concat"
  bottom: "inception_4a/1x1"
  bottom: "inception_4a/3x3"
  bottom: "inception_4a/5x5"
  bottom: "inception_4a/pool_proj"
  top: "inception_4a/output"
}
layer {
  name: "loss1/ave_pool"
  type: "Pooling"
  bottom: "inception_4a/output"
  top: "loss1/ave_pool"
  pooling_param {
    pool: AVE
    kernel_size: 5
    stride: 3
  }
}
layer {
  name: "loss1/conv"
  type: "Convolution"
  bottom: "loss1/ave_pool"
  top: "loss1/conv"
  param {
    lr_mult: 1
    decay_mult: 1
  }
  param {
    lr_mult: 2
    decay_mult: 0
  }
  convolution_param {
    num_output: 128
    kernel_size: 1
    weight_filler {
      type: "xavier"
      std: 0.08
    }
    bias_filler {
      type: "constant"
      value: 0.2
    }
  }
}
layer {
  name: "loss1/relu_conv"
  type: "ReLU"
  bottom: "loss1/conv"
  top: "loss1/conv"
}
layer {
  name: "loss1/fc"
  type: "InnerProduct"
  bottom: "loss1/conv"
  top: "loss1/fc"
  param {
    lr_mult: 1
    decay_mult: 1
  }
  param {
    lr_mult: 2
    decay_mult: 0
  }
  inner_product_param {
    num_output: 1024
    weight_filler {
      type: "xavier"
      std: 0.02
    }
    bias_filler {
      type: "constant"
      value: 0.2
    }
  }
}
layer {
  name: "loss1/relu_fc"
  type: "ReLU"
  bottom: "loss1/fc"
  top: "loss1/fc"
}
layer {
  name: "loss1/drop_fc"
  type: "Dropout"
  bottom: "loss1/fc"
  top: "loss1/fc"
  dropout_param {
    dropout_ratio: 0.7
  }
}
layer {
  name: "loss1/classifier_plantvillage"
  type: "InnerProduct"
  bottom: "loss1/fc"
  top: "loss1/classifier_plantvillage"
  param {
    lr_mult: 1
    decay_mult: 1
  }
  param {
    lr_mult: 2
    decay_mult: 0
  }
  inner_product_param {
    num_output: 38
    weight_filler {
      type: "xavier"
      std: 0.0009765625
    }
    bias_filler {
      type: "constant"
      value: 0
    }
  }
}
layer {
  name: "inception_4b/1x1"
  type: "Convolution"
  bottom: "inception_4a/output"
  top: "inception_4b/1x1"
  param {
    lr_mult: 1
    decay_mult: 1
  }
  param {
    lr_mult: 2
    decay_mult: 0
  }
  convolution_param {
    num_output: 160
    kernel_size: 1
    weight_filler {
      type: "xavier"
      std: 0.03
    }
    bias_filler {
      type: "constant"
      value: 0.2
    }
  }
}
layer {
  name: "inception_4b/relu_1x1"
  type: "ReLU"
  bottom: "inception_4b/1x1"
  top: "inception_4b/1x1"
}
layer {
  name: "inception_4b/3x3_reduce"
  type: "Convolution"
  bottom: "inception_4a/output"
  top: "inception_4b/3x3_reduce"
  param {
    lr_mult: 1
    decay_mult: 1
  }
  param {
    lr_mult: 2
    decay_mult: 0
  }
  convolution_param {
    num_output: 112
    kernel_size: 1
    weight_filler {
      type: "xavier"
      std: 0.09
    }
    bias_filler {
      type: "constant"
      value: 0.2
    }
  }
}
layer {
  name: "inception_4b/relu_3x3_reduce"
  type: "ReLU"
  bottom: "inception_4b/3x3_reduce"
  top: "inception_4b/3x3_reduce"
}
layer {
  name: "inception_4b/3x3"
  type: "Convolution"
  bottom: "inception_4b/3x3_reduce"
  top: "inception_4b/3x3"
  param {
    lr_mult: 1
    decay_mult: 1
  }
  param {
    lr_mult: 2
    decay_mult: 0
  }
  convolution_param {
    num_output: 224
    pad: 1
    kernel_size: 3
    weight_filler {
      type: "xavier"
      std: 0.03
    }
    bias_filler {
      type: "constant"
      value: 0.2
    }
  }
}
layer {
  name: "inception_4b/relu_3x3"
  type: "ReLU"
  bottom: "inception_4b/3x3"
  top: "inception_4b/3x3"
}
layer {
  name: "inception_4b/5x5_reduce"
  type: "Convolution"
  bottom: "inception_4a/output"
  top: "inception_4b/5x5_reduce"
  param {
    lr_mult: 1
    decay_mult: 1
  }
  param {
    lr_mult: 2
    decay_mult: 0
  }
  convolution_param {
    num_output: 24
    kernel_size: 1
    weight_filler {
      type: "xavier"
      std: 0.2
    }
    bias_filler {
      type: "constant"
      value: 0.2
    }
  }
}
layer {
  name: "inception_4b/relu_5x5_reduce"
  type: "ReLU"
  bottom: "inception_4b/5x5_reduce"
  top: "inception_4b/5x5_reduce"
}
layer {
  name: "inception_4b/5x5"
  type: "Convolution"
  bottom: "inception_4b/5x5_reduce"
  top: "inception_4b/5x5"
  param {
    lr_mult: 1
    decay_mult: 1
  }
  param {
    lr_mult: 2
    decay_mult: 0
  }
  convolution_param {
    num_output: 64
    pad: 2
    kernel_size: 5
    weight_filler {
      type: "xavier"
      std: 0.03
    }
    bias_filler {
      type: "constant"
      value: 0.2
    }
  }
}
layer {
  name: "inception_4b/relu_5x5"
  type: "ReLU"
  bottom: "inception_4b/5x5"
  top: "inception_4b/5x5"
}
layer {
  name: "inception_4b/pool"
  type: "Pooling"
  bottom: "inception_4a/output"
  top: "inception_4b/pool"
  pooling_param {
    pool: MAX
    kernel_size: 3
    stride: 1
    pad: 1
  }
}
layer {
  name: "inception_4b/pool_proj"
  type: "Convolution"
  bottom: "inception_4b/pool"
  top: "inception_4b/pool_proj"
  param {
    lr_mult: 1
    decay_mult: 1
  }
  param {
    lr_mult: 2
    decay_mult: 0
  }
  convolution_param {
    num_output: 64
    kernel_size: 1
    weight_filler {
      type: "xavier"
      std: 0.1
    }
    bias_filler {
      type: "constant"
      value: 0.2
    }
  }
}
layer {
  name: "inception_4b/relu_pool_proj"
  type: "ReLU"
  bottom: "inception_4b/pool_proj"
  top: "inception_4b/pool_proj"
}
layer {
  name: "inception_4b/output"
  type: "Concat"
  bottom: "inception_4b/1x1"
  bottom: "inception_4b/3x3"
  bottom: "inception_4b/5x5"
  bottom: "inception_4b/pool_proj"
  top: "inception_4b/output"
}
layer {
  name: "inception_4c/1x1"
  type: "Convolution"
  bottom: "inception_4b/output"
  top: "inception_4c/1x1"
  param {
    lr_mult: 1
    decay_mult: 1
  }
  param {
    lr_mult: 2
    decay_mult: 0
  }
  convolution_param {
    num_output: 128
    kernel_size: 1
    weight_filler {
      type: "xavier"
      std: 0.03
    }
    bias_filler {
      type: "constant"
      value: 0.2
    }
  }
}
layer {
  name: "inception_4c/relu_1x1"
  type: "ReLU"
  bottom: "inception_4c/1x1"
  top: "inception_4c/1x1"
}
layer {
  name: "inception_4c/3x3_reduce"
  type: "Convolution"
  bottom: "inception_4b/output"
  top: "inception_4c/3x3_reduce"
  param {
    lr_mult: 1
    decay_mult: 1
  }
  param {
    lr_mult: 2
    decay_mult: 0
  }
  convolution_param {
    num_output: 128
    kernel_size: 1
    weight_filler {
      type: "xavier"
      std: 0.09
    }
    bias_filler {
      type: "constant"
      value: 0.2
    }
  }
}
layer {
  name: "inception_4c/relu_3x3_reduce"
  type: "ReLU"
  bottom: "inception_4c/3x3_reduce"
  top: "inception_4c/3x3_reduce"
}
layer {
  name: "inception_4c/3x3"
  type: "Convolution"
  bottom: "inception_4c/3x3_reduce"
  top: "inception_4c/3x3"
  param {
    lr_mult: 1
    decay_mult: 1
  }
  param {
    lr_mult: 2
    decay_mult: 0
  }
  convolution_param {
    num_output: 256
    pad: 1
    kernel_size: 3
    weight_filler {
      type: "xavier"
      std: 0.03
    }
    bias_filler {
      type: "constant"
      value: 0.2
    }
  }
}
layer {
  name: "inception_4c/relu_3x3"
  type: "ReLU"
  bottom: "inception_4c/3x3"
  top: "inception_4c/3x3"
}
layer {
  name: "inception_4c/5x5_reduce"
  type: "Convolution"
  bottom: "inception_4b/output"
  top: "inception_4c/5x5_reduce"
  param {
    lr_mult: 1
    decay_mult: 1
  }
  param {
    lr_mult: 2
    decay_mult: 0
  }
  convolution_param {
    num_output: 24
    kernel_size: 1
    weight_filler {
      type: "xavier"
      std: 0.2
    }
    bias_filler {
      type: "constant"
      value: 0.2
    }
  }
}
layer {
  name: "inception_4c/relu_5x5_reduce"
  type: "ReLU"
  bottom: "inception_4c/5x5_reduce"
  top: "inception_4c/5x5_reduce"
}
layer {
  name: "inception_4c/5x5"
  type: "Convolution"
  bottom: "inception_4c/5x5_reduce"
  top: "inception_4c/5x5"
  param {
    lr_mult: 1
    decay_mult: 1
  }
  param {
    lr_mult: 2
    decay_mult: 0
  }
  convolution_param {
    num_output: 64
    pad: 2
    kernel_size: 5
    weight_filler {
      type: "xavier"
      std: 0.03
    }
    bias_filler {
      type: "constant"
      value: 0.2
    }
  }
}
layer {
  name: "inception_4c/relu_5x5"
  type: "ReLU"
  bottom: "inception_4c/5x5"
  top: "inception_4c/5x5"
}
layer {
  name: "inception_4c/pool"
  type: "Pooling"
  bottom: "inception_4b/output"
  top: "inception_4c/pool"
  pooling_param {
    pool: MAX
    kernel_size: 3
    stride: 1
    pad: 1
  }
}
layer {
  name: "inception_4c/pool_proj"
  type: "Convolution"
  bottom: "inception_4c/pool"
  top: "inception_4c/pool_proj"
  param {
    lr_mult: 1
    decay_mult: 1
  }
  param {
    lr_mult: 2
    decay_mult: 0
  }
  convolution_param {
    num_output: 64
    kernel_size: 1
    weight_filler {
      type: "xavier"
      std: 0.1
    }
    bias_filler {
      type: "constant"
      value: 0.2
    }
  }
}
layer {
  name: "inception_4c/relu_pool_proj"
  type: "ReLU"
  bottom: "inception_4c/pool_proj"
  top: "inception_4c/pool_proj"
}
layer {
  name: "inception_4c/output"
  type: "Concat"
  bottom: "inception_4c/1x1"
  bottom: "inception_4c/3x3"
  bottom: "inception_4c/5x5"
  bottom: "inception_4c/pool_proj"
  top: "inception_4c/output"
}
layer {
  name: "inception_4d/1x1"
  type: "Convolution"
  bottom: "inception_4c/output"
  top: "inception_4d/1x1"
  param {
    lr_mult: 1
    decay_mult: 1
  }
  param {
    lr_mult: 2
    decay_mult: 0
  }
  convolution_param {
    num_output: 112
    kernel_size: 1
    weight_filler {
      type: "xavier"
      std: 0.03
    }
    bias_filler {
      type: "constant"
      value: 0.2
    }
  }
}
layer {
  name: "inception_4d/relu_1x1"
  type: "ReLU"
  bottom: "inception_4d/1x1"
  top: "inception_4d/1x1"
}
layer {
  name: "inception_4d/3x3_reduce"
  type: "Convolution"
  bottom: "inception_4c/output"
  top: "inception_4d/3x3_reduce"
  param {
    lr_mult: 1
    decay_mult: 1
  }
  param {
    lr_mult: 2
    decay_mult: 0
  }
  convolution_param {
    num_output: 144
    kernel_size: 1
    weight_filler {
      type: "xavier"
      std: 0.09
    }
    bias_filler {
      type: "constant"
      value: 0.2
    }
  }
}
layer {
  name: "inception_4d/relu_3x3_reduce"
  type: "ReLU"
  bottom: "inception_4d/3x3_reduce"
  top: "inception_4d/3x3_reduce"
}
layer {
  name: "inception_4d/3x3"
  type: "Convolution"
  bottom: "inception_4d/3x3_reduce"
  top: "inception_4d/3x3"
  param {
    lr_mult: 1
    decay_mult: 1
  }
  param {
    lr_mult: 2
    decay_mult: 0
  }
  convolution_param {
    num_output: 288
    pad: 1
    kernel_size: 3
    weight_filler {
      type: "xavier"
      std: 0.03
    }
    bias_filler {
      type: "constant"
      value: 0.2
    }
  }
}
layer {
  name: "inception_4d/relu_3x3"
  type: "ReLU"
  bottom: "inception_4d/3x3"
  top: "inception_4d/3x3"
}
layer {
  name: "inception_4d/5x5_reduce"
  type: "Convolution"
  bottom: "inception_4c/output"
  top: "inception_4d/5x5_reduce"
  param {
    lr_mult: 1
    decay_mult: 1
  }
  param {
    lr_mult: 2
    decay_mult: 0
  }
  convolution_param {
    num_output: 32
    kernel_size: 1
    weight_filler {
      type: "xavier"
      std: 0.2
    }
    bias_filler {
      type: "constant"
      value: 0.2
    }
  }
}
layer {
  name: "inception_4d/relu_5x5_reduce"
  type: "ReLU"
  bottom: "inception_4d/5x5_reduce"
  top: "inception_4d/5x5_reduce"
}
layer {
  name: "inception_4d/5x5"
  type: "Convolution"
  bottom: "inception_4d/5x5_reduce"
  top: "inception_4d/5x5"
  param {
    lr_mult: 1
    decay_mult: 1
  }
  param {
    lr_mult: 2
    decay_mult: 0
  }
  convolution_param {
    num_output: 64
    pad: 2
    kernel_size: 5
    weight_filler {
      type: "xavier"
      std: 0.03
    }
    bias_filler {
      type: "constant"
      value: 0.2
    }
  }
}
layer {
  name: "inception_4d/relu_5x5"
  type: "ReLU"
  bottom: "inception_4d/5x5"
  top: "inception_4d/5x5"
}
layer {
  name: "inception_4d/pool"
  type: "Pooling"
  bottom: "inception_4c/output"
  top: "inception_4d/pool"
  pooling_param {
    pool: MAX
    kernel_size: 3
    stride: 1
    pad: 1
  }
}
layer {
  name: "inception_4d/pool_proj"
  type: "Convolution"
  bottom: "inception_4d/pool"
  top: "inception_4d/pool_proj"
  param {
    lr_mult: 1
    decay_mult: 1
  }
  param {
    lr_mult: 2
    decay_mult: 0
  }
  convolution_param {
    num_output: 64
    kernel_size: 1
    weight_filler {
      type: "xavier"
      std: 0.1
    }
    bias_filler {
      type: "constant"
      value: 0.2
    }
  }
}
layer {
  name: "inception_4d/relu_pool_proj"
  type: "ReLU"
  bottom: "inception_4d/pool_proj"
  top: "inception_4d/pool_proj"
}
layer {
  name: "inception_4d/output"
  type: "Concat"
  bottom: "inception_4d/1x1"
  bottom: "inception_4d/3x3"
  bottom: "inception_4d/5x5"
  bottom: "inception_4d/pool_proj"
  top: "inception_4d/output"
}
layer {
  name: "loss2/ave_pool"
  type: "Pooling"
  bottom: "inception_4d/output"
  top: "loss2/ave_pool"
  pooling_param {
    pool: AVE
    kernel_size: 5
    stride: 3
  }
}
layer {
  name: "loss2/conv"
  type: "Convolution"
  bottom: "loss2/ave_pool"
  top: "loss2/conv"
  param {
    lr_mult: 1
    decay_mult: 1
  }
  param {
    lr_mult: 2
    decay_mult: 0
  }
  convolution_param {
    num_output: 128
    kernel_size: 1
    weight_filler {
      type: "xavier"
      std: 0.08
    }
    bias_filler {
      type: "constant"
      value: 0.2
    }
  }
}
layer {
  name: "loss2/relu_conv"
  type: "ReLU"
  bottom: "loss2/conv"
  top: "loss2/conv"
}
layer {
  name: "loss2/fc"
  type: "InnerProduct"
  bottom: "loss2/conv"
  top: "loss2/fc"
  param {
    lr_mult: 1
    decay_mult: 1
  }
  param {
    lr_mult: 2
    decay_mult: 0
  }
  inner_product_param {
    num_output: 1024
    weight_filler {
      type: "xavier"
      std: 0.02
    }
    bias_filler {
      type: "constant"
      value: 0.2
    }
  }
}
layer {
  name: "loss2/relu_fc"
  type: "ReLU"
  bottom: "loss2/fc"
  top: "loss2/fc"
}
layer {
  name: "loss2/drop_fc"
  type: "Dropout"
  bottom: "loss2/fc"
  top: "loss2/fc"
  dropout_param {
    dropout_ratio: 0.7
  }
}
layer {
  name: "loss2/classifier_plantvillage"
  type: "InnerProduct"
  bottom: "loss2/fc"
  top: "loss2/classifier_plantvillage"
  param {
    lr_mult: 1
    decay_mult: 1
  }
  param {
    lr_mult: 2
    decay_mult: 0
  }
  inner_product_param {
    num_output: 38
    weight_filler {
      type: "xavier"
      std: 0.0009765625
    }
    bias_filler {
      type: "constant"
      value: 0
    }
  }
}
layer {
  name: "inception_4e/1x1"
  type: "Convolution"
  bottom: "inception_4d/output"
  top: "inception_4e/1x1"
  param {
    lr_mult: 1
    decay_mult: 1
  }
  param {
    lr_mult: 2
    decay_mult: 0
  }
  convolution_param {
    num_output: 256
    kernel_size: 1
    weight_filler {
      type: "xavier"
      std: 0.03
    }
    bias_filler {
      type: "constant"
      value: 0.2
    }
  }
}
layer {
  name: "inception_4e/relu_1x1"
  type: "ReLU"
  bottom: "inception_4e/1x1"
  top: "inception_4e/1x1"
}
layer {
  name: "inception_4e/3x3_reduce"
  type: "Convolution"
  bottom: "inception_4d/output"
  top: "inception_4e/3x3_reduce"
  param {
    lr_mult: 1
    decay_mult: 1
  }
  param {
    lr_mult: 2
    decay_mult: 0
  }
  convolution_param {
    num_output: 160
    kernel_size: 1
    weight_filler {
      type: "xavier"
      std: 0.09
    }
    bias_filler {
      type: "constant"
      value: 0.2
    }
  }
}
layer {
  name: "inception_4e/relu_3x3_reduce"
  type: "ReLU"
  bottom: "inception_4e/3x3_reduce"
  top: "inception_4e/3x3_reduce"
}
layer {
  name: "inception_4e/3x3"
  type: "Convolution"
  bottom: "inception_4e/3x3_reduce"
  top: "inception_4e/3x3"
  param {
    lr_mult: 1
    decay_mult: 1
  }
  param {
    lr_mult: 2
    decay_mult: 0
  }
  convolution_param {
    num_output: 320
    pad: 1
    kernel_size: 3
    weight_filler {
      type: "xavier"
      std: 0.03
    }
    bias_filler {
      type: "constant"
      value: 0.2
    }
  }
}
layer {
  name: "inception_4e/relu_3x3"
  type: "ReLU"
  bottom: "inception_4e/3x3"
  top: "inception_4e/3x3"
}
layer {
  name: "inception_4e/5x5_reduce"
  type: "Convolution"
  bottom: "inception_4d/output"
  top: "inception_4e/5x5_reduce"
  param {
    lr_mult: 1
    decay_mult: 1
  }
  param {
    lr_mult: 2
    decay_mult: 0
  }
  convolution_param {
    num_output: 32
    kernel_size: 1
    weight_filler {
      type: "xavier"
      std: 0.2
    }
    bias_filler {
      type: "constant"
      value: 0.2
    }
  }
}
layer {
  name: "inception_4e/relu_5x5_reduce"
  type: "ReLU"
  bottom: "inception_4e/5x5_reduce"
  top: "inception_4e/5x5_reduce"
}
layer {
  name: "inception_4e/5x5"
  type: "Convolution"
  bottom: "inception_4e/5x5_reduce"
  top: "inception_4e/5x5"
  p
I0403 16:18:44.164240 20925 layer_factory.hpp:77] Creating layer data
I0403 16:18:44.164858 20925 net.cpp:91] Creating Layer data
I0403 16:18:44.164891 20925 net.cpp:399] data -> data
I0403 16:18:44.164942 20925 net.cpp:399] data -> label
I0403 16:18:44.164979 20925 data_transformer.cpp:25] Loading mean file from: /home/mohanty/data/final_dataset/lmdb/color-40-60/mean.binaryproto
I0403 16:18:44.166235 20928 db_lmdb.cpp:38] Opened lmdb /home/mohanty/data/final_dataset/lmdb/color-40-60/test_db
I0403 16:18:44.178436 20925 data_layer.cpp:41] output data size: 24,3,224,224
I0403 16:18:44.209137 20925 net.cpp:141] Setting up data
I0403 16:18:44.209239 20925 net.cpp:148] Top shape: 24 3 224 224 (3612672)
I0403 16:18:44.209262 20925 net.cpp:148] Top shape: 24 (24)
I0403 16:18:44.209277 20925 net.cpp:156] Memory required for data: 14450784
I0403 16:18:44.209306 20925 layer_factory.hpp:77] Creating layer label_data_1_split
I0403 16:18:44.209331 20925 net.cpp:91] Creating Layer label_data_1_split
I0403 16:18:44.209349 20925 net.cpp:425] label_data_1_split <- label
I0403 16:18:44.209383 20925 net.cpp:399] label_data_1_split -> label_data_1_split_0
I0403 16:18:44.209409 20925 net.cpp:399] label_data_1_split -> label_data_1_split_1
I0403 16:18:44.209431 20925 net.cpp:399] label_data_1_split -> label_data_1_split_2
I0403 16:18:44.209451 20925 net.cpp:399] label_data_1_split -> label_data_1_split_3
I0403 16:18:44.209471 20925 net.cpp:399] label_data_1_split -> label_data_1_split_4
I0403 16:18:44.209491 20925 net.cpp:399] label_data_1_split -> label_data_1_split_5
I0403 16:18:44.209509 20925 net.cpp:399] label_data_1_split -> label_data_1_split_6
I0403 16:18:44.209530 20925 net.cpp:399] label_data_1_split -> label_data_1_split_7
I0403 16:18:44.209549 20925 net.cpp:399] label_data_1_split -> label_data_1_split_8
I0403 16:18:44.209569 20925 net.cpp:399] label_data_1_split -> label_data_1_split_9
I0403 16:18:44.209686 20925 net.cpp:141] Setting up label_data_1_split
I0403 16:18:44.209709 20925 net.cpp:148] Top shape: 24 (24)
I0403 16:18:44.209727 20925 net.cpp:148] Top shape: 24 (24)
I0403 16:18:44.209743 20925 net.cpp:148] Top shape: 24 (24)
I0403 16:18:44.209758 20925 net.cpp:148] Top shape: 24 (24)
I0403 16:18:44.209774 20925 net.cpp:148] Top shape: 24 (24)
I0403 16:18:44.209789 20925 net.cpp:148] Top shape: 24 (24)
I0403 16:18:44.209805 20925 net.cpp:148] Top shape: 24 (24)
I0403 16:18:44.209821 20925 net.cpp:148] Top shape: 24 (24)
I0403 16:18:44.209836 20925 net.cpp:148] Top shape: 24 (24)
I0403 16:18:44.209853 20925 net.cpp:148] Top shape: 24 (24)
I0403 16:18:44.209897 20925 net.cpp:156] Memory required for data: 14451744
I0403 16:18:44.209914 20925 layer_factory.hpp:77] Creating layer conv1/7x7_s2
I0403 16:18:44.209944 20925 net.cpp:91] Creating Layer conv1/7x7_s2
I0403 16:18:44.209964 20925 net.cpp:425] conv1/7x7_s2 <- data
I0403 16:18:44.209982 20925 net.cpp:399] conv1/7x7_s2 -> conv1/7x7_s2
I0403 16:18:44.356140 20925 net.cpp:141] Setting up conv1/7x7_s2
I0403 16:18:44.356233 20925 net.cpp:148] Top shape: 24 64 112 112 (19267584)
I0403 16:18:44.356252 20925 net.cpp:156] Memory required for data: 91522080
I0403 16:18:44.356286 20925 layer_factory.hpp:77] Creating layer conv1/relu_7x7
I0403 16:18:44.356312 20925 net.cpp:91] Creating Layer conv1/relu_7x7
I0403 16:18:44.356330 20925 net.cpp:425] conv1/relu_7x7 <- conv1/7x7_s2
I0403 16:18:44.356349 20925 net.cpp:386] conv1/relu_7x7 -> conv1/7x7_s2 (in-place)
I0403 16:18:44.356628 20925 net.cpp:141] Setting up conv1/relu_7x7
I0403 16:18:44.356658 20925 net.cpp:148] Top shape: 24 64 112 112 (19267584)
I0403 16:18:44.356674 20925 net.cpp:156] Memory required for data: 168592416
I0403 16:18:44.356690 20925 layer_factory.hpp:77] Creating layer pool1/3x3_s2
I0403 16:18:44.356715 20925 net.cpp:91] Creating Layer pool1/3x3_s2
I0403 16:18:44.356732 20925 net.cpp:425] pool1/3x3_s2 <- conv1/7x7_s2
I0403 16:18:44.356751 20925 net.cpp:399] pool1/3x3_s2 -> pool1/3x3_s2
I0403 16:18:44.356832 20925 net.cpp:141] Setting up pool1/3x3_s2
I0403 16:18:44.356855 20925 net.cpp:148] Top shape: 24 64 56 56 (4816896)
I0403 16:18:44.356871 20925 net.cpp:156] Memory required for data: 187860000
I0403 16:18:44.356886 20925 layer_factory.hpp:77] Creating layer pool1/norm1
I0403 16:18:44.356914 20925 net.cpp:91] Creating Layer pool1/norm1
I0403 16:18:44.356931 20925 net.cpp:425] pool1/norm1 <- pool1/3x3_s2
I0403 16:18:44.356951 20925 net.cpp:399] pool1/norm1 -> pool1/norm1
I0403 16:18:44.357300 20925 net.cpp:141] Setting up pool1/norm1
I0403 16:18:44.357329 20925 net.cpp:148] Top shape: 24 64 56 56 (4816896)
I0403 16:18:44.357347 20925 net.cpp:156] Memory required for data: 207127584
I0403 16:18:44.357362 20925 layer_factory.hpp:77] Creating layer conv2/3x3_reduce
I0403 16:18:44.357390 20925 net.cpp:91] Creating Layer conv2/3x3_reduce
I0403 16:18:44.357409 20925 net.cpp:425] conv2/3x3_reduce <- pool1/norm1
I0403 16:18:44.357429 20925 net.cpp:399] conv2/3x3_reduce -> conv2/3x3_reduce
I0403 16:18:44.358844 20925 net.cpp:141] Setting up conv2/3x3_reduce
I0403 16:18:44.358872 20925 net.cpp:148] Top shape: 24 64 56 56 (4816896)
I0403 16:18:44.358888 20925 net.cpp:156] Memory required for data: 226395168
I0403 16:18:44.358911 20925 layer_factory.hpp:77] Creating layer conv2/relu_3x3_reduce
I0403 16:18:44.358933 20925 net.cpp:91] Creating Layer conv2/relu_3x3_reduce
I0403 16:18:44.358952 20925 net.cpp:425] conv2/relu_3x3_reduce <- conv2/3x3_reduce
I0403 16:18:44.358968 20925 net.cpp:386] conv2/relu_3x3_reduce -> conv2/3x3_reduce (in-place)
I0403 16:18:44.359268 20925 net.cpp:141] Setting up conv2/relu_3x3_reduce
I0403 16:18:44.359295 20925 net.cpp:148] Top shape: 24 64 56 56 (4816896)
I0403 16:18:44.359310 20925 net.cpp:156] Memory required for data: 245662752
I0403 16:18:44.359326 20925 layer_factory.hpp:77] Creating layer conv2/3x3
I0403 16:18:44.359350 20925 net.cpp:91] Creating Layer conv2/3x3
I0403 16:18:44.359367 20925 net.cpp:425] conv2/3x3 <- conv2/3x3_reduce
I0403 16:18:44.359390 20925 net.cpp:399] conv2/3x3 -> conv2/3x3
I0403 16:18:44.361778 20925 net.cpp:141] Setting up conv2/3x3
I0403 16:18:44.361809 20925 net.cpp:148] Top shape: 24 192 56 56 (14450688)
I0403 16:18:44.361824 20925 net.cpp:156] Memory required for data: 303465504
I0403 16:18:44.361850 20925 layer_factory.hpp:77] Creating layer conv2/relu_3x3
I0403 16:18:44.361870 20925 net.cpp:91] Creating Layer conv2/relu_3x3
I0403 16:18:44.361886 20925 net.cpp:425] conv2/relu_3x3 <- conv2/3x3
I0403 16:18:44.361902 20925 net.cpp:386] conv2/relu_3x3 -> conv2/3x3 (in-place)
I0403 16:18:44.362090 20925 net.cpp:141] Setting up conv2/relu_3x3
I0403 16:18:44.362120 20925 net.cpp:148] Top shape: 24 192 56 56 (14450688)
I0403 16:18:44.362165 20925 net.cpp:156] Memory required for data: 361268256
I0403 16:18:44.362181 20925 layer_factory.hpp:77] Creating layer conv2/norm2
I0403 16:18:44.362200 20925 net.cpp:91] Creating Layer conv2/norm2
I0403 16:18:44.362216 20925 net.cpp:425] conv2/norm2 <- conv2/3x3
I0403 16:18:44.362237 20925 net.cpp:399] conv2/norm2 -> conv2/norm2
I0403 16:18:44.362599 20925 net.cpp:141] Setting up conv2/norm2
I0403 16:18:44.362627 20925 net.cpp:148] Top shape: 24 192 56 56 (14450688)
I0403 16:18:44.362642 20925 net.cpp:156] Memory required for data: 419071008
I0403 16:18:44.362658 20925 layer_factory.hpp:77] Creating layer pool2/3x3_s2
I0403 16:18:44.362676 20925 net.cpp:91] Creating Layer pool2/3x3_s2
I0403 16:18:44.362692 20925 net.cpp:425] pool2/3x3_s2 <- conv2/norm2
I0403 16:18:44.362712 20925 net.cpp:399] pool2/3x3_s2 -> pool2/3x3_s2
I0403 16:18:44.362766 20925 net.cpp:141] Setting up pool2/3x3_s2
I0403 16:18:44.362792 20925 net.cpp:148] Top shape: 24 192 28 28 (3612672)
I0403 16:18:44.362807 20925 net.cpp:156] Memory required for data: 433521696
I0403 16:18:44.362821 20925 layer_factory.hpp:77] Creating layer pool2/3x3_s2_pool2/3x3_s2_0_split
I0403 16:18:44.362839 20925 net.cpp:91] Creating Layer pool2/3x3_s2_pool2/3x3_s2_0_split
I0403 16:18:44.362854 20925 net.cpp:425] pool2/3x3_s2_pool2/3x3_s2_0_split <- pool2/3x3_s2
I0403 16:18:44.362871 20925 net.cpp:399] pool2/3x3_s2_pool2/3x3_s2_0_split -> pool2/3x3_s2_pool2/3x3_s2_0_split_0
I0403 16:18:44.362892 20925 net.cpp:399] pool2/3x3_s2_pool2/3x3_s2_0_split -> pool2/3x3_s2_pool2/3x3_s2_0_split_1
I0403 16:18:44.362913 20925 net.cpp:399] pool2/3x3_s2_pool2/3x3_s2_0_split -> pool2/3x3_s2_pool2/3x3_s2_0_split_2
I0403 16:18:44.362932 20925 net.cpp:399] pool2/3x3_s2_pool2/3x3_s2_0_split -> pool2/3x3_s2_pool2/3x3_s2_0_split_3
I0403 16:18:44.363023 20925 net.cpp:141] Setting up pool2/3x3_s2_pool2/3x3_s2_0_split
I0403 16:18:44.363047 20925 net.cpp:148] Top shape: 24 192 28 28 (3612672)
I0403 16:18:44.363065 20925 net.cpp:148] Top shape: 24 192 28 28 (3612672)
I0403 16:18:44.363080 20925 net.cpp:148] Top shape: 24 192 28 28 (3612672)
I0403 16:18:44.363095 20925 net.cpp:148] Top shape: 24 192 28 28 (3612672)
I0403 16:18:44.363111 20925 net.cpp:156] Memory required for data: 491324448
I0403 16:18:44.363126 20925 layer_factory.hpp:77] Creating layer inception_3a/1x1
I0403 16:18:44.363148 20925 net.cpp:91] Creating Layer inception_3a/1x1
I0403 16:18:44.363168 20925 net.cpp:425] inception_3a/1x1 <- pool2/3x3_s2_pool2/3x3_s2_0_split_0
I0403 16:18:44.363186 20925 net.cpp:399] inception_3a/1x1 -> inception_3a/1x1
I0403 16:18:44.364763 20925 net.cpp:141] Setting up inception_3a/1x1
I0403 16:18:44.364792 20925 net.cpp:148] Top shape: 24 64 28 28 (1204224)
I0403 16:18:44.364809 20925 net.cpp:156] Memory required for data: 496141344
I0403 16:18:44.364827 20925 layer_factory.hpp:77] Creating layer inception_3a/relu_1x1
I0403 16:18:44.364846 20925 net.cpp:91] Creating Layer inception_3a/relu_1x1
I0403 16:18:44.364862 20925 net.cpp:425] inception_3a/relu_1x1 <- inception_3a/1x1
I0403 16:18:44.364882 20925 net.cpp:386] inception_3a/relu_1x1 -> inception_3a/1x1 (in-place)
I0403 16:18:44.365067 20925 net.cpp:141] Setting up inception_3a/relu_1x1
I0403 16:18:44.365092 20925 net.cpp:148] Top shape: 24 64 28 28 (1204224)
I0403 16:18:44.365108 20925 net.cpp:156] Memory required for data: 500958240
I0403 16:18:44.365123 20925 layer_factory.hpp:77] Creating layer inception_3a/3x3_reduce
I0403 16:18:44.365145 20925 net.cpp:91] Creating Layer inception_3a/3x3_reduce
I0403 16:18:44.365164 20925 net.cpp:425] inception_3a/3x3_reduce <- pool2/3x3_s2_pool2/3x3_s2_0_split_1
I0403 16:18:44.365185 20925 net.cpp:399] inception_3a/3x3_reduce -> inception_3a/3x3_reduce
I0403 16:18:44.366888 20925 net.cpp:141] Setting up inception_3a/3x3_reduce
I0403 16:18:44.366916 20925 net.cpp:148] Top shape: 24 96 28 28 (1806336)
I0403 16:18:44.366932 20925 net.cpp:156] Memory required for data: 508183584
I0403 16:18:44.366955 20925 layer_factory.hpp:77] Creating layer inception_3a/relu_3x3_reduce
I0403 16:18:44.366997 20925 net.cpp:91] Creating Layer inception_3a/relu_3x3_reduce
I0403 16:18:44.367017 20925 net.cpp:425] inception_3a/relu_3x3_reduce <- inception_3a/3x3_reduce
I0403 16:18:44.367035 20925 net.cpp:386] inception_3a/relu_3x3_reduce -> inception_3a/3x3_reduce (in-place)
I0403 16:18:44.367223 20925 net.cpp:141] Setting up inception_3a/relu_3x3_reduce
I0403 16:18:44.367249 20925 net.cpp:148] Top shape: 24 96 28 28 (1806336)
I0403 16:18:44.367264 20925 net.cpp:156] Memory required for data: 515408928
I0403 16:18:44.367279 20925 layer_factory.hpp:77] Creating layer inception_3a/3x3
I0403 16:18:44.367302 20925 net.cpp:91] Creating Layer inception_3a/3x3
I0403 16:18:44.367321 20925 net.cpp:425] inception_3a/3x3 <- inception_3a/3x3_reduce
I0403 16:18:44.367342 20925 net.cpp:399] inception_3a/3x3 -> inception_3a/3x3
I0403 16:18:44.369026 20925 net.cpp:141] Setting up inception_3a/3x3
I0403 16:18:44.369055 20925 net.cpp:148] Top shape: 24 128 28 28 (2408448)
I0403 16:18:44.369071 20925 net.cpp:156] Memory required for data: 525042720
I0403 16:18:44.369091 20925 layer_factory.hpp:77] Creating layer inception_3a/relu_3x3
I0403 16:18:44.369113 20925 net.cpp:91] Creating Layer inception_3a/relu_3x3
I0403 16:18:44.369132 20925 net.cpp:425] inception_3a/relu_3x3 <- inception_3a/3x3
I0403 16:18:44.369149 20925 net.cpp:386] inception_3a/relu_3x3 -> inception_3a/3x3 (in-place)
I0403 16:18:44.369426 20925 net.cpp:141] Setting up inception_3a/relu_3x3
I0403 16:18:44.369452 20925 net.cpp:148] Top shape: 24 128 28 28 (2408448)
I0403 16:18:44.369467 20925 net.cpp:156] Memory required for data: 534676512
I0403 16:18:44.369482 20925 layer_factory.hpp:77] Creating layer inception_3a/5x5_reduce
I0403 16:18:44.369505 20925 net.cpp:91] Creating Layer inception_3a/5x5_reduce
I0403 16:18:44.369523 20925 net.cpp:425] inception_3a/5x5_reduce <- pool2/3x3_s2_pool2/3x3_s2_0_split_2
I0403 16:18:44.369544 20925 net.cpp:399] inception_3a/5x5_reduce -> inception_3a/5x5_reduce
I0403 16:18:44.370519 20925 net.cpp:141] Setting up inception_3a/5x5_reduce
I0403 16:18:44.370548 20925 net.cpp:148] Top shape: 24 16 28 28 (301056)
I0403 16:18:44.370564 20925 net.cpp:156] Memory required for data: 535880736
I0403 16:18:44.370582 20925 layer_factory.hpp:77] Creating layer inception_3a/relu_5x5_reduce
I0403 16:18:44.370604 20925 net.cpp:91] Creating Layer inception_3a/relu_5x5_reduce
I0403 16:18:44.370620 20925 net.cpp:425] inception_3a/relu_5x5_reduce <- inception_3a/5x5_reduce
I0403 16:18:44.370638 20925 net.cpp:386] inception_3a/relu_5x5_reduce -> inception_3a/5x5_reduce (in-place)
I0403 16:18:44.370939 20925 net.cpp:141] Setting up inception_3a/relu_5x5_reduce
I0403 16:18:44.370970 20925 net.cpp:148] Top shape: 24 16 28 28 (301056)
I0403 16:18:44.370992 20925 net.cpp:156] Memory required for data: 537084960
I0403 16:18:44.371011 20925 layer_factory.hpp:77] Creating layer inception_3a/5x5
I0403 16:18:44.371033 20925 net.cpp:91] Creating Layer inception_3a/5x5
I0403 16:18:44.371052 20925 net.cpp:425] inception_3a/5x5 <- inception_3a/5x5_reduce
I0403 16:18:44.371071 20925 net.cpp:399] inception_3a/5x5 -> inception_3a/5x5
I0403 16:18:44.372098 20925 net.cpp:141] Setting up inception_3a/5x5
I0403 16:18:44.372126 20925 net.cpp:148] Top shape: 24 32 28 28 (602112)
I0403 16:18:44.372143 20925 net.cpp:156] Memory required for data: 539493408
I0403 16:18:44.372160 20925 layer_factory.hpp:77] Creating layer inception_3a/relu_5x5
I0403 16:18:44.372180 20925 net.cpp:91] Creating Layer inception_3a/relu_5x5
I0403 16:18:44.372198 20925 net.cpp:425] inception_3a/relu_5x5 <- inception_3a/5x5
I0403 16:18:44.372216 20925 net.cpp:386] inception_3a/relu_5x5 -> inception_3a/5x5 (in-place)
I0403 16:18:44.372390 20925 net.cpp:141] Setting up inception_3a/relu_5x5
I0403 16:18:44.372417 20925 net.cpp:148] Top shape: 24 32 28 28 (602112)
I0403 16:18:44.372432 20925 net.cpp:156] Memory required for data: 541901856
I0403 16:18:44.372448 20925 layer_factory.hpp:77] Creating layer inception_3a/pool
I0403 16:18:44.372465 20925 net.cpp:91] Creating Layer inception_3a/pool
I0403 16:18:44.372481 20925 net.cpp:425] inception_3a/pool <- pool2/3x3_s2_pool2/3x3_s2_0_split_3
I0403 16:18:44.372514 20925 net.cpp:399] inception_3a/pool -> inception_3a/pool
I0403 16:18:44.372575 20925 net.cpp:141] Setting up inception_3a/pool
I0403 16:18:44.372598 20925 net.cpp:148] Top shape: 24 192 28 28 (3612672)
I0403 16:18:44.372613 20925 net.cpp:156] Memory required for data: 556352544
I0403 16:18:44.372628 20925 layer_factory.hpp:77] Creating layer inception_3a/pool_proj
I0403 16:18:44.372651 20925 net.cpp:91] Creating Layer inception_3a/pool_proj
I0403 16:18:44.372669 20925 net.cpp:425] inception_3a/pool_proj <- inception_3a/pool
I0403 16:18:44.372691 20925 net.cpp:399] inception_3a/pool_proj -> inception_3a/pool_proj
I0403 16:18:44.373675 20925 net.cpp:141] Setting up inception_3a/pool_proj
I0403 16:18:44.373703 20925 net.cpp:148] Top shape: 24 32 28 28 (602112)
I0403 16:18:44.373719 20925 net.cpp:156] Memory required for data: 558760992
I0403 16:18:44.373741 20925 layer_factory.hpp:77] Creating layer inception_3a/relu_pool_proj
I0403 16:18:44.373762 20925 net.cpp:91] Creating Layer inception_3a/relu_pool_proj
I0403 16:18:44.373780 20925 net.cpp:425] inception_3a/relu_pool_proj <- inception_3a/pool_proj
I0403 16:18:44.373796 20925 net.cpp:386] inception_3a/relu_pool_proj -> inception_3a/pool_proj (in-place)
I0403 16:18:44.374079 20925 net.cpp:141] Setting up inception_3a/relu_pool_proj
I0403 16:18:44.374105 20925 net.cpp:148] Top shape: 24 32 28 28 (602112)
I0403 16:18:44.374121 20925 net.cpp:156] Memory required for data: 561169440
I0403 16:18:44.374136 20925 layer_factory.hpp:77] Creating layer inception_3a/output
I0403 16:18:44.374160 20925 net.cpp:91] Creating Layer inception_3a/output
I0403 16:18:44.374177 20925 net.cpp:425] inception_3a/output <- inception_3a/1x1
I0403 16:18:44.374194 20925 net.cpp:425] inception_3a/output <- inception_3a/3x3
I0403 16:18:44.374210 20925 net.cpp:425] inception_3a/output <- inception_3a/5x5
I0403 16:18:44.374227 20925 net.cpp:425] inception_3a/output <- inception_3a/pool_proj
I0403 16:18:44.374244 20925 net.cpp:399] inception_3a/output -> inception_3a/output
I0403 16:18:44.374292 20925 net.cpp:141] Setting up inception_3a/output
I0403 16:18:44.374315 20925 net.cpp:148] Top shape: 24 256 28 28 (4816896)
I0403 16:18:44.374330 20925 net.cpp:156] Memory required for data: 580437024
I0403 16:18:44.374346 20925 layer_factory.hpp:77] Creating layer inception_3a/output_inception_3a/output_0_split
I0403 16:18:44.374362 20925 net.cpp:91] Creating Layer inception_3a/output_inception_3a/output_0_split
I0403 16:18:44.374377 20925 net.cpp:425] inception_3a/output_inception_3a/output_0_split <- inception_3a/output
I0403 16:18:44.374397 20925 net.cpp:399] inception_3a/output_inception_3a/output_0_split -> inception_3a/output_inception_3a/output_0_split_0
I0403 16:18:44.374418 20925 net.cpp:399] inception_3a/output_inception_3a/output_0_split -> inception_3a/output_inception_3a/output_0_split_1
I0403 16:18:44.374442 20925 net.cpp:399] inception_3a/output_inception_3a/output_0_split -> inception_3a/output_inception_3a/output_0_split_2
I0403 16:18:44.374465 20925 net.cpp:399] inception_3a/output_inception_3a/output_0_split -> inception_3a/output_inception_3a/output_0_split_3
I0403 16:18:44.374541 20925 net.cpp:141] Setting up inception_3a/output_inception_3a/output_0_split
I0403 16:18:44.374563 20925 net.cpp:148] Top shape: 24 256 28 28 (4816896)
I0403 16:18:44.374580 20925 net.cpp:148] Top shape: 24 256 28 28 (4816896)
I0403 16:18:44.374596 20925 net.cpp:148] Top shape: 24 256 28 28 (4816896)
I0403 16:18:44.374613 20925 net.cpp:148] Top shape: 24 256 28 28 (4816896)
I0403 16:18:44.374626 20925 net.cpp:156] Memory required for data: 657507360
I0403 16:18:44.374640 20925 layer_factory.hpp:77] Creating layer inception_3b/1x1
I0403 16:18:44.374663 20925 net.cpp:91] Creating Layer inception_3b/1x1
I0403 16:18:44.374680 20925 net.cpp:425] inception_3b/1x1 <- inception_3a/output_inception_3a/output_0_split_0
I0403 16:18:44.374701 20925 net.cpp:399] inception_3b/1x1 -> inception_3b/1x1
I0403 16:18:44.375857 20925 net.cpp:141] Setting up inception_3b/1x1
I0403 16:18:44.375898 20925 net.cpp:148] Top shape: 24 128 28 28 (2408448)
I0403 16:18:44.375915 20925 net.cpp:156] Memory required for data: 667141152
I0403 16:18:44.375933 20925 layer_factory.hpp:77] Creating layer inception_3b/relu_1x1
I0403 16:18:44.375954 20925 net.cpp:91] Creating Layer inception_3b/relu_1x1
I0403 16:18:44.375972 20925 net.cpp:425] inception_3b/relu_1x1 <- inception_3b/1x1
I0403 16:18:44.375995 20925 net.cpp:386] inception_3b/relu_1x1 -> inception_3b/1x1 (in-place)
I0403 16:18:44.376169 20925 net.cpp:141] Setting up inception_3b/relu_1x1
I0403 16:18:44.376195 20925 net.cpp:148] Top shape: 24 128 28 28 (2408448)
I0403 16:18:44.376210 20925 net.cpp:156] Memory required for data: 676774944
I0403 16:18:44.376225 20925 layer_factory.hpp:77] Creating layer inception_3b/3x3_reduce
I0403 16:18:44.376248 20925 net.cpp:91] Creating Layer inception_3b/3x3_reduce
I0403 16:18:44.376266 20925 net.cpp:425] inception_3b/3x3_reduce <- inception_3a/output_inception_3a/output_0_split_1
I0403 16:18:44.376286 20925 net.cpp:399] inception_3b/3x3_reduce -> inception_3b/3x3_reduce
I0403 16:18:44.377452 20925 net.cpp:141] Setting up inception_3b/3x3_reduce
I0403 16:18:44.377480 20925 net.cpp:148] Top shape: 24 128 28 28 (2408448)
I0403 16:18:44.377496 20925 net.cpp:156] Memory required for data: 686408736
I0403 16:18:44.377516 20925 layer_factory.hpp:77] Creating layer inception_3b/relu_3x3_reduce
I0403 16:18:44.377533 20925 net.cpp:91] Creating Layer inception_3b/relu_3x3_reduce
I0403 16:18:44.377549 20925 net.cpp:425] inception_3b/relu_3x3_reduce <- inception_3b/3x3_reduce
I0403 16:18:44.377568 20925 net.cpp:386] inception_3b/relu_3x3_reduce -> inception_3b/3x3_reduce (in-place)
I0403 16:18:44.377743 20925 net.cpp:141] Setting up inception_3b/relu_3x3_reduce
I0403 16:18:44.377770 20925 net.cpp:148] Top shape: 24 128 28 28 (2408448)
I0403 16:18:44.377785 20925 net.cpp:156] Memory required for data: 696042528
I0403 16:18:44.377800 20925 layer_factory.hpp:77] Creating layer inception_3b/3x3
I0403 16:18:44.377830 20925 net.cpp:91] Creating Layer inception_3b/3x3
I0403 16:18:44.377849 20925 net.cpp:425] inception_3b/3x3 <- inception_3b/3x3_reduce
I0403 16:18:44.377869 20925 net.cpp:399] inception_3b/3x3 -> inception_3b/3x3
I0403 16:18:44.380841 20925 net.cpp:141] Setting up inception_3b/3x3
I0403 16:18:44.380870 20925 net.cpp:148] Top shape: 24 192 28 28 (3612672)
I0403 16:18:44.380887 20925 net.cpp:156] Memory required for data: 710493216
I0403 16:18:44.380904 20925 layer_factory.hpp:77] Creating layer inception_3b/relu_3x3
I0403 16:18:44.380925 20925 net.cpp:91] Creating Layer inception_3b/relu_3x3
I0403 16:18:44.380944 20925 net.cpp:425] inception_3b/relu_3x3 <- inception_3b/3x3
I0403 16:18:44.380962 20925 net.cpp:386] inception_3b/relu_3x3 -> inception_3b/3x3 (in-place)
I0403 16:18:44.381247 20925 net.cpp:141] Setting up inception_3b/relu_3x3
I0403 16:18:44.381273 20925 net.cpp:148] Top shape: 24 192 28 28 (3612672)
I0403 16:18:44.381289 20925 net.cpp:156] Memory required for data: 724943904
I0403 16:18:44.381304 20925 layer_factory.hpp:77] Creating layer inception_3b/5x5_reduce
I0403 16:18:44.381328 20925 net.cpp:91] Creating Layer inception_3b/5x5_reduce
I0403 16:18:44.381346 20925 net.cpp:425] inception_3b/5x5_reduce <- inception_3a/output_inception_3a/output_0_split_2
I0403 16:18:44.381368 20925 net.cpp:399] inception_3b/5x5_reduce -> inception_3b/5x5_reduce
I0403 16:18:44.382390 20925 net.cpp:141] Setting up inception_3b/5x5_reduce
I0403 16:18:44.382416 20925 net.cpp:148] Top shape: 24 32 28 28 (602112)
I0403 16:18:44.382431 20925 net.cpp:156] Memory required for data: 727352352
I0403 16:18:44.382447 20925 layer_factory.hpp:77] Creating layer inception_3b/relu_5x5_reduce
I0403 16:18:44.382467 20925 net.cpp:91] Creating Layer inception_3b/relu_5x5_reduce
I0403 16:18:44.382484 20925 net.cpp:425] inception_3b/relu_5x5_reduce <- inception_3b/5x5_reduce
I0403 16:18:44.382501 20925 net.cpp:386] inception_3b/relu_5x5_reduce -> inception_3b/5x5_reduce (in-place)
I0403 16:18:44.382668 20925 net.cpp:141] Setting up inception_3b/relu_5x5_reduce
I0403 16:18:44.382706 20925 net.cpp:148] Top shape: 24 32 28 28 (602112)
I0403 16:18:44.382722 20925 net.cpp:156] Memory required for data: 729760800
I0403 16:18:44.382737 20925 layer_factory.hpp:77] Creating layer inception_3b/5x5
I0403 16:18:44.382758 20925 net.cpp:91] Creating Layer inception_3b/5x5
I0403 16:18:44.382776 20925 net.cpp:425] inception_3b/5x5 <- inception_3b/5x5_reduce
I0403 16:18:44.382794 20925 net.cpp:399] inception_3b/5x5 -> inception_3b/5x5
I0403 16:18:44.384682 20925 net.cpp:141] Setting up inception_3b/5x5
I0403 16:18:44.384709 20925 net.cpp:148] Top shape: 24 96 28 28 (1806336)
I0403 16:18:44.384724 20925 net.cpp:156] Memory required for data: 736986144
I0403 16:18:44.384742 20925 layer_factory.hpp:77] Creating layer inception_3b/relu_5x5
I0403 16:18:44.384759 20925 net.cpp:91] Creating Layer inception_3b/relu_5x5
I0403 16:18:44.384774 20925 net.cpp:425] inception_3b/relu_5x5 <- inception_3b/5x5
I0403 16:18:44.384793 20925 net.cpp:386] inception_3b/relu_5x5 -> inception_3b/5x5 (in-place)
I0403 16:18:44.384980 20925 net.cpp:141] Setting up inception_3b/relu_5x5
I0403 16:18:44.385010 20925 net.cpp:148] Top shape: 24 96 28 28 (1806336)
I0403 16:18:44.385025 20925 net.cpp:156] Memory required for data: 744211488
I0403 16:18:44.385040 20925 layer_factory.hpp:77] Creating layer inception_3b/pool
I0403 16:18:44.385056 20925 net.cpp:91] Creating Layer inception_3b/pool
I0403 16:18:44.385072 20925 net.cpp:425] inception_3b/pool <- inception_3a/output_inception_3a/output_0_split_3
I0403 16:18:44.385089 20925 net.cpp:399] inception_3b/pool -> inception_3b/pool
I0403 16:18:44.385143 20925 net.cpp:141] Setting up inception_3b/pool
I0403 16:18:44.385164 20925 net.cpp:148] Top shape: 24 256 28 28 (4816896)
I0403 16:18:44.385179 20925 net.cpp:156] Memory required for data: 763479072
I0403 16:18:44.385193 20925 layer_factory.hpp:77] Creating layer inception_3b/pool_proj
I0403 16:18:44.385215 20925 net.cpp:91] Creating Layer inception_3b/pool_proj
I0403 16:18:44.385231 20925 net.cpp:425] inception_3b/pool_proj <- inception_3b/pool
I0403 16:18:44.385251 20925 net.cpp:399] inception_3b/pool_proj -> inception_3b/pool_proj
I0403 16:18:44.386257 20925 net.cpp:141] Setting up inception_3b/pool_proj
I0403 16:18:44.386286 20925 net.cpp:148] Top shape: 24 64 28 28 (1204224)
I0403 16:18:44.386302 20925 net.cpp:156] Memory required for data: 768295968
I0403 16:18:44.386320 20925 layer_factory.hpp:77] Creating layer inception_3b/relu_pool_proj
I0403 16:18:44.386337 20925 net.cpp:91] Creating Layer inception_3b/relu_pool_proj
I0403 16:18:44.386353 20925 net.cpp:425] inception_3b/relu_pool_proj <- inception_3b/pool_proj
I0403 16:18:44.386369 20925 net.cpp:386] inception_3b/relu_pool_proj -> inception_3b/pool_proj (in-place)
I0403 16:18:44.386749 20925 net.cpp:141] Setting up inception_3b/relu_pool_proj
I0403 16:18:44.386775 20925 net.cpp:148] Top shape: 24 64 28 28 (1204224)
I0403 16:18:44.386790 20925 net.cpp:156] Memory required for data: 773112864
I0403 16:18:44.386803 20925 layer_factory.hpp:77] Creating layer inception_3b/output
I0403 16:18:44.386822 20925 net.cpp:91] Creating Layer inception_3b/output
I0403 16:18:44.386838 20925 net.cpp:425] inception_3b/output <- inception_3b/1x1
I0403 16:18:44.386854 20925 net.cpp:425] inception_3b/output <- inception_3b/3x3
I0403 16:18:44.386870 20925 net.cpp:425] inception_3b/output <- inception_3b/5x5
I0403 16:18:44.386885 20925 net.cpp:425] inception_3b/output <- inception_3b/pool_proj
I0403 16:18:44.386903 20925 net.cpp:399] inception_3b/output -> inception_3b/output
I0403 16:18:44.386945 20925 net.cpp:141] Setting up inception_3b/output
I0403 16:18:44.386967 20925 net.cpp:148] Top shape: 24 480 28 28 (9031680)
I0403 16:18:44.386981 20925 net.cpp:156] Memory required for data: 809239584
I0403 16:18:44.387002 20925 layer_factory.hpp:77] Creating layer pool3/3x3_s2
I0403 16:18:44.387019 20925 net.cpp:91] Creating Layer pool3/3x3_s2
I0403 16:18:44.387034 20925 net.cpp:425] pool3/3x3_s2 <- inception_3b/output
I0403 16:18:44.387054 20925 net.cpp:399] pool3/3x3_s2 -> pool3/3x3_s2
I0403 16:18:44.387125 20925 net.cpp:141] Setting up pool3/3x3_s2
I0403 16:18:44.387147 20925 net.cpp:148] Top shape: 24 480 14 14 (2257920)
I0403 16:18:44.387161 20925 net.cpp:156] Memory required for data: 818271264
I0403 16:18:44.387174 20925 layer_factory.hpp:77] Creating layer pool3/3x3_s2_pool3/3x3_s2_0_split
I0403 16:18:44.387190 20925 net.cpp:91] Creating Layer pool3/3x3_s2_pool3/3x3_s2_0_split
I0403 16:18:44.387205 20925 net.cpp:425] pool3/3x3_s2_pool3/3x3_s2_0_split <- pool3/3x3_s2
I0403 16:18:44.387224 20925 net.cpp:399] pool3/3x3_s2_pool3/3x3_s2_0_split -> pool3/3x3_s2_pool3/3x3_s2_0_split_0
I0403 16:18:44.387243 20925 net.cpp:399] pool3/3x3_s2_pool3/3x3_s2_0_split -> pool3/3x3_s2_pool3/3x3_s2_0_split_1
I0403 16:18:44.387262 20925 net.cpp:399] pool3/3x3_s2_pool3/3x3_s2_0_split -> pool3/3x3_s2_pool3/3x3_s2_0_split_2
I0403 16:18:44.387280 20925 net.cpp:399] pool3/3x3_s2_pool3/3x3_s2_0_split -> pool3/3x3_s2_pool3/3x3_s2_0_split_3
I0403 16:18:44.387351 20925 net.cpp:141] Setting up pool3/3x3_s2_pool3/3x3_s2_0_split
I0403 16:18:44.387377 20925 net.cpp:148] Top shape: 24 480 14 14 (2257920)
I0403 16:18:44.387392 20925 net.cpp:148] Top shape: 24 480 14 14 (2257920)
I0403 16:18:44.387408 20925 net.cpp:148] Top shape: 24 480 14 14 (2257920)
I0403 16:18:44.387423 20925 net.cpp:148] Top shape: 24 480 14 14 (2257920)
I0403 16:18:44.387435 20925 net.cpp:156] Memory required for data: 854397984
I0403 16:18:44.387449 20925 layer_factory.hpp:77] Creating layer inception_4a/1x1
I0403 16:18:44.387471 20925 net.cpp:91] Creating Layer inception_4a/1x1
I0403 16:18:44.387486 20925 net.cpp:425] inception_4a/1x1 <- pool3/3x3_s2_pool3/3x3_s2_0_split_0
I0403 16:18:44.387504 20925 net.cpp:399] inception_4a/1x1 -> inception_4a/1x1
I0403 16:18:44.389073 20925 net.cpp:141] Setting up inception_4a/1x1
I0403 16:18:44.389103 20925 net.cpp:148] Top shape: 24 192 14 14 (903168)
I0403 16:18:44.389119 20925 net.cpp:156] Memory required for data: 858010656
I0403 16:18:44.389137 20925 layer_factory.hpp:77] Creating layer inception_4a/relu_1x1
I0403 16:18:44.389155 20925 net.cpp:91] Creating Layer inception_4a/relu_1x1
I0403 16:18:44.389170 20925 net.cpp:425] inception_4a/relu_1x1 <- inception_4a/1x1
I0403 16:18:44.389189 20925 net.cpp:386] inception_4a/relu_1x1 -> inception_4a/1x1 (in-place)
I0403 16:18:44.389364 20925 net.cpp:141] Setting up inception_4a/relu_1x1
I0403 16:18:44.389389 20925 net.cpp:148] Top shape: 24 192 14 14 (903168)
I0403 16:18:44.389405 20925 net.cpp:156] Memory required for data: 861623328
I0403 16:18:44.389418 20925 layer_factory.hpp:77] Creating layer inception_4a/3x3_reduce
I0403 16:18:44.389441 20925 net.cpp:91] Creating Layer inception_4a/3x3_reduce
I0403 16:18:44.389458 20925 net.cpp:425] inception_4a/3x3_reduce <- pool3/3x3_s2_pool3/3x3_s2_0_split_1
I0403 16:18:44.389478 20925 net.cpp:399] inception_4a/3x3_reduce -> inception_4a/3x3_reduce
I0403 16:18:44.390708 20925 net.cpp:141] Setting up inception_4a/3x3_reduce
I0403 16:18:44.390738 20925 net.cpp:148] Top shape: 24 96 14 14 (451584)
I0403 16:18:44.390753 20925 net.cpp:156] Memory required for data: 863429664
I0403 16:18:44.390777 20925 layer_factory.hpp:77] Creating layer inception_4a/relu_3x3_reduce
I0403 16:18:44.390796 20925 net.cpp:91] Creating Layer inception_4a/relu_3x3_reduce
I0403 16:18:44.390811 20925 net.cpp:425] inception_4a/relu_3x3_reduce <- inception_4a/3x3_reduce
I0403 16:18:44.390828 20925 net.cpp:386] inception_4a/relu_3x3_reduce -> inception_4a/3x3_reduce (in-place)
I0403 16:18:44.391005 20925 net.cpp:141] Setting up inception_4a/relu_3x3_reduce
I0403 16:18:44.391028 20925 net.cpp:148] Top shape: 24 96 14 14 (451584)
I0403 16:18:44.391043 20925 net.cpp:156] Memory required for data: 865236000
I0403 16:18:44.391057 20925 layer_factory.hpp:77] Creating layer inception_4a/3x3
I0403 16:18:44.391078 20925 net.cpp:91] Creating Layer inception_4a/3x3
I0403 16:18:44.391095 20925 net.cpp:425] inception_4a/3x3 <- inception_4a/3x3_reduce
I0403 16:18:44.391116 20925 net.cpp:399] inception_4a/3x3 -> inception_4a/3x3
I0403 16:18:44.393743 20925 net.cpp:141] Setting up inception_4a/3x3
I0403 16:18:44.393769 20925 net.cpp:148] Top shape: 24 208 14 14 (978432)
I0403 16:18:44.393784 20925 net.cpp:156] Memory required for data: 869149728
I0403 16:18:44.393801 20925 layer_factory.hpp:77] Creating layer inception_4a/relu_3x3
I0403 16:18:44.393818 20925 net.cpp:91] Creating Layer inception_4a/relu_3x3
I0403 16:18:44.393833 20925 net.cpp:425] inception_4a/relu_3x3 <- inception_4a/3x3
I0403 16:18:44.393853 20925 net.cpp:386] inception_4a/relu_3x3 -> inception_4a/3x3 (in-place)
I0403 16:18:44.394132 20925 net.cpp:141] Setting up inception_4a/relu_3x3
I0403 16:18:44.394157 20925 net.cpp:148] Top shape: 24 208 14 14 (978432)
I0403 16:18:44.394172 20925 net.cpp:156] Memory required for data: 873063456
I0403 16:18:44.394187 20925 layer_factory.hpp:77] Creating layer inception_4a/5x5_reduce
I0403 16:18:44.394208 20925 net.cpp:91] Creating Layer inception_4a/5x5_reduce
I0403 16:18:44.394225 20925 net.cpp:425] inception_4a/5x5_reduce <- pool3/3x3_s2_pool3/3x3_s2_0_split_2
I0403 16:18:44.394246 20925 net.cpp:399] inception_4a/5x5_reduce -> inception_4a/5x5_reduce
I0403 16:18:44.395236 20925 net.cpp:141] Setting up inception_4a/5x5_reduce
I0403 16:18:44.395262 20925 net.cpp:148] Top shape: 24 16 14 14 (75264)
I0403 16:18:44.395277 20925 net.cpp:156] Memory required for data: 873364512
I0403 16:18:44.395293 20925 layer_factory.hpp:77] Creating layer inception_4a/relu_5x5_reduce
I0403 16:18:44.395314 20925 net.cpp:91] Creating Layer inception_4a/relu_5x5_reduce
I0403 16:18:44.395330 20925 net.cpp:425] inception_4a/relu_5x5_reduce <- inception_4a/5x5_reduce
I0403 16:18:44.395347 20925 net.cpp:386] inception_4a/relu_5x5_reduce -> inception_4a/5x5_reduce (in-place)
I0403 16:18:44.395517 20925 net.cpp:141] Setting up inception_4a/relu_5x5_reduce
I0403 16:18:44.395545 20925 net.cpp:148] Top shape: 24 16 14 14 (75264)
I0403 16:18:44.395560 20925 net.cpp:156] Memory required for data: 873665568
I0403 16:18:44.395573 20925 layer_factory.hpp:77] Creating layer inception_4a/5x5
I0403 16:18:44.395596 20925 net.cpp:91] Creating Layer inception_4a/5x5
I0403 16:18:44.395612 20925 net.cpp:425] inception_4a/5x5 <- inception_4a/5x5_reduce
I0403 16:18:44.395629 20925 net.cpp:399] inception_4a/5x5 -> inception_4a/5x5
I0403 16:18:44.396710 20925 net.cpp:141] Setting up inception_4a/5x5
I0403 16:18:44.396738 20925 net.cpp:148] Top shape: 24 48 14 14 (225792)
I0403 16:18:44.396752 20925 net.cpp:156] Memory required for data: 874568736
I0403 16:18:44.396770 20925 layer_factory.hpp:77] Creating layer inception_4a/relu_5x5
I0403 16:18:44.396791 20925 net.cpp:91] Creating Layer inception_4a/relu_5x5
I0403 16:18:44.396807 20925 net.cpp:425] inception_4a/relu_5x5 <- inception_4a/5x5
I0403 16:18:44.396826 20925 net.cpp:386] inception_4a/relu_5x5 -> inception_4a/5x5 (in-place)
I0403 16:18:44.397011 20925 net.cpp:141] Setting up inception_4a/relu_5x5
I0403 16:18:44.397037 20925 net.cpp:148] Top shape: 24 48 14 14 (225792)
I0403 16:18:44.397052 20925 net.cpp:156] Memory required for data: 875471904
I0403 16:18:44.397066 20925 layer_factory.hpp:77] Creating layer inception_4a/pool
I0403 16:18:44.397083 20925 net.cpp:91] Creating Layer inception_4a/pool
I0403 16:18:44.397099 20925 net.cpp:425] inception_4a/pool <- pool3/3x3_s2_pool3/3x3_s2_0_split_3
I0403 16:18:44.397119 20925 net.cpp:399] inception_4a/pool -> inception_4a/pool
I0403 16:18:44.397179 20925 net.cpp:141] Setting up inception_4a/pool
I0403 16:18:44.397202 20925 net.cpp:148] Top shape: 24 480 14 14 (2257920)
I0403 16:18:44.397217 20925 net.cpp:156] Memory required for data: 884503584
I0403 16:18:44.397231 20925 layer_factory.hpp:77] Creating layer inception_4a/pool_proj
I0403 16:18:44.397254 20925 net.cpp:91] Creating Layer inception_4a/pool_proj
I0403 16:18:44.397272 20925 net.cpp:425] inception_4a/pool_proj <- inception_4a/pool
I0403 16:18:44.397290 20925 net.cpp:399] inception_4a/pool_proj -> inception_4a/pool_proj
I0403 16:18:44.398452 20925 net.cpp:141] Setting up inception_4a/pool_proj
I0403 16:18:44.398481 20925 net.cpp:148] Top shape: 24 64 14 14 (301056)
I0403 16:18:44.398511 20925 net.cpp:156] Memory required for data: 885707808
I0403 16:18:44.398530 20925 layer_factory.hpp:77] Creating layer inception_4a/relu_pool_proj
I0403 16:18:44.398548 20925 net.cpp:91] Creating Layer inception_4a/relu_pool_proj
I0403 16:18:44.398564 20925 net.cpp:425] inception_4a/relu_pool_proj <- inception_4a/pool_proj
I0403 16:18:44.398586 20925 net.cpp:386] inception_4a/relu_pool_proj -> inception_4a/pool_proj (in-place)
I0403 16:18:44.398864 20925 net.cpp:141] Setting up inception_4a/relu_pool_proj
I0403 16:18:44.398892 20925 net.cpp:148] Top shape: 24 64 14 14 (301056)
I0403 16:18:44.398908 20925 net.cpp:156] Memory required for data: 886912032
I0403 16:18:44.398923 20925 layer_factory.hpp:77] Creating layer inception_4a/output
I0403 16:18:44.398941 20925 net.cpp:91] Creating Layer inception_4a/output
I0403 16:18:44.398955 20925 net.cpp:425] inception_4a/output <- inception_4a/1x1
I0403 16:18:44.398972 20925 net.cpp:425] inception_4a/output <- inception_4a/3x3
I0403 16:18:44.398993 20925 net.cpp:425] inception_4a/output <- inception_4a/5x5
I0403 16:18:44.399011 20925 net.cpp:425] inception_4a/output <- inception_4a/pool_proj
I0403 16:18:44.399031 20925 net.cpp:399] inception_4a/output -> inception_4a/output
I0403 16:18:44.399075 20925 net.cpp:141] Setting up inception_4a/output
I0403 16:18:44.399097 20925 net.cpp:148] Top shape: 24 512 14 14 (2408448)
I0403 16:18:44.399112 20925 net.cpp:156] Memory required for data: 896545824
I0403 16:18:44.399127 20925 layer_factory.hpp:77] Creating layer inception_4a/output_inception_4a/output_0_split
I0403 16:18:44.399147 20925 net.cpp:91] Creating Layer inception_4a/output_inception_4a/output_0_split
I0403 16:18:44.399161 20925 net.cpp:425] inception_4a/output_inception_4a/output_0_split <- inception_4a/output
I0403 16:18:44.399179 20925 net.cpp:399] inception_4a/output_inception_4a/output_0_split -> inception_4a/output_inception_4a/output_0_split_0
I0403 16:18:44.399199 20925 net.cpp:399] inception_4a/output_inception_4a/output_0_split -> inception_4a/output_inception_4a/output_0_split_1
I0403 16:18:44.399225 20925 net.cpp:399] inception_4a/output_inception_4a/output_0_split -> inception_4a/output_inception_4a/output_0_split_2
I0403 16:18:44.399245 20925 net.cpp:399] inception_4a/output_inception_4a/output_0_split -> inception_4a/output_inception_4a/output_0_split_3
I0403 16:18:44.399265 20925 net.cpp:399] inception_4a/output_inception_4a/output_0_split -> inception_4a/output_inception_4a/output_0_split_4
I0403 16:18:44.399354 20925 net.cpp:141] Setting up inception_4a/output_inception_4a/output_0_split
I0403 16:18:44.399377 20925 net.cpp:148] Top shape: 24 512 14 14 (2408448)
I0403 16:18:44.399394 20925 net.cpp:148] Top shape: 24 512 14 14 (2408448)
I0403 16:18:44.399410 20925 net.cpp:148] Top shape: 24 512 14 14 (2408448)
I0403 16:18:44.399425 20925 net.cpp:148] Top shape: 24 512 14 14 (2408448)
I0403 16:18:44.399440 20925 net.cpp:148] Top shape: 24 512 14 14 (2408448)
I0403 16:18:44.399452 20925 net.cpp:156] Memory required for data: 944714784
I0403 16:18:44.399467 20925 layer_factory.hpp:77] Creating layer loss1/ave_pool
I0403 16:18:44.399487 20925 net.cpp:91] Creating Layer loss1/ave_pool
I0403 16:18:44.399503 20925 net.cpp:425] loss1/ave_pool <- inception_4a/output_inception_4a/output_0_split_0
I0403 16:18:44.399521 20925 net.cpp:399] loss1/ave_pool -> loss1/ave_pool
I0403 16:18:44.399724 20925 net.cpp:141] Setting up loss1/ave_pool
I0403 16:18:44.399751 20925 net.cpp:148] Top shape: 24 512 4 4 (196608)
I0403 16:18:44.399766 20925 net.cpp:156] Memory required for data: 945501216
I0403 16:18:44.399781 20925 layer_factory.hpp:77] Creating layer loss1/conv
I0403 16:18:44.399804 20925 net.cpp:91] Creating Layer loss1/conv
I0403 16:18:44.399821 20925 net.cpp:425] loss1/conv <- loss1/ave_pool
I0403 16:18:44.399840 20925 net.cpp:399] loss1/conv -> loss1/conv
I0403 16:18:44.401237 20925 net.cpp:141] Setting up loss1/conv
I0403 16:18:44.401265 20925 net.cpp:148] Top shape: 24 128 4 4 (49152)
I0403 16:18:44.401280 20925 net.cpp:156] Memory required for data: 945697824
I0403 16:18:44.401314 20925 layer_factory.hpp:77] Creating layer loss1/relu_conv
I0403 16:18:44.401335 20925 net.cpp:91] Creating Layer loss1/relu_conv
I0403 16:18:44.401350 20925 net.cpp:425] loss1/relu_conv <- loss1/conv
I0403 16:18:44.401367 20925 net.cpp:386] loss1/relu_conv -> loss1/conv (in-place)
I0403 16:18:44.401646 20925 net.cpp:141] Setting up loss1/relu_conv
I0403 16:18:44.401672 20925 net.cpp:148] Top shape: 24 128 4 4 (49152)
I0403 16:18:44.401687 20925 net.cpp:156] Memory required for data: 945894432
I0403 16:18:44.401701 20925 layer_factory.hpp:77] Creating layer loss1/fc
I0403 16:18:44.401723 20925 net.cpp:91] Creating Layer loss1/fc
I0403 16:18:44.401741 20925 net.cpp:425] loss1/fc <- loss1/conv
I0403 16:18:44.401762 20925 net.cpp:399] loss1/fc -> loss1/fc
I0403 16:18:44.419721 20925 net.cpp:141] Setting up loss1/fc
I0403 16:18:44.419770 20925 net.cpp:148] Top shape: 24 1024 (24576)
I0403 16:18:44.419786 20925 net.cpp:156] Memory required for data: 945992736
I0403 16:18:44.419807 20925 layer_factory.hpp:77] Creating layer loss1/relu_fc
I0403 16:18:44.419827 20925 net.cpp:91] Creating Layer loss1/relu_fc
I0403 16:18:44.419843 20925 net.cpp:425] loss1/relu_fc <- loss1/fc
I0403 16:18:44.419862 20925 net.cpp:386] loss1/relu_fc -> loss1/fc (in-place)
I0403 16:18:44.420081 20925 net.cpp:141] Setting up loss1/relu_fc
I0403 16:18:44.420107 20925 net.cpp:148] Top shape: 24 1024 (24576)
I0403 16:18:44.420123 20925 net.cpp:156] Memory required for data: 946091040
I0403 16:18:44.420138 20925 layer_factory.hpp:77] Creating layer loss1/drop_fc
I0403 16:18:44.420168 20925 net.cpp:91] Creating Layer loss1/drop_fc
I0403 16:18:44.420187 20925 net.cpp:425] loss1/drop_fc <- loss1/fc
I0403 16:18:44.420207 20925 net.cpp:386] loss1/drop_fc -> loss1/fc (in-place)
I0403 16:18:44.420260 20925 net.cpp:141] Setting up loss1/drop_fc
I0403 16:18:44.420298 20925 net.cpp:148] Top shape: 24 1024 (24576)
I0403 16:18:44.420322 20925 net.cpp:156] Memory required for data: 946189344
I0403 16:18:44.420338 20925 layer_factory.hpp:77] Creating layer loss1/classifier_plantvillage
I0403 16:18:44.420356 20925 net.cpp:91] Creating Layer loss1/classifier_plantvillage
I0403 16:18:44.420372 20925 net.cpp:425] loss1/classifier_plantvillage <- loss1/fc
I0403 16:18:44.420393 20925 net.cpp:399] loss1/classifier_plantvillage -> loss1/classifier_plantvillage
I0403 16:18:44.421316 20925 net.cpp:141] Setting up loss1/classifier_plantvillage
I0403 16:18:44.421344 20925 net.cpp:148] Top shape: 24 38 (912)
I0403 16:18:44.421360 20925 net.cpp:156] Memory required for data: 946192992
I0403 16:18:44.421377 20925 layer_factory.hpp:77] Creating layer loss1/classifier_plantvillage_loss1/classifier_plantvillage_0_split
I0403 16:18:44.421396 20925 net.cpp:91] Creating Layer loss1/classifier_plantvillage_loss1/classifier_plantvillage_0_split
I0403 16:18:44.421411 20925 net.cpp:425] loss1/classifier_plantvillage_loss1/classifier_plantvillage_0_split <- loss1/classifier_plantvillage
I0403 16:18:44.421430 20925 net.cpp:399] loss1/classifier_plantvillage_loss1/classifier_plantvillage_0_split -> loss1/classifier_plantvillage_loss1/classifier_plantvillage_0_split_0
I0403 16:18:44.421452 20925 net.cpp:399] loss1/classifier_plantvillage_loss1/classifier_plantvillage_0_split -> loss1/classifier_plantvillage_loss1/classifier_plantvillage_0_split_1
I0403 16:18:44.421473 20925 net.cpp:399] loss1/classifier_plantvillage_loss1/classifier_plantvillage_0_split -> loss1/classifier_plantvillage_loss1/classifier_plantvillage_0_split_2
I0403 16:18:44.421538 20925 net.cpp:141] Setting up loss1/classifier_plantvillage_loss1/classifier_plantvillage_0_split
I0403 16:18:44.421562 20925 net.cpp:148] Top shape: 24 38 (912)
I0403 16:18:44.421578 20925 net.cpp:148] Top shape: 24 38 (912)
I0403 16:18:44.421592 20925 net.cpp:148] Top shape: 24 38 (912)
I0403 16:18:44.421607 20925 net.cpp:156] Memory required for data: 946203936
I0403 16:18:44.421622 20925 layer_factory.hpp:77] Creating layer inception_4b/1x1
I0403 16:18:44.421644 20925 net.cpp:91] Creating Layer inception_4b/1x1
I0403 16:18:44.421684 20925 net.cpp:425] inception_4b/1x1 <- inception_4a/output_inception_4a/output_0_split_1
I0403 16:18:44.421705 20925 net.cpp:399] inception_4b/1x1 -> inception_4b/1x1
I0403 16:18:44.423430 20925 net.cpp:141] Setting up inception_4b/1x1
I0403 16:18:44.423460 20925 net.cpp:148] Top shape: 24 160 14 14 (752640)
I0403 16:18:44.423475 20925 net.cpp:156] Memory required for data: 949214496
I0403 16:18:44.423493 20925 layer_factory.hpp:77] Creating layer inception_4b/relu_1x1
I0403 16:18:44.423516 20925 net.cpp:91] Creating Layer inception_4b/relu_1x1
I0403 16:18:44.423532 20925 net.cpp:425] inception_4b/relu_1x1 <- inception_4b/1x1
I0403 16:18:44.423548 20925 net.cpp:386] inception_4b/relu_1x1 -> inception_4b/1x1 (in-place)
I0403 16:18:44.423723 20925 net.cpp:141] Setting up inception_4b/relu_1x1
I0403 16:18:44.423750 20925 net.cpp:148] Top shape: 24 160 14 14 (752640)
I0403 16:18:44.423765 20925 net.cpp:156] Memory required for data: 952225056
I0403 16:18:44.423780 20925 layer_factory.hpp:77] Creating layer inception_4b/3x3_reduce
I0403 16:18:44.423800 20925 net.cpp:91] Creating Layer inception_4b/3x3_reduce
I0403 16:18:44.423816 20925 net.cpp:425] inception_4b/3x3_reduce <- inception_4a/output_inception_4a/output_0_split_2
I0403 16:18:44.423840 20925 net.cpp:399] inception_4b/3x3_reduce -> inception_4b/3x3_reduce
I0403 16:18:44.425222 20925 net.cpp:141] Setting up inception_4b/3x3_reduce
I0403 16:18:44.425251 20925 net.cpp:148] Top shape: 24 112 14 14 (526848)
I0403 16:18:44.425266 20925 net.cpp:156] Memory required for data: 954332448
I0403 16:18:44.425285 20925 layer_factory.hpp:77] Creating layer inception_4b/relu_3x3_reduce
I0403 16:18:44.425308 20925 net.cpp:91] Creating Layer inception_4b/relu_3x3_reduce
I0403 16:18:44.425338 20925 net.cpp:425] inception_4b/relu_3x3_reduce <- inception_4b/3x3_reduce
I0403 16:18:44.425354 20925 net.cpp:386] inception_4b/relu_3x3_reduce -> inception_4b/3x3_reduce (in-place)
I0403 16:18:44.425638 20925 net.cpp:141] Setting up inception_4b/relu_3x3_reduce
I0403 16:18:44.425665 20925 net.cpp:148] Top shape: 24 112 14 14 (526848)
I0403 16:18:44.425681 20925 net.cpp:156] Memory required for data: 956439840
I0403 16:18:44.425696 20925 layer_factory.hpp:77] Creating layer inception_4b/3x3
I0403 16:18:44.425719 20925 net.cpp:91] Creating Layer inception_4b/3x3
I0403 16:18:44.425736 20925 net.cpp:425] inception_4b/3x3 <- inception_4b/3x3_reduce
I0403 16:18:44.425758 20925 net.cpp:399] inception_4b/3x3 -> inception_4b/3x3
I0403 16:18:44.428737 20925 net.cpp:141] Setting up inception_4b/3x3
I0403 16:18:44.428766 20925 net.cpp:148] Top shape: 24 224 14 14 (1053696)
I0403 16:18:44.428782 20925 net.cpp:156] Memory required for data: 960654624
I0403 16:18:44.428802 20925 layer_factory.hpp:77] Creating layer inception_4b/relu_3x3
I0403 16:18:44.428819 20925 net.cpp:91] Creating Layer inception_4b/relu_3x3
I0403 16:18:44.428835 20925 net.cpp:425] inception_4b/relu_3x3 <- inception_4b/3x3
I0403 16:18:44.428854 20925 net.cpp:386] inception_4b/relu_3x3 -> inception_4b/3x3 (in-place)
I0403 16:18:44.429041 20925 net.cpp:141] Setting up inception_4b/relu_3x3
I0403 16:18:44.429067 20925 net.cpp:148] Top shape: 24 224 14 14 (1053696)
I0403 16:18:44.429082 20925 net.cpp:156] Memory required for data: 964869408
I0403 16:18:44.429096 20925 layer_factory.hpp:77] Creating layer inception_4b/5x5_reduce
I0403 16:18:44.429118 20925 net.cpp:91] Creating Layer inception_4b/5x5_reduce
I0403 16:18:44.429136 20925 net.cpp:425] inception_4b/5x5_reduce <- inception_4a/output_inception_4a/output_0_split_3
I0403 16:18:44.429158 20925 net.cpp:399] inception_4b/5x5_reduce -> inception_4b/5x5_reduce
I0403 16:18:44.430238 20925 net.cpp:141] Setting up inception_4b/5x5_reduce
I0403 16:18:44.430265 20925 net.cpp:148] Top shape: 24 24 14 14 (112896)
I0403 16:18:44.430280 20925 net.cpp:156] Memory required for data: 965320992
I0403 16:18:44.430299 20925 layer_factory.hpp:77] Creating layer inception_4b/relu_5x5_reduce
I0403 16:18:44.430318 20925 net.cpp:91] Creating Layer inception_4b/relu_5x5_reduce
I0403 16:18:44.430349 20925 net.cpp:425] inception_4b/relu_5x5_reduce <- inception_4b/5x5_reduce
I0403 16:18:44.430368 20925 net.cpp:386] inception_4b/relu_5x5_reduce -> inception_4b/5x5_reduce (in-place)
I0403 16:18:44.430549 20925 net.cpp:141] Setting up inception_4b/relu_5x5_reduce
I0403 16:18:44.430577 20925 net.cpp:148] Top shape: 24 24 14 14 (112896)
I0403 16:18:44.430591 20925 net.cpp:156] Memory required for data: 965772576
I0403 16:18:44.430606 20925 layer_factory.hpp:77] Creating layer inception_4b/5x5
I0403 16:18:44.430629 20925 net.cpp:91] Creating Layer inception_4b/5x5
I0403 16:18:44.430645 20925 net.cpp:425] inception_4b/5x5 <- inception_4b/5x5_reduce
I0403 16:18:44.430665 20925 net.cpp:399] inception_4b/5x5 -> inception_4b/5x5
I0403 16:18:44.431887 20925 net.cpp:141] Setting up inception_4b/5x5
I0403 16:18:44.431915 20925 net.cpp:148] Top shape: 24 64 14 14 (301056)
I0403 16:18:44.431931 20925 net.cpp:156] Memory required for data: 966976800
I0403 16:18:44.431947 20925 layer_factory.hpp:77] Creating layer inception_4b/relu_5x5
I0403 16:18:44.431967 20925 net.cpp:91] Creating Layer inception_4b/relu_5x5
I0403 16:18:44.431990 20925 net.cpp:425] inception_4b/relu_5x5 <- inception_4b/5x5
I0403 16:18:44.432010 20925 net.cpp:386] inception_4b/relu_5x5 -> inception_4b/5x5 (in-place)
I0403 16:18:44.432292 20925 net.cpp:141] Setting up inception_4b/relu_5x5
I0403 16:18:44.432318 20925 net.cpp:148] Top shape: 24 64 14 14 (301056)
I0403 16:18:44.432334 20925 net.cpp:156] Memory required for data: 968181024
I0403 16:18:44.432348 20925 layer_factory.hpp:77] Creating layer inception_4b/pool
I0403 16:18:44.432368 20925 net.cpp:91] Creating Layer inception_4b/pool
I0403 16:18:44.432384 20925 net.cpp:425] inception_4b/pool <- inception_4a/output_inception_4a/output_0_split_4
I0403 16:18:44.432404 20925 net.cpp:399] inception_4b/pool -> inception_4b/pool
I0403 16:18:44.432469 20925 net.cpp:141] Setting up inception_4b/pool
I0403 16:18:44.432493 20925 net.cpp:148] Top shape: 24 512 14 14 (2408448)
I0403 16:18:44.432508 20925 net.cpp:156] Memory required for data: 977814816
I0403 16:18:44.432523 20925 layer_factory.hpp:77] Creating layer inception_4b/pool_proj
I0403 16:18:44.432544 20925 net.cpp:91] Creating Layer inception_4b/pool_proj
I0403 16:18:44.432561 20925 net.cpp:425] inception_4b/pool_proj <- inception_4b/pool
I0403 16:18:44.432582 20925 net.cpp:399] inception_4b/pool_proj -> inception_4b/pool_proj
I0403 16:18:44.433779 20925 net.cpp:141] Setting up inception_4b/pool_proj
I0403 16:18:44.433805 20925 net.cpp:148] Top shape: 24 64 14 14 (301056)
I0403 16:18:44.433820 20925 net.cpp:156] Memory required for data: 979019040
I0403 16:18:44.433840 20925 layer_factory.hpp:77] Creating layer inception_4b/relu_pool_proj
I0403 16:18:44.433859 20925 net.cpp:91] Creating Layer inception_4b/relu_pool_proj
I0403 16:18:44.433876 20925 net.cpp:425] inception_4b/relu_pool_proj <- inception_4b/pool_proj
I0403 16:18:44.433893 20925 net.cpp:386] inception_4b/relu_pool_proj -> inception_4b/pool_proj (in-place)
I0403 16:18:44.434077 20925 net.cpp:141] Setting up inception_4b/relu_pool_proj
I0403 16:18:44.434104 20925 net.cpp:148] Top shape: 24 64 14 14 (301056)
I0403 16:18:44.434119 20925 net.cpp:156] Memory required for data: 980223264
I0403 16:18:44.434150 20925 layer_factory.hpp:77] Creating layer inception_4b/output
I0403 16:18:44.434170 20925 net.cpp:91] Creating Layer inception_4b/output
I0403 16:18:44.434185 20925 net.cpp:425] inception_4b/output <- inception_4b/1x1
I0403 16:18:44.434202 20925 net.cpp:425] inception_4b/output <- inception_4b/3x3
I0403 16:18:44.434218 20925 net.cpp:425] inception_4b/output <- inception_4b/5x5
I0403 16:18:44.434237 20925 net.cpp:425] inception_4b/output <- inception_4b/pool_proj
I0403 16:18:44.434253 20925 net.cpp:399] inception_4b/output -> inception_4b/output
I0403 16:18:44.434303 20925 net.cpp:141] Setting up inception_4b/output
I0403 16:18:44.434326 20925 net.cpp:148] Top shape: 24 512 14 14 (2408448)
I0403 16:18:44.434341 20925 net.cpp:156] Memory required for data: 989857056
I0403 16:18:44.434370 20925 layer_factory.hpp:77] Creating layer inception_4b/output_inception_4b/output_0_split
I0403 16:18:44.434391 20925 net.cpp:91] Creating Layer inception_4b/output_inception_4b/output_0_split
I0403 16:18:44.434407 20925 net.cpp:425] inception_4b/output_inception_4b/output_0_split <- inception_4b/output
I0403 16:18:44.434425 20925 net.cpp:399] inception_4b/output_inception_4b/output_0_split -> inception_4b/output_inception_4b/output_0_split_0
I0403 16:18:44.434458 20925 net.cpp:399] inception_4b/output_inception_4b/output_0_split -> inception_4b/output_inception_4b/output_0_split_1
I0403 16:18:44.434478 20925 net.cpp:399] inception_4b/output_inception_4b/output_0_split -> inception_4b/output_inception_4b/output_0_split_2
I0403 16:18:44.434496 20925 net.cpp:399] inception_4b/output_inception_4b/output_0_split -> inception_4b/output_inception_4b/output_0_split_3
I0403 16:18:44.434581 20925 net.cpp:141] Setting up inception_4b/output_inception_4b/output_0_split
I0403 16:18:44.434604 20925 net.cpp:148] Top shape: 24 512 14 14 (2408448)
I0403 16:18:44.434622 20925 net.cpp:148] Top shape: 24 512 14 14 (2408448)
I0403 16:18:44.434636 20925 net.cpp:148] Top shape: 24 512 14 14 (2408448)
I0403 16:18:44.434653 20925 net.cpp:148] Top shape: 24 512 14 14 (2408448)
I0403 16:18:44.434665 20925 net.cpp:156] Memory required for data: 1028392224
I0403 16:18:44.434680 20925 layer_factory.hpp:77] Creating layer inception_4c/1x1
I0403 16:18:44.434702 20925 net.cpp:91] Creating Layer inception_4c/1x1
I0403 16:18:44.434720 20925 net.cpp:425] inception_4c/1x1 <- inception_4b/output_inception_4b/output_0_split_0
I0403 16:18:44.434741 20925 net.cpp:399] inception_4c/1x1 -> inception_4c/1x1
I0403 16:18:44.436177 20925 net.cpp:141] Setting up inception_4c/1x1
I0403 16:18:44.436208 20925 net.cpp:148] Top shape: 24 128 14 14 (602112)
I0403 16:18:44.436225 20925 net.cpp:156] Memory required for data: 1030800672
I0403 16:18:44.436244 20925 layer_factory.hpp:77] Creating layer inception_4c/relu_1x1
I0403 16:18:44.436262 20925 net.cpp:91] Creating Layer inception_4c/relu_1x1
I0403 16:18:44.436278 20925 net.cpp:425] inception_4c/relu_1x1 <- inception_4c/1x1
I0403 16:18:44.436295 20925 net.cpp:386] inception_4c/relu_1x1 -> inception_4c/1x1 (in-place)
I0403 16:18:44.436475 20925 net.cpp:141] Setting up inception_4c/relu_1x1
I0403 16:18:44.436501 20925 net.cpp:148] Top shape: 24 128 14 14 (602112)
I0403 16:18:44.436516 20925 net.cpp:156] Memory required for data: 1033209120
I0403 16:18:44.436529 20925 layer_factory.hpp:77] Creating layer inception_4c/3x3_reduce
I0403 16:18:44.436552 20925 net.cpp:91] Creating Layer inception_4c/3x3_reduce
I0403 16:18:44.436568 20925 net.cpp:425] inception_4c/3x3_reduce <- inception_4b/output_inception_4b/output_0_split_1
I0403 16:18:44.436589 20925 net.cpp:399] inception_4c/3x3_reduce -> inception_4c/3x3_reduce
I0403 16:18:44.438580 20925 net.cpp:141] Setting up inception_4c/3x3_reduce
I0403 16:18:44.438608 20925 net.cpp:148] Top shape: 24 128 14 14 (602112)
I0403 16:18:44.438624 20925 net.cpp:156] Memory required for data: 1035617568
I0403 16:18:44.438642 20925 layer_factory.hpp:77] Creating layer inception_4c/relu_3x3_reduce
I0403 16:18:44.438663 20925 net.cpp:91] Creating Layer inception_4c/relu_3x3_reduce
I0403 16:18:44.438679 20925 net.cpp:425] inception_4c/relu_3x3_reduce <- inception_4c/3x3_reduce
I0403 16:18:44.438696 20925 net.cpp:386] inception_4c/relu_3x3_reduce -> inception_4c/3x3_reduce (in-place)
I0403 16:18:44.438992 20925 net.cpp:141] Setting up inception_4c/relu_3x3_reduce
I0403 16:18:44.439018 20925 net.cpp:148] Top shape: 24 128 14 14 (602112)
I0403 16:18:44.439035 20925 net.cpp:156] Memory required for data: 1038026016
I0403 16:18:44.439049 20925 layer_factory.hpp:77] Creating layer inception_4c/3x3
I0403 16:18:44.439072 20925 net.cpp:91] Creating Layer inception_4c/3x3
I0403 16:18:44.439090 20925 net.cpp:425] inception_4c/3x3 <- inception_4c/3x3_reduce
I0403 16:18:44.439112 20925 net.cpp:399] inception_4c/3x3 -> inception_4c/3x3
I0403 16:18:44.442741 20925 net.cpp:141] Setting up inception_4c/3x3
I0403 16:18:44.442783 20925 net.cpp:148] Top shape: 24 256 14 14 (1204224)
I0403 16:18:44.442800 20925 net.cpp:156] Memory required for data: 1042842912
I0403 16:18:44.442833 20925 layer_factory.hpp:77] Creating layer inception_4c/relu_3x3
I0403 16:18:44.442857 20925 net.cpp:91] Creating Layer inception_4c/relu_3x3
I0403 16:18:44.442874 20925 net.cpp:425] inception_4c/relu_3x3 <- inception_4c/3x3
I0403 16:18:44.442893 20925 net.cpp:386] inception_4c/relu_3x3 -> inception_4c/3x3 (in-place)
I0403 16:18:44.443075 20925 net.cpp:141] Setting up inception_4c/relu_3x3
I0403 16:18:44.443100 20925 net.cpp:148] Top shape: 24 256 14 14 (1204224)
I0403 16:18:44.443115 20925 net.cpp:156] Memory required for data: 1047659808
I0403 16:18:44.443130 20925 layer_factory.hpp:77] Creating layer inception_4c/5x5_reduce
I0403 16:18:44.443153 20925 net.cpp:91] Creating Layer inception_4c/5x5_reduce
I0403 16:18:44.443171 20925 net.cpp:425] inception_4c/5x5_reduce <- inception_4b/output_inception_4b/output_0_split_2
I0403 16:18:44.443193 20925 net.cpp:399] inception_4c/5x5_reduce -> inception_4c/5x5_reduce
I0403 16:18:44.444299 20925 net.cpp:141] Setting up inception_4c/5x5_reduce
I0403 16:18:44.444329 20925 net.cpp:148] Top shape: 24 24 14 14 (112896)
I0403 16:18:44.444344 20925 net.cpp:156] Memory required for data: 1048111392
I0403 16:18:44.444362 20925 layer_factory.hpp:77] Creating layer inception_4c/relu_5x5_reduce
I0403 16:18:44.444383 20925 net.cpp:91] Creating Layer inception_4c/relu_5x5_reduce
I0403 16:18:44.444401 20925 net.cpp:425] inception_4c/relu_5x5_reduce <- inception_4c/5x5_reduce
I0403 16:18:44.444419 20925 net.cpp:386] inception_4c/relu_5x5_reduce -> inception_4c/5x5_reduce (in-place)
I0403 16:18:44.444608 20925 net.cpp:141] Setting up inception_4c/relu_5x5_reduce
I0403 16:18:44.444633 20925 net.cpp:148] Top shape: 24 24 14 14 (112896)
I0403 16:18:44.444648 20925 net.cpp:156] Memory required for data: 1048562976
I0403 16:18:44.444664 20925 layer_factory.hpp:77] Creating layer inception_4c/5x5
I0403 16:18:44.444689 20925 net.cpp:91] Creating Layer inception_4c/5x5
I0403 16:18:44.444706 20925 net.cpp:425] inception_4c/5x5 <- inception_4c/5x5_reduce
I0403 16:18:44.444726 20925 net.cpp:399] inception_4c/5x5 -> inception_4c/5x5
I0403 16:18:44.446010 20925 net.cpp:141] Setting up inception_4c/5x5
I0403 16:18:44.446041 20925 net.cpp:148] Top shape: 24 64 14 14 (301056)
I0403 16:18:44.446058 20925 net.cpp:156] Memory required for data: 1049767200
I0403 16:18:44.446077 20925 layer_factory.hpp:77] Creating layer inception_4c/relu_5x5
I0403 16:18:44.446096 20925 net.cpp:91] Creating Layer inception_4c/relu_5x5
I0403 16:18:44.446112 20925 net.cpp:425] inception_4c/relu_5x5 <- inception_4c/5x5
I0403 16:18:44.446130 20925 net.cpp:386] inception_4c/relu_5x5 -> inception_4c/5x5 (in-place)
I0403 16:18:44.446427 20925 net.cpp:141] Setting up inception_4c/relu_5x5
I0403 16:18:44.446456 20925 net.cpp:148] Top shape: 24 64 14 14 (301056)
I0403 16:18:44.446472 20925 net.cpp:156] Memory required for data: 1050971424
I0403 16:18:44.446488 20925 layer_factory.hpp:77] Creating layer inception_4c/pool
I0403 16:18:44.446506 20925 net.cpp:91] Creating Layer inception_4c/pool
I0403 16:18:44.446522 20925 net.cpp:425] inception_4c/pool <- inception_4b/output_inception_4b/output_0_split_3
I0403 16:18:44.446542 20925 net.cpp:399] inception_4c/pool -> inception_4c/pool
I0403 16:18:44.446609 20925 net.cpp:141] Setting up inception_4c/pool
I0403 16:18:44.446633 20925 net.cpp:148] Top shape: 24 512 14 14 (2408448)
I0403 16:18:44.446648 20925 net.cpp:156] Memory required for data: 1060605216
I0403 16:18:44.446665 20925 layer_factory.hpp:77] Creating layer inception_4c/pool_proj
I0403 16:18:44.446686 20925 net.cpp:91] Creating Layer inception_4c/pool_proj
I0403 16:18:44.446704 20925 net.cpp:425] inception_4c/pool_proj <- inception_4c/pool
I0403 16:18:44.446727 20925 net.cpp:399] inception_4c/pool_proj -> inception_4c/pool_proj
I0403 16:18:44.448005 20925 net.cpp:141] Setting up inception_4c/pool_proj
I0403 16:18:44.448034 20925 net.cpp:148] Top shape: 24 64 14 14 (301056)
I0403 16:18:44.448062 20925 net.cpp:156] Memory required for data: 1061809440
I0403 16:18:44.448081 20925 layer_factory.hpp:77] Creating layer inception_4c/relu_pool_proj
I0403 16:18:44.448102 20925 net.cpp:91] Creating Layer inception_4c/relu_pool_proj
I0403 16:18:44.448119 20925 net.cpp:425] inception_4c/relu_pool_proj <- inception_4c/pool_proj
I0403 16:18:44.448137 20925 net.cpp:386] inception_4c/relu_pool_proj -> inception_4c/pool_proj (in-place)
I0403 16:18:44.448318 20925 net.cpp:141] Setting up inception_4c/relu_pool_proj
I0403 16:18:44.448346 20925 net.cpp:148] Top shape: 24 64 14 14 (301056)
I0403 16:18:44.448361 20925 net.cpp:156] Memory required for data: 1063013664
I0403 16:18:44.448375 20925 layer_factory.hpp:77] Creating layer inception_4c/output
I0403 16:18:44.448392 20925 net.cpp:91] Creating Layer inception_4c/output
I0403 16:18:44.448407 20925 net.cpp:425] inception_4c/output <- inception_4c/1x1
I0403 16:18:44.448424 20925 net.cpp:425] inception_4c/output <- inception_4c/3x3
I0403 16:18:44.448439 20925 net.cpp:425] inception_4c/output <- inception_4c/5x5
I0403 16:18:44.448454 20925 net.cpp:425] inception_4c/output <- inception_4c/pool_proj
I0403 16:18:44.448472 20925 net.cpp:399] inception_4c/output -> inception_4c/output
I0403 16:18:44.448519 20925 net.cpp:141] Setting up inception_4c/output
I0403 16:18:44.448542 20925 net.cpp:148] Top shape: 24 512 14 14 (2408448)
I0403 16:18:44.448556 20925 net.cpp:156] Memory required for data: 1072647456
I0403 16:18:44.448570 20925 layer_factory.hpp:77] Creating layer inception_4c/output_inception_4c/output_0_split
I0403 16:18:44.448590 20925 net.cpp:91] Creating Layer inception_4c/output_inception_4c/output_0_split
I0403 16:18:44.448606 20925 net.cpp:425] inception_4c/output_inception_4c/output_0_split <- inception_4c/output
I0403 16:18:44.448623 20925 net.cpp:399] inception_4c/output_inception_4c/output_0_split -> inception_4c/output_inception_4c/output_0_split_0
I0403 16:18:44.448642 20925 net.cpp:399] inception_4c/output_inception_4c/output_0_split -> inception_4c/output_inception_4c/output_0_split_1
I0403 16:18:44.448662 20925 net.cpp:399] inception_4c/output_inception_4c/output_0_split -> inception_4c/output_inception_4c/output_0_split_2
I0403 16:18:44.448681 20925 net.cpp:399] inception_4c/output_inception_4c/output_0_split -> inception_4c/output_inception_4c/output_0_split_3
I0403 16:18:44.448766 20925 net.cpp:141] Setting up inception_4c/output_inception_4c/output_0_split
I0403 16:18:44.448789 20925 net.cpp:148] Top shape: 24 512 14 14 (2408448)
I0403 16:18:44.448806 20925 net.cpp:148] Top shape: 24 512 14 14 (2408448)
I0403 16:18:44.448820 20925 net.cpp:148] Top shape: 24 512 14 14 (2408448)
I0403 16:18:44.448835 20925 net.cpp:148] Top shape: 24 512 14 14 (2408448)
I0403 16:18:44.448849 20925 net.cpp:156] Memory required for data: 1111182624
I0403 16:18:44.448863 20925 layer_factory.hpp:77] Creating layer inception_4d/1x1
I0403 16:18:44.448886 20925 net.cpp:91] Creating Layer inception_4d/1x1
I0403 16:18:44.448904 20925 net.cpp:425] inception_4d/1x1 <- inception_4c/output_inception_4c/output_0_split_0
I0403 16:18:44.448925 20925 net.cpp:399] inception_4d/1x1 -> inception_4d/1x1
I0403 16:18:44.450314 20925 net.cpp:141] Setting up inception_4d/1x1
I0403 16:18:44.450341 20925 net.cpp:148] Top shape: 24 112 14 14 (526848)
I0403 16:18:44.450357 20925 net.cpp:156] Memory required for data: 1113290016
I0403 16:18:44.450376 20925 layer_factory.hpp:77] Creating layer inception_4d/relu_1x1
I0403 16:18:44.450392 20925 net.cpp:91] Creating Layer inception_4d/relu_1x1
I0403 16:18:44.450408 20925 net.cpp:425] inception_4d/relu_1x1 <- inception_4d/1x1
I0403 16:18:44.450428 20925 net.cpp:386] inception_4d/relu_1x1 -> inception_4d/1x1 (in-place)
I0403 16:18:44.450613 20925 net.cpp:141] Setting up inception_4d/relu_1x1
I0403 16:18:44.450636 20925 net.cpp:148] Top shape: 24 112 14 14 (526848)
I0403 16:18:44.450651 20925 net.cpp:156] Memory required for data: 1115397408
I0403 16:18:44.450665 20925 layer_factory.hpp:77] Creating layer inception_4d/3x3_reduce
I0403 16:18:44.450702 20925 net.cpp:91] Creating Layer inception_4d/3x3_reduce
I0403 16:18:44.450721 20925 net.cpp:425] inception_4d/3x3_reduce <- inception_4c/output_inception_4c/output_0_split_1
I0403 16:18:44.450742 20925 net.cpp:399] inception_4d/3x3_reduce -> inception_4d/3x3_reduce
I0403 16:18:44.452265 20925 net.cpp:141] Setting up inception_4d/3x3_reduce
I0403 16:18:44.452293 20925 net.cpp:148] Top shape: 24 144 14 14 (677376)
I0403 16:18:44.452311 20925 net.cpp:156] Memory required for data: 1118106912
I0403 16:18:44.452328 20925 layer_factory.hpp:77] Creating layer inception_4d/relu_3x3_reduce
I0403 16:18:44.452347 20925 net.cpp:91] Creating Layer inception_4d/relu_3x3_reduce
I0403 16:18:44.452363 20925 net.cpp:425] inception_4d/relu_3x3_reduce <- inception_4d/3x3_reduce
I0403 16:18:44.452381 20925 net.cpp:386] inception_4d/relu_3x3_reduce -> inception_4d/3x3_reduce (in-place)
I0403 16:18:44.452673 20925 net.cpp:141] Setting up inception_4d/relu_3x3_reduce
I0403 16:18:44.452702 20925 net.cpp:148] Top shape: 24 144 14 14 (677376)
I0403 16:18:44.452718 20925 net.cpp:156] Memory required for data: 1120816416
I0403 16:18:44.452733 20925 layer_factory.hpp:77] Creating layer inception_4d/3x3
I0403 16:18:44.452755 20925 net.cpp:91] Creating Layer inception_4d/3x3
I0403 16:18:44.452772 20925 net.cpp:425] inception_4d/3x3 <- inception_4d/3x3_reduce
I0403 16:18:44.452791 20925 net.cpp:399] inception_4d/3x3 -> inception_4d/3x3
I0403 16:18:44.457067 20925 net.cpp:141] Setting up inception_4d/3x3
I0403 16:18:44.457095 20925 net.cpp:148] Top shape: 24 288 14 14 (1354752)
I0403 16:18:44.457111 20925 net.cpp:156] Memory required for data: 1126235424
I0403 16:18:44.457129 20925 layer_factory.hpp:77] Creating layer inception_4d/relu_3x3
I0403 16:18:44.457149 20925 net.cpp:91] Creating Layer inception_4d/relu_3x3
I0403 16:18:44.457167 20925 net.cpp:425] inception_4d/relu_3x3 <- inception_4d/3x3
I0403 16:18:44.457185 20925 net.cpp:386] inception_4d/relu_3x3 -> inception_4d/3x3 (in-place)
I0403 16:18:44.457381 20925 net.cpp:141] Setting up inception_4d/relu_3x3
I0403 16:18:44.457406 20925 net.cpp:148] Top shape: 24 288 14 14 (1354752)
I0403 16:18:44.457422 20925 net.cpp:156] Memory required for data: 1131654432
I0403 16:18:44.457437 20925 layer_factory.hpp:77] Creating layer inception_4d/5x5_reduce
I0403 16:18:44.457458 20925 net.cpp:91] Creating Layer inception_4d/5x5_reduce
I0403 16:18:44.457476 20925 net.cpp:425] inception_4d/5x5_reduce <- inception_4c/output_inception_4c/output_0_split_2
I0403 16:18:44.457499 20925 net.cpp:399] inception_4d/5x5_reduce -> inception_4d/5x5_reduce
I0403 16:18:44.458690 20925 net.cpp:141] Setting up inception_4d/5x5_reduce
I0403 16:18:44.458719 20925 net.cpp:148] Top shape: 24 32 14 14 (150528)
I0403 16:18:44.458735 20925 net.cpp:156] Memory required for data: 1132256544
I0403 16:18:44.458753 20925 layer_factory.hpp:77] Creating layer inception_4d/relu_5x5_reduce
I0403 16:18:44.458772 20925 net.cpp:91] Creating Layer inception_4d/relu_5x5_reduce
I0403 16:18:44.458788 20925 net.cpp:425] inception_4d/relu_5x5_reduce <- inception_4d/5x5_reduce
I0403 16:18:44.458808 20925 net.cpp:386] inception_4d/relu_5x5_reduce -> inception_4d/5x5_reduce (in-place)
I0403 16:18:44.459007 20925 net.cpp:141] Setting up inception_4d/relu_5x5_reduce
I0403 16:18:44.459033 20925 net.cpp:148] Top shape: 24 32 14 14 (150528)
I0403 16:18:44.459049 20925 net.cpp:156] Memory required for data: 1132858656
I0403 16:18:44.459065 20925 layer_factory.hpp:77] Creating layer inception_4d/5x5
I0403 16:18:44.459089 20925 net.cpp:91] Creating Layer inception_4d/5x5
I0403 16:18:44.459106 20925 net.cpp:425] inception_4d/5x5 <- inception_4d/5x5_reduce
I0403 16:18:44.459128 20925 net.cpp:399] inception_4d/5x5 -> inception_4d/5x5
I0403 16:18:44.460634 20925 net.cpp:141] Setting up inception_4d/5x5
I0403 16:18:44.460662 20925 net.cpp:148] Top shape: 24 64 14 14 (301056)
I0403 16:18:44.460678 20925 net.cpp:156] Memory required for data: 1134062880
I0403 16:18:44.460697 20925 layer_factory.hpp:77] Creating layer inception_4d/relu_5x5
I0403 16:18:44.460731 20925 net.cpp:91] Creating Layer inception_4d/relu_5x5
I0403 16:18:44.460749 20925 net.cpp:425] inception_4d/relu_5x5 <- inception_4d/5x5
I0403 16:18:44.460767 20925 net.cpp:386] inception_4d/relu_5x5 -> inception_4d/5x5 (in-place)
I0403 16:18:44.461074 20925 net.cpp:141] Setting up inception_4d/relu_5x5
I0403 16:18:44.461102 20925 net.cpp:148] Top shape: 24 64 14 14 (301056)
I0403 16:18:44.461117 20925 net.cpp:156] Memory required for data: 1135267104
I0403 16:18:44.461132 20925 layer_factory.hpp:77] Creating layer inception_4d/pool
I0403 16:18:44.461151 20925 net.cpp:91] Creating Layer inception_4d/pool
I0403 16:18:44.461169 20925 net.cpp:425] inception_4d/pool <- inception_4c/output_inception_4c/output_0_split_3
I0403 16:18:44.461187 20925 net.cpp:399] inception_4d/pool -> inception_4d/pool
I0403 16:18:44.461254 20925 net.cpp:141] Setting up inception_4d/pool
I0403 16:18:44.461278 20925 net.cpp:148] Top shape: 24 512 14 14 (2408448)
I0403 16:18:44.461293 20925 net.cpp:156] Memory required for data: 1144900896
I0403 16:18:44.461308 20925 layer_factory.hpp:77] Creating layer inception_4d/pool_proj
I0403 16:18:44.461333 20925 net.cpp:91] Creating Layer inception_4d/pool_proj
I0403 16:18:44.461350 20925 net.cpp:425] inception_4d/pool_proj <- inception_4d/pool
I0403 16:18:44.461370 20925 net.cpp:399] inception_4d/pool_proj -> inception_4d/pool_proj
I0403 16:18:44.463146 20925 net.cpp:141] Setting up inception_4d/pool_proj
I0403 16:18:44.463174 20925 net.cpp:148] Top shape: 24 64 14 14 (301056)
I0403 16:18:44.463189 20925 net.cpp:156] Memory required for data: 1146105120
I0403 16:18:44.463207 20925 layer_factory.hpp:77] Creating layer inception_4d/relu_pool_proj
I0403 16:18:44.463224 20925 net.cpp:91] Creating Layer inception_4d/relu_pool_proj
I0403 16:18:44.463243 20925 net.cpp:425] inception_4d/relu_pool_proj <- inception_4d/pool_proj
I0403 16:18:44.463260 20925 net.cpp:386] inception_4d/relu_pool_proj -> inception_4d/pool_proj (in-place)
I0403 16:18:44.463438 20925 net.cpp:141] Setting up inception_4d/relu_pool_proj
I0403 16:18:44.463462 20925 net.cpp:148] Top shape: 24 64 14 14 (301056)
I0403 16:18:44.463476 20925 net.cpp:156] Memory required for data: 1147309344
I0403 16:18:44.463490 20925 layer_factory.hpp:77] Creating layer inception_4d/output
I0403 16:18:44.463510 20925 net.cpp:91] Creating Layer inception_4d/output
I0403 16:18:44.463526 20925 net.cpp:425] inception_4d/output <- inception_4d/1x1
I0403 16:18:44.463541 20925 net.cpp:425] inception_4d/output <- inception_4d/3x3
I0403 16:18:44.463557 20925 net.cpp:425] inception_4d/output <- inception_4d/5x5
I0403 16:18:44.463572 20925 net.cpp:425] inception_4d/output <- inception_4d/pool_proj
I0403 16:18:44.463589 20925 net.cpp:399] inception_4d/output -> inception_4d/output
I0403 16:18:44.463636 20925 net.cpp:141] Setting up inception_4d/output
I0403 16:18:44.463660 20925 net.cpp:148] Top shape: 24 528 14 14 (2483712)
I0403 16:18:44.463673 20925 net.cpp:156] Memory required for data: 1157244192
I0403 16:18:44.463687 20925 layer_factory.hpp:77] Creating layer inception_4d/output_inception_4d/output_0_split
I0403 16:18:44.463704 20925 net.cpp:91] Creating Layer inception_4d/output_inception_4d/output_0_split
I0403 16:18:44.463719 20925 net.cpp:425] inception_4d/output_inception_4d/output_0_split <- inception_4d/output
I0403 16:18:44.463739 20925 net.cpp:399] inception_4d/output_inception_4d/output_0_split -> inception_4d/output_inception_4d/output_0_split_0
I0403 16:18:44.463760 20925 net.cpp:399] inception_4d/output_inception_4d/output_0_split -> inception_4d/output_inception_4d/output_0_split_1
I0403 16:18:44.463780 20925 net.cpp:399] inception_4d/output_inception_4d/output_0_split -> inception_4d/output_inception_4d/output_0_split_2
I0403 16:18:44.463799 20925 net.cpp:399] inception_4d/output_inception_4d/output_0_split -> inception_4d/output_inception_4d/output_0_split_3
I0403 16:18:44.463819 20925 net.cpp:399] inception_4d/output_inception_4d/output_0_split -> inception_4d/output_inception_4d/output_0_split_4
I0403 16:18:44.463920 20925 net.cpp:141] Setting up inception_4d/output_inception_4d/output_0_split
I0403 16:18:44.463955 20925 net.cpp:148] Top shape: 24 528 14 14 (2483712)
I0403 16:18:44.463973 20925 net.cpp:148] Top shape: 24 528 14 14 (2483712)
I0403 16:18:44.463994 20925 net.cpp:148] Top shape: 24 528 14 14 (2483712)
I0403 16:18:44.464010 20925 net.cpp:148] Top shape: 24 528 14 14 (2483712)
I0403 16:18:44.464025 20925 net.cpp:148] Top shape: 24 528 14 14 (2483712)
I0403 16:18:44.464038 20925 net.cpp:156] Memory required for data: 1206918432
I0403 16:18:44.464052 20925 layer_factory.hpp:77] Creating layer loss2/ave_pool
I0403 16:18:44.464069 20925 net.cpp:91] Creating Layer loss2/ave_pool
I0403 16:18:44.464084 20925 net.cpp:425] loss2/ave_pool <- inception_4d/output_inception_4d/output_0_split_0
I0403 16:18:44.464104 20925 net.cpp:399] loss2/ave_pool -> loss2/ave_pool
I0403 16:18:44.464414 20925 net.cpp:141] Setting up loss2/ave_pool
I0403 16:18:44.464439 20925 net.cpp:148] Top shape: 24 528 4 4 (202752)
I0403 16:18:44.464453 20925 net.cpp:156] Memory required for data: 1207729440
I0403 16:18:44.464468 20925 layer_factory.hpp:77] Creating layer loss2/conv
I0403 16:18:44.464489 20925 net.cpp:91] Creating Layer loss2/conv
I0403 16:18:44.464507 20925 net.cpp:425] loss2/conv <- loss2/ave_pool
I0403 16:18:44.464527 20925 net.cpp:399] loss2/conv -> loss2/conv
I0403 16:18:44.466372 20925 net.cpp:141] Setting up loss2/conv
I0403 16:18:44.466399 20925 net.cpp:148] Top shape: 24 128 4 4 (49152)
I0403 16:18:44.466414 20925 net.cpp:156] Memory required for data: 1207926048
I0403 16:18:44.466433 20925 layer_factory.hpp:77] Creating layer loss2/relu_conv
I0403 16:18:44.466452 20925 net.cpp:91] Creating Layer loss2/relu_conv
I0403 16:18:44.466469 20925 net.cpp:425] loss2/relu_conv <- loss2/conv
I0403 16:18:44.466485 20925 net.cpp:386] loss2/relu_conv -> loss2/conv (in-place)
I0403 16:18:44.466769 20925 net.cpp:141] Setting up loss2/relu_conv
I0403 16:18:44.466794 20925 net.cpp:148] Top shape: 24 128 4 4 (49152)
I0403 16:18:44.466809 20925 net.cpp:156] Memory required for data: 1208122656
I0403 16:18:44.466823 20925 layer_factory.hpp:77] Creating layer loss2/fc
I0403 16:18:44.466845 20925 net.cpp:91] Creating Layer loss2/fc
I0403 16:18:44.466861 20925 net.cpp:425] loss2/fc <- loss2/conv
I0403 16:18:44.466881 20925 net.cpp:399] loss2/fc -> loss2/fc
I0403 16:18:44.484014 20925 net.cpp:141] Setting up loss2/fc
I0403 16:18:44.484043 20925 net.cpp:148] Top shape: 24 1024 (24576)
I0403 16:18:44.484060 20925 net.cpp:156] Memory required for data: 1208220960
I0403 16:18:44.484077 20925 layer_factory.hpp:77] Creating layer loss2/relu_fc
I0403 16:18:44.484094 20925 net.cpp:91] Creating Layer loss2/relu_fc
I0403 16:18:44.484110 20925 net.cpp:425] loss2/relu_fc <- loss2/fc
I0403 16:18:44.484129 20925 net.cpp:386] loss2/relu_fc -> loss2/fc (in-place)
I0403 16:18:44.484419 20925 net.cpp:141] Setting up loss2/relu_fc
I0403 16:18:44.484444 20925 net.cpp:148] Top shape: 24 1024 (24576)
I0403 16:18:44.484458 20925 net.cpp:156] Memory required for data: 1208319264
I0403 16:18:44.484473 20925 layer_factory.hpp:77] Creating layer loss2/drop_fc
I0403 16:18:44.484490 20925 net.cpp:91] Creating Layer loss2/drop_fc
I0403 16:18:44.484506 20925 net.cpp:425] loss2/drop_fc <- loss2/fc
I0403 16:18:44.484524 20925 net.cpp:386] loss2/drop_fc -> loss2/fc (in-place)
I0403 16:18:44.484572 20925 net.cpp:141] Setting up loss2/drop_fc
I0403 16:18:44.484597 20925 net.cpp:148] Top shape: 24 1024 (24576)
I0403 16:18:44.484611 20925 net.cpp:156] Memory required for data: 1208417568
I0403 16:18:44.484625 20925 layer_factory.hpp:77] Creating layer loss2/classifier_plantvillage
I0403 16:18:44.484642 20925 net.cpp:91] Creating Layer loss2/classifier_plantvillage
I0403 16:18:44.484658 20925 net.cpp:425] loss2/classifier_plantvillage <- loss2/fc
I0403 16:18:44.484680 20925 net.cpp:399] loss2/classifier_plantvillage -> loss2/classifier_plantvillage
I0403 16:18:44.485080 20925 net.cpp:141] Setting up loss2/classifier_plantvillage
I0403 16:18:44.485105 20925 net.cpp:148] Top shape: 24 38 (912)
I0403 16:18:44.485118 20925 net.cpp:156] Memory required for data: 1208421216
I0403 16:18:44.485152 20925 layer_factory.hpp:77] Creating layer loss2/classifier_plantvillage_loss2/classifier_plantvillage_0_split
I0403 16:18:44.485172 20925 net.cpp:91] Creating Layer loss2/classifier_plantvillage_loss2/classifier_plantvillage_0_split
I0403 16:18:44.485188 20925 net.cpp:425] loss2/classifier_plantvillage_loss2/classifier_plantvillage_0_split <- loss2/classifier_plantvillage
I0403 16:18:44.485205 20925 net.cpp:399] loss2/classifier_plantvillage_loss2/classifier_plantvillage_0_split -> loss2/classifier_plantvillage_loss2/classifier_plantvillage_0_split_0
I0403 16:18:44.485229 20925 net.cpp:399] loss2/classifier_plantvillage_loss2/classifier_plantvillage_0_split -> loss2/classifier_plantvillage_loss2/classifier_plantvillage_0_split_1
I0403 16:18:44.485249 20925 net.cpp:399] loss2/classifier_plantvillage_loss2/classifier_plantvillage_0_split -> loss2/classifier_plantvillage_loss2/classifier_plantvillage_0_split_2
I0403 16:18:44.485322 20925 net.cpp:141] Setting up loss2/classifier_plantvillage_loss2/classifier_plantvillage_0_split
I0403 16:18:44.485344 20925 net.cpp:148] Top shape: 24 38 (912)
I0403 16:18:44.485360 20925 net.cpp:148] Top shape: 24 38 (912)
I0403 16:18:44.485375 20925 net.cpp:148] Top shape: 24 38 (912)
I0403 16:18:44.485388 20925 net.cpp:156] Memory required for data: 1208432160
I0403 16:18:44.485402 20925 layer_factory.hpp:77] Creating layer inception_4e/1x1
I0403 16:18:44.485424 20925 net.cpp:91] Creating Layer inception_4e/1x1
I0403 16:18:44.485440 20925 net.cpp:425] inception_4e/1x1 <- inception_4d/output_inception_4d/output_0_split_1
I0403 16:18:44.485458 20925 net.cpp:399] inception_4e/1x1 -> inception_4e/1x1
I0403 16:18:44.487226 20925 net.cpp:141] Setting up inception_4e/1x1
I0403 16:18:44.487256 20925 net.cpp:148] Top shape: 24 256 14 14 (1204224)
I0403 16:18:44.487272 20925 net.cpp:156] Memory required for data: 1213249056
I0403 16:18:44.487289 20925 layer_factory.hpp:77] Creating layer inception_4e/relu_1x1
I0403 16:18:44.487308 20925 net.cpp:91] Creating Layer inception_4e/relu_1x1
I0403 16:18:44.487323 20925 net.cpp:425] inception_4e/relu_1x1 <- inception_4e/1x1
I0403 16:18:44.487339 20925 net.cpp:386] inception_4e/relu_1x1 -> inception_4e/1x1 (in-place)
I0403 16:18:44.487627 20925 net.cpp:141] Setting up inception_4e/relu_1x1
I0403 16:18:44.487655 20925 net.cpp:148] Top shape: 24 256 14 14 (1204224)
I0403 16:18:44.487671 20925 net.cpp:156] Memory required for data: 1218065952
I0403 16:18:44.487685 20925 layer_factory.hpp:77] Creating layer inception_4e/3x3_reduce
I0403 16:18:44.487707 20925 net.cpp:91] Creating Layer inception_4e/3x3_reduce
I0403 16:18:44.487725 20925 net.cpp:425] inception_4e/3x3_reduce <- inception_4d/output_inception_4d/output_0_split_2
I0403 16:18:44.487743 20925 net.cpp:399] inception_4e/3x3_reduce -> inception_4e/3x3_reduce
I0403 16:18:44.489835 20925 net.cpp:141] Setting up inception_4e/3x3_reduce
I0403 16:18:44.489863 20925 net.cpp:148] Top shape: 24 160 14 14 (752640)
I0403 16:18:44.489878 20925 net.cpp:156] Memory required for data: 1221076512
I0403 16:18:44.489895 20925 layer_factory.hpp:77] Creating layer inception_4e/relu_3x3_reduce
I0403 16:18:44.489917 20925 net.cpp:91] Creating Layer inception_4e/relu_3x3_reduce
I0403 16:18:44.489933 20925 net.cpp:425] inception_4e/relu_3x3_reduce <- inception_4e/3x3_reduce
I0403 16:18:44.489949 20925 net.cpp:386] inception_4e/relu_3x3_reduce -> inception_4e/3x3_reduce (in-place)
I0403 16:18:44.490135 20925 net.cpp:141] Setting up inception_4e/relu_3x3_reduce
I0403 16:18:44.490161 20925 net.cpp:148] Top shape: 24 160 14 14 (752640)
I0403 16:18:44.490176 20925 net.cpp:156] Memory required for data: 1224087072
I0403 16:18:44.490190 20925 layer_factory.hpp:77] Creating layer inception_4e/3x3
I0403 16:18:44.490212 20925 net.cpp:91] Creating Layer inception_4e/3x3
I0403 16:18:44.490228 20925 net.cpp:425] inception_4e/3x3 <- inception_4e/3x3_reduce
I0403 16:18:44.490247 20925 net.cpp:399] inception_4e/3x3 -> inception_4e/3x3
I0403 16:18:44.495139 20925 net.cpp:141] Setting up inception_4e/3x3
I0403 16:18:44.495182 20925 net.cpp:148] Top shape: 24 320 14 14 (1505280)
I0403 16:18:44.495199 20925 net.cpp:156] Memory required for data: 1230108192
I0403 16:18:44.495219 20925 layer_factory.hpp:77] Creating layer inception_4e/relu_3x3
I0403 16:18:44.495237 20925 net.cpp:91] Creating Layer inception_4e/relu_3x3
I0403 16:18:44.495252 20925 net.cpp:425] inception_4e/relu_3x3 <- inception_4e/3x3
I0403 16:18:44.495272 20925 net.cpp:386] inception_4e/relu_3x3 -> inception_4e/3x3 (in-place)
I0403 16:18:44.495574 20925 net.cpp:141] Setting up inception_4e/relu_3x3
I0403 16:18:44.495600 20925 net.cpp:148] Top shape: 24 320 14 14 (1505280)
I0403 16:18:44.495615 20925 net.cpp:156] Memory required for data: 1236129312
I0403 16:18:44.495630 20925 layer_factory.hpp:77] Creating layer inception_4e/5x5_reduce
I0403 16:18:44.495654 20925 net.cpp:91] Creating Layer inception_4e/5x5_reduce
I0403 16:18:44.495672 20925 net.cpp:425] inception_4e/5x5_reduce <- inception_4d/output_inception_4d/output_0_split_3
I0403 16:18:44.495694 20925 net.cpp:399] inception_4e/5x5_reduce -> inception_4e/5x5_reduce
I0403 16:18:44.496811 20925 net.cpp:141] Setting up inception_4e/5x5_reduce
I0403 16:18:44.496840 20925 net.cpp:148] Top shape: 24 32 14 14 (150528)
I0403 16:18:44.496856 20925 net.cpp:156] Memory required for data: 1236731424
I0403 16:18:44.496876 20925 layer_factory.hpp:77] Creating layer inception_4e/relu_5x5_reduce
I0403 16:18:44.496896 20925 net.cpp:91] Creating Layer inception_4e/relu_5x5_reduce
I0403 16:18:44.496914 20925 net.cpp:425] inception_4e/relu_5x5_reduce <- inception_4e/5x5_reduce
I0403 16:18:44.496932 20925 net.cpp:386] inception_4e/relu_5x5_reduce -> inception_4e/5x5_reduce (in-place)
I0403 16:18:44.497248 20925 net.cpp:141] Setting up inception_4e/relu_5x5_reduce
I0403 16:18:44.497275 20925 net.cpp:148] Top shape: 24 32 14 14 (150528)
I0403 16:18:44.497292 20925 net.cpp:156] Memory required for data: 1237333536
I0403 16:18:44.497308 20925 layer_factory.hpp:77] Creating layer inception_4e/5x5
I0403 16:18:44.497349 20925 net.cpp:91] Creating Layer inception_4e/5x5
I0403 16:18:44.497367 20925 net.cpp:425] inception_4e/5x5 <- inception_4e/5x5_reduce
I0403 16:18:44.497390 20925 net.cpp:399] inception_4e/5x5 -> inception_4e/5x5
I0403 16:18:44.499322 20925 net.cpp:141] Setting up inception_4e/5x5
I0403 16:18:44.499351 20925 net.cpp:148] Top shape: 24 128 14 14 (602112)
I0403 16:18:44.499367 20925 net.cpp:156] Memory required for data: 1239741984
I0403 16:18:44.499387 20925 layer_factory.hpp:77] Creating layer inception_4e/relu_5x5
I0403 16:18:44.499408 20925 net.cpp:91] Creating Layer inception_4e/relu_5x5
I0403 16:18:44.499425 20925 net.cpp:425] inception_4e/relu_5x5 <- inception_4e/5x5
I0403 16:18:44.499444 20925 net.cpp:386] inception_4e/relu_5x5 -> inception_4e/5x5 (in-place)
I0403 16:18:44.499644 20925 net.cpp:141] Setting up inception_4e/relu_5x5
I0403 16:18:44.499670 20925 net.cpp:148] Top shape: 24 128 14 14 (602112)
I0403 16:18:44.499686 20925 net.cpp:156] Memory required for data: 1242150432
I0403 16:18:44.499701 20925 layer_factory.hpp:77] Creating layer inception_4e/pool
I0403 16:18:44.499722 20925 net.cpp:91] Creating Layer inception_4e/pool
I0403 16:18:44.499739 20925 net.cpp:425] inception_4e/pool <- inception_4d/output_inception_4d/output_0_split_4
I0403 16:18:44.499758 20925 net.cpp:399] inception_4e/pool -> inception_4e/pool
I0403 16:18:44.499831 20925 net.cpp:141] Setting up inception_4e/pool
I0403 16:18:44.499855 20925 net.cpp:148] Top shape: 24 528 14 14 (2483712)
I0403 16:18:44.499871 20925 net.cpp:156] Memory required for data: 1252085280
I0403 16:18:44.499886 20925 layer_factory.hpp:77] Creating layer inception_4e/pool_proj
I0403 16:18:44.499909 20925 net.cpp:91] Creating Layer inception_4e/pool_proj
I0403 16:18:44.499927 20925 net.cpp:425] inception_4e/pool_proj <- inception_4e/pool
I0403 16:18:44.499948 20925 net.cpp:399] inception_4e/pool_proj -> inception_4e/pool_proj
I0403 16:18:44.501504 20925 net.cpp:141] Setting up inception_4e/pool_proj
I0403 16:18:44.501533 20925 net.cpp:148] Top shape: 24 128 14 14 (602112)
I0403 16:18:44.501564 20925 net.cpp:156] Memory required for data: 1254493728
I0403 16:18:44.501585 20925 layer_factory.hpp:77] Creating layer inception_4e/relu_pool_proj
I0403 16:18:44.501605 20925 net.cpp:91] Creating Layer inception_4e/relu_pool_proj
I0403 16:18:44.501623 20925 net.cpp:425] inception_4e/relu_pool_proj <- inception_4e/pool_proj
I0403 16:18:44.501641 20925 net.cpp:386] inception_4e/relu_pool_proj -> inception_4e/pool_proj (in-place)
I0403 16:18:44.501942 20925 net.cpp:141] Setting up inception_4e/relu_pool_proj
I0403 16:18:44.501971 20925 net.cpp:148] Top shape: 24 128 14 14 (602112)
I0403 16:18:44.501991 20925 net.cpp:156] Memory required for data: 1256902176
I0403 16:18:44.502008 20925 layer_factory.hpp:77] Creating layer inception_4e/output
I0403 16:18:44.502027 20925 net.cpp:91] Creating Layer inception_4e/output
I0403 16:18:44.502043 20925 net.cpp:425] inception_4e/output <- inception_4e/1x1
I0403 16:18:44.502060 20925 net.cpp:425] inception_4e/output <- inception_4e/3x3
I0403 16:18:44.502076 20925 net.cpp:425] inception_4e/output <- inception_4e/5x5
I0403 16:18:44.502092 20925 net.cpp:425] inception_4e/output <- inception_4e/pool_proj
I0403 16:18:44.502112 20925 net.cpp:399] inception_4e/output -> inception_4e/output
I0403 16:18:44.502164 20925 net.cpp:141] Setting up inception_4e/output
I0403 16:18:44.502190 20925 net.cpp:148] Top shape: 24 832 14 14 (3913728)
I0403 16:18:44.502207 20925 net.cpp:156] Memory required for data: 1272557088
I0403 16:18:44.502221 20925 layer_factory.hpp:77] Creating layer pool4/3x3_s2
I0403 16:18:44.502239 20925 net.cpp:91] Creating Layer pool4/3x3_s2
I0403 16:18:44.502255 20925 net.cpp:425] pool4/3x3_s2 <- inception_4e/output
I0403 16:18:44.502277 20925 net.cpp:399] pool4/3x3_s2 -> pool4/3x3_s2
I0403 16:18:44.502346 20925 net.cpp:141] Setting up pool4/3x3_s2
I0403 16:18:44.502370 20925 net.cpp:148] Top shape: 24 832 7 7 (978432)
I0403 16:18:44.502385 20925 net.cpp:156] Memory required for data: 1276470816
I0403 16:18:44.502400 20925 layer_factory.hpp:77] Creating layer pool4/3x3_s2_pool4/3x3_s2_0_split
I0403 16:18:44.502419 20925 net.cpp:91] Creating Layer pool4/3x3_s2_pool4/3x3_s2_0_split
I0403 16:18:44.502437 20925 net.cpp:425] pool4/3x3_s2_pool4/3x3_s2_0_split <- pool4/3x3_s2
I0403 16:18:44.502454 20925 net.cpp:399] pool4/3x3_s2_pool4/3x3_s2_0_split -> pool4/3x3_s2_pool4/3x3_s2_0_split_0
I0403 16:18:44.502475 20925 net.cpp:399] pool4/3x3_s2_pool4/3x3_s2_0_split -> pool4/3x3_s2_pool4/3x3_s2_0_split_1
I0403 16:18:44.502496 20925 net.cpp:399] pool4/3x3_s2_pool4/3x3_s2_0_split -> pool4/3x3_s2_pool4/3x3_s2_0_split_2
I0403 16:18:44.502519 20925 net.cpp:399] pool4/3x3_s2_pool4/3x3_s2_0_split -> pool4/3x3_s2_pool4/3x3_s2_0_split_3
I0403 16:18:44.502615 20925 net.cpp:141] Setting up pool4/3x3_s2_pool4/3x3_s2_0_split
I0403 16:18:44.502640 20925 net.cpp:148] Top shape: 24 832 7 7 (978432)
I0403 16:18:44.502656 20925 net.cpp:148] Top shape: 24 832 7 7 (978432)
I0403 16:18:44.502672 20925 net.cpp:148] Top shape: 24 832 7 7 (978432)
I0403 16:18:44.502688 20925 net.cpp:148] Top shape: 24 832 7 7 (978432)
I0403 16:18:44.502702 20925 net.cpp:156] Memory required for data: 1292125728
I0403 16:18:44.502717 20925 layer_factory.hpp:77] Creating layer inception_5a/1x1
I0403 16:18:44.502740 20925 net.cpp:91] Creating Layer inception_5a/1x1
I0403 16:18:44.502758 20925 net.cpp:425] inception_5a/1x1 <- pool4/3x3_s2_pool4/3x3_s2_0_split_0
I0403 16:18:44.502780 20925 net.cpp:399] inception_5a/1x1 -> inception_5a/1x1
I0403 16:18:44.505712 20925 net.cpp:141] Setting up inception_5a/1x1
I0403 16:18:44.505741 20925 net.cpp:148] Top shape: 24 256 7 7 (301056)
I0403 16:18:44.505758 20925 net.cpp:156] Memory required for data: 1293329952
I0403 16:18:44.505776 20925 layer_factory.hpp:77] Creating layer inception_5a/relu_1x1
I0403 16:18:44.505796 20925 net.cpp:91] Creating Layer inception_5a/relu_1x1
I0403 16:18:44.505815 20925 net.cpp:425] inception_5a/relu_1x1 <- inception_5a/1x1
I0403 16:18:44.505832 20925 net.cpp:386] inception_5a/relu_1x1 -> inception_5a/1x1 (in-place)
I0403 16:18:44.506160 20925 net.cpp:141] Setting up inception_5a/relu_1x1
I0403 16:18:44.506186 20925 net.cpp:148] Top shape: 24 256 7 7 (301056)
I0403 16:18:44.506202 20925 net.cpp:156] Memory required for data: 1294534176
I0403 16:18:44.506218 20925 layer_factory.hpp:77] Creating layer inception_5a/3x3_reduce
I0403 16:18:44.506242 20925 net.cpp:91] Creating Layer inception_5a/3x3_reduce
I0403 16:18:44.506259 20925 net.cpp:425] inception_5a/3x3_reduce <- pool4/3x3_s2_pool4/3x3_s2_0_split_1
I0403 16:18:44.506281 20925 net.cpp:399] inception_5a/3x3_reduce -> inception_5a/3x3_reduce
I0403 16:18:44.508806 20925 net.cpp:141] Setting up inception_5a/3x3_reduce
I0403 16:18:44.508837 20925 net.cpp:148] Top shape: 24 160 7 7 (188160)
I0403 16:18:44.508854 20925 net.cpp:156] Memory required for data: 1295286816
I0403 16:18:44.508873 20925 layer_factory.hpp:77] Creating layer inception_5a/relu_3x3_reduce
I0403 16:18:44.508893 20925 net.cpp:91] Creating Layer inception_5a/relu_3x3_reduce
I0403 16:18:44.508908 20925 net.cpp:425] inception_5a/relu_3x3_reduce <- inception_5a/3x3_reduce
I0403 16:18:44.508929 20925 net.cpp:386] inception_5a/relu_3x3_reduce -> inception_5a/3x3_reduce (in-place)
I0403 16:18:44.509126 20925 net.cpp:141] Setting up inception_5a/relu_3x3_reduce
I0403 16:18:44.509152 20925 net.cpp:148] Top shape: 24 160 7 7 (188160)
I0403 16:18:44.509168 20925 net.cpp:156] Memory required for data: 1296039456
I0403 16:18:44.509183 20925 layer_factory.hpp:77] Creating layer inception_5a/3x3
I0403 16:18:44.509205 20925 net.cpp:91] Creating Layer inception_5a/3x3
I0403 16:18:44.509223 20925 net.cpp:425] inception_5a/3x3 <- inception_5a/3x3_reduce
I0403 16:18:44.509246 20925 net.cpp:399] inception_5a/3x3 -> inception_5a/3x3
I0403 16:18:44.514467 20925 net.cpp:141] Setting up inception_5a/3x3
I0403 16:18:44.514498 20925 net.cpp:148] Top shape: 24 320 7 7 (376320)
I0403 16:18:44.514514 20925 net.cpp:156] Memory required for data: 1297544736
I0403 16:18:44.514533 20925 layer_factory.hpp:77] Creating layer inception_5a/relu_3x3
I0403 16:18:44.514554 20925 net.cpp:91] Creating Layer inception_5a/relu_3x3
I0403 16:18:44.514570 20925 net.cpp:425] inception_5a/relu_3x3 <- inception_5a/3x3
I0403 16:18:44.514587 20925 net.cpp:386] inception_5a/relu_3x3 -> inception_5a/3x3 (in-place)
I0403 16:18:44.514885 20925 net.cpp:141] Setting up inception_5a/relu_3x3
I0403 16:18:44.514911 20925 net.cpp:148] Top shape: 24 320 7 7 (376320)
I0403 16:18:44.514926 20925 net.cpp:156] Memory required for data: 1299050016
I0403 16:18:44.514941 20925 layer_factory.hpp:77] Creating layer inception_5a/5x5_reduce
I0403 16:18:44.514963 20925 net.cpp:91] Creating Layer inception_5a/5x5_reduce
I0403 16:18:44.514981 20925 net.cpp:425] inception_5a/5x5_reduce <- pool4/3x3_s2_pool4/3x3_s2_0_split_2
I0403 16:18:44.515010 20925 net.cpp:399] inception_5a/5x5_reduce -> inception_5a/5x5_reduce
I0403 16:18:44.516182 20925 net.cpp:141] Setting up inception_5a/5x5_reduce
I0403 16:18:44.516211 20925 net.cpp:148] Top shape: 24 32 7 7 (37632)
I0403 16:18:44.516225 20925 net.cpp:156] Memory required for data: 1299200544
I0403 16:18:44.516244 20925 layer_factory.hpp:77] Creating layer inception_5a/relu_5x5_reduce
I0403 16:18:44.516265 20925 net.cpp:91] Creating Layer inception_5a/relu_5x5_reduce
I0403 16:18:44.516281 20925 net.cpp:425] inception_5a/relu_5x5_reduce <- inception_5a/5x5_reduce
I0403 16:18:44.516299 20925 net.cpp:386] inception_5a/relu_5x5_reduce -> inception_5a/5x5_reduce (in-place)
I0403 16:18:44.516598 20925 net.cpp:141] Setting up inception_5a/relu_5x5_reduce
I0403 16:18:44.516625 20925 net.cpp:148] Top shape: 24 32 7 7 (37632)
I0403 16:18:44.516640 20925 net.cpp:156] Memory required for data: 1299351072
I0403 16:18:44.516656 20925 layer_factory.hpp:77] Creating layer inception_5a/5x5
I0403 16:18:44.516680 20925 net.cpp:91] Creating Layer inception_5a/5x5
I0403 16:18:44.516697 20925 net.cpp:425] inception_5a/5x5 <- inception_5a/5x5_reduce
I0403 16:18:44.516716 20925 net.cpp:399] inception_5a/5x5 -> inception_5a/5x5
I0403 16:18:44.518448 20925 net.cpp:141] Setting up inception_5a/5x5
I0403 16:18:44.518489 20925 net.cpp:148] Top shape: 24 128 7 7 (150528)
I0403 16:18:44.518507 20925 net.cpp:156] Memory required for data: 1299953184
I0403 16:18:44.518524 20925 layer_factory.hpp:77] Creating layer inception_5a/relu_5x5
I0403 16:18:44.518544 20925 net.cpp:91] Creating Layer inception_5a/relu_5x5
I0403 16:18:44.518561 20925 net.cpp:425] inception_5a/relu_5x5 <- inception_5a/5x5
I0403 16:18:44.518579 20925 net.cpp:386] inception_5a/relu_5x5 -> inception_5a/5x5 (in-place)
I0403 16:18:44.518770 20925 net.cpp:141] Setting up inception_5a/relu_5x5
I0403 16:18:44.518795 20925 net.cpp:148] Top shape: 24 128 7 7 (150528)
I0403 16:18:44.518810 20925 net.cpp:156] Memory required for data: 1300555296
I0403 16:18:44.518824 20925 layer_factory.hpp:77] Creating layer inception_5a/pool
I0403 16:18:44.518844 20925 net.cpp:91] Creating Layer inception_5a/pool
I0403 16:18:44.518862 20925 net.cpp:425] inception_5a/pool <- pool4/3x3_s2_pool4/3x3_s2_0_split_3
I0403 16:18:44.518878 20925 net.cpp:399] inception_5a/pool -> inception_5a/pool
I0403 16:18:44.518950 20925 net.cpp:141] Setting up inception_5a/pool
I0403 16:18:44.518975 20925 net.cpp:148] Top shape: 24 832 7 7 (978432)
I0403 16:18:44.518996 20925 net.cpp:156] Memory required for data: 1304469024
I0403 16:18:44.519012 20925 layer_factory.hpp:77] Creating layer inception_5a/pool_proj
I0403 16:18:44.519033 20925 net.cpp:91] Creating Layer inception_5a/pool_proj
I0403 16:18:44.519052 20925 net.cpp:425] inception_5a/pool_proj <- inception_5a/pool
I0403 16:18:44.519073 20925 net.cpp:399] inception_5a/pool_proj -> inception_5a/pool_proj
I0403 16:18:44.521394 20925 net.cpp:141] Setting up inception_5a/pool_proj
I0403 16:18:44.521422 20925 net.cpp:148] Top shape: 24 128 7 7 (150528)
I0403 16:18:44.521438 20925 net.cpp:156] Memory required for data: 1305071136
I0403 16:18:44.521457 20925 layer_factory.hpp:77] Creating layer inception_5a/relu_pool_proj
I0403 16:18:44.521474 20925 net.cpp:91] Creating Layer inception_5a/relu_pool_proj
I0403 16:18:44.521491 20925 net.cpp:425] inception_5a/relu_pool_proj <- inception_5a/pool_proj
I0403 16:18:44.521512 20925 net.cpp:386] inception_5a/relu_pool_proj -> inception_5a/pool_proj (in-place)
I0403 16:18:44.521805 20925 net.cpp:141] Setting up inception_5a/relu_pool_proj
I0403 16:18:44.521831 20925 net.cpp:148] Top shape: 24 128 7 7 (150528)
I0403 16:18:44.521847 20925 net.cpp:156] Memory required for data: 1305673248
I0403 16:18:44.521862 20925 layer_factory.hpp:77] Creating layer inception_5a/output
I0403 16:18:44.521878 20925 net.cpp:91] Creating Layer inception_5a/output
I0403 16:18:44.521895 20925 net.cpp:425] inception_5a/output <- inception_5a/1x1
I0403 16:18:44.521911 20925 net.cpp:425] inception_5a/output <- inception_5a/3x3
I0403 16:18:44.521929 20925 net.cpp:425] inception_5a/output <- inception_5a/5x5
I0403 16:18:44.521944 20925 net.cpp:425] inception_5a/output <- inception_5a/pool_proj
I0403 16:18:44.521965 20925 net.cpp:399] inception_5a/output -> inception_5a/output
I0403 16:18:44.522020 20925 net.cpp:141] Setting up inception_5a/output
I0403 16:18:44.522047 20925 net.cpp:148] Top shape: 24 832 7 7 (978432)
I0403 16:18:44.522063 20925 net.cpp:156] Memory required for data: 1309586976
I0403 16:18:44.522078 20925 layer_factory.hpp:77] Creating layer inception_5a/output_inception_5a/output_0_split
I0403 16:18:44.522094 20925 net.cpp:91] Creating Layer inception_5a/output_inception_5a/output_0_split
I0403 16:18:44.522110 20925 net.cpp:425] inception_5a/output_inception_5a/output_0_split <- inception_5a/output
I0403 16:18:44.522127 20925 net.cpp:399] inception_5a/output_inception_5a/output_0_split -> inception_5a/output_inception_5a/output_0_split_0
I0403 16:18:44.522150 20925 net.cpp:399] inception_5a/output_inception_5a/output_0_split -> inception_5a/output_inception_5a/output_0_split_1
I0403 16:18:44.522171 20925 net.cpp:399] inception_5a/output_inception_5a/output_0_split -> inception_5a/output_inception_5a/output_0_split_2
I0403 16:18:44.522192 20925 net.cpp:399] inception_5a/output_inception_5a/output_0_split -> inception_5a/output_inception_5a/output_0_split_3
I0403 16:18:44.522306 20925 net.cpp:141] Setting up inception_5a/output_inception_5a/output_0_split
I0403 16:18:44.522330 20925 net.cpp:148] Top shape: 24 832 7 7 (978432)
I0403 16:18:44.522346 20925 net.cpp:148] Top shape: 24 832 7 7 (978432)
I0403 16:18:44.522361 20925 net.cpp:148] Top shape: 24 832 7 7 (978432)
I0403 16:18:44.522377 20925 net.cpp:148] Top shape: 24 832 7 7 (978432)
I0403 16:18:44.522390 20925 net.cpp:156] Memory required for data: 1325241888
I0403 16:18:44.522405 20925 layer_factory.hpp:77] Creating layer inception_5b/1x1
I0403 16:18:44.522428 20925 net.cpp:91] Creating Layer inception_5b/1x1
I0403 16:18:44.522445 20925 net.cpp:425] inception_5b/1x1 <- inception_5a/output_inception_5a/output_0_split_0
I0403 16:18:44.522464 20925 net.cpp:399] inception_5b/1x1 -> inception_5b/1x1
I0403 16:18:44.526271 20925 net.cpp:141] Setting up inception_5b/1x1
I0403 16:18:44.526303 20925 net.cpp:148] Top shape: 24 384 7 7 (451584)
I0403 16:18:44.526319 20925 net.cpp:156] Memory required for data: 1327048224
I0403 16:18:44.526337 20925 layer_factory.hpp:77] Creating layer inception_5b/relu_1x1
I0403 16:18:44.526355 20925 net.cpp:91] Creating Layer inception_5b/relu_1x1
I0403 16:18:44.526372 20925 net.cpp:425] inception_5b/relu_1x1 <- inception_5b/1x1
I0403 16:18:44.526393 20925 net.cpp:386] inception_5b/relu_1x1 -> inception_5b/1x1 (in-place)
I0403 16:18:44.526697 20925 net.cpp:141] Setting up inception_5b/relu_1x1
I0403 16:18:44.526726 20925 net.cpp:148] Top shape: 24 384 7 7 (451584)
I0403 16:18:44.526742 20925 net.cpp:156] Memory required for data: 1328854560
I0403 16:18:44.526757 20925 layer_factory.hpp:77] Creating layer inception_5b/3x3_reduce
I0403 16:18:44.526780 20925 net.cpp:91] Creating Layer inception_5b/3x3_reduce
I0403 16:18:44.526798 20925 net.cpp:425] inception_5b/3x3_reduce <- inception_5a/output_inception_5a/output_0_split_1
I0403 16:18:44.526821 20925 net.cpp:399] inception_5b/3x3_reduce -> inception_5b/3x3_reduce
I0403 16:18:44.529511 20925 net.cpp:141] Setting up inception_5b/3x3_reduce
I0403 16:18:44.529541 20925 net.cpp:148] Top shape: 24 192 7 7 (225792)
I0403 16:18:44.529556 20925 net.cpp:156] Memory required for data: 1329757728
I0403 16:18:44.529574 20925 layer_factory.hpp:77] Creating layer inception_5b/relu_3x3_reduce
I0403 16:18:44.529592 20925 net.cpp:91] Creating Layer inception_5b/relu_3x3_reduce
I0403 16:18:44.529608 20925 net.cpp:425] inception_5b/relu_3x3_reduce <- inception_5b/3x3_reduce
I0403 16:18:44.529628 20925 net.cpp:386] inception_5b/relu_3x3_reduce -> inception_5b/3x3_reduce (in-place)
I0403 16:18:44.529815 20925 net.cpp:141] Setting up inception_5b/relu_3x3_reduce
I0403 16:18:44.529840 20925 net.cpp:148] Top shape: 24 192 7 7 (225792)
I0403 16:18:44.529855 20925 net.cpp:156] Memory required for data: 1330660896
I0403 16:18:44.529870 20925 layer_factory.hpp:77] Creating layer inception_5b/3x3
I0403 16:18:44.529892 20925 net.cpp:91] Creating Layer inception_5b/3x3
I0403 16:18:44.529911 20925 net.cpp:425] inception_5b/3x3 <- inception_5b/3x3_reduce
I0403 16:18:44.529933 20925 net.cpp:399] inception_5b/3x3 -> inception_5b/3x3
I0403 16:18:44.536667 20925 net.cpp:141] Setting up inception_5b/3x3
I0403 16:18:44.536695 20925 net.cpp:148] Top shape: 24 384 7 7 (451584)
I0403 16:18:44.536710 20925 net.cpp:156] Memory required for data: 1332467232
I0403 16:18:44.536728 20925 layer_factory.hpp:77] Creating layer inception_5b/relu_3x3
I0403 16:18:44.536746 20925 net.cpp:91] Creating Layer inception_5b/relu_3x3
I0403 16:18:44.536762 20925 net.cpp:425] inception_5b/relu_3x3 <- inception_5b/3x3
I0403 16:18:44.536782 20925 net.cpp:386] inception_5b/relu_3x3 -> inception_5b/3x3 (in-place)
I0403 16:18:44.537081 20925 net.cpp:141] Setting up inception_5b/relu_3x3
I0403 16:18:44.537106 20925 net.cpp:148] Top shape: 24 384 7 7 (451584)
I0403 16:18:44.537120 20925 net.cpp:156] Memory required for data: 1334273568
I0403 16:18:44.537134 20925 layer_factory.hpp:77] Creating layer inception_5b/5x5_reduce
I0403 16:18:44.537173 20925 net.cpp:91] Creating Layer inception_5b/5x5_reduce
I0403 16:18:44.537192 20925 net.cpp:425] inception_5b/5x5_reduce <- inception_5a/output_inception_5a/output_0_split_2
I0403 16:18:44.537214 20925 net.cpp:399] inception_5b/5x5_reduce -> inception_5b/5x5_reduce
I0403 16:18:44.538460 20925 net.cpp:141] Setting up inception_5b/5x5_reduce
I0403 16:18:44.538486 20925 net.cpp:148] Top shape: 24 48 7 7 (56448)
I0403 16:18:44.538502 20925 net.cpp:156] Memory required for data: 1334499360
I0403 16:18:44.538519 20925 layer_factory.hpp:77] Creating layer inception_5b/relu_5x5_reduce
I0403 16:18:44.538539 20925 net.cpp:91] Creating Layer inception_5b/relu_5x5_reduce
I0403 16:18:44.538555 20925 net.cpp:425] inception_5b/relu_5x5_reduce <- inception_5b/5x5_reduce
I0403 16:18:44.538573 20925 net.cpp:386] inception_5b/relu_5x5_reduce -> inception_5b/5x5_reduce (in-place)
I0403 16:18:44.538936 20925 net.cpp:141] Setting up inception_5b/relu_5x5_reduce
I0403 16:18:44.538961 20925 net.cpp:148] Top shape: 24 48 7 7 (56448)
I0403 16:18:44.538976 20925 net.cpp:156] Memory required for data: 1334725152
I0403 16:18:44.538998 20925 layer_factory.hpp:77] Creating layer inception_5b/5x5
I0403 16:18:44.539019 20925 net.cpp:91] Creating Layer inception_5b/5x5
I0403 16:18:44.539036 20925 net.cpp:425] inception_5b/5x5 <- inception_5b/5x5_reduce
I0403 16:18:44.539053 20925 net.cpp:399] inception_5b/5x5 -> inception_5b/5x5
I0403 16:18:44.541065 20925 net.cpp:141] Setting up inception_5b/5x5
I0403 16:18:44.541092 20925 net.cpp:148] Top shape: 24 128 7 7 (150528)
I0403 16:18:44.541108 20925 net.cpp:156] Memory required for data: 1335327264
I0403 16:18:44.541126 20925 layer_factory.hpp:77] Creating layer inception_5b/relu_5x5
I0403 16:18:44.541146 20925 net.cpp:91] Creating Layer inception_5b/relu_5x5
I0403 16:18:44.541162 20925 net.cpp:425] inception_5b/relu_5x5 <- inception_5b/5x5
I0403 16:18:44.541179 20925 net.cpp:386] inception_5b/relu_5x5 -> inception_5b/5x5 (in-place)
I0403 16:18:44.541366 20925 net.cpp:141] Setting up inception_5b/relu_5x5
I0403 16:18:44.541393 20925 net.cpp:148] Top shape: 24 128 7 7 (150528)
I0403 16:18:44.541409 20925 net.cpp:156] Memory required for data: 1335929376
I0403 16:18:44.541422 20925 layer_factory.hpp:77] Creating layer inception_5b/pool
I0403 16:18:44.541440 20925 net.cpp:91] Creating Layer inception_5b/pool
I0403 16:18:44.541455 20925 net.cpp:425] inception_5b/pool <- inception_5a/output_inception_5a/output_0_split_3
I0403 16:18:44.541473 20925 net.cpp:399] inception_5b/pool -> inception_5b/pool
I0403 16:18:44.541545 20925 net.cpp:141] Setting up inception_5b/pool
I0403 16:18:44.541569 20925 net.cpp:148] Top shape: 24 832 7 7 (978432)
I0403 16:18:44.541584 20925 net.cpp:156] Memory required for data: 1339843104
I0403 16:18:44.541596 20925 layer_factory.hpp:77] Creating layer inception_5b/pool_proj
I0403 16:18:44.541618 20925 net.cpp:91] Creating Layer inception_5b/pool_proj
I0403 16:18:44.541635 20925 net.cpp:425] inception_5b/pool_proj <- inception_5b/pool
I0403 16:18:44.541656 20925 net.cpp:399] inception_5b/pool_proj -> inception_5b/pool_proj
I0403 16:18:44.544005 20925 net.cpp:141] Setting up inception_5b/pool_proj
I0403 16:18:44.544033 20925 net.cpp:148] Top shape: 24 128 7 7 (150528)
I0403 16:18:44.544047 20925 net.cpp:156] Memory required for data: 1340445216
I0403 16:18:44.544065 20925 layer_factory.hpp:77] Creating layer inception_5b/relu_pool_proj
I0403 16:18:44.544085 20925 net.cpp:91] Creating Layer inception_5b/relu_pool_proj
I0403 16:18:44.544102 20925 net.cpp:425] inception_5b/relu_pool_proj <- inception_5b/pool_proj
I0403 16:18:44.544119 20925 net.cpp:386] inception_5b/relu_pool_proj -> inception_5b/pool_proj (in-place)
I0403 16:18:44.544411 20925 net.cpp:141] Setting up inception_5b/relu_pool_proj
I0403 16:18:44.544436 20925 net.cpp:148] Top shape: 24 128 7 7 (150528)
I0403 16:18:44.544451 20925 net.cpp:156] Memory required for data: 1341047328
I0403 16:18:44.544466 20925 layer_factory.hpp:77] Creating layer inception_5b/output
I0403 16:18:44.544483 20925 net.cpp:91] Creating Layer inception_5b/output
I0403 16:18:44.544512 20925 net.cpp:425] inception_5b/output <- inception_5b/1x1
I0403 16:18:44.544529 20925 net.cpp:425] inception_5b/output <- inception_5b/3x3
I0403 16:18:44.544545 20925 net.cpp:425] inception_5b/output <- inception_5b/5x5
I0403 16:18:44.544561 20925 net.cpp:425] inception_5b/output <- inception_5b/pool_proj
I0403 16:18:44.544580 20925 net.cpp:399] inception_5b/output -> inception_5b/output
I0403 16:18:44.544631 20925 net.cpp:141] Setting up inception_5b/output
I0403 16:18:44.544656 20925 net.cpp:148] Top shape: 24 1024 7 7 (1204224)
I0403 16:18:44.544670 20925 net.cpp:156] Memory required for data: 1345864224
I0403 16:18:44.544685 20925 layer_factory.hpp:77] Creating layer pool5/7x7_s1
I0403 16:18:44.544702 20925 net.cpp:91] Creating Layer pool5/7x7_s1
I0403 16:18:44.544718 20925 net.cpp:425] pool5/7x7_s1 <- inception_5b/output
I0403 16:18:44.544737 20925 net.cpp:399] pool5/7x7_s1 -> pool5/7x7_s1
I0403 16:18:44.544950 20925 net.cpp:141] Setting up pool5/7x7_s1
I0403 16:18:44.544975 20925 net.cpp:148] Top shape: 24 1024 1 1 (24576)
I0403 16:18:44.544994 20925 net.cpp:156] Memory required for data: 1345962528
I0403 16:18:44.545009 20925 layer_factory.hpp:77] Creating layer pool5/drop_7x7_s1
I0403 16:18:44.545029 20925 net.cpp:91] Creating Layer pool5/drop_7x7_s1
I0403 16:18:44.545047 20925 net.cpp:425] pool5/drop_7x7_s1 <- pool5/7x7_s1
I0403 16:18:44.545064 20925 net.cpp:386] pool5/drop_7x7_s1 -> pool5/7x7_s1 (in-place)
I0403 16:18:44.545112 20925 net.cpp:141] Setting up pool5/drop_7x7_s1
I0403 16:18:44.545136 20925 net.cpp:148] Top shape: 24 1024 1 1 (24576)
I0403 16:18:44.545152 20925 net.cpp:156] Memory required for data: 1346060832
I0403 16:18:44.545166 20925 layer_factory.hpp:77] Creating layer loss3/classifier_plantvillage
I0403 16:18:44.545186 20925 net.cpp:91] Creating Layer loss3/classifier_plantvillage
I0403 16:18:44.545202 20925 net.cpp:425] loss3/classifier_plantvillage <- pool5/7x7_s1
I0403 16:18:44.545222 20925 net.cpp:399] loss3/classifier_plantvillage -> loss3/classifier_plantvillage
I0403 16:18:44.545639 20925 net.cpp:141] Setting up loss3/classifier_plantvillage
I0403 16:18:44.545662 20925 net.cpp:148] Top shape: 24 38 (912)
I0403 16:18:44.545676 20925 net.cpp:156] Memory required for data: 1346064480
I0403 16:18:44.545694 20925 layer_factory.hpp:77] Creating layer loss3/classifier_plantvillage_loss3/classifier_plantvillage_0_split
I0403 16:18:44.545711 20925 net.cpp:91] Creating Layer loss3/classifier_plantvillage_loss3/classifier_plantvillage_0_split
I0403 16:18:44.545727 20925 net.cpp:425] loss3/classifier_plantvillage_loss3/classifier_plantvillage_0_split <- loss3/classifier_plantvillage
I0403 16:18:44.545744 20925 net.cpp:399] loss3/classifier_plantvillage_loss3/classifier_plantvillage_0_split -> loss3/classifier_plantvillage_loss3/classifier_plantvillage_0_split_0
I0403 16:18:44.545766 20925 net.cpp:399] loss3/classifier_plantvillage_loss3/classifier_plantvillage_0_split -> loss3/classifier_plantvillage_loss3/classifier_plantvillage_0_split_1
I0403 16:18:44.545786 20925 net.cpp:399] loss3/classifier_plantvillage_loss3/classifier_plantvillage_0_split -> loss3/classifier_plantvillage_loss3/classifier_plantvillage_0_split_2
I0403 16:18:44.545806 20925 net.cpp:399] loss3/classifier_plantvillage_loss3/classifier_plantvillage_0_split -> loss3/classifier_plantvillage_loss3/classifier_plantvillage_0_split_3
I0403 16:18:44.545907 20925 net.cpp:141] Setting up loss3/classifier_plantvillage_loss3/classifier_plantvillage_0_split
I0403 16:18:44.545928 20925 net.cpp:148] Top shape: 24 38 (912)
I0403 16:18:44.545943 20925 net.cpp:148] Top shape: 24 38 (912)
I0403 16:18:44.545958 20925 net.cpp:148] Top shape: 24 38 (912)
I0403 16:18:44.545974 20925 net.cpp:148] Top shape: 24 38 (912)
I0403 16:18:44.545994 20925 net.cpp:156] Memory required for data: 1346079072
I0403 16:18:44.546022 20925 layer_factory.hpp:77] Creating layer loss1/loss
I0403 16:18:44.546052 20925 net.cpp:91] Creating Layer loss1/loss
I0403 16:18:44.546072 20925 net.cpp:425] loss1/loss <- loss1/classifier_plantvillage_loss1/classifier_plantvillage_0_split_0
I0403 16:18:44.546103 20925 net.cpp:425] loss1/loss <- label_data_1_split_0
…
