…
I0403 15:56:03.480664 20547 net.cpp:313] The NetState phase (1) differed from the phase (0) specified by a rule in layer data
I0403 15:56:03.481864 20547 net.cpp:49] Initializing net from parameters: 
state {
  phase: TEST
}
layer {
  name: "data"
  type: "Data"
  top: "data"
  top: "label"
  include {
    phase: TEST
  }
  transform_param {
    mirror: false
    crop_size: 224
    mean_file: "/home/mohanty/data/final_dataset/lmdb/color-40-60/mean.binaryproto"
  }
  data_param {
    source: "/home/mohanty/data/final_dataset/lmdb/color-40-60/test_db"
    batch_size: 24
    backend: LMDB
  }
}
layer {
  name: "conv1/7x7_s2"
  type: "Convolution"
  bottom: "data"
  top: "conv1/7x7_s2"
  param {
    lr_mult: 1
    decay_mult: 1
  }
  param {
    lr_mult: 2
    decay_mult: 0
  }
  convolution_param {
    num_output: 64
    pad: 3
    kernel_size: 7
    stride: 2
    weight_filler {
      type: "xavier"
      std: 0.1
    }
    bias_filler {
      type: "constant"
      value: 0.2
    }
  }
}
layer {
  name: "conv1/relu_7x7"
  type: "ReLU"
  bottom: "conv1/7x7_s2"
  top: "conv1/7x7_s2"
}
layer {
  name: "pool1/3x3_s2"
  type: "Pooling"
  bottom: "conv1/7x7_s2"
  top: "pool1/3x3_s2"
  pooling_param {
    pool: MAX
    kernel_size: 3
    stride: 2
  }
}
layer {
  name: "pool1/norm1"
  type: "LRN"
  bottom: "pool1/3x3_s2"
  top: "pool1/norm1"
  lrn_param {
    local_size: 5
    alpha: 0.0001
    beta: 0.75
  }
}
layer {
  name: "conv2/3x3_reduce"
  type: "Convolution"
  bottom: "pool1/norm1"
  top: "conv2/3x3_reduce"
  param {
    lr_mult: 1
    decay_mult: 1
  }
  param {
    lr_mult: 2
    decay_mult: 0
  }
  convolution_param {
    num_output: 64
    kernel_size: 1
    weight_filler {
      type: "xavier"
      std: 0.1
    }
    bias_filler {
      type: "constant"
      value: 0.2
    }
  }
}
layer {
  name: "conv2/relu_3x3_reduce"
  type: "ReLU"
  bottom: "conv2/3x3_reduce"
  top: "conv2/3x3_reduce"
}
layer {
  name: "conv2/3x3"
  type: "Convolution"
  bottom: "conv2/3x3_reduce"
  top: "conv2/3x3"
  param {
    lr_mult: 1
    decay_mult: 1
  }
  param {
    lr_mult: 2
    decay_mult: 0
  }
  convolution_param {
    num_output: 192
    pad: 1
    kernel_size: 3
    weight_filler {
      type: "xavier"
      std: 0.03
    }
    bias_filler {
      type: "constant"
      value: 0.2
    }
  }
}
layer {
  name: "conv2/relu_3x3"
  type: "ReLU"
  bottom: "conv2/3x3"
  top: "conv2/3x3"
}
layer {
  name: "conv2/norm2"
  type: "LRN"
  bottom: "conv2/3x3"
  top: "conv2/norm2"
  lrn_param {
    local_size: 5
    alpha: 0.0001
    beta: 0.75
  }
}
layer {
  name: "pool2/3x3_s2"
  type: "Pooling"
  bottom: "conv2/norm2"
  top: "pool2/3x3_s2"
  pooling_param {
    pool: MAX
    kernel_size: 3
    stride: 2
  }
}
layer {
  name: "inception_3a/1x1"
  type: "Convolution"
  bottom: "pool2/3x3_s2"
  top: "inception_3a/1x1"
  param {
    lr_mult: 1
    decay_mult: 1
  }
  param {
    lr_mult: 2
    decay_mult: 0
  }
  convolution_param {
    num_output: 64
    kernel_size: 1
    weight_filler {
      type: "xavier"
      std: 0.03
    }
    bias_filler {
      type: "constant"
      value: 0.2
    }
  }
}
layer {
  name: "inception_3a/relu_1x1"
  type: "ReLU"
  bottom: "inception_3a/1x1"
  top: "inception_3a/1x1"
}
layer {
  name: "inception_3a/3x3_reduce"
  type: "Convolution"
  bottom: "pool2/3x3_s2"
  top: "inception_3a/3x3_reduce"
  param {
    lr_mult: 1
    decay_mult: 1
  }
  param {
    lr_mult: 2
    decay_mult: 0
  }
  convolution_param {
    num_output: 96
    kernel_size: 1
    weight_filler {
      type: "xavier"
      std: 0.09
    }
    bias_filler {
      type: "constant"
      value: 0.2
    }
  }
}
layer {
  name: "inception_3a/relu_3x3_reduce"
  type: "ReLU"
  bottom: "inception_3a/3x3_reduce"
  top: "inception_3a/3x3_reduce"
}
layer {
  name: "inception_3a/3x3"
  type: "Convolution"
  bottom: "inception_3a/3x3_reduce"
  top: "inception_3a/3x3"
  param {
    lr_mult: 1
    decay_mult: 1
  }
  param {
    lr_mult: 2
    decay_mult: 0
  }
  convolution_param {
    num_output: 128
    pad: 1
    kernel_size: 3
    weight_filler {
      type: "xavier"
      std: 0.03
    }
    bias_filler {
      type: "constant"
      value: 0.2
    }
  }
}
layer {
  name: "inception_3a/relu_3x3"
  type: "ReLU"
  bottom: "inception_3a/3x3"
  top: "inception_3a/3x3"
}
layer {
  name: "inception_3a/5x5_reduce"
  type: "Convolution"
  bottom: "pool2/3x3_s2"
  top: "inception_3a/5x5_reduce"
  param {
    lr_mult: 1
    decay_mult: 1
  }
  param {
    lr_mult: 2
    decay_mult: 0
  }
  convolution_param {
    num_output: 16
    kernel_size: 1
    weight_filler {
      type: "xavier"
      std: 0.2
    }
    bias_filler {
      type: "constant"
      value: 0.2
    }
  }
}
layer {
  name: "inception_3a/relu_5x5_reduce"
  type: "ReLU"
  bottom: "inception_3a/5x5_reduce"
  top: "inception_3a/5x5_reduce"
}
layer {
  name: "inception_3a/5x5"
  type: "Convolution"
  bottom: "inception_3a/5x5_reduce"
  top: "inception_3a/5x5"
  param {
    lr_mult: 1
    decay_mult: 1
  }
  param {
    lr_mult: 2
    decay_mult: 0
  }
  convolution_param {
    num_output: 32
    pad: 2
    kernel_size: 5
    weight_filler {
      type: "xavier"
      std: 0.03
    }
    bias_filler {
      type: "constant"
      value: 0.2
    }
  }
}
layer {
  name: "inception_3a/relu_5x5"
  type: "ReLU"
  bottom: "inception_3a/5x5"
  top: "inception_3a/5x5"
}
layer {
  name: "inception_3a/pool"
  type: "Pooling"
  bottom: "pool2/3x3_s2"
  top: "inception_3a/pool"
  pooling_param {
    pool: MAX
    kernel_size: 3
    stride: 1
    pad: 1
  }
}
layer {
  name: "inception_3a/pool_proj"
  type: "Convolution"
  bottom: "inception_3a/pool"
  top: "inception_3a/pool_proj"
  param {
    lr_mult: 1
    decay_mult: 1
  }
  param {
    lr_mult: 2
    decay_mult: 0
  }
  convolution_param {
    num_output: 32
    kernel_size: 1
    weight_filler {
      type: "xavier"
      std: 0.1
    }
    bias_filler {
      type: "constant"
      value: 0.2
    }
  }
}
layer {
  name: "inception_3a/relu_pool_proj"
  type: "ReLU"
  bottom: "inception_3a/pool_proj"
  top: "inception_3a/pool_proj"
}
layer {
  name: "inception_3a/output"
  type: "Concat"
  bottom: "inception_3a/1x1"
  bottom: "inception_3a/3x3"
  bottom: "inception_3a/5x5"
  bottom: "inception_3a/pool_proj"
  top: "inception_3a/output"
}
layer {
  name: "inception_3b/1x1"
  type: "Convolution"
  bottom: "inception_3a/output"
  top: "inception_3b/1x1"
  param {
    lr_mult: 1
    decay_mult: 1
  }
  param {
    lr_mult: 2
    decay_mult: 0
  }
  convolution_param {
    num_output: 128
    kernel_size: 1
    weight_filler {
      type: "xavier"
      std: 0.03
    }
    bias_filler {
      type: "constant"
      value: 0.2
    }
  }
}
layer {
  name: "inception_3b/relu_1x1"
  type: "ReLU"
  bottom: "inception_3b/1x1"
  top: "inception_3b/1x1"
}
layer {
  name: "inception_3b/3x3_reduce"
  type: "Convolution"
  bottom: "inception_3a/output"
  top: "inception_3b/3x3_reduce"
  param {
    lr_mult: 1
    decay_mult: 1
  }
  param {
    lr_mult: 2
    decay_mult: 0
  }
  convolution_param {
    num_output: 128
    kernel_size: 1
    weight_filler {
      type: "xavier"
      std: 0.09
    }
    bias_filler {
      type: "constant"
      value: 0.2
    }
  }
}
layer {
  name: "inception_3b/relu_3x3_reduce"
  type: "ReLU"
  bottom: "inception_3b/3x3_reduce"
  top: "inception_3b/3x3_reduce"
}
layer {
  name: "inception_3b/3x3"
  type: "Convolution"
  bottom: "inception_3b/3x3_reduce"
  top: "inception_3b/3x3"
  param {
    lr_mult: 1
    decay_mult: 1
  }
  param {
    lr_mult: 2
    decay_mult: 0
  }
  convolution_param {
    num_output: 192
    pad: 1
    kernel_size: 3
    weight_filler {
      type: "xavier"
      std: 0.03
    }
    bias_filler {
      type: "constant"
      value: 0.2
    }
  }
}
layer {
  name: "inception_3b/relu_3x3"
  type: "ReLU"
  bottom: "inception_3b/3x3"
  top: "inception_3b/3x3"
}
layer {
  name: "inception_3b/5x5_reduce"
  type: "Convolution"
  bottom: "inception_3a/output"
  top: "inception_3b/5x5_reduce"
  param {
    lr_mult: 1
    decay_mult: 1
  }
  param {
    lr_mult: 2
    decay_mult: 0
  }
  convolution_param {
    num_output: 32
    kernel_size: 1
    weight_filler {
      type: "xavier"
      std: 0.2
    }
    bias_filler {
      type: "constant"
      value: 0.2
    }
  }
}
layer {
  name: "inception_3b/relu_5x5_reduce"
  type: "ReLU"
  bottom: "inception_3b/5x5_reduce"
  top: "inception_3b/5x5_reduce"
}
layer {
  name: "inception_3b/5x5"
  type: "Convolution"
  bottom: "inception_3b/5x5_reduce"
  top: "inception_3b/5x5"
  param {
    lr_mult: 1
    decay_mult: 1
  }
  param {
    lr_mult: 2
    decay_mult: 0
  }
  convolution_param {
    num_output: 96
    pad: 2
    kernel_size: 5
    weight_filler {
      type: "xavier"
      std: 0.03
    }
    bias_filler {
      type: "constant"
      value: 0.2
    }
  }
}
layer {
  name: "inception_3b/relu_5x5"
  type: "ReLU"
  bottom: "inception_3b/5x5"
  top: "inception_3b/5x5"
}
layer {
  name: "inception_3b/pool"
  type: "Pooling"
  bottom: "inception_3a/output"
  top: "inception_3b/pool"
  pooling_param {
    pool: MAX
    kernel_size: 3
    stride: 1
    pad: 1
  }
}
layer {
  name: "inception_3b/pool_proj"
  type: "Convolution"
  bottom: "inception_3b/pool"
  top: "inception_3b/pool_proj"
  param {
    lr_mult: 1
    decay_mult: 1
  }
  param {
    lr_mult: 2
    decay_mult: 0
  }
  convolution_param {
    num_output: 64
    kernel_size: 1
    weight_filler {
      type: "xavier"
      std: 0.1
    }
    bias_filler {
      type: "constant"
      value: 0.2
    }
  }
}
layer {
  name: "inception_3b/relu_pool_proj"
  type: "ReLU"
  bottom: "inception_3b/pool_proj"
  top: "inception_3b/pool_proj"
}
layer {
  name: "inception_3b/output"
  type: "Concat"
  bottom: "inception_3b/1x1"
  bottom: "inception_3b/3x3"
  bottom: "inception_3b/5x5"
  bottom: "inception_3b/pool_proj"
  top: "inception_3b/output"
}
layer {
  name: "pool3/3x3_s2"
  type: "Pooling"
  bottom: "inception_3b/output"
  top: "pool3/3x3_s2"
  pooling_param {
    pool: MAX
    kernel_size: 3
    stride: 2
  }
}
layer {
  name: "inception_4a/1x1"
  type: "Convolution"
  bottom: "pool3/3x3_s2"
  top: "inception_4a/1x1"
  param {
    lr_mult: 1
    decay_mult: 1
  }
  param {
    lr_mult: 2
    decay_mult: 0
  }
  convolution_param {
    num_output: 192
    kernel_size: 1
    weight_filler {
      type: "xavier"
      std: 0.03
    }
    bias_filler {
      type: "constant"
      value: 0.2
    }
  }
}
layer {
  name: "inception_4a/relu_1x1"
  type: "ReLU"
  bottom: "inception_4a/1x1"
  top: "inception_4a/1x1"
}
layer {
  name: "inception_4a/3x3_reduce"
  type: "Convolution"
  bottom: "pool3/3x3_s2"
  top: "inception_4a/3x3_reduce"
  param {
    lr_mult: 1
    decay_mult: 1
  }
  param {
    lr_mult: 2
    decay_mult: 0
  }
  convolution_param {
    num_output: 96
    kernel_size: 1
    weight_filler {
      type: "xavier"
      std: 0.09
    }
    bias_filler {
      type: "constant"
      value: 0.2
    }
  }
}
layer {
  name: "inception_4a/relu_3x3_reduce"
  type: "ReLU"
  bottom: "inception_4a/3x3_reduce"
  top: "inception_4a/3x3_reduce"
}
layer {
  name: "inception_4a/3x3"
  type: "Convolution"
  bottom: "inception_4a/3x3_reduce"
  top: "inception_4a/3x3"
  param {
    lr_mult: 1
    decay_mult: 1
  }
  param {
    lr_mult: 2
    decay_mult: 0
  }
  convolution_param {
    num_output: 208
    pad: 1
    kernel_size: 3
    weight_filler {
      type: "xavier"
      std: 0.03
    }
    bias_filler {
      type: "constant"
      value: 0.2
    }
  }
}
layer {
  name: "inception_4a/relu_3x3"
  type: "ReLU"
  bottom: "inception_4a/3x3"
  top: "inception_4a/3x3"
}
layer {
  name: "inception_4a/5x5_reduce"
  type: "Convolution"
  bottom: "pool3/3x3_s2"
  top: "inception_4a/5x5_reduce"
  param {
    lr_mult: 1
    decay_mult: 1
  }
  param {
    lr_mult: 2
    decay_mult: 0
  }
  convolution_param {
    num_output: 16
    kernel_size: 1
    weight_filler {
      type: "xavier"
      std: 0.2
    }
    bias_filler {
      type: "constant"
      value: 0.2
    }
  }
}
layer {
  name: "inception_4a/relu_5x5_reduce"
  type: "ReLU"
  bottom: "inception_4a/5x5_reduce"
  top: "inception_4a/5x5_reduce"
}
layer {
  name: "inception_4a/5x5"
  type: "Convolution"
  bottom: "inception_4a/5x5_reduce"
  top: "inception_4a/5x5"
  param {
    lr_mult: 1
    decay_mult: 1
  }
  param {
    lr_mult: 2
    decay_mult: 0
  }
  convolution_param {
    num_output: 48
    pad: 2
    kernel_size: 5
    weight_filler {
      type: "xavier"
      std: 0.03
    }
    bias_filler {
      type: "constant"
      value: 0.2
    }
  }
}
layer {
  name: "inception_4a/relu_5x5"
  type: "ReLU"
  bottom: "inception_4a/5x5"
  top: "inception_4a/5x5"
}
layer {
  name: "inception_4a/pool"
  type: "Pooling"
  bottom: "pool3/3x3_s2"
  top: "inception_4a/pool"
  pooling_param {
    pool: MAX
    kernel_size: 3
    stride: 1
    pad: 1
  }
}
layer {
  name: "inception_4a/pool_proj"
  type: "Convolution"
  bottom: "inception_4a/pool"
  top: "inception_4a/pool_proj"
  param {
    lr_mult: 1
    decay_mult: 1
  }
  param {
    lr_mult: 2
    decay_mult: 0
  }
  convolution_param {
    num_output: 64
    kernel_size: 1
    weight_filler {
      type: "xavier"
      std: 0.1
    }
    bias_filler {
      type: "constant"
      value: 0.2
    }
  }
}
layer {
  name: "inception_4a/relu_pool_proj"
  type: "ReLU"
  bottom: "inception_4a/pool_proj"
  top: "inception_4a/pool_proj"
}
layer {
  name: "inception_4a/output"
  type: "Concat"
  bottom: "inception_4a/1x1"
  bottom: "inception_4a/3x3"
  bottom: "inception_4a/5x5"
  bottom: "inception_4a/pool_proj"
  top: "inception_4a/output"
}
layer {
  name: "loss1/ave_pool"
  type: "Pooling"
  bottom: "inception_4a/output"
  top: "loss1/ave_pool"
  pooling_param {
    pool: AVE
    kernel_size: 5
    stride: 3
  }
}
layer {
  name: "loss1/conv"
  type: "Convolution"
  bottom: "loss1/ave_pool"
  top: "loss1/conv"
  param {
    lr_mult: 1
    decay_mult: 1
  }
  param {
    lr_mult: 2
    decay_mult: 0
  }
  convolution_param {
    num_output: 128
    kernel_size: 1
    weight_filler {
      type: "xavier"
      std: 0.08
    }
    bias_filler {
      type: "constant"
      value: 0.2
    }
  }
}
layer {
  name: "loss1/relu_conv"
  type: "ReLU"
  bottom: "loss1/conv"
  top: "loss1/conv"
}
layer {
  name: "loss1/fc"
  type: "InnerProduct"
  bottom: "loss1/conv"
  top: "loss1/fc"
  param {
    lr_mult: 1
    decay_mult: 1
  }
  param {
    lr_mult: 2
    decay_mult: 0
  }
  inner_product_param {
    num_output: 1024
    weight_filler {
      type: "xavier"
      std: 0.02
    }
    bias_filler {
      type: "constant"
      value: 0.2
    }
  }
}
layer {
  name: "loss1/relu_fc"
  type: "ReLU"
  bottom: "loss1/fc"
  top: "loss1/fc"
}
layer {
  name: "loss1/drop_fc"
  type: "Dropout"
  bottom: "loss1/fc"
  top: "loss1/fc"
  dropout_param {
    dropout_ratio: 0.7
  }
}
layer {
  name: "loss1/classifier_plantvillage"
  type: "InnerProduct"
  bottom: "loss1/fc"
  top: "loss1/classifier_plantvillage"
  param {
    lr_mult: 1
    decay_mult: 1
  }
  param {
    lr_mult: 2
    decay_mult: 0
  }
  inner_product_param {
    num_output: 38
    weight_filler {
      type: "xavier"
      std: 0.0009765625
    }
    bias_filler {
      type: "constant"
      value: 0
    }
  }
}
layer {
  name: "inception_4b/1x1"
  type: "Convolution"
  bottom: "inception_4a/output"
  top: "inception_4b/1x1"
  param {
    lr_mult: 1
    decay_mult: 1
  }
  param {
    lr_mult: 2
    decay_mult: 0
  }
  convolution_param {
    num_output: 160
    kernel_size: 1
    weight_filler {
      type: "xavier"
      std: 0.03
    }
    bias_filler {
      type: "constant"
      value: 0.2
    }
  }
}
layer {
  name: "inception_4b/relu_1x1"
  type: "ReLU"
  bottom: "inception_4b/1x1"
  top: "inception_4b/1x1"
}
layer {
  name: "inception_4b/3x3_reduce"
  type: "Convolution"
  bottom: "inception_4a/output"
  top: "inception_4b/3x3_reduce"
  param {
    lr_mult: 1
    decay_mult: 1
  }
  param {
    lr_mult: 2
    decay_mult: 0
  }
  convolution_param {
    num_output: 112
    kernel_size: 1
    weight_filler {
      type: "xavier"
      std: 0.09
    }
    bias_filler {
      type: "constant"
      value: 0.2
    }
  }
}
layer {
  name: "inception_4b/relu_3x3_reduce"
  type: "ReLU"
  bottom: "inception_4b/3x3_reduce"
  top: "inception_4b/3x3_reduce"
}
layer {
  name: "inception_4b/3x3"
  type: "Convolution"
  bottom: "inception_4b/3x3_reduce"
  top: "inception_4b/3x3"
  param {
    lr_mult: 1
    decay_mult: 1
  }
  param {
    lr_mult: 2
    decay_mult: 0
  }
  convolution_param {
    num_output: 224
    pad: 1
    kernel_size: 3
    weight_filler {
      type: "xavier"
      std: 0.03
    }
    bias_filler {
      type: "constant"
      value: 0.2
    }
  }
}
layer {
  name: "inception_4b/relu_3x3"
  type: "ReLU"
  bottom: "inception_4b/3x3"
  top: "inception_4b/3x3"
}
layer {
  name: "inception_4b/5x5_reduce"
  type: "Convolution"
  bottom: "inception_4a/output"
  top: "inception_4b/5x5_reduce"
  param {
    lr_mult: 1
    decay_mult: 1
  }
  param {
    lr_mult: 2
    decay_mult: 0
  }
  convolution_param {
    num_output: 24
    kernel_size: 1
    weight_filler {
      type: "xavier"
      std: 0.2
    }
    bias_filler {
      type: "constant"
      value: 0.2
    }
  }
}
layer {
  name: "inception_4b/relu_5x5_reduce"
  type: "ReLU"
  bottom: "inception_4b/5x5_reduce"
  top: "inception_4b/5x5_reduce"
}
layer {
  name: "inception_4b/5x5"
  type: "Convolution"
  bottom: "inception_4b/5x5_reduce"
  top: "inception_4b/5x5"
  param {
    lr_mult: 1
    decay_mult: 1
  }
  param {
    lr_mult: 2
    decay_mult: 0
  }
  convolution_param {
    num_output: 64
    pad: 2
    kernel_size: 5
    weight_filler {
      type: "xavier"
      std: 0.03
    }
    bias_filler {
      type: "constant"
      value: 0.2
    }
  }
}
layer {
  name: "inception_4b/relu_5x5"
  type: "ReLU"
  bottom: "inception_4b/5x5"
  top: "inception_4b/5x5"
}
layer {
  name: "inception_4b/pool"
  type: "Pooling"
  bottom: "inception_4a/output"
  top: "inception_4b/pool"
  pooling_param {
    pool: MAX
    kernel_size: 3
    stride: 1
    pad: 1
  }
}
layer {
  name: "inception_4b/pool_proj"
  type: "Convolution"
  bottom: "inception_4b/pool"
  top: "inception_4b/pool_proj"
  param {
    lr_mult: 1
    decay_mult: 1
  }
  param {
    lr_mult: 2
    decay_mult: 0
  }
  convolution_param {
    num_output: 64
    kernel_size: 1
    weight_filler {
      type: "xavier"
      std: 0.1
    }
    bias_filler {
      type: "constant"
      value: 0.2
    }
  }
}
layer {
  name: "inception_4b/relu_pool_proj"
  type: "ReLU"
  bottom: "inception_4b/pool_proj"
  top: "inception_4b/pool_proj"
}
layer {
  name: "inception_4b/output"
  type: "Concat"
  bottom: "inception_4b/1x1"
  bottom: "inception_4b/3x3"
  bottom: "inception_4b/5x5"
  bottom: "inception_4b/pool_proj"
  top: "inception_4b/output"
}
layer {
  name: "inception_4c/1x1"
  type: "Convolution"
  bottom: "inception_4b/output"
  top: "inception_4c/1x1"
  param {
    lr_mult: 1
    decay_mult: 1
  }
  param {
    lr_mult: 2
    decay_mult: 0
  }
  convolution_param {
    num_output: 128
    kernel_size: 1
    weight_filler {
      type: "xavier"
      std: 0.03
    }
    bias_filler {
      type: "constant"
      value: 0.2
    }
  }
}
layer {
  name: "inception_4c/relu_1x1"
  type: "ReLU"
  bottom: "inception_4c/1x1"
  top: "inception_4c/1x1"
}
layer {
  name: "inception_4c/3x3_reduce"
  type: "Convolution"
  bottom: "inception_4b/output"
  top: "inception_4c/3x3_reduce"
  param {
    lr_mult: 1
    decay_mult: 1
  }
  param {
    lr_mult: 2
    decay_mult: 0
  }
  convolution_param {
    num_output: 128
    kernel_size: 1
    weight_filler {
      type: "xavier"
      std: 0.09
    }
    bias_filler {
      type: "constant"
      value: 0.2
    }
  }
}
layer {
  name: "inception_4c/relu_3x3_reduce"
  type: "ReLU"
  bottom: "inception_4c/3x3_reduce"
  top: "inception_4c/3x3_reduce"
}
layer {
  name: "inception_4c/3x3"
  type: "Convolution"
  bottom: "inception_4c/3x3_reduce"
  top: "inception_4c/3x3"
  param {
    lr_mult: 1
    decay_mult: 1
  }
  param {
    lr_mult: 2
    decay_mult: 0
  }
  convolution_param {
    num_output: 256
    pad: 1
    kernel_size: 3
    weight_filler {
      type: "xavier"
      std: 0.03
    }
    bias_filler {
      type: "constant"
      value: 0.2
    }
  }
}
layer {
  name: "inception_4c/relu_3x3"
  type: "ReLU"
  bottom: "inception_4c/3x3"
  top: "inception_4c/3x3"
}
layer {
  name: "inception_4c/5x5_reduce"
  type: "Convolution"
  bottom: "inception_4b/output"
  top: "inception_4c/5x5_reduce"
  param {
    lr_mult: 1
    decay_mult: 1
  }
  param {
    lr_mult: 2
    decay_mult: 0
  }
  convolution_param {
    num_output: 24
    kernel_size: 1
    weight_filler {
      type: "xavier"
      std: 0.2
    }
    bias_filler {
      type: "constant"
      value: 0.2
    }
  }
}
layer {
  name: "inception_4c/relu_5x5_reduce"
  type: "ReLU"
  bottom: "inception_4c/5x5_reduce"
  top: "inception_4c/5x5_reduce"
}
layer {
  name: "inception_4c/5x5"
  type: "Convolution"
  bottom: "inception_4c/5x5_reduce"
  top: "inception_4c/5x5"
  param {
    lr_mult: 1
    decay_mult: 1
  }
  param {
    lr_mult: 2
    decay_mult: 0
  }
  convolution_param {
    num_output: 64
    pad: 2
    kernel_size: 5
    weight_filler {
      type: "xavier"
      std: 0.03
    }
    bias_filler {
      type: "constant"
      value: 0.2
    }
  }
}
layer {
  name: "inception_4c/relu_5x5"
  type: "ReLU"
  bottom: "inception_4c/5x5"
  top: "inception_4c/5x5"
}
layer {
  name: "inception_4c/pool"
  type: "Pooling"
  bottom: "inception_4b/output"
  top: "inception_4c/pool"
  pooling_param {
    pool: MAX
    kernel_size: 3
    stride: 1
    pad: 1
  }
}
layer {
  name: "inception_4c/pool_proj"
  type: "Convolution"
  bottom: "inception_4c/pool"
  top: "inception_4c/pool_proj"
  param {
    lr_mult: 1
    decay_mult: 1
  }
  param {
    lr_mult: 2
    decay_mult: 0
  }
  convolution_param {
    num_output: 64
    kernel_size: 1
    weight_filler {
      type: "xavier"
      std: 0.1
    }
    bias_filler {
      type: "constant"
      value: 0.2
    }
  }
}
layer {
  name: "inception_4c/relu_pool_proj"
  type: "ReLU"
  bottom: "inception_4c/pool_proj"
  top: "inception_4c/pool_proj"
}
layer {
  name: "inception_4c/output"
  type: "Concat"
  bottom: "inception_4c/1x1"
  bottom: "inception_4c/3x3"
  bottom: "inception_4c/5x5"
  bottom: "inception_4c/pool_proj"
  top: "inception_4c/output"
}
layer {
  name: "inception_4d/1x1"
  type: "Convolution"
  bottom: "inception_4c/output"
  top: "inception_4d/1x1"
  param {
    lr_mult: 1
    decay_mult: 1
  }
  param {
    lr_mult: 2
    decay_mult: 0
  }
  convolution_param {
    num_output: 112
    kernel_size: 1
    weight_filler {
      type: "xavier"
      std: 0.03
    }
    bias_filler {
      type: "constant"
      value: 0.2
    }
  }
}
layer {
  name: "inception_4d/relu_1x1"
  type: "ReLU"
  bottom: "inception_4d/1x1"
  top: "inception_4d/1x1"
}
layer {
  name: "inception_4d/3x3_reduce"
  type: "Convolution"
  bottom: "inception_4c/output"
  top: "inception_4d/3x3_reduce"
  param {
    lr_mult: 1
    decay_mult: 1
  }
  param {
    lr_mult: 2
    decay_mult: 0
  }
  convolution_param {
    num_output: 144
    kernel_size: 1
    weight_filler {
      type: "xavier"
      std: 0.09
    }
    bias_filler {
      type: "constant"
      value: 0.2
    }
  }
}
layer {
  name: "inception_4d/relu_3x3_reduce"
  type: "ReLU"
  bottom: "inception_4d/3x3_reduce"
  top: "inception_4d/3x3_reduce"
}
layer {
  name: "inception_4d/3x3"
  type: "Convolution"
  bottom: "inception_4d/3x3_reduce"
  top: "inception_4d/3x3"
  param {
    lr_mult: 1
    decay_mult: 1
  }
  param {
    lr_mult: 2
    decay_mult: 0
  }
  convolution_param {
    num_output: 288
    pad: 1
    kernel_size: 3
    weight_filler {
      type: "xavier"
      std: 0.03
    }
    bias_filler {
      type: "constant"
      value: 0.2
    }
  }
}
layer {
  name: "inception_4d/relu_3x3"
  type: "ReLU"
  bottom: "inception_4d/3x3"
  top: "inception_4d/3x3"
}
layer {
  name: "inception_4d/5x5_reduce"
  type: "Convolution"
  bottom: "inception_4c/output"
  top: "inception_4d/5x5_reduce"
  param {
    lr_mult: 1
    decay_mult: 1
  }
  param {
    lr_mult: 2
    decay_mult: 0
  }
  convolution_param {
    num_output: 32
    kernel_size: 1
    weight_filler {
      type: "xavier"
      std: 0.2
    }
    bias_filler {
      type: "constant"
      value: 0.2
    }
  }
}
layer {
  name: "inception_4d/relu_5x5_reduce"
  type: "ReLU"
  bottom: "inception_4d/5x5_reduce"
  top: "inception_4d/5x5_reduce"
}
layer {
  name: "inception_4d/5x5"
  type: "Convolution"
  bottom: "inception_4d/5x5_reduce"
  top: "inception_4d/5x5"
  param {
    lr_mult: 1
    decay_mult: 1
  }
  param {
    lr_mult: 2
    decay_mult: 0
  }
  convolution_param {
    num_output: 64
    pad: 2
    kernel_size: 5
    weight_filler {
      type: "xavier"
      std: 0.03
    }
    bias_filler {
      type: "constant"
      value: 0.2
    }
  }
}
layer {
  name: "inception_4d/relu_5x5"
  type: "ReLU"
  bottom: "inception_4d/5x5"
  top: "inception_4d/5x5"
}
layer {
  name: "inception_4d/pool"
  type: "Pooling"
  bottom: "inception_4c/output"
  top: "inception_4d/pool"
  pooling_param {
    pool: MAX
    kernel_size: 3
    stride: 1
    pad: 1
  }
}
layer {
  name: "inception_4d/pool_proj"
  type: "Convolution"
  bottom: "inception_4d/pool"
  top: "inception_4d/pool_proj"
  param {
    lr_mult: 1
    decay_mult: 1
  }
  param {
    lr_mult: 2
    decay_mult: 0
  }
  convolution_param {
    num_output: 64
    kernel_size: 1
    weight_filler {
      type: "xavier"
      std: 0.1
    }
    bias_filler {
      type: "constant"
      value: 0.2
    }
  }
}
layer {
  name: "inception_4d/relu_pool_proj"
  type: "ReLU"
  bottom: "inception_4d/pool_proj"
  top: "inception_4d/pool_proj"
}
layer {
  name: "inception_4d/output"
  type: "Concat"
  bottom: "inception_4d/1x1"
  bottom: "inception_4d/3x3"
  bottom: "inception_4d/5x5"
  bottom: "inception_4d/pool_proj"
  top: "inception_4d/output"
}
layer {
  name: "loss2/ave_pool"
  type: "Pooling"
  bottom: "inception_4d/output"
  top: "loss2/ave_pool"
  pooling_param {
    pool: AVE
    kernel_size: 5
    stride: 3
  }
}
layer {
  name: "loss2/conv"
  type: "Convolution"
  bottom: "loss2/ave_pool"
  top: "loss2/conv"
  param {
    lr_mult: 1
    decay_mult: 1
  }
  param {
    lr_mult: 2
    decay_mult: 0
  }
  convolution_param {
    num_output: 128
    kernel_size: 1
    weight_filler {
      type: "xavier"
      std: 0.08
    }
    bias_filler {
      type: "constant"
      value: 0.2
    }
  }
}
layer {
  name: "loss2/relu_conv"
  type: "ReLU"
  bottom: "loss2/conv"
  top: "loss2/conv"
}
layer {
  name: "loss2/fc"
  type: "InnerProduct"
  bottom: "loss2/conv"
  top: "loss2/fc"
  param {
    lr_mult: 1
    decay_mult: 1
  }
  param {
    lr_mult: 2
    decay_mult: 0
  }
  inner_product_param {
    num_output: 1024
    weight_filler {
      type: "xavier"
      std: 0.02
    }
    bias_filler {
      type: "constant"
      value: 0.2
    }
  }
}
layer {
  name: "loss2/relu_fc"
  type: "ReLU"
  bottom: "loss2/fc"
  top: "loss2/fc"
}
layer {
  name: "loss2/drop_fc"
  type: "Dropout"
  bottom: "loss2/fc"
  top: "loss2/fc"
  dropout_param {
    dropout_ratio: 0.7
  }
}
layer {
  name: "loss2/classifier_plantvillage"
  type: "InnerProduct"
  bottom: "loss2/fc"
  top: "loss2/classifier_plantvillage"
  param {
    lr_mult: 1
    decay_mult: 1
  }
  param {
    lr_mult: 2
    decay_mult: 0
  }
  inner_product_param {
    num_output: 38
    weight_filler {
      type: "xavier"
      std: 0.0009765625
    }
    bias_filler {
      type: "constant"
      value: 0
    }
  }
}
layer {
  name: "inception_4e/1x1"
  type: "Convolution"
  bottom: "inception_4d/output"
  top: "inception_4e/1x1"
  param {
    lr_mult: 1
    decay_mult: 1
  }
  param {
    lr_mult: 2
    decay_mult: 0
  }
  convolution_param {
    num_output: 256
    kernel_size: 1
    weight_filler {
      type: "xavier"
      std: 0.03
    }
    bias_filler {
      type: "constant"
      value: 0.2
    }
  }
}
layer {
  name: "inception_4e/relu_1x1"
  type: "ReLU"
  bottom: "inception_4e/1x1"
  top: "inception_4e/1x1"
}
layer {
  name: "inception_4e/3x3_reduce"
  type: "Convolution"
  bottom: "inception_4d/output"
  top: "inception_4e/3x3_reduce"
  param {
    lr_mult: 1
    decay_mult: 1
  }
  param {
    lr_mult: 2
    decay_mult: 0
  }
  convolution_param {
    num_output: 160
    kernel_size: 1
    weight_filler {
      type: "xavier"
      std: 0.09
    }
    bias_filler {
      type: "constant"
      value: 0.2
    }
  }
}
layer {
  name: "inception_4e/relu_3x3_reduce"
  type: "ReLU"
  bottom: "inception_4e/3x3_reduce"
  top: "inception_4e/3x3_reduce"
}
layer {
  name: "inception_4e/3x3"
  type: "Convolution"
  bottom: "inception_4e/3x3_reduce"
  top: "inception_4e/3x3"
  param {
    lr_mult: 1
    decay_mult: 1
  }
  param {
    lr_mult: 2
    decay_mult: 0
  }
  convolution_param {
    num_output: 320
    pad: 1
    kernel_size: 3
    weight_filler {
      type: "xavier"
      std: 0.03
    }
    bias_filler {
      type: "constant"
      value: 0.2
    }
  }
}
layer {
  name: "inception_4e/relu_3x3"
  type: "ReLU"
  bottom: "inception_4e/3x3"
  top: "inception_4e/3x3"
}
layer {
  name: "inception_4e/5x5_reduce"
  type: "Convolution"
  bottom: "inception_4d/output"
  top: "inception_4e/5x5_reduce"
  param {
    lr_mult: 1
    decay_mult: 1
  }
  param {
    lr_mult: 2
    decay_mult: 0
  }
  convolution_param {
    num_output: 32
    kernel_size: 1
    weight_filler {
      type: "xavier"
      std: 0.2
    }
    bias_filler {
      type: "constant"
      value: 0.2
    }
  }
}
layer {
  name: "inception_4e/relu_5x5_reduce"
  type: "ReLU"
  bottom: "inception_4e/5x5_reduce"
  top: "inception_4e/5x5_reduce"
}
layer {
  name: "inception_4e/5x5"
  type: "Convolution"
  bottom: "inception_4e/5x5_reduce"
  top: "inception_4e/5x5"
  p
I0403 15:56:03.483198 20547 layer_factory.hpp:77] Creating layer data
I0403 15:56:03.483850 20547 net.cpp:91] Creating Layer data
I0403 15:56:03.483886 20547 net.cpp:399] data -> data
I0403 15:56:03.483937 20547 net.cpp:399] data -> label
I0403 15:56:03.483973 20547 data_transformer.cpp:25] Loading mean file from: /home/mohanty/data/final_dataset/lmdb/color-40-60/mean.binaryproto
I0403 15:56:03.490484 20552 db_lmdb.cpp:38] Opened lmdb /home/mohanty/data/final_dataset/lmdb/color-40-60/test_db
I0403 15:56:03.499361 20547 data_layer.cpp:41] output data size: 24,3,224,224
I0403 15:56:03.530134 20547 net.cpp:141] Setting up data
I0403 15:56:03.530256 20547 net.cpp:148] Top shape: 24 3 224 224 (3612672)
I0403 15:56:03.530278 20547 net.cpp:148] Top shape: 24 (24)
I0403 15:56:03.530293 20547 net.cpp:156] Memory required for data: 14450784
I0403 15:56:03.530320 20547 layer_factory.hpp:77] Creating layer label_data_1_split
I0403 15:56:03.530347 20547 net.cpp:91] Creating Layer label_data_1_split
I0403 15:56:03.530364 20547 net.cpp:425] label_data_1_split <- label
I0403 15:56:03.530397 20547 net.cpp:399] label_data_1_split -> label_data_1_split_0
I0403 15:56:03.530424 20547 net.cpp:399] label_data_1_split -> label_data_1_split_1
I0403 15:56:03.530444 20547 net.cpp:399] label_data_1_split -> label_data_1_split_2
I0403 15:56:03.530464 20547 net.cpp:399] label_data_1_split -> label_data_1_split_3
I0403 15:56:03.530483 20547 net.cpp:399] label_data_1_split -> label_data_1_split_4
I0403 15:56:03.530503 20547 net.cpp:399] label_data_1_split -> label_data_1_split_5
I0403 15:56:03.530521 20547 net.cpp:399] label_data_1_split -> label_data_1_split_6
I0403 15:56:03.530541 20547 net.cpp:399] label_data_1_split -> label_data_1_split_7
I0403 15:56:03.530560 20547 net.cpp:399] label_data_1_split -> label_data_1_split_8
I0403 15:56:03.530580 20547 net.cpp:399] label_data_1_split -> label_data_1_split_9
I0403 15:56:03.530694 20547 net.cpp:141] Setting up label_data_1_split
I0403 15:56:03.530717 20547 net.cpp:148] Top shape: 24 (24)
I0403 15:56:03.530735 20547 net.cpp:148] Top shape: 24 (24)
I0403 15:56:03.530750 20547 net.cpp:148] Top shape: 24 (24)
I0403 15:56:03.530766 20547 net.cpp:148] Top shape: 24 (24)
I0403 15:56:03.530781 20547 net.cpp:148] Top shape: 24 (24)
I0403 15:56:03.530796 20547 net.cpp:148] Top shape: 24 (24)
I0403 15:56:03.530810 20547 net.cpp:148] Top shape: 24 (24)
I0403 15:56:03.530827 20547 net.cpp:148] Top shape: 24 (24)
I0403 15:56:03.530841 20547 net.cpp:148] Top shape: 24 (24)
I0403 15:56:03.530858 20547 net.cpp:148] Top shape: 24 (24)
I0403 15:56:03.530901 20547 net.cpp:156] Memory required for data: 14451744
I0403 15:56:03.530917 20547 layer_factory.hpp:77] Creating layer conv1/7x7_s2
I0403 15:56:03.530948 20547 net.cpp:91] Creating Layer conv1/7x7_s2
I0403 15:56:03.530966 20547 net.cpp:425] conv1/7x7_s2 <- data
I0403 15:56:03.530988 20547 net.cpp:399] conv1/7x7_s2 -> conv1/7x7_s2
I0403 15:56:03.672260 20547 net.cpp:141] Setting up conv1/7x7_s2
I0403 15:56:03.672356 20547 net.cpp:148] Top shape: 24 64 112 112 (19267584)
I0403 15:56:03.672374 20547 net.cpp:156] Memory required for data: 91522080
I0403 15:56:03.672404 20547 layer_factory.hpp:77] Creating layer conv1/relu_7x7
I0403 15:56:03.672430 20547 net.cpp:91] Creating Layer conv1/relu_7x7
I0403 15:56:03.672447 20547 net.cpp:425] conv1/relu_7x7 <- conv1/7x7_s2
I0403 15:56:03.672472 20547 net.cpp:386] conv1/relu_7x7 -> conv1/7x7_s2 (in-place)
I0403 15:56:03.672791 20547 net.cpp:141] Setting up conv1/relu_7x7
I0403 15:56:03.672819 20547 net.cpp:148] Top shape: 24 64 112 112 (19267584)
I0403 15:56:03.672838 20547 net.cpp:156] Memory required for data: 168592416
I0403 15:56:03.672854 20547 layer_factory.hpp:77] Creating layer pool1/3x3_s2
I0403 15:56:03.672879 20547 net.cpp:91] Creating Layer pool1/3x3_s2
I0403 15:56:03.672897 20547 net.cpp:425] pool1/3x3_s2 <- conv1/7x7_s2
I0403 15:56:03.672917 20547 net.cpp:399] pool1/3x3_s2 -> pool1/3x3_s2
I0403 15:56:03.673002 20547 net.cpp:141] Setting up pool1/3x3_s2
I0403 15:56:03.673027 20547 net.cpp:148] Top shape: 24 64 56 56 (4816896)
I0403 15:56:03.673043 20547 net.cpp:156] Memory required for data: 187860000
I0403 15:56:03.673058 20547 layer_factory.hpp:77] Creating layer pool1/norm1
I0403 15:56:03.673085 20547 net.cpp:91] Creating Layer pool1/norm1
I0403 15:56:03.673104 20547 net.cpp:425] pool1/norm1 <- pool1/3x3_s2
I0403 15:56:03.673121 20547 net.cpp:399] pool1/norm1 -> pool1/norm1
I0403 15:56:03.673430 20547 net.cpp:141] Setting up pool1/norm1
I0403 15:56:03.673459 20547 net.cpp:148] Top shape: 24 64 56 56 (4816896)
I0403 15:56:03.673473 20547 net.cpp:156] Memory required for data: 207127584
I0403 15:56:03.673488 20547 layer_factory.hpp:77] Creating layer conv2/3x3_reduce
I0403 15:56:03.673516 20547 net.cpp:91] Creating Layer conv2/3x3_reduce
I0403 15:56:03.673533 20547 net.cpp:425] conv2/3x3_reduce <- pool1/norm1
I0403 15:56:03.673554 20547 net.cpp:399] conv2/3x3_reduce -> conv2/3x3_reduce
I0403 15:56:03.674968 20547 net.cpp:141] Setting up conv2/3x3_reduce
I0403 15:56:03.675005 20547 net.cpp:148] Top shape: 24 64 56 56 (4816896)
I0403 15:56:03.675022 20547 net.cpp:156] Memory required for data: 226395168
I0403 15:56:03.675043 20547 layer_factory.hpp:77] Creating layer conv2/relu_3x3_reduce
I0403 15:56:03.675063 20547 net.cpp:91] Creating Layer conv2/relu_3x3_reduce
I0403 15:56:03.675078 20547 net.cpp:425] conv2/relu_3x3_reduce <- conv2/3x3_reduce
I0403 15:56:03.675096 20547 net.cpp:386] conv2/relu_3x3_reduce -> conv2/3x3_reduce (in-place)
I0403 15:56:03.675384 20547 net.cpp:141] Setting up conv2/relu_3x3_reduce
I0403 15:56:03.675415 20547 net.cpp:148] Top shape: 24 64 56 56 (4816896)
I0403 15:56:03.675431 20547 net.cpp:156] Memory required for data: 245662752
I0403 15:56:03.675446 20547 layer_factory.hpp:77] Creating layer conv2/3x3
I0403 15:56:03.675472 20547 net.cpp:91] Creating Layer conv2/3x3
I0403 15:56:03.675492 20547 net.cpp:425] conv2/3x3 <- conv2/3x3_reduce
I0403 15:56:03.675516 20547 net.cpp:399] conv2/3x3 -> conv2/3x3
I0403 15:56:03.677857 20547 net.cpp:141] Setting up conv2/3x3
I0403 15:56:03.677889 20547 net.cpp:148] Top shape: 24 192 56 56 (14450688)
I0403 15:56:03.677906 20547 net.cpp:156] Memory required for data: 303465504
I0403 15:56:03.677927 20547 layer_factory.hpp:77] Creating layer conv2/relu_3x3
I0403 15:56:03.677947 20547 net.cpp:91] Creating Layer conv2/relu_3x3
I0403 15:56:03.677963 20547 net.cpp:425] conv2/relu_3x3 <- conv2/3x3
I0403 15:56:03.677981 20547 net.cpp:386] conv2/relu_3x3 -> conv2/3x3 (in-place)
I0403 15:56:03.678165 20547 net.cpp:141] Setting up conv2/relu_3x3
I0403 15:56:03.678191 20547 net.cpp:148] Top shape: 24 192 56 56 (14450688)
I0403 15:56:03.678237 20547 net.cpp:156] Memory required for data: 361268256
I0403 15:56:03.678253 20547 layer_factory.hpp:77] Creating layer conv2/norm2
I0403 15:56:03.678274 20547 net.cpp:91] Creating Layer conv2/norm2
I0403 15:56:03.678292 20547 net.cpp:425] conv2/norm2 <- conv2/3x3
I0403 15:56:03.678309 20547 net.cpp:399] conv2/norm2 -> conv2/norm2
I0403 15:56:03.678622 20547 net.cpp:141] Setting up conv2/norm2
I0403 15:56:03.678652 20547 net.cpp:148] Top shape: 24 192 56 56 (14450688)
I0403 15:56:03.678668 20547 net.cpp:156] Memory required for data: 419071008
I0403 15:56:03.678683 20547 layer_factory.hpp:77] Creating layer pool2/3x3_s2
I0403 15:56:03.678701 20547 net.cpp:91] Creating Layer pool2/3x3_s2
I0403 15:56:03.678716 20547 net.cpp:425] pool2/3x3_s2 <- conv2/norm2
I0403 15:56:03.678735 20547 net.cpp:399] pool2/3x3_s2 -> pool2/3x3_s2
I0403 15:56:03.678787 20547 net.cpp:141] Setting up pool2/3x3_s2
I0403 15:56:03.678810 20547 net.cpp:148] Top shape: 24 192 28 28 (3612672)
I0403 15:56:03.678825 20547 net.cpp:156] Memory required for data: 433521696
I0403 15:56:03.678841 20547 layer_factory.hpp:77] Creating layer pool2/3x3_s2_pool2/3x3_s2_0_split
I0403 15:56:03.678859 20547 net.cpp:91] Creating Layer pool2/3x3_s2_pool2/3x3_s2_0_split
I0403 15:56:03.678874 20547 net.cpp:425] pool2/3x3_s2_pool2/3x3_s2_0_split <- pool2/3x3_s2
I0403 15:56:03.678894 20547 net.cpp:399] pool2/3x3_s2_pool2/3x3_s2_0_split -> pool2/3x3_s2_pool2/3x3_s2_0_split_0
I0403 15:56:03.678915 20547 net.cpp:399] pool2/3x3_s2_pool2/3x3_s2_0_split -> pool2/3x3_s2_pool2/3x3_s2_0_split_1
I0403 15:56:03.678935 20547 net.cpp:399] pool2/3x3_s2_pool2/3x3_s2_0_split -> pool2/3x3_s2_pool2/3x3_s2_0_split_2
I0403 15:56:03.678953 20547 net.cpp:399] pool2/3x3_s2_pool2/3x3_s2_0_split -> pool2/3x3_s2_pool2/3x3_s2_0_split_3
I0403 15:56:03.679040 20547 net.cpp:141] Setting up pool2/3x3_s2_pool2/3x3_s2_0_split
I0403 15:56:03.679065 20547 net.cpp:148] Top shape: 24 192 28 28 (3612672)
I0403 15:56:03.679082 20547 net.cpp:148] Top shape: 24 192 28 28 (3612672)
I0403 15:56:03.679097 20547 net.cpp:148] Top shape: 24 192 28 28 (3612672)
I0403 15:56:03.679113 20547 net.cpp:148] Top shape: 24 192 28 28 (3612672)
I0403 15:56:03.679126 20547 net.cpp:156] Memory required for data: 491324448
I0403 15:56:03.679141 20547 layer_factory.hpp:77] Creating layer inception_3a/1x1
I0403 15:56:03.679163 20547 net.cpp:91] Creating Layer inception_3a/1x1
I0403 15:56:03.679180 20547 net.cpp:425] inception_3a/1x1 <- pool2/3x3_s2_pool2/3x3_s2_0_split_0
I0403 15:56:03.679201 20547 net.cpp:399] inception_3a/1x1 -> inception_3a/1x1
I0403 15:56:03.680778 20547 net.cpp:141] Setting up inception_3a/1x1
I0403 15:56:03.680809 20547 net.cpp:148] Top shape: 24 64 28 28 (1204224)
I0403 15:56:03.680837 20547 net.cpp:156] Memory required for data: 496141344
I0403 15:56:03.680856 20547 layer_factory.hpp:77] Creating layer inception_3a/relu_1x1
I0403 15:56:03.680874 20547 net.cpp:91] Creating Layer inception_3a/relu_1x1
I0403 15:56:03.680891 20547 net.cpp:425] inception_3a/relu_1x1 <- inception_3a/1x1
I0403 15:56:03.680910 20547 net.cpp:386] inception_3a/relu_1x1 -> inception_3a/1x1 (in-place)
I0403 15:56:03.681094 20547 net.cpp:141] Setting up inception_3a/relu_1x1
I0403 15:56:03.681119 20547 net.cpp:148] Top shape: 24 64 28 28 (1204224)
I0403 15:56:03.681134 20547 net.cpp:156] Memory required for data: 500958240
I0403 15:56:03.681149 20547 layer_factory.hpp:77] Creating layer inception_3a/3x3_reduce
I0403 15:56:03.681172 20547 net.cpp:91] Creating Layer inception_3a/3x3_reduce
I0403 15:56:03.681190 20547 net.cpp:425] inception_3a/3x3_reduce <- pool2/3x3_s2_pool2/3x3_s2_0_split_1
I0403 15:56:03.681211 20547 net.cpp:399] inception_3a/3x3_reduce -> inception_3a/3x3_reduce
I0403 15:56:03.682967 20547 net.cpp:141] Setting up inception_3a/3x3_reduce
I0403 15:56:03.683004 20547 net.cpp:148] Top shape: 24 96 28 28 (1806336)
I0403 15:56:03.683022 20547 net.cpp:156] Memory required for data: 508183584
I0403 15:56:03.683043 20547 layer_factory.hpp:77] Creating layer inception_3a/relu_3x3_reduce
I0403 15:56:03.683079 20547 net.cpp:91] Creating Layer inception_3a/relu_3x3_reduce
I0403 15:56:03.683097 20547 net.cpp:425] inception_3a/relu_3x3_reduce <- inception_3a/3x3_reduce
I0403 15:56:03.683118 20547 net.cpp:386] inception_3a/relu_3x3_reduce -> inception_3a/3x3_reduce (in-place)
I0403 15:56:03.683305 20547 net.cpp:141] Setting up inception_3a/relu_3x3_reduce
I0403 15:56:03.683333 20547 net.cpp:148] Top shape: 24 96 28 28 (1806336)
I0403 15:56:03.683348 20547 net.cpp:156] Memory required for data: 515408928
I0403 15:56:03.683364 20547 layer_factory.hpp:77] Creating layer inception_3a/3x3
I0403 15:56:03.683384 20547 net.cpp:91] Creating Layer inception_3a/3x3
I0403 15:56:03.683401 20547 net.cpp:425] inception_3a/3x3 <- inception_3a/3x3_reduce
I0403 15:56:03.683423 20547 net.cpp:399] inception_3a/3x3 -> inception_3a/3x3
I0403 15:56:03.685063 20547 net.cpp:141] Setting up inception_3a/3x3
I0403 15:56:03.685093 20547 net.cpp:148] Top shape: 24 128 28 28 (2408448)
I0403 15:56:03.685109 20547 net.cpp:156] Memory required for data: 525042720
I0403 15:56:03.685127 20547 layer_factory.hpp:77] Creating layer inception_3a/relu_3x3
I0403 15:56:03.685144 20547 net.cpp:91] Creating Layer inception_3a/relu_3x3
I0403 15:56:03.685160 20547 net.cpp:425] inception_3a/relu_3x3 <- inception_3a/3x3
I0403 15:56:03.685179 20547 net.cpp:386] inception_3a/relu_3x3 -> inception_3a/3x3 (in-place)
I0403 15:56:03.685451 20547 net.cpp:141] Setting up inception_3a/relu_3x3
I0403 15:56:03.685479 20547 net.cpp:148] Top shape: 24 128 28 28 (2408448)
I0403 15:56:03.685495 20547 net.cpp:156] Memory required for data: 534676512
I0403 15:56:03.685510 20547 layer_factory.hpp:77] Creating layer inception_3a/5x5_reduce
I0403 15:56:03.685531 20547 net.cpp:91] Creating Layer inception_3a/5x5_reduce
I0403 15:56:03.685549 20547 net.cpp:425] inception_3a/5x5_reduce <- pool2/3x3_s2_pool2/3x3_s2_0_split_2
I0403 15:56:03.685570 20547 net.cpp:399] inception_3a/5x5_reduce -> inception_3a/5x5_reduce
I0403 15:56:03.686519 20547 net.cpp:141] Setting up inception_3a/5x5_reduce
I0403 15:56:03.686547 20547 net.cpp:148] Top shape: 24 16 28 28 (301056)
I0403 15:56:03.686561 20547 net.cpp:156] Memory required for data: 535880736
I0403 15:56:03.686579 20547 layer_factory.hpp:77] Creating layer inception_3a/relu_5x5_reduce
I0403 15:56:03.686600 20547 net.cpp:91] Creating Layer inception_3a/relu_5x5_reduce
I0403 15:56:03.686616 20547 net.cpp:425] inception_3a/relu_5x5_reduce <- inception_3a/5x5_reduce
I0403 15:56:03.686633 20547 net.cpp:386] inception_3a/relu_5x5_reduce -> inception_3a/5x5_reduce (in-place)
I0403 15:56:03.686924 20547 net.cpp:141] Setting up inception_3a/relu_5x5_reduce
I0403 15:56:03.686950 20547 net.cpp:148] Top shape: 24 16 28 28 (301056)
I0403 15:56:03.686964 20547 net.cpp:156] Memory required for data: 537084960
I0403 15:56:03.686980 20547 layer_factory.hpp:77] Creating layer inception_3a/5x5
I0403 15:56:03.687007 20547 net.cpp:91] Creating Layer inception_3a/5x5
I0403 15:56:03.687026 20547 net.cpp:425] inception_3a/5x5 <- inception_3a/5x5_reduce
I0403 15:56:03.687047 20547 net.cpp:399] inception_3a/5x5 -> inception_3a/5x5
I0403 15:56:03.688042 20547 net.cpp:141] Setting up inception_3a/5x5
I0403 15:56:03.688071 20547 net.cpp:148] Top shape: 24 32 28 28 (602112)
I0403 15:56:03.688087 20547 net.cpp:156] Memory required for data: 539493408
I0403 15:56:03.688105 20547 layer_factory.hpp:77] Creating layer inception_3a/relu_5x5
I0403 15:56:03.688123 20547 net.cpp:91] Creating Layer inception_3a/relu_5x5
I0403 15:56:03.688138 20547 net.cpp:425] inception_3a/relu_5x5 <- inception_3a/5x5
I0403 15:56:03.688158 20547 net.cpp:386] inception_3a/relu_5x5 -> inception_3a/5x5 (in-place)
I0403 15:56:03.688328 20547 net.cpp:141] Setting up inception_3a/relu_5x5
I0403 15:56:03.688352 20547 net.cpp:148] Top shape: 24 32 28 28 (602112)
I0403 15:56:03.688366 20547 net.cpp:156] Memory required for data: 541901856
I0403 15:56:03.688381 20547 layer_factory.hpp:77] Creating layer inception_3a/pool
I0403 15:56:03.688398 20547 net.cpp:91] Creating Layer inception_3a/pool
I0403 15:56:03.688415 20547 net.cpp:425] inception_3a/pool <- pool2/3x3_s2_pool2/3x3_s2_0_split_3
I0403 15:56:03.688447 20547 net.cpp:399] inception_3a/pool -> inception_3a/pool
I0403 15:56:03.688505 20547 net.cpp:141] Setting up inception_3a/pool
I0403 15:56:03.688529 20547 net.cpp:148] Top shape: 24 192 28 28 (3612672)
I0403 15:56:03.688542 20547 net.cpp:156] Memory required for data: 556352544
I0403 15:56:03.688557 20547 layer_factory.hpp:77] Creating layer inception_3a/pool_proj
I0403 15:56:03.688581 20547 net.cpp:91] Creating Layer inception_3a/pool_proj
I0403 15:56:03.688598 20547 net.cpp:425] inception_3a/pool_proj <- inception_3a/pool
I0403 15:56:03.688616 20547 net.cpp:399] inception_3a/pool_proj -> inception_3a/pool_proj
I0403 15:56:03.689569 20547 net.cpp:141] Setting up inception_3a/pool_proj
I0403 15:56:03.689597 20547 net.cpp:148] Top shape: 24 32 28 28 (602112)
I0403 15:56:03.689612 20547 net.cpp:156] Memory required for data: 558760992
I0403 15:56:03.689636 20547 layer_factory.hpp:77] Creating layer inception_3a/relu_pool_proj
I0403 15:56:03.689657 20547 net.cpp:91] Creating Layer inception_3a/relu_pool_proj
I0403 15:56:03.689673 20547 net.cpp:425] inception_3a/relu_pool_proj <- inception_3a/pool_proj
I0403 15:56:03.689690 20547 net.cpp:386] inception_3a/relu_pool_proj -> inception_3a/pool_proj (in-place)
I0403 15:56:03.689970 20547 net.cpp:141] Setting up inception_3a/relu_pool_proj
I0403 15:56:03.690004 20547 net.cpp:148] Top shape: 24 32 28 28 (602112)
I0403 15:56:03.690037 20547 net.cpp:156] Memory required for data: 561169440
I0403 15:56:03.690052 20547 layer_factory.hpp:77] Creating layer inception_3a/output
I0403 15:56:03.690070 20547 net.cpp:91] Creating Layer inception_3a/output
I0403 15:56:03.690086 20547 net.cpp:425] inception_3a/output <- inception_3a/1x1
I0403 15:56:03.690104 20547 net.cpp:425] inception_3a/output <- inception_3a/3x3
I0403 15:56:03.690120 20547 net.cpp:425] inception_3a/output <- inception_3a/5x5
I0403 15:56:03.690136 20547 net.cpp:425] inception_3a/output <- inception_3a/pool_proj
I0403 15:56:03.690156 20547 net.cpp:399] inception_3a/output -> inception_3a/output
I0403 15:56:03.690206 20547 net.cpp:141] Setting up inception_3a/output
I0403 15:56:03.690229 20547 net.cpp:148] Top shape: 24 256 28 28 (4816896)
I0403 15:56:03.690244 20547 net.cpp:156] Memory required for data: 580437024
I0403 15:56:03.690259 20547 layer_factory.hpp:77] Creating layer inception_3a/output_inception_3a/output_0_split
I0403 15:56:03.690279 20547 net.cpp:91] Creating Layer inception_3a/output_inception_3a/output_0_split
I0403 15:56:03.690296 20547 net.cpp:425] inception_3a/output_inception_3a/output_0_split <- inception_3a/output
I0403 15:56:03.690326 20547 net.cpp:399] inception_3a/output_inception_3a/output_0_split -> inception_3a/output_inception_3a/output_0_split_0
I0403 15:56:03.690346 20547 net.cpp:399] inception_3a/output_inception_3a/output_0_split -> inception_3a/output_inception_3a/output_0_split_1
I0403 15:56:03.690371 20547 net.cpp:399] inception_3a/output_inception_3a/output_0_split -> inception_3a/output_inception_3a/output_0_split_2
I0403 15:56:03.690392 20547 net.cpp:399] inception_3a/output_inception_3a/output_0_split -> inception_3a/output_inception_3a/output_0_split_3
I0403 15:56:03.690462 20547 net.cpp:141] Setting up inception_3a/output_inception_3a/output_0_split
I0403 15:56:03.690487 20547 net.cpp:148] Top shape: 24 256 28 28 (4816896)
I0403 15:56:03.690505 20547 net.cpp:148] Top shape: 24 256 28 28 (4816896)
I0403 15:56:03.690520 20547 net.cpp:148] Top shape: 24 256 28 28 (4816896)
I0403 15:56:03.690534 20547 net.cpp:148] Top shape: 24 256 28 28 (4816896)
I0403 15:56:03.690547 20547 net.cpp:156] Memory required for data: 657507360
I0403 15:56:03.690562 20547 layer_factory.hpp:77] Creating layer inception_3b/1x1
I0403 15:56:03.690583 20547 net.cpp:91] Creating Layer inception_3b/1x1
I0403 15:56:03.690600 20547 net.cpp:425] inception_3b/1x1 <- inception_3a/output_inception_3a/output_0_split_0
I0403 15:56:03.690618 20547 net.cpp:399] inception_3b/1x1 -> inception_3b/1x1
I0403 15:56:03.691721 20547 net.cpp:141] Setting up inception_3b/1x1
I0403 15:56:03.691762 20547 net.cpp:148] Top shape: 24 128 28 28 (2408448)
I0403 15:56:03.691778 20547 net.cpp:156] Memory required for data: 667141152
I0403 15:56:03.691795 20547 layer_factory.hpp:77] Creating layer inception_3b/relu_1x1
I0403 15:56:03.691813 20547 net.cpp:91] Creating Layer inception_3b/relu_1x1
I0403 15:56:03.691828 20547 net.cpp:425] inception_3b/relu_1x1 <- inception_3b/1x1
I0403 15:56:03.691844 20547 net.cpp:386] inception_3b/relu_1x1 -> inception_3b/1x1 (in-place)
I0403 15:56:03.692020 20547 net.cpp:141] Setting up inception_3b/relu_1x1
I0403 15:56:03.692045 20547 net.cpp:148] Top shape: 24 128 28 28 (2408448)
I0403 15:56:03.692060 20547 net.cpp:156] Memory required for data: 676774944
I0403 15:56:03.692075 20547 layer_factory.hpp:77] Creating layer inception_3b/3x3_reduce
I0403 15:56:03.692096 20547 net.cpp:91] Creating Layer inception_3b/3x3_reduce
I0403 15:56:03.692112 20547 net.cpp:425] inception_3b/3x3_reduce <- inception_3a/output_inception_3a/output_0_split_1
I0403 15:56:03.692132 20547 net.cpp:399] inception_3b/3x3_reduce -> inception_3b/3x3_reduce
I0403 15:56:03.693215 20547 net.cpp:141] Setting up inception_3b/3x3_reduce
I0403 15:56:03.693243 20547 net.cpp:148] Top shape: 24 128 28 28 (2408448)
I0403 15:56:03.693256 20547 net.cpp:156] Memory required for data: 686408736
I0403 15:56:03.693274 20547 layer_factory.hpp:77] Creating layer inception_3b/relu_3x3_reduce
I0403 15:56:03.693294 20547 net.cpp:91] Creating Layer inception_3b/relu_3x3_reduce
I0403 15:56:03.693308 20547 net.cpp:425] inception_3b/relu_3x3_reduce <- inception_3b/3x3_reduce
I0403 15:56:03.693325 20547 net.cpp:386] inception_3b/relu_3x3_reduce -> inception_3b/3x3_reduce (in-place)
I0403 15:56:03.693490 20547 net.cpp:141] Setting up inception_3b/relu_3x3_reduce
I0403 15:56:03.693513 20547 net.cpp:148] Top shape: 24 128 28 28 (2408448)
I0403 15:56:03.693527 20547 net.cpp:156] Memory required for data: 696042528
I0403 15:56:03.693542 20547 layer_factory.hpp:77] Creating layer inception_3b/3x3
I0403 15:56:03.693565 20547 net.cpp:91] Creating Layer inception_3b/3x3
I0403 15:56:03.693583 20547 net.cpp:425] inception_3b/3x3 <- inception_3b/3x3_reduce
I0403 15:56:03.693603 20547 net.cpp:399] inception_3b/3x3 -> inception_3b/3x3
I0403 15:56:03.696403 20547 net.cpp:141] Setting up inception_3b/3x3
I0403 15:56:03.696434 20547 net.cpp:148] Top shape: 24 192 28 28 (3612672)
I0403 15:56:03.696449 20547 net.cpp:156] Memory required for data: 710493216
I0403 15:56:03.696466 20547 layer_factory.hpp:77] Creating layer inception_3b/relu_3x3
I0403 15:56:03.696483 20547 net.cpp:91] Creating Layer inception_3b/relu_3x3
I0403 15:56:03.696499 20547 net.cpp:425] inception_3b/relu_3x3 <- inception_3b/3x3
I0403 15:56:03.696517 20547 net.cpp:386] inception_3b/relu_3x3 -> inception_3b/3x3 (in-place)
I0403 15:56:03.696781 20547 net.cpp:141] Setting up inception_3b/relu_3x3
I0403 15:56:03.696808 20547 net.cpp:148] Top shape: 24 192 28 28 (3612672)
I0403 15:56:03.696823 20547 net.cpp:156] Memory required for data: 724943904
I0403 15:56:03.696837 20547 layer_factory.hpp:77] Creating layer inception_3b/5x5_reduce
I0403 15:56:03.696859 20547 net.cpp:91] Creating Layer inception_3b/5x5_reduce
I0403 15:56:03.696877 20547 net.cpp:425] inception_3b/5x5_reduce <- inception_3a/output_inception_3a/output_0_split_2
I0403 15:56:03.696897 20547 net.cpp:399] inception_3b/5x5_reduce -> inception_3b/5x5_reduce
I0403 15:56:03.697878 20547 net.cpp:141] Setting up inception_3b/5x5_reduce
I0403 15:56:03.697908 20547 net.cpp:148] Top shape: 24 32 28 28 (602112)
I0403 15:56:03.697924 20547 net.cpp:156] Memory required for data: 727352352
I0403 15:56:03.697942 20547 layer_factory.hpp:77] Creating layer inception_3b/relu_5x5_reduce
I0403 15:56:03.697960 20547 net.cpp:91] Creating Layer inception_3b/relu_5x5_reduce
I0403 15:56:03.697975 20547 net.cpp:425] inception_3b/relu_5x5_reduce <- inception_3b/5x5_reduce
I0403 15:56:03.697999 20547 net.cpp:386] inception_3b/relu_5x5_reduce -> inception_3b/5x5_reduce (in-place)
I0403 15:56:03.698174 20547 net.cpp:141] Setting up inception_3b/relu_5x5_reduce
I0403 15:56:03.698211 20547 net.cpp:148] Top shape: 24 32 28 28 (602112)
I0403 15:56:03.698226 20547 net.cpp:156] Memory required for data: 729760800
I0403 15:56:03.698240 20547 layer_factory.hpp:77] Creating layer inception_3b/5x5
I0403 15:56:03.698262 20547 net.cpp:91] Creating Layer inception_3b/5x5
I0403 15:56:03.698281 20547 net.cpp:425] inception_3b/5x5 <- inception_3b/5x5_reduce
I0403 15:56:03.698300 20547 net.cpp:399] inception_3b/5x5 -> inception_3b/5x5
I0403 15:56:03.700230 20547 net.cpp:141] Setting up inception_3b/5x5
I0403 15:56:03.700258 20547 net.cpp:148] Top shape: 24 96 28 28 (1806336)
I0403 15:56:03.700273 20547 net.cpp:156] Memory required for data: 736986144
I0403 15:56:03.700290 20547 layer_factory.hpp:77] Creating layer inception_3b/relu_5x5
I0403 15:56:03.700309 20547 net.cpp:91] Creating Layer inception_3b/relu_5x5
I0403 15:56:03.700326 20547 net.cpp:425] inception_3b/relu_5x5 <- inception_3b/5x5
I0403 15:56:03.700342 20547 net.cpp:386] inception_3b/relu_5x5 -> inception_3b/5x5 (in-place)
I0403 15:56:03.700525 20547 net.cpp:141] Setting up inception_3b/relu_5x5
I0403 15:56:03.700548 20547 net.cpp:148] Top shape: 24 96 28 28 (1806336)
I0403 15:56:03.700562 20547 net.cpp:156] Memory required for data: 744211488
I0403 15:56:03.700577 20547 layer_factory.hpp:77] Creating layer inception_3b/pool
I0403 15:56:03.700592 20547 net.cpp:91] Creating Layer inception_3b/pool
I0403 15:56:03.700608 20547 net.cpp:425] inception_3b/pool <- inception_3a/output_inception_3a/output_0_split_3
I0403 15:56:03.700624 20547 net.cpp:399] inception_3b/pool -> inception_3b/pool
I0403 15:56:03.700680 20547 net.cpp:141] Setting up inception_3b/pool
I0403 15:56:03.700701 20547 net.cpp:148] Top shape: 24 256 28 28 (4816896)
I0403 15:56:03.700716 20547 net.cpp:156] Memory required for data: 763479072
I0403 15:56:03.700729 20547 layer_factory.hpp:77] Creating layer inception_3b/pool_proj
I0403 15:56:03.700752 20547 net.cpp:91] Creating Layer inception_3b/pool_proj
I0403 15:56:03.700767 20547 net.cpp:425] inception_3b/pool_proj <- inception_3b/pool
I0403 15:56:03.700785 20547 net.cpp:399] inception_3b/pool_proj -> inception_3b/pool_proj
I0403 15:56:03.701797 20547 net.cpp:141] Setting up inception_3b/pool_proj
I0403 15:56:03.701822 20547 net.cpp:148] Top shape: 24 64 28 28 (1204224)
I0403 15:56:03.701838 20547 net.cpp:156] Memory required for data: 768295968
I0403 15:56:03.701854 20547 layer_factory.hpp:77] Creating layer inception_3b/relu_pool_proj
I0403 15:56:03.701876 20547 net.cpp:91] Creating Layer inception_3b/relu_pool_proj
I0403 15:56:03.701894 20547 net.cpp:425] inception_3b/relu_pool_proj <- inception_3b/pool_proj
I0403 15:56:03.701910 20547 net.cpp:386] inception_3b/relu_pool_proj -> inception_3b/pool_proj (in-place)
I0403 15:56:03.702318 20547 net.cpp:141] Setting up inception_3b/relu_pool_proj
I0403 15:56:03.702345 20547 net.cpp:148] Top shape: 24 64 28 28 (1204224)
I0403 15:56:03.702360 20547 net.cpp:156] Memory required for data: 773112864
I0403 15:56:03.702375 20547 layer_factory.hpp:77] Creating layer inception_3b/output
I0403 15:56:03.702392 20547 net.cpp:91] Creating Layer inception_3b/output
I0403 15:56:03.702407 20547 net.cpp:425] inception_3b/output <- inception_3b/1x1
I0403 15:56:03.702424 20547 net.cpp:425] inception_3b/output <- inception_3b/3x3
I0403 15:56:03.702440 20547 net.cpp:425] inception_3b/output <- inception_3b/5x5
I0403 15:56:03.702455 20547 net.cpp:425] inception_3b/output <- inception_3b/pool_proj
I0403 15:56:03.702474 20547 net.cpp:399] inception_3b/output -> inception_3b/output
I0403 15:56:03.702517 20547 net.cpp:141] Setting up inception_3b/output
I0403 15:56:03.702541 20547 net.cpp:148] Top shape: 24 480 28 28 (9031680)
I0403 15:56:03.702558 20547 net.cpp:156] Memory required for data: 809239584
I0403 15:56:03.702572 20547 layer_factory.hpp:77] Creating layer pool3/3x3_s2
I0403 15:56:03.702589 20547 net.cpp:91] Creating Layer pool3/3x3_s2
I0403 15:56:03.702605 20547 net.cpp:425] pool3/3x3_s2 <- inception_3b/output
I0403 15:56:03.702625 20547 net.cpp:399] pool3/3x3_s2 -> pool3/3x3_s2
I0403 15:56:03.702694 20547 net.cpp:141] Setting up pool3/3x3_s2
I0403 15:56:03.702718 20547 net.cpp:148] Top shape: 24 480 14 14 (2257920)
I0403 15:56:03.702733 20547 net.cpp:156] Memory required for data: 818271264
I0403 15:56:03.702746 20547 layer_factory.hpp:77] Creating layer pool3/3x3_s2_pool3/3x3_s2_0_split
I0403 15:56:03.702765 20547 net.cpp:91] Creating Layer pool3/3x3_s2_pool3/3x3_s2_0_split
I0403 15:56:03.702781 20547 net.cpp:425] pool3/3x3_s2_pool3/3x3_s2_0_split <- pool3/3x3_s2
I0403 15:56:03.702798 20547 net.cpp:399] pool3/3x3_s2_pool3/3x3_s2_0_split -> pool3/3x3_s2_pool3/3x3_s2_0_split_0
I0403 15:56:03.702816 20547 net.cpp:399] pool3/3x3_s2_pool3/3x3_s2_0_split -> pool3/3x3_s2_pool3/3x3_s2_0_split_1
I0403 15:56:03.702836 20547 net.cpp:399] pool3/3x3_s2_pool3/3x3_s2_0_split -> pool3/3x3_s2_pool3/3x3_s2_0_split_2
I0403 15:56:03.702855 20547 net.cpp:399] pool3/3x3_s2_pool3/3x3_s2_0_split -> pool3/3x3_s2_pool3/3x3_s2_0_split_3
I0403 15:56:03.702932 20547 net.cpp:141] Setting up pool3/3x3_s2_pool3/3x3_s2_0_split
I0403 15:56:03.702955 20547 net.cpp:148] Top shape: 24 480 14 14 (2257920)
I0403 15:56:03.702971 20547 net.cpp:148] Top shape: 24 480 14 14 (2257920)
I0403 15:56:03.702991 20547 net.cpp:148] Top shape: 24 480 14 14 (2257920)
I0403 15:56:03.703007 20547 net.cpp:148] Top shape: 24 480 14 14 (2257920)
I0403 15:56:03.703021 20547 net.cpp:156] Memory required for data: 854397984
I0403 15:56:03.703035 20547 layer_factory.hpp:77] Creating layer inception_4a/1x1
I0403 15:56:03.703058 20547 net.cpp:91] Creating Layer inception_4a/1x1
I0403 15:56:03.703074 20547 net.cpp:425] inception_4a/1x1 <- pool3/3x3_s2_pool3/3x3_s2_0_split_0
I0403 15:56:03.703095 20547 net.cpp:399] inception_4a/1x1 -> inception_4a/1x1
I0403 15:56:03.704648 20547 net.cpp:141] Setting up inception_4a/1x1
I0403 15:56:03.704675 20547 net.cpp:148] Top shape: 24 192 14 14 (903168)
I0403 15:56:03.704690 20547 net.cpp:156] Memory required for data: 858010656
I0403 15:56:03.704709 20547 layer_factory.hpp:77] Creating layer inception_4a/relu_1x1
I0403 15:56:03.704728 20547 net.cpp:91] Creating Layer inception_4a/relu_1x1
I0403 15:56:03.704746 20547 net.cpp:425] inception_4a/relu_1x1 <- inception_4a/1x1
I0403 15:56:03.704762 20547 net.cpp:386] inception_4a/relu_1x1 -> inception_4a/1x1 (in-place)
I0403 15:56:03.704933 20547 net.cpp:141] Setting up inception_4a/relu_1x1
I0403 15:56:03.704962 20547 net.cpp:148] Top shape: 24 192 14 14 (903168)
I0403 15:56:03.704977 20547 net.cpp:156] Memory required for data: 861623328
I0403 15:56:03.704996 20547 layer_factory.hpp:77] Creating layer inception_4a/3x3_reduce
I0403 15:56:03.705019 20547 net.cpp:91] Creating Layer inception_4a/3x3_reduce
I0403 15:56:03.705035 20547 net.cpp:425] inception_4a/3x3_reduce <- pool3/3x3_s2_pool3/3x3_s2_0_split_1
I0403 15:56:03.705054 20547 net.cpp:399] inception_4a/3x3_reduce -> inception_4a/3x3_reduce
I0403 15:56:03.706323 20547 net.cpp:141] Setting up inception_4a/3x3_reduce
I0403 15:56:03.706351 20547 net.cpp:148] Top shape: 24 96 14 14 (451584)
I0403 15:56:03.706367 20547 net.cpp:156] Memory required for data: 863429664
I0403 15:56:03.706390 20547 layer_factory.hpp:77] Creating layer inception_4a/relu_3x3_reduce
I0403 15:56:03.706410 20547 net.cpp:91] Creating Layer inception_4a/relu_3x3_reduce
I0403 15:56:03.706428 20547 net.cpp:425] inception_4a/relu_3x3_reduce <- inception_4a/3x3_reduce
I0403 15:56:03.706446 20547 net.cpp:386] inception_4a/relu_3x3_reduce -> inception_4a/3x3_reduce (in-place)
I0403 15:56:03.706621 20547 net.cpp:141] Setting up inception_4a/relu_3x3_reduce
I0403 15:56:03.706648 20547 net.cpp:148] Top shape: 24 96 14 14 (451584)
I0403 15:56:03.706665 20547 net.cpp:156] Memory required for data: 865236000
I0403 15:56:03.706678 20547 layer_factory.hpp:77] Creating layer inception_4a/3x3
I0403 15:56:03.706698 20547 net.cpp:91] Creating Layer inception_4a/3x3
I0403 15:56:03.706715 20547 net.cpp:425] inception_4a/3x3 <- inception_4a/3x3_reduce
I0403 15:56:03.706735 20547 net.cpp:399] inception_4a/3x3 -> inception_4a/3x3
I0403 15:56:03.709389 20547 net.cpp:141] Setting up inception_4a/3x3
I0403 15:56:03.709419 20547 net.cpp:148] Top shape: 24 208 14 14 (978432)
I0403 15:56:03.709434 20547 net.cpp:156] Memory required for data: 869149728
I0403 15:56:03.709453 20547 layer_factory.hpp:77] Creating layer inception_4a/relu_3x3
I0403 15:56:03.709471 20547 net.cpp:91] Creating Layer inception_4a/relu_3x3
I0403 15:56:03.709487 20547 net.cpp:425] inception_4a/relu_3x3 <- inception_4a/3x3
I0403 15:56:03.709504 20547 net.cpp:386] inception_4a/relu_3x3 -> inception_4a/3x3 (in-place)
I0403 15:56:03.709787 20547 net.cpp:141] Setting up inception_4a/relu_3x3
I0403 15:56:03.709812 20547 net.cpp:148] Top shape: 24 208 14 14 (978432)
I0403 15:56:03.709827 20547 net.cpp:156] Memory required for data: 873063456
I0403 15:56:03.709841 20547 layer_factory.hpp:77] Creating layer inception_4a/5x5_reduce
I0403 15:56:03.709867 20547 net.cpp:91] Creating Layer inception_4a/5x5_reduce
I0403 15:56:03.709883 20547 net.cpp:425] inception_4a/5x5_reduce <- pool3/3x3_s2_pool3/3x3_s2_0_split_2
I0403 15:56:03.709903 20547 net.cpp:399] inception_4a/5x5_reduce -> inception_4a/5x5_reduce
I0403 15:56:03.710918 20547 net.cpp:141] Setting up inception_4a/5x5_reduce
I0403 15:56:03.710948 20547 net.cpp:148] Top shape: 24 16 14 14 (75264)
I0403 15:56:03.710963 20547 net.cpp:156] Memory required for data: 873364512
I0403 15:56:03.710981 20547 layer_factory.hpp:77] Creating layer inception_4a/relu_5x5_reduce
I0403 15:56:03.711005 20547 net.cpp:91] Creating Layer inception_4a/relu_5x5_reduce
I0403 15:56:03.711021 20547 net.cpp:425] inception_4a/relu_5x5_reduce <- inception_4a/5x5_reduce
I0403 15:56:03.711040 20547 net.cpp:386] inception_4a/relu_5x5_reduce -> inception_4a/5x5_reduce (in-place)
I0403 15:56:03.711216 20547 net.cpp:141] Setting up inception_4a/relu_5x5_reduce
I0403 15:56:03.711241 20547 net.cpp:148] Top shape: 24 16 14 14 (75264)
I0403 15:56:03.711254 20547 net.cpp:156] Memory required for data: 873665568
I0403 15:56:03.711268 20547 layer_factory.hpp:77] Creating layer inception_4a/5x5
I0403 15:56:03.711290 20547 net.cpp:91] Creating Layer inception_4a/5x5
I0403 15:56:03.711308 20547 net.cpp:425] inception_4a/5x5 <- inception_4a/5x5_reduce
I0403 15:56:03.711329 20547 net.cpp:399] inception_4a/5x5 -> inception_4a/5x5
I0403 15:56:03.712409 20547 net.cpp:141] Setting up inception_4a/5x5
I0403 15:56:03.712436 20547 net.cpp:148] Top shape: 24 48 14 14 (225792)
I0403 15:56:03.712451 20547 net.cpp:156] Memory required for data: 874568736
I0403 15:56:03.712468 20547 layer_factory.hpp:77] Creating layer inception_4a/relu_5x5
I0403 15:56:03.712488 20547 net.cpp:91] Creating Layer inception_4a/relu_5x5
I0403 15:56:03.712505 20547 net.cpp:425] inception_4a/relu_5x5 <- inception_4a/5x5
I0403 15:56:03.712522 20547 net.cpp:386] inception_4a/relu_5x5 -> inception_4a/5x5 (in-place)
I0403 15:56:03.712698 20547 net.cpp:141] Setting up inception_4a/relu_5x5
I0403 15:56:03.712723 20547 net.cpp:148] Top shape: 24 48 14 14 (225792)
I0403 15:56:03.712738 20547 net.cpp:156] Memory required for data: 875471904
I0403 15:56:03.712751 20547 layer_factory.hpp:77] Creating layer inception_4a/pool
I0403 15:56:03.712770 20547 net.cpp:91] Creating Layer inception_4a/pool
I0403 15:56:03.712786 20547 net.cpp:425] inception_4a/pool <- pool3/3x3_s2_pool3/3x3_s2_0_split_3
I0403 15:56:03.712805 20547 net.cpp:399] inception_4a/pool -> inception_4a/pool
I0403 15:56:03.712863 20547 net.cpp:141] Setting up inception_4a/pool
I0403 15:56:03.712887 20547 net.cpp:148] Top shape: 24 480 14 14 (2257920)
I0403 15:56:03.712901 20547 net.cpp:156] Memory required for data: 884503584
I0403 15:56:03.712915 20547 layer_factory.hpp:77] Creating layer inception_4a/pool_proj
I0403 15:56:03.712937 20547 net.cpp:91] Creating Layer inception_4a/pool_proj
I0403 15:56:03.712954 20547 net.cpp:425] inception_4a/pool_proj <- inception_4a/pool
I0403 15:56:03.712975 20547 net.cpp:399] inception_4a/pool_proj -> inception_4a/pool_proj
I0403 15:56:03.714151 20547 net.cpp:141] Setting up inception_4a/pool_proj
I0403 15:56:03.714179 20547 net.cpp:148] Top shape: 24 64 14 14 (301056)
I0403 15:56:03.714208 20547 net.cpp:156] Memory required for data: 885707808
I0403 15:56:03.714228 20547 layer_factory.hpp:77] Creating layer inception_4a/relu_pool_proj
I0403 15:56:03.714249 20547 net.cpp:91] Creating Layer inception_4a/relu_pool_proj
I0403 15:56:03.714265 20547 net.cpp:425] inception_4a/relu_pool_proj <- inception_4a/pool_proj
I0403 15:56:03.714282 20547 net.cpp:386] inception_4a/relu_pool_proj -> inception_4a/pool_proj (in-place)
I0403 15:56:03.714563 20547 net.cpp:141] Setting up inception_4a/relu_pool_proj
I0403 15:56:03.714589 20547 net.cpp:148] Top shape: 24 64 14 14 (301056)
I0403 15:56:03.714604 20547 net.cpp:156] Memory required for data: 886912032
I0403 15:56:03.714619 20547 layer_factory.hpp:77] Creating layer inception_4a/output
I0403 15:56:03.714638 20547 net.cpp:91] Creating Layer inception_4a/output
I0403 15:56:03.714654 20547 net.cpp:425] inception_4a/output <- inception_4a/1x1
I0403 15:56:03.714671 20547 net.cpp:425] inception_4a/output <- inception_4a/3x3
I0403 15:56:03.714687 20547 net.cpp:425] inception_4a/output <- inception_4a/5x5
I0403 15:56:03.714702 20547 net.cpp:425] inception_4a/output <- inception_4a/pool_proj
I0403 15:56:03.714720 20547 net.cpp:399] inception_4a/output -> inception_4a/output
I0403 15:56:03.714763 20547 net.cpp:141] Setting up inception_4a/output
I0403 15:56:03.714787 20547 net.cpp:148] Top shape: 24 512 14 14 (2408448)
I0403 15:56:03.714802 20547 net.cpp:156] Memory required for data: 896545824
I0403 15:56:03.714815 20547 layer_factory.hpp:77] Creating layer inception_4a/output_inception_4a/output_0_split
I0403 15:56:03.714833 20547 net.cpp:91] Creating Layer inception_4a/output_inception_4a/output_0_split
I0403 15:56:03.714848 20547 net.cpp:425] inception_4a/output_inception_4a/output_0_split <- inception_4a/output
I0403 15:56:03.714867 20547 net.cpp:399] inception_4a/output_inception_4a/output_0_split -> inception_4a/output_inception_4a/output_0_split_0
I0403 15:56:03.714887 20547 net.cpp:399] inception_4a/output_inception_4a/output_0_split -> inception_4a/output_inception_4a/output_0_split_1
I0403 15:56:03.714907 20547 net.cpp:399] inception_4a/output_inception_4a/output_0_split -> inception_4a/output_inception_4a/output_0_split_2
I0403 15:56:03.714927 20547 net.cpp:399] inception_4a/output_inception_4a/output_0_split -> inception_4a/output_inception_4a/output_0_split_3
I0403 15:56:03.714946 20547 net.cpp:399] inception_4a/output_inception_4a/output_0_split -> inception_4a/output_inception_4a/output_0_split_4
I0403 15:56:03.715044 20547 net.cpp:141] Setting up inception_4a/output_inception_4a/output_0_split
I0403 15:56:03.715066 20547 net.cpp:148] Top shape: 24 512 14 14 (2408448)
I0403 15:56:03.715085 20547 net.cpp:148] Top shape: 24 512 14 14 (2408448)
I0403 15:56:03.715101 20547 net.cpp:148] Top shape: 24 512 14 14 (2408448)
I0403 15:56:03.715116 20547 net.cpp:148] Top shape: 24 512 14 14 (2408448)
I0403 15:56:03.715131 20547 net.cpp:148] Top shape: 24 512 14 14 (2408448)
I0403 15:56:03.715144 20547 net.cpp:156] Memory required for data: 944714784
I0403 15:56:03.715158 20547 layer_factory.hpp:77] Creating layer loss1/ave_pool
I0403 15:56:03.715176 20547 net.cpp:91] Creating Layer loss1/ave_pool
I0403 15:56:03.715191 20547 net.cpp:425] loss1/ave_pool <- inception_4a/output_inception_4a/output_0_split_0
I0403 15:56:03.715211 20547 net.cpp:399] loss1/ave_pool -> loss1/ave_pool
I0403 15:56:03.715415 20547 net.cpp:141] Setting up loss1/ave_pool
I0403 15:56:03.715440 20547 net.cpp:148] Top shape: 24 512 4 4 (196608)
I0403 15:56:03.715454 20547 net.cpp:156] Memory required for data: 945501216
I0403 15:56:03.715469 20547 layer_factory.hpp:77] Creating layer loss1/conv
I0403 15:56:03.715492 20547 net.cpp:91] Creating Layer loss1/conv
I0403 15:56:03.715509 20547 net.cpp:425] loss1/conv <- loss1/ave_pool
I0403 15:56:03.715529 20547 net.cpp:399] loss1/conv -> loss1/conv
I0403 15:56:03.716922 20547 net.cpp:141] Setting up loss1/conv
I0403 15:56:03.716953 20547 net.cpp:148] Top shape: 24 128 4 4 (49152)
I0403 15:56:03.716969 20547 net.cpp:156] Memory required for data: 945697824
I0403 15:56:03.717008 20547 layer_factory.hpp:77] Creating layer loss1/relu_conv
I0403 15:56:03.717027 20547 net.cpp:91] Creating Layer loss1/relu_conv
I0403 15:56:03.717042 20547 net.cpp:425] loss1/relu_conv <- loss1/conv
I0403 15:56:03.717061 20547 net.cpp:386] loss1/relu_conv -> loss1/conv (in-place)
I0403 15:56:03.717339 20547 net.cpp:141] Setting up loss1/relu_conv
I0403 15:56:03.717366 20547 net.cpp:148] Top shape: 24 128 4 4 (49152)
I0403 15:56:03.717381 20547 net.cpp:156] Memory required for data: 945894432
I0403 15:56:03.717396 20547 layer_factory.hpp:77] Creating layer loss1/fc
I0403 15:56:03.717418 20547 net.cpp:91] Creating Layer loss1/fc
I0403 15:56:03.717437 20547 net.cpp:425] loss1/fc <- loss1/conv
I0403 15:56:03.717458 20547 net.cpp:399] loss1/fc -> loss1/fc
I0403 15:56:03.734779 20547 net.cpp:141] Setting up loss1/fc
I0403 15:56:03.734808 20547 net.cpp:148] Top shape: 24 1024 (24576)
I0403 15:56:03.734823 20547 net.cpp:156] Memory required for data: 945992736
I0403 15:56:03.734841 20547 layer_factory.hpp:77] Creating layer loss1/relu_fc
I0403 15:56:03.734860 20547 net.cpp:91] Creating Layer loss1/relu_fc
I0403 15:56:03.734877 20547 net.cpp:425] loss1/relu_fc <- loss1/fc
I0403 15:56:03.734895 20547 net.cpp:386] loss1/relu_fc -> loss1/fc (in-place)
I0403 15:56:03.735082 20547 net.cpp:141] Setting up loss1/relu_fc
I0403 15:56:03.735110 20547 net.cpp:148] Top shape: 24 1024 (24576)
I0403 15:56:03.735126 20547 net.cpp:156] Memory required for data: 946091040
I0403 15:56:03.735141 20547 layer_factory.hpp:77] Creating layer loss1/drop_fc
I0403 15:56:03.735167 20547 net.cpp:91] Creating Layer loss1/drop_fc
I0403 15:56:03.735185 20547 net.cpp:425] loss1/drop_fc <- loss1/fc
I0403 15:56:03.735203 20547 net.cpp:386] loss1/drop_fc -> loss1/fc (in-place)
I0403 15:56:03.735255 20547 net.cpp:141] Setting up loss1/drop_fc
I0403 15:56:03.735276 20547 net.cpp:148] Top shape: 24 1024 (24576)
I0403 15:56:03.735291 20547 net.cpp:156] Memory required for data: 946189344
I0403 15:56:03.735306 20547 layer_factory.hpp:77] Creating layer loss1/classifier_plantvillage
I0403 15:56:03.735324 20547 net.cpp:91] Creating Layer loss1/classifier_plantvillage
I0403 15:56:03.735339 20547 net.cpp:425] loss1/classifier_plantvillage <- loss1/fc
I0403 15:56:03.735362 20547 net.cpp:399] loss1/classifier_plantvillage -> loss1/classifier_plantvillage
I0403 15:56:03.736263 20547 net.cpp:141] Setting up loss1/classifier_plantvillage
I0403 15:56:03.736290 20547 net.cpp:148] Top shape: 24 38 (912)
I0403 15:56:03.736305 20547 net.cpp:156] Memory required for data: 946192992
I0403 15:56:03.736322 20547 layer_factory.hpp:77] Creating layer loss1/classifier_plantvillage_loss1/classifier_plantvillage_0_split
I0403 15:56:03.736342 20547 net.cpp:91] Creating Layer loss1/classifier_plantvillage_loss1/classifier_plantvillage_0_split
I0403 15:56:03.736359 20547 net.cpp:425] loss1/classifier_plantvillage_loss1/classifier_plantvillage_0_split <- loss1/classifier_plantvillage
I0403 15:56:03.736377 20547 net.cpp:399] loss1/classifier_plantvillage_loss1/classifier_plantvillage_0_split -> loss1/classifier_plantvillage_loss1/classifier_plantvillage_0_split_0
I0403 15:56:03.736397 20547 net.cpp:399] loss1/classifier_plantvillage_loss1/classifier_plantvillage_0_split -> loss1/classifier_plantvillage_loss1/classifier_plantvillage_0_split_1
I0403 15:56:03.736418 20547 net.cpp:399] loss1/classifier_plantvillage_loss1/classifier_plantvillage_0_split -> loss1/classifier_plantvillage_loss1/classifier_plantvillage_0_split_2
I0403 15:56:03.736484 20547 net.cpp:141] Setting up loss1/classifier_plantvillage_loss1/classifier_plantvillage_0_split
I0403 15:56:03.736506 20547 net.cpp:148] Top shape: 24 38 (912)
I0403 15:56:03.736523 20547 net.cpp:148] Top shape: 24 38 (912)
I0403 15:56:03.736538 20547 net.cpp:148] Top shape: 24 38 (912)
I0403 15:56:03.736552 20547 net.cpp:156] Memory required for data: 946203936
I0403 15:56:03.736567 20547 layer_factory.hpp:77] Creating layer inception_4b/1x1
I0403 15:56:03.736588 20547 net.cpp:91] Creating Layer inception_4b/1x1
I0403 15:56:03.736623 20547 net.cpp:425] inception_4b/1x1 <- inception_4a/output_inception_4a/output_0_split_1
I0403 15:56:03.736642 20547 net.cpp:399] inception_4b/1x1 -> inception_4b/1x1
I0403 15:56:03.738301 20547 net.cpp:141] Setting up inception_4b/1x1
I0403 15:56:03.738332 20547 net.cpp:148] Top shape: 24 160 14 14 (752640)
I0403 15:56:03.738348 20547 net.cpp:156] Memory required for data: 949214496
I0403 15:56:03.738366 20547 layer_factory.hpp:77] Creating layer inception_4b/relu_1x1
I0403 15:56:03.738384 20547 net.cpp:91] Creating Layer inception_4b/relu_1x1
I0403 15:56:03.738399 20547 net.cpp:425] inception_4b/relu_1x1 <- inception_4b/1x1
I0403 15:56:03.738420 20547 net.cpp:386] inception_4b/relu_1x1 -> inception_4b/1x1 (in-place)
I0403 15:56:03.738596 20547 net.cpp:141] Setting up inception_4b/relu_1x1
I0403 15:56:03.738620 20547 net.cpp:148] Top shape: 24 160 14 14 (752640)
I0403 15:56:03.738636 20547 net.cpp:156] Memory required for data: 952225056
I0403 15:56:03.738652 20547 layer_factory.hpp:77] Creating layer inception_4b/3x3_reduce
I0403 15:56:03.738674 20547 net.cpp:91] Creating Layer inception_4b/3x3_reduce
I0403 15:56:03.738692 20547 net.cpp:425] inception_4b/3x3_reduce <- inception_4a/output_inception_4a/output_0_split_2
I0403 15:56:03.738714 20547 net.cpp:399] inception_4b/3x3_reduce -> inception_4b/3x3_reduce
I0403 15:56:03.740067 20547 net.cpp:141] Setting up inception_4b/3x3_reduce
I0403 15:56:03.740095 20547 net.cpp:148] Top shape: 24 112 14 14 (526848)
I0403 15:56:03.740111 20547 net.cpp:156] Memory required for data: 954332448
I0403 15:56:03.740129 20547 layer_factory.hpp:77] Creating layer inception_4b/relu_3x3_reduce
I0403 15:56:03.740146 20547 net.cpp:91] Creating Layer inception_4b/relu_3x3_reduce
I0403 15:56:03.740162 20547 net.cpp:425] inception_4b/relu_3x3_reduce <- inception_4b/3x3_reduce
I0403 15:56:03.740182 20547 net.cpp:386] inception_4b/relu_3x3_reduce -> inception_4b/3x3_reduce (in-place)
I0403 15:56:03.740468 20547 net.cpp:141] Setting up inception_4b/relu_3x3_reduce
I0403 15:56:03.740494 20547 net.cpp:148] Top shape: 24 112 14 14 (526848)
I0403 15:56:03.740509 20547 net.cpp:156] Memory required for data: 956439840
I0403 15:56:03.740523 20547 layer_factory.hpp:77] Creating layer inception_4b/3x3
I0403 15:56:03.740545 20547 net.cpp:91] Creating Layer inception_4b/3x3
I0403 15:56:03.740563 20547 net.cpp:425] inception_4b/3x3 <- inception_4b/3x3_reduce
I0403 15:56:03.740584 20547 net.cpp:399] inception_4b/3x3 -> inception_4b/3x3
I0403 15:56:03.743571 20547 net.cpp:141] Setting up inception_4b/3x3
I0403 15:56:03.743600 20547 net.cpp:148] Top shape: 24 224 14 14 (1053696)
I0403 15:56:03.743616 20547 net.cpp:156] Memory required for data: 960654624
I0403 15:56:03.743634 20547 layer_factory.hpp:77] Creating layer inception_4b/relu_3x3
I0403 15:56:03.743654 20547 net.cpp:91] Creating Layer inception_4b/relu_3x3
I0403 15:56:03.743670 20547 net.cpp:425] inception_4b/relu_3x3 <- inception_4b/3x3
I0403 15:56:03.743687 20547 net.cpp:386] inception_4b/relu_3x3 -> inception_4b/3x3 (in-place)
I0403 15:56:03.743868 20547 net.cpp:141] Setting up inception_4b/relu_3x3
I0403 15:56:03.743896 20547 net.cpp:148] Top shape: 24 224 14 14 (1053696)
I0403 15:56:03.743911 20547 net.cpp:156] Memory required for data: 964869408
I0403 15:56:03.743927 20547 layer_factory.hpp:77] Creating layer inception_4b/5x5_reduce
I0403 15:56:03.743949 20547 net.cpp:91] Creating Layer inception_4b/5x5_reduce
I0403 15:56:03.743966 20547 net.cpp:425] inception_4b/5x5_reduce <- inception_4a/output_inception_4a/output_0_split_3
I0403 15:56:03.743991 20547 net.cpp:399] inception_4b/5x5_reduce -> inception_4b/5x5_reduce
I0403 15:56:03.745069 20547 net.cpp:141] Setting up inception_4b/5x5_reduce
I0403 15:56:03.745095 20547 net.cpp:148] Top shape: 24 24 14 14 (112896)
I0403 15:56:03.745110 20547 net.cpp:156] Memory required for data: 965320992
I0403 15:56:03.745128 20547 layer_factory.hpp:77] Creating layer inception_4b/relu_5x5_reduce
I0403 15:56:03.745146 20547 net.cpp:91] Creating Layer inception_4b/relu_5x5_reduce
I0403 15:56:03.745177 20547 net.cpp:425] inception_4b/relu_5x5_reduce <- inception_4b/5x5_reduce
I0403 15:56:03.745198 20547 net.cpp:386] inception_4b/relu_5x5_reduce -> inception_4b/5x5_reduce (in-place)
I0403 15:56:03.745378 20547 net.cpp:141] Setting up inception_4b/relu_5x5_reduce
I0403 15:56:03.745403 20547 net.cpp:148] Top shape: 24 24 14 14 (112896)
I0403 15:56:03.745417 20547 net.cpp:156] Memory required for data: 965772576
I0403 15:56:03.745432 20547 layer_factory.hpp:77] Creating layer inception_4b/5x5
I0403 15:56:03.745455 20547 net.cpp:91] Creating Layer inception_4b/5x5
I0403 15:56:03.745472 20547 net.cpp:425] inception_4b/5x5 <- inception_4b/5x5_reduce
I0403 15:56:03.745493 20547 net.cpp:399] inception_4b/5x5 -> inception_4b/5x5
I0403 15:56:03.746712 20547 net.cpp:141] Setting up inception_4b/5x5
I0403 15:56:03.746742 20547 net.cpp:148] Top shape: 24 64 14 14 (301056)
I0403 15:56:03.746758 20547 net.cpp:156] Memory required for data: 966976800
I0403 15:56:03.746778 20547 layer_factory.hpp:77] Creating layer inception_4b/relu_5x5
I0403 15:56:03.746794 20547 net.cpp:91] Creating Layer inception_4b/relu_5x5
I0403 15:56:03.746809 20547 net.cpp:425] inception_4b/relu_5x5 <- inception_4b/5x5
I0403 15:56:03.746829 20547 net.cpp:386] inception_4b/relu_5x5 -> inception_4b/5x5 (in-place)
I0403 15:56:03.747140 20547 net.cpp:141] Setting up inception_4b/relu_5x5
I0403 15:56:03.747172 20547 net.cpp:148] Top shape: 24 64 14 14 (301056)
I0403 15:56:03.747189 20547 net.cpp:156] Memory required for data: 968181024
I0403 15:56:03.747205 20547 layer_factory.hpp:77] Creating layer inception_4b/pool
I0403 15:56:03.747223 20547 net.cpp:91] Creating Layer inception_4b/pool
I0403 15:56:03.747241 20547 net.cpp:425] inception_4b/pool <- inception_4a/output_inception_4a/output_0_split_4
I0403 15:56:03.747262 20547 net.cpp:399] inception_4b/pool -> inception_4b/pool
I0403 15:56:03.747326 20547 net.cpp:141] Setting up inception_4b/pool
I0403 15:56:03.747351 20547 net.cpp:148] Top shape: 24 512 14 14 (2408448)
I0403 15:56:03.747365 20547 net.cpp:156] Memory required for data: 977814816
I0403 15:56:03.747380 20547 layer_factory.hpp:77] Creating layer inception_4b/pool_proj
I0403 15:56:03.747402 20547 net.cpp:91] Creating Layer inception_4b/pool_proj
I0403 15:56:03.747421 20547 net.cpp:425] inception_4b/pool_proj <- inception_4b/pool
I0403 15:56:03.747442 20547 net.cpp:399] inception_4b/pool_proj -> inception_4b/pool_proj
I0403 15:56:03.748679 20547 net.cpp:141] Setting up inception_4b/pool_proj
I0403 15:56:03.748709 20547 net.cpp:148] Top shape: 24 64 14 14 (301056)
I0403 15:56:03.748725 20547 net.cpp:156] Memory required for data: 979019040
I0403 15:56:03.748745 20547 layer_factory.hpp:77] Creating layer inception_4b/relu_pool_proj
I0403 15:56:03.748764 20547 net.cpp:91] Creating Layer inception_4b/relu_pool_proj
I0403 15:56:03.748780 20547 net.cpp:425] inception_4b/relu_pool_proj <- inception_4b/pool_proj
I0403 15:56:03.748798 20547 net.cpp:386] inception_4b/relu_pool_proj -> inception_4b/pool_proj (in-place)
I0403 15:56:03.748985 20547 net.cpp:141] Setting up inception_4b/relu_pool_proj
I0403 15:56:03.749017 20547 net.cpp:148] Top shape: 24 64 14 14 (301056)
I0403 15:56:03.749032 20547 net.cpp:156] Memory required for data: 980223264
I0403 15:56:03.749047 20547 layer_factory.hpp:77] Creating layer inception_4b/output
I0403 15:56:03.749065 20547 net.cpp:91] Creating Layer inception_4b/output
I0403 15:56:03.749081 20547 net.cpp:425] inception_4b/output <- inception_4b/1x1
I0403 15:56:03.749099 20547 net.cpp:425] inception_4b/output <- inception_4b/3x3
I0403 15:56:03.749114 20547 net.cpp:425] inception_4b/output <- inception_4b/5x5
I0403 15:56:03.749130 20547 net.cpp:425] inception_4b/output <- inception_4b/pool_proj
I0403 15:56:03.749150 20547 net.cpp:399] inception_4b/output -> inception_4b/output
I0403 15:56:03.749199 20547 net.cpp:141] Setting up inception_4b/output
I0403 15:56:03.749222 20547 net.cpp:148] Top shape: 24 512 14 14 (2408448)
I0403 15:56:03.749238 20547 net.cpp:156] Memory required for data: 989857056
I0403 15:56:03.749265 20547 layer_factory.hpp:77] Creating layer inception_4b/output_inception_4b/output_0_split
I0403 15:56:03.749284 20547 net.cpp:91] Creating Layer inception_4b/output_inception_4b/output_0_split
I0403 15:56:03.749300 20547 net.cpp:425] inception_4b/output_inception_4b/output_0_split <- inception_4b/output
I0403 15:56:03.749320 20547 net.cpp:399] inception_4b/output_inception_4b/output_0_split -> inception_4b/output_inception_4b/output_0_split_0
I0403 15:56:03.749341 20547 net.cpp:399] inception_4b/output_inception_4b/output_0_split -> inception_4b/output_inception_4b/output_0_split_1
I0403 15:56:03.749362 20547 net.cpp:399] inception_4b/output_inception_4b/output_0_split -> inception_4b/output_inception_4b/output_0_split_2
I0403 15:56:03.749382 20547 net.cpp:399] inception_4b/output_inception_4b/output_0_split -> inception_4b/output_inception_4b/output_0_split_3
I0403 15:56:03.749466 20547 net.cpp:141] Setting up inception_4b/output_inception_4b/output_0_split
I0403 15:56:03.749490 20547 net.cpp:148] Top shape: 24 512 14 14 (2408448)
I0403 15:56:03.749506 20547 net.cpp:148] Top shape: 24 512 14 14 (2408448)
I0403 15:56:03.749522 20547 net.cpp:148] Top shape: 24 512 14 14 (2408448)
I0403 15:56:03.749537 20547 net.cpp:148] Top shape: 24 512 14 14 (2408448)
I0403 15:56:03.749552 20547 net.cpp:156] Memory required for data: 1028392224
I0403 15:56:03.749565 20547 layer_factory.hpp:77] Creating layer inception_4c/1x1
I0403 15:56:03.749589 20547 net.cpp:91] Creating Layer inception_4c/1x1
I0403 15:56:03.749606 20547 net.cpp:425] inception_4c/1x1 <- inception_4b/output_inception_4b/output_0_split_0
I0403 15:56:03.749625 20547 net.cpp:399] inception_4c/1x1 -> inception_4c/1x1
I0403 15:56:03.751109 20547 net.cpp:141] Setting up inception_4c/1x1
I0403 15:56:03.751138 20547 net.cpp:148] Top shape: 24 128 14 14 (602112)
I0403 15:56:03.751154 20547 net.cpp:156] Memory required for data: 1030800672
I0403 15:56:03.751173 20547 layer_factory.hpp:77] Creating layer inception_4c/relu_1x1
I0403 15:56:03.751193 20547 net.cpp:91] Creating Layer inception_4c/relu_1x1
I0403 15:56:03.751210 20547 net.cpp:425] inception_4c/relu_1x1 <- inception_4c/1x1
I0403 15:56:03.751229 20547 net.cpp:386] inception_4c/relu_1x1 -> inception_4c/1x1 (in-place)
I0403 15:56:03.751410 20547 net.cpp:141] Setting up inception_4c/relu_1x1
I0403 15:56:03.751437 20547 net.cpp:148] Top shape: 24 128 14 14 (602112)
I0403 15:56:03.751452 20547 net.cpp:156] Memory required for data: 1033209120
I0403 15:56:03.751467 20547 layer_factory.hpp:77] Creating layer inception_4c/3x3_reduce
I0403 15:56:03.751492 20547 net.cpp:91] Creating Layer inception_4c/3x3_reduce
I0403 15:56:03.751510 20547 net.cpp:425] inception_4c/3x3_reduce <- inception_4b/output_inception_4b/output_0_split_1
I0403 15:56:03.751530 20547 net.cpp:399] inception_4c/3x3_reduce -> inception_4c/3x3_reduce
I0403 15:56:03.753516 20547 net.cpp:141] Setting up inception_4c/3x3_reduce
I0403 15:56:03.753550 20547 net.cpp:148] Top shape: 24 128 14 14 (602112)
I0403 15:56:03.753566 20547 net.cpp:156] Memory required for data: 1035617568
I0403 15:56:03.753587 20547 layer_factory.hpp:77] Creating layer inception_4c/relu_3x3_reduce
I0403 15:56:03.753604 20547 net.cpp:91] Creating Layer inception_4c/relu_3x3_reduce
I0403 15:56:03.753621 20547 net.cpp:425] inception_4c/relu_3x3_reduce <- inception_4c/3x3_reduce
I0403 15:56:03.753639 20547 net.cpp:386] inception_4c/relu_3x3_reduce -> inception_4c/3x3_reduce (in-place)
I0403 15:56:03.753931 20547 net.cpp:141] Setting up inception_4c/relu_3x3_reduce
I0403 15:56:03.753960 20547 net.cpp:148] Top shape: 24 128 14 14 (602112)
I0403 15:56:03.753976 20547 net.cpp:156] Memory required for data: 1038026016
I0403 15:56:03.753999 20547 layer_factory.hpp:77] Creating layer inception_4c/3x3
I0403 15:56:03.754024 20547 net.cpp:91] Creating Layer inception_4c/3x3
I0403 15:56:03.754043 20547 net.cpp:425] inception_4c/3x3 <- inception_4c/3x3_reduce
I0403 15:56:03.754062 20547 net.cpp:399] inception_4c/3x3 -> inception_4c/3x3
I0403 15:56:03.757776 20547 net.cpp:141] Setting up inception_4c/3x3
I0403 15:56:03.757819 20547 net.cpp:148] Top shape: 24 256 14 14 (1204224)
I0403 15:56:03.757838 20547 net.cpp:156] Memory required for data: 1042842912
I0403 15:56:03.757870 20547 layer_factory.hpp:77] Creating layer inception_4c/relu_3x3
I0403 15:56:03.757892 20547 net.cpp:91] Creating Layer inception_4c/relu_3x3
I0403 15:56:03.757908 20547 net.cpp:425] inception_4c/relu_3x3 <- inception_4c/3x3
I0403 15:56:03.757928 20547 net.cpp:386] inception_4c/relu_3x3 -> inception_4c/3x3 (in-place)
I0403 15:56:03.758127 20547 net.cpp:141] Setting up inception_4c/relu_3x3
I0403 15:56:03.758154 20547 net.cpp:148] Top shape: 24 256 14 14 (1204224)
I0403 15:56:03.758169 20547 net.cpp:156] Memory required for data: 1047659808
I0403 15:56:03.758184 20547 layer_factory.hpp:77] Creating layer inception_4c/5x5_reduce
I0403 15:56:03.758208 20547 net.cpp:91] Creating Layer inception_4c/5x5_reduce
I0403 15:56:03.758226 20547 net.cpp:425] inception_4c/5x5_reduce <- inception_4b/output_inception_4b/output_0_split_2
I0403 15:56:03.758250 20547 net.cpp:399] inception_4c/5x5_reduce -> inception_4c/5x5_reduce
I0403 15:56:03.759378 20547 net.cpp:141] Setting up inception_4c/5x5_reduce
I0403 15:56:03.759407 20547 net.cpp:148] Top shape: 24 24 14 14 (112896)
I0403 15:56:03.759421 20547 net.cpp:156] Memory required for data: 1048111392
I0403 15:56:03.759440 20547 layer_factory.hpp:77] Creating layer inception_4c/relu_5x5_reduce
I0403 15:56:03.759459 20547 net.cpp:91] Creating Layer inception_4c/relu_5x5_reduce
I0403 15:56:03.759474 20547 net.cpp:425] inception_4c/relu_5x5_reduce <- inception_4c/5x5_reduce
I0403 15:56:03.759493 20547 net.cpp:386] inception_4c/relu_5x5_reduce -> inception_4c/5x5_reduce (in-place)
I0403 15:56:03.759683 20547 net.cpp:141] Setting up inception_4c/relu_5x5_reduce
I0403 15:56:03.759709 20547 net.cpp:148] Top shape: 24 24 14 14 (112896)
I0403 15:56:03.759724 20547 net.cpp:156] Memory required for data: 1048562976
I0403 15:56:03.759739 20547 layer_factory.hpp:77] Creating layer inception_4c/5x5
I0403 15:56:03.759763 20547 net.cpp:91] Creating Layer inception_4c/5x5
I0403 15:56:03.759779 20547 net.cpp:425] inception_4c/5x5 <- inception_4c/5x5_reduce
I0403 15:56:03.759801 20547 net.cpp:399] inception_4c/5x5 -> inception_4c/5x5
I0403 15:56:03.761087 20547 net.cpp:141] Setting up inception_4c/5x5
I0403 15:56:03.761116 20547 net.cpp:148] Top shape: 24 64 14 14 (301056)
I0403 15:56:03.761131 20547 net.cpp:156] Memory required for data: 1049767200
I0403 15:56:03.761149 20547 layer_factory.hpp:77] Creating layer inception_4c/relu_5x5
I0403 15:56:03.761171 20547 net.cpp:91] Creating Layer inception_4c/relu_5x5
I0403 15:56:03.761189 20547 net.cpp:425] inception_4c/relu_5x5 <- inception_4c/5x5
I0403 15:56:03.761206 20547 net.cpp:386] inception_4c/relu_5x5 -> inception_4c/5x5 (in-place)
I0403 15:56:03.761502 20547 net.cpp:141] Setting up inception_4c/relu_5x5
I0403 15:56:03.761529 20547 net.cpp:148] Top shape: 24 64 14 14 (301056)
I0403 15:56:03.761544 20547 net.cpp:156] Memory required for data: 1050971424
I0403 15:56:03.761559 20547 layer_factory.hpp:77] Creating layer inception_4c/pool
I0403 15:56:03.761577 20547 net.cpp:91] Creating Layer inception_4c/pool
I0403 15:56:03.761593 20547 net.cpp:425] inception_4c/pool <- inception_4b/output_inception_4b/output_0_split_3
I0403 15:56:03.761615 20547 net.cpp:399] inception_4c/pool -> inception_4c/pool
I0403 15:56:03.761683 20547 net.cpp:141] Setting up inception_4c/pool
I0403 15:56:03.761708 20547 net.cpp:148] Top shape: 24 512 14 14 (2408448)
I0403 15:56:03.761723 20547 net.cpp:156] Memory required for data: 1060605216
I0403 15:56:03.761737 20547 layer_factory.hpp:77] Creating layer inception_4c/pool_proj
I0403 15:56:03.761759 20547 net.cpp:91] Creating Layer inception_4c/pool_proj
I0403 15:56:03.761777 20547 net.cpp:425] inception_4c/pool_proj <- inception_4c/pool
I0403 15:56:03.761800 20547 net.cpp:399] inception_4c/pool_proj -> inception_4c/pool_proj
I0403 15:56:03.763065 20547 net.cpp:141] Setting up inception_4c/pool_proj
I0403 15:56:03.763097 20547 net.cpp:148] Top shape: 24 64 14 14 (301056)
I0403 15:56:03.763125 20547 net.cpp:156] Memory required for data: 1061809440
I0403 15:56:03.763145 20547 layer_factory.hpp:77] Creating layer inception_4c/relu_pool_proj
I0403 15:56:03.763164 20547 net.cpp:91] Creating Layer inception_4c/relu_pool_proj
I0403 15:56:03.763180 20547 net.cpp:425] inception_4c/relu_pool_proj <- inception_4c/pool_proj
I0403 15:56:03.763200 20547 net.cpp:386] inception_4c/relu_pool_proj -> inception_4c/pool_proj (in-place)
I0403 15:56:03.763389 20547 net.cpp:141] Setting up inception_4c/relu_pool_proj
I0403 15:56:03.763414 20547 net.cpp:148] Top shape: 24 64 14 14 (301056)
I0403 15:56:03.763429 20547 net.cpp:156] Memory required for data: 1063013664
I0403 15:56:03.763443 20547 layer_factory.hpp:77] Creating layer inception_4c/output
I0403 15:56:03.763461 20547 net.cpp:91] Creating Layer inception_4c/output
I0403 15:56:03.763476 20547 net.cpp:425] inception_4c/output <- inception_4c/1x1
I0403 15:56:03.763494 20547 net.cpp:425] inception_4c/output <- inception_4c/3x3
I0403 15:56:03.763509 20547 net.cpp:425] inception_4c/output <- inception_4c/5x5
I0403 15:56:03.763525 20547 net.cpp:425] inception_4c/output <- inception_4c/pool_proj
I0403 15:56:03.763545 20547 net.cpp:399] inception_4c/output -> inception_4c/output
I0403 15:56:03.763592 20547 net.cpp:141] Setting up inception_4c/output
I0403 15:56:03.763618 20547 net.cpp:148] Top shape: 24 512 14 14 (2408448)
I0403 15:56:03.763633 20547 net.cpp:156] Memory required for data: 1072647456
I0403 15:56:03.763648 20547 layer_factory.hpp:77] Creating layer inception_4c/output_inception_4c/output_0_split
I0403 15:56:03.763664 20547 net.cpp:91] Creating Layer inception_4c/output_inception_4c/output_0_split
I0403 15:56:03.763680 20547 net.cpp:425] inception_4c/output_inception_4c/output_0_split <- inception_4c/output
I0403 15:56:03.763700 20547 net.cpp:399] inception_4c/output_inception_4c/output_0_split -> inception_4c/output_inception_4c/output_0_split_0
I0403 15:56:03.763720 20547 net.cpp:399] inception_4c/output_inception_4c/output_0_split -> inception_4c/output_inception_4c/output_0_split_1
I0403 15:56:03.763741 20547 net.cpp:399] inception_4c/output_inception_4c/output_0_split -> inception_4c/output_inception_4c/output_0_split_2
I0403 15:56:03.763759 20547 net.cpp:399] inception_4c/output_inception_4c/output_0_split -> inception_4c/output_inception_4c/output_0_split_3
I0403 15:56:03.763847 20547 net.cpp:141] Setting up inception_4c/output_inception_4c/output_0_split
I0403 15:56:03.763871 20547 net.cpp:148] Top shape: 24 512 14 14 (2408448)
I0403 15:56:03.763888 20547 net.cpp:148] Top shape: 24 512 14 14 (2408448)
I0403 15:56:03.763903 20547 net.cpp:148] Top shape: 24 512 14 14 (2408448)
I0403 15:56:03.763919 20547 net.cpp:148] Top shape: 24 512 14 14 (2408448)
I0403 15:56:03.763932 20547 net.cpp:156] Memory required for data: 1111182624
I0403 15:56:03.763947 20547 layer_factory.hpp:77] Creating layer inception_4d/1x1
I0403 15:56:03.763972 20547 net.cpp:91] Creating Layer inception_4d/1x1
I0403 15:56:03.763995 20547 net.cpp:425] inception_4d/1x1 <- inception_4c/output_inception_4c/output_0_split_0
I0403 15:56:03.764016 20547 net.cpp:399] inception_4d/1x1 -> inception_4d/1x1
I0403 15:56:03.765439 20547 net.cpp:141] Setting up inception_4d/1x1
I0403 15:56:03.765466 20547 net.cpp:148] Top shape: 24 112 14 14 (526848)
I0403 15:56:03.765482 20547 net.cpp:156] Memory required for data: 1113290016
I0403 15:56:03.765501 20547 layer_factory.hpp:77] Creating layer inception_4d/relu_1x1
I0403 15:56:03.765522 20547 net.cpp:91] Creating Layer inception_4d/relu_1x1
I0403 15:56:03.765538 20547 net.cpp:425] inception_4d/relu_1x1 <- inception_4d/1x1
I0403 15:56:03.765557 20547 net.cpp:386] inception_4d/relu_1x1 -> inception_4d/1x1 (in-place)
I0403 15:56:03.765744 20547 net.cpp:141] Setting up inception_4d/relu_1x1
I0403 15:56:03.765771 20547 net.cpp:148] Top shape: 24 112 14 14 (526848)
I0403 15:56:03.765787 20547 net.cpp:156] Memory required for data: 1115397408
I0403 15:56:03.765802 20547 layer_factory.hpp:77] Creating layer inception_4d/3x3_reduce
I0403 15:56:03.765851 20547 net.cpp:91] Creating Layer inception_4d/3x3_reduce
I0403 15:56:03.765871 20547 net.cpp:425] inception_4d/3x3_reduce <- inception_4c/output_inception_4c/output_0_split_1
I0403 15:56:03.765893 20547 net.cpp:399] inception_4d/3x3_reduce -> inception_4d/3x3_reduce
I0403 15:56:03.767410 20547 net.cpp:141] Setting up inception_4d/3x3_reduce
I0403 15:56:03.767437 20547 net.cpp:148] Top shape: 24 144 14 14 (677376)
I0403 15:56:03.767452 20547 net.cpp:156] Memory required for data: 1118106912
I0403 15:56:03.767470 20547 layer_factory.hpp:77] Creating layer inception_4d/relu_3x3_reduce
I0403 15:56:03.767490 20547 net.cpp:91] Creating Layer inception_4d/relu_3x3_reduce
I0403 15:56:03.767506 20547 net.cpp:425] inception_4d/relu_3x3_reduce <- inception_4d/3x3_reduce
I0403 15:56:03.767523 20547 net.cpp:386] inception_4d/relu_3x3_reduce -> inception_4d/3x3_reduce (in-place)
I0403 15:56:03.767810 20547 net.cpp:141] Setting up inception_4d/relu_3x3_reduce
I0403 15:56:03.767837 20547 net.cpp:148] Top shape: 24 144 14 14 (677376)
I0403 15:56:03.767850 20547 net.cpp:156] Memory required for data: 1120816416
I0403 15:56:03.767865 20547 layer_factory.hpp:77] Creating layer inception_4d/3x3
I0403 15:56:03.767889 20547 net.cpp:91] Creating Layer inception_4d/3x3
I0403 15:56:03.767906 20547 net.cpp:425] inception_4d/3x3 <- inception_4d/3x3_reduce
I0403 15:56:03.767926 20547 net.cpp:399] inception_4d/3x3 -> inception_4d/3x3
I0403 15:56:03.772218 20547 net.cpp:141] Setting up inception_4d/3x3
I0403 15:56:03.772249 20547 net.cpp:148] Top shape: 24 288 14 14 (1354752)
I0403 15:56:03.772265 20547 net.cpp:156] Memory required for data: 1126235424
I0403 15:56:03.772284 20547 layer_factory.hpp:77] Creating layer inception_4d/relu_3x3
I0403 15:56:03.772301 20547 net.cpp:91] Creating Layer inception_4d/relu_3x3
I0403 15:56:03.772317 20547 net.cpp:425] inception_4d/relu_3x3 <- inception_4d/3x3
I0403 15:56:03.772335 20547 net.cpp:386] inception_4d/relu_3x3 -> inception_4d/3x3 (in-place)
I0403 15:56:03.772516 20547 net.cpp:141] Setting up inception_4d/relu_3x3
I0403 15:56:03.772542 20547 net.cpp:148] Top shape: 24 288 14 14 (1354752)
I0403 15:56:03.772557 20547 net.cpp:156] Memory required for data: 1131654432
I0403 15:56:03.772572 20547 layer_factory.hpp:77] Creating layer inception_4d/5x5_reduce
I0403 15:56:03.772594 20547 net.cpp:91] Creating Layer inception_4d/5x5_reduce
I0403 15:56:03.772611 20547 net.cpp:425] inception_4d/5x5_reduce <- inception_4c/output_inception_4c/output_0_split_2
I0403 15:56:03.772634 20547 net.cpp:399] inception_4d/5x5_reduce -> inception_4d/5x5_reduce
I0403 15:56:03.773792 20547 net.cpp:141] Setting up inception_4d/5x5_reduce
I0403 15:56:03.773818 20547 net.cpp:148] Top shape: 24 32 14 14 (150528)
I0403 15:56:03.773834 20547 net.cpp:156] Memory required for data: 1132256544
I0403 15:56:03.773852 20547 layer_factory.hpp:77] Creating layer inception_4d/relu_5x5_reduce
I0403 15:56:03.773871 20547 net.cpp:91] Creating Layer inception_4d/relu_5x5_reduce
I0403 15:56:03.773888 20547 net.cpp:425] inception_4d/relu_5x5_reduce <- inception_4d/5x5_reduce
I0403 15:56:03.773905 20547 net.cpp:386] inception_4d/relu_5x5_reduce -> inception_4d/5x5_reduce (in-place)
I0403 15:56:03.774101 20547 net.cpp:141] Setting up inception_4d/relu_5x5_reduce
I0403 15:56:03.774127 20547 net.cpp:148] Top shape: 24 32 14 14 (150528)
I0403 15:56:03.774142 20547 net.cpp:156] Memory required for data: 1132858656
I0403 15:56:03.774157 20547 layer_factory.hpp:77] Creating layer inception_4d/5x5
I0403 15:56:03.774178 20547 net.cpp:91] Creating Layer inception_4d/5x5
I0403 15:56:03.774195 20547 net.cpp:425] inception_4d/5x5 <- inception_4d/5x5_reduce
I0403 15:56:03.774215 20547 net.cpp:399] inception_4d/5x5 -> inception_4d/5x5
I0403 15:56:03.775696 20547 net.cpp:141] Setting up inception_4d/5x5
I0403 15:56:03.775723 20547 net.cpp:148] Top shape: 24 64 14 14 (301056)
I0403 15:56:03.775738 20547 net.cpp:156] Memory required for data: 1134062880
I0403 15:56:03.775756 20547 layer_factory.hpp:77] Creating layer inception_4d/relu_5x5
I0403 15:56:03.775790 20547 net.cpp:91] Creating Layer inception_4d/relu_5x5
I0403 15:56:03.775806 20547 net.cpp:425] inception_4d/relu_5x5 <- inception_4d/5x5
I0403 15:56:03.775826 20547 net.cpp:386] inception_4d/relu_5x5 -> inception_4d/5x5 (in-place)
I0403 15:56:03.776135 20547 net.cpp:141] Setting up inception_4d/relu_5x5
I0403 15:56:03.776161 20547 net.cpp:148] Top shape: 24 64 14 14 (301056)
I0403 15:56:03.776176 20547 net.cpp:156] Memory required for data: 1135267104
I0403 15:56:03.776191 20547 layer_factory.hpp:77] Creating layer inception_4d/pool
I0403 15:56:03.776209 20547 net.cpp:91] Creating Layer inception_4d/pool
I0403 15:56:03.776226 20547 net.cpp:425] inception_4d/pool <- inception_4c/output_inception_4c/output_0_split_3
I0403 15:56:03.776245 20547 net.cpp:399] inception_4d/pool -> inception_4d/pool
I0403 15:56:03.776312 20547 net.cpp:141] Setting up inception_4d/pool
I0403 15:56:03.776335 20547 net.cpp:148] Top shape: 24 512 14 14 (2408448)
I0403 15:56:03.776350 20547 net.cpp:156] Memory required for data: 1144900896
I0403 15:56:03.776365 20547 layer_factory.hpp:77] Creating layer inception_4d/pool_proj
I0403 15:56:03.776387 20547 net.cpp:91] Creating Layer inception_4d/pool_proj
I0403 15:56:03.776404 20547 net.cpp:425] inception_4d/pool_proj <- inception_4d/pool
I0403 15:56:03.776423 20547 net.cpp:399] inception_4d/pool_proj -> inception_4d/pool_proj
I0403 15:56:03.778174 20547 net.cpp:141] Setting up inception_4d/pool_proj
I0403 15:56:03.778205 20547 net.cpp:148] Top shape: 24 64 14 14 (301056)
I0403 15:56:03.778221 20547 net.cpp:156] Memory required for data: 1146105120
I0403 15:56:03.778239 20547 layer_factory.hpp:77] Creating layer inception_4d/relu_pool_proj
I0403 15:56:03.778255 20547 net.cpp:91] Creating Layer inception_4d/relu_pool_proj
I0403 15:56:03.778270 20547 net.cpp:425] inception_4d/relu_pool_proj <- inception_4d/pool_proj
I0403 15:56:03.778287 20547 net.cpp:386] inception_4d/relu_pool_proj -> inception_4d/pool_proj (in-place)
I0403 15:56:03.778466 20547 net.cpp:141] Setting up inception_4d/relu_pool_proj
I0403 15:56:03.778493 20547 net.cpp:148] Top shape: 24 64 14 14 (301056)
I0403 15:56:03.778508 20547 net.cpp:156] Memory required for data: 1147309344
I0403 15:56:03.778522 20547 layer_factory.hpp:77] Creating layer inception_4d/output
I0403 15:56:03.778538 20547 net.cpp:91] Creating Layer inception_4d/output
I0403 15:56:03.778554 20547 net.cpp:425] inception_4d/output <- inception_4d/1x1
I0403 15:56:03.778569 20547 net.cpp:425] inception_4d/output <- inception_4d/3x3
I0403 15:56:03.778585 20547 net.cpp:425] inception_4d/output <- inception_4d/5x5
I0403 15:56:03.778599 20547 net.cpp:425] inception_4d/output <- inception_4d/pool_proj
I0403 15:56:03.778619 20547 net.cpp:399] inception_4d/output -> inception_4d/output
I0403 15:56:03.778663 20547 net.cpp:141] Setting up inception_4d/output
I0403 15:56:03.778687 20547 net.cpp:148] Top shape: 24 528 14 14 (2483712)
I0403 15:56:03.778700 20547 net.cpp:156] Memory required for data: 1157244192
I0403 15:56:03.778714 20547 layer_factory.hpp:77] Creating layer inception_4d/output_inception_4d/output_0_split
I0403 15:56:03.778733 20547 net.cpp:91] Creating Layer inception_4d/output_inception_4d/output_0_split
I0403 15:56:03.778749 20547 net.cpp:425] inception_4d/output_inception_4d/output_0_split <- inception_4d/output
I0403 15:56:03.778766 20547 net.cpp:399] inception_4d/output_inception_4d/output_0_split -> inception_4d/output_inception_4d/output_0_split_0
I0403 15:56:03.778790 20547 net.cpp:399] inception_4d/output_inception_4d/output_0_split -> inception_4d/output_inception_4d/output_0_split_1
I0403 15:56:03.778810 20547 net.cpp:399] inception_4d/output_inception_4d/output_0_split -> inception_4d/output_inception_4d/output_0_split_2
I0403 15:56:03.778830 20547 net.cpp:399] inception_4d/output_inception_4d/output_0_split -> inception_4d/output_inception_4d/output_0_split_3
I0403 15:56:03.778848 20547 net.cpp:399] inception_4d/output_inception_4d/output_0_split -> inception_4d/output_inception_4d/output_0_split_4
I0403 15:56:03.778946 20547 net.cpp:141] Setting up inception_4d/output_inception_4d/output_0_split
I0403 15:56:03.778980 20547 net.cpp:148] Top shape: 24 528 14 14 (2483712)
I0403 15:56:03.779006 20547 net.cpp:148] Top shape: 24 528 14 14 (2483712)
I0403 15:56:03.779021 20547 net.cpp:148] Top shape: 24 528 14 14 (2483712)
I0403 15:56:03.779036 20547 net.cpp:148] Top shape: 24 528 14 14 (2483712)
I0403 15:56:03.779049 20547 net.cpp:148] Top shape: 24 528 14 14 (2483712)
I0403 15:56:03.779062 20547 net.cpp:156] Memory required for data: 1206918432
I0403 15:56:03.779077 20547 layer_factory.hpp:77] Creating layer loss2/ave_pool
I0403 15:56:03.779096 20547 net.cpp:91] Creating Layer loss2/ave_pool
I0403 15:56:03.779112 20547 net.cpp:425] loss2/ave_pool <- inception_4d/output_inception_4d/output_0_split_0
I0403 15:56:03.779131 20547 net.cpp:399] loss2/ave_pool -> loss2/ave_pool
I0403 15:56:03.779435 20547 net.cpp:141] Setting up loss2/ave_pool
I0403 15:56:03.779463 20547 net.cpp:148] Top shape: 24 528 4 4 (202752)
I0403 15:56:03.779477 20547 net.cpp:156] Memory required for data: 1207729440
I0403 15:56:03.779491 20547 layer_factory.hpp:77] Creating layer loss2/conv
I0403 15:56:03.779513 20547 net.cpp:91] Creating Layer loss2/conv
I0403 15:56:03.779531 20547 net.cpp:425] loss2/conv <- loss2/ave_pool
I0403 15:56:03.779548 20547 net.cpp:399] loss2/conv -> loss2/conv
I0403 15:56:03.781393 20547 net.cpp:141] Setting up loss2/conv
I0403 15:56:03.781419 20547 net.cpp:148] Top shape: 24 128 4 4 (49152)
I0403 15:56:03.781433 20547 net.cpp:156] Memory required for data: 1207926048
I0403 15:56:03.781451 20547 layer_factory.hpp:77] Creating layer loss2/relu_conv
I0403 15:56:03.781471 20547 net.cpp:91] Creating Layer loss2/relu_conv
I0403 15:56:03.781487 20547 net.cpp:425] loss2/relu_conv <- loss2/conv
I0403 15:56:03.781503 20547 net.cpp:386] loss2/relu_conv -> loss2/conv (in-place)
I0403 15:56:03.781780 20547 net.cpp:141] Setting up loss2/relu_conv
I0403 15:56:03.781805 20547 net.cpp:148] Top shape: 24 128 4 4 (49152)
I0403 15:56:03.781819 20547 net.cpp:156] Memory required for data: 1208122656
I0403 15:56:03.781833 20547 layer_factory.hpp:77] Creating layer loss2/fc
I0403 15:56:03.781855 20547 net.cpp:91] Creating Layer loss2/fc
I0403 15:56:03.781872 20547 net.cpp:425] loss2/fc <- loss2/conv
I0403 15:56:03.781889 20547 net.cpp:399] loss2/fc -> loss2/fc
I0403 15:56:03.799661 20547 net.cpp:141] Setting up loss2/fc
I0403 15:56:03.799703 20547 net.cpp:148] Top shape: 24 1024 (24576)
I0403 15:56:03.799718 20547 net.cpp:156] Memory required for data: 1208220960
I0403 15:56:03.799737 20547 layer_factory.hpp:77] Creating layer loss2/relu_fc
I0403 15:56:03.799769 20547 net.cpp:91] Creating Layer loss2/relu_fc
I0403 15:56:03.799785 20547 net.cpp:425] loss2/relu_fc <- loss2/fc
I0403 15:56:03.799804 20547 net.cpp:386] loss2/relu_fc -> loss2/fc (in-place)
I0403 15:56:03.800143 20547 net.cpp:141] Setting up loss2/relu_fc
I0403 15:56:03.800170 20547 net.cpp:148] Top shape: 24 1024 (24576)
I0403 15:56:03.800186 20547 net.cpp:156] Memory required for data: 1208319264
I0403 15:56:03.800201 20547 layer_factory.hpp:77] Creating layer loss2/drop_fc
I0403 15:56:03.800218 20547 net.cpp:91] Creating Layer loss2/drop_fc
I0403 15:56:03.800233 20547 net.cpp:425] loss2/drop_fc <- loss2/fc
I0403 15:56:03.800251 20547 net.cpp:386] loss2/drop_fc -> loss2/fc (in-place)
I0403 15:56:03.800298 20547 net.cpp:141] Setting up loss2/drop_fc
I0403 15:56:03.800320 20547 net.cpp:148] Top shape: 24 1024 (24576)
I0403 15:56:03.800334 20547 net.cpp:156] Memory required for data: 1208417568
I0403 15:56:03.800348 20547 layer_factory.hpp:77] Creating layer loss2/classifier_plantvillage
I0403 15:56:03.800369 20547 net.cpp:91] Creating Layer loss2/classifier_plantvillage
I0403 15:56:03.800385 20547 net.cpp:425] loss2/classifier_plantvillage <- loss2/fc
I0403 15:56:03.800405 20547 net.cpp:399] loss2/classifier_plantvillage -> loss2/classifier_plantvillage
I0403 15:56:03.800796 20547 net.cpp:141] Setting up loss2/classifier_plantvillage
I0403 15:56:03.800820 20547 net.cpp:148] Top shape: 24 38 (912)
I0403 15:56:03.800834 20547 net.cpp:156] Memory required for data: 1208421216
I0403 15:56:03.800868 20547 layer_factory.hpp:77] Creating layer loss2/classifier_plantvillage_loss2/classifier_plantvillage_0_split
I0403 15:56:03.800886 20547 net.cpp:91] Creating Layer loss2/classifier_plantvillage_loss2/classifier_plantvillage_0_split
I0403 15:56:03.800904 20547 net.cpp:425] loss2/classifier_plantvillage_loss2/classifier_plantvillage_0_split <- loss2/classifier_plantvillage
I0403 15:56:03.800921 20547 net.cpp:399] loss2/classifier_plantvillage_loss2/classifier_plantvillage_0_split -> loss2/classifier_plantvillage_loss2/classifier_plantvillage_0_split_0
I0403 15:56:03.800941 20547 net.cpp:399] loss2/classifier_plantvillage_loss2/classifier_plantvillage_0_split -> loss2/classifier_plantvillage_loss2/classifier_plantvillage_0_split_1
I0403 15:56:03.800961 20547 net.cpp:399] loss2/classifier_plantvillage_loss2/classifier_plantvillage_0_split -> loss2/classifier_plantvillage_loss2/classifier_plantvillage_0_split_2
I0403 15:56:03.801043 20547 net.cpp:141] Setting up loss2/classifier_plantvillage_loss2/classifier_plantvillage_0_split
I0403 15:56:03.801067 20547 net.cpp:148] Top shape: 24 38 (912)
I0403 15:56:03.801084 20547 net.cpp:148] Top shape: 24 38 (912)
I0403 15:56:03.801098 20547 net.cpp:148] Top shape: 24 38 (912)
I0403 15:56:03.801111 20547 net.cpp:156] Memory required for data: 1208432160
I0403 15:56:03.801126 20547 layer_factory.hpp:77] Creating layer inception_4e/1x1
I0403 15:56:03.801144 20547 net.cpp:91] Creating Layer inception_4e/1x1
I0403 15:56:03.801159 20547 net.cpp:425] inception_4e/1x1 <- inception_4d/output_inception_4d/output_0_split_1
I0403 15:56:03.801179 20547 net.cpp:399] inception_4e/1x1 -> inception_4e/1x1
I0403 15:56:03.802948 20547 net.cpp:141] Setting up inception_4e/1x1
I0403 15:56:03.802975 20547 net.cpp:148] Top shape: 24 256 14 14 (1204224)
I0403 15:56:03.802997 20547 net.cpp:156] Memory required for data: 1213249056
I0403 15:56:03.803015 20547 layer_factory.hpp:77] Creating layer inception_4e/relu_1x1
I0403 15:56:03.803033 20547 net.cpp:91] Creating Layer inception_4e/relu_1x1
I0403 15:56:03.803048 20547 net.cpp:425] inception_4e/relu_1x1 <- inception_4e/1x1
I0403 15:56:03.803066 20547 net.cpp:386] inception_4e/relu_1x1 -> inception_4e/1x1 (in-place)
I0403 15:56:03.803359 20547 net.cpp:141] Setting up inception_4e/relu_1x1
I0403 15:56:03.803385 20547 net.cpp:148] Top shape: 24 256 14 14 (1204224)
I0403 15:56:03.803398 20547 net.cpp:156] Memory required for data: 1218065952
I0403 15:56:03.803412 20547 layer_factory.hpp:77] Creating layer inception_4e/3x3_reduce
I0403 15:56:03.803434 20547 net.cpp:91] Creating Layer inception_4e/3x3_reduce
I0403 15:56:03.803450 20547 net.cpp:425] inception_4e/3x3_reduce <- inception_4d/output_inception_4d/output_0_split_2
I0403 15:56:03.803470 20547 net.cpp:399] inception_4e/3x3_reduce -> inception_4e/3x3_reduce
I0403 15:56:03.805546 20547 net.cpp:141] Setting up inception_4e/3x3_reduce
I0403 15:56:03.805574 20547 net.cpp:148] Top shape: 24 160 14 14 (752640)
I0403 15:56:03.805589 20547 net.cpp:156] Memory required for data: 1221076512
I0403 15:56:03.805606 20547 layer_factory.hpp:77] Creating layer inception_4e/relu_3x3_reduce
I0403 15:56:03.805624 20547 net.cpp:91] Creating Layer inception_4e/relu_3x3_reduce
I0403 15:56:03.805639 20547 net.cpp:425] inception_4e/relu_3x3_reduce <- inception_4e/3x3_reduce
I0403 15:56:03.805658 20547 net.cpp:386] inception_4e/relu_3x3_reduce -> inception_4e/3x3_reduce (in-place)
I0403 15:56:03.805840 20547 net.cpp:141] Setting up inception_4e/relu_3x3_reduce
I0403 15:56:03.805865 20547 net.cpp:148] Top shape: 24 160 14 14 (752640)
I0403 15:56:03.805879 20547 net.cpp:156] Memory required for data: 1224087072
I0403 15:56:03.805893 20547 layer_factory.hpp:77] Creating layer inception_4e/3x3
I0403 15:56:03.805914 20547 net.cpp:91] Creating Layer inception_4e/3x3
I0403 15:56:03.805932 20547 net.cpp:425] inception_4e/3x3 <- inception_4e/3x3_reduce
I0403 15:56:03.805951 20547 net.cpp:399] inception_4e/3x3 -> inception_4e/3x3
I0403 15:56:03.810849 20547 net.cpp:141] Setting up inception_4e/3x3
I0403 15:56:03.810889 20547 net.cpp:148] Top shape: 24 320 14 14 (1505280)
I0403 15:56:03.810904 20547 net.cpp:156] Memory required for data: 1230108192
I0403 15:56:03.810922 20547 layer_factory.hpp:77] Creating layer inception_4e/relu_3x3
I0403 15:56:03.810942 20547 net.cpp:91] Creating Layer inception_4e/relu_3x3
I0403 15:56:03.810958 20547 net.cpp:425] inception_4e/relu_3x3 <- inception_4e/3x3
I0403 15:56:03.810974 20547 net.cpp:386] inception_4e/relu_3x3 -> inception_4e/3x3 (in-place)
I0403 15:56:03.811272 20547 net.cpp:141] Setting up inception_4e/relu_3x3
I0403 15:56:03.811298 20547 net.cpp:148] Top shape: 24 320 14 14 (1505280)
I0403 15:56:03.811312 20547 net.cpp:156] Memory required for data: 1236129312
I0403 15:56:03.811326 20547 layer_factory.hpp:77] Creating layer inception_4e/5x5_reduce
I0403 15:56:03.811350 20547 net.cpp:91] Creating Layer inception_4e/5x5_reduce
I0403 15:56:03.811367 20547 net.cpp:425] inception_4e/5x5_reduce <- inception_4d/output_inception_4d/output_0_split_3
I0403 15:56:03.811385 20547 net.cpp:399] inception_4e/5x5_reduce -> inception_4e/5x5_reduce
I0403 15:56:03.812535 20547 net.cpp:141] Setting up inception_4e/5x5_reduce
I0403 15:56:03.812562 20547 net.cpp:148] Top shape: 24 32 14 14 (150528)
I0403 15:56:03.812577 20547 net.cpp:156] Memory required for data: 1236731424
I0403 15:56:03.812594 20547 layer_factory.hpp:77] Creating layer inception_4e/relu_5x5_reduce
I0403 15:56:03.812613 20547 net.cpp:91] Creating Layer inception_4e/relu_5x5_reduce
I0403 15:56:03.812628 20547 net.cpp:425] inception_4e/relu_5x5_reduce <- inception_4e/5x5_reduce
I0403 15:56:03.812647 20547 net.cpp:386] inception_4e/relu_5x5_reduce -> inception_4e/5x5_reduce (in-place)
I0403 15:56:03.812937 20547 net.cpp:141] Setting up inception_4e/relu_5x5_reduce
I0403 15:56:03.812963 20547 net.cpp:148] Top shape: 24 32 14 14 (150528)
I0403 15:56:03.812978 20547 net.cpp:156] Memory required for data: 1237333536
I0403 15:56:03.812999 20547 layer_factory.hpp:77] Creating layer inception_4e/5x5
I0403 15:56:03.813037 20547 net.cpp:91] Creating Layer inception_4e/5x5
I0403 15:56:03.813056 20547 net.cpp:425] inception_4e/5x5 <- inception_4e/5x5_reduce
I0403 15:56:03.813074 20547 net.cpp:399] inception_4e/5x5 -> inception_4e/5x5
I0403 15:56:03.814934 20547 net.cpp:141] Setting up inception_4e/5x5
I0403 15:56:03.814962 20547 net.cpp:148] Top shape: 24 128 14 14 (602112)
I0403 15:56:03.814978 20547 net.cpp:156] Memory required for data: 1239741984
I0403 15:56:03.815009 20547 layer_factory.hpp:77] Creating layer inception_4e/relu_5x5
I0403 15:56:03.815029 20547 net.cpp:91] Creating Layer inception_4e/relu_5x5
I0403 15:56:03.815044 20547 net.cpp:425] inception_4e/relu_5x5 <- inception_4e/5x5
I0403 15:56:03.815060 20547 net.cpp:386] inception_4e/relu_5x5 -> inception_4e/5x5 (in-place)
I0403 15:56:03.815266 20547 net.cpp:141] Setting up inception_4e/relu_5x5
I0403 15:56:03.815291 20547 net.cpp:148] Top shape: 24 128 14 14 (602112)
I0403 15:56:03.815305 20547 net.cpp:156] Memory required for data: 1242150432
I0403 15:56:03.815320 20547 layer_factory.hpp:77] Creating layer inception_4e/pool
I0403 15:56:03.815336 20547 net.cpp:91] Creating Layer inception_4e/pool
I0403 15:56:03.815352 20547 net.cpp:425] inception_4e/pool <- inception_4d/output_inception_4d/output_0_split_4
I0403 15:56:03.815372 20547 net.cpp:399] inception_4e/pool -> inception_4e/pool
I0403 15:56:03.815453 20547 net.cpp:141] Setting up inception_4e/pool
I0403 15:56:03.815476 20547 net.cpp:148] Top shape: 24 528 14 14 (2483712)
I0403 15:56:03.815490 20547 net.cpp:156] Memory required for data: 1252085280
I0403 15:56:03.815505 20547 layer_factory.hpp:77] Creating layer inception_4e/pool_proj
I0403 15:56:03.815526 20547 net.cpp:91] Creating Layer inception_4e/pool_proj
I0403 15:56:03.815542 20547 net.cpp:425] inception_4e/pool_proj <- inception_4e/pool
I0403 15:56:03.815560 20547 net.cpp:399] inception_4e/pool_proj -> inception_4e/pool_proj
I0403 15:56:03.817075 20547 net.cpp:141] Setting up inception_4e/pool_proj
I0403 15:56:03.817104 20547 net.cpp:148] Top shape: 24 128 14 14 (602112)
I0403 15:56:03.817145 20547 net.cpp:156] Memory required for data: 1254493728
I0403 15:56:03.817165 20547 layer_factory.hpp:77] Creating layer inception_4e/relu_pool_proj
I0403 15:56:03.817184 20547 net.cpp:91] Creating Layer inception_4e/relu_pool_proj
I0403 15:56:03.817200 20547 net.cpp:425] inception_4e/relu_pool_proj <- inception_4e/pool_proj
I0403 15:56:03.817217 20547 net.cpp:386] inception_4e/relu_pool_proj -> inception_4e/pool_proj (in-place)
I0403 15:56:03.817534 20547 net.cpp:141] Setting up inception_4e/relu_pool_proj
I0403 15:56:03.817562 20547 net.cpp:148] Top shape: 24 128 14 14 (602112)
I0403 15:56:03.817577 20547 net.cpp:156] Memory required for data: 1256902176
I0403 15:56:03.817591 20547 layer_factory.hpp:77] Creating layer inception_4e/output
I0403 15:56:03.817607 20547 net.cpp:91] Creating Layer inception_4e/output
I0403 15:56:03.817622 20547 net.cpp:425] inception_4e/output <- inception_4e/1x1
I0403 15:56:03.817639 20547 net.cpp:425] inception_4e/output <- inception_4e/3x3
I0403 15:56:03.817654 20547 net.cpp:425] inception_4e/output <- inception_4e/5x5
I0403 15:56:03.817669 20547 net.cpp:425] inception_4e/output <- inception_4e/pool_proj
I0403 15:56:03.817685 20547 net.cpp:399] inception_4e/output -> inception_4e/output
I0403 15:56:03.817734 20547 net.cpp:141] Setting up inception_4e/output
I0403 15:56:03.817757 20547 net.cpp:148] Top shape: 24 832 14 14 (3913728)
I0403 15:56:03.817771 20547 net.cpp:156] Memory required for data: 1272557088
I0403 15:56:03.817785 20547 layer_factory.hpp:77] Creating layer pool4/3x3_s2
I0403 15:56:03.817803 20547 net.cpp:91] Creating Layer pool4/3x3_s2
I0403 15:56:03.817821 20547 net.cpp:425] pool4/3x3_s2 <- inception_4e/output
I0403 15:56:03.817837 20547 net.cpp:399] pool4/3x3_s2 -> pool4/3x3_s2
I0403 15:56:03.817905 20547 net.cpp:141] Setting up pool4/3x3_s2
I0403 15:56:03.817929 20547 net.cpp:148] Top shape: 24 832 7 7 (978432)
I0403 15:56:03.817942 20547 net.cpp:156] Memory required for data: 1276470816
I0403 15:56:03.817956 20547 layer_factory.hpp:77] Creating layer pool4/3x3_s2_pool4/3x3_s2_0_split
I0403 15:56:03.817972 20547 net.cpp:91] Creating Layer pool4/3x3_s2_pool4/3x3_s2_0_split
I0403 15:56:03.817999 20547 net.cpp:425] pool4/3x3_s2_pool4/3x3_s2_0_split <- pool4/3x3_s2
I0403 15:56:03.818022 20547 net.cpp:399] pool4/3x3_s2_pool4/3x3_s2_0_split -> pool4/3x3_s2_pool4/3x3_s2_0_split_0
I0403 15:56:03.818043 20547 net.cpp:399] pool4/3x3_s2_pool4/3x3_s2_0_split -> pool4/3x3_s2_pool4/3x3_s2_0_split_1
I0403 15:56:03.818063 20547 net.cpp:399] pool4/3x3_s2_pool4/3x3_s2_0_split -> pool4/3x3_s2_pool4/3x3_s2_0_split_2
I0403 15:56:03.818081 20547 net.cpp:399] pool4/3x3_s2_pool4/3x3_s2_0_split -> pool4/3x3_s2_pool4/3x3_s2_0_split_3
I0403 15:56:03.818183 20547 net.cpp:141] Setting up pool4/3x3_s2_pool4/3x3_s2_0_split
I0403 15:56:03.818208 20547 net.cpp:148] Top shape: 24 832 7 7 (978432)
I0403 15:56:03.818225 20547 net.cpp:148] Top shape: 24 832 7 7 (978432)
I0403 15:56:03.818241 20547 net.cpp:148] Top shape: 24 832 7 7 (978432)
I0403 15:56:03.818256 20547 net.cpp:148] Top shape: 24 832 7 7 (978432)
I0403 15:56:03.818270 20547 net.cpp:156] Memory required for data: 1292125728
I0403 15:56:03.818284 20547 layer_factory.hpp:77] Creating layer inception_5a/1x1
I0403 15:56:03.818306 20547 net.cpp:91] Creating Layer inception_5a/1x1
I0403 15:56:03.818322 20547 net.cpp:425] inception_5a/1x1 <- pool4/3x3_s2_pool4/3x3_s2_0_split_0
I0403 15:56:03.818341 20547 net.cpp:399] inception_5a/1x1 -> inception_5a/1x1
I0403 15:56:03.821197 20547 net.cpp:141] Setting up inception_5a/1x1
I0403 15:56:03.821225 20547 net.cpp:148] Top shape: 24 256 7 7 (301056)
I0403 15:56:03.821241 20547 net.cpp:156] Memory required for data: 1293329952
I0403 15:56:03.821259 20547 layer_factory.hpp:77] Creating layer inception_5a/relu_1x1
I0403 15:56:03.821277 20547 net.cpp:91] Creating Layer inception_5a/relu_1x1
I0403 15:56:03.821292 20547 net.cpp:425] inception_5a/relu_1x1 <- inception_5a/1x1
I0403 15:56:03.821311 20547 net.cpp:386] inception_5a/relu_1x1 -> inception_5a/1x1 (in-place)
I0403 15:56:03.821612 20547 net.cpp:141] Setting up inception_5a/relu_1x1
I0403 15:56:03.821640 20547 net.cpp:148] Top shape: 24 256 7 7 (301056)
I0403 15:56:03.821656 20547 net.cpp:156] Memory required for data: 1294534176
I0403 15:56:03.821671 20547 layer_factory.hpp:77] Creating layer inception_5a/3x3_reduce
I0403 15:56:03.821692 20547 net.cpp:91] Creating Layer inception_5a/3x3_reduce
I0403 15:56:03.821710 20547 net.cpp:425] inception_5a/3x3_reduce <- pool4/3x3_s2_pool4/3x3_s2_0_split_1
I0403 15:56:03.821728 20547 net.cpp:399] inception_5a/3x3_reduce -> inception_5a/3x3_reduce
I0403 15:56:03.824286 20547 net.cpp:141] Setting up inception_5a/3x3_reduce
I0403 15:56:03.824316 20547 net.cpp:148] Top shape: 24 160 7 7 (188160)
I0403 15:56:03.824331 20547 net.cpp:156] Memory required for data: 1295286816
I0403 15:56:03.824348 20547 layer_factory.hpp:77] Creating layer inception_5a/relu_3x3_reduce
I0403 15:56:03.824368 20547 net.cpp:91] Creating Layer inception_5a/relu_3x3_reduce
I0403 15:56:03.824385 20547 net.cpp:425] inception_5a/relu_3x3_reduce <- inception_5a/3x3_reduce
I0403 15:56:03.824403 20547 net.cpp:386] inception_5a/relu_3x3_reduce -> inception_5a/3x3_reduce (in-place)
I0403 15:56:03.824589 20547 net.cpp:141] Setting up inception_5a/relu_3x3_reduce
I0403 15:56:03.824616 20547 net.cpp:148] Top shape: 24 160 7 7 (188160)
I0403 15:56:03.824631 20547 net.cpp:156] Memory required for data: 1296039456
I0403 15:56:03.824645 20547 layer_factory.hpp:77] Creating layer inception_5a/3x3
I0403 15:56:03.824668 20547 net.cpp:91] Creating Layer inception_5a/3x3
I0403 15:56:03.824686 20547 net.cpp:425] inception_5a/3x3 <- inception_5a/3x3_reduce
I0403 15:56:03.824703 20547 net.cpp:399] inception_5a/3x3 -> inception_5a/3x3
I0403 15:56:03.829818 20547 net.cpp:141] Setting up inception_5a/3x3
I0403 15:56:03.829850 20547 net.cpp:148] Top shape: 24 320 7 7 (376320)
I0403 15:56:03.829866 20547 net.cpp:156] Memory required for data: 1297544736
I0403 15:56:03.829885 20547 layer_factory.hpp:77] Creating layer inception_5a/relu_3x3
I0403 15:56:03.829902 20547 net.cpp:91] Creating Layer inception_5a/relu_3x3
I0403 15:56:03.829918 20547 net.cpp:425] inception_5a/relu_3x3 <- inception_5a/3x3
I0403 15:56:03.829938 20547 net.cpp:386] inception_5a/relu_3x3 -> inception_5a/3x3 (in-place)
I0403 15:56:03.830240 20547 net.cpp:141] Setting up inception_5a/relu_3x3
I0403 15:56:03.830268 20547 net.cpp:148] Top shape: 24 320 7 7 (376320)
I0403 15:56:03.830282 20547 net.cpp:156] Memory required for data: 1299050016
I0403 15:56:03.830297 20547 layer_factory.hpp:77] Creating layer inception_5a/5x5_reduce
I0403 15:56:03.830320 20547 net.cpp:91] Creating Layer inception_5a/5x5_reduce
I0403 15:56:03.830338 20547 net.cpp:425] inception_5a/5x5_reduce <- pool4/3x3_s2_pool4/3x3_s2_0_split_2
I0403 15:56:03.830360 20547 net.cpp:399] inception_5a/5x5_reduce -> inception_5a/5x5_reduce
I0403 15:56:03.831533 20547 net.cpp:141] Setting up inception_5a/5x5_reduce
I0403 15:56:03.831564 20547 net.cpp:148] Top shape: 24 32 7 7 (37632)
I0403 15:56:03.831580 20547 net.cpp:156] Memory required for data: 1299200544
I0403 15:56:03.831599 20547 layer_factory.hpp:77] Creating layer inception_5a/relu_5x5_reduce
I0403 15:56:03.831617 20547 net.cpp:91] Creating Layer inception_5a/relu_5x5_reduce
I0403 15:56:03.831636 20547 net.cpp:425] inception_5a/relu_5x5_reduce <- inception_5a/5x5_reduce
I0403 15:56:03.831653 20547 net.cpp:386] inception_5a/relu_5x5_reduce -> inception_5a/5x5_reduce (in-place)
I0403 15:56:03.831959 20547 net.cpp:141] Setting up inception_5a/relu_5x5_reduce
I0403 15:56:03.831990 20547 net.cpp:148] Top shape: 24 32 7 7 (37632)
I0403 15:56:03.832008 20547 net.cpp:156] Memory required for data: 1299351072
I0403 15:56:03.832022 20547 layer_factory.hpp:77] Creating layer inception_5a/5x5
I0403 15:56:03.832046 20547 net.cpp:91] Creating Layer inception_5a/5x5
I0403 15:56:03.832063 20547 net.cpp:425] inception_5a/5x5 <- inception_5a/5x5_reduce
I0403 15:56:03.832084 20547 net.cpp:399] inception_5a/5x5 -> inception_5a/5x5
I0403 15:56:03.833822 20547 net.cpp:141] Setting up inception_5a/5x5
I0403 15:56:03.833865 20547 net.cpp:148] Top shape: 24 128 7 7 (150528)
I0403 15:56:03.833881 20547 net.cpp:156] Memory required for data: 1299953184
I0403 15:56:03.833899 20547 layer_factory.hpp:77] Creating layer inception_5a/relu_5x5
I0403 15:56:03.833917 20547 net.cpp:91] Creating Layer inception_5a/relu_5x5
I0403 15:56:03.833933 20547 net.cpp:425] inception_5a/relu_5x5 <- inception_5a/5x5
I0403 15:56:03.833953 20547 net.cpp:386] inception_5a/relu_5x5 -> inception_5a/5x5 (in-place)
I0403 15:56:03.834156 20547 net.cpp:141] Setting up inception_5a/relu_5x5
I0403 15:56:03.834180 20547 net.cpp:148] Top shape: 24 128 7 7 (150528)
I0403 15:56:03.834195 20547 net.cpp:156] Memory required for data: 1300555296
I0403 15:56:03.834209 20547 layer_factory.hpp:77] Creating layer inception_5a/pool
I0403 15:56:03.834228 20547 net.cpp:91] Creating Layer inception_5a/pool
I0403 15:56:03.834245 20547 net.cpp:425] inception_5a/pool <- pool4/3x3_s2_pool4/3x3_s2_0_split_3
I0403 15:56:03.834264 20547 net.cpp:399] inception_5a/pool -> inception_5a/pool
I0403 15:56:03.834334 20547 net.cpp:141] Setting up inception_5a/pool
I0403 15:56:03.834357 20547 net.cpp:148] Top shape: 24 832 7 7 (978432)
I0403 15:56:03.834372 20547 net.cpp:156] Memory required for data: 1304469024
I0403 15:56:03.834386 20547 layer_factory.hpp:77] Creating layer inception_5a/pool_proj
I0403 15:56:03.834408 20547 net.cpp:91] Creating Layer inception_5a/pool_proj
I0403 15:56:03.834427 20547 net.cpp:425] inception_5a/pool_proj <- inception_5a/pool
I0403 15:56:03.834460 20547 net.cpp:399] inception_5a/pool_proj -> inception_5a/pool_proj
I0403 15:56:03.836776 20547 net.cpp:141] Setting up inception_5a/pool_proj
I0403 15:56:03.836804 20547 net.cpp:148] Top shape: 24 128 7 7 (150528)
I0403 15:56:03.836819 20547 net.cpp:156] Memory required for data: 1305071136
I0403 15:56:03.836839 20547 layer_factory.hpp:77] Creating layer inception_5a/relu_pool_proj
I0403 15:56:03.836858 20547 net.cpp:91] Creating Layer inception_5a/relu_pool_proj
I0403 15:56:03.836874 20547 net.cpp:425] inception_5a/relu_pool_proj <- inception_5a/pool_proj
I0403 15:56:03.836892 20547 net.cpp:386] inception_5a/relu_pool_proj -> inception_5a/pool_proj (in-place)
I0403 15:56:03.837196 20547 net.cpp:141] Setting up inception_5a/relu_pool_proj
I0403 15:56:03.837225 20547 net.cpp:148] Top shape: 24 128 7 7 (150528)
I0403 15:56:03.837240 20547 net.cpp:156] Memory required for data: 1305673248
I0403 15:56:03.837255 20547 layer_factory.hpp:77] Creating layer inception_5a/output
I0403 15:56:03.837272 20547 net.cpp:91] Creating Layer inception_5a/output
I0403 15:56:03.837288 20547 net.cpp:425] inception_5a/output <- inception_5a/1x1
I0403 15:56:03.837304 20547 net.cpp:425] inception_5a/output <- inception_5a/3x3
I0403 15:56:03.837321 20547 net.cpp:425] inception_5a/output <- inception_5a/5x5
I0403 15:56:03.837337 20547 net.cpp:425] inception_5a/output <- inception_5a/pool_proj
I0403 15:56:03.837352 20547 net.cpp:399] inception_5a/output -> inception_5a/output
I0403 15:56:03.837404 20547 net.cpp:141] Setting up inception_5a/output
I0403 15:56:03.837426 20547 net.cpp:148] Top shape: 24 832 7 7 (978432)
I0403 15:56:03.837441 20547 net.cpp:156] Memory required for data: 1309586976
I0403 15:56:03.837456 20547 layer_factory.hpp:77] Creating layer inception_5a/output_inception_5a/output_0_split
I0403 15:56:03.837472 20547 net.cpp:91] Creating Layer inception_5a/output_inception_5a/output_0_split
I0403 15:56:03.837488 20547 net.cpp:425] inception_5a/output_inception_5a/output_0_split <- inception_5a/output
I0403 15:56:03.837507 20547 net.cpp:399] inception_5a/output_inception_5a/output_0_split -> inception_5a/output_inception_5a/output_0_split_0
I0403 15:56:03.837529 20547 net.cpp:399] inception_5a/output_inception_5a/output_0_split -> inception_5a/output_inception_5a/output_0_split_1
I0403 15:56:03.837548 20547 net.cpp:399] inception_5a/output_inception_5a/output_0_split -> inception_5a/output_inception_5a/output_0_split_2
I0403 15:56:03.837568 20547 net.cpp:399] inception_5a/output_inception_5a/output_0_split -> inception_5a/output_inception_5a/output_0_split_3
I0403 15:56:03.837682 20547 net.cpp:141] Setting up inception_5a/output_inception_5a/output_0_split
I0403 15:56:03.837707 20547 net.cpp:148] Top shape: 24 832 7 7 (978432)
I0403 15:56:03.837721 20547 net.cpp:148] Top shape: 24 832 7 7 (978432)
I0403 15:56:03.837738 20547 net.cpp:148] Top shape: 24 832 7 7 (978432)
I0403 15:56:03.837752 20547 net.cpp:148] Top shape: 24 832 7 7 (978432)
I0403 15:56:03.837767 20547 net.cpp:156] Memory required for data: 1325241888
I0403 15:56:03.837782 20547 layer_factory.hpp:77] Creating layer inception_5b/1x1
I0403 15:56:03.837805 20547 net.cpp:91] Creating Layer inception_5b/1x1
I0403 15:56:03.837821 20547 net.cpp:425] inception_5b/1x1 <- inception_5a/output_inception_5a/output_0_split_0
I0403 15:56:03.837843 20547 net.cpp:399] inception_5b/1x1 -> inception_5b/1x1
I0403 15:56:03.842669 20547 net.cpp:141] Setting up inception_5b/1x1
I0403 15:56:03.842699 20547 net.cpp:148] Top shape: 24 384 7 7 (451584)
I0403 15:56:03.842713 20547 net.cpp:156] Memory required for data: 1327048224
I0403 15:56:03.842731 20547 layer_factory.hpp:77] Creating layer inception_5b/relu_1x1
I0403 15:56:03.842752 20547 net.cpp:91] Creating Layer inception_5b/relu_1x1
I0403 15:56:03.842768 20547 net.cpp:425] inception_5b/relu_1x1 <- inception_5b/1x1
I0403 15:56:03.842785 20547 net.cpp:386] inception_5b/relu_1x1 -> inception_5b/1x1 (in-place)
I0403 15:56:03.843098 20547 net.cpp:141] Setting up inception_5b/relu_1x1
I0403 15:56:03.843124 20547 net.cpp:148] Top shape: 24 384 7 7 (451584)
I0403 15:56:03.843139 20547 net.cpp:156] Memory required for data: 1328854560
I0403 15:56:03.843153 20547 layer_factory.hpp:77] Creating layer inception_5b/3x3_reduce
I0403 15:56:03.843178 20547 net.cpp:91] Creating Layer inception_5b/3x3_reduce
I0403 15:56:03.843196 20547 net.cpp:425] inception_5b/3x3_reduce <- inception_5a/output_inception_5a/output_0_split_1
I0403 15:56:03.843217 20547 net.cpp:399] inception_5b/3x3_reduce -> inception_5b/3x3_reduce
I0403 15:56:03.845969 20547 net.cpp:141] Setting up inception_5b/3x3_reduce
I0403 15:56:03.846005 20547 net.cpp:148] Top shape: 24 192 7 7 (225792)
I0403 15:56:03.846022 20547 net.cpp:156] Memory required for data: 1329757728
I0403 15:56:03.846041 20547 layer_factory.hpp:77] Creating layer inception_5b/relu_3x3_reduce
I0403 15:56:03.846062 20547 net.cpp:91] Creating Layer inception_5b/relu_3x3_reduce
I0403 15:56:03.846081 20547 net.cpp:425] inception_5b/relu_3x3_reduce <- inception_5b/3x3_reduce
I0403 15:56:03.846097 20547 net.cpp:386] inception_5b/relu_3x3_reduce -> inception_5b/3x3_reduce (in-place)
I0403 15:56:03.846294 20547 net.cpp:141] Setting up inception_5b/relu_3x3_reduce
I0403 15:56:03.846319 20547 net.cpp:148] Top shape: 24 192 7 7 (225792)
I0403 15:56:03.846334 20547 net.cpp:156] Memory required for data: 1330660896
I0403 15:56:03.846349 20547 layer_factory.hpp:77] Creating layer inception_5b/3x3
I0403 15:56:03.846372 20547 net.cpp:91] Creating Layer inception_5b/3x3
I0403 15:56:03.846390 20547 net.cpp:425] inception_5b/3x3 <- inception_5b/3x3_reduce
I0403 15:56:03.846412 20547 net.cpp:399] inception_5b/3x3 -> inception_5b/3x3
I0403 15:56:03.853374 20547 net.cpp:141] Setting up inception_5b/3x3
I0403 15:56:03.853407 20547 net.cpp:148] Top shape: 24 384 7 7 (451584)
I0403 15:56:03.853425 20547 net.cpp:156] Memory required for data: 1332467232
I0403 15:56:03.853443 20547 layer_factory.hpp:77] Creating layer inception_5b/relu_3x3
I0403 15:56:03.853462 20547 net.cpp:91] Creating Layer inception_5b/relu_3x3
I0403 15:56:03.853479 20547 net.cpp:425] inception_5b/relu_3x3 <- inception_5b/3x3
I0403 15:56:03.853499 20547 net.cpp:386] inception_5b/relu_3x3 -> inception_5b/3x3 (in-place)
I0403 15:56:03.853807 20547 net.cpp:141] Setting up inception_5b/relu_3x3
I0403 15:56:03.853837 20547 net.cpp:148] Top shape: 24 384 7 7 (451584)
I0403 15:56:03.853852 20547 net.cpp:156] Memory required for data: 1334273568
I0403 15:56:03.853868 20547 layer_factory.hpp:77] Creating layer inception_5b/5x5_reduce
I0403 15:56:03.853909 20547 net.cpp:91] Creating Layer inception_5b/5x5_reduce
I0403 15:56:03.853929 20547 net.cpp:425] inception_5b/5x5_reduce <- inception_5a/output_inception_5a/output_0_split_2
I0403 15:56:03.853947 20547 net.cpp:399] inception_5b/5x5_reduce -> inception_5b/5x5_reduce
I0403 15:56:03.855278 20547 net.cpp:141] Setting up inception_5b/5x5_reduce
I0403 15:56:03.855309 20547 net.cpp:148] Top shape: 24 48 7 7 (56448)
I0403 15:56:03.855325 20547 net.cpp:156] Memory required for data: 1334499360
I0403 15:56:03.855345 20547 layer_factory.hpp:77] Creating layer inception_5b/relu_5x5_reduce
I0403 15:56:03.855362 20547 net.cpp:91] Creating Layer inception_5b/relu_5x5_reduce
I0403 15:56:03.855378 20547 net.cpp:425] inception_5b/relu_5x5_reduce <- inception_5b/5x5_reduce
I0403 15:56:03.855396 20547 net.cpp:386] inception_5b/relu_5x5_reduce -> inception_5b/5x5_reduce (in-place)
I0403 15:56:03.855782 20547 net.cpp:141] Setting up inception_5b/relu_5x5_reduce
I0403 15:56:03.855810 20547 net.cpp:148] Top shape: 24 48 7 7 (56448)
I0403 15:56:03.855826 20547 net.cpp:156] Memory required for data: 1334725152
I0403 15:56:03.855841 20547 layer_factory.hpp:77] Creating layer inception_5b/5x5
I0403 15:56:03.855862 20547 net.cpp:91] Creating Layer inception_5b/5x5
I0403 15:56:03.855880 20547 net.cpp:425] inception_5b/5x5 <- inception_5b/5x5_reduce
I0403 15:56:03.855897 20547 net.cpp:399] inception_5b/5x5 -> inception_5b/5x5
I0403 15:56:03.858078 20547 net.cpp:141] Setting up inception_5b/5x5
I0403 15:56:03.858108 20547 net.cpp:148] Top shape: 24 128 7 7 (150528)
I0403 15:56:03.858124 20547 net.cpp:156] Memory required for data: 1335327264
I0403 15:56:03.858144 20547 layer_factory.hpp:77] Creating layer inception_5b/relu_5x5
I0403 15:56:03.858161 20547 net.cpp:91] Creating Layer inception_5b/relu_5x5
I0403 15:56:03.858177 20547 net.cpp:425] inception_5b/relu_5x5 <- inception_5b/5x5
I0403 15:56:03.858197 20547 net.cpp:386] inception_5b/relu_5x5 -> inception_5b/5x5 (in-place)
I0403 15:56:03.858398 20547 net.cpp:141] Setting up inception_5b/relu_5x5
I0403 15:56:03.858424 20547 net.cpp:148] Top shape: 24 128 7 7 (150528)
I0403 15:56:03.858439 20547 net.cpp:156] Memory required for data: 1335929376
I0403 15:56:03.858454 20547 layer_factory.hpp:77] Creating layer inception_5b/pool
I0403 15:56:03.858472 20547 net.cpp:91] Creating Layer inception_5b/pool
I0403 15:56:03.858489 20547 net.cpp:425] inception_5b/pool <- inception_5a/output_inception_5a/output_0_split_3
I0403 15:56:03.858510 20547 net.cpp:399] inception_5b/pool -> inception_5b/pool
I0403 15:56:03.858587 20547 net.cpp:141] Setting up inception_5b/pool
I0403 15:56:03.858610 20547 net.cpp:148] Top shape: 24 832 7 7 (978432)
I0403 15:56:03.858624 20547 net.cpp:156] Memory required for data: 1339843104
I0403 15:56:03.858639 20547 layer_factory.hpp:77] Creating layer inception_5b/pool_proj
I0403 15:56:03.858664 20547 net.cpp:91] Creating Layer inception_5b/pool_proj
I0403 15:56:03.858681 20547 net.cpp:425] inception_5b/pool_proj <- inception_5b/pool
I0403 15:56:03.858702 20547 net.cpp:399] inception_5b/pool_proj -> inception_5b/pool_proj
I0403 15:56:03.861110 20547 net.cpp:141] Setting up inception_5b/pool_proj
I0403 15:56:03.861142 20547 net.cpp:148] Top shape: 24 128 7 7 (150528)
I0403 15:56:03.861158 20547 net.cpp:156] Memory required for data: 1340445216
I0403 15:56:03.861177 20547 layer_factory.hpp:77] Creating layer inception_5b/relu_pool_proj
I0403 15:56:03.861196 20547 net.cpp:91] Creating Layer inception_5b/relu_pool_proj
I0403 15:56:03.861212 20547 net.cpp:425] inception_5b/relu_pool_proj <- inception_5b/pool_proj
I0403 15:56:03.861229 20547 net.cpp:386] inception_5b/relu_pool_proj -> inception_5b/pool_proj (in-place)
I0403 15:56:03.861542 20547 net.cpp:141] Setting up inception_5b/relu_pool_proj
I0403 15:56:03.861572 20547 net.cpp:148] Top shape: 24 128 7 7 (150528)
I0403 15:56:03.861588 20547 net.cpp:156] Memory required for data: 1341047328
I0403 15:56:03.861603 20547 layer_factory.hpp:77] Creating layer inception_5b/output
I0403 15:56:03.861620 20547 net.cpp:91] Creating Layer inception_5b/output
I0403 15:56:03.861652 20547 net.cpp:425] inception_5b/output <- inception_5b/1x1
I0403 15:56:03.861670 20547 net.cpp:425] inception_5b/output <- inception_5b/3x3
I0403 15:56:03.861686 20547 net.cpp:425] inception_5b/output <- inception_5b/5x5
I0403 15:56:03.861702 20547 net.cpp:425] inception_5b/output <- inception_5b/pool_proj
I0403 15:56:03.861719 20547 net.cpp:399] inception_5b/output -> inception_5b/output
I0403 15:56:03.861773 20547 net.cpp:141] Setting up inception_5b/output
I0403 15:56:03.861799 20547 net.cpp:148] Top shape: 24 1024 7 7 (1204224)
I0403 15:56:03.861812 20547 net.cpp:156] Memory required for data: 1345864224
I0403 15:56:03.861827 20547 layer_factory.hpp:77] Creating layer pool5/7x7_s1
I0403 15:56:03.861847 20547 net.cpp:91] Creating Layer pool5/7x7_s1
I0403 15:56:03.861865 20547 net.cpp:425] pool5/7x7_s1 <- inception_5b/output
I0403 15:56:03.861883 20547 net.cpp:399] pool5/7x7_s1 -> pool5/7x7_s1
I0403 15:56:03.862117 20547 net.cpp:141] Setting up pool5/7x7_s1
I0403 15:56:03.862143 20547 net.cpp:148] Top shape: 24 1024 1 1 (24576)
I0403 15:56:03.862156 20547 net.cpp:156] Memory required for data: 1345962528
I0403 15:56:03.862171 20547 layer_factory.hpp:77] Creating layer pool5/drop_7x7_s1
I0403 15:56:03.862190 20547 net.cpp:91] Creating Layer pool5/drop_7x7_s1
I0403 15:56:03.862206 20547 net.cpp:425] pool5/drop_7x7_s1 <- pool5/7x7_s1
I0403 15:56:03.862238 20547 net.cpp:386] pool5/drop_7x7_s1 -> pool5/7x7_s1 (in-place)
I0403 15:56:03.862293 20547 net.cpp:141] Setting up pool5/drop_7x7_s1
I0403 15:56:03.862318 20547 net.cpp:148] Top shape: 24 1024 1 1 (24576)
I0403 15:56:03.862332 20547 net.cpp:156] Memory required for data: 1346060832
I0403 15:56:03.862347 20547 layer_factory.hpp:77] Creating layer loss3/classifier_plantvillage
I0403 15:56:03.862370 20547 net.cpp:91] Creating Layer loss3/classifier_plantvillage
I0403 15:56:03.862388 20547 net.cpp:425] loss3/classifier_plantvillage <- pool5/7x7_s1
I0403 15:56:03.862409 20547 net.cpp:399] loss3/classifier_plantvillage -> loss3/classifier_plantvillage
I0403 15:56:03.862875 20547 net.cpp:141] Setting up loss3/classifier_plantvillage
I0403 15:56:03.862900 20547 net.cpp:148] Top shape: 24 38 (912)
I0403 15:56:03.862915 20547 net.cpp:156] Memory required for data: 1346064480
I0403 15:56:03.862931 20547 layer_factory.hpp:77] Creating layer loss3/classifier_plantvillage_loss3/classifier_plantvillage_0_split
I0403 15:56:03.862949 20547 net.cpp:91] Creating Layer loss3/classifier_plantvillage_loss3/classifier_plantvillage_0_split
I0403 15:56:03.862964 20547 net.cpp:425] loss3/classifier_plantvillage_loss3/classifier_plantvillage_0_split <- loss3/classifier_plantvillage
I0403 15:56:03.862990 20547 net.cpp:399] loss3/classifier_plantvillage_loss3/classifier_plantvillage_0_split -> loss3/classifier_plantvillage_loss3/classifier_plantvillage_0_split_0
I0403 15:56:03.863013 20547 net.cpp:399] loss3/classifier_plantvillage_loss3/classifier_plantvillage_0_split -> loss3/classifier_plantvillage_loss3/classifier_plantvillage_0_split_1
I0403 15:56:03.863034 20547 net.cpp:399] loss3/classifier_plantvillage_loss3/classifier_plantvillage_0_split -> loss3/classifier_plantvillage_loss3/classifier_plantvillage_0_split_2
I0403 15:56:03.863057 20547 net.cpp:399] loss3/classifier_plantvillage_loss3/classifier_plantvillage_0_split -> loss3/classifier_plantvillage_loss3/classifier_plantvillage_0_split_3
I0403 15:56:03.863160 20547 net.cpp:141] Setting up loss3/classifier_plantvillage_loss3/classifier_plantvillage_0_split
I0403 15:56:03.863184 20547 net.cpp:148] Top shape: 24 38 (912)
I0403 15:56:03.863200 20547 net.cpp:148] Top shape: 24 38 (912)
I0403 15:56:03.863215 20547 net.cpp:148] Top shape: 24 38 (912)
I0403 15:56:03.863230 20547 net.cpp:148] Top shape: 24 38 (912)
I0403 15:56:03.863245 20547 net.cpp:156] Memory required for data: 1346079072
I0403 15:56:03.863258 20547 layer_factory.hpp:77] Creating layer loss1/loss
I0403 15:56:03.863281 20547 net.cpp:91] Creating Layer loss1/loss
I0403 15:56:03.863297 20547 net.cpp:425] loss1/loss <- loss1/classifier_plantvillage_loss1/classifier_plantvillage_0_split_0
I0403 15:56:03.863330 20547 net.cpp:425] loss1/loss <- label_data_1_split_0
…
