…
I0403 16:45:32.538830 21421 net.cpp:313] The NetState phase (1) differed from the phase (0) specified by a rule in layer data
I0403 16:45:32.539997 21421 net.cpp:49] Initializing net from parameters: 
state {
  phase: TEST
}
layer {
  name: "data"
  type: "Data"
  top: "data"
  top: "label"
  include {
    phase: TEST
  }
  transform_param {
    mirror: false
    crop_size: 224
    mean_file: "/home/mohanty/data/final_dataset/lmdb/color-40-60/mean.binaryproto"
  }
  data_param {
    source: "/home/mohanty/data/final_dataset/lmdb/color-40-60/test_db"
    batch_size: 24
    backend: LMDB
  }
}
layer {
  name: "conv1/7x7_s2"
  type: "Convolution"
  bottom: "data"
  top: "conv1/7x7_s2"
  param {
    lr_mult: 1
    decay_mult: 1
  }
  param {
    lr_mult: 2
    decay_mult: 0
  }
  convolution_param {
    num_output: 64
    pad: 3
    kernel_size: 7
    stride: 2
    weight_filler {
      type: "xavier"
      std: 0.1
    }
    bias_filler {
      type: "constant"
      value: 0.2
    }
  }
}
layer {
  name: "conv1/relu_7x7"
  type: "ReLU"
  bottom: "conv1/7x7_s2"
  top: "conv1/7x7_s2"
}
layer {
  name: "pool1/3x3_s2"
  type: "Pooling"
  bottom: "conv1/7x7_s2"
  top: "pool1/3x3_s2"
  pooling_param {
    pool: MAX
    kernel_size: 3
    stride: 2
  }
}
layer {
  name: "pool1/norm1"
  type: "LRN"
  bottom: "pool1/3x3_s2"
  top: "pool1/norm1"
  lrn_param {
    local_size: 5
    alpha: 0.0001
    beta: 0.75
  }
}
layer {
  name: "conv2/3x3_reduce"
  type: "Convolution"
  bottom: "pool1/norm1"
  top: "conv2/3x3_reduce"
  param {
    lr_mult: 1
    decay_mult: 1
  }
  param {
    lr_mult: 2
    decay_mult: 0
  }
  convolution_param {
    num_output: 64
    kernel_size: 1
    weight_filler {
      type: "xavier"
      std: 0.1
    }
    bias_filler {
      type: "constant"
      value: 0.2
    }
  }
}
layer {
  name: "conv2/relu_3x3_reduce"
  type: "ReLU"
  bottom: "conv2/3x3_reduce"
  top: "conv2/3x3_reduce"
}
layer {
  name: "conv2/3x3"
  type: "Convolution"
  bottom: "conv2/3x3_reduce"
  top: "conv2/3x3"
  param {
    lr_mult: 1
    decay_mult: 1
  }
  param {
    lr_mult: 2
    decay_mult: 0
  }
  convolution_param {
    num_output: 192
    pad: 1
    kernel_size: 3
    weight_filler {
      type: "xavier"
      std: 0.03
    }
    bias_filler {
      type: "constant"
      value: 0.2
    }
  }
}
layer {
  name: "conv2/relu_3x3"
  type: "ReLU"
  bottom: "conv2/3x3"
  top: "conv2/3x3"
}
layer {
  name: "conv2/norm2"
  type: "LRN"
  bottom: "conv2/3x3"
  top: "conv2/norm2"
  lrn_param {
    local_size: 5
    alpha: 0.0001
    beta: 0.75
  }
}
layer {
  name: "pool2/3x3_s2"
  type: "Pooling"
  bottom: "conv2/norm2"
  top: "pool2/3x3_s2"
  pooling_param {
    pool: MAX
    kernel_size: 3
    stride: 2
  }
}
layer {
  name: "inception_3a/1x1"
  type: "Convolution"
  bottom: "pool2/3x3_s2"
  top: "inception_3a/1x1"
  param {
    lr_mult: 1
    decay_mult: 1
  }
  param {
    lr_mult: 2
    decay_mult: 0
  }
  convolution_param {
    num_output: 64
    kernel_size: 1
    weight_filler {
      type: "xavier"
      std: 0.03
    }
    bias_filler {
      type: "constant"
      value: 0.2
    }
  }
}
layer {
  name: "inception_3a/relu_1x1"
  type: "ReLU"
  bottom: "inception_3a/1x1"
  top: "inception_3a/1x1"
}
layer {
  name: "inception_3a/3x3_reduce"
  type: "Convolution"
  bottom: "pool2/3x3_s2"
  top: "inception_3a/3x3_reduce"
  param {
    lr_mult: 1
    decay_mult: 1
  }
  param {
    lr_mult: 2
    decay_mult: 0
  }
  convolution_param {
    num_output: 96
    kernel_size: 1
    weight_filler {
      type: "xavier"
      std: 0.09
    }
    bias_filler {
      type: "constant"
      value: 0.2
    }
  }
}
layer {
  name: "inception_3a/relu_3x3_reduce"
  type: "ReLU"
  bottom: "inception_3a/3x3_reduce"
  top: "inception_3a/3x3_reduce"
}
layer {
  name: "inception_3a/3x3"
  type: "Convolution"
  bottom: "inception_3a/3x3_reduce"
  top: "inception_3a/3x3"
  param {
    lr_mult: 1
    decay_mult: 1
  }
  param {
    lr_mult: 2
    decay_mult: 0
  }
  convolution_param {
    num_output: 128
    pad: 1
    kernel_size: 3
    weight_filler {
      type: "xavier"
      std: 0.03
    }
    bias_filler {
      type: "constant"
      value: 0.2
    }
  }
}
layer {
  name: "inception_3a/relu_3x3"
  type: "ReLU"
  bottom: "inception_3a/3x3"
  top: "inception_3a/3x3"
}
layer {
  name: "inception_3a/5x5_reduce"
  type: "Convolution"
  bottom: "pool2/3x3_s2"
  top: "inception_3a/5x5_reduce"
  param {
    lr_mult: 1
    decay_mult: 1
  }
  param {
    lr_mult: 2
    decay_mult: 0
  }
  convolution_param {
    num_output: 16
    kernel_size: 1
    weight_filler {
      type: "xavier"
      std: 0.2
    }
    bias_filler {
      type: "constant"
      value: 0.2
    }
  }
}
layer {
  name: "inception_3a/relu_5x5_reduce"
  type: "ReLU"
  bottom: "inception_3a/5x5_reduce"
  top: "inception_3a/5x5_reduce"
}
layer {
  name: "inception_3a/5x5"
  type: "Convolution"
  bottom: "inception_3a/5x5_reduce"
  top: "inception_3a/5x5"
  param {
    lr_mult: 1
    decay_mult: 1
  }
  param {
    lr_mult: 2
    decay_mult: 0
  }
  convolution_param {
    num_output: 32
    pad: 2
    kernel_size: 5
    weight_filler {
      type: "xavier"
      std: 0.03
    }
    bias_filler {
      type: "constant"
      value: 0.2
    }
  }
}
layer {
  name: "inception_3a/relu_5x5"
  type: "ReLU"
  bottom: "inception_3a/5x5"
  top: "inception_3a/5x5"
}
layer {
  name: "inception_3a/pool"
  type: "Pooling"
  bottom: "pool2/3x3_s2"
  top: "inception_3a/pool"
  pooling_param {
    pool: MAX
    kernel_size: 3
    stride: 1
    pad: 1
  }
}
layer {
  name: "inception_3a/pool_proj"
  type: "Convolution"
  bottom: "inception_3a/pool"
  top: "inception_3a/pool_proj"
  param {
    lr_mult: 1
    decay_mult: 1
  }
  param {
    lr_mult: 2
    decay_mult: 0
  }
  convolution_param {
    num_output: 32
    kernel_size: 1
    weight_filler {
      type: "xavier"
      std: 0.1
    }
    bias_filler {
      type: "constant"
      value: 0.2
    }
  }
}
layer {
  name: "inception_3a/relu_pool_proj"
  type: "ReLU"
  bottom: "inception_3a/pool_proj"
  top: "inception_3a/pool_proj"
}
layer {
  name: "inception_3a/output"
  type: "Concat"
  bottom: "inception_3a/1x1"
  bottom: "inception_3a/3x3"
  bottom: "inception_3a/5x5"
  bottom: "inception_3a/pool_proj"
  top: "inception_3a/output"
}
layer {
  name: "inception_3b/1x1"
  type: "Convolution"
  bottom: "inception_3a/output"
  top: "inception_3b/1x1"
  param {
    lr_mult: 1
    decay_mult: 1
  }
  param {
    lr_mult: 2
    decay_mult: 0
  }
  convolution_param {
    num_output: 128
    kernel_size: 1
    weight_filler {
      type: "xavier"
      std: 0.03
    }
    bias_filler {
      type: "constant"
      value: 0.2
    }
  }
}
layer {
  name: "inception_3b/relu_1x1"
  type: "ReLU"
  bottom: "inception_3b/1x1"
  top: "inception_3b/1x1"
}
layer {
  name: "inception_3b/3x3_reduce"
  type: "Convolution"
  bottom: "inception_3a/output"
  top: "inception_3b/3x3_reduce"
  param {
    lr_mult: 1
    decay_mult: 1
  }
  param {
    lr_mult: 2
    decay_mult: 0
  }
  convolution_param {
    num_output: 128
    kernel_size: 1
    weight_filler {
      type: "xavier"
      std: 0.09
    }
    bias_filler {
      type: "constant"
      value: 0.2
    }
  }
}
layer {
  name: "inception_3b/relu_3x3_reduce"
  type: "ReLU"
  bottom: "inception_3b/3x3_reduce"
  top: "inception_3b/3x3_reduce"
}
layer {
  name: "inception_3b/3x3"
  type: "Convolution"
  bottom: "inception_3b/3x3_reduce"
  top: "inception_3b/3x3"
  param {
    lr_mult: 1
    decay_mult: 1
  }
  param {
    lr_mult: 2
    decay_mult: 0
  }
  convolution_param {
    num_output: 192
    pad: 1
    kernel_size: 3
    weight_filler {
      type: "xavier"
      std: 0.03
    }
    bias_filler {
      type: "constant"
      value: 0.2
    }
  }
}
layer {
  name: "inception_3b/relu_3x3"
  type: "ReLU"
  bottom: "inception_3b/3x3"
  top: "inception_3b/3x3"
}
layer {
  name: "inception_3b/5x5_reduce"
  type: "Convolution"
  bottom: "inception_3a/output"
  top: "inception_3b/5x5_reduce"
  param {
    lr_mult: 1
    decay_mult: 1
  }
  param {
    lr_mult: 2
    decay_mult: 0
  }
  convolution_param {
    num_output: 32
    kernel_size: 1
    weight_filler {
      type: "xavier"
      std: 0.2
    }
    bias_filler {
      type: "constant"
      value: 0.2
    }
  }
}
layer {
  name: "inception_3b/relu_5x5_reduce"
  type: "ReLU"
  bottom: "inception_3b/5x5_reduce"
  top: "inception_3b/5x5_reduce"
}
layer {
  name: "inception_3b/5x5"
  type: "Convolution"
  bottom: "inception_3b/5x5_reduce"
  top: "inception_3b/5x5"
  param {
    lr_mult: 1
    decay_mult: 1
  }
  param {
    lr_mult: 2
    decay_mult: 0
  }
  convolution_param {
    num_output: 96
    pad: 2
    kernel_size: 5
    weight_filler {
      type: "xavier"
      std: 0.03
    }
    bias_filler {
      type: "constant"
      value: 0.2
    }
  }
}
layer {
  name: "inception_3b/relu_5x5"
  type: "ReLU"
  bottom: "inception_3b/5x5"
  top: "inception_3b/5x5"
}
layer {
  name: "inception_3b/pool"
  type: "Pooling"
  bottom: "inception_3a/output"
  top: "inception_3b/pool"
  pooling_param {
    pool: MAX
    kernel_size: 3
    stride: 1
    pad: 1
  }
}
layer {
  name: "inception_3b/pool_proj"
  type: "Convolution"
  bottom: "inception_3b/pool"
  top: "inception_3b/pool_proj"
  param {
    lr_mult: 1
    decay_mult: 1
  }
  param {
    lr_mult: 2
    decay_mult: 0
  }
  convolution_param {
    num_output: 64
    kernel_size: 1
    weight_filler {
      type: "xavier"
      std: 0.1
    }
    bias_filler {
      type: "constant"
      value: 0.2
    }
  }
}
layer {
  name: "inception_3b/relu_pool_proj"
  type: "ReLU"
  bottom: "inception_3b/pool_proj"
  top: "inception_3b/pool_proj"
}
layer {
  name: "inception_3b/output"
  type: "Concat"
  bottom: "inception_3b/1x1"
  bottom: "inception_3b/3x3"
  bottom: "inception_3b/5x5"
  bottom: "inception_3b/pool_proj"
  top: "inception_3b/output"
}
layer {
  name: "pool3/3x3_s2"
  type: "Pooling"
  bottom: "inception_3b/output"
  top: "pool3/3x3_s2"
  pooling_param {
    pool: MAX
    kernel_size: 3
    stride: 2
  }
}
layer {
  name: "inception_4a/1x1"
  type: "Convolution"
  bottom: "pool3/3x3_s2"
  top: "inception_4a/1x1"
  param {
    lr_mult: 1
    decay_mult: 1
  }
  param {
    lr_mult: 2
    decay_mult: 0
  }
  convolution_param {
    num_output: 192
    kernel_size: 1
    weight_filler {
      type: "xavier"
      std: 0.03
    }
    bias_filler {
      type: "constant"
      value: 0.2
    }
  }
}
layer {
  name: "inception_4a/relu_1x1"
  type: "ReLU"
  bottom: "inception_4a/1x1"
  top: "inception_4a/1x1"
}
layer {
  name: "inception_4a/3x3_reduce"
  type: "Convolution"
  bottom: "pool3/3x3_s2"
  top: "inception_4a/3x3_reduce"
  param {
    lr_mult: 1
    decay_mult: 1
  }
  param {
    lr_mult: 2
    decay_mult: 0
  }
  convolution_param {
    num_output: 96
    kernel_size: 1
    weight_filler {
      type: "xavier"
      std: 0.09
    }
    bias_filler {
      type: "constant"
      value: 0.2
    }
  }
}
layer {
  name: "inception_4a/relu_3x3_reduce"
  type: "ReLU"
  bottom: "inception_4a/3x3_reduce"
  top: "inception_4a/3x3_reduce"
}
layer {
  name: "inception_4a/3x3"
  type: "Convolution"
  bottom: "inception_4a/3x3_reduce"
  top: "inception_4a/3x3"
  param {
    lr_mult: 1
    decay_mult: 1
  }
  param {
    lr_mult: 2
    decay_mult: 0
  }
  convolution_param {
    num_output: 208
    pad: 1
    kernel_size: 3
    weight_filler {
      type: "xavier"
      std: 0.03
    }
    bias_filler {
      type: "constant"
      value: 0.2
    }
  }
}
layer {
  name: "inception_4a/relu_3x3"
  type: "ReLU"
  bottom: "inception_4a/3x3"
  top: "inception_4a/3x3"
}
layer {
  name: "inception_4a/5x5_reduce"
  type: "Convolution"
  bottom: "pool3/3x3_s2"
  top: "inception_4a/5x5_reduce"
  param {
    lr_mult: 1
    decay_mult: 1
  }
  param {
    lr_mult: 2
    decay_mult: 0
  }
  convolution_param {
    num_output: 16
    kernel_size: 1
    weight_filler {
      type: "xavier"
      std: 0.2
    }
    bias_filler {
      type: "constant"
      value: 0.2
    }
  }
}
layer {
  name: "inception_4a/relu_5x5_reduce"
  type: "ReLU"
  bottom: "inception_4a/5x5_reduce"
  top: "inception_4a/5x5_reduce"
}
layer {
  name: "inception_4a/5x5"
  type: "Convolution"
  bottom: "inception_4a/5x5_reduce"
  top: "inception_4a/5x5"
  param {
    lr_mult: 1
    decay_mult: 1
  }
  param {
    lr_mult: 2
    decay_mult: 0
  }
  convolution_param {
    num_output: 48
    pad: 2
    kernel_size: 5
    weight_filler {
      type: "xavier"
      std: 0.03
    }
    bias_filler {
      type: "constant"
      value: 0.2
    }
  }
}
layer {
  name: "inception_4a/relu_5x5"
  type: "ReLU"
  bottom: "inception_4a/5x5"
  top: "inception_4a/5x5"
}
layer {
  name: "inception_4a/pool"
  type: "Pooling"
  bottom: "pool3/3x3_s2"
  top: "inception_4a/pool"
  pooling_param {
    pool: MAX
    kernel_size: 3
    stride: 1
    pad: 1
  }
}
layer {
  name: "inception_4a/pool_proj"
  type: "Convolution"
  bottom: "inception_4a/pool"
  top: "inception_4a/pool_proj"
  param {
    lr_mult: 1
    decay_mult: 1
  }
  param {
    lr_mult: 2
    decay_mult: 0
  }
  convolution_param {
    num_output: 64
    kernel_size: 1
    weight_filler {
      type: "xavier"
      std: 0.1
    }
    bias_filler {
      type: "constant"
      value: 0.2
    }
  }
}
layer {
  name: "inception_4a/relu_pool_proj"
  type: "ReLU"
  bottom: "inception_4a/pool_proj"
  top: "inception_4a/pool_proj"
}
layer {
  name: "inception_4a/output"
  type: "Concat"
  bottom: "inception_4a/1x1"
  bottom: "inception_4a/3x3"
  bottom: "inception_4a/5x5"
  bottom: "inception_4a/pool_proj"
  top: "inception_4a/output"
}
layer {
  name: "loss1/ave_pool"
  type: "Pooling"
  bottom: "inception_4a/output"
  top: "loss1/ave_pool"
  pooling_param {
    pool: AVE
    kernel_size: 5
    stride: 3
  }
}
layer {
  name: "loss1/conv"
  type: "Convolution"
  bottom: "loss1/ave_pool"
  top: "loss1/conv"
  param {
    lr_mult: 1
    decay_mult: 1
  }
  param {
    lr_mult: 2
    decay_mult: 0
  }
  convolution_param {
    num_output: 128
    kernel_size: 1
    weight_filler {
      type: "xavier"
      std: 0.08
    }
    bias_filler {
      type: "constant"
      value: 0.2
    }
  }
}
layer {
  name: "loss1/relu_conv"
  type: "ReLU"
  bottom: "loss1/conv"
  top: "loss1/conv"
}
layer {
  name: "loss1/fc"
  type: "InnerProduct"
  bottom: "loss1/conv"
  top: "loss1/fc"
  param {
    lr_mult: 1
    decay_mult: 1
  }
  param {
    lr_mult: 2
    decay_mult: 0
  }
  inner_product_param {
    num_output: 1024
    weight_filler {
      type: "xavier"
      std: 0.02
    }
    bias_filler {
      type: "constant"
      value: 0.2
    }
  }
}
layer {
  name: "loss1/relu_fc"
  type: "ReLU"
  bottom: "loss1/fc"
  top: "loss1/fc"
}
layer {
  name: "loss1/drop_fc"
  type: "Dropout"
  bottom: "loss1/fc"
  top: "loss1/fc"
  dropout_param {
    dropout_ratio: 0.7
  }
}
layer {
  name: "loss1/classifier_plantvillage"
  type: "InnerProduct"
  bottom: "loss1/fc"
  top: "loss1/classifier_plantvillage"
  param {
    lr_mult: 1
    decay_mult: 1
  }
  param {
    lr_mult: 2
    decay_mult: 0
  }
  inner_product_param {
    num_output: 38
    weight_filler {
      type: "xavier"
      std: 0.0009765625
    }
    bias_filler {
      type: "constant"
      value: 0
    }
  }
}
layer {
  name: "inception_4b/1x1"
  type: "Convolution"
  bottom: "inception_4a/output"
  top: "inception_4b/1x1"
  param {
    lr_mult: 1
    decay_mult: 1
  }
  param {
    lr_mult: 2
    decay_mult: 0
  }
  convolution_param {
    num_output: 160
    kernel_size: 1
    weight_filler {
      type: "xavier"
      std: 0.03
    }
    bias_filler {
      type: "constant"
      value: 0.2
    }
  }
}
layer {
  name: "inception_4b/relu_1x1"
  type: "ReLU"
  bottom: "inception_4b/1x1"
  top: "inception_4b/1x1"
}
layer {
  name: "inception_4b/3x3_reduce"
  type: "Convolution"
  bottom: "inception_4a/output"
  top: "inception_4b/3x3_reduce"
  param {
    lr_mult: 1
    decay_mult: 1
  }
  param {
    lr_mult: 2
    decay_mult: 0
  }
  convolution_param {
    num_output: 112
    kernel_size: 1
    weight_filler {
      type: "xavier"
      std: 0.09
    }
    bias_filler {
      type: "constant"
      value: 0.2
    }
  }
}
layer {
  name: "inception_4b/relu_3x3_reduce"
  type: "ReLU"
  bottom: "inception_4b/3x3_reduce"
  top: "inception_4b/3x3_reduce"
}
layer {
  name: "inception_4b/3x3"
  type: "Convolution"
  bottom: "inception_4b/3x3_reduce"
  top: "inception_4b/3x3"
  param {
    lr_mult: 1
    decay_mult: 1
  }
  param {
    lr_mult: 2
    decay_mult: 0
  }
  convolution_param {
    num_output: 224
    pad: 1
    kernel_size: 3
    weight_filler {
      type: "xavier"
      std: 0.03
    }
    bias_filler {
      type: "constant"
      value: 0.2
    }
  }
}
layer {
  name: "inception_4b/relu_3x3"
  type: "ReLU"
  bottom: "inception_4b/3x3"
  top: "inception_4b/3x3"
}
layer {
  name: "inception_4b/5x5_reduce"
  type: "Convolution"
  bottom: "inception_4a/output"
  top: "inception_4b/5x5_reduce"
  param {
    lr_mult: 1
    decay_mult: 1
  }
  param {
    lr_mult: 2
    decay_mult: 0
  }
  convolution_param {
    num_output: 24
    kernel_size: 1
    weight_filler {
      type: "xavier"
      std: 0.2
    }
    bias_filler {
      type: "constant"
      value: 0.2
    }
  }
}
layer {
  name: "inception_4b/relu_5x5_reduce"
  type: "ReLU"
  bottom: "inception_4b/5x5_reduce"
  top: "inception_4b/5x5_reduce"
}
layer {
  name: "inception_4b/5x5"
  type: "Convolution"
  bottom: "inception_4b/5x5_reduce"
  top: "inception_4b/5x5"
  param {
    lr_mult: 1
    decay_mult: 1
  }
  param {
    lr_mult: 2
    decay_mult: 0
  }
  convolution_param {
    num_output: 64
    pad: 2
    kernel_size: 5
    weight_filler {
      type: "xavier"
      std: 0.03
    }
    bias_filler {
      type: "constant"
      value: 0.2
    }
  }
}
layer {
  name: "inception_4b/relu_5x5"
  type: "ReLU"
  bottom: "inception_4b/5x5"
  top: "inception_4b/5x5"
}
layer {
  name: "inception_4b/pool"
  type: "Pooling"
  bottom: "inception_4a/output"
  top: "inception_4b/pool"
  pooling_param {
    pool: MAX
    kernel_size: 3
    stride: 1
    pad: 1
  }
}
layer {
  name: "inception_4b/pool_proj"
  type: "Convolution"
  bottom: "inception_4b/pool"
  top: "inception_4b/pool_proj"
  param {
    lr_mult: 1
    decay_mult: 1
  }
  param {
    lr_mult: 2
    decay_mult: 0
  }
  convolution_param {
    num_output: 64
    kernel_size: 1
    weight_filler {
      type: "xavier"
      std: 0.1
    }
    bias_filler {
      type: "constant"
      value: 0.2
    }
  }
}
layer {
  name: "inception_4b/relu_pool_proj"
  type: "ReLU"
  bottom: "inception_4b/pool_proj"
  top: "inception_4b/pool_proj"
}
layer {
  name: "inception_4b/output"
  type: "Concat"
  bottom: "inception_4b/1x1"
  bottom: "inception_4b/3x3"
  bottom: "inception_4b/5x5"
  bottom: "inception_4b/pool_proj"
  top: "inception_4b/output"
}
layer {
  name: "inception_4c/1x1"
  type: "Convolution"
  bottom: "inception_4b/output"
  top: "inception_4c/1x1"
  param {
    lr_mult: 1
    decay_mult: 1
  }
  param {
    lr_mult: 2
    decay_mult: 0
  }
  convolution_param {
    num_output: 128
    kernel_size: 1
    weight_filler {
      type: "xavier"
      std: 0.03
    }
    bias_filler {
      type: "constant"
      value: 0.2
    }
  }
}
layer {
  name: "inception_4c/relu_1x1"
  type: "ReLU"
  bottom: "inception_4c/1x1"
  top: "inception_4c/1x1"
}
layer {
  name: "inception_4c/3x3_reduce"
  type: "Convolution"
  bottom: "inception_4b/output"
  top: "inception_4c/3x3_reduce"
  param {
    lr_mult: 1
    decay_mult: 1
  }
  param {
    lr_mult: 2
    decay_mult: 0
  }
  convolution_param {
    num_output: 128
    kernel_size: 1
    weight_filler {
      type: "xavier"
      std: 0.09
    }
    bias_filler {
      type: "constant"
      value: 0.2
    }
  }
}
layer {
  name: "inception_4c/relu_3x3_reduce"
  type: "ReLU"
  bottom: "inception_4c/3x3_reduce"
  top: "inception_4c/3x3_reduce"
}
layer {
  name: "inception_4c/3x3"
  type: "Convolution"
  bottom: "inception_4c/3x3_reduce"
  top: "inception_4c/3x3"
  param {
    lr_mult: 1
    decay_mult: 1
  }
  param {
    lr_mult: 2
    decay_mult: 0
  }
  convolution_param {
    num_output: 256
    pad: 1
    kernel_size: 3
    weight_filler {
      type: "xavier"
      std: 0.03
    }
    bias_filler {
      type: "constant"
      value: 0.2
    }
  }
}
layer {
  name: "inception_4c/relu_3x3"
  type: "ReLU"
  bottom: "inception_4c/3x3"
  top: "inception_4c/3x3"
}
layer {
  name: "inception_4c/5x5_reduce"
  type: "Convolution"
  bottom: "inception_4b/output"
  top: "inception_4c/5x5_reduce"
  param {
    lr_mult: 1
    decay_mult: 1
  }
  param {
    lr_mult: 2
    decay_mult: 0
  }
  convolution_param {
    num_output: 24
    kernel_size: 1
    weight_filler {
      type: "xavier"
      std: 0.2
    }
    bias_filler {
      type: "constant"
      value: 0.2
    }
  }
}
layer {
  name: "inception_4c/relu_5x5_reduce"
  type: "ReLU"
  bottom: "inception_4c/5x5_reduce"
  top: "inception_4c/5x5_reduce"
}
layer {
  name: "inception_4c/5x5"
  type: "Convolution"
  bottom: "inception_4c/5x5_reduce"
  top: "inception_4c/5x5"
  param {
    lr_mult: 1
    decay_mult: 1
  }
  param {
    lr_mult: 2
    decay_mult: 0
  }
  convolution_param {
    num_output: 64
    pad: 2
    kernel_size: 5
    weight_filler {
      type: "xavier"
      std: 0.03
    }
    bias_filler {
      type: "constant"
      value: 0.2
    }
  }
}
layer {
  name: "inception_4c/relu_5x5"
  type: "ReLU"
  bottom: "inception_4c/5x5"
  top: "inception_4c/5x5"
}
layer {
  name: "inception_4c/pool"
  type: "Pooling"
  bottom: "inception_4b/output"
  top: "inception_4c/pool"
  pooling_param {
    pool: MAX
    kernel_size: 3
    stride: 1
    pad: 1
  }
}
layer {
  name: "inception_4c/pool_proj"
  type: "Convolution"
  bottom: "inception_4c/pool"
  top: "inception_4c/pool_proj"
  param {
    lr_mult: 1
    decay_mult: 1
  }
  param {
    lr_mult: 2
    decay_mult: 0
  }
  convolution_param {
    num_output: 64
    kernel_size: 1
    weight_filler {
      type: "xavier"
      std: 0.1
    }
    bias_filler {
      type: "constant"
      value: 0.2
    }
  }
}
layer {
  name: "inception_4c/relu_pool_proj"
  type: "ReLU"
  bottom: "inception_4c/pool_proj"
  top: "inception_4c/pool_proj"
}
layer {
  name: "inception_4c/output"
  type: "Concat"
  bottom: "inception_4c/1x1"
  bottom: "inception_4c/3x3"
  bottom: "inception_4c/5x5"
  bottom: "inception_4c/pool_proj"
  top: "inception_4c/output"
}
layer {
  name: "inception_4d/1x1"
  type: "Convolution"
  bottom: "inception_4c/output"
  top: "inception_4d/1x1"
  param {
    lr_mult: 1
    decay_mult: 1
  }
  param {
    lr_mult: 2
    decay_mult: 0
  }
  convolution_param {
    num_output: 112
    kernel_size: 1
    weight_filler {
      type: "xavier"
      std: 0.03
    }
    bias_filler {
      type: "constant"
      value: 0.2
    }
  }
}
layer {
  name: "inception_4d/relu_1x1"
  type: "ReLU"
  bottom: "inception_4d/1x1"
  top: "inception_4d/1x1"
}
layer {
  name: "inception_4d/3x3_reduce"
  type: "Convolution"
  bottom: "inception_4c/output"
  top: "inception_4d/3x3_reduce"
  param {
    lr_mult: 1
    decay_mult: 1
  }
  param {
    lr_mult: 2
    decay_mult: 0
  }
  convolution_param {
    num_output: 144
    kernel_size: 1
    weight_filler {
      type: "xavier"
      std: 0.09
    }
    bias_filler {
      type: "constant"
      value: 0.2
    }
  }
}
layer {
  name: "inception_4d/relu_3x3_reduce"
  type: "ReLU"
  bottom: "inception_4d/3x3_reduce"
  top: "inception_4d/3x3_reduce"
}
layer {
  name: "inception_4d/3x3"
  type: "Convolution"
  bottom: "inception_4d/3x3_reduce"
  top: "inception_4d/3x3"
  param {
    lr_mult: 1
    decay_mult: 1
  }
  param {
    lr_mult: 2
    decay_mult: 0
  }
  convolution_param {
    num_output: 288
    pad: 1
    kernel_size: 3
    weight_filler {
      type: "xavier"
      std: 0.03
    }
    bias_filler {
      type: "constant"
      value: 0.2
    }
  }
}
layer {
  name: "inception_4d/relu_3x3"
  type: "ReLU"
  bottom: "inception_4d/3x3"
  top: "inception_4d/3x3"
}
layer {
  name: "inception_4d/5x5_reduce"
  type: "Convolution"
  bottom: "inception_4c/output"
  top: "inception_4d/5x5_reduce"
  param {
    lr_mult: 1
    decay_mult: 1
  }
  param {
    lr_mult: 2
    decay_mult: 0
  }
  convolution_param {
    num_output: 32
    kernel_size: 1
    weight_filler {
      type: "xavier"
      std: 0.2
    }
    bias_filler {
      type: "constant"
      value: 0.2
    }
  }
}
layer {
  name: "inception_4d/relu_5x5_reduce"
  type: "ReLU"
  bottom: "inception_4d/5x5_reduce"
  top: "inception_4d/5x5_reduce"
}
layer {
  name: "inception_4d/5x5"
  type: "Convolution"
  bottom: "inception_4d/5x5_reduce"
  top: "inception_4d/5x5"
  param {
    lr_mult: 1
    decay_mult: 1
  }
  param {
    lr_mult: 2
    decay_mult: 0
  }
  convolution_param {
    num_output: 64
    pad: 2
    kernel_size: 5
    weight_filler {
      type: "xavier"
      std: 0.03
    }
    bias_filler {
      type: "constant"
      value: 0.2
    }
  }
}
layer {
  name: "inception_4d/relu_5x5"
  type: "ReLU"
  bottom: "inception_4d/5x5"
  top: "inception_4d/5x5"
}
layer {
  name: "inception_4d/pool"
  type: "Pooling"
  bottom: "inception_4c/output"
  top: "inception_4d/pool"
  pooling_param {
    pool: MAX
    kernel_size: 3
    stride: 1
    pad: 1
  }
}
layer {
  name: "inception_4d/pool_proj"
  type: "Convolution"
  bottom: "inception_4d/pool"
  top: "inception_4d/pool_proj"
  param {
    lr_mult: 1
    decay_mult: 1
  }
  param {
    lr_mult: 2
    decay_mult: 0
  }
  convolution_param {
    num_output: 64
    kernel_size: 1
    weight_filler {
      type: "xavier"
      std: 0.1
    }
    bias_filler {
      type: "constant"
      value: 0.2
    }
  }
}
layer {
  name: "inception_4d/relu_pool_proj"
  type: "ReLU"
  bottom: "inception_4d/pool_proj"
  top: "inception_4d/pool_proj"
}
layer {
  name: "inception_4d/output"
  type: "Concat"
  bottom: "inception_4d/1x1"
  bottom: "inception_4d/3x3"
  bottom: "inception_4d/5x5"
  bottom: "inception_4d/pool_proj"
  top: "inception_4d/output"
}
layer {
  name: "loss2/ave_pool"
  type: "Pooling"
  bottom: "inception_4d/output"
  top: "loss2/ave_pool"
  pooling_param {
    pool: AVE
    kernel_size: 5
    stride: 3
  }
}
layer {
  name: "loss2/conv"
  type: "Convolution"
  bottom: "loss2/ave_pool"
  top: "loss2/conv"
  param {
    lr_mult: 1
    decay_mult: 1
  }
  param {
    lr_mult: 2
    decay_mult: 0
  }
  convolution_param {
    num_output: 128
    kernel_size: 1
    weight_filler {
      type: "xavier"
      std: 0.08
    }
    bias_filler {
      type: "constant"
      value: 0.2
    }
  }
}
layer {
  name: "loss2/relu_conv"
  type: "ReLU"
  bottom: "loss2/conv"
  top: "loss2/conv"
}
layer {
  name: "loss2/fc"
  type: "InnerProduct"
  bottom: "loss2/conv"
  top: "loss2/fc"
  param {
    lr_mult: 1
    decay_mult: 1
  }
  param {
    lr_mult: 2
    decay_mult: 0
  }
  inner_product_param {
    num_output: 1024
    weight_filler {
      type: "xavier"
      std: 0.02
    }
    bias_filler {
      type: "constant"
      value: 0.2
    }
  }
}
layer {
  name: "loss2/relu_fc"
  type: "ReLU"
  bottom: "loss2/fc"
  top: "loss2/fc"
}
layer {
  name: "loss2/drop_fc"
  type: "Dropout"
  bottom: "loss2/fc"
  top: "loss2/fc"
  dropout_param {
    dropout_ratio: 0.7
  }
}
layer {
  name: "loss2/classifier_plantvillage"
  type: "InnerProduct"
  bottom: "loss2/fc"
  top: "loss2/classifier_plantvillage"
  param {
    lr_mult: 1
    decay_mult: 1
  }
  param {
    lr_mult: 2
    decay_mult: 0
  }
  inner_product_param {
    num_output: 38
    weight_filler {
      type: "xavier"
      std: 0.0009765625
    }
    bias_filler {
      type: "constant"
      value: 0
    }
  }
}
layer {
  name: "inception_4e/1x1"
  type: "Convolution"
  bottom: "inception_4d/output"
  top: "inception_4e/1x1"
  param {
    lr_mult: 1
    decay_mult: 1
  }
  param {
    lr_mult: 2
    decay_mult: 0
  }
  convolution_param {
    num_output: 256
    kernel_size: 1
    weight_filler {
      type: "xavier"
      std: 0.03
    }
    bias_filler {
      type: "constant"
      value: 0.2
    }
  }
}
layer {
  name: "inception_4e/relu_1x1"
  type: "ReLU"
  bottom: "inception_4e/1x1"
  top: "inception_4e/1x1"
}
layer {
  name: "inception_4e/3x3_reduce"
  type: "Convolution"
  bottom: "inception_4d/output"
  top: "inception_4e/3x3_reduce"
  param {
    lr_mult: 1
    decay_mult: 1
  }
  param {
    lr_mult: 2
    decay_mult: 0
  }
  convolution_param {
    num_output: 160
    kernel_size: 1
    weight_filler {
      type: "xavier"
      std: 0.09
    }
    bias_filler {
      type: "constant"
      value: 0.2
    }
  }
}
layer {
  name: "inception_4e/relu_3x3_reduce"
  type: "ReLU"
  bottom: "inception_4e/3x3_reduce"
  top: "inception_4e/3x3_reduce"
}
layer {
  name: "inception_4e/3x3"
  type: "Convolution"
  bottom: "inception_4e/3x3_reduce"
  top: "inception_4e/3x3"
  param {
    lr_mult: 1
    decay_mult: 1
  }
  param {
    lr_mult: 2
    decay_mult: 0
  }
  convolution_param {
    num_output: 320
    pad: 1
    kernel_size: 3
    weight_filler {
      type: "xavier"
      std: 0.03
    }
    bias_filler {
      type: "constant"
      value: 0.2
    }
  }
}
layer {
  name: "inception_4e/relu_3x3"
  type: "ReLU"
  bottom: "inception_4e/3x3"
  top: "inception_4e/3x3"
}
layer {
  name: "inception_4e/5x5_reduce"
  type: "Convolution"
  bottom: "inception_4d/output"
  top: "inception_4e/5x5_reduce"
  param {
    lr_mult: 1
    decay_mult: 1
  }
  param {
    lr_mult: 2
    decay_mult: 0
  }
  convolution_param {
    num_output: 32
    kernel_size: 1
    weight_filler {
      type: "xavier"
      std: 0.2
    }
    bias_filler {
      type: "constant"
      value: 0.2
    }
  }
}
layer {
  name: "inception_4e/relu_5x5_reduce"
  type: "ReLU"
  bottom: "inception_4e/5x5_reduce"
  top: "inception_4e/5x5_reduce"
}
layer {
  name: "inception_4e/5x5"
  type: "Convolution"
  bottom: "inception_4e/5x5_reduce"
  top: "inception_4e/5x5"
  p
I0403 16:45:32.541239 21421 layer_factory.hpp:77] Creating layer data
I0403 16:45:32.541833 21421 net.cpp:91] Creating Layer data
I0403 16:45:32.541863 21421 net.cpp:399] data -> data
I0403 16:45:32.541913 21421 net.cpp:399] data -> label
I0403 16:45:32.541951 21421 data_transformer.cpp:25] Loading mean file from: /home/mohanty/data/final_dataset/lmdb/color-40-60/mean.binaryproto
I0403 16:45:32.543138 21425 db_lmdb.cpp:38] Opened lmdb /home/mohanty/data/final_dataset/lmdb/color-40-60/test_db
I0403 16:45:32.554919 21421 data_layer.cpp:41] output data size: 24,3,224,224
I0403 16:45:32.584110 21421 net.cpp:141] Setting up data
I0403 16:45:32.584162 21421 net.cpp:148] Top shape: 24 3 224 224 (3612672)
I0403 16:45:32.584187 21421 net.cpp:148] Top shape: 24 (24)
I0403 16:45:32.584202 21421 net.cpp:156] Memory required for data: 14450784
I0403 16:45:32.584229 21421 layer_factory.hpp:77] Creating layer label_data_1_split
I0403 16:45:32.584256 21421 net.cpp:91] Creating Layer label_data_1_split
I0403 16:45:32.584275 21421 net.cpp:425] label_data_1_split <- label
I0403 16:45:32.584306 21421 net.cpp:399] label_data_1_split -> label_data_1_split_0
I0403 16:45:32.584332 21421 net.cpp:399] label_data_1_split -> label_data_1_split_1
I0403 16:45:32.584353 21421 net.cpp:399] label_data_1_split -> label_data_1_split_2
I0403 16:45:32.584373 21421 net.cpp:399] label_data_1_split -> label_data_1_split_3
I0403 16:45:32.584391 21421 net.cpp:399] label_data_1_split -> label_data_1_split_4
I0403 16:45:32.584411 21421 net.cpp:399] label_data_1_split -> label_data_1_split_5
I0403 16:45:32.584430 21421 net.cpp:399] label_data_1_split -> label_data_1_split_6
I0403 16:45:32.584450 21421 net.cpp:399] label_data_1_split -> label_data_1_split_7
I0403 16:45:32.584470 21421 net.cpp:399] label_data_1_split -> label_data_1_split_8
I0403 16:45:32.584489 21421 net.cpp:399] label_data_1_split -> label_data_1_split_9
I0403 16:45:32.584604 21421 net.cpp:141] Setting up label_data_1_split
I0403 16:45:32.584628 21421 net.cpp:148] Top shape: 24 (24)
I0403 16:45:32.584646 21421 net.cpp:148] Top shape: 24 (24)
I0403 16:45:32.584661 21421 net.cpp:148] Top shape: 24 (24)
I0403 16:45:32.584677 21421 net.cpp:148] Top shape: 24 (24)
I0403 16:45:32.584692 21421 net.cpp:148] Top shape: 24 (24)
I0403 16:45:32.584707 21421 net.cpp:148] Top shape: 24 (24)
I0403 16:45:32.584722 21421 net.cpp:148] Top shape: 24 (24)
I0403 16:45:32.584738 21421 net.cpp:148] Top shape: 24 (24)
I0403 16:45:32.584753 21421 net.cpp:148] Top shape: 24 (24)
I0403 16:45:32.584769 21421 net.cpp:148] Top shape: 24 (24)
I0403 16:45:32.584812 21421 net.cpp:156] Memory required for data: 14451744
I0403 16:45:32.584828 21421 layer_factory.hpp:77] Creating layer conv1/7x7_s2
I0403 16:45:32.584859 21421 net.cpp:91] Creating Layer conv1/7x7_s2
I0403 16:45:32.584877 21421 net.cpp:425] conv1/7x7_s2 <- data
I0403 16:45:32.584897 21421 net.cpp:399] conv1/7x7_s2 -> conv1/7x7_s2
I0403 16:45:32.728055 21421 net.cpp:141] Setting up conv1/7x7_s2
I0403 16:45:32.728142 21421 net.cpp:148] Top shape: 24 64 112 112 (19267584)
I0403 16:45:32.728159 21421 net.cpp:156] Memory required for data: 91522080
I0403 16:45:32.728188 21421 layer_factory.hpp:77] Creating layer conv1/relu_7x7
I0403 16:45:32.728216 21421 net.cpp:91] Creating Layer conv1/relu_7x7
I0403 16:45:32.728235 21421 net.cpp:425] conv1/relu_7x7 <- conv1/7x7_s2
I0403 16:45:32.728252 21421 net.cpp:386] conv1/relu_7x7 -> conv1/7x7_s2 (in-place)
I0403 16:45:32.728519 21421 net.cpp:141] Setting up conv1/relu_7x7
I0403 16:45:32.728546 21421 net.cpp:148] Top shape: 24 64 112 112 (19267584)
I0403 16:45:32.728564 21421 net.cpp:156] Memory required for data: 168592416
I0403 16:45:32.728579 21421 layer_factory.hpp:77] Creating layer pool1/3x3_s2
I0403 16:45:32.728602 21421 net.cpp:91] Creating Layer pool1/3x3_s2
I0403 16:45:32.728620 21421 net.cpp:425] pool1/3x3_s2 <- conv1/7x7_s2
I0403 16:45:32.728637 21421 net.cpp:399] pool1/3x3_s2 -> pool1/3x3_s2
I0403 16:45:32.728714 21421 net.cpp:141] Setting up pool1/3x3_s2
I0403 16:45:32.728739 21421 net.cpp:148] Top shape: 24 64 56 56 (4816896)
I0403 16:45:32.728752 21421 net.cpp:156] Memory required for data: 187860000
I0403 16:45:32.728767 21421 layer_factory.hpp:77] Creating layer pool1/norm1
I0403 16:45:32.728792 21421 net.cpp:91] Creating Layer pool1/norm1
I0403 16:45:32.728809 21421 net.cpp:425] pool1/norm1 <- pool1/3x3_s2
I0403 16:45:32.728826 21421 net.cpp:399] pool1/norm1 -> pool1/norm1
I0403 16:45:32.729162 21421 net.cpp:141] Setting up pool1/norm1
I0403 16:45:32.729189 21421 net.cpp:148] Top shape: 24 64 56 56 (4816896)
I0403 16:45:32.729204 21421 net.cpp:156] Memory required for data: 207127584
I0403 16:45:32.729219 21421 layer_factory.hpp:77] Creating layer conv2/3x3_reduce
I0403 16:45:32.729248 21421 net.cpp:91] Creating Layer conv2/3x3_reduce
I0403 16:45:32.729264 21421 net.cpp:425] conv2/3x3_reduce <- pool1/norm1
I0403 16:45:32.729284 21421 net.cpp:399] conv2/3x3_reduce -> conv2/3x3_reduce
I0403 16:45:32.730655 21421 net.cpp:141] Setting up conv2/3x3_reduce
I0403 16:45:32.730684 21421 net.cpp:148] Top shape: 24 64 56 56 (4816896)
I0403 16:45:32.730700 21421 net.cpp:156] Memory required for data: 226395168
I0403 16:45:32.730720 21421 layer_factory.hpp:77] Creating layer conv2/relu_3x3_reduce
I0403 16:45:32.730741 21421 net.cpp:91] Creating Layer conv2/relu_3x3_reduce
I0403 16:45:32.730757 21421 net.cpp:425] conv2/relu_3x3_reduce <- conv2/3x3_reduce
I0403 16:45:32.730798 21421 net.cpp:386] conv2/relu_3x3_reduce -> conv2/3x3_reduce (in-place)
I0403 16:45:32.731071 21421 net.cpp:141] Setting up conv2/relu_3x3_reduce
I0403 16:45:32.731097 21421 net.cpp:148] Top shape: 24 64 56 56 (4816896)
I0403 16:45:32.731112 21421 net.cpp:156] Memory required for data: 245662752
I0403 16:45:32.731127 21421 layer_factory.hpp:77] Creating layer conv2/3x3
I0403 16:45:32.731150 21421 net.cpp:91] Creating Layer conv2/3x3
I0403 16:45:32.731168 21421 net.cpp:425] conv2/3x3 <- conv2/3x3_reduce
I0403 16:45:32.731190 21421 net.cpp:399] conv2/3x3 -> conv2/3x3
I0403 16:45:32.733516 21421 net.cpp:141] Setting up conv2/3x3
I0403 16:45:32.733546 21421 net.cpp:148] Top shape: 24 192 56 56 (14450688)
I0403 16:45:32.733561 21421 net.cpp:156] Memory required for data: 303465504
I0403 16:45:32.733583 21421 layer_factory.hpp:77] Creating layer conv2/relu_3x3
I0403 16:45:32.733604 21421 net.cpp:91] Creating Layer conv2/relu_3x3
I0403 16:45:32.733620 21421 net.cpp:425] conv2/relu_3x3 <- conv2/3x3
I0403 16:45:32.733638 21421 net.cpp:386] conv2/relu_3x3 -> conv2/3x3 (in-place)
I0403 16:45:32.733811 21421 net.cpp:141] Setting up conv2/relu_3x3
I0403 16:45:32.733836 21421 net.cpp:148] Top shape: 24 192 56 56 (14450688)
I0403 16:45:32.733881 21421 net.cpp:156] Memory required for data: 361268256
I0403 16:45:32.733897 21421 layer_factory.hpp:77] Creating layer conv2/norm2
I0403 16:45:32.733916 21421 net.cpp:91] Creating Layer conv2/norm2
I0403 16:45:32.733932 21421 net.cpp:425] conv2/norm2 <- conv2/3x3
I0403 16:45:32.733952 21421 net.cpp:399] conv2/norm2 -> conv2/norm2
I0403 16:45:32.734266 21421 net.cpp:141] Setting up conv2/norm2
I0403 16:45:32.734294 21421 net.cpp:148] Top shape: 24 192 56 56 (14450688)
I0403 16:45:32.734310 21421 net.cpp:156] Memory required for data: 419071008
I0403 16:45:32.734325 21421 layer_factory.hpp:77] Creating layer pool2/3x3_s2
I0403 16:45:32.734343 21421 net.cpp:91] Creating Layer pool2/3x3_s2
I0403 16:45:32.734357 21421 net.cpp:425] pool2/3x3_s2 <- conv2/norm2
I0403 16:45:32.734377 21421 net.cpp:399] pool2/3x3_s2 -> pool2/3x3_s2
I0403 16:45:32.734431 21421 net.cpp:141] Setting up pool2/3x3_s2
I0403 16:45:32.734457 21421 net.cpp:148] Top shape: 24 192 28 28 (3612672)
I0403 16:45:32.734472 21421 net.cpp:156] Memory required for data: 433521696
I0403 16:45:32.734486 21421 layer_factory.hpp:77] Creating layer pool2/3x3_s2_pool2/3x3_s2_0_split
I0403 16:45:32.734503 21421 net.cpp:91] Creating Layer pool2/3x3_s2_pool2/3x3_s2_0_split
I0403 16:45:32.734519 21421 net.cpp:425] pool2/3x3_s2_pool2/3x3_s2_0_split <- pool2/3x3_s2
I0403 16:45:32.734535 21421 net.cpp:399] pool2/3x3_s2_pool2/3x3_s2_0_split -> pool2/3x3_s2_pool2/3x3_s2_0_split_0
I0403 16:45:32.734554 21421 net.cpp:399] pool2/3x3_s2_pool2/3x3_s2_0_split -> pool2/3x3_s2_pool2/3x3_s2_0_split_1
I0403 16:45:32.734575 21421 net.cpp:399] pool2/3x3_s2_pool2/3x3_s2_0_split -> pool2/3x3_s2_pool2/3x3_s2_0_split_2
I0403 16:45:32.734593 21421 net.cpp:399] pool2/3x3_s2_pool2/3x3_s2_0_split -> pool2/3x3_s2_pool2/3x3_s2_0_split_3
I0403 16:45:32.734664 21421 net.cpp:141] Setting up pool2/3x3_s2_pool2/3x3_s2_0_split
I0403 16:45:32.734686 21421 net.cpp:148] Top shape: 24 192 28 28 (3612672)
I0403 16:45:32.734704 21421 net.cpp:148] Top shape: 24 192 28 28 (3612672)
I0403 16:45:32.734719 21421 net.cpp:148] Top shape: 24 192 28 28 (3612672)
I0403 16:45:32.734733 21421 net.cpp:148] Top shape: 24 192 28 28 (3612672)
I0403 16:45:32.734746 21421 net.cpp:156] Memory required for data: 491324448
I0403 16:45:32.734760 21421 layer_factory.hpp:77] Creating layer inception_3a/1x1
I0403 16:45:32.734782 21421 net.cpp:91] Creating Layer inception_3a/1x1
I0403 16:45:32.734799 21421 net.cpp:425] inception_3a/1x1 <- pool2/3x3_s2_pool2/3x3_s2_0_split_0
I0403 16:45:32.734819 21421 net.cpp:399] inception_3a/1x1 -> inception_3a/1x1
I0403 16:45:32.736302 21421 net.cpp:141] Setting up inception_3a/1x1
I0403 16:45:32.736330 21421 net.cpp:148] Top shape: 24 64 28 28 (1204224)
I0403 16:45:32.736346 21421 net.cpp:156] Memory required for data: 496141344
I0403 16:45:32.736362 21421 layer_factory.hpp:77] Creating layer inception_3a/relu_1x1
I0403 16:45:32.736380 21421 net.cpp:91] Creating Layer inception_3a/relu_1x1
I0403 16:45:32.736395 21421 net.cpp:425] inception_3a/relu_1x1 <- inception_3a/1x1
I0403 16:45:32.736414 21421 net.cpp:386] inception_3a/relu_1x1 -> inception_3a/1x1 (in-place)
I0403 16:45:32.736578 21421 net.cpp:141] Setting up inception_3a/relu_1x1
I0403 16:45:32.736603 21421 net.cpp:148] Top shape: 24 64 28 28 (1204224)
I0403 16:45:32.736618 21421 net.cpp:156] Memory required for data: 500958240
I0403 16:45:32.736631 21421 layer_factory.hpp:77] Creating layer inception_3a/3x3_reduce
I0403 16:45:32.736654 21421 net.cpp:91] Creating Layer inception_3a/3x3_reduce
I0403 16:45:32.736670 21421 net.cpp:425] inception_3a/3x3_reduce <- pool2/3x3_s2_pool2/3x3_s2_0_split_1
I0403 16:45:32.736690 21421 net.cpp:399] inception_3a/3x3_reduce -> inception_3a/3x3_reduce
I0403 16:45:32.738328 21421 net.cpp:141] Setting up inception_3a/3x3_reduce
I0403 16:45:32.738356 21421 net.cpp:148] Top shape: 24 96 28 28 (1806336)
I0403 16:45:32.738371 21421 net.cpp:156] Memory required for data: 508183584
I0403 16:45:32.738391 21421 layer_factory.hpp:77] Creating layer inception_3a/relu_3x3_reduce
I0403 16:45:32.738427 21421 net.cpp:91] Creating Layer inception_3a/relu_3x3_reduce
I0403 16:45:32.738445 21421 net.cpp:425] inception_3a/relu_3x3_reduce <- inception_3a/3x3_reduce
I0403 16:45:32.738461 21421 net.cpp:386] inception_3a/relu_3x3_reduce -> inception_3a/3x3_reduce (in-place)
I0403 16:45:32.738632 21421 net.cpp:141] Setting up inception_3a/relu_3x3_reduce
I0403 16:45:32.738658 21421 net.cpp:148] Top shape: 24 96 28 28 (1806336)
I0403 16:45:32.738673 21421 net.cpp:156] Memory required for data: 515408928
I0403 16:45:32.738688 21421 layer_factory.hpp:77] Creating layer inception_3a/3x3
I0403 16:45:32.738710 21421 net.cpp:91] Creating Layer inception_3a/3x3
I0403 16:45:32.738726 21421 net.cpp:425] inception_3a/3x3 <- inception_3a/3x3_reduce
I0403 16:45:32.738746 21421 net.cpp:399] inception_3a/3x3 -> inception_3a/3x3
I0403 16:45:32.740386 21421 net.cpp:141] Setting up inception_3a/3x3
I0403 16:45:32.740413 21421 net.cpp:148] Top shape: 24 128 28 28 (2408448)
I0403 16:45:32.740429 21421 net.cpp:156] Memory required for data: 525042720
I0403 16:45:32.740447 21421 layer_factory.hpp:77] Creating layer inception_3a/relu_3x3
I0403 16:45:32.740469 21421 net.cpp:91] Creating Layer inception_3a/relu_3x3
I0403 16:45:32.740485 21421 net.cpp:425] inception_3a/relu_3x3 <- inception_3a/3x3
I0403 16:45:32.740504 21421 net.cpp:386] inception_3a/relu_3x3 -> inception_3a/3x3 (in-place)
I0403 16:45:32.740780 21421 net.cpp:141] Setting up inception_3a/relu_3x3
I0403 16:45:32.740806 21421 net.cpp:148] Top shape: 24 128 28 28 (2408448)
I0403 16:45:32.740821 21421 net.cpp:156] Memory required for data: 534676512
I0403 16:45:32.740836 21421 layer_factory.hpp:77] Creating layer inception_3a/5x5_reduce
I0403 16:45:32.740859 21421 net.cpp:91] Creating Layer inception_3a/5x5_reduce
I0403 16:45:32.740875 21421 net.cpp:425] inception_3a/5x5_reduce <- pool2/3x3_s2_pool2/3x3_s2_0_split_2
I0403 16:45:32.740895 21421 net.cpp:399] inception_3a/5x5_reduce -> inception_3a/5x5_reduce
I0403 16:45:32.741839 21421 net.cpp:141] Setting up inception_3a/5x5_reduce
I0403 16:45:32.741866 21421 net.cpp:148] Top shape: 24 16 28 28 (301056)
I0403 16:45:32.741880 21421 net.cpp:156] Memory required for data: 535880736
I0403 16:45:32.741899 21421 layer_factory.hpp:77] Creating layer inception_3a/relu_5x5_reduce
I0403 16:45:32.741919 21421 net.cpp:91] Creating Layer inception_3a/relu_5x5_reduce
I0403 16:45:32.741935 21421 net.cpp:425] inception_3a/relu_5x5_reduce <- inception_3a/5x5_reduce
I0403 16:45:32.741950 21421 net.cpp:386] inception_3a/relu_5x5_reduce -> inception_3a/5x5_reduce (in-place)
I0403 16:45:32.742247 21421 net.cpp:141] Setting up inception_3a/relu_5x5_reduce
I0403 16:45:32.742274 21421 net.cpp:148] Top shape: 24 16 28 28 (301056)
I0403 16:45:32.742288 21421 net.cpp:156] Memory required for data: 537084960
I0403 16:45:32.742302 21421 layer_factory.hpp:77] Creating layer inception_3a/5x5
I0403 16:45:32.742326 21421 net.cpp:91] Creating Layer inception_3a/5x5
I0403 16:45:32.742342 21421 net.cpp:425] inception_3a/5x5 <- inception_3a/5x5_reduce
I0403 16:45:32.742362 21421 net.cpp:399] inception_3a/5x5 -> inception_3a/5x5
I0403 16:45:32.743355 21421 net.cpp:141] Setting up inception_3a/5x5
I0403 16:45:32.743382 21421 net.cpp:148] Top shape: 24 32 28 28 (602112)
I0403 16:45:32.743397 21421 net.cpp:156] Memory required for data: 539493408
I0403 16:45:32.743415 21421 layer_factory.hpp:77] Creating layer inception_3a/relu_5x5
I0403 16:45:32.743435 21421 net.cpp:91] Creating Layer inception_3a/relu_5x5
I0403 16:45:32.743451 21421 net.cpp:425] inception_3a/relu_5x5 <- inception_3a/5x5
I0403 16:45:32.743468 21421 net.cpp:386] inception_3a/relu_5x5 -> inception_3a/5x5 (in-place)
I0403 16:45:32.743640 21421 net.cpp:141] Setting up inception_3a/relu_5x5
I0403 16:45:32.743664 21421 net.cpp:148] Top shape: 24 32 28 28 (602112)
I0403 16:45:32.743679 21421 net.cpp:156] Memory required for data: 541901856
I0403 16:45:32.743693 21421 layer_factory.hpp:77] Creating layer inception_3a/pool
I0403 16:45:32.743713 21421 net.cpp:91] Creating Layer inception_3a/pool
I0403 16:45:32.743729 21421 net.cpp:425] inception_3a/pool <- pool2/3x3_s2_pool2/3x3_s2_0_split_3
I0403 16:45:32.743760 21421 net.cpp:399] inception_3a/pool -> inception_3a/pool
I0403 16:45:32.743818 21421 net.cpp:141] Setting up inception_3a/pool
I0403 16:45:32.743841 21421 net.cpp:148] Top shape: 24 192 28 28 (3612672)
I0403 16:45:32.743855 21421 net.cpp:156] Memory required for data: 556352544
I0403 16:45:32.743870 21421 layer_factory.hpp:77] Creating layer inception_3a/pool_proj
I0403 16:45:32.743891 21421 net.cpp:91] Creating Layer inception_3a/pool_proj
I0403 16:45:32.743908 21421 net.cpp:425] inception_3a/pool_proj <- inception_3a/pool
I0403 16:45:32.743929 21421 net.cpp:399] inception_3a/pool_proj -> inception_3a/pool_proj
I0403 16:45:32.744876 21421 net.cpp:141] Setting up inception_3a/pool_proj
I0403 16:45:32.744905 21421 net.cpp:148] Top shape: 24 32 28 28 (602112)
I0403 16:45:32.744921 21421 net.cpp:156] Memory required for data: 558760992
I0403 16:45:32.744941 21421 layer_factory.hpp:77] Creating layer inception_3a/relu_pool_proj
I0403 16:45:32.744962 21421 net.cpp:91] Creating Layer inception_3a/relu_pool_proj
I0403 16:45:32.744978 21421 net.cpp:425] inception_3a/relu_pool_proj <- inception_3a/pool_proj
I0403 16:45:32.745017 21421 net.cpp:386] inception_3a/relu_pool_proj -> inception_3a/pool_proj (in-place)
I0403 16:45:32.745299 21421 net.cpp:141] Setting up inception_3a/relu_pool_proj
I0403 16:45:32.745326 21421 net.cpp:148] Top shape: 24 32 28 28 (602112)
I0403 16:45:32.745349 21421 net.cpp:156] Memory required for data: 561169440
I0403 16:45:32.745365 21421 layer_factory.hpp:77] Creating layer inception_3a/output
I0403 16:45:32.745383 21421 net.cpp:91] Creating Layer inception_3a/output
I0403 16:45:32.745398 21421 net.cpp:425] inception_3a/output <- inception_3a/1x1
I0403 16:45:32.745414 21421 net.cpp:425] inception_3a/output <- inception_3a/3x3
I0403 16:45:32.745430 21421 net.cpp:425] inception_3a/output <- inception_3a/5x5
I0403 16:45:32.745446 21421 net.cpp:425] inception_3a/output <- inception_3a/pool_proj
I0403 16:45:32.745465 21421 net.cpp:399] inception_3a/output -> inception_3a/output
I0403 16:45:32.745513 21421 net.cpp:141] Setting up inception_3a/output
I0403 16:45:32.745537 21421 net.cpp:148] Top shape: 24 256 28 28 (4816896)
I0403 16:45:32.745551 21421 net.cpp:156] Memory required for data: 580437024
I0403 16:45:32.745566 21421 layer_factory.hpp:77] Creating layer inception_3a/output_inception_3a/output_0_split
I0403 16:45:32.745582 21421 net.cpp:91] Creating Layer inception_3a/output_inception_3a/output_0_split
I0403 16:45:32.745597 21421 net.cpp:425] inception_3a/output_inception_3a/output_0_split <- inception_3a/output
I0403 16:45:32.745616 21421 net.cpp:399] inception_3a/output_inception_3a/output_0_split -> inception_3a/output_inception_3a/output_0_split_0
I0403 16:45:32.745638 21421 net.cpp:399] inception_3a/output_inception_3a/output_0_split -> inception_3a/output_inception_3a/output_0_split_1
I0403 16:45:32.745661 21421 net.cpp:399] inception_3a/output_inception_3a/output_0_split -> inception_3a/output_inception_3a/output_0_split_2
I0403 16:45:32.745681 21421 net.cpp:399] inception_3a/output_inception_3a/output_0_split -> inception_3a/output_inception_3a/output_0_split_3
I0403 16:45:32.745759 21421 net.cpp:141] Setting up inception_3a/output_inception_3a/output_0_split
I0403 16:45:32.745784 21421 net.cpp:148] Top shape: 24 256 28 28 (4816896)
I0403 16:45:32.745800 21421 net.cpp:148] Top shape: 24 256 28 28 (4816896)
I0403 16:45:32.745816 21421 net.cpp:148] Top shape: 24 256 28 28 (4816896)
I0403 16:45:32.745831 21421 net.cpp:148] Top shape: 24 256 28 28 (4816896)
I0403 16:45:32.745846 21421 net.cpp:156] Memory required for data: 657507360
I0403 16:45:32.745860 21421 layer_factory.hpp:77] Creating layer inception_3b/1x1
I0403 16:45:32.745882 21421 net.cpp:91] Creating Layer inception_3b/1x1
I0403 16:45:32.745900 21421 net.cpp:425] inception_3b/1x1 <- inception_3a/output_inception_3a/output_0_split_0
I0403 16:45:32.745921 21421 net.cpp:399] inception_3b/1x1 -> inception_3b/1x1
I0403 16:45:32.747073 21421 net.cpp:141] Setting up inception_3b/1x1
I0403 16:45:32.747113 21421 net.cpp:148] Top shape: 24 128 28 28 (2408448)
I0403 16:45:32.747129 21421 net.cpp:156] Memory required for data: 667141152
I0403 16:45:32.747148 21421 layer_factory.hpp:77] Creating layer inception_3b/relu_1x1
I0403 16:45:32.747166 21421 net.cpp:91] Creating Layer inception_3b/relu_1x1
I0403 16:45:32.747182 21421 net.cpp:425] inception_3b/relu_1x1 <- inception_3b/1x1
I0403 16:45:32.747206 21421 net.cpp:386] inception_3b/relu_1x1 -> inception_3b/1x1 (in-place)
I0403 16:45:32.747381 21421 net.cpp:141] Setting up inception_3b/relu_1x1
I0403 16:45:32.747406 21421 net.cpp:148] Top shape: 24 128 28 28 (2408448)
I0403 16:45:32.747421 21421 net.cpp:156] Memory required for data: 676774944
I0403 16:45:32.747436 21421 layer_factory.hpp:77] Creating layer inception_3b/3x3_reduce
I0403 16:45:32.747457 21421 net.cpp:91] Creating Layer inception_3b/3x3_reduce
I0403 16:45:32.747474 21421 net.cpp:425] inception_3b/3x3_reduce <- inception_3a/output_inception_3a/output_0_split_1
I0403 16:45:32.747496 21421 net.cpp:399] inception_3b/3x3_reduce -> inception_3b/3x3_reduce
I0403 16:45:32.748642 21421 net.cpp:141] Setting up inception_3b/3x3_reduce
I0403 16:45:32.748670 21421 net.cpp:148] Top shape: 24 128 28 28 (2408448)
I0403 16:45:32.748687 21421 net.cpp:156] Memory required for data: 686408736
I0403 16:45:32.748704 21421 layer_factory.hpp:77] Creating layer inception_3b/relu_3x3_reduce
I0403 16:45:32.748723 21421 net.cpp:91] Creating Layer inception_3b/relu_3x3_reduce
I0403 16:45:32.748739 21421 net.cpp:425] inception_3b/relu_3x3_reduce <- inception_3b/3x3_reduce
I0403 16:45:32.748757 21421 net.cpp:386] inception_3b/relu_3x3_reduce -> inception_3b/3x3_reduce (in-place)
I0403 16:45:32.748932 21421 net.cpp:141] Setting up inception_3b/relu_3x3_reduce
I0403 16:45:32.748957 21421 net.cpp:148] Top shape: 24 128 28 28 (2408448)
I0403 16:45:32.748972 21421 net.cpp:156] Memory required for data: 696042528
I0403 16:45:32.748997 21421 layer_factory.hpp:77] Creating layer inception_3b/3x3
I0403 16:45:32.749027 21421 net.cpp:91] Creating Layer inception_3b/3x3
I0403 16:45:32.749045 21421 net.cpp:425] inception_3b/3x3 <- inception_3b/3x3_reduce
I0403 16:45:32.749065 21421 net.cpp:399] inception_3b/3x3 -> inception_3b/3x3
I0403 16:45:32.752018 21421 net.cpp:141] Setting up inception_3b/3x3
I0403 16:45:32.752048 21421 net.cpp:148] Top shape: 24 192 28 28 (3612672)
I0403 16:45:32.752063 21421 net.cpp:156] Memory required for data: 710493216
I0403 16:45:32.752082 21421 layer_factory.hpp:77] Creating layer inception_3b/relu_3x3
I0403 16:45:32.752104 21421 net.cpp:91] Creating Layer inception_3b/relu_3x3
I0403 16:45:32.752120 21421 net.cpp:425] inception_3b/relu_3x3 <- inception_3b/3x3
I0403 16:45:32.752138 21421 net.cpp:386] inception_3b/relu_3x3 -> inception_3b/3x3 (in-place)
I0403 16:45:32.752424 21421 net.cpp:141] Setting up inception_3b/relu_3x3
I0403 16:45:32.752450 21421 net.cpp:148] Top shape: 24 192 28 28 (3612672)
I0403 16:45:32.752465 21421 net.cpp:156] Memory required for data: 724943904
I0403 16:45:32.752480 21421 layer_factory.hpp:77] Creating layer inception_3b/5x5_reduce
I0403 16:45:32.752503 21421 net.cpp:91] Creating Layer inception_3b/5x5_reduce
I0403 16:45:32.752521 21421 net.cpp:425] inception_3b/5x5_reduce <- inception_3a/output_inception_3a/output_0_split_2
I0403 16:45:32.752542 21421 net.cpp:399] inception_3b/5x5_reduce -> inception_3b/5x5_reduce
I0403 16:45:32.753553 21421 net.cpp:141] Setting up inception_3b/5x5_reduce
I0403 16:45:32.753582 21421 net.cpp:148] Top shape: 24 32 28 28 (602112)
I0403 16:45:32.753597 21421 net.cpp:156] Memory required for data: 727352352
I0403 16:45:32.753615 21421 layer_factory.hpp:77] Creating layer inception_3b/relu_5x5_reduce
I0403 16:45:32.753636 21421 net.cpp:91] Creating Layer inception_3b/relu_5x5_reduce
I0403 16:45:32.753653 21421 net.cpp:425] inception_3b/relu_5x5_reduce <- inception_3b/5x5_reduce
I0403 16:45:32.753669 21421 net.cpp:386] inception_3b/relu_5x5_reduce -> inception_3b/5x5_reduce (in-place)
I0403 16:45:32.753845 21421 net.cpp:141] Setting up inception_3b/relu_5x5_reduce
I0403 16:45:32.753885 21421 net.cpp:148] Top shape: 24 32 28 28 (602112)
I0403 16:45:32.753901 21421 net.cpp:156] Memory required for data: 729760800
I0403 16:45:32.753916 21421 layer_factory.hpp:77] Creating layer inception_3b/5x5
I0403 16:45:32.753937 21421 net.cpp:91] Creating Layer inception_3b/5x5
I0403 16:45:32.753952 21421 net.cpp:425] inception_3b/5x5 <- inception_3b/5x5_reduce
I0403 16:45:32.753973 21421 net.cpp:399] inception_3b/5x5 -> inception_3b/5x5
I0403 16:45:32.755983 21421 net.cpp:141] Setting up inception_3b/5x5
I0403 16:45:32.756017 21421 net.cpp:148] Top shape: 24 96 28 28 (1806336)
I0403 16:45:32.756033 21421 net.cpp:156] Memory required for data: 736986144
I0403 16:45:32.756053 21421 layer_factory.hpp:77] Creating layer inception_3b/relu_5x5
I0403 16:45:32.756070 21421 net.cpp:91] Creating Layer inception_3b/relu_5x5
I0403 16:45:32.756086 21421 net.cpp:425] inception_3b/relu_5x5 <- inception_3b/5x5
I0403 16:45:32.756106 21421 net.cpp:386] inception_3b/relu_5x5 -> inception_3b/5x5 (in-place)
I0403 16:45:32.756304 21421 net.cpp:141] Setting up inception_3b/relu_5x5
I0403 16:45:32.756330 21421 net.cpp:148] Top shape: 24 96 28 28 (1806336)
I0403 16:45:32.756345 21421 net.cpp:156] Memory required for data: 744211488
I0403 16:45:32.756361 21421 layer_factory.hpp:77] Creating layer inception_3b/pool
I0403 16:45:32.756378 21421 net.cpp:91] Creating Layer inception_3b/pool
I0403 16:45:32.756394 21421 net.cpp:425] inception_3b/pool <- inception_3a/output_inception_3a/output_0_split_3
I0403 16:45:32.756412 21421 net.cpp:399] inception_3b/pool -> inception_3b/pool
I0403 16:45:32.756472 21421 net.cpp:141] Setting up inception_3b/pool
I0403 16:45:32.756495 21421 net.cpp:148] Top shape: 24 256 28 28 (4816896)
I0403 16:45:32.756510 21421 net.cpp:156] Memory required for data: 763479072
I0403 16:45:32.756525 21421 layer_factory.hpp:77] Creating layer inception_3b/pool_proj
I0403 16:45:32.756546 21421 net.cpp:91] Creating Layer inception_3b/pool_proj
I0403 16:45:32.756563 21421 net.cpp:425] inception_3b/pool_proj <- inception_3b/pool
I0403 16:45:32.756584 21421 net.cpp:399] inception_3b/pool_proj -> inception_3b/pool_proj
I0403 16:45:32.757657 21421 net.cpp:141] Setting up inception_3b/pool_proj
I0403 16:45:32.757688 21421 net.cpp:148] Top shape: 24 64 28 28 (1204224)
I0403 16:45:32.757704 21421 net.cpp:156] Memory required for data: 768295968
I0403 16:45:32.757721 21421 layer_factory.hpp:77] Creating layer inception_3b/relu_pool_proj
I0403 16:45:32.757740 21421 net.cpp:91] Creating Layer inception_3b/relu_pool_proj
I0403 16:45:32.757755 21421 net.cpp:425] inception_3b/relu_pool_proj <- inception_3b/pool_proj
I0403 16:45:32.757772 21421 net.cpp:386] inception_3b/relu_pool_proj -> inception_3b/pool_proj (in-place)
I0403 16:45:32.758183 21421 net.cpp:141] Setting up inception_3b/relu_pool_proj
I0403 16:45:32.758210 21421 net.cpp:148] Top shape: 24 64 28 28 (1204224)
I0403 16:45:32.758225 21421 net.cpp:156] Memory required for data: 773112864
I0403 16:45:32.758240 21421 layer_factory.hpp:77] Creating layer inception_3b/output
I0403 16:45:32.758261 21421 net.cpp:91] Creating Layer inception_3b/output
I0403 16:45:32.758278 21421 net.cpp:425] inception_3b/output <- inception_3b/1x1
I0403 16:45:32.758296 21421 net.cpp:425] inception_3b/output <- inception_3b/3x3
I0403 16:45:32.758311 21421 net.cpp:425] inception_3b/output <- inception_3b/5x5
I0403 16:45:32.758327 21421 net.cpp:425] inception_3b/output <- inception_3b/pool_proj
I0403 16:45:32.758344 21421 net.cpp:399] inception_3b/output -> inception_3b/output
I0403 16:45:32.758390 21421 net.cpp:141] Setting up inception_3b/output
I0403 16:45:32.758414 21421 net.cpp:148] Top shape: 24 480 28 28 (9031680)
I0403 16:45:32.758430 21421 net.cpp:156] Memory required for data: 809239584
I0403 16:45:32.758445 21421 layer_factory.hpp:77] Creating layer pool3/3x3_s2
I0403 16:45:32.758461 21421 net.cpp:91] Creating Layer pool3/3x3_s2
I0403 16:45:32.758476 21421 net.cpp:425] pool3/3x3_s2 <- inception_3b/output
I0403 16:45:32.758497 21421 net.cpp:399] pool3/3x3_s2 -> pool3/3x3_s2
I0403 16:45:32.758570 21421 net.cpp:141] Setting up pool3/3x3_s2
I0403 16:45:32.758594 21421 net.cpp:148] Top shape: 24 480 14 14 (2257920)
I0403 16:45:32.758610 21421 net.cpp:156] Memory required for data: 818271264
I0403 16:45:32.758625 21421 layer_factory.hpp:77] Creating layer pool3/3x3_s2_pool3/3x3_s2_0_split
I0403 16:45:32.758644 21421 net.cpp:91] Creating Layer pool3/3x3_s2_pool3/3x3_s2_0_split
I0403 16:45:32.758661 21421 net.cpp:425] pool3/3x3_s2_pool3/3x3_s2_0_split <- pool3/3x3_s2
I0403 16:45:32.758680 21421 net.cpp:399] pool3/3x3_s2_pool3/3x3_s2_0_split -> pool3/3x3_s2_pool3/3x3_s2_0_split_0
I0403 16:45:32.758702 21421 net.cpp:399] pool3/3x3_s2_pool3/3x3_s2_0_split -> pool3/3x3_s2_pool3/3x3_s2_0_split_1
I0403 16:45:32.758721 21421 net.cpp:399] pool3/3x3_s2_pool3/3x3_s2_0_split -> pool3/3x3_s2_pool3/3x3_s2_0_split_2
I0403 16:45:32.758740 21421 net.cpp:399] pool3/3x3_s2_pool3/3x3_s2_0_split -> pool3/3x3_s2_pool3/3x3_s2_0_split_3
I0403 16:45:32.758816 21421 net.cpp:141] Setting up pool3/3x3_s2_pool3/3x3_s2_0_split
I0403 16:45:32.758841 21421 net.cpp:148] Top shape: 24 480 14 14 (2257920)
I0403 16:45:32.758858 21421 net.cpp:148] Top shape: 24 480 14 14 (2257920)
I0403 16:45:32.758874 21421 net.cpp:148] Top shape: 24 480 14 14 (2257920)
I0403 16:45:32.758889 21421 net.cpp:148] Top shape: 24 480 14 14 (2257920)
I0403 16:45:32.758903 21421 net.cpp:156] Memory required for data: 854397984
I0403 16:45:32.758919 21421 layer_factory.hpp:77] Creating layer inception_4a/1x1
I0403 16:45:32.758939 21421 net.cpp:91] Creating Layer inception_4a/1x1
I0403 16:45:32.758955 21421 net.cpp:425] inception_4a/1x1 <- pool3/3x3_s2_pool3/3x3_s2_0_split_0
I0403 16:45:32.758976 21421 net.cpp:399] inception_4a/1x1 -> inception_4a/1x1
I0403 16:45:32.760593 21421 net.cpp:141] Setting up inception_4a/1x1
I0403 16:45:32.760624 21421 net.cpp:148] Top shape: 24 192 14 14 (903168)
I0403 16:45:32.760642 21421 net.cpp:156] Memory required for data: 858010656
I0403 16:45:32.760660 21421 layer_factory.hpp:77] Creating layer inception_4a/relu_1x1
I0403 16:45:32.760679 21421 net.cpp:91] Creating Layer inception_4a/relu_1x1
I0403 16:45:32.760694 21421 net.cpp:425] inception_4a/relu_1x1 <- inception_4a/1x1
I0403 16:45:32.760712 21421 net.cpp:386] inception_4a/relu_1x1 -> inception_4a/1x1 (in-place)
I0403 16:45:32.760891 21421 net.cpp:141] Setting up inception_4a/relu_1x1
I0403 16:45:32.760917 21421 net.cpp:148] Top shape: 24 192 14 14 (903168)
I0403 16:45:32.760931 21421 net.cpp:156] Memory required for data: 861623328
I0403 16:45:32.760946 21421 layer_factory.hpp:77] Creating layer inception_4a/3x3_reduce
I0403 16:45:32.760968 21421 net.cpp:91] Creating Layer inception_4a/3x3_reduce
I0403 16:45:32.760989 21421 net.cpp:425] inception_4a/3x3_reduce <- pool3/3x3_s2_pool3/3x3_s2_0_split_1
I0403 16:45:32.761013 21421 net.cpp:399] inception_4a/3x3_reduce -> inception_4a/3x3_reduce
I0403 16:45:32.762305 21421 net.cpp:141] Setting up inception_4a/3x3_reduce
I0403 16:45:32.762336 21421 net.cpp:148] Top shape: 24 96 14 14 (451584)
I0403 16:45:32.762352 21421 net.cpp:156] Memory required for data: 863429664
I0403 16:45:32.762377 21421 layer_factory.hpp:77] Creating layer inception_4a/relu_3x3_reduce
I0403 16:45:32.762398 21421 net.cpp:91] Creating Layer inception_4a/relu_3x3_reduce
I0403 16:45:32.762414 21421 net.cpp:425] inception_4a/relu_3x3_reduce <- inception_4a/3x3_reduce
I0403 16:45:32.762431 21421 net.cpp:386] inception_4a/relu_3x3_reduce -> inception_4a/3x3_reduce (in-place)
I0403 16:45:32.762610 21421 net.cpp:141] Setting up inception_4a/relu_3x3_reduce
I0403 16:45:32.762637 21421 net.cpp:148] Top shape: 24 96 14 14 (451584)
I0403 16:45:32.762653 21421 net.cpp:156] Memory required for data: 865236000
I0403 16:45:32.762668 21421 layer_factory.hpp:77] Creating layer inception_4a/3x3
I0403 16:45:32.762691 21421 net.cpp:91] Creating Layer inception_4a/3x3
I0403 16:45:32.762708 21421 net.cpp:425] inception_4a/3x3 <- inception_4a/3x3_reduce
I0403 16:45:32.762729 21421 net.cpp:399] inception_4a/3x3 -> inception_4a/3x3
I0403 16:45:32.765452 21421 net.cpp:141] Setting up inception_4a/3x3
I0403 16:45:32.765480 21421 net.cpp:148] Top shape: 24 208 14 14 (978432)
I0403 16:45:32.765496 21421 net.cpp:156] Memory required for data: 869149728
I0403 16:45:32.765513 21421 layer_factory.hpp:77] Creating layer inception_4a/relu_3x3
I0403 16:45:32.765532 21421 net.cpp:91] Creating Layer inception_4a/relu_3x3
I0403 16:45:32.765547 21421 net.cpp:425] inception_4a/relu_3x3 <- inception_4a/3x3
I0403 16:45:32.765566 21421 net.cpp:386] inception_4a/relu_3x3 -> inception_4a/3x3 (in-place)
I0403 16:45:32.765842 21421 net.cpp:141] Setting up inception_4a/relu_3x3
I0403 16:45:32.765868 21421 net.cpp:148] Top shape: 24 208 14 14 (978432)
I0403 16:45:32.765883 21421 net.cpp:156] Memory required for data: 873063456
I0403 16:45:32.765897 21421 layer_factory.hpp:77] Creating layer inception_4a/5x5_reduce
I0403 16:45:32.765919 21421 net.cpp:91] Creating Layer inception_4a/5x5_reduce
I0403 16:45:32.765938 21421 net.cpp:425] inception_4a/5x5_reduce <- pool3/3x3_s2_pool3/3x3_s2_0_split_2
I0403 16:45:32.765957 21421 net.cpp:399] inception_4a/5x5_reduce -> inception_4a/5x5_reduce
I0403 16:45:32.766964 21421 net.cpp:141] Setting up inception_4a/5x5_reduce
I0403 16:45:32.766995 21421 net.cpp:148] Top shape: 24 16 14 14 (75264)
I0403 16:45:32.767011 21421 net.cpp:156] Memory required for data: 873364512
I0403 16:45:32.767032 21421 layer_factory.hpp:77] Creating layer inception_4a/relu_5x5_reduce
I0403 16:45:32.767050 21421 net.cpp:91] Creating Layer inception_4a/relu_5x5_reduce
I0403 16:45:32.767066 21421 net.cpp:425] inception_4a/relu_5x5_reduce <- inception_4a/5x5_reduce
I0403 16:45:32.767086 21421 net.cpp:386] inception_4a/relu_5x5_reduce -> inception_4a/5x5_reduce (in-place)
I0403 16:45:32.767256 21421 net.cpp:141] Setting up inception_4a/relu_5x5_reduce
I0403 16:45:32.767282 21421 net.cpp:148] Top shape: 24 16 14 14 (75264)
I0403 16:45:32.767295 21421 net.cpp:156] Memory required for data: 873665568
I0403 16:45:32.767310 21421 layer_factory.hpp:77] Creating layer inception_4a/5x5
I0403 16:45:32.767333 21421 net.cpp:91] Creating Layer inception_4a/5x5
I0403 16:45:32.767349 21421 net.cpp:425] inception_4a/5x5 <- inception_4a/5x5_reduce
I0403 16:45:32.767369 21421 net.cpp:399] inception_4a/5x5 -> inception_4a/5x5
I0403 16:45:32.768471 21421 net.cpp:141] Setting up inception_4a/5x5
I0403 16:45:32.768498 21421 net.cpp:148] Top shape: 24 48 14 14 (225792)
I0403 16:45:32.768513 21421 net.cpp:156] Memory required for data: 874568736
I0403 16:45:32.768532 21421 layer_factory.hpp:77] Creating layer inception_4a/relu_5x5
I0403 16:45:32.768551 21421 net.cpp:91] Creating Layer inception_4a/relu_5x5
I0403 16:45:32.768568 21421 net.cpp:425] inception_4a/relu_5x5 <- inception_4a/5x5
I0403 16:45:32.768584 21421 net.cpp:386] inception_4a/relu_5x5 -> inception_4a/5x5 (in-place)
I0403 16:45:32.768761 21421 net.cpp:141] Setting up inception_4a/relu_5x5
I0403 16:45:32.768786 21421 net.cpp:148] Top shape: 24 48 14 14 (225792)
I0403 16:45:32.768800 21421 net.cpp:156] Memory required for data: 875471904
I0403 16:45:32.768815 21421 layer_factory.hpp:77] Creating layer inception_4a/pool
I0403 16:45:32.768831 21421 net.cpp:91] Creating Layer inception_4a/pool
I0403 16:45:32.768846 21421 net.cpp:425] inception_4a/pool <- pool3/3x3_s2_pool3/3x3_s2_0_split_3
I0403 16:45:32.768867 21421 net.cpp:399] inception_4a/pool -> inception_4a/pool
I0403 16:45:32.768926 21421 net.cpp:141] Setting up inception_4a/pool
I0403 16:45:32.768949 21421 net.cpp:148] Top shape: 24 480 14 14 (2257920)
I0403 16:45:32.768965 21421 net.cpp:156] Memory required for data: 884503584
I0403 16:45:32.768978 21421 layer_factory.hpp:77] Creating layer inception_4a/pool_proj
I0403 16:45:32.769013 21421 net.cpp:91] Creating Layer inception_4a/pool_proj
I0403 16:45:32.769033 21421 net.cpp:425] inception_4a/pool_proj <- inception_4a/pool
I0403 16:45:32.769052 21421 net.cpp:399] inception_4a/pool_proj -> inception_4a/pool_proj
I0403 16:45:32.770216 21421 net.cpp:141] Setting up inception_4a/pool_proj
I0403 16:45:32.770246 21421 net.cpp:148] Top shape: 24 64 14 14 (301056)
I0403 16:45:32.770277 21421 net.cpp:156] Memory required for data: 885707808
I0403 16:45:32.770295 21421 layer_factory.hpp:77] Creating layer inception_4a/relu_pool_proj
I0403 16:45:32.770313 21421 net.cpp:91] Creating Layer inception_4a/relu_pool_proj
I0403 16:45:32.770328 21421 net.cpp:425] inception_4a/relu_pool_proj <- inception_4a/pool_proj
I0403 16:45:32.770349 21421 net.cpp:386] inception_4a/relu_pool_proj -> inception_4a/pool_proj (in-place)
I0403 16:45:32.770629 21421 net.cpp:141] Setting up inception_4a/relu_pool_proj
I0403 16:45:32.770658 21421 net.cpp:148] Top shape: 24 64 14 14 (301056)
I0403 16:45:32.770673 21421 net.cpp:156] Memory required for data: 886912032
I0403 16:45:32.770687 21421 layer_factory.hpp:77] Creating layer inception_4a/output
I0403 16:45:32.770704 21421 net.cpp:91] Creating Layer inception_4a/output
I0403 16:45:32.770720 21421 net.cpp:425] inception_4a/output <- inception_4a/1x1
I0403 16:45:32.770735 21421 net.cpp:425] inception_4a/output <- inception_4a/3x3
I0403 16:45:32.770751 21421 net.cpp:425] inception_4a/output <- inception_4a/5x5
I0403 16:45:32.770767 21421 net.cpp:425] inception_4a/output <- inception_4a/pool_proj
I0403 16:45:32.770784 21421 net.cpp:399] inception_4a/output -> inception_4a/output
I0403 16:45:32.770829 21421 net.cpp:141] Setting up inception_4a/output
I0403 16:45:32.770853 21421 net.cpp:148] Top shape: 24 512 14 14 (2408448)
I0403 16:45:32.770869 21421 net.cpp:156] Memory required for data: 896545824
I0403 16:45:32.770882 21421 layer_factory.hpp:77] Creating layer inception_4a/output_inception_4a/output_0_split
I0403 16:45:32.770901 21421 net.cpp:91] Creating Layer inception_4a/output_inception_4a/output_0_split
I0403 16:45:32.770917 21421 net.cpp:425] inception_4a/output_inception_4a/output_0_split <- inception_4a/output
I0403 16:45:32.770934 21421 net.cpp:399] inception_4a/output_inception_4a/output_0_split -> inception_4a/output_inception_4a/output_0_split_0
I0403 16:45:32.770954 21421 net.cpp:399] inception_4a/output_inception_4a/output_0_split -> inception_4a/output_inception_4a/output_0_split_1
I0403 16:45:32.770973 21421 net.cpp:399] inception_4a/output_inception_4a/output_0_split -> inception_4a/output_inception_4a/output_0_split_2
I0403 16:45:32.771003 21421 net.cpp:399] inception_4a/output_inception_4a/output_0_split -> inception_4a/output_inception_4a/output_0_split_3
I0403 16:45:32.771023 21421 net.cpp:399] inception_4a/output_inception_4a/output_0_split -> inception_4a/output_inception_4a/output_0_split_4
I0403 16:45:32.771112 21421 net.cpp:141] Setting up inception_4a/output_inception_4a/output_0_split
I0403 16:45:32.771136 21421 net.cpp:148] Top shape: 24 512 14 14 (2408448)
I0403 16:45:32.771152 21421 net.cpp:148] Top shape: 24 512 14 14 (2408448)
I0403 16:45:32.771167 21421 net.cpp:148] Top shape: 24 512 14 14 (2408448)
I0403 16:45:32.771183 21421 net.cpp:148] Top shape: 24 512 14 14 (2408448)
I0403 16:45:32.771198 21421 net.cpp:148] Top shape: 24 512 14 14 (2408448)
I0403 16:45:32.771212 21421 net.cpp:156] Memory required for data: 944714784
I0403 16:45:32.771227 21421 layer_factory.hpp:77] Creating layer loss1/ave_pool
I0403 16:45:32.771245 21421 net.cpp:91] Creating Layer loss1/ave_pool
I0403 16:45:32.771260 21421 net.cpp:425] loss1/ave_pool <- inception_4a/output_inception_4a/output_0_split_0
I0403 16:45:32.771280 21421 net.cpp:399] loss1/ave_pool -> loss1/ave_pool
I0403 16:45:32.771483 21421 net.cpp:141] Setting up loss1/ave_pool
I0403 16:45:32.771513 21421 net.cpp:148] Top shape: 24 512 4 4 (196608)
I0403 16:45:32.771529 21421 net.cpp:156] Memory required for data: 945501216
I0403 16:45:32.771544 21421 layer_factory.hpp:77] Creating layer loss1/conv
I0403 16:45:32.771565 21421 net.cpp:91] Creating Layer loss1/conv
I0403 16:45:32.771582 21421 net.cpp:425] loss1/conv <- loss1/ave_pool
I0403 16:45:32.771600 21421 net.cpp:399] loss1/conv -> loss1/conv
I0403 16:45:32.773003 21421 net.cpp:141] Setting up loss1/conv
I0403 16:45:32.773032 21421 net.cpp:148] Top shape: 24 128 4 4 (49152)
I0403 16:45:32.773048 21421 net.cpp:156] Memory required for data: 945697824
I0403 16:45:32.773082 21421 layer_factory.hpp:77] Creating layer loss1/relu_conv
I0403 16:45:32.773102 21421 net.cpp:91] Creating Layer loss1/relu_conv
I0403 16:45:32.773118 21421 net.cpp:425] loss1/relu_conv <- loss1/conv
I0403 16:45:32.773136 21421 net.cpp:386] loss1/relu_conv -> loss1/conv (in-place)
I0403 16:45:32.773416 21421 net.cpp:141] Setting up loss1/relu_conv
I0403 16:45:32.773442 21421 net.cpp:148] Top shape: 24 128 4 4 (49152)
I0403 16:45:32.773458 21421 net.cpp:156] Memory required for data: 945894432
I0403 16:45:32.773471 21421 layer_factory.hpp:77] Creating layer loss1/fc
I0403 16:45:32.773494 21421 net.cpp:91] Creating Layer loss1/fc
I0403 16:45:32.773511 21421 net.cpp:425] loss1/fc <- loss1/conv
I0403 16:45:32.773531 21421 net.cpp:399] loss1/fc -> loss1/fc
I0403 16:45:32.791823 21421 net.cpp:141] Setting up loss1/fc
I0403 16:45:32.791887 21421 net.cpp:148] Top shape: 24 1024 (24576)
I0403 16:45:32.791904 21421 net.cpp:156] Memory required for data: 945992736
I0403 16:45:32.791924 21421 layer_factory.hpp:77] Creating layer loss1/relu_fc
I0403 16:45:32.791945 21421 net.cpp:91] Creating Layer loss1/relu_fc
I0403 16:45:32.791963 21421 net.cpp:425] loss1/relu_fc <- loss1/fc
I0403 16:45:32.791983 21421 net.cpp:386] loss1/relu_fc -> loss1/fc (in-place)
I0403 16:45:32.792212 21421 net.cpp:141] Setting up loss1/relu_fc
I0403 16:45:32.792239 21421 net.cpp:148] Top shape: 24 1024 (24576)
I0403 16:45:32.792254 21421 net.cpp:156] Memory required for data: 946091040
I0403 16:45:32.792269 21421 layer_factory.hpp:77] Creating layer loss1/drop_fc
I0403 16:45:32.792302 21421 net.cpp:91] Creating Layer loss1/drop_fc
I0403 16:45:32.792321 21421 net.cpp:425] loss1/drop_fc <- loss1/fc
I0403 16:45:32.792341 21421 net.cpp:386] loss1/drop_fc -> loss1/fc (in-place)
I0403 16:45:32.792397 21421 net.cpp:141] Setting up loss1/drop_fc
I0403 16:45:32.792421 21421 net.cpp:148] Top shape: 24 1024 (24576)
I0403 16:45:32.792438 21421 net.cpp:156] Memory required for data: 946189344
I0403 16:45:32.792455 21421 layer_factory.hpp:77] Creating layer loss1/classifier_plantvillage
I0403 16:45:32.792481 21421 net.cpp:91] Creating Layer loss1/classifier_plantvillage
I0403 16:45:32.792500 21421 net.cpp:425] loss1/classifier_plantvillage <- loss1/fc
I0403 16:45:32.792520 21421 net.cpp:399] loss1/classifier_plantvillage -> loss1/classifier_plantvillage
I0403 16:45:32.793493 21421 net.cpp:141] Setting up loss1/classifier_plantvillage
I0403 16:45:32.793521 21421 net.cpp:148] Top shape: 24 38 (912)
I0403 16:45:32.793537 21421 net.cpp:156] Memory required for data: 946192992
I0403 16:45:32.793556 21421 layer_factory.hpp:77] Creating layer loss1/classifier_plantvillage_loss1/classifier_plantvillage_0_split
I0403 16:45:32.793576 21421 net.cpp:91] Creating Layer loss1/classifier_plantvillage_loss1/classifier_plantvillage_0_split
I0403 16:45:32.793592 21421 net.cpp:425] loss1/classifier_plantvillage_loss1/classifier_plantvillage_0_split <- loss1/classifier_plantvillage
I0403 16:45:32.793612 21421 net.cpp:399] loss1/classifier_plantvillage_loss1/classifier_plantvillage_0_split -> loss1/classifier_plantvillage_loss1/classifier_plantvillage_0_split_0
I0403 16:45:32.793634 21421 net.cpp:399] loss1/classifier_plantvillage_loss1/classifier_plantvillage_0_split -> loss1/classifier_plantvillage_loss1/classifier_plantvillage_0_split_1
I0403 16:45:32.793655 21421 net.cpp:399] loss1/classifier_plantvillage_loss1/classifier_plantvillage_0_split -> loss1/classifier_plantvillage_loss1/classifier_plantvillage_0_split_2
I0403 16:45:32.793725 21421 net.cpp:141] Setting up loss1/classifier_plantvillage_loss1/classifier_plantvillage_0_split
I0403 16:45:32.793748 21421 net.cpp:148] Top shape: 24 38 (912)
I0403 16:45:32.793766 21421 net.cpp:148] Top shape: 24 38 (912)
I0403 16:45:32.793782 21421 net.cpp:148] Top shape: 24 38 (912)
I0403 16:45:32.793797 21421 net.cpp:156] Memory required for data: 946203936
I0403 16:45:32.793812 21421 layer_factory.hpp:77] Creating layer inception_4b/1x1
I0403 16:45:32.793833 21421 net.cpp:91] Creating Layer inception_4b/1x1
I0403 16:45:32.793889 21421 net.cpp:425] inception_4b/1x1 <- inception_4a/output_inception_4a/output_0_split_1
I0403 16:45:32.793912 21421 net.cpp:399] inception_4b/1x1 -> inception_4b/1x1
I0403 16:45:32.795645 21421 net.cpp:141] Setting up inception_4b/1x1
I0403 16:45:32.795673 21421 net.cpp:148] Top shape: 24 160 14 14 (752640)
I0403 16:45:32.795689 21421 net.cpp:156] Memory required for data: 949214496
I0403 16:45:32.795707 21421 layer_factory.hpp:77] Creating layer inception_4b/relu_1x1
I0403 16:45:32.795725 21421 net.cpp:91] Creating Layer inception_4b/relu_1x1
I0403 16:45:32.795742 21421 net.cpp:425] inception_4b/relu_1x1 <- inception_4b/1x1
I0403 16:45:32.795760 21421 net.cpp:386] inception_4b/relu_1x1 -> inception_4b/1x1 (in-place)
I0403 16:45:32.795936 21421 net.cpp:141] Setting up inception_4b/relu_1x1
I0403 16:45:32.795961 21421 net.cpp:148] Top shape: 24 160 14 14 (752640)
I0403 16:45:32.795976 21421 net.cpp:156] Memory required for data: 952225056
I0403 16:45:32.795994 21421 layer_factory.hpp:77] Creating layer inception_4b/3x3_reduce
I0403 16:45:32.796018 21421 net.cpp:91] Creating Layer inception_4b/3x3_reduce
I0403 16:45:32.796036 21421 net.cpp:425] inception_4b/3x3_reduce <- inception_4a/output_inception_4a/output_0_split_2
I0403 16:45:32.796058 21421 net.cpp:399] inception_4b/3x3_reduce -> inception_4b/3x3_reduce
I0403 16:45:32.797410 21421 net.cpp:141] Setting up inception_4b/3x3_reduce
I0403 16:45:32.797436 21421 net.cpp:148] Top shape: 24 112 14 14 (526848)
I0403 16:45:32.797452 21421 net.cpp:156] Memory required for data: 954332448
I0403 16:45:32.797471 21421 layer_factory.hpp:77] Creating layer inception_4b/relu_3x3_reduce
I0403 16:45:32.797490 21421 net.cpp:91] Creating Layer inception_4b/relu_3x3_reduce
I0403 16:45:32.797508 21421 net.cpp:425] inception_4b/relu_3x3_reduce <- inception_4b/3x3_reduce
I0403 16:45:32.797524 21421 net.cpp:386] inception_4b/relu_3x3_reduce -> inception_4b/3x3_reduce (in-place)
I0403 16:45:32.797806 21421 net.cpp:141] Setting up inception_4b/relu_3x3_reduce
I0403 16:45:32.797832 21421 net.cpp:148] Top shape: 24 112 14 14 (526848)
I0403 16:45:32.797847 21421 net.cpp:156] Memory required for data: 956439840
I0403 16:45:32.797863 21421 layer_factory.hpp:77] Creating layer inception_4b/3x3
I0403 16:45:32.797884 21421 net.cpp:91] Creating Layer inception_4b/3x3
I0403 16:45:32.797901 21421 net.cpp:425] inception_4b/3x3 <- inception_4b/3x3_reduce
I0403 16:45:32.797921 21421 net.cpp:399] inception_4b/3x3 -> inception_4b/3x3
I0403 16:45:32.800879 21421 net.cpp:141] Setting up inception_4b/3x3
I0403 16:45:32.800909 21421 net.cpp:148] Top shape: 24 224 14 14 (1053696)
I0403 16:45:32.800923 21421 net.cpp:156] Memory required for data: 960654624
I0403 16:45:32.800941 21421 layer_factory.hpp:77] Creating layer inception_4b/relu_3x3
I0403 16:45:32.800958 21421 net.cpp:91] Creating Layer inception_4b/relu_3x3
I0403 16:45:32.800974 21421 net.cpp:425] inception_4b/relu_3x3 <- inception_4b/3x3
I0403 16:45:32.800997 21421 net.cpp:386] inception_4b/relu_3x3 -> inception_4b/3x3 (in-place)
I0403 16:45:32.801172 21421 net.cpp:141] Setting up inception_4b/relu_3x3
I0403 16:45:32.801198 21421 net.cpp:148] Top shape: 24 224 14 14 (1053696)
I0403 16:45:32.801211 21421 net.cpp:156] Memory required for data: 964869408
I0403 16:45:32.801225 21421 layer_factory.hpp:77] Creating layer inception_4b/5x5_reduce
I0403 16:45:32.801247 21421 net.cpp:91] Creating Layer inception_4b/5x5_reduce
I0403 16:45:32.801265 21421 net.cpp:425] inception_4b/5x5_reduce <- inception_4a/output_inception_4a/output_0_split_3
I0403 16:45:32.801285 21421 net.cpp:399] inception_4b/5x5_reduce -> inception_4b/5x5_reduce
I0403 16:45:32.802325 21421 net.cpp:141] Setting up inception_4b/5x5_reduce
I0403 16:45:32.802351 21421 net.cpp:148] Top shape: 24 24 14 14 (112896)
I0403 16:45:32.802366 21421 net.cpp:156] Memory required for data: 965320992
I0403 16:45:32.802383 21421 layer_factory.hpp:77] Creating layer inception_4b/relu_5x5_reduce
I0403 16:45:32.802403 21421 net.cpp:91] Creating Layer inception_4b/relu_5x5_reduce
I0403 16:45:32.802433 21421 net.cpp:425] inception_4b/relu_5x5_reduce <- inception_4b/5x5_reduce
I0403 16:45:32.802450 21421 net.cpp:386] inception_4b/relu_5x5_reduce -> inception_4b/5x5_reduce (in-place)
I0403 16:45:32.802625 21421 net.cpp:141] Setting up inception_4b/relu_5x5_reduce
I0403 16:45:32.802649 21421 net.cpp:148] Top shape: 24 24 14 14 (112896)
I0403 16:45:32.802664 21421 net.cpp:156] Memory required for data: 965772576
I0403 16:45:32.802678 21421 layer_factory.hpp:77] Creating layer inception_4b/5x5
I0403 16:45:32.802701 21421 net.cpp:91] Creating Layer inception_4b/5x5
I0403 16:45:32.802718 21421 net.cpp:425] inception_4b/5x5 <- inception_4b/5x5_reduce
I0403 16:45:32.802736 21421 net.cpp:399] inception_4b/5x5 -> inception_4b/5x5
I0403 16:45:32.803943 21421 net.cpp:141] Setting up inception_4b/5x5
I0403 16:45:32.803971 21421 net.cpp:148] Top shape: 24 64 14 14 (301056)
I0403 16:45:32.803988 21421 net.cpp:156] Memory required for data: 966976800
I0403 16:45:32.804006 21421 layer_factory.hpp:77] Creating layer inception_4b/relu_5x5
I0403 16:45:32.804025 21421 net.cpp:91] Creating Layer inception_4b/relu_5x5
I0403 16:45:32.804040 21421 net.cpp:425] inception_4b/relu_5x5 <- inception_4b/5x5
I0403 16:45:32.804059 21421 net.cpp:386] inception_4b/relu_5x5 -> inception_4b/5x5 (in-place)
I0403 16:45:32.804335 21421 net.cpp:141] Setting up inception_4b/relu_5x5
I0403 16:45:32.804361 21421 net.cpp:148] Top shape: 24 64 14 14 (301056)
I0403 16:45:32.804375 21421 net.cpp:156] Memory required for data: 968181024
I0403 16:45:32.804389 21421 layer_factory.hpp:77] Creating layer inception_4b/pool
I0403 16:45:32.804407 21421 net.cpp:91] Creating Layer inception_4b/pool
I0403 16:45:32.804422 21421 net.cpp:425] inception_4b/pool <- inception_4a/output_inception_4a/output_0_split_4
I0403 16:45:32.804442 21421 net.cpp:399] inception_4b/pool -> inception_4b/pool
I0403 16:45:32.804504 21421 net.cpp:141] Setting up inception_4b/pool
I0403 16:45:32.804527 21421 net.cpp:148] Top shape: 24 512 14 14 (2408448)
I0403 16:45:32.804541 21421 net.cpp:156] Memory required for data: 977814816
I0403 16:45:32.804555 21421 layer_factory.hpp:77] Creating layer inception_4b/pool_proj
I0403 16:45:32.804577 21421 net.cpp:91] Creating Layer inception_4b/pool_proj
I0403 16:45:32.804594 21421 net.cpp:425] inception_4b/pool_proj <- inception_4b/pool
I0403 16:45:32.804611 21421 net.cpp:399] inception_4b/pool_proj -> inception_4b/pool_proj
I0403 16:45:32.805771 21421 net.cpp:141] Setting up inception_4b/pool_proj
I0403 16:45:32.805797 21421 net.cpp:148] Top shape: 24 64 14 14 (301056)
I0403 16:45:32.805811 21421 net.cpp:156] Memory required for data: 979019040
I0403 16:45:32.805829 21421 layer_factory.hpp:77] Creating layer inception_4b/relu_pool_proj
I0403 16:45:32.805850 21421 net.cpp:91] Creating Layer inception_4b/relu_pool_proj
I0403 16:45:32.805866 21421 net.cpp:425] inception_4b/relu_pool_proj <- inception_4b/pool_proj
I0403 16:45:32.805883 21421 net.cpp:386] inception_4b/relu_pool_proj -> inception_4b/pool_proj (in-place)
I0403 16:45:32.806059 21421 net.cpp:141] Setting up inception_4b/relu_pool_proj
I0403 16:45:32.806085 21421 net.cpp:148] Top shape: 24 64 14 14 (301056)
I0403 16:45:32.806100 21421 net.cpp:156] Memory required for data: 980223264
I0403 16:45:32.806114 21421 layer_factory.hpp:77] Creating layer inception_4b/output
I0403 16:45:32.806130 21421 net.cpp:91] Creating Layer inception_4b/output
I0403 16:45:32.806145 21421 net.cpp:425] inception_4b/output <- inception_4b/1x1
I0403 16:45:32.806160 21421 net.cpp:425] inception_4b/output <- inception_4b/3x3
I0403 16:45:32.806175 21421 net.cpp:425] inception_4b/output <- inception_4b/5x5
I0403 16:45:32.806190 21421 net.cpp:425] inception_4b/output <- inception_4b/pool_proj
I0403 16:45:32.806206 21421 net.cpp:399] inception_4b/output -> inception_4b/output
I0403 16:45:32.806252 21421 net.cpp:141] Setting up inception_4b/output
I0403 16:45:32.806275 21421 net.cpp:148] Top shape: 24 512 14 14 (2408448)
I0403 16:45:32.806289 21421 net.cpp:156] Memory required for data: 989857056
I0403 16:45:32.806316 21421 layer_factory.hpp:77] Creating layer inception_4b/output_inception_4b/output_0_split
I0403 16:45:32.806334 21421 net.cpp:91] Creating Layer inception_4b/output_inception_4b/output_0_split
I0403 16:45:32.806351 21421 net.cpp:425] inception_4b/output_inception_4b/output_0_split <- inception_4b/output
I0403 16:45:32.806368 21421 net.cpp:399] inception_4b/output_inception_4b/output_0_split -> inception_4b/output_inception_4b/output_0_split_0
I0403 16:45:32.806387 21421 net.cpp:399] inception_4b/output_inception_4b/output_0_split -> inception_4b/output_inception_4b/output_0_split_1
I0403 16:45:32.806406 21421 net.cpp:399] inception_4b/output_inception_4b/output_0_split -> inception_4b/output_inception_4b/output_0_split_2
I0403 16:45:32.806424 21421 net.cpp:399] inception_4b/output_inception_4b/output_0_split -> inception_4b/output_inception_4b/output_0_split_3
I0403 16:45:32.806502 21421 net.cpp:141] Setting up inception_4b/output_inception_4b/output_0_split
I0403 16:45:32.806525 21421 net.cpp:148] Top shape: 24 512 14 14 (2408448)
I0403 16:45:32.806540 21421 net.cpp:148] Top shape: 24 512 14 14 (2408448)
I0403 16:45:32.806555 21421 net.cpp:148] Top shape: 24 512 14 14 (2408448)
I0403 16:45:32.806570 21421 net.cpp:148] Top shape: 24 512 14 14 (2408448)
I0403 16:45:32.806582 21421 net.cpp:156] Memory required for data: 1028392224
I0403 16:45:32.806596 21421 layer_factory.hpp:77] Creating layer inception_4c/1x1
I0403 16:45:32.806617 21421 net.cpp:91] Creating Layer inception_4c/1x1
I0403 16:45:32.806632 21421 net.cpp:425] inception_4c/1x1 <- inception_4b/output_inception_4b/output_0_split_0
I0403 16:45:32.806653 21421 net.cpp:399] inception_4c/1x1 -> inception_4c/1x1
I0403 16:45:32.808101 21421 net.cpp:141] Setting up inception_4c/1x1
I0403 16:45:32.808132 21421 net.cpp:148] Top shape: 24 128 14 14 (602112)
I0403 16:45:32.808148 21421 net.cpp:156] Memory required for data: 1030800672
I0403 16:45:32.808166 21421 layer_factory.hpp:77] Creating layer inception_4c/relu_1x1
I0403 16:45:32.808184 21421 net.cpp:91] Creating Layer inception_4c/relu_1x1
I0403 16:45:32.808200 21421 net.cpp:425] inception_4c/relu_1x1 <- inception_4c/1x1
I0403 16:45:32.808218 21421 net.cpp:386] inception_4c/relu_1x1 -> inception_4c/1x1 (in-place)
I0403 16:45:32.808426 21421 net.cpp:141] Setting up inception_4c/relu_1x1
I0403 16:45:32.808450 21421 net.cpp:148] Top shape: 24 128 14 14 (602112)
I0403 16:45:32.808465 21421 net.cpp:156] Memory required for data: 1033209120
I0403 16:45:32.808480 21421 layer_factory.hpp:77] Creating layer inception_4c/3x3_reduce
I0403 16:45:32.808501 21421 net.cpp:91] Creating Layer inception_4c/3x3_reduce
I0403 16:45:32.808518 21421 net.cpp:425] inception_4c/3x3_reduce <- inception_4b/output_inception_4b/output_0_split_1
I0403 16:45:32.808538 21421 net.cpp:399] inception_4c/3x3_reduce -> inception_4c/3x3_reduce
I0403 16:45:32.810459 21421 net.cpp:141] Setting up inception_4c/3x3_reduce
I0403 16:45:32.810487 21421 net.cpp:148] Top shape: 24 128 14 14 (602112)
I0403 16:45:32.810502 21421 net.cpp:156] Memory required for data: 1035617568
I0403 16:45:32.810519 21421 layer_factory.hpp:77] Creating layer inception_4c/relu_3x3_reduce
I0403 16:45:32.810539 21421 net.cpp:91] Creating Layer inception_4c/relu_3x3_reduce
I0403 16:45:32.810554 21421 net.cpp:425] inception_4c/relu_3x3_reduce <- inception_4c/3x3_reduce
I0403 16:45:32.810571 21421 net.cpp:386] inception_4c/relu_3x3_reduce -> inception_4c/3x3_reduce (in-place)
I0403 16:45:32.810848 21421 net.cpp:141] Setting up inception_4c/relu_3x3_reduce
I0403 16:45:32.810873 21421 net.cpp:148] Top shape: 24 128 14 14 (602112)
I0403 16:45:32.810888 21421 net.cpp:156] Memory required for data: 1038026016
I0403 16:45:32.810901 21421 layer_factory.hpp:77] Creating layer inception_4c/3x3
I0403 16:45:32.810923 21421 net.cpp:91] Creating Layer inception_4c/3x3
I0403 16:45:32.810940 21421 net.cpp:425] inception_4c/3x3 <- inception_4c/3x3_reduce
I0403 16:45:32.810961 21421 net.cpp:399] inception_4c/3x3 -> inception_4c/3x3
I0403 16:45:32.814477 21421 net.cpp:141] Setting up inception_4c/3x3
I0403 16:45:32.814517 21421 net.cpp:148] Top shape: 24 256 14 14 (1204224)
I0403 16:45:32.814532 21421 net.cpp:156] Memory required for data: 1042842912
I0403 16:45:32.814563 21421 layer_factory.hpp:77] Creating layer inception_4c/relu_3x3
I0403 16:45:32.814584 21421 net.cpp:91] Creating Layer inception_4c/relu_3x3
I0403 16:45:32.814600 21421 net.cpp:425] inception_4c/relu_3x3 <- inception_4c/3x3
I0403 16:45:32.814617 21421 net.cpp:386] inception_4c/relu_3x3 -> inception_4c/3x3 (in-place)
I0403 16:45:32.814790 21421 net.cpp:141] Setting up inception_4c/relu_3x3
I0403 16:45:32.814815 21421 net.cpp:148] Top shape: 24 256 14 14 (1204224)
I0403 16:45:32.814829 21421 net.cpp:156] Memory required for data: 1047659808
I0403 16:45:32.814843 21421 layer_factory.hpp:77] Creating layer inception_4c/5x5_reduce
I0403 16:45:32.814864 21421 net.cpp:91] Creating Layer inception_4c/5x5_reduce
I0403 16:45:32.814882 21421 net.cpp:425] inception_4c/5x5_reduce <- inception_4b/output_inception_4b/output_0_split_2
I0403 16:45:32.814901 21421 net.cpp:399] inception_4c/5x5_reduce -> inception_4c/5x5_reduce
I0403 16:45:32.815963 21421 net.cpp:141] Setting up inception_4c/5x5_reduce
I0403 16:45:32.815994 21421 net.cpp:148] Top shape: 24 24 14 14 (112896)
I0403 16:45:32.816010 21421 net.cpp:156] Memory required for data: 1048111392
I0403 16:45:32.816030 21421 layer_factory.hpp:77] Creating layer inception_4c/relu_5x5_reduce
I0403 16:45:32.816050 21421 net.cpp:91] Creating Layer inception_4c/relu_5x5_reduce
I0403 16:45:32.816066 21421 net.cpp:425] inception_4c/relu_5x5_reduce <- inception_4c/5x5_reduce
I0403 16:45:32.816082 21421 net.cpp:386] inception_4c/relu_5x5_reduce -> inception_4c/5x5_reduce (in-place)
I0403 16:45:32.816256 21421 net.cpp:141] Setting up inception_4c/relu_5x5_reduce
I0403 16:45:32.816280 21421 net.cpp:148] Top shape: 24 24 14 14 (112896)
I0403 16:45:32.816294 21421 net.cpp:156] Memory required for data: 1048562976
I0403 16:45:32.816308 21421 layer_factory.hpp:77] Creating layer inception_4c/5x5
I0403 16:45:32.816331 21421 net.cpp:91] Creating Layer inception_4c/5x5
I0403 16:45:32.816349 21421 net.cpp:425] inception_4c/5x5 <- inception_4c/5x5_reduce
I0403 16:45:32.816366 21421 net.cpp:399] inception_4c/5x5 -> inception_4c/5x5
I0403 16:45:32.817555 21421 net.cpp:141] Setting up inception_4c/5x5
I0403 16:45:32.817584 21421 net.cpp:148] Top shape: 24 64 14 14 (301056)
I0403 16:45:32.817598 21421 net.cpp:156] Memory required for data: 1049767200
I0403 16:45:32.817616 21421 layer_factory.hpp:77] Creating layer inception_4c/relu_5x5
I0403 16:45:32.817634 21421 net.cpp:91] Creating Layer inception_4c/relu_5x5
I0403 16:45:32.817649 21421 net.cpp:425] inception_4c/relu_5x5 <- inception_4c/5x5
I0403 16:45:32.817667 21421 net.cpp:386] inception_4c/relu_5x5 -> inception_4c/5x5 (in-place)
I0403 16:45:32.817945 21421 net.cpp:141] Setting up inception_4c/relu_5x5
I0403 16:45:32.817973 21421 net.cpp:148] Top shape: 24 64 14 14 (301056)
I0403 16:45:32.817993 21421 net.cpp:156] Memory required for data: 1050971424
I0403 16:45:32.818009 21421 layer_factory.hpp:77] Creating layer inception_4c/pool
I0403 16:45:32.818029 21421 net.cpp:91] Creating Layer inception_4c/pool
I0403 16:45:32.818044 21421 net.cpp:425] inception_4c/pool <- inception_4b/output_inception_4b/output_0_split_3
I0403 16:45:32.818061 21421 net.cpp:399] inception_4c/pool -> inception_4c/pool
I0403 16:45:32.818125 21421 net.cpp:141] Setting up inception_4c/pool
I0403 16:45:32.818147 21421 net.cpp:148] Top shape: 24 512 14 14 (2408448)
I0403 16:45:32.818161 21421 net.cpp:156] Memory required for data: 1060605216
I0403 16:45:32.818176 21421 layer_factory.hpp:77] Creating layer inception_4c/pool_proj
I0403 16:45:32.818197 21421 net.cpp:91] Creating Layer inception_4c/pool_proj
I0403 16:45:32.818212 21421 net.cpp:425] inception_4c/pool_proj <- inception_4c/pool
I0403 16:45:32.818233 21421 net.cpp:399] inception_4c/pool_proj -> inception_4c/pool_proj
I0403 16:45:32.819411 21421 net.cpp:141] Setting up inception_4c/pool_proj
I0403 16:45:32.819437 21421 net.cpp:148] Top shape: 24 64 14 14 (301056)
I0403 16:45:32.819466 21421 net.cpp:156] Memory required for data: 1061809440
I0403 16:45:32.819485 21421 layer_factory.hpp:77] Creating layer inception_4c/relu_pool_proj
I0403 16:45:32.819505 21421 net.cpp:91] Creating Layer inception_4c/relu_pool_proj
I0403 16:45:32.819522 21421 net.cpp:425] inception_4c/relu_pool_proj <- inception_4c/pool_proj
I0403 16:45:32.819538 21421 net.cpp:386] inception_4c/relu_pool_proj -> inception_4c/pool_proj (in-place)
I0403 16:45:32.819710 21421 net.cpp:141] Setting up inception_4c/relu_pool_proj
I0403 16:45:32.819735 21421 net.cpp:148] Top shape: 24 64 14 14 (301056)
I0403 16:45:32.819751 21421 net.cpp:156] Memory required for data: 1063013664
I0403 16:45:32.819766 21421 layer_factory.hpp:77] Creating layer inception_4c/output
I0403 16:45:32.819782 21421 net.cpp:91] Creating Layer inception_4c/output
I0403 16:45:32.819795 21421 net.cpp:425] inception_4c/output <- inception_4c/1x1
I0403 16:45:32.819810 21421 net.cpp:425] inception_4c/output <- inception_4c/3x3
I0403 16:45:32.819826 21421 net.cpp:425] inception_4c/output <- inception_4c/5x5
I0403 16:45:32.819841 21421 net.cpp:425] inception_4c/output <- inception_4c/pool_proj
I0403 16:45:32.819857 21421 net.cpp:399] inception_4c/output -> inception_4c/output
I0403 16:45:32.819903 21421 net.cpp:141] Setting up inception_4c/output
I0403 16:45:32.819926 21421 net.cpp:148] Top shape: 24 512 14 14 (2408448)
I0403 16:45:32.819941 21421 net.cpp:156] Memory required for data: 1072647456
I0403 16:45:32.819953 21421 layer_factory.hpp:77] Creating layer inception_4c/output_inception_4c/output_0_split
I0403 16:45:32.819969 21421 net.cpp:91] Creating Layer inception_4c/output_inception_4c/output_0_split
I0403 16:45:32.819988 21421 net.cpp:425] inception_4c/output_inception_4c/output_0_split <- inception_4c/output
I0403 16:45:32.820008 21421 net.cpp:399] inception_4c/output_inception_4c/output_0_split -> inception_4c/output_inception_4c/output_0_split_0
I0403 16:45:32.820032 21421 net.cpp:399] inception_4c/output_inception_4c/output_0_split -> inception_4c/output_inception_4c/output_0_split_1
I0403 16:45:32.820050 21421 net.cpp:399] inception_4c/output_inception_4c/output_0_split -> inception_4c/output_inception_4c/output_0_split_2
I0403 16:45:32.820070 21421 net.cpp:399] inception_4c/output_inception_4c/output_0_split -> inception_4c/output_inception_4c/output_0_split_3
I0403 16:45:32.820150 21421 net.cpp:141] Setting up inception_4c/output_inception_4c/output_0_split
I0403 16:45:32.820173 21421 net.cpp:148] Top shape: 24 512 14 14 (2408448)
I0403 16:45:32.820188 21421 net.cpp:148] Top shape: 24 512 14 14 (2408448)
I0403 16:45:32.820202 21421 net.cpp:148] Top shape: 24 512 14 14 (2408448)
I0403 16:45:32.820216 21421 net.cpp:148] Top shape: 24 512 14 14 (2408448)
I0403 16:45:32.820230 21421 net.cpp:156] Memory required for data: 1111182624
I0403 16:45:32.820242 21421 layer_factory.hpp:77] Creating layer inception_4d/1x1
I0403 16:45:32.820266 21421 net.cpp:91] Creating Layer inception_4d/1x1
I0403 16:45:32.820282 21421 net.cpp:425] inception_4d/1x1 <- inception_4c/output_inception_4c/output_0_split_0
I0403 16:45:32.820302 21421 net.cpp:399] inception_4d/1x1 -> inception_4d/1x1
I0403 16:45:32.821624 21421 net.cpp:141] Setting up inception_4d/1x1
I0403 16:45:32.821652 21421 net.cpp:148] Top shape: 24 112 14 14 (526848)
I0403 16:45:32.821667 21421 net.cpp:156] Memory required for data: 1113290016
I0403 16:45:32.821684 21421 layer_factory.hpp:77] Creating layer inception_4d/relu_1x1
I0403 16:45:32.821702 21421 net.cpp:91] Creating Layer inception_4d/relu_1x1
I0403 16:45:32.821717 21421 net.cpp:425] inception_4d/relu_1x1 <- inception_4d/1x1
I0403 16:45:32.821735 21421 net.cpp:386] inception_4d/relu_1x1 -> inception_4d/1x1 (in-place)
I0403 16:45:32.821913 21421 net.cpp:141] Setting up inception_4d/relu_1x1
I0403 16:45:32.821936 21421 net.cpp:148] Top shape: 24 112 14 14 (526848)
I0403 16:45:32.821950 21421 net.cpp:156] Memory required for data: 1115397408
I0403 16:45:32.821964 21421 layer_factory.hpp:77] Creating layer inception_4d/3x3_reduce
I0403 16:45:32.822002 21421 net.cpp:91] Creating Layer inception_4d/3x3_reduce
I0403 16:45:32.822023 21421 net.cpp:425] inception_4d/3x3_reduce <- inception_4c/output_inception_4c/output_0_split_1
I0403 16:45:32.822046 21421 net.cpp:399] inception_4d/3x3_reduce -> inception_4d/3x3_reduce
I0403 16:45:32.823500 21421 net.cpp:141] Setting up inception_4d/3x3_reduce
I0403 16:45:32.823528 21421 net.cpp:148] Top shape: 24 144 14 14 (677376)
I0403 16:45:32.823542 21421 net.cpp:156] Memory required for data: 1118106912
I0403 16:45:32.823559 21421 layer_factory.hpp:77] Creating layer inception_4d/relu_3x3_reduce
I0403 16:45:32.823580 21421 net.cpp:91] Creating Layer inception_4d/relu_3x3_reduce
I0403 16:45:32.823595 21421 net.cpp:425] inception_4d/relu_3x3_reduce <- inception_4d/3x3_reduce
I0403 16:45:32.823611 21421 net.cpp:386] inception_4d/relu_3x3_reduce -> inception_4d/3x3_reduce (in-place)
I0403 16:45:32.823889 21421 net.cpp:141] Setting up inception_4d/relu_3x3_reduce
I0403 16:45:32.823915 21421 net.cpp:148] Top shape: 24 144 14 14 (677376)
I0403 16:45:32.823930 21421 net.cpp:156] Memory required for data: 1120816416
I0403 16:45:32.823945 21421 layer_factory.hpp:77] Creating layer inception_4d/3x3
I0403 16:45:32.823967 21421 net.cpp:91] Creating Layer inception_4d/3x3
I0403 16:45:32.823984 21421 net.cpp:425] inception_4d/3x3 <- inception_4d/3x3_reduce
I0403 16:45:32.824007 21421 net.cpp:399] inception_4d/3x3 -> inception_4d/3x3
I0403 16:45:32.828253 21421 net.cpp:141] Setting up inception_4d/3x3
I0403 16:45:32.828282 21421 net.cpp:148] Top shape: 24 288 14 14 (1354752)
I0403 16:45:32.828299 21421 net.cpp:156] Memory required for data: 1126235424
I0403 16:45:32.828317 21421 layer_factory.hpp:77] Creating layer inception_4d/relu_3x3
I0403 16:45:32.828335 21421 net.cpp:91] Creating Layer inception_4d/relu_3x3
I0403 16:45:32.828351 21421 net.cpp:425] inception_4d/relu_3x3 <- inception_4d/3x3
I0403 16:45:32.828369 21421 net.cpp:386] inception_4d/relu_3x3 -> inception_4d/3x3 (in-place)
I0403 16:45:32.828549 21421 net.cpp:141] Setting up inception_4d/relu_3x3
I0403 16:45:32.828574 21421 net.cpp:148] Top shape: 24 288 14 14 (1354752)
I0403 16:45:32.828588 21421 net.cpp:156] Memory required for data: 1131654432
I0403 16:45:32.828603 21421 layer_factory.hpp:77] Creating layer inception_4d/5x5_reduce
I0403 16:45:32.828624 21421 net.cpp:91] Creating Layer inception_4d/5x5_reduce
I0403 16:45:32.828642 21421 net.cpp:425] inception_4d/5x5_reduce <- inception_4c/output_inception_4c/output_0_split_2
I0403 16:45:32.828663 21421 net.cpp:399] inception_4d/5x5_reduce -> inception_4d/5x5_reduce
I0403 16:45:32.829849 21421 net.cpp:141] Setting up inception_4d/5x5_reduce
I0403 16:45:32.829877 21421 net.cpp:148] Top shape: 24 32 14 14 (150528)
I0403 16:45:32.829893 21421 net.cpp:156] Memory required for data: 1132256544
I0403 16:45:32.829910 21421 layer_factory.hpp:77] Creating layer inception_4d/relu_5x5_reduce
I0403 16:45:32.829928 21421 net.cpp:91] Creating Layer inception_4d/relu_5x5_reduce
I0403 16:45:32.829944 21421 net.cpp:425] inception_4d/relu_5x5_reduce <- inception_4d/5x5_reduce
I0403 16:45:32.829963 21421 net.cpp:386] inception_4d/relu_5x5_reduce -> inception_4d/5x5_reduce (in-place)
I0403 16:45:32.830153 21421 net.cpp:141] Setting up inception_4d/relu_5x5_reduce
I0403 16:45:32.830179 21421 net.cpp:148] Top shape: 24 32 14 14 (150528)
I0403 16:45:32.830193 21421 net.cpp:156] Memory required for data: 1132858656
I0403 16:45:32.830209 21421 layer_factory.hpp:77] Creating layer inception_4d/5x5
I0403 16:45:32.830229 21421 net.cpp:91] Creating Layer inception_4d/5x5
I0403 16:45:32.830247 21421 net.cpp:425] inception_4d/5x5 <- inception_4d/5x5_reduce
I0403 16:45:32.830268 21421 net.cpp:399] inception_4d/5x5 -> inception_4d/5x5
I0403 16:45:32.831753 21421 net.cpp:141] Setting up inception_4d/5x5
I0403 16:45:32.831779 21421 net.cpp:148] Top shape: 24 64 14 14 (301056)
I0403 16:45:32.831794 21421 net.cpp:156] Memory required for data: 1134062880
I0403 16:45:32.831814 21421 layer_factory.hpp:77] Creating layer inception_4d/relu_5x5
I0403 16:45:32.831848 21421 net.cpp:91] Creating Layer inception_4d/relu_5x5
I0403 16:45:32.831866 21421 net.cpp:425] inception_4d/relu_5x5 <- inception_4d/5x5
I0403 16:45:32.831883 21421 net.cpp:386] inception_4d/relu_5x5 -> inception_4d/5x5 (in-place)
I0403 16:45:32.832186 21421 net.cpp:141] Setting up inception_4d/relu_5x5
I0403 16:45:32.832212 21421 net.cpp:148] Top shape: 24 64 14 14 (301056)
I0403 16:45:32.832227 21421 net.cpp:156] Memory required for data: 1135267104
I0403 16:45:32.832242 21421 layer_factory.hpp:77] Creating layer inception_4d/pool
I0403 16:45:32.832262 21421 net.cpp:91] Creating Layer inception_4d/pool
I0403 16:45:32.832278 21421 net.cpp:425] inception_4d/pool <- inception_4c/output_inception_4c/output_0_split_3
I0403 16:45:32.832294 21421 net.cpp:399] inception_4d/pool -> inception_4d/pool
I0403 16:45:32.832361 21421 net.cpp:141] Setting up inception_4d/pool
I0403 16:45:32.832386 21421 net.cpp:148] Top shape: 24 512 14 14 (2408448)
I0403 16:45:32.832399 21421 net.cpp:156] Memory required for data: 1144900896
I0403 16:45:32.832413 21421 layer_factory.hpp:77] Creating layer inception_4d/pool_proj
I0403 16:45:32.832434 21421 net.cpp:91] Creating Layer inception_4d/pool_proj
I0403 16:45:32.832451 21421 net.cpp:425] inception_4d/pool_proj <- inception_4d/pool
I0403 16:45:32.832471 21421 net.cpp:399] inception_4d/pool_proj -> inception_4d/pool_proj
I0403 16:45:32.834223 21421 net.cpp:141] Setting up inception_4d/pool_proj
I0403 16:45:32.834254 21421 net.cpp:148] Top shape: 24 64 14 14 (301056)
I0403 16:45:32.834270 21421 net.cpp:156] Memory required for data: 1146105120
I0403 16:45:32.834288 21421 layer_factory.hpp:77] Creating layer inception_4d/relu_pool_proj
I0403 16:45:32.834306 21421 net.cpp:91] Creating Layer inception_4d/relu_pool_proj
I0403 16:45:32.834321 21421 net.cpp:425] inception_4d/relu_pool_proj <- inception_4d/pool_proj
I0403 16:45:32.834342 21421 net.cpp:386] inception_4d/relu_pool_proj -> inception_4d/pool_proj (in-place)
I0403 16:45:32.834525 21421 net.cpp:141] Setting up inception_4d/relu_pool_proj
I0403 16:45:32.834549 21421 net.cpp:148] Top shape: 24 64 14 14 (301056)
I0403 16:45:32.834564 21421 net.cpp:156] Memory required for data: 1147309344
I0403 16:45:32.834578 21421 layer_factory.hpp:77] Creating layer inception_4d/output
I0403 16:45:32.834595 21421 net.cpp:91] Creating Layer inception_4d/output
I0403 16:45:32.834610 21421 net.cpp:425] inception_4d/output <- inception_4d/1x1
I0403 16:45:32.834627 21421 net.cpp:425] inception_4d/output <- inception_4d/3x3
I0403 16:45:32.834643 21421 net.cpp:425] inception_4d/output <- inception_4d/5x5
I0403 16:45:32.834659 21421 net.cpp:425] inception_4d/output <- inception_4d/pool_proj
I0403 16:45:32.834678 21421 net.cpp:399] inception_4d/output -> inception_4d/output
I0403 16:45:32.834728 21421 net.cpp:141] Setting up inception_4d/output
I0403 16:45:32.834750 21421 net.cpp:148] Top shape: 24 528 14 14 (2483712)
I0403 16:45:32.834764 21421 net.cpp:156] Memory required for data: 1157244192
I0403 16:45:32.834779 21421 layer_factory.hpp:77] Creating layer inception_4d/output_inception_4d/output_0_split
I0403 16:45:32.834795 21421 net.cpp:91] Creating Layer inception_4d/output_inception_4d/output_0_split
I0403 16:45:32.834810 21421 net.cpp:425] inception_4d/output_inception_4d/output_0_split <- inception_4d/output
I0403 16:45:32.834830 21421 net.cpp:399] inception_4d/output_inception_4d/output_0_split -> inception_4d/output_inception_4d/output_0_split_0
I0403 16:45:32.834851 21421 net.cpp:399] inception_4d/output_inception_4d/output_0_split -> inception_4d/output_inception_4d/output_0_split_1
I0403 16:45:32.834883 21421 net.cpp:399] inception_4d/output_inception_4d/output_0_split -> inception_4d/output_inception_4d/output_0_split_2
I0403 16:45:32.834904 21421 net.cpp:399] inception_4d/output_inception_4d/output_0_split -> inception_4d/output_inception_4d/output_0_split_3
I0403 16:45:32.834923 21421 net.cpp:399] inception_4d/output_inception_4d/output_0_split -> inception_4d/output_inception_4d/output_0_split_4
I0403 16:45:32.835033 21421 net.cpp:141] Setting up inception_4d/output_inception_4d/output_0_split
I0403 16:45:32.835072 21421 net.cpp:148] Top shape: 24 528 14 14 (2483712)
I0403 16:45:32.835089 21421 net.cpp:148] Top shape: 24 528 14 14 (2483712)
I0403 16:45:32.835104 21421 net.cpp:148] Top shape: 24 528 14 14 (2483712)
I0403 16:45:32.835120 21421 net.cpp:148] Top shape: 24 528 14 14 (2483712)
I0403 16:45:32.835136 21421 net.cpp:148] Top shape: 24 528 14 14 (2483712)
I0403 16:45:32.835150 21421 net.cpp:156] Memory required for data: 1206918432
I0403 16:45:32.835165 21421 layer_factory.hpp:77] Creating layer loss2/ave_pool
I0403 16:45:32.835194 21421 net.cpp:91] Creating Layer loss2/ave_pool
I0403 16:45:32.835209 21421 net.cpp:425] loss2/ave_pool <- inception_4d/output_inception_4d/output_0_split_0
I0403 16:45:32.835229 21421 net.cpp:399] loss2/ave_pool -> loss2/ave_pool
I0403 16:45:32.835552 21421 net.cpp:141] Setting up loss2/ave_pool
I0403 16:45:32.835579 21421 net.cpp:148] Top shape: 24 528 4 4 (202752)
I0403 16:45:32.835595 21421 net.cpp:156] Memory required for data: 1207729440
I0403 16:45:32.835610 21421 layer_factory.hpp:77] Creating layer loss2/conv
I0403 16:45:32.835633 21421 net.cpp:91] Creating Layer loss2/conv
I0403 16:45:32.835649 21421 net.cpp:425] loss2/conv <- loss2/ave_pool
I0403 16:45:32.835670 21421 net.cpp:399] loss2/conv -> loss2/conv
I0403 16:45:32.837620 21421 net.cpp:141] Setting up loss2/conv
I0403 16:45:32.837647 21421 net.cpp:148] Top shape: 24 128 4 4 (49152)
I0403 16:45:32.837663 21421 net.cpp:156] Memory required for data: 1207926048
I0403 16:45:32.837682 21421 layer_factory.hpp:77] Creating layer loss2/relu_conv
I0403 16:45:32.837700 21421 net.cpp:91] Creating Layer loss2/relu_conv
I0403 16:45:32.837718 21421 net.cpp:425] loss2/relu_conv <- loss2/conv
I0403 16:45:32.837734 21421 net.cpp:386] loss2/relu_conv -> loss2/conv (in-place)
I0403 16:45:32.838022 21421 net.cpp:141] Setting up loss2/relu_conv
I0403 16:45:32.838049 21421 net.cpp:148] Top shape: 24 128 4 4 (49152)
I0403 16:45:32.838063 21421 net.cpp:156] Memory required for data: 1208122656
I0403 16:45:32.838078 21421 layer_factory.hpp:77] Creating layer loss2/fc
I0403 16:45:32.838099 21421 net.cpp:91] Creating Layer loss2/fc
I0403 16:45:32.838116 21421 net.cpp:425] loss2/fc <- loss2/conv
I0403 16:45:32.838136 21421 net.cpp:399] loss2/fc -> loss2/fc
I0403 16:45:32.855717 21421 net.cpp:141] Setting up loss2/fc
I0403 16:45:32.855751 21421 net.cpp:148] Top shape: 24 1024 (24576)
I0403 16:45:32.855767 21421 net.cpp:156] Memory required for data: 1208220960
I0403 16:45:32.855785 21421 layer_factory.hpp:77] Creating layer loss2/relu_fc
I0403 16:45:32.855804 21421 net.cpp:91] Creating Layer loss2/relu_fc
I0403 16:45:32.855821 21421 net.cpp:425] loss2/relu_fc <- loss2/fc
I0403 16:45:32.855841 21421 net.cpp:386] loss2/relu_fc -> loss2/fc (in-place)
I0403 16:45:32.856163 21421 net.cpp:141] Setting up loss2/relu_fc
I0403 16:45:32.856190 21421 net.cpp:148] Top shape: 24 1024 (24576)
I0403 16:45:32.856205 21421 net.cpp:156] Memory required for data: 1208319264
I0403 16:45:32.856220 21421 layer_factory.hpp:77] Creating layer loss2/drop_fc
I0403 16:45:32.856237 21421 net.cpp:91] Creating Layer loss2/drop_fc
I0403 16:45:32.856253 21421 net.cpp:425] loss2/drop_fc <- loss2/fc
I0403 16:45:32.856272 21421 net.cpp:386] loss2/drop_fc -> loss2/fc (in-place)
I0403 16:45:32.856322 21421 net.cpp:141] Setting up loss2/drop_fc
I0403 16:45:32.856346 21421 net.cpp:148] Top shape: 24 1024 (24576)
I0403 16:45:32.856361 21421 net.cpp:156] Memory required for data: 1208417568
I0403 16:45:32.856376 21421 layer_factory.hpp:77] Creating layer loss2/classifier_plantvillage
I0403 16:45:32.856394 21421 net.cpp:91] Creating Layer loss2/classifier_plantvillage
I0403 16:45:32.856410 21421 net.cpp:425] loss2/classifier_plantvillage <- loss2/fc
I0403 16:45:32.856431 21421 net.cpp:399] loss2/classifier_plantvillage -> loss2/classifier_plantvillage
I0403 16:45:32.856839 21421 net.cpp:141] Setting up loss2/classifier_plantvillage
I0403 16:45:32.856864 21421 net.cpp:148] Top shape: 24 38 (912)
I0403 16:45:32.856878 21421 net.cpp:156] Memory required for data: 1208421216
I0403 16:45:32.856920 21421 layer_factory.hpp:77] Creating layer loss2/classifier_plantvillage_loss2/classifier_plantvillage_0_split
I0403 16:45:32.856941 21421 net.cpp:91] Creating Layer loss2/classifier_plantvillage_loss2/classifier_plantvillage_0_split
I0403 16:45:32.856958 21421 net.cpp:425] loss2/classifier_plantvillage_loss2/classifier_plantvillage_0_split <- loss2/classifier_plantvillage
I0403 16:45:32.856976 21421 net.cpp:399] loss2/classifier_plantvillage_loss2/classifier_plantvillage_0_split -> loss2/classifier_plantvillage_loss2/classifier_plantvillage_0_split_0
I0403 16:45:32.857000 21421 net.cpp:399] loss2/classifier_plantvillage_loss2/classifier_plantvillage_0_split -> loss2/classifier_plantvillage_loss2/classifier_plantvillage_0_split_1
I0403 16:45:32.857024 21421 net.cpp:399] loss2/classifier_plantvillage_loss2/classifier_plantvillage_0_split -> loss2/classifier_plantvillage_loss2/classifier_plantvillage_0_split_2
I0403 16:45:32.857100 21421 net.cpp:141] Setting up loss2/classifier_plantvillage_loss2/classifier_plantvillage_0_split
I0403 16:45:32.857122 21421 net.cpp:148] Top shape: 24 38 (912)
I0403 16:45:32.857138 21421 net.cpp:148] Top shape: 24 38 (912)
I0403 16:45:32.857153 21421 net.cpp:148] Top shape: 24 38 (912)
I0403 16:45:32.857167 21421 net.cpp:156] Memory required for data: 1208432160
I0403 16:45:32.857180 21421 layer_factory.hpp:77] Creating layer inception_4e/1x1
I0403 16:45:32.857203 21421 net.cpp:91] Creating Layer inception_4e/1x1
I0403 16:45:32.857221 21421 net.cpp:425] inception_4e/1x1 <- inception_4d/output_inception_4d/output_0_split_1
I0403 16:45:32.857240 21421 net.cpp:399] inception_4e/1x1 -> inception_4e/1x1
I0403 16:45:32.859094 21421 net.cpp:141] Setting up inception_4e/1x1
I0403 16:45:32.859122 21421 net.cpp:148] Top shape: 24 256 14 14 (1204224)
I0403 16:45:32.859138 21421 net.cpp:156] Memory required for data: 1213249056
I0403 16:45:32.859155 21421 layer_factory.hpp:77] Creating layer inception_4e/relu_1x1
I0403 16:45:32.859175 21421 net.cpp:91] Creating Layer inception_4e/relu_1x1
I0403 16:45:32.859191 21421 net.cpp:425] inception_4e/relu_1x1 <- inception_4e/1x1
I0403 16:45:32.859207 21421 net.cpp:386] inception_4e/relu_1x1 -> inception_4e/1x1 (in-place)
I0403 16:45:32.859503 21421 net.cpp:141] Setting up inception_4e/relu_1x1
I0403 16:45:32.859529 21421 net.cpp:148] Top shape: 24 256 14 14 (1204224)
I0403 16:45:32.859544 21421 net.cpp:156] Memory required for data: 1218065952
I0403 16:45:32.859558 21421 layer_factory.hpp:77] Creating layer inception_4e/3x3_reduce
I0403 16:45:32.859580 21421 net.cpp:91] Creating Layer inception_4e/3x3_reduce
I0403 16:45:32.859597 21421 net.cpp:425] inception_4e/3x3_reduce <- inception_4d/output_inception_4d/output_0_split_2
I0403 16:45:32.859618 21421 net.cpp:399] inception_4e/3x3_reduce -> inception_4e/3x3_reduce
I0403 16:45:32.861747 21421 net.cpp:141] Setting up inception_4e/3x3_reduce
I0403 16:45:32.861776 21421 net.cpp:148] Top shape: 24 160 14 14 (752640)
I0403 16:45:32.861791 21421 net.cpp:156] Memory required for data: 1221076512
I0403 16:45:32.861809 21421 layer_factory.hpp:77] Creating layer inception_4e/relu_3x3_reduce
I0403 16:45:32.861829 21421 net.cpp:91] Creating Layer inception_4e/relu_3x3_reduce
I0403 16:45:32.861845 21421 net.cpp:425] inception_4e/relu_3x3_reduce <- inception_4e/3x3_reduce
I0403 16:45:32.861862 21421 net.cpp:386] inception_4e/relu_3x3_reduce -> inception_4e/3x3_reduce (in-place)
I0403 16:45:32.862049 21421 net.cpp:141] Setting up inception_4e/relu_3x3_reduce
I0403 16:45:32.862077 21421 net.cpp:148] Top shape: 24 160 14 14 (752640)
I0403 16:45:32.862092 21421 net.cpp:156] Memory required for data: 1224087072
I0403 16:45:32.862107 21421 layer_factory.hpp:77] Creating layer inception_4e/3x3
I0403 16:45:32.862128 21421 net.cpp:91] Creating Layer inception_4e/3x3
I0403 16:45:32.862144 21421 net.cpp:425] inception_4e/3x3 <- inception_4e/3x3_reduce
I0403 16:45:32.862164 21421 net.cpp:399] inception_4e/3x3 -> inception_4e/3x3
I0403 16:45:32.867177 21421 net.cpp:141] Setting up inception_4e/3x3
I0403 16:45:32.867220 21421 net.cpp:148] Top shape: 24 320 14 14 (1505280)
I0403 16:45:32.867238 21421 net.cpp:156] Memory required for data: 1230108192
I0403 16:45:32.867256 21421 layer_factory.hpp:77] Creating layer inception_4e/relu_3x3
I0403 16:45:32.867274 21421 net.cpp:91] Creating Layer inception_4e/relu_3x3
I0403 16:45:32.867290 21421 net.cpp:425] inception_4e/relu_3x3 <- inception_4e/3x3
I0403 16:45:32.867307 21421 net.cpp:386] inception_4e/relu_3x3 -> inception_4e/3x3 (in-place)
I0403 16:45:32.867606 21421 net.cpp:141] Setting up inception_4e/relu_3x3
I0403 16:45:32.867632 21421 net.cpp:148] Top shape: 24 320 14 14 (1505280)
I0403 16:45:32.867647 21421 net.cpp:156] Memory required for data: 1236129312
I0403 16:45:32.867662 21421 layer_factory.hpp:77] Creating layer inception_4e/5x5_reduce
I0403 16:45:32.867684 21421 net.cpp:91] Creating Layer inception_4e/5x5_reduce
I0403 16:45:32.867702 21421 net.cpp:425] inception_4e/5x5_reduce <- inception_4d/output_inception_4d/output_0_split_3
I0403 16:45:32.867723 21421 net.cpp:399] inception_4e/5x5_reduce -> inception_4e/5x5_reduce
I0403 16:45:32.868793 21421 net.cpp:141] Setting up inception_4e/5x5_reduce
I0403 16:45:32.868819 21421 net.cpp:148] Top shape: 24 32 14 14 (150528)
I0403 16:45:32.868834 21421 net.cpp:156] Memory required for data: 1236731424
I0403 16:45:32.868854 21421 layer_factory.hpp:77] Creating layer inception_4e/relu_5x5_reduce
I0403 16:45:32.868873 21421 net.cpp:91] Creating Layer inception_4e/relu_5x5_reduce
I0403 16:45:32.868890 21421 net.cpp:425] inception_4e/relu_5x5_reduce <- inception_4e/5x5_reduce
I0403 16:45:32.868906 21421 net.cpp:386] inception_4e/relu_5x5_reduce -> inception_4e/5x5_reduce (in-place)
I0403 16:45:32.869212 21421 net.cpp:141] Setting up inception_4e/relu_5x5_reduce
I0403 16:45:32.869238 21421 net.cpp:148] Top shape: 24 32 14 14 (150528)
I0403 16:45:32.869253 21421 net.cpp:156] Memory required for data: 1237333536
I0403 16:45:32.869267 21421 layer_factory.hpp:77] Creating layer inception_4e/5x5
I0403 16:45:32.869307 21421 net.cpp:91] Creating Layer inception_4e/5x5
I0403 16:45:32.869326 21421 net.cpp:425] inception_4e/5x5 <- inception_4e/5x5_reduce
I0403 16:45:32.869345 21421 net.cpp:399] inception_4e/5x5 -> inception_4e/5x5
I0403 16:45:32.872827 21421 net.cpp:141] Setting up inception_4e/5x5
I0403 16:45:32.872853 21421 net.cpp:148] Top shape: 24 128 14 14 (602112)
I0403 16:45:32.872869 21421 net.cpp:156] Memory required for data: 1239741984
I0403 16:45:32.872887 21421 layer_factory.hpp:77] Creating layer inception_4e/relu_5x5
I0403 16:45:32.872907 21421 net.cpp:91] Creating Layer inception_4e/relu_5x5
I0403 16:45:32.872925 21421 net.cpp:425] inception_4e/relu_5x5 <- inception_4e/5x5
I0403 16:45:32.872941 21421 net.cpp:386] inception_4e/relu_5x5 -> inception_4e/5x5 (in-place)
I0403 16:45:32.873138 21421 net.cpp:141] Setting up inception_4e/relu_5x5
I0403 16:45:32.873163 21421 net.cpp:148] Top shape: 24 128 14 14 (602112)
I0403 16:45:32.873180 21421 net.cpp:156] Memory required for data: 1242150432
I0403 16:45:32.873195 21421 layer_factory.hpp:77] Creating layer inception_4e/pool
I0403 16:45:32.873216 21421 net.cpp:91] Creating Layer inception_4e/pool
I0403 16:45:32.873234 21421 net.cpp:425] inception_4e/pool <- inception_4d/output_inception_4d/output_0_split_4
I0403 16:45:32.873250 21421 net.cpp:399] inception_4e/pool -> inception_4e/pool
I0403 16:45:32.873322 21421 net.cpp:141] Setting up inception_4e/pool
I0403 16:45:32.873345 21421 net.cpp:148] Top shape: 24 528 14 14 (2483712)
I0403 16:45:32.873359 21421 net.cpp:156] Memory required for data: 1252085280
I0403 16:45:32.873374 21421 layer_factory.hpp:77] Creating layer inception_4e/pool_proj
I0403 16:45:32.873395 21421 net.cpp:91] Creating Layer inception_4e/pool_proj
I0403 16:45:32.873412 21421 net.cpp:425] inception_4e/pool_proj <- inception_4e/pool
I0403 16:45:32.873432 21421 net.cpp:399] inception_4e/pool_proj -> inception_4e/pool_proj
I0403 16:45:32.874933 21421 net.cpp:141] Setting up inception_4e/pool_proj
I0403 16:45:32.874959 21421 net.cpp:148] Top shape: 24 128 14 14 (602112)
I0403 16:45:32.874996 21421 net.cpp:156] Memory required for data: 1254493728
I0403 16:45:32.875017 21421 layer_factory.hpp:77] Creating layer inception_4e/relu_pool_proj
I0403 16:45:32.875036 21421 net.cpp:91] Creating Layer inception_4e/relu_pool_proj
I0403 16:45:32.875051 21421 net.cpp:425] inception_4e/relu_pool_proj <- inception_4e/pool_proj
I0403 16:45:32.875072 21421 net.cpp:386] inception_4e/relu_pool_proj -> inception_4e/pool_proj (in-place)
I0403 16:45:32.875368 21421 net.cpp:141] Setting up inception_4e/relu_pool_proj
I0403 16:45:32.875396 21421 net.cpp:148] Top shape: 24 128 14 14 (602112)
I0403 16:45:32.875411 21421 net.cpp:156] Memory required for data: 1256902176
I0403 16:45:32.875425 21421 layer_factory.hpp:77] Creating layer inception_4e/output
I0403 16:45:32.875442 21421 net.cpp:91] Creating Layer inception_4e/output
I0403 16:45:32.875458 21421 net.cpp:425] inception_4e/output <- inception_4e/1x1
I0403 16:45:32.875474 21421 net.cpp:425] inception_4e/output <- inception_4e/3x3
I0403 16:45:32.875490 21421 net.cpp:425] inception_4e/output <- inception_4e/5x5
I0403 16:45:32.875505 21421 net.cpp:425] inception_4e/output <- inception_4e/pool_proj
I0403 16:45:32.875524 21421 net.cpp:399] inception_4e/output -> inception_4e/output
I0403 16:45:32.875573 21421 net.cpp:141] Setting up inception_4e/output
I0403 16:45:32.875597 21421 net.cpp:148] Top shape: 24 832 14 14 (3913728)
I0403 16:45:32.875612 21421 net.cpp:156] Memory required for data: 1272557088
I0403 16:45:32.875625 21421 layer_factory.hpp:77] Creating layer pool4/3x3_s2
I0403 16:45:32.875645 21421 net.cpp:91] Creating Layer pool4/3x3_s2
I0403 16:45:32.875661 21421 net.cpp:425] pool4/3x3_s2 <- inception_4e/output
I0403 16:45:32.875684 21421 net.cpp:399] pool4/3x3_s2 -> pool4/3x3_s2
I0403 16:45:32.875751 21421 net.cpp:141] Setting up pool4/3x3_s2
I0403 16:45:32.875774 21421 net.cpp:148] Top shape: 24 832 7 7 (978432)
I0403 16:45:32.875788 21421 net.cpp:156] Memory required for data: 1276470816
I0403 16:45:32.875802 21421 layer_factory.hpp:77] Creating layer pool4/3x3_s2_pool4/3x3_s2_0_split
I0403 16:45:32.875820 21421 net.cpp:91] Creating Layer pool4/3x3_s2_pool4/3x3_s2_0_split
I0403 16:45:32.875838 21421 net.cpp:425] pool4/3x3_s2_pool4/3x3_s2_0_split <- pool4/3x3_s2
I0403 16:45:32.875854 21421 net.cpp:399] pool4/3x3_s2_pool4/3x3_s2_0_split -> pool4/3x3_s2_pool4/3x3_s2_0_split_0
I0403 16:45:32.875874 21421 net.cpp:399] pool4/3x3_s2_pool4/3x3_s2_0_split -> pool4/3x3_s2_pool4/3x3_s2_0_split_1
I0403 16:45:32.875893 21421 net.cpp:399] pool4/3x3_s2_pool4/3x3_s2_0_split -> pool4/3x3_s2_pool4/3x3_s2_0_split_2
I0403 16:45:32.875911 21421 net.cpp:399] pool4/3x3_s2_pool4/3x3_s2_0_split -> pool4/3x3_s2_pool4/3x3_s2_0_split_3
I0403 16:45:32.876008 21421 net.cpp:141] Setting up pool4/3x3_s2_pool4/3x3_s2_0_split
I0403 16:45:32.876032 21421 net.cpp:148] Top shape: 24 832 7 7 (978432)
I0403 16:45:32.876049 21421 net.cpp:148] Top shape: 24 832 7 7 (978432)
I0403 16:45:32.876065 21421 net.cpp:148] Top shape: 24 832 7 7 (978432)
I0403 16:45:32.876080 21421 net.cpp:148] Top shape: 24 832 7 7 (978432)
I0403 16:45:32.876092 21421 net.cpp:156] Memory required for data: 1292125728
I0403 16:45:32.876107 21421 layer_factory.hpp:77] Creating layer inception_5a/1x1
I0403 16:45:32.876128 21421 net.cpp:91] Creating Layer inception_5a/1x1
I0403 16:45:32.876145 21421 net.cpp:425] inception_5a/1x1 <- pool4/3x3_s2_pool4/3x3_s2_0_split_0
I0403 16:45:32.876165 21421 net.cpp:399] inception_5a/1x1 -> inception_5a/1x1
I0403 16:45:32.879094 21421 net.cpp:141] Setting up inception_5a/1x1
I0403 16:45:32.879123 21421 net.cpp:148] Top shape: 24 256 7 7 (301056)
I0403 16:45:32.879139 21421 net.cpp:156] Memory required for data: 1293329952
I0403 16:45:32.879158 21421 layer_factory.hpp:77] Creating layer inception_5a/relu_1x1
I0403 16:45:32.879178 21421 net.cpp:91] Creating Layer inception_5a/relu_1x1
I0403 16:45:32.879194 21421 net.cpp:425] inception_5a/relu_1x1 <- inception_5a/1x1
I0403 16:45:32.879210 21421 net.cpp:386] inception_5a/relu_1x1 -> inception_5a/1x1 (in-place)
I0403 16:45:32.879524 21421 net.cpp:141] Setting up inception_5a/relu_1x1
I0403 16:45:32.879551 21421 net.cpp:148] Top shape: 24 256 7 7 (301056)
I0403 16:45:32.879565 21421 net.cpp:156] Memory required for data: 1294534176
I0403 16:45:32.879580 21421 layer_factory.hpp:77] Creating layer inception_5a/3x3_reduce
I0403 16:45:32.879602 21421 net.cpp:91] Creating Layer inception_5a/3x3_reduce
I0403 16:45:32.879621 21421 net.cpp:425] inception_5a/3x3_reduce <- pool4/3x3_s2_pool4/3x3_s2_0_split_1
I0403 16:45:32.879642 21421 net.cpp:399] inception_5a/3x3_reduce -> inception_5a/3x3_reduce
I0403 16:45:32.882210 21421 net.cpp:141] Setting up inception_5a/3x3_reduce
I0403 16:45:32.882241 21421 net.cpp:148] Top shape: 24 160 7 7 (188160)
I0403 16:45:32.882258 21421 net.cpp:156] Memory required for data: 1295286816
I0403 16:45:32.882277 21421 layer_factory.hpp:77] Creating layer inception_5a/relu_3x3_reduce
I0403 16:45:32.882297 21421 net.cpp:91] Creating Layer inception_5a/relu_3x3_reduce
I0403 16:45:32.882313 21421 net.cpp:425] inception_5a/relu_3x3_reduce <- inception_5a/3x3_reduce
I0403 16:45:32.882333 21421 net.cpp:386] inception_5a/relu_3x3_reduce -> inception_5a/3x3_reduce (in-place)
I0403 16:45:32.882524 21421 net.cpp:141] Setting up inception_5a/relu_3x3_reduce
I0403 16:45:32.882550 21421 net.cpp:148] Top shape: 24 160 7 7 (188160)
I0403 16:45:32.882565 21421 net.cpp:156] Memory required for data: 1296039456
I0403 16:45:32.882580 21421 layer_factory.hpp:77] Creating layer inception_5a/3x3
I0403 16:45:32.882602 21421 net.cpp:91] Creating Layer inception_5a/3x3
I0403 16:45:32.882621 21421 net.cpp:425] inception_5a/3x3 <- inception_5a/3x3_reduce
I0403 16:45:32.882642 21421 net.cpp:399] inception_5a/3x3 -> inception_5a/3x3
I0403 16:45:32.888861 21421 net.cpp:141] Setting up inception_5a/3x3
I0403 16:45:32.888891 21421 net.cpp:148] Top shape: 24 320 7 7 (376320)
I0403 16:45:32.888907 21421 net.cpp:156] Memory required for data: 1297544736
I0403 16:45:32.888926 21421 layer_factory.hpp:77] Creating layer inception_5a/relu_3x3
I0403 16:45:32.888945 21421 net.cpp:91] Creating Layer inception_5a/relu_3x3
I0403 16:45:32.888962 21421 net.cpp:425] inception_5a/relu_3x3 <- inception_5a/3x3
I0403 16:45:32.888979 21421 net.cpp:386] inception_5a/relu_3x3 -> inception_5a/3x3 (in-place)
I0403 16:45:32.889304 21421 net.cpp:141] Setting up inception_5a/relu_3x3
I0403 16:45:32.889331 21421 net.cpp:148] Top shape: 24 320 7 7 (376320)
I0403 16:45:32.889348 21421 net.cpp:156] Memory required for data: 1299050016
I0403 16:45:32.889361 21421 layer_factory.hpp:77] Creating layer inception_5a/5x5_reduce
I0403 16:45:32.889384 21421 net.cpp:91] Creating Layer inception_5a/5x5_reduce
I0403 16:45:32.889413 21421 net.cpp:425] inception_5a/5x5_reduce <- pool4/3x3_s2_pool4/3x3_s2_0_split_2
I0403 16:45:32.889436 21421 net.cpp:399] inception_5a/5x5_reduce -> inception_5a/5x5_reduce
I0403 16:45:32.890611 21421 net.cpp:141] Setting up inception_5a/5x5_reduce
I0403 16:45:32.890640 21421 net.cpp:148] Top shape: 24 32 7 7 (37632)
I0403 16:45:32.890655 21421 net.cpp:156] Memory required for data: 1299200544
I0403 16:45:32.890672 21421 layer_factory.hpp:77] Creating layer inception_5a/relu_5x5_reduce
I0403 16:45:32.890692 21421 net.cpp:91] Creating Layer inception_5a/relu_5x5_reduce
I0403 16:45:32.890709 21421 net.cpp:425] inception_5a/relu_5x5_reduce <- inception_5a/5x5_reduce
I0403 16:45:32.890727 21421 net.cpp:386] inception_5a/relu_5x5_reduce -> inception_5a/5x5_reduce (in-place)
I0403 16:45:32.891036 21421 net.cpp:141] Setting up inception_5a/relu_5x5_reduce
I0403 16:45:32.891062 21421 net.cpp:148] Top shape: 24 32 7 7 (37632)
I0403 16:45:32.891077 21421 net.cpp:156] Memory required for data: 1299351072
I0403 16:45:32.891093 21421 layer_factory.hpp:77] Creating layer inception_5a/5x5
I0403 16:45:32.891115 21421 net.cpp:91] Creating Layer inception_5a/5x5
I0403 16:45:32.891132 21421 net.cpp:425] inception_5a/5x5 <- inception_5a/5x5_reduce
I0403 16:45:32.891154 21421 net.cpp:399] inception_5a/5x5 -> inception_5a/5x5
I0403 16:45:32.892874 21421 net.cpp:141] Setting up inception_5a/5x5
I0403 16:45:32.892912 21421 net.cpp:148] Top shape: 24 128 7 7 (150528)
I0403 16:45:32.892930 21421 net.cpp:156] Memory required for data: 1299953184
I0403 16:45:32.892946 21421 layer_factory.hpp:77] Creating layer inception_5a/relu_5x5
I0403 16:45:32.892967 21421 net.cpp:91] Creating Layer inception_5a/relu_5x5
I0403 16:45:32.892983 21421 net.cpp:425] inception_5a/relu_5x5 <- inception_5a/5x5
I0403 16:45:32.893008 21421 net.cpp:386] inception_5a/relu_5x5 -> inception_5a/5x5 (in-place)
I0403 16:45:32.893196 21421 net.cpp:141] Setting up inception_5a/relu_5x5
I0403 16:45:32.893221 21421 net.cpp:148] Top shape: 24 128 7 7 (150528)
I0403 16:45:32.893235 21421 net.cpp:156] Memory required for data: 1300555296
I0403 16:45:32.893249 21421 layer_factory.hpp:77] Creating layer inception_5a/pool
I0403 16:45:32.893268 21421 net.cpp:91] Creating Layer inception_5a/pool
I0403 16:45:32.893285 21421 net.cpp:425] inception_5a/pool <- pool4/3x3_s2_pool4/3x3_s2_0_split_3
I0403 16:45:32.893304 21421 net.cpp:399] inception_5a/pool -> inception_5a/pool
I0403 16:45:32.893375 21421 net.cpp:141] Setting up inception_5a/pool
I0403 16:45:32.893399 21421 net.cpp:148] Top shape: 24 832 7 7 (978432)
I0403 16:45:32.893414 21421 net.cpp:156] Memory required for data: 1304469024
I0403 16:45:32.893427 21421 layer_factory.hpp:77] Creating layer inception_5a/pool_proj
I0403 16:45:32.893450 21421 net.cpp:91] Creating Layer inception_5a/pool_proj
I0403 16:45:32.893465 21421 net.cpp:425] inception_5a/pool_proj <- inception_5a/pool
I0403 16:45:32.893486 21421 net.cpp:399] inception_5a/pool_proj -> inception_5a/pool_proj
I0403 16:45:32.895756 21421 net.cpp:141] Setting up inception_5a/pool_proj
I0403 16:45:32.895783 21421 net.cpp:148] Top shape: 24 128 7 7 (150528)
I0403 16:45:32.895798 21421 net.cpp:156] Memory required for data: 1305071136
I0403 16:45:32.895817 21421 layer_factory.hpp:77] Creating layer inception_5a/relu_pool_proj
I0403 16:45:32.895835 21421 net.cpp:91] Creating Layer inception_5a/relu_pool_proj
I0403 16:45:32.895850 21421 net.cpp:425] inception_5a/relu_pool_proj <- inception_5a/pool_proj
I0403 16:45:32.895869 21421 net.cpp:386] inception_5a/relu_pool_proj -> inception_5a/pool_proj (in-place)
I0403 16:45:32.896170 21421 net.cpp:141] Setting up inception_5a/relu_pool_proj
I0403 16:45:32.896196 21421 net.cpp:148] Top shape: 24 128 7 7 (150528)
I0403 16:45:32.896212 21421 net.cpp:156] Memory required for data: 1305673248
I0403 16:45:32.896226 21421 layer_factory.hpp:77] Creating layer inception_5a/output
I0403 16:45:32.896244 21421 net.cpp:91] Creating Layer inception_5a/output
I0403 16:45:32.896258 21421 net.cpp:425] inception_5a/output <- inception_5a/1x1
I0403 16:45:32.896275 21421 net.cpp:425] inception_5a/output <- inception_5a/3x3
I0403 16:45:32.896291 21421 net.cpp:425] inception_5a/output <- inception_5a/5x5
I0403 16:45:32.896306 21421 net.cpp:425] inception_5a/output <- inception_5a/pool_proj
I0403 16:45:32.896324 21421 net.cpp:399] inception_5a/output -> inception_5a/output
I0403 16:45:32.896374 21421 net.cpp:141] Setting up inception_5a/output
I0403 16:45:32.896400 21421 net.cpp:148] Top shape: 24 832 7 7 (978432)
I0403 16:45:32.896414 21421 net.cpp:156] Memory required for data: 1309586976
I0403 16:45:32.896428 21421 layer_factory.hpp:77] Creating layer inception_5a/output_inception_5a/output_0_split
I0403 16:45:32.896445 21421 net.cpp:91] Creating Layer inception_5a/output_inception_5a/output_0_split
I0403 16:45:32.896461 21421 net.cpp:425] inception_5a/output_inception_5a/output_0_split <- inception_5a/output
I0403 16:45:32.896477 21421 net.cpp:399] inception_5a/output_inception_5a/output_0_split -> inception_5a/output_inception_5a/output_0_split_0
I0403 16:45:32.896497 21421 net.cpp:399] inception_5a/output_inception_5a/output_0_split -> inception_5a/output_inception_5a/output_0_split_1
I0403 16:45:32.896518 21421 net.cpp:399] inception_5a/output_inception_5a/output_0_split -> inception_5a/output_inception_5a/output_0_split_2
I0403 16:45:32.896539 21421 net.cpp:399] inception_5a/output_inception_5a/output_0_split -> inception_5a/output_inception_5a/output_0_split_3
I0403 16:45:32.896651 21421 net.cpp:141] Setting up inception_5a/output_inception_5a/output_0_split
I0403 16:45:32.896675 21421 net.cpp:148] Top shape: 24 832 7 7 (978432)
I0403 16:45:32.896692 21421 net.cpp:148] Top shape: 24 832 7 7 (978432)
I0403 16:45:32.896706 21421 net.cpp:148] Top shape: 24 832 7 7 (978432)
I0403 16:45:32.896723 21421 net.cpp:148] Top shape: 24 832 7 7 (978432)
I0403 16:45:32.896736 21421 net.cpp:156] Memory required for data: 1325241888
I0403 16:45:32.896749 21421 layer_factory.hpp:77] Creating layer inception_5b/1x1
I0403 16:45:32.896771 21421 net.cpp:91] Creating Layer inception_5b/1x1
I0403 16:45:32.896788 21421 net.cpp:425] inception_5b/1x1 <- inception_5a/output_inception_5a/output_0_split_0
I0403 16:45:32.896809 21421 net.cpp:399] inception_5b/1x1 -> inception_5b/1x1
I0403 16:45:32.900625 21421 net.cpp:141] Setting up inception_5b/1x1
I0403 16:45:32.900656 21421 net.cpp:148] Top shape: 24 384 7 7 (451584)
I0403 16:45:32.900672 21421 net.cpp:156] Memory required for data: 1327048224
I0403 16:45:32.900689 21421 layer_factory.hpp:77] Creating layer inception_5b/relu_1x1
I0403 16:45:32.900707 21421 net.cpp:91] Creating Layer inception_5b/relu_1x1
I0403 16:45:32.900723 21421 net.cpp:425] inception_5b/relu_1x1 <- inception_5b/1x1
I0403 16:45:32.900741 21421 net.cpp:386] inception_5b/relu_1x1 -> inception_5b/1x1 (in-place)
I0403 16:45:32.901044 21421 net.cpp:141] Setting up inception_5b/relu_1x1
I0403 16:45:32.901072 21421 net.cpp:148] Top shape: 24 384 7 7 (451584)
I0403 16:45:32.901088 21421 net.cpp:156] Memory required for data: 1328854560
I0403 16:45:32.901103 21421 layer_factory.hpp:77] Creating layer inception_5b/3x3_reduce
I0403 16:45:32.901124 21421 net.cpp:91] Creating Layer inception_5b/3x3_reduce
I0403 16:45:32.901140 21421 net.cpp:425] inception_5b/3x3_reduce <- inception_5a/output_inception_5a/output_0_split_1
I0403 16:45:32.901159 21421 net.cpp:399] inception_5b/3x3_reduce -> inception_5b/3x3_reduce
I0403 16:45:32.903777 21421 net.cpp:141] Setting up inception_5b/3x3_reduce
I0403 16:45:32.903805 21421 net.cpp:148] Top shape: 24 192 7 7 (225792)
I0403 16:45:32.903820 21421 net.cpp:156] Memory required for data: 1329757728
I0403 16:45:32.903838 21421 layer_factory.hpp:77] Creating layer inception_5b/relu_3x3_reduce
I0403 16:45:32.903856 21421 net.cpp:91] Creating Layer inception_5b/relu_3x3_reduce
I0403 16:45:32.903870 21421 net.cpp:425] inception_5b/relu_3x3_reduce <- inception_5b/3x3_reduce
I0403 16:45:32.903889 21421 net.cpp:386] inception_5b/relu_3x3_reduce -> inception_5b/3x3_reduce (in-place)
I0403 16:45:32.904081 21421 net.cpp:141] Setting up inception_5b/relu_3x3_reduce
I0403 16:45:32.904105 21421 net.cpp:148] Top shape: 24 192 7 7 (225792)
I0403 16:45:32.904119 21421 net.cpp:156] Memory required for data: 1330660896
I0403 16:45:32.904134 21421 layer_factory.hpp:77] Creating layer inception_5b/3x3
I0403 16:45:32.904155 21421 net.cpp:91] Creating Layer inception_5b/3x3
I0403 16:45:32.904171 21421 net.cpp:425] inception_5b/3x3 <- inception_5b/3x3_reduce
I0403 16:45:32.904191 21421 net.cpp:399] inception_5b/3x3 -> inception_5b/3x3
I0403 16:45:32.910733 21421 net.cpp:141] Setting up inception_5b/3x3
I0403 16:45:32.910761 21421 net.cpp:148] Top shape: 24 384 7 7 (451584)
I0403 16:45:32.910776 21421 net.cpp:156] Memory required for data: 1332467232
I0403 16:45:32.910794 21421 layer_factory.hpp:77] Creating layer inception_5b/relu_3x3
I0403 16:45:32.910810 21421 net.cpp:91] Creating Layer inception_5b/relu_3x3
I0403 16:45:32.910826 21421 net.cpp:425] inception_5b/relu_3x3 <- inception_5b/3x3
I0403 16:45:32.910845 21421 net.cpp:386] inception_5b/relu_3x3 -> inception_5b/3x3 (in-place)
I0403 16:45:32.911141 21421 net.cpp:141] Setting up inception_5b/relu_3x3
I0403 16:45:32.911167 21421 net.cpp:148] Top shape: 24 384 7 7 (451584)
I0403 16:45:32.911181 21421 net.cpp:156] Memory required for data: 1334273568
I0403 16:45:32.911196 21421 layer_factory.hpp:77] Creating layer inception_5b/5x5_reduce
I0403 16:45:32.911233 21421 net.cpp:91] Creating Layer inception_5b/5x5_reduce
I0403 16:45:32.911252 21421 net.cpp:425] inception_5b/5x5_reduce <- inception_5a/output_inception_5a/output_0_split_2
I0403 16:45:32.911273 21421 net.cpp:399] inception_5b/5x5_reduce -> inception_5b/5x5_reduce
I0403 16:45:32.912511 21421 net.cpp:141] Setting up inception_5b/5x5_reduce
I0403 16:45:32.912539 21421 net.cpp:148] Top shape: 24 48 7 7 (56448)
I0403 16:45:32.912554 21421 net.cpp:156] Memory required for data: 1334499360
I0403 16:45:32.912570 21421 layer_factory.hpp:77] Creating layer inception_5b/relu_5x5_reduce
I0403 16:45:32.912588 21421 net.cpp:91] Creating Layer inception_5b/relu_5x5_reduce
I0403 16:45:32.912603 21421 net.cpp:425] inception_5b/relu_5x5_reduce <- inception_5b/5x5_reduce
I0403 16:45:32.912622 21421 net.cpp:386] inception_5b/relu_5x5_reduce -> inception_5b/5x5_reduce (in-place)
I0403 16:45:32.912983 21421 net.cpp:141] Setting up inception_5b/relu_5x5_reduce
I0403 16:45:32.913014 21421 net.cpp:148] Top shape: 24 48 7 7 (56448)
I0403 16:45:32.913029 21421 net.cpp:156] Memory required for data: 1334725152
I0403 16:45:32.913043 21421 layer_factory.hpp:77] Creating layer inception_5b/5x5
I0403 16:45:32.913064 21421 net.cpp:91] Creating Layer inception_5b/5x5
I0403 16:45:32.913079 21421 net.cpp:425] inception_5b/5x5 <- inception_5b/5x5_reduce
I0403 16:45:32.913097 21421 net.cpp:399] inception_5b/5x5 -> inception_5b/5x5
I0403 16:45:32.915092 21421 net.cpp:141] Setting up inception_5b/5x5
I0403 16:45:32.915119 21421 net.cpp:148] Top shape: 24 128 7 7 (150528)
I0403 16:45:32.915135 21421 net.cpp:156] Memory required for data: 1335327264
I0403 16:45:32.915153 21421 layer_factory.hpp:77] Creating layer inception_5b/relu_5x5
I0403 16:45:32.915172 21421 net.cpp:91] Creating Layer inception_5b/relu_5x5
I0403 16:45:32.915189 21421 net.cpp:425] inception_5b/relu_5x5 <- inception_5b/5x5
I0403 16:45:32.915205 21421 net.cpp:386] inception_5b/relu_5x5 -> inception_5b/5x5 (in-place)
I0403 16:45:32.915392 21421 net.cpp:141] Setting up inception_5b/relu_5x5
I0403 16:45:32.915418 21421 net.cpp:148] Top shape: 24 128 7 7 (150528)
I0403 16:45:32.915434 21421 net.cpp:156] Memory required for data: 1335929376
I0403 16:45:32.915448 21421 layer_factory.hpp:77] Creating layer inception_5b/pool
I0403 16:45:32.915464 21421 net.cpp:91] Creating Layer inception_5b/pool
I0403 16:45:32.915479 21421 net.cpp:425] inception_5b/pool <- inception_5a/output_inception_5a/output_0_split_3
I0403 16:45:32.915496 21421 net.cpp:399] inception_5b/pool -> inception_5b/pool
I0403 16:45:32.915567 21421 net.cpp:141] Setting up inception_5b/pool
I0403 16:45:32.915591 21421 net.cpp:148] Top shape: 24 832 7 7 (978432)
I0403 16:45:32.915604 21421 net.cpp:156] Memory required for data: 1339843104
I0403 16:45:32.915618 21421 layer_factory.hpp:77] Creating layer inception_5b/pool_proj
I0403 16:45:32.915639 21421 net.cpp:91] Creating Layer inception_5b/pool_proj
I0403 16:45:32.915655 21421 net.cpp:425] inception_5b/pool_proj <- inception_5b/pool
I0403 16:45:32.915675 21421 net.cpp:399] inception_5b/pool_proj -> inception_5b/pool_proj
I0403 16:45:32.917909 21421 net.cpp:141] Setting up inception_5b/pool_proj
I0403 16:45:32.917937 21421 net.cpp:148] Top shape: 24 128 7 7 (150528)
I0403 16:45:32.917953 21421 net.cpp:156] Memory required for data: 1340445216
I0403 16:45:32.917969 21421 layer_factory.hpp:77] Creating layer inception_5b/relu_pool_proj
I0403 16:45:32.917999 21421 net.cpp:91] Creating Layer inception_5b/relu_pool_proj
I0403 16:45:32.918020 21421 net.cpp:425] inception_5b/relu_pool_proj <- inception_5b/pool_proj
I0403 16:45:32.918036 21421 net.cpp:386] inception_5b/relu_pool_proj -> inception_5b/pool_proj (in-place)
I0403 16:45:32.918329 21421 net.cpp:141] Setting up inception_5b/relu_pool_proj
I0403 16:45:32.918355 21421 net.cpp:148] Top shape: 24 128 7 7 (150528)
I0403 16:45:32.918370 21421 net.cpp:156] Memory required for data: 1341047328
I0403 16:45:32.918385 21421 layer_factory.hpp:77] Creating layer inception_5b/output
I0403 16:45:32.918401 21421 net.cpp:91] Creating Layer inception_5b/output
I0403 16:45:32.918429 21421 net.cpp:425] inception_5b/output <- inception_5b/1x1
I0403 16:45:32.918447 21421 net.cpp:425] inception_5b/output <- inception_5b/3x3
I0403 16:45:32.918462 21421 net.cpp:425] inception_5b/output <- inception_5b/5x5
I0403 16:45:32.918478 21421 net.cpp:425] inception_5b/output <- inception_5b/pool_proj
I0403 16:45:32.918496 21421 net.cpp:399] inception_5b/output -> inception_5b/output
I0403 16:45:32.918546 21421 net.cpp:141] Setting up inception_5b/output
I0403 16:45:32.918572 21421 net.cpp:148] Top shape: 24 1024 7 7 (1204224)
I0403 16:45:32.918586 21421 net.cpp:156] Memory required for data: 1345864224
I0403 16:45:32.918601 21421 layer_factory.hpp:77] Creating layer pool5/7x7_s1
I0403 16:45:32.918617 21421 net.cpp:91] Creating Layer pool5/7x7_s1
I0403 16:45:32.918632 21421 net.cpp:425] pool5/7x7_s1 <- inception_5b/output
I0403 16:45:32.918653 21421 net.cpp:399] pool5/7x7_s1 -> pool5/7x7_s1
I0403 16:45:32.918860 21421 net.cpp:141] Setting up pool5/7x7_s1
I0403 16:45:32.918885 21421 net.cpp:148] Top shape: 24 1024 1 1 (24576)
I0403 16:45:32.918900 21421 net.cpp:156] Memory required for data: 1345962528
I0403 16:45:32.918913 21421 layer_factory.hpp:77] Creating layer pool5/drop_7x7_s1
I0403 16:45:32.918931 21421 net.cpp:91] Creating Layer pool5/drop_7x7_s1
I0403 16:45:32.918948 21421 net.cpp:425] pool5/drop_7x7_s1 <- pool5/7x7_s1
I0403 16:45:32.918964 21421 net.cpp:386] pool5/drop_7x7_s1 -> pool5/7x7_s1 (in-place)
I0403 16:45:32.919018 21421 net.cpp:141] Setting up pool5/drop_7x7_s1
I0403 16:45:32.919044 21421 net.cpp:148] Top shape: 24 1024 1 1 (24576)
I0403 16:45:32.919059 21421 net.cpp:156] Memory required for data: 1346060832
I0403 16:45:32.919072 21421 layer_factory.hpp:77] Creating layer loss3/classifier_plantvillage
I0403 16:45:32.919090 21421 net.cpp:91] Creating Layer loss3/classifier_plantvillage
I0403 16:45:32.919106 21421 net.cpp:425] loss3/classifier_plantvillage <- pool5/7x7_s1
I0403 16:45:32.919126 21421 net.cpp:399] loss3/classifier_plantvillage -> loss3/classifier_plantvillage
I0403 16:45:32.919538 21421 net.cpp:141] Setting up loss3/classifier_plantvillage
I0403 16:45:32.919564 21421 net.cpp:148] Top shape: 24 38 (912)
I0403 16:45:32.919579 21421 net.cpp:156] Memory required for data: 1346064480
I0403 16:45:32.919597 21421 layer_factory.hpp:77] Creating layer loss3/classifier_plantvillage_loss3/classifier_plantvillage_0_split
I0403 16:45:32.919613 21421 net.cpp:91] Creating Layer loss3/classifier_plantvillage_loss3/classifier_plantvillage_0_split
I0403 16:45:32.919628 21421 net.cpp:425] loss3/classifier_plantvillage_loss3/classifier_plantvillage_0_split <- loss3/classifier_plantvillage
I0403 16:45:32.919644 21421 net.cpp:399] loss3/classifier_plantvillage_loss3/classifier_plantvillage_0_split -> loss3/classifier_plantvillage_loss3/classifier_plantvillage_0_split_0
I0403 16:45:32.919663 21421 net.cpp:399] loss3/classifier_plantvillage_loss3/classifier_plantvillage_0_split -> loss3/classifier_plantvillage_loss3/classifier_plantvillage_0_split_1
I0403 16:45:32.919685 21421 net.cpp:399] loss3/classifier_plantvillage_loss3/classifier_plantvillage_0_split -> loss3/classifier_plantvillage_loss3/classifier_plantvillage_0_split_2
I0403 16:45:32.919705 21421 net.cpp:399] loss3/classifier_plantvillage_loss3/classifier_plantvillage_0_split -> loss3/classifier_plantvillage_loss3/classifier_plantvillage_0_split_3
I0403 16:45:32.919806 21421 net.cpp:141] Setting up loss3/classifier_plantvillage_loss3/classifier_plantvillage_0_split
I0403 16:45:32.919828 21421 net.cpp:148] Top shape: 24 38 (912)
I0403 16:45:32.919844 21421 net.cpp:148] Top shape: 24 38 (912)
I0403 16:45:32.919858 21421 net.cpp:148] Top shape: 24 38 (912)
I0403 16:45:32.919873 21421 net.cpp:148] Top shape: 24 38 (912)
I0403 16:45:32.919885 21421 net.cpp:156] Memory required for data: 1346079072
I0403 16:45:32.919899 21421 layer_factory.hpp:77] Creating layer loss1/loss
I0403 16:45:32.919921 21421 net.cpp:91] Creating Layer loss1/loss
I0403 16:45:32.919939 21421 net.cpp:425] loss1/loss <- loss1/classifier_plantvillage_loss1/classifier_plantvillage_0_split_0
I0403 16:45:32.919967 21421 net.cpp:425] loss1/loss <- label_data_1_split_0
…
