…
I0403 16:53:47.128015 21554 net.cpp:313] The NetState phase (1) differed from the phase (0) specified by a rule in layer data
I0403 16:53:47.129281 21554 net.cpp:49] Initializing net from parameters: 
state {
  phase: TEST
}
layer {
  name: "data"
  type: "Data"
  top: "data"
  top: "label"
  include {
    phase: TEST
  }
  transform_param {
    mirror: false
    crop_size: 224
    mean_file: "/home/mohanty/data/final_dataset/lmdb/color-40-60/mean.binaryproto"
  }
  data_param {
    source: "/home/mohanty/data/final_dataset/lmdb/color-40-60/test_db"
    batch_size: 24
    backend: LMDB
  }
}
layer {
  name: "conv1/7x7_s2"
  type: "Convolution"
  bottom: "data"
  top: "conv1/7x7_s2"
  param {
    lr_mult: 1
    decay_mult: 1
  }
  param {
    lr_mult: 2
    decay_mult: 0
  }
  convolution_param {
    num_output: 64
    pad: 3
    kernel_size: 7
    stride: 2
    weight_filler {
      type: "xavier"
      std: 0.1
    }
    bias_filler {
      type: "constant"
      value: 0.2
    }
  }
}
layer {
  name: "conv1/relu_7x7"
  type: "ReLU"
  bottom: "conv1/7x7_s2"
  top: "conv1/7x7_s2"
}
layer {
  name: "pool1/3x3_s2"
  type: "Pooling"
  bottom: "conv1/7x7_s2"
  top: "pool1/3x3_s2"
  pooling_param {
    pool: MAX
    kernel_size: 3
    stride: 2
  }
}
layer {
  name: "pool1/norm1"
  type: "LRN"
  bottom: "pool1/3x3_s2"
  top: "pool1/norm1"
  lrn_param {
    local_size: 5
    alpha: 0.0001
    beta: 0.75
  }
}
layer {
  name: "conv2/3x3_reduce"
  type: "Convolution"
  bottom: "pool1/norm1"
  top: "conv2/3x3_reduce"
  param {
    lr_mult: 1
    decay_mult: 1
  }
  param {
    lr_mult: 2
    decay_mult: 0
  }
  convolution_param {
    num_output: 64
    kernel_size: 1
    weight_filler {
      type: "xavier"
      std: 0.1
    }
    bias_filler {
      type: "constant"
      value: 0.2
    }
  }
}
layer {
  name: "conv2/relu_3x3_reduce"
  type: "ReLU"
  bottom: "conv2/3x3_reduce"
  top: "conv2/3x3_reduce"
}
layer {
  name: "conv2/3x3"
  type: "Convolution"
  bottom: "conv2/3x3_reduce"
  top: "conv2/3x3"
  param {
    lr_mult: 1
    decay_mult: 1
  }
  param {
    lr_mult: 2
    decay_mult: 0
  }
  convolution_param {
    num_output: 192
    pad: 1
    kernel_size: 3
    weight_filler {
      type: "xavier"
      std: 0.03
    }
    bias_filler {
      type: "constant"
      value: 0.2
    }
  }
}
layer {
  name: "conv2/relu_3x3"
  type: "ReLU"
  bottom: "conv2/3x3"
  top: "conv2/3x3"
}
layer {
  name: "conv2/norm2"
  type: "LRN"
  bottom: "conv2/3x3"
  top: "conv2/norm2"
  lrn_param {
    local_size: 5
    alpha: 0.0001
    beta: 0.75
  }
}
layer {
  name: "pool2/3x3_s2"
  type: "Pooling"
  bottom: "conv2/norm2"
  top: "pool2/3x3_s2"
  pooling_param {
    pool: MAX
    kernel_size: 3
    stride: 2
  }
}
layer {
  name: "inception_3a/1x1"
  type: "Convolution"
  bottom: "pool2/3x3_s2"
  top: "inception_3a/1x1"
  param {
    lr_mult: 1
    decay_mult: 1
  }
  param {
    lr_mult: 2
    decay_mult: 0
  }
  convolution_param {
    num_output: 64
    kernel_size: 1
    weight_filler {
      type: "xavier"
      std: 0.03
    }
    bias_filler {
      type: "constant"
      value: 0.2
    }
  }
}
layer {
  name: "inception_3a/relu_1x1"
  type: "ReLU"
  bottom: "inception_3a/1x1"
  top: "inception_3a/1x1"
}
layer {
  name: "inception_3a/3x3_reduce"
  type: "Convolution"
  bottom: "pool2/3x3_s2"
  top: "inception_3a/3x3_reduce"
  param {
    lr_mult: 1
    decay_mult: 1
  }
  param {
    lr_mult: 2
    decay_mult: 0
  }
  convolution_param {
    num_output: 96
    kernel_size: 1
    weight_filler {
      type: "xavier"
      std: 0.09
    }
    bias_filler {
      type: "constant"
      value: 0.2
    }
  }
}
layer {
  name: "inception_3a/relu_3x3_reduce"
  type: "ReLU"
  bottom: "inception_3a/3x3_reduce"
  top: "inception_3a/3x3_reduce"
}
layer {
  name: "inception_3a/3x3"
  type: "Convolution"
  bottom: "inception_3a/3x3_reduce"
  top: "inception_3a/3x3"
  param {
    lr_mult: 1
    decay_mult: 1
  }
  param {
    lr_mult: 2
    decay_mult: 0
  }
  convolution_param {
    num_output: 128
    pad: 1
    kernel_size: 3
    weight_filler {
      type: "xavier"
      std: 0.03
    }
    bias_filler {
      type: "constant"
      value: 0.2
    }
  }
}
layer {
  name: "inception_3a/relu_3x3"
  type: "ReLU"
  bottom: "inception_3a/3x3"
  top: "inception_3a/3x3"
}
layer {
  name: "inception_3a/5x5_reduce"
  type: "Convolution"
  bottom: "pool2/3x3_s2"
  top: "inception_3a/5x5_reduce"
  param {
    lr_mult: 1
    decay_mult: 1
  }
  param {
    lr_mult: 2
    decay_mult: 0
  }
  convolution_param {
    num_output: 16
    kernel_size: 1
    weight_filler {
      type: "xavier"
      std: 0.2
    }
    bias_filler {
      type: "constant"
      value: 0.2
    }
  }
}
layer {
  name: "inception_3a/relu_5x5_reduce"
  type: "ReLU"
  bottom: "inception_3a/5x5_reduce"
  top: "inception_3a/5x5_reduce"
}
layer {
  name: "inception_3a/5x5"
  type: "Convolution"
  bottom: "inception_3a/5x5_reduce"
  top: "inception_3a/5x5"
  param {
    lr_mult: 1
    decay_mult: 1
  }
  param {
    lr_mult: 2
    decay_mult: 0
  }
  convolution_param {
    num_output: 32
    pad: 2
    kernel_size: 5
    weight_filler {
      type: "xavier"
      std: 0.03
    }
    bias_filler {
      type: "constant"
      value: 0.2
    }
  }
}
layer {
  name: "inception_3a/relu_5x5"
  type: "ReLU"
  bottom: "inception_3a/5x5"
  top: "inception_3a/5x5"
}
layer {
  name: "inception_3a/pool"
  type: "Pooling"
  bottom: "pool2/3x3_s2"
  top: "inception_3a/pool"
  pooling_param {
    pool: MAX
    kernel_size: 3
    stride: 1
    pad: 1
  }
}
layer {
  name: "inception_3a/pool_proj"
  type: "Convolution"
  bottom: "inception_3a/pool"
  top: "inception_3a/pool_proj"
  param {
    lr_mult: 1
    decay_mult: 1
  }
  param {
    lr_mult: 2
    decay_mult: 0
  }
  convolution_param {
    num_output: 32
    kernel_size: 1
    weight_filler {
      type: "xavier"
      std: 0.1
    }
    bias_filler {
      type: "constant"
      value: 0.2
    }
  }
}
layer {
  name: "inception_3a/relu_pool_proj"
  type: "ReLU"
  bottom: "inception_3a/pool_proj"
  top: "inception_3a/pool_proj"
}
layer {
  name: "inception_3a/output"
  type: "Concat"
  bottom: "inception_3a/1x1"
  bottom: "inception_3a/3x3"
  bottom: "inception_3a/5x5"
  bottom: "inception_3a/pool_proj"
  top: "inception_3a/output"
}
layer {
  name: "inception_3b/1x1"
  type: "Convolution"
  bottom: "inception_3a/output"
  top: "inception_3b/1x1"
  param {
    lr_mult: 1
    decay_mult: 1
  }
  param {
    lr_mult: 2
    decay_mult: 0
  }
  convolution_param {
    num_output: 128
    kernel_size: 1
    weight_filler {
      type: "xavier"
      std: 0.03
    }
    bias_filler {
      type: "constant"
      value: 0.2
    }
  }
}
layer {
  name: "inception_3b/relu_1x1"
  type: "ReLU"
  bottom: "inception_3b/1x1"
  top: "inception_3b/1x1"
}
layer {
  name: "inception_3b/3x3_reduce"
  type: "Convolution"
  bottom: "inception_3a/output"
  top: "inception_3b/3x3_reduce"
  param {
    lr_mult: 1
    decay_mult: 1
  }
  param {
    lr_mult: 2
    decay_mult: 0
  }
  convolution_param {
    num_output: 128
    kernel_size: 1
    weight_filler {
      type: "xavier"
      std: 0.09
    }
    bias_filler {
      type: "constant"
      value: 0.2
    }
  }
}
layer {
  name: "inception_3b/relu_3x3_reduce"
  type: "ReLU"
  bottom: "inception_3b/3x3_reduce"
  top: "inception_3b/3x3_reduce"
}
layer {
  name: "inception_3b/3x3"
  type: "Convolution"
  bottom: "inception_3b/3x3_reduce"
  top: "inception_3b/3x3"
  param {
    lr_mult: 1
    decay_mult: 1
  }
  param {
    lr_mult: 2
    decay_mult: 0
  }
  convolution_param {
    num_output: 192
    pad: 1
    kernel_size: 3
    weight_filler {
      type: "xavier"
      std: 0.03
    }
    bias_filler {
      type: "constant"
      value: 0.2
    }
  }
}
layer {
  name: "inception_3b/relu_3x3"
  type: "ReLU"
  bottom: "inception_3b/3x3"
  top: "inception_3b/3x3"
}
layer {
  name: "inception_3b/5x5_reduce"
  type: "Convolution"
  bottom: "inception_3a/output"
  top: "inception_3b/5x5_reduce"
  param {
    lr_mult: 1
    decay_mult: 1
  }
  param {
    lr_mult: 2
    decay_mult: 0
  }
  convolution_param {
    num_output: 32
    kernel_size: 1
    weight_filler {
      type: "xavier"
      std: 0.2
    }
    bias_filler {
      type: "constant"
      value: 0.2
    }
  }
}
layer {
  name: "inception_3b/relu_5x5_reduce"
  type: "ReLU"
  bottom: "inception_3b/5x5_reduce"
  top: "inception_3b/5x5_reduce"
}
layer {
  name: "inception_3b/5x5"
  type: "Convolution"
  bottom: "inception_3b/5x5_reduce"
  top: "inception_3b/5x5"
  param {
    lr_mult: 1
    decay_mult: 1
  }
  param {
    lr_mult: 2
    decay_mult: 0
  }
  convolution_param {
    num_output: 96
    pad: 2
    kernel_size: 5
    weight_filler {
      type: "xavier"
      std: 0.03
    }
    bias_filler {
      type: "constant"
      value: 0.2
    }
  }
}
layer {
  name: "inception_3b/relu_5x5"
  type: "ReLU"
  bottom: "inception_3b/5x5"
  top: "inception_3b/5x5"
}
layer {
  name: "inception_3b/pool"
  type: "Pooling"
  bottom: "inception_3a/output"
  top: "inception_3b/pool"
  pooling_param {
    pool: MAX
    kernel_size: 3
    stride: 1
    pad: 1
  }
}
layer {
  name: "inception_3b/pool_proj"
  type: "Convolution"
  bottom: "inception_3b/pool"
  top: "inception_3b/pool_proj"
  param {
    lr_mult: 1
    decay_mult: 1
  }
  param {
    lr_mult: 2
    decay_mult: 0
  }
  convolution_param {
    num_output: 64
    kernel_size: 1
    weight_filler {
      type: "xavier"
      std: 0.1
    }
    bias_filler {
      type: "constant"
      value: 0.2
    }
  }
}
layer {
  name: "inception_3b/relu_pool_proj"
  type: "ReLU"
  bottom: "inception_3b/pool_proj"
  top: "inception_3b/pool_proj"
}
layer {
  name: "inception_3b/output"
  type: "Concat"
  bottom: "inception_3b/1x1"
  bottom: "inception_3b/3x3"
  bottom: "inception_3b/5x5"
  bottom: "inception_3b/pool_proj"
  top: "inception_3b/output"
}
layer {
  name: "pool3/3x3_s2"
  type: "Pooling"
  bottom: "inception_3b/output"
  top: "pool3/3x3_s2"
  pooling_param {
    pool: MAX
    kernel_size: 3
    stride: 2
  }
}
layer {
  name: "inception_4a/1x1"
  type: "Convolution"
  bottom: "pool3/3x3_s2"
  top: "inception_4a/1x1"
  param {
    lr_mult: 1
    decay_mult: 1
  }
  param {
    lr_mult: 2
    decay_mult: 0
  }
  convolution_param {
    num_output: 192
    kernel_size: 1
    weight_filler {
      type: "xavier"
      std: 0.03
    }
    bias_filler {
      type: "constant"
      value: 0.2
    }
  }
}
layer {
  name: "inception_4a/relu_1x1"
  type: "ReLU"
  bottom: "inception_4a/1x1"
  top: "inception_4a/1x1"
}
layer {
  name: "inception_4a/3x3_reduce"
  type: "Convolution"
  bottom: "pool3/3x3_s2"
  top: "inception_4a/3x3_reduce"
  param {
    lr_mult: 1
    decay_mult: 1
  }
  param {
    lr_mult: 2
    decay_mult: 0
  }
  convolution_param {
    num_output: 96
    kernel_size: 1
    weight_filler {
      type: "xavier"
      std: 0.09
    }
    bias_filler {
      type: "constant"
      value: 0.2
    }
  }
}
layer {
  name: "inception_4a/relu_3x3_reduce"
  type: "ReLU"
  bottom: "inception_4a/3x3_reduce"
  top: "inception_4a/3x3_reduce"
}
layer {
  name: "inception_4a/3x3"
  type: "Convolution"
  bottom: "inception_4a/3x3_reduce"
  top: "inception_4a/3x3"
  param {
    lr_mult: 1
    decay_mult: 1
  }
  param {
    lr_mult: 2
    decay_mult: 0
  }
  convolution_param {
    num_output: 208
    pad: 1
    kernel_size: 3
    weight_filler {
      type: "xavier"
      std: 0.03
    }
    bias_filler {
      type: "constant"
      value: 0.2
    }
  }
}
layer {
  name: "inception_4a/relu_3x3"
  type: "ReLU"
  bottom: "inception_4a/3x3"
  top: "inception_4a/3x3"
}
layer {
  name: "inception_4a/5x5_reduce"
  type: "Convolution"
  bottom: "pool3/3x3_s2"
  top: "inception_4a/5x5_reduce"
  param {
    lr_mult: 1
    decay_mult: 1
  }
  param {
    lr_mult: 2
    decay_mult: 0
  }
  convolution_param {
    num_output: 16
    kernel_size: 1
    weight_filler {
      type: "xavier"
      std: 0.2
    }
    bias_filler {
      type: "constant"
      value: 0.2
    }
  }
}
layer {
  name: "inception_4a/relu_5x5_reduce"
  type: "ReLU"
  bottom: "inception_4a/5x5_reduce"
  top: "inception_4a/5x5_reduce"
}
layer {
  name: "inception_4a/5x5"
  type: "Convolution"
  bottom: "inception_4a/5x5_reduce"
  top: "inception_4a/5x5"
  param {
    lr_mult: 1
    decay_mult: 1
  }
  param {
    lr_mult: 2
    decay_mult: 0
  }
  convolution_param {
    num_output: 48
    pad: 2
    kernel_size: 5
    weight_filler {
      type: "xavier"
      std: 0.03
    }
    bias_filler {
      type: "constant"
      value: 0.2
    }
  }
}
layer {
  name: "inception_4a/relu_5x5"
  type: "ReLU"
  bottom: "inception_4a/5x5"
  top: "inception_4a/5x5"
}
layer {
  name: "inception_4a/pool"
  type: "Pooling"
  bottom: "pool3/3x3_s2"
  top: "inception_4a/pool"
  pooling_param {
    pool: MAX
    kernel_size: 3
    stride: 1
    pad: 1
  }
}
layer {
  name: "inception_4a/pool_proj"
  type: "Convolution"
  bottom: "inception_4a/pool"
  top: "inception_4a/pool_proj"
  param {
    lr_mult: 1
    decay_mult: 1
  }
  param {
    lr_mult: 2
    decay_mult: 0
  }
  convolution_param {
    num_output: 64
    kernel_size: 1
    weight_filler {
      type: "xavier"
      std: 0.1
    }
    bias_filler {
      type: "constant"
      value: 0.2
    }
  }
}
layer {
  name: "inception_4a/relu_pool_proj"
  type: "ReLU"
  bottom: "inception_4a/pool_proj"
  top: "inception_4a/pool_proj"
}
layer {
  name: "inception_4a/output"
  type: "Concat"
  bottom: "inception_4a/1x1"
  bottom: "inception_4a/3x3"
  bottom: "inception_4a/5x5"
  bottom: "inception_4a/pool_proj"
  top: "inception_4a/output"
}
layer {
  name: "loss1/ave_pool"
  type: "Pooling"
  bottom: "inception_4a/output"
  top: "loss1/ave_pool"
  pooling_param {
    pool: AVE
    kernel_size: 5
    stride: 3
  }
}
layer {
  name: "loss1/conv"
  type: "Convolution"
  bottom: "loss1/ave_pool"
  top: "loss1/conv"
  param {
    lr_mult: 1
    decay_mult: 1
  }
  param {
    lr_mult: 2
    decay_mult: 0
  }
  convolution_param {
    num_output: 128
    kernel_size: 1
    weight_filler {
      type: "xavier"
      std: 0.08
    }
    bias_filler {
      type: "constant"
      value: 0.2
    }
  }
}
layer {
  name: "loss1/relu_conv"
  type: "ReLU"
  bottom: "loss1/conv"
  top: "loss1/conv"
}
layer {
  name: "loss1/fc"
  type: "InnerProduct"
  bottom: "loss1/conv"
  top: "loss1/fc"
  param {
    lr_mult: 1
    decay_mult: 1
  }
  param {
    lr_mult: 2
    decay_mult: 0
  }
  inner_product_param {
    num_output: 1024
    weight_filler {
      type: "xavier"
      std: 0.02
    }
    bias_filler {
      type: "constant"
      value: 0.2
    }
  }
}
layer {
  name: "loss1/relu_fc"
  type: "ReLU"
  bottom: "loss1/fc"
  top: "loss1/fc"
}
layer {
  name: "loss1/drop_fc"
  type: "Dropout"
  bottom: "loss1/fc"
  top: "loss1/fc"
  dropout_param {
    dropout_ratio: 0.7
  }
}
layer {
  name: "loss1/classifier_plantvillage"
  type: "InnerProduct"
  bottom: "loss1/fc"
  top: "loss1/classifier_plantvillage"
  param {
    lr_mult: 1
    decay_mult: 1
  }
  param {
    lr_mult: 2
    decay_mult: 0
  }
  inner_product_param {
    num_output: 38
    weight_filler {
      type: "xavier"
      std: 0.0009765625
    }
    bias_filler {
      type: "constant"
      value: 0
    }
  }
}
layer {
  name: "inception_4b/1x1"
  type: "Convolution"
  bottom: "inception_4a/output"
  top: "inception_4b/1x1"
  param {
    lr_mult: 1
    decay_mult: 1
  }
  param {
    lr_mult: 2
    decay_mult: 0
  }
  convolution_param {
    num_output: 160
    kernel_size: 1
    weight_filler {
      type: "xavier"
      std: 0.03
    }
    bias_filler {
      type: "constant"
      value: 0.2
    }
  }
}
layer {
  name: "inception_4b/relu_1x1"
  type: "ReLU"
  bottom: "inception_4b/1x1"
  top: "inception_4b/1x1"
}
layer {
  name: "inception_4b/3x3_reduce"
  type: "Convolution"
  bottom: "inception_4a/output"
  top: "inception_4b/3x3_reduce"
  param {
    lr_mult: 1
    decay_mult: 1
  }
  param {
    lr_mult: 2
    decay_mult: 0
  }
  convolution_param {
    num_output: 112
    kernel_size: 1
    weight_filler {
      type: "xavier"
      std: 0.09
    }
    bias_filler {
      type: "constant"
      value: 0.2
    }
  }
}
layer {
  name: "inception_4b/relu_3x3_reduce"
  type: "ReLU"
  bottom: "inception_4b/3x3_reduce"
  top: "inception_4b/3x3_reduce"
}
layer {
  name: "inception_4b/3x3"
  type: "Convolution"
  bottom: "inception_4b/3x3_reduce"
  top: "inception_4b/3x3"
  param {
    lr_mult: 1
    decay_mult: 1
  }
  param {
    lr_mult: 2
    decay_mult: 0
  }
  convolution_param {
    num_output: 224
    pad: 1
    kernel_size: 3
    weight_filler {
      type: "xavier"
      std: 0.03
    }
    bias_filler {
      type: "constant"
      value: 0.2
    }
  }
}
layer {
  name: "inception_4b/relu_3x3"
  type: "ReLU"
  bottom: "inception_4b/3x3"
  top: "inception_4b/3x3"
}
layer {
  name: "inception_4b/5x5_reduce"
  type: "Convolution"
  bottom: "inception_4a/output"
  top: "inception_4b/5x5_reduce"
  param {
    lr_mult: 1
    decay_mult: 1
  }
  param {
    lr_mult: 2
    decay_mult: 0
  }
  convolution_param {
    num_output: 24
    kernel_size: 1
    weight_filler {
      type: "xavier"
      std: 0.2
    }
    bias_filler {
      type: "constant"
      value: 0.2
    }
  }
}
layer {
  name: "inception_4b/relu_5x5_reduce"
  type: "ReLU"
  bottom: "inception_4b/5x5_reduce"
  top: "inception_4b/5x5_reduce"
}
layer {
  name: "inception_4b/5x5"
  type: "Convolution"
  bottom: "inception_4b/5x5_reduce"
  top: "inception_4b/5x5"
  param {
    lr_mult: 1
    decay_mult: 1
  }
  param {
    lr_mult: 2
    decay_mult: 0
  }
  convolution_param {
    num_output: 64
    pad: 2
    kernel_size: 5
    weight_filler {
      type: "xavier"
      std: 0.03
    }
    bias_filler {
      type: "constant"
      value: 0.2
    }
  }
}
layer {
  name: "inception_4b/relu_5x5"
  type: "ReLU"
  bottom: "inception_4b/5x5"
  top: "inception_4b/5x5"
}
layer {
  name: "inception_4b/pool"
  type: "Pooling"
  bottom: "inception_4a/output"
  top: "inception_4b/pool"
  pooling_param {
    pool: MAX
    kernel_size: 3
    stride: 1
    pad: 1
  }
}
layer {
  name: "inception_4b/pool_proj"
  type: "Convolution"
  bottom: "inception_4b/pool"
  top: "inception_4b/pool_proj"
  param {
    lr_mult: 1
    decay_mult: 1
  }
  param {
    lr_mult: 2
    decay_mult: 0
  }
  convolution_param {
    num_output: 64
    kernel_size: 1
    weight_filler {
      type: "xavier"
      std: 0.1
    }
    bias_filler {
      type: "constant"
      value: 0.2
    }
  }
}
layer {
  name: "inception_4b/relu_pool_proj"
  type: "ReLU"
  bottom: "inception_4b/pool_proj"
  top: "inception_4b/pool_proj"
}
layer {
  name: "inception_4b/output"
  type: "Concat"
  bottom: "inception_4b/1x1"
  bottom: "inception_4b/3x3"
  bottom: "inception_4b/5x5"
  bottom: "inception_4b/pool_proj"
  top: "inception_4b/output"
}
layer {
  name: "inception_4c/1x1"
  type: "Convolution"
  bottom: "inception_4b/output"
  top: "inception_4c/1x1"
  param {
    lr_mult: 1
    decay_mult: 1
  }
  param {
    lr_mult: 2
    decay_mult: 0
  }
  convolution_param {
    num_output: 128
    kernel_size: 1
    weight_filler {
      type: "xavier"
      std: 0.03
    }
    bias_filler {
      type: "constant"
      value: 0.2
    }
  }
}
layer {
  name: "inception_4c/relu_1x1"
  type: "ReLU"
  bottom: "inception_4c/1x1"
  top: "inception_4c/1x1"
}
layer {
  name: "inception_4c/3x3_reduce"
  type: "Convolution"
  bottom: "inception_4b/output"
  top: "inception_4c/3x3_reduce"
  param {
    lr_mult: 1
    decay_mult: 1
  }
  param {
    lr_mult: 2
    decay_mult: 0
  }
  convolution_param {
    num_output: 128
    kernel_size: 1
    weight_filler {
      type: "xavier"
      std: 0.09
    }
    bias_filler {
      type: "constant"
      value: 0.2
    }
  }
}
layer {
  name: "inception_4c/relu_3x3_reduce"
  type: "ReLU"
  bottom: "inception_4c/3x3_reduce"
  top: "inception_4c/3x3_reduce"
}
layer {
  name: "inception_4c/3x3"
  type: "Convolution"
  bottom: "inception_4c/3x3_reduce"
  top: "inception_4c/3x3"
  param {
    lr_mult: 1
    decay_mult: 1
  }
  param {
    lr_mult: 2
    decay_mult: 0
  }
  convolution_param {
    num_output: 256
    pad: 1
    kernel_size: 3
    weight_filler {
      type: "xavier"
      std: 0.03
    }
    bias_filler {
      type: "constant"
      value: 0.2
    }
  }
}
layer {
  name: "inception_4c/relu_3x3"
  type: "ReLU"
  bottom: "inception_4c/3x3"
  top: "inception_4c/3x3"
}
layer {
  name: "inception_4c/5x5_reduce"
  type: "Convolution"
  bottom: "inception_4b/output"
  top: "inception_4c/5x5_reduce"
  param {
    lr_mult: 1
    decay_mult: 1
  }
  param {
    lr_mult: 2
    decay_mult: 0
  }
  convolution_param {
    num_output: 24
    kernel_size: 1
    weight_filler {
      type: "xavier"
      std: 0.2
    }
    bias_filler {
      type: "constant"
      value: 0.2
    }
  }
}
layer {
  name: "inception_4c/relu_5x5_reduce"
  type: "ReLU"
  bottom: "inception_4c/5x5_reduce"
  top: "inception_4c/5x5_reduce"
}
layer {
  name: "inception_4c/5x5"
  type: "Convolution"
  bottom: "inception_4c/5x5_reduce"
  top: "inception_4c/5x5"
  param {
    lr_mult: 1
    decay_mult: 1
  }
  param {
    lr_mult: 2
    decay_mult: 0
  }
  convolution_param {
    num_output: 64
    pad: 2
    kernel_size: 5
    weight_filler {
      type: "xavier"
      std: 0.03
    }
    bias_filler {
      type: "constant"
      value: 0.2
    }
  }
}
layer {
  name: "inception_4c/relu_5x5"
  type: "ReLU"
  bottom: "inception_4c/5x5"
  top: "inception_4c/5x5"
}
layer {
  name: "inception_4c/pool"
  type: "Pooling"
  bottom: "inception_4b/output"
  top: "inception_4c/pool"
  pooling_param {
    pool: MAX
    kernel_size: 3
    stride: 1
    pad: 1
  }
}
layer {
  name: "inception_4c/pool_proj"
  type: "Convolution"
  bottom: "inception_4c/pool"
  top: "inception_4c/pool_proj"
  param {
    lr_mult: 1
    decay_mult: 1
  }
  param {
    lr_mult: 2
    decay_mult: 0
  }
  convolution_param {
    num_output: 64
    kernel_size: 1
    weight_filler {
      type: "xavier"
      std: 0.1
    }
    bias_filler {
      type: "constant"
      value: 0.2
    }
  }
}
layer {
  name: "inception_4c/relu_pool_proj"
  type: "ReLU"
  bottom: "inception_4c/pool_proj"
  top: "inception_4c/pool_proj"
}
layer {
  name: "inception_4c/output"
  type: "Concat"
  bottom: "inception_4c/1x1"
  bottom: "inception_4c/3x3"
  bottom: "inception_4c/5x5"
  bottom: "inception_4c/pool_proj"
  top: "inception_4c/output"
}
layer {
  name: "inception_4d/1x1"
  type: "Convolution"
  bottom: "inception_4c/output"
  top: "inception_4d/1x1"
  param {
    lr_mult: 1
    decay_mult: 1
  }
  param {
    lr_mult: 2
    decay_mult: 0
  }
  convolution_param {
    num_output: 112
    kernel_size: 1
    weight_filler {
      type: "xavier"
      std: 0.03
    }
    bias_filler {
      type: "constant"
      value: 0.2
    }
  }
}
layer {
  name: "inception_4d/relu_1x1"
  type: "ReLU"
  bottom: "inception_4d/1x1"
  top: "inception_4d/1x1"
}
layer {
  name: "inception_4d/3x3_reduce"
  type: "Convolution"
  bottom: "inception_4c/output"
  top: "inception_4d/3x3_reduce"
  param {
    lr_mult: 1
    decay_mult: 1
  }
  param {
    lr_mult: 2
    decay_mult: 0
  }
  convolution_param {
    num_output: 144
    kernel_size: 1
    weight_filler {
      type: "xavier"
      std: 0.09
    }
    bias_filler {
      type: "constant"
      value: 0.2
    }
  }
}
layer {
  name: "inception_4d/relu_3x3_reduce"
  type: "ReLU"
  bottom: "inception_4d/3x3_reduce"
  top: "inception_4d/3x3_reduce"
}
layer {
  name: "inception_4d/3x3"
  type: "Convolution"
  bottom: "inception_4d/3x3_reduce"
  top: "inception_4d/3x3"
  param {
    lr_mult: 1
    decay_mult: 1
  }
  param {
    lr_mult: 2
    decay_mult: 0
  }
  convolution_param {
    num_output: 288
    pad: 1
    kernel_size: 3
    weight_filler {
      type: "xavier"
      std: 0.03
    }
    bias_filler {
      type: "constant"
      value: 0.2
    }
  }
}
layer {
  name: "inception_4d/relu_3x3"
  type: "ReLU"
  bottom: "inception_4d/3x3"
  top: "inception_4d/3x3"
}
layer {
  name: "inception_4d/5x5_reduce"
  type: "Convolution"
  bottom: "inception_4c/output"
  top: "inception_4d/5x5_reduce"
  param {
    lr_mult: 1
    decay_mult: 1
  }
  param {
    lr_mult: 2
    decay_mult: 0
  }
  convolution_param {
    num_output: 32
    kernel_size: 1
    weight_filler {
      type: "xavier"
      std: 0.2
    }
    bias_filler {
      type: "constant"
      value: 0.2
    }
  }
}
layer {
  name: "inception_4d/relu_5x5_reduce"
  type: "ReLU"
  bottom: "inception_4d/5x5_reduce"
  top: "inception_4d/5x5_reduce"
}
layer {
  name: "inception_4d/5x5"
  type: "Convolution"
  bottom: "inception_4d/5x5_reduce"
  top: "inception_4d/5x5"
  param {
    lr_mult: 1
    decay_mult: 1
  }
  param {
    lr_mult: 2
    decay_mult: 0
  }
  convolution_param {
    num_output: 64
    pad: 2
    kernel_size: 5
    weight_filler {
      type: "xavier"
      std: 0.03
    }
    bias_filler {
      type: "constant"
      value: 0.2
    }
  }
}
layer {
  name: "inception_4d/relu_5x5"
  type: "ReLU"
  bottom: "inception_4d/5x5"
  top: "inception_4d/5x5"
}
layer {
  name: "inception_4d/pool"
  type: "Pooling"
  bottom: "inception_4c/output"
  top: "inception_4d/pool"
  pooling_param {
    pool: MAX
    kernel_size: 3
    stride: 1
    pad: 1
  }
}
layer {
  name: "inception_4d/pool_proj"
  type: "Convolution"
  bottom: "inception_4d/pool"
  top: "inception_4d/pool_proj"
  param {
    lr_mult: 1
    decay_mult: 1
  }
  param {
    lr_mult: 2
    decay_mult: 0
  }
  convolution_param {
    num_output: 64
    kernel_size: 1
    weight_filler {
      type: "xavier"
      std: 0.1
    }
    bias_filler {
      type: "constant"
      value: 0.2
    }
  }
}
layer {
  name: "inception_4d/relu_pool_proj"
  type: "ReLU"
  bottom: "inception_4d/pool_proj"
  top: "inception_4d/pool_proj"
}
layer {
  name: "inception_4d/output"
  type: "Concat"
  bottom: "inception_4d/1x1"
  bottom: "inception_4d/3x3"
  bottom: "inception_4d/5x5"
  bottom: "inception_4d/pool_proj"
  top: "inception_4d/output"
}
layer {
  name: "loss2/ave_pool"
  type: "Pooling"
  bottom: "inception_4d/output"
  top: "loss2/ave_pool"
  pooling_param {
    pool: AVE
    kernel_size: 5
    stride: 3
  }
}
layer {
  name: "loss2/conv"
  type: "Convolution"
  bottom: "loss2/ave_pool"
  top: "loss2/conv"
  param {
    lr_mult: 1
    decay_mult: 1
  }
  param {
    lr_mult: 2
    decay_mult: 0
  }
  convolution_param {
    num_output: 128
    kernel_size: 1
    weight_filler {
      type: "xavier"
      std: 0.08
    }
    bias_filler {
      type: "constant"
      value: 0.2
    }
  }
}
layer {
  name: "loss2/relu_conv"
  type: "ReLU"
  bottom: "loss2/conv"
  top: "loss2/conv"
}
layer {
  name: "loss2/fc"
  type: "InnerProduct"
  bottom: "loss2/conv"
  top: "loss2/fc"
  param {
    lr_mult: 1
    decay_mult: 1
  }
  param {
    lr_mult: 2
    decay_mult: 0
  }
  inner_product_param {
    num_output: 1024
    weight_filler {
      type: "xavier"
      std: 0.02
    }
    bias_filler {
      type: "constant"
      value: 0.2
    }
  }
}
layer {
  name: "loss2/relu_fc"
  type: "ReLU"
  bottom: "loss2/fc"
  top: "loss2/fc"
}
layer {
  name: "loss2/drop_fc"
  type: "Dropout"
  bottom: "loss2/fc"
  top: "loss2/fc"
  dropout_param {
    dropout_ratio: 0.7
  }
}
layer {
  name: "loss2/classifier_plantvillage"
  type: "InnerProduct"
  bottom: "loss2/fc"
  top: "loss2/classifier_plantvillage"
  param {
    lr_mult: 1
    decay_mult: 1
  }
  param {
    lr_mult: 2
    decay_mult: 0
  }
  inner_product_param {
    num_output: 38
    weight_filler {
      type: "xavier"
      std: 0.0009765625
    }
    bias_filler {
      type: "constant"
      value: 0
    }
  }
}
layer {
  name: "inception_4e/1x1"
  type: "Convolution"
  bottom: "inception_4d/output"
  top: "inception_4e/1x1"
  param {
    lr_mult: 1
    decay_mult: 1
  }
  param {
    lr_mult: 2
    decay_mult: 0
  }
  convolution_param {
    num_output: 256
    kernel_size: 1
    weight_filler {
      type: "xavier"
      std: 0.03
    }
    bias_filler {
      type: "constant"
      value: 0.2
    }
  }
}
layer {
  name: "inception_4e/relu_1x1"
  type: "ReLU"
  bottom: "inception_4e/1x1"
  top: "inception_4e/1x1"
}
layer {
  name: "inception_4e/3x3_reduce"
  type: "Convolution"
  bottom: "inception_4d/output"
  top: "inception_4e/3x3_reduce"
  param {
    lr_mult: 1
    decay_mult: 1
  }
  param {
    lr_mult: 2
    decay_mult: 0
  }
  convolution_param {
    num_output: 160
    kernel_size: 1
    weight_filler {
      type: "xavier"
      std: 0.09
    }
    bias_filler {
      type: "constant"
      value: 0.2
    }
  }
}
layer {
  name: "inception_4e/relu_3x3_reduce"
  type: "ReLU"
  bottom: "inception_4e/3x3_reduce"
  top: "inception_4e/3x3_reduce"
}
layer {
  name: "inception_4e/3x3"
  type: "Convolution"
  bottom: "inception_4e/3x3_reduce"
  top: "inception_4e/3x3"
  param {
    lr_mult: 1
    decay_mult: 1
  }
  param {
    lr_mult: 2
    decay_mult: 0
  }
  convolution_param {
    num_output: 320
    pad: 1
    kernel_size: 3
    weight_filler {
      type: "xavier"
      std: 0.03
    }
    bias_filler {
      type: "constant"
      value: 0.2
    }
  }
}
layer {
  name: "inception_4e/relu_3x3"
  type: "ReLU"
  bottom: "inception_4e/3x3"
  top: "inception_4e/3x3"
}
layer {
  name: "inception_4e/5x5_reduce"
  type: "Convolution"
  bottom: "inception_4d/output"
  top: "inception_4e/5x5_reduce"
  param {
    lr_mult: 1
    decay_mult: 1
  }
  param {
    lr_mult: 2
    decay_mult: 0
  }
  convolution_param {
    num_output: 32
    kernel_size: 1
    weight_filler {
      type: "xavier"
      std: 0.2
    }
    bias_filler {
      type: "constant"
      value: 0.2
    }
  }
}
layer {
  name: "inception_4e/relu_5x5_reduce"
  type: "ReLU"
  bottom: "inception_4e/5x5_reduce"
  top: "inception_4e/5x5_reduce"
}
layer {
  name: "inception_4e/5x5"
  type: "Convolution"
  bottom: "inception_4e/5x5_reduce"
  top: "inception_4e/5x5"
  p
I0403 16:53:47.130486 21554 layer_factory.hpp:77] Creating layer data
I0403 16:53:47.131119 21554 net.cpp:91] Creating Layer data
I0403 16:53:47.131150 21554 net.cpp:399] data -> data
I0403 16:53:47.131202 21554 net.cpp:399] data -> label
I0403 16:53:47.131239 21554 data_transformer.cpp:25] Loading mean file from: /home/mohanty/data/final_dataset/lmdb/color-40-60/mean.binaryproto
I0403 16:53:47.132453 21557 db_lmdb.cpp:38] Opened lmdb /home/mohanty/data/final_dataset/lmdb/color-40-60/test_db
I0403 16:53:47.144691 21554 data_layer.cpp:41] output data size: 24,3,224,224
I0403 16:53:47.175614 21554 net.cpp:141] Setting up data
I0403 16:53:47.175703 21554 net.cpp:148] Top shape: 24 3 224 224 (3612672)
I0403 16:53:47.175725 21554 net.cpp:148] Top shape: 24 (24)
I0403 16:53:47.175740 21554 net.cpp:156] Memory required for data: 14450784
I0403 16:53:47.175770 21554 layer_factory.hpp:77] Creating layer label_data_1_split
I0403 16:53:47.175796 21554 net.cpp:91] Creating Layer label_data_1_split
I0403 16:53:47.175814 21554 net.cpp:425] label_data_1_split <- label
I0403 16:53:47.175845 21554 net.cpp:399] label_data_1_split -> label_data_1_split_0
I0403 16:53:47.175873 21554 net.cpp:399] label_data_1_split -> label_data_1_split_1
I0403 16:53:47.175895 21554 net.cpp:399] label_data_1_split -> label_data_1_split_2
I0403 16:53:47.175916 21554 net.cpp:399] label_data_1_split -> label_data_1_split_3
I0403 16:53:47.175936 21554 net.cpp:399] label_data_1_split -> label_data_1_split_4
I0403 16:53:47.175956 21554 net.cpp:399] label_data_1_split -> label_data_1_split_5
I0403 16:53:47.175976 21554 net.cpp:399] label_data_1_split -> label_data_1_split_6
I0403 16:53:47.175999 21554 net.cpp:399] label_data_1_split -> label_data_1_split_7
I0403 16:53:47.176020 21554 net.cpp:399] label_data_1_split -> label_data_1_split_8
I0403 16:53:47.176040 21554 net.cpp:399] label_data_1_split -> label_data_1_split_9
I0403 16:53:47.176158 21554 net.cpp:141] Setting up label_data_1_split
I0403 16:53:47.176182 21554 net.cpp:148] Top shape: 24 (24)
I0403 16:53:47.176198 21554 net.cpp:148] Top shape: 24 (24)
I0403 16:53:47.176225 21554 net.cpp:148] Top shape: 24 (24)
I0403 16:53:47.176241 21554 net.cpp:148] Top shape: 24 (24)
I0403 16:53:47.176257 21554 net.cpp:148] Top shape: 24 (24)
I0403 16:53:47.176273 21554 net.cpp:148] Top shape: 24 (24)
I0403 16:53:47.176290 21554 net.cpp:148] Top shape: 24 (24)
I0403 16:53:47.176306 21554 net.cpp:148] Top shape: 24 (24)
I0403 16:53:47.176321 21554 net.cpp:148] Top shape: 24 (24)
I0403 16:53:47.176337 21554 net.cpp:148] Top shape: 24 (24)
I0403 16:53:47.176383 21554 net.cpp:156] Memory required for data: 14451744
I0403 16:53:47.176398 21554 layer_factory.hpp:77] Creating layer conv1/7x7_s2
I0403 16:53:47.176431 21554 net.cpp:91] Creating Layer conv1/7x7_s2
I0403 16:53:47.176450 21554 net.cpp:425] conv1/7x7_s2 <- data
I0403 16:53:47.176470 21554 net.cpp:399] conv1/7x7_s2 -> conv1/7x7_s2
I0403 16:53:47.319934 21554 net.cpp:141] Setting up conv1/7x7_s2
I0403 16:53:47.320060 21554 net.cpp:148] Top shape: 24 64 112 112 (19267584)
I0403 16:53:47.320080 21554 net.cpp:156] Memory required for data: 91522080
I0403 16:53:47.320111 21554 layer_factory.hpp:77] Creating layer conv1/relu_7x7
I0403 16:53:47.320138 21554 net.cpp:91] Creating Layer conv1/relu_7x7
I0403 16:53:47.320157 21554 net.cpp:425] conv1/relu_7x7 <- conv1/7x7_s2
I0403 16:53:47.320175 21554 net.cpp:386] conv1/relu_7x7 -> conv1/7x7_s2 (in-place)
I0403 16:53:47.320441 21554 net.cpp:141] Setting up conv1/relu_7x7
I0403 16:53:47.320469 21554 net.cpp:148] Top shape: 24 64 112 112 (19267584)
I0403 16:53:47.320485 21554 net.cpp:156] Memory required for data: 168592416
I0403 16:53:47.320500 21554 layer_factory.hpp:77] Creating layer pool1/3x3_s2
I0403 16:53:47.320525 21554 net.cpp:91] Creating Layer pool1/3x3_s2
I0403 16:53:47.320543 21554 net.cpp:425] pool1/3x3_s2 <- conv1/7x7_s2
I0403 16:53:47.320561 21554 net.cpp:399] pool1/3x3_s2 -> pool1/3x3_s2
I0403 16:53:47.320636 21554 net.cpp:141] Setting up pool1/3x3_s2
I0403 16:53:47.320659 21554 net.cpp:148] Top shape: 24 64 56 56 (4816896)
I0403 16:53:47.320673 21554 net.cpp:156] Memory required for data: 187860000
I0403 16:53:47.320688 21554 layer_factory.hpp:77] Creating layer pool1/norm1
I0403 16:53:47.320713 21554 net.cpp:91] Creating Layer pool1/norm1
I0403 16:53:47.320730 21554 net.cpp:425] pool1/norm1 <- pool1/3x3_s2
I0403 16:53:47.320749 21554 net.cpp:399] pool1/norm1 -> pool1/norm1
I0403 16:53:47.321046 21554 net.cpp:141] Setting up pool1/norm1
I0403 16:53:47.321074 21554 net.cpp:148] Top shape: 24 64 56 56 (4816896)
I0403 16:53:47.321089 21554 net.cpp:156] Memory required for data: 207127584
I0403 16:53:47.321105 21554 layer_factory.hpp:77] Creating layer conv2/3x3_reduce
I0403 16:53:47.321128 21554 net.cpp:91] Creating Layer conv2/3x3_reduce
I0403 16:53:47.321146 21554 net.cpp:425] conv2/3x3_reduce <- pool1/norm1
I0403 16:53:47.321164 21554 net.cpp:399] conv2/3x3_reduce -> conv2/3x3_reduce
I0403 16:53:47.322584 21554 net.cpp:141] Setting up conv2/3x3_reduce
I0403 16:53:47.322619 21554 net.cpp:148] Top shape: 24 64 56 56 (4816896)
I0403 16:53:47.322636 21554 net.cpp:156] Memory required for data: 226395168
I0403 16:53:47.322659 21554 layer_factory.hpp:77] Creating layer conv2/relu_3x3_reduce
I0403 16:53:47.322677 21554 net.cpp:91] Creating Layer conv2/relu_3x3_reduce
I0403 16:53:47.322693 21554 net.cpp:425] conv2/relu_3x3_reduce <- conv2/3x3_reduce
I0403 16:53:47.322713 21554 net.cpp:386] conv2/relu_3x3_reduce -> conv2/3x3_reduce (in-place)
I0403 16:53:47.322993 21554 net.cpp:141] Setting up conv2/relu_3x3_reduce
I0403 16:53:47.323024 21554 net.cpp:148] Top shape: 24 64 56 56 (4816896)
I0403 16:53:47.323040 21554 net.cpp:156] Memory required for data: 245662752
I0403 16:53:47.323055 21554 layer_factory.hpp:77] Creating layer conv2/3x3
I0403 16:53:47.323079 21554 net.cpp:91] Creating Layer conv2/3x3
I0403 16:53:47.323098 21554 net.cpp:425] conv2/3x3 <- conv2/3x3_reduce
I0403 16:53:47.323117 21554 net.cpp:399] conv2/3x3 -> conv2/3x3
I0403 16:53:47.325502 21554 net.cpp:141] Setting up conv2/3x3
I0403 16:53:47.325536 21554 net.cpp:148] Top shape: 24 192 56 56 (14450688)
I0403 16:53:47.325553 21554 net.cpp:156] Memory required for data: 303465504
I0403 16:53:47.325575 21554 layer_factory.hpp:77] Creating layer conv2/relu_3x3
I0403 16:53:47.325594 21554 net.cpp:91] Creating Layer conv2/relu_3x3
I0403 16:53:47.325611 21554 net.cpp:425] conv2/relu_3x3 <- conv2/3x3
I0403 16:53:47.325631 21554 net.cpp:386] conv2/relu_3x3 -> conv2/3x3 (in-place)
I0403 16:53:47.325809 21554 net.cpp:141] Setting up conv2/relu_3x3
I0403 16:53:47.325834 21554 net.cpp:148] Top shape: 24 192 56 56 (14450688)
I0403 16:53:47.325880 21554 net.cpp:156] Memory required for data: 361268256
I0403 16:53:47.325896 21554 layer_factory.hpp:77] Creating layer conv2/norm2
I0403 16:53:47.325917 21554 net.cpp:91] Creating Layer conv2/norm2
I0403 16:53:47.325933 21554 net.cpp:425] conv2/norm2 <- conv2/3x3
I0403 16:53:47.325952 21554 net.cpp:399] conv2/norm2 -> conv2/norm2
I0403 16:53:47.326305 21554 net.cpp:141] Setting up conv2/norm2
I0403 16:53:47.326333 21554 net.cpp:148] Top shape: 24 192 56 56 (14450688)
I0403 16:53:47.326349 21554 net.cpp:156] Memory required for data: 419071008
I0403 16:53:47.326364 21554 layer_factory.hpp:77] Creating layer pool2/3x3_s2
I0403 16:53:47.326385 21554 net.cpp:91] Creating Layer pool2/3x3_s2
I0403 16:53:47.326402 21554 net.cpp:425] pool2/3x3_s2 <- conv2/norm2
I0403 16:53:47.326421 21554 net.cpp:399] pool2/3x3_s2 -> pool2/3x3_s2
I0403 16:53:47.326478 21554 net.cpp:141] Setting up pool2/3x3_s2
I0403 16:53:47.326500 21554 net.cpp:148] Top shape: 24 192 28 28 (3612672)
I0403 16:53:47.326515 21554 net.cpp:156] Memory required for data: 433521696
I0403 16:53:47.326530 21554 layer_factory.hpp:77] Creating layer pool2/3x3_s2_pool2/3x3_s2_0_split
I0403 16:53:47.326547 21554 net.cpp:91] Creating Layer pool2/3x3_s2_pool2/3x3_s2_0_split
I0403 16:53:47.326563 21554 net.cpp:425] pool2/3x3_s2_pool2/3x3_s2_0_split <- pool2/3x3_s2
I0403 16:53:47.326583 21554 net.cpp:399] pool2/3x3_s2_pool2/3x3_s2_0_split -> pool2/3x3_s2_pool2/3x3_s2_0_split_0
I0403 16:53:47.326604 21554 net.cpp:399] pool2/3x3_s2_pool2/3x3_s2_0_split -> pool2/3x3_s2_pool2/3x3_s2_0_split_1
I0403 16:53:47.326625 21554 net.cpp:399] pool2/3x3_s2_pool2/3x3_s2_0_split -> pool2/3x3_s2_pool2/3x3_s2_0_split_2
I0403 16:53:47.326644 21554 net.cpp:399] pool2/3x3_s2_pool2/3x3_s2_0_split -> pool2/3x3_s2_pool2/3x3_s2_0_split_3
I0403 16:53:47.326716 21554 net.cpp:141] Setting up pool2/3x3_s2_pool2/3x3_s2_0_split
I0403 16:53:47.326740 21554 net.cpp:148] Top shape: 24 192 28 28 (3612672)
I0403 16:53:47.326756 21554 net.cpp:148] Top shape: 24 192 28 28 (3612672)
I0403 16:53:47.326772 21554 net.cpp:148] Top shape: 24 192 28 28 (3612672)
I0403 16:53:47.326787 21554 net.cpp:148] Top shape: 24 192 28 28 (3612672)
I0403 16:53:47.326802 21554 net.cpp:156] Memory required for data: 491324448
I0403 16:53:47.326817 21554 layer_factory.hpp:77] Creating layer inception_3a/1x1
I0403 16:53:47.326839 21554 net.cpp:91] Creating Layer inception_3a/1x1
I0403 16:53:47.326856 21554 net.cpp:425] inception_3a/1x1 <- pool2/3x3_s2_pool2/3x3_s2_0_split_0
I0403 16:53:47.326879 21554 net.cpp:399] inception_3a/1x1 -> inception_3a/1x1
I0403 16:53:47.328438 21554 net.cpp:141] Setting up inception_3a/1x1
I0403 16:53:47.328467 21554 net.cpp:148] Top shape: 24 64 28 28 (1204224)
I0403 16:53:47.328485 21554 net.cpp:156] Memory required for data: 496141344
I0403 16:53:47.328503 21554 layer_factory.hpp:77] Creating layer inception_3a/relu_1x1
I0403 16:53:47.328521 21554 net.cpp:91] Creating Layer inception_3a/relu_1x1
I0403 16:53:47.328536 21554 net.cpp:425] inception_3a/relu_1x1 <- inception_3a/1x1
I0403 16:53:47.328554 21554 net.cpp:386] inception_3a/relu_1x1 -> inception_3a/1x1 (in-place)
I0403 16:53:47.328733 21554 net.cpp:141] Setting up inception_3a/relu_1x1
I0403 16:53:47.328758 21554 net.cpp:148] Top shape: 24 64 28 28 (1204224)
I0403 16:53:47.328773 21554 net.cpp:156] Memory required for data: 500958240
I0403 16:53:47.328788 21554 layer_factory.hpp:77] Creating layer inception_3a/3x3_reduce
I0403 16:53:47.328809 21554 net.cpp:91] Creating Layer inception_3a/3x3_reduce
I0403 16:53:47.328827 21554 net.cpp:425] inception_3a/3x3_reduce <- pool2/3x3_s2_pool2/3x3_s2_0_split_1
I0403 16:53:47.328850 21554 net.cpp:399] inception_3a/3x3_reduce -> inception_3a/3x3_reduce
I0403 16:53:47.330622 21554 net.cpp:141] Setting up inception_3a/3x3_reduce
I0403 16:53:47.330653 21554 net.cpp:148] Top shape: 24 96 28 28 (1806336)
I0403 16:53:47.330680 21554 net.cpp:156] Memory required for data: 508183584
I0403 16:53:47.330708 21554 layer_factory.hpp:77] Creating layer inception_3a/relu_3x3_reduce
I0403 16:53:47.330749 21554 net.cpp:91] Creating Layer inception_3a/relu_3x3_reduce
I0403 16:53:47.330771 21554 net.cpp:425] inception_3a/relu_3x3_reduce <- inception_3a/3x3_reduce
I0403 16:53:47.330792 21554 net.cpp:386] inception_3a/relu_3x3_reduce -> inception_3a/3x3_reduce (in-place)
I0403 16:53:47.330972 21554 net.cpp:141] Setting up inception_3a/relu_3x3_reduce
I0403 16:53:47.331013 21554 net.cpp:148] Top shape: 24 96 28 28 (1806336)
I0403 16:53:47.331029 21554 net.cpp:156] Memory required for data: 515408928
I0403 16:53:47.331044 21554 layer_factory.hpp:77] Creating layer inception_3a/3x3
I0403 16:53:47.331079 21554 net.cpp:91] Creating Layer inception_3a/3x3
I0403 16:53:47.331097 21554 net.cpp:425] inception_3a/3x3 <- inception_3a/3x3_reduce
I0403 16:53:47.331117 21554 net.cpp:399] inception_3a/3x3 -> inception_3a/3x3
I0403 16:53:47.332761 21554 net.cpp:141] Setting up inception_3a/3x3
I0403 16:53:47.332787 21554 net.cpp:148] Top shape: 24 128 28 28 (2408448)
I0403 16:53:47.332803 21554 net.cpp:156] Memory required for data: 525042720
I0403 16:53:47.332821 21554 layer_factory.hpp:77] Creating layer inception_3a/relu_3x3
I0403 16:53:47.332839 21554 net.cpp:91] Creating Layer inception_3a/relu_3x3
I0403 16:53:47.332855 21554 net.cpp:425] inception_3a/relu_3x3 <- inception_3a/3x3
I0403 16:53:47.332875 21554 net.cpp:386] inception_3a/relu_3x3 -> inception_3a/3x3 (in-place)
I0403 16:53:47.333168 21554 net.cpp:141] Setting up inception_3a/relu_3x3
I0403 16:53:47.333195 21554 net.cpp:148] Top shape: 24 128 28 28 (2408448)
I0403 16:53:47.333210 21554 net.cpp:156] Memory required for data: 534676512
I0403 16:53:47.333226 21554 layer_factory.hpp:77] Creating layer inception_3a/5x5_reduce
I0403 16:53:47.333248 21554 net.cpp:91] Creating Layer inception_3a/5x5_reduce
I0403 16:53:47.333266 21554 net.cpp:425] inception_3a/5x5_reduce <- pool2/3x3_s2_pool2/3x3_s2_0_split_2
I0403 16:53:47.333299 21554 net.cpp:399] inception_3a/5x5_reduce -> inception_3a/5x5_reduce
I0403 16:53:47.334236 21554 net.cpp:141] Setting up inception_3a/5x5_reduce
I0403 16:53:47.334264 21554 net.cpp:148] Top shape: 24 16 28 28 (301056)
I0403 16:53:47.334280 21554 net.cpp:156] Memory required for data: 535880736
I0403 16:53:47.334296 21554 layer_factory.hpp:77] Creating layer inception_3a/relu_5x5_reduce
I0403 16:53:47.334316 21554 net.cpp:91] Creating Layer inception_3a/relu_5x5_reduce
I0403 16:53:47.334331 21554 net.cpp:425] inception_3a/relu_5x5_reduce <- inception_3a/5x5_reduce
I0403 16:53:47.334350 21554 net.cpp:386] inception_3a/relu_5x5_reduce -> inception_3a/5x5_reduce (in-place)
I0403 16:53:47.334645 21554 net.cpp:141] Setting up inception_3a/relu_5x5_reduce
I0403 16:53:47.334671 21554 net.cpp:148] Top shape: 24 16 28 28 (301056)
I0403 16:53:47.334684 21554 net.cpp:156] Memory required for data: 537084960
I0403 16:53:47.334700 21554 layer_factory.hpp:77] Creating layer inception_3a/5x5
I0403 16:53:47.334722 21554 net.cpp:91] Creating Layer inception_3a/5x5
I0403 16:53:47.334739 21554 net.cpp:425] inception_3a/5x5 <- inception_3a/5x5_reduce
I0403 16:53:47.334760 21554 net.cpp:399] inception_3a/5x5 -> inception_3a/5x5
I0403 16:53:47.335803 21554 net.cpp:141] Setting up inception_3a/5x5
I0403 16:53:47.335834 21554 net.cpp:148] Top shape: 24 32 28 28 (602112)
I0403 16:53:47.335850 21554 net.cpp:156] Memory required for data: 539493408
I0403 16:53:47.335867 21554 layer_factory.hpp:77] Creating layer inception_3a/relu_5x5
I0403 16:53:47.335886 21554 net.cpp:91] Creating Layer inception_3a/relu_5x5
I0403 16:53:47.335902 21554 net.cpp:425] inception_3a/relu_5x5 <- inception_3a/5x5
I0403 16:53:47.335919 21554 net.cpp:386] inception_3a/relu_5x5 -> inception_3a/5x5 (in-place)
I0403 16:53:47.336094 21554 net.cpp:141] Setting up inception_3a/relu_5x5
I0403 16:53:47.336119 21554 net.cpp:148] Top shape: 24 32 28 28 (602112)
I0403 16:53:47.336133 21554 net.cpp:156] Memory required for data: 541901856
I0403 16:53:47.336148 21554 layer_factory.hpp:77] Creating layer inception_3a/pool
I0403 16:53:47.336165 21554 net.cpp:91] Creating Layer inception_3a/pool
I0403 16:53:47.336181 21554 net.cpp:425] inception_3a/pool <- pool2/3x3_s2_pool2/3x3_s2_0_split_3
I0403 16:53:47.336217 21554 net.cpp:399] inception_3a/pool -> inception_3a/pool
I0403 16:53:47.336275 21554 net.cpp:141] Setting up inception_3a/pool
I0403 16:53:47.336300 21554 net.cpp:148] Top shape: 24 192 28 28 (3612672)
I0403 16:53:47.336314 21554 net.cpp:156] Memory required for data: 556352544
I0403 16:53:47.336329 21554 layer_factory.hpp:77] Creating layer inception_3a/pool_proj
I0403 16:53:47.336350 21554 net.cpp:91] Creating Layer inception_3a/pool_proj
I0403 16:53:47.336367 21554 net.cpp:425] inception_3a/pool_proj <- inception_3a/pool
I0403 16:53:47.336385 21554 net.cpp:399] inception_3a/pool_proj -> inception_3a/pool_proj
I0403 16:53:47.337352 21554 net.cpp:141] Setting up inception_3a/pool_proj
I0403 16:53:47.337380 21554 net.cpp:148] Top shape: 24 32 28 28 (602112)
I0403 16:53:47.337396 21554 net.cpp:156] Memory required for data: 558760992
I0403 16:53:47.337419 21554 layer_factory.hpp:77] Creating layer inception_3a/relu_pool_proj
I0403 16:53:47.337438 21554 net.cpp:91] Creating Layer inception_3a/relu_pool_proj
I0403 16:53:47.337455 21554 net.cpp:425] inception_3a/relu_pool_proj <- inception_3a/pool_proj
I0403 16:53:47.337473 21554 net.cpp:386] inception_3a/relu_pool_proj -> inception_3a/pool_proj (in-place)
I0403 16:53:47.337752 21554 net.cpp:141] Setting up inception_3a/relu_pool_proj
I0403 16:53:47.337779 21554 net.cpp:148] Top shape: 24 32 28 28 (602112)
I0403 16:53:47.337793 21554 net.cpp:156] Memory required for data: 561169440
I0403 16:53:47.337808 21554 layer_factory.hpp:77] Creating layer inception_3a/output
I0403 16:53:47.337826 21554 net.cpp:91] Creating Layer inception_3a/output
I0403 16:53:47.337841 21554 net.cpp:425] inception_3a/output <- inception_3a/1x1
I0403 16:53:47.337858 21554 net.cpp:425] inception_3a/output <- inception_3a/3x3
I0403 16:53:47.337874 21554 net.cpp:425] inception_3a/output <- inception_3a/5x5
I0403 16:53:47.337890 21554 net.cpp:425] inception_3a/output <- inception_3a/pool_proj
I0403 16:53:47.337909 21554 net.cpp:399] inception_3a/output -> inception_3a/output
I0403 16:53:47.337954 21554 net.cpp:141] Setting up inception_3a/output
I0403 16:53:47.337976 21554 net.cpp:148] Top shape: 24 256 28 28 (4816896)
I0403 16:53:47.337999 21554 net.cpp:156] Memory required for data: 580437024
I0403 16:53:47.338014 21554 layer_factory.hpp:77] Creating layer inception_3a/output_inception_3a/output_0_split
I0403 16:53:47.338032 21554 net.cpp:91] Creating Layer inception_3a/output_inception_3a/output_0_split
I0403 16:53:47.338047 21554 net.cpp:425] inception_3a/output_inception_3a/output_0_split <- inception_3a/output
I0403 16:53:47.338064 21554 net.cpp:399] inception_3a/output_inception_3a/output_0_split -> inception_3a/output_inception_3a/output_0_split_0
I0403 16:53:47.338084 21554 net.cpp:399] inception_3a/output_inception_3a/output_0_split -> inception_3a/output_inception_3a/output_0_split_1
I0403 16:53:47.338109 21554 net.cpp:399] inception_3a/output_inception_3a/output_0_split -> inception_3a/output_inception_3a/output_0_split_2
I0403 16:53:47.338130 21554 net.cpp:399] inception_3a/output_inception_3a/output_0_split -> inception_3a/output_inception_3a/output_0_split_3
I0403 16:53:47.338207 21554 net.cpp:141] Setting up inception_3a/output_inception_3a/output_0_split
I0403 16:53:47.338229 21554 net.cpp:148] Top shape: 24 256 28 28 (4816896)
I0403 16:53:47.338246 21554 net.cpp:148] Top shape: 24 256 28 28 (4816896)
I0403 16:53:47.338261 21554 net.cpp:148] Top shape: 24 256 28 28 (4816896)
I0403 16:53:47.338276 21554 net.cpp:148] Top shape: 24 256 28 28 (4816896)
I0403 16:53:47.338290 21554 net.cpp:156] Memory required for data: 657507360
I0403 16:53:47.338304 21554 layer_factory.hpp:77] Creating layer inception_3b/1x1
I0403 16:53:47.338328 21554 net.cpp:91] Creating Layer inception_3b/1x1
I0403 16:53:47.338346 21554 net.cpp:425] inception_3b/1x1 <- inception_3a/output_inception_3a/output_0_split_0
I0403 16:53:47.338364 21554 net.cpp:399] inception_3b/1x1 -> inception_3b/1x1
I0403 16:53:47.339524 21554 net.cpp:141] Setting up inception_3b/1x1
I0403 16:53:47.339563 21554 net.cpp:148] Top shape: 24 128 28 28 (2408448)
I0403 16:53:47.339579 21554 net.cpp:156] Memory required for data: 667141152
I0403 16:53:47.339597 21554 layer_factory.hpp:77] Creating layer inception_3b/relu_1x1
I0403 16:53:47.339617 21554 net.cpp:91] Creating Layer inception_3b/relu_1x1
I0403 16:53:47.339634 21554 net.cpp:425] inception_3b/relu_1x1 <- inception_3b/1x1
I0403 16:53:47.339651 21554 net.cpp:386] inception_3b/relu_1x1 -> inception_3b/1x1 (in-place)
I0403 16:53:47.339823 21554 net.cpp:141] Setting up inception_3b/relu_1x1
I0403 16:53:47.339848 21554 net.cpp:148] Top shape: 24 128 28 28 (2408448)
I0403 16:53:47.339861 21554 net.cpp:156] Memory required for data: 676774944
I0403 16:53:47.339876 21554 layer_factory.hpp:77] Creating layer inception_3b/3x3_reduce
I0403 16:53:47.339898 21554 net.cpp:91] Creating Layer inception_3b/3x3_reduce
I0403 16:53:47.339915 21554 net.cpp:425] inception_3b/3x3_reduce <- inception_3a/output_inception_3a/output_0_split_1
I0403 16:53:47.339936 21554 net.cpp:399] inception_3b/3x3_reduce -> inception_3b/3x3_reduce
I0403 16:53:47.341094 21554 net.cpp:141] Setting up inception_3b/3x3_reduce
I0403 16:53:47.341125 21554 net.cpp:148] Top shape: 24 128 28 28 (2408448)
I0403 16:53:47.341142 21554 net.cpp:156] Memory required for data: 686408736
I0403 16:53:47.341161 21554 layer_factory.hpp:77] Creating layer inception_3b/relu_3x3_reduce
I0403 16:53:47.341178 21554 net.cpp:91] Creating Layer inception_3b/relu_3x3_reduce
I0403 16:53:47.341194 21554 net.cpp:425] inception_3b/relu_3x3_reduce <- inception_3b/3x3_reduce
I0403 16:53:47.341212 21554 net.cpp:386] inception_3b/relu_3x3_reduce -> inception_3b/3x3_reduce (in-place)
I0403 16:53:47.341382 21554 net.cpp:141] Setting up inception_3b/relu_3x3_reduce
I0403 16:53:47.341408 21554 net.cpp:148] Top shape: 24 128 28 28 (2408448)
I0403 16:53:47.341424 21554 net.cpp:156] Memory required for data: 696042528
I0403 16:53:47.341439 21554 layer_factory.hpp:77] Creating layer inception_3b/3x3
I0403 16:53:47.341464 21554 net.cpp:91] Creating Layer inception_3b/3x3
I0403 16:53:47.341481 21554 net.cpp:425] inception_3b/3x3 <- inception_3b/3x3_reduce
I0403 16:53:47.341503 21554 net.cpp:399] inception_3b/3x3 -> inception_3b/3x3
I0403 16:53:47.344410 21554 net.cpp:141] Setting up inception_3b/3x3
I0403 16:53:47.344439 21554 net.cpp:148] Top shape: 24 192 28 28 (3612672)
I0403 16:53:47.344455 21554 net.cpp:156] Memory required for data: 710493216
I0403 16:53:47.344472 21554 layer_factory.hpp:77] Creating layer inception_3b/relu_3x3
I0403 16:53:47.344491 21554 net.cpp:91] Creating Layer inception_3b/relu_3x3
I0403 16:53:47.344506 21554 net.cpp:425] inception_3b/relu_3x3 <- inception_3b/3x3
I0403 16:53:47.344527 21554 net.cpp:386] inception_3b/relu_3x3 -> inception_3b/3x3 (in-place)
I0403 16:53:47.344801 21554 net.cpp:141] Setting up inception_3b/relu_3x3
I0403 16:53:47.344827 21554 net.cpp:148] Top shape: 24 192 28 28 (3612672)
I0403 16:53:47.344842 21554 net.cpp:156] Memory required for data: 724943904
I0403 16:53:47.344857 21554 layer_factory.hpp:77] Creating layer inception_3b/5x5_reduce
I0403 16:53:47.344879 21554 net.cpp:91] Creating Layer inception_3b/5x5_reduce
I0403 16:53:47.344895 21554 net.cpp:425] inception_3b/5x5_reduce <- inception_3a/output_inception_3a/output_0_split_2
I0403 16:53:47.344918 21554 net.cpp:399] inception_3b/5x5_reduce -> inception_3b/5x5_reduce
I0403 16:53:47.345906 21554 net.cpp:141] Setting up inception_3b/5x5_reduce
I0403 16:53:47.345935 21554 net.cpp:148] Top shape: 24 32 28 28 (602112)
I0403 16:53:47.345952 21554 net.cpp:156] Memory required for data: 727352352
I0403 16:53:47.345971 21554 layer_factory.hpp:77] Creating layer inception_3b/relu_5x5_reduce
I0403 16:53:47.345994 21554 net.cpp:91] Creating Layer inception_3b/relu_5x5_reduce
I0403 16:53:47.346014 21554 net.cpp:425] inception_3b/relu_5x5_reduce <- inception_3b/5x5_reduce
I0403 16:53:47.346035 21554 net.cpp:386] inception_3b/relu_5x5_reduce -> inception_3b/5x5_reduce (in-place)
I0403 16:53:47.346223 21554 net.cpp:141] Setting up inception_3b/relu_5x5_reduce
I0403 16:53:47.346261 21554 net.cpp:148] Top shape: 24 32 28 28 (602112)
I0403 16:53:47.346276 21554 net.cpp:156] Memory required for data: 729760800
I0403 16:53:47.346290 21554 layer_factory.hpp:77] Creating layer inception_3b/5x5
I0403 16:53:47.346312 21554 net.cpp:91] Creating Layer inception_3b/5x5
I0403 16:53:47.346329 21554 net.cpp:425] inception_3b/5x5 <- inception_3b/5x5_reduce
I0403 16:53:47.346350 21554 net.cpp:399] inception_3b/5x5 -> inception_3b/5x5
I0403 16:53:47.348278 21554 net.cpp:141] Setting up inception_3b/5x5
I0403 16:53:47.348307 21554 net.cpp:148] Top shape: 24 96 28 28 (1806336)
I0403 16:53:47.348327 21554 net.cpp:156] Memory required for data: 736986144
I0403 16:53:47.348345 21554 layer_factory.hpp:77] Creating layer inception_3b/relu_5x5
I0403 16:53:47.348364 21554 net.cpp:91] Creating Layer inception_3b/relu_5x5
I0403 16:53:47.348379 21554 net.cpp:425] inception_3b/relu_5x5 <- inception_3b/5x5
I0403 16:53:47.348397 21554 net.cpp:386] inception_3b/relu_5x5 -> inception_3b/5x5 (in-place)
I0403 16:53:47.348585 21554 net.cpp:141] Setting up inception_3b/relu_5x5
I0403 16:53:47.348610 21554 net.cpp:148] Top shape: 24 96 28 28 (1806336)
I0403 16:53:47.348625 21554 net.cpp:156] Memory required for data: 744211488
I0403 16:53:47.348639 21554 layer_factory.hpp:77] Creating layer inception_3b/pool
I0403 16:53:47.348656 21554 net.cpp:91] Creating Layer inception_3b/pool
I0403 16:53:47.348672 21554 net.cpp:425] inception_3b/pool <- inception_3a/output_inception_3a/output_0_split_3
I0403 16:53:47.348690 21554 net.cpp:399] inception_3b/pool -> inception_3b/pool
I0403 16:53:47.348745 21554 net.cpp:141] Setting up inception_3b/pool
I0403 16:53:47.348770 21554 net.cpp:148] Top shape: 24 256 28 28 (4816896)
I0403 16:53:47.348786 21554 net.cpp:156] Memory required for data: 763479072
I0403 16:53:47.348800 21554 layer_factory.hpp:77] Creating layer inception_3b/pool_proj
I0403 16:53:47.348819 21554 net.cpp:91] Creating Layer inception_3b/pool_proj
I0403 16:53:47.348835 21554 net.cpp:425] inception_3b/pool_proj <- inception_3b/pool
I0403 16:53:47.348856 21554 net.cpp:399] inception_3b/pool_proj -> inception_3b/pool_proj
I0403 16:53:47.349936 21554 net.cpp:141] Setting up inception_3b/pool_proj
I0403 16:53:47.349964 21554 net.cpp:148] Top shape: 24 64 28 28 (1204224)
I0403 16:53:47.349979 21554 net.cpp:156] Memory required for data: 768295968
I0403 16:53:47.350003 21554 layer_factory.hpp:77] Creating layer inception_3b/relu_pool_proj
I0403 16:53:47.350024 21554 net.cpp:91] Creating Layer inception_3b/relu_pool_proj
I0403 16:53:47.350041 21554 net.cpp:425] inception_3b/relu_pool_proj <- inception_3b/pool_proj
I0403 16:53:47.350059 21554 net.cpp:386] inception_3b/relu_pool_proj -> inception_3b/pool_proj (in-place)
I0403 16:53:47.350464 21554 net.cpp:141] Setting up inception_3b/relu_pool_proj
I0403 16:53:47.350492 21554 net.cpp:148] Top shape: 24 64 28 28 (1204224)
I0403 16:53:47.350507 21554 net.cpp:156] Memory required for data: 773112864
I0403 16:53:47.350520 21554 layer_factory.hpp:77] Creating layer inception_3b/output
I0403 16:53:47.350538 21554 net.cpp:91] Creating Layer inception_3b/output
I0403 16:53:47.350553 21554 net.cpp:425] inception_3b/output <- inception_3b/1x1
I0403 16:53:47.350569 21554 net.cpp:425] inception_3b/output <- inception_3b/3x3
I0403 16:53:47.350585 21554 net.cpp:425] inception_3b/output <- inception_3b/5x5
I0403 16:53:47.350601 21554 net.cpp:425] inception_3b/output <- inception_3b/pool_proj
I0403 16:53:47.350620 21554 net.cpp:399] inception_3b/output -> inception_3b/output
I0403 16:53:47.350663 21554 net.cpp:141] Setting up inception_3b/output
I0403 16:53:47.350688 21554 net.cpp:148] Top shape: 24 480 28 28 (9031680)
I0403 16:53:47.350703 21554 net.cpp:156] Memory required for data: 809239584
I0403 16:53:47.350718 21554 layer_factory.hpp:77] Creating layer pool3/3x3_s2
I0403 16:53:47.350735 21554 net.cpp:91] Creating Layer pool3/3x3_s2
I0403 16:53:47.350750 21554 net.cpp:425] pool3/3x3_s2 <- inception_3b/output
I0403 16:53:47.350769 21554 net.cpp:399] pool3/3x3_s2 -> pool3/3x3_s2
I0403 16:53:47.350841 21554 net.cpp:141] Setting up pool3/3x3_s2
I0403 16:53:47.350864 21554 net.cpp:148] Top shape: 24 480 14 14 (2257920)
I0403 16:53:47.350879 21554 net.cpp:156] Memory required for data: 818271264
I0403 16:53:47.350893 21554 layer_factory.hpp:77] Creating layer pool3/3x3_s2_pool3/3x3_s2_0_split
I0403 16:53:47.350914 21554 net.cpp:91] Creating Layer pool3/3x3_s2_pool3/3x3_s2_0_split
I0403 16:53:47.350931 21554 net.cpp:425] pool3/3x3_s2_pool3/3x3_s2_0_split <- pool3/3x3_s2
I0403 16:53:47.350949 21554 net.cpp:399] pool3/3x3_s2_pool3/3x3_s2_0_split -> pool3/3x3_s2_pool3/3x3_s2_0_split_0
I0403 16:53:47.350967 21554 net.cpp:399] pool3/3x3_s2_pool3/3x3_s2_0_split -> pool3/3x3_s2_pool3/3x3_s2_0_split_1
I0403 16:53:47.350992 21554 net.cpp:399] pool3/3x3_s2_pool3/3x3_s2_0_split -> pool3/3x3_s2_pool3/3x3_s2_0_split_2
I0403 16:53:47.351033 21554 net.cpp:399] pool3/3x3_s2_pool3/3x3_s2_0_split -> pool3/3x3_s2_pool3/3x3_s2_0_split_3
I0403 16:53:47.351111 21554 net.cpp:141] Setting up pool3/3x3_s2_pool3/3x3_s2_0_split
I0403 16:53:47.351135 21554 net.cpp:148] Top shape: 24 480 14 14 (2257920)
I0403 16:53:47.351151 21554 net.cpp:148] Top shape: 24 480 14 14 (2257920)
I0403 16:53:47.351167 21554 net.cpp:148] Top shape: 24 480 14 14 (2257920)
I0403 16:53:47.351182 21554 net.cpp:148] Top shape: 24 480 14 14 (2257920)
I0403 16:53:47.351197 21554 net.cpp:156] Memory required for data: 854397984
I0403 16:53:47.351212 21554 layer_factory.hpp:77] Creating layer inception_4a/1x1
I0403 16:53:47.351233 21554 net.cpp:91] Creating Layer inception_4a/1x1
I0403 16:53:47.351250 21554 net.cpp:425] inception_4a/1x1 <- pool3/3x3_s2_pool3/3x3_s2_0_split_0
I0403 16:53:47.351271 21554 net.cpp:399] inception_4a/1x1 -> inception_4a/1x1
I0403 16:53:47.352874 21554 net.cpp:141] Setting up inception_4a/1x1
I0403 16:53:47.352901 21554 net.cpp:148] Top shape: 24 192 14 14 (903168)
I0403 16:53:47.352917 21554 net.cpp:156] Memory required for data: 858010656
I0403 16:53:47.352936 21554 layer_factory.hpp:77] Creating layer inception_4a/relu_1x1
I0403 16:53:47.352957 21554 net.cpp:91] Creating Layer inception_4a/relu_1x1
I0403 16:53:47.352973 21554 net.cpp:425] inception_4a/relu_1x1 <- inception_4a/1x1
I0403 16:53:47.353008 21554 net.cpp:386] inception_4a/relu_1x1 -> inception_4a/1x1 (in-place)
I0403 16:53:47.353199 21554 net.cpp:141] Setting up inception_4a/relu_1x1
I0403 16:53:47.353224 21554 net.cpp:148] Top shape: 24 192 14 14 (903168)
I0403 16:53:47.353240 21554 net.cpp:156] Memory required for data: 861623328
I0403 16:53:47.353255 21554 layer_factory.hpp:77] Creating layer inception_4a/3x3_reduce
I0403 16:53:47.353281 21554 net.cpp:91] Creating Layer inception_4a/3x3_reduce
I0403 16:53:47.353310 21554 net.cpp:425] inception_4a/3x3_reduce <- pool3/3x3_s2_pool3/3x3_s2_0_split_1
I0403 16:53:47.353329 21554 net.cpp:399] inception_4a/3x3_reduce -> inception_4a/3x3_reduce
I0403 16:53:47.354629 21554 net.cpp:141] Setting up inception_4a/3x3_reduce
I0403 16:53:47.354657 21554 net.cpp:148] Top shape: 24 96 14 14 (451584)
I0403 16:53:47.354673 21554 net.cpp:156] Memory required for data: 863429664
I0403 16:53:47.354699 21554 layer_factory.hpp:77] Creating layer inception_4a/relu_3x3_reduce
I0403 16:53:47.354719 21554 net.cpp:91] Creating Layer inception_4a/relu_3x3_reduce
I0403 16:53:47.354739 21554 net.cpp:425] inception_4a/relu_3x3_reduce <- inception_4a/3x3_reduce
I0403 16:53:47.354758 21554 net.cpp:386] inception_4a/relu_3x3_reduce -> inception_4a/3x3_reduce (in-place)
I0403 16:53:47.354933 21554 net.cpp:141] Setting up inception_4a/relu_3x3_reduce
I0403 16:53:47.354959 21554 net.cpp:148] Top shape: 24 96 14 14 (451584)
I0403 16:53:47.354974 21554 net.cpp:156] Memory required for data: 865236000
I0403 16:53:47.354992 21554 layer_factory.hpp:77] Creating layer inception_4a/3x3
I0403 16:53:47.355018 21554 net.cpp:91] Creating Layer inception_4a/3x3
I0403 16:53:47.355036 21554 net.cpp:425] inception_4a/3x3 <- inception_4a/3x3_reduce
I0403 16:53:47.355057 21554 net.cpp:399] inception_4a/3x3 -> inception_4a/3x3
I0403 16:53:47.357779 21554 net.cpp:141] Setting up inception_4a/3x3
I0403 16:53:47.357810 21554 net.cpp:148] Top shape: 24 208 14 14 (978432)
I0403 16:53:47.357827 21554 net.cpp:156] Memory required for data: 869149728
I0403 16:53:47.357846 21554 layer_factory.hpp:77] Creating layer inception_4a/relu_3x3
I0403 16:53:47.357864 21554 net.cpp:91] Creating Layer inception_4a/relu_3x3
I0403 16:53:47.357882 21554 net.cpp:425] inception_4a/relu_3x3 <- inception_4a/3x3
I0403 16:53:47.357899 21554 net.cpp:386] inception_4a/relu_3x3 -> inception_4a/3x3 (in-place)
I0403 16:53:47.358204 21554 net.cpp:141] Setting up inception_4a/relu_3x3
I0403 16:53:47.358234 21554 net.cpp:148] Top shape: 24 208 14 14 (978432)
I0403 16:53:47.358252 21554 net.cpp:156] Memory required for data: 873063456
I0403 16:53:47.358268 21554 layer_factory.hpp:77] Creating layer inception_4a/5x5_reduce
I0403 16:53:47.358302 21554 net.cpp:91] Creating Layer inception_4a/5x5_reduce
I0403 16:53:47.358320 21554 net.cpp:425] inception_4a/5x5_reduce <- pool3/3x3_s2_pool3/3x3_s2_0_split_2
I0403 16:53:47.358340 21554 net.cpp:399] inception_4a/5x5_reduce -> inception_4a/5x5_reduce
I0403 16:53:47.359395 21554 net.cpp:141] Setting up inception_4a/5x5_reduce
I0403 16:53:47.359426 21554 net.cpp:148] Top shape: 24 16 14 14 (75264)
I0403 16:53:47.359442 21554 net.cpp:156] Memory required for data: 873364512
I0403 16:53:47.359462 21554 layer_factory.hpp:77] Creating layer inception_4a/relu_5x5_reduce
I0403 16:53:47.359480 21554 net.cpp:91] Creating Layer inception_4a/relu_5x5_reduce
I0403 16:53:47.359496 21554 net.cpp:425] inception_4a/relu_5x5_reduce <- inception_4a/5x5_reduce
I0403 16:53:47.359514 21554 net.cpp:386] inception_4a/relu_5x5_reduce -> inception_4a/5x5_reduce (in-place)
I0403 16:53:47.359696 21554 net.cpp:141] Setting up inception_4a/relu_5x5_reduce
I0403 16:53:47.359721 21554 net.cpp:148] Top shape: 24 16 14 14 (75264)
I0403 16:53:47.359736 21554 net.cpp:156] Memory required for data: 873665568
I0403 16:53:47.359751 21554 layer_factory.hpp:77] Creating layer inception_4a/5x5
I0403 16:53:47.359773 21554 net.cpp:91] Creating Layer inception_4a/5x5
I0403 16:53:47.359791 21554 net.cpp:425] inception_4a/5x5 <- inception_4a/5x5_reduce
I0403 16:53:47.359812 21554 net.cpp:399] inception_4a/5x5 -> inception_4a/5x5
I0403 16:53:47.360954 21554 net.cpp:141] Setting up inception_4a/5x5
I0403 16:53:47.360982 21554 net.cpp:148] Top shape: 24 48 14 14 (225792)
I0403 16:53:47.361016 21554 net.cpp:156] Memory required for data: 874568736
I0403 16:53:47.361037 21554 layer_factory.hpp:77] Creating layer inception_4a/relu_5x5
I0403 16:53:47.361055 21554 net.cpp:91] Creating Layer inception_4a/relu_5x5
I0403 16:53:47.361073 21554 net.cpp:425] inception_4a/relu_5x5 <- inception_4a/5x5
I0403 16:53:47.361095 21554 net.cpp:386] inception_4a/relu_5x5 -> inception_4a/5x5 (in-place)
I0403 16:53:47.361284 21554 net.cpp:141] Setting up inception_4a/relu_5x5
I0403 16:53:47.361322 21554 net.cpp:148] Top shape: 24 48 14 14 (225792)
I0403 16:53:47.361337 21554 net.cpp:156] Memory required for data: 875471904
I0403 16:53:47.361366 21554 layer_factory.hpp:77] Creating layer inception_4a/pool
I0403 16:53:47.361387 21554 net.cpp:91] Creating Layer inception_4a/pool
I0403 16:53:47.361405 21554 net.cpp:425] inception_4a/pool <- pool3/3x3_s2_pool3/3x3_s2_0_split_3
I0403 16:53:47.361424 21554 net.cpp:399] inception_4a/pool -> inception_4a/pool
I0403 16:53:47.361488 21554 net.cpp:141] Setting up inception_4a/pool
I0403 16:53:47.361513 21554 net.cpp:148] Top shape: 24 480 14 14 (2257920)
I0403 16:53:47.361528 21554 net.cpp:156] Memory required for data: 884503584
I0403 16:53:47.361543 21554 layer_factory.hpp:77] Creating layer inception_4a/pool_proj
I0403 16:53:47.361567 21554 net.cpp:91] Creating Layer inception_4a/pool_proj
I0403 16:53:47.361587 21554 net.cpp:425] inception_4a/pool_proj <- inception_4a/pool
I0403 16:53:47.361608 21554 net.cpp:399] inception_4a/pool_proj -> inception_4a/pool_proj
I0403 16:53:47.362813 21554 net.cpp:141] Setting up inception_4a/pool_proj
I0403 16:53:47.362843 21554 net.cpp:148] Top shape: 24 64 14 14 (301056)
I0403 16:53:47.362874 21554 net.cpp:156] Memory required for data: 885707808
I0403 16:53:47.362893 21554 layer_factory.hpp:77] Creating layer inception_4a/relu_pool_proj
I0403 16:53:47.362915 21554 net.cpp:91] Creating Layer inception_4a/relu_pool_proj
I0403 16:53:47.362933 21554 net.cpp:425] inception_4a/relu_pool_proj <- inception_4a/pool_proj
I0403 16:53:47.362963 21554 net.cpp:386] inception_4a/relu_pool_proj -> inception_4a/pool_proj (in-place)
I0403 16:53:47.364827 21554 net.cpp:141] Setting up inception_4a/relu_pool_proj
I0403 16:53:47.364855 21554 net.cpp:148] Top shape: 24 64 14 14 (301056)
I0403 16:53:47.364871 21554 net.cpp:156] Memory required for data: 886912032
I0403 16:53:47.364886 21554 layer_factory.hpp:77] Creating layer inception_4a/output
I0403 16:53:47.364903 21554 net.cpp:91] Creating Layer inception_4a/output
I0403 16:53:47.364918 21554 net.cpp:425] inception_4a/output <- inception_4a/1x1
I0403 16:53:47.364936 21554 net.cpp:425] inception_4a/output <- inception_4a/3x3
I0403 16:53:47.364953 21554 net.cpp:425] inception_4a/output <- inception_4a/5x5
I0403 16:53:47.364969 21554 net.cpp:425] inception_4a/output <- inception_4a/pool_proj
I0403 16:53:47.364994 21554 net.cpp:399] inception_4a/output -> inception_4a/output
I0403 16:53:47.365043 21554 net.cpp:141] Setting up inception_4a/output
I0403 16:53:47.365067 21554 net.cpp:148] Top shape: 24 512 14 14 (2408448)
I0403 16:53:47.365082 21554 net.cpp:156] Memory required for data: 896545824
I0403 16:53:47.365097 21554 layer_factory.hpp:77] Creating layer inception_4a/output_inception_4a/output_0_split
I0403 16:53:47.365113 21554 net.cpp:91] Creating Layer inception_4a/output_inception_4a/output_0_split
I0403 16:53:47.365129 21554 net.cpp:425] inception_4a/output_inception_4a/output_0_split <- inception_4a/output
I0403 16:53:47.365150 21554 net.cpp:399] inception_4a/output_inception_4a/output_0_split -> inception_4a/output_inception_4a/output_0_split_0
I0403 16:53:47.365173 21554 net.cpp:399] inception_4a/output_inception_4a/output_0_split -> inception_4a/output_inception_4a/output_0_split_1
I0403 16:53:47.365195 21554 net.cpp:399] inception_4a/output_inception_4a/output_0_split -> inception_4a/output_inception_4a/output_0_split_2
I0403 16:53:47.365216 21554 net.cpp:399] inception_4a/output_inception_4a/output_0_split -> inception_4a/output_inception_4a/output_0_split_3
I0403 16:53:47.365236 21554 net.cpp:399] inception_4a/output_inception_4a/output_0_split -> inception_4a/output_inception_4a/output_0_split_4
I0403 16:53:47.365329 21554 net.cpp:141] Setting up inception_4a/output_inception_4a/output_0_split
I0403 16:53:47.365357 21554 net.cpp:148] Top shape: 24 512 14 14 (2408448)
I0403 16:53:47.365375 21554 net.cpp:148] Top shape: 24 512 14 14 (2408448)
I0403 16:53:47.365389 21554 net.cpp:148] Top shape: 24 512 14 14 (2408448)
I0403 16:53:47.365406 21554 net.cpp:148] Top shape: 24 512 14 14 (2408448)
I0403 16:53:47.365422 21554 net.cpp:148] Top shape: 24 512 14 14 (2408448)
I0403 16:53:47.365434 21554 net.cpp:156] Memory required for data: 944714784
I0403 16:53:47.365449 21554 layer_factory.hpp:77] Creating layer loss1/ave_pool
I0403 16:53:47.365468 21554 net.cpp:91] Creating Layer loss1/ave_pool
I0403 16:53:47.365483 21554 net.cpp:425] loss1/ave_pool <- inception_4a/output_inception_4a/output_0_split_0
I0403 16:53:47.365504 21554 net.cpp:399] loss1/ave_pool -> loss1/ave_pool
I0403 16:53:47.365717 21554 net.cpp:141] Setting up loss1/ave_pool
I0403 16:53:47.365743 21554 net.cpp:148] Top shape: 24 512 4 4 (196608)
I0403 16:53:47.365758 21554 net.cpp:156] Memory required for data: 945501216
I0403 16:53:47.365773 21554 layer_factory.hpp:77] Creating layer loss1/conv
I0403 16:53:47.365795 21554 net.cpp:91] Creating Layer loss1/conv
I0403 16:53:47.365813 21554 net.cpp:425] loss1/conv <- loss1/ave_pool
I0403 16:53:47.365835 21554 net.cpp:399] loss1/conv -> loss1/conv
I0403 16:53:47.367326 21554 net.cpp:141] Setting up loss1/conv
I0403 16:53:47.367357 21554 net.cpp:148] Top shape: 24 128 4 4 (49152)
I0403 16:53:47.367373 21554 net.cpp:156] Memory required for data: 945697824
I0403 16:53:47.367408 21554 layer_factory.hpp:77] Creating layer loss1/relu_conv
I0403 16:53:47.367427 21554 net.cpp:91] Creating Layer loss1/relu_conv
I0403 16:53:47.367444 21554 net.cpp:425] loss1/relu_conv <- loss1/conv
I0403 16:53:47.367460 21554 net.cpp:386] loss1/relu_conv -> loss1/conv (in-place)
I0403 16:53:47.367758 21554 net.cpp:141] Setting up loss1/relu_conv
I0403 16:53:47.367787 21554 net.cpp:148] Top shape: 24 128 4 4 (49152)
I0403 16:53:47.367804 21554 net.cpp:156] Memory required for data: 945894432
I0403 16:53:47.367818 21554 layer_factory.hpp:77] Creating layer loss1/fc
I0403 16:53:47.367842 21554 net.cpp:91] Creating Layer loss1/fc
I0403 16:53:47.367861 21554 net.cpp:425] loss1/fc <- loss1/conv
I0403 16:53:47.367882 21554 net.cpp:399] loss1/fc -> loss1/fc
I0403 16:53:47.386690 21554 net.cpp:141] Setting up loss1/fc
I0403 16:53:47.386737 21554 net.cpp:148] Top shape: 24 1024 (24576)
I0403 16:53:47.386752 21554 net.cpp:156] Memory required for data: 945992736
I0403 16:53:47.386770 21554 layer_factory.hpp:77] Creating layer loss1/relu_fc
I0403 16:53:47.386791 21554 net.cpp:91] Creating Layer loss1/relu_fc
I0403 16:53:47.386808 21554 net.cpp:425] loss1/relu_fc <- loss1/fc
I0403 16:53:47.386827 21554 net.cpp:386] loss1/relu_fc -> loss1/fc (in-place)
I0403 16:53:47.387018 21554 net.cpp:141] Setting up loss1/relu_fc
I0403 16:53:47.387044 21554 net.cpp:148] Top shape: 24 1024 (24576)
I0403 16:53:47.387059 21554 net.cpp:156] Memory required for data: 946091040
I0403 16:53:47.387073 21554 layer_factory.hpp:77] Creating layer loss1/drop_fc
I0403 16:53:47.387101 21554 net.cpp:91] Creating Layer loss1/drop_fc
I0403 16:53:47.387118 21554 net.cpp:425] loss1/drop_fc <- loss1/fc
I0403 16:53:47.387135 21554 net.cpp:386] loss1/drop_fc -> loss1/fc (in-place)
I0403 16:53:47.387187 21554 net.cpp:141] Setting up loss1/drop_fc
I0403 16:53:47.387208 21554 net.cpp:148] Top shape: 24 1024 (24576)
I0403 16:53:47.387223 21554 net.cpp:156] Memory required for data: 946189344
I0403 16:53:47.387236 21554 layer_factory.hpp:77] Creating layer loss1/classifier_plantvillage
I0403 16:53:47.387258 21554 net.cpp:91] Creating Layer loss1/classifier_plantvillage
I0403 16:53:47.387274 21554 net.cpp:425] loss1/classifier_plantvillage <- loss1/fc
I0403 16:53:47.387293 21554 net.cpp:399] loss1/classifier_plantvillage -> loss1/classifier_plantvillage
I0403 16:53:47.388180 21554 net.cpp:141] Setting up loss1/classifier_plantvillage
I0403 16:53:47.388208 21554 net.cpp:148] Top shape: 24 38 (912)
I0403 16:53:47.388224 21554 net.cpp:156] Memory required for data: 946192992
I0403 16:53:47.388243 21554 layer_factory.hpp:77] Creating layer loss1/classifier_plantvillage_loss1/classifier_plantvillage_0_split
I0403 16:53:47.388262 21554 net.cpp:91] Creating Layer loss1/classifier_plantvillage_loss1/classifier_plantvillage_0_split
I0403 16:53:47.388278 21554 net.cpp:425] loss1/classifier_plantvillage_loss1/classifier_plantvillage_0_split <- loss1/classifier_plantvillage
I0403 16:53:47.388294 21554 net.cpp:399] loss1/classifier_plantvillage_loss1/classifier_plantvillage_0_split -> loss1/classifier_plantvillage_loss1/classifier_plantvillage_0_split_0
I0403 16:53:47.388314 21554 net.cpp:399] loss1/classifier_plantvillage_loss1/classifier_plantvillage_0_split -> loss1/classifier_plantvillage_loss1/classifier_plantvillage_0_split_1
I0403 16:53:47.388334 21554 net.cpp:399] loss1/classifier_plantvillage_loss1/classifier_plantvillage_0_split -> loss1/classifier_plantvillage_loss1/classifier_plantvillage_0_split_2
I0403 16:53:47.388398 21554 net.cpp:141] Setting up loss1/classifier_plantvillage_loss1/classifier_plantvillage_0_split
I0403 16:53:47.388420 21554 net.cpp:148] Top shape: 24 38 (912)
I0403 16:53:47.388435 21554 net.cpp:148] Top shape: 24 38 (912)
I0403 16:53:47.388452 21554 net.cpp:148] Top shape: 24 38 (912)
I0403 16:53:47.388476 21554 net.cpp:156] Memory required for data: 946203936
I0403 16:53:47.388490 21554 layer_factory.hpp:77] Creating layer inception_4b/1x1
I0403 16:53:47.388510 21554 net.cpp:91] Creating Layer inception_4b/1x1
I0403 16:53:47.388547 21554 net.cpp:425] inception_4b/1x1 <- inception_4a/output_inception_4a/output_0_split_1
I0403 16:53:47.388571 21554 net.cpp:399] inception_4b/1x1 -> inception_4b/1x1
I0403 16:53:47.390242 21554 net.cpp:141] Setting up inception_4b/1x1
I0403 16:53:47.390274 21554 net.cpp:148] Top shape: 24 160 14 14 (752640)
I0403 16:53:47.390288 21554 net.cpp:156] Memory required for data: 949214496
I0403 16:53:47.390306 21554 layer_factory.hpp:77] Creating layer inception_4b/relu_1x1
I0403 16:53:47.390323 21554 net.cpp:91] Creating Layer inception_4b/relu_1x1
I0403 16:53:47.390339 21554 net.cpp:425] inception_4b/relu_1x1 <- inception_4b/1x1
I0403 16:53:47.390357 21554 net.cpp:386] inception_4b/relu_1x1 -> inception_4b/1x1 (in-place)
I0403 16:53:47.390532 21554 net.cpp:141] Setting up inception_4b/relu_1x1
I0403 16:53:47.390555 21554 net.cpp:148] Top shape: 24 160 14 14 (752640)
I0403 16:53:47.390569 21554 net.cpp:156] Memory required for data: 952225056
I0403 16:53:47.390583 21554 layer_factory.hpp:77] Creating layer inception_4b/3x3_reduce
I0403 16:53:47.390605 21554 net.cpp:91] Creating Layer inception_4b/3x3_reduce
I0403 16:53:47.390621 21554 net.cpp:425] inception_4b/3x3_reduce <- inception_4a/output_inception_4a/output_0_split_2
I0403 16:53:47.390645 21554 net.cpp:399] inception_4b/3x3_reduce -> inception_4b/3x3_reduce
I0403 16:53:47.392019 21554 net.cpp:141] Setting up inception_4b/3x3_reduce
I0403 16:53:47.392045 21554 net.cpp:148] Top shape: 24 112 14 14 (526848)
I0403 16:53:47.392060 21554 net.cpp:156] Memory required for data: 954332448
I0403 16:53:47.392078 21554 layer_factory.hpp:77] Creating layer inception_4b/relu_3x3_reduce
I0403 16:53:47.392096 21554 net.cpp:91] Creating Layer inception_4b/relu_3x3_reduce
I0403 16:53:47.392110 21554 net.cpp:425] inception_4b/relu_3x3_reduce <- inception_4b/3x3_reduce
I0403 16:53:47.392129 21554 net.cpp:386] inception_4b/relu_3x3_reduce -> inception_4b/3x3_reduce (in-place)
I0403 16:53:47.392401 21554 net.cpp:141] Setting up inception_4b/relu_3x3_reduce
I0403 16:53:47.392427 21554 net.cpp:148] Top shape: 24 112 14 14 (526848)
I0403 16:53:47.392441 21554 net.cpp:156] Memory required for data: 956439840
I0403 16:53:47.392455 21554 layer_factory.hpp:77] Creating layer inception_4b/3x3
I0403 16:53:47.392477 21554 net.cpp:91] Creating Layer inception_4b/3x3
I0403 16:53:47.392493 21554 net.cpp:425] inception_4b/3x3 <- inception_4b/3x3_reduce
I0403 16:53:47.392515 21554 net.cpp:399] inception_4b/3x3 -> inception_4b/3x3
I0403 16:53:47.395462 21554 net.cpp:141] Setting up inception_4b/3x3
I0403 16:53:47.395490 21554 net.cpp:148] Top shape: 24 224 14 14 (1053696)
I0403 16:53:47.395506 21554 net.cpp:156] Memory required for data: 960654624
I0403 16:53:47.395524 21554 layer_factory.hpp:77] Creating layer inception_4b/relu_3x3
I0403 16:53:47.395545 21554 net.cpp:91] Creating Layer inception_4b/relu_3x3
I0403 16:53:47.395560 21554 net.cpp:425] inception_4b/relu_3x3 <- inception_4b/3x3
I0403 16:53:47.395577 21554 net.cpp:386] inception_4b/relu_3x3 -> inception_4b/3x3 (in-place)
I0403 16:53:47.395753 21554 net.cpp:141] Setting up inception_4b/relu_3x3
I0403 16:53:47.395779 21554 net.cpp:148] Top shape: 24 224 14 14 (1053696)
I0403 16:53:47.395794 21554 net.cpp:156] Memory required for data: 964869408
I0403 16:53:47.395808 21554 layer_factory.hpp:77] Creating layer inception_4b/5x5_reduce
I0403 16:53:47.395829 21554 net.cpp:91] Creating Layer inception_4b/5x5_reduce
I0403 16:53:47.395846 21554 net.cpp:425] inception_4b/5x5_reduce <- inception_4a/output_inception_4a/output_0_split_3
I0403 16:53:47.395865 21554 net.cpp:399] inception_4b/5x5_reduce -> inception_4b/5x5_reduce
I0403 16:53:47.396960 21554 net.cpp:141] Setting up inception_4b/5x5_reduce
I0403 16:53:47.396991 21554 net.cpp:148] Top shape: 24 24 14 14 (112896)
I0403 16:53:47.397009 21554 net.cpp:156] Memory required for data: 965320992
I0403 16:53:47.397027 21554 layer_factory.hpp:77] Creating layer inception_4b/relu_5x5_reduce
I0403 16:53:47.397044 21554 net.cpp:91] Creating Layer inception_4b/relu_5x5_reduce
I0403 16:53:47.397074 21554 net.cpp:425] inception_4b/relu_5x5_reduce <- inception_4b/5x5_reduce
I0403 16:53:47.397094 21554 net.cpp:386] inception_4b/relu_5x5_reduce -> inception_4b/5x5_reduce (in-place)
I0403 16:53:47.397274 21554 net.cpp:141] Setting up inception_4b/relu_5x5_reduce
I0403 16:53:47.397299 21554 net.cpp:148] Top shape: 24 24 14 14 (112896)
I0403 16:53:47.397312 21554 net.cpp:156] Memory required for data: 965772576
I0403 16:53:47.397326 21554 layer_factory.hpp:77] Creating layer inception_4b/5x5
I0403 16:53:47.397348 21554 net.cpp:91] Creating Layer inception_4b/5x5
I0403 16:53:47.397366 21554 net.cpp:425] inception_4b/5x5 <- inception_4b/5x5_reduce
I0403 16:53:47.397385 21554 net.cpp:399] inception_4b/5x5 -> inception_4b/5x5
I0403 16:53:47.398581 21554 net.cpp:141] Setting up inception_4b/5x5
I0403 16:53:47.398609 21554 net.cpp:148] Top shape: 24 64 14 14 (301056)
I0403 16:53:47.398625 21554 net.cpp:156] Memory required for data: 966976800
I0403 16:53:47.398643 21554 layer_factory.hpp:77] Creating layer inception_4b/relu_5x5
I0403 16:53:47.398660 21554 net.cpp:91] Creating Layer inception_4b/relu_5x5
I0403 16:53:47.398675 21554 net.cpp:425] inception_4b/relu_5x5 <- inception_4b/5x5
I0403 16:53:47.398692 21554 net.cpp:386] inception_4b/relu_5x5 -> inception_4b/5x5 (in-place)
I0403 16:53:47.398972 21554 net.cpp:141] Setting up inception_4b/relu_5x5
I0403 16:53:47.399010 21554 net.cpp:148] Top shape: 24 64 14 14 (301056)
I0403 16:53:47.399027 21554 net.cpp:156] Memory required for data: 968181024
I0403 16:53:47.399042 21554 layer_factory.hpp:77] Creating layer inception_4b/pool
I0403 16:53:47.399071 21554 net.cpp:91] Creating Layer inception_4b/pool
I0403 16:53:47.399088 21554 net.cpp:425] inception_4b/pool <- inception_4a/output_inception_4a/output_0_split_4
I0403 16:53:47.399106 21554 net.cpp:399] inception_4b/pool -> inception_4b/pool
I0403 16:53:47.399170 21554 net.cpp:141] Setting up inception_4b/pool
I0403 16:53:47.399194 21554 net.cpp:148] Top shape: 24 512 14 14 (2408448)
I0403 16:53:47.399209 21554 net.cpp:156] Memory required for data: 977814816
I0403 16:53:47.399222 21554 layer_factory.hpp:77] Creating layer inception_4b/pool_proj
I0403 16:53:47.399243 21554 net.cpp:91] Creating Layer inception_4b/pool_proj
I0403 16:53:47.399261 21554 net.cpp:425] inception_4b/pool_proj <- inception_4b/pool
I0403 16:53:47.399282 21554 net.cpp:399] inception_4b/pool_proj -> inception_4b/pool_proj
I0403 16:53:47.400475 21554 net.cpp:141] Setting up inception_4b/pool_proj
I0403 16:53:47.400503 21554 net.cpp:148] Top shape: 24 64 14 14 (301056)
I0403 16:53:47.400518 21554 net.cpp:156] Memory required for data: 979019040
I0403 16:53:47.400537 21554 layer_factory.hpp:77] Creating layer inception_4b/relu_pool_proj
I0403 16:53:47.400555 21554 net.cpp:91] Creating Layer inception_4b/relu_pool_proj
I0403 16:53:47.400570 21554 net.cpp:425] inception_4b/relu_pool_proj <- inception_4b/pool_proj
I0403 16:53:47.400591 21554 net.cpp:386] inception_4b/relu_pool_proj -> inception_4b/pool_proj (in-place)
I0403 16:53:47.400768 21554 net.cpp:141] Setting up inception_4b/relu_pool_proj
I0403 16:53:47.400792 21554 net.cpp:148] Top shape: 24 64 14 14 (301056)
I0403 16:53:47.400806 21554 net.cpp:156] Memory required for data: 980223264
I0403 16:53:47.400821 21554 layer_factory.hpp:77] Creating layer inception_4b/output
I0403 16:53:47.400837 21554 net.cpp:91] Creating Layer inception_4b/output
I0403 16:53:47.400853 21554 net.cpp:425] inception_4b/output <- inception_4b/1x1
I0403 16:53:47.400869 21554 net.cpp:425] inception_4b/output <- inception_4b/3x3
I0403 16:53:47.400888 21554 net.cpp:425] inception_4b/output <- inception_4b/5x5
I0403 16:53:47.400903 21554 net.cpp:425] inception_4b/output <- inception_4b/pool_proj
I0403 16:53:47.400920 21554 net.cpp:399] inception_4b/output -> inception_4b/output
I0403 16:53:47.400964 21554 net.cpp:141] Setting up inception_4b/output
I0403 16:53:47.400991 21554 net.cpp:148] Top shape: 24 512 14 14 (2408448)
I0403 16:53:47.401007 21554 net.cpp:156] Memory required for data: 989857056
I0403 16:53:47.401034 21554 layer_factory.hpp:77] Creating layer inception_4b/output_inception_4b/output_0_split
I0403 16:53:47.401051 21554 net.cpp:91] Creating Layer inception_4b/output_inception_4b/output_0_split
I0403 16:53:47.401067 21554 net.cpp:425] inception_4b/output_inception_4b/output_0_split <- inception_4b/output
I0403 16:53:47.401087 21554 net.cpp:399] inception_4b/output_inception_4b/output_0_split -> inception_4b/output_inception_4b/output_0_split_0
I0403 16:53:47.401108 21554 net.cpp:399] inception_4b/output_inception_4b/output_0_split -> inception_4b/output_inception_4b/output_0_split_1
I0403 16:53:47.401126 21554 net.cpp:399] inception_4b/output_inception_4b/output_0_split -> inception_4b/output_inception_4b/output_0_split_2
I0403 16:53:47.401145 21554 net.cpp:399] inception_4b/output_inception_4b/output_0_split -> inception_4b/output_inception_4b/output_0_split_3
I0403 16:53:47.401223 21554 net.cpp:141] Setting up inception_4b/output_inception_4b/output_0_split
I0403 16:53:47.401253 21554 net.cpp:148] Top shape: 24 512 14 14 (2408448)
I0403 16:53:47.401270 21554 net.cpp:148] Top shape: 24 512 14 14 (2408448)
I0403 16:53:47.401284 21554 net.cpp:148] Top shape: 24 512 14 14 (2408448)
I0403 16:53:47.401299 21554 net.cpp:148] Top shape: 24 512 14 14 (2408448)
I0403 16:53:47.401312 21554 net.cpp:156] Memory required for data: 1028392224
I0403 16:53:47.401326 21554 layer_factory.hpp:77] Creating layer inception_4c/1x1
I0403 16:53:47.401345 21554 net.cpp:91] Creating Layer inception_4c/1x1
I0403 16:53:47.401361 21554 net.cpp:425] inception_4c/1x1 <- inception_4b/output_inception_4b/output_0_split_0
I0403 16:53:47.401381 21554 net.cpp:399] inception_4c/1x1 -> inception_4c/1x1
I0403 16:53:47.402812 21554 net.cpp:141] Setting up inception_4c/1x1
I0403 16:53:47.402840 21554 net.cpp:148] Top shape: 24 128 14 14 (602112)
I0403 16:53:47.402855 21554 net.cpp:156] Memory required for data: 1030800672
I0403 16:53:47.402874 21554 layer_factory.hpp:77] Creating layer inception_4c/relu_1x1
I0403 16:53:47.402895 21554 net.cpp:91] Creating Layer inception_4c/relu_1x1
I0403 16:53:47.402912 21554 net.cpp:425] inception_4c/relu_1x1 <- inception_4c/1x1
I0403 16:53:47.402930 21554 net.cpp:386] inception_4c/relu_1x1 -> inception_4c/1x1 (in-place)
I0403 16:53:47.403117 21554 net.cpp:141] Setting up inception_4c/relu_1x1
I0403 16:53:47.403141 21554 net.cpp:148] Top shape: 24 128 14 14 (602112)
I0403 16:53:47.403156 21554 net.cpp:156] Memory required for data: 1033209120
I0403 16:53:47.403172 21554 layer_factory.hpp:77] Creating layer inception_4c/3x3_reduce
I0403 16:53:47.403194 21554 net.cpp:91] Creating Layer inception_4c/3x3_reduce
I0403 16:53:47.403211 21554 net.cpp:425] inception_4c/3x3_reduce <- inception_4b/output_inception_4b/output_0_split_1
I0403 16:53:47.403231 21554 net.cpp:399] inception_4c/3x3_reduce -> inception_4c/3x3_reduce
I0403 16:53:47.405210 21554 net.cpp:141] Setting up inception_4c/3x3_reduce
I0403 16:53:47.405241 21554 net.cpp:148] Top shape: 24 128 14 14 (602112)
I0403 16:53:47.405256 21554 net.cpp:156] Memory required for data: 1035617568
I0403 16:53:47.405274 21554 layer_factory.hpp:77] Creating layer inception_4c/relu_3x3_reduce
I0403 16:53:47.405293 21554 net.cpp:91] Creating Layer inception_4c/relu_3x3_reduce
I0403 16:53:47.405309 21554 net.cpp:425] inception_4c/relu_3x3_reduce <- inception_4c/3x3_reduce
I0403 16:53:47.405328 21554 net.cpp:386] inception_4c/relu_3x3_reduce -> inception_4c/3x3_reduce (in-place)
I0403 16:53:47.405614 21554 net.cpp:141] Setting up inception_4c/relu_3x3_reduce
I0403 16:53:47.405642 21554 net.cpp:148] Top shape: 24 128 14 14 (602112)
I0403 16:53:47.405658 21554 net.cpp:156] Memory required for data: 1038026016
I0403 16:53:47.405673 21554 layer_factory.hpp:77] Creating layer inception_4c/3x3
I0403 16:53:47.405696 21554 net.cpp:91] Creating Layer inception_4c/3x3
I0403 16:53:47.405714 21554 net.cpp:425] inception_4c/3x3 <- inception_4c/3x3_reduce
I0403 16:53:47.405733 21554 net.cpp:399] inception_4c/3x3 -> inception_4c/3x3
I0403 16:53:47.409370 21554 net.cpp:141] Setting up inception_4c/3x3
I0403 16:53:47.409415 21554 net.cpp:148] Top shape: 24 256 14 14 (1204224)
I0403 16:53:47.409432 21554 net.cpp:156] Memory required for data: 1042842912
I0403 16:53:47.409464 21554 layer_factory.hpp:77] Creating layer inception_4c/relu_3x3
I0403 16:53:47.409485 21554 net.cpp:91] Creating Layer inception_4c/relu_3x3
I0403 16:53:47.409502 21554 net.cpp:425] inception_4c/relu_3x3 <- inception_4c/3x3
I0403 16:53:47.409520 21554 net.cpp:386] inception_4c/relu_3x3 -> inception_4c/3x3 (in-place)
I0403 16:53:47.409705 21554 net.cpp:141] Setting up inception_4c/relu_3x3
I0403 16:53:47.409732 21554 net.cpp:148] Top shape: 24 256 14 14 (1204224)
I0403 16:53:47.409747 21554 net.cpp:156] Memory required for data: 1047659808
I0403 16:53:47.409762 21554 layer_factory.hpp:77] Creating layer inception_4c/5x5_reduce
I0403 16:53:47.409785 21554 net.cpp:91] Creating Layer inception_4c/5x5_reduce
I0403 16:53:47.409802 21554 net.cpp:425] inception_4c/5x5_reduce <- inception_4b/output_inception_4b/output_0_split_2
I0403 16:53:47.409821 21554 net.cpp:399] inception_4c/5x5_reduce -> inception_4c/5x5_reduce
I0403 16:53:47.410912 21554 net.cpp:141] Setting up inception_4c/5x5_reduce
I0403 16:53:47.410943 21554 net.cpp:148] Top shape: 24 24 14 14 (112896)
I0403 16:53:47.410959 21554 net.cpp:156] Memory required for data: 1048111392
I0403 16:53:47.410977 21554 layer_factory.hpp:77] Creating layer inception_4c/relu_5x5_reduce
I0403 16:53:47.411000 21554 net.cpp:91] Creating Layer inception_4c/relu_5x5_reduce
I0403 16:53:47.411016 21554 net.cpp:425] inception_4c/relu_5x5_reduce <- inception_4c/5x5_reduce
I0403 16:53:47.411036 21554 net.cpp:386] inception_4c/relu_5x5_reduce -> inception_4c/5x5_reduce (in-place)
I0403 16:53:47.411221 21554 net.cpp:141] Setting up inception_4c/relu_5x5_reduce
I0403 16:53:47.411245 21554 net.cpp:148] Top shape: 24 24 14 14 (112896)
I0403 16:53:47.411260 21554 net.cpp:156] Memory required for data: 1048562976
I0403 16:53:47.411274 21554 layer_factory.hpp:77] Creating layer inception_4c/5x5
I0403 16:53:47.411295 21554 net.cpp:91] Creating Layer inception_4c/5x5
I0403 16:53:47.411314 21554 net.cpp:425] inception_4c/5x5 <- inception_4c/5x5_reduce
I0403 16:53:47.411334 21554 net.cpp:399] inception_4c/5x5 -> inception_4c/5x5
I0403 16:53:47.412592 21554 net.cpp:141] Setting up inception_4c/5x5
I0403 16:53:47.412621 21554 net.cpp:148] Top shape: 24 64 14 14 (301056)
I0403 16:53:47.412636 21554 net.cpp:156] Memory required for data: 1049767200
I0403 16:53:47.412654 21554 layer_factory.hpp:77] Creating layer inception_4c/relu_5x5
I0403 16:53:47.412675 21554 net.cpp:91] Creating Layer inception_4c/relu_5x5
I0403 16:53:47.412693 21554 net.cpp:425] inception_4c/relu_5x5 <- inception_4c/5x5
I0403 16:53:47.412711 21554 net.cpp:386] inception_4c/relu_5x5 -> inception_4c/5x5 (in-place)
I0403 16:53:47.413029 21554 net.cpp:141] Setting up inception_4c/relu_5x5
I0403 16:53:47.413055 21554 net.cpp:148] Top shape: 24 64 14 14 (301056)
I0403 16:53:47.413070 21554 net.cpp:156] Memory required for data: 1050971424
I0403 16:53:47.413085 21554 layer_factory.hpp:77] Creating layer inception_4c/pool
I0403 16:53:47.413103 21554 net.cpp:91] Creating Layer inception_4c/pool
I0403 16:53:47.413122 21554 net.cpp:425] inception_4c/pool <- inception_4b/output_inception_4b/output_0_split_3
I0403 16:53:47.413141 21554 net.cpp:399] inception_4c/pool -> inception_4c/pool
I0403 16:53:47.413206 21554 net.cpp:141] Setting up inception_4c/pool
I0403 16:53:47.413229 21554 net.cpp:148] Top shape: 24 512 14 14 (2408448)
I0403 16:53:47.413245 21554 net.cpp:156] Memory required for data: 1060605216
I0403 16:53:47.413259 21554 layer_factory.hpp:77] Creating layer inception_4c/pool_proj
I0403 16:53:47.413281 21554 net.cpp:91] Creating Layer inception_4c/pool_proj
I0403 16:53:47.413298 21554 net.cpp:425] inception_4c/pool_proj <- inception_4c/pool
I0403 16:53:47.413319 21554 net.cpp:399] inception_4c/pool_proj -> inception_4c/pool_proj
I0403 16:53:47.414573 21554 net.cpp:141] Setting up inception_4c/pool_proj
I0403 16:53:47.414604 21554 net.cpp:148] Top shape: 24 64 14 14 (301056)
I0403 16:53:47.414633 21554 net.cpp:156] Memory required for data: 1061809440
I0403 16:53:47.414654 21554 layer_factory.hpp:77] Creating layer inception_4c/relu_pool_proj
I0403 16:53:47.414671 21554 net.cpp:91] Creating Layer inception_4c/relu_pool_proj
I0403 16:53:47.414686 21554 net.cpp:425] inception_4c/relu_pool_proj <- inception_4c/pool_proj
I0403 16:53:47.414706 21554 net.cpp:386] inception_4c/relu_pool_proj -> inception_4c/pool_proj (in-place)
I0403 16:53:47.414891 21554 net.cpp:141] Setting up inception_4c/relu_pool_proj
I0403 16:53:47.414914 21554 net.cpp:148] Top shape: 24 64 14 14 (301056)
I0403 16:53:47.414928 21554 net.cpp:156] Memory required for data: 1063013664
I0403 16:53:47.414943 21554 layer_factory.hpp:77] Creating layer inception_4c/output
I0403 16:53:47.414960 21554 net.cpp:91] Creating Layer inception_4c/output
I0403 16:53:47.414975 21554 net.cpp:425] inception_4c/output <- inception_4c/1x1
I0403 16:53:47.414996 21554 net.cpp:425] inception_4c/output <- inception_4c/3x3
I0403 16:53:47.415029 21554 net.cpp:425] inception_4c/output <- inception_4c/5x5
I0403 16:53:47.415046 21554 net.cpp:425] inception_4c/output <- inception_4c/pool_proj
I0403 16:53:47.415066 21554 net.cpp:399] inception_4c/output -> inception_4c/output
I0403 16:53:47.415114 21554 net.cpp:141] Setting up inception_4c/output
I0403 16:53:47.415140 21554 net.cpp:148] Top shape: 24 512 14 14 (2408448)
I0403 16:53:47.415156 21554 net.cpp:156] Memory required for data: 1072647456
I0403 16:53:47.415171 21554 layer_factory.hpp:77] Creating layer inception_4c/output_inception_4c/output_0_split
I0403 16:53:47.415189 21554 net.cpp:91] Creating Layer inception_4c/output_inception_4c/output_0_split
I0403 16:53:47.415204 21554 net.cpp:425] inception_4c/output_inception_4c/output_0_split <- inception_4c/output
I0403 16:53:47.415225 21554 net.cpp:399] inception_4c/output_inception_4c/output_0_split -> inception_4c/output_inception_4c/output_0_split_0
I0403 16:53:47.415246 21554 net.cpp:399] inception_4c/output_inception_4c/output_0_split -> inception_4c/output_inception_4c/output_0_split_1
I0403 16:53:47.415266 21554 net.cpp:399] inception_4c/output_inception_4c/output_0_split -> inception_4c/output_inception_4c/output_0_split_2
I0403 16:53:47.415287 21554 net.cpp:399] inception_4c/output_inception_4c/output_0_split -> inception_4c/output_inception_4c/output_0_split_3
I0403 16:53:47.415374 21554 net.cpp:141] Setting up inception_4c/output_inception_4c/output_0_split
I0403 16:53:47.415410 21554 net.cpp:148] Top shape: 24 512 14 14 (2408448)
I0403 16:53:47.415429 21554 net.cpp:148] Top shape: 24 512 14 14 (2408448)
I0403 16:53:47.415444 21554 net.cpp:148] Top shape: 24 512 14 14 (2408448)
I0403 16:53:47.415459 21554 net.cpp:148] Top shape: 24 512 14 14 (2408448)
I0403 16:53:47.415472 21554 net.cpp:156] Memory required for data: 1111182624
I0403 16:53:47.415488 21554 layer_factory.hpp:77] Creating layer inception_4d/1x1
I0403 16:53:47.415506 21554 net.cpp:91] Creating Layer inception_4d/1x1
I0403 16:53:47.415523 21554 net.cpp:425] inception_4d/1x1 <- inception_4c/output_inception_4c/output_0_split_0
I0403 16:53:47.415544 21554 net.cpp:399] inception_4d/1x1 -> inception_4d/1x1
I0403 16:53:47.416921 21554 net.cpp:141] Setting up inception_4d/1x1
I0403 16:53:47.416949 21554 net.cpp:148] Top shape: 24 112 14 14 (526848)
I0403 16:53:47.416965 21554 net.cpp:156] Memory required for data: 1113290016
I0403 16:53:47.416983 21554 layer_factory.hpp:77] Creating layer inception_4d/relu_1x1
I0403 16:53:47.417009 21554 net.cpp:91] Creating Layer inception_4d/relu_1x1
I0403 16:53:47.417026 21554 net.cpp:425] inception_4d/relu_1x1 <- inception_4d/1x1
I0403 16:53:47.417043 21554 net.cpp:386] inception_4d/relu_1x1 -> inception_4d/1x1 (in-place)
I0403 16:53:47.417232 21554 net.cpp:141] Setting up inception_4d/relu_1x1
I0403 16:53:47.417258 21554 net.cpp:148] Top shape: 24 112 14 14 (526848)
I0403 16:53:47.417273 21554 net.cpp:156] Memory required for data: 1115397408
I0403 16:53:47.417289 21554 layer_factory.hpp:77] Creating layer inception_4d/3x3_reduce
I0403 16:53:47.417325 21554 net.cpp:91] Creating Layer inception_4d/3x3_reduce
I0403 16:53:47.417343 21554 net.cpp:425] inception_4d/3x3_reduce <- inception_4c/output_inception_4c/output_0_split_1
I0403 16:53:47.417361 21554 net.cpp:399] inception_4d/3x3_reduce -> inception_4d/3x3_reduce
I0403 16:53:47.418870 21554 net.cpp:141] Setting up inception_4d/3x3_reduce
I0403 16:53:47.418898 21554 net.cpp:148] Top shape: 24 144 14 14 (677376)
I0403 16:53:47.418915 21554 net.cpp:156] Memory required for data: 1118106912
I0403 16:53:47.418932 21554 layer_factory.hpp:77] Creating layer inception_4d/relu_3x3_reduce
I0403 16:53:47.418967 21554 net.cpp:91] Creating Layer inception_4d/relu_3x3_reduce
I0403 16:53:47.418995 21554 net.cpp:425] inception_4d/relu_3x3_reduce <- inception_4d/3x3_reduce
I0403 16:53:47.419018 21554 net.cpp:386] inception_4d/relu_3x3_reduce -> inception_4d/3x3_reduce (in-place)
I0403 16:53:47.419348 21554 net.cpp:141] Setting up inception_4d/relu_3x3_reduce
I0403 16:53:47.419374 21554 net.cpp:148] Top shape: 24 144 14 14 (677376)
I0403 16:53:47.419390 21554 net.cpp:156] Memory required for data: 1120816416
I0403 16:53:47.419404 21554 layer_factory.hpp:77] Creating layer inception_4d/3x3
I0403 16:53:47.419427 21554 net.cpp:91] Creating Layer inception_4d/3x3
I0403 16:53:47.419445 21554 net.cpp:425] inception_4d/3x3 <- inception_4d/3x3_reduce
I0403 16:53:47.419467 21554 net.cpp:399] inception_4d/3x3 -> inception_4d/3x3
I0403 16:53:47.423807 21554 net.cpp:141] Setting up inception_4d/3x3
I0403 16:53:47.423837 21554 net.cpp:148] Top shape: 24 288 14 14 (1354752)
I0403 16:53:47.423852 21554 net.cpp:156] Memory required for data: 1126235424
I0403 16:53:47.423871 21554 layer_factory.hpp:77] Creating layer inception_4d/relu_3x3
I0403 16:53:47.423892 21554 net.cpp:91] Creating Layer inception_4d/relu_3x3
I0403 16:53:47.423909 21554 net.cpp:425] inception_4d/relu_3x3 <- inception_4d/3x3
I0403 16:53:47.423928 21554 net.cpp:386] inception_4d/relu_3x3 -> inception_4d/3x3 (in-place)
I0403 16:53:47.424130 21554 net.cpp:141] Setting up inception_4d/relu_3x3
I0403 16:53:47.424156 21554 net.cpp:148] Top shape: 24 288 14 14 (1354752)
I0403 16:53:47.424171 21554 net.cpp:156] Memory required for data: 1131654432
I0403 16:53:47.424186 21554 layer_factory.hpp:77] Creating layer inception_4d/5x5_reduce
I0403 16:53:47.424208 21554 net.cpp:91] Creating Layer inception_4d/5x5_reduce
I0403 16:53:47.424226 21554 net.cpp:425] inception_4d/5x5_reduce <- inception_4c/output_inception_4c/output_0_split_2
I0403 16:53:47.424248 21554 net.cpp:399] inception_4d/5x5_reduce -> inception_4d/5x5_reduce
I0403 16:53:47.425412 21554 net.cpp:141] Setting up inception_4d/5x5_reduce
I0403 16:53:47.425441 21554 net.cpp:148] Top shape: 24 32 14 14 (150528)
I0403 16:53:47.425458 21554 net.cpp:156] Memory required for data: 1132256544
I0403 16:53:47.425477 21554 layer_factory.hpp:77] Creating layer inception_4d/relu_5x5_reduce
I0403 16:53:47.425495 21554 net.cpp:91] Creating Layer inception_4d/relu_5x5_reduce
I0403 16:53:47.425511 21554 net.cpp:425] inception_4d/relu_5x5_reduce <- inception_4d/5x5_reduce
I0403 16:53:47.425529 21554 net.cpp:386] inception_4d/relu_5x5_reduce -> inception_4d/5x5_reduce (in-place)
I0403 16:53:47.425714 21554 net.cpp:141] Setting up inception_4d/relu_5x5_reduce
I0403 16:53:47.425741 21554 net.cpp:148] Top shape: 24 32 14 14 (150528)
I0403 16:53:47.425756 21554 net.cpp:156] Memory required for data: 1132858656
I0403 16:53:47.425772 21554 layer_factory.hpp:77] Creating layer inception_4d/5x5
I0403 16:53:47.425794 21554 net.cpp:91] Creating Layer inception_4d/5x5
I0403 16:53:47.425812 21554 net.cpp:425] inception_4d/5x5 <- inception_4d/5x5_reduce
I0403 16:53:47.425832 21554 net.cpp:399] inception_4d/5x5 -> inception_4d/5x5
I0403 16:53:47.427331 21554 net.cpp:141] Setting up inception_4d/5x5
I0403 16:53:47.427359 21554 net.cpp:148] Top shape: 24 64 14 14 (301056)
I0403 16:53:47.427376 21554 net.cpp:156] Memory required for data: 1134062880
I0403 16:53:47.427394 21554 layer_factory.hpp:77] Creating layer inception_4d/relu_5x5
I0403 16:53:47.427428 21554 net.cpp:91] Creating Layer inception_4d/relu_5x5
I0403 16:53:47.427445 21554 net.cpp:425] inception_4d/relu_5x5 <- inception_4d/5x5
I0403 16:53:47.427466 21554 net.cpp:386] inception_4d/relu_5x5 -> inception_4d/5x5 (in-place)
I0403 16:53:47.427770 21554 net.cpp:141] Setting up inception_4d/relu_5x5
I0403 16:53:47.427798 21554 net.cpp:148] Top shape: 24 64 14 14 (301056)
I0403 16:53:47.427811 21554 net.cpp:156] Memory required for data: 1135267104
I0403 16:53:47.427826 21554 layer_factory.hpp:77] Creating layer inception_4d/pool
I0403 16:53:47.427845 21554 net.cpp:91] Creating Layer inception_4d/pool
I0403 16:53:47.427860 21554 net.cpp:425] inception_4d/pool <- inception_4c/output_inception_4c/output_0_split_3
I0403 16:53:47.427881 21554 net.cpp:399] inception_4d/pool -> inception_4d/pool
I0403 16:53:47.427947 21554 net.cpp:141] Setting up inception_4d/pool
I0403 16:53:47.427973 21554 net.cpp:148] Top shape: 24 512 14 14 (2408448)
I0403 16:53:47.427992 21554 net.cpp:156] Memory required for data: 1144900896
I0403 16:53:47.428009 21554 layer_factory.hpp:77] Creating layer inception_4d/pool_proj
I0403 16:53:47.428031 21554 net.cpp:91] Creating Layer inception_4d/pool_proj
I0403 16:53:47.428048 21554 net.cpp:425] inception_4d/pool_proj <- inception_4d/pool
I0403 16:53:47.428067 21554 net.cpp:399] inception_4d/pool_proj -> inception_4d/pool_proj
I0403 16:53:47.429891 21554 net.cpp:141] Setting up inception_4d/pool_proj
I0403 16:53:47.429920 21554 net.cpp:148] Top shape: 24 64 14 14 (301056)
I0403 16:53:47.429936 21554 net.cpp:156] Memory required for data: 1146105120
I0403 16:53:47.429955 21554 layer_factory.hpp:77] Creating layer inception_4d/relu_pool_proj
I0403 16:53:47.429975 21554 net.cpp:91] Creating Layer inception_4d/relu_pool_proj
I0403 16:53:47.429996 21554 net.cpp:425] inception_4d/relu_pool_proj <- inception_4d/pool_proj
I0403 16:53:47.430014 21554 net.cpp:386] inception_4d/relu_pool_proj -> inception_4d/pool_proj (in-place)
I0403 16:53:47.430200 21554 net.cpp:141] Setting up inception_4d/relu_pool_proj
I0403 16:53:47.430225 21554 net.cpp:148] Top shape: 24 64 14 14 (301056)
I0403 16:53:47.430241 21554 net.cpp:156] Memory required for data: 1147309344
I0403 16:53:47.430255 21554 layer_factory.hpp:77] Creating layer inception_4d/output
I0403 16:53:47.430274 21554 net.cpp:91] Creating Layer inception_4d/output
I0403 16:53:47.430289 21554 net.cpp:425] inception_4d/output <- inception_4d/1x1
I0403 16:53:47.430305 21554 net.cpp:425] inception_4d/output <- inception_4d/3x3
I0403 16:53:47.430321 21554 net.cpp:425] inception_4d/output <- inception_4d/5x5
I0403 16:53:47.430337 21554 net.cpp:425] inception_4d/output <- inception_4d/pool_proj
I0403 16:53:47.430356 21554 net.cpp:399] inception_4d/output -> inception_4d/output
I0403 16:53:47.430404 21554 net.cpp:141] Setting up inception_4d/output
I0403 16:53:47.430428 21554 net.cpp:148] Top shape: 24 528 14 14 (2483712)
I0403 16:53:47.430446 21554 net.cpp:156] Memory required for data: 1157244192
I0403 16:53:47.430461 21554 layer_factory.hpp:77] Creating layer inception_4d/output_inception_4d/output_0_split
I0403 16:53:47.430479 21554 net.cpp:91] Creating Layer inception_4d/output_inception_4d/output_0_split
I0403 16:53:47.430495 21554 net.cpp:425] inception_4d/output_inception_4d/output_0_split <- inception_4d/output
I0403 16:53:47.430511 21554 net.cpp:399] inception_4d/output_inception_4d/output_0_split -> inception_4d/output_inception_4d/output_0_split_0
I0403 16:53:47.430531 21554 net.cpp:399] inception_4d/output_inception_4d/output_0_split -> inception_4d/output_inception_4d/output_0_split_1
I0403 16:53:47.430554 21554 net.cpp:399] inception_4d/output_inception_4d/output_0_split -> inception_4d/output_inception_4d/output_0_split_2
I0403 16:53:47.430577 21554 net.cpp:399] inception_4d/output_inception_4d/output_0_split -> inception_4d/output_inception_4d/output_0_split_3
I0403 16:53:47.430596 21554 net.cpp:399] inception_4d/output_inception_4d/output_0_split -> inception_4d/output_inception_4d/output_0_split_4
I0403 16:53:47.430699 21554 net.cpp:141] Setting up inception_4d/output_inception_4d/output_0_split
I0403 16:53:47.430735 21554 net.cpp:148] Top shape: 24 528 14 14 (2483712)
I0403 16:53:47.430753 21554 net.cpp:148] Top shape: 24 528 14 14 (2483712)
I0403 16:53:47.430768 21554 net.cpp:148] Top shape: 24 528 14 14 (2483712)
I0403 16:53:47.430783 21554 net.cpp:148] Top shape: 24 528 14 14 (2483712)
I0403 16:53:47.430799 21554 net.cpp:148] Top shape: 24 528 14 14 (2483712)
I0403 16:53:47.430812 21554 net.cpp:156] Memory required for data: 1206918432
I0403 16:53:47.430827 21554 layer_factory.hpp:77] Creating layer loss2/ave_pool
I0403 16:53:47.430847 21554 net.cpp:91] Creating Layer loss2/ave_pool
I0403 16:53:47.430865 21554 net.cpp:425] loss2/ave_pool <- inception_4d/output_inception_4d/output_0_split_0
I0403 16:53:47.430882 21554 net.cpp:399] loss2/ave_pool -> loss2/ave_pool
I0403 16:53:47.431203 21554 net.cpp:141] Setting up loss2/ave_pool
I0403 16:53:47.431229 21554 net.cpp:148] Top shape: 24 528 4 4 (202752)
I0403 16:53:47.431246 21554 net.cpp:156] Memory required for data: 1207729440
I0403 16:53:47.431262 21554 layer_factory.hpp:77] Creating layer loss2/conv
I0403 16:53:47.431285 21554 net.cpp:91] Creating Layer loss2/conv
I0403 16:53:47.431303 21554 net.cpp:425] loss2/conv <- loss2/ave_pool
I0403 16:53:47.431323 21554 net.cpp:399] loss2/conv -> loss2/conv
I0403 16:53:47.433221 21554 net.cpp:141] Setting up loss2/conv
I0403 16:53:47.433253 21554 net.cpp:148] Top shape: 24 128 4 4 (49152)
I0403 16:53:47.433269 21554 net.cpp:156] Memory required for data: 1207926048
I0403 16:53:47.433287 21554 layer_factory.hpp:77] Creating layer loss2/relu_conv
I0403 16:53:47.433305 21554 net.cpp:91] Creating Layer loss2/relu_conv
I0403 16:53:47.433321 21554 net.cpp:425] loss2/relu_conv <- loss2/conv
I0403 16:53:47.433341 21554 net.cpp:386] loss2/relu_conv -> loss2/conv (in-place)
I0403 16:53:47.433629 21554 net.cpp:141] Setting up loss2/relu_conv
I0403 16:53:47.433655 21554 net.cpp:148] Top shape: 24 128 4 4 (49152)
I0403 16:53:47.433670 21554 net.cpp:156] Memory required for data: 1208122656
I0403 16:53:47.433686 21554 layer_factory.hpp:77] Creating layer loss2/fc
I0403 16:53:47.433704 21554 net.cpp:91] Creating Layer loss2/fc
I0403 16:53:47.433722 21554 net.cpp:425] loss2/fc <- loss2/conv
I0403 16:53:47.433743 21554 net.cpp:399] loss2/fc -> loss2/fc
I0403 16:53:47.451673 21554 net.cpp:141] Setting up loss2/fc
I0403 16:53:47.451728 21554 net.cpp:148] Top shape: 24 1024 (24576)
I0403 16:53:47.451743 21554 net.cpp:156] Memory required for data: 1208220960
I0403 16:53:47.451764 21554 layer_factory.hpp:77] Creating layer loss2/relu_fc
I0403 16:53:47.451783 21554 net.cpp:91] Creating Layer loss2/relu_fc
I0403 16:53:47.451802 21554 net.cpp:425] loss2/relu_fc <- loss2/fc
I0403 16:53:47.451819 21554 net.cpp:386] loss2/relu_fc -> loss2/fc (in-place)
I0403 16:53:47.452157 21554 net.cpp:141] Setting up loss2/relu_fc
I0403 16:53:47.452186 21554 net.cpp:148] Top shape: 24 1024 (24576)
I0403 16:53:47.452203 21554 net.cpp:156] Memory required for data: 1208319264
I0403 16:53:47.452217 21554 layer_factory.hpp:77] Creating layer loss2/drop_fc
I0403 16:53:47.452235 21554 net.cpp:91] Creating Layer loss2/drop_fc
I0403 16:53:47.452251 21554 net.cpp:425] loss2/drop_fc <- loss2/fc
I0403 16:53:47.452270 21554 net.cpp:386] loss2/drop_fc -> loss2/fc (in-place)
I0403 16:53:47.452321 21554 net.cpp:141] Setting up loss2/drop_fc
I0403 16:53:47.452343 21554 net.cpp:148] Top shape: 24 1024 (24576)
I0403 16:53:47.452358 21554 net.cpp:156] Memory required for data: 1208417568
I0403 16:53:47.452373 21554 layer_factory.hpp:77] Creating layer loss2/classifier_plantvillage
I0403 16:53:47.452392 21554 net.cpp:91] Creating Layer loss2/classifier_plantvillage
I0403 16:53:47.452409 21554 net.cpp:425] loss2/classifier_plantvillage <- loss2/fc
I0403 16:53:47.452428 21554 net.cpp:399] loss2/classifier_plantvillage -> loss2/classifier_plantvillage
I0403 16:53:47.452855 21554 net.cpp:141] Setting up loss2/classifier_plantvillage
I0403 16:53:47.452879 21554 net.cpp:148] Top shape: 24 38 (912)
I0403 16:53:47.452894 21554 net.cpp:156] Memory required for data: 1208421216
I0403 16:53:47.452941 21554 layer_factory.hpp:77] Creating layer loss2/classifier_plantvillage_loss2/classifier_plantvillage_0_split
I0403 16:53:47.452962 21554 net.cpp:91] Creating Layer loss2/classifier_plantvillage_loss2/classifier_plantvillage_0_split
I0403 16:53:47.452978 21554 net.cpp:425] loss2/classifier_plantvillage_loss2/classifier_plantvillage_0_split <- loss2/classifier_plantvillage
I0403 16:53:47.453008 21554 net.cpp:399] loss2/classifier_plantvillage_loss2/classifier_plantvillage_0_split -> loss2/classifier_plantvillage_loss2/classifier_plantvillage_0_split_0
I0403 16:53:47.453053 21554 net.cpp:399] loss2/classifier_plantvillage_loss2/classifier_plantvillage_0_split -> loss2/classifier_plantvillage_loss2/classifier_plantvillage_0_split_1
I0403 16:53:47.453075 21554 net.cpp:399] loss2/classifier_plantvillage_loss2/classifier_plantvillage_0_split -> loss2/classifier_plantvillage_loss2/classifier_plantvillage_0_split_2
I0403 16:53:47.453161 21554 net.cpp:141] Setting up loss2/classifier_plantvillage_loss2/classifier_plantvillage_0_split
I0403 16:53:47.453186 21554 net.cpp:148] Top shape: 24 38 (912)
I0403 16:53:47.453202 21554 net.cpp:148] Top shape: 24 38 (912)
I0403 16:53:47.453218 21554 net.cpp:148] Top shape: 24 38 (912)
I0403 16:53:47.453233 21554 net.cpp:156] Memory required for data: 1208432160
I0403 16:53:47.453248 21554 layer_factory.hpp:77] Creating layer inception_4e/1x1
I0403 16:53:47.453272 21554 net.cpp:91] Creating Layer inception_4e/1x1
I0403 16:53:47.453291 21554 net.cpp:425] inception_4e/1x1 <- inception_4d/output_inception_4d/output_0_split_1
I0403 16:53:47.453313 21554 net.cpp:399] inception_4e/1x1 -> inception_4e/1x1
I0403 16:53:47.455255 21554 net.cpp:141] Setting up inception_4e/1x1
I0403 16:53:47.455282 21554 net.cpp:148] Top shape: 24 256 14 14 (1204224)
I0403 16:53:47.455299 21554 net.cpp:156] Memory required for data: 1213249056
I0403 16:53:47.455317 21554 layer_factory.hpp:77] Creating layer inception_4e/relu_1x1
I0403 16:53:47.455338 21554 net.cpp:91] Creating Layer inception_4e/relu_1x1
I0403 16:53:47.455355 21554 net.cpp:425] inception_4e/relu_1x1 <- inception_4e/1x1
I0403 16:53:47.455374 21554 net.cpp:386] inception_4e/relu_1x1 -> inception_4e/1x1 (in-place)
I0403 16:53:47.455682 21554 net.cpp:141] Setting up inception_4e/relu_1x1
I0403 16:53:47.455708 21554 net.cpp:148] Top shape: 24 256 14 14 (1204224)
I0403 16:53:47.455724 21554 net.cpp:156] Memory required for data: 1218065952
I0403 16:53:47.455739 21554 layer_factory.hpp:77] Creating layer inception_4e/3x3_reduce
I0403 16:53:47.455761 21554 net.cpp:91] Creating Layer inception_4e/3x3_reduce
I0403 16:53:47.455780 21554 net.cpp:425] inception_4e/3x3_reduce <- inception_4d/output_inception_4d/output_0_split_2
I0403 16:53:47.455801 21554 net.cpp:399] inception_4e/3x3_reduce -> inception_4e/3x3_reduce
I0403 16:53:47.458039 21554 net.cpp:141] Setting up inception_4e/3x3_reduce
I0403 16:53:47.458070 21554 net.cpp:148] Top shape: 24 160 14 14 (752640)
I0403 16:53:47.458086 21554 net.cpp:156] Memory required for data: 1221076512
I0403 16:53:47.458106 21554 layer_factory.hpp:77] Creating layer inception_4e/relu_3x3_reduce
I0403 16:53:47.458125 21554 net.cpp:91] Creating Layer inception_4e/relu_3x3_reduce
I0403 16:53:47.458142 21554 net.cpp:425] inception_4e/relu_3x3_reduce <- inception_4e/3x3_reduce
I0403 16:53:47.458163 21554 net.cpp:386] inception_4e/relu_3x3_reduce -> inception_4e/3x3_reduce (in-place)
I0403 16:53:47.458374 21554 net.cpp:141] Setting up inception_4e/relu_3x3_reduce
I0403 16:53:47.458400 21554 net.cpp:148] Top shape: 24 160 14 14 (752640)
I0403 16:53:47.458415 21554 net.cpp:156] Memory required for data: 1224087072
I0403 16:53:47.458430 21554 layer_factory.hpp:77] Creating layer inception_4e/3x3
I0403 16:53:47.458451 21554 net.cpp:91] Creating Layer inception_4e/3x3
I0403 16:53:47.458469 21554 net.cpp:425] inception_4e/3x3 <- inception_4e/3x3_reduce
I0403 16:53:47.458492 21554 net.cpp:399] inception_4e/3x3 -> inception_4e/3x3
I0403 16:53:47.463719 21554 net.cpp:141] Setting up inception_4e/3x3
I0403 16:53:47.463763 21554 net.cpp:148] Top shape: 24 320 14 14 (1505280)
I0403 16:53:47.463780 21554 net.cpp:156] Memory required for data: 1230108192
I0403 16:53:47.463798 21554 layer_factory.hpp:77] Creating layer inception_4e/relu_3x3
I0403 16:53:47.463831 21554 net.cpp:91] Creating Layer inception_4e/relu_3x3
I0403 16:53:47.463848 21554 net.cpp:425] inception_4e/relu_3x3 <- inception_4e/3x3
I0403 16:53:47.463866 21554 net.cpp:386] inception_4e/relu_3x3 -> inception_4e/3x3 (in-place)
I0403 16:53:47.464171 21554 net.cpp:141] Setting up inception_4e/relu_3x3
I0403 16:53:47.464197 21554 net.cpp:148] Top shape: 24 320 14 14 (1505280)
I0403 16:53:47.464212 21554 net.cpp:156] Memory required for data: 1236129312
I0403 16:53:47.464228 21554 layer_factory.hpp:77] Creating layer inception_4e/5x5_reduce
I0403 16:53:47.464252 21554 net.cpp:91] Creating Layer inception_4e/5x5_reduce
I0403 16:53:47.464269 21554 net.cpp:425] inception_4e/5x5_reduce <- inception_4d/output_inception_4d/output_0_split_3
I0403 16:53:47.464293 21554 net.cpp:399] inception_4e/5x5_reduce -> inception_4e/5x5_reduce
I0403 16:53:47.465370 21554 net.cpp:141] Setting up inception_4e/5x5_reduce
I0403 16:53:47.465400 21554 net.cpp:148] Top shape: 24 32 14 14 (150528)
I0403 16:53:47.465416 21554 net.cpp:156] Memory required for data: 1236731424
I0403 16:53:47.465435 21554 layer_factory.hpp:77] Creating layer inception_4e/relu_5x5_reduce
I0403 16:53:47.465451 21554 net.cpp:91] Creating Layer inception_4e/relu_5x5_reduce
I0403 16:53:47.465467 21554 net.cpp:425] inception_4e/relu_5x5_reduce <- inception_4e/5x5_reduce
I0403 16:53:47.465487 21554 net.cpp:386] inception_4e/relu_5x5_reduce -> inception_4e/5x5_reduce (in-place)
I0403 16:53:47.465790 21554 net.cpp:141] Setting up inception_4e/relu_5x5_reduce
I0403 16:53:47.465818 21554 net.cpp:148] Top shape: 24 32 14 14 (150528)
I0403 16:53:47.465834 21554 net.cpp:156] Memory required for data: 1237333536
I0403 16:53:47.465850 21554 layer_factory.hpp:77] Creating layer inception_4e/5x5
I0403 16:53:47.465889 21554 net.cpp:91] Creating Layer inception_4e/5x5
I0403 16:53:47.465909 21554 net.cpp:425] inception_4e/5x5 <- inception_4e/5x5_reduce
I0403 16:53:47.465929 21554 net.cpp:399] inception_4e/5x5 -> inception_4e/5x5
I0403 16:53:47.467825 21554 net.cpp:141] Setting up inception_4e/5x5
I0403 16:53:47.467855 21554 net.cpp:148] Top shape: 24 128 14 14 (602112)
I0403 16:53:47.467872 21554 net.cpp:156] Memory required for data: 1239741984
I0403 16:53:47.467891 21554 layer_factory.hpp:77] Creating layer inception_4e/relu_5x5
I0403 16:53:47.467910 21554 net.cpp:91] Creating Layer inception_4e/relu_5x5
I0403 16:53:47.467926 21554 net.cpp:425] inception_4e/relu_5x5 <- inception_4e/5x5
I0403 16:53:47.467946 21554 net.cpp:386] inception_4e/relu_5x5 -> inception_4e/5x5 (in-place)
I0403 16:53:47.468149 21554 net.cpp:141] Setting up inception_4e/relu_5x5
I0403 16:53:47.468174 21554 net.cpp:148] Top shape: 24 128 14 14 (602112)
I0403 16:53:47.468189 21554 net.cpp:156] Memory required for data: 1242150432
I0403 16:53:47.468202 21554 layer_factory.hpp:77] Creating layer inception_4e/pool
I0403 16:53:47.468220 21554 net.cpp:91] Creating Layer inception_4e/pool
I0403 16:53:47.468236 21554 net.cpp:425] inception_4e/pool <- inception_4d/output_inception_4d/output_0_split_4
I0403 16:53:47.468257 21554 net.cpp:399] inception_4e/pool -> inception_4e/pool
I0403 16:53:47.468329 21554 net.cpp:141] Setting up inception_4e/pool
I0403 16:53:47.468353 21554 net.cpp:148] Top shape: 24 528 14 14 (2483712)
I0403 16:53:47.468367 21554 net.cpp:156] Memory required for data: 1252085280
I0403 16:53:47.468381 21554 layer_factory.hpp:77] Creating layer inception_4e/pool_proj
I0403 16:53:47.468403 21554 net.cpp:91] Creating Layer inception_4e/pool_proj
I0403 16:53:47.468421 21554 net.cpp:425] inception_4e/pool_proj <- inception_4e/pool
I0403 16:53:47.468441 21554 net.cpp:399] inception_4e/pool_proj -> inception_4e/pool_proj
I0403 16:53:47.469961 21554 net.cpp:141] Setting up inception_4e/pool_proj
I0403 16:53:47.469993 21554 net.cpp:148] Top shape: 24 128 14 14 (602112)
I0403 16:53:47.470024 21554 net.cpp:156] Memory required for data: 1254493728
I0403 16:53:47.470044 21554 layer_factory.hpp:77] Creating layer inception_4e/relu_pool_proj
I0403 16:53:47.470064 21554 net.cpp:91] Creating Layer inception_4e/relu_pool_proj
I0403 16:53:47.470082 21554 net.cpp:425] inception_4e/relu_pool_proj <- inception_4e/pool_proj
I0403 16:53:47.470099 21554 net.cpp:386] inception_4e/relu_pool_proj -> inception_4e/pool_proj (in-place)
I0403 16:53:47.470413 21554 net.cpp:141] Setting up inception_4e/relu_pool_proj
I0403 16:53:47.470440 21554 net.cpp:148] Top shape: 24 128 14 14 (602112)
I0403 16:53:47.470456 21554 net.cpp:156] Memory required for data: 1256902176
I0403 16:53:47.470471 21554 layer_factory.hpp:77] Creating layer inception_4e/output
I0403 16:53:47.470491 21554 net.cpp:91] Creating Layer inception_4e/output
I0403 16:53:47.470509 21554 net.cpp:425] inception_4e/output <- inception_4e/1x1
I0403 16:53:47.470526 21554 net.cpp:425] inception_4e/output <- inception_4e/3x3
I0403 16:53:47.470543 21554 net.cpp:425] inception_4e/output <- inception_4e/5x5
I0403 16:53:47.470561 21554 net.cpp:425] inception_4e/output <- inception_4e/pool_proj
I0403 16:53:47.470577 21554 net.cpp:399] inception_4e/output -> inception_4e/output
I0403 16:53:47.470631 21554 net.cpp:141] Setting up inception_4e/output
I0403 16:53:47.470656 21554 net.cpp:148] Top shape: 24 832 14 14 (3913728)
I0403 16:53:47.470670 21554 net.cpp:156] Memory required for data: 1272557088
I0403 16:53:47.470685 21554 layer_factory.hpp:77] Creating layer pool4/3x3_s2
I0403 16:53:47.470705 21554 net.cpp:91] Creating Layer pool4/3x3_s2
I0403 16:53:47.470721 21554 net.cpp:425] pool4/3x3_s2 <- inception_4e/output
I0403 16:53:47.470741 21554 net.cpp:399] pool4/3x3_s2 -> pool4/3x3_s2
I0403 16:53:47.470814 21554 net.cpp:141] Setting up pool4/3x3_s2
I0403 16:53:47.470839 21554 net.cpp:148] Top shape: 24 832 7 7 (978432)
I0403 16:53:47.470854 21554 net.cpp:156] Memory required for data: 1276470816
I0403 16:53:47.470868 21554 layer_factory.hpp:77] Creating layer pool4/3x3_s2_pool4/3x3_s2_0_split
I0403 16:53:47.470885 21554 net.cpp:91] Creating Layer pool4/3x3_s2_pool4/3x3_s2_0_split
I0403 16:53:47.470902 21554 net.cpp:425] pool4/3x3_s2_pool4/3x3_s2_0_split <- pool4/3x3_s2
I0403 16:53:47.470923 21554 net.cpp:399] pool4/3x3_s2_pool4/3x3_s2_0_split -> pool4/3x3_s2_pool4/3x3_s2_0_split_0
I0403 16:53:47.470947 21554 net.cpp:399] pool4/3x3_s2_pool4/3x3_s2_0_split -> pool4/3x3_s2_pool4/3x3_s2_0_split_1
I0403 16:53:47.470968 21554 net.cpp:399] pool4/3x3_s2_pool4/3x3_s2_0_split -> pool4/3x3_s2_pool4/3x3_s2_0_split_2
I0403 16:53:47.470993 21554 net.cpp:399] pool4/3x3_s2_pool4/3x3_s2_0_split -> pool4/3x3_s2_pool4/3x3_s2_0_split_3
I0403 16:53:47.471087 21554 net.cpp:141] Setting up pool4/3x3_s2_pool4/3x3_s2_0_split
I0403 16:53:47.471114 21554 net.cpp:148] Top shape: 24 832 7 7 (978432)
I0403 16:53:47.471132 21554 net.cpp:148] Top shape: 24 832 7 7 (978432)
I0403 16:53:47.471148 21554 net.cpp:148] Top shape: 24 832 7 7 (978432)
I0403 16:53:47.471163 21554 net.cpp:148] Top shape: 24 832 7 7 (978432)
I0403 16:53:47.471177 21554 net.cpp:156] Memory required for data: 1292125728
I0403 16:53:47.471192 21554 layer_factory.hpp:77] Creating layer inception_5a/1x1
I0403 16:53:47.471218 21554 net.cpp:91] Creating Layer inception_5a/1x1
I0403 16:53:47.471236 21554 net.cpp:425] inception_5a/1x1 <- pool4/3x3_s2_pool4/3x3_s2_0_split_0
I0403 16:53:47.471256 21554 net.cpp:399] inception_5a/1x1 -> inception_5a/1x1
I0403 16:53:47.474222 21554 net.cpp:141] Setting up inception_5a/1x1
I0403 16:53:47.474253 21554 net.cpp:148] Top shape: 24 256 7 7 (301056)
I0403 16:53:47.474268 21554 net.cpp:156] Memory required for data: 1293329952
I0403 16:53:47.474287 21554 layer_factory.hpp:77] Creating layer inception_5a/relu_1x1
I0403 16:53:47.474304 21554 net.cpp:91] Creating Layer inception_5a/relu_1x1
I0403 16:53:47.474320 21554 net.cpp:425] inception_5a/relu_1x1 <- inception_5a/1x1
I0403 16:53:47.474339 21554 net.cpp:386] inception_5a/relu_1x1 -> inception_5a/1x1 (in-place)
I0403 16:53:47.474652 21554 net.cpp:141] Setting up inception_5a/relu_1x1
I0403 16:53:47.474681 21554 net.cpp:148] Top shape: 24 256 7 7 (301056)
I0403 16:53:47.474695 21554 net.cpp:156] Memory required for data: 1294534176
I0403 16:53:47.474710 21554 layer_factory.hpp:77] Creating layer inception_5a/3x3_reduce
I0403 16:53:47.474731 21554 net.cpp:91] Creating Layer inception_5a/3x3_reduce
I0403 16:53:47.474748 21554 net.cpp:425] inception_5a/3x3_reduce <- pool4/3x3_s2_pool4/3x3_s2_0_split_1
I0403 16:53:47.474771 21554 net.cpp:399] inception_5a/3x3_reduce -> inception_5a/3x3_reduce
I0403 16:53:47.477197 21554 net.cpp:141] Setting up inception_5a/3x3_reduce
I0403 16:53:47.477226 21554 net.cpp:148] Top shape: 24 160 7 7 (188160)
I0403 16:53:47.477241 21554 net.cpp:156] Memory required for data: 1295286816
I0403 16:53:47.477259 21554 layer_factory.hpp:77] Creating layer inception_5a/relu_3x3_reduce
I0403 16:53:47.477279 21554 net.cpp:91] Creating Layer inception_5a/relu_3x3_reduce
I0403 16:53:47.477296 21554 net.cpp:425] inception_5a/relu_3x3_reduce <- inception_5a/3x3_reduce
I0403 16:53:47.477314 21554 net.cpp:386] inception_5a/relu_3x3_reduce -> inception_5a/3x3_reduce (in-place)
I0403 16:53:47.477511 21554 net.cpp:141] Setting up inception_5a/relu_3x3_reduce
I0403 16:53:47.477537 21554 net.cpp:148] Top shape: 24 160 7 7 (188160)
I0403 16:53:47.477552 21554 net.cpp:156] Memory required for data: 1296039456
I0403 16:53:47.477566 21554 layer_factory.hpp:77] Creating layer inception_5a/3x3
I0403 16:53:47.477588 21554 net.cpp:91] Creating Layer inception_5a/3x3
I0403 16:53:47.477605 21554 net.cpp:425] inception_5a/3x3 <- inception_5a/3x3_reduce
I0403 16:53:47.477624 21554 net.cpp:399] inception_5a/3x3 -> inception_5a/3x3
I0403 16:53:47.482580 21554 net.cpp:141] Setting up inception_5a/3x3
I0403 16:53:47.482611 21554 net.cpp:148] Top shape: 24 320 7 7 (376320)
I0403 16:53:47.482627 21554 net.cpp:156] Memory required for data: 1297544736
I0403 16:53:47.482645 21554 layer_factory.hpp:77] Creating layer inception_5a/relu_3x3
I0403 16:53:47.482662 21554 net.cpp:91] Creating Layer inception_5a/relu_3x3
I0403 16:53:47.482678 21554 net.cpp:425] inception_5a/relu_3x3 <- inception_5a/3x3
I0403 16:53:47.482697 21554 net.cpp:386] inception_5a/relu_3x3 -> inception_5a/3x3 (in-place)
I0403 16:53:47.482990 21554 net.cpp:141] Setting up inception_5a/relu_3x3
I0403 16:53:47.483017 21554 net.cpp:148] Top shape: 24 320 7 7 (376320)
I0403 16:53:47.483032 21554 net.cpp:156] Memory required for data: 1299050016
I0403 16:53:47.483047 21554 layer_factory.hpp:77] Creating layer inception_5a/5x5_reduce
I0403 16:53:47.483069 21554 net.cpp:91] Creating Layer inception_5a/5x5_reduce
I0403 16:53:47.483086 21554 net.cpp:425] inception_5a/5x5_reduce <- pool4/3x3_s2_pool4/3x3_s2_0_split_2
I0403 16:53:47.483105 21554 net.cpp:399] inception_5a/5x5_reduce -> inception_5a/5x5_reduce
I0403 16:53:47.484264 21554 net.cpp:141] Setting up inception_5a/5x5_reduce
I0403 16:53:47.484294 21554 net.cpp:148] Top shape: 24 32 7 7 (37632)
I0403 16:53:47.484311 21554 net.cpp:156] Memory required for data: 1299200544
I0403 16:53:47.484329 21554 layer_factory.hpp:77] Creating layer inception_5a/relu_5x5_reduce
I0403 16:53:47.484347 21554 net.cpp:91] Creating Layer inception_5a/relu_5x5_reduce
I0403 16:53:47.484364 21554 net.cpp:425] inception_5a/relu_5x5_reduce <- inception_5a/5x5_reduce
I0403 16:53:47.484382 21554 net.cpp:386] inception_5a/relu_5x5_reduce -> inception_5a/5x5_reduce (in-place)
I0403 16:53:47.484695 21554 net.cpp:141] Setting up inception_5a/relu_5x5_reduce
I0403 16:53:47.484720 21554 net.cpp:148] Top shape: 24 32 7 7 (37632)
I0403 16:53:47.484735 21554 net.cpp:156] Memory required for data: 1299351072
I0403 16:53:47.484748 21554 layer_factory.hpp:77] Creating layer inception_5a/5x5
I0403 16:53:47.484771 21554 net.cpp:91] Creating Layer inception_5a/5x5
I0403 16:53:47.484787 21554 net.cpp:425] inception_5a/5x5 <- inception_5a/5x5_reduce
I0403 16:53:47.484808 21554 net.cpp:399] inception_5a/5x5 -> inception_5a/5x5
I0403 16:53:47.486510 21554 net.cpp:141] Setting up inception_5a/5x5
I0403 16:53:47.486552 21554 net.cpp:148] Top shape: 24 128 7 7 (150528)
I0403 16:53:47.486567 21554 net.cpp:156] Memory required for data: 1299953184
I0403 16:53:47.486585 21554 layer_factory.hpp:77] Creating layer inception_5a/relu_5x5
I0403 16:53:47.486603 21554 net.cpp:91] Creating Layer inception_5a/relu_5x5
I0403 16:53:47.486618 21554 net.cpp:425] inception_5a/relu_5x5 <- inception_5a/5x5
I0403 16:53:47.486637 21554 net.cpp:386] inception_5a/relu_5x5 -> inception_5a/5x5 (in-place)
I0403 16:53:47.486824 21554 net.cpp:141] Setting up inception_5a/relu_5x5
I0403 16:53:47.486847 21554 net.cpp:148] Top shape: 24 128 7 7 (150528)
I0403 16:53:47.486861 21554 net.cpp:156] Memory required for data: 1300555296
I0403 16:53:47.486876 21554 layer_factory.hpp:77] Creating layer inception_5a/pool
I0403 16:53:47.486892 21554 net.cpp:91] Creating Layer inception_5a/pool
I0403 16:53:47.486907 21554 net.cpp:425] inception_5a/pool <- pool4/3x3_s2_pool4/3x3_s2_0_split_3
I0403 16:53:47.486927 21554 net.cpp:399] inception_5a/pool -> inception_5a/pool
I0403 16:53:47.487001 21554 net.cpp:141] Setting up inception_5a/pool
I0403 16:53:47.487025 21554 net.cpp:148] Top shape: 24 832 7 7 (978432)
I0403 16:53:47.487038 21554 net.cpp:156] Memory required for data: 1304469024
I0403 16:53:47.487064 21554 layer_factory.hpp:77] Creating layer inception_5a/pool_proj
I0403 16:53:47.487090 21554 net.cpp:91] Creating Layer inception_5a/pool_proj
I0403 16:53:47.487108 21554 net.cpp:425] inception_5a/pool_proj <- inception_5a/pool
I0403 16:53:47.487126 21554 net.cpp:399] inception_5a/pool_proj -> inception_5a/pool_proj
I0403 16:53:47.489475 21554 net.cpp:141] Setting up inception_5a/pool_proj
I0403 16:53:47.489506 21554 net.cpp:148] Top shape: 24 128 7 7 (150528)
I0403 16:53:47.489521 21554 net.cpp:156] Memory required for data: 1305071136
I0403 16:53:47.489539 21554 layer_factory.hpp:77] Creating layer inception_5a/relu_pool_proj
I0403 16:53:47.489557 21554 net.cpp:91] Creating Layer inception_5a/relu_pool_proj
I0403 16:53:47.489573 21554 net.cpp:425] inception_5a/relu_pool_proj <- inception_5a/pool_proj
I0403 16:53:47.489590 21554 net.cpp:386] inception_5a/relu_pool_proj -> inception_5a/pool_proj (in-place)
I0403 16:53:47.489882 21554 net.cpp:141] Setting up inception_5a/relu_pool_proj
I0403 16:53:47.489910 21554 net.cpp:148] Top shape: 24 128 7 7 (150528)
I0403 16:53:47.489925 21554 net.cpp:156] Memory required for data: 1305673248
I0403 16:53:47.489939 21554 layer_factory.hpp:77] Creating layer inception_5a/output
I0403 16:53:47.489956 21554 net.cpp:91] Creating Layer inception_5a/output
I0403 16:53:47.489972 21554 net.cpp:425] inception_5a/output <- inception_5a/1x1
I0403 16:53:47.489992 21554 net.cpp:425] inception_5a/output <- inception_5a/3x3
I0403 16:53:47.490010 21554 net.cpp:425] inception_5a/output <- inception_5a/5x5
I0403 16:53:47.490025 21554 net.cpp:425] inception_5a/output <- inception_5a/pool_proj
I0403 16:53:47.490042 21554 net.cpp:399] inception_5a/output -> inception_5a/output
I0403 16:53:47.490093 21554 net.cpp:141] Setting up inception_5a/output
I0403 16:53:47.490115 21554 net.cpp:148] Top shape: 24 832 7 7 (978432)
I0403 16:53:47.490129 21554 net.cpp:156] Memory required for data: 1309586976
I0403 16:53:47.490144 21554 layer_factory.hpp:77] Creating layer inception_5a/output_inception_5a/output_0_split
I0403 16:53:47.490160 21554 net.cpp:91] Creating Layer inception_5a/output_inception_5a/output_0_split
I0403 16:53:47.490180 21554 net.cpp:425] inception_5a/output_inception_5a/output_0_split <- inception_5a/output
I0403 16:53:47.490197 21554 net.cpp:399] inception_5a/output_inception_5a/output_0_split -> inception_5a/output_inception_5a/output_0_split_0
I0403 16:53:47.490216 21554 net.cpp:399] inception_5a/output_inception_5a/output_0_split -> inception_5a/output_inception_5a/output_0_split_1
I0403 16:53:47.490236 21554 net.cpp:399] inception_5a/output_inception_5a/output_0_split -> inception_5a/output_inception_5a/output_0_split_2
I0403 16:53:47.490257 21554 net.cpp:399] inception_5a/output_inception_5a/output_0_split -> inception_5a/output_inception_5a/output_0_split_3
I0403 16:53:47.490367 21554 net.cpp:141] Setting up inception_5a/output_inception_5a/output_0_split
I0403 16:53:47.490391 21554 net.cpp:148] Top shape: 24 832 7 7 (978432)
I0403 16:53:47.490406 21554 net.cpp:148] Top shape: 24 832 7 7 (978432)
I0403 16:53:47.490422 21554 net.cpp:148] Top shape: 24 832 7 7 (978432)
I0403 16:53:47.490437 21554 net.cpp:148] Top shape: 24 832 7 7 (978432)
I0403 16:53:47.490448 21554 net.cpp:156] Memory required for data: 1325241888
I0403 16:53:47.490463 21554 layer_factory.hpp:77] Creating layer inception_5b/1x1
I0403 16:53:47.490484 21554 net.cpp:91] Creating Layer inception_5b/1x1
I0403 16:53:47.490502 21554 net.cpp:425] inception_5b/1x1 <- inception_5a/output_inception_5a/output_0_split_0
I0403 16:53:47.490522 21554 net.cpp:399] inception_5b/1x1 -> inception_5b/1x1
I0403 16:53:47.494240 21554 net.cpp:141] Setting up inception_5b/1x1
I0403 16:53:47.494267 21554 net.cpp:148] Top shape: 24 384 7 7 (451584)
I0403 16:53:47.494282 21554 net.cpp:156] Memory required for data: 1327048224
I0403 16:53:47.494300 21554 layer_factory.hpp:77] Creating layer inception_5b/relu_1x1
I0403 16:53:47.494320 21554 net.cpp:91] Creating Layer inception_5b/relu_1x1
I0403 16:53:47.494338 21554 net.cpp:425] inception_5b/relu_1x1 <- inception_5b/1x1
I0403 16:53:47.494354 21554 net.cpp:386] inception_5b/relu_1x1 -> inception_5b/1x1 (in-place)
I0403 16:53:47.494657 21554 net.cpp:141] Setting up inception_5b/relu_1x1
I0403 16:53:47.494683 21554 net.cpp:148] Top shape: 24 384 7 7 (451584)
I0403 16:53:47.494696 21554 net.cpp:156] Memory required for data: 1328854560
I0403 16:53:47.494711 21554 layer_factory.hpp:77] Creating layer inception_5b/3x3_reduce
I0403 16:53:47.494732 21554 net.cpp:91] Creating Layer inception_5b/3x3_reduce
I0403 16:53:47.494750 21554 net.cpp:425] inception_5b/3x3_reduce <- inception_5a/output_inception_5a/output_0_split_1
I0403 16:53:47.494772 21554 net.cpp:399] inception_5b/3x3_reduce -> inception_5b/3x3_reduce
I0403 16:53:47.497479 21554 net.cpp:141] Setting up inception_5b/3x3_reduce
I0403 16:53:47.497508 21554 net.cpp:148] Top shape: 24 192 7 7 (225792)
I0403 16:53:47.497525 21554 net.cpp:156] Memory required for data: 1329757728
I0403 16:53:47.497544 21554 layer_factory.hpp:77] Creating layer inception_5b/relu_3x3_reduce
I0403 16:53:47.497560 21554 net.cpp:91] Creating Layer inception_5b/relu_3x3_reduce
I0403 16:53:47.497576 21554 net.cpp:425] inception_5b/relu_3x3_reduce <- inception_5b/3x3_reduce
I0403 16:53:47.497593 21554 net.cpp:386] inception_5b/relu_3x3_reduce -> inception_5b/3x3_reduce (in-place)
I0403 16:53:47.497781 21554 net.cpp:141] Setting up inception_5b/relu_3x3_reduce
I0403 16:53:47.497807 21554 net.cpp:148] Top shape: 24 192 7 7 (225792)
I0403 16:53:47.497822 21554 net.cpp:156] Memory required for data: 1330660896
I0403 16:53:47.497836 21554 layer_factory.hpp:77] Creating layer inception_5b/3x3
I0403 16:53:47.497858 21554 net.cpp:91] Creating Layer inception_5b/3x3
I0403 16:53:47.497874 21554 net.cpp:425] inception_5b/3x3 <- inception_5b/3x3_reduce
I0403 16:53:47.497894 21554 net.cpp:399] inception_5b/3x3 -> inception_5b/3x3
I0403 16:53:47.504514 21554 net.cpp:141] Setting up inception_5b/3x3
I0403 16:53:47.504544 21554 net.cpp:148] Top shape: 24 384 7 7 (451584)
I0403 16:53:47.504561 21554 net.cpp:156] Memory required for data: 1332467232
I0403 16:53:47.504580 21554 layer_factory.hpp:77] Creating layer inception_5b/relu_3x3
I0403 16:53:47.504597 21554 net.cpp:91] Creating Layer inception_5b/relu_3x3
I0403 16:53:47.504613 21554 net.cpp:425] inception_5b/relu_3x3 <- inception_5b/3x3
I0403 16:53:47.504629 21554 net.cpp:386] inception_5b/relu_3x3 -> inception_5b/3x3 (in-place)
I0403 16:53:47.504928 21554 net.cpp:141] Setting up inception_5b/relu_3x3
I0403 16:53:47.504956 21554 net.cpp:148] Top shape: 24 384 7 7 (451584)
I0403 16:53:47.504971 21554 net.cpp:156] Memory required for data: 1334273568
I0403 16:53:47.505000 21554 layer_factory.hpp:77] Creating layer inception_5b/5x5_reduce
I0403 16:53:47.505039 21554 net.cpp:91] Creating Layer inception_5b/5x5_reduce
I0403 16:53:47.505071 21554 net.cpp:425] inception_5b/5x5_reduce <- inception_5a/output_inception_5a/output_0_split_2
I0403 16:53:47.505091 21554 net.cpp:399] inception_5b/5x5_reduce -> inception_5b/5x5_reduce
I0403 16:53:47.506438 21554 net.cpp:141] Setting up inception_5b/5x5_reduce
I0403 16:53:47.506466 21554 net.cpp:148] Top shape: 24 48 7 7 (56448)
I0403 16:53:47.506482 21554 net.cpp:156] Memory required for data: 1334499360
I0403 16:53:47.506501 21554 layer_factory.hpp:77] Creating layer inception_5b/relu_5x5_reduce
I0403 16:53:47.506523 21554 net.cpp:91] Creating Layer inception_5b/relu_5x5_reduce
I0403 16:53:47.506541 21554 net.cpp:425] inception_5b/relu_5x5_reduce <- inception_5b/5x5_reduce
I0403 16:53:47.506558 21554 net.cpp:386] inception_5b/relu_5x5_reduce -> inception_5b/5x5_reduce (in-place)
I0403 16:53:47.506934 21554 net.cpp:141] Setting up inception_5b/relu_5x5_reduce
I0403 16:53:47.506961 21554 net.cpp:148] Top shape: 24 48 7 7 (56448)
I0403 16:53:47.506976 21554 net.cpp:156] Memory required for data: 1334725152
I0403 16:53:47.507010 21554 layer_factory.hpp:77] Creating layer inception_5b/5x5
I0403 16:53:47.507031 21554 net.cpp:91] Creating Layer inception_5b/5x5
I0403 16:53:47.507061 21554 net.cpp:425] inception_5b/5x5 <- inception_5b/5x5_reduce
I0403 16:53:47.507081 21554 net.cpp:399] inception_5b/5x5 -> inception_5b/5x5
I0403 16:53:47.509284 21554 net.cpp:141] Setting up inception_5b/5x5
I0403 16:53:47.509316 21554 net.cpp:148] Top shape: 24 128 7 7 (150528)
I0403 16:53:47.509333 21554 net.cpp:156] Memory required for data: 1335327264
I0403 16:53:47.509353 21554 layer_factory.hpp:77] Creating layer inception_5b/relu_5x5
I0403 16:53:47.509372 21554 net.cpp:91] Creating Layer inception_5b/relu_5x5
I0403 16:53:47.509390 21554 net.cpp:425] inception_5b/relu_5x5 <- inception_5b/5x5
I0403 16:53:47.509412 21554 net.cpp:386] inception_5b/relu_5x5 -> inception_5b/5x5 (in-place)
I0403 16:53:47.509630 21554 net.cpp:141] Setting up inception_5b/relu_5x5
I0403 16:53:47.509655 21554 net.cpp:148] Top shape: 24 128 7 7 (150528)
I0403 16:53:47.509670 21554 net.cpp:156] Memory required for data: 1335929376
I0403 16:53:47.509685 21554 layer_factory.hpp:77] Creating layer inception_5b/pool
I0403 16:53:47.509703 21554 net.cpp:91] Creating Layer inception_5b/pool
I0403 16:53:47.509723 21554 net.cpp:425] inception_5b/pool <- inception_5a/output_inception_5a/output_0_split_3
I0403 16:53:47.509742 21554 net.cpp:399] inception_5b/pool -> inception_5b/pool
I0403 16:53:47.509817 21554 net.cpp:141] Setting up inception_5b/pool
I0403 16:53:47.509842 21554 net.cpp:148] Top shape: 24 832 7 7 (978432)
I0403 16:53:47.509856 21554 net.cpp:156] Memory required for data: 1339843104
I0403 16:53:47.509871 21554 layer_factory.hpp:77] Creating layer inception_5b/pool_proj
I0403 16:53:47.509894 21554 net.cpp:91] Creating Layer inception_5b/pool_proj
I0403 16:53:47.509912 21554 net.cpp:425] inception_5b/pool_proj <- inception_5b/pool
I0403 16:53:47.509934 21554 net.cpp:399] inception_5b/pool_proj -> inception_5b/pool_proj
I0403 16:53:47.512325 21554 net.cpp:141] Setting up inception_5b/pool_proj
I0403 16:53:47.512354 21554 net.cpp:148] Top shape: 24 128 7 7 (150528)
I0403 16:53:47.512370 21554 net.cpp:156] Memory required for data: 1340445216
I0403 16:53:47.512392 21554 layer_factory.hpp:77] Creating layer inception_5b/relu_pool_proj
I0403 16:53:47.512410 21554 net.cpp:91] Creating Layer inception_5b/relu_pool_proj
I0403 16:53:47.512428 21554 net.cpp:425] inception_5b/relu_pool_proj <- inception_5b/pool_proj
I0403 16:53:47.512446 21554 net.cpp:386] inception_5b/relu_pool_proj -> inception_5b/pool_proj (in-place)
I0403 16:53:47.512755 21554 net.cpp:141] Setting up inception_5b/relu_pool_proj
I0403 16:53:47.512784 21554 net.cpp:148] Top shape: 24 128 7 7 (150528)
I0403 16:53:47.512801 21554 net.cpp:156] Memory required for data: 1341047328
I0403 16:53:47.512815 21554 layer_factory.hpp:77] Creating layer inception_5b/output
I0403 16:53:47.512835 21554 net.cpp:91] Creating Layer inception_5b/output
I0403 16:53:47.512866 21554 net.cpp:425] inception_5b/output <- inception_5b/1x1
I0403 16:53:47.512884 21554 net.cpp:425] inception_5b/output <- inception_5b/3x3
I0403 16:53:47.512902 21554 net.cpp:425] inception_5b/output <- inception_5b/5x5
I0403 16:53:47.512917 21554 net.cpp:425] inception_5b/output <- inception_5b/pool_proj
I0403 16:53:47.512935 21554 net.cpp:399] inception_5b/output -> inception_5b/output
I0403 16:53:47.512995 21554 net.cpp:141] Setting up inception_5b/output
I0403 16:53:47.513020 21554 net.cpp:148] Top shape: 24 1024 7 7 (1204224)
I0403 16:53:47.513036 21554 net.cpp:156] Memory required for data: 1345864224
I0403 16:53:47.513051 21554 layer_factory.hpp:77] Creating layer pool5/7x7_s1
I0403 16:53:47.513072 21554 net.cpp:91] Creating Layer pool5/7x7_s1
I0403 16:53:47.513089 21554 net.cpp:425] pool5/7x7_s1 <- inception_5b/output
I0403 16:53:47.513108 21554 net.cpp:399] pool5/7x7_s1 -> pool5/7x7_s1
I0403 16:53:47.513346 21554 net.cpp:141] Setting up pool5/7x7_s1
I0403 16:53:47.513376 21554 net.cpp:148] Top shape: 24 1024 1 1 (24576)
I0403 16:53:47.513392 21554 net.cpp:156] Memory required for data: 1345962528
I0403 16:53:47.513407 21554 layer_factory.hpp:77] Creating layer pool5/drop_7x7_s1
I0403 16:53:47.513425 21554 net.cpp:91] Creating Layer pool5/drop_7x7_s1
I0403 16:53:47.513442 21554 net.cpp:425] pool5/drop_7x7_s1 <- pool5/7x7_s1
I0403 16:53:47.513463 21554 net.cpp:386] pool5/drop_7x7_s1 -> pool5/7x7_s1 (in-place)
I0403 16:53:47.513517 21554 net.cpp:141] Setting up pool5/drop_7x7_s1
I0403 16:53:47.513555 21554 net.cpp:148] Top shape: 24 1024 1 1 (24576)
I0403 16:53:47.513569 21554 net.cpp:156] Memory required for data: 1346060832
I0403 16:53:47.513584 21554 layer_factory.hpp:77] Creating layer loss3/classifier_plantvillage
I0403 16:53:47.513607 21554 net.cpp:91] Creating Layer loss3/classifier_plantvillage
I0403 16:53:47.513624 21554 net.cpp:425] loss3/classifier_plantvillage <- pool5/7x7_s1
I0403 16:53:47.513648 21554 net.cpp:399] loss3/classifier_plantvillage -> loss3/classifier_plantvillage
I0403 16:53:47.514096 21554 net.cpp:141] Setting up loss3/classifier_plantvillage
I0403 16:53:47.514122 21554 net.cpp:148] Top shape: 24 38 (912)
I0403 16:53:47.514137 21554 net.cpp:156] Memory required for data: 1346064480
I0403 16:53:47.514154 21554 layer_factory.hpp:77] Creating layer loss3/classifier_plantvillage_loss3/classifier_plantvillage_0_split
I0403 16:53:47.514176 21554 net.cpp:91] Creating Layer loss3/classifier_plantvillage_loss3/classifier_plantvillage_0_split
I0403 16:53:47.514194 21554 net.cpp:425] loss3/classifier_plantvillage_loss3/classifier_plantvillage_0_split <- loss3/classifier_plantvillage
I0403 16:53:47.514212 21554 net.cpp:399] loss3/classifier_plantvillage_loss3/classifier_plantvillage_0_split -> loss3/classifier_plantvillage_loss3/classifier_plantvillage_0_split_0
I0403 16:53:47.514233 21554 net.cpp:399] loss3/classifier_plantvillage_loss3/classifier_plantvillage_0_split -> loss3/classifier_plantvillage_loss3/classifier_plantvillage_0_split_1
I0403 16:53:47.514256 21554 net.cpp:399] loss3/classifier_plantvillage_loss3/classifier_plantvillage_0_split -> loss3/classifier_plantvillage_loss3/classifier_plantvillage_0_split_2
I0403 16:53:47.514276 21554 net.cpp:399] loss3/classifier_plantvillage_loss3/classifier_plantvillage_0_split -> loss3/classifier_plantvillage_loss3/classifier_plantvillage_0_split_3
I0403 16:53:47.514381 21554 net.cpp:141] Setting up loss3/classifier_plantvillage_loss3/classifier_plantvillage_0_split
I0403 16:53:47.514405 21554 net.cpp:148] Top shape: 24 38 (912)
I0403 16:53:47.514421 21554 net.cpp:148] Top shape: 24 38 (912)
I0403 16:53:47.514438 21554 net.cpp:148] Top shape: 24 38 (912)
I0403 16:53:47.514453 21554 net.cpp:148] Top shape: 24 38 (912)
I0403 16:53:47.514467 21554 net.cpp:156] Memory required for data: 1346079072
I0403 16:53:47.514482 21554 layer_factory.hpp:77] Creating layer loss1/loss
I0403 16:53:47.514503 21554 net.cpp:91] Creating Layer loss1/loss
I0403 16:53:47.514521 21554 net.cpp:425] loss1/loss <- loss1/classifier_plantvillage_loss1/classifier_plantvillage_0_split_0
I0403 16:53:47.514555 21554 net.cpp:425] loss1/loss <- label_data_1_split_0
…
