…
I0403 12:02:15.249613  8345 net.cpp:313] The NetState phase (1) differed from the phase (0) specified by a rule in layer data
I0403 12:02:15.250550  8345 net.cpp:49] Initializing net from parameters: 
state {
  phase: TEST
}
layer {
  name: "data"
  type: "Data"
  top: "data"
  top: "label"
  include {
    phase: TEST
  }
  transform_param {
    crop_size: 227
    mean_file: "/home/mohanty/data/final_dataset/lmdb/segmented-20-80/mean.binaryproto"
  }
  data_param {
    source: "/home/mohanty/data/final_dataset/lmdb/segmented-20-80/test_db"
    batch_size: 100
    backend: LMDB
  }
}
layer {
  name: "conv1"
  type: "Convolution"
  bottom: "data"
  top: "conv1"
  param {
    lr_mult: 1
    decay_mult: 1
  }
  param {
    lr_mult: 2
    decay_mult: 0
  }
  convolution_param {
    num_output: 96
    kernel_size: 11
    stride: 4
    weight_filler {
      type: "gaussian"
      std: 0.01
    }
    bias_filler {
      type: "constant"
      value: 0
    }
  }
}
layer {
  name: "relu1"
  type: "ReLU"
  bottom: "conv1"
  top: "conv1"
}
layer {
  name: "norm1"
  type: "LRN"
  bottom: "conv1"
  top: "norm1"
  lrn_param {
    local_size: 5
    alpha: 0.0001
    beta: 0.75
  }
}
layer {
  name: "pool1"
  type: "Pooling"
  bottom: "norm1"
  top: "pool1"
  pooling_param {
    pool: MAX
    kernel_size: 3
    stride: 2
  }
}
layer {
  name: "conv2"
  type: "Convolution"
  bottom: "pool1"
  top: "conv2"
  param {
    lr_mult: 1
    decay_mult: 1
  }
  param {
    lr_mult: 2
    decay_mult: 0
  }
  convolution_param {
    num_output: 256
    pad: 2
    kernel_size: 5
    group: 2
    weight_filler {
      type: "gaussian"
      std: 0.01
    }
    bias_filler {
      type: "constant"
      value: 0.1
    }
  }
}
layer {
  name: "relu2"
  type: "ReLU"
  bottom: "conv2"
  top: "conv2"
}
layer {
  name: "norm2"
  type: "LRN"
  bottom: "conv2"
  top: "norm2"
  lrn_param {
    local_size: 5
    alpha: 0.0001
    beta: 0.75
  }
}
layer {
  name: "pool2"
  type: "Pooling"
  bottom: "norm2"
  top: "pool2"
  pooling_param {
    pool: MAX
    kernel_size: 3
    stride: 2
  }
}
layer {
  name: "conv3"
  type: "Convolution"
  bottom: "pool2"
  top: "conv3"
  param {
    lr_mult: 1
    decay_mult: 1
  }
  param {
    lr_mult: 2
    decay_mult: 0
  }
  convolution_param {
    num_output: 384
    pad: 1
    kernel_size: 3
    weight_filler {
      type: "gaussian"
      std: 0.01
    }
    bias_filler {
      type: "constant"
      value: 0
    }
  }
}
layer {
  name: "relu3"
  type: "ReLU"
  bottom: "conv3"
  top: "conv3"
}
layer {
  name: "conv4"
  type: "Convolution"
  bottom: "conv3"
  top: "conv4"
  param {
    lr_mult: 1
    decay_mult: 1
  }
  param {
    lr_mult: 2
    decay_mult: 0
  }
  convolution_param {
    num_output: 384
    pad: 1
    kernel_size: 3
    group: 2
    weight_filler {
      type: "gaussian"
      std: 0.01
    }
    bias_filler {
      type: "constant"
      value: 0.1
    }
  }
}
layer {
  name: "relu4"
  type: "ReLU"
  bottom: "conv4"
  top: "conv4"
}
layer {
  name: "conv5"
  type: "Convolution"
  bottom: "conv4"
  top: "conv5"
  param {
    lr_mult: 1
    decay_mult: 1
  }
  param {
    lr_mult: 2
    decay_mult: 0
  }
  convolution_param {
    num_output: 256
    pad: 1
    kernel_size: 3
    group: 2
    weight_filler {
      type: "gaussian"
      std: 0.01
    }
    bias_filler {
      type: "constant"
      value: 0.1
    }
  }
}
layer {
  name: "relu5"
  type: "ReLU"
  bottom: "conv5"
  top: "conv5"
}
layer {
  name: "pool5"
  type: "Pooling"
  bottom: "conv5"
  top: "pool5"
  pooling_param {
    pool: MAX
    kernel_size: 3
    stride: 2
  }
}
layer {
  name: "fc6"
  type: "InnerProduct"
  bottom: "pool5"
  top: "fc6"
  param {
    lr_mult: 1
    decay_mult: 1
  }
  param {
    lr_mult: 2
    decay_mult: 0
  }
  inner_product_param {
    num_output: 4096
    weight_filler {
      type: "gaussian"
      std: 0.005
    }
    bias_filler {
      type: "constant"
      value: 0.1
    }
  }
}
layer {
  name: "relu6"
  type: "ReLU"
  bottom: "fc6"
  top: "fc6"
}
layer {
  name: "drop6"
  type: "Dropout"
  bottom: "fc6"
  top: "fc6"
  dropout_param {
    dropout_ratio: 0.5
  }
}
layer {
  name: "fc7"
  type: "InnerProduct"
  bottom: "fc6"
  top: "fc7"
  param {
    lr_mult: 1
    decay_mult: 1
  }
  param {
    lr_mult: 2
    decay_mult: 0
  }
  inner_product_param {
    num_output: 4096
    weight_filler {
      type: "gaussian"
      std: 0.005
    }
    bias_filler {
      type: "constant"
      value: 0.1
    }
  }
}
layer {
  name: "relu7"
  type: "ReLU"
  bottom: "fc7"
  top: "fc7"
}
layer {
  name: "drop7"
  type: "Dropout"
  bottom: "fc7"
  top: "fc7"
  dropout_param {
    dropout_ratio: 0.5
  }
}
layer {
  name: "fc8_plantvillage"
  type: "InnerProduct"
  bottom: "fc7"
  top: "fc8_plantvillage"
  param {
    lr_mult: 1
    decay_mult: 1
  }
  param {
    lr_mult: 2
    decay_mult: 0
  }
  inner_product_param {
    num_output: 38
    weight_filler {
      type: "gaussian"
      std: 0.01
    }
    bias_filler {
      type: "constant"
      value: 0
    }
  }
}
layer {
  name: "prob"
  type: "Softmax"
  bottom: "fc8_plantvillage"
  top: "prob"
  include {
    phase: TEST
  }
}
layer {
  name: "hdf5out"
  type: "HDF5Output"
  bottom: "prob"
  bottom: "label"
  include {
    phase: TEST
  }
  hdf5_output_param {
    file_name: "hdf5_dumps/iter_106.h5"
  }
}
layer {
  name: "loss"
  type: "SoftmaxWithLoss"
  bottom: "fc8_plantvillage"
  bottom: "label"
  top: "loss"
}
layer {
  name: "accuracy"
  type: "Accuracy"
  bottom: "fc8_plantvillage"
  bottom: "label"
  top: "accuracy"
  include {
    phase: TEST
  }
}
I0403 12:02:15.251993  8345 layer_factory.hpp:77] Creating layer data
I0403 12:02:15.253765  8345 net.cpp:91] Creating Layer data
I0403 12:02:15.253809  8345 net.cpp:399] data -> data
I0403 12:02:15.253916  8345 net.cpp:399] data -> label
I0403 12:02:15.254010  8345 data_transformer.cpp:25] Loading mean file from: /home/mohanty/data/final_dataset/lmdb/segmented-20-80/mean.binaryproto
I0403 12:02:15.316406  8358 db_lmdb.cpp:38] Opened lmdb /home/mohanty/data/final_dataset/lmdb/segmented-20-80/test_db
I0403 12:02:15.318761  8345 data_layer.cpp:41] output data size: 100,3,227,227
I0403 12:02:15.455045  8345 net.cpp:141] Setting up data
I0403 12:02:15.455108  8345 net.cpp:148] Top shape: 100 3 227 227 (15458700)
I0403 12:02:15.455135  8345 net.cpp:148] Top shape: 100 (100)
I0403 12:02:15.455153  8345 net.cpp:156] Memory required for data: 61835200
I0403 12:02:15.455180  8345 layer_factory.hpp:77] Creating layer label_data_1_split
I0403 12:02:15.455209  8345 net.cpp:91] Creating Layer label_data_1_split
I0403 12:02:15.455229  8345 net.cpp:425] label_data_1_split <- label
I0403 12:02:15.455260  8345 net.cpp:399] label_data_1_split -> label_data_1_split_0
I0403 12:02:15.455291  8345 net.cpp:399] label_data_1_split -> label_data_1_split_1
I0403 12:02:15.455315  8345 net.cpp:399] label_data_1_split -> label_data_1_split_2
I0403 12:02:15.455391  8345 net.cpp:141] Setting up label_data_1_split
I0403 12:02:15.455420  8345 net.cpp:148] Top shape: 100 (100)
I0403 12:02:15.455438  8345 net.cpp:148] Top shape: 100 (100)
I0403 12:02:15.455458  8345 net.cpp:148] Top shape: 100 (100)
I0403 12:02:15.455476  8345 net.cpp:156] Memory required for data: 61836400
I0403 12:02:15.455494  8345 layer_factory.hpp:77] Creating layer conv1
I0403 12:02:15.455528  8345 net.cpp:91] Creating Layer conv1
I0403 12:02:15.455549  8345 net.cpp:425] conv1 <- data
I0403 12:02:15.455577  8345 net.cpp:399] conv1 -> conv1
I0403 12:02:17.677045  8345 net.cpp:141] Setting up conv1
I0403 12:02:17.677114  8345 net.cpp:148] Top shape: 100 96 55 55 (29040000)
I0403 12:02:17.677136  8345 net.cpp:156] Memory required for data: 177996400
I0403 12:02:17.677175  8345 layer_factory.hpp:77] Creating layer relu1
I0403 12:02:17.677222  8345 net.cpp:91] Creating Layer relu1
I0403 12:02:17.677247  8345 net.cpp:425] relu1 <- conv1
I0403 12:02:17.677271  8345 net.cpp:386] relu1 -> conv1 (in-place)
I0403 12:02:17.677577  8345 net.cpp:141] Setting up relu1
I0403 12:02:17.677614  8345 net.cpp:148] Top shape: 100 96 55 55 (29040000)
I0403 12:02:17.677673  8345 net.cpp:156] Memory required for data: 294156400
I0403 12:02:17.677693  8345 layer_factory.hpp:77] Creating layer norm1
I0403 12:02:17.677742  8345 net.cpp:91] Creating Layer norm1
I0403 12:02:17.677767  8345 net.cpp:425] norm1 <- conv1
I0403 12:02:17.677788  8345 net.cpp:399] norm1 -> norm1
I0403 12:02:17.678189  8345 net.cpp:141] Setting up norm1
I0403 12:02:17.678223  8345 net.cpp:148] Top shape: 100 96 55 55 (29040000)
I0403 12:02:17.678242  8345 net.cpp:156] Memory required for data: 410316400
I0403 12:02:17.678261  8345 layer_factory.hpp:77] Creating layer pool1
I0403 12:02:17.678305  8345 net.cpp:91] Creating Layer pool1
I0403 12:02:17.678330  8345 net.cpp:425] pool1 <- norm1
I0403 12:02:17.678351  8345 net.cpp:399] pool1 -> pool1
I0403 12:02:17.678470  8345 net.cpp:141] Setting up pool1
I0403 12:02:17.678500  8345 net.cpp:148] Top shape: 100 96 27 27 (6998400)
I0403 12:02:17.678519  8345 net.cpp:156] Memory required for data: 438310000
I0403 12:02:17.678536  8345 layer_factory.hpp:77] Creating layer conv2
I0403 12:02:17.678567  8345 net.cpp:91] Creating Layer conv2
I0403 12:02:17.678587  8345 net.cpp:425] conv2 <- pool1
I0403 12:02:17.678618  8345 net.cpp:399] conv2 -> conv2
I0403 12:02:17.696702  8345 net.cpp:141] Setting up conv2
I0403 12:02:17.696746  8345 net.cpp:148] Top shape: 100 256 27 27 (18662400)
I0403 12:02:17.696768  8345 net.cpp:156] Memory required for data: 512959600
I0403 12:02:17.696795  8345 layer_factory.hpp:77] Creating layer relu2
I0403 12:02:17.696822  8345 net.cpp:91] Creating Layer relu2
I0403 12:02:17.696842  8345 net.cpp:425] relu2 <- conv2
I0403 12:02:17.696866  8345 net.cpp:386] relu2 -> conv2 (in-place)
I0403 12:02:17.697196  8345 net.cpp:141] Setting up relu2
I0403 12:02:17.697228  8345 net.cpp:148] Top shape: 100 256 27 27 (18662400)
I0403 12:02:17.697247  8345 net.cpp:156] Memory required for data: 587609200
I0403 12:02:17.697265  8345 layer_factory.hpp:77] Creating layer norm2
I0403 12:02:17.697293  8345 net.cpp:91] Creating Layer norm2
I0403 12:02:17.697314  8345 net.cpp:425] norm2 <- conv2
I0403 12:02:17.697338  8345 net.cpp:399] norm2 -> norm2
I0403 12:02:17.697581  8345 net.cpp:141] Setting up norm2
I0403 12:02:17.697618  8345 net.cpp:148] Top shape: 100 256 27 27 (18662400)
I0403 12:02:17.697638  8345 net.cpp:156] Memory required for data: 662258800
I0403 12:02:17.697657  8345 layer_factory.hpp:77] Creating layer pool2
I0403 12:02:17.697679  8345 net.cpp:91] Creating Layer pool2
I0403 12:02:17.697697  8345 net.cpp:425] pool2 <- norm2
I0403 12:02:17.697721  8345 net.cpp:399] pool2 -> pool2
I0403 12:02:17.697785  8345 net.cpp:141] Setting up pool2
I0403 12:02:17.697813  8345 net.cpp:148] Top shape: 100 256 13 13 (4326400)
I0403 12:02:17.697830  8345 net.cpp:156] Memory required for data: 679564400
I0403 12:02:17.697849  8345 layer_factory.hpp:77] Creating layer conv3
I0403 12:02:17.697878  8345 net.cpp:91] Creating Layer conv3
I0403 12:02:17.697899  8345 net.cpp:425] conv3 <- pool2
I0403 12:02:17.697921  8345 net.cpp:399] conv3 -> conv3
I0403 12:02:17.743847  8345 net.cpp:141] Setting up conv3
I0403 12:02:17.743916  8345 net.cpp:148] Top shape: 100 384 13 13 (6489600)
I0403 12:02:17.743935  8345 net.cpp:156] Memory required for data: 705522800
I0403 12:02:17.743964  8345 layer_factory.hpp:77] Creating layer relu3
I0403 12:02:17.743994  8345 net.cpp:91] Creating Layer relu3
I0403 12:02:17.744016  8345 net.cpp:425] relu3 <- conv3
I0403 12:02:17.744038  8345 net.cpp:386] relu3 -> conv3 (in-place)
I0403 12:02:17.744357  8345 net.cpp:141] Setting up relu3
I0403 12:02:17.744390  8345 net.cpp:148] Top shape: 100 384 13 13 (6489600)
I0403 12:02:17.744408  8345 net.cpp:156] Memory required for data: 731481200
I0403 12:02:17.744427  8345 layer_factory.hpp:77] Creating layer conv4
I0403 12:02:17.744457  8345 net.cpp:91] Creating Layer conv4
I0403 12:02:17.744478  8345 net.cpp:425] conv4 <- conv3
I0403 12:02:17.744504  8345 net.cpp:399] conv4 -> conv4
I0403 12:02:17.779966  8345 net.cpp:141] Setting up conv4
I0403 12:02:17.780025  8345 net.cpp:148] Top shape: 100 384 13 13 (6489600)
I0403 12:02:17.780081  8345 net.cpp:156] Memory required for data: 757439600
I0403 12:02:17.780107  8345 layer_factory.hpp:77] Creating layer relu4
I0403 12:02:17.780133  8345 net.cpp:91] Creating Layer relu4
I0403 12:02:17.780153  8345 net.cpp:425] relu4 <- conv4
I0403 12:02:17.780177  8345 net.cpp:386] relu4 -> conv4 (in-place)
I0403 12:02:17.780503  8345 net.cpp:141] Setting up relu4
I0403 12:02:17.780539  8345 net.cpp:148] Top shape: 100 384 13 13 (6489600)
I0403 12:02:17.780558  8345 net.cpp:156] Memory required for data: 783398000
I0403 12:02:17.780576  8345 layer_factory.hpp:77] Creating layer conv5
I0403 12:02:17.780611  8345 net.cpp:91] Creating Layer conv5
I0403 12:02:17.780634  8345 net.cpp:425] conv5 <- conv4
I0403 12:02:17.780661  8345 net.cpp:399] conv5 -> conv5
I0403 12:02:17.804924  8345 net.cpp:141] Setting up conv5
I0403 12:02:17.804961  8345 net.cpp:148] Top shape: 100 256 13 13 (4326400)
I0403 12:02:17.804981  8345 net.cpp:156] Memory required for data: 800703600
I0403 12:02:17.805009  8345 layer_factory.hpp:77] Creating layer relu5
I0403 12:02:17.805032  8345 net.cpp:91] Creating Layer relu5
I0403 12:02:17.805053  8345 net.cpp:425] relu5 <- conv5
I0403 12:02:17.805076  8345 net.cpp:386] relu5 -> conv5 (in-place)
I0403 12:02:17.805404  8345 net.cpp:141] Setting up relu5
I0403 12:02:17.805436  8345 net.cpp:148] Top shape: 100 256 13 13 (4326400)
I0403 12:02:17.805456  8345 net.cpp:156] Memory required for data: 818009200
I0403 12:02:17.805474  8345 layer_factory.hpp:77] Creating layer pool5
I0403 12:02:17.805503  8345 net.cpp:91] Creating Layer pool5
I0403 12:02:17.805526  8345 net.cpp:425] pool5 <- conv5
I0403 12:02:17.805547  8345 net.cpp:399] pool5 -> pool5
I0403 12:02:17.805635  8345 net.cpp:141] Setting up pool5
I0403 12:02:17.805665  8345 net.cpp:148] Top shape: 100 256 6 6 (921600)
I0403 12:02:17.805685  8345 net.cpp:156] Memory required for data: 821695600
I0403 12:02:17.805702  8345 layer_factory.hpp:77] Creating layer fc6
I0403 12:02:17.805757  8345 net.cpp:91] Creating Layer fc6
I0403 12:02:17.805781  8345 net.cpp:425] fc6 <- pool5
I0403 12:02:17.805804  8345 net.cpp:399] fc6 -> fc6
I0403 12:02:19.377506  8345 net.cpp:141] Setting up fc6
I0403 12:02:19.377586  8345 net.cpp:148] Top shape: 100 4096 (409600)
I0403 12:02:19.377607  8345 net.cpp:156] Memory required for data: 823334000
I0403 12:02:19.377630  8345 layer_factory.hpp:77] Creating layer relu6
I0403 12:02:19.377651  8345 net.cpp:91] Creating Layer relu6
I0403 12:02:19.377668  8345 net.cpp:425] relu6 <- fc6
I0403 12:02:19.377691  8345 net.cpp:386] relu6 -> fc6 (in-place)
I0403 12:02:19.377914  8345 net.cpp:141] Setting up relu6
I0403 12:02:19.377938  8345 net.cpp:148] Top shape: 100 4096 (409600)
I0403 12:02:19.377953  8345 net.cpp:156] Memory required for data: 824972400
I0403 12:02:19.377966  8345 layer_factory.hpp:77] Creating layer drop6
I0403 12:02:19.377984  8345 net.cpp:91] Creating Layer drop6
I0403 12:02:19.377998  8345 net.cpp:425] drop6 <- fc6
I0403 12:02:19.378021  8345 net.cpp:386] drop6 -> fc6 (in-place)
I0403 12:02:19.378098  8345 net.cpp:141] Setting up drop6
I0403 12:02:19.378123  8345 net.cpp:148] Top shape: 100 4096 (409600)
I0403 12:02:19.378137  8345 net.cpp:156] Memory required for data: 826610800
I0403 12:02:19.378151  8345 layer_factory.hpp:77] Creating layer fc7
I0403 12:02:19.378171  8345 net.cpp:91] Creating Layer fc7
I0403 12:02:19.378186  8345 net.cpp:425] fc7 <- fc6
I0403 12:02:19.378206  8345 net.cpp:399] fc7 -> fc7
I0403 12:02:20.045409  8345 net.cpp:141] Setting up fc7
I0403 12:02:20.045491  8345 net.cpp:148] Top shape: 100 4096 (409600)
I0403 12:02:20.045507  8345 net.cpp:156] Memory required for data: 828249200
I0403 12:02:20.045528  8345 layer_factory.hpp:77] Creating layer relu7
I0403 12:02:20.045550  8345 net.cpp:91] Creating Layer relu7
I0403 12:02:20.045567  8345 net.cpp:425] relu7 <- fc7
I0403 12:02:20.045589  8345 net.cpp:386] relu7 -> fc7 (in-place)
I0403 12:02:20.045999  8345 net.cpp:141] Setting up relu7
I0403 12:02:20.046025  8345 net.cpp:148] Top shape: 100 4096 (409600)
I0403 12:02:20.046082  8345 net.cpp:156] Memory required for data: 829887600
I0403 12:02:20.046097  8345 layer_factory.hpp:77] Creating layer drop7
I0403 12:02:20.046115  8345 net.cpp:91] Creating Layer drop7
I0403 12:02:20.046130  8345 net.cpp:425] drop7 <- fc7
I0403 12:02:20.046149  8345 net.cpp:386] drop7 -> fc7 (in-place)
I0403 12:02:20.046191  8345 net.cpp:141] Setting up drop7
I0403 12:02:20.046216  8345 net.cpp:148] Top shape: 100 4096 (409600)
I0403 12:02:20.046231  8345 net.cpp:156] Memory required for data: 831526000
I0403 12:02:20.046244  8345 layer_factory.hpp:77] Creating layer fc8_plantvillage
I0403 12:02:20.046262  8345 net.cpp:91] Creating Layer fc8_plantvillage
I0403 12:02:20.046277  8345 net.cpp:425] fc8_plantvillage <- fc7
I0403 12:02:20.046296  8345 net.cpp:399] fc8_plantvillage -> fc8_plantvillage
I0403 12:02:20.052824  8345 net.cpp:141] Setting up fc8_plantvillage
I0403 12:02:20.052851  8345 net.cpp:148] Top shape: 100 38 (3800)
I0403 12:02:20.052866  8345 net.cpp:156] Memory required for data: 831541200
I0403 12:02:20.052884  8345 layer_factory.hpp:77] Creating layer fc8_plantvillage_fc8_plantvillage_0_split
I0403 12:02:20.052902  8345 net.cpp:91] Creating Layer fc8_plantvillage_fc8_plantvillage_0_split
I0403 12:02:20.052918  8345 net.cpp:425] fc8_plantvillage_fc8_plantvillage_0_split <- fc8_plantvillage
I0403 12:02:20.052937  8345 net.cpp:399] fc8_plantvillage_fc8_plantvillage_0_split -> fc8_plantvillage_fc8_plantvillage_0_split_0
I0403 12:02:20.052958  8345 net.cpp:399] fc8_plantvillage_fc8_plantvillage_0_split -> fc8_plantvillage_fc8_plantvillage_0_split_1
I0403 12:02:20.052976  8345 net.cpp:399] fc8_plantvillage_fc8_plantvillage_0_split -> fc8_plantvillage_fc8_plantvillage_0_split_2
I0403 12:02:20.053050  8345 net.cpp:141] Setting up fc8_plantvillage_fc8_plantvillage_0_split
I0403 12:02:20.053072  8345 net.cpp:148] Top shape: 100 38 (3800)
I0403 12:02:20.053088  8345 net.cpp:148] Top shape: 100 38 (3800)
I0403 12:02:20.053102  8345 net.cpp:148] Top shape: 100 38 (3800)
I0403 12:02:20.053117  8345 net.cpp:156] Memory required for data: 831586800
I0403 12:02:20.053130  8345 layer_factory.hpp:77] Creating layer prob
I0403 12:02:20.053148  8345 net.cpp:91] Creating Layer prob
I0403 12:02:20.053161  8345 net.cpp:425] prob <- fc8_plantvillage_fc8_plantvillage_0_split_0
I0403 12:02:20.053180  8345 net.cpp:399] prob -> prob
I0403 12:02:20.053398  8345 net.cpp:141] Setting up prob
I0403 12:02:20.053423  8345 net.cpp:148] Top shape: 100 38 (3800)
I0403 12:02:20.053437  8345 net.cpp:156] Memory required for data: 831602000
I0403 12:02:20.053452  8345 layer_factory.hpp:77] Creating layer hdf5out
I0403 12:02:20.053470  8345 net.cpp:91] Creating Layer hdf5out
I0403 12:02:20.053485  8345 net.cpp:425] hdf5out <- prob
I0403 12:02:20.053501  8345 net.cpp:425] hdf5out <- label_data_1_split_0
I0403 12:02:20.071292  8345 net.cpp:141] Setting up hdf5out
…
