…
I0403 12:21:34.933853  8795 net.cpp:313] The NetState phase (1) differed from the phase (0) specified by a rule in layer data
I0403 12:21:34.934154  8795 net.cpp:49] Initializing net from parameters: 
state {
  phase: TEST
}
layer {
  name: "data"
  type: "Data"
  top: "data"
  top: "label"
  include {
    phase: TEST
  }
  transform_param {
    crop_size: 227
    mean_file: "/home/mohanty/data/final_dataset/lmdb/segmented-20-80/mean.binaryproto"
  }
  data_param {
    source: "/home/mohanty/data/final_dataset/lmdb/segmented-20-80/test_db"
    batch_size: 100
    backend: LMDB
  }
}
layer {
  name: "conv1"
  type: "Convolution"
  bottom: "data"
  top: "conv1"
  param {
    lr_mult: 1
    decay_mult: 1
  }
  param {
    lr_mult: 2
    decay_mult: 0
  }
  convolution_param {
    num_output: 96
    kernel_size: 11
    stride: 4
    weight_filler {
      type: "gaussian"
      std: 0.01
    }
    bias_filler {
      type: "constant"
      value: 0
    }
  }
}
layer {
  name: "relu1"
  type: "ReLU"
  bottom: "conv1"
  top: "conv1"
}
layer {
  name: "norm1"
  type: "LRN"
  bottom: "conv1"
  top: "norm1"
  lrn_param {
    local_size: 5
    alpha: 0.0001
    beta: 0.75
  }
}
layer {
  name: "pool1"
  type: "Pooling"
  bottom: "norm1"
  top: "pool1"
  pooling_param {
    pool: MAX
    kernel_size: 3
    stride: 2
  }
}
layer {
  name: "conv2"
  type: "Convolution"
  bottom: "pool1"
  top: "conv2"
  param {
    lr_mult: 1
    decay_mult: 1
  }
  param {
    lr_mult: 2
    decay_mult: 0
  }
  convolution_param {
    num_output: 256
    pad: 2
    kernel_size: 5
    group: 2
    weight_filler {
      type: "gaussian"
      std: 0.01
    }
    bias_filler {
      type: "constant"
      value: 0.1
    }
  }
}
layer {
  name: "relu2"
  type: "ReLU"
  bottom: "conv2"
  top: "conv2"
}
layer {
  name: "norm2"
  type: "LRN"
  bottom: "conv2"
  top: "norm2"
  lrn_param {
    local_size: 5
    alpha: 0.0001
    beta: 0.75
  }
}
layer {
  name: "pool2"
  type: "Pooling"
  bottom: "norm2"
  top: "pool2"
  pooling_param {
    pool: MAX
    kernel_size: 3
    stride: 2
  }
}
layer {
  name: "conv3"
  type: "Convolution"
  bottom: "pool2"
  top: "conv3"
  param {
    lr_mult: 1
    decay_mult: 1
  }
  param {
    lr_mult: 2
    decay_mult: 0
  }
  convolution_param {
    num_output: 384
    pad: 1
    kernel_size: 3
    weight_filler {
      type: "gaussian"
      std: 0.01
    }
    bias_filler {
      type: "constant"
      value: 0
    }
  }
}
layer {
  name: "relu3"
  type: "ReLU"
  bottom: "conv3"
  top: "conv3"
}
layer {
  name: "conv4"
  type: "Convolution"
  bottom: "conv3"
  top: "conv4"
  param {
    lr_mult: 1
    decay_mult: 1
  }
  param {
    lr_mult: 2
    decay_mult: 0
  }
  convolution_param {
    num_output: 384
    pad: 1
    kernel_size: 3
    group: 2
    weight_filler {
      type: "gaussian"
      std: 0.01
    }
    bias_filler {
      type: "constant"
      value: 0.1
    }
  }
}
layer {
  name: "relu4"
  type: "ReLU"
  bottom: "conv4"
  top: "conv4"
}
layer {
  name: "conv5"
  type: "Convolution"
  bottom: "conv4"
  top: "conv5"
  param {
    lr_mult: 1
    decay_mult: 1
  }
  param {
    lr_mult: 2
    decay_mult: 0
  }
  convolution_param {
    num_output: 256
    pad: 1
    kernel_size: 3
    group: 2
    weight_filler {
      type: "gaussian"
      std: 0.01
    }
    bias_filler {
      type: "constant"
      value: 0.1
    }
  }
}
layer {
  name: "relu5"
  type: "ReLU"
  bottom: "conv5"
  top: "conv5"
}
layer {
  name: "pool5"
  type: "Pooling"
  bottom: "conv5"
  top: "pool5"
  pooling_param {
    pool: MAX
    kernel_size: 3
    stride: 2
  }
}
layer {
  name: "fc6"
  type: "InnerProduct"
  bottom: "pool5"
  top: "fc6"
  param {
    lr_mult: 1
    decay_mult: 1
  }
  param {
    lr_mult: 2
    decay_mult: 0
  }
  inner_product_param {
    num_output: 4096
    weight_filler {
      type: "gaussian"
      std: 0.005
    }
    bias_filler {
      type: "constant"
      value: 0.1
    }
  }
}
layer {
  name: "relu6"
  type: "ReLU"
  bottom: "fc6"
  top: "fc6"
}
layer {
  name: "drop6"
  type: "Dropout"
  bottom: "fc6"
  top: "fc6"
  dropout_param {
    dropout_ratio: 0.5
  }
}
layer {
  name: "fc7"
  type: "InnerProduct"
  bottom: "fc6"
  top: "fc7"
  param {
    lr_mult: 1
    decay_mult: 1
  }
  param {
    lr_mult: 2
    decay_mult: 0
  }
  inner_product_param {
    num_output: 4096
    weight_filler {
      type: "gaussian"
      std: 0.005
    }
    bias_filler {
      type: "constant"
      value: 0.1
    }
  }
}
layer {
  name: "relu7"
  type: "ReLU"
  bottom: "fc7"
  top: "fc7"
}
layer {
  name: "drop7"
  type: "Dropout"
  bottom: "fc7"
  top: "fc7"
  dropout_param {
    dropout_ratio: 0.5
  }
}
layer {
  name: "fc8_plantvillage"
  type: "InnerProduct"
  bottom: "fc7"
  top: "fc8_plantvillage"
  param {
    lr_mult: 1
    decay_mult: 1
  }
  param {
    lr_mult: 2
    decay_mult: 0
  }
  inner_product_param {
    num_output: 38
    weight_filler {
      type: "gaussian"
      std: 0.01
    }
    bias_filler {
      type: "constant"
      value: 0
    }
  }
}
layer {
  name: "prob"
  type: "Softmax"
  bottom: "fc8_plantvillage"
  top: "prob"
  include {
    phase: TEST
  }
}
layer {
  name: "hdf5out"
  type: "HDF5Output"
  bottom: "prob"
  bottom: "label"
  include {
    phase: TEST
  }
  hdf5_output_param {
    file_name: "hdf5_dumps/iter_1696.h5"
  }
}
layer {
  name: "loss"
  type: "SoftmaxWithLoss"
  bottom: "fc8_plantvillage"
  bottom: "label"
  top: "loss"
}
layer {
  name: "accuracy"
  type: "Accuracy"
  bottom: "fc8_plantvillage"
  bottom: "label"
  top: "accuracy"
  include {
    phase: TEST
  }
}
I0403 12:21:34.934840  8795 layer_factory.hpp:77] Creating layer data
I0403 12:21:34.935469  8795 net.cpp:91] Creating Layer data
I0403 12:21:34.935502  8795 net.cpp:399] data -> data
I0403 12:21:34.935551  8795 net.cpp:399] data -> label
I0403 12:21:34.935592  8795 data_transformer.cpp:25] Loading mean file from: /home/mohanty/data/final_dataset/lmdb/segmented-20-80/mean.binaryproto
I0403 12:21:34.938386  8798 db_lmdb.cpp:38] Opened lmdb /home/mohanty/data/final_dataset/lmdb/segmented-20-80/test_db
I0403 12:21:34.949786  8795 data_layer.cpp:41] output data size: 100,3,227,227
I0403 12:21:35.068194  8795 net.cpp:141] Setting up data
I0403 12:21:35.068287  8795 net.cpp:148] Top shape: 100 3 227 227 (15458700)
I0403 12:21:35.068313  8795 net.cpp:148] Top shape: 100 (100)
I0403 12:21:35.068328  8795 net.cpp:156] Memory required for data: 61835200
I0403 12:21:35.068356  8795 layer_factory.hpp:77] Creating layer label_data_1_split
I0403 12:21:35.068382  8795 net.cpp:91] Creating Layer label_data_1_split
I0403 12:21:35.068398  8795 net.cpp:425] label_data_1_split <- label
I0403 12:21:35.068430  8795 net.cpp:399] label_data_1_split -> label_data_1_split_0
I0403 12:21:35.068457  8795 net.cpp:399] label_data_1_split -> label_data_1_split_1
I0403 12:21:35.068477  8795 net.cpp:399] label_data_1_split -> label_data_1_split_2
I0403 12:21:35.068539  8795 net.cpp:141] Setting up label_data_1_split
I0403 12:21:35.068563  8795 net.cpp:148] Top shape: 100 (100)
I0403 12:21:35.068585  8795 net.cpp:148] Top shape: 100 (100)
I0403 12:21:35.068601  8795 net.cpp:148] Top shape: 100 (100)
I0403 12:21:35.068615  8795 net.cpp:156] Memory required for data: 61836400
I0403 12:21:35.068630  8795 layer_factory.hpp:77] Creating layer conv1
I0403 12:21:35.068660  8795 net.cpp:91] Creating Layer conv1
I0403 12:21:35.068678  8795 net.cpp:425] conv1 <- data
I0403 12:21:35.068698  8795 net.cpp:399] conv1 -> conv1
I0403 12:21:35.210829  8795 net.cpp:141] Setting up conv1
I0403 12:21:35.210907  8795 net.cpp:148] Top shape: 100 96 55 55 (29040000)
I0403 12:21:35.210925  8795 net.cpp:156] Memory required for data: 177996400
I0403 12:21:35.210957  8795 layer_factory.hpp:77] Creating layer relu1
I0403 12:21:35.210983  8795 net.cpp:91] Creating Layer relu1
I0403 12:21:35.211001  8795 net.cpp:425] relu1 <- conv1
I0403 12:21:35.211020  8795 net.cpp:386] relu1 -> conv1 (in-place)
I0403 12:21:35.211308  8795 net.cpp:141] Setting up relu1
I0403 12:21:35.211338  8795 net.cpp:148] Top shape: 100 96 55 55 (29040000)
I0403 12:21:35.211393  8795 net.cpp:156] Memory required for data: 294156400
I0403 12:21:35.211410  8795 layer_factory.hpp:77] Creating layer norm1
I0403 12:21:35.211447  8795 net.cpp:91] Creating Layer norm1
I0403 12:21:35.211468  8795 net.cpp:425] norm1 <- conv1
I0403 12:21:35.211488  8795 net.cpp:399] norm1 -> norm1
I0403 12:21:35.211904  8795 net.cpp:141] Setting up norm1
I0403 12:21:35.211931  8795 net.cpp:148] Top shape: 100 96 55 55 (29040000)
I0403 12:21:35.211947  8795 net.cpp:156] Memory required for data: 410316400
I0403 12:21:35.211962  8795 layer_factory.hpp:77] Creating layer pool1
I0403 12:21:35.211987  8795 net.cpp:91] Creating Layer pool1
I0403 12:21:35.212003  8795 net.cpp:425] pool1 <- norm1
I0403 12:21:35.212020  8795 net.cpp:399] pool1 -> pool1
I0403 12:21:35.212092  8795 net.cpp:141] Setting up pool1
I0403 12:21:35.212116  8795 net.cpp:148] Top shape: 100 96 27 27 (6998400)
I0403 12:21:35.212131  8795 net.cpp:156] Memory required for data: 438310000
I0403 12:21:35.212146  8795 layer_factory.hpp:77] Creating layer conv2
I0403 12:21:35.212170  8795 net.cpp:91] Creating Layer conv2
I0403 12:21:35.212188  8795 net.cpp:425] conv2 <- pool1
I0403 12:21:35.212208  8795 net.cpp:399] conv2 -> conv2
I0403 12:21:35.227314  8795 net.cpp:141] Setting up conv2
I0403 12:21:35.227368  8795 net.cpp:148] Top shape: 100 256 27 27 (18662400)
I0403 12:21:35.227385  8795 net.cpp:156] Memory required for data: 512959600
I0403 12:21:35.227407  8795 layer_factory.hpp:77] Creating layer relu2
I0403 12:21:35.227432  8795 net.cpp:91] Creating Layer relu2
I0403 12:21:35.227450  8795 net.cpp:425] relu2 <- conv2
I0403 12:21:35.227470  8795 net.cpp:386] relu2 -> conv2 (in-place)
I0403 12:21:35.227754  8795 net.cpp:141] Setting up relu2
I0403 12:21:35.227782  8795 net.cpp:148] Top shape: 100 256 27 27 (18662400)
I0403 12:21:35.227797  8795 net.cpp:156] Memory required for data: 587609200
I0403 12:21:35.227812  8795 layer_factory.hpp:77] Creating layer norm2
I0403 12:21:35.227834  8795 net.cpp:91] Creating Layer norm2
I0403 12:21:35.227851  8795 net.cpp:425] norm2 <- conv2
I0403 12:21:35.227871  8795 net.cpp:399] norm2 -> norm2
I0403 12:21:35.228066  8795 net.cpp:141] Setting up norm2
I0403 12:21:35.228092  8795 net.cpp:148] Top shape: 100 256 27 27 (18662400)
I0403 12:21:35.228106  8795 net.cpp:156] Memory required for data: 662258800
I0403 12:21:35.228121  8795 layer_factory.hpp:77] Creating layer pool2
I0403 12:21:35.228142  8795 net.cpp:91] Creating Layer pool2
I0403 12:21:35.228157  8795 net.cpp:425] pool2 <- norm2
I0403 12:21:35.228215  8795 net.cpp:399] pool2 -> pool2
I0403 12:21:35.228276  8795 net.cpp:141] Setting up pool2
I0403 12:21:35.228299  8795 net.cpp:148] Top shape: 100 256 13 13 (4326400)
I0403 12:21:35.228314  8795 net.cpp:156] Memory required for data: 679564400
I0403 12:21:35.228329  8795 layer_factory.hpp:77] Creating layer conv3
I0403 12:21:35.228353  8795 net.cpp:91] Creating Layer conv3
I0403 12:21:35.228368  8795 net.cpp:425] conv3 <- pool2
I0403 12:21:35.228389  8795 net.cpp:399] conv3 -> conv3
I0403 12:21:35.267845  8795 net.cpp:141] Setting up conv3
I0403 12:21:35.267885  8795 net.cpp:148] Top shape: 100 384 13 13 (6489600)
I0403 12:21:35.267902  8795 net.cpp:156] Memory required for data: 705522800
I0403 12:21:35.267930  8795 layer_factory.hpp:77] Creating layer relu3
I0403 12:21:35.267953  8795 net.cpp:91] Creating Layer relu3
I0403 12:21:35.267971  8795 net.cpp:425] relu3 <- conv3
I0403 12:21:35.267988  8795 net.cpp:386] relu3 -> conv3 (in-place)
I0403 12:21:35.268265  8795 net.cpp:141] Setting up relu3
I0403 12:21:35.268291  8795 net.cpp:148] Top shape: 100 384 13 13 (6489600)
I0403 12:21:35.268306  8795 net.cpp:156] Memory required for data: 731481200
I0403 12:21:35.268321  8795 layer_factory.hpp:77] Creating layer conv4
I0403 12:21:35.268347  8795 net.cpp:91] Creating Layer conv4
I0403 12:21:35.268367  8795 net.cpp:425] conv4 <- conv3
I0403 12:21:35.268388  8795 net.cpp:399] conv4 -> conv4
I0403 12:21:35.299446  8795 net.cpp:141] Setting up conv4
I0403 12:21:35.299517  8795 net.cpp:148] Top shape: 100 384 13 13 (6489600)
I0403 12:21:35.299577  8795 net.cpp:156] Memory required for data: 757439600
I0403 12:21:35.299602  8795 layer_factory.hpp:77] Creating layer relu4
I0403 12:21:35.299629  8795 net.cpp:91] Creating Layer relu4
I0403 12:21:35.299648  8795 net.cpp:425] relu4 <- conv4
I0403 12:21:35.299667  8795 net.cpp:386] relu4 -> conv4 (in-place)
I0403 12:21:35.299957  8795 net.cpp:141] Setting up relu4
I0403 12:21:35.299985  8795 net.cpp:148] Top shape: 100 384 13 13 (6489600)
I0403 12:21:35.300003  8795 net.cpp:156] Memory required for data: 783398000
I0403 12:21:35.300017  8795 layer_factory.hpp:77] Creating layer conv5
I0403 12:21:35.300045  8795 net.cpp:91] Creating Layer conv5
I0403 12:21:35.300062  8795 net.cpp:425] conv5 <- conv4
I0403 12:21:35.300084  8795 net.cpp:399] conv5 -> conv5
I0403 12:21:35.321553  8795 net.cpp:141] Setting up conv5
I0403 12:21:35.321616  8795 net.cpp:148] Top shape: 100 256 13 13 (4326400)
I0403 12:21:35.321633  8795 net.cpp:156] Memory required for data: 800703600
I0403 12:21:35.321658  8795 layer_factory.hpp:77] Creating layer relu5
I0403 12:21:35.321684  8795 net.cpp:91] Creating Layer relu5
I0403 12:21:35.321702  8795 net.cpp:425] relu5 <- conv5
I0403 12:21:35.321722  8795 net.cpp:386] relu5 -> conv5 (in-place)
I0403 12:21:35.322027  8795 net.cpp:141] Setting up relu5
I0403 12:21:35.322055  8795 net.cpp:148] Top shape: 100 256 13 13 (4326400)
I0403 12:21:35.322070  8795 net.cpp:156] Memory required for data: 818009200
I0403 12:21:35.322085  8795 layer_factory.hpp:77] Creating layer pool5
I0403 12:21:35.322109  8795 net.cpp:91] Creating Layer pool5
I0403 12:21:35.322126  8795 net.cpp:425] pool5 <- conv5
I0403 12:21:35.322147  8795 net.cpp:399] pool5 -> pool5
I0403 12:21:35.322208  8795 net.cpp:141] Setting up pool5
I0403 12:21:35.322232  8795 net.cpp:148] Top shape: 100 256 6 6 (921600)
I0403 12:21:35.322247  8795 net.cpp:156] Memory required for data: 821695600
I0403 12:21:35.322263  8795 layer_factory.hpp:77] Creating layer fc6
I0403 12:21:35.322305  8795 net.cpp:91] Creating Layer fc6
I0403 12:21:35.322324  8795 net.cpp:425] fc6 <- pool5
I0403 12:21:35.322343  8795 net.cpp:399] fc6 -> fc6
I0403 12:21:36.888463  8795 net.cpp:141] Setting up fc6
I0403 12:21:36.888507  8795 net.cpp:148] Top shape: 100 4096 (409600)
I0403 12:21:36.888525  8795 net.cpp:156] Memory required for data: 823334000
I0403 12:21:36.888545  8795 layer_factory.hpp:77] Creating layer relu6
I0403 12:21:36.888571  8795 net.cpp:91] Creating Layer relu6
I0403 12:21:36.888589  8795 net.cpp:425] relu6 <- fc6
I0403 12:21:36.888612  8795 net.cpp:386] relu6 -> fc6 (in-place)
I0403 12:21:36.888844  8795 net.cpp:141] Setting up relu6
I0403 12:21:36.888870  8795 net.cpp:148] Top shape: 100 4096 (409600)
I0403 12:21:36.888883  8795 net.cpp:156] Memory required for data: 824972400
I0403 12:21:36.888898  8795 layer_factory.hpp:77] Creating layer drop6
I0403 12:21:36.888918  8795 net.cpp:91] Creating Layer drop6
I0403 12:21:36.888936  8795 net.cpp:425] drop6 <- fc6
I0403 12:21:36.888972  8795 net.cpp:386] drop6 -> fc6 (in-place)
I0403 12:21:36.889025  8795 net.cpp:141] Setting up drop6
I0403 12:21:36.889048  8795 net.cpp:148] Top shape: 100 4096 (409600)
I0403 12:21:36.889063  8795 net.cpp:156] Memory required for data: 826610800
I0403 12:21:36.889078  8795 layer_factory.hpp:77] Creating layer fc7
I0403 12:21:36.889097  8795 net.cpp:91] Creating Layer fc7
I0403 12:21:36.889118  8795 net.cpp:425] fc7 <- fc6
I0403 12:21:36.889142  8795 net.cpp:399] fc7 -> fc7
I0403 12:21:37.595070  8795 net.cpp:141] Setting up fc7
I0403 12:21:37.595149  8795 net.cpp:148] Top shape: 100 4096 (409600)
I0403 12:21:37.595165  8795 net.cpp:156] Memory required for data: 828249200
I0403 12:21:37.595186  8795 layer_factory.hpp:77] Creating layer relu7
I0403 12:21:37.595213  8795 net.cpp:91] Creating Layer relu7
I0403 12:21:37.595232  8795 net.cpp:425] relu7 <- fc7
I0403 12:21:37.595252  8795 net.cpp:386] relu7 -> fc7 (in-place)
I0403 12:21:37.595669  8795 net.cpp:141] Setting up relu7
I0403 12:21:37.595696  8795 net.cpp:148] Top shape: 100 4096 (409600)
I0403 12:21:37.595752  8795 net.cpp:156] Memory required for data: 829887600
I0403 12:21:37.595769  8795 layer_factory.hpp:77] Creating layer drop7
I0403 12:21:37.595791  8795 net.cpp:91] Creating Layer drop7
I0403 12:21:37.595808  8795 net.cpp:425] drop7 <- fc7
I0403 12:21:37.595825  8795 net.cpp:386] drop7 -> fc7 (in-place)
I0403 12:21:37.595871  8795 net.cpp:141] Setting up drop7
I0403 12:21:37.595895  8795 net.cpp:148] Top shape: 100 4096 (409600)
I0403 12:21:37.595909  8795 net.cpp:156] Memory required for data: 831526000
I0403 12:21:37.595924  8795 layer_factory.hpp:77] Creating layer fc8_plantvillage
I0403 12:21:37.595943  8795 net.cpp:91] Creating Layer fc8_plantvillage
I0403 12:21:37.595959  8795 net.cpp:425] fc8_plantvillage <- fc7
I0403 12:21:37.595979  8795 net.cpp:399] fc8_plantvillage -> fc8_plantvillage
I0403 12:21:37.602892  8795 net.cpp:141] Setting up fc8_plantvillage
I0403 12:21:37.602922  8795 net.cpp:148] Top shape: 100 38 (3800)
I0403 12:21:37.602938  8795 net.cpp:156] Memory required for data: 831541200
I0403 12:21:37.602955  8795 layer_factory.hpp:77] Creating layer fc8_plantvillage_fc8_plantvillage_0_split
I0403 12:21:37.602977  8795 net.cpp:91] Creating Layer fc8_plantvillage_fc8_plantvillage_0_split
I0403 12:21:37.602993  8795 net.cpp:425] fc8_plantvillage_fc8_plantvillage_0_split <- fc8_plantvillage
I0403 12:21:37.603009  8795 net.cpp:399] fc8_plantvillage_fc8_plantvillage_0_split -> fc8_plantvillage_fc8_plantvillage_0_split_0
I0403 12:21:37.603029  8795 net.cpp:399] fc8_plantvillage_fc8_plantvillage_0_split -> fc8_plantvillage_fc8_plantvillage_0_split_1
I0403 12:21:37.603052  8795 net.cpp:399] fc8_plantvillage_fc8_plantvillage_0_split -> fc8_plantvillage_fc8_plantvillage_0_split_2
I0403 12:21:37.603132  8795 net.cpp:141] Setting up fc8_plantvillage_fc8_plantvillage_0_split
I0403 12:21:37.603154  8795 net.cpp:148] Top shape: 100 38 (3800)
I0403 12:21:37.603170  8795 net.cpp:148] Top shape: 100 38 (3800)
I0403 12:21:37.603185  8795 net.cpp:148] Top shape: 100 38 (3800)
I0403 12:21:37.603199  8795 net.cpp:156] Memory required for data: 831586800
I0403 12:21:37.603212  8795 layer_factory.hpp:77] Creating layer prob
I0403 12:21:37.603236  8795 net.cpp:91] Creating Layer prob
I0403 12:21:37.603251  8795 net.cpp:425] prob <- fc8_plantvillage_fc8_plantvillage_0_split_0
I0403 12:21:37.603273  8795 net.cpp:399] prob -> prob
I0403 12:21:37.603504  8795 net.cpp:141] Setting up prob
I0403 12:21:37.603530  8795 net.cpp:148] Top shape: 100 38 (3800)
I0403 12:21:37.603545  8795 net.cpp:156] Memory required for data: 831602000
I0403 12:21:37.603559  8795 layer_factory.hpp:77] Creating layer hdf5out
I0403 12:21:37.603586  8795 net.cpp:91] Creating Layer hdf5out
I0403 12:21:37.603603  8795 net.cpp:425] hdf5out <- prob
I0403 12:21:37.603620  8795 net.cpp:425] hdf5out <- label_data_1_split_0
I0403 12:21:37.606169  8795 net.cpp:141] Setting up hdf5out
…
