…
I0403 12:26:43.305845  8909 net.cpp:313] The NetState phase (1) differed from the phase (0) specified by a rule in layer data
I0403 12:26:43.306154  8909 net.cpp:49] Initializing net from parameters: 
state {
  phase: TEST
}
layer {
  name: "data"
  type: "Data"
  top: "data"
  top: "label"
  include {
    phase: TEST
  }
  transform_param {
    crop_size: 227
    mean_file: "/home/mohanty/data/final_dataset/lmdb/segmented-20-80/mean.binaryproto"
  }
  data_param {
    source: "/home/mohanty/data/final_dataset/lmdb/segmented-20-80/test_db"
    batch_size: 100
    backend: LMDB
  }
}
layer {
  name: "conv1"
  type: "Convolution"
  bottom: "data"
  top: "conv1"
  param {
    lr_mult: 1
    decay_mult: 1
  }
  param {
    lr_mult: 2
    decay_mult: 0
  }
  convolution_param {
    num_output: 96
    kernel_size: 11
    stride: 4
    weight_filler {
      type: "gaussian"
      std: 0.01
    }
    bias_filler {
      type: "constant"
      value: 0
    }
  }
}
layer {
  name: "relu1"
  type: "ReLU"
  bottom: "conv1"
  top: "conv1"
}
layer {
  name: "norm1"
  type: "LRN"
  bottom: "conv1"
  top: "norm1"
  lrn_param {
    local_size: 5
    alpha: 0.0001
    beta: 0.75
  }
}
layer {
  name: "pool1"
  type: "Pooling"
  bottom: "norm1"
  top: "pool1"
  pooling_param {
    pool: MAX
    kernel_size: 3
    stride: 2
  }
}
layer {
  name: "conv2"
  type: "Convolution"
  bottom: "pool1"
  top: "conv2"
  param {
    lr_mult: 1
    decay_mult: 1
  }
  param {
    lr_mult: 2
    decay_mult: 0
  }
  convolution_param {
    num_output: 256
    pad: 2
    kernel_size: 5
    group: 2
    weight_filler {
      type: "gaussian"
      std: 0.01
    }
    bias_filler {
      type: "constant"
      value: 0.1
    }
  }
}
layer {
  name: "relu2"
  type: "ReLU"
  bottom: "conv2"
  top: "conv2"
}
layer {
  name: "norm2"
  type: "LRN"
  bottom: "conv2"
  top: "norm2"
  lrn_param {
    local_size: 5
    alpha: 0.0001
    beta: 0.75
  }
}
layer {
  name: "pool2"
  type: "Pooling"
  bottom: "norm2"
  top: "pool2"
  pooling_param {
    pool: MAX
    kernel_size: 3
    stride: 2
  }
}
layer {
  name: "conv3"
  type: "Convolution"
  bottom: "pool2"
  top: "conv3"
  param {
    lr_mult: 1
    decay_mult: 1
  }
  param {
    lr_mult: 2
    decay_mult: 0
  }
  convolution_param {
    num_output: 384
    pad: 1
    kernel_size: 3
    weight_filler {
      type: "gaussian"
      std: 0.01
    }
    bias_filler {
      type: "constant"
      value: 0
    }
  }
}
layer {
  name: "relu3"
  type: "ReLU"
  bottom: "conv3"
  top: "conv3"
}
layer {
  name: "conv4"
  type: "Convolution"
  bottom: "conv3"
  top: "conv4"
  param {
    lr_mult: 1
    decay_mult: 1
  }
  param {
    lr_mult: 2
    decay_mult: 0
  }
  convolution_param {
    num_output: 384
    pad: 1
    kernel_size: 3
    group: 2
    weight_filler {
      type: "gaussian"
      std: 0.01
    }
    bias_filler {
      type: "constant"
      value: 0.1
    }
  }
}
layer {
  name: "relu4"
  type: "ReLU"
  bottom: "conv4"
  top: "conv4"
}
layer {
  name: "conv5"
  type: "Convolution"
  bottom: "conv4"
  top: "conv5"
  param {
    lr_mult: 1
    decay_mult: 1
  }
  param {
    lr_mult: 2
    decay_mult: 0
  }
  convolution_param {
    num_output: 256
    pad: 1
    kernel_size: 3
    group: 2
    weight_filler {
      type: "gaussian"
      std: 0.01
    }
    bias_filler {
      type: "constant"
      value: 0.1
    }
  }
}
layer {
  name: "relu5"
  type: "ReLU"
  bottom: "conv5"
  top: "conv5"
}
layer {
  name: "pool5"
  type: "Pooling"
  bottom: "conv5"
  top: "pool5"
  pooling_param {
    pool: MAX
    kernel_size: 3
    stride: 2
  }
}
layer {
  name: "fc6"
  type: "InnerProduct"
  bottom: "pool5"
  top: "fc6"
  param {
    lr_mult: 1
    decay_mult: 1
  }
  param {
    lr_mult: 2
    decay_mult: 0
  }
  inner_product_param {
    num_output: 4096
    weight_filler {
      type: "gaussian"
      std: 0.005
    }
    bias_filler {
      type: "constant"
      value: 0.1
    }
  }
}
layer {
  name: "relu6"
  type: "ReLU"
  bottom: "fc6"
  top: "fc6"
}
layer {
  name: "drop6"
  type: "Dropout"
  bottom: "fc6"
  top: "fc6"
  dropout_param {
    dropout_ratio: 0.5
  }
}
layer {
  name: "fc7"
  type: "InnerProduct"
  bottom: "fc6"
  top: "fc7"
  param {
    lr_mult: 1
    decay_mult: 1
  }
  param {
    lr_mult: 2
    decay_mult: 0
  }
  inner_product_param {
    num_output: 4096
    weight_filler {
      type: "gaussian"
      std: 0.005
    }
    bias_filler {
      type: "constant"
      value: 0.1
    }
  }
}
layer {
  name: "relu7"
  type: "ReLU"
  bottom: "fc7"
  top: "fc7"
}
layer {
  name: "drop7"
  type: "Dropout"
  bottom: "fc7"
  top: "fc7"
  dropout_param {
    dropout_ratio: 0.5
  }
}
layer {
  name: "fc8_plantvillage"
  type: "InnerProduct"
  bottom: "fc7"
  top: "fc8_plantvillage"
  param {
    lr_mult: 1
    decay_mult: 1
  }
  param {
    lr_mult: 2
    decay_mult: 0
  }
  inner_product_param {
    num_output: 38
    weight_filler {
      type: "gaussian"
      std: 0.01
    }
    bias_filler {
      type: "constant"
      value: 0
    }
  }
}
layer {
  name: "prob"
  type: "Softmax"
  bottom: "fc8_plantvillage"
  top: "prob"
  include {
    phase: TEST
  }
}
layer {
  name: "hdf5out"
  type: "HDF5Output"
  bottom: "prob"
  bottom: "label"
  include {
    phase: TEST
  }
  hdf5_output_param {
    file_name: "hdf5_dumps/iter_2120.h5"
  }
}
layer {
  name: "loss"
  type: "SoftmaxWithLoss"
  bottom: "fc8_plantvillage"
  bottom: "label"
  top: "loss"
}
layer {
  name: "accuracy"
  type: "Accuracy"
  bottom: "fc8_plantvillage"
  bottom: "label"
  top: "accuracy"
  include {
    phase: TEST
  }
}
I0403 12:26:43.306795  8909 layer_factory.hpp:77] Creating layer data
I0403 12:26:43.307446  8909 net.cpp:91] Creating Layer data
I0403 12:26:43.307478  8909 net.cpp:399] data -> data
I0403 12:26:43.307528  8909 net.cpp:399] data -> label
I0403 12:26:43.307562  8909 data_transformer.cpp:25] Loading mean file from: /home/mohanty/data/final_dataset/lmdb/segmented-20-80/mean.binaryproto
I0403 12:26:43.310358  8913 db_lmdb.cpp:38] Opened lmdb /home/mohanty/data/final_dataset/lmdb/segmented-20-80/test_db
I0403 12:26:43.322017  8909 data_layer.cpp:41] output data size: 100,3,227,227
I0403 12:26:43.441485  8909 net.cpp:141] Setting up data
I0403 12:26:43.441545  8909 net.cpp:148] Top shape: 100 3 227 227 (15458700)
I0403 12:26:43.441566  8909 net.cpp:148] Top shape: 100 (100)
I0403 12:26:43.441581  8909 net.cpp:156] Memory required for data: 61835200
I0403 12:26:43.441613  8909 layer_factory.hpp:77] Creating layer label_data_1_split
I0403 12:26:43.441638  8909 net.cpp:91] Creating Layer label_data_1_split
I0403 12:26:43.441656  8909 net.cpp:425] label_data_1_split <- label
I0403 12:26:43.441687  8909 net.cpp:399] label_data_1_split -> label_data_1_split_0
I0403 12:26:43.441715  8909 net.cpp:399] label_data_1_split -> label_data_1_split_1
I0403 12:26:43.441735  8909 net.cpp:399] label_data_1_split -> label_data_1_split_2
I0403 12:26:43.441798  8909 net.cpp:141] Setting up label_data_1_split
I0403 12:26:43.441822  8909 net.cpp:148] Top shape: 100 (100)
I0403 12:26:43.441838  8909 net.cpp:148] Top shape: 100 (100)
I0403 12:26:43.441854  8909 net.cpp:148] Top shape: 100 (100)
I0403 12:26:43.441866  8909 net.cpp:156] Memory required for data: 61836400
I0403 12:26:43.441881  8909 layer_factory.hpp:77] Creating layer conv1
I0403 12:26:43.441922  8909 net.cpp:91] Creating Layer conv1
I0403 12:26:43.441941  8909 net.cpp:425] conv1 <- data
I0403 12:26:43.441959  8909 net.cpp:399] conv1 -> conv1
I0403 12:26:43.583434  8909 net.cpp:141] Setting up conv1
I0403 12:26:43.583510  8909 net.cpp:148] Top shape: 100 96 55 55 (29040000)
I0403 12:26:43.583528  8909 net.cpp:156] Memory required for data: 177996400
I0403 12:26:43.583559  8909 layer_factory.hpp:77] Creating layer relu1
I0403 12:26:43.583590  8909 net.cpp:91] Creating Layer relu1
I0403 12:26:43.583612  8909 net.cpp:425] relu1 <- conv1
I0403 12:26:43.583634  8909 net.cpp:386] relu1 -> conv1 (in-place)
I0403 12:26:43.583896  8909 net.cpp:141] Setting up relu1
I0403 12:26:43.583925  8909 net.cpp:148] Top shape: 100 96 55 55 (29040000)
I0403 12:26:43.583976  8909 net.cpp:156] Memory required for data: 294156400
I0403 12:26:43.583993  8909 layer_factory.hpp:77] Creating layer norm1
I0403 12:26:43.584020  8909 net.cpp:91] Creating Layer norm1
I0403 12:26:43.584039  8909 net.cpp:425] norm1 <- conv1
I0403 12:26:43.584058  8909 net.cpp:399] norm1 -> norm1
I0403 12:26:43.584375  8909 net.cpp:141] Setting up norm1
I0403 12:26:43.584404  8909 net.cpp:148] Top shape: 100 96 55 55 (29040000)
I0403 12:26:43.584419  8909 net.cpp:156] Memory required for data: 410316400
I0403 12:26:43.584435  8909 layer_factory.hpp:77] Creating layer pool1
I0403 12:26:43.584458  8909 net.cpp:91] Creating Layer pool1
I0403 12:26:43.584475  8909 net.cpp:425] pool1 <- norm1
I0403 12:26:43.584493  8909 net.cpp:399] pool1 -> pool1
I0403 12:26:43.584584  8909 net.cpp:141] Setting up pool1
I0403 12:26:43.584622  8909 net.cpp:148] Top shape: 100 96 27 27 (6998400)
I0403 12:26:43.584640  8909 net.cpp:156] Memory required for data: 438310000
I0403 12:26:43.584655  8909 layer_factory.hpp:77] Creating layer conv2
I0403 12:26:43.584679  8909 net.cpp:91] Creating Layer conv2
I0403 12:26:43.584695  8909 net.cpp:425] conv2 <- pool1
I0403 12:26:43.584713  8909 net.cpp:399] conv2 -> conv2
I0403 12:26:43.600272  8909 net.cpp:141] Setting up conv2
I0403 12:26:43.600312  8909 net.cpp:148] Top shape: 100 256 27 27 (18662400)
I0403 12:26:43.600332  8909 net.cpp:156] Memory required for data: 512959600
I0403 12:26:43.600355  8909 layer_factory.hpp:77] Creating layer relu2
I0403 12:26:43.600375  8909 net.cpp:91] Creating Layer relu2
I0403 12:26:43.600391  8909 net.cpp:425] relu2 <- conv2
I0403 12:26:43.600411  8909 net.cpp:386] relu2 -> conv2 (in-place)
I0403 12:26:43.600706  8909 net.cpp:141] Setting up relu2
I0403 12:26:43.600733  8909 net.cpp:148] Top shape: 100 256 27 27 (18662400)
I0403 12:26:43.600747  8909 net.cpp:156] Memory required for data: 587609200
I0403 12:26:43.600762  8909 layer_factory.hpp:77] Creating layer norm2
I0403 12:26:43.600786  8909 net.cpp:91] Creating Layer norm2
I0403 12:26:43.600802  8909 net.cpp:425] norm2 <- conv2
I0403 12:26:43.600832  8909 net.cpp:399] norm2 -> norm2
I0403 12:26:43.601035  8909 net.cpp:141] Setting up norm2
I0403 12:26:43.601064  8909 net.cpp:148] Top shape: 100 256 27 27 (18662400)
I0403 12:26:43.601080  8909 net.cpp:156] Memory required for data: 662258800
I0403 12:26:43.601095  8909 layer_factory.hpp:77] Creating layer pool2
I0403 12:26:43.601114  8909 net.cpp:91] Creating Layer pool2
I0403 12:26:43.601130  8909 net.cpp:425] pool2 <- norm2
I0403 12:26:43.601151  8909 net.cpp:399] pool2 -> pool2
I0403 12:26:43.601217  8909 net.cpp:141] Setting up pool2
I0403 12:26:43.601244  8909 net.cpp:148] Top shape: 100 256 13 13 (4326400)
I0403 12:26:43.601260  8909 net.cpp:156] Memory required for data: 679564400
I0403 12:26:43.601274  8909 layer_factory.hpp:77] Creating layer conv3
I0403 12:26:43.601295  8909 net.cpp:91] Creating Layer conv3
I0403 12:26:43.601311  8909 net.cpp:425] conv3 <- pool2
I0403 12:26:43.601332  8909 net.cpp:399] conv3 -> conv3
I0403 12:26:43.640715  8909 net.cpp:141] Setting up conv3
I0403 12:26:43.640786  8909 net.cpp:148] Top shape: 100 384 13 13 (6489600)
I0403 12:26:43.640804  8909 net.cpp:156] Memory required for data: 705522800
I0403 12:26:43.640827  8909 layer_factory.hpp:77] Creating layer relu3
I0403 12:26:43.640851  8909 net.cpp:91] Creating Layer relu3
I0403 12:26:43.640867  8909 net.cpp:425] relu3 <- conv3
I0403 12:26:43.640888  8909 net.cpp:386] relu3 -> conv3 (in-place)
I0403 12:26:43.641187  8909 net.cpp:141] Setting up relu3
I0403 12:26:43.641214  8909 net.cpp:148] Top shape: 100 384 13 13 (6489600)
I0403 12:26:43.641229  8909 net.cpp:156] Memory required for data: 731481200
I0403 12:26:43.641244  8909 layer_factory.hpp:77] Creating layer conv4
I0403 12:26:43.641270  8909 net.cpp:91] Creating Layer conv4
I0403 12:26:43.641288  8909 net.cpp:425] conv4 <- conv3
I0403 12:26:43.641309  8909 net.cpp:399] conv4 -> conv4
I0403 12:26:43.671365  8909 net.cpp:141] Setting up conv4
I0403 12:26:43.671435  8909 net.cpp:148] Top shape: 100 384 13 13 (6489600)
I0403 12:26:43.671485  8909 net.cpp:156] Memory required for data: 757439600
I0403 12:26:43.671507  8909 layer_factory.hpp:77] Creating layer relu4
I0403 12:26:43.671530  8909 net.cpp:91] Creating Layer relu4
I0403 12:26:43.671546  8909 net.cpp:425] relu4 <- conv4
I0403 12:26:43.671564  8909 net.cpp:386] relu4 -> conv4 (in-place)
I0403 12:26:43.671906  8909 net.cpp:141] Setting up relu4
I0403 12:26:43.671936  8909 net.cpp:148] Top shape: 100 384 13 13 (6489600)
I0403 12:26:43.671952  8909 net.cpp:156] Memory required for data: 783398000
I0403 12:26:43.671967  8909 layer_factory.hpp:77] Creating layer conv5
I0403 12:26:43.671993  8909 net.cpp:91] Creating Layer conv5
I0403 12:26:43.672010  8909 net.cpp:425] conv5 <- conv4
I0403 12:26:43.672029  8909 net.cpp:399] conv5 -> conv5
I0403 12:26:43.692956  8909 net.cpp:141] Setting up conv5
I0403 12:26:43.693018  8909 net.cpp:148] Top shape: 100 256 13 13 (4326400)
I0403 12:26:43.693037  8909 net.cpp:156] Memory required for data: 800703600
I0403 12:26:43.693061  8909 layer_factory.hpp:77] Creating layer relu5
I0403 12:26:43.693084  8909 net.cpp:91] Creating Layer relu5
I0403 12:26:43.693099  8909 net.cpp:425] relu5 <- conv5
I0403 12:26:43.693120  8909 net.cpp:386] relu5 -> conv5 (in-place)
I0403 12:26:43.693454  8909 net.cpp:141] Setting up relu5
I0403 12:26:43.693481  8909 net.cpp:148] Top shape: 100 256 13 13 (4326400)
I0403 12:26:43.693497  8909 net.cpp:156] Memory required for data: 818009200
I0403 12:26:43.693511  8909 layer_factory.hpp:77] Creating layer pool5
I0403 12:26:43.693536  8909 net.cpp:91] Creating Layer pool5
I0403 12:26:43.693553  8909 net.cpp:425] pool5 <- conv5
I0403 12:26:43.693572  8909 net.cpp:399] pool5 -> pool5
I0403 12:26:43.693646  8909 net.cpp:141] Setting up pool5
I0403 12:26:43.693670  8909 net.cpp:148] Top shape: 100 256 6 6 (921600)
I0403 12:26:43.693686  8909 net.cpp:156] Memory required for data: 821695600
I0403 12:26:43.693699  8909 layer_factory.hpp:77] Creating layer fc6
I0403 12:26:43.693727  8909 net.cpp:91] Creating Layer fc6
I0403 12:26:43.693743  8909 net.cpp:425] fc6 <- pool5
I0403 12:26:43.693765  8909 net.cpp:399] fc6 -> fc6
I0403 12:26:45.246270  8909 net.cpp:141] Setting up fc6
I0403 12:26:45.246333  8909 net.cpp:148] Top shape: 100 4096 (409600)
I0403 12:26:45.246350  8909 net.cpp:156] Memory required for data: 823334000
I0403 12:26:45.246371  8909 layer_factory.hpp:77] Creating layer relu6
I0403 12:26:45.246392  8909 net.cpp:91] Creating Layer relu6
I0403 12:26:45.246408  8909 net.cpp:425] relu6 <- fc6
I0403 12:26:45.246426  8909 net.cpp:386] relu6 -> fc6 (in-place)
I0403 12:26:45.246647  8909 net.cpp:141] Setting up relu6
I0403 12:26:45.246673  8909 net.cpp:148] Top shape: 100 4096 (409600)
I0403 12:26:45.246688  8909 net.cpp:156] Memory required for data: 824972400
I0403 12:26:45.246702  8909 layer_factory.hpp:77] Creating layer drop6
I0403 12:26:45.246721  8909 net.cpp:91] Creating Layer drop6
I0403 12:26:45.246734  8909 net.cpp:425] drop6 <- fc6
I0403 12:26:45.246752  8909 net.cpp:386] drop6 -> fc6 (in-place)
I0403 12:26:45.246800  8909 net.cpp:141] Setting up drop6
I0403 12:26:45.246821  8909 net.cpp:148] Top shape: 100 4096 (409600)
I0403 12:26:45.246835  8909 net.cpp:156] Memory required for data: 826610800
I0403 12:26:45.246850  8909 layer_factory.hpp:77] Creating layer fc7
I0403 12:26:45.246871  8909 net.cpp:91] Creating Layer fc7
I0403 12:26:45.246887  8909 net.cpp:425] fc7 <- fc6
I0403 12:26:45.246906  8909 net.cpp:399] fc7 -> fc7
I0403 12:26:45.930243  8909 net.cpp:141] Setting up fc7
I0403 12:26:45.930284  8909 net.cpp:148] Top shape: 100 4096 (409600)
I0403 12:26:45.930299  8909 net.cpp:156] Memory required for data: 828249200
I0403 12:26:45.930320  8909 layer_factory.hpp:77] Creating layer relu7
I0403 12:26:45.930341  8909 net.cpp:91] Creating Layer relu7
I0403 12:26:45.930358  8909 net.cpp:425] relu7 <- fc7
I0403 12:26:45.930379  8909 net.cpp:386] relu7 -> fc7 (in-place)
I0403 12:26:45.930794  8909 net.cpp:141] Setting up relu7
I0403 12:26:45.930820  8909 net.cpp:148] Top shape: 100 4096 (409600)
I0403 12:26:45.930871  8909 net.cpp:156] Memory required for data: 829887600
I0403 12:26:45.930887  8909 layer_factory.hpp:77] Creating layer drop7
I0403 12:26:45.930907  8909 net.cpp:91] Creating Layer drop7
I0403 12:26:45.930922  8909 net.cpp:425] drop7 <- fc7
I0403 12:26:45.930940  8909 net.cpp:386] drop7 -> fc7 (in-place)
I0403 12:26:45.930984  8909 net.cpp:141] Setting up drop7
I0403 12:26:45.931005  8909 net.cpp:148] Top shape: 100 4096 (409600)
I0403 12:26:45.931018  8909 net.cpp:156] Memory required for data: 831526000
I0403 12:26:45.931032  8909 layer_factory.hpp:77] Creating layer fc8_plantvillage
I0403 12:26:45.931054  8909 net.cpp:91] Creating Layer fc8_plantvillage
I0403 12:26:45.931069  8909 net.cpp:425] fc8_plantvillage <- fc7
I0403 12:26:45.931090  8909 net.cpp:399] fc8_plantvillage -> fc8_plantvillage
I0403 12:26:45.937826  8909 net.cpp:141] Setting up fc8_plantvillage
I0403 12:26:45.937855  8909 net.cpp:148] Top shape: 100 38 (3800)
I0403 12:26:45.937870  8909 net.cpp:156] Memory required for data: 831541200
I0403 12:26:45.937887  8909 layer_factory.hpp:77] Creating layer fc8_plantvillage_fc8_plantvillage_0_split
I0403 12:26:45.937906  8909 net.cpp:91] Creating Layer fc8_plantvillage_fc8_plantvillage_0_split
I0403 12:26:45.937919  8909 net.cpp:425] fc8_plantvillage_fc8_plantvillage_0_split <- fc8_plantvillage
I0403 12:26:45.937939  8909 net.cpp:399] fc8_plantvillage_fc8_plantvillage_0_split -> fc8_plantvillage_fc8_plantvillage_0_split_0
I0403 12:26:45.937959  8909 net.cpp:399] fc8_plantvillage_fc8_plantvillage_0_split -> fc8_plantvillage_fc8_plantvillage_0_split_1
I0403 12:26:45.937978  8909 net.cpp:399] fc8_plantvillage_fc8_plantvillage_0_split -> fc8_plantvillage_fc8_plantvillage_0_split_2
I0403 12:26:45.938055  8909 net.cpp:141] Setting up fc8_plantvillage_fc8_plantvillage_0_split
I0403 12:26:45.938081  8909 net.cpp:148] Top shape: 100 38 (3800)
I0403 12:26:45.938097  8909 net.cpp:148] Top shape: 100 38 (3800)
I0403 12:26:45.938112  8909 net.cpp:148] Top shape: 100 38 (3800)
I0403 12:26:45.938125  8909 net.cpp:156] Memory required for data: 831586800
I0403 12:26:45.938139  8909 layer_factory.hpp:77] Creating layer prob
I0403 12:26:45.938158  8909 net.cpp:91] Creating Layer prob
I0403 12:26:45.938171  8909 net.cpp:425] prob <- fc8_plantvillage_fc8_plantvillage_0_split_0
I0403 12:26:45.938189  8909 net.cpp:399] prob -> prob
I0403 12:26:45.938418  8909 net.cpp:141] Setting up prob
I0403 12:26:45.938446  8909 net.cpp:148] Top shape: 100 38 (3800)
I0403 12:26:45.938462  8909 net.cpp:156] Memory required for data: 831602000
I0403 12:26:45.938477  8909 layer_factory.hpp:77] Creating layer hdf5out
I0403 12:26:45.938494  8909 net.cpp:91] Creating Layer hdf5out
I0403 12:26:45.938509  8909 net.cpp:425] hdf5out <- prob
I0403 12:26:45.938525  8909 net.cpp:425] hdf5out <- label_data_1_split_0
I0403 12:26:45.945991  8909 net.cpp:141] Setting up hdf5out
…
