…
I0403 12:04:50.904253  8411 net.cpp:313] The NetState phase (1) differed from the phase (0) specified by a rule in layer data
I0403 12:04:50.904578  8411 net.cpp:49] Initializing net from parameters: 
state {
  phase: TEST
}
layer {
  name: "data"
  type: "Data"
  top: "data"
  top: "label"
  include {
    phase: TEST
  }
  transform_param {
    crop_size: 227
    mean_file: "/home/mohanty/data/final_dataset/lmdb/segmented-20-80/mean.binaryproto"
  }
  data_param {
    source: "/home/mohanty/data/final_dataset/lmdb/segmented-20-80/test_db"
    batch_size: 100
    backend: LMDB
  }
}
layer {
  name: "conv1"
  type: "Convolution"
  bottom: "data"
  top: "conv1"
  param {
    lr_mult: 1
    decay_mult: 1
  }
  param {
    lr_mult: 2
    decay_mult: 0
  }
  convolution_param {
    num_output: 96
    kernel_size: 11
    stride: 4
    weight_filler {
      type: "gaussian"
      std: 0.01
    }
    bias_filler {
      type: "constant"
      value: 0
    }
  }
}
layer {
  name: "relu1"
  type: "ReLU"
  bottom: "conv1"
  top: "conv1"
}
layer {
  name: "norm1"
  type: "LRN"
  bottom: "conv1"
  top: "norm1"
  lrn_param {
    local_size: 5
    alpha: 0.0001
    beta: 0.75
  }
}
layer {
  name: "pool1"
  type: "Pooling"
  bottom: "norm1"
  top: "pool1"
  pooling_param {
    pool: MAX
    kernel_size: 3
    stride: 2
  }
}
layer {
  name: "conv2"
  type: "Convolution"
  bottom: "pool1"
  top: "conv2"
  param {
    lr_mult: 1
    decay_mult: 1
  }
  param {
    lr_mult: 2
    decay_mult: 0
  }
  convolution_param {
    num_output: 256
    pad: 2
    kernel_size: 5
    group: 2
    weight_filler {
      type: "gaussian"
      std: 0.01
    }
    bias_filler {
      type: "constant"
      value: 0.1
    }
  }
}
layer {
  name: "relu2"
  type: "ReLU"
  bottom: "conv2"
  top: "conv2"
}
layer {
  name: "norm2"
  type: "LRN"
  bottom: "conv2"
  top: "norm2"
  lrn_param {
    local_size: 5
    alpha: 0.0001
    beta: 0.75
  }
}
layer {
  name: "pool2"
  type: "Pooling"
  bottom: "norm2"
  top: "pool2"
  pooling_param {
    pool: MAX
    kernel_size: 3
    stride: 2
  }
}
layer {
  name: "conv3"
  type: "Convolution"
  bottom: "pool2"
  top: "conv3"
  param {
    lr_mult: 1
    decay_mult: 1
  }
  param {
    lr_mult: 2
    decay_mult: 0
  }
  convolution_param {
    num_output: 384
    pad: 1
    kernel_size: 3
    weight_filler {
      type: "gaussian"
      std: 0.01
    }
    bias_filler {
      type: "constant"
      value: 0
    }
  }
}
layer {
  name: "relu3"
  type: "ReLU"
  bottom: "conv3"
  top: "conv3"
}
layer {
  name: "conv4"
  type: "Convolution"
  bottom: "conv3"
  top: "conv4"
  param {
    lr_mult: 1
    decay_mult: 1
  }
  param {
    lr_mult: 2
    decay_mult: 0
  }
  convolution_param {
    num_output: 384
    pad: 1
    kernel_size: 3
    group: 2
    weight_filler {
      type: "gaussian"
      std: 0.01
    }
    bias_filler {
      type: "constant"
      value: 0.1
    }
  }
}
layer {
  name: "relu4"
  type: "ReLU"
  bottom: "conv4"
  top: "conv4"
}
layer {
  name: "conv5"
  type: "Convolution"
  bottom: "conv4"
  top: "conv5"
  param {
    lr_mult: 1
    decay_mult: 1
  }
  param {
    lr_mult: 2
    decay_mult: 0
  }
  convolution_param {
    num_output: 256
    pad: 1
    kernel_size: 3
    group: 2
    weight_filler {
      type: "gaussian"
      std: 0.01
    }
    bias_filler {
      type: "constant"
      value: 0.1
    }
  }
}
layer {
  name: "relu5"
  type: "ReLU"
  bottom: "conv5"
  top: "conv5"
}
layer {
  name: "pool5"
  type: "Pooling"
  bottom: "conv5"
  top: "pool5"
  pooling_param {
    pool: MAX
    kernel_size: 3
    stride: 2
  }
}
layer {
  name: "fc6"
  type: "InnerProduct"
  bottom: "pool5"
  top: "fc6"
  param {
    lr_mult: 1
    decay_mult: 1
  }
  param {
    lr_mult: 2
    decay_mult: 0
  }
  inner_product_param {
    num_output: 4096
    weight_filler {
      type: "gaussian"
      std: 0.005
    }
    bias_filler {
      type: "constant"
      value: 0.1
    }
  }
}
layer {
  name: "relu6"
  type: "ReLU"
  bottom: "fc6"
  top: "fc6"
}
layer {
  name: "drop6"
  type: "Dropout"
  bottom: "fc6"
  top: "fc6"
  dropout_param {
    dropout_ratio: 0.5
  }
}
layer {
  name: "fc7"
  type: "InnerProduct"
  bottom: "fc6"
  top: "fc7"
  param {
    lr_mult: 1
    decay_mult: 1
  }
  param {
    lr_mult: 2
    decay_mult: 0
  }
  inner_product_param {
    num_output: 4096
    weight_filler {
      type: "gaussian"
      std: 0.005
    }
    bias_filler {
      type: "constant"
      value: 0.1
    }
  }
}
layer {
  name: "relu7"
  type: "ReLU"
  bottom: "fc7"
  top: "fc7"
}
layer {
  name: "drop7"
  type: "Dropout"
  bottom: "fc7"
  top: "fc7"
  dropout_param {
    dropout_ratio: 0.5
  }
}
layer {
  name: "fc8_plantvillage"
  type: "InnerProduct"
  bottom: "fc7"
  top: "fc8_plantvillage"
  param {
    lr_mult: 1
    decay_mult: 1
  }
  param {
    lr_mult: 2
    decay_mult: 0
  }
  inner_product_param {
    num_output: 38
    weight_filler {
      type: "gaussian"
      std: 0.01
    }
    bias_filler {
      type: "constant"
      value: 0
    }
  }
}
layer {
  name: "prob"
  type: "Softmax"
  bottom: "fc8_plantvillage"
  top: "prob"
  include {
    phase: TEST
  }
}
layer {
  name: "hdf5out"
  type: "HDF5Output"
  bottom: "prob"
  bottom: "label"
  include {
    phase: TEST
  }
  hdf5_output_param {
    file_name: "hdf5_dumps/iter_318.h5"
  }
}
layer {
  name: "loss"
  type: "SoftmaxWithLoss"
  bottom: "fc8_plantvillage"
  bottom: "label"
  top: "loss"
}
layer {
  name: "accuracy"
  type: "Accuracy"
  bottom: "fc8_plantvillage"
  bottom: "label"
  top: "accuracy"
  include {
    phase: TEST
  }
}
I0403 12:04:50.905133  8411 layer_factory.hpp:77] Creating layer data
I0403 12:04:50.905771  8411 net.cpp:91] Creating Layer data
I0403 12:04:50.905802  8411 net.cpp:399] data -> data
I0403 12:04:50.905863  8411 net.cpp:399] data -> label
I0403 12:04:50.905900  8411 data_transformer.cpp:25] Loading mean file from: /home/mohanty/data/final_dataset/lmdb/segmented-20-80/mean.binaryproto
I0403 12:04:50.908736  8414 db_lmdb.cpp:38] Opened lmdb /home/mohanty/data/final_dataset/lmdb/segmented-20-80/test_db
I0403 12:04:50.920172  8411 data_layer.cpp:41] output data size: 100,3,227,227
I0403 12:04:51.039108  8411 net.cpp:141] Setting up data
I0403 12:04:51.039202  8411 net.cpp:148] Top shape: 100 3 227 227 (15458700)
I0403 12:04:51.039225  8411 net.cpp:148] Top shape: 100 (100)
I0403 12:04:51.039242  8411 net.cpp:156] Memory required for data: 61835200
I0403 12:04:51.039269  8411 layer_factory.hpp:77] Creating layer label_data_1_split
I0403 12:04:51.039295  8411 net.cpp:91] Creating Layer label_data_1_split
I0403 12:04:51.039314  8411 net.cpp:425] label_data_1_split <- label
I0403 12:04:51.039347  8411 net.cpp:399] label_data_1_split -> label_data_1_split_0
I0403 12:04:51.039376  8411 net.cpp:399] label_data_1_split -> label_data_1_split_1
I0403 12:04:51.039397  8411 net.cpp:399] label_data_1_split -> label_data_1_split_2
I0403 12:04:51.039463  8411 net.cpp:141] Setting up label_data_1_split
I0403 12:04:51.039485  8411 net.cpp:148] Top shape: 100 (100)
I0403 12:04:51.039502  8411 net.cpp:148] Top shape: 100 (100)
I0403 12:04:51.039518  8411 net.cpp:148] Top shape: 100 (100)
I0403 12:04:51.039532  8411 net.cpp:156] Memory required for data: 61836400
I0403 12:04:51.039548  8411 layer_factory.hpp:77] Creating layer conv1
I0403 12:04:51.039582  8411 net.cpp:91] Creating Layer conv1
I0403 12:04:51.039602  8411 net.cpp:425] conv1 <- data
I0403 12:04:51.039621  8411 net.cpp:399] conv1 -> conv1
I0403 12:04:51.176764  8411 net.cpp:141] Setting up conv1
I0403 12:04:51.176826  8411 net.cpp:148] Top shape: 100 96 55 55 (29040000)
I0403 12:04:51.176844  8411 net.cpp:156] Memory required for data: 177996400
I0403 12:04:51.176875  8411 layer_factory.hpp:77] Creating layer relu1
I0403 12:04:51.176903  8411 net.cpp:91] Creating Layer relu1
I0403 12:04:51.176923  8411 net.cpp:425] relu1 <- conv1
I0403 12:04:51.176941  8411 net.cpp:386] relu1 -> conv1 (in-place)
I0403 12:04:51.177203  8411 net.cpp:141] Setting up relu1
I0403 12:04:51.177230  8411 net.cpp:148] Top shape: 100 96 55 55 (29040000)
I0403 12:04:51.177280  8411 net.cpp:156] Memory required for data: 294156400
I0403 12:04:51.177299  8411 layer_factory.hpp:77] Creating layer norm1
I0403 12:04:51.177327  8411 net.cpp:91] Creating Layer norm1
I0403 12:04:51.177346  8411 net.cpp:425] norm1 <- conv1
I0403 12:04:51.177364  8411 net.cpp:399] norm1 -> norm1
I0403 12:04:51.177685  8411 net.cpp:141] Setting up norm1
I0403 12:04:51.177712  8411 net.cpp:148] Top shape: 100 96 55 55 (29040000)
I0403 12:04:51.177728  8411 net.cpp:156] Memory required for data: 410316400
I0403 12:04:51.177743  8411 layer_factory.hpp:77] Creating layer pool1
I0403 12:04:51.177767  8411 net.cpp:91] Creating Layer pool1
I0403 12:04:51.177784  8411 net.cpp:425] pool1 <- norm1
I0403 12:04:51.177811  8411 net.cpp:399] pool1 -> pool1
I0403 12:04:51.177880  8411 net.cpp:141] Setting up pool1
I0403 12:04:51.177903  8411 net.cpp:148] Top shape: 100 96 27 27 (6998400)
I0403 12:04:51.177919  8411 net.cpp:156] Memory required for data: 438310000
I0403 12:04:51.177934  8411 layer_factory.hpp:77] Creating layer conv2
I0403 12:04:51.177959  8411 net.cpp:91] Creating Layer conv2
I0403 12:04:51.177975  8411 net.cpp:425] conv2 <- pool1
I0403 12:04:51.177995  8411 net.cpp:399] conv2 -> conv2
I0403 12:04:51.193115  8411 net.cpp:141] Setting up conv2
I0403 12:04:51.193159  8411 net.cpp:148] Top shape: 100 256 27 27 (18662400)
I0403 12:04:51.193177  8411 net.cpp:156] Memory required for data: 512959600
I0403 12:04:51.193202  8411 layer_factory.hpp:77] Creating layer relu2
I0403 12:04:51.193222  8411 net.cpp:91] Creating Layer relu2
I0403 12:04:51.193238  8411 net.cpp:425] relu2 <- conv2
I0403 12:04:51.193276  8411 net.cpp:386] relu2 -> conv2 (in-place)
I0403 12:04:51.193554  8411 net.cpp:141] Setting up relu2
I0403 12:04:51.193588  8411 net.cpp:148] Top shape: 100 256 27 27 (18662400)
I0403 12:04:51.193604  8411 net.cpp:156] Memory required for data: 587609200
I0403 12:04:51.193620  8411 layer_factory.hpp:77] Creating layer norm2
I0403 12:04:51.193642  8411 net.cpp:91] Creating Layer norm2
I0403 12:04:51.193660  8411 net.cpp:425] norm2 <- conv2
I0403 12:04:51.193677  8411 net.cpp:399] norm2 -> norm2
I0403 12:04:51.193867  8411 net.cpp:141] Setting up norm2
I0403 12:04:51.193893  8411 net.cpp:148] Top shape: 100 256 27 27 (18662400)
I0403 12:04:51.193909  8411 net.cpp:156] Memory required for data: 662258800
I0403 12:04:51.193924  8411 layer_factory.hpp:77] Creating layer pool2
I0403 12:04:51.193944  8411 net.cpp:91] Creating Layer pool2
I0403 12:04:51.193960  8411 net.cpp:425] pool2 <- norm2
I0403 12:04:51.193977  8411 net.cpp:399] pool2 -> pool2
I0403 12:04:51.194027  8411 net.cpp:141] Setting up pool2
I0403 12:04:51.194051  8411 net.cpp:148] Top shape: 100 256 13 13 (4326400)
I0403 12:04:51.194067  8411 net.cpp:156] Memory required for data: 679564400
I0403 12:04:51.194082  8411 layer_factory.hpp:77] Creating layer conv3
I0403 12:04:51.194104  8411 net.cpp:91] Creating Layer conv3
I0403 12:04:51.194123  8411 net.cpp:425] conv3 <- pool2
I0403 12:04:51.194141  8411 net.cpp:399] conv3 -> conv3
I0403 12:04:51.232636  8411 net.cpp:141] Setting up conv3
I0403 12:04:51.232712  8411 net.cpp:148] Top shape: 100 384 13 13 (6489600)
I0403 12:04:51.232728  8411 net.cpp:156] Memory required for data: 705522800
I0403 12:04:51.232758  8411 layer_factory.hpp:77] Creating layer relu3
I0403 12:04:51.232780  8411 net.cpp:91] Creating Layer relu3
I0403 12:04:51.232800  8411 net.cpp:425] relu3 <- conv3
I0403 12:04:51.232851  8411 net.cpp:386] relu3 -> conv3 (in-place)
I0403 12:04:51.233181  8411 net.cpp:141] Setting up relu3
I0403 12:04:51.233211  8411 net.cpp:148] Top shape: 100 384 13 13 (6489600)
I0403 12:04:51.233227  8411 net.cpp:156] Memory required for data: 731481200
I0403 12:04:51.233242  8411 layer_factory.hpp:77] Creating layer conv4
I0403 12:04:51.233280  8411 net.cpp:91] Creating Layer conv4
I0403 12:04:51.233299  8411 net.cpp:425] conv4 <- conv3
I0403 12:04:51.233317  8411 net.cpp:399] conv4 -> conv4
I0403 12:04:51.263314  8411 net.cpp:141] Setting up conv4
I0403 12:04:51.263380  8411 net.cpp:148] Top shape: 100 384 13 13 (6489600)
I0403 12:04:51.263432  8411 net.cpp:156] Memory required for data: 757439600
I0403 12:04:51.263453  8411 layer_factory.hpp:77] Creating layer relu4
I0403 12:04:51.263479  8411 net.cpp:91] Creating Layer relu4
I0403 12:04:51.263499  8411 net.cpp:425] relu4 <- conv4
I0403 12:04:51.263516  8411 net.cpp:386] relu4 -> conv4 (in-place)
I0403 12:04:51.263804  8411 net.cpp:141] Setting up relu4
I0403 12:04:51.263831  8411 net.cpp:148] Top shape: 100 384 13 13 (6489600)
I0403 12:04:51.263847  8411 net.cpp:156] Memory required for data: 783398000
I0403 12:04:51.263862  8411 layer_factory.hpp:77] Creating layer conv5
I0403 12:04:51.263888  8411 net.cpp:91] Creating Layer conv5
I0403 12:04:51.263911  8411 net.cpp:425] conv5 <- conv4
I0403 12:04:51.263931  8411 net.cpp:399] conv5 -> conv5
I0403 12:04:51.284878  8411 net.cpp:141] Setting up conv5
I0403 12:04:51.284935  8411 net.cpp:148] Top shape: 100 256 13 13 (4326400)
I0403 12:04:51.284960  8411 net.cpp:156] Memory required for data: 800703600
I0403 12:04:51.284984  8411 layer_factory.hpp:77] Creating layer relu5
I0403 12:04:51.285006  8411 net.cpp:91] Creating Layer relu5
I0403 12:04:51.285023  8411 net.cpp:425] relu5 <- conv5
I0403 12:04:51.285043  8411 net.cpp:386] relu5 -> conv5 (in-place)
I0403 12:04:51.285356  8411 net.cpp:141] Setting up relu5
I0403 12:04:51.285387  8411 net.cpp:148] Top shape: 100 256 13 13 (4326400)
I0403 12:04:51.285403  8411 net.cpp:156] Memory required for data: 818009200
I0403 12:04:51.285419  8411 layer_factory.hpp:77] Creating layer pool5
I0403 12:04:51.285442  8411 net.cpp:91] Creating Layer pool5
I0403 12:04:51.285459  8411 net.cpp:425] pool5 <- conv5
I0403 12:04:51.285480  8411 net.cpp:399] pool5 -> pool5
I0403 12:04:51.285542  8411 net.cpp:141] Setting up pool5
I0403 12:04:51.285565  8411 net.cpp:148] Top shape: 100 256 6 6 (921600)
I0403 12:04:51.285586  8411 net.cpp:156] Memory required for data: 821695600
I0403 12:04:51.285603  8411 layer_factory.hpp:77] Creating layer fc6
I0403 12:04:51.285631  8411 net.cpp:91] Creating Layer fc6
I0403 12:04:51.285651  8411 net.cpp:425] fc6 <- pool5
I0403 12:04:51.285672  8411 net.cpp:399] fc6 -> fc6
I0403 12:04:52.828830  8411 net.cpp:141] Setting up fc6
I0403 12:04:52.828884  8411 net.cpp:148] Top shape: 100 4096 (409600)
I0403 12:04:52.828901  8411 net.cpp:156] Memory required for data: 823334000
I0403 12:04:52.828922  8411 layer_factory.hpp:77] Creating layer relu6
I0403 12:04:52.828946  8411 net.cpp:91] Creating Layer relu6
I0403 12:04:52.828964  8411 net.cpp:425] relu6 <- fc6
I0403 12:04:52.828984  8411 net.cpp:386] relu6 -> fc6 (in-place)
I0403 12:04:52.829219  8411 net.cpp:141] Setting up relu6
I0403 12:04:52.829246  8411 net.cpp:148] Top shape: 100 4096 (409600)
I0403 12:04:52.829262  8411 net.cpp:156] Memory required for data: 824972400
I0403 12:04:52.829277  8411 layer_factory.hpp:77] Creating layer drop6
I0403 12:04:52.829296  8411 net.cpp:91] Creating Layer drop6
I0403 12:04:52.829313  8411 net.cpp:425] drop6 <- fc6
I0403 12:04:52.829340  8411 net.cpp:386] drop6 -> fc6 (in-place)
I0403 12:04:52.829393  8411 net.cpp:141] Setting up drop6
I0403 12:04:52.829416  8411 net.cpp:148] Top shape: 100 4096 (409600)
I0403 12:04:52.829429  8411 net.cpp:156] Memory required for data: 826610800
I0403 12:04:52.829443  8411 layer_factory.hpp:77] Creating layer fc7
I0403 12:04:52.829464  8411 net.cpp:91] Creating Layer fc7
I0403 12:04:52.829480  8411 net.cpp:425] fc7 <- fc6
I0403 12:04:52.829498  8411 net.cpp:399] fc7 -> fc7
I0403 12:04:53.511396  8411 net.cpp:141] Setting up fc7
I0403 12:04:53.511438  8411 net.cpp:148] Top shape: 100 4096 (409600)
I0403 12:04:53.511456  8411 net.cpp:156] Memory required for data: 828249200
I0403 12:04:53.511476  8411 layer_factory.hpp:77] Creating layer relu7
I0403 12:04:53.511500  8411 net.cpp:91] Creating Layer relu7
I0403 12:04:53.511520  8411 net.cpp:425] relu7 <- fc7
I0403 12:04:53.511538  8411 net.cpp:386] relu7 -> fc7 (in-place)
I0403 12:04:53.511931  8411 net.cpp:141] Setting up relu7
I0403 12:04:53.511960  8411 net.cpp:148] Top shape: 100 4096 (409600)
I0403 12:04:53.512015  8411 net.cpp:156] Memory required for data: 829887600
I0403 12:04:53.512030  8411 layer_factory.hpp:77] Creating layer drop7
I0403 12:04:53.512049  8411 net.cpp:91] Creating Layer drop7
I0403 12:04:53.512064  8411 net.cpp:425] drop7 <- fc7
I0403 12:04:53.512080  8411 net.cpp:386] drop7 -> fc7 (in-place)
I0403 12:04:53.512125  8411 net.cpp:141] Setting up drop7
I0403 12:04:53.512147  8411 net.cpp:148] Top shape: 100 4096 (409600)
I0403 12:04:53.512161  8411 net.cpp:156] Memory required for data: 831526000
I0403 12:04:53.512176  8411 layer_factory.hpp:77] Creating layer fc8_plantvillage
I0403 12:04:53.512197  8411 net.cpp:91] Creating Layer fc8_plantvillage
I0403 12:04:53.512213  8411 net.cpp:425] fc8_plantvillage <- fc7
I0403 12:04:53.512230  8411 net.cpp:399] fc8_plantvillage -> fc8_plantvillage
I0403 12:04:53.518908  8411 net.cpp:141] Setting up fc8_plantvillage
I0403 12:04:53.518936  8411 net.cpp:148] Top shape: 100 38 (3800)
I0403 12:04:53.518951  8411 net.cpp:156] Memory required for data: 831541200
I0403 12:04:53.518970  8411 layer_factory.hpp:77] Creating layer fc8_plantvillage_fc8_plantvillage_0_split
I0403 12:04:53.518987  8411 net.cpp:91] Creating Layer fc8_plantvillage_fc8_plantvillage_0_split
I0403 12:04:53.519002  8411 net.cpp:425] fc8_plantvillage_fc8_plantvillage_0_split <- fc8_plantvillage
I0403 12:04:53.519019  8411 net.cpp:399] fc8_plantvillage_fc8_plantvillage_0_split -> fc8_plantvillage_fc8_plantvillage_0_split_0
I0403 12:04:53.519042  8411 net.cpp:399] fc8_plantvillage_fc8_plantvillage_0_split -> fc8_plantvillage_fc8_plantvillage_0_split_1
I0403 12:04:53.519062  8411 net.cpp:399] fc8_plantvillage_fc8_plantvillage_0_split -> fc8_plantvillage_fc8_plantvillage_0_split_2
I0403 12:04:53.519137  8411 net.cpp:141] Setting up fc8_plantvillage_fc8_plantvillage_0_split
I0403 12:04:53.519160  8411 net.cpp:148] Top shape: 100 38 (3800)
I0403 12:04:53.519176  8411 net.cpp:148] Top shape: 100 38 (3800)
I0403 12:04:53.519191  8411 net.cpp:148] Top shape: 100 38 (3800)
I0403 12:04:53.519204  8411 net.cpp:156] Memory required for data: 831586800
I0403 12:04:53.519218  8411 layer_factory.hpp:77] Creating layer prob
I0403 12:04:53.519237  8411 net.cpp:91] Creating Layer prob
I0403 12:04:53.519251  8411 net.cpp:425] prob <- fc8_plantvillage_fc8_plantvillage_0_split_0
I0403 12:04:53.519268  8411 net.cpp:399] prob -> prob
I0403 12:04:53.519489  8411 net.cpp:141] Setting up prob
I0403 12:04:53.519513  8411 net.cpp:148] Top shape: 100 38 (3800)
I0403 12:04:53.519528  8411 net.cpp:156] Memory required for data: 831602000
I0403 12:04:53.519554  8411 layer_factory.hpp:77] Creating layer hdf5out
I0403 12:04:53.519580  8411 net.cpp:91] Creating Layer hdf5out
I0403 12:04:53.519599  8411 net.cpp:425] hdf5out <- prob
I0403 12:04:53.519615  8411 net.cpp:425] hdf5out <- label_data_1_split_0
I0403 12:04:53.522147  8411 net.cpp:141] Setting up hdf5out
…
