…
I0403 12:15:09.330399  8644 net.cpp:313] The NetState phase (1) differed from the phase (0) specified by a rule in layer data
I0403 12:15:09.330742  8644 net.cpp:49] Initializing net from parameters: 
state {
  phase: TEST
}
layer {
  name: "data"
  type: "Data"
  top: "data"
  top: "label"
  include {
    phase: TEST
  }
  transform_param {
    crop_size: 227
    mean_file: "/home/mohanty/data/final_dataset/lmdb/segmented-20-80/mean.binaryproto"
  }
  data_param {
    source: "/home/mohanty/data/final_dataset/lmdb/segmented-20-80/test_db"
    batch_size: 100
    backend: LMDB
  }
}
layer {
  name: "conv1"
  type: "Convolution"
  bottom: "data"
  top: "conv1"
  param {
    lr_mult: 1
    decay_mult: 1
  }
  param {
    lr_mult: 2
    decay_mult: 0
  }
  convolution_param {
    num_output: 96
    kernel_size: 11
    stride: 4
    weight_filler {
      type: "gaussian"
      std: 0.01
    }
    bias_filler {
      type: "constant"
      value: 0
    }
  }
}
layer {
  name: "relu1"
  type: "ReLU"
  bottom: "conv1"
  top: "conv1"
}
layer {
  name: "norm1"
  type: "LRN"
  bottom: "conv1"
  top: "norm1"
  lrn_param {
    local_size: 5
    alpha: 0.0001
    beta: 0.75
  }
}
layer {
  name: "pool1"
  type: "Pooling"
  bottom: "norm1"
  top: "pool1"
  pooling_param {
    pool: MAX
    kernel_size: 3
    stride: 2
  }
}
layer {
  name: "conv2"
  type: "Convolution"
  bottom: "pool1"
  top: "conv2"
  param {
    lr_mult: 1
    decay_mult: 1
  }
  param {
    lr_mult: 2
    decay_mult: 0
  }
  convolution_param {
    num_output: 256
    pad: 2
    kernel_size: 5
    group: 2
    weight_filler {
      type: "gaussian"
      std: 0.01
    }
    bias_filler {
      type: "constant"
      value: 0.1
    }
  }
}
layer {
  name: "relu2"
  type: "ReLU"
  bottom: "conv2"
  top: "conv2"
}
layer {
  name: "norm2"
  type: "LRN"
  bottom: "conv2"
  top: "norm2"
  lrn_param {
    local_size: 5
    alpha: 0.0001
    beta: 0.75
  }
}
layer {
  name: "pool2"
  type: "Pooling"
  bottom: "norm2"
  top: "pool2"
  pooling_param {
    pool: MAX
    kernel_size: 3
    stride: 2
  }
}
layer {
  name: "conv3"
  type: "Convolution"
  bottom: "pool2"
  top: "conv3"
  param {
    lr_mult: 1
    decay_mult: 1
  }
  param {
    lr_mult: 2
    decay_mult: 0
  }
  convolution_param {
    num_output: 384
    pad: 1
    kernel_size: 3
    weight_filler {
      type: "gaussian"
      std: 0.01
    }
    bias_filler {
      type: "constant"
      value: 0
    }
  }
}
layer {
  name: "relu3"
  type: "ReLU"
  bottom: "conv3"
  top: "conv3"
}
layer {
  name: "conv4"
  type: "Convolution"
  bottom: "conv3"
  top: "conv4"
  param {
    lr_mult: 1
    decay_mult: 1
  }
  param {
    lr_mult: 2
    decay_mult: 0
  }
  convolution_param {
    num_output: 384
    pad: 1
    kernel_size: 3
    group: 2
    weight_filler {
      type: "gaussian"
      std: 0.01
    }
    bias_filler {
      type: "constant"
      value: 0.1
    }
  }
}
layer {
  name: "relu4"
  type: "ReLU"
  bottom: "conv4"
  top: "conv4"
}
layer {
  name: "conv5"
  type: "Convolution"
  bottom: "conv4"
  top: "conv5"
  param {
    lr_mult: 1
    decay_mult: 1
  }
  param {
    lr_mult: 2
    decay_mult: 0
  }
  convolution_param {
    num_output: 256
    pad: 1
    kernel_size: 3
    group: 2
    weight_filler {
      type: "gaussian"
      std: 0.01
    }
    bias_filler {
      type: "constant"
      value: 0.1
    }
  }
}
layer {
  name: "relu5"
  type: "ReLU"
  bottom: "conv5"
  top: "conv5"
}
layer {
  name: "pool5"
  type: "Pooling"
  bottom: "conv5"
  top: "pool5"
  pooling_param {
    pool: MAX
    kernel_size: 3
    stride: 2
  }
}
layer {
  name: "fc6"
  type: "InnerProduct"
  bottom: "pool5"
  top: "fc6"
  param {
    lr_mult: 1
    decay_mult: 1
  }
  param {
    lr_mult: 2
    decay_mult: 0
  }
  inner_product_param {
    num_output: 4096
    weight_filler {
      type: "gaussian"
      std: 0.005
    }
    bias_filler {
      type: "constant"
      value: 0.1
    }
  }
}
layer {
  name: "relu6"
  type: "ReLU"
  bottom: "fc6"
  top: "fc6"
}
layer {
  name: "drop6"
  type: "Dropout"
  bottom: "fc6"
  top: "fc6"
  dropout_param {
    dropout_ratio: 0.5
  }
}
layer {
  name: "fc7"
  type: "InnerProduct"
  bottom: "fc6"
  top: "fc7"
  param {
    lr_mult: 1
    decay_mult: 1
  }
  param {
    lr_mult: 2
    decay_mult: 0
  }
  inner_product_param {
    num_output: 4096
    weight_filler {
      type: "gaussian"
      std: 0.005
    }
    bias_filler {
      type: "constant"
      value: 0.1
    }
  }
}
layer {
  name: "relu7"
  type: "ReLU"
  bottom: "fc7"
  top: "fc7"
}
layer {
  name: "drop7"
  type: "Dropout"
  bottom: "fc7"
  top: "fc7"
  dropout_param {
    dropout_ratio: 0.5
  }
}
layer {
  name: "fc8_plantvillage"
  type: "InnerProduct"
  bottom: "fc7"
  top: "fc8_plantvillage"
  param {
    lr_mult: 1
    decay_mult: 1
  }
  param {
    lr_mult: 2
    decay_mult: 0
  }
  inner_product_param {
    num_output: 38
    weight_filler {
      type: "gaussian"
      std: 0.01
    }
    bias_filler {
      type: "constant"
      value: 0
    }
  }
}
layer {
  name: "prob"
  type: "Softmax"
  bottom: "fc8_plantvillage"
  top: "prob"
  include {
    phase: TEST
  }
}
layer {
  name: "hdf5out"
  type: "HDF5Output"
  bottom: "prob"
  bottom: "label"
  include {
    phase: TEST
  }
  hdf5_output_param {
    file_name: "hdf5_dumps/iter_1166.h5"
  }
}
layer {
  name: "loss"
  type: "SoftmaxWithLoss"
  bottom: "fc8_plantvillage"
  bottom: "label"
  top: "loss"
}
layer {
  name: "accuracy"
  type: "Accuracy"
  bottom: "fc8_plantvillage"
  bottom: "label"
  top: "accuracy"
  include {
    phase: TEST
  }
}
I0403 12:15:09.331276  8644 layer_factory.hpp:77] Creating layer data
I0403 12:15:09.331923  8644 net.cpp:91] Creating Layer data
I0403 12:15:09.331954  8644 net.cpp:399] data -> data
I0403 12:15:09.332005  8644 net.cpp:399] data -> label
I0403 12:15:09.332041  8644 data_transformer.cpp:25] Loading mean file from: /home/mohanty/data/final_dataset/lmdb/segmented-20-80/mean.binaryproto
I0403 12:15:09.334957  8647 db_lmdb.cpp:38] Opened lmdb /home/mohanty/data/final_dataset/lmdb/segmented-20-80/test_db
I0403 12:15:09.346614  8644 data_layer.cpp:41] output data size: 100,3,227,227
I0403 12:15:09.466202  8644 net.cpp:141] Setting up data
I0403 12:15:09.466262  8644 net.cpp:148] Top shape: 100 3 227 227 (15458700)
I0403 12:15:09.466284  8644 net.cpp:148] Top shape: 100 (100)
I0403 12:15:09.466300  8644 net.cpp:156] Memory required for data: 61835200
I0403 12:15:09.466327  8644 layer_factory.hpp:77] Creating layer label_data_1_split
I0403 12:15:09.466352  8644 net.cpp:91] Creating Layer label_data_1_split
I0403 12:15:09.466370  8644 net.cpp:425] label_data_1_split <- label
I0403 12:15:09.466403  8644 net.cpp:399] label_data_1_split -> label_data_1_split_0
I0403 12:15:09.466428  8644 net.cpp:399] label_data_1_split -> label_data_1_split_1
I0403 12:15:09.466449  8644 net.cpp:399] label_data_1_split -> label_data_1_split_2
I0403 12:15:09.466506  8644 net.cpp:141] Setting up label_data_1_split
I0403 12:15:09.466529  8644 net.cpp:148] Top shape: 100 (100)
I0403 12:15:09.466547  8644 net.cpp:148] Top shape: 100 (100)
I0403 12:15:09.466562  8644 net.cpp:148] Top shape: 100 (100)
I0403 12:15:09.466579  8644 net.cpp:156] Memory required for data: 61836400
I0403 12:15:09.466594  8644 layer_factory.hpp:77] Creating layer conv1
I0403 12:15:09.466625  8644 net.cpp:91] Creating Layer conv1
I0403 12:15:09.466644  8644 net.cpp:425] conv1 <- data
I0403 12:15:09.466661  8644 net.cpp:399] conv1 -> conv1
I0403 12:15:09.603446  8644 net.cpp:141] Setting up conv1
I0403 12:15:09.603524  8644 net.cpp:148] Top shape: 100 96 55 55 (29040000)
I0403 12:15:09.603541  8644 net.cpp:156] Memory required for data: 177996400
I0403 12:15:09.603577  8644 layer_factory.hpp:77] Creating layer relu1
I0403 12:15:09.603606  8644 net.cpp:91] Creating Layer relu1
I0403 12:15:09.603626  8644 net.cpp:425] relu1 <- conv1
I0403 12:15:09.603644  8644 net.cpp:386] relu1 -> conv1 (in-place)
I0403 12:15:09.603905  8644 net.cpp:141] Setting up relu1
I0403 12:15:09.603932  8644 net.cpp:148] Top shape: 100 96 55 55 (29040000)
I0403 12:15:09.603983  8644 net.cpp:156] Memory required for data: 294156400
I0403 12:15:09.603999  8644 layer_factory.hpp:77] Creating layer norm1
I0403 12:15:09.604027  8644 net.cpp:91] Creating Layer norm1
I0403 12:15:09.604045  8644 net.cpp:425] norm1 <- conv1
I0403 12:15:09.604063  8644 net.cpp:399] norm1 -> norm1
I0403 12:15:09.604377  8644 net.cpp:141] Setting up norm1
I0403 12:15:09.604405  8644 net.cpp:148] Top shape: 100 96 55 55 (29040000)
I0403 12:15:09.604421  8644 net.cpp:156] Memory required for data: 410316400
I0403 12:15:09.604436  8644 layer_factory.hpp:77] Creating layer pool1
I0403 12:15:09.604460  8644 net.cpp:91] Creating Layer pool1
I0403 12:15:09.604476  8644 net.cpp:425] pool1 <- norm1
I0403 12:15:09.604495  8644 net.cpp:399] pool1 -> pool1
I0403 12:15:09.604585  8644 net.cpp:141] Setting up pool1
I0403 12:15:09.604611  8644 net.cpp:148] Top shape: 100 96 27 27 (6998400)
I0403 12:15:09.604627  8644 net.cpp:156] Memory required for data: 438310000
I0403 12:15:09.604642  8644 layer_factory.hpp:77] Creating layer conv2
I0403 12:15:09.604668  8644 net.cpp:91] Creating Layer conv2
I0403 12:15:09.604686  8644 net.cpp:425] conv2 <- pool1
I0403 12:15:09.604706  8644 net.cpp:399] conv2 -> conv2
I0403 12:15:09.621558  8644 net.cpp:141] Setting up conv2
I0403 12:15:09.621623  8644 net.cpp:148] Top shape: 100 256 27 27 (18662400)
I0403 12:15:09.621639  8644 net.cpp:156] Memory required for data: 512959600
I0403 12:15:09.621667  8644 layer_factory.hpp:77] Creating layer relu2
I0403 12:15:09.621690  8644 net.cpp:91] Creating Layer relu2
I0403 12:15:09.621706  8644 net.cpp:425] relu2 <- conv2
I0403 12:15:09.621726  8644 net.cpp:386] relu2 -> conv2 (in-place)
I0403 12:15:09.622022  8644 net.cpp:141] Setting up relu2
I0403 12:15:09.622052  8644 net.cpp:148] Top shape: 100 256 27 27 (18662400)
I0403 12:15:09.622068  8644 net.cpp:156] Memory required for data: 587609200
I0403 12:15:09.622084  8644 layer_factory.hpp:77] Creating layer norm2
I0403 12:15:09.622107  8644 net.cpp:91] Creating Layer norm2
I0403 12:15:09.622123  8644 net.cpp:425] norm2 <- conv2
I0403 12:15:09.622144  8644 net.cpp:399] norm2 -> norm2
I0403 12:15:09.622356  8644 net.cpp:141] Setting up norm2
I0403 12:15:09.622383  8644 net.cpp:148] Top shape: 100 256 27 27 (18662400)
I0403 12:15:09.622398  8644 net.cpp:156] Memory required for data: 662258800
I0403 12:15:09.622413  8644 layer_factory.hpp:77] Creating layer pool2
I0403 12:15:09.622434  8644 net.cpp:91] Creating Layer pool2
I0403 12:15:09.622452  8644 net.cpp:425] pool2 <- norm2
I0403 12:15:09.622469  8644 net.cpp:399] pool2 -> pool2
I0403 12:15:09.622524  8644 net.cpp:141] Setting up pool2
I0403 12:15:09.622548  8644 net.cpp:148] Top shape: 100 256 13 13 (4326400)
I0403 12:15:09.622565  8644 net.cpp:156] Memory required for data: 679564400
I0403 12:15:09.622592  8644 layer_factory.hpp:77] Creating layer conv3
I0403 12:15:09.622620  8644 net.cpp:91] Creating Layer conv3
I0403 12:15:09.622639  8644 net.cpp:425] conv3 <- pool2
I0403 12:15:09.622660  8644 net.cpp:399] conv3 -> conv3
I0403 12:15:09.664746  8644 net.cpp:141] Setting up conv3
I0403 12:15:09.664815  8644 net.cpp:148] Top shape: 100 384 13 13 (6489600)
I0403 12:15:09.664832  8644 net.cpp:156] Memory required for data: 705522800
I0403 12:15:09.664858  8644 layer_factory.hpp:77] Creating layer relu3
I0403 12:15:09.664882  8644 net.cpp:91] Creating Layer relu3
I0403 12:15:09.664901  8644 net.cpp:425] relu3 <- conv3
I0403 12:15:09.664919  8644 net.cpp:386] relu3 -> conv3 (in-place)
I0403 12:15:09.665194  8644 net.cpp:141] Setting up relu3
I0403 12:15:09.665220  8644 net.cpp:148] Top shape: 100 384 13 13 (6489600)
I0403 12:15:09.665235  8644 net.cpp:156] Memory required for data: 731481200
I0403 12:15:09.665249  8644 layer_factory.hpp:77] Creating layer conv4
I0403 12:15:09.665277  8644 net.cpp:91] Creating Layer conv4
I0403 12:15:09.665294  8644 net.cpp:425] conv4 <- conv3
I0403 12:15:09.665315  8644 net.cpp:399] conv4 -> conv4
I0403 12:15:09.698004  8644 net.cpp:141] Setting up conv4
I0403 12:15:09.698078  8644 net.cpp:148] Top shape: 100 384 13 13 (6489600)
I0403 12:15:09.698128  8644 net.cpp:156] Memory required for data: 757439600
I0403 12:15:09.698150  8644 layer_factory.hpp:77] Creating layer relu4
I0403 12:15:09.698173  8644 net.cpp:91] Creating Layer relu4
I0403 12:15:09.698189  8644 net.cpp:425] relu4 <- conv4
I0403 12:15:09.698211  8644 net.cpp:386] relu4 -> conv4 (in-place)
I0403 12:15:09.698487  8644 net.cpp:141] Setting up relu4
I0403 12:15:09.698513  8644 net.cpp:148] Top shape: 100 384 13 13 (6489600)
I0403 12:15:09.698528  8644 net.cpp:156] Memory required for data: 783398000
I0403 12:15:09.698542  8644 layer_factory.hpp:77] Creating layer conv5
I0403 12:15:09.698570  8644 net.cpp:91] Creating Layer conv5
I0403 12:15:09.698591  8644 net.cpp:425] conv5 <- conv4
I0403 12:15:09.698621  8644 net.cpp:399] conv5 -> conv5
I0403 12:15:09.721050  8644 net.cpp:141] Setting up conv5
I0403 12:15:09.721107  8644 net.cpp:148] Top shape: 100 256 13 13 (4326400)
I0403 12:15:09.721123  8644 net.cpp:156] Memory required for data: 800703600
I0403 12:15:09.721148  8644 layer_factory.hpp:77] Creating layer relu5
I0403 12:15:09.721173  8644 net.cpp:91] Creating Layer relu5
I0403 12:15:09.721190  8644 net.cpp:425] relu5 <- conv5
I0403 12:15:09.721210  8644 net.cpp:386] relu5 -> conv5 (in-place)
I0403 12:15:09.721493  8644 net.cpp:141] Setting up relu5
I0403 12:15:09.721520  8644 net.cpp:148] Top shape: 100 256 13 13 (4326400)
I0403 12:15:09.721535  8644 net.cpp:156] Memory required for data: 818009200
I0403 12:15:09.721550  8644 layer_factory.hpp:77] Creating layer pool5
I0403 12:15:09.721577  8644 net.cpp:91] Creating Layer pool5
I0403 12:15:09.721596  8644 net.cpp:425] pool5 <- conv5
I0403 12:15:09.721614  8644 net.cpp:399] pool5 -> pool5
I0403 12:15:09.721678  8644 net.cpp:141] Setting up pool5
I0403 12:15:09.721703  8644 net.cpp:148] Top shape: 100 256 6 6 (921600)
I0403 12:15:09.721717  8644 net.cpp:156] Memory required for data: 821695600
I0403 12:15:09.721731  8644 layer_factory.hpp:77] Creating layer fc6
I0403 12:15:09.721760  8644 net.cpp:91] Creating Layer fc6
I0403 12:15:09.721778  8644 net.cpp:425] fc6 <- pool5
I0403 12:15:09.721796  8644 net.cpp:399] fc6 -> fc6
I0403 12:15:11.275308  8644 net.cpp:141] Setting up fc6
I0403 12:15:11.275349  8644 net.cpp:148] Top shape: 100 4096 (409600)
I0403 12:15:11.275364  8644 net.cpp:156] Memory required for data: 823334000
I0403 12:15:11.275384  8644 layer_factory.hpp:77] Creating layer relu6
I0403 12:15:11.275406  8644 net.cpp:91] Creating Layer relu6
I0403 12:15:11.275421  8644 net.cpp:425] relu6 <- fc6
I0403 12:15:11.275442  8644 net.cpp:386] relu6 -> fc6 (in-place)
I0403 12:15:11.275668  8644 net.cpp:141] Setting up relu6
I0403 12:15:11.275692  8644 net.cpp:148] Top shape: 100 4096 (409600)
I0403 12:15:11.275707  8644 net.cpp:156] Memory required for data: 824972400
I0403 12:15:11.275720  8644 layer_factory.hpp:77] Creating layer drop6
I0403 12:15:11.275743  8644 net.cpp:91] Creating Layer drop6
I0403 12:15:11.275758  8644 net.cpp:425] drop6 <- fc6
I0403 12:15:11.275774  8644 net.cpp:386] drop6 -> fc6 (in-place)
I0403 12:15:11.275826  8644 net.cpp:141] Setting up drop6
I0403 12:15:11.275848  8644 net.cpp:148] Top shape: 100 4096 (409600)
I0403 12:15:11.275861  8644 net.cpp:156] Memory required for data: 826610800
I0403 12:15:11.275876  8644 layer_factory.hpp:77] Creating layer fc7
I0403 12:15:11.275894  8644 net.cpp:91] Creating Layer fc7
I0403 12:15:11.275909  8644 net.cpp:425] fc7 <- fc6
I0403 12:15:11.275928  8644 net.cpp:399] fc7 -> fc7
I0403 12:15:11.961204  8644 net.cpp:141] Setting up fc7
I0403 12:15:11.961282  8644 net.cpp:148] Top shape: 100 4096 (409600)
I0403 12:15:11.961297  8644 net.cpp:156] Memory required for data: 828249200
I0403 12:15:11.961318  8644 layer_factory.hpp:77] Creating layer relu7
I0403 12:15:11.961343  8644 net.cpp:91] Creating Layer relu7
I0403 12:15:11.961359  8644 net.cpp:425] relu7 <- fc7
I0403 12:15:11.961377  8644 net.cpp:386] relu7 -> fc7 (in-place)
I0403 12:15:11.961784  8644 net.cpp:141] Setting up relu7
I0403 12:15:11.961810  8644 net.cpp:148] Top shape: 100 4096 (409600)
I0403 12:15:11.961860  8644 net.cpp:156] Memory required for data: 829887600
I0403 12:15:11.961875  8644 layer_factory.hpp:77] Creating layer drop7
I0403 12:15:11.961894  8644 net.cpp:91] Creating Layer drop7
I0403 12:15:11.961908  8644 net.cpp:425] drop7 <- fc7
I0403 12:15:11.961927  8644 net.cpp:386] drop7 -> fc7 (in-place)
I0403 12:15:11.961973  8644 net.cpp:141] Setting up drop7
I0403 12:15:11.961995  8644 net.cpp:148] Top shape: 100 4096 (409600)
I0403 12:15:11.962009  8644 net.cpp:156] Memory required for data: 831526000
I0403 12:15:11.962023  8644 layer_factory.hpp:77] Creating layer fc8_plantvillage
I0403 12:15:11.962043  8644 net.cpp:91] Creating Layer fc8_plantvillage
I0403 12:15:11.962057  8644 net.cpp:425] fc8_plantvillage <- fc7
I0403 12:15:11.962077  8644 net.cpp:399] fc8_plantvillage -> fc8_plantvillage
I0403 12:15:11.968786  8644 net.cpp:141] Setting up fc8_plantvillage
I0403 12:15:11.968816  8644 net.cpp:148] Top shape: 100 38 (3800)
I0403 12:15:11.968830  8644 net.cpp:156] Memory required for data: 831541200
I0403 12:15:11.968847  8644 layer_factory.hpp:77] Creating layer fc8_plantvillage_fc8_plantvillage_0_split
I0403 12:15:11.968865  8644 net.cpp:91] Creating Layer fc8_plantvillage_fc8_plantvillage_0_split
I0403 12:15:11.968879  8644 net.cpp:425] fc8_plantvillage_fc8_plantvillage_0_split <- fc8_plantvillage
I0403 12:15:11.968895  8644 net.cpp:399] fc8_plantvillage_fc8_plantvillage_0_split -> fc8_plantvillage_fc8_plantvillage_0_split_0
I0403 12:15:11.968914  8644 net.cpp:399] fc8_plantvillage_fc8_plantvillage_0_split -> fc8_plantvillage_fc8_plantvillage_0_split_1
I0403 12:15:11.968932  8644 net.cpp:399] fc8_plantvillage_fc8_plantvillage_0_split -> fc8_plantvillage_fc8_plantvillage_0_split_2
I0403 12:15:11.969007  8644 net.cpp:141] Setting up fc8_plantvillage_fc8_plantvillage_0_split
I0403 12:15:11.969029  8644 net.cpp:148] Top shape: 100 38 (3800)
I0403 12:15:11.969045  8644 net.cpp:148] Top shape: 100 38 (3800)
I0403 12:15:11.969059  8644 net.cpp:148] Top shape: 100 38 (3800)
I0403 12:15:11.969072  8644 net.cpp:156] Memory required for data: 831586800
I0403 12:15:11.969086  8644 layer_factory.hpp:77] Creating layer prob
I0403 12:15:11.969104  8644 net.cpp:91] Creating Layer prob
I0403 12:15:11.969117  8644 net.cpp:425] prob <- fc8_plantvillage_fc8_plantvillage_0_split_0
I0403 12:15:11.969135  8644 net.cpp:399] prob -> prob
I0403 12:15:11.969354  8644 net.cpp:141] Setting up prob
I0403 12:15:11.969379  8644 net.cpp:148] Top shape: 100 38 (3800)
I0403 12:15:11.969393  8644 net.cpp:156] Memory required for data: 831602000
I0403 12:15:11.969408  8644 layer_factory.hpp:77] Creating layer hdf5out
I0403 12:15:11.969429  8644 net.cpp:91] Creating Layer hdf5out
I0403 12:15:11.969444  8644 net.cpp:425] hdf5out <- prob
I0403 12:15:11.969460  8644 net.cpp:425] hdf5out <- label_data_1_split_0
I0403 12:15:11.971777  8644 net.cpp:141] Setting up hdf5out
…
