…
I0403 12:27:59.441576  8937 net.cpp:313] The NetState phase (1) differed from the phase (0) specified by a rule in layer data
I0403 12:27:59.441903  8937 net.cpp:49] Initializing net from parameters: 
state {
  phase: TEST
}
layer {
  name: "data"
  type: "Data"
  top: "data"
  top: "label"
  include {
    phase: TEST
  }
  transform_param {
    crop_size: 227
    mean_file: "/home/mohanty/data/final_dataset/lmdb/segmented-20-80/mean.binaryproto"
  }
  data_param {
    source: "/home/mohanty/data/final_dataset/lmdb/segmented-20-80/test_db"
    batch_size: 100
    backend: LMDB
  }
}
layer {
  name: "conv1"
  type: "Convolution"
  bottom: "data"
  top: "conv1"
  param {
    lr_mult: 1
    decay_mult: 1
  }
  param {
    lr_mult: 2
    decay_mult: 0
  }
  convolution_param {
    num_output: 96
    kernel_size: 11
    stride: 4
    weight_filler {
      type: "gaussian"
      std: 0.01
    }
    bias_filler {
      type: "constant"
      value: 0
    }
  }
}
layer {
  name: "relu1"
  type: "ReLU"
  bottom: "conv1"
  top: "conv1"
}
layer {
  name: "norm1"
  type: "LRN"
  bottom: "conv1"
  top: "norm1"
  lrn_param {
    local_size: 5
    alpha: 0.0001
    beta: 0.75
  }
}
layer {
  name: "pool1"
  type: "Pooling"
  bottom: "norm1"
  top: "pool1"
  pooling_param {
    pool: MAX
    kernel_size: 3
    stride: 2
  }
}
layer {
  name: "conv2"
  type: "Convolution"
  bottom: "pool1"
  top: "conv2"
  param {
    lr_mult: 1
    decay_mult: 1
  }
  param {
    lr_mult: 2
    decay_mult: 0
  }
  convolution_param {
    num_output: 256
    pad: 2
    kernel_size: 5
    group: 2
    weight_filler {
      type: "gaussian"
      std: 0.01
    }
    bias_filler {
      type: "constant"
      value: 0.1
    }
  }
}
layer {
  name: "relu2"
  type: "ReLU"
  bottom: "conv2"
  top: "conv2"
}
layer {
  name: "norm2"
  type: "LRN"
  bottom: "conv2"
  top: "norm2"
  lrn_param {
    local_size: 5
    alpha: 0.0001
    beta: 0.75
  }
}
layer {
  name: "pool2"
  type: "Pooling"
  bottom: "norm2"
  top: "pool2"
  pooling_param {
    pool: MAX
    kernel_size: 3
    stride: 2
  }
}
layer {
  name: "conv3"
  type: "Convolution"
  bottom: "pool2"
  top: "conv3"
  param {
    lr_mult: 1
    decay_mult: 1
  }
  param {
    lr_mult: 2
    decay_mult: 0
  }
  convolution_param {
    num_output: 384
    pad: 1
    kernel_size: 3
    weight_filler {
      type: "gaussian"
      std: 0.01
    }
    bias_filler {
      type: "constant"
      value: 0
    }
  }
}
layer {
  name: "relu3"
  type: "ReLU"
  bottom: "conv3"
  top: "conv3"
}
layer {
  name: "conv4"
  type: "Convolution"
  bottom: "conv3"
  top: "conv4"
  param {
    lr_mult: 1
    decay_mult: 1
  }
  param {
    lr_mult: 2
    decay_mult: 0
  }
  convolution_param {
    num_output: 384
    pad: 1
    kernel_size: 3
    group: 2
    weight_filler {
      type: "gaussian"
      std: 0.01
    }
    bias_filler {
      type: "constant"
      value: 0.1
    }
  }
}
layer {
  name: "relu4"
  type: "ReLU"
  bottom: "conv4"
  top: "conv4"
}
layer {
  name: "conv5"
  type: "Convolution"
  bottom: "conv4"
  top: "conv5"
  param {
    lr_mult: 1
    decay_mult: 1
  }
  param {
    lr_mult: 2
    decay_mult: 0
  }
  convolution_param {
    num_output: 256
    pad: 1
    kernel_size: 3
    group: 2
    weight_filler {
      type: "gaussian"
      std: 0.01
    }
    bias_filler {
      type: "constant"
      value: 0.1
    }
  }
}
layer {
  name: "relu5"
  type: "ReLU"
  bottom: "conv5"
  top: "conv5"
}
layer {
  name: "pool5"
  type: "Pooling"
  bottom: "conv5"
  top: "pool5"
  pooling_param {
    pool: MAX
    kernel_size: 3
    stride: 2
  }
}
layer {
  name: "fc6"
  type: "InnerProduct"
  bottom: "pool5"
  top: "fc6"
  param {
    lr_mult: 1
    decay_mult: 1
  }
  param {
    lr_mult: 2
    decay_mult: 0
  }
  inner_product_param {
    num_output: 4096
    weight_filler {
      type: "gaussian"
      std: 0.005
    }
    bias_filler {
      type: "constant"
      value: 0.1
    }
  }
}
layer {
  name: "relu6"
  type: "ReLU"
  bottom: "fc6"
  top: "fc6"
}
layer {
  name: "drop6"
  type: "Dropout"
  bottom: "fc6"
  top: "fc6"
  dropout_param {
    dropout_ratio: 0.5
  }
}
layer {
  name: "fc7"
  type: "InnerProduct"
  bottom: "fc6"
  top: "fc7"
  param {
    lr_mult: 1
    decay_mult: 1
  }
  param {
    lr_mult: 2
    decay_mult: 0
  }
  inner_product_param {
    num_output: 4096
    weight_filler {
      type: "gaussian"
      std: 0.005
    }
    bias_filler {
      type: "constant"
      value: 0.1
    }
  }
}
layer {
  name: "relu7"
  type: "ReLU"
  bottom: "fc7"
  top: "fc7"
}
layer {
  name: "drop7"
  type: "Dropout"
  bottom: "fc7"
  top: "fc7"
  dropout_param {
    dropout_ratio: 0.5
  }
}
layer {
  name: "fc8_plantvillage"
  type: "InnerProduct"
  bottom: "fc7"
  top: "fc8_plantvillage"
  param {
    lr_mult: 1
    decay_mult: 1
  }
  param {
    lr_mult: 2
    decay_mult: 0
  }
  inner_product_param {
    num_output: 38
    weight_filler {
      type: "gaussian"
      std: 0.01
    }
    bias_filler {
      type: "constant"
      value: 0
    }
  }
}
layer {
  name: "prob"
  type: "Softmax"
  bottom: "fc8_plantvillage"
  top: "prob"
  include {
    phase: TEST
  }
}
layer {
  name: "hdf5out"
  type: "HDF5Output"
  bottom: "prob"
  bottom: "label"
  include {
    phase: TEST
  }
  hdf5_output_param {
    file_name: "hdf5_dumps/iter_2226.h5"
  }
}
layer {
  name: "loss"
  type: "SoftmaxWithLoss"
  bottom: "fc8_plantvillage"
  bottom: "label"
  top: "loss"
}
layer {
  name: "accuracy"
  type: "Accuracy"
  bottom: "fc8_plantvillage"
  bottom: "label"
  top: "accuracy"
  include {
    phase: TEST
  }
}
I0403 12:27:59.442463  8937 layer_factory.hpp:77] Creating layer data
I0403 12:27:59.443120  8937 net.cpp:91] Creating Layer data
I0403 12:27:59.443150  8937 net.cpp:399] data -> data
I0403 12:27:59.443199  8937 net.cpp:399] data -> label
I0403 12:27:59.443238  8937 data_transformer.cpp:25] Loading mean file from: /home/mohanty/data/final_dataset/lmdb/segmented-20-80/mean.binaryproto
I0403 12:27:59.446105  8940 db_lmdb.cpp:38] Opened lmdb /home/mohanty/data/final_dataset/lmdb/segmented-20-80/test_db
I0403 12:27:59.457607  8937 data_layer.cpp:41] output data size: 100,3,227,227
I0403 12:27:59.576969  8937 net.cpp:141] Setting up data
I0403 12:27:59.577030  8937 net.cpp:148] Top shape: 100 3 227 227 (15458700)
I0403 12:27:59.577054  8937 net.cpp:148] Top shape: 100 (100)
I0403 12:27:59.577070  8937 net.cpp:156] Memory required for data: 61835200
I0403 12:27:59.577100  8937 layer_factory.hpp:77] Creating layer label_data_1_split
I0403 12:27:59.577126  8937 net.cpp:91] Creating Layer label_data_1_split
I0403 12:27:59.577143  8937 net.cpp:425] label_data_1_split <- label
I0403 12:27:59.577177  8937 net.cpp:399] label_data_1_split -> label_data_1_split_0
I0403 12:27:59.577204  8937 net.cpp:399] label_data_1_split -> label_data_1_split_1
I0403 12:27:59.577225  8937 net.cpp:399] label_data_1_split -> label_data_1_split_2
I0403 12:27:59.577291  8937 net.cpp:141] Setting up label_data_1_split
I0403 12:27:59.577314  8937 net.cpp:148] Top shape: 100 (100)
I0403 12:27:59.577332  8937 net.cpp:148] Top shape: 100 (100)
I0403 12:27:59.577347  8937 net.cpp:148] Top shape: 100 (100)
I0403 12:27:59.577360  8937 net.cpp:156] Memory required for data: 61836400
I0403 12:27:59.577375  8937 layer_factory.hpp:77] Creating layer conv1
I0403 12:27:59.577406  8937 net.cpp:91] Creating Layer conv1
I0403 12:27:59.577425  8937 net.cpp:425] conv1 <- data
I0403 12:27:59.577445  8937 net.cpp:399] conv1 -> conv1
I0403 12:27:59.717839  8937 net.cpp:141] Setting up conv1
I0403 12:27:59.717916  8937 net.cpp:148] Top shape: 100 96 55 55 (29040000)
I0403 12:27:59.717934  8937 net.cpp:156] Memory required for data: 177996400
I0403 12:27:59.717965  8937 layer_factory.hpp:77] Creating layer relu1
I0403 12:27:59.717993  8937 net.cpp:91] Creating Layer relu1
I0403 12:27:59.718011  8937 net.cpp:425] relu1 <- conv1
I0403 12:27:59.718030  8937 net.cpp:386] relu1 -> conv1 (in-place)
I0403 12:27:59.718317  8937 net.cpp:141] Setting up relu1
I0403 12:27:59.718344  8937 net.cpp:148] Top shape: 100 96 55 55 (29040000)
I0403 12:27:59.718397  8937 net.cpp:156] Memory required for data: 294156400
I0403 12:27:59.718413  8937 layer_factory.hpp:77] Creating layer norm1
I0403 12:27:59.718441  8937 net.cpp:91] Creating Layer norm1
I0403 12:27:59.718458  8937 net.cpp:425] norm1 <- conv1
I0403 12:27:59.718477  8937 net.cpp:399] norm1 -> norm1
I0403 12:27:59.718823  8937 net.cpp:141] Setting up norm1
I0403 12:27:59.718852  8937 net.cpp:148] Top shape: 100 96 55 55 (29040000)
I0403 12:27:59.718868  8937 net.cpp:156] Memory required for data: 410316400
I0403 12:27:59.718883  8937 layer_factory.hpp:77] Creating layer pool1
I0403 12:27:59.718907  8937 net.cpp:91] Creating Layer pool1
I0403 12:27:59.718925  8937 net.cpp:425] pool1 <- norm1
I0403 12:27:59.718943  8937 net.cpp:399] pool1 -> pool1
I0403 12:27:59.719015  8937 net.cpp:141] Setting up pool1
I0403 12:27:59.719039  8937 net.cpp:148] Top shape: 100 96 27 27 (6998400)
I0403 12:27:59.719054  8937 net.cpp:156] Memory required for data: 438310000
I0403 12:27:59.719069  8937 layer_factory.hpp:77] Creating layer conv2
I0403 12:27:59.719095  8937 net.cpp:91] Creating Layer conv2
I0403 12:27:59.719113  8937 net.cpp:425] conv2 <- pool1
I0403 12:27:59.719133  8937 net.cpp:399] conv2 -> conv2
I0403 12:27:59.734341  8937 net.cpp:141] Setting up conv2
I0403 12:27:59.734375  8937 net.cpp:148] Top shape: 100 256 27 27 (18662400)
I0403 12:27:59.734395  8937 net.cpp:156] Memory required for data: 512959600
I0403 12:27:59.734417  8937 layer_factory.hpp:77] Creating layer relu2
I0403 12:27:59.734437  8937 net.cpp:91] Creating Layer relu2
I0403 12:27:59.734453  8937 net.cpp:425] relu2 <- conv2
I0403 12:27:59.734470  8937 net.cpp:386] relu2 -> conv2 (in-place)
I0403 12:27:59.734797  8937 net.cpp:141] Setting up relu2
I0403 12:27:59.734827  8937 net.cpp:148] Top shape: 100 256 27 27 (18662400)
I0403 12:27:59.734853  8937 net.cpp:156] Memory required for data: 587609200
I0403 12:27:59.734868  8937 layer_factory.hpp:77] Creating layer norm2
I0403 12:27:59.734889  8937 net.cpp:91] Creating Layer norm2
I0403 12:27:59.734904  8937 net.cpp:425] norm2 <- conv2
I0403 12:27:59.734922  8937 net.cpp:399] norm2 -> norm2
I0403 12:27:59.735116  8937 net.cpp:141] Setting up norm2
I0403 12:27:59.735141  8937 net.cpp:148] Top shape: 100 256 27 27 (18662400)
I0403 12:27:59.735162  8937 net.cpp:156] Memory required for data: 662258800
I0403 12:27:59.735177  8937 layer_factory.hpp:77] Creating layer pool2
I0403 12:27:59.735194  8937 net.cpp:91] Creating Layer pool2
I0403 12:27:59.735209  8937 net.cpp:425] pool2 <- norm2
I0403 12:27:59.735226  8937 net.cpp:399] pool2 -> pool2
I0403 12:27:59.735291  8937 net.cpp:141] Setting up pool2
I0403 12:27:59.735314  8937 net.cpp:148] Top shape: 100 256 13 13 (4326400)
I0403 12:27:59.735332  8937 net.cpp:156] Memory required for data: 679564400
I0403 12:27:59.735347  8937 layer_factory.hpp:77] Creating layer conv3
I0403 12:27:59.735370  8937 net.cpp:91] Creating Layer conv3
I0403 12:27:59.735388  8937 net.cpp:425] conv3 <- pool2
I0403 12:27:59.735409  8937 net.cpp:399] conv3 -> conv3
I0403 12:27:59.774088  8937 net.cpp:141] Setting up conv3
I0403 12:27:59.774164  8937 net.cpp:148] Top shape: 100 384 13 13 (6489600)
I0403 12:27:59.774180  8937 net.cpp:156] Memory required for data: 705522800
I0403 12:27:59.774206  8937 layer_factory.hpp:77] Creating layer relu3
I0403 12:27:59.774232  8937 net.cpp:91] Creating Layer relu3
I0403 12:27:59.774250  8937 net.cpp:425] relu3 <- conv3
I0403 12:27:59.774271  8937 net.cpp:386] relu3 -> conv3 (in-place)
I0403 12:27:59.774597  8937 net.cpp:141] Setting up relu3
I0403 12:27:59.774633  8937 net.cpp:148] Top shape: 100 384 13 13 (6489600)
I0403 12:27:59.774649  8937 net.cpp:156] Memory required for data: 731481200
I0403 12:27:59.774664  8937 layer_factory.hpp:77] Creating layer conv4
I0403 12:27:59.774691  8937 net.cpp:91] Creating Layer conv4
I0403 12:27:59.774709  8937 net.cpp:425] conv4 <- conv3
I0403 12:27:59.774729  8937 net.cpp:399] conv4 -> conv4
I0403 12:27:59.804857  8937 net.cpp:141] Setting up conv4
I0403 12:27:59.804927  8937 net.cpp:148] Top shape: 100 384 13 13 (6489600)
I0403 12:27:59.804983  8937 net.cpp:156] Memory required for data: 757439600
I0403 12:27:59.805006  8937 layer_factory.hpp:77] Creating layer relu4
I0403 12:27:59.805032  8937 net.cpp:91] Creating Layer relu4
I0403 12:27:59.805052  8937 net.cpp:425] relu4 <- conv4
I0403 12:27:59.805070  8937 net.cpp:386] relu4 -> conv4 (in-place)
I0403 12:27:59.805356  8937 net.cpp:141] Setting up relu4
I0403 12:27:59.805383  8937 net.cpp:148] Top shape: 100 384 13 13 (6489600)
I0403 12:27:59.805399  8937 net.cpp:156] Memory required for data: 783398000
I0403 12:27:59.805414  8937 layer_factory.hpp:77] Creating layer conv5
I0403 12:27:59.805440  8937 net.cpp:91] Creating Layer conv5
I0403 12:27:59.805459  8937 net.cpp:425] conv5 <- conv4
I0403 12:27:59.805481  8937 net.cpp:399] conv5 -> conv5
I0403 12:27:59.826738  8937 net.cpp:141] Setting up conv5
I0403 12:27:59.826794  8937 net.cpp:148] Top shape: 100 256 13 13 (4326400)
I0403 12:27:59.826812  8937 net.cpp:156] Memory required for data: 800703600
I0403 12:27:59.826866  8937 layer_factory.hpp:77] Creating layer relu5
I0403 12:27:59.826892  8937 net.cpp:91] Creating Layer relu5
I0403 12:27:59.826910  8937 net.cpp:425] relu5 <- conv5
I0403 12:27:59.826928  8937 net.cpp:386] relu5 -> conv5 (in-place)
I0403 12:27:59.827213  8937 net.cpp:141] Setting up relu5
I0403 12:27:59.827241  8937 net.cpp:148] Top shape: 100 256 13 13 (4326400)
I0403 12:27:59.827260  8937 net.cpp:156] Memory required for data: 818009200
I0403 12:27:59.827275  8937 layer_factory.hpp:77] Creating layer pool5
I0403 12:27:59.827296  8937 net.cpp:91] Creating Layer pool5
I0403 12:27:59.827313  8937 net.cpp:425] pool5 <- conv5
I0403 12:27:59.827334  8937 net.cpp:399] pool5 -> pool5
I0403 12:27:59.827396  8937 net.cpp:141] Setting up pool5
I0403 12:27:59.827420  8937 net.cpp:148] Top shape: 100 256 6 6 (921600)
I0403 12:27:59.827435  8937 net.cpp:156] Memory required for data: 821695600
I0403 12:27:59.827450  8937 layer_factory.hpp:77] Creating layer fc6
I0403 12:27:59.827479  8937 net.cpp:91] Creating Layer fc6
I0403 12:27:59.827497  8937 net.cpp:425] fc6 <- pool5
I0403 12:27:59.827518  8937 net.cpp:399] fc6 -> fc6
I0403 12:28:01.467524  8937 net.cpp:141] Setting up fc6
I0403 12:28:01.467607  8937 net.cpp:148] Top shape: 100 4096 (409600)
I0403 12:28:01.467624  8937 net.cpp:156] Memory required for data: 823334000
I0403 12:28:01.467646  8937 layer_factory.hpp:77] Creating layer relu6
I0403 12:28:01.467669  8937 net.cpp:91] Creating Layer relu6
I0403 12:28:01.467685  8937 net.cpp:425] relu6 <- fc6
I0403 12:28:01.467707  8937 net.cpp:386] relu6 -> fc6 (in-place)
I0403 12:28:01.467933  8937 net.cpp:141] Setting up relu6
I0403 12:28:01.467960  8937 net.cpp:148] Top shape: 100 4096 (409600)
I0403 12:28:01.467975  8937 net.cpp:156] Memory required for data: 824972400
I0403 12:28:01.467989  8937 layer_factory.hpp:77] Creating layer drop6
I0403 12:28:01.468008  8937 net.cpp:91] Creating Layer drop6
I0403 12:28:01.468022  8937 net.cpp:425] drop6 <- fc6
I0403 12:28:01.468039  8937 net.cpp:386] drop6 -> fc6 (in-place)
I0403 12:28:01.468091  8937 net.cpp:141] Setting up drop6
I0403 12:28:01.468114  8937 net.cpp:148] Top shape: 100 4096 (409600)
I0403 12:28:01.468128  8937 net.cpp:156] Memory required for data: 826610800
I0403 12:28:01.468142  8937 layer_factory.hpp:77] Creating layer fc7
I0403 12:28:01.468164  8937 net.cpp:91] Creating Layer fc7
I0403 12:28:01.468180  8937 net.cpp:425] fc7 <- fc6
I0403 12:28:01.468197  8937 net.cpp:399] fc7 -> fc7
I0403 12:28:02.190609  8937 net.cpp:141] Setting up fc7
I0403 12:28:02.190688  8937 net.cpp:148] Top shape: 100 4096 (409600)
I0403 12:28:02.190706  8937 net.cpp:156] Memory required for data: 828249200
I0403 12:28:02.190726  8937 layer_factory.hpp:77] Creating layer relu7
I0403 12:28:02.190752  8937 net.cpp:91] Creating Layer relu7
I0403 12:28:02.190770  8937 net.cpp:425] relu7 <- fc7
I0403 12:28:02.190789  8937 net.cpp:386] relu7 -> fc7 (in-place)
I0403 12:28:02.191190  8937 net.cpp:141] Setting up relu7
I0403 12:28:02.191215  8937 net.cpp:148] Top shape: 100 4096 (409600)
I0403 12:28:02.191272  8937 net.cpp:156] Memory required for data: 829887600
I0403 12:28:02.191288  8937 layer_factory.hpp:77] Creating layer drop7
I0403 12:28:02.191309  8937 net.cpp:91] Creating Layer drop7
I0403 12:28:02.191324  8937 net.cpp:425] drop7 <- fc7
I0403 12:28:02.191340  8937 net.cpp:386] drop7 -> fc7 (in-place)
I0403 12:28:02.191385  8937 net.cpp:141] Setting up drop7
I0403 12:28:02.191407  8937 net.cpp:148] Top shape: 100 4096 (409600)
I0403 12:28:02.191421  8937 net.cpp:156] Memory required for data: 831526000
I0403 12:28:02.191434  8937 layer_factory.hpp:77] Creating layer fc8_plantvillage
I0403 12:28:02.191453  8937 net.cpp:91] Creating Layer fc8_plantvillage
I0403 12:28:02.191468  8937 net.cpp:425] fc8_plantvillage <- fc7
I0403 12:28:02.191488  8937 net.cpp:399] fc8_plantvillage -> fc8_plantvillage
I0403 12:28:02.198557  8937 net.cpp:141] Setting up fc8_plantvillage
I0403 12:28:02.198590  8937 net.cpp:148] Top shape: 100 38 (3800)
I0403 12:28:02.198611  8937 net.cpp:156] Memory required for data: 831541200
I0403 12:28:02.198632  8937 layer_factory.hpp:77] Creating layer fc8_plantvillage_fc8_plantvillage_0_split
I0403 12:28:02.198650  8937 net.cpp:91] Creating Layer fc8_plantvillage_fc8_plantvillage_0_split
I0403 12:28:02.198665  8937 net.cpp:425] fc8_plantvillage_fc8_plantvillage_0_split <- fc8_plantvillage
I0403 12:28:02.198683  8937 net.cpp:399] fc8_plantvillage_fc8_plantvillage_0_split -> fc8_plantvillage_fc8_plantvillage_0_split_0
I0403 12:28:02.198701  8937 net.cpp:399] fc8_plantvillage_fc8_plantvillage_0_split -> fc8_plantvillage_fc8_plantvillage_0_split_1
I0403 12:28:02.198724  8937 net.cpp:399] fc8_plantvillage_fc8_plantvillage_0_split -> fc8_plantvillage_fc8_plantvillage_0_split_2
I0403 12:28:02.198801  8937 net.cpp:141] Setting up fc8_plantvillage_fc8_plantvillage_0_split
I0403 12:28:02.198823  8937 net.cpp:148] Top shape: 100 38 (3800)
I0403 12:28:02.198839  8937 net.cpp:148] Top shape: 100 38 (3800)
I0403 12:28:02.198854  8937 net.cpp:148] Top shape: 100 38 (3800)
I0403 12:28:02.198868  8937 net.cpp:156] Memory required for data: 831586800
I0403 12:28:02.198882  8937 layer_factory.hpp:77] Creating layer prob
I0403 12:28:02.198900  8937 net.cpp:91] Creating Layer prob
I0403 12:28:02.198916  8937 net.cpp:425] prob <- fc8_plantvillage_fc8_plantvillage_0_split_0
I0403 12:28:02.198935  8937 net.cpp:399] prob -> prob
I0403 12:28:02.199162  8937 net.cpp:141] Setting up prob
I0403 12:28:02.199187  8937 net.cpp:148] Top shape: 100 38 (3800)
I0403 12:28:02.199201  8937 net.cpp:156] Memory required for data: 831602000
I0403 12:28:02.199216  8937 layer_factory.hpp:77] Creating layer hdf5out
I0403 12:28:02.199239  8937 net.cpp:91] Creating Layer hdf5out
I0403 12:28:02.199255  8937 net.cpp:425] hdf5out <- prob
I0403 12:28:02.199271  8937 net.cpp:425] hdf5out <- label_data_1_split_0
I0403 12:28:02.202186  8937 net.cpp:141] Setting up hdf5out
…
