…
I0403 12:29:16.354707  8972 net.cpp:313] The NetState phase (1) differed from the phase (0) specified by a rule in layer data
I0403 12:29:16.355021  8972 net.cpp:49] Initializing net from parameters: 
state {
  phase: TEST
}
layer {
  name: "data"
  type: "Data"
  top: "data"
  top: "label"
  include {
    phase: TEST
  }
  transform_param {
    crop_size: 227
    mean_file: "/home/mohanty/data/final_dataset/lmdb/segmented-20-80/mean.binaryproto"
  }
  data_param {
    source: "/home/mohanty/data/final_dataset/lmdb/segmented-20-80/test_db"
    batch_size: 100
    backend: LMDB
  }
}
layer {
  name: "conv1"
  type: "Convolution"
  bottom: "data"
  top: "conv1"
  param {
    lr_mult: 1
    decay_mult: 1
  }
  param {
    lr_mult: 2
    decay_mult: 0
  }
  convolution_param {
    num_output: 96
    kernel_size: 11
    stride: 4
    weight_filler {
      type: "gaussian"
      std: 0.01
    }
    bias_filler {
      type: "constant"
      value: 0
    }
  }
}
layer {
  name: "relu1"
  type: "ReLU"
  bottom: "conv1"
  top: "conv1"
}
layer {
  name: "norm1"
  type: "LRN"
  bottom: "conv1"
  top: "norm1"
  lrn_param {
    local_size: 5
    alpha: 0.0001
    beta: 0.75
  }
}
layer {
  name: "pool1"
  type: "Pooling"
  bottom: "norm1"
  top: "pool1"
  pooling_param {
    pool: MAX
    kernel_size: 3
    stride: 2
  }
}
layer {
  name: "conv2"
  type: "Convolution"
  bottom: "pool1"
  top: "conv2"
  param {
    lr_mult: 1
    decay_mult: 1
  }
  param {
    lr_mult: 2
    decay_mult: 0
  }
  convolution_param {
    num_output: 256
    pad: 2
    kernel_size: 5
    group: 2
    weight_filler {
      type: "gaussian"
      std: 0.01
    }
    bias_filler {
      type: "constant"
      value: 0.1
    }
  }
}
layer {
  name: "relu2"
  type: "ReLU"
  bottom: "conv2"
  top: "conv2"
}
layer {
  name: "norm2"
  type: "LRN"
  bottom: "conv2"
  top: "norm2"
  lrn_param {
    local_size: 5
    alpha: 0.0001
    beta: 0.75
  }
}
layer {
  name: "pool2"
  type: "Pooling"
  bottom: "norm2"
  top: "pool2"
  pooling_param {
    pool: MAX
    kernel_size: 3
    stride: 2
  }
}
layer {
  name: "conv3"
  type: "Convolution"
  bottom: "pool2"
  top: "conv3"
  param {
    lr_mult: 1
    decay_mult: 1
  }
  param {
    lr_mult: 2
    decay_mult: 0
  }
  convolution_param {
    num_output: 384
    pad: 1
    kernel_size: 3
    weight_filler {
      type: "gaussian"
      std: 0.01
    }
    bias_filler {
      type: "constant"
      value: 0
    }
  }
}
layer {
  name: "relu3"
  type: "ReLU"
  bottom: "conv3"
  top: "conv3"
}
layer {
  name: "conv4"
  type: "Convolution"
  bottom: "conv3"
  top: "conv4"
  param {
    lr_mult: 1
    decay_mult: 1
  }
  param {
    lr_mult: 2
    decay_mult: 0
  }
  convolution_param {
    num_output: 384
    pad: 1
    kernel_size: 3
    group: 2
    weight_filler {
      type: "gaussian"
      std: 0.01
    }
    bias_filler {
      type: "constant"
      value: 0.1
    }
  }
}
layer {
  name: "relu4"
  type: "ReLU"
  bottom: "conv4"
  top: "conv4"
}
layer {
  name: "conv5"
  type: "Convolution"
  bottom: "conv4"
  top: "conv5"
  param {
    lr_mult: 1
    decay_mult: 1
  }
  param {
    lr_mult: 2
    decay_mult: 0
  }
  convolution_param {
    num_output: 256
    pad: 1
    kernel_size: 3
    group: 2
    weight_filler {
      type: "gaussian"
      std: 0.01
    }
    bias_filler {
      type: "constant"
      value: 0.1
    }
  }
}
layer {
  name: "relu5"
  type: "ReLU"
  bottom: "conv5"
  top: "conv5"
}
layer {
  name: "pool5"
  type: "Pooling"
  bottom: "conv5"
  top: "pool5"
  pooling_param {
    pool: MAX
    kernel_size: 3
    stride: 2
  }
}
layer {
  name: "fc6"
  type: "InnerProduct"
  bottom: "pool5"
  top: "fc6"
  param {
    lr_mult: 1
    decay_mult: 1
  }
  param {
    lr_mult: 2
    decay_mult: 0
  }
  inner_product_param {
    num_output: 4096
    weight_filler {
      type: "gaussian"
      std: 0.005
    }
    bias_filler {
      type: "constant"
      value: 0.1
    }
  }
}
layer {
  name: "relu6"
  type: "ReLU"
  bottom: "fc6"
  top: "fc6"
}
layer {
  name: "drop6"
  type: "Dropout"
  bottom: "fc6"
  top: "fc6"
  dropout_param {
    dropout_ratio: 0.5
  }
}
layer {
  name: "fc7"
  type: "InnerProduct"
  bottom: "fc6"
  top: "fc7"
  param {
    lr_mult: 1
    decay_mult: 1
  }
  param {
    lr_mult: 2
    decay_mult: 0
  }
  inner_product_param {
    num_output: 4096
    weight_filler {
      type: "gaussian"
      std: 0.005
    }
    bias_filler {
      type: "constant"
      value: 0.1
    }
  }
}
layer {
  name: "relu7"
  type: "ReLU"
  bottom: "fc7"
  top: "fc7"
}
layer {
  name: "drop7"
  type: "Dropout"
  bottom: "fc7"
  top: "fc7"
  dropout_param {
    dropout_ratio: 0.5
  }
}
layer {
  name: "fc8_plantvillage"
  type: "InnerProduct"
  bottom: "fc7"
  top: "fc8_plantvillage"
  param {
    lr_mult: 1
    decay_mult: 1
  }
  param {
    lr_mult: 2
    decay_mult: 0
  }
  inner_product_param {
    num_output: 38
    weight_filler {
      type: "gaussian"
      std: 0.01
    }
    bias_filler {
      type: "constant"
      value: 0
    }
  }
}
layer {
  name: "prob"
  type: "Softmax"
  bottom: "fc8_plantvillage"
  top: "prob"
  include {
    phase: TEST
  }
}
layer {
  name: "hdf5out"
  type: "HDF5Output"
  bottom: "prob"
  bottom: "label"
  include {
    phase: TEST
  }
  hdf5_output_param {
    file_name: "hdf5_dumps/iter_2332.h5"
  }
}
layer {
  name: "loss"
  type: "SoftmaxWithLoss"
  bottom: "fc8_plantvillage"
  bottom: "label"
  top: "loss"
}
layer {
  name: "accuracy"
  type: "Accuracy"
  bottom: "fc8_plantvillage"
  bottom: "label"
  top: "accuracy"
  include {
    phase: TEST
  }
}
I0403 12:29:16.355646  8972 layer_factory.hpp:77] Creating layer data
I0403 12:29:16.356324  8972 net.cpp:91] Creating Layer data
I0403 12:29:16.356355  8972 net.cpp:399] data -> data
I0403 12:29:16.356408  8972 net.cpp:399] data -> label
I0403 12:29:16.356446  8972 data_transformer.cpp:25] Loading mean file from: /home/mohanty/data/final_dataset/lmdb/segmented-20-80/mean.binaryproto
I0403 12:29:16.359249  8977 db_lmdb.cpp:38] Opened lmdb /home/mohanty/data/final_dataset/lmdb/segmented-20-80/test_db
I0403 12:29:16.371084  8972 data_layer.cpp:41] output data size: 100,3,227,227
I0403 12:29:16.491572  8972 net.cpp:141] Setting up data
I0403 12:29:16.491670  8972 net.cpp:148] Top shape: 100 3 227 227 (15458700)
I0403 12:29:16.491693  8972 net.cpp:148] Top shape: 100 (100)
I0403 12:29:16.491708  8972 net.cpp:156] Memory required for data: 61835200
I0403 12:29:16.491737  8972 layer_factory.hpp:77] Creating layer label_data_1_split
I0403 12:29:16.491762  8972 net.cpp:91] Creating Layer label_data_1_split
I0403 12:29:16.491781  8972 net.cpp:425] label_data_1_split <- label
I0403 12:29:16.491813  8972 net.cpp:399] label_data_1_split -> label_data_1_split_0
I0403 12:29:16.491842  8972 net.cpp:399] label_data_1_split -> label_data_1_split_1
I0403 12:29:16.491863  8972 net.cpp:399] label_data_1_split -> label_data_1_split_2
I0403 12:29:16.491927  8972 net.cpp:141] Setting up label_data_1_split
I0403 12:29:16.491951  8972 net.cpp:148] Top shape: 100 (100)
I0403 12:29:16.491967  8972 net.cpp:148] Top shape: 100 (100)
I0403 12:29:16.491982  8972 net.cpp:148] Top shape: 100 (100)
I0403 12:29:16.491997  8972 net.cpp:156] Memory required for data: 61836400
I0403 12:29:16.492012  8972 layer_factory.hpp:77] Creating layer conv1
I0403 12:29:16.492043  8972 net.cpp:91] Creating Layer conv1
I0403 12:29:16.492061  8972 net.cpp:425] conv1 <- data
I0403 12:29:16.492081  8972 net.cpp:399] conv1 -> conv1
I0403 12:29:16.634372  8972 net.cpp:141] Setting up conv1
I0403 12:29:16.634450  8972 net.cpp:148] Top shape: 100 96 55 55 (29040000)
I0403 12:29:16.634467  8972 net.cpp:156] Memory required for data: 177996400
I0403 12:29:16.634500  8972 layer_factory.hpp:77] Creating layer relu1
I0403 12:29:16.634526  8972 net.cpp:91] Creating Layer relu1
I0403 12:29:16.634544  8972 net.cpp:425] relu1 <- conv1
I0403 12:29:16.634563  8972 net.cpp:386] relu1 -> conv1 (in-place)
I0403 12:29:16.634835  8972 net.cpp:141] Setting up relu1
I0403 12:29:16.634863  8972 net.cpp:148] Top shape: 100 96 55 55 (29040000)
I0403 12:29:16.634918  8972 net.cpp:156] Memory required for data: 294156400
I0403 12:29:16.634934  8972 layer_factory.hpp:77] Creating layer norm1
I0403 12:29:16.634963  8972 net.cpp:91] Creating Layer norm1
I0403 12:29:16.634980  8972 net.cpp:425] norm1 <- conv1
I0403 12:29:16.634999  8972 net.cpp:399] norm1 -> norm1
I0403 12:29:16.635373  8972 net.cpp:141] Setting up norm1
I0403 12:29:16.635401  8972 net.cpp:148] Top shape: 100 96 55 55 (29040000)
I0403 12:29:16.635416  8972 net.cpp:156] Memory required for data: 410316400
I0403 12:29:16.635432  8972 layer_factory.hpp:77] Creating layer pool1
I0403 12:29:16.635454  8972 net.cpp:91] Creating Layer pool1
I0403 12:29:16.635473  8972 net.cpp:425] pool1 <- norm1
I0403 12:29:16.635489  8972 net.cpp:399] pool1 -> pool1
I0403 12:29:16.635556  8972 net.cpp:141] Setting up pool1
I0403 12:29:16.635584  8972 net.cpp:148] Top shape: 100 96 27 27 (6998400)
I0403 12:29:16.635599  8972 net.cpp:156] Memory required for data: 438310000
I0403 12:29:16.635614  8972 layer_factory.hpp:77] Creating layer conv2
I0403 12:29:16.635639  8972 net.cpp:91] Creating Layer conv2
I0403 12:29:16.635655  8972 net.cpp:425] conv2 <- pool1
I0403 12:29:16.635673  8972 net.cpp:399] conv2 -> conv2
I0403 12:29:16.650703  8972 net.cpp:141] Setting up conv2
I0403 12:29:16.650754  8972 net.cpp:148] Top shape: 100 256 27 27 (18662400)
I0403 12:29:16.650771  8972 net.cpp:156] Memory required for data: 512959600
I0403 12:29:16.650794  8972 layer_factory.hpp:77] Creating layer relu2
I0403 12:29:16.650815  8972 net.cpp:91] Creating Layer relu2
I0403 12:29:16.650831  8972 net.cpp:425] relu2 <- conv2
I0403 12:29:16.650851  8972 net.cpp:386] relu2 -> conv2 (in-place)
I0403 12:29:16.651134  8972 net.cpp:141] Setting up relu2
I0403 12:29:16.651161  8972 net.cpp:148] Top shape: 100 256 27 27 (18662400)
I0403 12:29:16.651176  8972 net.cpp:156] Memory required for data: 587609200
I0403 12:29:16.651191  8972 layer_factory.hpp:77] Creating layer norm2
I0403 12:29:16.651214  8972 net.cpp:91] Creating Layer norm2
I0403 12:29:16.651232  8972 net.cpp:425] norm2 <- conv2
I0403 12:29:16.651252  8972 net.cpp:399] norm2 -> norm2
I0403 12:29:16.651450  8972 net.cpp:141] Setting up norm2
I0403 12:29:16.651476  8972 net.cpp:148] Top shape: 100 256 27 27 (18662400)
I0403 12:29:16.651531  8972 net.cpp:156] Memory required for data: 662258800
I0403 12:29:16.651547  8972 layer_factory.hpp:77] Creating layer pool2
I0403 12:29:16.651566  8972 net.cpp:91] Creating Layer pool2
I0403 12:29:16.651587  8972 net.cpp:425] pool2 <- norm2
I0403 12:29:16.651607  8972 net.cpp:399] pool2 -> pool2
I0403 12:29:16.651664  8972 net.cpp:141] Setting up pool2
I0403 12:29:16.651687  8972 net.cpp:148] Top shape: 100 256 13 13 (4326400)
I0403 12:29:16.651702  8972 net.cpp:156] Memory required for data: 679564400
I0403 12:29:16.651717  8972 layer_factory.hpp:77] Creating layer conv3
I0403 12:29:16.651743  8972 net.cpp:91] Creating Layer conv3
I0403 12:29:16.651760  8972 net.cpp:425] conv3 <- pool2
I0403 12:29:16.651778  8972 net.cpp:399] conv3 -> conv3
I0403 12:29:16.690853  8972 net.cpp:141] Setting up conv3
I0403 12:29:16.690928  8972 net.cpp:148] Top shape: 100 384 13 13 (6489600)
I0403 12:29:16.690944  8972 net.cpp:156] Memory required for data: 705522800
I0403 12:29:16.690971  8972 layer_factory.hpp:77] Creating layer relu3
I0403 12:29:16.690997  8972 net.cpp:91] Creating Layer relu3
I0403 12:29:16.691016  8972 net.cpp:425] relu3 <- conv3
I0403 12:29:16.691035  8972 net.cpp:386] relu3 -> conv3 (in-place)
I0403 12:29:16.691311  8972 net.cpp:141] Setting up relu3
I0403 12:29:16.691339  8972 net.cpp:148] Top shape: 100 384 13 13 (6489600)
I0403 12:29:16.691354  8972 net.cpp:156] Memory required for data: 731481200
I0403 12:29:16.691370  8972 layer_factory.hpp:77] Creating layer conv4
I0403 12:29:16.691395  8972 net.cpp:91] Creating Layer conv4
I0403 12:29:16.691411  8972 net.cpp:425] conv4 <- conv3
I0403 12:29:16.691432  8972 net.cpp:399] conv4 -> conv4
I0403 12:29:16.721810  8972 net.cpp:141] Setting up conv4
I0403 12:29:16.721882  8972 net.cpp:148] Top shape: 100 384 13 13 (6489600)
I0403 12:29:16.721938  8972 net.cpp:156] Memory required for data: 757439600
I0403 12:29:16.721961  8972 layer_factory.hpp:77] Creating layer relu4
I0403 12:29:16.721982  8972 net.cpp:91] Creating Layer relu4
I0403 12:29:16.721999  8972 net.cpp:425] relu4 <- conv4
I0403 12:29:16.722021  8972 net.cpp:386] relu4 -> conv4 (in-place)
I0403 12:29:16.722301  8972 net.cpp:141] Setting up relu4
I0403 12:29:16.722332  8972 net.cpp:148] Top shape: 100 384 13 13 (6489600)
I0403 12:29:16.722347  8972 net.cpp:156] Memory required for data: 783398000
I0403 12:29:16.722362  8972 layer_factory.hpp:77] Creating layer conv5
I0403 12:29:16.722388  8972 net.cpp:91] Creating Layer conv5
I0403 12:29:16.722407  8972 net.cpp:425] conv5 <- conv4
I0403 12:29:16.722425  8972 net.cpp:399] conv5 -> conv5
I0403 12:29:16.743203  8972 net.cpp:141] Setting up conv5
I0403 12:29:16.743259  8972 net.cpp:148] Top shape: 100 256 13 13 (4326400)
I0403 12:29:16.743276  8972 net.cpp:156] Memory required for data: 800703600
I0403 12:29:16.743301  8972 layer_factory.hpp:77] Creating layer relu5
I0403 12:29:16.743324  8972 net.cpp:91] Creating Layer relu5
I0403 12:29:16.743341  8972 net.cpp:425] relu5 <- conv5
I0403 12:29:16.743366  8972 net.cpp:386] relu5 -> conv5 (in-place)
I0403 12:29:16.743706  8972 net.cpp:141] Setting up relu5
I0403 12:29:16.743733  8972 net.cpp:148] Top shape: 100 256 13 13 (4326400)
I0403 12:29:16.743748  8972 net.cpp:156] Memory required for data: 818009200
I0403 12:29:16.743763  8972 layer_factory.hpp:77] Creating layer pool5
I0403 12:29:16.743788  8972 net.cpp:91] Creating Layer pool5
I0403 12:29:16.743804  8972 net.cpp:425] pool5 <- conv5
I0403 12:29:16.743823  8972 net.cpp:399] pool5 -> pool5
I0403 12:29:16.743885  8972 net.cpp:141] Setting up pool5
I0403 12:29:16.743907  8972 net.cpp:148] Top shape: 100 256 6 6 (921600)
I0403 12:29:16.743922  8972 net.cpp:156] Memory required for data: 821695600
I0403 12:29:16.743937  8972 layer_factory.hpp:77] Creating layer fc6
I0403 12:29:16.743976  8972 net.cpp:91] Creating Layer fc6
I0403 12:29:16.743993  8972 net.cpp:425] fc6 <- pool5
I0403 12:29:16.744010  8972 net.cpp:399] fc6 -> fc6
I0403 12:29:18.294258  8972 net.cpp:141] Setting up fc6
I0403 12:29:18.294337  8972 net.cpp:148] Top shape: 100 4096 (409600)
I0403 12:29:18.294353  8972 net.cpp:156] Memory required for data: 823334000
I0403 12:29:18.294373  8972 layer_factory.hpp:77] Creating layer relu6
I0403 12:29:18.294394  8972 net.cpp:91] Creating Layer relu6
I0403 12:29:18.294411  8972 net.cpp:425] relu6 <- fc6
I0403 12:29:18.294432  8972 net.cpp:386] relu6 -> fc6 (in-place)
I0403 12:29:18.294669  8972 net.cpp:141] Setting up relu6
I0403 12:29:18.294695  8972 net.cpp:148] Top shape: 100 4096 (409600)
I0403 12:29:18.294710  8972 net.cpp:156] Memory required for data: 824972400
I0403 12:29:18.294724  8972 layer_factory.hpp:77] Creating layer drop6
I0403 12:29:18.294742  8972 net.cpp:91] Creating Layer drop6
I0403 12:29:18.294759  8972 net.cpp:425] drop6 <- fc6
I0403 12:29:18.294780  8972 net.cpp:386] drop6 -> fc6 (in-place)
I0403 12:29:18.294831  8972 net.cpp:141] Setting up drop6
I0403 12:29:18.294857  8972 net.cpp:148] Top shape: 100 4096 (409600)
I0403 12:29:18.294870  8972 net.cpp:156] Memory required for data: 826610800
I0403 12:29:18.294885  8972 layer_factory.hpp:77] Creating layer fc7
I0403 12:29:18.294903  8972 net.cpp:91] Creating Layer fc7
I0403 12:29:18.294919  8972 net.cpp:425] fc7 <- fc6
I0403 12:29:18.294937  8972 net.cpp:399] fc7 -> fc7
I0403 12:29:18.981587  8972 net.cpp:141] Setting up fc7
I0403 12:29:18.981665  8972 net.cpp:148] Top shape: 100 4096 (409600)
I0403 12:29:18.981681  8972 net.cpp:156] Memory required for data: 828249200
I0403 12:29:18.981703  8972 layer_factory.hpp:77] Creating layer relu7
I0403 12:29:18.981724  8972 net.cpp:91] Creating Layer relu7
I0403 12:29:18.981741  8972 net.cpp:425] relu7 <- fc7
I0403 12:29:18.981762  8972 net.cpp:386] relu7 -> fc7 (in-place)
I0403 12:29:18.982167  8972 net.cpp:141] Setting up relu7
I0403 12:29:18.982192  8972 net.cpp:148] Top shape: 100 4096 (409600)
I0403 12:29:18.982241  8972 net.cpp:156] Memory required for data: 829887600
I0403 12:29:18.982256  8972 layer_factory.hpp:77] Creating layer drop7
I0403 12:29:18.982276  8972 net.cpp:91] Creating Layer drop7
I0403 12:29:18.982293  8972 net.cpp:425] drop7 <- fc7
I0403 12:29:18.982312  8972 net.cpp:386] drop7 -> fc7 (in-place)
I0403 12:29:18.982354  8972 net.cpp:141] Setting up drop7
I0403 12:29:18.982379  8972 net.cpp:148] Top shape: 100 4096 (409600)
I0403 12:29:18.982394  8972 net.cpp:156] Memory required for data: 831526000
I0403 12:29:18.982409  8972 layer_factory.hpp:77] Creating layer fc8_plantvillage
I0403 12:29:18.982427  8972 net.cpp:91] Creating Layer fc8_plantvillage
I0403 12:29:18.982444  8972 net.cpp:425] fc8_plantvillage <- fc7
I0403 12:29:18.982461  8972 net.cpp:399] fc8_plantvillage -> fc8_plantvillage
I0403 12:29:18.989274  8972 net.cpp:141] Setting up fc8_plantvillage
I0403 12:29:18.989305  8972 net.cpp:148] Top shape: 100 38 (3800)
I0403 12:29:18.989320  8972 net.cpp:156] Memory required for data: 831541200
I0403 12:29:18.989339  8972 layer_factory.hpp:77] Creating layer fc8_plantvillage_fc8_plantvillage_0_split
I0403 12:29:18.989357  8972 net.cpp:91] Creating Layer fc8_plantvillage_fc8_plantvillage_0_split
I0403 12:29:18.989374  8972 net.cpp:425] fc8_plantvillage_fc8_plantvillage_0_split <- fc8_plantvillage
I0403 12:29:18.989393  8972 net.cpp:399] fc8_plantvillage_fc8_plantvillage_0_split -> fc8_plantvillage_fc8_plantvillage_0_split_0
I0403 12:29:18.989413  8972 net.cpp:399] fc8_plantvillage_fc8_plantvillage_0_split -> fc8_plantvillage_fc8_plantvillage_0_split_1
I0403 12:29:18.989433  8972 net.cpp:399] fc8_plantvillage_fc8_plantvillage_0_split -> fc8_plantvillage_fc8_plantvillage_0_split_2
I0403 12:29:18.989508  8972 net.cpp:141] Setting up fc8_plantvillage_fc8_plantvillage_0_split
I0403 12:29:18.989531  8972 net.cpp:148] Top shape: 100 38 (3800)
I0403 12:29:18.989547  8972 net.cpp:148] Top shape: 100 38 (3800)
I0403 12:29:18.989562  8972 net.cpp:148] Top shape: 100 38 (3800)
I0403 12:29:18.989579  8972 net.cpp:156] Memory required for data: 831586800
I0403 12:29:18.989593  8972 layer_factory.hpp:77] Creating layer prob
I0403 12:29:18.989612  8972 net.cpp:91] Creating Layer prob
I0403 12:29:18.989627  8972 net.cpp:425] prob <- fc8_plantvillage_fc8_plantvillage_0_split_0
I0403 12:29:18.989647  8972 net.cpp:399] prob -> prob
I0403 12:29:18.989877  8972 net.cpp:141] Setting up prob
I0403 12:29:18.989902  8972 net.cpp:148] Top shape: 100 38 (3800)
I0403 12:29:18.989917  8972 net.cpp:156] Memory required for data: 831602000
I0403 12:29:18.989931  8972 layer_factory.hpp:77] Creating layer hdf5out
I0403 12:29:18.989949  8972 net.cpp:91] Creating Layer hdf5out
I0403 12:29:18.989964  8972 net.cpp:425] hdf5out <- prob
I0403 12:29:18.989979  8972 net.cpp:425] hdf5out <- label_data_1_split_0
I0403 12:29:18.992578  8972 net.cpp:141] Setting up hdf5out
…
