…
I0403 12:38:12.945413  9197 net.cpp:313] The NetState phase (1) differed from the phase (0) specified by a rule in layer data
I0403 12:38:12.945735  9197 net.cpp:49] Initializing net from parameters: 
state {
  phase: TEST
}
layer {
  name: "data"
  type: "Data"
  top: "data"
  top: "label"
  include {
    phase: TEST
  }
  transform_param {
    crop_size: 227
    mean_file: "/home/mohanty/data/final_dataset/lmdb/segmented-20-80/mean.binaryproto"
  }
  data_param {
    source: "/home/mohanty/data/final_dataset/lmdb/segmented-20-80/test_db"
    batch_size: 100
    backend: LMDB
  }
}
layer {
  name: "conv1"
  type: "Convolution"
  bottom: "data"
  top: "conv1"
  param {
    lr_mult: 1
    decay_mult: 1
  }
  param {
    lr_mult: 2
    decay_mult: 0
  }
  convolution_param {
    num_output: 96
    kernel_size: 11
    stride: 4
    weight_filler {
      type: "gaussian"
      std: 0.01
    }
    bias_filler {
      type: "constant"
      value: 0
    }
  }
}
layer {
  name: "relu1"
  type: "ReLU"
  bottom: "conv1"
  top: "conv1"
}
layer {
  name: "norm1"
  type: "LRN"
  bottom: "conv1"
  top: "norm1"
  lrn_param {
    local_size: 5
    alpha: 0.0001
    beta: 0.75
  }
}
layer {
  name: "pool1"
  type: "Pooling"
  bottom: "norm1"
  top: "pool1"
  pooling_param {
    pool: MAX
    kernel_size: 3
    stride: 2
  }
}
layer {
  name: "conv2"
  type: "Convolution"
  bottom: "pool1"
  top: "conv2"
  param {
    lr_mult: 1
    decay_mult: 1
  }
  param {
    lr_mult: 2
    decay_mult: 0
  }
  convolution_param {
    num_output: 256
    pad: 2
    kernel_size: 5
    group: 2
    weight_filler {
      type: "gaussian"
      std: 0.01
    }
    bias_filler {
      type: "constant"
      value: 0.1
    }
  }
}
layer {
  name: "relu2"
  type: "ReLU"
  bottom: "conv2"
  top: "conv2"
}
layer {
  name: "norm2"
  type: "LRN"
  bottom: "conv2"
  top: "norm2"
  lrn_param {
    local_size: 5
    alpha: 0.0001
    beta: 0.75
  }
}
layer {
  name: "pool2"
  type: "Pooling"
  bottom: "norm2"
  top: "pool2"
  pooling_param {
    pool: MAX
    kernel_size: 3
    stride: 2
  }
}
layer {
  name: "conv3"
  type: "Convolution"
  bottom: "pool2"
  top: "conv3"
  param {
    lr_mult: 1
    decay_mult: 1
  }
  param {
    lr_mult: 2
    decay_mult: 0
  }
  convolution_param {
    num_output: 384
    pad: 1
    kernel_size: 3
    weight_filler {
      type: "gaussian"
      std: 0.01
    }
    bias_filler {
      type: "constant"
      value: 0
    }
  }
}
layer {
  name: "relu3"
  type: "ReLU"
  bottom: "conv3"
  top: "conv3"
}
layer {
  name: "conv4"
  type: "Convolution"
  bottom: "conv3"
  top: "conv4"
  param {
    lr_mult: 1
    decay_mult: 1
  }
  param {
    lr_mult: 2
    decay_mult: 0
  }
  convolution_param {
    num_output: 384
    pad: 1
    kernel_size: 3
    group: 2
    weight_filler {
      type: "gaussian"
      std: 0.01
    }
    bias_filler {
      type: "constant"
      value: 0.1
    }
  }
}
layer {
  name: "relu4"
  type: "ReLU"
  bottom: "conv4"
  top: "conv4"
}
layer {
  name: "conv5"
  type: "Convolution"
  bottom: "conv4"
  top: "conv5"
  param {
    lr_mult: 1
    decay_mult: 1
  }
  param {
    lr_mult: 2
    decay_mult: 0
  }
  convolution_param {
    num_output: 256
    pad: 1
    kernel_size: 3
    group: 2
    weight_filler {
      type: "gaussian"
      std: 0.01
    }
    bias_filler {
      type: "constant"
      value: 0.1
    }
  }
}
layer {
  name: "relu5"
  type: "ReLU"
  bottom: "conv5"
  top: "conv5"
}
layer {
  name: "pool5"
  type: "Pooling"
  bottom: "conv5"
  top: "pool5"
  pooling_param {
    pool: MAX
    kernel_size: 3
    stride: 2
  }
}
layer {
  name: "fc6"
  type: "InnerProduct"
  bottom: "pool5"
  top: "fc6"
  param {
    lr_mult: 1
    decay_mult: 1
  }
  param {
    lr_mult: 2
    decay_mult: 0
  }
  inner_product_param {
    num_output: 4096
    weight_filler {
      type: "gaussian"
      std: 0.005
    }
    bias_filler {
      type: "constant"
      value: 0.1
    }
  }
}
layer {
  name: "relu6"
  type: "ReLU"
  bottom: "fc6"
  top: "fc6"
}
layer {
  name: "drop6"
  type: "Dropout"
  bottom: "fc6"
  top: "fc6"
  dropout_param {
    dropout_ratio: 0.5
  }
}
layer {
  name: "fc7"
  type: "InnerProduct"
  bottom: "fc6"
  top: "fc7"
  param {
    lr_mult: 1
    decay_mult: 1
  }
  param {
    lr_mult: 2
    decay_mult: 0
  }
  inner_product_param {
    num_output: 4096
    weight_filler {
      type: "gaussian"
      std: 0.005
    }
    bias_filler {
      type: "constant"
      value: 0.1
    }
  }
}
layer {
  name: "relu7"
  type: "ReLU"
  bottom: "fc7"
  top: "fc7"
}
layer {
  name: "drop7"
  type: "Dropout"
  bottom: "fc7"
  top: "fc7"
  dropout_param {
    dropout_ratio: 0.5
  }
}
layer {
  name: "fc8_plantvillage"
  type: "InnerProduct"
  bottom: "fc7"
  top: "fc8_plantvillage"
  param {
    lr_mult: 1
    decay_mult: 1
  }
  param {
    lr_mult: 2
    decay_mult: 0
  }
  inner_product_param {
    num_output: 38
    weight_filler {
      type: "gaussian"
      std: 0.01
    }
    bias_filler {
      type: "constant"
      value: 0
    }
  }
}
layer {
  name: "prob"
  type: "Softmax"
  bottom: "fc8_plantvillage"
  top: "prob"
  include {
    phase: TEST
  }
}
layer {
  name: "hdf5out"
  type: "HDF5Output"
  bottom: "prob"
  bottom: "label"
  include {
    phase: TEST
  }
  hdf5_output_param {
    file_name: "hdf5_dumps/iter_3074.h5"
  }
}
layer {
  name: "loss"
  type: "SoftmaxWithLoss"
  bottom: "fc8_plantvillage"
  bottom: "label"
  top: "loss"
}
layer {
  name: "accuracy"
  type: "Accuracy"
  bottom: "fc8_plantvillage"
  bottom: "label"
  top: "accuracy"
  include {
    phase: TEST
  }
}
I0403 12:38:12.946354  9197 layer_factory.hpp:77] Creating layer data
I0403 12:38:12.947033  9197 net.cpp:91] Creating Layer data
I0403 12:38:12.947064  9197 net.cpp:399] data -> data
I0403 12:38:12.947121  9197 net.cpp:399] data -> label
I0403 12:38:12.947160  9197 data_transformer.cpp:25] Loading mean file from: /home/mohanty/data/final_dataset/lmdb/segmented-20-80/mean.binaryproto
I0403 12:38:12.949859  9200 db_lmdb.cpp:38] Opened lmdb /home/mohanty/data/final_dataset/lmdb/segmented-20-80/test_db
I0403 12:38:12.961658  9197 data_layer.cpp:41] output data size: 100,3,227,227
I0403 12:38:13.080821  9197 net.cpp:141] Setting up data
I0403 12:38:13.080912  9197 net.cpp:148] Top shape: 100 3 227 227 (15458700)
I0403 12:38:13.080935  9197 net.cpp:148] Top shape: 100 (100)
I0403 12:38:13.080950  9197 net.cpp:156] Memory required for data: 61835200
I0403 12:38:13.080977  9197 layer_factory.hpp:77] Creating layer label_data_1_split
I0403 12:38:13.081002  9197 net.cpp:91] Creating Layer label_data_1_split
I0403 12:38:13.081022  9197 net.cpp:425] label_data_1_split <- label
I0403 12:38:13.081053  9197 net.cpp:399] label_data_1_split -> label_data_1_split_0
I0403 12:38:13.081080  9197 net.cpp:399] label_data_1_split -> label_data_1_split_1
I0403 12:38:13.081100  9197 net.cpp:399] label_data_1_split -> label_data_1_split_2
I0403 12:38:13.081163  9197 net.cpp:141] Setting up label_data_1_split
I0403 12:38:13.081187  9197 net.cpp:148] Top shape: 100 (100)
I0403 12:38:13.081203  9197 net.cpp:148] Top shape: 100 (100)
I0403 12:38:13.081219  9197 net.cpp:148] Top shape: 100 (100)
I0403 12:38:13.081233  9197 net.cpp:156] Memory required for data: 61836400
I0403 12:38:13.081248  9197 layer_factory.hpp:77] Creating layer conv1
I0403 12:38:13.081280  9197 net.cpp:91] Creating Layer conv1
I0403 12:38:13.081298  9197 net.cpp:425] conv1 <- data
I0403 12:38:13.081317  9197 net.cpp:399] conv1 -> conv1
I0403 12:38:13.221614  9197 net.cpp:141] Setting up conv1
I0403 12:38:13.221691  9197 net.cpp:148] Top shape: 100 96 55 55 (29040000)
I0403 12:38:13.221709  9197 net.cpp:156] Memory required for data: 177996400
I0403 12:38:13.221740  9197 layer_factory.hpp:77] Creating layer relu1
I0403 12:38:13.221768  9197 net.cpp:91] Creating Layer relu1
I0403 12:38:13.221786  9197 net.cpp:425] relu1 <- conv1
I0403 12:38:13.221806  9197 net.cpp:386] relu1 -> conv1 (in-place)
I0403 12:38:13.222072  9197 net.cpp:141] Setting up relu1
I0403 12:38:13.222100  9197 net.cpp:148] Top shape: 100 96 55 55 (29040000)
I0403 12:38:13.222152  9197 net.cpp:156] Memory required for data: 294156400
I0403 12:38:13.222169  9197 layer_factory.hpp:77] Creating layer norm1
I0403 12:38:13.222194  9197 net.cpp:91] Creating Layer norm1
I0403 12:38:13.222213  9197 net.cpp:425] norm1 <- conv1
I0403 12:38:13.222229  9197 net.cpp:399] norm1 -> norm1
I0403 12:38:13.222529  9197 net.cpp:141] Setting up norm1
I0403 12:38:13.222555  9197 net.cpp:148] Top shape: 100 96 55 55 (29040000)
I0403 12:38:13.222575  9197 net.cpp:156] Memory required for data: 410316400
I0403 12:38:13.222591  9197 layer_factory.hpp:77] Creating layer pool1
I0403 12:38:13.222614  9197 net.cpp:91] Creating Layer pool1
I0403 12:38:13.222630  9197 net.cpp:425] pool1 <- norm1
I0403 12:38:13.222647  9197 net.cpp:399] pool1 -> pool1
I0403 12:38:13.222713  9197 net.cpp:141] Setting up pool1
I0403 12:38:13.222736  9197 net.cpp:148] Top shape: 100 96 27 27 (6998400)
I0403 12:38:13.222750  9197 net.cpp:156] Memory required for data: 438310000
I0403 12:38:13.222765  9197 layer_factory.hpp:77] Creating layer conv2
I0403 12:38:13.222789  9197 net.cpp:91] Creating Layer conv2
I0403 12:38:13.222803  9197 net.cpp:425] conv2 <- pool1
I0403 12:38:13.222820  9197 net.cpp:399] conv2 -> conv2
I0403 12:38:13.237938  9197 net.cpp:141] Setting up conv2
I0403 12:38:13.237984  9197 net.cpp:148] Top shape: 100 256 27 27 (18662400)
I0403 12:38:13.238001  9197 net.cpp:156] Memory required for data: 512959600
I0403 12:38:13.238024  9197 layer_factory.hpp:77] Creating layer relu2
I0403 12:38:13.238045  9197 net.cpp:91] Creating Layer relu2
I0403 12:38:13.238061  9197 net.cpp:425] relu2 <- conv2
I0403 12:38:13.238080  9197 net.cpp:386] relu2 -> conv2 (in-place)
I0403 12:38:13.238392  9197 net.cpp:141] Setting up relu2
I0403 12:38:13.238420  9197 net.cpp:148] Top shape: 100 256 27 27 (18662400)
I0403 12:38:13.238435  9197 net.cpp:156] Memory required for data: 587609200
I0403 12:38:13.238451  9197 layer_factory.hpp:77] Creating layer norm2
I0403 12:38:13.238471  9197 net.cpp:91] Creating Layer norm2
I0403 12:38:13.238488  9197 net.cpp:425] norm2 <- conv2
I0403 12:38:13.238507  9197 net.cpp:399] norm2 -> norm2
I0403 12:38:13.238704  9197 net.cpp:141] Setting up norm2
I0403 12:38:13.238731  9197 net.cpp:148] Top shape: 100 256 27 27 (18662400)
I0403 12:38:13.238746  9197 net.cpp:156] Memory required for data: 662258800
I0403 12:38:13.238761  9197 layer_factory.hpp:77] Creating layer pool2
I0403 12:38:13.238780  9197 net.cpp:91] Creating Layer pool2
I0403 12:38:13.238795  9197 net.cpp:425] pool2 <- norm2
I0403 12:38:13.238813  9197 net.cpp:399] pool2 -> pool2
I0403 12:38:13.238862  9197 net.cpp:141] Setting up pool2
I0403 12:38:13.238885  9197 net.cpp:148] Top shape: 100 256 13 13 (4326400)
I0403 12:38:13.238900  9197 net.cpp:156] Memory required for data: 679564400
I0403 12:38:13.238914  9197 layer_factory.hpp:77] Creating layer conv3
I0403 12:38:13.238937  9197 net.cpp:91] Creating Layer conv3
I0403 12:38:13.238953  9197 net.cpp:425] conv3 <- pool2
I0403 12:38:13.238972  9197 net.cpp:399] conv3 -> conv3
I0403 12:38:13.278511  9197 net.cpp:141] Setting up conv3
I0403 12:38:13.278633  9197 net.cpp:148] Top shape: 100 384 13 13 (6489600)
I0403 12:38:13.278651  9197 net.cpp:156] Memory required for data: 705522800
I0403 12:38:13.278678  9197 layer_factory.hpp:77] Creating layer relu3
I0403 12:38:13.278702  9197 net.cpp:91] Creating Layer relu3
I0403 12:38:13.278719  9197 net.cpp:425] relu3 <- conv3
I0403 12:38:13.278739  9197 net.cpp:386] relu3 -> conv3 (in-place)
I0403 12:38:13.279011  9197 net.cpp:141] Setting up relu3
I0403 12:38:13.279039  9197 net.cpp:148] Top shape: 100 384 13 13 (6489600)
I0403 12:38:13.279055  9197 net.cpp:156] Memory required for data: 731481200
I0403 12:38:13.279070  9197 layer_factory.hpp:77] Creating layer conv4
I0403 12:38:13.279095  9197 net.cpp:91] Creating Layer conv4
I0403 12:38:13.279112  9197 net.cpp:425] conv4 <- conv3
I0403 12:38:13.279130  9197 net.cpp:399] conv4 -> conv4
I0403 12:38:13.309583  9197 net.cpp:141] Setting up conv4
I0403 12:38:13.309655  9197 net.cpp:148] Top shape: 100 384 13 13 (6489600)
I0403 12:38:13.309711  9197 net.cpp:156] Memory required for data: 757439600
I0403 12:38:13.309734  9197 layer_factory.hpp:77] Creating layer relu4
I0403 12:38:13.309762  9197 net.cpp:91] Creating Layer relu4
I0403 12:38:13.309780  9197 net.cpp:425] relu4 <- conv4
I0403 12:38:13.309799  9197 net.cpp:386] relu4 -> conv4 (in-place)
I0403 12:38:13.310081  9197 net.cpp:141] Setting up relu4
I0403 12:38:13.310107  9197 net.cpp:148] Top shape: 100 384 13 13 (6489600)
I0403 12:38:13.310122  9197 net.cpp:156] Memory required for data: 783398000
I0403 12:38:13.310137  9197 layer_factory.hpp:77] Creating layer conv5
I0403 12:38:13.310163  9197 net.cpp:91] Creating Layer conv5
I0403 12:38:13.310180  9197 net.cpp:425] conv5 <- conv4
I0403 12:38:13.310200  9197 net.cpp:399] conv5 -> conv5
I0403 12:38:13.331173  9197 net.cpp:141] Setting up conv5
I0403 12:38:13.331230  9197 net.cpp:148] Top shape: 100 256 13 13 (4326400)
I0403 12:38:13.331248  9197 net.cpp:156] Memory required for data: 800703600
I0403 12:38:13.331274  9197 layer_factory.hpp:77] Creating layer relu5
I0403 12:38:13.331297  9197 net.cpp:91] Creating Layer relu5
I0403 12:38:13.331315  9197 net.cpp:425] relu5 <- conv5
I0403 12:38:13.331333  9197 net.cpp:386] relu5 -> conv5 (in-place)
I0403 12:38:13.331666  9197 net.cpp:141] Setting up relu5
I0403 12:38:13.331693  9197 net.cpp:148] Top shape: 100 256 13 13 (4326400)
I0403 12:38:13.331709  9197 net.cpp:156] Memory required for data: 818009200
I0403 12:38:13.331724  9197 layer_factory.hpp:77] Creating layer pool5
I0403 12:38:13.331750  9197 net.cpp:91] Creating Layer pool5
I0403 12:38:13.331768  9197 net.cpp:425] pool5 <- conv5
I0403 12:38:13.331789  9197 net.cpp:399] pool5 -> pool5
I0403 12:38:13.331851  9197 net.cpp:141] Setting up pool5
I0403 12:38:13.331874  9197 net.cpp:148] Top shape: 100 256 6 6 (921600)
I0403 12:38:13.331889  9197 net.cpp:156] Memory required for data: 821695600
I0403 12:38:13.331903  9197 layer_factory.hpp:77] Creating layer fc6
I0403 12:38:13.331933  9197 net.cpp:91] Creating Layer fc6
I0403 12:38:13.331951  9197 net.cpp:425] fc6 <- pool5
I0403 12:38:13.331969  9197 net.cpp:399] fc6 -> fc6
I0403 12:38:14.892472  9197 net.cpp:141] Setting up fc6
I0403 12:38:14.892549  9197 net.cpp:148] Top shape: 100 4096 (409600)
I0403 12:38:14.892565  9197 net.cpp:156] Memory required for data: 823334000
I0403 12:38:14.892591  9197 layer_factory.hpp:77] Creating layer relu6
I0403 12:38:14.892613  9197 net.cpp:91] Creating Layer relu6
I0403 12:38:14.892630  9197 net.cpp:425] relu6 <- fc6
I0403 12:38:14.892652  9197 net.cpp:386] relu6 -> fc6 (in-place)
I0403 12:38:14.892876  9197 net.cpp:141] Setting up relu6
I0403 12:38:14.892900  9197 net.cpp:148] Top shape: 100 4096 (409600)
I0403 12:38:14.892915  9197 net.cpp:156] Memory required for data: 824972400
I0403 12:38:14.892930  9197 layer_factory.hpp:77] Creating layer drop6
I0403 12:38:14.892951  9197 net.cpp:91] Creating Layer drop6
I0403 12:38:14.892966  9197 net.cpp:425] drop6 <- fc6
I0403 12:38:14.892983  9197 net.cpp:386] drop6 -> fc6 (in-place)
I0403 12:38:14.893034  9197 net.cpp:141] Setting up drop6
I0403 12:38:14.893057  9197 net.cpp:148] Top shape: 100 4096 (409600)
I0403 12:38:14.893071  9197 net.cpp:156] Memory required for data: 826610800
I0403 12:38:14.893086  9197 layer_factory.hpp:77] Creating layer fc7
I0403 12:38:14.893105  9197 net.cpp:91] Creating Layer fc7
I0403 12:38:14.893121  9197 net.cpp:425] fc7 <- fc6
I0403 12:38:14.893141  9197 net.cpp:399] fc7 -> fc7
I0403 12:38:15.578950  9197 net.cpp:141] Setting up fc7
I0403 12:38:15.579025  9197 net.cpp:148] Top shape: 100 4096 (409600)
I0403 12:38:15.579041  9197 net.cpp:156] Memory required for data: 828249200
I0403 12:38:15.579062  9197 layer_factory.hpp:77] Creating layer relu7
I0403 12:38:15.579087  9197 net.cpp:91] Creating Layer relu7
I0403 12:38:15.579104  9197 net.cpp:425] relu7 <- fc7
I0403 12:38:15.579123  9197 net.cpp:386] relu7 -> fc7 (in-place)
I0403 12:38:15.579530  9197 net.cpp:141] Setting up relu7
I0403 12:38:15.579555  9197 net.cpp:148] Top shape: 100 4096 (409600)
I0403 12:38:15.579617  9197 net.cpp:156] Memory required for data: 829887600
I0403 12:38:15.579632  9197 layer_factory.hpp:77] Creating layer drop7
I0403 12:38:15.579653  9197 net.cpp:91] Creating Layer drop7
I0403 12:38:15.579670  9197 net.cpp:425] drop7 <- fc7
I0403 12:38:15.579687  9197 net.cpp:386] drop7 -> fc7 (in-place)
I0403 12:38:15.579731  9197 net.cpp:141] Setting up drop7
I0403 12:38:15.579754  9197 net.cpp:148] Top shape: 100 4096 (409600)
I0403 12:38:15.579768  9197 net.cpp:156] Memory required for data: 831526000
I0403 12:38:15.579782  9197 layer_factory.hpp:77] Creating layer fc8_plantvillage
I0403 12:38:15.579800  9197 net.cpp:91] Creating Layer fc8_plantvillage
I0403 12:38:15.579815  9197 net.cpp:425] fc8_plantvillage <- fc7
I0403 12:38:15.579835  9197 net.cpp:399] fc8_plantvillage -> fc8_plantvillage
I0403 12:38:15.586578  9197 net.cpp:141] Setting up fc8_plantvillage
I0403 12:38:15.586606  9197 net.cpp:148] Top shape: 100 38 (3800)
I0403 12:38:15.586621  9197 net.cpp:156] Memory required for data: 831541200
I0403 12:38:15.586638  9197 layer_factory.hpp:77] Creating layer fc8_plantvillage_fc8_plantvillage_0_split
I0403 12:38:15.586659  9197 net.cpp:91] Creating Layer fc8_plantvillage_fc8_plantvillage_0_split
I0403 12:38:15.586674  9197 net.cpp:425] fc8_plantvillage_fc8_plantvillage_0_split <- fc8_plantvillage
I0403 12:38:15.586693  9197 net.cpp:399] fc8_plantvillage_fc8_plantvillage_0_split -> fc8_plantvillage_fc8_plantvillage_0_split_0
I0403 12:38:15.586711  9197 net.cpp:399] fc8_plantvillage_fc8_plantvillage_0_split -> fc8_plantvillage_fc8_plantvillage_0_split_1
I0403 12:38:15.586732  9197 net.cpp:399] fc8_plantvillage_fc8_plantvillage_0_split -> fc8_plantvillage_fc8_plantvillage_0_split_2
I0403 12:38:15.586812  9197 net.cpp:141] Setting up fc8_plantvillage_fc8_plantvillage_0_split
I0403 12:38:15.586834  9197 net.cpp:148] Top shape: 100 38 (3800)
I0403 12:38:15.586850  9197 net.cpp:148] Top shape: 100 38 (3800)
I0403 12:38:15.586865  9197 net.cpp:148] Top shape: 100 38 (3800)
I0403 12:38:15.586879  9197 net.cpp:156] Memory required for data: 831586800
I0403 12:38:15.586894  9197 layer_factory.hpp:77] Creating layer prob
I0403 12:38:15.586913  9197 net.cpp:91] Creating Layer prob
I0403 12:38:15.586930  9197 net.cpp:425] prob <- fc8_plantvillage_fc8_plantvillage_0_split_0
I0403 12:38:15.586947  9197 net.cpp:399] prob -> prob
I0403 12:38:15.587174  9197 net.cpp:141] Setting up prob
I0403 12:38:15.587200  9197 net.cpp:148] Top shape: 100 38 (3800)
I0403 12:38:15.587214  9197 net.cpp:156] Memory required for data: 831602000
I0403 12:38:15.587229  9197 layer_factory.hpp:77] Creating layer hdf5out
I0403 12:38:15.587249  9197 net.cpp:91] Creating Layer hdf5out
I0403 12:38:15.587265  9197 net.cpp:425] hdf5out <- prob
I0403 12:38:15.587280  9197 net.cpp:425] hdf5out <- label_data_1_split_0
I0403 12:38:15.591266  9197 net.cpp:141] Setting up hdf5out
…
