…
I0403 12:16:25.674290  8670 net.cpp:313] The NetState phase (1) differed from the phase (0) specified by a rule in layer data
I0403 12:16:25.674609  8670 net.cpp:49] Initializing net from parameters: 
state {
  phase: TEST
}
layer {
  name: "data"
  type: "Data"
  top: "data"
  top: "label"
  include {
    phase: TEST
  }
  transform_param {
    crop_size: 227
    mean_file: "/home/mohanty/data/final_dataset/lmdb/segmented-20-80/mean.binaryproto"
  }
  data_param {
    source: "/home/mohanty/data/final_dataset/lmdb/segmented-20-80/test_db"
    batch_size: 100
    backend: LMDB
  }
}
layer {
  name: "conv1"
  type: "Convolution"
  bottom: "data"
  top: "conv1"
  param {
    lr_mult: 1
    decay_mult: 1
  }
  param {
    lr_mult: 2
    decay_mult: 0
  }
  convolution_param {
    num_output: 96
    kernel_size: 11
    stride: 4
    weight_filler {
      type: "gaussian"
      std: 0.01
    }
    bias_filler {
      type: "constant"
      value: 0
    }
  }
}
layer {
  name: "relu1"
  type: "ReLU"
  bottom: "conv1"
  top: "conv1"
}
layer {
  name: "norm1"
  type: "LRN"
  bottom: "conv1"
  top: "norm1"
  lrn_param {
    local_size: 5
    alpha: 0.0001
    beta: 0.75
  }
}
layer {
  name: "pool1"
  type: "Pooling"
  bottom: "norm1"
  top: "pool1"
  pooling_param {
    pool: MAX
    kernel_size: 3
    stride: 2
  }
}
layer {
  name: "conv2"
  type: "Convolution"
  bottom: "pool1"
  top: "conv2"
  param {
    lr_mult: 1
    decay_mult: 1
  }
  param {
    lr_mult: 2
    decay_mult: 0
  }
  convolution_param {
    num_output: 256
    pad: 2
    kernel_size: 5
    group: 2
    weight_filler {
      type: "gaussian"
      std: 0.01
    }
    bias_filler {
      type: "constant"
      value: 0.1
    }
  }
}
layer {
  name: "relu2"
  type: "ReLU"
  bottom: "conv2"
  top: "conv2"
}
layer {
  name: "norm2"
  type: "LRN"
  bottom: "conv2"
  top: "norm2"
  lrn_param {
    local_size: 5
    alpha: 0.0001
    beta: 0.75
  }
}
layer {
  name: "pool2"
  type: "Pooling"
  bottom: "norm2"
  top: "pool2"
  pooling_param {
    pool: MAX
    kernel_size: 3
    stride: 2
  }
}
layer {
  name: "conv3"
  type: "Convolution"
  bottom: "pool2"
  top: "conv3"
  param {
    lr_mult: 1
    decay_mult: 1
  }
  param {
    lr_mult: 2
    decay_mult: 0
  }
  convolution_param {
    num_output: 384
    pad: 1
    kernel_size: 3
    weight_filler {
      type: "gaussian"
      std: 0.01
    }
    bias_filler {
      type: "constant"
      value: 0
    }
  }
}
layer {
  name: "relu3"
  type: "ReLU"
  bottom: "conv3"
  top: "conv3"
}
layer {
  name: "conv4"
  type: "Convolution"
  bottom: "conv3"
  top: "conv4"
  param {
    lr_mult: 1
    decay_mult: 1
  }
  param {
    lr_mult: 2
    decay_mult: 0
  }
  convolution_param {
    num_output: 384
    pad: 1
    kernel_size: 3
    group: 2
    weight_filler {
      type: "gaussian"
      std: 0.01
    }
    bias_filler {
      type: "constant"
      value: 0.1
    }
  }
}
layer {
  name: "relu4"
  type: "ReLU"
  bottom: "conv4"
  top: "conv4"
}
layer {
  name: "conv5"
  type: "Convolution"
  bottom: "conv4"
  top: "conv5"
  param {
    lr_mult: 1
    decay_mult: 1
  }
  param {
    lr_mult: 2
    decay_mult: 0
  }
  convolution_param {
    num_output: 256
    pad: 1
    kernel_size: 3
    group: 2
    weight_filler {
      type: "gaussian"
      std: 0.01
    }
    bias_filler {
      type: "constant"
      value: 0.1
    }
  }
}
layer {
  name: "relu5"
  type: "ReLU"
  bottom: "conv5"
  top: "conv5"
}
layer {
  name: "pool5"
  type: "Pooling"
  bottom: "conv5"
  top: "pool5"
  pooling_param {
    pool: MAX
    kernel_size: 3
    stride: 2
  }
}
layer {
  name: "fc6"
  type: "InnerProduct"
  bottom: "pool5"
  top: "fc6"
  param {
    lr_mult: 1
    decay_mult: 1
  }
  param {
    lr_mult: 2
    decay_mult: 0
  }
  inner_product_param {
    num_output: 4096
    weight_filler {
      type: "gaussian"
      std: 0.005
    }
    bias_filler {
      type: "constant"
      value: 0.1
    }
  }
}
layer {
  name: "relu6"
  type: "ReLU"
  bottom: "fc6"
  top: "fc6"
}
layer {
  name: "drop6"
  type: "Dropout"
  bottom: "fc6"
  top: "fc6"
  dropout_param {
    dropout_ratio: 0.5
  }
}
layer {
  name: "fc7"
  type: "InnerProduct"
  bottom: "fc6"
  top: "fc7"
  param {
    lr_mult: 1
    decay_mult: 1
  }
  param {
    lr_mult: 2
    decay_mult: 0
  }
  inner_product_param {
    num_output: 4096
    weight_filler {
      type: "gaussian"
      std: 0.005
    }
    bias_filler {
      type: "constant"
      value: 0.1
    }
  }
}
layer {
  name: "relu7"
  type: "ReLU"
  bottom: "fc7"
  top: "fc7"
}
layer {
  name: "drop7"
  type: "Dropout"
  bottom: "fc7"
  top: "fc7"
  dropout_param {
    dropout_ratio: 0.5
  }
}
layer {
  name: "fc8_plantvillage"
  type: "InnerProduct"
  bottom: "fc7"
  top: "fc8_plantvillage"
  param {
    lr_mult: 1
    decay_mult: 1
  }
  param {
    lr_mult: 2
    decay_mult: 0
  }
  inner_product_param {
    num_output: 38
    weight_filler {
      type: "gaussian"
      std: 0.01
    }
    bias_filler {
      type: "constant"
      value: 0
    }
  }
}
layer {
  name: "prob"
  type: "Softmax"
  bottom: "fc8_plantvillage"
  top: "prob"
  include {
    phase: TEST
  }
}
layer {
  name: "hdf5out"
  type: "HDF5Output"
  bottom: "prob"
  bottom: "label"
  include {
    phase: TEST
  }
  hdf5_output_param {
    file_name: "hdf5_dumps/iter_1272.h5"
  }
}
layer {
  name: "loss"
  type: "SoftmaxWithLoss"
  bottom: "fc8_plantvillage"
  bottom: "label"
  top: "loss"
}
layer {
  name: "accuracy"
  type: "Accuracy"
  bottom: "fc8_plantvillage"
  bottom: "label"
  top: "accuracy"
  include {
    phase: TEST
  }
}
I0403 12:16:25.675215  8670 layer_factory.hpp:77] Creating layer data
I0403 12:16:25.675880  8670 net.cpp:91] Creating Layer data
I0403 12:16:25.675915  8670 net.cpp:399] data -> data
I0403 12:16:25.675966  8670 net.cpp:399] data -> label
I0403 12:16:25.676003  8670 data_transformer.cpp:25] Loading mean file from: /home/mohanty/data/final_dataset/lmdb/segmented-20-80/mean.binaryproto
I0403 12:16:25.678716  8673 db_lmdb.cpp:38] Opened lmdb /home/mohanty/data/final_dataset/lmdb/segmented-20-80/test_db
I0403 12:16:25.690328  8670 data_layer.cpp:41] output data size: 100,3,227,227
I0403 12:16:25.810008  8670 net.cpp:141] Setting up data
I0403 12:16:25.810101  8670 net.cpp:148] Top shape: 100 3 227 227 (15458700)
I0403 12:16:25.810125  8670 net.cpp:148] Top shape: 100 (100)
I0403 12:16:25.810142  8670 net.cpp:156] Memory required for data: 61835200
I0403 12:16:25.810171  8670 layer_factory.hpp:77] Creating layer label_data_1_split
I0403 12:16:25.810209  8670 net.cpp:91] Creating Layer label_data_1_split
I0403 12:16:25.810226  8670 net.cpp:425] label_data_1_split <- label
I0403 12:16:25.810258  8670 net.cpp:399] label_data_1_split -> label_data_1_split_0
I0403 12:16:25.810286  8670 net.cpp:399] label_data_1_split -> label_data_1_split_1
I0403 12:16:25.810305  8670 net.cpp:399] label_data_1_split -> label_data_1_split_2
I0403 12:16:25.810369  8670 net.cpp:141] Setting up label_data_1_split
I0403 12:16:25.810394  8670 net.cpp:148] Top shape: 100 (100)
I0403 12:16:25.810410  8670 net.cpp:148] Top shape: 100 (100)
I0403 12:16:25.810426  8670 net.cpp:148] Top shape: 100 (100)
I0403 12:16:25.810441  8670 net.cpp:156] Memory required for data: 61836400
I0403 12:16:25.810456  8670 layer_factory.hpp:77] Creating layer conv1
I0403 12:16:25.810487  8670 net.cpp:91] Creating Layer conv1
I0403 12:16:25.810504  8670 net.cpp:425] conv1 <- data
I0403 12:16:25.810525  8670 net.cpp:399] conv1 -> conv1
I0403 12:16:25.948997  8670 net.cpp:141] Setting up conv1
I0403 12:16:25.949072  8670 net.cpp:148] Top shape: 100 96 55 55 (29040000)
I0403 12:16:25.949090  8670 net.cpp:156] Memory required for data: 177996400
I0403 12:16:25.949122  8670 layer_factory.hpp:77] Creating layer relu1
I0403 12:16:25.949151  8670 net.cpp:91] Creating Layer relu1
I0403 12:16:25.949169  8670 net.cpp:425] relu1 <- conv1
I0403 12:16:25.949188  8670 net.cpp:386] relu1 -> conv1 (in-place)
I0403 12:16:25.949445  8670 net.cpp:141] Setting up relu1
I0403 12:16:25.949472  8670 net.cpp:148] Top shape: 100 96 55 55 (29040000)
I0403 12:16:25.949528  8670 net.cpp:156] Memory required for data: 294156400
I0403 12:16:25.949545  8670 layer_factory.hpp:77] Creating layer norm1
I0403 12:16:25.949573  8670 net.cpp:91] Creating Layer norm1
I0403 12:16:25.949590  8670 net.cpp:425] norm1 <- conv1
I0403 12:16:25.949615  8670 net.cpp:399] norm1 -> norm1
I0403 12:16:25.949926  8670 net.cpp:141] Setting up norm1
I0403 12:16:25.949954  8670 net.cpp:148] Top shape: 100 96 55 55 (29040000)
I0403 12:16:25.949971  8670 net.cpp:156] Memory required for data: 410316400
I0403 12:16:25.949995  8670 layer_factory.hpp:77] Creating layer pool1
I0403 12:16:25.950018  8670 net.cpp:91] Creating Layer pool1
I0403 12:16:25.950037  8670 net.cpp:425] pool1 <- norm1
I0403 12:16:25.950055  8670 net.cpp:399] pool1 -> pool1
I0403 12:16:25.950124  8670 net.cpp:141] Setting up pool1
I0403 12:16:25.950148  8670 net.cpp:148] Top shape: 100 96 27 27 (6998400)
I0403 12:16:25.950163  8670 net.cpp:156] Memory required for data: 438310000
I0403 12:16:25.950179  8670 layer_factory.hpp:77] Creating layer conv2
I0403 12:16:25.950204  8670 net.cpp:91] Creating Layer conv2
I0403 12:16:25.950220  8670 net.cpp:425] conv2 <- pool1
I0403 12:16:25.950239  8670 net.cpp:399] conv2 -> conv2
I0403 12:16:25.965371  8670 net.cpp:141] Setting up conv2
I0403 12:16:25.965432  8670 net.cpp:148] Top shape: 100 256 27 27 (18662400)
I0403 12:16:25.965450  8670 net.cpp:156] Memory required for data: 512959600
I0403 12:16:25.965473  8670 layer_factory.hpp:77] Creating layer relu2
I0403 12:16:25.965493  8670 net.cpp:91] Creating Layer relu2
I0403 12:16:25.965510  8670 net.cpp:425] relu2 <- conv2
I0403 12:16:25.965528  8670 net.cpp:386] relu2 -> conv2 (in-place)
I0403 12:16:25.965821  8670 net.cpp:141] Setting up relu2
I0403 12:16:25.965849  8670 net.cpp:148] Top shape: 100 256 27 27 (18662400)
I0403 12:16:25.965867  8670 net.cpp:156] Memory required for data: 587609200
I0403 12:16:25.965883  8670 layer_factory.hpp:77] Creating layer norm2
I0403 12:16:25.965904  8670 net.cpp:91] Creating Layer norm2
I0403 12:16:25.965934  8670 net.cpp:425] norm2 <- conv2
I0403 12:16:25.965951  8670 net.cpp:399] norm2 -> norm2
I0403 12:16:25.966146  8670 net.cpp:141] Setting up norm2
I0403 12:16:25.966171  8670 net.cpp:148] Top shape: 100 256 27 27 (18662400)
I0403 12:16:25.966190  8670 net.cpp:156] Memory required for data: 662258800
I0403 12:16:25.966205  8670 layer_factory.hpp:77] Creating layer pool2
I0403 12:16:25.966224  8670 net.cpp:91] Creating Layer pool2
I0403 12:16:25.966239  8670 net.cpp:425] pool2 <- norm2
I0403 12:16:25.966256  8670 net.cpp:399] pool2 -> pool2
I0403 12:16:25.966310  8670 net.cpp:141] Setting up pool2
I0403 12:16:25.966333  8670 net.cpp:148] Top shape: 100 256 13 13 (4326400)
I0403 12:16:25.966348  8670 net.cpp:156] Memory required for data: 679564400
I0403 12:16:25.966362  8670 layer_factory.hpp:77] Creating layer conv3
I0403 12:16:25.966387  8670 net.cpp:91] Creating Layer conv3
I0403 12:16:25.966403  8670 net.cpp:425] conv3 <- pool2
I0403 12:16:25.966424  8670 net.cpp:399] conv3 -> conv3
I0403 12:16:26.004792  8670 net.cpp:141] Setting up conv3
I0403 12:16:26.004866  8670 net.cpp:148] Top shape: 100 384 13 13 (6489600)
I0403 12:16:26.004884  8670 net.cpp:156] Memory required for data: 705522800
I0403 12:16:26.004910  8670 layer_factory.hpp:77] Creating layer relu3
I0403 12:16:26.004936  8670 net.cpp:91] Creating Layer relu3
I0403 12:16:26.004956  8670 net.cpp:425] relu3 <- conv3
I0403 12:16:26.004974  8670 net.cpp:386] relu3 -> conv3 (in-place)
I0403 12:16:26.005262  8670 net.cpp:141] Setting up relu3
I0403 12:16:26.005290  8670 net.cpp:148] Top shape: 100 384 13 13 (6489600)
I0403 12:16:26.005306  8670 net.cpp:156] Memory required for data: 731481200
I0403 12:16:26.005321  8670 layer_factory.hpp:77] Creating layer conv4
I0403 12:16:26.005348  8670 net.cpp:91] Creating Layer conv4
I0403 12:16:26.005367  8670 net.cpp:425] conv4 <- conv3
I0403 12:16:26.005385  8670 net.cpp:399] conv4 -> conv4
I0403 12:16:26.034997  8670 net.cpp:141] Setting up conv4
I0403 12:16:26.035068  8670 net.cpp:148] Top shape: 100 384 13 13 (6489600)
I0403 12:16:26.035126  8670 net.cpp:156] Memory required for data: 757439600
I0403 12:16:26.035150  8670 layer_factory.hpp:77] Creating layer relu4
I0403 12:16:26.035174  8670 net.cpp:91] Creating Layer relu4
I0403 12:16:26.035193  8670 net.cpp:425] relu4 <- conv4
I0403 12:16:26.035212  8670 net.cpp:386] relu4 -> conv4 (in-place)
I0403 12:16:26.035508  8670 net.cpp:141] Setting up relu4
I0403 12:16:26.035537  8670 net.cpp:148] Top shape: 100 384 13 13 (6489600)
I0403 12:16:26.035552  8670 net.cpp:156] Memory required for data: 783398000
I0403 12:16:26.035567  8670 layer_factory.hpp:77] Creating layer conv5
I0403 12:16:26.035593  8670 net.cpp:91] Creating Layer conv5
I0403 12:16:26.035616  8670 net.cpp:425] conv5 <- conv4
I0403 12:16:26.035639  8670 net.cpp:399] conv5 -> conv5
I0403 12:16:26.056206  8670 net.cpp:141] Setting up conv5
I0403 12:16:26.056258  8670 net.cpp:148] Top shape: 100 256 13 13 (4326400)
I0403 12:16:26.056277  8670 net.cpp:156] Memory required for data: 800703600
I0403 12:16:26.056305  8670 layer_factory.hpp:77] Creating layer relu5
I0403 12:16:26.056327  8670 net.cpp:91] Creating Layer relu5
I0403 12:16:26.056344  8670 net.cpp:425] relu5 <- conv5
I0403 12:16:26.056365  8670 net.cpp:386] relu5 -> conv5 (in-place)
I0403 12:16:26.056663  8670 net.cpp:141] Setting up relu5
I0403 12:16:26.056694  8670 net.cpp:148] Top shape: 100 256 13 13 (4326400)
I0403 12:16:26.056712  8670 net.cpp:156] Memory required for data: 818009200
I0403 12:16:26.056728  8670 layer_factory.hpp:77] Creating layer pool5
I0403 12:16:26.056751  8670 net.cpp:91] Creating Layer pool5
I0403 12:16:26.056768  8670 net.cpp:425] pool5 <- conv5
I0403 12:16:26.056792  8670 net.cpp:399] pool5 -> pool5
I0403 12:16:26.056866  8670 net.cpp:141] Setting up pool5
I0403 12:16:26.056892  8670 net.cpp:148] Top shape: 100 256 6 6 (921600)
I0403 12:16:26.056908  8670 net.cpp:156] Memory required for data: 821695600
I0403 12:16:26.056923  8670 layer_factory.hpp:77] Creating layer fc6
I0403 12:16:26.056952  8670 net.cpp:91] Creating Layer fc6
I0403 12:16:26.056972  8670 net.cpp:425] fc6 <- pool5
I0403 12:16:26.056993  8670 net.cpp:399] fc6 -> fc6
I0403 12:16:27.610373  8670 net.cpp:141] Setting up fc6
I0403 12:16:27.610427  8670 net.cpp:148] Top shape: 100 4096 (409600)
I0403 12:16:27.610445  8670 net.cpp:156] Memory required for data: 823334000
I0403 12:16:27.610478  8670 layer_factory.hpp:77] Creating layer relu6
I0403 12:16:27.610502  8670 net.cpp:91] Creating Layer relu6
I0403 12:16:27.610522  8670 net.cpp:425] relu6 <- fc6
I0403 12:16:27.610543  8670 net.cpp:386] relu6 -> fc6 (in-place)
I0403 12:16:27.610783  8670 net.cpp:141] Setting up relu6
I0403 12:16:27.610810  8670 net.cpp:148] Top shape: 100 4096 (409600)
I0403 12:16:27.610826  8670 net.cpp:156] Memory required for data: 824972400
I0403 12:16:27.610841  8670 layer_factory.hpp:77] Creating layer drop6
I0403 12:16:27.610859  8670 net.cpp:91] Creating Layer drop6
I0403 12:16:27.610874  8670 net.cpp:425] drop6 <- fc6
I0403 12:16:27.610891  8670 net.cpp:386] drop6 -> fc6 (in-place)
I0403 12:16:27.610942  8670 net.cpp:141] Setting up drop6
I0403 12:16:27.610965  8670 net.cpp:148] Top shape: 100 4096 (409600)
I0403 12:16:27.610978  8670 net.cpp:156] Memory required for data: 826610800
I0403 12:16:27.610993  8670 layer_factory.hpp:77] Creating layer fc7
I0403 12:16:27.611016  8670 net.cpp:91] Creating Layer fc7
I0403 12:16:27.611032  8670 net.cpp:425] fc7 <- fc6
I0403 12:16:27.611048  8670 net.cpp:399] fc7 -> fc7
I0403 12:16:28.294200  8670 net.cpp:141] Setting up fc7
I0403 12:16:28.294242  8670 net.cpp:148] Top shape: 100 4096 (409600)
I0403 12:16:28.294260  8670 net.cpp:156] Memory required for data: 828249200
I0403 12:16:28.294281  8670 layer_factory.hpp:77] Creating layer relu7
I0403 12:16:28.294306  8670 net.cpp:91] Creating Layer relu7
I0403 12:16:28.294323  8670 net.cpp:425] relu7 <- fc7
I0403 12:16:28.294343  8670 net.cpp:386] relu7 -> fc7 (in-place)
I0403 12:16:28.294752  8670 net.cpp:141] Setting up relu7
I0403 12:16:28.294780  8670 net.cpp:148] Top shape: 100 4096 (409600)
I0403 12:16:28.294838  8670 net.cpp:156] Memory required for data: 829887600
I0403 12:16:28.294854  8670 layer_factory.hpp:77] Creating layer drop7
I0403 12:16:28.294875  8670 net.cpp:91] Creating Layer drop7
I0403 12:16:28.294893  8670 net.cpp:425] drop7 <- fc7
I0403 12:16:28.294909  8670 net.cpp:386] drop7 -> fc7 (in-place)
I0403 12:16:28.294955  8670 net.cpp:141] Setting up drop7
I0403 12:16:28.294977  8670 net.cpp:148] Top shape: 100 4096 (409600)
I0403 12:16:28.294993  8670 net.cpp:156] Memory required for data: 831526000
I0403 12:16:28.295007  8670 layer_factory.hpp:77] Creating layer fc8_plantvillage
I0403 12:16:28.295027  8670 net.cpp:91] Creating Layer fc8_plantvillage
I0403 12:16:28.295042  8670 net.cpp:425] fc8_plantvillage <- fc7
I0403 12:16:28.295063  8670 net.cpp:399] fc8_plantvillage -> fc8_plantvillage
I0403 12:16:28.301704  8670 net.cpp:141] Setting up fc8_plantvillage
I0403 12:16:28.301734  8670 net.cpp:148] Top shape: 100 38 (3800)
I0403 12:16:28.301753  8670 net.cpp:156] Memory required for data: 831541200
I0403 12:16:28.301771  8670 layer_factory.hpp:77] Creating layer fc8_plantvillage_fc8_plantvillage_0_split
I0403 12:16:28.301790  8670 net.cpp:91] Creating Layer fc8_plantvillage_fc8_plantvillage_0_split
I0403 12:16:28.301805  8670 net.cpp:425] fc8_plantvillage_fc8_plantvillage_0_split <- fc8_plantvillage
I0403 12:16:28.301822  8670 net.cpp:399] fc8_plantvillage_fc8_plantvillage_0_split -> fc8_plantvillage_fc8_plantvillage_0_split_0
I0403 12:16:28.301842  8670 net.cpp:399] fc8_plantvillage_fc8_plantvillage_0_split -> fc8_plantvillage_fc8_plantvillage_0_split_1
I0403 12:16:28.301867  8670 net.cpp:399] fc8_plantvillage_fc8_plantvillage_0_split -> fc8_plantvillage_fc8_plantvillage_0_split_2
I0403 12:16:28.301945  8670 net.cpp:141] Setting up fc8_plantvillage_fc8_plantvillage_0_split
I0403 12:16:28.301970  8670 net.cpp:148] Top shape: 100 38 (3800)
I0403 12:16:28.301985  8670 net.cpp:148] Top shape: 100 38 (3800)
I0403 12:16:28.302000  8670 net.cpp:148] Top shape: 100 38 (3800)
I0403 12:16:28.302014  8670 net.cpp:156] Memory required for data: 831586800
I0403 12:16:28.302040  8670 layer_factory.hpp:77] Creating layer prob
I0403 12:16:28.302058  8670 net.cpp:91] Creating Layer prob
I0403 12:16:28.302073  8670 net.cpp:425] prob <- fc8_plantvillage_fc8_plantvillage_0_split_0
I0403 12:16:28.302091  8670 net.cpp:399] prob -> prob
I0403 12:16:28.302307  8670 net.cpp:141] Setting up prob
I0403 12:16:28.302332  8670 net.cpp:148] Top shape: 100 38 (3800)
I0403 12:16:28.302347  8670 net.cpp:156] Memory required for data: 831602000
I0403 12:16:28.302361  8670 layer_factory.hpp:77] Creating layer hdf5out
I0403 12:16:28.302383  8670 net.cpp:91] Creating Layer hdf5out
I0403 12:16:28.302399  8670 net.cpp:425] hdf5out <- prob
I0403 12:16:28.302414  8670 net.cpp:425] hdf5out <- label_data_1_split_0
I0403 12:16:28.304946  8670 net.cpp:141] Setting up hdf5out
…
