…
I0403 12:25:24.228281  8884 net.cpp:313] The NetState phase (1) differed from the phase (0) specified by a rule in layer data
I0403 12:25:24.228621  8884 net.cpp:49] Initializing net from parameters: 
state {
  phase: TEST
}
layer {
  name: "data"
  type: "Data"
  top: "data"
  top: "label"
  include {
    phase: TEST
  }
  transform_param {
    crop_size: 227
    mean_file: "/home/mohanty/data/final_dataset/lmdb/segmented-20-80/mean.binaryproto"
  }
  data_param {
    source: "/home/mohanty/data/final_dataset/lmdb/segmented-20-80/test_db"
    batch_size: 100
    backend: LMDB
  }
}
layer {
  name: "conv1"
  type: "Convolution"
  bottom: "data"
  top: "conv1"
  param {
    lr_mult: 1
    decay_mult: 1
  }
  param {
    lr_mult: 2
    decay_mult: 0
  }
  convolution_param {
    num_output: 96
    kernel_size: 11
    stride: 4
    weight_filler {
      type: "gaussian"
      std: 0.01
    }
    bias_filler {
      type: "constant"
      value: 0
    }
  }
}
layer {
  name: "relu1"
  type: "ReLU"
  bottom: "conv1"
  top: "conv1"
}
layer {
  name: "norm1"
  type: "LRN"
  bottom: "conv1"
  top: "norm1"
  lrn_param {
    local_size: 5
    alpha: 0.0001
    beta: 0.75
  }
}
layer {
  name: "pool1"
  type: "Pooling"
  bottom: "norm1"
  top: "pool1"
  pooling_param {
    pool: MAX
    kernel_size: 3
    stride: 2
  }
}
layer {
  name: "conv2"
  type: "Convolution"
  bottom: "pool1"
  top: "conv2"
  param {
    lr_mult: 1
    decay_mult: 1
  }
  param {
    lr_mult: 2
    decay_mult: 0
  }
  convolution_param {
    num_output: 256
    pad: 2
    kernel_size: 5
    group: 2
    weight_filler {
      type: "gaussian"
      std: 0.01
    }
    bias_filler {
      type: "constant"
      value: 0.1
    }
  }
}
layer {
  name: "relu2"
  type: "ReLU"
  bottom: "conv2"
  top: "conv2"
}
layer {
  name: "norm2"
  type: "LRN"
  bottom: "conv2"
  top: "norm2"
  lrn_param {
    local_size: 5
    alpha: 0.0001
    beta: 0.75
  }
}
layer {
  name: "pool2"
  type: "Pooling"
  bottom: "norm2"
  top: "pool2"
  pooling_param {
    pool: MAX
    kernel_size: 3
    stride: 2
  }
}
layer {
  name: "conv3"
  type: "Convolution"
  bottom: "pool2"
  top: "conv3"
  param {
    lr_mult: 1
    decay_mult: 1
  }
  param {
    lr_mult: 2
    decay_mult: 0
  }
  convolution_param {
    num_output: 384
    pad: 1
    kernel_size: 3
    weight_filler {
      type: "gaussian"
      std: 0.01
    }
    bias_filler {
      type: "constant"
      value: 0
    }
  }
}
layer {
  name: "relu3"
  type: "ReLU"
  bottom: "conv3"
  top: "conv3"
}
layer {
  name: "conv4"
  type: "Convolution"
  bottom: "conv3"
  top: "conv4"
  param {
    lr_mult: 1
    decay_mult: 1
  }
  param {
    lr_mult: 2
    decay_mult: 0
  }
  convolution_param {
    num_output: 384
    pad: 1
    kernel_size: 3
    group: 2
    weight_filler {
      type: "gaussian"
      std: 0.01
    }
    bias_filler {
      type: "constant"
      value: 0.1
    }
  }
}
layer {
  name: "relu4"
  type: "ReLU"
  bottom: "conv4"
  top: "conv4"
}
layer {
  name: "conv5"
  type: "Convolution"
  bottom: "conv4"
  top: "conv5"
  param {
    lr_mult: 1
    decay_mult: 1
  }
  param {
    lr_mult: 2
    decay_mult: 0
  }
  convolution_param {
    num_output: 256
    pad: 1
    kernel_size: 3
    group: 2
    weight_filler {
      type: "gaussian"
      std: 0.01
    }
    bias_filler {
      type: "constant"
      value: 0.1
    }
  }
}
layer {
  name: "relu5"
  type: "ReLU"
  bottom: "conv5"
  top: "conv5"
}
layer {
  name: "pool5"
  type: "Pooling"
  bottom: "conv5"
  top: "pool5"
  pooling_param {
    pool: MAX
    kernel_size: 3
    stride: 2
  }
}
layer {
  name: "fc6"
  type: "InnerProduct"
  bottom: "pool5"
  top: "fc6"
  param {
    lr_mult: 1
    decay_mult: 1
  }
  param {
    lr_mult: 2
    decay_mult: 0
  }
  inner_product_param {
    num_output: 4096
    weight_filler {
      type: "gaussian"
      std: 0.005
    }
    bias_filler {
      type: "constant"
      value: 0.1
    }
  }
}
layer {
  name: "relu6"
  type: "ReLU"
  bottom: "fc6"
  top: "fc6"
}
layer {
  name: "drop6"
  type: "Dropout"
  bottom: "fc6"
  top: "fc6"
  dropout_param {
    dropout_ratio: 0.5
  }
}
layer {
  name: "fc7"
  type: "InnerProduct"
  bottom: "fc6"
  top: "fc7"
  param {
    lr_mult: 1
    decay_mult: 1
  }
  param {
    lr_mult: 2
    decay_mult: 0
  }
  inner_product_param {
    num_output: 4096
    weight_filler {
      type: "gaussian"
      std: 0.005
    }
    bias_filler {
      type: "constant"
      value: 0.1
    }
  }
}
layer {
  name: "relu7"
  type: "ReLU"
  bottom: "fc7"
  top: "fc7"
}
layer {
  name: "drop7"
  type: "Dropout"
  bottom: "fc7"
  top: "fc7"
  dropout_param {
    dropout_ratio: 0.5
  }
}
layer {
  name: "fc8_plantvillage"
  type: "InnerProduct"
  bottom: "fc7"
  top: "fc8_plantvillage"
  param {
    lr_mult: 1
    decay_mult: 1
  }
  param {
    lr_mult: 2
    decay_mult: 0
  }
  inner_product_param {
    num_output: 38
    weight_filler {
      type: "gaussian"
      std: 0.01
    }
    bias_filler {
      type: "constant"
      value: 0
    }
  }
}
layer {
  name: "prob"
  type: "Softmax"
  bottom: "fc8_plantvillage"
  top: "prob"
  include {
    phase: TEST
  }
}
layer {
  name: "hdf5out"
  type: "HDF5Output"
  bottom: "prob"
  bottom: "label"
  include {
    phase: TEST
  }
  hdf5_output_param {
    file_name: "hdf5_dumps/iter_2014.h5"
  }
}
layer {
  name: "loss"
  type: "SoftmaxWithLoss"
  bottom: "fc8_plantvillage"
  bottom: "label"
  top: "loss"
}
layer {
  name: "accuracy"
  type: "Accuracy"
  bottom: "fc8_plantvillage"
  bottom: "label"
  top: "accuracy"
  include {
    phase: TEST
  }
}
I0403 12:25:24.229156  8884 layer_factory.hpp:77] Creating layer data
I0403 12:25:24.229856  8884 net.cpp:91] Creating Layer data
I0403 12:25:24.229890  8884 net.cpp:399] data -> data
I0403 12:25:24.229941  8884 net.cpp:399] data -> label
I0403 12:25:24.229979  8884 data_transformer.cpp:25] Loading mean file from: /home/mohanty/data/final_dataset/lmdb/segmented-20-80/mean.binaryproto
I0403 12:25:24.233099  8887 db_lmdb.cpp:38] Opened lmdb /home/mohanty/data/final_dataset/lmdb/segmented-20-80/test_db
I0403 12:25:24.245373  8884 data_layer.cpp:41] output data size: 100,3,227,227
I0403 12:25:24.363683  8884 net.cpp:141] Setting up data
I0403 12:25:24.363755  8884 net.cpp:148] Top shape: 100 3 227 227 (15458700)
I0403 12:25:24.363780  8884 net.cpp:148] Top shape: 100 (100)
I0403 12:25:24.363803  8884 net.cpp:156] Memory required for data: 61835200
I0403 12:25:24.363831  8884 layer_factory.hpp:77] Creating layer label_data_1_split
I0403 12:25:24.363857  8884 net.cpp:91] Creating Layer label_data_1_split
I0403 12:25:24.363876  8884 net.cpp:425] label_data_1_split <- label
I0403 12:25:24.363908  8884 net.cpp:399] label_data_1_split -> label_data_1_split_0
I0403 12:25:24.363934  8884 net.cpp:399] label_data_1_split -> label_data_1_split_1
I0403 12:25:24.363955  8884 net.cpp:399] label_data_1_split -> label_data_1_split_2
I0403 12:25:24.364017  8884 net.cpp:141] Setting up label_data_1_split
I0403 12:25:24.364040  8884 net.cpp:148] Top shape: 100 (100)
I0403 12:25:24.364056  8884 net.cpp:148] Top shape: 100 (100)
I0403 12:25:24.364073  8884 net.cpp:148] Top shape: 100 (100)
I0403 12:25:24.364087  8884 net.cpp:156] Memory required for data: 61836400
I0403 12:25:24.364102  8884 layer_factory.hpp:77] Creating layer conv1
I0403 12:25:24.364133  8884 net.cpp:91] Creating Layer conv1
I0403 12:25:24.364151  8884 net.cpp:425] conv1 <- data
I0403 12:25:24.364169  8884 net.cpp:399] conv1 -> conv1
I0403 12:25:24.608189  8884 net.cpp:141] Setting up conv1
I0403 12:25:24.608268  8884 net.cpp:148] Top shape: 100 96 55 55 (29040000)
I0403 12:25:24.608286  8884 net.cpp:156] Memory required for data: 177996400
I0403 12:25:24.608319  8884 layer_factory.hpp:77] Creating layer relu1
I0403 12:25:24.608348  8884 net.cpp:91] Creating Layer relu1
I0403 12:25:24.608368  8884 net.cpp:425] relu1 <- conv1
I0403 12:25:24.608387  8884 net.cpp:386] relu1 -> conv1 (in-place)
I0403 12:25:24.608665  8884 net.cpp:141] Setting up relu1
I0403 12:25:24.608693  8884 net.cpp:148] Top shape: 100 96 55 55 (29040000)
I0403 12:25:24.608747  8884 net.cpp:156] Memory required for data: 294156400
I0403 12:25:24.608764  8884 layer_factory.hpp:77] Creating layer norm1
I0403 12:25:24.608794  8884 net.cpp:91] Creating Layer norm1
I0403 12:25:24.608814  8884 net.cpp:425] norm1 <- conv1
I0403 12:25:24.608834  8884 net.cpp:399] norm1 -> norm1
I0403 12:25:24.609175  8884 net.cpp:141] Setting up norm1
I0403 12:25:24.609206  8884 net.cpp:148] Top shape: 100 96 55 55 (29040000)
I0403 12:25:24.609223  8884 net.cpp:156] Memory required for data: 410316400
I0403 12:25:24.609241  8884 layer_factory.hpp:77] Creating layer pool1
I0403 12:25:24.609266  8884 net.cpp:91] Creating Layer pool1
I0403 12:25:24.609284  8884 net.cpp:425] pool1 <- norm1
I0403 12:25:24.609307  8884 net.cpp:399] pool1 -> pool1
I0403 12:25:24.609379  8884 net.cpp:141] Setting up pool1
I0403 12:25:24.609405  8884 net.cpp:148] Top shape: 100 96 27 27 (6998400)
I0403 12:25:24.609443  8884 net.cpp:156] Memory required for data: 438310000
I0403 12:25:24.609467  8884 layer_factory.hpp:77] Creating layer conv2
I0403 12:25:24.609493  8884 net.cpp:91] Creating Layer conv2
I0403 12:25:24.609509  8884 net.cpp:425] conv2 <- pool1
I0403 12:25:24.609529  8884 net.cpp:399] conv2 -> conv2
I0403 12:25:24.624768  8884 net.cpp:141] Setting up conv2
I0403 12:25:24.624825  8884 net.cpp:148] Top shape: 100 256 27 27 (18662400)
I0403 12:25:24.624842  8884 net.cpp:156] Memory required for data: 512959600
I0403 12:25:24.624866  8884 layer_factory.hpp:77] Creating layer relu2
I0403 12:25:24.624887  8884 net.cpp:91] Creating Layer relu2
I0403 12:25:24.624905  8884 net.cpp:425] relu2 <- conv2
I0403 12:25:24.624927  8884 net.cpp:386] relu2 -> conv2 (in-place)
I0403 12:25:24.625211  8884 net.cpp:141] Setting up relu2
I0403 12:25:24.625237  8884 net.cpp:148] Top shape: 100 256 27 27 (18662400)
I0403 12:25:24.625308  8884 net.cpp:156] Memory required for data: 587609200
I0403 12:25:24.625329  8884 layer_factory.hpp:77] Creating layer norm2
I0403 12:25:24.625354  8884 net.cpp:91] Creating Layer norm2
I0403 12:25:24.625371  8884 net.cpp:425] norm2 <- conv2
I0403 12:25:24.625390  8884 net.cpp:399] norm2 -> norm2
I0403 12:25:24.625597  8884 net.cpp:141] Setting up norm2
I0403 12:25:24.625624  8884 net.cpp:148] Top shape: 100 256 27 27 (18662400)
I0403 12:25:24.625640  8884 net.cpp:156] Memory required for data: 662258800
I0403 12:25:24.625654  8884 layer_factory.hpp:77] Creating layer pool2
I0403 12:25:24.625674  8884 net.cpp:91] Creating Layer pool2
I0403 12:25:24.625689  8884 net.cpp:425] pool2 <- norm2
I0403 12:25:24.625707  8884 net.cpp:399] pool2 -> pool2
I0403 12:25:24.625761  8884 net.cpp:141] Setting up pool2
I0403 12:25:24.625782  8884 net.cpp:148] Top shape: 100 256 13 13 (4326400)
I0403 12:25:24.625797  8884 net.cpp:156] Memory required for data: 679564400
I0403 12:25:24.625811  8884 layer_factory.hpp:77] Creating layer conv3
I0403 12:25:24.625838  8884 net.cpp:91] Creating Layer conv3
I0403 12:25:24.625855  8884 net.cpp:425] conv3 <- pool2
I0403 12:25:24.625874  8884 net.cpp:399] conv3 -> conv3
I0403 12:25:24.665484  8884 net.cpp:141] Setting up conv3
I0403 12:25:24.665560  8884 net.cpp:148] Top shape: 100 384 13 13 (6489600)
I0403 12:25:24.665581  8884 net.cpp:156] Memory required for data: 705522800
I0403 12:25:24.665609  8884 layer_factory.hpp:77] Creating layer relu3
I0403 12:25:24.665632  8884 net.cpp:91] Creating Layer relu3
I0403 12:25:24.665662  8884 net.cpp:425] relu3 <- conv3
I0403 12:25:24.665683  8884 net.cpp:386] relu3 -> conv3 (in-place)
I0403 12:25:24.665983  8884 net.cpp:141] Setting up relu3
I0403 12:25:24.666013  8884 net.cpp:148] Top shape: 100 384 13 13 (6489600)
I0403 12:25:24.666028  8884 net.cpp:156] Memory required for data: 731481200
I0403 12:25:24.666043  8884 layer_factory.hpp:77] Creating layer conv4
I0403 12:25:24.666069  8884 net.cpp:91] Creating Layer conv4
I0403 12:25:24.666086  8884 net.cpp:425] conv4 <- conv3
I0403 12:25:24.666107  8884 net.cpp:399] conv4 -> conv4
I0403 12:25:24.696537  8884 net.cpp:141] Setting up conv4
I0403 12:25:24.696610  8884 net.cpp:148] Top shape: 100 384 13 13 (6489600)
I0403 12:25:24.696665  8884 net.cpp:156] Memory required for data: 757439600
I0403 12:25:24.696687  8884 layer_factory.hpp:77] Creating layer relu4
I0403 12:25:24.696712  8884 net.cpp:91] Creating Layer relu4
I0403 12:25:24.696732  8884 net.cpp:425] relu4 <- conv4
I0403 12:25:24.696751  8884 net.cpp:386] relu4 -> conv4 (in-place)
I0403 12:25:24.697037  8884 net.cpp:141] Setting up relu4
I0403 12:25:24.697064  8884 net.cpp:148] Top shape: 100 384 13 13 (6489600)
I0403 12:25:24.697080  8884 net.cpp:156] Memory required for data: 783398000
I0403 12:25:24.697095  8884 layer_factory.hpp:77] Creating layer conv5
I0403 12:25:24.697124  8884 net.cpp:91] Creating Layer conv5
I0403 12:25:24.697144  8884 net.cpp:425] conv5 <- conv4
I0403 12:25:24.697162  8884 net.cpp:399] conv5 -> conv5
I0403 12:25:24.717787  8884 net.cpp:141] Setting up conv5
I0403 12:25:24.717826  8884 net.cpp:148] Top shape: 100 256 13 13 (4326400)
I0403 12:25:24.717844  8884 net.cpp:156] Memory required for data: 800703600
I0403 12:25:24.717870  8884 layer_factory.hpp:77] Creating layer relu5
I0403 12:25:24.717892  8884 net.cpp:91] Creating Layer relu5
I0403 12:25:24.717911  8884 net.cpp:425] relu5 <- conv5
I0403 12:25:24.717931  8884 net.cpp:386] relu5 -> conv5 (in-place)
I0403 12:25:24.718206  8884 net.cpp:141] Setting up relu5
I0403 12:25:24.718235  8884 net.cpp:148] Top shape: 100 256 13 13 (4326400)
I0403 12:25:24.718250  8884 net.cpp:156] Memory required for data: 818009200
I0403 12:25:24.718266  8884 layer_factory.hpp:77] Creating layer pool5
I0403 12:25:24.718288  8884 net.cpp:91] Creating Layer pool5
I0403 12:25:24.718303  8884 net.cpp:425] pool5 <- conv5
I0403 12:25:24.718325  8884 net.cpp:399] pool5 -> pool5
I0403 12:25:24.718386  8884 net.cpp:141] Setting up pool5
I0403 12:25:24.718411  8884 net.cpp:148] Top shape: 100 256 6 6 (921600)
I0403 12:25:24.718426  8884 net.cpp:156] Memory required for data: 821695600
I0403 12:25:24.718452  8884 layer_factory.hpp:77] Creating layer fc6
I0403 12:25:24.718483  8884 net.cpp:91] Creating Layer fc6
I0403 12:25:24.718504  8884 net.cpp:425] fc6 <- pool5
I0403 12:25:24.718539  8884 net.cpp:399] fc6 -> fc6
I0403 12:25:26.297971  8884 net.cpp:141] Setting up fc6
I0403 12:25:26.298038  8884 net.cpp:148] Top shape: 100 4096 (409600)
I0403 12:25:26.298053  8884 net.cpp:156] Memory required for data: 823334000
I0403 12:25:26.298074  8884 layer_factory.hpp:77] Creating layer relu6
I0403 12:25:26.298096  8884 net.cpp:91] Creating Layer relu6
I0403 12:25:26.298115  8884 net.cpp:425] relu6 <- fc6
I0403 12:25:26.298132  8884 net.cpp:386] relu6 -> fc6 (in-place)
I0403 12:25:26.298364  8884 net.cpp:141] Setting up relu6
I0403 12:25:26.298388  8884 net.cpp:148] Top shape: 100 4096 (409600)
I0403 12:25:26.298403  8884 net.cpp:156] Memory required for data: 824972400
I0403 12:25:26.298416  8884 layer_factory.hpp:77] Creating layer drop6
I0403 12:25:26.298434  8884 net.cpp:91] Creating Layer drop6
I0403 12:25:26.298449  8884 net.cpp:425] drop6 <- fc6
I0403 12:25:26.298467  8884 net.cpp:386] drop6 -> fc6 (in-place)
I0403 12:25:26.298517  8884 net.cpp:141] Setting up drop6
I0403 12:25:26.298539  8884 net.cpp:148] Top shape: 100 4096 (409600)
I0403 12:25:26.298553  8884 net.cpp:156] Memory required for data: 826610800
I0403 12:25:26.298578  8884 layer_factory.hpp:77] Creating layer fc7
I0403 12:25:26.298599  8884 net.cpp:91] Creating Layer fc7
I0403 12:25:26.298614  8884 net.cpp:425] fc7 <- fc6
I0403 12:25:26.298634  8884 net.cpp:399] fc7 -> fc7
I0403 12:25:28.952008  8884 net.cpp:141] Setting up fc7
I0403 12:25:28.952093  8884 net.cpp:148] Top shape: 100 4096 (409600)
I0403 12:25:28.952110  8884 net.cpp:156] Memory required for data: 828249200
I0403 12:25:28.952131  8884 layer_factory.hpp:77] Creating layer relu7
I0403 12:25:28.952152  8884 net.cpp:91] Creating Layer relu7
I0403 12:25:28.952170  8884 net.cpp:425] relu7 <- fc7
I0403 12:25:28.952193  8884 net.cpp:386] relu7 -> fc7 (in-place)
I0403 12:25:28.952607  8884 net.cpp:141] Setting up relu7
I0403 12:25:28.952636  8884 net.cpp:148] Top shape: 100 4096 (409600)
I0403 12:25:28.952692  8884 net.cpp:156] Memory required for data: 829887600
I0403 12:25:28.952708  8884 layer_factory.hpp:77] Creating layer drop7
I0403 12:25:28.952728  8884 net.cpp:91] Creating Layer drop7
I0403 12:25:28.952744  8884 net.cpp:425] drop7 <- fc7
I0403 12:25:28.952762  8884 net.cpp:386] drop7 -> fc7 (in-place)
I0403 12:25:28.952806  8884 net.cpp:141] Setting up drop7
I0403 12:25:28.952829  8884 net.cpp:148] Top shape: 100 4096 (409600)
I0403 12:25:28.952842  8884 net.cpp:156] Memory required for data: 831526000
I0403 12:25:28.952857  8884 layer_factory.hpp:77] Creating layer fc8_plantvillage
I0403 12:25:28.952879  8884 net.cpp:91] Creating Layer fc8_plantvillage
I0403 12:25:28.952894  8884 net.cpp:425] fc8_plantvillage <- fc7
I0403 12:25:28.952914  8884 net.cpp:399] fc8_plantvillage -> fc8_plantvillage
I0403 12:25:28.959626  8884 net.cpp:141] Setting up fc8_plantvillage
I0403 12:25:28.959657  8884 net.cpp:148] Top shape: 100 38 (3800)
I0403 12:25:28.959674  8884 net.cpp:156] Memory required for data: 831541200
I0403 12:25:28.959692  8884 layer_factory.hpp:77] Creating layer fc8_plantvillage_fc8_plantvillage_0_split
I0403 12:25:28.959712  8884 net.cpp:91] Creating Layer fc8_plantvillage_fc8_plantvillage_0_split
I0403 12:25:28.959727  8884 net.cpp:425] fc8_plantvillage_fc8_plantvillage_0_split <- fc8_plantvillage
I0403 12:25:28.959746  8884 net.cpp:399] fc8_plantvillage_fc8_plantvillage_0_split -> fc8_plantvillage_fc8_plantvillage_0_split_0
I0403 12:25:28.959767  8884 net.cpp:399] fc8_plantvillage_fc8_plantvillage_0_split -> fc8_plantvillage_fc8_plantvillage_0_split_1
I0403 12:25:28.959787  8884 net.cpp:399] fc8_plantvillage_fc8_plantvillage_0_split -> fc8_plantvillage_fc8_plantvillage_0_split_2
I0403 12:25:28.959864  8884 net.cpp:141] Setting up fc8_plantvillage_fc8_plantvillage_0_split
I0403 12:25:28.959888  8884 net.cpp:148] Top shape: 100 38 (3800)
I0403 12:25:28.959903  8884 net.cpp:148] Top shape: 100 38 (3800)
I0403 12:25:28.959918  8884 net.cpp:148] Top shape: 100 38 (3800)
I0403 12:25:28.959933  8884 net.cpp:156] Memory required for data: 831586800
I0403 12:25:28.959947  8884 layer_factory.hpp:77] Creating layer prob
I0403 12:25:28.959965  8884 net.cpp:91] Creating Layer prob
I0403 12:25:28.959981  8884 net.cpp:425] prob <- fc8_plantvillage_fc8_plantvillage_0_split_0
I0403 12:25:28.960001  8884 net.cpp:399] prob -> prob
I0403 12:25:28.960232  8884 net.cpp:141] Setting up prob
I0403 12:25:28.960259  8884 net.cpp:148] Top shape: 100 38 (3800)
I0403 12:25:28.960275  8884 net.cpp:156] Memory required for data: 831602000
I0403 12:25:28.960289  8884 layer_factory.hpp:77] Creating layer hdf5out
I0403 12:25:28.960309  8884 net.cpp:91] Creating Layer hdf5out
I0403 12:25:28.960324  8884 net.cpp:425] hdf5out <- prob
I0403 12:25:28.960340  8884 net.cpp:425] hdf5out <- label_data_1_split_0
I0403 12:25:28.962926  8884 net.cpp:141] Setting up hdf5out
…
