…
I0403 12:40:46.866596  9266 net.cpp:313] The NetState phase (1) differed from the phase (0) specified by a rule in layer data
I0403 12:40:46.866920  9266 net.cpp:49] Initializing net from parameters: 
state {
  phase: TEST
}
layer {
  name: "data"
  type: "Data"
  top: "data"
  top: "label"
  include {
    phase: TEST
  }
  transform_param {
    crop_size: 227
    mean_file: "/home/mohanty/data/final_dataset/lmdb/segmented-20-80/mean.binaryproto"
  }
  data_param {
    source: "/home/mohanty/data/final_dataset/lmdb/segmented-20-80/test_db"
    batch_size: 100
    backend: LMDB
  }
}
layer {
  name: "conv1"
  type: "Convolution"
  bottom: "data"
  top: "conv1"
  param {
    lr_mult: 1
    decay_mult: 1
  }
  param {
    lr_mult: 2
    decay_mult: 0
  }
  convolution_param {
    num_output: 96
    kernel_size: 11
    stride: 4
    weight_filler {
      type: "gaussian"
      std: 0.01
    }
    bias_filler {
      type: "constant"
      value: 0
    }
  }
}
layer {
  name: "relu1"
  type: "ReLU"
  bottom: "conv1"
  top: "conv1"
}
layer {
  name: "norm1"
  type: "LRN"
  bottom: "conv1"
  top: "norm1"
  lrn_param {
    local_size: 5
    alpha: 0.0001
    beta: 0.75
  }
}
layer {
  name: "pool1"
  type: "Pooling"
  bottom: "norm1"
  top: "pool1"
  pooling_param {
    pool: MAX
    kernel_size: 3
    stride: 2
  }
}
layer {
  name: "conv2"
  type: "Convolution"
  bottom: "pool1"
  top: "conv2"
  param {
    lr_mult: 1
    decay_mult: 1
  }
  param {
    lr_mult: 2
    decay_mult: 0
  }
  convolution_param {
    num_output: 256
    pad: 2
    kernel_size: 5
    group: 2
    weight_filler {
      type: "gaussian"
      std: 0.01
    }
    bias_filler {
      type: "constant"
      value: 0.1
    }
  }
}
layer {
  name: "relu2"
  type: "ReLU"
  bottom: "conv2"
  top: "conv2"
}
layer {
  name: "norm2"
  type: "LRN"
  bottom: "conv2"
  top: "norm2"
  lrn_param {
    local_size: 5
    alpha: 0.0001
    beta: 0.75
  }
}
layer {
  name: "pool2"
  type: "Pooling"
  bottom: "norm2"
  top: "pool2"
  pooling_param {
    pool: MAX
    kernel_size: 3
    stride: 2
  }
}
layer {
  name: "conv3"
  type: "Convolution"
  bottom: "pool2"
  top: "conv3"
  param {
    lr_mult: 1
    decay_mult: 1
  }
  param {
    lr_mult: 2
    decay_mult: 0
  }
  convolution_param {
    num_output: 384
    pad: 1
    kernel_size: 3
    weight_filler {
      type: "gaussian"
      std: 0.01
    }
    bias_filler {
      type: "constant"
      value: 0
    }
  }
}
layer {
  name: "relu3"
  type: "ReLU"
  bottom: "conv3"
  top: "conv3"
}
layer {
  name: "conv4"
  type: "Convolution"
  bottom: "conv3"
  top: "conv4"
  param {
    lr_mult: 1
    decay_mult: 1
  }
  param {
    lr_mult: 2
    decay_mult: 0
  }
  convolution_param {
    num_output: 384
    pad: 1
    kernel_size: 3
    group: 2
    weight_filler {
      type: "gaussian"
      std: 0.01
    }
    bias_filler {
      type: "constant"
      value: 0.1
    }
  }
}
layer {
  name: "relu4"
  type: "ReLU"
  bottom: "conv4"
  top: "conv4"
}
layer {
  name: "conv5"
  type: "Convolution"
  bottom: "conv4"
  top: "conv5"
  param {
    lr_mult: 1
    decay_mult: 1
  }
  param {
    lr_mult: 2
    decay_mult: 0
  }
  convolution_param {
    num_output: 256
    pad: 1
    kernel_size: 3
    group: 2
    weight_filler {
      type: "gaussian"
      std: 0.01
    }
    bias_filler {
      type: "constant"
      value: 0.1
    }
  }
}
layer {
  name: "relu5"
  type: "ReLU"
  bottom: "conv5"
  top: "conv5"
}
layer {
  name: "pool5"
  type: "Pooling"
  bottom: "conv5"
  top: "pool5"
  pooling_param {
    pool: MAX
    kernel_size: 3
    stride: 2
  }
}
layer {
  name: "fc6"
  type: "InnerProduct"
  bottom: "pool5"
  top: "fc6"
  param {
    lr_mult: 1
    decay_mult: 1
  }
  param {
    lr_mult: 2
    decay_mult: 0
  }
  inner_product_param {
    num_output: 4096
    weight_filler {
      type: "gaussian"
      std: 0.005
    }
    bias_filler {
      type: "constant"
      value: 0.1
    }
  }
}
layer {
  name: "relu6"
  type: "ReLU"
  bottom: "fc6"
  top: "fc6"
}
layer {
  name: "drop6"
  type: "Dropout"
  bottom: "fc6"
  top: "fc6"
  dropout_param {
    dropout_ratio: 0.5
  }
}
layer {
  name: "fc7"
  type: "InnerProduct"
  bottom: "fc6"
  top: "fc7"
  param {
    lr_mult: 1
    decay_mult: 1
  }
  param {
    lr_mult: 2
    decay_mult: 0
  }
  inner_product_param {
    num_output: 4096
    weight_filler {
      type: "gaussian"
      std: 0.005
    }
    bias_filler {
      type: "constant"
      value: 0.1
    }
  }
}
layer {
  name: "relu7"
  type: "ReLU"
  bottom: "fc7"
  top: "fc7"
}
layer {
  name: "drop7"
  type: "Dropout"
  bottom: "fc7"
  top: "fc7"
  dropout_param {
    dropout_ratio: 0.5
  }
}
layer {
  name: "fc8_plantvillage"
  type: "InnerProduct"
  bottom: "fc7"
  top: "fc8_plantvillage"
  param {
    lr_mult: 1
    decay_mult: 1
  }
  param {
    lr_mult: 2
    decay_mult: 0
  }
  inner_product_param {
    num_output: 38
    weight_filler {
      type: "gaussian"
      std: 0.01
    }
    bias_filler {
      type: "constant"
      value: 0
    }
  }
}
layer {
  name: "prob"
  type: "Softmax"
  bottom: "fc8_plantvillage"
  top: "prob"
  include {
    phase: TEST
  }
}
layer {
  name: "hdf5out"
  type: "HDF5Output"
  bottom: "prob"
  bottom: "label"
  include {
    phase: TEST
  }
  hdf5_output_param {
    file_name: "hdf5_dumps/iter_3199.h5"
  }
}
layer {
  name: "loss"
  type: "SoftmaxWithLoss"
  bottom: "fc8_plantvillage"
  bottom: "label"
  top: "loss"
}
layer {
  name: "accuracy"
  type: "Accuracy"
  bottom: "fc8_plantvillage"
  bottom: "label"
  top: "accuracy"
  include {
    phase: TEST
  }
}
I0403 12:40:46.867508  9266 layer_factory.hpp:77] Creating layer data
I0403 12:40:46.868182  9266 net.cpp:91] Creating Layer data
I0403 12:40:46.868216  9266 net.cpp:399] data -> data
I0403 12:40:46.868264  9266 net.cpp:399] data -> label
I0403 12:40:46.868300  9266 data_transformer.cpp:25] Loading mean file from: /home/mohanty/data/final_dataset/lmdb/segmented-20-80/mean.binaryproto
I0403 12:40:46.871348  9271 db_lmdb.cpp:38] Opened lmdb /home/mohanty/data/final_dataset/lmdb/segmented-20-80/test_db
I0403 12:40:46.883002  9266 data_layer.cpp:41] output data size: 100,3,227,227
I0403 12:40:47.004174  9266 net.cpp:141] Setting up data
I0403 12:40:47.004235  9266 net.cpp:148] Top shape: 100 3 227 227 (15458700)
I0403 12:40:47.004258  9266 net.cpp:148] Top shape: 100 (100)
I0403 12:40:47.004273  9266 net.cpp:156] Memory required for data: 61835200
I0403 12:40:47.004302  9266 layer_factory.hpp:77] Creating layer label_data_1_split
I0403 12:40:47.004326  9266 net.cpp:91] Creating Layer label_data_1_split
I0403 12:40:47.004343  9266 net.cpp:425] label_data_1_split <- label
I0403 12:40:47.004384  9266 net.cpp:399] label_data_1_split -> label_data_1_split_0
I0403 12:40:47.004410  9266 net.cpp:399] label_data_1_split -> label_data_1_split_1
I0403 12:40:47.004431  9266 net.cpp:399] label_data_1_split -> label_data_1_split_2
I0403 12:40:47.004492  9266 net.cpp:141] Setting up label_data_1_split
I0403 12:40:47.004515  9266 net.cpp:148] Top shape: 100 (100)
I0403 12:40:47.004533  9266 net.cpp:148] Top shape: 100 (100)
I0403 12:40:47.004549  9266 net.cpp:148] Top shape: 100 (100)
I0403 12:40:47.004564  9266 net.cpp:156] Memory required for data: 61836400
I0403 12:40:47.004578  9266 layer_factory.hpp:77] Creating layer conv1
I0403 12:40:47.004618  9266 net.cpp:91] Creating Layer conv1
I0403 12:40:47.004639  9266 net.cpp:425] conv1 <- data
I0403 12:40:47.004667  9266 net.cpp:399] conv1 -> conv1
I0403 12:40:47.147629  9266 net.cpp:141] Setting up conv1
I0403 12:40:47.147706  9266 net.cpp:148] Top shape: 100 96 55 55 (29040000)
I0403 12:40:47.147724  9266 net.cpp:156] Memory required for data: 177996400
I0403 12:40:47.147756  9266 layer_factory.hpp:77] Creating layer relu1
I0403 12:40:47.147784  9266 net.cpp:91] Creating Layer relu1
I0403 12:40:47.147804  9266 net.cpp:425] relu1 <- conv1
I0403 12:40:47.147824  9266 net.cpp:386] relu1 -> conv1 (in-place)
I0403 12:40:47.148082  9266 net.cpp:141] Setting up relu1
I0403 12:40:47.148109  9266 net.cpp:148] Top shape: 100 96 55 55 (29040000)
I0403 12:40:47.148159  9266 net.cpp:156] Memory required for data: 294156400
I0403 12:40:47.148176  9266 layer_factory.hpp:77] Creating layer norm1
I0403 12:40:47.148203  9266 net.cpp:91] Creating Layer norm1
I0403 12:40:47.148221  9266 net.cpp:425] norm1 <- conv1
I0403 12:40:47.148241  9266 net.cpp:399] norm1 -> norm1
I0403 12:40:47.148558  9266 net.cpp:141] Setting up norm1
I0403 12:40:47.148587  9266 net.cpp:148] Top shape: 100 96 55 55 (29040000)
I0403 12:40:47.148609  9266 net.cpp:156] Memory required for data: 410316400
I0403 12:40:47.148627  9266 layer_factory.hpp:77] Creating layer pool1
I0403 12:40:47.148650  9266 net.cpp:91] Creating Layer pool1
I0403 12:40:47.148669  9266 net.cpp:425] pool1 <- norm1
I0403 12:40:47.148686  9266 net.cpp:399] pool1 -> pool1
I0403 12:40:47.148756  9266 net.cpp:141] Setting up pool1
I0403 12:40:47.148780  9266 net.cpp:148] Top shape: 100 96 27 27 (6998400)
I0403 12:40:47.148797  9266 net.cpp:156] Memory required for data: 438310000
I0403 12:40:47.148823  9266 layer_factory.hpp:77] Creating layer conv2
I0403 12:40:47.148849  9266 net.cpp:91] Creating Layer conv2
I0403 12:40:47.148866  9266 net.cpp:425] conv2 <- pool1
I0403 12:40:47.148885  9266 net.cpp:399] conv2 -> conv2
I0403 12:40:47.164091  9266 net.cpp:141] Setting up conv2
I0403 12:40:47.164130  9266 net.cpp:148] Top shape: 100 256 27 27 (18662400)
I0403 12:40:47.164147  9266 net.cpp:156] Memory required for data: 512959600
I0403 12:40:47.164170  9266 layer_factory.hpp:77] Creating layer relu2
I0403 12:40:47.164191  9266 net.cpp:91] Creating Layer relu2
I0403 12:40:47.164208  9266 net.cpp:425] relu2 <- conv2
I0403 12:40:47.164227  9266 net.cpp:386] relu2 -> conv2 (in-place)
I0403 12:40:47.164496  9266 net.cpp:141] Setting up relu2
I0403 12:40:47.164525  9266 net.cpp:148] Top shape: 100 256 27 27 (18662400)
I0403 12:40:47.164541  9266 net.cpp:156] Memory required for data: 587609200
I0403 12:40:47.164556  9266 layer_factory.hpp:77] Creating layer norm2
I0403 12:40:47.164577  9266 net.cpp:91] Creating Layer norm2
I0403 12:40:47.164594  9266 net.cpp:425] norm2 <- conv2
I0403 12:40:47.164626  9266 net.cpp:399] norm2 -> norm2
I0403 12:40:47.164813  9266 net.cpp:141] Setting up norm2
I0403 12:40:47.164839  9266 net.cpp:148] Top shape: 100 256 27 27 (18662400)
I0403 12:40:47.164854  9266 net.cpp:156] Memory required for data: 662258800
I0403 12:40:47.164868  9266 layer_factory.hpp:77] Creating layer pool2
I0403 12:40:47.164888  9266 net.cpp:91] Creating Layer pool2
I0403 12:40:47.164903  9266 net.cpp:425] pool2 <- norm2
I0403 12:40:47.164922  9266 net.cpp:399] pool2 -> pool2
I0403 12:40:47.164973  9266 net.cpp:141] Setting up pool2
I0403 12:40:47.164996  9266 net.cpp:148] Top shape: 100 256 13 13 (4326400)
I0403 12:40:47.165011  9266 net.cpp:156] Memory required for data: 679564400
I0403 12:40:47.165025  9266 layer_factory.hpp:77] Creating layer conv3
I0403 12:40:47.165047  9266 net.cpp:91] Creating Layer conv3
I0403 12:40:47.165065  9266 net.cpp:425] conv3 <- pool2
I0403 12:40:47.165082  9266 net.cpp:399] conv3 -> conv3
I0403 12:40:47.204012  9266 net.cpp:141] Setting up conv3
I0403 12:40:47.204090  9266 net.cpp:148] Top shape: 100 384 13 13 (6489600)
I0403 12:40:47.204107  9266 net.cpp:156] Memory required for data: 705522800
I0403 12:40:47.204133  9266 layer_factory.hpp:77] Creating layer relu3
I0403 12:40:47.204156  9266 net.cpp:91] Creating Layer relu3
I0403 12:40:47.204174  9266 net.cpp:425] relu3 <- conv3
I0403 12:40:47.204192  9266 net.cpp:386] relu3 -> conv3 (in-place)
I0403 12:40:47.204468  9266 net.cpp:141] Setting up relu3
I0403 12:40:47.204495  9266 net.cpp:148] Top shape: 100 384 13 13 (6489600)
I0403 12:40:47.204511  9266 net.cpp:156] Memory required for data: 731481200
I0403 12:40:47.204526  9266 layer_factory.hpp:77] Creating layer conv4
I0403 12:40:47.204550  9266 net.cpp:91] Creating Layer conv4
I0403 12:40:47.204567  9266 net.cpp:425] conv4 <- conv3
I0403 12:40:47.204587  9266 net.cpp:399] conv4 -> conv4
I0403 12:40:47.234621  9266 net.cpp:141] Setting up conv4
I0403 12:40:47.234689  9266 net.cpp:148] Top shape: 100 384 13 13 (6489600)
I0403 12:40:47.234742  9266 net.cpp:156] Memory required for data: 757439600
I0403 12:40:47.234765  9266 layer_factory.hpp:77] Creating layer relu4
I0403 12:40:47.234786  9266 net.cpp:91] Creating Layer relu4
I0403 12:40:47.234803  9266 net.cpp:425] relu4 <- conv4
I0403 12:40:47.234825  9266 net.cpp:386] relu4 -> conv4 (in-place)
I0403 12:40:47.235112  9266 net.cpp:141] Setting up relu4
I0403 12:40:47.235141  9266 net.cpp:148] Top shape: 100 384 13 13 (6489600)
I0403 12:40:47.235157  9266 net.cpp:156] Memory required for data: 783398000
I0403 12:40:47.235172  9266 layer_factory.hpp:77] Creating layer conv5
I0403 12:40:47.235198  9266 net.cpp:91] Creating Layer conv5
I0403 12:40:47.235214  9266 net.cpp:425] conv5 <- conv4
I0403 12:40:47.235236  9266 net.cpp:399] conv5 -> conv5
I0403 12:40:47.256317  9266 net.cpp:141] Setting up conv5
I0403 12:40:47.256378  9266 net.cpp:148] Top shape: 100 256 13 13 (4326400)
I0403 12:40:47.256399  9266 net.cpp:156] Memory required for data: 800703600
I0403 12:40:47.256425  9266 layer_factory.hpp:77] Creating layer relu5
I0403 12:40:47.256448  9266 net.cpp:91] Creating Layer relu5
I0403 12:40:47.256489  9266 net.cpp:425] relu5 <- conv5
I0403 12:40:47.256516  9266 net.cpp:386] relu5 -> conv5 (in-place)
I0403 12:40:47.256806  9266 net.cpp:141] Setting up relu5
I0403 12:40:47.256834  9266 net.cpp:148] Top shape: 100 256 13 13 (4326400)
I0403 12:40:47.256850  9266 net.cpp:156] Memory required for data: 818009200
I0403 12:40:47.256865  9266 layer_factory.hpp:77] Creating layer pool5
I0403 12:40:47.256888  9266 net.cpp:91] Creating Layer pool5
I0403 12:40:47.256906  9266 net.cpp:425] pool5 <- conv5
I0403 12:40:47.256924  9266 net.cpp:399] pool5 -> pool5
I0403 12:40:47.256986  9266 net.cpp:141] Setting up pool5
I0403 12:40:47.257009  9266 net.cpp:148] Top shape: 100 256 6 6 (921600)
I0403 12:40:47.257025  9266 net.cpp:156] Memory required for data: 821695600
I0403 12:40:47.257040  9266 layer_factory.hpp:77] Creating layer fc6
I0403 12:40:47.257066  9266 net.cpp:91] Creating Layer fc6
I0403 12:40:47.257084  9266 net.cpp:425] fc6 <- pool5
I0403 12:40:47.257105  9266 net.cpp:399] fc6 -> fc6
I0403 12:40:48.831743  9266 net.cpp:141] Setting up fc6
I0403 12:40:48.831814  9266 net.cpp:148] Top shape: 100 4096 (409600)
I0403 12:40:48.831830  9266 net.cpp:156] Memory required for data: 823334000
I0403 12:40:48.831851  9266 layer_factory.hpp:77] Creating layer relu6
I0403 12:40:48.831872  9266 net.cpp:91] Creating Layer relu6
I0403 12:40:48.831889  9266 net.cpp:425] relu6 <- fc6
I0403 12:40:48.831909  9266 net.cpp:386] relu6 -> fc6 (in-place)
I0403 12:40:48.832135  9266 net.cpp:141] Setting up relu6
I0403 12:40:48.832160  9266 net.cpp:148] Top shape: 100 4096 (409600)
I0403 12:40:48.832175  9266 net.cpp:156] Memory required for data: 824972400
I0403 12:40:48.832190  9266 layer_factory.hpp:77] Creating layer drop6
I0403 12:40:48.832208  9266 net.cpp:91] Creating Layer drop6
I0403 12:40:48.832223  9266 net.cpp:425] drop6 <- fc6
I0403 12:40:48.832254  9266 net.cpp:386] drop6 -> fc6 (in-place)
I0403 12:40:48.832306  9266 net.cpp:141] Setting up drop6
I0403 12:40:48.832334  9266 net.cpp:148] Top shape: 100 4096 (409600)
I0403 12:40:48.832350  9266 net.cpp:156] Memory required for data: 826610800
I0403 12:40:48.832365  9266 layer_factory.hpp:77] Creating layer fc7
I0403 12:40:48.832386  9266 net.cpp:91] Creating Layer fc7
I0403 12:40:48.832401  9266 net.cpp:425] fc7 <- fc6
I0403 12:40:48.832422  9266 net.cpp:399] fc7 -> fc7
I0403 12:40:49.548959  9266 net.cpp:141] Setting up fc7
I0403 12:40:49.549007  9266 net.cpp:148] Top shape: 100 4096 (409600)
I0403 12:40:49.549023  9266 net.cpp:156] Memory required for data: 828249200
I0403 12:40:49.549057  9266 layer_factory.hpp:77] Creating layer relu7
I0403 12:40:49.549080  9266 net.cpp:91] Creating Layer relu7
I0403 12:40:49.549098  9266 net.cpp:425] relu7 <- fc7
I0403 12:40:49.549119  9266 net.cpp:386] relu7 -> fc7 (in-place)
I0403 12:40:49.549532  9266 net.cpp:141] Setting up relu7
I0403 12:40:49.549561  9266 net.cpp:148] Top shape: 100 4096 (409600)
I0403 12:40:49.549623  9266 net.cpp:156] Memory required for data: 829887600
I0403 12:40:49.549640  9266 layer_factory.hpp:77] Creating layer drop7
I0403 12:40:49.549659  9266 net.cpp:91] Creating Layer drop7
I0403 12:40:49.549676  9266 net.cpp:425] drop7 <- fc7
I0403 12:40:49.549697  9266 net.cpp:386] drop7 -> fc7 (in-place)
I0403 12:40:49.549741  9266 net.cpp:141] Setting up drop7
I0403 12:40:49.549767  9266 net.cpp:148] Top shape: 100 4096 (409600)
I0403 12:40:49.549782  9266 net.cpp:156] Memory required for data: 831526000
I0403 12:40:49.549796  9266 layer_factory.hpp:77] Creating layer fc8_plantvillage
I0403 12:40:49.549816  9266 net.cpp:91] Creating Layer fc8_plantvillage
I0403 12:40:49.549832  9266 net.cpp:425] fc8_plantvillage <- fc7
I0403 12:40:49.549852  9266 net.cpp:399] fc8_plantvillage -> fc8_plantvillage
I0403 12:40:49.556893  9266 net.cpp:141] Setting up fc8_plantvillage
I0403 12:40:49.556923  9266 net.cpp:148] Top shape: 100 38 (3800)
I0403 12:40:49.556938  9266 net.cpp:156] Memory required for data: 831541200
I0403 12:40:49.556957  9266 layer_factory.hpp:77] Creating layer fc8_plantvillage_fc8_plantvillage_0_split
I0403 12:40:49.556975  9266 net.cpp:91] Creating Layer fc8_plantvillage_fc8_plantvillage_0_split
I0403 12:40:49.556994  9266 net.cpp:425] fc8_plantvillage_fc8_plantvillage_0_split <- fc8_plantvillage
I0403 12:40:49.557011  9266 net.cpp:399] fc8_plantvillage_fc8_plantvillage_0_split -> fc8_plantvillage_fc8_plantvillage_0_split_0
I0403 12:40:49.557032  9266 net.cpp:399] fc8_plantvillage_fc8_plantvillage_0_split -> fc8_plantvillage_fc8_plantvillage_0_split_1
I0403 12:40:49.557051  9266 net.cpp:399] fc8_plantvillage_fc8_plantvillage_0_split -> fc8_plantvillage_fc8_plantvillage_0_split_2
I0403 12:40:49.557129  9266 net.cpp:141] Setting up fc8_plantvillage_fc8_plantvillage_0_split
I0403 12:40:49.557155  9266 net.cpp:148] Top shape: 100 38 (3800)
I0403 12:40:49.557173  9266 net.cpp:148] Top shape: 100 38 (3800)
I0403 12:40:49.557188  9266 net.cpp:148] Top shape: 100 38 (3800)
I0403 12:40:49.557202  9266 net.cpp:156] Memory required for data: 831586800
I0403 12:40:49.557216  9266 layer_factory.hpp:77] Creating layer prob
I0403 12:40:49.557235  9266 net.cpp:91] Creating Layer prob
I0403 12:40:49.557250  9266 net.cpp:425] prob <- fc8_plantvillage_fc8_plantvillage_0_split_0
I0403 12:40:49.557281  9266 net.cpp:399] prob -> prob
I0403 12:40:49.557518  9266 net.cpp:141] Setting up prob
I0403 12:40:49.557545  9266 net.cpp:148] Top shape: 100 38 (3800)
I0403 12:40:49.557574  9266 net.cpp:156] Memory required for data: 831602000
I0403 12:40:49.557588  9266 layer_factory.hpp:77] Creating layer hdf5out
I0403 12:40:49.557611  9266 net.cpp:91] Creating Layer hdf5out
I0403 12:40:49.557628  9266 net.cpp:425] hdf5out <- prob
I0403 12:40:49.557646  9266 net.cpp:425] hdf5out <- label_data_1_split_0
I0403 12:40:49.560169  9266 net.cpp:141] Setting up hdf5out
…
