…
I0403 12:36:56.803411  9173 net.cpp:313] The NetState phase (1) differed from the phase (0) specified by a rule in layer data
I0403 12:36:56.803725  9173 net.cpp:49] Initializing net from parameters: 
state {
  phase: TEST
}
layer {
  name: "data"
  type: "Data"
  top: "data"
  top: "label"
  include {
    phase: TEST
  }
  transform_param {
    crop_size: 227
    mean_file: "/home/mohanty/data/final_dataset/lmdb/segmented-20-80/mean.binaryproto"
  }
  data_param {
    source: "/home/mohanty/data/final_dataset/lmdb/segmented-20-80/test_db"
    batch_size: 100
    backend: LMDB
  }
}
layer {
  name: "conv1"
  type: "Convolution"
  bottom: "data"
  top: "conv1"
  param {
    lr_mult: 1
    decay_mult: 1
  }
  param {
    lr_mult: 2
    decay_mult: 0
  }
  convolution_param {
    num_output: 96
    kernel_size: 11
    stride: 4
    weight_filler {
      type: "gaussian"
      std: 0.01
    }
    bias_filler {
      type: "constant"
      value: 0
    }
  }
}
layer {
  name: "relu1"
  type: "ReLU"
  bottom: "conv1"
  top: "conv1"
}
layer {
  name: "norm1"
  type: "LRN"
  bottom: "conv1"
  top: "norm1"
  lrn_param {
    local_size: 5
    alpha: 0.0001
    beta: 0.75
  }
}
layer {
  name: "pool1"
  type: "Pooling"
  bottom: "norm1"
  top: "pool1"
  pooling_param {
    pool: MAX
    kernel_size: 3
    stride: 2
  }
}
layer {
  name: "conv2"
  type: "Convolution"
  bottom: "pool1"
  top: "conv2"
  param {
    lr_mult: 1
    decay_mult: 1
  }
  param {
    lr_mult: 2
    decay_mult: 0
  }
  convolution_param {
    num_output: 256
    pad: 2
    kernel_size: 5
    group: 2
    weight_filler {
      type: "gaussian"
      std: 0.01
    }
    bias_filler {
      type: "constant"
      value: 0.1
    }
  }
}
layer {
  name: "relu2"
  type: "ReLU"
  bottom: "conv2"
  top: "conv2"
}
layer {
  name: "norm2"
  type: "LRN"
  bottom: "conv2"
  top: "norm2"
  lrn_param {
    local_size: 5
    alpha: 0.0001
    beta: 0.75
  }
}
layer {
  name: "pool2"
  type: "Pooling"
  bottom: "norm2"
  top: "pool2"
  pooling_param {
    pool: MAX
    kernel_size: 3
    stride: 2
  }
}
layer {
  name: "conv3"
  type: "Convolution"
  bottom: "pool2"
  top: "conv3"
  param {
    lr_mult: 1
    decay_mult: 1
  }
  param {
    lr_mult: 2
    decay_mult: 0
  }
  convolution_param {
    num_output: 384
    pad: 1
    kernel_size: 3
    weight_filler {
      type: "gaussian"
      std: 0.01
    }
    bias_filler {
      type: "constant"
      value: 0
    }
  }
}
layer {
  name: "relu3"
  type: "ReLU"
  bottom: "conv3"
  top: "conv3"
}
layer {
  name: "conv4"
  type: "Convolution"
  bottom: "conv3"
  top: "conv4"
  param {
    lr_mult: 1
    decay_mult: 1
  }
  param {
    lr_mult: 2
    decay_mult: 0
  }
  convolution_param {
    num_output: 384
    pad: 1
    kernel_size: 3
    group: 2
    weight_filler {
      type: "gaussian"
      std: 0.01
    }
    bias_filler {
      type: "constant"
      value: 0.1
    }
  }
}
layer {
  name: "relu4"
  type: "ReLU"
  bottom: "conv4"
  top: "conv4"
}
layer {
  name: "conv5"
  type: "Convolution"
  bottom: "conv4"
  top: "conv5"
  param {
    lr_mult: 1
    decay_mult: 1
  }
  param {
    lr_mult: 2
    decay_mult: 0
  }
  convolution_param {
    num_output: 256
    pad: 1
    kernel_size: 3
    group: 2
    weight_filler {
      type: "gaussian"
      std: 0.01
    }
    bias_filler {
      type: "constant"
      value: 0.1
    }
  }
}
layer {
  name: "relu5"
  type: "ReLU"
  bottom: "conv5"
  top: "conv5"
}
layer {
  name: "pool5"
  type: "Pooling"
  bottom: "conv5"
  top: "pool5"
  pooling_param {
    pool: MAX
    kernel_size: 3
    stride: 2
  }
}
layer {
  name: "fc6"
  type: "InnerProduct"
  bottom: "pool5"
  top: "fc6"
  param {
    lr_mult: 1
    decay_mult: 1
  }
  param {
    lr_mult: 2
    decay_mult: 0
  }
  inner_product_param {
    num_output: 4096
    weight_filler {
      type: "gaussian"
      std: 0.005
    }
    bias_filler {
      type: "constant"
      value: 0.1
    }
  }
}
layer {
  name: "relu6"
  type: "ReLU"
  bottom: "fc6"
  top: "fc6"
}
layer {
  name: "drop6"
  type: "Dropout"
  bottom: "fc6"
  top: "fc6"
  dropout_param {
    dropout_ratio: 0.5
  }
}
layer {
  name: "fc7"
  type: "InnerProduct"
  bottom: "fc6"
  top: "fc7"
  param {
    lr_mult: 1
    decay_mult: 1
  }
  param {
    lr_mult: 2
    decay_mult: 0
  }
  inner_product_param {
    num_output: 4096
    weight_filler {
      type: "gaussian"
      std: 0.005
    }
    bias_filler {
      type: "constant"
      value: 0.1
    }
  }
}
layer {
  name: "relu7"
  type: "ReLU"
  bottom: "fc7"
  top: "fc7"
}
layer {
  name: "drop7"
  type: "Dropout"
  bottom: "fc7"
  top: "fc7"
  dropout_param {
    dropout_ratio: 0.5
  }
}
layer {
  name: "fc8_plantvillage"
  type: "InnerProduct"
  bottom: "fc7"
  top: "fc8_plantvillage"
  param {
    lr_mult: 1
    decay_mult: 1
  }
  param {
    lr_mult: 2
    decay_mult: 0
  }
  inner_product_param {
    num_output: 38
    weight_filler {
      type: "gaussian"
      std: 0.01
    }
    bias_filler {
      type: "constant"
      value: 0
    }
  }
}
layer {
  name: "prob"
  type: "Softmax"
  bottom: "fc8_plantvillage"
  top: "prob"
  include {
    phase: TEST
  }
}
layer {
  name: "hdf5out"
  type: "HDF5Output"
  bottom: "prob"
  bottom: "label"
  include {
    phase: TEST
  }
  hdf5_output_param {
    file_name: "hdf5_dumps/iter_2968.h5"
  }
}
layer {
  name: "loss"
  type: "SoftmaxWithLoss"
  bottom: "fc8_plantvillage"
  bottom: "label"
  top: "loss"
}
layer {
  name: "accuracy"
  type: "Accuracy"
  bottom: "fc8_plantvillage"
  bottom: "label"
  top: "accuracy"
  include {
    phase: TEST
  }
}
I0403 12:36:56.804354  9173 layer_factory.hpp:77] Creating layer data
I0403 12:36:56.805008  9173 net.cpp:91] Creating Layer data
I0403 12:36:56.805042  9173 net.cpp:399] data -> data
I0403 12:36:56.805093  9173 net.cpp:399] data -> label
I0403 12:36:56.805129  9173 data_transformer.cpp:25] Loading mean file from: /home/mohanty/data/final_dataset/lmdb/segmented-20-80/mean.binaryproto
I0403 12:36:56.808329  9176 db_lmdb.cpp:38] Opened lmdb /home/mohanty/data/final_dataset/lmdb/segmented-20-80/test_db
I0403 12:36:56.819352  9173 data_layer.cpp:41] output data size: 100,3,227,227
I0403 12:36:56.940181  9173 net.cpp:141] Setting up data
I0403 12:36:56.940243  9173 net.cpp:148] Top shape: 100 3 227 227 (15458700)
I0403 12:36:56.940263  9173 net.cpp:148] Top shape: 100 (100)
I0403 12:36:56.940279  9173 net.cpp:156] Memory required for data: 61835200
I0403 12:36:56.940306  9173 layer_factory.hpp:77] Creating layer label_data_1_split
I0403 12:36:56.940330  9173 net.cpp:91] Creating Layer label_data_1_split
I0403 12:36:56.940348  9173 net.cpp:425] label_data_1_split <- label
I0403 12:36:56.940381  9173 net.cpp:399] label_data_1_split -> label_data_1_split_0
I0403 12:36:56.940407  9173 net.cpp:399] label_data_1_split -> label_data_1_split_1
I0403 12:36:56.940425  9173 net.cpp:399] label_data_1_split -> label_data_1_split_2
I0403 12:36:56.940487  9173 net.cpp:141] Setting up label_data_1_split
I0403 12:36:56.940510  9173 net.cpp:148] Top shape: 100 (100)
I0403 12:36:56.940526  9173 net.cpp:148] Top shape: 100 (100)
I0403 12:36:56.940541  9173 net.cpp:148] Top shape: 100 (100)
I0403 12:36:56.940556  9173 net.cpp:156] Memory required for data: 61836400
I0403 12:36:56.940569  9173 layer_factory.hpp:77] Creating layer conv1
I0403 12:36:56.940604  9173 net.cpp:91] Creating Layer conv1
I0403 12:36:56.940623  9173 net.cpp:425] conv1 <- data
I0403 12:36:56.940642  9173 net.cpp:399] conv1 -> conv1
I0403 12:36:57.080991  9173 net.cpp:141] Setting up conv1
I0403 12:36:57.081053  9173 net.cpp:148] Top shape: 100 96 55 55 (29040000)
I0403 12:36:57.081070  9173 net.cpp:156] Memory required for data: 177996400
I0403 12:36:57.081104  9173 layer_factory.hpp:77] Creating layer relu1
I0403 12:36:57.081130  9173 net.cpp:91] Creating Layer relu1
I0403 12:36:57.081149  9173 net.cpp:425] relu1 <- conv1
I0403 12:36:57.081168  9173 net.cpp:386] relu1 -> conv1 (in-place)
I0403 12:36:57.081428  9173 net.cpp:141] Setting up relu1
I0403 12:36:57.081455  9173 net.cpp:148] Top shape: 100 96 55 55 (29040000)
I0403 12:36:57.081512  9173 net.cpp:156] Memory required for data: 294156400
I0403 12:36:57.081529  9173 layer_factory.hpp:77] Creating layer norm1
I0403 12:36:57.081557  9173 net.cpp:91] Creating Layer norm1
I0403 12:36:57.081574  9173 net.cpp:425] norm1 <- conv1
I0403 12:36:57.081593  9173 net.cpp:399] norm1 -> norm1
I0403 12:36:57.081926  9173 net.cpp:141] Setting up norm1
I0403 12:36:57.081955  9173 net.cpp:148] Top shape: 100 96 55 55 (29040000)
I0403 12:36:57.081971  9173 net.cpp:156] Memory required for data: 410316400
I0403 12:36:57.081986  9173 layer_factory.hpp:77] Creating layer pool1
I0403 12:36:57.082010  9173 net.cpp:91] Creating Layer pool1
I0403 12:36:57.082026  9173 net.cpp:425] pool1 <- norm1
I0403 12:36:57.082044  9173 net.cpp:399] pool1 -> pool1
I0403 12:36:57.082111  9173 net.cpp:141] Setting up pool1
I0403 12:36:57.082136  9173 net.cpp:148] Top shape: 100 96 27 27 (6998400)
I0403 12:36:57.082150  9173 net.cpp:156] Memory required for data: 438310000
I0403 12:36:57.082166  9173 layer_factory.hpp:77] Creating layer conv2
I0403 12:36:57.082190  9173 net.cpp:91] Creating Layer conv2
I0403 12:36:57.082206  9173 net.cpp:425] conv2 <- pool1
I0403 12:36:57.082223  9173 net.cpp:399] conv2 -> conv2
I0403 12:36:57.097311  9173 net.cpp:141] Setting up conv2
I0403 12:36:57.097347  9173 net.cpp:148] Top shape: 100 256 27 27 (18662400)
I0403 12:36:57.097363  9173 net.cpp:156] Memory required for data: 512959600
I0403 12:36:57.097388  9173 layer_factory.hpp:77] Creating layer relu2
I0403 12:36:57.097412  9173 net.cpp:91] Creating Layer relu2
I0403 12:36:57.097431  9173 net.cpp:425] relu2 <- conv2
I0403 12:36:57.097450  9173 net.cpp:386] relu2 -> conv2 (in-place)
I0403 12:36:57.097738  9173 net.cpp:141] Setting up relu2
I0403 12:36:57.097766  9173 net.cpp:148] Top shape: 100 256 27 27 (18662400)
I0403 12:36:57.097781  9173 net.cpp:156] Memory required for data: 587609200
I0403 12:36:57.097797  9173 layer_factory.hpp:77] Creating layer norm2
I0403 12:36:57.097832  9173 net.cpp:91] Creating Layer norm2
I0403 12:36:57.097849  9173 net.cpp:425] norm2 <- conv2
I0403 12:36:57.097869  9173 net.cpp:399] norm2 -> norm2
I0403 12:36:57.098080  9173 net.cpp:141] Setting up norm2
I0403 12:36:57.098107  9173 net.cpp:148] Top shape: 100 256 27 27 (18662400)
I0403 12:36:57.098124  9173 net.cpp:156] Memory required for data: 662258800
I0403 12:36:57.098139  9173 layer_factory.hpp:77] Creating layer pool2
I0403 12:36:57.098156  9173 net.cpp:91] Creating Layer pool2
I0403 12:36:57.098172  9173 net.cpp:425] pool2 <- norm2
I0403 12:36:57.098227  9173 net.cpp:399] pool2 -> pool2
I0403 12:36:57.098299  9173 net.cpp:141] Setting up pool2
I0403 12:36:57.098322  9173 net.cpp:148] Top shape: 100 256 13 13 (4326400)
I0403 12:36:57.098336  9173 net.cpp:156] Memory required for data: 679564400
I0403 12:36:57.098351  9173 layer_factory.hpp:77] Creating layer conv3
I0403 12:36:57.098376  9173 net.cpp:91] Creating Layer conv3
I0403 12:36:57.098392  9173 net.cpp:425] conv3 <- pool2
I0403 12:36:57.098413  9173 net.cpp:399] conv3 -> conv3
I0403 12:36:57.137127  9173 net.cpp:141] Setting up conv3
I0403 12:36:57.137204  9173 net.cpp:148] Top shape: 100 384 13 13 (6489600)
I0403 12:36:57.137222  9173 net.cpp:156] Memory required for data: 705522800
I0403 12:36:57.137248  9173 layer_factory.hpp:77] Creating layer relu3
I0403 12:36:57.137271  9173 net.cpp:91] Creating Layer relu3
I0403 12:36:57.137289  9173 net.cpp:425] relu3 <- conv3
I0403 12:36:57.137310  9173 net.cpp:386] relu3 -> conv3 (in-place)
I0403 12:36:57.137588  9173 net.cpp:141] Setting up relu3
I0403 12:36:57.137619  9173 net.cpp:148] Top shape: 100 384 13 13 (6489600)
I0403 12:36:57.137636  9173 net.cpp:156] Memory required for data: 731481200
I0403 12:36:57.137652  9173 layer_factory.hpp:77] Creating layer conv4
I0403 12:36:57.137678  9173 net.cpp:91] Creating Layer conv4
I0403 12:36:57.137696  9173 net.cpp:425] conv4 <- conv3
I0403 12:36:57.137717  9173 net.cpp:399] conv4 -> conv4
I0403 12:36:57.167945  9173 net.cpp:141] Setting up conv4
I0403 12:36:57.168017  9173 net.cpp:148] Top shape: 100 384 13 13 (6489600)
I0403 12:36:57.168076  9173 net.cpp:156] Memory required for data: 757439600
I0403 12:36:57.168098  9173 layer_factory.hpp:77] Creating layer relu4
I0403 12:36:57.168122  9173 net.cpp:91] Creating Layer relu4
I0403 12:36:57.168139  9173 net.cpp:425] relu4 <- conv4
I0403 12:36:57.168160  9173 net.cpp:386] relu4 -> conv4 (in-place)
I0403 12:36:57.168442  9173 net.cpp:141] Setting up relu4
I0403 12:36:57.168469  9173 net.cpp:148] Top shape: 100 384 13 13 (6489600)
I0403 12:36:57.168485  9173 net.cpp:156] Memory required for data: 783398000
I0403 12:36:57.168500  9173 layer_factory.hpp:77] Creating layer conv5
I0403 12:36:57.168527  9173 net.cpp:91] Creating Layer conv5
I0403 12:36:57.168545  9173 net.cpp:425] conv5 <- conv4
I0403 12:36:57.168566  9173 net.cpp:399] conv5 -> conv5
I0403 12:36:57.189465  9173 net.cpp:141] Setting up conv5
I0403 12:36:57.189519  9173 net.cpp:148] Top shape: 100 256 13 13 (4326400)
I0403 12:36:57.189537  9173 net.cpp:156] Memory required for data: 800703600
I0403 12:36:57.189561  9173 layer_factory.hpp:77] Creating layer relu5
I0403 12:36:57.189584  9173 net.cpp:91] Creating Layer relu5
I0403 12:36:57.189606  9173 net.cpp:425] relu5 <- conv5
I0403 12:36:57.189626  9173 net.cpp:386] relu5 -> conv5 (in-place)
I0403 12:36:57.189931  9173 net.cpp:141] Setting up relu5
I0403 12:36:57.189960  9173 net.cpp:148] Top shape: 100 256 13 13 (4326400)
I0403 12:36:57.189975  9173 net.cpp:156] Memory required for data: 818009200
I0403 12:36:57.189990  9173 layer_factory.hpp:77] Creating layer pool5
I0403 12:36:57.190014  9173 net.cpp:91] Creating Layer pool5
I0403 12:36:57.190032  9173 net.cpp:425] pool5 <- conv5
I0403 12:36:57.190050  9173 net.cpp:399] pool5 -> pool5
I0403 12:36:57.190110  9173 net.cpp:141] Setting up pool5
I0403 12:36:57.190135  9173 net.cpp:148] Top shape: 100 256 6 6 (921600)
I0403 12:36:57.190150  9173 net.cpp:156] Memory required for data: 821695600
I0403 12:36:57.190165  9173 layer_factory.hpp:77] Creating layer fc6
I0403 12:36:57.190192  9173 net.cpp:91] Creating Layer fc6
I0403 12:36:57.190209  9173 net.cpp:425] fc6 <- pool5
I0403 12:36:57.190230  9173 net.cpp:399] fc6 -> fc6
I0403 12:36:58.739231  9173 net.cpp:141] Setting up fc6
I0403 12:36:58.739279  9173 net.cpp:148] Top shape: 100 4096 (409600)
I0403 12:36:58.739295  9173 net.cpp:156] Memory required for data: 823334000
I0403 12:36:58.739316  9173 layer_factory.hpp:77] Creating layer relu6
I0403 12:36:58.739338  9173 net.cpp:91] Creating Layer relu6
I0403 12:36:58.739356  9173 net.cpp:425] relu6 <- fc6
I0403 12:36:58.739375  9173 net.cpp:386] relu6 -> fc6 (in-place)
I0403 12:36:58.739604  9173 net.cpp:141] Setting up relu6
I0403 12:36:58.739630  9173 net.cpp:148] Top shape: 100 4096 (409600)
I0403 12:36:58.739645  9173 net.cpp:156] Memory required for data: 824972400
I0403 12:36:58.739660  9173 layer_factory.hpp:77] Creating layer drop6
I0403 12:36:58.739678  9173 net.cpp:91] Creating Layer drop6
I0403 12:36:58.739693  9173 net.cpp:425] drop6 <- fc6
I0403 12:36:58.739712  9173 net.cpp:386] drop6 -> fc6 (in-place)
I0403 12:36:58.739763  9173 net.cpp:141] Setting up drop6
I0403 12:36:58.739789  9173 net.cpp:148] Top shape: 100 4096 (409600)
I0403 12:36:58.739804  9173 net.cpp:156] Memory required for data: 826610800
I0403 12:36:58.739820  9173 layer_factory.hpp:77] Creating layer fc7
I0403 12:36:58.739838  9173 net.cpp:91] Creating Layer fc7
I0403 12:36:58.739855  9173 net.cpp:425] fc7 <- fc6
I0403 12:36:58.739876  9173 net.cpp:399] fc7 -> fc7
I0403 12:36:59.423039  9173 net.cpp:141] Setting up fc7
I0403 12:36:59.423080  9173 net.cpp:148] Top shape: 100 4096 (409600)
I0403 12:36:59.423096  9173 net.cpp:156] Memory required for data: 828249200
I0403 12:36:59.423117  9173 layer_factory.hpp:77] Creating layer relu7
I0403 12:36:59.423140  9173 net.cpp:91] Creating Layer relu7
I0403 12:36:59.423156  9173 net.cpp:425] relu7 <- fc7
I0403 12:36:59.423177  9173 net.cpp:386] relu7 -> fc7 (in-place)
I0403 12:36:59.423585  9173 net.cpp:141] Setting up relu7
I0403 12:36:59.423616  9173 net.cpp:148] Top shape: 100 4096 (409600)
I0403 12:36:59.423673  9173 net.cpp:156] Memory required for data: 829887600
I0403 12:36:59.423689  9173 layer_factory.hpp:77] Creating layer drop7
I0403 12:36:59.423708  9173 net.cpp:91] Creating Layer drop7
I0403 12:36:59.423724  9173 net.cpp:425] drop7 <- fc7
I0403 12:36:59.423745  9173 net.cpp:386] drop7 -> fc7 (in-place)
I0403 12:36:59.423790  9173 net.cpp:141] Setting up drop7
I0403 12:36:59.423815  9173 net.cpp:148] Top shape: 100 4096 (409600)
I0403 12:36:59.423831  9173 net.cpp:156] Memory required for data: 831526000
I0403 12:36:59.423846  9173 layer_factory.hpp:77] Creating layer fc8_plantvillage
I0403 12:36:59.423864  9173 net.cpp:91] Creating Layer fc8_plantvillage
I0403 12:36:59.423880  9173 net.cpp:425] fc8_plantvillage <- fc7
I0403 12:36:59.423902  9173 net.cpp:399] fc8_plantvillage -> fc8_plantvillage
I0403 12:36:59.430594  9173 net.cpp:141] Setting up fc8_plantvillage
I0403 12:36:59.430626  9173 net.cpp:148] Top shape: 100 38 (3800)
I0403 12:36:59.430642  9173 net.cpp:156] Memory required for data: 831541200
I0403 12:36:59.430660  9173 layer_factory.hpp:77] Creating layer fc8_plantvillage_fc8_plantvillage_0_split
I0403 12:36:59.430680  9173 net.cpp:91] Creating Layer fc8_plantvillage_fc8_plantvillage_0_split
I0403 12:36:59.430696  9173 net.cpp:425] fc8_plantvillage_fc8_plantvillage_0_split <- fc8_plantvillage
I0403 12:36:59.430713  9173 net.cpp:399] fc8_plantvillage_fc8_plantvillage_0_split -> fc8_plantvillage_fc8_plantvillage_0_split_0
I0403 12:36:59.430733  9173 net.cpp:399] fc8_plantvillage_fc8_plantvillage_0_split -> fc8_plantvillage_fc8_plantvillage_0_split_1
I0403 12:36:59.430752  9173 net.cpp:399] fc8_plantvillage_fc8_plantvillage_0_split -> fc8_plantvillage_fc8_plantvillage_0_split_2
I0403 12:36:59.430830  9173 net.cpp:141] Setting up fc8_plantvillage_fc8_plantvillage_0_split
I0403 12:36:59.430853  9173 net.cpp:148] Top shape: 100 38 (3800)
I0403 12:36:59.430869  9173 net.cpp:148] Top shape: 100 38 (3800)
I0403 12:36:59.430884  9173 net.cpp:148] Top shape: 100 38 (3800)
I0403 12:36:59.430909  9173 net.cpp:156] Memory required for data: 831586800
I0403 12:36:59.430923  9173 layer_factory.hpp:77] Creating layer prob
I0403 12:36:59.430940  9173 net.cpp:91] Creating Layer prob
I0403 12:36:59.430956  9173 net.cpp:425] prob <- fc8_plantvillage_fc8_plantvillage_0_split_0
I0403 12:36:59.430975  9173 net.cpp:399] prob -> prob
I0403 12:36:59.431191  9173 net.cpp:141] Setting up prob
I0403 12:36:59.431216  9173 net.cpp:148] Top shape: 100 38 (3800)
I0403 12:36:59.431231  9173 net.cpp:156] Memory required for data: 831602000
I0403 12:36:59.431244  9173 layer_factory.hpp:77] Creating layer hdf5out
I0403 12:36:59.431263  9173 net.cpp:91] Creating Layer hdf5out
I0403 12:36:59.431278  9173 net.cpp:425] hdf5out <- prob
I0403 12:36:59.431293  9173 net.cpp:425] hdf5out <- label_data_1_split_0
I0403 12:36:59.433747  9173 net.cpp:141] Setting up hdf5out
…
