…
I0403 12:17:43.026886  8697 net.cpp:313] The NetState phase (1) differed from the phase (0) specified by a rule in layer data
I0403 12:17:43.027178  8697 net.cpp:49] Initializing net from parameters: 
state {
  phase: TEST
}
layer {
  name: "data"
  type: "Data"
  top: "data"
  top: "label"
  include {
    phase: TEST
  }
  transform_param {
    crop_size: 227
    mean_file: "/home/mohanty/data/final_dataset/lmdb/segmented-20-80/mean.binaryproto"
  }
  data_param {
    source: "/home/mohanty/data/final_dataset/lmdb/segmented-20-80/test_db"
    batch_size: 100
    backend: LMDB
  }
}
layer {
  name: "conv1"
  type: "Convolution"
  bottom: "data"
  top: "conv1"
  param {
    lr_mult: 1
    decay_mult: 1
  }
  param {
    lr_mult: 2
    decay_mult: 0
  }
  convolution_param {
    num_output: 96
    kernel_size: 11
    stride: 4
    weight_filler {
      type: "gaussian"
      std: 0.01
    }
    bias_filler {
      type: "constant"
      value: 0
    }
  }
}
layer {
  name: "relu1"
  type: "ReLU"
  bottom: "conv1"
  top: "conv1"
}
layer {
  name: "norm1"
  type: "LRN"
  bottom: "conv1"
  top: "norm1"
  lrn_param {
    local_size: 5
    alpha: 0.0001
    beta: 0.75
  }
}
layer {
  name: "pool1"
  type: "Pooling"
  bottom: "norm1"
  top: "pool1"
  pooling_param {
    pool: MAX
    kernel_size: 3
    stride: 2
  }
}
layer {
  name: "conv2"
  type: "Convolution"
  bottom: "pool1"
  top: "conv2"
  param {
    lr_mult: 1
    decay_mult: 1
  }
  param {
    lr_mult: 2
    decay_mult: 0
  }
  convolution_param {
    num_output: 256
    pad: 2
    kernel_size: 5
    group: 2
    weight_filler {
      type: "gaussian"
      std: 0.01
    }
    bias_filler {
      type: "constant"
      value: 0.1
    }
  }
}
layer {
  name: "relu2"
  type: "ReLU"
  bottom: "conv2"
  top: "conv2"
}
layer {
  name: "norm2"
  type: "LRN"
  bottom: "conv2"
  top: "norm2"
  lrn_param {
    local_size: 5
    alpha: 0.0001
    beta: 0.75
  }
}
layer {
  name: "pool2"
  type: "Pooling"
  bottom: "norm2"
  top: "pool2"
  pooling_param {
    pool: MAX
    kernel_size: 3
    stride: 2
  }
}
layer {
  name: "conv3"
  type: "Convolution"
  bottom: "pool2"
  top: "conv3"
  param {
    lr_mult: 1
    decay_mult: 1
  }
  param {
    lr_mult: 2
    decay_mult: 0
  }
  convolution_param {
    num_output: 384
    pad: 1
    kernel_size: 3
    weight_filler {
      type: "gaussian"
      std: 0.01
    }
    bias_filler {
      type: "constant"
      value: 0
    }
  }
}
layer {
  name: "relu3"
  type: "ReLU"
  bottom: "conv3"
  top: "conv3"
}
layer {
  name: "conv4"
  type: "Convolution"
  bottom: "conv3"
  top: "conv4"
  param {
    lr_mult: 1
    decay_mult: 1
  }
  param {
    lr_mult: 2
    decay_mult: 0
  }
  convolution_param {
    num_output: 384
    pad: 1
    kernel_size: 3
    group: 2
    weight_filler {
      type: "gaussian"
      std: 0.01
    }
    bias_filler {
      type: "constant"
      value: 0.1
    }
  }
}
layer {
  name: "relu4"
  type: "ReLU"
  bottom: "conv4"
  top: "conv4"
}
layer {
  name: "conv5"
  type: "Convolution"
  bottom: "conv4"
  top: "conv5"
  param {
    lr_mult: 1
    decay_mult: 1
  }
  param {
    lr_mult: 2
    decay_mult: 0
  }
  convolution_param {
    num_output: 256
    pad: 1
    kernel_size: 3
    group: 2
    weight_filler {
      type: "gaussian"
      std: 0.01
    }
    bias_filler {
      type: "constant"
      value: 0.1
    }
  }
}
layer {
  name: "relu5"
  type: "ReLU"
  bottom: "conv5"
  top: "conv5"
}
layer {
  name: "pool5"
  type: "Pooling"
  bottom: "conv5"
  top: "pool5"
  pooling_param {
    pool: MAX
    kernel_size: 3
    stride: 2
  }
}
layer {
  name: "fc6"
  type: "InnerProduct"
  bottom: "pool5"
  top: "fc6"
  param {
    lr_mult: 1
    decay_mult: 1
  }
  param {
    lr_mult: 2
    decay_mult: 0
  }
  inner_product_param {
    num_output: 4096
    weight_filler {
      type: "gaussian"
      std: 0.005
    }
    bias_filler {
      type: "constant"
      value: 0.1
    }
  }
}
layer {
  name: "relu6"
  type: "ReLU"
  bottom: "fc6"
  top: "fc6"
}
layer {
  name: "drop6"
  type: "Dropout"
  bottom: "fc6"
  top: "fc6"
  dropout_param {
    dropout_ratio: 0.5
  }
}
layer {
  name: "fc7"
  type: "InnerProduct"
  bottom: "fc6"
  top: "fc7"
  param {
    lr_mult: 1
    decay_mult: 1
  }
  param {
    lr_mult: 2
    decay_mult: 0
  }
  inner_product_param {
    num_output: 4096
    weight_filler {
      type: "gaussian"
      std: 0.005
    }
    bias_filler {
      type: "constant"
      value: 0.1
    }
  }
}
layer {
  name: "relu7"
  type: "ReLU"
  bottom: "fc7"
  top: "fc7"
}
layer {
  name: "drop7"
  type: "Dropout"
  bottom: "fc7"
  top: "fc7"
  dropout_param {
    dropout_ratio: 0.5
  }
}
layer {
  name: "fc8_plantvillage"
  type: "InnerProduct"
  bottom: "fc7"
  top: "fc8_plantvillage"
  param {
    lr_mult: 1
    decay_mult: 1
  }
  param {
    lr_mult: 2
    decay_mult: 0
  }
  inner_product_param {
    num_output: 38
    weight_filler {
      type: "gaussian"
      std: 0.01
    }
    bias_filler {
      type: "constant"
      value: 0
    }
  }
}
layer {
  name: "prob"
  type: "Softmax"
  bottom: "fc8_plantvillage"
  top: "prob"
  include {
    phase: TEST
  }
}
layer {
  name: "hdf5out"
  type: "HDF5Output"
  bottom: "prob"
  bottom: "label"
  include {
    phase: TEST
  }
  hdf5_output_param {
    file_name: "hdf5_dumps/iter_1378.h5"
  }
}
layer {
  name: "loss"
  type: "SoftmaxWithLoss"
  bottom: "fc8_plantvillage"
  bottom: "label"
  top: "loss"
}
layer {
  name: "accuracy"
  type: "Accuracy"
  bottom: "fc8_plantvillage"
  bottom: "label"
  top: "accuracy"
  include {
    phase: TEST
  }
}
I0403 12:17:43.027814  8697 layer_factory.hpp:77] Creating layer data
I0403 12:17:43.028486  8697 net.cpp:91] Creating Layer data
I0403 12:17:43.028523  8697 net.cpp:399] data -> data
I0403 12:17:43.028580  8697 net.cpp:399] data -> label
I0403 12:17:43.028617  8697 data_transformer.cpp:25] Loading mean file from: /home/mohanty/data/final_dataset/lmdb/segmented-20-80/mean.binaryproto
I0403 12:17:43.031365  8700 db_lmdb.cpp:38] Opened lmdb /home/mohanty/data/final_dataset/lmdb/segmented-20-80/test_db
I0403 12:17:43.043067  8697 data_layer.cpp:41] output data size: 100,3,227,227
I0403 12:17:43.162055  8697 net.cpp:141] Setting up data
I0403 12:17:43.162148  8697 net.cpp:148] Top shape: 100 3 227 227 (15458700)
I0403 12:17:43.162171  8697 net.cpp:148] Top shape: 100 (100)
I0403 12:17:43.162185  8697 net.cpp:156] Memory required for data: 61835200
I0403 12:17:43.162214  8697 layer_factory.hpp:77] Creating layer label_data_1_split
I0403 12:17:43.162240  8697 net.cpp:91] Creating Layer label_data_1_split
I0403 12:17:43.162257  8697 net.cpp:425] label_data_1_split <- label
I0403 12:17:43.162288  8697 net.cpp:399] label_data_1_split -> label_data_1_split_0
I0403 12:17:43.162315  8697 net.cpp:399] label_data_1_split -> label_data_1_split_1
I0403 12:17:43.162335  8697 net.cpp:399] label_data_1_split -> label_data_1_split_2
I0403 12:17:43.162400  8697 net.cpp:141] Setting up label_data_1_split
I0403 12:17:43.162422  8697 net.cpp:148] Top shape: 100 (100)
I0403 12:17:43.162439  8697 net.cpp:148] Top shape: 100 (100)
I0403 12:17:43.162454  8697 net.cpp:148] Top shape: 100 (100)
I0403 12:17:43.162468  8697 net.cpp:156] Memory required for data: 61836400
I0403 12:17:43.162482  8697 layer_factory.hpp:77] Creating layer conv1
I0403 12:17:43.162513  8697 net.cpp:91] Creating Layer conv1
I0403 12:17:43.162531  8697 net.cpp:425] conv1 <- data
I0403 12:17:43.162550  8697 net.cpp:399] conv1 -> conv1
I0403 12:17:43.300181  8697 net.cpp:141] Setting up conv1
I0403 12:17:43.300262  8697 net.cpp:148] Top shape: 100 96 55 55 (29040000)
I0403 12:17:43.300283  8697 net.cpp:156] Memory required for data: 177996400
I0403 12:17:43.300317  8697 layer_factory.hpp:77] Creating layer relu1
I0403 12:17:43.300344  8697 net.cpp:91] Creating Layer relu1
I0403 12:17:43.300361  8697 net.cpp:425] relu1 <- conv1
I0403 12:17:43.300379  8697 net.cpp:386] relu1 -> conv1 (in-place)
I0403 12:17:43.300638  8697 net.cpp:141] Setting up relu1
I0403 12:17:43.300667  8697 net.cpp:148] Top shape: 100 96 55 55 (29040000)
I0403 12:17:43.300716  8697 net.cpp:156] Memory required for data: 294156400
I0403 12:17:43.300732  8697 layer_factory.hpp:77] Creating layer norm1
I0403 12:17:43.300761  8697 net.cpp:91] Creating Layer norm1
I0403 12:17:43.300778  8697 net.cpp:425] norm1 <- conv1
I0403 12:17:43.300796  8697 net.cpp:399] norm1 -> norm1
I0403 12:17:43.301100  8697 net.cpp:141] Setting up norm1
I0403 12:17:43.301129  8697 net.cpp:148] Top shape: 100 96 55 55 (29040000)
I0403 12:17:43.301144  8697 net.cpp:156] Memory required for data: 410316400
I0403 12:17:43.301158  8697 layer_factory.hpp:77] Creating layer pool1
I0403 12:17:43.301180  8697 net.cpp:91] Creating Layer pool1
I0403 12:17:43.301198  8697 net.cpp:425] pool1 <- norm1
I0403 12:17:43.301214  8697 net.cpp:399] pool1 -> pool1
I0403 12:17:43.301280  8697 net.cpp:141] Setting up pool1
I0403 12:17:43.301306  8697 net.cpp:148] Top shape: 100 96 27 27 (6998400)
I0403 12:17:43.301321  8697 net.cpp:156] Memory required for data: 438310000
I0403 12:17:43.301336  8697 layer_factory.hpp:77] Creating layer conv2
I0403 12:17:43.301359  8697 net.cpp:91] Creating Layer conv2
I0403 12:17:43.301375  8697 net.cpp:425] conv2 <- pool1
I0403 12:17:43.301393  8697 net.cpp:399] conv2 -> conv2
I0403 12:17:43.316305  8697 net.cpp:141] Setting up conv2
I0403 12:17:43.316361  8697 net.cpp:148] Top shape: 100 256 27 27 (18662400)
I0403 12:17:43.316380  8697 net.cpp:156] Memory required for data: 512959600
I0403 12:17:43.316402  8697 layer_factory.hpp:77] Creating layer relu2
I0403 12:17:43.316421  8697 net.cpp:91] Creating Layer relu2
I0403 12:17:43.316437  8697 net.cpp:425] relu2 <- conv2
I0403 12:17:43.316457  8697 net.cpp:386] relu2 -> conv2 (in-place)
I0403 12:17:43.316742  8697 net.cpp:141] Setting up relu2
I0403 12:17:43.316769  8697 net.cpp:148] Top shape: 100 256 27 27 (18662400)
I0403 12:17:43.316784  8697 net.cpp:156] Memory required for data: 587609200
I0403 12:17:43.316799  8697 layer_factory.hpp:77] Creating layer norm2
I0403 12:17:43.316823  8697 net.cpp:91] Creating Layer norm2
I0403 12:17:43.316839  8697 net.cpp:425] norm2 <- conv2
I0403 12:17:43.316857  8697 net.cpp:399] norm2 -> norm2
I0403 12:17:43.317054  8697 net.cpp:141] Setting up norm2
I0403 12:17:43.317085  8697 net.cpp:148] Top shape: 100 256 27 27 (18662400)
I0403 12:17:43.317100  8697 net.cpp:156] Memory required for data: 662258800
I0403 12:17:43.317114  8697 layer_factory.hpp:77] Creating layer pool2
I0403 12:17:43.317132  8697 net.cpp:91] Creating Layer pool2
I0403 12:17:43.317147  8697 net.cpp:425] pool2 <- norm2
I0403 12:17:43.317167  8697 net.cpp:399] pool2 -> pool2
I0403 12:17:43.317222  8697 net.cpp:141] Setting up pool2
I0403 12:17:43.317245  8697 net.cpp:148] Top shape: 100 256 13 13 (4326400)
I0403 12:17:43.317260  8697 net.cpp:156] Memory required for data: 679564400
I0403 12:17:43.317275  8697 layer_factory.hpp:77] Creating layer conv3
I0403 12:17:43.317297  8697 net.cpp:91] Creating Layer conv3
I0403 12:17:43.317315  8697 net.cpp:425] conv3 <- pool2
I0403 12:17:43.317334  8697 net.cpp:399] conv3 -> conv3
I0403 12:17:43.355638  8697 net.cpp:141] Setting up conv3
I0403 12:17:43.355715  8697 net.cpp:148] Top shape: 100 384 13 13 (6489600)
I0403 12:17:43.355732  8697 net.cpp:156] Memory required for data: 705522800
I0403 12:17:43.355757  8697 layer_factory.hpp:77] Creating layer relu3
I0403 12:17:43.355780  8697 net.cpp:91] Creating Layer relu3
I0403 12:17:43.355798  8697 net.cpp:425] relu3 <- conv3
I0403 12:17:43.355818  8697 net.cpp:386] relu3 -> conv3 (in-place)
I0403 12:17:43.356096  8697 net.cpp:141] Setting up relu3
I0403 12:17:43.356125  8697 net.cpp:148] Top shape: 100 384 13 13 (6489600)
I0403 12:17:43.356142  8697 net.cpp:156] Memory required for data: 731481200
I0403 12:17:43.356156  8697 layer_factory.hpp:77] Creating layer conv4
I0403 12:17:43.356184  8697 net.cpp:91] Creating Layer conv4
I0403 12:17:43.356200  8697 net.cpp:425] conv4 <- conv3
I0403 12:17:43.356220  8697 net.cpp:399] conv4 -> conv4
I0403 12:17:43.385982  8697 net.cpp:141] Setting up conv4
I0403 12:17:43.386018  8697 net.cpp:148] Top shape: 100 384 13 13 (6489600)
I0403 12:17:43.386068  8697 net.cpp:156] Memory required for data: 757439600
I0403 12:17:43.386090  8697 layer_factory.hpp:77] Creating layer relu4
I0403 12:17:43.386113  8697 net.cpp:91] Creating Layer relu4
I0403 12:17:43.386131  8697 net.cpp:425] relu4 <- conv4
I0403 12:17:43.386149  8697 net.cpp:386] relu4 -> conv4 (in-place)
I0403 12:17:43.386433  8697 net.cpp:141] Setting up relu4
I0403 12:17:43.386459  8697 net.cpp:148] Top shape: 100 384 13 13 (6489600)
I0403 12:17:43.386474  8697 net.cpp:156] Memory required for data: 783398000
I0403 12:17:43.386488  8697 layer_factory.hpp:77] Creating layer conv5
I0403 12:17:43.386517  8697 net.cpp:91] Creating Layer conv5
I0403 12:17:43.386533  8697 net.cpp:425] conv5 <- conv4
I0403 12:17:43.386553  8697 net.cpp:399] conv5 -> conv5
I0403 12:17:43.406894  8697 net.cpp:141] Setting up conv5
I0403 12:17:43.406955  8697 net.cpp:148] Top shape: 100 256 13 13 (4326400)
I0403 12:17:43.406972  8697 net.cpp:156] Memory required for data: 800703600
I0403 12:17:43.406997  8697 layer_factory.hpp:77] Creating layer relu5
I0403 12:17:43.407018  8697 net.cpp:91] Creating Layer relu5
I0403 12:17:43.407034  8697 net.cpp:425] relu5 <- conv5
I0403 12:17:43.407057  8697 net.cpp:386] relu5 -> conv5 (in-place)
I0403 12:17:43.407338  8697 net.cpp:141] Setting up relu5
I0403 12:17:43.407366  8697 net.cpp:148] Top shape: 100 256 13 13 (4326400)
I0403 12:17:43.407380  8697 net.cpp:156] Memory required for data: 818009200
I0403 12:17:43.407395  8697 layer_factory.hpp:77] Creating layer pool5
I0403 12:17:43.407416  8697 net.cpp:91] Creating Layer pool5
I0403 12:17:43.407433  8697 net.cpp:425] pool5 <- conv5
I0403 12:17:43.407454  8697 net.cpp:399] pool5 -> pool5
I0403 12:17:43.407515  8697 net.cpp:141] Setting up pool5
I0403 12:17:43.407538  8697 net.cpp:148] Top shape: 100 256 6 6 (921600)
I0403 12:17:43.407553  8697 net.cpp:156] Memory required for data: 821695600
I0403 12:17:43.407572  8697 layer_factory.hpp:77] Creating layer fc6
I0403 12:17:43.407601  8697 net.cpp:91] Creating Layer fc6
I0403 12:17:43.407619  8697 net.cpp:425] fc6 <- pool5
I0403 12:17:43.407639  8697 net.cpp:399] fc6 -> fc6
I0403 12:17:44.952808  8697 net.cpp:141] Setting up fc6
I0403 12:17:44.952885  8697 net.cpp:148] Top shape: 100 4096 (409600)
I0403 12:17:44.952901  8697 net.cpp:156] Memory required for data: 823334000
I0403 12:17:44.952921  8697 layer_factory.hpp:77] Creating layer relu6
I0403 12:17:44.952945  8697 net.cpp:91] Creating Layer relu6
I0403 12:17:44.952962  8697 net.cpp:425] relu6 <- fc6
I0403 12:17:44.952981  8697 net.cpp:386] relu6 -> fc6 (in-place)
I0403 12:17:44.953205  8697 net.cpp:141] Setting up relu6
I0403 12:17:44.953233  8697 net.cpp:148] Top shape: 100 4096 (409600)
I0403 12:17:44.953248  8697 net.cpp:156] Memory required for data: 824972400
I0403 12:17:44.953261  8697 layer_factory.hpp:77] Creating layer drop6
I0403 12:17:44.953279  8697 net.cpp:91] Creating Layer drop6
I0403 12:17:44.953295  8697 net.cpp:425] drop6 <- fc6
I0403 12:17:44.953315  8697 net.cpp:386] drop6 -> fc6 (in-place)
I0403 12:17:44.953364  8697 net.cpp:141] Setting up drop6
I0403 12:17:44.953387  8697 net.cpp:148] Top shape: 100 4096 (409600)
I0403 12:17:44.953400  8697 net.cpp:156] Memory required for data: 826610800
I0403 12:17:44.953413  8697 layer_factory.hpp:77] Creating layer fc7
I0403 12:17:44.953435  8697 net.cpp:91] Creating Layer fc7
I0403 12:17:44.953451  8697 net.cpp:425] fc7 <- fc6
I0403 12:17:44.953470  8697 net.cpp:399] fc7 -> fc7
I0403 12:17:45.636291  8697 net.cpp:141] Setting up fc7
I0403 12:17:45.636368  8697 net.cpp:148] Top shape: 100 4096 (409600)
I0403 12:17:45.636384  8697 net.cpp:156] Memory required for data: 828249200
I0403 12:17:45.636404  8697 layer_factory.hpp:77] Creating layer relu7
I0403 12:17:45.636426  8697 net.cpp:91] Creating Layer relu7
I0403 12:17:45.636442  8697 net.cpp:425] relu7 <- fc7
I0403 12:17:45.636464  8697 net.cpp:386] relu7 -> fc7 (in-place)
I0403 12:17:45.636874  8697 net.cpp:141] Setting up relu7
I0403 12:17:45.636904  8697 net.cpp:148] Top shape: 100 4096 (409600)
I0403 12:17:45.636960  8697 net.cpp:156] Memory required for data: 829887600
I0403 12:17:45.636976  8697 layer_factory.hpp:77] Creating layer drop7
I0403 12:17:45.636994  8697 net.cpp:91] Creating Layer drop7
I0403 12:17:45.637008  8697 net.cpp:425] drop7 <- fc7
I0403 12:17:45.637028  8697 net.cpp:386] drop7 -> fc7 (in-place)
I0403 12:17:45.637071  8697 net.cpp:141] Setting up drop7
I0403 12:17:45.637094  8697 net.cpp:148] Top shape: 100 4096 (409600)
I0403 12:17:45.637107  8697 net.cpp:156] Memory required for data: 831526000
I0403 12:17:45.637120  8697 layer_factory.hpp:77] Creating layer fc8_plantvillage
I0403 12:17:45.637142  8697 net.cpp:91] Creating Layer fc8_plantvillage
I0403 12:17:45.637158  8697 net.cpp:425] fc8_plantvillage <- fc7
I0403 12:17:45.637177  8697 net.cpp:399] fc8_plantvillage -> fc8_plantvillage
I0403 12:17:45.643880  8697 net.cpp:141] Setting up fc8_plantvillage
I0403 12:17:45.643910  8697 net.cpp:148] Top shape: 100 38 (3800)
I0403 12:17:45.643925  8697 net.cpp:156] Memory required for data: 831541200
I0403 12:17:45.643944  8697 layer_factory.hpp:77] Creating layer fc8_plantvillage_fc8_plantvillage_0_split
I0403 12:17:45.643961  8697 net.cpp:91] Creating Layer fc8_plantvillage_fc8_plantvillage_0_split
I0403 12:17:45.643977  8697 net.cpp:425] fc8_plantvillage_fc8_plantvillage_0_split <- fc8_plantvillage
I0403 12:17:45.643997  8697 net.cpp:399] fc8_plantvillage_fc8_plantvillage_0_split -> fc8_plantvillage_fc8_plantvillage_0_split_0
I0403 12:17:45.644018  8697 net.cpp:399] fc8_plantvillage_fc8_plantvillage_0_split -> fc8_plantvillage_fc8_plantvillage_0_split_1
I0403 12:17:45.644037  8697 net.cpp:399] fc8_plantvillage_fc8_plantvillage_0_split -> fc8_plantvillage_fc8_plantvillage_0_split_2
I0403 12:17:45.644114  8697 net.cpp:141] Setting up fc8_plantvillage_fc8_plantvillage_0_split
I0403 12:17:45.644139  8697 net.cpp:148] Top shape: 100 38 (3800)
I0403 12:17:45.644155  8697 net.cpp:148] Top shape: 100 38 (3800)
I0403 12:17:45.644170  8697 net.cpp:148] Top shape: 100 38 (3800)
I0403 12:17:45.644184  8697 net.cpp:156] Memory required for data: 831586800
I0403 12:17:45.644210  8697 layer_factory.hpp:77] Creating layer prob
I0403 12:17:45.644228  8697 net.cpp:91] Creating Layer prob
I0403 12:17:45.644244  8697 net.cpp:425] prob <- fc8_plantvillage_fc8_plantvillage_0_split_0
I0403 12:17:45.644264  8697 net.cpp:399] prob -> prob
I0403 12:17:45.644492  8697 net.cpp:141] Setting up prob
I0403 12:17:45.644521  8697 net.cpp:148] Top shape: 100 38 (3800)
I0403 12:17:45.644537  8697 net.cpp:156] Memory required for data: 831602000
I0403 12:17:45.644552  8697 layer_factory.hpp:77] Creating layer hdf5out
I0403 12:17:45.644593  8697 net.cpp:91] Creating Layer hdf5out
I0403 12:17:45.644611  8697 net.cpp:425] hdf5out <- prob
I0403 12:17:45.644628  8697 net.cpp:425] hdf5out <- label_data_1_split_0
I0403 12:17:45.718351  8697 net.cpp:141] Setting up hdf5out
…
