…
I0403 12:12:33.083636  8588 net.cpp:313] The NetState phase (1) differed from the phase (0) specified by a rule in layer data
I0403 12:12:33.083940  8588 net.cpp:49] Initializing net from parameters: 
state {
  phase: TEST
}
layer {
  name: "data"
  type: "Data"
  top: "data"
  top: "label"
  include {
    phase: TEST
  }
  transform_param {
    crop_size: 227
    mean_file: "/home/mohanty/data/final_dataset/lmdb/segmented-20-80/mean.binaryproto"
  }
  data_param {
    source: "/home/mohanty/data/final_dataset/lmdb/segmented-20-80/test_db"
    batch_size: 100
    backend: LMDB
  }
}
layer {
  name: "conv1"
  type: "Convolution"
  bottom: "data"
  top: "conv1"
  param {
    lr_mult: 1
    decay_mult: 1
  }
  param {
    lr_mult: 2
    decay_mult: 0
  }
  convolution_param {
    num_output: 96
    kernel_size: 11
    stride: 4
    weight_filler {
      type: "gaussian"
      std: 0.01
    }
    bias_filler {
      type: "constant"
      value: 0
    }
  }
}
layer {
  name: "relu1"
  type: "ReLU"
  bottom: "conv1"
  top: "conv1"
}
layer {
  name: "norm1"
  type: "LRN"
  bottom: "conv1"
  top: "norm1"
  lrn_param {
    local_size: 5
    alpha: 0.0001
    beta: 0.75
  }
}
layer {
  name: "pool1"
  type: "Pooling"
  bottom: "norm1"
  top: "pool1"
  pooling_param {
    pool: MAX
    kernel_size: 3
    stride: 2
  }
}
layer {
  name: "conv2"
  type: "Convolution"
  bottom: "pool1"
  top: "conv2"
  param {
    lr_mult: 1
    decay_mult: 1
  }
  param {
    lr_mult: 2
    decay_mult: 0
  }
  convolution_param {
    num_output: 256
    pad: 2
    kernel_size: 5
    group: 2
    weight_filler {
      type: "gaussian"
      std: 0.01
    }
    bias_filler {
      type: "constant"
      value: 0.1
    }
  }
}
layer {
  name: "relu2"
  type: "ReLU"
  bottom: "conv2"
  top: "conv2"
}
layer {
  name: "norm2"
  type: "LRN"
  bottom: "conv2"
  top: "norm2"
  lrn_param {
    local_size: 5
    alpha: 0.0001
    beta: 0.75
  }
}
layer {
  name: "pool2"
  type: "Pooling"
  bottom: "norm2"
  top: "pool2"
  pooling_param {
    pool: MAX
    kernel_size: 3
    stride: 2
  }
}
layer {
  name: "conv3"
  type: "Convolution"
  bottom: "pool2"
  top: "conv3"
  param {
    lr_mult: 1
    decay_mult: 1
  }
  param {
    lr_mult: 2
    decay_mult: 0
  }
  convolution_param {
    num_output: 384
    pad: 1
    kernel_size: 3
    weight_filler {
      type: "gaussian"
      std: 0.01
    }
    bias_filler {
      type: "constant"
      value: 0
    }
  }
}
layer {
  name: "relu3"
  type: "ReLU"
  bottom: "conv3"
  top: "conv3"
}
layer {
  name: "conv4"
  type: "Convolution"
  bottom: "conv3"
  top: "conv4"
  param {
    lr_mult: 1
    decay_mult: 1
  }
  param {
    lr_mult: 2
    decay_mult: 0
  }
  convolution_param {
    num_output: 384
    pad: 1
    kernel_size: 3
    group: 2
    weight_filler {
      type: "gaussian"
      std: 0.01
    }
    bias_filler {
      type: "constant"
      value: 0.1
    }
  }
}
layer {
  name: "relu4"
  type: "ReLU"
  bottom: "conv4"
  top: "conv4"
}
layer {
  name: "conv5"
  type: "Convolution"
  bottom: "conv4"
  top: "conv5"
  param {
    lr_mult: 1
    decay_mult: 1
  }
  param {
    lr_mult: 2
    decay_mult: 0
  }
  convolution_param {
    num_output: 256
    pad: 1
    kernel_size: 3
    group: 2
    weight_filler {
      type: "gaussian"
      std: 0.01
    }
    bias_filler {
      type: "constant"
      value: 0.1
    }
  }
}
layer {
  name: "relu5"
  type: "ReLU"
  bottom: "conv5"
  top: "conv5"
}
layer {
  name: "pool5"
  type: "Pooling"
  bottom: "conv5"
  top: "pool5"
  pooling_param {
    pool: MAX
    kernel_size: 3
    stride: 2
  }
}
layer {
  name: "fc6"
  type: "InnerProduct"
  bottom: "pool5"
  top: "fc6"
  param {
    lr_mult: 1
    decay_mult: 1
  }
  param {
    lr_mult: 2
    decay_mult: 0
  }
  inner_product_param {
    num_output: 4096
    weight_filler {
      type: "gaussian"
      std: 0.005
    }
    bias_filler {
      type: "constant"
      value: 0.1
    }
  }
}
layer {
  name: "relu6"
  type: "ReLU"
  bottom: "fc6"
  top: "fc6"
}
layer {
  name: "drop6"
  type: "Dropout"
  bottom: "fc6"
  top: "fc6"
  dropout_param {
    dropout_ratio: 0.5
  }
}
layer {
  name: "fc7"
  type: "InnerProduct"
  bottom: "fc6"
  top: "fc7"
  param {
    lr_mult: 1
    decay_mult: 1
  }
  param {
    lr_mult: 2
    decay_mult: 0
  }
  inner_product_param {
    num_output: 4096
    weight_filler {
      type: "gaussian"
      std: 0.005
    }
    bias_filler {
      type: "constant"
      value: 0.1
    }
  }
}
layer {
  name: "relu7"
  type: "ReLU"
  bottom: "fc7"
  top: "fc7"
}
layer {
  name: "drop7"
  type: "Dropout"
  bottom: "fc7"
  top: "fc7"
  dropout_param {
    dropout_ratio: 0.5
  }
}
layer {
  name: "fc8_plantvillage"
  type: "InnerProduct"
  bottom: "fc7"
  top: "fc8_plantvillage"
  param {
    lr_mult: 1
    decay_mult: 1
  }
  param {
    lr_mult: 2
    decay_mult: 0
  }
  inner_product_param {
    num_output: 38
    weight_filler {
      type: "gaussian"
      std: 0.01
    }
    bias_filler {
      type: "constant"
      value: 0
    }
  }
}
layer {
  name: "prob"
  type: "Softmax"
  bottom: "fc8_plantvillage"
  top: "prob"
  include {
    phase: TEST
  }
}
layer {
  name: "hdf5out"
  type: "HDF5Output"
  bottom: "prob"
  bottom: "label"
  include {
    phase: TEST
  }
  hdf5_output_param {
    file_name: "hdf5_dumps/iter_954.h5"
  }
}
layer {
  name: "loss"
  type: "SoftmaxWithLoss"
  bottom: "fc8_plantvillage"
  bottom: "label"
  top: "loss"
}
layer {
  name: "accuracy"
  type: "Accuracy"
  bottom: "fc8_plantvillage"
  bottom: "label"
  top: "accuracy"
  include {
    phase: TEST
  }
}
I0403 12:12:33.084498  8588 layer_factory.hpp:77] Creating layer data
I0403 12:12:33.085139  8588 net.cpp:91] Creating Layer data
I0403 12:12:33.085173  8588 net.cpp:399] data -> data
I0403 12:12:33.085223  8588 net.cpp:399] data -> label
I0403 12:12:33.085260  8588 data_transformer.cpp:25] Loading mean file from: /home/mohanty/data/final_dataset/lmdb/segmented-20-80/mean.binaryproto
I0403 12:12:33.088912  8591 db_lmdb.cpp:38] Opened lmdb /home/mohanty/data/final_dataset/lmdb/segmented-20-80/test_db
I0403 12:12:33.099666  8588 data_layer.cpp:41] output data size: 100,3,227,227
I0403 12:12:33.217497  8588 net.cpp:141] Setting up data
I0403 12:12:33.217602  8588 net.cpp:148] Top shape: 100 3 227 227 (15458700)
I0403 12:12:33.217624  8588 net.cpp:148] Top shape: 100 (100)
I0403 12:12:33.217639  8588 net.cpp:156] Memory required for data: 61835200
I0403 12:12:33.217667  8588 layer_factory.hpp:77] Creating layer label_data_1_split
I0403 12:12:33.217694  8588 net.cpp:91] Creating Layer label_data_1_split
I0403 12:12:33.217710  8588 net.cpp:425] label_data_1_split <- label
I0403 12:12:33.217743  8588 net.cpp:399] label_data_1_split -> label_data_1_split_0
I0403 12:12:33.217769  8588 net.cpp:399] label_data_1_split -> label_data_1_split_1
I0403 12:12:33.217790  8588 net.cpp:399] label_data_1_split -> label_data_1_split_2
I0403 12:12:33.217862  8588 net.cpp:141] Setting up label_data_1_split
I0403 12:12:33.217885  8588 net.cpp:148] Top shape: 100 (100)
I0403 12:12:33.217901  8588 net.cpp:148] Top shape: 100 (100)
I0403 12:12:33.217916  8588 net.cpp:148] Top shape: 100 (100)
I0403 12:12:33.217929  8588 net.cpp:156] Memory required for data: 61836400
I0403 12:12:33.217944  8588 layer_factory.hpp:77] Creating layer conv1
I0403 12:12:33.217975  8588 net.cpp:91] Creating Layer conv1
I0403 12:12:33.217993  8588 net.cpp:425] conv1 <- data
I0403 12:12:33.218011  8588 net.cpp:399] conv1 -> conv1
I0403 12:12:33.355414  8588 net.cpp:141] Setting up conv1
I0403 12:12:33.355491  8588 net.cpp:148] Top shape: 100 96 55 55 (29040000)
I0403 12:12:33.355509  8588 net.cpp:156] Memory required for data: 177996400
I0403 12:12:33.355543  8588 layer_factory.hpp:77] Creating layer relu1
I0403 12:12:33.355571  8588 net.cpp:91] Creating Layer relu1
I0403 12:12:33.355589  8588 net.cpp:425] relu1 <- conv1
I0403 12:12:33.355614  8588 net.cpp:386] relu1 -> conv1 (in-place)
I0403 12:12:33.355896  8588 net.cpp:141] Setting up relu1
I0403 12:12:33.355924  8588 net.cpp:148] Top shape: 100 96 55 55 (29040000)
I0403 12:12:33.355978  8588 net.cpp:156] Memory required for data: 294156400
I0403 12:12:33.355994  8588 layer_factory.hpp:77] Creating layer norm1
I0403 12:12:33.356021  8588 net.cpp:91] Creating Layer norm1
I0403 12:12:33.356039  8588 net.cpp:425] norm1 <- conv1
I0403 12:12:33.356060  8588 net.cpp:399] norm1 -> norm1
I0403 12:12:33.356395  8588 net.cpp:141] Setting up norm1
I0403 12:12:33.356422  8588 net.cpp:148] Top shape: 100 96 55 55 (29040000)
I0403 12:12:33.356438  8588 net.cpp:156] Memory required for data: 410316400
I0403 12:12:33.356453  8588 layer_factory.hpp:77] Creating layer pool1
I0403 12:12:33.356475  8588 net.cpp:91] Creating Layer pool1
I0403 12:12:33.356492  8588 net.cpp:425] pool1 <- norm1
I0403 12:12:33.356511  8588 net.cpp:399] pool1 -> pool1
I0403 12:12:33.356583  8588 net.cpp:141] Setting up pool1
I0403 12:12:33.356611  8588 net.cpp:148] Top shape: 100 96 27 27 (6998400)
I0403 12:12:33.356627  8588 net.cpp:156] Memory required for data: 438310000
I0403 12:12:33.356642  8588 layer_factory.hpp:77] Creating layer conv2
I0403 12:12:33.356673  8588 net.cpp:91] Creating Layer conv2
I0403 12:12:33.356691  8588 net.cpp:425] conv2 <- pool1
I0403 12:12:33.356709  8588 net.cpp:399] conv2 -> conv2
I0403 12:12:33.371676  8588 net.cpp:141] Setting up conv2
I0403 12:12:33.371726  8588 net.cpp:148] Top shape: 100 256 27 27 (18662400)
I0403 12:12:33.371744  8588 net.cpp:156] Memory required for data: 512959600
I0403 12:12:33.371767  8588 layer_factory.hpp:77] Creating layer relu2
I0403 12:12:33.371788  8588 net.cpp:91] Creating Layer relu2
I0403 12:12:33.371805  8588 net.cpp:425] relu2 <- conv2
I0403 12:12:33.371824  8588 net.cpp:386] relu2 -> conv2 (in-place)
I0403 12:12:33.372109  8588 net.cpp:141] Setting up relu2
I0403 12:12:33.372136  8588 net.cpp:148] Top shape: 100 256 27 27 (18662400)
I0403 12:12:33.372153  8588 net.cpp:156] Memory required for data: 587609200
I0403 12:12:33.372166  8588 layer_factory.hpp:77] Creating layer norm2
I0403 12:12:33.372189  8588 net.cpp:91] Creating Layer norm2
I0403 12:12:33.372207  8588 net.cpp:425] norm2 <- conv2
I0403 12:12:33.372225  8588 net.cpp:399] norm2 -> norm2
I0403 12:12:33.372429  8588 net.cpp:141] Setting up norm2
I0403 12:12:33.372457  8588 net.cpp:148] Top shape: 100 256 27 27 (18662400)
I0403 12:12:33.372473  8588 net.cpp:156] Memory required for data: 662258800
I0403 12:12:33.372488  8588 layer_factory.hpp:77] Creating layer pool2
I0403 12:12:33.372506  8588 net.cpp:91] Creating Layer pool2
I0403 12:12:33.372524  8588 net.cpp:425] pool2 <- norm2
I0403 12:12:33.372545  8588 net.cpp:399] pool2 -> pool2
I0403 12:12:33.372606  8588 net.cpp:141] Setting up pool2
I0403 12:12:33.372642  8588 net.cpp:148] Top shape: 100 256 13 13 (4326400)
I0403 12:12:33.372658  8588 net.cpp:156] Memory required for data: 679564400
I0403 12:12:33.372673  8588 layer_factory.hpp:77] Creating layer conv3
I0403 12:12:33.372697  8588 net.cpp:91] Creating Layer conv3
I0403 12:12:33.372715  8588 net.cpp:425] conv3 <- pool2
I0403 12:12:33.372736  8588 net.cpp:399] conv3 -> conv3
I0403 12:12:33.411680  8588 net.cpp:141] Setting up conv3
I0403 12:12:33.411736  8588 net.cpp:148] Top shape: 100 384 13 13 (6489600)
I0403 12:12:33.411753  8588 net.cpp:156] Memory required for data: 705522800
I0403 12:12:33.411779  8588 layer_factory.hpp:77] Creating layer relu3
I0403 12:12:33.411803  8588 net.cpp:91] Creating Layer relu3
I0403 12:12:33.411818  8588 net.cpp:425] relu3 <- conv3
I0403 12:12:33.411839  8588 net.cpp:386] relu3 -> conv3 (in-place)
I0403 12:12:33.412119  8588 net.cpp:141] Setting up relu3
I0403 12:12:33.412158  8588 net.cpp:148] Top shape: 100 384 13 13 (6489600)
I0403 12:12:33.412174  8588 net.cpp:156] Memory required for data: 731481200
I0403 12:12:33.412189  8588 layer_factory.hpp:77] Creating layer conv4
I0403 12:12:33.412215  8588 net.cpp:91] Creating Layer conv4
I0403 12:12:33.412232  8588 net.cpp:425] conv4 <- conv3
I0403 12:12:33.412257  8588 net.cpp:399] conv4 -> conv4
I0403 12:12:33.441797  8588 net.cpp:141] Setting up conv4
I0403 12:12:33.441870  8588 net.cpp:148] Top shape: 100 384 13 13 (6489600)
I0403 12:12:33.441931  8588 net.cpp:156] Memory required for data: 757439600
I0403 12:12:33.441952  8588 layer_factory.hpp:77] Creating layer relu4
I0403 12:12:33.441974  8588 net.cpp:91] Creating Layer relu4
I0403 12:12:33.441990  8588 net.cpp:425] relu4 <- conv4
I0403 12:12:33.442008  8588 net.cpp:386] relu4 -> conv4 (in-place)
I0403 12:12:33.442303  8588 net.cpp:141] Setting up relu4
I0403 12:12:33.442332  8588 net.cpp:148] Top shape: 100 384 13 13 (6489600)
I0403 12:12:33.442348  8588 net.cpp:156] Memory required for data: 783398000
I0403 12:12:33.442363  8588 layer_factory.hpp:77] Creating layer conv5
I0403 12:12:33.442389  8588 net.cpp:91] Creating Layer conv5
I0403 12:12:33.442407  8588 net.cpp:425] conv5 <- conv4
I0403 12:12:33.442428  8588 net.cpp:399] conv5 -> conv5
I0403 12:12:33.462736  8588 net.cpp:141] Setting up conv5
I0403 12:12:33.462792  8588 net.cpp:148] Top shape: 100 256 13 13 (4326400)
I0403 12:12:33.462810  8588 net.cpp:156] Memory required for data: 800703600
I0403 12:12:33.462836  8588 layer_factory.hpp:77] Creating layer relu5
I0403 12:12:33.462857  8588 net.cpp:91] Creating Layer relu5
I0403 12:12:33.462874  8588 net.cpp:425] relu5 <- conv5
I0403 12:12:33.462893  8588 net.cpp:386] relu5 -> conv5 (in-place)
I0403 12:12:33.463192  8588 net.cpp:141] Setting up relu5
I0403 12:12:33.463223  8588 net.cpp:148] Top shape: 100 256 13 13 (4326400)
I0403 12:12:33.463240  8588 net.cpp:156] Memory required for data: 818009200
I0403 12:12:33.463255  8588 layer_factory.hpp:77] Creating layer pool5
I0403 12:12:33.463279  8588 net.cpp:91] Creating Layer pool5
I0403 12:12:33.463296  8588 net.cpp:425] pool5 <- conv5
I0403 12:12:33.463315  8588 net.cpp:399] pool5 -> pool5
I0403 12:12:33.463376  8588 net.cpp:141] Setting up pool5
I0403 12:12:33.463399  8588 net.cpp:148] Top shape: 100 256 6 6 (921600)
I0403 12:12:33.463425  8588 net.cpp:156] Memory required for data: 821695600
I0403 12:12:33.463438  8588 layer_factory.hpp:77] Creating layer fc6
I0403 12:12:33.463464  8588 net.cpp:91] Creating Layer fc6
I0403 12:12:33.463480  8588 net.cpp:425] fc6 <- pool5
I0403 12:12:33.463500  8588 net.cpp:399] fc6 -> fc6
I0403 12:12:35.056884  8588 net.cpp:141] Setting up fc6
I0403 12:12:35.056949  8588 net.cpp:148] Top shape: 100 4096 (409600)
I0403 12:12:35.056967  8588 net.cpp:156] Memory required for data: 823334000
I0403 12:12:35.056988  8588 layer_factory.hpp:77] Creating layer relu6
I0403 12:12:35.057009  8588 net.cpp:91] Creating Layer relu6
I0403 12:12:35.057025  8588 net.cpp:425] relu6 <- fc6
I0403 12:12:35.057044  8588 net.cpp:386] relu6 -> fc6 (in-place)
I0403 12:12:35.057281  8588 net.cpp:141] Setting up relu6
I0403 12:12:35.057308  8588 net.cpp:148] Top shape: 100 4096 (409600)
I0403 12:12:35.057324  8588 net.cpp:156] Memory required for data: 824972400
I0403 12:12:35.057338  8588 layer_factory.hpp:77] Creating layer drop6
I0403 12:12:35.057356  8588 net.cpp:91] Creating Layer drop6
I0403 12:12:35.057370  8588 net.cpp:425] drop6 <- fc6
I0403 12:12:35.057389  8588 net.cpp:386] drop6 -> fc6 (in-place)
I0403 12:12:35.057440  8588 net.cpp:141] Setting up drop6
I0403 12:12:35.057462  8588 net.cpp:148] Top shape: 100 4096 (409600)
I0403 12:12:35.057476  8588 net.cpp:156] Memory required for data: 826610800
I0403 12:12:35.057489  8588 layer_factory.hpp:77] Creating layer fc7
I0403 12:12:35.057512  8588 net.cpp:91] Creating Layer fc7
I0403 12:12:35.057528  8588 net.cpp:425] fc7 <- fc6
I0403 12:12:35.057548  8588 net.cpp:399] fc7 -> fc7
I0403 12:12:35.762187  8588 net.cpp:141] Setting up fc7
I0403 12:12:35.762245  8588 net.cpp:148] Top shape: 100 4096 (409600)
I0403 12:12:35.762260  8588 net.cpp:156] Memory required for data: 828249200
I0403 12:12:35.762290  8588 layer_factory.hpp:77] Creating layer relu7
I0403 12:12:35.762311  8588 net.cpp:91] Creating Layer relu7
I0403 12:12:35.762328  8588 net.cpp:425] relu7 <- fc7
I0403 12:12:35.762347  8588 net.cpp:386] relu7 -> fc7 (in-place)
I0403 12:12:35.762776  8588 net.cpp:141] Setting up relu7
I0403 12:12:35.762804  8588 net.cpp:148] Top shape: 100 4096 (409600)
I0403 12:12:35.762858  8588 net.cpp:156] Memory required for data: 829887600
I0403 12:12:35.762874  8588 layer_factory.hpp:77] Creating layer drop7
I0403 12:12:35.762892  8588 net.cpp:91] Creating Layer drop7
I0403 12:12:35.762907  8588 net.cpp:425] drop7 <- fc7
I0403 12:12:35.762923  8588 net.cpp:386] drop7 -> fc7 (in-place)
I0403 12:12:35.762967  8588 net.cpp:141] Setting up drop7
I0403 12:12:35.762989  8588 net.cpp:148] Top shape: 100 4096 (409600)
I0403 12:12:35.763003  8588 net.cpp:156] Memory required for data: 831526000
I0403 12:12:35.763016  8588 layer_factory.hpp:77] Creating layer fc8_plantvillage
I0403 12:12:35.763037  8588 net.cpp:91] Creating Layer fc8_plantvillage
I0403 12:12:35.763052  8588 net.cpp:425] fc8_plantvillage <- fc7
I0403 12:12:35.763069  8588 net.cpp:399] fc8_plantvillage -> fc8_plantvillage
I0403 12:12:35.770123  8588 net.cpp:141] Setting up fc8_plantvillage
I0403 12:12:35.770153  8588 net.cpp:148] Top shape: 100 38 (3800)
I0403 12:12:35.770166  8588 net.cpp:156] Memory required for data: 831541200
I0403 12:12:35.770184  8588 layer_factory.hpp:77] Creating layer fc8_plantvillage_fc8_plantvillage_0_split
I0403 12:12:35.770203  8588 net.cpp:91] Creating Layer fc8_plantvillage_fc8_plantvillage_0_split
I0403 12:12:35.770218  8588 net.cpp:425] fc8_plantvillage_fc8_plantvillage_0_split <- fc8_plantvillage
I0403 12:12:35.770237  8588 net.cpp:399] fc8_plantvillage_fc8_plantvillage_0_split -> fc8_plantvillage_fc8_plantvillage_0_split_0
I0403 12:12:35.770261  8588 net.cpp:399] fc8_plantvillage_fc8_plantvillage_0_split -> fc8_plantvillage_fc8_plantvillage_0_split_1
I0403 12:12:35.770278  8588 net.cpp:399] fc8_plantvillage_fc8_plantvillage_0_split -> fc8_plantvillage_fc8_plantvillage_0_split_2
I0403 12:12:35.770355  8588 net.cpp:141] Setting up fc8_plantvillage_fc8_plantvillage_0_split
I0403 12:12:35.770380  8588 net.cpp:148] Top shape: 100 38 (3800)
I0403 12:12:35.770396  8588 net.cpp:148] Top shape: 100 38 (3800)
I0403 12:12:35.770411  8588 net.cpp:148] Top shape: 100 38 (3800)
I0403 12:12:35.770424  8588 net.cpp:156] Memory required for data: 831586800
I0403 12:12:35.770437  8588 layer_factory.hpp:77] Creating layer prob
I0403 12:12:35.770455  8588 net.cpp:91] Creating Layer prob
I0403 12:12:35.770470  8588 net.cpp:425] prob <- fc8_plantvillage_fc8_plantvillage_0_split_0
I0403 12:12:35.770488  8588 net.cpp:399] prob -> prob
I0403 12:12:35.770725  8588 net.cpp:141] Setting up prob
I0403 12:12:35.770766  8588 net.cpp:148] Top shape: 100 38 (3800)
I0403 12:12:35.770782  8588 net.cpp:156] Memory required for data: 831602000
I0403 12:12:35.770798  8588 layer_factory.hpp:77] Creating layer hdf5out
I0403 12:12:35.770817  8588 net.cpp:91] Creating Layer hdf5out
I0403 12:12:35.770833  8588 net.cpp:425] hdf5out <- prob
I0403 12:12:35.770848  8588 net.cpp:425] hdf5out <- label_data_1_split_0
I0403 12:12:35.773457  8588 net.cpp:141] Setting up hdf5out
…
