…
I0403 12:13:50.319489  8620 net.cpp:313] The NetState phase (1) differed from the phase (0) specified by a rule in layer data
I0403 12:13:50.319808  8620 net.cpp:49] Initializing net from parameters: 
state {
  phase: TEST
}
layer {
  name: "data"
  type: "Data"
  top: "data"
  top: "label"
  include {
    phase: TEST
  }
  transform_param {
    crop_size: 227
    mean_file: "/home/mohanty/data/final_dataset/lmdb/segmented-20-80/mean.binaryproto"
  }
  data_param {
    source: "/home/mohanty/data/final_dataset/lmdb/segmented-20-80/test_db"
    batch_size: 100
    backend: LMDB
  }
}
layer {
  name: "conv1"
  type: "Convolution"
  bottom: "data"
  top: "conv1"
  param {
    lr_mult: 1
    decay_mult: 1
  }
  param {
    lr_mult: 2
    decay_mult: 0
  }
  convolution_param {
    num_output: 96
    kernel_size: 11
    stride: 4
    weight_filler {
      type: "gaussian"
      std: 0.01
    }
    bias_filler {
      type: "constant"
      value: 0
    }
  }
}
layer {
  name: "relu1"
  type: "ReLU"
  bottom: "conv1"
  top: "conv1"
}
layer {
  name: "norm1"
  type: "LRN"
  bottom: "conv1"
  top: "norm1"
  lrn_param {
    local_size: 5
    alpha: 0.0001
    beta: 0.75
  }
}
layer {
  name: "pool1"
  type: "Pooling"
  bottom: "norm1"
  top: "pool1"
  pooling_param {
    pool: MAX
    kernel_size: 3
    stride: 2
  }
}
layer {
  name: "conv2"
  type: "Convolution"
  bottom: "pool1"
  top: "conv2"
  param {
    lr_mult: 1
    decay_mult: 1
  }
  param {
    lr_mult: 2
    decay_mult: 0
  }
  convolution_param {
    num_output: 256
    pad: 2
    kernel_size: 5
    group: 2
    weight_filler {
      type: "gaussian"
      std: 0.01
    }
    bias_filler {
      type: "constant"
      value: 0.1
    }
  }
}
layer {
  name: "relu2"
  type: "ReLU"
  bottom: "conv2"
  top: "conv2"
}
layer {
  name: "norm2"
  type: "LRN"
  bottom: "conv2"
  top: "norm2"
  lrn_param {
    local_size: 5
    alpha: 0.0001
    beta: 0.75
  }
}
layer {
  name: "pool2"
  type: "Pooling"
  bottom: "norm2"
  top: "pool2"
  pooling_param {
    pool: MAX
    kernel_size: 3
    stride: 2
  }
}
layer {
  name: "conv3"
  type: "Convolution"
  bottom: "pool2"
  top: "conv3"
  param {
    lr_mult: 1
    decay_mult: 1
  }
  param {
    lr_mult: 2
    decay_mult: 0
  }
  convolution_param {
    num_output: 384
    pad: 1
    kernel_size: 3
    weight_filler {
      type: "gaussian"
      std: 0.01
    }
    bias_filler {
      type: "constant"
      value: 0
    }
  }
}
layer {
  name: "relu3"
  type: "ReLU"
  bottom: "conv3"
  top: "conv3"
}
layer {
  name: "conv4"
  type: "Convolution"
  bottom: "conv3"
  top: "conv4"
  param {
    lr_mult: 1
    decay_mult: 1
  }
  param {
    lr_mult: 2
    decay_mult: 0
  }
  convolution_param {
    num_output: 384
    pad: 1
    kernel_size: 3
    group: 2
    weight_filler {
      type: "gaussian"
      std: 0.01
    }
    bias_filler {
      type: "constant"
      value: 0.1
    }
  }
}
layer {
  name: "relu4"
  type: "ReLU"
  bottom: "conv4"
  top: "conv4"
}
layer {
  name: "conv5"
  type: "Convolution"
  bottom: "conv4"
  top: "conv5"
  param {
    lr_mult: 1
    decay_mult: 1
  }
  param {
    lr_mult: 2
    decay_mult: 0
  }
  convolution_param {
    num_output: 256
    pad: 1
    kernel_size: 3
    group: 2
    weight_filler {
      type: "gaussian"
      std: 0.01
    }
    bias_filler {
      type: "constant"
      value: 0.1
    }
  }
}
layer {
  name: "relu5"
  type: "ReLU"
  bottom: "conv5"
  top: "conv5"
}
layer {
  name: "pool5"
  type: "Pooling"
  bottom: "conv5"
  top: "pool5"
  pooling_param {
    pool: MAX
    kernel_size: 3
    stride: 2
  }
}
layer {
  name: "fc6"
  type: "InnerProduct"
  bottom: "pool5"
  top: "fc6"
  param {
    lr_mult: 1
    decay_mult: 1
  }
  param {
    lr_mult: 2
    decay_mult: 0
  }
  inner_product_param {
    num_output: 4096
    weight_filler {
      type: "gaussian"
      std: 0.005
    }
    bias_filler {
      type: "constant"
      value: 0.1
    }
  }
}
layer {
  name: "relu6"
  type: "ReLU"
  bottom: "fc6"
  top: "fc6"
}
layer {
  name: "drop6"
  type: "Dropout"
  bottom: "fc6"
  top: "fc6"
  dropout_param {
    dropout_ratio: 0.5
  }
}
layer {
  name: "fc7"
  type: "InnerProduct"
  bottom: "fc6"
  top: "fc7"
  param {
    lr_mult: 1
    decay_mult: 1
  }
  param {
    lr_mult: 2
    decay_mult: 0
  }
  inner_product_param {
    num_output: 4096
    weight_filler {
      type: "gaussian"
      std: 0.005
    }
    bias_filler {
      type: "constant"
      value: 0.1
    }
  }
}
layer {
  name: "relu7"
  type: "ReLU"
  bottom: "fc7"
  top: "fc7"
}
layer {
  name: "drop7"
  type: "Dropout"
  bottom: "fc7"
  top: "fc7"
  dropout_param {
    dropout_ratio: 0.5
  }
}
layer {
  name: "fc8_plantvillage"
  type: "InnerProduct"
  bottom: "fc7"
  top: "fc8_plantvillage"
  param {
    lr_mult: 1
    decay_mult: 1
  }
  param {
    lr_mult: 2
    decay_mult: 0
  }
  inner_product_param {
    num_output: 38
    weight_filler {
      type: "gaussian"
      std: 0.01
    }
    bias_filler {
      type: "constant"
      value: 0
    }
  }
}
layer {
  name: "prob"
  type: "Softmax"
  bottom: "fc8_plantvillage"
  top: "prob"
  include {
    phase: TEST
  }
}
layer {
  name: "hdf5out"
  type: "HDF5Output"
  bottom: "prob"
  bottom: "label"
  include {
    phase: TEST
  }
  hdf5_output_param {
    file_name: "hdf5_dumps/iter_1060.h5"
  }
}
layer {
  name: "loss"
  type: "SoftmaxWithLoss"
  bottom: "fc8_plantvillage"
  bottom: "label"
  top: "loss"
}
layer {
  name: "accuracy"
  type: "Accuracy"
  bottom: "fc8_plantvillage"
  bottom: "label"
  top: "accuracy"
  include {
    phase: TEST
  }
}
I0403 12:13:50.320428  8620 layer_factory.hpp:77] Creating layer data
I0403 12:13:50.321123  8620 net.cpp:91] Creating Layer data
I0403 12:13:50.321154  8620 net.cpp:399] data -> data
I0403 12:13:50.321207  8620 net.cpp:399] data -> label
I0403 12:13:50.321244  8620 data_transformer.cpp:25] Loading mean file from: /home/mohanty/data/final_dataset/lmdb/segmented-20-80/mean.binaryproto
I0403 12:13:50.325039  8623 db_lmdb.cpp:38] Opened lmdb /home/mohanty/data/final_dataset/lmdb/segmented-20-80/test_db
I0403 12:13:50.339136  8620 data_layer.cpp:41] output data size: 100,3,227,227
I0403 12:13:50.567926  8620 net.cpp:141] Setting up data
I0403 12:13:50.567996  8620 net.cpp:148] Top shape: 100 3 227 227 (15458700)
I0403 12:13:50.568022  8620 net.cpp:148] Top shape: 100 (100)
I0403 12:13:50.568037  8620 net.cpp:156] Memory required for data: 61835200
I0403 12:13:50.568064  8620 layer_factory.hpp:77] Creating layer label_data_1_split
I0403 12:13:50.568089  8620 net.cpp:91] Creating Layer label_data_1_split
I0403 12:13:50.568107  8620 net.cpp:425] label_data_1_split <- label
I0403 12:13:50.568135  8620 net.cpp:399] label_data_1_split -> label_data_1_split_0
I0403 12:13:50.568163  8620 net.cpp:399] label_data_1_split -> label_data_1_split_1
I0403 12:13:50.568183  8620 net.cpp:399] label_data_1_split -> label_data_1_split_2
I0403 12:13:50.568253  8620 net.cpp:141] Setting up label_data_1_split
I0403 12:13:50.568276  8620 net.cpp:148] Top shape: 100 (100)
I0403 12:13:50.568294  8620 net.cpp:148] Top shape: 100 (100)
I0403 12:13:50.568310  8620 net.cpp:148] Top shape: 100 (100)
I0403 12:13:50.568323  8620 net.cpp:156] Memory required for data: 61836400
I0403 12:13:50.568338  8620 layer_factory.hpp:77] Creating layer conv1
I0403 12:13:50.568369  8620 net.cpp:91] Creating Layer conv1
I0403 12:13:50.568388  8620 net.cpp:425] conv1 <- data
I0403 12:13:50.568408  8620 net.cpp:399] conv1 -> conv1
I0403 12:13:52.802264  8620 net.cpp:141] Setting up conv1
I0403 12:13:52.802345  8620 net.cpp:148] Top shape: 100 96 55 55 (29040000)
I0403 12:13:52.802361  8620 net.cpp:156] Memory required for data: 177996400
I0403 12:13:52.802395  8620 layer_factory.hpp:77] Creating layer relu1
I0403 12:13:52.802425  8620 net.cpp:91] Creating Layer relu1
I0403 12:13:52.802443  8620 net.cpp:425] relu1 <- conv1
I0403 12:13:52.802461  8620 net.cpp:386] relu1 -> conv1 (in-place)
I0403 12:13:52.802865  8620 net.cpp:141] Setting up relu1
I0403 12:13:52.802893  8620 net.cpp:148] Top shape: 100 96 55 55 (29040000)
I0403 12:13:52.802952  8620 net.cpp:156] Memory required for data: 294156400
I0403 12:13:52.802968  8620 layer_factory.hpp:77] Creating layer norm1
I0403 12:13:52.802995  8620 net.cpp:91] Creating Layer norm1
I0403 12:13:52.803012  8620 net.cpp:425] norm1 <- conv1
I0403 12:13:52.803030  8620 net.cpp:399] norm1 -> norm1
I0403 12:13:52.803445  8620 net.cpp:141] Setting up norm1
I0403 12:13:52.803472  8620 net.cpp:148] Top shape: 100 96 55 55 (29040000)
I0403 12:13:52.803488  8620 net.cpp:156] Memory required for data: 410316400
I0403 12:13:52.803503  8620 layer_factory.hpp:77] Creating layer pool1
I0403 12:13:52.803525  8620 net.cpp:91] Creating Layer pool1
I0403 12:13:52.803541  8620 net.cpp:425] pool1 <- norm1
I0403 12:13:52.803560  8620 net.cpp:399] pool1 -> pool1
I0403 12:13:52.803671  8620 net.cpp:141] Setting up pool1
I0403 12:13:52.803696  8620 net.cpp:148] Top shape: 100 96 27 27 (6998400)
I0403 12:13:52.803711  8620 net.cpp:156] Memory required for data: 438310000
I0403 12:13:52.803725  8620 layer_factory.hpp:77] Creating layer conv2
I0403 12:13:52.803748  8620 net.cpp:91] Creating Layer conv2
I0403 12:13:52.803766  8620 net.cpp:425] conv2 <- pool1
I0403 12:13:52.803782  8620 net.cpp:399] conv2 -> conv2
I0403 12:13:52.836556  8620 net.cpp:141] Setting up conv2
I0403 12:13:52.836660  8620 net.cpp:148] Top shape: 100 256 27 27 (18662400)
I0403 12:13:52.836678  8620 net.cpp:156] Memory required for data: 512959600
I0403 12:13:52.836706  8620 layer_factory.hpp:77] Creating layer relu2
I0403 12:13:52.836730  8620 net.cpp:91] Creating Layer relu2
I0403 12:13:52.836746  8620 net.cpp:425] relu2 <- conv2
I0403 12:13:52.836766  8620 net.cpp:386] relu2 -> conv2 (in-place)
I0403 12:13:52.837247  8620 net.cpp:141] Setting up relu2
I0403 12:13:52.837275  8620 net.cpp:148] Top shape: 100 256 27 27 (18662400)
I0403 12:13:52.837291  8620 net.cpp:156] Memory required for data: 587609200
I0403 12:13:52.837306  8620 layer_factory.hpp:77] Creating layer norm2
I0403 12:13:52.837328  8620 net.cpp:91] Creating Layer norm2
I0403 12:13:52.837344  8620 net.cpp:425] norm2 <- conv2
I0403 12:13:52.837363  8620 net.cpp:399] norm2 -> norm2
I0403 12:13:52.837553  8620 net.cpp:141] Setting up norm2
I0403 12:13:52.837582  8620 net.cpp:148] Top shape: 100 256 27 27 (18662400)
I0403 12:13:52.837599  8620 net.cpp:156] Memory required for data: 662258800
I0403 12:13:52.837620  8620 layer_factory.hpp:77] Creating layer pool2
I0403 12:13:52.837640  8620 net.cpp:91] Creating Layer pool2
I0403 12:13:52.837653  8620 net.cpp:425] pool2 <- norm2
I0403 12:13:52.837671  8620 net.cpp:399] pool2 -> pool2
I0403 12:13:52.837720  8620 net.cpp:141] Setting up pool2
I0403 12:13:52.837743  8620 net.cpp:148] Top shape: 100 256 13 13 (4326400)
I0403 12:13:52.837756  8620 net.cpp:156] Memory required for data: 679564400
I0403 12:13:52.837770  8620 layer_factory.hpp:77] Creating layer conv3
I0403 12:13:52.837793  8620 net.cpp:91] Creating Layer conv3
I0403 12:13:52.837810  8620 net.cpp:425] conv3 <- pool2
I0403 12:13:52.837827  8620 net.cpp:399] conv3 -> conv3
I0403 12:13:52.890439  8620 net.cpp:141] Setting up conv3
I0403 12:13:52.890511  8620 net.cpp:148] Top shape: 100 384 13 13 (6489600)
I0403 12:13:52.890527  8620 net.cpp:156] Memory required for data: 705522800
I0403 12:13:52.890553  8620 layer_factory.hpp:77] Creating layer relu3
I0403 12:13:52.890580  8620 net.cpp:91] Creating Layer relu3
I0403 12:13:52.890625  8620 net.cpp:425] relu3 <- conv3
I0403 12:13:52.890648  8620 net.cpp:386] relu3 -> conv3 (in-place)
I0403 12:13:52.890918  8620 net.cpp:141] Setting up relu3
I0403 12:13:52.890945  8620 net.cpp:148] Top shape: 100 384 13 13 (6489600)
I0403 12:13:52.890960  8620 net.cpp:156] Memory required for data: 731481200
I0403 12:13:52.890974  8620 layer_factory.hpp:77] Creating layer conv4
I0403 12:13:52.891001  8620 net.cpp:91] Creating Layer conv4
I0403 12:13:52.891017  8620 net.cpp:425] conv4 <- conv3
I0403 12:13:52.891036  8620 net.cpp:399] conv4 -> conv4
I0403 12:13:52.920466  8620 net.cpp:141] Setting up conv4
I0403 12:13:52.920542  8620 net.cpp:148] Top shape: 100 384 13 13 (6489600)
I0403 12:13:52.920603  8620 net.cpp:156] Memory required for data: 757439600
I0403 12:13:52.920624  8620 layer_factory.hpp:77] Creating layer relu4
I0403 12:13:52.920650  8620 net.cpp:91] Creating Layer relu4
I0403 12:13:52.920667  8620 net.cpp:425] relu4 <- conv4
I0403 12:13:52.920686  8620 net.cpp:386] relu4 -> conv4 (in-place)
I0403 12:13:52.921028  8620 net.cpp:141] Setting up relu4
I0403 12:13:52.921056  8620 net.cpp:148] Top shape: 100 384 13 13 (6489600)
I0403 12:13:52.921072  8620 net.cpp:156] Memory required for data: 783398000
I0403 12:13:52.921087  8620 layer_factory.hpp:77] Creating layer conv5
I0403 12:13:52.921113  8620 net.cpp:91] Creating Layer conv5
I0403 12:13:52.921128  8620 net.cpp:425] conv5 <- conv4
I0403 12:13:52.921149  8620 net.cpp:399] conv5 -> conv5
I0403 12:13:52.941597  8620 net.cpp:141] Setting up conv5
I0403 12:13:52.941666  8620 net.cpp:148] Top shape: 100 256 13 13 (4326400)
I0403 12:13:52.941684  8620 net.cpp:156] Memory required for data: 800703600
I0403 12:13:52.941711  8620 layer_factory.hpp:77] Creating layer relu5
I0403 12:13:52.941735  8620 net.cpp:91] Creating Layer relu5
I0403 12:13:52.941752  8620 net.cpp:425] relu5 <- conv5
I0403 12:13:52.941771  8620 net.cpp:386] relu5 -> conv5 (in-place)
I0403 12:13:52.942045  8620 net.cpp:141] Setting up relu5
I0403 12:13:52.942072  8620 net.cpp:148] Top shape: 100 256 13 13 (4326400)
I0403 12:13:52.942090  8620 net.cpp:156] Memory required for data: 818009200
I0403 12:13:52.942104  8620 layer_factory.hpp:77] Creating layer pool5
I0403 12:13:52.942126  8620 net.cpp:91] Creating Layer pool5
I0403 12:13:52.942140  8620 net.cpp:425] pool5 <- conv5
I0403 12:13:52.942157  8620 net.cpp:399] pool5 -> pool5
I0403 12:13:52.942268  8620 net.cpp:141] Setting up pool5
I0403 12:13:52.942293  8620 net.cpp:148] Top shape: 100 256 6 6 (921600)
I0403 12:13:52.942308  8620 net.cpp:156] Memory required for data: 821695600
I0403 12:13:52.942322  8620 layer_factory.hpp:77] Creating layer fc6
I0403 12:13:52.942351  8620 net.cpp:91] Creating Layer fc6
I0403 12:13:52.942368  8620 net.cpp:425] fc6 <- pool5
I0403 12:13:52.942389  8620 net.cpp:399] fc6 -> fc6
I0403 12:13:54.474336  8620 net.cpp:141] Setting up fc6
I0403 12:13:54.474416  8620 net.cpp:148] Top shape: 100 4096 (409600)
I0403 12:13:54.474431  8620 net.cpp:156] Memory required for data: 823334000
I0403 12:13:54.474452  8620 layer_factory.hpp:77] Creating layer relu6
I0403 12:13:54.474472  8620 net.cpp:91] Creating Layer relu6
I0403 12:13:54.474488  8620 net.cpp:425] relu6 <- fc6
I0403 12:13:54.474509  8620 net.cpp:386] relu6 -> fc6 (in-place)
I0403 12:13:54.474737  8620 net.cpp:141] Setting up relu6
I0403 12:13:54.474762  8620 net.cpp:148] Top shape: 100 4096 (409600)
I0403 12:13:54.474776  8620 net.cpp:156] Memory required for data: 824972400
I0403 12:13:54.474789  8620 layer_factory.hpp:77] Creating layer drop6
I0403 12:13:54.474809  8620 net.cpp:91] Creating Layer drop6
I0403 12:13:54.474824  8620 net.cpp:425] drop6 <- fc6
I0403 12:13:54.474839  8620 net.cpp:386] drop6 -> fc6 (in-place)
I0403 12:13:54.474897  8620 net.cpp:141] Setting up drop6
I0403 12:13:54.474920  8620 net.cpp:148] Top shape: 100 4096 (409600)
I0403 12:13:54.474932  8620 net.cpp:156] Memory required for data: 826610800
I0403 12:13:54.474946  8620 layer_factory.hpp:77] Creating layer fc7
I0403 12:13:54.474967  8620 net.cpp:91] Creating Layer fc7
I0403 12:13:54.474982  8620 net.cpp:425] fc7 <- fc6
I0403 12:13:54.474999  8620 net.cpp:399] fc7 -> fc7
I0403 12:13:55.153228  8620 net.cpp:141] Setting up fc7
I0403 12:13:55.153307  8620 net.cpp:148] Top shape: 100 4096 (409600)
I0403 12:13:55.153322  8620 net.cpp:156] Memory required for data: 828249200
I0403 12:13:55.153343  8620 layer_factory.hpp:77] Creating layer relu7
I0403 12:13:55.153367  8620 net.cpp:91] Creating Layer relu7
I0403 12:13:55.153383  8620 net.cpp:425] relu7 <- fc7
I0403 12:13:55.153401  8620 net.cpp:386] relu7 -> fc7 (in-place)
I0403 12:13:55.153808  8620 net.cpp:141] Setting up relu7
I0403 12:13:55.153833  8620 net.cpp:148] Top shape: 100 4096 (409600)
I0403 12:13:55.153900  8620 net.cpp:156] Memory required for data: 829887600
I0403 12:13:55.153915  8620 layer_factory.hpp:77] Creating layer drop7
I0403 12:13:55.153935  8620 net.cpp:91] Creating Layer drop7
I0403 12:13:55.153951  8620 net.cpp:425] drop7 <- fc7
I0403 12:13:55.153967  8620 net.cpp:386] drop7 -> fc7 (in-place)
I0403 12:13:55.154011  8620 net.cpp:141] Setting up drop7
I0403 12:13:55.154032  8620 net.cpp:148] Top shape: 100 4096 (409600)
I0403 12:13:55.154045  8620 net.cpp:156] Memory required for data: 831526000
I0403 12:13:55.154059  8620 layer_factory.hpp:77] Creating layer fc8_plantvillage
I0403 12:13:55.154078  8620 net.cpp:91] Creating Layer fc8_plantvillage
I0403 12:13:55.154093  8620 net.cpp:425] fc8_plantvillage <- fc7
I0403 12:13:55.154111  8620 net.cpp:399] fc8_plantvillage -> fc8_plantvillage
I0403 12:13:55.160650  8620 net.cpp:141] Setting up fc8_plantvillage
I0403 12:13:55.160681  8620 net.cpp:148] Top shape: 100 38 (3800)
I0403 12:13:55.160696  8620 net.cpp:156] Memory required for data: 831541200
I0403 12:13:55.160712  8620 layer_factory.hpp:77] Creating layer fc8_plantvillage_fc8_plantvillage_0_split
I0403 12:13:55.160730  8620 net.cpp:91] Creating Layer fc8_plantvillage_fc8_plantvillage_0_split
I0403 12:13:55.160744  8620 net.cpp:425] fc8_plantvillage_fc8_plantvillage_0_split <- fc8_plantvillage
I0403 12:13:55.160761  8620 net.cpp:399] fc8_plantvillage_fc8_plantvillage_0_split -> fc8_plantvillage_fc8_plantvillage_0_split_0
I0403 12:13:55.160780  8620 net.cpp:399] fc8_plantvillage_fc8_plantvillage_0_split -> fc8_plantvillage_fc8_plantvillage_0_split_1
I0403 12:13:55.160799  8620 net.cpp:399] fc8_plantvillage_fc8_plantvillage_0_split -> fc8_plantvillage_fc8_plantvillage_0_split_2
I0403 12:13:55.160871  8620 net.cpp:141] Setting up fc8_plantvillage_fc8_plantvillage_0_split
I0403 12:13:55.160893  8620 net.cpp:148] Top shape: 100 38 (3800)
I0403 12:13:55.160909  8620 net.cpp:148] Top shape: 100 38 (3800)
I0403 12:13:55.160923  8620 net.cpp:148] Top shape: 100 38 (3800)
I0403 12:13:55.160935  8620 net.cpp:156] Memory required for data: 831586800
I0403 12:13:55.160949  8620 layer_factory.hpp:77] Creating layer prob
I0403 12:13:55.160966  8620 net.cpp:91] Creating Layer prob
I0403 12:13:55.160980  8620 net.cpp:425] prob <- fc8_plantvillage_fc8_plantvillage_0_split_0
I0403 12:13:55.160997  8620 net.cpp:399] prob -> prob
I0403 12:13:55.161211  8620 net.cpp:141] Setting up prob
I0403 12:13:55.161236  8620 net.cpp:148] Top shape: 100 38 (3800)
I0403 12:13:55.161249  8620 net.cpp:156] Memory required for data: 831602000
I0403 12:13:55.161264  8620 layer_factory.hpp:77] Creating layer hdf5out
I0403 12:13:55.161284  8620 net.cpp:91] Creating Layer hdf5out
I0403 12:13:55.161300  8620 net.cpp:425] hdf5out <- prob
I0403 12:13:55.161316  8620 net.cpp:425] hdf5out <- label_data_1_split_0
I0403 12:13:55.163662  8620 net.cpp:141] Setting up hdf5out
…
