…
I0403 12:22:51.170131  8823 net.cpp:313] The NetState phase (1) differed from the phase (0) specified by a rule in layer data
I0403 12:22:51.170434  8823 net.cpp:49] Initializing net from parameters: 
state {
  phase: TEST
}
layer {
  name: "data"
  type: "Data"
  top: "data"
  top: "label"
  include {
    phase: TEST
  }
  transform_param {
    crop_size: 227
    mean_file: "/home/mohanty/data/final_dataset/lmdb/segmented-20-80/mean.binaryproto"
  }
  data_param {
    source: "/home/mohanty/data/final_dataset/lmdb/segmented-20-80/test_db"
    batch_size: 100
    backend: LMDB
  }
}
layer {
  name: "conv1"
  type: "Convolution"
  bottom: "data"
  top: "conv1"
  param {
    lr_mult: 1
    decay_mult: 1
  }
  param {
    lr_mult: 2
    decay_mult: 0
  }
  convolution_param {
    num_output: 96
    kernel_size: 11
    stride: 4
    weight_filler {
      type: "gaussian"
      std: 0.01
    }
    bias_filler {
      type: "constant"
      value: 0
    }
  }
}
layer {
  name: "relu1"
  type: "ReLU"
  bottom: "conv1"
  top: "conv1"
}
layer {
  name: "norm1"
  type: "LRN"
  bottom: "conv1"
  top: "norm1"
  lrn_param {
    local_size: 5
    alpha: 0.0001
    beta: 0.75
  }
}
layer {
  name: "pool1"
  type: "Pooling"
  bottom: "norm1"
  top: "pool1"
  pooling_param {
    pool: MAX
    kernel_size: 3
    stride: 2
  }
}
layer {
  name: "conv2"
  type: "Convolution"
  bottom: "pool1"
  top: "conv2"
  param {
    lr_mult: 1
    decay_mult: 1
  }
  param {
    lr_mult: 2
    decay_mult: 0
  }
  convolution_param {
    num_output: 256
    pad: 2
    kernel_size: 5
    group: 2
    weight_filler {
      type: "gaussian"
      std: 0.01
    }
    bias_filler {
      type: "constant"
      value: 0.1
    }
  }
}
layer {
  name: "relu2"
  type: "ReLU"
  bottom: "conv2"
  top: "conv2"
}
layer {
  name: "norm2"
  type: "LRN"
  bottom: "conv2"
  top: "norm2"
  lrn_param {
    local_size: 5
    alpha: 0.0001
    beta: 0.75
  }
}
layer {
  name: "pool2"
  type: "Pooling"
  bottom: "norm2"
  top: "pool2"
  pooling_param {
    pool: MAX
    kernel_size: 3
    stride: 2
  }
}
layer {
  name: "conv3"
  type: "Convolution"
  bottom: "pool2"
  top: "conv3"
  param {
    lr_mult: 1
    decay_mult: 1
  }
  param {
    lr_mult: 2
    decay_mult: 0
  }
  convolution_param {
    num_output: 384
    pad: 1
    kernel_size: 3
    weight_filler {
      type: "gaussian"
      std: 0.01
    }
    bias_filler {
      type: "constant"
      value: 0
    }
  }
}
layer {
  name: "relu3"
  type: "ReLU"
  bottom: "conv3"
  top: "conv3"
}
layer {
  name: "conv4"
  type: "Convolution"
  bottom: "conv3"
  top: "conv4"
  param {
    lr_mult: 1
    decay_mult: 1
  }
  param {
    lr_mult: 2
    decay_mult: 0
  }
  convolution_param {
    num_output: 384
    pad: 1
    kernel_size: 3
    group: 2
    weight_filler {
      type: "gaussian"
      std: 0.01
    }
    bias_filler {
      type: "constant"
      value: 0.1
    }
  }
}
layer {
  name: "relu4"
  type: "ReLU"
  bottom: "conv4"
  top: "conv4"
}
layer {
  name: "conv5"
  type: "Convolution"
  bottom: "conv4"
  top: "conv5"
  param {
    lr_mult: 1
    decay_mult: 1
  }
  param {
    lr_mult: 2
    decay_mult: 0
  }
  convolution_param {
    num_output: 256
    pad: 1
    kernel_size: 3
    group: 2
    weight_filler {
      type: "gaussian"
      std: 0.01
    }
    bias_filler {
      type: "constant"
      value: 0.1
    }
  }
}
layer {
  name: "relu5"
  type: "ReLU"
  bottom: "conv5"
  top: "conv5"
}
layer {
  name: "pool5"
  type: "Pooling"
  bottom: "conv5"
  top: "pool5"
  pooling_param {
    pool: MAX
    kernel_size: 3
    stride: 2
  }
}
layer {
  name: "fc6"
  type: "InnerProduct"
  bottom: "pool5"
  top: "fc6"
  param {
    lr_mult: 1
    decay_mult: 1
  }
  param {
    lr_mult: 2
    decay_mult: 0
  }
  inner_product_param {
    num_output: 4096
    weight_filler {
      type: "gaussian"
      std: 0.005
    }
    bias_filler {
      type: "constant"
      value: 0.1
    }
  }
}
layer {
  name: "relu6"
  type: "ReLU"
  bottom: "fc6"
  top: "fc6"
}
layer {
  name: "drop6"
  type: "Dropout"
  bottom: "fc6"
  top: "fc6"
  dropout_param {
    dropout_ratio: 0.5
  }
}
layer {
  name: "fc7"
  type: "InnerProduct"
  bottom: "fc6"
  top: "fc7"
  param {
    lr_mult: 1
    decay_mult: 1
  }
  param {
    lr_mult: 2
    decay_mult: 0
  }
  inner_product_param {
    num_output: 4096
    weight_filler {
      type: "gaussian"
      std: 0.005
    }
    bias_filler {
      type: "constant"
      value: 0.1
    }
  }
}
layer {
  name: "relu7"
  type: "ReLU"
  bottom: "fc7"
  top: "fc7"
}
layer {
  name: "drop7"
  type: "Dropout"
  bottom: "fc7"
  top: "fc7"
  dropout_param {
    dropout_ratio: 0.5
  }
}
layer {
  name: "fc8_plantvillage"
  type: "InnerProduct"
  bottom: "fc7"
  top: "fc8_plantvillage"
  param {
    lr_mult: 1
    decay_mult: 1
  }
  param {
    lr_mult: 2
    decay_mult: 0
  }
  inner_product_param {
    num_output: 38
    weight_filler {
      type: "gaussian"
      std: 0.01
    }
    bias_filler {
      type: "constant"
      value: 0
    }
  }
}
layer {
  name: "prob"
  type: "Softmax"
  bottom: "fc8_plantvillage"
  top: "prob"
  include {
    phase: TEST
  }
}
layer {
  name: "hdf5out"
  type: "HDF5Output"
  bottom: "prob"
  bottom: "label"
  include {
    phase: TEST
  }
  hdf5_output_param {
    file_name: "hdf5_dumps/iter_1802.h5"
  }
}
layer {
  name: "loss"
  type: "SoftmaxWithLoss"
  bottom: "fc8_plantvillage"
  bottom: "label"
  top: "loss"
}
layer {
  name: "accuracy"
  type: "Accuracy"
  bottom: "fc8_plantvillage"
  bottom: "label"
  top: "accuracy"
  include {
    phase: TEST
  }
}
I0403 12:22:51.171144  8823 layer_factory.hpp:77] Creating layer data
I0403 12:22:51.171818  8823 net.cpp:91] Creating Layer data
I0403 12:22:51.171849  8823 net.cpp:399] data -> data
I0403 12:22:51.171900  8823 net.cpp:399] data -> label
I0403 12:22:51.171939  8823 data_transformer.cpp:25] Loading mean file from: /home/mohanty/data/final_dataset/lmdb/segmented-20-80/mean.binaryproto
I0403 12:22:51.175179  8826 db_lmdb.cpp:38] Opened lmdb /home/mohanty/data/final_dataset/lmdb/segmented-20-80/test_db
I0403 12:22:51.187566  8823 data_layer.cpp:41] output data size: 100,3,227,227
I0403 12:22:51.306313  8823 net.cpp:141] Setting up data
I0403 12:22:51.306406  8823 net.cpp:148] Top shape: 100 3 227 227 (15458700)
I0403 12:22:51.306427  8823 net.cpp:148] Top shape: 100 (100)
I0403 12:22:51.306442  8823 net.cpp:156] Memory required for data: 61835200
I0403 12:22:51.306469  8823 layer_factory.hpp:77] Creating layer label_data_1_split
I0403 12:22:51.306495  8823 net.cpp:91] Creating Layer label_data_1_split
I0403 12:22:51.306512  8823 net.cpp:425] label_data_1_split <- label
I0403 12:22:51.306545  8823 net.cpp:399] label_data_1_split -> label_data_1_split_0
I0403 12:22:51.306571  8823 net.cpp:399] label_data_1_split -> label_data_1_split_1
I0403 12:22:51.306592  8823 net.cpp:399] label_data_1_split -> label_data_1_split_2
I0403 12:22:51.306659  8823 net.cpp:141] Setting up label_data_1_split
I0403 12:22:51.306684  8823 net.cpp:148] Top shape: 100 (100)
I0403 12:22:51.306699  8823 net.cpp:148] Top shape: 100 (100)
I0403 12:22:51.306715  8823 net.cpp:148] Top shape: 100 (100)
I0403 12:22:51.306728  8823 net.cpp:156] Memory required for data: 61836400
I0403 12:22:51.306743  8823 layer_factory.hpp:77] Creating layer conv1
I0403 12:22:51.306776  8823 net.cpp:91] Creating Layer conv1
I0403 12:22:51.306792  8823 net.cpp:425] conv1 <- data
I0403 12:22:51.306812  8823 net.cpp:399] conv1 -> conv1
I0403 12:22:51.452303  8823 net.cpp:141] Setting up conv1
I0403 12:22:51.452404  8823 net.cpp:148] Top shape: 100 96 55 55 (29040000)
I0403 12:22:51.452422  8823 net.cpp:156] Memory required for data: 177996400
I0403 12:22:51.452455  8823 layer_factory.hpp:77] Creating layer relu1
I0403 12:22:51.452482  8823 net.cpp:91] Creating Layer relu1
I0403 12:22:51.452502  8823 net.cpp:425] relu1 <- conv1
I0403 12:22:51.452520  8823 net.cpp:386] relu1 -> conv1 (in-place)
I0403 12:22:51.452787  8823 net.cpp:141] Setting up relu1
I0403 12:22:51.452816  8823 net.cpp:148] Top shape: 100 96 55 55 (29040000)
I0403 12:22:51.452872  8823 net.cpp:156] Memory required for data: 294156400
I0403 12:22:51.452888  8823 layer_factory.hpp:77] Creating layer norm1
I0403 12:22:51.452914  8823 net.cpp:91] Creating Layer norm1
I0403 12:22:51.452932  8823 net.cpp:425] norm1 <- conv1
I0403 12:22:51.452950  8823 net.cpp:399] norm1 -> norm1
I0403 12:22:51.453279  8823 net.cpp:141] Setting up norm1
I0403 12:22:51.453310  8823 net.cpp:148] Top shape: 100 96 55 55 (29040000)
I0403 12:22:51.453325  8823 net.cpp:156] Memory required for data: 410316400
I0403 12:22:51.453341  8823 layer_factory.hpp:77] Creating layer pool1
I0403 12:22:51.453364  8823 net.cpp:91] Creating Layer pool1
I0403 12:22:51.453382  8823 net.cpp:425] pool1 <- norm1
I0403 12:22:51.453400  8823 net.cpp:399] pool1 -> pool1
I0403 12:22:51.453469  8823 net.cpp:141] Setting up pool1
I0403 12:22:51.453495  8823 net.cpp:148] Top shape: 100 96 27 27 (6998400)
I0403 12:22:51.453510  8823 net.cpp:156] Memory required for data: 438310000
I0403 12:22:51.453526  8823 layer_factory.hpp:77] Creating layer conv2
I0403 12:22:51.453550  8823 net.cpp:91] Creating Layer conv2
I0403 12:22:51.453579  8823 net.cpp:425] conv2 <- pool1
I0403 12:22:51.453598  8823 net.cpp:399] conv2 -> conv2
I0403 12:22:51.469064  8823 net.cpp:141] Setting up conv2
I0403 12:22:51.469113  8823 net.cpp:148] Top shape: 100 256 27 27 (18662400)
I0403 12:22:51.469130  8823 net.cpp:156] Memory required for data: 512959600
I0403 12:22:51.469153  8823 layer_factory.hpp:77] Creating layer relu2
I0403 12:22:51.469175  8823 net.cpp:91] Creating Layer relu2
I0403 12:22:51.469192  8823 net.cpp:425] relu2 <- conv2
I0403 12:22:51.469210  8823 net.cpp:386] relu2 -> conv2 (in-place)
I0403 12:22:51.469550  8823 net.cpp:141] Setting up relu2
I0403 12:22:51.469580  8823 net.cpp:148] Top shape: 100 256 27 27 (18662400)
I0403 12:22:51.469596  8823 net.cpp:156] Memory required for data: 587609200
I0403 12:22:51.469617  8823 layer_factory.hpp:77] Creating layer norm2
I0403 12:22:51.469640  8823 net.cpp:91] Creating Layer norm2
I0403 12:22:51.469657  8823 net.cpp:425] norm2 <- conv2
I0403 12:22:51.469677  8823 net.cpp:399] norm2 -> norm2
I0403 12:22:51.469872  8823 net.cpp:141] Setting up norm2
I0403 12:22:51.469899  8823 net.cpp:148] Top shape: 100 256 27 27 (18662400)
I0403 12:22:51.469915  8823 net.cpp:156] Memory required for data: 662258800
I0403 12:22:51.469931  8823 layer_factory.hpp:77] Creating layer pool2
I0403 12:22:51.469950  8823 net.cpp:91] Creating Layer pool2
I0403 12:22:51.469966  8823 net.cpp:425] pool2 <- norm2
I0403 12:22:51.469985  8823 net.cpp:399] pool2 -> pool2
I0403 12:22:51.470036  8823 net.cpp:141] Setting up pool2
I0403 12:22:51.470059  8823 net.cpp:148] Top shape: 100 256 13 13 (4326400)
I0403 12:22:51.470075  8823 net.cpp:156] Memory required for data: 679564400
I0403 12:22:51.470090  8823 layer_factory.hpp:77] Creating layer conv3
I0403 12:22:51.470113  8823 net.cpp:91] Creating Layer conv3
I0403 12:22:51.470130  8823 net.cpp:425] conv3 <- pool2
I0403 12:22:51.470150  8823 net.cpp:399] conv3 -> conv3
I0403 12:22:51.510213  8823 net.cpp:141] Setting up conv3
I0403 12:22:51.510291  8823 net.cpp:148] Top shape: 100 384 13 13 (6489600)
I0403 12:22:51.510309  8823 net.cpp:156] Memory required for data: 705522800
I0403 12:22:51.510336  8823 layer_factory.hpp:77] Creating layer relu3
I0403 12:22:51.510360  8823 net.cpp:91] Creating Layer relu3
I0403 12:22:51.510378  8823 net.cpp:425] relu3 <- conv3
I0403 12:22:51.510432  8823 net.cpp:386] relu3 -> conv3 (in-place)
I0403 12:22:51.510717  8823 net.cpp:141] Setting up relu3
I0403 12:22:51.510746  8823 net.cpp:148] Top shape: 100 384 13 13 (6489600)
I0403 12:22:51.510761  8823 net.cpp:156] Memory required for data: 731481200
I0403 12:22:51.510776  8823 layer_factory.hpp:77] Creating layer conv4
I0403 12:22:51.510802  8823 net.cpp:91] Creating Layer conv4
I0403 12:22:51.510818  8823 net.cpp:425] conv4 <- conv3
I0403 12:22:51.510838  8823 net.cpp:399] conv4 -> conv4
I0403 12:22:51.542181  8823 net.cpp:141] Setting up conv4
I0403 12:22:51.542254  8823 net.cpp:148] Top shape: 100 384 13 13 (6489600)
I0403 12:22:51.542306  8823 net.cpp:156] Memory required for data: 757439600
I0403 12:22:51.542330  8823 layer_factory.hpp:77] Creating layer relu4
I0403 12:22:51.542354  8823 net.cpp:91] Creating Layer relu4
I0403 12:22:51.542373  8823 net.cpp:425] relu4 <- conv4
I0403 12:22:51.542393  8823 net.cpp:386] relu4 -> conv4 (in-place)
I0403 12:22:51.542695  8823 net.cpp:141] Setting up relu4
I0403 12:22:51.542722  8823 net.cpp:148] Top shape: 100 384 13 13 (6489600)
I0403 12:22:51.542738  8823 net.cpp:156] Memory required for data: 783398000
I0403 12:22:51.542754  8823 layer_factory.hpp:77] Creating layer conv5
I0403 12:22:51.542780  8823 net.cpp:91] Creating Layer conv5
I0403 12:22:51.542799  8823 net.cpp:425] conv5 <- conv4
I0403 12:22:51.542821  8823 net.cpp:399] conv5 -> conv5
I0403 12:22:51.564425  8823 net.cpp:141] Setting up conv5
I0403 12:22:51.564466  8823 net.cpp:148] Top shape: 100 256 13 13 (4326400)
I0403 12:22:51.564483  8823 net.cpp:156] Memory required for data: 800703600
I0403 12:22:51.564512  8823 layer_factory.hpp:77] Creating layer relu5
I0403 12:22:51.564535  8823 net.cpp:91] Creating Layer relu5
I0403 12:22:51.564553  8823 net.cpp:425] relu5 <- conv5
I0403 12:22:51.564571  8823 net.cpp:386] relu5 -> conv5 (in-place)
I0403 12:22:51.564880  8823 net.cpp:141] Setting up relu5
I0403 12:22:51.564909  8823 net.cpp:148] Top shape: 100 256 13 13 (4326400)
I0403 12:22:51.564926  8823 net.cpp:156] Memory required for data: 818009200
I0403 12:22:51.564942  8823 layer_factory.hpp:77] Creating layer pool5
I0403 12:22:51.564963  8823 net.cpp:91] Creating Layer pool5
I0403 12:22:51.564980  8823 net.cpp:425] pool5 <- conv5
I0403 12:22:51.565001  8823 net.cpp:399] pool5 -> pool5
I0403 12:22:51.565063  8823 net.cpp:141] Setting up pool5
I0403 12:22:51.565088  8823 net.cpp:148] Top shape: 100 256 6 6 (921600)
I0403 12:22:51.565102  8823 net.cpp:156] Memory required for data: 821695600
I0403 12:22:51.565116  8823 layer_factory.hpp:77] Creating layer fc6
I0403 12:22:51.565145  8823 net.cpp:91] Creating Layer fc6
I0403 12:22:51.565163  8823 net.cpp:425] fc6 <- pool5
I0403 12:22:51.565183  8823 net.cpp:399] fc6 -> fc6
I0403 12:22:53.126780  8823 net.cpp:141] Setting up fc6
I0403 12:22:53.126859  8823 net.cpp:148] Top shape: 100 4096 (409600)
I0403 12:22:53.126875  8823 net.cpp:156] Memory required for data: 823334000
I0403 12:22:53.126898  8823 layer_factory.hpp:77] Creating layer relu6
I0403 12:22:53.126919  8823 net.cpp:91] Creating Layer relu6
I0403 12:22:53.126935  8823 net.cpp:425] relu6 <- fc6
I0403 12:22:53.126957  8823 net.cpp:386] relu6 -> fc6 (in-place)
I0403 12:22:53.127182  8823 net.cpp:141] Setting up relu6
I0403 12:22:53.127207  8823 net.cpp:148] Top shape: 100 4096 (409600)
I0403 12:22:53.127220  8823 net.cpp:156] Memory required for data: 824972400
I0403 12:22:53.127234  8823 layer_factory.hpp:77] Creating layer drop6
I0403 12:22:53.127259  8823 net.cpp:91] Creating Layer drop6
I0403 12:22:53.127275  8823 net.cpp:425] drop6 <- fc6
I0403 12:22:53.127292  8823 net.cpp:386] drop6 -> fc6 (in-place)
I0403 12:22:53.127344  8823 net.cpp:141] Setting up drop6
I0403 12:22:53.127367  8823 net.cpp:148] Top shape: 100 4096 (409600)
I0403 12:22:53.127382  8823 net.cpp:156] Memory required for data: 826610800
I0403 12:22:53.127394  8823 layer_factory.hpp:77] Creating layer fc7
I0403 12:22:53.127416  8823 net.cpp:91] Creating Layer fc7
I0403 12:22:53.127432  8823 net.cpp:425] fc7 <- fc6
I0403 12:22:53.127449  8823 net.cpp:399] fc7 -> fc7
I0403 12:22:53.811705  8823 net.cpp:141] Setting up fc7
I0403 12:22:53.811782  8823 net.cpp:148] Top shape: 100 4096 (409600)
I0403 12:22:53.811797  8823 net.cpp:156] Memory required for data: 828249200
I0403 12:22:53.811818  8823 layer_factory.hpp:77] Creating layer relu7
I0403 12:22:53.811841  8823 net.cpp:91] Creating Layer relu7
I0403 12:22:53.811859  8823 net.cpp:425] relu7 <- fc7
I0403 12:22:53.811878  8823 net.cpp:386] relu7 -> fc7 (in-place)
I0403 12:22:53.812280  8823 net.cpp:141] Setting up relu7
I0403 12:22:53.812306  8823 net.cpp:148] Top shape: 100 4096 (409600)
I0403 12:22:53.812361  8823 net.cpp:156] Memory required for data: 829887600
I0403 12:22:53.812377  8823 layer_factory.hpp:77] Creating layer drop7
I0403 12:22:53.812400  8823 net.cpp:91] Creating Layer drop7
I0403 12:22:53.812417  8823 net.cpp:425] drop7 <- fc7
I0403 12:22:53.812433  8823 net.cpp:386] drop7 -> fc7 (in-place)
I0403 12:22:53.812479  8823 net.cpp:141] Setting up drop7
I0403 12:22:53.812500  8823 net.cpp:148] Top shape: 100 4096 (409600)
I0403 12:22:53.812515  8823 net.cpp:156] Memory required for data: 831526000
I0403 12:22:53.812528  8823 layer_factory.hpp:77] Creating layer fc8_plantvillage
I0403 12:22:53.812547  8823 net.cpp:91] Creating Layer fc8_plantvillage
I0403 12:22:53.812562  8823 net.cpp:425] fc8_plantvillage <- fc7
I0403 12:22:53.812582  8823 net.cpp:399] fc8_plantvillage -> fc8_plantvillage
I0403 12:22:53.819298  8823 net.cpp:141] Setting up fc8_plantvillage
I0403 12:22:53.819329  8823 net.cpp:148] Top shape: 100 38 (3800)
I0403 12:22:53.819345  8823 net.cpp:156] Memory required for data: 831541200
I0403 12:22:53.819363  8823 layer_factory.hpp:77] Creating layer fc8_plantvillage_fc8_plantvillage_0_split
I0403 12:22:53.819381  8823 net.cpp:91] Creating Layer fc8_plantvillage_fc8_plantvillage_0_split
I0403 12:22:53.819396  8823 net.cpp:425] fc8_plantvillage_fc8_plantvillage_0_split <- fc8_plantvillage
I0403 12:22:53.819412  8823 net.cpp:399] fc8_plantvillage_fc8_plantvillage_0_split -> fc8_plantvillage_fc8_plantvillage_0_split_0
I0403 12:22:53.819432  8823 net.cpp:399] fc8_plantvillage_fc8_plantvillage_0_split -> fc8_plantvillage_fc8_plantvillage_0_split_1
I0403 12:22:53.819454  8823 net.cpp:399] fc8_plantvillage_fc8_plantvillage_0_split -> fc8_plantvillage_fc8_plantvillage_0_split_2
I0403 12:22:53.819533  8823 net.cpp:141] Setting up fc8_plantvillage_fc8_plantvillage_0_split
I0403 12:22:53.819556  8823 net.cpp:148] Top shape: 100 38 (3800)
I0403 12:22:53.819572  8823 net.cpp:148] Top shape: 100 38 (3800)
I0403 12:22:53.819587  8823 net.cpp:148] Top shape: 100 38 (3800)
I0403 12:22:53.819603  8823 net.cpp:156] Memory required for data: 831586800
I0403 12:22:53.819619  8823 layer_factory.hpp:77] Creating layer prob
I0403 12:22:53.819638  8823 net.cpp:91] Creating Layer prob
I0403 12:22:53.819653  8823 net.cpp:425] prob <- fc8_plantvillage_fc8_plantvillage_0_split_0
I0403 12:22:53.819670  8823 net.cpp:399] prob -> prob
I0403 12:22:53.819896  8823 net.cpp:141] Setting up prob
I0403 12:22:53.819921  8823 net.cpp:148] Top shape: 100 38 (3800)
I0403 12:22:53.819936  8823 net.cpp:156] Memory required for data: 831602000
I0403 12:22:53.819950  8823 layer_factory.hpp:77] Creating layer hdf5out
I0403 12:22:53.819972  8823 net.cpp:91] Creating Layer hdf5out
I0403 12:22:53.819988  8823 net.cpp:425] hdf5out <- prob
I0403 12:22:53.820004  8823 net.cpp:425] hdf5out <- label_data_1_split_0
I0403 12:22:53.940403  8823 net.cpp:141] Setting up hdf5out
…
