…
I0403 12:07:26.268903  8463 net.cpp:313] The NetState phase (1) differed from the phase (0) specified by a rule in layer data
I0403 12:07:26.269222  8463 net.cpp:49] Initializing net from parameters: 
state {
  phase: TEST
}
layer {
  name: "data"
  type: "Data"
  top: "data"
  top: "label"
  include {
    phase: TEST
  }
  transform_param {
    crop_size: 227
    mean_file: "/home/mohanty/data/final_dataset/lmdb/segmented-20-80/mean.binaryproto"
  }
  data_param {
    source: "/home/mohanty/data/final_dataset/lmdb/segmented-20-80/test_db"
    batch_size: 100
    backend: LMDB
  }
}
layer {
  name: "conv1"
  type: "Convolution"
  bottom: "data"
  top: "conv1"
  param {
    lr_mult: 1
    decay_mult: 1
  }
  param {
    lr_mult: 2
    decay_mult: 0
  }
  convolution_param {
    num_output: 96
    kernel_size: 11
    stride: 4
    weight_filler {
      type: "gaussian"
      std: 0.01
    }
    bias_filler {
      type: "constant"
      value: 0
    }
  }
}
layer {
  name: "relu1"
  type: "ReLU"
  bottom: "conv1"
  top: "conv1"
}
layer {
  name: "norm1"
  type: "LRN"
  bottom: "conv1"
  top: "norm1"
  lrn_param {
    local_size: 5
    alpha: 0.0001
    beta: 0.75
  }
}
layer {
  name: "pool1"
  type: "Pooling"
  bottom: "norm1"
  top: "pool1"
  pooling_param {
    pool: MAX
    kernel_size: 3
    stride: 2
  }
}
layer {
  name: "conv2"
  type: "Convolution"
  bottom: "pool1"
  top: "conv2"
  param {
    lr_mult: 1
    decay_mult: 1
  }
  param {
    lr_mult: 2
    decay_mult: 0
  }
  convolution_param {
    num_output: 256
    pad: 2
    kernel_size: 5
    group: 2
    weight_filler {
      type: "gaussian"
      std: 0.01
    }
    bias_filler {
      type: "constant"
      value: 0.1
    }
  }
}
layer {
  name: "relu2"
  type: "ReLU"
  bottom: "conv2"
  top: "conv2"
}
layer {
  name: "norm2"
  type: "LRN"
  bottom: "conv2"
  top: "norm2"
  lrn_param {
    local_size: 5
    alpha: 0.0001
    beta: 0.75
  }
}
layer {
  name: "pool2"
  type: "Pooling"
  bottom: "norm2"
  top: "pool2"
  pooling_param {
    pool: MAX
    kernel_size: 3
    stride: 2
  }
}
layer {
  name: "conv3"
  type: "Convolution"
  bottom: "pool2"
  top: "conv3"
  param {
    lr_mult: 1
    decay_mult: 1
  }
  param {
    lr_mult: 2
    decay_mult: 0
  }
  convolution_param {
    num_output: 384
    pad: 1
    kernel_size: 3
    weight_filler {
      type: "gaussian"
      std: 0.01
    }
    bias_filler {
      type: "constant"
      value: 0
    }
  }
}
layer {
  name: "relu3"
  type: "ReLU"
  bottom: "conv3"
  top: "conv3"
}
layer {
  name: "conv4"
  type: "Convolution"
  bottom: "conv3"
  top: "conv4"
  param {
    lr_mult: 1
    decay_mult: 1
  }
  param {
    lr_mult: 2
    decay_mult: 0
  }
  convolution_param {
    num_output: 384
    pad: 1
    kernel_size: 3
    group: 2
    weight_filler {
      type: "gaussian"
      std: 0.01
    }
    bias_filler {
      type: "constant"
      value: 0.1
    }
  }
}
layer {
  name: "relu4"
  type: "ReLU"
  bottom: "conv4"
  top: "conv4"
}
layer {
  name: "conv5"
  type: "Convolution"
  bottom: "conv4"
  top: "conv5"
  param {
    lr_mult: 1
    decay_mult: 1
  }
  param {
    lr_mult: 2
    decay_mult: 0
  }
  convolution_param {
    num_output: 256
    pad: 1
    kernel_size: 3
    group: 2
    weight_filler {
      type: "gaussian"
      std: 0.01
    }
    bias_filler {
      type: "constant"
      value: 0.1
    }
  }
}
layer {
  name: "relu5"
  type: "ReLU"
  bottom: "conv5"
  top: "conv5"
}
layer {
  name: "pool5"
  type: "Pooling"
  bottom: "conv5"
  top: "pool5"
  pooling_param {
    pool: MAX
    kernel_size: 3
    stride: 2
  }
}
layer {
  name: "fc6"
  type: "InnerProduct"
  bottom: "pool5"
  top: "fc6"
  param {
    lr_mult: 1
    decay_mult: 1
  }
  param {
    lr_mult: 2
    decay_mult: 0
  }
  inner_product_param {
    num_output: 4096
    weight_filler {
      type: "gaussian"
      std: 0.005
    }
    bias_filler {
      type: "constant"
      value: 0.1
    }
  }
}
layer {
  name: "relu6"
  type: "ReLU"
  bottom: "fc6"
  top: "fc6"
}
layer {
  name: "drop6"
  type: "Dropout"
  bottom: "fc6"
  top: "fc6"
  dropout_param {
    dropout_ratio: 0.5
  }
}
layer {
  name: "fc7"
  type: "InnerProduct"
  bottom: "fc6"
  top: "fc7"
  param {
    lr_mult: 1
    decay_mult: 1
  }
  param {
    lr_mult: 2
    decay_mult: 0
  }
  inner_product_param {
    num_output: 4096
    weight_filler {
      type: "gaussian"
      std: 0.005
    }
    bias_filler {
      type: "constant"
      value: 0.1
    }
  }
}
layer {
  name: "relu7"
  type: "ReLU"
  bottom: "fc7"
  top: "fc7"
}
layer {
  name: "drop7"
  type: "Dropout"
  bottom: "fc7"
  top: "fc7"
  dropout_param {
    dropout_ratio: 0.5
  }
}
layer {
  name: "fc8_plantvillage"
  type: "InnerProduct"
  bottom: "fc7"
  top: "fc8_plantvillage"
  param {
    lr_mult: 1
    decay_mult: 1
  }
  param {
    lr_mult: 2
    decay_mult: 0
  }
  inner_product_param {
    num_output: 38
    weight_filler {
      type: "gaussian"
      std: 0.01
    }
    bias_filler {
      type: "constant"
      value: 0
    }
  }
}
layer {
  name: "prob"
  type: "Softmax"
  bottom: "fc8_plantvillage"
  top: "prob"
  include {
    phase: TEST
  }
}
layer {
  name: "hdf5out"
  type: "HDF5Output"
  bottom: "prob"
  bottom: "label"
  include {
    phase: TEST
  }
  hdf5_output_param {
    file_name: "hdf5_dumps/iter_530.h5"
  }
}
layer {
  name: "loss"
  type: "SoftmaxWithLoss"
  bottom: "fc8_plantvillage"
  bottom: "label"
  top: "loss"
}
layer {
  name: "accuracy"
  type: "Accuracy"
  bottom: "fc8_plantvillage"
  bottom: "label"
  top: "accuracy"
  include {
    phase: TEST
  }
}
I0403 12:07:26.274770  8463 layer_factory.hpp:77] Creating layer data
I0403 12:07:26.275455  8463 net.cpp:91] Creating Layer data
I0403 12:07:26.275485  8463 net.cpp:399] data -> data
I0403 12:07:26.275533  8463 net.cpp:399] data -> label
I0403 12:07:26.275575  8463 data_transformer.cpp:25] Loading mean file from: /home/mohanty/data/final_dataset/lmdb/segmented-20-80/mean.binaryproto
I0403 12:07:26.284837  8465 db_lmdb.cpp:38] Opened lmdb /home/mohanty/data/final_dataset/lmdb/segmented-20-80/test_db
I0403 12:07:26.292390  8463 data_layer.cpp:41] output data size: 100,3,227,227
I0403 12:07:26.413053  8463 net.cpp:141] Setting up data
I0403 12:07:26.413146  8463 net.cpp:148] Top shape: 100 3 227 227 (15458700)
I0403 12:07:26.413172  8463 net.cpp:148] Top shape: 100 (100)
I0403 12:07:26.413187  8463 net.cpp:156] Memory required for data: 61835200
I0403 12:07:26.413215  8463 layer_factory.hpp:77] Creating layer label_data_1_split
I0403 12:07:26.413242  8463 net.cpp:91] Creating Layer label_data_1_split
I0403 12:07:26.413262  8463 net.cpp:425] label_data_1_split <- label
I0403 12:07:26.413295  8463 net.cpp:399] label_data_1_split -> label_data_1_split_0
I0403 12:07:26.413323  8463 net.cpp:399] label_data_1_split -> label_data_1_split_1
I0403 12:07:26.413344  8463 net.cpp:399] label_data_1_split -> label_data_1_split_2
I0403 12:07:26.413409  8463 net.cpp:141] Setting up label_data_1_split
I0403 12:07:26.413434  8463 net.cpp:148] Top shape: 100 (100)
I0403 12:07:26.413450  8463 net.cpp:148] Top shape: 100 (100)
I0403 12:07:26.413466  8463 net.cpp:148] Top shape: 100 (100)
I0403 12:07:26.413480  8463 net.cpp:156] Memory required for data: 61836400
I0403 12:07:26.413494  8463 layer_factory.hpp:77] Creating layer conv1
I0403 12:07:26.413527  8463 net.cpp:91] Creating Layer conv1
I0403 12:07:26.413545  8463 net.cpp:425] conv1 <- data
I0403 12:07:26.413564  8463 net.cpp:399] conv1 -> conv1
I0403 12:07:26.554237  8463 net.cpp:141] Setting up conv1
I0403 12:07:26.554318  8463 net.cpp:148] Top shape: 100 96 55 55 (29040000)
I0403 12:07:26.554337  8463 net.cpp:156] Memory required for data: 177996400
I0403 12:07:26.554368  8463 layer_factory.hpp:77] Creating layer relu1
I0403 12:07:26.554401  8463 net.cpp:91] Creating Layer relu1
I0403 12:07:26.554421  8463 net.cpp:425] relu1 <- conv1
I0403 12:07:26.554440  8463 net.cpp:386] relu1 -> conv1 (in-place)
I0403 12:07:26.554723  8463 net.cpp:141] Setting up relu1
I0403 12:07:26.554751  8463 net.cpp:148] Top shape: 100 96 55 55 (29040000)
I0403 12:07:26.554803  8463 net.cpp:156] Memory required for data: 294156400
I0403 12:07:26.554821  8463 layer_factory.hpp:77] Creating layer norm1
I0403 12:07:26.554847  8463 net.cpp:91] Creating Layer norm1
I0403 12:07:26.554867  8463 net.cpp:425] norm1 <- conv1
I0403 12:07:26.554884  8463 net.cpp:399] norm1 -> norm1
I0403 12:07:26.555207  8463 net.cpp:141] Setting up norm1
I0403 12:07:26.555236  8463 net.cpp:148] Top shape: 100 96 55 55 (29040000)
I0403 12:07:26.555251  8463 net.cpp:156] Memory required for data: 410316400
I0403 12:07:26.555266  8463 layer_factory.hpp:77] Creating layer pool1
I0403 12:07:26.555289  8463 net.cpp:91] Creating Layer pool1
I0403 12:07:26.555307  8463 net.cpp:425] pool1 <- norm1
I0403 12:07:26.555325  8463 net.cpp:399] pool1 -> pool1
I0403 12:07:26.555393  8463 net.cpp:141] Setting up pool1
I0403 12:07:26.555418  8463 net.cpp:148] Top shape: 100 96 27 27 (6998400)
I0403 12:07:26.555433  8463 net.cpp:156] Memory required for data: 438310000
I0403 12:07:26.555447  8463 layer_factory.hpp:77] Creating layer conv2
I0403 12:07:26.555471  8463 net.cpp:91] Creating Layer conv2
I0403 12:07:26.555488  8463 net.cpp:425] conv2 <- pool1
I0403 12:07:26.555506  8463 net.cpp:399] conv2 -> conv2
I0403 12:07:26.570948  8463 net.cpp:141] Setting up conv2
I0403 12:07:26.571005  8463 net.cpp:148] Top shape: 100 256 27 27 (18662400)
I0403 12:07:26.571023  8463 net.cpp:156] Memory required for data: 512959600
I0403 12:07:26.571048  8463 layer_factory.hpp:77] Creating layer relu2
I0403 12:07:26.571069  8463 net.cpp:91] Creating Layer relu2
I0403 12:07:26.571085  8463 net.cpp:425] relu2 <- conv2
I0403 12:07:26.571105  8463 net.cpp:386] relu2 -> conv2 (in-place)
I0403 12:07:26.571394  8463 net.cpp:141] Setting up relu2
I0403 12:07:26.571422  8463 net.cpp:148] Top shape: 100 256 27 27 (18662400)
I0403 12:07:26.571439  8463 net.cpp:156] Memory required for data: 587609200
I0403 12:07:26.571454  8463 layer_factory.hpp:77] Creating layer norm2
I0403 12:07:26.571480  8463 net.cpp:91] Creating Layer norm2
I0403 12:07:26.571497  8463 net.cpp:425] norm2 <- conv2
I0403 12:07:26.571516  8463 net.cpp:399] norm2 -> norm2
I0403 12:07:26.571728  8463 net.cpp:141] Setting up norm2
I0403 12:07:26.571758  8463 net.cpp:148] Top shape: 100 256 27 27 (18662400)
I0403 12:07:26.571774  8463 net.cpp:156] Memory required for data: 662258800
I0403 12:07:26.571789  8463 layer_factory.hpp:77] Creating layer pool2
I0403 12:07:26.571807  8463 net.cpp:91] Creating Layer pool2
I0403 12:07:26.571823  8463 net.cpp:425] pool2 <- norm2
I0403 12:07:26.571841  8463 net.cpp:399] pool2 -> pool2
I0403 12:07:26.571897  8463 net.cpp:141] Setting up pool2
I0403 12:07:26.571921  8463 net.cpp:148] Top shape: 100 256 13 13 (4326400)
I0403 12:07:26.571936  8463 net.cpp:156] Memory required for data: 679564400
I0403 12:07:26.571951  8463 layer_factory.hpp:77] Creating layer conv3
I0403 12:07:26.571976  8463 net.cpp:91] Creating Layer conv3
I0403 12:07:26.571995  8463 net.cpp:425] conv3 <- pool2
I0403 12:07:26.572016  8463 net.cpp:399] conv3 -> conv3
I0403 12:07:26.611570  8463 net.cpp:141] Setting up conv3
I0403 12:07:26.611616  8463 net.cpp:148] Top shape: 100 384 13 13 (6489600)
I0403 12:07:26.611634  8463 net.cpp:156] Memory required for data: 705522800
I0403 12:07:26.611659  8463 layer_factory.hpp:77] Creating layer relu3
I0403 12:07:26.611682  8463 net.cpp:91] Creating Layer relu3
I0403 12:07:26.611699  8463 net.cpp:425] relu3 <- conv3
I0403 12:07:26.611721  8463 net.cpp:386] relu3 -> conv3 (in-place)
I0403 12:07:26.611999  8463 net.cpp:141] Setting up relu3
I0403 12:07:26.612027  8463 net.cpp:148] Top shape: 100 384 13 13 (6489600)
I0403 12:07:26.612043  8463 net.cpp:156] Memory required for data: 731481200
I0403 12:07:26.612058  8463 layer_factory.hpp:77] Creating layer conv4
I0403 12:07:26.612085  8463 net.cpp:91] Creating Layer conv4
I0403 12:07:26.612103  8463 net.cpp:425] conv4 <- conv3
I0403 12:07:26.612121  8463 net.cpp:399] conv4 -> conv4
I0403 12:07:26.642616  8463 net.cpp:141] Setting up conv4
I0403 12:07:26.642688  8463 net.cpp:148] Top shape: 100 384 13 13 (6489600)
I0403 12:07:26.642740  8463 net.cpp:156] Memory required for data: 757439600
I0403 12:07:26.642763  8463 layer_factory.hpp:77] Creating layer relu4
I0403 12:07:26.642791  8463 net.cpp:91] Creating Layer relu4
I0403 12:07:26.642813  8463 net.cpp:425] relu4 <- conv4
I0403 12:07:26.642834  8463 net.cpp:386] relu4 -> conv4 (in-place)
I0403 12:07:26.643124  8463 net.cpp:141] Setting up relu4
I0403 12:07:26.643152  8463 net.cpp:148] Top shape: 100 384 13 13 (6489600)
I0403 12:07:26.643167  8463 net.cpp:156] Memory required for data: 783398000
I0403 12:07:26.643182  8463 layer_factory.hpp:77] Creating layer conv5
I0403 12:07:26.643209  8463 net.cpp:91] Creating Layer conv5
I0403 12:07:26.643226  8463 net.cpp:425] conv5 <- conv4
I0403 12:07:26.643245  8463 net.cpp:399] conv5 -> conv5
I0403 12:07:26.664235  8463 net.cpp:141] Setting up conv5
I0403 12:07:26.664293  8463 net.cpp:148] Top shape: 100 256 13 13 (4326400)
I0403 12:07:26.664309  8463 net.cpp:156] Memory required for data: 800703600
I0403 12:07:26.664335  8463 layer_factory.hpp:77] Creating layer relu5
I0403 12:07:26.664355  8463 net.cpp:91] Creating Layer relu5
I0403 12:07:26.664371  8463 net.cpp:425] relu5 <- conv5
I0403 12:07:26.664387  8463 net.cpp:386] relu5 -> conv5 (in-place)
I0403 12:07:26.664685  8463 net.cpp:141] Setting up relu5
I0403 12:07:26.664715  8463 net.cpp:148] Top shape: 100 256 13 13 (4326400)
I0403 12:07:26.664731  8463 net.cpp:156] Memory required for data: 818009200
I0403 12:07:26.664746  8463 layer_factory.hpp:77] Creating layer pool5
I0403 12:07:26.664767  8463 net.cpp:91] Creating Layer pool5
I0403 12:07:26.664783  8463 net.cpp:425] pool5 <- conv5
I0403 12:07:26.664804  8463 net.cpp:399] pool5 -> pool5
I0403 12:07:26.664867  8463 net.cpp:141] Setting up pool5
I0403 12:07:26.664891  8463 net.cpp:148] Top shape: 100 256 6 6 (921600)
I0403 12:07:26.664906  8463 net.cpp:156] Memory required for data: 821695600
I0403 12:07:26.664919  8463 layer_factory.hpp:77] Creating layer fc6
I0403 12:07:26.664947  8463 net.cpp:91] Creating Layer fc6
I0403 12:07:26.664965  8463 net.cpp:425] fc6 <- pool5
I0403 12:07:26.664985  8463 net.cpp:399] fc6 -> fc6
I0403 12:07:28.210933  8463 net.cpp:141] Setting up fc6
I0403 12:07:28.211009  8463 net.cpp:148] Top shape: 100 4096 (409600)
I0403 12:07:28.211025  8463 net.cpp:156] Memory required for data: 823334000
I0403 12:07:28.211046  8463 layer_factory.hpp:77] Creating layer relu6
I0403 12:07:28.211071  8463 net.cpp:91] Creating Layer relu6
I0403 12:07:28.211088  8463 net.cpp:425] relu6 <- fc6
I0403 12:07:28.211107  8463 net.cpp:386] relu6 -> fc6 (in-place)
I0403 12:07:28.211323  8463 net.cpp:141] Setting up relu6
I0403 12:07:28.211350  8463 net.cpp:148] Top shape: 100 4096 (409600)
I0403 12:07:28.211365  8463 net.cpp:156] Memory required for data: 824972400
I0403 12:07:28.211380  8463 layer_factory.hpp:77] Creating layer drop6
I0403 12:07:28.211397  8463 net.cpp:91] Creating Layer drop6
I0403 12:07:28.211412  8463 net.cpp:425] drop6 <- fc6
I0403 12:07:28.211429  8463 net.cpp:386] drop6 -> fc6 (in-place)
I0403 12:07:28.211482  8463 net.cpp:141] Setting up drop6
I0403 12:07:28.211503  8463 net.cpp:148] Top shape: 100 4096 (409600)
I0403 12:07:28.211518  8463 net.cpp:156] Memory required for data: 826610800
I0403 12:07:28.211531  8463 layer_factory.hpp:77] Creating layer fc7
I0403 12:07:28.211552  8463 net.cpp:91] Creating Layer fc7
I0403 12:07:28.211568  8463 net.cpp:425] fc7 <- fc6
I0403 12:07:28.211585  8463 net.cpp:399] fc7 -> fc7
I0403 12:07:28.894865  8463 net.cpp:141] Setting up fc7
I0403 12:07:28.894942  8463 net.cpp:148] Top shape: 100 4096 (409600)
I0403 12:07:28.894958  8463 net.cpp:156] Memory required for data: 828249200
I0403 12:07:28.894979  8463 layer_factory.hpp:77] Creating layer relu7
I0403 12:07:28.895004  8463 net.cpp:91] Creating Layer relu7
I0403 12:07:28.895021  8463 net.cpp:425] relu7 <- fc7
I0403 12:07:28.895040  8463 net.cpp:386] relu7 -> fc7 (in-place)
I0403 12:07:28.895454  8463 net.cpp:141] Setting up relu7
I0403 12:07:28.895483  8463 net.cpp:148] Top shape: 100 4096 (409600)
I0403 12:07:28.895541  8463 net.cpp:156] Memory required for data: 829887600
I0403 12:07:28.895557  8463 layer_factory.hpp:77] Creating layer drop7
I0403 12:07:28.895576  8463 net.cpp:91] Creating Layer drop7
I0403 12:07:28.895591  8463 net.cpp:425] drop7 <- fc7
I0403 12:07:28.895612  8463 net.cpp:386] drop7 -> fc7 (in-place)
I0403 12:07:28.895659  8463 net.cpp:141] Setting up drop7
I0403 12:07:28.895681  8463 net.cpp:148] Top shape: 100 4096 (409600)
I0403 12:07:28.895696  8463 net.cpp:156] Memory required for data: 831526000
I0403 12:07:28.895710  8463 layer_factory.hpp:77] Creating layer fc8_plantvillage
I0403 12:07:28.895732  8463 net.cpp:91] Creating Layer fc8_plantvillage
I0403 12:07:28.895748  8463 net.cpp:425] fc8_plantvillage <- fc7
I0403 12:07:28.895766  8463 net.cpp:399] fc8_plantvillage -> fc8_plantvillage
I0403 12:07:28.902479  8463 net.cpp:141] Setting up fc8_plantvillage
I0403 12:07:28.902508  8463 net.cpp:148] Top shape: 100 38 (3800)
I0403 12:07:28.902523  8463 net.cpp:156] Memory required for data: 831541200
I0403 12:07:28.902539  8463 layer_factory.hpp:77] Creating layer fc8_plantvillage_fc8_plantvillage_0_split
I0403 12:07:28.902559  8463 net.cpp:91] Creating Layer fc8_plantvillage_fc8_plantvillage_0_split
I0403 12:07:28.902572  8463 net.cpp:425] fc8_plantvillage_fc8_plantvillage_0_split <- fc8_plantvillage
I0403 12:07:28.902602  8463 net.cpp:399] fc8_plantvillage_fc8_plantvillage_0_split -> fc8_plantvillage_fc8_plantvillage_0_split_0
I0403 12:07:28.902626  8463 net.cpp:399] fc8_plantvillage_fc8_plantvillage_0_split -> fc8_plantvillage_fc8_plantvillage_0_split_1
I0403 12:07:28.902647  8463 net.cpp:399] fc8_plantvillage_fc8_plantvillage_0_split -> fc8_plantvillage_fc8_plantvillage_0_split_2
I0403 12:07:28.902724  8463 net.cpp:141] Setting up fc8_plantvillage_fc8_plantvillage_0_split
I0403 12:07:28.902746  8463 net.cpp:148] Top shape: 100 38 (3800)
I0403 12:07:28.902762  8463 net.cpp:148] Top shape: 100 38 (3800)
I0403 12:07:28.902776  8463 net.cpp:148] Top shape: 100 38 (3800)
I0403 12:07:28.902789  8463 net.cpp:156] Memory required for data: 831586800
I0403 12:07:28.902803  8463 layer_factory.hpp:77] Creating layer prob
I0403 12:07:28.902820  8463 net.cpp:91] Creating Layer prob
I0403 12:07:28.902835  8463 net.cpp:425] prob <- fc8_plantvillage_fc8_plantvillage_0_split_0
I0403 12:07:28.902851  8463 net.cpp:399] prob -> prob
I0403 12:07:28.903074  8463 net.cpp:141] Setting up prob
I0403 12:07:28.903098  8463 net.cpp:148] Top shape: 100 38 (3800)
I0403 12:07:28.903112  8463 net.cpp:156] Memory required for data: 831602000
I0403 12:07:28.903126  8463 layer_factory.hpp:77] Creating layer hdf5out
I0403 12:07:28.903148  8463 net.cpp:91] Creating Layer hdf5out
I0403 12:07:28.903164  8463 net.cpp:425] hdf5out <- prob
I0403 12:07:28.903180  8463 net.cpp:425] hdf5out <- label_data_1_split_0
I0403 12:07:28.905694  8463 net.cpp:141] Setting up hdf5out
…
