…
I0403 12:31:50.888255  9033 net.cpp:313] The NetState phase (1) differed from the phase (0) specified by a rule in layer data
I0403 12:31:50.888557  9033 net.cpp:49] Initializing net from parameters: 
state {
  phase: TEST
}
layer {
  name: "data"
  type: "Data"
  top: "data"
  top: "label"
  include {
    phase: TEST
  }
  transform_param {
    crop_size: 227
    mean_file: "/home/mohanty/data/final_dataset/lmdb/segmented-20-80/mean.binaryproto"
  }
  data_param {
    source: "/home/mohanty/data/final_dataset/lmdb/segmented-20-80/test_db"
    batch_size: 100
    backend: LMDB
  }
}
layer {
  name: "conv1"
  type: "Convolution"
  bottom: "data"
  top: "conv1"
  param {
    lr_mult: 1
    decay_mult: 1
  }
  param {
    lr_mult: 2
    decay_mult: 0
  }
  convolution_param {
    num_output: 96
    kernel_size: 11
    stride: 4
    weight_filler {
      type: "gaussian"
      std: 0.01
    }
    bias_filler {
      type: "constant"
      value: 0
    }
  }
}
layer {
  name: "relu1"
  type: "ReLU"
  bottom: "conv1"
  top: "conv1"
}
layer {
  name: "norm1"
  type: "LRN"
  bottom: "conv1"
  top: "norm1"
  lrn_param {
    local_size: 5
    alpha: 0.0001
    beta: 0.75
  }
}
layer {
  name: "pool1"
  type: "Pooling"
  bottom: "norm1"
  top: "pool1"
  pooling_param {
    pool: MAX
    kernel_size: 3
    stride: 2
  }
}
layer {
  name: "conv2"
  type: "Convolution"
  bottom: "pool1"
  top: "conv2"
  param {
    lr_mult: 1
    decay_mult: 1
  }
  param {
    lr_mult: 2
    decay_mult: 0
  }
  convolution_param {
    num_output: 256
    pad: 2
    kernel_size: 5
    group: 2
    weight_filler {
      type: "gaussian"
      std: 0.01
    }
    bias_filler {
      type: "constant"
      value: 0.1
    }
  }
}
layer {
  name: "relu2"
  type: "ReLU"
  bottom: "conv2"
  top: "conv2"
}
layer {
  name: "norm2"
  type: "LRN"
  bottom: "conv2"
  top: "norm2"
  lrn_param {
    local_size: 5
    alpha: 0.0001
    beta: 0.75
  }
}
layer {
  name: "pool2"
  type: "Pooling"
  bottom: "norm2"
  top: "pool2"
  pooling_param {
    pool: MAX
    kernel_size: 3
    stride: 2
  }
}
layer {
  name: "conv3"
  type: "Convolution"
  bottom: "pool2"
  top: "conv3"
  param {
    lr_mult: 1
    decay_mult: 1
  }
  param {
    lr_mult: 2
    decay_mult: 0
  }
  convolution_param {
    num_output: 384
    pad: 1
    kernel_size: 3
    weight_filler {
      type: "gaussian"
      std: 0.01
    }
    bias_filler {
      type: "constant"
      value: 0
    }
  }
}
layer {
  name: "relu3"
  type: "ReLU"
  bottom: "conv3"
  top: "conv3"
}
layer {
  name: "conv4"
  type: "Convolution"
  bottom: "conv3"
  top: "conv4"
  param {
    lr_mult: 1
    decay_mult: 1
  }
  param {
    lr_mult: 2
    decay_mult: 0
  }
  convolution_param {
    num_output: 384
    pad: 1
    kernel_size: 3
    group: 2
    weight_filler {
      type: "gaussian"
      std: 0.01
    }
    bias_filler {
      type: "constant"
      value: 0.1
    }
  }
}
layer {
  name: "relu4"
  type: "ReLU"
  bottom: "conv4"
  top: "conv4"
}
layer {
  name: "conv5"
  type: "Convolution"
  bottom: "conv4"
  top: "conv5"
  param {
    lr_mult: 1
    decay_mult: 1
  }
  param {
    lr_mult: 2
    decay_mult: 0
  }
  convolution_param {
    num_output: 256
    pad: 1
    kernel_size: 3
    group: 2
    weight_filler {
      type: "gaussian"
      std: 0.01
    }
    bias_filler {
      type: "constant"
      value: 0.1
    }
  }
}
layer {
  name: "relu5"
  type: "ReLU"
  bottom: "conv5"
  top: "conv5"
}
layer {
  name: "pool5"
  type: "Pooling"
  bottom: "conv5"
  top: "pool5"
  pooling_param {
    pool: MAX
    kernel_size: 3
    stride: 2
  }
}
layer {
  name: "fc6"
  type: "InnerProduct"
  bottom: "pool5"
  top: "fc6"
  param {
    lr_mult: 1
    decay_mult: 1
  }
  param {
    lr_mult: 2
    decay_mult: 0
  }
  inner_product_param {
    num_output: 4096
    weight_filler {
      type: "gaussian"
      std: 0.005
    }
    bias_filler {
      type: "constant"
      value: 0.1
    }
  }
}
layer {
  name: "relu6"
  type: "ReLU"
  bottom: "fc6"
  top: "fc6"
}
layer {
  name: "drop6"
  type: "Dropout"
  bottom: "fc6"
  top: "fc6"
  dropout_param {
    dropout_ratio: 0.5
  }
}
layer {
  name: "fc7"
  type: "InnerProduct"
  bottom: "fc6"
  top: "fc7"
  param {
    lr_mult: 1
    decay_mult: 1
  }
  param {
    lr_mult: 2
    decay_mult: 0
  }
  inner_product_param {
    num_output: 4096
    weight_filler {
      type: "gaussian"
      std: 0.005
    }
    bias_filler {
      type: "constant"
      value: 0.1
    }
  }
}
layer {
  name: "relu7"
  type: "ReLU"
  bottom: "fc7"
  top: "fc7"
}
layer {
  name: "drop7"
  type: "Dropout"
  bottom: "fc7"
  top: "fc7"
  dropout_param {
    dropout_ratio: 0.5
  }
}
layer {
  name: "fc8_plantvillage"
  type: "InnerProduct"
  bottom: "fc7"
  top: "fc8_plantvillage"
  param {
    lr_mult: 1
    decay_mult: 1
  }
  param {
    lr_mult: 2
    decay_mult: 0
  }
  inner_product_param {
    num_output: 38
    weight_filler {
      type: "gaussian"
      std: 0.01
    }
    bias_filler {
      type: "constant"
      value: 0
    }
  }
}
layer {
  name: "prob"
  type: "Softmax"
  bottom: "fc8_plantvillage"
  top: "prob"
  include {
    phase: TEST
  }
}
layer {
  name: "hdf5out"
  type: "HDF5Output"
  bottom: "prob"
  bottom: "label"
  include {
    phase: TEST
  }
  hdf5_output_param {
    file_name: "hdf5_dumps/iter_2544.h5"
  }
}
layer {
  name: "loss"
  type: "SoftmaxWithLoss"
  bottom: "fc8_plantvillage"
  bottom: "label"
  top: "loss"
}
layer {
  name: "accuracy"
  type: "Accuracy"
  bottom: "fc8_plantvillage"
  bottom: "label"
  top: "accuracy"
  include {
    phase: TEST
  }
}
I0403 12:31:50.889168  9033 layer_factory.hpp:77] Creating layer data
I0403 12:31:50.889824  9033 net.cpp:91] Creating Layer data
I0403 12:31:50.889858  9033 net.cpp:399] data -> data
I0403 12:31:50.889905  9033 net.cpp:399] data -> label
I0403 12:31:50.889941  9033 data_transformer.cpp:25] Loading mean file from: /home/mohanty/data/final_dataset/lmdb/segmented-20-80/mean.binaryproto
I0403 12:31:50.892853  9036 db_lmdb.cpp:38] Opened lmdb /home/mohanty/data/final_dataset/lmdb/segmented-20-80/test_db
I0403 12:31:50.904199  9033 data_layer.cpp:41] output data size: 100,3,227,227
I0403 12:31:51.022502  9033 net.cpp:141] Setting up data
I0403 12:31:51.022596  9033 net.cpp:148] Top shape: 100 3 227 227 (15458700)
I0403 12:31:51.022620  9033 net.cpp:148] Top shape: 100 (100)
I0403 12:31:51.022636  9033 net.cpp:156] Memory required for data: 61835200
I0403 12:31:51.022667  9033 layer_factory.hpp:77] Creating layer label_data_1_split
I0403 12:31:51.022693  9033 net.cpp:91] Creating Layer label_data_1_split
I0403 12:31:51.022711  9033 net.cpp:425] label_data_1_split <- label
I0403 12:31:51.022744  9033 net.cpp:399] label_data_1_split -> label_data_1_split_0
I0403 12:31:51.022771  9033 net.cpp:399] label_data_1_split -> label_data_1_split_1
I0403 12:31:51.022790  9033 net.cpp:399] label_data_1_split -> label_data_1_split_2
I0403 12:31:51.022855  9033 net.cpp:141] Setting up label_data_1_split
I0403 12:31:51.022878  9033 net.cpp:148] Top shape: 100 (100)
I0403 12:31:51.022894  9033 net.cpp:148] Top shape: 100 (100)
I0403 12:31:51.022909  9033 net.cpp:148] Top shape: 100 (100)
I0403 12:31:51.022923  9033 net.cpp:156] Memory required for data: 61836400
I0403 12:31:51.022938  9033 layer_factory.hpp:77] Creating layer conv1
I0403 12:31:51.022970  9033 net.cpp:91] Creating Layer conv1
I0403 12:31:51.022987  9033 net.cpp:425] conv1 <- data
I0403 12:31:51.023006  9033 net.cpp:399] conv1 -> conv1
I0403 12:31:51.163297  9033 net.cpp:141] Setting up conv1
I0403 12:31:51.163341  9033 net.cpp:148] Top shape: 100 96 55 55 (29040000)
I0403 12:31:51.163358  9033 net.cpp:156] Memory required for data: 177996400
I0403 12:31:51.163389  9033 layer_factory.hpp:77] Creating layer relu1
I0403 12:31:51.163416  9033 net.cpp:91] Creating Layer relu1
I0403 12:31:51.163435  9033 net.cpp:425] relu1 <- conv1
I0403 12:31:51.163453  9033 net.cpp:386] relu1 -> conv1 (in-place)
I0403 12:31:51.163743  9033 net.cpp:141] Setting up relu1
I0403 12:31:51.163771  9033 net.cpp:148] Top shape: 100 96 55 55 (29040000)
I0403 12:31:51.163830  9033 net.cpp:156] Memory required for data: 294156400
I0403 12:31:51.163847  9033 layer_factory.hpp:77] Creating layer norm1
I0403 12:31:51.163874  9033 net.cpp:91] Creating Layer norm1
I0403 12:31:51.163892  9033 net.cpp:425] norm1 <- conv1
I0403 12:31:51.163931  9033 net.cpp:399] norm1 -> norm1
I0403 12:31:51.164270  9033 net.cpp:141] Setting up norm1
I0403 12:31:51.164302  9033 net.cpp:148] Top shape: 100 96 55 55 (29040000)
I0403 12:31:51.164319  9033 net.cpp:156] Memory required for data: 410316400
I0403 12:31:51.164333  9033 layer_factory.hpp:77] Creating layer pool1
I0403 12:31:51.164360  9033 net.cpp:91] Creating Layer pool1
I0403 12:31:51.164376  9033 net.cpp:425] pool1 <- norm1
I0403 12:31:51.164397  9033 net.cpp:399] pool1 -> pool1
I0403 12:31:51.164472  9033 net.cpp:141] Setting up pool1
I0403 12:31:51.164497  9033 net.cpp:148] Top shape: 100 96 27 27 (6998400)
I0403 12:31:51.164512  9033 net.cpp:156] Memory required for data: 438310000
I0403 12:31:51.164527  9033 layer_factory.hpp:77] Creating layer conv2
I0403 12:31:51.164553  9033 net.cpp:91] Creating Layer conv2
I0403 12:31:51.164583  9033 net.cpp:425] conv2 <- pool1
I0403 12:31:51.164608  9033 net.cpp:399] conv2 -> conv2
I0403 12:31:51.180140  9033 net.cpp:141] Setting up conv2
I0403 12:31:51.180199  9033 net.cpp:148] Top shape: 100 256 27 27 (18662400)
I0403 12:31:51.180217  9033 net.cpp:156] Memory required for data: 512959600
I0403 12:31:51.180241  9033 layer_factory.hpp:77] Creating layer relu2
I0403 12:31:51.180263  9033 net.cpp:91] Creating Layer relu2
I0403 12:31:51.180280  9033 net.cpp:425] relu2 <- conv2
I0403 12:31:51.180299  9033 net.cpp:386] relu2 -> conv2 (in-place)
I0403 12:31:51.180603  9033 net.cpp:141] Setting up relu2
I0403 12:31:51.180632  9033 net.cpp:148] Top shape: 100 256 27 27 (18662400)
I0403 12:31:51.180649  9033 net.cpp:156] Memory required for data: 587609200
I0403 12:31:51.180663  9033 layer_factory.hpp:77] Creating layer norm2
I0403 12:31:51.180685  9033 net.cpp:91] Creating Layer norm2
I0403 12:31:51.180701  9033 net.cpp:425] norm2 <- conv2
I0403 12:31:51.180721  9033 net.cpp:399] norm2 -> norm2
I0403 12:31:51.180959  9033 net.cpp:141] Setting up norm2
I0403 12:31:51.180989  9033 net.cpp:148] Top shape: 100 256 27 27 (18662400)
I0403 12:31:51.181005  9033 net.cpp:156] Memory required for data: 662258800
I0403 12:31:51.181020  9033 layer_factory.hpp:77] Creating layer pool2
I0403 12:31:51.181038  9033 net.cpp:91] Creating Layer pool2
I0403 12:31:51.181053  9033 net.cpp:425] pool2 <- norm2
I0403 12:31:51.181071  9033 net.cpp:399] pool2 -> pool2
I0403 12:31:51.181125  9033 net.cpp:141] Setting up pool2
I0403 12:31:51.181149  9033 net.cpp:148] Top shape: 100 256 13 13 (4326400)
I0403 12:31:51.181165  9033 net.cpp:156] Memory required for data: 679564400
I0403 12:31:51.181180  9033 layer_factory.hpp:77] Creating layer conv3
I0403 12:31:51.181205  9033 net.cpp:91] Creating Layer conv3
I0403 12:31:51.181222  9033 net.cpp:425] conv3 <- pool2
I0403 12:31:51.181242  9033 net.cpp:399] conv3 -> conv3
I0403 12:31:51.220978  9033 net.cpp:141] Setting up conv3
I0403 12:31:51.221051  9033 net.cpp:148] Top shape: 100 384 13 13 (6489600)
I0403 12:31:51.221068  9033 net.cpp:156] Memory required for data: 705522800
I0403 12:31:51.221094  9033 layer_factory.hpp:77] Creating layer relu3
I0403 12:31:51.221120  9033 net.cpp:91] Creating Layer relu3
I0403 12:31:51.221138  9033 net.cpp:425] relu3 <- conv3
I0403 12:31:51.221158  9033 net.cpp:386] relu3 -> conv3 (in-place)
I0403 12:31:51.221441  9033 net.cpp:141] Setting up relu3
I0403 12:31:51.221470  9033 net.cpp:148] Top shape: 100 384 13 13 (6489600)
I0403 12:31:51.221487  9033 net.cpp:156] Memory required for data: 731481200
I0403 12:31:51.221503  9033 layer_factory.hpp:77] Creating layer conv4
I0403 12:31:51.221529  9033 net.cpp:91] Creating Layer conv4
I0403 12:31:51.221545  9033 net.cpp:425] conv4 <- conv3
I0403 12:31:51.221607  9033 net.cpp:399] conv4 -> conv4
I0403 12:31:51.252931  9033 net.cpp:141] Setting up conv4
I0403 12:31:51.252995  9033 net.cpp:148] Top shape: 100 384 13 13 (6489600)
I0403 12:31:51.253047  9033 net.cpp:156] Memory required for data: 757439600
I0403 12:31:51.253070  9033 layer_factory.hpp:77] Creating layer relu4
I0403 12:31:51.253095  9033 net.cpp:91] Creating Layer relu4
I0403 12:31:51.253114  9033 net.cpp:425] relu4 <- conv4
I0403 12:31:51.253134  9033 net.cpp:386] relu4 -> conv4 (in-place)
I0403 12:31:51.253433  9033 net.cpp:141] Setting up relu4
I0403 12:31:51.253461  9033 net.cpp:148] Top shape: 100 384 13 13 (6489600)
I0403 12:31:51.253478  9033 net.cpp:156] Memory required for data: 783398000
I0403 12:31:51.253494  9033 layer_factory.hpp:77] Creating layer conv5
I0403 12:31:51.253521  9033 net.cpp:91] Creating Layer conv5
I0403 12:31:51.253540  9033 net.cpp:425] conv5 <- conv4
I0403 12:31:51.253561  9033 net.cpp:399] conv5 -> conv5
I0403 12:31:51.275100  9033 net.cpp:141] Setting up conv5
I0403 12:31:51.275158  9033 net.cpp:148] Top shape: 100 256 13 13 (4326400)
I0403 12:31:51.275177  9033 net.cpp:156] Memory required for data: 800703600
I0403 12:31:51.275203  9033 layer_factory.hpp:77] Creating layer relu5
I0403 12:31:51.275225  9033 net.cpp:91] Creating Layer relu5
I0403 12:31:51.275243  9033 net.cpp:425] relu5 <- conv5
I0403 12:31:51.275260  9033 net.cpp:386] relu5 -> conv5 (in-place)
I0403 12:31:51.275599  9033 net.cpp:141] Setting up relu5
I0403 12:31:51.275629  9033 net.cpp:148] Top shape: 100 256 13 13 (4326400)
I0403 12:31:51.275647  9033 net.cpp:156] Memory required for data: 818009200
I0403 12:31:51.275662  9033 layer_factory.hpp:77] Creating layer pool5
I0403 12:31:51.275683  9033 net.cpp:91] Creating Layer pool5
I0403 12:31:51.275699  9033 net.cpp:425] pool5 <- conv5
I0403 12:31:51.275720  9033 net.cpp:399] pool5 -> pool5
I0403 12:31:51.275780  9033 net.cpp:141] Setting up pool5
I0403 12:31:51.275805  9033 net.cpp:148] Top shape: 100 256 6 6 (921600)
I0403 12:31:51.275820  9033 net.cpp:156] Memory required for data: 821695600
I0403 12:31:51.275835  9033 layer_factory.hpp:77] Creating layer fc6
I0403 12:31:51.275864  9033 net.cpp:91] Creating Layer fc6
I0403 12:31:51.275882  9033 net.cpp:425] fc6 <- pool5
I0403 12:31:51.275904  9033 net.cpp:399] fc6 -> fc6
I0403 12:31:52.828682  9033 net.cpp:141] Setting up fc6
I0403 12:31:52.828753  9033 net.cpp:148] Top shape: 100 4096 (409600)
I0403 12:31:52.828769  9033 net.cpp:156] Memory required for data: 823334000
I0403 12:31:52.828790  9033 layer_factory.hpp:77] Creating layer relu6
I0403 12:31:52.828814  9033 net.cpp:91] Creating Layer relu6
I0403 12:31:52.828832  9033 net.cpp:425] relu6 <- fc6
I0403 12:31:52.828852  9033 net.cpp:386] relu6 -> fc6 (in-place)
I0403 12:31:52.829077  9033 net.cpp:141] Setting up relu6
I0403 12:31:52.829103  9033 net.cpp:148] Top shape: 100 4096 (409600)
I0403 12:31:52.829119  9033 net.cpp:156] Memory required for data: 824972400
I0403 12:31:52.829133  9033 layer_factory.hpp:77] Creating layer drop6
I0403 12:31:52.829152  9033 net.cpp:91] Creating Layer drop6
I0403 12:31:52.829167  9033 net.cpp:425] drop6 <- fc6
I0403 12:31:52.829185  9033 net.cpp:386] drop6 -> fc6 (in-place)
I0403 12:31:52.829236  9033 net.cpp:141] Setting up drop6
I0403 12:31:52.829258  9033 net.cpp:148] Top shape: 100 4096 (409600)
I0403 12:31:52.829282  9033 net.cpp:156] Memory required for data: 826610800
I0403 12:31:52.829296  9033 layer_factory.hpp:77] Creating layer fc7
I0403 12:31:52.829319  9033 net.cpp:91] Creating Layer fc7
I0403 12:31:52.829334  9033 net.cpp:425] fc7 <- fc6
I0403 12:31:52.829352  9033 net.cpp:399] fc7 -> fc7
I0403 12:31:53.519188  9033 net.cpp:141] Setting up fc7
I0403 12:31:53.519229  9033 net.cpp:148] Top shape: 100 4096 (409600)
I0403 12:31:53.519246  9033 net.cpp:156] Memory required for data: 828249200
I0403 12:31:53.519266  9033 layer_factory.hpp:77] Creating layer relu7
I0403 12:31:53.519290  9033 net.cpp:91] Creating Layer relu7
I0403 12:31:53.519307  9033 net.cpp:425] relu7 <- fc7
I0403 12:31:53.519326  9033 net.cpp:386] relu7 -> fc7 (in-place)
I0403 12:31:53.519742  9033 net.cpp:141] Setting up relu7
I0403 12:31:53.519767  9033 net.cpp:148] Top shape: 100 4096 (409600)
I0403 12:31:53.519821  9033 net.cpp:156] Memory required for data: 829887600
I0403 12:31:53.519837  9033 layer_factory.hpp:77] Creating layer drop7
I0403 12:31:53.519857  9033 net.cpp:91] Creating Layer drop7
I0403 12:31:53.519873  9033 net.cpp:425] drop7 <- fc7
I0403 12:31:53.519889  9033 net.cpp:386] drop7 -> fc7 (in-place)
I0403 12:31:53.519932  9033 net.cpp:141] Setting up drop7
I0403 12:31:53.519953  9033 net.cpp:148] Top shape: 100 4096 (409600)
I0403 12:31:53.519968  9033 net.cpp:156] Memory required for data: 831526000
I0403 12:31:53.519981  9033 layer_factory.hpp:77] Creating layer fc8_plantvillage
I0403 12:31:53.520002  9033 net.cpp:91] Creating Layer fc8_plantvillage
I0403 12:31:53.520017  9033 net.cpp:425] fc8_plantvillage <- fc7
I0403 12:31:53.520035  9033 net.cpp:399] fc8_plantvillage -> fc8_plantvillage
I0403 12:31:53.526684  9033 net.cpp:141] Setting up fc8_plantvillage
I0403 12:31:53.526713  9033 net.cpp:148] Top shape: 100 38 (3800)
I0403 12:31:53.526728  9033 net.cpp:156] Memory required for data: 831541200
I0403 12:31:53.526747  9033 layer_factory.hpp:77] Creating layer fc8_plantvillage_fc8_plantvillage_0_split
I0403 12:31:53.526765  9033 net.cpp:91] Creating Layer fc8_plantvillage_fc8_plantvillage_0_split
I0403 12:31:53.526780  9033 net.cpp:425] fc8_plantvillage_fc8_plantvillage_0_split <- fc8_plantvillage
I0403 12:31:53.526798  9033 net.cpp:399] fc8_plantvillage_fc8_plantvillage_0_split -> fc8_plantvillage_fc8_plantvillage_0_split_0
I0403 12:31:53.526818  9033 net.cpp:399] fc8_plantvillage_fc8_plantvillage_0_split -> fc8_plantvillage_fc8_plantvillage_0_split_1
I0403 12:31:53.526839  9033 net.cpp:399] fc8_plantvillage_fc8_plantvillage_0_split -> fc8_plantvillage_fc8_plantvillage_0_split_2
I0403 12:31:53.526916  9033 net.cpp:141] Setting up fc8_plantvillage_fc8_plantvillage_0_split
I0403 12:31:53.526940  9033 net.cpp:148] Top shape: 100 38 (3800)
I0403 12:31:53.526957  9033 net.cpp:148] Top shape: 100 38 (3800)
I0403 12:31:53.526970  9033 net.cpp:148] Top shape: 100 38 (3800)
I0403 12:31:53.526983  9033 net.cpp:156] Memory required for data: 831586800
I0403 12:31:53.526996  9033 layer_factory.hpp:77] Creating layer prob
I0403 12:31:53.527014  9033 net.cpp:91] Creating Layer prob
I0403 12:31:53.527029  9033 net.cpp:425] prob <- fc8_plantvillage_fc8_plantvillage_0_split_0
I0403 12:31:53.527045  9033 net.cpp:399] prob -> prob
I0403 12:31:53.527261  9033 net.cpp:141] Setting up prob
I0403 12:31:53.527286  9033 net.cpp:148] Top shape: 100 38 (3800)
I0403 12:31:53.527300  9033 net.cpp:156] Memory required for data: 831602000
I0403 12:31:53.527314  9033 layer_factory.hpp:77] Creating layer hdf5out
I0403 12:31:53.527334  9033 net.cpp:91] Creating Layer hdf5out
I0403 12:31:53.527351  9033 net.cpp:425] hdf5out <- prob
I0403 12:31:53.527365  9033 net.cpp:425] hdf5out <- label_data_1_split_0
I0403 12:31:53.529636  9033 net.cpp:141] Setting up hdf5out
…
