…
I0403 12:39:29.455987  9234 net.cpp:313] The NetState phase (1) differed from the phase (0) specified by a rule in layer data
I0403 12:39:29.456296  9234 net.cpp:49] Initializing net from parameters: 
state {
  phase: TEST
}
layer {
  name: "data"
  type: "Data"
  top: "data"
  top: "label"
  include {
    phase: TEST
  }
  transform_param {
    crop_size: 227
    mean_file: "/home/mohanty/data/final_dataset/lmdb/segmented-20-80/mean.binaryproto"
  }
  data_param {
    source: "/home/mohanty/data/final_dataset/lmdb/segmented-20-80/test_db"
    batch_size: 100
    backend: LMDB
  }
}
layer {
  name: "conv1"
  type: "Convolution"
  bottom: "data"
  top: "conv1"
  param {
    lr_mult: 1
    decay_mult: 1
  }
  param {
    lr_mult: 2
    decay_mult: 0
  }
  convolution_param {
    num_output: 96
    kernel_size: 11
    stride: 4
    weight_filler {
      type: "gaussian"
      std: 0.01
    }
    bias_filler {
      type: "constant"
      value: 0
    }
  }
}
layer {
  name: "relu1"
  type: "ReLU"
  bottom: "conv1"
  top: "conv1"
}
layer {
  name: "norm1"
  type: "LRN"
  bottom: "conv1"
  top: "norm1"
  lrn_param {
    local_size: 5
    alpha: 0.0001
    beta: 0.75
  }
}
layer {
  name: "pool1"
  type: "Pooling"
  bottom: "norm1"
  top: "pool1"
  pooling_param {
    pool: MAX
    kernel_size: 3
    stride: 2
  }
}
layer {
  name: "conv2"
  type: "Convolution"
  bottom: "pool1"
  top: "conv2"
  param {
    lr_mult: 1
    decay_mult: 1
  }
  param {
    lr_mult: 2
    decay_mult: 0
  }
  convolution_param {
    num_output: 256
    pad: 2
    kernel_size: 5
    group: 2
    weight_filler {
      type: "gaussian"
      std: 0.01
    }
    bias_filler {
      type: "constant"
      value: 0.1
    }
  }
}
layer {
  name: "relu2"
  type: "ReLU"
  bottom: "conv2"
  top: "conv2"
}
layer {
  name: "norm2"
  type: "LRN"
  bottom: "conv2"
  top: "norm2"
  lrn_param {
    local_size: 5
    alpha: 0.0001
    beta: 0.75
  }
}
layer {
  name: "pool2"
  type: "Pooling"
  bottom: "norm2"
  top: "pool2"
  pooling_param {
    pool: MAX
    kernel_size: 3
    stride: 2
  }
}
layer {
  name: "conv3"
  type: "Convolution"
  bottom: "pool2"
  top: "conv3"
  param {
    lr_mult: 1
    decay_mult: 1
  }
  param {
    lr_mult: 2
    decay_mult: 0
  }
  convolution_param {
    num_output: 384
    pad: 1
    kernel_size: 3
    weight_filler {
      type: "gaussian"
      std: 0.01
    }
    bias_filler {
      type: "constant"
      value: 0
    }
  }
}
layer {
  name: "relu3"
  type: "ReLU"
  bottom: "conv3"
  top: "conv3"
}
layer {
  name: "conv4"
  type: "Convolution"
  bottom: "conv3"
  top: "conv4"
  param {
    lr_mult: 1
    decay_mult: 1
  }
  param {
    lr_mult: 2
    decay_mult: 0
  }
  convolution_param {
    num_output: 384
    pad: 1
    kernel_size: 3
    group: 2
    weight_filler {
      type: "gaussian"
      std: 0.01
    }
    bias_filler {
      type: "constant"
      value: 0.1
    }
  }
}
layer {
  name: "relu4"
  type: "ReLU"
  bottom: "conv4"
  top: "conv4"
}
layer {
  name: "conv5"
  type: "Convolution"
  bottom: "conv4"
  top: "conv5"
  param {
    lr_mult: 1
    decay_mult: 1
  }
  param {
    lr_mult: 2
    decay_mult: 0
  }
  convolution_param {
    num_output: 256
    pad: 1
    kernel_size: 3
    group: 2
    weight_filler {
      type: "gaussian"
      std: 0.01
    }
    bias_filler {
      type: "constant"
      value: 0.1
    }
  }
}
layer {
  name: "relu5"
  type: "ReLU"
  bottom: "conv5"
  top: "conv5"
}
layer {
  name: "pool5"
  type: "Pooling"
  bottom: "conv5"
  top: "pool5"
  pooling_param {
    pool: MAX
    kernel_size: 3
    stride: 2
  }
}
layer {
  name: "fc6"
  type: "InnerProduct"
  bottom: "pool5"
  top: "fc6"
  param {
    lr_mult: 1
    decay_mult: 1
  }
  param {
    lr_mult: 2
    decay_mult: 0
  }
  inner_product_param {
    num_output: 4096
    weight_filler {
      type: "gaussian"
      std: 0.005
    }
    bias_filler {
      type: "constant"
      value: 0.1
    }
  }
}
layer {
  name: "relu6"
  type: "ReLU"
  bottom: "fc6"
  top: "fc6"
}
layer {
  name: "drop6"
  type: "Dropout"
  bottom: "fc6"
  top: "fc6"
  dropout_param {
    dropout_ratio: 0.5
  }
}
layer {
  name: "fc7"
  type: "InnerProduct"
  bottom: "fc6"
  top: "fc7"
  param {
    lr_mult: 1
    decay_mult: 1
  }
  param {
    lr_mult: 2
    decay_mult: 0
  }
  inner_product_param {
    num_output: 4096
    weight_filler {
      type: "gaussian"
      std: 0.005
    }
    bias_filler {
      type: "constant"
      value: 0.1
    }
  }
}
layer {
  name: "relu7"
  type: "ReLU"
  bottom: "fc7"
  top: "fc7"
}
layer {
  name: "drop7"
  type: "Dropout"
  bottom: "fc7"
  top: "fc7"
  dropout_param {
    dropout_ratio: 0.5
  }
}
layer {
  name: "fc8_plantvillage"
  type: "InnerProduct"
  bottom: "fc7"
  top: "fc8_plantvillage"
  param {
    lr_mult: 1
    decay_mult: 1
  }
  param {
    lr_mult: 2
    decay_mult: 0
  }
  inner_product_param {
    num_output: 38
    weight_filler {
      type: "gaussian"
      std: 0.01
    }
    bias_filler {
      type: "constant"
      value: 0
    }
  }
}
layer {
  name: "prob"
  type: "Softmax"
  bottom: "fc8_plantvillage"
  top: "prob"
  include {
    phase: TEST
  }
}
layer {
  name: "hdf5out"
  type: "HDF5Output"
  bottom: "prob"
  bottom: "label"
  include {
    phase: TEST
  }
  hdf5_output_param {
    file_name: "hdf5_dumps/iter_3180.h5"
  }
}
layer {
  name: "loss"
  type: "SoftmaxWithLoss"
  bottom: "fc8_plantvillage"
  bottom: "label"
  top: "loss"
}
layer {
  name: "accuracy"
  type: "Accuracy"
  bottom: "fc8_plantvillage"
  bottom: "label"
  top: "accuracy"
  include {
    phase: TEST
  }
}
I0403 12:39:29.456884  9234 layer_factory.hpp:77] Creating layer data
I0403 12:39:29.457540  9234 net.cpp:91] Creating Layer data
I0403 12:39:29.457574  9234 net.cpp:399] data -> data
I0403 12:39:29.457630  9234 net.cpp:399] data -> label
I0403 12:39:29.457669  9234 data_transformer.cpp:25] Loading mean file from: /home/mohanty/data/final_dataset/lmdb/segmented-20-80/mean.binaryproto
I0403 12:39:29.460803  9237 db_lmdb.cpp:38] Opened lmdb /home/mohanty/data/final_dataset/lmdb/segmented-20-80/test_db
I0403 12:39:29.472252  9234 data_layer.cpp:41] output data size: 100,3,227,227
I0403 12:39:29.593061  9234 net.cpp:141] Setting up data
I0403 12:39:29.593155  9234 net.cpp:148] Top shape: 100 3 227 227 (15458700)
I0403 12:39:29.593178  9234 net.cpp:148] Top shape: 100 (100)
I0403 12:39:29.593194  9234 net.cpp:156] Memory required for data: 61835200
I0403 12:39:29.593222  9234 layer_factory.hpp:77] Creating layer label_data_1_split
I0403 12:39:29.593247  9234 net.cpp:91] Creating Layer label_data_1_split
I0403 12:39:29.593268  9234 net.cpp:425] label_data_1_split <- label
I0403 12:39:29.593300  9234 net.cpp:399] label_data_1_split -> label_data_1_split_0
I0403 12:39:29.593328  9234 net.cpp:399] label_data_1_split -> label_data_1_split_1
I0403 12:39:29.593349  9234 net.cpp:399] label_data_1_split -> label_data_1_split_2
I0403 12:39:29.593413  9234 net.cpp:141] Setting up label_data_1_split
I0403 12:39:29.593437  9234 net.cpp:148] Top shape: 100 (100)
I0403 12:39:29.593454  9234 net.cpp:148] Top shape: 100 (100)
I0403 12:39:29.593471  9234 net.cpp:148] Top shape: 100 (100)
I0403 12:39:29.593484  9234 net.cpp:156] Memory required for data: 61836400
I0403 12:39:29.593499  9234 layer_factory.hpp:77] Creating layer conv1
I0403 12:39:29.593531  9234 net.cpp:91] Creating Layer conv1
I0403 12:39:29.593551  9234 net.cpp:425] conv1 <- data
I0403 12:39:29.593575  9234 net.cpp:399] conv1 -> conv1
I0403 12:39:29.735975  9234 net.cpp:141] Setting up conv1
I0403 12:39:29.736052  9234 net.cpp:148] Top shape: 100 96 55 55 (29040000)
I0403 12:39:29.736068  9234 net.cpp:156] Memory required for data: 177996400
I0403 12:39:29.736098  9234 layer_factory.hpp:77] Creating layer relu1
I0403 12:39:29.736127  9234 net.cpp:91] Creating Layer relu1
I0403 12:39:29.736146  9234 net.cpp:425] relu1 <- conv1
I0403 12:39:29.736166  9234 net.cpp:386] relu1 -> conv1 (in-place)
I0403 12:39:29.736443  9234 net.cpp:141] Setting up relu1
I0403 12:39:29.736469  9234 net.cpp:148] Top shape: 100 96 55 55 (29040000)
I0403 12:39:29.736517  9234 net.cpp:156] Memory required for data: 294156400
I0403 12:39:29.736533  9234 layer_factory.hpp:77] Creating layer norm1
I0403 12:39:29.736562  9234 net.cpp:91] Creating Layer norm1
I0403 12:39:29.736585  9234 net.cpp:425] norm1 <- conv1
I0403 12:39:29.736616  9234 net.cpp:399] norm1 -> norm1
I0403 12:39:29.736958  9234 net.cpp:141] Setting up norm1
I0403 12:39:29.736987  9234 net.cpp:148] Top shape: 100 96 55 55 (29040000)
I0403 12:39:29.737004  9234 net.cpp:156] Memory required for data: 410316400
I0403 12:39:29.737017  9234 layer_factory.hpp:77] Creating layer pool1
I0403 12:39:29.737040  9234 net.cpp:91] Creating Layer pool1
I0403 12:39:29.737056  9234 net.cpp:425] pool1 <- norm1
I0403 12:39:29.737076  9234 net.cpp:399] pool1 -> pool1
I0403 12:39:29.737145  9234 net.cpp:141] Setting up pool1
I0403 12:39:29.737169  9234 net.cpp:148] Top shape: 100 96 27 27 (6998400)
I0403 12:39:29.737182  9234 net.cpp:156] Memory required for data: 438310000
I0403 12:39:29.737196  9234 layer_factory.hpp:77] Creating layer conv2
I0403 12:39:29.737222  9234 net.cpp:91] Creating Layer conv2
I0403 12:39:29.737239  9234 net.cpp:425] conv2 <- pool1
I0403 12:39:29.737259  9234 net.cpp:399] conv2 -> conv2
I0403 12:39:29.752300  9234 net.cpp:141] Setting up conv2
I0403 12:39:29.752356  9234 net.cpp:148] Top shape: 100 256 27 27 (18662400)
I0403 12:39:29.752372  9234 net.cpp:156] Memory required for data: 512959600
I0403 12:39:29.752394  9234 layer_factory.hpp:77] Creating layer relu2
I0403 12:39:29.752413  9234 net.cpp:91] Creating Layer relu2
I0403 12:39:29.752429  9234 net.cpp:425] relu2 <- conv2
I0403 12:39:29.752447  9234 net.cpp:386] relu2 -> conv2 (in-place)
I0403 12:39:29.752728  9234 net.cpp:141] Setting up relu2
I0403 12:39:29.752755  9234 net.cpp:148] Top shape: 100 256 27 27 (18662400)
I0403 12:39:29.752769  9234 net.cpp:156] Memory required for data: 587609200
I0403 12:39:29.752784  9234 layer_factory.hpp:77] Creating layer norm2
I0403 12:39:29.752806  9234 net.cpp:91] Creating Layer norm2
I0403 12:39:29.752823  9234 net.cpp:425] norm2 <- conv2
I0403 12:39:29.752840  9234 net.cpp:399] norm2 -> norm2
I0403 12:39:29.753039  9234 net.cpp:141] Setting up norm2
I0403 12:39:29.753099  9234 net.cpp:148] Top shape: 100 256 27 27 (18662400)
I0403 12:39:29.753118  9234 net.cpp:156] Memory required for data: 662258800
I0403 12:39:29.753132  9234 layer_factory.hpp:77] Creating layer pool2
I0403 12:39:29.753150  9234 net.cpp:91] Creating Layer pool2
I0403 12:39:29.753165  9234 net.cpp:425] pool2 <- norm2
I0403 12:39:29.753182  9234 net.cpp:399] pool2 -> pool2
I0403 12:39:29.753235  9234 net.cpp:141] Setting up pool2
I0403 12:39:29.753258  9234 net.cpp:148] Top shape: 100 256 13 13 (4326400)
I0403 12:39:29.753273  9234 net.cpp:156] Memory required for data: 679564400
I0403 12:39:29.753286  9234 layer_factory.hpp:77] Creating layer conv3
I0403 12:39:29.753309  9234 net.cpp:91] Creating Layer conv3
I0403 12:39:29.753326  9234 net.cpp:425] conv3 <- pool2
I0403 12:39:29.753348  9234 net.cpp:399] conv3 -> conv3
I0403 12:39:29.792096  9234 net.cpp:141] Setting up conv3
I0403 12:39:29.792171  9234 net.cpp:148] Top shape: 100 384 13 13 (6489600)
I0403 12:39:29.792188  9234 net.cpp:156] Memory required for data: 705522800
I0403 12:39:29.792214  9234 layer_factory.hpp:77] Creating layer relu3
I0403 12:39:29.792237  9234 net.cpp:91] Creating Layer relu3
I0403 12:39:29.792253  9234 net.cpp:425] relu3 <- conv3
I0403 12:39:29.792275  9234 net.cpp:386] relu3 -> conv3 (in-place)
I0403 12:39:29.792553  9234 net.cpp:141] Setting up relu3
I0403 12:39:29.792587  9234 net.cpp:148] Top shape: 100 384 13 13 (6489600)
I0403 12:39:29.792603  9234 net.cpp:156] Memory required for data: 731481200
I0403 12:39:29.792618  9234 layer_factory.hpp:77] Creating layer conv4
I0403 12:39:29.792644  9234 net.cpp:91] Creating Layer conv4
I0403 12:39:29.792661  9234 net.cpp:425] conv4 <- conv3
I0403 12:39:29.792680  9234 net.cpp:399] conv4 -> conv4
I0403 12:39:29.823096  9234 net.cpp:141] Setting up conv4
I0403 12:39:29.823163  9234 net.cpp:148] Top shape: 100 384 13 13 (6489600)
I0403 12:39:29.823215  9234 net.cpp:156] Memory required for data: 757439600
I0403 12:39:29.823237  9234 layer_factory.hpp:77] Creating layer relu4
I0403 12:39:29.823263  9234 net.cpp:91] Creating Layer relu4
I0403 12:39:29.823282  9234 net.cpp:425] relu4 <- conv4
I0403 12:39:29.823302  9234 net.cpp:386] relu4 -> conv4 (in-place)
I0403 12:39:29.823593  9234 net.cpp:141] Setting up relu4
I0403 12:39:29.823621  9234 net.cpp:148] Top shape: 100 384 13 13 (6489600)
I0403 12:39:29.823635  9234 net.cpp:156] Memory required for data: 783398000
I0403 12:39:29.823650  9234 layer_factory.hpp:77] Creating layer conv5
I0403 12:39:29.823678  9234 net.cpp:91] Creating Layer conv5
I0403 12:39:29.823695  9234 net.cpp:425] conv5 <- conv4
I0403 12:39:29.823715  9234 net.cpp:399] conv5 -> conv5
I0403 12:39:29.844651  9234 net.cpp:141] Setting up conv5
I0403 12:39:29.844712  9234 net.cpp:148] Top shape: 100 256 13 13 (4326400)
I0403 12:39:29.844729  9234 net.cpp:156] Memory required for data: 800703600
I0403 12:39:29.844755  9234 layer_factory.hpp:77] Creating layer relu5
I0403 12:39:29.844777  9234 net.cpp:91] Creating Layer relu5
I0403 12:39:29.844794  9234 net.cpp:425] relu5 <- conv5
I0403 12:39:29.844812  9234 net.cpp:386] relu5 -> conv5 (in-place)
I0403 12:39:29.845149  9234 net.cpp:141] Setting up relu5
I0403 12:39:29.845178  9234 net.cpp:148] Top shape: 100 256 13 13 (4326400)
I0403 12:39:29.845194  9234 net.cpp:156] Memory required for data: 818009200
I0403 12:39:29.845209  9234 layer_factory.hpp:77] Creating layer pool5
I0403 12:39:29.845232  9234 net.cpp:91] Creating Layer pool5
I0403 12:39:29.845248  9234 net.cpp:425] pool5 <- conv5
I0403 12:39:29.845278  9234 net.cpp:399] pool5 -> pool5
I0403 12:39:29.845340  9234 net.cpp:141] Setting up pool5
I0403 12:39:29.845363  9234 net.cpp:148] Top shape: 100 256 6 6 (921600)
I0403 12:39:29.845377  9234 net.cpp:156] Memory required for data: 821695600
I0403 12:39:29.845392  9234 layer_factory.hpp:77] Creating layer fc6
I0403 12:39:29.845422  9234 net.cpp:91] Creating Layer fc6
I0403 12:39:29.845440  9234 net.cpp:425] fc6 <- pool5
I0403 12:39:29.845460  9234 net.cpp:399] fc6 -> fc6
I0403 12:39:31.428185  9234 net.cpp:141] Setting up fc6
I0403 12:39:31.428261  9234 net.cpp:148] Top shape: 100 4096 (409600)
I0403 12:39:31.428277  9234 net.cpp:156] Memory required for data: 823334000
I0403 12:39:31.428298  9234 layer_factory.hpp:77] Creating layer relu6
I0403 12:39:31.428323  9234 net.cpp:91] Creating Layer relu6
I0403 12:39:31.428341  9234 net.cpp:425] relu6 <- fc6
I0403 12:39:31.428360  9234 net.cpp:386] relu6 -> fc6 (in-place)
I0403 12:39:31.428587  9234 net.cpp:141] Setting up relu6
I0403 12:39:31.428614  9234 net.cpp:148] Top shape: 100 4096 (409600)
I0403 12:39:31.428630  9234 net.cpp:156] Memory required for data: 824972400
I0403 12:39:31.428644  9234 layer_factory.hpp:77] Creating layer drop6
I0403 12:39:31.428663  9234 net.cpp:91] Creating Layer drop6
I0403 12:39:31.428678  9234 net.cpp:425] drop6 <- fc6
I0403 12:39:31.428694  9234 net.cpp:386] drop6 -> fc6 (in-place)
I0403 12:39:31.428746  9234 net.cpp:141] Setting up drop6
I0403 12:39:31.428768  9234 net.cpp:148] Top shape: 100 4096 (409600)
I0403 12:39:31.428782  9234 net.cpp:156] Memory required for data: 826610800
I0403 12:39:31.428797  9234 layer_factory.hpp:77] Creating layer fc7
I0403 12:39:31.428817  9234 net.cpp:91] Creating Layer fc7
I0403 12:39:31.428833  9234 net.cpp:425] fc7 <- fc6
I0403 12:39:31.428851  9234 net.cpp:399] fc7 -> fc7
I0403 12:39:32.110445  9234 net.cpp:141] Setting up fc7
I0403 12:39:32.110519  9234 net.cpp:148] Top shape: 100 4096 (409600)
I0403 12:39:32.110535  9234 net.cpp:156] Memory required for data: 828249200
I0403 12:39:32.110555  9234 layer_factory.hpp:77] Creating layer relu7
I0403 12:39:32.110584  9234 net.cpp:91] Creating Layer relu7
I0403 12:39:32.110602  9234 net.cpp:425] relu7 <- fc7
I0403 12:39:32.110621  9234 net.cpp:386] relu7 -> fc7 (in-place)
I0403 12:39:32.111022  9234 net.cpp:141] Setting up relu7
I0403 12:39:32.111050  9234 net.cpp:148] Top shape: 100 4096 (409600)
I0403 12:39:32.111104  9234 net.cpp:156] Memory required for data: 829887600
I0403 12:39:32.111119  9234 layer_factory.hpp:77] Creating layer drop7
I0403 12:39:32.111138  9234 net.cpp:91] Creating Layer drop7
I0403 12:39:32.111152  9234 net.cpp:425] drop7 <- fc7
I0403 12:39:32.111168  9234 net.cpp:386] drop7 -> fc7 (in-place)
I0403 12:39:32.111213  9234 net.cpp:141] Setting up drop7
I0403 12:39:32.111235  9234 net.cpp:148] Top shape: 100 4096 (409600)
I0403 12:39:32.111248  9234 net.cpp:156] Memory required for data: 831526000
I0403 12:39:32.111263  9234 layer_factory.hpp:77] Creating layer fc8_plantvillage
I0403 12:39:32.111294  9234 net.cpp:91] Creating Layer fc8_plantvillage
I0403 12:39:32.111310  9234 net.cpp:425] fc8_plantvillage <- fc7
I0403 12:39:32.111327  9234 net.cpp:399] fc8_plantvillage -> fc8_plantvillage
I0403 12:39:32.118053  9234 net.cpp:141] Setting up fc8_plantvillage
I0403 12:39:32.118083  9234 net.cpp:148] Top shape: 100 38 (3800)
I0403 12:39:32.118096  9234 net.cpp:156] Memory required for data: 831541200
I0403 12:39:32.118114  9234 layer_factory.hpp:77] Creating layer fc8_plantvillage_fc8_plantvillage_0_split
I0403 12:39:32.118134  9234 net.cpp:91] Creating Layer fc8_plantvillage_fc8_plantvillage_0_split
I0403 12:39:32.118149  9234 net.cpp:425] fc8_plantvillage_fc8_plantvillage_0_split <- fc8_plantvillage
I0403 12:39:32.118167  9234 net.cpp:399] fc8_plantvillage_fc8_plantvillage_0_split -> fc8_plantvillage_fc8_plantvillage_0_split_0
I0403 12:39:32.118191  9234 net.cpp:399] fc8_plantvillage_fc8_plantvillage_0_split -> fc8_plantvillage_fc8_plantvillage_0_split_1
I0403 12:39:32.118211  9234 net.cpp:399] fc8_plantvillage_fc8_plantvillage_0_split -> fc8_plantvillage_fc8_plantvillage_0_split_2
I0403 12:39:32.118290  9234 net.cpp:141] Setting up fc8_plantvillage_fc8_plantvillage_0_split
I0403 12:39:32.118327  9234 net.cpp:148] Top shape: 100 38 (3800)
I0403 12:39:32.118342  9234 net.cpp:148] Top shape: 100 38 (3800)
I0403 12:39:32.118357  9234 net.cpp:148] Top shape: 100 38 (3800)
I0403 12:39:32.118371  9234 net.cpp:156] Memory required for data: 831586800
I0403 12:39:32.118386  9234 layer_factory.hpp:77] Creating layer prob
I0403 12:39:32.118402  9234 net.cpp:91] Creating Layer prob
I0403 12:39:32.118417  9234 net.cpp:425] prob <- fc8_plantvillage_fc8_plantvillage_0_split_0
I0403 12:39:32.118435  9234 net.cpp:399] prob -> prob
I0403 12:39:32.118666  9234 net.cpp:141] Setting up prob
I0403 12:39:32.118692  9234 net.cpp:148] Top shape: 100 38 (3800)
I0403 12:39:32.118707  9234 net.cpp:156] Memory required for data: 831602000
I0403 12:39:32.118721  9234 layer_factory.hpp:77] Creating layer hdf5out
I0403 12:39:32.118743  9234 net.cpp:91] Creating Layer hdf5out
I0403 12:39:32.118760  9234 net.cpp:425] hdf5out <- prob
I0403 12:39:32.118777  9234 net.cpp:425] hdf5out <- label_data_1_split_0
I0403 12:39:32.391413  9234 net.cpp:141] Setting up hdf5out
…
