…
I0403 12:06:08.808070  8435 net.cpp:313] The NetState phase (1) differed from the phase (0) specified by a rule in layer data
I0403 12:06:08.808382  8435 net.cpp:49] Initializing net from parameters: 
state {
  phase: TEST
}
layer {
  name: "data"
  type: "Data"
  top: "data"
  top: "label"
  include {
    phase: TEST
  }
  transform_param {
    crop_size: 227
    mean_file: "/home/mohanty/data/final_dataset/lmdb/segmented-20-80/mean.binaryproto"
  }
  data_param {
    source: "/home/mohanty/data/final_dataset/lmdb/segmented-20-80/test_db"
    batch_size: 100
    backend: LMDB
  }
}
layer {
  name: "conv1"
  type: "Convolution"
  bottom: "data"
  top: "conv1"
  param {
    lr_mult: 1
    decay_mult: 1
  }
  param {
    lr_mult: 2
    decay_mult: 0
  }
  convolution_param {
    num_output: 96
    kernel_size: 11
    stride: 4
    weight_filler {
      type: "gaussian"
      std: 0.01
    }
    bias_filler {
      type: "constant"
      value: 0
    }
  }
}
layer {
  name: "relu1"
  type: "ReLU"
  bottom: "conv1"
  top: "conv1"
}
layer {
  name: "norm1"
  type: "LRN"
  bottom: "conv1"
  top: "norm1"
  lrn_param {
    local_size: 5
    alpha: 0.0001
    beta: 0.75
  }
}
layer {
  name: "pool1"
  type: "Pooling"
  bottom: "norm1"
  top: "pool1"
  pooling_param {
    pool: MAX
    kernel_size: 3
    stride: 2
  }
}
layer {
  name: "conv2"
  type: "Convolution"
  bottom: "pool1"
  top: "conv2"
  param {
    lr_mult: 1
    decay_mult: 1
  }
  param {
    lr_mult: 2
    decay_mult: 0
  }
  convolution_param {
    num_output: 256
    pad: 2
    kernel_size: 5
    group: 2
    weight_filler {
      type: "gaussian"
      std: 0.01
    }
    bias_filler {
      type: "constant"
      value: 0.1
    }
  }
}
layer {
  name: "relu2"
  type: "ReLU"
  bottom: "conv2"
  top: "conv2"
}
layer {
  name: "norm2"
  type: "LRN"
  bottom: "conv2"
  top: "norm2"
  lrn_param {
    local_size: 5
    alpha: 0.0001
    beta: 0.75
  }
}
layer {
  name: "pool2"
  type: "Pooling"
  bottom: "norm2"
  top: "pool2"
  pooling_param {
    pool: MAX
    kernel_size: 3
    stride: 2
  }
}
layer {
  name: "conv3"
  type: "Convolution"
  bottom: "pool2"
  top: "conv3"
  param {
    lr_mult: 1
    decay_mult: 1
  }
  param {
    lr_mult: 2
    decay_mult: 0
  }
  convolution_param {
    num_output: 384
    pad: 1
    kernel_size: 3
    weight_filler {
      type: "gaussian"
      std: 0.01
    }
    bias_filler {
      type: "constant"
      value: 0
    }
  }
}
layer {
  name: "relu3"
  type: "ReLU"
  bottom: "conv3"
  top: "conv3"
}
layer {
  name: "conv4"
  type: "Convolution"
  bottom: "conv3"
  top: "conv4"
  param {
    lr_mult: 1
    decay_mult: 1
  }
  param {
    lr_mult: 2
    decay_mult: 0
  }
  convolution_param {
    num_output: 384
    pad: 1
    kernel_size: 3
    group: 2
    weight_filler {
      type: "gaussian"
      std: 0.01
    }
    bias_filler {
      type: "constant"
      value: 0.1
    }
  }
}
layer {
  name: "relu4"
  type: "ReLU"
  bottom: "conv4"
  top: "conv4"
}
layer {
  name: "conv5"
  type: "Convolution"
  bottom: "conv4"
  top: "conv5"
  param {
    lr_mult: 1
    decay_mult: 1
  }
  param {
    lr_mult: 2
    decay_mult: 0
  }
  convolution_param {
    num_output: 256
    pad: 1
    kernel_size: 3
    group: 2
    weight_filler {
      type: "gaussian"
      std: 0.01
    }
    bias_filler {
      type: "constant"
      value: 0.1
    }
  }
}
layer {
  name: "relu5"
  type: "ReLU"
  bottom: "conv5"
  top: "conv5"
}
layer {
  name: "pool5"
  type: "Pooling"
  bottom: "conv5"
  top: "pool5"
  pooling_param {
    pool: MAX
    kernel_size: 3
    stride: 2
  }
}
layer {
  name: "fc6"
  type: "InnerProduct"
  bottom: "pool5"
  top: "fc6"
  param {
    lr_mult: 1
    decay_mult: 1
  }
  param {
    lr_mult: 2
    decay_mult: 0
  }
  inner_product_param {
    num_output: 4096
    weight_filler {
      type: "gaussian"
      std: 0.005
    }
    bias_filler {
      type: "constant"
      value: 0.1
    }
  }
}
layer {
  name: "relu6"
  type: "ReLU"
  bottom: "fc6"
  top: "fc6"
}
layer {
  name: "drop6"
  type: "Dropout"
  bottom: "fc6"
  top: "fc6"
  dropout_param {
    dropout_ratio: 0.5
  }
}
layer {
  name: "fc7"
  type: "InnerProduct"
  bottom: "fc6"
  top: "fc7"
  param {
    lr_mult: 1
    decay_mult: 1
  }
  param {
    lr_mult: 2
    decay_mult: 0
  }
  inner_product_param {
    num_output: 4096
    weight_filler {
      type: "gaussian"
      std: 0.005
    }
    bias_filler {
      type: "constant"
      value: 0.1
    }
  }
}
layer {
  name: "relu7"
  type: "ReLU"
  bottom: "fc7"
  top: "fc7"
}
layer {
  name: "drop7"
  type: "Dropout"
  bottom: "fc7"
  top: "fc7"
  dropout_param {
    dropout_ratio: 0.5
  }
}
layer {
  name: "fc8_plantvillage"
  type: "InnerProduct"
  bottom: "fc7"
  top: "fc8_plantvillage"
  param {
    lr_mult: 1
    decay_mult: 1
  }
  param {
    lr_mult: 2
    decay_mult: 0
  }
  inner_product_param {
    num_output: 38
    weight_filler {
      type: "gaussian"
      std: 0.01
    }
    bias_filler {
      type: "constant"
      value: 0
    }
  }
}
layer {
  name: "prob"
  type: "Softmax"
  bottom: "fc8_plantvillage"
  top: "prob"
  include {
    phase: TEST
  }
}
layer {
  name: "hdf5out"
  type: "HDF5Output"
  bottom: "prob"
  bottom: "label"
  include {
    phase: TEST
  }
  hdf5_output_param {
    file_name: "hdf5_dumps/iter_424.h5"
  }
}
layer {
  name: "loss"
  type: "SoftmaxWithLoss"
  bottom: "fc8_plantvillage"
  bottom: "label"
  top: "loss"
}
layer {
  name: "accuracy"
  type: "Accuracy"
  bottom: "fc8_plantvillage"
  bottom: "label"
  top: "accuracy"
  include {
    phase: TEST
  }
}
I0403 12:06:08.808954  8435 layer_factory.hpp:77] Creating layer data
I0403 12:06:08.809608  8435 net.cpp:91] Creating Layer data
I0403 12:06:08.809641  8435 net.cpp:399] data -> data
I0403 12:06:08.809694  8435 net.cpp:399] data -> label
I0403 12:06:08.809731  8435 data_transformer.cpp:25] Loading mean file from: /home/mohanty/data/final_dataset/lmdb/segmented-20-80/mean.binaryproto
I0403 12:06:08.812508  8438 db_lmdb.cpp:38] Opened lmdb /home/mohanty/data/final_dataset/lmdb/segmented-20-80/test_db
I0403 12:06:08.824301  8435 data_layer.cpp:41] output data size: 100,3,227,227
I0403 12:06:08.945257  8435 net.cpp:141] Setting up data
I0403 12:06:08.945350  8435 net.cpp:148] Top shape: 100 3 227 227 (15458700)
I0403 12:06:08.945372  8435 net.cpp:148] Top shape: 100 (100)
I0403 12:06:08.945387  8435 net.cpp:156] Memory required for data: 61835200
I0403 12:06:08.945426  8435 layer_factory.hpp:77] Creating layer label_data_1_split
I0403 12:06:08.945451  8435 net.cpp:91] Creating Layer label_data_1_split
I0403 12:06:08.945472  8435 net.cpp:425] label_data_1_split <- label
I0403 12:06:08.945505  8435 net.cpp:399] label_data_1_split -> label_data_1_split_0
I0403 12:06:08.945533  8435 net.cpp:399] label_data_1_split -> label_data_1_split_1
I0403 12:06:08.945564  8435 net.cpp:399] label_data_1_split -> label_data_1_split_2
I0403 12:06:08.945634  8435 net.cpp:141] Setting up label_data_1_split
I0403 12:06:08.945658  8435 net.cpp:148] Top shape: 100 (100)
I0403 12:06:08.945675  8435 net.cpp:148] Top shape: 100 (100)
I0403 12:06:08.945691  8435 net.cpp:148] Top shape: 100 (100)
I0403 12:06:08.945705  8435 net.cpp:156] Memory required for data: 61836400
I0403 12:06:08.945720  8435 layer_factory.hpp:77] Creating layer conv1
I0403 12:06:08.945762  8435 net.cpp:91] Creating Layer conv1
I0403 12:06:08.945781  8435 net.cpp:425] conv1 <- data
I0403 12:06:08.945801  8435 net.cpp:399] conv1 -> conv1
I0403 12:06:09.084812  8435 net.cpp:141] Setting up conv1
I0403 12:06:09.084856  8435 net.cpp:148] Top shape: 100 96 55 55 (29040000)
I0403 12:06:09.084873  8435 net.cpp:156] Memory required for data: 177996400
I0403 12:06:09.084904  8435 layer_factory.hpp:77] Creating layer relu1
I0403 12:06:09.084931  8435 net.cpp:91] Creating Layer relu1
I0403 12:06:09.084949  8435 net.cpp:425] relu1 <- conv1
I0403 12:06:09.084969  8435 net.cpp:386] relu1 -> conv1 (in-place)
I0403 12:06:09.085242  8435 net.cpp:141] Setting up relu1
I0403 12:06:09.085269  8435 net.cpp:148] Top shape: 100 96 55 55 (29040000)
I0403 12:06:09.085333  8435 net.cpp:156] Memory required for data: 294156400
I0403 12:06:09.085350  8435 layer_factory.hpp:77] Creating layer norm1
I0403 12:06:09.085378  8435 net.cpp:91] Creating Layer norm1
I0403 12:06:09.085408  8435 net.cpp:425] norm1 <- conv1
I0403 12:06:09.085427  8435 net.cpp:399] norm1 -> norm1
I0403 12:06:09.085749  8435 net.cpp:141] Setting up norm1
I0403 12:06:09.085777  8435 net.cpp:148] Top shape: 100 96 55 55 (29040000)
I0403 12:06:09.085793  8435 net.cpp:156] Memory required for data: 410316400
I0403 12:06:09.085808  8435 layer_factory.hpp:77] Creating layer pool1
I0403 12:06:09.085829  8435 net.cpp:91] Creating Layer pool1
I0403 12:06:09.085845  8435 net.cpp:425] pool1 <- norm1
I0403 12:06:09.085863  8435 net.cpp:399] pool1 -> pool1
I0403 12:06:09.085927  8435 net.cpp:141] Setting up pool1
I0403 12:06:09.085948  8435 net.cpp:148] Top shape: 100 96 27 27 (6998400)
I0403 12:06:09.085963  8435 net.cpp:156] Memory required for data: 438310000
I0403 12:06:09.085976  8435 layer_factory.hpp:77] Creating layer conv2
I0403 12:06:09.085999  8435 net.cpp:91] Creating Layer conv2
I0403 12:06:09.086015  8435 net.cpp:425] conv2 <- pool1
I0403 12:06:09.086031  8435 net.cpp:399] conv2 -> conv2
I0403 12:06:09.101079  8435 net.cpp:141] Setting up conv2
I0403 12:06:09.101131  8435 net.cpp:148] Top shape: 100 256 27 27 (18662400)
I0403 12:06:09.101147  8435 net.cpp:156] Memory required for data: 512959600
I0403 12:06:09.101169  8435 layer_factory.hpp:77] Creating layer relu2
I0403 12:06:09.101188  8435 net.cpp:91] Creating Layer relu2
I0403 12:06:09.101204  8435 net.cpp:425] relu2 <- conv2
I0403 12:06:09.101223  8435 net.cpp:386] relu2 -> conv2 (in-place)
I0403 12:06:09.101550  8435 net.cpp:141] Setting up relu2
I0403 12:06:09.101578  8435 net.cpp:148] Top shape: 100 256 27 27 (18662400)
I0403 12:06:09.101594  8435 net.cpp:156] Memory required for data: 587609200
I0403 12:06:09.101626  8435 layer_factory.hpp:77] Creating layer norm2
I0403 12:06:09.101650  8435 net.cpp:91] Creating Layer norm2
I0403 12:06:09.101667  8435 net.cpp:425] norm2 <- conv2
I0403 12:06:09.101686  8435 net.cpp:399] norm2 -> norm2
I0403 12:06:09.101900  8435 net.cpp:141] Setting up norm2
I0403 12:06:09.101925  8435 net.cpp:148] Top shape: 100 256 27 27 (18662400)
I0403 12:06:09.101940  8435 net.cpp:156] Memory required for data: 662258800
I0403 12:06:09.101954  8435 layer_factory.hpp:77] Creating layer pool2
I0403 12:06:09.101971  8435 net.cpp:91] Creating Layer pool2
I0403 12:06:09.101986  8435 net.cpp:425] pool2 <- norm2
I0403 12:06:09.102006  8435 net.cpp:399] pool2 -> pool2
I0403 12:06:09.102058  8435 net.cpp:141] Setting up pool2
I0403 12:06:09.102082  8435 net.cpp:148] Top shape: 100 256 13 13 (4326400)
I0403 12:06:09.102095  8435 net.cpp:156] Memory required for data: 679564400
I0403 12:06:09.102109  8435 layer_factory.hpp:77] Creating layer conv3
I0403 12:06:09.102134  8435 net.cpp:91] Creating Layer conv3
I0403 12:06:09.102152  8435 net.cpp:425] conv3 <- pool2
I0403 12:06:09.102170  8435 net.cpp:399] conv3 -> conv3
I0403 12:06:09.140707  8435 net.cpp:141] Setting up conv3
I0403 12:06:09.140781  8435 net.cpp:148] Top shape: 100 384 13 13 (6489600)
I0403 12:06:09.140799  8435 net.cpp:156] Memory required for data: 705522800
I0403 12:06:09.140825  8435 layer_factory.hpp:77] Creating layer relu3
I0403 12:06:09.140861  8435 net.cpp:91] Creating Layer relu3
I0403 12:06:09.140877  8435 net.cpp:425] relu3 <- conv3
I0403 12:06:09.140898  8435 net.cpp:386] relu3 -> conv3 (in-place)
I0403 12:06:09.141167  8435 net.cpp:141] Setting up relu3
I0403 12:06:09.141193  8435 net.cpp:148] Top shape: 100 384 13 13 (6489600)
I0403 12:06:09.141208  8435 net.cpp:156] Memory required for data: 731481200
I0403 12:06:09.141222  8435 layer_factory.hpp:77] Creating layer conv4
I0403 12:06:09.141248  8435 net.cpp:91] Creating Layer conv4
I0403 12:06:09.141266  8435 net.cpp:425] conv4 <- conv3
I0403 12:06:09.141286  8435 net.cpp:399] conv4 -> conv4
I0403 12:06:09.171212  8435 net.cpp:141] Setting up conv4
I0403 12:06:09.171284  8435 net.cpp:148] Top shape: 100 384 13 13 (6489600)
I0403 12:06:09.171337  8435 net.cpp:156] Memory required for data: 757439600
I0403 12:06:09.171360  8435 layer_factory.hpp:77] Creating layer relu4
I0403 12:06:09.171382  8435 net.cpp:91] Creating Layer relu4
I0403 12:06:09.171398  8435 net.cpp:425] relu4 <- conv4
I0403 12:06:09.171419  8435 net.cpp:386] relu4 -> conv4 (in-place)
I0403 12:06:09.171720  8435 net.cpp:141] Setting up relu4
I0403 12:06:09.171751  8435 net.cpp:148] Top shape: 100 384 13 13 (6489600)
I0403 12:06:09.171767  8435 net.cpp:156] Memory required for data: 783398000
I0403 12:06:09.171784  8435 layer_factory.hpp:77] Creating layer conv5
I0403 12:06:09.171811  8435 net.cpp:91] Creating Layer conv5
I0403 12:06:09.171829  8435 net.cpp:425] conv5 <- conv4
I0403 12:06:09.171847  8435 net.cpp:399] conv5 -> conv5
I0403 12:06:09.192668  8435 net.cpp:141] Setting up conv5
I0403 12:06:09.192721  8435 net.cpp:148] Top shape: 100 256 13 13 (4326400)
I0403 12:06:09.192737  8435 net.cpp:156] Memory required for data: 800703600
I0403 12:06:09.192762  8435 layer_factory.hpp:77] Creating layer relu5
I0403 12:06:09.192783  8435 net.cpp:91] Creating Layer relu5
I0403 12:06:09.192800  8435 net.cpp:425] relu5 <- conv5
I0403 12:06:09.192821  8435 net.cpp:386] relu5 -> conv5 (in-place)
I0403 12:06:09.193109  8435 net.cpp:141] Setting up relu5
I0403 12:06:09.193136  8435 net.cpp:148] Top shape: 100 256 13 13 (4326400)
I0403 12:06:09.193151  8435 net.cpp:156] Memory required for data: 818009200
I0403 12:06:09.193167  8435 layer_factory.hpp:77] Creating layer pool5
I0403 12:06:09.193192  8435 net.cpp:91] Creating Layer pool5
I0403 12:06:09.193209  8435 net.cpp:425] pool5 <- conv5
I0403 12:06:09.193228  8435 net.cpp:399] pool5 -> pool5
I0403 12:06:09.193289  8435 net.cpp:141] Setting up pool5
I0403 12:06:09.193313  8435 net.cpp:148] Top shape: 100 256 6 6 (921600)
I0403 12:06:09.193328  8435 net.cpp:156] Memory required for data: 821695600
I0403 12:06:09.193343  8435 layer_factory.hpp:77] Creating layer fc6
I0403 12:06:09.193370  8435 net.cpp:91] Creating Layer fc6
I0403 12:06:09.193388  8435 net.cpp:425] fc6 <- pool5
I0403 12:06:09.193408  8435 net.cpp:399] fc6 -> fc6
I0403 12:06:10.794607  8435 net.cpp:141] Setting up fc6
I0403 12:06:10.794683  8435 net.cpp:148] Top shape: 100 4096 (409600)
I0403 12:06:10.794699  8435 net.cpp:156] Memory required for data: 823334000
I0403 12:06:10.794719  8435 layer_factory.hpp:77] Creating layer relu6
I0403 12:06:10.794744  8435 net.cpp:91] Creating Layer relu6
I0403 12:06:10.794761  8435 net.cpp:425] relu6 <- fc6
I0403 12:06:10.794780  8435 net.cpp:386] relu6 -> fc6 (in-place)
I0403 12:06:10.794999  8435 net.cpp:141] Setting up relu6
I0403 12:06:10.795024  8435 net.cpp:148] Top shape: 100 4096 (409600)
I0403 12:06:10.795038  8435 net.cpp:156] Memory required for data: 824972400
I0403 12:06:10.795053  8435 layer_factory.hpp:77] Creating layer drop6
I0403 12:06:10.795070  8435 net.cpp:91] Creating Layer drop6
I0403 12:06:10.795085  8435 net.cpp:425] drop6 <- fc6
I0403 12:06:10.795104  8435 net.cpp:386] drop6 -> fc6 (in-place)
I0403 12:06:10.795155  8435 net.cpp:141] Setting up drop6
I0403 12:06:10.795179  8435 net.cpp:148] Top shape: 100 4096 (409600)
I0403 12:06:10.795194  8435 net.cpp:156] Memory required for data: 826610800
I0403 12:06:10.795208  8435 layer_factory.hpp:77] Creating layer fc7
I0403 12:06:10.795228  8435 net.cpp:91] Creating Layer fc7
I0403 12:06:10.795243  8435 net.cpp:425] fc7 <- fc6
I0403 12:06:10.795263  8435 net.cpp:399] fc7 -> fc7
I0403 12:06:11.497875  8435 net.cpp:141] Setting up fc7
I0403 12:06:11.497951  8435 net.cpp:148] Top shape: 100 4096 (409600)
I0403 12:06:11.497967  8435 net.cpp:156] Memory required for data: 828249200
I0403 12:06:11.497988  8435 layer_factory.hpp:77] Creating layer relu7
I0403 12:06:11.498010  8435 net.cpp:91] Creating Layer relu7
I0403 12:06:11.498028  8435 net.cpp:425] relu7 <- fc7
I0403 12:06:11.498049  8435 net.cpp:386] relu7 -> fc7 (in-place)
I0403 12:06:11.498445  8435 net.cpp:141] Setting up relu7
I0403 12:06:11.498472  8435 net.cpp:148] Top shape: 100 4096 (409600)
I0403 12:06:11.498529  8435 net.cpp:156] Memory required for data: 829887600
I0403 12:06:11.498545  8435 layer_factory.hpp:77] Creating layer drop7
I0403 12:06:11.498564  8435 net.cpp:91] Creating Layer drop7
I0403 12:06:11.498579  8435 net.cpp:425] drop7 <- fc7
I0403 12:06:11.498597  8435 net.cpp:386] drop7 -> fc7 (in-place)
I0403 12:06:11.498644  8435 net.cpp:141] Setting up drop7
I0403 12:06:11.498667  8435 net.cpp:148] Top shape: 100 4096 (409600)
I0403 12:06:11.498680  8435 net.cpp:156] Memory required for data: 831526000
I0403 12:06:11.498694  8435 layer_factory.hpp:77] Creating layer fc8_plantvillage
I0403 12:06:11.498716  8435 net.cpp:91] Creating Layer fc8_plantvillage
I0403 12:06:11.498733  8435 net.cpp:425] fc8_plantvillage <- fc7
I0403 12:06:11.498750  8435 net.cpp:399] fc8_plantvillage -> fc8_plantvillage
I0403 12:06:11.505630  8435 net.cpp:141] Setting up fc8_plantvillage
I0403 12:06:11.505659  8435 net.cpp:148] Top shape: 100 38 (3800)
I0403 12:06:11.505676  8435 net.cpp:156] Memory required for data: 831541200
I0403 12:06:11.505694  8435 layer_factory.hpp:77] Creating layer fc8_plantvillage_fc8_plantvillage_0_split
I0403 12:06:11.505713  8435 net.cpp:91] Creating Layer fc8_plantvillage_fc8_plantvillage_0_split
I0403 12:06:11.505729  8435 net.cpp:425] fc8_plantvillage_fc8_plantvillage_0_split <- fc8_plantvillage
I0403 12:06:11.505748  8435 net.cpp:399] fc8_plantvillage_fc8_plantvillage_0_split -> fc8_plantvillage_fc8_plantvillage_0_split_0
I0403 12:06:11.505769  8435 net.cpp:399] fc8_plantvillage_fc8_plantvillage_0_split -> fc8_plantvillage_fc8_plantvillage_0_split_1
I0403 12:06:11.505789  8435 net.cpp:399] fc8_plantvillage_fc8_plantvillage_0_split -> fc8_plantvillage_fc8_plantvillage_0_split_2
I0403 12:06:11.505867  8435 net.cpp:141] Setting up fc8_plantvillage_fc8_plantvillage_0_split
I0403 12:06:11.505889  8435 net.cpp:148] Top shape: 100 38 (3800)
I0403 12:06:11.505905  8435 net.cpp:148] Top shape: 100 38 (3800)
I0403 12:06:11.505920  8435 net.cpp:148] Top shape: 100 38 (3800)
I0403 12:06:11.505935  8435 net.cpp:156] Memory required for data: 831586800
I0403 12:06:11.505949  8435 layer_factory.hpp:77] Creating layer prob
I0403 12:06:11.505967  8435 net.cpp:91] Creating Layer prob
I0403 12:06:11.505982  8435 net.cpp:425] prob <- fc8_plantvillage_fc8_plantvillage_0_split_0
I0403 12:06:11.506001  8435 net.cpp:399] prob -> prob
I0403 12:06:11.506227  8435 net.cpp:141] Setting up prob
I0403 12:06:11.506255  8435 net.cpp:148] Top shape: 100 38 (3800)
I0403 12:06:11.506271  8435 net.cpp:156] Memory required for data: 831602000
I0403 12:06:11.506285  8435 layer_factory.hpp:77] Creating layer hdf5out
I0403 12:06:11.506304  8435 net.cpp:91] Creating Layer hdf5out
I0403 12:06:11.506319  8435 net.cpp:425] hdf5out <- prob
I0403 12:06:11.506335  8435 net.cpp:425] hdf5out <- label_data_1_split_0
I0403 12:06:11.508843  8435 net.cpp:141] Setting up hdf5out
…
