…
I0403 12:30:34.851867  9008 net.cpp:313] The NetState phase (1) differed from the phase (0) specified by a rule in layer data
I0403 12:30:34.852174  9008 net.cpp:49] Initializing net from parameters: 
state {
  phase: TEST
}
layer {
  name: "data"
  type: "Data"
  top: "data"
  top: "label"
  include {
    phase: TEST
  }
  transform_param {
    crop_size: 227
    mean_file: "/home/mohanty/data/final_dataset/lmdb/segmented-20-80/mean.binaryproto"
  }
  data_param {
    source: "/home/mohanty/data/final_dataset/lmdb/segmented-20-80/test_db"
    batch_size: 100
    backend: LMDB
  }
}
layer {
  name: "conv1"
  type: "Convolution"
  bottom: "data"
  top: "conv1"
  param {
    lr_mult: 1
    decay_mult: 1
  }
  param {
    lr_mult: 2
    decay_mult: 0
  }
  convolution_param {
    num_output: 96
    kernel_size: 11
    stride: 4
    weight_filler {
      type: "gaussian"
      std: 0.01
    }
    bias_filler {
      type: "constant"
      value: 0
    }
  }
}
layer {
  name: "relu1"
  type: "ReLU"
  bottom: "conv1"
  top: "conv1"
}
layer {
  name: "norm1"
  type: "LRN"
  bottom: "conv1"
  top: "norm1"
  lrn_param {
    local_size: 5
    alpha: 0.0001
    beta: 0.75
  }
}
layer {
  name: "pool1"
  type: "Pooling"
  bottom: "norm1"
  top: "pool1"
  pooling_param {
    pool: MAX
    kernel_size: 3
    stride: 2
  }
}
layer {
  name: "conv2"
  type: "Convolution"
  bottom: "pool1"
  top: "conv2"
  param {
    lr_mult: 1
    decay_mult: 1
  }
  param {
    lr_mult: 2
    decay_mult: 0
  }
  convolution_param {
    num_output: 256
    pad: 2
    kernel_size: 5
    group: 2
    weight_filler {
      type: "gaussian"
      std: 0.01
    }
    bias_filler {
      type: "constant"
      value: 0.1
    }
  }
}
layer {
  name: "relu2"
  type: "ReLU"
  bottom: "conv2"
  top: "conv2"
}
layer {
  name: "norm2"
  type: "LRN"
  bottom: "conv2"
  top: "norm2"
  lrn_param {
    local_size: 5
    alpha: 0.0001
    beta: 0.75
  }
}
layer {
  name: "pool2"
  type: "Pooling"
  bottom: "norm2"
  top: "pool2"
  pooling_param {
    pool: MAX
    kernel_size: 3
    stride: 2
  }
}
layer {
  name: "conv3"
  type: "Convolution"
  bottom: "pool2"
  top: "conv3"
  param {
    lr_mult: 1
    decay_mult: 1
  }
  param {
    lr_mult: 2
    decay_mult: 0
  }
  convolution_param {
    num_output: 384
    pad: 1
    kernel_size: 3
    weight_filler {
      type: "gaussian"
      std: 0.01
    }
    bias_filler {
      type: "constant"
      value: 0
    }
  }
}
layer {
  name: "relu3"
  type: "ReLU"
  bottom: "conv3"
  top: "conv3"
}
layer {
  name: "conv4"
  type: "Convolution"
  bottom: "conv3"
  top: "conv4"
  param {
    lr_mult: 1
    decay_mult: 1
  }
  param {
    lr_mult: 2
    decay_mult: 0
  }
  convolution_param {
    num_output: 384
    pad: 1
    kernel_size: 3
    group: 2
    weight_filler {
      type: "gaussian"
      std: 0.01
    }
    bias_filler {
      type: "constant"
      value: 0.1
    }
  }
}
layer {
  name: "relu4"
  type: "ReLU"
  bottom: "conv4"
  top: "conv4"
}
layer {
  name: "conv5"
  type: "Convolution"
  bottom: "conv4"
  top: "conv5"
  param {
    lr_mult: 1
    decay_mult: 1
  }
  param {
    lr_mult: 2
    decay_mult: 0
  }
  convolution_param {
    num_output: 256
    pad: 1
    kernel_size: 3
    group: 2
    weight_filler {
      type: "gaussian"
      std: 0.01
    }
    bias_filler {
      type: "constant"
      value: 0.1
    }
  }
}
layer {
  name: "relu5"
  type: "ReLU"
  bottom: "conv5"
  top: "conv5"
}
layer {
  name: "pool5"
  type: "Pooling"
  bottom: "conv5"
  top: "pool5"
  pooling_param {
    pool: MAX
    kernel_size: 3
    stride: 2
  }
}
layer {
  name: "fc6"
  type: "InnerProduct"
  bottom: "pool5"
  top: "fc6"
  param {
    lr_mult: 1
    decay_mult: 1
  }
  param {
    lr_mult: 2
    decay_mult: 0
  }
  inner_product_param {
    num_output: 4096
    weight_filler {
      type: "gaussian"
      std: 0.005
    }
    bias_filler {
      type: "constant"
      value: 0.1
    }
  }
}
layer {
  name: "relu6"
  type: "ReLU"
  bottom: "fc6"
  top: "fc6"
}
layer {
  name: "drop6"
  type: "Dropout"
  bottom: "fc6"
  top: "fc6"
  dropout_param {
    dropout_ratio: 0.5
  }
}
layer {
  name: "fc7"
  type: "InnerProduct"
  bottom: "fc6"
  top: "fc7"
  param {
    lr_mult: 1
    decay_mult: 1
  }
  param {
    lr_mult: 2
    decay_mult: 0
  }
  inner_product_param {
    num_output: 4096
    weight_filler {
      type: "gaussian"
      std: 0.005
    }
    bias_filler {
      type: "constant"
      value: 0.1
    }
  }
}
layer {
  name: "relu7"
  type: "ReLU"
  bottom: "fc7"
  top: "fc7"
}
layer {
  name: "drop7"
  type: "Dropout"
  bottom: "fc7"
  top: "fc7"
  dropout_param {
    dropout_ratio: 0.5
  }
}
layer {
  name: "fc8_plantvillage"
  type: "InnerProduct"
  bottom: "fc7"
  top: "fc8_plantvillage"
  param {
    lr_mult: 1
    decay_mult: 1
  }
  param {
    lr_mult: 2
    decay_mult: 0
  }
  inner_product_param {
    num_output: 38
    weight_filler {
      type: "gaussian"
      std: 0.01
    }
    bias_filler {
      type: "constant"
      value: 0
    }
  }
}
layer {
  name: "prob"
  type: "Softmax"
  bottom: "fc8_plantvillage"
  top: "prob"
  include {
    phase: TEST
  }
}
layer {
  name: "hdf5out"
  type: "HDF5Output"
  bottom: "prob"
  bottom: "label"
  include {
    phase: TEST
  }
  hdf5_output_param {
    file_name: "hdf5_dumps/iter_2438.h5"
  }
}
layer {
  name: "loss"
  type: "SoftmaxWithLoss"
  bottom: "fc8_plantvillage"
  bottom: "label"
  top: "loss"
}
layer {
  name: "accuracy"
  type: "Accuracy"
  bottom: "fc8_plantvillage"
  bottom: "label"
  top: "accuracy"
  include {
    phase: TEST
  }
}
I0403 12:30:34.852742  9008 layer_factory.hpp:77] Creating layer data
I0403 12:30:34.853395  9008 net.cpp:91] Creating Layer data
I0403 12:30:34.853428  9008 net.cpp:399] data -> data
I0403 12:30:34.853495  9008 net.cpp:399] data -> label
I0403 12:30:34.853548  9008 data_transformer.cpp:25] Loading mean file from: /home/mohanty/data/final_dataset/lmdb/segmented-20-80/mean.binaryproto
I0403 12:30:34.855865  9011 db_lmdb.cpp:38] Opened lmdb /home/mohanty/data/final_dataset/lmdb/segmented-20-80/test_db
I0403 12:30:34.868226  9008 data_layer.cpp:41] output data size: 100,3,227,227
I0403 12:30:34.990192  9008 net.cpp:141] Setting up data
I0403 12:30:34.990285  9008 net.cpp:148] Top shape: 100 3 227 227 (15458700)
I0403 12:30:34.990309  9008 net.cpp:148] Top shape: 100 (100)
I0403 12:30:34.990324  9008 net.cpp:156] Memory required for data: 61835200
I0403 12:30:34.990352  9008 layer_factory.hpp:77] Creating layer label_data_1_split
I0403 12:30:34.990378  9008 net.cpp:91] Creating Layer label_data_1_split
I0403 12:30:34.990396  9008 net.cpp:425] label_data_1_split <- label
I0403 12:30:34.990428  9008 net.cpp:399] label_data_1_split -> label_data_1_split_0
I0403 12:30:34.990456  9008 net.cpp:399] label_data_1_split -> label_data_1_split_1
I0403 12:30:34.990476  9008 net.cpp:399] label_data_1_split -> label_data_1_split_2
I0403 12:30:34.990540  9008 net.cpp:141] Setting up label_data_1_split
I0403 12:30:34.990563  9008 net.cpp:148] Top shape: 100 (100)
I0403 12:30:34.990586  9008 net.cpp:148] Top shape: 100 (100)
I0403 12:30:34.990602  9008 net.cpp:148] Top shape: 100 (100)
I0403 12:30:34.990617  9008 net.cpp:156] Memory required for data: 61836400
I0403 12:30:34.990630  9008 layer_factory.hpp:77] Creating layer conv1
I0403 12:30:34.990661  9008 net.cpp:91] Creating Layer conv1
I0403 12:30:34.990679  9008 net.cpp:425] conv1 <- data
I0403 12:30:34.990700  9008 net.cpp:399] conv1 -> conv1
I0403 12:30:35.135763  9008 net.cpp:141] Setting up conv1
I0403 12:30:35.135843  9008 net.cpp:148] Top shape: 100 96 55 55 (29040000)
I0403 12:30:35.135862  9008 net.cpp:156] Memory required for data: 177996400
I0403 12:30:35.135895  9008 layer_factory.hpp:77] Creating layer relu1
I0403 12:30:35.135923  9008 net.cpp:91] Creating Layer relu1
I0403 12:30:35.135942  9008 net.cpp:425] relu1 <- conv1
I0403 12:30:35.135962  9008 net.cpp:386] relu1 -> conv1 (in-place)
I0403 12:30:35.136245  9008 net.cpp:141] Setting up relu1
I0403 12:30:35.136276  9008 net.cpp:148] Top shape: 100 96 55 55 (29040000)
I0403 12:30:35.136328  9008 net.cpp:156] Memory required for data: 294156400
I0403 12:30:35.136344  9008 layer_factory.hpp:77] Creating layer norm1
I0403 12:30:35.136373  9008 net.cpp:91] Creating Layer norm1
I0403 12:30:35.136390  9008 net.cpp:425] norm1 <- conv1
I0403 12:30:35.136409  9008 net.cpp:399] norm1 -> norm1
I0403 12:30:35.136742  9008 net.cpp:141] Setting up norm1
I0403 12:30:35.136771  9008 net.cpp:148] Top shape: 100 96 55 55 (29040000)
I0403 12:30:35.136787  9008 net.cpp:156] Memory required for data: 410316400
I0403 12:30:35.136803  9008 layer_factory.hpp:77] Creating layer pool1
I0403 12:30:35.136826  9008 net.cpp:91] Creating Layer pool1
I0403 12:30:35.136843  9008 net.cpp:425] pool1 <- norm1
I0403 12:30:35.136862  9008 net.cpp:399] pool1 -> pool1
I0403 12:30:35.136929  9008 net.cpp:141] Setting up pool1
I0403 12:30:35.136955  9008 net.cpp:148] Top shape: 100 96 27 27 (6998400)
I0403 12:30:35.136970  9008 net.cpp:156] Memory required for data: 438310000
I0403 12:30:35.136986  9008 layer_factory.hpp:77] Creating layer conv2
I0403 12:30:35.137011  9008 net.cpp:91] Creating Layer conv2
I0403 12:30:35.137027  9008 net.cpp:425] conv2 <- pool1
I0403 12:30:35.137045  9008 net.cpp:399] conv2 -> conv2
I0403 12:30:35.152592  9008 net.cpp:141] Setting up conv2
I0403 12:30:35.152642  9008 net.cpp:148] Top shape: 100 256 27 27 (18662400)
I0403 12:30:35.152658  9008 net.cpp:156] Memory required for data: 512959600
I0403 12:30:35.152683  9008 layer_factory.hpp:77] Creating layer relu2
I0403 12:30:35.152707  9008 net.cpp:91] Creating Layer relu2
I0403 12:30:35.152726  9008 net.cpp:425] relu2 <- conv2
I0403 12:30:35.152745  9008 net.cpp:386] relu2 -> conv2 (in-place)
I0403 12:30:35.153029  9008 net.cpp:141] Setting up relu2
I0403 12:30:35.153080  9008 net.cpp:148] Top shape: 100 256 27 27 (18662400)
I0403 12:30:35.153100  9008 net.cpp:156] Memory required for data: 587609200
I0403 12:30:35.153115  9008 layer_factory.hpp:77] Creating layer norm2
I0403 12:30:35.153141  9008 net.cpp:91] Creating Layer norm2
I0403 12:30:35.153158  9008 net.cpp:425] norm2 <- conv2
I0403 12:30:35.153180  9008 net.cpp:399] norm2 -> norm2
I0403 12:30:35.153386  9008 net.cpp:141] Setting up norm2
I0403 12:30:35.153412  9008 net.cpp:148] Top shape: 100 256 27 27 (18662400)
I0403 12:30:35.153429  9008 net.cpp:156] Memory required for data: 662258800
I0403 12:30:35.153442  9008 layer_factory.hpp:77] Creating layer pool2
I0403 12:30:35.153465  9008 net.cpp:91] Creating Layer pool2
I0403 12:30:35.153481  9008 net.cpp:425] pool2 <- norm2
I0403 12:30:35.153499  9008 net.cpp:399] pool2 -> pool2
I0403 12:30:35.153554  9008 net.cpp:141] Setting up pool2
I0403 12:30:35.153583  9008 net.cpp:148] Top shape: 100 256 13 13 (4326400)
I0403 12:30:35.153599  9008 net.cpp:156] Memory required for data: 679564400
I0403 12:30:35.153614  9008 layer_factory.hpp:77] Creating layer conv3
I0403 12:30:35.153636  9008 net.cpp:91] Creating Layer conv3
I0403 12:30:35.153655  9008 net.cpp:425] conv3 <- pool2
I0403 12:30:35.153674  9008 net.cpp:399] conv3 -> conv3
I0403 12:30:35.192363  9008 net.cpp:141] Setting up conv3
I0403 12:30:35.192436  9008 net.cpp:148] Top shape: 100 384 13 13 (6489600)
I0403 12:30:35.192453  9008 net.cpp:156] Memory required for data: 705522800
I0403 12:30:35.192481  9008 layer_factory.hpp:77] Creating layer relu3
I0403 12:30:35.192505  9008 net.cpp:91] Creating Layer relu3
I0403 12:30:35.192523  9008 net.cpp:425] relu3 <- conv3
I0403 12:30:35.192541  9008 net.cpp:386] relu3 -> conv3 (in-place)
I0403 12:30:35.192822  9008 net.cpp:141] Setting up relu3
I0403 12:30:35.192848  9008 net.cpp:148] Top shape: 100 384 13 13 (6489600)
I0403 12:30:35.192863  9008 net.cpp:156] Memory required for data: 731481200
I0403 12:30:35.192878  9008 layer_factory.hpp:77] Creating layer conv4
I0403 12:30:35.192904  9008 net.cpp:91] Creating Layer conv4
I0403 12:30:35.192922  9008 net.cpp:425] conv4 <- conv3
I0403 12:30:35.192942  9008 net.cpp:399] conv4 -> conv4
I0403 12:30:35.222429  9008 net.cpp:141] Setting up conv4
I0403 12:30:35.222499  9008 net.cpp:148] Top shape: 100 384 13 13 (6489600)
I0403 12:30:35.222550  9008 net.cpp:156] Memory required for data: 757439600
I0403 12:30:35.222578  9008 layer_factory.hpp:77] Creating layer relu4
I0403 12:30:35.222605  9008 net.cpp:91] Creating Layer relu4
I0403 12:30:35.222625  9008 net.cpp:425] relu4 <- conv4
I0403 12:30:35.222643  9008 net.cpp:386] relu4 -> conv4 (in-place)
I0403 12:30:35.222925  9008 net.cpp:141] Setting up relu4
I0403 12:30:35.222952  9008 net.cpp:148] Top shape: 100 384 13 13 (6489600)
I0403 12:30:35.222967  9008 net.cpp:156] Memory required for data: 783398000
I0403 12:30:35.222983  9008 layer_factory.hpp:77] Creating layer conv5
I0403 12:30:35.223009  9008 net.cpp:91] Creating Layer conv5
I0403 12:30:35.223026  9008 net.cpp:425] conv5 <- conv4
I0403 12:30:35.223048  9008 net.cpp:399] conv5 -> conv5
I0403 12:30:35.243595  9008 net.cpp:141] Setting up conv5
I0403 12:30:35.243654  9008 net.cpp:148] Top shape: 100 256 13 13 (4326400)
I0403 12:30:35.243670  9008 net.cpp:156] Memory required for data: 800703600
I0403 12:30:35.243695  9008 layer_factory.hpp:77] Creating layer relu5
I0403 12:30:35.243721  9008 net.cpp:91] Creating Layer relu5
I0403 12:30:35.243741  9008 net.cpp:425] relu5 <- conv5
I0403 12:30:35.243759  9008 net.cpp:386] relu5 -> conv5 (in-place)
I0403 12:30:35.244042  9008 net.cpp:141] Setting up relu5
I0403 12:30:35.244071  9008 net.cpp:148] Top shape: 100 256 13 13 (4326400)
I0403 12:30:35.244086  9008 net.cpp:156] Memory required for data: 818009200
I0403 12:30:35.244101  9008 layer_factory.hpp:77] Creating layer pool5
I0403 12:30:35.244124  9008 net.cpp:91] Creating Layer pool5
I0403 12:30:35.244143  9008 net.cpp:425] pool5 <- conv5
I0403 12:30:35.244164  9008 net.cpp:399] pool5 -> pool5
I0403 12:30:35.244226  9008 net.cpp:141] Setting up pool5
I0403 12:30:35.244251  9008 net.cpp:148] Top shape: 100 256 6 6 (921600)
I0403 12:30:35.244267  9008 net.cpp:156] Memory required for data: 821695600
I0403 12:30:35.244282  9008 layer_factory.hpp:77] Creating layer fc6
I0403 12:30:35.244310  9008 net.cpp:91] Creating Layer fc6
I0403 12:30:35.244328  9008 net.cpp:425] fc6 <- pool5
I0403 12:30:35.244348  9008 net.cpp:399] fc6 -> fc6
I0403 12:30:36.787111  9008 net.cpp:141] Setting up fc6
I0403 12:30:36.787161  9008 net.cpp:148] Top shape: 100 4096 (409600)
I0403 12:30:36.787178  9008 net.cpp:156] Memory required for data: 823334000
I0403 12:30:36.787199  9008 layer_factory.hpp:77] Creating layer relu6
I0403 12:30:36.787221  9008 net.cpp:91] Creating Layer relu6
I0403 12:30:36.787238  9008 net.cpp:425] relu6 <- fc6
I0403 12:30:36.787259  9008 net.cpp:386] relu6 -> fc6 (in-place)
I0403 12:30:36.787484  9008 net.cpp:141] Setting up relu6
I0403 12:30:36.787509  9008 net.cpp:148] Top shape: 100 4096 (409600)
I0403 12:30:36.787523  9008 net.cpp:156] Memory required for data: 824972400
I0403 12:30:36.787539  9008 layer_factory.hpp:77] Creating layer drop6
I0403 12:30:36.787559  9008 net.cpp:91] Creating Layer drop6
I0403 12:30:36.787580  9008 net.cpp:425] drop6 <- fc6
I0403 12:30:36.787597  9008 net.cpp:386] drop6 -> fc6 (in-place)
I0403 12:30:36.787650  9008 net.cpp:141] Setting up drop6
I0403 12:30:36.787684  9008 net.cpp:148] Top shape: 100 4096 (409600)
I0403 12:30:36.787698  9008 net.cpp:156] Memory required for data: 826610800
I0403 12:30:36.787713  9008 layer_factory.hpp:77] Creating layer fc7
I0403 12:30:36.787731  9008 net.cpp:91] Creating Layer fc7
I0403 12:30:36.787745  9008 net.cpp:425] fc7 <- fc6
I0403 12:30:36.787765  9008 net.cpp:399] fc7 -> fc7
I0403 12:30:37.478852  9008 net.cpp:141] Setting up fc7
I0403 12:30:37.478931  9008 net.cpp:148] Top shape: 100 4096 (409600)
I0403 12:30:37.478947  9008 net.cpp:156] Memory required for data: 828249200
I0403 12:30:37.478970  9008 layer_factory.hpp:77] Creating layer relu7
I0403 12:30:37.478994  9008 net.cpp:91] Creating Layer relu7
I0403 12:30:37.479012  9008 net.cpp:425] relu7 <- fc7
I0403 12:30:37.479032  9008 net.cpp:386] relu7 -> fc7 (in-place)
I0403 12:30:37.479436  9008 net.cpp:141] Setting up relu7
I0403 12:30:37.479462  9008 net.cpp:148] Top shape: 100 4096 (409600)
I0403 12:30:37.479517  9008 net.cpp:156] Memory required for data: 829887600
I0403 12:30:37.479534  9008 layer_factory.hpp:77] Creating layer drop7
I0403 12:30:37.479555  9008 net.cpp:91] Creating Layer drop7
I0403 12:30:37.479574  9008 net.cpp:425] drop7 <- fc7
I0403 12:30:37.479593  9008 net.cpp:386] drop7 -> fc7 (in-place)
I0403 12:30:37.479637  9008 net.cpp:141] Setting up drop7
I0403 12:30:37.479660  9008 net.cpp:148] Top shape: 100 4096 (409600)
I0403 12:30:37.479676  9008 net.cpp:156] Memory required for data: 831526000
I0403 12:30:37.479689  9008 layer_factory.hpp:77] Creating layer fc8_plantvillage
I0403 12:30:37.479708  9008 net.cpp:91] Creating Layer fc8_plantvillage
I0403 12:30:37.479723  9008 net.cpp:425] fc8_plantvillage <- fc7
I0403 12:30:37.479743  9008 net.cpp:399] fc8_plantvillage -> fc8_plantvillage
I0403 12:30:37.486443  9008 net.cpp:141] Setting up fc8_plantvillage
I0403 12:30:37.486470  9008 net.cpp:148] Top shape: 100 38 (3800)
I0403 12:30:37.486485  9008 net.cpp:156] Memory required for data: 831541200
I0403 12:30:37.486503  9008 layer_factory.hpp:77] Creating layer fc8_plantvillage_fc8_plantvillage_0_split
I0403 12:30:37.486526  9008 net.cpp:91] Creating Layer fc8_plantvillage_fc8_plantvillage_0_split
I0403 12:30:37.486541  9008 net.cpp:425] fc8_plantvillage_fc8_plantvillage_0_split <- fc8_plantvillage
I0403 12:30:37.486559  9008 net.cpp:399] fc8_plantvillage_fc8_plantvillage_0_split -> fc8_plantvillage_fc8_plantvillage_0_split_0
I0403 12:30:37.486583  9008 net.cpp:399] fc8_plantvillage_fc8_plantvillage_0_split -> fc8_plantvillage_fc8_plantvillage_0_split_1
I0403 12:30:37.486606  9008 net.cpp:399] fc8_plantvillage_fc8_plantvillage_0_split -> fc8_plantvillage_fc8_plantvillage_0_split_2
I0403 12:30:37.486683  9008 net.cpp:141] Setting up fc8_plantvillage_fc8_plantvillage_0_split
I0403 12:30:37.486707  9008 net.cpp:148] Top shape: 100 38 (3800)
I0403 12:30:37.486723  9008 net.cpp:148] Top shape: 100 38 (3800)
I0403 12:30:37.486738  9008 net.cpp:148] Top shape: 100 38 (3800)
I0403 12:30:37.486752  9008 net.cpp:156] Memory required for data: 831586800
I0403 12:30:37.486766  9008 layer_factory.hpp:77] Creating layer prob
I0403 12:30:37.486784  9008 net.cpp:91] Creating Layer prob
I0403 12:30:37.486800  9008 net.cpp:425] prob <- fc8_plantvillage_fc8_plantvillage_0_split_0
I0403 12:30:37.486820  9008 net.cpp:399] prob -> prob
I0403 12:30:37.487048  9008 net.cpp:141] Setting up prob
I0403 12:30:37.487073  9008 net.cpp:148] Top shape: 100 38 (3800)
I0403 12:30:37.487088  9008 net.cpp:156] Memory required for data: 831602000
I0403 12:30:37.487103  9008 layer_factory.hpp:77] Creating layer hdf5out
I0403 12:30:37.487135  9008 net.cpp:91] Creating Layer hdf5out
I0403 12:30:37.487151  9008 net.cpp:425] hdf5out <- prob
I0403 12:30:37.487166  9008 net.cpp:425] hdf5out <- label_data_1_split_0
I0403 12:30:37.489738  9008 net.cpp:141] Setting up hdf5out
…
