…
I0403 12:33:07.036558  9058 net.cpp:313] The NetState phase (1) differed from the phase (0) specified by a rule in layer data
I0403 12:33:07.036881  9058 net.cpp:49] Initializing net from parameters: 
state {
  phase: TEST
}
layer {
  name: "data"
  type: "Data"
  top: "data"
  top: "label"
  include {
    phase: TEST
  }
  transform_param {
    crop_size: 227
    mean_file: "/home/mohanty/data/final_dataset/lmdb/segmented-20-80/mean.binaryproto"
  }
  data_param {
    source: "/home/mohanty/data/final_dataset/lmdb/segmented-20-80/test_db"
    batch_size: 100
    backend: LMDB
  }
}
layer {
  name: "conv1"
  type: "Convolution"
  bottom: "data"
  top: "conv1"
  param {
    lr_mult: 1
    decay_mult: 1
  }
  param {
    lr_mult: 2
    decay_mult: 0
  }
  convolution_param {
    num_output: 96
    kernel_size: 11
    stride: 4
    weight_filler {
      type: "gaussian"
      std: 0.01
    }
    bias_filler {
      type: "constant"
      value: 0
    }
  }
}
layer {
  name: "relu1"
  type: "ReLU"
  bottom: "conv1"
  top: "conv1"
}
layer {
  name: "norm1"
  type: "LRN"
  bottom: "conv1"
  top: "norm1"
  lrn_param {
    local_size: 5
    alpha: 0.0001
    beta: 0.75
  }
}
layer {
  name: "pool1"
  type: "Pooling"
  bottom: "norm1"
  top: "pool1"
  pooling_param {
    pool: MAX
    kernel_size: 3
    stride: 2
  }
}
layer {
  name: "conv2"
  type: "Convolution"
  bottom: "pool1"
  top: "conv2"
  param {
    lr_mult: 1
    decay_mult: 1
  }
  param {
    lr_mult: 2
    decay_mult: 0
  }
  convolution_param {
    num_output: 256
    pad: 2
    kernel_size: 5
    group: 2
    weight_filler {
      type: "gaussian"
      std: 0.01
    }
    bias_filler {
      type: "constant"
      value: 0.1
    }
  }
}
layer {
  name: "relu2"
  type: "ReLU"
  bottom: "conv2"
  top: "conv2"
}
layer {
  name: "norm2"
  type: "LRN"
  bottom: "conv2"
  top: "norm2"
  lrn_param {
    local_size: 5
    alpha: 0.0001
    beta: 0.75
  }
}
layer {
  name: "pool2"
  type: "Pooling"
  bottom: "norm2"
  top: "pool2"
  pooling_param {
    pool: MAX
    kernel_size: 3
    stride: 2
  }
}
layer {
  name: "conv3"
  type: "Convolution"
  bottom: "pool2"
  top: "conv3"
  param {
    lr_mult: 1
    decay_mult: 1
  }
  param {
    lr_mult: 2
    decay_mult: 0
  }
  convolution_param {
    num_output: 384
    pad: 1
    kernel_size: 3
    weight_filler {
      type: "gaussian"
      std: 0.01
    }
    bias_filler {
      type: "constant"
      value: 0
    }
  }
}
layer {
  name: "relu3"
  type: "ReLU"
  bottom: "conv3"
  top: "conv3"
}
layer {
  name: "conv4"
  type: "Convolution"
  bottom: "conv3"
  top: "conv4"
  param {
    lr_mult: 1
    decay_mult: 1
  }
  param {
    lr_mult: 2
    decay_mult: 0
  }
  convolution_param {
    num_output: 384
    pad: 1
    kernel_size: 3
    group: 2
    weight_filler {
      type: "gaussian"
      std: 0.01
    }
    bias_filler {
      type: "constant"
      value: 0.1
    }
  }
}
layer {
  name: "relu4"
  type: "ReLU"
  bottom: "conv4"
  top: "conv4"
}
layer {
  name: "conv5"
  type: "Convolution"
  bottom: "conv4"
  top: "conv5"
  param {
    lr_mult: 1
    decay_mult: 1
  }
  param {
    lr_mult: 2
    decay_mult: 0
  }
  convolution_param {
    num_output: 256
    pad: 1
    kernel_size: 3
    group: 2
    weight_filler {
      type: "gaussian"
      std: 0.01
    }
    bias_filler {
      type: "constant"
      value: 0.1
    }
  }
}
layer {
  name: "relu5"
  type: "ReLU"
  bottom: "conv5"
  top: "conv5"
}
layer {
  name: "pool5"
  type: "Pooling"
  bottom: "conv5"
  top: "pool5"
  pooling_param {
    pool: MAX
    kernel_size: 3
    stride: 2
  }
}
layer {
  name: "fc6"
  type: "InnerProduct"
  bottom: "pool5"
  top: "fc6"
  param {
    lr_mult: 1
    decay_mult: 1
  }
  param {
    lr_mult: 2
    decay_mult: 0
  }
  inner_product_param {
    num_output: 4096
    weight_filler {
      type: "gaussian"
      std: 0.005
    }
    bias_filler {
      type: "constant"
      value: 0.1
    }
  }
}
layer {
  name: "relu6"
  type: "ReLU"
  bottom: "fc6"
  top: "fc6"
}
layer {
  name: "drop6"
  type: "Dropout"
  bottom: "fc6"
  top: "fc6"
  dropout_param {
    dropout_ratio: 0.5
  }
}
layer {
  name: "fc7"
  type: "InnerProduct"
  bottom: "fc6"
  top: "fc7"
  param {
    lr_mult: 1
    decay_mult: 1
  }
  param {
    lr_mult: 2
    decay_mult: 0
  }
  inner_product_param {
    num_output: 4096
    weight_filler {
      type: "gaussian"
      std: 0.005
    }
    bias_filler {
      type: "constant"
      value: 0.1
    }
  }
}
layer {
  name: "relu7"
  type: "ReLU"
  bottom: "fc7"
  top: "fc7"
}
layer {
  name: "drop7"
  type: "Dropout"
  bottom: "fc7"
  top: "fc7"
  dropout_param {
    dropout_ratio: 0.5
  }
}
layer {
  name: "fc8_plantvillage"
  type: "InnerProduct"
  bottom: "fc7"
  top: "fc8_plantvillage"
  param {
    lr_mult: 1
    decay_mult: 1
  }
  param {
    lr_mult: 2
    decay_mult: 0
  }
  inner_product_param {
    num_output: 38
    weight_filler {
      type: "gaussian"
      std: 0.01
    }
    bias_filler {
      type: "constant"
      value: 0
    }
  }
}
layer {
  name: "prob"
  type: "Softmax"
  bottom: "fc8_plantvillage"
  top: "prob"
  include {
    phase: TEST
  }
}
layer {
  name: "hdf5out"
  type: "HDF5Output"
  bottom: "prob"
  bottom: "label"
  include {
    phase: TEST
  }
  hdf5_output_param {
    file_name: "hdf5_dumps/iter_2650.h5"
  }
}
layer {
  name: "loss"
  type: "SoftmaxWithLoss"
  bottom: "fc8_plantvillage"
  bottom: "label"
  top: "loss"
}
layer {
  name: "accuracy"
  type: "Accuracy"
  bottom: "fc8_plantvillage"
  bottom: "label"
  top: "accuracy"
  include {
    phase: TEST
  }
}
I0403 12:33:07.037441  9058 layer_factory.hpp:77] Creating layer data
I0403 12:33:07.038115  9058 net.cpp:91] Creating Layer data
I0403 12:33:07.038148  9058 net.cpp:399] data -> data
I0403 12:33:07.038199  9058 net.cpp:399] data -> label
I0403 12:33:07.038235  9058 data_transformer.cpp:25] Loading mean file from: /home/mohanty/data/final_dataset/lmdb/segmented-20-80/mean.binaryproto
I0403 12:33:07.041167  9061 db_lmdb.cpp:38] Opened lmdb /home/mohanty/data/final_dataset/lmdb/segmented-20-80/test_db
I0403 12:33:07.052803  9058 data_layer.cpp:41] output data size: 100,3,227,227
I0403 12:33:07.174242  9058 net.cpp:141] Setting up data
I0403 12:33:07.174334  9058 net.cpp:148] Top shape: 100 3 227 227 (15458700)
I0403 12:33:07.174356  9058 net.cpp:148] Top shape: 100 (100)
I0403 12:33:07.174371  9058 net.cpp:156] Memory required for data: 61835200
I0403 12:33:07.174399  9058 layer_factory.hpp:77] Creating layer label_data_1_split
I0403 12:33:07.174425  9058 net.cpp:91] Creating Layer label_data_1_split
I0403 12:33:07.174443  9058 net.cpp:425] label_data_1_split <- label
I0403 12:33:07.174474  9058 net.cpp:399] label_data_1_split -> label_data_1_split_0
I0403 12:33:07.174501  9058 net.cpp:399] label_data_1_split -> label_data_1_split_1
I0403 12:33:07.174523  9058 net.cpp:399] label_data_1_split -> label_data_1_split_2
I0403 12:33:07.174597  9058 net.cpp:141] Setting up label_data_1_split
I0403 12:33:07.174623  9058 net.cpp:148] Top shape: 100 (100)
I0403 12:33:07.174638  9058 net.cpp:148] Top shape: 100 (100)
I0403 12:33:07.174654  9058 net.cpp:148] Top shape: 100 (100)
I0403 12:33:07.174669  9058 net.cpp:156] Memory required for data: 61836400
I0403 12:33:07.174684  9058 layer_factory.hpp:77] Creating layer conv1
I0403 12:33:07.174715  9058 net.cpp:91] Creating Layer conv1
I0403 12:33:07.174734  9058 net.cpp:425] conv1 <- data
I0403 12:33:07.174754  9058 net.cpp:399] conv1 -> conv1
I0403 12:33:07.314173  9058 net.cpp:141] Setting up conv1
I0403 12:33:07.314254  9058 net.cpp:148] Top shape: 100 96 55 55 (29040000)
I0403 12:33:07.314271  9058 net.cpp:156] Memory required for data: 177996400
I0403 12:33:07.314303  9058 layer_factory.hpp:77] Creating layer relu1
I0403 12:33:07.314330  9058 net.cpp:91] Creating Layer relu1
I0403 12:33:07.314349  9058 net.cpp:425] relu1 <- conv1
I0403 12:33:07.314368  9058 net.cpp:386] relu1 -> conv1 (in-place)
I0403 12:33:07.314646  9058 net.cpp:141] Setting up relu1
I0403 12:33:07.314673  9058 net.cpp:148] Top shape: 100 96 55 55 (29040000)
I0403 12:33:07.314726  9058 net.cpp:156] Memory required for data: 294156400
I0403 12:33:07.314743  9058 layer_factory.hpp:77] Creating layer norm1
I0403 12:33:07.314769  9058 net.cpp:91] Creating Layer norm1
I0403 12:33:07.314787  9058 net.cpp:425] norm1 <- conv1
I0403 12:33:07.314805  9058 net.cpp:399] norm1 -> norm1
I0403 12:33:07.315109  9058 net.cpp:141] Setting up norm1
I0403 12:33:07.315135  9058 net.cpp:148] Top shape: 100 96 55 55 (29040000)
I0403 12:33:07.315151  9058 net.cpp:156] Memory required for data: 410316400
I0403 12:33:07.315165  9058 layer_factory.hpp:77] Creating layer pool1
I0403 12:33:07.315187  9058 net.cpp:91] Creating Layer pool1
I0403 12:33:07.315203  9058 net.cpp:425] pool1 <- norm1
I0403 12:33:07.315220  9058 net.cpp:399] pool1 -> pool1
I0403 12:33:07.315286  9058 net.cpp:141] Setting up pool1
I0403 12:33:07.315310  9058 net.cpp:148] Top shape: 100 96 27 27 (6998400)
I0403 12:33:07.315325  9058 net.cpp:156] Memory required for data: 438310000
I0403 12:33:07.315340  9058 layer_factory.hpp:77] Creating layer conv2
I0403 12:33:07.315362  9058 net.cpp:91] Creating Layer conv2
I0403 12:33:07.315378  9058 net.cpp:425] conv2 <- pool1
I0403 12:33:07.315397  9058 net.cpp:399] conv2 -> conv2
I0403 12:33:07.330273  9058 net.cpp:141] Setting up conv2
I0403 12:33:07.330327  9058 net.cpp:148] Top shape: 100 256 27 27 (18662400)
I0403 12:33:07.330343  9058 net.cpp:156] Memory required for data: 512959600
I0403 12:33:07.330368  9058 layer_factory.hpp:77] Creating layer relu2
I0403 12:33:07.330390  9058 net.cpp:91] Creating Layer relu2
I0403 12:33:07.330409  9058 net.cpp:425] relu2 <- conv2
I0403 12:33:07.330425  9058 net.cpp:386] relu2 -> conv2 (in-place)
I0403 12:33:07.330708  9058 net.cpp:141] Setting up relu2
I0403 12:33:07.330735  9058 net.cpp:148] Top shape: 100 256 27 27 (18662400)
I0403 12:33:07.330751  9058 net.cpp:156] Memory required for data: 587609200
I0403 12:33:07.330766  9058 layer_factory.hpp:77] Creating layer norm2
I0403 12:33:07.330790  9058 net.cpp:91] Creating Layer norm2
I0403 12:33:07.330806  9058 net.cpp:425] norm2 <- conv2
I0403 12:33:07.330827  9058 net.cpp:399] norm2 -> norm2
I0403 12:33:07.331029  9058 net.cpp:141] Setting up norm2
I0403 12:33:07.331055  9058 net.cpp:148] Top shape: 100 256 27 27 (18662400)
I0403 12:33:07.331070  9058 net.cpp:156] Memory required for data: 662258800
I0403 12:33:07.331085  9058 layer_factory.hpp:77] Creating layer pool2
I0403 12:33:07.331104  9058 net.cpp:91] Creating Layer pool2
I0403 12:33:07.331120  9058 net.cpp:425] pool2 <- norm2
I0403 12:33:07.331140  9058 net.cpp:399] pool2 -> pool2
I0403 12:33:07.331192  9058 net.cpp:141] Setting up pool2
I0403 12:33:07.331218  9058 net.cpp:148] Top shape: 100 256 13 13 (4326400)
I0403 12:33:07.331233  9058 net.cpp:156] Memory required for data: 679564400
I0403 12:33:07.331248  9058 layer_factory.hpp:77] Creating layer conv3
I0403 12:33:07.331272  9058 net.cpp:91] Creating Layer conv3
I0403 12:33:07.331290  9058 net.cpp:425] conv3 <- pool2
I0403 12:33:07.331308  9058 net.cpp:399] conv3 -> conv3
I0403 12:33:07.369433  9058 net.cpp:141] Setting up conv3
I0403 12:33:07.369505  9058 net.cpp:148] Top shape: 100 384 13 13 (6489600)
I0403 12:33:07.369521  9058 net.cpp:156] Memory required for data: 705522800
I0403 12:33:07.369547  9058 layer_factory.hpp:77] Creating layer relu3
I0403 12:33:07.369573  9058 net.cpp:91] Creating Layer relu3
I0403 12:33:07.369592  9058 net.cpp:425] relu3 <- conv3
I0403 12:33:07.369614  9058 net.cpp:386] relu3 -> conv3 (in-place)
I0403 12:33:07.369891  9058 net.cpp:141] Setting up relu3
I0403 12:33:07.369918  9058 net.cpp:148] Top shape: 100 384 13 13 (6489600)
I0403 12:33:07.369935  9058 net.cpp:156] Memory required for data: 731481200
I0403 12:33:07.369948  9058 layer_factory.hpp:77] Creating layer conv4
I0403 12:33:07.369973  9058 net.cpp:91] Creating Layer conv4
I0403 12:33:07.369992  9058 net.cpp:425] conv4 <- conv3
I0403 12:33:07.370013  9058 net.cpp:399] conv4 -> conv4
I0403 12:33:07.399862  9058 net.cpp:141] Setting up conv4
I0403 12:33:07.399931  9058 net.cpp:148] Top shape: 100 384 13 13 (6489600)
I0403 12:33:07.399998  9058 net.cpp:156] Memory required for data: 757439600
I0403 12:33:07.400022  9058 layer_factory.hpp:77] Creating layer relu4
I0403 12:33:07.400044  9058 net.cpp:91] Creating Layer relu4
I0403 12:33:07.400061  9058 net.cpp:425] relu4 <- conv4
I0403 12:33:07.400084  9058 net.cpp:386] relu4 -> conv4 (in-place)
I0403 12:33:07.400382  9058 net.cpp:141] Setting up relu4
I0403 12:33:07.400409  9058 net.cpp:148] Top shape: 100 384 13 13 (6489600)
I0403 12:33:07.400424  9058 net.cpp:156] Memory required for data: 783398000
I0403 12:33:07.400439  9058 layer_factory.hpp:77] Creating layer conv5
I0403 12:33:07.400465  9058 net.cpp:91] Creating Layer conv5
I0403 12:33:07.400482  9058 net.cpp:425] conv5 <- conv4
I0403 12:33:07.400503  9058 net.cpp:399] conv5 -> conv5
I0403 12:33:07.421743  9058 net.cpp:141] Setting up conv5
I0403 12:33:07.421802  9058 net.cpp:148] Top shape: 100 256 13 13 (4326400)
I0403 12:33:07.421818  9058 net.cpp:156] Memory required for data: 800703600
I0403 12:33:07.421844  9058 layer_factory.hpp:77] Creating layer relu5
I0403 12:33:07.421870  9058 net.cpp:91] Creating Layer relu5
I0403 12:33:07.421890  9058 net.cpp:425] relu5 <- conv5
I0403 12:33:07.421908  9058 net.cpp:386] relu5 -> conv5 (in-place)
I0403 12:33:07.422200  9058 net.cpp:141] Setting up relu5
I0403 12:33:07.422227  9058 net.cpp:148] Top shape: 100 256 13 13 (4326400)
I0403 12:33:07.422242  9058 net.cpp:156] Memory required for data: 818009200
I0403 12:33:07.422257  9058 layer_factory.hpp:77] Creating layer pool5
I0403 12:33:07.422284  9058 net.cpp:91] Creating Layer pool5
I0403 12:33:07.422302  9058 net.cpp:425] pool5 <- conv5
I0403 12:33:07.422320  9058 net.cpp:399] pool5 -> pool5
I0403 12:33:07.422384  9058 net.cpp:141] Setting up pool5
I0403 12:33:07.422407  9058 net.cpp:148] Top shape: 100 256 6 6 (921600)
I0403 12:33:07.422422  9058 net.cpp:156] Memory required for data: 821695600
I0403 12:33:07.422437  9058 layer_factory.hpp:77] Creating layer fc6
I0403 12:33:07.422464  9058 net.cpp:91] Creating Layer fc6
I0403 12:33:07.422482  9058 net.cpp:425] fc6 <- pool5
I0403 12:33:07.422502  9058 net.cpp:399] fc6 -> fc6
I0403 12:33:08.972656  9058 net.cpp:141] Setting up fc6
I0403 12:33:08.972733  9058 net.cpp:148] Top shape: 100 4096 (409600)
I0403 12:33:08.972748  9058 net.cpp:156] Memory required for data: 823334000
I0403 12:33:08.972769  9058 layer_factory.hpp:77] Creating layer relu6
I0403 12:33:08.972791  9058 net.cpp:91] Creating Layer relu6
I0403 12:33:08.972807  9058 net.cpp:425] relu6 <- fc6
I0403 12:33:08.972826  9058 net.cpp:386] relu6 -> fc6 (in-place)
I0403 12:33:08.973048  9058 net.cpp:141] Setting up relu6
I0403 12:33:08.973074  9058 net.cpp:148] Top shape: 100 4096 (409600)
I0403 12:33:08.973089  9058 net.cpp:156] Memory required for data: 824972400
I0403 12:33:08.973104  9058 layer_factory.hpp:77] Creating layer drop6
I0403 12:33:08.973122  9058 net.cpp:91] Creating Layer drop6
I0403 12:33:08.973137  9058 net.cpp:425] drop6 <- fc6
I0403 12:33:08.973155  9058 net.cpp:386] drop6 -> fc6 (in-place)
I0403 12:33:08.973207  9058 net.cpp:141] Setting up drop6
I0403 12:33:08.973232  9058 net.cpp:148] Top shape: 100 4096 (409600)
I0403 12:33:08.973248  9058 net.cpp:156] Memory required for data: 826610800
I0403 12:33:08.973264  9058 layer_factory.hpp:77] Creating layer fc7
I0403 12:33:08.973284  9058 net.cpp:91] Creating Layer fc7
I0403 12:33:08.973299  9058 net.cpp:425] fc7 <- fc6
I0403 12:33:08.973318  9058 net.cpp:399] fc7 -> fc7
I0403 12:33:09.654153  9058 net.cpp:141] Setting up fc7
I0403 12:33:09.654230  9058 net.cpp:148] Top shape: 100 4096 (409600)
I0403 12:33:09.654247  9058 net.cpp:156] Memory required for data: 828249200
I0403 12:33:09.654268  9058 layer_factory.hpp:77] Creating layer relu7
I0403 12:33:09.654290  9058 net.cpp:91] Creating Layer relu7
I0403 12:33:09.654307  9058 net.cpp:425] relu7 <- fc7
I0403 12:33:09.654330  9058 net.cpp:386] relu7 -> fc7 (in-place)
I0403 12:33:09.654736  9058 net.cpp:141] Setting up relu7
I0403 12:33:09.654762  9058 net.cpp:148] Top shape: 100 4096 (409600)
I0403 12:33:09.654817  9058 net.cpp:156] Memory required for data: 829887600
I0403 12:33:09.654834  9058 layer_factory.hpp:77] Creating layer drop7
I0403 12:33:09.654852  9058 net.cpp:91] Creating Layer drop7
I0403 12:33:09.654867  9058 net.cpp:425] drop7 <- fc7
I0403 12:33:09.654886  9058 net.cpp:386] drop7 -> fc7 (in-place)
I0403 12:33:09.654932  9058 net.cpp:141] Setting up drop7
I0403 12:33:09.654956  9058 net.cpp:148] Top shape: 100 4096 (409600)
I0403 12:33:09.654971  9058 net.cpp:156] Memory required for data: 831526000
I0403 12:33:09.654985  9058 layer_factory.hpp:77] Creating layer fc8_plantvillage
I0403 12:33:09.655005  9058 net.cpp:91] Creating Layer fc8_plantvillage
I0403 12:33:09.655021  9058 net.cpp:425] fc8_plantvillage <- fc7
I0403 12:33:09.655040  9058 net.cpp:399] fc8_plantvillage -> fc8_plantvillage
I0403 12:33:09.661747  9058 net.cpp:141] Setting up fc8_plantvillage
I0403 12:33:09.661777  9058 net.cpp:148] Top shape: 100 38 (3800)
I0403 12:33:09.661794  9058 net.cpp:156] Memory required for data: 831541200
I0403 12:33:09.661811  9058 layer_factory.hpp:77] Creating layer fc8_plantvillage_fc8_plantvillage_0_split
I0403 12:33:09.661833  9058 net.cpp:91] Creating Layer fc8_plantvillage_fc8_plantvillage_0_split
I0403 12:33:09.661849  9058 net.cpp:425] fc8_plantvillage_fc8_plantvillage_0_split <- fc8_plantvillage
I0403 12:33:09.661865  9058 net.cpp:399] fc8_plantvillage_fc8_plantvillage_0_split -> fc8_plantvillage_fc8_plantvillage_0_split_0
I0403 12:33:09.661885  9058 net.cpp:399] fc8_plantvillage_fc8_plantvillage_0_split -> fc8_plantvillage_fc8_plantvillage_0_split_1
I0403 12:33:09.661906  9058 net.cpp:399] fc8_plantvillage_fc8_plantvillage_0_split -> fc8_plantvillage_fc8_plantvillage_0_split_2
I0403 12:33:09.661985  9058 net.cpp:141] Setting up fc8_plantvillage_fc8_plantvillage_0_split
I0403 12:33:09.662009  9058 net.cpp:148] Top shape: 100 38 (3800)
I0403 12:33:09.662024  9058 net.cpp:148] Top shape: 100 38 (3800)
I0403 12:33:09.662039  9058 net.cpp:148] Top shape: 100 38 (3800)
I0403 12:33:09.662053  9058 net.cpp:156] Memory required for data: 831586800
I0403 12:33:09.662067  9058 layer_factory.hpp:77] Creating layer prob
I0403 12:33:09.662086  9058 net.cpp:91] Creating Layer prob
I0403 12:33:09.662101  9058 net.cpp:425] prob <- fc8_plantvillage_fc8_plantvillage_0_split_0
I0403 12:33:09.662117  9058 net.cpp:399] prob -> prob
I0403 12:33:09.662340  9058 net.cpp:141] Setting up prob
I0403 12:33:09.662365  9058 net.cpp:148] Top shape: 100 38 (3800)
I0403 12:33:09.662379  9058 net.cpp:156] Memory required for data: 831602000
I0403 12:33:09.662395  9058 layer_factory.hpp:77] Creating layer hdf5out
I0403 12:33:09.662412  9058 net.cpp:91] Creating Layer hdf5out
I0403 12:33:09.662428  9058 net.cpp:425] hdf5out <- prob
I0403 12:33:09.662443  9058 net.cpp:425] hdf5out <- label_data_1_split_0
I0403 12:33:09.664710  9058 net.cpp:141] Setting up hdf5out
…
