…
I0403 12:03:34.293225  8375 net.cpp:313] The NetState phase (1) differed from the phase (0) specified by a rule in layer data
I0403 12:03:34.293522  8375 net.cpp:49] Initializing net from parameters: 
state {
  phase: TEST
}
layer {
  name: "data"
  type: "Data"
  top: "data"
  top: "label"
  include {
    phase: TEST
  }
  transform_param {
    crop_size: 227
    mean_file: "/home/mohanty/data/final_dataset/lmdb/segmented-20-80/mean.binaryproto"
  }
  data_param {
    source: "/home/mohanty/data/final_dataset/lmdb/segmented-20-80/test_db"
    batch_size: 100
    backend: LMDB
  }
}
layer {
  name: "conv1"
  type: "Convolution"
  bottom: "data"
  top: "conv1"
  param {
    lr_mult: 1
    decay_mult: 1
  }
  param {
    lr_mult: 2
    decay_mult: 0
  }
  convolution_param {
    num_output: 96
    kernel_size: 11
    stride: 4
    weight_filler {
      type: "gaussian"
      std: 0.01
    }
    bias_filler {
      type: "constant"
      value: 0
    }
  }
}
layer {
  name: "relu1"
  type: "ReLU"
  bottom: "conv1"
  top: "conv1"
}
layer {
  name: "norm1"
  type: "LRN"
  bottom: "conv1"
  top: "norm1"
  lrn_param {
    local_size: 5
    alpha: 0.0001
    beta: 0.75
  }
}
layer {
  name: "pool1"
  type: "Pooling"
  bottom: "norm1"
  top: "pool1"
  pooling_param {
    pool: MAX
    kernel_size: 3
    stride: 2
  }
}
layer {
  name: "conv2"
  type: "Convolution"
  bottom: "pool1"
  top: "conv2"
  param {
    lr_mult: 1
    decay_mult: 1
  }
  param {
    lr_mult: 2
    decay_mult: 0
  }
  convolution_param {
    num_output: 256
    pad: 2
    kernel_size: 5
    group: 2
    weight_filler {
      type: "gaussian"
      std: 0.01
    }
    bias_filler {
      type: "constant"
      value: 0.1
    }
  }
}
layer {
  name: "relu2"
  type: "ReLU"
  bottom: "conv2"
  top: "conv2"
}
layer {
  name: "norm2"
  type: "LRN"
  bottom: "conv2"
  top: "norm2"
  lrn_param {
    local_size: 5
    alpha: 0.0001
    beta: 0.75
  }
}
layer {
  name: "pool2"
  type: "Pooling"
  bottom: "norm2"
  top: "pool2"
  pooling_param {
    pool: MAX
    kernel_size: 3
    stride: 2
  }
}
layer {
  name: "conv3"
  type: "Convolution"
  bottom: "pool2"
  top: "conv3"
  param {
    lr_mult: 1
    decay_mult: 1
  }
  param {
    lr_mult: 2
    decay_mult: 0
  }
  convolution_param {
    num_output: 384
    pad: 1
    kernel_size: 3
    weight_filler {
      type: "gaussian"
      std: 0.01
    }
    bias_filler {
      type: "constant"
      value: 0
    }
  }
}
layer {
  name: "relu3"
  type: "ReLU"
  bottom: "conv3"
  top: "conv3"
}
layer {
  name: "conv4"
  type: "Convolution"
  bottom: "conv3"
  top: "conv4"
  param {
    lr_mult: 1
    decay_mult: 1
  }
  param {
    lr_mult: 2
    decay_mult: 0
  }
  convolution_param {
    num_output: 384
    pad: 1
    kernel_size: 3
    group: 2
    weight_filler {
      type: "gaussian"
      std: 0.01
    }
    bias_filler {
      type: "constant"
      value: 0.1
    }
  }
}
layer {
  name: "relu4"
  type: "ReLU"
  bottom: "conv4"
  top: "conv4"
}
layer {
  name: "conv5"
  type: "Convolution"
  bottom: "conv4"
  top: "conv5"
  param {
    lr_mult: 1
    decay_mult: 1
  }
  param {
    lr_mult: 2
    decay_mult: 0
  }
  convolution_param {
    num_output: 256
    pad: 1
    kernel_size: 3
    group: 2
    weight_filler {
      type: "gaussian"
      std: 0.01
    }
    bias_filler {
      type: "constant"
      value: 0.1
    }
  }
}
layer {
  name: "relu5"
  type: "ReLU"
  bottom: "conv5"
  top: "conv5"
}
layer {
  name: "pool5"
  type: "Pooling"
  bottom: "conv5"
  top: "pool5"
  pooling_param {
    pool: MAX
    kernel_size: 3
    stride: 2
  }
}
layer {
  name: "fc6"
  type: "InnerProduct"
  bottom: "pool5"
  top: "fc6"
  param {
    lr_mult: 1
    decay_mult: 1
  }
  param {
    lr_mult: 2
    decay_mult: 0
  }
  inner_product_param {
    num_output: 4096
    weight_filler {
      type: "gaussian"
      std: 0.005
    }
    bias_filler {
      type: "constant"
      value: 0.1
    }
  }
}
layer {
  name: "relu6"
  type: "ReLU"
  bottom: "fc6"
  top: "fc6"
}
layer {
  name: "drop6"
  type: "Dropout"
  bottom: "fc6"
  top: "fc6"
  dropout_param {
    dropout_ratio: 0.5
  }
}
layer {
  name: "fc7"
  type: "InnerProduct"
  bottom: "fc6"
  top: "fc7"
  param {
    lr_mult: 1
    decay_mult: 1
  }
  param {
    lr_mult: 2
    decay_mult: 0
  }
  inner_product_param {
    num_output: 4096
    weight_filler {
      type: "gaussian"
      std: 0.005
    }
    bias_filler {
      type: "constant"
      value: 0.1
    }
  }
}
layer {
  name: "relu7"
  type: "ReLU"
  bottom: "fc7"
  top: "fc7"
}
layer {
  name: "drop7"
  type: "Dropout"
  bottom: "fc7"
  top: "fc7"
  dropout_param {
    dropout_ratio: 0.5
  }
}
layer {
  name: "fc8_plantvillage"
  type: "InnerProduct"
  bottom: "fc7"
  top: "fc8_plantvillage"
  param {
    lr_mult: 1
    decay_mult: 1
  }
  param {
    lr_mult: 2
    decay_mult: 0
  }
  inner_product_param {
    num_output: 38
    weight_filler {
      type: "gaussian"
      std: 0.01
    }
    bias_filler {
      type: "constant"
      value: 0
    }
  }
}
layer {
  name: "prob"
  type: "Softmax"
  bottom: "fc8_plantvillage"
  top: "prob"
  include {
    phase: TEST
  }
}
layer {
  name: "hdf5out"
  type: "HDF5Output"
  bottom: "prob"
  bottom: "label"
  include {
    phase: TEST
  }
  hdf5_output_param {
    file_name: "hdf5_dumps/iter_212.h5"
  }
}
layer {
  name: "loss"
  type: "SoftmaxWithLoss"
  bottom: "fc8_plantvillage"
  bottom: "label"
  top: "loss"
}
layer {
  name: "accuracy"
  type: "Accuracy"
  bottom: "fc8_plantvillage"
  bottom: "label"
  top: "accuracy"
  include {
    phase: TEST
  }
}
I0403 12:03:34.294091  8375 layer_factory.hpp:77] Creating layer data
I0403 12:03:34.294752  8375 net.cpp:91] Creating Layer data
I0403 12:03:34.294783  8375 net.cpp:399] data -> data
I0403 12:03:34.294844  8375 net.cpp:399] data -> label
I0403 12:03:34.294880  8375 data_transformer.cpp:25] Loading mean file from: /home/mohanty/data/final_dataset/lmdb/segmented-20-80/mean.binaryproto
I0403 12:03:34.297976  8378 db_lmdb.cpp:38] Opened lmdb /home/mohanty/data/final_dataset/lmdb/segmented-20-80/test_db
I0403 12:03:34.309334  8375 data_layer.cpp:41] output data size: 100,3,227,227
I0403 12:03:34.430958  8375 net.cpp:141] Setting up data
I0403 12:03:34.431015  8375 net.cpp:148] Top shape: 100 3 227 227 (15458700)
I0403 12:03:34.431038  8375 net.cpp:148] Top shape: 100 (100)
I0403 12:03:34.431054  8375 net.cpp:156] Memory required for data: 61835200
I0403 12:03:34.431082  8375 layer_factory.hpp:77] Creating layer label_data_1_split
I0403 12:03:34.431107  8375 net.cpp:91] Creating Layer label_data_1_split
I0403 12:03:34.431126  8375 net.cpp:425] label_data_1_split <- label
I0403 12:03:34.431159  8375 net.cpp:399] label_data_1_split -> label_data_1_split_0
I0403 12:03:34.431186  8375 net.cpp:399] label_data_1_split -> label_data_1_split_1
I0403 12:03:34.431206  8375 net.cpp:399] label_data_1_split -> label_data_1_split_2
I0403 12:03:34.431269  8375 net.cpp:141] Setting up label_data_1_split
I0403 12:03:34.431295  8375 net.cpp:148] Top shape: 100 (100)
I0403 12:03:34.431313  8375 net.cpp:148] Top shape: 100 (100)
I0403 12:03:34.431330  8375 net.cpp:148] Top shape: 100 (100)
I0403 12:03:34.431344  8375 net.cpp:156] Memory required for data: 61836400
I0403 12:03:34.431359  8375 layer_factory.hpp:77] Creating layer conv1
I0403 12:03:34.431391  8375 net.cpp:91] Creating Layer conv1
I0403 12:03:34.431409  8375 net.cpp:425] conv1 <- data
I0403 12:03:34.431428  8375 net.cpp:399] conv1 -> conv1
I0403 12:03:34.574869  8375 net.cpp:141] Setting up conv1
I0403 12:03:34.574949  8375 net.cpp:148] Top shape: 100 96 55 55 (29040000)
I0403 12:03:34.574968  8375 net.cpp:156] Memory required for data: 177996400
I0403 12:03:34.575001  8375 layer_factory.hpp:77] Creating layer relu1
I0403 12:03:34.575031  8375 net.cpp:91] Creating Layer relu1
I0403 12:03:34.575048  8375 net.cpp:425] relu1 <- conv1
I0403 12:03:34.575068  8375 net.cpp:386] relu1 -> conv1 (in-place)
I0403 12:03:34.575342  8375 net.cpp:141] Setting up relu1
I0403 12:03:34.575371  8375 net.cpp:148] Top shape: 100 96 55 55 (29040000)
I0403 12:03:34.575423  8375 net.cpp:156] Memory required for data: 294156400
I0403 12:03:34.575440  8375 layer_factory.hpp:77] Creating layer norm1
I0403 12:03:34.575469  8375 net.cpp:91] Creating Layer norm1
I0403 12:03:34.575489  8375 net.cpp:425] norm1 <- conv1
I0403 12:03:34.575507  8375 net.cpp:399] norm1 -> norm1
I0403 12:03:34.575860  8375 net.cpp:141] Setting up norm1
I0403 12:03:34.575889  8375 net.cpp:148] Top shape: 100 96 55 55 (29040000)
I0403 12:03:34.575906  8375 net.cpp:156] Memory required for data: 410316400
I0403 12:03:34.575922  8375 layer_factory.hpp:77] Creating layer pool1
I0403 12:03:34.575947  8375 net.cpp:91] Creating Layer pool1
I0403 12:03:34.575964  8375 net.cpp:425] pool1 <- norm1
I0403 12:03:34.575984  8375 net.cpp:399] pool1 -> pool1
I0403 12:03:34.576052  8375 net.cpp:141] Setting up pool1
I0403 12:03:34.576077  8375 net.cpp:148] Top shape: 100 96 27 27 (6998400)
I0403 12:03:34.576093  8375 net.cpp:156] Memory required for data: 438310000
I0403 12:03:34.576108  8375 layer_factory.hpp:77] Creating layer conv2
I0403 12:03:34.576133  8375 net.cpp:91] Creating Layer conv2
I0403 12:03:34.576150  8375 net.cpp:425] conv2 <- pool1
I0403 12:03:34.576169  8375 net.cpp:399] conv2 -> conv2
I0403 12:03:34.591737  8375 net.cpp:141] Setting up conv2
I0403 12:03:34.591789  8375 net.cpp:148] Top shape: 100 256 27 27 (18662400)
I0403 12:03:34.591806  8375 net.cpp:156] Memory required for data: 512959600
I0403 12:03:34.591831  8375 layer_factory.hpp:77] Creating layer relu2
I0403 12:03:34.591853  8375 net.cpp:91] Creating Layer relu2
I0403 12:03:34.591871  8375 net.cpp:425] relu2 <- conv2
I0403 12:03:34.591892  8375 net.cpp:386] relu2 -> conv2 (in-place)
I0403 12:03:34.592188  8375 net.cpp:141] Setting up relu2
I0403 12:03:34.592217  8375 net.cpp:148] Top shape: 100 256 27 27 (18662400)
I0403 12:03:34.592234  8375 net.cpp:156] Memory required for data: 587609200
I0403 12:03:34.592250  8375 layer_factory.hpp:77] Creating layer norm2
I0403 12:03:34.592274  8375 net.cpp:91] Creating Layer norm2
I0403 12:03:34.592294  8375 net.cpp:425] norm2 <- conv2
I0403 12:03:34.592314  8375 net.cpp:399] norm2 -> norm2
I0403 12:03:34.592524  8375 net.cpp:141] Setting up norm2
I0403 12:03:34.592551  8375 net.cpp:148] Top shape: 100 256 27 27 (18662400)
I0403 12:03:34.592567  8375 net.cpp:156] Memory required for data: 662258800
I0403 12:03:34.592583  8375 layer_factory.hpp:77] Creating layer pool2
I0403 12:03:34.592607  8375 net.cpp:91] Creating Layer pool2
I0403 12:03:34.592625  8375 net.cpp:425] pool2 <- norm2
I0403 12:03:34.592645  8375 net.cpp:399] pool2 -> pool2
I0403 12:03:34.592739  8375 net.cpp:141] Setting up pool2
I0403 12:03:34.592766  8375 net.cpp:148] Top shape: 100 256 13 13 (4326400)
I0403 12:03:34.592782  8375 net.cpp:156] Memory required for data: 679564400
I0403 12:03:34.592797  8375 layer_factory.hpp:77] Creating layer conv3
I0403 12:03:34.592823  8375 net.cpp:91] Creating Layer conv3
I0403 12:03:34.592841  8375 net.cpp:425] conv3 <- pool2
I0403 12:03:34.592860  8375 net.cpp:399] conv3 -> conv3
I0403 12:03:34.632673  8375 net.cpp:141] Setting up conv3
I0403 12:03:34.632740  8375 net.cpp:148] Top shape: 100 384 13 13 (6489600)
I0403 12:03:34.632758  8375 net.cpp:156] Memory required for data: 705522800
I0403 12:03:34.632786  8375 layer_factory.hpp:77] Creating layer relu3
I0403 12:03:34.632809  8375 net.cpp:91] Creating Layer relu3
I0403 12:03:34.632827  8375 net.cpp:425] relu3 <- conv3
I0403 12:03:34.632850  8375 net.cpp:386] relu3 -> conv3 (in-place)
I0403 12:03:34.633136  8375 net.cpp:141] Setting up relu3
I0403 12:03:34.633165  8375 net.cpp:148] Top shape: 100 384 13 13 (6489600)
I0403 12:03:34.633182  8375 net.cpp:156] Memory required for data: 731481200
I0403 12:03:34.633198  8375 layer_factory.hpp:77] Creating layer conv4
I0403 12:03:34.633224  8375 net.cpp:91] Creating Layer conv4
I0403 12:03:34.633273  8375 net.cpp:425] conv4 <- conv3
I0403 12:03:34.633307  8375 net.cpp:399] conv4 -> conv4
I0403 12:03:34.664587  8375 net.cpp:141] Setting up conv4
I0403 12:03:34.664666  8375 net.cpp:148] Top shape: 100 384 13 13 (6489600)
I0403 12:03:34.664728  8375 net.cpp:156] Memory required for data: 757439600
I0403 12:03:34.664751  8375 layer_factory.hpp:77] Creating layer relu4
I0403 12:03:34.664772  8375 net.cpp:91] Creating Layer relu4
I0403 12:03:34.664789  8375 net.cpp:425] relu4 <- conv4
I0403 12:03:34.664810  8375 net.cpp:386] relu4 -> conv4 (in-place)
I0403 12:03:34.665086  8375 net.cpp:141] Setting up relu4
I0403 12:03:34.665117  8375 net.cpp:148] Top shape: 100 384 13 13 (6489600)
I0403 12:03:34.665134  8375 net.cpp:156] Memory required for data: 783398000
I0403 12:03:34.665149  8375 layer_factory.hpp:77] Creating layer conv5
I0403 12:03:34.665174  8375 net.cpp:91] Creating Layer conv5
I0403 12:03:34.665191  8375 net.cpp:425] conv5 <- conv4
I0403 12:03:34.665210  8375 net.cpp:399] conv5 -> conv5
I0403 12:03:34.685971  8375 net.cpp:141] Setting up conv5
I0403 12:03:34.686028  8375 net.cpp:148] Top shape: 100 256 13 13 (4326400)
I0403 12:03:34.686045  8375 net.cpp:156] Memory required for data: 800703600
I0403 12:03:34.686069  8375 layer_factory.hpp:77] Creating layer relu5
I0403 12:03:34.686091  8375 net.cpp:91] Creating Layer relu5
I0403 12:03:34.686108  8375 net.cpp:425] relu5 <- conv5
I0403 12:03:34.686130  8375 net.cpp:386] relu5 -> conv5 (in-place)
I0403 12:03:34.686460  8375 net.cpp:141] Setting up relu5
I0403 12:03:34.686488  8375 net.cpp:148] Top shape: 100 256 13 13 (4326400)
I0403 12:03:34.686504  8375 net.cpp:156] Memory required for data: 818009200
I0403 12:03:34.686520  8375 layer_factory.hpp:77] Creating layer pool5
I0403 12:03:34.686543  8375 net.cpp:91] Creating Layer pool5
I0403 12:03:34.686561  8375 net.cpp:425] pool5 <- conv5
I0403 12:03:34.686579  8375 net.cpp:399] pool5 -> pool5
I0403 12:03:34.686645  8375 net.cpp:141] Setting up pool5
I0403 12:03:34.686669  8375 net.cpp:148] Top shape: 100 256 6 6 (921600)
I0403 12:03:34.686686  8375 net.cpp:156] Memory required for data: 821695600
I0403 12:03:34.686700  8375 layer_factory.hpp:77] Creating layer fc6
I0403 12:03:34.686728  8375 net.cpp:91] Creating Layer fc6
I0403 12:03:34.686745  8375 net.cpp:425] fc6 <- pool5
I0403 12:03:34.686766  8375 net.cpp:399] fc6 -> fc6
I0403 12:03:36.238026  8375 net.cpp:141] Setting up fc6
I0403 12:03:36.238068  8375 net.cpp:148] Top shape: 100 4096 (409600)
I0403 12:03:36.238085  8375 net.cpp:156] Memory required for data: 823334000
I0403 12:03:36.238106  8375 layer_factory.hpp:77] Creating layer relu6
I0403 12:03:36.238129  8375 net.cpp:91] Creating Layer relu6
I0403 12:03:36.238147  8375 net.cpp:425] relu6 <- fc6
I0403 12:03:36.238164  8375 net.cpp:386] relu6 -> fc6 (in-place)
I0403 12:03:36.238391  8375 net.cpp:141] Setting up relu6
I0403 12:03:36.238416  8375 net.cpp:148] Top shape: 100 4096 (409600)
I0403 12:03:36.238431  8375 net.cpp:156] Memory required for data: 824972400
I0403 12:03:36.238445  8375 layer_factory.hpp:77] Creating layer drop6
I0403 12:03:36.238464  8375 net.cpp:91] Creating Layer drop6
I0403 12:03:36.238479  8375 net.cpp:425] drop6 <- fc6
I0403 12:03:36.238502  8375 net.cpp:386] drop6 -> fc6 (in-place)
I0403 12:03:36.238561  8375 net.cpp:141] Setting up drop6
I0403 12:03:36.238587  8375 net.cpp:148] Top shape: 100 4096 (409600)
I0403 12:03:36.238607  8375 net.cpp:156] Memory required for data: 826610800
I0403 12:03:36.238623  8375 layer_factory.hpp:77] Creating layer fc7
I0403 12:03:36.238642  8375 net.cpp:91] Creating Layer fc7
I0403 12:03:36.238656  8375 net.cpp:425] fc7 <- fc6
I0403 12:03:36.238687  8375 net.cpp:399] fc7 -> fc7
I0403 12:03:36.930405  8375 net.cpp:141] Setting up fc7
I0403 12:03:36.930447  8375 net.cpp:148] Top shape: 100 4096 (409600)
I0403 12:03:36.930464  8375 net.cpp:156] Memory required for data: 828249200
I0403 12:03:36.930485  8375 layer_factory.hpp:77] Creating layer relu7
I0403 12:03:36.930507  8375 net.cpp:91] Creating Layer relu7
I0403 12:03:36.930524  8375 net.cpp:425] relu7 <- fc7
I0403 12:03:36.930546  8375 net.cpp:386] relu7 -> fc7 (in-place)
I0403 12:03:36.930950  8375 net.cpp:141] Setting up relu7
I0403 12:03:36.930977  8375 net.cpp:148] Top shape: 100 4096 (409600)
I0403 12:03:36.931031  8375 net.cpp:156] Memory required for data: 829887600
I0403 12:03:36.931047  8375 layer_factory.hpp:77] Creating layer drop7
I0403 12:03:36.931066  8375 net.cpp:91] Creating Layer drop7
I0403 12:03:36.931080  8375 net.cpp:425] drop7 <- fc7
I0403 12:03:36.931100  8375 net.cpp:386] drop7 -> fc7 (in-place)
I0403 12:03:36.931145  8375 net.cpp:141] Setting up drop7
I0403 12:03:36.931167  8375 net.cpp:148] Top shape: 100 4096 (409600)
I0403 12:03:36.931182  8375 net.cpp:156] Memory required for data: 831526000
I0403 12:03:36.931196  8375 layer_factory.hpp:77] Creating layer fc8_plantvillage
I0403 12:03:36.931218  8375 net.cpp:91] Creating Layer fc8_plantvillage
I0403 12:03:36.931236  8375 net.cpp:425] fc8_plantvillage <- fc7
I0403 12:03:36.931255  8375 net.cpp:399] fc8_plantvillage -> fc8_plantvillage
I0403 12:03:36.938145  8375 net.cpp:141] Setting up fc8_plantvillage
I0403 12:03:36.938174  8375 net.cpp:148] Top shape: 100 38 (3800)
I0403 12:03:36.938190  8375 net.cpp:156] Memory required for data: 831541200
I0403 12:03:36.938210  8375 layer_factory.hpp:77] Creating layer fc8_plantvillage_fc8_plantvillage_0_split
I0403 12:03:36.938227  8375 net.cpp:91] Creating Layer fc8_plantvillage_fc8_plantvillage_0_split
I0403 12:03:36.938243  8375 net.cpp:425] fc8_plantvillage_fc8_plantvillage_0_split <- fc8_plantvillage
I0403 12:03:36.938266  8375 net.cpp:399] fc8_plantvillage_fc8_plantvillage_0_split -> fc8_plantvillage_fc8_plantvillage_0_split_0
I0403 12:03:36.938287  8375 net.cpp:399] fc8_plantvillage_fc8_plantvillage_0_split -> fc8_plantvillage_fc8_plantvillage_0_split_1
I0403 12:03:36.938308  8375 net.cpp:399] fc8_plantvillage_fc8_plantvillage_0_split -> fc8_plantvillage_fc8_plantvillage_0_split_2
I0403 12:03:36.938387  8375 net.cpp:141] Setting up fc8_plantvillage_fc8_plantvillage_0_split
I0403 12:03:36.938412  8375 net.cpp:148] Top shape: 100 38 (3800)
I0403 12:03:36.938429  8375 net.cpp:148] Top shape: 100 38 (3800)
I0403 12:03:36.938446  8375 net.cpp:148] Top shape: 100 38 (3800)
I0403 12:03:36.938459  8375 net.cpp:156] Memory required for data: 831586800
I0403 12:03:36.938474  8375 layer_factory.hpp:77] Creating layer prob
I0403 12:03:36.938493  8375 net.cpp:91] Creating Layer prob
I0403 12:03:36.938508  8375 net.cpp:425] prob <- fc8_plantvillage_fc8_plantvillage_0_split_0
I0403 12:03:36.938529  8375 net.cpp:399] prob -> prob
I0403 12:03:36.938763  8375 net.cpp:141] Setting up prob
I0403 12:03:36.938794  8375 net.cpp:148] Top shape: 100 38 (3800)
I0403 12:03:36.938813  8375 net.cpp:156] Memory required for data: 831602000
I0403 12:03:36.938828  8375 layer_factory.hpp:77] Creating layer hdf5out
I0403 12:03:36.938848  8375 net.cpp:91] Creating Layer hdf5out
I0403 12:03:36.938863  8375 net.cpp:425] hdf5out <- prob
I0403 12:03:36.938879  8375 net.cpp:425] hdf5out <- label_data_1_split_0
I0403 12:03:36.941031  8375 net.cpp:141] Setting up hdf5out
…
