…
I0403 12:24:07.966936  8862 net.cpp:313] The NetState phase (1) differed from the phase (0) specified by a rule in layer data
I0403 12:24:07.967243  8862 net.cpp:49] Initializing net from parameters: 
state {
  phase: TEST
}
layer {
  name: "data"
  type: "Data"
  top: "data"
  top: "label"
  include {
    phase: TEST
  }
  transform_param {
    crop_size: 227
    mean_file: "/home/mohanty/data/final_dataset/lmdb/segmented-20-80/mean.binaryproto"
  }
  data_param {
    source: "/home/mohanty/data/final_dataset/lmdb/segmented-20-80/test_db"
    batch_size: 100
    backend: LMDB
  }
}
layer {
  name: "conv1"
  type: "Convolution"
  bottom: "data"
  top: "conv1"
  param {
    lr_mult: 1
    decay_mult: 1
  }
  param {
    lr_mult: 2
    decay_mult: 0
  }
  convolution_param {
    num_output: 96
    kernel_size: 11
    stride: 4
    weight_filler {
      type: "gaussian"
      std: 0.01
    }
    bias_filler {
      type: "constant"
      value: 0
    }
  }
}
layer {
  name: "relu1"
  type: "ReLU"
  bottom: "conv1"
  top: "conv1"
}
layer {
  name: "norm1"
  type: "LRN"
  bottom: "conv1"
  top: "norm1"
  lrn_param {
    local_size: 5
    alpha: 0.0001
    beta: 0.75
  }
}
layer {
  name: "pool1"
  type: "Pooling"
  bottom: "norm1"
  top: "pool1"
  pooling_param {
    pool: MAX
    kernel_size: 3
    stride: 2
  }
}
layer {
  name: "conv2"
  type: "Convolution"
  bottom: "pool1"
  top: "conv2"
  param {
    lr_mult: 1
    decay_mult: 1
  }
  param {
    lr_mult: 2
    decay_mult: 0
  }
  convolution_param {
    num_output: 256
    pad: 2
    kernel_size: 5
    group: 2
    weight_filler {
      type: "gaussian"
      std: 0.01
    }
    bias_filler {
      type: "constant"
      value: 0.1
    }
  }
}
layer {
  name: "relu2"
  type: "ReLU"
  bottom: "conv2"
  top: "conv2"
}
layer {
  name: "norm2"
  type: "LRN"
  bottom: "conv2"
  top: "norm2"
  lrn_param {
    local_size: 5
    alpha: 0.0001
    beta: 0.75
  }
}
layer {
  name: "pool2"
  type: "Pooling"
  bottom: "norm2"
  top: "pool2"
  pooling_param {
    pool: MAX
    kernel_size: 3
    stride: 2
  }
}
layer {
  name: "conv3"
  type: "Convolution"
  bottom: "pool2"
  top: "conv3"
  param {
    lr_mult: 1
    decay_mult: 1
  }
  param {
    lr_mult: 2
    decay_mult: 0
  }
  convolution_param {
    num_output: 384
    pad: 1
    kernel_size: 3
    weight_filler {
      type: "gaussian"
      std: 0.01
    }
    bias_filler {
      type: "constant"
      value: 0
    }
  }
}
layer {
  name: "relu3"
  type: "ReLU"
  bottom: "conv3"
  top: "conv3"
}
layer {
  name: "conv4"
  type: "Convolution"
  bottom: "conv3"
  top: "conv4"
  param {
    lr_mult: 1
    decay_mult: 1
  }
  param {
    lr_mult: 2
    decay_mult: 0
  }
  convolution_param {
    num_output: 384
    pad: 1
    kernel_size: 3
    group: 2
    weight_filler {
      type: "gaussian"
      std: 0.01
    }
    bias_filler {
      type: "constant"
      value: 0.1
    }
  }
}
layer {
  name: "relu4"
  type: "ReLU"
  bottom: "conv4"
  top: "conv4"
}
layer {
  name: "conv5"
  type: "Convolution"
  bottom: "conv4"
  top: "conv5"
  param {
    lr_mult: 1
    decay_mult: 1
  }
  param {
    lr_mult: 2
    decay_mult: 0
  }
  convolution_param {
    num_output: 256
    pad: 1
    kernel_size: 3
    group: 2
    weight_filler {
      type: "gaussian"
      std: 0.01
    }
    bias_filler {
      type: "constant"
      value: 0.1
    }
  }
}
layer {
  name: "relu5"
  type: "ReLU"
  bottom: "conv5"
  top: "conv5"
}
layer {
  name: "pool5"
  type: "Pooling"
  bottom: "conv5"
  top: "pool5"
  pooling_param {
    pool: MAX
    kernel_size: 3
    stride: 2
  }
}
layer {
  name: "fc6"
  type: "InnerProduct"
  bottom: "pool5"
  top: "fc6"
  param {
    lr_mult: 1
    decay_mult: 1
  }
  param {
    lr_mult: 2
    decay_mult: 0
  }
  inner_product_param {
    num_output: 4096
    weight_filler {
      type: "gaussian"
      std: 0.005
    }
    bias_filler {
      type: "constant"
      value: 0.1
    }
  }
}
layer {
  name: "relu6"
  type: "ReLU"
  bottom: "fc6"
  top: "fc6"
}
layer {
  name: "drop6"
  type: "Dropout"
  bottom: "fc6"
  top: "fc6"
  dropout_param {
    dropout_ratio: 0.5
  }
}
layer {
  name: "fc7"
  type: "InnerProduct"
  bottom: "fc6"
  top: "fc7"
  param {
    lr_mult: 1
    decay_mult: 1
  }
  param {
    lr_mult: 2
    decay_mult: 0
  }
  inner_product_param {
    num_output: 4096
    weight_filler {
      type: "gaussian"
      std: 0.005
    }
    bias_filler {
      type: "constant"
      value: 0.1
    }
  }
}
layer {
  name: "relu7"
  type: "ReLU"
  bottom: "fc7"
  top: "fc7"
}
layer {
  name: "drop7"
  type: "Dropout"
  bottom: "fc7"
  top: "fc7"
  dropout_param {
    dropout_ratio: 0.5
  }
}
layer {
  name: "fc8_plantvillage"
  type: "InnerProduct"
  bottom: "fc7"
  top: "fc8_plantvillage"
  param {
    lr_mult: 1
    decay_mult: 1
  }
  param {
    lr_mult: 2
    decay_mult: 0
  }
  inner_product_param {
    num_output: 38
    weight_filler {
      type: "gaussian"
      std: 0.01
    }
    bias_filler {
      type: "constant"
      value: 0
    }
  }
}
layer {
  name: "prob"
  type: "Softmax"
  bottom: "fc8_plantvillage"
  top: "prob"
  include {
    phase: TEST
  }
}
layer {
  name: "hdf5out"
  type: "HDF5Output"
  bottom: "prob"
  bottom: "label"
  include {
    phase: TEST
  }
  hdf5_output_param {
    file_name: "hdf5_dumps/iter_1908.h5"
  }
}
layer {
  name: "loss"
  type: "SoftmaxWithLoss"
  bottom: "fc8_plantvillage"
  bottom: "label"
  top: "loss"
}
layer {
  name: "accuracy"
  type: "Accuracy"
  bottom: "fc8_plantvillage"
  bottom: "label"
  top: "accuracy"
  include {
    phase: TEST
  }
}
I0403 12:24:07.967809  8862 layer_factory.hpp:77] Creating layer data
I0403 12:24:07.968442  8862 net.cpp:91] Creating Layer data
I0403 12:24:07.968472  8862 net.cpp:399] data -> data
I0403 12:24:07.968523  8862 net.cpp:399] data -> label
I0403 12:24:07.968559  8862 data_transformer.cpp:25] Loading mean file from: /home/mohanty/data/final_dataset/lmdb/segmented-20-80/mean.binaryproto
I0403 12:24:07.971304  8866 db_lmdb.cpp:38] Opened lmdb /home/mohanty/data/final_dataset/lmdb/segmented-20-80/test_db
I0403 12:24:07.982719  8862 data_layer.cpp:41] output data size: 100,3,227,227
I0403 12:24:08.102004  8862 net.cpp:141] Setting up data
I0403 12:24:08.102064  8862 net.cpp:148] Top shape: 100 3 227 227 (15458700)
I0403 12:24:08.102087  8862 net.cpp:148] Top shape: 100 (100)
I0403 12:24:08.102102  8862 net.cpp:156] Memory required for data: 61835200
I0403 12:24:08.102129  8862 layer_factory.hpp:77] Creating layer label_data_1_split
I0403 12:24:08.102155  8862 net.cpp:91] Creating Layer label_data_1_split
I0403 12:24:08.102174  8862 net.cpp:425] label_data_1_split <- label
I0403 12:24:08.102205  8862 net.cpp:399] label_data_1_split -> label_data_1_split_0
I0403 12:24:08.102231  8862 net.cpp:399] label_data_1_split -> label_data_1_split_1
I0403 12:24:08.102255  8862 net.cpp:399] label_data_1_split -> label_data_1_split_2
I0403 12:24:08.102319  8862 net.cpp:141] Setting up label_data_1_split
I0403 12:24:08.102342  8862 net.cpp:148] Top shape: 100 (100)
I0403 12:24:08.102360  8862 net.cpp:148] Top shape: 100 (100)
I0403 12:24:08.102375  8862 net.cpp:148] Top shape: 100 (100)
I0403 12:24:08.102390  8862 net.cpp:156] Memory required for data: 61836400
I0403 12:24:08.102404  8862 layer_factory.hpp:77] Creating layer conv1
I0403 12:24:08.102437  8862 net.cpp:91] Creating Layer conv1
I0403 12:24:08.102455  8862 net.cpp:425] conv1 <- data
I0403 12:24:08.102474  8862 net.cpp:399] conv1 -> conv1
I0403 12:24:08.240286  8862 net.cpp:141] Setting up conv1
I0403 12:24:08.240363  8862 net.cpp:148] Top shape: 100 96 55 55 (29040000)
I0403 12:24:08.240381  8862 net.cpp:156] Memory required for data: 177996400
I0403 12:24:08.240412  8862 layer_factory.hpp:77] Creating layer relu1
I0403 12:24:08.240440  8862 net.cpp:91] Creating Layer relu1
I0403 12:24:08.240459  8862 net.cpp:425] relu1 <- conv1
I0403 12:24:08.240478  8862 net.cpp:386] relu1 -> conv1 (in-place)
I0403 12:24:08.240741  8862 net.cpp:141] Setting up relu1
I0403 12:24:08.240768  8862 net.cpp:148] Top shape: 100 96 55 55 (29040000)
I0403 12:24:08.240820  8862 net.cpp:156] Memory required for data: 294156400
I0403 12:24:08.240836  8862 layer_factory.hpp:77] Creating layer norm1
I0403 12:24:08.240864  8862 net.cpp:91] Creating Layer norm1
I0403 12:24:08.240882  8862 net.cpp:425] norm1 <- conv1
I0403 12:24:08.240900  8862 net.cpp:399] norm1 -> norm1
I0403 12:24:08.241212  8862 net.cpp:141] Setting up norm1
I0403 12:24:08.241241  8862 net.cpp:148] Top shape: 100 96 55 55 (29040000)
I0403 12:24:08.241257  8862 net.cpp:156] Memory required for data: 410316400
I0403 12:24:08.241272  8862 layer_factory.hpp:77] Creating layer pool1
I0403 12:24:08.241296  8862 net.cpp:91] Creating Layer pool1
I0403 12:24:08.241313  8862 net.cpp:425] pool1 <- norm1
I0403 12:24:08.241331  8862 net.cpp:399] pool1 -> pool1
I0403 12:24:08.241400  8862 net.cpp:141] Setting up pool1
I0403 12:24:08.241425  8862 net.cpp:148] Top shape: 100 96 27 27 (6998400)
I0403 12:24:08.241439  8862 net.cpp:156] Memory required for data: 438310000
I0403 12:24:08.241454  8862 layer_factory.hpp:77] Creating layer conv2
I0403 12:24:08.241480  8862 net.cpp:91] Creating Layer conv2
I0403 12:24:08.241497  8862 net.cpp:425] conv2 <- pool1
I0403 12:24:08.241515  8862 net.cpp:399] conv2 -> conv2
I0403 12:24:08.256372  8862 net.cpp:141] Setting up conv2
I0403 12:24:08.256408  8862 net.cpp:148] Top shape: 100 256 27 27 (18662400)
I0403 12:24:08.256425  8862 net.cpp:156] Memory required for data: 512959600
I0403 12:24:08.256449  8862 layer_factory.hpp:77] Creating layer relu2
I0403 12:24:08.256470  8862 net.cpp:91] Creating Layer relu2
I0403 12:24:08.256487  8862 net.cpp:425] relu2 <- conv2
I0403 12:24:08.256505  8862 net.cpp:386] relu2 -> conv2 (in-place)
I0403 12:24:08.256784  8862 net.cpp:141] Setting up relu2
I0403 12:24:08.256814  8862 net.cpp:148] Top shape: 100 256 27 27 (18662400)
I0403 12:24:08.256830  8862 net.cpp:156] Memory required for data: 587609200
I0403 12:24:08.256845  8862 layer_factory.hpp:77] Creating layer norm2
I0403 12:24:08.256867  8862 net.cpp:91] Creating Layer norm2
I0403 12:24:08.256885  8862 net.cpp:425] norm2 <- conv2
I0403 12:24:08.256901  8862 net.cpp:399] norm2 -> norm2
I0403 12:24:08.257094  8862 net.cpp:141] Setting up norm2
I0403 12:24:08.257120  8862 net.cpp:148] Top shape: 100 256 27 27 (18662400)
I0403 12:24:08.257135  8862 net.cpp:156] Memory required for data: 662258800
I0403 12:24:08.257150  8862 layer_factory.hpp:77] Creating layer pool2
I0403 12:24:08.257169  8862 net.cpp:91] Creating Layer pool2
I0403 12:24:08.257184  8862 net.cpp:425] pool2 <- norm2
I0403 12:24:08.257202  8862 net.cpp:399] pool2 -> pool2
I0403 12:24:08.257253  8862 net.cpp:141] Setting up pool2
I0403 12:24:08.257278  8862 net.cpp:148] Top shape: 100 256 13 13 (4326400)
I0403 12:24:08.257293  8862 net.cpp:156] Memory required for data: 679564400
I0403 12:24:08.257308  8862 layer_factory.hpp:77] Creating layer conv3
I0403 12:24:08.257328  8862 net.cpp:91] Creating Layer conv3
I0403 12:24:08.257345  8862 net.cpp:425] conv3 <- pool2
I0403 12:24:08.257364  8862 net.cpp:399] conv3 -> conv3
I0403 12:24:08.295341  8862 net.cpp:141] Setting up conv3
I0403 12:24:08.295414  8862 net.cpp:148] Top shape: 100 384 13 13 (6489600)
I0403 12:24:08.295430  8862 net.cpp:156] Memory required for data: 705522800
I0403 12:24:08.295456  8862 layer_factory.hpp:77] Creating layer relu3
I0403 12:24:08.295478  8862 net.cpp:91] Creating Layer relu3
I0403 12:24:08.295495  8862 net.cpp:425] relu3 <- conv3
I0403 12:24:08.295514  8862 net.cpp:386] relu3 -> conv3 (in-place)
I0403 12:24:08.295799  8862 net.cpp:141] Setting up relu3
I0403 12:24:08.295828  8862 net.cpp:148] Top shape: 100 384 13 13 (6489600)
I0403 12:24:08.295845  8862 net.cpp:156] Memory required for data: 731481200
I0403 12:24:08.295861  8862 layer_factory.hpp:77] Creating layer conv4
I0403 12:24:08.295884  8862 net.cpp:91] Creating Layer conv4
I0403 12:24:08.295902  8862 net.cpp:425] conv4 <- conv3
I0403 12:24:08.295922  8862 net.cpp:399] conv4 -> conv4
I0403 12:24:08.325490  8862 net.cpp:141] Setting up conv4
I0403 12:24:08.325561  8862 net.cpp:148] Top shape: 100 384 13 13 (6489600)
I0403 12:24:08.325623  8862 net.cpp:156] Memory required for data: 757439600
I0403 12:24:08.325647  8862 layer_factory.hpp:77] Creating layer relu4
I0403 12:24:08.325678  8862 net.cpp:91] Creating Layer relu4
I0403 12:24:08.325698  8862 net.cpp:425] relu4 <- conv4
I0403 12:24:08.325718  8862 net.cpp:386] relu4 -> conv4 (in-place)
I0403 12:24:08.325997  8862 net.cpp:141] Setting up relu4
I0403 12:24:08.326025  8862 net.cpp:148] Top shape: 100 384 13 13 (6489600)
I0403 12:24:08.326040  8862 net.cpp:156] Memory required for data: 783398000
I0403 12:24:08.326053  8862 layer_factory.hpp:77] Creating layer conv5
I0403 12:24:08.326078  8862 net.cpp:91] Creating Layer conv5
I0403 12:24:08.326095  8862 net.cpp:425] conv5 <- conv4
I0403 12:24:08.326115  8862 net.cpp:399] conv5 -> conv5
I0403 12:24:08.346608  8862 net.cpp:141] Setting up conv5
I0403 12:24:08.346662  8862 net.cpp:148] Top shape: 100 256 13 13 (4326400)
I0403 12:24:08.346679  8862 net.cpp:156] Memory required for data: 800703600
I0403 12:24:08.346704  8862 layer_factory.hpp:77] Creating layer relu5
I0403 12:24:08.346729  8862 net.cpp:91] Creating Layer relu5
I0403 12:24:08.346746  8862 net.cpp:425] relu5 <- conv5
I0403 12:24:08.346766  8862 net.cpp:386] relu5 -> conv5 (in-place)
I0403 12:24:08.347050  8862 net.cpp:141] Setting up relu5
I0403 12:24:08.347079  8862 net.cpp:148] Top shape: 100 256 13 13 (4326400)
I0403 12:24:08.347093  8862 net.cpp:156] Memory required for data: 818009200
I0403 12:24:08.347110  8862 layer_factory.hpp:77] Creating layer pool5
I0403 12:24:08.347134  8862 net.cpp:91] Creating Layer pool5
I0403 12:24:08.347152  8862 net.cpp:425] pool5 <- conv5
I0403 12:24:08.347174  8862 net.cpp:399] pool5 -> pool5
I0403 12:24:08.347235  8862 net.cpp:141] Setting up pool5
I0403 12:24:08.347259  8862 net.cpp:148] Top shape: 100 256 6 6 (921600)
I0403 12:24:08.347275  8862 net.cpp:156] Memory required for data: 821695600
I0403 12:24:08.347288  8862 layer_factory.hpp:77] Creating layer fc6
I0403 12:24:08.347317  8862 net.cpp:91] Creating Layer fc6
I0403 12:24:08.347337  8862 net.cpp:425] fc6 <- pool5
I0403 12:24:08.347357  8862 net.cpp:399] fc6 -> fc6
I0403 12:24:09.892621  8862 net.cpp:141] Setting up fc6
I0403 12:24:09.892664  8862 net.cpp:148] Top shape: 100 4096 (409600)
I0403 12:24:09.892683  8862 net.cpp:156] Memory required for data: 823334000
I0403 12:24:09.892704  8862 layer_factory.hpp:77] Creating layer relu6
I0403 12:24:09.892726  8862 net.cpp:91] Creating Layer relu6
I0403 12:24:09.892747  8862 net.cpp:425] relu6 <- fc6
I0403 12:24:09.892767  8862 net.cpp:386] relu6 -> fc6 (in-place)
I0403 12:24:09.892984  8862 net.cpp:141] Setting up relu6
I0403 12:24:09.893008  8862 net.cpp:148] Top shape: 100 4096 (409600)
I0403 12:24:09.893023  8862 net.cpp:156] Memory required for data: 824972400
I0403 12:24:09.893038  8862 layer_factory.hpp:77] Creating layer drop6
I0403 12:24:09.893057  8862 net.cpp:91] Creating Layer drop6
I0403 12:24:09.893072  8862 net.cpp:425] drop6 <- fc6
I0403 12:24:09.893090  8862 net.cpp:386] drop6 -> fc6 (in-place)
I0403 12:24:09.893141  8862 net.cpp:141] Setting up drop6
I0403 12:24:09.893163  8862 net.cpp:148] Top shape: 100 4096 (409600)
I0403 12:24:09.893178  8862 net.cpp:156] Memory required for data: 826610800
I0403 12:24:09.893192  8862 layer_factory.hpp:77] Creating layer fc7
I0403 12:24:09.893210  8862 net.cpp:91] Creating Layer fc7
I0403 12:24:09.893225  8862 net.cpp:425] fc7 <- fc6
I0403 12:24:09.893246  8862 net.cpp:399] fc7 -> fc7
I0403 12:24:10.576405  8862 net.cpp:141] Setting up fc7
I0403 12:24:10.576488  8862 net.cpp:148] Top shape: 100 4096 (409600)
I0403 12:24:10.576504  8862 net.cpp:156] Memory required for data: 828249200
I0403 12:24:10.576525  8862 layer_factory.hpp:77] Creating layer relu7
I0403 12:24:10.576547  8862 net.cpp:91] Creating Layer relu7
I0403 12:24:10.576563  8862 net.cpp:425] relu7 <- fc7
I0403 12:24:10.576591  8862 net.cpp:386] relu7 -> fc7 (in-place)
I0403 12:24:10.576997  8862 net.cpp:141] Setting up relu7
I0403 12:24:10.577024  8862 net.cpp:148] Top shape: 100 4096 (409600)
I0403 12:24:10.577081  8862 net.cpp:156] Memory required for data: 829887600
I0403 12:24:10.577097  8862 layer_factory.hpp:77] Creating layer drop7
I0403 12:24:10.577119  8862 net.cpp:91] Creating Layer drop7
I0403 12:24:10.577136  8862 net.cpp:425] drop7 <- fc7
I0403 12:24:10.577152  8862 net.cpp:386] drop7 -> fc7 (in-place)
I0403 12:24:10.577198  8862 net.cpp:141] Setting up drop7
I0403 12:24:10.577220  8862 net.cpp:148] Top shape: 100 4096 (409600)
I0403 12:24:10.577235  8862 net.cpp:156] Memory required for data: 831526000
I0403 12:24:10.577250  8862 layer_factory.hpp:77] Creating layer fc8_plantvillage
I0403 12:24:10.577271  8862 net.cpp:91] Creating Layer fc8_plantvillage
I0403 12:24:10.577287  8862 net.cpp:425] fc8_plantvillage <- fc7
I0403 12:24:10.577306  8862 net.cpp:399] fc8_plantvillage -> fc8_plantvillage
I0403 12:24:10.584002  8862 net.cpp:141] Setting up fc8_plantvillage
I0403 12:24:10.584029  8862 net.cpp:148] Top shape: 100 38 (3800)
I0403 12:24:10.584056  8862 net.cpp:156] Memory required for data: 831541200
I0403 12:24:10.584074  8862 layer_factory.hpp:77] Creating layer fc8_plantvillage_fc8_plantvillage_0_split
I0403 12:24:10.584094  8862 net.cpp:91] Creating Layer fc8_plantvillage_fc8_plantvillage_0_split
I0403 12:24:10.584110  8862 net.cpp:425] fc8_plantvillage_fc8_plantvillage_0_split <- fc8_plantvillage
I0403 12:24:10.584125  8862 net.cpp:399] fc8_plantvillage_fc8_plantvillage_0_split -> fc8_plantvillage_fc8_plantvillage_0_split_0
I0403 12:24:10.584146  8862 net.cpp:399] fc8_plantvillage_fc8_plantvillage_0_split -> fc8_plantvillage_fc8_plantvillage_0_split_1
I0403 12:24:10.584167  8862 net.cpp:399] fc8_plantvillage_fc8_plantvillage_0_split -> fc8_plantvillage_fc8_plantvillage_0_split_2
I0403 12:24:10.584242  8862 net.cpp:141] Setting up fc8_plantvillage_fc8_plantvillage_0_split
I0403 12:24:10.584265  8862 net.cpp:148] Top shape: 100 38 (3800)
I0403 12:24:10.584281  8862 net.cpp:148] Top shape: 100 38 (3800)
I0403 12:24:10.584295  8862 net.cpp:148] Top shape: 100 38 (3800)
I0403 12:24:10.584309  8862 net.cpp:156] Memory required for data: 831586800
I0403 12:24:10.584323  8862 layer_factory.hpp:77] Creating layer prob
I0403 12:24:10.584343  8862 net.cpp:91] Creating Layer prob
I0403 12:24:10.584359  8862 net.cpp:425] prob <- fc8_plantvillage_fc8_plantvillage_0_split_0
I0403 12:24:10.584377  8862 net.cpp:399] prob -> prob
I0403 12:24:10.584609  8862 net.cpp:141] Setting up prob
I0403 12:24:10.584633  8862 net.cpp:148] Top shape: 100 38 (3800)
I0403 12:24:10.584647  8862 net.cpp:156] Memory required for data: 831602000
I0403 12:24:10.584661  8862 layer_factory.hpp:77] Creating layer hdf5out
I0403 12:24:10.584681  8862 net.cpp:91] Creating Layer hdf5out
I0403 12:24:10.584697  8862 net.cpp:425] hdf5out <- prob
I0403 12:24:10.584712  8862 net.cpp:425] hdf5out <- label_data_1_split_0
I0403 12:24:10.587308  8862 net.cpp:141] Setting up hdf5out
…
