…
I0403 12:11:16.264331  8557 net.cpp:313] The NetState phase (1) differed from the phase (0) specified by a rule in layer data
I0403 12:11:16.264642  8557 net.cpp:49] Initializing net from parameters: 
state {
  phase: TEST
}
layer {
  name: "data"
  type: "Data"
  top: "data"
  top: "label"
  include {
    phase: TEST
  }
  transform_param {
    crop_size: 227
    mean_file: "/home/mohanty/data/final_dataset/lmdb/segmented-20-80/mean.binaryproto"
  }
  data_param {
    source: "/home/mohanty/data/final_dataset/lmdb/segmented-20-80/test_db"
    batch_size: 100
    backend: LMDB
  }
}
layer {
  name: "conv1"
  type: "Convolution"
  bottom: "data"
  top: "conv1"
  param {
    lr_mult: 1
    decay_mult: 1
  }
  param {
    lr_mult: 2
    decay_mult: 0
  }
  convolution_param {
    num_output: 96
    kernel_size: 11
    stride: 4
    weight_filler {
      type: "gaussian"
      std: 0.01
    }
    bias_filler {
      type: "constant"
      value: 0
    }
  }
}
layer {
  name: "relu1"
  type: "ReLU"
  bottom: "conv1"
  top: "conv1"
}
layer {
  name: "norm1"
  type: "LRN"
  bottom: "conv1"
  top: "norm1"
  lrn_param {
    local_size: 5
    alpha: 0.0001
    beta: 0.75
  }
}
layer {
  name: "pool1"
  type: "Pooling"
  bottom: "norm1"
  top: "pool1"
  pooling_param {
    pool: MAX
    kernel_size: 3
    stride: 2
  }
}
layer {
  name: "conv2"
  type: "Convolution"
  bottom: "pool1"
  top: "conv2"
  param {
    lr_mult: 1
    decay_mult: 1
  }
  param {
    lr_mult: 2
    decay_mult: 0
  }
  convolution_param {
    num_output: 256
    pad: 2
    kernel_size: 5
    group: 2
    weight_filler {
      type: "gaussian"
      std: 0.01
    }
    bias_filler {
      type: "constant"
      value: 0.1
    }
  }
}
layer {
  name: "relu2"
  type: "ReLU"
  bottom: "conv2"
  top: "conv2"
}
layer {
  name: "norm2"
  type: "LRN"
  bottom: "conv2"
  top: "norm2"
  lrn_param {
    local_size: 5
    alpha: 0.0001
    beta: 0.75
  }
}
layer {
  name: "pool2"
  type: "Pooling"
  bottom: "norm2"
  top: "pool2"
  pooling_param {
    pool: MAX
    kernel_size: 3
    stride: 2
  }
}
layer {
  name: "conv3"
  type: "Convolution"
  bottom: "pool2"
  top: "conv3"
  param {
    lr_mult: 1
    decay_mult: 1
  }
  param {
    lr_mult: 2
    decay_mult: 0
  }
  convolution_param {
    num_output: 384
    pad: 1
    kernel_size: 3
    weight_filler {
      type: "gaussian"
      std: 0.01
    }
    bias_filler {
      type: "constant"
      value: 0
    }
  }
}
layer {
  name: "relu3"
  type: "ReLU"
  bottom: "conv3"
  top: "conv3"
}
layer {
  name: "conv4"
  type: "Convolution"
  bottom: "conv3"
  top: "conv4"
  param {
    lr_mult: 1
    decay_mult: 1
  }
  param {
    lr_mult: 2
    decay_mult: 0
  }
  convolution_param {
    num_output: 384
    pad: 1
    kernel_size: 3
    group: 2
    weight_filler {
      type: "gaussian"
      std: 0.01
    }
    bias_filler {
      type: "constant"
      value: 0.1
    }
  }
}
layer {
  name: "relu4"
  type: "ReLU"
  bottom: "conv4"
  top: "conv4"
}
layer {
  name: "conv5"
  type: "Convolution"
  bottom: "conv4"
  top: "conv5"
  param {
    lr_mult: 1
    decay_mult: 1
  }
  param {
    lr_mult: 2
    decay_mult: 0
  }
  convolution_param {
    num_output: 256
    pad: 1
    kernel_size: 3
    group: 2
    weight_filler {
      type: "gaussian"
      std: 0.01
    }
    bias_filler {
      type: "constant"
      value: 0.1
    }
  }
}
layer {
  name: "relu5"
  type: "ReLU"
  bottom: "conv5"
  top: "conv5"
}
layer {
  name: "pool5"
  type: "Pooling"
  bottom: "conv5"
  top: "pool5"
  pooling_param {
    pool: MAX
    kernel_size: 3
    stride: 2
  }
}
layer {
  name: "fc6"
  type: "InnerProduct"
  bottom: "pool5"
  top: "fc6"
  param {
    lr_mult: 1
    decay_mult: 1
  }
  param {
    lr_mult: 2
    decay_mult: 0
  }
  inner_product_param {
    num_output: 4096
    weight_filler {
      type: "gaussian"
      std: 0.005
    }
    bias_filler {
      type: "constant"
      value: 0.1
    }
  }
}
layer {
  name: "relu6"
  type: "ReLU"
  bottom: "fc6"
  top: "fc6"
}
layer {
  name: "drop6"
  type: "Dropout"
  bottom: "fc6"
  top: "fc6"
  dropout_param {
    dropout_ratio: 0.5
  }
}
layer {
  name: "fc7"
  type: "InnerProduct"
  bottom: "fc6"
  top: "fc7"
  param {
    lr_mult: 1
    decay_mult: 1
  }
  param {
    lr_mult: 2
    decay_mult: 0
  }
  inner_product_param {
    num_output: 4096
    weight_filler {
      type: "gaussian"
      std: 0.005
    }
    bias_filler {
      type: "constant"
      value: 0.1
    }
  }
}
layer {
  name: "relu7"
  type: "ReLU"
  bottom: "fc7"
  top: "fc7"
}
layer {
  name: "drop7"
  type: "Dropout"
  bottom: "fc7"
  top: "fc7"
  dropout_param {
    dropout_ratio: 0.5
  }
}
layer {
  name: "fc8_plantvillage"
  type: "InnerProduct"
  bottom: "fc7"
  top: "fc8_plantvillage"
  param {
    lr_mult: 1
    decay_mult: 1
  }
  param {
    lr_mult: 2
    decay_mult: 0
  }
  inner_product_param {
    num_output: 38
    weight_filler {
      type: "gaussian"
      std: 0.01
    }
    bias_filler {
      type: "constant"
      value: 0
    }
  }
}
layer {
  name: "prob"
  type: "Softmax"
  bottom: "fc8_plantvillage"
  top: "prob"
  include {
    phase: TEST
  }
}
layer {
  name: "hdf5out"
  type: "HDF5Output"
  bottom: "prob"
  bottom: "label"
  include {
    phase: TEST
  }
  hdf5_output_param {
    file_name: "hdf5_dumps/iter_848.h5"
  }
}
layer {
  name: "loss"
  type: "SoftmaxWithLoss"
  bottom: "fc8_plantvillage"
  bottom: "label"
  top: "loss"
}
layer {
  name: "accuracy"
  type: "Accuracy"
  bottom: "fc8_plantvillage"
  bottom: "label"
  top: "accuracy"
  include {
    phase: TEST
  }
}
I0403 12:11:16.265198  8557 layer_factory.hpp:77] Creating layer data
I0403 12:11:16.265882  8557 net.cpp:91] Creating Layer data
I0403 12:11:16.265914  8557 net.cpp:399] data -> data
I0403 12:11:16.265964  8557 net.cpp:399] data -> label
I0403 12:11:16.266001  8557 data_transformer.cpp:25] Loading mean file from: /home/mohanty/data/final_dataset/lmdb/segmented-20-80/mean.binaryproto
I0403 12:11:16.268801  8562 db_lmdb.cpp:38] Opened lmdb /home/mohanty/data/final_dataset/lmdb/segmented-20-80/test_db
I0403 12:11:16.280397  8557 data_layer.cpp:41] output data size: 100,3,227,227
I0403 12:11:16.399180  8557 net.cpp:141] Setting up data
I0403 12:11:16.399276  8557 net.cpp:148] Top shape: 100 3 227 227 (15458700)
I0403 12:11:16.399297  8557 net.cpp:148] Top shape: 100 (100)
I0403 12:11:16.399313  8557 net.cpp:156] Memory required for data: 61835200
I0403 12:11:16.399341  8557 layer_factory.hpp:77] Creating layer label_data_1_split
I0403 12:11:16.399366  8557 net.cpp:91] Creating Layer label_data_1_split
I0403 12:11:16.399384  8557 net.cpp:425] label_data_1_split <- label
I0403 12:11:16.399416  8557 net.cpp:399] label_data_1_split -> label_data_1_split_0
I0403 12:11:16.399443  8557 net.cpp:399] label_data_1_split -> label_data_1_split_1
I0403 12:11:16.399464  8557 net.cpp:399] label_data_1_split -> label_data_1_split_2
I0403 12:11:16.399528  8557 net.cpp:141] Setting up label_data_1_split
I0403 12:11:16.399551  8557 net.cpp:148] Top shape: 100 (100)
I0403 12:11:16.399571  8557 net.cpp:148] Top shape: 100 (100)
I0403 12:11:16.399591  8557 net.cpp:148] Top shape: 100 (100)
I0403 12:11:16.399606  8557 net.cpp:156] Memory required for data: 61836400
I0403 12:11:16.399621  8557 layer_factory.hpp:77] Creating layer conv1
I0403 12:11:16.399665  8557 net.cpp:91] Creating Layer conv1
I0403 12:11:16.399685  8557 net.cpp:425] conv1 <- data
I0403 12:11:16.399703  8557 net.cpp:399] conv1 -> conv1
I0403 12:11:16.537709  8557 net.cpp:141] Setting up conv1
I0403 12:11:16.537787  8557 net.cpp:148] Top shape: 100 96 55 55 (29040000)
I0403 12:11:16.537804  8557 net.cpp:156] Memory required for data: 177996400
I0403 12:11:16.537837  8557 layer_factory.hpp:77] Creating layer relu1
I0403 12:11:16.537864  8557 net.cpp:91] Creating Layer relu1
I0403 12:11:16.537883  8557 net.cpp:425] relu1 <- conv1
I0403 12:11:16.537901  8557 net.cpp:386] relu1 -> conv1 (in-place)
I0403 12:11:16.538161  8557 net.cpp:141] Setting up relu1
I0403 12:11:16.538189  8557 net.cpp:148] Top shape: 100 96 55 55 (29040000)
I0403 12:11:16.538240  8557 net.cpp:156] Memory required for data: 294156400
I0403 12:11:16.538257  8557 layer_factory.hpp:77] Creating layer norm1
I0403 12:11:16.538285  8557 net.cpp:91] Creating Layer norm1
I0403 12:11:16.538302  8557 net.cpp:425] norm1 <- conv1
I0403 12:11:16.538321  8557 net.cpp:399] norm1 -> norm1
I0403 12:11:16.538635  8557 net.cpp:141] Setting up norm1
I0403 12:11:16.538663  8557 net.cpp:148] Top shape: 100 96 55 55 (29040000)
I0403 12:11:16.538679  8557 net.cpp:156] Memory required for data: 410316400
I0403 12:11:16.538694  8557 layer_factory.hpp:77] Creating layer pool1
I0403 12:11:16.538717  8557 net.cpp:91] Creating Layer pool1
I0403 12:11:16.538734  8557 net.cpp:425] pool1 <- norm1
I0403 12:11:16.538753  8557 net.cpp:399] pool1 -> pool1
I0403 12:11:16.538821  8557 net.cpp:141] Setting up pool1
I0403 12:11:16.538846  8557 net.cpp:148] Top shape: 100 96 27 27 (6998400)
I0403 12:11:16.538861  8557 net.cpp:156] Memory required for data: 438310000
I0403 12:11:16.538877  8557 layer_factory.hpp:77] Creating layer conv2
I0403 12:11:16.538900  8557 net.cpp:91] Creating Layer conv2
I0403 12:11:16.538916  8557 net.cpp:425] conv2 <- pool1
I0403 12:11:16.538935  8557 net.cpp:399] conv2 -> conv2
I0403 12:11:16.553833  8557 net.cpp:141] Setting up conv2
I0403 12:11:16.553880  8557 net.cpp:148] Top shape: 100 256 27 27 (18662400)
I0403 12:11:16.553899  8557 net.cpp:156] Memory required for data: 512959600
I0403 12:11:16.553921  8557 layer_factory.hpp:77] Creating layer relu2
I0403 12:11:16.553941  8557 net.cpp:91] Creating Layer relu2
I0403 12:11:16.553958  8557 net.cpp:425] relu2 <- conv2
I0403 12:11:16.553977  8557 net.cpp:386] relu2 -> conv2 (in-place)
I0403 12:11:16.554250  8557 net.cpp:141] Setting up relu2
I0403 12:11:16.554278  8557 net.cpp:148] Top shape: 100 256 27 27 (18662400)
I0403 12:11:16.554294  8557 net.cpp:156] Memory required for data: 587609200
I0403 12:11:16.554311  8557 layer_factory.hpp:77] Creating layer norm2
I0403 12:11:16.554332  8557 net.cpp:91] Creating Layer norm2
I0403 12:11:16.554347  8557 net.cpp:425] norm2 <- conv2
I0403 12:11:16.554366  8557 net.cpp:399] norm2 -> norm2
I0403 12:11:16.554565  8557 net.cpp:141] Setting up norm2
I0403 12:11:16.554605  8557 net.cpp:148] Top shape: 100 256 27 27 (18662400)
I0403 12:11:16.554620  8557 net.cpp:156] Memory required for data: 662258800
I0403 12:11:16.554636  8557 layer_factory.hpp:77] Creating layer pool2
I0403 12:11:16.554656  8557 net.cpp:91] Creating Layer pool2
I0403 12:11:16.554673  8557 net.cpp:425] pool2 <- norm2
I0403 12:11:16.554692  8557 net.cpp:399] pool2 -> pool2
I0403 12:11:16.554744  8557 net.cpp:141] Setting up pool2
I0403 12:11:16.554767  8557 net.cpp:148] Top shape: 100 256 13 13 (4326400)
I0403 12:11:16.554783  8557 net.cpp:156] Memory required for data: 679564400
I0403 12:11:16.554810  8557 layer_factory.hpp:77] Creating layer conv3
I0403 12:11:16.554832  8557 net.cpp:91] Creating Layer conv3
I0403 12:11:16.554848  8557 net.cpp:425] conv3 <- pool2
I0403 12:11:16.554867  8557 net.cpp:399] conv3 -> conv3
I0403 12:11:16.593727  8557 net.cpp:141] Setting up conv3
I0403 12:11:16.593802  8557 net.cpp:148] Top shape: 100 384 13 13 (6489600)
I0403 12:11:16.593821  8557 net.cpp:156] Memory required for data: 705522800
I0403 12:11:16.593847  8557 layer_factory.hpp:77] Creating layer relu3
I0403 12:11:16.593869  8557 net.cpp:91] Creating Layer relu3
I0403 12:11:16.593888  8557 net.cpp:425] relu3 <- conv3
I0403 12:11:16.593907  8557 net.cpp:386] relu3 -> conv3 (in-place)
I0403 12:11:16.594172  8557 net.cpp:141] Setting up relu3
I0403 12:11:16.594199  8557 net.cpp:148] Top shape: 100 384 13 13 (6489600)
I0403 12:11:16.594215  8557 net.cpp:156] Memory required for data: 731481200
I0403 12:11:16.594230  8557 layer_factory.hpp:77] Creating layer conv4
I0403 12:11:16.594255  8557 net.cpp:91] Creating Layer conv4
I0403 12:11:16.594271  8557 net.cpp:425] conv4 <- conv3
I0403 12:11:16.594290  8557 net.cpp:399] conv4 -> conv4
I0403 12:11:16.624227  8557 net.cpp:141] Setting up conv4
I0403 12:11:16.624269  8557 net.cpp:148] Top shape: 100 384 13 13 (6489600)
I0403 12:11:16.624326  8557 net.cpp:156] Memory required for data: 757439600
I0403 12:11:16.624349  8557 layer_factory.hpp:77] Creating layer relu4
I0403 12:11:16.624371  8557 net.cpp:91] Creating Layer relu4
I0403 12:11:16.624398  8557 net.cpp:425] relu4 <- conv4
I0403 12:11:16.624420  8557 net.cpp:386] relu4 -> conv4 (in-place)
I0403 12:11:16.624737  8557 net.cpp:141] Setting up relu4
I0403 12:11:16.624769  8557 net.cpp:148] Top shape: 100 384 13 13 (6489600)
I0403 12:11:16.624788  8557 net.cpp:156] Memory required for data: 783398000
I0403 12:11:16.624825  8557 layer_factory.hpp:77] Creating layer conv5
I0403 12:11:16.624850  8557 net.cpp:91] Creating Layer conv5
I0403 12:11:16.624868  8557 net.cpp:425] conv5 <- conv4
I0403 12:11:16.624886  8557 net.cpp:399] conv5 -> conv5
I0403 12:11:16.645346  8557 net.cpp:141] Setting up conv5
I0403 12:11:16.645402  8557 net.cpp:148] Top shape: 100 256 13 13 (4326400)
I0403 12:11:16.645419  8557 net.cpp:156] Memory required for data: 800703600
I0403 12:11:16.645443  8557 layer_factory.hpp:77] Creating layer relu5
I0403 12:11:16.645464  8557 net.cpp:91] Creating Layer relu5
I0403 12:11:16.645480  8557 net.cpp:425] relu5 <- conv5
I0403 12:11:16.645500  8557 net.cpp:386] relu5 -> conv5 (in-place)
I0403 12:11:16.645794  8557 net.cpp:141] Setting up relu5
I0403 12:11:16.645823  8557 net.cpp:148] Top shape: 100 256 13 13 (4326400)
I0403 12:11:16.645838  8557 net.cpp:156] Memory required for data: 818009200
I0403 12:11:16.645853  8557 layer_factory.hpp:77] Creating layer pool5
I0403 12:11:16.645879  8557 net.cpp:91] Creating Layer pool5
I0403 12:11:16.645896  8557 net.cpp:425] pool5 <- conv5
I0403 12:11:16.645915  8557 net.cpp:399] pool5 -> pool5
I0403 12:11:16.645978  8557 net.cpp:141] Setting up pool5
I0403 12:11:16.646003  8557 net.cpp:148] Top shape: 100 256 6 6 (921600)
I0403 12:11:16.646018  8557 net.cpp:156] Memory required for data: 821695600
I0403 12:11:16.646034  8557 layer_factory.hpp:77] Creating layer fc6
I0403 12:11:16.646061  8557 net.cpp:91] Creating Layer fc6
I0403 12:11:16.646080  8557 net.cpp:425] fc6 <- pool5
I0403 12:11:16.646100  8557 net.cpp:399] fc6 -> fc6
I0403 12:11:18.209298  8557 net.cpp:141] Setting up fc6
I0403 12:11:18.209374  8557 net.cpp:148] Top shape: 100 4096 (409600)
I0403 12:11:18.209390  8557 net.cpp:156] Memory required for data: 823334000
I0403 12:11:18.209411  8557 layer_factory.hpp:77] Creating layer relu6
I0403 12:11:18.209434  8557 net.cpp:91] Creating Layer relu6
I0403 12:11:18.209450  8557 net.cpp:425] relu6 <- fc6
I0403 12:11:18.209471  8557 net.cpp:386] relu6 -> fc6 (in-place)
I0403 12:11:18.209702  8557 net.cpp:141] Setting up relu6
I0403 12:11:18.209728  8557 net.cpp:148] Top shape: 100 4096 (409600)
I0403 12:11:18.209741  8557 net.cpp:156] Memory required for data: 824972400
I0403 12:11:18.209756  8557 layer_factory.hpp:77] Creating layer drop6
I0403 12:11:18.209774  8557 net.cpp:91] Creating Layer drop6
I0403 12:11:18.209789  8557 net.cpp:425] drop6 <- fc6
I0403 12:11:18.209808  8557 net.cpp:386] drop6 -> fc6 (in-place)
I0403 12:11:18.209858  8557 net.cpp:141] Setting up drop6
I0403 12:11:18.209884  8557 net.cpp:148] Top shape: 100 4096 (409600)
I0403 12:11:18.209900  8557 net.cpp:156] Memory required for data: 826610800
I0403 12:11:18.209914  8557 layer_factory.hpp:77] Creating layer fc7
I0403 12:11:18.209933  8557 net.cpp:91] Creating Layer fc7
I0403 12:11:18.209949  8557 net.cpp:425] fc7 <- fc6
I0403 12:11:18.209969  8557 net.cpp:399] fc7 -> fc7
I0403 12:11:18.907166  8557 net.cpp:141] Setting up fc7
I0403 12:11:18.907232  8557 net.cpp:148] Top shape: 100 4096 (409600)
I0403 12:11:18.907248  8557 net.cpp:156] Memory required for data: 828249200
I0403 12:11:18.907272  8557 layer_factory.hpp:77] Creating layer relu7
I0403 12:11:18.907294  8557 net.cpp:91] Creating Layer relu7
I0403 12:11:18.907311  8557 net.cpp:425] relu7 <- fc7
I0403 12:11:18.907333  8557 net.cpp:386] relu7 -> fc7 (in-place)
I0403 12:11:18.907764  8557 net.cpp:141] Setting up relu7
I0403 12:11:18.907791  8557 net.cpp:148] Top shape: 100 4096 (409600)
I0403 12:11:18.907840  8557 net.cpp:156] Memory required for data: 829887600
I0403 12:11:18.907857  8557 layer_factory.hpp:77] Creating layer drop7
I0403 12:11:18.907876  8557 net.cpp:91] Creating Layer drop7
I0403 12:11:18.907892  8557 net.cpp:425] drop7 <- fc7
I0403 12:11:18.907912  8557 net.cpp:386] drop7 -> fc7 (in-place)
I0403 12:11:18.907958  8557 net.cpp:141] Setting up drop7
I0403 12:11:18.907984  8557 net.cpp:148] Top shape: 100 4096 (409600)
I0403 12:11:18.907999  8557 net.cpp:156] Memory required for data: 831526000
I0403 12:11:18.908015  8557 layer_factory.hpp:77] Creating layer fc8_plantvillage
I0403 12:11:18.908035  8557 net.cpp:91] Creating Layer fc8_plantvillage
I0403 12:11:18.908051  8557 net.cpp:425] fc8_plantvillage <- fc7
I0403 12:11:18.908071  8557 net.cpp:399] fc8_plantvillage -> fc8_plantvillage
I0403 12:11:18.914994  8557 net.cpp:141] Setting up fc8_plantvillage
I0403 12:11:18.915024  8557 net.cpp:148] Top shape: 100 38 (3800)
I0403 12:11:18.915040  8557 net.cpp:156] Memory required for data: 831541200
I0403 12:11:18.915057  8557 layer_factory.hpp:77] Creating layer fc8_plantvillage_fc8_plantvillage_0_split
I0403 12:11:18.915076  8557 net.cpp:91] Creating Layer fc8_plantvillage_fc8_plantvillage_0_split
I0403 12:11:18.915091  8557 net.cpp:425] fc8_plantvillage_fc8_plantvillage_0_split <- fc8_plantvillage
I0403 12:11:18.915110  8557 net.cpp:399] fc8_plantvillage_fc8_plantvillage_0_split -> fc8_plantvillage_fc8_plantvillage_0_split_0
I0403 12:11:18.915132  8557 net.cpp:399] fc8_plantvillage_fc8_plantvillage_0_split -> fc8_plantvillage_fc8_plantvillage_0_split_1
I0403 12:11:18.915151  8557 net.cpp:399] fc8_plantvillage_fc8_plantvillage_0_split -> fc8_plantvillage_fc8_plantvillage_0_split_2
I0403 12:11:18.915230  8557 net.cpp:141] Setting up fc8_plantvillage_fc8_plantvillage_0_split
I0403 12:11:18.915256  8557 net.cpp:148] Top shape: 100 38 (3800)
I0403 12:11:18.915271  8557 net.cpp:148] Top shape: 100 38 (3800)
I0403 12:11:18.915287  8557 net.cpp:148] Top shape: 100 38 (3800)
I0403 12:11:18.915302  8557 net.cpp:156] Memory required for data: 831586800
I0403 12:11:18.915315  8557 layer_factory.hpp:77] Creating layer prob
I0403 12:11:18.915334  8557 net.cpp:91] Creating Layer prob
I0403 12:11:18.915349  8557 net.cpp:425] prob <- fc8_plantvillage_fc8_plantvillage_0_split_0
I0403 12:11:18.915371  8557 net.cpp:399] prob -> prob
I0403 12:11:18.915629  8557 net.cpp:141] Setting up prob
I0403 12:11:18.915657  8557 net.cpp:148] Top shape: 100 38 (3800)
I0403 12:11:18.915673  8557 net.cpp:156] Memory required for data: 831602000
I0403 12:11:18.915688  8557 layer_factory.hpp:77] Creating layer hdf5out
I0403 12:11:18.915709  8557 net.cpp:91] Creating Layer hdf5out
I0403 12:11:18.915724  8557 net.cpp:425] hdf5out <- prob
I0403 12:11:18.915745  8557 net.cpp:425] hdf5out <- label_data_1_split_0
I0403 12:11:18.918133  8557 net.cpp:141] Setting up hdf5out
…
