…
I0403 12:19:00.346218  8736 net.cpp:313] The NetState phase (1) differed from the phase (0) specified by a rule in layer data
I0403 12:19:00.346545  8736 net.cpp:49] Initializing net from parameters: 
state {
  phase: TEST
}
layer {
  name: "data"
  type: "Data"
  top: "data"
  top: "label"
  include {
    phase: TEST
  }
  transform_param {
    crop_size: 227
    mean_file: "/home/mohanty/data/final_dataset/lmdb/segmented-20-80/mean.binaryproto"
  }
  data_param {
    source: "/home/mohanty/data/final_dataset/lmdb/segmented-20-80/test_db"
    batch_size: 100
    backend: LMDB
  }
}
layer {
  name: "conv1"
  type: "Convolution"
  bottom: "data"
  top: "conv1"
  param {
    lr_mult: 1
    decay_mult: 1
  }
  param {
    lr_mult: 2
    decay_mult: 0
  }
  convolution_param {
    num_output: 96
    kernel_size: 11
    stride: 4
    weight_filler {
      type: "gaussian"
      std: 0.01
    }
    bias_filler {
      type: "constant"
      value: 0
    }
  }
}
layer {
  name: "relu1"
  type: "ReLU"
  bottom: "conv1"
  top: "conv1"
}
layer {
  name: "norm1"
  type: "LRN"
  bottom: "conv1"
  top: "norm1"
  lrn_param {
    local_size: 5
    alpha: 0.0001
    beta: 0.75
  }
}
layer {
  name: "pool1"
  type: "Pooling"
  bottom: "norm1"
  top: "pool1"
  pooling_param {
    pool: MAX
    kernel_size: 3
    stride: 2
  }
}
layer {
  name: "conv2"
  type: "Convolution"
  bottom: "pool1"
  top: "conv2"
  param {
    lr_mult: 1
    decay_mult: 1
  }
  param {
    lr_mult: 2
    decay_mult: 0
  }
  convolution_param {
    num_output: 256
    pad: 2
    kernel_size: 5
    group: 2
    weight_filler {
      type: "gaussian"
      std: 0.01
    }
    bias_filler {
      type: "constant"
      value: 0.1
    }
  }
}
layer {
  name: "relu2"
  type: "ReLU"
  bottom: "conv2"
  top: "conv2"
}
layer {
  name: "norm2"
  type: "LRN"
  bottom: "conv2"
  top: "norm2"
  lrn_param {
    local_size: 5
    alpha: 0.0001
    beta: 0.75
  }
}
layer {
  name: "pool2"
  type: "Pooling"
  bottom: "norm2"
  top: "pool2"
  pooling_param {
    pool: MAX
    kernel_size: 3
    stride: 2
  }
}
layer {
  name: "conv3"
  type: "Convolution"
  bottom: "pool2"
  top: "conv3"
  param {
    lr_mult: 1
    decay_mult: 1
  }
  param {
    lr_mult: 2
    decay_mult: 0
  }
  convolution_param {
    num_output: 384
    pad: 1
    kernel_size: 3
    weight_filler {
      type: "gaussian"
      std: 0.01
    }
    bias_filler {
      type: "constant"
      value: 0
    }
  }
}
layer {
  name: "relu3"
  type: "ReLU"
  bottom: "conv3"
  top: "conv3"
}
layer {
  name: "conv4"
  type: "Convolution"
  bottom: "conv3"
  top: "conv4"
  param {
    lr_mult: 1
    decay_mult: 1
  }
  param {
    lr_mult: 2
    decay_mult: 0
  }
  convolution_param {
    num_output: 384
    pad: 1
    kernel_size: 3
    group: 2
    weight_filler {
      type: "gaussian"
      std: 0.01
    }
    bias_filler {
      type: "constant"
      value: 0.1
    }
  }
}
layer {
  name: "relu4"
  type: "ReLU"
  bottom: "conv4"
  top: "conv4"
}
layer {
  name: "conv5"
  type: "Convolution"
  bottom: "conv4"
  top: "conv5"
  param {
    lr_mult: 1
    decay_mult: 1
  }
  param {
    lr_mult: 2
    decay_mult: 0
  }
  convolution_param {
    num_output: 256
    pad: 1
    kernel_size: 3
    group: 2
    weight_filler {
      type: "gaussian"
      std: 0.01
    }
    bias_filler {
      type: "constant"
      value: 0.1
    }
  }
}
layer {
  name: "relu5"
  type: "ReLU"
  bottom: "conv5"
  top: "conv5"
}
layer {
  name: "pool5"
  type: "Pooling"
  bottom: "conv5"
  top: "pool5"
  pooling_param {
    pool: MAX
    kernel_size: 3
    stride: 2
  }
}
layer {
  name: "fc6"
  type: "InnerProduct"
  bottom: "pool5"
  top: "fc6"
  param {
    lr_mult: 1
    decay_mult: 1
  }
  param {
    lr_mult: 2
    decay_mult: 0
  }
  inner_product_param {
    num_output: 4096
    weight_filler {
      type: "gaussian"
      std: 0.005
    }
    bias_filler {
      type: "constant"
      value: 0.1
    }
  }
}
layer {
  name: "relu6"
  type: "ReLU"
  bottom: "fc6"
  top: "fc6"
}
layer {
  name: "drop6"
  type: "Dropout"
  bottom: "fc6"
  top: "fc6"
  dropout_param {
    dropout_ratio: 0.5
  }
}
layer {
  name: "fc7"
  type: "InnerProduct"
  bottom: "fc6"
  top: "fc7"
  param {
    lr_mult: 1
    decay_mult: 1
  }
  param {
    lr_mult: 2
    decay_mult: 0
  }
  inner_product_param {
    num_output: 4096
    weight_filler {
      type: "gaussian"
      std: 0.005
    }
    bias_filler {
      type: "constant"
      value: 0.1
    }
  }
}
layer {
  name: "relu7"
  type: "ReLU"
  bottom: "fc7"
  top: "fc7"
}
layer {
  name: "drop7"
  type: "Dropout"
  bottom: "fc7"
  top: "fc7"
  dropout_param {
    dropout_ratio: 0.5
  }
}
layer {
  name: "fc8_plantvillage"
  type: "InnerProduct"
  bottom: "fc7"
  top: "fc8_plantvillage"
  param {
    lr_mult: 1
    decay_mult: 1
  }
  param {
    lr_mult: 2
    decay_mult: 0
  }
  inner_product_param {
    num_output: 38
    weight_filler {
      type: "gaussian"
      std: 0.01
    }
    bias_filler {
      type: "constant"
      value: 0
    }
  }
}
layer {
  name: "prob"
  type: "Softmax"
  bottom: "fc8_plantvillage"
  top: "prob"
  include {
    phase: TEST
  }
}
layer {
  name: "hdf5out"
  type: "HDF5Output"
  bottom: "prob"
  bottom: "label"
  include {
    phase: TEST
  }
  hdf5_output_param {
    file_name: "hdf5_dumps/iter_1484.h5"
  }
}
layer {
  name: "loss"
  type: "SoftmaxWithLoss"
  bottom: "fc8_plantvillage"
  bottom: "label"
  top: "loss"
}
layer {
  name: "accuracy"
  type: "Accuracy"
  bottom: "fc8_plantvillage"
  bottom: "label"
  top: "accuracy"
  include {
    phase: TEST
  }
}
I0403 12:19:00.347113  8736 layer_factory.hpp:77] Creating layer data
I0403 12:19:00.347764  8736 net.cpp:91] Creating Layer data
I0403 12:19:00.347795  8736 net.cpp:399] data -> data
I0403 12:19:00.347846  8736 net.cpp:399] data -> label
I0403 12:19:00.347882  8736 data_transformer.cpp:25] Loading mean file from: /home/mohanty/data/final_dataset/lmdb/segmented-20-80/mean.binaryproto
I0403 12:19:00.350687  8741 db_lmdb.cpp:38] Opened lmdb /home/mohanty/data/final_dataset/lmdb/segmented-20-80/test_db
I0403 12:19:00.362347  8736 data_layer.cpp:41] output data size: 100,3,227,227
I0403 12:19:00.481825  8736 net.cpp:141] Setting up data
I0403 12:19:00.481899  8736 net.cpp:148] Top shape: 100 3 227 227 (15458700)
I0403 12:19:00.481920  8736 net.cpp:148] Top shape: 100 (100)
I0403 12:19:00.481935  8736 net.cpp:156] Memory required for data: 61835200
I0403 12:19:00.481962  8736 layer_factory.hpp:77] Creating layer label_data_1_split
I0403 12:19:00.481987  8736 net.cpp:91] Creating Layer label_data_1_split
I0403 12:19:00.482004  8736 net.cpp:425] label_data_1_split <- label
I0403 12:19:00.482038  8736 net.cpp:399] label_data_1_split -> label_data_1_split_0
I0403 12:19:00.482064  8736 net.cpp:399] label_data_1_split -> label_data_1_split_1
I0403 12:19:00.482084  8736 net.cpp:399] label_data_1_split -> label_data_1_split_2
I0403 12:19:00.482144  8736 net.cpp:141] Setting up label_data_1_split
I0403 12:19:00.482167  8736 net.cpp:148] Top shape: 100 (100)
I0403 12:19:00.482182  8736 net.cpp:148] Top shape: 100 (100)
I0403 12:19:00.482197  8736 net.cpp:148] Top shape: 100 (100)
I0403 12:19:00.482211  8736 net.cpp:156] Memory required for data: 61836400
I0403 12:19:00.482225  8736 layer_factory.hpp:77] Creating layer conv1
I0403 12:19:00.482256  8736 net.cpp:91] Creating Layer conv1
I0403 12:19:00.482275  8736 net.cpp:425] conv1 <- data
I0403 12:19:00.482293  8736 net.cpp:399] conv1 -> conv1
I0403 12:19:00.625079  8736 net.cpp:141] Setting up conv1
I0403 12:19:00.625159  8736 net.cpp:148] Top shape: 100 96 55 55 (29040000)
I0403 12:19:00.625177  8736 net.cpp:156] Memory required for data: 177996400
I0403 12:19:00.625272  8736 layer_factory.hpp:77] Creating layer relu1
I0403 12:19:00.625305  8736 net.cpp:91] Creating Layer relu1
I0403 12:19:00.625324  8736 net.cpp:425] relu1 <- conv1
I0403 12:19:00.625344  8736 net.cpp:386] relu1 -> conv1 (in-place)
I0403 12:19:00.625615  8736 net.cpp:141] Setting up relu1
I0403 12:19:00.625643  8736 net.cpp:148] Top shape: 100 96 55 55 (29040000)
I0403 12:19:00.625699  8736 net.cpp:156] Memory required for data: 294156400
I0403 12:19:00.625716  8736 layer_factory.hpp:77] Creating layer norm1
I0403 12:19:00.625743  8736 net.cpp:91] Creating Layer norm1
I0403 12:19:00.625761  8736 net.cpp:425] norm1 <- conv1
I0403 12:19:00.625780  8736 net.cpp:399] norm1 -> norm1
I0403 12:19:00.626111  8736 net.cpp:141] Setting up norm1
I0403 12:19:00.626139  8736 net.cpp:148] Top shape: 100 96 55 55 (29040000)
I0403 12:19:00.626155  8736 net.cpp:156] Memory required for data: 410316400
I0403 12:19:00.626170  8736 layer_factory.hpp:77] Creating layer pool1
I0403 12:19:00.626194  8736 net.cpp:91] Creating Layer pool1
I0403 12:19:00.626211  8736 net.cpp:425] pool1 <- norm1
I0403 12:19:00.626233  8736 net.cpp:399] pool1 -> pool1
I0403 12:19:00.626307  8736 net.cpp:141] Setting up pool1
I0403 12:19:00.626332  8736 net.cpp:148] Top shape: 100 96 27 27 (6998400)
I0403 12:19:00.626346  8736 net.cpp:156] Memory required for data: 438310000
I0403 12:19:00.626361  8736 layer_factory.hpp:77] Creating layer conv2
I0403 12:19:00.626389  8736 net.cpp:91] Creating Layer conv2
I0403 12:19:00.626405  8736 net.cpp:425] conv2 <- pool1
I0403 12:19:00.626426  8736 net.cpp:399] conv2 -> conv2
I0403 12:19:00.641541  8736 net.cpp:141] Setting up conv2
I0403 12:19:00.641576  8736 net.cpp:148] Top shape: 100 256 27 27 (18662400)
I0403 12:19:00.641592  8736 net.cpp:156] Memory required for data: 512959600
I0403 12:19:00.641619  8736 layer_factory.hpp:77] Creating layer relu2
I0403 12:19:00.641676  8736 net.cpp:91] Creating Layer relu2
I0403 12:19:00.641697  8736 net.cpp:425] relu2 <- conv2
I0403 12:19:00.641716  8736 net.cpp:386] relu2 -> conv2 (in-place)
I0403 12:19:00.641990  8736 net.cpp:141] Setting up relu2
I0403 12:19:00.642017  8736 net.cpp:148] Top shape: 100 256 27 27 (18662400)
I0403 12:19:00.642031  8736 net.cpp:156] Memory required for data: 587609200
I0403 12:19:00.642046  8736 layer_factory.hpp:77] Creating layer norm2
I0403 12:19:00.642069  8736 net.cpp:91] Creating Layer norm2
I0403 12:19:00.642086  8736 net.cpp:425] norm2 <- conv2
I0403 12:19:00.642107  8736 net.cpp:399] norm2 -> norm2
I0403 12:19:00.642300  8736 net.cpp:141] Setting up norm2
I0403 12:19:00.642325  8736 net.cpp:148] Top shape: 100 256 27 27 (18662400)
I0403 12:19:00.642339  8736 net.cpp:156] Memory required for data: 662258800
I0403 12:19:00.642354  8736 layer_factory.hpp:77] Creating layer pool2
I0403 12:19:00.642374  8736 net.cpp:91] Creating Layer pool2
I0403 12:19:00.642390  8736 net.cpp:425] pool2 <- norm2
I0403 12:19:00.642408  8736 net.cpp:399] pool2 -> pool2
I0403 12:19:00.642462  8736 net.cpp:141] Setting up pool2
I0403 12:19:00.642485  8736 net.cpp:148] Top shape: 100 256 13 13 (4326400)
I0403 12:19:00.642499  8736 net.cpp:156] Memory required for data: 679564400
I0403 12:19:00.642515  8736 layer_factory.hpp:77] Creating layer conv3
I0403 12:19:00.642537  8736 net.cpp:91] Creating Layer conv3
I0403 12:19:00.642554  8736 net.cpp:425] conv3 <- pool2
I0403 12:19:00.642575  8736 net.cpp:399] conv3 -> conv3
I0403 12:19:00.681323  8736 net.cpp:141] Setting up conv3
I0403 12:19:00.681393  8736 net.cpp:148] Top shape: 100 384 13 13 (6489600)
I0403 12:19:00.681409  8736 net.cpp:156] Memory required for data: 705522800
I0403 12:19:00.681434  8736 layer_factory.hpp:77] Creating layer relu3
I0403 12:19:00.681459  8736 net.cpp:91] Creating Layer relu3
I0403 12:19:00.681478  8736 net.cpp:425] relu3 <- conv3
I0403 12:19:00.681496  8736 net.cpp:386] relu3 -> conv3 (in-place)
I0403 12:19:00.681773  8736 net.cpp:141] Setting up relu3
I0403 12:19:00.681799  8736 net.cpp:148] Top shape: 100 384 13 13 (6489600)
I0403 12:19:00.681815  8736 net.cpp:156] Memory required for data: 731481200
I0403 12:19:00.681830  8736 layer_factory.hpp:77] Creating layer conv4
I0403 12:19:00.681855  8736 net.cpp:91] Creating Layer conv4
I0403 12:19:00.681874  8736 net.cpp:425] conv4 <- conv3
I0403 12:19:00.681893  8736 net.cpp:399] conv4 -> conv4
I0403 12:19:00.712605  8736 net.cpp:141] Setting up conv4
I0403 12:19:00.712673  8736 net.cpp:148] Top shape: 100 384 13 13 (6489600)
I0403 12:19:00.712729  8736 net.cpp:156] Memory required for data: 757439600
I0403 12:19:00.712751  8736 layer_factory.hpp:77] Creating layer relu4
I0403 12:19:00.712774  8736 net.cpp:91] Creating Layer relu4
I0403 12:19:00.712790  8736 net.cpp:425] relu4 <- conv4
I0403 12:19:00.712811  8736 net.cpp:386] relu4 -> conv4 (in-place)
I0403 12:19:00.713105  8736 net.cpp:141] Setting up relu4
I0403 12:19:00.713132  8736 net.cpp:148] Top shape: 100 384 13 13 (6489600)
I0403 12:19:00.713148  8736 net.cpp:156] Memory required for data: 783398000
I0403 12:19:00.713165  8736 layer_factory.hpp:77] Creating layer conv5
I0403 12:19:00.713191  8736 net.cpp:91] Creating Layer conv5
I0403 12:19:00.713208  8736 net.cpp:425] conv5 <- conv4
I0403 12:19:00.713229  8736 net.cpp:399] conv5 -> conv5
I0403 12:19:00.734441  8736 net.cpp:141] Setting up conv5
I0403 12:19:00.734499  8736 net.cpp:148] Top shape: 100 256 13 13 (4326400)
I0403 12:19:00.734516  8736 net.cpp:156] Memory required for data: 800703600
I0403 12:19:00.734541  8736 layer_factory.hpp:77] Creating layer relu5
I0403 12:19:00.734566  8736 net.cpp:91] Creating Layer relu5
I0403 12:19:00.734585  8736 net.cpp:425] relu5 <- conv5
I0403 12:19:00.734613  8736 net.cpp:386] relu5 -> conv5 (in-place)
I0403 12:19:00.734930  8736 net.cpp:141] Setting up relu5
I0403 12:19:00.734958  8736 net.cpp:148] Top shape: 100 256 13 13 (4326400)
I0403 12:19:00.734974  8736 net.cpp:156] Memory required for data: 818009200
I0403 12:19:00.734990  8736 layer_factory.hpp:77] Creating layer pool5
I0403 12:19:00.735014  8736 net.cpp:91] Creating Layer pool5
I0403 12:19:00.735031  8736 net.cpp:425] pool5 <- conv5
I0403 12:19:00.735049  8736 net.cpp:399] pool5 -> pool5
I0403 12:19:00.735112  8736 net.cpp:141] Setting up pool5
I0403 12:19:00.735136  8736 net.cpp:148] Top shape: 100 256 6 6 (921600)
I0403 12:19:00.735152  8736 net.cpp:156] Memory required for data: 821695600
I0403 12:19:00.735165  8736 layer_factory.hpp:77] Creating layer fc6
I0403 12:19:00.735194  8736 net.cpp:91] Creating Layer fc6
I0403 12:19:00.735213  8736 net.cpp:425] fc6 <- pool5
I0403 12:19:00.735231  8736 net.cpp:399] fc6 -> fc6
I0403 12:19:02.290741  8736 net.cpp:141] Setting up fc6
I0403 12:19:02.290784  8736 net.cpp:148] Top shape: 100 4096 (409600)
I0403 12:19:02.290801  8736 net.cpp:156] Memory required for data: 823334000
I0403 12:19:02.290820  8736 layer_factory.hpp:77] Creating layer relu6
I0403 12:19:02.290843  8736 net.cpp:91] Creating Layer relu6
I0403 12:19:02.290858  8736 net.cpp:425] relu6 <- fc6
I0403 12:19:02.290882  8736 net.cpp:386] relu6 -> fc6 (in-place)
I0403 12:19:02.291110  8736 net.cpp:141] Setting up relu6
I0403 12:19:02.291136  8736 net.cpp:148] Top shape: 100 4096 (409600)
I0403 12:19:02.291151  8736 net.cpp:156] Memory required for data: 824972400
I0403 12:19:02.291164  8736 layer_factory.hpp:77] Creating layer drop6
I0403 12:19:02.291184  8736 net.cpp:91] Creating Layer drop6
I0403 12:19:02.291200  8736 net.cpp:425] drop6 <- fc6
I0403 12:19:02.291218  8736 net.cpp:386] drop6 -> fc6 (in-place)
I0403 12:19:02.291266  8736 net.cpp:141] Setting up drop6
I0403 12:19:02.291291  8736 net.cpp:148] Top shape: 100 4096 (409600)
I0403 12:19:02.291307  8736 net.cpp:156] Memory required for data: 826610800
I0403 12:19:02.291334  8736 layer_factory.hpp:77] Creating layer fc7
I0403 12:19:02.291352  8736 net.cpp:91] Creating Layer fc7
I0403 12:19:02.291368  8736 net.cpp:425] fc7 <- fc6
I0403 12:19:02.291388  8736 net.cpp:399] fc7 -> fc7
I0403 12:19:02.975981  8736 net.cpp:141] Setting up fc7
I0403 12:19:02.976059  8736 net.cpp:148] Top shape: 100 4096 (409600)
I0403 12:19:02.976075  8736 net.cpp:156] Memory required for data: 828249200
I0403 12:19:02.976096  8736 layer_factory.hpp:77] Creating layer relu7
I0403 12:19:02.976119  8736 net.cpp:91] Creating Layer relu7
I0403 12:19:02.976136  8736 net.cpp:425] relu7 <- fc7
I0403 12:19:02.976157  8736 net.cpp:386] relu7 -> fc7 (in-place)
I0403 12:19:02.976562  8736 net.cpp:141] Setting up relu7
I0403 12:19:02.976588  8736 net.cpp:148] Top shape: 100 4096 (409600)
I0403 12:19:02.976660  8736 net.cpp:156] Memory required for data: 829887600
I0403 12:19:02.976677  8736 layer_factory.hpp:77] Creating layer drop7
I0403 12:19:02.976696  8736 net.cpp:91] Creating Layer drop7
I0403 12:19:02.976712  8736 net.cpp:425] drop7 <- fc7
I0403 12:19:02.976733  8736 net.cpp:386] drop7 -> fc7 (in-place)
I0403 12:19:02.976778  8736 net.cpp:141] Setting up drop7
I0403 12:19:02.976804  8736 net.cpp:148] Top shape: 100 4096 (409600)
I0403 12:19:02.976819  8736 net.cpp:156] Memory required for data: 831526000
I0403 12:19:02.976833  8736 layer_factory.hpp:77] Creating layer fc8_plantvillage
I0403 12:19:02.976853  8736 net.cpp:91] Creating Layer fc8_plantvillage
I0403 12:19:02.976873  8736 net.cpp:425] fc8_plantvillage <- fc7
I0403 12:19:02.976907  8736 net.cpp:399] fc8_plantvillage -> fc8_plantvillage
I0403 12:19:02.983538  8736 net.cpp:141] Setting up fc8_plantvillage
I0403 12:19:02.983566  8736 net.cpp:148] Top shape: 100 38 (3800)
I0403 12:19:02.983580  8736 net.cpp:156] Memory required for data: 831541200
I0403 12:19:02.983602  8736 layer_factory.hpp:77] Creating layer fc8_plantvillage_fc8_plantvillage_0_split
I0403 12:19:02.983623  8736 net.cpp:91] Creating Layer fc8_plantvillage_fc8_plantvillage_0_split
I0403 12:19:02.983639  8736 net.cpp:425] fc8_plantvillage_fc8_plantvillage_0_split <- fc8_plantvillage
I0403 12:19:02.983655  8736 net.cpp:399] fc8_plantvillage_fc8_plantvillage_0_split -> fc8_plantvillage_fc8_plantvillage_0_split_0
I0403 12:19:02.983675  8736 net.cpp:399] fc8_plantvillage_fc8_plantvillage_0_split -> fc8_plantvillage_fc8_plantvillage_0_split_1
I0403 12:19:02.983693  8736 net.cpp:399] fc8_plantvillage_fc8_plantvillage_0_split -> fc8_plantvillage_fc8_plantvillage_0_split_2
I0403 12:19:02.983769  8736 net.cpp:141] Setting up fc8_plantvillage_fc8_plantvillage_0_split
I0403 12:19:02.983804  8736 net.cpp:148] Top shape: 100 38 (3800)
I0403 12:19:02.983820  8736 net.cpp:148] Top shape: 100 38 (3800)
I0403 12:19:02.983836  8736 net.cpp:148] Top shape: 100 38 (3800)
I0403 12:19:02.983850  8736 net.cpp:156] Memory required for data: 831586800
I0403 12:19:02.983863  8736 layer_factory.hpp:77] Creating layer prob
I0403 12:19:02.983881  8736 net.cpp:91] Creating Layer prob
I0403 12:19:02.983896  8736 net.cpp:425] prob <- fc8_plantvillage_fc8_plantvillage_0_split_0
I0403 12:19:02.983913  8736 net.cpp:399] prob -> prob
I0403 12:19:02.984150  8736 net.cpp:141] Setting up prob
I0403 12:19:02.984174  8736 net.cpp:148] Top shape: 100 38 (3800)
I0403 12:19:02.984189  8736 net.cpp:156] Memory required for data: 831602000
I0403 12:19:02.984202  8736 layer_factory.hpp:77] Creating layer hdf5out
I0403 12:19:02.984220  8736 net.cpp:91] Creating Layer hdf5out
I0403 12:19:02.984235  8736 net.cpp:425] hdf5out <- prob
I0403 12:19:02.984249  8736 net.cpp:425] hdf5out <- label_data_1_split_0
I0403 12:19:03.255867  8736 net.cpp:141] Setting up hdf5out
…
