…
I0403 12:35:40.498308  9153 net.cpp:313] The NetState phase (1) differed from the phase (0) specified by a rule in layer data
I0403 12:35:40.498625  9153 net.cpp:49] Initializing net from parameters: 
state {
  phase: TEST
}
layer {
  name: "data"
  type: "Data"
  top: "data"
  top: "label"
  include {
    phase: TEST
  }
  transform_param {
    crop_size: 227
    mean_file: "/home/mohanty/data/final_dataset/lmdb/segmented-20-80/mean.binaryproto"
  }
  data_param {
    source: "/home/mohanty/data/final_dataset/lmdb/segmented-20-80/test_db"
    batch_size: 100
    backend: LMDB
  }
}
layer {
  name: "conv1"
  type: "Convolution"
  bottom: "data"
  top: "conv1"
  param {
    lr_mult: 1
    decay_mult: 1
  }
  param {
    lr_mult: 2
    decay_mult: 0
  }
  convolution_param {
    num_output: 96
    kernel_size: 11
    stride: 4
    weight_filler {
      type: "gaussian"
      std: 0.01
    }
    bias_filler {
      type: "constant"
      value: 0
    }
  }
}
layer {
  name: "relu1"
  type: "ReLU"
  bottom: "conv1"
  top: "conv1"
}
layer {
  name: "norm1"
  type: "LRN"
  bottom: "conv1"
  top: "norm1"
  lrn_param {
    local_size: 5
    alpha: 0.0001
    beta: 0.75
  }
}
layer {
  name: "pool1"
  type: "Pooling"
  bottom: "norm1"
  top: "pool1"
  pooling_param {
    pool: MAX
    kernel_size: 3
    stride: 2
  }
}
layer {
  name: "conv2"
  type: "Convolution"
  bottom: "pool1"
  top: "conv2"
  param {
    lr_mult: 1
    decay_mult: 1
  }
  param {
    lr_mult: 2
    decay_mult: 0
  }
  convolution_param {
    num_output: 256
    pad: 2
    kernel_size: 5
    group: 2
    weight_filler {
      type: "gaussian"
      std: 0.01
    }
    bias_filler {
      type: "constant"
      value: 0.1
    }
  }
}
layer {
  name: "relu2"
  type: "ReLU"
  bottom: "conv2"
  top: "conv2"
}
layer {
  name: "norm2"
  type: "LRN"
  bottom: "conv2"
  top: "norm2"
  lrn_param {
    local_size: 5
    alpha: 0.0001
    beta: 0.75
  }
}
layer {
  name: "pool2"
  type: "Pooling"
  bottom: "norm2"
  top: "pool2"
  pooling_param {
    pool: MAX
    kernel_size: 3
    stride: 2
  }
}
layer {
  name: "conv3"
  type: "Convolution"
  bottom: "pool2"
  top: "conv3"
  param {
    lr_mult: 1
    decay_mult: 1
  }
  param {
    lr_mult: 2
    decay_mult: 0
  }
  convolution_param {
    num_output: 384
    pad: 1
    kernel_size: 3
    weight_filler {
      type: "gaussian"
      std: 0.01
    }
    bias_filler {
      type: "constant"
      value: 0
    }
  }
}
layer {
  name: "relu3"
  type: "ReLU"
  bottom: "conv3"
  top: "conv3"
}
layer {
  name: "conv4"
  type: "Convolution"
  bottom: "conv3"
  top: "conv4"
  param {
    lr_mult: 1
    decay_mult: 1
  }
  param {
    lr_mult: 2
    decay_mult: 0
  }
  convolution_param {
    num_output: 384
    pad: 1
    kernel_size: 3
    group: 2
    weight_filler {
      type: "gaussian"
      std: 0.01
    }
    bias_filler {
      type: "constant"
      value: 0.1
    }
  }
}
layer {
  name: "relu4"
  type: "ReLU"
  bottom: "conv4"
  top: "conv4"
}
layer {
  name: "conv5"
  type: "Convolution"
  bottom: "conv4"
  top: "conv5"
  param {
    lr_mult: 1
    decay_mult: 1
  }
  param {
    lr_mult: 2
    decay_mult: 0
  }
  convolution_param {
    num_output: 256
    pad: 1
    kernel_size: 3
    group: 2
    weight_filler {
      type: "gaussian"
      std: 0.01
    }
    bias_filler {
      type: "constant"
      value: 0.1
    }
  }
}
layer {
  name: "relu5"
  type: "ReLU"
  bottom: "conv5"
  top: "conv5"
}
layer {
  name: "pool5"
  type: "Pooling"
  bottom: "conv5"
  top: "pool5"
  pooling_param {
    pool: MAX
    kernel_size: 3
    stride: 2
  }
}
layer {
  name: "fc6"
  type: "InnerProduct"
  bottom: "pool5"
  top: "fc6"
  param {
    lr_mult: 1
    decay_mult: 1
  }
  param {
    lr_mult: 2
    decay_mult: 0
  }
  inner_product_param {
    num_output: 4096
    weight_filler {
      type: "gaussian"
      std: 0.005
    }
    bias_filler {
      type: "constant"
      value: 0.1
    }
  }
}
layer {
  name: "relu6"
  type: "ReLU"
  bottom: "fc6"
  top: "fc6"
}
layer {
  name: "drop6"
  type: "Dropout"
  bottom: "fc6"
  top: "fc6"
  dropout_param {
    dropout_ratio: 0.5
  }
}
layer {
  name: "fc7"
  type: "InnerProduct"
  bottom: "fc6"
  top: "fc7"
  param {
    lr_mult: 1
    decay_mult: 1
  }
  param {
    lr_mult: 2
    decay_mult: 0
  }
  inner_product_param {
    num_output: 4096
    weight_filler {
      type: "gaussian"
      std: 0.005
    }
    bias_filler {
      type: "constant"
      value: 0.1
    }
  }
}
layer {
  name: "relu7"
  type: "ReLU"
  bottom: "fc7"
  top: "fc7"
}
layer {
  name: "drop7"
  type: "Dropout"
  bottom: "fc7"
  top: "fc7"
  dropout_param {
    dropout_ratio: 0.5
  }
}
layer {
  name: "fc8_plantvillage"
  type: "InnerProduct"
  bottom: "fc7"
  top: "fc8_plantvillage"
  param {
    lr_mult: 1
    decay_mult: 1
  }
  param {
    lr_mult: 2
    decay_mult: 0
  }
  inner_product_param {
    num_output: 38
    weight_filler {
      type: "gaussian"
      std: 0.01
    }
    bias_filler {
      type: "constant"
      value: 0
    }
  }
}
layer {
  name: "prob"
  type: "Softmax"
  bottom: "fc8_plantvillage"
  top: "prob"
  include {
    phase: TEST
  }
}
layer {
  name: "hdf5out"
  type: "HDF5Output"
  bottom: "prob"
  bottom: "label"
  include {
    phase: TEST
  }
  hdf5_output_param {
    file_name: "hdf5_dumps/iter_2862.h5"
  }
}
layer {
  name: "loss"
  type: "SoftmaxWithLoss"
  bottom: "fc8_plantvillage"
  bottom: "label"
  top: "loss"
}
layer {
  name: "accuracy"
  type: "Accuracy"
  bottom: "fc8_plantvillage"
  bottom: "label"
  top: "accuracy"
  include {
    phase: TEST
  }
}
I0403 12:35:40.499217  9153 layer_factory.hpp:77] Creating layer data
I0403 12:35:40.499876  9153 net.cpp:91] Creating Layer data
I0403 12:35:40.499909  9153 net.cpp:399] data -> data
I0403 12:35:40.499961  9153 net.cpp:399] data -> label
I0403 12:35:40.500000  9153 data_transformer.cpp:25] Loading mean file from: /home/mohanty/data/final_dataset/lmdb/segmented-20-80/mean.binaryproto
I0403 12:35:40.502897  9155 db_lmdb.cpp:38] Opened lmdb /home/mohanty/data/final_dataset/lmdb/segmented-20-80/test_db
I0403 12:35:40.514494  9153 data_layer.cpp:41] output data size: 100,3,227,227
I0403 12:35:40.635380  9153 net.cpp:141] Setting up data
I0403 12:35:40.635444  9153 net.cpp:148] Top shape: 100 3 227 227 (15458700)
I0403 12:35:40.635468  9153 net.cpp:148] Top shape: 100 (100)
I0403 12:35:40.635483  9153 net.cpp:156] Memory required for data: 61835200
I0403 12:35:40.635511  9153 layer_factory.hpp:77] Creating layer label_data_1_split
I0403 12:35:40.635537  9153 net.cpp:91] Creating Layer label_data_1_split
I0403 12:35:40.635555  9153 net.cpp:425] label_data_1_split <- label
I0403 12:35:40.635589  9153 net.cpp:399] label_data_1_split -> label_data_1_split_0
I0403 12:35:40.635622  9153 net.cpp:399] label_data_1_split -> label_data_1_split_1
I0403 12:35:40.635643  9153 net.cpp:399] label_data_1_split -> label_data_1_split_2
I0403 12:35:40.635709  9153 net.cpp:141] Setting up label_data_1_split
I0403 12:35:40.635732  9153 net.cpp:148] Top shape: 100 (100)
I0403 12:35:40.635749  9153 net.cpp:148] Top shape: 100 (100)
I0403 12:35:40.635766  9153 net.cpp:148] Top shape: 100 (100)
I0403 12:35:40.635779  9153 net.cpp:156] Memory required for data: 61836400
I0403 12:35:40.635794  9153 layer_factory.hpp:77] Creating layer conv1
I0403 12:35:40.635828  9153 net.cpp:91] Creating Layer conv1
I0403 12:35:40.635846  9153 net.cpp:425] conv1 <- data
I0403 12:35:40.635865  9153 net.cpp:399] conv1 -> conv1
I0403 12:35:40.773108  9153 net.cpp:141] Setting up conv1
I0403 12:35:40.773167  9153 net.cpp:148] Top shape: 100 96 55 55 (29040000)
I0403 12:35:40.773185  9153 net.cpp:156] Memory required for data: 177996400
I0403 12:35:40.773216  9153 layer_factory.hpp:77] Creating layer relu1
I0403 12:35:40.773246  9153 net.cpp:91] Creating Layer relu1
I0403 12:35:40.773263  9153 net.cpp:425] relu1 <- conv1
I0403 12:35:40.773283  9153 net.cpp:386] relu1 -> conv1 (in-place)
I0403 12:35:40.773560  9153 net.cpp:141] Setting up relu1
I0403 12:35:40.773588  9153 net.cpp:148] Top shape: 100 96 55 55 (29040000)
I0403 12:35:40.773649  9153 net.cpp:156] Memory required for data: 294156400
I0403 12:35:40.773668  9153 layer_factory.hpp:77] Creating layer norm1
I0403 12:35:40.773696  9153 net.cpp:91] Creating Layer norm1
I0403 12:35:40.773716  9153 net.cpp:425] norm1 <- conv1
I0403 12:35:40.773736  9153 net.cpp:399] norm1 -> norm1
I0403 12:35:40.774052  9153 net.cpp:141] Setting up norm1
I0403 12:35:40.774081  9153 net.cpp:148] Top shape: 100 96 55 55 (29040000)
I0403 12:35:40.774098  9153 net.cpp:156] Memory required for data: 410316400
I0403 12:35:40.774114  9153 layer_factory.hpp:77] Creating layer pool1
I0403 12:35:40.774138  9153 net.cpp:91] Creating Layer pool1
I0403 12:35:40.774157  9153 net.cpp:425] pool1 <- norm1
I0403 12:35:40.774174  9153 net.cpp:399] pool1 -> pool1
I0403 12:35:40.774245  9153 net.cpp:141] Setting up pool1
I0403 12:35:40.774269  9153 net.cpp:148] Top shape: 100 96 27 27 (6998400)
I0403 12:35:40.774286  9153 net.cpp:156] Memory required for data: 438310000
I0403 12:35:40.774302  9153 layer_factory.hpp:77] Creating layer conv2
I0403 12:35:40.774327  9153 net.cpp:91] Creating Layer conv2
I0403 12:35:40.774343  9153 net.cpp:425] conv2 <- pool1
I0403 12:35:40.774361  9153 net.cpp:399] conv2 -> conv2
I0403 12:35:40.789710  9153 net.cpp:141] Setting up conv2
I0403 12:35:40.789762  9153 net.cpp:148] Top shape: 100 256 27 27 (18662400)
I0403 12:35:40.789778  9153 net.cpp:156] Memory required for data: 512959600
I0403 12:35:40.789803  9153 layer_factory.hpp:77] Creating layer relu2
I0403 12:35:40.789827  9153 net.cpp:91] Creating Layer relu2
I0403 12:35:40.789845  9153 net.cpp:425] relu2 <- conv2
I0403 12:35:40.789865  9153 net.cpp:386] relu2 -> conv2 (in-place)
I0403 12:35:40.790155  9153 net.cpp:141] Setting up relu2
I0403 12:35:40.790184  9153 net.cpp:148] Top shape: 100 256 27 27 (18662400)
I0403 12:35:40.790201  9153 net.cpp:156] Memory required for data: 587609200
I0403 12:35:40.790217  9153 layer_factory.hpp:77] Creating layer norm2
I0403 12:35:40.790242  9153 net.cpp:91] Creating Layer norm2
I0403 12:35:40.790259  9153 net.cpp:425] norm2 <- conv2
I0403 12:35:40.790280  9153 net.cpp:399] norm2 -> norm2
I0403 12:35:40.790493  9153 net.cpp:141] Setting up norm2
I0403 12:35:40.790518  9153 net.cpp:148] Top shape: 100 256 27 27 (18662400)
I0403 12:35:40.790535  9153 net.cpp:156] Memory required for data: 662258800
I0403 12:35:40.790551  9153 layer_factory.hpp:77] Creating layer pool2
I0403 12:35:40.790570  9153 net.cpp:91] Creating Layer pool2
I0403 12:35:40.790586  9153 net.cpp:425] pool2 <- norm2
I0403 12:35:40.790611  9153 net.cpp:399] pool2 -> pool2
I0403 12:35:40.790670  9153 net.cpp:141] Setting up pool2
I0403 12:35:40.790695  9153 net.cpp:148] Top shape: 100 256 13 13 (4326400)
I0403 12:35:40.790710  9153 net.cpp:156] Memory required for data: 679564400
I0403 12:35:40.790726  9153 layer_factory.hpp:77] Creating layer conv3
I0403 12:35:40.790751  9153 net.cpp:91] Creating Layer conv3
I0403 12:35:40.790769  9153 net.cpp:425] conv3 <- pool2
I0403 12:35:40.790791  9153 net.cpp:399] conv3 -> conv3
I0403 12:35:40.829530  9153 net.cpp:141] Setting up conv3
I0403 12:35:40.829571  9153 net.cpp:148] Top shape: 100 384 13 13 (6489600)
I0403 12:35:40.829588  9153 net.cpp:156] Memory required for data: 705522800
I0403 12:35:40.829630  9153 layer_factory.hpp:77] Creating layer relu3
I0403 12:35:40.829656  9153 net.cpp:91] Creating Layer relu3
I0403 12:35:40.829674  9153 net.cpp:425] relu3 <- conv3
I0403 12:35:40.829694  9153 net.cpp:386] relu3 -> conv3 (in-place)
I0403 12:35:40.829965  9153 net.cpp:141] Setting up relu3
I0403 12:35:40.829993  9153 net.cpp:148] Top shape: 100 384 13 13 (6489600)
I0403 12:35:40.830008  9153 net.cpp:156] Memory required for data: 731481200
I0403 12:35:40.830021  9153 layer_factory.hpp:77] Creating layer conv4
I0403 12:35:40.830047  9153 net.cpp:91] Creating Layer conv4
I0403 12:35:40.830065  9153 net.cpp:425] conv4 <- conv3
I0403 12:35:40.830085  9153 net.cpp:399] conv4 -> conv4
I0403 12:35:40.859791  9153 net.cpp:141] Setting up conv4
I0403 12:35:40.859863  9153 net.cpp:148] Top shape: 100 384 13 13 (6489600)
I0403 12:35:40.859912  9153 net.cpp:156] Memory required for data: 757439600
I0403 12:35:40.859935  9153 layer_factory.hpp:77] Creating layer relu4
I0403 12:35:40.859972  9153 net.cpp:91] Creating Layer relu4
I0403 12:35:40.859990  9153 net.cpp:425] relu4 <- conv4
I0403 12:35:40.860010  9153 net.cpp:386] relu4 -> conv4 (in-place)
I0403 12:35:40.860293  9153 net.cpp:141] Setting up relu4
I0403 12:35:40.860321  9153 net.cpp:148] Top shape: 100 384 13 13 (6489600)
I0403 12:35:40.860335  9153 net.cpp:156] Memory required for data: 783398000
I0403 12:35:40.860352  9153 layer_factory.hpp:77] Creating layer conv5
I0403 12:35:40.860375  9153 net.cpp:91] Creating Layer conv5
I0403 12:35:40.860393  9153 net.cpp:425] conv5 <- conv4
I0403 12:35:40.860414  9153 net.cpp:399] conv5 -> conv5
I0403 12:35:40.880916  9153 net.cpp:141] Setting up conv5
I0403 12:35:40.880969  9153 net.cpp:148] Top shape: 100 256 13 13 (4326400)
I0403 12:35:40.880985  9153 net.cpp:156] Memory required for data: 800703600
I0403 12:35:40.881011  9153 layer_factory.hpp:77] Creating layer relu5
I0403 12:35:40.881038  9153 net.cpp:91] Creating Layer relu5
I0403 12:35:40.881057  9153 net.cpp:425] relu5 <- conv5
I0403 12:35:40.881074  9153 net.cpp:386] relu5 -> conv5 (in-place)
I0403 12:35:40.881361  9153 net.cpp:141] Setting up relu5
I0403 12:35:40.881388  9153 net.cpp:148] Top shape: 100 256 13 13 (4326400)
I0403 12:35:40.881403  9153 net.cpp:156] Memory required for data: 818009200
I0403 12:35:40.881419  9153 layer_factory.hpp:77] Creating layer pool5
I0403 12:35:40.881443  9153 net.cpp:91] Creating Layer pool5
I0403 12:35:40.881460  9153 net.cpp:425] pool5 <- conv5
I0403 12:35:40.881480  9153 net.cpp:399] pool5 -> pool5
I0403 12:35:40.881544  9153 net.cpp:141] Setting up pool5
I0403 12:35:40.881568  9153 net.cpp:148] Top shape: 100 256 6 6 (921600)
I0403 12:35:40.881584  9153 net.cpp:156] Memory required for data: 821695600
I0403 12:35:40.881603  9153 layer_factory.hpp:77] Creating layer fc6
I0403 12:35:40.881633  9153 net.cpp:91] Creating Layer fc6
I0403 12:35:40.881652  9153 net.cpp:425] fc6 <- pool5
I0403 12:35:40.881670  9153 net.cpp:399] fc6 -> fc6
I0403 12:35:42.444082  9153 net.cpp:141] Setting up fc6
I0403 12:35:42.444121  9153 net.cpp:148] Top shape: 100 4096 (409600)
I0403 12:35:42.444138  9153 net.cpp:156] Memory required for data: 823334000
I0403 12:35:42.444159  9153 layer_factory.hpp:77] Creating layer relu6
I0403 12:35:42.444180  9153 net.cpp:91] Creating Layer relu6
I0403 12:35:42.444196  9153 net.cpp:425] relu6 <- fc6
I0403 12:35:42.444217  9153 net.cpp:386] relu6 -> fc6 (in-place)
I0403 12:35:42.444443  9153 net.cpp:141] Setting up relu6
I0403 12:35:42.444468  9153 net.cpp:148] Top shape: 100 4096 (409600)
I0403 12:35:42.444483  9153 net.cpp:156] Memory required for data: 824972400
I0403 12:35:42.444496  9153 layer_factory.hpp:77] Creating layer drop6
I0403 12:35:42.444514  9153 net.cpp:91] Creating Layer drop6
I0403 12:35:42.444530  9153 net.cpp:425] drop6 <- fc6
I0403 12:35:42.444547  9153 net.cpp:386] drop6 -> fc6 (in-place)
I0403 12:35:42.444608  9153 net.cpp:141] Setting up drop6
I0403 12:35:42.444633  9153 net.cpp:148] Top shape: 100 4096 (409600)
I0403 12:35:42.444648  9153 net.cpp:156] Memory required for data: 826610800
I0403 12:35:42.444663  9153 layer_factory.hpp:77] Creating layer fc7
I0403 12:35:42.444680  9153 net.cpp:91] Creating Layer fc7
I0403 12:35:42.444695  9153 net.cpp:425] fc7 <- fc6
I0403 12:35:42.444715  9153 net.cpp:399] fc7 -> fc7
I0403 12:35:43.147127  9153 net.cpp:141] Setting up fc7
I0403 12:35:43.147202  9153 net.cpp:148] Top shape: 100 4096 (409600)
I0403 12:35:43.147219  9153 net.cpp:156] Memory required for data: 828249200
I0403 12:35:43.147240  9153 layer_factory.hpp:77] Creating layer relu7
I0403 12:35:43.147264  9153 net.cpp:91] Creating Layer relu7
I0403 12:35:43.147282  9153 net.cpp:425] relu7 <- fc7
I0403 12:35:43.147303  9153 net.cpp:386] relu7 -> fc7 (in-place)
I0403 12:35:43.147723  9153 net.cpp:141] Setting up relu7
I0403 12:35:43.147750  9153 net.cpp:148] Top shape: 100 4096 (409600)
I0403 12:35:43.147799  9153 net.cpp:156] Memory required for data: 829887600
I0403 12:35:43.147815  9153 layer_factory.hpp:77] Creating layer drop7
I0403 12:35:43.147837  9153 net.cpp:91] Creating Layer drop7
I0403 12:35:43.147855  9153 net.cpp:425] drop7 <- fc7
I0403 12:35:43.147871  9153 net.cpp:386] drop7 -> fc7 (in-place)
I0403 12:35:43.147915  9153 net.cpp:141] Setting up drop7
I0403 12:35:43.147940  9153 net.cpp:148] Top shape: 100 4096 (409600)
I0403 12:35:43.147956  9153 net.cpp:156] Memory required for data: 831526000
I0403 12:35:43.147971  9153 layer_factory.hpp:77] Creating layer fc8_plantvillage
I0403 12:35:43.147990  9153 net.cpp:91] Creating Layer fc8_plantvillage
I0403 12:35:43.148005  9153 net.cpp:425] fc8_plantvillage <- fc7
I0403 12:35:43.148025  9153 net.cpp:399] fc8_plantvillage -> fc8_plantvillage
I0403 12:35:43.154817  9153 net.cpp:141] Setting up fc8_plantvillage
I0403 12:35:43.154846  9153 net.cpp:148] Top shape: 100 38 (3800)
I0403 12:35:43.154861  9153 net.cpp:156] Memory required for data: 831541200
I0403 12:35:43.154881  9153 layer_factory.hpp:77] Creating layer fc8_plantvillage_fc8_plantvillage_0_split
I0403 12:35:43.154901  9153 net.cpp:91] Creating Layer fc8_plantvillage_fc8_plantvillage_0_split
I0403 12:35:43.154917  9153 net.cpp:425] fc8_plantvillage_fc8_plantvillage_0_split <- fc8_plantvillage
I0403 12:35:43.154934  9153 net.cpp:399] fc8_plantvillage_fc8_plantvillage_0_split -> fc8_plantvillage_fc8_plantvillage_0_split_0
I0403 12:35:43.154955  9153 net.cpp:399] fc8_plantvillage_fc8_plantvillage_0_split -> fc8_plantvillage_fc8_plantvillage_0_split_1
I0403 12:35:43.154975  9153 net.cpp:399] fc8_plantvillage_fc8_plantvillage_0_split -> fc8_plantvillage_fc8_plantvillage_0_split_2
I0403 12:35:43.155055  9153 net.cpp:141] Setting up fc8_plantvillage_fc8_plantvillage_0_split
I0403 12:35:43.155077  9153 net.cpp:148] Top shape: 100 38 (3800)
I0403 12:35:43.155093  9153 net.cpp:148] Top shape: 100 38 (3800)
I0403 12:35:43.155108  9153 net.cpp:148] Top shape: 100 38 (3800)
I0403 12:35:43.155122  9153 net.cpp:156] Memory required for data: 831586800
I0403 12:35:43.155138  9153 layer_factory.hpp:77] Creating layer prob
I0403 12:35:43.155155  9153 net.cpp:91] Creating Layer prob
I0403 12:35:43.155170  9153 net.cpp:425] prob <- fc8_plantvillage_fc8_plantvillage_0_split_0
I0403 12:35:43.155190  9153 net.cpp:399] prob -> prob
I0403 12:35:43.155417  9153 net.cpp:141] Setting up prob
I0403 12:35:43.155442  9153 net.cpp:148] Top shape: 100 38 (3800)
I0403 12:35:43.155457  9153 net.cpp:156] Memory required for data: 831602000
I0403 12:35:43.155472  9153 layer_factory.hpp:77] Creating layer hdf5out
I0403 12:35:43.155493  9153 net.cpp:91] Creating Layer hdf5out
I0403 12:35:43.155510  9153 net.cpp:425] hdf5out <- prob
I0403 12:35:43.155525  9153 net.cpp:425] hdf5out <- label_data_1_split_0
I0403 12:35:43.437021  9153 net.cpp:141] Setting up hdf5out
…
