…
I0403 12:34:23.490063  9100 net.cpp:313] The NetState phase (1) differed from the phase (0) specified by a rule in layer data
I0403 12:34:23.490368  9100 net.cpp:49] Initializing net from parameters: 
state {
  phase: TEST
}
layer {
  name: "data"
  type: "Data"
  top: "data"
  top: "label"
  include {
    phase: TEST
  }
  transform_param {
    crop_size: 227
    mean_file: "/home/mohanty/data/final_dataset/lmdb/segmented-20-80/mean.binaryproto"
  }
  data_param {
    source: "/home/mohanty/data/final_dataset/lmdb/segmented-20-80/test_db"
    batch_size: 100
    backend: LMDB
  }
}
layer {
  name: "conv1"
  type: "Convolution"
  bottom: "data"
  top: "conv1"
  param {
    lr_mult: 1
    decay_mult: 1
  }
  param {
    lr_mult: 2
    decay_mult: 0
  }
  convolution_param {
    num_output: 96
    kernel_size: 11
    stride: 4
    weight_filler {
      type: "gaussian"
      std: 0.01
    }
    bias_filler {
      type: "constant"
      value: 0
    }
  }
}
layer {
  name: "relu1"
  type: "ReLU"
  bottom: "conv1"
  top: "conv1"
}
layer {
  name: "norm1"
  type: "LRN"
  bottom: "conv1"
  top: "norm1"
  lrn_param {
    local_size: 5
    alpha: 0.0001
    beta: 0.75
  }
}
layer {
  name: "pool1"
  type: "Pooling"
  bottom: "norm1"
  top: "pool1"
  pooling_param {
    pool: MAX
    kernel_size: 3
    stride: 2
  }
}
layer {
  name: "conv2"
  type: "Convolution"
  bottom: "pool1"
  top: "conv2"
  param {
    lr_mult: 1
    decay_mult: 1
  }
  param {
    lr_mult: 2
    decay_mult: 0
  }
  convolution_param {
    num_output: 256
    pad: 2
    kernel_size: 5
    group: 2
    weight_filler {
      type: "gaussian"
      std: 0.01
    }
    bias_filler {
      type: "constant"
      value: 0.1
    }
  }
}
layer {
  name: "relu2"
  type: "ReLU"
  bottom: "conv2"
  top: "conv2"
}
layer {
  name: "norm2"
  type: "LRN"
  bottom: "conv2"
  top: "norm2"
  lrn_param {
    local_size: 5
    alpha: 0.0001
    beta: 0.75
  }
}
layer {
  name: "pool2"
  type: "Pooling"
  bottom: "norm2"
  top: "pool2"
  pooling_param {
    pool: MAX
    kernel_size: 3
    stride: 2
  }
}
layer {
  name: "conv3"
  type: "Convolution"
  bottom: "pool2"
  top: "conv3"
  param {
    lr_mult: 1
    decay_mult: 1
  }
  param {
    lr_mult: 2
    decay_mult: 0
  }
  convolution_param {
    num_output: 384
    pad: 1
    kernel_size: 3
    weight_filler {
      type: "gaussian"
      std: 0.01
    }
    bias_filler {
      type: "constant"
      value: 0
    }
  }
}
layer {
  name: "relu3"
  type: "ReLU"
  bottom: "conv3"
  top: "conv3"
}
layer {
  name: "conv4"
  type: "Convolution"
  bottom: "conv3"
  top: "conv4"
  param {
    lr_mult: 1
    decay_mult: 1
  }
  param {
    lr_mult: 2
    decay_mult: 0
  }
  convolution_param {
    num_output: 384
    pad: 1
    kernel_size: 3
    group: 2
    weight_filler {
      type: "gaussian"
      std: 0.01
    }
    bias_filler {
      type: "constant"
      value: 0.1
    }
  }
}
layer {
  name: "relu4"
  type: "ReLU"
  bottom: "conv4"
  top: "conv4"
}
layer {
  name: "conv5"
  type: "Convolution"
  bottom: "conv4"
  top: "conv5"
  param {
    lr_mult: 1
    decay_mult: 1
  }
  param {
    lr_mult: 2
    decay_mult: 0
  }
  convolution_param {
    num_output: 256
    pad: 1
    kernel_size: 3
    group: 2
    weight_filler {
      type: "gaussian"
      std: 0.01
    }
    bias_filler {
      type: "constant"
      value: 0.1
    }
  }
}
layer {
  name: "relu5"
  type: "ReLU"
  bottom: "conv5"
  top: "conv5"
}
layer {
  name: "pool5"
  type: "Pooling"
  bottom: "conv5"
  top: "pool5"
  pooling_param {
    pool: MAX
    kernel_size: 3
    stride: 2
  }
}
layer {
  name: "fc6"
  type: "InnerProduct"
  bottom: "pool5"
  top: "fc6"
  param {
    lr_mult: 1
    decay_mult: 1
  }
  param {
    lr_mult: 2
    decay_mult: 0
  }
  inner_product_param {
    num_output: 4096
    weight_filler {
      type: "gaussian"
      std: 0.005
    }
    bias_filler {
      type: "constant"
      value: 0.1
    }
  }
}
layer {
  name: "relu6"
  type: "ReLU"
  bottom: "fc6"
  top: "fc6"
}
layer {
  name: "drop6"
  type: "Dropout"
  bottom: "fc6"
  top: "fc6"
  dropout_param {
    dropout_ratio: 0.5
  }
}
layer {
  name: "fc7"
  type: "InnerProduct"
  bottom: "fc6"
  top: "fc7"
  param {
    lr_mult: 1
    decay_mult: 1
  }
  param {
    lr_mult: 2
    decay_mult: 0
  }
  inner_product_param {
    num_output: 4096
    weight_filler {
      type: "gaussian"
      std: 0.005
    }
    bias_filler {
      type: "constant"
      value: 0.1
    }
  }
}
layer {
  name: "relu7"
  type: "ReLU"
  bottom: "fc7"
  top: "fc7"
}
layer {
  name: "drop7"
  type: "Dropout"
  bottom: "fc7"
  top: "fc7"
  dropout_param {
    dropout_ratio: 0.5
  }
}
layer {
  name: "fc8_plantvillage"
  type: "InnerProduct"
  bottom: "fc7"
  top: "fc8_plantvillage"
  param {
    lr_mult: 1
    decay_mult: 1
  }
  param {
    lr_mult: 2
    decay_mult: 0
  }
  inner_product_param {
    num_output: 38
    weight_filler {
      type: "gaussian"
      std: 0.01
    }
    bias_filler {
      type: "constant"
      value: 0
    }
  }
}
layer {
  name: "prob"
  type: "Softmax"
  bottom: "fc8_plantvillage"
  top: "prob"
  include {
    phase: TEST
  }
}
layer {
  name: "hdf5out"
  type: "HDF5Output"
  bottom: "prob"
  bottom: "label"
  include {
    phase: TEST
  }
  hdf5_output_param {
    file_name: "hdf5_dumps/iter_2756.h5"
  }
}
layer {
  name: "loss"
  type: "SoftmaxWithLoss"
  bottom: "fc8_plantvillage"
  bottom: "label"
  top: "loss"
}
layer {
  name: "accuracy"
  type: "Accuracy"
  bottom: "fc8_plantvillage"
  bottom: "label"
  top: "accuracy"
  include {
    phase: TEST
  }
}
I0403 12:34:23.490947  9100 layer_factory.hpp:77] Creating layer data
I0403 12:34:23.491590  9100 net.cpp:91] Creating Layer data
I0403 12:34:23.491619  9100 net.cpp:399] data -> data
I0403 12:34:23.491669  9100 net.cpp:399] data -> label
I0403 12:34:23.491708  9100 data_transformer.cpp:25] Loading mean file from: /home/mohanty/data/final_dataset/lmdb/segmented-20-80/mean.binaryproto
I0403 12:34:23.494890  9120 db_lmdb.cpp:38] Opened lmdb /home/mohanty/data/final_dataset/lmdb/segmented-20-80/test_db
I0403 12:34:23.506062  9100 data_layer.cpp:41] output data size: 100,3,227,227
I0403 12:34:23.626835  9100 net.cpp:141] Setting up data
I0403 12:34:23.626934  9100 net.cpp:148] Top shape: 100 3 227 227 (15458700)
I0403 12:34:23.626956  9100 net.cpp:148] Top shape: 100 (100)
I0403 12:34:23.626971  9100 net.cpp:156] Memory required for data: 61835200
I0403 12:34:23.626997  9100 layer_factory.hpp:77] Creating layer label_data_1_split
I0403 12:34:23.627022  9100 net.cpp:91] Creating Layer label_data_1_split
I0403 12:34:23.627039  9100 net.cpp:425] label_data_1_split <- label
I0403 12:34:23.627071  9100 net.cpp:399] label_data_1_split -> label_data_1_split_0
I0403 12:34:23.627097  9100 net.cpp:399] label_data_1_split -> label_data_1_split_1
I0403 12:34:23.627117  9100 net.cpp:399] label_data_1_split -> label_data_1_split_2
I0403 12:34:23.627180  9100 net.cpp:141] Setting up label_data_1_split
I0403 12:34:23.627202  9100 net.cpp:148] Top shape: 100 (100)
I0403 12:34:23.627218  9100 net.cpp:148] Top shape: 100 (100)
I0403 12:34:23.627233  9100 net.cpp:148] Top shape: 100 (100)
I0403 12:34:23.627246  9100 net.cpp:156] Memory required for data: 61836400
I0403 12:34:23.627261  9100 layer_factory.hpp:77] Creating layer conv1
I0403 12:34:23.627292  9100 net.cpp:91] Creating Layer conv1
I0403 12:34:23.627310  9100 net.cpp:425] conv1 <- data
I0403 12:34:23.627328  9100 net.cpp:399] conv1 -> conv1
I0403 12:34:23.764667  9100 net.cpp:141] Setting up conv1
I0403 12:34:23.764745  9100 net.cpp:148] Top shape: 100 96 55 55 (29040000)
I0403 12:34:23.764762  9100 net.cpp:156] Memory required for data: 177996400
I0403 12:34:23.764792  9100 layer_factory.hpp:77] Creating layer relu1
I0403 12:34:23.764819  9100 net.cpp:91] Creating Layer relu1
I0403 12:34:23.764837  9100 net.cpp:425] relu1 <- conv1
I0403 12:34:23.764855  9100 net.cpp:386] relu1 -> conv1 (in-place)
I0403 12:34:23.765106  9100 net.cpp:141] Setting up relu1
I0403 12:34:23.765133  9100 net.cpp:148] Top shape: 100 96 55 55 (29040000)
I0403 12:34:23.765184  9100 net.cpp:156] Memory required for data: 294156400
I0403 12:34:23.765200  9100 layer_factory.hpp:77] Creating layer norm1
I0403 12:34:23.765226  9100 net.cpp:91] Creating Layer norm1
I0403 12:34:23.765244  9100 net.cpp:425] norm1 <- conv1
I0403 12:34:23.765270  9100 net.cpp:399] norm1 -> norm1
I0403 12:34:23.765580  9100 net.cpp:141] Setting up norm1
I0403 12:34:23.765607  9100 net.cpp:148] Top shape: 100 96 55 55 (29040000)
I0403 12:34:23.765624  9100 net.cpp:156] Memory required for data: 410316400
I0403 12:34:23.765638  9100 layer_factory.hpp:77] Creating layer pool1
I0403 12:34:23.765661  9100 net.cpp:91] Creating Layer pool1
I0403 12:34:23.765677  9100 net.cpp:425] pool1 <- norm1
I0403 12:34:23.765694  9100 net.cpp:399] pool1 -> pool1
I0403 12:34:23.765759  9100 net.cpp:141] Setting up pool1
I0403 12:34:23.765784  9100 net.cpp:148] Top shape: 100 96 27 27 (6998400)
I0403 12:34:23.765797  9100 net.cpp:156] Memory required for data: 438310000
I0403 12:34:23.765811  9100 layer_factory.hpp:77] Creating layer conv2
I0403 12:34:23.765836  9100 net.cpp:91] Creating Layer conv2
I0403 12:34:23.765851  9100 net.cpp:425] conv2 <- pool1
I0403 12:34:23.765868  9100 net.cpp:399] conv2 -> conv2
I0403 12:34:23.780632  9100 net.cpp:141] Setting up conv2
I0403 12:34:23.780683  9100 net.cpp:148] Top shape: 100 256 27 27 (18662400)
I0403 12:34:23.780699  9100 net.cpp:156] Memory required for data: 512959600
I0403 12:34:23.780720  9100 layer_factory.hpp:77] Creating layer relu2
I0403 12:34:23.780740  9100 net.cpp:91] Creating Layer relu2
I0403 12:34:23.780755  9100 net.cpp:425] relu2 <- conv2
I0403 12:34:23.780772  9100 net.cpp:386] relu2 -> conv2 (in-place)
I0403 12:34:23.781035  9100 net.cpp:141] Setting up relu2
I0403 12:34:23.781062  9100 net.cpp:148] Top shape: 100 256 27 27 (18662400)
I0403 12:34:23.781077  9100 net.cpp:156] Memory required for data: 587609200
I0403 12:34:23.781091  9100 layer_factory.hpp:77] Creating layer norm2
I0403 12:34:23.781111  9100 net.cpp:91] Creating Layer norm2
I0403 12:34:23.781127  9100 net.cpp:425] norm2 <- conv2
I0403 12:34:23.781146  9100 net.cpp:399] norm2 -> norm2
I0403 12:34:23.781337  9100 net.cpp:141] Setting up norm2
I0403 12:34:23.781363  9100 net.cpp:148] Top shape: 100 256 27 27 (18662400)
I0403 12:34:23.781376  9100 net.cpp:156] Memory required for data: 662258800
I0403 12:34:23.781390  9100 layer_factory.hpp:77] Creating layer pool2
I0403 12:34:23.781407  9100 net.cpp:91] Creating Layer pool2
I0403 12:34:23.781424  9100 net.cpp:425] pool2 <- norm2
I0403 12:34:23.781440  9100 net.cpp:399] pool2 -> pool2
I0403 12:34:23.781489  9100 net.cpp:141] Setting up pool2
I0403 12:34:23.781512  9100 net.cpp:148] Top shape: 100 256 13 13 (4326400)
I0403 12:34:23.781527  9100 net.cpp:156] Memory required for data: 679564400
I0403 12:34:23.781539  9100 layer_factory.hpp:77] Creating layer conv3
I0403 12:34:23.781561  9100 net.cpp:91] Creating Layer conv3
I0403 12:34:23.781581  9100 net.cpp:425] conv3 <- pool2
I0403 12:34:23.781600  9100 net.cpp:399] conv3 -> conv3
I0403 12:34:23.819383  9100 net.cpp:141] Setting up conv3
I0403 12:34:23.819455  9100 net.cpp:148] Top shape: 100 384 13 13 (6489600)
I0403 12:34:23.819473  9100 net.cpp:156] Memory required for data: 705522800
I0403 12:34:23.819497  9100 layer_factory.hpp:77] Creating layer relu3
I0403 12:34:23.819519  9100 net.cpp:91] Creating Layer relu3
I0403 12:34:23.819536  9100 net.cpp:425] relu3 <- conv3
I0403 12:34:23.819555  9100 net.cpp:386] relu3 -> conv3 (in-place)
I0403 12:34:23.819831  9100 net.cpp:141] Setting up relu3
I0403 12:34:23.819859  9100 net.cpp:148] Top shape: 100 384 13 13 (6489600)
I0403 12:34:23.819875  9100 net.cpp:156] Memory required for data: 731481200
I0403 12:34:23.819890  9100 layer_factory.hpp:77] Creating layer conv4
I0403 12:34:23.819913  9100 net.cpp:91] Creating Layer conv4
I0403 12:34:23.819929  9100 net.cpp:425] conv4 <- conv3
I0403 12:34:23.819947  9100 net.cpp:399] conv4 -> conv4
I0403 12:34:23.849779  9100 net.cpp:141] Setting up conv4
I0403 12:34:23.849848  9100 net.cpp:148] Top shape: 100 384 13 13 (6489600)
I0403 12:34:23.849900  9100 net.cpp:156] Memory required for data: 757439600
I0403 12:34:23.849921  9100 layer_factory.hpp:77] Creating layer relu4
I0403 12:34:23.849946  9100 net.cpp:91] Creating Layer relu4
I0403 12:34:23.849966  9100 net.cpp:425] relu4 <- conv4
I0403 12:34:23.849984  9100 net.cpp:386] relu4 -> conv4 (in-place)
I0403 12:34:23.850270  9100 net.cpp:141] Setting up relu4
I0403 12:34:23.850297  9100 net.cpp:148] Top shape: 100 384 13 13 (6489600)
I0403 12:34:23.850312  9100 net.cpp:156] Memory required for data: 783398000
I0403 12:34:23.850327  9100 layer_factory.hpp:77] Creating layer conv5
I0403 12:34:23.850354  9100 net.cpp:91] Creating Layer conv5
I0403 12:34:23.850373  9100 net.cpp:425] conv5 <- conv4
I0403 12:34:23.850390  9100 net.cpp:399] conv5 -> conv5
I0403 12:34:23.870936  9100 net.cpp:141] Setting up conv5
I0403 12:34:23.870995  9100 net.cpp:148] Top shape: 100 256 13 13 (4326400)
I0403 12:34:23.871011  9100 net.cpp:156] Memory required for data: 800703600
I0403 12:34:23.871036  9100 layer_factory.hpp:77] Creating layer relu5
I0403 12:34:23.871057  9100 net.cpp:91] Creating Layer relu5
I0403 12:34:23.871073  9100 net.cpp:425] relu5 <- conv5
I0403 12:34:23.871089  9100 net.cpp:386] relu5 -> conv5 (in-place)
I0403 12:34:23.871368  9100 net.cpp:141] Setting up relu5
I0403 12:34:23.871397  9100 net.cpp:148] Top shape: 100 256 13 13 (4326400)
I0403 12:34:23.871412  9100 net.cpp:156] Memory required for data: 818009200
I0403 12:34:23.871428  9100 layer_factory.hpp:77] Creating layer pool5
I0403 12:34:23.871450  9100 net.cpp:91] Creating Layer pool5
I0403 12:34:23.871467  9100 net.cpp:425] pool5 <- conv5
I0403 12:34:23.871489  9100 net.cpp:399] pool5 -> pool5
I0403 12:34:23.871551  9100 net.cpp:141] Setting up pool5
I0403 12:34:23.871578  9100 net.cpp:148] Top shape: 100 256 6 6 (921600)
I0403 12:34:23.871595  9100 net.cpp:156] Memory required for data: 821695600
I0403 12:34:23.871609  9100 layer_factory.hpp:77] Creating layer fc6
I0403 12:34:23.871637  9100 net.cpp:91] Creating Layer fc6
I0403 12:34:23.871656  9100 net.cpp:425] fc6 <- pool5
I0403 12:34:23.871675  9100 net.cpp:399] fc6 -> fc6
I0403 12:34:25.439934  9100 net.cpp:141] Setting up fc6
I0403 12:34:25.440003  9100 net.cpp:148] Top shape: 100 4096 (409600)
I0403 12:34:25.440021  9100 net.cpp:156] Memory required for data: 823334000
I0403 12:34:25.440042  9100 layer_factory.hpp:77] Creating layer relu6
I0403 12:34:25.440068  9100 net.cpp:91] Creating Layer relu6
I0403 12:34:25.440088  9100 net.cpp:425] relu6 <- fc6
I0403 12:34:25.440106  9100 net.cpp:386] relu6 -> fc6 (in-place)
I0403 12:34:25.440341  9100 net.cpp:141] Setting up relu6
I0403 12:34:25.440369  9100 net.cpp:148] Top shape: 100 4096 (409600)
I0403 12:34:25.440385  9100 net.cpp:156] Memory required for data: 824972400
I0403 12:34:25.440400  9100 layer_factory.hpp:77] Creating layer drop6
I0403 12:34:25.440418  9100 net.cpp:91] Creating Layer drop6
I0403 12:34:25.440433  9100 net.cpp:425] drop6 <- fc6
I0403 12:34:25.440450  9100 net.cpp:386] drop6 -> fc6 (in-place)
I0403 12:34:25.440503  9100 net.cpp:141] Setting up drop6
I0403 12:34:25.440527  9100 net.cpp:148] Top shape: 100 4096 (409600)
I0403 12:34:25.440541  9100 net.cpp:156] Memory required for data: 826610800
I0403 12:34:25.440557  9100 layer_factory.hpp:77] Creating layer fc7
I0403 12:34:25.440582  9100 net.cpp:91] Creating Layer fc7
I0403 12:34:25.440600  9100 net.cpp:425] fc7 <- fc6
I0403 12:34:25.440618  9100 net.cpp:399] fc7 -> fc7
I0403 12:34:26.130431  9100 net.cpp:141] Setting up fc7
I0403 12:34:26.130482  9100 net.cpp:148] Top shape: 100 4096 (409600)
I0403 12:34:26.130498  9100 net.cpp:156] Memory required for data: 828249200
I0403 12:34:26.130518  9100 layer_factory.hpp:77] Creating layer relu7
I0403 12:34:26.130542  9100 net.cpp:91] Creating Layer relu7
I0403 12:34:26.130560  9100 net.cpp:425] relu7 <- fc7
I0403 12:34:26.130584  9100 net.cpp:386] relu7 -> fc7 (in-place)
I0403 12:34:26.130987  9100 net.cpp:141] Setting up relu7
I0403 12:34:26.131017  9100 net.cpp:148] Top shape: 100 4096 (409600)
I0403 12:34:26.131072  9100 net.cpp:156] Memory required for data: 829887600
I0403 12:34:26.131088  9100 layer_factory.hpp:77] Creating layer drop7
I0403 12:34:26.131105  9100 net.cpp:91] Creating Layer drop7
I0403 12:34:26.131120  9100 net.cpp:425] drop7 <- fc7
I0403 12:34:26.131136  9100 net.cpp:386] drop7 -> fc7 (in-place)
I0403 12:34:26.131182  9100 net.cpp:141] Setting up drop7
I0403 12:34:26.131203  9100 net.cpp:148] Top shape: 100 4096 (409600)
I0403 12:34:26.131217  9100 net.cpp:156] Memory required for data: 831526000
I0403 12:34:26.131232  9100 layer_factory.hpp:77] Creating layer fc8_plantvillage
I0403 12:34:26.131253  9100 net.cpp:91] Creating Layer fc8_plantvillage
I0403 12:34:26.131268  9100 net.cpp:425] fc8_plantvillage <- fc7
I0403 12:34:26.131286  9100 net.cpp:399] fc8_plantvillage -> fc8_plantvillage
I0403 12:34:26.138137  9100 net.cpp:141] Setting up fc8_plantvillage
I0403 12:34:26.138165  9100 net.cpp:148] Top shape: 100 38 (3800)
I0403 12:34:26.138180  9100 net.cpp:156] Memory required for data: 831541200
I0403 12:34:26.138196  9100 layer_factory.hpp:77] Creating layer fc8_plantvillage_fc8_plantvillage_0_split
I0403 12:34:26.138214  9100 net.cpp:91] Creating Layer fc8_plantvillage_fc8_plantvillage_0_split
I0403 12:34:26.138229  9100 net.cpp:425] fc8_plantvillage_fc8_plantvillage_0_split <- fc8_plantvillage
I0403 12:34:26.138244  9100 net.cpp:399] fc8_plantvillage_fc8_plantvillage_0_split -> fc8_plantvillage_fc8_plantvillage_0_split_0
I0403 12:34:26.138265  9100 net.cpp:399] fc8_plantvillage_fc8_plantvillage_0_split -> fc8_plantvillage_fc8_plantvillage_0_split_1
I0403 12:34:26.138285  9100 net.cpp:399] fc8_plantvillage_fc8_plantvillage_0_split -> fc8_plantvillage_fc8_plantvillage_0_split_2
I0403 12:34:26.138362  9100 net.cpp:141] Setting up fc8_plantvillage_fc8_plantvillage_0_split
I0403 12:34:26.138384  9100 net.cpp:148] Top shape: 100 38 (3800)
I0403 12:34:26.138399  9100 net.cpp:148] Top shape: 100 38 (3800)
I0403 12:34:26.138413  9100 net.cpp:148] Top shape: 100 38 (3800)
I0403 12:34:26.138427  9100 net.cpp:156] Memory required for data: 831586800
I0403 12:34:26.138440  9100 layer_factory.hpp:77] Creating layer prob
I0403 12:34:26.138458  9100 net.cpp:91] Creating Layer prob
I0403 12:34:26.138471  9100 net.cpp:425] prob <- fc8_plantvillage_fc8_plantvillage_0_split_0
I0403 12:34:26.138489  9100 net.cpp:399] prob -> prob
I0403 12:34:26.138711  9100 net.cpp:141] Setting up prob
I0403 12:34:26.138736  9100 net.cpp:148] Top shape: 100 38 (3800)
I0403 12:34:26.138748  9100 net.cpp:156] Memory required for data: 831602000
I0403 12:34:26.138762  9100 layer_factory.hpp:77] Creating layer hdf5out
I0403 12:34:26.138784  9100 net.cpp:91] Creating Layer hdf5out
I0403 12:34:26.138800  9100 net.cpp:425] hdf5out <- prob
I0403 12:34:26.138815  9100 net.cpp:425] hdf5out <- label_data_1_split_0
I0403 12:34:26.141460  9100 net.cpp:141] Setting up hdf5out
…
