…
I0403 12:09:59.146174  8527 net.cpp:313] The NetState phase (1) differed from the phase (0) specified by a rule in layer data
I0403 12:09:59.146483  8527 net.cpp:49] Initializing net from parameters: 
state {
  phase: TEST
}
layer {
  name: "data"
  type: "Data"
  top: "data"
  top: "label"
  include {
    phase: TEST
  }
  transform_param {
    crop_size: 227
    mean_file: "/home/mohanty/data/final_dataset/lmdb/segmented-20-80/mean.binaryproto"
  }
  data_param {
    source: "/home/mohanty/data/final_dataset/lmdb/segmented-20-80/test_db"
    batch_size: 100
    backend: LMDB
  }
}
layer {
  name: "conv1"
  type: "Convolution"
  bottom: "data"
  top: "conv1"
  param {
    lr_mult: 1
    decay_mult: 1
  }
  param {
    lr_mult: 2
    decay_mult: 0
  }
  convolution_param {
    num_output: 96
    kernel_size: 11
    stride: 4
    weight_filler {
      type: "gaussian"
      std: 0.01
    }
    bias_filler {
      type: "constant"
      value: 0
    }
  }
}
layer {
  name: "relu1"
  type: "ReLU"
  bottom: "conv1"
  top: "conv1"
}
layer {
  name: "norm1"
  type: "LRN"
  bottom: "conv1"
  top: "norm1"
  lrn_param {
    local_size: 5
    alpha: 0.0001
    beta: 0.75
  }
}
layer {
  name: "pool1"
  type: "Pooling"
  bottom: "norm1"
  top: "pool1"
  pooling_param {
    pool: MAX
    kernel_size: 3
    stride: 2
  }
}
layer {
  name: "conv2"
  type: "Convolution"
  bottom: "pool1"
  top: "conv2"
  param {
    lr_mult: 1
    decay_mult: 1
  }
  param {
    lr_mult: 2
    decay_mult: 0
  }
  convolution_param {
    num_output: 256
    pad: 2
    kernel_size: 5
    group: 2
    weight_filler {
      type: "gaussian"
      std: 0.01
    }
    bias_filler {
      type: "constant"
      value: 0.1
    }
  }
}
layer {
  name: "relu2"
  type: "ReLU"
  bottom: "conv2"
  top: "conv2"
}
layer {
  name: "norm2"
  type: "LRN"
  bottom: "conv2"
  top: "norm2"
  lrn_param {
    local_size: 5
    alpha: 0.0001
    beta: 0.75
  }
}
layer {
  name: "pool2"
  type: "Pooling"
  bottom: "norm2"
  top: "pool2"
  pooling_param {
    pool: MAX
    kernel_size: 3
    stride: 2
  }
}
layer {
  name: "conv3"
  type: "Convolution"
  bottom: "pool2"
  top: "conv3"
  param {
    lr_mult: 1
    decay_mult: 1
  }
  param {
    lr_mult: 2
    decay_mult: 0
  }
  convolution_param {
    num_output: 384
    pad: 1
    kernel_size: 3
    weight_filler {
      type: "gaussian"
      std: 0.01
    }
    bias_filler {
      type: "constant"
      value: 0
    }
  }
}
layer {
  name: "relu3"
  type: "ReLU"
  bottom: "conv3"
  top: "conv3"
}
layer {
  name: "conv4"
  type: "Convolution"
  bottom: "conv3"
  top: "conv4"
  param {
    lr_mult: 1
    decay_mult: 1
  }
  param {
    lr_mult: 2
    decay_mult: 0
  }
  convolution_param {
    num_output: 384
    pad: 1
    kernel_size: 3
    group: 2
    weight_filler {
      type: "gaussian"
      std: 0.01
    }
    bias_filler {
      type: "constant"
      value: 0.1
    }
  }
}
layer {
  name: "relu4"
  type: "ReLU"
  bottom: "conv4"
  top: "conv4"
}
layer {
  name: "conv5"
  type: "Convolution"
  bottom: "conv4"
  top: "conv5"
  param {
    lr_mult: 1
    decay_mult: 1
  }
  param {
    lr_mult: 2
    decay_mult: 0
  }
  convolution_param {
    num_output: 256
    pad: 1
    kernel_size: 3
    group: 2
    weight_filler {
      type: "gaussian"
      std: 0.01
    }
    bias_filler {
      type: "constant"
      value: 0.1
    }
  }
}
layer {
  name: "relu5"
  type: "ReLU"
  bottom: "conv5"
  top: "conv5"
}
layer {
  name: "pool5"
  type: "Pooling"
  bottom: "conv5"
  top: "pool5"
  pooling_param {
    pool: MAX
    kernel_size: 3
    stride: 2
  }
}
layer {
  name: "fc6"
  type: "InnerProduct"
  bottom: "pool5"
  top: "fc6"
  param {
    lr_mult: 1
    decay_mult: 1
  }
  param {
    lr_mult: 2
    decay_mult: 0
  }
  inner_product_param {
    num_output: 4096
    weight_filler {
      type: "gaussian"
      std: 0.005
    }
    bias_filler {
      type: "constant"
      value: 0.1
    }
  }
}
layer {
  name: "relu6"
  type: "ReLU"
  bottom: "fc6"
  top: "fc6"
}
layer {
  name: "drop6"
  type: "Dropout"
  bottom: "fc6"
  top: "fc6"
  dropout_param {
    dropout_ratio: 0.5
  }
}
layer {
  name: "fc7"
  type: "InnerProduct"
  bottom: "fc6"
  top: "fc7"
  param {
    lr_mult: 1
    decay_mult: 1
  }
  param {
    lr_mult: 2
    decay_mult: 0
  }
  inner_product_param {
    num_output: 4096
    weight_filler {
      type: "gaussian"
      std: 0.005
    }
    bias_filler {
      type: "constant"
      value: 0.1
    }
  }
}
layer {
  name: "relu7"
  type: "ReLU"
  bottom: "fc7"
  top: "fc7"
}
layer {
  name: "drop7"
  type: "Dropout"
  bottom: "fc7"
  top: "fc7"
  dropout_param {
    dropout_ratio: 0.5
  }
}
layer {
  name: "fc8_plantvillage"
  type: "InnerProduct"
  bottom: "fc7"
  top: "fc8_plantvillage"
  param {
    lr_mult: 1
    decay_mult: 1
  }
  param {
    lr_mult: 2
    decay_mult: 0
  }
  inner_product_param {
    num_output: 38
    weight_filler {
      type: "gaussian"
      std: 0.01
    }
    bias_filler {
      type: "constant"
      value: 0
    }
  }
}
layer {
  name: "prob"
  type: "Softmax"
  bottom: "fc8_plantvillage"
  top: "prob"
  include {
    phase: TEST
  }
}
layer {
  name: "hdf5out"
  type: "HDF5Output"
  bottom: "prob"
  bottom: "label"
  include {
    phase: TEST
  }
  hdf5_output_param {
    file_name: "hdf5_dumps/iter_742.h5"
  }
}
layer {
  name: "loss"
  type: "SoftmaxWithLoss"
  bottom: "fc8_plantvillage"
  bottom: "label"
  top: "loss"
}
layer {
  name: "accuracy"
  type: "Accuracy"
  bottom: "fc8_plantvillage"
  bottom: "label"
  top: "accuracy"
  include {
    phase: TEST
  }
}
I0403 12:09:59.147140  8527 layer_factory.hpp:77] Creating layer data
I0403 12:09:59.147789  8527 net.cpp:91] Creating Layer data
I0403 12:09:59.147822  8527 net.cpp:399] data -> data
I0403 12:09:59.147886  8527 net.cpp:399] data -> label
I0403 12:09:59.147922  8527 data_transformer.cpp:25] Loading mean file from: /home/mohanty/data/final_dataset/lmdb/segmented-20-80/mean.binaryproto
I0403 12:09:59.150698  8531 db_lmdb.cpp:38] Opened lmdb /home/mohanty/data/final_dataset/lmdb/segmented-20-80/test_db
I0403 12:09:59.162417  8527 data_layer.cpp:41] output data size: 100,3,227,227
I0403 12:09:59.280889  8527 net.cpp:141] Setting up data
I0403 12:09:59.280959  8527 net.cpp:148] Top shape: 100 3 227 227 (15458700)
I0403 12:09:59.280980  8527 net.cpp:148] Top shape: 100 (100)
I0403 12:09:59.280994  8527 net.cpp:156] Memory required for data: 61835200
I0403 12:09:59.281021  8527 layer_factory.hpp:77] Creating layer label_data_1_split
I0403 12:09:59.281046  8527 net.cpp:91] Creating Layer label_data_1_split
I0403 12:09:59.281064  8527 net.cpp:425] label_data_1_split <- label
I0403 12:09:59.281095  8527 net.cpp:399] label_data_1_split -> label_data_1_split_0
I0403 12:09:59.281121  8527 net.cpp:399] label_data_1_split -> label_data_1_split_1
I0403 12:09:59.281141  8527 net.cpp:399] label_data_1_split -> label_data_1_split_2
I0403 12:09:59.281203  8527 net.cpp:141] Setting up label_data_1_split
I0403 12:09:59.281225  8527 net.cpp:148] Top shape: 100 (100)
I0403 12:09:59.281241  8527 net.cpp:148] Top shape: 100 (100)
I0403 12:09:59.281257  8527 net.cpp:148] Top shape: 100 (100)
I0403 12:09:59.281270  8527 net.cpp:156] Memory required for data: 61836400
I0403 12:09:59.281285  8527 layer_factory.hpp:77] Creating layer conv1
I0403 12:09:59.281316  8527 net.cpp:91] Creating Layer conv1
I0403 12:09:59.281333  8527 net.cpp:425] conv1 <- data
I0403 12:09:59.281352  8527 net.cpp:399] conv1 -> conv1
I0403 12:09:59.419750  8527 net.cpp:141] Setting up conv1
I0403 12:09:59.419827  8527 net.cpp:148] Top shape: 100 96 55 55 (29040000)
I0403 12:09:59.419844  8527 net.cpp:156] Memory required for data: 177996400
I0403 12:09:59.419877  8527 layer_factory.hpp:77] Creating layer relu1
I0403 12:09:59.419904  8527 net.cpp:91] Creating Layer relu1
I0403 12:09:59.419922  8527 net.cpp:425] relu1 <- conv1
I0403 12:09:59.419944  8527 net.cpp:386] relu1 -> conv1 (in-place)
I0403 12:09:59.420207  8527 net.cpp:141] Setting up relu1
I0403 12:09:59.420233  8527 net.cpp:148] Top shape: 100 96 55 55 (29040000)
I0403 12:09:59.420282  8527 net.cpp:156] Memory required for data: 294156400
I0403 12:09:59.420300  8527 layer_factory.hpp:77] Creating layer norm1
I0403 12:09:59.420327  8527 net.cpp:91] Creating Layer norm1
I0403 12:09:59.420346  8527 net.cpp:425] norm1 <- conv1
I0403 12:09:59.420364  8527 net.cpp:399] norm1 -> norm1
I0403 12:09:59.420680  8527 net.cpp:141] Setting up norm1
I0403 12:09:59.420708  8527 net.cpp:148] Top shape: 100 96 55 55 (29040000)
I0403 12:09:59.420723  8527 net.cpp:156] Memory required for data: 410316400
I0403 12:09:59.420739  8527 layer_factory.hpp:77] Creating layer pool1
I0403 12:09:59.420763  8527 net.cpp:91] Creating Layer pool1
I0403 12:09:59.420779  8527 net.cpp:425] pool1 <- norm1
I0403 12:09:59.420797  8527 net.cpp:399] pool1 -> pool1
I0403 12:09:59.420866  8527 net.cpp:141] Setting up pool1
I0403 12:09:59.420891  8527 net.cpp:148] Top shape: 100 96 27 27 (6998400)
I0403 12:09:59.420905  8527 net.cpp:156] Memory required for data: 438310000
I0403 12:09:59.420920  8527 layer_factory.hpp:77] Creating layer conv2
I0403 12:09:59.420945  8527 net.cpp:91] Creating Layer conv2
I0403 12:09:59.420961  8527 net.cpp:425] conv2 <- pool1
I0403 12:09:59.420980  8527 net.cpp:399] conv2 -> conv2
I0403 12:09:59.435864  8527 net.cpp:141] Setting up conv2
I0403 12:09:59.435916  8527 net.cpp:148] Top shape: 100 256 27 27 (18662400)
I0403 12:09:59.435932  8527 net.cpp:156] Memory required for data: 512959600
I0403 12:09:59.435956  8527 layer_factory.hpp:77] Creating layer relu2
I0403 12:09:59.435976  8527 net.cpp:91] Creating Layer relu2
I0403 12:09:59.435994  8527 net.cpp:425] relu2 <- conv2
I0403 12:09:59.436012  8527 net.cpp:386] relu2 -> conv2 (in-place)
I0403 12:09:59.436285  8527 net.cpp:141] Setting up relu2
I0403 12:09:59.436312  8527 net.cpp:148] Top shape: 100 256 27 27 (18662400)
I0403 12:09:59.436328  8527 net.cpp:156] Memory required for data: 587609200
I0403 12:09:59.436343  8527 layer_factory.hpp:77] Creating layer norm2
I0403 12:09:59.436365  8527 net.cpp:91] Creating Layer norm2
I0403 12:09:59.436383  8527 net.cpp:425] norm2 <- conv2
I0403 12:09:59.436400  8527 net.cpp:399] norm2 -> norm2
I0403 12:09:59.436599  8527 net.cpp:141] Setting up norm2
I0403 12:09:59.436625  8527 net.cpp:148] Top shape: 100 256 27 27 (18662400)
I0403 12:09:59.436640  8527 net.cpp:156] Memory required for data: 662258800
I0403 12:09:59.436655  8527 layer_factory.hpp:77] Creating layer pool2
I0403 12:09:59.436673  8527 net.cpp:91] Creating Layer pool2
I0403 12:09:59.436691  8527 net.cpp:425] pool2 <- norm2
I0403 12:09:59.436708  8527 net.cpp:399] pool2 -> pool2
I0403 12:09:59.436759  8527 net.cpp:141] Setting up pool2
I0403 12:09:59.436782  8527 net.cpp:148] Top shape: 100 256 13 13 (4326400)
I0403 12:09:59.436796  8527 net.cpp:156] Memory required for data: 679564400
I0403 12:09:59.436811  8527 layer_factory.hpp:77] Creating layer conv3
I0403 12:09:59.436832  8527 net.cpp:91] Creating Layer conv3
I0403 12:09:59.436849  8527 net.cpp:425] conv3 <- pool2
I0403 12:09:59.436867  8527 net.cpp:399] conv3 -> conv3
I0403 12:09:59.475132  8527 net.cpp:141] Setting up conv3
I0403 12:09:59.475185  8527 net.cpp:148] Top shape: 100 384 13 13 (6489600)
I0403 12:09:59.475201  8527 net.cpp:156] Memory required for data: 705522800
I0403 12:09:59.475226  8527 layer_factory.hpp:77] Creating layer relu3
I0403 12:09:59.475250  8527 net.cpp:91] Creating Layer relu3
I0403 12:09:59.475266  8527 net.cpp:425] relu3 <- conv3
I0403 12:09:59.475291  8527 net.cpp:386] relu3 -> conv3 (in-place)
I0403 12:09:59.475608  8527 net.cpp:141] Setting up relu3
I0403 12:09:59.475636  8527 net.cpp:148] Top shape: 100 384 13 13 (6489600)
I0403 12:09:59.475651  8527 net.cpp:156] Memory required for data: 731481200
I0403 12:09:59.475664  8527 layer_factory.hpp:77] Creating layer conv4
I0403 12:09:59.475690  8527 net.cpp:91] Creating Layer conv4
I0403 12:09:59.475708  8527 net.cpp:425] conv4 <- conv3
I0403 12:09:59.475729  8527 net.cpp:399] conv4 -> conv4
I0403 12:09:59.505590  8527 net.cpp:141] Setting up conv4
I0403 12:09:59.505652  8527 net.cpp:148] Top shape: 100 384 13 13 (6489600)
I0403 12:09:59.505707  8527 net.cpp:156] Memory required for data: 757439600
I0403 12:09:59.505731  8527 layer_factory.hpp:77] Creating layer relu4
I0403 12:09:59.505756  8527 net.cpp:91] Creating Layer relu4
I0403 12:09:59.505774  8527 net.cpp:425] relu4 <- conv4
I0403 12:09:59.505795  8527 net.cpp:386] relu4 -> conv4 (in-place)
I0403 12:09:59.506073  8527 net.cpp:141] Setting up relu4
I0403 12:09:59.506100  8527 net.cpp:148] Top shape: 100 384 13 13 (6489600)
I0403 12:09:59.506115  8527 net.cpp:156] Memory required for data: 783398000
I0403 12:09:59.506130  8527 layer_factory.hpp:77] Creating layer conv5
I0403 12:09:59.506155  8527 net.cpp:91] Creating Layer conv5
I0403 12:09:59.506171  8527 net.cpp:425] conv5 <- conv4
I0403 12:09:59.506204  8527 net.cpp:399] conv5 -> conv5
I0403 12:09:59.526844  8527 net.cpp:141] Setting up conv5
I0403 12:09:59.526898  8527 net.cpp:148] Top shape: 100 256 13 13 (4326400)
I0403 12:09:59.526916  8527 net.cpp:156] Memory required for data: 800703600
I0403 12:09:59.526939  8527 layer_factory.hpp:77] Creating layer relu5
I0403 12:09:59.526959  8527 net.cpp:91] Creating Layer relu5
I0403 12:09:59.526976  8527 net.cpp:425] relu5 <- conv5
I0403 12:09:59.526996  8527 net.cpp:386] relu5 -> conv5 (in-place)
I0403 12:09:59.527276  8527 net.cpp:141] Setting up relu5
I0403 12:09:59.527304  8527 net.cpp:148] Top shape: 100 256 13 13 (4326400)
I0403 12:09:59.527319  8527 net.cpp:156] Memory required for data: 818009200
I0403 12:09:59.527334  8527 layer_factory.hpp:77] Creating layer pool5
I0403 12:09:59.527359  8527 net.cpp:91] Creating Layer pool5
I0403 12:09:59.527377  8527 net.cpp:425] pool5 <- conv5
I0403 12:09:59.527395  8527 net.cpp:399] pool5 -> pool5
I0403 12:09:59.527456  8527 net.cpp:141] Setting up pool5
I0403 12:09:59.527492  8527 net.cpp:148] Top shape: 100 256 6 6 (921600)
I0403 12:09:59.527505  8527 net.cpp:156] Memory required for data: 821695600
I0403 12:09:59.527520  8527 layer_factory.hpp:77] Creating layer fc6
I0403 12:09:59.527547  8527 net.cpp:91] Creating Layer fc6
I0403 12:09:59.527571  8527 net.cpp:425] fc6 <- pool5
I0403 12:09:59.527593  8527 net.cpp:399] fc6 -> fc6
I0403 12:10:01.086298  8527 net.cpp:141] Setting up fc6
I0403 12:10:01.086340  8527 net.cpp:148] Top shape: 100 4096 (409600)
I0403 12:10:01.086355  8527 net.cpp:156] Memory required for data: 823334000
I0403 12:10:01.086375  8527 layer_factory.hpp:77] Creating layer relu6
I0403 12:10:01.086396  8527 net.cpp:91] Creating Layer relu6
I0403 12:10:01.086413  8527 net.cpp:425] relu6 <- fc6
I0403 12:10:01.086443  8527 net.cpp:386] relu6 -> fc6 (in-place)
I0403 12:10:01.086674  8527 net.cpp:141] Setting up relu6
I0403 12:10:01.086699  8527 net.cpp:148] Top shape: 100 4096 (409600)
I0403 12:10:01.086714  8527 net.cpp:156] Memory required for data: 824972400
I0403 12:10:01.086729  8527 layer_factory.hpp:77] Creating layer drop6
I0403 12:10:01.086758  8527 net.cpp:91] Creating Layer drop6
I0403 12:10:01.086772  8527 net.cpp:425] drop6 <- fc6
I0403 12:10:01.086791  8527 net.cpp:386] drop6 -> fc6 (in-place)
I0403 12:10:01.086841  8527 net.cpp:141] Setting up drop6
I0403 12:10:01.086868  8527 net.cpp:148] Top shape: 100 4096 (409600)
I0403 12:10:01.086884  8527 net.cpp:156] Memory required for data: 826610800
I0403 12:10:01.086896  8527 layer_factory.hpp:77] Creating layer fc7
I0403 12:10:01.086915  8527 net.cpp:91] Creating Layer fc7
I0403 12:10:01.086930  8527 net.cpp:425] fc7 <- fc6
I0403 12:10:01.086949  8527 net.cpp:399] fc7 -> fc7
I0403 12:10:01.768523  8527 net.cpp:141] Setting up fc7
I0403 12:10:01.768605  8527 net.cpp:148] Top shape: 100 4096 (409600)
I0403 12:10:01.768622  8527 net.cpp:156] Memory required for data: 828249200
I0403 12:10:01.768643  8527 layer_factory.hpp:77] Creating layer relu7
I0403 12:10:01.768666  8527 net.cpp:91] Creating Layer relu7
I0403 12:10:01.768682  8527 net.cpp:425] relu7 <- fc7
I0403 12:10:01.768704  8527 net.cpp:386] relu7 -> fc7 (in-place)
I0403 12:10:01.769124  8527 net.cpp:141] Setting up relu7
I0403 12:10:01.769150  8527 net.cpp:148] Top shape: 100 4096 (409600)
I0403 12:10:01.769203  8527 net.cpp:156] Memory required for data: 829887600
I0403 12:10:01.769218  8527 layer_factory.hpp:77] Creating layer drop7
I0403 12:10:01.769237  8527 net.cpp:91] Creating Layer drop7
I0403 12:10:01.769251  8527 net.cpp:425] drop7 <- fc7
I0403 12:10:01.769270  8527 net.cpp:386] drop7 -> fc7 (in-place)
I0403 12:10:01.769315  8527 net.cpp:141] Setting up drop7
I0403 12:10:01.769340  8527 net.cpp:148] Top shape: 100 4096 (409600)
I0403 12:10:01.769356  8527 net.cpp:156] Memory required for data: 831526000
I0403 12:10:01.769369  8527 layer_factory.hpp:77] Creating layer fc8_plantvillage
I0403 12:10:01.769388  8527 net.cpp:91] Creating Layer fc8_plantvillage
I0403 12:10:01.769403  8527 net.cpp:425] fc8_plantvillage <- fc7
I0403 12:10:01.769423  8527 net.cpp:399] fc8_plantvillage -> fc8_plantvillage
I0403 12:10:01.776788  8527 net.cpp:141] Setting up fc8_plantvillage
I0403 12:10:01.776818  8527 net.cpp:148] Top shape: 100 38 (3800)
I0403 12:10:01.776832  8527 net.cpp:156] Memory required for data: 831541200
I0403 12:10:01.776849  8527 layer_factory.hpp:77] Creating layer fc8_plantvillage_fc8_plantvillage_0_split
I0403 12:10:01.776867  8527 net.cpp:91] Creating Layer fc8_plantvillage_fc8_plantvillage_0_split
I0403 12:10:01.776886  8527 net.cpp:425] fc8_plantvillage_fc8_plantvillage_0_split <- fc8_plantvillage
I0403 12:10:01.776902  8527 net.cpp:399] fc8_plantvillage_fc8_plantvillage_0_split -> fc8_plantvillage_fc8_plantvillage_0_split_0
I0403 12:10:01.776922  8527 net.cpp:399] fc8_plantvillage_fc8_plantvillage_0_split -> fc8_plantvillage_fc8_plantvillage_0_split_1
I0403 12:10:01.776942  8527 net.cpp:399] fc8_plantvillage_fc8_plantvillage_0_split -> fc8_plantvillage_fc8_plantvillage_0_split_2
I0403 12:10:01.777019  8527 net.cpp:141] Setting up fc8_plantvillage_fc8_plantvillage_0_split
I0403 12:10:01.777045  8527 net.cpp:148] Top shape: 100 38 (3800)
I0403 12:10:01.777061  8527 net.cpp:148] Top shape: 100 38 (3800)
I0403 12:10:01.777077  8527 net.cpp:148] Top shape: 100 38 (3800)
I0403 12:10:01.777091  8527 net.cpp:156] Memory required for data: 831586800
I0403 12:10:01.777106  8527 layer_factory.hpp:77] Creating layer prob
I0403 12:10:01.777122  8527 net.cpp:91] Creating Layer prob
I0403 12:10:01.777138  8527 net.cpp:425] prob <- fc8_plantvillage_fc8_plantvillage_0_split_0
I0403 12:10:01.777155  8527 net.cpp:399] prob -> prob
I0403 12:10:01.777386  8527 net.cpp:141] Setting up prob
I0403 12:10:01.777412  8527 net.cpp:148] Top shape: 100 38 (3800)
I0403 12:10:01.777427  8527 net.cpp:156] Memory required for data: 831602000
I0403 12:10:01.777441  8527 layer_factory.hpp:77] Creating layer hdf5out
I0403 12:10:01.777461  8527 net.cpp:91] Creating Layer hdf5out
I0403 12:10:01.777475  8527 net.cpp:425] hdf5out <- prob
I0403 12:10:01.777490  8527 net.cpp:425] hdf5out <- label_data_1_split_0
I0403 12:10:01.785676  8527 net.cpp:141] Setting up hdf5out
…
