…
I0403 12:08:42.363204  8498 net.cpp:313] The NetState phase (1) differed from the phase (0) specified by a rule in layer data
I0403 12:08:42.363509  8498 net.cpp:49] Initializing net from parameters: 
state {
  phase: TEST
}
layer {
  name: "data"
  type: "Data"
  top: "data"
  top: "label"
  include {
    phase: TEST
  }
  transform_param {
    crop_size: 227
    mean_file: "/home/mohanty/data/final_dataset/lmdb/segmented-20-80/mean.binaryproto"
  }
  data_param {
    source: "/home/mohanty/data/final_dataset/lmdb/segmented-20-80/test_db"
    batch_size: 100
    backend: LMDB
  }
}
layer {
  name: "conv1"
  type: "Convolution"
  bottom: "data"
  top: "conv1"
  param {
    lr_mult: 1
    decay_mult: 1
  }
  param {
    lr_mult: 2
    decay_mult: 0
  }
  convolution_param {
    num_output: 96
    kernel_size: 11
    stride: 4
    weight_filler {
      type: "gaussian"
      std: 0.01
    }
    bias_filler {
      type: "constant"
      value: 0
    }
  }
}
layer {
  name: "relu1"
  type: "ReLU"
  bottom: "conv1"
  top: "conv1"
}
layer {
  name: "norm1"
  type: "LRN"
  bottom: "conv1"
  top: "norm1"
  lrn_param {
    local_size: 5
    alpha: 0.0001
    beta: 0.75
  }
}
layer {
  name: "pool1"
  type: "Pooling"
  bottom: "norm1"
  top: "pool1"
  pooling_param {
    pool: MAX
    kernel_size: 3
    stride: 2
  }
}
layer {
  name: "conv2"
  type: "Convolution"
  bottom: "pool1"
  top: "conv2"
  param {
    lr_mult: 1
    decay_mult: 1
  }
  param {
    lr_mult: 2
    decay_mult: 0
  }
  convolution_param {
    num_output: 256
    pad: 2
    kernel_size: 5
    group: 2
    weight_filler {
      type: "gaussian"
      std: 0.01
    }
    bias_filler {
      type: "constant"
      value: 0.1
    }
  }
}
layer {
  name: "relu2"
  type: "ReLU"
  bottom: "conv2"
  top: "conv2"
}
layer {
  name: "norm2"
  type: "LRN"
  bottom: "conv2"
  top: "norm2"
  lrn_param {
    local_size: 5
    alpha: 0.0001
    beta: 0.75
  }
}
layer {
  name: "pool2"
  type: "Pooling"
  bottom: "norm2"
  top: "pool2"
  pooling_param {
    pool: MAX
    kernel_size: 3
    stride: 2
  }
}
layer {
  name: "conv3"
  type: "Convolution"
  bottom: "pool2"
  top: "conv3"
  param {
    lr_mult: 1
    decay_mult: 1
  }
  param {
    lr_mult: 2
    decay_mult: 0
  }
  convolution_param {
    num_output: 384
    pad: 1
    kernel_size: 3
    weight_filler {
      type: "gaussian"
      std: 0.01
    }
    bias_filler {
      type: "constant"
      value: 0
    }
  }
}
layer {
  name: "relu3"
  type: "ReLU"
  bottom: "conv3"
  top: "conv3"
}
layer {
  name: "conv4"
  type: "Convolution"
  bottom: "conv3"
  top: "conv4"
  param {
    lr_mult: 1
    decay_mult: 1
  }
  param {
    lr_mult: 2
    decay_mult: 0
  }
  convolution_param {
    num_output: 384
    pad: 1
    kernel_size: 3
    group: 2
    weight_filler {
      type: "gaussian"
      std: 0.01
    }
    bias_filler {
      type: "constant"
      value: 0.1
    }
  }
}
layer {
  name: "relu4"
  type: "ReLU"
  bottom: "conv4"
  top: "conv4"
}
layer {
  name: "conv5"
  type: "Convolution"
  bottom: "conv4"
  top: "conv5"
  param {
    lr_mult: 1
    decay_mult: 1
  }
  param {
    lr_mult: 2
    decay_mult: 0
  }
  convolution_param {
    num_output: 256
    pad: 1
    kernel_size: 3
    group: 2
    weight_filler {
      type: "gaussian"
      std: 0.01
    }
    bias_filler {
      type: "constant"
      value: 0.1
    }
  }
}
layer {
  name: "relu5"
  type: "ReLU"
  bottom: "conv5"
  top: "conv5"
}
layer {
  name: "pool5"
  type: "Pooling"
  bottom: "conv5"
  top: "pool5"
  pooling_param {
    pool: MAX
    kernel_size: 3
    stride: 2
  }
}
layer {
  name: "fc6"
  type: "InnerProduct"
  bottom: "pool5"
  top: "fc6"
  param {
    lr_mult: 1
    decay_mult: 1
  }
  param {
    lr_mult: 2
    decay_mult: 0
  }
  inner_product_param {
    num_output: 4096
    weight_filler {
      type: "gaussian"
      std: 0.005
    }
    bias_filler {
      type: "constant"
      value: 0.1
    }
  }
}
layer {
  name: "relu6"
  type: "ReLU"
  bottom: "fc6"
  top: "fc6"
}
layer {
  name: "drop6"
  type: "Dropout"
  bottom: "fc6"
  top: "fc6"
  dropout_param {
    dropout_ratio: 0.5
  }
}
layer {
  name: "fc7"
  type: "InnerProduct"
  bottom: "fc6"
  top: "fc7"
  param {
    lr_mult: 1
    decay_mult: 1
  }
  param {
    lr_mult: 2
    decay_mult: 0
  }
  inner_product_param {
    num_output: 4096
    weight_filler {
      type: "gaussian"
      std: 0.005
    }
    bias_filler {
      type: "constant"
      value: 0.1
    }
  }
}
layer {
  name: "relu7"
  type: "ReLU"
  bottom: "fc7"
  top: "fc7"
}
layer {
  name: "drop7"
  type: "Dropout"
  bottom: "fc7"
  top: "fc7"
  dropout_param {
    dropout_ratio: 0.5
  }
}
layer {
  name: "fc8_plantvillage"
  type: "InnerProduct"
  bottom: "fc7"
  top: "fc8_plantvillage"
  param {
    lr_mult: 1
    decay_mult: 1
  }
  param {
    lr_mult: 2
    decay_mult: 0
  }
  inner_product_param {
    num_output: 38
    weight_filler {
      type: "gaussian"
      std: 0.01
    }
    bias_filler {
      type: "constant"
      value: 0
    }
  }
}
layer {
  name: "prob"
  type: "Softmax"
  bottom: "fc8_plantvillage"
  top: "prob"
  include {
    phase: TEST
  }
}
layer {
  name: "hdf5out"
  type: "HDF5Output"
  bottom: "prob"
  bottom: "label"
  include {
    phase: TEST
  }
  hdf5_output_param {
    file_name: "hdf5_dumps/iter_636.h5"
  }
}
layer {
  name: "loss"
  type: "SoftmaxWithLoss"
  bottom: "fc8_plantvillage"
  bottom: "label"
  top: "loss"
}
layer {
  name: "accuracy"
  type: "Accuracy"
  bottom: "fc8_plantvillage"
  bottom: "label"
  top: "accuracy"
  include {
    phase: TEST
  }
}
I0403 12:08:42.364135  8498 layer_factory.hpp:77] Creating layer data
I0403 12:08:42.364790  8498 net.cpp:91] Creating Layer data
I0403 12:08:42.364825  8498 net.cpp:399] data -> data
I0403 12:08:42.364874  8498 net.cpp:399] data -> label
I0403 12:08:42.364917  8498 data_transformer.cpp:25] Loading mean file from: /home/mohanty/data/final_dataset/lmdb/segmented-20-80/mean.binaryproto
I0403 12:08:42.367439  8504 db_lmdb.cpp:38] Opened lmdb /home/mohanty/data/final_dataset/lmdb/segmented-20-80/test_db
I0403 12:08:42.379251  8498 data_layer.cpp:41] output data size: 100,3,227,227
I0403 12:08:42.497601  8498 net.cpp:141] Setting up data
I0403 12:08:42.497658  8498 net.cpp:148] Top shape: 100 3 227 227 (15458700)
I0403 12:08:42.497680  8498 net.cpp:148] Top shape: 100 (100)
I0403 12:08:42.497695  8498 net.cpp:156] Memory required for data: 61835200
I0403 12:08:42.497722  8498 layer_factory.hpp:77] Creating layer label_data_1_split
I0403 12:08:42.497747  8498 net.cpp:91] Creating Layer label_data_1_split
I0403 12:08:42.497764  8498 net.cpp:425] label_data_1_split <- label
I0403 12:08:42.497797  8498 net.cpp:399] label_data_1_split -> label_data_1_split_0
I0403 12:08:42.497823  8498 net.cpp:399] label_data_1_split -> label_data_1_split_1
I0403 12:08:42.497843  8498 net.cpp:399] label_data_1_split -> label_data_1_split_2
I0403 12:08:42.497906  8498 net.cpp:141] Setting up label_data_1_split
I0403 12:08:42.497928  8498 net.cpp:148] Top shape: 100 (100)
I0403 12:08:42.497944  8498 net.cpp:148] Top shape: 100 (100)
I0403 12:08:42.497959  8498 net.cpp:148] Top shape: 100 (100)
I0403 12:08:42.497973  8498 net.cpp:156] Memory required for data: 61836400
I0403 12:08:42.497988  8498 layer_factory.hpp:77] Creating layer conv1
I0403 12:08:42.498020  8498 net.cpp:91] Creating Layer conv1
I0403 12:08:42.498039  8498 net.cpp:425] conv1 <- data
I0403 12:08:42.498057  8498 net.cpp:399] conv1 -> conv1
I0403 12:08:42.634878  8498 net.cpp:141] Setting up conv1
I0403 12:08:42.634958  8498 net.cpp:148] Top shape: 100 96 55 55 (29040000)
I0403 12:08:42.634975  8498 net.cpp:156] Memory required for data: 177996400
I0403 12:08:42.635005  8498 layer_factory.hpp:77] Creating layer relu1
I0403 12:08:42.635035  8498 net.cpp:91] Creating Layer relu1
I0403 12:08:42.635053  8498 net.cpp:425] relu1 <- conv1
I0403 12:08:42.635072  8498 net.cpp:386] relu1 -> conv1 (in-place)
I0403 12:08:42.635346  8498 net.cpp:141] Setting up relu1
I0403 12:08:42.635373  8498 net.cpp:148] Top shape: 100 96 55 55 (29040000)
I0403 12:08:42.635428  8498 net.cpp:156] Memory required for data: 294156400
I0403 12:08:42.635444  8498 layer_factory.hpp:77] Creating layer norm1
I0403 12:08:42.635474  8498 net.cpp:91] Creating Layer norm1
I0403 12:08:42.635493  8498 net.cpp:425] norm1 <- conv1
I0403 12:08:42.635514  8498 net.cpp:399] norm1 -> norm1
I0403 12:08:42.635874  8498 net.cpp:141] Setting up norm1
I0403 12:08:42.635905  8498 net.cpp:148] Top shape: 100 96 55 55 (29040000)
I0403 12:08:42.635922  8498 net.cpp:156] Memory required for data: 410316400
I0403 12:08:42.635937  8498 layer_factory.hpp:77] Creating layer pool1
I0403 12:08:42.635960  8498 net.cpp:91] Creating Layer pool1
I0403 12:08:42.635978  8498 net.cpp:425] pool1 <- norm1
I0403 12:08:42.635998  8498 net.cpp:399] pool1 -> pool1
I0403 12:08:42.636071  8498 net.cpp:141] Setting up pool1
I0403 12:08:42.636096  8498 net.cpp:148] Top shape: 100 96 27 27 (6998400)
I0403 12:08:42.636112  8498 net.cpp:156] Memory required for data: 438310000
I0403 12:08:42.636127  8498 layer_factory.hpp:77] Creating layer conv2
I0403 12:08:42.636154  8498 net.cpp:91] Creating Layer conv2
I0403 12:08:42.636173  8498 net.cpp:425] conv2 <- pool1
I0403 12:08:42.636193  8498 net.cpp:399] conv2 -> conv2
I0403 12:08:42.651641  8498 net.cpp:141] Setting up conv2
I0403 12:08:42.651693  8498 net.cpp:148] Top shape: 100 256 27 27 (18662400)
I0403 12:08:42.651711  8498 net.cpp:156] Memory required for data: 512959600
I0403 12:08:42.651736  8498 layer_factory.hpp:77] Creating layer relu2
I0403 12:08:42.651756  8498 net.cpp:91] Creating Layer relu2
I0403 12:08:42.651772  8498 net.cpp:425] relu2 <- conv2
I0403 12:08:42.651793  8498 net.cpp:386] relu2 -> conv2 (in-place)
I0403 12:08:42.652084  8498 net.cpp:141] Setting up relu2
I0403 12:08:42.652112  8498 net.cpp:148] Top shape: 100 256 27 27 (18662400)
I0403 12:08:42.652128  8498 net.cpp:156] Memory required for data: 587609200
I0403 12:08:42.652144  8498 layer_factory.hpp:77] Creating layer norm2
I0403 12:08:42.652168  8498 net.cpp:91] Creating Layer norm2
I0403 12:08:42.652186  8498 net.cpp:425] norm2 <- conv2
I0403 12:08:42.652205  8498 net.cpp:399] norm2 -> norm2
I0403 12:08:42.652410  8498 net.cpp:141] Setting up norm2
I0403 12:08:42.652441  8498 net.cpp:148] Top shape: 100 256 27 27 (18662400)
I0403 12:08:42.652456  8498 net.cpp:156] Memory required for data: 662258800
I0403 12:08:42.652472  8498 layer_factory.hpp:77] Creating layer pool2
I0403 12:08:42.652490  8498 net.cpp:91] Creating Layer pool2
I0403 12:08:42.652505  8498 net.cpp:425] pool2 <- norm2
I0403 12:08:42.652530  8498 net.cpp:399] pool2 -> pool2
I0403 12:08:42.652585  8498 net.cpp:141] Setting up pool2
I0403 12:08:42.652612  8498 net.cpp:148] Top shape: 100 256 13 13 (4326400)
I0403 12:08:42.652627  8498 net.cpp:156] Memory required for data: 679564400
I0403 12:08:42.652642  8498 layer_factory.hpp:77] Creating layer conv3
I0403 12:08:42.652667  8498 net.cpp:91] Creating Layer conv3
I0403 12:08:42.652685  8498 net.cpp:425] conv3 <- pool2
I0403 12:08:42.652706  8498 net.cpp:399] conv3 -> conv3
I0403 12:08:42.691244  8498 net.cpp:141] Setting up conv3
I0403 12:08:42.691320  8498 net.cpp:148] Top shape: 100 384 13 13 (6489600)
I0403 12:08:42.691339  8498 net.cpp:156] Memory required for data: 705522800
I0403 12:08:42.691366  8498 layer_factory.hpp:77] Creating layer relu3
I0403 12:08:42.691390  8498 net.cpp:91] Creating Layer relu3
I0403 12:08:42.691408  8498 net.cpp:425] relu3 <- conv3
I0403 12:08:42.691428  8498 net.cpp:386] relu3 -> conv3 (in-place)
I0403 12:08:42.691728  8498 net.cpp:141] Setting up relu3
I0403 12:08:42.691757  8498 net.cpp:148] Top shape: 100 384 13 13 (6489600)
I0403 12:08:42.691774  8498 net.cpp:156] Memory required for data: 731481200
I0403 12:08:42.691789  8498 layer_factory.hpp:77] Creating layer conv4
I0403 12:08:42.691814  8498 net.cpp:91] Creating Layer conv4
I0403 12:08:42.691831  8498 net.cpp:425] conv4 <- conv3
I0403 12:08:42.691854  8498 net.cpp:399] conv4 -> conv4
I0403 12:08:42.722288  8498 net.cpp:141] Setting up conv4
I0403 12:08:42.722355  8498 net.cpp:148] Top shape: 100 384 13 13 (6489600)
I0403 12:08:42.722414  8498 net.cpp:156] Memory required for data: 757439600
I0403 12:08:42.722435  8498 layer_factory.hpp:77] Creating layer relu4
I0403 12:08:42.722470  8498 net.cpp:91] Creating Layer relu4
I0403 12:08:42.722489  8498 net.cpp:425] relu4 <- conv4
I0403 12:08:42.722508  8498 net.cpp:386] relu4 -> conv4 (in-place)
I0403 12:08:42.722823  8498 net.cpp:141] Setting up relu4
I0403 12:08:42.722851  8498 net.cpp:148] Top shape: 100 384 13 13 (6489600)
I0403 12:08:42.722869  8498 net.cpp:156] Memory required for data: 783398000
I0403 12:08:42.722884  8498 layer_factory.hpp:77] Creating layer conv5
I0403 12:08:42.722908  8498 net.cpp:91] Creating Layer conv5
I0403 12:08:42.722924  8498 net.cpp:425] conv5 <- conv4
I0403 12:08:42.722947  8498 net.cpp:399] conv5 -> conv5
I0403 12:08:42.743989  8498 net.cpp:141] Setting up conv5
I0403 12:08:42.744047  8498 net.cpp:148] Top shape: 100 256 13 13 (4326400)
I0403 12:08:42.744065  8498 net.cpp:156] Memory required for data: 800703600
I0403 12:08:42.744092  8498 layer_factory.hpp:77] Creating layer relu5
I0403 12:08:42.744119  8498 net.cpp:91] Creating Layer relu5
I0403 12:08:42.744138  8498 net.cpp:425] relu5 <- conv5
I0403 12:08:42.744158  8498 net.cpp:386] relu5 -> conv5 (in-place)
I0403 12:08:42.744457  8498 net.cpp:141] Setting up relu5
I0403 12:08:42.744488  8498 net.cpp:148] Top shape: 100 256 13 13 (4326400)
I0403 12:08:42.744505  8498 net.cpp:156] Memory required for data: 818009200
I0403 12:08:42.744525  8498 layer_factory.hpp:77] Creating layer pool5
I0403 12:08:42.744552  8498 net.cpp:91] Creating Layer pool5
I0403 12:08:42.744568  8498 net.cpp:425] pool5 <- conv5
I0403 12:08:42.744590  8498 net.cpp:399] pool5 -> pool5
I0403 12:08:42.744668  8498 net.cpp:141] Setting up pool5
I0403 12:08:42.744695  8498 net.cpp:148] Top shape: 100 256 6 6 (921600)
I0403 12:08:42.744711  8498 net.cpp:156] Memory required for data: 821695600
I0403 12:08:42.744726  8498 layer_factory.hpp:77] Creating layer fc6
I0403 12:08:42.744753  8498 net.cpp:91] Creating Layer fc6
I0403 12:08:42.744771  8498 net.cpp:425] fc6 <- pool5
I0403 12:08:42.744804  8498 net.cpp:399] fc6 -> fc6
I0403 12:08:44.298444  8498 net.cpp:141] Setting up fc6
I0403 12:08:44.298498  8498 net.cpp:148] Top shape: 100 4096 (409600)
I0403 12:08:44.298514  8498 net.cpp:156] Memory required for data: 823334000
I0403 12:08:44.298535  8498 layer_factory.hpp:77] Creating layer relu6
I0403 12:08:44.298557  8498 net.cpp:91] Creating Layer relu6
I0403 12:08:44.298573  8498 net.cpp:425] relu6 <- fc6
I0403 12:08:44.298590  8498 net.cpp:386] relu6 -> fc6 (in-place)
I0403 12:08:44.298804  8498 net.cpp:141] Setting up relu6
I0403 12:08:44.298830  8498 net.cpp:148] Top shape: 100 4096 (409600)
I0403 12:08:44.298846  8498 net.cpp:156] Memory required for data: 824972400
I0403 12:08:44.298861  8498 layer_factory.hpp:77] Creating layer drop6
I0403 12:08:44.298877  8498 net.cpp:91] Creating Layer drop6
I0403 12:08:44.298892  8498 net.cpp:425] drop6 <- fc6
I0403 12:08:44.298909  8498 net.cpp:386] drop6 -> fc6 (in-place)
I0403 12:08:44.298959  8498 net.cpp:141] Setting up drop6
I0403 12:08:44.298980  8498 net.cpp:148] Top shape: 100 4096 (409600)
I0403 12:08:44.298995  8498 net.cpp:156] Memory required for data: 826610800
I0403 12:08:44.299007  8498 layer_factory.hpp:77] Creating layer fc7
I0403 12:08:44.299029  8498 net.cpp:91] Creating Layer fc7
I0403 12:08:44.299046  8498 net.cpp:425] fc7 <- fc6
I0403 12:08:44.299064  8498 net.cpp:399] fc7 -> fc7
I0403 12:08:44.982786  8498 net.cpp:141] Setting up fc7
I0403 12:08:44.982866  8498 net.cpp:148] Top shape: 100 4096 (409600)
I0403 12:08:44.982882  8498 net.cpp:156] Memory required for data: 828249200
I0403 12:08:44.982903  8498 layer_factory.hpp:77] Creating layer relu7
I0403 12:08:44.982925  8498 net.cpp:91] Creating Layer relu7
I0403 12:08:44.982944  8498 net.cpp:425] relu7 <- fc7
I0403 12:08:44.982962  8498 net.cpp:386] relu7 -> fc7 (in-place)
I0403 12:08:44.983379  8498 net.cpp:141] Setting up relu7
I0403 12:08:44.983409  8498 net.cpp:148] Top shape: 100 4096 (409600)
I0403 12:08:44.983464  8498 net.cpp:156] Memory required for data: 829887600
I0403 12:08:44.983479  8498 layer_factory.hpp:77] Creating layer drop7
I0403 12:08:44.983497  8498 net.cpp:91] Creating Layer drop7
I0403 12:08:44.983513  8498 net.cpp:425] drop7 <- fc7
I0403 12:08:44.983530  8498 net.cpp:386] drop7 -> fc7 (in-place)
I0403 12:08:44.983574  8498 net.cpp:141] Setting up drop7
I0403 12:08:44.983597  8498 net.cpp:148] Top shape: 100 4096 (409600)
I0403 12:08:44.983618  8498 net.cpp:156] Memory required for data: 831526000
I0403 12:08:44.983631  8498 layer_factory.hpp:77] Creating layer fc8_plantvillage
I0403 12:08:44.983654  8498 net.cpp:91] Creating Layer fc8_plantvillage
I0403 12:08:44.983669  8498 net.cpp:425] fc8_plantvillage <- fc7
I0403 12:08:44.983687  8498 net.cpp:399] fc8_plantvillage -> fc8_plantvillage
I0403 12:08:44.990396  8498 net.cpp:141] Setting up fc8_plantvillage
I0403 12:08:44.990425  8498 net.cpp:148] Top shape: 100 38 (3800)
I0403 12:08:44.990440  8498 net.cpp:156] Memory required for data: 831541200
I0403 12:08:44.990458  8498 layer_factory.hpp:77] Creating layer fc8_plantvillage_fc8_plantvillage_0_split
I0403 12:08:44.990475  8498 net.cpp:91] Creating Layer fc8_plantvillage_fc8_plantvillage_0_split
I0403 12:08:44.990491  8498 net.cpp:425] fc8_plantvillage_fc8_plantvillage_0_split <- fc8_plantvillage
I0403 12:08:44.990510  8498 net.cpp:399] fc8_plantvillage_fc8_plantvillage_0_split -> fc8_plantvillage_fc8_plantvillage_0_split_0
I0403 12:08:44.990531  8498 net.cpp:399] fc8_plantvillage_fc8_plantvillage_0_split -> fc8_plantvillage_fc8_plantvillage_0_split_1
I0403 12:08:44.990550  8498 net.cpp:399] fc8_plantvillage_fc8_plantvillage_0_split -> fc8_plantvillage_fc8_plantvillage_0_split_2
I0403 12:08:44.990631  8498 net.cpp:141] Setting up fc8_plantvillage_fc8_plantvillage_0_split
I0403 12:08:44.990654  8498 net.cpp:148] Top shape: 100 38 (3800)
I0403 12:08:44.990670  8498 net.cpp:148] Top shape: 100 38 (3800)
I0403 12:08:44.990685  8498 net.cpp:148] Top shape: 100 38 (3800)
I0403 12:08:44.990699  8498 net.cpp:156] Memory required for data: 831586800
I0403 12:08:44.990712  8498 layer_factory.hpp:77] Creating layer prob
I0403 12:08:44.990736  8498 net.cpp:91] Creating Layer prob
I0403 12:08:44.990751  8498 net.cpp:425] prob <- fc8_plantvillage_fc8_plantvillage_0_split_0
I0403 12:08:44.990769  8498 net.cpp:399] prob -> prob
I0403 12:08:44.990990  8498 net.cpp:141] Setting up prob
I0403 12:08:44.991019  8498 net.cpp:148] Top shape: 100 38 (3800)
I0403 12:08:44.991034  8498 net.cpp:156] Memory required for data: 831602000
I0403 12:08:44.991049  8498 layer_factory.hpp:77] Creating layer hdf5out
I0403 12:08:44.991066  8498 net.cpp:91] Creating Layer hdf5out
I0403 12:08:44.991082  8498 net.cpp:425] hdf5out <- prob
I0403 12:08:44.991097  8498 net.cpp:425] hdf5out <- label_data_1_split_0
I0403 12:08:44.993461  8498 net.cpp:141] Setting up hdf5out
…
