…
I0403 12:20:17.772708  8769 net.cpp:313] The NetState phase (1) differed from the phase (0) specified by a rule in layer data
I0403 12:20:17.772995  8769 net.cpp:49] Initializing net from parameters: 
state {
  phase: TEST
}
layer {
  name: "data"
  type: "Data"
  top: "data"
  top: "label"
  include {
    phase: TEST
  }
  transform_param {
    crop_size: 227
    mean_file: "/home/mohanty/data/final_dataset/lmdb/segmented-20-80/mean.binaryproto"
  }
  data_param {
    source: "/home/mohanty/data/final_dataset/lmdb/segmented-20-80/test_db"
    batch_size: 100
    backend: LMDB
  }
}
layer {
  name: "conv1"
  type: "Convolution"
  bottom: "data"
  top: "conv1"
  param {
    lr_mult: 1
    decay_mult: 1
  }
  param {
    lr_mult: 2
    decay_mult: 0
  }
  convolution_param {
    num_output: 96
    kernel_size: 11
    stride: 4
    weight_filler {
      type: "gaussian"
      std: 0.01
    }
    bias_filler {
      type: "constant"
      value: 0
    }
  }
}
layer {
  name: "relu1"
  type: "ReLU"
  bottom: "conv1"
  top: "conv1"
}
layer {
  name: "norm1"
  type: "LRN"
  bottom: "conv1"
  top: "norm1"
  lrn_param {
    local_size: 5
    alpha: 0.0001
    beta: 0.75
  }
}
layer {
  name: "pool1"
  type: "Pooling"
  bottom: "norm1"
  top: "pool1"
  pooling_param {
    pool: MAX
    kernel_size: 3
    stride: 2
  }
}
layer {
  name: "conv2"
  type: "Convolution"
  bottom: "pool1"
  top: "conv2"
  param {
    lr_mult: 1
    decay_mult: 1
  }
  param {
    lr_mult: 2
    decay_mult: 0
  }
  convolution_param {
    num_output: 256
    pad: 2
    kernel_size: 5
    group: 2
    weight_filler {
      type: "gaussian"
      std: 0.01
    }
    bias_filler {
      type: "constant"
      value: 0.1
    }
  }
}
layer {
  name: "relu2"
  type: "ReLU"
  bottom: "conv2"
  top: "conv2"
}
layer {
  name: "norm2"
  type: "LRN"
  bottom: "conv2"
  top: "norm2"
  lrn_param {
    local_size: 5
    alpha: 0.0001
    beta: 0.75
  }
}
layer {
  name: "pool2"
  type: "Pooling"
  bottom: "norm2"
  top: "pool2"
  pooling_param {
    pool: MAX
    kernel_size: 3
    stride: 2
  }
}
layer {
  name: "conv3"
  type: "Convolution"
  bottom: "pool2"
  top: "conv3"
  param {
    lr_mult: 1
    decay_mult: 1
  }
  param {
    lr_mult: 2
    decay_mult: 0
  }
  convolution_param {
    num_output: 384
    pad: 1
    kernel_size: 3
    weight_filler {
      type: "gaussian"
      std: 0.01
    }
    bias_filler {
      type: "constant"
      value: 0
    }
  }
}
layer {
  name: "relu3"
  type: "ReLU"
  bottom: "conv3"
  top: "conv3"
}
layer {
  name: "conv4"
  type: "Convolution"
  bottom: "conv3"
  top: "conv4"
  param {
    lr_mult: 1
    decay_mult: 1
  }
  param {
    lr_mult: 2
    decay_mult: 0
  }
  convolution_param {
    num_output: 384
    pad: 1
    kernel_size: 3
    group: 2
    weight_filler {
      type: "gaussian"
      std: 0.01
    }
    bias_filler {
      type: "constant"
      value: 0.1
    }
  }
}
layer {
  name: "relu4"
  type: "ReLU"
  bottom: "conv4"
  top: "conv4"
}
layer {
  name: "conv5"
  type: "Convolution"
  bottom: "conv4"
  top: "conv5"
  param {
    lr_mult: 1
    decay_mult: 1
  }
  param {
    lr_mult: 2
    decay_mult: 0
  }
  convolution_param {
    num_output: 256
    pad: 1
    kernel_size: 3
    group: 2
    weight_filler {
      type: "gaussian"
      std: 0.01
    }
    bias_filler {
      type: "constant"
      value: 0.1
    }
  }
}
layer {
  name: "relu5"
  type: "ReLU"
  bottom: "conv5"
  top: "conv5"
}
layer {
  name: "pool5"
  type: "Pooling"
  bottom: "conv5"
  top: "pool5"
  pooling_param {
    pool: MAX
    kernel_size: 3
    stride: 2
  }
}
layer {
  name: "fc6"
  type: "InnerProduct"
  bottom: "pool5"
  top: "fc6"
  param {
    lr_mult: 1
    decay_mult: 1
  }
  param {
    lr_mult: 2
    decay_mult: 0
  }
  inner_product_param {
    num_output: 4096
    weight_filler {
      type: "gaussian"
      std: 0.005
    }
    bias_filler {
      type: "constant"
      value: 0.1
    }
  }
}
layer {
  name: "relu6"
  type: "ReLU"
  bottom: "fc6"
  top: "fc6"
}
layer {
  name: "drop6"
  type: "Dropout"
  bottom: "fc6"
  top: "fc6"
  dropout_param {
    dropout_ratio: 0.5
  }
}
layer {
  name: "fc7"
  type: "InnerProduct"
  bottom: "fc6"
  top: "fc7"
  param {
    lr_mult: 1
    decay_mult: 1
  }
  param {
    lr_mult: 2
    decay_mult: 0
  }
  inner_product_param {
    num_output: 4096
    weight_filler {
      type: "gaussian"
      std: 0.005
    }
    bias_filler {
      type: "constant"
      value: 0.1
    }
  }
}
layer {
  name: "relu7"
  type: "ReLU"
  bottom: "fc7"
  top: "fc7"
}
layer {
  name: "drop7"
  type: "Dropout"
  bottom: "fc7"
  top: "fc7"
  dropout_param {
    dropout_ratio: 0.5
  }
}
layer {
  name: "fc8_plantvillage"
  type: "InnerProduct"
  bottom: "fc7"
  top: "fc8_plantvillage"
  param {
    lr_mult: 1
    decay_mult: 1
  }
  param {
    lr_mult: 2
    decay_mult: 0
  }
  inner_product_param {
    num_output: 38
    weight_filler {
      type: "gaussian"
      std: 0.01
    }
    bias_filler {
      type: "constant"
      value: 0
    }
  }
}
layer {
  name: "prob"
  type: "Softmax"
  bottom: "fc8_plantvillage"
  top: "prob"
  include {
    phase: TEST
  }
}
layer {
  name: "hdf5out"
  type: "HDF5Output"
  bottom: "prob"
  bottom: "label"
  include {
    phase: TEST
  }
  hdf5_output_param {
    file_name: "hdf5_dumps/iter_1590.h5"
  }
}
layer {
  name: "loss"
  type: "SoftmaxWithLoss"
  bottom: "fc8_plantvillage"
  bottom: "label"
  top: "loss"
}
layer {
  name: "accuracy"
  type: "Accuracy"
  bottom: "fc8_plantvillage"
  bottom: "label"
  top: "accuracy"
  include {
    phase: TEST
  }
}
I0403 12:20:17.773551  8769 layer_factory.hpp:77] Creating layer data
I0403 12:20:17.774189  8769 net.cpp:91] Creating Layer data
I0403 12:20:17.774220  8769 net.cpp:399] data -> data
I0403 12:20:17.774271  8769 net.cpp:399] data -> label
I0403 12:20:17.774305  8769 data_transformer.cpp:25] Loading mean file from: /home/mohanty/data/final_dataset/lmdb/segmented-20-80/mean.binaryproto
I0403 12:20:17.777768  8772 db_lmdb.cpp:38] Opened lmdb /home/mohanty/data/final_dataset/lmdb/segmented-20-80/test_db
I0403 12:20:17.788826  8769 data_layer.cpp:41] output data size: 100,3,227,227
I0403 12:20:17.908051  8769 net.cpp:141] Setting up data
I0403 12:20:17.908145  8769 net.cpp:148] Top shape: 100 3 227 227 (15458700)
I0403 12:20:17.908169  8769 net.cpp:148] Top shape: 100 (100)
I0403 12:20:17.908185  8769 net.cpp:156] Memory required for data: 61835200
I0403 12:20:17.908212  8769 layer_factory.hpp:77] Creating layer label_data_1_split
I0403 12:20:17.908238  8769 net.cpp:91] Creating Layer label_data_1_split
I0403 12:20:17.908257  8769 net.cpp:425] label_data_1_split <- label
I0403 12:20:17.908290  8769 net.cpp:399] label_data_1_split -> label_data_1_split_0
I0403 12:20:17.908319  8769 net.cpp:399] label_data_1_split -> label_data_1_split_1
I0403 12:20:17.908339  8769 net.cpp:399] label_data_1_split -> label_data_1_split_2
I0403 12:20:17.908403  8769 net.cpp:141] Setting up label_data_1_split
I0403 12:20:17.908427  8769 net.cpp:148] Top shape: 100 (100)
I0403 12:20:17.908444  8769 net.cpp:148] Top shape: 100 (100)
I0403 12:20:17.908462  8769 net.cpp:148] Top shape: 100 (100)
I0403 12:20:17.908475  8769 net.cpp:156] Memory required for data: 61836400
I0403 12:20:17.908490  8769 layer_factory.hpp:77] Creating layer conv1
I0403 12:20:17.908522  8769 net.cpp:91] Creating Layer conv1
I0403 12:20:17.908540  8769 net.cpp:425] conv1 <- data
I0403 12:20:17.908560  8769 net.cpp:399] conv1 -> conv1
I0403 12:20:18.049985  8769 net.cpp:141] Setting up conv1
I0403 12:20:18.050062  8769 net.cpp:148] Top shape: 100 96 55 55 (29040000)
I0403 12:20:18.050081  8769 net.cpp:156] Memory required for data: 177996400
I0403 12:20:18.050112  8769 layer_factory.hpp:77] Creating layer relu1
I0403 12:20:18.050140  8769 net.cpp:91] Creating Layer relu1
I0403 12:20:18.050159  8769 net.cpp:425] relu1 <- conv1
I0403 12:20:18.050179  8769 net.cpp:386] relu1 -> conv1 (in-place)
I0403 12:20:18.050503  8769 net.cpp:141] Setting up relu1
I0403 12:20:18.050541  8769 net.cpp:148] Top shape: 100 96 55 55 (29040000)
I0403 12:20:18.050595  8769 net.cpp:156] Memory required for data: 294156400
I0403 12:20:18.050613  8769 layer_factory.hpp:77] Creating layer norm1
I0403 12:20:18.050642  8769 net.cpp:91] Creating Layer norm1
I0403 12:20:18.050660  8769 net.cpp:425] norm1 <- conv1
I0403 12:20:18.050678  8769 net.cpp:399] norm1 -> norm1
I0403 12:20:18.051000  8769 net.cpp:141] Setting up norm1
I0403 12:20:18.051028  8769 net.cpp:148] Top shape: 100 96 55 55 (29040000)
I0403 12:20:18.051044  8769 net.cpp:156] Memory required for data: 410316400
I0403 12:20:18.051060  8769 layer_factory.hpp:77] Creating layer pool1
I0403 12:20:18.051084  8769 net.cpp:91] Creating Layer pool1
I0403 12:20:18.051101  8769 net.cpp:425] pool1 <- norm1
I0403 12:20:18.051120  8769 net.cpp:399] pool1 -> pool1
I0403 12:20:18.051188  8769 net.cpp:141] Setting up pool1
I0403 12:20:18.051213  8769 net.cpp:148] Top shape: 100 96 27 27 (6998400)
I0403 12:20:18.051229  8769 net.cpp:156] Memory required for data: 438310000
I0403 12:20:18.051244  8769 layer_factory.hpp:77] Creating layer conv2
I0403 12:20:18.051270  8769 net.cpp:91] Creating Layer conv2
I0403 12:20:18.051287  8769 net.cpp:425] conv2 <- pool1
I0403 12:20:18.051306  8769 net.cpp:399] conv2 -> conv2
I0403 12:20:18.066365  8769 net.cpp:141] Setting up conv2
I0403 12:20:18.066417  8769 net.cpp:148] Top shape: 100 256 27 27 (18662400)
I0403 12:20:18.066434  8769 net.cpp:156] Memory required for data: 512959600
I0403 12:20:18.066457  8769 layer_factory.hpp:77] Creating layer relu2
I0403 12:20:18.066478  8769 net.cpp:91] Creating Layer relu2
I0403 12:20:18.066495  8769 net.cpp:425] relu2 <- conv2
I0403 12:20:18.066514  8769 net.cpp:386] relu2 -> conv2 (in-place)
I0403 12:20:18.066834  8769 net.cpp:141] Setting up relu2
I0403 12:20:18.066862  8769 net.cpp:148] Top shape: 100 256 27 27 (18662400)
I0403 12:20:18.066879  8769 net.cpp:156] Memory required for data: 587609200
I0403 12:20:18.066895  8769 layer_factory.hpp:77] Creating layer norm2
I0403 12:20:18.066917  8769 net.cpp:91] Creating Layer norm2
I0403 12:20:18.066934  8769 net.cpp:425] norm2 <- conv2
I0403 12:20:18.066954  8769 net.cpp:399] norm2 -> norm2
I0403 12:20:18.067152  8769 net.cpp:141] Setting up norm2
I0403 12:20:18.067178  8769 net.cpp:148] Top shape: 100 256 27 27 (18662400)
I0403 12:20:18.067194  8769 net.cpp:156] Memory required for data: 662258800
I0403 12:20:18.067210  8769 layer_factory.hpp:77] Creating layer pool2
I0403 12:20:18.067231  8769 net.cpp:91] Creating Layer pool2
I0403 12:20:18.067248  8769 net.cpp:425] pool2 <- norm2
I0403 12:20:18.067268  8769 net.cpp:399] pool2 -> pool2
I0403 12:20:18.067323  8769 net.cpp:141] Setting up pool2
I0403 12:20:18.067348  8769 net.cpp:148] Top shape: 100 256 13 13 (4326400)
I0403 12:20:18.067363  8769 net.cpp:156] Memory required for data: 679564400
I0403 12:20:18.067378  8769 layer_factory.hpp:77] Creating layer conv3
I0403 12:20:18.067404  8769 net.cpp:91] Creating Layer conv3
I0403 12:20:18.067421  8769 net.cpp:425] conv3 <- pool2
I0403 12:20:18.067442  8769 net.cpp:399] conv3 -> conv3
I0403 12:20:18.106827  8769 net.cpp:141] Setting up conv3
I0403 12:20:18.106873  8769 net.cpp:148] Top shape: 100 384 13 13 (6489600)
I0403 12:20:18.106891  8769 net.cpp:156] Memory required for data: 705522800
I0403 12:20:18.106917  8769 layer_factory.hpp:77] Creating layer relu3
I0403 12:20:18.106941  8769 net.cpp:91] Creating Layer relu3
I0403 12:20:18.106959  8769 net.cpp:425] relu3 <- conv3
I0403 12:20:18.106978  8769 net.cpp:386] relu3 -> conv3 (in-place)
I0403 12:20:18.107251  8769 net.cpp:141] Setting up relu3
I0403 12:20:18.107280  8769 net.cpp:148] Top shape: 100 384 13 13 (6489600)
I0403 12:20:18.107296  8769 net.cpp:156] Memory required for data: 731481200
I0403 12:20:18.107312  8769 layer_factory.hpp:77] Creating layer conv4
I0403 12:20:18.107341  8769 net.cpp:91] Creating Layer conv4
I0403 12:20:18.107358  8769 net.cpp:425] conv4 <- conv3
I0403 12:20:18.107378  8769 net.cpp:399] conv4 -> conv4
I0403 12:20:18.137634  8769 net.cpp:141] Setting up conv4
I0403 12:20:18.137706  8769 net.cpp:148] Top shape: 100 384 13 13 (6489600)
I0403 12:20:18.137758  8769 net.cpp:156] Memory required for data: 757439600
I0403 12:20:18.137780  8769 layer_factory.hpp:77] Creating layer relu4
I0403 12:20:18.137804  8769 net.cpp:91] Creating Layer relu4
I0403 12:20:18.137822  8769 net.cpp:425] relu4 <- conv4
I0403 12:20:18.137842  8769 net.cpp:386] relu4 -> conv4 (in-place)
I0403 12:20:18.138118  8769 net.cpp:141] Setting up relu4
I0403 12:20:18.138144  8769 net.cpp:148] Top shape: 100 384 13 13 (6489600)
I0403 12:20:18.138159  8769 net.cpp:156] Memory required for data: 783398000
I0403 12:20:18.138175  8769 layer_factory.hpp:77] Creating layer conv5
I0403 12:20:18.138201  8769 net.cpp:91] Creating Layer conv5
I0403 12:20:18.138218  8769 net.cpp:425] conv5 <- conv4
I0403 12:20:18.138239  8769 net.cpp:399] conv5 -> conv5
I0403 12:20:18.158969  8769 net.cpp:141] Setting up conv5
I0403 12:20:18.159025  8769 net.cpp:148] Top shape: 100 256 13 13 (4326400)
I0403 12:20:18.159041  8769 net.cpp:156] Memory required for data: 800703600
I0403 12:20:18.159066  8769 layer_factory.hpp:77] Creating layer relu5
I0403 12:20:18.159093  8769 net.cpp:91] Creating Layer relu5
I0403 12:20:18.159112  8769 net.cpp:425] relu5 <- conv5
I0403 12:20:18.159132  8769 net.cpp:386] relu5 -> conv5 (in-place)
I0403 12:20:18.159433  8769 net.cpp:141] Setting up relu5
I0403 12:20:18.159462  8769 net.cpp:148] Top shape: 100 256 13 13 (4326400)
I0403 12:20:18.159479  8769 net.cpp:156] Memory required for data: 818009200
I0403 12:20:18.159494  8769 layer_factory.hpp:77] Creating layer pool5
I0403 12:20:18.159518  8769 net.cpp:91] Creating Layer pool5
I0403 12:20:18.159533  8769 net.cpp:425] pool5 <- conv5
I0403 12:20:18.159555  8769 net.cpp:399] pool5 -> pool5
I0403 12:20:18.159620  8769 net.cpp:141] Setting up pool5
I0403 12:20:18.159646  8769 net.cpp:148] Top shape: 100 256 6 6 (921600)
I0403 12:20:18.159662  8769 net.cpp:156] Memory required for data: 821695600
I0403 12:20:18.159677  8769 layer_factory.hpp:77] Creating layer fc6
I0403 12:20:18.159704  8769 net.cpp:91] Creating Layer fc6
I0403 12:20:18.159723  8769 net.cpp:425] fc6 <- pool5
I0403 12:20:18.159742  8769 net.cpp:399] fc6 -> fc6
I0403 12:20:19.716825  8769 net.cpp:141] Setting up fc6
I0403 12:20:19.716863  8769 net.cpp:148] Top shape: 100 4096 (409600)
I0403 12:20:19.716879  8769 net.cpp:156] Memory required for data: 823334000
I0403 12:20:19.716900  8769 layer_factory.hpp:77] Creating layer relu6
I0403 12:20:19.716924  8769 net.cpp:91] Creating Layer relu6
I0403 12:20:19.716943  8769 net.cpp:425] relu6 <- fc6
I0403 12:20:19.716963  8769 net.cpp:386] relu6 -> fc6 (in-place)
I0403 12:20:19.717175  8769 net.cpp:141] Setting up relu6
I0403 12:20:19.717200  8769 net.cpp:148] Top shape: 100 4096 (409600)
I0403 12:20:19.717214  8769 net.cpp:156] Memory required for data: 824972400
I0403 12:20:19.717229  8769 layer_factory.hpp:77] Creating layer drop6
I0403 12:20:19.717250  8769 net.cpp:91] Creating Layer drop6
I0403 12:20:19.717268  8769 net.cpp:425] drop6 <- fc6
I0403 12:20:19.717284  8769 net.cpp:386] drop6 -> fc6 (in-place)
I0403 12:20:19.717341  8769 net.cpp:141] Setting up drop6
I0403 12:20:19.717365  8769 net.cpp:148] Top shape: 100 4096 (409600)
I0403 12:20:19.717378  8769 net.cpp:156] Memory required for data: 826610800
I0403 12:20:19.717394  8769 layer_factory.hpp:77] Creating layer fc7
I0403 12:20:19.717417  8769 net.cpp:91] Creating Layer fc7
I0403 12:20:19.717432  8769 net.cpp:425] fc7 <- fc6
I0403 12:20:19.717449  8769 net.cpp:399] fc7 -> fc7
I0403 12:20:20.402359  8769 net.cpp:141] Setting up fc7
I0403 12:20:20.402437  8769 net.cpp:148] Top shape: 100 4096 (409600)
I0403 12:20:20.402456  8769 net.cpp:156] Memory required for data: 828249200
I0403 12:20:20.402477  8769 layer_factory.hpp:77] Creating layer relu7
I0403 12:20:20.402499  8769 net.cpp:91] Creating Layer relu7
I0403 12:20:20.402518  8769 net.cpp:425] relu7 <- fc7
I0403 12:20:20.402537  8769 net.cpp:386] relu7 -> fc7 (in-place)
I0403 12:20:20.402957  8769 net.cpp:141] Setting up relu7
I0403 12:20:20.402986  8769 net.cpp:148] Top shape: 100 4096 (409600)
I0403 12:20:20.403043  8769 net.cpp:156] Memory required for data: 829887600
I0403 12:20:20.403060  8769 layer_factory.hpp:77] Creating layer drop7
I0403 12:20:20.403079  8769 net.cpp:91] Creating Layer drop7
I0403 12:20:20.403095  8769 net.cpp:425] drop7 <- fc7
I0403 12:20:20.403112  8769 net.cpp:386] drop7 -> fc7 (in-place)
I0403 12:20:20.403158  8769 net.cpp:141] Setting up drop7
I0403 12:20:20.403180  8769 net.cpp:148] Top shape: 100 4096 (409600)
I0403 12:20:20.403195  8769 net.cpp:156] Memory required for data: 831526000
I0403 12:20:20.403210  8769 layer_factory.hpp:77] Creating layer fc8_plantvillage
I0403 12:20:20.403235  8769 net.cpp:91] Creating Layer fc8_plantvillage
I0403 12:20:20.403252  8769 net.cpp:425] fc8_plantvillage <- fc7
I0403 12:20:20.403270  8769 net.cpp:399] fc8_plantvillage -> fc8_plantvillage
I0403 12:20:20.410037  8769 net.cpp:141] Setting up fc8_plantvillage
I0403 12:20:20.410066  8769 net.cpp:148] Top shape: 100 38 (3800)
I0403 12:20:20.410082  8769 net.cpp:156] Memory required for data: 831541200
I0403 12:20:20.410100  8769 layer_factory.hpp:77] Creating layer fc8_plantvillage_fc8_plantvillage_0_split
I0403 12:20:20.410122  8769 net.cpp:91] Creating Layer fc8_plantvillage_fc8_plantvillage_0_split
I0403 12:20:20.410140  8769 net.cpp:425] fc8_plantvillage_fc8_plantvillage_0_split <- fc8_plantvillage
I0403 12:20:20.410157  8769 net.cpp:399] fc8_plantvillage_fc8_plantvillage_0_split -> fc8_plantvillage_fc8_plantvillage_0_split_0
I0403 12:20:20.410181  8769 net.cpp:399] fc8_plantvillage_fc8_plantvillage_0_split -> fc8_plantvillage_fc8_plantvillage_0_split_1
I0403 12:20:20.410200  8769 net.cpp:399] fc8_plantvillage_fc8_plantvillage_0_split -> fc8_plantvillage_fc8_plantvillage_0_split_2
I0403 12:20:20.410277  8769 net.cpp:141] Setting up fc8_plantvillage_fc8_plantvillage_0_split
I0403 12:20:20.410302  8769 net.cpp:148] Top shape: 100 38 (3800)
I0403 12:20:20.410318  8769 net.cpp:148] Top shape: 100 38 (3800)
I0403 12:20:20.410336  8769 net.cpp:148] Top shape: 100 38 (3800)
I0403 12:20:20.410349  8769 net.cpp:156] Memory required for data: 831586800
I0403 12:20:20.410364  8769 layer_factory.hpp:77] Creating layer prob
I0403 12:20:20.410385  8769 net.cpp:91] Creating Layer prob
I0403 12:20:20.410401  8769 net.cpp:425] prob <- fc8_plantvillage_fc8_plantvillage_0_split_0
I0403 12:20:20.410419  8769 net.cpp:399] prob -> prob
I0403 12:20:20.410663  8769 net.cpp:141] Setting up prob
I0403 12:20:20.410689  8769 net.cpp:148] Top shape: 100 38 (3800)
I0403 12:20:20.410708  8769 net.cpp:156] Memory required for data: 831602000
I0403 12:20:20.410724  8769 layer_factory.hpp:77] Creating layer hdf5out
I0403 12:20:20.410743  8769 net.cpp:91] Creating Layer hdf5out
I0403 12:20:20.410760  8769 net.cpp:425] hdf5out <- prob
I0403 12:20:20.410778  8769 net.cpp:425] hdf5out <- label_data_1_split_0
I0403 12:20:20.413415  8769 net.cpp:141] Setting up hdf5out
…
