…
I0403 14:39:17.398689 17313 net.cpp:313] The NetState phase (1) differed from the phase (0) specified by a rule in layer data
I0403 14:39:17.399015 17313 net.cpp:49] Initializing net from parameters: 
state {
  phase: TEST
}
layer {
  name: "data"
  type: "Data"
  top: "data"
  top: "label"
  include {
    phase: TEST
  }
  transform_param {
    crop_size: 227
    mean_file: "/home/mohanty/data/final_dataset/lmdb/segmented-60-40/mean.binaryproto"
  }
  data_param {
    source: "/home/mohanty/data/final_dataset/lmdb/segmented-60-40/test_db"
    batch_size: 100
    backend: LMDB
  }
}
layer {
  name: "conv1"
  type: "Convolution"
  bottom: "data"
  top: "conv1"
  param {
    lr_mult: 1
    decay_mult: 1
  }
  param {
    lr_mult: 2
    decay_mult: 0
  }
  convolution_param {
    num_output: 96
    kernel_size: 11
    stride: 4
    weight_filler {
      type: "gaussian"
      std: 0.01
    }
    bias_filler {
      type: "constant"
      value: 0
    }
  }
}
layer {
  name: "relu1"
  type: "ReLU"
  bottom: "conv1"
  top: "conv1"
}
layer {
  name: "norm1"
  type: "LRN"
  bottom: "conv1"
  top: "norm1"
  lrn_param {
    local_size: 5
    alpha: 0.0001
    beta: 0.75
  }
}
layer {
  name: "pool1"
  type: "Pooling"
  bottom: "norm1"
  top: "pool1"
  pooling_param {
    pool: MAX
    kernel_size: 3
    stride: 2
  }
}
layer {
  name: "conv2"
  type: "Convolution"
  bottom: "pool1"
  top: "conv2"
  param {
    lr_mult: 1
    decay_mult: 1
  }
  param {
    lr_mult: 2
    decay_mult: 0
  }
  convolution_param {
    num_output: 256
    pad: 2
    kernel_size: 5
    group: 2
    weight_filler {
      type: "gaussian"
      std: 0.01
    }
    bias_filler {
      type: "constant"
      value: 0.1
    }
  }
}
layer {
  name: "relu2"
  type: "ReLU"
  bottom: "conv2"
  top: "conv2"
}
layer {
  name: "norm2"
  type: "LRN"
  bottom: "conv2"
  top: "norm2"
  lrn_param {
    local_size: 5
    alpha: 0.0001
    beta: 0.75
  }
}
layer {
  name: "pool2"
  type: "Pooling"
  bottom: "norm2"
  top: "pool2"
  pooling_param {
    pool: MAX
    kernel_size: 3
    stride: 2
  }
}
layer {
  name: "conv3"
  type: "Convolution"
  bottom: "pool2"
  top: "conv3"
  param {
    lr_mult: 1
    decay_mult: 1
  }
  param {
    lr_mult: 2
    decay_mult: 0
  }
  convolution_param {
    num_output: 384
    pad: 1
    kernel_size: 3
    weight_filler {
      type: "gaussian"
      std: 0.01
    }
    bias_filler {
      type: "constant"
      value: 0
    }
  }
}
layer {
  name: "relu3"
  type: "ReLU"
  bottom: "conv3"
  top: "conv3"
}
layer {
  name: "conv4"
  type: "Convolution"
  bottom: "conv3"
  top: "conv4"
  param {
    lr_mult: 1
    decay_mult: 1
  }
  param {
    lr_mult: 2
    decay_mult: 0
  }
  convolution_param {
    num_output: 384
    pad: 1
    kernel_size: 3
    group: 2
    weight_filler {
      type: "gaussian"
      std: 0.01
    }
    bias_filler {
      type: "constant"
      value: 0.1
    }
  }
}
layer {
  name: "relu4"
  type: "ReLU"
  bottom: "conv4"
  top: "conv4"
}
layer {
  name: "conv5"
  type: "Convolution"
  bottom: "conv4"
  top: "conv5"
  param {
    lr_mult: 1
    decay_mult: 1
  }
  param {
    lr_mult: 2
    decay_mult: 0
  }
  convolution_param {
    num_output: 256
    pad: 1
    kernel_size: 3
    group: 2
    weight_filler {
      type: "gaussian"
      std: 0.01
    }
    bias_filler {
      type: "constant"
      value: 0.1
    }
  }
}
layer {
  name: "relu5"
  type: "ReLU"
  bottom: "conv5"
  top: "conv5"
}
layer {
  name: "pool5"
  type: "Pooling"
  bottom: "conv5"
  top: "pool5"
  pooling_param {
    pool: MAX
    kernel_size: 3
    stride: 2
  }
}
layer {
  name: "fc6"
  type: "InnerProduct"
  bottom: "pool5"
  top: "fc6"
  param {
    lr_mult: 1
    decay_mult: 1
  }
  param {
    lr_mult: 2
    decay_mult: 0
  }
  inner_product_param {
    num_output: 4096
    weight_filler {
      type: "gaussian"
      std: 0.005
    }
    bias_filler {
      type: "constant"
      value: 0.1
    }
  }
}
layer {
  name: "relu6"
  type: "ReLU"
  bottom: "fc6"
  top: "fc6"
}
layer {
  name: "drop6"
  type: "Dropout"
  bottom: "fc6"
  top: "fc6"
  dropout_param {
    dropout_ratio: 0.5
  }
}
layer {
  name: "fc7"
  type: "InnerProduct"
  bottom: "fc6"
  top: "fc7"
  param {
    lr_mult: 1
    decay_mult: 1
  }
  param {
    lr_mult: 2
    decay_mult: 0
  }
  inner_product_param {
    num_output: 4096
    weight_filler {
      type: "gaussian"
      std: 0.005
    }
    bias_filler {
      type: "constant"
      value: 0.1
    }
  }
}
layer {
  name: "relu7"
  type: "ReLU"
  bottom: "fc7"
  top: "fc7"
}
layer {
  name: "drop7"
  type: "Dropout"
  bottom: "fc7"
  top: "fc7"
  dropout_param {
    dropout_ratio: 0.5
  }
}
layer {
  name: "fc8_plantvillage"
  type: "InnerProduct"
  bottom: "fc7"
  top: "fc8_plantvillage"
  param {
    lr_mult: 1
    decay_mult: 1
  }
  param {
    lr_mult: 2
    decay_mult: 0
  }
  inner_product_param {
    num_output: 38
    weight_filler {
      type: "gaussian"
      std: 0.01
    }
    bias_filler {
      type: "constant"
      value: 0
    }
  }
}
layer {
  name: "prob"
  type: "Softmax"
  bottom: "fc8_plantvillage"
  top: "prob"
  include {
    phase: TEST
  }
}
layer {
  name: "hdf5out"
  type: "HDF5Output"
  bottom: "prob"
  bottom: "label"
  include {
    phase: TEST
  }
  hdf5_output_param {
    file_name: "hdf5_dumps/iter_6175.h5"
  }
}
layer {
  name: "loss"
  type: "SoftmaxWithLoss"
  bottom: "fc8_plantvillage"
  bottom: "label"
  top: "loss"
}
layer {
  name: "accuracy"
  type: "Accuracy"
  bottom: "fc8_plantvillage"
  bottom: "label"
  top: "accuracy"
  include {
    phase: TEST
  }
}
I0403 14:39:17.399660 17313 layer_factory.hpp:77] Creating layer data
I0403 14:39:17.400320 17313 net.cpp:91] Creating Layer data
I0403 14:39:17.400351 17313 net.cpp:399] data -> data
I0403 14:39:17.400401 17313 net.cpp:399] data -> label
I0403 14:39:17.400439 17313 data_transformer.cpp:25] Loading mean file from: /home/mohanty/data/final_dataset/lmdb/segmented-60-40/mean.binaryproto
I0403 14:39:17.401628 17317 db_lmdb.cpp:38] Opened lmdb /home/mohanty/data/final_dataset/lmdb/segmented-60-40/test_db
I0403 14:39:17.414858 17313 data_layer.cpp:41] output data size: 100,3,227,227
I0403 14:39:17.550364 17313 net.cpp:141] Setting up data
I0403 14:39:17.550472 17313 net.cpp:148] Top shape: 100 3 227 227 (15458700)
I0403 14:39:17.550495 17313 net.cpp:148] Top shape: 100 (100)
I0403 14:39:17.550510 17313 net.cpp:156] Memory required for data: 61835200
I0403 14:39:17.550539 17313 layer_factory.hpp:77] Creating layer label_data_1_split
I0403 14:39:17.550564 17313 net.cpp:91] Creating Layer label_data_1_split
I0403 14:39:17.550582 17313 net.cpp:425] label_data_1_split <- label
I0403 14:39:17.550613 17313 net.cpp:399] label_data_1_split -> label_data_1_split_0
I0403 14:39:17.550642 17313 net.cpp:399] label_data_1_split -> label_data_1_split_1
I0403 14:39:17.550662 17313 net.cpp:399] label_data_1_split -> label_data_1_split_2
I0403 14:39:17.550726 17313 net.cpp:141] Setting up label_data_1_split
I0403 14:39:17.550750 17313 net.cpp:148] Top shape: 100 (100)
I0403 14:39:17.550766 17313 net.cpp:148] Top shape: 100 (100)
I0403 14:39:17.550782 17313 net.cpp:148] Top shape: 100 (100)
I0403 14:39:17.550796 17313 net.cpp:156] Memory required for data: 61836400
I0403 14:39:17.550812 17313 layer_factory.hpp:77] Creating layer conv1
I0403 14:39:17.550844 17313 net.cpp:91] Creating Layer conv1
I0403 14:39:17.550863 17313 net.cpp:425] conv1 <- data
I0403 14:39:17.550884 17313 net.cpp:399] conv1 -> conv1
I0403 14:39:17.701297 17313 net.cpp:141] Setting up conv1
I0403 14:39:17.701387 17313 net.cpp:148] Top shape: 100 96 55 55 (29040000)
I0403 14:39:17.701406 17313 net.cpp:156] Memory required for data: 177996400
I0403 14:39:17.701437 17313 layer_factory.hpp:77] Creating layer relu1
I0403 14:39:17.701465 17313 net.cpp:91] Creating Layer relu1
I0403 14:39:17.701483 17313 net.cpp:425] relu1 <- conv1
I0403 14:39:17.701503 17313 net.cpp:386] relu1 -> conv1 (in-place)
I0403 14:39:17.701793 17313 net.cpp:141] Setting up relu1
I0403 14:39:17.701833 17313 net.cpp:148] Top shape: 100 96 55 55 (29040000)
I0403 14:39:17.701879 17313 net.cpp:156] Memory required for data: 294156400
I0403 14:39:17.701895 17313 layer_factory.hpp:77] Creating layer norm1
I0403 14:39:17.701922 17313 net.cpp:91] Creating Layer norm1
I0403 14:39:17.701941 17313 net.cpp:425] norm1 <- conv1
I0403 14:39:17.701957 17313 net.cpp:399] norm1 -> norm1
I0403 14:39:17.702267 17313 net.cpp:141] Setting up norm1
I0403 14:39:17.702294 17313 net.cpp:148] Top shape: 100 96 55 55 (29040000)
I0403 14:39:17.702311 17313 net.cpp:156] Memory required for data: 410316400
I0403 14:39:17.702325 17313 layer_factory.hpp:77] Creating layer pool1
I0403 14:39:17.702348 17313 net.cpp:91] Creating Layer pool1
I0403 14:39:17.702364 17313 net.cpp:425] pool1 <- norm1
I0403 14:39:17.702383 17313 net.cpp:399] pool1 -> pool1
I0403 14:39:17.702450 17313 net.cpp:141] Setting up pool1
I0403 14:39:17.702472 17313 net.cpp:148] Top shape: 100 96 27 27 (6998400)
I0403 14:39:17.702487 17313 net.cpp:156] Memory required for data: 438310000
I0403 14:39:17.702502 17313 layer_factory.hpp:77] Creating layer conv2
I0403 14:39:17.702527 17313 net.cpp:91] Creating Layer conv2
I0403 14:39:17.702543 17313 net.cpp:425] conv2 <- pool1
I0403 14:39:17.702560 17313 net.cpp:399] conv2 -> conv2
I0403 14:39:17.718011 17313 net.cpp:141] Setting up conv2
I0403 14:39:17.718065 17313 net.cpp:148] Top shape: 100 256 27 27 (18662400)
I0403 14:39:17.718081 17313 net.cpp:156] Memory required for data: 512959600
I0403 14:39:17.718104 17313 layer_factory.hpp:77] Creating layer relu2
I0403 14:39:17.718125 17313 net.cpp:91] Creating Layer relu2
I0403 14:39:17.718142 17313 net.cpp:425] relu2 <- conv2
I0403 14:39:17.718161 17313 net.cpp:386] relu2 -> conv2 (in-place)
I0403 14:39:17.718444 17313 net.cpp:141] Setting up relu2
I0403 14:39:17.718472 17313 net.cpp:148] Top shape: 100 256 27 27 (18662400)
I0403 14:39:17.718487 17313 net.cpp:156] Memory required for data: 587609200
I0403 14:39:17.718503 17313 layer_factory.hpp:77] Creating layer norm2
I0403 14:39:17.718524 17313 net.cpp:91] Creating Layer norm2
I0403 14:39:17.718541 17313 net.cpp:425] norm2 <- conv2
I0403 14:39:17.718559 17313 net.cpp:399] norm2 -> norm2
I0403 14:39:17.718750 17313 net.cpp:141] Setting up norm2
I0403 14:39:17.718777 17313 net.cpp:148] Top shape: 100 256 27 27 (18662400)
I0403 14:39:17.718792 17313 net.cpp:156] Memory required for data: 662258800
I0403 14:39:17.718808 17313 layer_factory.hpp:77] Creating layer pool2
I0403 14:39:17.718827 17313 net.cpp:91] Creating Layer pool2
I0403 14:39:17.718843 17313 net.cpp:425] pool2 <- norm2
I0403 14:39:17.718861 17313 net.cpp:399] pool2 -> pool2
I0403 14:39:17.718912 17313 net.cpp:141] Setting up pool2
I0403 14:39:17.718936 17313 net.cpp:148] Top shape: 100 256 13 13 (4326400)
I0403 14:39:17.718972 17313 net.cpp:156] Memory required for data: 679564400
I0403 14:39:17.718997 17313 layer_factory.hpp:77] Creating layer conv3
I0403 14:39:17.719020 17313 net.cpp:91] Creating Layer conv3
I0403 14:39:17.719038 17313 net.cpp:425] conv3 <- pool2
I0403 14:39:17.719055 17313 net.cpp:399] conv3 -> conv3
I0403 14:39:17.759093 17313 net.cpp:141] Setting up conv3
I0403 14:39:17.759174 17313 net.cpp:148] Top shape: 100 384 13 13 (6489600)
I0403 14:39:17.759193 17313 net.cpp:156] Memory required for data: 705522800
I0403 14:39:17.759219 17313 layer_factory.hpp:77] Creating layer relu3
I0403 14:39:17.759243 17313 net.cpp:91] Creating Layer relu3
I0403 14:39:17.759261 17313 net.cpp:425] relu3 <- conv3
I0403 14:39:17.759284 17313 net.cpp:386] relu3 -> conv3 (in-place)
I0403 14:39:17.759572 17313 net.cpp:141] Setting up relu3
I0403 14:39:17.759600 17313 net.cpp:148] Top shape: 100 384 13 13 (6489600)
I0403 14:39:17.759616 17313 net.cpp:156] Memory required for data: 731481200
I0403 14:39:17.759632 17313 layer_factory.hpp:77] Creating layer conv4
I0403 14:39:17.759659 17313 net.cpp:91] Creating Layer conv4
I0403 14:39:17.759676 17313 net.cpp:425] conv4 <- conv3
I0403 14:39:17.759696 17313 net.cpp:399] conv4 -> conv4
I0403 14:39:17.791311 17313 net.cpp:141] Setting up conv4
I0403 14:39:17.791390 17313 net.cpp:148] Top shape: 100 384 13 13 (6489600)
I0403 14:39:17.791440 17313 net.cpp:156] Memory required for data: 757439600
I0403 14:39:17.791462 17313 layer_factory.hpp:77] Creating layer relu4
I0403 14:39:17.791487 17313 net.cpp:91] Creating Layer relu4
I0403 14:39:17.791507 17313 net.cpp:425] relu4 <- conv4
I0403 14:39:17.791527 17313 net.cpp:386] relu4 -> conv4 (in-place)
I0403 14:39:17.791816 17313 net.cpp:141] Setting up relu4
I0403 14:39:17.791843 17313 net.cpp:148] Top shape: 100 384 13 13 (6489600)
I0403 14:39:17.791859 17313 net.cpp:156] Memory required for data: 783398000
I0403 14:39:17.791875 17313 layer_factory.hpp:77] Creating layer conv5
I0403 14:39:17.791904 17313 net.cpp:91] Creating Layer conv5
I0403 14:39:17.791923 17313 net.cpp:425] conv5 <- conv4
I0403 14:39:17.791942 17313 net.cpp:399] conv5 -> conv5
I0403 14:39:17.813688 17313 net.cpp:141] Setting up conv5
I0403 14:39:17.813753 17313 net.cpp:148] Top shape: 100 256 13 13 (4326400)
I0403 14:39:17.813771 17313 net.cpp:156] Memory required for data: 800703600
I0403 14:39:17.813796 17313 layer_factory.hpp:77] Creating layer relu5
I0403 14:39:17.813818 17313 net.cpp:91] Creating Layer relu5
I0403 14:39:17.813835 17313 net.cpp:425] relu5 <- conv5
I0403 14:39:17.813859 17313 net.cpp:386] relu5 -> conv5 (in-place)
I0403 14:39:17.814198 17313 net.cpp:141] Setting up relu5
I0403 14:39:17.814234 17313 net.cpp:148] Top shape: 100 256 13 13 (4326400)
I0403 14:39:17.814250 17313 net.cpp:156] Memory required for data: 818009200
I0403 14:39:17.814265 17313 layer_factory.hpp:77] Creating layer pool5
I0403 14:39:17.814286 17313 net.cpp:91] Creating Layer pool5
I0403 14:39:17.814303 17313 net.cpp:425] pool5 <- conv5
I0403 14:39:17.814324 17313 net.cpp:399] pool5 -> pool5
I0403 14:39:17.814386 17313 net.cpp:141] Setting up pool5
I0403 14:39:17.814410 17313 net.cpp:148] Top shape: 100 256 6 6 (921600)
I0403 14:39:17.814425 17313 net.cpp:156] Memory required for data: 821695600
I0403 14:39:17.814440 17313 layer_factory.hpp:77] Creating layer fc6
I0403 14:39:17.814471 17313 net.cpp:91] Creating Layer fc6
I0403 14:39:17.814489 17313 net.cpp:425] fc6 <- pool5
I0403 14:39:17.814517 17313 net.cpp:399] fc6 -> fc6
I0403 14:39:19.485620 17313 net.cpp:141] Setting up fc6
I0403 14:39:19.485658 17313 net.cpp:148] Top shape: 100 4096 (409600)
I0403 14:39:19.485674 17313 net.cpp:156] Memory required for data: 823334000
I0403 14:39:19.485693 17313 layer_factory.hpp:77] Creating layer relu6
I0403 14:39:19.485718 17313 net.cpp:91] Creating Layer relu6
I0403 14:39:19.485734 17313 net.cpp:425] relu6 <- fc6
I0403 14:39:19.485754 17313 net.cpp:386] relu6 -> fc6 (in-place)
I0403 14:39:19.485962 17313 net.cpp:141] Setting up relu6
I0403 14:39:19.485996 17313 net.cpp:148] Top shape: 100 4096 (409600)
I0403 14:39:19.486013 17313 net.cpp:156] Memory required for data: 824972400
I0403 14:39:19.486028 17313 layer_factory.hpp:77] Creating layer drop6
I0403 14:39:19.486047 17313 net.cpp:91] Creating Layer drop6
I0403 14:39:19.486063 17313 net.cpp:425] drop6 <- fc6
I0403 14:39:19.486079 17313 net.cpp:386] drop6 -> fc6 (in-place)
I0403 14:39:19.486130 17313 net.cpp:141] Setting up drop6
I0403 14:39:19.486151 17313 net.cpp:148] Top shape: 100 4096 (409600)
I0403 14:39:19.486165 17313 net.cpp:156] Memory required for data: 826610800
I0403 14:39:19.486177 17313 layer_factory.hpp:77] Creating layer fc7
I0403 14:39:19.486198 17313 net.cpp:91] Creating Layer fc7
I0403 14:39:19.486214 17313 net.cpp:425] fc7 <- fc6
I0403 14:39:19.486230 17313 net.cpp:399] fc7 -> fc7
I0403 14:39:20.214195 17313 net.cpp:141] Setting up fc7
I0403 14:39:20.214246 17313 net.cpp:148] Top shape: 100 4096 (409600)
I0403 14:39:20.214260 17313 net.cpp:156] Memory required for data: 828249200
I0403 14:39:20.214282 17313 layer_factory.hpp:77] Creating layer relu7
I0403 14:39:20.214305 17313 net.cpp:91] Creating Layer relu7
I0403 14:39:20.214323 17313 net.cpp:425] relu7 <- fc7
I0403 14:39:20.214342 17313 net.cpp:386] relu7 -> fc7 (in-place)
I0403 14:39:20.214756 17313 net.cpp:141] Setting up relu7
I0403 14:39:20.214784 17313 net.cpp:148] Top shape: 100 4096 (409600)
I0403 14:39:20.214831 17313 net.cpp:156] Memory required for data: 829887600
I0403 14:39:20.214848 17313 layer_factory.hpp:77] Creating layer drop7
I0403 14:39:20.214866 17313 net.cpp:91] Creating Layer drop7
I0403 14:39:20.214881 17313 net.cpp:425] drop7 <- fc7
I0403 14:39:20.214900 17313 net.cpp:386] drop7 -> fc7 (in-place)
I0403 14:39:20.214942 17313 net.cpp:141] Setting up drop7
I0403 14:39:20.214964 17313 net.cpp:148] Top shape: 100 4096 (409600)
I0403 14:39:20.214978 17313 net.cpp:156] Memory required for data: 831526000
I0403 14:39:20.214999 17313 layer_factory.hpp:77] Creating layer fc8_plantvillage
I0403 14:39:20.215034 17313 net.cpp:91] Creating Layer fc8_plantvillage
I0403 14:39:20.215051 17313 net.cpp:425] fc8_plantvillage <- fc7
I0403 14:39:20.215072 17313 net.cpp:399] fc8_plantvillage -> fc8_plantvillage
I0403 14:39:20.222138 17313 net.cpp:141] Setting up fc8_plantvillage
I0403 14:39:20.222167 17313 net.cpp:148] Top shape: 100 38 (3800)
I0403 14:39:20.222182 17313 net.cpp:156] Memory required for data: 831541200
I0403 14:39:20.222198 17313 layer_factory.hpp:77] Creating layer fc8_plantvillage_fc8_plantvillage_0_split
I0403 14:39:20.222215 17313 net.cpp:91] Creating Layer fc8_plantvillage_fc8_plantvillage_0_split
I0403 14:39:20.222230 17313 net.cpp:425] fc8_plantvillage_fc8_plantvillage_0_split <- fc8_plantvillage
I0403 14:39:20.222249 17313 net.cpp:399] fc8_plantvillage_fc8_plantvillage_0_split -> fc8_plantvillage_fc8_plantvillage_0_split_0
I0403 14:39:20.222270 17313 net.cpp:399] fc8_plantvillage_fc8_plantvillage_0_split -> fc8_plantvillage_fc8_plantvillage_0_split_1
I0403 14:39:20.222287 17313 net.cpp:399] fc8_plantvillage_fc8_plantvillage_0_split -> fc8_plantvillage_fc8_plantvillage_0_split_2
I0403 14:39:20.222362 17313 net.cpp:141] Setting up fc8_plantvillage_fc8_plantvillage_0_split
I0403 14:39:20.222384 17313 net.cpp:148] Top shape: 100 38 (3800)
I0403 14:39:20.222399 17313 net.cpp:148] Top shape: 100 38 (3800)
I0403 14:39:20.222414 17313 net.cpp:148] Top shape: 100 38 (3800)
I0403 14:39:20.222426 17313 net.cpp:156] Memory required for data: 831586800
I0403 14:39:20.222440 17313 layer_factory.hpp:77] Creating layer prob
I0403 14:39:20.222457 17313 net.cpp:91] Creating Layer prob
I0403 14:39:20.222471 17313 net.cpp:425] prob <- fc8_plantvillage_fc8_plantvillage_0_split_0
I0403 14:39:20.222488 17313 net.cpp:399] prob -> prob
I0403 14:39:20.222709 17313 net.cpp:141] Setting up prob
I0403 14:39:20.222736 17313 net.cpp:148] Top shape: 100 38 (3800)
I0403 14:39:20.222751 17313 net.cpp:156] Memory required for data: 831602000
I0403 14:39:20.222765 17313 layer_factory.hpp:77] Creating layer hdf5out
I0403 14:39:20.222782 17313 net.cpp:91] Creating Layer hdf5out
I0403 14:39:20.222797 17313 net.cpp:425] hdf5out <- prob
I0403 14:39:20.222812 17313 net.cpp:425] hdf5out <- label_data_1_split_0
I0403 14:39:20.225047 17313 net.cpp:141] Setting up hdf5out
…
