…
I0403 14:45:03.243767 17488 net.cpp:313] The NetState phase (1) differed from the phase (0) specified by a rule in layer data
I0403 14:45:03.244098 17488 net.cpp:49] Initializing net from parameters: 
state {
  phase: TEST
}
layer {
  name: "data"
  type: "Data"
  top: "data"
  top: "label"
  include {
    phase: TEST
  }
  transform_param {
    crop_size: 227
    mean_file: "/home/mohanty/data/final_dataset/lmdb/segmented-60-40/mean.binaryproto"
  }
  data_param {
    source: "/home/mohanty/data/final_dataset/lmdb/segmented-60-40/test_db"
    batch_size: 100
    backend: LMDB
  }
}
layer {
  name: "conv1"
  type: "Convolution"
  bottom: "data"
  top: "conv1"
  param {
    lr_mult: 1
    decay_mult: 1
  }
  param {
    lr_mult: 2
    decay_mult: 0
  }
  convolution_param {
    num_output: 96
    kernel_size: 11
    stride: 4
    weight_filler {
      type: "gaussian"
      std: 0.01
    }
    bias_filler {
      type: "constant"
      value: 0
    }
  }
}
layer {
  name: "relu1"
  type: "ReLU"
  bottom: "conv1"
  top: "conv1"
}
layer {
  name: "norm1"
  type: "LRN"
  bottom: "conv1"
  top: "norm1"
  lrn_param {
    local_size: 5
    alpha: 0.0001
    beta: 0.75
  }
}
layer {
  name: "pool1"
  type: "Pooling"
  bottom: "norm1"
  top: "pool1"
  pooling_param {
    pool: MAX
    kernel_size: 3
    stride: 2
  }
}
layer {
  name: "conv2"
  type: "Convolution"
  bottom: "pool1"
  top: "conv2"
  param {
    lr_mult: 1
    decay_mult: 1
  }
  param {
    lr_mult: 2
    decay_mult: 0
  }
  convolution_param {
    num_output: 256
    pad: 2
    kernel_size: 5
    group: 2
    weight_filler {
      type: "gaussian"
      std: 0.01
    }
    bias_filler {
      type: "constant"
      value: 0.1
    }
  }
}
layer {
  name: "relu2"
  type: "ReLU"
  bottom: "conv2"
  top: "conv2"
}
layer {
  name: "norm2"
  type: "LRN"
  bottom: "conv2"
  top: "norm2"
  lrn_param {
    local_size: 5
    alpha: 0.0001
    beta: 0.75
  }
}
layer {
  name: "pool2"
  type: "Pooling"
  bottom: "norm2"
  top: "pool2"
  pooling_param {
    pool: MAX
    kernel_size: 3
    stride: 2
  }
}
layer {
  name: "conv3"
  type: "Convolution"
  bottom: "pool2"
  top: "conv3"
  param {
    lr_mult: 1
    decay_mult: 1
  }
  param {
    lr_mult: 2
    decay_mult: 0
  }
  convolution_param {
    num_output: 384
    pad: 1
    kernel_size: 3
    weight_filler {
      type: "gaussian"
      std: 0.01
    }
    bias_filler {
      type: "constant"
      value: 0
    }
  }
}
layer {
  name: "relu3"
  type: "ReLU"
  bottom: "conv3"
  top: "conv3"
}
layer {
  name: "conv4"
  type: "Convolution"
  bottom: "conv3"
  top: "conv4"
  param {
    lr_mult: 1
    decay_mult: 1
  }
  param {
    lr_mult: 2
    decay_mult: 0
  }
  convolution_param {
    num_output: 384
    pad: 1
    kernel_size: 3
    group: 2
    weight_filler {
      type: "gaussian"
      std: 0.01
    }
    bias_filler {
      type: "constant"
      value: 0.1
    }
  }
}
layer {
  name: "relu4"
  type: "ReLU"
  bottom: "conv4"
  top: "conv4"
}
layer {
  name: "conv5"
  type: "Convolution"
  bottom: "conv4"
  top: "conv5"
  param {
    lr_mult: 1
    decay_mult: 1
  }
  param {
    lr_mult: 2
    decay_mult: 0
  }
  convolution_param {
    num_output: 256
    pad: 1
    kernel_size: 3
    group: 2
    weight_filler {
      type: "gaussian"
      std: 0.01
    }
    bias_filler {
      type: "constant"
      value: 0.1
    }
  }
}
layer {
  name: "relu5"
  type: "ReLU"
  bottom: "conv5"
  top: "conv5"
}
layer {
  name: "pool5"
  type: "Pooling"
  bottom: "conv5"
  top: "pool5"
  pooling_param {
    pool: MAX
    kernel_size: 3
    stride: 2
  }
}
layer {
  name: "fc6"
  type: "InnerProduct"
  bottom: "pool5"
  top: "fc6"
  param {
    lr_mult: 1
    decay_mult: 1
  }
  param {
    lr_mult: 2
    decay_mult: 0
  }
  inner_product_param {
    num_output: 4096
    weight_filler {
      type: "gaussian"
      std: 0.005
    }
    bias_filler {
      type: "constant"
      value: 0.1
    }
  }
}
layer {
  name: "relu6"
  type: "ReLU"
  bottom: "fc6"
  top: "fc6"
}
layer {
  name: "drop6"
  type: "Dropout"
  bottom: "fc6"
  top: "fc6"
  dropout_param {
    dropout_ratio: 0.5
  }
}
layer {
  name: "fc7"
  type: "InnerProduct"
  bottom: "fc6"
  top: "fc7"
  param {
    lr_mult: 1
    decay_mult: 1
  }
  param {
    lr_mult: 2
    decay_mult: 0
  }
  inner_product_param {
    num_output: 4096
    weight_filler {
      type: "gaussian"
      std: 0.005
    }
    bias_filler {
      type: "constant"
      value: 0.1
    }
  }
}
layer {
  name: "relu7"
  type: "ReLU"
  bottom: "fc7"
  top: "fc7"
}
layer {
  name: "drop7"
  type: "Dropout"
  bottom: "fc7"
  top: "fc7"
  dropout_param {
    dropout_ratio: 0.5
  }
}
layer {
  name: "fc8_plantvillage"
  type: "InnerProduct"
  bottom: "fc7"
  top: "fc8_plantvillage"
  param {
    lr_mult: 1
    decay_mult: 1
  }
  param {
    lr_mult: 2
    decay_mult: 0
  }
  inner_product_param {
    num_output: 38
    weight_filler {
      type: "gaussian"
      std: 0.01
    }
    bias_filler {
      type: "constant"
      value: 0
    }
  }
}
layer {
  name: "prob"
  type: "Softmax"
  bottom: "fc8_plantvillage"
  top: "prob"
  include {
    phase: TEST
  }
}
layer {
  name: "hdf5out"
  type: "HDF5Output"
  bottom: "prob"
  bottom: "label"
  include {
    phase: TEST
  }
  hdf5_output_param {
    file_name: "hdf5_dumps/iter_8775.h5"
  }
}
layer {
  name: "loss"
  type: "SoftmaxWithLoss"
  bottom: "fc8_plantvillage"
  bottom: "label"
  top: "loss"
}
layer {
  name: "accuracy"
  type: "Accuracy"
  bottom: "fc8_plantvillage"
  bottom: "label"
  top: "accuracy"
  include {
    phase: TEST
  }
}
I0403 14:45:03.244681 17488 layer_factory.hpp:77] Creating layer data
I0403 14:45:03.245326 17488 net.cpp:91] Creating Layer data
I0403 14:45:03.245370 17488 net.cpp:399] data -> data
I0403 14:45:03.245422 17488 net.cpp:399] data -> label
I0403 14:45:03.245460 17488 data_transformer.cpp:25] Loading mean file from: /home/mohanty/data/final_dataset/lmdb/segmented-60-40/mean.binaryproto
I0403 14:45:03.246615 17492 db_lmdb.cpp:38] Opened lmdb /home/mohanty/data/final_dataset/lmdb/segmented-60-40/test_db
I0403 14:45:03.259963 17488 data_layer.cpp:41] output data size: 100,3,227,227
I0403 14:45:03.396440 17488 net.cpp:141] Setting up data
I0403 14:45:03.396549 17488 net.cpp:148] Top shape: 100 3 227 227 (15458700)
I0403 14:45:03.396572 17488 net.cpp:148] Top shape: 100 (100)
I0403 14:45:03.396587 17488 net.cpp:156] Memory required for data: 61835200
I0403 14:45:03.396616 17488 layer_factory.hpp:77] Creating layer label_data_1_split
I0403 14:45:03.396643 17488 net.cpp:91] Creating Layer label_data_1_split
I0403 14:45:03.396661 17488 net.cpp:425] label_data_1_split <- label
I0403 14:45:03.396695 17488 net.cpp:399] label_data_1_split -> label_data_1_split_0
I0403 14:45:03.396723 17488 net.cpp:399] label_data_1_split -> label_data_1_split_1
I0403 14:45:03.396744 17488 net.cpp:399] label_data_1_split -> label_data_1_split_2
I0403 14:45:03.396811 17488 net.cpp:141] Setting up label_data_1_split
I0403 14:45:03.396836 17488 net.cpp:148] Top shape: 100 (100)
I0403 14:45:03.396853 17488 net.cpp:148] Top shape: 100 (100)
I0403 14:45:03.396869 17488 net.cpp:148] Top shape: 100 (100)
I0403 14:45:03.396884 17488 net.cpp:156] Memory required for data: 61836400
I0403 14:45:03.396900 17488 layer_factory.hpp:77] Creating layer conv1
I0403 14:45:03.396932 17488 net.cpp:91] Creating Layer conv1
I0403 14:45:03.396952 17488 net.cpp:425] conv1 <- data
I0403 14:45:03.396978 17488 net.cpp:399] conv1 -> conv1
I0403 14:45:03.545030 17488 net.cpp:141] Setting up conv1
I0403 14:45:03.545130 17488 net.cpp:148] Top shape: 100 96 55 55 (29040000)
I0403 14:45:03.545147 17488 net.cpp:156] Memory required for data: 177996400
I0403 14:45:03.545179 17488 layer_factory.hpp:77] Creating layer relu1
I0403 14:45:03.545207 17488 net.cpp:91] Creating Layer relu1
I0403 14:45:03.545225 17488 net.cpp:425] relu1 <- conv1
I0403 14:45:03.545244 17488 net.cpp:386] relu1 -> conv1 (in-place)
I0403 14:45:03.545513 17488 net.cpp:141] Setting up relu1
I0403 14:45:03.545541 17488 net.cpp:148] Top shape: 100 96 55 55 (29040000)
I0403 14:45:03.545588 17488 net.cpp:156] Memory required for data: 294156400
I0403 14:45:03.545604 17488 layer_factory.hpp:77] Creating layer norm1
I0403 14:45:03.545632 17488 net.cpp:91] Creating Layer norm1
I0403 14:45:03.545650 17488 net.cpp:425] norm1 <- conv1
I0403 14:45:03.545670 17488 net.cpp:399] norm1 -> norm1
I0403 14:45:03.546005 17488 net.cpp:141] Setting up norm1
I0403 14:45:03.546031 17488 net.cpp:148] Top shape: 100 96 55 55 (29040000)
I0403 14:45:03.546047 17488 net.cpp:156] Memory required for data: 410316400
I0403 14:45:03.546063 17488 layer_factory.hpp:77] Creating layer pool1
I0403 14:45:03.546085 17488 net.cpp:91] Creating Layer pool1
I0403 14:45:03.546103 17488 net.cpp:425] pool1 <- norm1
I0403 14:45:03.546123 17488 net.cpp:399] pool1 -> pool1
I0403 14:45:03.546229 17488 net.cpp:141] Setting up pool1
I0403 14:45:03.546255 17488 net.cpp:148] Top shape: 100 96 27 27 (6998400)
I0403 14:45:03.546272 17488 net.cpp:156] Memory required for data: 438310000
I0403 14:45:03.546286 17488 layer_factory.hpp:77] Creating layer conv2
I0403 14:45:03.546314 17488 net.cpp:91] Creating Layer conv2
I0403 14:45:03.546332 17488 net.cpp:425] conv2 <- pool1
I0403 14:45:03.546351 17488 net.cpp:399] conv2 -> conv2
I0403 14:45:03.562103 17488 net.cpp:141] Setting up conv2
I0403 14:45:03.562166 17488 net.cpp:148] Top shape: 100 256 27 27 (18662400)
I0403 14:45:03.562185 17488 net.cpp:156] Memory required for data: 512959600
I0403 14:45:03.562208 17488 layer_factory.hpp:77] Creating layer relu2
I0403 14:45:03.562228 17488 net.cpp:91] Creating Layer relu2
I0403 14:45:03.562245 17488 net.cpp:425] relu2 <- conv2
I0403 14:45:03.562265 17488 net.cpp:386] relu2 -> conv2 (in-place)
I0403 14:45:03.562556 17488 net.cpp:141] Setting up relu2
I0403 14:45:03.562583 17488 net.cpp:148] Top shape: 100 256 27 27 (18662400)
I0403 14:45:03.562598 17488 net.cpp:156] Memory required for data: 587609200
I0403 14:45:03.562614 17488 layer_factory.hpp:77] Creating layer norm2
I0403 14:45:03.562638 17488 net.cpp:91] Creating Layer norm2
I0403 14:45:03.562655 17488 net.cpp:425] norm2 <- conv2
I0403 14:45:03.562674 17488 net.cpp:399] norm2 -> norm2
I0403 14:45:03.562870 17488 net.cpp:141] Setting up norm2
I0403 14:45:03.562897 17488 net.cpp:148] Top shape: 100 256 27 27 (18662400)
I0403 14:45:03.562914 17488 net.cpp:156] Memory required for data: 662258800
I0403 14:45:03.562929 17488 layer_factory.hpp:77] Creating layer pool2
I0403 14:45:03.562947 17488 net.cpp:91] Creating Layer pool2
I0403 14:45:03.562970 17488 net.cpp:425] pool2 <- norm2
I0403 14:45:03.562991 17488 net.cpp:399] pool2 -> pool2
I0403 14:45:03.563045 17488 net.cpp:141] Setting up pool2
I0403 14:45:03.563071 17488 net.cpp:148] Top shape: 100 256 13 13 (4326400)
I0403 14:45:03.563086 17488 net.cpp:156] Memory required for data: 679564400
I0403 14:45:03.563102 17488 layer_factory.hpp:77] Creating layer conv3
I0403 14:45:03.563125 17488 net.cpp:91] Creating Layer conv3
I0403 14:45:03.563143 17488 net.cpp:425] conv3 <- pool2
I0403 14:45:03.563160 17488 net.cpp:399] conv3 -> conv3
I0403 14:45:03.603536 17488 net.cpp:141] Setting up conv3
I0403 14:45:03.603620 17488 net.cpp:148] Top shape: 100 384 13 13 (6489600)
I0403 14:45:03.603636 17488 net.cpp:156] Memory required for data: 705522800
I0403 14:45:03.603662 17488 layer_factory.hpp:77] Creating layer relu3
I0403 14:45:03.603684 17488 net.cpp:91] Creating Layer relu3
I0403 14:45:03.603701 17488 net.cpp:425] relu3 <- conv3
I0403 14:45:03.603724 17488 net.cpp:386] relu3 -> conv3 (in-place)
I0403 14:45:03.604010 17488 net.cpp:141] Setting up relu3
I0403 14:45:03.604038 17488 net.cpp:148] Top shape: 100 384 13 13 (6489600)
I0403 14:45:03.604053 17488 net.cpp:156] Memory required for data: 731481200
I0403 14:45:03.604079 17488 layer_factory.hpp:77] Creating layer conv4
I0403 14:45:03.604104 17488 net.cpp:91] Creating Layer conv4
I0403 14:45:03.604132 17488 net.cpp:425] conv4 <- conv3
I0403 14:45:03.604153 17488 net.cpp:399] conv4 -> conv4
I0403 14:45:03.635721 17488 net.cpp:141] Setting up conv4
I0403 14:45:03.635763 17488 net.cpp:148] Top shape: 100 384 13 13 (6489600)
I0403 14:45:03.635812 17488 net.cpp:156] Memory required for data: 757439600
I0403 14:45:03.635833 17488 layer_factory.hpp:77] Creating layer relu4
I0403 14:45:03.635856 17488 net.cpp:91] Creating Layer relu4
I0403 14:45:03.635874 17488 net.cpp:425] relu4 <- conv4
I0403 14:45:03.635891 17488 net.cpp:386] relu4 -> conv4 (in-place)
I0403 14:45:03.636188 17488 net.cpp:141] Setting up relu4
I0403 14:45:03.636216 17488 net.cpp:148] Top shape: 100 384 13 13 (6489600)
I0403 14:45:03.636232 17488 net.cpp:156] Memory required for data: 783398000
I0403 14:45:03.636247 17488 layer_factory.hpp:77] Creating layer conv5
I0403 14:45:03.636273 17488 net.cpp:91] Creating Layer conv5
I0403 14:45:03.636291 17488 net.cpp:425] conv5 <- conv4
I0403 14:45:03.636309 17488 net.cpp:399] conv5 -> conv5
I0403 14:45:03.657865 17488 net.cpp:141] Setting up conv5
I0403 14:45:03.657938 17488 net.cpp:148] Top shape: 100 256 13 13 (4326400)
I0403 14:45:03.657960 17488 net.cpp:156] Memory required for data: 800703600
I0403 14:45:03.657987 17488 layer_factory.hpp:77] Creating layer relu5
I0403 14:45:03.658010 17488 net.cpp:91] Creating Layer relu5
I0403 14:45:03.658026 17488 net.cpp:425] relu5 <- conv5
I0403 14:45:03.658047 17488 net.cpp:386] relu5 -> conv5 (in-place)
I0403 14:45:03.658331 17488 net.cpp:141] Setting up relu5
I0403 14:45:03.658357 17488 net.cpp:148] Top shape: 100 256 13 13 (4326400)
I0403 14:45:03.658373 17488 net.cpp:156] Memory required for data: 818009200
I0403 14:45:03.658388 17488 layer_factory.hpp:77] Creating layer pool5
I0403 14:45:03.658413 17488 net.cpp:91] Creating Layer pool5
I0403 14:45:03.658430 17488 net.cpp:425] pool5 <- conv5
I0403 14:45:03.658448 17488 net.cpp:399] pool5 -> pool5
I0403 14:45:03.658512 17488 net.cpp:141] Setting up pool5
I0403 14:45:03.658536 17488 net.cpp:148] Top shape: 100 256 6 6 (921600)
I0403 14:45:03.658551 17488 net.cpp:156] Memory required for data: 821695600
I0403 14:45:03.658566 17488 layer_factory.hpp:77] Creating layer fc6
I0403 14:45:03.658592 17488 net.cpp:91] Creating Layer fc6
I0403 14:45:03.658609 17488 net.cpp:425] fc6 <- pool5
I0403 14:45:03.658630 17488 net.cpp:399] fc6 -> fc6
I0403 14:45:05.221436 17488 net.cpp:141] Setting up fc6
I0403 14:45:05.221529 17488 net.cpp:148] Top shape: 100 4096 (409600)
I0403 14:45:05.221545 17488 net.cpp:156] Memory required for data: 823334000
I0403 14:45:05.221567 17488 layer_factory.hpp:77] Creating layer relu6
I0403 14:45:05.221590 17488 net.cpp:91] Creating Layer relu6
I0403 14:45:05.221607 17488 net.cpp:425] relu6 <- fc6
I0403 14:45:05.221626 17488 net.cpp:386] relu6 -> fc6 (in-place)
I0403 14:45:05.221853 17488 net.cpp:141] Setting up relu6
I0403 14:45:05.221879 17488 net.cpp:148] Top shape: 100 4096 (409600)
I0403 14:45:05.221892 17488 net.cpp:156] Memory required for data: 824972400
I0403 14:45:05.221907 17488 layer_factory.hpp:77] Creating layer drop6
I0403 14:45:05.221925 17488 net.cpp:91] Creating Layer drop6
I0403 14:45:05.221941 17488 net.cpp:425] drop6 <- fc6
I0403 14:45:05.221966 17488 net.cpp:386] drop6 -> fc6 (in-place)
I0403 14:45:05.222018 17488 net.cpp:141] Setting up drop6
I0403 14:45:05.222040 17488 net.cpp:148] Top shape: 100 4096 (409600)
I0403 14:45:05.222055 17488 net.cpp:156] Memory required for data: 826610800
I0403 14:45:05.222069 17488 layer_factory.hpp:77] Creating layer fc7
I0403 14:45:05.222091 17488 net.cpp:91] Creating Layer fc7
I0403 14:45:05.222108 17488 net.cpp:425] fc7 <- fc6
I0403 14:45:05.222128 17488 net.cpp:399] fc7 -> fc7
I0403 14:45:05.915630 17488 net.cpp:141] Setting up fc7
I0403 14:45:05.915719 17488 net.cpp:148] Top shape: 100 4096 (409600)
I0403 14:45:05.915735 17488 net.cpp:156] Memory required for data: 828249200
I0403 14:45:05.915756 17488 layer_factory.hpp:77] Creating layer relu7
I0403 14:45:05.915779 17488 net.cpp:91] Creating Layer relu7
I0403 14:45:05.915796 17488 net.cpp:425] relu7 <- fc7
I0403 14:45:05.915818 17488 net.cpp:386] relu7 -> fc7 (in-place)
I0403 14:45:05.916244 17488 net.cpp:141] Setting up relu7
I0403 14:45:05.916270 17488 net.cpp:148] Top shape: 100 4096 (409600)
I0403 14:45:05.916318 17488 net.cpp:156] Memory required for data: 829887600
I0403 14:45:05.916334 17488 layer_factory.hpp:77] Creating layer drop7
I0403 14:45:05.916353 17488 net.cpp:91] Creating Layer drop7
I0403 14:45:05.916369 17488 net.cpp:425] drop7 <- fc7
I0403 14:45:05.916389 17488 net.cpp:386] drop7 -> fc7 (in-place)
I0403 14:45:05.916434 17488 net.cpp:141] Setting up drop7
I0403 14:45:05.916460 17488 net.cpp:148] Top shape: 100 4096 (409600)
I0403 14:45:05.916474 17488 net.cpp:156] Memory required for data: 831526000
I0403 14:45:05.916488 17488 layer_factory.hpp:77] Creating layer fc8_plantvillage
I0403 14:45:05.916508 17488 net.cpp:91] Creating Layer fc8_plantvillage
I0403 14:45:05.916524 17488 net.cpp:425] fc8_plantvillage <- fc7
I0403 14:45:05.916544 17488 net.cpp:399] fc8_plantvillage -> fc8_plantvillage
I0403 14:45:05.923491 17488 net.cpp:141] Setting up fc8_plantvillage
I0403 14:45:05.923518 17488 net.cpp:148] Top shape: 100 38 (3800)
I0403 14:45:05.923534 17488 net.cpp:156] Memory required for data: 831541200
I0403 14:45:05.923553 17488 layer_factory.hpp:77] Creating layer fc8_plantvillage_fc8_plantvillage_0_split
I0403 14:45:05.923573 17488 net.cpp:91] Creating Layer fc8_plantvillage_fc8_plantvillage_0_split
I0403 14:45:05.923588 17488 net.cpp:425] fc8_plantvillage_fc8_plantvillage_0_split <- fc8_plantvillage
I0403 14:45:05.923609 17488 net.cpp:399] fc8_plantvillage_fc8_plantvillage_0_split -> fc8_plantvillage_fc8_plantvillage_0_split_0
I0403 14:45:05.923629 17488 net.cpp:399] fc8_plantvillage_fc8_plantvillage_0_split -> fc8_plantvillage_fc8_plantvillage_0_split_1
I0403 14:45:05.923648 17488 net.cpp:399] fc8_plantvillage_fc8_plantvillage_0_split -> fc8_plantvillage_fc8_plantvillage_0_split_2
I0403 14:45:05.923727 17488 net.cpp:141] Setting up fc8_plantvillage_fc8_plantvillage_0_split
I0403 14:45:05.923753 17488 net.cpp:148] Top shape: 100 38 (3800)
I0403 14:45:05.923770 17488 net.cpp:148] Top shape: 100 38 (3800)
I0403 14:45:05.923785 17488 net.cpp:148] Top shape: 100 38 (3800)
I0403 14:45:05.923799 17488 net.cpp:156] Memory required for data: 831586800
I0403 14:45:05.923815 17488 layer_factory.hpp:77] Creating layer prob
I0403 14:45:05.923832 17488 net.cpp:91] Creating Layer prob
I0403 14:45:05.923848 17488 net.cpp:425] prob <- fc8_plantvillage_fc8_plantvillage_0_split_0
I0403 14:45:05.923866 17488 net.cpp:399] prob -> prob
I0403 14:45:05.924103 17488 net.cpp:141] Setting up prob
I0403 14:45:05.924129 17488 net.cpp:148] Top shape: 100 38 (3800)
I0403 14:45:05.924144 17488 net.cpp:156] Memory required for data: 831602000
I0403 14:45:05.924159 17488 layer_factory.hpp:77] Creating layer hdf5out
I0403 14:45:05.924178 17488 net.cpp:91] Creating Layer hdf5out
I0403 14:45:05.924193 17488 net.cpp:425] hdf5out <- prob
I0403 14:45:05.924211 17488 net.cpp:425] hdf5out <- label_data_1_split_0
I0403 14:45:05.926606 17488 net.cpp:141] Setting up hdf5out
…
