…
I0403 14:37:07.484642 17242 net.cpp:313] The NetState phase (1) differed from the phase (0) specified by a rule in layer data
I0403 14:37:07.484983 17242 net.cpp:49] Initializing net from parameters: 
state {
  phase: TEST
}
layer {
  name: "data"
  type: "Data"
  top: "data"
  top: "label"
  include {
    phase: TEST
  }
  transform_param {
    crop_size: 227
    mean_file: "/home/mohanty/data/final_dataset/lmdb/segmented-60-40/mean.binaryproto"
  }
  data_param {
    source: "/home/mohanty/data/final_dataset/lmdb/segmented-60-40/test_db"
    batch_size: 100
    backend: LMDB
  }
}
layer {
  name: "conv1"
  type: "Convolution"
  bottom: "data"
  top: "conv1"
  param {
    lr_mult: 1
    decay_mult: 1
  }
  param {
    lr_mult: 2
    decay_mult: 0
  }
  convolution_param {
    num_output: 96
    kernel_size: 11
    stride: 4
    weight_filler {
      type: "gaussian"
      std: 0.01
    }
    bias_filler {
      type: "constant"
      value: 0
    }
  }
}
layer {
  name: "relu1"
  type: "ReLU"
  bottom: "conv1"
  top: "conv1"
}
layer {
  name: "norm1"
  type: "LRN"
  bottom: "conv1"
  top: "norm1"
  lrn_param {
    local_size: 5
    alpha: 0.0001
    beta: 0.75
  }
}
layer {
  name: "pool1"
  type: "Pooling"
  bottom: "norm1"
  top: "pool1"
  pooling_param {
    pool: MAX
    kernel_size: 3
    stride: 2
  }
}
layer {
  name: "conv2"
  type: "Convolution"
  bottom: "pool1"
  top: "conv2"
  param {
    lr_mult: 1
    decay_mult: 1
  }
  param {
    lr_mult: 2
    decay_mult: 0
  }
  convolution_param {
    num_output: 256
    pad: 2
    kernel_size: 5
    group: 2
    weight_filler {
      type: "gaussian"
      std: 0.01
    }
    bias_filler {
      type: "constant"
      value: 0.1
    }
  }
}
layer {
  name: "relu2"
  type: "ReLU"
  bottom: "conv2"
  top: "conv2"
}
layer {
  name: "norm2"
  type: "LRN"
  bottom: "conv2"
  top: "norm2"
  lrn_param {
    local_size: 5
    alpha: 0.0001
    beta: 0.75
  }
}
layer {
  name: "pool2"
  type: "Pooling"
  bottom: "norm2"
  top: "pool2"
  pooling_param {
    pool: MAX
    kernel_size: 3
    stride: 2
  }
}
layer {
  name: "conv3"
  type: "Convolution"
  bottom: "pool2"
  top: "conv3"
  param {
    lr_mult: 1
    decay_mult: 1
  }
  param {
    lr_mult: 2
    decay_mult: 0
  }
  convolution_param {
    num_output: 384
    pad: 1
    kernel_size: 3
    weight_filler {
      type: "gaussian"
      std: 0.01
    }
    bias_filler {
      type: "constant"
      value: 0
    }
  }
}
layer {
  name: "relu3"
  type: "ReLU"
  bottom: "conv3"
  top: "conv3"
}
layer {
  name: "conv4"
  type: "Convolution"
  bottom: "conv3"
  top: "conv4"
  param {
    lr_mult: 1
    decay_mult: 1
  }
  param {
    lr_mult: 2
    decay_mult: 0
  }
  convolution_param {
    num_output: 384
    pad: 1
    kernel_size: 3
    group: 2
    weight_filler {
      type: "gaussian"
      std: 0.01
    }
    bias_filler {
      type: "constant"
      value: 0.1
    }
  }
}
layer {
  name: "relu4"
  type: "ReLU"
  bottom: "conv4"
  top: "conv4"
}
layer {
  name: "conv5"
  type: "Convolution"
  bottom: "conv4"
  top: "conv5"
  param {
    lr_mult: 1
    decay_mult: 1
  }
  param {
    lr_mult: 2
    decay_mult: 0
  }
  convolution_param {
    num_output: 256
    pad: 1
    kernel_size: 3
    group: 2
    weight_filler {
      type: "gaussian"
      std: 0.01
    }
    bias_filler {
      type: "constant"
      value: 0.1
    }
  }
}
layer {
  name: "relu5"
  type: "ReLU"
  bottom: "conv5"
  top: "conv5"
}
layer {
  name: "pool5"
  type: "Pooling"
  bottom: "conv5"
  top: "pool5"
  pooling_param {
    pool: MAX
    kernel_size: 3
    stride: 2
  }
}
layer {
  name: "fc6"
  type: "InnerProduct"
  bottom: "pool5"
  top: "fc6"
  param {
    lr_mult: 1
    decay_mult: 1
  }
  param {
    lr_mult: 2
    decay_mult: 0
  }
  inner_product_param {
    num_output: 4096
    weight_filler {
      type: "gaussian"
      std: 0.005
    }
    bias_filler {
      type: "constant"
      value: 0.1
    }
  }
}
layer {
  name: "relu6"
  type: "ReLU"
  bottom: "fc6"
  top: "fc6"
}
layer {
  name: "drop6"
  type: "Dropout"
  bottom: "fc6"
  top: "fc6"
  dropout_param {
    dropout_ratio: 0.5
  }
}
layer {
  name: "fc7"
  type: "InnerProduct"
  bottom: "fc6"
  top: "fc7"
  param {
    lr_mult: 1
    decay_mult: 1
  }
  param {
    lr_mult: 2
    decay_mult: 0
  }
  inner_product_param {
    num_output: 4096
    weight_filler {
      type: "gaussian"
      std: 0.005
    }
    bias_filler {
      type: "constant"
      value: 0.1
    }
  }
}
layer {
  name: "relu7"
  type: "ReLU"
  bottom: "fc7"
  top: "fc7"
}
layer {
  name: "drop7"
  type: "Dropout"
  bottom: "fc7"
  top: "fc7"
  dropout_param {
    dropout_ratio: 0.5
  }
}
layer {
  name: "fc8_plantvillage"
  type: "InnerProduct"
  bottom: "fc7"
  top: "fc8_plantvillage"
  param {
    lr_mult: 1
    decay_mult: 1
  }
  param {
    lr_mult: 2
    decay_mult: 0
  }
  inner_product_param {
    num_output: 38
    weight_filler {
      type: "gaussian"
      std: 0.01
    }
    bias_filler {
      type: "constant"
      value: 0
    }
  }
}
layer {
  name: "prob"
  type: "Softmax"
  bottom: "fc8_plantvillage"
  top: "prob"
  include {
    phase: TEST
  }
}
layer {
  name: "hdf5out"
  type: "HDF5Output"
  bottom: "prob"
  bottom: "label"
  include {
    phase: TEST
  }
  hdf5_output_param {
    file_name: "hdf5_dumps/iter_5200.h5"
  }
}
layer {
  name: "loss"
  type: "SoftmaxWithLoss"
  bottom: "fc8_plantvillage"
  bottom: "label"
  top: "loss"
}
layer {
  name: "accuracy"
  type: "Accuracy"
  bottom: "fc8_plantvillage"
  bottom: "label"
  top: "accuracy"
  include {
    phase: TEST
  }
}
I0403 14:37:07.485610 17242 layer_factory.hpp:77] Creating layer data
I0403 14:37:07.486296 17242 net.cpp:91] Creating Layer data
I0403 14:37:07.486330 17242 net.cpp:399] data -> data
I0403 14:37:07.486383 17242 net.cpp:399] data -> label
I0403 14:37:07.486420 17242 data_transformer.cpp:25] Loading mean file from: /home/mohanty/data/final_dataset/lmdb/segmented-60-40/mean.binaryproto
I0403 14:37:07.487617 17244 db_lmdb.cpp:38] Opened lmdb /home/mohanty/data/final_dataset/lmdb/segmented-60-40/test_db
I0403 14:37:07.501109 17242 data_layer.cpp:41] output data size: 100,3,227,227
I0403 14:37:07.638892 17242 net.cpp:141] Setting up data
I0403 14:37:07.639010 17242 net.cpp:148] Top shape: 100 3 227 227 (15458700)
I0403 14:37:07.639034 17242 net.cpp:148] Top shape: 100 (100)
I0403 14:37:07.639050 17242 net.cpp:156] Memory required for data: 61835200
I0403 14:37:07.639078 17242 layer_factory.hpp:77] Creating layer label_data_1_split
I0403 14:37:07.639103 17242 net.cpp:91] Creating Layer label_data_1_split
I0403 14:37:07.639122 17242 net.cpp:425] label_data_1_split <- label
I0403 14:37:07.639154 17242 net.cpp:399] label_data_1_split -> label_data_1_split_0
I0403 14:37:07.639183 17242 net.cpp:399] label_data_1_split -> label_data_1_split_1
I0403 14:37:07.639202 17242 net.cpp:399] label_data_1_split -> label_data_1_split_2
I0403 14:37:07.639269 17242 net.cpp:141] Setting up label_data_1_split
I0403 14:37:07.639293 17242 net.cpp:148] Top shape: 100 (100)
I0403 14:37:07.639310 17242 net.cpp:148] Top shape: 100 (100)
I0403 14:37:07.639327 17242 net.cpp:148] Top shape: 100 (100)
I0403 14:37:07.639340 17242 net.cpp:156] Memory required for data: 61836400
I0403 14:37:07.639355 17242 layer_factory.hpp:77] Creating layer conv1
I0403 14:37:07.639387 17242 net.cpp:91] Creating Layer conv1
I0403 14:37:07.639405 17242 net.cpp:425] conv1 <- data
I0403 14:37:07.639425 17242 net.cpp:399] conv1 -> conv1
I0403 14:37:07.808430 17242 net.cpp:141] Setting up conv1
I0403 14:37:07.808523 17242 net.cpp:148] Top shape: 100 96 55 55 (29040000)
I0403 14:37:07.808540 17242 net.cpp:156] Memory required for data: 177996400
I0403 14:37:07.808573 17242 layer_factory.hpp:77] Creating layer relu1
I0403 14:37:07.808601 17242 net.cpp:91] Creating Layer relu1
I0403 14:37:07.808619 17242 net.cpp:425] relu1 <- conv1
I0403 14:37:07.808640 17242 net.cpp:386] relu1 -> conv1 (in-place)
I0403 14:37:07.808915 17242 net.cpp:141] Setting up relu1
I0403 14:37:07.808943 17242 net.cpp:148] Top shape: 100 96 55 55 (29040000)
I0403 14:37:07.809007 17242 net.cpp:156] Memory required for data: 294156400
I0403 14:37:07.809026 17242 layer_factory.hpp:77] Creating layer norm1
I0403 14:37:07.809054 17242 net.cpp:91] Creating Layer norm1
I0403 14:37:07.809073 17242 net.cpp:425] norm1 <- conv1
I0403 14:37:07.809092 17242 net.cpp:399] norm1 -> norm1
I0403 14:37:07.809428 17242 net.cpp:141] Setting up norm1
I0403 14:37:07.809458 17242 net.cpp:148] Top shape: 100 96 55 55 (29040000)
I0403 14:37:07.809474 17242 net.cpp:156] Memory required for data: 410316400
I0403 14:37:07.809490 17242 layer_factory.hpp:77] Creating layer pool1
I0403 14:37:07.809514 17242 net.cpp:91] Creating Layer pool1
I0403 14:37:07.809531 17242 net.cpp:425] pool1 <- norm1
I0403 14:37:07.809550 17242 net.cpp:399] pool1 -> pool1
I0403 14:37:07.809620 17242 net.cpp:141] Setting up pool1
I0403 14:37:07.809645 17242 net.cpp:148] Top shape: 100 96 27 27 (6998400)
I0403 14:37:07.809660 17242 net.cpp:156] Memory required for data: 438310000
I0403 14:37:07.809675 17242 layer_factory.hpp:77] Creating layer conv2
I0403 14:37:07.809700 17242 net.cpp:91] Creating Layer conv2
I0403 14:37:07.809718 17242 net.cpp:425] conv2 <- pool1
I0403 14:37:07.809736 17242 net.cpp:399] conv2 -> conv2
I0403 14:37:07.831375 17242 net.cpp:141] Setting up conv2
I0403 14:37:07.831426 17242 net.cpp:148] Top shape: 100 256 27 27 (18662400)
I0403 14:37:07.831444 17242 net.cpp:156] Memory required for data: 512959600
I0403 14:37:07.831470 17242 layer_factory.hpp:77] Creating layer relu2
I0403 14:37:07.831490 17242 net.cpp:91] Creating Layer relu2
I0403 14:37:07.831506 17242 net.cpp:425] relu2 <- conv2
I0403 14:37:07.831523 17242 net.cpp:386] relu2 -> conv2 (in-place)
I0403 14:37:07.831818 17242 net.cpp:141] Setting up relu2
I0403 14:37:07.831848 17242 net.cpp:148] Top shape: 100 256 27 27 (18662400)
I0403 14:37:07.831864 17242 net.cpp:156] Memory required for data: 587609200
I0403 14:37:07.831879 17242 layer_factory.hpp:77] Creating layer norm2
I0403 14:37:07.831900 17242 net.cpp:91] Creating Layer norm2
I0403 14:37:07.831917 17242 net.cpp:425] norm2 <- conv2
I0403 14:37:07.831936 17242 net.cpp:399] norm2 -> norm2
I0403 14:37:07.832154 17242 net.cpp:141] Setting up norm2
I0403 14:37:07.832181 17242 net.cpp:148] Top shape: 100 256 27 27 (18662400)
I0403 14:37:07.832196 17242 net.cpp:156] Memory required for data: 662258800
I0403 14:37:07.832211 17242 layer_factory.hpp:77] Creating layer pool2
I0403 14:37:07.832232 17242 net.cpp:91] Creating Layer pool2
I0403 14:37:07.832248 17242 net.cpp:425] pool2 <- norm2
I0403 14:37:07.832265 17242 net.cpp:399] pool2 -> pool2
I0403 14:37:07.832321 17242 net.cpp:141] Setting up pool2
I0403 14:37:07.832345 17242 net.cpp:148] Top shape: 100 256 13 13 (4326400)
I0403 14:37:07.832358 17242 net.cpp:156] Memory required for data: 679564400
I0403 14:37:07.832373 17242 layer_factory.hpp:77] Creating layer conv3
I0403 14:37:07.832396 17242 net.cpp:91] Creating Layer conv3
I0403 14:37:07.832413 17242 net.cpp:425] conv3 <- pool2
I0403 14:37:07.832433 17242 net.cpp:399] conv3 -> conv3
I0403 14:37:07.871145 17242 net.cpp:141] Setting up conv3
I0403 14:37:07.871235 17242 net.cpp:148] Top shape: 100 384 13 13 (6489600)
I0403 14:37:07.871253 17242 net.cpp:156] Memory required for data: 705522800
I0403 14:37:07.871279 17242 layer_factory.hpp:77] Creating layer relu3
I0403 14:37:07.871304 17242 net.cpp:91] Creating Layer relu3
I0403 14:37:07.871323 17242 net.cpp:425] relu3 <- conv3
I0403 14:37:07.871342 17242 net.cpp:386] relu3 -> conv3 (in-place)
I0403 14:37:07.871649 17242 net.cpp:141] Setting up relu3
I0403 14:37:07.871676 17242 net.cpp:148] Top shape: 100 384 13 13 (6489600)
I0403 14:37:07.871690 17242 net.cpp:156] Memory required for data: 731481200
I0403 14:37:07.871706 17242 layer_factory.hpp:77] Creating layer conv4
I0403 14:37:07.871734 17242 net.cpp:91] Creating Layer conv4
I0403 14:37:07.871752 17242 net.cpp:425] conv4 <- conv3
I0403 14:37:07.871772 17242 net.cpp:399] conv4 -> conv4
I0403 14:37:07.901741 17242 net.cpp:141] Setting up conv4
I0403 14:37:07.901778 17242 net.cpp:148] Top shape: 100 384 13 13 (6489600)
I0403 14:37:07.901825 17242 net.cpp:156] Memory required for data: 757439600
I0403 14:37:07.901849 17242 layer_factory.hpp:77] Creating layer relu4
I0403 14:37:07.901872 17242 net.cpp:91] Creating Layer relu4
I0403 14:37:07.901890 17242 net.cpp:425] relu4 <- conv4
I0403 14:37:07.901909 17242 net.cpp:386] relu4 -> conv4 (in-place)
I0403 14:37:07.902199 17242 net.cpp:141] Setting up relu4
I0403 14:37:07.902225 17242 net.cpp:148] Top shape: 100 384 13 13 (6489600)
I0403 14:37:07.902240 17242 net.cpp:156] Memory required for data: 783398000
I0403 14:37:07.902256 17242 layer_factory.hpp:77] Creating layer conv5
I0403 14:37:07.902281 17242 net.cpp:91] Creating Layer conv5
I0403 14:37:07.902298 17242 net.cpp:425] conv5 <- conv4
I0403 14:37:07.902320 17242 net.cpp:399] conv5 -> conv5
I0403 14:37:07.922919 17242 net.cpp:141] Setting up conv5
I0403 14:37:07.922987 17242 net.cpp:148] Top shape: 100 256 13 13 (4326400)
I0403 14:37:07.923004 17242 net.cpp:156] Memory required for data: 800703600
I0403 14:37:07.923034 17242 layer_factory.hpp:77] Creating layer relu5
I0403 14:37:07.923056 17242 net.cpp:91] Creating Layer relu5
I0403 14:37:07.923072 17242 net.cpp:425] relu5 <- conv5
I0403 14:37:07.923090 17242 net.cpp:386] relu5 -> conv5 (in-place)
I0403 14:37:07.923388 17242 net.cpp:141] Setting up relu5
I0403 14:37:07.923414 17242 net.cpp:148] Top shape: 100 256 13 13 (4326400)
I0403 14:37:07.923434 17242 net.cpp:156] Memory required for data: 818009200
I0403 14:37:07.923449 17242 layer_factory.hpp:77] Creating layer pool5
I0403 14:37:07.923481 17242 net.cpp:91] Creating Layer pool5
I0403 14:37:07.923497 17242 net.cpp:425] pool5 <- conv5
I0403 14:37:07.923514 17242 net.cpp:399] pool5 -> pool5
I0403 14:37:07.923575 17242 net.cpp:141] Setting up pool5
I0403 14:37:07.923599 17242 net.cpp:148] Top shape: 100 256 6 6 (921600)
I0403 14:37:07.923612 17242 net.cpp:156] Memory required for data: 821695600
I0403 14:37:07.923626 17242 layer_factory.hpp:77] Creating layer fc6
I0403 14:37:07.923655 17242 net.cpp:91] Creating Layer fc6
I0403 14:37:07.923672 17242 net.cpp:425] fc6 <- pool5
I0403 14:37:07.923693 17242 net.cpp:399] fc6 -> fc6
I0403 14:37:09.484998 17242 net.cpp:141] Setting up fc6
I0403 14:37:09.485090 17242 net.cpp:148] Top shape: 100 4096 (409600)
I0403 14:37:09.485105 17242 net.cpp:156] Memory required for data: 823334000
I0403 14:37:09.485133 17242 layer_factory.hpp:77] Creating layer relu6
I0403 14:37:09.485157 17242 net.cpp:91] Creating Layer relu6
I0403 14:37:09.485173 17242 net.cpp:425] relu6 <- fc6
I0403 14:37:09.485194 17242 net.cpp:386] relu6 -> fc6 (in-place)
I0403 14:37:09.485433 17242 net.cpp:141] Setting up relu6
I0403 14:37:09.485458 17242 net.cpp:148] Top shape: 100 4096 (409600)
I0403 14:37:09.485473 17242 net.cpp:156] Memory required for data: 824972400
I0403 14:37:09.485487 17242 layer_factory.hpp:77] Creating layer drop6
I0403 14:37:09.485508 17242 net.cpp:91] Creating Layer drop6
I0403 14:37:09.485524 17242 net.cpp:425] drop6 <- fc6
I0403 14:37:09.485541 17242 net.cpp:386] drop6 -> fc6 (in-place)
I0403 14:37:09.485602 17242 net.cpp:141] Setting up drop6
I0403 14:37:09.485625 17242 net.cpp:148] Top shape: 100 4096 (409600)
I0403 14:37:09.485638 17242 net.cpp:156] Memory required for data: 826610800
I0403 14:37:09.485652 17242 layer_factory.hpp:77] Creating layer fc7
I0403 14:37:09.485673 17242 net.cpp:91] Creating Layer fc7
I0403 14:37:09.485690 17242 net.cpp:425] fc7 <- fc6
I0403 14:37:09.485707 17242 net.cpp:399] fc7 -> fc7
I0403 14:37:10.174319 17242 net.cpp:141] Setting up fc7
I0403 14:37:10.174412 17242 net.cpp:148] Top shape: 100 4096 (409600)
I0403 14:37:10.174427 17242 net.cpp:156] Memory required for data: 828249200
I0403 14:37:10.174448 17242 layer_factory.hpp:77] Creating layer relu7
I0403 14:37:10.174474 17242 net.cpp:91] Creating Layer relu7
I0403 14:37:10.174492 17242 net.cpp:425] relu7 <- fc7
I0403 14:37:10.174511 17242 net.cpp:386] relu7 -> fc7 (in-place)
I0403 14:37:10.174952 17242 net.cpp:141] Setting up relu7
I0403 14:37:10.174983 17242 net.cpp:148] Top shape: 100 4096 (409600)
I0403 14:37:10.175030 17242 net.cpp:156] Memory required for data: 829887600
I0403 14:37:10.175046 17242 layer_factory.hpp:77] Creating layer drop7
I0403 14:37:10.175066 17242 net.cpp:91] Creating Layer drop7
I0403 14:37:10.175082 17242 net.cpp:425] drop7 <- fc7
I0403 14:37:10.175099 17242 net.cpp:386] drop7 -> fc7 (in-place)
I0403 14:37:10.175145 17242 net.cpp:141] Setting up drop7
I0403 14:37:10.175168 17242 net.cpp:148] Top shape: 100 4096 (409600)
I0403 14:37:10.175181 17242 net.cpp:156] Memory required for data: 831526000
I0403 14:37:10.175195 17242 layer_factory.hpp:77] Creating layer fc8_plantvillage
I0403 14:37:10.175215 17242 net.cpp:91] Creating Layer fc8_plantvillage
I0403 14:37:10.175230 17242 net.cpp:425] fc8_plantvillage <- fc7
I0403 14:37:10.175249 17242 net.cpp:399] fc8_plantvillage -> fc8_plantvillage
I0403 14:37:10.181996 17242 net.cpp:141] Setting up fc8_plantvillage
I0403 14:37:10.182027 17242 net.cpp:148] Top shape: 100 38 (3800)
I0403 14:37:10.182042 17242 net.cpp:156] Memory required for data: 831541200
I0403 14:37:10.182060 17242 layer_factory.hpp:77] Creating layer fc8_plantvillage_fc8_plantvillage_0_split
I0403 14:37:10.182078 17242 net.cpp:91] Creating Layer fc8_plantvillage_fc8_plantvillage_0_split
I0403 14:37:10.182093 17242 net.cpp:425] fc8_plantvillage_fc8_plantvillage_0_split <- fc8_plantvillage
I0403 14:37:10.182109 17242 net.cpp:399] fc8_plantvillage_fc8_plantvillage_0_split -> fc8_plantvillage_fc8_plantvillage_0_split_0
I0403 14:37:10.182128 17242 net.cpp:399] fc8_plantvillage_fc8_plantvillage_0_split -> fc8_plantvillage_fc8_plantvillage_0_split_1
I0403 14:37:10.182147 17242 net.cpp:399] fc8_plantvillage_fc8_plantvillage_0_split -> fc8_plantvillage_fc8_plantvillage_0_split_2
I0403 14:37:10.182225 17242 net.cpp:141] Setting up fc8_plantvillage_fc8_plantvillage_0_split
I0403 14:37:10.182250 17242 net.cpp:148] Top shape: 100 38 (3800)
I0403 14:37:10.182265 17242 net.cpp:148] Top shape: 100 38 (3800)
I0403 14:37:10.182279 17242 net.cpp:148] Top shape: 100 38 (3800)
I0403 14:37:10.182293 17242 net.cpp:156] Memory required for data: 831586800
I0403 14:37:10.182307 17242 layer_factory.hpp:77] Creating layer prob
I0403 14:37:10.182324 17242 net.cpp:91] Creating Layer prob
I0403 14:37:10.182339 17242 net.cpp:425] prob <- fc8_plantvillage_fc8_plantvillage_0_split_0
I0403 14:37:10.182358 17242 net.cpp:399] prob -> prob
I0403 14:37:10.182593 17242 net.cpp:141] Setting up prob
I0403 14:37:10.182618 17242 net.cpp:148] Top shape: 100 38 (3800)
I0403 14:37:10.182633 17242 net.cpp:156] Memory required for data: 831602000
I0403 14:37:10.182647 17242 layer_factory.hpp:77] Creating layer hdf5out
I0403 14:37:10.182668 17242 net.cpp:91] Creating Layer hdf5out
I0403 14:37:10.182685 17242 net.cpp:425] hdf5out <- prob
I0403 14:37:10.182701 17242 net.cpp:425] hdf5out <- label_data_1_split_0
I0403 14:37:10.185101 17242 net.cpp:141] Setting up hdf5out
…
