…
I0403 14:26:13.965922 16940 net.cpp:313] The NetState phase (1) differed from the phase (0) specified by a rule in layer data
I0403 14:26:13.966262 16940 net.cpp:49] Initializing net from parameters: 
state {
  phase: TEST
}
layer {
  name: "data"
  type: "Data"
  top: "data"
  top: "label"
  include {
    phase: TEST
  }
  transform_param {
    crop_size: 227
    mean_file: "/home/mohanty/data/final_dataset/lmdb/segmented-60-40/mean.binaryproto"
  }
  data_param {
    source: "/home/mohanty/data/final_dataset/lmdb/segmented-60-40/test_db"
    batch_size: 100
    backend: LMDB
  }
}
layer {
  name: "conv1"
  type: "Convolution"
  bottom: "data"
  top: "conv1"
  param {
    lr_mult: 1
    decay_mult: 1
  }
  param {
    lr_mult: 2
    decay_mult: 0
  }
  convolution_param {
    num_output: 96
    kernel_size: 11
    stride: 4
    weight_filler {
      type: "gaussian"
      std: 0.01
    }
    bias_filler {
      type: "constant"
      value: 0
    }
  }
}
layer {
  name: "relu1"
  type: "ReLU"
  bottom: "conv1"
  top: "conv1"
}
layer {
  name: "norm1"
  type: "LRN"
  bottom: "conv1"
  top: "norm1"
  lrn_param {
    local_size: 5
    alpha: 0.0001
    beta: 0.75
  }
}
layer {
  name: "pool1"
  type: "Pooling"
  bottom: "norm1"
  top: "pool1"
  pooling_param {
    pool: MAX
    kernel_size: 3
    stride: 2
  }
}
layer {
  name: "conv2"
  type: "Convolution"
  bottom: "pool1"
  top: "conv2"
  param {
    lr_mult: 1
    decay_mult: 1
  }
  param {
    lr_mult: 2
    decay_mult: 0
  }
  convolution_param {
    num_output: 256
    pad: 2
    kernel_size: 5
    group: 2
    weight_filler {
      type: "gaussian"
      std: 0.01
    }
    bias_filler {
      type: "constant"
      value: 0.1
    }
  }
}
layer {
  name: "relu2"
  type: "ReLU"
  bottom: "conv2"
  top: "conv2"
}
layer {
  name: "norm2"
  type: "LRN"
  bottom: "conv2"
  top: "norm2"
  lrn_param {
    local_size: 5
    alpha: 0.0001
    beta: 0.75
  }
}
layer {
  name: "pool2"
  type: "Pooling"
  bottom: "norm2"
  top: "pool2"
  pooling_param {
    pool: MAX
    kernel_size: 3
    stride: 2
  }
}
layer {
  name: "conv3"
  type: "Convolution"
  bottom: "pool2"
  top: "conv3"
  param {
    lr_mult: 1
    decay_mult: 1
  }
  param {
    lr_mult: 2
    decay_mult: 0
  }
  convolution_param {
    num_output: 384
    pad: 1
    kernel_size: 3
    weight_filler {
      type: "gaussian"
      std: 0.01
    }
    bias_filler {
      type: "constant"
      value: 0
    }
  }
}
layer {
  name: "relu3"
  type: "ReLU"
  bottom: "conv3"
  top: "conv3"
}
layer {
  name: "conv4"
  type: "Convolution"
  bottom: "conv3"
  top: "conv4"
  param {
    lr_mult: 1
    decay_mult: 1
  }
  param {
    lr_mult: 2
    decay_mult: 0
  }
  convolution_param {
    num_output: 384
    pad: 1
    kernel_size: 3
    group: 2
    weight_filler {
      type: "gaussian"
      std: 0.01
    }
    bias_filler {
      type: "constant"
      value: 0.1
    }
  }
}
layer {
  name: "relu4"
  type: "ReLU"
  bottom: "conv4"
  top: "conv4"
}
layer {
  name: "conv5"
  type: "Convolution"
  bottom: "conv4"
  top: "conv5"
  param {
    lr_mult: 1
    decay_mult: 1
  }
  param {
    lr_mult: 2
    decay_mult: 0
  }
  convolution_param {
    num_output: 256
    pad: 1
    kernel_size: 3
    group: 2
    weight_filler {
      type: "gaussian"
      std: 0.01
    }
    bias_filler {
      type: "constant"
      value: 0.1
    }
  }
}
layer {
  name: "relu5"
  type: "ReLU"
  bottom: "conv5"
  top: "conv5"
}
layer {
  name: "pool5"
  type: "Pooling"
  bottom: "conv5"
  top: "pool5"
  pooling_param {
    pool: MAX
    kernel_size: 3
    stride: 2
  }
}
layer {
  name: "fc6"
  type: "InnerProduct"
  bottom: "pool5"
  top: "fc6"
  param {
    lr_mult: 1
    decay_mult: 1
  }
  param {
    lr_mult: 2
    decay_mult: 0
  }
  inner_product_param {
    num_output: 4096
    weight_filler {
      type: "gaussian"
      std: 0.005
    }
    bias_filler {
      type: "constant"
      value: 0.1
    }
  }
}
layer {
  name: "relu6"
  type: "ReLU"
  bottom: "fc6"
  top: "fc6"
}
layer {
  name: "drop6"
  type: "Dropout"
  bottom: "fc6"
  top: "fc6"
  dropout_param {
    dropout_ratio: 0.5
  }
}
layer {
  name: "fc7"
  type: "InnerProduct"
  bottom: "fc6"
  top: "fc7"
  param {
    lr_mult: 1
    decay_mult: 1
  }
  param {
    lr_mult: 2
    decay_mult: 0
  }
  inner_product_param {
    num_output: 4096
    weight_filler {
      type: "gaussian"
      std: 0.005
    }
    bias_filler {
      type: "constant"
      value: 0.1
    }
  }
}
layer {
  name: "relu7"
  type: "ReLU"
  bottom: "fc7"
  top: "fc7"
}
layer {
  name: "drop7"
  type: "Dropout"
  bottom: "fc7"
  top: "fc7"
  dropout_param {
    dropout_ratio: 0.5
  }
}
layer {
  name: "fc8_plantvillage"
  type: "InnerProduct"
  bottom: "fc7"
  top: "fc8_plantvillage"
  param {
    lr_mult: 1
    decay_mult: 1
  }
  param {
    lr_mult: 2
    decay_mult: 0
  }
  inner_product_param {
    num_output: 38
    weight_filler {
      type: "gaussian"
      std: 0.01
    }
    bias_filler {
      type: "constant"
      value: 0
    }
  }
}
layer {
  name: "prob"
  type: "Softmax"
  bottom: "fc8_plantvillage"
  top: "prob"
  include {
    phase: TEST
  }
}
layer {
  name: "hdf5out"
  type: "HDF5Output"
  bottom: "prob"
  bottom: "label"
  include {
    phase: TEST
  }
  hdf5_output_param {
    file_name: "hdf5_dumps/iter_325.h5"
  }
}
layer {
  name: "loss"
  type: "SoftmaxWithLoss"
  bottom: "fc8_plantvillage"
  bottom: "label"
  top: "loss"
}
layer {
  name: "accuracy"
  type: "Accuracy"
  bottom: "fc8_plantvillage"
  bottom: "label"
  top: "accuracy"
  include {
    phase: TEST
  }
}
I0403 14:26:13.966807 16940 layer_factory.hpp:77] Creating layer data
I0403 14:26:13.967535 16940 net.cpp:91] Creating Layer data
I0403 14:26:13.967572 16940 net.cpp:399] data -> data
I0403 14:26:13.967620 16940 net.cpp:399] data -> label
I0403 14:26:13.967660 16940 data_transformer.cpp:25] Loading mean file from: /home/mohanty/data/final_dataset/lmdb/segmented-60-40/mean.binaryproto
I0403 14:26:13.995295 16948 db_lmdb.cpp:38] Opened lmdb /home/mohanty/data/final_dataset/lmdb/segmented-60-40/test_db
I0403 14:26:14.004601 16940 data_layer.cpp:41] output data size: 100,3,227,227
I0403 14:26:14.159241 16940 net.cpp:141] Setting up data
I0403 14:26:14.159366 16940 net.cpp:148] Top shape: 100 3 227 227 (15458700)
I0403 14:26:14.159396 16940 net.cpp:148] Top shape: 100 (100)
I0403 14:26:14.159415 16940 net.cpp:156] Memory required for data: 61835200
I0403 14:26:14.159447 16940 layer_factory.hpp:77] Creating layer label_data_1_split
I0403 14:26:14.159477 16940 net.cpp:91] Creating Layer label_data_1_split
I0403 14:26:14.159499 16940 net.cpp:425] label_data_1_split <- label
I0403 14:26:14.159538 16940 net.cpp:399] label_data_1_split -> label_data_1_split_0
I0403 14:26:14.159570 16940 net.cpp:399] label_data_1_split -> label_data_1_split_1
I0403 14:26:14.159593 16940 net.cpp:399] label_data_1_split -> label_data_1_split_2
I0403 14:26:14.159669 16940 net.cpp:141] Setting up label_data_1_split
I0403 14:26:14.159698 16940 net.cpp:148] Top shape: 100 (100)
I0403 14:26:14.159720 16940 net.cpp:148] Top shape: 100 (100)
I0403 14:26:14.159740 16940 net.cpp:148] Top shape: 100 (100)
I0403 14:26:14.159757 16940 net.cpp:156] Memory required for data: 61836400
I0403 14:26:14.159775 16940 layer_factory.hpp:77] Creating layer conv1
I0403 14:26:14.159827 16940 net.cpp:91] Creating Layer conv1
I0403 14:26:14.159852 16940 net.cpp:425] conv1 <- data
I0403 14:26:14.159875 16940 net.cpp:399] conv1 -> conv1
I0403 14:26:16.819627 16940 net.cpp:141] Setting up conv1
I0403 14:26:16.819707 16940 net.cpp:148] Top shape: 100 96 55 55 (29040000)
I0403 14:26:16.819727 16940 net.cpp:156] Memory required for data: 177996400
I0403 14:26:16.819764 16940 layer_factory.hpp:77] Creating layer relu1
I0403 14:26:16.819813 16940 net.cpp:91] Creating Layer relu1
I0403 14:26:16.819836 16940 net.cpp:425] relu1 <- conv1
I0403 14:26:16.819859 16940 net.cpp:386] relu1 -> conv1 (in-place)
I0403 14:26:16.820183 16940 net.cpp:141] Setting up relu1
I0403 14:26:16.820217 16940 net.cpp:148] Top shape: 100 96 55 55 (29040000)
I0403 14:26:16.820272 16940 net.cpp:156] Memory required for data: 294156400
I0403 14:26:16.820291 16940 layer_factory.hpp:77] Creating layer norm1
I0403 14:26:16.820339 16940 net.cpp:91] Creating Layer norm1
I0403 14:26:16.820363 16940 net.cpp:425] norm1 <- conv1
I0403 14:26:16.820386 16940 net.cpp:399] norm1 -> norm1
I0403 14:26:16.820822 16940 net.cpp:141] Setting up norm1
I0403 14:26:16.820855 16940 net.cpp:148] Top shape: 100 96 55 55 (29040000)
I0403 14:26:16.820873 16940 net.cpp:156] Memory required for data: 410316400
I0403 14:26:16.820893 16940 layer_factory.hpp:77] Creating layer pool1
I0403 14:26:16.820932 16940 net.cpp:91] Creating Layer pool1
I0403 14:26:16.820956 16940 net.cpp:425] pool1 <- norm1
I0403 14:26:16.820976 16940 net.cpp:399] pool1 -> pool1
I0403 14:26:16.821095 16940 net.cpp:141] Setting up pool1
I0403 14:26:16.821125 16940 net.cpp:148] Top shape: 100 96 27 27 (6998400)
I0403 14:26:16.821141 16940 net.cpp:156] Memory required for data: 438310000
I0403 14:26:16.821159 16940 layer_factory.hpp:77] Creating layer conv2
I0403 14:26:16.821188 16940 net.cpp:91] Creating Layer conv2
I0403 14:26:16.821209 16940 net.cpp:425] conv2 <- pool1
I0403 14:26:16.821234 16940 net.cpp:399] conv2 -> conv2
I0403 14:26:16.842932 16940 net.cpp:141] Setting up conv2
I0403 14:26:16.842995 16940 net.cpp:148] Top shape: 100 256 27 27 (18662400)
I0403 14:26:16.843017 16940 net.cpp:156] Memory required for data: 512959600
I0403 14:26:16.843047 16940 layer_factory.hpp:77] Creating layer relu2
I0403 14:26:16.843072 16940 net.cpp:91] Creating Layer relu2
I0403 14:26:16.843091 16940 net.cpp:425] relu2 <- conv2
I0403 14:26:16.843112 16940 net.cpp:386] relu2 -> conv2 (in-place)
I0403 14:26:16.843451 16940 net.cpp:141] Setting up relu2
I0403 14:26:16.843485 16940 net.cpp:148] Top shape: 100 256 27 27 (18662400)
I0403 14:26:16.843504 16940 net.cpp:156] Memory required for data: 587609200
I0403 14:26:16.843531 16940 layer_factory.hpp:77] Creating layer norm2
I0403 14:26:16.843561 16940 net.cpp:91] Creating Layer norm2
I0403 14:26:16.843582 16940 net.cpp:425] norm2 <- conv2
I0403 14:26:16.843605 16940 net.cpp:399] norm2 -> norm2
I0403 14:26:16.843847 16940 net.cpp:141] Setting up norm2
I0403 14:26:16.843881 16940 net.cpp:148] Top shape: 100 256 27 27 (18662400)
I0403 14:26:16.843899 16940 net.cpp:156] Memory required for data: 662258800
I0403 14:26:16.843917 16940 layer_factory.hpp:77] Creating layer pool2
I0403 14:26:16.843940 16940 net.cpp:91] Creating Layer pool2
I0403 14:26:16.843958 16940 net.cpp:425] pool2 <- norm2
I0403 14:26:16.843978 16940 net.cpp:399] pool2 -> pool2
I0403 14:26:16.844050 16940 net.cpp:141] Setting up pool2
I0403 14:26:16.844079 16940 net.cpp:148] Top shape: 100 256 13 13 (4326400)
I0403 14:26:16.844105 16940 net.cpp:156] Memory required for data: 679564400
I0403 14:26:16.844130 16940 layer_factory.hpp:77] Creating layer conv3
I0403 14:26:16.844169 16940 net.cpp:91] Creating Layer conv3
I0403 14:26:16.844207 16940 net.cpp:425] conv3 <- pool2
I0403 14:26:16.844291 16940 net.cpp:399] conv3 -> conv3
I0403 14:26:16.892001 16940 net.cpp:141] Setting up conv3
I0403 14:26:16.892103 16940 net.cpp:148] Top shape: 100 384 13 13 (6489600)
I0403 14:26:16.892125 16940 net.cpp:156] Memory required for data: 705522800
I0403 14:26:16.892156 16940 layer_factory.hpp:77] Creating layer relu3
I0403 14:26:16.892184 16940 net.cpp:91] Creating Layer relu3
I0403 14:26:16.892205 16940 net.cpp:425] relu3 <- conv3
I0403 14:26:16.892258 16940 net.cpp:386] relu3 -> conv3 (in-place)
I0403 14:26:16.892662 16940 net.cpp:141] Setting up relu3
I0403 14:26:16.892698 16940 net.cpp:148] Top shape: 100 384 13 13 (6489600)
I0403 14:26:16.892717 16940 net.cpp:156] Memory required for data: 731481200
I0403 14:26:16.892735 16940 layer_factory.hpp:77] Creating layer conv4
I0403 14:26:16.892767 16940 net.cpp:91] Creating Layer conv4
I0403 14:26:16.892789 16940 net.cpp:425] conv4 <- conv3
I0403 14:26:16.892840 16940 net.cpp:399] conv4 -> conv4
I0403 14:26:16.928745 16940 net.cpp:141] Setting up conv4
I0403 14:26:16.928802 16940 net.cpp:148] Top shape: 100 384 13 13 (6489600)
I0403 14:26:16.928849 16940 net.cpp:156] Memory required for data: 757439600
I0403 14:26:16.928875 16940 layer_factory.hpp:77] Creating layer relu4
I0403 14:26:16.928903 16940 net.cpp:91] Creating Layer relu4
I0403 14:26:16.928925 16940 net.cpp:425] relu4 <- conv4
I0403 14:26:16.928958 16940 net.cpp:386] relu4 -> conv4 (in-place)
I0403 14:26:16.929296 16940 net.cpp:141] Setting up relu4
I0403 14:26:16.929327 16940 net.cpp:148] Top shape: 100 384 13 13 (6489600)
I0403 14:26:16.929345 16940 net.cpp:156] Memory required for data: 783398000
I0403 14:26:16.929363 16940 layer_factory.hpp:77] Creating layer conv5
I0403 14:26:16.929395 16940 net.cpp:91] Creating Layer conv5
I0403 14:26:16.929430 16940 net.cpp:425] conv5 <- conv4
I0403 14:26:16.929455 16940 net.cpp:399] conv5 -> conv5
I0403 14:26:16.953775 16940 net.cpp:141] Setting up conv5
I0403 14:26:16.953815 16940 net.cpp:148] Top shape: 100 256 13 13 (4326400)
I0403 14:26:16.953835 16940 net.cpp:156] Memory required for data: 800703600
I0403 14:26:16.953865 16940 layer_factory.hpp:77] Creating layer relu5
I0403 14:26:16.953896 16940 net.cpp:91] Creating Layer relu5
I0403 14:26:16.953922 16940 net.cpp:425] relu5 <- conv5
I0403 14:26:16.953946 16940 net.cpp:386] relu5 -> conv5 (in-place)
I0403 14:26:16.954295 16940 net.cpp:141] Setting up relu5
I0403 14:26:16.954329 16940 net.cpp:148] Top shape: 100 256 13 13 (4326400)
I0403 14:26:16.954349 16940 net.cpp:156] Memory required for data: 818009200
I0403 14:26:16.954366 16940 layer_factory.hpp:77] Creating layer pool5
I0403 14:26:16.954391 16940 net.cpp:91] Creating Layer pool5
I0403 14:26:16.954411 16940 net.cpp:425] pool5 <- conv5
I0403 14:26:16.954437 16940 net.cpp:399] pool5 -> pool5
I0403 14:26:16.954510 16940 net.cpp:141] Setting up pool5
I0403 14:26:16.954538 16940 net.cpp:148] Top shape: 100 256 6 6 (921600)
I0403 14:26:16.954556 16940 net.cpp:156] Memory required for data: 821695600
I0403 14:26:16.954572 16940 layer_factory.hpp:77] Creating layer fc6
I0403 14:26:16.954629 16940 net.cpp:91] Creating Layer fc6
I0403 14:26:16.954653 16940 net.cpp:425] fc6 <- pool5
I0403 14:26:16.954679 16940 net.cpp:399] fc6 -> fc6
I0403 14:26:18.614811 16940 net.cpp:141] Setting up fc6
I0403 14:26:18.614905 16940 net.cpp:148] Top shape: 100 4096 (409600)
I0403 14:26:18.614922 16940 net.cpp:156] Memory required for data: 823334000
I0403 14:26:18.614943 16940 layer_factory.hpp:77] Creating layer relu6
I0403 14:26:18.614965 16940 net.cpp:91] Creating Layer relu6
I0403 14:26:18.614982 16940 net.cpp:425] relu6 <- fc6
I0403 14:26:18.615010 16940 net.cpp:386] relu6 -> fc6 (in-place)
I0403 14:26:18.615232 16940 net.cpp:141] Setting up relu6
I0403 14:26:18.615259 16940 net.cpp:148] Top shape: 100 4096 (409600)
I0403 14:26:18.615274 16940 net.cpp:156] Memory required for data: 824972400
I0403 14:26:18.615288 16940 layer_factory.hpp:77] Creating layer drop6
I0403 14:26:18.615306 16940 net.cpp:91] Creating Layer drop6
I0403 14:26:18.615321 16940 net.cpp:425] drop6 <- fc6
I0403 14:26:18.615337 16940 net.cpp:386] drop6 -> fc6 (in-place)
I0403 14:26:18.615417 16940 net.cpp:141] Setting up drop6
I0403 14:26:18.615440 16940 net.cpp:148] Top shape: 100 4096 (409600)
I0403 14:26:18.615453 16940 net.cpp:156] Memory required for data: 826610800
I0403 14:26:18.615468 16940 layer_factory.hpp:77] Creating layer fc7
I0403 14:26:18.615489 16940 net.cpp:91] Creating Layer fc7
I0403 14:26:18.615504 16940 net.cpp:425] fc7 <- fc6
I0403 14:26:18.615520 16940 net.cpp:399] fc7 -> fc7
I0403 14:26:19.285441 16940 net.cpp:141] Setting up fc7
I0403 14:26:19.285563 16940 net.cpp:148] Top shape: 100 4096 (409600)
I0403 14:26:19.285579 16940 net.cpp:156] Memory required for data: 828249200
I0403 14:26:19.285601 16940 layer_factory.hpp:77] Creating layer relu7
I0403 14:26:19.285627 16940 net.cpp:91] Creating Layer relu7
I0403 14:26:19.285645 16940 net.cpp:425] relu7 <- fc7
I0403 14:26:19.285665 16940 net.cpp:386] relu7 -> fc7 (in-place)
I0403 14:26:19.286147 16940 net.cpp:141] Setting up relu7
I0403 14:26:19.286176 16940 net.cpp:148] Top shape: 100 4096 (409600)
I0403 14:26:19.286227 16940 net.cpp:156] Memory required for data: 829887600
I0403 14:26:19.286243 16940 layer_factory.hpp:77] Creating layer drop7
I0403 14:26:19.286263 16940 net.cpp:91] Creating Layer drop7
I0403 14:26:19.286278 16940 net.cpp:425] drop7 <- fc7
I0403 14:26:19.286298 16940 net.cpp:386] drop7 -> fc7 (in-place)
I0403 14:26:19.286342 16940 net.cpp:141] Setting up drop7
I0403 14:26:19.286377 16940 net.cpp:148] Top shape: 100 4096 (409600)
I0403 14:26:19.286391 16940 net.cpp:156] Memory required for data: 831526000
I0403 14:26:19.286406 16940 layer_factory.hpp:77] Creating layer fc8_plantvillage
I0403 14:26:19.286427 16940 net.cpp:91] Creating Layer fc8_plantvillage
I0403 14:26:19.286443 16940 net.cpp:425] fc8_plantvillage <- fc7
I0403 14:26:19.286464 16940 net.cpp:399] fc8_plantvillage -> fc8_plantvillage
I0403 14:26:19.293047 16940 net.cpp:141] Setting up fc8_plantvillage
I0403 14:26:19.293076 16940 net.cpp:148] Top shape: 100 38 (3800)
I0403 14:26:19.293092 16940 net.cpp:156] Memory required for data: 831541200
I0403 14:26:19.293108 16940 layer_factory.hpp:77] Creating layer fc8_plantvillage_fc8_plantvillage_0_split
I0403 14:26:19.293126 16940 net.cpp:91] Creating Layer fc8_plantvillage_fc8_plantvillage_0_split
I0403 14:26:19.293140 16940 net.cpp:425] fc8_plantvillage_fc8_plantvillage_0_split <- fc8_plantvillage
I0403 14:26:19.293159 16940 net.cpp:399] fc8_plantvillage_fc8_plantvillage_0_split -> fc8_plantvillage_fc8_plantvillage_0_split_0
I0403 14:26:19.293179 16940 net.cpp:399] fc8_plantvillage_fc8_plantvillage_0_split -> fc8_plantvillage_fc8_plantvillage_0_split_1
I0403 14:26:19.293198 16940 net.cpp:399] fc8_plantvillage_fc8_plantvillage_0_split -> fc8_plantvillage_fc8_plantvillage_0_split_2
I0403 14:26:19.293275 16940 net.cpp:141] Setting up fc8_plantvillage_fc8_plantvillage_0_split
I0403 14:26:19.293298 16940 net.cpp:148] Top shape: 100 38 (3800)
I0403 14:26:19.293313 16940 net.cpp:148] Top shape: 100 38 (3800)
I0403 14:26:19.293329 16940 net.cpp:148] Top shape: 100 38 (3800)
I0403 14:26:19.293341 16940 net.cpp:156] Memory required for data: 831586800
I0403 14:26:19.293355 16940 layer_factory.hpp:77] Creating layer prob
I0403 14:26:19.293373 16940 net.cpp:91] Creating Layer prob
I0403 14:26:19.293388 16940 net.cpp:425] prob <- fc8_plantvillage_fc8_plantvillage_0_split_0
I0403 14:26:19.293406 16940 net.cpp:399] prob -> prob
I0403 14:26:19.293623 16940 net.cpp:141] Setting up prob
I0403 14:26:19.293651 16940 net.cpp:148] Top shape: 100 38 (3800)
I0403 14:26:19.293666 16940 net.cpp:156] Memory required for data: 831602000
I0403 14:26:19.293681 16940 layer_factory.hpp:77] Creating layer hdf5out
I0403 14:26:19.293699 16940 net.cpp:91] Creating Layer hdf5out
I0403 14:26:19.293715 16940 net.cpp:425] hdf5out <- prob
I0403 14:26:19.293730 16940 net.cpp:425] hdf5out <- label_data_1_split_0
I0403 14:26:19.339867 16940 net.cpp:141] Setting up hdf5out
…
