…
I0403 14:31:21.774390 17083 net.cpp:313] The NetState phase (1) differed from the phase (0) specified by a rule in layer data
I0403 14:31:21.774698 17083 net.cpp:49] Initializing net from parameters: 
state {
  phase: TEST
}
layer {
  name: "data"
  type: "Data"
  top: "data"
  top: "label"
  include {
    phase: TEST
  }
  transform_param {
    crop_size: 227
    mean_file: "/home/mohanty/data/final_dataset/lmdb/segmented-60-40/mean.binaryproto"
  }
  data_param {
    source: "/home/mohanty/data/final_dataset/lmdb/segmented-60-40/test_db"
    batch_size: 100
    backend: LMDB
  }
}
layer {
  name: "conv1"
  type: "Convolution"
  bottom: "data"
  top: "conv1"
  param {
    lr_mult: 1
    decay_mult: 1
  }
  param {
    lr_mult: 2
    decay_mult: 0
  }
  convolution_param {
    num_output: 96
    kernel_size: 11
    stride: 4
    weight_filler {
      type: "gaussian"
      std: 0.01
    }
    bias_filler {
      type: "constant"
      value: 0
    }
  }
}
layer {
  name: "relu1"
  type: "ReLU"
  bottom: "conv1"
  top: "conv1"
}
layer {
  name: "norm1"
  type: "LRN"
  bottom: "conv1"
  top: "norm1"
  lrn_param {
    local_size: 5
    alpha: 0.0001
    beta: 0.75
  }
}
layer {
  name: "pool1"
  type: "Pooling"
  bottom: "norm1"
  top: "pool1"
  pooling_param {
    pool: MAX
    kernel_size: 3
    stride: 2
  }
}
layer {
  name: "conv2"
  type: "Convolution"
  bottom: "pool1"
  top: "conv2"
  param {
    lr_mult: 1
    decay_mult: 1
  }
  param {
    lr_mult: 2
    decay_mult: 0
  }
  convolution_param {
    num_output: 256
    pad: 2
    kernel_size: 5
    group: 2
    weight_filler {
      type: "gaussian"
      std: 0.01
    }
    bias_filler {
      type: "constant"
      value: 0.1
    }
  }
}
layer {
  name: "relu2"
  type: "ReLU"
  bottom: "conv2"
  top: "conv2"
}
layer {
  name: "norm2"
  type: "LRN"
  bottom: "conv2"
  top: "norm2"
  lrn_param {
    local_size: 5
    alpha: 0.0001
    beta: 0.75
  }
}
layer {
  name: "pool2"
  type: "Pooling"
  bottom: "norm2"
  top: "pool2"
  pooling_param {
    pool: MAX
    kernel_size: 3
    stride: 2
  }
}
layer {
  name: "conv3"
  type: "Convolution"
  bottom: "pool2"
  top: "conv3"
  param {
    lr_mult: 1
    decay_mult: 1
  }
  param {
    lr_mult: 2
    decay_mult: 0
  }
  convolution_param {
    num_output: 384
    pad: 1
    kernel_size: 3
    weight_filler {
      type: "gaussian"
      std: 0.01
    }
    bias_filler {
      type: "constant"
      value: 0
    }
  }
}
layer {
  name: "relu3"
  type: "ReLU"
  bottom: "conv3"
  top: "conv3"
}
layer {
  name: "conv4"
  type: "Convolution"
  bottom: "conv3"
  top: "conv4"
  param {
    lr_mult: 1
    decay_mult: 1
  }
  param {
    lr_mult: 2
    decay_mult: 0
  }
  convolution_param {
    num_output: 384
    pad: 1
    kernel_size: 3
    group: 2
    weight_filler {
      type: "gaussian"
      std: 0.01
    }
    bias_filler {
      type: "constant"
      value: 0.1
    }
  }
}
layer {
  name: "relu4"
  type: "ReLU"
  bottom: "conv4"
  top: "conv4"
}
layer {
  name: "conv5"
  type: "Convolution"
  bottom: "conv4"
  top: "conv5"
  param {
    lr_mult: 1
    decay_mult: 1
  }
  param {
    lr_mult: 2
    decay_mult: 0
  }
  convolution_param {
    num_output: 256
    pad: 1
    kernel_size: 3
    group: 2
    weight_filler {
      type: "gaussian"
      std: 0.01
    }
    bias_filler {
      type: "constant"
      value: 0.1
    }
  }
}
layer {
  name: "relu5"
  type: "ReLU"
  bottom: "conv5"
  top: "conv5"
}
layer {
  name: "pool5"
  type: "Pooling"
  bottom: "conv5"
  top: "pool5"
  pooling_param {
    pool: MAX
    kernel_size: 3
    stride: 2
  }
}
layer {
  name: "fc6"
  type: "InnerProduct"
  bottom: "pool5"
  top: "fc6"
  param {
    lr_mult: 1
    decay_mult: 1
  }
  param {
    lr_mult: 2
    decay_mult: 0
  }
  inner_product_param {
    num_output: 4096
    weight_filler {
      type: "gaussian"
      std: 0.005
    }
    bias_filler {
      type: "constant"
      value: 0.1
    }
  }
}
layer {
  name: "relu6"
  type: "ReLU"
  bottom: "fc6"
  top: "fc6"
}
layer {
  name: "drop6"
  type: "Dropout"
  bottom: "fc6"
  top: "fc6"
  dropout_param {
    dropout_ratio: 0.5
  }
}
layer {
  name: "fc7"
  type: "InnerProduct"
  bottom: "fc6"
  top: "fc7"
  param {
    lr_mult: 1
    decay_mult: 1
  }
  param {
    lr_mult: 2
    decay_mult: 0
  }
  inner_product_param {
    num_output: 4096
    weight_filler {
      type: "gaussian"
      std: 0.005
    }
    bias_filler {
      type: "constant"
      value: 0.1
    }
  }
}
layer {
  name: "relu7"
  type: "ReLU"
  bottom: "fc7"
  top: "fc7"
}
layer {
  name: "drop7"
  type: "Dropout"
  bottom: "fc7"
  top: "fc7"
  dropout_param {
    dropout_ratio: 0.5
  }
}
layer {
  name: "fc8_plantvillage"
  type: "InnerProduct"
  bottom: "fc7"
  top: "fc8_plantvillage"
  param {
    lr_mult: 1
    decay_mult: 1
  }
  param {
    lr_mult: 2
    decay_mult: 0
  }
  inner_product_param {
    num_output: 38
    weight_filler {
      type: "gaussian"
      std: 0.01
    }
    bias_filler {
      type: "constant"
      value: 0
    }
  }
}
layer {
  name: "prob"
  type: "Softmax"
  bottom: "fc8_plantvillage"
  top: "prob"
  include {
    phase: TEST
  }
}
layer {
  name: "hdf5out"
  type: "HDF5Output"
  bottom: "prob"
  bottom: "label"
  include {
    phase: TEST
  }
  hdf5_output_param {
    file_name: "hdf5_dumps/iter_2600.h5"
  }
}
layer {
  name: "loss"
  type: "SoftmaxWithLoss"
  bottom: "fc8_plantvillage"
  bottom: "label"
  top: "loss"
}
layer {
  name: "accuracy"
  type: "Accuracy"
  bottom: "fc8_plantvillage"
  bottom: "label"
  top: "accuracy"
  include {
    phase: TEST
  }
}
I0403 14:31:21.775257 17083 layer_factory.hpp:77] Creating layer data
I0403 14:31:21.775881 17083 net.cpp:91] Creating Layer data
I0403 14:31:21.775910 17083 net.cpp:399] data -> data
I0403 14:31:21.775962 17083 net.cpp:399] data -> label
I0403 14:31:21.776003 17083 data_transformer.cpp:25] Loading mean file from: /home/mohanty/data/final_dataset/lmdb/segmented-60-40/mean.binaryproto
I0403 14:31:21.777146 17087 db_lmdb.cpp:38] Opened lmdb /home/mohanty/data/final_dataset/lmdb/segmented-60-40/test_db
I0403 14:31:21.790144 17083 data_layer.cpp:41] output data size: 100,3,227,227
I0403 14:31:21.923614 17083 net.cpp:141] Setting up data
I0403 14:31:21.923739 17083 net.cpp:148] Top shape: 100 3 227 227 (15458700)
I0403 14:31:21.923764 17083 net.cpp:148] Top shape: 100 (100)
I0403 14:31:21.923780 17083 net.cpp:156] Memory required for data: 61835200
I0403 14:31:21.923811 17083 layer_factory.hpp:77] Creating layer label_data_1_split
I0403 14:31:21.923837 17083 net.cpp:91] Creating Layer label_data_1_split
I0403 14:31:21.923857 17083 net.cpp:425] label_data_1_split <- label
I0403 14:31:21.923892 17083 net.cpp:399] label_data_1_split -> label_data_1_split_0
I0403 14:31:21.923920 17083 net.cpp:399] label_data_1_split -> label_data_1_split_1
I0403 14:31:21.923943 17083 net.cpp:399] label_data_1_split -> label_data_1_split_2
I0403 14:31:21.924015 17083 net.cpp:141] Setting up label_data_1_split
I0403 14:31:21.924041 17083 net.cpp:148] Top shape: 100 (100)
I0403 14:31:21.924059 17083 net.cpp:148] Top shape: 100 (100)
I0403 14:31:21.924077 17083 net.cpp:148] Top shape: 100 (100)
I0403 14:31:21.924090 17083 net.cpp:156] Memory required for data: 61836400
I0403 14:31:21.924106 17083 layer_factory.hpp:77] Creating layer conv1
I0403 14:31:21.924139 17083 net.cpp:91] Creating Layer conv1
I0403 14:31:21.924159 17083 net.cpp:425] conv1 <- data
I0403 14:31:21.924180 17083 net.cpp:399] conv1 -> conv1
I0403 14:31:22.072079 17083 net.cpp:141] Setting up conv1
I0403 14:31:22.072170 17083 net.cpp:148] Top shape: 100 96 55 55 (29040000)
I0403 14:31:22.072188 17083 net.cpp:156] Memory required for data: 177996400
I0403 14:31:22.072221 17083 layer_factory.hpp:77] Creating layer relu1
I0403 14:31:22.072248 17083 net.cpp:91] Creating Layer relu1
I0403 14:31:22.072268 17083 net.cpp:425] relu1 <- conv1
I0403 14:31:22.072298 17083 net.cpp:386] relu1 -> conv1 (in-place)
I0403 14:31:22.072558 17083 net.cpp:141] Setting up relu1
I0403 14:31:22.072587 17083 net.cpp:148] Top shape: 100 96 55 55 (29040000)
I0403 14:31:22.072635 17083 net.cpp:156] Memory required for data: 294156400
I0403 14:31:22.072652 17083 layer_factory.hpp:77] Creating layer norm1
I0403 14:31:22.072679 17083 net.cpp:91] Creating Layer norm1
I0403 14:31:22.072697 17083 net.cpp:425] norm1 <- conv1
I0403 14:31:22.072716 17083 net.cpp:399] norm1 -> norm1
I0403 14:31:22.073031 17083 net.cpp:141] Setting up norm1
I0403 14:31:22.073060 17083 net.cpp:148] Top shape: 100 96 55 55 (29040000)
I0403 14:31:22.073076 17083 net.cpp:156] Memory required for data: 410316400
I0403 14:31:22.073091 17083 layer_factory.hpp:77] Creating layer pool1
I0403 14:31:22.073114 17083 net.cpp:91] Creating Layer pool1
I0403 14:31:22.073132 17083 net.cpp:425] pool1 <- norm1
I0403 14:31:22.073187 17083 net.cpp:399] pool1 -> pool1
I0403 14:31:22.073264 17083 net.cpp:141] Setting up pool1
I0403 14:31:22.073289 17083 net.cpp:148] Top shape: 100 96 27 27 (6998400)
I0403 14:31:22.073305 17083 net.cpp:156] Memory required for data: 438310000
I0403 14:31:22.073320 17083 layer_factory.hpp:77] Creating layer conv2
I0403 14:31:22.073344 17083 net.cpp:91] Creating Layer conv2
I0403 14:31:22.073361 17083 net.cpp:425] conv2 <- pool1
I0403 14:31:22.073380 17083 net.cpp:399] conv2 -> conv2
I0403 14:31:22.088614 17083 net.cpp:141] Setting up conv2
I0403 14:31:22.088672 17083 net.cpp:148] Top shape: 100 256 27 27 (18662400)
I0403 14:31:22.088690 17083 net.cpp:156] Memory required for data: 512959600
I0403 14:31:22.088712 17083 layer_factory.hpp:77] Creating layer relu2
I0403 14:31:22.088738 17083 net.cpp:91] Creating Layer relu2
I0403 14:31:22.088757 17083 net.cpp:425] relu2 <- conv2
I0403 14:31:22.088776 17083 net.cpp:386] relu2 -> conv2 (in-place)
I0403 14:31:22.089069 17083 net.cpp:141] Setting up relu2
I0403 14:31:22.089099 17083 net.cpp:148] Top shape: 100 256 27 27 (18662400)
I0403 14:31:22.089118 17083 net.cpp:156] Memory required for data: 587609200
I0403 14:31:22.089133 17083 layer_factory.hpp:77] Creating layer norm2
I0403 14:31:22.089159 17083 net.cpp:91] Creating Layer norm2
I0403 14:31:22.089177 17083 net.cpp:425] norm2 <- conv2
I0403 14:31:22.089196 17083 net.cpp:399] norm2 -> norm2
I0403 14:31:22.089398 17083 net.cpp:141] Setting up norm2
I0403 14:31:22.089426 17083 net.cpp:148] Top shape: 100 256 27 27 (18662400)
I0403 14:31:22.089442 17083 net.cpp:156] Memory required for data: 662258800
I0403 14:31:22.089457 17083 layer_factory.hpp:77] Creating layer pool2
I0403 14:31:22.089480 17083 net.cpp:91] Creating Layer pool2
I0403 14:31:22.089498 17083 net.cpp:425] pool2 <- norm2
I0403 14:31:22.089515 17083 net.cpp:399] pool2 -> pool2
I0403 14:31:22.089571 17083 net.cpp:141] Setting up pool2
I0403 14:31:22.089596 17083 net.cpp:148] Top shape: 100 256 13 13 (4326400)
I0403 14:31:22.089612 17083 net.cpp:156] Memory required for data: 679564400
I0403 14:31:22.089628 17083 layer_factory.hpp:77] Creating layer conv3
I0403 14:31:22.089653 17083 net.cpp:91] Creating Layer conv3
I0403 14:31:22.089673 17083 net.cpp:425] conv3 <- pool2
I0403 14:31:22.089694 17083 net.cpp:399] conv3 -> conv3
I0403 14:31:22.128453 17083 net.cpp:141] Setting up conv3
I0403 14:31:22.128567 17083 net.cpp:148] Top shape: 100 384 13 13 (6489600)
I0403 14:31:22.128593 17083 net.cpp:156] Memory required for data: 705522800
I0403 14:31:22.128620 17083 layer_factory.hpp:77] Creating layer relu3
I0403 14:31:22.128643 17083 net.cpp:91] Creating Layer relu3
I0403 14:31:22.128661 17083 net.cpp:425] relu3 <- conv3
I0403 14:31:22.128681 17083 net.cpp:386] relu3 -> conv3 (in-place)
I0403 14:31:22.128963 17083 net.cpp:141] Setting up relu3
I0403 14:31:22.128996 17083 net.cpp:148] Top shape: 100 384 13 13 (6489600)
I0403 14:31:22.129014 17083 net.cpp:156] Memory required for data: 731481200
I0403 14:31:22.129032 17083 layer_factory.hpp:77] Creating layer conv4
I0403 14:31:22.129058 17083 net.cpp:91] Creating Layer conv4
I0403 14:31:22.129076 17083 net.cpp:425] conv4 <- conv3
I0403 14:31:22.129096 17083 net.cpp:399] conv4 -> conv4
I0403 14:31:22.159610 17083 net.cpp:141] Setting up conv4
I0403 14:31:22.159692 17083 net.cpp:148] Top shape: 100 384 13 13 (6489600)
I0403 14:31:22.159739 17083 net.cpp:156] Memory required for data: 757439600
I0403 14:31:22.159762 17083 layer_factory.hpp:77] Creating layer relu4
I0403 14:31:22.159787 17083 net.cpp:91] Creating Layer relu4
I0403 14:31:22.159806 17083 net.cpp:425] relu4 <- conv4
I0403 14:31:22.159826 17083 net.cpp:386] relu4 -> conv4 (in-place)
I0403 14:31:22.160176 17083 net.cpp:141] Setting up relu4
I0403 14:31:22.160202 17083 net.cpp:148] Top shape: 100 384 13 13 (6489600)
I0403 14:31:22.160218 17083 net.cpp:156] Memory required for data: 783398000
I0403 14:31:22.160233 17083 layer_factory.hpp:77] Creating layer conv5
I0403 14:31:22.160259 17083 net.cpp:91] Creating Layer conv5
I0403 14:31:22.160277 17083 net.cpp:425] conv5 <- conv4
I0403 14:31:22.160300 17083 net.cpp:399] conv5 -> conv5
I0403 14:31:22.181407 17083 net.cpp:141] Setting up conv5
I0403 14:31:22.181444 17083 net.cpp:148] Top shape: 100 256 13 13 (4326400)
I0403 14:31:22.181462 17083 net.cpp:156] Memory required for data: 800703600
I0403 14:31:22.181499 17083 layer_factory.hpp:77] Creating layer relu5
I0403 14:31:22.181524 17083 net.cpp:91] Creating Layer relu5
I0403 14:31:22.181542 17083 net.cpp:425] relu5 <- conv5
I0403 14:31:22.181561 17083 net.cpp:386] relu5 -> conv5 (in-place)
I0403 14:31:22.181840 17083 net.cpp:141] Setting up relu5
I0403 14:31:22.181869 17083 net.cpp:148] Top shape: 100 256 13 13 (4326400)
I0403 14:31:22.181885 17083 net.cpp:156] Memory required for data: 818009200
I0403 14:31:22.181902 17083 layer_factory.hpp:77] Creating layer pool5
I0403 14:31:22.181924 17083 net.cpp:91] Creating Layer pool5
I0403 14:31:22.181941 17083 net.cpp:425] pool5 <- conv5
I0403 14:31:22.181962 17083 net.cpp:399] pool5 -> pool5
I0403 14:31:22.182060 17083 net.cpp:141] Setting up pool5
I0403 14:31:22.182088 17083 net.cpp:148] Top shape: 100 256 6 6 (921600)
I0403 14:31:22.182103 17083 net.cpp:156] Memory required for data: 821695600
I0403 14:31:22.182117 17083 layer_factory.hpp:77] Creating layer fc6
I0403 14:31:22.182145 17083 net.cpp:91] Creating Layer fc6
I0403 14:31:22.182163 17083 net.cpp:425] fc6 <- pool5
I0403 14:31:22.182183 17083 net.cpp:399] fc6 -> fc6
I0403 14:31:23.740948 17083 net.cpp:141] Setting up fc6
I0403 14:31:23.741049 17083 net.cpp:148] Top shape: 100 4096 (409600)
I0403 14:31:23.741065 17083 net.cpp:156] Memory required for data: 823334000
I0403 14:31:23.741087 17083 layer_factory.hpp:77] Creating layer relu6
I0403 14:31:23.741113 17083 net.cpp:91] Creating Layer relu6
I0403 14:31:23.741130 17083 net.cpp:425] relu6 <- fc6
I0403 14:31:23.741150 17083 net.cpp:386] relu6 -> fc6 (in-place)
I0403 14:31:23.741377 17083 net.cpp:141] Setting up relu6
I0403 14:31:23.741402 17083 net.cpp:148] Top shape: 100 4096 (409600)
I0403 14:31:23.741417 17083 net.cpp:156] Memory required for data: 824972400
I0403 14:31:23.741432 17083 layer_factory.hpp:77] Creating layer drop6
I0403 14:31:23.741453 17083 net.cpp:91] Creating Layer drop6
I0403 14:31:23.741471 17083 net.cpp:425] drop6 <- fc6
I0403 14:31:23.741487 17083 net.cpp:386] drop6 -> fc6 (in-place)
I0403 14:31:23.741544 17083 net.cpp:141] Setting up drop6
I0403 14:31:23.741567 17083 net.cpp:148] Top shape: 100 4096 (409600)
I0403 14:31:23.741581 17083 net.cpp:156] Memory required for data: 826610800
I0403 14:31:23.741596 17083 layer_factory.hpp:77] Creating layer fc7
I0403 14:31:23.741618 17083 net.cpp:91] Creating Layer fc7
I0403 14:31:23.741636 17083 net.cpp:425] fc7 <- fc6
I0403 14:31:23.741654 17083 net.cpp:399] fc7 -> fc7
I0403 14:31:24.457288 17083 net.cpp:141] Setting up fc7
I0403 14:31:24.457384 17083 net.cpp:148] Top shape: 100 4096 (409600)
I0403 14:31:24.457402 17083 net.cpp:156] Memory required for data: 828249200
I0403 14:31:24.457424 17083 layer_factory.hpp:77] Creating layer relu7
I0403 14:31:24.457447 17083 net.cpp:91] Creating Layer relu7
I0403 14:31:24.457464 17083 net.cpp:425] relu7 <- fc7
I0403 14:31:24.457484 17083 net.cpp:386] relu7 -> fc7 (in-place)
I0403 14:31:24.457898 17083 net.cpp:141] Setting up relu7
I0403 14:31:24.457926 17083 net.cpp:148] Top shape: 100 4096 (409600)
I0403 14:31:24.457990 17083 net.cpp:156] Memory required for data: 829887600
I0403 14:31:24.458008 17083 layer_factory.hpp:77] Creating layer drop7
I0403 14:31:24.458027 17083 net.cpp:91] Creating Layer drop7
I0403 14:31:24.458042 17083 net.cpp:425] drop7 <- fc7
I0403 14:31:24.458060 17083 net.cpp:386] drop7 -> fc7 (in-place)
I0403 14:31:24.458106 17083 net.cpp:141] Setting up drop7
I0403 14:31:24.458127 17083 net.cpp:148] Top shape: 100 4096 (409600)
I0403 14:31:24.458142 17083 net.cpp:156] Memory required for data: 831526000
I0403 14:31:24.458156 17083 layer_factory.hpp:77] Creating layer fc8_plantvillage
I0403 14:31:24.458178 17083 net.cpp:91] Creating Layer fc8_plantvillage
I0403 14:31:24.458194 17083 net.cpp:425] fc8_plantvillage <- fc7
I0403 14:31:24.458212 17083 net.cpp:399] fc8_plantvillage -> fc8_plantvillage
I0403 14:31:24.464987 17083 net.cpp:141] Setting up fc8_plantvillage
I0403 14:31:24.465016 17083 net.cpp:148] Top shape: 100 38 (3800)
I0403 14:31:24.465032 17083 net.cpp:156] Memory required for data: 831541200
I0403 14:31:24.465051 17083 layer_factory.hpp:77] Creating layer fc8_plantvillage_fc8_plantvillage_0_split
I0403 14:31:24.465073 17083 net.cpp:91] Creating Layer fc8_plantvillage_fc8_plantvillage_0_split
I0403 14:31:24.465091 17083 net.cpp:425] fc8_plantvillage_fc8_plantvillage_0_split <- fc8_plantvillage
I0403 14:31:24.465111 17083 net.cpp:399] fc8_plantvillage_fc8_plantvillage_0_split -> fc8_plantvillage_fc8_plantvillage_0_split_0
I0403 14:31:24.465134 17083 net.cpp:399] fc8_plantvillage_fc8_plantvillage_0_split -> fc8_plantvillage_fc8_plantvillage_0_split_1
I0403 14:31:24.465155 17083 net.cpp:399] fc8_plantvillage_fc8_plantvillage_0_split -> fc8_plantvillage_fc8_plantvillage_0_split_2
I0403 14:31:24.465234 17083 net.cpp:141] Setting up fc8_plantvillage_fc8_plantvillage_0_split
I0403 14:31:24.465258 17083 net.cpp:148] Top shape: 100 38 (3800)
I0403 14:31:24.465275 17083 net.cpp:148] Top shape: 100 38 (3800)
I0403 14:31:24.465289 17083 net.cpp:148] Top shape: 100 38 (3800)
I0403 14:31:24.465303 17083 net.cpp:156] Memory required for data: 831586800
I0403 14:31:24.465318 17083 layer_factory.hpp:77] Creating layer prob
I0403 14:31:24.465338 17083 net.cpp:91] Creating Layer prob
I0403 14:31:24.465354 17083 net.cpp:425] prob <- fc8_plantvillage_fc8_plantvillage_0_split_0
I0403 14:31:24.465373 17083 net.cpp:399] prob -> prob
I0403 14:31:24.465597 17083 net.cpp:141] Setting up prob
I0403 14:31:24.465623 17083 net.cpp:148] Top shape: 100 38 (3800)
I0403 14:31:24.465638 17083 net.cpp:156] Memory required for data: 831602000
I0403 14:31:24.465652 17083 layer_factory.hpp:77] Creating layer hdf5out
I0403 14:31:24.465673 17083 net.cpp:91] Creating Layer hdf5out
I0403 14:31:24.465692 17083 net.cpp:425] hdf5out <- prob
I0403 14:31:24.465708 17083 net.cpp:425] hdf5out <- label_data_1_split_0
I0403 14:31:24.468328 17083 net.cpp:141] Setting up hdf5out
…
