…
I0403 14:42:09.686381 17396 net.cpp:313] The NetState phase (1) differed from the phase (0) specified by a rule in layer data
I0403 14:42:09.686667 17396 net.cpp:49] Initializing net from parameters: 
state {
  phase: TEST
}
layer {
  name: "data"
  type: "Data"
  top: "data"
  top: "label"
  include {
    phase: TEST
  }
  transform_param {
    crop_size: 227
    mean_file: "/home/mohanty/data/final_dataset/lmdb/segmented-60-40/mean.binaryproto"
  }
  data_param {
    source: "/home/mohanty/data/final_dataset/lmdb/segmented-60-40/test_db"
    batch_size: 100
    backend: LMDB
  }
}
layer {
  name: "conv1"
  type: "Convolution"
  bottom: "data"
  top: "conv1"
  param {
    lr_mult: 1
    decay_mult: 1
  }
  param {
    lr_mult: 2
    decay_mult: 0
  }
  convolution_param {
    num_output: 96
    kernel_size: 11
    stride: 4
    weight_filler {
      type: "gaussian"
      std: 0.01
    }
    bias_filler {
      type: "constant"
      value: 0
    }
  }
}
layer {
  name: "relu1"
  type: "ReLU"
  bottom: "conv1"
  top: "conv1"
}
layer {
  name: "norm1"
  type: "LRN"
  bottom: "conv1"
  top: "norm1"
  lrn_param {
    local_size: 5
    alpha: 0.0001
    beta: 0.75
  }
}
layer {
  name: "pool1"
  type: "Pooling"
  bottom: "norm1"
  top: "pool1"
  pooling_param {
    pool: MAX
    kernel_size: 3
    stride: 2
  }
}
layer {
  name: "conv2"
  type: "Convolution"
  bottom: "pool1"
  top: "conv2"
  param {
    lr_mult: 1
    decay_mult: 1
  }
  param {
    lr_mult: 2
    decay_mult: 0
  }
  convolution_param {
    num_output: 256
    pad: 2
    kernel_size: 5
    group: 2
    weight_filler {
      type: "gaussian"
      std: 0.01
    }
    bias_filler {
      type: "constant"
      value: 0.1
    }
  }
}
layer {
  name: "relu2"
  type: "ReLU"
  bottom: "conv2"
  top: "conv2"
}
layer {
  name: "norm2"
  type: "LRN"
  bottom: "conv2"
  top: "norm2"
  lrn_param {
    local_size: 5
    alpha: 0.0001
    beta: 0.75
  }
}
layer {
  name: "pool2"
  type: "Pooling"
  bottom: "norm2"
  top: "pool2"
  pooling_param {
    pool: MAX
    kernel_size: 3
    stride: 2
  }
}
layer {
  name: "conv3"
  type: "Convolution"
  bottom: "pool2"
  top: "conv3"
  param {
    lr_mult: 1
    decay_mult: 1
  }
  param {
    lr_mult: 2
    decay_mult: 0
  }
  convolution_param {
    num_output: 384
    pad: 1
    kernel_size: 3
    weight_filler {
      type: "gaussian"
      std: 0.01
    }
    bias_filler {
      type: "constant"
      value: 0
    }
  }
}
layer {
  name: "relu3"
  type: "ReLU"
  bottom: "conv3"
  top: "conv3"
}
layer {
  name: "conv4"
  type: "Convolution"
  bottom: "conv3"
  top: "conv4"
  param {
    lr_mult: 1
    decay_mult: 1
  }
  param {
    lr_mult: 2
    decay_mult: 0
  }
  convolution_param {
    num_output: 384
    pad: 1
    kernel_size: 3
    group: 2
    weight_filler {
      type: "gaussian"
      std: 0.01
    }
    bias_filler {
      type: "constant"
      value: 0.1
    }
  }
}
layer {
  name: "relu4"
  type: "ReLU"
  bottom: "conv4"
  top: "conv4"
}
layer {
  name: "conv5"
  type: "Convolution"
  bottom: "conv4"
  top: "conv5"
  param {
    lr_mult: 1
    decay_mult: 1
  }
  param {
    lr_mult: 2
    decay_mult: 0
  }
  convolution_param {
    num_output: 256
    pad: 1
    kernel_size: 3
    group: 2
    weight_filler {
      type: "gaussian"
      std: 0.01
    }
    bias_filler {
      type: "constant"
      value: 0.1
    }
  }
}
layer {
  name: "relu5"
  type: "ReLU"
  bottom: "conv5"
  top: "conv5"
}
layer {
  name: "pool5"
  type: "Pooling"
  bottom: "conv5"
  top: "pool5"
  pooling_param {
    pool: MAX
    kernel_size: 3
    stride: 2
  }
}
layer {
  name: "fc6"
  type: "InnerProduct"
  bottom: "pool5"
  top: "fc6"
  param {
    lr_mult: 1
    decay_mult: 1
  }
  param {
    lr_mult: 2
    decay_mult: 0
  }
  inner_product_param {
    num_output: 4096
    weight_filler {
      type: "gaussian"
      std: 0.005
    }
    bias_filler {
      type: "constant"
      value: 0.1
    }
  }
}
layer {
  name: "relu6"
  type: "ReLU"
  bottom: "fc6"
  top: "fc6"
}
layer {
  name: "drop6"
  type: "Dropout"
  bottom: "fc6"
  top: "fc6"
  dropout_param {
    dropout_ratio: 0.5
  }
}
layer {
  name: "fc7"
  type: "InnerProduct"
  bottom: "fc6"
  top: "fc7"
  param {
    lr_mult: 1
    decay_mult: 1
  }
  param {
    lr_mult: 2
    decay_mult: 0
  }
  inner_product_param {
    num_output: 4096
    weight_filler {
      type: "gaussian"
      std: 0.005
    }
    bias_filler {
      type: "constant"
      value: 0.1
    }
  }
}
layer {
  name: "relu7"
  type: "ReLU"
  bottom: "fc7"
  top: "fc7"
}
layer {
  name: "drop7"
  type: "Dropout"
  bottom: "fc7"
  top: "fc7"
  dropout_param {
    dropout_ratio: 0.5
  }
}
layer {
  name: "fc8_plantvillage"
  type: "InnerProduct"
  bottom: "fc7"
  top: "fc8_plantvillage"
  param {
    lr_mult: 1
    decay_mult: 1
  }
  param {
    lr_mult: 2
    decay_mult: 0
  }
  inner_product_param {
    num_output: 38
    weight_filler {
      type: "gaussian"
      std: 0.01
    }
    bias_filler {
      type: "constant"
      value: 0
    }
  }
}
layer {
  name: "prob"
  type: "Softmax"
  bottom: "fc8_plantvillage"
  top: "prob"
  include {
    phase: TEST
  }
}
layer {
  name: "hdf5out"
  type: "HDF5Output"
  bottom: "prob"
  bottom: "label"
  include {
    phase: TEST
  }
  hdf5_output_param {
    file_name: "hdf5_dumps/iter_7475.h5"
  }
}
layer {
  name: "loss"
  type: "SoftmaxWithLoss"
  bottom: "fc8_plantvillage"
  bottom: "label"
  top: "loss"
}
layer {
  name: "accuracy"
  type: "Accuracy"
  bottom: "fc8_plantvillage"
  bottom: "label"
  top: "accuracy"
  include {
    phase: TEST
  }
}
I0403 14:42:09.687217 17396 layer_factory.hpp:77] Creating layer data
I0403 14:42:09.687836 17396 net.cpp:91] Creating Layer data
I0403 14:42:09.687867 17396 net.cpp:399] data -> data
I0403 14:42:09.687916 17396 net.cpp:399] data -> label
I0403 14:42:09.687949 17396 data_transformer.cpp:25] Loading mean file from: /home/mohanty/data/final_dataset/lmdb/segmented-60-40/mean.binaryproto
I0403 14:42:09.689005 17399 db_lmdb.cpp:38] Opened lmdb /home/mohanty/data/final_dataset/lmdb/segmented-60-40/test_db
I0403 14:42:09.701905 17396 data_layer.cpp:41] output data size: 100,3,227,227
I0403 14:42:09.834915 17396 net.cpp:141] Setting up data
I0403 14:42:09.835029 17396 net.cpp:148] Top shape: 100 3 227 227 (15458700)
I0403 14:42:09.835054 17396 net.cpp:148] Top shape: 100 (100)
I0403 14:42:09.835070 17396 net.cpp:156] Memory required for data: 61835200
I0403 14:42:09.835098 17396 layer_factory.hpp:77] Creating layer label_data_1_split
I0403 14:42:09.835122 17396 net.cpp:91] Creating Layer label_data_1_split
I0403 14:42:09.835140 17396 net.cpp:425] label_data_1_split <- label
I0403 14:42:09.835173 17396 net.cpp:399] label_data_1_split -> label_data_1_split_0
I0403 14:42:09.835201 17396 net.cpp:399] label_data_1_split -> label_data_1_split_1
I0403 14:42:09.835223 17396 net.cpp:399] label_data_1_split -> label_data_1_split_2
I0403 14:42:09.835289 17396 net.cpp:141] Setting up label_data_1_split
I0403 14:42:09.835312 17396 net.cpp:148] Top shape: 100 (100)
I0403 14:42:09.835330 17396 net.cpp:148] Top shape: 100 (100)
I0403 14:42:09.835346 17396 net.cpp:148] Top shape: 100 (100)
I0403 14:42:09.835361 17396 net.cpp:156] Memory required for data: 61836400
I0403 14:42:09.835376 17396 layer_factory.hpp:77] Creating layer conv1
I0403 14:42:09.835408 17396 net.cpp:91] Creating Layer conv1
I0403 14:42:09.835427 17396 net.cpp:425] conv1 <- data
I0403 14:42:09.835448 17396 net.cpp:399] conv1 -> conv1
I0403 14:42:09.979611 17396 net.cpp:141] Setting up conv1
I0403 14:42:09.979676 17396 net.cpp:148] Top shape: 100 96 55 55 (29040000)
I0403 14:42:09.979693 17396 net.cpp:156] Memory required for data: 177996400
I0403 14:42:09.979723 17396 layer_factory.hpp:77] Creating layer relu1
I0403 14:42:09.979753 17396 net.cpp:91] Creating Layer relu1
I0403 14:42:09.979773 17396 net.cpp:425] relu1 <- conv1
I0403 14:42:09.979791 17396 net.cpp:386] relu1 -> conv1 (in-place)
I0403 14:42:09.980077 17396 net.cpp:141] Setting up relu1
I0403 14:42:09.980104 17396 net.cpp:148] Top shape: 100 96 55 55 (29040000)
I0403 14:42:09.980150 17396 net.cpp:156] Memory required for data: 294156400
I0403 14:42:09.980166 17396 layer_factory.hpp:77] Creating layer norm1
I0403 14:42:09.980195 17396 net.cpp:91] Creating Layer norm1
I0403 14:42:09.980216 17396 net.cpp:425] norm1 <- conv1
I0403 14:42:09.980237 17396 net.cpp:399] norm1 -> norm1
I0403 14:42:09.980602 17396 net.cpp:141] Setting up norm1
I0403 14:42:09.980631 17396 net.cpp:148] Top shape: 100 96 55 55 (29040000)
I0403 14:42:09.980648 17396 net.cpp:156] Memory required for data: 410316400
I0403 14:42:09.980662 17396 layer_factory.hpp:77] Creating layer pool1
I0403 14:42:09.980685 17396 net.cpp:91] Creating Layer pool1
I0403 14:42:09.980701 17396 net.cpp:425] pool1 <- norm1
I0403 14:42:09.980721 17396 net.cpp:399] pool1 -> pool1
I0403 14:42:09.980792 17396 net.cpp:141] Setting up pool1
I0403 14:42:09.980840 17396 net.cpp:148] Top shape: 100 96 27 27 (6998400)
I0403 14:42:09.980859 17396 net.cpp:156] Memory required for data: 438310000
I0403 14:42:09.980873 17396 layer_factory.hpp:77] Creating layer conv2
I0403 14:42:09.980897 17396 net.cpp:91] Creating Layer conv2
I0403 14:42:09.980913 17396 net.cpp:425] conv2 <- pool1
I0403 14:42:09.980933 17396 net.cpp:399] conv2 -> conv2
I0403 14:42:09.996714 17396 net.cpp:141] Setting up conv2
I0403 14:42:09.996780 17396 net.cpp:148] Top shape: 100 256 27 27 (18662400)
I0403 14:42:09.996798 17396 net.cpp:156] Memory required for data: 512959600
I0403 14:42:09.996822 17396 layer_factory.hpp:77] Creating layer relu2
I0403 14:42:09.996842 17396 net.cpp:91] Creating Layer relu2
I0403 14:42:09.996860 17396 net.cpp:425] relu2 <- conv2
I0403 14:42:09.996881 17396 net.cpp:386] relu2 -> conv2 (in-place)
I0403 14:42:09.997179 17396 net.cpp:141] Setting up relu2
I0403 14:42:09.997206 17396 net.cpp:148] Top shape: 100 256 27 27 (18662400)
I0403 14:42:09.997223 17396 net.cpp:156] Memory required for data: 587609200
I0403 14:42:09.997238 17396 layer_factory.hpp:77] Creating layer norm2
I0403 14:42:09.997263 17396 net.cpp:91] Creating Layer norm2
I0403 14:42:09.997282 17396 net.cpp:425] norm2 <- conv2
I0403 14:42:09.997301 17396 net.cpp:399] norm2 -> norm2
I0403 14:42:09.997508 17396 net.cpp:141] Setting up norm2
I0403 14:42:09.997536 17396 net.cpp:148] Top shape: 100 256 27 27 (18662400)
I0403 14:42:09.997552 17396 net.cpp:156] Memory required for data: 662258800
I0403 14:42:09.997567 17396 layer_factory.hpp:77] Creating layer pool2
I0403 14:42:09.997586 17396 net.cpp:91] Creating Layer pool2
I0403 14:42:09.997602 17396 net.cpp:425] pool2 <- norm2
I0403 14:42:09.997622 17396 net.cpp:399] pool2 -> pool2
I0403 14:42:09.997676 17396 net.cpp:141] Setting up pool2
I0403 14:42:09.997700 17396 net.cpp:148] Top shape: 100 256 13 13 (4326400)
I0403 14:42:09.997715 17396 net.cpp:156] Memory required for data: 679564400
I0403 14:42:09.997730 17396 layer_factory.hpp:77] Creating layer conv3
I0403 14:42:09.997757 17396 net.cpp:91] Creating Layer conv3
I0403 14:42:09.997777 17396 net.cpp:425] conv3 <- pool2
I0403 14:42:09.997795 17396 net.cpp:399] conv3 -> conv3
I0403 14:42:10.037166 17396 net.cpp:141] Setting up conv3
I0403 14:42:10.037259 17396 net.cpp:148] Top shape: 100 384 13 13 (6489600)
I0403 14:42:10.037276 17396 net.cpp:156] Memory required for data: 705522800
I0403 14:42:10.037303 17396 layer_factory.hpp:77] Creating layer relu3
I0403 14:42:10.037327 17396 net.cpp:91] Creating Layer relu3
I0403 14:42:10.037344 17396 net.cpp:425] relu3 <- conv3
I0403 14:42:10.037369 17396 net.cpp:386] relu3 -> conv3 (in-place)
I0403 14:42:10.037662 17396 net.cpp:141] Setting up relu3
I0403 14:42:10.037691 17396 net.cpp:148] Top shape: 100 384 13 13 (6489600)
I0403 14:42:10.037708 17396 net.cpp:156] Memory required for data: 731481200
I0403 14:42:10.037724 17396 layer_factory.hpp:77] Creating layer conv4
I0403 14:42:10.037749 17396 net.cpp:91] Creating Layer conv4
I0403 14:42:10.037765 17396 net.cpp:425] conv4 <- conv3
I0403 14:42:10.037783 17396 net.cpp:399] conv4 -> conv4
I0403 14:42:10.068686 17396 net.cpp:141] Setting up conv4
I0403 14:42:10.068745 17396 net.cpp:148] Top shape: 100 384 13 13 (6489600)
I0403 14:42:10.068809 17396 net.cpp:156] Memory required for data: 757439600
I0403 14:42:10.068831 17396 layer_factory.hpp:77] Creating layer relu4
I0403 14:42:10.068877 17396 net.cpp:91] Creating Layer relu4
I0403 14:42:10.068920 17396 net.cpp:425] relu4 <- conv4
I0403 14:42:10.068975 17396 net.cpp:386] relu4 -> conv4 (in-place)
I0403 14:42:10.069303 17396 net.cpp:141] Setting up relu4
I0403 14:42:10.069367 17396 net.cpp:148] Top shape: 100 384 13 13 (6489600)
I0403 14:42:10.069388 17396 net.cpp:156] Memory required for data: 783398000
I0403 14:42:10.069404 17396 layer_factory.hpp:77] Creating layer conv5
I0403 14:42:10.069437 17396 net.cpp:91] Creating Layer conv5
I0403 14:42:10.069454 17396 net.cpp:425] conv5 <- conv4
I0403 14:42:10.069474 17396 net.cpp:399] conv5 -> conv5
I0403 14:42:10.090759 17396 net.cpp:141] Setting up conv5
I0403 14:42:10.090822 17396 net.cpp:148] Top shape: 100 256 13 13 (4326400)
I0403 14:42:10.090839 17396 net.cpp:156] Memory required for data: 800703600
I0403 14:42:10.090864 17396 layer_factory.hpp:77] Creating layer relu5
I0403 14:42:10.090885 17396 net.cpp:91] Creating Layer relu5
I0403 14:42:10.090903 17396 net.cpp:425] relu5 <- conv5
I0403 14:42:10.090939 17396 net.cpp:386] relu5 -> conv5 (in-place)
I0403 14:42:10.091266 17396 net.cpp:141] Setting up relu5
I0403 14:42:10.091292 17396 net.cpp:148] Top shape: 100 256 13 13 (4326400)
I0403 14:42:10.091307 17396 net.cpp:156] Memory required for data: 818009200
I0403 14:42:10.091322 17396 layer_factory.hpp:77] Creating layer pool5
I0403 14:42:10.091343 17396 net.cpp:91] Creating Layer pool5
I0403 14:42:10.091358 17396 net.cpp:425] pool5 <- conv5
I0403 14:42:10.091378 17396 net.cpp:399] pool5 -> pool5
I0403 14:42:10.091437 17396 net.cpp:141] Setting up pool5
I0403 14:42:10.091461 17396 net.cpp:148] Top shape: 100 256 6 6 (921600)
I0403 14:42:10.091475 17396 net.cpp:156] Memory required for data: 821695600
I0403 14:42:10.091488 17396 layer_factory.hpp:77] Creating layer fc6
I0403 14:42:10.091516 17396 net.cpp:91] Creating Layer fc6
I0403 14:42:10.091533 17396 net.cpp:425] fc6 <- pool5
I0403 14:42:10.091553 17396 net.cpp:399] fc6 -> fc6
I0403 14:42:11.737228 17396 net.cpp:141] Setting up fc6
I0403 14:42:11.737313 17396 net.cpp:148] Top shape: 100 4096 (409600)
I0403 14:42:11.737329 17396 net.cpp:156] Memory required for data: 823334000
I0403 14:42:11.737349 17396 layer_factory.hpp:77] Creating layer relu6
I0403 14:42:11.737372 17396 net.cpp:91] Creating Layer relu6
I0403 14:42:11.737390 17396 net.cpp:425] relu6 <- fc6
I0403 14:42:11.737407 17396 net.cpp:386] relu6 -> fc6 (in-place)
I0403 14:42:11.737622 17396 net.cpp:141] Setting up relu6
I0403 14:42:11.737646 17396 net.cpp:148] Top shape: 100 4096 (409600)
I0403 14:42:11.737660 17396 net.cpp:156] Memory required for data: 824972400
I0403 14:42:11.737674 17396 layer_factory.hpp:77] Creating layer drop6
I0403 14:42:11.737692 17396 net.cpp:91] Creating Layer drop6
I0403 14:42:11.737707 17396 net.cpp:425] drop6 <- fc6
I0403 14:42:11.737725 17396 net.cpp:386] drop6 -> fc6 (in-place)
I0403 14:42:11.737774 17396 net.cpp:141] Setting up drop6
I0403 14:42:11.737797 17396 net.cpp:148] Top shape: 100 4096 (409600)
I0403 14:42:11.737810 17396 net.cpp:156] Memory required for data: 826610800
I0403 14:42:11.737823 17396 layer_factory.hpp:77] Creating layer fc7
I0403 14:42:11.737846 17396 net.cpp:91] Creating Layer fc7
I0403 14:42:11.737862 17396 net.cpp:425] fc7 <- fc6
I0403 14:42:11.737881 17396 net.cpp:399] fc7 -> fc7
I0403 14:42:12.487964 17396 net.cpp:141] Setting up fc7
I0403 14:42:12.488054 17396 net.cpp:148] Top shape: 100 4096 (409600)
I0403 14:42:12.488070 17396 net.cpp:156] Memory required for data: 828249200
I0403 14:42:12.488091 17396 layer_factory.hpp:77] Creating layer relu7
I0403 14:42:12.488113 17396 net.cpp:91] Creating Layer relu7
I0403 14:42:12.488131 17396 net.cpp:425] relu7 <- fc7
I0403 14:42:12.488152 17396 net.cpp:386] relu7 -> fc7 (in-place)
I0403 14:42:12.488561 17396 net.cpp:141] Setting up relu7
I0403 14:42:12.488590 17396 net.cpp:148] Top shape: 100 4096 (409600)
I0403 14:42:12.488636 17396 net.cpp:156] Memory required for data: 829887600
I0403 14:42:12.488652 17396 layer_factory.hpp:77] Creating layer drop7
I0403 14:42:12.488670 17396 net.cpp:91] Creating Layer drop7
I0403 14:42:12.488685 17396 net.cpp:425] drop7 <- fc7
I0403 14:42:12.488704 17396 net.cpp:386] drop7 -> fc7 (in-place)
I0403 14:42:12.488747 17396 net.cpp:141] Setting up drop7
I0403 14:42:12.488770 17396 net.cpp:148] Top shape: 100 4096 (409600)
I0403 14:42:12.488783 17396 net.cpp:156] Memory required for data: 831526000
I0403 14:42:12.488796 17396 layer_factory.hpp:77] Creating layer fc8_plantvillage
I0403 14:42:12.488818 17396 net.cpp:91] Creating Layer fc8_plantvillage
I0403 14:42:12.488834 17396 net.cpp:425] fc8_plantvillage <- fc7
I0403 14:42:12.488853 17396 net.cpp:399] fc8_plantvillage -> fc8_plantvillage
I0403 14:42:12.495997 17396 net.cpp:141] Setting up fc8_plantvillage
I0403 14:42:12.496026 17396 net.cpp:148] Top shape: 100 38 (3800)
I0403 14:42:12.496040 17396 net.cpp:156] Memory required for data: 831541200
I0403 14:42:12.496058 17396 layer_factory.hpp:77] Creating layer fc8_plantvillage_fc8_plantvillage_0_split
I0403 14:42:12.496078 17396 net.cpp:91] Creating Layer fc8_plantvillage_fc8_plantvillage_0_split
I0403 14:42:12.496093 17396 net.cpp:425] fc8_plantvillage_fc8_plantvillage_0_split <- fc8_plantvillage
I0403 14:42:12.496112 17396 net.cpp:399] fc8_plantvillage_fc8_plantvillage_0_split -> fc8_plantvillage_fc8_plantvillage_0_split_0
I0403 14:42:12.496134 17396 net.cpp:399] fc8_plantvillage_fc8_plantvillage_0_split -> fc8_plantvillage_fc8_plantvillage_0_split_1
I0403 14:42:12.496152 17396 net.cpp:399] fc8_plantvillage_fc8_plantvillage_0_split -> fc8_plantvillage_fc8_plantvillage_0_split_2
I0403 14:42:12.496232 17396 net.cpp:141] Setting up fc8_plantvillage_fc8_plantvillage_0_split
I0403 14:42:12.496255 17396 net.cpp:148] Top shape: 100 38 (3800)
I0403 14:42:12.496282 17396 net.cpp:148] Top shape: 100 38 (3800)
I0403 14:42:12.496297 17396 net.cpp:148] Top shape: 100 38 (3800)
I0403 14:42:12.496310 17396 net.cpp:156] Memory required for data: 831586800
I0403 14:42:12.496325 17396 layer_factory.hpp:77] Creating layer prob
I0403 14:42:12.496342 17396 net.cpp:91] Creating Layer prob
I0403 14:42:12.496357 17396 net.cpp:425] prob <- fc8_plantvillage_fc8_plantvillage_0_split_0
I0403 14:42:12.496377 17396 net.cpp:399] prob -> prob
I0403 14:42:12.496603 17396 net.cpp:141] Setting up prob
I0403 14:42:12.496630 17396 net.cpp:148] Top shape: 100 38 (3800)
I0403 14:42:12.496646 17396 net.cpp:156] Memory required for data: 831602000
I0403 14:42:12.496660 17396 layer_factory.hpp:77] Creating layer hdf5out
I0403 14:42:12.496680 17396 net.cpp:91] Creating Layer hdf5out
I0403 14:42:12.496695 17396 net.cpp:425] hdf5out <- prob
I0403 14:42:12.496711 17396 net.cpp:425] hdf5out <- label_data_1_split_0
I0403 14:42:12.500108 17396 net.cpp:141] Setting up hdf5out
…
