…
I0403 14:32:05.167753 17106 net.cpp:313] The NetState phase (1) differed from the phase (0) specified by a rule in layer data
I0403 14:32:05.168069 17106 net.cpp:49] Initializing net from parameters: 
state {
  phase: TEST
}
layer {
  name: "data"
  type: "Data"
  top: "data"
  top: "label"
  include {
    phase: TEST
  }
  transform_param {
    crop_size: 227
    mean_file: "/home/mohanty/data/final_dataset/lmdb/segmented-60-40/mean.binaryproto"
  }
  data_param {
    source: "/home/mohanty/data/final_dataset/lmdb/segmented-60-40/test_db"
    batch_size: 100
    backend: LMDB
  }
}
layer {
  name: "conv1"
  type: "Convolution"
  bottom: "data"
  top: "conv1"
  param {
    lr_mult: 1
    decay_mult: 1
  }
  param {
    lr_mult: 2
    decay_mult: 0
  }
  convolution_param {
    num_output: 96
    kernel_size: 11
    stride: 4
    weight_filler {
      type: "gaussian"
      std: 0.01
    }
    bias_filler {
      type: "constant"
      value: 0
    }
  }
}
layer {
  name: "relu1"
  type: "ReLU"
  bottom: "conv1"
  top: "conv1"
}
layer {
  name: "norm1"
  type: "LRN"
  bottom: "conv1"
  top: "norm1"
  lrn_param {
    local_size: 5
    alpha: 0.0001
    beta: 0.75
  }
}
layer {
  name: "pool1"
  type: "Pooling"
  bottom: "norm1"
  top: "pool1"
  pooling_param {
    pool: MAX
    kernel_size: 3
    stride: 2
  }
}
layer {
  name: "conv2"
  type: "Convolution"
  bottom: "pool1"
  top: "conv2"
  param {
    lr_mult: 1
    decay_mult: 1
  }
  param {
    lr_mult: 2
    decay_mult: 0
  }
  convolution_param {
    num_output: 256
    pad: 2
    kernel_size: 5
    group: 2
    weight_filler {
      type: "gaussian"
      std: 0.01
    }
    bias_filler {
      type: "constant"
      value: 0.1
    }
  }
}
layer {
  name: "relu2"
  type: "ReLU"
  bottom: "conv2"
  top: "conv2"
}
layer {
  name: "norm2"
  type: "LRN"
  bottom: "conv2"
  top: "norm2"
  lrn_param {
    local_size: 5
    alpha: 0.0001
    beta: 0.75
  }
}
layer {
  name: "pool2"
  type: "Pooling"
  bottom: "norm2"
  top: "pool2"
  pooling_param {
    pool: MAX
    kernel_size: 3
    stride: 2
  }
}
layer {
  name: "conv3"
  type: "Convolution"
  bottom: "pool2"
  top: "conv3"
  param {
    lr_mult: 1
    decay_mult: 1
  }
  param {
    lr_mult: 2
    decay_mult: 0
  }
  convolution_param {
    num_output: 384
    pad: 1
    kernel_size: 3
    weight_filler {
      type: "gaussian"
      std: 0.01
    }
    bias_filler {
      type: "constant"
      value: 0
    }
  }
}
layer {
  name: "relu3"
  type: "ReLU"
  bottom: "conv3"
  top: "conv3"
}
layer {
  name: "conv4"
  type: "Convolution"
  bottom: "conv3"
  top: "conv4"
  param {
    lr_mult: 1
    decay_mult: 1
  }
  param {
    lr_mult: 2
    decay_mult: 0
  }
  convolution_param {
    num_output: 384
    pad: 1
    kernel_size: 3
    group: 2
    weight_filler {
      type: "gaussian"
      std: 0.01
    }
    bias_filler {
      type: "constant"
      value: 0.1
    }
  }
}
layer {
  name: "relu4"
  type: "ReLU"
  bottom: "conv4"
  top: "conv4"
}
layer {
  name: "conv5"
  type: "Convolution"
  bottom: "conv4"
  top: "conv5"
  param {
    lr_mult: 1
    decay_mult: 1
  }
  param {
    lr_mult: 2
    decay_mult: 0
  }
  convolution_param {
    num_output: 256
    pad: 1
    kernel_size: 3
    group: 2
    weight_filler {
      type: "gaussian"
      std: 0.01
    }
    bias_filler {
      type: "constant"
      value: 0.1
    }
  }
}
layer {
  name: "relu5"
  type: "ReLU"
  bottom: "conv5"
  top: "conv5"
}
layer {
  name: "pool5"
  type: "Pooling"
  bottom: "conv5"
  top: "pool5"
  pooling_param {
    pool: MAX
    kernel_size: 3
    stride: 2
  }
}
layer {
  name: "fc6"
  type: "InnerProduct"
  bottom: "pool5"
  top: "fc6"
  param {
    lr_mult: 1
    decay_mult: 1
  }
  param {
    lr_mult: 2
    decay_mult: 0
  }
  inner_product_param {
    num_output: 4096
    weight_filler {
      type: "gaussian"
      std: 0.005
    }
    bias_filler {
      type: "constant"
      value: 0.1
    }
  }
}
layer {
  name: "relu6"
  type: "ReLU"
  bottom: "fc6"
  top: "fc6"
}
layer {
  name: "drop6"
  type: "Dropout"
  bottom: "fc6"
  top: "fc6"
  dropout_param {
    dropout_ratio: 0.5
  }
}
layer {
  name: "fc7"
  type: "InnerProduct"
  bottom: "fc6"
  top: "fc7"
  param {
    lr_mult: 1
    decay_mult: 1
  }
  param {
    lr_mult: 2
    decay_mult: 0
  }
  inner_product_param {
    num_output: 4096
    weight_filler {
      type: "gaussian"
      std: 0.005
    }
    bias_filler {
      type: "constant"
      value: 0.1
    }
  }
}
layer {
  name: "relu7"
  type: "ReLU"
  bottom: "fc7"
  top: "fc7"
}
layer {
  name: "drop7"
  type: "Dropout"
  bottom: "fc7"
  top: "fc7"
  dropout_param {
    dropout_ratio: 0.5
  }
}
layer {
  name: "fc8_plantvillage"
  type: "InnerProduct"
  bottom: "fc7"
  top: "fc8_plantvillage"
  param {
    lr_mult: 1
    decay_mult: 1
  }
  param {
    lr_mult: 2
    decay_mult: 0
  }
  inner_product_param {
    num_output: 38
    weight_filler {
      type: "gaussian"
      std: 0.01
    }
    bias_filler {
      type: "constant"
      value: 0
    }
  }
}
layer {
  name: "prob"
  type: "Softmax"
  bottom: "fc8_plantvillage"
  top: "prob"
  include {
    phase: TEST
  }
}
layer {
  name: "hdf5out"
  type: "HDF5Output"
  bottom: "prob"
  bottom: "label"
  include {
    phase: TEST
  }
  hdf5_output_param {
    file_name: "hdf5_dumps/iter_2925.h5"
  }
}
layer {
  name: "loss"
  type: "SoftmaxWithLoss"
  bottom: "fc8_plantvillage"
  bottom: "label"
  top: "loss"
}
layer {
  name: "accuracy"
  type: "Accuracy"
  bottom: "fc8_plantvillage"
  bottom: "label"
  top: "accuracy"
  include {
    phase: TEST
  }
}
I0403 14:32:05.168762 17106 layer_factory.hpp:77] Creating layer data
I0403 14:32:05.169423 17106 net.cpp:91] Creating Layer data
I0403 14:32:05.169456 17106 net.cpp:399] data -> data
I0403 14:32:05.169507 17106 net.cpp:399] data -> label
I0403 14:32:05.169543 17106 data_transformer.cpp:25] Loading mean file from: /home/mohanty/data/final_dataset/lmdb/segmented-60-40/mean.binaryproto
I0403 14:32:05.170667 17109 db_lmdb.cpp:38] Opened lmdb /home/mohanty/data/final_dataset/lmdb/segmented-60-40/test_db
I0403 14:32:05.183934 17106 data_layer.cpp:41] output data size: 100,3,227,227
I0403 14:32:05.317811 17106 net.cpp:141] Setting up data
I0403 14:32:05.317876 17106 net.cpp:148] Top shape: 100 3 227 227 (15458700)
I0403 14:32:05.317900 17106 net.cpp:148] Top shape: 100 (100)
I0403 14:32:05.317916 17106 net.cpp:156] Memory required for data: 61835200
I0403 14:32:05.317946 17106 layer_factory.hpp:77] Creating layer label_data_1_split
I0403 14:32:05.317978 17106 net.cpp:91] Creating Layer label_data_1_split
I0403 14:32:05.317998 17106 net.cpp:425] label_data_1_split <- label
I0403 14:32:05.318032 17106 net.cpp:399] label_data_1_split -> label_data_1_split_0
I0403 14:32:05.318061 17106 net.cpp:399] label_data_1_split -> label_data_1_split_1
I0403 14:32:05.318083 17106 net.cpp:399] label_data_1_split -> label_data_1_split_2
I0403 14:32:05.318146 17106 net.cpp:141] Setting up label_data_1_split
I0403 14:32:05.318171 17106 net.cpp:148] Top shape: 100 (100)
I0403 14:32:05.318187 17106 net.cpp:148] Top shape: 100 (100)
I0403 14:32:05.318204 17106 net.cpp:148] Top shape: 100 (100)
I0403 14:32:05.318218 17106 net.cpp:156] Memory required for data: 61836400
I0403 14:32:05.318233 17106 layer_factory.hpp:77] Creating layer conv1
I0403 14:32:05.318264 17106 net.cpp:91] Creating Layer conv1
I0403 14:32:05.318284 17106 net.cpp:425] conv1 <- data
I0403 14:32:05.318303 17106 net.cpp:399] conv1 -> conv1
I0403 14:32:05.466779 17106 net.cpp:141] Setting up conv1
I0403 14:32:05.466821 17106 net.cpp:148] Top shape: 100 96 55 55 (29040000)
I0403 14:32:05.466838 17106 net.cpp:156] Memory required for data: 177996400
I0403 14:32:05.466871 17106 layer_factory.hpp:77] Creating layer relu1
I0403 14:32:05.466898 17106 net.cpp:91] Creating Layer relu1
I0403 14:32:05.466917 17106 net.cpp:425] relu1 <- conv1
I0403 14:32:05.466936 17106 net.cpp:386] relu1 -> conv1 (in-place)
I0403 14:32:05.467209 17106 net.cpp:141] Setting up relu1
I0403 14:32:05.467237 17106 net.cpp:148] Top shape: 100 96 55 55 (29040000)
I0403 14:32:05.467285 17106 net.cpp:156] Memory required for data: 294156400
I0403 14:32:05.467303 17106 layer_factory.hpp:77] Creating layer norm1
I0403 14:32:05.467330 17106 net.cpp:91] Creating Layer norm1
I0403 14:32:05.467350 17106 net.cpp:425] norm1 <- conv1
I0403 14:32:05.467368 17106 net.cpp:399] norm1 -> norm1
I0403 14:32:05.467710 17106 net.cpp:141] Setting up norm1
I0403 14:32:05.467738 17106 net.cpp:148] Top shape: 100 96 55 55 (29040000)
I0403 14:32:05.467754 17106 net.cpp:156] Memory required for data: 410316400
I0403 14:32:05.467770 17106 layer_factory.hpp:77] Creating layer pool1
I0403 14:32:05.467793 17106 net.cpp:91] Creating Layer pool1
I0403 14:32:05.467811 17106 net.cpp:425] pool1 <- norm1
I0403 14:32:05.467829 17106 net.cpp:399] pool1 -> pool1
I0403 14:32:05.467908 17106 net.cpp:141] Setting up pool1
I0403 14:32:05.467933 17106 net.cpp:148] Top shape: 100 96 27 27 (6998400)
I0403 14:32:05.467949 17106 net.cpp:156] Memory required for data: 438310000
I0403 14:32:05.467972 17106 layer_factory.hpp:77] Creating layer conv2
I0403 14:32:05.467998 17106 net.cpp:91] Creating Layer conv2
I0403 14:32:05.468015 17106 net.cpp:425] conv2 <- pool1
I0403 14:32:05.468034 17106 net.cpp:399] conv2 -> conv2
I0403 14:32:05.483564 17106 net.cpp:141] Setting up conv2
I0403 14:32:05.483623 17106 net.cpp:148] Top shape: 100 256 27 27 (18662400)
I0403 14:32:05.483640 17106 net.cpp:156] Memory required for data: 512959600
I0403 14:32:05.483664 17106 layer_factory.hpp:77] Creating layer relu2
I0403 14:32:05.483687 17106 net.cpp:91] Creating Layer relu2
I0403 14:32:05.483705 17106 net.cpp:425] relu2 <- conv2
I0403 14:32:05.483724 17106 net.cpp:386] relu2 -> conv2 (in-place)
I0403 14:32:05.484024 17106 net.cpp:141] Setting up relu2
I0403 14:32:05.484051 17106 net.cpp:148] Top shape: 100 256 27 27 (18662400)
I0403 14:32:05.484068 17106 net.cpp:156] Memory required for data: 587609200
I0403 14:32:05.484083 17106 layer_factory.hpp:77] Creating layer norm2
I0403 14:32:05.484108 17106 net.cpp:91] Creating Layer norm2
I0403 14:32:05.484125 17106 net.cpp:425] norm2 <- conv2
I0403 14:32:05.484148 17106 net.cpp:399] norm2 -> norm2
I0403 14:32:05.484385 17106 net.cpp:141] Setting up norm2
I0403 14:32:05.484413 17106 net.cpp:148] Top shape: 100 256 27 27 (18662400)
I0403 14:32:05.484429 17106 net.cpp:156] Memory required for data: 662258800
I0403 14:32:05.484444 17106 layer_factory.hpp:77] Creating layer pool2
I0403 14:32:05.484463 17106 net.cpp:91] Creating Layer pool2
I0403 14:32:05.484479 17106 net.cpp:425] pool2 <- norm2
I0403 14:32:05.484500 17106 net.cpp:399] pool2 -> pool2
I0403 14:32:05.484555 17106 net.cpp:141] Setting up pool2
I0403 14:32:05.484580 17106 net.cpp:148] Top shape: 100 256 13 13 (4326400)
I0403 14:32:05.484596 17106 net.cpp:156] Memory required for data: 679564400
I0403 14:32:05.484611 17106 layer_factory.hpp:77] Creating layer conv3
I0403 14:32:05.484638 17106 net.cpp:91] Creating Layer conv3
I0403 14:32:05.484657 17106 net.cpp:425] conv3 <- pool2
I0403 14:32:05.484676 17106 net.cpp:399] conv3 -> conv3
I0403 14:32:05.524384 17106 net.cpp:141] Setting up conv3
I0403 14:32:05.524466 17106 net.cpp:148] Top shape: 100 384 13 13 (6489600)
I0403 14:32:05.524482 17106 net.cpp:156] Memory required for data: 705522800
I0403 14:32:05.524508 17106 layer_factory.hpp:77] Creating layer relu3
I0403 14:32:05.524533 17106 net.cpp:91] Creating Layer relu3
I0403 14:32:05.524551 17106 net.cpp:425] relu3 <- conv3
I0403 14:32:05.524571 17106 net.cpp:386] relu3 -> conv3 (in-place)
I0403 14:32:05.524888 17106 net.cpp:141] Setting up relu3
I0403 14:32:05.524915 17106 net.cpp:148] Top shape: 100 384 13 13 (6489600)
I0403 14:32:05.524931 17106 net.cpp:156] Memory required for data: 731481200
I0403 14:32:05.524946 17106 layer_factory.hpp:77] Creating layer conv4
I0403 14:32:05.524976 17106 net.cpp:91] Creating Layer conv4
I0403 14:32:05.524996 17106 net.cpp:425] conv4 <- conv3
I0403 14:32:05.525017 17106 net.cpp:399] conv4 -> conv4
I0403 14:32:05.556046 17106 net.cpp:141] Setting up conv4
I0403 14:32:05.556123 17106 net.cpp:148] Top shape: 100 384 13 13 (6489600)
I0403 14:32:05.556172 17106 net.cpp:156] Memory required for data: 757439600
I0403 14:32:05.556195 17106 layer_factory.hpp:77] Creating layer relu4
I0403 14:32:05.556216 17106 net.cpp:91] Creating Layer relu4
I0403 14:32:05.556233 17106 net.cpp:425] relu4 <- conv4
I0403 14:32:05.556254 17106 net.cpp:386] relu4 -> conv4 (in-place)
I0403 14:32:05.556538 17106 net.cpp:141] Setting up relu4
I0403 14:32:05.556566 17106 net.cpp:148] Top shape: 100 384 13 13 (6489600)
I0403 14:32:05.556639 17106 net.cpp:156] Memory required for data: 783398000
I0403 14:32:05.556660 17106 layer_factory.hpp:77] Creating layer conv5
I0403 14:32:05.556686 17106 net.cpp:91] Creating Layer conv5
I0403 14:32:05.556704 17106 net.cpp:425] conv5 <- conv4
I0403 14:32:05.556725 17106 net.cpp:399] conv5 -> conv5
I0403 14:32:05.577674 17106 net.cpp:141] Setting up conv5
I0403 14:32:05.577736 17106 net.cpp:148] Top shape: 100 256 13 13 (4326400)
I0403 14:32:05.577752 17106 net.cpp:156] Memory required for data: 800703600
I0403 14:32:05.577777 17106 layer_factory.hpp:77] Creating layer relu5
I0403 14:32:05.577798 17106 net.cpp:91] Creating Layer relu5
I0403 14:32:05.577814 17106 net.cpp:425] relu5 <- conv5
I0403 14:32:05.577837 17106 net.cpp:386] relu5 -> conv5 (in-place)
I0403 14:32:05.578124 17106 net.cpp:141] Setting up relu5
I0403 14:32:05.578150 17106 net.cpp:148] Top shape: 100 256 13 13 (4326400)
I0403 14:32:05.578166 17106 net.cpp:156] Memory required for data: 818009200
I0403 14:32:05.578181 17106 layer_factory.hpp:77] Creating layer pool5
I0403 14:32:05.578204 17106 net.cpp:91] Creating Layer pool5
I0403 14:32:05.578222 17106 net.cpp:425] pool5 <- conv5
I0403 14:32:05.578239 17106 net.cpp:399] pool5 -> pool5
I0403 14:32:05.578301 17106 net.cpp:141] Setting up pool5
I0403 14:32:05.578325 17106 net.cpp:148] Top shape: 100 256 6 6 (921600)
I0403 14:32:05.578339 17106 net.cpp:156] Memory required for data: 821695600
I0403 14:32:05.578354 17106 layer_factory.hpp:77] Creating layer fc6
I0403 14:32:05.578385 17106 net.cpp:91] Creating Layer fc6
I0403 14:32:05.578430 17106 net.cpp:425] fc6 <- pool5
I0403 14:32:05.578452 17106 net.cpp:399] fc6 -> fc6
I0403 14:32:07.177222 17106 net.cpp:141] Setting up fc6
I0403 14:32:07.177304 17106 net.cpp:148] Top shape: 100 4096 (409600)
I0403 14:32:07.177320 17106 net.cpp:156] Memory required for data: 823334000
I0403 14:32:07.177341 17106 layer_factory.hpp:77] Creating layer relu6
I0403 14:32:07.177364 17106 net.cpp:91] Creating Layer relu6
I0403 14:32:07.177381 17106 net.cpp:425] relu6 <- fc6
I0403 14:32:07.177404 17106 net.cpp:386] relu6 -> fc6 (in-place)
I0403 14:32:07.177639 17106 net.cpp:141] Setting up relu6
I0403 14:32:07.177664 17106 net.cpp:148] Top shape: 100 4096 (409600)
I0403 14:32:07.177680 17106 net.cpp:156] Memory required for data: 824972400
I0403 14:32:07.177695 17106 layer_factory.hpp:77] Creating layer drop6
I0403 14:32:07.177712 17106 net.cpp:91] Creating Layer drop6
I0403 14:32:07.177727 17106 net.cpp:425] drop6 <- fc6
I0403 14:32:07.177747 17106 net.cpp:386] drop6 -> fc6 (in-place)
I0403 14:32:07.177801 17106 net.cpp:141] Setting up drop6
I0403 14:32:07.177824 17106 net.cpp:148] Top shape: 100 4096 (409600)
I0403 14:32:07.177839 17106 net.cpp:156] Memory required for data: 826610800
I0403 14:32:07.177853 17106 layer_factory.hpp:77] Creating layer fc7
I0403 14:32:07.177873 17106 net.cpp:91] Creating Layer fc7
I0403 14:32:07.177889 17106 net.cpp:425] fc7 <- fc6
I0403 14:32:07.177909 17106 net.cpp:399] fc7 -> fc7
I0403 14:32:07.888341 17106 net.cpp:141] Setting up fc7
I0403 14:32:07.888391 17106 net.cpp:148] Top shape: 100 4096 (409600)
I0403 14:32:07.888406 17106 net.cpp:156] Memory required for data: 828249200
I0403 14:32:07.888427 17106 layer_factory.hpp:77] Creating layer relu7
I0403 14:32:07.888450 17106 net.cpp:91] Creating Layer relu7
I0403 14:32:07.888468 17106 net.cpp:425] relu7 <- fc7
I0403 14:32:07.888486 17106 net.cpp:386] relu7 -> fc7 (in-place)
I0403 14:32:07.888895 17106 net.cpp:141] Setting up relu7
I0403 14:32:07.888921 17106 net.cpp:148] Top shape: 100 4096 (409600)
I0403 14:32:07.888972 17106 net.cpp:156] Memory required for data: 829887600
I0403 14:32:07.888988 17106 layer_factory.hpp:77] Creating layer drop7
I0403 14:32:07.889005 17106 net.cpp:91] Creating Layer drop7
I0403 14:32:07.889035 17106 net.cpp:425] drop7 <- fc7
I0403 14:32:07.889052 17106 net.cpp:386] drop7 -> fc7 (in-place)
I0403 14:32:07.889096 17106 net.cpp:141] Setting up drop7
I0403 14:32:07.889119 17106 net.cpp:148] Top shape: 100 4096 (409600)
I0403 14:32:07.889135 17106 net.cpp:156] Memory required for data: 831526000
I0403 14:32:07.889232 17106 layer_factory.hpp:77] Creating layer fc8_plantvillage
I0403 14:32:07.889299 17106 net.cpp:91] Creating Layer fc8_plantvillage
I0403 14:32:07.889353 17106 net.cpp:425] fc8_plantvillage <- fc7
I0403 14:32:07.889387 17106 net.cpp:399] fc8_plantvillage -> fc8_plantvillage
I0403 14:32:07.896299 17106 net.cpp:141] Setting up fc8_plantvillage
I0403 14:32:07.896327 17106 net.cpp:148] Top shape: 100 38 (3800)
I0403 14:32:07.896342 17106 net.cpp:156] Memory required for data: 831541200
I0403 14:32:07.896359 17106 layer_factory.hpp:77] Creating layer fc8_plantvillage_fc8_plantvillage_0_split
I0403 14:32:07.896378 17106 net.cpp:91] Creating Layer fc8_plantvillage_fc8_plantvillage_0_split
I0403 14:32:07.896394 17106 net.cpp:425] fc8_plantvillage_fc8_plantvillage_0_split <- fc8_plantvillage
I0403 14:32:07.896410 17106 net.cpp:399] fc8_plantvillage_fc8_plantvillage_0_split -> fc8_plantvillage_fc8_plantvillage_0_split_0
I0403 14:32:07.896430 17106 net.cpp:399] fc8_plantvillage_fc8_plantvillage_0_split -> fc8_plantvillage_fc8_plantvillage_0_split_1
I0403 14:32:07.896447 17106 net.cpp:399] fc8_plantvillage_fc8_plantvillage_0_split -> fc8_plantvillage_fc8_plantvillage_0_split_2
I0403 14:32:07.896527 17106 net.cpp:141] Setting up fc8_plantvillage_fc8_plantvillage_0_split
I0403 14:32:07.896548 17106 net.cpp:148] Top shape: 100 38 (3800)
I0403 14:32:07.896564 17106 net.cpp:148] Top shape: 100 38 (3800)
I0403 14:32:07.896577 17106 net.cpp:148] Top shape: 100 38 (3800)
I0403 14:32:07.896590 17106 net.cpp:156] Memory required for data: 831586800
I0403 14:32:07.896605 17106 layer_factory.hpp:77] Creating layer prob
I0403 14:32:07.896622 17106 net.cpp:91] Creating Layer prob
I0403 14:32:07.896636 17106 net.cpp:425] prob <- fc8_plantvillage_fc8_plantvillage_0_split_0
I0403 14:32:07.896656 17106 net.cpp:399] prob -> prob
I0403 14:32:07.896874 17106 net.cpp:141] Setting up prob
I0403 14:32:07.896899 17106 net.cpp:148] Top shape: 100 38 (3800)
I0403 14:32:07.896914 17106 net.cpp:156] Memory required for data: 831602000
I0403 14:32:07.896929 17106 layer_factory.hpp:77] Creating layer hdf5out
I0403 14:32:07.896949 17106 net.cpp:91] Creating Layer hdf5out
I0403 14:32:07.896970 17106 net.cpp:425] hdf5out <- prob
I0403 14:32:07.896986 17106 net.cpp:425] hdf5out <- label_data_1_split_0
I0403 14:32:07.899437 17106 net.cpp:141] Setting up hdf5out
…
