…
I0403 14:46:29.838654 17522 net.cpp:313] The NetState phase (1) differed from the phase (0) specified by a rule in layer data
I0403 14:46:29.838965 17522 net.cpp:49] Initializing net from parameters: 
state {
  phase: TEST
}
layer {
  name: "data"
  type: "Data"
  top: "data"
  top: "label"
  include {
    phase: TEST
  }
  transform_param {
    crop_size: 227
    mean_file: "/home/mohanty/data/final_dataset/lmdb/segmented-60-40/mean.binaryproto"
  }
  data_param {
    source: "/home/mohanty/data/final_dataset/lmdb/segmented-60-40/test_db"
    batch_size: 100
    backend: LMDB
  }
}
layer {
  name: "conv1"
  type: "Convolution"
  bottom: "data"
  top: "conv1"
  param {
    lr_mult: 1
    decay_mult: 1
  }
  param {
    lr_mult: 2
    decay_mult: 0
  }
  convolution_param {
    num_output: 96
    kernel_size: 11
    stride: 4
    weight_filler {
      type: "gaussian"
      std: 0.01
    }
    bias_filler {
      type: "constant"
      value: 0
    }
  }
}
layer {
  name: "relu1"
  type: "ReLU"
  bottom: "conv1"
  top: "conv1"
}
layer {
  name: "norm1"
  type: "LRN"
  bottom: "conv1"
  top: "norm1"
  lrn_param {
    local_size: 5
    alpha: 0.0001
    beta: 0.75
  }
}
layer {
  name: "pool1"
  type: "Pooling"
  bottom: "norm1"
  top: "pool1"
  pooling_param {
    pool: MAX
    kernel_size: 3
    stride: 2
  }
}
layer {
  name: "conv2"
  type: "Convolution"
  bottom: "pool1"
  top: "conv2"
  param {
    lr_mult: 1
    decay_mult: 1
  }
  param {
    lr_mult: 2
    decay_mult: 0
  }
  convolution_param {
    num_output: 256
    pad: 2
    kernel_size: 5
    group: 2
    weight_filler {
      type: "gaussian"
      std: 0.01
    }
    bias_filler {
      type: "constant"
      value: 0.1
    }
  }
}
layer {
  name: "relu2"
  type: "ReLU"
  bottom: "conv2"
  top: "conv2"
}
layer {
  name: "norm2"
  type: "LRN"
  bottom: "conv2"
  top: "norm2"
  lrn_param {
    local_size: 5
    alpha: 0.0001
    beta: 0.75
  }
}
layer {
  name: "pool2"
  type: "Pooling"
  bottom: "norm2"
  top: "pool2"
  pooling_param {
    pool: MAX
    kernel_size: 3
    stride: 2
  }
}
layer {
  name: "conv3"
  type: "Convolution"
  bottom: "pool2"
  top: "conv3"
  param {
    lr_mult: 1
    decay_mult: 1
  }
  param {
    lr_mult: 2
    decay_mult: 0
  }
  convolution_param {
    num_output: 384
    pad: 1
    kernel_size: 3
    weight_filler {
      type: "gaussian"
      std: 0.01
    }
    bias_filler {
      type: "constant"
      value: 0
    }
  }
}
layer {
  name: "relu3"
  type: "ReLU"
  bottom: "conv3"
  top: "conv3"
}
layer {
  name: "conv4"
  type: "Convolution"
  bottom: "conv3"
  top: "conv4"
  param {
    lr_mult: 1
    decay_mult: 1
  }
  param {
    lr_mult: 2
    decay_mult: 0
  }
  convolution_param {
    num_output: 384
    pad: 1
    kernel_size: 3
    group: 2
    weight_filler {
      type: "gaussian"
      std: 0.01
    }
    bias_filler {
      type: "constant"
      value: 0.1
    }
  }
}
layer {
  name: "relu4"
  type: "ReLU"
  bottom: "conv4"
  top: "conv4"
}
layer {
  name: "conv5"
  type: "Convolution"
  bottom: "conv4"
  top: "conv5"
  param {
    lr_mult: 1
    decay_mult: 1
  }
  param {
    lr_mult: 2
    decay_mult: 0
  }
  convolution_param {
    num_output: 256
    pad: 1
    kernel_size: 3
    group: 2
    weight_filler {
      type: "gaussian"
      std: 0.01
    }
    bias_filler {
      type: "constant"
      value: 0.1
    }
  }
}
layer {
  name: "relu5"
  type: "ReLU"
  bottom: "conv5"
  top: "conv5"
}
layer {
  name: "pool5"
  type: "Pooling"
  bottom: "conv5"
  top: "pool5"
  pooling_param {
    pool: MAX
    kernel_size: 3
    stride: 2
  }
}
layer {
  name: "fc6"
  type: "InnerProduct"
  bottom: "pool5"
  top: "fc6"
  param {
    lr_mult: 1
    decay_mult: 1
  }
  param {
    lr_mult: 2
    decay_mult: 0
  }
  inner_product_param {
    num_output: 4096
    weight_filler {
      type: "gaussian"
      std: 0.005
    }
    bias_filler {
      type: "constant"
      value: 0.1
    }
  }
}
layer {
  name: "relu6"
  type: "ReLU"
  bottom: "fc6"
  top: "fc6"
}
layer {
  name: "drop6"
  type: "Dropout"
  bottom: "fc6"
  top: "fc6"
  dropout_param {
    dropout_ratio: 0.5
  }
}
layer {
  name: "fc7"
  type: "InnerProduct"
  bottom: "fc6"
  top: "fc7"
  param {
    lr_mult: 1
    decay_mult: 1
  }
  param {
    lr_mult: 2
    decay_mult: 0
  }
  inner_product_param {
    num_output: 4096
    weight_filler {
      type: "gaussian"
      std: 0.005
    }
    bias_filler {
      type: "constant"
      value: 0.1
    }
  }
}
layer {
  name: "relu7"
  type: "ReLU"
  bottom: "fc7"
  top: "fc7"
}
layer {
  name: "drop7"
  type: "Dropout"
  bottom: "fc7"
  top: "fc7"
  dropout_param {
    dropout_ratio: 0.5
  }
}
layer {
  name: "fc8_plantvillage"
  type: "InnerProduct"
  bottom: "fc7"
  top: "fc8_plantvillage"
  param {
    lr_mult: 1
    decay_mult: 1
  }
  param {
    lr_mult: 2
    decay_mult: 0
  }
  inner_product_param {
    num_output: 38
    weight_filler {
      type: "gaussian"
      std: 0.01
    }
    bias_filler {
      type: "constant"
      value: 0
    }
  }
}
layer {
  name: "prob"
  type: "Softmax"
  bottom: "fc8_plantvillage"
  top: "prob"
  include {
    phase: TEST
  }
}
layer {
  name: "hdf5out"
  type: "HDF5Output"
  bottom: "prob"
  bottom: "label"
  include {
    phase: TEST
  }
  hdf5_output_param {
    file_name: "hdf5_dumps/iter_9425.h5"
  }
}
layer {
  name: "loss"
  type: "SoftmaxWithLoss"
  bottom: "fc8_plantvillage"
  bottom: "label"
  top: "loss"
}
layer {
  name: "accuracy"
  type: "Accuracy"
  bottom: "fc8_plantvillage"
  bottom: "label"
  top: "accuracy"
  include {
    phase: TEST
  }
}
I0403 14:46:29.839540 17522 layer_factory.hpp:77] Creating layer data
I0403 14:46:29.840176 17522 net.cpp:91] Creating Layer data
I0403 14:46:29.840207 17522 net.cpp:399] data -> data
I0403 14:46:29.840260 17522 net.cpp:399] data -> label
I0403 14:46:29.840296 17522 data_transformer.cpp:25] Loading mean file from: /home/mohanty/data/final_dataset/lmdb/segmented-60-40/mean.binaryproto
I0403 14:46:29.841466 17527 db_lmdb.cpp:38] Opened lmdb /home/mohanty/data/final_dataset/lmdb/segmented-60-40/test_db
I0403 14:46:29.854668 17522 data_layer.cpp:41] output data size: 100,3,227,227
I0403 14:46:29.995472 17522 net.cpp:141] Setting up data
I0403 14:46:29.995580 17522 net.cpp:148] Top shape: 100 3 227 227 (15458700)
I0403 14:46:29.995604 17522 net.cpp:148] Top shape: 100 (100)
I0403 14:46:29.995620 17522 net.cpp:156] Memory required for data: 61835200
I0403 14:46:29.995648 17522 layer_factory.hpp:77] Creating layer label_data_1_split
I0403 14:46:29.995676 17522 net.cpp:91] Creating Layer label_data_1_split
I0403 14:46:29.995693 17522 net.cpp:425] label_data_1_split <- label
I0403 14:46:29.995726 17522 net.cpp:399] label_data_1_split -> label_data_1_split_0
I0403 14:46:29.995755 17522 net.cpp:399] label_data_1_split -> label_data_1_split_1
I0403 14:46:29.995777 17522 net.cpp:399] label_data_1_split -> label_data_1_split_2
I0403 14:46:29.995846 17522 net.cpp:141] Setting up label_data_1_split
I0403 14:46:29.995870 17522 net.cpp:148] Top shape: 100 (100)
I0403 14:46:29.995887 17522 net.cpp:148] Top shape: 100 (100)
I0403 14:46:29.995903 17522 net.cpp:148] Top shape: 100 (100)
I0403 14:46:29.995918 17522 net.cpp:156] Memory required for data: 61836400
I0403 14:46:29.995934 17522 layer_factory.hpp:77] Creating layer conv1
I0403 14:46:29.995965 17522 net.cpp:91] Creating Layer conv1
I0403 14:46:29.995988 17522 net.cpp:425] conv1 <- data
I0403 14:46:29.996009 17522 net.cpp:399] conv1 -> conv1
I0403 14:46:30.143085 17522 net.cpp:141] Setting up conv1
I0403 14:46:30.143174 17522 net.cpp:148] Top shape: 100 96 55 55 (29040000)
I0403 14:46:30.143193 17522 net.cpp:156] Memory required for data: 177996400
I0403 14:46:30.143226 17522 layer_factory.hpp:77] Creating layer relu1
I0403 14:46:30.143256 17522 net.cpp:91] Creating Layer relu1
I0403 14:46:30.143280 17522 net.cpp:425] relu1 <- conv1
I0403 14:46:30.143298 17522 net.cpp:386] relu1 -> conv1 (in-place)
I0403 14:46:30.143566 17522 net.cpp:141] Setting up relu1
I0403 14:46:30.143594 17522 net.cpp:148] Top shape: 100 96 55 55 (29040000)
I0403 14:46:30.143643 17522 net.cpp:156] Memory required for data: 294156400
I0403 14:46:30.143661 17522 layer_factory.hpp:77] Creating layer norm1
I0403 14:46:30.143689 17522 net.cpp:91] Creating Layer norm1
I0403 14:46:30.143707 17522 net.cpp:425] norm1 <- conv1
I0403 14:46:30.143726 17522 net.cpp:399] norm1 -> norm1
I0403 14:46:30.144071 17522 net.cpp:141] Setting up norm1
I0403 14:46:30.144100 17522 net.cpp:148] Top shape: 100 96 55 55 (29040000)
I0403 14:46:30.144117 17522 net.cpp:156] Memory required for data: 410316400
I0403 14:46:30.144132 17522 layer_factory.hpp:77] Creating layer pool1
I0403 14:46:30.144156 17522 net.cpp:91] Creating Layer pool1
I0403 14:46:30.144175 17522 net.cpp:425] pool1 <- norm1
I0403 14:46:30.144193 17522 net.cpp:399] pool1 -> pool1
I0403 14:46:30.144263 17522 net.cpp:141] Setting up pool1
I0403 14:46:30.144287 17522 net.cpp:148] Top shape: 100 96 27 27 (6998400)
I0403 14:46:30.144304 17522 net.cpp:156] Memory required for data: 438310000
I0403 14:46:30.144318 17522 layer_factory.hpp:77] Creating layer conv2
I0403 14:46:30.144343 17522 net.cpp:91] Creating Layer conv2
I0403 14:46:30.144361 17522 net.cpp:425] conv2 <- pool1
I0403 14:46:30.144378 17522 net.cpp:399] conv2 -> conv2
I0403 14:46:30.160012 17522 net.cpp:141] Setting up conv2
I0403 14:46:30.160075 17522 net.cpp:148] Top shape: 100 256 27 27 (18662400)
I0403 14:46:30.160094 17522 net.cpp:156] Memory required for data: 512959600
I0403 14:46:30.160117 17522 layer_factory.hpp:77] Creating layer relu2
I0403 14:46:30.160140 17522 net.cpp:91] Creating Layer relu2
I0403 14:46:30.160156 17522 net.cpp:425] relu2 <- conv2
I0403 14:46:30.160176 17522 net.cpp:386] relu2 -> conv2 (in-place)
I0403 14:46:30.160455 17522 net.cpp:141] Setting up relu2
I0403 14:46:30.160483 17522 net.cpp:148] Top shape: 100 256 27 27 (18662400)
I0403 14:46:30.160500 17522 net.cpp:156] Memory required for data: 587609200
I0403 14:46:30.160514 17522 layer_factory.hpp:77] Creating layer norm2
I0403 14:46:30.160536 17522 net.cpp:91] Creating Layer norm2
I0403 14:46:30.160552 17522 net.cpp:425] norm2 <- conv2
I0403 14:46:30.160570 17522 net.cpp:399] norm2 -> norm2
I0403 14:46:30.160763 17522 net.cpp:141] Setting up norm2
I0403 14:46:30.160790 17522 net.cpp:148] Top shape: 100 256 27 27 (18662400)
I0403 14:46:30.160806 17522 net.cpp:156] Memory required for data: 662258800
I0403 14:46:30.160821 17522 layer_factory.hpp:77] Creating layer pool2
I0403 14:46:30.160840 17522 net.cpp:91] Creating Layer pool2
I0403 14:46:30.160856 17522 net.cpp:425] pool2 <- norm2
I0403 14:46:30.160876 17522 net.cpp:399] pool2 -> pool2
I0403 14:46:30.160951 17522 net.cpp:141] Setting up pool2
I0403 14:46:30.160976 17522 net.cpp:148] Top shape: 100 256 13 13 (4326400)
I0403 14:46:30.160997 17522 net.cpp:156] Memory required for data: 679564400
I0403 14:46:30.161013 17522 layer_factory.hpp:77] Creating layer conv3
I0403 14:46:30.161036 17522 net.cpp:91] Creating Layer conv3
I0403 14:46:30.161053 17522 net.cpp:425] conv3 <- pool2
I0403 14:46:30.161072 17522 net.cpp:399] conv3 -> conv3
I0403 14:46:30.201007 17522 net.cpp:141] Setting up conv3
I0403 14:46:30.201092 17522 net.cpp:148] Top shape: 100 384 13 13 (6489600)
I0403 14:46:30.201110 17522 net.cpp:156] Memory required for data: 705522800
I0403 14:46:30.201136 17522 layer_factory.hpp:77] Creating layer relu3
I0403 14:46:30.201159 17522 net.cpp:91] Creating Layer relu3
I0403 14:46:30.201177 17522 net.cpp:425] relu3 <- conv3
I0403 14:46:30.201197 17522 net.cpp:386] relu3 -> conv3 (in-place)
I0403 14:46:30.201501 17522 net.cpp:141] Setting up relu3
I0403 14:46:30.201529 17522 net.cpp:148] Top shape: 100 384 13 13 (6489600)
I0403 14:46:30.201545 17522 net.cpp:156] Memory required for data: 731481200
I0403 14:46:30.201560 17522 layer_factory.hpp:77] Creating layer conv4
I0403 14:46:30.201586 17522 net.cpp:91] Creating Layer conv4
I0403 14:46:30.201602 17522 net.cpp:425] conv4 <- conv3
I0403 14:46:30.201622 17522 net.cpp:399] conv4 -> conv4
I0403 14:46:30.233069 17522 net.cpp:141] Setting up conv4
I0403 14:46:30.233109 17522 net.cpp:148] Top shape: 100 384 13 13 (6489600)
I0403 14:46:30.233157 17522 net.cpp:156] Memory required for data: 757439600
I0403 14:46:30.233192 17522 layer_factory.hpp:77] Creating layer relu4
I0403 14:46:30.233223 17522 net.cpp:91] Creating Layer relu4
I0403 14:46:30.233243 17522 net.cpp:425] relu4 <- conv4
I0403 14:46:30.233263 17522 net.cpp:386] relu4 -> conv4 (in-place)
I0403 14:46:30.233618 17522 net.cpp:141] Setting up relu4
I0403 14:46:30.233646 17522 net.cpp:148] Top shape: 100 384 13 13 (6489600)
I0403 14:46:30.233661 17522 net.cpp:156] Memory required for data: 783398000
I0403 14:46:30.233676 17522 layer_factory.hpp:77] Creating layer conv5
I0403 14:46:30.233702 17522 net.cpp:91] Creating Layer conv5
I0403 14:46:30.233719 17522 net.cpp:425] conv5 <- conv4
I0403 14:46:30.233744 17522 net.cpp:399] conv5 -> conv5
I0403 14:46:30.254926 17522 net.cpp:141] Setting up conv5
I0403 14:46:30.254984 17522 net.cpp:148] Top shape: 100 256 13 13 (4326400)
I0403 14:46:30.255008 17522 net.cpp:156] Memory required for data: 800703600
I0403 14:46:30.255033 17522 layer_factory.hpp:77] Creating layer relu5
I0403 14:46:30.255056 17522 net.cpp:91] Creating Layer relu5
I0403 14:46:30.255074 17522 net.cpp:425] relu5 <- conv5
I0403 14:46:30.255092 17522 net.cpp:386] relu5 -> conv5 (in-place)
I0403 14:46:30.255409 17522 net.cpp:141] Setting up relu5
I0403 14:46:30.255439 17522 net.cpp:148] Top shape: 100 256 13 13 (4326400)
I0403 14:46:30.255453 17522 net.cpp:156] Memory required for data: 818009200
I0403 14:46:30.255468 17522 layer_factory.hpp:77] Creating layer pool5
I0403 14:46:30.255489 17522 net.cpp:91] Creating Layer pool5
I0403 14:46:30.255506 17522 net.cpp:425] pool5 <- conv5
I0403 14:46:30.255525 17522 net.cpp:399] pool5 -> pool5
I0403 14:46:30.255584 17522 net.cpp:141] Setting up pool5
I0403 14:46:30.255610 17522 net.cpp:148] Top shape: 100 256 6 6 (921600)
I0403 14:46:30.255625 17522 net.cpp:156] Memory required for data: 821695600
I0403 14:46:30.255640 17522 layer_factory.hpp:77] Creating layer fc6
I0403 14:46:30.255666 17522 net.cpp:91] Creating Layer fc6
I0403 14:46:30.255682 17522 net.cpp:425] fc6 <- pool5
I0403 14:46:30.255703 17522 net.cpp:399] fc6 -> fc6
I0403 14:46:31.839825 17522 net.cpp:141] Setting up fc6
I0403 14:46:31.839917 17522 net.cpp:148] Top shape: 100 4096 (409600)
I0403 14:46:31.839934 17522 net.cpp:156] Memory required for data: 823334000
I0403 14:46:31.839956 17522 layer_factory.hpp:77] Creating layer relu6
I0403 14:46:31.839979 17522 net.cpp:91] Creating Layer relu6
I0403 14:46:31.840004 17522 net.cpp:425] relu6 <- fc6
I0403 14:46:31.840024 17522 net.cpp:386] relu6 -> fc6 (in-place)
I0403 14:46:31.840250 17522 net.cpp:141] Setting up relu6
I0403 14:46:31.840273 17522 net.cpp:148] Top shape: 100 4096 (409600)
I0403 14:46:31.840288 17522 net.cpp:156] Memory required for data: 824972400
I0403 14:46:31.840303 17522 layer_factory.hpp:77] Creating layer drop6
I0403 14:46:31.840323 17522 net.cpp:91] Creating Layer drop6
I0403 14:46:31.840339 17522 net.cpp:425] drop6 <- fc6
I0403 14:46:31.840356 17522 net.cpp:386] drop6 -> fc6 (in-place)
I0403 14:46:31.840409 17522 net.cpp:141] Setting up drop6
I0403 14:46:31.840431 17522 net.cpp:148] Top shape: 100 4096 (409600)
I0403 14:46:31.840446 17522 net.cpp:156] Memory required for data: 826610800
I0403 14:46:31.840461 17522 layer_factory.hpp:77] Creating layer fc7
I0403 14:46:31.840482 17522 net.cpp:91] Creating Layer fc7
I0403 14:46:31.840499 17522 net.cpp:425] fc7 <- fc6
I0403 14:46:31.840517 17522 net.cpp:399] fc7 -> fc7
I0403 14:46:32.539340 17522 net.cpp:141] Setting up fc7
I0403 14:46:32.539438 17522 net.cpp:148] Top shape: 100 4096 (409600)
I0403 14:46:32.539455 17522 net.cpp:156] Memory required for data: 828249200
I0403 14:46:32.539477 17522 layer_factory.hpp:77] Creating layer relu7
I0403 14:46:32.539499 17522 net.cpp:91] Creating Layer relu7
I0403 14:46:32.539516 17522 net.cpp:425] relu7 <- fc7
I0403 14:46:32.539535 17522 net.cpp:386] relu7 -> fc7 (in-place)
I0403 14:46:32.539961 17522 net.cpp:141] Setting up relu7
I0403 14:46:32.539994 17522 net.cpp:148] Top shape: 100 4096 (409600)
I0403 14:46:32.540055 17522 net.cpp:156] Memory required for data: 829887600
I0403 14:46:32.540071 17522 layer_factory.hpp:77] Creating layer drop7
I0403 14:46:32.540091 17522 net.cpp:91] Creating Layer drop7
I0403 14:46:32.540107 17522 net.cpp:425] drop7 <- fc7
I0403 14:46:32.540123 17522 net.cpp:386] drop7 -> fc7 (in-place)
I0403 14:46:32.540169 17522 net.cpp:141] Setting up drop7
I0403 14:46:32.540194 17522 net.cpp:148] Top shape: 100 4096 (409600)
I0403 14:46:32.540208 17522 net.cpp:156] Memory required for data: 831526000
I0403 14:46:32.540223 17522 layer_factory.hpp:77] Creating layer fc8_plantvillage
I0403 14:46:32.540244 17522 net.cpp:91] Creating Layer fc8_plantvillage
I0403 14:46:32.540261 17522 net.cpp:425] fc8_plantvillage <- fc7
I0403 14:46:32.540279 17522 net.cpp:399] fc8_plantvillage -> fc8_plantvillage
I0403 14:46:32.547092 17522 net.cpp:141] Setting up fc8_plantvillage
I0403 14:46:32.547122 17522 net.cpp:148] Top shape: 100 38 (3800)
I0403 14:46:32.547137 17522 net.cpp:156] Memory required for data: 831541200
I0403 14:46:32.547154 17522 layer_factory.hpp:77] Creating layer fc8_plantvillage_fc8_plantvillage_0_split
I0403 14:46:32.547178 17522 net.cpp:91] Creating Layer fc8_plantvillage_fc8_plantvillage_0_split
I0403 14:46:32.547195 17522 net.cpp:425] fc8_plantvillage_fc8_plantvillage_0_split <- fc8_plantvillage
I0403 14:46:32.547212 17522 net.cpp:399] fc8_plantvillage_fc8_plantvillage_0_split -> fc8_plantvillage_fc8_plantvillage_0_split_0
I0403 14:46:32.547235 17522 net.cpp:399] fc8_plantvillage_fc8_plantvillage_0_split -> fc8_plantvillage_fc8_plantvillage_0_split_1
I0403 14:46:32.547253 17522 net.cpp:399] fc8_plantvillage_fc8_plantvillage_0_split -> fc8_plantvillage_fc8_plantvillage_0_split_2
I0403 14:46:32.547332 17522 net.cpp:141] Setting up fc8_plantvillage_fc8_plantvillage_0_split
I0403 14:46:32.547354 17522 net.cpp:148] Top shape: 100 38 (3800)
I0403 14:46:32.547370 17522 net.cpp:148] Top shape: 100 38 (3800)
I0403 14:46:32.547385 17522 net.cpp:148] Top shape: 100 38 (3800)
I0403 14:46:32.547399 17522 net.cpp:156] Memory required for data: 831586800
I0403 14:46:32.547413 17522 layer_factory.hpp:77] Creating layer prob
I0403 14:46:32.547435 17522 net.cpp:91] Creating Layer prob
I0403 14:46:32.547451 17522 net.cpp:425] prob <- fc8_plantvillage_fc8_plantvillage_0_split_0
I0403 14:46:32.547467 17522 net.cpp:399] prob -> prob
I0403 14:46:32.547690 17522 net.cpp:141] Setting up prob
I0403 14:46:32.547716 17522 net.cpp:148] Top shape: 100 38 (3800)
I0403 14:46:32.547734 17522 net.cpp:156] Memory required for data: 831602000
I0403 14:46:32.547749 17522 layer_factory.hpp:77] Creating layer hdf5out
I0403 14:46:32.547766 17522 net.cpp:91] Creating Layer hdf5out
I0403 14:46:32.547781 17522 net.cpp:425] hdf5out <- prob
I0403 14:46:32.547797 17522 net.cpp:425] hdf5out <- label_data_1_split_0
I0403 14:46:32.550169 17522 net.cpp:141] Setting up hdf5out
…
