…
I0403 14:45:45.886746 17503 net.cpp:313] The NetState phase (1) differed from the phase (0) specified by a rule in layer data
I0403 14:45:45.887099 17503 net.cpp:49] Initializing net from parameters: 
state {
  phase: TEST
}
layer {
  name: "data"
  type: "Data"
  top: "data"
  top: "label"
  include {
    phase: TEST
  }
  transform_param {
    crop_size: 227
    mean_file: "/home/mohanty/data/final_dataset/lmdb/segmented-60-40/mean.binaryproto"
  }
  data_param {
    source: "/home/mohanty/data/final_dataset/lmdb/segmented-60-40/test_db"
    batch_size: 100
    backend: LMDB
  }
}
layer {
  name: "conv1"
  type: "Convolution"
  bottom: "data"
  top: "conv1"
  param {
    lr_mult: 1
    decay_mult: 1
  }
  param {
    lr_mult: 2
    decay_mult: 0
  }
  convolution_param {
    num_output: 96
    kernel_size: 11
    stride: 4
    weight_filler {
      type: "gaussian"
      std: 0.01
    }
    bias_filler {
      type: "constant"
      value: 0
    }
  }
}
layer {
  name: "relu1"
  type: "ReLU"
  bottom: "conv1"
  top: "conv1"
}
layer {
  name: "norm1"
  type: "LRN"
  bottom: "conv1"
  top: "norm1"
  lrn_param {
    local_size: 5
    alpha: 0.0001
    beta: 0.75
  }
}
layer {
  name: "pool1"
  type: "Pooling"
  bottom: "norm1"
  top: "pool1"
  pooling_param {
    pool: MAX
    kernel_size: 3
    stride: 2
  }
}
layer {
  name: "conv2"
  type: "Convolution"
  bottom: "pool1"
  top: "conv2"
  param {
    lr_mult: 1
    decay_mult: 1
  }
  param {
    lr_mult: 2
    decay_mult: 0
  }
  convolution_param {
    num_output: 256
    pad: 2
    kernel_size: 5
    group: 2
    weight_filler {
      type: "gaussian"
      std: 0.01
    }
    bias_filler {
      type: "constant"
      value: 0.1
    }
  }
}
layer {
  name: "relu2"
  type: "ReLU"
  bottom: "conv2"
  top: "conv2"
}
layer {
  name: "norm2"
  type: "LRN"
  bottom: "conv2"
  top: "norm2"
  lrn_param {
    local_size: 5
    alpha: 0.0001
    beta: 0.75
  }
}
layer {
  name: "pool2"
  type: "Pooling"
  bottom: "norm2"
  top: "pool2"
  pooling_param {
    pool: MAX
    kernel_size: 3
    stride: 2
  }
}
layer {
  name: "conv3"
  type: "Convolution"
  bottom: "pool2"
  top: "conv3"
  param {
    lr_mult: 1
    decay_mult: 1
  }
  param {
    lr_mult: 2
    decay_mult: 0
  }
  convolution_param {
    num_output: 384
    pad: 1
    kernel_size: 3
    weight_filler {
      type: "gaussian"
      std: 0.01
    }
    bias_filler {
      type: "constant"
      value: 0
    }
  }
}
layer {
  name: "relu3"
  type: "ReLU"
  bottom: "conv3"
  top: "conv3"
}
layer {
  name: "conv4"
  type: "Convolution"
  bottom: "conv3"
  top: "conv4"
  param {
    lr_mult: 1
    decay_mult: 1
  }
  param {
    lr_mult: 2
    decay_mult: 0
  }
  convolution_param {
    num_output: 384
    pad: 1
    kernel_size: 3
    group: 2
    weight_filler {
      type: "gaussian"
      std: 0.01
    }
    bias_filler {
      type: "constant"
      value: 0.1
    }
  }
}
layer {
  name: "relu4"
  type: "ReLU"
  bottom: "conv4"
  top: "conv4"
}
layer {
  name: "conv5"
  type: "Convolution"
  bottom: "conv4"
  top: "conv5"
  param {
    lr_mult: 1
    decay_mult: 1
  }
  param {
    lr_mult: 2
    decay_mult: 0
  }
  convolution_param {
    num_output: 256
    pad: 1
    kernel_size: 3
    group: 2
    weight_filler {
      type: "gaussian"
      std: 0.01
    }
    bias_filler {
      type: "constant"
      value: 0.1
    }
  }
}
layer {
  name: "relu5"
  type: "ReLU"
  bottom: "conv5"
  top: "conv5"
}
layer {
  name: "pool5"
  type: "Pooling"
  bottom: "conv5"
  top: "pool5"
  pooling_param {
    pool: MAX
    kernel_size: 3
    stride: 2
  }
}
layer {
  name: "fc6"
  type: "InnerProduct"
  bottom: "pool5"
  top: "fc6"
  param {
    lr_mult: 1
    decay_mult: 1
  }
  param {
    lr_mult: 2
    decay_mult: 0
  }
  inner_product_param {
    num_output: 4096
    weight_filler {
      type: "gaussian"
      std: 0.005
    }
    bias_filler {
      type: "constant"
      value: 0.1
    }
  }
}
layer {
  name: "relu6"
  type: "ReLU"
  bottom: "fc6"
  top: "fc6"
}
layer {
  name: "drop6"
  type: "Dropout"
  bottom: "fc6"
  top: "fc6"
  dropout_param {
    dropout_ratio: 0.5
  }
}
layer {
  name: "fc7"
  type: "InnerProduct"
  bottom: "fc6"
  top: "fc7"
  param {
    lr_mult: 1
    decay_mult: 1
  }
  param {
    lr_mult: 2
    decay_mult: 0
  }
  inner_product_param {
    num_output: 4096
    weight_filler {
      type: "gaussian"
      std: 0.005
    }
    bias_filler {
      type: "constant"
      value: 0.1
    }
  }
}
layer {
  name: "relu7"
  type: "ReLU"
  bottom: "fc7"
  top: "fc7"
}
layer {
  name: "drop7"
  type: "Dropout"
  bottom: "fc7"
  top: "fc7"
  dropout_param {
    dropout_ratio: 0.5
  }
}
layer {
  name: "fc8_plantvillage"
  type: "InnerProduct"
  bottom: "fc7"
  top: "fc8_plantvillage"
  param {
    lr_mult: 1
    decay_mult: 1
  }
  param {
    lr_mult: 2
    decay_mult: 0
  }
  inner_product_param {
    num_output: 38
    weight_filler {
      type: "gaussian"
      std: 0.01
    }
    bias_filler {
      type: "constant"
      value: 0
    }
  }
}
layer {
  name: "prob"
  type: "Softmax"
  bottom: "fc8_plantvillage"
  top: "prob"
  include {
    phase: TEST
  }
}
layer {
  name: "hdf5out"
  type: "HDF5Output"
  bottom: "prob"
  bottom: "label"
  include {
    phase: TEST
  }
  hdf5_output_param {
    file_name: "hdf5_dumps/iter_9100.h5"
  }
}
layer {
  name: "loss"
  type: "SoftmaxWithLoss"
  bottom: "fc8_plantvillage"
  bottom: "label"
  top: "loss"
}
layer {
  name: "accuracy"
  type: "Accuracy"
  bottom: "fc8_plantvillage"
  bottom: "label"
  top: "accuracy"
  include {
    phase: TEST
  }
}
I0403 14:45:45.887701 17503 layer_factory.hpp:77] Creating layer data
I0403 14:45:45.888362 17503 net.cpp:91] Creating Layer data
I0403 14:45:45.888396 17503 net.cpp:399] data -> data
I0403 14:45:45.888448 17503 net.cpp:399] data -> label
I0403 14:45:45.888484 17503 data_transformer.cpp:25] Loading mean file from: /home/mohanty/data/final_dataset/lmdb/segmented-60-40/mean.binaryproto
I0403 14:45:45.889600 17507 db_lmdb.cpp:38] Opened lmdb /home/mohanty/data/final_dataset/lmdb/segmented-60-40/test_db
I0403 14:45:45.902941 17503 data_layer.cpp:41] output data size: 100,3,227,227
I0403 14:45:46.038786 17503 net.cpp:141] Setting up data
I0403 14:45:46.038899 17503 net.cpp:148] Top shape: 100 3 227 227 (15458700)
I0403 14:45:46.038923 17503 net.cpp:148] Top shape: 100 (100)
I0403 14:45:46.038938 17503 net.cpp:156] Memory required for data: 61835200
I0403 14:45:46.038980 17503 layer_factory.hpp:77] Creating layer label_data_1_split
I0403 14:45:46.039007 17503 net.cpp:91] Creating Layer label_data_1_split
I0403 14:45:46.039026 17503 net.cpp:425] label_data_1_split <- label
I0403 14:45:46.039057 17503 net.cpp:399] label_data_1_split -> label_data_1_split_0
I0403 14:45:46.039085 17503 net.cpp:399] label_data_1_split -> label_data_1_split_1
I0403 14:45:46.039108 17503 net.cpp:399] label_data_1_split -> label_data_1_split_2
I0403 14:45:46.039170 17503 net.cpp:141] Setting up label_data_1_split
I0403 14:45:46.039194 17503 net.cpp:148] Top shape: 100 (100)
I0403 14:45:46.039213 17503 net.cpp:148] Top shape: 100 (100)
I0403 14:45:46.039229 17503 net.cpp:148] Top shape: 100 (100)
I0403 14:45:46.039243 17503 net.cpp:156] Memory required for data: 61836400
I0403 14:45:46.039258 17503 layer_factory.hpp:77] Creating layer conv1
I0403 14:45:46.039291 17503 net.cpp:91] Creating Layer conv1
I0403 14:45:46.039310 17503 net.cpp:425] conv1 <- data
I0403 14:45:46.039330 17503 net.cpp:399] conv1 -> conv1
I0403 14:45:46.188532 17503 net.cpp:141] Setting up conv1
I0403 14:45:46.188623 17503 net.cpp:148] Top shape: 100 96 55 55 (29040000)
I0403 14:45:46.188640 17503 net.cpp:156] Memory required for data: 177996400
I0403 14:45:46.188673 17503 layer_factory.hpp:77] Creating layer relu1
I0403 14:45:46.188701 17503 net.cpp:91] Creating Layer relu1
I0403 14:45:46.188719 17503 net.cpp:425] relu1 <- conv1
I0403 14:45:46.188740 17503 net.cpp:386] relu1 -> conv1 (in-place)
I0403 14:45:46.189020 17503 net.cpp:141] Setting up relu1
I0403 14:45:46.189049 17503 net.cpp:148] Top shape: 100 96 55 55 (29040000)
I0403 14:45:46.189097 17503 net.cpp:156] Memory required for data: 294156400
I0403 14:45:46.189115 17503 layer_factory.hpp:77] Creating layer norm1
I0403 14:45:46.189141 17503 net.cpp:91] Creating Layer norm1
I0403 14:45:46.189160 17503 net.cpp:425] norm1 <- conv1
I0403 14:45:46.189179 17503 net.cpp:399] norm1 -> norm1
I0403 14:45:46.189504 17503 net.cpp:141] Setting up norm1
I0403 14:45:46.189532 17503 net.cpp:148] Top shape: 100 96 55 55 (29040000)
I0403 14:45:46.189555 17503 net.cpp:156] Memory required for data: 410316400
I0403 14:45:46.189570 17503 layer_factory.hpp:77] Creating layer pool1
I0403 14:45:46.189594 17503 net.cpp:91] Creating Layer pool1
I0403 14:45:46.189611 17503 net.cpp:425] pool1 <- norm1
I0403 14:45:46.189630 17503 net.cpp:399] pool1 -> pool1
I0403 14:45:46.189697 17503 net.cpp:141] Setting up pool1
I0403 14:45:46.189720 17503 net.cpp:148] Top shape: 100 96 27 27 (6998400)
I0403 14:45:46.189736 17503 net.cpp:156] Memory required for data: 438310000
I0403 14:45:46.189774 17503 layer_factory.hpp:77] Creating layer conv2
I0403 14:45:46.189801 17503 net.cpp:91] Creating Layer conv2
I0403 14:45:46.189818 17503 net.cpp:425] conv2 <- pool1
I0403 14:45:46.189839 17503 net.cpp:399] conv2 -> conv2
I0403 14:45:46.205413 17503 net.cpp:141] Setting up conv2
I0403 14:45:46.205471 17503 net.cpp:148] Top shape: 100 256 27 27 (18662400)
I0403 14:45:46.205487 17503 net.cpp:156] Memory required for data: 512959600
I0403 14:45:46.205512 17503 layer_factory.hpp:77] Creating layer relu2
I0403 14:45:46.205535 17503 net.cpp:91] Creating Layer relu2
I0403 14:45:46.205554 17503 net.cpp:425] relu2 <- conv2
I0403 14:45:46.205572 17503 net.cpp:386] relu2 -> conv2 (in-place)
I0403 14:45:46.205862 17503 net.cpp:141] Setting up relu2
I0403 14:45:46.205890 17503 net.cpp:148] Top shape: 100 256 27 27 (18662400)
I0403 14:45:46.205906 17503 net.cpp:156] Memory required for data: 587609200
I0403 14:45:46.205922 17503 layer_factory.hpp:77] Creating layer norm2
I0403 14:45:46.205946 17503 net.cpp:91] Creating Layer norm2
I0403 14:45:46.205970 17503 net.cpp:425] norm2 <- conv2
I0403 14:45:46.205991 17503 net.cpp:399] norm2 -> norm2
I0403 14:45:46.206197 17503 net.cpp:141] Setting up norm2
I0403 14:45:46.206225 17503 net.cpp:148] Top shape: 100 256 27 27 (18662400)
I0403 14:45:46.206241 17503 net.cpp:156] Memory required for data: 662258800
I0403 14:45:46.206256 17503 layer_factory.hpp:77] Creating layer pool2
I0403 14:45:46.206275 17503 net.cpp:91] Creating Layer pool2
I0403 14:45:46.206292 17503 net.cpp:425] pool2 <- norm2
I0403 14:45:46.206312 17503 net.cpp:399] pool2 -> pool2
I0403 14:45:46.206367 17503 net.cpp:141] Setting up pool2
I0403 14:45:46.206392 17503 net.cpp:148] Top shape: 100 256 13 13 (4326400)
I0403 14:45:46.206406 17503 net.cpp:156] Memory required for data: 679564400
I0403 14:45:46.206421 17503 layer_factory.hpp:77] Creating layer conv3
I0403 14:45:46.206447 17503 net.cpp:91] Creating Layer conv3
I0403 14:45:46.206466 17503 net.cpp:425] conv3 <- pool2
I0403 14:45:46.206485 17503 net.cpp:399] conv3 -> conv3
I0403 14:45:46.246677 17503 net.cpp:141] Setting up conv3
I0403 14:45:46.246757 17503 net.cpp:148] Top shape: 100 384 13 13 (6489600)
I0403 14:45:46.246773 17503 net.cpp:156] Memory required for data: 705522800
I0403 14:45:46.246800 17503 layer_factory.hpp:77] Creating layer relu3
I0403 14:45:46.246826 17503 net.cpp:91] Creating Layer relu3
I0403 14:45:46.246845 17503 net.cpp:425] relu3 <- conv3
I0403 14:45:46.246865 17503 net.cpp:386] relu3 -> conv3 (in-place)
I0403 14:45:46.247153 17503 net.cpp:141] Setting up relu3
I0403 14:45:46.247181 17503 net.cpp:148] Top shape: 100 384 13 13 (6489600)
I0403 14:45:46.247197 17503 net.cpp:156] Memory required for data: 731481200
I0403 14:45:46.247212 17503 layer_factory.hpp:77] Creating layer conv4
I0403 14:45:46.247239 17503 net.cpp:91] Creating Layer conv4
I0403 14:45:46.247257 17503 net.cpp:425] conv4 <- conv3
I0403 14:45:46.247278 17503 net.cpp:399] conv4 -> conv4
I0403 14:45:46.278825 17503 net.cpp:141] Setting up conv4
I0403 14:45:46.278905 17503 net.cpp:148] Top shape: 100 384 13 13 (6489600)
I0403 14:45:46.278960 17503 net.cpp:156] Memory required for data: 757439600
I0403 14:45:46.278985 17503 layer_factory.hpp:77] Creating layer relu4
I0403 14:45:46.279008 17503 net.cpp:91] Creating Layer relu4
I0403 14:45:46.279027 17503 net.cpp:425] relu4 <- conv4
I0403 14:45:46.279050 17503 net.cpp:386] relu4 -> conv4 (in-place)
I0403 14:45:46.279340 17503 net.cpp:141] Setting up relu4
I0403 14:45:46.279368 17503 net.cpp:148] Top shape: 100 384 13 13 (6489600)
I0403 14:45:46.279384 17503 net.cpp:156] Memory required for data: 783398000
I0403 14:45:46.279399 17503 layer_factory.hpp:77] Creating layer conv5
I0403 14:45:46.279427 17503 net.cpp:91] Creating Layer conv5
I0403 14:45:46.279444 17503 net.cpp:425] conv5 <- conv4
I0403 14:45:46.279467 17503 net.cpp:399] conv5 -> conv5
I0403 14:45:46.301113 17503 net.cpp:141] Setting up conv5
I0403 14:45:46.301179 17503 net.cpp:148] Top shape: 100 256 13 13 (4326400)
I0403 14:45:46.301198 17503 net.cpp:156] Memory required for data: 800703600
I0403 14:45:46.301223 17503 layer_factory.hpp:77] Creating layer relu5
I0403 14:45:46.301246 17503 net.cpp:91] Creating Layer relu5
I0403 14:45:46.301301 17503 net.cpp:425] relu5 <- conv5
I0403 14:45:46.301331 17503 net.cpp:386] relu5 -> conv5 (in-place)
I0403 14:45:46.301623 17503 net.cpp:141] Setting up relu5
I0403 14:45:46.301651 17503 net.cpp:148] Top shape: 100 256 13 13 (4326400)
I0403 14:45:46.301666 17503 net.cpp:156] Memory required for data: 818009200
I0403 14:45:46.301681 17503 layer_factory.hpp:77] Creating layer pool5
I0403 14:45:46.301705 17503 net.cpp:91] Creating Layer pool5
I0403 14:45:46.301723 17503 net.cpp:425] pool5 <- conv5
I0403 14:45:46.301743 17503 net.cpp:399] pool5 -> pool5
I0403 14:45:46.301806 17503 net.cpp:141] Setting up pool5
I0403 14:45:46.301831 17503 net.cpp:148] Top shape: 100 256 6 6 (921600)
I0403 14:45:46.301846 17503 net.cpp:156] Memory required for data: 821695600
I0403 14:45:46.301861 17503 layer_factory.hpp:77] Creating layer fc6
I0403 14:45:46.301890 17503 net.cpp:91] Creating Layer fc6
I0403 14:45:46.301908 17503 net.cpp:425] fc6 <- pool5
I0403 14:45:46.301928 17503 net.cpp:399] fc6 -> fc6
I0403 14:45:47.922134 17503 net.cpp:141] Setting up fc6
I0403 14:45:47.922224 17503 net.cpp:148] Top shape: 100 4096 (409600)
I0403 14:45:47.922240 17503 net.cpp:156] Memory required for data: 823334000
I0403 14:45:47.922261 17503 layer_factory.hpp:77] Creating layer relu6
I0403 14:45:47.922284 17503 net.cpp:91] Creating Layer relu6
I0403 14:45:47.922302 17503 net.cpp:425] relu6 <- fc6
I0403 14:45:47.922323 17503 net.cpp:386] relu6 -> fc6 (in-place)
I0403 14:45:47.922540 17503 net.cpp:141] Setting up relu6
I0403 14:45:47.922567 17503 net.cpp:148] Top shape: 100 4096 (409600)
I0403 14:45:47.922582 17503 net.cpp:156] Memory required for data: 824972400
I0403 14:45:47.922597 17503 layer_factory.hpp:77] Creating layer drop6
I0403 14:45:47.922616 17503 net.cpp:91] Creating Layer drop6
I0403 14:45:47.922632 17503 net.cpp:425] drop6 <- fc6
I0403 14:45:47.922652 17503 net.cpp:386] drop6 -> fc6 (in-place)
I0403 14:45:47.922708 17503 net.cpp:141] Setting up drop6
I0403 14:45:47.922730 17503 net.cpp:148] Top shape: 100 4096 (409600)
I0403 14:45:47.922744 17503 net.cpp:156] Memory required for data: 826610800
I0403 14:45:47.922760 17503 layer_factory.hpp:77] Creating layer fc7
I0403 14:45:47.922780 17503 net.cpp:91] Creating Layer fc7
I0403 14:45:47.922796 17503 net.cpp:425] fc7 <- fc6
I0403 14:45:47.922817 17503 net.cpp:399] fc7 -> fc7
I0403 14:45:48.625582 17503 net.cpp:141] Setting up fc7
I0403 14:45:48.625672 17503 net.cpp:148] Top shape: 100 4096 (409600)
I0403 14:45:48.625687 17503 net.cpp:156] Memory required for data: 828249200
I0403 14:45:48.625707 17503 layer_factory.hpp:77] Creating layer relu7
I0403 14:45:48.625732 17503 net.cpp:91] Creating Layer relu7
I0403 14:45:48.625749 17503 net.cpp:425] relu7 <- fc7
I0403 14:45:48.625768 17503 net.cpp:386] relu7 -> fc7 (in-place)
I0403 14:45:48.626168 17503 net.cpp:141] Setting up relu7
I0403 14:45:48.626194 17503 net.cpp:148] Top shape: 100 4096 (409600)
I0403 14:45:48.626257 17503 net.cpp:156] Memory required for data: 829887600
I0403 14:45:48.626273 17503 layer_factory.hpp:77] Creating layer drop7
I0403 14:45:48.626293 17503 net.cpp:91] Creating Layer drop7
I0403 14:45:48.626315 17503 net.cpp:425] drop7 <- fc7
I0403 14:45:48.626332 17503 net.cpp:386] drop7 -> fc7 (in-place)
I0403 14:45:48.626382 17503 net.cpp:141] Setting up drop7
I0403 14:45:48.626407 17503 net.cpp:148] Top shape: 100 4096 (409600)
I0403 14:45:48.626422 17503 net.cpp:156] Memory required for data: 831526000
I0403 14:45:48.626437 17503 layer_factory.hpp:77] Creating layer fc8_plantvillage
I0403 14:45:48.626457 17503 net.cpp:91] Creating Layer fc8_plantvillage
I0403 14:45:48.626472 17503 net.cpp:425] fc8_plantvillage <- fc7
I0403 14:45:48.626492 17503 net.cpp:399] fc8_plantvillage -> fc8_plantvillage
I0403 14:45:48.633359 17503 net.cpp:141] Setting up fc8_plantvillage
I0403 14:45:48.633389 17503 net.cpp:148] Top shape: 100 38 (3800)
I0403 14:45:48.633405 17503 net.cpp:156] Memory required for data: 831541200
I0403 14:45:48.633424 17503 layer_factory.hpp:77] Creating layer fc8_plantvillage_fc8_plantvillage_0_split
I0403 14:45:48.633443 17503 net.cpp:91] Creating Layer fc8_plantvillage_fc8_plantvillage_0_split
I0403 14:45:48.633460 17503 net.cpp:425] fc8_plantvillage_fc8_plantvillage_0_split <- fc8_plantvillage
I0403 14:45:48.633477 17503 net.cpp:399] fc8_plantvillage_fc8_plantvillage_0_split -> fc8_plantvillage_fc8_plantvillage_0_split_0
I0403 14:45:48.633497 17503 net.cpp:399] fc8_plantvillage_fc8_plantvillage_0_split -> fc8_plantvillage_fc8_plantvillage_0_split_1
I0403 14:45:48.633517 17503 net.cpp:399] fc8_plantvillage_fc8_plantvillage_0_split -> fc8_plantvillage_fc8_plantvillage_0_split_2
I0403 14:45:48.633595 17503 net.cpp:141] Setting up fc8_plantvillage_fc8_plantvillage_0_split
I0403 14:45:48.633620 17503 net.cpp:148] Top shape: 100 38 (3800)
I0403 14:45:48.633637 17503 net.cpp:148] Top shape: 100 38 (3800)
I0403 14:45:48.633651 17503 net.cpp:148] Top shape: 100 38 (3800)
I0403 14:45:48.633664 17503 net.cpp:156] Memory required for data: 831586800
I0403 14:45:48.633678 17503 layer_factory.hpp:77] Creating layer prob
I0403 14:45:48.633697 17503 net.cpp:91] Creating Layer prob
I0403 14:45:48.633711 17503 net.cpp:425] prob <- fc8_plantvillage_fc8_plantvillage_0_split_0
I0403 14:45:48.633731 17503 net.cpp:399] prob -> prob
I0403 14:45:48.633960 17503 net.cpp:141] Setting up prob
I0403 14:45:48.633985 17503 net.cpp:148] Top shape: 100 38 (3800)
I0403 14:45:48.634001 17503 net.cpp:156] Memory required for data: 831602000
I0403 14:45:48.634014 17503 layer_factory.hpp:77] Creating layer hdf5out
I0403 14:45:48.634035 17503 net.cpp:91] Creating Layer hdf5out
I0403 14:45:48.634052 17503 net.cpp:425] hdf5out <- prob
I0403 14:45:48.634068 17503 net.cpp:425] hdf5out <- label_data_1_split_0
I0403 14:45:48.636523 17503 net.cpp:141] Setting up hdf5out
…
