…
I0403 14:37:50.952960 17261 net.cpp:313] The NetState phase (1) differed from the phase (0) specified by a rule in layer data
I0403 14:37:50.953295 17261 net.cpp:49] Initializing net from parameters: 
state {
  phase: TEST
}
layer {
  name: "data"
  type: "Data"
  top: "data"
  top: "label"
  include {
    phase: TEST
  }
  transform_param {
    crop_size: 227
    mean_file: "/home/mohanty/data/final_dataset/lmdb/segmented-60-40/mean.binaryproto"
  }
  data_param {
    source: "/home/mohanty/data/final_dataset/lmdb/segmented-60-40/test_db"
    batch_size: 100
    backend: LMDB
  }
}
layer {
  name: "conv1"
  type: "Convolution"
  bottom: "data"
  top: "conv1"
  param {
    lr_mult: 1
    decay_mult: 1
  }
  param {
    lr_mult: 2
    decay_mult: 0
  }
  convolution_param {
    num_output: 96
    kernel_size: 11
    stride: 4
    weight_filler {
      type: "gaussian"
      std: 0.01
    }
    bias_filler {
      type: "constant"
      value: 0
    }
  }
}
layer {
  name: "relu1"
  type: "ReLU"
  bottom: "conv1"
  top: "conv1"
}
layer {
  name: "norm1"
  type: "LRN"
  bottom: "conv1"
  top: "norm1"
  lrn_param {
    local_size: 5
    alpha: 0.0001
    beta: 0.75
  }
}
layer {
  name: "pool1"
  type: "Pooling"
  bottom: "norm1"
  top: "pool1"
  pooling_param {
    pool: MAX
    kernel_size: 3
    stride: 2
  }
}
layer {
  name: "conv2"
  type: "Convolution"
  bottom: "pool1"
  top: "conv2"
  param {
    lr_mult: 1
    decay_mult: 1
  }
  param {
    lr_mult: 2
    decay_mult: 0
  }
  convolution_param {
    num_output: 256
    pad: 2
    kernel_size: 5
    group: 2
    weight_filler {
      type: "gaussian"
      std: 0.01
    }
    bias_filler {
      type: "constant"
      value: 0.1
    }
  }
}
layer {
  name: "relu2"
  type: "ReLU"
  bottom: "conv2"
  top: "conv2"
}
layer {
  name: "norm2"
  type: "LRN"
  bottom: "conv2"
  top: "norm2"
  lrn_param {
    local_size: 5
    alpha: 0.0001
    beta: 0.75
  }
}
layer {
  name: "pool2"
  type: "Pooling"
  bottom: "norm2"
  top: "pool2"
  pooling_param {
    pool: MAX
    kernel_size: 3
    stride: 2
  }
}
layer {
  name: "conv3"
  type: "Convolution"
  bottom: "pool2"
  top: "conv3"
  param {
    lr_mult: 1
    decay_mult: 1
  }
  param {
    lr_mult: 2
    decay_mult: 0
  }
  convolution_param {
    num_output: 384
    pad: 1
    kernel_size: 3
    weight_filler {
      type: "gaussian"
      std: 0.01
    }
    bias_filler {
      type: "constant"
      value: 0
    }
  }
}
layer {
  name: "relu3"
  type: "ReLU"
  bottom: "conv3"
  top: "conv3"
}
layer {
  name: "conv4"
  type: "Convolution"
  bottom: "conv3"
  top: "conv4"
  param {
    lr_mult: 1
    decay_mult: 1
  }
  param {
    lr_mult: 2
    decay_mult: 0
  }
  convolution_param {
    num_output: 384
    pad: 1
    kernel_size: 3
    group: 2
    weight_filler {
      type: "gaussian"
      std: 0.01
    }
    bias_filler {
      type: "constant"
      value: 0.1
    }
  }
}
layer {
  name: "relu4"
  type: "ReLU"
  bottom: "conv4"
  top: "conv4"
}
layer {
  name: "conv5"
  type: "Convolution"
  bottom: "conv4"
  top: "conv5"
  param {
    lr_mult: 1
    decay_mult: 1
  }
  param {
    lr_mult: 2
    decay_mult: 0
  }
  convolution_param {
    num_output: 256
    pad: 1
    kernel_size: 3
    group: 2
    weight_filler {
      type: "gaussian"
      std: 0.01
    }
    bias_filler {
      type: "constant"
      value: 0.1
    }
  }
}
layer {
  name: "relu5"
  type: "ReLU"
  bottom: "conv5"
  top: "conv5"
}
layer {
  name: "pool5"
  type: "Pooling"
  bottom: "conv5"
  top: "pool5"
  pooling_param {
    pool: MAX
    kernel_size: 3
    stride: 2
  }
}
layer {
  name: "fc6"
  type: "InnerProduct"
  bottom: "pool5"
  top: "fc6"
  param {
    lr_mult: 1
    decay_mult: 1
  }
  param {
    lr_mult: 2
    decay_mult: 0
  }
  inner_product_param {
    num_output: 4096
    weight_filler {
      type: "gaussian"
      std: 0.005
    }
    bias_filler {
      type: "constant"
      value: 0.1
    }
  }
}
layer {
  name: "relu6"
  type: "ReLU"
  bottom: "fc6"
  top: "fc6"
}
layer {
  name: "drop6"
  type: "Dropout"
  bottom: "fc6"
  top: "fc6"
  dropout_param {
    dropout_ratio: 0.5
  }
}
layer {
  name: "fc7"
  type: "InnerProduct"
  bottom: "fc6"
  top: "fc7"
  param {
    lr_mult: 1
    decay_mult: 1
  }
  param {
    lr_mult: 2
    decay_mult: 0
  }
  inner_product_param {
    num_output: 4096
    weight_filler {
      type: "gaussian"
      std: 0.005
    }
    bias_filler {
      type: "constant"
      value: 0.1
    }
  }
}
layer {
  name: "relu7"
  type: "ReLU"
  bottom: "fc7"
  top: "fc7"
}
layer {
  name: "drop7"
  type: "Dropout"
  bottom: "fc7"
  top: "fc7"
  dropout_param {
    dropout_ratio: 0.5
  }
}
layer {
  name: "fc8_plantvillage"
  type: "InnerProduct"
  bottom: "fc7"
  top: "fc8_plantvillage"
  param {
    lr_mult: 1
    decay_mult: 1
  }
  param {
    lr_mult: 2
    decay_mult: 0
  }
  inner_product_param {
    num_output: 38
    weight_filler {
      type: "gaussian"
      std: 0.01
    }
    bias_filler {
      type: "constant"
      value: 0
    }
  }
}
layer {
  name: "prob"
  type: "Softmax"
  bottom: "fc8_plantvillage"
  top: "prob"
  include {
    phase: TEST
  }
}
layer {
  name: "hdf5out"
  type: "HDF5Output"
  bottom: "prob"
  bottom: "label"
  include {
    phase: TEST
  }
  hdf5_output_param {
    file_name: "hdf5_dumps/iter_5525.h5"
  }
}
layer {
  name: "loss"
  type: "SoftmaxWithLoss"
  bottom: "fc8_plantvillage"
  bottom: "label"
  top: "loss"
}
layer {
  name: "accuracy"
  type: "Accuracy"
  bottom: "fc8_plantvillage"
  bottom: "label"
  top: "accuracy"
  include {
    phase: TEST
  }
}
I0403 14:37:50.953824 17261 layer_factory.hpp:77] Creating layer data
I0403 14:37:50.954478 17261 net.cpp:91] Creating Layer data
I0403 14:37:50.954512 17261 net.cpp:399] data -> data
I0403 14:37:50.954565 17261 net.cpp:399] data -> label
I0403 14:37:50.954599 17261 data_transformer.cpp:25] Loading mean file from: /home/mohanty/data/final_dataset/lmdb/segmented-60-40/mean.binaryproto
I0403 14:37:50.955781 17264 db_lmdb.cpp:38] Opened lmdb /home/mohanty/data/final_dataset/lmdb/segmented-60-40/test_db
I0403 14:37:50.969102 17261 data_layer.cpp:41] output data size: 100,3,227,227
I0403 14:37:51.103636 17261 net.cpp:141] Setting up data
I0403 14:37:51.103745 17261 net.cpp:148] Top shape: 100 3 227 227 (15458700)
I0403 14:37:51.103768 17261 net.cpp:148] Top shape: 100 (100)
I0403 14:37:51.103783 17261 net.cpp:156] Memory required for data: 61835200
I0403 14:37:51.103811 17261 layer_factory.hpp:77] Creating layer label_data_1_split
I0403 14:37:51.103835 17261 net.cpp:91] Creating Layer label_data_1_split
I0403 14:37:51.103853 17261 net.cpp:425] label_data_1_split <- label
I0403 14:37:51.103885 17261 net.cpp:399] label_data_1_split -> label_data_1_split_0
I0403 14:37:51.103912 17261 net.cpp:399] label_data_1_split -> label_data_1_split_1
I0403 14:37:51.103932 17261 net.cpp:399] label_data_1_split -> label_data_1_split_2
I0403 14:37:51.103998 17261 net.cpp:141] Setting up label_data_1_split
I0403 14:37:51.104022 17261 net.cpp:148] Top shape: 100 (100)
I0403 14:37:51.104038 17261 net.cpp:148] Top shape: 100 (100)
I0403 14:37:51.104054 17261 net.cpp:148] Top shape: 100 (100)
I0403 14:37:51.104068 17261 net.cpp:156] Memory required for data: 61836400
I0403 14:37:51.104082 17261 layer_factory.hpp:77] Creating layer conv1
I0403 14:37:51.104113 17261 net.cpp:91] Creating Layer conv1
I0403 14:37:51.104131 17261 net.cpp:425] conv1 <- data
I0403 14:37:51.104151 17261 net.cpp:399] conv1 -> conv1
I0403 14:37:51.313961 17261 net.cpp:141] Setting up conv1
I0403 14:37:51.314054 17261 net.cpp:148] Top shape: 100 96 55 55 (29040000)
I0403 14:37:51.314074 17261 net.cpp:156] Memory required for data: 177996400
I0403 14:37:51.314106 17261 layer_factory.hpp:77] Creating layer relu1
I0403 14:37:51.314134 17261 net.cpp:91] Creating Layer relu1
I0403 14:37:51.314213 17261 net.cpp:425] relu1 <- conv1
I0403 14:37:51.314240 17261 net.cpp:386] relu1 -> conv1 (in-place)
I0403 14:37:51.314501 17261 net.cpp:141] Setting up relu1
I0403 14:37:51.314527 17261 net.cpp:148] Top shape: 100 96 55 55 (29040000)
I0403 14:37:51.314574 17261 net.cpp:156] Memory required for data: 294156400
I0403 14:37:51.314590 17261 layer_factory.hpp:77] Creating layer norm1
I0403 14:37:51.314618 17261 net.cpp:91] Creating Layer norm1
I0403 14:37:51.314636 17261 net.cpp:425] norm1 <- conv1
I0403 14:37:51.314654 17261 net.cpp:399] norm1 -> norm1
I0403 14:37:51.314960 17261 net.cpp:141] Setting up norm1
I0403 14:37:51.314991 17261 net.cpp:148] Top shape: 100 96 55 55 (29040000)
I0403 14:37:51.315009 17261 net.cpp:156] Memory required for data: 410316400
I0403 14:37:51.315024 17261 layer_factory.hpp:77] Creating layer pool1
I0403 14:37:51.315047 17261 net.cpp:91] Creating Layer pool1
I0403 14:37:51.315065 17261 net.cpp:425] pool1 <- norm1
I0403 14:37:51.315083 17261 net.cpp:399] pool1 -> pool1
I0403 14:37:51.315150 17261 net.cpp:141] Setting up pool1
I0403 14:37:51.315174 17261 net.cpp:148] Top shape: 100 96 27 27 (6998400)
I0403 14:37:51.315189 17261 net.cpp:156] Memory required for data: 438310000
I0403 14:37:51.315204 17261 layer_factory.hpp:77] Creating layer conv2
I0403 14:37:51.315229 17261 net.cpp:91] Creating Layer conv2
I0403 14:37:51.315245 17261 net.cpp:425] conv2 <- pool1
I0403 14:37:51.315263 17261 net.cpp:399] conv2 -> conv2
I0403 14:37:51.330483 17261 net.cpp:141] Setting up conv2
I0403 14:37:51.330544 17261 net.cpp:148] Top shape: 100 256 27 27 (18662400)
I0403 14:37:51.330561 17261 net.cpp:156] Memory required for data: 512959600
I0403 14:37:51.330584 17261 layer_factory.hpp:77] Creating layer relu2
I0403 14:37:51.330605 17261 net.cpp:91] Creating Layer relu2
I0403 14:37:51.330623 17261 net.cpp:425] relu2 <- conv2
I0403 14:37:51.330641 17261 net.cpp:386] relu2 -> conv2 (in-place)
I0403 14:37:51.330910 17261 net.cpp:141] Setting up relu2
I0403 14:37:51.330936 17261 net.cpp:148] Top shape: 100 256 27 27 (18662400)
I0403 14:37:51.330951 17261 net.cpp:156] Memory required for data: 587609200
I0403 14:37:51.330966 17261 layer_factory.hpp:77] Creating layer norm2
I0403 14:37:51.330991 17261 net.cpp:91] Creating Layer norm2
I0403 14:37:51.331009 17261 net.cpp:425] norm2 <- conv2
I0403 14:37:51.331027 17261 net.cpp:399] norm2 -> norm2
I0403 14:37:51.331215 17261 net.cpp:141] Setting up norm2
I0403 14:37:51.331241 17261 net.cpp:148] Top shape: 100 256 27 27 (18662400)
I0403 14:37:51.331256 17261 net.cpp:156] Memory required for data: 662258800
I0403 14:37:51.331272 17261 layer_factory.hpp:77] Creating layer pool2
I0403 14:37:51.331291 17261 net.cpp:91] Creating Layer pool2
I0403 14:37:51.331307 17261 net.cpp:425] pool2 <- norm2
I0403 14:37:51.331324 17261 net.cpp:399] pool2 -> pool2
I0403 14:37:51.331375 17261 net.cpp:141] Setting up pool2
I0403 14:37:51.331398 17261 net.cpp:148] Top shape: 100 256 13 13 (4326400)
I0403 14:37:51.331413 17261 net.cpp:156] Memory required for data: 679564400
I0403 14:37:51.331426 17261 layer_factory.hpp:77] Creating layer conv3
I0403 14:37:51.331449 17261 net.cpp:91] Creating Layer conv3
I0403 14:37:51.331465 17261 net.cpp:425] conv3 <- pool2
I0403 14:37:51.331483 17261 net.cpp:399] conv3 -> conv3
I0403 14:37:51.371351 17261 net.cpp:141] Setting up conv3
I0403 14:37:51.371429 17261 net.cpp:148] Top shape: 100 384 13 13 (6489600)
I0403 14:37:51.371445 17261 net.cpp:156] Memory required for data: 705522800
I0403 14:37:51.371470 17261 layer_factory.hpp:77] Creating layer relu3
I0403 14:37:51.371495 17261 net.cpp:91] Creating Layer relu3
I0403 14:37:51.371513 17261 net.cpp:425] relu3 <- conv3
I0403 14:37:51.371531 17261 net.cpp:386] relu3 -> conv3 (in-place)
I0403 14:37:51.371822 17261 net.cpp:141] Setting up relu3
I0403 14:37:51.371848 17261 net.cpp:148] Top shape: 100 384 13 13 (6489600)
I0403 14:37:51.371863 17261 net.cpp:156] Memory required for data: 731481200
I0403 14:37:51.371878 17261 layer_factory.hpp:77] Creating layer conv4
I0403 14:37:51.371904 17261 net.cpp:91] Creating Layer conv4
I0403 14:37:51.371922 17261 net.cpp:425] conv4 <- conv3
I0403 14:37:51.371953 17261 net.cpp:399] conv4 -> conv4
I0403 14:37:51.401743 17261 net.cpp:141] Setting up conv4
I0403 14:37:51.401834 17261 net.cpp:148] Top shape: 100 384 13 13 (6489600)
I0403 14:37:51.401881 17261 net.cpp:156] Memory required for data: 757439600
I0403 14:37:51.401902 17261 layer_factory.hpp:77] Creating layer relu4
I0403 14:37:51.401924 17261 net.cpp:91] Creating Layer relu4
I0403 14:37:51.401942 17261 net.cpp:425] relu4 <- conv4
I0403 14:37:51.401963 17261 net.cpp:386] relu4 -> conv4 (in-place)
I0403 14:37:51.402247 17261 net.cpp:141] Setting up relu4
I0403 14:37:51.402273 17261 net.cpp:148] Top shape: 100 384 13 13 (6489600)
I0403 14:37:51.402288 17261 net.cpp:156] Memory required for data: 783398000
I0403 14:37:51.402302 17261 layer_factory.hpp:77] Creating layer conv5
I0403 14:37:51.402328 17261 net.cpp:91] Creating Layer conv5
I0403 14:37:51.402344 17261 net.cpp:425] conv5 <- conv4
I0403 14:37:51.402364 17261 net.cpp:399] conv5 -> conv5
I0403 14:37:51.422735 17261 net.cpp:141] Setting up conv5
I0403 14:37:51.422798 17261 net.cpp:148] Top shape: 100 256 13 13 (4326400)
I0403 14:37:51.422816 17261 net.cpp:156] Memory required for data: 800703600
I0403 14:37:51.422839 17261 layer_factory.hpp:77] Creating layer relu5
I0403 14:37:51.422860 17261 net.cpp:91] Creating Layer relu5
I0403 14:37:51.422876 17261 net.cpp:425] relu5 <- conv5
I0403 14:37:51.422899 17261 net.cpp:386] relu5 -> conv5 (in-place)
I0403 14:37:51.423190 17261 net.cpp:141] Setting up relu5
I0403 14:37:51.423219 17261 net.cpp:148] Top shape: 100 256 13 13 (4326400)
I0403 14:37:51.423233 17261 net.cpp:156] Memory required for data: 818009200
I0403 14:37:51.423249 17261 layer_factory.hpp:77] Creating layer pool5
I0403 14:37:51.423274 17261 net.cpp:91] Creating Layer pool5
I0403 14:37:51.423290 17261 net.cpp:425] pool5 <- conv5
I0403 14:37:51.423308 17261 net.cpp:399] pool5 -> pool5
I0403 14:37:51.423370 17261 net.cpp:141] Setting up pool5
I0403 14:37:51.423394 17261 net.cpp:148] Top shape: 100 256 6 6 (921600)
I0403 14:37:51.423408 17261 net.cpp:156] Memory required for data: 821695600
I0403 14:37:51.423423 17261 layer_factory.hpp:77] Creating layer fc6
I0403 14:37:51.423452 17261 net.cpp:91] Creating Layer fc6
I0403 14:37:51.423470 17261 net.cpp:425] fc6 <- pool5
I0403 14:37:51.423490 17261 net.cpp:399] fc6 -> fc6
I0403 14:37:52.984062 17261 net.cpp:141] Setting up fc6
I0403 14:37:52.984107 17261 net.cpp:148] Top shape: 100 4096 (409600)
I0403 14:37:52.984123 17261 net.cpp:156] Memory required for data: 823334000
I0403 14:37:52.984144 17261 layer_factory.hpp:77] Creating layer relu6
I0403 14:37:52.984168 17261 net.cpp:91] Creating Layer relu6
I0403 14:37:52.984184 17261 net.cpp:425] relu6 <- fc6
I0403 14:37:52.984205 17261 net.cpp:386] relu6 -> fc6 (in-place)
I0403 14:37:52.984436 17261 net.cpp:141] Setting up relu6
I0403 14:37:52.984460 17261 net.cpp:148] Top shape: 100 4096 (409600)
I0403 14:37:52.984474 17261 net.cpp:156] Memory required for data: 824972400
I0403 14:37:52.984488 17261 layer_factory.hpp:77] Creating layer drop6
I0403 14:37:52.984506 17261 net.cpp:91] Creating Layer drop6
I0403 14:37:52.984521 17261 net.cpp:425] drop6 <- fc6
I0403 14:37:52.984539 17261 net.cpp:386] drop6 -> fc6 (in-place)
I0403 14:37:52.984589 17261 net.cpp:141] Setting up drop6
I0403 14:37:52.984616 17261 net.cpp:148] Top shape: 100 4096 (409600)
I0403 14:37:52.984629 17261 net.cpp:156] Memory required for data: 826610800
I0403 14:37:52.984642 17261 layer_factory.hpp:77] Creating layer fc7
I0403 14:37:52.984663 17261 net.cpp:91] Creating Layer fc7
I0403 14:37:52.984678 17261 net.cpp:425] fc7 <- fc6
I0403 14:37:52.984696 17261 net.cpp:399] fc7 -> fc7
I0403 14:37:53.674705 17261 net.cpp:141] Setting up fc7
I0403 14:37:53.674794 17261 net.cpp:148] Top shape: 100 4096 (409600)
I0403 14:37:53.674811 17261 net.cpp:156] Memory required for data: 828249200
I0403 14:37:53.674832 17261 layer_factory.hpp:77] Creating layer relu7
I0403 14:37:53.674854 17261 net.cpp:91] Creating Layer relu7
I0403 14:37:53.674873 17261 net.cpp:425] relu7 <- fc7
I0403 14:37:53.674893 17261 net.cpp:386] relu7 -> fc7 (in-place)
I0403 14:37:53.675314 17261 net.cpp:141] Setting up relu7
I0403 14:37:53.675340 17261 net.cpp:148] Top shape: 100 4096 (409600)
I0403 14:37:53.675402 17261 net.cpp:156] Memory required for data: 829887600
I0403 14:37:53.675420 17261 layer_factory.hpp:77] Creating layer drop7
I0403 14:37:53.675438 17261 net.cpp:91] Creating Layer drop7
I0403 14:37:53.675453 17261 net.cpp:425] drop7 <- fc7
I0403 14:37:53.675474 17261 net.cpp:386] drop7 -> fc7 (in-place)
I0403 14:37:53.675518 17261 net.cpp:141] Setting up drop7
I0403 14:37:53.675544 17261 net.cpp:148] Top shape: 100 4096 (409600)
I0403 14:37:53.675559 17261 net.cpp:156] Memory required for data: 831526000
I0403 14:37:53.675573 17261 layer_factory.hpp:77] Creating layer fc8_plantvillage
I0403 14:37:53.675593 17261 net.cpp:91] Creating Layer fc8_plantvillage
I0403 14:37:53.675608 17261 net.cpp:425] fc8_plantvillage <- fc7
I0403 14:37:53.675628 17261 net.cpp:399] fc8_plantvillage -> fc8_plantvillage
I0403 14:37:53.682687 17261 net.cpp:141] Setting up fc8_plantvillage
I0403 14:37:53.682716 17261 net.cpp:148] Top shape: 100 38 (3800)
I0403 14:37:53.682731 17261 net.cpp:156] Memory required for data: 831541200
I0403 14:37:53.682749 17261 layer_factory.hpp:77] Creating layer fc8_plantvillage_fc8_plantvillage_0_split
I0403 14:37:53.682768 17261 net.cpp:91] Creating Layer fc8_plantvillage_fc8_plantvillage_0_split
I0403 14:37:53.682783 17261 net.cpp:425] fc8_plantvillage_fc8_plantvillage_0_split <- fc8_plantvillage
I0403 14:37:53.682803 17261 net.cpp:399] fc8_plantvillage_fc8_plantvillage_0_split -> fc8_plantvillage_fc8_plantvillage_0_split_0
I0403 14:37:53.682837 17261 net.cpp:399] fc8_plantvillage_fc8_plantvillage_0_split -> fc8_plantvillage_fc8_plantvillage_0_split_1
I0403 14:37:53.682857 17261 net.cpp:399] fc8_plantvillage_fc8_plantvillage_0_split -> fc8_plantvillage_fc8_plantvillage_0_split_2
I0403 14:37:53.682932 17261 net.cpp:141] Setting up fc8_plantvillage_fc8_plantvillage_0_split
I0403 14:37:53.682955 17261 net.cpp:148] Top shape: 100 38 (3800)
I0403 14:37:53.682971 17261 net.cpp:148] Top shape: 100 38 (3800)
I0403 14:37:53.682991 17261 net.cpp:148] Top shape: 100 38 (3800)
I0403 14:37:53.683007 17261 net.cpp:156] Memory required for data: 831586800
I0403 14:37:53.683020 17261 layer_factory.hpp:77] Creating layer prob
I0403 14:37:53.683037 17261 net.cpp:91] Creating Layer prob
I0403 14:37:53.683053 17261 net.cpp:425] prob <- fc8_plantvillage_fc8_plantvillage_0_split_0
I0403 14:37:53.683073 17261 net.cpp:399] prob -> prob
I0403 14:37:53.683315 17261 net.cpp:141] Setting up prob
I0403 14:37:53.683341 17261 net.cpp:148] Top shape: 100 38 (3800)
I0403 14:37:53.683356 17261 net.cpp:156] Memory required for data: 831602000
I0403 14:37:53.683370 17261 layer_factory.hpp:77] Creating layer hdf5out
I0403 14:37:53.683389 17261 net.cpp:91] Creating Layer hdf5out
I0403 14:37:53.683408 17261 net.cpp:425] hdf5out <- prob
I0403 14:37:53.683424 17261 net.cpp:425] hdf5out <- label_data_1_split_0
I0403 14:37:53.685523 17261 net.cpp:141] Setting up hdf5out
…
