…
I0403 14:30:38.335811 17062 net.cpp:313] The NetState phase (1) differed from the phase (0) specified by a rule in layer data
I0403 14:30:38.336133 17062 net.cpp:49] Initializing net from parameters: 
state {
  phase: TEST
}
layer {
  name: "data"
  type: "Data"
  top: "data"
  top: "label"
  include {
    phase: TEST
  }
  transform_param {
    crop_size: 227
    mean_file: "/home/mohanty/data/final_dataset/lmdb/segmented-60-40/mean.binaryproto"
  }
  data_param {
    source: "/home/mohanty/data/final_dataset/lmdb/segmented-60-40/test_db"
    batch_size: 100
    backend: LMDB
  }
}
layer {
  name: "conv1"
  type: "Convolution"
  bottom: "data"
  top: "conv1"
  param {
    lr_mult: 1
    decay_mult: 1
  }
  param {
    lr_mult: 2
    decay_mult: 0
  }
  convolution_param {
    num_output: 96
    kernel_size: 11
    stride: 4
    weight_filler {
      type: "gaussian"
      std: 0.01
    }
    bias_filler {
      type: "constant"
      value: 0
    }
  }
}
layer {
  name: "relu1"
  type: "ReLU"
  bottom: "conv1"
  top: "conv1"
}
layer {
  name: "norm1"
  type: "LRN"
  bottom: "conv1"
  top: "norm1"
  lrn_param {
    local_size: 5
    alpha: 0.0001
    beta: 0.75
  }
}
layer {
  name: "pool1"
  type: "Pooling"
  bottom: "norm1"
  top: "pool1"
  pooling_param {
    pool: MAX
    kernel_size: 3
    stride: 2
  }
}
layer {
  name: "conv2"
  type: "Convolution"
  bottom: "pool1"
  top: "conv2"
  param {
    lr_mult: 1
    decay_mult: 1
  }
  param {
    lr_mult: 2
    decay_mult: 0
  }
  convolution_param {
    num_output: 256
    pad: 2
    kernel_size: 5
    group: 2
    weight_filler {
      type: "gaussian"
      std: 0.01
    }
    bias_filler {
      type: "constant"
      value: 0.1
    }
  }
}
layer {
  name: "relu2"
  type: "ReLU"
  bottom: "conv2"
  top: "conv2"
}
layer {
  name: "norm2"
  type: "LRN"
  bottom: "conv2"
  top: "norm2"
  lrn_param {
    local_size: 5
    alpha: 0.0001
    beta: 0.75
  }
}
layer {
  name: "pool2"
  type: "Pooling"
  bottom: "norm2"
  top: "pool2"
  pooling_param {
    pool: MAX
    kernel_size: 3
    stride: 2
  }
}
layer {
  name: "conv3"
  type: "Convolution"
  bottom: "pool2"
  top: "conv3"
  param {
    lr_mult: 1
    decay_mult: 1
  }
  param {
    lr_mult: 2
    decay_mult: 0
  }
  convolution_param {
    num_output: 384
    pad: 1
    kernel_size: 3
    weight_filler {
      type: "gaussian"
      std: 0.01
    }
    bias_filler {
      type: "constant"
      value: 0
    }
  }
}
layer {
  name: "relu3"
  type: "ReLU"
  bottom: "conv3"
  top: "conv3"
}
layer {
  name: "conv4"
  type: "Convolution"
  bottom: "conv3"
  top: "conv4"
  param {
    lr_mult: 1
    decay_mult: 1
  }
  param {
    lr_mult: 2
    decay_mult: 0
  }
  convolution_param {
    num_output: 384
    pad: 1
    kernel_size: 3
    group: 2
    weight_filler {
      type: "gaussian"
      std: 0.01
    }
    bias_filler {
      type: "constant"
      value: 0.1
    }
  }
}
layer {
  name: "relu4"
  type: "ReLU"
  bottom: "conv4"
  top: "conv4"
}
layer {
  name: "conv5"
  type: "Convolution"
  bottom: "conv4"
  top: "conv5"
  param {
    lr_mult: 1
    decay_mult: 1
  }
  param {
    lr_mult: 2
    decay_mult: 0
  }
  convolution_param {
    num_output: 256
    pad: 1
    kernel_size: 3
    group: 2
    weight_filler {
      type: "gaussian"
      std: 0.01
    }
    bias_filler {
      type: "constant"
      value: 0.1
    }
  }
}
layer {
  name: "relu5"
  type: "ReLU"
  bottom: "conv5"
  top: "conv5"
}
layer {
  name: "pool5"
  type: "Pooling"
  bottom: "conv5"
  top: "pool5"
  pooling_param {
    pool: MAX
    kernel_size: 3
    stride: 2
  }
}
layer {
  name: "fc6"
  type: "InnerProduct"
  bottom: "pool5"
  top: "fc6"
  param {
    lr_mult: 1
    decay_mult: 1
  }
  param {
    lr_mult: 2
    decay_mult: 0
  }
  inner_product_param {
    num_output: 4096
    weight_filler {
      type: "gaussian"
      std: 0.005
    }
    bias_filler {
      type: "constant"
      value: 0.1
    }
  }
}
layer {
  name: "relu6"
  type: "ReLU"
  bottom: "fc6"
  top: "fc6"
}
layer {
  name: "drop6"
  type: "Dropout"
  bottom: "fc6"
  top: "fc6"
  dropout_param {
    dropout_ratio: 0.5
  }
}
layer {
  name: "fc7"
  type: "InnerProduct"
  bottom: "fc6"
  top: "fc7"
  param {
    lr_mult: 1
    decay_mult: 1
  }
  param {
    lr_mult: 2
    decay_mult: 0
  }
  inner_product_param {
    num_output: 4096
    weight_filler {
      type: "gaussian"
      std: 0.005
    }
    bias_filler {
      type: "constant"
      value: 0.1
    }
  }
}
layer {
  name: "relu7"
  type: "ReLU"
  bottom: "fc7"
  top: "fc7"
}
layer {
  name: "drop7"
  type: "Dropout"
  bottom: "fc7"
  top: "fc7"
  dropout_param {
    dropout_ratio: 0.5
  }
}
layer {
  name: "fc8_plantvillage"
  type: "InnerProduct"
  bottom: "fc7"
  top: "fc8_plantvillage"
  param {
    lr_mult: 1
    decay_mult: 1
  }
  param {
    lr_mult: 2
    decay_mult: 0
  }
  inner_product_param {
    num_output: 38
    weight_filler {
      type: "gaussian"
      std: 0.01
    }
    bias_filler {
      type: "constant"
      value: 0
    }
  }
}
layer {
  name: "prob"
  type: "Softmax"
  bottom: "fc8_plantvillage"
  top: "prob"
  include {
    phase: TEST
  }
}
layer {
  name: "hdf5out"
  type: "HDF5Output"
  bottom: "prob"
  bottom: "label"
  include {
    phase: TEST
  }
  hdf5_output_param {
    file_name: "hdf5_dumps/iter_2275.h5"
  }
}
layer {
  name: "loss"
  type: "SoftmaxWithLoss"
  bottom: "fc8_plantvillage"
  bottom: "label"
  top: "loss"
}
layer {
  name: "accuracy"
  type: "Accuracy"
  bottom: "fc8_plantvillage"
  bottom: "label"
  top: "accuracy"
  include {
    phase: TEST
  }
}
I0403 14:30:38.336685 17062 layer_factory.hpp:77] Creating layer data
I0403 14:30:38.337344 17062 net.cpp:91] Creating Layer data
I0403 14:30:38.337378 17062 net.cpp:399] data -> data
I0403 14:30:38.337427 17062 net.cpp:399] data -> label
I0403 14:30:38.337462 17062 data_transformer.cpp:25] Loading mean file from: /home/mohanty/data/final_dataset/lmdb/segmented-60-40/mean.binaryproto
I0403 14:30:38.338655 17067 db_lmdb.cpp:38] Opened lmdb /home/mohanty/data/final_dataset/lmdb/segmented-60-40/test_db
I0403 14:30:38.351809 17062 data_layer.cpp:41] output data size: 100,3,227,227
I0403 14:30:38.484814 17062 net.cpp:141] Setting up data
I0403 14:30:38.484921 17062 net.cpp:148] Top shape: 100 3 227 227 (15458700)
I0403 14:30:38.484943 17062 net.cpp:148] Top shape: 100 (100)
I0403 14:30:38.484958 17062 net.cpp:156] Memory required for data: 61835200
I0403 14:30:38.484992 17062 layer_factory.hpp:77] Creating layer label_data_1_split
I0403 14:30:38.485019 17062 net.cpp:91] Creating Layer label_data_1_split
I0403 14:30:38.485044 17062 net.cpp:425] label_data_1_split <- label
I0403 14:30:38.485077 17062 net.cpp:399] label_data_1_split -> label_data_1_split_0
I0403 14:30:38.485105 17062 net.cpp:399] label_data_1_split -> label_data_1_split_1
I0403 14:30:38.485124 17062 net.cpp:399] label_data_1_split -> label_data_1_split_2
I0403 14:30:38.485188 17062 net.cpp:141] Setting up label_data_1_split
I0403 14:30:38.485210 17062 net.cpp:148] Top shape: 100 (100)
I0403 14:30:38.485226 17062 net.cpp:148] Top shape: 100 (100)
I0403 14:30:38.485241 17062 net.cpp:148] Top shape: 100 (100)
I0403 14:30:38.485255 17062 net.cpp:156] Memory required for data: 61836400
I0403 14:30:38.485270 17062 layer_factory.hpp:77] Creating layer conv1
I0403 14:30:38.485301 17062 net.cpp:91] Creating Layer conv1
I0403 14:30:38.485328 17062 net.cpp:425] conv1 <- data
I0403 14:30:38.485348 17062 net.cpp:399] conv1 -> conv1
I0403 14:30:38.634578 17062 net.cpp:141] Setting up conv1
I0403 14:30:38.634671 17062 net.cpp:148] Top shape: 100 96 55 55 (29040000)
I0403 14:30:38.634690 17062 net.cpp:156] Memory required for data: 177996400
I0403 14:30:38.634719 17062 layer_factory.hpp:77] Creating layer relu1
I0403 14:30:38.634748 17062 net.cpp:91] Creating Layer relu1
I0403 14:30:38.634766 17062 net.cpp:425] relu1 <- conv1
I0403 14:30:38.634785 17062 net.cpp:386] relu1 -> conv1 (in-place)
I0403 14:30:38.635051 17062 net.cpp:141] Setting up relu1
I0403 14:30:38.635078 17062 net.cpp:148] Top shape: 100 96 55 55 (29040000)
I0403 14:30:38.635126 17062 net.cpp:156] Memory required for data: 294156400
I0403 14:30:38.635143 17062 layer_factory.hpp:77] Creating layer norm1
I0403 14:30:38.635170 17062 net.cpp:91] Creating Layer norm1
I0403 14:30:38.635187 17062 net.cpp:425] norm1 <- conv1
I0403 14:30:38.635206 17062 net.cpp:399] norm1 -> norm1
I0403 14:30:38.635548 17062 net.cpp:141] Setting up norm1
I0403 14:30:38.635576 17062 net.cpp:148] Top shape: 100 96 55 55 (29040000)
I0403 14:30:38.635591 17062 net.cpp:156] Memory required for data: 410316400
I0403 14:30:38.635606 17062 layer_factory.hpp:77] Creating layer pool1
I0403 14:30:38.635627 17062 net.cpp:91] Creating Layer pool1
I0403 14:30:38.635643 17062 net.cpp:425] pool1 <- norm1
I0403 14:30:38.635661 17062 net.cpp:399] pool1 -> pool1
I0403 14:30:38.635725 17062 net.cpp:141] Setting up pool1
I0403 14:30:38.635748 17062 net.cpp:148] Top shape: 100 96 27 27 (6998400)
I0403 14:30:38.635763 17062 net.cpp:156] Memory required for data: 438310000
I0403 14:30:38.635776 17062 layer_factory.hpp:77] Creating layer conv2
I0403 14:30:38.635800 17062 net.cpp:91] Creating Layer conv2
I0403 14:30:38.635817 17062 net.cpp:425] conv2 <- pool1
I0403 14:30:38.635834 17062 net.cpp:399] conv2 -> conv2
I0403 14:30:38.650677 17062 net.cpp:141] Setting up conv2
I0403 14:30:38.650724 17062 net.cpp:148] Top shape: 100 256 27 27 (18662400)
I0403 14:30:38.650740 17062 net.cpp:156] Memory required for data: 512959600
I0403 14:30:38.650763 17062 layer_factory.hpp:77] Creating layer relu2
I0403 14:30:38.650782 17062 net.cpp:91] Creating Layer relu2
I0403 14:30:38.650799 17062 net.cpp:425] relu2 <- conv2
I0403 14:30:38.650816 17062 net.cpp:386] relu2 -> conv2 (in-place)
I0403 14:30:38.651101 17062 net.cpp:141] Setting up relu2
I0403 14:30:38.651129 17062 net.cpp:148] Top shape: 100 256 27 27 (18662400)
I0403 14:30:38.651144 17062 net.cpp:156] Memory required for data: 587609200
I0403 14:30:38.651160 17062 layer_factory.hpp:77] Creating layer norm2
I0403 14:30:38.651180 17062 net.cpp:91] Creating Layer norm2
I0403 14:30:38.651196 17062 net.cpp:425] norm2 <- conv2
I0403 14:30:38.651216 17062 net.cpp:399] norm2 -> norm2
I0403 14:30:38.651412 17062 net.cpp:141] Setting up norm2
I0403 14:30:38.651438 17062 net.cpp:148] Top shape: 100 256 27 27 (18662400)
I0403 14:30:38.651453 17062 net.cpp:156] Memory required for data: 662258800
I0403 14:30:38.651468 17062 layer_factory.hpp:77] Creating layer pool2
I0403 14:30:38.651486 17062 net.cpp:91] Creating Layer pool2
I0403 14:30:38.651501 17062 net.cpp:425] pool2 <- norm2
I0403 14:30:38.651521 17062 net.cpp:399] pool2 -> pool2
I0403 14:30:38.651574 17062 net.cpp:141] Setting up pool2
I0403 14:30:38.651597 17062 net.cpp:148] Top shape: 100 256 13 13 (4326400)
I0403 14:30:38.651612 17062 net.cpp:156] Memory required for data: 679564400
I0403 14:30:38.651626 17062 layer_factory.hpp:77] Creating layer conv3
I0403 14:30:38.651651 17062 net.cpp:91] Creating Layer conv3
I0403 14:30:38.651669 17062 net.cpp:425] conv3 <- pool2
I0403 14:30:38.651686 17062 net.cpp:399] conv3 -> conv3
I0403 14:30:38.690579 17062 net.cpp:141] Setting up conv3
I0403 14:30:38.690666 17062 net.cpp:148] Top shape: 100 384 13 13 (6489600)
I0403 14:30:38.690685 17062 net.cpp:156] Memory required for data: 705522800
I0403 14:30:38.690709 17062 layer_factory.hpp:77] Creating layer relu3
I0403 14:30:38.690732 17062 net.cpp:91] Creating Layer relu3
I0403 14:30:38.690750 17062 net.cpp:425] relu3 <- conv3
I0403 14:30:38.690773 17062 net.cpp:386] relu3 -> conv3 (in-place)
I0403 14:30:38.691058 17062 net.cpp:141] Setting up relu3
I0403 14:30:38.691085 17062 net.cpp:148] Top shape: 100 384 13 13 (6489600)
I0403 14:30:38.691100 17062 net.cpp:156] Memory required for data: 731481200
I0403 14:30:38.691117 17062 layer_factory.hpp:77] Creating layer conv4
I0403 14:30:38.691143 17062 net.cpp:91] Creating Layer conv4
I0403 14:30:38.691164 17062 net.cpp:425] conv4 <- conv3
I0403 14:30:38.691185 17062 net.cpp:399] conv4 -> conv4
I0403 14:30:38.721768 17062 net.cpp:141] Setting up conv4
I0403 14:30:38.721853 17062 net.cpp:148] Top shape: 100 384 13 13 (6489600)
I0403 14:30:38.721902 17062 net.cpp:156] Memory required for data: 757439600
I0403 14:30:38.721925 17062 layer_factory.hpp:77] Creating layer relu4
I0403 14:30:38.721947 17062 net.cpp:91] Creating Layer relu4
I0403 14:30:38.721964 17062 net.cpp:425] relu4 <- conv4
I0403 14:30:38.721992 17062 net.cpp:386] relu4 -> conv4 (in-place)
I0403 14:30:38.722311 17062 net.cpp:141] Setting up relu4
I0403 14:30:38.722342 17062 net.cpp:148] Top shape: 100 384 13 13 (6489600)
I0403 14:30:38.722358 17062 net.cpp:156] Memory required for data: 783398000
I0403 14:30:38.722373 17062 layer_factory.hpp:77] Creating layer conv5
I0403 14:30:38.722399 17062 net.cpp:91] Creating Layer conv5
I0403 14:30:38.722416 17062 net.cpp:425] conv5 <- conv4
I0403 14:30:38.722435 17062 net.cpp:399] conv5 -> conv5
I0403 14:30:38.743510 17062 net.cpp:141] Setting up conv5
I0403 14:30:38.743574 17062 net.cpp:148] Top shape: 100 256 13 13 (4326400)
I0403 14:30:38.743592 17062 net.cpp:156] Memory required for data: 800703600
I0403 14:30:38.743618 17062 layer_factory.hpp:77] Creating layer relu5
I0403 14:30:38.743638 17062 net.cpp:91] Creating Layer relu5
I0403 14:30:38.743656 17062 net.cpp:425] relu5 <- conv5
I0403 14:30:38.743677 17062 net.cpp:386] relu5 -> conv5 (in-place)
I0403 14:30:38.743968 17062 net.cpp:141] Setting up relu5
I0403 14:30:38.744002 17062 net.cpp:148] Top shape: 100 256 13 13 (4326400)
I0403 14:30:38.744019 17062 net.cpp:156] Memory required for data: 818009200
I0403 14:30:38.744034 17062 layer_factory.hpp:77] Creating layer pool5
I0403 14:30:38.744058 17062 net.cpp:91] Creating Layer pool5
I0403 14:30:38.744076 17062 net.cpp:425] pool5 <- conv5
I0403 14:30:38.744096 17062 net.cpp:399] pool5 -> pool5
I0403 14:30:38.744207 17062 net.cpp:141] Setting up pool5
I0403 14:30:38.744232 17062 net.cpp:148] Top shape: 100 256 6 6 (921600)
I0403 14:30:38.744247 17062 net.cpp:156] Memory required for data: 821695600
I0403 14:30:38.744262 17062 layer_factory.hpp:77] Creating layer fc6
I0403 14:30:38.744292 17062 net.cpp:91] Creating Layer fc6
I0403 14:30:38.744309 17062 net.cpp:425] fc6 <- pool5
I0403 14:30:38.744331 17062 net.cpp:399] fc6 -> fc6
I0403 14:30:40.314548 17062 net.cpp:141] Setting up fc6
I0403 14:30:40.314637 17062 net.cpp:148] Top shape: 100 4096 (409600)
I0403 14:30:40.314652 17062 net.cpp:156] Memory required for data: 823334000
I0403 14:30:40.314673 17062 layer_factory.hpp:77] Creating layer relu6
I0403 14:30:40.314698 17062 net.cpp:91] Creating Layer relu6
I0403 14:30:40.314716 17062 net.cpp:425] relu6 <- fc6
I0403 14:30:40.314743 17062 net.cpp:386] relu6 -> fc6 (in-place)
I0403 14:30:40.314960 17062 net.cpp:141] Setting up relu6
I0403 14:30:40.314991 17062 net.cpp:148] Top shape: 100 4096 (409600)
I0403 14:30:40.315007 17062 net.cpp:156] Memory required for data: 824972400
I0403 14:30:40.315022 17062 layer_factory.hpp:77] Creating layer drop6
I0403 14:30:40.315049 17062 net.cpp:91] Creating Layer drop6
I0403 14:30:40.315064 17062 net.cpp:425] drop6 <- fc6
I0403 14:30:40.315083 17062 net.cpp:386] drop6 -> fc6 (in-place)
I0403 14:30:40.315135 17062 net.cpp:141] Setting up drop6
I0403 14:30:40.315160 17062 net.cpp:148] Top shape: 100 4096 (409600)
I0403 14:30:40.315176 17062 net.cpp:156] Memory required for data: 826610800
I0403 14:30:40.315189 17062 layer_factory.hpp:77] Creating layer fc7
I0403 14:30:40.315210 17062 net.cpp:91] Creating Layer fc7
I0403 14:30:40.315225 17062 net.cpp:425] fc7 <- fc6
I0403 14:30:40.315244 17062 net.cpp:399] fc7 -> fc7
I0403 14:30:40.999116 17062 net.cpp:141] Setting up fc7
I0403 14:30:40.999204 17062 net.cpp:148] Top shape: 100 4096 (409600)
I0403 14:30:40.999219 17062 net.cpp:156] Memory required for data: 828249200
I0403 14:30:40.999239 17062 layer_factory.hpp:77] Creating layer relu7
I0403 14:30:40.999261 17062 net.cpp:91] Creating Layer relu7
I0403 14:30:40.999279 17062 net.cpp:425] relu7 <- fc7
I0403 14:30:40.999300 17062 net.cpp:386] relu7 -> fc7 (in-place)
I0403 14:30:40.999706 17062 net.cpp:141] Setting up relu7
I0403 14:30:40.999733 17062 net.cpp:148] Top shape: 100 4096 (409600)
I0403 14:30:40.999781 17062 net.cpp:156] Memory required for data: 829887600
I0403 14:30:40.999797 17062 layer_factory.hpp:77] Creating layer drop7
I0403 14:30:40.999816 17062 net.cpp:91] Creating Layer drop7
I0403 14:30:40.999831 17062 net.cpp:425] drop7 <- fc7
I0403 14:30:40.999850 17062 net.cpp:386] drop7 -> fc7 (in-place)
I0403 14:30:40.999896 17062 net.cpp:141] Setting up drop7
I0403 14:30:40.999917 17062 net.cpp:148] Top shape: 100 4096 (409600)
I0403 14:30:40.999932 17062 net.cpp:156] Memory required for data: 831526000
I0403 14:30:40.999945 17062 layer_factory.hpp:77] Creating layer fc8_plantvillage
I0403 14:30:40.999968 17062 net.cpp:91] Creating Layer fc8_plantvillage
I0403 14:30:40.999984 17062 net.cpp:425] fc8_plantvillage <- fc7
I0403 14:30:41.000011 17062 net.cpp:399] fc8_plantvillage -> fc8_plantvillage
I0403 14:30:41.006727 17062 net.cpp:141] Setting up fc8_plantvillage
I0403 14:30:41.006754 17062 net.cpp:148] Top shape: 100 38 (3800)
I0403 14:30:41.006769 17062 net.cpp:156] Memory required for data: 831541200
I0403 14:30:41.006788 17062 layer_factory.hpp:77] Creating layer fc8_plantvillage_fc8_plantvillage_0_split
I0403 14:30:41.006805 17062 net.cpp:91] Creating Layer fc8_plantvillage_fc8_plantvillage_0_split
I0403 14:30:41.006820 17062 net.cpp:425] fc8_plantvillage_fc8_plantvillage_0_split <- fc8_plantvillage
I0403 14:30:41.006840 17062 net.cpp:399] fc8_plantvillage_fc8_plantvillage_0_split -> fc8_plantvillage_fc8_plantvillage_0_split_0
I0403 14:30:41.006860 17062 net.cpp:399] fc8_plantvillage_fc8_plantvillage_0_split -> fc8_plantvillage_fc8_plantvillage_0_split_1
I0403 14:30:41.006880 17062 net.cpp:399] fc8_plantvillage_fc8_plantvillage_0_split -> fc8_plantvillage_fc8_plantvillage_0_split_2
I0403 14:30:41.006956 17062 net.cpp:141] Setting up fc8_plantvillage_fc8_plantvillage_0_split
I0403 14:30:41.006979 17062 net.cpp:148] Top shape: 100 38 (3800)
I0403 14:30:41.007004 17062 net.cpp:148] Top shape: 100 38 (3800)
I0403 14:30:41.007019 17062 net.cpp:148] Top shape: 100 38 (3800)
I0403 14:30:41.007031 17062 net.cpp:156] Memory required for data: 831586800
I0403 14:30:41.007046 17062 layer_factory.hpp:77] Creating layer prob
I0403 14:30:41.007064 17062 net.cpp:91] Creating Layer prob
I0403 14:30:41.007081 17062 net.cpp:425] prob <- fc8_plantvillage_fc8_plantvillage_0_split_0
I0403 14:30:41.007100 17062 net.cpp:399] prob -> prob
I0403 14:30:41.007323 17062 net.cpp:141] Setting up prob
I0403 14:30:41.007351 17062 net.cpp:148] Top shape: 100 38 (3800)
I0403 14:30:41.007366 17062 net.cpp:156] Memory required for data: 831602000
I0403 14:30:41.007381 17062 layer_factory.hpp:77] Creating layer hdf5out
I0403 14:30:41.007400 17062 net.cpp:91] Creating Layer hdf5out
I0403 14:30:41.007416 17062 net.cpp:425] hdf5out <- prob
I0403 14:30:41.007431 17062 net.cpp:425] hdf5out <- label_data_1_split_0
I0403 14:30:41.009706 17062 net.cpp:141] Setting up hdf5out
…
