…
I0403 14:43:36.306710 17434 net.cpp:313] The NetState phase (1) differed from the phase (0) specified by a rule in layer data
I0403 14:43:36.307055 17434 net.cpp:49] Initializing net from parameters: 
state {
  phase: TEST
}
layer {
  name: "data"
  type: "Data"
  top: "data"
  top: "label"
  include {
    phase: TEST
  }
  transform_param {
    crop_size: 227
    mean_file: "/home/mohanty/data/final_dataset/lmdb/segmented-60-40/mean.binaryproto"
  }
  data_param {
    source: "/home/mohanty/data/final_dataset/lmdb/segmented-60-40/test_db"
    batch_size: 100
    backend: LMDB
  }
}
layer {
  name: "conv1"
  type: "Convolution"
  bottom: "data"
  top: "conv1"
  param {
    lr_mult: 1
    decay_mult: 1
  }
  param {
    lr_mult: 2
    decay_mult: 0
  }
  convolution_param {
    num_output: 96
    kernel_size: 11
    stride: 4
    weight_filler {
      type: "gaussian"
      std: 0.01
    }
    bias_filler {
      type: "constant"
      value: 0
    }
  }
}
layer {
  name: "relu1"
  type: "ReLU"
  bottom: "conv1"
  top: "conv1"
}
layer {
  name: "norm1"
  type: "LRN"
  bottom: "conv1"
  top: "norm1"
  lrn_param {
    local_size: 5
    alpha: 0.0001
    beta: 0.75
  }
}
layer {
  name: "pool1"
  type: "Pooling"
  bottom: "norm1"
  top: "pool1"
  pooling_param {
    pool: MAX
    kernel_size: 3
    stride: 2
  }
}
layer {
  name: "conv2"
  type: "Convolution"
  bottom: "pool1"
  top: "conv2"
  param {
    lr_mult: 1
    decay_mult: 1
  }
  param {
    lr_mult: 2
    decay_mult: 0
  }
  convolution_param {
    num_output: 256
    pad: 2
    kernel_size: 5
    group: 2
    weight_filler {
      type: "gaussian"
      std: 0.01
    }
    bias_filler {
      type: "constant"
      value: 0.1
    }
  }
}
layer {
  name: "relu2"
  type: "ReLU"
  bottom: "conv2"
  top: "conv2"
}
layer {
  name: "norm2"
  type: "LRN"
  bottom: "conv2"
  top: "norm2"
  lrn_param {
    local_size: 5
    alpha: 0.0001
    beta: 0.75
  }
}
layer {
  name: "pool2"
  type: "Pooling"
  bottom: "norm2"
  top: "pool2"
  pooling_param {
    pool: MAX
    kernel_size: 3
    stride: 2
  }
}
layer {
  name: "conv3"
  type: "Convolution"
  bottom: "pool2"
  top: "conv3"
  param {
    lr_mult: 1
    decay_mult: 1
  }
  param {
    lr_mult: 2
    decay_mult: 0
  }
  convolution_param {
    num_output: 384
    pad: 1
    kernel_size: 3
    weight_filler {
      type: "gaussian"
      std: 0.01
    }
    bias_filler {
      type: "constant"
      value: 0
    }
  }
}
layer {
  name: "relu3"
  type: "ReLU"
  bottom: "conv3"
  top: "conv3"
}
layer {
  name: "conv4"
  type: "Convolution"
  bottom: "conv3"
  top: "conv4"
  param {
    lr_mult: 1
    decay_mult: 1
  }
  param {
    lr_mult: 2
    decay_mult: 0
  }
  convolution_param {
    num_output: 384
    pad: 1
    kernel_size: 3
    group: 2
    weight_filler {
      type: "gaussian"
      std: 0.01
    }
    bias_filler {
      type: "constant"
      value: 0.1
    }
  }
}
layer {
  name: "relu4"
  type: "ReLU"
  bottom: "conv4"
  top: "conv4"
}
layer {
  name: "conv5"
  type: "Convolution"
  bottom: "conv4"
  top: "conv5"
  param {
    lr_mult: 1
    decay_mult: 1
  }
  param {
    lr_mult: 2
    decay_mult: 0
  }
  convolution_param {
    num_output: 256
    pad: 1
    kernel_size: 3
    group: 2
    weight_filler {
      type: "gaussian"
      std: 0.01
    }
    bias_filler {
      type: "constant"
      value: 0.1
    }
  }
}
layer {
  name: "relu5"
  type: "ReLU"
  bottom: "conv5"
  top: "conv5"
}
layer {
  name: "pool5"
  type: "Pooling"
  bottom: "conv5"
  top: "pool5"
  pooling_param {
    pool: MAX
    kernel_size: 3
    stride: 2
  }
}
layer {
  name: "fc6"
  type: "InnerProduct"
  bottom: "pool5"
  top: "fc6"
  param {
    lr_mult: 1
    decay_mult: 1
  }
  param {
    lr_mult: 2
    decay_mult: 0
  }
  inner_product_param {
    num_output: 4096
    weight_filler {
      type: "gaussian"
      std: 0.005
    }
    bias_filler {
      type: "constant"
      value: 0.1
    }
  }
}
layer {
  name: "relu6"
  type: "ReLU"
  bottom: "fc6"
  top: "fc6"
}
layer {
  name: "drop6"
  type: "Dropout"
  bottom: "fc6"
  top: "fc6"
  dropout_param {
    dropout_ratio: 0.5
  }
}
layer {
  name: "fc7"
  type: "InnerProduct"
  bottom: "fc6"
  top: "fc7"
  param {
    lr_mult: 1
    decay_mult: 1
  }
  param {
    lr_mult: 2
    decay_mult: 0
  }
  inner_product_param {
    num_output: 4096
    weight_filler {
      type: "gaussian"
      std: 0.005
    }
    bias_filler {
      type: "constant"
      value: 0.1
    }
  }
}
layer {
  name: "relu7"
  type: "ReLU"
  bottom: "fc7"
  top: "fc7"
}
layer {
  name: "drop7"
  type: "Dropout"
  bottom: "fc7"
  top: "fc7"
  dropout_param {
    dropout_ratio: 0.5
  }
}
layer {
  name: "fc8_plantvillage"
  type: "InnerProduct"
  bottom: "fc7"
  top: "fc8_plantvillage"
  param {
    lr_mult: 1
    decay_mult: 1
  }
  param {
    lr_mult: 2
    decay_mult: 0
  }
  inner_product_param {
    num_output: 38
    weight_filler {
      type: "gaussian"
      std: 0.01
    }
    bias_filler {
      type: "constant"
      value: 0
    }
  }
}
layer {
  name: "prob"
  type: "Softmax"
  bottom: "fc8_plantvillage"
  top: "prob"
  include {
    phase: TEST
  }
}
layer {
  name: "hdf5out"
  type: "HDF5Output"
  bottom: "prob"
  bottom: "label"
  include {
    phase: TEST
  }
  hdf5_output_param {
    file_name: "hdf5_dumps/iter_8125.h5"
  }
}
layer {
  name: "loss"
  type: "SoftmaxWithLoss"
  bottom: "fc8_plantvillage"
  bottom: "label"
  top: "loss"
}
layer {
  name: "accuracy"
  type: "Accuracy"
  bottom: "fc8_plantvillage"
  bottom: "label"
  top: "accuracy"
  include {
    phase: TEST
  }
}
I0403 14:43:36.307631 17434 layer_factory.hpp:77] Creating layer data
I0403 14:43:36.308310 17434 net.cpp:91] Creating Layer data
I0403 14:43:36.308339 17434 net.cpp:399] data -> data
I0403 14:43:36.308392 17434 net.cpp:399] data -> label
I0403 14:43:36.308430 17434 data_transformer.cpp:25] Loading mean file from: /home/mohanty/data/final_dataset/lmdb/segmented-60-40/mean.binaryproto
I0403 14:43:36.309561 17438 db_lmdb.cpp:38] Opened lmdb /home/mohanty/data/final_dataset/lmdb/segmented-60-40/test_db
I0403 14:43:36.322885 17434 data_layer.cpp:41] output data size: 100,3,227,227
I0403 14:43:36.458302 17434 net.cpp:141] Setting up data
I0403 14:43:36.458374 17434 net.cpp:148] Top shape: 100 3 227 227 (15458700)
I0403 14:43:36.458398 17434 net.cpp:148] Top shape: 100 (100)
I0403 14:43:36.458415 17434 net.cpp:156] Memory required for data: 61835200
I0403 14:43:36.458442 17434 layer_factory.hpp:77] Creating layer label_data_1_split
I0403 14:43:36.458469 17434 net.cpp:91] Creating Layer label_data_1_split
I0403 14:43:36.458489 17434 net.cpp:425] label_data_1_split <- label
I0403 14:43:36.458523 17434 net.cpp:399] label_data_1_split -> label_data_1_split_0
I0403 14:43:36.458554 17434 net.cpp:399] label_data_1_split -> label_data_1_split_1
I0403 14:43:36.458575 17434 net.cpp:399] label_data_1_split -> label_data_1_split_2
I0403 14:43:36.458643 17434 net.cpp:141] Setting up label_data_1_split
I0403 14:43:36.458667 17434 net.cpp:148] Top shape: 100 (100)
I0403 14:43:36.458684 17434 net.cpp:148] Top shape: 100 (100)
I0403 14:43:36.458700 17434 net.cpp:148] Top shape: 100 (100)
I0403 14:43:36.458715 17434 net.cpp:156] Memory required for data: 61836400
I0403 14:43:36.458730 17434 layer_factory.hpp:77] Creating layer conv1
I0403 14:43:36.458763 17434 net.cpp:91] Creating Layer conv1
I0403 14:43:36.458782 17434 net.cpp:425] conv1 <- data
I0403 14:43:36.458801 17434 net.cpp:399] conv1 -> conv1
I0403 14:43:36.604760 17434 net.cpp:141] Setting up conv1
I0403 14:43:36.604804 17434 net.cpp:148] Top shape: 100 96 55 55 (29040000)
I0403 14:43:36.604821 17434 net.cpp:156] Memory required for data: 177996400
I0403 14:43:36.604854 17434 layer_factory.hpp:77] Creating layer relu1
I0403 14:43:36.604883 17434 net.cpp:91] Creating Layer relu1
I0403 14:43:36.604903 17434 net.cpp:425] relu1 <- conv1
I0403 14:43:36.604923 17434 net.cpp:386] relu1 -> conv1 (in-place)
I0403 14:43:36.605197 17434 net.cpp:141] Setting up relu1
I0403 14:43:36.605226 17434 net.cpp:148] Top shape: 100 96 55 55 (29040000)
I0403 14:43:36.605465 17434 net.cpp:156] Memory required for data: 294156400
I0403 14:43:36.605484 17434 layer_factory.hpp:77] Creating layer norm1
I0403 14:43:36.605512 17434 net.cpp:91] Creating Layer norm1
I0403 14:43:36.605531 17434 net.cpp:425] norm1 <- conv1
I0403 14:43:36.605551 17434 net.cpp:399] norm1 -> norm1
I0403 14:43:36.605880 17434 net.cpp:141] Setting up norm1
I0403 14:43:36.605907 17434 net.cpp:148] Top shape: 100 96 55 55 (29040000)
I0403 14:43:36.605923 17434 net.cpp:156] Memory required for data: 410316400
I0403 14:43:36.605938 17434 layer_factory.hpp:77] Creating layer pool1
I0403 14:43:36.605964 17434 net.cpp:91] Creating Layer pool1
I0403 14:43:36.605983 17434 net.cpp:425] pool1 <- norm1
I0403 14:43:36.606003 17434 net.cpp:399] pool1 -> pool1
I0403 14:43:36.606072 17434 net.cpp:141] Setting up pool1
I0403 14:43:36.606097 17434 net.cpp:148] Top shape: 100 96 27 27 (6998400)
I0403 14:43:36.606112 17434 net.cpp:156] Memory required for data: 438310000
I0403 14:43:36.606127 17434 layer_factory.hpp:77] Creating layer conv2
I0403 14:43:36.606154 17434 net.cpp:91] Creating Layer conv2
I0403 14:43:36.606171 17434 net.cpp:425] conv2 <- pool1
I0403 14:43:36.606191 17434 net.cpp:399] conv2 -> conv2
I0403 14:43:36.621834 17434 net.cpp:141] Setting up conv2
I0403 14:43:36.621892 17434 net.cpp:148] Top shape: 100 256 27 27 (18662400)
I0403 14:43:36.621908 17434 net.cpp:156] Memory required for data: 512959600
I0403 14:43:36.621932 17434 layer_factory.hpp:77] Creating layer relu2
I0403 14:43:36.621959 17434 net.cpp:91] Creating Layer relu2
I0403 14:43:36.621979 17434 net.cpp:425] relu2 <- conv2
I0403 14:43:36.621999 17434 net.cpp:386] relu2 -> conv2 (in-place)
I0403 14:43:36.622308 17434 net.cpp:141] Setting up relu2
I0403 14:43:36.622334 17434 net.cpp:148] Top shape: 100 256 27 27 (18662400)
I0403 14:43:36.622350 17434 net.cpp:156] Memory required for data: 587609200
I0403 14:43:36.622365 17434 layer_factory.hpp:77] Creating layer norm2
I0403 14:43:36.622390 17434 net.cpp:91] Creating Layer norm2
I0403 14:43:36.622406 17434 net.cpp:425] norm2 <- conv2
I0403 14:43:36.622426 17434 net.cpp:399] norm2 -> norm2
I0403 14:43:36.622629 17434 net.cpp:141] Setting up norm2
I0403 14:43:36.622655 17434 net.cpp:148] Top shape: 100 256 27 27 (18662400)
I0403 14:43:36.622670 17434 net.cpp:156] Memory required for data: 662258800
I0403 14:43:36.622685 17434 layer_factory.hpp:77] Creating layer pool2
I0403 14:43:36.622705 17434 net.cpp:91] Creating Layer pool2
I0403 14:43:36.622722 17434 net.cpp:425] pool2 <- norm2
I0403 14:43:36.622740 17434 net.cpp:399] pool2 -> pool2
I0403 14:43:36.622794 17434 net.cpp:141] Setting up pool2
I0403 14:43:36.622818 17434 net.cpp:148] Top shape: 100 256 13 13 (4326400)
I0403 14:43:36.622833 17434 net.cpp:156] Memory required for data: 679564400
I0403 14:43:36.622848 17434 layer_factory.hpp:77] Creating layer conv3
I0403 14:43:36.622870 17434 net.cpp:91] Creating Layer conv3
I0403 14:43:36.622887 17434 net.cpp:425] conv3 <- pool2
I0403 14:43:36.622908 17434 net.cpp:399] conv3 -> conv3
I0403 14:43:36.662842 17434 net.cpp:141] Setting up conv3
I0403 14:43:36.662927 17434 net.cpp:148] Top shape: 100 384 13 13 (6489600)
I0403 14:43:36.662945 17434 net.cpp:156] Memory required for data: 705522800
I0403 14:43:36.662977 17434 layer_factory.hpp:77] Creating layer relu3
I0403 14:43:36.663007 17434 net.cpp:91] Creating Layer relu3
I0403 14:43:36.663025 17434 net.cpp:425] relu3 <- conv3
I0403 14:43:36.663046 17434 net.cpp:386] relu3 -> conv3 (in-place)
I0403 14:43:36.663337 17434 net.cpp:141] Setting up relu3
I0403 14:43:36.663365 17434 net.cpp:148] Top shape: 100 384 13 13 (6489600)
I0403 14:43:36.663381 17434 net.cpp:156] Memory required for data: 731481200
I0403 14:43:36.663396 17434 layer_factory.hpp:77] Creating layer conv4
I0403 14:43:36.663422 17434 net.cpp:91] Creating Layer conv4
I0403 14:43:36.663440 17434 net.cpp:425] conv4 <- conv3
I0403 14:43:36.663462 17434 net.cpp:399] conv4 -> conv4
I0403 14:43:36.694834 17434 net.cpp:141] Setting up conv4
I0403 14:43:36.694911 17434 net.cpp:148] Top shape: 100 384 13 13 (6489600)
I0403 14:43:36.694968 17434 net.cpp:156] Memory required for data: 757439600
I0403 14:43:36.694993 17434 layer_factory.hpp:77] Creating layer relu4
I0403 14:43:36.695014 17434 net.cpp:91] Creating Layer relu4
I0403 14:43:36.695032 17434 net.cpp:425] relu4 <- conv4
I0403 14:43:36.695055 17434 net.cpp:386] relu4 -> conv4 (in-place)
I0403 14:43:36.695355 17434 net.cpp:141] Setting up relu4
I0403 14:43:36.695384 17434 net.cpp:148] Top shape: 100 384 13 13 (6489600)
I0403 14:43:36.695399 17434 net.cpp:156] Memory required for data: 783398000
I0403 14:43:36.695415 17434 layer_factory.hpp:77] Creating layer conv5
I0403 14:43:36.695442 17434 net.cpp:91] Creating Layer conv5
I0403 14:43:36.695461 17434 net.cpp:425] conv5 <- conv4
I0403 14:43:36.695483 17434 net.cpp:399] conv5 -> conv5
I0403 14:43:36.717198 17434 net.cpp:141] Setting up conv5
I0403 14:43:36.717264 17434 net.cpp:148] Top shape: 100 256 13 13 (4326400)
I0403 14:43:36.717283 17434 net.cpp:156] Memory required for data: 800703600
I0403 14:43:36.717310 17434 layer_factory.hpp:77] Creating layer relu5
I0403 14:43:36.717335 17434 net.cpp:91] Creating Layer relu5
I0403 14:43:36.717353 17434 net.cpp:425] relu5 <- conv5
I0403 14:43:36.717373 17434 net.cpp:386] relu5 -> conv5 (in-place)
I0403 14:43:36.717666 17434 net.cpp:141] Setting up relu5
I0403 14:43:36.717695 17434 net.cpp:148] Top shape: 100 256 13 13 (4326400)
I0403 14:43:36.717712 17434 net.cpp:156] Memory required for data: 818009200
I0403 14:43:36.717728 17434 layer_factory.hpp:77] Creating layer pool5
I0403 14:43:36.717753 17434 net.cpp:91] Creating Layer pool5
I0403 14:43:36.717772 17434 net.cpp:425] pool5 <- conv5
I0403 14:43:36.717792 17434 net.cpp:399] pool5 -> pool5
I0403 14:43:36.717855 17434 net.cpp:141] Setting up pool5
I0403 14:43:36.717882 17434 net.cpp:148] Top shape: 100 256 6 6 (921600)
I0403 14:43:36.717898 17434 net.cpp:156] Memory required for data: 821695600
I0403 14:43:36.717913 17434 layer_factory.hpp:77] Creating layer fc6
I0403 14:43:36.717943 17434 net.cpp:91] Creating Layer fc6
I0403 14:43:36.717977 17434 net.cpp:425] fc6 <- pool5
I0403 14:43:36.717998 17434 net.cpp:399] fc6 -> fc6
I0403 14:43:38.319730 17434 net.cpp:141] Setting up fc6
I0403 14:43:38.319810 17434 net.cpp:148] Top shape: 100 4096 (409600)
I0403 14:43:38.319828 17434 net.cpp:156] Memory required for data: 823334000
I0403 14:43:38.319847 17434 layer_factory.hpp:77] Creating layer relu6
I0403 14:43:38.319869 17434 net.cpp:91] Creating Layer relu6
I0403 14:43:38.319885 17434 net.cpp:425] relu6 <- fc6
I0403 14:43:38.319906 17434 net.cpp:386] relu6 -> fc6 (in-place)
I0403 14:43:38.320142 17434 net.cpp:141] Setting up relu6
I0403 14:43:38.320165 17434 net.cpp:148] Top shape: 100 4096 (409600)
I0403 14:43:38.320180 17434 net.cpp:156] Memory required for data: 824972400
I0403 14:43:38.320194 17434 layer_factory.hpp:77] Creating layer drop6
I0403 14:43:38.320214 17434 net.cpp:91] Creating Layer drop6
I0403 14:43:38.320230 17434 net.cpp:425] drop6 <- fc6
I0403 14:43:38.320246 17434 net.cpp:386] drop6 -> fc6 (in-place)
I0403 14:43:38.320296 17434 net.cpp:141] Setting up drop6
I0403 14:43:38.320320 17434 net.cpp:148] Top shape: 100 4096 (409600)
I0403 14:43:38.320335 17434 net.cpp:156] Memory required for data: 826610800
I0403 14:43:38.320350 17434 layer_factory.hpp:77] Creating layer fc7
I0403 14:43:38.320369 17434 net.cpp:91] Creating Layer fc7
I0403 14:43:38.320384 17434 net.cpp:425] fc7 <- fc6
I0403 14:43:38.320418 17434 net.cpp:399] fc7 -> fc7
I0403 14:43:39.012060 17434 net.cpp:141] Setting up fc7
I0403 14:43:39.012105 17434 net.cpp:148] Top shape: 100 4096 (409600)
I0403 14:43:39.012121 17434 net.cpp:156] Memory required for data: 828249200
I0403 14:43:39.012142 17434 layer_factory.hpp:77] Creating layer relu7
I0403 14:43:39.012163 17434 net.cpp:91] Creating Layer relu7
I0403 14:43:39.012181 17434 net.cpp:425] relu7 <- fc7
I0403 14:43:39.012202 17434 net.cpp:386] relu7 -> fc7 (in-place)
I0403 14:43:39.012637 17434 net.cpp:141] Setting up relu7
I0403 14:43:39.012662 17434 net.cpp:148] Top shape: 100 4096 (409600)
I0403 14:43:39.012706 17434 net.cpp:156] Memory required for data: 829887600
I0403 14:43:39.012722 17434 layer_factory.hpp:77] Creating layer drop7
I0403 14:43:39.012740 17434 net.cpp:91] Creating Layer drop7
I0403 14:43:39.012755 17434 net.cpp:425] drop7 <- fc7
I0403 14:43:39.012773 17434 net.cpp:386] drop7 -> fc7 (in-place)
I0403 14:43:39.012819 17434 net.cpp:141] Setting up drop7
I0403 14:43:39.012840 17434 net.cpp:148] Top shape: 100 4096 (409600)
I0403 14:43:39.012855 17434 net.cpp:156] Memory required for data: 831526000
I0403 14:43:39.012869 17434 layer_factory.hpp:77] Creating layer fc8_plantvillage
I0403 14:43:39.012888 17434 net.cpp:91] Creating Layer fc8_plantvillage
I0403 14:43:39.012903 17434 net.cpp:425] fc8_plantvillage <- fc7
I0403 14:43:39.012925 17434 net.cpp:399] fc8_plantvillage -> fc8_plantvillage
I0403 14:43:39.019660 17434 net.cpp:141] Setting up fc8_plantvillage
I0403 14:43:39.019688 17434 net.cpp:148] Top shape: 100 38 (3800)
I0403 14:43:39.019703 17434 net.cpp:156] Memory required for data: 831541200
I0403 14:43:39.019721 17434 layer_factory.hpp:77] Creating layer fc8_plantvillage_fc8_plantvillage_0_split
I0403 14:43:39.019742 17434 net.cpp:91] Creating Layer fc8_plantvillage_fc8_plantvillage_0_split
I0403 14:43:39.019757 17434 net.cpp:425] fc8_plantvillage_fc8_plantvillage_0_split <- fc8_plantvillage
I0403 14:43:39.019774 17434 net.cpp:399] fc8_plantvillage_fc8_plantvillage_0_split -> fc8_plantvillage_fc8_plantvillage_0_split_0
I0403 14:43:39.019793 17434 net.cpp:399] fc8_plantvillage_fc8_plantvillage_0_split -> fc8_plantvillage_fc8_plantvillage_0_split_1
I0403 14:43:39.019814 17434 net.cpp:399] fc8_plantvillage_fc8_plantvillage_0_split -> fc8_plantvillage_fc8_plantvillage_0_split_2
I0403 14:43:39.019889 17434 net.cpp:141] Setting up fc8_plantvillage_fc8_plantvillage_0_split
I0403 14:43:39.019912 17434 net.cpp:148] Top shape: 100 38 (3800)
I0403 14:43:39.019928 17434 net.cpp:148] Top shape: 100 38 (3800)
I0403 14:43:39.019943 17434 net.cpp:148] Top shape: 100 38 (3800)
I0403 14:43:39.019963 17434 net.cpp:156] Memory required for data: 831586800
I0403 14:43:39.019979 17434 layer_factory.hpp:77] Creating layer prob
I0403 14:43:39.019996 17434 net.cpp:91] Creating Layer prob
I0403 14:43:39.020011 17434 net.cpp:425] prob <- fc8_plantvillage_fc8_plantvillage_0_split_0
I0403 14:43:39.020028 17434 net.cpp:399] prob -> prob
I0403 14:43:39.020247 17434 net.cpp:141] Setting up prob
I0403 14:43:39.020272 17434 net.cpp:148] Top shape: 100 38 (3800)
I0403 14:43:39.020287 17434 net.cpp:156] Memory required for data: 831602000
I0403 14:43:39.020300 17434 layer_factory.hpp:77] Creating layer hdf5out
I0403 14:43:39.020318 17434 net.cpp:91] Creating Layer hdf5out
I0403 14:43:39.020333 17434 net.cpp:425] hdf5out <- prob
I0403 14:43:39.020347 17434 net.cpp:425] hdf5out <- label_data_1_split_0
I0403 14:43:39.022672 17434 net.cpp:141] Setting up hdf5out
…
