…
I0403 14:27:45.527698 16977 net.cpp:313] The NetState phase (1) differed from the phase (0) specified by a rule in layer data
I0403 14:27:45.528033 16977 net.cpp:49] Initializing net from parameters: 
state {
  phase: TEST
}
layer {
  name: "data"
  type: "Data"
  top: "data"
  top: "label"
  include {
    phase: TEST
  }
  transform_param {
    crop_size: 227
    mean_file: "/home/mohanty/data/final_dataset/lmdb/segmented-60-40/mean.binaryproto"
  }
  data_param {
    source: "/home/mohanty/data/final_dataset/lmdb/segmented-60-40/test_db"
    batch_size: 100
    backend: LMDB
  }
}
layer {
  name: "conv1"
  type: "Convolution"
  bottom: "data"
  top: "conv1"
  param {
    lr_mult: 1
    decay_mult: 1
  }
  param {
    lr_mult: 2
    decay_mult: 0
  }
  convolution_param {
    num_output: 96
    kernel_size: 11
    stride: 4
    weight_filler {
      type: "gaussian"
      std: 0.01
    }
    bias_filler {
      type: "constant"
      value: 0
    }
  }
}
layer {
  name: "relu1"
  type: "ReLU"
  bottom: "conv1"
  top: "conv1"
}
layer {
  name: "norm1"
  type: "LRN"
  bottom: "conv1"
  top: "norm1"
  lrn_param {
    local_size: 5
    alpha: 0.0001
    beta: 0.75
  }
}
layer {
  name: "pool1"
  type: "Pooling"
  bottom: "norm1"
  top: "pool1"
  pooling_param {
    pool: MAX
    kernel_size: 3
    stride: 2
  }
}
layer {
  name: "conv2"
  type: "Convolution"
  bottom: "pool1"
  top: "conv2"
  param {
    lr_mult: 1
    decay_mult: 1
  }
  param {
    lr_mult: 2
    decay_mult: 0
  }
  convolution_param {
    num_output: 256
    pad: 2
    kernel_size: 5
    group: 2
    weight_filler {
      type: "gaussian"
      std: 0.01
    }
    bias_filler {
      type: "constant"
      value: 0.1
    }
  }
}
layer {
  name: "relu2"
  type: "ReLU"
  bottom: "conv2"
  top: "conv2"
}
layer {
  name: "norm2"
  type: "LRN"
  bottom: "conv2"
  top: "norm2"
  lrn_param {
    local_size: 5
    alpha: 0.0001
    beta: 0.75
  }
}
layer {
  name: "pool2"
  type: "Pooling"
  bottom: "norm2"
  top: "pool2"
  pooling_param {
    pool: MAX
    kernel_size: 3
    stride: 2
  }
}
layer {
  name: "conv3"
  type: "Convolution"
  bottom: "pool2"
  top: "conv3"
  param {
    lr_mult: 1
    decay_mult: 1
  }
  param {
    lr_mult: 2
    decay_mult: 0
  }
  convolution_param {
    num_output: 384
    pad: 1
    kernel_size: 3
    weight_filler {
      type: "gaussian"
      std: 0.01
    }
    bias_filler {
      type: "constant"
      value: 0
    }
  }
}
layer {
  name: "relu3"
  type: "ReLU"
  bottom: "conv3"
  top: "conv3"
}
layer {
  name: "conv4"
  type: "Convolution"
  bottom: "conv3"
  top: "conv4"
  param {
    lr_mult: 1
    decay_mult: 1
  }
  param {
    lr_mult: 2
    decay_mult: 0
  }
  convolution_param {
    num_output: 384
    pad: 1
    kernel_size: 3
    group: 2
    weight_filler {
      type: "gaussian"
      std: 0.01
    }
    bias_filler {
      type: "constant"
      value: 0.1
    }
  }
}
layer {
  name: "relu4"
  type: "ReLU"
  bottom: "conv4"
  top: "conv4"
}
layer {
  name: "conv5"
  type: "Convolution"
  bottom: "conv4"
  top: "conv5"
  param {
    lr_mult: 1
    decay_mult: 1
  }
  param {
    lr_mult: 2
    decay_mult: 0
  }
  convolution_param {
    num_output: 256
    pad: 1
    kernel_size: 3
    group: 2
    weight_filler {
      type: "gaussian"
      std: 0.01
    }
    bias_filler {
      type: "constant"
      value: 0.1
    }
  }
}
layer {
  name: "relu5"
  type: "ReLU"
  bottom: "conv5"
  top: "conv5"
}
layer {
  name: "pool5"
  type: "Pooling"
  bottom: "conv5"
  top: "pool5"
  pooling_param {
    pool: MAX
    kernel_size: 3
    stride: 2
  }
}
layer {
  name: "fc6"
  type: "InnerProduct"
  bottom: "pool5"
  top: "fc6"
  param {
    lr_mult: 1
    decay_mult: 1
  }
  param {
    lr_mult: 2
    decay_mult: 0
  }
  inner_product_param {
    num_output: 4096
    weight_filler {
      type: "gaussian"
      std: 0.005
    }
    bias_filler {
      type: "constant"
      value: 0.1
    }
  }
}
layer {
  name: "relu6"
  type: "ReLU"
  bottom: "fc6"
  top: "fc6"
}
layer {
  name: "drop6"
  type: "Dropout"
  bottom: "fc6"
  top: "fc6"
  dropout_param {
    dropout_ratio: 0.5
  }
}
layer {
  name: "fc7"
  type: "InnerProduct"
  bottom: "fc6"
  top: "fc7"
  param {
    lr_mult: 1
    decay_mult: 1
  }
  param {
    lr_mult: 2
    decay_mult: 0
  }
  inner_product_param {
    num_output: 4096
    weight_filler {
      type: "gaussian"
      std: 0.005
    }
    bias_filler {
      type: "constant"
      value: 0.1
    }
  }
}
layer {
  name: "relu7"
  type: "ReLU"
  bottom: "fc7"
  top: "fc7"
}
layer {
  name: "drop7"
  type: "Dropout"
  bottom: "fc7"
  top: "fc7"
  dropout_param {
    dropout_ratio: 0.5
  }
}
layer {
  name: "fc8_plantvillage"
  type: "InnerProduct"
  bottom: "fc7"
  top: "fc8_plantvillage"
  param {
    lr_mult: 1
    decay_mult: 1
  }
  param {
    lr_mult: 2
    decay_mult: 0
  }
  inner_product_param {
    num_output: 38
    weight_filler {
      type: "gaussian"
      std: 0.01
    }
    bias_filler {
      type: "constant"
      value: 0
    }
  }
}
layer {
  name: "prob"
  type: "Softmax"
  bottom: "fc8_plantvillage"
  top: "prob"
  include {
    phase: TEST
  }
}
layer {
  name: "hdf5out"
  type: "HDF5Output"
  bottom: "prob"
  bottom: "label"
  include {
    phase: TEST
  }
  hdf5_output_param {
    file_name: "hdf5_dumps/iter_975.h5"
  }
}
layer {
  name: "loss"
  type: "SoftmaxWithLoss"
  bottom: "fc8_plantvillage"
  bottom: "label"
  top: "loss"
}
layer {
  name: "accuracy"
  type: "Accuracy"
  bottom: "fc8_plantvillage"
  bottom: "label"
  top: "accuracy"
  include {
    phase: TEST
  }
}
I0403 14:27:45.528617 16977 layer_factory.hpp:77] Creating layer data
I0403 14:27:45.529263 16977 net.cpp:91] Creating Layer data
I0403 14:27:45.529294 16977 net.cpp:399] data -> data
I0403 14:27:45.529347 16977 net.cpp:399] data -> label
I0403 14:27:45.529383 16977 data_transformer.cpp:25] Loading mean file from: /home/mohanty/data/final_dataset/lmdb/segmented-60-40/mean.binaryproto
I0403 14:27:45.530561 16980 db_lmdb.cpp:38] Opened lmdb /home/mohanty/data/final_dataset/lmdb/segmented-60-40/test_db
I0403 14:27:45.543591 16977 data_layer.cpp:41] output data size: 100,3,227,227
I0403 14:27:45.676993 16977 net.cpp:141] Setting up data
I0403 14:27:45.677103 16977 net.cpp:148] Top shape: 100 3 227 227 (15458700)
I0403 14:27:45.677129 16977 net.cpp:148] Top shape: 100 (100)
I0403 14:27:45.677145 16977 net.cpp:156] Memory required for data: 61835200
I0403 14:27:45.677172 16977 layer_factory.hpp:77] Creating layer label_data_1_split
I0403 14:27:45.677198 16977 net.cpp:91] Creating Layer label_data_1_split
I0403 14:27:45.677217 16977 net.cpp:425] label_data_1_split <- label
I0403 14:27:45.677248 16977 net.cpp:399] label_data_1_split -> label_data_1_split_0
I0403 14:27:45.677275 16977 net.cpp:399] label_data_1_split -> label_data_1_split_1
I0403 14:27:45.677295 16977 net.cpp:399] label_data_1_split -> label_data_1_split_2
I0403 14:27:45.677358 16977 net.cpp:141] Setting up label_data_1_split
I0403 14:27:45.677382 16977 net.cpp:148] Top shape: 100 (100)
I0403 14:27:45.677399 16977 net.cpp:148] Top shape: 100 (100)
I0403 14:27:45.677414 16977 net.cpp:148] Top shape: 100 (100)
I0403 14:27:45.677429 16977 net.cpp:156] Memory required for data: 61836400
I0403 14:27:45.677443 16977 layer_factory.hpp:77] Creating layer conv1
I0403 14:27:45.677475 16977 net.cpp:91] Creating Layer conv1
I0403 14:27:45.677494 16977 net.cpp:425] conv1 <- data
I0403 14:27:45.677512 16977 net.cpp:399] conv1 -> conv1
I0403 14:27:45.820947 16977 net.cpp:141] Setting up conv1
I0403 14:27:45.821070 16977 net.cpp:148] Top shape: 100 96 55 55 (29040000)
I0403 14:27:45.821090 16977 net.cpp:156] Memory required for data: 177996400
I0403 14:27:45.821122 16977 layer_factory.hpp:77] Creating layer relu1
I0403 14:27:45.821151 16977 net.cpp:91] Creating Layer relu1
I0403 14:27:45.821168 16977 net.cpp:425] relu1 <- conv1
I0403 14:27:45.821187 16977 net.cpp:386] relu1 -> conv1 (in-place)
I0403 14:27:45.821450 16977 net.cpp:141] Setting up relu1
I0403 14:27:45.821478 16977 net.cpp:148] Top shape: 100 96 55 55 (29040000)
I0403 14:27:45.821524 16977 net.cpp:156] Memory required for data: 294156400
I0403 14:27:45.821542 16977 layer_factory.hpp:77] Creating layer norm1
I0403 14:27:45.821568 16977 net.cpp:91] Creating Layer norm1
I0403 14:27:45.821585 16977 net.cpp:425] norm1 <- conv1
I0403 14:27:45.821604 16977 net.cpp:399] norm1 -> norm1
I0403 14:27:45.821909 16977 net.cpp:141] Setting up norm1
I0403 14:27:45.821938 16977 net.cpp:148] Top shape: 100 96 55 55 (29040000)
I0403 14:27:45.821954 16977 net.cpp:156] Memory required for data: 410316400
I0403 14:27:45.821969 16977 layer_factory.hpp:77] Creating layer pool1
I0403 14:27:45.821995 16977 net.cpp:91] Creating Layer pool1
I0403 14:27:45.822013 16977 net.cpp:425] pool1 <- norm1
I0403 14:27:45.822031 16977 net.cpp:399] pool1 -> pool1
I0403 14:27:45.822098 16977 net.cpp:141] Setting up pool1
I0403 14:27:45.822123 16977 net.cpp:148] Top shape: 100 96 27 27 (6998400)
I0403 14:27:45.822137 16977 net.cpp:156] Memory required for data: 438310000
I0403 14:27:45.822152 16977 layer_factory.hpp:77] Creating layer conv2
I0403 14:27:45.822176 16977 net.cpp:91] Creating Layer conv2
I0403 14:27:45.822192 16977 net.cpp:425] conv2 <- pool1
I0403 14:27:45.822209 16977 net.cpp:399] conv2 -> conv2
I0403 14:27:45.837630 16977 net.cpp:141] Setting up conv2
I0403 14:27:45.837689 16977 net.cpp:148] Top shape: 100 256 27 27 (18662400)
I0403 14:27:45.837707 16977 net.cpp:156] Memory required for data: 512959600
I0403 14:27:45.837733 16977 layer_factory.hpp:77] Creating layer relu2
I0403 14:27:45.837755 16977 net.cpp:91] Creating Layer relu2
I0403 14:27:45.837774 16977 net.cpp:425] relu2 <- conv2
I0403 14:27:45.837793 16977 net.cpp:386] relu2 -> conv2 (in-place)
I0403 14:27:45.838099 16977 net.cpp:141] Setting up relu2
I0403 14:27:45.838129 16977 net.cpp:148] Top shape: 100 256 27 27 (18662400)
I0403 14:27:45.838145 16977 net.cpp:156] Memory required for data: 587609200
I0403 14:27:45.838160 16977 layer_factory.hpp:77] Creating layer norm2
I0403 14:27:45.838184 16977 net.cpp:91] Creating Layer norm2
I0403 14:27:45.838201 16977 net.cpp:425] norm2 <- conv2
I0403 14:27:45.838219 16977 net.cpp:399] norm2 -> norm2
I0403 14:27:45.838428 16977 net.cpp:141] Setting up norm2
I0403 14:27:45.838454 16977 net.cpp:148] Top shape: 100 256 27 27 (18662400)
I0403 14:27:45.838470 16977 net.cpp:156] Memory required for data: 662258800
I0403 14:27:45.838485 16977 layer_factory.hpp:77] Creating layer pool2
I0403 14:27:45.838506 16977 net.cpp:91] Creating Layer pool2
I0403 14:27:45.838522 16977 net.cpp:425] pool2 <- norm2
I0403 14:27:45.838541 16977 net.cpp:399] pool2 -> pool2
I0403 14:27:45.838593 16977 net.cpp:141] Setting up pool2
I0403 14:27:45.838618 16977 net.cpp:148] Top shape: 100 256 13 13 (4326400)
I0403 14:27:45.838632 16977 net.cpp:156] Memory required for data: 679564400
I0403 14:27:45.838646 16977 layer_factory.hpp:77] Creating layer conv3
I0403 14:27:45.838670 16977 net.cpp:91] Creating Layer conv3
I0403 14:27:45.838688 16977 net.cpp:425] conv3 <- pool2
I0403 14:27:45.838709 16977 net.cpp:399] conv3 -> conv3
I0403 14:27:45.877817 16977 net.cpp:141] Setting up conv3
I0403 14:27:45.877898 16977 net.cpp:148] Top shape: 100 384 13 13 (6489600)
I0403 14:27:45.877917 16977 net.cpp:156] Memory required for data: 705522800
I0403 14:27:45.877943 16977 layer_factory.hpp:77] Creating layer relu3
I0403 14:27:45.877967 16977 net.cpp:91] Creating Layer relu3
I0403 14:27:45.877993 16977 net.cpp:425] relu3 <- conv3
I0403 14:27:45.878017 16977 net.cpp:386] relu3 -> conv3 (in-place)
I0403 14:27:45.878301 16977 net.cpp:141] Setting up relu3
I0403 14:27:45.878331 16977 net.cpp:148] Top shape: 100 384 13 13 (6489600)
I0403 14:27:45.878347 16977 net.cpp:156] Memory required for data: 731481200
I0403 14:27:45.878363 16977 layer_factory.hpp:77] Creating layer conv4
I0403 14:27:45.878388 16977 net.cpp:91] Creating Layer conv4
I0403 14:27:45.878406 16977 net.cpp:425] conv4 <- conv3
I0403 14:27:45.878425 16977 net.cpp:399] conv4 -> conv4
I0403 14:27:45.909288 16977 net.cpp:141] Setting up conv4
I0403 14:27:45.909368 16977 net.cpp:148] Top shape: 100 384 13 13 (6489600)
I0403 14:27:45.909416 16977 net.cpp:156] Memory required for data: 757439600
I0403 14:27:45.909438 16977 layer_factory.hpp:77] Creating layer relu4
I0403 14:27:45.909464 16977 net.cpp:91] Creating Layer relu4
I0403 14:27:45.909482 16977 net.cpp:425] relu4 <- conv4
I0403 14:27:45.909502 16977 net.cpp:386] relu4 -> conv4 (in-place)
I0403 14:27:45.909783 16977 net.cpp:141] Setting up relu4
I0403 14:27:45.909811 16977 net.cpp:148] Top shape: 100 384 13 13 (6489600)
I0403 14:27:45.909826 16977 net.cpp:156] Memory required for data: 783398000
I0403 14:27:45.909842 16977 layer_factory.hpp:77] Creating layer conv5
I0403 14:27:45.909868 16977 net.cpp:91] Creating Layer conv5
I0403 14:27:45.909884 16977 net.cpp:425] conv5 <- conv4
I0403 14:27:45.909906 16977 net.cpp:399] conv5 -> conv5
I0403 14:27:45.930950 16977 net.cpp:141] Setting up conv5
I0403 14:27:45.931008 16977 net.cpp:148] Top shape: 100 256 13 13 (4326400)
I0403 14:27:45.931025 16977 net.cpp:156] Memory required for data: 800703600
I0403 14:27:45.931051 16977 layer_factory.hpp:77] Creating layer relu5
I0403 14:27:45.931087 16977 net.cpp:91] Creating Layer relu5
I0403 14:27:45.931108 16977 net.cpp:425] relu5 <- conv5
I0403 14:27:45.931128 16977 net.cpp:386] relu5 -> conv5 (in-place)
I0403 14:27:45.931426 16977 net.cpp:141] Setting up relu5
I0403 14:27:45.931453 16977 net.cpp:148] Top shape: 100 256 13 13 (4326400)
I0403 14:27:45.931468 16977 net.cpp:156] Memory required for data: 818009200
I0403 14:27:45.931483 16977 layer_factory.hpp:77] Creating layer pool5
I0403 14:27:45.931504 16977 net.cpp:91] Creating Layer pool5
I0403 14:27:45.931519 16977 net.cpp:425] pool5 <- conv5
I0403 14:27:45.931540 16977 net.cpp:399] pool5 -> pool5
I0403 14:27:45.931601 16977 net.cpp:141] Setting up pool5
I0403 14:27:45.931625 16977 net.cpp:148] Top shape: 100 256 6 6 (921600)
I0403 14:27:45.931640 16977 net.cpp:156] Memory required for data: 821695600
I0403 14:27:45.931655 16977 layer_factory.hpp:77] Creating layer fc6
I0403 14:27:45.931680 16977 net.cpp:91] Creating Layer fc6
I0403 14:27:45.931697 16977 net.cpp:425] fc6 <- pool5
I0403 14:27:45.931717 16977 net.cpp:399] fc6 -> fc6
I0403 14:27:47.500624 16977 net.cpp:141] Setting up fc6
I0403 14:27:47.500717 16977 net.cpp:148] Top shape: 100 4096 (409600)
I0403 14:27:47.500735 16977 net.cpp:156] Memory required for data: 823334000
I0403 14:27:47.500758 16977 layer_factory.hpp:77] Creating layer relu6
I0403 14:27:47.500783 16977 net.cpp:91] Creating Layer relu6
I0403 14:27:47.500802 16977 net.cpp:425] relu6 <- fc6
I0403 14:27:47.500823 16977 net.cpp:386] relu6 -> fc6 (in-place)
I0403 14:27:47.501065 16977 net.cpp:141] Setting up relu6
I0403 14:27:47.501091 16977 net.cpp:148] Top shape: 100 4096 (409600)
I0403 14:27:47.501104 16977 net.cpp:156] Memory required for data: 824972400
I0403 14:27:47.501119 16977 layer_factory.hpp:77] Creating layer drop6
I0403 14:27:47.501140 16977 net.cpp:91] Creating Layer drop6
I0403 14:27:47.501157 16977 net.cpp:425] drop6 <- fc6
I0403 14:27:47.501173 16977 net.cpp:386] drop6 -> fc6 (in-place)
I0403 14:27:47.501226 16977 net.cpp:141] Setting up drop6
I0403 14:27:47.501248 16977 net.cpp:148] Top shape: 100 4096 (409600)
I0403 14:27:47.501263 16977 net.cpp:156] Memory required for data: 826610800
I0403 14:27:47.501277 16977 layer_factory.hpp:77] Creating layer fc7
I0403 14:27:47.501299 16977 net.cpp:91] Creating Layer fc7
I0403 14:27:47.501315 16977 net.cpp:425] fc7 <- fc6
I0403 14:27:47.501333 16977 net.cpp:399] fc7 -> fc7
I0403 14:27:48.210533 16977 net.cpp:141] Setting up fc7
I0403 14:27:48.210628 16977 net.cpp:148] Top shape: 100 4096 (409600)
I0403 14:27:48.210645 16977 net.cpp:156] Memory required for data: 828249200
I0403 14:27:48.210669 16977 layer_factory.hpp:77] Creating layer relu7
I0403 14:27:48.210692 16977 net.cpp:91] Creating Layer relu7
I0403 14:27:48.210711 16977 net.cpp:425] relu7 <- fc7
I0403 14:27:48.210731 16977 net.cpp:386] relu7 -> fc7 (in-place)
I0403 14:27:48.211176 16977 net.cpp:141] Setting up relu7
I0403 14:27:48.211208 16977 net.cpp:148] Top shape: 100 4096 (409600)
I0403 14:27:48.211256 16977 net.cpp:156] Memory required for data: 829887600
I0403 14:27:48.211273 16977 layer_factory.hpp:77] Creating layer drop7
I0403 14:27:48.211293 16977 net.cpp:91] Creating Layer drop7
I0403 14:27:48.211309 16977 net.cpp:425] drop7 <- fc7
I0403 14:27:48.211328 16977 net.cpp:386] drop7 -> fc7 (in-place)
I0403 14:27:48.211376 16977 net.cpp:141] Setting up drop7
I0403 14:27:48.211400 16977 net.cpp:148] Top shape: 100 4096 (409600)
I0403 14:27:48.211416 16977 net.cpp:156] Memory required for data: 831526000
I0403 14:27:48.211431 16977 layer_factory.hpp:77] Creating layer fc8_plantvillage
I0403 14:27:48.211453 16977 net.cpp:91] Creating Layer fc8_plantvillage
I0403 14:27:48.211470 16977 net.cpp:425] fc8_plantvillage <- fc7
I0403 14:27:48.211489 16977 net.cpp:399] fc8_plantvillage -> fc8_plantvillage
I0403 14:27:48.218549 16977 net.cpp:141] Setting up fc8_plantvillage
I0403 14:27:48.218580 16977 net.cpp:148] Top shape: 100 38 (3800)
I0403 14:27:48.218597 16977 net.cpp:156] Memory required for data: 831541200
I0403 14:27:48.218617 16977 layer_factory.hpp:77] Creating layer fc8_plantvillage_fc8_plantvillage_0_split
I0403 14:27:48.218641 16977 net.cpp:91] Creating Layer fc8_plantvillage_fc8_plantvillage_0_split
I0403 14:27:48.218658 16977 net.cpp:425] fc8_plantvillage_fc8_plantvillage_0_split <- fc8_plantvillage
I0403 14:27:48.218677 16977 net.cpp:399] fc8_plantvillage_fc8_plantvillage_0_split -> fc8_plantvillage_fc8_plantvillage_0_split_0
I0403 14:27:48.218703 16977 net.cpp:399] fc8_plantvillage_fc8_plantvillage_0_split -> fc8_plantvillage_fc8_plantvillage_0_split_1
I0403 14:27:48.218726 16977 net.cpp:399] fc8_plantvillage_fc8_plantvillage_0_split -> fc8_plantvillage_fc8_plantvillage_0_split_2
I0403 14:27:48.218822 16977 net.cpp:141] Setting up fc8_plantvillage_fc8_plantvillage_0_split
I0403 14:27:48.218847 16977 net.cpp:148] Top shape: 100 38 (3800)
I0403 14:27:48.218863 16977 net.cpp:148] Top shape: 100 38 (3800)
I0403 14:27:48.218879 16977 net.cpp:148] Top shape: 100 38 (3800)
I0403 14:27:48.218894 16977 net.cpp:156] Memory required for data: 831586800
I0403 14:27:48.218909 16977 layer_factory.hpp:77] Creating layer prob
I0403 14:27:48.218930 16977 net.cpp:91] Creating Layer prob
I0403 14:27:48.218947 16977 net.cpp:425] prob <- fc8_plantvillage_fc8_plantvillage_0_split_0
I0403 14:27:48.218966 16977 net.cpp:399] prob -> prob
I0403 14:27:48.219199 16977 net.cpp:141] Setting up prob
I0403 14:27:48.219225 16977 net.cpp:148] Top shape: 100 38 (3800)
I0403 14:27:48.219240 16977 net.cpp:156] Memory required for data: 831602000
I0403 14:27:48.219255 16977 layer_factory.hpp:77] Creating layer hdf5out
I0403 14:27:48.219277 16977 net.cpp:91] Creating Layer hdf5out
I0403 14:27:48.219295 16977 net.cpp:425] hdf5out <- prob
I0403 14:27:48.219310 16977 net.cpp:425] hdf5out <- label_data_1_split_0
I0403 14:27:48.221815 16977 net.cpp:141] Setting up hdf5out
…
