…
I0403 14:40:44.729261 17361 net.cpp:313] The NetState phase (1) differed from the phase (0) specified by a rule in layer data
I0403 14:40:44.729589 17361 net.cpp:49] Initializing net from parameters: 
state {
  phase: TEST
}
layer {
  name: "data"
  type: "Data"
  top: "data"
  top: "label"
  include {
    phase: TEST
  }
  transform_param {
    crop_size: 227
    mean_file: "/home/mohanty/data/final_dataset/lmdb/segmented-60-40/mean.binaryproto"
  }
  data_param {
    source: "/home/mohanty/data/final_dataset/lmdb/segmented-60-40/test_db"
    batch_size: 100
    backend: LMDB
  }
}
layer {
  name: "conv1"
  type: "Convolution"
  bottom: "data"
  top: "conv1"
  param {
    lr_mult: 1
    decay_mult: 1
  }
  param {
    lr_mult: 2
    decay_mult: 0
  }
  convolution_param {
    num_output: 96
    kernel_size: 11
    stride: 4
    weight_filler {
      type: "gaussian"
      std: 0.01
    }
    bias_filler {
      type: "constant"
      value: 0
    }
  }
}
layer {
  name: "relu1"
  type: "ReLU"
  bottom: "conv1"
  top: "conv1"
}
layer {
  name: "norm1"
  type: "LRN"
  bottom: "conv1"
  top: "norm1"
  lrn_param {
    local_size: 5
    alpha: 0.0001
    beta: 0.75
  }
}
layer {
  name: "pool1"
  type: "Pooling"
  bottom: "norm1"
  top: "pool1"
  pooling_param {
    pool: MAX
    kernel_size: 3
    stride: 2
  }
}
layer {
  name: "conv2"
  type: "Convolution"
  bottom: "pool1"
  top: "conv2"
  param {
    lr_mult: 1
    decay_mult: 1
  }
  param {
    lr_mult: 2
    decay_mult: 0
  }
  convolution_param {
    num_output: 256
    pad: 2
    kernel_size: 5
    group: 2
    weight_filler {
      type: "gaussian"
      std: 0.01
    }
    bias_filler {
      type: "constant"
      value: 0.1
    }
  }
}
layer {
  name: "relu2"
  type: "ReLU"
  bottom: "conv2"
  top: "conv2"
}
layer {
  name: "norm2"
  type: "LRN"
  bottom: "conv2"
  top: "norm2"
  lrn_param {
    local_size: 5
    alpha: 0.0001
    beta: 0.75
  }
}
layer {
  name: "pool2"
  type: "Pooling"
  bottom: "norm2"
  top: "pool2"
  pooling_param {
    pool: MAX
    kernel_size: 3
    stride: 2
  }
}
layer {
  name: "conv3"
  type: "Convolution"
  bottom: "pool2"
  top: "conv3"
  param {
    lr_mult: 1
    decay_mult: 1
  }
  param {
    lr_mult: 2
    decay_mult: 0
  }
  convolution_param {
    num_output: 384
    pad: 1
    kernel_size: 3
    weight_filler {
      type: "gaussian"
      std: 0.01
    }
    bias_filler {
      type: "constant"
      value: 0
    }
  }
}
layer {
  name: "relu3"
  type: "ReLU"
  bottom: "conv3"
  top: "conv3"
}
layer {
  name: "conv4"
  type: "Convolution"
  bottom: "conv3"
  top: "conv4"
  param {
    lr_mult: 1
    decay_mult: 1
  }
  param {
    lr_mult: 2
    decay_mult: 0
  }
  convolution_param {
    num_output: 384
    pad: 1
    kernel_size: 3
    group: 2
    weight_filler {
      type: "gaussian"
      std: 0.01
    }
    bias_filler {
      type: "constant"
      value: 0.1
    }
  }
}
layer {
  name: "relu4"
  type: "ReLU"
  bottom: "conv4"
  top: "conv4"
}
layer {
  name: "conv5"
  type: "Convolution"
  bottom: "conv4"
  top: "conv5"
  param {
    lr_mult: 1
    decay_mult: 1
  }
  param {
    lr_mult: 2
    decay_mult: 0
  }
  convolution_param {
    num_output: 256
    pad: 1
    kernel_size: 3
    group: 2
    weight_filler {
      type: "gaussian"
      std: 0.01
    }
    bias_filler {
      type: "constant"
      value: 0.1
    }
  }
}
layer {
  name: "relu5"
  type: "ReLU"
  bottom: "conv5"
  top: "conv5"
}
layer {
  name: "pool5"
  type: "Pooling"
  bottom: "conv5"
  top: "pool5"
  pooling_param {
    pool: MAX
    kernel_size: 3
    stride: 2
  }
}
layer {
  name: "fc6"
  type: "InnerProduct"
  bottom: "pool5"
  top: "fc6"
  param {
    lr_mult: 1
    decay_mult: 1
  }
  param {
    lr_mult: 2
    decay_mult: 0
  }
  inner_product_param {
    num_output: 4096
    weight_filler {
      type: "gaussian"
      std: 0.005
    }
    bias_filler {
      type: "constant"
      value: 0.1
    }
  }
}
layer {
  name: "relu6"
  type: "ReLU"
  bottom: "fc6"
  top: "fc6"
}
layer {
  name: "drop6"
  type: "Dropout"
  bottom: "fc6"
  top: "fc6"
  dropout_param {
    dropout_ratio: 0.5
  }
}
layer {
  name: "fc7"
  type: "InnerProduct"
  bottom: "fc6"
  top: "fc7"
  param {
    lr_mult: 1
    decay_mult: 1
  }
  param {
    lr_mult: 2
    decay_mult: 0
  }
  inner_product_param {
    num_output: 4096
    weight_filler {
      type: "gaussian"
      std: 0.005
    }
    bias_filler {
      type: "constant"
      value: 0.1
    }
  }
}
layer {
  name: "relu7"
  type: "ReLU"
  bottom: "fc7"
  top: "fc7"
}
layer {
  name: "drop7"
  type: "Dropout"
  bottom: "fc7"
  top: "fc7"
  dropout_param {
    dropout_ratio: 0.5
  }
}
layer {
  name: "fc8_plantvillage"
  type: "InnerProduct"
  bottom: "fc7"
  top: "fc8_plantvillage"
  param {
    lr_mult: 1
    decay_mult: 1
  }
  param {
    lr_mult: 2
    decay_mult: 0
  }
  inner_product_param {
    num_output: 38
    weight_filler {
      type: "gaussian"
      std: 0.01
    }
    bias_filler {
      type: "constant"
      value: 0
    }
  }
}
layer {
  name: "prob"
  type: "Softmax"
  bottom: "fc8_plantvillage"
  top: "prob"
  include {
    phase: TEST
  }
}
layer {
  name: "hdf5out"
  type: "HDF5Output"
  bottom: "prob"
  bottom: "label"
  include {
    phase: TEST
  }
  hdf5_output_param {
    file_name: "hdf5_dumps/iter_6825.h5"
  }
}
layer {
  name: "loss"
  type: "SoftmaxWithLoss"
  bottom: "fc8_plantvillage"
  bottom: "label"
  top: "loss"
}
layer {
  name: "accuracy"
  type: "Accuracy"
  bottom: "fc8_plantvillage"
  bottom: "label"
  top: "accuracy"
  include {
    phase: TEST
  }
}
I0403 14:40:44.730177 17361 layer_factory.hpp:77] Creating layer data
I0403 14:40:44.730823 17361 net.cpp:91] Creating Layer data
I0403 14:40:44.730852 17361 net.cpp:399] data -> data
I0403 14:40:44.730903 17361 net.cpp:399] data -> label
I0403 14:40:44.730939 17361 data_transformer.cpp:25] Loading mean file from: /home/mohanty/data/final_dataset/lmdb/segmented-60-40/mean.binaryproto
I0403 14:40:44.732091 17366 db_lmdb.cpp:38] Opened lmdb /home/mohanty/data/final_dataset/lmdb/segmented-60-40/test_db
I0403 14:40:44.745321 17361 data_layer.cpp:41] output data size: 100,3,227,227
I0403 14:40:44.880022 17361 net.cpp:141] Setting up data
I0403 14:40:44.880139 17361 net.cpp:148] Top shape: 100 3 227 227 (15458700)
I0403 14:40:44.880162 17361 net.cpp:148] Top shape: 100 (100)
I0403 14:40:44.880175 17361 net.cpp:156] Memory required for data: 61835200
I0403 14:40:44.880203 17361 layer_factory.hpp:77] Creating layer label_data_1_split
I0403 14:40:44.880226 17361 net.cpp:91] Creating Layer label_data_1_split
I0403 14:40:44.880244 17361 net.cpp:425] label_data_1_split <- label
I0403 14:40:44.880275 17361 net.cpp:399] label_data_1_split -> label_data_1_split_0
I0403 14:40:44.880301 17361 net.cpp:399] label_data_1_split -> label_data_1_split_1
I0403 14:40:44.880321 17361 net.cpp:399] label_data_1_split -> label_data_1_split_2
I0403 14:40:44.880383 17361 net.cpp:141] Setting up label_data_1_split
I0403 14:40:44.880405 17361 net.cpp:148] Top shape: 100 (100)
I0403 14:40:44.880420 17361 net.cpp:148] Top shape: 100 (100)
I0403 14:40:44.880435 17361 net.cpp:148] Top shape: 100 (100)
I0403 14:40:44.880448 17361 net.cpp:156] Memory required for data: 61836400
I0403 14:40:44.880462 17361 layer_factory.hpp:77] Creating layer conv1
I0403 14:40:44.880493 17361 net.cpp:91] Creating Layer conv1
I0403 14:40:44.880511 17361 net.cpp:425] conv1 <- data
I0403 14:40:44.880527 17361 net.cpp:399] conv1 -> conv1
I0403 14:40:45.024010 17361 net.cpp:141] Setting up conv1
I0403 14:40:45.024098 17361 net.cpp:148] Top shape: 100 96 55 55 (29040000)
I0403 14:40:45.024116 17361 net.cpp:156] Memory required for data: 177996400
I0403 14:40:45.024148 17361 layer_factory.hpp:77] Creating layer relu1
I0403 14:40:45.024176 17361 net.cpp:91] Creating Layer relu1
I0403 14:40:45.024195 17361 net.cpp:425] relu1 <- conv1
I0403 14:40:45.024214 17361 net.cpp:386] relu1 -> conv1 (in-place)
I0403 14:40:45.024502 17361 net.cpp:141] Setting up relu1
I0403 14:40:45.024534 17361 net.cpp:148] Top shape: 100 96 55 55 (29040000)
I0403 14:40:45.024583 17361 net.cpp:156] Memory required for data: 294156400
I0403 14:40:45.024600 17361 layer_factory.hpp:77] Creating layer norm1
I0403 14:40:45.024628 17361 net.cpp:91] Creating Layer norm1
I0403 14:40:45.024646 17361 net.cpp:425] norm1 <- conv1
I0403 14:40:45.024667 17361 net.cpp:399] norm1 -> norm1
I0403 14:40:45.025019 17361 net.cpp:141] Setting up norm1
I0403 14:40:45.025048 17361 net.cpp:148] Top shape: 100 96 55 55 (29040000)
I0403 14:40:45.025064 17361 net.cpp:156] Memory required for data: 410316400
I0403 14:40:45.025080 17361 layer_factory.hpp:77] Creating layer pool1
I0403 14:40:45.025104 17361 net.cpp:91] Creating Layer pool1
I0403 14:40:45.025121 17361 net.cpp:425] pool1 <- norm1
I0403 14:40:45.025142 17361 net.cpp:399] pool1 -> pool1
I0403 14:40:45.025226 17361 net.cpp:141] Setting up pool1
I0403 14:40:45.025254 17361 net.cpp:148] Top shape: 100 96 27 27 (6998400)
I0403 14:40:45.025269 17361 net.cpp:156] Memory required for data: 438310000
I0403 14:40:45.025284 17361 layer_factory.hpp:77] Creating layer conv2
I0403 14:40:45.025310 17361 net.cpp:91] Creating Layer conv2
I0403 14:40:45.025326 17361 net.cpp:425] conv2 <- pool1
I0403 14:40:45.025344 17361 net.cpp:399] conv2 -> conv2
I0403 14:40:45.040619 17361 net.cpp:141] Setting up conv2
I0403 14:40:45.040673 17361 net.cpp:148] Top shape: 100 256 27 27 (18662400)
I0403 14:40:45.040688 17361 net.cpp:156] Memory required for data: 512959600
I0403 14:40:45.040711 17361 layer_factory.hpp:77] Creating layer relu2
I0403 14:40:45.040730 17361 net.cpp:91] Creating Layer relu2
I0403 14:40:45.040746 17361 net.cpp:425] relu2 <- conv2
I0403 14:40:45.040768 17361 net.cpp:386] relu2 -> conv2 (in-place)
I0403 14:40:45.041071 17361 net.cpp:141] Setting up relu2
I0403 14:40:45.041100 17361 net.cpp:148] Top shape: 100 256 27 27 (18662400)
I0403 14:40:45.041115 17361 net.cpp:156] Memory required for data: 587609200
I0403 14:40:45.041129 17361 layer_factory.hpp:77] Creating layer norm2
I0403 14:40:45.041152 17361 net.cpp:91] Creating Layer norm2
I0403 14:40:45.041169 17361 net.cpp:425] norm2 <- conv2
I0403 14:40:45.041190 17361 net.cpp:399] norm2 -> norm2
I0403 14:40:45.041393 17361 net.cpp:141] Setting up norm2
I0403 14:40:45.041420 17361 net.cpp:148] Top shape: 100 256 27 27 (18662400)
I0403 14:40:45.041436 17361 net.cpp:156] Memory required for data: 662258800
I0403 14:40:45.041451 17361 layer_factory.hpp:77] Creating layer pool2
I0403 14:40:45.041470 17361 net.cpp:91] Creating Layer pool2
I0403 14:40:45.041484 17361 net.cpp:425] pool2 <- norm2
I0403 14:40:45.041504 17361 net.cpp:399] pool2 -> pool2
I0403 14:40:45.041558 17361 net.cpp:141] Setting up pool2
I0403 14:40:45.041581 17361 net.cpp:148] Top shape: 100 256 13 13 (4326400)
I0403 14:40:45.041596 17361 net.cpp:156] Memory required for data: 679564400
I0403 14:40:45.041611 17361 layer_factory.hpp:77] Creating layer conv3
I0403 14:40:45.041636 17361 net.cpp:91] Creating Layer conv3
I0403 14:40:45.041653 17361 net.cpp:425] conv3 <- pool2
I0403 14:40:45.041671 17361 net.cpp:399] conv3 -> conv3
I0403 14:40:45.079659 17361 net.cpp:141] Setting up conv3
I0403 14:40:45.079736 17361 net.cpp:148] Top shape: 100 384 13 13 (6489600)
I0403 14:40:45.079752 17361 net.cpp:156] Memory required for data: 705522800
I0403 14:40:45.079777 17361 layer_factory.hpp:77] Creating layer relu3
I0403 14:40:45.079799 17361 net.cpp:91] Creating Layer relu3
I0403 14:40:45.079815 17361 net.cpp:425] relu3 <- conv3
I0403 14:40:45.079838 17361 net.cpp:386] relu3 -> conv3 (in-place)
I0403 14:40:45.080126 17361 net.cpp:141] Setting up relu3
I0403 14:40:45.080152 17361 net.cpp:148] Top shape: 100 384 13 13 (6489600)
I0403 14:40:45.080169 17361 net.cpp:156] Memory required for data: 731481200
I0403 14:40:45.080185 17361 layer_factory.hpp:77] Creating layer conv4
I0403 14:40:45.080212 17361 net.cpp:91] Creating Layer conv4
I0403 14:40:45.080230 17361 net.cpp:425] conv4 <- conv3
I0403 14:40:45.080251 17361 net.cpp:399] conv4 -> conv4
I0403 14:40:45.110117 17361 net.cpp:141] Setting up conv4
I0403 14:40:45.110204 17361 net.cpp:148] Top shape: 100 384 13 13 (6489600)
I0403 14:40:45.110252 17361 net.cpp:156] Memory required for data: 757439600
I0403 14:40:45.110275 17361 layer_factory.hpp:77] Creating layer relu4
I0403 14:40:45.110297 17361 net.cpp:91] Creating Layer relu4
I0403 14:40:45.110314 17361 net.cpp:425] relu4 <- conv4
I0403 14:40:45.110337 17361 net.cpp:386] relu4 -> conv4 (in-place)
I0403 14:40:45.110620 17361 net.cpp:141] Setting up relu4
I0403 14:40:45.110649 17361 net.cpp:148] Top shape: 100 384 13 13 (6489600)
I0403 14:40:45.110666 17361 net.cpp:156] Memory required for data: 783398000
I0403 14:40:45.110680 17361 layer_factory.hpp:77] Creating layer conv5
I0403 14:40:45.110707 17361 net.cpp:91] Creating Layer conv5
I0403 14:40:45.110725 17361 net.cpp:425] conv5 <- conv4
I0403 14:40:45.110744 17361 net.cpp:399] conv5 -> conv5
I0403 14:40:45.131400 17361 net.cpp:141] Setting up conv5
I0403 14:40:45.131465 17361 net.cpp:148] Top shape: 100 256 13 13 (4326400)
I0403 14:40:45.131481 17361 net.cpp:156] Memory required for data: 800703600
I0403 14:40:45.131506 17361 layer_factory.hpp:77] Creating layer relu5
I0403 14:40:45.131526 17361 net.cpp:91] Creating Layer relu5
I0403 14:40:45.131543 17361 net.cpp:425] relu5 <- conv5
I0403 14:40:45.131563 17361 net.cpp:386] relu5 -> conv5 (in-place)
I0403 14:40:45.131846 17361 net.cpp:141] Setting up relu5
I0403 14:40:45.131875 17361 net.cpp:148] Top shape: 100 256 13 13 (4326400)
I0403 14:40:45.131889 17361 net.cpp:156] Memory required for data: 818009200
I0403 14:40:45.131904 17361 layer_factory.hpp:77] Creating layer pool5
I0403 14:40:45.131929 17361 net.cpp:91] Creating Layer pool5
I0403 14:40:45.131947 17361 net.cpp:425] pool5 <- conv5
I0403 14:40:45.131968 17361 net.cpp:399] pool5 -> pool5
I0403 14:40:45.132035 17361 net.cpp:141] Setting up pool5
I0403 14:40:45.132058 17361 net.cpp:148] Top shape: 100 256 6 6 (921600)
I0403 14:40:45.132073 17361 net.cpp:156] Memory required for data: 821695600
I0403 14:40:45.132088 17361 layer_factory.hpp:77] Creating layer fc6
I0403 14:40:45.132117 17361 net.cpp:91] Creating Layer fc6
I0403 14:40:45.132133 17361 net.cpp:425] fc6 <- pool5
I0403 14:40:45.132154 17361 net.cpp:399] fc6 -> fc6
I0403 14:40:46.690145 17361 net.cpp:141] Setting up fc6
I0403 14:40:46.690227 17361 net.cpp:148] Top shape: 100 4096 (409600)
I0403 14:40:46.690243 17361 net.cpp:156] Memory required for data: 823334000
I0403 14:40:46.690263 17361 layer_factory.hpp:77] Creating layer relu6
I0403 14:40:46.690286 17361 net.cpp:91] Creating Layer relu6
I0403 14:40:46.690304 17361 net.cpp:425] relu6 <- fc6
I0403 14:40:46.690322 17361 net.cpp:386] relu6 -> fc6 (in-place)
I0403 14:40:46.690541 17361 net.cpp:141] Setting up relu6
I0403 14:40:46.690565 17361 net.cpp:148] Top shape: 100 4096 (409600)
I0403 14:40:46.690579 17361 net.cpp:156] Memory required for data: 824972400
I0403 14:40:46.690593 17361 layer_factory.hpp:77] Creating layer drop6
I0403 14:40:46.690611 17361 net.cpp:91] Creating Layer drop6
I0403 14:40:46.690626 17361 net.cpp:425] drop6 <- fc6
I0403 14:40:46.690644 17361 net.cpp:386] drop6 -> fc6 (in-place)
I0403 14:40:46.690693 17361 net.cpp:141] Setting up drop6
I0403 14:40:46.690718 17361 net.cpp:148] Top shape: 100 4096 (409600)
I0403 14:40:46.690732 17361 net.cpp:156] Memory required for data: 826610800
I0403 14:40:46.690747 17361 layer_factory.hpp:77] Creating layer fc7
I0403 14:40:46.690765 17361 net.cpp:91] Creating Layer fc7
I0403 14:40:46.690779 17361 net.cpp:425] fc7 <- fc6
I0403 14:40:46.690798 17361 net.cpp:399] fc7 -> fc7
I0403 14:40:47.389909 17361 net.cpp:141] Setting up fc7
I0403 14:40:47.389979 17361 net.cpp:148] Top shape: 100 4096 (409600)
I0403 14:40:47.390002 17361 net.cpp:156] Memory required for data: 828249200
I0403 14:40:47.390022 17361 layer_factory.hpp:77] Creating layer relu7
I0403 14:40:47.390043 17361 net.cpp:91] Creating Layer relu7
I0403 14:40:47.390060 17361 net.cpp:425] relu7 <- fc7
I0403 14:40:47.390082 17361 net.cpp:386] relu7 -> fc7 (in-place)
I0403 14:40:47.390499 17361 net.cpp:141] Setting up relu7
I0403 14:40:47.390537 17361 net.cpp:148] Top shape: 100 4096 (409600)
I0403 14:40:47.390579 17361 net.cpp:156] Memory required for data: 829887600
I0403 14:40:47.390595 17361 layer_factory.hpp:77] Creating layer drop7
I0403 14:40:47.390614 17361 net.cpp:91] Creating Layer drop7
I0403 14:40:47.390629 17361 net.cpp:425] drop7 <- fc7
I0403 14:40:47.390647 17361 net.cpp:386] drop7 -> fc7 (in-place)
I0403 14:40:47.390689 17361 net.cpp:141] Setting up drop7
I0403 14:40:47.390712 17361 net.cpp:148] Top shape: 100 4096 (409600)
I0403 14:40:47.390725 17361 net.cpp:156] Memory required for data: 831526000
I0403 14:40:47.390739 17361 layer_factory.hpp:77] Creating layer fc8_plantvillage
I0403 14:40:47.390761 17361 net.cpp:91] Creating Layer fc8_plantvillage
I0403 14:40:47.390777 17361 net.cpp:425] fc8_plantvillage <- fc7
I0403 14:40:47.390796 17361 net.cpp:399] fc8_plantvillage -> fc8_plantvillage
I0403 14:40:47.397505 17361 net.cpp:141] Setting up fc8_plantvillage
I0403 14:40:47.397532 17361 net.cpp:148] Top shape: 100 38 (3800)
I0403 14:40:47.397547 17361 net.cpp:156] Memory required for data: 831541200
I0403 14:40:47.397565 17361 layer_factory.hpp:77] Creating layer fc8_plantvillage_fc8_plantvillage_0_split
I0403 14:40:47.397584 17361 net.cpp:91] Creating Layer fc8_plantvillage_fc8_plantvillage_0_split
I0403 14:40:47.397599 17361 net.cpp:425] fc8_plantvillage_fc8_plantvillage_0_split <- fc8_plantvillage
I0403 14:40:47.397617 17361 net.cpp:399] fc8_plantvillage_fc8_plantvillage_0_split -> fc8_plantvillage_fc8_plantvillage_0_split_0
I0403 14:40:47.397637 17361 net.cpp:399] fc8_plantvillage_fc8_plantvillage_0_split -> fc8_plantvillage_fc8_plantvillage_0_split_1
I0403 14:40:47.397656 17361 net.cpp:399] fc8_plantvillage_fc8_plantvillage_0_split -> fc8_plantvillage_fc8_plantvillage_0_split_2
I0403 14:40:47.397742 17361 net.cpp:141] Setting up fc8_plantvillage_fc8_plantvillage_0_split
I0403 14:40:47.397765 17361 net.cpp:148] Top shape: 100 38 (3800)
I0403 14:40:47.397781 17361 net.cpp:148] Top shape: 100 38 (3800)
I0403 14:40:47.397795 17361 net.cpp:148] Top shape: 100 38 (3800)
I0403 14:40:47.397809 17361 net.cpp:156] Memory required for data: 831586800
I0403 14:40:47.397821 17361 layer_factory.hpp:77] Creating layer prob
I0403 14:40:47.397838 17361 net.cpp:91] Creating Layer prob
I0403 14:40:47.397853 17361 net.cpp:425] prob <- fc8_plantvillage_fc8_plantvillage_0_split_0
I0403 14:40:47.397872 17361 net.cpp:399] prob -> prob
I0403 14:40:47.398108 17361 net.cpp:141] Setting up prob
I0403 14:40:47.398138 17361 net.cpp:148] Top shape: 100 38 (3800)
I0403 14:40:47.398154 17361 net.cpp:156] Memory required for data: 831602000
I0403 14:40:47.398166 17361 layer_factory.hpp:77] Creating layer hdf5out
I0403 14:40:47.398185 17361 net.cpp:91] Creating Layer hdf5out
I0403 14:40:47.398200 17361 net.cpp:425] hdf5out <- prob
I0403 14:40:47.398214 17361 net.cpp:425] hdf5out <- label_data_1_split_0
I0403 14:40:47.400490 17361 net.cpp:141] Setting up hdf5out
…
