…
I0403 14:38:34.771839 17285 net.cpp:313] The NetState phase (1) differed from the phase (0) specified by a rule in layer data
I0403 14:38:34.772153 17285 net.cpp:49] Initializing net from parameters: 
state {
  phase: TEST
}
layer {
  name: "data"
  type: "Data"
  top: "data"
  top: "label"
  include {
    phase: TEST
  }
  transform_param {
    crop_size: 227
    mean_file: "/home/mohanty/data/final_dataset/lmdb/segmented-60-40/mean.binaryproto"
  }
  data_param {
    source: "/home/mohanty/data/final_dataset/lmdb/segmented-60-40/test_db"
    batch_size: 100
    backend: LMDB
  }
}
layer {
  name: "conv1"
  type: "Convolution"
  bottom: "data"
  top: "conv1"
  param {
    lr_mult: 1
    decay_mult: 1
  }
  param {
    lr_mult: 2
    decay_mult: 0
  }
  convolution_param {
    num_output: 96
    kernel_size: 11
    stride: 4
    weight_filler {
      type: "gaussian"
      std: 0.01
    }
    bias_filler {
      type: "constant"
      value: 0
    }
  }
}
layer {
  name: "relu1"
  type: "ReLU"
  bottom: "conv1"
  top: "conv1"
}
layer {
  name: "norm1"
  type: "LRN"
  bottom: "conv1"
  top: "norm1"
  lrn_param {
    local_size: 5
    alpha: 0.0001
    beta: 0.75
  }
}
layer {
  name: "pool1"
  type: "Pooling"
  bottom: "norm1"
  top: "pool1"
  pooling_param {
    pool: MAX
    kernel_size: 3
    stride: 2
  }
}
layer {
  name: "conv2"
  type: "Convolution"
  bottom: "pool1"
  top: "conv2"
  param {
    lr_mult: 1
    decay_mult: 1
  }
  param {
    lr_mult: 2
    decay_mult: 0
  }
  convolution_param {
    num_output: 256
    pad: 2
    kernel_size: 5
    group: 2
    weight_filler {
      type: "gaussian"
      std: 0.01
    }
    bias_filler {
      type: "constant"
      value: 0.1
    }
  }
}
layer {
  name: "relu2"
  type: "ReLU"
  bottom: "conv2"
  top: "conv2"
}
layer {
  name: "norm2"
  type: "LRN"
  bottom: "conv2"
  top: "norm2"
  lrn_param {
    local_size: 5
    alpha: 0.0001
    beta: 0.75
  }
}
layer {
  name: "pool2"
  type: "Pooling"
  bottom: "norm2"
  top: "pool2"
  pooling_param {
    pool: MAX
    kernel_size: 3
    stride: 2
  }
}
layer {
  name: "conv3"
  type: "Convolution"
  bottom: "pool2"
  top: "conv3"
  param {
    lr_mult: 1
    decay_mult: 1
  }
  param {
    lr_mult: 2
    decay_mult: 0
  }
  convolution_param {
    num_output: 384
    pad: 1
    kernel_size: 3
    weight_filler {
      type: "gaussian"
      std: 0.01
    }
    bias_filler {
      type: "constant"
      value: 0
    }
  }
}
layer {
  name: "relu3"
  type: "ReLU"
  bottom: "conv3"
  top: "conv3"
}
layer {
  name: "conv4"
  type: "Convolution"
  bottom: "conv3"
  top: "conv4"
  param {
    lr_mult: 1
    decay_mult: 1
  }
  param {
    lr_mult: 2
    decay_mult: 0
  }
  convolution_param {
    num_output: 384
    pad: 1
    kernel_size: 3
    group: 2
    weight_filler {
      type: "gaussian"
      std: 0.01
    }
    bias_filler {
      type: "constant"
      value: 0.1
    }
  }
}
layer {
  name: "relu4"
  type: "ReLU"
  bottom: "conv4"
  top: "conv4"
}
layer {
  name: "conv5"
  type: "Convolution"
  bottom: "conv4"
  top: "conv5"
  param {
    lr_mult: 1
    decay_mult: 1
  }
  param {
    lr_mult: 2
    decay_mult: 0
  }
  convolution_param {
    num_output: 256
    pad: 1
    kernel_size: 3
    group: 2
    weight_filler {
      type: "gaussian"
      std: 0.01
    }
    bias_filler {
      type: "constant"
      value: 0.1
    }
  }
}
layer {
  name: "relu5"
  type: "ReLU"
  bottom: "conv5"
  top: "conv5"
}
layer {
  name: "pool5"
  type: "Pooling"
  bottom: "conv5"
  top: "pool5"
  pooling_param {
    pool: MAX
    kernel_size: 3
    stride: 2
  }
}
layer {
  name: "fc6"
  type: "InnerProduct"
  bottom: "pool5"
  top: "fc6"
  param {
    lr_mult: 1
    decay_mult: 1
  }
  param {
    lr_mult: 2
    decay_mult: 0
  }
  inner_product_param {
    num_output: 4096
    weight_filler {
      type: "gaussian"
      std: 0.005
    }
    bias_filler {
      type: "constant"
      value: 0.1
    }
  }
}
layer {
  name: "relu6"
  type: "ReLU"
  bottom: "fc6"
  top: "fc6"
}
layer {
  name: "drop6"
  type: "Dropout"
  bottom: "fc6"
  top: "fc6"
  dropout_param {
    dropout_ratio: 0.5
  }
}
layer {
  name: "fc7"
  type: "InnerProduct"
  bottom: "fc6"
  top: "fc7"
  param {
    lr_mult: 1
    decay_mult: 1
  }
  param {
    lr_mult: 2
    decay_mult: 0
  }
  inner_product_param {
    num_output: 4096
    weight_filler {
      type: "gaussian"
      std: 0.005
    }
    bias_filler {
      type: "constant"
      value: 0.1
    }
  }
}
layer {
  name: "relu7"
  type: "ReLU"
  bottom: "fc7"
  top: "fc7"
}
layer {
  name: "drop7"
  type: "Dropout"
  bottom: "fc7"
  top: "fc7"
  dropout_param {
    dropout_ratio: 0.5
  }
}
layer {
  name: "fc8_plantvillage"
  type: "InnerProduct"
  bottom: "fc7"
  top: "fc8_plantvillage"
  param {
    lr_mult: 1
    decay_mult: 1
  }
  param {
    lr_mult: 2
    decay_mult: 0
  }
  inner_product_param {
    num_output: 38
    weight_filler {
      type: "gaussian"
      std: 0.01
    }
    bias_filler {
      type: "constant"
      value: 0
    }
  }
}
layer {
  name: "prob"
  type: "Softmax"
  bottom: "fc8_plantvillage"
  top: "prob"
  include {
    phase: TEST
  }
}
layer {
  name: "hdf5out"
  type: "HDF5Output"
  bottom: "prob"
  bottom: "label"
  include {
    phase: TEST
  }
  hdf5_output_param {
    file_name: "hdf5_dumps/iter_5850.h5"
  }
}
layer {
  name: "loss"
  type: "SoftmaxWithLoss"
  bottom: "fc8_plantvillage"
  bottom: "label"
  top: "loss"
}
layer {
  name: "accuracy"
  type: "Accuracy"
  bottom: "fc8_plantvillage"
  bottom: "label"
  top: "accuracy"
  include {
    phase: TEST
  }
}
I0403 14:38:34.772704 17285 layer_factory.hpp:77] Creating layer data
I0403 14:38:34.773367 17285 net.cpp:91] Creating Layer data
I0403 14:38:34.773418 17285 net.cpp:399] data -> data
I0403 14:38:34.773471 17285 net.cpp:399] data -> label
I0403 14:38:34.773507 17285 data_transformer.cpp:25] Loading mean file from: /home/mohanty/data/final_dataset/lmdb/segmented-60-40/mean.binaryproto
I0403 14:38:34.774706 17289 db_lmdb.cpp:38] Opened lmdb /home/mohanty/data/final_dataset/lmdb/segmented-60-40/test_db
I0403 14:38:34.787566 17285 data_layer.cpp:41] output data size: 100,3,227,227
I0403 14:38:34.920868 17285 net.cpp:141] Setting up data
I0403 14:38:34.920974 17285 net.cpp:148] Top shape: 100 3 227 227 (15458700)
I0403 14:38:34.921000 17285 net.cpp:148] Top shape: 100 (100)
I0403 14:38:34.921016 17285 net.cpp:156] Memory required for data: 61835200
I0403 14:38:34.921043 17285 layer_factory.hpp:77] Creating layer label_data_1_split
I0403 14:38:34.921068 17285 net.cpp:91] Creating Layer label_data_1_split
I0403 14:38:34.921087 17285 net.cpp:425] label_data_1_split <- label
I0403 14:38:34.921118 17285 net.cpp:399] label_data_1_split -> label_data_1_split_0
I0403 14:38:34.921145 17285 net.cpp:399] label_data_1_split -> label_data_1_split_1
I0403 14:38:34.921164 17285 net.cpp:399] label_data_1_split -> label_data_1_split_2
I0403 14:38:34.921224 17285 net.cpp:141] Setting up label_data_1_split
I0403 14:38:34.921249 17285 net.cpp:148] Top shape: 100 (100)
I0403 14:38:34.921267 17285 net.cpp:148] Top shape: 100 (100)
I0403 14:38:34.921283 17285 net.cpp:148] Top shape: 100 (100)
I0403 14:38:34.921296 17285 net.cpp:156] Memory required for data: 61836400
I0403 14:38:34.921311 17285 layer_factory.hpp:77] Creating layer conv1
I0403 14:38:34.921341 17285 net.cpp:91] Creating Layer conv1
I0403 14:38:34.921360 17285 net.cpp:425] conv1 <- data
I0403 14:38:34.921380 17285 net.cpp:399] conv1 -> conv1
I0403 14:38:35.066846 17285 net.cpp:141] Setting up conv1
I0403 14:38:35.066936 17285 net.cpp:148] Top shape: 100 96 55 55 (29040000)
I0403 14:38:35.066952 17285 net.cpp:156] Memory required for data: 177996400
I0403 14:38:35.066983 17285 layer_factory.hpp:77] Creating layer relu1
I0403 14:38:35.067016 17285 net.cpp:91] Creating Layer relu1
I0403 14:38:35.067035 17285 net.cpp:425] relu1 <- conv1
I0403 14:38:35.067059 17285 net.cpp:386] relu1 -> conv1 (in-place)
I0403 14:38:35.067351 17285 net.cpp:141] Setting up relu1
I0403 14:38:35.067380 17285 net.cpp:148] Top shape: 100 96 55 55 (29040000)
I0403 14:38:35.067428 17285 net.cpp:156] Memory required for data: 294156400
I0403 14:38:35.067446 17285 layer_factory.hpp:77] Creating layer norm1
I0403 14:38:35.067476 17285 net.cpp:91] Creating Layer norm1
I0403 14:38:35.067495 17285 net.cpp:425] norm1 <- conv1
I0403 14:38:35.067514 17285 net.cpp:399] norm1 -> norm1
I0403 14:38:35.067874 17285 net.cpp:141] Setting up norm1
I0403 14:38:35.067903 17285 net.cpp:148] Top shape: 100 96 55 55 (29040000)
I0403 14:38:35.067919 17285 net.cpp:156] Memory required for data: 410316400
I0403 14:38:35.067935 17285 layer_factory.hpp:77] Creating layer pool1
I0403 14:38:35.067960 17285 net.cpp:91] Creating Layer pool1
I0403 14:38:35.067978 17285 net.cpp:425] pool1 <- norm1
I0403 14:38:35.068027 17285 net.cpp:399] pool1 -> pool1
I0403 14:38:35.068104 17285 net.cpp:141] Setting up pool1
I0403 14:38:35.068128 17285 net.cpp:148] Top shape: 100 96 27 27 (6998400)
I0403 14:38:35.068145 17285 net.cpp:156] Memory required for data: 438310000
I0403 14:38:35.068158 17285 layer_factory.hpp:77] Creating layer conv2
I0403 14:38:35.068184 17285 net.cpp:91] Creating Layer conv2
I0403 14:38:35.068202 17285 net.cpp:425] conv2 <- pool1
I0403 14:38:35.068222 17285 net.cpp:399] conv2 -> conv2
I0403 14:38:35.083459 17285 net.cpp:141] Setting up conv2
I0403 14:38:35.083520 17285 net.cpp:148] Top shape: 100 256 27 27 (18662400)
I0403 14:38:35.083537 17285 net.cpp:156] Memory required for data: 512959600
I0403 14:38:35.083559 17285 layer_factory.hpp:77] Creating layer relu2
I0403 14:38:35.083582 17285 net.cpp:91] Creating Layer relu2
I0403 14:38:35.083600 17285 net.cpp:425] relu2 <- conv2
I0403 14:38:35.083618 17285 net.cpp:386] relu2 -> conv2 (in-place)
I0403 14:38:35.083899 17285 net.cpp:141] Setting up relu2
I0403 14:38:35.083926 17285 net.cpp:148] Top shape: 100 256 27 27 (18662400)
I0403 14:38:35.083941 17285 net.cpp:156] Memory required for data: 587609200
I0403 14:38:35.083956 17285 layer_factory.hpp:77] Creating layer norm2
I0403 14:38:35.083981 17285 net.cpp:91] Creating Layer norm2
I0403 14:38:35.084003 17285 net.cpp:425] norm2 <- conv2
I0403 14:38:35.084024 17285 net.cpp:399] norm2 -> norm2
I0403 14:38:35.084224 17285 net.cpp:141] Setting up norm2
I0403 14:38:35.084250 17285 net.cpp:148] Top shape: 100 256 27 27 (18662400)
I0403 14:38:35.084265 17285 net.cpp:156] Memory required for data: 662258800
I0403 14:38:35.084280 17285 layer_factory.hpp:77] Creating layer pool2
I0403 14:38:35.084298 17285 net.cpp:91] Creating Layer pool2
I0403 14:38:35.084313 17285 net.cpp:425] pool2 <- norm2
I0403 14:38:35.084333 17285 net.cpp:399] pool2 -> pool2
I0403 14:38:35.084388 17285 net.cpp:141] Setting up pool2
I0403 14:38:35.084411 17285 net.cpp:148] Top shape: 100 256 13 13 (4326400)
I0403 14:38:35.084425 17285 net.cpp:156] Memory required for data: 679564400
I0403 14:38:35.084440 17285 layer_factory.hpp:77] Creating layer conv3
I0403 14:38:35.084463 17285 net.cpp:91] Creating Layer conv3
I0403 14:38:35.084481 17285 net.cpp:425] conv3 <- pool2
I0403 14:38:35.084501 17285 net.cpp:399] conv3 -> conv3
I0403 14:38:35.123409 17285 net.cpp:141] Setting up conv3
I0403 14:38:35.123492 17285 net.cpp:148] Top shape: 100 384 13 13 (6489600)
I0403 14:38:35.123507 17285 net.cpp:156] Memory required for data: 705522800
I0403 14:38:35.123536 17285 layer_factory.hpp:77] Creating layer relu3
I0403 14:38:35.123559 17285 net.cpp:91] Creating Layer relu3
I0403 14:38:35.123577 17285 net.cpp:425] relu3 <- conv3
I0403 14:38:35.123595 17285 net.cpp:386] relu3 -> conv3 (in-place)
I0403 14:38:35.123872 17285 net.cpp:141] Setting up relu3
I0403 14:38:35.123898 17285 net.cpp:148] Top shape: 100 384 13 13 (6489600)
I0403 14:38:35.123914 17285 net.cpp:156] Memory required for data: 731481200
I0403 14:38:35.123929 17285 layer_factory.hpp:77] Creating layer conv4
I0403 14:38:35.123955 17285 net.cpp:91] Creating Layer conv4
I0403 14:38:35.123972 17285 net.cpp:425] conv4 <- conv3
I0403 14:38:35.123997 17285 net.cpp:399] conv4 -> conv4
I0403 14:38:35.154557 17285 net.cpp:141] Setting up conv4
I0403 14:38:35.154676 17285 net.cpp:148] Top shape: 100 384 13 13 (6489600)
I0403 14:38:35.154727 17285 net.cpp:156] Memory required for data: 757439600
I0403 14:38:35.154750 17285 layer_factory.hpp:77] Creating layer relu4
I0403 14:38:35.154775 17285 net.cpp:91] Creating Layer relu4
I0403 14:38:35.154794 17285 net.cpp:425] relu4 <- conv4
I0403 14:38:35.154814 17285 net.cpp:386] relu4 -> conv4 (in-place)
I0403 14:38:35.155097 17285 net.cpp:141] Setting up relu4
I0403 14:38:35.155124 17285 net.cpp:148] Top shape: 100 384 13 13 (6489600)
I0403 14:38:35.155140 17285 net.cpp:156] Memory required for data: 783398000
I0403 14:38:35.155155 17285 layer_factory.hpp:77] Creating layer conv5
I0403 14:38:35.155180 17285 net.cpp:91] Creating Layer conv5
I0403 14:38:35.155197 17285 net.cpp:425] conv5 <- conv4
I0403 14:38:35.155220 17285 net.cpp:399] conv5 -> conv5
I0403 14:38:35.176342 17285 net.cpp:141] Setting up conv5
I0403 14:38:35.176378 17285 net.cpp:148] Top shape: 100 256 13 13 (4326400)
I0403 14:38:35.176393 17285 net.cpp:156] Memory required for data: 800703600
I0403 14:38:35.176448 17285 layer_factory.hpp:77] Creating layer relu5
I0403 14:38:35.176477 17285 net.cpp:91] Creating Layer relu5
I0403 14:38:35.176496 17285 net.cpp:425] relu5 <- conv5
I0403 14:38:35.176514 17285 net.cpp:386] relu5 -> conv5 (in-place)
I0403 14:38:35.176787 17285 net.cpp:141] Setting up relu5
I0403 14:38:35.176813 17285 net.cpp:148] Top shape: 100 256 13 13 (4326400)
I0403 14:38:35.176829 17285 net.cpp:156] Memory required for data: 818009200
I0403 14:38:35.176844 17285 layer_factory.hpp:77] Creating layer pool5
I0403 14:38:35.176867 17285 net.cpp:91] Creating Layer pool5
I0403 14:38:35.176883 17285 net.cpp:425] pool5 <- conv5
I0403 14:38:35.176903 17285 net.cpp:399] pool5 -> pool5
I0403 14:38:35.176964 17285 net.cpp:141] Setting up pool5
I0403 14:38:35.176991 17285 net.cpp:148] Top shape: 100 256 6 6 (921600)
I0403 14:38:35.177007 17285 net.cpp:156] Memory required for data: 821695600
I0403 14:38:35.177021 17285 layer_factory.hpp:77] Creating layer fc6
I0403 14:38:35.177049 17285 net.cpp:91] Creating Layer fc6
I0403 14:38:35.177067 17285 net.cpp:425] fc6 <- pool5
I0403 14:38:35.177084 17285 net.cpp:399] fc6 -> fc6
I0403 14:38:36.782238 17285 net.cpp:141] Setting up fc6
I0403 14:38:36.782333 17285 net.cpp:148] Top shape: 100 4096 (409600)
I0403 14:38:36.782351 17285 net.cpp:156] Memory required for data: 823334000
I0403 14:38:36.782372 17285 layer_factory.hpp:77] Creating layer relu6
I0403 14:38:36.782395 17285 net.cpp:91] Creating Layer relu6
I0403 14:38:36.782413 17285 net.cpp:425] relu6 <- fc6
I0403 14:38:36.782435 17285 net.cpp:386] relu6 -> fc6 (in-place)
I0403 14:38:36.782665 17285 net.cpp:141] Setting up relu6
I0403 14:38:36.782693 17285 net.cpp:148] Top shape: 100 4096 (409600)
I0403 14:38:36.782708 17285 net.cpp:156] Memory required for data: 824972400
I0403 14:38:36.782722 17285 layer_factory.hpp:77] Creating layer drop6
I0403 14:38:36.782742 17285 net.cpp:91] Creating Layer drop6
I0403 14:38:36.782757 17285 net.cpp:425] drop6 <- fc6
I0403 14:38:36.782775 17285 net.cpp:386] drop6 -> fc6 (in-place)
I0403 14:38:36.782831 17285 net.cpp:141] Setting up drop6
I0403 14:38:36.782855 17285 net.cpp:148] Top shape: 100 4096 (409600)
I0403 14:38:36.782869 17285 net.cpp:156] Memory required for data: 826610800
I0403 14:38:36.782883 17285 layer_factory.hpp:77] Creating layer fc7
I0403 14:38:36.782903 17285 net.cpp:91] Creating Layer fc7
I0403 14:38:36.782918 17285 net.cpp:425] fc7 <- fc6
I0403 14:38:36.782943 17285 net.cpp:399] fc7 -> fc7
I0403 14:38:37.473389 17285 net.cpp:141] Setting up fc7
I0403 14:38:37.473480 17285 net.cpp:148] Top shape: 100 4096 (409600)
I0403 14:38:37.473497 17285 net.cpp:156] Memory required for data: 828249200
I0403 14:38:37.473518 17285 layer_factory.hpp:77] Creating layer relu7
I0403 14:38:37.473541 17285 net.cpp:91] Creating Layer relu7
I0403 14:38:37.473559 17285 net.cpp:425] relu7 <- fc7
I0403 14:38:37.473577 17285 net.cpp:386] relu7 -> fc7 (in-place)
I0403 14:38:37.473994 17285 net.cpp:141] Setting up relu7
I0403 14:38:37.474020 17285 net.cpp:148] Top shape: 100 4096 (409600)
I0403 14:38:37.474066 17285 net.cpp:156] Memory required for data: 829887600
I0403 14:38:37.474081 17285 layer_factory.hpp:77] Creating layer drop7
I0403 14:38:37.474102 17285 net.cpp:91] Creating Layer drop7
I0403 14:38:37.474118 17285 net.cpp:425] drop7 <- fc7
I0403 14:38:37.474135 17285 net.cpp:386] drop7 -> fc7 (in-place)
I0403 14:38:37.474177 17285 net.cpp:141] Setting up drop7
I0403 14:38:37.474202 17285 net.cpp:148] Top shape: 100 4096 (409600)
I0403 14:38:37.474217 17285 net.cpp:156] Memory required for data: 831526000
I0403 14:38:37.474232 17285 layer_factory.hpp:77] Creating layer fc8_plantvillage
I0403 14:38:37.474251 17285 net.cpp:91] Creating Layer fc8_plantvillage
I0403 14:38:37.474267 17285 net.cpp:425] fc8_plantvillage <- fc7
I0403 14:38:37.474287 17285 net.cpp:399] fc8_plantvillage -> fc8_plantvillage
I0403 14:38:37.481039 17285 net.cpp:141] Setting up fc8_plantvillage
I0403 14:38:37.481068 17285 net.cpp:148] Top shape: 100 38 (3800)
I0403 14:38:37.481084 17285 net.cpp:156] Memory required for data: 831541200
I0403 14:38:37.481101 17285 layer_factory.hpp:77] Creating layer fc8_plantvillage_fc8_plantvillage_0_split
I0403 14:38:37.481122 17285 net.cpp:91] Creating Layer fc8_plantvillage_fc8_plantvillage_0_split
I0403 14:38:37.481138 17285 net.cpp:425] fc8_plantvillage_fc8_plantvillage_0_split <- fc8_plantvillage
I0403 14:38:37.481155 17285 net.cpp:399] fc8_plantvillage_fc8_plantvillage_0_split -> fc8_plantvillage_fc8_plantvillage_0_split_0
I0403 14:38:37.481175 17285 net.cpp:399] fc8_plantvillage_fc8_plantvillage_0_split -> fc8_plantvillage_fc8_plantvillage_0_split_1
I0403 14:38:37.481194 17285 net.cpp:399] fc8_plantvillage_fc8_plantvillage_0_split -> fc8_plantvillage_fc8_plantvillage_0_split_2
I0403 14:38:37.481276 17285 net.cpp:141] Setting up fc8_plantvillage_fc8_plantvillage_0_split
I0403 14:38:37.481298 17285 net.cpp:148] Top shape: 100 38 (3800)
I0403 14:38:37.481314 17285 net.cpp:148] Top shape: 100 38 (3800)
I0403 14:38:37.481329 17285 net.cpp:148] Top shape: 100 38 (3800)
I0403 14:38:37.481343 17285 net.cpp:156] Memory required for data: 831586800
I0403 14:38:37.481356 17285 layer_factory.hpp:77] Creating layer prob
I0403 14:38:37.481374 17285 net.cpp:91] Creating Layer prob
I0403 14:38:37.481389 17285 net.cpp:425] prob <- fc8_plantvillage_fc8_plantvillage_0_split_0
I0403 14:38:37.481408 17285 net.cpp:399] prob -> prob
I0403 14:38:37.481633 17285 net.cpp:141] Setting up prob
I0403 14:38:37.481658 17285 net.cpp:148] Top shape: 100 38 (3800)
I0403 14:38:37.481673 17285 net.cpp:156] Memory required for data: 831602000
I0403 14:38:37.481688 17285 layer_factory.hpp:77] Creating layer hdf5out
I0403 14:38:37.481709 17285 net.cpp:91] Creating Layer hdf5out
I0403 14:38:37.481724 17285 net.cpp:425] hdf5out <- prob
I0403 14:38:37.481739 17285 net.cpp:425] hdf5out <- label_data_1_split_0
I0403 14:38:37.484014 17285 net.cpp:141] Setting up hdf5out
…
