…
I0403 14:28:28.173924 16989 net.cpp:313] The NetState phase (1) differed from the phase (0) specified by a rule in layer data
I0403 14:28:28.174226 16989 net.cpp:49] Initializing net from parameters: 
state {
  phase: TEST
}
layer {
  name: "data"
  type: "Data"
  top: "data"
  top: "label"
  include {
    phase: TEST
  }
  transform_param {
    crop_size: 227
    mean_file: "/home/mohanty/data/final_dataset/lmdb/segmented-60-40/mean.binaryproto"
  }
  data_param {
    source: "/home/mohanty/data/final_dataset/lmdb/segmented-60-40/test_db"
    batch_size: 100
    backend: LMDB
  }
}
layer {
  name: "conv1"
  type: "Convolution"
  bottom: "data"
  top: "conv1"
  param {
    lr_mult: 1
    decay_mult: 1
  }
  param {
    lr_mult: 2
    decay_mult: 0
  }
  convolution_param {
    num_output: 96
    kernel_size: 11
    stride: 4
    weight_filler {
      type: "gaussian"
      std: 0.01
    }
    bias_filler {
      type: "constant"
      value: 0
    }
  }
}
layer {
  name: "relu1"
  type: "ReLU"
  bottom: "conv1"
  top: "conv1"
}
layer {
  name: "norm1"
  type: "LRN"
  bottom: "conv1"
  top: "norm1"
  lrn_param {
    local_size: 5
    alpha: 0.0001
    beta: 0.75
  }
}
layer {
  name: "pool1"
  type: "Pooling"
  bottom: "norm1"
  top: "pool1"
  pooling_param {
    pool: MAX
    kernel_size: 3
    stride: 2
  }
}
layer {
  name: "conv2"
  type: "Convolution"
  bottom: "pool1"
  top: "conv2"
  param {
    lr_mult: 1
    decay_mult: 1
  }
  param {
    lr_mult: 2
    decay_mult: 0
  }
  convolution_param {
    num_output: 256
    pad: 2
    kernel_size: 5
    group: 2
    weight_filler {
      type: "gaussian"
      std: 0.01
    }
    bias_filler {
      type: "constant"
      value: 0.1
    }
  }
}
layer {
  name: "relu2"
  type: "ReLU"
  bottom: "conv2"
  top: "conv2"
}
layer {
  name: "norm2"
  type: "LRN"
  bottom: "conv2"
  top: "norm2"
  lrn_param {
    local_size: 5
    alpha: 0.0001
    beta: 0.75
  }
}
layer {
  name: "pool2"
  type: "Pooling"
  bottom: "norm2"
  top: "pool2"
  pooling_param {
    pool: MAX
    kernel_size: 3
    stride: 2
  }
}
layer {
  name: "conv3"
  type: "Convolution"
  bottom: "pool2"
  top: "conv3"
  param {
    lr_mult: 1
    decay_mult: 1
  }
  param {
    lr_mult: 2
    decay_mult: 0
  }
  convolution_param {
    num_output: 384
    pad: 1
    kernel_size: 3
    weight_filler {
      type: "gaussian"
      std: 0.01
    }
    bias_filler {
      type: "constant"
      value: 0
    }
  }
}
layer {
  name: "relu3"
  type: "ReLU"
  bottom: "conv3"
  top: "conv3"
}
layer {
  name: "conv4"
  type: "Convolution"
  bottom: "conv3"
  top: "conv4"
  param {
    lr_mult: 1
    decay_mult: 1
  }
  param {
    lr_mult: 2
    decay_mult: 0
  }
  convolution_param {
    num_output: 384
    pad: 1
    kernel_size: 3
    group: 2
    weight_filler {
      type: "gaussian"
      std: 0.01
    }
    bias_filler {
      type: "constant"
      value: 0.1
    }
  }
}
layer {
  name: "relu4"
  type: "ReLU"
  bottom: "conv4"
  top: "conv4"
}
layer {
  name: "conv5"
  type: "Convolution"
  bottom: "conv4"
  top: "conv5"
  param {
    lr_mult: 1
    decay_mult: 1
  }
  param {
    lr_mult: 2
    decay_mult: 0
  }
  convolution_param {
    num_output: 256
    pad: 1
    kernel_size: 3
    group: 2
    weight_filler {
      type: "gaussian"
      std: 0.01
    }
    bias_filler {
      type: "constant"
      value: 0.1
    }
  }
}
layer {
  name: "relu5"
  type: "ReLU"
  bottom: "conv5"
  top: "conv5"
}
layer {
  name: "pool5"
  type: "Pooling"
  bottom: "conv5"
  top: "pool5"
  pooling_param {
    pool: MAX
    kernel_size: 3
    stride: 2
  }
}
layer {
  name: "fc6"
  type: "InnerProduct"
  bottom: "pool5"
  top: "fc6"
  param {
    lr_mult: 1
    decay_mult: 1
  }
  param {
    lr_mult: 2
    decay_mult: 0
  }
  inner_product_param {
    num_output: 4096
    weight_filler {
      type: "gaussian"
      std: 0.005
    }
    bias_filler {
      type: "constant"
      value: 0.1
    }
  }
}
layer {
  name: "relu6"
  type: "ReLU"
  bottom: "fc6"
  top: "fc6"
}
layer {
  name: "drop6"
  type: "Dropout"
  bottom: "fc6"
  top: "fc6"
  dropout_param {
    dropout_ratio: 0.5
  }
}
layer {
  name: "fc7"
  type: "InnerProduct"
  bottom: "fc6"
  top: "fc7"
  param {
    lr_mult: 1
    decay_mult: 1
  }
  param {
    lr_mult: 2
    decay_mult: 0
  }
  inner_product_param {
    num_output: 4096
    weight_filler {
      type: "gaussian"
      std: 0.005
    }
    bias_filler {
      type: "constant"
      value: 0.1
    }
  }
}
layer {
  name: "relu7"
  type: "ReLU"
  bottom: "fc7"
  top: "fc7"
}
layer {
  name: "drop7"
  type: "Dropout"
  bottom: "fc7"
  top: "fc7"
  dropout_param {
    dropout_ratio: 0.5
  }
}
layer {
  name: "fc8_plantvillage"
  type: "InnerProduct"
  bottom: "fc7"
  top: "fc8_plantvillage"
  param {
    lr_mult: 1
    decay_mult: 1
  }
  param {
    lr_mult: 2
    decay_mult: 0
  }
  inner_product_param {
    num_output: 38
    weight_filler {
      type: "gaussian"
      std: 0.01
    }
    bias_filler {
      type: "constant"
      value: 0
    }
  }
}
layer {
  name: "prob"
  type: "Softmax"
  bottom: "fc8_plantvillage"
  top: "prob"
  include {
    phase: TEST
  }
}
layer {
  name: "hdf5out"
  type: "HDF5Output"
  bottom: "prob"
  bottom: "label"
  include {
    phase: TEST
  }
  hdf5_output_param {
    file_name: "hdf5_dumps/iter_1300.h5"
  }
}
layer {
  name: "loss"
  type: "SoftmaxWithLoss"
  bottom: "fc8_plantvillage"
  bottom: "label"
  top: "loss"
}
layer {
  name: "accuracy"
  type: "Accuracy"
  bottom: "fc8_plantvillage"
  bottom: "label"
  top: "accuracy"
  include {
    phase: TEST
  }
}
I0403 14:28:28.174798 16989 layer_factory.hpp:77] Creating layer data
I0403 14:28:28.175436 16989 net.cpp:91] Creating Layer data
I0403 14:28:28.175468 16989 net.cpp:399] data -> data
I0403 14:28:28.175518 16989 net.cpp:399] data -> label
I0403 14:28:28.175565 16989 data_transformer.cpp:25] Loading mean file from: /home/mohanty/data/final_dataset/lmdb/segmented-60-40/mean.binaryproto
I0403 14:28:28.176717 16994 db_lmdb.cpp:38] Opened lmdb /home/mohanty/data/final_dataset/lmdb/segmented-60-40/test_db
I0403 14:28:28.189635 16989 data_layer.cpp:41] output data size: 100,3,227,227
I0403 14:28:28.321259 16989 net.cpp:141] Setting up data
I0403 14:28:28.321369 16989 net.cpp:148] Top shape: 100 3 227 227 (15458700)
I0403 14:28:28.321391 16989 net.cpp:148] Top shape: 100 (100)
I0403 14:28:28.321406 16989 net.cpp:156] Memory required for data: 61835200
I0403 14:28:28.321434 16989 layer_factory.hpp:77] Creating layer label_data_1_split
I0403 14:28:28.321460 16989 net.cpp:91] Creating Layer label_data_1_split
I0403 14:28:28.321477 16989 net.cpp:425] label_data_1_split <- label
I0403 14:28:28.321508 16989 net.cpp:399] label_data_1_split -> label_data_1_split_0
I0403 14:28:28.321537 16989 net.cpp:399] label_data_1_split -> label_data_1_split_1
I0403 14:28:28.321555 16989 net.cpp:399] label_data_1_split -> label_data_1_split_2
I0403 14:28:28.321619 16989 net.cpp:141] Setting up label_data_1_split
I0403 14:28:28.321642 16989 net.cpp:148] Top shape: 100 (100)
I0403 14:28:28.321658 16989 net.cpp:148] Top shape: 100 (100)
I0403 14:28:28.321674 16989 net.cpp:148] Top shape: 100 (100)
I0403 14:28:28.321688 16989 net.cpp:156] Memory required for data: 61836400
I0403 14:28:28.321707 16989 layer_factory.hpp:77] Creating layer conv1
I0403 14:28:28.321738 16989 net.cpp:91] Creating Layer conv1
I0403 14:28:28.321755 16989 net.cpp:425] conv1 <- data
I0403 14:28:28.321775 16989 net.cpp:399] conv1 -> conv1
I0403 14:28:28.468189 16989 net.cpp:141] Setting up conv1
I0403 14:28:28.468278 16989 net.cpp:148] Top shape: 100 96 55 55 (29040000)
I0403 14:28:28.468297 16989 net.cpp:156] Memory required for data: 177996400
I0403 14:28:28.468329 16989 layer_factory.hpp:77] Creating layer relu1
I0403 14:28:28.468358 16989 net.cpp:91] Creating Layer relu1
I0403 14:28:28.468375 16989 net.cpp:425] relu1 <- conv1
I0403 14:28:28.468420 16989 net.cpp:386] relu1 -> conv1 (in-place)
I0403 14:28:28.468703 16989 net.cpp:141] Setting up relu1
I0403 14:28:28.468731 16989 net.cpp:148] Top shape: 100 96 55 55 (29040000)
I0403 14:28:28.468778 16989 net.cpp:156] Memory required for data: 294156400
I0403 14:28:28.468796 16989 layer_factory.hpp:77] Creating layer norm1
I0403 14:28:28.468827 16989 net.cpp:91] Creating Layer norm1
I0403 14:28:28.468847 16989 net.cpp:425] norm1 <- conv1
I0403 14:28:28.468866 16989 net.cpp:399] norm1 -> norm1
I0403 14:28:28.469211 16989 net.cpp:141] Setting up norm1
I0403 14:28:28.469240 16989 net.cpp:148] Top shape: 100 96 55 55 (29040000)
I0403 14:28:28.469256 16989 net.cpp:156] Memory required for data: 410316400
I0403 14:28:28.469271 16989 layer_factory.hpp:77] Creating layer pool1
I0403 14:28:28.469295 16989 net.cpp:91] Creating Layer pool1
I0403 14:28:28.469312 16989 net.cpp:425] pool1 <- norm1
I0403 14:28:28.469332 16989 net.cpp:399] pool1 -> pool1
I0403 14:28:28.469406 16989 net.cpp:141] Setting up pool1
I0403 14:28:28.469434 16989 net.cpp:148] Top shape: 100 96 27 27 (6998400)
I0403 14:28:28.469449 16989 net.cpp:156] Memory required for data: 438310000
I0403 14:28:28.469465 16989 layer_factory.hpp:77] Creating layer conv2
I0403 14:28:28.469492 16989 net.cpp:91] Creating Layer conv2
I0403 14:28:28.469511 16989 net.cpp:425] conv2 <- pool1
I0403 14:28:28.469529 16989 net.cpp:399] conv2 -> conv2
I0403 14:28:28.485494 16989 net.cpp:141] Setting up conv2
I0403 14:28:28.485558 16989 net.cpp:148] Top shape: 100 256 27 27 (18662400)
I0403 14:28:28.485574 16989 net.cpp:156] Memory required for data: 512959600
I0403 14:28:28.485599 16989 layer_factory.hpp:77] Creating layer relu2
I0403 14:28:28.485620 16989 net.cpp:91] Creating Layer relu2
I0403 14:28:28.485636 16989 net.cpp:425] relu2 <- conv2
I0403 14:28:28.485657 16989 net.cpp:386] relu2 -> conv2 (in-place)
I0403 14:28:28.485950 16989 net.cpp:141] Setting up relu2
I0403 14:28:28.485980 16989 net.cpp:148] Top shape: 100 256 27 27 (18662400)
I0403 14:28:28.486001 16989 net.cpp:156] Memory required for data: 587609200
I0403 14:28:28.486016 16989 layer_factory.hpp:77] Creating layer norm2
I0403 14:28:28.486042 16989 net.cpp:91] Creating Layer norm2
I0403 14:28:28.486058 16989 net.cpp:425] norm2 <- conv2
I0403 14:28:28.486076 16989 net.cpp:399] norm2 -> norm2
I0403 14:28:28.486290 16989 net.cpp:141] Setting up norm2
I0403 14:28:28.486316 16989 net.cpp:148] Top shape: 100 256 27 27 (18662400)
I0403 14:28:28.486331 16989 net.cpp:156] Memory required for data: 662258800
I0403 14:28:28.486346 16989 layer_factory.hpp:77] Creating layer pool2
I0403 14:28:28.486366 16989 net.cpp:91] Creating Layer pool2
I0403 14:28:28.486380 16989 net.cpp:425] pool2 <- norm2
I0403 14:28:28.486402 16989 net.cpp:399] pool2 -> pool2
I0403 14:28:28.486456 16989 net.cpp:141] Setting up pool2
I0403 14:28:28.486480 16989 net.cpp:148] Top shape: 100 256 13 13 (4326400)
I0403 14:28:28.486495 16989 net.cpp:156] Memory required for data: 679564400
I0403 14:28:28.486510 16989 layer_factory.hpp:77] Creating layer conv3
I0403 14:28:28.486536 16989 net.cpp:91] Creating Layer conv3
I0403 14:28:28.486553 16989 net.cpp:425] conv3 <- pool2
I0403 14:28:28.486572 16989 net.cpp:399] conv3 -> conv3
I0403 14:28:28.527184 16989 net.cpp:141] Setting up conv3
I0403 14:28:28.527269 16989 net.cpp:148] Top shape: 100 384 13 13 (6489600)
I0403 14:28:28.527287 16989 net.cpp:156] Memory required for data: 705522800
I0403 14:28:28.527312 16989 layer_factory.hpp:77] Creating layer relu3
I0403 14:28:28.527335 16989 net.cpp:91] Creating Layer relu3
I0403 14:28:28.527354 16989 net.cpp:425] relu3 <- conv3
I0403 14:28:28.527374 16989 net.cpp:386] relu3 -> conv3 (in-place)
I0403 14:28:28.527693 16989 net.cpp:141] Setting up relu3
I0403 14:28:28.527720 16989 net.cpp:148] Top shape: 100 384 13 13 (6489600)
I0403 14:28:28.527736 16989 net.cpp:156] Memory required for data: 731481200
I0403 14:28:28.527751 16989 layer_factory.hpp:77] Creating layer conv4
I0403 14:28:28.527777 16989 net.cpp:91] Creating Layer conv4
I0403 14:28:28.527796 16989 net.cpp:425] conv4 <- conv3
I0403 14:28:28.527817 16989 net.cpp:399] conv4 -> conv4
I0403 14:28:28.559741 16989 net.cpp:141] Setting up conv4
I0403 14:28:28.559820 16989 net.cpp:148] Top shape: 100 384 13 13 (6489600)
I0403 14:28:28.559870 16989 net.cpp:156] Memory required for data: 757439600
I0403 14:28:28.559892 16989 layer_factory.hpp:77] Creating layer relu4
I0403 14:28:28.559914 16989 net.cpp:91] Creating Layer relu4
I0403 14:28:28.559931 16989 net.cpp:425] relu4 <- conv4
I0403 14:28:28.559953 16989 net.cpp:386] relu4 -> conv4 (in-place)
I0403 14:28:28.560238 16989 net.cpp:141] Setting up relu4
I0403 14:28:28.560267 16989 net.cpp:148] Top shape: 100 384 13 13 (6489600)
I0403 14:28:28.560284 16989 net.cpp:156] Memory required for data: 783398000
I0403 14:28:28.560299 16989 layer_factory.hpp:77] Creating layer conv5
I0403 14:28:28.560327 16989 net.cpp:91] Creating Layer conv5
I0403 14:28:28.560343 16989 net.cpp:425] conv5 <- conv4
I0403 14:28:28.560362 16989 net.cpp:399] conv5 -> conv5
I0403 14:28:28.582180 16989 net.cpp:141] Setting up conv5
I0403 14:28:28.582249 16989 net.cpp:148] Top shape: 100 256 13 13 (4326400)
I0403 14:28:28.582267 16989 net.cpp:156] Memory required for data: 800703600
I0403 14:28:28.582290 16989 layer_factory.hpp:77] Creating layer relu5
I0403 14:28:28.582311 16989 net.cpp:91] Creating Layer relu5
I0403 14:28:28.582329 16989 net.cpp:425] relu5 <- conv5
I0403 14:28:28.582350 16989 net.cpp:386] relu5 -> conv5 (in-place)
I0403 14:28:28.582639 16989 net.cpp:141] Setting up relu5
I0403 14:28:28.582666 16989 net.cpp:148] Top shape: 100 256 13 13 (4326400)
I0403 14:28:28.582681 16989 net.cpp:156] Memory required for data: 818009200
I0403 14:28:28.582696 16989 layer_factory.hpp:77] Creating layer pool5
I0403 14:28:28.582720 16989 net.cpp:91] Creating Layer pool5
I0403 14:28:28.582737 16989 net.cpp:425] pool5 <- conv5
I0403 14:28:28.582756 16989 net.cpp:399] pool5 -> pool5
I0403 14:28:28.582831 16989 net.cpp:141] Setting up pool5
I0403 14:28:28.582856 16989 net.cpp:148] Top shape: 100 256 6 6 (921600)
I0403 14:28:28.582870 16989 net.cpp:156] Memory required for data: 821695600
I0403 14:28:28.582886 16989 layer_factory.hpp:77] Creating layer fc6
I0403 14:28:28.582914 16989 net.cpp:91] Creating Layer fc6
I0403 14:28:28.582931 16989 net.cpp:425] fc6 <- pool5
I0403 14:28:28.582952 16989 net.cpp:399] fc6 -> fc6
I0403 14:28:30.161411 16989 net.cpp:141] Setting up fc6
I0403 14:28:30.161505 16989 net.cpp:148] Top shape: 100 4096 (409600)
I0403 14:28:30.161522 16989 net.cpp:156] Memory required for data: 823334000
I0403 14:28:30.161545 16989 layer_factory.hpp:77] Creating layer relu6
I0403 14:28:30.161568 16989 net.cpp:91] Creating Layer relu6
I0403 14:28:30.161586 16989 net.cpp:425] relu6 <- fc6
I0403 14:28:30.161607 16989 net.cpp:386] relu6 -> fc6 (in-place)
I0403 14:28:30.161840 16989 net.cpp:141] Setting up relu6
I0403 14:28:30.161865 16989 net.cpp:148] Top shape: 100 4096 (409600)
I0403 14:28:30.161880 16989 net.cpp:156] Memory required for data: 824972400
I0403 14:28:30.161895 16989 layer_factory.hpp:77] Creating layer drop6
I0403 14:28:30.161912 16989 net.cpp:91] Creating Layer drop6
I0403 14:28:30.161928 16989 net.cpp:425] drop6 <- fc6
I0403 14:28:30.161948 16989 net.cpp:386] drop6 -> fc6 (in-place)
I0403 14:28:30.162011 16989 net.cpp:141] Setting up drop6
I0403 14:28:30.162039 16989 net.cpp:148] Top shape: 100 4096 (409600)
I0403 14:28:30.162055 16989 net.cpp:156] Memory required for data: 826610800
I0403 14:28:30.162070 16989 layer_factory.hpp:77] Creating layer fc7
I0403 14:28:30.162089 16989 net.cpp:91] Creating Layer fc7
I0403 14:28:30.162104 16989 net.cpp:425] fc7 <- fc6
I0403 14:28:30.162125 16989 net.cpp:399] fc7 -> fc7
I0403 14:28:30.890862 16989 net.cpp:141] Setting up fc7
I0403 14:28:30.890944 16989 net.cpp:148] Top shape: 100 4096 (409600)
I0403 14:28:30.890966 16989 net.cpp:156] Memory required for data: 828249200
I0403 14:28:30.890988 16989 layer_factory.hpp:77] Creating layer relu7
I0403 14:28:30.891010 16989 net.cpp:91] Creating Layer relu7
I0403 14:28:30.891024 16989 net.cpp:425] relu7 <- fc7
I0403 14:28:30.891044 16989 net.cpp:386] relu7 -> fc7 (in-place)
I0403 14:28:32.837318 16989 net.cpp:141] Setting up relu7
I0403 14:28:32.837416 16989 net.cpp:148] Top shape: 100 4096 (409600)
I0403 14:28:32.837479 16989 net.cpp:156] Memory required for data: 829887600
I0403 14:28:32.837498 16989 layer_factory.hpp:77] Creating layer drop7
I0403 14:28:32.837522 16989 net.cpp:91] Creating Layer drop7
I0403 14:28:32.837538 16989 net.cpp:425] drop7 <- fc7
I0403 14:28:32.837560 16989 net.cpp:386] drop7 -> fc7 (in-place)
I0403 14:28:32.837620 16989 net.cpp:141] Setting up drop7
I0403 14:28:32.837641 16989 net.cpp:148] Top shape: 100 4096 (409600)
I0403 14:28:32.837653 16989 net.cpp:156] Memory required for data: 831526000
I0403 14:28:32.837668 16989 layer_factory.hpp:77] Creating layer fc8_plantvillage
I0403 14:28:32.837689 16989 net.cpp:91] Creating Layer fc8_plantvillage
I0403 14:28:32.837705 16989 net.cpp:425] fc8_plantvillage <- fc7
I0403 14:28:32.837725 16989 net.cpp:399] fc8_plantvillage -> fc8_plantvillage
I0403 14:28:32.848935 16989 net.cpp:141] Setting up fc8_plantvillage
I0403 14:28:32.848970 16989 net.cpp:148] Top shape: 100 38 (3800)
I0403 14:28:32.848987 16989 net.cpp:156] Memory required for data: 831541200
I0403 14:28:32.849005 16989 layer_factory.hpp:77] Creating layer fc8_plantvillage_fc8_plantvillage_0_split
I0403 14:28:32.849023 16989 net.cpp:91] Creating Layer fc8_plantvillage_fc8_plantvillage_0_split
I0403 14:28:32.849038 16989 net.cpp:425] fc8_plantvillage_fc8_plantvillage_0_split <- fc8_plantvillage
I0403 14:28:32.849097 16989 net.cpp:399] fc8_plantvillage_fc8_plantvillage_0_split -> fc8_plantvillage_fc8_plantvillage_0_split_0
I0403 14:28:32.849153 16989 net.cpp:399] fc8_plantvillage_fc8_plantvillage_0_split -> fc8_plantvillage_fc8_plantvillage_0_split_1
I0403 14:28:32.849205 16989 net.cpp:399] fc8_plantvillage_fc8_plantvillage_0_split -> fc8_plantvillage_fc8_plantvillage_0_split_2
I0403 14:28:32.849397 16989 net.cpp:141] Setting up fc8_plantvillage_fc8_plantvillage_0_split
I0403 14:28:32.849457 16989 net.cpp:148] Top shape: 100 38 (3800)
I0403 14:28:32.849498 16989 net.cpp:148] Top shape: 100 38 (3800)
I0403 14:28:32.849537 16989 net.cpp:148] Top shape: 100 38 (3800)
I0403 14:28:32.849571 16989 net.cpp:156] Memory required for data: 831586800
I0403 14:28:32.849608 16989 layer_factory.hpp:77] Creating layer prob
I0403 14:28:32.849653 16989 net.cpp:91] Creating Layer prob
I0403 14:28:32.849691 16989 net.cpp:425] prob <- fc8_plantvillage_fc8_plantvillage_0_split_0
I0403 14:28:32.849741 16989 net.cpp:399] prob -> prob
I0403 14:28:32.850350 16989 net.cpp:141] Setting up prob
I0403 14:28:32.850426 16989 net.cpp:148] Top shape: 100 38 (3800)
I0403 14:28:32.850466 16989 net.cpp:156] Memory required for data: 831602000
I0403 14:28:32.850504 16989 layer_factory.hpp:77] Creating layer hdf5out
I0403 14:28:32.850551 16989 net.cpp:91] Creating Layer hdf5out
I0403 14:28:32.850590 16989 net.cpp:425] hdf5out <- prob
I0403 14:28:32.850631 16989 net.cpp:425] hdf5out <- label_data_1_split_0
I0403 14:28:32.854648 16989 net.cpp:141] Setting up hdf5out
…
