…
I0403 14:44:19.791931 17468 net.cpp:313] The NetState phase (1) differed from the phase (0) specified by a rule in layer data
I0403 14:44:19.792251 17468 net.cpp:49] Initializing net from parameters: 
state {
  phase: TEST
}
layer {
  name: "data"
  type: "Data"
  top: "data"
  top: "label"
  include {
    phase: TEST
  }
  transform_param {
    crop_size: 227
    mean_file: "/home/mohanty/data/final_dataset/lmdb/segmented-60-40/mean.binaryproto"
  }
  data_param {
    source: "/home/mohanty/data/final_dataset/lmdb/segmented-60-40/test_db"
    batch_size: 100
    backend: LMDB
  }
}
layer {
  name: "conv1"
  type: "Convolution"
  bottom: "data"
  top: "conv1"
  param {
    lr_mult: 1
    decay_mult: 1
  }
  param {
    lr_mult: 2
    decay_mult: 0
  }
  convolution_param {
    num_output: 96
    kernel_size: 11
    stride: 4
    weight_filler {
      type: "gaussian"
      std: 0.01
    }
    bias_filler {
      type: "constant"
      value: 0
    }
  }
}
layer {
  name: "relu1"
  type: "ReLU"
  bottom: "conv1"
  top: "conv1"
}
layer {
  name: "norm1"
  type: "LRN"
  bottom: "conv1"
  top: "norm1"
  lrn_param {
    local_size: 5
    alpha: 0.0001
    beta: 0.75
  }
}
layer {
  name: "pool1"
  type: "Pooling"
  bottom: "norm1"
  top: "pool1"
  pooling_param {
    pool: MAX
    kernel_size: 3
    stride: 2
  }
}
layer {
  name: "conv2"
  type: "Convolution"
  bottom: "pool1"
  top: "conv2"
  param {
    lr_mult: 1
    decay_mult: 1
  }
  param {
    lr_mult: 2
    decay_mult: 0
  }
  convolution_param {
    num_output: 256
    pad: 2
    kernel_size: 5
    group: 2
    weight_filler {
      type: "gaussian"
      std: 0.01
    }
    bias_filler {
      type: "constant"
      value: 0.1
    }
  }
}
layer {
  name: "relu2"
  type: "ReLU"
  bottom: "conv2"
  top: "conv2"
}
layer {
  name: "norm2"
  type: "LRN"
  bottom: "conv2"
  top: "norm2"
  lrn_param {
    local_size: 5
    alpha: 0.0001
    beta: 0.75
  }
}
layer {
  name: "pool2"
  type: "Pooling"
  bottom: "norm2"
  top: "pool2"
  pooling_param {
    pool: MAX
    kernel_size: 3
    stride: 2
  }
}
layer {
  name: "conv3"
  type: "Convolution"
  bottom: "pool2"
  top: "conv3"
  param {
    lr_mult: 1
    decay_mult: 1
  }
  param {
    lr_mult: 2
    decay_mult: 0
  }
  convolution_param {
    num_output: 384
    pad: 1
    kernel_size: 3
    weight_filler {
      type: "gaussian"
      std: 0.01
    }
    bias_filler {
      type: "constant"
      value: 0
    }
  }
}
layer {
  name: "relu3"
  type: "ReLU"
  bottom: "conv3"
  top: "conv3"
}
layer {
  name: "conv4"
  type: "Convolution"
  bottom: "conv3"
  top: "conv4"
  param {
    lr_mult: 1
    decay_mult: 1
  }
  param {
    lr_mult: 2
    decay_mult: 0
  }
  convolution_param {
    num_output: 384
    pad: 1
    kernel_size: 3
    group: 2
    weight_filler {
      type: "gaussian"
      std: 0.01
    }
    bias_filler {
      type: "constant"
      value: 0.1
    }
  }
}
layer {
  name: "relu4"
  type: "ReLU"
  bottom: "conv4"
  top: "conv4"
}
layer {
  name: "conv5"
  type: "Convolution"
  bottom: "conv4"
  top: "conv5"
  param {
    lr_mult: 1
    decay_mult: 1
  }
  param {
    lr_mult: 2
    decay_mult: 0
  }
  convolution_param {
    num_output: 256
    pad: 1
    kernel_size: 3
    group: 2
    weight_filler {
      type: "gaussian"
      std: 0.01
    }
    bias_filler {
      type: "constant"
      value: 0.1
    }
  }
}
layer {
  name: "relu5"
  type: "ReLU"
  bottom: "conv5"
  top: "conv5"
}
layer {
  name: "pool5"
  type: "Pooling"
  bottom: "conv5"
  top: "pool5"
  pooling_param {
    pool: MAX
    kernel_size: 3
    stride: 2
  }
}
layer {
  name: "fc6"
  type: "InnerProduct"
  bottom: "pool5"
  top: "fc6"
  param {
    lr_mult: 1
    decay_mult: 1
  }
  param {
    lr_mult: 2
    decay_mult: 0
  }
  inner_product_param {
    num_output: 4096
    weight_filler {
      type: "gaussian"
      std: 0.005
    }
    bias_filler {
      type: "constant"
      value: 0.1
    }
  }
}
layer {
  name: "relu6"
  type: "ReLU"
  bottom: "fc6"
  top: "fc6"
}
layer {
  name: "drop6"
  type: "Dropout"
  bottom: "fc6"
  top: "fc6"
  dropout_param {
    dropout_ratio: 0.5
  }
}
layer {
  name: "fc7"
  type: "InnerProduct"
  bottom: "fc6"
  top: "fc7"
  param {
    lr_mult: 1
    decay_mult: 1
  }
  param {
    lr_mult: 2
    decay_mult: 0
  }
  inner_product_param {
    num_output: 4096
    weight_filler {
      type: "gaussian"
      std: 0.005
    }
    bias_filler {
      type: "constant"
      value: 0.1
    }
  }
}
layer {
  name: "relu7"
  type: "ReLU"
  bottom: "fc7"
  top: "fc7"
}
layer {
  name: "drop7"
  type: "Dropout"
  bottom: "fc7"
  top: "fc7"
  dropout_param {
    dropout_ratio: 0.5
  }
}
layer {
  name: "fc8_plantvillage"
  type: "InnerProduct"
  bottom: "fc7"
  top: "fc8_plantvillage"
  param {
    lr_mult: 1
    decay_mult: 1
  }
  param {
    lr_mult: 2
    decay_mult: 0
  }
  inner_product_param {
    num_output: 38
    weight_filler {
      type: "gaussian"
      std: 0.01
    }
    bias_filler {
      type: "constant"
      value: 0
    }
  }
}
layer {
  name: "prob"
  type: "Softmax"
  bottom: "fc8_plantvillage"
  top: "prob"
  include {
    phase: TEST
  }
}
layer {
  name: "hdf5out"
  type: "HDF5Output"
  bottom: "prob"
  bottom: "label"
  include {
    phase: TEST
  }
  hdf5_output_param {
    file_name: "hdf5_dumps/iter_8450.h5"
  }
}
layer {
  name: "loss"
  type: "SoftmaxWithLoss"
  bottom: "fc8_plantvillage"
  bottom: "label"
  top: "loss"
}
layer {
  name: "accuracy"
  type: "Accuracy"
  bottom: "fc8_plantvillage"
  bottom: "label"
  top: "accuracy"
  include {
    phase: TEST
  }
}
I0403 14:44:19.792817 17468 layer_factory.hpp:77] Creating layer data
I0403 14:44:19.793469 17468 net.cpp:91] Creating Layer data
I0403 14:44:19.793503 17468 net.cpp:399] data -> data
I0403 14:44:19.793552 17468 net.cpp:399] data -> label
I0403 14:44:19.793587 17468 data_transformer.cpp:25] Loading mean file from: /home/mohanty/data/final_dataset/lmdb/segmented-60-40/mean.binaryproto
I0403 14:44:19.794733 17471 db_lmdb.cpp:38] Opened lmdb /home/mohanty/data/final_dataset/lmdb/segmented-60-40/test_db
I0403 14:44:19.807670 17468 data_layer.cpp:41] output data size: 100,3,227,227
I0403 14:44:19.940680 17468 net.cpp:141] Setting up data
I0403 14:44:19.940788 17468 net.cpp:148] Top shape: 100 3 227 227 (15458700)
I0403 14:44:19.940812 17468 net.cpp:148] Top shape: 100 (100)
I0403 14:44:19.940829 17468 net.cpp:156] Memory required for data: 61835200
I0403 14:44:19.940857 17468 layer_factory.hpp:77] Creating layer label_data_1_split
I0403 14:44:19.940882 17468 net.cpp:91] Creating Layer label_data_1_split
I0403 14:44:19.940901 17468 net.cpp:425] label_data_1_split <- label
I0403 14:44:19.940933 17468 net.cpp:399] label_data_1_split -> label_data_1_split_0
I0403 14:44:19.940966 17468 net.cpp:399] label_data_1_split -> label_data_1_split_1
I0403 14:44:19.940989 17468 net.cpp:399] label_data_1_split -> label_data_1_split_2
I0403 14:44:19.941053 17468 net.cpp:141] Setting up label_data_1_split
I0403 14:44:19.941087 17468 net.cpp:148] Top shape: 100 (100)
I0403 14:44:19.941104 17468 net.cpp:148] Top shape: 100 (100)
I0403 14:44:19.941120 17468 net.cpp:148] Top shape: 100 (100)
I0403 14:44:19.941133 17468 net.cpp:156] Memory required for data: 61836400
I0403 14:44:19.941148 17468 layer_factory.hpp:77] Creating layer conv1
I0403 14:44:19.941179 17468 net.cpp:91] Creating Layer conv1
I0403 14:44:19.941197 17468 net.cpp:425] conv1 <- data
I0403 14:44:19.941215 17468 net.cpp:399] conv1 -> conv1
I0403 14:44:20.087287 17468 net.cpp:141] Setting up conv1
I0403 14:44:20.087388 17468 net.cpp:148] Top shape: 100 96 55 55 (29040000)
I0403 14:44:20.087405 17468 net.cpp:156] Memory required for data: 177996400
I0403 14:44:20.087435 17468 layer_factory.hpp:77] Creating layer relu1
I0403 14:44:20.087461 17468 net.cpp:91] Creating Layer relu1
I0403 14:44:20.087478 17468 net.cpp:425] relu1 <- conv1
I0403 14:44:20.087497 17468 net.cpp:386] relu1 -> conv1 (in-place)
I0403 14:44:20.087749 17468 net.cpp:141] Setting up relu1
I0403 14:44:20.087776 17468 net.cpp:148] Top shape: 100 96 55 55 (29040000)
I0403 14:44:20.087821 17468 net.cpp:156] Memory required for data: 294156400
I0403 14:44:20.087837 17468 layer_factory.hpp:77] Creating layer norm1
I0403 14:44:20.087864 17468 net.cpp:91] Creating Layer norm1
I0403 14:44:20.087882 17468 net.cpp:425] norm1 <- conv1
I0403 14:44:20.087899 17468 net.cpp:399] norm1 -> norm1
I0403 14:44:20.088220 17468 net.cpp:141] Setting up norm1
I0403 14:44:20.088249 17468 net.cpp:148] Top shape: 100 96 55 55 (29040000)
I0403 14:44:20.088268 17468 net.cpp:156] Memory required for data: 410316400
I0403 14:44:20.088284 17468 layer_factory.hpp:77] Creating layer pool1
I0403 14:44:20.088307 17468 net.cpp:91] Creating Layer pool1
I0403 14:44:20.088326 17468 net.cpp:425] pool1 <- norm1
I0403 14:44:20.088346 17468 net.cpp:399] pool1 -> pool1
I0403 14:44:20.088426 17468 net.cpp:141] Setting up pool1
I0403 14:44:20.088451 17468 net.cpp:148] Top shape: 100 96 27 27 (6998400)
I0403 14:44:20.088467 17468 net.cpp:156] Memory required for data: 438310000
I0403 14:44:20.088484 17468 layer_factory.hpp:77] Creating layer conv2
I0403 14:44:20.088508 17468 net.cpp:91] Creating Layer conv2
I0403 14:44:20.088526 17468 net.cpp:425] conv2 <- pool1
I0403 14:44:20.088543 17468 net.cpp:399] conv2 -> conv2
I0403 14:44:20.103323 17468 net.cpp:141] Setting up conv2
I0403 14:44:20.103376 17468 net.cpp:148] Top shape: 100 256 27 27 (18662400)
I0403 14:44:20.103394 17468 net.cpp:156] Memory required for data: 512959600
I0403 14:44:20.103415 17468 layer_factory.hpp:77] Creating layer relu2
I0403 14:44:20.103435 17468 net.cpp:91] Creating Layer relu2
I0403 14:44:20.103451 17468 net.cpp:425] relu2 <- conv2
I0403 14:44:20.103471 17468 net.cpp:386] relu2 -> conv2 (in-place)
I0403 14:44:20.103751 17468 net.cpp:141] Setting up relu2
I0403 14:44:20.103778 17468 net.cpp:148] Top shape: 100 256 27 27 (18662400)
I0403 14:44:20.103793 17468 net.cpp:156] Memory required for data: 587609200
I0403 14:44:20.103808 17468 layer_factory.hpp:77] Creating layer norm2
I0403 14:44:20.103832 17468 net.cpp:91] Creating Layer norm2
I0403 14:44:20.103848 17468 net.cpp:425] norm2 <- conv2
I0403 14:44:20.103866 17468 net.cpp:399] norm2 -> norm2
I0403 14:44:20.104087 17468 net.cpp:141] Setting up norm2
I0403 14:44:20.104117 17468 net.cpp:148] Top shape: 100 256 27 27 (18662400)
I0403 14:44:20.104135 17468 net.cpp:156] Memory required for data: 662258800
I0403 14:44:20.104149 17468 layer_factory.hpp:77] Creating layer pool2
I0403 14:44:20.104168 17468 net.cpp:91] Creating Layer pool2
I0403 14:44:20.104184 17468 net.cpp:425] pool2 <- norm2
I0403 14:44:20.104205 17468 net.cpp:399] pool2 -> pool2
I0403 14:44:20.104259 17468 net.cpp:141] Setting up pool2
I0403 14:44:20.104284 17468 net.cpp:148] Top shape: 100 256 13 13 (4326400)
I0403 14:44:20.104298 17468 net.cpp:156] Memory required for data: 679564400
I0403 14:44:20.104326 17468 layer_factory.hpp:77] Creating layer conv3
I0403 14:44:20.104349 17468 net.cpp:91] Creating Layer conv3
I0403 14:44:20.104367 17468 net.cpp:425] conv3 <- pool2
I0403 14:44:20.104387 17468 net.cpp:399] conv3 -> conv3
I0403 14:44:20.143218 17468 net.cpp:141] Setting up conv3
I0403 14:44:20.143303 17468 net.cpp:148] Top shape: 100 384 13 13 (6489600)
I0403 14:44:20.143333 17468 net.cpp:156] Memory required for data: 705522800
I0403 14:44:20.143358 17468 layer_factory.hpp:77] Creating layer relu3
I0403 14:44:20.143381 17468 net.cpp:91] Creating Layer relu3
I0403 14:44:20.143399 17468 net.cpp:425] relu3 <- conv3
I0403 14:44:20.143419 17468 net.cpp:386] relu3 -> conv3 (in-place)
I0403 14:44:20.143703 17468 net.cpp:141] Setting up relu3
I0403 14:44:20.143730 17468 net.cpp:148] Top shape: 100 384 13 13 (6489600)
I0403 14:44:20.143746 17468 net.cpp:156] Memory required for data: 731481200
I0403 14:44:20.143762 17468 layer_factory.hpp:77] Creating layer conv4
I0403 14:44:20.143790 17468 net.cpp:91] Creating Layer conv4
I0403 14:44:20.143808 17468 net.cpp:425] conv4 <- conv3
I0403 14:44:20.143831 17468 net.cpp:399] conv4 -> conv4
I0403 14:44:20.173817 17468 net.cpp:141] Setting up conv4
I0403 14:44:20.173902 17468 net.cpp:148] Top shape: 100 384 13 13 (6489600)
I0403 14:44:20.173950 17468 net.cpp:156] Memory required for data: 757439600
I0403 14:44:20.173979 17468 layer_factory.hpp:77] Creating layer relu4
I0403 14:44:20.174005 17468 net.cpp:91] Creating Layer relu4
I0403 14:44:20.174022 17468 net.cpp:425] relu4 <- conv4
I0403 14:44:20.174041 17468 net.cpp:386] relu4 -> conv4 (in-place)
I0403 14:44:20.174340 17468 net.cpp:141] Setting up relu4
I0403 14:44:20.174371 17468 net.cpp:148] Top shape: 100 384 13 13 (6489600)
I0403 14:44:20.174391 17468 net.cpp:156] Memory required for data: 783398000
I0403 14:44:20.174408 17468 layer_factory.hpp:77] Creating layer conv5
I0403 14:44:20.174432 17468 net.cpp:91] Creating Layer conv5
I0403 14:44:20.174448 17468 net.cpp:425] conv5 <- conv4
I0403 14:44:20.174469 17468 net.cpp:399] conv5 -> conv5
I0403 14:44:20.195209 17468 net.cpp:141] Setting up conv5
I0403 14:44:20.195279 17468 net.cpp:148] Top shape: 100 256 13 13 (4326400)
I0403 14:44:20.195297 17468 net.cpp:156] Memory required for data: 800703600
I0403 14:44:20.195334 17468 layer_factory.hpp:77] Creating layer relu5
I0403 14:44:20.195354 17468 net.cpp:91] Creating Layer relu5
I0403 14:44:20.195371 17468 net.cpp:425] relu5 <- conv5
I0403 14:44:20.195391 17468 net.cpp:386] relu5 -> conv5 (in-place)
I0403 14:44:20.195674 17468 net.cpp:141] Setting up relu5
I0403 14:44:20.195705 17468 net.cpp:148] Top shape: 100 256 13 13 (4326400)
I0403 14:44:20.195722 17468 net.cpp:156] Memory required for data: 818009200
I0403 14:44:20.195737 17468 layer_factory.hpp:77] Creating layer pool5
I0403 14:44:20.195760 17468 net.cpp:91] Creating Layer pool5
I0403 14:44:20.195778 17468 net.cpp:425] pool5 <- conv5
I0403 14:44:20.195797 17468 net.cpp:399] pool5 -> pool5
I0403 14:44:20.195858 17468 net.cpp:141] Setting up pool5
I0403 14:44:20.195883 17468 net.cpp:148] Top shape: 100 256 6 6 (921600)
I0403 14:44:20.195899 17468 net.cpp:156] Memory required for data: 821695600
I0403 14:44:20.195914 17468 layer_factory.hpp:77] Creating layer fc6
I0403 14:44:20.195941 17468 net.cpp:91] Creating Layer fc6
I0403 14:44:20.195963 17468 net.cpp:425] fc6 <- pool5
I0403 14:44:20.195987 17468 net.cpp:399] fc6 -> fc6
I0403 14:44:21.768755 17468 net.cpp:141] Setting up fc6
I0403 14:44:21.768853 17468 net.cpp:148] Top shape: 100 4096 (409600)
I0403 14:44:21.768872 17468 net.cpp:156] Memory required for data: 823334000
I0403 14:44:21.768894 17468 layer_factory.hpp:77] Creating layer relu6
I0403 14:44:21.768918 17468 net.cpp:91] Creating Layer relu6
I0403 14:44:21.768935 17468 net.cpp:425] relu6 <- fc6
I0403 14:44:21.768954 17468 net.cpp:386] relu6 -> fc6 (in-place)
I0403 14:44:21.769182 17468 net.cpp:141] Setting up relu6
I0403 14:44:21.769210 17468 net.cpp:148] Top shape: 100 4096 (409600)
I0403 14:44:21.769227 17468 net.cpp:156] Memory required for data: 824972400
I0403 14:44:21.769243 17468 layer_factory.hpp:77] Creating layer drop6
I0403 14:44:21.769261 17468 net.cpp:91] Creating Layer drop6
I0403 14:44:21.769276 17468 net.cpp:425] drop6 <- fc6
I0403 14:44:21.769296 17468 net.cpp:386] drop6 -> fc6 (in-place)
I0403 14:44:21.769351 17468 net.cpp:141] Setting up drop6
I0403 14:44:21.769373 17468 net.cpp:148] Top shape: 100 4096 (409600)
I0403 14:44:21.769388 17468 net.cpp:156] Memory required for data: 826610800
I0403 14:44:21.769402 17468 layer_factory.hpp:77] Creating layer fc7
I0403 14:44:21.769425 17468 net.cpp:91] Creating Layer fc7
I0403 14:44:21.769443 17468 net.cpp:425] fc7 <- fc6
I0403 14:44:21.769462 17468 net.cpp:399] fc7 -> fc7
I0403 14:44:22.459239 17468 net.cpp:141] Setting up fc7
I0403 14:44:22.459328 17468 net.cpp:148] Top shape: 100 4096 (409600)
I0403 14:44:22.459345 17468 net.cpp:156] Memory required for data: 828249200
I0403 14:44:22.459367 17468 layer_factory.hpp:77] Creating layer relu7
I0403 14:44:22.459389 17468 net.cpp:91] Creating Layer relu7
I0403 14:44:22.459408 17468 net.cpp:425] relu7 <- fc7
I0403 14:44:22.459429 17468 net.cpp:386] relu7 -> fc7 (in-place)
I0403 14:44:22.459846 17468 net.cpp:141] Setting up relu7
I0403 14:44:22.459874 17468 net.cpp:148] Top shape: 100 4096 (409600)
I0403 14:44:22.459923 17468 net.cpp:156] Memory required for data: 829887600
I0403 14:44:22.459939 17468 layer_factory.hpp:77] Creating layer drop7
I0403 14:44:22.459957 17468 net.cpp:91] Creating Layer drop7
I0403 14:44:22.459974 17468 net.cpp:425] drop7 <- fc7
I0403 14:44:22.459996 17468 net.cpp:386] drop7 -> fc7 (in-place)
I0403 14:44:22.460046 17468 net.cpp:141] Setting up drop7
I0403 14:44:22.460068 17468 net.cpp:148] Top shape: 100 4096 (409600)
I0403 14:44:22.460083 17468 net.cpp:156] Memory required for data: 831526000
I0403 14:44:22.460098 17468 layer_factory.hpp:77] Creating layer fc8_plantvillage
I0403 14:44:22.460119 17468 net.cpp:91] Creating Layer fc8_plantvillage
I0403 14:44:22.460136 17468 net.cpp:425] fc8_plantvillage <- fc7
I0403 14:44:22.460155 17468 net.cpp:399] fc8_plantvillage -> fc8_plantvillage
I0403 14:44:22.467084 17468 net.cpp:141] Setting up fc8_plantvillage
I0403 14:44:22.467114 17468 net.cpp:148] Top shape: 100 38 (3800)
I0403 14:44:22.467131 17468 net.cpp:156] Memory required for data: 831541200
I0403 14:44:22.467150 17468 layer_factory.hpp:77] Creating layer fc8_plantvillage_fc8_plantvillage_0_split
I0403 14:44:22.467170 17468 net.cpp:91] Creating Layer fc8_plantvillage_fc8_plantvillage_0_split
I0403 14:44:22.467185 17468 net.cpp:425] fc8_plantvillage_fc8_plantvillage_0_split <- fc8_plantvillage
I0403 14:44:22.467206 17468 net.cpp:399] fc8_plantvillage_fc8_plantvillage_0_split -> fc8_plantvillage_fc8_plantvillage_0_split_0
I0403 14:44:22.467227 17468 net.cpp:399] fc8_plantvillage_fc8_plantvillage_0_split -> fc8_plantvillage_fc8_plantvillage_0_split_1
I0403 14:44:22.467248 17468 net.cpp:399] fc8_plantvillage_fc8_plantvillage_0_split -> fc8_plantvillage_fc8_plantvillage_0_split_2
I0403 14:44:22.467327 17468 net.cpp:141] Setting up fc8_plantvillage_fc8_plantvillage_0_split
I0403 14:44:22.467350 17468 net.cpp:148] Top shape: 100 38 (3800)
I0403 14:44:22.467366 17468 net.cpp:148] Top shape: 100 38 (3800)
I0403 14:44:22.467382 17468 net.cpp:148] Top shape: 100 38 (3800)
I0403 14:44:22.467396 17468 net.cpp:156] Memory required for data: 831586800
I0403 14:44:22.467411 17468 layer_factory.hpp:77] Creating layer prob
I0403 14:44:22.467432 17468 net.cpp:91] Creating Layer prob
I0403 14:44:22.467447 17468 net.cpp:425] prob <- fc8_plantvillage_fc8_plantvillage_0_split_0
I0403 14:44:22.467465 17468 net.cpp:399] prob -> prob
I0403 14:44:22.467696 17468 net.cpp:141] Setting up prob
I0403 14:44:22.467725 17468 net.cpp:148] Top shape: 100 38 (3800)
I0403 14:44:22.467741 17468 net.cpp:156] Memory required for data: 831602000
I0403 14:44:22.467756 17468 layer_factory.hpp:77] Creating layer hdf5out
I0403 14:44:22.467777 17468 net.cpp:91] Creating Layer hdf5out
I0403 14:44:22.467792 17468 net.cpp:425] hdf5out <- prob
I0403 14:44:22.467808 17468 net.cpp:425] hdf5out <- label_data_1_split_0
I0403 14:44:22.470064 17468 net.cpp:141] Setting up hdf5out
…
