…
I0403 14:47:13.261806 17544 net.cpp:313] The NetState phase (1) differed from the phase (0) specified by a rule in layer data
I0403 14:47:13.262147 17544 net.cpp:49] Initializing net from parameters: 
state {
  phase: TEST
}
layer {
  name: "data"
  type: "Data"
  top: "data"
  top: "label"
  include {
    phase: TEST
  }
  transform_param {
    crop_size: 227
    mean_file: "/home/mohanty/data/final_dataset/lmdb/segmented-60-40/mean.binaryproto"
  }
  data_param {
    source: "/home/mohanty/data/final_dataset/lmdb/segmented-60-40/test_db"
    batch_size: 100
    backend: LMDB
  }
}
layer {
  name: "conv1"
  type: "Convolution"
  bottom: "data"
  top: "conv1"
  param {
    lr_mult: 1
    decay_mult: 1
  }
  param {
    lr_mult: 2
    decay_mult: 0
  }
  convolution_param {
    num_output: 96
    kernel_size: 11
    stride: 4
    weight_filler {
      type: "gaussian"
      std: 0.01
    }
    bias_filler {
      type: "constant"
      value: 0
    }
  }
}
layer {
  name: "relu1"
  type: "ReLU"
  bottom: "conv1"
  top: "conv1"
}
layer {
  name: "norm1"
  type: "LRN"
  bottom: "conv1"
  top: "norm1"
  lrn_param {
    local_size: 5
    alpha: 0.0001
    beta: 0.75
  }
}
layer {
  name: "pool1"
  type: "Pooling"
  bottom: "norm1"
  top: "pool1"
  pooling_param {
    pool: MAX
    kernel_size: 3
    stride: 2
  }
}
layer {
  name: "conv2"
  type: "Convolution"
  bottom: "pool1"
  top: "conv2"
  param {
    lr_mult: 1
    decay_mult: 1
  }
  param {
    lr_mult: 2
    decay_mult: 0
  }
  convolution_param {
    num_output: 256
    pad: 2
    kernel_size: 5
    group: 2
    weight_filler {
      type: "gaussian"
      std: 0.01
    }
    bias_filler {
      type: "constant"
      value: 0.1
    }
  }
}
layer {
  name: "relu2"
  type: "ReLU"
  bottom: "conv2"
  top: "conv2"
}
layer {
  name: "norm2"
  type: "LRN"
  bottom: "conv2"
  top: "norm2"
  lrn_param {
    local_size: 5
    alpha: 0.0001
    beta: 0.75
  }
}
layer {
  name: "pool2"
  type: "Pooling"
  bottom: "norm2"
  top: "pool2"
  pooling_param {
    pool: MAX
    kernel_size: 3
    stride: 2
  }
}
layer {
  name: "conv3"
  type: "Convolution"
  bottom: "pool2"
  top: "conv3"
  param {
    lr_mult: 1
    decay_mult: 1
  }
  param {
    lr_mult: 2
    decay_mult: 0
  }
  convolution_param {
    num_output: 384
    pad: 1
    kernel_size: 3
    weight_filler {
      type: "gaussian"
      std: 0.01
    }
    bias_filler {
      type: "constant"
      value: 0
    }
  }
}
layer {
  name: "relu3"
  type: "ReLU"
  bottom: "conv3"
  top: "conv3"
}
layer {
  name: "conv4"
  type: "Convolution"
  bottom: "conv3"
  top: "conv4"
  param {
    lr_mult: 1
    decay_mult: 1
  }
  param {
    lr_mult: 2
    decay_mult: 0
  }
  convolution_param {
    num_output: 384
    pad: 1
    kernel_size: 3
    group: 2
    weight_filler {
      type: "gaussian"
      std: 0.01
    }
    bias_filler {
      type: "constant"
      value: 0.1
    }
  }
}
layer {
  name: "relu4"
  type: "ReLU"
  bottom: "conv4"
  top: "conv4"
}
layer {
  name: "conv5"
  type: "Convolution"
  bottom: "conv4"
  top: "conv5"
  param {
    lr_mult: 1
    decay_mult: 1
  }
  param {
    lr_mult: 2
    decay_mult: 0
  }
  convolution_param {
    num_output: 256
    pad: 1
    kernel_size: 3
    group: 2
    weight_filler {
      type: "gaussian"
      std: 0.01
    }
    bias_filler {
      type: "constant"
      value: 0.1
    }
  }
}
layer {
  name: "relu5"
  type: "ReLU"
  bottom: "conv5"
  top: "conv5"
}
layer {
  name: "pool5"
  type: "Pooling"
  bottom: "conv5"
  top: "pool5"
  pooling_param {
    pool: MAX
    kernel_size: 3
    stride: 2
  }
}
layer {
  name: "fc6"
  type: "InnerProduct"
  bottom: "pool5"
  top: "fc6"
  param {
    lr_mult: 1
    decay_mult: 1
  }
  param {
    lr_mult: 2
    decay_mult: 0
  }
  inner_product_param {
    num_output: 4096
    weight_filler {
      type: "gaussian"
      std: 0.005
    }
    bias_filler {
      type: "constant"
      value: 0.1
    }
  }
}
layer {
  name: "relu6"
  type: "ReLU"
  bottom: "fc6"
  top: "fc6"
}
layer {
  name: "drop6"
  type: "Dropout"
  bottom: "fc6"
  top: "fc6"
  dropout_param {
    dropout_ratio: 0.5
  }
}
layer {
  name: "fc7"
  type: "InnerProduct"
  bottom: "fc6"
  top: "fc7"
  param {
    lr_mult: 1
    decay_mult: 1
  }
  param {
    lr_mult: 2
    decay_mult: 0
  }
  inner_product_param {
    num_output: 4096
    weight_filler {
      type: "gaussian"
      std: 0.005
    }
    bias_filler {
      type: "constant"
      value: 0.1
    }
  }
}
layer {
  name: "relu7"
  type: "ReLU"
  bottom: "fc7"
  top: "fc7"
}
layer {
  name: "drop7"
  type: "Dropout"
  bottom: "fc7"
  top: "fc7"
  dropout_param {
    dropout_ratio: 0.5
  }
}
layer {
  name: "fc8_plantvillage"
  type: "InnerProduct"
  bottom: "fc7"
  top: "fc8_plantvillage"
  param {
    lr_mult: 1
    decay_mult: 1
  }
  param {
    lr_mult: 2
    decay_mult: 0
  }
  inner_product_param {
    num_output: 38
    weight_filler {
      type: "gaussian"
      std: 0.01
    }
    bias_filler {
      type: "constant"
      value: 0
    }
  }
}
layer {
  name: "prob"
  type: "Softmax"
  bottom: "fc8_plantvillage"
  top: "prob"
  include {
    phase: TEST
  }
}
layer {
  name: "hdf5out"
  type: "HDF5Output"
  bottom: "prob"
  bottom: "label"
  include {
    phase: TEST
  }
  hdf5_output_param {
    file_name: "hdf5_dumps/iter_9750.h5"
  }
}
layer {
  name: "loss"
  type: "SoftmaxWithLoss"
  bottom: "fc8_plantvillage"
  bottom: "label"
  top: "loss"
}
layer {
  name: "accuracy"
  type: "Accuracy"
  bottom: "fc8_plantvillage"
  bottom: "label"
  top: "accuracy"
  include {
    phase: TEST
  }
}
I0403 14:47:13.262734 17544 layer_factory.hpp:77] Creating layer data
I0403 14:47:13.263392 17544 net.cpp:91] Creating Layer data
I0403 14:47:13.263423 17544 net.cpp:399] data -> data
I0403 14:47:13.263474 17544 net.cpp:399] data -> label
I0403 14:47:13.263510 17544 data_transformer.cpp:25] Loading mean file from: /home/mohanty/data/final_dataset/lmdb/segmented-60-40/mean.binaryproto
I0403 14:47:13.264659 17548 db_lmdb.cpp:38] Opened lmdb /home/mohanty/data/final_dataset/lmdb/segmented-60-40/test_db
I0403 14:47:13.277905 17544 data_layer.cpp:41] output data size: 100,3,227,227
I0403 14:47:13.413558 17544 net.cpp:141] Setting up data
I0403 14:47:13.413663 17544 net.cpp:148] Top shape: 100 3 227 227 (15458700)
I0403 14:47:13.413687 17544 net.cpp:148] Top shape: 100 (100)
I0403 14:47:13.413702 17544 net.cpp:156] Memory required for data: 61835200
I0403 14:47:13.413733 17544 layer_factory.hpp:77] Creating layer label_data_1_split
I0403 14:47:13.413758 17544 net.cpp:91] Creating Layer label_data_1_split
I0403 14:47:13.413777 17544 net.cpp:425] label_data_1_split <- label
I0403 14:47:13.413808 17544 net.cpp:399] label_data_1_split -> label_data_1_split_0
I0403 14:47:13.413836 17544 net.cpp:399] label_data_1_split -> label_data_1_split_1
I0403 14:47:13.413857 17544 net.cpp:399] label_data_1_split -> label_data_1_split_2
I0403 14:47:13.413923 17544 net.cpp:141] Setting up label_data_1_split
I0403 14:47:13.413946 17544 net.cpp:148] Top shape: 100 (100)
I0403 14:47:13.413975 17544 net.cpp:148] Top shape: 100 (100)
I0403 14:47:13.413992 17544 net.cpp:148] Top shape: 100 (100)
I0403 14:47:13.414006 17544 net.cpp:156] Memory required for data: 61836400
I0403 14:47:13.414021 17544 layer_factory.hpp:77] Creating layer conv1
I0403 14:47:13.414054 17544 net.cpp:91] Creating Layer conv1
I0403 14:47:13.414073 17544 net.cpp:425] conv1 <- data
I0403 14:47:13.414093 17544 net.cpp:399] conv1 -> conv1
I0403 14:47:13.564360 17544 net.cpp:141] Setting up conv1
I0403 14:47:13.564452 17544 net.cpp:148] Top shape: 100 96 55 55 (29040000)
I0403 14:47:13.564470 17544 net.cpp:156] Memory required for data: 177996400
I0403 14:47:13.564502 17544 layer_factory.hpp:77] Creating layer relu1
I0403 14:47:13.564529 17544 net.cpp:91] Creating Layer relu1
I0403 14:47:13.564549 17544 net.cpp:425] relu1 <- conv1
I0403 14:47:13.564568 17544 net.cpp:386] relu1 -> conv1 (in-place)
I0403 14:47:13.564837 17544 net.cpp:141] Setting up relu1
I0403 14:47:13.564865 17544 net.cpp:148] Top shape: 100 96 55 55 (29040000)
I0403 14:47:13.564914 17544 net.cpp:156] Memory required for data: 294156400
I0403 14:47:13.564932 17544 layer_factory.hpp:77] Creating layer norm1
I0403 14:47:13.564965 17544 net.cpp:91] Creating Layer norm1
I0403 14:47:13.564985 17544 net.cpp:425] norm1 <- conv1
I0403 14:47:13.565006 17544 net.cpp:399] norm1 -> norm1
I0403 14:47:13.565351 17544 net.cpp:141] Setting up norm1
I0403 14:47:13.565379 17544 net.cpp:148] Top shape: 100 96 55 55 (29040000)
I0403 14:47:13.565395 17544 net.cpp:156] Memory required for data: 410316400
I0403 14:47:13.565410 17544 layer_factory.hpp:77] Creating layer pool1
I0403 14:47:13.565434 17544 net.cpp:91] Creating Layer pool1
I0403 14:47:13.565451 17544 net.cpp:425] pool1 <- norm1
I0403 14:47:13.565470 17544 net.cpp:399] pool1 -> pool1
I0403 14:47:13.565541 17544 net.cpp:141] Setting up pool1
I0403 14:47:13.565567 17544 net.cpp:148] Top shape: 100 96 27 27 (6998400)
I0403 14:47:13.565582 17544 net.cpp:156] Memory required for data: 438310000
I0403 14:47:13.565596 17544 layer_factory.hpp:77] Creating layer conv2
I0403 14:47:13.565621 17544 net.cpp:91] Creating Layer conv2
I0403 14:47:13.565639 17544 net.cpp:425] conv2 <- pool1
I0403 14:47:13.565657 17544 net.cpp:399] conv2 -> conv2
I0403 14:47:13.581130 17544 net.cpp:141] Setting up conv2
I0403 14:47:13.581185 17544 net.cpp:148] Top shape: 100 256 27 27 (18662400)
I0403 14:47:13.581203 17544 net.cpp:156] Memory required for data: 512959600
I0403 14:47:13.581228 17544 layer_factory.hpp:77] Creating layer relu2
I0403 14:47:13.581248 17544 net.cpp:91] Creating Layer relu2
I0403 14:47:13.581264 17544 net.cpp:425] relu2 <- conv2
I0403 14:47:13.581282 17544 net.cpp:386] relu2 -> conv2 (in-place)
I0403 14:47:13.581563 17544 net.cpp:141] Setting up relu2
I0403 14:47:13.581591 17544 net.cpp:148] Top shape: 100 256 27 27 (18662400)
I0403 14:47:13.581607 17544 net.cpp:156] Memory required for data: 587609200
I0403 14:47:13.581624 17544 layer_factory.hpp:77] Creating layer norm2
I0403 14:47:13.581645 17544 net.cpp:91] Creating Layer norm2
I0403 14:47:13.581662 17544 net.cpp:425] norm2 <- conv2
I0403 14:47:13.581681 17544 net.cpp:399] norm2 -> norm2
I0403 14:47:13.581873 17544 net.cpp:141] Setting up norm2
I0403 14:47:13.581899 17544 net.cpp:148] Top shape: 100 256 27 27 (18662400)
I0403 14:47:13.581914 17544 net.cpp:156] Memory required for data: 662258800
I0403 14:47:13.581930 17544 layer_factory.hpp:77] Creating layer pool2
I0403 14:47:13.581949 17544 net.cpp:91] Creating Layer pool2
I0403 14:47:13.581972 17544 net.cpp:425] pool2 <- norm2
I0403 14:47:13.581991 17544 net.cpp:399] pool2 -> pool2
I0403 14:47:13.582042 17544 net.cpp:141] Setting up pool2
I0403 14:47:13.582067 17544 net.cpp:148] Top shape: 100 256 13 13 (4326400)
I0403 14:47:13.582082 17544 net.cpp:156] Memory required for data: 679564400
I0403 14:47:13.582096 17544 layer_factory.hpp:77] Creating layer conv3
I0403 14:47:13.582152 17544 net.cpp:91] Creating Layer conv3
I0403 14:47:13.582175 17544 net.cpp:425] conv3 <- pool2
I0403 14:47:13.582193 17544 net.cpp:399] conv3 -> conv3
I0403 14:47:13.622077 17544 net.cpp:141] Setting up conv3
I0403 14:47:13.622158 17544 net.cpp:148] Top shape: 100 384 13 13 (6489600)
I0403 14:47:13.622175 17544 net.cpp:156] Memory required for data: 705522800
I0403 14:47:13.622201 17544 layer_factory.hpp:77] Creating layer relu3
I0403 14:47:13.622225 17544 net.cpp:91] Creating Layer relu3
I0403 14:47:13.622242 17544 net.cpp:425] relu3 <- conv3
I0403 14:47:13.622262 17544 net.cpp:386] relu3 -> conv3 (in-place)
I0403 14:47:13.622555 17544 net.cpp:141] Setting up relu3
I0403 14:47:13.622582 17544 net.cpp:148] Top shape: 100 384 13 13 (6489600)
I0403 14:47:13.622598 17544 net.cpp:156] Memory required for data: 731481200
I0403 14:47:13.622616 17544 layer_factory.hpp:77] Creating layer conv4
I0403 14:47:13.622686 17544 net.cpp:91] Creating Layer conv4
I0403 14:47:13.622709 17544 net.cpp:425] conv4 <- conv3
I0403 14:47:13.622732 17544 net.cpp:399] conv4 -> conv4
I0403 14:47:13.654196 17544 net.cpp:141] Setting up conv4
I0403 14:47:13.654280 17544 net.cpp:148] Top shape: 100 384 13 13 (6489600)
I0403 14:47:13.654330 17544 net.cpp:156] Memory required for data: 757439600
I0403 14:47:13.654353 17544 layer_factory.hpp:77] Creating layer relu4
I0403 14:47:13.654376 17544 net.cpp:91] Creating Layer relu4
I0403 14:47:13.654394 17544 net.cpp:425] relu4 <- conv4
I0403 14:47:13.654417 17544 net.cpp:386] relu4 -> conv4 (in-place)
I0403 14:47:13.654712 17544 net.cpp:141] Setting up relu4
I0403 14:47:13.654742 17544 net.cpp:148] Top shape: 100 384 13 13 (6489600)
I0403 14:47:13.654758 17544 net.cpp:156] Memory required for data: 783398000
I0403 14:47:13.654774 17544 layer_factory.hpp:77] Creating layer conv5
I0403 14:47:13.654803 17544 net.cpp:91] Creating Layer conv5
I0403 14:47:13.654821 17544 net.cpp:425] conv5 <- conv4
I0403 14:47:13.654840 17544 net.cpp:399] conv5 -> conv5
I0403 14:47:13.676581 17544 net.cpp:141] Setting up conv5
I0403 14:47:13.676648 17544 net.cpp:148] Top shape: 100 256 13 13 (4326400)
I0403 14:47:13.676666 17544 net.cpp:156] Memory required for data: 800703600
I0403 14:47:13.676692 17544 layer_factory.hpp:77] Creating layer relu5
I0403 14:47:13.676713 17544 net.cpp:91] Creating Layer relu5
I0403 14:47:13.676730 17544 net.cpp:425] relu5 <- conv5
I0403 14:47:13.676751 17544 net.cpp:386] relu5 -> conv5 (in-place)
I0403 14:47:13.677058 17544 net.cpp:141] Setting up relu5
I0403 14:47:13.677085 17544 net.cpp:148] Top shape: 100 256 13 13 (4326400)
I0403 14:47:13.677101 17544 net.cpp:156] Memory required for data: 818009200
I0403 14:47:13.677116 17544 layer_factory.hpp:77] Creating layer pool5
I0403 14:47:13.677141 17544 net.cpp:91] Creating Layer pool5
I0403 14:47:13.677158 17544 net.cpp:425] pool5 <- conv5
I0403 14:47:13.677177 17544 net.cpp:399] pool5 -> pool5
I0403 14:47:13.677243 17544 net.cpp:141] Setting up pool5
I0403 14:47:13.677268 17544 net.cpp:148] Top shape: 100 256 6 6 (921600)
I0403 14:47:13.677283 17544 net.cpp:156] Memory required for data: 821695600
I0403 14:47:13.677297 17544 layer_factory.hpp:77] Creating layer fc6
I0403 14:47:13.677325 17544 net.cpp:91] Creating Layer fc6
I0403 14:47:13.677342 17544 net.cpp:425] fc6 <- pool5
I0403 14:47:13.677364 17544 net.cpp:399] fc6 -> fc6
I0403 14:47:15.246624 17544 net.cpp:141] Setting up fc6
I0403 14:47:15.246716 17544 net.cpp:148] Top shape: 100 4096 (409600)
I0403 14:47:15.246731 17544 net.cpp:156] Memory required for data: 823334000
I0403 14:47:15.246752 17544 layer_factory.hpp:77] Creating layer relu6
I0403 14:47:15.246778 17544 net.cpp:91] Creating Layer relu6
I0403 14:47:15.246794 17544 net.cpp:425] relu6 <- fc6
I0403 14:47:15.246812 17544 net.cpp:386] relu6 -> fc6 (in-place)
I0403 14:47:15.247036 17544 net.cpp:141] Setting up relu6
I0403 14:47:15.247061 17544 net.cpp:148] Top shape: 100 4096 (409600)
I0403 14:47:15.247076 17544 net.cpp:156] Memory required for data: 824972400
I0403 14:47:15.247089 17544 layer_factory.hpp:77] Creating layer drop6
I0403 14:47:15.247108 17544 net.cpp:91] Creating Layer drop6
I0403 14:47:15.247123 17544 net.cpp:425] drop6 <- fc6
I0403 14:47:15.247145 17544 net.cpp:386] drop6 -> fc6 (in-place)
I0403 14:47:15.247195 17544 net.cpp:141] Setting up drop6
I0403 14:47:15.247221 17544 net.cpp:148] Top shape: 100 4096 (409600)
I0403 14:47:15.247236 17544 net.cpp:156] Memory required for data: 826610800
I0403 14:47:15.247251 17544 layer_factory.hpp:77] Creating layer fc7
I0403 14:47:15.247269 17544 net.cpp:91] Creating Layer fc7
I0403 14:47:15.247284 17544 net.cpp:425] fc7 <- fc6
I0403 14:47:15.247305 17544 net.cpp:399] fc7 -> fc7
I0403 14:47:15.936058 17544 net.cpp:141] Setting up fc7
I0403 14:47:15.936143 17544 net.cpp:148] Top shape: 100 4096 (409600)
I0403 14:47:15.936159 17544 net.cpp:156] Memory required for data: 828249200
I0403 14:47:15.936179 17544 layer_factory.hpp:77] Creating layer relu7
I0403 14:47:15.936202 17544 net.cpp:91] Creating Layer relu7
I0403 14:47:15.936218 17544 net.cpp:425] relu7 <- fc7
I0403 14:47:15.936240 17544 net.cpp:386] relu7 -> fc7 (in-place)
I0403 14:47:15.936645 17544 net.cpp:141] Setting up relu7
I0403 14:47:15.936671 17544 net.cpp:148] Top shape: 100 4096 (409600)
I0403 14:47:15.936718 17544 net.cpp:156] Memory required for data: 829887600
I0403 14:47:15.936734 17544 layer_factory.hpp:77] Creating layer drop7
I0403 14:47:15.936753 17544 net.cpp:91] Creating Layer drop7
I0403 14:47:15.936767 17544 net.cpp:425] drop7 <- fc7
I0403 14:47:15.936790 17544 net.cpp:386] drop7 -> fc7 (in-place)
I0403 14:47:15.936833 17544 net.cpp:141] Setting up drop7
I0403 14:47:15.936856 17544 net.cpp:148] Top shape: 100 4096 (409600)
I0403 14:47:15.936868 17544 net.cpp:156] Memory required for data: 831526000
I0403 14:47:15.936882 17544 layer_factory.hpp:77] Creating layer fc8_plantvillage
I0403 14:47:15.936903 17544 net.cpp:91] Creating Layer fc8_plantvillage
I0403 14:47:15.936919 17544 net.cpp:425] fc8_plantvillage <- fc7
I0403 14:47:15.936939 17544 net.cpp:399] fc8_plantvillage -> fc8_plantvillage
I0403 14:47:15.943689 17544 net.cpp:141] Setting up fc8_plantvillage
I0403 14:47:15.943718 17544 net.cpp:148] Top shape: 100 38 (3800)
I0403 14:47:15.943733 17544 net.cpp:156] Memory required for data: 831541200
I0403 14:47:15.943752 17544 layer_factory.hpp:77] Creating layer fc8_plantvillage_fc8_plantvillage_0_split
I0403 14:47:15.943769 17544 net.cpp:91] Creating Layer fc8_plantvillage_fc8_plantvillage_0_split
I0403 14:47:15.943784 17544 net.cpp:425] fc8_plantvillage_fc8_plantvillage_0_split <- fc8_plantvillage
I0403 14:47:15.943804 17544 net.cpp:399] fc8_plantvillage_fc8_plantvillage_0_split -> fc8_plantvillage_fc8_plantvillage_0_split_0
I0403 14:47:15.943825 17544 net.cpp:399] fc8_plantvillage_fc8_plantvillage_0_split -> fc8_plantvillage_fc8_plantvillage_0_split_1
I0403 14:47:15.943843 17544 net.cpp:399] fc8_plantvillage_fc8_plantvillage_0_split -> fc8_plantvillage_fc8_plantvillage_0_split_2
I0403 14:47:15.943918 17544 net.cpp:141] Setting up fc8_plantvillage_fc8_plantvillage_0_split
I0403 14:47:15.943943 17544 net.cpp:148] Top shape: 100 38 (3800)
I0403 14:47:15.943964 17544 net.cpp:148] Top shape: 100 38 (3800)
I0403 14:47:15.943980 17544 net.cpp:148] Top shape: 100 38 (3800)
I0403 14:47:15.943994 17544 net.cpp:156] Memory required for data: 831586800
I0403 14:47:15.944006 17544 layer_factory.hpp:77] Creating layer prob
I0403 14:47:15.944025 17544 net.cpp:91] Creating Layer prob
I0403 14:47:15.944039 17544 net.cpp:425] prob <- fc8_plantvillage_fc8_plantvillage_0_split_0
I0403 14:47:15.944059 17544 net.cpp:399] prob -> prob
I0403 14:47:15.944283 17544 net.cpp:141] Setting up prob
I0403 14:47:15.944311 17544 net.cpp:148] Top shape: 100 38 (3800)
I0403 14:47:15.944326 17544 net.cpp:156] Memory required for data: 831602000
I0403 14:47:15.944340 17544 layer_factory.hpp:77] Creating layer hdf5out
I0403 14:47:15.944358 17544 net.cpp:91] Creating Layer hdf5out
I0403 14:47:15.944373 17544 net.cpp:425] hdf5out <- prob
I0403 14:47:15.944389 17544 net.cpp:425] hdf5out <- label_data_1_split_0
I0403 14:47:15.947031 17544 net.cpp:141] Setting up hdf5out
…
