…
I0403 14:32:48.311331 17120 net.cpp:313] The NetState phase (1) differed from the phase (0) specified by a rule in layer data
I0403 14:32:48.311648 17120 net.cpp:49] Initializing net from parameters: 
state {
  phase: TEST
}
layer {
  name: "data"
  type: "Data"
  top: "data"
  top: "label"
  include {
    phase: TEST
  }
  transform_param {
    crop_size: 227
    mean_file: "/home/mohanty/data/final_dataset/lmdb/segmented-60-40/mean.binaryproto"
  }
  data_param {
    source: "/home/mohanty/data/final_dataset/lmdb/segmented-60-40/test_db"
    batch_size: 100
    backend: LMDB
  }
}
layer {
  name: "conv1"
  type: "Convolution"
  bottom: "data"
  top: "conv1"
  param {
    lr_mult: 1
    decay_mult: 1
  }
  param {
    lr_mult: 2
    decay_mult: 0
  }
  convolution_param {
    num_output: 96
    kernel_size: 11
    stride: 4
    weight_filler {
      type: "gaussian"
      std: 0.01
    }
    bias_filler {
      type: "constant"
      value: 0
    }
  }
}
layer {
  name: "relu1"
  type: "ReLU"
  bottom: "conv1"
  top: "conv1"
}
layer {
  name: "norm1"
  type: "LRN"
  bottom: "conv1"
  top: "norm1"
  lrn_param {
    local_size: 5
    alpha: 0.0001
    beta: 0.75
  }
}
layer {
  name: "pool1"
  type: "Pooling"
  bottom: "norm1"
  top: "pool1"
  pooling_param {
    pool: MAX
    kernel_size: 3
    stride: 2
  }
}
layer {
  name: "conv2"
  type: "Convolution"
  bottom: "pool1"
  top: "conv2"
  param {
    lr_mult: 1
    decay_mult: 1
  }
  param {
    lr_mult: 2
    decay_mult: 0
  }
  convolution_param {
    num_output: 256
    pad: 2
    kernel_size: 5
    group: 2
    weight_filler {
      type: "gaussian"
      std: 0.01
    }
    bias_filler {
      type: "constant"
      value: 0.1
    }
  }
}
layer {
  name: "relu2"
  type: "ReLU"
  bottom: "conv2"
  top: "conv2"
}
layer {
  name: "norm2"
  type: "LRN"
  bottom: "conv2"
  top: "norm2"
  lrn_param {
    local_size: 5
    alpha: 0.0001
    beta: 0.75
  }
}
layer {
  name: "pool2"
  type: "Pooling"
  bottom: "norm2"
  top: "pool2"
  pooling_param {
    pool: MAX
    kernel_size: 3
    stride: 2
  }
}
layer {
  name: "conv3"
  type: "Convolution"
  bottom: "pool2"
  top: "conv3"
  param {
    lr_mult: 1
    decay_mult: 1
  }
  param {
    lr_mult: 2
    decay_mult: 0
  }
  convolution_param {
    num_output: 384
    pad: 1
    kernel_size: 3
    weight_filler {
      type: "gaussian"
      std: 0.01
    }
    bias_filler {
      type: "constant"
      value: 0
    }
  }
}
layer {
  name: "relu3"
  type: "ReLU"
  bottom: "conv3"
  top: "conv3"
}
layer {
  name: "conv4"
  type: "Convolution"
  bottom: "conv3"
  top: "conv4"
  param {
    lr_mult: 1
    decay_mult: 1
  }
  param {
    lr_mult: 2
    decay_mult: 0
  }
  convolution_param {
    num_output: 384
    pad: 1
    kernel_size: 3
    group: 2
    weight_filler {
      type: "gaussian"
      std: 0.01
    }
    bias_filler {
      type: "constant"
      value: 0.1
    }
  }
}
layer {
  name: "relu4"
  type: "ReLU"
  bottom: "conv4"
  top: "conv4"
}
layer {
  name: "conv5"
  type: "Convolution"
  bottom: "conv4"
  top: "conv5"
  param {
    lr_mult: 1
    decay_mult: 1
  }
  param {
    lr_mult: 2
    decay_mult: 0
  }
  convolution_param {
    num_output: 256
    pad: 1
    kernel_size: 3
    group: 2
    weight_filler {
      type: "gaussian"
      std: 0.01
    }
    bias_filler {
      type: "constant"
      value: 0.1
    }
  }
}
layer {
  name: "relu5"
  type: "ReLU"
  bottom: "conv5"
  top: "conv5"
}
layer {
  name: "pool5"
  type: "Pooling"
  bottom: "conv5"
  top: "pool5"
  pooling_param {
    pool: MAX
    kernel_size: 3
    stride: 2
  }
}
layer {
  name: "fc6"
  type: "InnerProduct"
  bottom: "pool5"
  top: "fc6"
  param {
    lr_mult: 1
    decay_mult: 1
  }
  param {
    lr_mult: 2
    decay_mult: 0
  }
  inner_product_param {
    num_output: 4096
    weight_filler {
      type: "gaussian"
      std: 0.005
    }
    bias_filler {
      type: "constant"
      value: 0.1
    }
  }
}
layer {
  name: "relu6"
  type: "ReLU"
  bottom: "fc6"
  top: "fc6"
}
layer {
  name: "drop6"
  type: "Dropout"
  bottom: "fc6"
  top: "fc6"
  dropout_param {
    dropout_ratio: 0.5
  }
}
layer {
  name: "fc7"
  type: "InnerProduct"
  bottom: "fc6"
  top: "fc7"
  param {
    lr_mult: 1
    decay_mult: 1
  }
  param {
    lr_mult: 2
    decay_mult: 0
  }
  inner_product_param {
    num_output: 4096
    weight_filler {
      type: "gaussian"
      std: 0.005
    }
    bias_filler {
      type: "constant"
      value: 0.1
    }
  }
}
layer {
  name: "relu7"
  type: "ReLU"
  bottom: "fc7"
  top: "fc7"
}
layer {
  name: "drop7"
  type: "Dropout"
  bottom: "fc7"
  top: "fc7"
  dropout_param {
    dropout_ratio: 0.5
  }
}
layer {
  name: "fc8_plantvillage"
  type: "InnerProduct"
  bottom: "fc7"
  top: "fc8_plantvillage"
  param {
    lr_mult: 1
    decay_mult: 1
  }
  param {
    lr_mult: 2
    decay_mult: 0
  }
  inner_product_param {
    num_output: 38
    weight_filler {
      type: "gaussian"
      std: 0.01
    }
    bias_filler {
      type: "constant"
      value: 0
    }
  }
}
layer {
  name: "prob"
  type: "Softmax"
  bottom: "fc8_plantvillage"
  top: "prob"
  include {
    phase: TEST
  }
}
layer {
  name: "hdf5out"
  type: "HDF5Output"
  bottom: "prob"
  bottom: "label"
  include {
    phase: TEST
  }
  hdf5_output_param {
    file_name: "hdf5_dumps/iter_3250.h5"
  }
}
layer {
  name: "loss"
  type: "SoftmaxWithLoss"
  bottom: "fc8_plantvillage"
  bottom: "label"
  top: "loss"
}
layer {
  name: "accuracy"
  type: "Accuracy"
  bottom: "fc8_plantvillage"
  bottom: "label"
  top: "accuracy"
  include {
    phase: TEST
  }
}
I0403 14:32:48.312230 17120 layer_factory.hpp:77] Creating layer data
I0403 14:32:48.312886 17120 net.cpp:91] Creating Layer data
I0403 14:32:48.312917 17120 net.cpp:399] data -> data
I0403 14:32:48.312973 17120 net.cpp:399] data -> label
I0403 14:32:48.313014 17120 data_transformer.cpp:25] Loading mean file from: /home/mohanty/data/final_dataset/lmdb/segmented-60-40/mean.binaryproto
I0403 14:32:48.314128 17123 db_lmdb.cpp:38] Opened lmdb /home/mohanty/data/final_dataset/lmdb/segmented-60-40/test_db
I0403 14:32:48.327656 17120 data_layer.cpp:41] output data size: 100,3,227,227
I0403 14:32:48.462831 17120 net.cpp:141] Setting up data
I0403 14:32:48.462900 17120 net.cpp:148] Top shape: 100 3 227 227 (15458700)
I0403 14:32:48.462923 17120 net.cpp:148] Top shape: 100 (100)
I0403 14:32:48.462936 17120 net.cpp:156] Memory required for data: 61835200
I0403 14:32:48.462967 17120 layer_factory.hpp:77] Creating layer label_data_1_split
I0403 14:32:48.462995 17120 net.cpp:91] Creating Layer label_data_1_split
I0403 14:32:48.463012 17120 net.cpp:425] label_data_1_split <- label
I0403 14:32:48.463057 17120 net.cpp:399] label_data_1_split -> label_data_1_split_0
I0403 14:32:48.463084 17120 net.cpp:399] label_data_1_split -> label_data_1_split_1
I0403 14:32:48.463104 17120 net.cpp:399] label_data_1_split -> label_data_1_split_2
I0403 14:32:48.463166 17120 net.cpp:141] Setting up label_data_1_split
I0403 14:32:48.463189 17120 net.cpp:148] Top shape: 100 (100)
I0403 14:32:48.463207 17120 net.cpp:148] Top shape: 100 (100)
I0403 14:32:48.463222 17120 net.cpp:148] Top shape: 100 (100)
I0403 14:32:48.463235 17120 net.cpp:156] Memory required for data: 61836400
I0403 14:32:48.463249 17120 layer_factory.hpp:77] Creating layer conv1
I0403 14:32:48.463281 17120 net.cpp:91] Creating Layer conv1
I0403 14:32:48.463299 17120 net.cpp:425] conv1 <- data
I0403 14:32:48.463317 17120 net.cpp:399] conv1 -> conv1
I0403 14:32:48.613858 17120 net.cpp:141] Setting up conv1
I0403 14:32:48.613947 17120 net.cpp:148] Top shape: 100 96 55 55 (29040000)
I0403 14:32:48.613970 17120 net.cpp:156] Memory required for data: 177996400
I0403 14:32:48.614001 17120 layer_factory.hpp:77] Creating layer relu1
I0403 14:32:48.614029 17120 net.cpp:91] Creating Layer relu1
I0403 14:32:48.614048 17120 net.cpp:425] relu1 <- conv1
I0403 14:32:48.614066 17120 net.cpp:386] relu1 -> conv1 (in-place)
I0403 14:32:48.614341 17120 net.cpp:141] Setting up relu1
I0403 14:32:48.614367 17120 net.cpp:148] Top shape: 100 96 55 55 (29040000)
I0403 14:32:48.614415 17120 net.cpp:156] Memory required for data: 294156400
I0403 14:32:48.614433 17120 layer_factory.hpp:77] Creating layer norm1
I0403 14:32:48.614462 17120 net.cpp:91] Creating Layer norm1
I0403 14:32:48.614480 17120 net.cpp:425] norm1 <- conv1
I0403 14:32:48.614542 17120 net.cpp:399] norm1 -> norm1
I0403 14:32:48.614878 17120 net.cpp:141] Setting up norm1
I0403 14:32:48.614907 17120 net.cpp:148] Top shape: 100 96 55 55 (29040000)
I0403 14:32:48.614923 17120 net.cpp:156] Memory required for data: 410316400
I0403 14:32:48.614936 17120 layer_factory.hpp:77] Creating layer pool1
I0403 14:32:48.614969 17120 net.cpp:91] Creating Layer pool1
I0403 14:32:48.614987 17120 net.cpp:425] pool1 <- norm1
I0403 14:32:48.615005 17120 net.cpp:399] pool1 -> pool1
I0403 14:32:48.615088 17120 net.cpp:141] Setting up pool1
I0403 14:32:48.615113 17120 net.cpp:148] Top shape: 100 96 27 27 (6998400)
I0403 14:32:48.615128 17120 net.cpp:156] Memory required for data: 438310000
I0403 14:32:48.615142 17120 layer_factory.hpp:77] Creating layer conv2
I0403 14:32:48.615170 17120 net.cpp:91] Creating Layer conv2
I0403 14:32:48.615186 17120 net.cpp:425] conv2 <- pool1
I0403 14:32:48.615206 17120 net.cpp:399] conv2 -> conv2
I0403 14:32:48.630583 17120 net.cpp:141] Setting up conv2
I0403 14:32:48.630625 17120 net.cpp:148] Top shape: 100 256 27 27 (18662400)
I0403 14:32:48.630642 17120 net.cpp:156] Memory required for data: 512959600
I0403 14:32:48.630666 17120 layer_factory.hpp:77] Creating layer relu2
I0403 14:32:48.630689 17120 net.cpp:91] Creating Layer relu2
I0403 14:32:48.630707 17120 net.cpp:425] relu2 <- conv2
I0403 14:32:48.630725 17120 net.cpp:386] relu2 -> conv2 (in-place)
I0403 14:32:48.631019 17120 net.cpp:141] Setting up relu2
I0403 14:32:48.631047 17120 net.cpp:148] Top shape: 100 256 27 27 (18662400)
I0403 14:32:48.631060 17120 net.cpp:156] Memory required for data: 587609200
I0403 14:32:48.631075 17120 layer_factory.hpp:77] Creating layer norm2
I0403 14:32:48.631098 17120 net.cpp:91] Creating Layer norm2
I0403 14:32:48.631115 17120 net.cpp:425] norm2 <- conv2
I0403 14:32:48.631134 17120 net.cpp:399] norm2 -> norm2
I0403 14:32:48.631331 17120 net.cpp:141] Setting up norm2
I0403 14:32:48.631357 17120 net.cpp:148] Top shape: 100 256 27 27 (18662400)
I0403 14:32:48.631371 17120 net.cpp:156] Memory required for data: 662258800
I0403 14:32:48.631386 17120 layer_factory.hpp:77] Creating layer pool2
I0403 14:32:48.631405 17120 net.cpp:91] Creating Layer pool2
I0403 14:32:48.631422 17120 net.cpp:425] pool2 <- norm2
I0403 14:32:48.631438 17120 net.cpp:399] pool2 -> pool2
I0403 14:32:48.631490 17120 net.cpp:141] Setting up pool2
I0403 14:32:48.631512 17120 net.cpp:148] Top shape: 100 256 13 13 (4326400)
I0403 14:32:48.631527 17120 net.cpp:156] Memory required for data: 679564400
I0403 14:32:48.631541 17120 layer_factory.hpp:77] Creating layer conv3
I0403 14:32:48.631564 17120 net.cpp:91] Creating Layer conv3
I0403 14:32:48.631580 17120 net.cpp:425] conv3 <- pool2
I0403 14:32:48.631600 17120 net.cpp:399] conv3 -> conv3
I0403 14:32:48.670296 17120 net.cpp:141] Setting up conv3
I0403 14:32:48.670374 17120 net.cpp:148] Top shape: 100 384 13 13 (6489600)
I0403 14:32:48.670390 17120 net.cpp:156] Memory required for data: 705522800
I0403 14:32:48.670415 17120 layer_factory.hpp:77] Creating layer relu3
I0403 14:32:48.670440 17120 net.cpp:91] Creating Layer relu3
I0403 14:32:48.670457 17120 net.cpp:425] relu3 <- conv3
I0403 14:32:48.670476 17120 net.cpp:386] relu3 -> conv3 (in-place)
I0403 14:32:48.670765 17120 net.cpp:141] Setting up relu3
I0403 14:32:48.670792 17120 net.cpp:148] Top shape: 100 384 13 13 (6489600)
I0403 14:32:48.670809 17120 net.cpp:156] Memory required for data: 731481200
I0403 14:32:48.670824 17120 layer_factory.hpp:77] Creating layer conv4
I0403 14:32:48.670848 17120 net.cpp:91] Creating Layer conv4
I0403 14:32:48.670866 17120 net.cpp:425] conv4 <- conv3
I0403 14:32:48.670886 17120 net.cpp:399] conv4 -> conv4
I0403 14:32:48.701493 17120 net.cpp:141] Setting up conv4
I0403 14:32:48.701571 17120 net.cpp:148] Top shape: 100 384 13 13 (6489600)
I0403 14:32:48.701619 17120 net.cpp:156] Memory required for data: 757439600
I0403 14:32:48.701642 17120 layer_factory.hpp:77] Creating layer relu4
I0403 14:32:48.701663 17120 net.cpp:91] Creating Layer relu4
I0403 14:32:48.701681 17120 net.cpp:425] relu4 <- conv4
I0403 14:32:48.701704 17120 net.cpp:386] relu4 -> conv4 (in-place)
I0403 14:32:48.702002 17120 net.cpp:141] Setting up relu4
I0403 14:32:48.702028 17120 net.cpp:148] Top shape: 100 384 13 13 (6489600)
I0403 14:32:48.702044 17120 net.cpp:156] Memory required for data: 783398000
I0403 14:32:48.702059 17120 layer_factory.hpp:77] Creating layer conv5
I0403 14:32:48.702085 17120 net.cpp:91] Creating Layer conv5
I0403 14:32:48.702102 17120 net.cpp:425] conv5 <- conv4
I0403 14:32:48.702123 17120 net.cpp:399] conv5 -> conv5
I0403 14:32:48.723228 17120 net.cpp:141] Setting up conv5
I0403 14:32:48.723299 17120 net.cpp:148] Top shape: 100 256 13 13 (4326400)
I0403 14:32:48.723315 17120 net.cpp:156] Memory required for data: 800703600
I0403 14:32:48.723340 17120 layer_factory.hpp:77] Creating layer relu5
I0403 14:32:48.723364 17120 net.cpp:91] Creating Layer relu5
I0403 14:32:48.723381 17120 net.cpp:425] relu5 <- conv5
I0403 14:32:48.723400 17120 net.cpp:386] relu5 -> conv5 (in-place)
I0403 14:32:48.723680 17120 net.cpp:141] Setting up relu5
I0403 14:32:48.723707 17120 net.cpp:148] Top shape: 100 256 13 13 (4326400)
I0403 14:32:48.723723 17120 net.cpp:156] Memory required for data: 818009200
I0403 14:32:48.723738 17120 layer_factory.hpp:77] Creating layer pool5
I0403 14:32:48.723763 17120 net.cpp:91] Creating Layer pool5
I0403 14:32:48.723780 17120 net.cpp:425] pool5 <- conv5
I0403 14:32:48.723798 17120 net.cpp:399] pool5 -> pool5
I0403 14:32:48.723860 17120 net.cpp:141] Setting up pool5
I0403 14:32:48.723884 17120 net.cpp:148] Top shape: 100 256 6 6 (921600)
I0403 14:32:48.723899 17120 net.cpp:156] Memory required for data: 821695600
I0403 14:32:48.723913 17120 layer_factory.hpp:77] Creating layer fc6
I0403 14:32:48.723943 17120 net.cpp:91] Creating Layer fc6
I0403 14:32:48.723968 17120 net.cpp:425] fc6 <- pool5
I0403 14:32:48.723989 17120 net.cpp:399] fc6 -> fc6
I0403 14:32:50.291776 17120 net.cpp:141] Setting up fc6
I0403 14:32:50.291846 17120 net.cpp:148] Top shape: 100 4096 (409600)
I0403 14:32:50.291862 17120 net.cpp:156] Memory required for data: 823334000
I0403 14:32:50.291882 17120 layer_factory.hpp:77] Creating layer relu6
I0403 14:32:50.291903 17120 net.cpp:91] Creating Layer relu6
I0403 14:32:50.291919 17120 net.cpp:425] relu6 <- fc6
I0403 14:32:50.291940 17120 net.cpp:386] relu6 -> fc6 (in-place)
I0403 14:32:50.292166 17120 net.cpp:141] Setting up relu6
I0403 14:32:50.292191 17120 net.cpp:148] Top shape: 100 4096 (409600)
I0403 14:32:50.292206 17120 net.cpp:156] Memory required for data: 824972400
I0403 14:32:50.292220 17120 layer_factory.hpp:77] Creating layer drop6
I0403 14:32:50.292240 17120 net.cpp:91] Creating Layer drop6
I0403 14:32:50.292255 17120 net.cpp:425] drop6 <- fc6
I0403 14:32:50.292271 17120 net.cpp:386] drop6 -> fc6 (in-place)
I0403 14:32:50.292320 17120 net.cpp:141] Setting up drop6
I0403 14:32:50.292345 17120 net.cpp:148] Top shape: 100 4096 (409600)
I0403 14:32:50.292359 17120 net.cpp:156] Memory required for data: 826610800
I0403 14:32:50.292374 17120 layer_factory.hpp:77] Creating layer fc7
I0403 14:32:50.292393 17120 net.cpp:91] Creating Layer fc7
I0403 14:32:50.292408 17120 net.cpp:425] fc7 <- fc6
I0403 14:32:50.292428 17120 net.cpp:399] fc7 -> fc7
I0403 14:32:50.981019 17120 net.cpp:141] Setting up fc7
I0403 14:32:50.981057 17120 net.cpp:148] Top shape: 100 4096 (409600)
I0403 14:32:50.981072 17120 net.cpp:156] Memory required for data: 828249200
I0403 14:32:50.981092 17120 layer_factory.hpp:77] Creating layer relu7
I0403 14:32:50.981113 17120 net.cpp:91] Creating Layer relu7
I0403 14:32:50.981129 17120 net.cpp:425] relu7 <- fc7
I0403 14:32:50.981150 17120 net.cpp:386] relu7 -> fc7 (in-place)
I0403 14:32:50.981567 17120 net.cpp:141] Setting up relu7
I0403 14:32:50.981593 17120 net.cpp:148] Top shape: 100 4096 (409600)
I0403 14:32:50.981640 17120 net.cpp:156] Memory required for data: 829887600
I0403 14:32:50.981655 17120 layer_factory.hpp:77] Creating layer drop7
I0403 14:32:50.981673 17120 net.cpp:91] Creating Layer drop7
I0403 14:32:50.981688 17120 net.cpp:425] drop7 <- fc7
I0403 14:32:50.981719 17120 net.cpp:386] drop7 -> fc7 (in-place)
I0403 14:32:50.981765 17120 net.cpp:141] Setting up drop7
I0403 14:32:50.981788 17120 net.cpp:148] Top shape: 100 4096 (409600)
I0403 14:32:50.981802 17120 net.cpp:156] Memory required for data: 831526000
I0403 14:32:50.981817 17120 layer_factory.hpp:77] Creating layer fc8_plantvillage
I0403 14:32:50.981837 17120 net.cpp:91] Creating Layer fc8_plantvillage
I0403 14:32:50.981851 17120 net.cpp:425] fc8_plantvillage <- fc7
I0403 14:32:50.981871 17120 net.cpp:399] fc8_plantvillage -> fc8_plantvillage
I0403 14:32:50.988540 17120 net.cpp:141] Setting up fc8_plantvillage
I0403 14:32:50.988569 17120 net.cpp:148] Top shape: 100 38 (3800)
I0403 14:32:50.988584 17120 net.cpp:156] Memory required for data: 831541200
I0403 14:32:50.988602 17120 layer_factory.hpp:77] Creating layer fc8_plantvillage_fc8_plantvillage_0_split
I0403 14:32:50.988622 17120 net.cpp:91] Creating Layer fc8_plantvillage_fc8_plantvillage_0_split
I0403 14:32:50.988638 17120 net.cpp:425] fc8_plantvillage_fc8_plantvillage_0_split <- fc8_plantvillage
I0403 14:32:50.988656 17120 net.cpp:399] fc8_plantvillage_fc8_plantvillage_0_split -> fc8_plantvillage_fc8_plantvillage_0_split_0
I0403 14:32:50.988675 17120 net.cpp:399] fc8_plantvillage_fc8_plantvillage_0_split -> fc8_plantvillage_fc8_plantvillage_0_split_1
I0403 14:32:50.988694 17120 net.cpp:399] fc8_plantvillage_fc8_plantvillage_0_split -> fc8_plantvillage_fc8_plantvillage_0_split_2
I0403 14:32:50.988773 17120 net.cpp:141] Setting up fc8_plantvillage_fc8_plantvillage_0_split
I0403 14:32:50.988797 17120 net.cpp:148] Top shape: 100 38 (3800)
I0403 14:32:50.988824 17120 net.cpp:148] Top shape: 100 38 (3800)
I0403 14:32:50.988839 17120 net.cpp:148] Top shape: 100 38 (3800)
I0403 14:32:50.988852 17120 net.cpp:156] Memory required for data: 831586800
I0403 14:32:50.988865 17120 layer_factory.hpp:77] Creating layer prob
I0403 14:32:50.988883 17120 net.cpp:91] Creating Layer prob
I0403 14:32:50.988898 17120 net.cpp:425] prob <- fc8_plantvillage_fc8_plantvillage_0_split_0
I0403 14:32:50.988914 17120 net.cpp:399] prob -> prob
I0403 14:32:50.989140 17120 net.cpp:141] Setting up prob
I0403 14:32:50.989164 17120 net.cpp:148] Top shape: 100 38 (3800)
I0403 14:32:50.989178 17120 net.cpp:156] Memory required for data: 831602000
I0403 14:32:50.989192 17120 layer_factory.hpp:77] Creating layer hdf5out
I0403 14:32:50.989209 17120 net.cpp:91] Creating Layer hdf5out
I0403 14:32:50.989224 17120 net.cpp:425] hdf5out <- prob
I0403 14:32:50.989239 17120 net.cpp:425] hdf5out <- label_data_1_split_0
I0403 14:32:50.991402 17120 net.cpp:141] Setting up hdf5out
…
