…
I0403 14:34:15.346515 17172 net.cpp:313] The NetState phase (1) differed from the phase (0) specified by a rule in layer data
I0403 14:34:15.346828 17172 net.cpp:49] Initializing net from parameters: 
state {
  phase: TEST
}
layer {
  name: "data"
  type: "Data"
  top: "data"
  top: "label"
  include {
    phase: TEST
  }
  transform_param {
    crop_size: 227
    mean_file: "/home/mohanty/data/final_dataset/lmdb/segmented-60-40/mean.binaryproto"
  }
  data_param {
    source: "/home/mohanty/data/final_dataset/lmdb/segmented-60-40/test_db"
    batch_size: 100
    backend: LMDB
  }
}
layer {
  name: "conv1"
  type: "Convolution"
  bottom: "data"
  top: "conv1"
  param {
    lr_mult: 1
    decay_mult: 1
  }
  param {
    lr_mult: 2
    decay_mult: 0
  }
  convolution_param {
    num_output: 96
    kernel_size: 11
    stride: 4
    weight_filler {
      type: "gaussian"
      std: 0.01
    }
    bias_filler {
      type: "constant"
      value: 0
    }
  }
}
layer {
  name: "relu1"
  type: "ReLU"
  bottom: "conv1"
  top: "conv1"
}
layer {
  name: "norm1"
  type: "LRN"
  bottom: "conv1"
  top: "norm1"
  lrn_param {
    local_size: 5
    alpha: 0.0001
    beta: 0.75
  }
}
layer {
  name: "pool1"
  type: "Pooling"
  bottom: "norm1"
  top: "pool1"
  pooling_param {
    pool: MAX
    kernel_size: 3
    stride: 2
  }
}
layer {
  name: "conv2"
  type: "Convolution"
  bottom: "pool1"
  top: "conv2"
  param {
    lr_mult: 1
    decay_mult: 1
  }
  param {
    lr_mult: 2
    decay_mult: 0
  }
  convolution_param {
    num_output: 256
    pad: 2
    kernel_size: 5
    group: 2
    weight_filler {
      type: "gaussian"
      std: 0.01
    }
    bias_filler {
      type: "constant"
      value: 0.1
    }
  }
}
layer {
  name: "relu2"
  type: "ReLU"
  bottom: "conv2"
  top: "conv2"
}
layer {
  name: "norm2"
  type: "LRN"
  bottom: "conv2"
  top: "norm2"
  lrn_param {
    local_size: 5
    alpha: 0.0001
    beta: 0.75
  }
}
layer {
  name: "pool2"
  type: "Pooling"
  bottom: "norm2"
  top: "pool2"
  pooling_param {
    pool: MAX
    kernel_size: 3
    stride: 2
  }
}
layer {
  name: "conv3"
  type: "Convolution"
  bottom: "pool2"
  top: "conv3"
  param {
    lr_mult: 1
    decay_mult: 1
  }
  param {
    lr_mult: 2
    decay_mult: 0
  }
  convolution_param {
    num_output: 384
    pad: 1
    kernel_size: 3
    weight_filler {
      type: "gaussian"
      std: 0.01
    }
    bias_filler {
      type: "constant"
      value: 0
    }
  }
}
layer {
  name: "relu3"
  type: "ReLU"
  bottom: "conv3"
  top: "conv3"
}
layer {
  name: "conv4"
  type: "Convolution"
  bottom: "conv3"
  top: "conv4"
  param {
    lr_mult: 1
    decay_mult: 1
  }
  param {
    lr_mult: 2
    decay_mult: 0
  }
  convolution_param {
    num_output: 384
    pad: 1
    kernel_size: 3
    group: 2
    weight_filler {
      type: "gaussian"
      std: 0.01
    }
    bias_filler {
      type: "constant"
      value: 0.1
    }
  }
}
layer {
  name: "relu4"
  type: "ReLU"
  bottom: "conv4"
  top: "conv4"
}
layer {
  name: "conv5"
  type: "Convolution"
  bottom: "conv4"
  top: "conv5"
  param {
    lr_mult: 1
    decay_mult: 1
  }
  param {
    lr_mult: 2
    decay_mult: 0
  }
  convolution_param {
    num_output: 256
    pad: 1
    kernel_size: 3
    group: 2
    weight_filler {
      type: "gaussian"
      std: 0.01
    }
    bias_filler {
      type: "constant"
      value: 0.1
    }
  }
}
layer {
  name: "relu5"
  type: "ReLU"
  bottom: "conv5"
  top: "conv5"
}
layer {
  name: "pool5"
  type: "Pooling"
  bottom: "conv5"
  top: "pool5"
  pooling_param {
    pool: MAX
    kernel_size: 3
    stride: 2
  }
}
layer {
  name: "fc6"
  type: "InnerProduct"
  bottom: "pool5"
  top: "fc6"
  param {
    lr_mult: 1
    decay_mult: 1
  }
  param {
    lr_mult: 2
    decay_mult: 0
  }
  inner_product_param {
    num_output: 4096
    weight_filler {
      type: "gaussian"
      std: 0.005
    }
    bias_filler {
      type: "constant"
      value: 0.1
    }
  }
}
layer {
  name: "relu6"
  type: "ReLU"
  bottom: "fc6"
  top: "fc6"
}
layer {
  name: "drop6"
  type: "Dropout"
  bottom: "fc6"
  top: "fc6"
  dropout_param {
    dropout_ratio: 0.5
  }
}
layer {
  name: "fc7"
  type: "InnerProduct"
  bottom: "fc6"
  top: "fc7"
  param {
    lr_mult: 1
    decay_mult: 1
  }
  param {
    lr_mult: 2
    decay_mult: 0
  }
  inner_product_param {
    num_output: 4096
    weight_filler {
      type: "gaussian"
      std: 0.005
    }
    bias_filler {
      type: "constant"
      value: 0.1
    }
  }
}
layer {
  name: "relu7"
  type: "ReLU"
  bottom: "fc7"
  top: "fc7"
}
layer {
  name: "drop7"
  type: "Dropout"
  bottom: "fc7"
  top: "fc7"
  dropout_param {
    dropout_ratio: 0.5
  }
}
layer {
  name: "fc8_plantvillage"
  type: "InnerProduct"
  bottom: "fc7"
  top: "fc8_plantvillage"
  param {
    lr_mult: 1
    decay_mult: 1
  }
  param {
    lr_mult: 2
    decay_mult: 0
  }
  inner_product_param {
    num_output: 38
    weight_filler {
      type: "gaussian"
      std: 0.01
    }
    bias_filler {
      type: "constant"
      value: 0
    }
  }
}
layer {
  name: "prob"
  type: "Softmax"
  bottom: "fc8_plantvillage"
  top: "prob"
  include {
    phase: TEST
  }
}
layer {
  name: "hdf5out"
  type: "HDF5Output"
  bottom: "prob"
  bottom: "label"
  include {
    phase: TEST
  }
  hdf5_output_param {
    file_name: "hdf5_dumps/iter_3900.h5"
  }
}
layer {
  name: "loss"
  type: "SoftmaxWithLoss"
  bottom: "fc8_plantvillage"
  bottom: "label"
  top: "loss"
}
layer {
  name: "accuracy"
  type: "Accuracy"
  bottom: "fc8_plantvillage"
  bottom: "label"
  top: "accuracy"
  include {
    phase: TEST
  }
}
I0403 14:34:15.347399 17172 layer_factory.hpp:77] Creating layer data
I0403 14:34:15.348063 17172 net.cpp:91] Creating Layer data
I0403 14:34:15.348096 17172 net.cpp:399] data -> data
I0403 14:34:15.348147 17172 net.cpp:399] data -> label
I0403 14:34:15.348184 17172 data_transformer.cpp:25] Loading mean file from: /home/mohanty/data/final_dataset/lmdb/segmented-60-40/mean.binaryproto
I0403 14:34:15.349315 17175 db_lmdb.cpp:38] Opened lmdb /home/mohanty/data/final_dataset/lmdb/segmented-60-40/test_db
I0403 14:34:15.362442 17172 data_layer.cpp:41] output data size: 100,3,227,227
I0403 14:34:15.497759 17172 net.cpp:141] Setting up data
I0403 14:34:15.497865 17172 net.cpp:148] Top shape: 100 3 227 227 (15458700)
I0403 14:34:15.497887 17172 net.cpp:148] Top shape: 100 (100)
I0403 14:34:15.497901 17172 net.cpp:156] Memory required for data: 61835200
I0403 14:34:15.497928 17172 layer_factory.hpp:77] Creating layer label_data_1_split
I0403 14:34:15.497952 17172 net.cpp:91] Creating Layer label_data_1_split
I0403 14:34:15.497969 17172 net.cpp:425] label_data_1_split <- label
I0403 14:34:15.498003 17172 net.cpp:399] label_data_1_split -> label_data_1_split_0
I0403 14:34:15.498031 17172 net.cpp:399] label_data_1_split -> label_data_1_split_1
I0403 14:34:15.498051 17172 net.cpp:399] label_data_1_split -> label_data_1_split_2
I0403 14:34:15.498112 17172 net.cpp:141] Setting up label_data_1_split
I0403 14:34:15.498134 17172 net.cpp:148] Top shape: 100 (100)
I0403 14:34:15.498150 17172 net.cpp:148] Top shape: 100 (100)
I0403 14:34:15.498165 17172 net.cpp:148] Top shape: 100 (100)
I0403 14:34:15.498179 17172 net.cpp:156] Memory required for data: 61836400
I0403 14:34:15.498193 17172 layer_factory.hpp:77] Creating layer conv1
I0403 14:34:15.498226 17172 net.cpp:91] Creating Layer conv1
I0403 14:34:15.498244 17172 net.cpp:425] conv1 <- data
I0403 14:34:15.498265 17172 net.cpp:399] conv1 -> conv1
I0403 14:34:15.647017 17172 net.cpp:141] Setting up conv1
I0403 14:34:15.647119 17172 net.cpp:148] Top shape: 100 96 55 55 (29040000)
I0403 14:34:15.647136 17172 net.cpp:156] Memory required for data: 177996400
I0403 14:34:15.647167 17172 layer_factory.hpp:77] Creating layer relu1
I0403 14:34:15.647194 17172 net.cpp:91] Creating Layer relu1
I0403 14:34:15.647213 17172 net.cpp:425] relu1 <- conv1
I0403 14:34:15.647234 17172 net.cpp:386] relu1 -> conv1 (in-place)
I0403 14:34:15.647529 17172 net.cpp:141] Setting up relu1
I0403 14:34:15.647557 17172 net.cpp:148] Top shape: 100 96 55 55 (29040000)
I0403 14:34:15.647605 17172 net.cpp:156] Memory required for data: 294156400
I0403 14:34:15.647622 17172 layer_factory.hpp:77] Creating layer norm1
I0403 14:34:15.647651 17172 net.cpp:91] Creating Layer norm1
I0403 14:34:15.647670 17172 net.cpp:425] norm1 <- conv1
I0403 14:34:15.647689 17172 net.cpp:399] norm1 -> norm1
I0403 14:34:15.648041 17172 net.cpp:141] Setting up norm1
I0403 14:34:15.648071 17172 net.cpp:148] Top shape: 100 96 55 55 (29040000)
I0403 14:34:15.648085 17172 net.cpp:156] Memory required for data: 410316400
I0403 14:34:15.648102 17172 layer_factory.hpp:77] Creating layer pool1
I0403 14:34:15.648128 17172 net.cpp:91] Creating Layer pool1
I0403 14:34:15.648145 17172 net.cpp:425] pool1 <- norm1
I0403 14:34:15.648164 17172 net.cpp:399] pool1 -> pool1
I0403 14:34:15.648238 17172 net.cpp:141] Setting up pool1
I0403 14:34:15.648263 17172 net.cpp:148] Top shape: 100 96 27 27 (6998400)
I0403 14:34:15.648278 17172 net.cpp:156] Memory required for data: 438310000
I0403 14:34:15.648293 17172 layer_factory.hpp:77] Creating layer conv2
I0403 14:34:15.648319 17172 net.cpp:91] Creating Layer conv2
I0403 14:34:15.648336 17172 net.cpp:425] conv2 <- pool1
I0403 14:34:15.648357 17172 net.cpp:399] conv2 -> conv2
I0403 14:34:15.663975 17172 net.cpp:141] Setting up conv2
I0403 14:34:15.664032 17172 net.cpp:148] Top shape: 100 256 27 27 (18662400)
I0403 14:34:15.664049 17172 net.cpp:156] Memory required for data: 512959600
I0403 14:34:15.664095 17172 layer_factory.hpp:77] Creating layer relu2
I0403 14:34:15.664121 17172 net.cpp:91] Creating Layer relu2
I0403 14:34:15.664139 17172 net.cpp:425] relu2 <- conv2
I0403 14:34:15.664168 17172 net.cpp:386] relu2 -> conv2 (in-place)
I0403 14:34:15.664451 17172 net.cpp:141] Setting up relu2
I0403 14:34:15.664479 17172 net.cpp:148] Top shape: 100 256 27 27 (18662400)
I0403 14:34:15.664492 17172 net.cpp:156] Memory required for data: 587609200
I0403 14:34:15.664508 17172 layer_factory.hpp:77] Creating layer norm2
I0403 14:34:15.664531 17172 net.cpp:91] Creating Layer norm2
I0403 14:34:15.664547 17172 net.cpp:425] norm2 <- conv2
I0403 14:34:15.664567 17172 net.cpp:399] norm2 -> norm2
I0403 14:34:15.664768 17172 net.cpp:141] Setting up norm2
I0403 14:34:15.664794 17172 net.cpp:148] Top shape: 100 256 27 27 (18662400)
I0403 14:34:15.664809 17172 net.cpp:156] Memory required for data: 662258800
I0403 14:34:15.664824 17172 layer_factory.hpp:77] Creating layer pool2
I0403 14:34:15.664844 17172 net.cpp:91] Creating Layer pool2
I0403 14:34:15.664860 17172 net.cpp:425] pool2 <- norm2
I0403 14:34:15.664877 17172 net.cpp:399] pool2 -> pool2
I0403 14:34:15.664930 17172 net.cpp:141] Setting up pool2
I0403 14:34:15.664954 17172 net.cpp:148] Top shape: 100 256 13 13 (4326400)
I0403 14:34:15.664970 17172 net.cpp:156] Memory required for data: 679564400
I0403 14:34:15.664988 17172 layer_factory.hpp:77] Creating layer conv3
I0403 14:34:15.665012 17172 net.cpp:91] Creating Layer conv3
I0403 14:34:15.665030 17172 net.cpp:425] conv3 <- pool2
I0403 14:34:15.665050 17172 net.cpp:399] conv3 -> conv3
I0403 14:34:15.704884 17172 net.cpp:141] Setting up conv3
I0403 14:34:15.704967 17172 net.cpp:148] Top shape: 100 384 13 13 (6489600)
I0403 14:34:15.704982 17172 net.cpp:156] Memory required for data: 705522800
I0403 14:34:15.705018 17172 layer_factory.hpp:77] Creating layer relu3
I0403 14:34:15.705042 17172 net.cpp:91] Creating Layer relu3
I0403 14:34:15.705060 17172 net.cpp:425] relu3 <- conv3
I0403 14:34:15.705077 17172 net.cpp:386] relu3 -> conv3 (in-place)
I0403 14:34:15.705356 17172 net.cpp:141] Setting up relu3
I0403 14:34:15.705384 17172 net.cpp:148] Top shape: 100 384 13 13 (6489600)
I0403 14:34:15.705399 17172 net.cpp:156] Memory required for data: 731481200
I0403 14:34:15.705412 17172 layer_factory.hpp:77] Creating layer conv4
I0403 14:34:15.705438 17172 net.cpp:91] Creating Layer conv4
I0403 14:34:15.705456 17172 net.cpp:425] conv4 <- conv3
I0403 14:34:15.705476 17172 net.cpp:399] conv4 -> conv4
I0403 14:34:15.736901 17172 net.cpp:141] Setting up conv4
I0403 14:34:15.736982 17172 net.cpp:148] Top shape: 100 384 13 13 (6489600)
I0403 14:34:15.737040 17172 net.cpp:156] Memory required for data: 757439600
I0403 14:34:15.737063 17172 layer_factory.hpp:77] Creating layer relu4
I0403 14:34:15.737088 17172 net.cpp:91] Creating Layer relu4
I0403 14:34:15.737107 17172 net.cpp:425] relu4 <- conv4
I0403 14:34:15.737126 17172 net.cpp:386] relu4 -> conv4 (in-place)
I0403 14:34:15.737421 17172 net.cpp:141] Setting up relu4
I0403 14:34:15.737448 17172 net.cpp:148] Top shape: 100 384 13 13 (6489600)
I0403 14:34:15.737463 17172 net.cpp:156] Memory required for data: 783398000
I0403 14:34:15.737479 17172 layer_factory.hpp:77] Creating layer conv5
I0403 14:34:15.737505 17172 net.cpp:91] Creating Layer conv5
I0403 14:34:15.737524 17172 net.cpp:425] conv5 <- conv4
I0403 14:34:15.737547 17172 net.cpp:399] conv5 -> conv5
I0403 14:34:15.759313 17172 net.cpp:141] Setting up conv5
I0403 14:34:15.759377 17172 net.cpp:148] Top shape: 100 256 13 13 (4326400)
I0403 14:34:15.759395 17172 net.cpp:156] Memory required for data: 800703600
I0403 14:34:15.759420 17172 layer_factory.hpp:77] Creating layer relu5
I0403 14:34:15.759445 17172 net.cpp:91] Creating Layer relu5
I0403 14:34:15.759464 17172 net.cpp:425] relu5 <- conv5
I0403 14:34:15.759481 17172 net.cpp:386] relu5 -> conv5 (in-place)
I0403 14:34:15.759781 17172 net.cpp:141] Setting up relu5
I0403 14:34:15.759809 17172 net.cpp:148] Top shape: 100 256 13 13 (4326400)
I0403 14:34:15.759824 17172 net.cpp:156] Memory required for data: 818009200
I0403 14:34:15.759840 17172 layer_factory.hpp:77] Creating layer pool5
I0403 14:34:15.759863 17172 net.cpp:91] Creating Layer pool5
I0403 14:34:15.759881 17172 net.cpp:425] pool5 <- conv5
I0403 14:34:15.759905 17172 net.cpp:399] pool5 -> pool5
I0403 14:34:15.759969 17172 net.cpp:141] Setting up pool5
I0403 14:34:15.760002 17172 net.cpp:148] Top shape: 100 256 6 6 (921600)
I0403 14:34:15.760020 17172 net.cpp:156] Memory required for data: 821695600
I0403 14:34:15.760035 17172 layer_factory.hpp:77] Creating layer fc6
I0403 14:34:15.760064 17172 net.cpp:91] Creating Layer fc6
I0403 14:34:15.760083 17172 net.cpp:425] fc6 <- pool5
I0403 14:34:15.760102 17172 net.cpp:399] fc6 -> fc6
I0403 14:34:17.328516 17172 net.cpp:141] Setting up fc6
I0403 14:34:17.328611 17172 net.cpp:148] Top shape: 100 4096 (409600)
I0403 14:34:17.328629 17172 net.cpp:156] Memory required for data: 823334000
I0403 14:34:17.328649 17172 layer_factory.hpp:77] Creating layer relu6
I0403 14:34:17.328671 17172 net.cpp:91] Creating Layer relu6
I0403 14:34:17.328687 17172 net.cpp:425] relu6 <- fc6
I0403 14:34:17.328708 17172 net.cpp:386] relu6 -> fc6 (in-place)
I0403 14:34:17.328951 17172 net.cpp:141] Setting up relu6
I0403 14:34:17.328975 17172 net.cpp:148] Top shape: 100 4096 (409600)
I0403 14:34:17.328995 17172 net.cpp:156] Memory required for data: 824972400
I0403 14:34:17.329010 17172 layer_factory.hpp:77] Creating layer drop6
I0403 14:34:17.329030 17172 net.cpp:91] Creating Layer drop6
I0403 14:34:17.329046 17172 net.cpp:425] drop6 <- fc6
I0403 14:34:17.329062 17172 net.cpp:386] drop6 -> fc6 (in-place)
I0403 14:34:17.329114 17172 net.cpp:141] Setting up drop6
I0403 14:34:17.329135 17172 net.cpp:148] Top shape: 100 4096 (409600)
I0403 14:34:17.329149 17172 net.cpp:156] Memory required for data: 826610800
I0403 14:34:17.329164 17172 layer_factory.hpp:77] Creating layer fc7
I0403 14:34:17.329182 17172 net.cpp:91] Creating Layer fc7
I0403 14:34:17.329197 17172 net.cpp:425] fc7 <- fc6
I0403 14:34:17.329231 17172 net.cpp:399] fc7 -> fc7
I0403 14:34:18.030737 17172 net.cpp:141] Setting up fc7
I0403 14:34:18.030800 17172 net.cpp:148] Top shape: 100 4096 (409600)
I0403 14:34:18.030817 17172 net.cpp:156] Memory required for data: 828249200
I0403 14:34:18.030839 17172 layer_factory.hpp:77] Creating layer relu7
I0403 14:34:18.030864 17172 net.cpp:91] Creating Layer relu7
I0403 14:34:18.030884 17172 net.cpp:425] relu7 <- fc7
I0403 14:34:18.030903 17172 net.cpp:386] relu7 -> fc7 (in-place)
I0403 14:34:18.031373 17172 net.cpp:141] Setting up relu7
I0403 14:34:18.031401 17172 net.cpp:148] Top shape: 100 4096 (409600)
I0403 14:34:18.031457 17172 net.cpp:156] Memory required for data: 829887600
I0403 14:34:18.031484 17172 layer_factory.hpp:77] Creating layer drop7
I0403 14:34:18.031507 17172 net.cpp:91] Creating Layer drop7
I0403 14:34:18.031528 17172 net.cpp:425] drop7 <- fc7
I0403 14:34:18.031550 17172 net.cpp:386] drop7 -> fc7 (in-place)
I0403 14:34:18.031599 17172 net.cpp:141] Setting up drop7
I0403 14:34:18.031625 17172 net.cpp:148] Top shape: 100 4096 (409600)
I0403 14:34:18.031642 17172 net.cpp:156] Memory required for data: 831526000
I0403 14:34:18.031658 17172 layer_factory.hpp:77] Creating layer fc8_plantvillage
I0403 14:34:18.031682 17172 net.cpp:91] Creating Layer fc8_plantvillage
I0403 14:34:18.031699 17172 net.cpp:425] fc8_plantvillage <- fc7
I0403 14:34:18.031720 17172 net.cpp:399] fc8_plantvillage -> fc8_plantvillage
I0403 14:34:18.039101 17172 net.cpp:141] Setting up fc8_plantvillage
I0403 14:34:18.039145 17172 net.cpp:148] Top shape: 100 38 (3800)
I0403 14:34:18.039172 17172 net.cpp:156] Memory required for data: 831541200
I0403 14:34:18.039204 17172 layer_factory.hpp:77] Creating layer fc8_plantvillage_fc8_plantvillage_0_split
I0403 14:34:18.039244 17172 net.cpp:91] Creating Layer fc8_plantvillage_fc8_plantvillage_0_split
I0403 14:34:18.039278 17172 net.cpp:425] fc8_plantvillage_fc8_plantvillage_0_split <- fc8_plantvillage
I0403 14:34:18.039306 17172 net.cpp:399] fc8_plantvillage_fc8_plantvillage_0_split -> fc8_plantvillage_fc8_plantvillage_0_split_0
I0403 14:34:18.039329 17172 net.cpp:399] fc8_plantvillage_fc8_plantvillage_0_split -> fc8_plantvillage_fc8_plantvillage_0_split_1
I0403 14:34:18.039371 17172 net.cpp:399] fc8_plantvillage_fc8_plantvillage_0_split -> fc8_plantvillage_fc8_plantvillage_0_split_2
I0403 14:34:18.039474 17172 net.cpp:141] Setting up fc8_plantvillage_fc8_plantvillage_0_split
I0403 14:34:18.039499 17172 net.cpp:148] Top shape: 100 38 (3800)
I0403 14:34:18.039515 17172 net.cpp:148] Top shape: 100 38 (3800)
I0403 14:34:18.039532 17172 net.cpp:148] Top shape: 100 38 (3800)
I0403 14:34:18.039547 17172 net.cpp:156] Memory required for data: 831586800
I0403 14:34:18.039561 17172 layer_factory.hpp:77] Creating layer prob
I0403 14:34:18.039583 17172 net.cpp:91] Creating Layer prob
I0403 14:34:18.039599 17172 net.cpp:425] prob <- fc8_plantvillage_fc8_plantvillage_0_split_0
I0403 14:34:18.039618 17172 net.cpp:399] prob -> prob
I0403 14:34:18.039906 17172 net.cpp:141] Setting up prob
I0403 14:34:18.039933 17172 net.cpp:148] Top shape: 100 38 (3800)
I0403 14:34:18.039955 17172 net.cpp:156] Memory required for data: 831602000
I0403 14:34:18.039971 17172 layer_factory.hpp:77] Creating layer hdf5out
I0403 14:34:18.040009 17172 net.cpp:91] Creating Layer hdf5out
I0403 14:34:18.040041 17172 net.cpp:425] hdf5out <- prob
I0403 14:34:18.040071 17172 net.cpp:425] hdf5out <- label_data_1_split_0
I0403 14:34:18.042436 17172 net.cpp:141] Setting up hdf5out
…
