…
I0403 14:33:31.838569 17141 net.cpp:313] The NetState phase (1) differed from the phase (0) specified by a rule in layer data
I0403 14:33:31.838879 17141 net.cpp:49] Initializing net from parameters: 
state {
  phase: TEST
}
layer {
  name: "data"
  type: "Data"
  top: "data"
  top: "label"
  include {
    phase: TEST
  }
  transform_param {
    crop_size: 227
    mean_file: "/home/mohanty/data/final_dataset/lmdb/segmented-60-40/mean.binaryproto"
  }
  data_param {
    source: "/home/mohanty/data/final_dataset/lmdb/segmented-60-40/test_db"
    batch_size: 100
    backend: LMDB
  }
}
layer {
  name: "conv1"
  type: "Convolution"
  bottom: "data"
  top: "conv1"
  param {
    lr_mult: 1
    decay_mult: 1
  }
  param {
    lr_mult: 2
    decay_mult: 0
  }
  convolution_param {
    num_output: 96
    kernel_size: 11
    stride: 4
    weight_filler {
      type: "gaussian"
      std: 0.01
    }
    bias_filler {
      type: "constant"
      value: 0
    }
  }
}
layer {
  name: "relu1"
  type: "ReLU"
  bottom: "conv1"
  top: "conv1"
}
layer {
  name: "norm1"
  type: "LRN"
  bottom: "conv1"
  top: "norm1"
  lrn_param {
    local_size: 5
    alpha: 0.0001
    beta: 0.75
  }
}
layer {
  name: "pool1"
  type: "Pooling"
  bottom: "norm1"
  top: "pool1"
  pooling_param {
    pool: MAX
    kernel_size: 3
    stride: 2
  }
}
layer {
  name: "conv2"
  type: "Convolution"
  bottom: "pool1"
  top: "conv2"
  param {
    lr_mult: 1
    decay_mult: 1
  }
  param {
    lr_mult: 2
    decay_mult: 0
  }
  convolution_param {
    num_output: 256
    pad: 2
    kernel_size: 5
    group: 2
    weight_filler {
      type: "gaussian"
      std: 0.01
    }
    bias_filler {
      type: "constant"
      value: 0.1
    }
  }
}
layer {
  name: "relu2"
  type: "ReLU"
  bottom: "conv2"
  top: "conv2"
}
layer {
  name: "norm2"
  type: "LRN"
  bottom: "conv2"
  top: "norm2"
  lrn_param {
    local_size: 5
    alpha: 0.0001
    beta: 0.75
  }
}
layer {
  name: "pool2"
  type: "Pooling"
  bottom: "norm2"
  top: "pool2"
  pooling_param {
    pool: MAX
    kernel_size: 3
    stride: 2
  }
}
layer {
  name: "conv3"
  type: "Convolution"
  bottom: "pool2"
  top: "conv3"
  param {
    lr_mult: 1
    decay_mult: 1
  }
  param {
    lr_mult: 2
    decay_mult: 0
  }
  convolution_param {
    num_output: 384
    pad: 1
    kernel_size: 3
    weight_filler {
      type: "gaussian"
      std: 0.01
    }
    bias_filler {
      type: "constant"
      value: 0
    }
  }
}
layer {
  name: "relu3"
  type: "ReLU"
  bottom: "conv3"
  top: "conv3"
}
layer {
  name: "conv4"
  type: "Convolution"
  bottom: "conv3"
  top: "conv4"
  param {
    lr_mult: 1
    decay_mult: 1
  }
  param {
    lr_mult: 2
    decay_mult: 0
  }
  convolution_param {
    num_output: 384
    pad: 1
    kernel_size: 3
    group: 2
    weight_filler {
      type: "gaussian"
      std: 0.01
    }
    bias_filler {
      type: "constant"
      value: 0.1
    }
  }
}
layer {
  name: "relu4"
  type: "ReLU"
  bottom: "conv4"
  top: "conv4"
}
layer {
  name: "conv5"
  type: "Convolution"
  bottom: "conv4"
  top: "conv5"
  param {
    lr_mult: 1
    decay_mult: 1
  }
  param {
    lr_mult: 2
    decay_mult: 0
  }
  convolution_param {
    num_output: 256
    pad: 1
    kernel_size: 3
    group: 2
    weight_filler {
      type: "gaussian"
      std: 0.01
    }
    bias_filler {
      type: "constant"
      value: 0.1
    }
  }
}
layer {
  name: "relu5"
  type: "ReLU"
  bottom: "conv5"
  top: "conv5"
}
layer {
  name: "pool5"
  type: "Pooling"
  bottom: "conv5"
  top: "pool5"
  pooling_param {
    pool: MAX
    kernel_size: 3
    stride: 2
  }
}
layer {
  name: "fc6"
  type: "InnerProduct"
  bottom: "pool5"
  top: "fc6"
  param {
    lr_mult: 1
    decay_mult: 1
  }
  param {
    lr_mult: 2
    decay_mult: 0
  }
  inner_product_param {
    num_output: 4096
    weight_filler {
      type: "gaussian"
      std: 0.005
    }
    bias_filler {
      type: "constant"
      value: 0.1
    }
  }
}
layer {
  name: "relu6"
  type: "ReLU"
  bottom: "fc6"
  top: "fc6"
}
layer {
  name: "drop6"
  type: "Dropout"
  bottom: "fc6"
  top: "fc6"
  dropout_param {
    dropout_ratio: 0.5
  }
}
layer {
  name: "fc7"
  type: "InnerProduct"
  bottom: "fc6"
  top: "fc7"
  param {
    lr_mult: 1
    decay_mult: 1
  }
  param {
    lr_mult: 2
    decay_mult: 0
  }
  inner_product_param {
    num_output: 4096
    weight_filler {
      type: "gaussian"
      std: 0.005
    }
    bias_filler {
      type: "constant"
      value: 0.1
    }
  }
}
layer {
  name: "relu7"
  type: "ReLU"
  bottom: "fc7"
  top: "fc7"
}
layer {
  name: "drop7"
  type: "Dropout"
  bottom: "fc7"
  top: "fc7"
  dropout_param {
    dropout_ratio: 0.5
  }
}
layer {
  name: "fc8_plantvillage"
  type: "InnerProduct"
  bottom: "fc7"
  top: "fc8_plantvillage"
  param {
    lr_mult: 1
    decay_mult: 1
  }
  param {
    lr_mult: 2
    decay_mult: 0
  }
  inner_product_param {
    num_output: 38
    weight_filler {
      type: "gaussian"
      std: 0.01
    }
    bias_filler {
      type: "constant"
      value: 0
    }
  }
}
layer {
  name: "prob"
  type: "Softmax"
  bottom: "fc8_plantvillage"
  top: "prob"
  include {
    phase: TEST
  }
}
layer {
  name: "hdf5out"
  type: "HDF5Output"
  bottom: "prob"
  bottom: "label"
  include {
    phase: TEST
  }
  hdf5_output_param {
    file_name: "hdf5_dumps/iter_3575.h5"
  }
}
layer {
  name: "loss"
  type: "SoftmaxWithLoss"
  bottom: "fc8_plantvillage"
  bottom: "label"
  top: "loss"
}
layer {
  name: "accuracy"
  type: "Accuracy"
  bottom: "fc8_plantvillage"
  bottom: "label"
  top: "accuracy"
  include {
    phase: TEST
  }
}
I0403 14:33:31.839514 17141 layer_factory.hpp:77] Creating layer data
I0403 14:33:31.840154 17141 net.cpp:91] Creating Layer data
I0403 14:33:31.840188 17141 net.cpp:399] data -> data
I0403 14:33:31.840239 17141 net.cpp:399] data -> label
I0403 14:33:31.840275 17141 data_transformer.cpp:25] Loading mean file from: /home/mohanty/data/final_dataset/lmdb/segmented-60-40/mean.binaryproto
I0403 14:33:31.841401 17145 db_lmdb.cpp:38] Opened lmdb /home/mohanty/data/final_dataset/lmdb/segmented-60-40/test_db
I0403 14:33:31.854328 17141 data_layer.cpp:41] output data size: 100,3,227,227
I0403 14:33:31.987551 17141 net.cpp:141] Setting up data
I0403 14:33:31.987656 17141 net.cpp:148] Top shape: 100 3 227 227 (15458700)
I0403 14:33:31.987679 17141 net.cpp:148] Top shape: 100 (100)
I0403 14:33:31.987695 17141 net.cpp:156] Memory required for data: 61835200
I0403 14:33:31.987723 17141 layer_factory.hpp:77] Creating layer label_data_1_split
I0403 14:33:31.987749 17141 net.cpp:91] Creating Layer label_data_1_split
I0403 14:33:31.987768 17141 net.cpp:425] label_data_1_split <- label
I0403 14:33:31.987800 17141 net.cpp:399] label_data_1_split -> label_data_1_split_0
I0403 14:33:31.987828 17141 net.cpp:399] label_data_1_split -> label_data_1_split_1
I0403 14:33:31.987848 17141 net.cpp:399] label_data_1_split -> label_data_1_split_2
I0403 14:33:31.987912 17141 net.cpp:141] Setting up label_data_1_split
I0403 14:33:31.987936 17141 net.cpp:148] Top shape: 100 (100)
I0403 14:33:31.987957 17141 net.cpp:148] Top shape: 100 (100)
I0403 14:33:31.987975 17141 net.cpp:148] Top shape: 100 (100)
I0403 14:33:31.987989 17141 net.cpp:156] Memory required for data: 61836400
I0403 14:33:31.988004 17141 layer_factory.hpp:77] Creating layer conv1
I0403 14:33:31.988035 17141 net.cpp:91] Creating Layer conv1
I0403 14:33:31.988054 17141 net.cpp:425] conv1 <- data
I0403 14:33:31.988073 17141 net.cpp:399] conv1 -> conv1
I0403 14:33:32.134102 17141 net.cpp:141] Setting up conv1
I0403 14:33:32.134182 17141 net.cpp:148] Top shape: 100 96 55 55 (29040000)
I0403 14:33:32.134201 17141 net.cpp:156] Memory required for data: 177996400
I0403 14:33:32.134232 17141 layer_factory.hpp:77] Creating layer relu1
I0403 14:33:32.134260 17141 net.cpp:91] Creating Layer relu1
I0403 14:33:32.134279 17141 net.cpp:425] relu1 <- conv1
I0403 14:33:32.134299 17141 net.cpp:386] relu1 -> conv1 (in-place)
I0403 14:33:32.134558 17141 net.cpp:141] Setting up relu1
I0403 14:33:32.134585 17141 net.cpp:148] Top shape: 100 96 55 55 (29040000)
I0403 14:33:32.134632 17141 net.cpp:156] Memory required for data: 294156400
I0403 14:33:32.134649 17141 layer_factory.hpp:77] Creating layer norm1
I0403 14:33:32.134675 17141 net.cpp:91] Creating Layer norm1
I0403 14:33:32.134693 17141 net.cpp:425] norm1 <- conv1
I0403 14:33:32.134711 17141 net.cpp:399] norm1 -> norm1
I0403 14:33:32.135025 17141 net.cpp:141] Setting up norm1
I0403 14:33:32.135053 17141 net.cpp:148] Top shape: 100 96 55 55 (29040000)
I0403 14:33:32.135069 17141 net.cpp:156] Memory required for data: 410316400
I0403 14:33:32.135084 17141 layer_factory.hpp:77] Creating layer pool1
I0403 14:33:32.135108 17141 net.cpp:91] Creating Layer pool1
I0403 14:33:32.135125 17141 net.cpp:425] pool1 <- norm1
I0403 14:33:32.135144 17141 net.cpp:399] pool1 -> pool1
I0403 14:33:32.135212 17141 net.cpp:141] Setting up pool1
I0403 14:33:32.135236 17141 net.cpp:148] Top shape: 100 96 27 27 (6998400)
I0403 14:33:32.135252 17141 net.cpp:156] Memory required for data: 438310000
I0403 14:33:32.135267 17141 layer_factory.hpp:77] Creating layer conv2
I0403 14:33:32.135291 17141 net.cpp:91] Creating Layer conv2
I0403 14:33:32.135309 17141 net.cpp:425] conv2 <- pool1
I0403 14:33:32.135327 17141 net.cpp:399] conv2 -> conv2
I0403 14:33:32.150460 17141 net.cpp:141] Setting up conv2
I0403 14:33:32.150516 17141 net.cpp:148] Top shape: 100 256 27 27 (18662400)
I0403 14:33:32.150533 17141 net.cpp:156] Memory required for data: 512959600
I0403 14:33:32.150555 17141 layer_factory.hpp:77] Creating layer relu2
I0403 14:33:32.150576 17141 net.cpp:91] Creating Layer relu2
I0403 14:33:32.150593 17141 net.cpp:425] relu2 <- conv2
I0403 14:33:32.150610 17141 net.cpp:386] relu2 -> conv2 (in-place)
I0403 14:33:32.150889 17141 net.cpp:141] Setting up relu2
I0403 14:33:32.150916 17141 net.cpp:148] Top shape: 100 256 27 27 (18662400)
I0403 14:33:32.150931 17141 net.cpp:156] Memory required for data: 587609200
I0403 14:33:32.150948 17141 layer_factory.hpp:77] Creating layer norm2
I0403 14:33:32.150974 17141 net.cpp:91] Creating Layer norm2
I0403 14:33:32.150991 17141 net.cpp:425] norm2 <- conv2
I0403 14:33:32.151010 17141 net.cpp:399] norm2 -> norm2
I0403 14:33:32.151211 17141 net.cpp:141] Setting up norm2
I0403 14:33:32.151237 17141 net.cpp:148] Top shape: 100 256 27 27 (18662400)
I0403 14:33:32.151252 17141 net.cpp:156] Memory required for data: 662258800
I0403 14:33:32.151268 17141 layer_factory.hpp:77] Creating layer pool2
I0403 14:33:32.151288 17141 net.cpp:91] Creating Layer pool2
I0403 14:33:32.151304 17141 net.cpp:425] pool2 <- norm2
I0403 14:33:32.151321 17141 net.cpp:399] pool2 -> pool2
I0403 14:33:32.151376 17141 net.cpp:141] Setting up pool2
I0403 14:33:32.151398 17141 net.cpp:148] Top shape: 100 256 13 13 (4326400)
I0403 14:33:32.151413 17141 net.cpp:156] Memory required for data: 679564400
I0403 14:33:32.151428 17141 layer_factory.hpp:77] Creating layer conv3
I0403 14:33:32.151453 17141 net.cpp:91] Creating Layer conv3
I0403 14:33:32.151469 17141 net.cpp:425] conv3 <- pool2
I0403 14:33:32.151490 17141 net.cpp:399] conv3 -> conv3
I0403 14:33:32.190456 17141 net.cpp:141] Setting up conv3
I0403 14:33:32.190541 17141 net.cpp:148] Top shape: 100 384 13 13 (6489600)
I0403 14:33:32.190558 17141 net.cpp:156] Memory required for data: 705522800
I0403 14:33:32.190584 17141 layer_factory.hpp:77] Creating layer relu3
I0403 14:33:32.190606 17141 net.cpp:91] Creating Layer relu3
I0403 14:33:32.190623 17141 net.cpp:425] relu3 <- conv3
I0403 14:33:32.190642 17141 net.cpp:386] relu3 -> conv3 (in-place)
I0403 14:33:32.190922 17141 net.cpp:141] Setting up relu3
I0403 14:33:32.190951 17141 net.cpp:148] Top shape: 100 384 13 13 (6489600)
I0403 14:33:32.190973 17141 net.cpp:156] Memory required for data: 731481200
I0403 14:33:32.190989 17141 layer_factory.hpp:77] Creating layer conv4
I0403 14:33:32.191015 17141 net.cpp:91] Creating Layer conv4
I0403 14:33:32.191031 17141 net.cpp:425] conv4 <- conv3
I0403 14:33:32.191051 17141 net.cpp:399] conv4 -> conv4
I0403 14:33:32.221751 17141 net.cpp:141] Setting up conv4
I0403 14:33:32.221832 17141 net.cpp:148] Top shape: 100 384 13 13 (6489600)
I0403 14:33:32.221879 17141 net.cpp:156] Memory required for data: 757439600
I0403 14:33:32.221902 17141 layer_factory.hpp:77] Creating layer relu4
I0403 14:33:32.221927 17141 net.cpp:91] Creating Layer relu4
I0403 14:33:32.221945 17141 net.cpp:425] relu4 <- conv4
I0403 14:33:32.221971 17141 net.cpp:386] relu4 -> conv4 (in-place)
I0403 14:33:32.222254 17141 net.cpp:141] Setting up relu4
I0403 14:33:32.222280 17141 net.cpp:148] Top shape: 100 384 13 13 (6489600)
I0403 14:33:32.222295 17141 net.cpp:156] Memory required for data: 783398000
I0403 14:33:32.222311 17141 layer_factory.hpp:77] Creating layer conv5
I0403 14:33:32.222340 17141 net.cpp:91] Creating Layer conv5
I0403 14:33:32.222358 17141 net.cpp:425] conv5 <- conv4
I0403 14:33:32.222379 17141 net.cpp:399] conv5 -> conv5
I0403 14:33:32.243541 17141 net.cpp:141] Setting up conv5
I0403 14:33:32.243609 17141 net.cpp:148] Top shape: 100 256 13 13 (4326400)
I0403 14:33:32.243626 17141 net.cpp:156] Memory required for data: 800703600
I0403 14:33:32.243650 17141 layer_factory.hpp:77] Creating layer relu5
I0403 14:33:32.243675 17141 net.cpp:91] Creating Layer relu5
I0403 14:33:32.243693 17141 net.cpp:425] relu5 <- conv5
I0403 14:33:32.243712 17141 net.cpp:386] relu5 -> conv5 (in-place)
I0403 14:33:32.244007 17141 net.cpp:141] Setting up relu5
I0403 14:33:32.244040 17141 net.cpp:148] Top shape: 100 256 13 13 (4326400)
I0403 14:33:32.244056 17141 net.cpp:156] Memory required for data: 818009200
I0403 14:33:32.244072 17141 layer_factory.hpp:77] Creating layer pool5
I0403 14:33:32.244094 17141 net.cpp:91] Creating Layer pool5
I0403 14:33:32.244112 17141 net.cpp:425] pool5 <- conv5
I0403 14:33:32.244132 17141 net.cpp:399] pool5 -> pool5
I0403 14:33:32.244195 17141 net.cpp:141] Setting up pool5
I0403 14:33:32.244225 17141 net.cpp:148] Top shape: 100 256 6 6 (921600)
I0403 14:33:32.244240 17141 net.cpp:156] Memory required for data: 821695600
I0403 14:33:32.244254 17141 layer_factory.hpp:77] Creating layer fc6
I0403 14:33:32.244282 17141 net.cpp:91] Creating Layer fc6
I0403 14:33:32.244300 17141 net.cpp:425] fc6 <- pool5
I0403 14:33:32.244321 17141 net.cpp:399] fc6 -> fc6
I0403 14:33:33.802779 17141 net.cpp:141] Setting up fc6
I0403 14:33:33.802866 17141 net.cpp:148] Top shape: 100 4096 (409600)
I0403 14:33:33.802882 17141 net.cpp:156] Memory required for data: 823334000
I0403 14:33:33.802903 17141 layer_factory.hpp:77] Creating layer relu6
I0403 14:33:33.802930 17141 net.cpp:91] Creating Layer relu6
I0403 14:33:33.802948 17141 net.cpp:425] relu6 <- fc6
I0403 14:33:33.802974 17141 net.cpp:386] relu6 -> fc6 (in-place)
I0403 14:33:33.803191 17141 net.cpp:141] Setting up relu6
I0403 14:33:33.803218 17141 net.cpp:148] Top shape: 100 4096 (409600)
I0403 14:33:33.803234 17141 net.cpp:156] Memory required for data: 824972400
I0403 14:33:33.803249 17141 layer_factory.hpp:77] Creating layer drop6
I0403 14:33:33.803267 17141 net.cpp:91] Creating Layer drop6
I0403 14:33:33.803283 17141 net.cpp:425] drop6 <- fc6
I0403 14:33:33.803300 17141 net.cpp:386] drop6 -> fc6 (in-place)
I0403 14:33:33.803354 17141 net.cpp:141] Setting up drop6
I0403 14:33:33.803377 17141 net.cpp:148] Top shape: 100 4096 (409600)
I0403 14:33:33.803391 17141 net.cpp:156] Memory required for data: 826610800
I0403 14:33:33.803406 17141 layer_factory.hpp:77] Creating layer fc7
I0403 14:33:33.803426 17141 net.cpp:91] Creating Layer fc7
I0403 14:33:33.803443 17141 net.cpp:425] fc7 <- fc6
I0403 14:33:33.803460 17141 net.cpp:399] fc7 -> fc7
I0403 14:33:34.489814 17141 net.cpp:141] Setting up fc7
I0403 14:33:34.489895 17141 net.cpp:148] Top shape: 100 4096 (409600)
I0403 14:33:34.489914 17141 net.cpp:156] Memory required for data: 828249200
I0403 14:33:34.489935 17141 layer_factory.hpp:77] Creating layer relu7
I0403 14:33:34.489962 17141 net.cpp:91] Creating Layer relu7
I0403 14:33:34.489980 17141 net.cpp:425] relu7 <- fc7
I0403 14:33:34.490000 17141 net.cpp:386] relu7 -> fc7 (in-place)
I0403 14:33:34.490403 17141 net.cpp:141] Setting up relu7
I0403 14:33:34.490432 17141 net.cpp:148] Top shape: 100 4096 (409600)
I0403 14:33:34.490478 17141 net.cpp:156] Memory required for data: 829887600
I0403 14:33:34.490495 17141 layer_factory.hpp:77] Creating layer drop7
I0403 14:33:34.490514 17141 net.cpp:91] Creating Layer drop7
I0403 14:33:34.490530 17141 net.cpp:425] drop7 <- fc7
I0403 14:33:34.490545 17141 net.cpp:386] drop7 -> fc7 (in-place)
I0403 14:33:34.490591 17141 net.cpp:141] Setting up drop7
I0403 14:33:34.490613 17141 net.cpp:148] Top shape: 100 4096 (409600)
I0403 14:33:34.490628 17141 net.cpp:156] Memory required for data: 831526000
I0403 14:33:34.490643 17141 layer_factory.hpp:77] Creating layer fc8_plantvillage
I0403 14:33:34.490664 17141 net.cpp:91] Creating Layer fc8_plantvillage
I0403 14:33:34.490679 17141 net.cpp:425] fc8_plantvillage <- fc7
I0403 14:33:34.490697 17141 net.cpp:399] fc8_plantvillage -> fc8_plantvillage
I0403 14:33:34.497501 17141 net.cpp:141] Setting up fc8_plantvillage
I0403 14:33:34.497529 17141 net.cpp:148] Top shape: 100 38 (3800)
I0403 14:33:34.497544 17141 net.cpp:156] Memory required for data: 831541200
I0403 14:33:34.497561 17141 layer_factory.hpp:77] Creating layer fc8_plantvillage_fc8_plantvillage_0_split
I0403 14:33:34.497582 17141 net.cpp:91] Creating Layer fc8_plantvillage_fc8_plantvillage_0_split
I0403 14:33:34.497597 17141 net.cpp:425] fc8_plantvillage_fc8_plantvillage_0_split <- fc8_plantvillage
I0403 14:33:34.497617 17141 net.cpp:399] fc8_plantvillage_fc8_plantvillage_0_split -> fc8_plantvillage_fc8_plantvillage_0_split_0
I0403 14:33:34.497637 17141 net.cpp:399] fc8_plantvillage_fc8_plantvillage_0_split -> fc8_plantvillage_fc8_plantvillage_0_split_1
I0403 14:33:34.497656 17141 net.cpp:399] fc8_plantvillage_fc8_plantvillage_0_split -> fc8_plantvillage_fc8_plantvillage_0_split_2
I0403 14:33:34.497735 17141 net.cpp:141] Setting up fc8_plantvillage_fc8_plantvillage_0_split
I0403 14:33:34.497758 17141 net.cpp:148] Top shape: 100 38 (3800)
I0403 14:33:34.497774 17141 net.cpp:148] Top shape: 100 38 (3800)
I0403 14:33:34.497789 17141 net.cpp:148] Top shape: 100 38 (3800)
I0403 14:33:34.497802 17141 net.cpp:156] Memory required for data: 831586800
I0403 14:33:34.497817 17141 layer_factory.hpp:77] Creating layer prob
I0403 14:33:34.497838 17141 net.cpp:91] Creating Layer prob
I0403 14:33:34.497854 17141 net.cpp:425] prob <- fc8_plantvillage_fc8_plantvillage_0_split_0
I0403 14:33:34.497872 17141 net.cpp:399] prob -> prob
I0403 14:33:34.498111 17141 net.cpp:141] Setting up prob
I0403 14:33:34.498141 17141 net.cpp:148] Top shape: 100 38 (3800)
I0403 14:33:34.498157 17141 net.cpp:156] Memory required for data: 831602000
I0403 14:33:34.498172 17141 layer_factory.hpp:77] Creating layer hdf5out
I0403 14:33:34.498189 17141 net.cpp:91] Creating Layer hdf5out
I0403 14:33:34.498205 17141 net.cpp:425] hdf5out <- prob
I0403 14:33:34.498221 17141 net.cpp:425] hdf5out <- label_data_1_split_0
I0403 14:33:34.500615 17141 net.cpp:141] Setting up hdf5out
…
