…
I0403 14:29:55.684418 17044 net.cpp:313] The NetState phase (1) differed from the phase (0) specified by a rule in layer data
I0403 14:29:55.684741 17044 net.cpp:49] Initializing net from parameters: 
state {
  phase: TEST
}
layer {
  name: "data"
  type: "Data"
  top: "data"
  top: "label"
  include {
    phase: TEST
  }
  transform_param {
    crop_size: 227
    mean_file: "/home/mohanty/data/final_dataset/lmdb/segmented-60-40/mean.binaryproto"
  }
  data_param {
    source: "/home/mohanty/data/final_dataset/lmdb/segmented-60-40/test_db"
    batch_size: 100
    backend: LMDB
  }
}
layer {
  name: "conv1"
  type: "Convolution"
  bottom: "data"
  top: "conv1"
  param {
    lr_mult: 1
    decay_mult: 1
  }
  param {
    lr_mult: 2
    decay_mult: 0
  }
  convolution_param {
    num_output: 96
    kernel_size: 11
    stride: 4
    weight_filler {
      type: "gaussian"
      std: 0.01
    }
    bias_filler {
      type: "constant"
      value: 0
    }
  }
}
layer {
  name: "relu1"
  type: "ReLU"
  bottom: "conv1"
  top: "conv1"
}
layer {
  name: "norm1"
  type: "LRN"
  bottom: "conv1"
  top: "norm1"
  lrn_param {
    local_size: 5
    alpha: 0.0001
    beta: 0.75
  }
}
layer {
  name: "pool1"
  type: "Pooling"
  bottom: "norm1"
  top: "pool1"
  pooling_param {
    pool: MAX
    kernel_size: 3
    stride: 2
  }
}
layer {
  name: "conv2"
  type: "Convolution"
  bottom: "pool1"
  top: "conv2"
  param {
    lr_mult: 1
    decay_mult: 1
  }
  param {
    lr_mult: 2
    decay_mult: 0
  }
  convolution_param {
    num_output: 256
    pad: 2
    kernel_size: 5
    group: 2
    weight_filler {
      type: "gaussian"
      std: 0.01
    }
    bias_filler {
      type: "constant"
      value: 0.1
    }
  }
}
layer {
  name: "relu2"
  type: "ReLU"
  bottom: "conv2"
  top: "conv2"
}
layer {
  name: "norm2"
  type: "LRN"
  bottom: "conv2"
  top: "norm2"
  lrn_param {
    local_size: 5
    alpha: 0.0001
    beta: 0.75
  }
}
layer {
  name: "pool2"
  type: "Pooling"
  bottom: "norm2"
  top: "pool2"
  pooling_param {
    pool: MAX
    kernel_size: 3
    stride: 2
  }
}
layer {
  name: "conv3"
  type: "Convolution"
  bottom: "pool2"
  top: "conv3"
  param {
    lr_mult: 1
    decay_mult: 1
  }
  param {
    lr_mult: 2
    decay_mult: 0
  }
  convolution_param {
    num_output: 384
    pad: 1
    kernel_size: 3
    weight_filler {
      type: "gaussian"
      std: 0.01
    }
    bias_filler {
      type: "constant"
      value: 0
    }
  }
}
layer {
  name: "relu3"
  type: "ReLU"
  bottom: "conv3"
  top: "conv3"
}
layer {
  name: "conv4"
  type: "Convolution"
  bottom: "conv3"
  top: "conv4"
  param {
    lr_mult: 1
    decay_mult: 1
  }
  param {
    lr_mult: 2
    decay_mult: 0
  }
  convolution_param {
    num_output: 384
    pad: 1
    kernel_size: 3
    group: 2
    weight_filler {
      type: "gaussian"
      std: 0.01
    }
    bias_filler {
      type: "constant"
      value: 0.1
    }
  }
}
layer {
  name: "relu4"
  type: "ReLU"
  bottom: "conv4"
  top: "conv4"
}
layer {
  name: "conv5"
  type: "Convolution"
  bottom: "conv4"
  top: "conv5"
  param {
    lr_mult: 1
    decay_mult: 1
  }
  param {
    lr_mult: 2
    decay_mult: 0
  }
  convolution_param {
    num_output: 256
    pad: 1
    kernel_size: 3
    group: 2
    weight_filler {
      type: "gaussian"
      std: 0.01
    }
    bias_filler {
      type: "constant"
      value: 0.1
    }
  }
}
layer {
  name: "relu5"
  type: "ReLU"
  bottom: "conv5"
  top: "conv5"
}
layer {
  name: "pool5"
  type: "Pooling"
  bottom: "conv5"
  top: "pool5"
  pooling_param {
    pool: MAX
    kernel_size: 3
    stride: 2
  }
}
layer {
  name: "fc6"
  type: "InnerProduct"
  bottom: "pool5"
  top: "fc6"
  param {
    lr_mult: 1
    decay_mult: 1
  }
  param {
    lr_mult: 2
    decay_mult: 0
  }
  inner_product_param {
    num_output: 4096
    weight_filler {
      type: "gaussian"
      std: 0.005
    }
    bias_filler {
      type: "constant"
      value: 0.1
    }
  }
}
layer {
  name: "relu6"
  type: "ReLU"
  bottom: "fc6"
  top: "fc6"
}
layer {
  name: "drop6"
  type: "Dropout"
  bottom: "fc6"
  top: "fc6"
  dropout_param {
    dropout_ratio: 0.5
  }
}
layer {
  name: "fc7"
  type: "InnerProduct"
  bottom: "fc6"
  top: "fc7"
  param {
    lr_mult: 1
    decay_mult: 1
  }
  param {
    lr_mult: 2
    decay_mult: 0
  }
  inner_product_param {
    num_output: 4096
    weight_filler {
      type: "gaussian"
      std: 0.005
    }
    bias_filler {
      type: "constant"
      value: 0.1
    }
  }
}
layer {
  name: "relu7"
  type: "ReLU"
  bottom: "fc7"
  top: "fc7"
}
layer {
  name: "drop7"
  type: "Dropout"
  bottom: "fc7"
  top: "fc7"
  dropout_param {
    dropout_ratio: 0.5
  }
}
layer {
  name: "fc8_plantvillage"
  type: "InnerProduct"
  bottom: "fc7"
  top: "fc8_plantvillage"
  param {
    lr_mult: 1
    decay_mult: 1
  }
  param {
    lr_mult: 2
    decay_mult: 0
  }
  inner_product_param {
    num_output: 38
    weight_filler {
      type: "gaussian"
      std: 0.01
    }
    bias_filler {
      type: "constant"
      value: 0
    }
  }
}
layer {
  name: "prob"
  type: "Softmax"
  bottom: "fc8_plantvillage"
  top: "prob"
  include {
    phase: TEST
  }
}
layer {
  name: "hdf5out"
  type: "HDF5Output"
  bottom: "prob"
  bottom: "label"
  include {
    phase: TEST
  }
  hdf5_output_param {
    file_name: "hdf5_dumps/iter_1950.h5"
  }
}
layer {
  name: "loss"
  type: "SoftmaxWithLoss"
  bottom: "fc8_plantvillage"
  bottom: "label"
  top: "loss"
}
layer {
  name: "accuracy"
  type: "Accuracy"
  bottom: "fc8_plantvillage"
  bottom: "label"
  top: "accuracy"
  include {
    phase: TEST
  }
}
I0403 14:29:55.685319 17044 layer_factory.hpp:77] Creating layer data
I0403 14:29:55.685964 17044 net.cpp:91] Creating Layer data
I0403 14:29:55.685999 17044 net.cpp:399] data -> data
I0403 14:29:55.686053 17044 net.cpp:399] data -> label
I0403 14:29:55.686090 17044 data_transformer.cpp:25] Loading mean file from: /home/mohanty/data/final_dataset/lmdb/segmented-60-40/mean.binaryproto
I0403 14:29:55.687186 17047 db_lmdb.cpp:38] Opened lmdb /home/mohanty/data/final_dataset/lmdb/segmented-60-40/test_db
I0403 14:29:55.700346 17044 data_layer.cpp:41] output data size: 100,3,227,227
I0403 14:29:55.837780 17044 net.cpp:141] Setting up data
I0403 14:29:55.837884 17044 net.cpp:148] Top shape: 100 3 227 227 (15458700)
I0403 14:29:55.837906 17044 net.cpp:148] Top shape: 100 (100)
I0403 14:29:55.837920 17044 net.cpp:156] Memory required for data: 61835200
I0403 14:29:55.837947 17044 layer_factory.hpp:77] Creating layer label_data_1_split
I0403 14:29:55.837973 17044 net.cpp:91] Creating Layer label_data_1_split
I0403 14:29:55.837993 17044 net.cpp:425] label_data_1_split <- label
I0403 14:29:55.838027 17044 net.cpp:399] label_data_1_split -> label_data_1_split_0
I0403 14:29:55.838053 17044 net.cpp:399] label_data_1_split -> label_data_1_split_1
I0403 14:29:55.838073 17044 net.cpp:399] label_data_1_split -> label_data_1_split_2
I0403 14:29:55.838135 17044 net.cpp:141] Setting up label_data_1_split
I0403 14:29:55.838157 17044 net.cpp:148] Top shape: 100 (100)
I0403 14:29:55.838173 17044 net.cpp:148] Top shape: 100 (100)
I0403 14:29:55.838188 17044 net.cpp:148] Top shape: 100 (100)
I0403 14:29:55.838202 17044 net.cpp:156] Memory required for data: 61836400
I0403 14:29:55.838217 17044 layer_factory.hpp:77] Creating layer conv1
I0403 14:29:55.838248 17044 net.cpp:91] Creating Layer conv1
I0403 14:29:55.838264 17044 net.cpp:425] conv1 <- data
I0403 14:29:55.838282 17044 net.cpp:399] conv1 -> conv1
I0403 14:29:55.984777 17044 net.cpp:141] Setting up conv1
I0403 14:29:55.984858 17044 net.cpp:148] Top shape: 100 96 55 55 (29040000)
I0403 14:29:55.984875 17044 net.cpp:156] Memory required for data: 177996400
I0403 14:29:55.984906 17044 layer_factory.hpp:77] Creating layer relu1
I0403 14:29:55.984932 17044 net.cpp:91] Creating Layer relu1
I0403 14:29:55.984951 17044 net.cpp:425] relu1 <- conv1
I0403 14:29:55.984968 17044 net.cpp:386] relu1 -> conv1 (in-place)
I0403 14:29:55.985224 17044 net.cpp:141] Setting up relu1
I0403 14:29:55.985251 17044 net.cpp:148] Top shape: 100 96 55 55 (29040000)
I0403 14:29:55.985299 17044 net.cpp:156] Memory required for data: 294156400
I0403 14:29:55.985316 17044 layer_factory.hpp:77] Creating layer norm1
I0403 14:29:55.985342 17044 net.cpp:91] Creating Layer norm1
I0403 14:29:55.985360 17044 net.cpp:425] norm1 <- conv1
I0403 14:29:55.985378 17044 net.cpp:399] norm1 -> norm1
I0403 14:29:55.985694 17044 net.cpp:141] Setting up norm1
I0403 14:29:55.985723 17044 net.cpp:148] Top shape: 100 96 55 55 (29040000)
I0403 14:29:55.985738 17044 net.cpp:156] Memory required for data: 410316400
I0403 14:29:55.985754 17044 layer_factory.hpp:77] Creating layer pool1
I0403 14:29:55.985776 17044 net.cpp:91] Creating Layer pool1
I0403 14:29:55.985795 17044 net.cpp:425] pool1 <- norm1
I0403 14:29:55.985812 17044 net.cpp:399] pool1 -> pool1
I0403 14:29:55.985882 17044 net.cpp:141] Setting up pool1
I0403 14:29:55.985904 17044 net.cpp:148] Top shape: 100 96 27 27 (6998400)
I0403 14:29:55.985920 17044 net.cpp:156] Memory required for data: 438310000
I0403 14:29:55.985935 17044 layer_factory.hpp:77] Creating layer conv2
I0403 14:29:55.985960 17044 net.cpp:91] Creating Layer conv2
I0403 14:29:55.985975 17044 net.cpp:425] conv2 <- pool1
I0403 14:29:55.985999 17044 net.cpp:399] conv2 -> conv2
I0403 14:29:56.001193 17044 net.cpp:141] Setting up conv2
I0403 14:29:56.001248 17044 net.cpp:148] Top shape: 100 256 27 27 (18662400)
I0403 14:29:56.001287 17044 net.cpp:156] Memory required for data: 512959600
I0403 14:29:56.001312 17044 layer_factory.hpp:77] Creating layer relu2
I0403 14:29:56.001332 17044 net.cpp:91] Creating Layer relu2
I0403 14:29:56.001348 17044 net.cpp:425] relu2 <- conv2
I0403 14:29:56.001366 17044 net.cpp:386] relu2 -> conv2 (in-place)
I0403 14:29:56.001631 17044 net.cpp:141] Setting up relu2
I0403 14:29:56.001670 17044 net.cpp:148] Top shape: 100 256 27 27 (18662400)
I0403 14:29:56.001689 17044 net.cpp:156] Memory required for data: 587609200
I0403 14:29:56.001704 17044 layer_factory.hpp:77] Creating layer norm2
I0403 14:29:56.001727 17044 net.cpp:91] Creating Layer norm2
I0403 14:29:56.001744 17044 net.cpp:425] norm2 <- conv2
I0403 14:29:56.001761 17044 net.cpp:399] norm2 -> norm2
I0403 14:29:56.001950 17044 net.cpp:141] Setting up norm2
I0403 14:29:56.001991 17044 net.cpp:148] Top shape: 100 256 27 27 (18662400)
I0403 14:29:56.002007 17044 net.cpp:156] Memory required for data: 662258800
I0403 14:29:56.002032 17044 layer_factory.hpp:77] Creating layer pool2
I0403 14:29:56.002053 17044 net.cpp:91] Creating Layer pool2
I0403 14:29:56.002068 17044 net.cpp:425] pool2 <- norm2
I0403 14:29:56.002086 17044 net.cpp:399] pool2 -> pool2
I0403 14:29:56.002138 17044 net.cpp:141] Setting up pool2
I0403 14:29:56.002161 17044 net.cpp:148] Top shape: 100 256 13 13 (4326400)
I0403 14:29:56.002177 17044 net.cpp:156] Memory required for data: 679564400
I0403 14:29:56.002190 17044 layer_factory.hpp:77] Creating layer conv3
I0403 14:29:56.002213 17044 net.cpp:91] Creating Layer conv3
I0403 14:29:56.002229 17044 net.cpp:425] conv3 <- pool2
I0403 14:29:56.002248 17044 net.cpp:399] conv3 -> conv3
I0403 14:29:56.040740 17044 net.cpp:141] Setting up conv3
I0403 14:29:56.040838 17044 net.cpp:148] Top shape: 100 384 13 13 (6489600)
I0403 14:29:56.040859 17044 net.cpp:156] Memory required for data: 705522800
I0403 14:29:56.040884 17044 layer_factory.hpp:77] Creating layer relu3
I0403 14:29:56.040907 17044 net.cpp:91] Creating Layer relu3
I0403 14:29:56.040923 17044 net.cpp:425] relu3 <- conv3
I0403 14:29:56.040942 17044 net.cpp:386] relu3 -> conv3 (in-place)
I0403 14:29:56.041224 17044 net.cpp:141] Setting up relu3
I0403 14:29:56.041251 17044 net.cpp:148] Top shape: 100 384 13 13 (6489600)
I0403 14:29:56.041266 17044 net.cpp:156] Memory required for data: 731481200
I0403 14:29:56.041281 17044 layer_factory.hpp:77] Creating layer conv4
I0403 14:29:56.041306 17044 net.cpp:91] Creating Layer conv4
I0403 14:29:56.041324 17044 net.cpp:425] conv4 <- conv3
I0403 14:29:56.041345 17044 net.cpp:399] conv4 -> conv4
I0403 14:29:56.071938 17044 net.cpp:141] Setting up conv4
I0403 14:29:56.072034 17044 net.cpp:148] Top shape: 100 384 13 13 (6489600)
I0403 14:29:56.072084 17044 net.cpp:156] Memory required for data: 757439600
I0403 14:29:56.072108 17044 layer_factory.hpp:77] Creating layer relu4
I0403 14:29:56.072130 17044 net.cpp:91] Creating Layer relu4
I0403 14:29:56.072152 17044 net.cpp:425] relu4 <- conv4
I0403 14:29:56.072175 17044 net.cpp:386] relu4 -> conv4 (in-place)
I0403 14:29:56.072512 17044 net.cpp:141] Setting up relu4
I0403 14:29:56.072540 17044 net.cpp:148] Top shape: 100 384 13 13 (6489600)
I0403 14:29:56.072556 17044 net.cpp:156] Memory required for data: 783398000
I0403 14:29:56.072571 17044 layer_factory.hpp:77] Creating layer conv5
I0403 14:29:56.072597 17044 net.cpp:91] Creating Layer conv5
I0403 14:29:56.072613 17044 net.cpp:425] conv5 <- conv4
I0403 14:29:56.072634 17044 net.cpp:399] conv5 -> conv5
I0403 14:29:56.093847 17044 net.cpp:141] Setting up conv5
I0403 14:29:56.093910 17044 net.cpp:148] Top shape: 100 256 13 13 (4326400)
I0403 14:29:56.093926 17044 net.cpp:156] Memory required for data: 800703600
I0403 14:29:56.093951 17044 layer_factory.hpp:77] Creating layer relu5
I0403 14:29:56.093976 17044 net.cpp:91] Creating Layer relu5
I0403 14:29:56.093999 17044 net.cpp:425] relu5 <- conv5
I0403 14:29:56.094018 17044 net.cpp:386] relu5 -> conv5 (in-place)
I0403 14:29:56.094341 17044 net.cpp:141] Setting up relu5
I0403 14:29:56.094369 17044 net.cpp:148] Top shape: 100 256 13 13 (4326400)
I0403 14:29:56.094384 17044 net.cpp:156] Memory required for data: 818009200
I0403 14:29:56.094400 17044 layer_factory.hpp:77] Creating layer pool5
I0403 14:29:56.094424 17044 net.cpp:91] Creating Layer pool5
I0403 14:29:56.094442 17044 net.cpp:425] pool5 <- conv5
I0403 14:29:56.094461 17044 net.cpp:399] pool5 -> pool5
I0403 14:29:56.094524 17044 net.cpp:141] Setting up pool5
I0403 14:29:56.094550 17044 net.cpp:148] Top shape: 100 256 6 6 (921600)
I0403 14:29:56.094565 17044 net.cpp:156] Memory required for data: 821695600
I0403 14:29:56.094580 17044 layer_factory.hpp:77] Creating layer fc6
I0403 14:29:56.094609 17044 net.cpp:91] Creating Layer fc6
I0403 14:29:56.094629 17044 net.cpp:425] fc6 <- pool5
I0403 14:29:56.094647 17044 net.cpp:399] fc6 -> fc6
I0403 14:29:57.661643 17044 net.cpp:141] Setting up fc6
I0403 14:29:57.661731 17044 net.cpp:148] Top shape: 100 4096 (409600)
I0403 14:29:57.661747 17044 net.cpp:156] Memory required for data: 823334000
I0403 14:29:57.661767 17044 layer_factory.hpp:77] Creating layer relu6
I0403 14:29:57.661788 17044 net.cpp:91] Creating Layer relu6
I0403 14:29:57.661805 17044 net.cpp:425] relu6 <- fc6
I0403 14:29:57.661826 17044 net.cpp:386] relu6 -> fc6 (in-place)
I0403 14:29:57.662045 17044 net.cpp:141] Setting up relu6
I0403 14:29:57.662070 17044 net.cpp:148] Top shape: 100 4096 (409600)
I0403 14:29:57.662084 17044 net.cpp:156] Memory required for data: 824972400
I0403 14:29:57.662099 17044 layer_factory.hpp:77] Creating layer drop6
I0403 14:29:57.662117 17044 net.cpp:91] Creating Layer drop6
I0403 14:29:57.662133 17044 net.cpp:425] drop6 <- fc6
I0403 14:29:57.662153 17044 net.cpp:386] drop6 -> fc6 (in-place)
I0403 14:29:57.662207 17044 net.cpp:141] Setting up drop6
I0403 14:29:57.662230 17044 net.cpp:148] Top shape: 100 4096 (409600)
I0403 14:29:57.662245 17044 net.cpp:156] Memory required for data: 826610800
I0403 14:29:57.662259 17044 layer_factory.hpp:77] Creating layer fc7
I0403 14:29:57.662278 17044 net.cpp:91] Creating Layer fc7
I0403 14:29:57.662293 17044 net.cpp:425] fc7 <- fc6
I0403 14:29:57.662313 17044 net.cpp:399] fc7 -> fc7
I0403 14:29:58.353575 17044 net.cpp:141] Setting up fc7
I0403 14:29:58.353657 17044 net.cpp:148] Top shape: 100 4096 (409600)
I0403 14:29:58.353673 17044 net.cpp:156] Memory required for data: 828249200
I0403 14:29:58.353706 17044 layer_factory.hpp:77] Creating layer relu7
I0403 14:29:58.353731 17044 net.cpp:91] Creating Layer relu7
I0403 14:29:58.353750 17044 net.cpp:425] relu7 <- fc7
I0403 14:29:58.353770 17044 net.cpp:386] relu7 -> fc7 (in-place)
I0403 14:29:58.354210 17044 net.cpp:141] Setting up relu7
I0403 14:29:58.354236 17044 net.cpp:148] Top shape: 100 4096 (409600)
I0403 14:29:58.354282 17044 net.cpp:156] Memory required for data: 829887600
I0403 14:29:58.354297 17044 layer_factory.hpp:77] Creating layer drop7
I0403 14:29:58.354318 17044 net.cpp:91] Creating Layer drop7
I0403 14:29:58.354334 17044 net.cpp:425] drop7 <- fc7
I0403 14:29:58.354351 17044 net.cpp:386] drop7 -> fc7 (in-place)
I0403 14:29:58.354393 17044 net.cpp:141] Setting up drop7
I0403 14:29:58.354415 17044 net.cpp:148] Top shape: 100 4096 (409600)
I0403 14:29:58.354430 17044 net.cpp:156] Memory required for data: 831526000
I0403 14:29:58.354444 17044 layer_factory.hpp:77] Creating layer fc8_plantvillage
I0403 14:29:58.354463 17044 net.cpp:91] Creating Layer fc8_plantvillage
I0403 14:29:58.354478 17044 net.cpp:425] fc8_plantvillage <- fc7
I0403 14:29:58.354497 17044 net.cpp:399] fc8_plantvillage -> fc8_plantvillage
I0403 14:29:58.361273 17044 net.cpp:141] Setting up fc8_plantvillage
I0403 14:29:58.361300 17044 net.cpp:148] Top shape: 100 38 (3800)
I0403 14:29:58.361315 17044 net.cpp:156] Memory required for data: 831541200
I0403 14:29:58.361332 17044 layer_factory.hpp:77] Creating layer fc8_plantvillage_fc8_plantvillage_0_split
I0403 14:29:58.361353 17044 net.cpp:91] Creating Layer fc8_plantvillage_fc8_plantvillage_0_split
I0403 14:29:58.361369 17044 net.cpp:425] fc8_plantvillage_fc8_plantvillage_0_split <- fc8_plantvillage
I0403 14:29:58.361387 17044 net.cpp:399] fc8_plantvillage_fc8_plantvillage_0_split -> fc8_plantvillage_fc8_plantvillage_0_split_0
I0403 14:29:58.361405 17044 net.cpp:399] fc8_plantvillage_fc8_plantvillage_0_split -> fc8_plantvillage_fc8_plantvillage_0_split_1
I0403 14:29:58.361423 17044 net.cpp:399] fc8_plantvillage_fc8_plantvillage_0_split -> fc8_plantvillage_fc8_plantvillage_0_split_2
I0403 14:29:58.361502 17044 net.cpp:141] Setting up fc8_plantvillage_fc8_plantvillage_0_split
I0403 14:29:58.361526 17044 net.cpp:148] Top shape: 100 38 (3800)
I0403 14:29:58.361541 17044 net.cpp:148] Top shape: 100 38 (3800)
I0403 14:29:58.361554 17044 net.cpp:148] Top shape: 100 38 (3800)
I0403 14:29:58.361568 17044 net.cpp:156] Memory required for data: 831586800
I0403 14:29:58.361582 17044 layer_factory.hpp:77] Creating layer prob
I0403 14:29:58.361600 17044 net.cpp:91] Creating Layer prob
I0403 14:29:58.361615 17044 net.cpp:425] prob <- fc8_plantvillage_fc8_plantvillage_0_split_0
I0403 14:29:58.361635 17044 net.cpp:399] prob -> prob
I0403 14:29:58.361863 17044 net.cpp:141] Setting up prob
I0403 14:29:58.361888 17044 net.cpp:148] Top shape: 100 38 (3800)
I0403 14:29:58.361902 17044 net.cpp:156] Memory required for data: 831602000
I0403 14:29:58.361917 17044 layer_factory.hpp:77] Creating layer hdf5out
I0403 14:29:58.361937 17044 net.cpp:91] Creating Layer hdf5out
I0403 14:29:58.361953 17044 net.cpp:425] hdf5out <- prob
I0403 14:29:58.361969 17044 net.cpp:425] hdf5out <- label_data_1_split_0
I0403 14:29:58.364079 17044 net.cpp:141] Setting up hdf5out
…
