…
I0403 14:41:27.017854 17373 net.cpp:313] The NetState phase (1) differed from the phase (0) specified by a rule in layer data
I0403 14:41:27.018182 17373 net.cpp:49] Initializing net from parameters: 
state {
  phase: TEST
}
layer {
  name: "data"
  type: "Data"
  top: "data"
  top: "label"
  include {
    phase: TEST
  }
  transform_param {
    crop_size: 227
    mean_file: "/home/mohanty/data/final_dataset/lmdb/segmented-60-40/mean.binaryproto"
  }
  data_param {
    source: "/home/mohanty/data/final_dataset/lmdb/segmented-60-40/test_db"
    batch_size: 100
    backend: LMDB
  }
}
layer {
  name: "conv1"
  type: "Convolution"
  bottom: "data"
  top: "conv1"
  param {
    lr_mult: 1
    decay_mult: 1
  }
  param {
    lr_mult: 2
    decay_mult: 0
  }
  convolution_param {
    num_output: 96
    kernel_size: 11
    stride: 4
    weight_filler {
      type: "gaussian"
      std: 0.01
    }
    bias_filler {
      type: "constant"
      value: 0
    }
  }
}
layer {
  name: "relu1"
  type: "ReLU"
  bottom: "conv1"
  top: "conv1"
}
layer {
  name: "norm1"
  type: "LRN"
  bottom: "conv1"
  top: "norm1"
  lrn_param {
    local_size: 5
    alpha: 0.0001
    beta: 0.75
  }
}
layer {
  name: "pool1"
  type: "Pooling"
  bottom: "norm1"
  top: "pool1"
  pooling_param {
    pool: MAX
    kernel_size: 3
    stride: 2
  }
}
layer {
  name: "conv2"
  type: "Convolution"
  bottom: "pool1"
  top: "conv2"
  param {
    lr_mult: 1
    decay_mult: 1
  }
  param {
    lr_mult: 2
    decay_mult: 0
  }
  convolution_param {
    num_output: 256
    pad: 2
    kernel_size: 5
    group: 2
    weight_filler {
      type: "gaussian"
      std: 0.01
    }
    bias_filler {
      type: "constant"
      value: 0.1
    }
  }
}
layer {
  name: "relu2"
  type: "ReLU"
  bottom: "conv2"
  top: "conv2"
}
layer {
  name: "norm2"
  type: "LRN"
  bottom: "conv2"
  top: "norm2"
  lrn_param {
    local_size: 5
    alpha: 0.0001
    beta: 0.75
  }
}
layer {
  name: "pool2"
  type: "Pooling"
  bottom: "norm2"
  top: "pool2"
  pooling_param {
    pool: MAX
    kernel_size: 3
    stride: 2
  }
}
layer {
  name: "conv3"
  type: "Convolution"
  bottom: "pool2"
  top: "conv3"
  param {
    lr_mult: 1
    decay_mult: 1
  }
  param {
    lr_mult: 2
    decay_mult: 0
  }
  convolution_param {
    num_output: 384
    pad: 1
    kernel_size: 3
    weight_filler {
      type: "gaussian"
      std: 0.01
    }
    bias_filler {
      type: "constant"
      value: 0
    }
  }
}
layer {
  name: "relu3"
  type: "ReLU"
  bottom: "conv3"
  top: "conv3"
}
layer {
  name: "conv4"
  type: "Convolution"
  bottom: "conv3"
  top: "conv4"
  param {
    lr_mult: 1
    decay_mult: 1
  }
  param {
    lr_mult: 2
    decay_mult: 0
  }
  convolution_param {
    num_output: 384
    pad: 1
    kernel_size: 3
    group: 2
    weight_filler {
      type: "gaussian"
      std: 0.01
    }
    bias_filler {
      type: "constant"
      value: 0.1
    }
  }
}
layer {
  name: "relu4"
  type: "ReLU"
  bottom: "conv4"
  top: "conv4"
}
layer {
  name: "conv5"
  type: "Convolution"
  bottom: "conv4"
  top: "conv5"
  param {
    lr_mult: 1
    decay_mult: 1
  }
  param {
    lr_mult: 2
    decay_mult: 0
  }
  convolution_param {
    num_output: 256
    pad: 1
    kernel_size: 3
    group: 2
    weight_filler {
      type: "gaussian"
      std: 0.01
    }
    bias_filler {
      type: "constant"
      value: 0.1
    }
  }
}
layer {
  name: "relu5"
  type: "ReLU"
  bottom: "conv5"
  top: "conv5"
}
layer {
  name: "pool5"
  type: "Pooling"
  bottom: "conv5"
  top: "pool5"
  pooling_param {
    pool: MAX
    kernel_size: 3
    stride: 2
  }
}
layer {
  name: "fc6"
  type: "InnerProduct"
  bottom: "pool5"
  top: "fc6"
  param {
    lr_mult: 1
    decay_mult: 1
  }
  param {
    lr_mult: 2
    decay_mult: 0
  }
  inner_product_param {
    num_output: 4096
    weight_filler {
      type: "gaussian"
      std: 0.005
    }
    bias_filler {
      type: "constant"
      value: 0.1
    }
  }
}
layer {
  name: "relu6"
  type: "ReLU"
  bottom: "fc6"
  top: "fc6"
}
layer {
  name: "drop6"
  type: "Dropout"
  bottom: "fc6"
  top: "fc6"
  dropout_param {
    dropout_ratio: 0.5
  }
}
layer {
  name: "fc7"
  type: "InnerProduct"
  bottom: "fc6"
  top: "fc7"
  param {
    lr_mult: 1
    decay_mult: 1
  }
  param {
    lr_mult: 2
    decay_mult: 0
  }
  inner_product_param {
    num_output: 4096
    weight_filler {
      type: "gaussian"
      std: 0.005
    }
    bias_filler {
      type: "constant"
      value: 0.1
    }
  }
}
layer {
  name: "relu7"
  type: "ReLU"
  bottom: "fc7"
  top: "fc7"
}
layer {
  name: "drop7"
  type: "Dropout"
  bottom: "fc7"
  top: "fc7"
  dropout_param {
    dropout_ratio: 0.5
  }
}
layer {
  name: "fc8_plantvillage"
  type: "InnerProduct"
  bottom: "fc7"
  top: "fc8_plantvillage"
  param {
    lr_mult: 1
    decay_mult: 1
  }
  param {
    lr_mult: 2
    decay_mult: 0
  }
  inner_product_param {
    num_output: 38
    weight_filler {
      type: "gaussian"
      std: 0.01
    }
    bias_filler {
      type: "constant"
      value: 0
    }
  }
}
layer {
  name: "prob"
  type: "Softmax"
  bottom: "fc8_plantvillage"
  top: "prob"
  include {
    phase: TEST
  }
}
layer {
  name: "hdf5out"
  type: "HDF5Output"
  bottom: "prob"
  bottom: "label"
  include {
    phase: TEST
  }
  hdf5_output_param {
    file_name: "hdf5_dumps/iter_7150.h5"
  }
}
layer {
  name: "loss"
  type: "SoftmaxWithLoss"
  bottom: "fc8_plantvillage"
  bottom: "label"
  top: "loss"
}
layer {
  name: "accuracy"
  type: "Accuracy"
  bottom: "fc8_plantvillage"
  bottom: "label"
  top: "accuracy"
  include {
    phase: TEST
  }
}
I0403 14:41:27.018749 17373 layer_factory.hpp:77] Creating layer data
I0403 14:41:27.019403 17373 net.cpp:91] Creating Layer data
I0403 14:41:27.019438 17373 net.cpp:399] data -> data
I0403 14:41:27.019486 17373 net.cpp:399] data -> label
I0403 14:41:27.019522 17373 data_transformer.cpp:25] Loading mean file from: /home/mohanty/data/final_dataset/lmdb/segmented-60-40/mean.binaryproto
I0403 14:41:27.020658 17376 db_lmdb.cpp:38] Opened lmdb /home/mohanty/data/final_dataset/lmdb/segmented-60-40/test_db
I0403 14:41:27.033846 17373 data_layer.cpp:41] output data size: 100,3,227,227
I0403 14:41:27.170177 17373 net.cpp:141] Setting up data
I0403 14:41:27.170295 17373 net.cpp:148] Top shape: 100 3 227 227 (15458700)
I0403 14:41:27.170320 17373 net.cpp:148] Top shape: 100 (100)
I0403 14:41:27.170334 17373 net.cpp:156] Memory required for data: 61835200
I0403 14:41:27.170362 17373 layer_factory.hpp:77] Creating layer label_data_1_split
I0403 14:41:27.170387 17373 net.cpp:91] Creating Layer label_data_1_split
I0403 14:41:27.170405 17373 net.cpp:425] label_data_1_split <- label
I0403 14:41:27.170436 17373 net.cpp:399] label_data_1_split -> label_data_1_split_0
I0403 14:41:27.170462 17373 net.cpp:399] label_data_1_split -> label_data_1_split_1
I0403 14:41:27.170483 17373 net.cpp:399] label_data_1_split -> label_data_1_split_2
I0403 14:41:27.170547 17373 net.cpp:141] Setting up label_data_1_split
I0403 14:41:27.170569 17373 net.cpp:148] Top shape: 100 (100)
I0403 14:41:27.170598 17373 net.cpp:148] Top shape: 100 (100)
I0403 14:41:27.170613 17373 net.cpp:148] Top shape: 100 (100)
I0403 14:41:27.170626 17373 net.cpp:156] Memory required for data: 61836400
I0403 14:41:27.170641 17373 layer_factory.hpp:77] Creating layer conv1
I0403 14:41:27.170672 17373 net.cpp:91] Creating Layer conv1
I0403 14:41:27.170691 17373 net.cpp:425] conv1 <- data
I0403 14:41:27.170709 17373 net.cpp:399] conv1 -> conv1
I0403 14:41:27.319381 17373 net.cpp:141] Setting up conv1
I0403 14:41:27.319458 17373 net.cpp:148] Top shape: 100 96 55 55 (29040000)
I0403 14:41:27.319475 17373 net.cpp:156] Memory required for data: 177996400
I0403 14:41:27.319506 17373 layer_factory.hpp:77] Creating layer relu1
I0403 14:41:27.319535 17373 net.cpp:91] Creating Layer relu1
I0403 14:41:27.319552 17373 net.cpp:425] relu1 <- conv1
I0403 14:41:27.319592 17373 net.cpp:386] relu1 -> conv1 (in-place)
I0403 14:41:27.319888 17373 net.cpp:141] Setting up relu1
I0403 14:41:27.319919 17373 net.cpp:148] Top shape: 100 96 55 55 (29040000)
I0403 14:41:27.319972 17373 net.cpp:156] Memory required for data: 294156400
I0403 14:41:27.319990 17373 layer_factory.hpp:77] Creating layer norm1
I0403 14:41:27.320020 17373 net.cpp:91] Creating Layer norm1
I0403 14:41:27.320039 17373 net.cpp:425] norm1 <- conv1
I0403 14:41:27.320057 17373 net.cpp:399] norm1 -> norm1
I0403 14:41:27.320401 17373 net.cpp:141] Setting up norm1
I0403 14:41:27.320430 17373 net.cpp:148] Top shape: 100 96 55 55 (29040000)
I0403 14:41:27.320444 17373 net.cpp:156] Memory required for data: 410316400
I0403 14:41:27.320461 17373 layer_factory.hpp:77] Creating layer pool1
I0403 14:41:27.320484 17373 net.cpp:91] Creating Layer pool1
I0403 14:41:27.320502 17373 net.cpp:425] pool1 <- norm1
I0403 14:41:27.320519 17373 net.cpp:399] pool1 -> pool1
I0403 14:41:27.320591 17373 net.cpp:141] Setting up pool1
I0403 14:41:27.320616 17373 net.cpp:148] Top shape: 100 96 27 27 (6998400)
I0403 14:41:27.320629 17373 net.cpp:156] Memory required for data: 438310000
I0403 14:41:27.320644 17373 layer_factory.hpp:77] Creating layer conv2
I0403 14:41:27.320670 17373 net.cpp:91] Creating Layer conv2
I0403 14:41:27.320688 17373 net.cpp:425] conv2 <- pool1
I0403 14:41:27.320708 17373 net.cpp:399] conv2 -> conv2
I0403 14:41:27.336323 17373 net.cpp:141] Setting up conv2
I0403 14:41:27.336380 17373 net.cpp:148] Top shape: 100 256 27 27 (18662400)
I0403 14:41:27.336398 17373 net.cpp:156] Memory required for data: 512959600
I0403 14:41:27.336422 17373 layer_factory.hpp:77] Creating layer relu2
I0403 14:41:27.336446 17373 net.cpp:91] Creating Layer relu2
I0403 14:41:27.336463 17373 net.cpp:425] relu2 <- conv2
I0403 14:41:27.336482 17373 net.cpp:386] relu2 -> conv2 (in-place)
I0403 14:41:27.336789 17373 net.cpp:141] Setting up relu2
I0403 14:41:27.336817 17373 net.cpp:148] Top shape: 100 256 27 27 (18662400)
I0403 14:41:27.336833 17373 net.cpp:156] Memory required for data: 587609200
I0403 14:41:27.336848 17373 layer_factory.hpp:77] Creating layer norm2
I0403 14:41:27.336872 17373 net.cpp:91] Creating Layer norm2
I0403 14:41:27.336890 17373 net.cpp:425] norm2 <- conv2
I0403 14:41:27.336911 17373 net.cpp:399] norm2 -> norm2
I0403 14:41:27.337122 17373 net.cpp:141] Setting up norm2
I0403 14:41:27.337149 17373 net.cpp:148] Top shape: 100 256 27 27 (18662400)
I0403 14:41:27.337164 17373 net.cpp:156] Memory required for data: 662258800
I0403 14:41:27.337178 17373 layer_factory.hpp:77] Creating layer pool2
I0403 14:41:27.337196 17373 net.cpp:91] Creating Layer pool2
I0403 14:41:27.337216 17373 net.cpp:425] pool2 <- norm2
I0403 14:41:27.337236 17373 net.cpp:399] pool2 -> pool2
I0403 14:41:27.337291 17373 net.cpp:141] Setting up pool2
I0403 14:41:27.337314 17373 net.cpp:148] Top shape: 100 256 13 13 (4326400)
I0403 14:41:27.337329 17373 net.cpp:156] Memory required for data: 679564400
I0403 14:41:27.337344 17373 layer_factory.hpp:77] Creating layer conv3
I0403 14:41:27.337370 17373 net.cpp:91] Creating Layer conv3
I0403 14:41:27.337388 17373 net.cpp:425] conv3 <- pool2
I0403 14:41:27.337406 17373 net.cpp:399] conv3 -> conv3
I0403 14:41:27.376971 17373 net.cpp:141] Setting up conv3
I0403 14:41:27.377068 17373 net.cpp:148] Top shape: 100 384 13 13 (6489600)
I0403 14:41:27.377085 17373 net.cpp:156] Memory required for data: 705522800
I0403 14:41:27.377110 17373 layer_factory.hpp:77] Creating layer relu3
I0403 14:41:27.377135 17373 net.cpp:91] Creating Layer relu3
I0403 14:41:27.377153 17373 net.cpp:425] relu3 <- conv3
I0403 14:41:27.377173 17373 net.cpp:386] relu3 -> conv3 (in-place)
I0403 14:41:27.377463 17373 net.cpp:141] Setting up relu3
I0403 14:41:27.377490 17373 net.cpp:148] Top shape: 100 384 13 13 (6489600)
I0403 14:41:27.377506 17373 net.cpp:156] Memory required for data: 731481200
I0403 14:41:27.377521 17373 layer_factory.hpp:77] Creating layer conv4
I0403 14:41:27.377545 17373 net.cpp:91] Creating Layer conv4
I0403 14:41:27.377562 17373 net.cpp:425] conv4 <- conv3
I0403 14:41:27.377583 17373 net.cpp:399] conv4 -> conv4
I0403 14:41:27.408041 17373 net.cpp:141] Setting up conv4
I0403 14:41:27.408121 17373 net.cpp:148] Top shape: 100 384 13 13 (6489600)
I0403 14:41:27.408170 17373 net.cpp:156] Memory required for data: 757439600
I0403 14:41:27.408192 17373 layer_factory.hpp:77] Creating layer relu4
I0403 14:41:27.408215 17373 net.cpp:91] Creating Layer relu4
I0403 14:41:27.408231 17373 net.cpp:425] relu4 <- conv4
I0403 14:41:27.408252 17373 net.cpp:386] relu4 -> conv4 (in-place)
I0403 14:41:27.408535 17373 net.cpp:141] Setting up relu4
I0403 14:41:27.408562 17373 net.cpp:148] Top shape: 100 384 13 13 (6489600)
I0403 14:41:27.408577 17373 net.cpp:156] Memory required for data: 783398000
I0403 14:41:27.408592 17373 layer_factory.hpp:77] Creating layer conv5
I0403 14:41:27.408617 17373 net.cpp:91] Creating Layer conv5
I0403 14:41:27.408635 17373 net.cpp:425] conv5 <- conv4
I0403 14:41:27.408656 17373 net.cpp:399] conv5 -> conv5
I0403 14:41:27.429761 17373 net.cpp:141] Setting up conv5
I0403 14:41:27.429868 17373 net.cpp:148] Top shape: 100 256 13 13 (4326400)
I0403 14:41:27.429889 17373 net.cpp:156] Memory required for data: 800703600
I0403 14:41:27.429914 17373 layer_factory.hpp:77] Creating layer relu5
I0403 14:41:27.429935 17373 net.cpp:91] Creating Layer relu5
I0403 14:41:27.429951 17373 net.cpp:425] relu5 <- conv5
I0403 14:41:27.429976 17373 net.cpp:386] relu5 -> conv5 (in-place)
I0403 14:41:27.430274 17373 net.cpp:141] Setting up relu5
I0403 14:41:27.430304 17373 net.cpp:148] Top shape: 100 256 13 13 (4326400)
I0403 14:41:27.430318 17373 net.cpp:156] Memory required for data: 818009200
I0403 14:41:27.430335 17373 layer_factory.hpp:77] Creating layer pool5
I0403 14:41:27.430358 17373 net.cpp:91] Creating Layer pool5
I0403 14:41:27.430377 17373 net.cpp:425] pool5 <- conv5
I0403 14:41:27.430395 17373 net.cpp:399] pool5 -> pool5
I0403 14:41:27.430462 17373 net.cpp:141] Setting up pool5
I0403 14:41:27.430487 17373 net.cpp:148] Top shape: 100 256 6 6 (921600)
I0403 14:41:27.430516 17373 net.cpp:156] Memory required for data: 821695600
I0403 14:41:27.430529 17373 layer_factory.hpp:77] Creating layer fc6
I0403 14:41:27.430558 17373 net.cpp:91] Creating Layer fc6
I0403 14:41:27.430577 17373 net.cpp:425] fc6 <- pool5
I0403 14:41:27.430594 17373 net.cpp:399] fc6 -> fc6
I0403 14:41:28.996425 17373 net.cpp:141] Setting up fc6
I0403 14:41:28.996505 17373 net.cpp:148] Top shape: 100 4096 (409600)
I0403 14:41:28.996521 17373 net.cpp:156] Memory required for data: 823334000
I0403 14:41:28.996542 17373 layer_factory.hpp:77] Creating layer relu6
I0403 14:41:28.996572 17373 net.cpp:91] Creating Layer relu6
I0403 14:41:28.996587 17373 net.cpp:425] relu6 <- fc6
I0403 14:41:28.996609 17373 net.cpp:386] relu6 -> fc6 (in-place)
I0403 14:41:28.996832 17373 net.cpp:141] Setting up relu6
I0403 14:41:28.996857 17373 net.cpp:148] Top shape: 100 4096 (409600)
I0403 14:41:28.996871 17373 net.cpp:156] Memory required for data: 824972400
I0403 14:41:28.996886 17373 layer_factory.hpp:77] Creating layer drop6
I0403 14:41:28.996903 17373 net.cpp:91] Creating Layer drop6
I0403 14:41:28.996918 17373 net.cpp:425] drop6 <- fc6
I0403 14:41:28.996938 17373 net.cpp:386] drop6 -> fc6 (in-place)
I0403 14:41:28.996999 17373 net.cpp:141] Setting up drop6
I0403 14:41:28.997022 17373 net.cpp:148] Top shape: 100 4096 (409600)
I0403 14:41:28.997036 17373 net.cpp:156] Memory required for data: 826610800
I0403 14:41:28.997051 17373 layer_factory.hpp:77] Creating layer fc7
I0403 14:41:28.997071 17373 net.cpp:91] Creating Layer fc7
I0403 14:41:28.997086 17373 net.cpp:425] fc7 <- fc6
I0403 14:41:28.997107 17373 net.cpp:399] fc7 -> fc7
I0403 14:41:29.696514 17373 net.cpp:141] Setting up fc7
I0403 14:41:29.696579 17373 net.cpp:148] Top shape: 100 4096 (409600)
I0403 14:41:29.696595 17373 net.cpp:156] Memory required for data: 828249200
I0403 14:41:29.696615 17373 layer_factory.hpp:77] Creating layer relu7
I0403 14:41:29.696640 17373 net.cpp:91] Creating Layer relu7
I0403 14:41:29.696658 17373 net.cpp:425] relu7 <- fc7
I0403 14:41:29.696677 17373 net.cpp:386] relu7 -> fc7 (in-place)
I0403 14:41:29.697118 17373 net.cpp:141] Setting up relu7
I0403 14:41:29.697144 17373 net.cpp:148] Top shape: 100 4096 (409600)
I0403 14:41:29.697191 17373 net.cpp:156] Memory required for data: 829887600
I0403 14:41:29.697208 17373 layer_factory.hpp:77] Creating layer drop7
I0403 14:41:29.697227 17373 net.cpp:91] Creating Layer drop7
I0403 14:41:29.697245 17373 net.cpp:425] drop7 <- fc7
I0403 14:41:29.697263 17373 net.cpp:386] drop7 -> fc7 (in-place)
I0403 14:41:29.697306 17373 net.cpp:141] Setting up drop7
I0403 14:41:29.697330 17373 net.cpp:148] Top shape: 100 4096 (409600)
I0403 14:41:29.697346 17373 net.cpp:156] Memory required for data: 831526000
I0403 14:41:29.697360 17373 layer_factory.hpp:77] Creating layer fc8_plantvillage
I0403 14:41:29.697381 17373 net.cpp:91] Creating Layer fc8_plantvillage
I0403 14:41:29.697396 17373 net.cpp:425] fc8_plantvillage <- fc7
I0403 14:41:29.697415 17373 net.cpp:399] fc8_plantvillage -> fc8_plantvillage
I0403 14:41:29.704319 17373 net.cpp:141] Setting up fc8_plantvillage
I0403 14:41:29.704347 17373 net.cpp:148] Top shape: 100 38 (3800)
I0403 14:41:29.704362 17373 net.cpp:156] Memory required for data: 831541200
I0403 14:41:29.704380 17373 layer_factory.hpp:77] Creating layer fc8_plantvillage_fc8_plantvillage_0_split
I0403 14:41:29.704401 17373 net.cpp:91] Creating Layer fc8_plantvillage_fc8_plantvillage_0_split
I0403 14:41:29.704416 17373 net.cpp:425] fc8_plantvillage_fc8_plantvillage_0_split <- fc8_plantvillage
I0403 14:41:29.704432 17373 net.cpp:399] fc8_plantvillage_fc8_plantvillage_0_split -> fc8_plantvillage_fc8_plantvillage_0_split_0
I0403 14:41:29.704452 17373 net.cpp:399] fc8_plantvillage_fc8_plantvillage_0_split -> fc8_plantvillage_fc8_plantvillage_0_split_1
I0403 14:41:29.704469 17373 net.cpp:399] fc8_plantvillage_fc8_plantvillage_0_split -> fc8_plantvillage_fc8_plantvillage_0_split_2
I0403 14:41:29.704548 17373 net.cpp:141] Setting up fc8_plantvillage_fc8_plantvillage_0_split
I0403 14:41:29.704571 17373 net.cpp:148] Top shape: 100 38 (3800)
I0403 14:41:29.704587 17373 net.cpp:148] Top shape: 100 38 (3800)
I0403 14:41:29.704602 17373 net.cpp:148] Top shape: 100 38 (3800)
I0403 14:41:29.704614 17373 net.cpp:156] Memory required for data: 831586800
I0403 14:41:29.704628 17373 layer_factory.hpp:77] Creating layer prob
I0403 14:41:29.704646 17373 net.cpp:91] Creating Layer prob
I0403 14:41:29.704663 17373 net.cpp:425] prob <- fc8_plantvillage_fc8_plantvillage_0_split_0
I0403 14:41:29.704685 17373 net.cpp:399] prob -> prob
I0403 14:41:29.704910 17373 net.cpp:141] Setting up prob
I0403 14:41:29.704936 17373 net.cpp:148] Top shape: 100 38 (3800)
I0403 14:41:29.704949 17373 net.cpp:156] Memory required for data: 831602000
I0403 14:41:29.704984 17373 layer_factory.hpp:77] Creating layer hdf5out
I0403 14:41:29.705006 17373 net.cpp:91] Creating Layer hdf5out
I0403 14:41:29.705024 17373 net.cpp:425] hdf5out <- prob
I0403 14:41:29.705039 17373 net.cpp:425] hdf5out <- label_data_1_split_0
I0403 14:41:29.707288 17373 net.cpp:141] Setting up hdf5out
…
