…
I0403 14:29:13.016252 17023 net.cpp:313] The NetState phase (1) differed from the phase (0) specified by a rule in layer data
I0403 14:29:13.016582 17023 net.cpp:49] Initializing net from parameters: 
state {
  phase: TEST
}
layer {
  name: "data"
  type: "Data"
  top: "data"
  top: "label"
  include {
    phase: TEST
  }
  transform_param {
    crop_size: 227
    mean_file: "/home/mohanty/data/final_dataset/lmdb/segmented-60-40/mean.binaryproto"
  }
  data_param {
    source: "/home/mohanty/data/final_dataset/lmdb/segmented-60-40/test_db"
    batch_size: 100
    backend: LMDB
  }
}
layer {
  name: "conv1"
  type: "Convolution"
  bottom: "data"
  top: "conv1"
  param {
    lr_mult: 1
    decay_mult: 1
  }
  param {
    lr_mult: 2
    decay_mult: 0
  }
  convolution_param {
    num_output: 96
    kernel_size: 11
    stride: 4
    weight_filler {
      type: "gaussian"
      std: 0.01
    }
    bias_filler {
      type: "constant"
      value: 0
    }
  }
}
layer {
  name: "relu1"
  type: "ReLU"
  bottom: "conv1"
  top: "conv1"
}
layer {
  name: "norm1"
  type: "LRN"
  bottom: "conv1"
  top: "norm1"
  lrn_param {
    local_size: 5
    alpha: 0.0001
    beta: 0.75
  }
}
layer {
  name: "pool1"
  type: "Pooling"
  bottom: "norm1"
  top: "pool1"
  pooling_param {
    pool: MAX
    kernel_size: 3
    stride: 2
  }
}
layer {
  name: "conv2"
  type: "Convolution"
  bottom: "pool1"
  top: "conv2"
  param {
    lr_mult: 1
    decay_mult: 1
  }
  param {
    lr_mult: 2
    decay_mult: 0
  }
  convolution_param {
    num_output: 256
    pad: 2
    kernel_size: 5
    group: 2
    weight_filler {
      type: "gaussian"
      std: 0.01
    }
    bias_filler {
      type: "constant"
      value: 0.1
    }
  }
}
layer {
  name: "relu2"
  type: "ReLU"
  bottom: "conv2"
  top: "conv2"
}
layer {
  name: "norm2"
  type: "LRN"
  bottom: "conv2"
  top: "norm2"
  lrn_param {
    local_size: 5
    alpha: 0.0001
    beta: 0.75
  }
}
layer {
  name: "pool2"
  type: "Pooling"
  bottom: "norm2"
  top: "pool2"
  pooling_param {
    pool: MAX
    kernel_size: 3
    stride: 2
  }
}
layer {
  name: "conv3"
  type: "Convolution"
  bottom: "pool2"
  top: "conv3"
  param {
    lr_mult: 1
    decay_mult: 1
  }
  param {
    lr_mult: 2
    decay_mult: 0
  }
  convolution_param {
    num_output: 384
    pad: 1
    kernel_size: 3
    weight_filler {
      type: "gaussian"
      std: 0.01
    }
    bias_filler {
      type: "constant"
      value: 0
    }
  }
}
layer {
  name: "relu3"
  type: "ReLU"
  bottom: "conv3"
  top: "conv3"
}
layer {
  name: "conv4"
  type: "Convolution"
  bottom: "conv3"
  top: "conv4"
  param {
    lr_mult: 1
    decay_mult: 1
  }
  param {
    lr_mult: 2
    decay_mult: 0
  }
  convolution_param {
    num_output: 384
    pad: 1
    kernel_size: 3
    group: 2
    weight_filler {
      type: "gaussian"
      std: 0.01
    }
    bias_filler {
      type: "constant"
      value: 0.1
    }
  }
}
layer {
  name: "relu4"
  type: "ReLU"
  bottom: "conv4"
  top: "conv4"
}
layer {
  name: "conv5"
  type: "Convolution"
  bottom: "conv4"
  top: "conv5"
  param {
    lr_mult: 1
    decay_mult: 1
  }
  param {
    lr_mult: 2
    decay_mult: 0
  }
  convolution_param {
    num_output: 256
    pad: 1
    kernel_size: 3
    group: 2
    weight_filler {
      type: "gaussian"
      std: 0.01
    }
    bias_filler {
      type: "constant"
      value: 0.1
    }
  }
}
layer {
  name: "relu5"
  type: "ReLU"
  bottom: "conv5"
  top: "conv5"
}
layer {
  name: "pool5"
  type: "Pooling"
  bottom: "conv5"
  top: "pool5"
  pooling_param {
    pool: MAX
    kernel_size: 3
    stride: 2
  }
}
layer {
  name: "fc6"
  type: "InnerProduct"
  bottom: "pool5"
  top: "fc6"
  param {
    lr_mult: 1
    decay_mult: 1
  }
  param {
    lr_mult: 2
    decay_mult: 0
  }
  inner_product_param {
    num_output: 4096
    weight_filler {
      type: "gaussian"
      std: 0.005
    }
    bias_filler {
      type: "constant"
      value: 0.1
    }
  }
}
layer {
  name: "relu6"
  type: "ReLU"
  bottom: "fc6"
  top: "fc6"
}
layer {
  name: "drop6"
  type: "Dropout"
  bottom: "fc6"
  top: "fc6"
  dropout_param {
    dropout_ratio: 0.5
  }
}
layer {
  name: "fc7"
  type: "InnerProduct"
  bottom: "fc6"
  top: "fc7"
  param {
    lr_mult: 1
    decay_mult: 1
  }
  param {
    lr_mult: 2
    decay_mult: 0
  }
  inner_product_param {
    num_output: 4096
    weight_filler {
      type: "gaussian"
      std: 0.005
    }
    bias_filler {
      type: "constant"
      value: 0.1
    }
  }
}
layer {
  name: "relu7"
  type: "ReLU"
  bottom: "fc7"
  top: "fc7"
}
layer {
  name: "drop7"
  type: "Dropout"
  bottom: "fc7"
  top: "fc7"
  dropout_param {
    dropout_ratio: 0.5
  }
}
layer {
  name: "fc8_plantvillage"
  type: "InnerProduct"
  bottom: "fc7"
  top: "fc8_plantvillage"
  param {
    lr_mult: 1
    decay_mult: 1
  }
  param {
    lr_mult: 2
    decay_mult: 0
  }
  inner_product_param {
    num_output: 38
    weight_filler {
      type: "gaussian"
      std: 0.01
    }
    bias_filler {
      type: "constant"
      value: 0
    }
  }
}
layer {
  name: "prob"
  type: "Softmax"
  bottom: "fc8_plantvillage"
  top: "prob"
  include {
    phase: TEST
  }
}
layer {
  name: "hdf5out"
  type: "HDF5Output"
  bottom: "prob"
  bottom: "label"
  include {
    phase: TEST
  }
  hdf5_output_param {
    file_name: "hdf5_dumps/iter_1625.h5"
  }
}
layer {
  name: "loss"
  type: "SoftmaxWithLoss"
  bottom: "fc8_plantvillage"
  bottom: "label"
  top: "loss"
}
layer {
  name: "accuracy"
  type: "Accuracy"
  bottom: "fc8_plantvillage"
  bottom: "label"
  top: "accuracy"
  include {
    phase: TEST
  }
}
I0403 14:29:13.017138 17023 layer_factory.hpp:77] Creating layer data
I0403 14:29:13.017791 17023 net.cpp:91] Creating Layer data
I0403 14:29:13.017832 17023 net.cpp:399] data -> data
I0403 14:29:13.017884 17023 net.cpp:399] data -> label
I0403 14:29:13.017921 17023 data_transformer.cpp:25] Loading mean file from: /home/mohanty/data/final_dataset/lmdb/segmented-60-40/mean.binaryproto
I0403 14:29:13.019084 17028 db_lmdb.cpp:38] Opened lmdb /home/mohanty/data/final_dataset/lmdb/segmented-60-40/test_db
I0403 14:29:13.038050 17023 data_layer.cpp:41] output data size: 100,3,227,227
I0403 14:29:13.176301 17023 net.cpp:141] Setting up data
I0403 14:29:13.176409 17023 net.cpp:148] Top shape: 100 3 227 227 (15458700)
I0403 14:29:13.176431 17023 net.cpp:148] Top shape: 100 (100)
I0403 14:29:13.176446 17023 net.cpp:156] Memory required for data: 61835200
I0403 14:29:13.176476 17023 layer_factory.hpp:77] Creating layer label_data_1_split
I0403 14:29:13.176501 17023 net.cpp:91] Creating Layer label_data_1_split
I0403 14:29:13.176519 17023 net.cpp:425] label_data_1_split <- label
I0403 14:29:13.176553 17023 net.cpp:399] label_data_1_split -> label_data_1_split_0
I0403 14:29:13.176579 17023 net.cpp:399] label_data_1_split -> label_data_1_split_1
I0403 14:29:13.176599 17023 net.cpp:399] label_data_1_split -> label_data_1_split_2
I0403 14:29:13.176663 17023 net.cpp:141] Setting up label_data_1_split
I0403 14:29:13.176687 17023 net.cpp:148] Top shape: 100 (100)
I0403 14:29:13.176704 17023 net.cpp:148] Top shape: 100 (100)
I0403 14:29:13.176720 17023 net.cpp:148] Top shape: 100 (100)
I0403 14:29:13.176735 17023 net.cpp:156] Memory required for data: 61836400
I0403 14:29:13.176750 17023 layer_factory.hpp:77] Creating layer conv1
I0403 14:29:13.176781 17023 net.cpp:91] Creating Layer conv1
I0403 14:29:13.176800 17023 net.cpp:425] conv1 <- data
I0403 14:29:13.176820 17023 net.cpp:399] conv1 -> conv1
I0403 14:29:13.327231 17023 net.cpp:141] Setting up conv1
I0403 14:29:13.327323 17023 net.cpp:148] Top shape: 100 96 55 55 (29040000)
I0403 14:29:13.327342 17023 net.cpp:156] Memory required for data: 177996400
I0403 14:29:13.327371 17023 layer_factory.hpp:77] Creating layer relu1
I0403 14:29:13.327399 17023 net.cpp:91] Creating Layer relu1
I0403 14:29:13.327417 17023 net.cpp:425] relu1 <- conv1
I0403 14:29:13.327436 17023 net.cpp:386] relu1 -> conv1 (in-place)
I0403 14:29:13.327695 17023 net.cpp:141] Setting up relu1
I0403 14:29:13.327723 17023 net.cpp:148] Top shape: 100 96 55 55 (29040000)
I0403 14:29:13.327769 17023 net.cpp:156] Memory required for data: 294156400
I0403 14:29:13.327785 17023 layer_factory.hpp:77] Creating layer norm1
I0403 14:29:13.327812 17023 net.cpp:91] Creating Layer norm1
I0403 14:29:13.327831 17023 net.cpp:425] norm1 <- conv1
I0403 14:29:13.327848 17023 net.cpp:399] norm1 -> norm1
I0403 14:29:13.328210 17023 net.cpp:141] Setting up norm1
I0403 14:29:13.328240 17023 net.cpp:148] Top shape: 100 96 55 55 (29040000)
I0403 14:29:13.328256 17023 net.cpp:156] Memory required for data: 410316400
I0403 14:29:13.328272 17023 layer_factory.hpp:77] Creating layer pool1
I0403 14:29:13.328295 17023 net.cpp:91] Creating Layer pool1
I0403 14:29:13.328312 17023 net.cpp:425] pool1 <- norm1
I0403 14:29:13.328330 17023 net.cpp:399] pool1 -> pool1
I0403 14:29:13.328400 17023 net.cpp:141] Setting up pool1
I0403 14:29:13.328436 17023 net.cpp:148] Top shape: 100 96 27 27 (6998400)
I0403 14:29:13.328452 17023 net.cpp:156] Memory required for data: 438310000
I0403 14:29:13.328466 17023 layer_factory.hpp:77] Creating layer conv2
I0403 14:29:13.328490 17023 net.cpp:91] Creating Layer conv2
I0403 14:29:13.328506 17023 net.cpp:425] conv2 <- pool1
I0403 14:29:13.328524 17023 net.cpp:399] conv2 -> conv2
I0403 14:29:13.344316 17023 net.cpp:141] Setting up conv2
I0403 14:29:13.344375 17023 net.cpp:148] Top shape: 100 256 27 27 (18662400)
I0403 14:29:13.344393 17023 net.cpp:156] Memory required for data: 512959600
I0403 14:29:13.344416 17023 layer_factory.hpp:77] Creating layer relu2
I0403 14:29:13.344436 17023 net.cpp:91] Creating Layer relu2
I0403 14:29:13.344454 17023 net.cpp:425] relu2 <- conv2
I0403 14:29:13.344473 17023 net.cpp:386] relu2 -> conv2 (in-place)
I0403 14:29:13.344764 17023 net.cpp:141] Setting up relu2
I0403 14:29:13.344792 17023 net.cpp:148] Top shape: 100 256 27 27 (18662400)
I0403 14:29:13.344807 17023 net.cpp:156] Memory required for data: 587609200
I0403 14:29:13.344822 17023 layer_factory.hpp:77] Creating layer norm2
I0403 14:29:13.344846 17023 net.cpp:91] Creating Layer norm2
I0403 14:29:13.344863 17023 net.cpp:425] norm2 <- conv2
I0403 14:29:13.344882 17023 net.cpp:399] norm2 -> norm2
I0403 14:29:13.345172 17023 net.cpp:141] Setting up norm2
I0403 14:29:13.345201 17023 net.cpp:148] Top shape: 100 256 27 27 (18662400)
I0403 14:29:13.345216 17023 net.cpp:156] Memory required for data: 662258800
I0403 14:29:13.345232 17023 layer_factory.hpp:77] Creating layer pool2
I0403 14:29:13.345252 17023 net.cpp:91] Creating Layer pool2
I0403 14:29:13.345268 17023 net.cpp:425] pool2 <- norm2
I0403 14:29:13.345288 17023 net.cpp:399] pool2 -> pool2
I0403 14:29:13.345342 17023 net.cpp:141] Setting up pool2
I0403 14:29:13.345369 17023 net.cpp:148] Top shape: 100 256 13 13 (4326400)
I0403 14:29:13.345386 17023 net.cpp:156] Memory required for data: 679564400
I0403 14:29:13.345401 17023 layer_factory.hpp:77] Creating layer conv3
I0403 14:29:13.345424 17023 net.cpp:91] Creating Layer conv3
I0403 14:29:13.345443 17023 net.cpp:425] conv3 <- pool2
I0403 14:29:13.345461 17023 net.cpp:399] conv3 -> conv3
I0403 14:29:13.385175 17023 net.cpp:141] Setting up conv3
I0403 14:29:13.385259 17023 net.cpp:148] Top shape: 100 384 13 13 (6489600)
I0403 14:29:13.385274 17023 net.cpp:156] Memory required for data: 705522800
I0403 14:29:13.385299 17023 layer_factory.hpp:77] Creating layer relu3
I0403 14:29:13.385321 17023 net.cpp:91] Creating Layer relu3
I0403 14:29:13.385339 17023 net.cpp:425] relu3 <- conv3
I0403 14:29:13.385360 17023 net.cpp:386] relu3 -> conv3 (in-place)
I0403 14:29:13.385699 17023 net.cpp:141] Setting up relu3
I0403 14:29:13.385726 17023 net.cpp:148] Top shape: 100 384 13 13 (6489600)
I0403 14:29:13.385741 17023 net.cpp:156] Memory required for data: 731481200
I0403 14:29:13.385757 17023 layer_factory.hpp:77] Creating layer conv4
I0403 14:29:13.385782 17023 net.cpp:91] Creating Layer conv4
I0403 14:29:13.385799 17023 net.cpp:425] conv4 <- conv3
I0403 14:29:13.385820 17023 net.cpp:399] conv4 -> conv4
I0403 14:29:13.417134 17023 net.cpp:141] Setting up conv4
I0403 14:29:13.417217 17023 net.cpp:148] Top shape: 100 384 13 13 (6489600)
I0403 14:29:13.417265 17023 net.cpp:156] Memory required for data: 757439600
I0403 14:29:13.417287 17023 layer_factory.hpp:77] Creating layer relu4
I0403 14:29:13.417310 17023 net.cpp:91] Creating Layer relu4
I0403 14:29:13.417327 17023 net.cpp:425] relu4 <- conv4
I0403 14:29:13.417349 17023 net.cpp:386] relu4 -> conv4 (in-place)
I0403 14:29:13.417635 17023 net.cpp:141] Setting up relu4
I0403 14:29:13.417665 17023 net.cpp:148] Top shape: 100 384 13 13 (6489600)
I0403 14:29:13.417683 17023 net.cpp:156] Memory required for data: 783398000
I0403 14:29:13.417753 17023 layer_factory.hpp:77] Creating layer conv5
I0403 14:29:13.417786 17023 net.cpp:91] Creating Layer conv5
I0403 14:29:13.417805 17023 net.cpp:425] conv5 <- conv4
I0403 14:29:13.417827 17023 net.cpp:399] conv5 -> conv5
I0403 14:29:13.439476 17023 net.cpp:141] Setting up conv5
I0403 14:29:13.439541 17023 net.cpp:148] Top shape: 100 256 13 13 (4326400)
I0403 14:29:13.439559 17023 net.cpp:156] Memory required for data: 800703600
I0403 14:29:13.439584 17023 layer_factory.hpp:77] Creating layer relu5
I0403 14:29:13.439605 17023 net.cpp:91] Creating Layer relu5
I0403 14:29:13.439623 17023 net.cpp:425] relu5 <- conv5
I0403 14:29:13.439645 17023 net.cpp:386] relu5 -> conv5 (in-place)
I0403 14:29:13.439936 17023 net.cpp:141] Setting up relu5
I0403 14:29:13.439971 17023 net.cpp:148] Top shape: 100 256 13 13 (4326400)
I0403 14:29:13.439987 17023 net.cpp:156] Memory required for data: 818009200
I0403 14:29:13.440002 17023 layer_factory.hpp:77] Creating layer pool5
I0403 14:29:13.440026 17023 net.cpp:91] Creating Layer pool5
I0403 14:29:13.440043 17023 net.cpp:425] pool5 <- conv5
I0403 14:29:13.440062 17023 net.cpp:399] pool5 -> pool5
I0403 14:29:13.440126 17023 net.cpp:141] Setting up pool5
I0403 14:29:13.440151 17023 net.cpp:148] Top shape: 100 256 6 6 (921600)
I0403 14:29:13.440166 17023 net.cpp:156] Memory required for data: 821695600
I0403 14:29:13.440181 17023 layer_factory.hpp:77] Creating layer fc6
I0403 14:29:13.440208 17023 net.cpp:91] Creating Layer fc6
I0403 14:29:13.440225 17023 net.cpp:425] fc6 <- pool5
I0403 14:29:13.440248 17023 net.cpp:399] fc6 -> fc6
I0403 14:29:15.015642 17023 net.cpp:141] Setting up fc6
I0403 14:29:15.015735 17023 net.cpp:148] Top shape: 100 4096 (409600)
I0403 14:29:15.015753 17023 net.cpp:156] Memory required for data: 823334000
I0403 14:29:15.015775 17023 layer_factory.hpp:77] Creating layer relu6
I0403 14:29:15.015797 17023 net.cpp:91] Creating Layer relu6
I0403 14:29:15.015815 17023 net.cpp:425] relu6 <- fc6
I0403 14:29:15.015835 17023 net.cpp:386] relu6 -> fc6 (in-place)
I0403 14:29:15.016078 17023 net.cpp:141] Setting up relu6
I0403 14:29:15.016103 17023 net.cpp:148] Top shape: 100 4096 (409600)
I0403 14:29:15.016116 17023 net.cpp:156] Memory required for data: 824972400
I0403 14:29:15.016130 17023 layer_factory.hpp:77] Creating layer drop6
I0403 14:29:15.016149 17023 net.cpp:91] Creating Layer drop6
I0403 14:29:15.016163 17023 net.cpp:425] drop6 <- fc6
I0403 14:29:15.016181 17023 net.cpp:386] drop6 -> fc6 (in-place)
I0403 14:29:15.016232 17023 net.cpp:141] Setting up drop6
I0403 14:29:15.016257 17023 net.cpp:148] Top shape: 100 4096 (409600)
I0403 14:29:15.016271 17023 net.cpp:156] Memory required for data: 826610800
I0403 14:29:15.016285 17023 layer_factory.hpp:77] Creating layer fc7
I0403 14:29:15.016304 17023 net.cpp:91] Creating Layer fc7
I0403 14:29:15.016319 17023 net.cpp:425] fc7 <- fc6
I0403 14:29:15.016337 17023 net.cpp:399] fc7 -> fc7
I0403 14:29:15.707816 17023 net.cpp:141] Setting up fc7
I0403 14:29:15.707870 17023 net.cpp:148] Top shape: 100 4096 (409600)
I0403 14:29:15.707886 17023 net.cpp:156] Memory required for data: 828249200
I0403 14:29:15.707906 17023 layer_factory.hpp:77] Creating layer relu7
I0403 14:29:15.707928 17023 net.cpp:91] Creating Layer relu7
I0403 14:29:15.707945 17023 net.cpp:425] relu7 <- fc7
I0403 14:29:15.707983 17023 net.cpp:386] relu7 -> fc7 (in-place)
I0403 14:29:15.708400 17023 net.cpp:141] Setting up relu7
I0403 14:29:15.708426 17023 net.cpp:148] Top shape: 100 4096 (409600)
I0403 14:29:15.708472 17023 net.cpp:156] Memory required for data: 829887600
I0403 14:29:15.708487 17023 layer_factory.hpp:77] Creating layer drop7
I0403 14:29:15.708505 17023 net.cpp:91] Creating Layer drop7
I0403 14:29:15.708520 17023 net.cpp:425] drop7 <- fc7
I0403 14:29:15.708540 17023 net.cpp:386] drop7 -> fc7 (in-place)
I0403 14:29:15.708583 17023 net.cpp:141] Setting up drop7
I0403 14:29:15.708608 17023 net.cpp:148] Top shape: 100 4096 (409600)
I0403 14:29:15.708623 17023 net.cpp:156] Memory required for data: 831526000
I0403 14:29:15.708637 17023 layer_factory.hpp:77] Creating layer fc8_plantvillage
I0403 14:29:15.708657 17023 net.cpp:91] Creating Layer fc8_plantvillage
I0403 14:29:15.708672 17023 net.cpp:425] fc8_plantvillage <- fc7
I0403 14:29:15.708690 17023 net.cpp:399] fc8_plantvillage -> fc8_plantvillage
I0403 14:29:15.715410 17023 net.cpp:141] Setting up fc8_plantvillage
I0403 14:29:15.715438 17023 net.cpp:148] Top shape: 100 38 (3800)
I0403 14:29:15.715452 17023 net.cpp:156] Memory required for data: 831541200
I0403 14:29:15.715471 17023 layer_factory.hpp:77] Creating layer fc8_plantvillage_fc8_plantvillage_0_split
I0403 14:29:15.715487 17023 net.cpp:91] Creating Layer fc8_plantvillage_fc8_plantvillage_0_split
I0403 14:29:15.715502 17023 net.cpp:425] fc8_plantvillage_fc8_plantvillage_0_split <- fc8_plantvillage
I0403 14:29:15.715523 17023 net.cpp:399] fc8_plantvillage_fc8_plantvillage_0_split -> fc8_plantvillage_fc8_plantvillage_0_split_0
I0403 14:29:15.715543 17023 net.cpp:399] fc8_plantvillage_fc8_plantvillage_0_split -> fc8_plantvillage_fc8_plantvillage_0_split_1
I0403 14:29:15.715574 17023 net.cpp:399] fc8_plantvillage_fc8_plantvillage_0_split -> fc8_plantvillage_fc8_plantvillage_0_split_2
I0403 14:29:15.715648 17023 net.cpp:141] Setting up fc8_plantvillage_fc8_plantvillage_0_split
I0403 14:29:15.715673 17023 net.cpp:148] Top shape: 100 38 (3800)
I0403 14:29:15.715689 17023 net.cpp:148] Top shape: 100 38 (3800)
I0403 14:29:15.715704 17023 net.cpp:148] Top shape: 100 38 (3800)
I0403 14:29:15.715718 17023 net.cpp:156] Memory required for data: 831586800
I0403 14:29:15.715730 17023 layer_factory.hpp:77] Creating layer prob
I0403 14:29:15.715749 17023 net.cpp:91] Creating Layer prob
I0403 14:29:15.715762 17023 net.cpp:425] prob <- fc8_plantvillage_fc8_plantvillage_0_split_0
I0403 14:29:15.715778 17023 net.cpp:399] prob -> prob
I0403 14:29:15.716006 17023 net.cpp:141] Setting up prob
I0403 14:29:15.716029 17023 net.cpp:148] Top shape: 100 38 (3800)
I0403 14:29:15.716043 17023 net.cpp:156] Memory required for data: 831602000
I0403 14:29:15.716058 17023 layer_factory.hpp:77] Creating layer hdf5out
I0403 14:29:15.716074 17023 net.cpp:91] Creating Layer hdf5out
I0403 14:29:15.716089 17023 net.cpp:425] hdf5out <- prob
I0403 14:29:15.716104 17023 net.cpp:425] hdf5out <- label_data_1_split_0
I0403 14:29:15.718410 17023 net.cpp:141] Setting up hdf5out
…
