…
I0403 14:40:01.194288 17334 net.cpp:313] The NetState phase (1) differed from the phase (0) specified by a rule in layer data
I0403 14:40:01.194607 17334 net.cpp:49] Initializing net from parameters: 
state {
  phase: TEST
}
layer {
  name: "data"
  type: "Data"
  top: "data"
  top: "label"
  include {
    phase: TEST
  }
  transform_param {
    crop_size: 227
    mean_file: "/home/mohanty/data/final_dataset/lmdb/segmented-60-40/mean.binaryproto"
  }
  data_param {
    source: "/home/mohanty/data/final_dataset/lmdb/segmented-60-40/test_db"
    batch_size: 100
    backend: LMDB
  }
}
layer {
  name: "conv1"
  type: "Convolution"
  bottom: "data"
  top: "conv1"
  param {
    lr_mult: 1
    decay_mult: 1
  }
  param {
    lr_mult: 2
    decay_mult: 0
  }
  convolution_param {
    num_output: 96
    kernel_size: 11
    stride: 4
    weight_filler {
      type: "gaussian"
      std: 0.01
    }
    bias_filler {
      type: "constant"
      value: 0
    }
  }
}
layer {
  name: "relu1"
  type: "ReLU"
  bottom: "conv1"
  top: "conv1"
}
layer {
  name: "norm1"
  type: "LRN"
  bottom: "conv1"
  top: "norm1"
  lrn_param {
    local_size: 5
    alpha: 0.0001
    beta: 0.75
  }
}
layer {
  name: "pool1"
  type: "Pooling"
  bottom: "norm1"
  top: "pool1"
  pooling_param {
    pool: MAX
    kernel_size: 3
    stride: 2
  }
}
layer {
  name: "conv2"
  type: "Convolution"
  bottom: "pool1"
  top: "conv2"
  param {
    lr_mult: 1
    decay_mult: 1
  }
  param {
    lr_mult: 2
    decay_mult: 0
  }
  convolution_param {
    num_output: 256
    pad: 2
    kernel_size: 5
    group: 2
    weight_filler {
      type: "gaussian"
      std: 0.01
    }
    bias_filler {
      type: "constant"
      value: 0.1
    }
  }
}
layer {
  name: "relu2"
  type: "ReLU"
  bottom: "conv2"
  top: "conv2"
}
layer {
  name: "norm2"
  type: "LRN"
  bottom: "conv2"
  top: "norm2"
  lrn_param {
    local_size: 5
    alpha: 0.0001
    beta: 0.75
  }
}
layer {
  name: "pool2"
  type: "Pooling"
  bottom: "norm2"
  top: "pool2"
  pooling_param {
    pool: MAX
    kernel_size: 3
    stride: 2
  }
}
layer {
  name: "conv3"
  type: "Convolution"
  bottom: "pool2"
  top: "conv3"
  param {
    lr_mult: 1
    decay_mult: 1
  }
  param {
    lr_mult: 2
    decay_mult: 0
  }
  convolution_param {
    num_output: 384
    pad: 1
    kernel_size: 3
    weight_filler {
      type: "gaussian"
      std: 0.01
    }
    bias_filler {
      type: "constant"
      value: 0
    }
  }
}
layer {
  name: "relu3"
  type: "ReLU"
  bottom: "conv3"
  top: "conv3"
}
layer {
  name: "conv4"
  type: "Convolution"
  bottom: "conv3"
  top: "conv4"
  param {
    lr_mult: 1
    decay_mult: 1
  }
  param {
    lr_mult: 2
    decay_mult: 0
  }
  convolution_param {
    num_output: 384
    pad: 1
    kernel_size: 3
    group: 2
    weight_filler {
      type: "gaussian"
      std: 0.01
    }
    bias_filler {
      type: "constant"
      value: 0.1
    }
  }
}
layer {
  name: "relu4"
  type: "ReLU"
  bottom: "conv4"
  top: "conv4"
}
layer {
  name: "conv5"
  type: "Convolution"
  bottom: "conv4"
  top: "conv5"
  param {
    lr_mult: 1
    decay_mult: 1
  }
  param {
    lr_mult: 2
    decay_mult: 0
  }
  convolution_param {
    num_output: 256
    pad: 1
    kernel_size: 3
    group: 2
    weight_filler {
      type: "gaussian"
      std: 0.01
    }
    bias_filler {
      type: "constant"
      value: 0.1
    }
  }
}
layer {
  name: "relu5"
  type: "ReLU"
  bottom: "conv5"
  top: "conv5"
}
layer {
  name: "pool5"
  type: "Pooling"
  bottom: "conv5"
  top: "pool5"
  pooling_param {
    pool: MAX
    kernel_size: 3
    stride: 2
  }
}
layer {
  name: "fc6"
  type: "InnerProduct"
  bottom: "pool5"
  top: "fc6"
  param {
    lr_mult: 1
    decay_mult: 1
  }
  param {
    lr_mult: 2
    decay_mult: 0
  }
  inner_product_param {
    num_output: 4096
    weight_filler {
      type: "gaussian"
      std: 0.005
    }
    bias_filler {
      type: "constant"
      value: 0.1
    }
  }
}
layer {
  name: "relu6"
  type: "ReLU"
  bottom: "fc6"
  top: "fc6"
}
layer {
  name: "drop6"
  type: "Dropout"
  bottom: "fc6"
  top: "fc6"
  dropout_param {
    dropout_ratio: 0.5
  }
}
layer {
  name: "fc7"
  type: "InnerProduct"
  bottom: "fc6"
  top: "fc7"
  param {
    lr_mult: 1
    decay_mult: 1
  }
  param {
    lr_mult: 2
    decay_mult: 0
  }
  inner_product_param {
    num_output: 4096
    weight_filler {
      type: "gaussian"
      std: 0.005
    }
    bias_filler {
      type: "constant"
      value: 0.1
    }
  }
}
layer {
  name: "relu7"
  type: "ReLU"
  bottom: "fc7"
  top: "fc7"
}
layer {
  name: "drop7"
  type: "Dropout"
  bottom: "fc7"
  top: "fc7"
  dropout_param {
    dropout_ratio: 0.5
  }
}
layer {
  name: "fc8_plantvillage"
  type: "InnerProduct"
  bottom: "fc7"
  top: "fc8_plantvillage"
  param {
    lr_mult: 1
    decay_mult: 1
  }
  param {
    lr_mult: 2
    decay_mult: 0
  }
  inner_product_param {
    num_output: 38
    weight_filler {
      type: "gaussian"
      std: 0.01
    }
    bias_filler {
      type: "constant"
      value: 0
    }
  }
}
layer {
  name: "prob"
  type: "Softmax"
  bottom: "fc8_plantvillage"
  top: "prob"
  include {
    phase: TEST
  }
}
layer {
  name: "hdf5out"
  type: "HDF5Output"
  bottom: "prob"
  bottom: "label"
  include {
    phase: TEST
  }
  hdf5_output_param {
    file_name: "hdf5_dumps/iter_6500.h5"
  }
}
layer {
  name: "loss"
  type: "SoftmaxWithLoss"
  bottom: "fc8_plantvillage"
  bottom: "label"
  top: "loss"
}
layer {
  name: "accuracy"
  type: "Accuracy"
  bottom: "fc8_plantvillage"
  bottom: "label"
  top: "accuracy"
  include {
    phase: TEST
  }
}
I0403 14:40:01.195168 17334 layer_factory.hpp:77] Creating layer data
I0403 14:40:01.195814 17334 net.cpp:91] Creating Layer data
I0403 14:40:01.195845 17334 net.cpp:399] data -> data
I0403 14:40:01.195897 17334 net.cpp:399] data -> label
I0403 14:40:01.195933 17334 data_transformer.cpp:25] Loading mean file from: /home/mohanty/data/final_dataset/lmdb/segmented-60-40/mean.binaryproto
I0403 14:40:01.197136 17338 db_lmdb.cpp:38] Opened lmdb /home/mohanty/data/final_dataset/lmdb/segmented-60-40/test_db
I0403 14:40:01.210484 17334 data_layer.cpp:41] output data size: 100,3,227,227
I0403 14:40:01.346348 17334 net.cpp:141] Setting up data
I0403 14:40:01.346465 17334 net.cpp:148] Top shape: 100 3 227 227 (15458700)
I0403 14:40:01.346489 17334 net.cpp:148] Top shape: 100 (100)
I0403 14:40:01.346504 17334 net.cpp:156] Memory required for data: 61835200
I0403 14:40:01.346534 17334 layer_factory.hpp:77] Creating layer label_data_1_split
I0403 14:40:01.346557 17334 net.cpp:91] Creating Layer label_data_1_split
I0403 14:40:01.346575 17334 net.cpp:425] label_data_1_split <- label
I0403 14:40:01.346616 17334 net.cpp:399] label_data_1_split -> label_data_1_split_0
I0403 14:40:01.346643 17334 net.cpp:399] label_data_1_split -> label_data_1_split_1
I0403 14:40:01.346662 17334 net.cpp:399] label_data_1_split -> label_data_1_split_2
I0403 14:40:01.346727 17334 net.cpp:141] Setting up label_data_1_split
I0403 14:40:01.346750 17334 net.cpp:148] Top shape: 100 (100)
I0403 14:40:01.346766 17334 net.cpp:148] Top shape: 100 (100)
I0403 14:40:01.346781 17334 net.cpp:148] Top shape: 100 (100)
I0403 14:40:01.346796 17334 net.cpp:156] Memory required for data: 61836400
I0403 14:40:01.346809 17334 layer_factory.hpp:77] Creating layer conv1
I0403 14:40:01.346842 17334 net.cpp:91] Creating Layer conv1
I0403 14:40:01.346858 17334 net.cpp:425] conv1 <- data
I0403 14:40:01.346879 17334 net.cpp:399] conv1 -> conv1
I0403 14:40:01.494869 17334 net.cpp:141] Setting up conv1
I0403 14:40:01.494984 17334 net.cpp:148] Top shape: 100 96 55 55 (29040000)
I0403 14:40:01.495005 17334 net.cpp:156] Memory required for data: 177996400
I0403 14:40:01.495038 17334 layer_factory.hpp:77] Creating layer relu1
I0403 14:40:01.495066 17334 net.cpp:91] Creating Layer relu1
I0403 14:40:01.495085 17334 net.cpp:425] relu1 <- conv1
I0403 14:40:01.495103 17334 net.cpp:386] relu1 -> conv1 (in-place)
I0403 14:40:01.495367 17334 net.cpp:141] Setting up relu1
I0403 14:40:01.495394 17334 net.cpp:148] Top shape: 100 96 55 55 (29040000)
I0403 14:40:01.495445 17334 net.cpp:156] Memory required for data: 294156400
I0403 14:40:01.495461 17334 layer_factory.hpp:77] Creating layer norm1
I0403 14:40:01.495488 17334 net.cpp:91] Creating Layer norm1
I0403 14:40:01.495507 17334 net.cpp:425] norm1 <- conv1
I0403 14:40:01.495525 17334 net.cpp:399] norm1 -> norm1
I0403 14:40:01.495839 17334 net.cpp:141] Setting up norm1
I0403 14:40:01.495868 17334 net.cpp:148] Top shape: 100 96 55 55 (29040000)
I0403 14:40:01.495884 17334 net.cpp:156] Memory required for data: 410316400
I0403 14:40:01.495899 17334 layer_factory.hpp:77] Creating layer pool1
I0403 14:40:01.495923 17334 net.cpp:91] Creating Layer pool1
I0403 14:40:01.495940 17334 net.cpp:425] pool1 <- norm1
I0403 14:40:01.495975 17334 net.cpp:399] pool1 -> pool1
I0403 14:40:01.496058 17334 net.cpp:141] Setting up pool1
I0403 14:40:01.496084 17334 net.cpp:148] Top shape: 100 96 27 27 (6998400)
I0403 14:40:01.496099 17334 net.cpp:156] Memory required for data: 438310000
I0403 14:40:01.496114 17334 layer_factory.hpp:77] Creating layer conv2
I0403 14:40:01.496140 17334 net.cpp:91] Creating Layer conv2
I0403 14:40:01.496156 17334 net.cpp:425] conv2 <- pool1
I0403 14:40:01.496176 17334 net.cpp:399] conv2 -> conv2
I0403 14:40:01.511868 17334 net.cpp:141] Setting up conv2
I0403 14:40:01.511934 17334 net.cpp:148] Top shape: 100 256 27 27 (18662400)
I0403 14:40:01.511952 17334 net.cpp:156] Memory required for data: 512959600
I0403 14:40:01.511981 17334 layer_factory.hpp:77] Creating layer relu2
I0403 14:40:01.512003 17334 net.cpp:91] Creating Layer relu2
I0403 14:40:01.512042 17334 net.cpp:425] relu2 <- conv2
I0403 14:40:01.512068 17334 net.cpp:386] relu2 -> conv2 (in-place)
I0403 14:40:01.512362 17334 net.cpp:141] Setting up relu2
I0403 14:40:01.512467 17334 net.cpp:148] Top shape: 100 256 27 27 (18662400)
I0403 14:40:01.512485 17334 net.cpp:156] Memory required for data: 587609200
I0403 14:40:01.512500 17334 layer_factory.hpp:77] Creating layer norm2
I0403 14:40:01.512523 17334 net.cpp:91] Creating Layer norm2
I0403 14:40:01.512542 17334 net.cpp:425] norm2 <- conv2
I0403 14:40:01.512560 17334 net.cpp:399] norm2 -> norm2
I0403 14:40:01.512836 17334 net.cpp:141] Setting up norm2
I0403 14:40:01.512867 17334 net.cpp:148] Top shape: 100 256 27 27 (18662400)
I0403 14:40:01.512884 17334 net.cpp:156] Memory required for data: 662258800
I0403 14:40:01.512899 17334 layer_factory.hpp:77] Creating layer pool2
I0403 14:40:01.512918 17334 net.cpp:91] Creating Layer pool2
I0403 14:40:01.512934 17334 net.cpp:425] pool2 <- norm2
I0403 14:40:01.512959 17334 net.cpp:399] pool2 -> pool2
I0403 14:40:01.513015 17334 net.cpp:141] Setting up pool2
I0403 14:40:01.513041 17334 net.cpp:148] Top shape: 100 256 13 13 (4326400)
I0403 14:40:01.513057 17334 net.cpp:156] Memory required for data: 679564400
I0403 14:40:01.513072 17334 layer_factory.hpp:77] Creating layer conv3
I0403 14:40:01.513094 17334 net.cpp:91] Creating Layer conv3
I0403 14:40:01.513111 17334 net.cpp:425] conv3 <- pool2
I0403 14:40:01.513133 17334 net.cpp:399] conv3 -> conv3
I0403 14:40:01.553333 17334 net.cpp:141] Setting up conv3
I0403 14:40:01.553416 17334 net.cpp:148] Top shape: 100 384 13 13 (6489600)
I0403 14:40:01.553433 17334 net.cpp:156] Memory required for data: 705522800
I0403 14:40:01.553460 17334 layer_factory.hpp:77] Creating layer relu3
I0403 14:40:01.553483 17334 net.cpp:91] Creating Layer relu3
I0403 14:40:01.553500 17334 net.cpp:425] relu3 <- conv3
I0403 14:40:01.553522 17334 net.cpp:386] relu3 -> conv3 (in-place)
I0403 14:40:01.553843 17334 net.cpp:141] Setting up relu3
I0403 14:40:01.553871 17334 net.cpp:148] Top shape: 100 384 13 13 (6489600)
I0403 14:40:01.553887 17334 net.cpp:156] Memory required for data: 731481200
I0403 14:40:01.553903 17334 layer_factory.hpp:77] Creating layer conv4
I0403 14:40:01.553928 17334 net.cpp:91] Creating Layer conv4
I0403 14:40:01.553946 17334 net.cpp:425] conv4 <- conv3
I0403 14:40:01.553977 17334 net.cpp:399] conv4 -> conv4
I0403 14:40:01.585678 17334 net.cpp:141] Setting up conv4
I0403 14:40:01.585763 17334 net.cpp:148] Top shape: 100 384 13 13 (6489600)
I0403 14:40:01.585814 17334 net.cpp:156] Memory required for data: 757439600
I0403 14:40:01.585837 17334 layer_factory.hpp:77] Creating layer relu4
I0403 14:40:01.585861 17334 net.cpp:91] Creating Layer relu4
I0403 14:40:01.585878 17334 net.cpp:425] relu4 <- conv4
I0403 14:40:01.585899 17334 net.cpp:386] relu4 -> conv4 (in-place)
I0403 14:40:01.586236 17334 net.cpp:141] Setting up relu4
I0403 14:40:01.586267 17334 net.cpp:148] Top shape: 100 384 13 13 (6489600)
I0403 14:40:01.586284 17334 net.cpp:156] Memory required for data: 783398000
I0403 14:40:01.586300 17334 layer_factory.hpp:77] Creating layer conv5
I0403 14:40:01.586328 17334 net.cpp:91] Creating Layer conv5
I0403 14:40:01.586347 17334 net.cpp:425] conv5 <- conv4
I0403 14:40:01.586367 17334 net.cpp:399] conv5 -> conv5
I0403 14:40:01.608094 17334 net.cpp:141] Setting up conv5
I0403 14:40:01.608134 17334 net.cpp:148] Top shape: 100 256 13 13 (4326400)
I0403 14:40:01.608151 17334 net.cpp:156] Memory required for data: 800703600
I0403 14:40:01.608177 17334 layer_factory.hpp:77] Creating layer relu5
I0403 14:40:01.608199 17334 net.cpp:91] Creating Layer relu5
I0403 14:40:01.608217 17334 net.cpp:425] relu5 <- conv5
I0403 14:40:01.608238 17334 net.cpp:386] relu5 -> conv5 (in-place)
I0403 14:40:01.608573 17334 net.cpp:141] Setting up relu5
I0403 14:40:01.608604 17334 net.cpp:148] Top shape: 100 256 13 13 (4326400)
I0403 14:40:01.608619 17334 net.cpp:156] Memory required for data: 818009200
I0403 14:40:01.608635 17334 layer_factory.hpp:77] Creating layer pool5
I0403 14:40:01.608659 17334 net.cpp:91] Creating Layer pool5
I0403 14:40:01.608676 17334 net.cpp:425] pool5 <- conv5
I0403 14:40:01.608695 17334 net.cpp:399] pool5 -> pool5
I0403 14:40:01.608762 17334 net.cpp:141] Setting up pool5
I0403 14:40:01.608786 17334 net.cpp:148] Top shape: 100 256 6 6 (921600)
I0403 14:40:01.608801 17334 net.cpp:156] Memory required for data: 821695600
I0403 14:40:01.608816 17334 layer_factory.hpp:77] Creating layer fc6
I0403 14:40:01.608844 17334 net.cpp:91] Creating Layer fc6
I0403 14:40:01.608861 17334 net.cpp:425] fc6 <- pool5
I0403 14:40:01.608894 17334 net.cpp:399] fc6 -> fc6
I0403 14:40:03.217131 17334 net.cpp:141] Setting up fc6
I0403 14:40:03.217226 17334 net.cpp:148] Top shape: 100 4096 (409600)
I0403 14:40:03.217243 17334 net.cpp:156] Memory required for data: 823334000
I0403 14:40:03.217265 17334 layer_factory.hpp:77] Creating layer relu6
I0403 14:40:03.217288 17334 net.cpp:91] Creating Layer relu6
I0403 14:40:03.217305 17334 net.cpp:425] relu6 <- fc6
I0403 14:40:03.217324 17334 net.cpp:386] relu6 -> fc6 (in-place)
I0403 14:40:03.217556 17334 net.cpp:141] Setting up relu6
I0403 14:40:03.217581 17334 net.cpp:148] Top shape: 100 4096 (409600)
I0403 14:40:03.217597 17334 net.cpp:156] Memory required for data: 824972400
I0403 14:40:03.217610 17334 layer_factory.hpp:77] Creating layer drop6
I0403 14:40:03.217629 17334 net.cpp:91] Creating Layer drop6
I0403 14:40:03.217644 17334 net.cpp:425] drop6 <- fc6
I0403 14:40:03.217664 17334 net.cpp:386] drop6 -> fc6 (in-place)
I0403 14:40:03.217715 17334 net.cpp:141] Setting up drop6
I0403 14:40:03.217736 17334 net.cpp:148] Top shape: 100 4096 (409600)
I0403 14:40:03.217751 17334 net.cpp:156] Memory required for data: 826610800
I0403 14:40:03.217766 17334 layer_factory.hpp:77] Creating layer fc7
I0403 14:40:03.217788 17334 net.cpp:91] Creating Layer fc7
I0403 14:40:03.217804 17334 net.cpp:425] fc7 <- fc6
I0403 14:40:03.217824 17334 net.cpp:399] fc7 -> fc7
I0403 14:40:03.920668 17334 net.cpp:141] Setting up fc7
I0403 14:40:03.920761 17334 net.cpp:148] Top shape: 100 4096 (409600)
I0403 14:40:03.920778 17334 net.cpp:156] Memory required for data: 828249200
I0403 14:40:03.920799 17334 layer_factory.hpp:77] Creating layer relu7
I0403 14:40:03.920821 17334 net.cpp:91] Creating Layer relu7
I0403 14:40:03.920838 17334 net.cpp:425] relu7 <- fc7
I0403 14:40:03.920861 17334 net.cpp:386] relu7 -> fc7 (in-place)
I0403 14:40:03.921291 17334 net.cpp:141] Setting up relu7
I0403 14:40:03.921319 17334 net.cpp:148] Top shape: 100 4096 (409600)
I0403 14:40:03.921366 17334 net.cpp:156] Memory required for data: 829887600
I0403 14:40:03.921382 17334 layer_factory.hpp:77] Creating layer drop7
I0403 14:40:03.921401 17334 net.cpp:91] Creating Layer drop7
I0403 14:40:03.921417 17334 net.cpp:425] drop7 <- fc7
I0403 14:40:03.921440 17334 net.cpp:386] drop7 -> fc7 (in-place)
I0403 14:40:03.921485 17334 net.cpp:141] Setting up drop7
I0403 14:40:03.921510 17334 net.cpp:148] Top shape: 100 4096 (409600)
I0403 14:40:03.921526 17334 net.cpp:156] Memory required for data: 831526000
I0403 14:40:03.921541 17334 layer_factory.hpp:77] Creating layer fc8_plantvillage
I0403 14:40:03.921561 17334 net.cpp:91] Creating Layer fc8_plantvillage
I0403 14:40:03.921577 17334 net.cpp:425] fc8_plantvillage <- fc7
I0403 14:40:03.921598 17334 net.cpp:399] fc8_plantvillage -> fc8_plantvillage
I0403 14:40:03.928619 17334 net.cpp:141] Setting up fc8_plantvillage
I0403 14:40:03.928647 17334 net.cpp:148] Top shape: 100 38 (3800)
I0403 14:40:03.928663 17334 net.cpp:156] Memory required for data: 831541200
I0403 14:40:03.928680 17334 layer_factory.hpp:77] Creating layer fc8_plantvillage_fc8_plantvillage_0_split
I0403 14:40:03.928699 17334 net.cpp:91] Creating Layer fc8_plantvillage_fc8_plantvillage_0_split
I0403 14:40:03.928714 17334 net.cpp:425] fc8_plantvillage_fc8_plantvillage_0_split <- fc8_plantvillage
I0403 14:40:03.928735 17334 net.cpp:399] fc8_plantvillage_fc8_plantvillage_0_split -> fc8_plantvillage_fc8_plantvillage_0_split_0
I0403 14:40:03.928755 17334 net.cpp:399] fc8_plantvillage_fc8_plantvillage_0_split -> fc8_plantvillage_fc8_plantvillage_0_split_1
I0403 14:40:03.928776 17334 net.cpp:399] fc8_plantvillage_fc8_plantvillage_0_split -> fc8_plantvillage_fc8_plantvillage_0_split_2
I0403 14:40:03.928853 17334 net.cpp:141] Setting up fc8_plantvillage_fc8_plantvillage_0_split
I0403 14:40:03.928877 17334 net.cpp:148] Top shape: 100 38 (3800)
I0403 14:40:03.928894 17334 net.cpp:148] Top shape: 100 38 (3800)
I0403 14:40:03.928910 17334 net.cpp:148] Top shape: 100 38 (3800)
I0403 14:40:03.928923 17334 net.cpp:156] Memory required for data: 831586800
I0403 14:40:03.928937 17334 layer_factory.hpp:77] Creating layer prob
I0403 14:40:03.928962 17334 net.cpp:91] Creating Layer prob
I0403 14:40:03.928992 17334 net.cpp:425] prob <- fc8_plantvillage_fc8_plantvillage_0_split_0
I0403 14:40:03.929011 17334 net.cpp:399] prob -> prob
I0403 14:40:03.929246 17334 net.cpp:141] Setting up prob
I0403 14:40:03.929273 17334 net.cpp:148] Top shape: 100 38 (3800)
I0403 14:40:03.929288 17334 net.cpp:156] Memory required for data: 831602000
I0403 14:40:03.929311 17334 layer_factory.hpp:77] Creating layer hdf5out
I0403 14:40:03.929330 17334 net.cpp:91] Creating Layer hdf5out
I0403 14:40:03.929347 17334 net.cpp:425] hdf5out <- prob
I0403 14:40:03.929363 17334 net.cpp:425] hdf5out <- label_data_1_split_0
I0403 14:40:03.931859 17334 net.cpp:141] Setting up hdf5out
…
