…
I0403 14:35:41.490798 17206 net.cpp:313] The NetState phase (1) differed from the phase (0) specified by a rule in layer data
I0403 14:35:41.491133 17206 net.cpp:49] Initializing net from parameters: 
state {
  phase: TEST
}
layer {
  name: "data"
  type: "Data"
  top: "data"
  top: "label"
  include {
    phase: TEST
  }
  transform_param {
    crop_size: 227
    mean_file: "/home/mohanty/data/final_dataset/lmdb/segmented-60-40/mean.binaryproto"
  }
  data_param {
    source: "/home/mohanty/data/final_dataset/lmdb/segmented-60-40/test_db"
    batch_size: 100
    backend: LMDB
  }
}
layer {
  name: "conv1"
  type: "Convolution"
  bottom: "data"
  top: "conv1"
  param {
    lr_mult: 1
    decay_mult: 1
  }
  param {
    lr_mult: 2
    decay_mult: 0
  }
  convolution_param {
    num_output: 96
    kernel_size: 11
    stride: 4
    weight_filler {
      type: "gaussian"
      std: 0.01
    }
    bias_filler {
      type: "constant"
      value: 0
    }
  }
}
layer {
  name: "relu1"
  type: "ReLU"
  bottom: "conv1"
  top: "conv1"
}
layer {
  name: "norm1"
  type: "LRN"
  bottom: "conv1"
  top: "norm1"
  lrn_param {
    local_size: 5
    alpha: 0.0001
    beta: 0.75
  }
}
layer {
  name: "pool1"
  type: "Pooling"
  bottom: "norm1"
  top: "pool1"
  pooling_param {
    pool: MAX
    kernel_size: 3
    stride: 2
  }
}
layer {
  name: "conv2"
  type: "Convolution"
  bottom: "pool1"
  top: "conv2"
  param {
    lr_mult: 1
    decay_mult: 1
  }
  param {
    lr_mult: 2
    decay_mult: 0
  }
  convolution_param {
    num_output: 256
    pad: 2
    kernel_size: 5
    group: 2
    weight_filler {
      type: "gaussian"
      std: 0.01
    }
    bias_filler {
      type: "constant"
      value: 0.1
    }
  }
}
layer {
  name: "relu2"
  type: "ReLU"
  bottom: "conv2"
  top: "conv2"
}
layer {
  name: "norm2"
  type: "LRN"
  bottom: "conv2"
  top: "norm2"
  lrn_param {
    local_size: 5
    alpha: 0.0001
    beta: 0.75
  }
}
layer {
  name: "pool2"
  type: "Pooling"
  bottom: "norm2"
  top: "pool2"
  pooling_param {
    pool: MAX
    kernel_size: 3
    stride: 2
  }
}
layer {
  name: "conv3"
  type: "Convolution"
  bottom: "pool2"
  top: "conv3"
  param {
    lr_mult: 1
    decay_mult: 1
  }
  param {
    lr_mult: 2
    decay_mult: 0
  }
  convolution_param {
    num_output: 384
    pad: 1
    kernel_size: 3
    weight_filler {
      type: "gaussian"
      std: 0.01
    }
    bias_filler {
      type: "constant"
      value: 0
    }
  }
}
layer {
  name: "relu3"
  type: "ReLU"
  bottom: "conv3"
  top: "conv3"
}
layer {
  name: "conv4"
  type: "Convolution"
  bottom: "conv3"
  top: "conv4"
  param {
    lr_mult: 1
    decay_mult: 1
  }
  param {
    lr_mult: 2
    decay_mult: 0
  }
  convolution_param {
    num_output: 384
    pad: 1
    kernel_size: 3
    group: 2
    weight_filler {
      type: "gaussian"
      std: 0.01
    }
    bias_filler {
      type: "constant"
      value: 0.1
    }
  }
}
layer {
  name: "relu4"
  type: "ReLU"
  bottom: "conv4"
  top: "conv4"
}
layer {
  name: "conv5"
  type: "Convolution"
  bottom: "conv4"
  top: "conv5"
  param {
    lr_mult: 1
    decay_mult: 1
  }
  param {
    lr_mult: 2
    decay_mult: 0
  }
  convolution_param {
    num_output: 256
    pad: 1
    kernel_size: 3
    group: 2
    weight_filler {
      type: "gaussian"
      std: 0.01
    }
    bias_filler {
      type: "constant"
      value: 0.1
    }
  }
}
layer {
  name: "relu5"
  type: "ReLU"
  bottom: "conv5"
  top: "conv5"
}
layer {
  name: "pool5"
  type: "Pooling"
  bottom: "conv5"
  top: "pool5"
  pooling_param {
    pool: MAX
    kernel_size: 3
    stride: 2
  }
}
layer {
  name: "fc6"
  type: "InnerProduct"
  bottom: "pool5"
  top: "fc6"
  param {
    lr_mult: 1
    decay_mult: 1
  }
  param {
    lr_mult: 2
    decay_mult: 0
  }
  inner_product_param {
    num_output: 4096
    weight_filler {
      type: "gaussian"
      std: 0.005
    }
    bias_filler {
      type: "constant"
      value: 0.1
    }
  }
}
layer {
  name: "relu6"
  type: "ReLU"
  bottom: "fc6"
  top: "fc6"
}
layer {
  name: "drop6"
  type: "Dropout"
  bottom: "fc6"
  top: "fc6"
  dropout_param {
    dropout_ratio: 0.5
  }
}
layer {
  name: "fc7"
  type: "InnerProduct"
  bottom: "fc6"
  top: "fc7"
  param {
    lr_mult: 1
    decay_mult: 1
  }
  param {
    lr_mult: 2
    decay_mult: 0
  }
  inner_product_param {
    num_output: 4096
    weight_filler {
      type: "gaussian"
      std: 0.005
    }
    bias_filler {
      type: "constant"
      value: 0.1
    }
  }
}
layer {
  name: "relu7"
  type: "ReLU"
  bottom: "fc7"
  top: "fc7"
}
layer {
  name: "drop7"
  type: "Dropout"
  bottom: "fc7"
  top: "fc7"
  dropout_param {
    dropout_ratio: 0.5
  }
}
layer {
  name: "fc8_plantvillage"
  type: "InnerProduct"
  bottom: "fc7"
  top: "fc8_plantvillage"
  param {
    lr_mult: 1
    decay_mult: 1
  }
  param {
    lr_mult: 2
    decay_mult: 0
  }
  inner_product_param {
    num_output: 38
    weight_filler {
      type: "gaussian"
      std: 0.01
    }
    bias_filler {
      type: "constant"
      value: 0
    }
  }
}
layer {
  name: "prob"
  type: "Softmax"
  bottom: "fc8_plantvillage"
  top: "prob"
  include {
    phase: TEST
  }
}
layer {
  name: "hdf5out"
  type: "HDF5Output"
  bottom: "prob"
  bottom: "label"
  include {
    phase: TEST
  }
  hdf5_output_param {
    file_name: "hdf5_dumps/iter_4550.h5"
  }
}
layer {
  name: "loss"
  type: "SoftmaxWithLoss"
  bottom: "fc8_plantvillage"
  bottom: "label"
  top: "loss"
}
layer {
  name: "accuracy"
  type: "Accuracy"
  bottom: "fc8_plantvillage"
  bottom: "label"
  top: "accuracy"
  include {
    phase: TEST
  }
}
I0403 14:35:41.491708 17206 layer_factory.hpp:77] Creating layer data
I0403 14:35:41.492383 17206 net.cpp:91] Creating Layer data
I0403 14:35:41.492413 17206 net.cpp:399] data -> data
I0403 14:35:41.492465 17206 net.cpp:399] data -> label
I0403 14:35:41.492501 17206 data_transformer.cpp:25] Loading mean file from: /home/mohanty/data/final_dataset/lmdb/segmented-60-40/mean.binaryproto
I0403 14:35:41.493669 17209 db_lmdb.cpp:38] Opened lmdb /home/mohanty/data/final_dataset/lmdb/segmented-60-40/test_db
I0403 14:35:41.506984 17206 data_layer.cpp:41] output data size: 100,3,227,227
I0403 14:35:41.642400 17206 net.cpp:141] Setting up data
I0403 14:35:41.642510 17206 net.cpp:148] Top shape: 100 3 227 227 (15458700)
I0403 14:35:41.642532 17206 net.cpp:148] Top shape: 100 (100)
I0403 14:35:41.642545 17206 net.cpp:156] Memory required for data: 61835200
I0403 14:35:41.642572 17206 layer_factory.hpp:77] Creating layer label_data_1_split
I0403 14:35:41.642596 17206 net.cpp:91] Creating Layer label_data_1_split
I0403 14:35:41.642613 17206 net.cpp:425] label_data_1_split <- label
I0403 14:35:41.642645 17206 net.cpp:399] label_data_1_split -> label_data_1_split_0
I0403 14:35:41.642671 17206 net.cpp:399] label_data_1_split -> label_data_1_split_1
I0403 14:35:41.642690 17206 net.cpp:399] label_data_1_split -> label_data_1_split_2
I0403 14:35:41.642752 17206 net.cpp:141] Setting up label_data_1_split
I0403 14:35:41.642776 17206 net.cpp:148] Top shape: 100 (100)
I0403 14:35:41.642791 17206 net.cpp:148] Top shape: 100 (100)
I0403 14:35:41.642807 17206 net.cpp:148] Top shape: 100 (100)
I0403 14:35:41.642819 17206 net.cpp:156] Memory required for data: 61836400
I0403 14:35:41.642833 17206 layer_factory.hpp:77] Creating layer conv1
I0403 14:35:41.642863 17206 net.cpp:91] Creating Layer conv1
I0403 14:35:41.642880 17206 net.cpp:425] conv1 <- data
I0403 14:35:41.642899 17206 net.cpp:399] conv1 -> conv1
I0403 14:35:41.789321 17206 net.cpp:141] Setting up conv1
I0403 14:35:41.789410 17206 net.cpp:148] Top shape: 100 96 55 55 (29040000)
I0403 14:35:41.789428 17206 net.cpp:156] Memory required for data: 177996400
I0403 14:35:41.789459 17206 layer_factory.hpp:77] Creating layer relu1
I0403 14:35:41.789489 17206 net.cpp:91] Creating Layer relu1
I0403 14:35:41.789506 17206 net.cpp:425] relu1 <- conv1
I0403 14:35:41.789538 17206 net.cpp:386] relu1 -> conv1 (in-place)
I0403 14:35:41.789826 17206 net.cpp:141] Setting up relu1
I0403 14:35:41.789855 17206 net.cpp:148] Top shape: 100 96 55 55 (29040000)
I0403 14:35:41.789901 17206 net.cpp:156] Memory required for data: 294156400
I0403 14:35:41.789918 17206 layer_factory.hpp:77] Creating layer norm1
I0403 14:35:41.789945 17206 net.cpp:91] Creating Layer norm1
I0403 14:35:41.789963 17206 net.cpp:425] norm1 <- conv1
I0403 14:35:41.789981 17206 net.cpp:399] norm1 -> norm1
I0403 14:35:41.790302 17206 net.cpp:141] Setting up norm1
I0403 14:35:41.790330 17206 net.cpp:148] Top shape: 100 96 55 55 (29040000)
I0403 14:35:41.790346 17206 net.cpp:156] Memory required for data: 410316400
I0403 14:35:41.790362 17206 layer_factory.hpp:77] Creating layer pool1
I0403 14:35:41.790385 17206 net.cpp:91] Creating Layer pool1
I0403 14:35:41.790400 17206 net.cpp:425] pool1 <- norm1
I0403 14:35:41.790417 17206 net.cpp:399] pool1 -> pool1
I0403 14:35:41.790484 17206 net.cpp:141] Setting up pool1
I0403 14:35:41.790508 17206 net.cpp:148] Top shape: 100 96 27 27 (6998400)
I0403 14:35:41.790524 17206 net.cpp:156] Memory required for data: 438310000
I0403 14:35:41.790537 17206 layer_factory.hpp:77] Creating layer conv2
I0403 14:35:41.790562 17206 net.cpp:91] Creating Layer conv2
I0403 14:35:41.790578 17206 net.cpp:425] conv2 <- pool1
I0403 14:35:41.790596 17206 net.cpp:399] conv2 -> conv2
I0403 14:35:41.805939 17206 net.cpp:141] Setting up conv2
I0403 14:35:41.806004 17206 net.cpp:148] Top shape: 100 256 27 27 (18662400)
I0403 14:35:41.806021 17206 net.cpp:156] Memory required for data: 512959600
I0403 14:35:41.806043 17206 layer_factory.hpp:77] Creating layer relu2
I0403 14:35:41.806063 17206 net.cpp:91] Creating Layer relu2
I0403 14:35:41.806079 17206 net.cpp:425] relu2 <- conv2
I0403 14:35:41.806097 17206 net.cpp:386] relu2 -> conv2 (in-place)
I0403 14:35:41.806360 17206 net.cpp:141] Setting up relu2
I0403 14:35:41.806412 17206 net.cpp:148] Top shape: 100 256 27 27 (18662400)
I0403 14:35:41.806432 17206 net.cpp:156] Memory required for data: 587609200
I0403 14:35:41.806445 17206 layer_factory.hpp:77] Creating layer norm2
I0403 14:35:41.806468 17206 net.cpp:91] Creating Layer norm2
I0403 14:35:41.806483 17206 net.cpp:425] norm2 <- conv2
I0403 14:35:41.806500 17206 net.cpp:399] norm2 -> norm2
I0403 14:35:41.806685 17206 net.cpp:141] Setting up norm2
I0403 14:35:41.806710 17206 net.cpp:148] Top shape: 100 256 27 27 (18662400)
I0403 14:35:41.806725 17206 net.cpp:156] Memory required for data: 662258800
I0403 14:35:41.806740 17206 layer_factory.hpp:77] Creating layer pool2
I0403 14:35:41.806757 17206 net.cpp:91] Creating Layer pool2
I0403 14:35:41.806771 17206 net.cpp:425] pool2 <- norm2
I0403 14:35:41.806789 17206 net.cpp:399] pool2 -> pool2
I0403 14:35:41.806838 17206 net.cpp:141] Setting up pool2
I0403 14:35:41.806861 17206 net.cpp:148] Top shape: 100 256 13 13 (4326400)
I0403 14:35:41.806875 17206 net.cpp:156] Memory required for data: 679564400
I0403 14:35:41.806890 17206 layer_factory.hpp:77] Creating layer conv3
I0403 14:35:41.806911 17206 net.cpp:91] Creating Layer conv3
I0403 14:35:41.806927 17206 net.cpp:425] conv3 <- pool2
I0403 14:35:41.806944 17206 net.cpp:399] conv3 -> conv3
I0403 14:35:41.845942 17206 net.cpp:141] Setting up conv3
I0403 14:35:41.846024 17206 net.cpp:148] Top shape: 100 384 13 13 (6489600)
I0403 14:35:41.846042 17206 net.cpp:156] Memory required for data: 705522800
I0403 14:35:41.846067 17206 layer_factory.hpp:77] Creating layer relu3
I0403 14:35:41.846091 17206 net.cpp:91] Creating Layer relu3
I0403 14:35:41.846107 17206 net.cpp:425] relu3 <- conv3
I0403 14:35:41.846127 17206 net.cpp:386] relu3 -> conv3 (in-place)
I0403 14:35:41.846407 17206 net.cpp:141] Setting up relu3
I0403 14:35:41.846436 17206 net.cpp:148] Top shape: 100 384 13 13 (6489600)
I0403 14:35:41.846451 17206 net.cpp:156] Memory required for data: 731481200
I0403 14:35:41.846465 17206 layer_factory.hpp:77] Creating layer conv4
I0403 14:35:41.846534 17206 net.cpp:91] Creating Layer conv4
I0403 14:35:41.846556 17206 net.cpp:425] conv4 <- conv3
I0403 14:35:41.846580 17206 net.cpp:399] conv4 -> conv4
I0403 14:35:41.877146 17206 net.cpp:141] Setting up conv4
I0403 14:35:41.877228 17206 net.cpp:148] Top shape: 100 384 13 13 (6489600)
I0403 14:35:41.877276 17206 net.cpp:156] Memory required for data: 757439600
I0403 14:35:41.877298 17206 layer_factory.hpp:77] Creating layer relu4
I0403 14:35:41.877321 17206 net.cpp:91] Creating Layer relu4
I0403 14:35:41.877337 17206 net.cpp:425] relu4 <- conv4
I0403 14:35:41.877359 17206 net.cpp:386] relu4 -> conv4 (in-place)
I0403 14:35:41.877640 17206 net.cpp:141] Setting up relu4
I0403 14:35:41.877671 17206 net.cpp:148] Top shape: 100 384 13 13 (6489600)
I0403 14:35:41.877687 17206 net.cpp:156] Memory required for data: 783398000
I0403 14:35:41.877702 17206 layer_factory.hpp:77] Creating layer conv5
I0403 14:35:41.877728 17206 net.cpp:91] Creating Layer conv5
I0403 14:35:41.877746 17206 net.cpp:425] conv5 <- conv4
I0403 14:35:41.877765 17206 net.cpp:399] conv5 -> conv5
I0403 14:35:41.899493 17206 net.cpp:141] Setting up conv5
I0403 14:35:41.899571 17206 net.cpp:148] Top shape: 100 256 13 13 (4326400)
I0403 14:35:41.899590 17206 net.cpp:156] Memory required for data: 800703600
I0403 14:35:41.899616 17206 layer_factory.hpp:77] Creating layer relu5
I0403 14:35:41.899652 17206 net.cpp:91] Creating Layer relu5
I0403 14:35:41.899672 17206 net.cpp:425] relu5 <- conv5
I0403 14:35:41.899693 17206 net.cpp:386] relu5 -> conv5 (in-place)
I0403 14:35:41.900017 17206 net.cpp:141] Setting up relu5
I0403 14:35:41.900048 17206 net.cpp:148] Top shape: 100 256 13 13 (4326400)
I0403 14:35:41.900063 17206 net.cpp:156] Memory required for data: 818009200
I0403 14:35:41.900079 17206 layer_factory.hpp:77] Creating layer pool5
I0403 14:35:41.900104 17206 net.cpp:91] Creating Layer pool5
I0403 14:35:41.900120 17206 net.cpp:425] pool5 <- conv5
I0403 14:35:41.900138 17206 net.cpp:399] pool5 -> pool5
I0403 14:35:41.900207 17206 net.cpp:141] Setting up pool5
I0403 14:35:41.900231 17206 net.cpp:148] Top shape: 100 256 6 6 (921600)
I0403 14:35:41.900246 17206 net.cpp:156] Memory required for data: 821695600
I0403 14:35:41.900279 17206 layer_factory.hpp:77] Creating layer fc6
I0403 14:35:41.900307 17206 net.cpp:91] Creating Layer fc6
I0403 14:35:41.900326 17206 net.cpp:425] fc6 <- pool5
I0403 14:35:41.900348 17206 net.cpp:399] fc6 -> fc6
I0403 14:35:43.539069 17206 net.cpp:141] Setting up fc6
I0403 14:35:43.539161 17206 net.cpp:148] Top shape: 100 4096 (409600)
I0403 14:35:43.539177 17206 net.cpp:156] Memory required for data: 823334000
I0403 14:35:43.539199 17206 layer_factory.hpp:77] Creating layer relu6
I0403 14:35:43.539225 17206 net.cpp:91] Creating Layer relu6
I0403 14:35:43.539243 17206 net.cpp:425] relu6 <- fc6
I0403 14:35:43.539263 17206 net.cpp:386] relu6 -> fc6 (in-place)
I0403 14:35:43.539508 17206 net.cpp:141] Setting up relu6
I0403 14:35:43.539533 17206 net.cpp:148] Top shape: 100 4096 (409600)
I0403 14:35:43.539548 17206 net.cpp:156] Memory required for data: 824972400
I0403 14:35:43.539562 17206 layer_factory.hpp:77] Creating layer drop6
I0403 14:35:43.539580 17206 net.cpp:91] Creating Layer drop6
I0403 14:35:43.539595 17206 net.cpp:425] drop6 <- fc6
I0403 14:35:43.539615 17206 net.cpp:386] drop6 -> fc6 (in-place)
I0403 14:35:43.539667 17206 net.cpp:141] Setting up drop6
I0403 14:35:43.539693 17206 net.cpp:148] Top shape: 100 4096 (409600)
I0403 14:35:43.539710 17206 net.cpp:156] Memory required for data: 826610800
I0403 14:35:43.539723 17206 layer_factory.hpp:77] Creating layer fc7
I0403 14:35:43.539742 17206 net.cpp:91] Creating Layer fc7
I0403 14:35:43.539757 17206 net.cpp:425] fc7 <- fc6
I0403 14:35:43.539777 17206 net.cpp:399] fc7 -> fc7
I0403 14:35:44.259141 17206 net.cpp:141] Setting up fc7
I0403 14:35:44.259230 17206 net.cpp:148] Top shape: 100 4096 (409600)
I0403 14:35:44.259246 17206 net.cpp:156] Memory required for data: 828249200
I0403 14:35:44.259268 17206 layer_factory.hpp:77] Creating layer relu7
I0403 14:35:44.259289 17206 net.cpp:91] Creating Layer relu7
I0403 14:35:44.259306 17206 net.cpp:425] relu7 <- fc7
I0403 14:35:44.259327 17206 net.cpp:386] relu7 -> fc7 (in-place)
I0403 14:35:44.259737 17206 net.cpp:141] Setting up relu7
I0403 14:35:44.259764 17206 net.cpp:148] Top shape: 100 4096 (409600)
I0403 14:35:44.259811 17206 net.cpp:156] Memory required for data: 829887600
I0403 14:35:44.259826 17206 layer_factory.hpp:77] Creating layer drop7
I0403 14:35:44.259845 17206 net.cpp:91] Creating Layer drop7
I0403 14:35:44.259860 17206 net.cpp:425] drop7 <- fc7
I0403 14:35:44.259879 17206 net.cpp:386] drop7 -> fc7 (in-place)
I0403 14:35:44.259923 17206 net.cpp:141] Setting up drop7
I0403 14:35:44.259948 17206 net.cpp:148] Top shape: 100 4096 (409600)
I0403 14:35:44.259963 17206 net.cpp:156] Memory required for data: 831526000
I0403 14:35:44.259977 17206 layer_factory.hpp:77] Creating layer fc8_plantvillage
I0403 14:35:44.260002 17206 net.cpp:91] Creating Layer fc8_plantvillage
I0403 14:35:44.260018 17206 net.cpp:425] fc8_plantvillage <- fc7
I0403 14:35:44.260038 17206 net.cpp:399] fc8_plantvillage -> fc8_plantvillage
I0403 14:35:44.267066 17206 net.cpp:141] Setting up fc8_plantvillage
I0403 14:35:44.267093 17206 net.cpp:148] Top shape: 100 38 (3800)
I0403 14:35:44.267108 17206 net.cpp:156] Memory required for data: 831541200
I0403 14:35:44.267127 17206 layer_factory.hpp:77] Creating layer fc8_plantvillage_fc8_plantvillage_0_split
I0403 14:35:44.267144 17206 net.cpp:91] Creating Layer fc8_plantvillage_fc8_plantvillage_0_split
I0403 14:35:44.267159 17206 net.cpp:425] fc8_plantvillage_fc8_plantvillage_0_split <- fc8_plantvillage
I0403 14:35:44.267179 17206 net.cpp:399] fc8_plantvillage_fc8_plantvillage_0_split -> fc8_plantvillage_fc8_plantvillage_0_split_0
I0403 14:35:44.267199 17206 net.cpp:399] fc8_plantvillage_fc8_plantvillage_0_split -> fc8_plantvillage_fc8_plantvillage_0_split_1
I0403 14:35:44.267218 17206 net.cpp:399] fc8_plantvillage_fc8_plantvillage_0_split -> fc8_plantvillage_fc8_plantvillage_0_split_2
I0403 14:35:44.267294 17206 net.cpp:141] Setting up fc8_plantvillage_fc8_plantvillage_0_split
I0403 14:35:44.267318 17206 net.cpp:148] Top shape: 100 38 (3800)
I0403 14:35:44.267335 17206 net.cpp:148] Top shape: 100 38 (3800)
I0403 14:35:44.267350 17206 net.cpp:148] Top shape: 100 38 (3800)
I0403 14:35:44.267364 17206 net.cpp:156] Memory required for data: 831586800
I0403 14:35:44.267379 17206 layer_factory.hpp:77] Creating layer prob
I0403 14:35:44.267395 17206 net.cpp:91] Creating Layer prob
I0403 14:35:44.267410 17206 net.cpp:425] prob <- fc8_plantvillage_fc8_plantvillage_0_split_0
I0403 14:35:44.267429 17206 net.cpp:399] prob -> prob
I0403 14:35:44.267662 17206 net.cpp:141] Setting up prob
I0403 14:35:44.267688 17206 net.cpp:148] Top shape: 100 38 (3800)
I0403 14:35:44.267701 17206 net.cpp:156] Memory required for data: 831602000
I0403 14:35:44.267716 17206 layer_factory.hpp:77] Creating layer hdf5out
I0403 14:35:44.267735 17206 net.cpp:91] Creating Layer hdf5out
I0403 14:35:44.267750 17206 net.cpp:425] hdf5out <- prob
I0403 14:35:44.267765 17206 net.cpp:425] hdf5out <- label_data_1_split_0
I0403 14:35:44.270097 17206 net.cpp:141] Setting up hdf5out
…
