…
I0403 14:27:01.085393 16960 net.cpp:313] The NetState phase (1) differed from the phase (0) specified by a rule in layer data
I0403 14:27:01.085736 16960 net.cpp:49] Initializing net from parameters: 
state {
  phase: TEST
}
layer {
  name: "data"
  type: "Data"
  top: "data"
  top: "label"
  include {
    phase: TEST
  }
  transform_param {
    crop_size: 227
    mean_file: "/home/mohanty/data/final_dataset/lmdb/segmented-60-40/mean.binaryproto"
  }
  data_param {
    source: "/home/mohanty/data/final_dataset/lmdb/segmented-60-40/test_db"
    batch_size: 100
    backend: LMDB
  }
}
layer {
  name: "conv1"
  type: "Convolution"
  bottom: "data"
  top: "conv1"
  param {
    lr_mult: 1
    decay_mult: 1
  }
  param {
    lr_mult: 2
    decay_mult: 0
  }
  convolution_param {
    num_output: 96
    kernel_size: 11
    stride: 4
    weight_filler {
      type: "gaussian"
      std: 0.01
    }
    bias_filler {
      type: "constant"
      value: 0
    }
  }
}
layer {
  name: "relu1"
  type: "ReLU"
  bottom: "conv1"
  top: "conv1"
}
layer {
  name: "norm1"
  type: "LRN"
  bottom: "conv1"
  top: "norm1"
  lrn_param {
    local_size: 5
    alpha: 0.0001
    beta: 0.75
  }
}
layer {
  name: "pool1"
  type: "Pooling"
  bottom: "norm1"
  top: "pool1"
  pooling_param {
    pool: MAX
    kernel_size: 3
    stride: 2
  }
}
layer {
  name: "conv2"
  type: "Convolution"
  bottom: "pool1"
  top: "conv2"
  param {
    lr_mult: 1
    decay_mult: 1
  }
  param {
    lr_mult: 2
    decay_mult: 0
  }
  convolution_param {
    num_output: 256
    pad: 2
    kernel_size: 5
    group: 2
    weight_filler {
      type: "gaussian"
      std: 0.01
    }
    bias_filler {
      type: "constant"
      value: 0.1
    }
  }
}
layer {
  name: "relu2"
  type: "ReLU"
  bottom: "conv2"
  top: "conv2"
}
layer {
  name: "norm2"
  type: "LRN"
  bottom: "conv2"
  top: "norm2"
  lrn_param {
    local_size: 5
    alpha: 0.0001
    beta: 0.75
  }
}
layer {
  name: "pool2"
  type: "Pooling"
  bottom: "norm2"
  top: "pool2"
  pooling_param {
    pool: MAX
    kernel_size: 3
    stride: 2
  }
}
layer {
  name: "conv3"
  type: "Convolution"
  bottom: "pool2"
  top: "conv3"
  param {
    lr_mult: 1
    decay_mult: 1
  }
  param {
    lr_mult: 2
    decay_mult: 0
  }
  convolution_param {
    num_output: 384
    pad: 1
    kernel_size: 3
    weight_filler {
      type: "gaussian"
      std: 0.01
    }
    bias_filler {
      type: "constant"
      value: 0
    }
  }
}
layer {
  name: "relu3"
  type: "ReLU"
  bottom: "conv3"
  top: "conv3"
}
layer {
  name: "conv4"
  type: "Convolution"
  bottom: "conv3"
  top: "conv4"
  param {
    lr_mult: 1
    decay_mult: 1
  }
  param {
    lr_mult: 2
    decay_mult: 0
  }
  convolution_param {
    num_output: 384
    pad: 1
    kernel_size: 3
    group: 2
    weight_filler {
      type: "gaussian"
      std: 0.01
    }
    bias_filler {
      type: "constant"
      value: 0.1
    }
  }
}
layer {
  name: "relu4"
  type: "ReLU"
  bottom: "conv4"
  top: "conv4"
}
layer {
  name: "conv5"
  type: "Convolution"
  bottom: "conv4"
  top: "conv5"
  param {
    lr_mult: 1
    decay_mult: 1
  }
  param {
    lr_mult: 2
    decay_mult: 0
  }
  convolution_param {
    num_output: 256
    pad: 1
    kernel_size: 3
    group: 2
    weight_filler {
      type: "gaussian"
      std: 0.01
    }
    bias_filler {
      type: "constant"
      value: 0.1
    }
  }
}
layer {
  name: "relu5"
  type: "ReLU"
  bottom: "conv5"
  top: "conv5"
}
layer {
  name: "pool5"
  type: "Pooling"
  bottom: "conv5"
  top: "pool5"
  pooling_param {
    pool: MAX
    kernel_size: 3
    stride: 2
  }
}
layer {
  name: "fc6"
  type: "InnerProduct"
  bottom: "pool5"
  top: "fc6"
  param {
    lr_mult: 1
    decay_mult: 1
  }
  param {
    lr_mult: 2
    decay_mult: 0
  }
  inner_product_param {
    num_output: 4096
    weight_filler {
      type: "gaussian"
      std: 0.005
    }
    bias_filler {
      type: "constant"
      value: 0.1
    }
  }
}
layer {
  name: "relu6"
  type: "ReLU"
  bottom: "fc6"
  top: "fc6"
}
layer {
  name: "drop6"
  type: "Dropout"
  bottom: "fc6"
  top: "fc6"
  dropout_param {
    dropout_ratio: 0.5
  }
}
layer {
  name: "fc7"
  type: "InnerProduct"
  bottom: "fc6"
  top: "fc7"
  param {
    lr_mult: 1
    decay_mult: 1
  }
  param {
    lr_mult: 2
    decay_mult: 0
  }
  inner_product_param {
    num_output: 4096
    weight_filler {
      type: "gaussian"
      std: 0.005
    }
    bias_filler {
      type: "constant"
      value: 0.1
    }
  }
}
layer {
  name: "relu7"
  type: "ReLU"
  bottom: "fc7"
  top: "fc7"
}
layer {
  name: "drop7"
  type: "Dropout"
  bottom: "fc7"
  top: "fc7"
  dropout_param {
    dropout_ratio: 0.5
  }
}
layer {
  name: "fc8_plantvillage"
  type: "InnerProduct"
  bottom: "fc7"
  top: "fc8_plantvillage"
  param {
    lr_mult: 1
    decay_mult: 1
  }
  param {
    lr_mult: 2
    decay_mult: 0
  }
  inner_product_param {
    num_output: 38
    weight_filler {
      type: "gaussian"
      std: 0.01
    }
    bias_filler {
      type: "constant"
      value: 0
    }
  }
}
layer {
  name: "prob"
  type: "Softmax"
  bottom: "fc8_plantvillage"
  top: "prob"
  include {
    phase: TEST
  }
}
layer {
  name: "hdf5out"
  type: "HDF5Output"
  bottom: "prob"
  bottom: "label"
  include {
    phase: TEST
  }
  hdf5_output_param {
    file_name: "hdf5_dumps/iter_650.h5"
  }
}
layer {
  name: "loss"
  type: "SoftmaxWithLoss"
  bottom: "fc8_plantvillage"
  bottom: "label"
  top: "loss"
}
layer {
  name: "accuracy"
  type: "Accuracy"
  bottom: "fc8_plantvillage"
  bottom: "label"
  top: "accuracy"
  include {
    phase: TEST
  }
}
I0403 14:27:01.086288 16960 layer_factory.hpp:77] Creating layer data
I0403 14:27:01.086971 16960 net.cpp:91] Creating Layer data
I0403 14:27:01.087007 16960 net.cpp:399] data -> data
I0403 14:27:01.087064 16960 net.cpp:399] data -> label
I0403 14:27:01.087101 16960 data_transformer.cpp:25] Loading mean file from: /home/mohanty/data/final_dataset/lmdb/segmented-60-40/mean.binaryproto
I0403 14:27:01.125072 16962 db_lmdb.cpp:38] Opened lmdb /home/mohanty/data/final_dataset/lmdb/segmented-60-40/test_db
I0403 14:27:01.128339 16960 data_layer.cpp:41] output data size: 100,3,227,227
I0403 14:27:01.265902 16960 net.cpp:141] Setting up data
I0403 14:27:01.266001 16960 net.cpp:148] Top shape: 100 3 227 227 (15458700)
I0403 14:27:01.266026 16960 net.cpp:148] Top shape: 100 (100)
I0403 14:27:01.266042 16960 net.cpp:156] Memory required for data: 61835200
I0403 14:27:01.266072 16960 layer_factory.hpp:77] Creating layer label_data_1_split
I0403 14:27:01.266098 16960 net.cpp:91] Creating Layer label_data_1_split
I0403 14:27:01.266115 16960 net.cpp:425] label_data_1_split <- label
I0403 14:27:01.266147 16960 net.cpp:399] label_data_1_split -> label_data_1_split_0
I0403 14:27:01.266175 16960 net.cpp:399] label_data_1_split -> label_data_1_split_1
I0403 14:27:01.266196 16960 net.cpp:399] label_data_1_split -> label_data_1_split_2
I0403 14:27:01.266260 16960 net.cpp:141] Setting up label_data_1_split
I0403 14:27:01.266284 16960 net.cpp:148] Top shape: 100 (100)
I0403 14:27:01.266301 16960 net.cpp:148] Top shape: 100 (100)
I0403 14:27:01.266317 16960 net.cpp:148] Top shape: 100 (100)
I0403 14:27:01.266331 16960 net.cpp:156] Memory required for data: 61836400
I0403 14:27:01.266346 16960 layer_factory.hpp:77] Creating layer conv1
I0403 14:27:01.266379 16960 net.cpp:91] Creating Layer conv1
I0403 14:27:01.266397 16960 net.cpp:425] conv1 <- data
I0403 14:27:01.266417 16960 net.cpp:399] conv1 -> conv1
I0403 14:27:01.416628 16960 net.cpp:141] Setting up conv1
I0403 14:27:01.416702 16960 net.cpp:148] Top shape: 100 96 55 55 (29040000)
I0403 14:27:01.416718 16960 net.cpp:156] Memory required for data: 177996400
I0403 14:27:01.416751 16960 layer_factory.hpp:77] Creating layer relu1
I0403 14:27:01.416779 16960 net.cpp:91] Creating Layer relu1
I0403 14:27:01.416803 16960 net.cpp:425] relu1 <- conv1
I0403 14:27:01.416831 16960 net.cpp:386] relu1 -> conv1 (in-place)
I0403 14:27:01.417112 16960 net.cpp:141] Setting up relu1
I0403 14:27:01.417140 16960 net.cpp:148] Top shape: 100 96 55 55 (29040000)
I0403 14:27:01.417191 16960 net.cpp:156] Memory required for data: 294156400
I0403 14:27:01.417234 16960 layer_factory.hpp:77] Creating layer norm1
I0403 14:27:01.417263 16960 net.cpp:91] Creating Layer norm1
I0403 14:27:01.417282 16960 net.cpp:425] norm1 <- conv1
I0403 14:27:01.417301 16960 net.cpp:399] norm1 -> norm1
I0403 14:27:01.417620 16960 net.cpp:141] Setting up norm1
I0403 14:27:01.417649 16960 net.cpp:148] Top shape: 100 96 55 55 (29040000)
I0403 14:27:01.417665 16960 net.cpp:156] Memory required for data: 410316400
I0403 14:27:01.417681 16960 layer_factory.hpp:77] Creating layer pool1
I0403 14:27:01.417706 16960 net.cpp:91] Creating Layer pool1
I0403 14:27:01.417723 16960 net.cpp:425] pool1 <- norm1
I0403 14:27:01.417742 16960 net.cpp:399] pool1 -> pool1
I0403 14:27:01.417811 16960 net.cpp:141] Setting up pool1
I0403 14:27:01.417836 16960 net.cpp:148] Top shape: 100 96 27 27 (6998400)
I0403 14:27:01.417851 16960 net.cpp:156] Memory required for data: 438310000
I0403 14:27:01.417866 16960 layer_factory.hpp:77] Creating layer conv2
I0403 14:27:01.417891 16960 net.cpp:91] Creating Layer conv2
I0403 14:27:01.417908 16960 net.cpp:425] conv2 <- pool1
I0403 14:27:01.417927 16960 net.cpp:399] conv2 -> conv2
I0403 14:27:01.434101 16960 net.cpp:141] Setting up conv2
I0403 14:27:01.434160 16960 net.cpp:148] Top shape: 100 256 27 27 (18662400)
I0403 14:27:01.434178 16960 net.cpp:156] Memory required for data: 512959600
I0403 14:27:01.434202 16960 layer_factory.hpp:77] Creating layer relu2
I0403 14:27:01.434223 16960 net.cpp:91] Creating Layer relu2
I0403 14:27:01.434239 16960 net.cpp:425] relu2 <- conv2
I0403 14:27:01.434262 16960 net.cpp:386] relu2 -> conv2 (in-place)
I0403 14:27:01.434595 16960 net.cpp:141] Setting up relu2
I0403 14:27:01.434625 16960 net.cpp:148] Top shape: 100 256 27 27 (18662400)
I0403 14:27:01.434643 16960 net.cpp:156] Memory required for data: 587609200
I0403 14:27:01.434659 16960 layer_factory.hpp:77] Creating layer norm2
I0403 14:27:01.434684 16960 net.cpp:91] Creating Layer norm2
I0403 14:27:01.434701 16960 net.cpp:425] norm2 <- conv2
I0403 14:27:01.434721 16960 net.cpp:399] norm2 -> norm2
I0403 14:27:01.434944 16960 net.cpp:141] Setting up norm2
I0403 14:27:01.434973 16960 net.cpp:148] Top shape: 100 256 27 27 (18662400)
I0403 14:27:01.434995 16960 net.cpp:156] Memory required for data: 662258800
I0403 14:27:01.435014 16960 layer_factory.hpp:77] Creating layer pool2
I0403 14:27:01.435034 16960 net.cpp:91] Creating Layer pool2
I0403 14:27:01.435052 16960 net.cpp:425] pool2 <- norm2
I0403 14:27:01.435073 16960 net.cpp:399] pool2 -> pool2
I0403 14:27:01.435132 16960 net.cpp:141] Setting up pool2
I0403 14:27:01.435158 16960 net.cpp:148] Top shape: 100 256 13 13 (4326400)
I0403 14:27:01.435174 16960 net.cpp:156] Memory required for data: 679564400
I0403 14:27:01.435191 16960 layer_factory.hpp:77] Creating layer conv3
I0403 14:27:01.435220 16960 net.cpp:91] Creating Layer conv3
I0403 14:27:01.435240 16960 net.cpp:425] conv3 <- pool2
I0403 14:27:01.435258 16960 net.cpp:399] conv3 -> conv3
I0403 14:27:01.475313 16960 net.cpp:141] Setting up conv3
I0403 14:27:01.475383 16960 net.cpp:148] Top shape: 100 384 13 13 (6489600)
I0403 14:27:01.475401 16960 net.cpp:156] Memory required for data: 705522800
I0403 14:27:01.475428 16960 layer_factory.hpp:77] Creating layer relu3
I0403 14:27:01.475451 16960 net.cpp:91] Creating Layer relu3
I0403 14:27:01.475469 16960 net.cpp:425] relu3 <- conv3
I0403 14:27:01.475492 16960 net.cpp:386] relu3 -> conv3 (in-place)
I0403 14:27:01.475788 16960 net.cpp:141] Setting up relu3
I0403 14:27:01.475817 16960 net.cpp:148] Top shape: 100 384 13 13 (6489600)
I0403 14:27:01.475833 16960 net.cpp:156] Memory required for data: 731481200
I0403 14:27:01.475849 16960 layer_factory.hpp:77] Creating layer conv4
I0403 14:27:01.475877 16960 net.cpp:91] Creating Layer conv4
I0403 14:27:01.475895 16960 net.cpp:425] conv4 <- conv3
I0403 14:27:01.475916 16960 net.cpp:399] conv4 -> conv4
I0403 14:27:01.507468 16960 net.cpp:141] Setting up conv4
I0403 14:27:01.507536 16960 net.cpp:148] Top shape: 100 384 13 13 (6489600)
I0403 14:27:01.507585 16960 net.cpp:156] Memory required for data: 757439600
I0403 14:27:01.507608 16960 layer_factory.hpp:77] Creating layer relu4
I0403 14:27:01.507632 16960 net.cpp:91] Creating Layer relu4
I0403 14:27:01.507649 16960 net.cpp:425] relu4 <- conv4
I0403 14:27:01.507671 16960 net.cpp:386] relu4 -> conv4 (in-place)
I0403 14:27:01.508038 16960 net.cpp:141] Setting up relu4
I0403 14:27:01.508069 16960 net.cpp:148] Top shape: 100 384 13 13 (6489600)
I0403 14:27:01.508086 16960 net.cpp:156] Memory required for data: 783398000
I0403 14:27:01.508102 16960 layer_factory.hpp:77] Creating layer conv5
I0403 14:27:01.508128 16960 net.cpp:91] Creating Layer conv5
I0403 14:27:01.508147 16960 net.cpp:425] conv5 <- conv4
I0403 14:27:01.508167 16960 net.cpp:399] conv5 -> conv5
I0403 14:27:01.529891 16960 net.cpp:141] Setting up conv5
I0403 14:27:01.529947 16960 net.cpp:148] Top shape: 100 256 13 13 (4326400)
I0403 14:27:01.529966 16960 net.cpp:156] Memory required for data: 800703600
I0403 14:27:01.530010 16960 layer_factory.hpp:77] Creating layer relu5
I0403 14:27:01.530040 16960 net.cpp:91] Creating Layer relu5
I0403 14:27:01.530058 16960 net.cpp:425] relu5 <- conv5
I0403 14:27:01.530081 16960 net.cpp:386] relu5 -> conv5 (in-place)
I0403 14:27:01.530375 16960 net.cpp:141] Setting up relu5
I0403 14:27:01.530403 16960 net.cpp:148] Top shape: 100 256 13 13 (4326400)
I0403 14:27:01.530418 16960 net.cpp:156] Memory required for data: 818009200
I0403 14:27:01.530434 16960 layer_factory.hpp:77] Creating layer pool5
I0403 14:27:01.530460 16960 net.cpp:91] Creating Layer pool5
I0403 14:27:01.530478 16960 net.cpp:425] pool5 <- conv5
I0403 14:27:01.530496 16960 net.cpp:399] pool5 -> pool5
I0403 14:27:01.530563 16960 net.cpp:141] Setting up pool5
I0403 14:27:01.530616 16960 net.cpp:148] Top shape: 100 256 6 6 (921600)
I0403 14:27:01.530633 16960 net.cpp:156] Memory required for data: 821695600
I0403 14:27:01.530649 16960 layer_factory.hpp:77] Creating layer fc6
I0403 14:27:01.530676 16960 net.cpp:91] Creating Layer fc6
I0403 14:27:01.530694 16960 net.cpp:425] fc6 <- pool5
I0403 14:27:01.530715 16960 net.cpp:399] fc6 -> fc6
I0403 14:27:03.146286 16960 net.cpp:141] Setting up fc6
I0403 14:27:03.146354 16960 net.cpp:148] Top shape: 100 4096 (409600)
I0403 14:27:03.146371 16960 net.cpp:156] Memory required for data: 823334000
I0403 14:27:03.146394 16960 layer_factory.hpp:77] Creating layer relu6
I0403 14:27:03.146419 16960 net.cpp:91] Creating Layer relu6
I0403 14:27:03.146436 16960 net.cpp:425] relu6 <- fc6
I0403 14:27:03.146466 16960 net.cpp:386] relu6 -> fc6 (in-place)
I0403 14:27:03.146698 16960 net.cpp:141] Setting up relu6
I0403 14:27:03.146723 16960 net.cpp:148] Top shape: 100 4096 (409600)
I0403 14:27:03.146739 16960 net.cpp:156] Memory required for data: 824972400
I0403 14:27:03.146752 16960 layer_factory.hpp:77] Creating layer drop6
I0403 14:27:03.146771 16960 net.cpp:91] Creating Layer drop6
I0403 14:27:03.146786 16960 net.cpp:425] drop6 <- fc6
I0403 14:27:03.146807 16960 net.cpp:386] drop6 -> fc6 (in-place)
I0403 14:27:03.146859 16960 net.cpp:141] Setting up drop6
I0403 14:27:03.146885 16960 net.cpp:148] Top shape: 100 4096 (409600)
I0403 14:27:03.146900 16960 net.cpp:156] Memory required for data: 826610800
I0403 14:27:03.146915 16960 layer_factory.hpp:77] Creating layer fc7
I0403 14:27:03.146935 16960 net.cpp:91] Creating Layer fc7
I0403 14:27:03.146950 16960 net.cpp:425] fc7 <- fc6
I0403 14:27:03.146970 16960 net.cpp:399] fc7 -> fc7
I0403 14:27:03.849604 16960 net.cpp:141] Setting up fc7
I0403 14:27:03.849643 16960 net.cpp:148] Top shape: 100 4096 (409600)
I0403 14:27:03.849659 16960 net.cpp:156] Memory required for data: 828249200
I0403 14:27:03.849679 16960 layer_factory.hpp:77] Creating layer relu7
I0403 14:27:03.849700 16960 net.cpp:91] Creating Layer relu7
I0403 14:27:03.849717 16960 net.cpp:425] relu7 <- fc7
I0403 14:27:03.849740 16960 net.cpp:386] relu7 -> fc7 (in-place)
I0403 14:27:03.850137 16960 net.cpp:141] Setting up relu7
I0403 14:27:03.850163 16960 net.cpp:148] Top shape: 100 4096 (409600)
I0403 14:27:03.850200 16960 net.cpp:156] Memory required for data: 829887600
I0403 14:27:03.850215 16960 layer_factory.hpp:77] Creating layer drop7
I0403 14:27:03.850234 16960 net.cpp:91] Creating Layer drop7
I0403 14:27:03.850249 16960 net.cpp:425] drop7 <- fc7
I0403 14:27:03.850267 16960 net.cpp:386] drop7 -> fc7 (in-place)
I0403 14:27:03.850308 16960 net.cpp:141] Setting up drop7
I0403 14:27:03.850329 16960 net.cpp:148] Top shape: 100 4096 (409600)
I0403 14:27:03.850342 16960 net.cpp:156] Memory required for data: 831526000
I0403 14:27:03.850356 16960 layer_factory.hpp:77] Creating layer fc8_plantvillage
I0403 14:27:03.850378 16960 net.cpp:91] Creating Layer fc8_plantvillage
I0403 14:27:03.850394 16960 net.cpp:425] fc8_plantvillage <- fc7
I0403 14:27:03.850412 16960 net.cpp:399] fc8_plantvillage -> fc8_plantvillage
I0403 14:27:03.857077 16960 net.cpp:141] Setting up fc8_plantvillage
I0403 14:27:03.857105 16960 net.cpp:148] Top shape: 100 38 (3800)
I0403 14:27:03.857120 16960 net.cpp:156] Memory required for data: 831541200
I0403 14:27:03.857138 16960 layer_factory.hpp:77] Creating layer fc8_plantvillage_fc8_plantvillage_0_split
I0403 14:27:03.857156 16960 net.cpp:91] Creating Layer fc8_plantvillage_fc8_plantvillage_0_split
I0403 14:27:03.857172 16960 net.cpp:425] fc8_plantvillage_fc8_plantvillage_0_split <- fc8_plantvillage
I0403 14:27:03.857192 16960 net.cpp:399] fc8_plantvillage_fc8_plantvillage_0_split -> fc8_plantvillage_fc8_plantvillage_0_split_0
I0403 14:27:03.857213 16960 net.cpp:399] fc8_plantvillage_fc8_plantvillage_0_split -> fc8_plantvillage_fc8_plantvillage_0_split_1
I0403 14:27:03.857231 16960 net.cpp:399] fc8_plantvillage_fc8_plantvillage_0_split -> fc8_plantvillage_fc8_plantvillage_0_split_2
I0403 14:27:03.857308 16960 net.cpp:141] Setting up fc8_plantvillage_fc8_plantvillage_0_split
I0403 14:27:03.857331 16960 net.cpp:148] Top shape: 100 38 (3800)
I0403 14:27:03.857347 16960 net.cpp:148] Top shape: 100 38 (3800)
I0403 14:27:03.857363 16960 net.cpp:148] Top shape: 100 38 (3800)
I0403 14:27:03.857377 16960 net.cpp:156] Memory required for data: 831586800
I0403 14:27:03.857390 16960 layer_factory.hpp:77] Creating layer prob
I0403 14:27:03.857409 16960 net.cpp:91] Creating Layer prob
I0403 14:27:03.857424 16960 net.cpp:425] prob <- fc8_plantvillage_fc8_plantvillage_0_split_0
I0403 14:27:03.857445 16960 net.cpp:399] prob -> prob
I0403 14:27:03.857666 16960 net.cpp:141] Setting up prob
I0403 14:27:03.857694 16960 net.cpp:148] Top shape: 100 38 (3800)
I0403 14:27:03.857710 16960 net.cpp:156] Memory required for data: 831602000
I0403 14:27:03.857724 16960 layer_factory.hpp:77] Creating layer hdf5out
I0403 14:27:03.857743 16960 net.cpp:91] Creating Layer hdf5out
I0403 14:27:03.857758 16960 net.cpp:425] hdf5out <- prob
I0403 14:27:03.857774 16960 net.cpp:425] hdf5out <- label_data_1_split_0
I0403 14:27:03.859971 16960 net.cpp:141] Setting up hdf5out
…
