…
I0403 14:42:53.696516 17419 net.cpp:313] The NetState phase (1) differed from the phase (0) specified by a rule in layer data
I0403 14:42:53.696836 17419 net.cpp:49] Initializing net from parameters: 
state {
  phase: TEST
}
layer {
  name: "data"
  type: "Data"
  top: "data"
  top: "label"
  include {
    phase: TEST
  }
  transform_param {
    crop_size: 227
    mean_file: "/home/mohanty/data/final_dataset/lmdb/segmented-60-40/mean.binaryproto"
  }
  data_param {
    source: "/home/mohanty/data/final_dataset/lmdb/segmented-60-40/test_db"
    batch_size: 100
    backend: LMDB
  }
}
layer {
  name: "conv1"
  type: "Convolution"
  bottom: "data"
  top: "conv1"
  param {
    lr_mult: 1
    decay_mult: 1
  }
  param {
    lr_mult: 2
    decay_mult: 0
  }
  convolution_param {
    num_output: 96
    kernel_size: 11
    stride: 4
    weight_filler {
      type: "gaussian"
      std: 0.01
    }
    bias_filler {
      type: "constant"
      value: 0
    }
  }
}
layer {
  name: "relu1"
  type: "ReLU"
  bottom: "conv1"
  top: "conv1"
}
layer {
  name: "norm1"
  type: "LRN"
  bottom: "conv1"
  top: "norm1"
  lrn_param {
    local_size: 5
    alpha: 0.0001
    beta: 0.75
  }
}
layer {
  name: "pool1"
  type: "Pooling"
  bottom: "norm1"
  top: "pool1"
  pooling_param {
    pool: MAX
    kernel_size: 3
    stride: 2
  }
}
layer {
  name: "conv2"
  type: "Convolution"
  bottom: "pool1"
  top: "conv2"
  param {
    lr_mult: 1
    decay_mult: 1
  }
  param {
    lr_mult: 2
    decay_mult: 0
  }
  convolution_param {
    num_output: 256
    pad: 2
    kernel_size: 5
    group: 2
    weight_filler {
      type: "gaussian"
      std: 0.01
    }
    bias_filler {
      type: "constant"
      value: 0.1
    }
  }
}
layer {
  name: "relu2"
  type: "ReLU"
  bottom: "conv2"
  top: "conv2"
}
layer {
  name: "norm2"
  type: "LRN"
  bottom: "conv2"
  top: "norm2"
  lrn_param {
    local_size: 5
    alpha: 0.0001
    beta: 0.75
  }
}
layer {
  name: "pool2"
  type: "Pooling"
  bottom: "norm2"
  top: "pool2"
  pooling_param {
    pool: MAX
    kernel_size: 3
    stride: 2
  }
}
layer {
  name: "conv3"
  type: "Convolution"
  bottom: "pool2"
  top: "conv3"
  param {
    lr_mult: 1
    decay_mult: 1
  }
  param {
    lr_mult: 2
    decay_mult: 0
  }
  convolution_param {
    num_output: 384
    pad: 1
    kernel_size: 3
    weight_filler {
      type: "gaussian"
      std: 0.01
    }
    bias_filler {
      type: "constant"
      value: 0
    }
  }
}
layer {
  name: "relu3"
  type: "ReLU"
  bottom: "conv3"
  top: "conv3"
}
layer {
  name: "conv4"
  type: "Convolution"
  bottom: "conv3"
  top: "conv4"
  param {
    lr_mult: 1
    decay_mult: 1
  }
  param {
    lr_mult: 2
    decay_mult: 0
  }
  convolution_param {
    num_output: 384
    pad: 1
    kernel_size: 3
    group: 2
    weight_filler {
      type: "gaussian"
      std: 0.01
    }
    bias_filler {
      type: "constant"
      value: 0.1
    }
  }
}
layer {
  name: "relu4"
  type: "ReLU"
  bottom: "conv4"
  top: "conv4"
}
layer {
  name: "conv5"
  type: "Convolution"
  bottom: "conv4"
  top: "conv5"
  param {
    lr_mult: 1
    decay_mult: 1
  }
  param {
    lr_mult: 2
    decay_mult: 0
  }
  convolution_param {
    num_output: 256
    pad: 1
    kernel_size: 3
    group: 2
    weight_filler {
      type: "gaussian"
      std: 0.01
    }
    bias_filler {
      type: "constant"
      value: 0.1
    }
  }
}
layer {
  name: "relu5"
  type: "ReLU"
  bottom: "conv5"
  top: "conv5"
}
layer {
  name: "pool5"
  type: "Pooling"
  bottom: "conv5"
  top: "pool5"
  pooling_param {
    pool: MAX
    kernel_size: 3
    stride: 2
  }
}
layer {
  name: "fc6"
  type: "InnerProduct"
  bottom: "pool5"
  top: "fc6"
  param {
    lr_mult: 1
    decay_mult: 1
  }
  param {
    lr_mult: 2
    decay_mult: 0
  }
  inner_product_param {
    num_output: 4096
    weight_filler {
      type: "gaussian"
      std: 0.005
    }
    bias_filler {
      type: "constant"
      value: 0.1
    }
  }
}
layer {
  name: "relu6"
  type: "ReLU"
  bottom: "fc6"
  top: "fc6"
}
layer {
  name: "drop6"
  type: "Dropout"
  bottom: "fc6"
  top: "fc6"
  dropout_param {
    dropout_ratio: 0.5
  }
}
layer {
  name: "fc7"
  type: "InnerProduct"
  bottom: "fc6"
  top: "fc7"
  param {
    lr_mult: 1
    decay_mult: 1
  }
  param {
    lr_mult: 2
    decay_mult: 0
  }
  inner_product_param {
    num_output: 4096
    weight_filler {
      type: "gaussian"
      std: 0.005
    }
    bias_filler {
      type: "constant"
      value: 0.1
    }
  }
}
layer {
  name: "relu7"
  type: "ReLU"
  bottom: "fc7"
  top: "fc7"
}
layer {
  name: "drop7"
  type: "Dropout"
  bottom: "fc7"
  top: "fc7"
  dropout_param {
    dropout_ratio: 0.5
  }
}
layer {
  name: "fc8_plantvillage"
  type: "InnerProduct"
  bottom: "fc7"
  top: "fc8_plantvillage"
  param {
    lr_mult: 1
    decay_mult: 1
  }
  param {
    lr_mult: 2
    decay_mult: 0
  }
  inner_product_param {
    num_output: 38
    weight_filler {
      type: "gaussian"
      std: 0.01
    }
    bias_filler {
      type: "constant"
      value: 0
    }
  }
}
layer {
  name: "prob"
  type: "Softmax"
  bottom: "fc8_plantvillage"
  top: "prob"
  include {
    phase: TEST
  }
}
layer {
  name: "hdf5out"
  type: "HDF5Output"
  bottom: "prob"
  bottom: "label"
  include {
    phase: TEST
  }
  hdf5_output_param {
    file_name: "hdf5_dumps/iter_7800.h5"
  }
}
layer {
  name: "loss"
  type: "SoftmaxWithLoss"
  bottom: "fc8_plantvillage"
  bottom: "label"
  top: "loss"
}
layer {
  name: "accuracy"
  type: "Accuracy"
  bottom: "fc8_plantvillage"
  bottom: "label"
  top: "accuracy"
  include {
    phase: TEST
  }
}
I0403 14:42:53.697522 17419 layer_factory.hpp:77] Creating layer data
I0403 14:42:53.698169 17419 net.cpp:91] Creating Layer data
I0403 14:42:53.698202 17419 net.cpp:399] data -> data
I0403 14:42:53.698253 17419 net.cpp:399] data -> label
I0403 14:42:53.698289 17419 data_transformer.cpp:25] Loading mean file from: /home/mohanty/data/final_dataset/lmdb/segmented-60-40/mean.binaryproto
I0403 14:42:53.699509 17422 db_lmdb.cpp:38] Opened lmdb /home/mohanty/data/final_dataset/lmdb/segmented-60-40/test_db
I0403 14:42:53.712800 17419 data_layer.cpp:41] output data size: 100,3,227,227
I0403 14:42:53.847156 17419 net.cpp:141] Setting up data
I0403 14:42:53.847264 17419 net.cpp:148] Top shape: 100 3 227 227 (15458700)
I0403 14:42:53.847286 17419 net.cpp:148] Top shape: 100 (100)
I0403 14:42:53.847302 17419 net.cpp:156] Memory required for data: 61835200
I0403 14:42:53.847333 17419 layer_factory.hpp:77] Creating layer label_data_1_split
I0403 14:42:53.847358 17419 net.cpp:91] Creating Layer label_data_1_split
I0403 14:42:53.847376 17419 net.cpp:425] label_data_1_split <- label
I0403 14:42:53.847410 17419 net.cpp:399] label_data_1_split -> label_data_1_split_0
I0403 14:42:53.847439 17419 net.cpp:399] label_data_1_split -> label_data_1_split_1
I0403 14:42:53.847460 17419 net.cpp:399] label_data_1_split -> label_data_1_split_2
I0403 14:42:53.847525 17419 net.cpp:141] Setting up label_data_1_split
I0403 14:42:53.847549 17419 net.cpp:148] Top shape: 100 (100)
I0403 14:42:53.847566 17419 net.cpp:148] Top shape: 100 (100)
I0403 14:42:53.847582 17419 net.cpp:148] Top shape: 100 (100)
I0403 14:42:53.847597 17419 net.cpp:156] Memory required for data: 61836400
I0403 14:42:53.847614 17419 layer_factory.hpp:77] Creating layer conv1
I0403 14:42:53.847646 17419 net.cpp:91] Creating Layer conv1
I0403 14:42:53.847664 17419 net.cpp:425] conv1 <- data
I0403 14:42:53.847684 17419 net.cpp:399] conv1 -> conv1
I0403 14:42:53.998580 17419 net.cpp:141] Setting up conv1
I0403 14:42:53.998664 17419 net.cpp:148] Top shape: 100 96 55 55 (29040000)
I0403 14:42:53.998682 17419 net.cpp:156] Memory required for data: 177996400
I0403 14:42:53.998714 17419 layer_factory.hpp:77] Creating layer relu1
I0403 14:42:53.998744 17419 net.cpp:91] Creating Layer relu1
I0403 14:42:53.998761 17419 net.cpp:425] relu1 <- conv1
I0403 14:42:53.998781 17419 net.cpp:386] relu1 -> conv1 (in-place)
I0403 14:42:53.999053 17419 net.cpp:141] Setting up relu1
I0403 14:42:53.999080 17419 net.cpp:148] Top shape: 100 96 55 55 (29040000)
I0403 14:42:53.999128 17419 net.cpp:156] Memory required for data: 294156400
I0403 14:42:53.999145 17419 layer_factory.hpp:77] Creating layer norm1
I0403 14:42:53.999174 17419 net.cpp:91] Creating Layer norm1
I0403 14:42:53.999192 17419 net.cpp:425] norm1 <- conv1
I0403 14:42:53.999212 17419 net.cpp:399] norm1 -> norm1
I0403 14:42:53.999533 17419 net.cpp:141] Setting up norm1
I0403 14:42:53.999562 17419 net.cpp:148] Top shape: 100 96 55 55 (29040000)
I0403 14:42:53.999578 17419 net.cpp:156] Memory required for data: 410316400
I0403 14:42:53.999594 17419 layer_factory.hpp:77] Creating layer pool1
I0403 14:42:53.999619 17419 net.cpp:91] Creating Layer pool1
I0403 14:42:53.999636 17419 net.cpp:425] pool1 <- norm1
I0403 14:42:53.999655 17419 net.cpp:399] pool1 -> pool1
I0403 14:42:53.999723 17419 net.cpp:141] Setting up pool1
I0403 14:42:53.999748 17419 net.cpp:148] Top shape: 100 96 27 27 (6998400)
I0403 14:42:53.999763 17419 net.cpp:156] Memory required for data: 438310000
I0403 14:42:53.999779 17419 layer_factory.hpp:77] Creating layer conv2
I0403 14:42:53.999804 17419 net.cpp:91] Creating Layer conv2
I0403 14:42:53.999821 17419 net.cpp:425] conv2 <- pool1
I0403 14:42:53.999840 17419 net.cpp:399] conv2 -> conv2
I0403 14:42:54.015210 17419 net.cpp:141] Setting up conv2
I0403 14:42:54.015265 17419 net.cpp:148] Top shape: 100 256 27 27 (18662400)
I0403 14:42:54.015282 17419 net.cpp:156] Memory required for data: 512959600
I0403 14:42:54.015306 17419 layer_factory.hpp:77] Creating layer relu2
I0403 14:42:54.015329 17419 net.cpp:91] Creating Layer relu2
I0403 14:42:54.015347 17419 net.cpp:425] relu2 <- conv2
I0403 14:42:54.015367 17419 net.cpp:386] relu2 -> conv2 (in-place)
I0403 14:42:54.015660 17419 net.cpp:141] Setting up relu2
I0403 14:42:54.015687 17419 net.cpp:148] Top shape: 100 256 27 27 (18662400)
I0403 14:42:54.015703 17419 net.cpp:156] Memory required for data: 587609200
I0403 14:42:54.015719 17419 layer_factory.hpp:77] Creating layer norm2
I0403 14:42:54.015743 17419 net.cpp:91] Creating Layer norm2
I0403 14:42:54.015760 17419 net.cpp:425] norm2 <- conv2
I0403 14:42:54.015781 17419 net.cpp:399] norm2 -> norm2
I0403 14:42:54.015990 17419 net.cpp:141] Setting up norm2
I0403 14:42:54.016016 17419 net.cpp:148] Top shape: 100 256 27 27 (18662400)
I0403 14:42:54.016032 17419 net.cpp:156] Memory required for data: 662258800
I0403 14:42:54.016047 17419 layer_factory.hpp:77] Creating layer pool2
I0403 14:42:54.016067 17419 net.cpp:91] Creating Layer pool2
I0403 14:42:54.016083 17419 net.cpp:425] pool2 <- norm2
I0403 14:42:54.016103 17419 net.cpp:399] pool2 -> pool2
I0403 14:42:54.016160 17419 net.cpp:141] Setting up pool2
I0403 14:42:54.016185 17419 net.cpp:148] Top shape: 100 256 13 13 (4326400)
I0403 14:42:54.016199 17419 net.cpp:156] Memory required for data: 679564400
I0403 14:42:54.016214 17419 layer_factory.hpp:77] Creating layer conv3
I0403 14:42:54.016239 17419 net.cpp:91] Creating Layer conv3
I0403 14:42:54.016258 17419 net.cpp:425] conv3 <- pool2
I0403 14:42:54.016278 17419 net.cpp:399] conv3 -> conv3
I0403 14:42:54.055917 17419 net.cpp:141] Setting up conv3
I0403 14:42:54.055976 17419 net.cpp:148] Top shape: 100 384 13 13 (6489600)
I0403 14:42:54.055999 17419 net.cpp:156] Memory required for data: 705522800
I0403 14:42:54.056026 17419 layer_factory.hpp:77] Creating layer relu3
I0403 14:42:54.056052 17419 net.cpp:91] Creating Layer relu3
I0403 14:42:54.056071 17419 net.cpp:425] relu3 <- conv3
I0403 14:42:54.056092 17419 net.cpp:386] relu3 -> conv3 (in-place)
I0403 14:42:54.056376 17419 net.cpp:141] Setting up relu3
I0403 14:42:54.056404 17419 net.cpp:148] Top shape: 100 384 13 13 (6489600)
I0403 14:42:54.056421 17419 net.cpp:156] Memory required for data: 731481200
I0403 14:42:54.056437 17419 layer_factory.hpp:77] Creating layer conv4
I0403 14:42:54.056464 17419 net.cpp:91] Creating Layer conv4
I0403 14:42:54.056483 17419 net.cpp:425] conv4 <- conv3
I0403 14:42:54.056504 17419 net.cpp:399] conv4 -> conv4
I0403 14:42:54.087369 17419 net.cpp:141] Setting up conv4
I0403 14:42:54.087448 17419 net.cpp:148] Top shape: 100 384 13 13 (6489600)
I0403 14:42:54.087497 17419 net.cpp:156] Memory required for data: 757439600
I0403 14:42:54.087520 17419 layer_factory.hpp:77] Creating layer relu4
I0403 14:42:54.087545 17419 net.cpp:91] Creating Layer relu4
I0403 14:42:54.087564 17419 net.cpp:425] relu4 <- conv4
I0403 14:42:54.087584 17419 net.cpp:386] relu4 -> conv4 (in-place)
I0403 14:42:54.087877 17419 net.cpp:141] Setting up relu4
I0403 14:42:54.087904 17419 net.cpp:148] Top shape: 100 384 13 13 (6489600)
I0403 14:42:54.087920 17419 net.cpp:156] Memory required for data: 783398000
I0403 14:42:54.087936 17419 layer_factory.hpp:77] Creating layer conv5
I0403 14:42:54.087962 17419 net.cpp:91] Creating Layer conv5
I0403 14:42:54.087980 17419 net.cpp:425] conv5 <- conv4
I0403 14:42:54.088016 17419 net.cpp:399] conv5 -> conv5
I0403 14:42:54.109266 17419 net.cpp:141] Setting up conv5
I0403 14:42:54.109323 17419 net.cpp:148] Top shape: 100 256 13 13 (4326400)
I0403 14:42:54.109339 17419 net.cpp:156] Memory required for data: 800703600
I0403 14:42:54.109364 17419 layer_factory.hpp:77] Creating layer relu5
I0403 14:42:54.109390 17419 net.cpp:91] Creating Layer relu5
I0403 14:42:54.109410 17419 net.cpp:425] relu5 <- conv5
I0403 14:42:54.109429 17419 net.cpp:386] relu5 -> conv5 (in-place)
I0403 14:42:54.109719 17419 net.cpp:141] Setting up relu5
I0403 14:42:54.109747 17419 net.cpp:148] Top shape: 100 256 13 13 (4326400)
I0403 14:42:54.109763 17419 net.cpp:156] Memory required for data: 818009200
I0403 14:42:54.109779 17419 layer_factory.hpp:77] Creating layer pool5
I0403 14:42:54.109805 17419 net.cpp:91] Creating Layer pool5
I0403 14:42:54.109823 17419 net.cpp:425] pool5 <- conv5
I0403 14:42:54.109843 17419 net.cpp:399] pool5 -> pool5
I0403 14:42:54.109906 17419 net.cpp:141] Setting up pool5
I0403 14:42:54.109932 17419 net.cpp:148] Top shape: 100 256 6 6 (921600)
I0403 14:42:54.109947 17419 net.cpp:156] Memory required for data: 821695600
I0403 14:42:54.109966 17419 layer_factory.hpp:77] Creating layer fc6
I0403 14:42:54.110004 17419 net.cpp:91] Creating Layer fc6
I0403 14:42:54.110025 17419 net.cpp:425] fc6 <- pool5
I0403 14:42:54.110045 17419 net.cpp:399] fc6 -> fc6
I0403 14:42:55.686367 17419 net.cpp:141] Setting up fc6
I0403 14:42:55.686408 17419 net.cpp:148] Top shape: 100 4096 (409600)
I0403 14:42:55.686424 17419 net.cpp:156] Memory required for data: 823334000
I0403 14:42:55.686445 17419 layer_factory.hpp:77] Creating layer relu6
I0403 14:42:55.686467 17419 net.cpp:91] Creating Layer relu6
I0403 14:42:55.686485 17419 net.cpp:425] relu6 <- fc6
I0403 14:42:55.686506 17419 net.cpp:386] relu6 -> fc6 (in-place)
I0403 14:42:55.686731 17419 net.cpp:141] Setting up relu6
I0403 14:42:55.686755 17419 net.cpp:148] Top shape: 100 4096 (409600)
I0403 14:42:55.686770 17419 net.cpp:156] Memory required for data: 824972400
I0403 14:42:55.686784 17419 layer_factory.hpp:77] Creating layer drop6
I0403 14:42:55.686801 17419 net.cpp:91] Creating Layer drop6
I0403 14:42:55.686816 17419 net.cpp:425] drop6 <- fc6
I0403 14:42:55.686836 17419 net.cpp:386] drop6 -> fc6 (in-place)
I0403 14:42:55.686887 17419 net.cpp:141] Setting up drop6
I0403 14:42:55.686908 17419 net.cpp:148] Top shape: 100 4096 (409600)
I0403 14:42:55.686921 17419 net.cpp:156] Memory required for data: 826610800
I0403 14:42:55.686935 17419 layer_factory.hpp:77] Creating layer fc7
I0403 14:42:55.686954 17419 net.cpp:91] Creating Layer fc7
I0403 14:42:55.686969 17419 net.cpp:425] fc7 <- fc6
I0403 14:42:55.686995 17419 net.cpp:399] fc7 -> fc7
I0403 14:42:56.373610 17419 net.cpp:141] Setting up fc7
I0403 14:42:56.373700 17419 net.cpp:148] Top shape: 100 4096 (409600)
I0403 14:42:56.373716 17419 net.cpp:156] Memory required for data: 828249200
I0403 14:42:56.373738 17419 layer_factory.hpp:77] Creating layer relu7
I0403 14:42:56.373761 17419 net.cpp:91] Creating Layer relu7
I0403 14:42:56.373780 17419 net.cpp:425] relu7 <- fc7
I0403 14:42:56.373798 17419 net.cpp:386] relu7 -> fc7 (in-place)
I0403 14:42:56.374208 17419 net.cpp:141] Setting up relu7
I0403 14:42:56.374234 17419 net.cpp:148] Top shape: 100 4096 (409600)
I0403 14:42:56.374281 17419 net.cpp:156] Memory required for data: 829887600
I0403 14:42:56.374297 17419 layer_factory.hpp:77] Creating layer drop7
I0403 14:42:56.374318 17419 net.cpp:91] Creating Layer drop7
I0403 14:42:56.374336 17419 net.cpp:425] drop7 <- fc7
I0403 14:42:56.374352 17419 net.cpp:386] drop7 -> fc7 (in-place)
I0403 14:42:56.374394 17419 net.cpp:141] Setting up drop7
I0403 14:42:56.374418 17419 net.cpp:148] Top shape: 100 4096 (409600)
I0403 14:42:56.374433 17419 net.cpp:156] Memory required for data: 831526000
I0403 14:42:56.374449 17419 layer_factory.hpp:77] Creating layer fc8_plantvillage
I0403 14:42:56.374467 17419 net.cpp:91] Creating Layer fc8_plantvillage
I0403 14:42:56.374483 17419 net.cpp:425] fc8_plantvillage <- fc7
I0403 14:42:56.374505 17419 net.cpp:399] fc8_plantvillage -> fc8_plantvillage
I0403 14:42:56.381186 17419 net.cpp:141] Setting up fc8_plantvillage
I0403 14:42:56.381213 17419 net.cpp:148] Top shape: 100 38 (3800)
I0403 14:42:56.381227 17419 net.cpp:156] Memory required for data: 831541200
I0403 14:42:56.381244 17419 layer_factory.hpp:77] Creating layer fc8_plantvillage_fc8_plantvillage_0_split
I0403 14:42:56.381265 17419 net.cpp:91] Creating Layer fc8_plantvillage_fc8_plantvillage_0_split
I0403 14:42:56.381280 17419 net.cpp:425] fc8_plantvillage_fc8_plantvillage_0_split <- fc8_plantvillage
I0403 14:42:56.381297 17419 net.cpp:399] fc8_plantvillage_fc8_plantvillage_0_split -> fc8_plantvillage_fc8_plantvillage_0_split_0
I0403 14:42:56.381316 17419 net.cpp:399] fc8_plantvillage_fc8_plantvillage_0_split -> fc8_plantvillage_fc8_plantvillage_0_split_1
I0403 14:42:56.381335 17419 net.cpp:399] fc8_plantvillage_fc8_plantvillage_0_split -> fc8_plantvillage_fc8_plantvillage_0_split_2
I0403 14:42:56.381414 17419 net.cpp:141] Setting up fc8_plantvillage_fc8_plantvillage_0_split
I0403 14:42:56.381438 17419 net.cpp:148] Top shape: 100 38 (3800)
I0403 14:42:56.381453 17419 net.cpp:148] Top shape: 100 38 (3800)
I0403 14:42:56.381467 17419 net.cpp:148] Top shape: 100 38 (3800)
I0403 14:42:56.381480 17419 net.cpp:156] Memory required for data: 831586800
I0403 14:42:56.381494 17419 layer_factory.hpp:77] Creating layer prob
I0403 14:42:56.381511 17419 net.cpp:91] Creating Layer prob
I0403 14:42:56.381526 17419 net.cpp:425] prob <- fc8_plantvillage_fc8_plantvillage_0_split_0
I0403 14:42:56.381546 17419 net.cpp:399] prob -> prob
I0403 14:42:56.381763 17419 net.cpp:141] Setting up prob
I0403 14:42:56.381788 17419 net.cpp:148] Top shape: 100 38 (3800)
I0403 14:42:56.381803 17419 net.cpp:156] Memory required for data: 831602000
I0403 14:42:56.381816 17419 layer_factory.hpp:77] Creating layer hdf5out
I0403 14:42:56.381836 17419 net.cpp:91] Creating Layer hdf5out
I0403 14:42:56.381851 17419 net.cpp:425] hdf5out <- prob
I0403 14:42:56.381867 17419 net.cpp:425] hdf5out <- label_data_1_split_0
I0403 14:42:56.384032 17419 net.cpp:141] Setting up hdf5out
…
