…
I0403 14:34:57.939375 17184 net.cpp:313] The NetState phase (1) differed from the phase (0) specified by a rule in layer data
I0403 14:34:57.939683 17184 net.cpp:49] Initializing net from parameters: 
state {
  phase: TEST
}
layer {
  name: "data"
  type: "Data"
  top: "data"
  top: "label"
  include {
    phase: TEST
  }
  transform_param {
    crop_size: 227
    mean_file: "/home/mohanty/data/final_dataset/lmdb/segmented-60-40/mean.binaryproto"
  }
  data_param {
    source: "/home/mohanty/data/final_dataset/lmdb/segmented-60-40/test_db"
    batch_size: 100
    backend: LMDB
  }
}
layer {
  name: "conv1"
  type: "Convolution"
  bottom: "data"
  top: "conv1"
  param {
    lr_mult: 1
    decay_mult: 1
  }
  param {
    lr_mult: 2
    decay_mult: 0
  }
  convolution_param {
    num_output: 96
    kernel_size: 11
    stride: 4
    weight_filler {
      type: "gaussian"
      std: 0.01
    }
    bias_filler {
      type: "constant"
      value: 0
    }
  }
}
layer {
  name: "relu1"
  type: "ReLU"
  bottom: "conv1"
  top: "conv1"
}
layer {
  name: "norm1"
  type: "LRN"
  bottom: "conv1"
  top: "norm1"
  lrn_param {
    local_size: 5
    alpha: 0.0001
    beta: 0.75
  }
}
layer {
  name: "pool1"
  type: "Pooling"
  bottom: "norm1"
  top: "pool1"
  pooling_param {
    pool: MAX
    kernel_size: 3
    stride: 2
  }
}
layer {
  name: "conv2"
  type: "Convolution"
  bottom: "pool1"
  top: "conv2"
  param {
    lr_mult: 1
    decay_mult: 1
  }
  param {
    lr_mult: 2
    decay_mult: 0
  }
  convolution_param {
    num_output: 256
    pad: 2
    kernel_size: 5
    group: 2
    weight_filler {
      type: "gaussian"
      std: 0.01
    }
    bias_filler {
      type: "constant"
      value: 0.1
    }
  }
}
layer {
  name: "relu2"
  type: "ReLU"
  bottom: "conv2"
  top: "conv2"
}
layer {
  name: "norm2"
  type: "LRN"
  bottom: "conv2"
  top: "norm2"
  lrn_param {
    local_size: 5
    alpha: 0.0001
    beta: 0.75
  }
}
layer {
  name: "pool2"
  type: "Pooling"
  bottom: "norm2"
  top: "pool2"
  pooling_param {
    pool: MAX
    kernel_size: 3
    stride: 2
  }
}
layer {
  name: "conv3"
  type: "Convolution"
  bottom: "pool2"
  top: "conv3"
  param {
    lr_mult: 1
    decay_mult: 1
  }
  param {
    lr_mult: 2
    decay_mult: 0
  }
  convolution_param {
    num_output: 384
    pad: 1
    kernel_size: 3
    weight_filler {
      type: "gaussian"
      std: 0.01
    }
    bias_filler {
      type: "constant"
      value: 0
    }
  }
}
layer {
  name: "relu3"
  type: "ReLU"
  bottom: "conv3"
  top: "conv3"
}
layer {
  name: "conv4"
  type: "Convolution"
  bottom: "conv3"
  top: "conv4"
  param {
    lr_mult: 1
    decay_mult: 1
  }
  param {
    lr_mult: 2
    decay_mult: 0
  }
  convolution_param {
    num_output: 384
    pad: 1
    kernel_size: 3
    group: 2
    weight_filler {
      type: "gaussian"
      std: 0.01
    }
    bias_filler {
      type: "constant"
      value: 0.1
    }
  }
}
layer {
  name: "relu4"
  type: "ReLU"
  bottom: "conv4"
  top: "conv4"
}
layer {
  name: "conv5"
  type: "Convolution"
  bottom: "conv4"
  top: "conv5"
  param {
    lr_mult: 1
    decay_mult: 1
  }
  param {
    lr_mult: 2
    decay_mult: 0
  }
  convolution_param {
    num_output: 256
    pad: 1
    kernel_size: 3
    group: 2
    weight_filler {
      type: "gaussian"
      std: 0.01
    }
    bias_filler {
      type: "constant"
      value: 0.1
    }
  }
}
layer {
  name: "relu5"
  type: "ReLU"
  bottom: "conv5"
  top: "conv5"
}
layer {
  name: "pool5"
  type: "Pooling"
  bottom: "conv5"
  top: "pool5"
  pooling_param {
    pool: MAX
    kernel_size: 3
    stride: 2
  }
}
layer {
  name: "fc6"
  type: "InnerProduct"
  bottom: "pool5"
  top: "fc6"
  param {
    lr_mult: 1
    decay_mult: 1
  }
  param {
    lr_mult: 2
    decay_mult: 0
  }
  inner_product_param {
    num_output: 4096
    weight_filler {
      type: "gaussian"
      std: 0.005
    }
    bias_filler {
      type: "constant"
      value: 0.1
    }
  }
}
layer {
  name: "relu6"
  type: "ReLU"
  bottom: "fc6"
  top: "fc6"
}
layer {
  name: "drop6"
  type: "Dropout"
  bottom: "fc6"
  top: "fc6"
  dropout_param {
    dropout_ratio: 0.5
  }
}
layer {
  name: "fc7"
  type: "InnerProduct"
  bottom: "fc6"
  top: "fc7"
  param {
    lr_mult: 1
    decay_mult: 1
  }
  param {
    lr_mult: 2
    decay_mult: 0
  }
  inner_product_param {
    num_output: 4096
    weight_filler {
      type: "gaussian"
      std: 0.005
    }
    bias_filler {
      type: "constant"
      value: 0.1
    }
  }
}
layer {
  name: "relu7"
  type: "ReLU"
  bottom: "fc7"
  top: "fc7"
}
layer {
  name: "drop7"
  type: "Dropout"
  bottom: "fc7"
  top: "fc7"
  dropout_param {
    dropout_ratio: 0.5
  }
}
layer {
  name: "fc8_plantvillage"
  type: "InnerProduct"
  bottom: "fc7"
  top: "fc8_plantvillage"
  param {
    lr_mult: 1
    decay_mult: 1
  }
  param {
    lr_mult: 2
    decay_mult: 0
  }
  inner_product_param {
    num_output: 38
    weight_filler {
      type: "gaussian"
      std: 0.01
    }
    bias_filler {
      type: "constant"
      value: 0
    }
  }
}
layer {
  name: "prob"
  type: "Softmax"
  bottom: "fc8_plantvillage"
  top: "prob"
  include {
    phase: TEST
  }
}
layer {
  name: "hdf5out"
  type: "HDF5Output"
  bottom: "prob"
  bottom: "label"
  include {
    phase: TEST
  }
  hdf5_output_param {
    file_name: "hdf5_dumps/iter_4225.h5"
  }
}
layer {
  name: "loss"
  type: "SoftmaxWithLoss"
  bottom: "fc8_plantvillage"
  bottom: "label"
  top: "loss"
}
layer {
  name: "accuracy"
  type: "Accuracy"
  bottom: "fc8_plantvillage"
  bottom: "label"
  top: "accuracy"
  include {
    phase: TEST
  }
}
I0403 14:34:57.940248 17184 layer_factory.hpp:77] Creating layer data
I0403 14:34:57.940888 17184 net.cpp:91] Creating Layer data
I0403 14:34:57.940918 17184 net.cpp:399] data -> data
I0403 14:34:57.940971 17184 net.cpp:399] data -> label
I0403 14:34:57.941012 17184 data_transformer.cpp:25] Loading mean file from: /home/mohanty/data/final_dataset/lmdb/segmented-60-40/mean.binaryproto
I0403 14:34:57.942116 17189 db_lmdb.cpp:38] Opened lmdb /home/mohanty/data/final_dataset/lmdb/segmented-60-40/test_db
I0403 14:34:57.955190 17184 data_layer.cpp:41] output data size: 100,3,227,227
I0403 14:34:58.089365 17184 net.cpp:141] Setting up data
I0403 14:34:58.089428 17184 net.cpp:148] Top shape: 100 3 227 227 (15458700)
I0403 14:34:58.089452 17184 net.cpp:148] Top shape: 100 (100)
I0403 14:34:58.089468 17184 net.cpp:156] Memory required for data: 61835200
I0403 14:34:58.089498 17184 layer_factory.hpp:77] Creating layer label_data_1_split
I0403 14:34:58.089524 17184 net.cpp:91] Creating Layer label_data_1_split
I0403 14:34:58.089542 17184 net.cpp:425] label_data_1_split <- label
I0403 14:34:58.089575 17184 net.cpp:399] label_data_1_split -> label_data_1_split_0
I0403 14:34:58.089602 17184 net.cpp:399] label_data_1_split -> label_data_1_split_1
I0403 14:34:58.089623 17184 net.cpp:399] label_data_1_split -> label_data_1_split_2
I0403 14:34:58.089689 17184 net.cpp:141] Setting up label_data_1_split
I0403 14:34:58.089714 17184 net.cpp:148] Top shape: 100 (100)
I0403 14:34:58.089731 17184 net.cpp:148] Top shape: 100 (100)
I0403 14:34:58.089747 17184 net.cpp:148] Top shape: 100 (100)
I0403 14:34:58.089761 17184 net.cpp:156] Memory required for data: 61836400
I0403 14:34:58.089776 17184 layer_factory.hpp:77] Creating layer conv1
I0403 14:34:58.089807 17184 net.cpp:91] Creating Layer conv1
I0403 14:34:58.089825 17184 net.cpp:425] conv1 <- data
I0403 14:34:58.089845 17184 net.cpp:399] conv1 -> conv1
I0403 14:34:58.235544 17184 net.cpp:141] Setting up conv1
I0403 14:34:58.235635 17184 net.cpp:148] Top shape: 100 96 55 55 (29040000)
I0403 14:34:58.235653 17184 net.cpp:156] Memory required for data: 177996400
I0403 14:34:58.235683 17184 layer_factory.hpp:77] Creating layer relu1
I0403 14:34:58.235713 17184 net.cpp:91] Creating Layer relu1
I0403 14:34:58.235733 17184 net.cpp:425] relu1 <- conv1
I0403 14:34:58.235752 17184 net.cpp:386] relu1 -> conv1 (in-place)
I0403 14:34:58.236033 17184 net.cpp:141] Setting up relu1
I0403 14:34:58.236060 17184 net.cpp:148] Top shape: 100 96 55 55 (29040000)
I0403 14:34:58.236109 17184 net.cpp:156] Memory required for data: 294156400
I0403 14:34:58.236125 17184 layer_factory.hpp:77] Creating layer norm1
I0403 14:34:58.236155 17184 net.cpp:91] Creating Layer norm1
I0403 14:34:58.236173 17184 net.cpp:425] norm1 <- conv1
I0403 14:34:58.236194 17184 net.cpp:399] norm1 -> norm1
I0403 14:34:58.236526 17184 net.cpp:141] Setting up norm1
I0403 14:34:58.236555 17184 net.cpp:148] Top shape: 100 96 55 55 (29040000)
I0403 14:34:58.236572 17184 net.cpp:156] Memory required for data: 410316400
I0403 14:34:58.236588 17184 layer_factory.hpp:77] Creating layer pool1
I0403 14:34:58.236609 17184 net.cpp:91] Creating Layer pool1
I0403 14:34:58.236649 17184 net.cpp:425] pool1 <- norm1
I0403 14:34:58.236676 17184 net.cpp:399] pool1 -> pool1
I0403 14:34:58.236752 17184 net.cpp:141] Setting up pool1
I0403 14:34:58.236781 17184 net.cpp:148] Top shape: 100 96 27 27 (6998400)
I0403 14:34:58.236799 17184 net.cpp:156] Memory required for data: 438310000
I0403 14:34:58.236814 17184 layer_factory.hpp:77] Creating layer conv2
I0403 14:34:58.236838 17184 net.cpp:91] Creating Layer conv2
I0403 14:34:58.236855 17184 net.cpp:425] conv2 <- pool1
I0403 14:34:58.236877 17184 net.cpp:399] conv2 -> conv2
I0403 14:34:58.252102 17184 net.cpp:141] Setting up conv2
I0403 14:34:58.252161 17184 net.cpp:148] Top shape: 100 256 27 27 (18662400)
I0403 14:34:58.252178 17184 net.cpp:156] Memory required for data: 512959600
I0403 14:34:58.252200 17184 layer_factory.hpp:77] Creating layer relu2
I0403 14:34:58.252223 17184 net.cpp:91] Creating Layer relu2
I0403 14:34:58.252239 17184 net.cpp:425] relu2 <- conv2
I0403 14:34:58.252260 17184 net.cpp:386] relu2 -> conv2 (in-place)
I0403 14:34:58.252542 17184 net.cpp:141] Setting up relu2
I0403 14:34:58.252568 17184 net.cpp:148] Top shape: 100 256 27 27 (18662400)
I0403 14:34:58.252583 17184 net.cpp:156] Memory required for data: 587609200
I0403 14:34:58.252599 17184 layer_factory.hpp:77] Creating layer norm2
I0403 14:34:58.252622 17184 net.cpp:91] Creating Layer norm2
I0403 14:34:58.252640 17184 net.cpp:425] norm2 <- conv2
I0403 14:34:58.252657 17184 net.cpp:399] norm2 -> norm2
I0403 14:34:58.252859 17184 net.cpp:141] Setting up norm2
I0403 14:34:58.252888 17184 net.cpp:148] Top shape: 100 256 27 27 (18662400)
I0403 14:34:58.252904 17184 net.cpp:156] Memory required for data: 662258800
I0403 14:34:58.252919 17184 layer_factory.hpp:77] Creating layer pool2
I0403 14:34:58.252938 17184 net.cpp:91] Creating Layer pool2
I0403 14:34:58.252954 17184 net.cpp:425] pool2 <- norm2
I0403 14:34:58.252974 17184 net.cpp:399] pool2 -> pool2
I0403 14:34:58.253034 17184 net.cpp:141] Setting up pool2
I0403 14:34:58.253058 17184 net.cpp:148] Top shape: 100 256 13 13 (4326400)
I0403 14:34:58.253074 17184 net.cpp:156] Memory required for data: 679564400
I0403 14:34:58.253088 17184 layer_factory.hpp:77] Creating layer conv3
I0403 14:34:58.253113 17184 net.cpp:91] Creating Layer conv3
I0403 14:34:58.253131 17184 net.cpp:425] conv3 <- pool2
I0403 14:34:58.253150 17184 net.cpp:399] conv3 -> conv3
I0403 14:34:58.291635 17184 net.cpp:141] Setting up conv3
I0403 14:34:58.291724 17184 net.cpp:148] Top shape: 100 384 13 13 (6489600)
I0403 14:34:58.291743 17184 net.cpp:156] Memory required for data: 705522800
I0403 14:34:58.291769 17184 layer_factory.hpp:77] Creating layer relu3
I0403 14:34:58.291790 17184 net.cpp:91] Creating Layer relu3
I0403 14:34:58.291831 17184 net.cpp:425] relu3 <- conv3
I0403 14:34:58.291852 17184 net.cpp:386] relu3 -> conv3 (in-place)
I0403 14:34:58.292126 17184 net.cpp:141] Setting up relu3
I0403 14:34:58.292155 17184 net.cpp:148] Top shape: 100 384 13 13 (6489600)
I0403 14:34:58.292171 17184 net.cpp:156] Memory required for data: 731481200
I0403 14:34:58.292186 17184 layer_factory.hpp:77] Creating layer conv4
I0403 14:34:58.292212 17184 net.cpp:91] Creating Layer conv4
I0403 14:34:58.292230 17184 net.cpp:425] conv4 <- conv3
I0403 14:34:58.292248 17184 net.cpp:399] conv4 -> conv4
I0403 14:34:58.322686 17184 net.cpp:141] Setting up conv4
I0403 14:34:58.322770 17184 net.cpp:148] Top shape: 100 384 13 13 (6489600)
I0403 14:34:58.322818 17184 net.cpp:156] Memory required for data: 757439600
I0403 14:34:58.322840 17184 layer_factory.hpp:77] Creating layer relu4
I0403 14:34:58.322865 17184 net.cpp:91] Creating Layer relu4
I0403 14:34:58.322882 17184 net.cpp:425] relu4 <- conv4
I0403 14:34:58.322901 17184 net.cpp:386] relu4 -> conv4 (in-place)
I0403 14:34:58.323212 17184 net.cpp:141] Setting up relu4
I0403 14:34:58.323240 17184 net.cpp:148] Top shape: 100 384 13 13 (6489600)
I0403 14:34:58.323254 17184 net.cpp:156] Memory required for data: 783398000
I0403 14:34:58.323269 17184 layer_factory.hpp:77] Creating layer conv5
I0403 14:34:58.323297 17184 net.cpp:91] Creating Layer conv5
I0403 14:34:58.323314 17184 net.cpp:425] conv5 <- conv4
I0403 14:34:58.323333 17184 net.cpp:399] conv5 -> conv5
I0403 14:34:58.344277 17184 net.cpp:141] Setting up conv5
I0403 14:34:58.344338 17184 net.cpp:148] Top shape: 100 256 13 13 (4326400)
I0403 14:34:58.344357 17184 net.cpp:156] Memory required for data: 800703600
I0403 14:34:58.344382 17184 layer_factory.hpp:77] Creating layer relu5
I0403 14:34:58.344403 17184 net.cpp:91] Creating Layer relu5
I0403 14:34:58.344420 17184 net.cpp:425] relu5 <- conv5
I0403 14:34:58.344441 17184 net.cpp:386] relu5 -> conv5 (in-place)
I0403 14:34:58.344769 17184 net.cpp:141] Setting up relu5
I0403 14:34:58.344799 17184 net.cpp:148] Top shape: 100 256 13 13 (4326400)
I0403 14:34:58.344815 17184 net.cpp:156] Memory required for data: 818009200
I0403 14:34:58.344832 17184 layer_factory.hpp:77] Creating layer pool5
I0403 14:34:58.344856 17184 net.cpp:91] Creating Layer pool5
I0403 14:34:58.344873 17184 net.cpp:425] pool5 <- conv5
I0403 14:34:58.344894 17184 net.cpp:399] pool5 -> pool5
I0403 14:34:58.344956 17184 net.cpp:141] Setting up pool5
I0403 14:34:58.344980 17184 net.cpp:148] Top shape: 100 256 6 6 (921600)
I0403 14:34:58.345013 17184 net.cpp:156] Memory required for data: 821695600
I0403 14:34:58.345031 17184 layer_factory.hpp:77] Creating layer fc6
I0403 14:34:58.345062 17184 net.cpp:91] Creating Layer fc6
I0403 14:34:58.345082 17184 net.cpp:425] fc6 <- pool5
I0403 14:34:58.345103 17184 net.cpp:399] fc6 -> fc6
I0403 14:34:59.914057 17184 net.cpp:141] Setting up fc6
I0403 14:34:59.914104 17184 net.cpp:148] Top shape: 100 4096 (409600)
I0403 14:34:59.914120 17184 net.cpp:156] Memory required for data: 823334000
I0403 14:34:59.914140 17184 layer_factory.hpp:77] Creating layer relu6
I0403 14:34:59.914165 17184 net.cpp:91] Creating Layer relu6
I0403 14:34:59.914183 17184 net.cpp:425] relu6 <- fc6
I0403 14:34:59.914202 17184 net.cpp:386] relu6 -> fc6 (in-place)
I0403 14:34:59.914423 17184 net.cpp:141] Setting up relu6
I0403 14:34:59.914448 17184 net.cpp:148] Top shape: 100 4096 (409600)
I0403 14:34:59.914463 17184 net.cpp:156] Memory required for data: 824972400
I0403 14:34:59.914477 17184 layer_factory.hpp:77] Creating layer drop6
I0403 14:34:59.914495 17184 net.cpp:91] Creating Layer drop6
I0403 14:34:59.914510 17184 net.cpp:425] drop6 <- fc6
I0403 14:34:59.914530 17184 net.cpp:386] drop6 -> fc6 (in-place)
I0403 14:34:59.914580 17184 net.cpp:141] Setting up drop6
I0403 14:34:59.914603 17184 net.cpp:148] Top shape: 100 4096 (409600)
I0403 14:34:59.914618 17184 net.cpp:156] Memory required for data: 826610800
I0403 14:34:59.914633 17184 layer_factory.hpp:77] Creating layer fc7
I0403 14:34:59.914654 17184 net.cpp:91] Creating Layer fc7
I0403 14:34:59.914670 17184 net.cpp:425] fc7 <- fc6
I0403 14:34:59.914691 17184 net.cpp:399] fc7 -> fc7
I0403 14:35:00.609258 17184 net.cpp:141] Setting up fc7
I0403 14:35:00.609350 17184 net.cpp:148] Top shape: 100 4096 (409600)
I0403 14:35:00.609366 17184 net.cpp:156] Memory required for data: 828249200
I0403 14:35:00.609387 17184 layer_factory.hpp:77] Creating layer relu7
I0403 14:35:00.609410 17184 net.cpp:91] Creating Layer relu7
I0403 14:35:00.609427 17184 net.cpp:425] relu7 <- fc7
I0403 14:35:00.609449 17184 net.cpp:386] relu7 -> fc7 (in-place)
I0403 14:35:00.609869 17184 net.cpp:141] Setting up relu7
I0403 14:35:00.609896 17184 net.cpp:148] Top shape: 100 4096 (409600)
I0403 14:35:00.609943 17184 net.cpp:156] Memory required for data: 829887600
I0403 14:35:00.609959 17184 layer_factory.hpp:77] Creating layer drop7
I0403 14:35:00.609978 17184 net.cpp:91] Creating Layer drop7
I0403 14:35:00.610000 17184 net.cpp:425] drop7 <- fc7
I0403 14:35:00.610021 17184 net.cpp:386] drop7 -> fc7 (in-place)
I0403 14:35:00.610079 17184 net.cpp:141] Setting up drop7
I0403 14:35:00.610100 17184 net.cpp:148] Top shape: 100 4096 (409600)
I0403 14:35:00.610115 17184 net.cpp:156] Memory required for data: 831526000
I0403 14:35:00.610129 17184 layer_factory.hpp:77] Creating layer fc8_plantvillage
I0403 14:35:00.610152 17184 net.cpp:91] Creating Layer fc8_plantvillage
I0403 14:35:00.610167 17184 net.cpp:425] fc8_plantvillage <- fc7
I0403 14:35:00.610188 17184 net.cpp:399] fc8_plantvillage -> fc8_plantvillage
I0403 14:35:00.616955 17184 net.cpp:141] Setting up fc8_plantvillage
I0403 14:35:00.616983 17184 net.cpp:148] Top shape: 100 38 (3800)
I0403 14:35:00.617004 17184 net.cpp:156] Memory required for data: 831541200
I0403 14:35:00.617022 17184 layer_factory.hpp:77] Creating layer fc8_plantvillage_fc8_plantvillage_0_split
I0403 14:35:00.617039 17184 net.cpp:91] Creating Layer fc8_plantvillage_fc8_plantvillage_0_split
I0403 14:35:00.617054 17184 net.cpp:425] fc8_plantvillage_fc8_plantvillage_0_split <- fc8_plantvillage
I0403 14:35:00.617074 17184 net.cpp:399] fc8_plantvillage_fc8_plantvillage_0_split -> fc8_plantvillage_fc8_plantvillage_0_split_0
I0403 14:35:00.617094 17184 net.cpp:399] fc8_plantvillage_fc8_plantvillage_0_split -> fc8_plantvillage_fc8_plantvillage_0_split_1
I0403 14:35:00.617115 17184 net.cpp:399] fc8_plantvillage_fc8_plantvillage_0_split -> fc8_plantvillage_fc8_plantvillage_0_split_2
I0403 14:35:00.617192 17184 net.cpp:141] Setting up fc8_plantvillage_fc8_plantvillage_0_split
I0403 14:35:00.617214 17184 net.cpp:148] Top shape: 100 38 (3800)
I0403 14:35:00.617230 17184 net.cpp:148] Top shape: 100 38 (3800)
I0403 14:35:00.617245 17184 net.cpp:148] Top shape: 100 38 (3800)
I0403 14:35:00.617259 17184 net.cpp:156] Memory required for data: 831586800
I0403 14:35:00.617272 17184 layer_factory.hpp:77] Creating layer prob
I0403 14:35:00.617290 17184 net.cpp:91] Creating Layer prob
I0403 14:35:00.617305 17184 net.cpp:425] prob <- fc8_plantvillage_fc8_plantvillage_0_split_0
I0403 14:35:00.617326 17184 net.cpp:399] prob -> prob
I0403 14:35:00.617548 17184 net.cpp:141] Setting up prob
I0403 14:35:00.617578 17184 net.cpp:148] Top shape: 100 38 (3800)
I0403 14:35:00.617594 17184 net.cpp:156] Memory required for data: 831602000
I0403 14:35:00.617609 17184 layer_factory.hpp:77] Creating layer hdf5out
I0403 14:35:00.617627 17184 net.cpp:91] Creating Layer hdf5out
I0403 14:35:00.617643 17184 net.cpp:425] hdf5out <- prob
I0403 14:35:00.617660 17184 net.cpp:425] hdf5out <- label_data_1_split_0
I0403 14:35:00.619894 17184 net.cpp:141] Setting up hdf5out
…
