…
I0403 14:36:24.908974 17227 net.cpp:313] The NetState phase (1) differed from the phase (0) specified by a rule in layer data
I0403 14:36:24.909301 17227 net.cpp:49] Initializing net from parameters: 
state {
  phase: TEST
}
layer {
  name: "data"
  type: "Data"
  top: "data"
  top: "label"
  include {
    phase: TEST
  }
  transform_param {
    crop_size: 227
    mean_file: "/home/mohanty/data/final_dataset/lmdb/segmented-60-40/mean.binaryproto"
  }
  data_param {
    source: "/home/mohanty/data/final_dataset/lmdb/segmented-60-40/test_db"
    batch_size: 100
    backend: LMDB
  }
}
layer {
  name: "conv1"
  type: "Convolution"
  bottom: "data"
  top: "conv1"
  param {
    lr_mult: 1
    decay_mult: 1
  }
  param {
    lr_mult: 2
    decay_mult: 0
  }
  convolution_param {
    num_output: 96
    kernel_size: 11
    stride: 4
    weight_filler {
      type: "gaussian"
      std: 0.01
    }
    bias_filler {
      type: "constant"
      value: 0
    }
  }
}
layer {
  name: "relu1"
  type: "ReLU"
  bottom: "conv1"
  top: "conv1"
}
layer {
  name: "norm1"
  type: "LRN"
  bottom: "conv1"
  top: "norm1"
  lrn_param {
    local_size: 5
    alpha: 0.0001
    beta: 0.75
  }
}
layer {
  name: "pool1"
  type: "Pooling"
  bottom: "norm1"
  top: "pool1"
  pooling_param {
    pool: MAX
    kernel_size: 3
    stride: 2
  }
}
layer {
  name: "conv2"
  type: "Convolution"
  bottom: "pool1"
  top: "conv2"
  param {
    lr_mult: 1
    decay_mult: 1
  }
  param {
    lr_mult: 2
    decay_mult: 0
  }
  convolution_param {
    num_output: 256
    pad: 2
    kernel_size: 5
    group: 2
    weight_filler {
      type: "gaussian"
      std: 0.01
    }
    bias_filler {
      type: "constant"
      value: 0.1
    }
  }
}
layer {
  name: "relu2"
  type: "ReLU"
  bottom: "conv2"
  top: "conv2"
}
layer {
  name: "norm2"
  type: "LRN"
  bottom: "conv2"
  top: "norm2"
  lrn_param {
    local_size: 5
    alpha: 0.0001
    beta: 0.75
  }
}
layer {
  name: "pool2"
  type: "Pooling"
  bottom: "norm2"
  top: "pool2"
  pooling_param {
    pool: MAX
    kernel_size: 3
    stride: 2
  }
}
layer {
  name: "conv3"
  type: "Convolution"
  bottom: "pool2"
  top: "conv3"
  param {
    lr_mult: 1
    decay_mult: 1
  }
  param {
    lr_mult: 2
    decay_mult: 0
  }
  convolution_param {
    num_output: 384
    pad: 1
    kernel_size: 3
    weight_filler {
      type: "gaussian"
      std: 0.01
    }
    bias_filler {
      type: "constant"
      value: 0
    }
  }
}
layer {
  name: "relu3"
  type: "ReLU"
  bottom: "conv3"
  top: "conv3"
}
layer {
  name: "conv4"
  type: "Convolution"
  bottom: "conv3"
  top: "conv4"
  param {
    lr_mult: 1
    decay_mult: 1
  }
  param {
    lr_mult: 2
    decay_mult: 0
  }
  convolution_param {
    num_output: 384
    pad: 1
    kernel_size: 3
    group: 2
    weight_filler {
      type: "gaussian"
      std: 0.01
    }
    bias_filler {
      type: "constant"
      value: 0.1
    }
  }
}
layer {
  name: "relu4"
  type: "ReLU"
  bottom: "conv4"
  top: "conv4"
}
layer {
  name: "conv5"
  type: "Convolution"
  bottom: "conv4"
  top: "conv5"
  param {
    lr_mult: 1
    decay_mult: 1
  }
  param {
    lr_mult: 2
    decay_mult: 0
  }
  convolution_param {
    num_output: 256
    pad: 1
    kernel_size: 3
    group: 2
    weight_filler {
      type: "gaussian"
      std: 0.01
    }
    bias_filler {
      type: "constant"
      value: 0.1
    }
  }
}
layer {
  name: "relu5"
  type: "ReLU"
  bottom: "conv5"
  top: "conv5"
}
layer {
  name: "pool5"
  type: "Pooling"
  bottom: "conv5"
  top: "pool5"
  pooling_param {
    pool: MAX
    kernel_size: 3
    stride: 2
  }
}
layer {
  name: "fc6"
  type: "InnerProduct"
  bottom: "pool5"
  top: "fc6"
  param {
    lr_mult: 1
    decay_mult: 1
  }
  param {
    lr_mult: 2
    decay_mult: 0
  }
  inner_product_param {
    num_output: 4096
    weight_filler {
      type: "gaussian"
      std: 0.005
    }
    bias_filler {
      type: "constant"
      value: 0.1
    }
  }
}
layer {
  name: "relu6"
  type: "ReLU"
  bottom: "fc6"
  top: "fc6"
}
layer {
  name: "drop6"
  type: "Dropout"
  bottom: "fc6"
  top: "fc6"
  dropout_param {
    dropout_ratio: 0.5
  }
}
layer {
  name: "fc7"
  type: "InnerProduct"
  bottom: "fc6"
  top: "fc7"
  param {
    lr_mult: 1
    decay_mult: 1
  }
  param {
    lr_mult: 2
    decay_mult: 0
  }
  inner_product_param {
    num_output: 4096
    weight_filler {
      type: "gaussian"
      std: 0.005
    }
    bias_filler {
      type: "constant"
      value: 0.1
    }
  }
}
layer {
  name: "relu7"
  type: "ReLU"
  bottom: "fc7"
  top: "fc7"
}
layer {
  name: "drop7"
  type: "Dropout"
  bottom: "fc7"
  top: "fc7"
  dropout_param {
    dropout_ratio: 0.5
  }
}
layer {
  name: "fc8_plantvillage"
  type: "InnerProduct"
  bottom: "fc7"
  top: "fc8_plantvillage"
  param {
    lr_mult: 1
    decay_mult: 1
  }
  param {
    lr_mult: 2
    decay_mult: 0
  }
  inner_product_param {
    num_output: 38
    weight_filler {
      type: "gaussian"
      std: 0.01
    }
    bias_filler {
      type: "constant"
      value: 0
    }
  }
}
layer {
  name: "prob"
  type: "Softmax"
  bottom: "fc8_plantvillage"
  top: "prob"
  include {
    phase: TEST
  }
}
layer {
  name: "hdf5out"
  type: "HDF5Output"
  bottom: "prob"
  bottom: "label"
  include {
    phase: TEST
  }
  hdf5_output_param {
    file_name: "hdf5_dumps/iter_4875.h5"
  }
}
layer {
  name: "loss"
  type: "SoftmaxWithLoss"
  bottom: "fc8_plantvillage"
  bottom: "label"
  top: "loss"
}
layer {
  name: "accuracy"
  type: "Accuracy"
  bottom: "fc8_plantvillage"
  bottom: "label"
  top: "accuracy"
  include {
    phase: TEST
  }
}
I0403 14:36:24.909878 17227 layer_factory.hpp:77] Creating layer data
I0403 14:36:24.910529 17227 net.cpp:91] Creating Layer data
I0403 14:36:24.910560 17227 net.cpp:399] data -> data
I0403 14:36:24.910610 17227 net.cpp:399] data -> label
I0403 14:36:24.910650 17227 data_transformer.cpp:25] Loading mean file from: /home/mohanty/data/final_dataset/lmdb/segmented-60-40/mean.binaryproto
I0403 14:36:24.911797 17230 db_lmdb.cpp:38] Opened lmdb /home/mohanty/data/final_dataset/lmdb/segmented-60-40/test_db
I0403 14:36:24.924948 17227 data_layer.cpp:41] output data size: 100,3,227,227
I0403 14:36:25.060080 17227 net.cpp:141] Setting up data
I0403 14:36:25.060139 17227 net.cpp:148] Top shape: 100 3 227 227 (15458700)
I0403 14:36:25.060164 17227 net.cpp:148] Top shape: 100 (100)
I0403 14:36:25.060179 17227 net.cpp:156] Memory required for data: 61835200
I0403 14:36:25.060209 17227 layer_factory.hpp:77] Creating layer label_data_1_split
I0403 14:36:25.060235 17227 net.cpp:91] Creating Layer label_data_1_split
I0403 14:36:25.060255 17227 net.cpp:425] label_data_1_split <- label
I0403 14:36:25.060287 17227 net.cpp:399] label_data_1_split -> label_data_1_split_0
I0403 14:36:25.060315 17227 net.cpp:399] label_data_1_split -> label_data_1_split_1
I0403 14:36:25.060336 17227 net.cpp:399] label_data_1_split -> label_data_1_split_2
I0403 14:36:25.060400 17227 net.cpp:141] Setting up label_data_1_split
I0403 14:36:25.060425 17227 net.cpp:148] Top shape: 100 (100)
I0403 14:36:25.060441 17227 net.cpp:148] Top shape: 100 (100)
I0403 14:36:25.060457 17227 net.cpp:148] Top shape: 100 (100)
I0403 14:36:25.060472 17227 net.cpp:156] Memory required for data: 61836400
I0403 14:36:25.060487 17227 layer_factory.hpp:77] Creating layer conv1
I0403 14:36:25.060519 17227 net.cpp:91] Creating Layer conv1
I0403 14:36:25.060539 17227 net.cpp:425] conv1 <- data
I0403 14:36:25.060559 17227 net.cpp:399] conv1 -> conv1
I0403 14:36:25.208997 17227 net.cpp:141] Setting up conv1
I0403 14:36:25.209085 17227 net.cpp:148] Top shape: 100 96 55 55 (29040000)
I0403 14:36:25.209102 17227 net.cpp:156] Memory required for data: 177996400
I0403 14:36:25.209133 17227 layer_factory.hpp:77] Creating layer relu1
I0403 14:36:25.209161 17227 net.cpp:91] Creating Layer relu1
I0403 14:36:25.209178 17227 net.cpp:425] relu1 <- conv1
I0403 14:36:25.209197 17227 net.cpp:386] relu1 -> conv1 (in-place)
I0403 14:36:25.209460 17227 net.cpp:141] Setting up relu1
I0403 14:36:25.209486 17227 net.cpp:148] Top shape: 100 96 55 55 (29040000)
I0403 14:36:25.209533 17227 net.cpp:156] Memory required for data: 294156400
I0403 14:36:25.209549 17227 layer_factory.hpp:77] Creating layer norm1
I0403 14:36:25.209578 17227 net.cpp:91] Creating Layer norm1
I0403 14:36:25.209595 17227 net.cpp:425] norm1 <- conv1
I0403 14:36:25.209614 17227 net.cpp:399] norm1 -> norm1
I0403 14:36:25.209944 17227 net.cpp:141] Setting up norm1
I0403 14:36:25.209976 17227 net.cpp:148] Top shape: 100 96 55 55 (29040000)
I0403 14:36:25.209992 17227 net.cpp:156] Memory required for data: 410316400
I0403 14:36:25.210008 17227 layer_factory.hpp:77] Creating layer pool1
I0403 14:36:25.210052 17227 net.cpp:91] Creating Layer pool1
I0403 14:36:25.210074 17227 net.cpp:425] pool1 <- norm1
I0403 14:36:25.210093 17227 net.cpp:399] pool1 -> pool1
I0403 14:36:25.210163 17227 net.cpp:141] Setting up pool1
I0403 14:36:25.210188 17227 net.cpp:148] Top shape: 100 96 27 27 (6998400)
I0403 14:36:25.210202 17227 net.cpp:156] Memory required for data: 438310000
I0403 14:36:25.210218 17227 layer_factory.hpp:77] Creating layer conv2
I0403 14:36:25.210244 17227 net.cpp:91] Creating Layer conv2
I0403 14:36:25.210260 17227 net.cpp:425] conv2 <- pool1
I0403 14:36:25.210281 17227 net.cpp:399] conv2 -> conv2
I0403 14:36:25.225540 17227 net.cpp:141] Setting up conv2
I0403 14:36:25.225597 17227 net.cpp:148] Top shape: 100 256 27 27 (18662400)
I0403 14:36:25.225615 17227 net.cpp:156] Memory required for data: 512959600
I0403 14:36:25.225641 17227 layer_factory.hpp:77] Creating layer relu2
I0403 14:36:25.225661 17227 net.cpp:91] Creating Layer relu2
I0403 14:36:25.225678 17227 net.cpp:425] relu2 <- conv2
I0403 14:36:25.225697 17227 net.cpp:386] relu2 -> conv2 (in-place)
I0403 14:36:25.225992 17227 net.cpp:141] Setting up relu2
I0403 14:36:25.226022 17227 net.cpp:148] Top shape: 100 256 27 27 (18662400)
I0403 14:36:25.226039 17227 net.cpp:156] Memory required for data: 587609200
I0403 14:36:25.226055 17227 layer_factory.hpp:77] Creating layer norm2
I0403 14:36:25.226078 17227 net.cpp:91] Creating Layer norm2
I0403 14:36:25.226095 17227 net.cpp:425] norm2 <- conv2
I0403 14:36:25.226115 17227 net.cpp:399] norm2 -> norm2
I0403 14:36:25.226325 17227 net.cpp:141] Setting up norm2
I0403 14:36:25.226351 17227 net.cpp:148] Top shape: 100 256 27 27 (18662400)
I0403 14:36:25.226366 17227 net.cpp:156] Memory required for data: 662258800
I0403 14:36:25.226382 17227 layer_factory.hpp:77] Creating layer pool2
I0403 14:36:25.226403 17227 net.cpp:91] Creating Layer pool2
I0403 14:36:25.226419 17227 net.cpp:425] pool2 <- norm2
I0403 14:36:25.226438 17227 net.cpp:399] pool2 -> pool2
I0403 14:36:25.226493 17227 net.cpp:141] Setting up pool2
I0403 14:36:25.226518 17227 net.cpp:148] Top shape: 100 256 13 13 (4326400)
I0403 14:36:25.226532 17227 net.cpp:156] Memory required for data: 679564400
I0403 14:36:25.226547 17227 layer_factory.hpp:77] Creating layer conv3
I0403 14:36:25.226572 17227 net.cpp:91] Creating Layer conv3
I0403 14:36:25.226589 17227 net.cpp:425] conv3 <- pool2
I0403 14:36:25.226639 17227 net.cpp:399] conv3 -> conv3
I0403 14:36:25.265686 17227 net.cpp:141] Setting up conv3
I0403 14:36:25.265750 17227 net.cpp:148] Top shape: 100 384 13 13 (6489600)
I0403 14:36:25.265766 17227 net.cpp:156] Memory required for data: 705522800
I0403 14:36:25.265791 17227 layer_factory.hpp:77] Creating layer relu3
I0403 14:36:25.265816 17227 net.cpp:91] Creating Layer relu3
I0403 14:36:25.265835 17227 net.cpp:425] relu3 <- conv3
I0403 14:36:25.265853 17227 net.cpp:386] relu3 -> conv3 (in-place)
I0403 14:36:25.266131 17227 net.cpp:141] Setting up relu3
I0403 14:36:25.266170 17227 net.cpp:148] Top shape: 100 384 13 13 (6489600)
I0403 14:36:25.266186 17227 net.cpp:156] Memory required for data: 731481200
I0403 14:36:25.266238 17227 layer_factory.hpp:77] Creating layer conv4
I0403 14:36:25.266273 17227 net.cpp:91] Creating Layer conv4
I0403 14:36:25.266291 17227 net.cpp:425] conv4 <- conv3
I0403 14:36:25.266310 17227 net.cpp:399] conv4 -> conv4
I0403 14:36:25.296619 17227 net.cpp:141] Setting up conv4
I0403 14:36:25.296700 17227 net.cpp:148] Top shape: 100 384 13 13 (6489600)
I0403 14:36:25.296747 17227 net.cpp:156] Memory required for data: 757439600
I0403 14:36:25.296769 17227 layer_factory.hpp:77] Creating layer relu4
I0403 14:36:25.296793 17227 net.cpp:91] Creating Layer relu4
I0403 14:36:25.296813 17227 net.cpp:425] relu4 <- conv4
I0403 14:36:25.296831 17227 net.cpp:386] relu4 -> conv4 (in-place)
I0403 14:36:25.297117 17227 net.cpp:141] Setting up relu4
I0403 14:36:25.297143 17227 net.cpp:148] Top shape: 100 384 13 13 (6489600)
I0403 14:36:25.297159 17227 net.cpp:156] Memory required for data: 783398000
I0403 14:36:25.297174 17227 layer_factory.hpp:77] Creating layer conv5
I0403 14:36:25.297229 17227 net.cpp:91] Creating Layer conv5
I0403 14:36:25.297297 17227 net.cpp:425] conv5 <- conv4
I0403 14:36:25.297320 17227 net.cpp:399] conv5 -> conv5
I0403 14:36:25.317962 17227 net.cpp:141] Setting up conv5
I0403 14:36:25.318017 17227 net.cpp:148] Top shape: 100 256 13 13 (4326400)
I0403 14:36:25.318032 17227 net.cpp:156] Memory required for data: 800703600
I0403 14:36:25.318059 17227 layer_factory.hpp:77] Creating layer relu5
I0403 14:36:25.318081 17227 net.cpp:91] Creating Layer relu5
I0403 14:36:25.318099 17227 net.cpp:425] relu5 <- conv5
I0403 14:36:25.318117 17227 net.cpp:386] relu5 -> conv5 (in-place)
I0403 14:36:25.318398 17227 net.cpp:141] Setting up relu5
I0403 14:36:25.318428 17227 net.cpp:148] Top shape: 100 256 13 13 (4326400)
I0403 14:36:25.318444 17227 net.cpp:156] Memory required for data: 818009200
I0403 14:36:25.318459 17227 layer_factory.hpp:77] Creating layer pool5
I0403 14:36:25.318480 17227 net.cpp:91] Creating Layer pool5
I0403 14:36:25.318497 17227 net.cpp:425] pool5 <- conv5
I0403 14:36:25.318518 17227 net.cpp:399] pool5 -> pool5
I0403 14:36:25.318579 17227 net.cpp:141] Setting up pool5
I0403 14:36:25.318603 17227 net.cpp:148] Top shape: 100 256 6 6 (921600)
I0403 14:36:25.318619 17227 net.cpp:156] Memory required for data: 821695600
I0403 14:36:25.318634 17227 layer_factory.hpp:77] Creating layer fc6
I0403 14:36:25.318662 17227 net.cpp:91] Creating Layer fc6
I0403 14:36:25.318681 17227 net.cpp:425] fc6 <- pool5
I0403 14:36:25.318701 17227 net.cpp:399] fc6 -> fc6
I0403 14:36:26.884337 17227 net.cpp:141] Setting up fc6
I0403 14:36:26.884382 17227 net.cpp:148] Top shape: 100 4096 (409600)
I0403 14:36:26.884398 17227 net.cpp:156] Memory required for data: 823334000
I0403 14:36:26.884419 17227 layer_factory.hpp:77] Creating layer relu6
I0403 14:36:26.884440 17227 net.cpp:91] Creating Layer relu6
I0403 14:36:26.884456 17227 net.cpp:425] relu6 <- fc6
I0403 14:36:26.884479 17227 net.cpp:386] relu6 -> fc6 (in-place)
I0403 14:36:26.884709 17227 net.cpp:141] Setting up relu6
I0403 14:36:26.884747 17227 net.cpp:148] Top shape: 100 4096 (409600)
I0403 14:36:26.884762 17227 net.cpp:156] Memory required for data: 824972400
I0403 14:36:26.884778 17227 layer_factory.hpp:77] Creating layer drop6
I0403 14:36:26.884799 17227 net.cpp:91] Creating Layer drop6
I0403 14:36:26.884816 17227 net.cpp:425] drop6 <- fc6
I0403 14:36:26.884834 17227 net.cpp:386] drop6 -> fc6 (in-place)
I0403 14:36:26.884886 17227 net.cpp:141] Setting up drop6
I0403 14:36:26.884909 17227 net.cpp:148] Top shape: 100 4096 (409600)
I0403 14:36:26.884924 17227 net.cpp:156] Memory required for data: 826610800
I0403 14:36:26.884950 17227 layer_factory.hpp:77] Creating layer fc7
I0403 14:36:26.884979 17227 net.cpp:91] Creating Layer fc7
I0403 14:36:26.884995 17227 net.cpp:425] fc7 <- fc6
I0403 14:36:26.885013 17227 net.cpp:399] fc7 -> fc7
I0403 14:36:27.582646 17227 net.cpp:141] Setting up fc7
I0403 14:36:27.582687 17227 net.cpp:148] Top shape: 100 4096 (409600)
I0403 14:36:27.582715 17227 net.cpp:156] Memory required for data: 828249200
I0403 14:36:27.582736 17227 layer_factory.hpp:77] Creating layer relu7
I0403 14:36:27.582761 17227 net.cpp:91] Creating Layer relu7
I0403 14:36:27.582777 17227 net.cpp:425] relu7 <- fc7
I0403 14:36:27.582797 17227 net.cpp:386] relu7 -> fc7 (in-place)
I0403 14:36:27.583206 17227 net.cpp:141] Setting up relu7
I0403 14:36:27.583231 17227 net.cpp:148] Top shape: 100 4096 (409600)
I0403 14:36:27.583278 17227 net.cpp:156] Memory required for data: 829887600
I0403 14:36:27.583293 17227 layer_factory.hpp:77] Creating layer drop7
I0403 14:36:27.583325 17227 net.cpp:91] Creating Layer drop7
I0403 14:36:27.583341 17227 net.cpp:425] drop7 <- fc7
I0403 14:36:27.583360 17227 net.cpp:386] drop7 -> fc7 (in-place)
I0403 14:36:27.583407 17227 net.cpp:141] Setting up drop7
I0403 14:36:27.583430 17227 net.cpp:148] Top shape: 100 4096 (409600)
I0403 14:36:27.583443 17227 net.cpp:156] Memory required for data: 831526000
I0403 14:36:27.583457 17227 layer_factory.hpp:77] Creating layer fc8_plantvillage
I0403 14:36:27.583477 17227 net.cpp:91] Creating Layer fc8_plantvillage
I0403 14:36:27.583492 17227 net.cpp:425] fc8_plantvillage <- fc7
I0403 14:36:27.583511 17227 net.cpp:399] fc8_plantvillage -> fc8_plantvillage
I0403 14:36:27.590272 17227 net.cpp:141] Setting up fc8_plantvillage
I0403 14:36:27.590302 17227 net.cpp:148] Top shape: 100 38 (3800)
I0403 14:36:27.590318 17227 net.cpp:156] Memory required for data: 831541200
I0403 14:36:27.590337 17227 layer_factory.hpp:77] Creating layer fc8_plantvillage_fc8_plantvillage_0_split
I0403 14:36:27.590354 17227 net.cpp:91] Creating Layer fc8_plantvillage_fc8_plantvillage_0_split
I0403 14:36:27.590369 17227 net.cpp:425] fc8_plantvillage_fc8_plantvillage_0_split <- fc8_plantvillage
I0403 14:36:27.590387 17227 net.cpp:399] fc8_plantvillage_fc8_plantvillage_0_split -> fc8_plantvillage_fc8_plantvillage_0_split_0
I0403 14:36:27.590406 17227 net.cpp:399] fc8_plantvillage_fc8_plantvillage_0_split -> fc8_plantvillage_fc8_plantvillage_0_split_1
I0403 14:36:27.590427 17227 net.cpp:399] fc8_plantvillage_fc8_plantvillage_0_split -> fc8_plantvillage_fc8_plantvillage_0_split_2
I0403 14:36:27.590505 17227 net.cpp:141] Setting up fc8_plantvillage_fc8_plantvillage_0_split
I0403 14:36:27.590528 17227 net.cpp:148] Top shape: 100 38 (3800)
I0403 14:36:27.590543 17227 net.cpp:148] Top shape: 100 38 (3800)
I0403 14:36:27.590559 17227 net.cpp:148] Top shape: 100 38 (3800)
I0403 14:36:27.590572 17227 net.cpp:156] Memory required for data: 831586800
I0403 14:36:27.590586 17227 layer_factory.hpp:77] Creating layer prob
I0403 14:36:27.590605 17227 net.cpp:91] Creating Layer prob
I0403 14:36:27.590620 17227 net.cpp:425] prob <- fc8_plantvillage_fc8_plantvillage_0_split_0
I0403 14:36:27.590637 17227 net.cpp:399] prob -> prob
I0403 14:36:27.590862 17227 net.cpp:141] Setting up prob
I0403 14:36:27.590889 17227 net.cpp:148] Top shape: 100 38 (3800)
I0403 14:36:27.590904 17227 net.cpp:156] Memory required for data: 831602000
I0403 14:36:27.590919 17227 layer_factory.hpp:77] Creating layer hdf5out
I0403 14:36:27.590940 17227 net.cpp:91] Creating Layer hdf5out
I0403 14:36:27.590963 17227 net.cpp:425] hdf5out <- prob
I0403 14:36:27.590981 17227 net.cpp:425] hdf5out <- label_data_1_split_0
I0403 14:36:27.593502 17227 net.cpp:141] Setting up hdf5out
…
