…
I0403 14:47:55.938815 17559 net.cpp:313] The NetState phase (1) differed from the phase (0) specified by a rule in layer data
I0403 14:47:55.939167 17559 net.cpp:49] Initializing net from parameters: 
state {
  phase: TEST
}
layer {
  name: "data"
  type: "Data"
  top: "data"
  top: "label"
  include {
    phase: TEST
  }
  transform_param {
    crop_size: 227
    mean_file: "/home/mohanty/data/final_dataset/lmdb/segmented-60-40/mean.binaryproto"
  }
  data_param {
    source: "/home/mohanty/data/final_dataset/lmdb/segmented-60-40/test_db"
    batch_size: 100
    backend: LMDB
  }
}
layer {
  name: "conv1"
  type: "Convolution"
  bottom: "data"
  top: "conv1"
  param {
    lr_mult: 1
    decay_mult: 1
  }
  param {
    lr_mult: 2
    decay_mult: 0
  }
  convolution_param {
    num_output: 96
    kernel_size: 11
    stride: 4
    weight_filler {
      type: "gaussian"
      std: 0.01
    }
    bias_filler {
      type: "constant"
      value: 0
    }
  }
}
layer {
  name: "relu1"
  type: "ReLU"
  bottom: "conv1"
  top: "conv1"
}
layer {
  name: "norm1"
  type: "LRN"
  bottom: "conv1"
  top: "norm1"
  lrn_param {
    local_size: 5
    alpha: 0.0001
    beta: 0.75
  }
}
layer {
  name: "pool1"
  type: "Pooling"
  bottom: "norm1"
  top: "pool1"
  pooling_param {
    pool: MAX
    kernel_size: 3
    stride: 2
  }
}
layer {
  name: "conv2"
  type: "Convolution"
  bottom: "pool1"
  top: "conv2"
  param {
    lr_mult: 1
    decay_mult: 1
  }
  param {
    lr_mult: 2
    decay_mult: 0
  }
  convolution_param {
    num_output: 256
    pad: 2
    kernel_size: 5
    group: 2
    weight_filler {
      type: "gaussian"
      std: 0.01
    }
    bias_filler {
      type: "constant"
      value: 0.1
    }
  }
}
layer {
  name: "relu2"
  type: "ReLU"
  bottom: "conv2"
  top: "conv2"
}
layer {
  name: "norm2"
  type: "LRN"
  bottom: "conv2"
  top: "norm2"
  lrn_param {
    local_size: 5
    alpha: 0.0001
    beta: 0.75
  }
}
layer {
  name: "pool2"
  type: "Pooling"
  bottom: "norm2"
  top: "pool2"
  pooling_param {
    pool: MAX
    kernel_size: 3
    stride: 2
  }
}
layer {
  name: "conv3"
  type: "Convolution"
  bottom: "pool2"
  top: "conv3"
  param {
    lr_mult: 1
    decay_mult: 1
  }
  param {
    lr_mult: 2
    decay_mult: 0
  }
  convolution_param {
    num_output: 384
    pad: 1
    kernel_size: 3
    weight_filler {
      type: "gaussian"
      std: 0.01
    }
    bias_filler {
      type: "constant"
      value: 0
    }
  }
}
layer {
  name: "relu3"
  type: "ReLU"
  bottom: "conv3"
  top: "conv3"
}
layer {
  name: "conv4"
  type: "Convolution"
  bottom: "conv3"
  top: "conv4"
  param {
    lr_mult: 1
    decay_mult: 1
  }
  param {
    lr_mult: 2
    decay_mult: 0
  }
  convolution_param {
    num_output: 384
    pad: 1
    kernel_size: 3
    group: 2
    weight_filler {
      type: "gaussian"
      std: 0.01
    }
    bias_filler {
      type: "constant"
      value: 0.1
    }
  }
}
layer {
  name: "relu4"
  type: "ReLU"
  bottom: "conv4"
  top: "conv4"
}
layer {
  name: "conv5"
  type: "Convolution"
  bottom: "conv4"
  top: "conv5"
  param {
    lr_mult: 1
    decay_mult: 1
  }
  param {
    lr_mult: 2
    decay_mult: 0
  }
  convolution_param {
    num_output: 256
    pad: 1
    kernel_size: 3
    group: 2
    weight_filler {
      type: "gaussian"
      std: 0.01
    }
    bias_filler {
      type: "constant"
      value: 0.1
    }
  }
}
layer {
  name: "relu5"
  type: "ReLU"
  bottom: "conv5"
  top: "conv5"
}
layer {
  name: "pool5"
  type: "Pooling"
  bottom: "conv5"
  top: "pool5"
  pooling_param {
    pool: MAX
    kernel_size: 3
    stride: 2
  }
}
layer {
  name: "fc6"
  type: "InnerProduct"
  bottom: "pool5"
  top: "fc6"
  param {
    lr_mult: 1
    decay_mult: 1
  }
  param {
    lr_mult: 2
    decay_mult: 0
  }
  inner_product_param {
    num_output: 4096
    weight_filler {
      type: "gaussian"
      std: 0.005
    }
    bias_filler {
      type: "constant"
      value: 0.1
    }
  }
}
layer {
  name: "relu6"
  type: "ReLU"
  bottom: "fc6"
  top: "fc6"
}
layer {
  name: "drop6"
  type: "Dropout"
  bottom: "fc6"
  top: "fc6"
  dropout_param {
    dropout_ratio: 0.5
  }
}
layer {
  name: "fc7"
  type: "InnerProduct"
  bottom: "fc6"
  top: "fc7"
  param {
    lr_mult: 1
    decay_mult: 1
  }
  param {
    lr_mult: 2
    decay_mult: 0
  }
  inner_product_param {
    num_output: 4096
    weight_filler {
      type: "gaussian"
      std: 0.005
    }
    bias_filler {
      type: "constant"
      value: 0.1
    }
  }
}
layer {
  name: "relu7"
  type: "ReLU"
  bottom: "fc7"
  top: "fc7"
}
layer {
  name: "drop7"
  type: "Dropout"
  bottom: "fc7"
  top: "fc7"
  dropout_param {
    dropout_ratio: 0.5
  }
}
layer {
  name: "fc8_plantvillage"
  type: "InnerProduct"
  bottom: "fc7"
  top: "fc8_plantvillage"
  param {
    lr_mult: 1
    decay_mult: 1
  }
  param {
    lr_mult: 2
    decay_mult: 0
  }
  inner_product_param {
    num_output: 38
    weight_filler {
      type: "gaussian"
      std: 0.01
    }
    bias_filler {
      type: "constant"
      value: 0
    }
  }
}
layer {
  name: "prob"
  type: "Softmax"
  bottom: "fc8_plantvillage"
  top: "prob"
  include {
    phase: TEST
  }
}
layer {
  name: "hdf5out"
  type: "HDF5Output"
  bottom: "prob"
  bottom: "label"
  include {
    phase: TEST
  }
  hdf5_output_param {
    file_name: "hdf5_dumps/iter_9762.h5"
  }
}
layer {
  name: "loss"
  type: "SoftmaxWithLoss"
  bottom: "fc8_plantvillage"
  bottom: "label"
  top: "loss"
}
layer {
  name: "accuracy"
  type: "Accuracy"
  bottom: "fc8_plantvillage"
  bottom: "label"
  top: "accuracy"
  include {
    phase: TEST
  }
}
I0403 14:47:55.939750 17559 layer_factory.hpp:77] Creating layer data
I0403 14:47:55.940421 17559 net.cpp:91] Creating Layer data
I0403 14:47:55.940454 17559 net.cpp:399] data -> data
I0403 14:47:55.940505 17559 net.cpp:399] data -> label
I0403 14:47:55.940539 17559 data_transformer.cpp:25] Loading mean file from: /home/mohanty/data/final_dataset/lmdb/segmented-60-40/mean.binaryproto
I0403 14:47:55.941797 17562 db_lmdb.cpp:38] Opened lmdb /home/mohanty/data/final_dataset/lmdb/segmented-60-40/test_db
I0403 14:47:55.954813 17559 data_layer.cpp:41] output data size: 100,3,227,227
I0403 14:47:56.087625 17559 net.cpp:141] Setting up data
I0403 14:47:56.087729 17559 net.cpp:148] Top shape: 100 3 227 227 (15458700)
I0403 14:47:56.087752 17559 net.cpp:148] Top shape: 100 (100)
I0403 14:47:56.087767 17559 net.cpp:156] Memory required for data: 61835200
I0403 14:47:56.087795 17559 layer_factory.hpp:77] Creating layer label_data_1_split
I0403 14:47:56.087821 17559 net.cpp:91] Creating Layer label_data_1_split
I0403 14:47:56.087837 17559 net.cpp:425] label_data_1_split <- label
I0403 14:47:56.087869 17559 net.cpp:399] label_data_1_split -> label_data_1_split_0
I0403 14:47:56.087895 17559 net.cpp:399] label_data_1_split -> label_data_1_split_1
I0403 14:47:56.087915 17559 net.cpp:399] label_data_1_split -> label_data_1_split_2
I0403 14:47:56.087992 17559 net.cpp:141] Setting up label_data_1_split
I0403 14:47:56.088016 17559 net.cpp:148] Top shape: 100 (100)
I0403 14:47:56.088033 17559 net.cpp:148] Top shape: 100 (100)
I0403 14:47:56.088049 17559 net.cpp:148] Top shape: 100 (100)
I0403 14:47:56.088063 17559 net.cpp:156] Memory required for data: 61836400
I0403 14:47:56.088078 17559 layer_factory.hpp:77] Creating layer conv1
I0403 14:47:56.088110 17559 net.cpp:91] Creating Layer conv1
I0403 14:47:56.088129 17559 net.cpp:425] conv1 <- data
I0403 14:47:56.088147 17559 net.cpp:399] conv1 -> conv1
I0403 14:47:56.347787 17559 net.cpp:141] Setting up conv1
I0403 14:47:56.347831 17559 net.cpp:148] Top shape: 100 96 55 55 (29040000)
I0403 14:47:56.347847 17559 net.cpp:156] Memory required for data: 177996400
I0403 14:47:56.347878 17559 layer_factory.hpp:77] Creating layer relu1
I0403 14:47:56.347905 17559 net.cpp:91] Creating Layer relu1
I0403 14:47:56.347924 17559 net.cpp:425] relu1 <- conv1
I0403 14:47:56.347944 17559 net.cpp:386] relu1 -> conv1 (in-place)
I0403 14:47:56.348214 17559 net.cpp:141] Setting up relu1
I0403 14:47:56.348242 17559 net.cpp:148] Top shape: 100 96 55 55 (29040000)
I0403 14:47:56.348290 17559 net.cpp:156] Memory required for data: 294156400
I0403 14:47:56.348307 17559 layer_factory.hpp:77] Creating layer norm1
I0403 14:47:56.348335 17559 net.cpp:91] Creating Layer norm1
I0403 14:47:56.348353 17559 net.cpp:425] norm1 <- conv1
I0403 14:47:56.348372 17559 net.cpp:399] norm1 -> norm1
I0403 14:47:56.348681 17559 net.cpp:141] Setting up norm1
I0403 14:47:56.348709 17559 net.cpp:148] Top shape: 100 96 55 55 (29040000)
I0403 14:47:56.348726 17559 net.cpp:156] Memory required for data: 410316400
I0403 14:47:56.348740 17559 layer_factory.hpp:77] Creating layer pool1
I0403 14:47:56.348763 17559 net.cpp:91] Creating Layer pool1
I0403 14:47:56.348781 17559 net.cpp:425] pool1 <- norm1
I0403 14:47:56.348800 17559 net.cpp:399] pool1 -> pool1
I0403 14:47:56.348866 17559 net.cpp:141] Setting up pool1
I0403 14:47:56.348891 17559 net.cpp:148] Top shape: 100 96 27 27 (6998400)
I0403 14:47:56.348906 17559 net.cpp:156] Memory required for data: 438310000
I0403 14:47:56.348920 17559 layer_factory.hpp:77] Creating layer conv2
I0403 14:47:56.348945 17559 net.cpp:91] Creating Layer conv2
I0403 14:47:56.348963 17559 net.cpp:425] conv2 <- pool1
I0403 14:47:56.348983 17559 net.cpp:399] conv2 -> conv2
I0403 14:47:56.363909 17559 net.cpp:141] Setting up conv2
I0403 14:47:56.363963 17559 net.cpp:148] Top shape: 100 256 27 27 (18662400)
I0403 14:47:56.363979 17559 net.cpp:156] Memory required for data: 512959600
I0403 14:47:56.364006 17559 layer_factory.hpp:77] Creating layer relu2
I0403 14:47:56.364030 17559 net.cpp:91] Creating Layer relu2
I0403 14:47:56.364048 17559 net.cpp:425] relu2 <- conv2
I0403 14:47:56.364065 17559 net.cpp:386] relu2 -> conv2 (in-place)
I0403 14:47:56.364343 17559 net.cpp:141] Setting up relu2
I0403 14:47:56.364372 17559 net.cpp:148] Top shape: 100 256 27 27 (18662400)
I0403 14:47:56.364387 17559 net.cpp:156] Memory required for data: 587609200
I0403 14:47:56.364403 17559 layer_factory.hpp:77] Creating layer norm2
I0403 14:47:56.364425 17559 net.cpp:91] Creating Layer norm2
I0403 14:47:56.364442 17559 net.cpp:425] norm2 <- conv2
I0403 14:47:56.364459 17559 net.cpp:399] norm2 -> norm2
I0403 14:47:56.364655 17559 net.cpp:141] Setting up norm2
I0403 14:47:56.364692 17559 net.cpp:148] Top shape: 100 256 27 27 (18662400)
I0403 14:47:56.364708 17559 net.cpp:156] Memory required for data: 662258800
I0403 14:47:56.364725 17559 layer_factory.hpp:77] Creating layer pool2
I0403 14:47:56.364747 17559 net.cpp:91] Creating Layer pool2
I0403 14:47:56.364763 17559 net.cpp:425] pool2 <- norm2
I0403 14:47:56.364780 17559 net.cpp:399] pool2 -> pool2
I0403 14:47:56.364835 17559 net.cpp:141] Setting up pool2
I0403 14:47:56.364858 17559 net.cpp:148] Top shape: 100 256 13 13 (4326400)
I0403 14:47:56.364873 17559 net.cpp:156] Memory required for data: 679564400
I0403 14:47:56.364888 17559 layer_factory.hpp:77] Creating layer conv3
I0403 14:47:56.364912 17559 net.cpp:91] Creating Layer conv3
I0403 14:47:56.364928 17559 net.cpp:425] conv3 <- pool2
I0403 14:47:56.364949 17559 net.cpp:399] conv3 -> conv3
I0403 14:47:56.403095 17559 net.cpp:141] Setting up conv3
I0403 14:47:56.403182 17559 net.cpp:148] Top shape: 100 384 13 13 (6489600)
I0403 14:47:56.403203 17559 net.cpp:156] Memory required for data: 705522800
I0403 14:47:56.403229 17559 layer_factory.hpp:77] Creating layer relu3
I0403 14:47:56.403252 17559 net.cpp:91] Creating Layer relu3
I0403 14:47:56.403270 17559 net.cpp:425] relu3 <- conv3
I0403 14:47:56.403290 17559 net.cpp:386] relu3 -> conv3 (in-place)
I0403 14:47:56.403581 17559 net.cpp:141] Setting up relu3
I0403 14:47:56.403610 17559 net.cpp:148] Top shape: 100 384 13 13 (6489600)
I0403 14:47:56.403626 17559 net.cpp:156] Memory required for data: 731481200
I0403 14:47:56.403641 17559 layer_factory.hpp:77] Creating layer conv4
I0403 14:47:56.403667 17559 net.cpp:91] Creating Layer conv4
I0403 14:47:56.403684 17559 net.cpp:425] conv4 <- conv3
I0403 14:47:56.403703 17559 net.cpp:399] conv4 -> conv4
I0403 14:47:56.433254 17559 net.cpp:141] Setting up conv4
I0403 14:47:56.433331 17559 net.cpp:148] Top shape: 100 384 13 13 (6489600)
I0403 14:47:56.433377 17559 net.cpp:156] Memory required for data: 757439600
I0403 14:47:56.433399 17559 layer_factory.hpp:77] Creating layer relu4
I0403 14:47:56.433423 17559 net.cpp:91] Creating Layer relu4
I0403 14:47:56.433441 17559 net.cpp:425] relu4 <- conv4
I0403 14:47:56.433460 17559 net.cpp:386] relu4 -> conv4 (in-place)
I0403 14:47:56.433747 17559 net.cpp:141] Setting up relu4
I0403 14:47:56.433773 17559 net.cpp:148] Top shape: 100 384 13 13 (6489600)
I0403 14:47:56.433789 17559 net.cpp:156] Memory required for data: 783398000
I0403 14:47:56.433804 17559 layer_factory.hpp:77] Creating layer conv5
I0403 14:47:56.433830 17559 net.cpp:91] Creating Layer conv5
I0403 14:47:56.433848 17559 net.cpp:425] conv5 <- conv4
I0403 14:47:56.433869 17559 net.cpp:399] conv5 -> conv5
I0403 14:47:56.461683 17559 net.cpp:141] Setting up conv5
I0403 14:47:56.461748 17559 net.cpp:148] Top shape: 100 256 13 13 (4326400)
I0403 14:47:56.461766 17559 net.cpp:156] Memory required for data: 800703600
I0403 14:47:56.461791 17559 layer_factory.hpp:77] Creating layer relu5
I0403 14:47:56.461815 17559 net.cpp:91] Creating Layer relu5
I0403 14:47:56.461834 17559 net.cpp:425] relu5 <- conv5
I0403 14:47:56.461853 17559 net.cpp:386] relu5 -> conv5 (in-place)
I0403 14:47:56.462143 17559 net.cpp:141] Setting up relu5
I0403 14:47:56.462173 17559 net.cpp:148] Top shape: 100 256 13 13 (4326400)
I0403 14:47:56.462189 17559 net.cpp:156] Memory required for data: 818009200
I0403 14:47:56.462204 17559 layer_factory.hpp:77] Creating layer pool5
I0403 14:47:56.462226 17559 net.cpp:91] Creating Layer pool5
I0403 14:47:56.462244 17559 net.cpp:425] pool5 <- conv5
I0403 14:47:56.462265 17559 net.cpp:399] pool5 -> pool5
I0403 14:47:56.462327 17559 net.cpp:141] Setting up pool5
I0403 14:47:56.462352 17559 net.cpp:148] Top shape: 100 256 6 6 (921600)
I0403 14:47:56.462368 17559 net.cpp:156] Memory required for data: 821695600
I0403 14:47:56.462383 17559 layer_factory.hpp:77] Creating layer fc6
I0403 14:47:56.462410 17559 net.cpp:91] Creating Layer fc6
I0403 14:47:56.462427 17559 net.cpp:425] fc6 <- pool5
I0403 14:47:56.462447 17559 net.cpp:399] fc6 -> fc6
I0403 14:47:58.017313 17559 net.cpp:141] Setting up fc6
I0403 14:47:58.017395 17559 net.cpp:148] Top shape: 100 4096 (409600)
I0403 14:47:58.017410 17559 net.cpp:156] Memory required for data: 823334000
I0403 14:47:58.017431 17559 layer_factory.hpp:77] Creating layer relu6
I0403 14:47:58.017455 17559 net.cpp:91] Creating Layer relu6
I0403 14:47:58.017472 17559 net.cpp:425] relu6 <- fc6
I0403 14:47:58.017491 17559 net.cpp:386] relu6 -> fc6 (in-place)
I0403 14:47:58.017714 17559 net.cpp:141] Setting up relu6
I0403 14:47:58.017740 17559 net.cpp:148] Top shape: 100 4096 (409600)
I0403 14:47:58.017753 17559 net.cpp:156] Memory required for data: 824972400
I0403 14:47:58.017767 17559 layer_factory.hpp:77] Creating layer drop6
I0403 14:47:58.017787 17559 net.cpp:91] Creating Layer drop6
I0403 14:47:58.017802 17559 net.cpp:425] drop6 <- fc6
I0403 14:47:58.017819 17559 net.cpp:386] drop6 -> fc6 (in-place)
I0403 14:47:58.017870 17559 net.cpp:141] Setting up drop6
I0403 14:47:58.017891 17559 net.cpp:148] Top shape: 100 4096 (409600)
I0403 14:47:58.017905 17559 net.cpp:156] Memory required for data: 826610800
I0403 14:47:58.017920 17559 layer_factory.hpp:77] Creating layer fc7
I0403 14:47:58.017941 17559 net.cpp:91] Creating Layer fc7
I0403 14:47:58.017957 17559 net.cpp:425] fc7 <- fc6
I0403 14:47:58.017974 17559 net.cpp:399] fc7 -> fc7
I0403 14:47:58.705344 17559 net.cpp:141] Setting up fc7
I0403 14:47:58.705392 17559 net.cpp:148] Top shape: 100 4096 (409600)
I0403 14:47:58.705409 17559 net.cpp:156] Memory required for data: 828249200
I0403 14:47:58.705430 17559 layer_factory.hpp:77] Creating layer relu7
I0403 14:47:58.705451 17559 net.cpp:91] Creating Layer relu7
I0403 14:47:58.705467 17559 net.cpp:425] relu7 <- fc7
I0403 14:47:58.705485 17559 net.cpp:386] relu7 -> fc7 (in-place)
I0403 14:47:58.705911 17559 net.cpp:141] Setting up relu7
I0403 14:47:58.705940 17559 net.cpp:148] Top shape: 100 4096 (409600)
I0403 14:47:58.705994 17559 net.cpp:156] Memory required for data: 829887600
I0403 14:47:58.706012 17559 layer_factory.hpp:77] Creating layer drop7
I0403 14:47:58.706032 17559 net.cpp:91] Creating Layer drop7
I0403 14:47:58.706046 17559 net.cpp:425] drop7 <- fc7
I0403 14:47:58.706075 17559 net.cpp:386] drop7 -> fc7 (in-place)
I0403 14:47:58.706121 17559 net.cpp:141] Setting up drop7
I0403 14:47:58.706145 17559 net.cpp:148] Top shape: 100 4096 (409600)
I0403 14:47:58.706159 17559 net.cpp:156] Memory required for data: 831526000
I0403 14:47:58.706173 17559 layer_factory.hpp:77] Creating layer fc8_plantvillage
I0403 14:47:58.706195 17559 net.cpp:91] Creating Layer fc8_plantvillage
I0403 14:47:58.706213 17559 net.cpp:425] fc8_plantvillage <- fc7
I0403 14:47:58.706231 17559 net.cpp:399] fc8_plantvillage -> fc8_plantvillage
I0403 14:47:58.713022 17559 net.cpp:141] Setting up fc8_plantvillage
I0403 14:47:58.713049 17559 net.cpp:148] Top shape: 100 38 (3800)
I0403 14:47:58.713064 17559 net.cpp:156] Memory required for data: 831541200
I0403 14:47:58.713083 17559 layer_factory.hpp:77] Creating layer fc8_plantvillage_fc8_plantvillage_0_split
I0403 14:47:58.713104 17559 net.cpp:91] Creating Layer fc8_plantvillage_fc8_plantvillage_0_split
I0403 14:47:58.713119 17559 net.cpp:425] fc8_plantvillage_fc8_plantvillage_0_split <- fc8_plantvillage
I0403 14:47:58.713136 17559 net.cpp:399] fc8_plantvillage_fc8_plantvillage_0_split -> fc8_plantvillage_fc8_plantvillage_0_split_0
I0403 14:47:58.713160 17559 net.cpp:399] fc8_plantvillage_fc8_plantvillage_0_split -> fc8_plantvillage_fc8_plantvillage_0_split_1
I0403 14:47:58.713179 17559 net.cpp:399] fc8_plantvillage_fc8_plantvillage_0_split -> fc8_plantvillage_fc8_plantvillage_0_split_2
I0403 14:47:58.713254 17559 net.cpp:141] Setting up fc8_plantvillage_fc8_plantvillage_0_split
I0403 14:47:58.713277 17559 net.cpp:148] Top shape: 100 38 (3800)
I0403 14:47:58.713294 17559 net.cpp:148] Top shape: 100 38 (3800)
I0403 14:47:58.713309 17559 net.cpp:148] Top shape: 100 38 (3800)
I0403 14:47:58.713322 17559 net.cpp:156] Memory required for data: 831586800
I0403 14:47:58.713336 17559 layer_factory.hpp:77] Creating layer prob
I0403 14:47:58.713356 17559 net.cpp:91] Creating Layer prob
I0403 14:47:58.713372 17559 net.cpp:425] prob <- fc8_plantvillage_fc8_plantvillage_0_split_0
I0403 14:47:58.713392 17559 net.cpp:399] prob -> prob
I0403 14:47:58.713614 17559 net.cpp:141] Setting up prob
I0403 14:47:58.713639 17559 net.cpp:148] Top shape: 100 38 (3800)
I0403 14:47:58.713654 17559 net.cpp:156] Memory required for data: 831602000
I0403 14:47:58.713668 17559 layer_factory.hpp:77] Creating layer hdf5out
I0403 14:47:58.713690 17559 net.cpp:91] Creating Layer hdf5out
I0403 14:47:58.713706 17559 net.cpp:425] hdf5out <- prob
I0403 14:47:58.713722 17559 net.cpp:425] hdf5out <- label_data_1_split_0
I0403 14:47:58.716104 17559 net.cpp:141] Setting up hdf5out
…
