…
I0403 02:30:37.058681  4269 net.cpp:313] The NetState phase (0) differed from the phase (1) specified by a rule in layer accuracy
I0403 02:30:37.059546  4269 net.cpp:49] Initializing net from parameters: 
state {
  phase: TRAIN
}
layer {
  name: "data"
  type: "Data"
  top: "data"
  top: "label"
  include {
    phase: TRAIN
  }
  transform_param {
    mirror: true
    crop_size: 227
    mean_file: "/home/mohanty/data/final_dataset/lmdb/segmented-80-20/mean.binaryproto"
  }
  data_param {
    source: "/home/mohanty/data/final_dataset/lmdb/segmented-80-20/train_db"
    batch_size: 100
    backend: LMDB
  }
}
layer {
  name: "conv1"
  type: "Convolution"
  bottom: "data"
  top: "conv1"
  param {
    lr_mult: 1
    decay_mult: 1
  }
  param {
    lr_mult: 2
    decay_mult: 0
  }
  convolution_param {
    num_output: 96
    kernel_size: 11
    stride: 4
    weight_filler {
      type: "gaussian"
      std: 0.01
    }
    bias_filler {
      type: "constant"
      value: 0
    }
  }
}
layer {
  name: "relu1"
  type: "ReLU"
  bottom: "conv1"
  top: "conv1"
}
layer {
  name: "norm1"
  type: "LRN"
  bottom: "conv1"
  top: "norm1"
  lrn_param {
    local_size: 5
    alpha: 0.0001
    beta: 0.75
  }
}
layer {
  name: "pool1"
  type: "Pooling"
  bottom: "norm1"
  top: "pool1"
  pooling_param {
    pool: MAX
    kernel_size: 3
    stride: 2
  }
}
layer {
  name: "conv2"
  type: "Convolution"
  bottom: "pool1"
  top: "conv2"
  param {
    lr_mult: 1
    decay_mult: 1
  }
  param {
    lr_mult: 2
    decay_mult: 0
  }
  convolution_param {
    num_output: 256
    pad: 2
    kernel_size: 5
    group: 2
    weight_filler {
      type: "gaussian"
      std: 0.01
    }
    bias_filler {
      type: "constant"
      value: 0.1
    }
  }
}
layer {
  name: "relu2"
  type: "ReLU"
  bottom: "conv2"
  top: "conv2"
}
layer {
  name: "norm2"
  type: "LRN"
  bottom: "conv2"
  top: "norm2"
  lrn_param {
    local_size: 5
    alpha: 0.0001
    beta: 0.75
  }
}
layer {
  name: "pool2"
  type: "Pooling"
  bottom: "norm2"
  top: "pool2"
  pooling_param {
    pool: MAX
    kernel_size: 3
    stride: 2
  }
}
layer {
  name: "conv3"
  type: "Convolution"
  bottom: "pool2"
  top: "conv3"
  param {
    lr_mult: 1
    decay_mult: 1
  }
  param {
    lr_mult: 2
    decay_mult: 0
  }
  convolution_param {
    num_output: 384
    pad: 1
    kernel_size: 3
    weight_filler {
      type: "gaussian"
      std: 0.01
    }
    bias_filler {
      type: "constant"
      value: 0
    }
  }
}
layer {
  name: "relu3"
  type: "ReLU"
  bottom: "conv3"
  top: "conv3"
}
layer {
  name: "conv4"
  type: "Convolution"
  bottom: "conv3"
  top: "conv4"
  param {
    lr_mult: 1
    decay_mult: 1
  }
  param {
    lr_mult: 2
    decay_mult: 0
  }
  convolution_param {
    num_output: 384
    pad: 1
    kernel_size: 3
    group: 2
    weight_filler {
      type: "gaussian"
      std: 0.01
    }
    bias_filler {
      type: "constant"
      value: 0.1
    }
  }
}
layer {
  name: "relu4"
  type: "ReLU"
  bottom: "conv4"
  top: "conv4"
}
layer {
  name: "conv5"
  type: "Convolution"
  bottom: "conv4"
  top: "conv5"
  param {
    lr_mult: 1
    decay_mult: 1
  }
  param {
    lr_mult: 2
    decay_mult: 0
  }
  convolution_param {
    num_output: 256
    pad: 1
    kernel_size: 3
    group: 2
    weight_filler {
      type: "gaussian"
      std: 0.01
    }
    bias_filler {
      type: "constant"
      value: 0.1
    }
  }
}
layer {
  name: "relu5"
  type: "ReLU"
  bottom: "conv5"
  top: "conv5"
}
layer {
  name: "pool5"
  type: "Pooling"
  bottom: "conv5"
  top: "pool5"
  pooling_param {
    pool: MAX
    kernel_size: 3
    stride: 2
  }
}
layer {
  name: "fc6"
  type: "InnerProduct"
  bottom: "pool5"
  top: "fc6"
  param {
    lr_mult: 1
    decay_mult: 1
  }
  param {
    lr_mult: 2
    decay_mult: 0
  }
  inner_product_param {
    num_output: 4096
    weight_filler {
      type: "gaussian"
      std: 0.005
    }
    bias_filler {
      type: "constant"
      value: 0.1
    }
  }
}
layer {
  name: "relu6"
  type: "ReLU"
  bottom: "fc6"
  top: "fc6"
}
layer {
  name: "drop6"
  type: "Dropout"
  bottom: "fc6"
  top: "fc6"
  dropout_param {
    dropout_ratio: 0.5
  }
}
layer {
  name: "fc7"
  type: "InnerProduct"
  bottom: "fc6"
  top: "fc7"
  param {
    lr_mult: 1
    decay_mult: 1
  }
  param {
    lr_mult: 2
    decay_mult: 0
  }
  inner_product_param {
    num_output: 4096
    weight_filler {
      type: "gaussian"
      std: 0.005
    }
    bias_filler {
      type: "constant"
      value: 0.1
    }
  }
}
layer {
  name: "relu7"
  type: "ReLU"
  bottom: "fc7"
  top: "fc7"
}
layer {
  name: "drop7"
  type: "Dropout"
  bottom: "fc7"
  top: "fc7"
  dropout_param {
    dropout_ratio: 0.5
  }
}
layer {
  name: "fc8_plantvillage"
  type: "InnerProduct"
  bottom: "fc7"
  top: "fc8_plantvillage"
  param {
    lr_mult: 1
    decay_mult: 1
  }
  param {
    lr_mult: 2
    decay_mult: 0
  }
  inner_product_param {
    num_output: 38
    weight_filler {
      type: "gaussian"
      std: 0.01
    }
    bias_filler {
      type: "constant"
      value: 0
    }
  }
}
layer {
  name: "loss"
  type: "SoftmaxWithLoss"
  bottom: "fc8_plantvillage"
  bottom: "label"
  top: "loss"
}
I0403 02:30:37.061421  4269 layer_factory.hpp:77] Creating layer data
I0403 02:30:37.062430  4269 net.cpp:91] Creating Layer data
I0403 02:30:37.062546  4269 net.cpp:399] data -> data
I0403 02:30:37.062675  4269 net.cpp:399] data -> label
I0403 02:30:37.062748  4269 data_transformer.cpp:25] Loading mean file from: /home/mohanty/data/final_dataset/lmdb/segmented-80-20/mean.binaryproto
I0403 02:30:37.094990  4275 db_lmdb.cpp:38] Opened lmdb /home/mohanty/data/final_dataset/lmdb/segmented-80-20/train_db
I0403 02:30:37.109391  4269 data_layer.cpp:41] output data size: 100,3,227,227
I0403 02:30:37.246944  4269 net.cpp:141] Setting up data
I0403 02:30:37.247059  4269 net.cpp:148] Top shape: 100 3 227 227 (15458700)
I0403 02:30:37.247087  4269 net.cpp:148] Top shape: 100 (100)
I0403 02:30:37.247107  4269 net.cpp:156] Memory required for data: 61835200
I0403 02:30:37.247143  4269 layer_factory.hpp:77] Creating layer conv1
I0403 02:30:37.247196  4269 net.cpp:91] Creating Layer conv1
I0403 02:30:37.247225  4269 net.cpp:425] conv1 <- data
I0403 02:30:37.247268  4269 net.cpp:399] conv1 -> conv1
I0403 02:30:37.256680  4269 net.cpp:141] Setting up conv1
I0403 02:30:37.256718  4269 net.cpp:148] Top shape: 100 96 55 55 (29040000)
I0403 02:30:37.256739  4269 net.cpp:156] Memory required for data: 177995200
I0403 02:30:37.256798  4269 layer_factory.hpp:77] Creating layer relu1
I0403 02:30:37.256849  4269 net.cpp:91] Creating Layer relu1
I0403 02:30:37.256872  4269 net.cpp:425] relu1 <- conv1
I0403 02:30:37.256896  4269 net.cpp:386] relu1 -> conv1 (in-place)
I0403 02:30:37.256940  4269 net.cpp:141] Setting up relu1
I0403 02:30:37.256966  4269 net.cpp:148] Top shape: 100 96 55 55 (29040000)
I0403 02:30:37.256985  4269 net.cpp:156] Memory required for data: 294155200
I0403 02:30:37.257005  4269 layer_factory.hpp:77] Creating layer norm1
I0403 02:30:37.257030  4269 net.cpp:91] Creating Layer norm1
I0403 02:30:37.257097  4269 net.cpp:425] norm1 <- conv1
I0403 02:30:37.257119  4269 net.cpp:399] norm1 -> norm1
I0403 02:30:37.257257  4269 net.cpp:141] Setting up norm1
I0403 02:30:37.257287  4269 net.cpp:148] Top shape: 100 96 55 55 (29040000)
I0403 02:30:37.257305  4269 net.cpp:156] Memory required for data: 410315200
I0403 02:30:37.257324  4269 layer_factory.hpp:77] Creating layer pool1
I0403 02:30:37.257349  4269 net.cpp:91] Creating Layer pool1
I0403 02:30:37.257369  4269 net.cpp:425] pool1 <- norm1
I0403 02:30:37.257390  4269 net.cpp:399] pool1 -> pool1
I0403 02:30:37.257479  4269 net.cpp:141] Setting up pool1
I0403 02:30:37.257510  4269 net.cpp:148] Top shape: 100 96 27 27 (6998400)
I0403 02:30:37.257529  4269 net.cpp:156] Memory required for data: 438308800
I0403 02:30:37.257546  4269 layer_factory.hpp:77] Creating layer conv2
I0403 02:30:37.257572  4269 net.cpp:91] Creating Layer conv2
I0403 02:30:37.257593  4269 net.cpp:425] conv2 <- pool1
I0403 02:30:37.257617  4269 net.cpp:399] conv2 -> conv2
I0403 02:30:37.257894  4277 blocking_queue.cpp:50] Waiting for data
I0403 02:30:37.277535  4269 net.cpp:141] Setting up conv2
I0403 02:30:37.277573  4269 net.cpp:148] Top shape: 100 256 27 27 (18662400)
I0403 02:30:37.277595  4269 net.cpp:156] Memory required for data: 512958400
I0403 02:30:37.277619  4269 layer_factory.hpp:77] Creating layer relu2
I0403 02:30:37.277643  4269 net.cpp:91] Creating Layer relu2
I0403 02:30:37.277664  4269 net.cpp:425] relu2 <- conv2
I0403 02:30:37.277688  4269 net.cpp:386] relu2 -> conv2 (in-place)
I0403 02:30:37.277710  4269 net.cpp:141] Setting up relu2
I0403 02:30:37.277732  4269 net.cpp:148] Top shape: 100 256 27 27 (18662400)
I0403 02:30:37.277750  4269 net.cpp:156] Memory required for data: 587608000
I0403 02:30:37.277768  4269 layer_factory.hpp:77] Creating layer norm2
I0403 02:30:37.277791  4269 net.cpp:91] Creating Layer norm2
I0403 02:30:37.277809  4269 net.cpp:425] norm2 <- conv2
I0403 02:30:37.277832  4269 net.cpp:399] norm2 -> norm2
I0403 02:30:37.277890  4269 net.cpp:141] Setting up norm2
I0403 02:30:37.277920  4269 net.cpp:148] Top shape: 100 256 27 27 (18662400)
I0403 02:30:37.277938  4269 net.cpp:156] Memory required for data: 662257600
I0403 02:30:37.277956  4269 layer_factory.hpp:77] Creating layer pool2
I0403 02:30:37.277981  4269 net.cpp:91] Creating Layer pool2
I0403 02:30:37.278002  4269 net.cpp:425] pool2 <- norm2
I0403 02:30:37.278025  4269 net.cpp:399] pool2 -> pool2
I0403 02:30:37.278079  4269 net.cpp:141] Setting up pool2
I0403 02:30:37.278105  4269 net.cpp:148] Top shape: 100 256 13 13 (4326400)
I0403 02:30:37.278123  4269 net.cpp:156] Memory required for data: 679563200
I0403 02:30:37.278141  4269 layer_factory.hpp:77] Creating layer conv3
I0403 02:30:37.278168  4269 net.cpp:91] Creating Layer conv3
I0403 02:30:37.278189  4269 net.cpp:425] conv3 <- pool2
I0403 02:30:37.278214  4269 net.cpp:399] conv3 -> conv3
I0403 02:30:37.319789  4269 net.cpp:141] Setting up conv3
I0403 02:30:37.319830  4269 net.cpp:148] Top shape: 100 384 13 13 (6489600)
I0403 02:30:37.319851  4269 net.cpp:156] Memory required for data: 705521600
I0403 02:30:37.319876  4269 layer_factory.hpp:77] Creating layer relu3
I0403 02:30:37.319901  4269 net.cpp:91] Creating Layer relu3
I0403 02:30:37.319921  4269 net.cpp:425] relu3 <- conv3
I0403 02:30:37.319944  4269 net.cpp:386] relu3 -> conv3 (in-place)
I0403 02:30:37.319969  4269 net.cpp:141] Setting up relu3
I0403 02:30:37.319993  4269 net.cpp:148] Top shape: 100 384 13 13 (6489600)
I0403 02:30:37.320009  4269 net.cpp:156] Memory required for data: 731480000
I0403 02:30:37.320026  4269 layer_factory.hpp:77] Creating layer conv4
I0403 02:30:37.320053  4269 net.cpp:91] Creating Layer conv4
I0403 02:30:37.320075  4269 net.cpp:425] conv4 <- conv3
I0403 02:30:37.320098  4269 net.cpp:399] conv4 -> conv4
I0403 02:30:37.351475  4269 net.cpp:141] Setting up conv4
I0403 02:30:37.351512  4269 net.cpp:148] Top shape: 100 384 13 13 (6489600)
I0403 02:30:37.351533  4269 net.cpp:156] Memory required for data: 757438400
I0403 02:30:37.351578  4269 layer_factory.hpp:77] Creating layer relu4
I0403 02:30:37.351604  4269 net.cpp:91] Creating Layer relu4
I0403 02:30:37.351625  4269 net.cpp:425] relu4 <- conv4
I0403 02:30:37.351649  4269 net.cpp:386] relu4 -> conv4 (in-place)
I0403 02:30:37.351672  4269 net.cpp:141] Setting up relu4
I0403 02:30:37.351693  4269 net.cpp:148] Top shape: 100 384 13 13 (6489600)
I0403 02:30:37.351711  4269 net.cpp:156] Memory required for data: 783396800
I0403 02:30:37.351729  4269 layer_factory.hpp:77] Creating layer conv5
I0403 02:30:37.351758  4269 net.cpp:91] Creating Layer conv5
I0403 02:30:37.351776  4269 net.cpp:425] conv5 <- conv4
I0403 02:30:37.351800  4269 net.cpp:399] conv5 -> conv5
I0403 02:30:37.372849  4269 net.cpp:141] Setting up conv5
I0403 02:30:37.372908  4269 net.cpp:148] Top shape: 100 256 13 13 (4326400)
I0403 02:30:37.372952  4269 net.cpp:156] Memory required for data: 800702400
I0403 02:30:37.373009  4269 layer_factory.hpp:77] Creating layer relu5
I0403 02:30:37.373059  4269 net.cpp:91] Creating Layer relu5
I0403 02:30:37.373105  4269 net.cpp:425] relu5 <- conv5
I0403 02:30:37.373126  4269 net.cpp:386] relu5 -> conv5 (in-place)
I0403 02:30:37.373152  4269 net.cpp:141] Setting up relu5
I0403 02:30:37.373173  4269 net.cpp:148] Top shape: 100 256 13 13 (4326400)
I0403 02:30:37.373191  4269 net.cpp:156] Memory required for data: 818008000
I0403 02:30:37.373208  4269 layer_factory.hpp:77] Creating layer pool5
I0403 02:30:37.373231  4269 net.cpp:91] Creating Layer pool5
I0403 02:30:37.373256  4269 net.cpp:425] pool5 <- conv5
I0403 02:30:37.373284  4269 net.cpp:399] pool5 -> pool5
I0403 02:30:37.373345  4269 net.cpp:141] Setting up pool5
I0403 02:30:37.373373  4269 net.cpp:148] Top shape: 100 256 6 6 (921600)
I0403 02:30:37.373391  4269 net.cpp:156] Memory required for data: 821694400
I0403 02:30:37.373409  4269 layer_factory.hpp:77] Creating layer fc6
I0403 02:30:37.373461  4269 net.cpp:91] Creating Layer fc6
I0403 02:30:37.373486  4269 net.cpp:425] fc6 <- pool5
I0403 02:30:37.373512  4269 net.cpp:399] fc6 -> fc6
I0403 02:30:38.855218  4269 net.cpp:141] Setting up fc6
I0403 02:30:38.855300  4269 net.cpp:148] Top shape: 100 4096 (409600)
I0403 02:30:38.855317  4269 net.cpp:156] Memory required for data: 823332800
I0403 02:30:38.855340  4269 layer_factory.hpp:77] Creating layer relu6
I0403 02:30:38.855366  4269 net.cpp:91] Creating Layer relu6
I0403 02:30:38.855383  4269 net.cpp:425] relu6 <- fc6
I0403 02:30:38.855402  4269 net.cpp:386] relu6 -> fc6 (in-place)
I0403 02:30:38.855423  4269 net.cpp:141] Setting up relu6
I0403 02:30:38.855440  4269 net.cpp:148] Top shape: 100 4096 (409600)
I0403 02:30:38.855453  4269 net.cpp:156] Memory required for data: 824971200
I0403 02:30:38.855468  4269 layer_factory.hpp:77] Creating layer drop6
I0403 02:30:38.855521  4269 net.cpp:91] Creating Layer drop6
I0403 02:30:38.855540  4269 net.cpp:425] drop6 <- fc6
I0403 02:30:38.855557  4269 net.cpp:386] drop6 -> fc6 (in-place)
I0403 02:30:38.855613  4269 net.cpp:141] Setting up drop6
I0403 02:30:38.855638  4269 net.cpp:148] Top shape: 100 4096 (409600)
I0403 02:30:38.855655  4269 net.cpp:156] Memory required for data: 826609600
I0403 02:30:38.855669  4269 layer_factory.hpp:77] Creating layer fc7
I0403 02:30:38.855689  4269 net.cpp:91] Creating Layer fc7
I0403 02:30:38.855703  4269 net.cpp:425] fc7 <- fc6
I0403 02:30:38.855721  4269 net.cpp:399] fc7 -> fc7
I0403 02:30:39.458298  4269 net.cpp:141] Setting up fc7
I0403 02:30:39.458379  4269 net.cpp:148] Top shape: 100 4096 (409600)
I0403 02:30:39.458395  4269 net.cpp:156] Memory required for data: 828248000
I0403 02:30:39.458417  4269 layer_factory.hpp:77] Creating layer relu7
I0403 02:30:39.458441  4269 net.cpp:91] Creating Layer relu7
I0403 02:30:39.458459  4269 net.cpp:425] relu7 <- fc7
I0403 02:30:39.458478  4269 net.cpp:386] relu7 -> fc7 (in-place)
I0403 02:30:39.458500  4269 net.cpp:141] Setting up relu7
I0403 02:30:39.458518  4269 net.cpp:148] Top shape: 100 4096 (409600)
I0403 02:30:39.458533  4269 net.cpp:156] Memory required for data: 829886400
I0403 02:30:39.458546  4269 layer_factory.hpp:77] Creating layer drop7
I0403 02:30:39.458609  4269 net.cpp:91] Creating Layer drop7
I0403 02:30:39.458627  4269 net.cpp:425] drop7 <- fc7
I0403 02:30:39.458645  4269 net.cpp:386] drop7 -> fc7 (in-place)
I0403 02:30:39.458685  4269 net.cpp:141] Setting up drop7
I0403 02:30:39.458706  4269 net.cpp:148] Top shape: 100 4096 (409600)
I0403 02:30:39.458721  4269 net.cpp:156] Memory required for data: 831524800
I0403 02:30:39.458735  4269 layer_factory.hpp:77] Creating layer fc8_plantvillage
I0403 02:30:39.458755  4269 net.cpp:91] Creating Layer fc8_plantvillage
I0403 02:30:39.458770  4269 net.cpp:425] fc8_plantvillage <- fc7
I0403 02:30:39.458791  4269 net.cpp:399] fc8_plantvillage -> fc8_plantvillage
I0403 02:30:39.464916  4269 net.cpp:141] Setting up fc8_plantvillage
I0403 02:30:39.464944  4269 net.cpp:148] Top shape: 100 38 (3800)
I0403 02:30:39.464962  4269 net.cpp:156] Memory required for data: 831540000
I0403 02:30:39.464979  4269 layer_factory.hpp:77] Creating layer loss
I0403 02:30:39.465030  4269 net.cpp:91] Creating Layer loss
I0403 02:30:39.465051  4269 net.cpp:425] loss <- fc8_plantvillage
I0403 02:30:39.465067  4269 net.cpp:425] loss <- label
I0403 02:30:39.465088  4269 net.cpp:399] loss -> loss
I0403 02:30:39.465128  4269 layer_factory.hpp:77] Creating layer loss
…
I0403 02:30:39.466959  4269 net.cpp:313] The NetState phase (1) differed from the phase (0) specified by a rule in layer data
I0403 02:30:39.467615  4269 net.cpp:49] Initializing net from parameters: 
state {
  phase: TEST
}
layer {
  name: "data"
  type: "Data"
  top: "data"
  top: "label"
  include {
    phase: TEST
  }
  transform_param {
    crop_size: 227
    mean_file: "/home/mohanty/data/final_dataset/lmdb/segmented-80-20/mean.binaryproto"
  }
  data_param {
    source: "/home/mohanty/data/final_dataset/lmdb/segmented-80-20/test_db"
    batch_size: 100
    backend: LMDB
  }
}
layer {
  name: "conv1"
  type: "Convolution"
  bottom: "data"
  top: "conv1"
  param {
    lr_mult: 1
    decay_mult: 1
  }
  param {
    lr_mult: 2
    decay_mult: 0
  }
  convolution_param {
    num_output: 96
    kernel_size: 11
    stride: 4
    weight_filler {
      type: "gaussian"
      std: 0.01
    }
    bias_filler {
      type: "constant"
      value: 0
    }
  }
}
layer {
  name: "relu1"
  type: "ReLU"
  bottom: "conv1"
  top: "conv1"
}
layer {
  name: "norm1"
  type: "LRN"
  bottom: "conv1"
  top: "norm1"
  lrn_param {
    local_size: 5
    alpha: 0.0001
    beta: 0.75
  }
}
layer {
  name: "pool1"
  type: "Pooling"
  bottom: "norm1"
  top: "pool1"
  pooling_param {
    pool: MAX
    kernel_size: 3
    stride: 2
  }
}
layer {
  name: "conv2"
  type: "Convolution"
  bottom: "pool1"
  top: "conv2"
  param {
    lr_mult: 1
    decay_mult: 1
  }
  param {
    lr_mult: 2
    decay_mult: 0
  }
  convolution_param {
    num_output: 256
    pad: 2
    kernel_size: 5
    group: 2
    weight_filler {
      type: "gaussian"
      std: 0.01
    }
    bias_filler {
      type: "constant"
      value: 0.1
    }
  }
}
layer {
  name: "relu2"
  type: "ReLU"
  bottom: "conv2"
  top: "conv2"
}
layer {
  name: "norm2"
  type: "LRN"
  bottom: "conv2"
  top: "norm2"
  lrn_param {
    local_size: 5
    alpha: 0.0001
    beta: 0.75
  }
}
layer {
  name: "pool2"
  type: "Pooling"
  bottom: "norm2"
  top: "pool2"
  pooling_param {
    pool: MAX
    kernel_size: 3
    stride: 2
  }
}
layer {
  name: "conv3"
  type: "Convolution"
  bottom: "pool2"
  top: "conv3"
  param {
    lr_mult: 1
    decay_mult: 1
  }
  param {
    lr_mult: 2
    decay_mult: 0
  }
  convolution_param {
    num_output: 384
    pad: 1
    kernel_size: 3
    weight_filler {
      type: "gaussian"
      std: 0.01
    }
    bias_filler {
      type: "constant"
      value: 0
    }
  }
}
layer {
  name: "relu3"
  type: "ReLU"
  bottom: "conv3"
  top: "conv3"
}
layer {
  name: "conv4"
  type: "Convolution"
  bottom: "conv3"
  top: "conv4"
  param {
    lr_mult: 1
    decay_mult: 1
  }
  param {
    lr_mult: 2
    decay_mult: 0
  }
  convolution_param {
    num_output: 384
    pad: 1
    kernel_size: 3
    group: 2
    weight_filler {
      type: "gaussian"
      std: 0.01
    }
    bias_filler {
      type: "constant"
      value: 0.1
    }
  }
}
layer {
  name: "relu4"
  type: "ReLU"
  bottom: "conv4"
  top: "conv4"
}
layer {
  name: "conv5"
  type: "Convolution"
  bottom: "conv4"
  top: "conv5"
  param {
    lr_mult: 1
    decay_mult: 1
  }
  param {
    lr_mult: 2
    decay_mult: 0
  }
  convolution_param {
    num_output: 256
    pad: 1
    kernel_size: 3
    group: 2
    weight_filler {
      type: "gaussian"
      std: 0.01
    }
    bias_filler {
      type: "constant"
      value: 0.1
    }
  }
}
layer {
  name: "relu5"
  type: "ReLU"
  bottom: "conv5"
  top: "conv5"
}
layer {
  name: "pool5"
  type: "Pooling"
  bottom: "conv5"
  top: "pool5"
  pooling_param {
    pool: MAX
    kernel_size: 3
    stride: 2
  }
}
layer {
  name: "fc6"
  type: "InnerProduct"
  bottom: "pool5"
  top: "fc6"
  param {
    lr_mult: 1
    decay_mult: 1
  }
  param {
    lr_mult: 2
    decay_mult: 0
  }
  inner_product_param {
    num_output: 4096
    weight_filler {
      type: "gaussian"
      std: 0.005
    }
    bias_filler {
      type: "constant"
      value: 0.1
    }
  }
}
layer {
  name: "relu6"
  type: "ReLU"
  bottom: "fc6"
  top: "fc6"
}
layer {
  name: "drop6"
  type: "Dropout"
  bottom: "fc6"
  top: "fc6"
  dropout_param {
    dropout_ratio: 0.5
  }
}
layer {
  name: "fc7"
  type: "InnerProduct"
  bottom: "fc6"
  top: "fc7"
  param {
    lr_mult: 1
    decay_mult: 1
  }
  param {
    lr_mult: 2
    decay_mult: 0
  }
  inner_product_param {
    num_output: 4096
    weight_filler {
      type: "gaussian"
      std: 0.005
    }
    bias_filler {
      type: "constant"
      value: 0.1
    }
  }
}
layer {
  name: "relu7"
  type: "ReLU"
  bottom: "fc7"
  top: "fc7"
}
layer {
  name: "drop7"
  type: "Dropout"
  bottom: "fc7"
  top: "fc7"
  dropout_param {
    dropout_ratio: 0.5
  }
}
layer {
  name: "fc8_plantvillage"
  type: "InnerProduct"
  bottom: "fc7"
  top: "fc8_plantvillage"
  param {
    lr_mult: 1
    decay_mult: 1
  }
  param {
    lr_mult: 2
    decay_mult: 0
  }
  inner_product_param {
    num_output: 38
    weight_filler {
      type: "gaussian"
      std: 0.01
    }
    bias_filler {
      type: "constant"
      value: 0
    }
  }
}
layer {
  name: "loss"
  type: "SoftmaxWithLoss"
  bottom: "fc8_plantvillage"
  bottom: "label"
  top: "loss"
}
layer {
  name: "accuracy"
  type: "Accuracy"
  bottom: "fc8_plantvillage"
  bottom: "label"
  top: "accuracy"
  include {
    phase: TEST
  }
}
I0403 02:30:39.467788  4269 layer_factory.hpp:77] Creating layer data
I0403 02:30:39.467931  4269 net.cpp:91] Creating Layer data
I0403 02:30:39.467960  4269 net.cpp:399] data -> data
I0403 02:30:39.467985  4269 net.cpp:399] data -> label
I0403 02:30:39.468008  4269 data_transformer.cpp:25] Loading mean file from: /home/mohanty/data/final_dataset/lmdb/segmented-80-20/mean.binaryproto
I0403 02:30:39.483150  4279 db_lmdb.cpp:38] Opened lmdb /home/mohanty/data/final_dataset/lmdb/segmented-80-20/test_db
I0403 02:30:39.488418  4269 data_layer.cpp:41] output data size: 100,3,227,227
I0403 02:30:39.628876  4269 net.cpp:141] Setting up data
I0403 02:30:39.628957  4269 net.cpp:148] Top shape: 100 3 227 227 (15458700)
I0403 02:30:39.628979  4269 net.cpp:148] Top shape: 100 (100)
I0403 02:30:39.628994  4269 net.cpp:156] Memory required for data: 61835200
I0403 02:30:39.629012  4269 layer_factory.hpp:77] Creating layer label_data_1_split
I0403 02:30:39.629041  4269 net.cpp:91] Creating Layer label_data_1_split
I0403 02:30:39.629060  4269 net.cpp:425] label_data_1_split <- label
I0403 02:30:39.629081  4269 net.cpp:399] label_data_1_split -> label_data_1_split_0
I0403 02:30:39.629106  4269 net.cpp:399] label_data_1_split -> label_data_1_split_1
I0403 02:30:39.629163  4269 net.cpp:141] Setting up label_data_1_split
I0403 02:30:39.629185  4269 net.cpp:148] Top shape: 100 (100)
I0403 02:30:39.629202  4269 net.cpp:148] Top shape: 100 (100)
I0403 02:30:39.629223  4269 net.cpp:156] Memory required for data: 61836000
I0403 02:30:39.629240  4269 layer_factory.hpp:77] Creating layer conv1
I0403 02:30:39.629267  4269 net.cpp:91] Creating Layer conv1
I0403 02:30:39.629286  4269 net.cpp:425] conv1 <- data
I0403 02:30:39.629307  4269 net.cpp:399] conv1 -> conv1
I0403 02:30:39.630812  4269 net.cpp:141] Setting up conv1
I0403 02:30:39.630841  4269 net.cpp:148] Top shape: 100 96 55 55 (29040000)
I0403 02:30:39.630856  4269 net.cpp:156] Memory required for data: 177996000
I0403 02:30:39.630880  4269 layer_factory.hpp:77] Creating layer relu1
I0403 02:30:39.630899  4269 net.cpp:91] Creating Layer relu1
I0403 02:30:39.630916  4269 net.cpp:425] relu1 <- conv1
I0403 02:30:39.630934  4269 net.cpp:386] relu1 -> conv1 (in-place)
I0403 02:30:39.630954  4269 net.cpp:141] Setting up relu1
I0403 02:30:39.630971  4269 net.cpp:148] Top shape: 100 96 55 55 (29040000)
I0403 02:30:39.630986  4269 net.cpp:156] Memory required for data: 294156000
I0403 02:30:39.631001  4269 layer_factory.hpp:77] Creating layer norm1
I0403 02:30:39.631022  4269 net.cpp:91] Creating Layer norm1
I0403 02:30:39.631039  4269 net.cpp:425] norm1 <- conv1
I0403 02:30:39.631058  4269 net.cpp:399] norm1 -> norm1
I0403 02:30:39.636939  4269 net.cpp:141] Setting up norm1
I0403 02:30:39.636976  4269 net.cpp:148] Top shape: 100 96 55 55 (29040000)
I0403 02:30:39.636993  4269 net.cpp:156] Memory required for data: 410316000
I0403 02:30:39.637009  4269 layer_factory.hpp:77] Creating layer pool1
I0403 02:30:39.637030  4269 net.cpp:91] Creating Layer pool1
I0403 02:30:39.637048  4269 net.cpp:425] pool1 <- norm1
I0403 02:30:39.637068  4269 net.cpp:399] pool1 -> pool1
I0403 02:30:39.637118  4269 net.cpp:141] Setting up pool1
I0403 02:30:39.637142  4269 net.cpp:148] Top shape: 100 96 27 27 (6998400)
I0403 02:30:39.637157  4269 net.cpp:156] Memory required for data: 438309600
I0403 02:30:39.637202  4269 layer_factory.hpp:77] Creating layer conv2
I0403 02:30:39.637233  4269 net.cpp:91] Creating Layer conv2
I0403 02:30:39.637251  4269 net.cpp:425] conv2 <- pool1
I0403 02:30:39.637272  4269 net.cpp:399] conv2 -> conv2
I0403 02:30:39.649220  4269 net.cpp:141] Setting up conv2
I0403 02:30:39.649251  4269 net.cpp:148] Top shape: 100 256 27 27 (18662400)
I0403 02:30:39.649268  4269 net.cpp:156] Memory required for data: 512959200
I0403 02:30:39.649291  4269 layer_factory.hpp:77] Creating layer relu2
I0403 02:30:39.649312  4269 net.cpp:91] Creating Layer relu2
I0403 02:30:39.649330  4269 net.cpp:425] relu2 <- conv2
I0403 02:30:39.649348  4269 net.cpp:386] relu2 -> conv2 (in-place)
I0403 02:30:39.649369  4269 net.cpp:141] Setting up relu2
I0403 02:30:39.649387  4269 net.cpp:148] Top shape: 100 256 27 27 (18662400)
I0403 02:30:39.649402  4269 net.cpp:156] Memory required for data: 587608800
I0403 02:30:39.649417  4269 layer_factory.hpp:77] Creating layer norm2
I0403 02:30:39.649436  4269 net.cpp:91] Creating Layer norm2
I0403 02:30:39.649454  4269 net.cpp:425] norm2 <- conv2
I0403 02:30:39.649472  4269 net.cpp:399] norm2 -> norm2
I0403 02:30:39.649521  4269 net.cpp:141] Setting up norm2
I0403 02:30:39.649545  4269 net.cpp:148] Top shape: 100 256 27 27 (18662400)
I0403 02:30:39.649561  4269 net.cpp:156] Memory required for data: 662258400
I0403 02:30:39.649576  4269 layer_factory.hpp:77] Creating layer pool2
I0403 02:30:39.649595  4269 net.cpp:91] Creating Layer pool2
I0403 02:30:39.649611  4269 net.cpp:425] pool2 <- norm2
I0403 02:30:39.649631  4269 net.cpp:399] pool2 -> pool2
I0403 02:30:39.649675  4269 net.cpp:141] Setting up pool2
I0403 02:30:39.649698  4269 net.cpp:148] Top shape: 100 256 13 13 (4326400)
I0403 02:30:39.649713  4269 net.cpp:156] Memory required for data: 679564000
I0403 02:30:39.649729  4269 layer_factory.hpp:77] Creating layer conv3
I0403 02:30:39.649750  4269 net.cpp:91] Creating Layer conv3
I0403 02:30:39.649767  4269 net.cpp:425] conv3 <- pool2
I0403 02:30:39.649786  4269 net.cpp:399] conv3 -> conv3
I0403 02:30:39.684756  4269 net.cpp:141] Setting up conv3
I0403 02:30:39.684836  4269 net.cpp:148] Top shape: 100 384 13 13 (6489600)
I0403 02:30:39.684936  4269 net.cpp:156] Memory required for data: 705522400
I0403 02:30:39.685029  4269 layer_factory.hpp:77] Creating layer relu3
I0403 02:30:39.685075  4269 net.cpp:91] Creating Layer relu3
I0403 02:30:39.685093  4269 net.cpp:425] relu3 <- conv3
I0403 02:30:39.685112  4269 net.cpp:386] relu3 -> conv3 (in-place)
I0403 02:30:39.685226  4269 net.cpp:141] Setting up relu3
I0403 02:30:39.685258  4269 net.cpp:148] Top shape: 100 384 13 13 (6489600)
I0403 02:30:39.685315  4269 net.cpp:156] Memory required for data: 731480800
I0403 02:30:39.685359  4269 layer_factory.hpp:77] Creating layer conv4
I0403 02:30:39.685413  4269 net.cpp:91] Creating Layer conv4
I0403 02:30:39.685433  4269 net.cpp:425] conv4 <- conv3
I0403 02:30:39.685480  4269 net.cpp:399] conv4 -> conv4
I0403 02:30:39.711416  4269 net.cpp:141] Setting up conv4
I0403 02:30:39.711457  4269 net.cpp:148] Top shape: 100 384 13 13 (6489600)
I0403 02:30:39.711498  4269 net.cpp:156] Memory required for data: 757439200
I0403 02:30:39.711541  4269 layer_factory.hpp:77] Creating layer relu4
I0403 02:30:39.711576  4269 net.cpp:91] Creating Layer relu4
I0403 02:30:39.711635  4269 net.cpp:425] relu4 <- conv4
I0403 02:30:39.711706  4269 net.cpp:386] relu4 -> conv4 (in-place)
I0403 02:30:39.711736  4269 net.cpp:141] Setting up relu4
I0403 02:30:39.711757  4269 net.cpp:148] Top shape: 100 384 13 13 (6489600)
I0403 02:30:39.711772  4269 net.cpp:156] Memory required for data: 783397600
I0403 02:30:39.711788  4269 layer_factory.hpp:77] Creating layer conv5
I0403 02:30:39.711833  4269 net.cpp:91] Creating Layer conv5
I0403 02:30:39.711858  4269 net.cpp:425] conv5 <- conv4
I0403 02:30:39.711879  4269 net.cpp:399] conv5 -> conv5
I0403 02:30:39.729563  4269 net.cpp:141] Setting up conv5
I0403 02:30:39.729601  4269 net.cpp:148] Top shape: 100 256 13 13 (4326400)
I0403 02:30:39.729647  4269 net.cpp:156] Memory required for data: 800703200
I0403 02:30:39.729673  4269 layer_factory.hpp:77] Creating layer relu5
I0403 02:30:39.729693  4269 net.cpp:91] Creating Layer relu5
I0403 02:30:39.729710  4269 net.cpp:425] relu5 <- conv5
I0403 02:30:39.729728  4269 net.cpp:386] relu5 -> conv5 (in-place)
I0403 02:30:39.729749  4269 net.cpp:141] Setting up relu5
I0403 02:30:39.729768  4269 net.cpp:148] Top shape: 100 256 13 13 (4326400)
I0403 02:30:39.729782  4269 net.cpp:156] Memory required for data: 818008800
I0403 02:30:39.729799  4269 layer_factory.hpp:77] Creating layer pool5
I0403 02:30:39.729822  4269 net.cpp:91] Creating Layer pool5
I0403 02:30:39.729851  4269 net.cpp:425] pool5 <- conv5
I0403 02:30:39.729876  4269 net.cpp:399] pool5 -> pool5
I0403 02:30:39.729933  4269 net.cpp:141] Setting up pool5
I0403 02:30:39.729957  4269 net.cpp:148] Top shape: 100 256 6 6 (921600)
I0403 02:30:39.729974  4269 net.cpp:156] Memory required for data: 821695200
I0403 02:30:39.729989  4269 layer_factory.hpp:77] Creating layer fc6
I0403 02:30:39.730010  4269 net.cpp:91] Creating Layer fc6
I0403 02:30:39.730029  4269 net.cpp:425] fc6 <- pool5
I0403 02:30:39.730048  4269 net.cpp:399] fc6 -> fc6
I0403 02:30:41.129081  4269 net.cpp:141] Setting up fc6
I0403 02:30:41.129159  4269 net.cpp:148] Top shape: 100 4096 (409600)
I0403 02:30:41.129176  4269 net.cpp:156] Memory required for data: 823333600
I0403 02:30:41.129199  4269 layer_factory.hpp:77] Creating layer relu6
I0403 02:30:41.129230  4269 net.cpp:91] Creating Layer relu6
I0403 02:30:41.129250  4269 net.cpp:425] relu6 <- fc6
I0403 02:30:41.129269  4269 net.cpp:386] relu6 -> fc6 (in-place)
I0403 02:30:41.129292  4269 net.cpp:141] Setting up relu6
I0403 02:30:41.129308  4269 net.cpp:148] Top shape: 100 4096 (409600)
I0403 02:30:41.129333  4269 net.cpp:156] Memory required for data: 824972000
I0403 02:30:41.129346  4269 layer_factory.hpp:77] Creating layer drop6
I0403 02:30:41.129365  4269 net.cpp:91] Creating Layer drop6
I0403 02:30:41.129384  4269 net.cpp:425] drop6 <- fc6
I0403 02:30:41.129402  4269 net.cpp:386] drop6 -> fc6 (in-place)
I0403 02:30:41.129441  4269 net.cpp:141] Setting up drop6
I0403 02:30:41.129462  4269 net.cpp:148] Top shape: 100 4096 (409600)
I0403 02:30:41.129477  4269 net.cpp:156] Memory required for data: 826610400
I0403 02:30:41.129492  4269 layer_factory.hpp:77] Creating layer fc7
I0403 02:30:41.129514  4269 net.cpp:91] Creating Layer fc7
I0403 02:30:41.129530  4269 net.cpp:425] fc7 <- fc6
I0403 02:30:41.129549  4269 net.cpp:399] fc7 -> fc7
I0403 02:30:41.736834  4269 net.cpp:141] Setting up fc7
I0403 02:30:41.736913  4269 net.cpp:148] Top shape: 100 4096 (409600)
I0403 02:30:41.736929  4269 net.cpp:156] Memory required for data: 828248800
I0403 02:30:41.736951  4269 layer_factory.hpp:77] Creating layer relu7
I0403 02:30:41.736975  4269 net.cpp:91] Creating Layer relu7
I0403 02:30:41.737002  4269 net.cpp:425] relu7 <- fc7
I0403 02:30:41.737023  4269 net.cpp:386] relu7 -> fc7 (in-place)
I0403 02:30:41.737046  4269 net.cpp:141] Setting up relu7
I0403 02:30:41.737061  4269 net.cpp:148] Top shape: 100 4096 (409600)
I0403 02:30:41.737074  4269 net.cpp:156] Memory required for data: 829887200
I0403 02:30:41.737088  4269 layer_factory.hpp:77] Creating layer drop7
I0403 02:30:41.737110  4269 net.cpp:91] Creating Layer drop7
I0403 02:30:41.737126  4269 net.cpp:425] drop7 <- fc7
I0403 02:30:41.737143  4269 net.cpp:386] drop7 -> fc7 (in-place)
I0403 02:30:41.737184  4269 net.cpp:141] Setting up drop7
I0403 02:30:41.737208  4269 net.cpp:148] Top shape: 100 4096 (409600)
I0403 02:30:41.737224  4269 net.cpp:156] Memory required for data: 831525600
I0403 02:30:41.737238  4269 layer_factory.hpp:77] Creating layer fc8_plantvillage
I0403 02:30:41.737258  4269 net.cpp:91] Creating Layer fc8_plantvillage
I0403 02:30:41.737273  4269 net.cpp:425] fc8_plantvillage <- fc7
I0403 02:30:41.737303  4269 net.cpp:399] fc8_plantvillage -> fc8_plantvillage
I0403 02:30:41.743269  4269 net.cpp:141] Setting up fc8_plantvillage
I0403 02:30:41.743300  4269 net.cpp:148] Top shape: 100 38 (3800)
I0403 02:30:41.743366  4269 net.cpp:156] Memory required for data: 831540800
I0403 02:30:41.743386  4269 layer_factory.hpp:77] Creating layer fc8_plantvillage_fc8_plantvillage_0_split
I0403 02:30:41.743404  4269 net.cpp:91] Creating Layer fc8_plantvillage_fc8_plantvillage_0_split
I0403 02:30:41.743422  4269 net.cpp:425] fc8_plantvillage_fc8_plantvillage_0_split <- fc8_plantvillage
I0403 02:30:41.743438  4269 net.cpp:399] fc8_plantvillage_fc8_plantvillage_0_split -> fc8_plantvillage_fc8_plantvillage_0_split_0
I0403 02:30:41.743458  4269 net.cpp:399] fc8_plantvillage_fc8_plantvillage_0_split -> fc8_plantvillage_fc8_plantvillage_0_split_1
I0403 02:30:41.743507  4269 net.cpp:141] Setting up fc8_plantvillage_fc8_plantvillage_0_split
I0403 02:30:41.743530  4269 net.cpp:148] Top shape: 100 38 (3800)
I0403 02:30:41.743546  4269 net.cpp:148] Top shape: 100 38 (3800)
I0403 02:30:41.743559  4269 net.cpp:156] Memory required for data: 831571200
I0403 02:30:41.743573  4269 layer_factory.hpp:77] Creating layer loss
I0403 02:30:41.743590  4269 net.cpp:91] Creating Layer loss
I0403 02:30:41.743605  4269 net.cpp:425] loss <- fc8_plantvillage_fc8_plantvillage_0_split_0
I0403 02:30:41.743621  4269 net.cpp:425] loss <- label_data_1_split_0
I0403 02:30:41.743641  4269 net.cpp:399] loss -> loss
…
