…
I0403 09:33:49.585683 25928 net.cpp:313] The NetState phase (0) differed from the phase (1) specified by a rule in layer loss3/top-5
I0403 09:33:49.589529 25928 net.cpp:49] Initializing net from parameters: 
state {
  phase: TRAIN
}
layer {
  name: "data"
  type: "Data"
  top: "data"
  top: "label"
  include {
    phase: TRAIN
  }
  transform_param {
    mirror: true
    crop_size: 224
    mean_file: "/home/mohanty/data/final_dataset/lmdb/grayscale-60-40/mean.binaryproto"
  }
  data_param {
    source: "/home/mohanty/data/final_dataset/lmdb/grayscale-60-40/train_db"
    batch_size: 24
    backend: LMDB
  }
}
layer {
  name: "conv1/7x7_s2"
  type: "Convolution"
  bottom: "data"
  top: "conv1/7x7_s2"
  param {
    lr_mult: 1
    decay_mult: 1
  }
  param {
    lr_mult: 2
    decay_mult: 0
  }
  convolution_param {
    num_output: 64
    pad: 3
    kernel_size: 7
    stride: 2
    weight_filler {
      type: "xavier"
      std: 0.1
    }
    bias_filler {
      type: "constant"
      value: 0.2
    }
  }
}
layer {
  name: "conv1/relu_7x7"
  type: "ReLU"
  bottom: "conv1/7x7_s2"
  top: "conv1/7x7_s2"
}
layer {
  name: "pool1/3x3_s2"
  type: "Pooling"
  bottom: "conv1/7x7_s2"
  top: "pool1/3x3_s2"
  pooling_param {
    pool: MAX
    kernel_size: 3
    stride: 2
  }
}
layer {
  name: "pool1/norm1"
  type: "LRN"
  bottom: "pool1/3x3_s2"
  top: "pool1/norm1"
  lrn_param {
    local_size: 5
    alpha: 0.0001
    beta: 0.75
  }
}
layer {
  name: "conv2/3x3_reduce"
  type: "Convolution"
  bottom: "pool1/norm1"
  top: "conv2/3x3_reduce"
  param {
    lr_mult: 1
    decay_mult: 1
  }
  param {
    lr_mult: 2
    decay_mult: 0
  }
  convolution_param {
    num_output: 64
    kernel_size: 1
    weight_filler {
      type: "xavier"
      std: 0.1
    }
    bias_filler {
      type: "constant"
      value: 0.2
    }
  }
}
layer {
  name: "conv2/relu_3x3_reduce"
  type: "ReLU"
  bottom: "conv2/3x3_reduce"
  top: "conv2/3x3_reduce"
}
layer {
  name: "conv2/3x3"
  type: "Convolution"
  bottom: "conv2/3x3_reduce"
  top: "conv2/3x3"
  param {
    lr_mult: 1
    decay_mult: 1
  }
  param {
    lr_mult: 2
    decay_mult: 0
  }
  convolution_param {
    num_output: 192
    pad: 1
    kernel_size: 3
    weight_filler {
      type: "xavier"
      std: 0.03
    }
    bias_filler {
      type: "constant"
      value: 0.2
    }
  }
}
layer {
  name: "conv2/relu_3x3"
  type: "ReLU"
  bottom: "conv2/3x3"
  top: "conv2/3x3"
}
layer {
  name: "conv2/norm2"
  type: "LRN"
  bottom: "conv2/3x3"
  top: "conv2/norm2"
  lrn_param {
    local_size: 5
    alpha: 0.0001
    beta: 0.75
  }
}
layer {
  name: "pool2/3x3_s2"
  type: "Pooling"
  bottom: "conv2/norm2"
  top: "pool2/3x3_s2"
  pooling_param {
    pool: MAX
    kernel_size: 3
    stride: 2
  }
}
layer {
  name: "inception_3a/1x1"
  type: "Convolution"
  bottom: "pool2/3x3_s2"
  top: "inception_3a/1x1"
  param {
    lr_mult: 1
    decay_mult: 1
  }
  param {
    lr_mult: 2
    decay_mult: 0
  }
  convolution_param {
    num_output: 64
    kernel_size: 1
    weight_filler {
      type: "xavier"
      std: 0.03
    }
    bias_filler {
      type: "constant"
      value: 0.2
    }
  }
}
layer {
  name: "inception_3a/relu_1x1"
  type: "ReLU"
  bottom: "inception_3a/1x1"
  top: "inception_3a/1x1"
}
layer {
  name: "inception_3a/3x3_reduce"
  type: "Convolution"
  bottom: "pool2/3x3_s2"
  top: "inception_3a/3x3_reduce"
  param {
    lr_mult: 1
    decay_mult: 1
  }
  param {
    lr_mult: 2
    decay_mult: 0
  }
  convolution_param {
    num_output: 96
    kernel_size: 1
    weight_filler {
      type: "xavier"
      std: 0.09
    }
    bias_filler {
      type: "constant"
      value: 0.2
    }
  }
}
layer {
  name: "inception_3a/relu_3x3_reduce"
  type: "ReLU"
  bottom: "inception_3a/3x3_reduce"
  top: "inception_3a/3x3_reduce"
}
layer {
  name: "inception_3a/3x3"
  type: "Convolution"
  bottom: "inception_3a/3x3_reduce"
  top: "inception_3a/3x3"
  param {
    lr_mult: 1
    decay_mult: 1
  }
  param {
    lr_mult: 2
    decay_mult: 0
  }
  convolution_param {
    num_output: 128
    pad: 1
    kernel_size: 3
    weight_filler {
      type: "xavier"
      std: 0.03
    }
    bias_filler {
      type: "constant"
      value: 0.2
    }
  }
}
layer {
  name: "inception_3a/relu_3x3"
  type: "ReLU"
  bottom: "inception_3a/3x3"
  top: "inception_3a/3x3"
}
layer {
  name: "inception_3a/5x5_reduce"
  type: "Convolution"
  bottom: "pool2/3x3_s2"
  top: "inception_3a/5x5_reduce"
  param {
    lr_mult: 1
    decay_mult: 1
  }
  param {
    lr_mult: 2
    decay_mult: 0
  }
  convolution_param {
    num_output: 16
    kernel_size: 1
    weight_filler {
      type: "xavier"
      std: 0.2
    }
    bias_filler {
      type: "constant"
      value: 0.2
    }
  }
}
layer {
  name: "inception_3a/relu_5x5_reduce"
  type: "ReLU"
  bottom: "inception_3a/5x5_reduce"
  top: "inception_3a/5x5_reduce"
}
layer {
  name: "inception_3a/5x5"
  type: "Convolution"
  bottom: "inception_3a/5x5_reduce"
  top: "inception_3a/5x5"
  param {
    lr_mult: 1
    decay_mult: 1
  }
  param {
    lr_mult: 2
    decay_mult: 0
  }
  convolution_param {
    num_output: 32
    pad: 2
    kernel_size: 5
    weight_filler {
      type: "xavier"
      std: 0.03
    }
    bias_filler {
      type: "constant"
      value: 0.2
    }
  }
}
layer {
  name: "inception_3a/relu_5x5"
  type: "ReLU"
  bottom: "inception_3a/5x5"
  top: "inception_3a/5x5"
}
layer {
  name: "inception_3a/pool"
  type: "Pooling"
  bottom: "pool2/3x3_s2"
  top: "inception_3a/pool"
  pooling_param {
    pool: MAX
    kernel_size: 3
    stride: 1
    pad: 1
  }
}
layer {
  name: "inception_3a/pool_proj"
  type: "Convolution"
  bottom: "inception_3a/pool"
  top: "inception_3a/pool_proj"
  param {
    lr_mult: 1
    decay_mult: 1
  }
  param {
    lr_mult: 2
    decay_mult: 0
  }
  convolution_param {
    num_output: 32
    kernel_size: 1
    weight_filler {
      type: "xavier"
      std: 0.1
    }
    bias_filler {
      type: "constant"
      value: 0.2
    }
  }
}
layer {
  name: "inception_3a/relu_pool_proj"
  type: "ReLU"
  bottom: "inception_3a/pool_proj"
  top: "inception_3a/pool_proj"
}
layer {
  name: "inception_3a/output"
  type: "Concat"
  bottom: "inception_3a/1x1"
  bottom: "inception_3a/3x3"
  bottom: "inception_3a/5x5"
  bottom: "inception_3a/pool_proj"
  top: "inception_3a/output"
}
layer {
  name: "inception_3b/1x1"
  type: "Convolution"
  bottom: "inception_3a/output"
  top: "inception_3b/1x1"
  param {
    lr_mult: 1
    decay_mult: 1
  }
  param {
    lr_mult: 2
    decay_mult: 0
  }
  convolution_param {
    num_output: 128
    kernel_size: 1
    weight_filler {
      type: "xavier"
      std: 0.03
    }
    bias_filler {
      type: "constant"
      value: 0.2
    }
  }
}
layer {
  name: "inception_3b/relu_1x1"
  type: "ReLU"
  bottom: "inception_3b/1x1"
  top: "inception_3b/1x1"
}
layer {
  name: "inception_3b/3x3_reduce"
  type: "Convolution"
  bottom: "inception_3a/output"
  top: "inception_3b/3x3_reduce"
  param {
    lr_mult: 1
    decay_mult: 1
  }
  param {
    lr_mult: 2
    decay_mult: 0
  }
  convolution_param {
    num_output: 128
    kernel_size: 1
    weight_filler {
      type: "xavier"
      std: 0.09
    }
    bias_filler {
      type: "constant"
      value: 0.2
    }
  }
}
layer {
  name: "inception_3b/relu_3x3_reduce"
  type: "ReLU"
  bottom: "inception_3b/3x3_reduce"
  top: "inception_3b/3x3_reduce"
}
layer {
  name: "inception_3b/3x3"
  type: "Convolution"
  bottom: "inception_3b/3x3_reduce"
  top: "inception_3b/3x3"
  param {
    lr_mult: 1
    decay_mult: 1
  }
  param {
    lr_mult: 2
    decay_mult: 0
  }
  convolution_param {
    num_output: 192
    pad: 1
    kernel_size: 3
    weight_filler {
      type: "xavier"
      std: 0.03
    }
    bias_filler {
      type: "constant"
      value: 0.2
    }
  }
}
layer {
  name: "inception_3b/relu_3x3"
  type: "ReLU"
  bottom: "inception_3b/3x3"
  top: "inception_3b/3x3"
}
layer {
  name: "inception_3b/5x5_reduce"
  type: "Convolution"
  bottom: "inception_3a/output"
  top: "inception_3b/5x5_reduce"
  param {
    lr_mult: 1
    decay_mult: 1
  }
  param {
    lr_mult: 2
    decay_mult: 0
  }
  convolution_param {
    num_output: 32
    kernel_size: 1
    weight_filler {
      type: "xavier"
      std: 0.2
    }
    bias_filler {
      type: "constant"
      value: 0.2
    }
  }
}
layer {
  name: "inception_3b/relu_5x5_reduce"
  type: "ReLU"
  bottom: "inception_3b/5x5_reduce"
  top: "inception_3b/5x5_reduce"
}
layer {
  name: "inception_3b/5x5"
  type: "Convolution"
  bottom: "inception_3b/5x5_reduce"
  top: "inception_3b/5x5"
  param {
    lr_mult: 1
    decay_mult: 1
  }
  param {
    lr_mult: 2
    decay_mult: 0
  }
  convolution_param {
    num_output: 96
    pad: 2
    kernel_size: 5
    weight_filler {
      type: "xavier"
      std: 0.03
    }
    bias_filler {
      type: "constant"
      value: 0.2
    }
  }
}
layer {
  name: "inception_3b/relu_5x5"
  type: "ReLU"
  bottom: "inception_3b/5x5"
  top: "inception_3b/5x5"
}
layer {
  name: "inception_3b/pool"
  type: "Pooling"
  bottom: "inception_3a/output"
  top: "inception_3b/pool"
  pooling_param {
    pool: MAX
    kernel_size: 3
    stride: 1
    pad: 1
  }
}
layer {
  name: "inception_3b/pool_proj"
  type: "Convolution"
  bottom: "inception_3b/pool"
  top: "inception_3b/pool_proj"
  param {
    lr_mult: 1
    decay_mult: 1
  }
  param {
    lr_mult: 2
    decay_mult: 0
  }
  convolution_param {
    num_output: 64
    kernel_size: 1
    weight_filler {
      type: "xavier"
      std: 0.1
    }
    bias_filler {
      type: "constant"
      value: 0.2
    }
  }
}
layer {
  name: "inception_3b/relu_pool_proj"
  type: "ReLU"
  bottom: "inception_3b/pool_proj"
  top: "inception_3b/pool_proj"
}
layer {
  name: "inception_3b/output"
  type: "Concat"
  bottom: "inception_3b/1x1"
  bottom: "inception_3b/3x3"
  bottom: "inception_3b/5x5"
  bottom: "inception_3b/pool_proj"
  top: "inception_3b/output"
}
layer {
  name: "pool3/3x3_s2"
  type: "Pooling"
  bottom: "inception_3b/output"
  top: "pool3/3x3_s2"
  pooling_param {
    pool: MAX
    kernel_size: 3
    stride: 2
  }
}
layer {
  name: "inception_4a/1x1"
  type: "Convolution"
  bottom: "pool3/3x3_s2"
  top: "inception_4a/1x1"
  param {
    lr_mult: 1
    decay_mult: 1
  }
  param {
    lr_mult: 2
    decay_mult: 0
  }
  convolution_param {
    num_output: 192
    kernel_size: 1
    weight_filler {
      type: "xavier"
      std: 0.03
    }
    bias_filler {
      type: "constant"
      value: 0.2
    }
  }
}
layer {
  name: "inception_4a/relu_1x1"
  type: "ReLU"
  bottom: "inception_4a/1x1"
  top: "inception_4a/1x1"
}
layer {
  name: "inception_4a/3x3_reduce"
  type: "Convolution"
  bottom: "pool3/3x3_s2"
  top: "inception_4a/3x3_reduce"
  param {
    lr_mult: 1
    decay_mult: 1
  }
  param {
    lr_mult: 2
    decay_mult: 0
  }
  convolution_param {
    num_output: 96
    kernel_size: 1
    weight_filler {
      type: "xavier"
      std: 0.09
    }
    bias_filler {
      type: "constant"
      value: 0.2
    }
  }
}
layer {
  name: "inception_4a/relu_3x3_reduce"
  type: "ReLU"
  bottom: "inception_4a/3x3_reduce"
  top: "inception_4a/3x3_reduce"
}
layer {
  name: "inception_4a/3x3"
  type: "Convolution"
  bottom: "inception_4a/3x3_reduce"
  top: "inception_4a/3x3"
  param {
    lr_mult: 1
    decay_mult: 1
  }
  param {
    lr_mult: 2
    decay_mult: 0
  }
  convolution_param {
    num_output: 208
    pad: 1
    kernel_size: 3
    weight_filler {
      type: "xavier"
      std: 0.03
    }
    bias_filler {
      type: "constant"
      value: 0.2
    }
  }
}
layer {
  name: "inception_4a/relu_3x3"
  type: "ReLU"
  bottom: "inception_4a/3x3"
  top: "inception_4a/3x3"
}
layer {
  name: "inception_4a/5x5_reduce"
  type: "Convolution"
  bottom: "pool3/3x3_s2"
  top: "inception_4a/5x5_reduce"
  param {
    lr_mult: 1
    decay_mult: 1
  }
  param {
    lr_mult: 2
    decay_mult: 0
  }
  convolution_param {
    num_output: 16
    kernel_size: 1
    weight_filler {
      type: "xavier"
      std: 0.2
    }
    bias_filler {
      type: "constant"
      value: 0.2
    }
  }
}
layer {
  name: "inception_4a/relu_5x5_reduce"
  type: "ReLU"
  bottom: "inception_4a/5x5_reduce"
  top: "inception_4a/5x5_reduce"
}
layer {
  name: "inception_4a/5x5"
  type: "Convolution"
  bottom: "inception_4a/5x5_reduce"
  top: "inception_4a/5x5"
  param {
    lr_mult: 1
    decay_mult: 1
  }
  param {
    lr_mult: 2
    decay_mult: 0
  }
  convolution_param {
    num_output: 48
    pad: 2
    kernel_size: 5
    weight_filler {
      type: "xavier"
      std: 0.03
    }
    bias_filler {
      type: "constant"
      value: 0.2
    }
  }
}
layer {
  name: "inception_4a/relu_5x5"
  type: "ReLU"
  bottom: "inception_4a/5x5"
  top: "inception_4a/5x5"
}
layer {
  name: "inception_4a/pool"
  type: "Pooling"
  bottom: "pool3/3x3_s2"
  top: "inception_4a/pool"
  pooling_param {
    pool: MAX
    kernel_size: 3
    stride: 1
    pad: 1
  }
}
layer {
  name: "inception_4a/pool_proj"
  type: "Convolution"
  bottom: "inception_4a/pool"
  top: "inception_4a/pool_proj"
  param {
    lr_mult: 1
    decay_mult: 1
  }
  param {
    lr_mult: 2
    decay_mult: 0
  }
  convolution_param {
    num_output: 64
    kernel_size: 1
    weight_filler {
      type: "xavier"
      std: 0.1
    }
    bias_filler {
      type: "constant"
      value: 0.2
    }
  }
}
layer {
  name: "inception_4a/relu_pool_proj"
  type: "ReLU"
  bottom: "inception_4a/pool_proj"
  top: "inception_4a/pool_proj"
}
layer {
  name: "inception_4a/output"
  type: "Concat"
  bottom: "inception_4a/1x1"
  bottom: "inception_4a/3x3"
  bottom: "inception_4a/5x5"
  bottom: "inception_4a/pool_proj"
  top: "inception_4a/output"
}
layer {
  name: "loss1/ave_pool"
  type: "Pooling"
  bottom: "inception_4a/output"
  top: "loss1/ave_pool"
  pooling_param {
    pool: AVE
    kernel_size: 5
    stride: 3
  }
}
layer {
  name: "loss1/conv"
  type: "Convolution"
  bottom: "loss1/ave_pool"
  top: "loss1/conv"
  param {
    lr_mult: 1
    decay_mult: 1
  }
  param {
    lr_mult: 2
    decay_mult: 0
  }
  convolution_param {
    num_output: 128
    kernel_size: 1
    weight_filler {
      type: "xavier"
      std: 0.08
    }
    bias_filler {
      type: "constant"
      value: 0.2
    }
  }
}
layer {
  name: "loss1/relu_conv"
  type: "ReLU"
  bottom: "loss1/conv"
  top: "loss1/conv"
}
layer {
  name: "loss1/fc"
  type: "InnerProduct"
  bottom: "loss1/conv"
  top: "loss1/fc"
  param {
    lr_mult: 1
    decay_mult: 1
  }
  param {
    lr_mult: 2
    decay_mult: 0
  }
  inner_product_param {
    num_output: 1024
    weight_filler {
      type: "xavier"
      std: 0.02
    }
    bias_filler {
      type: "constant"
      value: 0.2
    }
  }
}
layer {
  name: "loss1/relu_fc"
  type: "ReLU"
  bottom: "loss1/fc"
  top: "loss1/fc"
}
layer {
  name: "loss1/drop_fc"
  type: "Dropout"
  bottom: "loss1/fc"
  top: "loss1/fc"
  dropout_param {
    dropout_ratio: 0.7
  }
}
layer {
  name: "loss1/classifier_plantvillage"
  type: "InnerProduct"
  bottom: "loss1/fc"
  top: "loss1/classifier_plantvillage"
  param {
    lr_mult: 1
    decay_mult: 1
  }
  param {
    lr_mult: 2
    decay_mult: 0
  }
  inner_product_param {
    num_output: 38
    weight_filler {
      type: "xavier"
      std: 0.0009765625
    }
    bias_filler {
      type: "constant"
      value: 0
    }
  }
}
layer {
  name: "inception_4b/1x1"
  type: "Convolution"
  bottom: "inception_4a/output"
  top: "inception_4b/1x1"
  param {
    lr_mult: 1
    decay_mult: 1
  }
  param {
    lr_mult: 2
    decay_mult: 0
  }
  convolution_param {
    num_output: 160
    kernel_size: 1
    weight_filler {
      type: "xavier"
      std: 0.03
    }
    bias_filler {
      type: "constant"
      value: 0.2
    }
  }
}
layer {
  name: "inception_4b/relu_1x1"
  type: "ReLU"
  bottom: "inception_4b/1x1"
  top: "inception_4b/1x1"
}
layer {
  name: "inception_4b/3x3_reduce"
  type: "Convolution"
  bottom: "inception_4a/output"
  top: "inception_4b/3x3_reduce"
  param {
    lr_mult: 1
    decay_mult: 1
  }
  param {
    lr_mult: 2
    decay_mult: 0
  }
  convolution_param {
    num_output: 112
    kernel_size: 1
    weight_filler {
      type: "xavier"
      std: 0.09
    }
    bias_filler {
      type: "constant"
      value: 0.2
    }
  }
}
layer {
  name: "inception_4b/relu_3x3_reduce"
  type: "ReLU"
  bottom: "inception_4b/3x3_reduce"
  top: "inception_4b/3x3_reduce"
}
layer {
  name: "inception_4b/3x3"
  type: "Convolution"
  bottom: "inception_4b/3x3_reduce"
  top: "inception_4b/3x3"
  param {
    lr_mult: 1
    decay_mult: 1
  }
  param {
    lr_mult: 2
    decay_mult: 0
  }
  convolution_param {
    num_output: 224
    pad: 1
    kernel_size: 3
    weight_filler {
      type: "xavier"
      std: 0.03
    }
    bias_filler {
      type: "constant"
      value: 0.2
    }
  }
}
layer {
  name: "inception_4b/relu_3x3"
  type: "ReLU"
  bottom: "inception_4b/3x3"
  top: "inception_4b/3x3"
}
layer {
  name: "inception_4b/5x5_reduce"
  type: "Convolution"
  bottom: "inception_4a/output"
  top: "inception_4b/5x5_reduce"
  param {
    lr_mult: 1
    decay_mult: 1
  }
  param {
    lr_mult: 2
    decay_mult: 0
  }
  convolution_param {
    num_output: 24
    kernel_size: 1
    weight_filler {
      type: "xavier"
      std: 0.2
    }
    bias_filler {
      type: "constant"
      value: 0.2
    }
  }
}
layer {
  name: "inception_4b/relu_5x5_reduce"
  type: "ReLU"
  bottom: "inception_4b/5x5_reduce"
  top: "inception_4b/5x5_reduce"
}
layer {
  name: "inception_4b/5x5"
  type: "Convolution"
  bottom: "inception_4b/5x5_reduce"
  top: "inception_4b/5x5"
  param {
    lr_mult: 1
    decay_mult: 1
  }
  param {
    lr_mult: 2
    decay_mult: 0
  }
  convolution_param {
    num_output: 64
    pad: 2
    kernel_size: 5
    weight_filler {
      type: "xavier"
      std: 0.03
    }
    bias_filler {
      type: "constant"
      value: 0.2
    }
  }
}
layer {
  name: "inception_4b/relu_5x5"
  type: "ReLU"
  bottom: "inception_4b/5x5"
  top: "inception_4b/5x5"
}
layer {
  name: "inception_4b/pool"
  type: "Pooling"
  bottom: "inception_4a/output"
  top: "inception_4b/pool"
  pooling_param {
    pool: MAX
    kernel_size: 3
    stride: 1
    pad: 1
  }
}
layer {
  name: "inception_4b/pool_proj"
  type: "Convolution"
  bottom: "inception_4b/pool"
  top: "inception_4b/pool_proj"
  param {
    lr_mult: 1
    decay_mult: 1
  }
  param {
    lr_mult: 2
    decay_mult: 0
  }
  convolution_param {
    num_output: 64
    kernel_size: 1
    weight_filler {
      type: "xavier"
      std: 0.1
    }
    bias_filler {
      type: "constant"
      value: 0.2
    }
  }
}
layer {
  name: "inception_4b/relu_pool_proj"
  type: "ReLU"
  bottom: "inception_4b/pool_proj"
  top: "inception_4b/pool_proj"
}
layer {
  name: "inception_4b/output"
  type: "Concat"
  bottom: "inception_4b/1x1"
  bottom: "inception_4b/3x3"
  bottom: "inception_4b/5x5"
  bottom: "inception_4b/pool_proj"
  top: "inception_4b/output"
}
layer {
  name: "inception_4c/1x1"
  type: "Convolution"
  bottom: "inception_4b/output"
  top: "inception_4c/1x1"
  param {
    lr_mult: 1
    decay_mult: 1
  }
  param {
    lr_mult: 2
    decay_mult: 0
  }
  convolution_param {
    num_output: 128
    kernel_size: 1
    weight_filler {
      type: "xavier"
      std: 0.03
    }
    bias_filler {
      type: "constant"
      value: 0.2
    }
  }
}
layer {
  name: "inception_4c/relu_1x1"
  type: "ReLU"
  bottom: "inception_4c/1x1"
  top: "inception_4c/1x1"
}
layer {
  name: "inception_4c/3x3_reduce"
  type: "Convolution"
  bottom: "inception_4b/output"
  top: "inception_4c/3x3_reduce"
  param {
    lr_mult: 1
    decay_mult: 1
  }
  param {
    lr_mult: 2
    decay_mult: 0
  }
  convolution_param {
    num_output: 128
    kernel_size: 1
    weight_filler {
      type: "xavier"
      std: 0.09
    }
    bias_filler {
      type: "constant"
      value: 0.2
    }
  }
}
layer {
  name: "inception_4c/relu_3x3_reduce"
  type: "ReLU"
  bottom: "inception_4c/3x3_reduce"
  top: "inception_4c/3x3_reduce"
}
layer {
  name: "inception_4c/3x3"
  type: "Convolution"
  bottom: "inception_4c/3x3_reduce"
  top: "inception_4c/3x3"
  param {
    lr_mult: 1
    decay_mult: 1
  }
  param {
    lr_mult: 2
    decay_mult: 0
  }
  convolution_param {
    num_output: 256
    pad: 1
    kernel_size: 3
    weight_filler {
      type: "xavier"
      std: 0.03
    }
    bias_filler {
      type: "constant"
      value: 0.2
    }
  }
}
layer {
  name: "inception_4c/relu_3x3"
  type: "ReLU"
  bottom: "inception_4c/3x3"
  top: "inception_4c/3x3"
}
layer {
  name: "inception_4c/5x5_reduce"
  type: "Convolution"
  bottom: "inception_4b/output"
  top: "inception_4c/5x5_reduce"
  param {
    lr_mult: 1
    decay_mult: 1
  }
  param {
    lr_mult: 2
    decay_mult: 0
  }
  convolution_param {
    num_output: 24
    kernel_size: 1
    weight_filler {
      type: "xavier"
      std: 0.2
    }
    bias_filler {
      type: "constant"
      value: 0.2
    }
  }
}
layer {
  name: "inception_4c/relu_5x5_reduce"
  type: "ReLU"
  bottom: "inception_4c/5x5_reduce"
  top: "inception_4c/5x5_reduce"
}
layer {
  name: "inception_4c/5x5"
  type: "Convolution"
  bottom: "inception_4c/5x5_reduce"
  top: "inception_4c/5x5"
  param {
    lr_mult: 1
    decay_mult: 1
  }
  param {
    lr_mult: 2
    decay_mult: 0
  }
  convolution_param {
    num_output: 64
    pad: 2
    kernel_size: 5
    weight_filler {
      type: "xavier"
      std: 0.03
    }
    bias_filler {
      type: "constant"
      value: 0.2
    }
  }
}
layer {
  name: "inception_4c/relu_5x5"
  type: "ReLU"
  bottom: "inception_4c/5x5"
  top: "inception_4c/5x5"
}
layer {
  name: "inception_4c/pool"
  type: "Pooling"
  bottom: "inception_4b/output"
  top: "inception_4c/pool"
  pooling_param {
    pool: MAX
    kernel_size: 3
    stride: 1
    pad: 1
  }
}
layer {
  name: "inception_4c/pool_proj"
  type: "Convolution"
  bottom: "inception_4c/pool"
  top: "inception_4c/pool_proj"
  param {
    lr_mult: 1
    decay_mult: 1
  }
  param {
    lr_mult: 2
    decay_mult: 0
  }
  convolution_param {
    num_output: 64
    kernel_size: 1
    weight_filler {
      type: "xavier"
      std: 0.1
    }
    bias_filler {
      type: "constant"
      value: 0.2
    }
  }
}
layer {
  name: "inception_4c/relu_pool_proj"
  type: "ReLU"
  bottom: "inception_4c/pool_proj"
  top: "inception_4c/pool_proj"
}
layer {
  name: "inception_4c/output"
  type: "Concat"
  bottom: "inception_4c/1x1"
  bottom: "inception_4c/3x3"
  bottom: "inception_4c/5x5"
  bottom: "inception_4c/pool_proj"
  top: "inception_4c/output"
}
layer {
  name: "inception_4d/1x1"
  type: "Convolution"
  bottom: "inception_4c/output"
  top: "inception_4d/1x1"
  param {
    lr_mult: 1
    decay_mult: 1
  }
  param {
    lr_mult: 2
    decay_mult: 0
  }
  convolution_param {
    num_output: 112
    kernel_size: 1
    weight_filler {
      type: "xavier"
      std: 0.03
    }
    bias_filler {
      type: "constant"
      value: 0.2
    }
  }
}
layer {
  name: "inception_4d/relu_1x1"
  type: "ReLU"
  bottom: "inception_4d/1x1"
  top: "inception_4d/1x1"
}
layer {
  name: "inception_4d/3x3_reduce"
  type: "Convolution"
  bottom: "inception_4c/output"
  top: "inception_4d/3x3_reduce"
  param {
    lr_mult: 1
    decay_mult: 1
  }
  param {
    lr_mult: 2
    decay_mult: 0
  }
  convolution_param {
    num_output: 144
    kernel_size: 1
    weight_filler {
      type: "xavier"
      std: 0.09
    }
    bias_filler {
      type: "constant"
      value: 0.2
    }
  }
}
layer {
  name: "inception_4d/relu_3x3_reduce"
  type: "ReLU"
  bottom: "inception_4d/3x3_reduce"
  top: "inception_4d/3x3_reduce"
}
layer {
  name: "inception_4d/3x3"
  type: "Convolution"
  bottom: "inception_4d/3x3_reduce"
  top: "inception_4d/3x3"
  param {
    lr_mult: 1
    decay_mult: 1
  }
  param {
    lr_mult: 2
    decay_mult: 0
  }
  convolution_param {
    num_output: 288
    pad: 1
    kernel_size: 3
    weight_filler {
      type: "xavier"
      std: 0.03
    }
    bias_filler {
      type: "constant"
      value: 0.2
    }
  }
}
layer {
  name: "inception_4d/relu_3x3"
  type: "ReLU"
  bottom: "inception_4d/3x3"
  top: "inception_4d/3x3"
}
layer {
  name: "inception_4d/5x5_reduce"
  type: "Convolution"
  bottom: "inception_4c/output"
  top: "inception_4d/5x5_reduce"
  param {
    lr_mult: 1
    decay_mult: 1
  }
  param {
    lr_mult: 2
    decay_mult: 0
  }
  convolution_param {
    num_output: 32
    kernel_size: 1
    weight_filler {
      type: "xavier"
      std: 0.2
    }
    bias_filler {
      type: "constant"
      value: 0.2
    }
  }
}
layer {
  name: "inception_4d/relu_5x5_reduce"
  type: "ReLU"
  bottom: "inception_4d/5x5_reduce"
  top: "inception_4d/5x5_reduce"
}
layer {
  name: "inception_4d/5x5"
  type: "Convolution"
  bottom: "inception_4d/5x5_reduce"
  top: "inception_4d/5x5"
  param {
    lr_mult: 1
    decay_mult: 1
  }
  param {
    lr_mult: 2
    decay_mult: 0
  }
  convolution_param {
    num_output: 64
    pad: 2
    kernel_size: 5
    weight_filler {
      type: "xavier"
      std: 0.03
    }
    bias_filler {
      type: "constant"
      value: 0.2
    }
  }
}
layer {
  name: "inception_4d/relu_5x5"
  type: "ReLU"
  bottom: "inception_4d/5x5"
  top: "inception_4d/5x5"
}
layer {
  name: "inception_4d/pool"
  type: "Pooling"
  bottom: "inception_4c/output"
  top: "inception_4d/pool"
  pooling_param {
    pool: MAX
    kernel_size: 3
    stride: 1
    pad: 1
  }
}
layer {
  name: "inception_4d/pool_proj"
  type: "Convolution"
  bottom: "inception_4d/pool"
  top: "inception_4d/pool_proj"
  param {
    lr_mult: 1
    decay_mult: 1
  }
  param {
    lr_mult: 2
    decay_mult: 0
  }
  convolution_param {
    num_output: 64
    kernel_size: 1
    weight_filler {
      type: "xavier"
      std: 0.1
    }
    bias_filler {
      type: "constant"
      value: 0.2
    }
  }
}
layer {
  name: "inception_4d/relu_pool_proj"
  type: "ReLU"
  bottom: "inception_4d/pool_proj"
  top: "inception_4d/pool_proj"
}
layer {
  name: "inception_4d/output"
  type: "Concat"
  bottom: "inception_4d/1x1"
  bottom: "inception_4d/3x3"
  bottom: "inception_4d/5x5"
  bottom: "inception_4d/pool_proj"
  top: "inception_4d/output"
}
layer {
  name: "loss2/ave_pool"
  type: "Pooling"
  bottom: "inception_4d/output"
  top: "loss2/ave_pool"
  pooling_param {
    pool: AVE
    kernel_size: 5
    stride: 3
  }
}
layer {
  name: "loss2/conv"
  type: "Convolution"
  bottom: "loss2/ave_pool"
  top: "loss2/conv"
  param {
    lr_mult: 1
    decay_mult: 1
  }
  param {
    lr_mult: 2
    decay_mult: 0
  }
  convolution_param {
    num_output: 128
    kernel_size: 1
    weight_filler {
      type: "xavier"
      std: 0.08
    }
    bias_filler {
      type: "constant"
      value: 0.2
    }
  }
}
layer {
  name: "loss2/relu_conv"
  type: "ReLU"
  bottom: "loss2/conv"
  top: "loss2/conv"
}
layer {
  name: "loss2/fc"
  type: "InnerProduct"
  bottom: "loss2/conv"
  top: "loss2/fc"
  param {
    lr_mult: 1
    decay_mult: 1
  }
  param {
    lr_mult: 2
    decay_mult: 0
  }
  inner_product_param {
    num_output: 1024
    weight_filler {
      type: "xavier"
      std: 0.02
    }
    bias_filler {
      type: "constant"
      value: 0.2
    }
  }
}
layer {
  name: "loss2/relu_fc"
  type: "ReLU"
  bottom: "loss2/fc"
  top: "loss2/fc"
}
layer {
  name: "loss2/drop_fc"
  type: "Dropout"
  bottom: "loss2/fc"
  top: "loss2/fc"
  dropout_param {
    dropout_ratio: 0.7
  }
}
layer {
  name: "loss2/classifier_plantvillage"
  type: "InnerProduct"
  bottom: "loss2/fc"
  top: "loss2/classifier_plantvillage"
  param {
    lr_mult: 1
    decay_mult: 1
  }
  param {
    lr_mult: 2
    decay_mult: 0
  }
  inner_product_param {
    num_output: 38
    weight_filler {
      type: "xavier"
      std: 0.0009765625
    }
    bias_filler {
      type: "constant"
      value: 0
    }
  }
}
layer {
  name: "inception_4e/1x1"
  type: "Convolution"
  bottom: "inception_4d/output"
  top: "inception_4e/1x1"
  param {
    lr_mult: 1
    decay_mult: 1
  }
  param {
    lr_mult: 2
    decay_mult: 0
  }
  convolution_param {
    num_output: 256
    kernel_size: 1
    weight_filler {
      type: "xavier"
      std: 0.03
    }
    bias_filler {
      type: "constant"
      value: 0.2
    }
  }
}
layer {
  name: "inception_4e/relu_1x1"
  type: "ReLU"
  bottom: "inception_4e/1x1"
  top: "inception_4e/1x1"
}
layer {
  name: "inception_4e/3x3_reduce"
  type: "Convolution"
  bottom: "inception_4d/output"
  top: "inception_4e/3x3_reduce"
  param {
    lr_mult: 1
    decay_mult: 1
  }
  param {
    lr_mult: 2
    decay_mult: 0
  }
  convolution_param {
    num_output: 160
    kernel_size: 1
    weight_filler {
      type: "xavier"
      std: 0.09
    }
    bias_filler {
      type: "constant"
      value: 0.2
    }
  }
}
layer {
  name: "inception_4e/relu_3x3_reduce"
  type: "ReLU"
  bottom: "inception_4e/3x3_reduce"
  top: "inception_4e/3x3_reduce"
}
layer {
  name: "inception_4e/3x3"
  type: "Convolution"
  bottom: "inception_4e/3x3_reduce"
  top: "inception_4e/3x3"
  param {
    lr_mult: 1
    decay_mult: 1
  }
  param {
    lr_mult: 2
    decay_mult: 0
  }
  convolution_param {
    num_output: 320
    pad: 1
    kernel_size: 3
    weight_filler {
      type: "xavier"
      std: 0.03
    }
    bias_filler {
      type: "constant"
      value: 0.2
    }
  }
}
layer {
  name: "inception_4e/relu_3x3"
  type: "ReLU"
  bottom: "inception_4e/3x3"
  top: "inception_4e/3x3"
}
layer {
  name: "inception_4e/5x5_reduce"
  type: "Convolution"
  bottom: "inception_4d/output"
  top: "inception_4e/5x5_reduce"
  param {
    lr_mult: 1
    decay_mult: 1
  }
  param {
    lr_mult: 2
    decay_mult: 0
  }
  convolution_param {
    num_output: 32
    kernel_size: 1
    weight_filler {
      type: "xavier"
      std: 0.2
    }
    bias_filler {
      type: "constant"
      value: 0.2
    }
  }
}
layer {
  name: "inception_4e/relu_5x5_reduce"
  type: "ReLU"
  bottom: "inception_4e/5x5_reduce"
  top: "inception_4e/5x5_reduce"
}
layer {
  name: "inception_4e/5x5"
  type: "Convolution"
  bottom: "inception_4e/5x5_reduce"
  top: "inception_4
I0403 09:33:49.590682 25928 layer_factory.hpp:77] Creating layer data
I0403 09:33:49.591338 25928 net.cpp:91] Creating Layer data
I0403 09:33:49.591377 25928 net.cpp:399] data -> data
I0403 09:33:49.591435 25928 net.cpp:399] data -> label
I0403 09:33:49.591471 25928 data_transformer.cpp:25] Loading mean file from: /home/mohanty/data/final_dataset/lmdb/grayscale-60-40/mean.binaryproto
I0403 09:33:49.654073 25932 db_lmdb.cpp:38] Opened lmdb /home/mohanty/data/final_dataset/lmdb/grayscale-60-40/train_db
I0403 09:33:49.658531 25928 data_layer.cpp:41] output data size: 24,3,224,224
I0403 09:33:49.687528 25928 net.cpp:141] Setting up data
I0403 09:33:49.687599 25928 net.cpp:148] Top shape: 24 3 224 224 (3612672)
I0403 09:33:49.687623 25928 net.cpp:148] Top shape: 24 (24)
I0403 09:33:49.687639 25928 net.cpp:156] Memory required for data: 14450784
I0403 09:33:49.687700 25928 layer_factory.hpp:77] Creating layer label_data_1_split
I0403 09:33:49.687731 25928 net.cpp:91] Creating Layer label_data_1_split
I0403 09:33:49.687752 25928 net.cpp:425] label_data_1_split <- label
I0403 09:33:49.687786 25928 net.cpp:399] label_data_1_split -> label_data_1_split_0
I0403 09:33:49.687815 25928 net.cpp:399] label_data_1_split -> label_data_1_split_1
I0403 09:33:49.687837 25928 net.cpp:399] label_data_1_split -> label_data_1_split_2
I0403 09:33:49.687901 25928 net.cpp:141] Setting up label_data_1_split
I0403 09:33:49.687927 25928 net.cpp:148] Top shape: 24 (24)
I0403 09:33:49.687944 25928 net.cpp:148] Top shape: 24 (24)
I0403 09:33:49.687963 25928 net.cpp:148] Top shape: 24 (24)
I0403 09:33:49.687976 25928 net.cpp:156] Memory required for data: 14451072
I0403 09:33:49.687993 25928 layer_factory.hpp:77] Creating layer conv1/7x7_s2
I0403 09:33:49.688029 25928 net.cpp:91] Creating Layer conv1/7x7_s2
I0403 09:33:49.688047 25928 net.cpp:425] conv1/7x7_s2 <- data
I0403 09:33:49.688067 25928 net.cpp:399] conv1/7x7_s2 -> conv1/7x7_s2
I0403 09:33:49.688947 25928 net.cpp:141] Setting up conv1/7x7_s2
I0403 09:33:49.688979 25928 net.cpp:148] Top shape: 24 64 112 112 (19267584)
I0403 09:33:49.688997 25928 net.cpp:156] Memory required for data: 91521408
I0403 09:33:49.689031 25928 layer_factory.hpp:77] Creating layer conv1/relu_7x7
I0403 09:33:49.689059 25928 net.cpp:91] Creating Layer conv1/relu_7x7
I0403 09:33:49.689077 25928 net.cpp:425] conv1/relu_7x7 <- conv1/7x7_s2
I0403 09:33:49.689097 25928 net.cpp:386] conv1/relu_7x7 -> conv1/7x7_s2 (in-place)
I0403 09:33:49.689121 25928 net.cpp:141] Setting up conv1/relu_7x7
I0403 09:33:49.689142 25928 net.cpp:148] Top shape: 24 64 112 112 (19267584)
I0403 09:33:49.689158 25928 net.cpp:156] Memory required for data: 168591744
I0403 09:33:49.689173 25928 layer_factory.hpp:77] Creating layer pool1/3x3_s2
I0403 09:33:49.689196 25928 net.cpp:91] Creating Layer pool1/3x3_s2
I0403 09:33:49.689214 25928 net.cpp:425] pool1/3x3_s2 <- conv1/7x7_s2
I0403 09:33:49.689236 25928 net.cpp:399] pool1/3x3_s2 -> pool1/3x3_s2
I0403 09:33:49.689307 25928 net.cpp:141] Setting up pool1/3x3_s2
I0403 09:33:49.689333 25928 net.cpp:148] Top shape: 24 64 56 56 (4816896)
I0403 09:33:49.689350 25928 net.cpp:156] Memory required for data: 187859328
I0403 09:33:49.689366 25928 layer_factory.hpp:77] Creating layer pool1/norm1
I0403 09:33:49.689388 25928 net.cpp:91] Creating Layer pool1/norm1
I0403 09:33:49.689406 25928 net.cpp:425] pool1/norm1 <- pool1/3x3_s2
I0403 09:33:49.689425 25928 net.cpp:399] pool1/norm1 -> pool1/norm1
I0403 09:33:49.689478 25928 net.cpp:141] Setting up pool1/norm1
I0403 09:33:49.689503 25928 net.cpp:148] Top shape: 24 64 56 56 (4816896)
I0403 09:33:49.689519 25928 net.cpp:156] Memory required for data: 207126912
I0403 09:33:49.689535 25928 layer_factory.hpp:77] Creating layer conv2/3x3_reduce
I0403 09:33:49.689558 25928 net.cpp:91] Creating Layer conv2/3x3_reduce
I0403 09:33:49.689577 25928 net.cpp:425] conv2/3x3_reduce <- pool1/norm1
I0403 09:33:49.689599 25928 net.cpp:399] conv2/3x3_reduce -> conv2/3x3_reduce
I0403 09:33:49.690376 25928 net.cpp:141] Setting up conv2/3x3_reduce
I0403 09:33:49.690407 25928 net.cpp:148] Top shape: 24 64 56 56 (4816896)
I0403 09:33:49.690424 25928 net.cpp:156] Memory required for data: 226394496
I0403 09:33:49.690446 25928 layer_factory.hpp:77] Creating layer conv2/relu_3x3_reduce
I0403 09:33:49.690467 25928 net.cpp:91] Creating Layer conv2/relu_3x3_reduce
I0403 09:33:49.690485 25928 net.cpp:425] conv2/relu_3x3_reduce <- conv2/3x3_reduce
I0403 09:33:49.690505 25928 net.cpp:386] conv2/relu_3x3_reduce -> conv2/3x3_reduce (in-place)
I0403 09:33:49.690526 25928 net.cpp:141] Setting up conv2/relu_3x3_reduce
I0403 09:33:49.690543 25928 net.cpp:148] Top shape: 24 64 56 56 (4816896)
I0403 09:33:49.690559 25928 net.cpp:156] Memory required for data: 245662080
I0403 09:33:49.690575 25928 layer_factory.hpp:77] Creating layer conv2/3x3
I0403 09:33:49.690599 25928 net.cpp:91] Creating Layer conv2/3x3
I0403 09:33:49.690618 25928 net.cpp:425] conv2/3x3 <- conv2/3x3_reduce
I0403 09:33:49.690656 25928 net.cpp:399] conv2/3x3 -> conv2/3x3
I0403 09:33:49.693363 25928 net.cpp:141] Setting up conv2/3x3
I0403 09:33:49.693400 25928 net.cpp:148] Top shape: 24 192 56 56 (14450688)
I0403 09:33:49.693419 25928 net.cpp:156] Memory required for data: 303464832
I0403 09:33:49.693444 25928 layer_factory.hpp:77] Creating layer conv2/relu_3x3
I0403 09:33:49.693464 25928 net.cpp:91] Creating Layer conv2/relu_3x3
I0403 09:33:49.693482 25928 net.cpp:425] conv2/relu_3x3 <- conv2/3x3
I0403 09:33:49.693503 25928 net.cpp:386] conv2/relu_3x3 -> conv2/3x3 (in-place)
I0403 09:33:49.693524 25928 net.cpp:141] Setting up conv2/relu_3x3
I0403 09:33:49.693543 25928 net.cpp:148] Top shape: 24 192 56 56 (14450688)
I0403 09:33:49.693557 25928 net.cpp:156] Memory required for data: 361267584
I0403 09:33:49.693573 25928 layer_factory.hpp:77] Creating layer conv2/norm2
I0403 09:33:49.693593 25928 net.cpp:91] Creating Layer conv2/norm2
I0403 09:33:49.693610 25928 net.cpp:425] conv2/norm2 <- conv2/3x3
I0403 09:33:49.693630 25928 net.cpp:399] conv2/norm2 -> conv2/norm2
I0403 09:33:49.693680 25928 net.cpp:141] Setting up conv2/norm2
I0403 09:33:49.693704 25928 net.cpp:148] Top shape: 24 192 56 56 (14450688)
I0403 09:33:49.693720 25928 net.cpp:156] Memory required for data: 419070336
I0403 09:33:49.693735 25928 layer_factory.hpp:77] Creating layer pool2/3x3_s2
I0403 09:33:49.693754 25928 net.cpp:91] Creating Layer pool2/3x3_s2
I0403 09:33:49.693754 25934 blocking_queue.cpp:50] Waiting for data
I0403 09:33:49.693779 25928 net.cpp:425] pool2/3x3_s2 <- conv2/norm2
I0403 09:33:49.693831 25928 net.cpp:399] pool2/3x3_s2 -> pool2/3x3_s2
I0403 09:33:49.693886 25928 net.cpp:141] Setting up pool2/3x3_s2
I0403 09:33:49.693910 25928 net.cpp:148] Top shape: 24 192 28 28 (3612672)
I0403 09:33:49.693927 25928 net.cpp:156] Memory required for data: 433521024
I0403 09:33:49.693943 25928 layer_factory.hpp:77] Creating layer pool2/3x3_s2_pool2/3x3_s2_0_split
I0403 09:33:49.693961 25928 net.cpp:91] Creating Layer pool2/3x3_s2_pool2/3x3_s2_0_split
I0403 09:33:49.693979 25928 net.cpp:425] pool2/3x3_s2_pool2/3x3_s2_0_split <- pool2/3x3_s2
I0403 09:33:49.693997 25928 net.cpp:399] pool2/3x3_s2_pool2/3x3_s2_0_split -> pool2/3x3_s2_pool2/3x3_s2_0_split_0
I0403 09:33:49.694020 25928 net.cpp:399] pool2/3x3_s2_pool2/3x3_s2_0_split -> pool2/3x3_s2_pool2/3x3_s2_0_split_1
I0403 09:33:49.694041 25928 net.cpp:399] pool2/3x3_s2_pool2/3x3_s2_0_split -> pool2/3x3_s2_pool2/3x3_s2_0_split_2
I0403 09:33:49.694062 25928 net.cpp:399] pool2/3x3_s2_pool2/3x3_s2_0_split -> pool2/3x3_s2_pool2/3x3_s2_0_split_3
I0403 09:33:49.694123 25928 net.cpp:141] Setting up pool2/3x3_s2_pool2/3x3_s2_0_split
I0403 09:33:49.694149 25928 net.cpp:148] Top shape: 24 192 28 28 (3612672)
I0403 09:33:49.694165 25928 net.cpp:148] Top shape: 24 192 28 28 (3612672)
I0403 09:33:49.694182 25928 net.cpp:148] Top shape: 24 192 28 28 (3612672)
I0403 09:33:49.694200 25928 net.cpp:148] Top shape: 24 192 28 28 (3612672)
I0403 09:33:49.694216 25928 net.cpp:156] Memory required for data: 491323776
I0403 09:33:49.694231 25928 layer_factory.hpp:77] Creating layer inception_3a/1x1
I0403 09:33:49.694253 25928 net.cpp:91] Creating Layer inception_3a/1x1
I0403 09:33:49.694272 25928 net.cpp:425] inception_3a/1x1 <- pool2/3x3_s2_pool2/3x3_s2_0_split_0
I0403 09:33:49.694291 25928 net.cpp:399] inception_3a/1x1 -> inception_3a/1x1
I0403 09:33:49.695103 25928 net.cpp:141] Setting up inception_3a/1x1
I0403 09:33:49.695134 25928 net.cpp:148] Top shape: 24 64 28 28 (1204224)
I0403 09:33:49.695152 25928 net.cpp:156] Memory required for data: 496140672
I0403 09:33:49.695173 25928 layer_factory.hpp:77] Creating layer inception_3a/relu_1x1
I0403 09:33:49.695194 25928 net.cpp:91] Creating Layer inception_3a/relu_1x1
I0403 09:33:49.695210 25928 net.cpp:425] inception_3a/relu_1x1 <- inception_3a/1x1
I0403 09:33:49.695230 25928 net.cpp:386] inception_3a/relu_1x1 -> inception_3a/1x1 (in-place)
I0403 09:33:49.695252 25928 net.cpp:141] Setting up inception_3a/relu_1x1
I0403 09:33:49.695271 25928 net.cpp:148] Top shape: 24 64 28 28 (1204224)
I0403 09:33:49.695315 25928 net.cpp:156] Memory required for data: 500957568
I0403 09:33:49.695333 25928 layer_factory.hpp:77] Creating layer inception_3a/3x3_reduce
I0403 09:33:49.695358 25928 net.cpp:91] Creating Layer inception_3a/3x3_reduce
I0403 09:33:49.695377 25928 net.cpp:425] inception_3a/3x3_reduce <- pool2/3x3_s2_pool2/3x3_s2_0_split_1
I0403 09:33:49.695399 25928 net.cpp:399] inception_3a/3x3_reduce -> inception_3a/3x3_reduce
I0403 09:33:49.696261 25928 net.cpp:141] Setting up inception_3a/3x3_reduce
I0403 09:33:49.696296 25928 net.cpp:148] Top shape: 24 96 28 28 (1806336)
I0403 09:33:49.696315 25928 net.cpp:156] Memory required for data: 508182912
I0403 09:33:49.696336 25928 layer_factory.hpp:77] Creating layer inception_3a/relu_3x3_reduce
I0403 09:33:49.696358 25928 net.cpp:91] Creating Layer inception_3a/relu_3x3_reduce
I0403 09:33:49.696377 25928 net.cpp:425] inception_3a/relu_3x3_reduce <- inception_3a/3x3_reduce
I0403 09:33:49.696395 25928 net.cpp:386] inception_3a/relu_3x3_reduce -> inception_3a/3x3_reduce (in-place)
I0403 09:33:49.696415 25928 net.cpp:141] Setting up inception_3a/relu_3x3_reduce
I0403 09:33:49.696434 25928 net.cpp:148] Top shape: 24 96 28 28 (1806336)
I0403 09:33:49.696449 25928 net.cpp:156] Memory required for data: 515408256
I0403 09:33:49.696463 25928 layer_factory.hpp:77] Creating layer inception_3a/3x3
I0403 09:33:49.696488 25928 net.cpp:91] Creating Layer inception_3a/3x3
I0403 09:33:49.696506 25928 net.cpp:425] inception_3a/3x3 <- inception_3a/3x3_reduce
I0403 09:33:49.696529 25928 net.cpp:399] inception_3a/3x3 -> inception_3a/3x3
I0403 09:33:49.697383 25928 net.cpp:141] Setting up inception_3a/3x3
I0403 09:33:49.697410 25928 net.cpp:148] Top shape: 24 128 28 28 (2408448)
I0403 09:33:49.697427 25928 net.cpp:156] Memory required for data: 525042048
I0403 09:33:49.697445 25928 layer_factory.hpp:77] Creating layer inception_3a/relu_3x3
I0403 09:33:49.697466 25928 net.cpp:91] Creating Layer inception_3a/relu_3x3
I0403 09:33:49.697485 25928 net.cpp:425] inception_3a/relu_3x3 <- inception_3a/3x3
I0403 09:33:49.697504 25928 net.cpp:386] inception_3a/relu_3x3 -> inception_3a/3x3 (in-place)
I0403 09:33:49.697523 25928 net.cpp:141] Setting up inception_3a/relu_3x3
I0403 09:33:49.697542 25928 net.cpp:148] Top shape: 24 128 28 28 (2408448)
I0403 09:33:49.697557 25928 net.cpp:156] Memory required for data: 534675840
I0403 09:33:49.697572 25928 layer_factory.hpp:77] Creating layer inception_3a/5x5_reduce
I0403 09:33:49.697597 25928 net.cpp:91] Creating Layer inception_3a/5x5_reduce
I0403 09:33:49.697614 25928 net.cpp:425] inception_3a/5x5_reduce <- pool2/3x3_s2_pool2/3x3_s2_0_split_2
I0403 09:33:49.697633 25928 net.cpp:399] inception_3a/5x5_reduce -> inception_3a/5x5_reduce
I0403 09:33:49.697881 25928 net.cpp:141] Setting up inception_3a/5x5_reduce
I0403 09:33:49.697909 25928 net.cpp:148] Top shape: 24 16 28 28 (301056)
I0403 09:33:49.697926 25928 net.cpp:156] Memory required for data: 535880064
I0403 09:33:49.697945 25928 layer_factory.hpp:77] Creating layer inception_3a/relu_5x5_reduce
I0403 09:33:49.697964 25928 net.cpp:91] Creating Layer inception_3a/relu_5x5_reduce
I0403 09:33:49.697983 25928 net.cpp:425] inception_3a/relu_5x5_reduce <- inception_3a/5x5_reduce
I0403 09:33:49.698004 25928 net.cpp:386] inception_3a/relu_5x5_reduce -> inception_3a/5x5_reduce (in-place)
I0403 09:33:49.698035 25928 net.cpp:141] Setting up inception_3a/relu_5x5_reduce
I0403 09:33:49.698053 25928 net.cpp:148] Top shape: 24 16 28 28 (301056)
I0403 09:33:49.698068 25928 net.cpp:156] Memory required for data: 537084288
I0403 09:33:49.698083 25928 layer_factory.hpp:77] Creating layer inception_3a/5x5
I0403 09:33:49.698108 25928 net.cpp:91] Creating Layer inception_3a/5x5
I0403 09:33:49.698127 25928 net.cpp:425] inception_3a/5x5 <- inception_3a/5x5_reduce
I0403 09:33:49.698149 25928 net.cpp:399] inception_3a/5x5 -> inception_3a/5x5
I0403 09:33:49.698424 25928 net.cpp:141] Setting up inception_3a/5x5
I0403 09:33:49.698451 25928 net.cpp:148] Top shape: 24 32 28 28 (602112)
I0403 09:33:49.698482 25928 net.cpp:156] Memory required for data: 539492736
I0403 09:33:49.698503 25928 layer_factory.hpp:77] Creating layer inception_3a/relu_5x5
I0403 09:33:49.698521 25928 net.cpp:91] Creating Layer inception_3a/relu_5x5
I0403 09:33:49.698539 25928 net.cpp:425] inception_3a/relu_5x5 <- inception_3a/5x5
I0403 09:33:49.698556 25928 net.cpp:386] inception_3a/relu_5x5 -> inception_3a/5x5 (in-place)
I0403 09:33:49.698577 25928 net.cpp:141] Setting up inception_3a/relu_5x5
I0403 09:33:49.698596 25928 net.cpp:148] Top shape: 24 32 28 28 (602112)
I0403 09:33:49.698611 25928 net.cpp:156] Memory required for data: 541901184
I0403 09:33:49.698626 25928 layer_factory.hpp:77] Creating layer inception_3a/pool
I0403 09:33:49.698647 25928 net.cpp:91] Creating Layer inception_3a/pool
I0403 09:33:49.698663 25928 net.cpp:425] inception_3a/pool <- pool2/3x3_s2_pool2/3x3_s2_0_split_3
I0403 09:33:49.698683 25928 net.cpp:399] inception_3a/pool -> inception_3a/pool
I0403 09:33:49.698745 25928 net.cpp:141] Setting up inception_3a/pool
I0403 09:33:49.698770 25928 net.cpp:148] Top shape: 24 192 28 28 (3612672)
I0403 09:33:49.698796 25928 net.cpp:156] Memory required for data: 556351872
I0403 09:33:49.698812 25928 layer_factory.hpp:77] Creating layer inception_3a/pool_proj
I0403 09:33:49.698837 25928 net.cpp:91] Creating Layer inception_3a/pool_proj
I0403 09:33:49.698856 25928 net.cpp:425] inception_3a/pool_proj <- inception_3a/pool
I0403 09:33:49.698880 25928 net.cpp:399] inception_3a/pool_proj -> inception_3a/pool_proj
I0403 09:33:49.699131 25928 net.cpp:141] Setting up inception_3a/pool_proj
I0403 09:33:49.699157 25928 net.cpp:148] Top shape: 24 32 28 28 (602112)
I0403 09:33:49.699173 25928 net.cpp:156] Memory required for data: 558760320
I0403 09:33:49.699198 25928 layer_factory.hpp:77] Creating layer inception_3a/relu_pool_proj
I0403 09:33:49.699218 25928 net.cpp:91] Creating Layer inception_3a/relu_pool_proj
I0403 09:33:49.699236 25928 net.cpp:425] inception_3a/relu_pool_proj <- inception_3a/pool_proj
I0403 09:33:49.699257 25928 net.cpp:386] inception_3a/relu_pool_proj -> inception_3a/pool_proj (in-place)
I0403 09:33:49.699280 25928 net.cpp:141] Setting up inception_3a/relu_pool_proj
I0403 09:33:49.699297 25928 net.cpp:148] Top shape: 24 32 28 28 (602112)
I0403 09:33:49.699312 25928 net.cpp:156] Memory required for data: 561168768
I0403 09:33:49.699327 25928 layer_factory.hpp:77] Creating layer inception_3a/output
I0403 09:33:49.699347 25928 net.cpp:91] Creating Layer inception_3a/output
I0403 09:33:49.699362 25928 net.cpp:425] inception_3a/output <- inception_3a/1x1
I0403 09:33:49.699379 25928 net.cpp:425] inception_3a/output <- inception_3a/3x3
I0403 09:33:49.699396 25928 net.cpp:425] inception_3a/output <- inception_3a/5x5
I0403 09:33:49.699412 25928 net.cpp:425] inception_3a/output <- inception_3a/pool_proj
I0403 09:33:49.699430 25928 net.cpp:399] inception_3a/output -> inception_3a/output
I0403 09:33:49.699476 25928 net.cpp:141] Setting up inception_3a/output
I0403 09:33:49.699499 25928 net.cpp:148] Top shape: 24 256 28 28 (4816896)
I0403 09:33:49.699515 25928 net.cpp:156] Memory required for data: 580436352
I0403 09:33:49.699532 25928 layer_factory.hpp:77] Creating layer inception_3a/output_inception_3a/output_0_split
I0403 09:33:49.699549 25928 net.cpp:91] Creating Layer inception_3a/output_inception_3a/output_0_split
I0403 09:33:49.699565 25928 net.cpp:425] inception_3a/output_inception_3a/output_0_split <- inception_3a/output
I0403 09:33:49.699587 25928 net.cpp:399] inception_3a/output_inception_3a/output_0_split -> inception_3a/output_inception_3a/output_0_split_0
I0403 09:33:49.699609 25928 net.cpp:399] inception_3a/output_inception_3a/output_0_split -> inception_3a/output_inception_3a/output_0_split_1
I0403 09:33:49.699630 25928 net.cpp:399] inception_3a/output_inception_3a/output_0_split -> inception_3a/output_inception_3a/output_0_split_2
I0403 09:33:49.699652 25928 net.cpp:399] inception_3a/output_inception_3a/output_0_split -> inception_3a/output_inception_3a/output_0_split_3
I0403 09:33:49.699717 25928 net.cpp:141] Setting up inception_3a/output_inception_3a/output_0_split
I0403 09:33:49.699770 25928 net.cpp:148] Top shape: 24 256 28 28 (4816896)
I0403 09:33:49.699803 25928 net.cpp:148] Top shape: 24 256 28 28 (4816896)
I0403 09:33:49.699823 25928 net.cpp:148] Top shape: 24 256 28 28 (4816896)
I0403 09:33:49.699841 25928 net.cpp:148] Top shape: 24 256 28 28 (4816896)
I0403 09:33:49.699856 25928 net.cpp:156] Memory required for data: 657506688
I0403 09:33:49.699872 25928 layer_factory.hpp:77] Creating layer inception_3b/1x1
I0403 09:33:49.699898 25928 net.cpp:91] Creating Layer inception_3b/1x1
I0403 09:33:49.699915 25928 net.cpp:425] inception_3b/1x1 <- inception_3a/output_inception_3a/output_0_split_0
I0403 09:33:49.699937 25928 net.cpp:399] inception_3b/1x1 -> inception_3b/1x1
I0403 09:33:49.700335 25928 net.cpp:141] Setting up inception_3b/1x1
I0403 09:33:49.700361 25928 net.cpp:148] Top shape: 24 128 28 28 (2408448)
I0403 09:33:49.700376 25928 net.cpp:156] Memory required for data: 667140480
I0403 09:33:49.700393 25928 layer_factory.hpp:77] Creating layer inception_3b/relu_1x1
I0403 09:33:49.700412 25928 net.cpp:91] Creating Layer inception_3b/relu_1x1
I0403 09:33:49.700429 25928 net.cpp:425] inception_3b/relu_1x1 <- inception_3b/1x1
I0403 09:33:49.700448 25928 net.cpp:386] inception_3b/relu_1x1 -> inception_3b/1x1 (in-place)
I0403 09:33:49.700467 25928 net.cpp:141] Setting up inception_3b/relu_1x1
I0403 09:33:49.700484 25928 net.cpp:148] Top shape: 24 128 28 28 (2408448)
I0403 09:33:49.700498 25928 net.cpp:156] Memory required for data: 676774272
I0403 09:33:49.700515 25928 layer_factory.hpp:77] Creating layer inception_3b/3x3_reduce
I0403 09:33:49.700537 25928 net.cpp:91] Creating Layer inception_3b/3x3_reduce
I0403 09:33:49.700556 25928 net.cpp:425] inception_3b/3x3_reduce <- inception_3a/output_inception_3a/output_0_split_1
I0403 09:33:49.700578 25928 net.cpp:399] inception_3b/3x3_reduce -> inception_3b/3x3_reduce
I0403 09:33:49.700986 25928 net.cpp:141] Setting up inception_3b/3x3_reduce
I0403 09:33:49.701026 25928 net.cpp:148] Top shape: 24 128 28 28 (2408448)
I0403 09:33:49.701042 25928 net.cpp:156] Memory required for data: 686408064
I0403 09:33:49.701061 25928 layer_factory.hpp:77] Creating layer inception_3b/relu_3x3_reduce
I0403 09:33:49.701082 25928 net.cpp:91] Creating Layer inception_3b/relu_3x3_reduce
I0403 09:33:49.701102 25928 net.cpp:425] inception_3b/relu_3x3_reduce <- inception_3b/3x3_reduce
I0403 09:33:49.701122 25928 net.cpp:386] inception_3b/relu_3x3_reduce -> inception_3b/3x3_reduce (in-place)
I0403 09:33:49.701141 25928 net.cpp:141] Setting up inception_3b/relu_3x3_reduce
I0403 09:33:49.701159 25928 net.cpp:148] Top shape: 24 128 28 28 (2408448)
I0403 09:33:49.701174 25928 net.cpp:156] Memory required for data: 696041856
I0403 09:33:49.701189 25928 layer_factory.hpp:77] Creating layer inception_3b/3x3
I0403 09:33:49.701215 25928 net.cpp:91] Creating Layer inception_3b/3x3
I0403 09:33:49.701234 25928 net.cpp:425] inception_3b/3x3 <- inception_3b/3x3_reduce
I0403 09:33:49.701256 25928 net.cpp:399] inception_3b/3x3 -> inception_3b/3x3
I0403 09:33:49.703310 25928 net.cpp:141] Setting up inception_3b/3x3
I0403 09:33:49.703338 25928 net.cpp:148] Top shape: 24 192 28 28 (3612672)
I0403 09:33:49.703353 25928 net.cpp:156] Memory required for data: 710492544
I0403 09:33:49.703372 25928 layer_factory.hpp:77] Creating layer inception_3b/relu_3x3
I0403 09:33:49.703392 25928 net.cpp:91] Creating Layer inception_3b/relu_3x3
I0403 09:33:49.703408 25928 net.cpp:425] inception_3b/relu_3x3 <- inception_3b/3x3
I0403 09:33:49.703426 25928 net.cpp:386] inception_3b/relu_3x3 -> inception_3b/3x3 (in-place)
I0403 09:33:49.703445 25928 net.cpp:141] Setting up inception_3b/relu_3x3
I0403 09:33:49.703467 25928 net.cpp:148] Top shape: 24 192 28 28 (3612672)
I0403 09:33:49.703483 25928 net.cpp:156] Memory required for data: 724943232
I0403 09:33:49.703498 25928 layer_factory.hpp:77] Creating layer inception_3b/5x5_reduce
I0403 09:33:49.703519 25928 net.cpp:91] Creating Layer inception_3b/5x5_reduce
I0403 09:33:49.703552 25928 net.cpp:425] inception_3b/5x5_reduce <- inception_3a/output_inception_3a/output_0_split_2
I0403 09:33:49.703577 25928 net.cpp:399] inception_3b/5x5_reduce -> inception_3b/5x5_reduce
I0403 09:33:49.703832 25928 net.cpp:141] Setting up inception_3b/5x5_reduce
I0403 09:33:49.703858 25928 net.cpp:148] Top shape: 24 32 28 28 (602112)
I0403 09:33:49.703874 25928 net.cpp:156] Memory required for data: 727351680
I0403 09:33:49.703893 25928 layer_factory.hpp:77] Creating layer inception_3b/relu_5x5_reduce
I0403 09:33:49.703912 25928 net.cpp:91] Creating Layer inception_3b/relu_5x5_reduce
I0403 09:33:49.703929 25928 net.cpp:425] inception_3b/relu_5x5_reduce <- inception_3b/5x5_reduce
I0403 09:33:49.703948 25928 net.cpp:386] inception_3b/relu_5x5_reduce -> inception_3b/5x5_reduce (in-place)
I0403 09:33:49.703968 25928 net.cpp:141] Setting up inception_3b/relu_5x5_reduce
I0403 09:33:49.703986 25928 net.cpp:148] Top shape: 24 32 28 28 (602112)
I0403 09:33:49.704004 25928 net.cpp:156] Memory required for data: 729760128
I0403 09:33:49.704018 25928 layer_factory.hpp:77] Creating layer inception_3b/5x5
I0403 09:33:49.704042 25928 net.cpp:91] Creating Layer inception_3b/5x5
I0403 09:33:49.704061 25928 net.cpp:425] inception_3b/5x5 <- inception_3b/5x5_reduce
I0403 09:33:49.704083 25928 net.cpp:399] inception_3b/5x5 -> inception_3b/5x5
I0403 09:33:49.705267 25928 net.cpp:141] Setting up inception_3b/5x5
I0403 09:33:49.705296 25928 net.cpp:148] Top shape: 24 96 28 28 (1806336)
I0403 09:33:49.705313 25928 net.cpp:156] Memory required for data: 736985472
I0403 09:33:49.705332 25928 layer_factory.hpp:77] Creating layer inception_3b/relu_5x5
I0403 09:33:49.705351 25928 net.cpp:91] Creating Layer inception_3b/relu_5x5
I0403 09:33:49.705368 25928 net.cpp:425] inception_3b/relu_5x5 <- inception_3b/5x5
I0403 09:33:49.705389 25928 net.cpp:386] inception_3b/relu_5x5 -> inception_3b/5x5 (in-place)
I0403 09:33:49.705411 25928 net.cpp:141] Setting up inception_3b/relu_5x5
I0403 09:33:49.705430 25928 net.cpp:148] Top shape: 24 96 28 28 (1806336)
I0403 09:33:49.705443 25928 net.cpp:156] Memory required for data: 744210816
I0403 09:33:49.705458 25928 layer_factory.hpp:77] Creating layer inception_3b/pool
I0403 09:33:49.705476 25928 net.cpp:91] Creating Layer inception_3b/pool
I0403 09:33:49.705492 25928 net.cpp:425] inception_3b/pool <- inception_3a/output_inception_3a/output_0_split_3
I0403 09:33:49.705514 25928 net.cpp:399] inception_3b/pool -> inception_3b/pool
I0403 09:33:49.705564 25928 net.cpp:141] Setting up inception_3b/pool
I0403 09:33:49.705588 25928 net.cpp:148] Top shape: 24 256 28 28 (4816896)
I0403 09:33:49.705605 25928 net.cpp:156] Memory required for data: 763478400
I0403 09:33:49.705620 25928 layer_factory.hpp:77] Creating layer inception_3b/pool_proj
I0403 09:33:49.705643 25928 net.cpp:91] Creating Layer inception_3b/pool_proj
I0403 09:33:49.705662 25928 net.cpp:425] inception_3b/pool_proj <- inception_3b/pool
I0403 09:33:49.705684 25928 net.cpp:399] inception_3b/pool_proj -> inception_3b/pool_proj
I0403 09:33:49.705984 25928 net.cpp:141] Setting up inception_3b/pool_proj
I0403 09:33:49.706012 25928 net.cpp:148] Top shape: 24 64 28 28 (1204224)
I0403 09:33:49.706028 25928 net.cpp:156] Memory required for data: 768295296
I0403 09:33:49.706046 25928 layer_factory.hpp:77] Creating layer inception_3b/relu_pool_proj
I0403 09:33:49.706065 25928 net.cpp:91] Creating Layer inception_3b/relu_pool_proj
I0403 09:33:49.706082 25928 net.cpp:425] inception_3b/relu_pool_proj <- inception_3b/pool_proj
I0403 09:33:49.706101 25928 net.cpp:386] inception_3b/relu_pool_proj -> inception_3b/pool_proj (in-place)
I0403 09:33:49.706121 25928 net.cpp:141] Setting up inception_3b/relu_pool_proj
I0403 09:33:49.706140 25928 net.cpp:148] Top shape: 24 64 28 28 (1204224)
I0403 09:33:49.706154 25928 net.cpp:156] Memory required for data: 773112192
I0403 09:33:49.706169 25928 layer_factory.hpp:77] Creating layer inception_3b/output
I0403 09:33:49.706192 25928 net.cpp:91] Creating Layer inception_3b/output
I0403 09:33:49.706209 25928 net.cpp:425] inception_3b/output <- inception_3b/1x1
I0403 09:33:49.706243 25928 net.cpp:425] inception_3b/output <- inception_3b/3x3
I0403 09:33:49.706260 25928 net.cpp:425] inception_3b/output <- inception_3b/5x5
I0403 09:33:49.706277 25928 net.cpp:425] inception_3b/output <- inception_3b/pool_proj
I0403 09:33:49.706296 25928 net.cpp:399] inception_3b/output -> inception_3b/output
I0403 09:33:49.706336 25928 net.cpp:141] Setting up inception_3b/output
I0403 09:33:49.706359 25928 net.cpp:148] Top shape: 24 480 28 28 (9031680)
I0403 09:33:49.706375 25928 net.cpp:156] Memory required for data: 809238912
I0403 09:33:49.706390 25928 layer_factory.hpp:77] Creating layer pool3/3x3_s2
I0403 09:33:49.706408 25928 net.cpp:91] Creating Layer pool3/3x3_s2
I0403 09:33:49.706426 25928 net.cpp:425] pool3/3x3_s2 <- inception_3b/output
I0403 09:33:49.706447 25928 net.cpp:399] pool3/3x3_s2 -> pool3/3x3_s2
I0403 09:33:49.706497 25928 net.cpp:141] Setting up pool3/3x3_s2
I0403 09:33:49.706521 25928 net.cpp:148] Top shape: 24 480 14 14 (2257920)
I0403 09:33:49.706537 25928 net.cpp:156] Memory required for data: 818270592
I0403 09:33:49.706552 25928 layer_factory.hpp:77] Creating layer pool3/3x3_s2_pool3/3x3_s2_0_split
I0403 09:33:49.706573 25928 net.cpp:91] Creating Layer pool3/3x3_s2_pool3/3x3_s2_0_split
I0403 09:33:49.706590 25928 net.cpp:425] pool3/3x3_s2_pool3/3x3_s2_0_split <- pool3/3x3_s2
I0403 09:33:49.706609 25928 net.cpp:399] pool3/3x3_s2_pool3/3x3_s2_0_split -> pool3/3x3_s2_pool3/3x3_s2_0_split_0
I0403 09:33:49.706629 25928 net.cpp:399] pool3/3x3_s2_pool3/3x3_s2_0_split -> pool3/3x3_s2_pool3/3x3_s2_0_split_1
I0403 09:33:49.706653 25928 net.cpp:399] pool3/3x3_s2_pool3/3x3_s2_0_split -> pool3/3x3_s2_pool3/3x3_s2_0_split_2
I0403 09:33:49.706673 25928 net.cpp:399] pool3/3x3_s2_pool3/3x3_s2_0_split -> pool3/3x3_s2_pool3/3x3_s2_0_split_3
I0403 09:33:49.706737 25928 net.cpp:141] Setting up pool3/3x3_s2_pool3/3x3_s2_0_split
I0403 09:33:49.706760 25928 net.cpp:148] Top shape: 24 480 14 14 (2257920)
I0403 09:33:49.706804 25928 net.cpp:148] Top shape: 24 480 14 14 (2257920)
I0403 09:33:49.706830 25928 net.cpp:148] Top shape: 24 480 14 14 (2257920)
I0403 09:33:49.706848 25928 net.cpp:148] Top shape: 24 480 14 14 (2257920)
I0403 09:33:49.706863 25928 net.cpp:156] Memory required for data: 854397312
I0403 09:33:49.706879 25928 layer_factory.hpp:77] Creating layer inception_4a/1x1
I0403 09:33:49.706907 25928 net.cpp:91] Creating Layer inception_4a/1x1
I0403 09:33:49.706928 25928 net.cpp:425] inception_4a/1x1 <- pool3/3x3_s2_pool3/3x3_s2_0_split_0
I0403 09:33:49.706955 25928 net.cpp:399] inception_4a/1x1 -> inception_4a/1x1
I0403 09:33:49.707697 25928 net.cpp:141] Setting up inception_4a/1x1
I0403 09:33:49.707726 25928 net.cpp:148] Top shape: 24 192 14 14 (903168)
I0403 09:33:49.707741 25928 net.cpp:156] Memory required for data: 858009984
I0403 09:33:49.707762 25928 layer_factory.hpp:77] Creating layer inception_4a/relu_1x1
I0403 09:33:49.707785 25928 net.cpp:91] Creating Layer inception_4a/relu_1x1
I0403 09:33:49.707805 25928 net.cpp:425] inception_4a/relu_1x1 <- inception_4a/1x1
I0403 09:33:49.707823 25928 net.cpp:386] inception_4a/relu_1x1 -> inception_4a/1x1 (in-place)
I0403 09:33:49.707845 25928 net.cpp:141] Setting up inception_4a/relu_1x1
I0403 09:33:49.707864 25928 net.cpp:148] Top shape: 24 192 14 14 (903168)
I0403 09:33:49.707880 25928 net.cpp:156] Memory required for data: 861622656
I0403 09:33:49.707897 25928 layer_factory.hpp:77] Creating layer inception_4a/3x3_reduce
I0403 09:33:49.707921 25928 net.cpp:91] Creating Layer inception_4a/3x3_reduce
I0403 09:33:49.707939 25928 net.cpp:425] inception_4a/3x3_reduce <- pool3/3x3_s2_pool3/3x3_s2_0_split_1
I0403 09:33:49.707964 25928 net.cpp:399] inception_4a/3x3_reduce -> inception_4a/3x3_reduce
I0403 09:33:49.708452 25928 net.cpp:141] Setting up inception_4a/3x3_reduce
I0403 09:33:49.708479 25928 net.cpp:148] Top shape: 24 96 14 14 (451584)
I0403 09:33:49.708495 25928 net.cpp:156] Memory required for data: 863428992
I0403 09:33:49.708523 25928 layer_factory.hpp:77] Creating layer inception_4a/relu_3x3_reduce
I0403 09:33:49.708559 25928 net.cpp:91] Creating Layer inception_4a/relu_3x3_reduce
I0403 09:33:49.708580 25928 net.cpp:425] inception_4a/relu_3x3_reduce <- inception_4a/3x3_reduce
I0403 09:33:49.708598 25928 net.cpp:386] inception_4a/relu_3x3_reduce -> inception_4a/3x3_reduce (in-place)
I0403 09:33:49.708621 25928 net.cpp:141] Setting up inception_4a/relu_3x3_reduce
I0403 09:33:49.708638 25928 net.cpp:148] Top shape: 24 96 14 14 (451584)
I0403 09:33:49.708654 25928 net.cpp:156] Memory required for data: 865235328
I0403 09:33:49.708670 25928 layer_factory.hpp:77] Creating layer inception_4a/3x3
I0403 09:33:49.708695 25928 net.cpp:91] Creating Layer inception_4a/3x3
I0403 09:33:49.708714 25928 net.cpp:425] inception_4a/3x3 <- inception_4a/3x3_reduce
I0403 09:33:49.708737 25928 net.cpp:399] inception_4a/3x3 -> inception_4a/3x3
I0403 09:33:49.710556 25928 net.cpp:141] Setting up inception_4a/3x3
I0403 09:33:49.710590 25928 net.cpp:148] Top shape: 24 208 14 14 (978432)
I0403 09:33:49.710610 25928 net.cpp:156] Memory required for data: 869149056
I0403 09:33:49.710631 25928 layer_factory.hpp:77] Creating layer inception_4a/relu_3x3
I0403 09:33:49.710655 25928 net.cpp:91] Creating Layer inception_4a/relu_3x3
I0403 09:33:49.710675 25928 net.cpp:425] inception_4a/relu_3x3 <- inception_4a/3x3
I0403 09:33:49.710695 25928 net.cpp:386] inception_4a/relu_3x3 -> inception_4a/3x3 (in-place)
I0403 09:33:49.710719 25928 net.cpp:141] Setting up inception_4a/relu_3x3
I0403 09:33:49.710739 25928 net.cpp:148] Top shape: 24 208 14 14 (978432)
I0403 09:33:49.710757 25928 net.cpp:156] Memory required for data: 873062784
I0403 09:33:49.710774 25928 layer_factory.hpp:77] Creating layer inception_4a/5x5_reduce
I0403 09:33:49.710806 25928 net.cpp:91] Creating Layer inception_4a/5x5_reduce
I0403 09:33:49.710826 25928 net.cpp:425] inception_4a/5x5_reduce <- pool3/3x3_s2_pool3/3x3_s2_0_split_2
I0403 09:33:49.710850 25928 net.cpp:399] inception_4a/5x5_reduce -> inception_4a/5x5_reduce
I0403 09:33:49.711115 25928 net.cpp:141] Setting up inception_4a/5x5_reduce
I0403 09:33:49.711143 25928 net.cpp:148] Top shape: 24 16 14 14 (75264)
I0403 09:33:49.711159 25928 net.cpp:156] Memory required for data: 873363840
I0403 09:33:49.711181 25928 layer_factory.hpp:77] Creating layer inception_4a/relu_5x5_reduce
I0403 09:33:49.711205 25928 net.cpp:91] Creating Layer inception_4a/relu_5x5_reduce
I0403 09:33:49.711225 25928 net.cpp:425] inception_4a/relu_5x5_reduce <- inception_4a/5x5_reduce
I0403 09:33:49.711246 25928 net.cpp:386] inception_4a/relu_5x5_reduce -> inception_4a/5x5_reduce (in-place)
I0403 09:33:49.711268 25928 net.cpp:141] Setting up inception_4a/relu_5x5_reduce
I0403 09:33:49.711290 25928 net.cpp:148] Top shape: 24 16 14 14 (75264)
I0403 09:33:49.711305 25928 net.cpp:156] Memory required for data: 873664896
I0403 09:33:49.711321 25928 layer_factory.hpp:77] Creating layer inception_4a/5x5
I0403 09:33:49.711345 25928 net.cpp:91] Creating Layer inception_4a/5x5
I0403 09:33:49.711365 25928 net.cpp:425] inception_4a/5x5 <- inception_4a/5x5_reduce
I0403 09:33:49.711388 25928 net.cpp:399] inception_4a/5x5 -> inception_4a/5x5
I0403 09:33:49.711720 25928 net.cpp:141] Setting up inception_4a/5x5
I0403 09:33:49.711748 25928 net.cpp:148] Top shape: 24 48 14 14 (225792)
I0403 09:33:49.711765 25928 net.cpp:156] Memory required for data: 874568064
I0403 09:33:49.711788 25928 layer_factory.hpp:77] Creating layer inception_4a/relu_5x5
I0403 09:33:49.711812 25928 net.cpp:91] Creating Layer inception_4a/relu_5x5
I0403 09:33:49.711829 25928 net.cpp:425] inception_4a/relu_5x5 <- inception_4a/5x5
I0403 09:33:49.711848 25928 net.cpp:386] inception_4a/relu_5x5 -> inception_4a/5x5 (in-place)
I0403 09:33:49.711869 25928 net.cpp:141] Setting up inception_4a/relu_5x5
I0403 09:33:49.711889 25928 net.cpp:148] Top shape: 24 48 14 14 (225792)
I0403 09:33:49.711905 25928 net.cpp:156] Memory required for data: 875471232
I0403 09:33:49.711920 25928 layer_factory.hpp:77] Creating layer inception_4a/pool
I0403 09:33:49.711942 25928 net.cpp:91] Creating Layer inception_4a/pool
I0403 09:33:49.711961 25928 net.cpp:425] inception_4a/pool <- pool3/3x3_s2_pool3/3x3_s2_0_split_3
I0403 09:33:49.711997 25928 net.cpp:399] inception_4a/pool -> inception_4a/pool
I0403 09:33:49.712050 25928 net.cpp:141] Setting up inception_4a/pool
I0403 09:33:49.712075 25928 net.cpp:148] Top shape: 24 480 14 14 (2257920)
I0403 09:33:49.712091 25928 net.cpp:156] Memory required for data: 884502912
I0403 09:33:49.712107 25928 layer_factory.hpp:77] Creating layer inception_4a/pool_proj
I0403 09:33:49.712133 25928 net.cpp:91] Creating Layer inception_4a/pool_proj
I0403 09:33:49.712153 25928 net.cpp:425] inception_4a/pool_proj <- inception_4a/pool
I0403 09:33:49.712175 25928 net.cpp:399] inception_4a/pool_proj -> inception_4a/pool_proj
I0403 09:33:49.712566 25928 net.cpp:141] Setting up inception_4a/pool_proj
I0403 09:33:49.712594 25928 net.cpp:148] Top shape: 24 64 14 14 (301056)
I0403 09:33:49.712610 25928 net.cpp:156] Memory required for data: 885707136
I0403 09:33:49.712630 25928 layer_factory.hpp:77] Creating layer inception_4a/relu_pool_proj
I0403 09:33:49.712649 25928 net.cpp:91] Creating Layer inception_4a/relu_pool_proj
I0403 09:33:49.712666 25928 net.cpp:425] inception_4a/relu_pool_proj <- inception_4a/pool_proj
I0403 09:33:49.712688 25928 net.cpp:386] inception_4a/relu_pool_proj -> inception_4a/pool_proj (in-place)
I0403 09:33:49.712710 25928 net.cpp:141] Setting up inception_4a/relu_pool_proj
I0403 09:33:49.712730 25928 net.cpp:148] Top shape: 24 64 14 14 (301056)
I0403 09:33:49.712748 25928 net.cpp:156] Memory required for data: 886911360
I0403 09:33:49.712762 25928 layer_factory.hpp:77] Creating layer inception_4a/output
I0403 09:33:49.712785 25928 net.cpp:91] Creating Layer inception_4a/output
I0403 09:33:49.712806 25928 net.cpp:425] inception_4a/output <- inception_4a/1x1
I0403 09:33:49.712823 25928 net.cpp:425] inception_4a/output <- inception_4a/3x3
I0403 09:33:49.712841 25928 net.cpp:425] inception_4a/output <- inception_4a/5x5
I0403 09:33:49.712859 25928 net.cpp:425] inception_4a/output <- inception_4a/pool_proj
I0403 09:33:49.712878 25928 net.cpp:399] inception_4a/output -> inception_4a/output
I0403 09:33:49.712919 25928 net.cpp:141] Setting up inception_4a/output
I0403 09:33:49.712944 25928 net.cpp:148] Top shape: 24 512 14 14 (2408448)
I0403 09:33:49.712959 25928 net.cpp:156] Memory required for data: 896545152
I0403 09:33:49.712975 25928 layer_factory.hpp:77] Creating layer inception_4a/output_inception_4a/output_0_split
I0403 09:33:49.712996 25928 net.cpp:91] Creating Layer inception_4a/output_inception_4a/output_0_split
I0403 09:33:49.713014 25928 net.cpp:425] inception_4a/output_inception_4a/output_0_split <- inception_4a/output
I0403 09:33:49.713033 25928 net.cpp:399] inception_4a/output_inception_4a/output_0_split -> inception_4a/output_inception_4a/output_0_split_0
I0403 09:33:49.713054 25928 net.cpp:399] inception_4a/output_inception_4a/output_0_split -> inception_4a/output_inception_4a/output_0_split_1
I0403 09:33:49.713076 25928 net.cpp:399] inception_4a/output_inception_4a/output_0_split -> inception_4a/output_inception_4a/output_0_split_2
I0403 09:33:49.713099 25928 net.cpp:399] inception_4a/output_inception_4a/output_0_split -> inception_4a/output_inception_4a/output_0_split_3
I0403 09:33:49.713120 25928 net.cpp:399] inception_4a/output_inception_4a/output_0_split -> inception_4a/output_inception_4a/output_0_split_4
I0403 09:33:49.713199 25928 net.cpp:141] Setting up inception_4a/output_inception_4a/output_0_split
I0403 09:33:49.713223 25928 net.cpp:148] Top shape: 24 512 14 14 (2408448)
I0403 09:33:49.713241 25928 net.cpp:148] Top shape: 24 512 14 14 (2408448)
I0403 09:33:49.713258 25928 net.cpp:148] Top shape: 24 512 14 14 (2408448)
I0403 09:33:49.713274 25928 net.cpp:148] Top shape: 24 512 14 14 (2408448)
I0403 09:33:49.713290 25928 net.cpp:148] Top shape: 24 512 14 14 (2408448)
I0403 09:33:49.713306 25928 net.cpp:156] Memory required for data: 944714112
I0403 09:33:49.713321 25928 layer_factory.hpp:77] Creating layer loss1/ave_pool
I0403 09:33:49.713340 25928 net.cpp:91] Creating Layer loss1/ave_pool
I0403 09:33:49.713371 25928 net.cpp:425] loss1/ave_pool <- inception_4a/output_inception_4a/output_0_split_0
I0403 09:33:49.713397 25928 net.cpp:399] loss1/ave_pool -> loss1/ave_pool
I0403 09:33:49.713438 25928 net.cpp:141] Setting up loss1/ave_pool
I0403 09:33:49.713461 25928 net.cpp:148] Top shape: 24 512 4 4 (196608)
I0403 09:33:49.713477 25928 net.cpp:156] Memory required for data: 945500544
I0403 09:33:49.713492 25928 layer_factory.hpp:77] Creating layer loss1/conv
I0403 09:33:49.713518 25928 net.cpp:91] Creating Layer loss1/conv
I0403 09:33:49.713538 25928 net.cpp:425] loss1/conv <- loss1/ave_pool
I0403 09:33:49.713559 25928 net.cpp:399] loss1/conv -> loss1/conv
I0403 09:33:49.714157 25928 net.cpp:141] Setting up loss1/conv
I0403 09:33:49.714184 25928 net.cpp:148] Top shape: 24 128 4 4 (49152)
I0403 09:33:49.714201 25928 net.cpp:156] Memory required for data: 945697152
I0403 09:33:49.714220 25928 layer_factory.hpp:77] Creating layer loss1/relu_conv
I0403 09:33:49.714239 25928 net.cpp:91] Creating Layer loss1/relu_conv
I0403 09:33:49.714257 25928 net.cpp:425] loss1/relu_conv <- loss1/conv
I0403 09:33:49.714277 25928 net.cpp:386] loss1/relu_conv -> loss1/conv (in-place)
I0403 09:33:49.714299 25928 net.cpp:141] Setting up loss1/relu_conv
I0403 09:33:49.714318 25928 net.cpp:148] Top shape: 24 128 4 4 (49152)
I0403 09:33:49.714332 25928 net.cpp:156] Memory required for data: 945893760
I0403 09:33:49.714349 25928 layer_factory.hpp:77] Creating layer loss1/fc
I0403 09:33:49.714373 25928 net.cpp:91] Creating Layer loss1/fc
I0403 09:33:49.714392 25928 net.cpp:425] loss1/fc <- loss1/conv
I0403 09:33:49.714412 25928 net.cpp:399] loss1/fc -> loss1/fc
I0403 09:33:49.731168 25928 net.cpp:141] Setting up loss1/fc
I0403 09:33:49.731214 25928 net.cpp:148] Top shape: 24 1024 (24576)
I0403 09:33:49.731231 25928 net.cpp:156] Memory required for data: 945992064
I0403 09:33:49.731252 25928 layer_factory.hpp:77] Creating layer loss1/relu_fc
I0403 09:33:49.731274 25928 net.cpp:91] Creating Layer loss1/relu_fc
I0403 09:33:49.731292 25928 net.cpp:425] loss1/relu_fc <- loss1/fc
I0403 09:33:49.731314 25928 net.cpp:386] loss1/relu_fc -> loss1/fc (in-place)
I0403 09:33:49.731338 25928 net.cpp:141] Setting up loss1/relu_fc
I0403 09:33:49.731356 25928 net.cpp:148] Top shape: 24 1024 (24576)
I0403 09:33:49.731374 25928 net.cpp:156] Memory required for data: 946090368
I0403 09:33:49.731389 25928 layer_factory.hpp:77] Creating layer loss1/drop_fc
I0403 09:33:49.731423 25928 net.cpp:91] Creating Layer loss1/drop_fc
I0403 09:33:49.731444 25928 net.cpp:425] loss1/drop_fc <- loss1/fc
I0403 09:33:49.731463 25928 net.cpp:386] loss1/drop_fc -> loss1/fc (in-place)
I0403 09:33:49.731515 25928 net.cpp:141] Setting up loss1/drop_fc
I0403 09:33:49.731541 25928 net.cpp:148] Top shape: 24 1024 (24576)
I0403 09:33:49.731556 25928 net.cpp:156] Memory required for data: 946188672
I0403 09:33:49.731573 25928 layer_factory.hpp:77] Creating layer loss1/classifier_plantvillage
I0403 09:33:49.731595 25928 net.cpp:91] Creating Layer loss1/classifier_plantvillage
I0403 09:33:49.731612 25928 net.cpp:425] loss1/classifier_plantvillage <- loss1/fc
I0403 09:33:49.731634 25928 net.cpp:399] loss1/classifier_plantvillage -> loss1/classifier_plantvillage
I0403 09:33:49.732533 25928 net.cpp:141] Setting up loss1/classifier_plantvillage
I0403 09:33:49.732568 25928 net.cpp:148] Top shape: 24 38 (912)
I0403 09:33:49.732586 25928 net.cpp:156] Memory required for data: 946192320
I0403 09:33:49.732606 25928 layer_factory.hpp:77] Creating layer inception_4b/1x1
I0403 09:33:49.732630 25928 net.cpp:91] Creating Layer inception_4b/1x1
I0403 09:33:49.732650 25928 net.cpp:425] inception_4b/1x1 <- inception_4a/output_inception_4a/output_0_split_1
I0403 09:33:49.732673 25928 net.cpp:399] inception_4b/1x1 -> inception_4b/1x1
I0403 09:33:49.733382 25928 net.cpp:141] Setting up inception_4b/1x1
I0403 09:33:49.733410 25928 net.cpp:148] Top shape: 24 160 14 14 (752640)
I0403 09:33:49.733427 25928 net.cpp:156] Memory required for data: 949202880
I0403 09:33:49.733446 25928 layer_factory.hpp:77] Creating layer inception_4b/relu_1x1
I0403 09:33:49.733489 25928 net.cpp:91] Creating Layer inception_4b/relu_1x1
I0403 09:33:49.733507 25928 net.cpp:425] inception_4b/relu_1x1 <- inception_4b/1x1
I0403 09:33:49.733527 25928 net.cpp:386] inception_4b/relu_1x1 -> inception_4b/1x1 (in-place)
I0403 09:33:49.733548 25928 net.cpp:141] Setting up inception_4b/relu_1x1
I0403 09:33:49.733567 25928 net.cpp:148] Top shape: 24 160 14 14 (752640)
I0403 09:33:49.733582 25928 net.cpp:156] Memory required for data: 952213440
I0403 09:33:49.733597 25928 layer_factory.hpp:77] Creating layer inception_4b/3x3_reduce
I0403 09:33:49.733623 25928 net.cpp:91] Creating Layer inception_4b/3x3_reduce
I0403 09:33:49.733640 25928 net.cpp:425] inception_4b/3x3_reduce <- inception_4a/output_inception_4a/output_0_split_2
I0403 09:33:49.733664 25928 net.cpp:399] inception_4b/3x3_reduce -> inception_4b/3x3_reduce
I0403 09:33:49.734221 25928 net.cpp:141] Setting up inception_4b/3x3_reduce
I0403 09:33:49.734248 25928 net.cpp:148] Top shape: 24 112 14 14 (526848)
I0403 09:33:49.734266 25928 net.cpp:156] Memory required for data: 954320832
I0403 09:33:49.734284 25928 layer_factory.hpp:77] Creating layer inception_4b/relu_3x3_reduce
I0403 09:33:49.734304 25928 net.cpp:91] Creating Layer inception_4b/relu_3x3_reduce
I0403 09:33:49.734323 25928 net.cpp:425] inception_4b/relu_3x3_reduce <- inception_4b/3x3_reduce
I0403 09:33:49.734343 25928 net.cpp:386] inception_4b/relu_3x3_reduce -> inception_4b/3x3_reduce (in-place)
I0403 09:33:49.734362 25928 net.cpp:141] Setting up inception_4b/relu_3x3_reduce
I0403 09:33:49.734385 25928 net.cpp:148] Top shape: 24 112 14 14 (526848)
I0403 09:33:49.734400 25928 net.cpp:156] Memory required for data: 956428224
I0403 09:33:49.734416 25928 layer_factory.hpp:77] Creating layer inception_4b/3x3
I0403 09:33:49.734437 25928 net.cpp:91] Creating Layer inception_4b/3x3
I0403 09:33:49.734457 25928 net.cpp:425] inception_4b/3x3 <- inception_4b/3x3_reduce
I0403 09:33:49.734478 25928 net.cpp:399] inception_4b/3x3 -> inception_4b/3x3
I0403 09:33:49.736557 25928 net.cpp:141] Setting up inception_4b/3x3
I0403 09:33:49.736588 25928 net.cpp:148] Top shape: 24 224 14 14 (1053696)
I0403 09:33:49.736604 25928 net.cpp:156] Memory required for data: 960643008
I0403 09:33:49.736625 25928 layer_factory.hpp:77] Creating layer inception_4b/relu_3x3
I0403 09:33:49.736645 25928 net.cpp:91] Creating Layer inception_4b/relu_3x3
I0403 09:33:49.736665 25928 net.cpp:425] inception_4b/relu_3x3 <- inception_4b/3x3
I0403 09:33:49.736683 25928 net.cpp:386] inception_4b/relu_3x3 -> inception_4b/3x3 (in-place)
I0403 09:33:49.736706 25928 net.cpp:141] Setting up inception_4b/relu_3x3
I0403 09:33:49.736724 25928 net.cpp:148] Top shape: 24 224 14 14 (1053696)
I0403 09:33:49.736740 25928 net.cpp:156] Memory required for data: 964857792
I0403 09:33:49.736755 25928 layer_factory.hpp:77] Creating layer inception_4b/5x5_reduce
I0403 09:33:49.736784 25928 net.cpp:91] Creating Layer inception_4b/5x5_reduce
I0403 09:33:49.736805 25928 net.cpp:425] inception_4b/5x5_reduce <- inception_4a/output_inception_4a/output_0_split_3
I0403 09:33:49.736829 25928 net.cpp:399] inception_4b/5x5_reduce -> inception_4b/5x5_reduce
I0403 09:33:49.737131 25928 net.cpp:141] Setting up inception_4b/5x5_reduce
I0403 09:33:49.737159 25928 net.cpp:148] Top shape: 24 24 14 14 (112896)
I0403 09:33:49.737175 25928 net.cpp:156] Memory required for data: 965309376
I0403 09:33:49.737195 25928 layer_factory.hpp:77] Creating layer inception_4b/relu_5x5_reduce
I0403 09:33:49.737213 25928 net.cpp:91] Creating Layer inception_4b/relu_5x5_reduce
I0403 09:33:49.737231 25928 net.cpp:425] inception_4b/relu_5x5_reduce <- inception_4b/5x5_reduce
I0403 09:33:49.737249 25928 net.cpp:386] inception_4b/relu_5x5_reduce -> inception_4b/5x5_reduce (in-place)
I0403 09:33:49.737272 25928 net.cpp:141] Setting up inception_4b/relu_5x5_reduce
I0403 09:33:49.737292 25928 net.cpp:148] Top shape: 24 24 14 14 (112896)
I0403 09:33:49.737308 25928 net.cpp:156] Memory required for data: 965760960
I0403 09:33:49.737323 25928 layer_factory.hpp:77] Creating layer inception_4b/5x5
I0403 09:33:49.737363 25928 net.cpp:91] Creating Layer inception_4b/5x5
I0403 09:33:49.737385 25928 net.cpp:425] inception_4b/5x5 <- inception_4b/5x5_reduce
I0403 09:33:49.737408 25928 net.cpp:399] inception_4b/5x5 -> inception_4b/5x5
I0403 09:33:49.737861 25928 net.cpp:141] Setting up inception_4b/5x5
I0403 09:33:49.737889 25928 net.cpp:148] Top shape: 24 64 14 14 (301056)
I0403 09:33:49.737905 25928 net.cpp:156] Memory required for data: 966965184
I0403 09:33:49.737923 25928 layer_factory.hpp:77] Creating layer inception_4b/relu_5x5
I0403 09:33:49.737943 25928 net.cpp:91] Creating Layer inception_4b/relu_5x5
I0403 09:33:49.737960 25928 net.cpp:425] inception_4b/relu_5x5 <- inception_4b/5x5
I0403 09:33:49.737980 25928 net.cpp:386] inception_4b/relu_5x5 -> inception_4b/5x5 (in-place)
I0403 09:33:49.738000 25928 net.cpp:141] Setting up inception_4b/relu_5x5
I0403 09:33:49.738018 25928 net.cpp:148] Top shape: 24 64 14 14 (301056)
I0403 09:33:49.738034 25928 net.cpp:156] Memory required for data: 968169408
I0403 09:33:49.738049 25928 layer_factory.hpp:77] Creating layer inception_4b/pool
I0403 09:33:49.738070 25928 net.cpp:91] Creating Layer inception_4b/pool
I0403 09:33:49.738088 25928 net.cpp:425] inception_4b/pool <- inception_4a/output_inception_4a/output_0_split_4
I0403 09:33:49.738108 25928 net.cpp:399] inception_4b/pool -> inception_4b/pool
I0403 09:33:49.738163 25928 net.cpp:141] Setting up inception_4b/pool
I0403 09:33:49.738188 25928 net.cpp:148] Top shape: 24 512 14 14 (2408448)
I0403 09:33:49.738204 25928 net.cpp:156] Memory required for data: 977803200
I0403 09:33:49.738219 25928 layer_factory.hpp:77] Creating layer inception_4b/pool_proj
I0403 09:33:49.738245 25928 net.cpp:91] Creating Layer inception_4b/pool_proj
I0403 09:33:49.738265 25928 net.cpp:425] inception_4b/pool_proj <- inception_4b/pool
I0403 09:33:49.738287 25928 net.cpp:399] inception_4b/pool_proj -> inception_4b/pool_proj
I0403 09:33:49.738698 25928 net.cpp:141] Setting up inception_4b/pool_proj
I0403 09:33:49.738729 25928 net.cpp:148] Top shape: 24 64 14 14 (301056)
I0403 09:33:49.738745 25928 net.cpp:156] Memory required for data: 979007424
I0403 09:33:49.738765 25928 layer_factory.hpp:77] Creating layer inception_4b/relu_pool_proj
I0403 09:33:49.738797 25928 net.cpp:91] Creating Layer inception_4b/relu_pool_proj
I0403 09:33:49.738818 25928 net.cpp:425] inception_4b/relu_pool_proj <- inception_4b/pool_proj
I0403 09:33:49.738838 25928 net.cpp:386] inception_4b/relu_pool_proj -> inception_4b/pool_proj (in-place)
I0403 09:33:49.738859 25928 net.cpp:141] Setting up inception_4b/relu_pool_proj
I0403 09:33:49.738878 25928 net.cpp:148] Top shape: 24 64 14 14 (301056)
I0403 09:33:49.738893 25928 net.cpp:156] Memory required for data: 980211648
I0403 09:33:49.738909 25928 layer_factory.hpp:77] Creating layer inception_4b/output
I0403 09:33:49.738929 25928 net.cpp:91] Creating Layer inception_4b/output
I0403 09:33:49.738945 25928 net.cpp:425] inception_4b/output <- inception_4b/1x1
I0403 09:33:49.738962 25928 net.cpp:425] inception_4b/output <- inception_4b/3x3
I0403 09:33:49.738981 25928 net.cpp:425] inception_4b/output <- inception_4b/5x5
I0403 09:33:49.738997 25928 net.cpp:425] inception_4b/output <- inception_4b/pool_proj
I0403 09:33:49.739017 25928 net.cpp:399] inception_4b/output -> inception_4b/output
I0403 09:33:49.739058 25928 net.cpp:141] Setting up inception_4b/output
I0403 09:33:49.739083 25928 net.cpp:148] Top shape: 24 512 14 14 (2408448)
I0403 09:33:49.739102 25928 net.cpp:156] Memory required for data: 989845440
I0403 09:33:49.739119 25928 layer_factory.hpp:77] Creating layer inception_4b/output_inception_4b/output_0_split
I0403 09:33:49.739138 25928 net.cpp:91] Creating Layer inception_4b/output_inception_4b/output_0_split
I0403 09:33:49.739156 25928 net.cpp:425] inception_4b/output_inception_4b/output_0_split <- inception_4b/output
I0403 09:33:49.739176 25928 net.cpp:399] inception_4b/output_inception_4b/output_0_split -> inception_4b/output_inception_4b/output_0_split_0
I0403 09:33:49.739197 25928 net.cpp:399] inception_4b/output_inception_4b/output_0_split -> inception_4b/output_inception_4b/output_0_split_1
I0403 09:33:49.739233 25928 net.cpp:399] inception_4b/output_inception_4b/output_0_split -> inception_4b/output_inception_4b/output_0_split_2
I0403 09:33:49.739258 25928 net.cpp:399] inception_4b/output_inception_4b/output_0_split -> inception_4b/output_inception_4b/output_0_split_3
I0403 09:33:49.739329 25928 net.cpp:141] Setting up inception_4b/output_inception_4b/output_0_split
I0403 09:33:49.739353 25928 net.cpp:148] Top shape: 24 512 14 14 (2408448)
I0403 09:33:49.739372 25928 net.cpp:148] Top shape: 24 512 14 14 (2408448)
I0403 09:33:49.739387 25928 net.cpp:148] Top shape: 24 512 14 14 (2408448)
I0403 09:33:49.739404 25928 net.cpp:148] Top shape: 24 512 14 14 (2408448)
I0403 09:33:49.739419 25928 net.cpp:156] Memory required for data: 1028380608
I0403 09:33:49.739434 25928 layer_factory.hpp:77] Creating layer inception_4c/1x1
I0403 09:33:49.739459 25928 net.cpp:91] Creating Layer inception_4c/1x1
I0403 09:33:49.739478 25928 net.cpp:425] inception_4c/1x1 <- inception_4b/output_inception_4b/output_0_split_0
I0403 09:33:49.739506 25928 net.cpp:399] inception_4c/1x1 -> inception_4c/1x1
I0403 09:33:49.740102 25928 net.cpp:141] Setting up inception_4c/1x1
I0403 09:33:49.740128 25928 net.cpp:148] Top shape: 24 128 14 14 (602112)
I0403 09:33:49.740144 25928 net.cpp:156] Memory required for data: 1030789056
I0403 09:33:49.740164 25928 layer_factory.hpp:77] Creating layer inception_4c/relu_1x1
I0403 09:33:49.740185 25928 net.cpp:91] Creating Layer inception_4c/relu_1x1
I0403 09:33:49.740203 25928 net.cpp:425] inception_4c/relu_1x1 <- inception_4c/1x1
I0403 09:33:49.740226 25928 net.cpp:386] inception_4c/relu_1x1 -> inception_4c/1x1 (in-place)
I0403 09:33:49.740247 25928 net.cpp:141] Setting up inception_4c/relu_1x1
I0403 09:33:49.740267 25928 net.cpp:148] Top shape: 24 128 14 14 (602112)
I0403 09:33:49.740281 25928 net.cpp:156] Memory required for data: 1033197504
I0403 09:33:49.740298 25928 layer_factory.hpp:77] Creating layer inception_4c/3x3_reduce
I0403 09:33:49.740321 25928 net.cpp:91] Creating Layer inception_4c/3x3_reduce
I0403 09:33:49.740340 25928 net.cpp:425] inception_4c/3x3_reduce <- inception_4b/output_inception_4b/output_0_split_1
I0403 09:33:49.740361 25928 net.cpp:399] inception_4c/3x3_reduce -> inception_4c/3x3_reduce
I0403 09:33:49.741518 25928 net.cpp:141] Setting up inception_4c/3x3_reduce
I0403 09:33:49.741549 25928 net.cpp:148] Top shape: 24 128 14 14 (602112)
I0403 09:33:49.741565 25928 net.cpp:156] Memory required for data: 1035605952
I0403 09:33:49.741585 25928 layer_factory.hpp:77] Creating layer inception_4c/relu_3x3_reduce
I0403 09:33:49.741603 25928 net.cpp:91] Creating Layer inception_4c/relu_3x3_reduce
I0403 09:33:49.741621 25928 net.cpp:425] inception_4c/relu_3x3_reduce <- inception_4c/3x3_reduce
I0403 09:33:49.741641 25928 net.cpp:386] inception_4c/relu_3x3_reduce -> inception_4c/3x3_reduce (in-place)
I0403 09:33:49.741662 25928 net.cpp:141] Setting up inception_4c/relu_3x3_reduce
I0403 09:33:49.741680 25928 net.cpp:148] Top shape: 24 128 14 14 (602112)
I0403 09:33:49.741696 25928 net.cpp:156] Memory required for data: 1038014400
I0403 09:33:49.741713 25928 layer_factory.hpp:77] Creating layer inception_4c/3x3
I0403 09:33:49.741736 25928 net.cpp:91] Creating Layer inception_4c/3x3
I0403 09:33:49.741755 25928 net.cpp:425] inception_4c/3x3 <- inception_4c/3x3_reduce
I0403 09:33:49.741782 25928 net.cpp:399] inception_4c/3x3 -> inception_4c/3x3
I0403 09:33:49.744314 25928 net.cpp:141] Setting up inception_4c/3x3
I0403 09:33:49.744348 25928 net.cpp:148] Top shape: 24 256 14 14 (1204224)
I0403 09:33:49.744366 25928 net.cpp:156] Memory required for data: 1042831296
I0403 09:33:49.744400 25928 layer_factory.hpp:77] Creating layer inception_4c/relu_3x3
I0403 09:33:49.744424 25928 net.cpp:91] Creating Layer inception_4c/relu_3x3
I0403 09:33:49.744442 25928 net.cpp:425] inception_4c/relu_3x3 <- inception_4c/3x3
I0403 09:33:49.744462 25928 net.cpp:386] inception_4c/relu_3x3 -> inception_4c/3x3 (in-place)
I0403 09:33:49.744498 25928 net.cpp:141] Setting up inception_4c/relu_3x3
I0403 09:33:49.744519 25928 net.cpp:148] Top shape: 24 256 14 14 (1204224)
I0403 09:33:49.744536 25928 net.cpp:156] Memory required for data: 1047648192
I0403 09:33:49.744551 25928 layer_factory.hpp:77] Creating layer inception_4c/5x5_reduce
I0403 09:33:49.744576 25928 net.cpp:91] Creating Layer inception_4c/5x5_reduce
I0403 09:33:49.744596 25928 net.cpp:425] inception_4c/5x5_reduce <- inception_4b/output_inception_4b/output_0_split_2
I0403 09:33:49.744617 25928 net.cpp:399] inception_4c/5x5_reduce -> inception_4c/5x5_reduce
I0403 09:33:49.744930 25928 net.cpp:141] Setting up inception_4c/5x5_reduce
I0403 09:33:49.744956 25928 net.cpp:148] Top shape: 24 24 14 14 (112896)
I0403 09:33:49.744972 25928 net.cpp:156] Memory required for data: 1048099776
I0403 09:33:49.744992 25928 layer_factory.hpp:77] Creating layer inception_4c/relu_5x5_reduce
I0403 09:33:49.745012 25928 net.cpp:91] Creating Layer inception_4c/relu_5x5_reduce
I0403 09:33:49.745029 25928 net.cpp:425] inception_4c/relu_5x5_reduce <- inception_4c/5x5_reduce
I0403 09:33:49.745050 25928 net.cpp:386] inception_4c/relu_5x5_reduce -> inception_4c/5x5_reduce (in-place)
I0403 09:33:49.745072 25928 net.cpp:141] Setting up inception_4c/relu_5x5_reduce
I0403 09:33:49.745090 25928 net.cpp:148] Top shape: 24 24 14 14 (112896)
I0403 09:33:49.745105 25928 net.cpp:156] Memory required for data: 1048551360
I0403 09:33:49.745121 25928 layer_factory.hpp:77] Creating layer inception_4c/5x5
I0403 09:33:49.745146 25928 net.cpp:91] Creating Layer inception_4c/5x5
I0403 09:33:49.745164 25928 net.cpp:425] inception_4c/5x5 <- inception_4c/5x5_reduce
I0403 09:33:49.745184 25928 net.cpp:399] inception_4c/5x5 -> inception_4c/5x5
I0403 09:33:49.745614 25928 net.cpp:141] Setting up inception_4c/5x5
I0403 09:33:49.745640 25928 net.cpp:148] Top shape: 24 64 14 14 (301056)
I0403 09:33:49.745656 25928 net.cpp:156] Memory required for data: 1049755584
I0403 09:33:49.745674 25928 layer_factory.hpp:77] Creating layer inception_4c/relu_5x5
I0403 09:33:49.745697 25928 net.cpp:91] Creating Layer inception_4c/relu_5x5
I0403 09:33:49.745715 25928 net.cpp:425] inception_4c/relu_5x5 <- inception_4c/5x5
I0403 09:33:49.745735 25928 net.cpp:386] inception_4c/relu_5x5 -> inception_4c/5x5 (in-place)
I0403 09:33:49.745754 25928 net.cpp:141] Setting up inception_4c/relu_5x5
I0403 09:33:49.745772 25928 net.cpp:148] Top shape: 24 64 14 14 (301056)
I0403 09:33:49.745792 25928 net.cpp:156] Memory required for data: 1050959808
I0403 09:33:49.745807 25928 layer_factory.hpp:77] Creating layer inception_4c/pool
I0403 09:33:49.745826 25928 net.cpp:91] Creating Layer inception_4c/pool
I0403 09:33:49.745842 25928 net.cpp:425] inception_4c/pool <- inception_4b/output_inception_4b/output_0_split_3
I0403 09:33:49.745863 25928 net.cpp:399] inception_4c/pool -> inception_4c/pool
I0403 09:33:49.745916 25928 net.cpp:141] Setting up inception_4c/pool
I0403 09:33:49.745941 25928 net.cpp:148] Top shape: 24 512 14 14 (2408448)
I0403 09:33:49.745957 25928 net.cpp:156] Memory required for data: 1060593600
I0403 09:33:49.745972 25928 layer_factory.hpp:77] Creating layer inception_4c/pool_proj
I0403 09:33:49.745997 25928 net.cpp:91] Creating Layer inception_4c/pool_proj
I0403 09:33:49.746016 25928 net.cpp:425] inception_4c/pool_proj <- inception_4c/pool
I0403 09:33:49.746043 25928 net.cpp:399] inception_4c/pool_proj -> inception_4c/pool_proj
I0403 09:33:49.746446 25928 net.cpp:141] Setting up inception_4c/pool_proj
I0403 09:33:49.746474 25928 net.cpp:148] Top shape: 24 64 14 14 (301056)
I0403 09:33:49.746490 25928 net.cpp:156] Memory required for data: 1061797824
I0403 09:33:49.746507 25928 layer_factory.hpp:77] Creating layer inception_4c/relu_pool_proj
I0403 09:33:49.746526 25928 net.cpp:91] Creating Layer inception_4c/relu_pool_proj
I0403 09:33:49.746542 25928 net.cpp:425] inception_4c/relu_pool_proj <- inception_4c/pool_proj
I0403 09:33:49.746562 25928 net.cpp:386] inception_4c/relu_pool_proj -> inception_4c/pool_proj (in-place)
I0403 09:33:49.746584 25928 net.cpp:141] Setting up inception_4c/relu_pool_proj
I0403 09:33:49.746616 25928 net.cpp:148] Top shape: 24 64 14 14 (301056)
I0403 09:33:49.746634 25928 net.cpp:156] Memory required for data: 1063002048
I0403 09:33:49.746649 25928 layer_factory.hpp:77] Creating layer inception_4c/output
I0403 09:33:49.746665 25928 net.cpp:91] Creating Layer inception_4c/output
I0403 09:33:49.746682 25928 net.cpp:425] inception_4c/output <- inception_4c/1x1
I0403 09:33:49.746700 25928 net.cpp:425] inception_4c/output <- inception_4c/3x3
I0403 09:33:49.746716 25928 net.cpp:425] inception_4c/output <- inception_4c/5x5
I0403 09:33:49.746733 25928 net.cpp:425] inception_4c/output <- inception_4c/pool_proj
I0403 09:33:49.746752 25928 net.cpp:399] inception_4c/output -> inception_4c/output
I0403 09:33:49.746812 25928 net.cpp:141] Setting up inception_4c/output
I0403 09:33:49.746837 25928 net.cpp:148] Top shape: 24 512 14 14 (2408448)
I0403 09:33:49.746855 25928 net.cpp:156] Memory required for data: 1072635840
I0403 09:33:49.746870 25928 layer_factory.hpp:77] Creating layer inception_4c/output_inception_4c/output_0_split
I0403 09:33:49.746888 25928 net.cpp:91] Creating Layer inception_4c/output_inception_4c/output_0_split
I0403 09:33:49.746906 25928 net.cpp:425] inception_4c/output_inception_4c/output_0_split <- inception_4c/output
I0403 09:33:49.746927 25928 net.cpp:399] inception_4c/output_inception_4c/output_0_split -> inception_4c/output_inception_4c/output_0_split_0
I0403 09:33:49.746949 25928 net.cpp:399] inception_4c/output_inception_4c/output_0_split -> inception_4c/output_inception_4c/output_0_split_1
I0403 09:33:49.746971 25928 net.cpp:399] inception_4c/output_inception_4c/output_0_split -> inception_4c/output_inception_4c/output_0_split_2
I0403 09:33:49.746992 25928 net.cpp:399] inception_4c/output_inception_4c/output_0_split -> inception_4c/output_inception_4c/output_0_split_3
I0403 09:33:49.747064 25928 net.cpp:141] Setting up inception_4c/output_inception_4c/output_0_split
I0403 09:33:49.747092 25928 net.cpp:148] Top shape: 24 512 14 14 (2408448)
I0403 09:33:49.747123 25928 net.cpp:148] Top shape: 24 512 14 14 (2408448)
I0403 09:33:49.747138 25928 net.cpp:148] Top shape: 24 512 14 14 (2408448)
I0403 09:33:49.747154 25928 net.cpp:148] Top shape: 24 512 14 14 (2408448)
I0403 09:33:49.747169 25928 net.cpp:156] Memory required for data: 1111171008
I0403 09:33:49.747184 25928 layer_factory.hpp:77] Creating layer inception_4d/1x1
I0403 09:33:49.747207 25928 net.cpp:91] Creating Layer inception_4d/1x1
I0403 09:33:49.747225 25928 net.cpp:425] inception_4d/1x1 <- inception_4c/output_inception_4c/output_0_split_0
I0403 09:33:49.747246 25928 net.cpp:399] inception_4d/1x1 -> inception_4d/1x1
I0403 09:33:49.747783 25928 net.cpp:141] Setting up inception_4d/1x1
I0403 09:33:49.747809 25928 net.cpp:148] Top shape: 24 112 14 14 (526848)
I0403 09:33:49.747825 25928 net.cpp:156] Memory required for data: 1113278400
I0403 09:33:49.747844 25928 layer_factory.hpp:77] Creating layer inception_4d/relu_1x1
I0403 09:33:49.747864 25928 net.cpp:91] Creating Layer inception_4d/relu_1x1
I0403 09:33:49.747880 25928 net.cpp:425] inception_4d/relu_1x1 <- inception_4d/1x1
I0403 09:33:49.747901 25928 net.cpp:386] inception_4d/relu_1x1 -> inception_4d/1x1 (in-place)
I0403 09:33:49.747923 25928 net.cpp:141] Setting up inception_4d/relu_1x1
I0403 09:33:49.747942 25928 net.cpp:148] Top shape: 24 112 14 14 (526848)
I0403 09:33:49.747957 25928 net.cpp:156] Memory required for data: 1115385792
I0403 09:33:49.747972 25928 layer_factory.hpp:77] Creating layer inception_4d/3x3_reduce
I0403 09:33:49.747995 25928 net.cpp:91] Creating Layer inception_4d/3x3_reduce
I0403 09:33:49.748015 25928 net.cpp:425] inception_4d/3x3_reduce <- inception_4c/output_inception_4c/output_0_split_1
I0403 09:33:49.748035 25928 net.cpp:399] inception_4d/3x3_reduce -> inception_4d/3x3_reduce
I0403 09:33:49.748682 25928 net.cpp:141] Setting up inception_4d/3x3_reduce
I0403 09:33:49.748708 25928 net.cpp:148] Top shape: 24 144 14 14 (677376)
I0403 09:33:49.748723 25928 net.cpp:156] Memory required for data: 1118095296
I0403 09:33:49.748755 25928 layer_factory.hpp:77] Creating layer inception_4d/relu_3x3_reduce
I0403 09:33:49.748780 25928 net.cpp:91] Creating Layer inception_4d/relu_3x3_reduce
I0403 09:33:49.748800 25928 net.cpp:425] inception_4d/relu_3x3_reduce <- inception_4d/3x3_reduce
I0403 09:33:49.748821 25928 net.cpp:386] inception_4d/relu_3x3_reduce -> inception_4d/3x3_reduce (in-place)
I0403 09:33:49.748844 25928 net.cpp:141] Setting up inception_4d/relu_3x3_reduce
I0403 09:33:49.748863 25928 net.cpp:148] Top shape: 24 144 14 14 (677376)
I0403 09:33:49.748878 25928 net.cpp:156] Memory required for data: 1120804800
I0403 09:33:49.748893 25928 layer_factory.hpp:77] Creating layer inception_4d/3x3
I0403 09:33:49.748916 25928 net.cpp:91] Creating Layer inception_4d/3x3
I0403 09:33:49.748936 25928 net.cpp:425] inception_4d/3x3 <- inception_4d/3x3_reduce
I0403 09:33:49.748956 25928 net.cpp:399] inception_4d/3x3 -> inception_4d/3x3
I0403 09:33:49.752145 25928 net.cpp:141] Setting up inception_4d/3x3
I0403 09:33:49.752173 25928 net.cpp:148] Top shape: 24 288 14 14 (1354752)
I0403 09:33:49.752190 25928 net.cpp:156] Memory required for data: 1126223808
I0403 09:33:49.752208 25928 layer_factory.hpp:77] Creating layer inception_4d/relu_3x3
I0403 09:33:49.752230 25928 net.cpp:91] Creating Layer inception_4d/relu_3x3
I0403 09:33:49.752249 25928 net.cpp:425] inception_4d/relu_3x3 <- inception_4d/3x3
I0403 09:33:49.752269 25928 net.cpp:386] inception_4d/relu_3x3 -> inception_4d/3x3 (in-place)
I0403 09:33:49.752288 25928 net.cpp:141] Setting up inception_4d/relu_3x3
I0403 09:33:49.752305 25928 net.cpp:148] Top shape: 24 288 14 14 (1354752)
I0403 09:33:49.752320 25928 net.cpp:156] Memory required for data: 1131642816
I0403 09:33:49.752334 25928 layer_factory.hpp:77] Creating layer inception_4d/5x5_reduce
I0403 09:33:49.752362 25928 net.cpp:91] Creating Layer inception_4d/5x5_reduce
I0403 09:33:49.752379 25928 net.cpp:425] inception_4d/5x5_reduce <- inception_4c/output_inception_4c/output_0_split_2
I0403 09:33:49.752403 25928 net.cpp:399] inception_4d/5x5_reduce -> inception_4d/5x5_reduce
I0403 09:33:49.752718 25928 net.cpp:141] Setting up inception_4d/5x5_reduce
I0403 09:33:49.752744 25928 net.cpp:148] Top shape: 24 32 14 14 (150528)
I0403 09:33:49.752760 25928 net.cpp:156] Memory required for data: 1132244928
I0403 09:33:49.752784 25928 layer_factory.hpp:77] Creating layer inception_4d/relu_5x5_reduce
I0403 09:33:49.752804 25928 net.cpp:91] Creating Layer inception_4d/relu_5x5_reduce
I0403 09:33:49.752822 25928 net.cpp:425] inception_4d/relu_5x5_reduce <- inception_4d/5x5_reduce
I0403 09:33:49.752840 25928 net.cpp:386] inception_4d/relu_5x5_reduce -> inception_4d/5x5_reduce (in-place)
I0403 09:33:49.752861 25928 net.cpp:141] Setting up inception_4d/relu_5x5_reduce
I0403 09:33:49.752878 25928 net.cpp:148] Top shape: 24 32 14 14 (150528)
I0403 09:33:49.752893 25928 net.cpp:156] Memory required for data: 1132847040
I0403 09:33:49.752908 25928 layer_factory.hpp:77] Creating layer inception_4d/5x5
I0403 09:33:49.752931 25928 net.cpp:91] Creating Layer inception_4d/5x5
I0403 09:33:49.752949 25928 net.cpp:425] inception_4d/5x5 <- inception_4d/5x5_reduce
I0403 09:33:49.752974 25928 net.cpp:399] inception_4d/5x5 -> inception_4d/5x5
I0403 09:33:49.753475 25928 net.cpp:141] Setting up inception_4d/5x5
I0403 09:33:49.753501 25928 net.cpp:148] Top shape: 24 64 14 14 (301056)
I0403 09:33:49.753516 25928 net.cpp:156] Memory required for data: 1134051264
I0403 09:33:49.753535 25928 layer_factory.hpp:77] Creating layer inception_4d/relu_5x5
I0403 09:33:49.753556 25928 net.cpp:91] Creating Layer inception_4d/relu_5x5
I0403 09:33:49.753573 25928 net.cpp:425] inception_4d/relu_5x5 <- inception_4d/5x5
I0403 09:33:49.753592 25928 net.cpp:386] inception_4d/relu_5x5 -> inception_4d/5x5 (in-place)
I0403 09:33:49.753612 25928 net.cpp:141] Setting up inception_4d/relu_5x5
I0403 09:33:49.753630 25928 net.cpp:148] Top shape: 24 64 14 14 (301056)
I0403 09:33:49.753648 25928 net.cpp:156] Memory required for data: 1135255488
I0403 09:33:49.753664 25928 layer_factory.hpp:77] Creating layer inception_4d/pool
I0403 09:33:49.753700 25928 net.cpp:91] Creating Layer inception_4d/pool
I0403 09:33:49.753718 25928 net.cpp:425] inception_4d/pool <- inception_4c/output_inception_4c/output_0_split_3
I0403 09:33:49.753738 25928 net.cpp:399] inception_4d/pool -> inception_4d/pool
I0403 09:33:49.753793 25928 net.cpp:141] Setting up inception_4d/pool
I0403 09:33:49.753820 25928 net.cpp:148] Top shape: 24 512 14 14 (2408448)
I0403 09:33:49.753836 25928 net.cpp:156] Memory required for data: 1144889280
I0403 09:33:49.753852 25928 layer_factory.hpp:77] Creating layer inception_4d/pool_proj
I0403 09:33:49.753875 25928 net.cpp:91] Creating Layer inception_4d/pool_proj
I0403 09:33:49.753895 25928 net.cpp:425] inception_4d/pool_proj <- inception_4d/pool
I0403 09:33:49.753916 25928 net.cpp:399] inception_4d/pool_proj -> inception_4d/pool_proj
I0403 09:33:49.754861 25928 net.cpp:141] Setting up inception_4d/pool_proj
I0403 09:33:49.754891 25928 net.cpp:148] Top shape: 24 64 14 14 (301056)
I0403 09:33:49.754907 25928 net.cpp:156] Memory required for data: 1146093504
I0403 09:33:49.754925 25928 layer_factory.hpp:77] Creating layer inception_4d/relu_pool_proj
I0403 09:33:49.754945 25928 net.cpp:91] Creating Layer inception_4d/relu_pool_proj
I0403 09:33:49.754963 25928 net.cpp:425] inception_4d/relu_pool_proj <- inception_4d/pool_proj
I0403 09:33:49.754984 25928 net.cpp:386] inception_4d/relu_pool_proj -> inception_4d/pool_proj (in-place)
I0403 09:33:49.755010 25928 net.cpp:141] Setting up inception_4d/relu_pool_proj
I0403 09:33:49.755028 25928 net.cpp:148] Top shape: 24 64 14 14 (301056)
I0403 09:33:49.755043 25928 net.cpp:156] Memory required for data: 1147297728
I0403 09:33:49.755058 25928 layer_factory.hpp:77] Creating layer inception_4d/output
I0403 09:33:49.755075 25928 net.cpp:91] Creating Layer inception_4d/output
I0403 09:33:49.755091 25928 net.cpp:425] inception_4d/output <- inception_4d/1x1
I0403 09:33:49.755110 25928 net.cpp:425] inception_4d/output <- inception_4d/3x3
I0403 09:33:49.755126 25928 net.cpp:425] inception_4d/output <- inception_4d/5x5
I0403 09:33:49.755143 25928 net.cpp:425] inception_4d/output <- inception_4d/pool_proj
I0403 09:33:49.755162 25928 net.cpp:399] inception_4d/output -> inception_4d/output
I0403 09:33:49.755203 25928 net.cpp:141] Setting up inception_4d/output
I0403 09:33:49.755228 25928 net.cpp:148] Top shape: 24 528 14 14 (2483712)
I0403 09:33:49.755244 25928 net.cpp:156] Memory required for data: 1157232576
I0403 09:33:49.755259 25928 layer_factory.hpp:77] Creating layer inception_4d/output_inception_4d/output_0_split
I0403 09:33:49.755277 25928 net.cpp:91] Creating Layer inception_4d/output_inception_4d/output_0_split
I0403 09:33:49.755298 25928 net.cpp:425] inception_4d/output_inception_4d/output_0_split <- inception_4d/output
I0403 09:33:49.755318 25928 net.cpp:399] inception_4d/output_inception_4d/output_0_split -> inception_4d/output_inception_4d/output_0_split_0
I0403 09:33:49.755341 25928 net.cpp:399] inception_4d/output_inception_4d/output_0_split -> inception_4d/output_inception_4d/output_0_split_1
I0403 09:33:49.755362 25928 net.cpp:399] inception_4d/output_inception_4d/output_0_split -> inception_4d/output_inception_4d/output_0_split_2
I0403 09:33:49.755384 25928 net.cpp:399] inception_4d/output_inception_4d/output_0_split -> inception_4d/output_inception_4d/output_0_split_3
I0403 09:33:49.755405 25928 net.cpp:399] inception_4d/output_inception_4d/output_0_split -> inception_4d/output_inception_4d/output_0_split_4
I0403 09:33:49.755486 25928 net.cpp:141] Setting up inception_4d/output_inception_4d/output_0_split
I0403 09:33:49.755509 25928 net.cpp:148] Top shape: 24 528 14 14 (2483712)
I0403 09:33:49.755527 25928 net.cpp:148] Top shape: 24 528 14 14 (2483712)
I0403 09:33:49.755542 25928 net.cpp:148] Top shape: 24 528 14 14 (2483712)
I0403 09:33:49.755559 25928 net.cpp:148] Top shape: 24 528 14 14 (2483712)
I0403 09:33:49.755575 25928 net.cpp:148] Top shape: 24 528 14 14 (2483712)
I0403 09:33:49.755590 25928 net.cpp:156] Memory required for data: 1206906816
I0403 09:33:49.755620 25928 layer_factory.hpp:77] Creating layer loss2/ave_pool
I0403 09:33:49.755641 25928 net.cpp:91] Creating Layer loss2/ave_pool
I0403 09:33:49.755658 25928 net.cpp:425] loss2/ave_pool <- inception_4d/output_inception_4d/output_0_split_0
I0403 09:33:49.755681 25928 net.cpp:399] loss2/ave_pool -> loss2/ave_pool
I0403 09:33:49.755722 25928 net.cpp:141] Setting up loss2/ave_pool
I0403 09:33:49.755746 25928 net.cpp:148] Top shape: 24 528 4 4 (202752)
I0403 09:33:49.755762 25928 net.cpp:156] Memory required for data: 1207717824
I0403 09:33:49.755780 25928 layer_factory.hpp:77] Creating layer loss2/conv
I0403 09:33:49.755808 25928 net.cpp:91] Creating Layer loss2/conv
I0403 09:33:49.755828 25928 net.cpp:425] loss2/conv <- loss2/ave_pool
I0403 09:33:49.755851 25928 net.cpp:399] loss2/conv -> loss2/conv
I0403 09:33:49.756984 25928 net.cpp:141] Setting up loss2/conv
I0403 09:33:49.757014 25928 net.cpp:148] Top shape: 24 128 4 4 (49152)
I0403 09:33:49.757031 25928 net.cpp:156] Memory required for data: 1207914432
I0403 09:33:49.757050 25928 layer_factory.hpp:77] Creating layer loss2/relu_conv
I0403 09:33:49.757069 25928 net.cpp:91] Creating Layer loss2/relu_conv
I0403 09:33:49.757087 25928 net.cpp:425] loss2/relu_conv <- loss2/conv
I0403 09:33:49.757107 25928 net.cpp:386] loss2/relu_conv -> loss2/conv (in-place)
I0403 09:33:49.757128 25928 net.cpp:141] Setting up loss2/relu_conv
I0403 09:33:49.757146 25928 net.cpp:148] Top shape: 24 128 4 4 (49152)
I0403 09:33:49.757160 25928 net.cpp:156] Memory required for data: 1208111040
I0403 09:33:49.757176 25928 layer_factory.hpp:77] Creating layer loss2/fc
I0403 09:33:49.757200 25928 net.cpp:91] Creating Layer loss2/fc
I0403 09:33:49.757220 25928 net.cpp:425] loss2/fc <- loss2/conv
I0403 09:33:49.757239 25928 net.cpp:399] loss2/fc -> loss2/fc
I0403 09:33:49.773396 25928 net.cpp:141] Setting up loss2/fc
I0403 09:33:49.773432 25928 net.cpp:148] Top shape: 24 1024 (24576)
I0403 09:33:49.773448 25928 net.cpp:156] Memory required for data: 1208209344
I0403 09:33:49.773468 25928 layer_factory.hpp:77] Creating layer loss2/relu_fc
I0403 09:33:49.773488 25928 net.cpp:91] Creating Layer loss2/relu_fc
I0403 09:33:49.773504 25928 net.cpp:425] loss2/relu_fc <- loss2/fc
I0403 09:33:49.773524 25928 net.cpp:386] loss2/relu_fc -> loss2/fc (in-place)
I0403 09:33:49.773545 25928 net.cpp:141] Setting up loss2/relu_fc
I0403 09:33:49.773564 25928 net.cpp:148] Top shape: 24 1024 (24576)
I0403 09:33:49.773579 25928 net.cpp:156] Memory required for data: 1208307648
I0403 09:33:49.773593 25928 layer_factory.hpp:77] Creating layer loss2/drop_fc
I0403 09:33:49.773612 25928 net.cpp:91] Creating Layer loss2/drop_fc
I0403 09:33:49.773628 25928 net.cpp:425] loss2/drop_fc <- loss2/fc
I0403 09:33:49.773645 25928 net.cpp:386] loss2/drop_fc -> loss2/fc (in-place)
I0403 09:33:49.773686 25928 net.cpp:141] Setting up loss2/drop_fc
I0403 09:33:49.773710 25928 net.cpp:148] Top shape: 24 1024 (24576)
I0403 09:33:49.773725 25928 net.cpp:156] Memory required for data: 1208405952
I0403 09:33:49.773739 25928 layer_factory.hpp:77] Creating layer loss2/classifier_plantvillage
I0403 09:33:49.773761 25928 net.cpp:91] Creating Layer loss2/classifier_plantvillage
I0403 09:33:49.773783 25928 net.cpp:425] loss2/classifier_plantvillage <- loss2/fc
I0403 09:33:49.773804 25928 net.cpp:399] loss2/classifier_plantvillage -> loss2/classifier_plantvillage
I0403 09:33:49.774132 25928 net.cpp:141] Setting up loss2/classifier_plantvillage
I0403 09:33:49.774158 25928 net.cpp:148] Top shape: 24 38 (912)
I0403 09:33:49.774173 25928 net.cpp:156] Memory required for data: 1208409600
I0403 09:33:49.774190 25928 layer_factory.hpp:77] Creating layer inception_4e/1x1
I0403 09:33:49.774216 25928 net.cpp:91] Creating Layer inception_4e/1x1
I0403 09:33:49.774235 25928 net.cpp:425] inception_4e/1x1 <- inception_4d/output_inception_4d/output_0_split_1
I0403 09:33:49.774256 25928 net.cpp:399] inception_4e/1x1 -> inception_4e/1x1
I0403 09:33:49.775202 25928 net.cpp:141] Setting up inception_4e/1x1
I0403 09:33:49.775228 25928 net.cpp:148] Top shape: 24 256 14 14 (1204224)
I0403 09:33:49.775259 25928 net.cpp:156] Memory required for data: 1213226496
I0403 09:33:49.775279 25928 layer_factory.hpp:77] Creating layer inception_4e/relu_1x1
I0403 09:33:49.775298 25928 net.cpp:91] Creating Layer inception_4e/relu_1x1
I0403 09:33:49.775315 25928 net.cpp:425] inception_4e/relu_1x1 <- inception_4e/1x1
I0403 09:33:49.775336 25928 net.cpp:386] inception_4e/relu_1x1 -> inception_4e/1x1 (in-place)
I0403 09:33:49.775357 25928 net.cpp:141] Setting up inception_4e/relu_1x1
I0403 09:33:49.775377 25928 net.cpp:148] Top shape: 24 256 14 14 (1204224)
I0403 09:33:49.775390 25928 net.cpp:156] Memory required for data: 1218043392
I0403 09:33:49.775405 25928 layer_factory.hpp:77] Creating layer inception_4e/3x3_reduce
I0403 09:33:49.775425 25928 net.cpp:91] Creating Layer inception_4e/3x3_reduce
I0403 09:33:49.775444 25928 net.cpp:425] inception_4e/3x3_reduce <- inception_4d/output_inception_4d/output_0_split_2
I0403 09:33:49.775466 25928 net.cpp:399] inception_4e/3x3_reduce -> inception_4e/3x3_reduce
I0403 09:33:49.776675 25928 net.cpp:141] Setting up inception_4e/3x3_reduce
I0403 09:33:49.776703 25928 net.cpp:148] Top shape: 24 160 14 14 (752640)
I0403 09:33:49.776721 25928 net.cpp:156] Memory required for data: 1221053952
I0403 09:33:49.776738 25928 layer_factory.hpp:77] Creating layer inception_4e/relu_3x3_reduce
I0403 09:33:49.776757 25928 net.cpp:91] Creating Layer inception_4e/relu_3x3_reduce
I0403 09:33:49.776778 25928 net.cpp:425] inception_4e/relu_3x3_reduce <- inception_4e/3x3_reduce
I0403 09:33:49.776799 25928 net.cpp:386] inception_4e/relu_3x3_reduce -> inception_4e/3x3_reduce (in-place)
I0403 09:33:49.776820 25928 net.cpp:141] Setting up inception_4e/relu_3x3_reduce
I0403 09:33:49.776839 25928 net.cpp:148] Top shape: 24 160 14 14 (752640)
I0403 09:33:49.776852 25928 net.cpp:156] Memory required for data: 1224064512
I0403 09:33:49.776867 25928 layer_factory.hpp:77] Creating layer inception_4e/3x3
I0403 09:33:49.776891 25928 net.cpp:91] Creating Layer inception_4e/3x3
I0403 09:33:49.776911 25928 net.cpp:425] inception_4e/3x3 <- inception_4e/3x3_reduce
I0403 09:33:49.776932 25928 net.cpp:399] inception_4e/3x3 -> inception_4e/3x3
I0403 09:33:49.780674 25928 net.cpp:141] Setting up inception_4e/3x3
I0403 09:33:49.780702 25928 net.cpp:148] Top shape: 24 320 14 14 (1505280)
I0403 09:33:49.780719 25928 net.cpp:156] Memory required for data: 1230085632
I0403 09:33:49.780737 25928 layer_factory.hpp:77] Creating layer inception_4e/relu_3x3
I0403 09:33:49.780757 25928 net.cpp:91] Creating Layer inception_4e/relu_3x3
I0403 09:33:49.780778 25928 net.cpp:425] inception_4e/relu_3x3 <- inception_4e/3x3
I0403 09:33:49.780800 25928 net.cpp:386] inception_4e/relu_3x3 -> inception_4e/3x3 (in-place)
I0403 09:33:49.780822 25928 net.cpp:141] Setting up inception_4e/relu_3x3
I0403 09:33:49.780839 25928 net.cpp:148] Top shape: 24 320 14 14 (1505280)
I0403 09:33:49.780854 25928 net.cpp:156] Memory required for data: 1236106752
I0403 09:33:49.780869 25928 layer_factory.hpp:77] Creating layer inception_4e/5x5_reduce
I0403 09:33:49.780892 25928 net.cpp:91] Creating Layer inception_4e/5x5_reduce
I0403 09:33:49.780910 25928 net.cpp:425] inception_4e/5x5_reduce <- inception_4d/output_inception_4d/output_0_split_3
I0403 09:33:49.780930 25928 net.cpp:399] inception_4e/5x5_reduce -> inception_4e/5x5_reduce
I0403 09:33:49.781245 25928 net.cpp:141] Setting up inception_4e/5x5_reduce
I0403 09:33:49.781271 25928 net.cpp:148] Top shape: 24 32 14 14 (150528)
I0403 09:33:49.781287 25928 net.cpp:156] Memory required for data: 1236708864
I0403 09:33:49.781306 25928 layer_factory.hpp:77] Creating layer inception_4e/relu_5x5_reduce
I0403 09:33:49.781327 25928 net.cpp:91] Creating Layer inception_4e/relu_5x5_reduce
I0403 09:33:49.781345 25928 net.cpp:425] inception_4e/relu_5x5_reduce <- inception_4e/5x5_reduce
I0403 09:33:49.781363 25928 net.cpp:386] inception_4e/relu_5x5_reduce -> inception_4e/5x5_reduce (in-place)
I0403 09:33:49.781381 25928 net.cpp:141] Setting up inception_4e/relu_5x5_reduce
I0403 09:33:49.781415 25928 net.cpp:148] Top shape: 24 32 14 14 (150528)
I0403 09:33:49.781431 25928 net.cpp:156] Memory required for data: 1237310976
I0403 09:33:49.781447 25928 layer_factory.hpp:77] Creating layer inception_4e/5x5
I0403 09:33:49.781471 25928 net.cpp:91] Creating Layer inception_4e/5x5
I0403 09:33:49.781489 25928 net.cpp:425] inception_4e/5x5 <- inception_4e/5x5_reduce
I0403 09:33:49.781510 25928 net.cpp:399] inception_4e/5x5 -> inception_4e/5x5
I0403 09:33:49.782284 25928 net.cpp:141] Setting up inception_4e/5x5
I0403 09:33:49.782310 25928 net.cpp:148] Top shape: 24 128 14 14 (602112)
I0403 09:33:49.782325 25928 net.cpp:156] Memory required for data: 1239719424
I0403 09:33:49.782341 25928 layer_factory.hpp:77] Creating layer inception_4e/relu_5x5
I0403 09:33:49.782359 25928 net.cpp:91] Creating Layer inception_4e/relu_5x5
I0403 09:33:49.782377 25928 net.cpp:425] inception_4e/relu_5x5 <- inception_4e/5x5
I0403 09:33:49.782397 25928 net.cpp:386] inception_4e/relu_5x5 -> inception_4e/5x5 (in-place)
I0403 09:33:49.782418 25928 net.cpp:141] Setting up inception_4e/relu_5x5
I0403 09:33:49.782435 25928 net.cpp:148] Top shape: 24 128 14 14 (602112)
I0403 09:33:49.782449 25928 net.cpp:156] Memory required for data: 1242127872
I0403 09:33:49.782464 25928 layer_factory.hpp:77] Creating layer inception_4e/pool
I0403 09:33:49.782498 25928 net.cpp:91] Creating Layer inception_4e/pool
I0403 09:33:49.782518 25928 net.cpp:425] inception_4e/pool <- inception_4d/output_inception_4d/output_0_split_4
I0403 09:33:49.782538 25928 net.cpp:399] inception_4e/pool -> inception_4e/pool
I0403 09:33:49.782589 25928 net.cpp:141] Setting up inception_4e/pool
I0403 09:33:49.782613 25928 net.cpp:148] Top shape: 24 528 14 14 (2483712)
I0403 09:33:49.782629 25928 net.cpp:156] Memory required for data: 1252062720
I0403 09:33:49.782645 25928 layer_factory.hpp:77] Creating layer inception_4e/pool_proj
I0403 09:33:49.782670 25928 net.cpp:91] Creating Layer inception_4e/pool_proj
I0403 09:33:49.782690 25928 net.cpp:425] inception_4e/pool_proj <- inception_4e/pool
I0403 09:33:49.782709 25928 net.cpp:399] inception_4e/pool_proj -> inception_4e/pool_proj
I0403 09:33:49.783288 25928 net.cpp:141] Setting up inception_4e/pool_proj
I0403 09:33:49.783313 25928 net.cpp:148] Top shape: 24 128 14 14 (602112)
I0403 09:33:49.783329 25928 net.cpp:156] Memory required for data: 1254471168
I0403 09:33:49.783349 25928 layer_factory.hpp:77] Creating layer inception_4e/relu_pool_proj
I0403 09:33:49.783366 25928 net.cpp:91] Creating Layer inception_4e/relu_pool_proj
I0403 09:33:49.783383 25928 net.cpp:425] inception_4e/relu_pool_proj <- inception_4e/pool_proj
I0403 09:33:49.783401 25928 net.cpp:386] inception_4e/relu_pool_proj -> inception_4e/pool_proj (in-place)
I0403 09:33:49.783424 25928 net.cpp:141] Setting up inception_4e/relu_pool_proj
I0403 09:33:49.783443 25928 net.cpp:148] Top shape: 24 128 14 14 (602112)
I0403 09:33:49.783457 25928 net.cpp:156] Memory required for data: 1256879616
I0403 09:33:49.783473 25928 layer_factory.hpp:77] Creating layer inception_4e/output
I0403 09:33:49.783490 25928 net.cpp:91] Creating Layer inception_4e/output
I0403 09:33:49.783505 25928 net.cpp:425] inception_4e/output <- inception_4e/1x1
I0403 09:33:49.783521 25928 net.cpp:425] inception_4e/output <- inception_4e/3x3
I0403 09:33:49.783538 25928 net.cpp:425] inception_4e/output <- inception_4e/5x5
I0403 09:33:49.783555 25928 net.cpp:425] inception_4e/output <- inception_4e/pool_proj
I0403 09:33:49.783572 25928 net.cpp:399] inception_4e/output -> inception_4e/output
I0403 09:33:49.783612 25928 net.cpp:141] Setting up inception_4e/output
I0403 09:33:49.783635 25928 net.cpp:148] Top shape: 24 832 14 14 (3913728)
I0403 09:33:49.783650 25928 net.cpp:156] Memory required for data: 1272534528
I0403 09:33:49.783664 25928 layer_factory.hpp:77] Creating layer pool4/3x3_s2
I0403 09:33:49.783684 25928 net.cpp:91] Creating Layer pool4/3x3_s2
I0403 09:33:49.783700 25928 net.cpp:425] pool4/3x3_s2 <- inception_4e/output
I0403 09:33:49.783722 25928 net.cpp:399] pool4/3x3_s2 -> pool4/3x3_s2
I0403 09:33:49.783789 25928 net.cpp:141] Setting up pool4/3x3_s2
I0403 09:33:49.783817 25928 net.cpp:148] Top shape: 24 832 7 7 (978432)
I0403 09:33:49.783833 25928 net.cpp:156] Memory required for data: 1276448256
I0403 09:33:49.783848 25928 layer_factory.hpp:77] Creating layer pool4/3x3_s2_pool4/3x3_s2_0_split
I0403 09:33:49.783865 25928 net.cpp:91] Creating Layer pool4/3x3_s2_pool4/3x3_s2_0_split
I0403 09:33:49.783884 25928 net.cpp:425] pool4/3x3_s2_pool4/3x3_s2_0_split <- pool4/3x3_s2
I0403 09:33:49.783902 25928 net.cpp:399] pool4/3x3_s2_pool4/3x3_s2_0_split -> pool4/3x3_s2_pool4/3x3_s2_0_split_0
I0403 09:33:49.783922 25928 net.cpp:399] pool4/3x3_s2_pool4/3x3_s2_0_split -> pool4/3x3_s2_pool4/3x3_s2_0_split_1
I0403 09:33:49.783941 25928 net.cpp:399] pool4/3x3_s2_pool4/3x3_s2_0_split -> pool4/3x3_s2_pool4/3x3_s2_0_split_2
I0403 09:33:49.783964 25928 net.cpp:399] pool4/3x3_s2_pool4/3x3_s2_0_split -> pool4/3x3_s2_pool4/3x3_s2_0_split_3
I0403 09:33:49.784039 25928 net.cpp:141] Setting up pool4/3x3_s2_pool4/3x3_s2_0_split
I0403 09:33:49.784061 25928 net.cpp:148] Top shape: 24 832 7 7 (978432)
I0403 09:33:49.784080 25928 net.cpp:148] Top shape: 24 832 7 7 (978432)
I0403 09:33:49.784095 25928 net.cpp:148] Top shape: 24 832 7 7 (978432)
I0403 09:33:49.784109 25928 net.cpp:148] Top shape: 24 832 7 7 (978432)
I0403 09:33:49.784123 25928 net.cpp:156] Memory required for data: 1292103168
I0403 09:33:49.784138 25928 layer_factory.hpp:77] Creating layer inception_5a/1x1
I0403 09:33:49.784163 25928 net.cpp:91] Creating Layer inception_5a/1x1
I0403 09:33:49.784183 25928 net.cpp:425] inception_5a/1x1 <- pool4/3x3_s2_pool4/3x3_s2_0_split_0
I0403 09:33:49.784205 25928 net.cpp:399] inception_5a/1x1 -> inception_5a/1x1
I0403 09:33:49.786181 25928 net.cpp:141] Setting up inception_5a/1x1
I0403 09:33:49.786213 25928 net.cpp:148] Top shape: 24 256 7 7 (301056)
I0403 09:33:49.786231 25928 net.cpp:156] Memory required for data: 1293307392
I0403 09:33:49.786250 25928 layer_factory.hpp:77] Creating layer inception_5a/relu_1x1
I0403 09:33:49.786269 25928 net.cpp:91] Creating Layer inception_5a/relu_1x1
I0403 09:33:49.786286 25928 net.cpp:425] inception_5a/relu_1x1 <- inception_5a/1x1
I0403 09:33:49.786305 25928 net.cpp:386] inception_5a/relu_1x1 -> inception_5a/1x1 (in-place)
I0403 09:33:49.786326 25928 net.cpp:141] Setting up inception_5a/relu_1x1
I0403 09:33:49.786345 25928 net.cpp:148] Top shape: 24 256 7 7 (301056)
I0403 09:33:49.786360 25928 net.cpp:156] Memory required for data: 1294511616
I0403 09:33:49.786375 25928 layer_factory.hpp:77] Creating layer inception_5a/3x3_reduce
I0403 09:33:49.786398 25928 net.cpp:91] Creating Layer inception_5a/3x3_reduce
I0403 09:33:49.786417 25928 net.cpp:425] inception_5a/3x3_reduce <- pool4/3x3_s2_pool4/3x3_s2_0_split_1
I0403 09:33:49.786437 25928 net.cpp:399] inception_5a/3x3_reduce -> inception_5a/3x3_reduce
I0403 09:33:49.787950 25928 net.cpp:141] Setting up inception_5a/3x3_reduce
I0403 09:33:49.787979 25928 net.cpp:148] Top shape: 24 160 7 7 (188160)
I0403 09:33:49.787997 25928 net.cpp:156] Memory required for data: 1295264256
I0403 09:33:49.788017 25928 layer_factory.hpp:77] Creating layer inception_5a/relu_3x3_reduce
I0403 09:33:49.788041 25928 net.cpp:91] Creating Layer inception_5a/relu_3x3_reduce
I0403 09:33:49.788061 25928 net.cpp:425] inception_5a/relu_3x3_reduce <- inception_5a/3x3_reduce
I0403 09:33:49.788081 25928 net.cpp:386] inception_5a/relu_3x3_reduce -> inception_5a/3x3_reduce (in-place)
I0403 09:33:49.788101 25928 net.cpp:141] Setting up inception_5a/relu_3x3_reduce
I0403 09:33:49.788120 25928 net.cpp:148] Top shape: 24 160 7 7 (188160)
I0403 09:33:49.788136 25928 net.cpp:156] Memory required for data: 1296016896
I0403 09:33:49.788151 25928 layer_factory.hpp:77] Creating layer inception_5a/3x3
I0403 09:33:49.788175 25928 net.cpp:91] Creating Layer inception_5a/3x3
I0403 09:33:49.788195 25928 net.cpp:425] inception_5a/3x3 <- inception_5a/3x3_reduce
I0403 09:33:49.788216 25928 net.cpp:399] inception_5a/3x3 -> inception_5a/3x3
I0403 09:33:49.792090 25928 net.cpp:141] Setting up inception_5a/3x3
I0403 09:33:49.792134 25928 net.cpp:148] Top shape: 24 320 7 7 (376320)
I0403 09:33:49.792151 25928 net.cpp:156] Memory required for data: 1297522176
I0403 09:33:49.792171 25928 layer_factory.hpp:77] Creating layer inception_5a/relu_3x3
I0403 09:33:49.792191 25928 net.cpp:91] Creating Layer inception_5a/relu_3x3
I0403 09:33:49.792208 25928 net.cpp:425] inception_5a/relu_3x3 <- inception_5a/3x3
I0403 09:33:49.792229 25928 net.cpp:386] inception_5a/relu_3x3 -> inception_5a/3x3 (in-place)
I0403 09:33:49.792253 25928 net.cpp:141] Setting up inception_5a/relu_3x3
I0403 09:33:49.792270 25928 net.cpp:148] Top shape: 24 320 7 7 (376320)
I0403 09:33:49.792286 25928 net.cpp:156] Memory required for data: 1299027456
I0403 09:33:49.792301 25928 layer_factory.hpp:77] Creating layer inception_5a/5x5_reduce
I0403 09:33:49.792325 25928 net.cpp:91] Creating Layer inception_5a/5x5_reduce
I0403 09:33:49.792345 25928 net.cpp:425] inception_5a/5x5_reduce <- pool4/3x3_s2_pool4/3x3_s2_0_split_2
I0403 09:33:49.792366 25928 net.cpp:399] inception_5a/5x5_reduce -> inception_5a/5x5_reduce
I0403 09:33:49.792768 25928 net.cpp:141] Setting up inception_5a/5x5_reduce
I0403 09:33:49.792800 25928 net.cpp:148] Top shape: 24 32 7 7 (37632)
I0403 09:33:49.792819 25928 net.cpp:156] Memory required for data: 1299177984
I0403 09:33:49.792839 25928 layer_factory.hpp:77] Creating layer inception_5a/relu_5x5_reduce
I0403 09:33:49.792857 25928 net.cpp:91] Creating Layer inception_5a/relu_5x5_reduce
I0403 09:33:49.792876 25928 net.cpp:425] inception_5a/relu_5x5_reduce <- inception_5a/5x5_reduce
I0403 09:33:49.792899 25928 net.cpp:386] inception_5a/relu_5x5_reduce -> inception_5a/5x5_reduce (in-place)
I0403 09:33:49.792922 25928 net.cpp:141] Setting up inception_5a/relu_5x5_reduce
I0403 09:33:49.792942 25928 net.cpp:148] Top shape: 24 32 7 7 (37632)
I0403 09:33:49.792956 25928 net.cpp:156] Memory required for data: 1299328512
I0403 09:33:49.792973 25928 layer_factory.hpp:77] Creating layer inception_5a/5x5
I0403 09:33:49.792999 25928 net.cpp:91] Creating Layer inception_5a/5x5
I0403 09:33:49.793017 25928 net.cpp:425] inception_5a/5x5 <- inception_5a/5x5_reduce
I0403 09:33:49.793051 25928 net.cpp:399] inception_5a/5x5 -> inception_5a/5x5
I0403 09:33:49.793848 25928 net.cpp:141] Setting up inception_5a/5x5
I0403 09:33:49.793874 25928 net.cpp:148] Top shape: 24 128 7 7 (150528)
I0403 09:33:49.793890 25928 net.cpp:156] Memory required for data: 1299930624
I0403 09:33:49.793910 25928 layer_factory.hpp:77] Creating layer inception_5a/relu_5x5
I0403 09:33:49.793928 25928 net.cpp:91] Creating Layer inception_5a/relu_5x5
I0403 09:33:49.793946 25928 net.cpp:425] inception_5a/relu_5x5 <- inception_5a/5x5
I0403 09:33:49.793967 25928 net.cpp:386] inception_5a/relu_5x5 -> inception_5a/5x5 (in-place)
I0403 09:33:49.793990 25928 net.cpp:141] Setting up inception_5a/relu_5x5
I0403 09:33:49.794010 25928 net.cpp:148] Top shape: 24 128 7 7 (150528)
I0403 09:33:49.794024 25928 net.cpp:156] Memory required for data: 1300532736
I0403 09:33:49.794039 25928 layer_factory.hpp:77] Creating layer inception_5a/pool
I0403 09:33:49.794059 25928 net.cpp:91] Creating Layer inception_5a/pool
I0403 09:33:49.794076 25928 net.cpp:425] inception_5a/pool <- pool4/3x3_s2_pool4/3x3_s2_0_split_3
I0403 09:33:49.794095 25928 net.cpp:399] inception_5a/pool -> inception_5a/pool
I0403 09:33:49.794150 25928 net.cpp:141] Setting up inception_5a/pool
I0403 09:33:49.794175 25928 net.cpp:148] Top shape: 24 832 7 7 (978432)
I0403 09:33:49.794191 25928 net.cpp:156] Memory required for data: 1304446464
I0403 09:33:49.794208 25928 layer_factory.hpp:77] Creating layer inception_5a/pool_proj
I0403 09:33:49.794230 25928 net.cpp:91] Creating Layer inception_5a/pool_proj
I0403 09:33:49.794250 25928 net.cpp:425] inception_5a/pool_proj <- inception_5a/pool
I0403 09:33:49.794273 25928 net.cpp:399] inception_5a/pool_proj -> inception_5a/pool_proj
I0403 09:33:49.795625 25928 net.cpp:141] Setting up inception_5a/pool_proj
I0403 09:33:49.795655 25928 net.cpp:148] Top shape: 24 128 7 7 (150528)
I0403 09:33:49.795671 25928 net.cpp:156] Memory required for data: 1305048576
I0403 09:33:49.795707 25928 layer_factory.hpp:77] Creating layer inception_5a/relu_pool_proj
I0403 09:33:49.795728 25928 net.cpp:91] Creating Layer inception_5a/relu_pool_proj
I0403 09:33:49.795754 25928 net.cpp:425] inception_5a/relu_pool_proj <- inception_5a/pool_proj
I0403 09:33:49.795774 25928 net.cpp:386] inception_5a/relu_pool_proj -> inception_5a/pool_proj (in-place)
I0403 09:33:49.795800 25928 net.cpp:141] Setting up inception_5a/relu_pool_proj
I0403 09:33:49.795820 25928 net.cpp:148] Top shape: 24 128 7 7 (150528)
I0403 09:33:49.795836 25928 net.cpp:156] Memory required for data: 1305650688
I0403 09:33:49.795851 25928 layer_factory.hpp:77] Creating layer inception_5a/output
I0403 09:33:49.795871 25928 net.cpp:91] Creating Layer inception_5a/output
I0403 09:33:49.795887 25928 net.cpp:425] inception_5a/output <- inception_5a/1x1
I0403 09:33:49.795904 25928 net.cpp:425] inception_5a/output <- inception_5a/3x3
I0403 09:33:49.795922 25928 net.cpp:425] inception_5a/output <- inception_5a/5x5
I0403 09:33:49.795938 25928 net.cpp:425] inception_5a/output <- inception_5a/pool_proj
I0403 09:33:49.795958 25928 net.cpp:399] inception_5a/output -> inception_5a/output
I0403 09:33:49.796000 25928 net.cpp:141] Setting up inception_5a/output
I0403 09:33:49.796025 25928 net.cpp:148] Top shape: 24 832 7 7 (978432)
I0403 09:33:49.796039 25928 net.cpp:156] Memory required for data: 1309564416
I0403 09:33:49.796056 25928 layer_factory.hpp:77] Creating layer inception_5a/output_inception_5a/output_0_split
I0403 09:33:49.796077 25928 net.cpp:91] Creating Layer inception_5a/output_inception_5a/output_0_split
I0403 09:33:49.796093 25928 net.cpp:425] inception_5a/output_inception_5a/output_0_split <- inception_5a/output
I0403 09:33:49.796113 25928 net.cpp:399] inception_5a/output_inception_5a/output_0_split -> inception_5a/output_inception_5a/output_0_split_0
I0403 09:33:49.796133 25928 net.cpp:399] inception_5a/output_inception_5a/output_0_split -> inception_5a/output_inception_5a/output_0_split_1
I0403 09:33:49.796155 25928 net.cpp:399] inception_5a/output_inception_5a/output_0_split -> inception_5a/output_inception_5a/output_0_split_2
I0403 09:33:49.796176 25928 net.cpp:399] inception_5a/output_inception_5a/output_0_split -> inception_5a/output_inception_5a/output_0_split_3
I0403 09:33:49.796250 25928 net.cpp:141] Setting up inception_5a/output_inception_5a/output_0_split
I0403 09:33:49.796274 25928 net.cpp:148] Top shape: 24 832 7 7 (978432)
I0403 09:33:49.796290 25928 net.cpp:148] Top shape: 24 832 7 7 (978432)
I0403 09:33:49.796306 25928 net.cpp:148] Top shape: 24 832 7 7 (978432)
I0403 09:33:49.796322 25928 net.cpp:148] Top shape: 24 832 7 7 (978432)
I0403 09:33:49.796336 25928 net.cpp:156] Memory required for data: 1325219328
I0403 09:33:49.796351 25928 layer_factory.hpp:77] Creating layer inception_5b/1x1
I0403 09:33:49.796375 25928 net.cpp:91] Creating Layer inception_5b/1x1
I0403 09:33:49.796396 25928 net.cpp:425] inception_5b/1x1 <- inception_5a/output_inception_5a/output_0_split_0
I0403 09:33:49.796417 25928 net.cpp:399] inception_5b/1x1 -> inception_5b/1x1
I0403 09:33:49.799094 25928 net.cpp:141] Setting up inception_5b/1x1
I0403 09:33:49.799124 25928 net.cpp:148] Top shape: 24 384 7 7 (451584)
I0403 09:33:49.799140 25928 net.cpp:156] Memory required for data: 1327025664
I0403 09:33:49.799160 25928 layer_factory.hpp:77] Creating layer inception_5b/relu_1x1
I0403 09:33:49.799181 25928 net.cpp:91] Creating Layer inception_5b/relu_1x1
I0403 09:33:49.799199 25928 net.cpp:425] inception_5b/relu_1x1 <- inception_5b/1x1
I0403 09:33:49.799218 25928 net.cpp:386] inception_5b/relu_1x1 -> inception_5b/1x1 (in-place)
I0403 09:33:49.799238 25928 net.cpp:141] Setting up inception_5b/relu_1x1
I0403 09:33:49.799257 25928 net.cpp:148] Top shape: 24 384 7 7 (451584)
I0403 09:33:49.799273 25928 net.cpp:156] Memory required for data: 1328832000
I0403 09:33:49.799288 25928 layer_factory.hpp:77] Creating layer inception_5b/3x3_reduce
I0403 09:33:49.799311 25928 net.cpp:91] Creating Layer inception_5b/3x3_reduce
I0403 09:33:49.799345 25928 net.cpp:425] inception_5b/3x3_reduce <- inception_5a/output_inception_5a/output_0_split_1
I0403 09:33:49.799366 25928 net.cpp:399] inception_5b/3x3_reduce -> inception_5b/3x3_reduce
I0403 09:33:49.801046 25928 net.cpp:141] Setting up inception_5b/3x3_reduce
I0403 09:33:49.801076 25928 net.cpp:148] Top shape: 24 192 7 7 (225792)
I0403 09:33:49.801095 25928 net.cpp:156] Memory required for data: 1329735168
I0403 09:33:49.801115 25928 layer_factory.hpp:77] Creating layer inception_5b/relu_3x3_reduce
I0403 09:33:49.801134 25928 net.cpp:91] Creating Layer inception_5b/relu_3x3_reduce
I0403 09:33:49.801156 25928 net.cpp:425] inception_5b/relu_3x3_reduce <- inception_5b/3x3_reduce
I0403 09:33:49.801174 25928 net.cpp:386] inception_5b/relu_3x3_reduce -> inception_5b/3x3_reduce (in-place)
I0403 09:33:49.801195 25928 net.cpp:141] Setting up inception_5b/relu_3x3_reduce
I0403 09:33:49.801215 25928 net.cpp:148] Top shape: 24 192 7 7 (225792)
I0403 09:33:49.801230 25928 net.cpp:156] Memory required for data: 1330638336
I0403 09:33:49.801245 25928 layer_factory.hpp:77] Creating layer inception_5b/3x3
I0403 09:33:49.801270 25928 net.cpp:91] Creating Layer inception_5b/3x3
I0403 09:33:49.801290 25928 net.cpp:425] inception_5b/3x3 <- inception_5b/3x3_reduce
I0403 09:33:49.801309 25928 net.cpp:399] inception_5b/3x3 -> inception_5b/3x3
I0403 09:33:49.806648 25928 net.cpp:141] Setting up inception_5b/3x3
I0403 09:33:49.806676 25928 net.cpp:148] Top shape: 24 384 7 7 (451584)
I0403 09:33:49.806692 25928 net.cpp:156] Memory required for data: 1332444672
I0403 09:33:49.806710 25928 layer_factory.hpp:77] Creating layer inception_5b/relu_3x3
I0403 09:33:49.806728 25928 net.cpp:91] Creating Layer inception_5b/relu_3x3
I0403 09:33:49.806746 25928 net.cpp:425] inception_5b/relu_3x3 <- inception_5b/3x3
I0403 09:33:49.806763 25928 net.cpp:386] inception_5b/relu_3x3 -> inception_5b/3x3 (in-place)
I0403 09:33:49.806788 25928 net.cpp:141] Setting up inception_5b/relu_3x3
I0403 09:33:49.806808 25928 net.cpp:148] Top shape: 24 384 7 7 (451584)
I0403 09:33:49.806823 25928 net.cpp:156] Memory required for data: 1334251008
I0403 09:33:49.806838 25928 layer_factory.hpp:77] Creating layer inception_5b/5x5_reduce
I0403 09:33:49.806859 25928 net.cpp:91] Creating Layer inception_5b/5x5_reduce
I0403 09:33:49.806874 25928 net.cpp:425] inception_5b/5x5_reduce <- inception_5a/output_inception_5a/output_0_split_2
I0403 09:33:49.806896 25928 net.cpp:399] inception_5b/5x5_reduce -> inception_5b/5x5_reduce
I0403 09:33:49.807337 25928 net.cpp:141] Setting up inception_5b/5x5_reduce
I0403 09:33:49.807363 25928 net.cpp:148] Top shape: 24 48 7 7 (56448)
I0403 09:33:49.807377 25928 net.cpp:156] Memory required for data: 1334476800
I0403 09:33:49.807395 25928 layer_factory.hpp:77] Creating layer inception_5b/relu_5x5_reduce
I0403 09:33:49.807413 25928 net.cpp:91] Creating Layer inception_5b/relu_5x5_reduce
I0403 09:33:49.807430 25928 net.cpp:425] inception_5b/relu_5x5_reduce <- inception_5b/5x5_reduce
I0403 09:33:49.807447 25928 net.cpp:386] inception_5b/relu_5x5_reduce -> inception_5b/5x5_reduce (in-place)
I0403 09:33:49.807466 25928 net.cpp:141] Setting up inception_5b/relu_5x5_reduce
I0403 09:33:49.807484 25928 net.cpp:148] Top shape: 24 48 7 7 (56448)
I0403 09:33:49.807499 25928 net.cpp:156] Memory required for data: 1334702592
I0403 09:33:49.807514 25928 layer_factory.hpp:77] Creating layer inception_5b/5x5
I0403 09:33:49.807536 25928 net.cpp:91] Creating Layer inception_5b/5x5
I0403 09:33:49.807554 25928 net.cpp:425] inception_5b/5x5 <- inception_5b/5x5_reduce
I0403 09:33:49.807577 25928 net.cpp:399] inception_5b/5x5 -> inception_5b/5x5
I0403 09:33:49.808615 25928 net.cpp:141] Setting up inception_5b/5x5
I0403 09:33:49.808642 25928 net.cpp:148] Top shape: 24 128 7 7 (150528)
I0403 09:33:49.808658 25928 net.cpp:156] Memory required for data: 1335304704
I0403 09:33:49.808676 25928 layer_factory.hpp:77] Creating layer inception_5b/relu_5x5
I0403 09:33:49.808696 25928 net.cpp:91] Creating Layer inception_5b/relu_5x5
I0403 09:33:49.808712 25928 net.cpp:425] inception_5b/relu_5x5 <- inception_5b/5x5
I0403 09:33:49.808745 25928 net.cpp:386] inception_5b/relu_5x5 -> inception_5b/5x5 (in-place)
I0403 09:33:49.808768 25928 net.cpp:141] Setting up inception_5b/relu_5x5
I0403 09:33:49.808789 25928 net.cpp:148] Top shape: 24 128 7 7 (150528)
I0403 09:33:49.808804 25928 net.cpp:156] Memory required for data: 1335906816
I0403 09:33:49.808818 25928 layer_factory.hpp:77] Creating layer inception_5b/pool
I0403 09:33:49.808836 25928 net.cpp:91] Creating Layer inception_5b/pool
I0403 09:33:49.808852 25928 net.cpp:425] inception_5b/pool <- inception_5a/output_inception_5a/output_0_split_3
I0403 09:33:49.808873 25928 net.cpp:399] inception_5b/pool -> inception_5b/pool
I0403 09:33:49.808928 25928 net.cpp:141] Setting up inception_5b/pool
I0403 09:33:49.808953 25928 net.cpp:148] Top shape: 24 832 7 7 (978432)
I0403 09:33:49.808969 25928 net.cpp:156] Memory required for data: 1339820544
I0403 09:33:49.808982 25928 layer_factory.hpp:77] Creating layer inception_5b/pool_proj
I0403 09:33:49.809002 25928 net.cpp:91] Creating Layer inception_5b/pool_proj
I0403 09:33:49.809020 25928 net.cpp:425] inception_5b/pool_proj <- inception_5b/pool
I0403 09:33:49.809041 25928 net.cpp:399] inception_5b/pool_proj -> inception_5b/pool_proj
I0403 09:33:49.810343 25928 net.cpp:141] Setting up inception_5b/pool_proj
I0403 09:33:49.810371 25928 net.cpp:148] Top shape: 24 128 7 7 (150528)
I0403 09:33:49.810389 25928 net.cpp:156] Memory required for data: 1340422656
I0403 09:33:49.810406 25928 layer_factory.hpp:77] Creating layer inception_5b/relu_pool_proj
I0403 09:33:49.810427 25928 net.cpp:91] Creating Layer inception_5b/relu_pool_proj
I0403 09:33:49.810446 25928 net.cpp:425] inception_5b/relu_pool_proj <- inception_5b/pool_proj
I0403 09:33:49.810464 25928 net.cpp:386] inception_5b/relu_pool_proj -> inception_5b/pool_proj (in-place)
I0403 09:33:49.810483 25928 net.cpp:141] Setting up inception_5b/relu_pool_proj
I0403 09:33:49.810500 25928 net.cpp:148] Top shape: 24 128 7 7 (150528)
I0403 09:33:49.810514 25928 net.cpp:156] Memory required for data: 1341024768
I0403 09:33:49.810528 25928 layer_factory.hpp:77] Creating layer inception_5b/output
I0403 09:33:49.810549 25928 net.cpp:91] Creating Layer inception_5b/output
I0403 09:33:49.810565 25928 net.cpp:425] inception_5b/output <- inception_5b/1x1
I0403 09:33:49.810582 25928 net.cpp:425] inception_5b/output <- inception_5b/3x3
I0403 09:33:49.810598 25928 net.cpp:425] inception_5b/output <- inception_5b/5x5
I0403 09:33:49.810614 25928 net.cpp:425] inception_5b/output <- inception_5b/pool_proj
I0403 09:33:49.810632 25928 net.cpp:399] inception_5b/output -> inception_5b/output
I0403 09:33:49.810670 25928 net.cpp:141] Setting up inception_5b/output
I0403 09:33:49.810696 25928 net.cpp:148] Top shape: 24 1024 7 7 (1204224)
I0403 09:33:49.810713 25928 net.cpp:156] Memory required for data: 1345841664
I0403 09:33:49.810726 25928 layer_factory.hpp:77] Creating layer pool5/7x7_s1
I0403 09:33:49.810744 25928 net.cpp:91] Creating Layer pool5/7x7_s1
I0403 09:33:49.810758 25928 net.cpp:425] pool5/7x7_s1 <- inception_5b/output
I0403 09:33:49.810782 25928 net.cpp:399] pool5/7x7_s1 -> pool5/7x7_s1
I0403 09:33:49.810823 25928 net.cpp:141] Setting up pool5/7x7_s1
I0403 09:33:49.810847 25928 net.cpp:148] Top shape: 24 1024 1 1 (24576)
I0403 09:33:49.810860 25928 net.cpp:156] Memory required for data: 1345939968
I0403 09:33:49.810874 25928 layer_factory.hpp:77] Creating layer pool5/drop_7x7_s1
I0403 09:33:49.810895 25928 net.cpp:91] Creating Layer pool5/drop_7x7_s1
I0403 09:33:49.810912 25928 net.cpp:425] pool5/drop_7x7_s1 <- pool5/7x7_s1
I0403 09:33:49.810931 25928 net.cpp:386] pool5/drop_7x7_s1 -> pool5/7x7_s1 (in-place)
I0403 09:33:49.810969 25928 net.cpp:141] Setting up pool5/drop_7x7_s1
I0403 09:33:49.810992 25928 net.cpp:148] Top shape: 24 1024 1 1 (24576)
I0403 09:33:49.811007 25928 net.cpp:156] Memory required for data: 1346038272
I0403 09:33:49.811022 25928 layer_factory.hpp:77] Creating layer loss3/classifier_plantvillage
I0403 09:33:49.811041 25928 net.cpp:91] Creating Layer loss3/classifier_plantvillage
I0403 09:33:49.811070 25928 net.cpp:425] loss3/classifier_plantvillage <- pool5/7x7_s1
I0403 09:33:49.811094 25928 net.cpp:399] loss3/classifier_plantvillage -> loss3/classifier_plantvillage
I0403 09:33:49.811426 25928 net.cpp:141] Setting up loss3/classifier_plantvillage
I0403 09:33:49.811451 25928 net.cpp:148] Top shape: 24 38 (912)
I0403 09:33:49.811465 25928 net.cpp:156] Memory required for data: 1346041920
I0403 09:33:49.811483 25928 layer_factory.hpp:77] Creating layer loss1/loss
I0403 09:33:49.811508 25928 net.cpp:91] Creating Layer loss1/loss
I0403 09:33:49.811527 25928 net.cpp:425] loss1/loss <- loss1/classifier_plantvillage
I0403 09:33:49.811544 25928 net.cpp:425] loss1/loss <- label_data_1_split_0
I0403 09:33:49.811563 25928 net.cpp:399] loss1/loss -> loss1/loss
…
I0403 09:33:49.822363 25928 net.cpp:313] The NetState phase (1) differed from the phase (0) specified by a rule in layer data
I0403 09:33:49.826481 25928 net.cpp:49] Initializing net from parameters: 
state {
  phase: TEST
}
layer {
  name: "data"
  type: "Data"
  top: "data"
  top: "label"
  include {
    phase: TEST
  }
  transform_param {
    mirror: false
    crop_size: 224
    mean_file: "/home/mohanty/data/final_dataset/lmdb/grayscale-60-40/mean.binaryproto"
  }
  data_param {
    source: "/home/mohanty/data/final_dataset/lmdb/grayscale-60-40/test_db"
    batch_size: 24
    backend: LMDB
  }
}
layer {
  name: "conv1/7x7_s2"
  type: "Convolution"
  bottom: "data"
  top: "conv1/7x7_s2"
  param {
    lr_mult: 1
    decay_mult: 1
  }
  param {
    lr_mult: 2
    decay_mult: 0
  }
  convolution_param {
    num_output: 64
    pad: 3
    kernel_size: 7
    stride: 2
    weight_filler {
      type: "xavier"
      std: 0.1
    }
    bias_filler {
      type: "constant"
      value: 0.2
    }
  }
}
layer {
  name: "conv1/relu_7x7"
  type: "ReLU"
  bottom: "conv1/7x7_s2"
  top: "conv1/7x7_s2"
}
layer {
  name: "pool1/3x3_s2"
  type: "Pooling"
  bottom: "conv1/7x7_s2"
  top: "pool1/3x3_s2"
  pooling_param {
    pool: MAX
    kernel_size: 3
    stride: 2
  }
}
layer {
  name: "pool1/norm1"
  type: "LRN"
  bottom: "pool1/3x3_s2"
  top: "pool1/norm1"
  lrn_param {
    local_size: 5
    alpha: 0.0001
    beta: 0.75
  }
}
layer {
  name: "conv2/3x3_reduce"
  type: "Convolution"
  bottom: "pool1/norm1"
  top: "conv2/3x3_reduce"
  param {
    lr_mult: 1
    decay_mult: 1
  }
  param {
    lr_mult: 2
    decay_mult: 0
  }
  convolution_param {
    num_output: 64
    kernel_size: 1
    weight_filler {
      type: "xavier"
      std: 0.1
    }
    bias_filler {
      type: "constant"
      value: 0.2
    }
  }
}
layer {
  name: "conv2/relu_3x3_reduce"
  type: "ReLU"
  bottom: "conv2/3x3_reduce"
  top: "conv2/3x3_reduce"
}
layer {
  name: "conv2/3x3"
  type: "Convolution"
  bottom: "conv2/3x3_reduce"
  top: "conv2/3x3"
  param {
    lr_mult: 1
    decay_mult: 1
  }
  param {
    lr_mult: 2
    decay_mult: 0
  }
  convolution_param {
    num_output: 192
    pad: 1
    kernel_size: 3
    weight_filler {
      type: "xavier"
      std: 0.03
    }
    bias_filler {
      type: "constant"
      value: 0.2
    }
  }
}
layer {
  name: "conv2/relu_3x3"
  type: "ReLU"
  bottom: "conv2/3x3"
  top: "conv2/3x3"
}
layer {
  name: "conv2/norm2"
  type: "LRN"
  bottom: "conv2/3x3"
  top: "conv2/norm2"
  lrn_param {
    local_size: 5
    alpha: 0.0001
    beta: 0.75
  }
}
layer {
  name: "pool2/3x3_s2"
  type: "Pooling"
  bottom: "conv2/norm2"
  top: "pool2/3x3_s2"
  pooling_param {
    pool: MAX
    kernel_size: 3
    stride: 2
  }
}
layer {
  name: "inception_3a/1x1"
  type: "Convolution"
  bottom: "pool2/3x3_s2"
  top: "inception_3a/1x1"
  param {
    lr_mult: 1
    decay_mult: 1
  }
  param {
    lr_mult: 2
    decay_mult: 0
  }
  convolution_param {
    num_output: 64
    kernel_size: 1
    weight_filler {
      type: "xavier"
      std: 0.03
    }
    bias_filler {
      type: "constant"
      value: 0.2
    }
  }
}
layer {
  name: "inception_3a/relu_1x1"
  type: "ReLU"
  bottom: "inception_3a/1x1"
  top: "inception_3a/1x1"
}
layer {
  name: "inception_3a/3x3_reduce"
  type: "Convolution"
  bottom: "pool2/3x3_s2"
  top: "inception_3a/3x3_reduce"
  param {
    lr_mult: 1
    decay_mult: 1
  }
  param {
    lr_mult: 2
    decay_mult: 0
  }
  convolution_param {
    num_output: 96
    kernel_size: 1
    weight_filler {
      type: "xavier"
      std: 0.09
    }
    bias_filler {
      type: "constant"
      value: 0.2
    }
  }
}
layer {
  name: "inception_3a/relu_3x3_reduce"
  type: "ReLU"
  bottom: "inception_3a/3x3_reduce"
  top: "inception_3a/3x3_reduce"
}
layer {
  name: "inception_3a/3x3"
  type: "Convolution"
  bottom: "inception_3a/3x3_reduce"
  top: "inception_3a/3x3"
  param {
    lr_mult: 1
    decay_mult: 1
  }
  param {
    lr_mult: 2
    decay_mult: 0
  }
  convolution_param {
    num_output: 128
    pad: 1
    kernel_size: 3
    weight_filler {
      type: "xavier"
      std: 0.03
    }
    bias_filler {
      type: "constant"
      value: 0.2
    }
  }
}
layer {
  name: "inception_3a/relu_3x3"
  type: "ReLU"
  bottom: "inception_3a/3x3"
  top: "inception_3a/3x3"
}
layer {
  name: "inception_3a/5x5_reduce"
  type: "Convolution"
  bottom: "pool2/3x3_s2"
  top: "inception_3a/5x5_reduce"
  param {
    lr_mult: 1
    decay_mult: 1
  }
  param {
    lr_mult: 2
    decay_mult: 0
  }
  convolution_param {
    num_output: 16
    kernel_size: 1
    weight_filler {
      type: "xavier"
      std: 0.2
    }
    bias_filler {
      type: "constant"
      value: 0.2
    }
  }
}
layer {
  name: "inception_3a/relu_5x5_reduce"
  type: "ReLU"
  bottom: "inception_3a/5x5_reduce"
  top: "inception_3a/5x5_reduce"
}
layer {
  name: "inception_3a/5x5"
  type: "Convolution"
  bottom: "inception_3a/5x5_reduce"
  top: "inception_3a/5x5"
  param {
    lr_mult: 1
    decay_mult: 1
  }
  param {
    lr_mult: 2
    decay_mult: 0
  }
  convolution_param {
    num_output: 32
    pad: 2
    kernel_size: 5
    weight_filler {
      type: "xavier"
      std: 0.03
    }
    bias_filler {
      type: "constant"
      value: 0.2
    }
  }
}
layer {
  name: "inception_3a/relu_5x5"
  type: "ReLU"
  bottom: "inception_3a/5x5"
  top: "inception_3a/5x5"
}
layer {
  name: "inception_3a/pool"
  type: "Pooling"
  bottom: "pool2/3x3_s2"
  top: "inception_3a/pool"
  pooling_param {
    pool: MAX
    kernel_size: 3
    stride: 1
    pad: 1
  }
}
layer {
  name: "inception_3a/pool_proj"
  type: "Convolution"
  bottom: "inception_3a/pool"
  top: "inception_3a/pool_proj"
  param {
    lr_mult: 1
    decay_mult: 1
  }
  param {
    lr_mult: 2
    decay_mult: 0
  }
  convolution_param {
    num_output: 32
    kernel_size: 1
    weight_filler {
      type: "xavier"
      std: 0.1
    }
    bias_filler {
      type: "constant"
      value: 0.2
    }
  }
}
layer {
  name: "inception_3a/relu_pool_proj"
  type: "ReLU"
  bottom: "inception_3a/pool_proj"
  top: "inception_3a/pool_proj"
}
layer {
  name: "inception_3a/output"
  type: "Concat"
  bottom: "inception_3a/1x1"
  bottom: "inception_3a/3x3"
  bottom: "inception_3a/5x5"
  bottom: "inception_3a/pool_proj"
  top: "inception_3a/output"
}
layer {
  name: "inception_3b/1x1"
  type: "Convolution"
  bottom: "inception_3a/output"
  top: "inception_3b/1x1"
  param {
    lr_mult: 1
    decay_mult: 1
  }
  param {
    lr_mult: 2
    decay_mult: 0
  }
  convolution_param {
    num_output: 128
    kernel_size: 1
    weight_filler {
      type: "xavier"
      std: 0.03
    }
    bias_filler {
      type: "constant"
      value: 0.2
    }
  }
}
layer {
  name: "inception_3b/relu_1x1"
  type: "ReLU"
  bottom: "inception_3b/1x1"
  top: "inception_3b/1x1"
}
layer {
  name: "inception_3b/3x3_reduce"
  type: "Convolution"
  bottom: "inception_3a/output"
  top: "inception_3b/3x3_reduce"
  param {
    lr_mult: 1
    decay_mult: 1
  }
  param {
    lr_mult: 2
    decay_mult: 0
  }
  convolution_param {
    num_output: 128
    kernel_size: 1
    weight_filler {
      type: "xavier"
      std: 0.09
    }
    bias_filler {
      type: "constant"
      value: 0.2
    }
  }
}
layer {
  name: "inception_3b/relu_3x3_reduce"
  type: "ReLU"
  bottom: "inception_3b/3x3_reduce"
  top: "inception_3b/3x3_reduce"
}
layer {
  name: "inception_3b/3x3"
  type: "Convolution"
  bottom: "inception_3b/3x3_reduce"
  top: "inception_3b/3x3"
  param {
    lr_mult: 1
    decay_mult: 1
  }
  param {
    lr_mult: 2
    decay_mult: 0
  }
  convolution_param {
    num_output: 192
    pad: 1
    kernel_size: 3
    weight_filler {
      type: "xavier"
      std: 0.03
    }
    bias_filler {
      type: "constant"
      value: 0.2
    }
  }
}
layer {
  name: "inception_3b/relu_3x3"
  type: "ReLU"
  bottom: "inception_3b/3x3"
  top: "inception_3b/3x3"
}
layer {
  name: "inception_3b/5x5_reduce"
  type: "Convolution"
  bottom: "inception_3a/output"
  top: "inception_3b/5x5_reduce"
  param {
    lr_mult: 1
    decay_mult: 1
  }
  param {
    lr_mult: 2
    decay_mult: 0
  }
  convolution_param {
    num_output: 32
    kernel_size: 1
    weight_filler {
      type: "xavier"
      std: 0.2
    }
    bias_filler {
      type: "constant"
      value: 0.2
    }
  }
}
layer {
  name: "inception_3b/relu_5x5_reduce"
  type: "ReLU"
  bottom: "inception_3b/5x5_reduce"
  top: "inception_3b/5x5_reduce"
}
layer {
  name: "inception_3b/5x5"
  type: "Convolution"
  bottom: "inception_3b/5x5_reduce"
  top: "inception_3b/5x5"
  param {
    lr_mult: 1
    decay_mult: 1
  }
  param {
    lr_mult: 2
    decay_mult: 0
  }
  convolution_param {
    num_output: 96
    pad: 2
    kernel_size: 5
    weight_filler {
      type: "xavier"
      std: 0.03
    }
    bias_filler {
      type: "constant"
      value: 0.2
    }
  }
}
layer {
  name: "inception_3b/relu_5x5"
  type: "ReLU"
  bottom: "inception_3b/5x5"
  top: "inception_3b/5x5"
}
layer {
  name: "inception_3b/pool"
  type: "Pooling"
  bottom: "inception_3a/output"
  top: "inception_3b/pool"
  pooling_param {
    pool: MAX
    kernel_size: 3
    stride: 1
    pad: 1
  }
}
layer {
  name: "inception_3b/pool_proj"
  type: "Convolution"
  bottom: "inception_3b/pool"
  top: "inception_3b/pool_proj"
  param {
    lr_mult: 1
    decay_mult: 1
  }
  param {
    lr_mult: 2
    decay_mult: 0
  }
  convolution_param {
    num_output: 64
    kernel_size: 1
    weight_filler {
      type: "xavier"
      std: 0.1
    }
    bias_filler {
      type: "constant"
      value: 0.2
    }
  }
}
layer {
  name: "inception_3b/relu_pool_proj"
  type: "ReLU"
  bottom: "inception_3b/pool_proj"
  top: "inception_3b/pool_proj"
}
layer {
  name: "inception_3b/output"
  type: "Concat"
  bottom: "inception_3b/1x1"
  bottom: "inception_3b/3x3"
  bottom: "inception_3b/5x5"
  bottom: "inception_3b/pool_proj"
  top: "inception_3b/output"
}
layer {
  name: "pool3/3x3_s2"
  type: "Pooling"
  bottom: "inception_3b/output"
  top: "pool3/3x3_s2"
  pooling_param {
    pool: MAX
    kernel_size: 3
    stride: 2
  }
}
layer {
  name: "inception_4a/1x1"
  type: "Convolution"
  bottom: "pool3/3x3_s2"
  top: "inception_4a/1x1"
  param {
    lr_mult: 1
    decay_mult: 1
  }
  param {
    lr_mult: 2
    decay_mult: 0
  }
  convolution_param {
    num_output: 192
    kernel_size: 1
    weight_filler {
      type: "xavier"
      std: 0.03
    }
    bias_filler {
      type: "constant"
      value: 0.2
    }
  }
}
layer {
  name: "inception_4a/relu_1x1"
  type: "ReLU"
  bottom: "inception_4a/1x1"
  top: "inception_4a/1x1"
}
layer {
  name: "inception_4a/3x3_reduce"
  type: "Convolution"
  bottom: "pool3/3x3_s2"
  top: "inception_4a/3x3_reduce"
  param {
    lr_mult: 1
    decay_mult: 1
  }
  param {
    lr_mult: 2
    decay_mult: 0
  }
  convolution_param {
    num_output: 96
    kernel_size: 1
    weight_filler {
      type: "xavier"
      std: 0.09
    }
    bias_filler {
      type: "constant"
      value: 0.2
    }
  }
}
layer {
  name: "inception_4a/relu_3x3_reduce"
  type: "ReLU"
  bottom: "inception_4a/3x3_reduce"
  top: "inception_4a/3x3_reduce"
}
layer {
  name: "inception_4a/3x3"
  type: "Convolution"
  bottom: "inception_4a/3x3_reduce"
  top: "inception_4a/3x3"
  param {
    lr_mult: 1
    decay_mult: 1
  }
  param {
    lr_mult: 2
    decay_mult: 0
  }
  convolution_param {
    num_output: 208
    pad: 1
    kernel_size: 3
    weight_filler {
      type: "xavier"
      std: 0.03
    }
    bias_filler {
      type: "constant"
      value: 0.2
    }
  }
}
layer {
  name: "inception_4a/relu_3x3"
  type: "ReLU"
  bottom: "inception_4a/3x3"
  top: "inception_4a/3x3"
}
layer {
  name: "inception_4a/5x5_reduce"
  type: "Convolution"
  bottom: "pool3/3x3_s2"
  top: "inception_4a/5x5_reduce"
  param {
    lr_mult: 1
    decay_mult: 1
  }
  param {
    lr_mult: 2
    decay_mult: 0
  }
  convolution_param {
    num_output: 16
    kernel_size: 1
    weight_filler {
      type: "xavier"
      std: 0.2
    }
    bias_filler {
      type: "constant"
      value: 0.2
    }
  }
}
layer {
  name: "inception_4a/relu_5x5_reduce"
  type: "ReLU"
  bottom: "inception_4a/5x5_reduce"
  top: "inception_4a/5x5_reduce"
}
layer {
  name: "inception_4a/5x5"
  type: "Convolution"
  bottom: "inception_4a/5x5_reduce"
  top: "inception_4a/5x5"
  param {
    lr_mult: 1
    decay_mult: 1
  }
  param {
    lr_mult: 2
    decay_mult: 0
  }
  convolution_param {
    num_output: 48
    pad: 2
    kernel_size: 5
    weight_filler {
      type: "xavier"
      std: 0.03
    }
    bias_filler {
      type: "constant"
      value: 0.2
    }
  }
}
layer {
  name: "inception_4a/relu_5x5"
  type: "ReLU"
  bottom: "inception_4a/5x5"
  top: "inception_4a/5x5"
}
layer {
  name: "inception_4a/pool"
  type: "Pooling"
  bottom: "pool3/3x3_s2"
  top: "inception_4a/pool"
  pooling_param {
    pool: MAX
    kernel_size: 3
    stride: 1
    pad: 1
  }
}
layer {
  name: "inception_4a/pool_proj"
  type: "Convolution"
  bottom: "inception_4a/pool"
  top: "inception_4a/pool_proj"
  param {
    lr_mult: 1
    decay_mult: 1
  }
  param {
    lr_mult: 2
    decay_mult: 0
  }
  convolution_param {
    num_output: 64
    kernel_size: 1
    weight_filler {
      type: "xavier"
      std: 0.1
    }
    bias_filler {
      type: "constant"
      value: 0.2
    }
  }
}
layer {
  name: "inception_4a/relu_pool_proj"
  type: "ReLU"
  bottom: "inception_4a/pool_proj"
  top: "inception_4a/pool_proj"
}
layer {
  name: "inception_4a/output"
  type: "Concat"
  bottom: "inception_4a/1x1"
  bottom: "inception_4a/3x3"
  bottom: "inception_4a/5x5"
  bottom: "inception_4a/pool_proj"
  top: "inception_4a/output"
}
layer {
  name: "loss1/ave_pool"
  type: "Pooling"
  bottom: "inception_4a/output"
  top: "loss1/ave_pool"
  pooling_param {
    pool: AVE
    kernel_size: 5
    stride: 3
  }
}
layer {
  name: "loss1/conv"
  type: "Convolution"
  bottom: "loss1/ave_pool"
  top: "loss1/conv"
  param {
    lr_mult: 1
    decay_mult: 1
  }
  param {
    lr_mult: 2
    decay_mult: 0
  }
  convolution_param {
    num_output: 128
    kernel_size: 1
    weight_filler {
      type: "xavier"
      std: 0.08
    }
    bias_filler {
      type: "constant"
      value: 0.2
    }
  }
}
layer {
  name: "loss1/relu_conv"
  type: "ReLU"
  bottom: "loss1/conv"
  top: "loss1/conv"
}
layer {
  name: "loss1/fc"
  type: "InnerProduct"
  bottom: "loss1/conv"
  top: "loss1/fc"
  param {
    lr_mult: 1
    decay_mult: 1
  }
  param {
    lr_mult: 2
    decay_mult: 0
  }
  inner_product_param {
    num_output: 1024
    weight_filler {
      type: "xavier"
      std: 0.02
    }
    bias_filler {
      type: "constant"
      value: 0.2
    }
  }
}
layer {
  name: "loss1/relu_fc"
  type: "ReLU"
  bottom: "loss1/fc"
  top: "loss1/fc"
}
layer {
  name: "loss1/drop_fc"
  type: "Dropout"
  bottom: "loss1/fc"
  top: "loss1/fc"
  dropout_param {
    dropout_ratio: 0.7
  }
}
layer {
  name: "loss1/classifier_plantvillage"
  type: "InnerProduct"
  bottom: "loss1/fc"
  top: "loss1/classifier_plantvillage"
  param {
    lr_mult: 1
    decay_mult: 1
  }
  param {
    lr_mult: 2
    decay_mult: 0
  }
  inner_product_param {
    num_output: 38
    weight_filler {
      type: "xavier"
      std: 0.0009765625
    }
    bias_filler {
      type: "constant"
      value: 0
    }
  }
}
layer {
  name: "inception_4b/1x1"
  type: "Convolution"
  bottom: "inception_4a/output"
  top: "inception_4b/1x1"
  param {
    lr_mult: 1
    decay_mult: 1
  }
  param {
    lr_mult: 2
    decay_mult: 0
  }
  convolution_param {
    num_output: 160
    kernel_size: 1
    weight_filler {
      type: "xavier"
      std: 0.03
    }
    bias_filler {
      type: "constant"
      value: 0.2
    }
  }
}
layer {
…
I0403 09:33:49.976750 25928 layer_factory.hpp:77] Creating layer inception_4c/pool
I0403 09:33:49.976770 25928 net.cpp:91] Creating Layer inception_4c/pool
I0403 09:33:49.976788 25928 net.cpp:425] inception_4c/pool <- inception_4b/output_inception_4b/output_0_split_3
I0403 09:33:49.976812 25928 net.cpp:399] inception_4c/pool -> inception_4c/pool
I0403 09:33:49.976873 25928 net.cpp:141] Setting up inception_4c/pool
I0403 09:33:49.976899 25928 net.cpp:148] Top shape: 24 512 14 14 (2408448)
I0403 09:33:49.976915 25928 net.cpp:156] Memory required for data: 1060605120
I0403 09:33:49.976932 25928 layer_factory.hpp:77] Creating layer inception_4c/pool_proj
I0403 09:33:49.976955 25928 net.cpp:91] Creating Layer inception_4c/pool_proj
I0403 09:33:49.976974 25928 net.cpp:425] inception_4c/pool_proj <- inception_4c/pool
I0403 09:33:49.976997 25928 net.cpp:399] inception_4c/pool_proj -> inception_4c/pool_proj
I0403 09:33:49.977433 25928 net.cpp:141] Setting up inception_4c/pool_proj
I0403 09:33:49.977460 25928 net.cpp:148] Top shape: 24 64 14 14 (301056)
I0403 09:33:49.977475 25928 net.cpp:156] Memory required for data: 1061809344
I0403 09:33:49.977494 25928 layer_factory.hpp:77] Creating layer inception_4c/relu_pool_proj
I0403 09:33:49.977514 25928 net.cpp:91] Creating Layer inception_4c/relu_pool_proj
I0403 09:33:49.977530 25928 net.cpp:425] inception_4c/relu_pool_proj <- inception_4c/pool_proj
I0403 09:33:49.977550 25928 net.cpp:386] inception_4c/relu_pool_proj -> inception_4c/pool_proj (in-place)
I0403 09:33:49.977571 25928 net.cpp:141] Setting up inception_4c/relu_pool_proj
I0403 09:33:49.977588 25928 net.cpp:148] Top shape: 24 64 14 14 (301056)
I0403 09:33:49.977603 25928 net.cpp:156] Memory required for data: 1063013568
I0403 09:33:49.977619 25928 layer_factory.hpp:77] Creating layer inception_4c/output
I0403 09:33:49.977639 25928 net.cpp:91] Creating Layer inception_4c/output
I0403 09:33:49.977658 25928 net.cpp:425] inception_4c/output <- inception_4c/1x1
I0403 09:33:49.977675 25928 net.cpp:425] inception_4c/output <- inception_4c/3x3
I0403 09:33:49.977694 25928 net.cpp:425] inception_4c/output <- inception_4c/5x5
I0403 09:33:49.977710 25928 net.cpp:425] inception_4c/output <- inception_4c/pool_proj
I0403 09:33:49.977728 25928 net.cpp:399] inception_4c/output -> inception_4c/output
I0403 09:33:49.977777 25928 net.cpp:141] Setting up inception_4c/output
I0403 09:33:49.977802 25928 net.cpp:148] Top shape: 24 512 14 14 (2408448)
I0403 09:33:49.977818 25928 net.cpp:156] Memory required for data: 1072647360
I0403 09:33:49.977833 25928 layer_factory.hpp:77] Creating layer inception_4c/output_inception_4c/output_0_split
I0403 09:33:49.977852 25928 net.cpp:91] Creating Layer inception_4c/output_inception_4c/output_0_split
I0403 09:33:49.977869 25928 net.cpp:425] inception_4c/output_inception_4c/output_0_split <- inception_4c/output
I0403 09:33:49.977890 25928 net.cpp:399] inception_4c/output_inception_4c/output_0_split -> inception_4c/output_inception_4c/output_0_split_0
I0403 09:33:49.977913 25928 net.cpp:399] inception_4c/output_inception_4c/output_0_split -> inception_4c/output_inception_4c/output_0_split_1
I0403 09:33:49.977936 25928 net.cpp:399] inception_4c/output_inception_4c/output_0_split -> inception_4c/output_inception_4c/output_0_split_2
I0403 09:33:49.977958 25928 net.cpp:399] inception_4c/output_inception_4c/output_0_split -> inception_4c/output_inception_4c/output_0_split_3
I0403 09:33:49.978054 25928 net.cpp:141] Setting up inception_4c/output_inception_4c/output_0_split
I0403 09:33:49.978140 25928 net.cpp:148] Top shape: 24 512 14 14 (2408448)
I0403 09:33:49.978165 25928 net.cpp:148] Top shape: 24 512 14 14 (2408448)
I0403 09:33:49.978183 25928 net.cpp:148] Top shape: 24 512 14 14 (2408448)
I0403 09:33:49.978199 25928 net.cpp:148] Top shape: 24 512 14 14 (2408448)
I0403 09:33:49.978214 25928 net.cpp:156] Memory required for data: 1111182528
I0403 09:33:49.978229 25928 layer_factory.hpp:77] Creating layer inception_4d/1x1
I0403 09:33:49.978253 25928 net.cpp:91] Creating Layer inception_4d/1x1
I0403 09:33:49.978272 25928 net.cpp:425] inception_4d/1x1 <- inception_4c/output_inception_4c/output_0_split_0
I0403 09:33:49.978292 25928 net.cpp:399] inception_4d/1x1 -> inception_4d/1x1
I0403 09:33:49.978868 25928 net.cpp:141] Setting up inception_4d/1x1
I0403 09:33:49.978894 25928 net.cpp:148] Top shape: 24 112 14 14 (526848)
I0403 09:33:49.978910 25928 net.cpp:156] Memory required for data: 1113289920
I0403 09:33:49.978930 25928 layer_factory.hpp:77] Creating layer inception_4d/relu_1x1
I0403 09:33:49.978950 25928 net.cpp:91] Creating Layer inception_4d/relu_1x1
I0403 09:33:49.978967 25928 net.cpp:425] inception_4d/relu_1x1 <- inception_4d/1x1
I0403 09:33:49.978988 25928 net.cpp:386] inception_4d/relu_1x1 -> inception_4d/1x1 (in-place)
I0403 09:33:49.979012 25928 net.cpp:141] Setting up inception_4d/relu_1x1
I0403 09:33:49.979032 25928 net.cpp:148] Top shape: 24 112 14 14 (526848)
I0403 09:33:49.979046 25928 net.cpp:156] Memory required for data: 1115397312
I0403 09:33:49.979061 25928 layer_factory.hpp:77] Creating layer inception_4d/3x3_reduce
I0403 09:33:49.979084 25928 net.cpp:91] Creating Layer inception_4d/3x3_reduce
I0403 09:33:49.979104 25928 net.cpp:425] inception_4d/3x3_reduce <- inception_4c/output_inception_4c/output_0_split_1
I0403 09:33:49.979125 25928 net.cpp:399] inception_4d/3x3_reduce -> inception_4d/3x3_reduce
I0403 09:33:49.979898 25928 net.cpp:141] Setting up inception_4d/3x3_reduce
I0403 09:33:49.979926 25928 net.cpp:148] Top shape: 24 144 14 14 (677376)
I0403 09:33:49.979943 25928 net.cpp:156] Memory required for data: 1118106816
I0403 09:33:49.979964 25928 layer_factory.hpp:77] Creating layer inception_4d/relu_3x3_reduce
I0403 09:33:49.979984 25928 net.cpp:91] Creating Layer inception_4d/relu_3x3_reduce
I0403 09:33:49.980000 25928 net.cpp:425] inception_4d/relu_3x3_reduce <- inception_4d/3x3_reduce
I0403 09:33:49.980020 25928 net.cpp:386] inception_4d/relu_3x3_reduce -> inception_4d/3x3_reduce (in-place)
I0403 09:33:49.980042 25928 net.cpp:141] Setting up inception_4d/relu_3x3_reduce
I0403 09:33:49.980062 25928 net.cpp:148] Top shape: 24 144 14 14 (677376)
I0403 09:33:49.980078 25928 net.cpp:156] Memory required for data: 1120816320
I0403 09:33:49.980093 25928 layer_factory.hpp:77] Creating layer inception_4d/3x3
I0403 09:33:49.980118 25928 net.cpp:91] Creating Layer inception_4d/3x3
I0403 09:33:49.980137 25928 net.cpp:425] inception_4d/3x3 <- inception_4d/3x3_reduce
I0403 09:33:49.980157 25928 net.cpp:399] inception_4d/3x3 -> inception_4d/3x3
I0403 09:33:49.983485 25928 net.cpp:141] Setting up inception_4d/3x3
I0403 09:33:49.983516 25928 net.cpp:148] Top shape: 24 288 14 14 (1354752)
I0403 09:33:49.983535 25928 net.cpp:156] Memory required for data: 1126235328
I0403 09:33:49.983553 25928 layer_factory.hpp:77] Creating layer inception_4d/relu_3x3
I0403 09:33:49.983573 25928 net.cpp:91] Creating Layer inception_4d/relu_3x3
I0403 09:33:49.983592 25928 net.cpp:425] inception_4d/relu_3x3 <- inception_4d/3x3
I0403 09:33:49.983610 25928 net.cpp:386] inception_4d/relu_3x3 -> inception_4d/3x3 (in-place)
I0403 09:33:49.983631 25928 net.cpp:141] Setting up inception_4d/relu_3x3
I0403 09:33:49.983650 25928 net.cpp:148] Top shape: 24 288 14 14 (1354752)
I0403 09:33:49.983665 25928 net.cpp:156] Memory required for data: 1131654336
I0403 09:33:49.983681 25928 layer_factory.hpp:77] Creating layer inception_4d/5x5_reduce
I0403 09:33:49.983721 25928 net.cpp:91] Creating Layer inception_4d/5x5_reduce
I0403 09:33:49.983742 25928 net.cpp:425] inception_4d/5x5_reduce <- inception_4c/output_inception_4c/output_0_split_2
I0403 09:33:49.983773 25928 net.cpp:399] inception_4d/5x5_reduce -> inception_4d/5x5_reduce
I0403 09:33:49.984129 25928 net.cpp:141] Setting up inception_4d/5x5_reduce
I0403 09:33:49.984158 25928 net.cpp:148] Top shape: 24 32 14 14 (150528)
I0403 09:33:49.984172 25928 net.cpp:156] Memory required for data: 1132256448
I0403 09:33:49.984191 25928 layer_factory.hpp:77] Creating layer inception_4d/relu_5x5_reduce
I0403 09:33:49.984210 25928 net.cpp:91] Creating Layer inception_4d/relu_5x5_reduce
I0403 09:33:49.984230 25928 net.cpp:425] inception_4d/relu_5x5_reduce <- inception_4d/5x5_reduce
I0403 09:33:49.984247 25928 net.cpp:386] inception_4d/relu_5x5_reduce -> inception_4d/5x5_reduce (in-place)
I0403 09:33:49.984267 25928 net.cpp:141] Setting up inception_4d/relu_5x5_reduce
I0403 09:33:49.984285 25928 net.cpp:148] Top shape: 24 32 14 14 (150528)
I0403 09:33:49.984299 25928 net.cpp:156] Memory required for data: 1132858560
I0403 09:33:49.984314 25928 layer_factory.hpp:77] Creating layer inception_4d/5x5
I0403 09:33:49.984339 25928 net.cpp:91] Creating Layer inception_4d/5x5
I0403 09:33:49.984359 25928 net.cpp:425] inception_4d/5x5 <- inception_4d/5x5_reduce
I0403 09:33:49.984381 25928 net.cpp:399] inception_4d/5x5 -> inception_4d/5x5
I0403 09:33:49.984926 25928 net.cpp:141] Setting up inception_4d/5x5
I0403 09:33:49.984952 25928 net.cpp:148] Top shape: 24 64 14 14 (301056)
I0403 09:33:49.984967 25928 net.cpp:156] Memory required for data: 1134062784
I0403 09:33:49.984987 25928 layer_factory.hpp:77] Creating layer inception_4d/relu_5x5
I0403 09:33:49.985007 25928 net.cpp:91] Creating Layer inception_4d/relu_5x5
I0403 09:33:49.985023 25928 net.cpp:425] inception_4d/relu_5x5 <- inception_4d/5x5
I0403 09:33:49.985041 25928 net.cpp:386] inception_4d/relu_5x5 -> inception_4d/5x5 (in-place)
I0403 09:33:49.985112 25928 net.cpp:141] Setting up inception_4d/relu_5x5
I0403 09:33:49.985137 25928 net.cpp:148] Top shape: 24 64 14 14 (301056)
I0403 09:33:49.985153 25928 net.cpp:156] Memory required for data: 1135267008
I0403 09:33:49.985169 25928 layer_factory.hpp:77] Creating layer inception_4d/pool
I0403 09:33:49.985190 25928 net.cpp:91] Creating Layer inception_4d/pool
I0403 09:33:49.985208 25928 net.cpp:425] inception_4d/pool <- inception_4c/output_inception_4c/output_0_split_3
I0403 09:33:49.985229 25928 net.cpp:399] inception_4d/pool -> inception_4d/pool
I0403 09:33:49.985288 25928 net.cpp:141] Setting up inception_4d/pool
I0403 09:33:49.985314 25928 net.cpp:148] Top shape: 24 512 14 14 (2408448)
I0403 09:33:49.985330 25928 net.cpp:156] Memory required for data: 1144900800
I0403 09:33:49.985345 25928 layer_factory.hpp:77] Creating layer inception_4d/pool_proj
I0403 09:33:49.985371 25928 net.cpp:91] Creating Layer inception_4d/pool_proj
I0403 09:33:49.985389 25928 net.cpp:425] inception_4d/pool_proj <- inception_4d/pool
I0403 09:33:49.985409 25928 net.cpp:399] inception_4d/pool_proj -> inception_4d/pool_proj
I0403 09:33:49.985859 25928 net.cpp:141] Setting up inception_4d/pool_proj
I0403 09:33:49.985887 25928 net.cpp:148] Top shape: 24 64 14 14 (301056)
I0403 09:33:49.985903 25928 net.cpp:156] Memory required for data: 1146105024
I0403 09:33:49.985921 25928 layer_factory.hpp:77] Creating layer inception_4d/relu_pool_proj
I0403 09:33:49.985941 25928 net.cpp:91] Creating Layer inception_4d/relu_pool_proj
I0403 09:33:49.985972 25928 net.cpp:425] inception_4d/relu_pool_proj <- inception_4d/pool_proj
I0403 09:33:49.986021 25928 net.cpp:386] inception_4d/relu_pool_proj -> inception_4d/pool_proj (in-place)
I0403 09:33:49.986045 25928 net.cpp:141] Setting up inception_4d/relu_pool_proj
I0403 09:33:49.986065 25928 net.cpp:148] Top shape: 24 64 14 14 (301056)
I0403 09:33:49.986080 25928 net.cpp:156] Memory required for data: 1147309248
I0403 09:33:49.986096 25928 layer_factory.hpp:77] Creating layer inception_4d/output
I0403 09:33:49.986129 25928 net.cpp:91] Creating Layer inception_4d/output
I0403 09:33:49.986148 25928 net.cpp:425] inception_4d/output <- inception_4d/1x1
I0403 09:33:49.986166 25928 net.cpp:425] inception_4d/output <- inception_4d/3x3
I0403 09:33:49.986183 25928 net.cpp:425] inception_4d/output <- inception_4d/5x5
I0403 09:33:49.986201 25928 net.cpp:425] inception_4d/output <- inception_4d/pool_proj
I0403 09:33:49.986218 25928 net.cpp:399] inception_4d/output -> inception_4d/output
I0403 09:33:49.986263 25928 net.cpp:141] Setting up inception_4d/output
I0403 09:33:49.986299 25928 net.cpp:148] Top shape: 24 528 14 14 (2483712)
I0403 09:33:49.986315 25928 net.cpp:156] Memory required for data: 1157244096
I0403 09:33:49.986330 25928 layer_factory.hpp:77] Creating layer inception_4d/output_inception_4d/output_0_split
I0403 09:33:49.986351 25928 net.cpp:91] Creating Layer inception_4d/output_inception_4d/output_0_split
I0403 09:33:49.986369 25928 net.cpp:425] inception_4d/output_inception_4d/output_0_split <- inception_4d/output
I0403 09:33:49.986387 25928 net.cpp:399] inception_4d/output_inception_4d/output_0_split -> inception_4d/output_inception_4d/output_0_split_0
I0403 09:33:49.986408 25928 net.cpp:399] inception_4d/output_inception_4d/output_0_split -> inception_4d/output_inception_4d/output_0_split_1
I0403 09:33:49.986429 25928 net.cpp:399] inception_4d/output_inception_4d/output_0_split -> inception_4d/output_inception_4d/output_0_split_2
I0403 09:33:49.986451 25928 net.cpp:399] inception_4d/output_inception_4d/output_0_split -> inception_4d/output_inception_4d/output_0_split_3
I0403 09:33:49.986472 25928 net.cpp:399] inception_4d/output_inception_4d/output_0_split -> inception_4d/output_inception_4d/output_0_split_4
I0403 09:33:49.986564 25928 net.cpp:141] Setting up inception_4d/output_inception_4d/output_0_split
I0403 09:33:49.986588 25928 net.cpp:148] Top shape: 24 528 14 14 (2483712)
I0403 09:33:49.986605 25928 net.cpp:148] Top shape: 24 528 14 14 (2483712)
I0403 09:33:49.986620 25928 net.cpp:148] Top shape: 24 528 14 14 (2483712)
I0403 09:33:49.986637 25928 net.cpp:148] Top shape: 24 528 14 14 (2483712)
I0403 09:33:49.986654 25928 net.cpp:148] Top shape: 24 528 14 14 (2483712)
I0403 09:33:49.986666 25928 net.cpp:156] Memory required for data: 1206918336
I0403 09:33:49.986714 25928 layer_factory.hpp:77] Creating layer loss2/ave_pool
I0403 09:33:49.986739 25928 net.cpp:91] Creating Layer loss2/ave_pool
I0403 09:33:49.986763 25928 net.cpp:425] loss2/ave_pool <- inception_4d/output_inception_4d/output_0_split_0
I0403 09:33:49.986785 25928 net.cpp:399] loss2/ave_pool -> loss2/ave_pool
I0403 09:33:49.986829 25928 net.cpp:141] Setting up loss2/ave_pool
I0403 09:33:49.986852 25928 net.cpp:148] Top shape: 24 528 4 4 (202752)
I0403 09:33:49.986868 25928 net.cpp:156] Memory required for data: 1207729344
I0403 09:33:49.986884 25928 layer_factory.hpp:77] Creating layer loss2/conv
I0403 09:33:49.986908 25928 net.cpp:91] Creating Layer loss2/conv
I0403 09:33:49.986928 25928 net.cpp:425] loss2/conv <- loss2/ave_pool
I0403 09:33:49.986948 25928 net.cpp:399] loss2/conv -> loss2/conv
I0403 09:33:49.988142 25928 net.cpp:141] Setting up loss2/conv
I0403 09:33:49.988173 25928 net.cpp:148] Top shape: 24 128 4 4 (49152)
I0403 09:33:49.988189 25928 net.cpp:156] Memory required for data: 1207925952
I0403 09:33:49.988209 25928 layer_factory.hpp:77] Creating layer loss2/relu_conv
I0403 09:33:49.988229 25928 net.cpp:91] Creating Layer loss2/relu_conv
I0403 09:33:49.988246 25928 net.cpp:425] loss2/relu_conv <- loss2/conv
I0403 09:33:49.988265 25928 net.cpp:386] loss2/relu_conv -> loss2/conv (in-place)
I0403 09:33:49.988286 25928 net.cpp:141] Setting up loss2/relu_conv
I0403 09:33:49.988304 25928 net.cpp:148] Top shape: 24 128 4 4 (49152)
I0403 09:33:49.988319 25928 net.cpp:156] Memory required for data: 1208122560
I0403 09:33:49.988334 25928 layer_factory.hpp:77] Creating layer loss2/fc
I0403 09:33:49.988358 25928 net.cpp:91] Creating Layer loss2/fc
I0403 09:33:49.988379 25928 net.cpp:425] loss2/fc <- loss2/conv
I0403 09:33:49.988442 25928 net.cpp:399] loss2/fc -> loss2/fc
I0403 09:33:50.005053 25928 net.cpp:141] Setting up loss2/fc
I0403 09:33:50.005105 25928 net.cpp:148] Top shape: 24 1024 (24576)
I0403 09:33:50.005123 25928 net.cpp:156] Memory required for data: 1208220864
I0403 09:33:50.005144 25928 layer_factory.hpp:77] Creating layer loss2/relu_fc
I0403 09:33:50.005167 25928 net.cpp:91] Creating Layer loss2/relu_fc
I0403 09:33:50.005187 25928 net.cpp:425] loss2/relu_fc <- loss2/fc
I0403 09:33:50.005210 25928 net.cpp:386] loss2/relu_fc -> loss2/fc (in-place)
I0403 09:33:50.005234 25928 net.cpp:141] Setting up loss2/relu_fc
I0403 09:33:50.005252 25928 net.cpp:148] Top shape: 24 1024 (24576)
I0403 09:33:50.005267 25928 net.cpp:156] Memory required for data: 1208319168
I0403 09:33:50.005285 25928 layer_factory.hpp:77] Creating layer loss2/drop_fc
I0403 09:33:50.005390 25928 net.cpp:91] Creating Layer loss2/drop_fc
I0403 09:33:50.005414 25928 net.cpp:425] loss2/drop_fc <- loss2/fc
I0403 09:33:50.005434 25928 net.cpp:386] loss2/drop_fc -> loss2/fc (in-place)
I0403 09:33:50.005484 25928 net.cpp:141] Setting up loss2/drop_fc
I0403 09:33:50.005509 25928 net.cpp:148] Top shape: 24 1024 (24576)
I0403 09:33:50.005525 25928 net.cpp:156] Memory required for data: 1208417472
I0403 09:33:50.005542 25928 layer_factory.hpp:77] Creating layer loss2/classifier_plantvillage
I0403 09:33:50.005564 25928 net.cpp:91] Creating Layer loss2/classifier_plantvillage
I0403 09:33:50.005583 25928 net.cpp:425] loss2/classifier_plantvillage <- loss2/fc
I0403 09:33:50.005604 25928 net.cpp:399] loss2/classifier_plantvillage -> loss2/classifier_plantvillage
I0403 09:33:50.005995 25928 net.cpp:141] Setting up loss2/classifier_plantvillage
I0403 09:33:50.006022 25928 net.cpp:148] Top shape: 24 38 (912)
I0403 09:33:50.006037 25928 net.cpp:156] Memory required for data: 1208421120
I0403 09:33:50.006057 25928 layer_factory.hpp:77] Creating layer loss2/classifier_plantvillage_loss2/classifier_plantvillage_0_split
I0403 09:33:50.006114 25928 net.cpp:91] Creating Layer loss2/classifier_plantvillage_loss2/classifier_plantvillage_0_split
I0403 09:33:50.006134 25928 net.cpp:425] loss2/classifier_plantvillage_loss2/classifier_plantvillage_0_split <- loss2/classifier_plantvillage
I0403 09:33:50.006157 25928 net.cpp:399] loss2/classifier_plantvillage_loss2/classifier_plantvillage_0_split -> loss2/classifier_plantvillage_loss2/classifier_plantvillage_0_split_0
I0403 09:33:50.006181 25928 net.cpp:399] loss2/classifier_plantvillage_loss2/classifier_plantvillage_0_split -> loss2/classifier_plantvillage_loss2/classifier_plantvillage_0_split_1
I0403 09:33:50.006202 25928 net.cpp:399] loss2/classifier_plantvillage_loss2/classifier_plantvillage_0_split -> loss2/classifier_plantvillage_loss2/classifier_plantvillage_0_split_2
I0403 09:33:50.006273 25928 net.cpp:141] Setting up loss2/classifier_plantvillage_loss2/classifier_plantvillage_0_split
I0403 09:33:50.006301 25928 net.cpp:148] Top shape: 24 38 (912)
I0403 09:33:50.006319 25928 net.cpp:148] Top shape: 24 38 (912)
I0403 09:33:50.006335 25928 net.cpp:148] Top shape: 24 38 (912)
I0403 09:33:50.006350 25928 net.cpp:156] Memory required for data: 1208432064
I0403 09:33:50.006377 25928 layer_factory.hpp:77] Creating layer inception_4e/1x1
I0403 09:33:50.006400 25928 net.cpp:91] Creating Layer inception_4e/1x1
I0403 09:33:50.006418 25928 net.cpp:425] inception_4e/1x1 <- inception_4d/output_inception_4d/output_0_split_1
I0403 09:33:50.006438 25928 net.cpp:399] inception_4e/1x1 -> inception_4e/1x1
I0403 09:33:50.007489 25928 net.cpp:141] Setting up inception_4e/1x1
I0403 09:33:50.007516 25928 net.cpp:148] Top shape: 24 256 14 14 (1204224)
I0403 09:33:50.007532 25928 net.cpp:156] Memory required for data: 1213248960
I0403 09:33:50.007551 25928 layer_factory.hpp:77] Creating layer inception_4e/relu_1x1
I0403 09:33:50.007570 25928 net.cpp:91] Creating Layer inception_4e/relu_1x1
I0403 09:33:50.007586 25928 net.cpp:425] inception_4e/relu_1x1 <- inception_4e/1x1
I0403 09:33:50.007606 25928 net.cpp:386] inception_4e/relu_1x1 -> inception_4e/1x1 (in-place)
I0403 09:33:50.007644 25928 net.cpp:141] Setting up inception_4e/relu_1x1
I0403 09:33:50.007665 25928 net.cpp:148] Top shape: 24 256 14 14 (1204224)
I0403 09:33:50.007681 25928 net.cpp:156] Memory required for data: 1218065856
I0403 09:33:50.007696 25928 layer_factory.hpp:77] Creating layer inception_4e/3x3_reduce
I0403 09:33:50.007719 25928 net.cpp:91] Creating Layer inception_4e/3x3_reduce
I0403 09:33:50.007738 25928 net.cpp:425] inception_4e/3x3_reduce <- inception_4d/output_inception_4d/output_0_split_2
I0403 09:33:50.007766 25928 net.cpp:399] inception_4e/3x3_reduce -> inception_4e/3x3_reduce
I0403 09:33:50.009068 25928 net.cpp:141] Setting up inception_4e/3x3_reduce
I0403 09:33:50.009098 25928 net.cpp:148] Top shape: 24 160 14 14 (752640)
I0403 09:33:50.009114 25928 net.cpp:156] Memory required for data: 1221076416
I0403 09:33:50.009135 25928 layer_factory.hpp:77] Creating layer inception_4e/relu_3x3_reduce
I0403 09:33:50.009155 25928 net.cpp:91] Creating Layer inception_4e/relu_3x3_reduce
I0403 09:33:50.009173 25928 net.cpp:425] inception_4e/relu_3x3_reduce <- inception_4e/3x3_reduce
I0403 09:33:50.009192 25928 net.cpp:386] inception_4e/relu_3x3_reduce -> inception_4e/3x3_reduce (in-place)
I0403 09:33:50.009212 25928 net.cpp:141] Setting up inception_4e/relu_3x3_reduce
I0403 09:33:50.009232 25928 net.cpp:148] Top shape: 24 160 14 14 (752640)
I0403 09:33:50.009248 25928 net.cpp:156] Memory required for data: 1224086976
I0403 09:33:50.009261 25928 layer_factory.hpp:77] Creating layer inception_4e/3x3
I0403 09:33:50.009284 25928 net.cpp:91] Creating Layer inception_4e/3x3
I0403 09:33:50.009302 25928 net.cpp:425] inception_4e/3x3 <- inception_4e/3x3_reduce
I0403 09:33:50.009322 25928 net.cpp:399] inception_4e/3x3 -> inception_4e/3x3
I0403 09:33:50.013182 25928 net.cpp:141] Setting up inception_4e/3x3
I0403 09:33:50.013214 25928 net.cpp:148] Top shape: 24 320 14 14 (1505280)
I0403 09:33:50.013231 25928 net.cpp:156] Memory required for data: 1230108096
I0403 09:33:50.013250 25928 layer_factory.hpp:77] Creating layer inception_4e/relu_3x3
I0403 09:33:50.013269 25928 net.cpp:91] Creating Layer inception_4e/relu_3x3
I0403 09:33:50.013288 25928 net.cpp:425] inception_4e/relu_3x3 <- inception_4e/3x3
I0403 09:33:50.013308 25928 net.cpp:386] inception_4e/relu_3x3 -> inception_4e/3x3 (in-place)
I0403 09:33:50.013327 25928 net.cpp:141] Setting up inception_4e/relu_3x3
I0403 09:33:50.013345 25928 net.cpp:148] Top shape: 24 320 14 14 (1505280)
I0403 09:33:50.013360 25928 net.cpp:156] Memory required for data: 1236129216
I0403 09:33:50.013375 25928 layer_factory.hpp:77] Creating layer inception_4e/5x5_reduce
I0403 09:33:50.013396 25928 net.cpp:91] Creating Layer inception_4e/5x5_reduce
I0403 09:33:50.013414 25928 net.cpp:425] inception_4e/5x5_reduce <- inception_4d/output_inception_4d/output_0_split_3
I0403 09:33:50.013437 25928 net.cpp:399] inception_4e/5x5_reduce -> inception_4e/5x5_reduce
I0403 09:33:50.014318 25928 net.cpp:141] Setting up inception_4e/5x5_reduce
I0403 09:33:50.014350 25928 net.cpp:148] Top shape: 24 32 14 14 (150528)
I0403 09:33:50.014367 25928 net.cpp:156] Memory required for data: 1236731328
I0403 09:33:50.014387 25928 layer_factory.hpp:77] Creating layer inception_4e/relu_5x5_reduce
I0403 09:33:50.014406 25928 net.cpp:91] Creating Layer inception_4e/relu_5x5_reduce
I0403 09:33:50.014425 25928 net.cpp:425] inception_4e/relu_5x5_reduce <- inception_4e/5x5_reduce
I0403 09:33:50.014443 25928 net.cpp:386] inception_4e/relu_5x5_reduce -> inception_4e/5x5_reduce (in-place)
I0403 09:33:50.014463 25928 net.cpp:141] Setting up inception_4e/relu_5x5_reduce
I0403 09:33:50.014482 25928 net.cpp:148] Top shape: 24 32 14 14 (150528)
I0403 09:33:50.014497 25928 net.cpp:156] Memory required for data: 1237333440
I0403 09:33:50.014511 25928 layer_factory.hpp:77] Creating layer inception_4e/5x5
I0403 09:33:50.014554 25928 net.cpp:91] Creating Layer inception_4e/5x5
I0403 09:33:50.014574 25928 net.cpp:425] inception_4e/5x5 <- inception_4e/5x5_reduce
I0403 09:33:50.014595 25928 net.cpp:399] inception_4e/5x5 -> inception_4e/5x5
I0403 09:33:50.015383 25928 net.cpp:141] Setting up inception_4e/5x5
I0403 09:33:50.015409 25928 net.cpp:148] Top shape: 24 128 14 14 (602112)
I0403 09:33:50.015425 25928 net.cpp:156] Memory required for data: 1239741888
I0403 09:33:50.015444 25928 layer_factory.hpp:77] Creating layer inception_4e/relu_5x5
I0403 09:33:50.015463 25928 net.cpp:91] Creating Layer inception_4e/relu_5x5
I0403 09:33:50.015480 25928 net.cpp:425] inception_4e/relu_5x5 <- inception_4e/5x5
I0403 09:33:50.015498 25928 net.cpp:386] inception_4e/relu_5x5 -> inception_4e/5x5 (in-place)
I0403 09:33:50.015519 25928 net.cpp:141] Setting up inception_4e/relu_5x5
I0403 09:33:50.015539 25928 net.cpp:148] Top shape: 24 128 14 14 (602112)
I0403 09:33:50.015553 25928 net.cpp:156] Memory required for data: 1242150336
I0403 09:33:50.015568 25928 layer_factory.hpp:77] Creating layer inception_4e/pool
I0403 09:33:50.015589 25928 net.cpp:91] Creating Layer inception_4e/pool
I0403 09:33:50.015607 25928 net.cpp:425] inception_4e/pool <- inception_4d/output_inception_4d/output_0_split_4
I0403 09:33:50.015626 25928 net.cpp:399] inception_4e/pool -> inception_4e/pool
I0403 09:33:50.015689 25928 net.cpp:141] Setting up inception_4e/pool
I0403 09:33:50.015713 25928 net.cpp:148] Top shape: 24 528 14 14 (2483712)
I0403 09:33:50.015729 25928 net.cpp:156] Memory required for data: 1252085184
I0403 09:33:50.015748 25928 layer_factory.hpp:77] Creating layer inception_4e/pool_proj
I0403 09:33:50.015774 25928 net.cpp:91] Creating Layer inception_4e/pool_proj
I0403 09:33:50.015792 25928 net.cpp:425] inception_4e/pool_proj <- inception_4e/pool
I0403 09:33:50.015812 25928 net.cpp:399] inception_4e/pool_proj -> inception_4e/pool_proj
I0403 09:33:50.016387 25928 net.cpp:141] Setting up inception_4e/pool_proj
I0403 09:33:50.016413 25928 net.cpp:148] Top shape: 24 128 14 14 (602112)
I0403 09:33:50.016429 25928 net.cpp:156] Memory required for data: 1254493632
I0403 09:33:50.016448 25928 layer_factory.hpp:77] Creating layer inception_4e/relu_pool_proj
I0403 09:33:50.016466 25928 net.cpp:91] Creating Layer inception_4e/relu_pool_proj
I0403 09:33:50.016484 25928 net.cpp:425] inception_4e/relu_pool_proj <- inception_4e/pool_proj
I0403 09:33:50.016504 25928 net.cpp:386] inception_4e/relu_pool_proj -> inception_4e/pool_proj (in-place)
I0403 09:33:50.016525 25928 net.cpp:141] Setting up inception_4e/relu_pool_proj
I0403 09:33:50.016544 25928 net.cpp:148] Top shape: 24 128 14 14 (602112)
I0403 09:33:50.016558 25928 net.cpp:156] Memory required for data: 1256902080
I0403 09:33:50.016573 25928 layer_factory.hpp:77] Creating layer inception_4e/output
I0403 09:33:50.016592 25928 net.cpp:91] Creating Layer inception_4e/output
I0403 09:33:50.016608 25928 net.cpp:425] inception_4e/output <- inception_4e/1x1
I0403 09:33:50.016624 25928 net.cpp:425] inception_4e/output <- inception_4e/3x3
I0403 09:33:50.016641 25928 net.cpp:425] inception_4e/output <- inception_4e/5x5
I0403 09:33:50.016657 25928 net.cpp:425] inception_4e/output <- inception_4e/pool_proj
I0403 09:33:50.016676 25928 net.cpp:399] inception_4e/output -> inception_4e/output
I0403 09:33:50.016718 25928 net.cpp:141] Setting up inception_4e/output
I0403 09:33:50.016741 25928 net.cpp:148] Top shape: 24 832 14 14 (3913728)
I0403 09:33:50.016762 25928 net.cpp:156] Memory required for data: 1272556992
I0403 09:33:50.016777 25928 layer_factory.hpp:77] Creating layer pool4/3x3_s2
I0403 09:33:50.016800 25928 net.cpp:91] Creating Layer pool4/3x3_s2
I0403 09:33:50.016819 25928 net.cpp:425] pool4/3x3_s2 <- inception_4e/output
I0403 09:33:50.016839 25928 net.cpp:399] pool4/3x3_s2 -> pool4/3x3_s2
I0403 09:33:50.016896 25928 net.cpp:141] Setting up pool4/3x3_s2
I0403 09:33:50.016921 25928 net.cpp:148] Top shape: 24 832 7 7 (978432)
I0403 09:33:50.016935 25928 net.cpp:156] Memory required for data: 1276470720
I0403 09:33:50.016950 25928 layer_factory.hpp:77] Creating layer pool4/3x3_s2_pool4/3x3_s2_0_split
I0403 09:33:50.016969 25928 net.cpp:91] Creating Layer pool4/3x3_s2_pool4/3x3_s2_0_split
I0403 09:33:50.016986 25928 net.cpp:425] pool4/3x3_s2_pool4/3x3_s2_0_split <- pool4/3x3_s2
I0403 09:33:50.017020 25928 net.cpp:399] pool4/3x3_s2_pool4/3x3_s2_0_split -> pool4/3x3_s2_pool4/3x3_s2_0_split_0
I0403 09:33:50.017045 25928 net.cpp:399] pool4/3x3_s2_pool4/3x3_s2_0_split -> pool4/3x3_s2_pool4/3x3_s2_0_split_1
I0403 09:33:50.017068 25928 net.cpp:399] pool4/3x3_s2_pool4/3x3_s2_0_split -> pool4/3x3_s2_pool4/3x3_s2_0_split_2
I0403 09:33:50.017089 25928 net.cpp:399] pool4/3x3_s2_pool4/3x3_s2_0_split -> pool4/3x3_s2_pool4/3x3_s2_0_split_3
I0403 09:33:50.018390 25928 net.cpp:141] Setting up pool4/3x3_s2_pool4/3x3_s2_0_split
I0403 09:33:50.018425 25928 net.cpp:148] Top shape: 24 832 7 7 (978432)
I0403 09:33:50.018445 25928 net.cpp:148] Top shape: 24 832 7 7 (978432)
I0403 09:33:50.018462 25928 net.cpp:148] Top shape: 24 832 7 7 (978432)
I0403 09:33:50.018477 25928 net.cpp:148] Top shape: 24 832 7 7 (978432)
I0403 09:33:50.018491 25928 net.cpp:156] Memory required for data: 1292125632
I0403 09:33:50.018507 25928 layer_factory.hpp:77] Creating layer inception_5a/1x1
I0403 09:33:50.018533 25928 net.cpp:91] Creating Layer inception_5a/1x1
I0403 09:33:50.018553 25928 net.cpp:425] inception_5a/1x1 <- pool4/3x3_s2_pool4/3x3_s2_0_split_0
I0403 09:33:50.018574 25928 net.cpp:399] inception_5a/1x1 -> inception_5a/1x1
I0403 09:33:50.020530 25928 net.cpp:141] Setting up inception_5a/1x1
I0403 09:33:50.020561 25928 net.cpp:148] Top shape: 24 256 7 7 (301056)
I0403 09:33:50.020577 25928 net.cpp:156] Memory required for data: 1293329856
I0403 09:33:50.020596 25928 layer_factory.hpp:77] Creating layer inception_5a/relu_1x1
I0403 09:33:50.020617 25928 net.cpp:91] Creating Layer inception_5a/relu_1x1
I0403 09:33:50.020635 25928 net.cpp:425] inception_5a/relu_1x1 <- inception_5a/1x1
I0403 09:33:50.020653 25928 net.cpp:386] inception_5a/relu_1x1 -> inception_5a/1x1 (in-place)
I0403 09:33:50.020673 25928 net.cpp:141] Setting up inception_5a/relu_1x1
I0403 09:33:50.020691 25928 net.cpp:148] Top shape: 24 256 7 7 (301056)
I0403 09:33:50.020706 25928 net.cpp:156] Memory required for data: 1294534080
I0403 09:33:50.020720 25928 layer_factory.hpp:77] Creating layer inception_5a/3x3_reduce
I0403 09:33:50.020762 25928 net.cpp:91] Creating Layer inception_5a/3x3_reduce
I0403 09:33:50.020783 25928 net.cpp:425] inception_5a/3x3_reduce <- pool4/3x3_s2_pool4/3x3_s2_0_split_1
I0403 09:33:50.020808 25928 net.cpp:399] inception_5a/3x3_reduce -> inception_5a/3x3_reduce
I0403 09:33:50.022339 25928 net.cpp:141] Setting up inception_5a/3x3_reduce
I0403 09:33:50.022372 25928 net.cpp:148] Top shape: 24 160 7 7 (188160)
I0403 09:33:50.022389 25928 net.cpp:156] Memory required for data: 1295286720
I0403 09:33:50.022408 25928 layer_factory.hpp:77] Creating layer inception_5a/relu_3x3_reduce
I0403 09:33:50.022428 25928 net.cpp:91] Creating Layer inception_5a/relu_3x3_reduce
I0403 09:33:50.022446 25928 net.cpp:425] inception_5a/relu_3x3_reduce <- inception_5a/3x3_reduce
I0403 09:33:50.022464 25928 net.cpp:386] inception_5a/relu_3x3_reduce -> inception_5a/3x3_reduce (in-place)
I0403 09:33:50.022485 25928 net.cpp:141] Setting up inception_5a/relu_3x3_reduce
I0403 09:33:50.022505 25928 net.cpp:148] Top shape: 24 160 7 7 (188160)
I0403 09:33:50.022518 25928 net.cpp:156] Memory required for data: 1296039360
I0403 09:33:50.022532 25928 layer_factory.hpp:77] Creating layer inception_5a/3x3
I0403 09:33:50.022557 25928 net.cpp:91] Creating Layer inception_5a/3x3
I0403 09:33:50.022575 25928 net.cpp:425] inception_5a/3x3 <- inception_5a/3x3_reduce
I0403 09:33:50.022599 25928 net.cpp:399] inception_5a/3x3 -> inception_5a/3x3
I0403 09:33:50.026413 25928 net.cpp:141] Setting up inception_5a/3x3
I0403 09:33:50.026448 25928 net.cpp:148] Top shape: 24 320 7 7 (376320)
I0403 09:33:50.026465 25928 net.cpp:156] Memory required for data: 1297544640
I0403 09:33:50.026484 25928 layer_factory.hpp:77] Creating layer inception_5a/relu_3x3
I0403 09:33:50.026502 25928 net.cpp:91] Creating Layer inception_5a/relu_3x3
I0403 09:33:50.026521 25928 net.cpp:425] inception_5a/relu_3x3 <- inception_5a/3x3
I0403 09:33:50.026540 25928 net.cpp:386] inception_5a/relu_3x3 -> inception_5a/3x3 (in-place)
I0403 09:33:50.026577 25928 net.cpp:141] Setting up inception_5a/relu_3x3
I0403 09:33:50.026598 25928 net.cpp:148] Top shape: 24 320 7 7 (376320)
I0403 09:33:50.026613 25928 net.cpp:156] Memory required for data: 1299049920
I0403 09:33:50.026628 25928 layer_factory.hpp:77] Creating layer inception_5a/5x5_reduce
I0403 09:33:50.026650 25928 net.cpp:91] Creating Layer inception_5a/5x5_reduce
I0403 09:33:50.026669 25928 net.cpp:425] inception_5a/5x5_reduce <- pool4/3x3_s2_pool4/3x3_s2_0_split_2
I0403 09:33:50.026693 25928 net.cpp:399] inception_5a/5x5_reduce -> inception_5a/5x5_reduce
I0403 09:33:50.027182 25928 net.cpp:141] Setting up inception_5a/5x5_reduce
I0403 09:33:50.027209 25928 net.cpp:148] Top shape: 24 32 7 7 (37632)
I0403 09:33:50.027225 25928 net.cpp:156] Memory required for data: 1299200448
I0403 09:33:50.027245 25928 layer_factory.hpp:77] Creating layer inception_5a/relu_5x5_reduce
I0403 09:33:50.027266 25928 net.cpp:91] Creating Layer inception_5a/relu_5x5_reduce
I0403 09:33:50.027284 25928 net.cpp:425] inception_5a/relu_5x5_reduce <- inception_5a/5x5_reduce
I0403 09:33:50.027302 25928 net.cpp:386] inception_5a/relu_5x5_reduce -> inception_5a/5x5_reduce (in-place)
I0403 09:33:50.027321 25928 net.cpp:141] Setting up inception_5a/relu_5x5_reduce
I0403 09:33:50.027341 25928 net.cpp:148] Top shape: 24 32 7 7 (37632)
I0403 09:33:50.027356 25928 net.cpp:156] Memory required for data: 1299350976
I0403 09:33:50.027371 25928 layer_factory.hpp:77] Creating layer inception_5a/5x5
I0403 09:33:50.027395 25928 net.cpp:91] Creating Layer inception_5a/5x5
I0403 09:33:50.027412 25928 net.cpp:425] inception_5a/5x5 <- inception_5a/5x5_reduce
I0403 09:33:50.027432 25928 net.cpp:399] inception_5a/5x5 -> inception_5a/5x5
I0403 09:33:50.028219 25928 net.cpp:141] Setting up inception_5a/5x5
I0403 09:33:50.028249 25928 net.cpp:148] Top shape: 24 128 7 7 (150528)
I0403 09:33:50.028265 25928 net.cpp:156] Memory required for data: 1299953088
I0403 09:33:50.028285 25928 layer_factory.hpp:77] Creating layer inception_5a/relu_5x5
I0403 09:33:50.028303 25928 net.cpp:91] Creating Layer inception_5a/relu_5x5
I0403 09:33:50.028321 25928 net.cpp:425] inception_5a/relu_5x5 <- inception_5a/5x5
I0403 09:33:50.028342 25928 net.cpp:386] inception_5a/relu_5x5 -> inception_5a/5x5 (in-place)
I0403 09:33:50.028362 25928 net.cpp:141] Setting up inception_5a/relu_5x5
I0403 09:33:50.028380 25928 net.cpp:148] Top shape: 24 128 7 7 (150528)
I0403 09:33:50.028394 25928 net.cpp:156] Memory required for data: 1300555200
I0403 09:33:50.028471 25928 layer_factory.hpp:77] Creating layer inception_5a/pool
I0403 09:33:50.028498 25928 net.cpp:91] Creating Layer inception_5a/pool
I0403 09:33:50.028517 25928 net.cpp:425] inception_5a/pool <- pool4/3x3_s2_pool4/3x3_s2_0_split_3
I0403 09:33:50.028537 25928 net.cpp:399] inception_5a/pool -> inception_5a/pool
I0403 09:33:50.028594 25928 net.cpp:141] Setting up inception_5a/pool
I0403 09:33:50.028619 25928 net.cpp:148] Top shape: 24 832 7 7 (978432)
I0403 09:33:50.028632 25928 net.cpp:156] Memory required for data: 1304468928
I0403 09:33:50.028646 25928 layer_factory.hpp:77] Creating layer inception_5a/pool_proj
I0403 09:33:50.028668 25928 net.cpp:91] Creating Layer inception_5a/pool_proj
I0403 09:33:50.028687 25928 net.cpp:425] inception_5a/pool_proj <- inception_5a/pool
I0403 09:33:50.028710 25928 net.cpp:399] inception_5a/pool_proj -> inception_5a/pool_proj
I0403 09:33:50.030027 25928 net.cpp:141] Setting up inception_5a/pool_proj
I0403 09:33:50.030057 25928 net.cpp:148] Top shape: 24 128 7 7 (150528)
I0403 09:33:50.030074 25928 net.cpp:156] Memory required for data: 1305071040
I0403 09:33:50.030093 25928 layer_factory.hpp:77] Creating layer inception_5a/relu_pool_proj
I0403 09:33:50.030139 25928 net.cpp:91] Creating Layer inception_5a/relu_pool_proj
I0403 09:33:50.030164 25928 net.cpp:425] inception_5a/relu_pool_proj <- inception_5a/pool_proj
I0403 09:33:50.030184 25928 net.cpp:386] inception_5a/relu_pool_proj -> inception_5a/pool_proj (in-place)
I0403 09:33:50.030205 25928 net.cpp:141] Setting up inception_5a/relu_pool_proj
I0403 09:33:50.030242 25928 net.cpp:148] Top shape: 24 128 7 7 (150528)
I0403 09:33:50.030259 25928 net.cpp:156] Memory required for data: 1305673152
I0403 09:33:50.030274 25928 layer_factory.hpp:77] Creating layer inception_5a/output
I0403 09:33:50.030292 25928 net.cpp:91] Creating Layer inception_5a/output
I0403 09:33:50.030309 25928 net.cpp:425] inception_5a/output <- inception_5a/1x1
I0403 09:33:50.030328 25928 net.cpp:425] inception_5a/output <- inception_5a/3x3
I0403 09:33:50.030344 25928 net.cpp:425] inception_5a/output <- inception_5a/5x5
I0403 09:33:50.030360 25928 net.cpp:425] inception_5a/output <- inception_5a/pool_proj
I0403 09:33:50.030378 25928 net.cpp:399] inception_5a/output -> inception_5a/output
I0403 09:33:50.030421 25928 net.cpp:141] Setting up inception_5a/output
I0403 09:33:50.030444 25928 net.cpp:148] Top shape: 24 832 7 7 (978432)
I0403 09:33:50.030460 25928 net.cpp:156] Memory required for data: 1309586880
I0403 09:33:50.030477 25928 layer_factory.hpp:77] Creating layer inception_5a/output_inception_5a/output_0_split
I0403 09:33:50.030498 25928 net.cpp:91] Creating Layer inception_5a/output_inception_5a/output_0_split
I0403 09:33:50.030516 25928 net.cpp:425] inception_5a/output_inception_5a/output_0_split <- inception_5a/output
I0403 09:33:50.030534 25928 net.cpp:399] inception_5a/output_inception_5a/output_0_split -> inception_5a/output_inception_5a/output_0_split_0
I0403 09:33:50.030555 25928 net.cpp:399] inception_5a/output_inception_5a/output_0_split -> inception_5a/output_inception_5a/output_0_split_1
I0403 09:33:50.030577 25928 net.cpp:399] inception_5a/output_inception_5a/output_0_split -> inception_5a/output_inception_5a/output_0_split_2
I0403 09:33:50.030601 25928 net.cpp:399] inception_5a/output_inception_5a/output_0_split -> inception_5a/output_inception_5a/output_0_split_3
I0403 09:33:50.030671 25928 net.cpp:141] Setting up inception_5a/output_inception_5a/output_0_split
I0403 09:33:50.030695 25928 net.cpp:148] Top shape: 24 832 7 7 (978432)
I0403 09:33:50.030712 25928 net.cpp:148] Top shape: 24 832 7 7 (978432)
I0403 09:33:50.030728 25928 net.cpp:148] Top shape: 24 832 7 7 (978432)
I0403 09:33:50.030748 25928 net.cpp:148] Top shape: 24 832 7 7 (978432)
I0403 09:33:50.030766 25928 net.cpp:156] Memory required for data: 1325241792
I0403 09:33:50.030781 25928 layer_factory.hpp:77] Creating layer inception_5b/1x1
I0403 09:33:50.030803 25928 net.cpp:91] Creating Layer inception_5b/1x1
I0403 09:33:50.030822 25928 net.cpp:425] inception_5b/1x1 <- inception_5a/output_inception_5a/output_0_split_0
I0403 09:33:50.030844 25928 net.cpp:399] inception_5b/1x1 -> inception_5b/1x1
I0403 09:33:50.033476 25928 net.cpp:141] Setting up inception_5b/1x1
I0403 09:33:50.033509 25928 net.cpp:148] Top shape: 24 384 7 7 (451584)
I0403 09:33:50.033527 25928 net.cpp:156] Memory required for data: 1327048128
I0403 09:33:50.033586 25928 layer_factory.hpp:77] Creating layer inception_5b/relu_1x1
I0403 09:33:50.033612 25928 net.cpp:91] Creating Layer inception_5b/relu_1x1
I0403 09:33:50.033632 25928 net.cpp:425] inception_5b/relu_1x1 <- inception_5b/1x1
I0403 09:33:50.033649 25928 net.cpp:386] inception_5b/relu_1x1 -> inception_5b/1x1 (in-place)
I0403 09:33:50.033669 25928 net.cpp:141] Setting up inception_5b/relu_1x1
I0403 09:33:50.033689 25928 net.cpp:148] Top shape: 24 384 7 7 (451584)
I0403 09:33:50.033704 25928 net.cpp:156] Memory required for data: 1328854464
I0403 09:33:50.033720 25928 layer_factory.hpp:77] Creating layer inception_5b/3x3_reduce
I0403 09:33:50.033748 25928 net.cpp:91] Creating Layer inception_5b/3x3_reduce
I0403 09:33:50.033769 25928 net.cpp:425] inception_5b/3x3_reduce <- inception_5a/output_inception_5a/output_0_split_1
I0403 09:33:50.033790 25928 net.cpp:399] inception_5b/3x3_reduce -> inception_5b/3x3_reduce
I0403 09:33:50.035508 25928 net.cpp:141] Setting up inception_5b/3x3_reduce
I0403 09:33:50.035539 25928 net.cpp:148] Top shape: 24 192 7 7 (225792)
I0403 09:33:50.035557 25928 net.cpp:156] Memory required for data: 1329757632
I0403 09:33:50.035576 25928 layer_factory.hpp:77] Creating layer inception_5b/relu_3x3_reduce
I0403 09:33:50.035616 25928 net.cpp:91] Creating Layer inception_5b/relu_3x3_reduce
I0403 09:33:50.035639 25928 net.cpp:425] inception_5b/relu_3x3_reduce <- inception_5b/3x3_reduce
I0403 09:33:50.035657 25928 net.cpp:386] inception_5b/relu_3x3_reduce -> inception_5b/3x3_reduce (in-place)
I0403 09:33:50.035678 25928 net.cpp:141] Setting up inception_5b/relu_3x3_reduce
I0403 09:33:50.035697 25928 net.cpp:148] Top shape: 24 192 7 7 (225792)
I0403 09:33:50.035713 25928 net.cpp:156] Memory required for data: 1330660800
I0403 09:33:50.035728 25928 layer_factory.hpp:77] Creating layer inception_5b/3x3
I0403 09:33:50.035758 25928 net.cpp:91] Creating Layer inception_5b/3x3
I0403 09:33:50.035778 25928 net.cpp:425] inception_5b/3x3 <- inception_5b/3x3_reduce
I0403 09:33:50.035800 25928 net.cpp:399] inception_5b/3x3 -> inception_5b/3x3
I0403 09:33:50.041293 25928 net.cpp:141] Setting up inception_5b/3x3
I0403 09:33:50.041324 25928 net.cpp:148] Top shape: 24 384 7 7 (451584)
I0403 09:33:50.041342 25928 net.cpp:156] Memory required for data: 1332467136
I0403 09:33:50.041360 25928 layer_factory.hpp:77] Creating layer inception_5b/relu_3x3
I0403 09:33:50.041380 25928 net.cpp:91] Creating Layer inception_5b/relu_3x3
I0403 09:33:50.041400 25928 net.cpp:425] inception_5b/relu_3x3 <- inception_5b/3x3
I0403 09:33:50.041419 25928 net.cpp:386] inception_5b/relu_3x3 -> inception_5b/3x3 (in-place)
I0403 09:33:50.041443 25928 net.cpp:141] Setting up inception_5b/relu_3x3
I0403 09:33:50.041463 25928 net.cpp:148] Top shape: 24 384 7 7 (451584)
I0403 09:33:50.041478 25928 net.cpp:156] Memory required for data: 1334273472
I0403 09:33:50.041493 25928 layer_factory.hpp:77] Creating layer inception_5b/5x5_reduce
I0403 09:33:50.041514 25928 net.cpp:91] Creating Layer inception_5b/5x5_reduce
I0403 09:33:50.041532 25928 net.cpp:425] inception_5b/5x5_reduce <- inception_5a/output_inception_5a/output_0_split_2
I0403 09:33:50.041555 25928 net.cpp:399] inception_5b/5x5_reduce -> inception_5b/5x5_reduce
I0403 09:33:50.042618 25928 net.cpp:141] Setting up inception_5b/5x5_reduce
I0403 09:33:50.042649 25928 net.cpp:148] Top shape: 24 48 7 7 (56448)
I0403 09:33:50.042665 25928 net.cpp:156] Memory required for data: 1334499264
I0403 09:33:50.042683 25928 layer_factory.hpp:77] Creating layer inception_5b/relu_5x5_reduce
I0403 09:33:50.042703 25928 net.cpp:91] Creating Layer inception_5b/relu_5x5_reduce
I0403 09:33:50.042721 25928 net.cpp:425] inception_5b/relu_5x5_reduce <- inception_5b/5x5_reduce
I0403 09:33:50.042742 25928 net.cpp:386] inception_5b/relu_5x5_reduce -> inception_5b/5x5_reduce (in-place)
I0403 09:33:50.042768 25928 net.cpp:141] Setting up inception_5b/relu_5x5_reduce
I0403 09:33:50.042790 25928 net.cpp:148] Top shape: 24 48 7 7 (56448)
I0403 09:33:50.042805 25928 net.cpp:156] Memory required for data: 1334725056
I0403 09:33:50.042820 25928 layer_factory.hpp:77] Creating layer inception_5b/5x5
I0403 09:33:50.042842 25928 net.cpp:91] Creating Layer inception_5b/5x5
I0403 09:33:50.042860 25928 net.cpp:425] inception_5b/5x5 <- inception_5b/5x5_reduce
I0403 09:33:50.042882 25928 net.cpp:399] inception_5b/5x5 -> inception_5b/5x5
I0403 09:33:50.043954 25928 net.cpp:141] Setting up inception_5b/5x5
I0403 09:33:50.043982 25928 net.cpp:148] Top shape: 24 128 7 7 (150528)
I0403 09:33:50.043997 25928 net.cpp:156] Memory required for data: 1335327168
I0403 09:33:50.044014 25928 layer_factory.hpp:77] Creating layer inception_5b/relu_5x5
I0403 09:33:50.044034 25928 net.cpp:91] Creating Layer inception_5b/relu_5x5
I0403 09:33:50.044052 25928 net.cpp:425] inception_5b/relu_5x5 <- inception_5b/5x5
I0403 09:33:50.044070 25928 net.cpp:386] inception_5b/relu_5x5 -> inception_5b/5x5 (in-place)
I0403 09:33:50.044090 25928 net.cpp:141] Setting up inception_5b/relu_5x5
I0403 09:33:50.044109 25928 net.cpp:148] Top shape: 24 128 7 7 (150528)
I0403 09:33:50.044157 25928 net.cpp:156] Memory required for data: 1335929280
I0403 09:33:50.044178 25928 layer_factory.hpp:77] Creating layer inception_5b/pool
I0403 09:33:50.044216 25928 net.cpp:91] Creating Layer inception_5b/pool
I0403 09:33:50.044237 25928 net.cpp:425] inception_5b/pool <- inception_5a/output_inception_5a/output_0_split_3
I0403 09:33:50.044256 25928 net.cpp:399] inception_5b/pool -> inception_5b/pool
I0403 09:33:50.044312 25928 net.cpp:141] Setting up inception_5b/pool
I0403 09:33:50.044337 25928 net.cpp:148] Top shape: 24 832 7 7 (978432)
I0403 09:33:50.044351 25928 net.cpp:156] Memory required for data: 1339843008
I0403 09:33:50.044366 25928 layer_factory.hpp:77] Creating layer inception_5b/pool_proj
I0403 09:33:50.044389 25928 net.cpp:91] Creating Layer inception_5b/pool_proj
I0403 09:33:50.044409 25928 net.cpp:425] inception_5b/pool_proj <- inception_5b/pool
I0403 09:33:50.044431 25928 net.cpp:399] inception_5b/pool_proj -> inception_5b/pool_proj
I0403 09:33:50.045861 25928 net.cpp:141] Setting up inception_5b/pool_proj
I0403 09:33:50.045892 25928 net.cpp:148] Top shape: 24 128 7 7 (150528)
I0403 09:33:50.045908 25928 net.cpp:156] Memory required for data: 1340445120
I0403 09:33:50.045928 25928 layer_factory.hpp:77] Creating layer inception_5b/relu_pool_proj
I0403 09:33:50.045948 25928 net.cpp:91] Creating Layer inception_5b/relu_pool_proj
I0403 09:33:50.045965 25928 net.cpp:425] inception_5b/relu_pool_proj <- inception_5b/pool_proj
I0403 09:33:50.045985 25928 net.cpp:386] inception_5b/relu_pool_proj -> inception_5b/pool_proj (in-place)
I0403 09:33:50.046007 25928 net.cpp:141] Setting up inception_5b/relu_pool_proj
I0403 09:33:50.046026 25928 net.cpp:148] Top shape: 24 128 7 7 (150528)
I0403 09:33:50.046041 25928 net.cpp:156] Memory required for data: 1341047232
I0403 09:33:50.046054 25928 layer_factory.hpp:77] Creating layer inception_5b/output
I0403 09:33:50.046072 25928 net.cpp:91] Creating Layer inception_5b/output
I0403 09:33:50.046088 25928 net.cpp:425] inception_5b/output <- inception_5b/1x1
I0403 09:33:50.046105 25928 net.cpp:425] inception_5b/output <- inception_5b/3x3
I0403 09:33:50.046121 25928 net.cpp:425] inception_5b/output <- inception_5b/5x5
I0403 09:33:50.046139 25928 net.cpp:425] inception_5b/output <- inception_5b/pool_proj
I0403 09:33:50.046159 25928 net.cpp:399] inception_5b/output -> inception_5b/output
I0403 09:33:50.046200 25928 net.cpp:141] Setting up inception_5b/output
I0403 09:33:50.046226 25928 net.cpp:148] Top shape: 24 1024 7 7 (1204224)
I0403 09:33:50.046242 25928 net.cpp:156] Memory required for data: 1345864128
I0403 09:33:50.046257 25928 layer_factory.hpp:77] Creating layer pool5/7x7_s1
I0403 09:33:50.046275 25928 net.cpp:91] Creating Layer pool5/7x7_s1
I0403 09:33:50.046293 25928 net.cpp:425] pool5/7x7_s1 <- inception_5b/output
I0403 09:33:50.046313 25928 net.cpp:399] pool5/7x7_s1 -> pool5/7x7_s1
I0403 09:33:50.046352 25928 net.cpp:141] Setting up pool5/7x7_s1
I0403 09:33:50.046376 25928 net.cpp:148] Top shape: 24 1024 1 1 (24576)
I0403 09:33:50.046391 25928 net.cpp:156] Memory required for data: 1345962432
I0403 09:33:50.046406 25928 layer_factory.hpp:77] Creating layer pool5/drop_7x7_s1
I0403 09:33:50.046428 25928 net.cpp:91] Creating Layer pool5/drop_7x7_s1
I0403 09:33:50.046445 25928 net.cpp:425] pool5/drop_7x7_s1 <- pool5/7x7_s1
I0403 09:33:50.046464 25928 net.cpp:386] pool5/drop_7x7_s1 -> pool5/7x7_s1 (in-place)
I0403 09:33:50.046505 25928 net.cpp:141] Setting up pool5/drop_7x7_s1
I0403 09:33:50.046530 25928 net.cpp:148] Top shape: 24 1024 1 1 (24576)
I0403 09:33:50.046543 25928 net.cpp:156] Memory required for data: 1346060736
I0403 09:33:50.046560 25928 layer_factory.hpp:77] Creating layer loss3/classifier_plantvillage
I0403 09:33:50.046579 25928 net.cpp:91] Creating Layer loss3/classifier_plantvillage
I0403 09:33:50.046597 25928 net.cpp:425] loss3/classifier_plantvillage <- pool5/7x7_s1
I0403 09:33:50.046622 25928 net.cpp:399] loss3/classifier_plantvillage -> loss3/classifier_plantvillage
I0403 09:33:50.046959 25928 net.cpp:141] Setting up loss3/classifier_plantvillage
I0403 09:33:50.046985 25928 net.cpp:148] Top shape: 24 38 (912)
I0403 09:33:50.047003 25928 net.cpp:156] Memory required for data: 1346064384
I0403 09:33:50.047037 25928 layer_factory.hpp:77] Creating layer loss3/classifier_plantvillage_loss3/classifier_plantvillage_0_split
I0403 09:33:50.047058 25928 net.cpp:91] Creating Layer loss3/classifier_plantvillage_loss3/classifier_plantvillage_0_split
I0403 09:33:50.047076 25928 net.cpp:425] loss3/classifier_plantvillage_loss3/classifier_plantvillage_0_split <- loss3/classifier_plantvillage
I0403 09:33:50.047094 25928 net.cpp:399] loss3/classifier_plantvillage_loss3/classifier_plantvillage_0_split -> loss3/classifier_plantvillage_loss3/classifier_plantvillage_0_split_0
I0403 09:33:50.047114 25928 net.cpp:399] loss3/classifier_plantvillage_loss3/classifier_plantvillage_0_split -> loss3/classifier_plantvillage_loss3/classifier_plantvillage_0_split_1
I0403 09:33:50.047138 25928 net.cpp:399] loss3/classifier_plantvillage_loss3/classifier_plantvillage_0_split -> loss3/classifier_plantvillage_loss3/classifier_plantvillage_0_split_2
I0403 09:33:50.047204 25928 net.cpp:141] Setting up loss3/classifier_plantvillage_loss3/classifier_plantvillage_0_split
I0403 09:33:50.047229 25928 net.cpp:148] Top shape: 24 38 (912)
I0403 09:33:50.047292 25928 net.cpp:148] Top shape: 24 38 (912)
I0403 09:33:50.047315 25928 net.cpp:148] Top shape: 24 38 (912)
I0403 09:33:50.047332 25928 net.cpp:156] Memory required for data: 1346075328
I0403 09:33:50.047346 25928 layer_factory.hpp:77] Creating layer loss1/loss
I0403 09:33:50.047365 25928 net.cpp:91] Creating Layer loss1/loss
I0403 09:33:50.047381 25928 net.cpp:425] loss1/loss <- loss1/classifier_plantvillage_loss1/classifier_plantvillage_0_split_0
I0403 09:33:50.047399 25928 net.cpp:425] loss1/loss <- label_data_1_split_0
…
