…
I0403 11:21:30.107651 29084 net.cpp:313] The NetState phase (0) differed from the phase (1) specified by a rule in layer loss3/top-5
I0403 11:21:30.112490 29084 net.cpp:49] Initializing net from parameters: 
state {
  phase: TRAIN
}
layer {
  name: "data"
  type: "Data"
  top: "data"
  top: "label"
  include {
    phase: TRAIN
  }
  transform_param {
    mirror: true
    crop_size: 224
    mean_file: "/home/mohanty/data/final_dataset/lmdb/segmented-40-60/mean.binaryproto"
  }
  data_param {
    source: "/home/mohanty/data/final_dataset/lmdb/segmented-40-60/train_db"
    batch_size: 24
    backend: LMDB
  }
}
layer {
  name: "conv1/7x7_s2"
  type: "Convolution"
  bottom: "data"
  top: "conv1/7x7_s2"
  param {
    lr_mult: 1
    decay_mult: 1
  }
  param {
    lr_mult: 2
    decay_mult: 0
  }
  convolution_param {
    num_output: 64
    pad: 3
    kernel_size: 7
    stride: 2
    weight_filler {
      type: "xavier"
      std: 0.1
    }
    bias_filler {
      type: "constant"
      value: 0.2
    }
  }
}
layer {
  name: "conv1/relu_7x7"
  type: "ReLU"
  bottom: "conv1/7x7_s2"
  top: "conv1/7x7_s2"
}
layer {
  name: "pool1/3x3_s2"
  type: "Pooling"
  bottom: "conv1/7x7_s2"
  top: "pool1/3x3_s2"
  pooling_param {
    pool: MAX
    kernel_size: 3
    stride: 2
  }
}
layer {
  name: "pool1/norm1"
  type: "LRN"
  bottom: "pool1/3x3_s2"
  top: "pool1/norm1"
  lrn_param {
    local_size: 5
    alpha: 0.0001
    beta: 0.75
  }
}
layer {
  name: "conv2/3x3_reduce"
  type: "Convolution"
  bottom: "pool1/norm1"
  top: "conv2/3x3_reduce"
  param {
    lr_mult: 1
    decay_mult: 1
  }
  param {
    lr_mult: 2
    decay_mult: 0
  }
  convolution_param {
    num_output: 64
    kernel_size: 1
    weight_filler {
      type: "xavier"
      std: 0.1
    }
    bias_filler {
      type: "constant"
      value: 0.2
    }
  }
}
layer {
  name: "conv2/relu_3x3_reduce"
  type: "ReLU"
  bottom: "conv2/3x3_reduce"
  top: "conv2/3x3_reduce"
}
layer {
  name: "conv2/3x3"
  type: "Convolution"
  bottom: "conv2/3x3_reduce"
  top: "conv2/3x3"
  param {
    lr_mult: 1
    decay_mult: 1
  }
  param {
    lr_mult: 2
    decay_mult: 0
  }
  convolution_param {
    num_output: 192
    pad: 1
    kernel_size: 3
    weight_filler {
      type: "xavier"
      std: 0.03
    }
    bias_filler {
      type: "constant"
      value: 0.2
    }
  }
}
layer {
  name: "conv2/relu_3x3"
  type: "ReLU"
  bottom: "conv2/3x3"
  top: "conv2/3x3"
}
layer {
  name: "conv2/norm2"
  type: "LRN"
  bottom: "conv2/3x3"
  top: "conv2/norm2"
  lrn_param {
    local_size: 5
    alpha: 0.0001
    beta: 0.75
  }
}
layer {
  name: "pool2/3x3_s2"
  type: "Pooling"
  bottom: "conv2/norm2"
  top: "pool2/3x3_s2"
  pooling_param {
    pool: MAX
    kernel_size: 3
    stride: 2
  }
}
layer {
  name: "inception_3a/1x1"
  type: "Convolution"
  bottom: "pool2/3x3_s2"
  top: "inception_3a/1x1"
  param {
    lr_mult: 1
    decay_mult: 1
  }
  param {
    lr_mult: 2
    decay_mult: 0
  }
  convolution_param {
    num_output: 64
    kernel_size: 1
    weight_filler {
      type: "xavier"
      std: 0.03
    }
    bias_filler {
      type: "constant"
      value: 0.2
    }
  }
}
layer {
  name: "inception_3a/relu_1x1"
  type: "ReLU"
  bottom: "inception_3a/1x1"
  top: "inception_3a/1x1"
}
layer {
  name: "inception_3a/3x3_reduce"
  type: "Convolution"
  bottom: "pool2/3x3_s2"
  top: "inception_3a/3x3_reduce"
  param {
    lr_mult: 1
    decay_mult: 1
  }
  param {
    lr_mult: 2
    decay_mult: 0
  }
  convolution_param {
    num_output: 96
    kernel_size: 1
    weight_filler {
      type: "xavier"
      std: 0.09
    }
    bias_filler {
      type: "constant"
      value: 0.2
    }
  }
}
layer {
  name: "inception_3a/relu_3x3_reduce"
  type: "ReLU"
  bottom: "inception_3a/3x3_reduce"
  top: "inception_3a/3x3_reduce"
}
layer {
  name: "inception_3a/3x3"
  type: "Convolution"
  bottom: "inception_3a/3x3_reduce"
  top: "inception_3a/3x3"
  param {
    lr_mult: 1
    decay_mult: 1
  }
  param {
    lr_mult: 2
    decay_mult: 0
  }
  convolution_param {
    num_output: 128
    pad: 1
    kernel_size: 3
    weight_filler {
      type: "xavier"
      std: 0.03
    }
    bias_filler {
      type: "constant"
      value: 0.2
    }
  }
}
layer {
  name: "inception_3a/relu_3x3"
  type: "ReLU"
  bottom: "inception_3a/3x3"
  top: "inception_3a/3x3"
}
layer {
  name: "inception_3a/5x5_reduce"
  type: "Convolution"
  bottom: "pool2/3x3_s2"
  top: "inception_3a/5x5_reduce"
  param {
    lr_mult: 1
    decay_mult: 1
  }
  param {
    lr_mult: 2
    decay_mult: 0
  }
  convolution_param {
    num_output: 16
    kernel_size: 1
    weight_filler {
      type: "xavier"
      std: 0.2
    }
    bias_filler {
      type: "constant"
      value: 0.2
    }
  }
}
layer {
  name: "inception_3a/relu_5x5_reduce"
  type: "ReLU"
  bottom: "inception_3a/5x5_reduce"
  top: "inception_3a/5x5_reduce"
}
layer {
  name: "inception_3a/5x5"
  type: "Convolution"
  bottom: "inception_3a/5x5_reduce"
  top: "inception_3a/5x5"
  param {
    lr_mult: 1
    decay_mult: 1
  }
  param {
    lr_mult: 2
    decay_mult: 0
  }
  convolution_param {
    num_output: 32
    pad: 2
    kernel_size: 5
    weight_filler {
      type: "xavier"
      std: 0.03
    }
    bias_filler {
      type: "constant"
      value: 0.2
    }
  }
}
layer {
  name: "inception_3a/relu_5x5"
  type: "ReLU"
  bottom: "inception_3a/5x5"
  top: "inception_3a/5x5"
}
layer {
  name: "inception_3a/pool"
  type: "Pooling"
  bottom: "pool2/3x3_s2"
  top: "inception_3a/pool"
  pooling_param {
    pool: MAX
    kernel_size: 3
    stride: 1
    pad: 1
  }
}
layer {
  name: "inception_3a/pool_proj"
  type: "Convolution"
  bottom: "inception_3a/pool"
  top: "inception_3a/pool_proj"
  param {
    lr_mult: 1
    decay_mult: 1
  }
  param {
    lr_mult: 2
    decay_mult: 0
  }
  convolution_param {
    num_output: 32
    kernel_size: 1
    weight_filler {
      type: "xavier"
      std: 0.1
    }
    bias_filler {
      type: "constant"
      value: 0.2
    }
  }
}
layer {
  name: "inception_3a/relu_pool_proj"
  type: "ReLU"
  bottom: "inception_3a/pool_proj"
  top: "inception_3a/pool_proj"
}
layer {
  name: "inception_3a/output"
  type: "Concat"
  bottom: "inception_3a/1x1"
  bottom: "inception_3a/3x3"
  bottom: "inception_3a/5x5"
  bottom: "inception_3a/pool_proj"
  top: "inception_3a/output"
}
layer {
  name: "inception_3b/1x1"
  type: "Convolution"
  bottom: "inception_3a/output"
  top: "inception_3b/1x1"
  param {
    lr_mult: 1
    decay_mult: 1
  }
  param {
    lr_mult: 2
    decay_mult: 0
  }
  convolution_param {
    num_output: 128
    kernel_size: 1
    weight_filler {
      type: "xavier"
      std: 0.03
    }
    bias_filler {
      type: "constant"
      value: 0.2
    }
  }
}
layer {
  name: "inception_3b/relu_1x1"
  type: "ReLU"
  bottom: "inception_3b/1x1"
  top: "inception_3b/1x1"
}
layer {
  name: "inception_3b/3x3_reduce"
  type: "Convolution"
  bottom: "inception_3a/output"
  top: "inception_3b/3x3_reduce"
  param {
    lr_mult: 1
    decay_mult: 1
  }
  param {
    lr_mult: 2
    decay_mult: 0
  }
  convolution_param {
    num_output: 128
    kernel_size: 1
    weight_filler {
      type: "xavier"
      std: 0.09
    }
    bias_filler {
      type: "constant"
      value: 0.2
    }
  }
}
layer {
  name: "inception_3b/relu_3x3_reduce"
  type: "ReLU"
  bottom: "inception_3b/3x3_reduce"
  top: "inception_3b/3x3_reduce"
}
layer {
  name: "inception_3b/3x3"
  type: "Convolution"
  bottom: "inception_3b/3x3_reduce"
  top: "inception_3b/3x3"
  param {
    lr_mult: 1
    decay_mult: 1
  }
  param {
    lr_mult: 2
    decay_mult: 0
  }
  convolution_param {
    num_output: 192
    pad: 1
    kernel_size: 3
    weight_filler {
      type: "xavier"
      std: 0.03
    }
    bias_filler {
      type: "constant"
      value: 0.2
    }
  }
}
layer {
  name: "inception_3b/relu_3x3"
  type: "ReLU"
  bottom: "inception_3b/3x3"
  top: "inception_3b/3x3"
}
layer {
  name: "inception_3b/5x5_reduce"
  type: "Convolution"
  bottom: "inception_3a/output"
  top: "inception_3b/5x5_reduce"
  param {
    lr_mult: 1
    decay_mult: 1
  }
  param {
    lr_mult: 2
    decay_mult: 0
  }
  convolution_param {
    num_output: 32
    kernel_size: 1
    weight_filler {
      type: "xavier"
      std: 0.2
    }
    bias_filler {
      type: "constant"
      value: 0.2
    }
  }
}
layer {
  name: "inception_3b/relu_5x5_reduce"
  type: "ReLU"
  bottom: "inception_3b/5x5_reduce"
  top: "inception_3b/5x5_reduce"
}
layer {
  name: "inception_3b/5x5"
  type: "Convolution"
  bottom: "inception_3b/5x5_reduce"
  top: "inception_3b/5x5"
  param {
    lr_mult: 1
    decay_mult: 1
  }
  param {
    lr_mult: 2
    decay_mult: 0
  }
  convolution_param {
    num_output: 96
    pad: 2
    kernel_size: 5
    weight_filler {
      type: "xavier"
      std: 0.03
    }
    bias_filler {
      type: "constant"
      value: 0.2
    }
  }
}
layer {
  name: "inception_3b/relu_5x5"
  type: "ReLU"
  bottom: "inception_3b/5x5"
  top: "inception_3b/5x5"
}
layer {
  name: "inception_3b/pool"
  type: "Pooling"
  bottom: "inception_3a/output"
  top: "inception_3b/pool"
  pooling_param {
    pool: MAX
    kernel_size: 3
    stride: 1
    pad: 1
  }
}
layer {
  name: "inception_3b/pool_proj"
  type: "Convolution"
  bottom: "inception_3b/pool"
  top: "inception_3b/pool_proj"
  param {
    lr_mult: 1
    decay_mult: 1
  }
  param {
    lr_mult: 2
    decay_mult: 0
  }
  convolution_param {
    num_output: 64
    kernel_size: 1
    weight_filler {
      type: "xavier"
      std: 0.1
    }
    bias_filler {
      type: "constant"
      value: 0.2
    }
  }
}
layer {
  name: "inception_3b/relu_pool_proj"
  type: "ReLU"
  bottom: "inception_3b/pool_proj"
  top: "inception_3b/pool_proj"
}
layer {
  name: "inception_3b/output"
  type: "Concat"
  bottom: "inception_3b/1x1"
  bottom: "inception_3b/3x3"
  bottom: "inception_3b/5x5"
  bottom: "inception_3b/pool_proj"
  top: "inception_3b/output"
}
layer {
  name: "pool3/3x3_s2"
  type: "Pooling"
  bottom: "inception_3b/output"
  top: "pool3/3x3_s2"
  pooling_param {
    pool: MAX
    kernel_size: 3
    stride: 2
  }
}
layer {
  name: "inception_4a/1x1"
  type: "Convolution"
  bottom: "pool3/3x3_s2"
  top: "inception_4a/1x1"
  param {
    lr_mult: 1
    decay_mult: 1
  }
  param {
    lr_mult: 2
    decay_mult: 0
  }
  convolution_param {
    num_output: 192
    kernel_size: 1
    weight_filler {
      type: "xavier"
      std: 0.03
    }
    bias_filler {
      type: "constant"
      value: 0.2
    }
  }
}
layer {
  name: "inception_4a/relu_1x1"
  type: "ReLU"
  bottom: "inception_4a/1x1"
  top: "inception_4a/1x1"
}
layer {
  name: "inception_4a/3x3_reduce"
  type: "Convolution"
  bottom: "pool3/3x3_s2"
  top: "inception_4a/3x3_reduce"
  param {
    lr_mult: 1
    decay_mult: 1
  }
  param {
    lr_mult: 2
    decay_mult: 0
  }
  convolution_param {
    num_output: 96
    kernel_size: 1
    weight_filler {
      type: "xavier"
      std: 0.09
    }
    bias_filler {
      type: "constant"
      value: 0.2
    }
  }
}
layer {
  name: "inception_4a/relu_3x3_reduce"
  type: "ReLU"
  bottom: "inception_4a/3x3_reduce"
  top: "inception_4a/3x3_reduce"
}
layer {
  name: "inception_4a/3x3"
  type: "Convolution"
  bottom: "inception_4a/3x3_reduce"
  top: "inception_4a/3x3"
  param {
    lr_mult: 1
    decay_mult: 1
  }
  param {
    lr_mult: 2
    decay_mult: 0
  }
  convolution_param {
    num_output: 208
    pad: 1
    kernel_size: 3
    weight_filler {
      type: "xavier"
      std: 0.03
    }
    bias_filler {
      type: "constant"
      value: 0.2
    }
  }
}
layer {
  name: "inception_4a/relu_3x3"
  type: "ReLU"
  bottom: "inception_4a/3x3"
  top: "inception_4a/3x3"
}
layer {
  name: "inception_4a/5x5_reduce"
  type: "Convolution"
  bottom: "pool3/3x3_s2"
  top: "inception_4a/5x5_reduce"
  param {
    lr_mult: 1
    decay_mult: 1
  }
  param {
    lr_mult: 2
    decay_mult: 0
  }
  convolution_param {
    num_output: 16
    kernel_size: 1
    weight_filler {
      type: "xavier"
      std: 0.2
    }
    bias_filler {
      type: "constant"
      value: 0.2
    }
  }
}
layer {
  name: "inception_4a/relu_5x5_reduce"
  type: "ReLU"
  bottom: "inception_4a/5x5_reduce"
  top: "inception_4a/5x5_reduce"
}
layer {
  name: "inception_4a/5x5"
  type: "Convolution"
  bottom: "inception_4a/5x5_reduce"
  top: "inception_4a/5x5"
  param {
    lr_mult: 1
    decay_mult: 1
  }
  param {
    lr_mult: 2
    decay_mult: 0
  }
  convolution_param {
    num_output: 48
    pad: 2
    kernel_size: 5
    weight_filler {
      type: "xavier"
      std: 0.03
    }
    bias_filler {
      type: "constant"
      value: 0.2
    }
  }
}
layer {
  name: "inception_4a/relu_5x5"
  type: "ReLU"
  bottom: "inception_4a/5x5"
  top: "inception_4a/5x5"
}
layer {
  name: "inception_4a/pool"
  type: "Pooling"
  bottom: "pool3/3x3_s2"
  top: "inception_4a/pool"
  pooling_param {
    pool: MAX
    kernel_size: 3
    stride: 1
    pad: 1
  }
}
layer {
  name: "inception_4a/pool_proj"
  type: "Convolution"
  bottom: "inception_4a/pool"
  top: "inception_4a/pool_proj"
  param {
    lr_mult: 1
    decay_mult: 1
  }
  param {
    lr_mult: 2
    decay_mult: 0
  }
  convolution_param {
    num_output: 64
    kernel_size: 1
    weight_filler {
      type: "xavier"
      std: 0.1
    }
    bias_filler {
      type: "constant"
      value: 0.2
    }
  }
}
layer {
  name: "inception_4a/relu_pool_proj"
  type: "ReLU"
  bottom: "inception_4a/pool_proj"
  top: "inception_4a/pool_proj"
}
layer {
  name: "inception_4a/output"
  type: "Concat"
  bottom: "inception_4a/1x1"
  bottom: "inception_4a/3x3"
  bottom: "inception_4a/5x5"
  bottom: "inception_4a/pool_proj"
  top: "inception_4a/output"
}
layer {
  name: "loss1/ave_pool"
  type: "Pooling"
  bottom: "inception_4a/output"
  top: "loss1/ave_pool"
  pooling_param {
    pool: AVE
    kernel_size: 5
    stride: 3
  }
}
layer {
  name: "loss1/conv"
  type: "Convolution"
  bottom: "loss1/ave_pool"
  top: "loss1/conv"
  param {
    lr_mult: 1
    decay_mult: 1
  }
  param {
    lr_mult: 2
    decay_mult: 0
  }
  convolution_param {
    num_output: 128
    kernel_size: 1
    weight_filler {
      type: "xavier"
      std: 0.08
    }
    bias_filler {
      type: "constant"
      value: 0.2
    }
  }
}
layer {
  name: "loss1/relu_conv"
  type: "ReLU"
  bottom: "loss1/conv"
  top: "loss1/conv"
}
layer {
  name: "loss1/fc"
  type: "InnerProduct"
  bottom: "loss1/conv"
  top: "loss1/fc"
  param {
    lr_mult: 1
    decay_mult: 1
  }
  param {
    lr_mult: 2
    decay_mult: 0
  }
  inner_product_param {
    num_output: 1024
    weight_filler {
      type: "xavier"
      std: 0.02
    }
    bias_filler {
      type: "constant"
      value: 0.2
    }
  }
}
layer {
  name: "loss1/relu_fc"
  type: "ReLU"
  bottom: "loss1/fc"
  top: "loss1/fc"
}
layer {
  name: "loss1/drop_fc"
  type: "Dropout"
  bottom: "loss1/fc"
  top: "loss1/fc"
  dropout_param {
    dropout_ratio: 0.7
  }
}
layer {
  name: "loss1/classifier_plantvillage"
  type: "InnerProduct"
  bottom: "loss1/fc"
  top: "loss1/classifier_plantvillage"
  param {
    lr_mult: 1
    decay_mult: 1
  }
  param {
    lr_mult: 2
    decay_mult: 0
  }
  inner_product_param {
    num_output: 38
    weight_filler {
      type: "xavier"
      std: 0.0009765625
    }
    bias_filler {
      type: "constant"
      value: 0
    }
  }
}
layer {
  name: "inception_4b/1x1"
  type: "Convolution"
  bottom: "inception_4a/output"
  top: "inception_4b/1x1"
  param {
    lr_mult: 1
    decay_mult: 1
  }
  param {
    lr_mult: 2
    decay_mult: 0
  }
  convolution_param {
    num_output: 160
    kernel_size: 1
    weight_filler {
      type: "xavier"
      std: 0.03
    }
    bias_filler {
      type: "constant"
      value: 0.2
    }
  }
}
layer {
  name: "inception_4b/relu_1x1"
  type: "ReLU"
  bottom: "inception_4b/1x1"
  top: "inception_4b/1x1"
}
layer {
  name: "inception_4b/3x3_reduce"
  type: "Convolution"
  bottom: "inception_4a/output"
  top: "inception_4b/3x3_reduce"
  param {
    lr_mult: 1
    decay_mult: 1
  }
  param {
    lr_mult: 2
    decay_mult: 0
  }
  convolution_param {
    num_output: 112
    kernel_size: 1
    weight_filler {
      type: "xavier"
      std: 0.09
    }
    bias_filler {
      type: "constant"
      value: 0.2
    }
  }
}
layer {
  name: "inception_4b/relu_3x3_reduce"
  type: "ReLU"
  bottom: "inception_4b/3x3_reduce"
  top: "inception_4b/3x3_reduce"
}
layer {
  name: "inception_4b/3x3"
  type: "Convolution"
  bottom: "inception_4b/3x3_reduce"
  top: "inception_4b/3x3"
  param {
    lr_mult: 1
    decay_mult: 1
  }
  param {
    lr_mult: 2
    decay_mult: 0
  }
  convolution_param {
    num_output: 224
    pad: 1
    kernel_size: 3
    weight_filler {
      type: "xavier"
      std: 0.03
    }
    bias_filler {
      type: "constant"
      value: 0.2
    }
  }
}
layer {
  name: "inception_4b/relu_3x3"
  type: "ReLU"
  bottom: "inception_4b/3x3"
  top: "inception_4b/3x3"
}
layer {
  name: "inception_4b/5x5_reduce"
  type: "Convolution"
  bottom: "inception_4a/output"
  top: "inception_4b/5x5_reduce"
  param {
    lr_mult: 1
    decay_mult: 1
  }
  param {
    lr_mult: 2
    decay_mult: 0
  }
  convolution_param {
    num_output: 24
    kernel_size: 1
    weight_filler {
      type: "xavier"
      std: 0.2
    }
    bias_filler {
      type: "constant"
      value: 0.2
    }
  }
}
layer {
  name: "inception_4b/relu_5x5_reduce"
  type: "ReLU"
  bottom: "inception_4b/5x5_reduce"
  top: "inception_4b/5x5_reduce"
}
layer {
  name: "inception_4b/5x5"
  type: "Convolution"
  bottom: "inception_4b/5x5_reduce"
  top: "inception_4b/5x5"
  param {
    lr_mult: 1
    decay_mult: 1
  }
  param {
    lr_mult: 2
    decay_mult: 0
  }
  convolution_param {
    num_output: 64
    pad: 2
    kernel_size: 5
    weight_filler {
      type: "xavier"
      std: 0.03
    }
    bias_filler {
      type: "constant"
      value: 0.2
    }
  }
}
layer {
  name: "inception_4b/relu_5x5"
  type: "ReLU"
  bottom: "inception_4b/5x5"
  top: "inception_4b/5x5"
}
layer {
  name: "inception_4b/pool"
  type: "Pooling"
  bottom: "inception_4a/output"
  top: "inception_4b/pool"
  pooling_param {
    pool: MAX
    kernel_size: 3
    stride: 1
    pad: 1
  }
}
layer {
  name: "inception_4b/pool_proj"
  type: "Convolution"
  bottom: "inception_4b/pool"
  top: "inception_4b/pool_proj"
  param {
    lr_mult: 1
    decay_mult: 1
  }
  param {
    lr_mult: 2
    decay_mult: 0
  }
  convolution_param {
    num_output: 64
    kernel_size: 1
    weight_filler {
      type: "xavier"
      std: 0.1
    }
    bias_filler {
      type: "constant"
      value: 0.2
    }
  }
}
layer {
  name: "inception_4b/relu_pool_proj"
  type: "ReLU"
  bottom: "inception_4b/pool_proj"
  top: "inception_4b/pool_proj"
}
layer {
  name: "inception_4b/output"
  type: "Concat"
  bottom: "inception_4b/1x1"
  bottom: "inception_4b/3x3"
  bottom: "inception_4b/5x5"
  bottom: "inception_4b/pool_proj"
  top: "inception_4b/output"
}
layer {
  name: "inception_4c/1x1"
  type: "Convolution"
  bottom: "inception_4b/output"
  top: "inception_4c/1x1"
  param {
    lr_mult: 1
    decay_mult: 1
  }
  param {
    lr_mult: 2
    decay_mult: 0
  }
  convolution_param {
    num_output: 128
    kernel_size: 1
    weight_filler {
      type: "xavier"
      std: 0.03
    }
    bias_filler {
      type: "constant"
      value: 0.2
    }
  }
}
layer {
  name: "inception_4c/relu_1x1"
  type: "ReLU"
  bottom: "inception_4c/1x1"
  top: "inception_4c/1x1"
}
layer {
  name: "inception_4c/3x3_reduce"
  type: "Convolution"
  bottom: "inception_4b/output"
  top: "inception_4c/3x3_reduce"
  param {
    lr_mult: 1
    decay_mult: 1
  }
  param {
    lr_mult: 2
    decay_mult: 0
  }
  convolution_param {
    num_output: 128
    kernel_size: 1
    weight_filler {
      type: "xavier"
      std: 0.09
    }
    bias_filler {
      type: "constant"
      value: 0.2
    }
  }
}
layer {
  name: "inception_4c/relu_3x3_reduce"
  type: "ReLU"
  bottom: "inception_4c/3x3_reduce"
  top: "inception_4c/3x3_reduce"
}
layer {
  name: "inception_4c/3x3"
  type: "Convolution"
  bottom: "inception_4c/3x3_reduce"
  top: "inception_4c/3x3"
  param {
    lr_mult: 1
    decay_mult: 1
  }
  param {
    lr_mult: 2
    decay_mult: 0
  }
  convolution_param {
    num_output: 256
    pad: 1
    kernel_size: 3
    weight_filler {
      type: "xavier"
      std: 0.03
    }
    bias_filler {
      type: "constant"
      value: 0.2
    }
  }
}
layer {
  name: "inception_4c/relu_3x3"
  type: "ReLU"
  bottom: "inception_4c/3x3"
  top: "inception_4c/3x3"
}
layer {
  name: "inception_4c/5x5_reduce"
  type: "Convolution"
  bottom: "inception_4b/output"
  top: "inception_4c/5x5_reduce"
  param {
    lr_mult: 1
    decay_mult: 1
  }
  param {
    lr_mult: 2
    decay_mult: 0
  }
  convolution_param {
    num_output: 24
    kernel_size: 1
    weight_filler {
      type: "xavier"
      std: 0.2
    }
    bias_filler {
      type: "constant"
      value: 0.2
    }
  }
}
layer {
  name: "inception_4c/relu_5x5_reduce"
  type: "ReLU"
  bottom: "inception_4c/5x5_reduce"
  top: "inception_4c/5x5_reduce"
}
layer {
  name: "inception_4c/5x5"
  type: "Convolution"
  bottom: "inception_4c/5x5_reduce"
  top: "inception_4c/5x5"
  param {
    lr_mult: 1
    decay_mult: 1
  }
  param {
    lr_mult: 2
    decay_mult: 0
  }
  convolution_param {
    num_output: 64
    pad: 2
    kernel_size: 5
    weight_filler {
      type: "xavier"
      std: 0.03
    }
    bias_filler {
      type: "constant"
      value: 0.2
    }
  }
}
layer {
  name: "inception_4c/relu_5x5"
  type: "ReLU"
  bottom: "inception_4c/5x5"
  top: "inception_4c/5x5"
}
layer {
  name: "inception_4c/pool"
  type: "Pooling"
  bottom: "inception_4b/output"
  top: "inception_4c/pool"
  pooling_param {
    pool: MAX
    kernel_size: 3
    stride: 1
    pad: 1
  }
}
layer {
  name: "inception_4c/pool_proj"
  type: "Convolution"
  bottom: "inception_4c/pool"
  top: "inception_4c/pool_proj"
  param {
    lr_mult: 1
    decay_mult: 1
  }
  param {
    lr_mult: 2
    decay_mult: 0
  }
  convolution_param {
    num_output: 64
    kernel_size: 1
    weight_filler {
      type: "xavier"
      std: 0.1
    }
    bias_filler {
      type: "constant"
      value: 0.2
    }
  }
}
layer {
  name: "inception_4c/relu_pool_proj"
  type: "ReLU"
  bottom: "inception_4c/pool_proj"
  top: "inception_4c/pool_proj"
}
layer {
  name: "inception_4c/output"
  type: "Concat"
  bottom: "inception_4c/1x1"
  bottom: "inception_4c/3x3"
  bottom: "inception_4c/5x5"
  bottom: "inception_4c/pool_proj"
  top: "inception_4c/output"
}
layer {
  name: "inception_4d/1x1"
  type: "Convolution"
  bottom: "inception_4c/output"
  top: "inception_4d/1x1"
  param {
    lr_mult: 1
    decay_mult: 1
  }
  param {
    lr_mult: 2
    decay_mult: 0
  }
  convolution_param {
    num_output: 112
    kernel_size: 1
    weight_filler {
      type: "xavier"
      std: 0.03
    }
    bias_filler {
      type: "constant"
      value: 0.2
    }
  }
}
layer {
  name: "inception_4d/relu_1x1"
  type: "ReLU"
  bottom: "inception_4d/1x1"
  top: "inception_4d/1x1"
}
layer {
  name: "inception_4d/3x3_reduce"
  type: "Convolution"
  bottom: "inception_4c/output"
  top: "inception_4d/3x3_reduce"
  param {
    lr_mult: 1
    decay_mult: 1
  }
  param {
    lr_mult: 2
    decay_mult: 0
  }
  convolution_param {
    num_output: 144
    kernel_size: 1
    weight_filler {
      type: "xavier"
      std: 0.09
    }
    bias_filler {
      type: "constant"
      value: 0.2
    }
  }
}
layer {
  name: "inception_4d/relu_3x3_reduce"
  type: "ReLU"
  bottom: "inception_4d/3x3_reduce"
  top: "inception_4d/3x3_reduce"
}
layer {
  name: "inception_4d/3x3"
  type: "Convolution"
  bottom: "inception_4d/3x3_reduce"
  top: "inception_4d/3x3"
  param {
    lr_mult: 1
    decay_mult: 1
  }
  param {
    lr_mult: 2
    decay_mult: 0
  }
  convolution_param {
    num_output: 288
    pad: 1
    kernel_size: 3
    weight_filler {
      type: "xavier"
      std: 0.03
    }
    bias_filler {
      type: "constant"
      value: 0.2
    }
  }
}
layer {
  name: "inception_4d/relu_3x3"
  type: "ReLU"
  bottom: "inception_4d/3x3"
  top: "inception_4d/3x3"
}
layer {
  name: "inception_4d/5x5_reduce"
  type: "Convolution"
  bottom: "inception_4c/output"
  top: "inception_4d/5x5_reduce"
  param {
    lr_mult: 1
    decay_mult: 1
  }
  param {
    lr_mult: 2
    decay_mult: 0
  }
  convolution_param {
    num_output: 32
    kernel_size: 1
    weight_filler {
      type: "xavier"
      std: 0.2
    }
    bias_filler {
      type: "constant"
      value: 0.2
    }
  }
}
layer {
  name: "inception_4d/relu_5x5_reduce"
  type: "ReLU"
  bottom: "inception_4d/5x5_reduce"
  top: "inception_4d/5x5_reduce"
}
layer {
  name: "inception_4d/5x5"
  type: "Convolution"
  bottom: "inception_4d/5x5_reduce"
  top: "inception_4d/5x5"
  param {
    lr_mult: 1
    decay_mult: 1
  }
  param {
    lr_mult: 2
    decay_mult: 0
  }
  convolution_param {
    num_output: 64
    pad: 2
    kernel_size: 5
    weight_filler {
      type: "xavier"
      std: 0.03
    }
    bias_filler {
      type: "constant"
      value: 0.2
    }
  }
}
layer {
  name: "inception_4d/relu_5x5"
  type: "ReLU"
  bottom: "inception_4d/5x5"
  top: "inception_4d/5x5"
}
layer {
  name: "inception_4d/pool"
  type: "Pooling"
  bottom: "inception_4c/output"
  top: "inception_4d/pool"
  pooling_param {
    pool: MAX
    kernel_size: 3
    stride: 1
    pad: 1
  }
}
layer {
  name: "inception_4d/pool_proj"
  type: "Convolution"
  bottom: "inception_4d/pool"
  top: "inception_4d/pool_proj"
  param {
    lr_mult: 1
    decay_mult: 1
  }
  param {
    lr_mult: 2
    decay_mult: 0
  }
  convolution_param {
    num_output: 64
    kernel_size: 1
    weight_filler {
      type: "xavier"
      std: 0.1
    }
    bias_filler {
      type: "constant"
      value: 0.2
    }
  }
}
layer {
  name: "inception_4d/relu_pool_proj"
  type: "ReLU"
  bottom: "inception_4d/pool_proj"
  top: "inception_4d/pool_proj"
}
layer {
  name: "inception_4d/output"
  type: "Concat"
  bottom: "inception_4d/1x1"
  bottom: "inception_4d/3x3"
  bottom: "inception_4d/5x5"
  bottom: "inception_4d/pool_proj"
  top: "inception_4d/output"
}
layer {
  name: "loss2/ave_pool"
  type: "Pooling"
  bottom: "inception_4d/output"
  top: "loss2/ave_pool"
  pooling_param {
    pool: AVE
    kernel_size: 5
    stride: 3
  }
}
layer {
  name: "loss2/conv"
  type: "Convolution"
  bottom: "loss2/ave_pool"
  top: "loss2/conv"
  param {
    lr_mult: 1
    decay_mult: 1
  }
  param {
    lr_mult: 2
    decay_mult: 0
  }
  convolution_param {
    num_output: 128
    kernel_size: 1
    weight_filler {
      type: "xavier"
      std: 0.08
    }
    bias_filler {
      type: "constant"
      value: 0.2
    }
  }
}
layer {
  name: "loss2/relu_conv"
  type: "ReLU"
  bottom: "loss2/conv"
  top: "loss2/conv"
}
layer {
  name: "loss2/fc"
  type: "InnerProduct"
  bottom: "loss2/conv"
  top: "loss2/fc"
  param {
    lr_mult: 1
    decay_mult: 1
  }
  param {
    lr_mult: 2
    decay_mult: 0
  }
  inner_product_param {
    num_output: 1024
    weight_filler {
      type: "xavier"
      std: 0.02
    }
    bias_filler {
      type: "constant"
      value: 0.2
    }
  }
}
layer {
  name: "loss2/relu_fc"
  type: "ReLU"
  bottom: "loss2/fc"
  top: "loss2/fc"
}
layer {
  name: "loss2/drop_fc"
  type: "Dropout"
  bottom: "loss2/fc"
  top: "loss2/fc"
  dropout_param {
    dropout_ratio: 0.7
  }
}
layer {
  name: "loss2/classifier_plantvillage"
  type: "InnerProduct"
  bottom: "loss2/fc"
  top: "loss2/classifier_plantvillage"
  param {
    lr_mult: 1
    decay_mult: 1
  }
  param {
    lr_mult: 2
    decay_mult: 0
  }
  inner_product_param {
    num_output: 38
    weight_filler {
      type: "xavier"
      std: 0.0009765625
    }
    bias_filler {
      type: "constant"
      value: 0
    }
  }
}
layer {
  name: "inception_4e/1x1"
  type: "Convolution"
  bottom: "inception_4d/output"
  top: "inception_4e/1x1"
  param {
    lr_mult: 1
    decay_mult: 1
  }
  param {
    lr_mult: 2
    decay_mult: 0
  }
  convolution_param {
    num_output: 256
    kernel_size: 1
    weight_filler {
      type: "xavier"
      std: 0.03
    }
    bias_filler {
      type: "constant"
      value: 0.2
    }
  }
}
layer {
  name: "inception_4e/relu_1x1"
  type: "ReLU"
  bottom: "inception_4e/1x1"
  top: "inception_4e/1x1"
}
layer {
  name: "inception_4e/3x3_reduce"
  type: "Convolution"
  bottom: "inception_4d/output"
  top: "inception_4e/3x3_reduce"
  param {
    lr_mult: 1
    decay_mult: 1
  }
  param {
    lr_mult: 2
    decay_mult: 0
  }
  convolution_param {
    num_output: 160
    kernel_size: 1
    weight_filler {
      type: "xavier"
      std: 0.09
    }
    bias_filler {
      type: "constant"
      value: 0.2
    }
  }
}
layer {
  name: "inception_4e/relu_3x3_reduce"
  type: "ReLU"
  bottom: "inception_4e/3x3_reduce"
  top: "inception_4e/3x3_reduce"
}
layer {
  name: "inception_4e/3x3"
  type: "Convolution"
  bottom: "inception_4e/3x3_reduce"
  top: "inception_4e/3x3"
  param {
    lr_mult: 1
    decay_mult: 1
  }
  param {
    lr_mult: 2
    decay_mult: 0
  }
  convolution_param {
    num_output: 320
    pad: 1
    kernel_size: 3
    weight_filler {
      type: "xavier"
      std: 0.03
    }
    bias_filler {
      type: "constant"
      value: 0.2
    }
  }
}
layer {
  name: "inception_4e/relu_3x3"
  type: "ReLU"
  bottom: "inception_4e/3x3"
  top: "inception_4e/3x3"
}
layer {
  name: "inception_4e/5x5_reduce"
  type: "Convolution"
  bottom: "inception_4d/output"
  top: "inception_4e/5x5_reduce"
  param {
    lr_mult: 1
    decay_mult: 1
  }
  param {
    lr_mult: 2
    decay_mult: 0
  }
  convolution_param {
    num_output: 32
    kernel_size: 1
    weight_filler {
      type: "xavier"
      std: 0.2
    }
    bias_filler {
      type: "constant"
      value: 0.2
    }
  }
}
layer {
  name: "inception_4e/relu_5x5_reduce"
  type: "ReLU"
  bottom: "inception_4e/5x5_reduce"
  top: "inception_4e/5x5_reduce"
}
layer {
  name: "inception_4e/5x5"
  type: "Convolution"
  bottom: "inception_4e/5x5_reduce"
  top: "inception_4
I0403 11:21:30.113795 29084 layer_factory.hpp:77] Creating layer data
I0403 11:21:30.114575 29084 net.cpp:91] Creating Layer data
I0403 11:21:30.114619 29084 net.cpp:399] data -> data
I0403 11:21:30.114687 29084 net.cpp:399] data -> label
I0403 11:21:30.114729 29084 data_transformer.cpp:25] Loading mean file from: /home/mohanty/data/final_dataset/lmdb/segmented-40-60/mean.binaryproto
I0403 11:21:30.198109 29089 db_lmdb.cpp:38] Opened lmdb /home/mohanty/data/final_dataset/lmdb/segmented-40-60/train_db
I0403 11:21:30.229295 29084 data_layer.cpp:41] output data size: 24,3,224,224
I0403 11:21:30.262979 29084 net.cpp:141] Setting up data
I0403 11:21:30.263063 29084 net.cpp:148] Top shape: 24 3 224 224 (3612672)
I0403 11:21:30.263090 29084 net.cpp:148] Top shape: 24 (24)
I0403 11:21:30.263110 29084 net.cpp:156] Memory required for data: 14450784
I0403 11:21:30.263185 29084 layer_factory.hpp:77] Creating layer label_data_1_split
I0403 11:21:30.263223 29084 net.cpp:91] Creating Layer label_data_1_split
I0403 11:21:30.263249 29084 net.cpp:425] label_data_1_split <- label
I0403 11:21:30.263288 29084 net.cpp:399] label_data_1_split -> label_data_1_split_0
I0403 11:21:30.263321 29084 net.cpp:399] label_data_1_split -> label_data_1_split_1
I0403 11:21:30.263347 29084 net.cpp:399] label_data_1_split -> label_data_1_split_2
I0403 11:21:30.263427 29084 net.cpp:141] Setting up label_data_1_split
I0403 11:21:30.263461 29084 net.cpp:148] Top shape: 24 (24)
I0403 11:21:30.263485 29084 net.cpp:148] Top shape: 24 (24)
I0403 11:21:30.263506 29084 net.cpp:148] Top shape: 24 (24)
I0403 11:21:30.263525 29084 net.cpp:156] Memory required for data: 14451072
I0403 11:21:30.263543 29084 layer_factory.hpp:77] Creating layer conv1/7x7_s2
I0403 11:21:30.263586 29084 net.cpp:91] Creating Layer conv1/7x7_s2
I0403 11:21:30.263609 29084 net.cpp:425] conv1/7x7_s2 <- data
I0403 11:21:30.263635 29084 net.cpp:399] conv1/7x7_s2 -> conv1/7x7_s2
I0403 11:21:30.264730 29084 net.cpp:141] Setting up conv1/7x7_s2
I0403 11:21:30.264767 29084 net.cpp:148] Top shape: 24 64 112 112 (19267584)
I0403 11:21:30.264787 29084 net.cpp:156] Memory required for data: 91521408
I0403 11:21:30.264828 29084 layer_factory.hpp:77] Creating layer conv1/relu_7x7
I0403 11:21:30.264859 29084 net.cpp:91] Creating Layer conv1/relu_7x7
I0403 11:21:30.264881 29084 net.cpp:425] conv1/relu_7x7 <- conv1/7x7_s2
I0403 11:21:30.264904 29084 net.cpp:386] conv1/relu_7x7 -> conv1/7x7_s2 (in-place)
I0403 11:21:30.264930 29084 net.cpp:141] Setting up conv1/relu_7x7
I0403 11:21:30.264952 29084 net.cpp:148] Top shape: 24 64 112 112 (19267584)
I0403 11:21:30.264971 29084 net.cpp:156] Memory required for data: 168591744
I0403 11:21:30.264988 29084 layer_factory.hpp:77] Creating layer pool1/3x3_s2
I0403 11:21:30.265013 29084 net.cpp:91] Creating Layer pool1/3x3_s2
I0403 11:21:30.265034 29084 net.cpp:425] pool1/3x3_s2 <- conv1/7x7_s2
I0403 11:21:30.265058 29084 net.cpp:399] pool1/3x3_s2 -> pool1/3x3_s2
I0403 11:21:30.265135 29084 net.cpp:141] Setting up pool1/3x3_s2
I0403 11:21:30.265164 29084 net.cpp:148] Top shape: 24 64 56 56 (4816896)
I0403 11:21:30.265184 29084 net.cpp:156] Memory required for data: 187859328
I0403 11:21:30.265203 29084 layer_factory.hpp:77] Creating layer pool1/norm1
I0403 11:21:30.265229 29084 net.cpp:91] Creating Layer pool1/norm1
I0403 11:21:30.265251 29084 net.cpp:425] pool1/norm1 <- pool1/3x3_s2
I0403 11:21:30.265275 29084 net.cpp:399] pool1/norm1 -> pool1/norm1
I0403 11:21:30.265336 29084 net.cpp:141] Setting up pool1/norm1
I0403 11:21:30.265362 29084 net.cpp:148] Top shape: 24 64 56 56 (4816896)
I0403 11:21:30.265382 29084 net.cpp:156] Memory required for data: 207126912
I0403 11:21:30.265399 29084 layer_factory.hpp:77] Creating layer conv2/3x3_reduce
I0403 11:21:30.265429 29084 net.cpp:91] Creating Layer conv2/3x3_reduce
I0403 11:21:30.265450 29084 net.cpp:425] conv2/3x3_reduce <- pool1/norm1
I0403 11:21:30.265482 29084 net.cpp:399] conv2/3x3_reduce -> conv2/3x3_reduce
I0403 11:21:30.267843 29084 net.cpp:141] Setting up conv2/3x3_reduce
I0403 11:21:30.267890 29084 net.cpp:148] Top shape: 24 64 56 56 (4816896)
I0403 11:21:30.267911 29084 net.cpp:156] Memory required for data: 226394496
I0403 11:21:30.267937 29084 layer_factory.hpp:77] Creating layer conv2/relu_3x3_reduce
I0403 11:21:30.267962 29084 net.cpp:91] Creating Layer conv2/relu_3x3_reduce
I0403 11:21:30.267983 29084 net.cpp:425] conv2/relu_3x3_reduce <- conv2/3x3_reduce
I0403 11:21:30.268007 29084 net.cpp:386] conv2/relu_3x3_reduce -> conv2/3x3_reduce (in-place)
I0403 11:21:30.268031 29084 net.cpp:141] Setting up conv2/relu_3x3_reduce
I0403 11:21:30.268054 29084 net.cpp:148] Top shape: 24 64 56 56 (4816896)
I0403 11:21:30.268071 29084 net.cpp:156] Memory required for data: 245662080
I0403 11:21:30.268090 29084 layer_factory.hpp:77] Creating layer conv2/3x3
I0403 11:21:30.268121 29084 net.cpp:91] Creating Layer conv2/3x3
I0403 11:21:30.268142 29084 net.cpp:425] conv2/3x3 <- conv2/3x3_reduce
I0403 11:21:30.268193 29084 net.cpp:399] conv2/3x3 -> conv2/3x3
I0403 11:21:30.269690 29090 blocking_queue.cpp:50] Waiting for data
I0403 11:21:30.269830 29084 net.cpp:141] Setting up conv2/3x3
I0403 11:21:30.269866 29084 net.cpp:148] Top shape: 24 192 56 56 (14450688)
I0403 11:21:30.269886 29084 net.cpp:156] Memory required for data: 303464832
I0403 11:21:30.269913 29084 layer_factory.hpp:77] Creating layer conv2/relu_3x3
I0403 11:21:30.269938 29084 net.cpp:91] Creating Layer conv2/relu_3x3
I0403 11:21:30.269959 29084 net.cpp:425] conv2/relu_3x3 <- conv2/3x3
I0403 11:21:30.269982 29084 net.cpp:386] conv2/relu_3x3 -> conv2/3x3 (in-place)
I0403 11:21:30.270005 29084 net.cpp:141] Setting up conv2/relu_3x3
I0403 11:21:30.270027 29084 net.cpp:148] Top shape: 24 192 56 56 (14450688)
I0403 11:21:30.270045 29084 net.cpp:156] Memory required for data: 361267584
I0403 11:21:30.270063 29084 layer_factory.hpp:77] Creating layer conv2/norm2
I0403 11:21:30.270087 29084 net.cpp:91] Creating Layer conv2/norm2
I0403 11:21:30.270105 29084 net.cpp:425] conv2/norm2 <- conv2/3x3
I0403 11:21:30.270128 29084 net.cpp:399] conv2/norm2 -> conv2/norm2
I0403 11:21:30.270187 29084 net.cpp:141] Setting up conv2/norm2
I0403 11:21:30.270215 29084 net.cpp:148] Top shape: 24 192 56 56 (14450688)
I0403 11:21:30.270232 29084 net.cpp:156] Memory required for data: 419070336
I0403 11:21:30.270251 29084 layer_factory.hpp:77] Creating layer pool2/3x3_s2
I0403 11:21:30.270274 29084 net.cpp:91] Creating Layer pool2/3x3_s2
I0403 11:21:30.270294 29084 net.cpp:425] pool2/3x3_s2 <- conv2/norm2
I0403 11:21:30.270318 29084 net.cpp:399] pool2/3x3_s2 -> pool2/3x3_s2
I0403 11:21:30.270371 29084 net.cpp:141] Setting up pool2/3x3_s2
I0403 11:21:30.270400 29084 net.cpp:148] Top shape: 24 192 28 28 (3612672)
I0403 11:21:30.270417 29084 net.cpp:156] Memory required for data: 433521024
I0403 11:21:30.270436 29084 layer_factory.hpp:77] Creating layer pool2/3x3_s2_pool2/3x3_s2_0_split
I0403 11:21:30.270457 29084 net.cpp:91] Creating Layer pool2/3x3_s2_pool2/3x3_s2_0_split
I0403 11:21:30.270484 29084 net.cpp:425] pool2/3x3_s2_pool2/3x3_s2_0_split <- pool2/3x3_s2
I0403 11:21:30.270509 29084 net.cpp:399] pool2/3x3_s2_pool2/3x3_s2_0_split -> pool2/3x3_s2_pool2/3x3_s2_0_split_0
I0403 11:21:30.270534 29084 net.cpp:399] pool2/3x3_s2_pool2/3x3_s2_0_split -> pool2/3x3_s2_pool2/3x3_s2_0_split_1
I0403 11:21:30.270560 29084 net.cpp:399] pool2/3x3_s2_pool2/3x3_s2_0_split -> pool2/3x3_s2_pool2/3x3_s2_0_split_2
I0403 11:21:30.270586 29084 net.cpp:399] pool2/3x3_s2_pool2/3x3_s2_0_split -> pool2/3x3_s2_pool2/3x3_s2_0_split_3
I0403 11:21:30.270658 29084 net.cpp:141] Setting up pool2/3x3_s2_pool2/3x3_s2_0_split
I0403 11:21:30.270684 29084 net.cpp:148] Top shape: 24 192 28 28 (3612672)
I0403 11:21:30.270704 29084 net.cpp:148] Top shape: 24 192 28 28 (3612672)
I0403 11:21:30.270725 29084 net.cpp:148] Top shape: 24 192 28 28 (3612672)
I0403 11:21:30.270745 29084 net.cpp:148] Top shape: 24 192 28 28 (3612672)
I0403 11:21:30.270761 29084 net.cpp:156] Memory required for data: 491323776
I0403 11:21:30.270779 29084 layer_factory.hpp:77] Creating layer inception_3a/1x1
I0403 11:21:30.270807 29084 net.cpp:91] Creating Layer inception_3a/1x1
I0403 11:21:30.270828 29084 net.cpp:425] inception_3a/1x1 <- pool2/3x3_s2_pool2/3x3_s2_0_split_0
I0403 11:21:30.270853 29084 net.cpp:399] inception_3a/1x1 -> inception_3a/1x1
I0403 11:21:30.271795 29084 net.cpp:141] Setting up inception_3a/1x1
I0403 11:21:30.271829 29084 net.cpp:148] Top shape: 24 64 28 28 (1204224)
I0403 11:21:30.271849 29084 net.cpp:156] Memory required for data: 496140672
I0403 11:21:30.271872 29084 layer_factory.hpp:77] Creating layer inception_3a/relu_1x1
I0403 11:21:30.271904 29084 net.cpp:91] Creating Layer inception_3a/relu_1x1
I0403 11:21:30.271929 29084 net.cpp:425] inception_3a/relu_1x1 <- inception_3a/1x1
I0403 11:21:30.271951 29084 net.cpp:386] inception_3a/relu_1x1 -> inception_3a/1x1 (in-place)
I0403 11:21:30.271975 29084 net.cpp:141] Setting up inception_3a/relu_1x1
I0403 11:21:30.271996 29084 net.cpp:148] Top shape: 24 64 28 28 (1204224)
I0403 11:21:30.272030 29084 net.cpp:156] Memory required for data: 500957568
I0403 11:21:30.272050 29084 layer_factory.hpp:77] Creating layer inception_3a/3x3_reduce
I0403 11:21:30.272078 29084 net.cpp:91] Creating Layer inception_3a/3x3_reduce
I0403 11:21:30.272099 29084 net.cpp:425] inception_3a/3x3_reduce <- pool2/3x3_s2_pool2/3x3_s2_0_split_1
I0403 11:21:30.272125 29084 net.cpp:399] inception_3a/3x3_reduce -> inception_3a/3x3_reduce
I0403 11:21:30.273162 29084 net.cpp:141] Setting up inception_3a/3x3_reduce
I0403 11:21:30.273200 29084 net.cpp:148] Top shape: 24 96 28 28 (1806336)
I0403 11:21:30.273221 29084 net.cpp:156] Memory required for data: 508182912
I0403 11:21:30.273250 29084 layer_factory.hpp:77] Creating layer inception_3a/relu_3x3_reduce
I0403 11:21:30.273279 29084 net.cpp:91] Creating Layer inception_3a/relu_3x3_reduce
I0403 11:21:30.273301 29084 net.cpp:425] inception_3a/relu_3x3_reduce <- inception_3a/3x3_reduce
I0403 11:21:30.273329 29084 net.cpp:386] inception_3a/relu_3x3_reduce -> inception_3a/3x3_reduce (in-place)
I0403 11:21:30.273355 29084 net.cpp:141] Setting up inception_3a/relu_3x3_reduce
I0403 11:21:30.273377 29084 net.cpp:148] Top shape: 24 96 28 28 (1806336)
I0403 11:21:30.273396 29084 net.cpp:156] Memory required for data: 515408256
I0403 11:21:30.273416 29084 layer_factory.hpp:77] Creating layer inception_3a/3x3
I0403 11:21:30.273443 29084 net.cpp:91] Creating Layer inception_3a/3x3
I0403 11:21:30.273483 29084 net.cpp:425] inception_3a/3x3 <- inception_3a/3x3_reduce
I0403 11:21:30.273510 29084 net.cpp:399] inception_3a/3x3 -> inception_3a/3x3
I0403 11:21:30.274550 29084 net.cpp:141] Setting up inception_3a/3x3
I0403 11:21:30.274581 29084 net.cpp:148] Top shape: 24 128 28 28 (2408448)
I0403 11:21:30.274600 29084 net.cpp:156] Memory required for data: 525042048
I0403 11:21:30.274622 29084 layer_factory.hpp:77] Creating layer inception_3a/relu_3x3
I0403 11:21:30.274646 29084 net.cpp:91] Creating Layer inception_3a/relu_3x3
I0403 11:21:30.274678 29084 net.cpp:425] inception_3a/relu_3x3 <- inception_3a/3x3
I0403 11:21:30.274701 29084 net.cpp:386] inception_3a/relu_3x3 -> inception_3a/3x3 (in-place)
I0403 11:21:30.274725 29084 net.cpp:141] Setting up inception_3a/relu_3x3
I0403 11:21:30.274749 29084 net.cpp:148] Top shape: 24 128 28 28 (2408448)
I0403 11:21:30.274767 29084 net.cpp:156] Memory required for data: 534675840
I0403 11:21:30.274787 29084 layer_factory.hpp:77] Creating layer inception_3a/5x5_reduce
I0403 11:21:30.274817 29084 net.cpp:91] Creating Layer inception_3a/5x5_reduce
I0403 11:21:30.274840 29084 net.cpp:425] inception_3a/5x5_reduce <- pool2/3x3_s2_pool2/3x3_s2_0_split_2
I0403 11:21:30.274868 29084 net.cpp:399] inception_3a/5x5_reduce -> inception_3a/5x5_reduce
I0403 11:21:30.275151 29084 net.cpp:141] Setting up inception_3a/5x5_reduce
I0403 11:21:30.275182 29084 net.cpp:148] Top shape: 24 16 28 28 (301056)
I0403 11:21:30.275202 29084 net.cpp:156] Memory required for data: 535880064
I0403 11:21:30.275224 29084 layer_factory.hpp:77] Creating layer inception_3a/relu_5x5_reduce
I0403 11:21:30.275249 29084 net.cpp:91] Creating Layer inception_3a/relu_5x5_reduce
I0403 11:21:30.275270 29084 net.cpp:425] inception_3a/relu_5x5_reduce <- inception_3a/5x5_reduce
I0403 11:21:30.275293 29084 net.cpp:386] inception_3a/relu_5x5_reduce -> inception_3a/5x5_reduce (in-place)
I0403 11:21:30.275318 29084 net.cpp:141] Setting up inception_3a/relu_5x5_reduce
I0403 11:21:30.275341 29084 net.cpp:148] Top shape: 24 16 28 28 (301056)
I0403 11:21:30.275359 29084 net.cpp:156] Memory required for data: 537084288
I0403 11:21:30.275378 29084 layer_factory.hpp:77] Creating layer inception_3a/5x5
I0403 11:21:30.275409 29084 net.cpp:91] Creating Layer inception_3a/5x5
I0403 11:21:30.275430 29084 net.cpp:425] inception_3a/5x5 <- inception_3a/5x5_reduce
I0403 11:21:30.275482 29084 net.cpp:399] inception_3a/5x5 -> inception_3a/5x5
I0403 11:21:30.275830 29084 net.cpp:141] Setting up inception_3a/5x5
I0403 11:21:30.275861 29084 net.cpp:148] Top shape: 24 32 28 28 (602112)
I0403 11:21:30.275897 29084 net.cpp:156] Memory required for data: 539492736
I0403 11:21:30.275920 29084 layer_factory.hpp:77] Creating layer inception_3a/relu_5x5
I0403 11:21:30.275945 29084 net.cpp:91] Creating Layer inception_3a/relu_5x5
I0403 11:21:30.275966 29084 net.cpp:425] inception_3a/relu_5x5 <- inception_3a/5x5
I0403 11:21:30.275990 29084 net.cpp:386] inception_3a/relu_5x5 -> inception_3a/5x5 (in-place)
I0403 11:21:30.276015 29084 net.cpp:141] Setting up inception_3a/relu_5x5
I0403 11:21:30.276036 29084 net.cpp:148] Top shape: 24 32 28 28 (602112)
I0403 11:21:30.276054 29084 net.cpp:156] Memory required for data: 541901184
I0403 11:21:30.276072 29084 layer_factory.hpp:77] Creating layer inception_3a/pool
I0403 11:21:30.276098 29084 net.cpp:91] Creating Layer inception_3a/pool
I0403 11:21:30.276121 29084 net.cpp:425] inception_3a/pool <- pool2/3x3_s2_pool2/3x3_s2_0_split_3
I0403 11:21:30.276145 29084 net.cpp:399] inception_3a/pool -> inception_3a/pool
I0403 11:21:30.276208 29084 net.cpp:141] Setting up inception_3a/pool
I0403 11:21:30.276237 29084 net.cpp:148] Top shape: 24 192 28 28 (3612672)
I0403 11:21:30.276255 29084 net.cpp:156] Memory required for data: 556351872
I0403 11:21:30.276275 29084 layer_factory.hpp:77] Creating layer inception_3a/pool_proj
I0403 11:21:30.276305 29084 net.cpp:91] Creating Layer inception_3a/pool_proj
I0403 11:21:30.276329 29084 net.cpp:425] inception_3a/pool_proj <- inception_3a/pool
I0403 11:21:30.276355 29084 net.cpp:399] inception_3a/pool_proj -> inception_3a/pool_proj
I0403 11:21:30.276654 29084 net.cpp:141] Setting up inception_3a/pool_proj
I0403 11:21:30.276689 29084 net.cpp:148] Top shape: 24 32 28 28 (602112)
I0403 11:21:30.276707 29084 net.cpp:156] Memory required for data: 558760320
I0403 11:21:30.276736 29084 layer_factory.hpp:77] Creating layer inception_3a/relu_pool_proj
I0403 11:21:30.276760 29084 net.cpp:91] Creating Layer inception_3a/relu_pool_proj
I0403 11:21:30.276782 29084 net.cpp:425] inception_3a/relu_pool_proj <- inception_3a/pool_proj
I0403 11:21:30.276804 29084 net.cpp:386] inception_3a/relu_pool_proj -> inception_3a/pool_proj (in-place)
I0403 11:21:30.276829 29084 net.cpp:141] Setting up inception_3a/relu_pool_proj
I0403 11:21:30.276851 29084 net.cpp:148] Top shape: 24 32 28 28 (602112)
I0403 11:21:30.276870 29084 net.cpp:156] Memory required for data: 561168768
I0403 11:21:30.276887 29084 layer_factory.hpp:77] Creating layer inception_3a/output
I0403 11:21:30.276914 29084 net.cpp:91] Creating Layer inception_3a/output
I0403 11:21:30.276934 29084 net.cpp:425] inception_3a/output <- inception_3a/1x1
I0403 11:21:30.276957 29084 net.cpp:425] inception_3a/output <- inception_3a/3x3
I0403 11:21:30.276976 29084 net.cpp:425] inception_3a/output <- inception_3a/5x5
I0403 11:21:30.276996 29084 net.cpp:425] inception_3a/output <- inception_3a/pool_proj
I0403 11:21:30.277020 29084 net.cpp:399] inception_3a/output -> inception_3a/output
I0403 11:21:30.277076 29084 net.cpp:141] Setting up inception_3a/output
I0403 11:21:30.277104 29084 net.cpp:148] Top shape: 24 256 28 28 (4816896)
I0403 11:21:30.277123 29084 net.cpp:156] Memory required for data: 580436352
I0403 11:21:30.277143 29084 layer_factory.hpp:77] Creating layer inception_3a/output_inception_3a/output_0_split
I0403 11:21:30.277165 29084 net.cpp:91] Creating Layer inception_3a/output_inception_3a/output_0_split
I0403 11:21:30.277187 29084 net.cpp:425] inception_3a/output_inception_3a/output_0_split <- inception_3a/output
I0403 11:21:30.277214 29084 net.cpp:399] inception_3a/output_inception_3a/output_0_split -> inception_3a/output_inception_3a/output_0_split_0
I0403 11:21:30.277241 29084 net.cpp:399] inception_3a/output_inception_3a/output_0_split -> inception_3a/output_inception_3a/output_0_split_1
I0403 11:21:30.277268 29084 net.cpp:399] inception_3a/output_inception_3a/output_0_split -> inception_3a/output_inception_3a/output_0_split_2
I0403 11:21:30.277294 29084 net.cpp:399] inception_3a/output_inception_3a/output_0_split -> inception_3a/output_inception_3a/output_0_split_3
I0403 11:21:30.277379 29084 net.cpp:141] Setting up inception_3a/output_inception_3a/output_0_split
I0403 11:21:30.277422 29084 net.cpp:148] Top shape: 24 256 28 28 (4816896)
I0403 11:21:30.277446 29084 net.cpp:148] Top shape: 24 256 28 28 (4816896)
I0403 11:21:30.277472 29084 net.cpp:148] Top shape: 24 256 28 28 (4816896)
I0403 11:21:30.277493 29084 net.cpp:148] Top shape: 24 256 28 28 (4816896)
I0403 11:21:30.277513 29084 net.cpp:156] Memory required for data: 657506688
I0403 11:21:30.277531 29084 layer_factory.hpp:77] Creating layer inception_3b/1x1
I0403 11:21:30.277561 29084 net.cpp:91] Creating Layer inception_3b/1x1
I0403 11:21:30.277586 29084 net.cpp:425] inception_3b/1x1 <- inception_3a/output_inception_3a/output_0_split_0
I0403 11:21:30.277612 29084 net.cpp:399] inception_3b/1x1 -> inception_3b/1x1
I0403 11:21:30.278084 29084 net.cpp:141] Setting up inception_3b/1x1
I0403 11:21:30.278116 29084 net.cpp:148] Top shape: 24 128 28 28 (2408448)
I0403 11:21:30.278136 29084 net.cpp:156] Memory required for data: 667140480
I0403 11:21:30.278157 29084 layer_factory.hpp:77] Creating layer inception_3b/relu_1x1
I0403 11:21:30.278182 29084 net.cpp:91] Creating Layer inception_3b/relu_1x1
I0403 11:21:30.278203 29084 net.cpp:425] inception_3b/relu_1x1 <- inception_3b/1x1
I0403 11:21:30.278224 29084 net.cpp:386] inception_3b/relu_1x1 -> inception_3b/1x1 (in-place)
I0403 11:21:30.278249 29084 net.cpp:141] Setting up inception_3b/relu_1x1
I0403 11:21:30.278280 29084 net.cpp:148] Top shape: 24 128 28 28 (2408448)
I0403 11:21:30.278300 29084 net.cpp:156] Memory required for data: 676774272
I0403 11:21:30.278317 29084 layer_factory.hpp:77] Creating layer inception_3b/3x3_reduce
I0403 11:21:30.278344 29084 net.cpp:91] Creating Layer inception_3b/3x3_reduce
I0403 11:21:30.278364 29084 net.cpp:425] inception_3b/3x3_reduce <- inception_3a/output_inception_3a/output_0_split_1
I0403 11:21:30.278393 29084 net.cpp:399] inception_3b/3x3_reduce -> inception_3b/3x3_reduce
I0403 11:21:30.278905 29084 net.cpp:141] Setting up inception_3b/3x3_reduce
I0403 11:21:30.278936 29084 net.cpp:148] Top shape: 24 128 28 28 (2408448)
I0403 11:21:30.278955 29084 net.cpp:156] Memory required for data: 686408064
I0403 11:21:30.278980 29084 layer_factory.hpp:77] Creating layer inception_3b/relu_3x3_reduce
I0403 11:21:30.279002 29084 net.cpp:91] Creating Layer inception_3b/relu_3x3_reduce
I0403 11:21:30.279023 29084 net.cpp:425] inception_3b/relu_3x3_reduce <- inception_3b/3x3_reduce
I0403 11:21:30.279047 29084 net.cpp:386] inception_3b/relu_3x3_reduce -> inception_3b/3x3_reduce (in-place)
I0403 11:21:30.279070 29084 net.cpp:141] Setting up inception_3b/relu_3x3_reduce
I0403 11:21:30.279093 29084 net.cpp:148] Top shape: 24 128 28 28 (2408448)
I0403 11:21:30.279110 29084 net.cpp:156] Memory required for data: 696041856
I0403 11:21:30.279129 29084 layer_factory.hpp:77] Creating layer inception_3b/3x3
I0403 11:21:30.279165 29084 net.cpp:91] Creating Layer inception_3b/3x3
I0403 11:21:30.279188 29084 net.cpp:425] inception_3b/3x3 <- inception_3b/3x3_reduce
I0403 11:21:30.279225 29084 net.cpp:399] inception_3b/3x3 -> inception_3b/3x3
I0403 11:21:30.281673 29084 net.cpp:141] Setting up inception_3b/3x3
I0403 11:21:30.281710 29084 net.cpp:148] Top shape: 24 192 28 28 (3612672)
I0403 11:21:30.281730 29084 net.cpp:156] Memory required for data: 710492544
I0403 11:21:30.281754 29084 layer_factory.hpp:77] Creating layer inception_3b/relu_3x3
I0403 11:21:30.281777 29084 net.cpp:91] Creating Layer inception_3b/relu_3x3
I0403 11:21:30.281798 29084 net.cpp:425] inception_3b/relu_3x3 <- inception_3b/3x3
I0403 11:21:30.281821 29084 net.cpp:386] inception_3b/relu_3x3 -> inception_3b/3x3 (in-place)
I0403 11:21:30.281847 29084 net.cpp:141] Setting up inception_3b/relu_3x3
I0403 11:21:30.281869 29084 net.cpp:148] Top shape: 24 192 28 28 (3612672)
I0403 11:21:30.281888 29084 net.cpp:156] Memory required for data: 724943232
I0403 11:21:30.281906 29084 layer_factory.hpp:77] Creating layer inception_3b/5x5_reduce
I0403 11:21:30.281936 29084 net.cpp:91] Creating Layer inception_3b/5x5_reduce
I0403 11:21:30.281960 29084 net.cpp:425] inception_3b/5x5_reduce <- inception_3a/output_inception_3a/output_0_split_2
I0403 11:21:30.282006 29084 net.cpp:399] inception_3b/5x5_reduce -> inception_3b/5x5_reduce
I0403 11:21:30.282327 29084 net.cpp:141] Setting up inception_3b/5x5_reduce
I0403 11:21:30.282358 29084 net.cpp:148] Top shape: 24 32 28 28 (602112)
I0403 11:21:30.282378 29084 net.cpp:156] Memory required for data: 727351680
I0403 11:21:30.282402 29084 layer_factory.hpp:77] Creating layer inception_3b/relu_5x5_reduce
I0403 11:21:30.282426 29084 net.cpp:91] Creating Layer inception_3b/relu_5x5_reduce
I0403 11:21:30.282449 29084 net.cpp:425] inception_3b/relu_5x5_reduce <- inception_3b/5x5_reduce
I0403 11:21:30.282490 29084 net.cpp:386] inception_3b/relu_5x5_reduce -> inception_3b/5x5_reduce (in-place)
I0403 11:21:30.282534 29084 net.cpp:141] Setting up inception_3b/relu_5x5_reduce
I0403 11:21:30.282555 29084 net.cpp:148] Top shape: 24 32 28 28 (602112)
I0403 11:21:30.282572 29084 net.cpp:156] Memory required for data: 729760128
I0403 11:21:30.282590 29084 layer_factory.hpp:77] Creating layer inception_3b/5x5
I0403 11:21:30.282618 29084 net.cpp:91] Creating Layer inception_3b/5x5
I0403 11:21:30.282639 29084 net.cpp:425] inception_3b/5x5 <- inception_3b/5x5_reduce
I0403 11:21:30.282666 29084 net.cpp:399] inception_3b/5x5 -> inception_3b/5x5
I0403 11:21:30.284061 29084 net.cpp:141] Setting up inception_3b/5x5
I0403 11:21:30.284096 29084 net.cpp:148] Top shape: 24 96 28 28 (1806336)
I0403 11:21:30.284116 29084 net.cpp:156] Memory required for data: 736985472
I0403 11:21:30.284137 29084 layer_factory.hpp:77] Creating layer inception_3b/relu_5x5
I0403 11:21:30.284164 29084 net.cpp:91] Creating Layer inception_3b/relu_5x5
I0403 11:21:30.284188 29084 net.cpp:425] inception_3b/relu_5x5 <- inception_3b/5x5
I0403 11:21:30.284209 29084 net.cpp:386] inception_3b/relu_5x5 -> inception_3b/5x5 (in-place)
I0403 11:21:30.284234 29084 net.cpp:141] Setting up inception_3b/relu_5x5
I0403 11:21:30.284255 29084 net.cpp:148] Top shape: 24 96 28 28 (1806336)
I0403 11:21:30.284271 29084 net.cpp:156] Memory required for data: 744210816
I0403 11:21:30.284289 29084 layer_factory.hpp:77] Creating layer inception_3b/pool
I0403 11:21:30.284312 29084 net.cpp:91] Creating Layer inception_3b/pool
I0403 11:21:30.284332 29084 net.cpp:425] inception_3b/pool <- inception_3a/output_inception_3a/output_0_split_3
I0403 11:21:30.284358 29084 net.cpp:399] inception_3b/pool -> inception_3b/pool
I0403 11:21:30.284418 29084 net.cpp:141] Setting up inception_3b/pool
I0403 11:21:30.284446 29084 net.cpp:148] Top shape: 24 256 28 28 (4816896)
I0403 11:21:30.284469 29084 net.cpp:156] Memory required for data: 763478400
I0403 11:21:30.284490 29084 layer_factory.hpp:77] Creating layer inception_3b/pool_proj
I0403 11:21:30.284520 29084 net.cpp:91] Creating Layer inception_3b/pool_proj
I0403 11:21:30.284543 29084 net.cpp:425] inception_3b/pool_proj <- inception_3b/pool
I0403 11:21:30.284569 29084 net.cpp:399] inception_3b/pool_proj -> inception_3b/pool_proj
I0403 11:21:30.284927 29084 net.cpp:141] Setting up inception_3b/pool_proj
I0403 11:21:30.284957 29084 net.cpp:148] Top shape: 24 64 28 28 (1204224)
I0403 11:21:30.284976 29084 net.cpp:156] Memory required for data: 768295296
I0403 11:21:30.284997 29084 layer_factory.hpp:77] Creating layer inception_3b/relu_pool_proj
I0403 11:21:30.285022 29084 net.cpp:91] Creating Layer inception_3b/relu_pool_proj
I0403 11:21:30.285042 29084 net.cpp:425] inception_3b/relu_pool_proj <- inception_3b/pool_proj
I0403 11:21:30.285064 29084 net.cpp:386] inception_3b/relu_pool_proj -> inception_3b/pool_proj (in-place)
I0403 11:21:30.285099 29084 net.cpp:141] Setting up inception_3b/relu_pool_proj
I0403 11:21:30.285121 29084 net.cpp:148] Top shape: 24 64 28 28 (1204224)
I0403 11:21:30.285138 29084 net.cpp:156] Memory required for data: 773112192
I0403 11:21:30.285156 29084 layer_factory.hpp:77] Creating layer inception_3b/output
I0403 11:21:30.285179 29084 net.cpp:91] Creating Layer inception_3b/output
I0403 11:21:30.285198 29084 net.cpp:425] inception_3b/output <- inception_3b/1x1
I0403 11:21:30.285236 29084 net.cpp:425] inception_3b/output <- inception_3b/3x3
I0403 11:21:30.285257 29084 net.cpp:425] inception_3b/output <- inception_3b/5x5
I0403 11:21:30.285279 29084 net.cpp:425] inception_3b/output <- inception_3b/pool_proj
I0403 11:21:30.285300 29084 net.cpp:399] inception_3b/output -> inception_3b/output
I0403 11:21:30.285348 29084 net.cpp:141] Setting up inception_3b/output
I0403 11:21:30.285375 29084 net.cpp:148] Top shape: 24 480 28 28 (9031680)
I0403 11:21:30.285393 29084 net.cpp:156] Memory required for data: 809238912
I0403 11:21:30.285411 29084 layer_factory.hpp:77] Creating layer pool3/3x3_s2
I0403 11:21:30.285434 29084 net.cpp:91] Creating Layer pool3/3x3_s2
I0403 11:21:30.285454 29084 net.cpp:425] pool3/3x3_s2 <- inception_3b/output
I0403 11:21:30.285485 29084 net.cpp:399] pool3/3x3_s2 -> pool3/3x3_s2
I0403 11:21:30.285544 29084 net.cpp:141] Setting up pool3/3x3_s2
I0403 11:21:30.285574 29084 net.cpp:148] Top shape: 24 480 14 14 (2257920)
I0403 11:21:30.285593 29084 net.cpp:156] Memory required for data: 818270592
I0403 11:21:30.285611 29084 layer_factory.hpp:77] Creating layer pool3/3x3_s2_pool3/3x3_s2_0_split
I0403 11:21:30.285634 29084 net.cpp:91] Creating Layer pool3/3x3_s2_pool3/3x3_s2_0_split
I0403 11:21:30.285653 29084 net.cpp:425] pool3/3x3_s2_pool3/3x3_s2_0_split <- pool3/3x3_s2
I0403 11:21:30.285675 29084 net.cpp:399] pool3/3x3_s2_pool3/3x3_s2_0_split -> pool3/3x3_s2_pool3/3x3_s2_0_split_0
I0403 11:21:30.285699 29084 net.cpp:399] pool3/3x3_s2_pool3/3x3_s2_0_split -> pool3/3x3_s2_pool3/3x3_s2_0_split_1
I0403 11:21:30.285727 29084 net.cpp:399] pool3/3x3_s2_pool3/3x3_s2_0_split -> pool3/3x3_s2_pool3/3x3_s2_0_split_2
I0403 11:21:30.285754 29084 net.cpp:399] pool3/3x3_s2_pool3/3x3_s2_0_split -> pool3/3x3_s2_pool3/3x3_s2_0_split_3
I0403 11:21:30.285832 29084 net.cpp:141] Setting up pool3/3x3_s2_pool3/3x3_s2_0_split
I0403 11:21:30.285859 29084 net.cpp:148] Top shape: 24 480 14 14 (2257920)
I0403 11:21:30.285878 29084 net.cpp:148] Top shape: 24 480 14 14 (2257920)
I0403 11:21:30.285897 29084 net.cpp:148] Top shape: 24 480 14 14 (2257920)
I0403 11:21:30.285917 29084 net.cpp:148] Top shape: 24 480 14 14 (2257920)
I0403 11:21:30.285933 29084 net.cpp:156] Memory required for data: 854397312
I0403 11:21:30.285951 29084 layer_factory.hpp:77] Creating layer inception_4a/1x1
I0403 11:21:30.285980 29084 net.cpp:91] Creating Layer inception_4a/1x1
I0403 11:21:30.286002 29084 net.cpp:425] inception_4a/1x1 <- pool3/3x3_s2_pool3/3x3_s2_0_split_0
I0403 11:21:30.286029 29084 net.cpp:399] inception_4a/1x1 -> inception_4a/1x1
I0403 11:21:30.286885 29084 net.cpp:141] Setting up inception_4a/1x1
I0403 11:21:30.286916 29084 net.cpp:148] Top shape: 24 192 14 14 (903168)
I0403 11:21:30.286933 29084 net.cpp:156] Memory required for data: 858009984
I0403 11:21:30.286955 29084 layer_factory.hpp:77] Creating layer inception_4a/relu_1x1
I0403 11:21:30.286979 29084 net.cpp:91] Creating Layer inception_4a/relu_1x1
I0403 11:21:30.286999 29084 net.cpp:425] inception_4a/relu_1x1 <- inception_4a/1x1
I0403 11:21:30.287020 29084 net.cpp:386] inception_4a/relu_1x1 -> inception_4a/1x1 (in-place)
I0403 11:21:30.287044 29084 net.cpp:141] Setting up inception_4a/relu_1x1
I0403 11:21:30.287065 29084 net.cpp:148] Top shape: 24 192 14 14 (903168)
I0403 11:21:30.287083 29084 net.cpp:156] Memory required for data: 861622656
I0403 11:21:30.287101 29084 layer_factory.hpp:77] Creating layer inception_4a/3x3_reduce
I0403 11:21:30.287128 29084 net.cpp:91] Creating Layer inception_4a/3x3_reduce
I0403 11:21:30.287150 29084 net.cpp:425] inception_4a/3x3_reduce <- pool3/3x3_s2_pool3/3x3_s2_0_split_1
I0403 11:21:30.287178 29084 net.cpp:399] inception_4a/3x3_reduce -> inception_4a/3x3_reduce
I0403 11:21:30.287746 29084 net.cpp:141] Setting up inception_4a/3x3_reduce
I0403 11:21:30.287776 29084 net.cpp:148] Top shape: 24 96 14 14 (451584)
I0403 11:21:30.287794 29084 net.cpp:156] Memory required for data: 863428992
I0403 11:21:30.287824 29084 layer_factory.hpp:77] Creating layer inception_4a/relu_3x3_reduce
I0403 11:21:30.287863 29084 net.cpp:91] Creating Layer inception_4a/relu_3x3_reduce
I0403 11:21:30.287885 29084 net.cpp:425] inception_4a/relu_3x3_reduce <- inception_4a/3x3_reduce
I0403 11:21:30.287907 29084 net.cpp:386] inception_4a/relu_3x3_reduce -> inception_4a/3x3_reduce (in-place)
I0403 11:21:30.287931 29084 net.cpp:141] Setting up inception_4a/relu_3x3_reduce
I0403 11:21:30.287952 29084 net.cpp:148] Top shape: 24 96 14 14 (451584)
I0403 11:21:30.287971 29084 net.cpp:156] Memory required for data: 865235328
I0403 11:21:30.287987 29084 layer_factory.hpp:77] Creating layer inception_4a/3x3
I0403 11:21:30.288017 29084 net.cpp:91] Creating Layer inception_4a/3x3
I0403 11:21:30.288039 29084 net.cpp:425] inception_4a/3x3 <- inception_4a/3x3_reduce
I0403 11:21:30.288066 29084 net.cpp:399] inception_4a/3x3 -> inception_4a/3x3
I0403 11:21:30.290155 29084 net.cpp:141] Setting up inception_4a/3x3
I0403 11:21:30.290189 29084 net.cpp:148] Top shape: 24 208 14 14 (978432)
I0403 11:21:30.290210 29084 net.cpp:156] Memory required for data: 869149056
I0403 11:21:30.290231 29084 layer_factory.hpp:77] Creating layer inception_4a/relu_3x3
I0403 11:21:30.290258 29084 net.cpp:91] Creating Layer inception_4a/relu_3x3
I0403 11:21:30.290279 29084 net.cpp:425] inception_4a/relu_3x3 <- inception_4a/3x3
I0403 11:21:30.290302 29084 net.cpp:386] inception_4a/relu_3x3 -> inception_4a/3x3 (in-place)
I0403 11:21:30.290325 29084 net.cpp:141] Setting up inception_4a/relu_3x3
I0403 11:21:30.290346 29084 net.cpp:148] Top shape: 24 208 14 14 (978432)
I0403 11:21:30.290364 29084 net.cpp:156] Memory required for data: 873062784
I0403 11:21:30.290382 29084 layer_factory.hpp:77] Creating layer inception_4a/5x5_reduce
I0403 11:21:30.290410 29084 net.cpp:91] Creating Layer inception_4a/5x5_reduce
I0403 11:21:30.290432 29084 net.cpp:425] inception_4a/5x5_reduce <- pool3/3x3_s2_pool3/3x3_s2_0_split_2
I0403 11:21:30.290464 29084 net.cpp:399] inception_4a/5x5_reduce -> inception_4a/5x5_reduce
I0403 11:21:30.290769 29084 net.cpp:141] Setting up inception_4a/5x5_reduce
I0403 11:21:30.290801 29084 net.cpp:148] Top shape: 24 16 14 14 (75264)
I0403 11:21:30.290818 29084 net.cpp:156] Memory required for data: 873363840
I0403 11:21:30.290840 29084 layer_factory.hpp:77] Creating layer inception_4a/relu_5x5_reduce
I0403 11:21:30.290864 29084 net.cpp:91] Creating Layer inception_4a/relu_5x5_reduce
I0403 11:21:30.290885 29084 net.cpp:425] inception_4a/relu_5x5_reduce <- inception_4a/5x5_reduce
I0403 11:21:30.290907 29084 net.cpp:386] inception_4a/relu_5x5_reduce -> inception_4a/5x5_reduce (in-place)
I0403 11:21:30.290930 29084 net.cpp:141] Setting up inception_4a/relu_5x5_reduce
I0403 11:21:30.290952 29084 net.cpp:148] Top shape: 24 16 14 14 (75264)
I0403 11:21:30.290971 29084 net.cpp:156] Memory required for data: 873664896
I0403 11:21:30.290989 29084 layer_factory.hpp:77] Creating layer inception_4a/5x5
I0403 11:21:30.291018 29084 net.cpp:91] Creating Layer inception_4a/5x5
I0403 11:21:30.291039 29084 net.cpp:425] inception_4a/5x5 <- inception_4a/5x5_reduce
I0403 11:21:30.291066 29084 net.cpp:399] inception_4a/5x5 -> inception_4a/5x5
I0403 11:21:30.291446 29084 net.cpp:141] Setting up inception_4a/5x5
I0403 11:21:30.291481 29084 net.cpp:148] Top shape: 24 48 14 14 (225792)
I0403 11:21:30.291501 29084 net.cpp:156] Memory required for data: 874568064
I0403 11:21:30.291522 29084 layer_factory.hpp:77] Creating layer inception_4a/relu_5x5
I0403 11:21:30.291548 29084 net.cpp:91] Creating Layer inception_4a/relu_5x5
I0403 11:21:30.291570 29084 net.cpp:425] inception_4a/relu_5x5 <- inception_4a/5x5
I0403 11:21:30.291592 29084 net.cpp:386] inception_4a/relu_5x5 -> inception_4a/5x5 (in-place)
I0403 11:21:30.291616 29084 net.cpp:141] Setting up inception_4a/relu_5x5
I0403 11:21:30.291638 29084 net.cpp:148] Top shape: 24 48 14 14 (225792)
I0403 11:21:30.291656 29084 net.cpp:156] Memory required for data: 875471232
I0403 11:21:30.291674 29084 layer_factory.hpp:77] Creating layer inception_4a/pool
I0403 11:21:30.291699 29084 net.cpp:91] Creating Layer inception_4a/pool
I0403 11:21:30.291721 29084 net.cpp:425] inception_4a/pool <- pool3/3x3_s2_pool3/3x3_s2_0_split_3
I0403 11:21:30.291762 29084 net.cpp:399] inception_4a/pool -> inception_4a/pool
I0403 11:21:30.291826 29084 net.cpp:141] Setting up inception_4a/pool
I0403 11:21:30.291856 29084 net.cpp:148] Top shape: 24 480 14 14 (2257920)
I0403 11:21:30.291873 29084 net.cpp:156] Memory required for data: 884502912
I0403 11:21:30.291892 29084 layer_factory.hpp:77] Creating layer inception_4a/pool_proj
I0403 11:21:30.291923 29084 net.cpp:91] Creating Layer inception_4a/pool_proj
I0403 11:21:30.291946 29084 net.cpp:425] inception_4a/pool_proj <- inception_4a/pool
I0403 11:21:30.291971 29084 net.cpp:399] inception_4a/pool_proj -> inception_4a/pool_proj
I0403 11:21:30.292423 29084 net.cpp:141] Setting up inception_4a/pool_proj
I0403 11:21:30.292454 29084 net.cpp:148] Top shape: 24 64 14 14 (301056)
I0403 11:21:30.292487 29084 net.cpp:156] Memory required for data: 885707136
I0403 11:21:30.292511 29084 layer_factory.hpp:77] Creating layer inception_4a/relu_pool_proj
I0403 11:21:30.292536 29084 net.cpp:91] Creating Layer inception_4a/relu_pool_proj
I0403 11:21:30.292557 29084 net.cpp:425] inception_4a/relu_pool_proj <- inception_4a/pool_proj
I0403 11:21:30.292582 29084 net.cpp:386] inception_4a/relu_pool_proj -> inception_4a/pool_proj (in-place)
I0403 11:21:30.292609 29084 net.cpp:141] Setting up inception_4a/relu_pool_proj
I0403 11:21:30.292630 29084 net.cpp:148] Top shape: 24 64 14 14 (301056)
I0403 11:21:30.292649 29084 net.cpp:156] Memory required for data: 886911360
I0403 11:21:30.292666 29084 layer_factory.hpp:77] Creating layer inception_4a/output
I0403 11:21:30.292688 29084 net.cpp:91] Creating Layer inception_4a/output
I0403 11:21:30.292708 29084 net.cpp:425] inception_4a/output <- inception_4a/1x1
I0403 11:21:30.292728 29084 net.cpp:425] inception_4a/output <- inception_4a/3x3
I0403 11:21:30.292748 29084 net.cpp:425] inception_4a/output <- inception_4a/5x5
I0403 11:21:30.292768 29084 net.cpp:425] inception_4a/output <- inception_4a/pool_proj
I0403 11:21:30.292790 29084 net.cpp:399] inception_4a/output -> inception_4a/output
I0403 11:21:30.292839 29084 net.cpp:141] Setting up inception_4a/output
I0403 11:21:30.292866 29084 net.cpp:148] Top shape: 24 512 14 14 (2408448)
I0403 11:21:30.292884 29084 net.cpp:156] Memory required for data: 896545152
I0403 11:21:30.292902 29084 layer_factory.hpp:77] Creating layer inception_4a/output_inception_4a/output_0_split
I0403 11:21:30.292925 29084 net.cpp:91] Creating Layer inception_4a/output_inception_4a/output_0_split
I0403 11:21:30.292945 29084 net.cpp:425] inception_4a/output_inception_4a/output_0_split <- inception_4a/output
I0403 11:21:30.292970 29084 net.cpp:399] inception_4a/output_inception_4a/output_0_split -> inception_4a/output_inception_4a/output_0_split_0
I0403 11:21:30.292999 29084 net.cpp:399] inception_4a/output_inception_4a/output_0_split -> inception_4a/output_inception_4a/output_0_split_1
I0403 11:21:30.293025 29084 net.cpp:399] inception_4a/output_inception_4a/output_0_split -> inception_4a/output_inception_4a/output_0_split_2
I0403 11:21:30.293051 29084 net.cpp:399] inception_4a/output_inception_4a/output_0_split -> inception_4a/output_inception_4a/output_0_split_3
I0403 11:21:30.293079 29084 net.cpp:399] inception_4a/output_inception_4a/output_0_split -> inception_4a/output_inception_4a/output_0_split_4
I0403 11:21:30.293170 29084 net.cpp:141] Setting up inception_4a/output_inception_4a/output_0_split
I0403 11:21:30.293198 29084 net.cpp:148] Top shape: 24 512 14 14 (2408448)
I0403 11:21:30.293220 29084 net.cpp:148] Top shape: 24 512 14 14 (2408448)
I0403 11:21:30.293239 29084 net.cpp:148] Top shape: 24 512 14 14 (2408448)
I0403 11:21:30.293258 29084 net.cpp:148] Top shape: 24 512 14 14 (2408448)
I0403 11:21:30.293277 29084 net.cpp:148] Top shape: 24 512 14 14 (2408448)
I0403 11:21:30.293294 29084 net.cpp:156] Memory required for data: 944714112
I0403 11:21:30.293313 29084 layer_factory.hpp:77] Creating layer loss1/ave_pool
I0403 11:21:30.293335 29084 net.cpp:91] Creating Layer loss1/ave_pool
I0403 11:21:30.293372 29084 net.cpp:425] loss1/ave_pool <- inception_4a/output_inception_4a/output_0_split_0
I0403 11:21:30.293398 29084 net.cpp:399] loss1/ave_pool -> loss1/ave_pool
I0403 11:21:30.293447 29084 net.cpp:141] Setting up loss1/ave_pool
I0403 11:21:30.293479 29084 net.cpp:148] Top shape: 24 512 4 4 (196608)
I0403 11:21:30.293498 29084 net.cpp:156] Memory required for data: 945500544
I0403 11:21:30.293517 29084 layer_factory.hpp:77] Creating layer loss1/conv
I0403 11:21:30.293546 29084 net.cpp:91] Creating Layer loss1/conv
I0403 11:21:30.293570 29084 net.cpp:425] loss1/conv <- loss1/ave_pool
I0403 11:21:30.293593 29084 net.cpp:399] loss1/conv -> loss1/conv
I0403 11:21:30.294271 29084 net.cpp:141] Setting up loss1/conv
I0403 11:21:30.294301 29084 net.cpp:148] Top shape: 24 128 4 4 (49152)
I0403 11:21:30.294319 29084 net.cpp:156] Memory required for data: 945697152
I0403 11:21:30.294342 29084 layer_factory.hpp:77] Creating layer loss1/relu_conv
I0403 11:21:30.294364 29084 net.cpp:91] Creating Layer loss1/relu_conv
I0403 11:21:30.294384 29084 net.cpp:425] loss1/relu_conv <- loss1/conv
I0403 11:21:30.294406 29084 net.cpp:386] loss1/relu_conv -> loss1/conv (in-place)
I0403 11:21:30.294430 29084 net.cpp:141] Setting up loss1/relu_conv
I0403 11:21:30.294451 29084 net.cpp:148] Top shape: 24 128 4 4 (49152)
I0403 11:21:30.294474 29084 net.cpp:156] Memory required for data: 945893760
I0403 11:21:30.294494 29084 layer_factory.hpp:77] Creating layer loss1/fc
I0403 11:21:30.294535 29084 net.cpp:91] Creating Layer loss1/fc
I0403 11:21:30.294558 29084 net.cpp:425] loss1/fc <- loss1/conv
I0403 11:21:30.294584 29084 net.cpp:399] loss1/fc -> loss1/fc
I0403 11:21:30.314226 29084 net.cpp:141] Setting up loss1/fc
I0403 11:21:30.314275 29084 net.cpp:148] Top shape: 24 1024 (24576)
I0403 11:21:30.314296 29084 net.cpp:156] Memory required for data: 945992064
I0403 11:21:30.314318 29084 layer_factory.hpp:77] Creating layer loss1/relu_fc
I0403 11:21:30.314343 29084 net.cpp:91] Creating Layer loss1/relu_fc
I0403 11:21:30.314365 29084 net.cpp:425] loss1/relu_fc <- loss1/fc
I0403 11:21:30.314390 29084 net.cpp:386] loss1/relu_fc -> loss1/fc (in-place)
I0403 11:21:30.314416 29084 net.cpp:141] Setting up loss1/relu_fc
I0403 11:21:30.314437 29084 net.cpp:148] Top shape: 24 1024 (24576)
I0403 11:21:30.314455 29084 net.cpp:156] Memory required for data: 946090368
I0403 11:21:30.314481 29084 layer_factory.hpp:77] Creating layer loss1/drop_fc
I0403 11:21:30.314517 29084 net.cpp:91] Creating Layer loss1/drop_fc
I0403 11:21:30.314540 29084 net.cpp:425] loss1/drop_fc <- loss1/fc
I0403 11:21:30.314563 29084 net.cpp:386] loss1/drop_fc -> loss1/fc (in-place)
I0403 11:21:30.314620 29084 net.cpp:141] Setting up loss1/drop_fc
I0403 11:21:30.314647 29084 net.cpp:148] Top shape: 24 1024 (24576)
I0403 11:21:30.314666 29084 net.cpp:156] Memory required for data: 946188672
I0403 11:21:30.314685 29084 layer_factory.hpp:77] Creating layer loss1/classifier_plantvillage
I0403 11:21:30.314710 29084 net.cpp:91] Creating Layer loss1/classifier_plantvillage
I0403 11:21:30.314738 29084 net.cpp:425] loss1/classifier_plantvillage <- loss1/fc
I0403 11:21:30.314762 29084 net.cpp:399] loss1/classifier_plantvillage -> loss1/classifier_plantvillage
I0403 11:21:30.315778 29084 net.cpp:141] Setting up loss1/classifier_plantvillage
I0403 11:21:30.315810 29084 net.cpp:148] Top shape: 24 38 (912)
I0403 11:21:30.315830 29084 net.cpp:156] Memory required for data: 946192320
I0403 11:21:30.315852 29084 layer_factory.hpp:77] Creating layer inception_4b/1x1
I0403 11:21:30.315883 29084 net.cpp:91] Creating Layer inception_4b/1x1
I0403 11:21:30.315906 29084 net.cpp:425] inception_4b/1x1 <- inception_4a/output_inception_4a/output_0_split_1
I0403 11:21:30.315933 29084 net.cpp:399] inception_4b/1x1 -> inception_4b/1x1
I0403 11:21:30.316748 29084 net.cpp:141] Setting up inception_4b/1x1
I0403 11:21:30.316778 29084 net.cpp:148] Top shape: 24 160 14 14 (752640)
I0403 11:21:30.316797 29084 net.cpp:156] Memory required for data: 949202880
I0403 11:21:30.316818 29084 layer_factory.hpp:77] Creating layer inception_4b/relu_1x1
I0403 11:21:30.316861 29084 net.cpp:91] Creating Layer inception_4b/relu_1x1
I0403 11:21:30.316882 29084 net.cpp:425] inception_4b/relu_1x1 <- inception_4b/1x1
I0403 11:21:30.316905 29084 net.cpp:386] inception_4b/relu_1x1 -> inception_4b/1x1 (in-place)
I0403 11:21:30.316933 29084 net.cpp:141] Setting up inception_4b/relu_1x1
I0403 11:21:30.316954 29084 net.cpp:148] Top shape: 24 160 14 14 (752640)
I0403 11:21:30.316973 29084 net.cpp:156] Memory required for data: 952213440
I0403 11:21:30.316990 29084 layer_factory.hpp:77] Creating layer inception_4b/3x3_reduce
I0403 11:21:30.317016 29084 net.cpp:91] Creating Layer inception_4b/3x3_reduce
I0403 11:21:30.317037 29084 net.cpp:425] inception_4b/3x3_reduce <- inception_4a/output_inception_4a/output_0_split_2
I0403 11:21:30.317065 29084 net.cpp:399] inception_4b/3x3_reduce -> inception_4b/3x3_reduce
I0403 11:21:30.317709 29084 net.cpp:141] Setting up inception_4b/3x3_reduce
I0403 11:21:30.317739 29084 net.cpp:148] Top shape: 24 112 14 14 (526848)
I0403 11:21:30.317759 29084 net.cpp:156] Memory required for data: 954320832
I0403 11:21:30.317782 29084 layer_factory.hpp:77] Creating layer inception_4b/relu_3x3_reduce
I0403 11:21:30.317806 29084 net.cpp:91] Creating Layer inception_4b/relu_3x3_reduce
I0403 11:21:30.317828 29084 net.cpp:425] inception_4b/relu_3x3_reduce <- inception_4b/3x3_reduce
I0403 11:21:30.317852 29084 net.cpp:386] inception_4b/relu_3x3_reduce -> inception_4b/3x3_reduce (in-place)
I0403 11:21:30.317876 29084 net.cpp:141] Setting up inception_4b/relu_3x3_reduce
I0403 11:21:30.317898 29084 net.cpp:148] Top shape: 24 112 14 14 (526848)
I0403 11:21:30.317915 29084 net.cpp:156] Memory required for data: 956428224
I0403 11:21:30.317934 29084 layer_factory.hpp:77] Creating layer inception_4b/3x3
I0403 11:21:30.317962 29084 net.cpp:91] Creating Layer inception_4b/3x3
I0403 11:21:30.317986 29084 net.cpp:425] inception_4b/3x3 <- inception_4b/3x3_reduce
I0403 11:21:30.318012 29084 net.cpp:399] inception_4b/3x3 -> inception_4b/3x3
I0403 11:21:30.320410 29084 net.cpp:141] Setting up inception_4b/3x3
I0403 11:21:30.320446 29084 net.cpp:148] Top shape: 24 224 14 14 (1053696)
I0403 11:21:30.320471 29084 net.cpp:156] Memory required for data: 960643008
I0403 11:21:30.320493 29084 layer_factory.hpp:77] Creating layer inception_4b/relu_3x3
I0403 11:21:30.320518 29084 net.cpp:91] Creating Layer inception_4b/relu_3x3
I0403 11:21:30.320539 29084 net.cpp:425] inception_4b/relu_3x3 <- inception_4b/3x3
I0403 11:21:30.320562 29084 net.cpp:386] inception_4b/relu_3x3 -> inception_4b/3x3 (in-place)
I0403 11:21:30.320586 29084 net.cpp:141] Setting up inception_4b/relu_3x3
I0403 11:21:30.320610 29084 net.cpp:148] Top shape: 24 224 14 14 (1053696)
I0403 11:21:30.320627 29084 net.cpp:156] Memory required for data: 964857792
I0403 11:21:30.320647 29084 layer_factory.hpp:77] Creating layer inception_4b/5x5_reduce
I0403 11:21:30.320675 29084 net.cpp:91] Creating Layer inception_4b/5x5_reduce
I0403 11:21:30.320698 29084 net.cpp:425] inception_4b/5x5_reduce <- inception_4a/output_inception_4a/output_0_split_3
I0403 11:21:30.320726 29084 net.cpp:399] inception_4b/5x5_reduce -> inception_4b/5x5_reduce
I0403 11:21:30.321074 29084 net.cpp:141] Setting up inception_4b/5x5_reduce
I0403 11:21:30.321105 29084 net.cpp:148] Top shape: 24 24 14 14 (112896)
I0403 11:21:30.321125 29084 net.cpp:156] Memory required for data: 965309376
I0403 11:21:30.321147 29084 layer_factory.hpp:77] Creating layer inception_4b/relu_5x5_reduce
I0403 11:21:30.321169 29084 net.cpp:91] Creating Layer inception_4b/relu_5x5_reduce
I0403 11:21:30.321189 29084 net.cpp:425] inception_4b/relu_5x5_reduce <- inception_4b/5x5_reduce
I0403 11:21:30.321213 29084 net.cpp:386] inception_4b/relu_5x5_reduce -> inception_4b/5x5_reduce (in-place)
I0403 11:21:30.321236 29084 net.cpp:141] Setting up inception_4b/relu_5x5_reduce
I0403 11:21:30.321259 29084 net.cpp:148] Top shape: 24 24 14 14 (112896)
I0403 11:21:30.321277 29084 net.cpp:156] Memory required for data: 965760960
I0403 11:21:30.321296 29084 layer_factory.hpp:77] Creating layer inception_4b/5x5
I0403 11:21:30.321343 29084 net.cpp:91] Creating Layer inception_4b/5x5
I0403 11:21:30.321367 29084 net.cpp:425] inception_4b/5x5 <- inception_4b/5x5_reduce
I0403 11:21:30.321395 29084 net.cpp:399] inception_4b/5x5 -> inception_4b/5x5
I0403 11:21:30.321916 29084 net.cpp:141] Setting up inception_4b/5x5
I0403 11:21:30.321948 29084 net.cpp:148] Top shape: 24 64 14 14 (301056)
I0403 11:21:30.321966 29084 net.cpp:156] Memory required for data: 966965184
I0403 11:21:30.321988 29084 layer_factory.hpp:77] Creating layer inception_4b/relu_5x5
I0403 11:21:30.322011 29084 net.cpp:91] Creating Layer inception_4b/relu_5x5
I0403 11:21:30.322033 29084 net.cpp:425] inception_4b/relu_5x5 <- inception_4b/5x5
I0403 11:21:30.322055 29084 net.cpp:386] inception_4b/relu_5x5 -> inception_4b/5x5 (in-place)
I0403 11:21:30.322080 29084 net.cpp:141] Setting up inception_4b/relu_5x5
I0403 11:21:30.322103 29084 net.cpp:148] Top shape: 24 64 14 14 (301056)
I0403 11:21:30.322120 29084 net.cpp:156] Memory required for data: 968169408
I0403 11:21:30.322139 29084 layer_factory.hpp:77] Creating layer inception_4b/pool
I0403 11:21:30.322165 29084 net.cpp:91] Creating Layer inception_4b/pool
I0403 11:21:30.322187 29084 net.cpp:425] inception_4b/pool <- inception_4a/output_inception_4a/output_0_split_4
I0403 11:21:30.322212 29084 net.cpp:399] inception_4b/pool -> inception_4b/pool
I0403 11:21:30.322283 29084 net.cpp:141] Setting up inception_4b/pool
I0403 11:21:30.322311 29084 net.cpp:148] Top shape: 24 512 14 14 (2408448)
I0403 11:21:30.322330 29084 net.cpp:156] Memory required for data: 977803200
I0403 11:21:30.322348 29084 layer_factory.hpp:77] Creating layer inception_4b/pool_proj
I0403 11:21:30.322378 29084 net.cpp:91] Creating Layer inception_4b/pool_proj
I0403 11:21:30.322402 29084 net.cpp:425] inception_4b/pool_proj <- inception_4b/pool
I0403 11:21:30.322427 29084 net.cpp:399] inception_4b/pool_proj -> inception_4b/pool_proj
I0403 11:21:30.322921 29084 net.cpp:141] Setting up inception_4b/pool_proj
I0403 11:21:30.322953 29084 net.cpp:148] Top shape: 24 64 14 14 (301056)
I0403 11:21:30.322973 29084 net.cpp:156] Memory required for data: 979007424
I0403 11:21:30.322994 29084 layer_factory.hpp:77] Creating layer inception_4b/relu_pool_proj
I0403 11:21:30.323020 29084 net.cpp:91] Creating Layer inception_4b/relu_pool_proj
I0403 11:21:30.323043 29084 net.cpp:425] inception_4b/relu_pool_proj <- inception_4b/pool_proj
I0403 11:21:30.323067 29084 net.cpp:386] inception_4b/relu_pool_proj -> inception_4b/pool_proj (in-place)
I0403 11:21:30.323091 29084 net.cpp:141] Setting up inception_4b/relu_pool_proj
I0403 11:21:30.323113 29084 net.cpp:148] Top shape: 24 64 14 14 (301056)
I0403 11:21:30.323132 29084 net.cpp:156] Memory required for data: 980211648
I0403 11:21:30.323149 29084 layer_factory.hpp:77] Creating layer inception_4b/output
I0403 11:21:30.323173 29084 net.cpp:91] Creating Layer inception_4b/output
I0403 11:21:30.323192 29084 net.cpp:425] inception_4b/output <- inception_4b/1x1
I0403 11:21:30.323213 29084 net.cpp:425] inception_4b/output <- inception_4b/3x3
I0403 11:21:30.323233 29084 net.cpp:425] inception_4b/output <- inception_4b/5x5
I0403 11:21:30.323254 29084 net.cpp:425] inception_4b/output <- inception_4b/pool_proj
I0403 11:21:30.323279 29084 net.cpp:399] inception_4b/output -> inception_4b/output
I0403 11:21:30.323328 29084 net.cpp:141] Setting up inception_4b/output
I0403 11:21:30.323354 29084 net.cpp:148] Top shape: 24 512 14 14 (2408448)
I0403 11:21:30.323374 29084 net.cpp:156] Memory required for data: 989845440
I0403 11:21:30.323391 29084 layer_factory.hpp:77] Creating layer inception_4b/output_inception_4b/output_0_split
I0403 11:21:30.323417 29084 net.cpp:91] Creating Layer inception_4b/output_inception_4b/output_0_split
I0403 11:21:30.323439 29084 net.cpp:425] inception_4b/output_inception_4b/output_0_split <- inception_4b/output
I0403 11:21:30.323467 29084 net.cpp:399] inception_4b/output_inception_4b/output_0_split -> inception_4b/output_inception_4b/output_0_split_0
I0403 11:21:30.323495 29084 net.cpp:399] inception_4b/output_inception_4b/output_0_split -> inception_4b/output_inception_4b/output_0_split_1
I0403 11:21:30.323539 29084 net.cpp:399] inception_4b/output_inception_4b/output_0_split -> inception_4b/output_inception_4b/output_0_split_2
I0403 11:21:30.323570 29084 net.cpp:399] inception_4b/output_inception_4b/output_0_split -> inception_4b/output_inception_4b/output_0_split_3
I0403 11:21:30.323652 29084 net.cpp:141] Setting up inception_4b/output_inception_4b/output_0_split
I0403 11:21:30.323680 29084 net.cpp:148] Top shape: 24 512 14 14 (2408448)
I0403 11:21:30.323701 29084 net.cpp:148] Top shape: 24 512 14 14 (2408448)
I0403 11:21:30.323721 29084 net.cpp:148] Top shape: 24 512 14 14 (2408448)
I0403 11:21:30.323741 29084 net.cpp:148] Top shape: 24 512 14 14 (2408448)
I0403 11:21:30.323758 29084 net.cpp:156] Memory required for data: 1028380608
I0403 11:21:30.323776 29084 layer_factory.hpp:77] Creating layer inception_4c/1x1
I0403 11:21:30.323806 29084 net.cpp:91] Creating Layer inception_4c/1x1
I0403 11:21:30.323828 29084 net.cpp:425] inception_4c/1x1 <- inception_4b/output_inception_4b/output_0_split_0
I0403 11:21:30.323855 29084 net.cpp:399] inception_4c/1x1 -> inception_4c/1x1
I0403 11:21:30.324548 29084 net.cpp:141] Setting up inception_4c/1x1
I0403 11:21:30.324579 29084 net.cpp:148] Top shape: 24 128 14 14 (602112)
I0403 11:21:30.324597 29084 net.cpp:156] Memory required for data: 1030789056
I0403 11:21:30.324621 29084 layer_factory.hpp:77] Creating layer inception_4c/relu_1x1
I0403 11:21:30.324643 29084 net.cpp:91] Creating Layer inception_4c/relu_1x1
I0403 11:21:30.324666 29084 net.cpp:425] inception_4c/relu_1x1 <- inception_4c/1x1
I0403 11:21:30.324687 29084 net.cpp:386] inception_4c/relu_1x1 -> inception_4c/1x1 (in-place)
I0403 11:21:30.324710 29084 net.cpp:141] Setting up inception_4c/relu_1x1
I0403 11:21:30.324731 29084 net.cpp:148] Top shape: 24 128 14 14 (602112)
I0403 11:21:30.324749 29084 net.cpp:156] Memory required for data: 1033197504
I0403 11:21:30.324767 29084 layer_factory.hpp:77] Creating layer inception_4c/3x3_reduce
I0403 11:21:30.324797 29084 net.cpp:91] Creating Layer inception_4c/3x3_reduce
I0403 11:21:30.324820 29084 net.cpp:425] inception_4c/3x3_reduce <- inception_4b/output_inception_4b/output_0_split_1
I0403 11:21:30.324846 29084 net.cpp:399] inception_4c/3x3_reduce -> inception_4c/3x3_reduce
I0403 11:21:30.326175 29084 net.cpp:141] Setting up inception_4c/3x3_reduce
I0403 11:21:30.326210 29084 net.cpp:148] Top shape: 24 128 14 14 (602112)
I0403 11:21:30.326230 29084 net.cpp:156] Memory required for data: 1035605952
I0403 11:21:30.326253 29084 layer_factory.hpp:77] Creating layer inception_4c/relu_3x3_reduce
I0403 11:21:30.326277 29084 net.cpp:91] Creating Layer inception_4c/relu_3x3_reduce
I0403 11:21:30.326298 29084 net.cpp:425] inception_4c/relu_3x3_reduce <- inception_4c/3x3_reduce
I0403 11:21:30.326324 29084 net.cpp:386] inception_4c/relu_3x3_reduce -> inception_4c/3x3_reduce (in-place)
I0403 11:21:30.326349 29084 net.cpp:141] Setting up inception_4c/relu_3x3_reduce
I0403 11:21:30.326372 29084 net.cpp:148] Top shape: 24 128 14 14 (602112)
I0403 11:21:30.326390 29084 net.cpp:156] Memory required for data: 1038014400
I0403 11:21:30.326409 29084 layer_factory.hpp:77] Creating layer inception_4c/3x3
I0403 11:21:30.326436 29084 net.cpp:91] Creating Layer inception_4c/3x3
I0403 11:21:30.326457 29084 net.cpp:425] inception_4c/3x3 <- inception_4c/3x3_reduce
I0403 11:21:30.326490 29084 net.cpp:399] inception_4c/3x3 -> inception_4c/3x3
I0403 11:21:30.329399 29084 net.cpp:141] Setting up inception_4c/3x3
I0403 11:21:30.329434 29084 net.cpp:148] Top shape: 24 256 14 14 (1204224)
I0403 11:21:30.329454 29084 net.cpp:156] Memory required for data: 1042831296
I0403 11:21:30.329499 29084 layer_factory.hpp:77] Creating layer inception_4c/relu_3x3
I0403 11:21:30.329529 29084 net.cpp:91] Creating Layer inception_4c/relu_3x3
I0403 11:21:30.329550 29084 net.cpp:425] inception_4c/relu_3x3 <- inception_4c/3x3
I0403 11:21:30.329572 29084 net.cpp:386] inception_4c/relu_3x3 -> inception_4c/3x3 (in-place)
I0403 11:21:30.329615 29084 net.cpp:141] Setting up inception_4c/relu_3x3
I0403 11:21:30.329640 29084 net.cpp:148] Top shape: 24 256 14 14 (1204224)
I0403 11:21:30.329660 29084 net.cpp:156] Memory required for data: 1047648192
I0403 11:21:30.329679 29084 layer_factory.hpp:77] Creating layer inception_4c/5x5_reduce
I0403 11:21:30.329710 29084 net.cpp:91] Creating Layer inception_4c/5x5_reduce
I0403 11:21:30.329732 29084 net.cpp:425] inception_4c/5x5_reduce <- inception_4b/output_inception_4b/output_0_split_2
I0403 11:21:30.329757 29084 net.cpp:399] inception_4c/5x5_reduce -> inception_4c/5x5_reduce
I0403 11:21:30.330106 29084 net.cpp:141] Setting up inception_4c/5x5_reduce
I0403 11:21:30.330138 29084 net.cpp:148] Top shape: 24 24 14 14 (112896)
I0403 11:21:30.330157 29084 net.cpp:156] Memory required for data: 1048099776
I0403 11:21:30.330180 29084 layer_factory.hpp:77] Creating layer inception_4c/relu_5x5_reduce
I0403 11:21:30.330206 29084 net.cpp:91] Creating Layer inception_4c/relu_5x5_reduce
I0403 11:21:30.330229 29084 net.cpp:425] inception_4c/relu_5x5_reduce <- inception_4c/5x5_reduce
I0403 11:21:30.330252 29084 net.cpp:386] inception_4c/relu_5x5_reduce -> inception_4c/5x5_reduce (in-place)
I0403 11:21:30.330277 29084 net.cpp:141] Setting up inception_4c/relu_5x5_reduce
I0403 11:21:30.330299 29084 net.cpp:148] Top shape: 24 24 14 14 (112896)
I0403 11:21:30.330318 29084 net.cpp:156] Memory required for data: 1048551360
I0403 11:21:30.330337 29084 layer_factory.hpp:77] Creating layer inception_4c/5x5
I0403 11:21:30.330366 29084 net.cpp:91] Creating Layer inception_4c/5x5
I0403 11:21:30.330389 29084 net.cpp:425] inception_4c/5x5 <- inception_4c/5x5_reduce
I0403 11:21:30.330415 29084 net.cpp:399] inception_4c/5x5 -> inception_4c/5x5
I0403 11:21:30.330940 29084 net.cpp:141] Setting up inception_4c/5x5
I0403 11:21:30.330971 29084 net.cpp:148] Top shape: 24 64 14 14 (301056)
I0403 11:21:30.330989 29084 net.cpp:156] Memory required for data: 1049755584
I0403 11:21:30.331012 29084 layer_factory.hpp:77] Creating layer inception_4c/relu_5x5
I0403 11:21:30.331035 29084 net.cpp:91] Creating Layer inception_4c/relu_5x5
I0403 11:21:30.331056 29084 net.cpp:425] inception_4c/relu_5x5 <- inception_4c/5x5
I0403 11:21:30.331082 29084 net.cpp:386] inception_4c/relu_5x5 -> inception_4c/5x5 (in-place)
I0403 11:21:30.331107 29084 net.cpp:141] Setting up inception_4c/relu_5x5
I0403 11:21:30.331130 29084 net.cpp:148] Top shape: 24 64 14 14 (301056)
I0403 11:21:30.331148 29084 net.cpp:156] Memory required for data: 1050959808
I0403 11:21:30.331166 29084 layer_factory.hpp:77] Creating layer inception_4c/pool
I0403 11:21:30.331188 29084 net.cpp:91] Creating Layer inception_4c/pool
I0403 11:21:30.331212 29084 net.cpp:425] inception_4c/pool <- inception_4b/output_inception_4b/output_0_split_3
I0403 11:21:30.331238 29084 net.cpp:399] inception_4c/pool -> inception_4c/pool
I0403 11:21:30.331301 29084 net.cpp:141] Setting up inception_4c/pool
I0403 11:21:30.331333 29084 net.cpp:148] Top shape: 24 512 14 14 (2408448)
I0403 11:21:30.331353 29084 net.cpp:156] Memory required for data: 1060593600
I0403 11:21:30.331372 29084 layer_factory.hpp:77] Creating layer inception_4c/pool_proj
I0403 11:21:30.331398 29084 net.cpp:91] Creating Layer inception_4c/pool_proj
I0403 11:21:30.331423 29084 net.cpp:425] inception_4c/pool_proj <- inception_4c/pool
I0403 11:21:30.331449 29084 net.cpp:399] inception_4c/pool_proj -> inception_4c/pool_proj
I0403 11:21:30.331933 29084 net.cpp:141] Setting up inception_4c/pool_proj
I0403 11:21:30.331964 29084 net.cpp:148] Top shape: 24 64 14 14 (301056)
I0403 11:21:30.331984 29084 net.cpp:156] Memory required for data: 1061797824
I0403 11:21:30.332007 29084 layer_factory.hpp:77] Creating layer inception_4c/relu_pool_proj
I0403 11:21:30.332031 29084 net.cpp:91] Creating Layer inception_4c/relu_pool_proj
I0403 11:21:30.332052 29084 net.cpp:425] inception_4c/relu_pool_proj <- inception_4c/pool_proj
I0403 11:21:30.332074 29084 net.cpp:386] inception_4c/relu_pool_proj -> inception_4c/pool_proj (in-place)
I0403 11:21:30.332099 29084 net.cpp:141] Setting up inception_4c/relu_pool_proj
I0403 11:21:30.332137 29084 net.cpp:148] Top shape: 24 64 14 14 (301056)
I0403 11:21:30.332157 29084 net.cpp:156] Memory required for data: 1063002048
I0403 11:21:30.332176 29084 layer_factory.hpp:77] Creating layer inception_4c/output
I0403 11:21:30.332202 29084 net.cpp:91] Creating Layer inception_4c/output
I0403 11:21:30.332226 29084 net.cpp:425] inception_4c/output <- inception_4c/1x1
I0403 11:21:30.332247 29084 net.cpp:425] inception_4c/output <- inception_4c/3x3
I0403 11:21:30.332267 29084 net.cpp:425] inception_4c/output <- inception_4c/5x5
I0403 11:21:30.332288 29084 net.cpp:425] inception_4c/output <- inception_4c/pool_proj
I0403 11:21:30.332312 29084 net.cpp:399] inception_4c/output -> inception_4c/output
I0403 11:21:30.332365 29084 net.cpp:141] Setting up inception_4c/output
I0403 11:21:30.332392 29084 net.cpp:148] Top shape: 24 512 14 14 (2408448)
I0403 11:21:30.332412 29084 net.cpp:156] Memory required for data: 1072635840
I0403 11:21:30.332432 29084 layer_factory.hpp:77] Creating layer inception_4c/output_inception_4c/output_0_split
I0403 11:21:30.332455 29084 net.cpp:91] Creating Layer inception_4c/output_inception_4c/output_0_split
I0403 11:21:30.332491 29084 net.cpp:425] inception_4c/output_inception_4c/output_0_split <- inception_4c/output
I0403 11:21:30.332520 29084 net.cpp:399] inception_4c/output_inception_4c/output_0_split -> inception_4c/output_inception_4c/output_0_split_0
I0403 11:21:30.332547 29084 net.cpp:399] inception_4c/output_inception_4c/output_0_split -> inception_4c/output_inception_4c/output_0_split_1
I0403 11:21:30.332576 29084 net.cpp:399] inception_4c/output_inception_4c/output_0_split -> inception_4c/output_inception_4c/output_0_split_2
I0403 11:21:30.332602 29084 net.cpp:399] inception_4c/output_inception_4c/output_0_split -> inception_4c/output_inception_4c/output_0_split_3
I0403 11:21:30.332686 29084 net.cpp:141] Setting up inception_4c/output_inception_4c/output_0_split
I0403 11:21:30.332717 29084 net.cpp:148] Top shape: 24 512 14 14 (2408448)
I0403 11:21:30.332741 29084 net.cpp:148] Top shape: 24 512 14 14 (2408448)
I0403 11:21:30.332761 29084 net.cpp:148] Top shape: 24 512 14 14 (2408448)
I0403 11:21:30.332779 29084 net.cpp:148] Top shape: 24 512 14 14 (2408448)
I0403 11:21:30.332798 29084 net.cpp:156] Memory required for data: 1111171008
I0403 11:21:30.332815 29084 layer_factory.hpp:77] Creating layer inception_4d/1x1
I0403 11:21:30.332849 29084 net.cpp:91] Creating Layer inception_4d/1x1
I0403 11:21:30.332873 29084 net.cpp:425] inception_4d/1x1 <- inception_4c/output_inception_4c/output_0_split_0
I0403 11:21:30.332898 29084 net.cpp:399] inception_4d/1x1 -> inception_4d/1x1
I0403 11:21:30.333540 29084 net.cpp:141] Setting up inception_4d/1x1
I0403 11:21:30.333572 29084 net.cpp:148] Top shape: 24 112 14 14 (526848)
I0403 11:21:30.333590 29084 net.cpp:156] Memory required for data: 1113278400
I0403 11:21:30.333614 29084 layer_factory.hpp:77] Creating layer inception_4d/relu_1x1
I0403 11:21:30.333637 29084 net.cpp:91] Creating Layer inception_4d/relu_1x1
I0403 11:21:30.333658 29084 net.cpp:425] inception_4d/relu_1x1 <- inception_4d/1x1
I0403 11:21:30.333684 29084 net.cpp:386] inception_4d/relu_1x1 -> inception_4d/1x1 (in-place)
I0403 11:21:30.333710 29084 net.cpp:141] Setting up inception_4d/relu_1x1
I0403 11:21:30.333732 29084 net.cpp:148] Top shape: 24 112 14 14 (526848)
I0403 11:21:30.333751 29084 net.cpp:156] Memory required for data: 1115385792
I0403 11:21:30.333770 29084 layer_factory.hpp:77] Creating layer inception_4d/3x3_reduce
I0403 11:21:30.333799 29084 net.cpp:91] Creating Layer inception_4d/3x3_reduce
I0403 11:21:30.333822 29084 net.cpp:425] inception_4d/3x3_reduce <- inception_4c/output_inception_4c/output_0_split_1
I0403 11:21:30.333847 29084 net.cpp:399] inception_4d/3x3_reduce -> inception_4d/3x3_reduce
I0403 11:21:30.334625 29084 net.cpp:141] Setting up inception_4d/3x3_reduce
I0403 11:21:30.334656 29084 net.cpp:148] Top shape: 24 144 14 14 (677376)
I0403 11:21:30.334674 29084 net.cpp:156] Memory required for data: 1118095296
I0403 11:21:30.334714 29084 layer_factory.hpp:77] Creating layer inception_4d/relu_3x3_reduce
I0403 11:21:30.334739 29084 net.cpp:91] Creating Layer inception_4d/relu_3x3_reduce
I0403 11:21:30.334761 29084 net.cpp:425] inception_4d/relu_3x3_reduce <- inception_4d/3x3_reduce
I0403 11:21:30.334786 29084 net.cpp:386] inception_4d/relu_3x3_reduce -> inception_4d/3x3_reduce (in-place)
I0403 11:21:30.334813 29084 net.cpp:141] Setting up inception_4d/relu_3x3_reduce
I0403 11:21:30.334836 29084 net.cpp:148] Top shape: 24 144 14 14 (677376)
I0403 11:21:30.334856 29084 net.cpp:156] Memory required for data: 1120804800
I0403 11:21:30.334873 29084 layer_factory.hpp:77] Creating layer inception_4d/3x3
I0403 11:21:30.334902 29084 net.cpp:91] Creating Layer inception_4d/3x3
I0403 11:21:30.334924 29084 net.cpp:425] inception_4d/3x3 <- inception_4d/3x3_reduce
I0403 11:21:30.334949 29084 net.cpp:399] inception_4d/3x3 -> inception_4d/3x3
I0403 11:21:30.338862 29084 net.cpp:141] Setting up inception_4d/3x3
I0403 11:21:30.338901 29084 net.cpp:148] Top shape: 24 288 14 14 (1354752)
I0403 11:21:30.338922 29084 net.cpp:156] Memory required for data: 1126223808
I0403 11:21:30.338945 29084 layer_factory.hpp:77] Creating layer inception_4d/relu_3x3
I0403 11:21:30.338969 29084 net.cpp:91] Creating Layer inception_4d/relu_3x3
I0403 11:21:30.338990 29084 net.cpp:425] inception_4d/relu_3x3 <- inception_4d/3x3
I0403 11:21:30.339015 29084 net.cpp:386] inception_4d/relu_3x3 -> inception_4d/3x3 (in-place)
I0403 11:21:30.339040 29084 net.cpp:141] Setting up inception_4d/relu_3x3
I0403 11:21:30.339059 29084 net.cpp:148] Top shape: 24 288 14 14 (1354752)
I0403 11:21:30.339077 29084 net.cpp:156] Memory required for data: 1131642816
I0403 11:21:30.339095 29084 layer_factory.hpp:77] Creating layer inception_4d/5x5_reduce
I0403 11:21:30.339124 29084 net.cpp:91] Creating Layer inception_4d/5x5_reduce
I0403 11:21:30.339148 29084 net.cpp:425] inception_4d/5x5_reduce <- inception_4c/output_inception_4c/output_0_split_2
I0403 11:21:30.339174 29084 net.cpp:399] inception_4d/5x5_reduce -> inception_4d/5x5_reduce
I0403 11:21:30.339560 29084 net.cpp:141] Setting up inception_4d/5x5_reduce
I0403 11:21:30.339592 29084 net.cpp:148] Top shape: 24 32 14 14 (150528)
I0403 11:21:30.339612 29084 net.cpp:156] Memory required for data: 1132244928
I0403 11:21:30.339634 29084 layer_factory.hpp:77] Creating layer inception_4d/relu_5x5_reduce
I0403 11:21:30.339660 29084 net.cpp:91] Creating Layer inception_4d/relu_5x5_reduce
I0403 11:21:30.339684 29084 net.cpp:425] inception_4d/relu_5x5_reduce <- inception_4d/5x5_reduce
I0403 11:21:30.339706 29084 net.cpp:386] inception_4d/relu_5x5_reduce -> inception_4d/5x5_reduce (in-place)
I0403 11:21:30.339731 29084 net.cpp:141] Setting up inception_4d/relu_5x5_reduce
I0403 11:21:30.339753 29084 net.cpp:148] Top shape: 24 32 14 14 (150528)
I0403 11:21:30.339771 29084 net.cpp:156] Memory required for data: 1132847040
I0403 11:21:30.339789 29084 layer_factory.hpp:77] Creating layer inception_4d/5x5
I0403 11:21:30.339819 29084 net.cpp:91] Creating Layer inception_4d/5x5
I0403 11:21:30.339841 29084 net.cpp:425] inception_4d/5x5 <- inception_4d/5x5_reduce
I0403 11:21:30.339871 29084 net.cpp:399] inception_4d/5x5 -> inception_4d/5x5
I0403 11:21:30.340487 29084 net.cpp:141] Setting up inception_4d/5x5
I0403 11:21:30.340518 29084 net.cpp:148] Top shape: 24 64 14 14 (301056)
I0403 11:21:30.340536 29084 net.cpp:156] Memory required for data: 1134051264
I0403 11:21:30.340559 29084 layer_factory.hpp:77] Creating layer inception_4d/relu_5x5
I0403 11:21:30.340582 29084 net.cpp:91] Creating Layer inception_4d/relu_5x5
I0403 11:21:30.340605 29084 net.cpp:425] inception_4d/relu_5x5 <- inception_4d/5x5
I0403 11:21:30.340626 29084 net.cpp:386] inception_4d/relu_5x5 -> inception_4d/5x5 (in-place)
I0403 11:21:30.340651 29084 net.cpp:141] Setting up inception_4d/relu_5x5
I0403 11:21:30.340674 29084 net.cpp:148] Top shape: 24 64 14 14 (301056)
I0403 11:21:30.340693 29084 net.cpp:156] Memory required for data: 1135255488
I0403 11:21:30.340713 29084 layer_factory.hpp:77] Creating layer inception_4d/pool
I0403 11:21:30.340754 29084 net.cpp:91] Creating Layer inception_4d/pool
I0403 11:21:30.340778 29084 net.cpp:425] inception_4d/pool <- inception_4c/output_inception_4c/output_0_split_3
I0403 11:21:30.340802 29084 net.cpp:399] inception_4d/pool -> inception_4d/pool
I0403 11:21:30.340867 29084 net.cpp:141] Setting up inception_4d/pool
I0403 11:21:30.340895 29084 net.cpp:148] Top shape: 24 512 14 14 (2408448)
I0403 11:21:30.340914 29084 net.cpp:156] Memory required for data: 1144889280
I0403 11:21:30.340934 29084 layer_factory.hpp:77] Creating layer inception_4d/pool_proj
I0403 11:21:30.340965 29084 net.cpp:91] Creating Layer inception_4d/pool_proj
I0403 11:21:30.340987 29084 net.cpp:425] inception_4d/pool_proj <- inception_4d/pool
I0403 11:21:30.341012 29084 net.cpp:399] inception_4d/pool_proj -> inception_4d/pool_proj
I0403 11:21:30.342120 29084 net.cpp:141] Setting up inception_4d/pool_proj
I0403 11:21:30.342155 29084 net.cpp:148] Top shape: 24 64 14 14 (301056)
I0403 11:21:30.342176 29084 net.cpp:156] Memory required for data: 1146093504
I0403 11:21:30.342200 29084 layer_factory.hpp:77] Creating layer inception_4d/relu_pool_proj
I0403 11:21:30.342226 29084 net.cpp:91] Creating Layer inception_4d/relu_pool_proj
I0403 11:21:30.342247 29084 net.cpp:425] inception_4d/relu_pool_proj <- inception_4d/pool_proj
I0403 11:21:30.342272 29084 net.cpp:386] inception_4d/relu_pool_proj -> inception_4d/pool_proj (in-place)
I0403 11:21:30.342299 29084 net.cpp:141] Setting up inception_4d/relu_pool_proj
I0403 11:21:30.342322 29084 net.cpp:148] Top shape: 24 64 14 14 (301056)
I0403 11:21:30.342341 29084 net.cpp:156] Memory required for data: 1147297728
I0403 11:21:30.342360 29084 layer_factory.hpp:77] Creating layer inception_4d/output
I0403 11:21:30.342382 29084 net.cpp:91] Creating Layer inception_4d/output
I0403 11:21:30.342402 29084 net.cpp:425] inception_4d/output <- inception_4d/1x1
I0403 11:21:30.342422 29084 net.cpp:425] inception_4d/output <- inception_4d/3x3
I0403 11:21:30.342443 29084 net.cpp:425] inception_4d/output <- inception_4d/5x5
I0403 11:21:30.342476 29084 net.cpp:425] inception_4d/output <- inception_4d/pool_proj
I0403 11:21:30.342504 29084 net.cpp:399] inception_4d/output -> inception_4d/output
I0403 11:21:30.342555 29084 net.cpp:141] Setting up inception_4d/output
I0403 11:21:30.342584 29084 net.cpp:148] Top shape: 24 528 14 14 (2483712)
I0403 11:21:30.342603 29084 net.cpp:156] Memory required for data: 1157232576
I0403 11:21:30.342622 29084 layer_factory.hpp:77] Creating layer inception_4d/output_inception_4d/output_0_split
I0403 11:21:30.342646 29084 net.cpp:91] Creating Layer inception_4d/output_inception_4d/output_0_split
I0403 11:21:30.342666 29084 net.cpp:425] inception_4d/output_inception_4d/output_0_split <- inception_4d/output
I0403 11:21:30.342692 29084 net.cpp:399] inception_4d/output_inception_4d/output_0_split -> inception_4d/output_inception_4d/output_0_split_0
I0403 11:21:30.342720 29084 net.cpp:399] inception_4d/output_inception_4d/output_0_split -> inception_4d/output_inception_4d/output_0_split_1
I0403 11:21:30.342747 29084 net.cpp:399] inception_4d/output_inception_4d/output_0_split -> inception_4d/output_inception_4d/output_0_split_2
I0403 11:21:30.342775 29084 net.cpp:399] inception_4d/output_inception_4d/output_0_split -> inception_4d/output_inception_4d/output_0_split_3
I0403 11:21:30.342806 29084 net.cpp:399] inception_4d/output_inception_4d/output_0_split -> inception_4d/output_inception_4d/output_0_split_4
I0403 11:21:30.342902 29084 net.cpp:141] Setting up inception_4d/output_inception_4d/output_0_split
I0403 11:21:30.342929 29084 net.cpp:148] Top shape: 24 528 14 14 (2483712)
I0403 11:21:30.342952 29084 net.cpp:148] Top shape: 24 528 14 14 (2483712)
I0403 11:21:30.342972 29084 net.cpp:148] Top shape: 24 528 14 14 (2483712)
I0403 11:21:30.342993 29084 net.cpp:148] Top shape: 24 528 14 14 (2483712)
I0403 11:21:30.343013 29084 net.cpp:148] Top shape: 24 528 14 14 (2483712)
I0403 11:21:30.343030 29084 net.cpp:156] Memory required for data: 1206906816
I0403 11:21:30.343065 29084 layer_factory.hpp:77] Creating layer loss2/ave_pool
I0403 11:21:30.343091 29084 net.cpp:91] Creating Layer loss2/ave_pool
I0403 11:21:30.343112 29084 net.cpp:425] loss2/ave_pool <- inception_4d/output_inception_4d/output_0_split_0
I0403 11:21:30.343138 29084 net.cpp:399] loss2/ave_pool -> loss2/ave_pool
I0403 11:21:30.343188 29084 net.cpp:141] Setting up loss2/ave_pool
I0403 11:21:30.343220 29084 net.cpp:148] Top shape: 24 528 4 4 (202752)
I0403 11:21:30.343238 29084 net.cpp:156] Memory required for data: 1207717824
I0403 11:21:30.343257 29084 layer_factory.hpp:77] Creating layer loss2/conv
I0403 11:21:30.343291 29084 net.cpp:91] Creating Layer loss2/conv
I0403 11:21:30.343313 29084 net.cpp:425] loss2/conv <- loss2/ave_pool
I0403 11:21:30.343339 29084 net.cpp:399] loss2/conv -> loss2/conv
I0403 11:21:30.344682 29084 net.cpp:141] Setting up loss2/conv
I0403 11:21:30.344717 29084 net.cpp:148] Top shape: 24 128 4 4 (49152)
I0403 11:21:30.344738 29084 net.cpp:156] Memory required for data: 1207914432
I0403 11:21:30.344760 29084 layer_factory.hpp:77] Creating layer loss2/relu_conv
I0403 11:21:30.344785 29084 net.cpp:91] Creating Layer loss2/relu_conv
I0403 11:21:30.344807 29084 net.cpp:425] loss2/relu_conv <- loss2/conv
I0403 11:21:30.344830 29084 net.cpp:386] loss2/relu_conv -> loss2/conv (in-place)
I0403 11:21:30.344854 29084 net.cpp:141] Setting up loss2/relu_conv
I0403 11:21:30.344880 29084 net.cpp:148] Top shape: 24 128 4 4 (49152)
I0403 11:21:30.344898 29084 net.cpp:156] Memory required for data: 1208111040
I0403 11:21:30.344918 29084 layer_factory.hpp:77] Creating layer loss2/fc
I0403 11:21:30.344941 29084 net.cpp:91] Creating Layer loss2/fc
I0403 11:21:30.344962 29084 net.cpp:425] loss2/fc <- loss2/conv
I0403 11:21:30.344987 29084 net.cpp:399] loss2/fc -> loss2/fc
I0403 11:21:30.364537 29084 net.cpp:141] Setting up loss2/fc
I0403 11:21:30.364578 29084 net.cpp:148] Top shape: 24 1024 (24576)
I0403 11:21:30.364598 29084 net.cpp:156] Memory required for data: 1208209344
I0403 11:21:30.364622 29084 layer_factory.hpp:77] Creating layer loss2/relu_fc
I0403 11:21:30.364648 29084 net.cpp:91] Creating Layer loss2/relu_fc
I0403 11:21:30.364671 29084 net.cpp:425] loss2/relu_fc <- loss2/fc
I0403 11:21:30.364697 29084 net.cpp:386] loss2/relu_fc -> loss2/fc (in-place)
I0403 11:21:30.364724 29084 net.cpp:141] Setting up loss2/relu_fc
I0403 11:21:30.364747 29084 net.cpp:148] Top shape: 24 1024 (24576)
I0403 11:21:30.364764 29084 net.cpp:156] Memory required for data: 1208307648
I0403 11:21:30.364784 29084 layer_factory.hpp:77] Creating layer loss2/drop_fc
I0403 11:21:30.364806 29084 net.cpp:91] Creating Layer loss2/drop_fc
I0403 11:21:30.364826 29084 net.cpp:425] loss2/drop_fc <- loss2/fc
I0403 11:21:30.364847 29084 net.cpp:386] loss2/drop_fc -> loss2/fc (in-place)
I0403 11:21:30.364897 29084 net.cpp:141] Setting up loss2/drop_fc
I0403 11:21:30.364926 29084 net.cpp:148] Top shape: 24 1024 (24576)
I0403 11:21:30.364944 29084 net.cpp:156] Memory required for data: 1208405952
I0403 11:21:30.364964 29084 layer_factory.hpp:77] Creating layer loss2/classifier_plantvillage
I0403 11:21:30.364990 29084 net.cpp:91] Creating Layer loss2/classifier_plantvillage
I0403 11:21:30.365012 29084 net.cpp:425] loss2/classifier_plantvillage <- loss2/fc
I0403 11:21:30.365037 29084 net.cpp:399] loss2/classifier_plantvillage -> loss2/classifier_plantvillage
I0403 11:21:30.365434 29084 net.cpp:141] Setting up loss2/classifier_plantvillage
I0403 11:21:30.365468 29084 net.cpp:148] Top shape: 24 38 (912)
I0403 11:21:30.365490 29084 net.cpp:156] Memory required for data: 1208409600
I0403 11:21:30.365514 29084 layer_factory.hpp:77] Creating layer inception_4e/1x1
I0403 11:21:30.365546 29084 net.cpp:91] Creating Layer inception_4e/1x1
I0403 11:21:30.365569 29084 net.cpp:425] inception_4e/1x1 <- inception_4d/output_inception_4d/output_0_split_1
I0403 11:21:30.365594 29084 net.cpp:399] inception_4e/1x1 -> inception_4e/1x1
I0403 11:21:30.366775 29084 net.cpp:141] Setting up inception_4e/1x1
I0403 11:21:30.366807 29084 net.cpp:148] Top shape: 24 256 14 14 (1204224)
I0403 11:21:30.366848 29084 net.cpp:156] Memory required for data: 1213226496
I0403 11:21:30.366873 29084 layer_factory.hpp:77] Creating layer inception_4e/relu_1x1
I0403 11:21:30.366896 29084 net.cpp:91] Creating Layer inception_4e/relu_1x1
I0403 11:21:30.366917 29084 net.cpp:425] inception_4e/relu_1x1 <- inception_4e/1x1
I0403 11:21:30.366943 29084 net.cpp:386] inception_4e/relu_1x1 -> inception_4e/1x1 (in-place)
I0403 11:21:30.366969 29084 net.cpp:141] Setting up inception_4e/relu_1x1
I0403 11:21:30.366992 29084 net.cpp:148] Top shape: 24 256 14 14 (1204224)
I0403 11:21:30.367012 29084 net.cpp:156] Memory required for data: 1218043392
I0403 11:21:30.367029 29084 layer_factory.hpp:77] Creating layer inception_4e/3x3_reduce
I0403 11:21:30.367058 29084 net.cpp:91] Creating Layer inception_4e/3x3_reduce
I0403 11:21:30.367080 29084 net.cpp:425] inception_4e/3x3_reduce <- inception_4d/output_inception_4d/output_0_split_2
I0403 11:21:30.367106 29084 net.cpp:399] inception_4e/3x3_reduce -> inception_4e/3x3_reduce
I0403 11:21:30.368571 29084 net.cpp:141] Setting up inception_4e/3x3_reduce
I0403 11:21:30.368605 29084 net.cpp:148] Top shape: 24 160 14 14 (752640)
I0403 11:21:30.368626 29084 net.cpp:156] Memory required for data: 1221053952
I0403 11:21:30.368649 29084 layer_factory.hpp:77] Creating layer inception_4e/relu_3x3_reduce
I0403 11:21:30.368674 29084 net.cpp:91] Creating Layer inception_4e/relu_3x3_reduce
I0403 11:21:30.368695 29084 net.cpp:425] inception_4e/relu_3x3_reduce <- inception_4e/3x3_reduce
I0403 11:21:30.368718 29084 net.cpp:386] inception_4e/relu_3x3_reduce -> inception_4e/3x3_reduce (in-place)
I0403 11:21:30.368743 29084 net.cpp:141] Setting up inception_4e/relu_3x3_reduce
I0403 11:21:30.368765 29084 net.cpp:148] Top shape: 24 160 14 14 (752640)
I0403 11:21:30.368782 29084 net.cpp:156] Memory required for data: 1224064512
I0403 11:21:30.368801 29084 layer_factory.hpp:77] Creating layer inception_4e/3x3
I0403 11:21:30.368831 29084 net.cpp:91] Creating Layer inception_4e/3x3
I0403 11:21:30.368854 29084 net.cpp:425] inception_4e/3x3 <- inception_4e/3x3_reduce
I0403 11:21:30.368881 29084 net.cpp:399] inception_4e/3x3 -> inception_4e/3x3
I0403 11:21:30.373657 29084 net.cpp:141] Setting up inception_4e/3x3
I0403 11:21:30.373692 29084 net.cpp:148] Top shape: 24 320 14 14 (1505280)
I0403 11:21:30.373713 29084 net.cpp:156] Memory required for data: 1230085632
I0403 11:21:30.373735 29084 layer_factory.hpp:77] Creating layer inception_4e/relu_3x3
I0403 11:21:30.373764 29084 net.cpp:91] Creating Layer inception_4e/relu_3x3
I0403 11:21:30.373786 29084 net.cpp:425] inception_4e/relu_3x3 <- inception_4e/3x3
I0403 11:21:30.373810 29084 net.cpp:386] inception_4e/relu_3x3 -> inception_4e/3x3 (in-place)
I0403 11:21:30.373833 29084 net.cpp:141] Setting up inception_4e/relu_3x3
I0403 11:21:30.373857 29084 net.cpp:148] Top shape: 24 320 14 14 (1505280)
I0403 11:21:30.373874 29084 net.cpp:156] Memory required for data: 1236106752
I0403 11:21:30.373893 29084 layer_factory.hpp:77] Creating layer inception_4e/5x5_reduce
I0403 11:21:30.373924 29084 net.cpp:91] Creating Layer inception_4e/5x5_reduce
I0403 11:21:30.373949 29084 net.cpp:425] inception_4e/5x5_reduce <- inception_4d/output_inception_4d/output_0_split_3
I0403 11:21:30.373972 29084 net.cpp:399] inception_4e/5x5_reduce -> inception_4e/5x5_reduce
I0403 11:21:30.374359 29084 net.cpp:141] Setting up inception_4e/5x5_reduce
I0403 11:21:30.374390 29084 net.cpp:148] Top shape: 24 32 14 14 (150528)
I0403 11:21:30.374409 29084 net.cpp:156] Memory required for data: 1236708864
I0403 11:21:30.374433 29084 layer_factory.hpp:77] Creating layer inception_4e/relu_5x5_reduce
I0403 11:21:30.374456 29084 net.cpp:91] Creating Layer inception_4e/relu_5x5_reduce
I0403 11:21:30.374485 29084 net.cpp:425] inception_4e/relu_5x5_reduce <- inception_4e/5x5_reduce
I0403 11:21:30.374511 29084 net.cpp:386] inception_4e/relu_5x5_reduce -> inception_4e/5x5_reduce (in-place)
I0403 11:21:30.374536 29084 net.cpp:141] Setting up inception_4e/relu_5x5_reduce
I0403 11:21:30.374575 29084 net.cpp:148] Top shape: 24 32 14 14 (150528)
I0403 11:21:30.374595 29084 net.cpp:156] Memory required for data: 1237310976
I0403 11:21:30.374614 29084 layer_factory.hpp:77] Creating layer inception_4e/5x5
I0403 11:21:30.374644 29084 net.cpp:91] Creating Layer inception_4e/5x5
I0403 11:21:30.374665 29084 net.cpp:425] inception_4e/5x5 <- inception_4e/5x5_reduce
I0403 11:21:30.374691 29084 net.cpp:399] inception_4e/5x5 -> inception_4e/5x5
I0403 11:21:30.375644 29084 net.cpp:141] Setting up inception_4e/5x5
I0403 11:21:30.375675 29084 net.cpp:148] Top shape: 24 128 14 14 (602112)
I0403 11:21:30.375694 29084 net.cpp:156] Memory required for data: 1239719424
I0403 11:21:30.375717 29084 layer_factory.hpp:77] Creating layer inception_4e/relu_5x5
I0403 11:21:30.375741 29084 net.cpp:91] Creating Layer inception_4e/relu_5x5
I0403 11:21:30.375761 29084 net.cpp:425] inception_4e/relu_5x5 <- inception_4e/5x5
I0403 11:21:30.375787 29084 net.cpp:386] inception_4e/relu_5x5 -> inception_4e/5x5 (in-place)
I0403 11:21:30.375811 29084 net.cpp:141] Setting up inception_4e/relu_5x5
I0403 11:21:30.375834 29084 net.cpp:148] Top shape: 24 128 14 14 (602112)
I0403 11:21:30.375854 29084 net.cpp:156] Memory required for data: 1242127872
I0403 11:21:30.375871 29084 layer_factory.hpp:77] Creating layer inception_4e/pool
I0403 11:21:30.375919 29084 net.cpp:91] Creating Layer inception_4e/pool
I0403 11:21:30.375946 29084 net.cpp:425] inception_4e/pool <- inception_4d/output_inception_4d/output_0_split_4
I0403 11:21:30.375969 29084 net.cpp:399] inception_4e/pool -> inception_4e/pool
I0403 11:21:30.376036 29084 net.cpp:141] Setting up inception_4e/pool
I0403 11:21:30.376066 29084 net.cpp:148] Top shape: 24 528 14 14 (2483712)
I0403 11:21:30.376085 29084 net.cpp:156] Memory required for data: 1252062720
I0403 11:21:30.376104 29084 layer_factory.hpp:77] Creating layer inception_4e/pool_proj
I0403 11:21:30.376134 29084 net.cpp:91] Creating Layer inception_4e/pool_proj
I0403 11:21:30.376157 29084 net.cpp:425] inception_4e/pool_proj <- inception_4e/pool
I0403 11:21:30.376181 29084 net.cpp:399] inception_4e/pool_proj -> inception_4e/pool_proj
I0403 11:21:30.376904 29084 net.cpp:141] Setting up inception_4e/pool_proj
I0403 11:21:30.376935 29084 net.cpp:148] Top shape: 24 128 14 14 (602112)
I0403 11:21:30.376953 29084 net.cpp:156] Memory required for data: 1254471168
I0403 11:21:30.376976 29084 layer_factory.hpp:77] Creating layer inception_4e/relu_pool_proj
I0403 11:21:30.376999 29084 net.cpp:91] Creating Layer inception_4e/relu_pool_proj
I0403 11:21:30.377022 29084 net.cpp:425] inception_4e/relu_pool_proj <- inception_4e/pool_proj
I0403 11:21:30.377045 29084 net.cpp:386] inception_4e/relu_pool_proj -> inception_4e/pool_proj (in-place)
I0403 11:21:30.377070 29084 net.cpp:141] Setting up inception_4e/relu_pool_proj
I0403 11:21:30.377091 29084 net.cpp:148] Top shape: 24 128 14 14 (602112)
I0403 11:21:30.377110 29084 net.cpp:156] Memory required for data: 1256879616
I0403 11:21:30.377127 29084 layer_factory.hpp:77] Creating layer inception_4e/output
I0403 11:21:30.377153 29084 net.cpp:91] Creating Layer inception_4e/output
I0403 11:21:30.377176 29084 net.cpp:425] inception_4e/output <- inception_4e/1x1
I0403 11:21:30.377197 29084 net.cpp:425] inception_4e/output <- inception_4e/3x3
I0403 11:21:30.377218 29084 net.cpp:425] inception_4e/output <- inception_4e/5x5
I0403 11:21:30.377236 29084 net.cpp:425] inception_4e/output <- inception_4e/pool_proj
I0403 11:21:30.377259 29084 net.cpp:399] inception_4e/output -> inception_4e/output
I0403 11:21:30.377312 29084 net.cpp:141] Setting up inception_4e/output
I0403 11:21:30.377341 29084 net.cpp:148] Top shape: 24 832 14 14 (3913728)
I0403 11:21:30.377360 29084 net.cpp:156] Memory required for data: 1272534528
I0403 11:21:30.377379 29084 layer_factory.hpp:77] Creating layer pool4/3x3_s2
I0403 11:21:30.377403 29084 net.cpp:91] Creating Layer pool4/3x3_s2
I0403 11:21:30.377424 29084 net.cpp:425] pool4/3x3_s2 <- inception_4e/output
I0403 11:21:30.377449 29084 net.cpp:399] pool4/3x3_s2 -> pool4/3x3_s2
I0403 11:21:30.377533 29084 net.cpp:141] Setting up pool4/3x3_s2
I0403 11:21:30.377563 29084 net.cpp:148] Top shape: 24 832 7 7 (978432)
I0403 11:21:30.377581 29084 net.cpp:156] Memory required for data: 1276448256
I0403 11:21:30.377600 29084 layer_factory.hpp:77] Creating layer pool4/3x3_s2_pool4/3x3_s2_0_split
I0403 11:21:30.377627 29084 net.cpp:91] Creating Layer pool4/3x3_s2_pool4/3x3_s2_0_split
I0403 11:21:30.377648 29084 net.cpp:425] pool4/3x3_s2_pool4/3x3_s2_0_split <- pool4/3x3_s2
I0403 11:21:30.377672 29084 net.cpp:399] pool4/3x3_s2_pool4/3x3_s2_0_split -> pool4/3x3_s2_pool4/3x3_s2_0_split_0
I0403 11:21:30.377701 29084 net.cpp:399] pool4/3x3_s2_pool4/3x3_s2_0_split -> pool4/3x3_s2_pool4/3x3_s2_0_split_1
I0403 11:21:30.377729 29084 net.cpp:399] pool4/3x3_s2_pool4/3x3_s2_0_split -> pool4/3x3_s2_pool4/3x3_s2_0_split_2
I0403 11:21:30.377755 29084 net.cpp:399] pool4/3x3_s2_pool4/3x3_s2_0_split -> pool4/3x3_s2_pool4/3x3_s2_0_split_3
I0403 11:21:30.377838 29084 net.cpp:141] Setting up pool4/3x3_s2_pool4/3x3_s2_0_split
I0403 11:21:30.377867 29084 net.cpp:148] Top shape: 24 832 7 7 (978432)
I0403 11:21:30.377887 29084 net.cpp:148] Top shape: 24 832 7 7 (978432)
I0403 11:21:30.377907 29084 net.cpp:148] Top shape: 24 832 7 7 (978432)
I0403 11:21:30.377926 29084 net.cpp:148] Top shape: 24 832 7 7 (978432)
I0403 11:21:30.377943 29084 net.cpp:156] Memory required for data: 1292103168
I0403 11:21:30.377961 29084 layer_factory.hpp:77] Creating layer inception_5a/1x1
I0403 11:21:30.377991 29084 net.cpp:91] Creating Layer inception_5a/1x1
I0403 11:21:30.378015 29084 net.cpp:425] inception_5a/1x1 <- pool4/3x3_s2_pool4/3x3_s2_0_split_0
I0403 11:21:30.378044 29084 net.cpp:399] inception_5a/1x1 -> inception_5a/1x1
I0403 11:21:30.380368 29084 net.cpp:141] Setting up inception_5a/1x1
I0403 11:21:30.380406 29084 net.cpp:148] Top shape: 24 256 7 7 (301056)
I0403 11:21:30.380426 29084 net.cpp:156] Memory required for data: 1293307392
I0403 11:21:30.380450 29084 layer_factory.hpp:77] Creating layer inception_5a/relu_1x1
I0403 11:21:30.380486 29084 net.cpp:91] Creating Layer inception_5a/relu_1x1
I0403 11:21:30.380511 29084 net.cpp:425] inception_5a/relu_1x1 <- inception_5a/1x1
I0403 11:21:30.380533 29084 net.cpp:386] inception_5a/relu_1x1 -> inception_5a/1x1 (in-place)
I0403 11:21:30.380558 29084 net.cpp:141] Setting up inception_5a/relu_1x1
I0403 11:21:30.380579 29084 net.cpp:148] Top shape: 24 256 7 7 (301056)
I0403 11:21:30.380599 29084 net.cpp:156] Memory required for data: 1294511616
I0403 11:21:30.380616 29084 layer_factory.hpp:77] Creating layer inception_5a/3x3_reduce
I0403 11:21:30.380646 29084 net.cpp:91] Creating Layer inception_5a/3x3_reduce
I0403 11:21:30.380669 29084 net.cpp:425] inception_5a/3x3_reduce <- pool4/3x3_s2_pool4/3x3_s2_0_split_1
I0403 11:21:30.380694 29084 net.cpp:399] inception_5a/3x3_reduce -> inception_5a/3x3_reduce
I0403 11:21:30.382498 29084 net.cpp:141] Setting up inception_5a/3x3_reduce
I0403 11:21:30.382532 29084 net.cpp:148] Top shape: 24 160 7 7 (188160)
I0403 11:21:30.382552 29084 net.cpp:156] Memory required for data: 1295264256
I0403 11:21:30.382575 29084 layer_factory.hpp:77] Creating layer inception_5a/relu_3x3_reduce
I0403 11:21:30.382599 29084 net.cpp:91] Creating Layer inception_5a/relu_3x3_reduce
I0403 11:21:30.382622 29084 net.cpp:425] inception_5a/relu_3x3_reduce <- inception_5a/3x3_reduce
I0403 11:21:30.382647 29084 net.cpp:386] inception_5a/relu_3x3_reduce -> inception_5a/3x3_reduce (in-place)
I0403 11:21:30.382673 29084 net.cpp:141] Setting up inception_5a/relu_3x3_reduce
I0403 11:21:30.382694 29084 net.cpp:148] Top shape: 24 160 7 7 (188160)
I0403 11:21:30.382714 29084 net.cpp:156] Memory required for data: 1296016896
I0403 11:21:30.382732 29084 layer_factory.hpp:77] Creating layer inception_5a/3x3
I0403 11:21:30.382761 29084 net.cpp:91] Creating Layer inception_5a/3x3
I0403 11:21:30.382784 29084 net.cpp:425] inception_5a/3x3 <- inception_5a/3x3_reduce
I0403 11:21:30.382810 29084 net.cpp:399] inception_5a/3x3 -> inception_5a/3x3
I0403 11:21:30.387523 29084 net.cpp:141] Setting up inception_5a/3x3
I0403 11:21:30.387572 29084 net.cpp:148] Top shape: 24 320 7 7 (376320)
I0403 11:21:30.387593 29084 net.cpp:156] Memory required for data: 1297522176
I0403 11:21:30.387617 29084 layer_factory.hpp:77] Creating layer inception_5a/relu_3x3
I0403 11:21:30.387642 29084 net.cpp:91] Creating Layer inception_5a/relu_3x3
I0403 11:21:30.387663 29084 net.cpp:425] inception_5a/relu_3x3 <- inception_5a/3x3
I0403 11:21:30.387689 29084 net.cpp:386] inception_5a/relu_3x3 -> inception_5a/3x3 (in-place)
I0403 11:21:30.387717 29084 net.cpp:141] Setting up inception_5a/relu_3x3
I0403 11:21:30.387739 29084 net.cpp:148] Top shape: 24 320 7 7 (376320)
I0403 11:21:30.387758 29084 net.cpp:156] Memory required for data: 1299027456
I0403 11:21:30.387776 29084 layer_factory.hpp:77] Creating layer inception_5a/5x5_reduce
I0403 11:21:30.387806 29084 net.cpp:91] Creating Layer inception_5a/5x5_reduce
I0403 11:21:30.387830 29084 net.cpp:425] inception_5a/5x5_reduce <- pool4/3x3_s2_pool4/3x3_s2_0_split_2
I0403 11:21:30.387855 29084 net.cpp:399] inception_5a/5x5_reduce -> inception_5a/5x5_reduce
I0403 11:21:30.388321 29084 net.cpp:141] Setting up inception_5a/5x5_reduce
I0403 11:21:30.388353 29084 net.cpp:148] Top shape: 24 32 7 7 (37632)
I0403 11:21:30.388373 29084 net.cpp:156] Memory required for data: 1299177984
I0403 11:21:30.388397 29084 layer_factory.hpp:77] Creating layer inception_5a/relu_5x5_reduce
I0403 11:21:30.388422 29084 net.cpp:91] Creating Layer inception_5a/relu_5x5_reduce
I0403 11:21:30.388442 29084 net.cpp:425] inception_5a/relu_5x5_reduce <- inception_5a/5x5_reduce
I0403 11:21:30.388476 29084 net.cpp:386] inception_5a/relu_5x5_reduce -> inception_5a/5x5_reduce (in-place)
I0403 11:21:30.388504 29084 net.cpp:141] Setting up inception_5a/relu_5x5_reduce
I0403 11:21:30.388526 29084 net.cpp:148] Top shape: 24 32 7 7 (37632)
I0403 11:21:30.388545 29084 net.cpp:156] Memory required for data: 1299328512
I0403 11:21:30.388563 29084 layer_factory.hpp:77] Creating layer inception_5a/5x5
I0403 11:21:30.388592 29084 net.cpp:91] Creating Layer inception_5a/5x5
I0403 11:21:30.388615 29084 net.cpp:425] inception_5a/5x5 <- inception_5a/5x5_reduce
I0403 11:21:30.388641 29084 net.cpp:399] inception_5a/5x5 -> inception_5a/5x5
I0403 11:21:30.389600 29084 net.cpp:141] Setting up inception_5a/5x5
I0403 11:21:30.389631 29084 net.cpp:148] Top shape: 24 128 7 7 (150528)
I0403 11:21:30.389649 29084 net.cpp:156] Memory required for data: 1299930624
I0403 11:21:30.389672 29084 layer_factory.hpp:77] Creating layer inception_5a/relu_5x5
I0403 11:21:30.389694 29084 net.cpp:91] Creating Layer inception_5a/relu_5x5
I0403 11:21:30.389716 29084 net.cpp:425] inception_5a/relu_5x5 <- inception_5a/5x5
I0403 11:21:30.389739 29084 net.cpp:386] inception_5a/relu_5x5 -> inception_5a/5x5 (in-place)
I0403 11:21:30.389763 29084 net.cpp:141] Setting up inception_5a/relu_5x5
I0403 11:21:30.389785 29084 net.cpp:148] Top shape: 24 128 7 7 (150528)
I0403 11:21:30.389802 29084 net.cpp:156] Memory required for data: 1300532736
I0403 11:21:30.389821 29084 layer_factory.hpp:77] Creating layer inception_5a/pool
I0403 11:21:30.389847 29084 net.cpp:91] Creating Layer inception_5a/pool
I0403 11:21:30.389871 29084 net.cpp:425] inception_5a/pool <- pool4/3x3_s2_pool4/3x3_s2_0_split_3
I0403 11:21:30.389894 29084 net.cpp:399] inception_5a/pool -> inception_5a/pool
I0403 11:21:30.389966 29084 net.cpp:141] Setting up inception_5a/pool
I0403 11:21:30.389997 29084 net.cpp:148] Top shape: 24 832 7 7 (978432)
I0403 11:21:30.390015 29084 net.cpp:156] Memory required for data: 1304446464
I0403 11:21:30.390034 29084 layer_factory.hpp:77] Creating layer inception_5a/pool_proj
I0403 11:21:30.390064 29084 net.cpp:91] Creating Layer inception_5a/pool_proj
I0403 11:21:30.390086 29084 net.cpp:425] inception_5a/pool_proj <- inception_5a/pool
I0403 11:21:30.390113 29084 net.cpp:399] inception_5a/pool_proj -> inception_5a/pool_proj
I0403 11:21:30.391726 29084 net.cpp:141] Setting up inception_5a/pool_proj
I0403 11:21:30.391759 29084 net.cpp:148] Top shape: 24 128 7 7 (150528)
I0403 11:21:30.391778 29084 net.cpp:156] Memory required for data: 1305048576
I0403 11:21:30.391819 29084 layer_factory.hpp:77] Creating layer inception_5a/relu_pool_proj
I0403 11:21:30.391844 29084 net.cpp:91] Creating Layer inception_5a/relu_pool_proj
I0403 11:21:30.391867 29084 net.cpp:425] inception_5a/relu_pool_proj <- inception_5a/pool_proj
I0403 11:21:30.391893 29084 net.cpp:386] inception_5a/relu_pool_proj -> inception_5a/pool_proj (in-place)
I0403 11:21:30.391921 29084 net.cpp:141] Setting up inception_5a/relu_pool_proj
I0403 11:21:30.391943 29084 net.cpp:148] Top shape: 24 128 7 7 (150528)
I0403 11:21:30.391963 29084 net.cpp:156] Memory required for data: 1305650688
I0403 11:21:30.391981 29084 layer_factory.hpp:77] Creating layer inception_5a/output
I0403 11:21:30.392004 29084 net.cpp:91] Creating Layer inception_5a/output
I0403 11:21:30.392022 29084 net.cpp:425] inception_5a/output <- inception_5a/1x1
I0403 11:21:30.392043 29084 net.cpp:425] inception_5a/output <- inception_5a/3x3
I0403 11:21:30.392063 29084 net.cpp:425] inception_5a/output <- inception_5a/5x5
I0403 11:21:30.392086 29084 net.cpp:425] inception_5a/output <- inception_5a/pool_proj
I0403 11:21:30.392112 29084 net.cpp:399] inception_5a/output -> inception_5a/output
I0403 11:21:30.392160 29084 net.cpp:141] Setting up inception_5a/output
I0403 11:21:30.392189 29084 net.cpp:148] Top shape: 24 832 7 7 (978432)
I0403 11:21:30.392210 29084 net.cpp:156] Memory required for data: 1309564416
I0403 11:21:30.392227 29084 layer_factory.hpp:77] Creating layer inception_5a/output_inception_5a/output_0_split
I0403 11:21:30.392254 29084 net.cpp:91] Creating Layer inception_5a/output_inception_5a/output_0_split
I0403 11:21:30.392277 29084 net.cpp:425] inception_5a/output_inception_5a/output_0_split <- inception_5a/output
I0403 11:21:30.392302 29084 net.cpp:399] inception_5a/output_inception_5a/output_0_split -> inception_5a/output_inception_5a/output_0_split_0
I0403 11:21:30.392326 29084 net.cpp:399] inception_5a/output_inception_5a/output_0_split -> inception_5a/output_inception_5a/output_0_split_1
I0403 11:21:30.392354 29084 net.cpp:399] inception_5a/output_inception_5a/output_0_split -> inception_5a/output_inception_5a/output_0_split_2
I0403 11:21:30.392382 29084 net.cpp:399] inception_5a/output_inception_5a/output_0_split -> inception_5a/output_inception_5a/output_0_split_3
I0403 11:21:30.392484 29084 net.cpp:141] Setting up inception_5a/output_inception_5a/output_0_split
I0403 11:21:30.392514 29084 net.cpp:148] Top shape: 24 832 7 7 (978432)
I0403 11:21:30.392535 29084 net.cpp:148] Top shape: 24 832 7 7 (978432)
I0403 11:21:30.392555 29084 net.cpp:148] Top shape: 24 832 7 7 (978432)
I0403 11:21:30.392575 29084 net.cpp:148] Top shape: 24 832 7 7 (978432)
I0403 11:21:30.392592 29084 net.cpp:156] Memory required for data: 1325219328
I0403 11:21:30.392611 29084 layer_factory.hpp:77] Creating layer inception_5b/1x1
I0403 11:21:30.392642 29084 net.cpp:91] Creating Layer inception_5b/1x1
I0403 11:21:30.392666 29084 net.cpp:425] inception_5b/1x1 <- inception_5a/output_inception_5a/output_0_split_0
I0403 11:21:30.392691 29084 net.cpp:399] inception_5b/1x1 -> inception_5b/1x1
I0403 11:21:30.395833 29084 net.cpp:141] Setting up inception_5b/1x1
I0403 11:21:30.395867 29084 net.cpp:148] Top shape: 24 384 7 7 (451584)
I0403 11:21:30.395889 29084 net.cpp:156] Memory required for data: 1327025664
I0403 11:21:30.395911 29084 layer_factory.hpp:77] Creating layer inception_5b/relu_1x1
I0403 11:21:30.395936 29084 net.cpp:91] Creating Layer inception_5b/relu_1x1
I0403 11:21:30.395957 29084 net.cpp:425] inception_5b/relu_1x1 <- inception_5b/1x1
I0403 11:21:30.395987 29084 net.cpp:386] inception_5b/relu_1x1 -> inception_5b/1x1 (in-place)
I0403 11:21:30.396013 29084 net.cpp:141] Setting up inception_5b/relu_1x1
I0403 11:21:30.396035 29084 net.cpp:148] Top shape: 24 384 7 7 (451584)
I0403 11:21:30.396054 29084 net.cpp:156] Memory required for data: 1328832000
I0403 11:21:30.396072 29084 layer_factory.hpp:77] Creating layer inception_5b/3x3_reduce
I0403 11:21:30.396102 29084 net.cpp:91] Creating Layer inception_5b/3x3_reduce
I0403 11:21:30.396141 29084 net.cpp:425] inception_5b/3x3_reduce <- inception_5a/output_inception_5a/output_0_split_1
I0403 11:21:30.396167 29084 net.cpp:399] inception_5b/3x3_reduce -> inception_5b/3x3_reduce
I0403 11:21:30.398145 29084 net.cpp:141] Setting up inception_5b/3x3_reduce
I0403 11:21:30.398180 29084 net.cpp:148] Top shape: 24 192 7 7 (225792)
I0403 11:21:30.398200 29084 net.cpp:156] Memory required for data: 1329735168
I0403 11:21:30.398226 29084 layer_factory.hpp:77] Creating layer inception_5b/relu_3x3_reduce
I0403 11:21:30.398249 29084 net.cpp:91] Creating Layer inception_5b/relu_3x3_reduce
I0403 11:21:30.398270 29084 net.cpp:425] inception_5b/relu_3x3_reduce <- inception_5b/3x3_reduce
I0403 11:21:30.398296 29084 net.cpp:386] inception_5b/relu_3x3_reduce -> inception_5b/3x3_reduce (in-place)
I0403 11:21:30.398324 29084 net.cpp:141] Setting up inception_5b/relu_3x3_reduce
I0403 11:21:30.398346 29084 net.cpp:148] Top shape: 24 192 7 7 (225792)
I0403 11:21:30.398365 29084 net.cpp:156] Memory required for data: 1330638336
I0403 11:21:30.398386 29084 layer_factory.hpp:77] Creating layer inception_5b/3x3
I0403 11:21:30.398416 29084 net.cpp:91] Creating Layer inception_5b/3x3
I0403 11:21:30.398438 29084 net.cpp:425] inception_5b/3x3 <- inception_5b/3x3_reduce
I0403 11:21:30.398468 29084 net.cpp:399] inception_5b/3x3 -> inception_5b/3x3
I0403 11:21:30.405071 29084 net.cpp:141] Setting up inception_5b/3x3
I0403 11:21:30.405105 29084 net.cpp:148] Top shape: 24 384 7 7 (451584)
I0403 11:21:30.405127 29084 net.cpp:156] Memory required for data: 1332444672
I0403 11:21:30.405149 29084 layer_factory.hpp:77] Creating layer inception_5b/relu_3x3
I0403 11:21:30.405174 29084 net.cpp:91] Creating Layer inception_5b/relu_3x3
I0403 11:21:30.405194 29084 net.cpp:425] inception_5b/relu_3x3 <- inception_5b/3x3
I0403 11:21:30.405220 29084 net.cpp:386] inception_5b/relu_3x3 -> inception_5b/3x3 (in-place)
I0403 11:21:30.405246 29084 net.cpp:141] Setting up inception_5b/relu_3x3
I0403 11:21:30.405267 29084 net.cpp:148] Top shape: 24 384 7 7 (451584)
I0403 11:21:30.405287 29084 net.cpp:156] Memory required for data: 1334251008
I0403 11:21:30.405304 29084 layer_factory.hpp:77] Creating layer inception_5b/5x5_reduce
I0403 11:21:30.405334 29084 net.cpp:91] Creating Layer inception_5b/5x5_reduce
I0403 11:21:30.405357 29084 net.cpp:425] inception_5b/5x5_reduce <- inception_5a/output_inception_5a/output_0_split_2
I0403 11:21:30.405385 29084 net.cpp:399] inception_5b/5x5_reduce -> inception_5b/5x5_reduce
I0403 11:21:30.405959 29084 net.cpp:141] Setting up inception_5b/5x5_reduce
I0403 11:21:30.405992 29084 net.cpp:148] Top shape: 24 48 7 7 (56448)
I0403 11:21:30.406010 29084 net.cpp:156] Memory required for data: 1334476800
I0403 11:21:30.406033 29084 layer_factory.hpp:77] Creating layer inception_5b/relu_5x5_reduce
I0403 11:21:30.406056 29084 net.cpp:91] Creating Layer inception_5b/relu_5x5_reduce
I0403 11:21:30.406078 29084 net.cpp:425] inception_5b/relu_5x5_reduce <- inception_5b/5x5_reduce
I0403 11:21:30.406102 29084 net.cpp:386] inception_5b/relu_5x5_reduce -> inception_5b/5x5_reduce (in-place)
I0403 11:21:30.406132 29084 net.cpp:141] Setting up inception_5b/relu_5x5_reduce
I0403 11:21:30.406154 29084 net.cpp:148] Top shape: 24 48 7 7 (56448)
I0403 11:21:30.406172 29084 net.cpp:156] Memory required for data: 1334702592
I0403 11:21:30.406190 29084 layer_factory.hpp:77] Creating layer inception_5b/5x5
I0403 11:21:30.406218 29084 net.cpp:91] Creating Layer inception_5b/5x5
I0403 11:21:30.406240 29084 net.cpp:425] inception_5b/5x5 <- inception_5b/5x5_reduce
I0403 11:21:30.406270 29084 net.cpp:399] inception_5b/5x5 -> inception_5b/5x5
I0403 11:21:30.407584 29084 net.cpp:141] Setting up inception_5b/5x5
I0403 11:21:30.407619 29084 net.cpp:148] Top shape: 24 128 7 7 (150528)
I0403 11:21:30.407640 29084 net.cpp:156] Memory required for data: 1335304704
I0403 11:21:30.407663 29084 layer_factory.hpp:77] Creating layer inception_5b/relu_5x5
I0403 11:21:30.407690 29084 net.cpp:91] Creating Layer inception_5b/relu_5x5
I0403 11:21:30.407711 29084 net.cpp:425] inception_5b/relu_5x5 <- inception_5b/5x5
I0403 11:21:30.407752 29084 net.cpp:386] inception_5b/relu_5x5 -> inception_5b/5x5 (in-place)
I0403 11:21:30.407779 29084 net.cpp:141] Setting up inception_5b/relu_5x5
I0403 11:21:30.407802 29084 net.cpp:148] Top shape: 24 128 7 7 (150528)
I0403 11:21:30.407820 29084 net.cpp:156] Memory required for data: 1335906816
I0403 11:21:30.407840 29084 layer_factory.hpp:77] Creating layer inception_5b/pool
I0403 11:21:30.407862 29084 net.cpp:91] Creating Layer inception_5b/pool
I0403 11:21:30.407883 29084 net.cpp:425] inception_5b/pool <- inception_5a/output_inception_5a/output_0_split_3
I0403 11:21:30.407909 29084 net.cpp:399] inception_5b/pool -> inception_5b/pool
I0403 11:21:30.407977 29084 net.cpp:141] Setting up inception_5b/pool
I0403 11:21:30.408006 29084 net.cpp:148] Top shape: 24 832 7 7 (978432)
I0403 11:21:30.408025 29084 net.cpp:156] Memory required for data: 1339820544
I0403 11:21:30.408046 29084 layer_factory.hpp:77] Creating layer inception_5b/pool_proj
I0403 11:21:30.408074 29084 net.cpp:91] Creating Layer inception_5b/pool_proj
I0403 11:21:30.408100 29084 net.cpp:425] inception_5b/pool_proj <- inception_5b/pool
I0403 11:21:30.408126 29084 net.cpp:399] inception_5b/pool_proj -> inception_5b/pool_proj
I0403 11:21:30.409749 29084 net.cpp:141] Setting up inception_5b/pool_proj
I0403 11:21:30.409783 29084 net.cpp:148] Top shape: 24 128 7 7 (150528)
I0403 11:21:30.409804 29084 net.cpp:156] Memory required for data: 1340422656
I0403 11:21:30.409828 29084 layer_factory.hpp:77] Creating layer inception_5b/relu_pool_proj
I0403 11:21:30.409853 29084 net.cpp:91] Creating Layer inception_5b/relu_pool_proj
I0403 11:21:30.409874 29084 net.cpp:425] inception_5b/relu_pool_proj <- inception_5b/pool_proj
I0403 11:21:30.409898 29084 net.cpp:386] inception_5b/relu_pool_proj -> inception_5b/pool_proj (in-place)
I0403 11:21:30.409922 29084 net.cpp:141] Setting up inception_5b/relu_pool_proj
I0403 11:21:30.409946 29084 net.cpp:148] Top shape: 24 128 7 7 (150528)
I0403 11:21:30.409965 29084 net.cpp:156] Memory required for data: 1341024768
I0403 11:21:30.409983 29084 layer_factory.hpp:77] Creating layer inception_5b/output
I0403 11:21:30.410008 29084 net.cpp:91] Creating Layer inception_5b/output
I0403 11:21:30.410030 29084 net.cpp:425] inception_5b/output <- inception_5b/1x1
I0403 11:21:30.410051 29084 net.cpp:425] inception_5b/output <- inception_5b/3x3
I0403 11:21:30.410074 29084 net.cpp:425] inception_5b/output <- inception_5b/5x5
I0403 11:21:30.410095 29084 net.cpp:425] inception_5b/output <- inception_5b/pool_proj
I0403 11:21:30.410118 29084 net.cpp:399] inception_5b/output -> inception_5b/output
I0403 11:21:30.410173 29084 net.cpp:141] Setting up inception_5b/output
I0403 11:21:30.410203 29084 net.cpp:148] Top shape: 24 1024 7 7 (1204224)
I0403 11:21:30.410223 29084 net.cpp:156] Memory required for data: 1345841664
I0403 11:21:30.410243 29084 layer_factory.hpp:77] Creating layer pool5/7x7_s1
I0403 11:21:30.410265 29084 net.cpp:91] Creating Layer pool5/7x7_s1
I0403 11:21:30.410286 29084 net.cpp:425] pool5/7x7_s1 <- inception_5b/output
I0403 11:21:30.410310 29084 net.cpp:399] pool5/7x7_s1 -> pool5/7x7_s1
I0403 11:21:30.410358 29084 net.cpp:141] Setting up pool5/7x7_s1
I0403 11:21:30.410389 29084 net.cpp:148] Top shape: 24 1024 1 1 (24576)
I0403 11:21:30.410409 29084 net.cpp:156] Memory required for data: 1345939968
I0403 11:21:30.410429 29084 layer_factory.hpp:77] Creating layer pool5/drop_7x7_s1
I0403 11:21:30.410452 29084 net.cpp:91] Creating Layer pool5/drop_7x7_s1
I0403 11:21:30.410480 29084 net.cpp:425] pool5/drop_7x7_s1 <- pool5/7x7_s1
I0403 11:21:30.410502 29084 net.cpp:386] pool5/drop_7x7_s1 -> pool5/7x7_s1 (in-place)
I0403 11:21:30.410552 29084 net.cpp:141] Setting up pool5/drop_7x7_s1
I0403 11:21:30.410579 29084 net.cpp:148] Top shape: 24 1024 1 1 (24576)
I0403 11:21:30.410598 29084 net.cpp:156] Memory required for data: 1346038272
I0403 11:21:30.410617 29084 layer_factory.hpp:77] Creating layer loss3/classifier_plantvillage
I0403 11:21:30.410646 29084 net.cpp:91] Creating Layer loss3/classifier_plantvillage
I0403 11:21:30.410683 29084 net.cpp:425] loss3/classifier_plantvillage <- pool5/7x7_s1
I0403 11:21:30.410711 29084 net.cpp:399] loss3/classifier_plantvillage -> loss3/classifier_plantvillage
I0403 11:21:30.411128 29084 net.cpp:141] Setting up loss3/classifier_plantvillage
I0403 11:21:30.411159 29084 net.cpp:148] Top shape: 24 38 (912)
I0403 11:21:30.411177 29084 net.cpp:156] Memory required for data: 1346041920
I0403 11:21:30.411201 29084 layer_factory.hpp:77] Creating layer loss1/loss
I0403 11:21:30.411232 29084 net.cpp:91] Creating Layer loss1/loss
I0403 11:21:30.411255 29084 net.cpp:425] loss1/loss <- loss1/classifier_plantvillage
I0403 11:21:30.411276 29084 net.cpp:425] loss1/loss <- label_data_1_split_0
I0403 11:21:30.411300 29084 net.cpp:399] loss1/loss -> loss1/loss
…
I0403 11:21:30.423738 29084 net.cpp:313] The NetState phase (1) differed from the phase (0) specified by a rule in layer data
I0403 11:21:30.428691 29084 net.cpp:49] Initializing net from parameters: 
state {
  phase: TEST
}
layer {
  name: "data"
  type: "Data"
  top: "data"
  top: "label"
  include {
    phase: TEST
  }
  transform_param {
    mirror: false
    crop_size: 224
    mean_file: "/home/mohanty/data/final_dataset/lmdb/segmented-40-60/mean.binaryproto"
  }
  data_param {
    source: "/home/mohanty/data/final_dataset/lmdb/segmented-40-60/test_db"
    batch_size: 24
    backend: LMDB
  }
}
layer {
  name: "conv1/7x7_s2"
  type: "Convolution"
  bottom: "data"
  top: "conv1/7x7_s2"
  param {
    lr_mult: 1
    decay_mult: 1
  }
  param {
    lr_mult: 2
    decay_mult: 0
  }
  convolution_param {
    num_output: 64
    pad: 3
    kernel_size: 7
    stride: 2
    weight_filler {
      type: "xavier"
      std: 0.1
    }
    bias_filler {
      type: "constant"
      value: 0.2
    }
  }
}
layer {
  name: "conv1/relu_7x7"
  type: "ReLU"
  bottom: "conv1/7x7_s2"
  top: "conv1/7x7_s2"
}
layer {
  name: "pool1/3x3_s2"
  type: "Pooling"
  bottom: "conv1/7x7_s2"
  top: "pool1/3x3_s2"
  pooling_param {
    pool: MAX
    kernel_size: 3
    stride: 2
  }
}
layer {
  name: "pool1/norm1"
  type: "LRN"
  bottom: "pool1/3x3_s2"
  top: "pool1/norm1"
  lrn_param {
    local_size: 5
    alpha: 0.0001
    beta: 0.75
  }
}
layer {
  name: "conv2/3x3_reduce"
  type: "Convolution"
  bottom: "pool1/norm1"
  top: "conv2/3x3_reduce"
  param {
    lr_mult: 1
    decay_mult: 1
  }
  param {
    lr_mult: 2
    decay_mult: 0
  }
  convolution_param {
    num_output: 64
    kernel_size: 1
    weight_filler {
      type: "xavier"
      std: 0.1
    }
    bias_filler {
      type: "constant"
      value: 0.2
    }
  }
}
layer {
  name: "conv2/relu_3x3_reduce"
  type: "ReLU"
  bottom: "conv2/3x3_reduce"
  top: "conv2/3x3_reduce"
}
layer {
  name: "conv2/3x3"
  type: "Convolution"
  bottom: "conv2/3x3_reduce"
  top: "conv2/3x3"
  param {
    lr_mult: 1
    decay_mult: 1
  }
  param {
    lr_mult: 2
    decay_mult: 0
  }
  convolution_param {
    num_output: 192
    pad: 1
    kernel_size: 3
    weight_filler {
      type: "xavier"
      std: 0.03
    }
    bias_filler {
      type: "constant"
      value: 0.2
    }
  }
}
layer {
  name: "conv2/relu_3x3"
  type: "ReLU"
  bottom: "conv2/3x3"
  top: "conv2/3x3"
}
layer {
  name: "conv2/norm2"
  type: "LRN"
  bottom: "conv2/3x3"
  top: "conv2/norm2"
  lrn_param {
    local_size: 5
    alpha: 0.0001
    beta: 0.75
  }
}
layer {
  name: "pool2/3x3_s2"
  type: "Pooling"
  bottom: "conv2/norm2"
  top: "pool2/3x3_s2"
  pooling_param {
    pool: MAX
    kernel_size: 3
    stride: 2
  }
}
layer {
  name: "inception_3a/1x1"
  type: "Convolution"
  bottom: "pool2/3x3_s2"
  top: "inception_3a/1x1"
  param {
    lr_mult: 1
    decay_mult: 1
  }
  param {
    lr_mult: 2
    decay_mult: 0
  }
  convolution_param {
    num_output: 64
    kernel_size: 1
    weight_filler {
      type: "xavier"
      std: 0.03
    }
    bias_filler {
      type: "constant"
      value: 0.2
    }
  }
}
layer {
  name: "inception_3a/relu_1x1"
  type: "ReLU"
  bottom: "inception_3a/1x1"
  top: "inception_3a/1x1"
}
layer {
  name: "inception_3a/3x3_reduce"
  type: "Convolution"
  bottom: "pool2/3x3_s2"
  top: "inception_3a/3x3_reduce"
  param {
    lr_mult: 1
    decay_mult: 1
  }
  param {
    lr_mult: 2
    decay_mult: 0
  }
  convolution_param {
    num_output: 96
    kernel_size: 1
    weight_filler {
      type: "xavier"
      std: 0.09
    }
    bias_filler {
      type: "constant"
      value: 0.2
    }
  }
}
layer {
  name: "inception_3a/relu_3x3_reduce"
  type: "ReLU"
  bottom: "inception_3a/3x3_reduce"
  top: "inception_3a/3x3_reduce"
}
layer {
  name: "inception_3a/3x3"
  type: "Convolution"
  bottom: "inception_3a/3x3_reduce"
  top: "inception_3a/3x3"
  param {
    lr_mult: 1
    decay_mult: 1
  }
  param {
    lr_mult: 2
    decay_mult: 0
  }
  convolution_param {
    num_output: 128
    pad: 1
    kernel_size: 3
    weight_filler {
      type: "xavier"
      std: 0.03
    }
    bias_filler {
      type: "constant"
      value: 0.2
    }
  }
}
layer {
  name: "inception_3a/relu_3x3"
  type: "ReLU"
  bottom: "inception_3a/3x3"
  top: "inception_3a/3x3"
}
layer {
  name: "inception_3a/5x5_reduce"
  type: "Convolution"
  bottom: "pool2/3x3_s2"
  top: "inception_3a/5x5_reduce"
  param {
    lr_mult: 1
    decay_mult: 1
  }
  param {
    lr_mult: 2
    decay_mult: 0
  }
  convolution_param {
    num_output: 16
    kernel_size: 1
    weight_filler {
      type: "xavier"
      std: 0.2
    }
    bias_filler {
      type: "constant"
      value: 0.2
    }
  }
}
layer {
  name: "inception_3a/relu_5x5_reduce"
  type: "ReLU"
  bottom: "inception_3a/5x5_reduce"
  top: "inception_3a/5x5_reduce"
}
layer {
  name: "inception_3a/5x5"
  type: "Convolution"
  bottom: "inception_3a/5x5_reduce"
  top: "inception_3a/5x5"
  param {
    lr_mult: 1
    decay_mult: 1
  }
  param {
    lr_mult: 2
    decay_mult: 0
  }
  convolution_param {
    num_output: 32
    pad: 2
    kernel_size: 5
    weight_filler {
      type: "xavier"
      std: 0.03
    }
    bias_filler {
      type: "constant"
      value: 0.2
    }
  }
}
layer {
  name: "inception_3a/relu_5x5"
  type: "ReLU"
  bottom: "inception_3a/5x5"
  top: "inception_3a/5x5"
}
layer {
  name: "inception_3a/pool"
  type: "Pooling"
  bottom: "pool2/3x3_s2"
  top: "inception_3a/pool"
  pooling_param {
    pool: MAX
    kernel_size: 3
    stride: 1
    pad: 1
  }
}
layer {
  name: "inception_3a/pool_proj"
  type: "Convolution"
  bottom: "inception_3a/pool"
  top: "inception_3a/pool_proj"
  param {
    lr_mult: 1
    decay_mult: 1
  }
  param {
    lr_mult: 2
    decay_mult: 0
  }
  convolution_param {
    num_output: 32
    kernel_size: 1
    weight_filler {
      type: "xavier"
      std: 0.1
    }
    bias_filler {
      type: "constant"
      value: 0.2
    }
  }
}
layer {
  name: "inception_3a/relu_pool_proj"
  type: "ReLU"
  bottom: "inception_3a/pool_proj"
  top: "inception_3a/pool_proj"
}
layer {
  name: "inception_3a/output"
  type: "Concat"
  bottom: "inception_3a/1x1"
  bottom: "inception_3a/3x3"
  bottom: "inception_3a/5x5"
  bottom: "inception_3a/pool_proj"
  top: "inception_3a/output"
}
layer {
  name: "inception_3b/1x1"
  type: "Convolution"
  bottom: "inception_3a/output"
  top: "inception_3b/1x1"
  param {
    lr_mult: 1
    decay_mult: 1
  }
  param {
    lr_mult: 2
    decay_mult: 0
  }
  convolution_param {
    num_output: 128
    kernel_size: 1
    weight_filler {
      type: "xavier"
      std: 0.03
    }
    bias_filler {
      type: "constant"
      value: 0.2
    }
  }
}
layer {
  name: "inception_3b/relu_1x1"
  type: "ReLU"
  bottom: "inception_3b/1x1"
  top: "inception_3b/1x1"
}
layer {
  name: "inception_3b/3x3_reduce"
  type: "Convolution"
  bottom: "inception_3a/output"
  top: "inception_3b/3x3_reduce"
  param {
    lr_mult: 1
    decay_mult: 1
  }
  param {
    lr_mult: 2
    decay_mult: 0
  }
  convolution_param {
    num_output: 128
    kernel_size: 1
    weight_filler {
      type: "xavier"
      std: 0.09
    }
    bias_filler {
      type: "constant"
      value: 0.2
    }
  }
}
layer {
  name: "inception_3b/relu_3x3_reduce"
  type: "ReLU"
  bottom: "inception_3b/3x3_reduce"
  top: "inception_3b/3x3_reduce"
}
layer {
  name: "inception_3b/3x3"
  type: "Convolution"
  bottom: "inception_3b/3x3_reduce"
  top: "inception_3b/3x3"
  param {
    lr_mult: 1
    decay_mult: 1
  }
  param {
    lr_mult: 2
    decay_mult: 0
  }
  convolution_param {
    num_output: 192
    pad: 1
    kernel_size: 3
    weight_filler {
      type: "xavier"
      std: 0.03
    }
    bias_filler {
      type: "constant"
      value: 0.2
    }
  }
}
layer {
  name: "inception_3b/relu_3x3"
  type: "ReLU"
  bottom: "inception_3b/3x3"
  top: "inception_3b/3x3"
}
layer {
  name: "inception_3b/5x5_reduce"
  type: "Convolution"
  bottom: "inception_3a/output"
  top: "inception_3b/5x5_reduce"
  param {
    lr_mult: 1
    decay_mult: 1
  }
  param {
    lr_mult: 2
    decay_mult: 0
  }
  convolution_param {
    num_output: 32
    kernel_size: 1
    weight_filler {
      type: "xavier"
      std: 0.2
    }
    bias_filler {
      type: "constant"
      value: 0.2
    }
  }
}
layer {
  name: "inception_3b/relu_5x5_reduce"
  type: "ReLU"
  bottom: "inception_3b/5x5_reduce"
  top: "inception_3b/5x5_reduce"
}
layer {
  name: "inception_3b/5x5"
  type: "Convolution"
  bottom: "inception_3b/5x5_reduce"
  top: "inception_3b/5x5"
  param {
    lr_mult: 1
    decay_mult: 1
  }
  param {
    lr_mult: 2
    decay_mult: 0
  }
  convolution_param {
    num_output: 96
    pad: 2
    kernel_size: 5
    weight_filler {
      type: "xavier"
      std: 0.03
    }
    bias_filler {
      type: "constant"
      value: 0.2
    }
  }
}
layer {
  name: "inception_3b/relu_5x5"
  type: "ReLU"
  bottom: "inception_3b/5x5"
  top: "inception_3b/5x5"
}
layer {
  name: "inception_3b/pool"
  type: "Pooling"
  bottom: "inception_3a/output"
  top: "inception_3b/pool"
  pooling_param {
    pool: MAX
    kernel_size: 3
    stride: 1
    pad: 1
  }
}
layer {
  name: "inception_3b/pool_proj"
  type: "Convolution"
  bottom: "inception_3b/pool"
  top: "inception_3b/pool_proj"
  param {
    lr_mult: 1
    decay_mult: 1
  }
  param {
    lr_mult: 2
    decay_mult: 0
  }
  convolution_param {
    num_output: 64
    kernel_size: 1
    weight_filler {
      type: "xavier"
      std: 0.1
    }
    bias_filler {
      type: "constant"
      value: 0.2
    }
  }
}
layer {
  name: "inception_3b/relu_pool_proj"
  type: "ReLU"
  bottom: "inception_3b/pool_proj"
  top: "inception_3b/pool_proj"
}
layer {
  name: "inception_3b/output"
  type: "Concat"
  bottom: "inception_3b/1x1"
  bottom: "inception_3b/3x3"
  bottom: "inception_3b/5x5"
  bottom: "inception_3b/pool_proj"
  top: "inception_3b/output"
}
layer {
  name: "pool3/3x3_s2"
  type: "Pooling"
  bottom: "inception_3b/output"
  top: "pool3/3x3_s2"
  pooling_param {
    pool: MAX
    kernel_size: 3
    stride: 2
  }
}
layer {
  name: "inception_4a/1x1"
  type: "Convolution"
  bottom: "pool3/3x3_s2"
  top: "inception_4a/1x1"
  param {
    lr_mult: 1
    decay_mult: 1
  }
  param {
    lr_mult: 2
    decay_mult: 0
  }
  convolution_param {
    num_output: 192
    kernel_size: 1
    weight_filler {
      type: "xavier"
      std: 0.03
    }
    bias_filler {
      type: "constant"
      value: 0.2
    }
  }
}
layer {
  name: "inception_4a/relu_1x1"
  type: "ReLU"
  bottom: "inception_4a/1x1"
  top: "inception_4a/1x1"
}
layer {
  name: "inception_4a/3x3_reduce"
  type: "Convolution"
  bottom: "pool3/3x3_s2"
  top: "inception_4a/3x3_reduce"
  param {
    lr_mult: 1
    decay_mult: 1
  }
  param {
    lr_mult: 2
    decay_mult: 0
  }
  convolution_param {
    num_output: 96
    kernel_size: 1
    weight_filler {
      type: "xavier"
      std: 0.09
    }
    bias_filler {
      type: "constant"
      value: 0.2
    }
  }
}
layer {
  name: "inception_4a/relu_3x3_reduce"
  type: "ReLU"
  bottom: "inception_4a/3x3_reduce"
  top: "inception_4a/3x3_reduce"
}
layer {
  name: "inception_4a/3x3"
  type: "Convolution"
  bottom: "inception_4a/3x3_reduce"
  top: "inception_4a/3x3"
  param {
    lr_mult: 1
    decay_mult: 1
  }
  param {
    lr_mult: 2
    decay_mult: 0
  }
  convolution_param {
    num_output: 208
    pad: 1
    kernel_size: 3
    weight_filler {
      type: "xavier"
      std: 0.03
    }
    bias_filler {
      type: "constant"
      value: 0.2
    }
  }
}
layer {
  name: "inception_4a/relu_3x3"
  type: "ReLU"
  bottom: "inception_4a/3x3"
  top: "inception_4a/3x3"
}
layer {
  name: "inception_4a/5x5_reduce"
  type: "Convolution"
  bottom: "pool3/3x3_s2"
  top: "inception_4a/5x5_reduce"
  param {
    lr_mult: 1
    decay_mult: 1
  }
  param {
    lr_mult: 2
    decay_mult: 0
  }
  convolution_param {
    num_output: 16
    kernel_size: 1
    weight_filler {
      type: "xavier"
      std: 0.2
    }
    bias_filler {
      type: "constant"
      value: 0.2
    }
  }
}
layer {
  name: "inception_4a/relu_5x5_reduce"
  type: "ReLU"
  bottom: "inception_4a/5x5_reduce"
  top: "inception_4a/5x5_reduce"
}
layer {
  name: "inception_4a/5x5"
  type: "Convolution"
  bottom: "inception_4a/5x5_reduce"
  top: "inception_4a/5x5"
  param {
    lr_mult: 1
    decay_mult: 1
  }
  param {
    lr_mult: 2
    decay_mult: 0
  }
  convolution_param {
    num_output: 48
    pad: 2
    kernel_size: 5
    weight_filler {
      type: "xavier"
      std: 0.03
    }
    bias_filler {
      type: "constant"
      value: 0.2
    }
  }
}
layer {
  name: "inception_4a/relu_5x5"
  type: "ReLU"
  bottom: "inception_4a/5x5"
  top: "inception_4a/5x5"
}
layer {
  name: "inception_4a/pool"
  type: "Pooling"
  bottom: "pool3/3x3_s2"
  top: "inception_4a/pool"
  pooling_param {
    pool: MAX
    kernel_size: 3
    stride: 1
    pad: 1
  }
}
layer {
  name: "inception_4a/pool_proj"
  type: "Convolution"
  bottom: "inception_4a/pool"
  top: "inception_4a/pool_proj"
  param {
    lr_mult: 1
    decay_mult: 1
  }
  param {
    lr_mult: 2
    decay_mult: 0
  }
  convolution_param {
    num_output: 64
    kernel_size: 1
    weight_filler {
      type: "xavier"
      std: 0.1
    }
    bias_filler {
      type: "constant"
      value: 0.2
    }
  }
}
layer {
  name: "inception_4a/relu_pool_proj"
  type: "ReLU"
  bottom: "inception_4a/pool_proj"
  top: "inception_4a/pool_proj"
}
layer {
  name: "inception_4a/output"
  type: "Concat"
  bottom: "inception_4a/1x1"
  bottom: "inception_4a/3x3"
  bottom: "inception_4a/5x5"
  bottom: "inception_4a/pool_proj"
  top: "inception_4a/output"
}
layer {
  name: "loss1/ave_pool"
  type: "Pooling"
  bottom: "inception_4a/output"
  top: "loss1/ave_pool"
  pooling_param {
    pool: AVE
    kernel_size: 5
    stride: 3
  }
}
layer {
  name: "loss1/conv"
  type: "Convolution"
  bottom: "loss1/ave_pool"
  top: "loss1/conv"
  param {
    lr_mult: 1
    decay_mult: 1
  }
  param {
    lr_mult: 2
    decay_mult: 0
  }
  convolution_param {
    num_output: 128
    kernel_size: 1
    weight_filler {
      type: "xavier"
      std: 0.08
    }
    bias_filler {
      type: "constant"
      value: 0.2
    }
  }
}
layer {
  name: "loss1/relu_conv"
  type: "ReLU"
  bottom: "loss1/conv"
  top: "loss1/conv"
}
layer {
  name: "loss1/fc"
  type: "InnerProduct"
  bottom: "loss1/conv"
  top: "loss1/fc"
  param {
    lr_mult: 1
    decay_mult: 1
  }
  param {
    lr_mult: 2
    decay_mult: 0
  }
  inner_product_param {
    num_output: 1024
    weight_filler {
      type: "xavier"
      std: 0.02
    }
    bias_filler {
      type: "constant"
      value: 0.2
    }
  }
}
layer {
  name: "loss1/relu_fc"
  type: "ReLU"
  bottom: "loss1/fc"
  top: "loss1/fc"
}
layer {
  name: "loss1/drop_fc"
  type: "Dropout"
  bottom: "loss1/fc"
  top: "loss1/fc"
  dropout_param {
    dropout_ratio: 0.7
  }
}
layer {
  name: "loss1/classifier_plantvillage"
  type: "InnerProduct"
  bottom: "loss1/fc"
  top: "loss1/classifier_plantvillage"
  param {
    lr_mult: 1
    decay_mult: 1
  }
  param {
    lr_mult: 2
    decay_mult: 0
  }
  inner_product_param {
    num_output: 38
    weight_filler {
      type: "xavier"
      std: 0.0009765625
    }
    bias_filler {
      type: "constant"
      value: 0
    }
  }
}
layer {
  name: "inception_4b/1x1"
  type: "Convolution"
  bottom: "inception_4a/output"
  top: "inception_4b/1x1"
  param {
    lr_mult: 1
    decay_mult: 1
  }
  param {
    lr_mult: 2
    decay_mult: 0
  }
  convolution_param {
    num_output: 160
    kernel_size: 1
    weight_filler {
      type: "xavier"
      std: 0.03
    }
    bias_filler {
      type: "constant"
      value: 0.2
    }
  }
}
layer {
…
I0403 11:21:30.603442 29084 layer_factory.hpp:77] Creating layer inception_4c/pool
I0403 11:21:30.603471 29084 net.cpp:91] Creating Layer inception_4c/pool
I0403 11:21:30.603493 29084 net.cpp:425] inception_4c/pool <- inception_4b/output_inception_4b/output_0_split_3
I0403 11:21:30.603518 29084 net.cpp:399] inception_4c/pool -> inception_4c/pool
I0403 11:21:30.603591 29084 net.cpp:141] Setting up inception_4c/pool
I0403 11:21:30.603621 29084 net.cpp:148] Top shape: 24 512 14 14 (2408448)
I0403 11:21:30.603639 29084 net.cpp:156] Memory required for data: 1060605120
I0403 11:21:30.603658 29084 layer_factory.hpp:77] Creating layer inception_4c/pool_proj
I0403 11:21:30.603688 29084 net.cpp:91] Creating Layer inception_4c/pool_proj
I0403 11:21:30.603713 29084 net.cpp:425] inception_4c/pool_proj <- inception_4c/pool
I0403 11:21:30.603740 29084 net.cpp:399] inception_4c/pool_proj -> inception_4c/pool_proj
I0403 11:21:30.604264 29084 net.cpp:141] Setting up inception_4c/pool_proj
I0403 11:21:30.604301 29084 net.cpp:148] Top shape: 24 64 14 14 (301056)
I0403 11:21:30.604324 29084 net.cpp:156] Memory required for data: 1061809344
I0403 11:21:30.604349 29084 layer_factory.hpp:77] Creating layer inception_4c/relu_pool_proj
I0403 11:21:30.604375 29084 net.cpp:91] Creating Layer inception_4c/relu_pool_proj
I0403 11:21:30.604398 29084 net.cpp:425] inception_4c/relu_pool_proj <- inception_4c/pool_proj
I0403 11:21:30.604421 29084 net.cpp:386] inception_4c/relu_pool_proj -> inception_4c/pool_proj (in-place)
I0403 11:21:30.604446 29084 net.cpp:141] Setting up inception_4c/relu_pool_proj
I0403 11:21:30.604475 29084 net.cpp:148] Top shape: 24 64 14 14 (301056)
I0403 11:21:30.604496 29084 net.cpp:156] Memory required for data: 1063013568
I0403 11:21:30.604514 29084 layer_factory.hpp:77] Creating layer inception_4c/output
I0403 11:21:30.604542 29084 net.cpp:91] Creating Layer inception_4c/output
I0403 11:21:30.604564 29084 net.cpp:425] inception_4c/output <- inception_4c/1x1
I0403 11:21:30.604585 29084 net.cpp:425] inception_4c/output <- inception_4c/3x3
I0403 11:21:30.604606 29084 net.cpp:425] inception_4c/output <- inception_4c/5x5
I0403 11:21:30.604627 29084 net.cpp:425] inception_4c/output <- inception_4c/pool_proj
I0403 11:21:30.604650 29084 net.cpp:399] inception_4c/output -> inception_4c/output
I0403 11:21:30.604701 29084 net.cpp:141] Setting up inception_4c/output
I0403 11:21:30.604732 29084 net.cpp:148] Top shape: 24 512 14 14 (2408448)
I0403 11:21:30.604753 29084 net.cpp:156] Memory required for data: 1072647360
I0403 11:21:30.604771 29084 layer_factory.hpp:77] Creating layer inception_4c/output_inception_4c/output_0_split
I0403 11:21:30.604796 29084 net.cpp:91] Creating Layer inception_4c/output_inception_4c/output_0_split
I0403 11:21:30.604817 29084 net.cpp:425] inception_4c/output_inception_4c/output_0_split <- inception_4c/output
I0403 11:21:30.604843 29084 net.cpp:399] inception_4c/output_inception_4c/output_0_split -> inception_4c/output_inception_4c/output_0_split_0
I0403 11:21:30.604871 29084 net.cpp:399] inception_4c/output_inception_4c/output_0_split -> inception_4c/output_inception_4c/output_0_split_1
I0403 11:21:30.604897 29084 net.cpp:399] inception_4c/output_inception_4c/output_0_split -> inception_4c/output_inception_4c/output_0_split_2
I0403 11:21:30.604924 29084 net.cpp:399] inception_4c/output_inception_4c/output_0_split -> inception_4c/output_inception_4c/output_0_split_3
I0403 11:21:30.605037 29084 net.cpp:141] Setting up inception_4c/output_inception_4c/output_0_split
I0403 11:21:30.605069 29084 net.cpp:148] Top shape: 24 512 14 14 (2408448)
I0403 11:21:30.605092 29084 net.cpp:148] Top shape: 24 512 14 14 (2408448)
I0403 11:21:30.605113 29084 net.cpp:148] Top shape: 24 512 14 14 (2408448)
I0403 11:21:30.605134 29084 net.cpp:148] Top shape: 24 512 14 14 (2408448)
I0403 11:21:30.605151 29084 net.cpp:156] Memory required for data: 1111182528
I0403 11:21:30.605170 29084 layer_factory.hpp:77] Creating layer inception_4d/1x1
I0403 11:21:30.605198 29084 net.cpp:91] Creating Layer inception_4d/1x1
I0403 11:21:30.605222 29084 net.cpp:425] inception_4d/1x1 <- inception_4c/output_inception_4c/output_0_split_0
I0403 11:21:30.605250 29084 net.cpp:399] inception_4d/1x1 -> inception_4d/1x1
I0403 11:21:30.605938 29084 net.cpp:141] Setting up inception_4d/1x1
I0403 11:21:30.605970 29084 net.cpp:148] Top shape: 24 112 14 14 (526848)
I0403 11:21:30.605991 29084 net.cpp:156] Memory required for data: 1113289920
I0403 11:21:30.606015 29084 layer_factory.hpp:77] Creating layer inception_4d/relu_1x1
I0403 11:21:30.606040 29084 net.cpp:91] Creating Layer inception_4d/relu_1x1
I0403 11:21:30.606060 29084 net.cpp:425] inception_4d/relu_1x1 <- inception_4d/1x1
I0403 11:21:30.606082 29084 net.cpp:386] inception_4d/relu_1x1 -> inception_4d/1x1 (in-place)
I0403 11:21:30.606107 29084 net.cpp:141] Setting up inception_4d/relu_1x1
I0403 11:21:30.606135 29084 net.cpp:148] Top shape: 24 112 14 14 (526848)
I0403 11:21:30.606163 29084 net.cpp:156] Memory required for data: 1115397312
I0403 11:21:30.606190 29084 layer_factory.hpp:77] Creating layer inception_4d/3x3_reduce
I0403 11:21:30.606220 29084 net.cpp:91] Creating Layer inception_4d/3x3_reduce
I0403 11:21:30.606242 29084 net.cpp:425] inception_4d/3x3_reduce <- inception_4c/output_inception_4c/output_0_split_1
I0403 11:21:30.606271 29084 net.cpp:399] inception_4d/3x3_reduce -> inception_4d/3x3_reduce
I0403 11:21:30.607090 29084 net.cpp:141] Setting up inception_4d/3x3_reduce
I0403 11:21:30.607122 29084 net.cpp:148] Top shape: 24 144 14 14 (677376)
I0403 11:21:30.607141 29084 net.cpp:156] Memory required for data: 1118106816
I0403 11:21:30.607166 29084 layer_factory.hpp:77] Creating layer inception_4d/relu_3x3_reduce
I0403 11:21:30.607189 29084 net.cpp:91] Creating Layer inception_4d/relu_3x3_reduce
I0403 11:21:30.607210 29084 net.cpp:425] inception_4d/relu_3x3_reduce <- inception_4d/3x3_reduce
I0403 11:21:30.607236 29084 net.cpp:386] inception_4d/relu_3x3_reduce -> inception_4d/3x3_reduce (in-place)
I0403 11:21:30.607261 29084 net.cpp:141] Setting up inception_4d/relu_3x3_reduce
I0403 11:21:30.607285 29084 net.cpp:148] Top shape: 24 144 14 14 (677376)
I0403 11:21:30.607305 29084 net.cpp:156] Memory required for data: 1120816320
I0403 11:21:30.607323 29084 layer_factory.hpp:77] Creating layer inception_4d/3x3
I0403 11:21:30.607350 29084 net.cpp:91] Creating Layer inception_4d/3x3
I0403 11:21:30.607372 29084 net.cpp:425] inception_4d/3x3 <- inception_4d/3x3_reduce
I0403 11:21:30.607400 29084 net.cpp:399] inception_4d/3x3 -> inception_4d/3x3
I0403 11:21:30.611305 29084 net.cpp:141] Setting up inception_4d/3x3
I0403 11:21:30.611341 29084 net.cpp:148] Top shape: 24 288 14 14 (1354752)
I0403 11:21:30.611361 29084 net.cpp:156] Memory required for data: 1126235328
I0403 11:21:30.611387 29084 layer_factory.hpp:77] Creating layer inception_4d/relu_3x3
I0403 11:21:30.611413 29084 net.cpp:91] Creating Layer inception_4d/relu_3x3
I0403 11:21:30.611436 29084 net.cpp:425] inception_4d/relu_3x3 <- inception_4d/3x3
I0403 11:21:30.611464 29084 net.cpp:386] inception_4d/relu_3x3 -> inception_4d/3x3 (in-place)
I0403 11:21:30.611490 29084 net.cpp:141] Setting up inception_4d/relu_3x3
I0403 11:21:30.611512 29084 net.cpp:148] Top shape: 24 288 14 14 (1354752)
I0403 11:21:30.611531 29084 net.cpp:156] Memory required for data: 1131654336
I0403 11:21:30.611549 29084 layer_factory.hpp:77] Creating layer inception_4d/5x5_reduce
I0403 11:21:30.611596 29084 net.cpp:91] Creating Layer inception_4d/5x5_reduce
I0403 11:21:30.611620 29084 net.cpp:425] inception_4d/5x5_reduce <- inception_4c/output_inception_4c/output_0_split_2
I0403 11:21:30.611649 29084 net.cpp:399] inception_4d/5x5_reduce -> inception_4d/5x5_reduce
I0403 11:21:30.612076 29084 net.cpp:141] Setting up inception_4d/5x5_reduce
I0403 11:21:30.612107 29084 net.cpp:148] Top shape: 24 32 14 14 (150528)
I0403 11:21:30.612126 29084 net.cpp:156] Memory required for data: 1132256448
I0403 11:21:30.612149 29084 layer_factory.hpp:77] Creating layer inception_4d/relu_5x5_reduce
I0403 11:21:30.612174 29084 net.cpp:91] Creating Layer inception_4d/relu_5x5_reduce
I0403 11:21:30.612195 29084 net.cpp:425] inception_4d/relu_5x5_reduce <- inception_4d/5x5_reduce
I0403 11:21:30.612218 29084 net.cpp:386] inception_4d/relu_5x5_reduce -> inception_4d/5x5_reduce (in-place)
I0403 11:21:30.612243 29084 net.cpp:141] Setting up inception_4d/relu_5x5_reduce
I0403 11:21:30.612265 29084 net.cpp:148] Top shape: 24 32 14 14 (150528)
I0403 11:21:30.612284 29084 net.cpp:156] Memory required for data: 1132858560
I0403 11:21:30.612303 29084 layer_factory.hpp:77] Creating layer inception_4d/5x5
I0403 11:21:30.612332 29084 net.cpp:91] Creating Layer inception_4d/5x5
I0403 11:21:30.612354 29084 net.cpp:425] inception_4d/5x5 <- inception_4d/5x5_reduce
I0403 11:21:30.612382 29084 net.cpp:399] inception_4d/5x5 -> inception_4d/5x5
I0403 11:21:30.613049 29084 net.cpp:141] Setting up inception_4d/5x5
I0403 11:21:30.613080 29084 net.cpp:148] Top shape: 24 64 14 14 (301056)
I0403 11:21:30.613101 29084 net.cpp:156] Memory required for data: 1134062784
I0403 11:21:30.613123 29084 layer_factory.hpp:77] Creating layer inception_4d/relu_5x5
I0403 11:21:30.613149 29084 net.cpp:91] Creating Layer inception_4d/relu_5x5
I0403 11:21:30.613171 29084 net.cpp:425] inception_4d/relu_5x5 <- inception_4d/5x5
I0403 11:21:30.613194 29084 net.cpp:386] inception_4d/relu_5x5 -> inception_4d/5x5 (in-place)
I0403 11:21:30.613220 29084 net.cpp:141] Setting up inception_4d/relu_5x5
I0403 11:21:30.613243 29084 net.cpp:148] Top shape: 24 64 14 14 (301056)
I0403 11:21:30.613262 29084 net.cpp:156] Memory required for data: 1135267008
I0403 11:21:30.613281 29084 layer_factory.hpp:77] Creating layer inception_4d/pool
I0403 11:21:30.613306 29084 net.cpp:91] Creating Layer inception_4d/pool
I0403 11:21:30.613327 29084 net.cpp:425] inception_4d/pool <- inception_4c/output_inception_4c/output_0_split_3
I0403 11:21:30.613351 29084 net.cpp:399] inception_4d/pool -> inception_4d/pool
I0403 11:21:30.613421 29084 net.cpp:141] Setting up inception_4d/pool
I0403 11:21:30.613451 29084 net.cpp:148] Top shape: 24 512 14 14 (2408448)
I0403 11:21:30.613476 29084 net.cpp:156] Memory required for data: 1144900800
I0403 11:21:30.613497 29084 layer_factory.hpp:77] Creating layer inception_4d/pool_proj
I0403 11:21:30.613525 29084 net.cpp:91] Creating Layer inception_4d/pool_proj
I0403 11:21:30.613549 29084 net.cpp:425] inception_4d/pool_proj <- inception_4d/pool
I0403 11:21:30.613575 29084 net.cpp:399] inception_4d/pool_proj -> inception_4d/pool_proj
I0403 11:21:30.614091 29084 net.cpp:141] Setting up inception_4d/pool_proj
I0403 11:21:30.614121 29084 net.cpp:148] Top shape: 24 64 14 14 (301056)
I0403 11:21:30.614140 29084 net.cpp:156] Memory required for data: 1146105024
I0403 11:21:30.614163 29084 layer_factory.hpp:77] Creating layer inception_4d/relu_pool_proj
I0403 11:21:30.614187 29084 net.cpp:91] Creating Layer inception_4d/relu_pool_proj
I0403 11:21:30.614208 29084 net.cpp:425] inception_4d/relu_pool_proj <- inception_4d/pool_proj
I0403 11:21:30.614234 29084 net.cpp:386] inception_4d/relu_pool_proj -> inception_4d/pool_proj (in-place)
I0403 11:21:30.614261 29084 net.cpp:141] Setting up inception_4d/relu_pool_proj
I0403 11:21:30.614284 29084 net.cpp:148] Top shape: 24 64 14 14 (301056)
I0403 11:21:30.614302 29084 net.cpp:156] Memory required for data: 1147309248
I0403 11:21:30.614320 29084 layer_factory.hpp:77] Creating layer inception_4d/output
I0403 11:21:30.614359 29084 net.cpp:91] Creating Layer inception_4d/output
I0403 11:21:30.614382 29084 net.cpp:425] inception_4d/output <- inception_4d/1x1
I0403 11:21:30.614403 29084 net.cpp:425] inception_4d/output <- inception_4d/3x3
I0403 11:21:30.614425 29084 net.cpp:425] inception_4d/output <- inception_4d/5x5
I0403 11:21:30.614446 29084 net.cpp:425] inception_4d/output <- inception_4d/pool_proj
I0403 11:21:30.614476 29084 net.cpp:399] inception_4d/output -> inception_4d/output
I0403 11:21:30.614528 29084 net.cpp:141] Setting up inception_4d/output
I0403 11:21:30.614557 29084 net.cpp:148] Top shape: 24 528 14 14 (2483712)
I0403 11:21:30.614578 29084 net.cpp:156] Memory required for data: 1157244096
I0403 11:21:30.614596 29084 layer_factory.hpp:77] Creating layer inception_4d/output_inception_4d/output_0_split
I0403 11:21:30.614624 29084 net.cpp:91] Creating Layer inception_4d/output_inception_4d/output_0_split
I0403 11:21:30.614645 29084 net.cpp:425] inception_4d/output_inception_4d/output_0_split <- inception_4d/output
I0403 11:21:30.614670 29084 net.cpp:399] inception_4d/output_inception_4d/output_0_split -> inception_4d/output_inception_4d/output_0_split_0
I0403 11:21:30.614698 29084 net.cpp:399] inception_4d/output_inception_4d/output_0_split -> inception_4d/output_inception_4d/output_0_split_1
I0403 11:21:30.614725 29084 net.cpp:399] inception_4d/output_inception_4d/output_0_split -> inception_4d/output_inception_4d/output_0_split_2
I0403 11:21:30.614755 29084 net.cpp:399] inception_4d/output_inception_4d/output_0_split -> inception_4d/output_inception_4d/output_0_split_3
I0403 11:21:30.614783 29084 net.cpp:399] inception_4d/output_inception_4d/output_0_split -> inception_4d/output_inception_4d/output_0_split_4
I0403 11:21:30.614887 29084 net.cpp:141] Setting up inception_4d/output_inception_4d/output_0_split
I0403 11:21:30.614917 29084 net.cpp:148] Top shape: 24 528 14 14 (2483712)
I0403 11:21:30.614938 29084 net.cpp:148] Top shape: 24 528 14 14 (2483712)
I0403 11:21:30.614958 29084 net.cpp:148] Top shape: 24 528 14 14 (2483712)
I0403 11:21:30.614977 29084 net.cpp:148] Top shape: 24 528 14 14 (2483712)
I0403 11:21:30.614996 29084 net.cpp:148] Top shape: 24 528 14 14 (2483712)
I0403 11:21:30.615015 29084 net.cpp:156] Memory required for data: 1206918336
I0403 11:21:30.615032 29084 layer_factory.hpp:77] Creating layer loss2/ave_pool
I0403 11:21:30.615056 29084 net.cpp:91] Creating Layer loss2/ave_pool
I0403 11:21:30.615077 29084 net.cpp:425] loss2/ave_pool <- inception_4d/output_inception_4d/output_0_split_0
I0403 11:21:30.615103 29084 net.cpp:399] loss2/ave_pool -> loss2/ave_pool
I0403 11:21:30.615156 29084 net.cpp:141] Setting up loss2/ave_pool
I0403 11:21:30.615185 29084 net.cpp:148] Top shape: 24 528 4 4 (202752)
I0403 11:21:30.615205 29084 net.cpp:156] Memory required for data: 1207729344
I0403 11:21:30.615224 29084 layer_factory.hpp:77] Creating layer loss2/conv
I0403 11:21:30.615257 29084 net.cpp:91] Creating Layer loss2/conv
I0403 11:21:30.615279 29084 net.cpp:425] loss2/conv <- loss2/ave_pool
I0403 11:21:30.615305 29084 net.cpp:399] loss2/conv -> loss2/conv
I0403 11:21:30.616683 29084 net.cpp:141] Setting up loss2/conv
I0403 11:21:30.616719 29084 net.cpp:148] Top shape: 24 128 4 4 (49152)
I0403 11:21:30.616739 29084 net.cpp:156] Memory required for data: 1207925952
I0403 11:21:30.616763 29084 layer_factory.hpp:77] Creating layer loss2/relu_conv
I0403 11:21:30.616787 29084 net.cpp:91] Creating Layer loss2/relu_conv
I0403 11:21:30.616809 29084 net.cpp:425] loss2/relu_conv <- loss2/conv
I0403 11:21:30.616837 29084 net.cpp:386] loss2/relu_conv -> loss2/conv (in-place)
I0403 11:21:30.616863 29084 net.cpp:141] Setting up loss2/relu_conv
I0403 11:21:30.616885 29084 net.cpp:148] Top shape: 24 128 4 4 (49152)
I0403 11:21:30.616904 29084 net.cpp:156] Memory required for data: 1208122560
I0403 11:21:30.616922 29084 layer_factory.hpp:77] Creating layer loss2/fc
I0403 11:21:30.616948 29084 net.cpp:91] Creating Layer loss2/fc
I0403 11:21:30.616971 29084 net.cpp:425] loss2/fc <- loss2/conv
I0403 11:21:30.616994 29084 net.cpp:399] loss2/fc -> loss2/fc
I0403 11:21:30.636482 29084 net.cpp:141] Setting up loss2/fc
I0403 11:21:30.636538 29084 net.cpp:148] Top shape: 24 1024 (24576)
I0403 11:21:30.636559 29084 net.cpp:156] Memory required for data: 1208220864
I0403 11:21:30.636584 29084 layer_factory.hpp:77] Creating layer loss2/relu_fc
I0403 11:21:30.636612 29084 net.cpp:91] Creating Layer loss2/relu_fc
I0403 11:21:30.636636 29084 net.cpp:425] loss2/relu_fc <- loss2/fc
I0403 11:21:30.636668 29084 net.cpp:386] loss2/relu_fc -> loss2/fc (in-place)
I0403 11:21:30.636696 29084 net.cpp:141] Setting up loss2/relu_fc
I0403 11:21:30.636719 29084 net.cpp:148] Top shape: 24 1024 (24576)
I0403 11:21:30.636739 29084 net.cpp:156] Memory required for data: 1208319168
I0403 11:21:30.636759 29084 layer_factory.hpp:77] Creating layer loss2/drop_fc
I0403 11:21:30.636782 29084 net.cpp:91] Creating Layer loss2/drop_fc
I0403 11:21:30.636802 29084 net.cpp:425] loss2/drop_fc <- loss2/fc
I0403 11:21:30.636831 29084 net.cpp:386] loss2/drop_fc -> loss2/fc (in-place)
I0403 11:21:30.636890 29084 net.cpp:141] Setting up loss2/drop_fc
I0403 11:21:30.636920 29084 net.cpp:148] Top shape: 24 1024 (24576)
I0403 11:21:30.636940 29084 net.cpp:156] Memory required for data: 1208417472
I0403 11:21:30.636966 29084 layer_factory.hpp:77] Creating layer loss2/classifier_plantvillage
I0403 11:21:30.636994 29084 net.cpp:91] Creating Layer loss2/classifier_plantvillage
I0403 11:21:30.637015 29084 net.cpp:425] loss2/classifier_plantvillage <- loss2/fc
I0403 11:21:30.637040 29084 net.cpp:399] loss2/classifier_plantvillage -> loss2/classifier_plantvillage
I0403 11:21:30.637481 29084 net.cpp:141] Setting up loss2/classifier_plantvillage
I0403 11:21:30.637522 29084 net.cpp:148] Top shape: 24 38 (912)
I0403 11:21:30.637547 29084 net.cpp:156] Memory required for data: 1208421120
I0403 11:21:30.637578 29084 layer_factory.hpp:77] Creating layer loss2/classifier_plantvillage_loss2/classifier_plantvillage_0_split
I0403 11:21:30.637603 29084 net.cpp:91] Creating Layer loss2/classifier_plantvillage_loss2/classifier_plantvillage_0_split
I0403 11:21:30.637625 29084 net.cpp:425] loss2/classifier_plantvillage_loss2/classifier_plantvillage_0_split <- loss2/classifier_plantvillage
I0403 11:21:30.637651 29084 net.cpp:399] loss2/classifier_plantvillage_loss2/classifier_plantvillage_0_split -> loss2/classifier_plantvillage_loss2/classifier_plantvillage_0_split_0
I0403 11:21:30.637679 29084 net.cpp:399] loss2/classifier_plantvillage_loss2/classifier_plantvillage_0_split -> loss2/classifier_plantvillage_loss2/classifier_plantvillage_0_split_1
I0403 11:21:30.637707 29084 net.cpp:399] loss2/classifier_plantvillage_loss2/classifier_plantvillage_0_split -> loss2/classifier_plantvillage_loss2/classifier_plantvillage_0_split_2
I0403 11:21:30.637789 29084 net.cpp:141] Setting up loss2/classifier_plantvillage_loss2/classifier_plantvillage_0_split
I0403 11:21:30.637822 29084 net.cpp:148] Top shape: 24 38 (912)
I0403 11:21:30.637845 29084 net.cpp:148] Top shape: 24 38 (912)
I0403 11:21:30.637868 29084 net.cpp:148] Top shape: 24 38 (912)
I0403 11:21:30.637887 29084 net.cpp:156] Memory required for data: 1208432064
I0403 11:21:30.637907 29084 layer_factory.hpp:77] Creating layer inception_4e/1x1
I0403 11:21:30.637936 29084 net.cpp:91] Creating Layer inception_4e/1x1
I0403 11:21:30.637969 29084 net.cpp:425] inception_4e/1x1 <- inception_4d/output_inception_4d/output_0_split_1
I0403 11:21:30.638003 29084 net.cpp:399] inception_4e/1x1 -> inception_4e/1x1
I0403 11:21:30.639251 29084 net.cpp:141] Setting up inception_4e/1x1
I0403 11:21:30.639295 29084 net.cpp:148] Top shape: 24 256 14 14 (1204224)
I0403 11:21:30.639315 29084 net.cpp:156] Memory required for data: 1213248960
I0403 11:21:30.639338 29084 layer_factory.hpp:77] Creating layer inception_4e/relu_1x1
I0403 11:21:30.639364 29084 net.cpp:91] Creating Layer inception_4e/relu_1x1
I0403 11:21:30.639385 29084 net.cpp:425] inception_4e/relu_1x1 <- inception_4e/1x1
I0403 11:21:30.639410 29084 net.cpp:386] inception_4e/relu_1x1 -> inception_4e/1x1 (in-place)
I0403 11:21:30.639466 29084 net.cpp:141] Setting up inception_4e/relu_1x1
I0403 11:21:30.639492 29084 net.cpp:148] Top shape: 24 256 14 14 (1204224)
I0403 11:21:30.639510 29084 net.cpp:156] Memory required for data: 1218065856
I0403 11:21:30.639528 29084 layer_factory.hpp:77] Creating layer inception_4e/3x3_reduce
I0403 11:21:30.639566 29084 net.cpp:91] Creating Layer inception_4e/3x3_reduce
I0403 11:21:30.639591 29084 net.cpp:425] inception_4e/3x3_reduce <- inception_4d/output_inception_4d/output_0_split_2
I0403 11:21:30.639619 29084 net.cpp:399] inception_4e/3x3_reduce -> inception_4e/3x3_reduce
I0403 11:21:30.641144 29084 net.cpp:141] Setting up inception_4e/3x3_reduce
I0403 11:21:30.641185 29084 net.cpp:148] Top shape: 24 160 14 14 (752640)
I0403 11:21:30.641206 29084 net.cpp:156] Memory required for data: 1221076416
I0403 11:21:30.641230 29084 layer_factory.hpp:77] Creating layer inception_4e/relu_3x3_reduce
I0403 11:21:30.641255 29084 net.cpp:91] Creating Layer inception_4e/relu_3x3_reduce
I0403 11:21:30.641279 29084 net.cpp:425] inception_4e/relu_3x3_reduce <- inception_4e/3x3_reduce
I0403 11:21:30.641302 29084 net.cpp:386] inception_4e/relu_3x3_reduce -> inception_4e/3x3_reduce (in-place)
I0403 11:21:30.641327 29084 net.cpp:141] Setting up inception_4e/relu_3x3_reduce
I0403 11:21:30.641350 29084 net.cpp:148] Top shape: 24 160 14 14 (752640)
I0403 11:21:30.641371 29084 net.cpp:156] Memory required for data: 1224086976
I0403 11:21:30.641399 29084 layer_factory.hpp:77] Creating layer inception_4e/3x3
I0403 11:21:30.641430 29084 net.cpp:91] Creating Layer inception_4e/3x3
I0403 11:21:30.641489 29084 net.cpp:425] inception_4e/3x3 <- inception_4e/3x3_reduce
I0403 11:21:30.641531 29084 net.cpp:399] inception_4e/3x3 -> inception_4e/3x3
I0403 11:21:30.646297 29084 net.cpp:141] Setting up inception_4e/3x3
I0403 11:21:30.646332 29084 net.cpp:148] Top shape: 24 320 14 14 (1505280)
I0403 11:21:30.646353 29084 net.cpp:156] Memory required for data: 1230108096
I0403 11:21:30.646375 29084 layer_factory.hpp:77] Creating layer inception_4e/relu_3x3
I0403 11:21:30.646399 29084 net.cpp:91] Creating Layer inception_4e/relu_3x3
I0403 11:21:30.646420 29084 net.cpp:425] inception_4e/relu_3x3 <- inception_4e/3x3
I0403 11:21:30.646446 29084 net.cpp:386] inception_4e/relu_3x3 -> inception_4e/3x3 (in-place)
I0403 11:21:30.646478 29084 net.cpp:141] Setting up inception_4e/relu_3x3
I0403 11:21:30.646502 29084 net.cpp:148] Top shape: 24 320 14 14 (1505280)
I0403 11:21:30.646520 29084 net.cpp:156] Memory required for data: 1236129216
I0403 11:21:30.646538 29084 layer_factory.hpp:77] Creating layer inception_4e/5x5_reduce
I0403 11:21:30.646565 29084 net.cpp:91] Creating Layer inception_4e/5x5_reduce
I0403 11:21:30.646587 29084 net.cpp:425] inception_4e/5x5_reduce <- inception_4d/output_inception_4d/output_0_split_3
I0403 11:21:30.646616 29084 net.cpp:399] inception_4e/5x5_reduce -> inception_4e/5x5_reduce
I0403 11:21:30.647627 29084 net.cpp:141] Setting up inception_4e/5x5_reduce
I0403 11:21:30.647662 29084 net.cpp:148] Top shape: 24 32 14 14 (150528)
I0403 11:21:30.647683 29084 net.cpp:156] Memory required for data: 1236731328
I0403 11:21:30.647706 29084 layer_factory.hpp:77] Creating layer inception_4e/relu_5x5_reduce
I0403 11:21:30.647733 29084 net.cpp:91] Creating Layer inception_4e/relu_5x5_reduce
I0403 11:21:30.647756 29084 net.cpp:425] inception_4e/relu_5x5_reduce <- inception_4e/5x5_reduce
I0403 11:21:30.647779 29084 net.cpp:386] inception_4e/relu_5x5_reduce -> inception_4e/5x5_reduce (in-place)
I0403 11:21:30.647805 29084 net.cpp:141] Setting up inception_4e/relu_5x5_reduce
I0403 11:21:30.647826 29084 net.cpp:148] Top shape: 24 32 14 14 (150528)
I0403 11:21:30.647845 29084 net.cpp:156] Memory required for data: 1237333440
I0403 11:21:30.647862 29084 layer_factory.hpp:77] Creating layer inception_4e/5x5
I0403 11:21:30.647914 29084 net.cpp:91] Creating Layer inception_4e/5x5
I0403 11:21:30.647940 29084 net.cpp:425] inception_4e/5x5 <- inception_4e/5x5_reduce
I0403 11:21:30.647966 29084 net.cpp:399] inception_4e/5x5 -> inception_4e/5x5
I0403 11:21:30.648938 29084 net.cpp:141] Setting up inception_4e/5x5
I0403 11:21:30.648970 29084 net.cpp:148] Top shape: 24 128 14 14 (602112)
I0403 11:21:30.648989 29084 net.cpp:156] Memory required for data: 1239741888
I0403 11:21:30.649013 29084 layer_factory.hpp:77] Creating layer inception_4e/relu_5x5
I0403 11:21:30.649039 29084 net.cpp:91] Creating Layer inception_4e/relu_5x5
I0403 11:21:30.649060 29084 net.cpp:425] inception_4e/relu_5x5 <- inception_4e/5x5
I0403 11:21:30.649083 29084 net.cpp:386] inception_4e/relu_5x5 -> inception_4e/5x5 (in-place)
I0403 11:21:30.649111 29084 net.cpp:141] Setting up inception_4e/relu_5x5
I0403 11:21:30.649140 29084 net.cpp:148] Top shape: 24 128 14 14 (602112)
I0403 11:21:30.649168 29084 net.cpp:156] Memory required for data: 1242150336
I0403 11:21:30.649197 29084 layer_factory.hpp:77] Creating layer inception_4e/pool
I0403 11:21:30.649226 29084 net.cpp:91] Creating Layer inception_4e/pool
I0403 11:21:30.649248 29084 net.cpp:425] inception_4e/pool <- inception_4d/output_inception_4d/output_0_split_4
I0403 11:21:30.649272 29084 net.cpp:399] inception_4e/pool -> inception_4e/pool
I0403 11:21:30.649341 29084 net.cpp:141] Setting up inception_4e/pool
I0403 11:21:30.649370 29084 net.cpp:148] Top shape: 24 528 14 14 (2483712)
I0403 11:21:30.649389 29084 net.cpp:156] Memory required for data: 1252085184
I0403 11:21:30.649408 29084 layer_factory.hpp:77] Creating layer inception_4e/pool_proj
I0403 11:21:30.649436 29084 net.cpp:91] Creating Layer inception_4e/pool_proj
I0403 11:21:30.649462 29084 net.cpp:425] inception_4e/pool_proj <- inception_4e/pool
I0403 11:21:30.649493 29084 net.cpp:399] inception_4e/pool_proj -> inception_4e/pool_proj
I0403 11:21:30.650204 29084 net.cpp:141] Setting up inception_4e/pool_proj
I0403 11:21:30.650236 29084 net.cpp:148] Top shape: 24 128 14 14 (602112)
I0403 11:21:30.650255 29084 net.cpp:156] Memory required for data: 1254493632
I0403 11:21:30.650279 29084 layer_factory.hpp:77] Creating layer inception_4e/relu_pool_proj
I0403 11:21:30.650303 29084 net.cpp:91] Creating Layer inception_4e/relu_pool_proj
I0403 11:21:30.650324 29084 net.cpp:425] inception_4e/relu_pool_proj <- inception_4e/pool_proj
I0403 11:21:30.650351 29084 net.cpp:386] inception_4e/relu_pool_proj -> inception_4e/pool_proj (in-place)
I0403 11:21:30.650377 29084 net.cpp:141] Setting up inception_4e/relu_pool_proj
I0403 11:21:30.650401 29084 net.cpp:148] Top shape: 24 128 14 14 (602112)
I0403 11:21:30.650419 29084 net.cpp:156] Memory required for data: 1256902080
I0403 11:21:30.650437 29084 layer_factory.hpp:77] Creating layer inception_4e/output
I0403 11:21:30.650475 29084 net.cpp:91] Creating Layer inception_4e/output
I0403 11:21:30.650497 29084 net.cpp:425] inception_4e/output <- inception_4e/1x1
I0403 11:21:30.650519 29084 net.cpp:425] inception_4e/output <- inception_4e/3x3
I0403 11:21:30.650540 29084 net.cpp:425] inception_4e/output <- inception_4e/5x5
I0403 11:21:30.650562 29084 net.cpp:425] inception_4e/output <- inception_4e/pool_proj
I0403 11:21:30.650588 29084 net.cpp:399] inception_4e/output -> inception_4e/output
I0403 11:21:30.650638 29084 net.cpp:141] Setting up inception_4e/output
I0403 11:21:30.650665 29084 net.cpp:148] Top shape: 24 832 14 14 (3913728)
I0403 11:21:30.650684 29084 net.cpp:156] Memory required for data: 1272556992
I0403 11:21:30.650704 29084 layer_factory.hpp:77] Creating layer pool4/3x3_s2
I0403 11:21:30.650730 29084 net.cpp:91] Creating Layer pool4/3x3_s2
I0403 11:21:30.650753 29084 net.cpp:425] pool4/3x3_s2 <- inception_4e/output
I0403 11:21:30.650776 29084 net.cpp:399] pool4/3x3_s2 -> pool4/3x3_s2
I0403 11:21:30.650840 29084 net.cpp:141] Setting up pool4/3x3_s2
I0403 11:21:30.650867 29084 net.cpp:148] Top shape: 24 832 7 7 (978432)
I0403 11:21:30.650887 29084 net.cpp:156] Memory required for data: 1276470720
I0403 11:21:30.650907 29084 layer_factory.hpp:77] Creating layer pool4/3x3_s2_pool4/3x3_s2_0_split
I0403 11:21:30.650930 29084 net.cpp:91] Creating Layer pool4/3x3_s2_pool4/3x3_s2_0_split
I0403 11:21:30.650951 29084 net.cpp:425] pool4/3x3_s2_pool4/3x3_s2_0_split <- pool4/3x3_s2
I0403 11:21:30.650993 29084 net.cpp:399] pool4/3x3_s2_pool4/3x3_s2_0_split -> pool4/3x3_s2_pool4/3x3_s2_0_split_0
I0403 11:21:30.651021 29084 net.cpp:399] pool4/3x3_s2_pool4/3x3_s2_0_split -> pool4/3x3_s2_pool4/3x3_s2_0_split_1
I0403 11:21:30.651049 29084 net.cpp:399] pool4/3x3_s2_pool4/3x3_s2_0_split -> pool4/3x3_s2_pool4/3x3_s2_0_split_2
I0403 11:21:30.651078 29084 net.cpp:399] pool4/3x3_s2_pool4/3x3_s2_0_split -> pool4/3x3_s2_pool4/3x3_s2_0_split_3
I0403 11:21:30.651170 29084 net.cpp:141] Setting up pool4/3x3_s2_pool4/3x3_s2_0_split
I0403 11:21:30.651201 29084 net.cpp:148] Top shape: 24 832 7 7 (978432)
I0403 11:21:30.651226 29084 net.cpp:148] Top shape: 24 832 7 7 (978432)
I0403 11:21:30.651245 29084 net.cpp:148] Top shape: 24 832 7 7 (978432)
I0403 11:21:30.651264 29084 net.cpp:148] Top shape: 24 832 7 7 (978432)
I0403 11:21:30.651283 29084 net.cpp:156] Memory required for data: 1292125632
I0403 11:21:30.651301 29084 layer_factory.hpp:77] Creating layer inception_5a/1x1
I0403 11:21:30.651329 29084 net.cpp:91] Creating Layer inception_5a/1x1
I0403 11:21:30.651350 29084 net.cpp:425] inception_5a/1x1 <- pool4/3x3_s2_pool4/3x3_s2_0_split_0
I0403 11:21:30.651379 29084 net.cpp:399] inception_5a/1x1 -> inception_5a/1x1
I0403 11:21:30.653698 29084 net.cpp:141] Setting up inception_5a/1x1
I0403 11:21:30.653734 29084 net.cpp:148] Top shape: 24 256 7 7 (301056)
I0403 11:21:30.653755 29084 net.cpp:156] Memory required for data: 1293329856
I0403 11:21:30.653779 29084 layer_factory.hpp:77] Creating layer inception_5a/relu_1x1
I0403 11:21:30.653802 29084 net.cpp:91] Creating Layer inception_5a/relu_1x1
I0403 11:21:30.653825 29084 net.cpp:425] inception_5a/relu_1x1 <- inception_5a/1x1
I0403 11:21:30.653847 29084 net.cpp:386] inception_5a/relu_1x1 -> inception_5a/1x1 (in-place)
I0403 11:21:30.653872 29084 net.cpp:141] Setting up inception_5a/relu_1x1
I0403 11:21:30.653893 29084 net.cpp:148] Top shape: 24 256 7 7 (301056)
I0403 11:21:30.653913 29084 net.cpp:156] Memory required for data: 1294534080
I0403 11:21:30.653930 29084 layer_factory.hpp:77] Creating layer inception_5a/3x3_reduce
I0403 11:21:30.653960 29084 net.cpp:91] Creating Layer inception_5a/3x3_reduce
I0403 11:21:30.653985 29084 net.cpp:425] inception_5a/3x3_reduce <- pool4/3x3_s2_pool4/3x3_s2_0_split_1
I0403 11:21:30.654012 29084 net.cpp:399] inception_5a/3x3_reduce -> inception_5a/3x3_reduce
I0403 11:21:30.655802 29084 net.cpp:141] Setting up inception_5a/3x3_reduce
I0403 11:21:30.655838 29084 net.cpp:148] Top shape: 24 160 7 7 (188160)
I0403 11:21:30.655858 29084 net.cpp:156] Memory required for data: 1295286720
I0403 11:21:30.655881 29084 layer_factory.hpp:77] Creating layer inception_5a/relu_3x3_reduce
I0403 11:21:30.655908 29084 net.cpp:91] Creating Layer inception_5a/relu_3x3_reduce
I0403 11:21:30.655933 29084 net.cpp:425] inception_5a/relu_3x3_reduce <- inception_5a/3x3_reduce
I0403 11:21:30.655957 29084 net.cpp:386] inception_5a/relu_3x3_reduce -> inception_5a/3x3_reduce (in-place)
I0403 11:21:30.655982 29084 net.cpp:141] Setting up inception_5a/relu_3x3_reduce
I0403 11:21:30.656004 29084 net.cpp:148] Top shape: 24 160 7 7 (188160)
I0403 11:21:30.656021 29084 net.cpp:156] Memory required for data: 1296039360
I0403 11:21:30.656041 29084 layer_factory.hpp:77] Creating layer inception_5a/3x3
I0403 11:21:30.656071 29084 net.cpp:91] Creating Layer inception_5a/3x3
I0403 11:21:30.656095 29084 net.cpp:425] inception_5a/3x3 <- inception_5a/3x3_reduce
I0403 11:21:30.656121 29084 net.cpp:399] inception_5a/3x3 -> inception_5a/3x3
I0403 11:21:30.660761 29084 net.cpp:141] Setting up inception_5a/3x3
I0403 11:21:30.660799 29084 net.cpp:148] Top shape: 24 320 7 7 (376320)
I0403 11:21:30.660820 29084 net.cpp:156] Memory required for data: 1297544640
I0403 11:21:30.660845 29084 layer_factory.hpp:77] Creating layer inception_5a/relu_3x3
I0403 11:21:30.660871 29084 net.cpp:91] Creating Layer inception_5a/relu_3x3
I0403 11:21:30.660894 29084 net.cpp:425] inception_5a/relu_3x3 <- inception_5a/3x3
I0403 11:21:30.660917 29084 net.cpp:386] inception_5a/relu_3x3 -> inception_5a/3x3 (in-place)
I0403 11:21:30.660964 29084 net.cpp:141] Setting up inception_5a/relu_3x3
I0403 11:21:30.660989 29084 net.cpp:148] Top shape: 24 320 7 7 (376320)
I0403 11:21:30.661007 29084 net.cpp:156] Memory required for data: 1299049920
I0403 11:21:30.661026 29084 layer_factory.hpp:77] Creating layer inception_5a/5x5_reduce
I0403 11:21:30.661056 29084 net.cpp:91] Creating Layer inception_5a/5x5_reduce
I0403 11:21:30.661079 29084 net.cpp:425] inception_5a/5x5_reduce <- pool4/3x3_s2_pool4/3x3_s2_0_split_2
I0403 11:21:30.661109 29084 net.cpp:399] inception_5a/5x5_reduce -> inception_5a/5x5_reduce
I0403 11:21:30.661574 29084 net.cpp:141] Setting up inception_5a/5x5_reduce
I0403 11:21:30.661607 29084 net.cpp:148] Top shape: 24 32 7 7 (37632)
I0403 11:21:30.661628 29084 net.cpp:156] Memory required for data: 1299200448
I0403 11:21:30.661649 29084 layer_factory.hpp:77] Creating layer inception_5a/relu_5x5_reduce
I0403 11:21:30.661674 29084 net.cpp:91] Creating Layer inception_5a/relu_5x5_reduce
I0403 11:21:30.661695 29084 net.cpp:425] inception_5a/relu_5x5_reduce <- inception_5a/5x5_reduce
I0403 11:21:30.661720 29084 net.cpp:386] inception_5a/relu_5x5_reduce -> inception_5a/5x5_reduce (in-place)
I0403 11:21:30.661743 29084 net.cpp:141] Setting up inception_5a/relu_5x5_reduce
I0403 11:21:30.661766 29084 net.cpp:148] Top shape: 24 32 7 7 (37632)
I0403 11:21:30.661784 29084 net.cpp:156] Memory required for data: 1299350976
I0403 11:21:30.661803 29084 layer_factory.hpp:77] Creating layer inception_5a/5x5
I0403 11:21:30.661831 29084 net.cpp:91] Creating Layer inception_5a/5x5
I0403 11:21:30.661855 29084 net.cpp:425] inception_5a/5x5 <- inception_5a/5x5_reduce
I0403 11:21:30.661882 29084 net.cpp:399] inception_5a/5x5 -> inception_5a/5x5
I0403 11:21:30.662863 29084 net.cpp:141] Setting up inception_5a/5x5
I0403 11:21:30.662895 29084 net.cpp:148] Top shape: 24 128 7 7 (150528)
I0403 11:21:30.662915 29084 net.cpp:156] Memory required for data: 1299953088
I0403 11:21:30.662937 29084 layer_factory.hpp:77] Creating layer inception_5a/relu_5x5
I0403 11:21:30.662962 29084 net.cpp:91] Creating Layer inception_5a/relu_5x5
I0403 11:21:30.662984 29084 net.cpp:425] inception_5a/relu_5x5 <- inception_5a/5x5
I0403 11:21:30.663012 29084 net.cpp:386] inception_5a/relu_5x5 -> inception_5a/5x5 (in-place)
I0403 11:21:30.663039 29084 net.cpp:141] Setting up inception_5a/relu_5x5
I0403 11:21:30.663061 29084 net.cpp:148] Top shape: 24 128 7 7 (150528)
I0403 11:21:30.663079 29084 net.cpp:156] Memory required for data: 1300555200
I0403 11:21:30.663097 29084 layer_factory.hpp:77] Creating layer inception_5a/pool
I0403 11:21:30.663120 29084 net.cpp:91] Creating Layer inception_5a/pool
I0403 11:21:30.663142 29084 net.cpp:425] inception_5a/pool <- pool4/3x3_s2_pool4/3x3_s2_0_split_3
I0403 11:21:30.663166 29084 net.cpp:399] inception_5a/pool -> inception_5a/pool
I0403 11:21:30.663233 29084 net.cpp:141] Setting up inception_5a/pool
I0403 11:21:30.663261 29084 net.cpp:148] Top shape: 24 832 7 7 (978432)
I0403 11:21:30.663280 29084 net.cpp:156] Memory required for data: 1304468928
I0403 11:21:30.663298 29084 layer_factory.hpp:77] Creating layer inception_5a/pool_proj
I0403 11:21:30.663328 29084 net.cpp:91] Creating Layer inception_5a/pool_proj
I0403 11:21:30.663352 29084 net.cpp:425] inception_5a/pool_proj <- inception_5a/pool
I0403 11:21:30.663380 29084 net.cpp:399] inception_5a/pool_proj -> inception_5a/pool_proj
I0403 11:21:30.664978 29084 net.cpp:141] Setting up inception_5a/pool_proj
I0403 11:21:30.665014 29084 net.cpp:148] Top shape: 24 128 7 7 (150528)
I0403 11:21:30.665035 29084 net.cpp:156] Memory required for data: 1305071040
I0403 11:21:30.665057 29084 layer_factory.hpp:77] Creating layer inception_5a/relu_pool_proj
I0403 11:21:30.665081 29084 net.cpp:91] Creating Layer inception_5a/relu_pool_proj
I0403 11:21:30.665103 29084 net.cpp:425] inception_5a/relu_pool_proj <- inception_5a/pool_proj
I0403 11:21:30.665130 29084 net.cpp:386] inception_5a/relu_pool_proj -> inception_5a/pool_proj (in-place)
I0403 11:21:30.665158 29084 net.cpp:141] Setting up inception_5a/relu_pool_proj
I0403 11:21:30.665197 29084 net.cpp:148] Top shape: 24 128 7 7 (150528)
I0403 11:21:30.665220 29084 net.cpp:156] Memory required for data: 1305673152
I0403 11:21:30.665238 29084 layer_factory.hpp:77] Creating layer inception_5a/output
I0403 11:21:30.665262 29084 net.cpp:91] Creating Layer inception_5a/output
I0403 11:21:30.665283 29084 net.cpp:425] inception_5a/output <- inception_5a/1x1
I0403 11:21:30.665304 29084 net.cpp:425] inception_5a/output <- inception_5a/3x3
I0403 11:21:30.665323 29084 net.cpp:425] inception_5a/output <- inception_5a/5x5
I0403 11:21:30.665345 29084 net.cpp:425] inception_5a/output <- inception_5a/pool_proj
I0403 11:21:30.665367 29084 net.cpp:399] inception_5a/output -> inception_5a/output
I0403 11:21:30.665418 29084 net.cpp:141] Setting up inception_5a/output
I0403 11:21:30.665447 29084 net.cpp:148] Top shape: 24 832 7 7 (978432)
I0403 11:21:30.665472 29084 net.cpp:156] Memory required for data: 1309586880
I0403 11:21:30.665493 29084 layer_factory.hpp:77] Creating layer inception_5a/output_inception_5a/output_0_split
I0403 11:21:30.665516 29084 net.cpp:91] Creating Layer inception_5a/output_inception_5a/output_0_split
I0403 11:21:30.665536 29084 net.cpp:425] inception_5a/output_inception_5a/output_0_split <- inception_5a/output
I0403 11:21:30.665563 29084 net.cpp:399] inception_5a/output_inception_5a/output_0_split -> inception_5a/output_inception_5a/output_0_split_0
I0403 11:21:30.665591 29084 net.cpp:399] inception_5a/output_inception_5a/output_0_split -> inception_5a/output_inception_5a/output_0_split_1
I0403 11:21:30.665618 29084 net.cpp:399] inception_5a/output_inception_5a/output_0_split -> inception_5a/output_inception_5a/output_0_split_2
I0403 11:21:30.665644 29084 net.cpp:399] inception_5a/output_inception_5a/output_0_split -> inception_5a/output_inception_5a/output_0_split_3
I0403 11:21:30.665729 29084 net.cpp:141] Setting up inception_5a/output_inception_5a/output_0_split
I0403 11:21:30.665760 29084 net.cpp:148] Top shape: 24 832 7 7 (978432)
I0403 11:21:30.665781 29084 net.cpp:148] Top shape: 24 832 7 7 (978432)
I0403 11:21:30.665802 29084 net.cpp:148] Top shape: 24 832 7 7 (978432)
I0403 11:21:30.665822 29084 net.cpp:148] Top shape: 24 832 7 7 (978432)
I0403 11:21:30.665840 29084 net.cpp:156] Memory required for data: 1325241792
I0403 11:21:30.665858 29084 layer_factory.hpp:77] Creating layer inception_5b/1x1
I0403 11:21:30.665889 29084 net.cpp:91] Creating Layer inception_5b/1x1
I0403 11:21:30.665921 29084 net.cpp:425] inception_5b/1x1 <- inception_5a/output_inception_5a/output_0_split_0
I0403 11:21:30.665956 29084 net.cpp:399] inception_5b/1x1 -> inception_5b/1x1
I0403 11:21:30.669092 29084 net.cpp:141] Setting up inception_5b/1x1
I0403 11:21:30.669128 29084 net.cpp:148] Top shape: 24 384 7 7 (451584)
I0403 11:21:30.669148 29084 net.cpp:156] Memory required for data: 1327048128
I0403 11:21:30.669173 29084 layer_factory.hpp:77] Creating layer inception_5b/relu_1x1
I0403 11:21:30.669196 29084 net.cpp:91] Creating Layer inception_5b/relu_1x1
I0403 11:21:30.669220 29084 net.cpp:425] inception_5b/relu_1x1 <- inception_5b/1x1
I0403 11:21:30.669245 29084 net.cpp:386] inception_5b/relu_1x1 -> inception_5b/1x1 (in-place)
I0403 11:21:30.669273 29084 net.cpp:141] Setting up inception_5b/relu_1x1
I0403 11:21:30.669296 29084 net.cpp:148] Top shape: 24 384 7 7 (451584)
I0403 11:21:30.669315 29084 net.cpp:156] Memory required for data: 1328854464
I0403 11:21:30.669333 29084 layer_factory.hpp:77] Creating layer inception_5b/3x3_reduce
I0403 11:21:30.669363 29084 net.cpp:91] Creating Layer inception_5b/3x3_reduce
I0403 11:21:30.669387 29084 net.cpp:425] inception_5b/3x3_reduce <- inception_5a/output_inception_5a/output_0_split_1
I0403 11:21:30.669414 29084 net.cpp:399] inception_5b/3x3_reduce -> inception_5b/3x3_reduce
I0403 11:21:30.671373 29084 net.cpp:141] Setting up inception_5b/3x3_reduce
I0403 11:21:30.671408 29084 net.cpp:148] Top shape: 24 192 7 7 (225792)
I0403 11:21:30.671429 29084 net.cpp:156] Memory required for data: 1329757632
I0403 11:21:30.671452 29084 layer_factory.hpp:77] Creating layer inception_5b/relu_3x3_reduce
I0403 11:21:30.671499 29084 net.cpp:91] Creating Layer inception_5b/relu_3x3_reduce
I0403 11:21:30.671522 29084 net.cpp:425] inception_5b/relu_3x3_reduce <- inception_5b/3x3_reduce
I0403 11:21:30.671550 29084 net.cpp:386] inception_5b/relu_3x3_reduce -> inception_5b/3x3_reduce (in-place)
I0403 11:21:30.671577 29084 net.cpp:141] Setting up inception_5b/relu_3x3_reduce
I0403 11:21:30.671605 29084 net.cpp:148] Top shape: 24 192 7 7 (225792)
I0403 11:21:30.671633 29084 net.cpp:156] Memory required for data: 1330660800
I0403 11:21:30.671658 29084 layer_factory.hpp:77] Creating layer inception_5b/3x3
I0403 11:21:30.671689 29084 net.cpp:91] Creating Layer inception_5b/3x3
I0403 11:21:30.671713 29084 net.cpp:425] inception_5b/3x3 <- inception_5b/3x3_reduce
I0403 11:21:30.671738 29084 net.cpp:399] inception_5b/3x3 -> inception_5b/3x3
I0403 11:21:30.678288 29084 net.cpp:141] Setting up inception_5b/3x3
I0403 11:21:30.678324 29084 net.cpp:148] Top shape: 24 384 7 7 (451584)
I0403 11:21:30.678344 29084 net.cpp:156] Memory required for data: 1332467136
I0403 11:21:30.678369 29084 layer_factory.hpp:77] Creating layer inception_5b/relu_3x3
I0403 11:21:30.678395 29084 net.cpp:91] Creating Layer inception_5b/relu_3x3
I0403 11:21:30.678416 29084 net.cpp:425] inception_5b/relu_3x3 <- inception_5b/3x3
I0403 11:21:30.678439 29084 net.cpp:386] inception_5b/relu_3x3 -> inception_5b/3x3 (in-place)
I0403 11:21:30.678469 29084 net.cpp:141] Setting up inception_5b/relu_3x3
I0403 11:21:30.678493 29084 net.cpp:148] Top shape: 24 384 7 7 (451584)
I0403 11:21:30.678514 29084 net.cpp:156] Memory required for data: 1334273472
I0403 11:21:30.678532 29084 layer_factory.hpp:77] Creating layer inception_5b/5x5_reduce
I0403 11:21:30.678561 29084 net.cpp:91] Creating Layer inception_5b/5x5_reduce
I0403 11:21:30.678585 29084 net.cpp:425] inception_5b/5x5_reduce <- inception_5a/output_inception_5a/output_0_split_2
I0403 11:21:30.678617 29084 net.cpp:399] inception_5b/5x5_reduce -> inception_5b/5x5_reduce
I0403 11:21:30.679790 29084 net.cpp:141] Setting up inception_5b/5x5_reduce
I0403 11:21:30.679826 29084 net.cpp:148] Top shape: 24 48 7 7 (56448)
I0403 11:21:30.679847 29084 net.cpp:156] Memory required for data: 1334499264
I0403 11:21:30.679870 29084 layer_factory.hpp:77] Creating layer inception_5b/relu_5x5_reduce
I0403 11:21:30.679895 29084 net.cpp:91] Creating Layer inception_5b/relu_5x5_reduce
I0403 11:21:30.679918 29084 net.cpp:425] inception_5b/relu_5x5_reduce <- inception_5b/5x5_reduce
I0403 11:21:30.679940 29084 net.cpp:386] inception_5b/relu_5x5_reduce -> inception_5b/5x5_reduce (in-place)
I0403 11:21:30.679965 29084 net.cpp:141] Setting up inception_5b/relu_5x5_reduce
I0403 11:21:30.679989 29084 net.cpp:148] Top shape: 24 48 7 7 (56448)
I0403 11:21:30.680007 29084 net.cpp:156] Memory required for data: 1334725056
I0403 11:21:30.680027 29084 layer_factory.hpp:77] Creating layer inception_5b/5x5
I0403 11:21:30.680055 29084 net.cpp:91] Creating Layer inception_5b/5x5
I0403 11:21:30.680078 29084 net.cpp:425] inception_5b/5x5 <- inception_5b/5x5_reduce
I0403 11:21:30.680107 29084 net.cpp:399] inception_5b/5x5 -> inception_5b/5x5
I0403 11:21:30.681422 29084 net.cpp:141] Setting up inception_5b/5x5
I0403 11:21:30.681454 29084 net.cpp:148] Top shape: 24 128 7 7 (150528)
I0403 11:21:30.681479 29084 net.cpp:156] Memory required for data: 1335327168
I0403 11:21:30.681504 29084 layer_factory.hpp:77] Creating layer inception_5b/relu_5x5
I0403 11:21:30.681529 29084 net.cpp:91] Creating Layer inception_5b/relu_5x5
I0403 11:21:30.681551 29084 net.cpp:425] inception_5b/relu_5x5 <- inception_5b/5x5
I0403 11:21:30.681577 29084 net.cpp:386] inception_5b/relu_5x5 -> inception_5b/5x5 (in-place)
I0403 11:21:30.681602 29084 net.cpp:141] Setting up inception_5b/relu_5x5
I0403 11:21:30.681625 29084 net.cpp:148] Top shape: 24 128 7 7 (150528)
I0403 11:21:30.681644 29084 net.cpp:156] Memory required for data: 1335929280
I0403 11:21:30.681663 29084 layer_factory.hpp:77] Creating layer inception_5b/pool
I0403 11:21:30.681705 29084 net.cpp:91] Creating Layer inception_5b/pool
I0403 11:21:30.681731 29084 net.cpp:425] inception_5b/pool <- inception_5a/output_inception_5a/output_0_split_3
I0403 11:21:30.681756 29084 net.cpp:399] inception_5b/pool -> inception_5b/pool
I0403 11:21:30.681823 29084 net.cpp:141] Setting up inception_5b/pool
I0403 11:21:30.681854 29084 net.cpp:148] Top shape: 24 832 7 7 (978432)
I0403 11:21:30.681875 29084 net.cpp:156] Memory required for data: 1339843008
I0403 11:21:30.681895 29084 layer_factory.hpp:77] Creating layer inception_5b/pool_proj
I0403 11:21:30.681921 29084 net.cpp:91] Creating Layer inception_5b/pool_proj
I0403 11:21:30.681943 29084 net.cpp:425] inception_5b/pool_proj <- inception_5b/pool
I0403 11:21:30.681972 29084 net.cpp:399] inception_5b/pool_proj -> inception_5b/pool_proj
I0403 11:21:30.683670 29084 net.cpp:141] Setting up inception_5b/pool_proj
I0403 11:21:30.683706 29084 net.cpp:148] Top shape: 24 128 7 7 (150528)
I0403 11:21:30.683727 29084 net.cpp:156] Memory required for data: 1340445120
I0403 11:21:30.683751 29084 layer_factory.hpp:77] Creating layer inception_5b/relu_pool_proj
I0403 11:21:30.683779 29084 net.cpp:91] Creating Layer inception_5b/relu_pool_proj
I0403 11:21:30.683802 29084 net.cpp:425] inception_5b/relu_pool_proj <- inception_5b/pool_proj
I0403 11:21:30.683826 29084 net.cpp:386] inception_5b/relu_pool_proj -> inception_5b/pool_proj (in-place)
I0403 11:21:30.683852 29084 net.cpp:141] Setting up inception_5b/relu_pool_proj
I0403 11:21:30.683876 29084 net.cpp:148] Top shape: 24 128 7 7 (150528)
I0403 11:21:30.683894 29084 net.cpp:156] Memory required for data: 1341047232
I0403 11:21:30.683913 29084 layer_factory.hpp:77] Creating layer inception_5b/output
I0403 11:21:30.683939 29084 net.cpp:91] Creating Layer inception_5b/output
I0403 11:21:30.683960 29084 net.cpp:425] inception_5b/output <- inception_5b/1x1
I0403 11:21:30.683982 29084 net.cpp:425] inception_5b/output <- inception_5b/3x3
I0403 11:21:30.684005 29084 net.cpp:425] inception_5b/output <- inception_5b/5x5
I0403 11:21:30.684027 29084 net.cpp:425] inception_5b/output <- inception_5b/pool_proj
I0403 11:21:30.684051 29084 net.cpp:399] inception_5b/output -> inception_5b/output
I0403 11:21:30.684100 29084 net.cpp:141] Setting up inception_5b/output
I0403 11:21:30.684131 29084 net.cpp:148] Top shape: 24 1024 7 7 (1204224)
I0403 11:21:30.684151 29084 net.cpp:156] Memory required for data: 1345864128
I0403 11:21:30.684170 29084 layer_factory.hpp:77] Creating layer pool5/7x7_s1
I0403 11:21:30.684195 29084 net.cpp:91] Creating Layer pool5/7x7_s1
I0403 11:21:30.684219 29084 net.cpp:425] pool5/7x7_s1 <- inception_5b/output
I0403 11:21:30.684245 29084 net.cpp:399] pool5/7x7_s1 -> pool5/7x7_s1
I0403 11:21:30.684293 29084 net.cpp:141] Setting up pool5/7x7_s1
I0403 11:21:30.684321 29084 net.cpp:148] Top shape: 24 1024 1 1 (24576)
I0403 11:21:30.684340 29084 net.cpp:156] Memory required for data: 1345962432
I0403 11:21:30.684360 29084 layer_factory.hpp:77] Creating layer pool5/drop_7x7_s1
I0403 11:21:30.684387 29084 net.cpp:91] Creating Layer pool5/drop_7x7_s1
I0403 11:21:30.684409 29084 net.cpp:425] pool5/drop_7x7_s1 <- pool5/7x7_s1
I0403 11:21:30.684432 29084 net.cpp:386] pool5/drop_7x7_s1 -> pool5/7x7_s1 (in-place)
I0403 11:21:30.684485 29084 net.cpp:141] Setting up pool5/drop_7x7_s1
I0403 11:21:30.684514 29084 net.cpp:148] Top shape: 24 1024 1 1 (24576)
I0403 11:21:30.684533 29084 net.cpp:156] Memory required for data: 1346060736
I0403 11:21:30.684552 29084 layer_factory.hpp:77] Creating layer loss3/classifier_plantvillage
I0403 11:21:30.684578 29084 net.cpp:91] Creating Layer loss3/classifier_plantvillage
I0403 11:21:30.684600 29084 net.cpp:425] loss3/classifier_plantvillage <- pool5/7x7_s1
I0403 11:21:30.684628 29084 net.cpp:399] loss3/classifier_plantvillage -> loss3/classifier_plantvillage
I0403 11:21:30.685036 29084 net.cpp:141] Setting up loss3/classifier_plantvillage
I0403 11:21:30.685067 29084 net.cpp:148] Top shape: 24 38 (912)
I0403 11:21:30.685086 29084 net.cpp:156] Memory required for data: 1346064384
I0403 11:21:30.685128 29084 layer_factory.hpp:77] Creating layer loss3/classifier_plantvillage_loss3/classifier_plantvillage_0_split
I0403 11:21:30.685156 29084 net.cpp:91] Creating Layer loss3/classifier_plantvillage_loss3/classifier_plantvillage_0_split
I0403 11:21:30.685178 29084 net.cpp:425] loss3/classifier_plantvillage_loss3/classifier_plantvillage_0_split <- loss3/classifier_plantvillage
I0403 11:21:30.685201 29084 net.cpp:399] loss3/classifier_plantvillage_loss3/classifier_plantvillage_0_split -> loss3/classifier_plantvillage_loss3/classifier_plantvillage_0_split_0
I0403 11:21:30.685230 29084 net.cpp:399] loss3/classifier_plantvillage_loss3/classifier_plantvillage_0_split -> loss3/classifier_plantvillage_loss3/classifier_plantvillage_0_split_1
I0403 11:21:30.685258 29084 net.cpp:399] loss3/classifier_plantvillage_loss3/classifier_plantvillage_0_split -> loss3/classifier_plantvillage_loss3/classifier_plantvillage_0_split_2
I0403 11:21:30.685338 29084 net.cpp:141] Setting up loss3/classifier_plantvillage_loss3/classifier_plantvillage_0_split
I0403 11:21:30.685367 29084 net.cpp:148] Top shape: 24 38 (912)
I0403 11:21:30.685389 29084 net.cpp:148] Top shape: 24 38 (912)
I0403 11:21:30.685408 29084 net.cpp:148] Top shape: 24 38 (912)
I0403 11:21:30.685426 29084 net.cpp:156] Memory required for data: 1346075328
I0403 11:21:30.685446 29084 layer_factory.hpp:77] Creating layer loss1/loss
I0403 11:21:30.685477 29084 net.cpp:91] Creating Layer loss1/loss
I0403 11:21:30.685503 29084 net.cpp:425] loss1/loss <- loss1/classifier_plantvillage_loss1/classifier_plantvillage_0_split_0
I0403 11:21:30.685524 29084 net.cpp:425] loss1/loss <- label_data_1_split_0
…
