…
I0403 16:55:27.807677 20003 net.cpp:313] The NetState phase (1) differed from the phase (0) specified by a rule in layer data
I0403 16:55:27.809123 20003 net.cpp:49] Initializing net from parameters: 
state {
  phase: TEST
}
layer {
  name: "data"
  type: "Data"
  top: "data"
  top: "label"
  include {
    phase: TEST
  }
  transform_param {
    mirror: false
    crop_size: 224
    mean_file: "/home/mohanty/data/final_dataset/lmdb/color-20-80/mean.binaryproto"
  }
  data_param {
    source: "/home/mohanty/data/final_dataset/lmdb/color-20-80/test_db"
    batch_size: 24
    backend: LMDB
  }
}
layer {
  name: "conv1/7x7_s2"
  type: "Convolution"
  bottom: "data"
  top: "conv1/7x7_s2"
  param {
    lr_mult: 1
    decay_mult: 1
  }
  param {
    lr_mult: 2
    decay_mult: 0
  }
  convolution_param {
    num_output: 64
    pad: 3
    kernel_size: 7
    stride: 2
    weight_filler {
      type: "xavier"
      std: 0.1
    }
    bias_filler {
      type: "constant"
      value: 0.2
    }
  }
}
layer {
  name: "conv1/relu_7x7"
  type: "ReLU"
  bottom: "conv1/7x7_s2"
  top: "conv1/7x7_s2"
}
layer {
  name: "pool1/3x3_s2"
  type: "Pooling"
  bottom: "conv1/7x7_s2"
  top: "pool1/3x3_s2"
  pooling_param {
    pool: MAX
    kernel_size: 3
    stride: 2
  }
}
layer {
  name: "pool1/norm1"
  type: "LRN"
  bottom: "pool1/3x3_s2"
  top: "pool1/norm1"
  lrn_param {
    local_size: 5
    alpha: 0.0001
    beta: 0.75
  }
}
layer {
  name: "conv2/3x3_reduce"
  type: "Convolution"
  bottom: "pool1/norm1"
  top: "conv2/3x3_reduce"
  param {
    lr_mult: 1
    decay_mult: 1
  }
  param {
    lr_mult: 2
    decay_mult: 0
  }
  convolution_param {
    num_output: 64
    kernel_size: 1
    weight_filler {
      type: "xavier"
      std: 0.1
    }
    bias_filler {
      type: "constant"
      value: 0.2
    }
  }
}
layer {
  name: "conv2/relu_3x3_reduce"
  type: "ReLU"
  bottom: "conv2/3x3_reduce"
  top: "conv2/3x3_reduce"
}
layer {
  name: "conv2/3x3"
  type: "Convolution"
  bottom: "conv2/3x3_reduce"
  top: "conv2/3x3"
  param {
    lr_mult: 1
    decay_mult: 1
  }
  param {
    lr_mult: 2
    decay_mult: 0
  }
  convolution_param {
    num_output: 192
    pad: 1
    kernel_size: 3
    weight_filler {
      type: "xavier"
      std: 0.03
    }
    bias_filler {
      type: "constant"
      value: 0.2
    }
  }
}
layer {
  name: "conv2/relu_3x3"
  type: "ReLU"
  bottom: "conv2/3x3"
  top: "conv2/3x3"
}
layer {
  name: "conv2/norm2"
  type: "LRN"
  bottom: "conv2/3x3"
  top: "conv2/norm2"
  lrn_param {
    local_size: 5
    alpha: 0.0001
    beta: 0.75
  }
}
layer {
  name: "pool2/3x3_s2"
  type: "Pooling"
  bottom: "conv2/norm2"
  top: "pool2/3x3_s2"
  pooling_param {
    pool: MAX
    kernel_size: 3
    stride: 2
  }
}
layer {
  name: "inception_3a/1x1"
  type: "Convolution"
  bottom: "pool2/3x3_s2"
  top: "inception_3a/1x1"
  param {
    lr_mult: 1
    decay_mult: 1
  }
  param {
    lr_mult: 2
    decay_mult: 0
  }
  convolution_param {
    num_output: 64
    kernel_size: 1
    weight_filler {
      type: "xavier"
      std: 0.03
    }
    bias_filler {
      type: "constant"
      value: 0.2
    }
  }
}
layer {
  name: "inception_3a/relu_1x1"
  type: "ReLU"
  bottom: "inception_3a/1x1"
  top: "inception_3a/1x1"
}
layer {
  name: "inception_3a/3x3_reduce"
  type: "Convolution"
  bottom: "pool2/3x3_s2"
  top: "inception_3a/3x3_reduce"
  param {
    lr_mult: 1
    decay_mult: 1
  }
  param {
    lr_mult: 2
    decay_mult: 0
  }
  convolution_param {
    num_output: 96
    kernel_size: 1
    weight_filler {
      type: "xavier"
      std: 0.09
    }
    bias_filler {
      type: "constant"
      value: 0.2
    }
  }
}
layer {
  name: "inception_3a/relu_3x3_reduce"
  type: "ReLU"
  bottom: "inception_3a/3x3_reduce"
  top: "inception_3a/3x3_reduce"
}
layer {
  name: "inception_3a/3x3"
  type: "Convolution"
  bottom: "inception_3a/3x3_reduce"
  top: "inception_3a/3x3"
  param {
    lr_mult: 1
    decay_mult: 1
  }
  param {
    lr_mult: 2
    decay_mult: 0
  }
  convolution_param {
    num_output: 128
    pad: 1
    kernel_size: 3
    weight_filler {
      type: "xavier"
      std: 0.03
    }
    bias_filler {
      type: "constant"
      value: 0.2
    }
  }
}
layer {
  name: "inception_3a/relu_3x3"
  type: "ReLU"
  bottom: "inception_3a/3x3"
  top: "inception_3a/3x3"
}
layer {
  name: "inception_3a/5x5_reduce"
  type: "Convolution"
  bottom: "pool2/3x3_s2"
  top: "inception_3a/5x5_reduce"
  param {
    lr_mult: 1
    decay_mult: 1
  }
  param {
    lr_mult: 2
    decay_mult: 0
  }
  convolution_param {
    num_output: 16
    kernel_size: 1
    weight_filler {
      type: "xavier"
      std: 0.2
    }
    bias_filler {
      type: "constant"
      value: 0.2
    }
  }
}
layer {
  name: "inception_3a/relu_5x5_reduce"
  type: "ReLU"
  bottom: "inception_3a/5x5_reduce"
  top: "inception_3a/5x5_reduce"
}
layer {
  name: "inception_3a/5x5"
  type: "Convolution"
  bottom: "inception_3a/5x5_reduce"
  top: "inception_3a/5x5"
  param {
    lr_mult: 1
    decay_mult: 1
  }
  param {
    lr_mult: 2
    decay_mult: 0
  }
  convolution_param {
    num_output: 32
    pad: 2
    kernel_size: 5
    weight_filler {
      type: "xavier"
      std: 0.03
    }
    bias_filler {
      type: "constant"
      value: 0.2
    }
  }
}
layer {
  name: "inception_3a/relu_5x5"
  type: "ReLU"
  bottom: "inception_3a/5x5"
  top: "inception_3a/5x5"
}
layer {
  name: "inception_3a/pool"
  type: "Pooling"
  bottom: "pool2/3x3_s2"
  top: "inception_3a/pool"
  pooling_param {
    pool: MAX
    kernel_size: 3
    stride: 1
    pad: 1
  }
}
layer {
  name: "inception_3a/pool_proj"
  type: "Convolution"
  bottom: "inception_3a/pool"
  top: "inception_3a/pool_proj"
  param {
    lr_mult: 1
    decay_mult: 1
  }
  param {
    lr_mult: 2
    decay_mult: 0
  }
  convolution_param {
    num_output: 32
    kernel_size: 1
    weight_filler {
      type: "xavier"
      std: 0.1
    }
    bias_filler {
      type: "constant"
      value: 0.2
    }
  }
}
layer {
  name: "inception_3a/relu_pool_proj"
  type: "ReLU"
  bottom: "inception_3a/pool_proj"
  top: "inception_3a/pool_proj"
}
layer {
  name: "inception_3a/output"
  type: "Concat"
  bottom: "inception_3a/1x1"
  bottom: "inception_3a/3x3"
  bottom: "inception_3a/5x5"
  bottom: "inception_3a/pool_proj"
  top: "inception_3a/output"
}
layer {
  name: "inception_3b/1x1"
  type: "Convolution"
  bottom: "inception_3a/output"
  top: "inception_3b/1x1"
  param {
    lr_mult: 1
    decay_mult: 1
  }
  param {
    lr_mult: 2
    decay_mult: 0
  }
  convolution_param {
    num_output: 128
    kernel_size: 1
    weight_filler {
      type: "xavier"
      std: 0.03
    }
    bias_filler {
      type: "constant"
      value: 0.2
    }
  }
}
layer {
  name: "inception_3b/relu_1x1"
  type: "ReLU"
  bottom: "inception_3b/1x1"
  top: "inception_3b/1x1"
}
layer {
  name: "inception_3b/3x3_reduce"
  type: "Convolution"
  bottom: "inception_3a/output"
  top: "inception_3b/3x3_reduce"
  param {
    lr_mult: 1
    decay_mult: 1
  }
  param {
    lr_mult: 2
    decay_mult: 0
  }
  convolution_param {
    num_output: 128
    kernel_size: 1
    weight_filler {
      type: "xavier"
      std: 0.09
    }
    bias_filler {
      type: "constant"
      value: 0.2
    }
  }
}
layer {
  name: "inception_3b/relu_3x3_reduce"
  type: "ReLU"
  bottom: "inception_3b/3x3_reduce"
  top: "inception_3b/3x3_reduce"
}
layer {
  name: "inception_3b/3x3"
  type: "Convolution"
  bottom: "inception_3b/3x3_reduce"
  top: "inception_3b/3x3"
  param {
    lr_mult: 1
    decay_mult: 1
  }
  param {
    lr_mult: 2
    decay_mult: 0
  }
  convolution_param {
    num_output: 192
    pad: 1
    kernel_size: 3
    weight_filler {
      type: "xavier"
      std: 0.03
    }
    bias_filler {
      type: "constant"
      value: 0.2
    }
  }
}
layer {
  name: "inception_3b/relu_3x3"
  type: "ReLU"
  bottom: "inception_3b/3x3"
  top: "inception_3b/3x3"
}
layer {
  name: "inception_3b/5x5_reduce"
  type: "Convolution"
  bottom: "inception_3a/output"
  top: "inception_3b/5x5_reduce"
  param {
    lr_mult: 1
    decay_mult: 1
  }
  param {
    lr_mult: 2
    decay_mult: 0
  }
  convolution_param {
    num_output: 32
    kernel_size: 1
    weight_filler {
      type: "xavier"
      std: 0.2
    }
    bias_filler {
      type: "constant"
      value: 0.2
    }
  }
}
layer {
  name: "inception_3b/relu_5x5_reduce"
  type: "ReLU"
  bottom: "inception_3b/5x5_reduce"
  top: "inception_3b/5x5_reduce"
}
layer {
  name: "inception_3b/5x5"
  type: "Convolution"
  bottom: "inception_3b/5x5_reduce"
  top: "inception_3b/5x5"
  param {
    lr_mult: 1
    decay_mult: 1
  }
  param {
    lr_mult: 2
    decay_mult: 0
  }
  convolution_param {
    num_output: 96
    pad: 2
    kernel_size: 5
    weight_filler {
      type: "xavier"
      std: 0.03
    }
    bias_filler {
      type: "constant"
      value: 0.2
    }
  }
}
layer {
  name: "inception_3b/relu_5x5"
  type: "ReLU"
  bottom: "inception_3b/5x5"
  top: "inception_3b/5x5"
}
layer {
  name: "inception_3b/pool"
  type: "Pooling"
  bottom: "inception_3a/output"
  top: "inception_3b/pool"
  pooling_param {
    pool: MAX
    kernel_size: 3
    stride: 1
    pad: 1
  }
}
layer {
  name: "inception_3b/pool_proj"
  type: "Convolution"
  bottom: "inception_3b/pool"
  top: "inception_3b/pool_proj"
  param {
    lr_mult: 1
    decay_mult: 1
  }
  param {
    lr_mult: 2
    decay_mult: 0
  }
  convolution_param {
    num_output: 64
    kernel_size: 1
    weight_filler {
      type: "xavier"
      std: 0.1
    }
    bias_filler {
      type: "constant"
      value: 0.2
    }
  }
}
layer {
  name: "inception_3b/relu_pool_proj"
  type: "ReLU"
  bottom: "inception_3b/pool_proj"
  top: "inception_3b/pool_proj"
}
layer {
  name: "inception_3b/output"
  type: "Concat"
  bottom: "inception_3b/1x1"
  bottom: "inception_3b/3x3"
  bottom: "inception_3b/5x5"
  bottom: "inception_3b/pool_proj"
  top: "inception_3b/output"
}
layer {
  name: "pool3/3x3_s2"
  type: "Pooling"
  bottom: "inception_3b/output"
  top: "pool3/3x3_s2"
  pooling_param {
    pool: MAX
    kernel_size: 3
    stride: 2
  }
}
layer {
  name: "inception_4a/1x1"
  type: "Convolution"
  bottom: "pool3/3x3_s2"
  top: "inception_4a/1x1"
  param {
    lr_mult: 1
    decay_mult: 1
  }
  param {
    lr_mult: 2
    decay_mult: 0
  }
  convolution_param {
    num_output: 192
    kernel_size: 1
    weight_filler {
      type: "xavier"
      std: 0.03
    }
    bias_filler {
      type: "constant"
      value: 0.2
    }
  }
}
layer {
  name: "inception_4a/relu_1x1"
  type: "ReLU"
  bottom: "inception_4a/1x1"
  top: "inception_4a/1x1"
}
layer {
  name: "inception_4a/3x3_reduce"
  type: "Convolution"
  bottom: "pool3/3x3_s2"
  top: "inception_4a/3x3_reduce"
  param {
    lr_mult: 1
    decay_mult: 1
  }
  param {
    lr_mult: 2
    decay_mult: 0
  }
  convolution_param {
    num_output: 96
    kernel_size: 1
    weight_filler {
      type: "xavier"
      std: 0.09
    }
    bias_filler {
      type: "constant"
      value: 0.2
    }
  }
}
layer {
  name: "inception_4a/relu_3x3_reduce"
  type: "ReLU"
  bottom: "inception_4a/3x3_reduce"
  top: "inception_4a/3x3_reduce"
}
layer {
  name: "inception_4a/3x3"
  type: "Convolution"
  bottom: "inception_4a/3x3_reduce"
  top: "inception_4a/3x3"
  param {
    lr_mult: 1
    decay_mult: 1
  }
  param {
    lr_mult: 2
    decay_mult: 0
  }
  convolution_param {
    num_output: 208
    pad: 1
    kernel_size: 3
    weight_filler {
      type: "xavier"
      std: 0.03
    }
    bias_filler {
      type: "constant"
      value: 0.2
    }
  }
}
layer {
  name: "inception_4a/relu_3x3"
  type: "ReLU"
  bottom: "inception_4a/3x3"
  top: "inception_4a/3x3"
}
layer {
  name: "inception_4a/5x5_reduce"
  type: "Convolution"
  bottom: "pool3/3x3_s2"
  top: "inception_4a/5x5_reduce"
  param {
    lr_mult: 1
    decay_mult: 1
  }
  param {
    lr_mult: 2
    decay_mult: 0
  }
  convolution_param {
    num_output: 16
    kernel_size: 1
    weight_filler {
      type: "xavier"
      std: 0.2
    }
    bias_filler {
      type: "constant"
      value: 0.2
    }
  }
}
layer {
  name: "inception_4a/relu_5x5_reduce"
  type: "ReLU"
  bottom: "inception_4a/5x5_reduce"
  top: "inception_4a/5x5_reduce"
}
layer {
  name: "inception_4a/5x5"
  type: "Convolution"
  bottom: "inception_4a/5x5_reduce"
  top: "inception_4a/5x5"
  param {
    lr_mult: 1
    decay_mult: 1
  }
  param {
    lr_mult: 2
    decay_mult: 0
  }
  convolution_param {
    num_output: 48
    pad: 2
    kernel_size: 5
    weight_filler {
      type: "xavier"
      std: 0.03
    }
    bias_filler {
      type: "constant"
      value: 0.2
    }
  }
}
layer {
  name: "inception_4a/relu_5x5"
  type: "ReLU"
  bottom: "inception_4a/5x5"
  top: "inception_4a/5x5"
}
layer {
  name: "inception_4a/pool"
  type: "Pooling"
  bottom: "pool3/3x3_s2"
  top: "inception_4a/pool"
  pooling_param {
    pool: MAX
    kernel_size: 3
    stride: 1
    pad: 1
  }
}
layer {
  name: "inception_4a/pool_proj"
  type: "Convolution"
  bottom: "inception_4a/pool"
  top: "inception_4a/pool_proj"
  param {
    lr_mult: 1
    decay_mult: 1
  }
  param {
    lr_mult: 2
    decay_mult: 0
  }
  convolution_param {
    num_output: 64
    kernel_size: 1
    weight_filler {
      type: "xavier"
      std: 0.1
    }
    bias_filler {
      type: "constant"
      value: 0.2
    }
  }
}
layer {
  name: "inception_4a/relu_pool_proj"
  type: "ReLU"
  bottom: "inception_4a/pool_proj"
  top: "inception_4a/pool_proj"
}
layer {
  name: "inception_4a/output"
  type: "Concat"
  bottom: "inception_4a/1x1"
  bottom: "inception_4a/3x3"
  bottom: "inception_4a/5x5"
  bottom: "inception_4a/pool_proj"
  top: "inception_4a/output"
}
layer {
  name: "loss1/ave_pool"
  type: "Pooling"
  bottom: "inception_4a/output"
  top: "loss1/ave_pool"
  pooling_param {
    pool: AVE
    kernel_size: 5
    stride: 3
  }
}
layer {
  name: "loss1/conv"
  type: "Convolution"
  bottom: "loss1/ave_pool"
  top: "loss1/conv"
  param {
    lr_mult: 1
    decay_mult: 1
  }
  param {
    lr_mult: 2
    decay_mult: 0
  }
  convolution_param {
    num_output: 128
    kernel_size: 1
    weight_filler {
      type: "xavier"
      std: 0.08
    }
    bias_filler {
      type: "constant"
      value: 0.2
    }
  }
}
layer {
  name: "loss1/relu_conv"
  type: "ReLU"
  bottom: "loss1/conv"
  top: "loss1/conv"
}
layer {
  name: "loss1/fc"
  type: "InnerProduct"
  bottom: "loss1/conv"
  top: "loss1/fc"
  param {
    lr_mult: 1
    decay_mult: 1
  }
  param {
    lr_mult: 2
    decay_mult: 0
  }
  inner_product_param {
    num_output: 1024
    weight_filler {
      type: "xavier"
      std: 0.02
    }
    bias_filler {
      type: "constant"
      value: 0.2
    }
  }
}
layer {
  name: "loss1/relu_fc"
  type: "ReLU"
  bottom: "loss1/fc"
  top: "loss1/fc"
}
layer {
  name: "loss1/drop_fc"
  type: "Dropout"
  bottom: "loss1/fc"
  top: "loss1/fc"
  dropout_param {
    dropout_ratio: 0.7
  }
}
layer {
  name: "loss1/classifier_plantvillage"
  type: "InnerProduct"
  bottom: "loss1/fc"
  top: "loss1/classifier_plantvillage"
  param {
    lr_mult: 1
    decay_mult: 1
  }
  param {
    lr_mult: 2
    decay_mult: 0
  }
  inner_product_param {
    num_output: 38
    weight_filler {
      type: "xavier"
      std: 0.0009765625
    }
    bias_filler {
      type: "constant"
      value: 0
    }
  }
}
layer {
  name: "inception_4b/1x1"
  type: "Convolution"
  bottom: "inception_4a/output"
  top: "inception_4b/1x1"
  param {
    lr_mult: 1
    decay_mult: 1
  }
  param {
    lr_mult: 2
    decay_mult: 0
  }
  convolution_param {
    num_output: 160
    kernel_size: 1
    weight_filler {
      type: "xavier"
      std: 0.03
    }
    bias_filler {
      type: "constant"
      value: 0.2
    }
  }
}
layer {
  name: "inception_4b/relu_1x1"
  type: "ReLU"
  bottom: "inception_4b/1x1"
  top: "inception_4b/1x1"
}
layer {
  name: "inception_4b/3x3_reduce"
  type: "Convolution"
  bottom: "inception_4a/output"
  top: "inception_4b/3x3_reduce"
  param {
    lr_mult: 1
    decay_mult: 1
  }
  param {
    lr_mult: 2
    decay_mult: 0
  }
  convolution_param {
    num_output: 112
    kernel_size: 1
    weight_filler {
      type: "xavier"
      std: 0.09
    }
    bias_filler {
      type: "constant"
      value: 0.2
    }
  }
}
layer {
  name: "inception_4b/relu_3x3_reduce"
  type: "ReLU"
  bottom: "inception_4b/3x3_reduce"
  top: "inception_4b/3x3_reduce"
}
layer {
  name: "inception_4b/3x3"
  type: "Convolution"
  bottom: "inception_4b/3x3_reduce"
  top: "inception_4b/3x3"
  param {
    lr_mult: 1
    decay_mult: 1
  }
  param {
    lr_mult: 2
    decay_mult: 0
  }
  convolution_param {
    num_output: 224
    pad: 1
    kernel_size: 3
    weight_filler {
      type: "xavier"
      std: 0.03
    }
    bias_filler {
      type: "constant"
      value: 0.2
    }
  }
}
layer {
  name: "inception_4b/relu_3x3"
  type: "ReLU"
  bottom: "inception_4b/3x3"
  top: "inception_4b/3x3"
}
layer {
  name: "inception_4b/5x5_reduce"
  type: "Convolution"
  bottom: "inception_4a/output"
  top: "inception_4b/5x5_reduce"
  param {
    lr_mult: 1
    decay_mult: 1
  }
  param {
    lr_mult: 2
    decay_mult: 0
  }
  convolution_param {
    num_output: 24
    kernel_size: 1
    weight_filler {
      type: "xavier"
      std: 0.2
    }
    bias_filler {
      type: "constant"
      value: 0.2
    }
  }
}
layer {
  name: "inception_4b/relu_5x5_reduce"
  type: "ReLU"
  bottom: "inception_4b/5x5_reduce"
  top: "inception_4b/5x5_reduce"
}
layer {
  name: "inception_4b/5x5"
  type: "Convolution"
  bottom: "inception_4b/5x5_reduce"
  top: "inception_4b/5x5"
  param {
    lr_mult: 1
    decay_mult: 1
  }
  param {
    lr_mult: 2
    decay_mult: 0
  }
  convolution_param {
    num_output: 64
    pad: 2
    kernel_size: 5
    weight_filler {
      type: "xavier"
      std: 0.03
    }
    bias_filler {
      type: "constant"
      value: 0.2
    }
  }
}
layer {
  name: "inception_4b/relu_5x5"
  type: "ReLU"
  bottom: "inception_4b/5x5"
  top: "inception_4b/5x5"
}
layer {
  name: "inception_4b/pool"
  type: "Pooling"
  bottom: "inception_4a/output"
  top: "inception_4b/pool"
  pooling_param {
    pool: MAX
    kernel_size: 3
    stride: 1
    pad: 1
  }
}
layer {
  name: "inception_4b/pool_proj"
  type: "Convolution"
  bottom: "inception_4b/pool"
  top: "inception_4b/pool_proj"
  param {
    lr_mult: 1
    decay_mult: 1
  }
  param {
    lr_mult: 2
    decay_mult: 0
  }
  convolution_param {
    num_output: 64
    kernel_size: 1
    weight_filler {
      type: "xavier"
      std: 0.1
    }
    bias_filler {
      type: "constant"
      value: 0.2
    }
  }
}
layer {
  name: "inception_4b/relu_pool_proj"
  type: "ReLU"
  bottom: "inception_4b/pool_proj"
  top: "inception_4b/pool_proj"
}
layer {
  name: "inception_4b/output"
  type: "Concat"
  bottom: "inception_4b/1x1"
  bottom: "inception_4b/3x3"
  bottom: "inception_4b/5x5"
  bottom: "inception_4b/pool_proj"
  top: "inception_4b/output"
}
layer {
  name: "inception_4c/1x1"
  type: "Convolution"
  bottom: "inception_4b/output"
  top: "inception_4c/1x1"
  param {
    lr_mult: 1
    decay_mult: 1
  }
  param {
    lr_mult: 2
    decay_mult: 0
  }
  convolution_param {
    num_output: 128
    kernel_size: 1
    weight_filler {
      type: "xavier"
      std: 0.03
    }
    bias_filler {
      type: "constant"
      value: 0.2
    }
  }
}
layer {
  name: "inception_4c/relu_1x1"
  type: "ReLU"
  bottom: "inception_4c/1x1"
  top: "inception_4c/1x1"
}
layer {
  name: "inception_4c/3x3_reduce"
  type: "Convolution"
  bottom: "inception_4b/output"
  top: "inception_4c/3x3_reduce"
  param {
    lr_mult: 1
    decay_mult: 1
  }
  param {
    lr_mult: 2
    decay_mult: 0
  }
  convolution_param {
    num_output: 128
    kernel_size: 1
    weight_filler {
      type: "xavier"
      std: 0.09
    }
    bias_filler {
      type: "constant"
      value: 0.2
    }
  }
}
layer {
  name: "inception_4c/relu_3x3_reduce"
  type: "ReLU"
  bottom: "inception_4c/3x3_reduce"
  top: "inception_4c/3x3_reduce"
}
layer {
  name: "inception_4c/3x3"
  type: "Convolution"
  bottom: "inception_4c/3x3_reduce"
  top: "inception_4c/3x3"
  param {
    lr_mult: 1
    decay_mult: 1
  }
  param {
    lr_mult: 2
    decay_mult: 0
  }
  convolution_param {
    num_output: 256
    pad: 1
    kernel_size: 3
    weight_filler {
      type: "xavier"
      std: 0.03
    }
    bias_filler {
      type: "constant"
      value: 0.2
    }
  }
}
layer {
  name: "inception_4c/relu_3x3"
  type: "ReLU"
  bottom: "inception_4c/3x3"
  top: "inception_4c/3x3"
}
layer {
  name: "inception_4c/5x5_reduce"
  type: "Convolution"
  bottom: "inception_4b/output"
  top: "inception_4c/5x5_reduce"
  param {
    lr_mult: 1
    decay_mult: 1
  }
  param {
    lr_mult: 2
    decay_mult: 0
  }
  convolution_param {
    num_output: 24
    kernel_size: 1
    weight_filler {
      type: "xavier"
      std: 0.2
    }
    bias_filler {
      type: "constant"
      value: 0.2
    }
  }
}
layer {
  name: "inception_4c/relu_5x5_reduce"
  type: "ReLU"
  bottom: "inception_4c/5x5_reduce"
  top: "inception_4c/5x5_reduce"
}
layer {
  name: "inception_4c/5x5"
  type: "Convolution"
  bottom: "inception_4c/5x5_reduce"
  top: "inception_4c/5x5"
  param {
    lr_mult: 1
    decay_mult: 1
  }
  param {
    lr_mult: 2
    decay_mult: 0
  }
  convolution_param {
    num_output: 64
    pad: 2
    kernel_size: 5
    weight_filler {
      type: "xavier"
      std: 0.03
    }
    bias_filler {
      type: "constant"
      value: 0.2
    }
  }
}
layer {
  name: "inception_4c/relu_5x5"
  type: "ReLU"
  bottom: "inception_4c/5x5"
  top: "inception_4c/5x5"
}
layer {
  name: "inception_4c/pool"
  type: "Pooling"
  bottom: "inception_4b/output"
  top: "inception_4c/pool"
  pooling_param {
    pool: MAX
    kernel_size: 3
    stride: 1
    pad: 1
  }
}
layer {
  name: "inception_4c/pool_proj"
  type: "Convolution"
  bottom: "inception_4c/pool"
  top: "inception_4c/pool_proj"
  param {
    lr_mult: 1
    decay_mult: 1
  }
  param {
    lr_mult: 2
    decay_mult: 0
  }
  convolution_param {
    num_output: 64
    kernel_size: 1
    weight_filler {
      type: "xavier"
      std: 0.1
    }
    bias_filler {
      type: "constant"
      value: 0.2
    }
  }
}
layer {
  name: "inception_4c/relu_pool_proj"
  type: "ReLU"
  bottom: "inception_4c/pool_proj"
  top: "inception_4c/pool_proj"
}
layer {
  name: "inception_4c/output"
  type: "Concat"
  bottom: "inception_4c/1x1"
  bottom: "inception_4c/3x3"
  bottom: "inception_4c/5x5"
  bottom: "inception_4c/pool_proj"
  top: "inception_4c/output"
}
layer {
  name: "inception_4d/1x1"
  type: "Convolution"
  bottom: "inception_4c/output"
  top: "inception_4d/1x1"
  param {
    lr_mult: 1
    decay_mult: 1
  }
  param {
    lr_mult: 2
    decay_mult: 0
  }
  convolution_param {
    num_output: 112
    kernel_size: 1
    weight_filler {
      type: "xavier"
      std: 0.03
    }
    bias_filler {
      type: "constant"
      value: 0.2
    }
  }
}
layer {
  name: "inception_4d/relu_1x1"
  type: "ReLU"
  bottom: "inception_4d/1x1"
  top: "inception_4d/1x1"
}
layer {
  name: "inception_4d/3x3_reduce"
  type: "Convolution"
  bottom: "inception_4c/output"
  top: "inception_4d/3x3_reduce"
  param {
    lr_mult: 1
    decay_mult: 1
  }
  param {
    lr_mult: 2
    decay_mult: 0
  }
  convolution_param {
    num_output: 144
    kernel_size: 1
    weight_filler {
      type: "xavier"
      std: 0.09
    }
    bias_filler {
      type: "constant"
      value: 0.2
    }
  }
}
layer {
  name: "inception_4d/relu_3x3_reduce"
  type: "ReLU"
  bottom: "inception_4d/3x3_reduce"
  top: "inception_4d/3x3_reduce"
}
layer {
  name: "inception_4d/3x3"
  type: "Convolution"
  bottom: "inception_4d/3x3_reduce"
  top: "inception_4d/3x3"
  param {
    lr_mult: 1
    decay_mult: 1
  }
  param {
    lr_mult: 2
    decay_mult: 0
  }
  convolution_param {
    num_output: 288
    pad: 1
    kernel_size: 3
    weight_filler {
      type: "xavier"
      std: 0.03
    }
    bias_filler {
      type: "constant"
      value: 0.2
    }
  }
}
layer {
  name: "inception_4d/relu_3x3"
  type: "ReLU"
  bottom: "inception_4d/3x3"
  top: "inception_4d/3x3"
}
layer {
  name: "inception_4d/5x5_reduce"
  type: "Convolution"
  bottom: "inception_4c/output"
  top: "inception_4d/5x5_reduce"
  param {
    lr_mult: 1
    decay_mult: 1
  }
  param {
    lr_mult: 2
    decay_mult: 0
  }
  convolution_param {
    num_output: 32
    kernel_size: 1
    weight_filler {
      type: "xavier"
      std: 0.2
    }
    bias_filler {
      type: "constant"
      value: 0.2
    }
  }
}
layer {
  name: "inception_4d/relu_5x5_reduce"
  type: "ReLU"
  bottom: "inception_4d/5x5_reduce"
  top: "inception_4d/5x5_reduce"
}
layer {
  name: "inception_4d/5x5"
  type: "Convolution"
  bottom: "inception_4d/5x5_reduce"
  top: "inception_4d/5x5"
  param {
    lr_mult: 1
    decay_mult: 1
  }
  param {
    lr_mult: 2
    decay_mult: 0
  }
  convolution_param {
    num_output: 64
    pad: 2
    kernel_size: 5
    weight_filler {
      type: "xavier"
      std: 0.03
    }
    bias_filler {
      type: "constant"
      value: 0.2
    }
  }
}
layer {
  name: "inception_4d/relu_5x5"
  type: "ReLU"
  bottom: "inception_4d/5x5"
  top: "inception_4d/5x5"
}
layer {
  name: "inception_4d/pool"
  type: "Pooling"
  bottom: "inception_4c/output"
  top: "inception_4d/pool"
  pooling_param {
    pool: MAX
    kernel_size: 3
    stride: 1
    pad: 1
  }
}
layer {
  name: "inception_4d/pool_proj"
  type: "Convolution"
  bottom: "inception_4d/pool"
  top: "inception_4d/pool_proj"
  param {
    lr_mult: 1
    decay_mult: 1
  }
  param {
    lr_mult: 2
    decay_mult: 0
  }
  convolution_param {
    num_output: 64
    kernel_size: 1
    weight_filler {
      type: "xavier"
      std: 0.1
    }
    bias_filler {
      type: "constant"
      value: 0.2
    }
  }
}
layer {
  name: "inception_4d/relu_pool_proj"
  type: "ReLU"
  bottom: "inception_4d/pool_proj"
  top: "inception_4d/pool_proj"
}
layer {
  name: "inception_4d/output"
  type: "Concat"
  bottom: "inception_4d/1x1"
  bottom: "inception_4d/3x3"
  bottom: "inception_4d/5x5"
  bottom: "inception_4d/pool_proj"
  top: "inception_4d/output"
}
layer {
  name: "loss2/ave_pool"
  type: "Pooling"
  bottom: "inception_4d/output"
  top: "loss2/ave_pool"
  pooling_param {
    pool: AVE
    kernel_size: 5
    stride: 3
  }
}
layer {
  name: "loss2/conv"
  type: "Convolution"
  bottom: "loss2/ave_pool"
  top: "loss2/conv"
  param {
    lr_mult: 1
    decay_mult: 1
  }
  param {
    lr_mult: 2
    decay_mult: 0
  }
  convolution_param {
    num_output: 128
    kernel_size: 1
    weight_filler {
      type: "xavier"
      std: 0.08
    }
    bias_filler {
      type: "constant"
      value: 0.2
    }
  }
}
layer {
  name: "loss2/relu_conv"
  type: "ReLU"
  bottom: "loss2/conv"
  top: "loss2/conv"
}
layer {
  name: "loss2/fc"
  type: "InnerProduct"
  bottom: "loss2/conv"
  top: "loss2/fc"
  param {
    lr_mult: 1
    decay_mult: 1
  }
  param {
    lr_mult: 2
    decay_mult: 0
  }
  inner_product_param {
    num_output: 1024
    weight_filler {
      type: "xavier"
      std: 0.02
    }
    bias_filler {
      type: "constant"
      value: 0.2
    }
  }
}
layer {
  name: "loss2/relu_fc"
  type: "ReLU"
  bottom: "loss2/fc"
  top: "loss2/fc"
}
layer {
  name: "loss2/drop_fc"
  type: "Dropout"
  bottom: "loss2/fc"
  top: "loss2/fc"
  dropout_param {
    dropout_ratio: 0.7
  }
}
layer {
  name: "loss2/classifier_plantvillage"
  type: "InnerProduct"
  bottom: "loss2/fc"
  top: "loss2/classifier_plantvillage"
  param {
    lr_mult: 1
    decay_mult: 1
  }
  param {
    lr_mult: 2
    decay_mult: 0
  }
  inner_product_param {
    num_output: 38
    weight_filler {
      type: "xavier"
      std: 0.0009765625
    }
    bias_filler {
      type: "constant"
      value: 0
    }
  }
}
layer {
  name: "inception_4e/1x1"
  type: "Convolution"
  bottom: "inception_4d/output"
  top: "inception_4e/1x1"
  param {
    lr_mult: 1
    decay_mult: 1
  }
  param {
    lr_mult: 2
    decay_mult: 0
  }
  convolution_param {
    num_output: 256
    kernel_size: 1
    weight_filler {
      type: "xavier"
      std: 0.03
    }
    bias_filler {
      type: "constant"
      value: 0.2
    }
  }
}
layer {
  name: "inception_4e/relu_1x1"
  type: "ReLU"
  bottom: "inception_4e/1x1"
  top: "inception_4e/1x1"
}
layer {
  name: "inception_4e/3x3_reduce"
  type: "Convolution"
  bottom: "inception_4d/output"
  top: "inception_4e/3x3_reduce"
  param {
    lr_mult: 1
    decay_mult: 1
  }
  param {
    lr_mult: 2
    decay_mult: 0
  }
  convolution_param {
    num_output: 160
    kernel_size: 1
    weight_filler {
      type: "xavier"
      std: 0.09
    }
    bias_filler {
      type: "constant"
      value: 0.2
    }
  }
}
layer {
  name: "inception_4e/relu_3x3_reduce"
  type: "ReLU"
  bottom: "inception_4e/3x3_reduce"
  top: "inception_4e/3x3_reduce"
}
layer {
  name: "inception_4e/3x3"
  type: "Convolution"
  bottom: "inception_4e/3x3_reduce"
  top: "inception_4e/3x3"
  param {
    lr_mult: 1
    decay_mult: 1
  }
  param {
    lr_mult: 2
    decay_mult: 0
  }
  convolution_param {
    num_output: 320
    pad: 1
    kernel_size: 3
    weight_filler {
      type: "xavier"
      std: 0.03
    }
    bias_filler {
      type: "constant"
      value: 0.2
    }
  }
}
layer {
  name: "inception_4e/relu_3x3"
  type: "ReLU"
  bottom: "inception_4e/3x3"
  top: "inception_4e/3x3"
}
layer {
  name: "inception_4e/5x5_reduce"
  type: "Convolution"
  bottom: "inception_4d/output"
  top: "inception_4e/5x5_reduce"
  param {
    lr_mult: 1
    decay_mult: 1
  }
  param {
    lr_mult: 2
    decay_mult: 0
  }
  convolution_param {
    num_output: 32
    kernel_size: 1
    weight_filler {
      type: "xavier"
      std: 0.2
    }
    bias_filler {
      type: "constant"
      value: 0.2
    }
  }
}
layer {
  name: "inception_4e/relu_5x5_reduce"
  type: "ReLU"
  bottom: "inception_4e/5x5_reduce"
  top: "inception_4e/5x5_reduce"
}
layer {
  name: "inception_4e/5x5"
  type: "Convolution"
  bottom: "inception_4e/5x5_reduce"
  top: "inception_4e/5x5"
  p
I0403 16:55:27.810641 20003 layer_factory.hpp:77] Creating layer data
I0403 16:55:27.811362 20003 net.cpp:91] Creating Layer data
I0403 16:55:27.811400 20003 net.cpp:399] data -> data
I0403 16:55:27.811463 20003 net.cpp:399] data -> label
I0403 16:55:27.811508 20003 data_transformer.cpp:25] Loading mean file from: /home/mohanty/data/final_dataset/lmdb/color-20-80/mean.binaryproto
I0403 16:55:27.812819 20006 db_lmdb.cpp:38] Opened lmdb /home/mohanty/data/final_dataset/lmdb/color-20-80/test_db
I0403 16:55:27.827178 20003 data_layer.cpp:41] output data size: 24,3,224,224
I0403 16:55:27.858865 20003 net.cpp:141] Setting up data
I0403 16:55:27.858952 20003 net.cpp:148] Top shape: 24 3 224 224 (3612672)
I0403 16:55:27.858980 20003 net.cpp:148] Top shape: 24 (24)
I0403 16:55:27.858999 20003 net.cpp:156] Memory required for data: 14450784
I0403 16:55:27.859032 20003 layer_factory.hpp:77] Creating layer label_data_1_split
I0403 16:55:27.859066 20003 net.cpp:91] Creating Layer label_data_1_split
I0403 16:55:27.859087 20003 net.cpp:425] label_data_1_split <- label
I0403 16:55:27.859127 20003 net.cpp:399] label_data_1_split -> label_data_1_split_0
I0403 16:55:27.859161 20003 net.cpp:399] label_data_1_split -> label_data_1_split_1
I0403 16:55:27.859187 20003 net.cpp:399] label_data_1_split -> label_data_1_split_2
I0403 16:55:27.859215 20003 net.cpp:399] label_data_1_split -> label_data_1_split_3
I0403 16:55:27.859241 20003 net.cpp:399] label_data_1_split -> label_data_1_split_4
I0403 16:55:27.859266 20003 net.cpp:399] label_data_1_split -> label_data_1_split_5
I0403 16:55:27.859290 20003 net.cpp:399] label_data_1_split -> label_data_1_split_6
I0403 16:55:27.859316 20003 net.cpp:399] label_data_1_split -> label_data_1_split_7
I0403 16:55:27.859341 20003 net.cpp:399] label_data_1_split -> label_data_1_split_8
I0403 16:55:27.859367 20003 net.cpp:399] label_data_1_split -> label_data_1_split_9
I0403 16:55:27.859506 20003 net.cpp:141] Setting up label_data_1_split
I0403 16:55:27.859537 20003 net.cpp:148] Top shape: 24 (24)
I0403 16:55:27.859560 20003 net.cpp:148] Top shape: 24 (24)
I0403 16:55:27.859580 20003 net.cpp:148] Top shape: 24 (24)
I0403 16:55:27.859598 20003 net.cpp:148] Top shape: 24 (24)
I0403 16:55:27.859622 20003 net.cpp:148] Top shape: 24 (24)
I0403 16:55:27.859642 20003 net.cpp:148] Top shape: 24 (24)
I0403 16:55:27.859663 20003 net.cpp:148] Top shape: 24 (24)
I0403 16:55:27.859683 20003 net.cpp:148] Top shape: 24 (24)
I0403 16:55:27.859702 20003 net.cpp:148] Top shape: 24 (24)
I0403 16:55:27.859720 20003 net.cpp:148] Top shape: 24 (24)
I0403 16:55:27.859774 20003 net.cpp:156] Memory required for data: 14451744
I0403 16:55:27.859797 20003 layer_factory.hpp:77] Creating layer conv1/7x7_s2
I0403 16:55:27.859834 20003 net.cpp:91] Creating Layer conv1/7x7_s2
I0403 16:55:27.859858 20003 net.cpp:425] conv1/7x7_s2 <- data
I0403 16:55:27.859884 20003 net.cpp:399] conv1/7x7_s2 -> conv1/7x7_s2
I0403 16:55:28.023782 20003 net.cpp:141] Setting up conv1/7x7_s2
I0403 16:55:28.023869 20003 net.cpp:148] Top shape: 24 64 112 112 (19267584)
I0403 16:55:28.023891 20003 net.cpp:156] Memory required for data: 91522080
I0403 16:55:28.023928 20003 layer_factory.hpp:77] Creating layer conv1/relu_7x7
I0403 16:55:28.023962 20003 net.cpp:91] Creating Layer conv1/relu_7x7
I0403 16:55:28.023984 20003 net.cpp:425] conv1/relu_7x7 <- conv1/7x7_s2
I0403 16:55:28.024008 20003 net.cpp:386] conv1/relu_7x7 -> conv1/7x7_s2 (in-place)
I0403 16:55:28.024338 20003 net.cpp:141] Setting up conv1/relu_7x7
I0403 16:55:28.024375 20003 net.cpp:148] Top shape: 24 64 112 112 (19267584)
I0403 16:55:28.024396 20003 net.cpp:156] Memory required for data: 168592416
I0403 16:55:28.024415 20003 layer_factory.hpp:77] Creating layer pool1/3x3_s2
I0403 16:55:28.024446 20003 net.cpp:91] Creating Layer pool1/3x3_s2
I0403 16:55:28.024468 20003 net.cpp:425] pool1/3x3_s2 <- conv1/7x7_s2
I0403 16:55:28.024497 20003 net.cpp:399] pool1/3x3_s2 -> pool1/3x3_s2
I0403 16:55:28.024591 20003 net.cpp:141] Setting up pool1/3x3_s2
I0403 16:55:28.024627 20003 net.cpp:148] Top shape: 24 64 56 56 (4816896)
I0403 16:55:28.024646 20003 net.cpp:156] Memory required for data: 187860000
I0403 16:55:28.024667 20003 layer_factory.hpp:77] Creating layer pool1/norm1
I0403 16:55:28.024699 20003 net.cpp:91] Creating Layer pool1/norm1
I0403 16:55:28.024723 20003 net.cpp:425] pool1/norm1 <- pool1/3x3_s2
I0403 16:55:28.024749 20003 net.cpp:399] pool1/norm1 -> pool1/norm1
I0403 16:55:28.025113 20003 net.cpp:141] Setting up pool1/norm1
I0403 16:55:28.025149 20003 net.cpp:148] Top shape: 24 64 56 56 (4816896)
I0403 16:55:28.025171 20003 net.cpp:156] Memory required for data: 207127584
I0403 16:55:28.025189 20003 layer_factory.hpp:77] Creating layer conv2/3x3_reduce
I0403 16:55:28.025224 20003 net.cpp:91] Creating Layer conv2/3x3_reduce
I0403 16:55:28.025248 20003 net.cpp:425] conv2/3x3_reduce <- pool1/norm1
I0403 16:55:28.025271 20003 net.cpp:399] conv2/3x3_reduce -> conv2/3x3_reduce
I0403 16:55:28.026983 20003 net.cpp:141] Setting up conv2/3x3_reduce
I0403 16:55:28.027019 20003 net.cpp:148] Top shape: 24 64 56 56 (4816896)
I0403 16:55:28.027040 20003 net.cpp:156] Memory required for data: 226395168
I0403 16:55:28.027066 20003 layer_factory.hpp:77] Creating layer conv2/relu_3x3_reduce
I0403 16:55:28.027092 20003 net.cpp:91] Creating Layer conv2/relu_3x3_reduce
I0403 16:55:28.027113 20003 net.cpp:425] conv2/relu_3x3_reduce <- conv2/3x3_reduce
I0403 16:55:28.027134 20003 net.cpp:386] conv2/relu_3x3_reduce -> conv2/3x3_reduce (in-place)
I0403 16:55:28.027531 20003 net.cpp:141] Setting up conv2/relu_3x3_reduce
I0403 16:55:28.027565 20003 net.cpp:148] Top shape: 24 64 56 56 (4816896)
I0403 16:55:28.027585 20003 net.cpp:156] Memory required for data: 245662752
I0403 16:55:28.027608 20003 layer_factory.hpp:77] Creating layer conv2/3x3
I0403 16:55:28.027642 20003 net.cpp:91] Creating Layer conv2/3x3
I0403 16:55:28.027667 20003 net.cpp:425] conv2/3x3 <- conv2/3x3_reduce
I0403 16:55:28.027693 20003 net.cpp:399] conv2/3x3 -> conv2/3x3
I0403 16:55:28.030493 20003 net.cpp:141] Setting up conv2/3x3
I0403 16:55:28.030530 20003 net.cpp:148] Top shape: 24 192 56 56 (14450688)
I0403 16:55:28.030551 20003 net.cpp:156] Memory required for data: 303465504
I0403 16:55:28.030582 20003 layer_factory.hpp:77] Creating layer conv2/relu_3x3
I0403 16:55:28.030612 20003 net.cpp:91] Creating Layer conv2/relu_3x3
I0403 16:55:28.030634 20003 net.cpp:425] conv2/relu_3x3 <- conv2/3x3
I0403 16:55:28.030658 20003 net.cpp:386] conv2/relu_3x3 -> conv2/3x3 (in-place)
I0403 16:55:28.030869 20003 net.cpp:141] Setting up conv2/relu_3x3
I0403 16:55:28.030903 20003 net.cpp:148] Top shape: 24 192 56 56 (14450688)
I0403 16:55:28.030959 20003 net.cpp:156] Memory required for data: 361268256
I0403 16:55:28.030979 20003 layer_factory.hpp:77] Creating layer conv2/norm2
I0403 16:55:28.031002 20003 net.cpp:91] Creating Layer conv2/norm2
I0403 16:55:28.031023 20003 net.cpp:425] conv2/norm2 <- conv2/3x3
I0403 16:55:28.031049 20003 net.cpp:399] conv2/norm2 -> conv2/norm2
I0403 16:55:28.031415 20003 net.cpp:141] Setting up conv2/norm2
I0403 16:55:28.031450 20003 net.cpp:148] Top shape: 24 192 56 56 (14450688)
I0403 16:55:28.031468 20003 net.cpp:156] Memory required for data: 419071008
I0403 16:55:28.031487 20003 layer_factory.hpp:77] Creating layer pool2/3x3_s2
I0403 16:55:28.031569 20003 net.cpp:91] Creating Layer pool2/3x3_s2
I0403 16:55:28.031594 20003 net.cpp:425] pool2/3x3_s2 <- conv2/norm2
I0403 16:55:28.031626 20003 net.cpp:399] pool2/3x3_s2 -> pool2/3x3_s2
I0403 16:55:28.031697 20003 net.cpp:141] Setting up pool2/3x3_s2
I0403 16:55:28.031729 20003 net.cpp:148] Top shape: 24 192 28 28 (3612672)
I0403 16:55:28.031749 20003 net.cpp:156] Memory required for data: 433521696
I0403 16:55:28.031767 20003 layer_factory.hpp:77] Creating layer pool2/3x3_s2_pool2/3x3_s2_0_split
I0403 16:55:28.031790 20003 net.cpp:91] Creating Layer pool2/3x3_s2_pool2/3x3_s2_0_split
I0403 16:55:28.031810 20003 net.cpp:425] pool2/3x3_s2_pool2/3x3_s2_0_split <- pool2/3x3_s2
I0403 16:55:28.031831 20003 net.cpp:399] pool2/3x3_s2_pool2/3x3_s2_0_split -> pool2/3x3_s2_pool2/3x3_s2_0_split_0
I0403 16:55:28.031857 20003 net.cpp:399] pool2/3x3_s2_pool2/3x3_s2_0_split -> pool2/3x3_s2_pool2/3x3_s2_0_split_1
I0403 16:55:28.031884 20003 net.cpp:399] pool2/3x3_s2_pool2/3x3_s2_0_split -> pool2/3x3_s2_pool2/3x3_s2_0_split_2
I0403 16:55:28.031910 20003 net.cpp:399] pool2/3x3_s2_pool2/3x3_s2_0_split -> pool2/3x3_s2_pool2/3x3_s2_0_split_3
I0403 16:55:28.031996 20003 net.cpp:141] Setting up pool2/3x3_s2_pool2/3x3_s2_0_split
I0403 16:55:28.032026 20003 net.cpp:148] Top shape: 24 192 28 28 (3612672)
I0403 16:55:28.032047 20003 net.cpp:148] Top shape: 24 192 28 28 (3612672)
I0403 16:55:28.032068 20003 net.cpp:148] Top shape: 24 192 28 28 (3612672)
I0403 16:55:28.032085 20003 net.cpp:148] Top shape: 24 192 28 28 (3612672)
I0403 16:55:28.032102 20003 net.cpp:156] Memory required for data: 491324448
I0403 16:55:28.032120 20003 layer_factory.hpp:77] Creating layer inception_3a/1x1
I0403 16:55:28.032150 20003 net.cpp:91] Creating Layer inception_3a/1x1
I0403 16:55:28.032172 20003 net.cpp:425] inception_3a/1x1 <- pool2/3x3_s2_pool2/3x3_s2_0_split_0
I0403 16:55:28.032196 20003 net.cpp:399] inception_3a/1x1 -> inception_3a/1x1
I0403 16:55:28.034065 20003 net.cpp:141] Setting up inception_3a/1x1
I0403 16:55:28.034101 20003 net.cpp:148] Top shape: 24 64 28 28 (1204224)
I0403 16:55:28.034121 20003 net.cpp:156] Memory required for data: 496141344
I0403 16:55:28.034143 20003 layer_factory.hpp:77] Creating layer inception_3a/relu_1x1
I0403 16:55:28.034168 20003 net.cpp:91] Creating Layer inception_3a/relu_1x1
I0403 16:55:28.034190 20003 net.cpp:425] inception_3a/relu_1x1 <- inception_3a/1x1
I0403 16:55:28.034212 20003 net.cpp:386] inception_3a/relu_1x1 -> inception_3a/1x1 (in-place)
I0403 16:55:28.034426 20003 net.cpp:141] Setting up inception_3a/relu_1x1
I0403 16:55:28.034459 20003 net.cpp:148] Top shape: 24 64 28 28 (1204224)
I0403 16:55:28.034479 20003 net.cpp:156] Memory required for data: 500958240
I0403 16:55:28.034498 20003 layer_factory.hpp:77] Creating layer inception_3a/3x3_reduce
I0403 16:55:28.034523 20003 net.cpp:91] Creating Layer inception_3a/3x3_reduce
I0403 16:55:28.034543 20003 net.cpp:425] inception_3a/3x3_reduce <- pool2/3x3_s2_pool2/3x3_s2_0_split_1
I0403 16:55:28.034570 20003 net.cpp:399] inception_3a/3x3_reduce -> inception_3a/3x3_reduce
I0403 16:55:28.036623 20003 net.cpp:141] Setting up inception_3a/3x3_reduce
I0403 16:55:28.036659 20003 net.cpp:148] Top shape: 24 96 28 28 (1806336)
I0403 16:55:28.036679 20003 net.cpp:156] Memory required for data: 508183584
I0403 16:55:28.036710 20003 layer_factory.hpp:77] Creating layer inception_3a/relu_3x3_reduce
I0403 16:55:28.036754 20003 net.cpp:91] Creating Layer inception_3a/relu_3x3_reduce
I0403 16:55:28.036777 20003 net.cpp:425] inception_3a/relu_3x3_reduce <- inception_3a/3x3_reduce
I0403 16:55:28.036800 20003 net.cpp:386] inception_3a/relu_3x3_reduce -> inception_3a/3x3_reduce (in-place)
I0403 16:55:28.037024 20003 net.cpp:141] Setting up inception_3a/relu_3x3_reduce
I0403 16:55:28.037056 20003 net.cpp:148] Top shape: 24 96 28 28 (1806336)
I0403 16:55:28.037075 20003 net.cpp:156] Memory required for data: 515408928
I0403 16:55:28.037094 20003 layer_factory.hpp:77] Creating layer inception_3a/3x3
I0403 16:55:28.037124 20003 net.cpp:91] Creating Layer inception_3a/3x3
I0403 16:55:28.037147 20003 net.cpp:425] inception_3a/3x3 <- inception_3a/3x3_reduce
I0403 16:55:28.037173 20003 net.cpp:399] inception_3a/3x3 -> inception_3a/3x3
I0403 16:55:28.039201 20003 net.cpp:141] Setting up inception_3a/3x3
I0403 16:55:28.039237 20003 net.cpp:148] Top shape: 24 128 28 28 (2408448)
I0403 16:55:28.039257 20003 net.cpp:156] Memory required for data: 525042720
I0403 16:55:28.039279 20003 layer_factory.hpp:77] Creating layer inception_3a/relu_3x3
I0403 16:55:28.039309 20003 net.cpp:91] Creating Layer inception_3a/relu_3x3
I0403 16:55:28.039331 20003 net.cpp:425] inception_3a/relu_3x3 <- inception_3a/3x3
I0403 16:55:28.039353 20003 net.cpp:386] inception_3a/relu_3x3 -> inception_3a/3x3 (in-place)
I0403 16:55:28.039683 20003 net.cpp:141] Setting up inception_3a/relu_3x3
I0403 16:55:28.039716 20003 net.cpp:148] Top shape: 24 128 28 28 (2408448)
I0403 16:55:28.039736 20003 net.cpp:156] Memory required for data: 534676512
I0403 16:55:28.039753 20003 layer_factory.hpp:77] Creating layer inception_3a/5x5_reduce
I0403 16:55:28.039780 20003 net.cpp:91] Creating Layer inception_3a/5x5_reduce
I0403 16:55:28.039804 20003 net.cpp:425] inception_3a/5x5_reduce <- pool2/3x3_s2_pool2/3x3_s2_0_split_2
I0403 16:55:28.039829 20003 net.cpp:399] inception_3a/5x5_reduce -> inception_3a/5x5_reduce
I0403 16:55:28.041079 20003 net.cpp:141] Setting up inception_3a/5x5_reduce
I0403 16:55:28.041115 20003 net.cpp:148] Top shape: 24 16 28 28 (301056)
I0403 16:55:28.041136 20003 net.cpp:156] Memory required for data: 535880736
I0403 16:55:28.041162 20003 layer_factory.hpp:77] Creating layer inception_3a/relu_5x5_reduce
I0403 16:55:28.041188 20003 net.cpp:91] Creating Layer inception_3a/relu_5x5_reduce
I0403 16:55:28.041209 20003 net.cpp:425] inception_3a/relu_5x5_reduce <- inception_3a/5x5_reduce
I0403 16:55:28.041232 20003 net.cpp:386] inception_3a/relu_5x5_reduce -> inception_3a/5x5_reduce (in-place)
I0403 16:55:28.041584 20003 net.cpp:141] Setting up inception_3a/relu_5x5_reduce
I0403 16:55:28.041628 20003 net.cpp:148] Top shape: 24 16 28 28 (301056)
I0403 16:55:28.041651 20003 net.cpp:156] Memory required for data: 537084960
I0403 16:55:28.041669 20003 layer_factory.hpp:77] Creating layer inception_3a/5x5
I0403 16:55:28.041697 20003 net.cpp:91] Creating Layer inception_3a/5x5
I0403 16:55:28.041718 20003 net.cpp:425] inception_3a/5x5 <- inception_3a/5x5_reduce
I0403 16:55:28.041741 20003 net.cpp:399] inception_3a/5x5 -> inception_3a/5x5
I0403 16:55:28.042973 20003 net.cpp:141] Setting up inception_3a/5x5
I0403 16:55:28.043007 20003 net.cpp:148] Top shape: 24 32 28 28 (602112)
I0403 16:55:28.043027 20003 net.cpp:156] Memory required for data: 539493408
I0403 16:55:28.043051 20003 layer_factory.hpp:77] Creating layer inception_3a/relu_5x5
I0403 16:55:28.043076 20003 net.cpp:91] Creating Layer inception_3a/relu_5x5
I0403 16:55:28.043097 20003 net.cpp:425] inception_3a/relu_5x5 <- inception_3a/5x5
I0403 16:55:28.043119 20003 net.cpp:386] inception_3a/relu_5x5 -> inception_3a/5x5 (in-place)
I0403 16:55:28.043329 20003 net.cpp:141] Setting up inception_3a/relu_5x5
I0403 16:55:28.043362 20003 net.cpp:148] Top shape: 24 32 28 28 (602112)
I0403 16:55:28.043382 20003 net.cpp:156] Memory required for data: 541901856
I0403 16:55:28.043401 20003 layer_factory.hpp:77] Creating layer inception_3a/pool
I0403 16:55:28.043423 20003 net.cpp:91] Creating Layer inception_3a/pool
I0403 16:55:28.043443 20003 net.cpp:425] inception_3a/pool <- pool2/3x3_s2_pool2/3x3_s2_0_split_3
I0403 16:55:28.043483 20003 net.cpp:399] inception_3a/pool -> inception_3a/pool
I0403 16:55:28.043557 20003 net.cpp:141] Setting up inception_3a/pool
I0403 16:55:28.043586 20003 net.cpp:148] Top shape: 24 192 28 28 (3612672)
I0403 16:55:28.043609 20003 net.cpp:156] Memory required for data: 556352544
I0403 16:55:28.043629 20003 layer_factory.hpp:77] Creating layer inception_3a/pool_proj
I0403 16:55:28.043658 20003 net.cpp:91] Creating Layer inception_3a/pool_proj
I0403 16:55:28.043679 20003 net.cpp:425] inception_3a/pool_proj <- inception_3a/pool
I0403 16:55:28.043707 20003 net.cpp:399] inception_3a/pool_proj -> inception_3a/pool_proj
I0403 16:55:28.044879 20003 net.cpp:141] Setting up inception_3a/pool_proj
I0403 16:55:28.044914 20003 net.cpp:148] Top shape: 24 32 28 28 (602112)
I0403 16:55:28.044934 20003 net.cpp:156] Memory required for data: 558760992
I0403 16:55:28.044962 20003 layer_factory.hpp:77] Creating layer inception_3a/relu_pool_proj
I0403 16:55:28.044989 20003 net.cpp:91] Creating Layer inception_3a/relu_pool_proj
I0403 16:55:28.045011 20003 net.cpp:425] inception_3a/relu_pool_proj <- inception_3a/pool_proj
I0403 16:55:28.045034 20003 net.cpp:386] inception_3a/relu_pool_proj -> inception_3a/pool_proj (in-place)
I0403 16:55:28.045362 20003 net.cpp:141] Setting up inception_3a/relu_pool_proj
I0403 16:55:28.045395 20003 net.cpp:148] Top shape: 24 32 28 28 (602112)
I0403 16:55:28.045414 20003 net.cpp:156] Memory required for data: 561169440
I0403 16:55:28.045433 20003 layer_factory.hpp:77] Creating layer inception_3a/output
I0403 16:55:28.045462 20003 net.cpp:91] Creating Layer inception_3a/output
I0403 16:55:28.045482 20003 net.cpp:425] inception_3a/output <- inception_3a/1x1
I0403 16:55:28.045505 20003 net.cpp:425] inception_3a/output <- inception_3a/3x3
I0403 16:55:28.045524 20003 net.cpp:425] inception_3a/output <- inception_3a/5x5
I0403 16:55:28.045543 20003 net.cpp:425] inception_3a/output <- inception_3a/pool_proj
I0403 16:55:28.045565 20003 net.cpp:399] inception_3a/output -> inception_3a/output
I0403 16:55:28.045637 20003 net.cpp:141] Setting up inception_3a/output
I0403 16:55:28.045668 20003 net.cpp:148] Top shape: 24 256 28 28 (4816896)
I0403 16:55:28.045687 20003 net.cpp:156] Memory required for data: 580437024
I0403 16:55:28.045706 20003 layer_factory.hpp:77] Creating layer inception_3a/output_inception_3a/output_0_split
I0403 16:55:28.045727 20003 net.cpp:91] Creating Layer inception_3a/output_inception_3a/output_0_split
I0403 16:55:28.045747 20003 net.cpp:425] inception_3a/output_inception_3a/output_0_split <- inception_3a/output
I0403 16:55:28.045771 20003 net.cpp:399] inception_3a/output_inception_3a/output_0_split -> inception_3a/output_inception_3a/output_0_split_0
I0403 16:55:28.045799 20003 net.cpp:399] inception_3a/output_inception_3a/output_0_split -> inception_3a/output_inception_3a/output_0_split_1
I0403 16:55:28.045830 20003 net.cpp:399] inception_3a/output_inception_3a/output_0_split -> inception_3a/output_inception_3a/output_0_split_2
I0403 16:55:28.045857 20003 net.cpp:399] inception_3a/output_inception_3a/output_0_split -> inception_3a/output_inception_3a/output_0_split_3
I0403 16:55:28.045948 20003 net.cpp:141] Setting up inception_3a/output_inception_3a/output_0_split
I0403 16:55:28.045977 20003 net.cpp:148] Top shape: 24 256 28 28 (4816896)
I0403 16:55:28.045999 20003 net.cpp:148] Top shape: 24 256 28 28 (4816896)
I0403 16:55:28.046018 20003 net.cpp:148] Top shape: 24 256 28 28 (4816896)
I0403 16:55:28.046039 20003 net.cpp:148] Top shape: 24 256 28 28 (4816896)
I0403 16:55:28.046056 20003 net.cpp:156] Memory required for data: 657507360
I0403 16:55:28.046074 20003 layer_factory.hpp:77] Creating layer inception_3b/1x1
I0403 16:55:28.046103 20003 net.cpp:91] Creating Layer inception_3b/1x1
I0403 16:55:28.046123 20003 net.cpp:425] inception_3b/1x1 <- inception_3a/output_inception_3a/output_0_split_0
I0403 16:55:28.046149 20003 net.cpp:399] inception_3b/1x1 -> inception_3b/1x1
I0403 16:55:28.047523 20003 net.cpp:141] Setting up inception_3b/1x1
I0403 16:55:28.047572 20003 net.cpp:148] Top shape: 24 128 28 28 (2408448)
I0403 16:55:28.047595 20003 net.cpp:156] Memory required for data: 667141152
I0403 16:55:28.047624 20003 layer_factory.hpp:77] Creating layer inception_3b/relu_1x1
I0403 16:55:28.047652 20003 net.cpp:91] Creating Layer inception_3b/relu_1x1
I0403 16:55:28.047674 20003 net.cpp:425] inception_3b/relu_1x1 <- inception_3b/1x1
I0403 16:55:28.047698 20003 net.cpp:386] inception_3b/relu_1x1 -> inception_3b/1x1 (in-place)
I0403 16:55:28.047907 20003 net.cpp:141] Setting up inception_3b/relu_1x1
I0403 16:55:28.047940 20003 net.cpp:148] Top shape: 24 128 28 28 (2408448)
I0403 16:55:28.047957 20003 net.cpp:156] Memory required for data: 676774944
I0403 16:55:28.047976 20003 layer_factory.hpp:77] Creating layer inception_3b/3x3_reduce
I0403 16:55:28.048004 20003 net.cpp:91] Creating Layer inception_3b/3x3_reduce
I0403 16:55:28.048027 20003 net.cpp:425] inception_3b/3x3_reduce <- inception_3a/output_inception_3a/output_0_split_1
I0403 16:55:28.048053 20003 net.cpp:399] inception_3b/3x3_reduce -> inception_3b/3x3_reduce
I0403 16:55:28.049414 20003 net.cpp:141] Setting up inception_3b/3x3_reduce
I0403 16:55:28.049449 20003 net.cpp:148] Top shape: 24 128 28 28 (2408448)
I0403 16:55:28.049468 20003 net.cpp:156] Memory required for data: 686408736
I0403 16:55:28.049491 20003 layer_factory.hpp:77] Creating layer inception_3b/relu_3x3_reduce
I0403 16:55:28.049515 20003 net.cpp:91] Creating Layer inception_3b/relu_3x3_reduce
I0403 16:55:28.049537 20003 net.cpp:425] inception_3b/relu_3x3_reduce <- inception_3b/3x3_reduce
I0403 16:55:28.049561 20003 net.cpp:386] inception_3b/relu_3x3_reduce -> inception_3b/3x3_reduce (in-place)
I0403 16:55:28.049777 20003 net.cpp:141] Setting up inception_3b/relu_3x3_reduce
I0403 16:55:28.049809 20003 net.cpp:148] Top shape: 24 128 28 28 (2408448)
I0403 16:55:28.049829 20003 net.cpp:156] Memory required for data: 696042528
I0403 16:55:28.049847 20003 layer_factory.hpp:77] Creating layer inception_3b/3x3
I0403 16:55:28.049881 20003 net.cpp:91] Creating Layer inception_3b/3x3
I0403 16:55:28.049904 20003 net.cpp:425] inception_3b/3x3 <- inception_3b/3x3_reduce
I0403 16:55:28.049932 20003 net.cpp:399] inception_3b/3x3 -> inception_3b/3x3
I0403 16:55:28.053427 20003 net.cpp:141] Setting up inception_3b/3x3
I0403 16:55:28.053462 20003 net.cpp:148] Top shape: 24 192 28 28 (3612672)
I0403 16:55:28.053483 20003 net.cpp:156] Memory required for data: 710493216
I0403 16:55:28.053506 20003 layer_factory.hpp:77] Creating layer inception_3b/relu_3x3
I0403 16:55:28.053531 20003 net.cpp:91] Creating Layer inception_3b/relu_3x3
I0403 16:55:28.053553 20003 net.cpp:425] inception_3b/relu_3x3 <- inception_3b/3x3
I0403 16:55:28.053576 20003 net.cpp:386] inception_3b/relu_3x3 -> inception_3b/3x3 (in-place)
I0403 16:55:28.053908 20003 net.cpp:141] Setting up inception_3b/relu_3x3
I0403 16:55:28.053941 20003 net.cpp:148] Top shape: 24 192 28 28 (3612672)
I0403 16:55:28.053961 20003 net.cpp:156] Memory required for data: 724943904
I0403 16:55:28.053980 20003 layer_factory.hpp:77] Creating layer inception_3b/5x5_reduce
I0403 16:55:28.054009 20003 net.cpp:91] Creating Layer inception_3b/5x5_reduce
I0403 16:55:28.054034 20003 net.cpp:425] inception_3b/5x5_reduce <- inception_3a/output_inception_3a/output_0_split_2
I0403 16:55:28.054059 20003 net.cpp:399] inception_3b/5x5_reduce -> inception_3b/5x5_reduce
I0403 16:55:28.055248 20003 net.cpp:141] Setting up inception_3b/5x5_reduce
I0403 16:55:28.055284 20003 net.cpp:148] Top shape: 24 32 28 28 (602112)
I0403 16:55:28.055304 20003 net.cpp:156] Memory required for data: 727352352
I0403 16:55:28.055326 20003 layer_factory.hpp:77] Creating layer inception_3b/relu_5x5_reduce
I0403 16:55:28.055351 20003 net.cpp:91] Creating Layer inception_3b/relu_5x5_reduce
I0403 16:55:28.055374 20003 net.cpp:425] inception_3b/relu_5x5_reduce <- inception_3b/5x5_reduce
I0403 16:55:28.055395 20003 net.cpp:386] inception_3b/relu_5x5_reduce -> inception_3b/5x5_reduce (in-place)
I0403 16:55:28.055619 20003 net.cpp:141] Setting up inception_3b/relu_5x5_reduce
I0403 16:55:28.055670 20003 net.cpp:148] Top shape: 24 32 28 28 (602112)
I0403 16:55:28.055691 20003 net.cpp:156] Memory required for data: 729760800
I0403 16:55:28.055709 20003 layer_factory.hpp:77] Creating layer inception_3b/5x5
I0403 16:55:28.055737 20003 net.cpp:91] Creating Layer inception_3b/5x5
I0403 16:55:28.055758 20003 net.cpp:425] inception_3b/5x5 <- inception_3b/5x5_reduce
I0403 16:55:28.055783 20003 net.cpp:399] inception_3b/5x5 -> inception_3b/5x5
I0403 16:55:28.058143 20003 net.cpp:141] Setting up inception_3b/5x5
I0403 16:55:28.058181 20003 net.cpp:148] Top shape: 24 96 28 28 (1806336)
I0403 16:55:28.058200 20003 net.cpp:156] Memory required for data: 736986144
I0403 16:55:28.058223 20003 layer_factory.hpp:77] Creating layer inception_3b/relu_5x5
I0403 16:55:28.058245 20003 net.cpp:91] Creating Layer inception_3b/relu_5x5
I0403 16:55:28.058265 20003 net.cpp:425] inception_3b/relu_5x5 <- inception_3b/5x5
I0403 16:55:28.058290 20003 net.cpp:386] inception_3b/relu_5x5 -> inception_3b/5x5 (in-place)
I0403 16:55:28.058529 20003 net.cpp:141] Setting up inception_3b/relu_5x5
I0403 16:55:28.058562 20003 net.cpp:148] Top shape: 24 96 28 28 (1806336)
I0403 16:55:28.058580 20003 net.cpp:156] Memory required for data: 744211488
I0403 16:55:28.058600 20003 layer_factory.hpp:77] Creating layer inception_3b/pool
I0403 16:55:28.058629 20003 net.cpp:91] Creating Layer inception_3b/pool
I0403 16:55:28.058650 20003 net.cpp:425] inception_3b/pool <- inception_3a/output_inception_3a/output_0_split_3
I0403 16:55:28.058675 20003 net.cpp:399] inception_3b/pool -> inception_3b/pool
I0403 16:55:28.058743 20003 net.cpp:141] Setting up inception_3b/pool
I0403 16:55:28.058773 20003 net.cpp:148] Top shape: 24 256 28 28 (4816896)
I0403 16:55:28.058791 20003 net.cpp:156] Memory required for data: 763479072
I0403 16:55:28.058809 20003 layer_factory.hpp:77] Creating layer inception_3b/pool_proj
I0403 16:55:28.058838 20003 net.cpp:91] Creating Layer inception_3b/pool_proj
I0403 16:55:28.058861 20003 net.cpp:425] inception_3b/pool_proj <- inception_3b/pool
I0403 16:55:28.058887 20003 net.cpp:399] inception_3b/pool_proj -> inception_3b/pool_proj
I0403 16:55:28.060156 20003 net.cpp:141] Setting up inception_3b/pool_proj
I0403 16:55:28.060194 20003 net.cpp:148] Top shape: 24 64 28 28 (1204224)
I0403 16:55:28.060214 20003 net.cpp:156] Memory required for data: 768295968
I0403 16:55:28.060237 20003 layer_factory.hpp:77] Creating layer inception_3b/relu_pool_proj
I0403 16:55:28.060261 20003 net.cpp:91] Creating Layer inception_3b/relu_pool_proj
I0403 16:55:28.060282 20003 net.cpp:425] inception_3b/relu_pool_proj <- inception_3b/pool_proj
I0403 16:55:28.060307 20003 net.cpp:386] inception_3b/relu_pool_proj -> inception_3b/pool_proj (in-place)
I0403 16:55:28.060767 20003 net.cpp:141] Setting up inception_3b/relu_pool_proj
I0403 16:55:28.060803 20003 net.cpp:148] Top shape: 24 64 28 28 (1204224)
I0403 16:55:28.060824 20003 net.cpp:156] Memory required for data: 773112864
I0403 16:55:28.060843 20003 layer_factory.hpp:77] Creating layer inception_3b/output
I0403 16:55:28.060868 20003 net.cpp:91] Creating Layer inception_3b/output
I0403 16:55:28.060888 20003 net.cpp:425] inception_3b/output <- inception_3b/1x1
I0403 16:55:28.060909 20003 net.cpp:425] inception_3b/output <- inception_3b/3x3
I0403 16:55:28.060928 20003 net.cpp:425] inception_3b/output <- inception_3b/5x5
I0403 16:55:28.060950 20003 net.cpp:425] inception_3b/output <- inception_3b/pool_proj
I0403 16:55:28.060971 20003 net.cpp:399] inception_3b/output -> inception_3b/output
I0403 16:55:28.061028 20003 net.cpp:141] Setting up inception_3b/output
I0403 16:55:28.061056 20003 net.cpp:148] Top shape: 24 480 28 28 (9031680)
I0403 16:55:28.061075 20003 net.cpp:156] Memory required for data: 809239584
I0403 16:55:28.061094 20003 layer_factory.hpp:77] Creating layer pool3/3x3_s2
I0403 16:55:28.061118 20003 net.cpp:91] Creating Layer pool3/3x3_s2
I0403 16:55:28.061141 20003 net.cpp:425] pool3/3x3_s2 <- inception_3b/output
I0403 16:55:28.061163 20003 net.cpp:399] pool3/3x3_s2 -> pool3/3x3_s2
I0403 16:55:28.061254 20003 net.cpp:141] Setting up pool3/3x3_s2
I0403 16:55:28.061283 20003 net.cpp:148] Top shape: 24 480 14 14 (2257920)
I0403 16:55:28.061302 20003 net.cpp:156] Memory required for data: 818271264
I0403 16:55:28.061321 20003 layer_factory.hpp:77] Creating layer pool3/3x3_s2_pool3/3x3_s2_0_split
I0403 16:55:28.061342 20003 net.cpp:91] Creating Layer pool3/3x3_s2_pool3/3x3_s2_0_split
I0403 16:55:28.061362 20003 net.cpp:425] pool3/3x3_s2_pool3/3x3_s2_0_split <- pool3/3x3_s2
I0403 16:55:28.061386 20003 net.cpp:399] pool3/3x3_s2_pool3/3x3_s2_0_split -> pool3/3x3_s2_pool3/3x3_s2_0_split_0
I0403 16:55:28.061413 20003 net.cpp:399] pool3/3x3_s2_pool3/3x3_s2_0_split -> pool3/3x3_s2_pool3/3x3_s2_0_split_1
I0403 16:55:28.061439 20003 net.cpp:399] pool3/3x3_s2_pool3/3x3_s2_0_split -> pool3/3x3_s2_pool3/3x3_s2_0_split_2
I0403 16:55:28.061465 20003 net.cpp:399] pool3/3x3_s2_pool3/3x3_s2_0_split -> pool3/3x3_s2_pool3/3x3_s2_0_split_3
I0403 16:55:28.061558 20003 net.cpp:141] Setting up pool3/3x3_s2_pool3/3x3_s2_0_split
I0403 16:55:28.061589 20003 net.cpp:148] Top shape: 24 480 14 14 (2257920)
I0403 16:55:28.061617 20003 net.cpp:148] Top shape: 24 480 14 14 (2257920)
I0403 16:55:28.061638 20003 net.cpp:148] Top shape: 24 480 14 14 (2257920)
I0403 16:55:28.061658 20003 net.cpp:148] Top shape: 24 480 14 14 (2257920)
I0403 16:55:28.061676 20003 net.cpp:156] Memory required for data: 854397984
I0403 16:55:28.061696 20003 layer_factory.hpp:77] Creating layer inception_4a/1x1
I0403 16:55:28.061722 20003 net.cpp:91] Creating Layer inception_4a/1x1
I0403 16:55:28.061744 20003 net.cpp:425] inception_4a/1x1 <- pool3/3x3_s2_pool3/3x3_s2_0_split_0
I0403 16:55:28.061770 20003 net.cpp:399] inception_4a/1x1 -> inception_4a/1x1
I0403 16:55:28.063668 20003 net.cpp:141] Setting up inception_4a/1x1
I0403 16:55:28.063704 20003 net.cpp:148] Top shape: 24 192 14 14 (903168)
I0403 16:55:28.063724 20003 net.cpp:156] Memory required for data: 858010656
I0403 16:55:28.063748 20003 layer_factory.hpp:77] Creating layer inception_4a/relu_1x1
I0403 16:55:28.063771 20003 net.cpp:91] Creating Layer inception_4a/relu_1x1
I0403 16:55:28.063791 20003 net.cpp:425] inception_4a/relu_1x1 <- inception_4a/1x1
I0403 16:55:28.063817 20003 net.cpp:386] inception_4a/relu_1x1 -> inception_4a/1x1 (in-place)
I0403 16:55:28.064034 20003 net.cpp:141] Setting up inception_4a/relu_1x1
I0403 16:55:28.064065 20003 net.cpp:148] Top shape: 24 192 14 14 (903168)
I0403 16:55:28.064085 20003 net.cpp:156] Memory required for data: 861623328
I0403 16:55:28.064103 20003 layer_factory.hpp:77] Creating layer inception_4a/3x3_reduce
I0403 16:55:28.064131 20003 net.cpp:91] Creating Layer inception_4a/3x3_reduce
I0403 16:55:28.064153 20003 net.cpp:425] inception_4a/3x3_reduce <- pool3/3x3_s2_pool3/3x3_s2_0_split_1
I0403 16:55:28.064179 20003 net.cpp:399] inception_4a/3x3_reduce -> inception_4a/3x3_reduce
I0403 16:55:28.065742 20003 net.cpp:141] Setting up inception_4a/3x3_reduce
I0403 16:55:28.065778 20003 net.cpp:148] Top shape: 24 96 14 14 (451584)
I0403 16:55:28.065799 20003 net.cpp:156] Memory required for data: 863429664
I0403 16:55:28.065831 20003 layer_factory.hpp:77] Creating layer inception_4a/relu_3x3_reduce
I0403 16:55:28.065856 20003 net.cpp:91] Creating Layer inception_4a/relu_3x3_reduce
I0403 16:55:28.065881 20003 net.cpp:425] inception_4a/relu_3x3_reduce <- inception_4a/3x3_reduce
I0403 16:55:28.065902 20003 net.cpp:386] inception_4a/relu_3x3_reduce -> inception_4a/3x3_reduce (in-place)
I0403 16:55:28.066114 20003 net.cpp:141] Setting up inception_4a/relu_3x3_reduce
I0403 16:55:28.066145 20003 net.cpp:148] Top shape: 24 96 14 14 (451584)
I0403 16:55:28.066164 20003 net.cpp:156] Memory required for data: 865236000
I0403 16:55:28.066184 20003 layer_factory.hpp:77] Creating layer inception_4a/3x3
I0403 16:55:28.066211 20003 net.cpp:91] Creating Layer inception_4a/3x3
I0403 16:55:28.066233 20003 net.cpp:425] inception_4a/3x3 <- inception_4a/3x3_reduce
I0403 16:55:28.066259 20003 net.cpp:399] inception_4a/3x3 -> inception_4a/3x3
I0403 16:55:28.069610 20003 net.cpp:141] Setting up inception_4a/3x3
I0403 16:55:28.069646 20003 net.cpp:148] Top shape: 24 208 14 14 (978432)
I0403 16:55:28.069666 20003 net.cpp:156] Memory required for data: 869149728
I0403 16:55:28.069689 20003 layer_factory.hpp:77] Creating layer inception_4a/relu_3x3
I0403 16:55:28.069715 20003 net.cpp:91] Creating Layer inception_4a/relu_3x3
I0403 16:55:28.069736 20003 net.cpp:425] inception_4a/relu_3x3 <- inception_4a/3x3
I0403 16:55:28.069759 20003 net.cpp:386] inception_4a/relu_3x3 -> inception_4a/3x3 (in-place)
I0403 16:55:28.070092 20003 net.cpp:141] Setting up inception_4a/relu_3x3
I0403 16:55:28.070125 20003 net.cpp:148] Top shape: 24 208 14 14 (978432)
I0403 16:55:28.070144 20003 net.cpp:156] Memory required for data: 873063456
I0403 16:55:28.070164 20003 layer_factory.hpp:77] Creating layer inception_4a/5x5_reduce
I0403 16:55:28.070191 20003 net.cpp:91] Creating Layer inception_4a/5x5_reduce
I0403 16:55:28.070214 20003 net.cpp:425] inception_4a/5x5_reduce <- pool3/3x3_s2_pool3/3x3_s2_0_split_2
I0403 16:55:28.070240 20003 net.cpp:399] inception_4a/5x5_reduce -> inception_4a/5x5_reduce
I0403 16:55:28.071487 20003 net.cpp:141] Setting up inception_4a/5x5_reduce
I0403 16:55:28.071522 20003 net.cpp:148] Top shape: 24 16 14 14 (75264)
I0403 16:55:28.071542 20003 net.cpp:156] Memory required for data: 873364512
I0403 16:55:28.071565 20003 layer_factory.hpp:77] Creating layer inception_4a/relu_5x5_reduce
I0403 16:55:28.071590 20003 net.cpp:91] Creating Layer inception_4a/relu_5x5_reduce
I0403 16:55:28.071619 20003 net.cpp:425] inception_4a/relu_5x5_reduce <- inception_4a/5x5_reduce
I0403 16:55:28.071642 20003 net.cpp:386] inception_4a/relu_5x5_reduce -> inception_4a/5x5_reduce (in-place)
I0403 16:55:28.071861 20003 net.cpp:141] Setting up inception_4a/relu_5x5_reduce
I0403 16:55:28.071895 20003 net.cpp:148] Top shape: 24 16 14 14 (75264)
I0403 16:55:28.071916 20003 net.cpp:156] Memory required for data: 873665568
I0403 16:55:28.071934 20003 layer_factory.hpp:77] Creating layer inception_4a/5x5
I0403 16:55:28.071962 20003 net.cpp:91] Creating Layer inception_4a/5x5
I0403 16:55:28.071985 20003 net.cpp:425] inception_4a/5x5 <- inception_4a/5x5_reduce
I0403 16:55:28.072008 20003 net.cpp:399] inception_4a/5x5 -> inception_4a/5x5
I0403 16:55:28.073345 20003 net.cpp:141] Setting up inception_4a/5x5
I0403 16:55:28.073382 20003 net.cpp:148] Top shape: 24 48 14 14 (225792)
I0403 16:55:28.073403 20003 net.cpp:156] Memory required for data: 874568736
I0403 16:55:28.073426 20003 layer_factory.hpp:77] Creating layer inception_4a/relu_5x5
I0403 16:55:28.073448 20003 net.cpp:91] Creating Layer inception_4a/relu_5x5
I0403 16:55:28.073468 20003 net.cpp:425] inception_4a/relu_5x5 <- inception_4a/5x5
I0403 16:55:28.073493 20003 net.cpp:386] inception_4a/relu_5x5 -> inception_4a/5x5 (in-place)
I0403 16:55:28.073719 20003 net.cpp:141] Setting up inception_4a/relu_5x5
I0403 16:55:28.073750 20003 net.cpp:148] Top shape: 24 48 14 14 (225792)
I0403 16:55:28.073770 20003 net.cpp:156] Memory required for data: 875471904
I0403 16:55:28.073787 20003 layer_factory.hpp:77] Creating layer inception_4a/pool
I0403 16:55:28.073809 20003 net.cpp:91] Creating Layer inception_4a/pool
I0403 16:55:28.073829 20003 net.cpp:425] inception_4a/pool <- pool3/3x3_s2_pool3/3x3_s2_0_split_3
I0403 16:55:28.073855 20003 net.cpp:399] inception_4a/pool -> inception_4a/pool
I0403 16:55:28.073931 20003 net.cpp:141] Setting up inception_4a/pool
I0403 16:55:28.073961 20003 net.cpp:148] Top shape: 24 480 14 14 (2257920)
I0403 16:55:28.073979 20003 net.cpp:156] Memory required for data: 884503584
I0403 16:55:28.073997 20003 layer_factory.hpp:77] Creating layer inception_4a/pool_proj
I0403 16:55:28.074026 20003 net.cpp:91] Creating Layer inception_4a/pool_proj
I0403 16:55:28.074049 20003 net.cpp:425] inception_4a/pool_proj <- inception_4a/pool
I0403 16:55:28.074072 20003 net.cpp:399] inception_4a/pool_proj -> inception_4a/pool_proj
I0403 16:55:28.075489 20003 net.cpp:141] Setting up inception_4a/pool_proj
I0403 16:55:28.075527 20003 net.cpp:148] Top shape: 24 64 14 14 (301056)
I0403 16:55:28.075564 20003 net.cpp:156] Memory required for data: 885707808
I0403 16:55:28.075589 20003 layer_factory.hpp:77] Creating layer inception_4a/relu_pool_proj
I0403 16:55:28.075628 20003 net.cpp:91] Creating Layer inception_4a/relu_pool_proj
I0403 16:55:28.075650 20003 net.cpp:425] inception_4a/relu_pool_proj <- inception_4a/pool_proj
I0403 16:55:28.075678 20003 net.cpp:386] inception_4a/relu_pool_proj -> inception_4a/pool_proj (in-place)
I0403 16:55:28.076017 20003 net.cpp:141] Setting up inception_4a/relu_pool_proj
I0403 16:55:28.076053 20003 net.cpp:148] Top shape: 24 64 14 14 (301056)
I0403 16:55:28.076073 20003 net.cpp:156] Memory required for data: 886912032
I0403 16:55:28.076092 20003 layer_factory.hpp:77] Creating layer inception_4a/output
I0403 16:55:28.076115 20003 net.cpp:91] Creating Layer inception_4a/output
I0403 16:55:28.076135 20003 net.cpp:425] inception_4a/output <- inception_4a/1x1
I0403 16:55:28.076155 20003 net.cpp:425] inception_4a/output <- inception_4a/3x3
I0403 16:55:28.076175 20003 net.cpp:425] inception_4a/output <- inception_4a/5x5
I0403 16:55:28.076195 20003 net.cpp:425] inception_4a/output <- inception_4a/pool_proj
I0403 16:55:28.076220 20003 net.cpp:399] inception_4a/output -> inception_4a/output
I0403 16:55:28.076277 20003 net.cpp:141] Setting up inception_4a/output
I0403 16:55:28.076305 20003 net.cpp:148] Top shape: 24 512 14 14 (2408448)
I0403 16:55:28.076323 20003 net.cpp:156] Memory required for data: 896545824
I0403 16:55:28.076342 20003 layer_factory.hpp:77] Creating layer inception_4a/output_inception_4a/output_0_split
I0403 16:55:28.076367 20003 net.cpp:91] Creating Layer inception_4a/output_inception_4a/output_0_split
I0403 16:55:28.076388 20003 net.cpp:425] inception_4a/output_inception_4a/output_0_split <- inception_4a/output
I0403 16:55:28.076411 20003 net.cpp:399] inception_4a/output_inception_4a/output_0_split -> inception_4a/output_inception_4a/output_0_split_0
I0403 16:55:28.076443 20003 net.cpp:399] inception_4a/output_inception_4a/output_0_split -> inception_4a/output_inception_4a/output_0_split_1
I0403 16:55:28.076472 20003 net.cpp:399] inception_4a/output_inception_4a/output_0_split -> inception_4a/output_inception_4a/output_0_split_2
I0403 16:55:28.076498 20003 net.cpp:399] inception_4a/output_inception_4a/output_0_split -> inception_4a/output_inception_4a/output_0_split_3
I0403 16:55:28.076524 20003 net.cpp:399] inception_4a/output_inception_4a/output_0_split -> inception_4a/output_inception_4a/output_0_split_4
I0403 16:55:28.076643 20003 net.cpp:141] Setting up inception_4a/output_inception_4a/output_0_split
I0403 16:55:28.076674 20003 net.cpp:148] Top shape: 24 512 14 14 (2408448)
I0403 16:55:28.076695 20003 net.cpp:148] Top shape: 24 512 14 14 (2408448)
I0403 16:55:28.076716 20003 net.cpp:148] Top shape: 24 512 14 14 (2408448)
I0403 16:55:28.076735 20003 net.cpp:148] Top shape: 24 512 14 14 (2408448)
I0403 16:55:28.076755 20003 net.cpp:148] Top shape: 24 512 14 14 (2408448)
I0403 16:55:28.076772 20003 net.cpp:156] Memory required for data: 944714784
I0403 16:55:28.076792 20003 layer_factory.hpp:77] Creating layer loss1/ave_pool
I0403 16:55:28.076815 20003 net.cpp:91] Creating Layer loss1/ave_pool
I0403 16:55:28.076838 20003 net.cpp:425] loss1/ave_pool <- inception_4a/output_inception_4a/output_0_split_0
I0403 16:55:28.076860 20003 net.cpp:399] loss1/ave_pool -> loss1/ave_pool
I0403 16:55:28.077112 20003 net.cpp:141] Setting up loss1/ave_pool
I0403 16:55:28.077147 20003 net.cpp:148] Top shape: 24 512 4 4 (196608)
I0403 16:55:28.077167 20003 net.cpp:156] Memory required for data: 945501216
I0403 16:55:28.077185 20003 layer_factory.hpp:77] Creating layer loss1/conv
I0403 16:55:28.077214 20003 net.cpp:91] Creating Layer loss1/conv
I0403 16:55:28.077234 20003 net.cpp:425] loss1/conv <- loss1/ave_pool
I0403 16:55:28.077257 20003 net.cpp:399] loss1/conv -> loss1/conv
I0403 16:55:28.078989 20003 net.cpp:141] Setting up loss1/conv
I0403 16:55:28.079023 20003 net.cpp:148] Top shape: 24 128 4 4 (49152)
I0403 16:55:28.079043 20003 net.cpp:156] Memory required for data: 945697824
I0403 16:55:28.079085 20003 layer_factory.hpp:77] Creating layer loss1/relu_conv
I0403 16:55:28.079113 20003 net.cpp:91] Creating Layer loss1/relu_conv
I0403 16:55:28.079134 20003 net.cpp:425] loss1/relu_conv <- loss1/conv
I0403 16:55:28.079156 20003 net.cpp:386] loss1/relu_conv -> loss1/conv (in-place)
I0403 16:55:28.079496 20003 net.cpp:141] Setting up loss1/relu_conv
I0403 16:55:28.079530 20003 net.cpp:148] Top shape: 24 128 4 4 (49152)
I0403 16:55:28.079548 20003 net.cpp:156] Memory required for data: 945894432
I0403 16:55:28.079567 20003 layer_factory.hpp:77] Creating layer loss1/fc
I0403 16:55:28.079599 20003 net.cpp:91] Creating Layer loss1/fc
I0403 16:55:28.079628 20003 net.cpp:425] loss1/fc <- loss1/conv
I0403 16:55:28.079653 20003 net.cpp:399] loss1/fc -> loss1/fc
I0403 16:55:28.101550 20003 net.cpp:141] Setting up loss1/fc
I0403 16:55:28.101593 20003 net.cpp:148] Top shape: 24 1024 (24576)
I0403 16:55:28.101620 20003 net.cpp:156] Memory required for data: 945992736
I0403 16:55:28.101644 20003 layer_factory.hpp:77] Creating layer loss1/relu_fc
I0403 16:55:28.101667 20003 net.cpp:91] Creating Layer loss1/relu_fc
I0403 16:55:28.101688 20003 net.cpp:425] loss1/relu_fc <- loss1/fc
I0403 16:55:28.101712 20003 net.cpp:386] loss1/relu_fc -> loss1/fc (in-place)
I0403 16:55:28.101943 20003 net.cpp:141] Setting up loss1/relu_fc
I0403 16:55:28.101974 20003 net.cpp:148] Top shape: 24 1024 (24576)
I0403 16:55:28.101994 20003 net.cpp:156] Memory required for data: 946091040
I0403 16:55:28.102012 20003 layer_factory.hpp:77] Creating layer loss1/drop_fc
I0403 16:55:28.102044 20003 net.cpp:91] Creating Layer loss1/drop_fc
I0403 16:55:28.102066 20003 net.cpp:425] loss1/drop_fc <- loss1/fc
I0403 16:55:28.102092 20003 net.cpp:386] loss1/drop_fc -> loss1/fc (in-place)
I0403 16:55:28.102155 20003 net.cpp:141] Setting up loss1/drop_fc
I0403 16:55:28.102188 20003 net.cpp:148] Top shape: 24 1024 (24576)
I0403 16:55:28.102208 20003 net.cpp:156] Memory required for data: 946189344
I0403 16:55:28.102227 20003 layer_factory.hpp:77] Creating layer loss1/classifier_plantvillage
I0403 16:55:28.102251 20003 net.cpp:91] Creating Layer loss1/classifier_plantvillage
I0403 16:55:28.102272 20003 net.cpp:425] loss1/classifier_plantvillage <- loss1/fc
I0403 16:55:28.102299 20003 net.cpp:399] loss1/classifier_plantvillage -> loss1/classifier_plantvillage
I0403 16:55:28.103394 20003 net.cpp:141] Setting up loss1/classifier_plantvillage
I0403 16:55:28.103430 20003 net.cpp:148] Top shape: 24 38 (912)
I0403 16:55:28.103448 20003 net.cpp:156] Memory required for data: 946192992
I0403 16:55:28.103471 20003 layer_factory.hpp:77] Creating layer loss1/classifier_plantvillage_loss1/classifier_plantvillage_0_split
I0403 16:55:28.103492 20003 net.cpp:91] Creating Layer loss1/classifier_plantvillage_loss1/classifier_plantvillage_0_split
I0403 16:55:28.103512 20003 net.cpp:425] loss1/classifier_plantvillage_loss1/classifier_plantvillage_0_split <- loss1/classifier_plantvillage
I0403 16:55:28.103538 20003 net.cpp:399] loss1/classifier_plantvillage_loss1/classifier_plantvillage_0_split -> loss1/classifier_plantvillage_loss1/classifier_plantvillage_0_split_0
I0403 16:55:28.103564 20003 net.cpp:399] loss1/classifier_plantvillage_loss1/classifier_plantvillage_0_split -> loss1/classifier_plantvillage_loss1/classifier_plantvillage_0_split_1
I0403 16:55:28.103590 20003 net.cpp:399] loss1/classifier_plantvillage_loss1/classifier_plantvillage_0_split -> loss1/classifier_plantvillage_loss1/classifier_plantvillage_0_split_2
I0403 16:55:28.103684 20003 net.cpp:141] Setting up loss1/classifier_plantvillage_loss1/classifier_plantvillage_0_split
I0403 16:55:28.103713 20003 net.cpp:148] Top shape: 24 38 (912)
I0403 16:55:28.103734 20003 net.cpp:148] Top shape: 24 38 (912)
I0403 16:55:28.103755 20003 net.cpp:148] Top shape: 24 38 (912)
I0403 16:55:28.103773 20003 net.cpp:156] Memory required for data: 946203936
I0403 16:55:28.103791 20003 layer_factory.hpp:77] Creating layer inception_4b/1x1
I0403 16:55:28.103819 20003 net.cpp:91] Creating Layer inception_4b/1x1
I0403 16:55:28.103859 20003 net.cpp:425] inception_4b/1x1 <- inception_4a/output_inception_4a/output_0_split_1
I0403 16:55:28.103885 20003 net.cpp:399] inception_4b/1x1 -> inception_4b/1x1
I0403 16:55:28.105896 20003 net.cpp:141] Setting up inception_4b/1x1
I0403 16:55:28.105932 20003 net.cpp:148] Top shape: 24 160 14 14 (752640)
I0403 16:55:28.105953 20003 net.cpp:156] Memory required for data: 949214496
I0403 16:55:28.105976 20003 layer_factory.hpp:77] Creating layer inception_4b/relu_1x1
I0403 16:55:28.106004 20003 net.cpp:91] Creating Layer inception_4b/relu_1x1
I0403 16:55:28.106026 20003 net.cpp:425] inception_4b/relu_1x1 <- inception_4b/1x1
I0403 16:55:28.106050 20003 net.cpp:386] inception_4b/relu_1x1 -> inception_4b/1x1 (in-place)
I0403 16:55:28.106272 20003 net.cpp:141] Setting up inception_4b/relu_1x1
I0403 16:55:28.106307 20003 net.cpp:148] Top shape: 24 160 14 14 (752640)
I0403 16:55:28.106328 20003 net.cpp:156] Memory required for data: 952225056
I0403 16:55:28.106346 20003 layer_factory.hpp:77] Creating layer inception_4b/3x3_reduce
I0403 16:55:28.106376 20003 net.cpp:91] Creating Layer inception_4b/3x3_reduce
I0403 16:55:28.106400 20003 net.cpp:425] inception_4b/3x3_reduce <- inception_4a/output_inception_4a/output_0_split_2
I0403 16:55:28.106425 20003 net.cpp:399] inception_4b/3x3_reduce -> inception_4b/3x3_reduce
I0403 16:55:28.108083 20003 net.cpp:141] Setting up inception_4b/3x3_reduce
I0403 16:55:28.108122 20003 net.cpp:148] Top shape: 24 112 14 14 (526848)
I0403 16:55:28.108144 20003 net.cpp:156] Memory required for data: 954332448
I0403 16:55:28.108167 20003 layer_factory.hpp:77] Creating layer inception_4b/relu_3x3_reduce
I0403 16:55:28.108191 20003 net.cpp:91] Creating Layer inception_4b/relu_3x3_reduce
I0403 16:55:28.108211 20003 net.cpp:425] inception_4b/relu_3x3_reduce <- inception_4b/3x3_reduce
I0403 16:55:28.108233 20003 net.cpp:386] inception_4b/relu_3x3_reduce -> inception_4b/3x3_reduce (in-place)
I0403 16:55:28.108572 20003 net.cpp:141] Setting up inception_4b/relu_3x3_reduce
I0403 16:55:28.108613 20003 net.cpp:148] Top shape: 24 112 14 14 (526848)
I0403 16:55:28.108635 20003 net.cpp:156] Memory required for data: 956439840
I0403 16:55:28.108654 20003 layer_factory.hpp:77] Creating layer inception_4b/3x3
I0403 16:55:28.108680 20003 net.cpp:91] Creating Layer inception_4b/3x3
I0403 16:55:28.108701 20003 net.cpp:425] inception_4b/3x3 <- inception_4b/3x3_reduce
I0403 16:55:28.108727 20003 net.cpp:399] inception_4b/3x3 -> inception_4b/3x3
I0403 16:55:28.112359 20003 net.cpp:141] Setting up inception_4b/3x3
I0403 16:55:28.112396 20003 net.cpp:148] Top shape: 24 224 14 14 (1053696)
I0403 16:55:28.112414 20003 net.cpp:156] Memory required for data: 960654624
I0403 16:55:28.112438 20003 layer_factory.hpp:77] Creating layer inception_4b/relu_3x3
I0403 16:55:28.112462 20003 net.cpp:91] Creating Layer inception_4b/relu_3x3
I0403 16:55:28.112483 20003 net.cpp:425] inception_4b/relu_3x3 <- inception_4b/3x3
I0403 16:55:28.112505 20003 net.cpp:386] inception_4b/relu_3x3 -> inception_4b/3x3 (in-place)
I0403 16:55:28.112740 20003 net.cpp:141] Setting up inception_4b/relu_3x3
I0403 16:55:28.112772 20003 net.cpp:148] Top shape: 24 224 14 14 (1053696)
I0403 16:55:28.112792 20003 net.cpp:156] Memory required for data: 964869408
I0403 16:55:28.112812 20003 layer_factory.hpp:77] Creating layer inception_4b/5x5_reduce
I0403 16:55:28.112840 20003 net.cpp:91] Creating Layer inception_4b/5x5_reduce
I0403 16:55:28.112861 20003 net.cpp:425] inception_4b/5x5_reduce <- inception_4a/output_inception_4a/output_0_split_3
I0403 16:55:28.112890 20003 net.cpp:399] inception_4b/5x5_reduce -> inception_4b/5x5_reduce
I0403 16:55:28.114223 20003 net.cpp:141] Setting up inception_4b/5x5_reduce
I0403 16:55:28.114256 20003 net.cpp:148] Top shape: 24 24 14 14 (112896)
I0403 16:55:28.114276 20003 net.cpp:156] Memory required for data: 965320992
I0403 16:55:28.114300 20003 layer_factory.hpp:77] Creating layer inception_4b/relu_5x5_reduce
I0403 16:55:28.114326 20003 net.cpp:91] Creating Layer inception_4b/relu_5x5_reduce
I0403 16:55:28.114364 20003 net.cpp:425] inception_4b/relu_5x5_reduce <- inception_4b/5x5_reduce
I0403 16:55:28.114388 20003 net.cpp:386] inception_4b/relu_5x5_reduce -> inception_4b/5x5_reduce (in-place)
I0403 16:55:28.114632 20003 net.cpp:141] Setting up inception_4b/relu_5x5_reduce
I0403 16:55:28.114666 20003 net.cpp:148] Top shape: 24 24 14 14 (112896)
I0403 16:55:28.114687 20003 net.cpp:156] Memory required for data: 965772576
I0403 16:55:28.114706 20003 layer_factory.hpp:77] Creating layer inception_4b/5x5
I0403 16:55:28.114734 20003 net.cpp:91] Creating Layer inception_4b/5x5
I0403 16:55:28.114755 20003 net.cpp:425] inception_4b/5x5 <- inception_4b/5x5_reduce
I0403 16:55:28.114779 20003 net.cpp:399] inception_4b/5x5 -> inception_4b/5x5
I0403 16:55:28.116284 20003 net.cpp:141] Setting up inception_4b/5x5
I0403 16:55:28.116319 20003 net.cpp:148] Top shape: 24 64 14 14 (301056)
I0403 16:55:28.116340 20003 net.cpp:156] Memory required for data: 966976800
I0403 16:55:28.116364 20003 layer_factory.hpp:77] Creating layer inception_4b/relu_5x5
I0403 16:55:28.116389 20003 net.cpp:91] Creating Layer inception_4b/relu_5x5
I0403 16:55:28.116410 20003 net.cpp:425] inception_4b/relu_5x5 <- inception_4b/5x5
I0403 16:55:28.116433 20003 net.cpp:386] inception_4b/relu_5x5 -> inception_4b/5x5 (in-place)
I0403 16:55:28.116785 20003 net.cpp:141] Setting up inception_4b/relu_5x5
I0403 16:55:28.116816 20003 net.cpp:148] Top shape: 24 64 14 14 (301056)
I0403 16:55:28.116837 20003 net.cpp:156] Memory required for data: 968181024
I0403 16:55:28.116855 20003 layer_factory.hpp:77] Creating layer inception_4b/pool
I0403 16:55:28.116878 20003 net.cpp:91] Creating Layer inception_4b/pool
I0403 16:55:28.116897 20003 net.cpp:425] inception_4b/pool <- inception_4a/output_inception_4a/output_0_split_4
I0403 16:55:28.116925 20003 net.cpp:399] inception_4b/pool -> inception_4b/pool
I0403 16:55:28.117007 20003 net.cpp:141] Setting up inception_4b/pool
I0403 16:55:28.117038 20003 net.cpp:148] Top shape: 24 512 14 14 (2408448)
I0403 16:55:28.117056 20003 net.cpp:156] Memory required for data: 977814816
I0403 16:55:28.117075 20003 layer_factory.hpp:77] Creating layer inception_4b/pool_proj
I0403 16:55:28.117102 20003 net.cpp:91] Creating Layer inception_4b/pool_proj
I0403 16:55:28.117125 20003 net.cpp:425] inception_4b/pool_proj <- inception_4b/pool
I0403 16:55:28.117152 20003 net.cpp:399] inception_4b/pool_proj -> inception_4b/pool_proj
I0403 16:55:28.118643 20003 net.cpp:141] Setting up inception_4b/pool_proj
I0403 16:55:28.118677 20003 net.cpp:148] Top shape: 24 64 14 14 (301056)
I0403 16:55:28.118697 20003 net.cpp:156] Memory required for data: 979019040
I0403 16:55:28.118719 20003 layer_factory.hpp:77] Creating layer inception_4b/relu_pool_proj
I0403 16:55:28.118746 20003 net.cpp:91] Creating Layer inception_4b/relu_pool_proj
I0403 16:55:28.118768 20003 net.cpp:425] inception_4b/relu_pool_proj <- inception_4b/pool_proj
I0403 16:55:28.118791 20003 net.cpp:386] inception_4b/relu_pool_proj -> inception_4b/pool_proj (in-place)
I0403 16:55:28.119014 20003 net.cpp:141] Setting up inception_4b/relu_pool_proj
I0403 16:55:28.119046 20003 net.cpp:148] Top shape: 24 64 14 14 (301056)
I0403 16:55:28.119065 20003 net.cpp:156] Memory required for data: 980223264
I0403 16:55:28.119086 20003 layer_factory.hpp:77] Creating layer inception_4b/output
I0403 16:55:28.119107 20003 net.cpp:91] Creating Layer inception_4b/output
I0403 16:55:28.119127 20003 net.cpp:425] inception_4b/output <- inception_4b/1x1
I0403 16:55:28.119148 20003 net.cpp:425] inception_4b/output <- inception_4b/3x3
I0403 16:55:28.119168 20003 net.cpp:425] inception_4b/output <- inception_4b/5x5
I0403 16:55:28.119187 20003 net.cpp:425] inception_4b/output <- inception_4b/pool_proj
I0403 16:55:28.119209 20003 net.cpp:399] inception_4b/output -> inception_4b/output
I0403 16:55:28.119268 20003 net.cpp:141] Setting up inception_4b/output
I0403 16:55:28.119297 20003 net.cpp:148] Top shape: 24 512 14 14 (2408448)
I0403 16:55:28.119316 20003 net.cpp:156] Memory required for data: 989857056
I0403 16:55:28.119351 20003 layer_factory.hpp:77] Creating layer inception_4b/output_inception_4b/output_0_split
I0403 16:55:28.119377 20003 net.cpp:91] Creating Layer inception_4b/output_inception_4b/output_0_split
I0403 16:55:28.119397 20003 net.cpp:425] inception_4b/output_inception_4b/output_0_split <- inception_4b/output
I0403 16:55:28.119421 20003 net.cpp:399] inception_4b/output_inception_4b/output_0_split -> inception_4b/output_inception_4b/output_0_split_0
I0403 16:55:28.119447 20003 net.cpp:399] inception_4b/output_inception_4b/output_0_split -> inception_4b/output_inception_4b/output_0_split_1
I0403 16:55:28.119474 20003 net.cpp:399] inception_4b/output_inception_4b/output_0_split -> inception_4b/output_inception_4b/output_0_split_2
I0403 16:55:28.119500 20003 net.cpp:399] inception_4b/output_inception_4b/output_0_split -> inception_4b/output_inception_4b/output_0_split_3
I0403 16:55:28.119617 20003 net.cpp:141] Setting up inception_4b/output_inception_4b/output_0_split
I0403 16:55:28.119647 20003 net.cpp:148] Top shape: 24 512 14 14 (2408448)
I0403 16:55:28.119668 20003 net.cpp:148] Top shape: 24 512 14 14 (2408448)
I0403 16:55:28.119689 20003 net.cpp:148] Top shape: 24 512 14 14 (2408448)
I0403 16:55:28.119709 20003 net.cpp:148] Top shape: 24 512 14 14 (2408448)
I0403 16:55:28.119726 20003 net.cpp:156] Memory required for data: 1028392224
I0403 16:55:28.119743 20003 layer_factory.hpp:77] Creating layer inception_4c/1x1
I0403 16:55:28.119771 20003 net.cpp:91] Creating Layer inception_4c/1x1
I0403 16:55:28.119793 20003 net.cpp:425] inception_4c/1x1 <- inception_4b/output_inception_4b/output_0_split_0
I0403 16:55:28.119822 20003 net.cpp:399] inception_4c/1x1 -> inception_4c/1x1
I0403 16:55:28.121579 20003 net.cpp:141] Setting up inception_4c/1x1
I0403 16:55:28.121625 20003 net.cpp:148] Top shape: 24 128 14 14 (602112)
I0403 16:55:28.121649 20003 net.cpp:156] Memory required for data: 1030800672
I0403 16:55:28.121671 20003 layer_factory.hpp:77] Creating layer inception_4c/relu_1x1
I0403 16:55:28.121693 20003 net.cpp:91] Creating Layer inception_4c/relu_1x1
I0403 16:55:28.121714 20003 net.cpp:425] inception_4c/relu_1x1 <- inception_4c/1x1
I0403 16:55:28.121739 20003 net.cpp:386] inception_4c/relu_1x1 -> inception_4c/1x1 (in-place)
I0403 16:55:28.121966 20003 net.cpp:141] Setting up inception_4c/relu_1x1
I0403 16:55:28.121997 20003 net.cpp:148] Top shape: 24 128 14 14 (602112)
I0403 16:55:28.122016 20003 net.cpp:156] Memory required for data: 1033209120
I0403 16:55:28.122035 20003 layer_factory.hpp:77] Creating layer inception_4c/3x3_reduce
I0403 16:55:28.122062 20003 net.cpp:91] Creating Layer inception_4c/3x3_reduce
I0403 16:55:28.122086 20003 net.cpp:425] inception_4c/3x3_reduce <- inception_4b/output_inception_4b/output_0_split_1
I0403 16:55:28.122112 20003 net.cpp:399] inception_4c/3x3_reduce -> inception_4c/3x3_reduce
I0403 16:55:28.124460 20003 net.cpp:141] Setting up inception_4c/3x3_reduce
I0403 16:55:28.124496 20003 net.cpp:148] Top shape: 24 128 14 14 (602112)
I0403 16:55:28.124517 20003 net.cpp:156] Memory required for data: 1035617568
I0403 16:55:28.124541 20003 layer_factory.hpp:77] Creating layer inception_4c/relu_3x3_reduce
I0403 16:55:28.124568 20003 net.cpp:91] Creating Layer inception_4c/relu_3x3_reduce
I0403 16:55:28.124590 20003 net.cpp:425] inception_4c/relu_3x3_reduce <- inception_4c/3x3_reduce
I0403 16:55:28.124629 20003 net.cpp:386] inception_4c/relu_3x3_reduce -> inception_4c/3x3_reduce (in-place)
I0403 16:55:28.124980 20003 net.cpp:141] Setting up inception_4c/relu_3x3_reduce
I0403 16:55:28.125013 20003 net.cpp:148] Top shape: 24 128 14 14 (602112)
I0403 16:55:28.125031 20003 net.cpp:156] Memory required for data: 1038026016
I0403 16:55:28.125051 20003 layer_factory.hpp:77] Creating layer inception_4c/3x3
I0403 16:55:28.125077 20003 net.cpp:91] Creating Layer inception_4c/3x3
I0403 16:55:28.125099 20003 net.cpp:425] inception_4c/3x3 <- inception_4c/3x3_reduce
I0403 16:55:28.125125 20003 net.cpp:399] inception_4c/3x3 -> inception_4c/3x3
I0403 16:55:28.129511 20003 net.cpp:141] Setting up inception_4c/3x3
I0403 16:55:28.129562 20003 net.cpp:148] Top shape: 24 256 14 14 (1204224)
I0403 16:55:28.129583 20003 net.cpp:156] Memory required for data: 1042842912
I0403 16:55:28.129633 20003 layer_factory.hpp:77] Creating layer inception_4c/relu_3x3
I0403 16:55:28.129663 20003 net.cpp:91] Creating Layer inception_4c/relu_3x3
I0403 16:55:28.129685 20003 net.cpp:425] inception_4c/relu_3x3 <- inception_4c/3x3
I0403 16:55:28.129709 20003 net.cpp:386] inception_4c/relu_3x3 -> inception_4c/3x3 (in-place)
I0403 16:55:28.129933 20003 net.cpp:141] Setting up inception_4c/relu_3x3
I0403 16:55:28.129966 20003 net.cpp:148] Top shape: 24 256 14 14 (1204224)
I0403 16:55:28.129984 20003 net.cpp:156] Memory required for data: 1047659808
I0403 16:55:28.130003 20003 layer_factory.hpp:77] Creating layer inception_4c/5x5_reduce
I0403 16:55:28.130031 20003 net.cpp:91] Creating Layer inception_4c/5x5_reduce
I0403 16:55:28.130053 20003 net.cpp:425] inception_4c/5x5_reduce <- inception_4b/output_inception_4b/output_0_split_2
I0403 16:55:28.130081 20003 net.cpp:399] inception_4c/5x5_reduce -> inception_4c/5x5_reduce
I0403 16:55:28.131428 20003 net.cpp:141] Setting up inception_4c/5x5_reduce
I0403 16:55:28.131464 20003 net.cpp:148] Top shape: 24 24 14 14 (112896)
I0403 16:55:28.131484 20003 net.cpp:156] Memory required for data: 1048111392
I0403 16:55:28.131507 20003 layer_factory.hpp:77] Creating layer inception_4c/relu_5x5_reduce
I0403 16:55:28.131532 20003 net.cpp:91] Creating Layer inception_4c/relu_5x5_reduce
I0403 16:55:28.131554 20003 net.cpp:425] inception_4c/relu_5x5_reduce <- inception_4c/5x5_reduce
I0403 16:55:28.131577 20003 net.cpp:386] inception_4c/relu_5x5_reduce -> inception_4c/5x5_reduce (in-place)
I0403 16:55:28.131813 20003 net.cpp:141] Setting up inception_4c/relu_5x5_reduce
I0403 16:55:28.131846 20003 net.cpp:148] Top shape: 24 24 14 14 (112896)
I0403 16:55:28.131866 20003 net.cpp:156] Memory required for data: 1048562976
I0403 16:55:28.131885 20003 layer_factory.hpp:77] Creating layer inception_4c/5x5
I0403 16:55:28.131912 20003 net.cpp:91] Creating Layer inception_4c/5x5
I0403 16:55:28.131934 20003 net.cpp:425] inception_4c/5x5 <- inception_4c/5x5_reduce
I0403 16:55:28.131958 20003 net.cpp:399] inception_4c/5x5 -> inception_4c/5x5
I0403 16:55:28.133487 20003 net.cpp:141] Setting up inception_4c/5x5
I0403 16:55:28.133525 20003 net.cpp:148] Top shape: 24 64 14 14 (301056)
I0403 16:55:28.133546 20003 net.cpp:156] Memory required for data: 1049767200
I0403 16:55:28.133570 20003 layer_factory.hpp:77] Creating layer inception_4c/relu_5x5
I0403 16:55:28.133592 20003 net.cpp:91] Creating Layer inception_4c/relu_5x5
I0403 16:55:28.133621 20003 net.cpp:425] inception_4c/relu_5x5 <- inception_4c/5x5
I0403 16:55:28.133646 20003 net.cpp:386] inception_4c/relu_5x5 -> inception_4c/5x5 (in-place)
I0403 16:55:28.134007 20003 net.cpp:141] Setting up inception_4c/relu_5x5
I0403 16:55:28.134042 20003 net.cpp:148] Top shape: 24 64 14 14 (301056)
I0403 16:55:28.134063 20003 net.cpp:156] Memory required for data: 1050971424
I0403 16:55:28.134083 20003 layer_factory.hpp:77] Creating layer inception_4c/pool
I0403 16:55:28.134105 20003 net.cpp:91] Creating Layer inception_4c/pool
I0403 16:55:28.134127 20003 net.cpp:425] inception_4c/pool <- inception_4b/output_inception_4b/output_0_split_3
I0403 16:55:28.134151 20003 net.cpp:399] inception_4c/pool -> inception_4c/pool
I0403 16:55:28.134233 20003 net.cpp:141] Setting up inception_4c/pool
I0403 16:55:28.134263 20003 net.cpp:148] Top shape: 24 512 14 14 (2408448)
I0403 16:55:28.134282 20003 net.cpp:156] Memory required for data: 1060605216
I0403 16:55:28.134300 20003 layer_factory.hpp:77] Creating layer inception_4c/pool_proj
I0403 16:55:28.134328 20003 net.cpp:91] Creating Layer inception_4c/pool_proj
I0403 16:55:28.134351 20003 net.cpp:425] inception_4c/pool_proj <- inception_4c/pool
I0403 16:55:28.134377 20003 net.cpp:399] inception_4c/pool_proj -> inception_4c/pool_proj
I0403 16:55:28.135897 20003 net.cpp:141] Setting up inception_4c/pool_proj
I0403 16:55:28.135932 20003 net.cpp:148] Top shape: 24 64 14 14 (301056)
I0403 16:55:28.135968 20003 net.cpp:156] Memory required for data: 1061809440
I0403 16:55:28.135993 20003 layer_factory.hpp:77] Creating layer inception_4c/relu_pool_proj
I0403 16:55:28.136020 20003 net.cpp:91] Creating Layer inception_4c/relu_pool_proj
I0403 16:55:28.136042 20003 net.cpp:425] inception_4c/relu_pool_proj <- inception_4c/pool_proj
I0403 16:55:28.136065 20003 net.cpp:386] inception_4c/relu_pool_proj -> inception_4c/pool_proj (in-place)
I0403 16:55:28.136291 20003 net.cpp:141] Setting up inception_4c/relu_pool_proj
I0403 16:55:28.136327 20003 net.cpp:148] Top shape: 24 64 14 14 (301056)
I0403 16:55:28.136346 20003 net.cpp:156] Memory required for data: 1063013664
I0403 16:55:28.136366 20003 layer_factory.hpp:77] Creating layer inception_4c/output
I0403 16:55:28.136387 20003 net.cpp:91] Creating Layer inception_4c/output
I0403 16:55:28.136406 20003 net.cpp:425] inception_4c/output <- inception_4c/1x1
I0403 16:55:28.136426 20003 net.cpp:425] inception_4c/output <- inception_4c/3x3
I0403 16:55:28.136446 20003 net.cpp:425] inception_4c/output <- inception_4c/5x5
I0403 16:55:28.136466 20003 net.cpp:425] inception_4c/output <- inception_4c/pool_proj
I0403 16:55:28.136489 20003 net.cpp:399] inception_4c/output -> inception_4c/output
I0403 16:55:28.136549 20003 net.cpp:141] Setting up inception_4c/output
I0403 16:55:28.136579 20003 net.cpp:148] Top shape: 24 512 14 14 (2408448)
I0403 16:55:28.136597 20003 net.cpp:156] Memory required for data: 1072647456
I0403 16:55:28.136625 20003 layer_factory.hpp:77] Creating layer inception_4c/output_inception_4c/output_0_split
I0403 16:55:28.136651 20003 net.cpp:91] Creating Layer inception_4c/output_inception_4c/output_0_split
I0403 16:55:28.136672 20003 net.cpp:425] inception_4c/output_inception_4c/output_0_split <- inception_4c/output
I0403 16:55:28.136695 20003 net.cpp:399] inception_4c/output_inception_4c/output_0_split -> inception_4c/output_inception_4c/output_0_split_0
I0403 16:55:28.136720 20003 net.cpp:399] inception_4c/output_inception_4c/output_0_split -> inception_4c/output_inception_4c/output_0_split_1
I0403 16:55:28.136746 20003 net.cpp:399] inception_4c/output_inception_4c/output_0_split -> inception_4c/output_inception_4c/output_0_split_2
I0403 16:55:28.136771 20003 net.cpp:399] inception_4c/output_inception_4c/output_0_split -> inception_4c/output_inception_4c/output_0_split_3
I0403 16:55:28.136880 20003 net.cpp:141] Setting up inception_4c/output_inception_4c/output_0_split
I0403 16:55:28.136910 20003 net.cpp:148] Top shape: 24 512 14 14 (2408448)
I0403 16:55:28.136931 20003 net.cpp:148] Top shape: 24 512 14 14 (2408448)
I0403 16:55:28.136950 20003 net.cpp:148] Top shape: 24 512 14 14 (2408448)
I0403 16:55:28.136970 20003 net.cpp:148] Top shape: 24 512 14 14 (2408448)
I0403 16:55:28.136986 20003 net.cpp:156] Memory required for data: 1111182624
I0403 16:55:28.137004 20003 layer_factory.hpp:77] Creating layer inception_4d/1x1
I0403 16:55:28.137032 20003 net.cpp:91] Creating Layer inception_4d/1x1
I0403 16:55:28.137054 20003 net.cpp:425] inception_4d/1x1 <- inception_4c/output_inception_4c/output_0_split_0
I0403 16:55:28.137081 20003 net.cpp:399] inception_4d/1x1 -> inception_4d/1x1
I0403 16:55:28.138795 20003 net.cpp:141] Setting up inception_4d/1x1
I0403 16:55:28.138830 20003 net.cpp:148] Top shape: 24 112 14 14 (526848)
I0403 16:55:28.138849 20003 net.cpp:156] Memory required for data: 1113290016
I0403 16:55:28.138873 20003 layer_factory.hpp:77] Creating layer inception_4d/relu_1x1
I0403 16:55:28.138896 20003 net.cpp:91] Creating Layer inception_4d/relu_1x1
I0403 16:55:28.138917 20003 net.cpp:425] inception_4d/relu_1x1 <- inception_4d/1x1
I0403 16:55:28.138942 20003 net.cpp:386] inception_4d/relu_1x1 -> inception_4d/1x1 (in-place)
I0403 16:55:28.139176 20003 net.cpp:141] Setting up inception_4d/relu_1x1
I0403 16:55:28.139206 20003 net.cpp:148] Top shape: 24 112 14 14 (526848)
I0403 16:55:28.139225 20003 net.cpp:156] Memory required for data: 1115397408
I0403 16:55:28.139245 20003 layer_factory.hpp:77] Creating layer inception_4d/3x3_reduce
I0403 16:55:28.139288 20003 net.cpp:91] Creating Layer inception_4d/3x3_reduce
I0403 16:55:28.139312 20003 net.cpp:425] inception_4d/3x3_reduce <- inception_4c/output_inception_4c/output_0_split_1
I0403 16:55:28.139339 20003 net.cpp:399] inception_4d/3x3_reduce -> inception_4d/3x3_reduce
I0403 16:55:28.141211 20003 net.cpp:141] Setting up inception_4d/3x3_reduce
I0403 16:55:28.141249 20003 net.cpp:148] Top shape: 24 144 14 14 (677376)
I0403 16:55:28.141270 20003 net.cpp:156] Memory required for data: 1118106912
I0403 16:55:28.141295 20003 layer_factory.hpp:77] Creating layer inception_4d/relu_3x3_reduce
I0403 16:55:28.141319 20003 net.cpp:91] Creating Layer inception_4d/relu_3x3_reduce
I0403 16:55:28.141340 20003 net.cpp:425] inception_4d/relu_3x3_reduce <- inception_4d/3x3_reduce
I0403 16:55:28.141363 20003 net.cpp:386] inception_4d/relu_3x3_reduce -> inception_4d/3x3_reduce (in-place)
I0403 16:55:28.141737 20003 net.cpp:141] Setting up inception_4d/relu_3x3_reduce
I0403 16:55:28.141772 20003 net.cpp:148] Top shape: 24 144 14 14 (677376)
I0403 16:55:28.141793 20003 net.cpp:156] Memory required for data: 1120816416
I0403 16:55:28.141813 20003 layer_factory.hpp:77] Creating layer inception_4d/3x3
I0403 16:55:28.141839 20003 net.cpp:91] Creating Layer inception_4d/3x3
I0403 16:55:28.141861 20003 net.cpp:425] inception_4d/3x3 <- inception_4d/3x3_reduce
I0403 16:55:28.141885 20003 net.cpp:399] inception_4d/3x3 -> inception_4d/3x3
I0403 16:55:28.147174 20003 net.cpp:141] Setting up inception_4d/3x3
I0403 16:55:28.147212 20003 net.cpp:148] Top shape: 24 288 14 14 (1354752)
I0403 16:55:28.147231 20003 net.cpp:156] Memory required for data: 1126235424
I0403 16:55:28.147255 20003 layer_factory.hpp:77] Creating layer inception_4d/relu_3x3
I0403 16:55:28.147282 20003 net.cpp:91] Creating Layer inception_4d/relu_3x3
I0403 16:55:28.147303 20003 net.cpp:425] inception_4d/relu_3x3 <- inception_4d/3x3
I0403 16:55:28.147325 20003 net.cpp:386] inception_4d/relu_3x3 -> inception_4d/3x3 (in-place)
I0403 16:55:28.147553 20003 net.cpp:141] Setting up inception_4d/relu_3x3
I0403 16:55:28.147585 20003 net.cpp:148] Top shape: 24 288 14 14 (1354752)
I0403 16:55:28.147610 20003 net.cpp:156] Memory required for data: 1131654432
I0403 16:55:28.147630 20003 layer_factory.hpp:77] Creating layer inception_4d/5x5_reduce
I0403 16:55:28.147660 20003 net.cpp:91] Creating Layer inception_4d/5x5_reduce
I0403 16:55:28.147681 20003 net.cpp:425] inception_4d/5x5_reduce <- inception_4c/output_inception_4c/output_0_split_2
I0403 16:55:28.147713 20003 net.cpp:399] inception_4d/5x5_reduce -> inception_4d/5x5_reduce
I0403 16:55:28.149137 20003 net.cpp:141] Setting up inception_4d/5x5_reduce
I0403 16:55:28.149173 20003 net.cpp:148] Top shape: 24 32 14 14 (150528)
I0403 16:55:28.149194 20003 net.cpp:156] Memory required for data: 1132256544
I0403 16:55:28.149216 20003 layer_factory.hpp:77] Creating layer inception_4d/relu_5x5_reduce
I0403 16:55:28.149240 20003 net.cpp:91] Creating Layer inception_4d/relu_5x5_reduce
I0403 16:55:28.149260 20003 net.cpp:425] inception_4d/relu_5x5_reduce <- inception_4d/5x5_reduce
I0403 16:55:28.149284 20003 net.cpp:386] inception_4d/relu_5x5_reduce -> inception_4d/5x5_reduce (in-place)
I0403 16:55:28.149518 20003 net.cpp:141] Setting up inception_4d/relu_5x5_reduce
I0403 16:55:28.149550 20003 net.cpp:148] Top shape: 24 32 14 14 (150528)
I0403 16:55:28.149569 20003 net.cpp:156] Memory required for data: 1132858656
I0403 16:55:28.149588 20003 layer_factory.hpp:77] Creating layer inception_4d/5x5
I0403 16:55:28.149623 20003 net.cpp:91] Creating Layer inception_4d/5x5
I0403 16:55:28.149647 20003 net.cpp:425] inception_4d/5x5 <- inception_4d/5x5_reduce
I0403 16:55:28.149675 20003 net.cpp:399] inception_4d/5x5 -> inception_4d/5x5
I0403 16:55:28.151484 20003 net.cpp:141] Setting up inception_4d/5x5
I0403 16:55:28.151517 20003 net.cpp:148] Top shape: 24 64 14 14 (301056)
I0403 16:55:28.151542 20003 net.cpp:156] Memory required for data: 1134062880
I0403 16:55:28.151566 20003 layer_factory.hpp:77] Creating layer inception_4d/relu_5x5
I0403 16:55:28.151613 20003 net.cpp:91] Creating Layer inception_4d/relu_5x5
I0403 16:55:28.151638 20003 net.cpp:425] inception_4d/relu_5x5 <- inception_4d/5x5
I0403 16:55:28.151660 20003 net.cpp:386] inception_4d/relu_5x5 -> inception_4d/5x5 (in-place)
I0403 16:55:28.152027 20003 net.cpp:141] Setting up inception_4d/relu_5x5
I0403 16:55:28.152060 20003 net.cpp:148] Top shape: 24 64 14 14 (301056)
I0403 16:55:28.152083 20003 net.cpp:156] Memory required for data: 1135267104
I0403 16:55:28.152103 20003 layer_factory.hpp:77] Creating layer inception_4d/pool
I0403 16:55:28.152127 20003 net.cpp:91] Creating Layer inception_4d/pool
I0403 16:55:28.152146 20003 net.cpp:425] inception_4d/pool <- inception_4c/output_inception_4c/output_0_split_3
I0403 16:55:28.152169 20003 net.cpp:399] inception_4d/pool -> inception_4d/pool
I0403 16:55:28.152252 20003 net.cpp:141] Setting up inception_4d/pool
I0403 16:55:28.152282 20003 net.cpp:148] Top shape: 24 512 14 14 (2408448)
I0403 16:55:28.152302 20003 net.cpp:156] Memory required for data: 1144900896
I0403 16:55:28.152320 20003 layer_factory.hpp:77] Creating layer inception_4d/pool_proj
I0403 16:55:28.152350 20003 net.cpp:91] Creating Layer inception_4d/pool_proj
I0403 16:55:28.152372 20003 net.cpp:425] inception_4d/pool_proj <- inception_4d/pool
I0403 16:55:28.152398 20003 net.cpp:399] inception_4d/pool_proj -> inception_4d/pool_proj
I0403 16:55:28.154547 20003 net.cpp:141] Setting up inception_4d/pool_proj
I0403 16:55:28.154584 20003 net.cpp:148] Top shape: 24 64 14 14 (301056)
I0403 16:55:28.154619 20003 net.cpp:156] Memory required for data: 1146105120
I0403 16:55:28.154647 20003 layer_factory.hpp:77] Creating layer inception_4d/relu_pool_proj
I0403 16:55:28.154675 20003 net.cpp:91] Creating Layer inception_4d/relu_pool_proj
I0403 16:55:28.154697 20003 net.cpp:425] inception_4d/relu_pool_proj <- inception_4d/pool_proj
I0403 16:55:28.154719 20003 net.cpp:386] inception_4d/relu_pool_proj -> inception_4d/pool_proj (in-place)
I0403 16:55:28.154950 20003 net.cpp:141] Setting up inception_4d/relu_pool_proj
I0403 16:55:28.154981 20003 net.cpp:148] Top shape: 24 64 14 14 (301056)
I0403 16:55:28.155001 20003 net.cpp:156] Memory required for data: 1147309344
I0403 16:55:28.155020 20003 layer_factory.hpp:77] Creating layer inception_4d/output
I0403 16:55:28.155045 20003 net.cpp:91] Creating Layer inception_4d/output
I0403 16:55:28.155066 20003 net.cpp:425] inception_4d/output <- inception_4d/1x1
I0403 16:55:28.155086 20003 net.cpp:425] inception_4d/output <- inception_4d/3x3
I0403 16:55:28.155107 20003 net.cpp:425] inception_4d/output <- inception_4d/5x5
I0403 16:55:28.155128 20003 net.cpp:425] inception_4d/output <- inception_4d/pool_proj
I0403 16:55:28.155150 20003 net.cpp:399] inception_4d/output -> inception_4d/output
I0403 16:55:28.155212 20003 net.cpp:141] Setting up inception_4d/output
I0403 16:55:28.155242 20003 net.cpp:148] Top shape: 24 528 14 14 (2483712)
I0403 16:55:28.155261 20003 net.cpp:156] Memory required for data: 1157244192
I0403 16:55:28.155280 20003 layer_factory.hpp:77] Creating layer inception_4d/output_inception_4d/output_0_split
I0403 16:55:28.155304 20003 net.cpp:91] Creating Layer inception_4d/output_inception_4d/output_0_split
I0403 16:55:28.155324 20003 net.cpp:425] inception_4d/output_inception_4d/output_0_split <- inception_4d/output
I0403 16:55:28.155350 20003 net.cpp:399] inception_4d/output_inception_4d/output_0_split -> inception_4d/output_inception_4d/output_0_split_0
I0403 16:55:28.155376 20003 net.cpp:399] inception_4d/output_inception_4d/output_0_split -> inception_4d/output_inception_4d/output_0_split_1
I0403 16:55:28.155405 20003 net.cpp:399] inception_4d/output_inception_4d/output_0_split -> inception_4d/output_inception_4d/output_0_split_2
I0403 16:55:28.155431 20003 net.cpp:399] inception_4d/output_inception_4d/output_0_split -> inception_4d/output_inception_4d/output_0_split_3
I0403 16:55:28.155457 20003 net.cpp:399] inception_4d/output_inception_4d/output_0_split -> inception_4d/output_inception_4d/output_0_split_4
I0403 16:55:28.155589 20003 net.cpp:141] Setting up inception_4d/output_inception_4d/output_0_split
I0403 16:55:28.155638 20003 net.cpp:148] Top shape: 24 528 14 14 (2483712)
I0403 16:55:28.155661 20003 net.cpp:148] Top shape: 24 528 14 14 (2483712)
I0403 16:55:28.155681 20003 net.cpp:148] Top shape: 24 528 14 14 (2483712)
I0403 16:55:28.155701 20003 net.cpp:148] Top shape: 24 528 14 14 (2483712)
I0403 16:55:28.155721 20003 net.cpp:148] Top shape: 24 528 14 14 (2483712)
I0403 16:55:28.155738 20003 net.cpp:156] Memory required for data: 1206918432
I0403 16:55:28.155757 20003 layer_factory.hpp:77] Creating layer loss2/ave_pool
I0403 16:55:28.155781 20003 net.cpp:91] Creating Layer loss2/ave_pool
I0403 16:55:28.155800 20003 net.cpp:425] loss2/ave_pool <- inception_4d/output_inception_4d/output_0_split_0
I0403 16:55:28.155827 20003 net.cpp:399] loss2/ave_pool -> loss2/ave_pool
I0403 16:55:28.156213 20003 net.cpp:141] Setting up loss2/ave_pool
I0403 16:55:28.156246 20003 net.cpp:148] Top shape: 24 528 4 4 (202752)
I0403 16:55:28.156266 20003 net.cpp:156] Memory required for data: 1207729440
I0403 16:55:28.156286 20003 layer_factory.hpp:77] Creating layer loss2/conv
I0403 16:55:28.156312 20003 net.cpp:91] Creating Layer loss2/conv
I0403 16:55:28.156334 20003 net.cpp:425] loss2/conv <- loss2/ave_pool
I0403 16:55:28.156361 20003 net.cpp:399] loss2/conv -> loss2/conv
I0403 16:55:28.158685 20003 net.cpp:141] Setting up loss2/conv
I0403 16:55:28.158722 20003 net.cpp:148] Top shape: 24 128 4 4 (49152)
I0403 16:55:28.158742 20003 net.cpp:156] Memory required for data: 1207926048
I0403 16:55:28.158766 20003 layer_factory.hpp:77] Creating layer loss2/relu_conv
I0403 16:55:28.158792 20003 net.cpp:91] Creating Layer loss2/relu_conv
I0403 16:55:28.158814 20003 net.cpp:425] loss2/relu_conv <- loss2/conv
I0403 16:55:28.158838 20003 net.cpp:386] loss2/relu_conv -> loss2/conv (in-place)
I0403 16:55:28.159186 20003 net.cpp:141] Setting up loss2/relu_conv
I0403 16:55:28.159219 20003 net.cpp:148] Top shape: 24 128 4 4 (49152)
I0403 16:55:28.159238 20003 net.cpp:156] Memory required for data: 1208122656
I0403 16:55:28.159256 20003 layer_factory.hpp:77] Creating layer loss2/fc
I0403 16:55:28.159283 20003 net.cpp:91] Creating Layer loss2/fc
I0403 16:55:28.159304 20003 net.cpp:425] loss2/fc <- loss2/conv
I0403 16:55:28.159332 20003 net.cpp:399] loss2/fc -> loss2/fc
I0403 16:55:28.181234 20003 net.cpp:141] Setting up loss2/fc
I0403 16:55:28.181277 20003 net.cpp:148] Top shape: 24 1024 (24576)
I0403 16:55:28.181296 20003 net.cpp:156] Memory required for data: 1208220960
I0403 16:55:28.181320 20003 layer_factory.hpp:77] Creating layer loss2/relu_fc
I0403 16:55:28.181345 20003 net.cpp:91] Creating Layer loss2/relu_fc
I0403 16:55:28.181366 20003 net.cpp:425] loss2/relu_fc <- loss2/fc
I0403 16:55:28.181391 20003 net.cpp:386] loss2/relu_fc -> loss2/fc (in-place)
I0403 16:55:28.181764 20003 net.cpp:141] Setting up loss2/relu_fc
I0403 16:55:28.181797 20003 net.cpp:148] Top shape: 24 1024 (24576)
I0403 16:55:28.181816 20003 net.cpp:156] Memory required for data: 1208319264
I0403 16:55:28.181835 20003 layer_factory.hpp:77] Creating layer loss2/drop_fc
I0403 16:55:28.181859 20003 net.cpp:91] Creating Layer loss2/drop_fc
I0403 16:55:28.181879 20003 net.cpp:425] loss2/drop_fc <- loss2/fc
I0403 16:55:28.181905 20003 net.cpp:386] loss2/drop_fc -> loss2/fc (in-place)
I0403 16:55:28.181968 20003 net.cpp:141] Setting up loss2/drop_fc
I0403 16:55:28.181998 20003 net.cpp:148] Top shape: 24 1024 (24576)
I0403 16:55:28.182016 20003 net.cpp:156] Memory required for data: 1208417568
I0403 16:55:28.182035 20003 layer_factory.hpp:77] Creating layer loss2/classifier_plantvillage
I0403 16:55:28.182060 20003 net.cpp:91] Creating Layer loss2/classifier_plantvillage
I0403 16:55:28.182080 20003 net.cpp:425] loss2/classifier_plantvillage <- loss2/fc
I0403 16:55:28.182106 20003 net.cpp:399] loss2/classifier_plantvillage -> loss2/classifier_plantvillage
I0403 16:55:28.182610 20003 net.cpp:141] Setting up loss2/classifier_plantvillage
I0403 16:55:28.182641 20003 net.cpp:148] Top shape: 24 38 (912)
I0403 16:55:28.182660 20003 net.cpp:156] Memory required for data: 1208421216
I0403 16:55:28.182705 20003 layer_factory.hpp:77] Creating layer loss2/classifier_plantvillage_loss2/classifier_plantvillage_0_split
I0403 16:55:28.182732 20003 net.cpp:91] Creating Layer loss2/classifier_plantvillage_loss2/classifier_plantvillage_0_split
I0403 16:55:28.182754 20003 net.cpp:425] loss2/classifier_plantvillage_loss2/classifier_plantvillage_0_split <- loss2/classifier_plantvillage
I0403 16:55:28.182776 20003 net.cpp:399] loss2/classifier_plantvillage_loss2/classifier_plantvillage_0_split -> loss2/classifier_plantvillage_loss2/classifier_plantvillage_0_split_0
I0403 16:55:28.182806 20003 net.cpp:399] loss2/classifier_plantvillage_loss2/classifier_plantvillage_0_split -> loss2/classifier_plantvillage_loss2/classifier_plantvillage_0_split_1
I0403 16:55:28.182833 20003 net.cpp:399] loss2/classifier_plantvillage_loss2/classifier_plantvillage_0_split -> loss2/classifier_plantvillage_loss2/classifier_plantvillage_0_split_2
I0403 16:55:28.182930 20003 net.cpp:141] Setting up loss2/classifier_plantvillage_loss2/classifier_plantvillage_0_split
I0403 16:55:28.182960 20003 net.cpp:148] Top shape: 24 38 (912)
I0403 16:55:28.182981 20003 net.cpp:148] Top shape: 24 38 (912)
I0403 16:55:28.183001 20003 net.cpp:148] Top shape: 24 38 (912)
I0403 16:55:28.183018 20003 net.cpp:156] Memory required for data: 1208432160
I0403 16:55:28.183037 20003 layer_factory.hpp:77] Creating layer inception_4e/1x1
I0403 16:55:28.183064 20003 net.cpp:91] Creating Layer inception_4e/1x1
I0403 16:55:28.183087 20003 net.cpp:425] inception_4e/1x1 <- inception_4d/output_inception_4d/output_0_split_1
I0403 16:55:28.183111 20003 net.cpp:399] inception_4e/1x1 -> inception_4e/1x1
I0403 16:55:28.185377 20003 net.cpp:141] Setting up inception_4e/1x1
I0403 16:55:28.185415 20003 net.cpp:148] Top shape: 24 256 14 14 (1204224)
I0403 16:55:28.185436 20003 net.cpp:156] Memory required for data: 1213249056
I0403 16:55:28.185461 20003 layer_factory.hpp:77] Creating layer inception_4e/relu_1x1
I0403 16:55:28.185484 20003 net.cpp:91] Creating Layer inception_4e/relu_1x1
I0403 16:55:28.185504 20003 net.cpp:425] inception_4e/relu_1x1 <- inception_4e/1x1
I0403 16:55:28.185525 20003 net.cpp:386] inception_4e/relu_1x1 -> inception_4e/1x1 (in-place)
I0403 16:55:28.185891 20003 net.cpp:141] Setting up inception_4e/relu_1x1
I0403 16:55:28.185930 20003 net.cpp:148] Top shape: 24 256 14 14 (1204224)
I0403 16:55:28.185951 20003 net.cpp:156] Memory required for data: 1218065952
I0403 16:55:28.185971 20003 layer_factory.hpp:77] Creating layer inception_4e/3x3_reduce
I0403 16:55:28.185999 20003 net.cpp:91] Creating Layer inception_4e/3x3_reduce
I0403 16:55:28.186022 20003 net.cpp:425] inception_4e/3x3_reduce <- inception_4d/output_inception_4d/output_0_split_2
I0403 16:55:28.186045 20003 net.cpp:399] inception_4e/3x3_reduce -> inception_4e/3x3_reduce
I0403 16:55:28.188640 20003 net.cpp:141] Setting up inception_4e/3x3_reduce
I0403 16:55:28.188678 20003 net.cpp:148] Top shape: 24 160 14 14 (752640)
I0403 16:55:28.188697 20003 net.cpp:156] Memory required for data: 1221076512
I0403 16:55:28.188721 20003 layer_factory.hpp:77] Creating layer inception_4e/relu_3x3_reduce
I0403 16:55:28.188747 20003 net.cpp:91] Creating Layer inception_4e/relu_3x3_reduce
I0403 16:55:28.188769 20003 net.cpp:425] inception_4e/relu_3x3_reduce <- inception_4e/3x3_reduce
I0403 16:55:28.188791 20003 net.cpp:386] inception_4e/relu_3x3_reduce -> inception_4e/3x3_reduce (in-place)
I0403 16:55:28.189024 20003 net.cpp:141] Setting up inception_4e/relu_3x3_reduce
I0403 16:55:28.189059 20003 net.cpp:148] Top shape: 24 160 14 14 (752640)
I0403 16:55:28.189079 20003 net.cpp:156] Memory required for data: 1224087072
I0403 16:55:28.189098 20003 layer_factory.hpp:77] Creating layer inception_4e/3x3
I0403 16:55:28.189126 20003 net.cpp:91] Creating Layer inception_4e/3x3
I0403 16:55:28.189147 20003 net.cpp:425] inception_4e/3x3 <- inception_4e/3x3_reduce
I0403 16:55:28.189172 20003 net.cpp:399] inception_4e/3x3 -> inception_4e/3x3
I0403 16:55:28.195390 20003 net.cpp:141] Setting up inception_4e/3x3
I0403 16:55:28.195443 20003 net.cpp:148] Top shape: 24 320 14 14 (1505280)
I0403 16:55:28.195466 20003 net.cpp:156] Memory required for data: 1230108192
I0403 16:55:28.195488 20003 layer_factory.hpp:77] Creating layer inception_4e/relu_3x3
I0403 16:55:28.195513 20003 net.cpp:91] Creating Layer inception_4e/relu_3x3
I0403 16:55:28.195533 20003 net.cpp:425] inception_4e/relu_3x3 <- inception_4e/3x3
I0403 16:55:28.195557 20003 net.cpp:386] inception_4e/relu_3x3 -> inception_4e/3x3 (in-place)
I0403 16:55:28.195935 20003 net.cpp:141] Setting up inception_4e/relu_3x3
I0403 16:55:28.195969 20003 net.cpp:148] Top shape: 24 320 14 14 (1505280)
I0403 16:55:28.195989 20003 net.cpp:156] Memory required for data: 1236129312
I0403 16:55:28.196008 20003 layer_factory.hpp:77] Creating layer inception_4e/5x5_reduce
I0403 16:55:28.196036 20003 net.cpp:91] Creating Layer inception_4e/5x5_reduce
I0403 16:55:28.196059 20003 net.cpp:425] inception_4e/5x5_reduce <- inception_4d/output_inception_4d/output_0_split_3
I0403 16:55:28.196087 20003 net.cpp:399] inception_4e/5x5_reduce -> inception_4e/5x5_reduce
I0403 16:55:28.197417 20003 net.cpp:141] Setting up inception_4e/5x5_reduce
I0403 16:55:28.197451 20003 net.cpp:148] Top shape: 24 32 14 14 (150528)
I0403 16:55:28.197475 20003 net.cpp:156] Memory required for data: 1236731424
I0403 16:55:28.197499 20003 layer_factory.hpp:77] Creating layer inception_4e/relu_5x5_reduce
I0403 16:55:28.197522 20003 net.cpp:91] Creating Layer inception_4e/relu_5x5_reduce
I0403 16:55:28.197543 20003 net.cpp:425] inception_4e/relu_5x5_reduce <- inception_4e/5x5_reduce
I0403 16:55:28.197566 20003 net.cpp:386] inception_4e/relu_5x5_reduce -> inception_4e/5x5_reduce (in-place)
I0403 16:55:28.197942 20003 net.cpp:141] Setting up inception_4e/relu_5x5_reduce
I0403 16:55:28.197974 20003 net.cpp:148] Top shape: 24 32 14 14 (150528)
I0403 16:55:28.197999 20003 net.cpp:156] Memory required for data: 1237333536
I0403 16:55:28.198017 20003 layer_factory.hpp:77] Creating layer inception_4e/5x5
I0403 16:55:28.198063 20003 net.cpp:91] Creating Layer inception_4e/5x5
I0403 16:55:28.198088 20003 net.cpp:425] inception_4e/5x5 <- inception_4e/5x5_reduce
I0403 16:55:28.198115 20003 net.cpp:399] inception_4e/5x5 -> inception_4e/5x5
I0403 16:55:28.200387 20003 net.cpp:141] Setting up inception_4e/5x5
I0403 16:55:28.200423 20003 net.cpp:148] Top shape: 24 128 14 14 (602112)
I0403 16:55:28.200443 20003 net.cpp:156] Memory required for data: 1239741984
I0403 16:55:28.200466 20003 layer_factory.hpp:77] Creating layer inception_4e/relu_5x5
I0403 16:55:28.200494 20003 net.cpp:91] Creating Layer inception_4e/relu_5x5
I0403 16:55:28.200515 20003 net.cpp:425] inception_4e/relu_5x5 <- inception_4e/5x5
I0403 16:55:28.200538 20003 net.cpp:386] inception_4e/relu_5x5 -> inception_4e/5x5 (in-place)
I0403 16:55:28.200790 20003 net.cpp:141] Setting up inception_4e/relu_5x5
I0403 16:55:28.200822 20003 net.cpp:148] Top shape: 24 128 14 14 (602112)
I0403 16:55:28.200841 20003 net.cpp:156] Memory required for data: 1242150432
I0403 16:55:28.200860 20003 layer_factory.hpp:77] Creating layer inception_4e/pool
I0403 16:55:28.200887 20003 net.cpp:91] Creating Layer inception_4e/pool
I0403 16:55:28.200909 20003 net.cpp:425] inception_4e/pool <- inception_4d/output_inception_4d/output_0_split_4
I0403 16:55:28.200933 20003 net.cpp:399] inception_4e/pool -> inception_4e/pool
I0403 16:55:28.201022 20003 net.cpp:141] Setting up inception_4e/pool
I0403 16:55:28.201052 20003 net.cpp:148] Top shape: 24 528 14 14 (2483712)
I0403 16:55:28.201071 20003 net.cpp:156] Memory required for data: 1252085280
I0403 16:55:28.201091 20003 layer_factory.hpp:77] Creating layer inception_4e/pool_proj
I0403 16:55:28.201118 20003 net.cpp:91] Creating Layer inception_4e/pool_proj
I0403 16:55:28.201140 20003 net.cpp:425] inception_4e/pool_proj <- inception_4e/pool
I0403 16:55:28.201165 20003 net.cpp:399] inception_4e/pool_proj -> inception_4e/pool_proj
I0403 16:55:28.203027 20003 net.cpp:141] Setting up inception_4e/pool_proj
I0403 16:55:28.203061 20003 net.cpp:148] Top shape: 24 128 14 14 (602112)
I0403 16:55:28.203099 20003 net.cpp:156] Memory required for data: 1254493728
I0403 16:55:28.203124 20003 layer_factory.hpp:77] Creating layer inception_4e/relu_pool_proj
I0403 16:55:28.203150 20003 net.cpp:91] Creating Layer inception_4e/relu_pool_proj
I0403 16:55:28.203171 20003 net.cpp:425] inception_4e/relu_pool_proj <- inception_4e/pool_proj
I0403 16:55:28.203193 20003 net.cpp:386] inception_4e/relu_pool_proj -> inception_4e/pool_proj (in-place)
I0403 16:55:28.203550 20003 net.cpp:141] Setting up inception_4e/relu_pool_proj
I0403 16:55:28.203583 20003 net.cpp:148] Top shape: 24 128 14 14 (602112)
I0403 16:55:28.203609 20003 net.cpp:156] Memory required for data: 1256902176
I0403 16:55:28.203631 20003 layer_factory.hpp:77] Creating layer inception_4e/output
I0403 16:55:28.203654 20003 net.cpp:91] Creating Layer inception_4e/output
I0403 16:55:28.203673 20003 net.cpp:425] inception_4e/output <- inception_4e/1x1
I0403 16:55:28.203694 20003 net.cpp:425] inception_4e/output <- inception_4e/3x3
I0403 16:55:28.203714 20003 net.cpp:425] inception_4e/output <- inception_4e/5x5
I0403 16:55:28.203735 20003 net.cpp:425] inception_4e/output <- inception_4e/pool_proj
I0403 16:55:28.203760 20003 net.cpp:399] inception_4e/output -> inception_4e/output
I0403 16:55:28.203821 20003 net.cpp:141] Setting up inception_4e/output
I0403 16:55:28.203855 20003 net.cpp:148] Top shape: 24 832 14 14 (3913728)
I0403 16:55:28.203874 20003 net.cpp:156] Memory required for data: 1272557088
I0403 16:55:28.203893 20003 layer_factory.hpp:77] Creating layer pool4/3x3_s2
I0403 16:55:28.203915 20003 net.cpp:91] Creating Layer pool4/3x3_s2
I0403 16:55:28.203934 20003 net.cpp:425] pool4/3x3_s2 <- inception_4e/output
I0403 16:55:28.203963 20003 net.cpp:399] pool4/3x3_s2 -> pool4/3x3_s2
I0403 16:55:28.204046 20003 net.cpp:141] Setting up pool4/3x3_s2
I0403 16:55:28.204076 20003 net.cpp:148] Top shape: 24 832 7 7 (978432)
I0403 16:55:28.204094 20003 net.cpp:156] Memory required for data: 1276470816
I0403 16:55:28.204113 20003 layer_factory.hpp:77] Creating layer pool4/3x3_s2_pool4/3x3_s2_0_split
I0403 16:55:28.204138 20003 net.cpp:91] Creating Layer pool4/3x3_s2_pool4/3x3_s2_0_split
I0403 16:55:28.204159 20003 net.cpp:425] pool4/3x3_s2_pool4/3x3_s2_0_split <- pool4/3x3_s2
I0403 16:55:28.204180 20003 net.cpp:399] pool4/3x3_s2_pool4/3x3_s2_0_split -> pool4/3x3_s2_pool4/3x3_s2_0_split_0
I0403 16:55:28.204205 20003 net.cpp:399] pool4/3x3_s2_pool4/3x3_s2_0_split -> pool4/3x3_s2_pool4/3x3_s2_0_split_1
I0403 16:55:28.204231 20003 net.cpp:399] pool4/3x3_s2_pool4/3x3_s2_0_split -> pool4/3x3_s2_pool4/3x3_s2_0_split_2
I0403 16:55:28.204260 20003 net.cpp:399] pool4/3x3_s2_pool4/3x3_s2_0_split -> pool4/3x3_s2_pool4/3x3_s2_0_split_3
I0403 16:55:28.204377 20003 net.cpp:141] Setting up pool4/3x3_s2_pool4/3x3_s2_0_split
I0403 16:55:28.204407 20003 net.cpp:148] Top shape: 24 832 7 7 (978432)
I0403 16:55:28.204427 20003 net.cpp:148] Top shape: 24 832 7 7 (978432)
I0403 16:55:28.204447 20003 net.cpp:148] Top shape: 24 832 7 7 (978432)
I0403 16:55:28.204465 20003 net.cpp:148] Top shape: 24 832 7 7 (978432)
I0403 16:55:28.204483 20003 net.cpp:156] Memory required for data: 1292125728
I0403 16:55:28.204502 20003 layer_factory.hpp:77] Creating layer inception_5a/1x1
I0403 16:55:28.204530 20003 net.cpp:91] Creating Layer inception_5a/1x1
I0403 16:55:28.204552 20003 net.cpp:425] inception_5a/1x1 <- pool4/3x3_s2_pool4/3x3_s2_0_split_0
I0403 16:55:28.204581 20003 net.cpp:399] inception_5a/1x1 -> inception_5a/1x1
I0403 16:55:28.208094 20003 net.cpp:141] Setting up inception_5a/1x1
I0403 16:55:28.208132 20003 net.cpp:148] Top shape: 24 256 7 7 (301056)
I0403 16:55:28.208151 20003 net.cpp:156] Memory required for data: 1293329952
I0403 16:55:28.208175 20003 layer_factory.hpp:77] Creating layer inception_5a/relu_1x1
I0403 16:55:28.208199 20003 net.cpp:91] Creating Layer inception_5a/relu_1x1
I0403 16:55:28.208220 20003 net.cpp:425] inception_5a/relu_1x1 <- inception_5a/1x1
I0403 16:55:28.208242 20003 net.cpp:386] inception_5a/relu_1x1 -> inception_5a/1x1 (in-place)
I0403 16:55:28.208642 20003 net.cpp:141] Setting up inception_5a/relu_1x1
I0403 16:55:28.208673 20003 net.cpp:148] Top shape: 24 256 7 7 (301056)
I0403 16:55:28.208693 20003 net.cpp:156] Memory required for data: 1294534176
I0403 16:55:28.208711 20003 layer_factory.hpp:77] Creating layer inception_5a/3x3_reduce
I0403 16:55:28.208739 20003 net.cpp:91] Creating Layer inception_5a/3x3_reduce
I0403 16:55:28.208760 20003 net.cpp:425] inception_5a/3x3_reduce <- pool4/3x3_s2_pool4/3x3_s2_0_split_1
I0403 16:55:28.208787 20003 net.cpp:399] inception_5a/3x3_reduce -> inception_5a/3x3_reduce
I0403 16:55:28.213713 20003 net.cpp:141] Setting up inception_5a/3x3_reduce
I0403 16:55:28.213752 20003 net.cpp:148] Top shape: 24 160 7 7 (188160)
I0403 16:55:28.213771 20003 net.cpp:156] Memory required for data: 1295286816
I0403 16:55:28.213795 20003 layer_factory.hpp:77] Creating layer inception_5a/relu_3x3_reduce
I0403 16:55:28.213819 20003 net.cpp:91] Creating Layer inception_5a/relu_3x3_reduce
I0403 16:55:28.213840 20003 net.cpp:425] inception_5a/relu_3x3_reduce <- inception_5a/3x3_reduce
I0403 16:55:28.213866 20003 net.cpp:386] inception_5a/relu_3x3_reduce -> inception_5a/3x3_reduce (in-place)
I0403 16:55:28.214103 20003 net.cpp:141] Setting up inception_5a/relu_3x3_reduce
I0403 16:55:28.214138 20003 net.cpp:148] Top shape: 24 160 7 7 (188160)
I0403 16:55:28.214157 20003 net.cpp:156] Memory required for data: 1296039456
I0403 16:55:28.214176 20003 layer_factory.hpp:77] Creating layer inception_5a/3x3
I0403 16:55:28.214205 20003 net.cpp:91] Creating Layer inception_5a/3x3
I0403 16:55:28.214227 20003 net.cpp:425] inception_5a/3x3 <- inception_5a/3x3_reduce
I0403 16:55:28.214257 20003 net.cpp:399] inception_5a/3x3 -> inception_5a/3x3
I0403 16:55:28.220551 20003 net.cpp:141] Setting up inception_5a/3x3
I0403 16:55:28.220589 20003 net.cpp:148] Top shape: 24 320 7 7 (376320)
I0403 16:55:28.220618 20003 net.cpp:156] Memory required for data: 1297544736
I0403 16:55:28.220641 20003 layer_factory.hpp:77] Creating layer inception_5a/relu_3x3
I0403 16:55:28.220669 20003 net.cpp:91] Creating Layer inception_5a/relu_3x3
I0403 16:55:28.220690 20003 net.cpp:425] inception_5a/relu_3x3 <- inception_5a/3x3
I0403 16:55:28.220715 20003 net.cpp:386] inception_5a/relu_3x3 -> inception_5a/3x3 (in-place)
I0403 16:55:28.221076 20003 net.cpp:141] Setting up inception_5a/relu_3x3
I0403 16:55:28.221108 20003 net.cpp:148] Top shape: 24 320 7 7 (376320)
I0403 16:55:28.221127 20003 net.cpp:156] Memory required for data: 1299050016
I0403 16:55:28.221146 20003 layer_factory.hpp:77] Creating layer inception_5a/5x5_reduce
I0403 16:55:28.221174 20003 net.cpp:91] Creating Layer inception_5a/5x5_reduce
I0403 16:55:28.221197 20003 net.cpp:425] inception_5a/5x5_reduce <- pool4/3x3_s2_pool4/3x3_s2_0_split_2
I0403 16:55:28.221225 20003 net.cpp:399] inception_5a/5x5_reduce -> inception_5a/5x5_reduce
I0403 16:55:28.222697 20003 net.cpp:141] Setting up inception_5a/5x5_reduce
I0403 16:55:28.222734 20003 net.cpp:148] Top shape: 24 32 7 7 (37632)
I0403 16:55:28.222754 20003 net.cpp:156] Memory required for data: 1299200544
I0403 16:55:28.222777 20003 layer_factory.hpp:77] Creating layer inception_5a/relu_5x5_reduce
I0403 16:55:28.222805 20003 net.cpp:91] Creating Layer inception_5a/relu_5x5_reduce
I0403 16:55:28.222827 20003 net.cpp:425] inception_5a/relu_5x5_reduce <- inception_5a/5x5_reduce
I0403 16:55:28.222849 20003 net.cpp:386] inception_5a/relu_5x5_reduce -> inception_5a/5x5_reduce (in-place)
I0403 16:55:28.223219 20003 net.cpp:141] Setting up inception_5a/relu_5x5_reduce
I0403 16:55:28.223253 20003 net.cpp:148] Top shape: 24 32 7 7 (37632)
I0403 16:55:28.223271 20003 net.cpp:156] Memory required for data: 1299351072
I0403 16:55:28.223289 20003 layer_factory.hpp:77] Creating layer inception_5a/5x5
I0403 16:55:28.223320 20003 net.cpp:91] Creating Layer inception_5a/5x5
I0403 16:55:28.223342 20003 net.cpp:425] inception_5a/5x5 <- inception_5a/5x5_reduce
I0403 16:55:28.223366 20003 net.cpp:399] inception_5a/5x5 -> inception_5a/5x5
I0403 16:55:28.225519 20003 net.cpp:141] Setting up inception_5a/5x5
I0403 16:55:28.225569 20003 net.cpp:148] Top shape: 24 128 7 7 (150528)
I0403 16:55:28.225589 20003 net.cpp:156] Memory required for data: 1299953184
I0403 16:55:28.225621 20003 layer_factory.hpp:77] Creating layer inception_5a/relu_5x5
I0403 16:55:28.225649 20003 net.cpp:91] Creating Layer inception_5a/relu_5x5
I0403 16:55:28.225672 20003 net.cpp:425] inception_5a/relu_5x5 <- inception_5a/5x5
I0403 16:55:28.225694 20003 net.cpp:386] inception_5a/relu_5x5 -> inception_5a/5x5 (in-place)
I0403 16:55:28.225934 20003 net.cpp:141] Setting up inception_5a/relu_5x5
I0403 16:55:28.225965 20003 net.cpp:148] Top shape: 24 128 7 7 (150528)
I0403 16:55:28.225986 20003 net.cpp:156] Memory required for data: 1300555296
I0403 16:55:28.226003 20003 layer_factory.hpp:77] Creating layer inception_5a/pool
I0403 16:55:28.226028 20003 net.cpp:91] Creating Layer inception_5a/pool
I0403 16:55:28.226049 20003 net.cpp:425] inception_5a/pool <- pool4/3x3_s2_pool4/3x3_s2_0_split_3
I0403 16:55:28.226075 20003 net.cpp:399] inception_5a/pool -> inception_5a/pool
I0403 16:55:28.226164 20003 net.cpp:141] Setting up inception_5a/pool
I0403 16:55:28.226194 20003 net.cpp:148] Top shape: 24 832 7 7 (978432)
I0403 16:55:28.226213 20003 net.cpp:156] Memory required for data: 1304469024
I0403 16:55:28.226233 20003 layer_factory.hpp:77] Creating layer inception_5a/pool_proj
I0403 16:55:28.226258 20003 net.cpp:91] Creating Layer inception_5a/pool_proj
I0403 16:55:28.226281 20003 net.cpp:425] inception_5a/pool_proj <- inception_5a/pool
I0403 16:55:28.226307 20003 net.cpp:399] inception_5a/pool_proj -> inception_5a/pool_proj
I0403 16:55:28.229107 20003 net.cpp:141] Setting up inception_5a/pool_proj
I0403 16:55:28.229146 20003 net.cpp:148] Top shape: 24 128 7 7 (150528)
I0403 16:55:28.229166 20003 net.cpp:156] Memory required for data: 1305071136
I0403 16:55:28.229188 20003 layer_factory.hpp:77] Creating layer inception_5a/relu_pool_proj
I0403 16:55:28.229212 20003 net.cpp:91] Creating Layer inception_5a/relu_pool_proj
I0403 16:55:28.229233 20003 net.cpp:425] inception_5a/relu_pool_proj <- inception_5a/pool_proj
I0403 16:55:28.229259 20003 net.cpp:386] inception_5a/relu_pool_proj -> inception_5a/pool_proj (in-place)
I0403 16:55:28.229630 20003 net.cpp:141] Setting up inception_5a/relu_pool_proj
I0403 16:55:28.229665 20003 net.cpp:148] Top shape: 24 128 7 7 (150528)
I0403 16:55:28.229683 20003 net.cpp:156] Memory required for data: 1305673248
I0403 16:55:28.229702 20003 layer_factory.hpp:77] Creating layer inception_5a/output
I0403 16:55:28.229724 20003 net.cpp:91] Creating Layer inception_5a/output
I0403 16:55:28.229744 20003 net.cpp:425] inception_5a/output <- inception_5a/1x1
I0403 16:55:28.229765 20003 net.cpp:425] inception_5a/output <- inception_5a/3x3
I0403 16:55:28.229786 20003 net.cpp:425] inception_5a/output <- inception_5a/5x5
I0403 16:55:28.229806 20003 net.cpp:425] inception_5a/output <- inception_5a/pool_proj
I0403 16:55:28.229830 20003 net.cpp:399] inception_5a/output -> inception_5a/output
I0403 16:55:28.229894 20003 net.cpp:141] Setting up inception_5a/output
I0403 16:55:28.229928 20003 net.cpp:148] Top shape: 24 832 7 7 (978432)
I0403 16:55:28.229948 20003 net.cpp:156] Memory required for data: 1309586976
I0403 16:55:28.229967 20003 layer_factory.hpp:77] Creating layer inception_5a/output_inception_5a/output_0_split
I0403 16:55:28.229989 20003 net.cpp:91] Creating Layer inception_5a/output_inception_5a/output_0_split
I0403 16:55:28.230007 20003 net.cpp:425] inception_5a/output_inception_5a/output_0_split <- inception_5a/output
I0403 16:55:28.230029 20003 net.cpp:399] inception_5a/output_inception_5a/output_0_split -> inception_5a/output_inception_5a/output_0_split_0
I0403 16:55:28.230057 20003 net.cpp:399] inception_5a/output_inception_5a/output_0_split -> inception_5a/output_inception_5a/output_0_split_1
I0403 16:55:28.230085 20003 net.cpp:399] inception_5a/output_inception_5a/output_0_split -> inception_5a/output_inception_5a/output_0_split_2
I0403 16:55:28.230113 20003 net.cpp:399] inception_5a/output_inception_5a/output_0_split -> inception_5a/output_inception_5a/output_0_split_3
I0403 16:55:28.230257 20003 net.cpp:141] Setting up inception_5a/output_inception_5a/output_0_split
I0403 16:55:28.230288 20003 net.cpp:148] Top shape: 24 832 7 7 (978432)
I0403 16:55:28.230309 20003 net.cpp:148] Top shape: 24 832 7 7 (978432)
I0403 16:55:28.230327 20003 net.cpp:148] Top shape: 24 832 7 7 (978432)
I0403 16:55:28.230347 20003 net.cpp:148] Top shape: 24 832 7 7 (978432)
I0403 16:55:28.230365 20003 net.cpp:156] Memory required for data: 1325241888
I0403 16:55:28.230384 20003 layer_factory.hpp:77] Creating layer inception_5b/1x1
I0403 16:55:28.230413 20003 net.cpp:91] Creating Layer inception_5b/1x1
I0403 16:55:28.230434 20003 net.cpp:425] inception_5b/1x1 <- inception_5a/output_inception_5a/output_0_split_0
I0403 16:55:28.230458 20003 net.cpp:399] inception_5b/1x1 -> inception_5b/1x1
I0403 16:55:28.235106 20003 net.cpp:141] Setting up inception_5b/1x1
I0403 16:55:28.235146 20003 net.cpp:148] Top shape: 24 384 7 7 (451584)
I0403 16:55:28.235165 20003 net.cpp:156] Memory required for data: 1327048224
I0403 16:55:28.235188 20003 layer_factory.hpp:77] Creating layer inception_5b/relu_1x1
I0403 16:55:28.235211 20003 net.cpp:91] Creating Layer inception_5b/relu_1x1
I0403 16:55:28.235232 20003 net.cpp:425] inception_5b/relu_1x1 <- inception_5b/1x1
I0403 16:55:28.235260 20003 net.cpp:386] inception_5b/relu_1x1 -> inception_5b/1x1 (in-place)
I0403 16:55:28.235640 20003 net.cpp:141] Setting up inception_5b/relu_1x1
I0403 16:55:28.235673 20003 net.cpp:148] Top shape: 24 384 7 7 (451584)
I0403 16:55:28.235692 20003 net.cpp:156] Memory required for data: 1328854560
I0403 16:55:28.235710 20003 layer_factory.hpp:77] Creating layer inception_5b/3x3_reduce
I0403 16:55:28.235738 20003 net.cpp:91] Creating Layer inception_5b/3x3_reduce
I0403 16:55:28.235760 20003 net.cpp:425] inception_5b/3x3_reduce <- inception_5a/output_inception_5a/output_0_split_1
I0403 16:55:28.235790 20003 net.cpp:399] inception_5b/3x3_reduce -> inception_5b/3x3_reduce
I0403 16:55:28.239075 20003 net.cpp:141] Setting up inception_5b/3x3_reduce
I0403 16:55:28.239112 20003 net.cpp:148] Top shape: 24 192 7 7 (225792)
I0403 16:55:28.239133 20003 net.cpp:156] Memory required for data: 1329757728
I0403 16:55:28.239157 20003 layer_factory.hpp:77] Creating layer inception_5b/relu_3x3_reduce
I0403 16:55:28.239181 20003 net.cpp:91] Creating Layer inception_5b/relu_3x3_reduce
I0403 16:55:28.239203 20003 net.cpp:425] inception_5b/relu_3x3_reduce <- inception_5b/3x3_reduce
I0403 16:55:28.239228 20003 net.cpp:386] inception_5b/relu_3x3_reduce -> inception_5b/3x3_reduce (in-place)
I0403 16:55:28.239466 20003 net.cpp:141] Setting up inception_5b/relu_3x3_reduce
I0403 16:55:28.239497 20003 net.cpp:148] Top shape: 24 192 7 7 (225792)
I0403 16:55:28.239517 20003 net.cpp:156] Memory required for data: 1330660896
I0403 16:55:28.239536 20003 layer_factory.hpp:77] Creating layer inception_5b/3x3
I0403 16:55:28.239563 20003 net.cpp:91] Creating Layer inception_5b/3x3
I0403 16:55:28.239585 20003 net.cpp:425] inception_5b/3x3 <- inception_5b/3x3_reduce
I0403 16:55:28.239621 20003 net.cpp:399] inception_5b/3x3 -> inception_5b/3x3
I0403 16:55:28.247962 20003 net.cpp:141] Setting up inception_5b/3x3
I0403 16:55:28.247999 20003 net.cpp:148] Top shape: 24 384 7 7 (451584)
I0403 16:55:28.248020 20003 net.cpp:156] Memory required for data: 1332467232
I0403 16:55:28.248044 20003 layer_factory.hpp:77] Creating layer inception_5b/relu_3x3
I0403 16:55:28.248067 20003 net.cpp:91] Creating Layer inception_5b/relu_3x3
I0403 16:55:28.248088 20003 net.cpp:425] inception_5b/relu_3x3 <- inception_5b/3x3
I0403 16:55:28.248114 20003 net.cpp:386] inception_5b/relu_3x3 -> inception_5b/3x3 (in-place)
I0403 16:55:28.248481 20003 net.cpp:141] Setting up inception_5b/relu_3x3
I0403 16:55:28.248513 20003 net.cpp:148] Top shape: 24 384 7 7 (451584)
I0403 16:55:28.248533 20003 net.cpp:156] Memory required for data: 1334273568
I0403 16:55:28.248551 20003 layer_factory.hpp:77] Creating layer inception_5b/5x5_reduce
I0403 16:55:28.248600 20003 net.cpp:91] Creating Layer inception_5b/5x5_reduce
I0403 16:55:28.248631 20003 net.cpp:425] inception_5b/5x5_reduce <- inception_5a/output_inception_5a/output_0_split_2
I0403 16:55:28.248659 20003 net.cpp:399] inception_5b/5x5_reduce -> inception_5b/5x5_reduce
I0403 16:55:28.250242 20003 net.cpp:141] Setting up inception_5b/5x5_reduce
I0403 16:55:28.250277 20003 net.cpp:148] Top shape: 24 48 7 7 (56448)
I0403 16:55:28.250298 20003 net.cpp:156] Memory required for data: 1334499360
I0403 16:55:28.250321 20003 layer_factory.hpp:77] Creating layer inception_5b/relu_5x5_reduce
I0403 16:55:28.250347 20003 net.cpp:91] Creating Layer inception_5b/relu_5x5_reduce
I0403 16:55:28.250370 20003 net.cpp:425] inception_5b/relu_5x5_reduce <- inception_5b/5x5_reduce
I0403 16:55:28.250391 20003 net.cpp:386] inception_5b/relu_5x5_reduce -> inception_5b/5x5_reduce (in-place)
I0403 16:55:28.250855 20003 net.cpp:141] Setting up inception_5b/relu_5x5_reduce
I0403 16:55:28.250888 20003 net.cpp:148] Top shape: 24 48 7 7 (56448)
I0403 16:55:28.250908 20003 net.cpp:156] Memory required for data: 1334725152
I0403 16:55:28.250927 20003 layer_factory.hpp:77] Creating layer inception_5b/5x5
I0403 16:55:28.250952 20003 net.cpp:91] Creating Layer inception_5b/5x5
I0403 16:55:28.250974 20003 net.cpp:425] inception_5b/5x5 <- inception_5b/5x5_reduce
I0403 16:55:28.250998 20003 net.cpp:399] inception_5b/5x5 -> inception_5b/5x5
I0403 16:55:28.253563 20003 net.cpp:141] Setting up inception_5b/5x5
I0403 16:55:28.253599 20003 net.cpp:148] Top shape: 24 128 7 7 (150528)
I0403 16:55:28.253628 20003 net.cpp:156] Memory required for data: 1335327264
I0403 16:55:28.253651 20003 layer_factory.hpp:77] Creating layer inception_5b/relu_5x5
I0403 16:55:28.253677 20003 net.cpp:91] Creating Layer inception_5b/relu_5x5
I0403 16:55:28.253698 20003 net.cpp:425] inception_5b/relu_5x5 <- inception_5b/5x5
I0403 16:55:28.253721 20003 net.cpp:386] inception_5b/relu_5x5 -> inception_5b/5x5 (in-place)
I0403 16:55:28.253964 20003 net.cpp:141] Setting up inception_5b/relu_5x5
I0403 16:55:28.253999 20003 net.cpp:148] Top shape: 24 128 7 7 (150528)
I0403 16:55:28.254019 20003 net.cpp:156] Memory required for data: 1335929376
I0403 16:55:28.254039 20003 layer_factory.hpp:77] Creating layer inception_5b/pool
I0403 16:55:28.254060 20003 net.cpp:91] Creating Layer inception_5b/pool
I0403 16:55:28.254081 20003 net.cpp:425] inception_5b/pool <- inception_5a/output_inception_5a/output_0_split_3
I0403 16:55:28.254106 20003 net.cpp:399] inception_5b/pool -> inception_5b/pool
I0403 16:55:28.254200 20003 net.cpp:141] Setting up inception_5b/pool
I0403 16:55:28.254231 20003 net.cpp:148] Top shape: 24 832 7 7 (978432)
I0403 16:55:28.254250 20003 net.cpp:156] Memory required for data: 1339843104
I0403 16:55:28.254267 20003 layer_factory.hpp:77] Creating layer inception_5b/pool_proj
I0403 16:55:28.254294 20003 net.cpp:91] Creating Layer inception_5b/pool_proj
I0403 16:55:28.254317 20003 net.cpp:425] inception_5b/pool_proj <- inception_5b/pool
I0403 16:55:28.254344 20003 net.cpp:399] inception_5b/pool_proj -> inception_5b/pool_proj
I0403 16:55:28.257203 20003 net.cpp:141] Setting up inception_5b/pool_proj
I0403 16:55:28.257241 20003 net.cpp:148] Top shape: 24 128 7 7 (150528)
I0403 16:55:28.257261 20003 net.cpp:156] Memory required for data: 1340445216
I0403 16:55:28.257285 20003 layer_factory.hpp:77] Creating layer inception_5b/relu_pool_proj
I0403 16:55:28.257310 20003 net.cpp:91] Creating Layer inception_5b/relu_pool_proj
I0403 16:55:28.257333 20003 net.cpp:425] inception_5b/relu_pool_proj <- inception_5b/pool_proj
I0403 16:55:28.257356 20003 net.cpp:386] inception_5b/relu_pool_proj -> inception_5b/pool_proj (in-place)
I0403 16:55:28.257725 20003 net.cpp:141] Setting up inception_5b/relu_pool_proj
I0403 16:55:28.257758 20003 net.cpp:148] Top shape: 24 128 7 7 (150528)
I0403 16:55:28.257778 20003 net.cpp:156] Memory required for data: 1341047328
I0403 16:55:28.257797 20003 layer_factory.hpp:77] Creating layer inception_5b/output
I0403 16:55:28.257819 20003 net.cpp:91] Creating Layer inception_5b/output
I0403 16:55:28.257858 20003 net.cpp:425] inception_5b/output <- inception_5b/1x1
I0403 16:55:28.257885 20003 net.cpp:425] inception_5b/output <- inception_5b/3x3
I0403 16:55:28.257906 20003 net.cpp:425] inception_5b/output <- inception_5b/5x5
I0403 16:55:28.257927 20003 net.cpp:425] inception_5b/output <- inception_5b/pool_proj
I0403 16:55:28.257949 20003 net.cpp:399] inception_5b/output -> inception_5b/output
I0403 16:55:28.258014 20003 net.cpp:141] Setting up inception_5b/output
I0403 16:55:28.258049 20003 net.cpp:148] Top shape: 24 1024 7 7 (1204224)
I0403 16:55:28.258069 20003 net.cpp:156] Memory required for data: 1345864224
I0403 16:55:28.258087 20003 layer_factory.hpp:77] Creating layer pool5/7x7_s1
I0403 16:55:28.258110 20003 net.cpp:91] Creating Layer pool5/7x7_s1
I0403 16:55:28.258131 20003 net.cpp:425] pool5/7x7_s1 <- inception_5b/output
I0403 16:55:28.258157 20003 net.cpp:399] pool5/7x7_s1 -> pool5/7x7_s1
I0403 16:55:28.258427 20003 net.cpp:141] Setting up pool5/7x7_s1
I0403 16:55:28.258460 20003 net.cpp:148] Top shape: 24 1024 1 1 (24576)
I0403 16:55:28.258477 20003 net.cpp:156] Memory required for data: 1345962528
I0403 16:55:28.258496 20003 layer_factory.hpp:77] Creating layer pool5/drop_7x7_s1
I0403 16:55:28.258523 20003 net.cpp:91] Creating Layer pool5/drop_7x7_s1
I0403 16:55:28.258544 20003 net.cpp:425] pool5/drop_7x7_s1 <- pool5/7x7_s1
I0403 16:55:28.258569 20003 net.cpp:386] pool5/drop_7x7_s1 -> pool5/7x7_s1 (in-place)
I0403 16:55:28.258641 20003 net.cpp:141] Setting up pool5/drop_7x7_s1
I0403 16:55:28.258671 20003 net.cpp:148] Top shape: 24 1024 1 1 (24576)
I0403 16:55:28.258690 20003 net.cpp:156] Memory required for data: 1346060832
I0403 16:55:28.258709 20003 layer_factory.hpp:77] Creating layer loss3/classifier_plantvillage
I0403 16:55:28.258733 20003 net.cpp:91] Creating Layer loss3/classifier_plantvillage
I0403 16:55:28.258754 20003 net.cpp:425] loss3/classifier_plantvillage <- pool5/7x7_s1
I0403 16:55:28.258781 20003 net.cpp:399] loss3/classifier_plantvillage -> loss3/classifier_plantvillage
I0403 16:55:28.259320 20003 net.cpp:141] Setting up loss3/classifier_plantvillage
I0403 16:55:28.259351 20003 net.cpp:148] Top shape: 24 38 (912)
I0403 16:55:28.259369 20003 net.cpp:156] Memory required for data: 1346064480
I0403 16:55:28.259392 20003 layer_factory.hpp:77] Creating layer loss3/classifier_plantvillage_loss3/classifier_plantvillage_0_split
I0403 16:55:28.259416 20003 net.cpp:91] Creating Layer loss3/classifier_plantvillage_loss3/classifier_plantvillage_0_split
I0403 16:55:28.259438 20003 net.cpp:425] loss3/classifier_plantvillage_loss3/classifier_plantvillage_0_split <- loss3/classifier_plantvillage
I0403 16:55:28.259464 20003 net.cpp:399] loss3/classifier_plantvillage_loss3/classifier_plantvillage_0_split -> loss3/classifier_plantvillage_loss3/classifier_plantvillage_0_split_0
I0403 16:55:28.259491 20003 net.cpp:399] loss3/classifier_plantvillage_loss3/classifier_plantvillage_0_split -> loss3/classifier_plantvillage_loss3/classifier_plantvillage_0_split_1
I0403 16:55:28.259518 20003 net.cpp:399] loss3/classifier_plantvillage_loss3/classifier_plantvillage_0_split -> loss3/classifier_plantvillage_loss3/classifier_plantvillage_0_split_2
I0403 16:55:28.259546 20003 net.cpp:399] loss3/classifier_plantvillage_loss3/classifier_plantvillage_0_split -> loss3/classifier_plantvillage_loss3/classifier_plantvillage_0_split_3
I0403 16:55:28.259685 20003 net.cpp:141] Setting up loss3/classifier_plantvillage_loss3/classifier_plantvillage_0_split
I0403 16:55:28.259716 20003 net.cpp:148] Top shape: 24 38 (912)
I0403 16:55:28.259737 20003 net.cpp:148] Top shape: 24 38 (912)
I0403 16:55:28.259757 20003 net.cpp:148] Top shape: 24 38 (912)
I0403 16:55:28.259775 20003 net.cpp:148] Top shape: 24 38 (912)
I0403 16:55:28.259793 20003 net.cpp:156] Memory required for data: 1346079072
I0403 16:55:28.259811 20003 layer_factory.hpp:77] Creating layer loss1/loss
I0403 16:55:28.259840 20003 net.cpp:91] Creating Layer loss1/loss
I0403 16:55:28.259862 20003 net.cpp:425] loss1/loss <- loss1/classifier_plantvillage_loss1/classifier_plantvillage_0_split_0
I0403 16:55:28.259901 20003 net.cpp:425] loss1/loss <- label_data_1_split_0
…
