…
I0403 16:41:53.256531 19200 net.cpp:313] The NetState phase (1) differed from the phase (0) specified by a rule in layer data
I0403 16:41:53.257951 19200 net.cpp:49] Initializing net from parameters: 
state {
  phase: TEST
}
layer {
  name: "data"
  type: "Data"
  top: "data"
  top: "label"
  include {
    phase: TEST
  }
  transform_param {
    mirror: false
    crop_size: 224
    mean_file: "/home/mohanty/data/final_dataset/lmdb/color-20-80/mean.binaryproto"
  }
  data_param {
    source: "/home/mohanty/data/final_dataset/lmdb/color-20-80/test_db"
    batch_size: 24
    backend: LMDB
  }
}
layer {
  name: "conv1/7x7_s2"
  type: "Convolution"
  bottom: "data"
  top: "conv1/7x7_s2"
  param {
    lr_mult: 1
    decay_mult: 1
  }
  param {
    lr_mult: 2
    decay_mult: 0
  }
  convolution_param {
    num_output: 64
    pad: 3
    kernel_size: 7
    stride: 2
    weight_filler {
      type: "xavier"
      std: 0.1
    }
    bias_filler {
      type: "constant"
      value: 0.2
    }
  }
}
layer {
  name: "conv1/relu_7x7"
  type: "ReLU"
  bottom: "conv1/7x7_s2"
  top: "conv1/7x7_s2"
}
layer {
  name: "pool1/3x3_s2"
  type: "Pooling"
  bottom: "conv1/7x7_s2"
  top: "pool1/3x3_s2"
  pooling_param {
    pool: MAX
    kernel_size: 3
    stride: 2
  }
}
layer {
  name: "pool1/norm1"
  type: "LRN"
  bottom: "pool1/3x3_s2"
  top: "pool1/norm1"
  lrn_param {
    local_size: 5
    alpha: 0.0001
    beta: 0.75
  }
}
layer {
  name: "conv2/3x3_reduce"
  type: "Convolution"
  bottom: "pool1/norm1"
  top: "conv2/3x3_reduce"
  param {
    lr_mult: 1
    decay_mult: 1
  }
  param {
    lr_mult: 2
    decay_mult: 0
  }
  convolution_param {
    num_output: 64
    kernel_size: 1
    weight_filler {
      type: "xavier"
      std: 0.1
    }
    bias_filler {
      type: "constant"
      value: 0.2
    }
  }
}
layer {
  name: "conv2/relu_3x3_reduce"
  type: "ReLU"
  bottom: "conv2/3x3_reduce"
  top: "conv2/3x3_reduce"
}
layer {
  name: "conv2/3x3"
  type: "Convolution"
  bottom: "conv2/3x3_reduce"
  top: "conv2/3x3"
  param {
    lr_mult: 1
    decay_mult: 1
  }
  param {
    lr_mult: 2
    decay_mult: 0
  }
  convolution_param {
    num_output: 192
    pad: 1
    kernel_size: 3
    weight_filler {
      type: "xavier"
      std: 0.03
    }
    bias_filler {
      type: "constant"
      value: 0.2
    }
  }
}
layer {
  name: "conv2/relu_3x3"
  type: "ReLU"
  bottom: "conv2/3x3"
  top: "conv2/3x3"
}
layer {
  name: "conv2/norm2"
  type: "LRN"
  bottom: "conv2/3x3"
  top: "conv2/norm2"
  lrn_param {
    local_size: 5
    alpha: 0.0001
    beta: 0.75
  }
}
layer {
  name: "pool2/3x3_s2"
  type: "Pooling"
  bottom: "conv2/norm2"
  top: "pool2/3x3_s2"
  pooling_param {
    pool: MAX
    kernel_size: 3
    stride: 2
  }
}
layer {
  name: "inception_3a/1x1"
  type: "Convolution"
  bottom: "pool2/3x3_s2"
  top: "inception_3a/1x1"
  param {
    lr_mult: 1
    decay_mult: 1
  }
  param {
    lr_mult: 2
    decay_mult: 0
  }
  convolution_param {
    num_output: 64
    kernel_size: 1
    weight_filler {
      type: "xavier"
      std: 0.03
    }
    bias_filler {
      type: "constant"
      value: 0.2
    }
  }
}
layer {
  name: "inception_3a/relu_1x1"
  type: "ReLU"
  bottom: "inception_3a/1x1"
  top: "inception_3a/1x1"
}
layer {
  name: "inception_3a/3x3_reduce"
  type: "Convolution"
  bottom: "pool2/3x3_s2"
  top: "inception_3a/3x3_reduce"
  param {
    lr_mult: 1
    decay_mult: 1
  }
  param {
    lr_mult: 2
    decay_mult: 0
  }
  convolution_param {
    num_output: 96
    kernel_size: 1
    weight_filler {
      type: "xavier"
      std: 0.09
    }
    bias_filler {
      type: "constant"
      value: 0.2
    }
  }
}
layer {
  name: "inception_3a/relu_3x3_reduce"
  type: "ReLU"
  bottom: "inception_3a/3x3_reduce"
  top: "inception_3a/3x3_reduce"
}
layer {
  name: "inception_3a/3x3"
  type: "Convolution"
  bottom: "inception_3a/3x3_reduce"
  top: "inception_3a/3x3"
  param {
    lr_mult: 1
    decay_mult: 1
  }
  param {
    lr_mult: 2
    decay_mult: 0
  }
  convolution_param {
    num_output: 128
    pad: 1
    kernel_size: 3
    weight_filler {
      type: "xavier"
      std: 0.03
    }
    bias_filler {
      type: "constant"
      value: 0.2
    }
  }
}
layer {
  name: "inception_3a/relu_3x3"
  type: "ReLU"
  bottom: "inception_3a/3x3"
  top: "inception_3a/3x3"
}
layer {
  name: "inception_3a/5x5_reduce"
  type: "Convolution"
  bottom: "pool2/3x3_s2"
  top: "inception_3a/5x5_reduce"
  param {
    lr_mult: 1
    decay_mult: 1
  }
  param {
    lr_mult: 2
    decay_mult: 0
  }
  convolution_param {
    num_output: 16
    kernel_size: 1
    weight_filler {
      type: "xavier"
      std: 0.2
    }
    bias_filler {
      type: "constant"
      value: 0.2
    }
  }
}
layer {
  name: "inception_3a/relu_5x5_reduce"
  type: "ReLU"
  bottom: "inception_3a/5x5_reduce"
  top: "inception_3a/5x5_reduce"
}
layer {
  name: "inception_3a/5x5"
  type: "Convolution"
  bottom: "inception_3a/5x5_reduce"
  top: "inception_3a/5x5"
  param {
    lr_mult: 1
    decay_mult: 1
  }
  param {
    lr_mult: 2
    decay_mult: 0
  }
  convolution_param {
    num_output: 32
    pad: 2
    kernel_size: 5
    weight_filler {
      type: "xavier"
      std: 0.03
    }
    bias_filler {
      type: "constant"
      value: 0.2
    }
  }
}
layer {
  name: "inception_3a/relu_5x5"
  type: "ReLU"
  bottom: "inception_3a/5x5"
  top: "inception_3a/5x5"
}
layer {
  name: "inception_3a/pool"
  type: "Pooling"
  bottom: "pool2/3x3_s2"
  top: "inception_3a/pool"
  pooling_param {
    pool: MAX
    kernel_size: 3
    stride: 1
    pad: 1
  }
}
layer {
  name: "inception_3a/pool_proj"
  type: "Convolution"
  bottom: "inception_3a/pool"
  top: "inception_3a/pool_proj"
  param {
    lr_mult: 1
    decay_mult: 1
  }
  param {
    lr_mult: 2
    decay_mult: 0
  }
  convolution_param {
    num_output: 32
    kernel_size: 1
    weight_filler {
      type: "xavier"
      std: 0.1
    }
    bias_filler {
      type: "constant"
      value: 0.2
    }
  }
}
layer {
  name: "inception_3a/relu_pool_proj"
  type: "ReLU"
  bottom: "inception_3a/pool_proj"
  top: "inception_3a/pool_proj"
}
layer {
  name: "inception_3a/output"
  type: "Concat"
  bottom: "inception_3a/1x1"
  bottom: "inception_3a/3x3"
  bottom: "inception_3a/5x5"
  bottom: "inception_3a/pool_proj"
  top: "inception_3a/output"
}
layer {
  name: "inception_3b/1x1"
  type: "Convolution"
  bottom: "inception_3a/output"
  top: "inception_3b/1x1"
  param {
    lr_mult: 1
    decay_mult: 1
  }
  param {
    lr_mult: 2
    decay_mult: 0
  }
  convolution_param {
    num_output: 128
    kernel_size: 1
    weight_filler {
      type: "xavier"
      std: 0.03
    }
    bias_filler {
      type: "constant"
      value: 0.2
    }
  }
}
layer {
  name: "inception_3b/relu_1x1"
  type: "ReLU"
  bottom: "inception_3b/1x1"
  top: "inception_3b/1x1"
}
layer {
  name: "inception_3b/3x3_reduce"
  type: "Convolution"
  bottom: "inception_3a/output"
  top: "inception_3b/3x3_reduce"
  param {
    lr_mult: 1
    decay_mult: 1
  }
  param {
    lr_mult: 2
    decay_mult: 0
  }
  convolution_param {
    num_output: 128
    kernel_size: 1
    weight_filler {
      type: "xavier"
      std: 0.09
    }
    bias_filler {
      type: "constant"
      value: 0.2
    }
  }
}
layer {
  name: "inception_3b/relu_3x3_reduce"
  type: "ReLU"
  bottom: "inception_3b/3x3_reduce"
  top: "inception_3b/3x3_reduce"
}
layer {
  name: "inception_3b/3x3"
  type: "Convolution"
  bottom: "inception_3b/3x3_reduce"
  top: "inception_3b/3x3"
  param {
    lr_mult: 1
    decay_mult: 1
  }
  param {
    lr_mult: 2
    decay_mult: 0
  }
  convolution_param {
    num_output: 192
    pad: 1
    kernel_size: 3
    weight_filler {
      type: "xavier"
      std: 0.03
    }
    bias_filler {
      type: "constant"
      value: 0.2
    }
  }
}
layer {
  name: "inception_3b/relu_3x3"
  type: "ReLU"
  bottom: "inception_3b/3x3"
  top: "inception_3b/3x3"
}
layer {
  name: "inception_3b/5x5_reduce"
  type: "Convolution"
  bottom: "inception_3a/output"
  top: "inception_3b/5x5_reduce"
  param {
    lr_mult: 1
    decay_mult: 1
  }
  param {
    lr_mult: 2
    decay_mult: 0
  }
  convolution_param {
    num_output: 32
    kernel_size: 1
    weight_filler {
      type: "xavier"
      std: 0.2
    }
    bias_filler {
      type: "constant"
      value: 0.2
    }
  }
}
layer {
  name: "inception_3b/relu_5x5_reduce"
  type: "ReLU"
  bottom: "inception_3b/5x5_reduce"
  top: "inception_3b/5x5_reduce"
}
layer {
  name: "inception_3b/5x5"
  type: "Convolution"
  bottom: "inception_3b/5x5_reduce"
  top: "inception_3b/5x5"
  param {
    lr_mult: 1
    decay_mult: 1
  }
  param {
    lr_mult: 2
    decay_mult: 0
  }
  convolution_param {
    num_output: 96
    pad: 2
    kernel_size: 5
    weight_filler {
      type: "xavier"
      std: 0.03
    }
    bias_filler {
      type: "constant"
      value: 0.2
    }
  }
}
layer {
  name: "inception_3b/relu_5x5"
  type: "ReLU"
  bottom: "inception_3b/5x5"
  top: "inception_3b/5x5"
}
layer {
  name: "inception_3b/pool"
  type: "Pooling"
  bottom: "inception_3a/output"
  top: "inception_3b/pool"
  pooling_param {
    pool: MAX
    kernel_size: 3
    stride: 1
    pad: 1
  }
}
layer {
  name: "inception_3b/pool_proj"
  type: "Convolution"
  bottom: "inception_3b/pool"
  top: "inception_3b/pool_proj"
  param {
    lr_mult: 1
    decay_mult: 1
  }
  param {
    lr_mult: 2
    decay_mult: 0
  }
  convolution_param {
    num_output: 64
    kernel_size: 1
    weight_filler {
      type: "xavier"
      std: 0.1
    }
    bias_filler {
      type: "constant"
      value: 0.2
    }
  }
}
layer {
  name: "inception_3b/relu_pool_proj"
  type: "ReLU"
  bottom: "inception_3b/pool_proj"
  top: "inception_3b/pool_proj"
}
layer {
  name: "inception_3b/output"
  type: "Concat"
  bottom: "inception_3b/1x1"
  bottom: "inception_3b/3x3"
  bottom: "inception_3b/5x5"
  bottom: "inception_3b/pool_proj"
  top: "inception_3b/output"
}
layer {
  name: "pool3/3x3_s2"
  type: "Pooling"
  bottom: "inception_3b/output"
  top: "pool3/3x3_s2"
  pooling_param {
    pool: MAX
    kernel_size: 3
    stride: 2
  }
}
layer {
  name: "inception_4a/1x1"
  type: "Convolution"
  bottom: "pool3/3x3_s2"
  top: "inception_4a/1x1"
  param {
    lr_mult: 1
    decay_mult: 1
  }
  param {
    lr_mult: 2
    decay_mult: 0
  }
  convolution_param {
    num_output: 192
    kernel_size: 1
    weight_filler {
      type: "xavier"
      std: 0.03
    }
    bias_filler {
      type: "constant"
      value: 0.2
    }
  }
}
layer {
  name: "inception_4a/relu_1x1"
  type: "ReLU"
  bottom: "inception_4a/1x1"
  top: "inception_4a/1x1"
}
layer {
  name: "inception_4a/3x3_reduce"
  type: "Convolution"
  bottom: "pool3/3x3_s2"
  top: "inception_4a/3x3_reduce"
  param {
    lr_mult: 1
    decay_mult: 1
  }
  param {
    lr_mult: 2
    decay_mult: 0
  }
  convolution_param {
    num_output: 96
    kernel_size: 1
    weight_filler {
      type: "xavier"
      std: 0.09
    }
    bias_filler {
      type: "constant"
      value: 0.2
    }
  }
}
layer {
  name: "inception_4a/relu_3x3_reduce"
  type: "ReLU"
  bottom: "inception_4a/3x3_reduce"
  top: "inception_4a/3x3_reduce"
}
layer {
  name: "inception_4a/3x3"
  type: "Convolution"
  bottom: "inception_4a/3x3_reduce"
  top: "inception_4a/3x3"
  param {
    lr_mult: 1
    decay_mult: 1
  }
  param {
    lr_mult: 2
    decay_mult: 0
  }
  convolution_param {
    num_output: 208
    pad: 1
    kernel_size: 3
    weight_filler {
      type: "xavier"
      std: 0.03
    }
    bias_filler {
      type: "constant"
      value: 0.2
    }
  }
}
layer {
  name: "inception_4a/relu_3x3"
  type: "ReLU"
  bottom: "inception_4a/3x3"
  top: "inception_4a/3x3"
}
layer {
  name: "inception_4a/5x5_reduce"
  type: "Convolution"
  bottom: "pool3/3x3_s2"
  top: "inception_4a/5x5_reduce"
  param {
    lr_mult: 1
    decay_mult: 1
  }
  param {
    lr_mult: 2
    decay_mult: 0
  }
  convolution_param {
    num_output: 16
    kernel_size: 1
    weight_filler {
      type: "xavier"
      std: 0.2
    }
    bias_filler {
      type: "constant"
      value: 0.2
    }
  }
}
layer {
  name: "inception_4a/relu_5x5_reduce"
  type: "ReLU"
  bottom: "inception_4a/5x5_reduce"
  top: "inception_4a/5x5_reduce"
}
layer {
  name: "inception_4a/5x5"
  type: "Convolution"
  bottom: "inception_4a/5x5_reduce"
  top: "inception_4a/5x5"
  param {
    lr_mult: 1
    decay_mult: 1
  }
  param {
    lr_mult: 2
    decay_mult: 0
  }
  convolution_param {
    num_output: 48
    pad: 2
    kernel_size: 5
    weight_filler {
      type: "xavier"
      std: 0.03
    }
    bias_filler {
      type: "constant"
      value: 0.2
    }
  }
}
layer {
  name: "inception_4a/relu_5x5"
  type: "ReLU"
  bottom: "inception_4a/5x5"
  top: "inception_4a/5x5"
}
layer {
  name: "inception_4a/pool"
  type: "Pooling"
  bottom: "pool3/3x3_s2"
  top: "inception_4a/pool"
  pooling_param {
    pool: MAX
    kernel_size: 3
    stride: 1
    pad: 1
  }
}
layer {
  name: "inception_4a/pool_proj"
  type: "Convolution"
  bottom: "inception_4a/pool"
  top: "inception_4a/pool_proj"
  param {
    lr_mult: 1
    decay_mult: 1
  }
  param {
    lr_mult: 2
    decay_mult: 0
  }
  convolution_param {
    num_output: 64
    kernel_size: 1
    weight_filler {
      type: "xavier"
      std: 0.1
    }
    bias_filler {
      type: "constant"
      value: 0.2
    }
  }
}
layer {
  name: "inception_4a/relu_pool_proj"
  type: "ReLU"
  bottom: "inception_4a/pool_proj"
  top: "inception_4a/pool_proj"
}
layer {
  name: "inception_4a/output"
  type: "Concat"
  bottom: "inception_4a/1x1"
  bottom: "inception_4a/3x3"
  bottom: "inception_4a/5x5"
  bottom: "inception_4a/pool_proj"
  top: "inception_4a/output"
}
layer {
  name: "loss1/ave_pool"
  type: "Pooling"
  bottom: "inception_4a/output"
  top: "loss1/ave_pool"
  pooling_param {
    pool: AVE
    kernel_size: 5
    stride: 3
  }
}
layer {
  name: "loss1/conv"
  type: "Convolution"
  bottom: "loss1/ave_pool"
  top: "loss1/conv"
  param {
    lr_mult: 1
    decay_mult: 1
  }
  param {
    lr_mult: 2
    decay_mult: 0
  }
  convolution_param {
    num_output: 128
    kernel_size: 1
    weight_filler {
      type: "xavier"
      std: 0.08
    }
    bias_filler {
      type: "constant"
      value: 0.2
    }
  }
}
layer {
  name: "loss1/relu_conv"
  type: "ReLU"
  bottom: "loss1/conv"
  top: "loss1/conv"
}
layer {
  name: "loss1/fc"
  type: "InnerProduct"
  bottom: "loss1/conv"
  top: "loss1/fc"
  param {
    lr_mult: 1
    decay_mult: 1
  }
  param {
    lr_mult: 2
    decay_mult: 0
  }
  inner_product_param {
    num_output: 1024
    weight_filler {
      type: "xavier"
      std: 0.02
    }
    bias_filler {
      type: "constant"
      value: 0.2
    }
  }
}
layer {
  name: "loss1/relu_fc"
  type: "ReLU"
  bottom: "loss1/fc"
  top: "loss1/fc"
}
layer {
  name: "loss1/drop_fc"
  type: "Dropout"
  bottom: "loss1/fc"
  top: "loss1/fc"
  dropout_param {
    dropout_ratio: 0.7
  }
}
layer {
  name: "loss1/classifier_plantvillage"
  type: "InnerProduct"
  bottom: "loss1/fc"
  top: "loss1/classifier_plantvillage"
  param {
    lr_mult: 1
    decay_mult: 1
  }
  param {
    lr_mult: 2
    decay_mult: 0
  }
  inner_product_param {
    num_output: 38
    weight_filler {
      type: "xavier"
      std: 0.0009765625
    }
    bias_filler {
      type: "constant"
      value: 0
    }
  }
}
layer {
  name: "inception_4b/1x1"
  type: "Convolution"
  bottom: "inception_4a/output"
  top: "inception_4b/1x1"
  param {
    lr_mult: 1
    decay_mult: 1
  }
  param {
    lr_mult: 2
    decay_mult: 0
  }
  convolution_param {
    num_output: 160
    kernel_size: 1
    weight_filler {
      type: "xavier"
      std: 0.03
    }
    bias_filler {
      type: "constant"
      value: 0.2
    }
  }
}
layer {
  name: "inception_4b/relu_1x1"
  type: "ReLU"
  bottom: "inception_4b/1x1"
  top: "inception_4b/1x1"
}
layer {
  name: "inception_4b/3x3_reduce"
  type: "Convolution"
  bottom: "inception_4a/output"
  top: "inception_4b/3x3_reduce"
  param {
    lr_mult: 1
    decay_mult: 1
  }
  param {
    lr_mult: 2
    decay_mult: 0
  }
  convolution_param {
    num_output: 112
    kernel_size: 1
    weight_filler {
      type: "xavier"
      std: 0.09
    }
    bias_filler {
      type: "constant"
      value: 0.2
    }
  }
}
layer {
  name: "inception_4b/relu_3x3_reduce"
  type: "ReLU"
  bottom: "inception_4b/3x3_reduce"
  top: "inception_4b/3x3_reduce"
}
layer {
  name: "inception_4b/3x3"
  type: "Convolution"
  bottom: "inception_4b/3x3_reduce"
  top: "inception_4b/3x3"
  param {
    lr_mult: 1
    decay_mult: 1
  }
  param {
    lr_mult: 2
    decay_mult: 0
  }
  convolution_param {
    num_output: 224
    pad: 1
    kernel_size: 3
    weight_filler {
      type: "xavier"
      std: 0.03
    }
    bias_filler {
      type: "constant"
      value: 0.2
    }
  }
}
layer {
  name: "inception_4b/relu_3x3"
  type: "ReLU"
  bottom: "inception_4b/3x3"
  top: "inception_4b/3x3"
}
layer {
  name: "inception_4b/5x5_reduce"
  type: "Convolution"
  bottom: "inception_4a/output"
  top: "inception_4b/5x5_reduce"
  param {
    lr_mult: 1
    decay_mult: 1
  }
  param {
    lr_mult: 2
    decay_mult: 0
  }
  convolution_param {
    num_output: 24
    kernel_size: 1
    weight_filler {
      type: "xavier"
      std: 0.2
    }
    bias_filler {
      type: "constant"
      value: 0.2
    }
  }
}
layer {
  name: "inception_4b/relu_5x5_reduce"
  type: "ReLU"
  bottom: "inception_4b/5x5_reduce"
  top: "inception_4b/5x5_reduce"
}
layer {
  name: "inception_4b/5x5"
  type: "Convolution"
  bottom: "inception_4b/5x5_reduce"
  top: "inception_4b/5x5"
  param {
    lr_mult: 1
    decay_mult: 1
  }
  param {
    lr_mult: 2
    decay_mult: 0
  }
  convolution_param {
    num_output: 64
    pad: 2
    kernel_size: 5
    weight_filler {
      type: "xavier"
      std: 0.03
    }
    bias_filler {
      type: "constant"
      value: 0.2
    }
  }
}
layer {
  name: "inception_4b/relu_5x5"
  type: "ReLU"
  bottom: "inception_4b/5x5"
  top: "inception_4b/5x5"
}
layer {
  name: "inception_4b/pool"
  type: "Pooling"
  bottom: "inception_4a/output"
  top: "inception_4b/pool"
  pooling_param {
    pool: MAX
    kernel_size: 3
    stride: 1
    pad: 1
  }
}
layer {
  name: "inception_4b/pool_proj"
  type: "Convolution"
  bottom: "inception_4b/pool"
  top: "inception_4b/pool_proj"
  param {
    lr_mult: 1
    decay_mult: 1
  }
  param {
    lr_mult: 2
    decay_mult: 0
  }
  convolution_param {
    num_output: 64
    kernel_size: 1
    weight_filler {
      type: "xavier"
      std: 0.1
    }
    bias_filler {
      type: "constant"
      value: 0.2
    }
  }
}
layer {
  name: "inception_4b/relu_pool_proj"
  type: "ReLU"
  bottom: "inception_4b/pool_proj"
  top: "inception_4b/pool_proj"
}
layer {
  name: "inception_4b/output"
  type: "Concat"
  bottom: "inception_4b/1x1"
  bottom: "inception_4b/3x3"
  bottom: "inception_4b/5x5"
  bottom: "inception_4b/pool_proj"
  top: "inception_4b/output"
}
layer {
  name: "inception_4c/1x1"
  type: "Convolution"
  bottom: "inception_4b/output"
  top: "inception_4c/1x1"
  param {
    lr_mult: 1
    decay_mult: 1
  }
  param {
    lr_mult: 2
    decay_mult: 0
  }
  convolution_param {
    num_output: 128
    kernel_size: 1
    weight_filler {
      type: "xavier"
      std: 0.03
    }
    bias_filler {
      type: "constant"
      value: 0.2
    }
  }
}
layer {
  name: "inception_4c/relu_1x1"
  type: "ReLU"
  bottom: "inception_4c/1x1"
  top: "inception_4c/1x1"
}
layer {
  name: "inception_4c/3x3_reduce"
  type: "Convolution"
  bottom: "inception_4b/output"
  top: "inception_4c/3x3_reduce"
  param {
    lr_mult: 1
    decay_mult: 1
  }
  param {
    lr_mult: 2
    decay_mult: 0
  }
  convolution_param {
    num_output: 128
    kernel_size: 1
    weight_filler {
      type: "xavier"
      std: 0.09
    }
    bias_filler {
      type: "constant"
      value: 0.2
    }
  }
}
layer {
  name: "inception_4c/relu_3x3_reduce"
  type: "ReLU"
  bottom: "inception_4c/3x3_reduce"
  top: "inception_4c/3x3_reduce"
}
layer {
  name: "inception_4c/3x3"
  type: "Convolution"
  bottom: "inception_4c/3x3_reduce"
  top: "inception_4c/3x3"
  param {
    lr_mult: 1
    decay_mult: 1
  }
  param {
    lr_mult: 2
    decay_mult: 0
  }
  convolution_param {
    num_output: 256
    pad: 1
    kernel_size: 3
    weight_filler {
      type: "xavier"
      std: 0.03
    }
    bias_filler {
      type: "constant"
      value: 0.2
    }
  }
}
layer {
  name: "inception_4c/relu_3x3"
  type: "ReLU"
  bottom: "inception_4c/3x3"
  top: "inception_4c/3x3"
}
layer {
  name: "inception_4c/5x5_reduce"
  type: "Convolution"
  bottom: "inception_4b/output"
  top: "inception_4c/5x5_reduce"
  param {
    lr_mult: 1
    decay_mult: 1
  }
  param {
    lr_mult: 2
    decay_mult: 0
  }
  convolution_param {
    num_output: 24
    kernel_size: 1
    weight_filler {
      type: "xavier"
      std: 0.2
    }
    bias_filler {
      type: "constant"
      value: 0.2
    }
  }
}
layer {
  name: "inception_4c/relu_5x5_reduce"
  type: "ReLU"
  bottom: "inception_4c/5x5_reduce"
  top: "inception_4c/5x5_reduce"
}
layer {
  name: "inception_4c/5x5"
  type: "Convolution"
  bottom: "inception_4c/5x5_reduce"
  top: "inception_4c/5x5"
  param {
    lr_mult: 1
    decay_mult: 1
  }
  param {
    lr_mult: 2
    decay_mult: 0
  }
  convolution_param {
    num_output: 64
    pad: 2
    kernel_size: 5
    weight_filler {
      type: "xavier"
      std: 0.03
    }
    bias_filler {
      type: "constant"
      value: 0.2
    }
  }
}
layer {
  name: "inception_4c/relu_5x5"
  type: "ReLU"
  bottom: "inception_4c/5x5"
  top: "inception_4c/5x5"
}
layer {
  name: "inception_4c/pool"
  type: "Pooling"
  bottom: "inception_4b/output"
  top: "inception_4c/pool"
  pooling_param {
    pool: MAX
    kernel_size: 3
    stride: 1
    pad: 1
  }
}
layer {
  name: "inception_4c/pool_proj"
  type: "Convolution"
  bottom: "inception_4c/pool"
  top: "inception_4c/pool_proj"
  param {
    lr_mult: 1
    decay_mult: 1
  }
  param {
    lr_mult: 2
    decay_mult: 0
  }
  convolution_param {
    num_output: 64
    kernel_size: 1
    weight_filler {
      type: "xavier"
      std: 0.1
    }
    bias_filler {
      type: "constant"
      value: 0.2
    }
  }
}
layer {
  name: "inception_4c/relu_pool_proj"
  type: "ReLU"
  bottom: "inception_4c/pool_proj"
  top: "inception_4c/pool_proj"
}
layer {
  name: "inception_4c/output"
  type: "Concat"
  bottom: "inception_4c/1x1"
  bottom: "inception_4c/3x3"
  bottom: "inception_4c/5x5"
  bottom: "inception_4c/pool_proj"
  top: "inception_4c/output"
}
layer {
  name: "inception_4d/1x1"
  type: "Convolution"
  bottom: "inception_4c/output"
  top: "inception_4d/1x1"
  param {
    lr_mult: 1
    decay_mult: 1
  }
  param {
    lr_mult: 2
    decay_mult: 0
  }
  convolution_param {
    num_output: 112
    kernel_size: 1
    weight_filler {
      type: "xavier"
      std: 0.03
    }
    bias_filler {
      type: "constant"
      value: 0.2
    }
  }
}
layer {
  name: "inception_4d/relu_1x1"
  type: "ReLU"
  bottom: "inception_4d/1x1"
  top: "inception_4d/1x1"
}
layer {
  name: "inception_4d/3x3_reduce"
  type: "Convolution"
  bottom: "inception_4c/output"
  top: "inception_4d/3x3_reduce"
  param {
    lr_mult: 1
    decay_mult: 1
  }
  param {
    lr_mult: 2
    decay_mult: 0
  }
  convolution_param {
    num_output: 144
    kernel_size: 1
    weight_filler {
      type: "xavier"
      std: 0.09
    }
    bias_filler {
      type: "constant"
      value: 0.2
    }
  }
}
layer {
  name: "inception_4d/relu_3x3_reduce"
  type: "ReLU"
  bottom: "inception_4d/3x3_reduce"
  top: "inception_4d/3x3_reduce"
}
layer {
  name: "inception_4d/3x3"
  type: "Convolution"
  bottom: "inception_4d/3x3_reduce"
  top: "inception_4d/3x3"
  param {
    lr_mult: 1
    decay_mult: 1
  }
  param {
    lr_mult: 2
    decay_mult: 0
  }
  convolution_param {
    num_output: 288
    pad: 1
    kernel_size: 3
    weight_filler {
      type: "xavier"
      std: 0.03
    }
    bias_filler {
      type: "constant"
      value: 0.2
    }
  }
}
layer {
  name: "inception_4d/relu_3x3"
  type: "ReLU"
  bottom: "inception_4d/3x3"
  top: "inception_4d/3x3"
}
layer {
  name: "inception_4d/5x5_reduce"
  type: "Convolution"
  bottom: "inception_4c/output"
  top: "inception_4d/5x5_reduce"
  param {
    lr_mult: 1
    decay_mult: 1
  }
  param {
    lr_mult: 2
    decay_mult: 0
  }
  convolution_param {
    num_output: 32
    kernel_size: 1
    weight_filler {
      type: "xavier"
      std: 0.2
    }
    bias_filler {
      type: "constant"
      value: 0.2
    }
  }
}
layer {
  name: "inception_4d/relu_5x5_reduce"
  type: "ReLU"
  bottom: "inception_4d/5x5_reduce"
  top: "inception_4d/5x5_reduce"
}
layer {
  name: "inception_4d/5x5"
  type: "Convolution"
  bottom: "inception_4d/5x5_reduce"
  top: "inception_4d/5x5"
  param {
    lr_mult: 1
    decay_mult: 1
  }
  param {
    lr_mult: 2
    decay_mult: 0
  }
  convolution_param {
    num_output: 64
    pad: 2
    kernel_size: 5
    weight_filler {
      type: "xavier"
      std: 0.03
    }
    bias_filler {
      type: "constant"
      value: 0.2
    }
  }
}
layer {
  name: "inception_4d/relu_5x5"
  type: "ReLU"
  bottom: "inception_4d/5x5"
  top: "inception_4d/5x5"
}
layer {
  name: "inception_4d/pool"
  type: "Pooling"
  bottom: "inception_4c/output"
  top: "inception_4d/pool"
  pooling_param {
    pool: MAX
    kernel_size: 3
    stride: 1
    pad: 1
  }
}
layer {
  name: "inception_4d/pool_proj"
  type: "Convolution"
  bottom: "inception_4d/pool"
  top: "inception_4d/pool_proj"
  param {
    lr_mult: 1
    decay_mult: 1
  }
  param {
    lr_mult: 2
    decay_mult: 0
  }
  convolution_param {
    num_output: 64
    kernel_size: 1
    weight_filler {
      type: "xavier"
      std: 0.1
    }
    bias_filler {
      type: "constant"
      value: 0.2
    }
  }
}
layer {
  name: "inception_4d/relu_pool_proj"
  type: "ReLU"
  bottom: "inception_4d/pool_proj"
  top: "inception_4d/pool_proj"
}
layer {
  name: "inception_4d/output"
  type: "Concat"
  bottom: "inception_4d/1x1"
  bottom: "inception_4d/3x3"
  bottom: "inception_4d/5x5"
  bottom: "inception_4d/pool_proj"
  top: "inception_4d/output"
}
layer {
  name: "loss2/ave_pool"
  type: "Pooling"
  bottom: "inception_4d/output"
  top: "loss2/ave_pool"
  pooling_param {
    pool: AVE
    kernel_size: 5
    stride: 3
  }
}
layer {
  name: "loss2/conv"
  type: "Convolution"
  bottom: "loss2/ave_pool"
  top: "loss2/conv"
  param {
    lr_mult: 1
    decay_mult: 1
  }
  param {
    lr_mult: 2
    decay_mult: 0
  }
  convolution_param {
    num_output: 128
    kernel_size: 1
    weight_filler {
      type: "xavier"
      std: 0.08
    }
    bias_filler {
      type: "constant"
      value: 0.2
    }
  }
}
layer {
  name: "loss2/relu_conv"
  type: "ReLU"
  bottom: "loss2/conv"
  top: "loss2/conv"
}
layer {
  name: "loss2/fc"
  type: "InnerProduct"
  bottom: "loss2/conv"
  top: "loss2/fc"
  param {
    lr_mult: 1
    decay_mult: 1
  }
  param {
    lr_mult: 2
    decay_mult: 0
  }
  inner_product_param {
    num_output: 1024
    weight_filler {
      type: "xavier"
      std: 0.02
    }
    bias_filler {
      type: "constant"
      value: 0.2
    }
  }
}
layer {
  name: "loss2/relu_fc"
  type: "ReLU"
  bottom: "loss2/fc"
  top: "loss2/fc"
}
layer {
  name: "loss2/drop_fc"
  type: "Dropout"
  bottom: "loss2/fc"
  top: "loss2/fc"
  dropout_param {
    dropout_ratio: 0.7
  }
}
layer {
  name: "loss2/classifier_plantvillage"
  type: "InnerProduct"
  bottom: "loss2/fc"
  top: "loss2/classifier_plantvillage"
  param {
    lr_mult: 1
    decay_mult: 1
  }
  param {
    lr_mult: 2
    decay_mult: 0
  }
  inner_product_param {
    num_output: 38
    weight_filler {
      type: "xavier"
      std: 0.0009765625
    }
    bias_filler {
      type: "constant"
      value: 0
    }
  }
}
layer {
  name: "inception_4e/1x1"
  type: "Convolution"
  bottom: "inception_4d/output"
  top: "inception_4e/1x1"
  param {
    lr_mult: 1
    decay_mult: 1
  }
  param {
    lr_mult: 2
    decay_mult: 0
  }
  convolution_param {
    num_output: 256
    kernel_size: 1
    weight_filler {
      type: "xavier"
      std: 0.03
    }
    bias_filler {
      type: "constant"
      value: 0.2
    }
  }
}
layer {
  name: "inception_4e/relu_1x1"
  type: "ReLU"
  bottom: "inception_4e/1x1"
  top: "inception_4e/1x1"
}
layer {
  name: "inception_4e/3x3_reduce"
  type: "Convolution"
  bottom: "inception_4d/output"
  top: "inception_4e/3x3_reduce"
  param {
    lr_mult: 1
    decay_mult: 1
  }
  param {
    lr_mult: 2
    decay_mult: 0
  }
  convolution_param {
    num_output: 160
    kernel_size: 1
    weight_filler {
      type: "xavier"
      std: 0.09
    }
    bias_filler {
      type: "constant"
      value: 0.2
    }
  }
}
layer {
  name: "inception_4e/relu_3x3_reduce"
  type: "ReLU"
  bottom: "inception_4e/3x3_reduce"
  top: "inception_4e/3x3_reduce"
}
layer {
  name: "inception_4e/3x3"
  type: "Convolution"
  bottom: "inception_4e/3x3_reduce"
  top: "inception_4e/3x3"
  param {
    lr_mult: 1
    decay_mult: 1
  }
  param {
    lr_mult: 2
    decay_mult: 0
  }
  convolution_param {
    num_output: 320
    pad: 1
    kernel_size: 3
    weight_filler {
      type: "xavier"
      std: 0.03
    }
    bias_filler {
      type: "constant"
      value: 0.2
    }
  }
}
layer {
  name: "inception_4e/relu_3x3"
  type: "ReLU"
  bottom: "inception_4e/3x3"
  top: "inception_4e/3x3"
}
layer {
  name: "inception_4e/5x5_reduce"
  type: "Convolution"
  bottom: "inception_4d/output"
  top: "inception_4e/5x5_reduce"
  param {
    lr_mult: 1
    decay_mult: 1
  }
  param {
    lr_mult: 2
    decay_mult: 0
  }
  convolution_param {
    num_output: 32
    kernel_size: 1
    weight_filler {
      type: "xavier"
      std: 0.2
    }
    bias_filler {
      type: "constant"
      value: 0.2
    }
  }
}
layer {
  name: "inception_4e/relu_5x5_reduce"
  type: "ReLU"
  bottom: "inception_4e/5x5_reduce"
  top: "inception_4e/5x5_reduce"
}
layer {
  name: "inception_4e/5x5"
  type: "Convolution"
  bottom: "inception_4e/5x5_reduce"
  top: "inception_4e/5x5"
  p
I0403 16:41:53.259491 19200 layer_factory.hpp:77] Creating layer data
I0403 16:41:53.260211 19200 net.cpp:91] Creating Layer data
I0403 16:41:53.260248 19200 net.cpp:399] data -> data
I0403 16:41:53.260309 19200 net.cpp:399] data -> label
I0403 16:41:53.260355 19200 data_transformer.cpp:25] Loading mean file from: /home/mohanty/data/final_dataset/lmdb/color-20-80/mean.binaryproto
I0403 16:41:53.261718 19203 db_lmdb.cpp:38] Opened lmdb /home/mohanty/data/final_dataset/lmdb/color-20-80/test_db
I0403 16:41:53.276021 19200 data_layer.cpp:41] output data size: 24,3,224,224
I0403 16:41:53.307615 19200 net.cpp:141] Setting up data
I0403 16:41:53.307705 19200 net.cpp:148] Top shape: 24 3 224 224 (3612672)
I0403 16:41:53.307732 19200 net.cpp:148] Top shape: 24 (24)
I0403 16:41:53.307752 19200 net.cpp:156] Memory required for data: 14450784
I0403 16:41:53.307785 19200 layer_factory.hpp:77] Creating layer label_data_1_split
I0403 16:41:53.307818 19200 net.cpp:91] Creating Layer label_data_1_split
I0403 16:41:53.307842 19200 net.cpp:425] label_data_1_split <- label
I0403 16:41:53.307878 19200 net.cpp:399] label_data_1_split -> label_data_1_split_0
I0403 16:41:53.307911 19200 net.cpp:399] label_data_1_split -> label_data_1_split_1
I0403 16:41:53.307939 19200 net.cpp:399] label_data_1_split -> label_data_1_split_2
I0403 16:41:53.307965 19200 net.cpp:399] label_data_1_split -> label_data_1_split_3
I0403 16:41:53.307989 19200 net.cpp:399] label_data_1_split -> label_data_1_split_4
I0403 16:41:53.308014 19200 net.cpp:399] label_data_1_split -> label_data_1_split_5
I0403 16:41:53.308039 19200 net.cpp:399] label_data_1_split -> label_data_1_split_6
I0403 16:41:53.308064 19200 net.cpp:399] label_data_1_split -> label_data_1_split_7
I0403 16:41:53.308089 19200 net.cpp:399] label_data_1_split -> label_data_1_split_8
I0403 16:41:53.308115 19200 net.cpp:399] label_data_1_split -> label_data_1_split_9
I0403 16:41:53.308251 19200 net.cpp:141] Setting up label_data_1_split
I0403 16:41:53.308280 19200 net.cpp:148] Top shape: 24 (24)
I0403 16:41:53.308302 19200 net.cpp:148] Top shape: 24 (24)
I0403 16:41:53.308323 19200 net.cpp:148] Top shape: 24 (24)
I0403 16:41:53.308342 19200 net.cpp:148] Top shape: 24 (24)
I0403 16:41:53.308362 19200 net.cpp:148] Top shape: 24 (24)
I0403 16:41:53.308380 19200 net.cpp:148] Top shape: 24 (24)
I0403 16:41:53.308400 19200 net.cpp:148] Top shape: 24 (24)
I0403 16:41:53.308419 19200 net.cpp:148] Top shape: 24 (24)
I0403 16:41:53.308439 19200 net.cpp:148] Top shape: 24 (24)
I0403 16:41:53.308459 19200 net.cpp:148] Top shape: 24 (24)
I0403 16:41:53.308512 19200 net.cpp:156] Memory required for data: 14451744
I0403 16:41:53.308532 19200 layer_factory.hpp:77] Creating layer conv1/7x7_s2
I0403 16:41:53.308575 19200 net.cpp:91] Creating Layer conv1/7x7_s2
I0403 16:41:53.308600 19200 net.cpp:425] conv1/7x7_s2 <- data
I0403 16:41:53.308625 19200 net.cpp:399] conv1/7x7_s2 -> conv1/7x7_s2
I0403 16:41:53.476086 19200 net.cpp:141] Setting up conv1/7x7_s2
I0403 16:41:53.476176 19200 net.cpp:148] Top shape: 24 64 112 112 (19267584)
I0403 16:41:53.476198 19200 net.cpp:156] Memory required for data: 91522080
I0403 16:41:53.476236 19200 layer_factory.hpp:77] Creating layer conv1/relu_7x7
I0403 16:41:53.476269 19200 net.cpp:91] Creating Layer conv1/relu_7x7
I0403 16:41:53.476294 19200 net.cpp:425] conv1/relu_7x7 <- conv1/7x7_s2
I0403 16:41:53.476316 19200 net.cpp:386] conv1/relu_7x7 -> conv1/7x7_s2 (in-place)
I0403 16:41:53.476624 19200 net.cpp:141] Setting up conv1/relu_7x7
I0403 16:41:53.476656 19200 net.cpp:148] Top shape: 24 64 112 112 (19267584)
I0403 16:41:53.476676 19200 net.cpp:156] Memory required for data: 168592416
I0403 16:41:53.476696 19200 layer_factory.hpp:77] Creating layer pool1/3x3_s2
I0403 16:41:53.476725 19200 net.cpp:91] Creating Layer pool1/3x3_s2
I0403 16:41:53.476747 19200 net.cpp:425] pool1/3x3_s2 <- conv1/7x7_s2
I0403 16:41:53.476838 19200 net.cpp:399] pool1/3x3_s2 -> pool1/3x3_s2
I0403 16:41:53.476935 19200 net.cpp:141] Setting up pool1/3x3_s2
I0403 16:41:53.476965 19200 net.cpp:148] Top shape: 24 64 56 56 (4816896)
I0403 16:41:53.476984 19200 net.cpp:156] Memory required for data: 187860000
I0403 16:41:53.477004 19200 layer_factory.hpp:77] Creating layer pool1/norm1
I0403 16:41:53.477032 19200 net.cpp:91] Creating Layer pool1/norm1
I0403 16:41:53.477054 19200 net.cpp:425] pool1/norm1 <- pool1/3x3_s2
I0403 16:41:53.477077 19200 net.cpp:399] pool1/norm1 -> pool1/norm1
I0403 16:41:53.477419 19200 net.cpp:141] Setting up pool1/norm1
I0403 16:41:53.477452 19200 net.cpp:148] Top shape: 24 64 56 56 (4816896)
I0403 16:41:53.477473 19200 net.cpp:156] Memory required for data: 207127584
I0403 16:41:53.477490 19200 layer_factory.hpp:77] Creating layer conv2/3x3_reduce
I0403 16:41:53.477520 19200 net.cpp:91] Creating Layer conv2/3x3_reduce
I0403 16:41:53.477540 19200 net.cpp:425] conv2/3x3_reduce <- pool1/norm1
I0403 16:41:53.477562 19200 net.cpp:399] conv2/3x3_reduce -> conv2/3x3_reduce
I0403 16:41:53.479185 19200 net.cpp:141] Setting up conv2/3x3_reduce
I0403 16:41:53.479223 19200 net.cpp:148] Top shape: 24 64 56 56 (4816896)
I0403 16:41:53.479243 19200 net.cpp:156] Memory required for data: 226395168
I0403 16:41:53.479269 19200 layer_factory.hpp:77] Creating layer conv2/relu_3x3_reduce
I0403 16:41:53.479291 19200 net.cpp:91] Creating Layer conv2/relu_3x3_reduce
I0403 16:41:53.479311 19200 net.cpp:425] conv2/relu_3x3_reduce <- conv2/3x3_reduce
I0403 16:41:53.479332 19200 net.cpp:386] conv2/relu_3x3_reduce -> conv2/3x3_reduce (in-place)
I0403 16:41:53.479635 19200 net.cpp:141] Setting up conv2/relu_3x3_reduce
I0403 16:41:53.479668 19200 net.cpp:148] Top shape: 24 64 56 56 (4816896)
I0403 16:41:53.479687 19200 net.cpp:156] Memory required for data: 245662752
I0403 16:41:53.479706 19200 layer_factory.hpp:77] Creating layer conv2/3x3
I0403 16:41:53.479732 19200 net.cpp:91] Creating Layer conv2/3x3
I0403 16:41:53.479753 19200 net.cpp:425] conv2/3x3 <- conv2/3x3_reduce
I0403 16:41:53.479779 19200 net.cpp:399] conv2/3x3 -> conv2/3x3
I0403 16:41:53.482486 19200 net.cpp:141] Setting up conv2/3x3
I0403 16:41:53.482524 19200 net.cpp:148] Top shape: 24 192 56 56 (14450688)
I0403 16:41:53.482545 19200 net.cpp:156] Memory required for data: 303465504
I0403 16:41:53.482575 19200 layer_factory.hpp:77] Creating layer conv2/relu_3x3
I0403 16:41:53.482601 19200 net.cpp:91] Creating Layer conv2/relu_3x3
I0403 16:41:53.482621 19200 net.cpp:425] conv2/relu_3x3 <- conv2/3x3
I0403 16:41:53.482643 19200 net.cpp:386] conv2/relu_3x3 -> conv2/3x3 (in-place)
I0403 16:41:53.482839 19200 net.cpp:141] Setting up conv2/relu_3x3
I0403 16:41:53.482870 19200 net.cpp:148] Top shape: 24 192 56 56 (14450688)
I0403 16:41:53.482925 19200 net.cpp:156] Memory required for data: 361268256
I0403 16:41:53.482976 19200 layer_factory.hpp:77] Creating layer conv2/norm2
I0403 16:41:53.483005 19200 net.cpp:91] Creating Layer conv2/norm2
I0403 16:41:53.483026 19200 net.cpp:425] conv2/norm2 <- conv2/3x3
I0403 16:41:53.483048 19200 net.cpp:399] conv2/norm2 -> conv2/norm2
I0403 16:41:53.483393 19200 net.cpp:141] Setting up conv2/norm2
I0403 16:41:53.483427 19200 net.cpp:148] Top shape: 24 192 56 56 (14450688)
I0403 16:41:53.483446 19200 net.cpp:156] Memory required for data: 419071008
I0403 16:41:53.483465 19200 layer_factory.hpp:77] Creating layer pool2/3x3_s2
I0403 16:41:53.483487 19200 net.cpp:91] Creating Layer pool2/3x3_s2
I0403 16:41:53.483507 19200 net.cpp:425] pool2/3x3_s2 <- conv2/norm2
I0403 16:41:53.483530 19200 net.cpp:399] pool2/3x3_s2 -> pool2/3x3_s2
I0403 16:41:53.483595 19200 net.cpp:141] Setting up pool2/3x3_s2
I0403 16:41:53.483624 19200 net.cpp:148] Top shape: 24 192 28 28 (3612672)
I0403 16:41:53.483644 19200 net.cpp:156] Memory required for data: 433521696
I0403 16:41:53.483664 19200 layer_factory.hpp:77] Creating layer pool2/3x3_s2_pool2/3x3_s2_0_split
I0403 16:41:53.483685 19200 net.cpp:91] Creating Layer pool2/3x3_s2_pool2/3x3_s2_0_split
I0403 16:41:53.483703 19200 net.cpp:425] pool2/3x3_s2_pool2/3x3_s2_0_split <- pool2/3x3_s2
I0403 16:41:53.483726 19200 net.cpp:399] pool2/3x3_s2_pool2/3x3_s2_0_split -> pool2/3x3_s2_pool2/3x3_s2_0_split_0
I0403 16:41:53.483749 19200 net.cpp:399] pool2/3x3_s2_pool2/3x3_s2_0_split -> pool2/3x3_s2_pool2/3x3_s2_0_split_1
I0403 16:41:53.483777 19200 net.cpp:399] pool2/3x3_s2_pool2/3x3_s2_0_split -> pool2/3x3_s2_pool2/3x3_s2_0_split_2
I0403 16:41:53.483801 19200 net.cpp:399] pool2/3x3_s2_pool2/3x3_s2_0_split -> pool2/3x3_s2_pool2/3x3_s2_0_split_3
I0403 16:41:53.483880 19200 net.cpp:141] Setting up pool2/3x3_s2_pool2/3x3_s2_0_split
I0403 16:41:53.483906 19200 net.cpp:148] Top shape: 24 192 28 28 (3612672)
I0403 16:41:53.483927 19200 net.cpp:148] Top shape: 24 192 28 28 (3612672)
I0403 16:41:53.483947 19200 net.cpp:148] Top shape: 24 192 28 28 (3612672)
I0403 16:41:53.483968 19200 net.cpp:148] Top shape: 24 192 28 28 (3612672)
I0403 16:41:53.483985 19200 net.cpp:156] Memory required for data: 491324448
I0403 16:41:53.484004 19200 layer_factory.hpp:77] Creating layer inception_3a/1x1
I0403 16:41:53.484028 19200 net.cpp:91] Creating Layer inception_3a/1x1
I0403 16:41:53.484048 19200 net.cpp:425] inception_3a/1x1 <- pool2/3x3_s2_pool2/3x3_s2_0_split_0
I0403 16:41:53.484072 19200 net.cpp:399] inception_3a/1x1 -> inception_3a/1x1
I0403 16:41:53.485838 19200 net.cpp:141] Setting up inception_3a/1x1
I0403 16:41:53.485875 19200 net.cpp:148] Top shape: 24 64 28 28 (1204224)
I0403 16:41:53.485895 19200 net.cpp:156] Memory required for data: 496141344
I0403 16:41:53.485919 19200 layer_factory.hpp:77] Creating layer inception_3a/relu_1x1
I0403 16:41:53.485944 19200 net.cpp:91] Creating Layer inception_3a/relu_1x1
I0403 16:41:53.485963 19200 net.cpp:425] inception_3a/relu_1x1 <- inception_3a/1x1
I0403 16:41:53.485985 19200 net.cpp:386] inception_3a/relu_1x1 -> inception_3a/1x1 (in-place)
I0403 16:41:53.486176 19200 net.cpp:141] Setting up inception_3a/relu_1x1
I0403 16:41:53.486207 19200 net.cpp:148] Top shape: 24 64 28 28 (1204224)
I0403 16:41:53.486227 19200 net.cpp:156] Memory required for data: 500958240
I0403 16:41:53.486245 19200 layer_factory.hpp:77] Creating layer inception_3a/3x3_reduce
I0403 16:41:53.486277 19200 net.cpp:91] Creating Layer inception_3a/3x3_reduce
I0403 16:41:53.486300 19200 net.cpp:425] inception_3a/3x3_reduce <- pool2/3x3_s2_pool2/3x3_s2_0_split_1
I0403 16:41:53.486325 19200 net.cpp:399] inception_3a/3x3_reduce -> inception_3a/3x3_reduce
I0403 16:41:53.488343 19200 net.cpp:141] Setting up inception_3a/3x3_reduce
I0403 16:41:53.488382 19200 net.cpp:148] Top shape: 24 96 28 28 (1806336)
I0403 16:41:53.488404 19200 net.cpp:156] Memory required for data: 508183584
I0403 16:41:53.488431 19200 layer_factory.hpp:77] Creating layer inception_3a/relu_3x3_reduce
I0403 16:41:53.488477 19200 net.cpp:91] Creating Layer inception_3a/relu_3x3_reduce
I0403 16:41:53.488500 19200 net.cpp:425] inception_3a/relu_3x3_reduce <- inception_3a/3x3_reduce
I0403 16:41:53.488523 19200 net.cpp:386] inception_3a/relu_3x3_reduce -> inception_3a/3x3_reduce (in-place)
I0403 16:41:53.488750 19200 net.cpp:141] Setting up inception_3a/relu_3x3_reduce
I0403 16:41:53.488785 19200 net.cpp:148] Top shape: 24 96 28 28 (1806336)
I0403 16:41:53.488803 19200 net.cpp:156] Memory required for data: 515408928
I0403 16:41:53.488822 19200 layer_factory.hpp:77] Creating layer inception_3a/3x3
I0403 16:41:53.488850 19200 net.cpp:91] Creating Layer inception_3a/3x3
I0403 16:41:53.488873 19200 net.cpp:425] inception_3a/3x3 <- inception_3a/3x3_reduce
I0403 16:41:53.488895 19200 net.cpp:399] inception_3a/3x3 -> inception_3a/3x3
I0403 16:41:53.490888 19200 net.cpp:141] Setting up inception_3a/3x3
I0403 16:41:53.490923 19200 net.cpp:148] Top shape: 24 128 28 28 (2408448)
I0403 16:41:53.490944 19200 net.cpp:156] Memory required for data: 525042720
I0403 16:41:53.490968 19200 layer_factory.hpp:77] Creating layer inception_3a/relu_3x3
I0403 16:41:53.490990 19200 net.cpp:91] Creating Layer inception_3a/relu_3x3
I0403 16:41:53.491011 19200 net.cpp:425] inception_3a/relu_3x3 <- inception_3a/3x3
I0403 16:41:53.491036 19200 net.cpp:386] inception_3a/relu_3x3 -> inception_3a/3x3 (in-place)
I0403 16:41:53.491367 19200 net.cpp:141] Setting up inception_3a/relu_3x3
I0403 16:41:53.491400 19200 net.cpp:148] Top shape: 24 128 28 28 (2408448)
I0403 16:41:53.491418 19200 net.cpp:156] Memory required for data: 534676512
I0403 16:41:53.491437 19200 layer_factory.hpp:77] Creating layer inception_3a/5x5_reduce
I0403 16:41:53.491466 19200 net.cpp:91] Creating Layer inception_3a/5x5_reduce
I0403 16:41:53.491487 19200 net.cpp:425] inception_3a/5x5_reduce <- pool2/3x3_s2_pool2/3x3_s2_0_split_2
I0403 16:41:53.491514 19200 net.cpp:399] inception_3a/5x5_reduce -> inception_3a/5x5_reduce
I0403 16:41:53.492667 19200 net.cpp:141] Setting up inception_3a/5x5_reduce
I0403 16:41:53.492702 19200 net.cpp:148] Top shape: 24 16 28 28 (301056)
I0403 16:41:53.492722 19200 net.cpp:156] Memory required for data: 535880736
I0403 16:41:53.492744 19200 layer_factory.hpp:77] Creating layer inception_3a/relu_5x5_reduce
I0403 16:41:53.492770 19200 net.cpp:91] Creating Layer inception_3a/relu_5x5_reduce
I0403 16:41:53.492791 19200 net.cpp:425] inception_3a/relu_5x5_reduce <- inception_3a/5x5_reduce
I0403 16:41:53.492815 19200 net.cpp:386] inception_3a/relu_5x5_reduce -> inception_3a/5x5_reduce (in-place)
I0403 16:41:53.493162 19200 net.cpp:141] Setting up inception_3a/relu_5x5_reduce
I0403 16:41:53.493194 19200 net.cpp:148] Top shape: 24 16 28 28 (301056)
I0403 16:41:53.493213 19200 net.cpp:156] Memory required for data: 537084960
I0403 16:41:53.493232 19200 layer_factory.hpp:77] Creating layer inception_3a/5x5
I0403 16:41:53.493259 19200 net.cpp:91] Creating Layer inception_3a/5x5
I0403 16:41:53.493283 19200 net.cpp:425] inception_3a/5x5 <- inception_3a/5x5_reduce
I0403 16:41:53.493306 19200 net.cpp:399] inception_3a/5x5 -> inception_3a/5x5
I0403 16:41:53.494513 19200 net.cpp:141] Setting up inception_3a/5x5
I0403 16:41:53.494549 19200 net.cpp:148] Top shape: 24 32 28 28 (602112)
I0403 16:41:53.494570 19200 net.cpp:156] Memory required for data: 539493408
I0403 16:41:53.494599 19200 layer_factory.hpp:77] Creating layer inception_3a/relu_5x5
I0403 16:41:53.494623 19200 net.cpp:91] Creating Layer inception_3a/relu_5x5
I0403 16:41:53.494643 19200 net.cpp:425] inception_3a/relu_5x5 <- inception_3a/5x5
I0403 16:41:53.494670 19200 net.cpp:386] inception_3a/relu_5x5 -> inception_3a/5x5 (in-place)
I0403 16:41:53.494881 19200 net.cpp:141] Setting up inception_3a/relu_5x5
I0403 16:41:53.494912 19200 net.cpp:148] Top shape: 24 32 28 28 (602112)
I0403 16:41:53.494931 19200 net.cpp:156] Memory required for data: 541901856
I0403 16:41:53.494949 19200 layer_factory.hpp:77] Creating layer inception_3a/pool
I0403 16:41:53.494973 19200 net.cpp:91] Creating Layer inception_3a/pool
I0403 16:41:53.494994 19200 net.cpp:425] inception_3a/pool <- pool2/3x3_s2_pool2/3x3_s2_0_split_3
I0403 16:41:53.495035 19200 net.cpp:399] inception_3a/pool -> inception_3a/pool
I0403 16:41:53.495107 19200 net.cpp:141] Setting up inception_3a/pool
I0403 16:41:53.495137 19200 net.cpp:148] Top shape: 24 192 28 28 (3612672)
I0403 16:41:53.495156 19200 net.cpp:156] Memory required for data: 556352544
I0403 16:41:53.495172 19200 layer_factory.hpp:77] Creating layer inception_3a/pool_proj
I0403 16:41:53.495199 19200 net.cpp:91] Creating Layer inception_3a/pool_proj
I0403 16:41:53.495221 19200 net.cpp:425] inception_3a/pool_proj <- inception_3a/pool
I0403 16:41:53.495247 19200 net.cpp:399] inception_3a/pool_proj -> inception_3a/pool_proj
I0403 16:41:53.496405 19200 net.cpp:141] Setting up inception_3a/pool_proj
I0403 16:41:53.496443 19200 net.cpp:148] Top shape: 24 32 28 28 (602112)
I0403 16:41:53.496465 19200 net.cpp:156] Memory required for data: 558760992
I0403 16:41:53.496492 19200 layer_factory.hpp:77] Creating layer inception_3a/relu_pool_proj
I0403 16:41:53.496520 19200 net.cpp:91] Creating Layer inception_3a/relu_pool_proj
I0403 16:41:53.496541 19200 net.cpp:425] inception_3a/relu_pool_proj <- inception_3a/pool_proj
I0403 16:41:53.496563 19200 net.cpp:386] inception_3a/relu_pool_proj -> inception_3a/pool_proj (in-place)
I0403 16:41:53.496893 19200 net.cpp:141] Setting up inception_3a/relu_pool_proj
I0403 16:41:53.496927 19200 net.cpp:148] Top shape: 24 32 28 28 (602112)
I0403 16:41:53.496947 19200 net.cpp:156] Memory required for data: 561169440
I0403 16:41:53.496965 19200 layer_factory.hpp:77] Creating layer inception_3a/output
I0403 16:41:53.496987 19200 net.cpp:91] Creating Layer inception_3a/output
I0403 16:41:53.497007 19200 net.cpp:425] inception_3a/output <- inception_3a/1x1
I0403 16:41:53.497030 19200 net.cpp:425] inception_3a/output <- inception_3a/3x3
I0403 16:41:53.497050 19200 net.cpp:425] inception_3a/output <- inception_3a/5x5
I0403 16:41:53.497069 19200 net.cpp:425] inception_3a/output <- inception_3a/pool_proj
I0403 16:41:53.497094 19200 net.cpp:399] inception_3a/output -> inception_3a/output
I0403 16:41:53.497151 19200 net.cpp:141] Setting up inception_3a/output
I0403 16:41:53.497184 19200 net.cpp:148] Top shape: 24 256 28 28 (4816896)
I0403 16:41:53.497205 19200 net.cpp:156] Memory required for data: 580437024
I0403 16:41:53.497223 19200 layer_factory.hpp:77] Creating layer inception_3a/output_inception_3a/output_0_split
I0403 16:41:53.497244 19200 net.cpp:91] Creating Layer inception_3a/output_inception_3a/output_0_split
I0403 16:41:53.497263 19200 net.cpp:425] inception_3a/output_inception_3a/output_0_split <- inception_3a/output
I0403 16:41:53.497285 19200 net.cpp:399] inception_3a/output_inception_3a/output_0_split -> inception_3a/output_inception_3a/output_0_split_0
I0403 16:41:53.497313 19200 net.cpp:399] inception_3a/output_inception_3a/output_0_split -> inception_3a/output_inception_3a/output_0_split_1
I0403 16:41:53.497344 19200 net.cpp:399] inception_3a/output_inception_3a/output_0_split -> inception_3a/output_inception_3a/output_0_split_2
I0403 16:41:53.497370 19200 net.cpp:399] inception_3a/output_inception_3a/output_0_split -> inception_3a/output_inception_3a/output_0_split_3
I0403 16:41:53.497462 19200 net.cpp:141] Setting up inception_3a/output_inception_3a/output_0_split
I0403 16:41:53.497493 19200 net.cpp:148] Top shape: 24 256 28 28 (4816896)
I0403 16:41:53.497515 19200 net.cpp:148] Top shape: 24 256 28 28 (4816896)
I0403 16:41:53.497535 19200 net.cpp:148] Top shape: 24 256 28 28 (4816896)
I0403 16:41:53.497555 19200 net.cpp:148] Top shape: 24 256 28 28 (4816896)
I0403 16:41:53.497577 19200 net.cpp:156] Memory required for data: 657507360
I0403 16:41:53.497596 19200 layer_factory.hpp:77] Creating layer inception_3b/1x1
I0403 16:41:53.497627 19200 net.cpp:91] Creating Layer inception_3b/1x1
I0403 16:41:53.497649 19200 net.cpp:425] inception_3b/1x1 <- inception_3a/output_inception_3a/output_0_split_0
I0403 16:41:53.497675 19200 net.cpp:399] inception_3b/1x1 -> inception_3b/1x1
I0403 16:41:53.499043 19200 net.cpp:141] Setting up inception_3b/1x1
I0403 16:41:53.499094 19200 net.cpp:148] Top shape: 24 128 28 28 (2408448)
I0403 16:41:53.499116 19200 net.cpp:156] Memory required for data: 667141152
I0403 16:41:53.499140 19200 layer_factory.hpp:77] Creating layer inception_3b/relu_1x1
I0403 16:41:53.499163 19200 net.cpp:91] Creating Layer inception_3b/relu_1x1
I0403 16:41:53.499182 19200 net.cpp:425] inception_3b/relu_1x1 <- inception_3b/1x1
I0403 16:41:53.499207 19200 net.cpp:386] inception_3b/relu_1x1 -> inception_3b/1x1 (in-place)
I0403 16:41:53.499421 19200 net.cpp:141] Setting up inception_3b/relu_1x1
I0403 16:41:53.499452 19200 net.cpp:148] Top shape: 24 128 28 28 (2408448)
I0403 16:41:53.499470 19200 net.cpp:156] Memory required for data: 676774944
I0403 16:41:53.499490 19200 layer_factory.hpp:77] Creating layer inception_3b/3x3_reduce
I0403 16:41:53.499516 19200 net.cpp:91] Creating Layer inception_3b/3x3_reduce
I0403 16:41:53.499539 19200 net.cpp:425] inception_3b/3x3_reduce <- inception_3a/output_inception_3a/output_0_split_1
I0403 16:41:53.499567 19200 net.cpp:399] inception_3b/3x3_reduce -> inception_3b/3x3_reduce
I0403 16:41:53.500938 19200 net.cpp:141] Setting up inception_3b/3x3_reduce
I0403 16:41:53.500975 19200 net.cpp:148] Top shape: 24 128 28 28 (2408448)
I0403 16:41:53.500996 19200 net.cpp:156] Memory required for data: 686408736
I0403 16:41:53.501019 19200 layer_factory.hpp:77] Creating layer inception_3b/relu_3x3_reduce
I0403 16:41:53.501044 19200 net.cpp:91] Creating Layer inception_3b/relu_3x3_reduce
I0403 16:41:53.501065 19200 net.cpp:425] inception_3b/relu_3x3_reduce <- inception_3b/3x3_reduce
I0403 16:41:53.501091 19200 net.cpp:386] inception_3b/relu_3x3_reduce -> inception_3b/3x3_reduce (in-place)
I0403 16:41:53.501303 19200 net.cpp:141] Setting up inception_3b/relu_3x3_reduce
I0403 16:41:53.501335 19200 net.cpp:148] Top shape: 24 128 28 28 (2408448)
I0403 16:41:53.501353 19200 net.cpp:156] Memory required for data: 696042528
I0403 16:41:53.501373 19200 layer_factory.hpp:77] Creating layer inception_3b/3x3
I0403 16:41:53.501405 19200 net.cpp:91] Creating Layer inception_3b/3x3
I0403 16:41:53.501428 19200 net.cpp:425] inception_3b/3x3 <- inception_3b/3x3_reduce
I0403 16:41:53.501452 19200 net.cpp:399] inception_3b/3x3 -> inception_3b/3x3
I0403 16:41:53.504945 19200 net.cpp:141] Setting up inception_3b/3x3
I0403 16:41:53.504981 19200 net.cpp:148] Top shape: 24 192 28 28 (3612672)
I0403 16:41:53.504999 19200 net.cpp:156] Memory required for data: 710493216
I0403 16:41:53.505023 19200 layer_factory.hpp:77] Creating layer inception_3b/relu_3x3
I0403 16:41:53.505046 19200 net.cpp:91] Creating Layer inception_3b/relu_3x3
I0403 16:41:53.505066 19200 net.cpp:425] inception_3b/relu_3x3 <- inception_3b/3x3
I0403 16:41:53.505089 19200 net.cpp:386] inception_3b/relu_3x3 -> inception_3b/3x3 (in-place)
I0403 16:41:53.505419 19200 net.cpp:141] Setting up inception_3b/relu_3x3
I0403 16:41:53.505451 19200 net.cpp:148] Top shape: 24 192 28 28 (3612672)
I0403 16:41:53.505471 19200 net.cpp:156] Memory required for data: 724943904
I0403 16:41:53.505491 19200 layer_factory.hpp:77] Creating layer inception_3b/5x5_reduce
I0403 16:41:53.505517 19200 net.cpp:91] Creating Layer inception_3b/5x5_reduce
I0403 16:41:53.505539 19200 net.cpp:425] inception_3b/5x5_reduce <- inception_3a/output_inception_3a/output_0_split_2
I0403 16:41:53.505568 19200 net.cpp:399] inception_3b/5x5_reduce -> inception_3b/5x5_reduce
I0403 16:41:53.506767 19200 net.cpp:141] Setting up inception_3b/5x5_reduce
I0403 16:41:53.506801 19200 net.cpp:148] Top shape: 24 32 28 28 (602112)
I0403 16:41:53.506822 19200 net.cpp:156] Memory required for data: 727352352
I0403 16:41:53.506845 19200 layer_factory.hpp:77] Creating layer inception_3b/relu_5x5_reduce
I0403 16:41:53.506867 19200 net.cpp:91] Creating Layer inception_3b/relu_5x5_reduce
I0403 16:41:53.506887 19200 net.cpp:425] inception_3b/relu_5x5_reduce <- inception_3b/5x5_reduce
I0403 16:41:53.506911 19200 net.cpp:386] inception_3b/relu_5x5_reduce -> inception_3b/5x5_reduce (in-place)
I0403 16:41:53.507124 19200 net.cpp:141] Setting up inception_3b/relu_5x5_reduce
I0403 16:41:53.507171 19200 net.cpp:148] Top shape: 24 32 28 28 (602112)
I0403 16:41:53.507192 19200 net.cpp:156] Memory required for data: 729760800
I0403 16:41:53.507211 19200 layer_factory.hpp:77] Creating layer inception_3b/5x5
I0403 16:41:53.507241 19200 net.cpp:91] Creating Layer inception_3b/5x5
I0403 16:41:53.507263 19200 net.cpp:425] inception_3b/5x5 <- inception_3b/5x5_reduce
I0403 16:41:53.507289 19200 net.cpp:399] inception_3b/5x5 -> inception_3b/5x5
I0403 16:41:53.509640 19200 net.cpp:141] Setting up inception_3b/5x5
I0403 16:41:53.509680 19200 net.cpp:148] Top shape: 24 96 28 28 (1806336)
I0403 16:41:53.509701 19200 net.cpp:156] Memory required for data: 736986144
I0403 16:41:53.509723 19200 layer_factory.hpp:77] Creating layer inception_3b/relu_5x5
I0403 16:41:53.509747 19200 net.cpp:91] Creating Layer inception_3b/relu_5x5
I0403 16:41:53.509766 19200 net.cpp:425] inception_3b/relu_5x5 <- inception_3b/5x5
I0403 16:41:53.509788 19200 net.cpp:386] inception_3b/relu_5x5 -> inception_3b/5x5 (in-place)
I0403 16:41:53.510020 19200 net.cpp:141] Setting up inception_3b/relu_5x5
I0403 16:41:53.510052 19200 net.cpp:148] Top shape: 24 96 28 28 (1806336)
I0403 16:41:53.510071 19200 net.cpp:156] Memory required for data: 744211488
I0403 16:41:53.510088 19200 layer_factory.hpp:77] Creating layer inception_3b/pool
I0403 16:41:53.510109 19200 net.cpp:91] Creating Layer inception_3b/pool
I0403 16:41:53.510130 19200 net.cpp:425] inception_3b/pool <- inception_3a/output_inception_3a/output_0_split_3
I0403 16:41:53.510154 19200 net.cpp:399] inception_3b/pool -> inception_3b/pool
I0403 16:41:53.510221 19200 net.cpp:141] Setting up inception_3b/pool
I0403 16:41:53.510253 19200 net.cpp:148] Top shape: 24 256 28 28 (4816896)
I0403 16:41:53.510272 19200 net.cpp:156] Memory required for data: 763479072
I0403 16:41:53.510289 19200 layer_factory.hpp:77] Creating layer inception_3b/pool_proj
I0403 16:41:53.510316 19200 net.cpp:91] Creating Layer inception_3b/pool_proj
I0403 16:41:53.510339 19200 net.cpp:425] inception_3b/pool_proj <- inception_3b/pool
I0403 16:41:53.510361 19200 net.cpp:399] inception_3b/pool_proj -> inception_3b/pool_proj
I0403 16:41:53.511634 19200 net.cpp:141] Setting up inception_3b/pool_proj
I0403 16:41:53.511668 19200 net.cpp:148] Top shape: 24 64 28 28 (1204224)
I0403 16:41:53.511688 19200 net.cpp:156] Memory required for data: 768295968
I0403 16:41:53.511711 19200 layer_factory.hpp:77] Creating layer inception_3b/relu_pool_proj
I0403 16:41:53.511737 19200 net.cpp:91] Creating Layer inception_3b/relu_pool_proj
I0403 16:41:53.511759 19200 net.cpp:425] inception_3b/relu_pool_proj <- inception_3b/pool_proj
I0403 16:41:53.511781 19200 net.cpp:386] inception_3b/relu_pool_proj -> inception_3b/pool_proj (in-place)
I0403 16:41:53.512248 19200 net.cpp:141] Setting up inception_3b/relu_pool_proj
I0403 16:41:53.512279 19200 net.cpp:148] Top shape: 24 64 28 28 (1204224)
I0403 16:41:53.512298 19200 net.cpp:156] Memory required for data: 773112864
I0403 16:41:53.512317 19200 layer_factory.hpp:77] Creating layer inception_3b/output
I0403 16:41:53.512339 19200 net.cpp:91] Creating Layer inception_3b/output
I0403 16:41:53.512359 19200 net.cpp:425] inception_3b/output <- inception_3b/1x1
I0403 16:41:53.512383 19200 net.cpp:425] inception_3b/output <- inception_3b/3x3
I0403 16:41:53.512404 19200 net.cpp:425] inception_3b/output <- inception_3b/5x5
I0403 16:41:53.512425 19200 net.cpp:425] inception_3b/output <- inception_3b/pool_proj
I0403 16:41:53.512446 19200 net.cpp:399] inception_3b/output -> inception_3b/output
I0403 16:41:53.512502 19200 net.cpp:141] Setting up inception_3b/output
I0403 16:41:53.512531 19200 net.cpp:148] Top shape: 24 480 28 28 (9031680)
I0403 16:41:53.512548 19200 net.cpp:156] Memory required for data: 809239584
I0403 16:41:53.512567 19200 layer_factory.hpp:77] Creating layer pool3/3x3_s2
I0403 16:41:53.512594 19200 net.cpp:91] Creating Layer pool3/3x3_s2
I0403 16:41:53.512615 19200 net.cpp:425] pool3/3x3_s2 <- inception_3b/output
I0403 16:41:53.512640 19200 net.cpp:399] pool3/3x3_s2 -> pool3/3x3_s2
I0403 16:41:53.512729 19200 net.cpp:141] Setting up pool3/3x3_s2
I0403 16:41:53.512758 19200 net.cpp:148] Top shape: 24 480 14 14 (2257920)
I0403 16:41:53.512776 19200 net.cpp:156] Memory required for data: 818271264
I0403 16:41:53.512794 19200 layer_factory.hpp:77] Creating layer pool3/3x3_s2_pool3/3x3_s2_0_split
I0403 16:41:53.512819 19200 net.cpp:91] Creating Layer pool3/3x3_s2_pool3/3x3_s2_0_split
I0403 16:41:53.512838 19200 net.cpp:425] pool3/3x3_s2_pool3/3x3_s2_0_split <- pool3/3x3_s2
I0403 16:41:53.512861 19200 net.cpp:399] pool3/3x3_s2_pool3/3x3_s2_0_split -> pool3/3x3_s2_pool3/3x3_s2_0_split_0
I0403 16:41:53.512887 19200 net.cpp:399] pool3/3x3_s2_pool3/3x3_s2_0_split -> pool3/3x3_s2_pool3/3x3_s2_0_split_1
I0403 16:41:53.512912 19200 net.cpp:399] pool3/3x3_s2_pool3/3x3_s2_0_split -> pool3/3x3_s2_pool3/3x3_s2_0_split_2
I0403 16:41:53.512936 19200 net.cpp:399] pool3/3x3_s2_pool3/3x3_s2_0_split -> pool3/3x3_s2_pool3/3x3_s2_0_split_3
I0403 16:41:53.513027 19200 net.cpp:141] Setting up pool3/3x3_s2_pool3/3x3_s2_0_split
I0403 16:41:53.513056 19200 net.cpp:148] Top shape: 24 480 14 14 (2257920)
I0403 16:41:53.513077 19200 net.cpp:148] Top shape: 24 480 14 14 (2257920)
I0403 16:41:53.513097 19200 net.cpp:148] Top shape: 24 480 14 14 (2257920)
I0403 16:41:53.513116 19200 net.cpp:148] Top shape: 24 480 14 14 (2257920)
I0403 16:41:53.513133 19200 net.cpp:156] Memory required for data: 854397984
I0403 16:41:53.513150 19200 layer_factory.hpp:77] Creating layer inception_4a/1x1
I0403 16:41:53.513178 19200 net.cpp:91] Creating Layer inception_4a/1x1
I0403 16:41:53.513200 19200 net.cpp:425] inception_4a/1x1 <- pool3/3x3_s2_pool3/3x3_s2_0_split_0
I0403 16:41:53.513226 19200 net.cpp:399] inception_4a/1x1 -> inception_4a/1x1
I0403 16:41:53.515136 19200 net.cpp:141] Setting up inception_4a/1x1
I0403 16:41:53.515172 19200 net.cpp:148] Top shape: 24 192 14 14 (903168)
I0403 16:41:53.515193 19200 net.cpp:156] Memory required for data: 858010656
I0403 16:41:53.515218 19200 layer_factory.hpp:77] Creating layer inception_4a/relu_1x1
I0403 16:41:53.515240 19200 net.cpp:91] Creating Layer inception_4a/relu_1x1
I0403 16:41:53.515260 19200 net.cpp:425] inception_4a/relu_1x1 <- inception_4a/1x1
I0403 16:41:53.515281 19200 net.cpp:386] inception_4a/relu_1x1 -> inception_4a/1x1 (in-place)
I0403 16:41:53.515498 19200 net.cpp:141] Setting up inception_4a/relu_1x1
I0403 16:41:53.515534 19200 net.cpp:148] Top shape: 24 192 14 14 (903168)
I0403 16:41:53.515554 19200 net.cpp:156] Memory required for data: 861623328
I0403 16:41:53.515583 19200 layer_factory.hpp:77] Creating layer inception_4a/3x3_reduce
I0403 16:41:53.515615 19200 net.cpp:91] Creating Layer inception_4a/3x3_reduce
I0403 16:41:53.515637 19200 net.cpp:425] inception_4a/3x3_reduce <- pool3/3x3_s2_pool3/3x3_s2_0_split_1
I0403 16:41:53.515661 19200 net.cpp:399] inception_4a/3x3_reduce -> inception_4a/3x3_reduce
I0403 16:41:53.517199 19200 net.cpp:141] Setting up inception_4a/3x3_reduce
I0403 16:41:53.517232 19200 net.cpp:148] Top shape: 24 96 14 14 (451584)
I0403 16:41:53.517251 19200 net.cpp:156] Memory required for data: 863429664
I0403 16:41:53.517284 19200 layer_factory.hpp:77] Creating layer inception_4a/relu_3x3_reduce
I0403 16:41:53.517312 19200 net.cpp:91] Creating Layer inception_4a/relu_3x3_reduce
I0403 16:41:53.517331 19200 net.cpp:425] inception_4a/relu_3x3_reduce <- inception_4a/3x3_reduce
I0403 16:41:53.517354 19200 net.cpp:386] inception_4a/relu_3x3_reduce -> inception_4a/3x3_reduce (in-place)
I0403 16:41:53.517578 19200 net.cpp:141] Setting up inception_4a/relu_3x3_reduce
I0403 16:41:53.517612 19200 net.cpp:148] Top shape: 24 96 14 14 (451584)
I0403 16:41:53.517633 19200 net.cpp:156] Memory required for data: 865236000
I0403 16:41:53.517652 19200 layer_factory.hpp:77] Creating layer inception_4a/3x3
I0403 16:41:53.517680 19200 net.cpp:91] Creating Layer inception_4a/3x3
I0403 16:41:53.517701 19200 net.cpp:425] inception_4a/3x3 <- inception_4a/3x3_reduce
I0403 16:41:53.517724 19200 net.cpp:399] inception_4a/3x3 -> inception_4a/3x3
I0403 16:41:53.520942 19200 net.cpp:141] Setting up inception_4a/3x3
I0403 16:41:53.520979 19200 net.cpp:148] Top shape: 24 208 14 14 (978432)
I0403 16:41:53.520999 19200 net.cpp:156] Memory required for data: 869149728
I0403 16:41:53.521023 19200 layer_factory.hpp:77] Creating layer inception_4a/relu_3x3
I0403 16:41:53.521045 19200 net.cpp:91] Creating Layer inception_4a/relu_3x3
I0403 16:41:53.521065 19200 net.cpp:425] inception_4a/relu_3x3 <- inception_4a/3x3
I0403 16:41:53.521090 19200 net.cpp:386] inception_4a/relu_3x3 -> inception_4a/3x3 (in-place)
I0403 16:41:53.521430 19200 net.cpp:141] Setting up inception_4a/relu_3x3
I0403 16:41:53.521464 19200 net.cpp:148] Top shape: 24 208 14 14 (978432)
I0403 16:41:53.521483 19200 net.cpp:156] Memory required for data: 873063456
I0403 16:41:53.521502 19200 layer_factory.hpp:77] Creating layer inception_4a/5x5_reduce
I0403 16:41:53.521530 19200 net.cpp:91] Creating Layer inception_4a/5x5_reduce
I0403 16:41:53.521551 19200 net.cpp:425] inception_4a/5x5_reduce <- pool3/3x3_s2_pool3/3x3_s2_0_split_2
I0403 16:41:53.521584 19200 net.cpp:399] inception_4a/5x5_reduce -> inception_4a/5x5_reduce
I0403 16:41:53.522825 19200 net.cpp:141] Setting up inception_4a/5x5_reduce
I0403 16:41:53.522861 19200 net.cpp:148] Top shape: 24 16 14 14 (75264)
I0403 16:41:53.522881 19200 net.cpp:156] Memory required for data: 873364512
I0403 16:41:53.522903 19200 layer_factory.hpp:77] Creating layer inception_4a/relu_5x5_reduce
I0403 16:41:53.522925 19200 net.cpp:91] Creating Layer inception_4a/relu_5x5_reduce
I0403 16:41:53.522945 19200 net.cpp:425] inception_4a/relu_5x5_reduce <- inception_4a/5x5_reduce
I0403 16:41:53.522969 19200 net.cpp:386] inception_4a/relu_5x5_reduce -> inception_4a/5x5_reduce (in-place)
I0403 16:41:53.523192 19200 net.cpp:141] Setting up inception_4a/relu_5x5_reduce
I0403 16:41:53.523223 19200 net.cpp:148] Top shape: 24 16 14 14 (75264)
I0403 16:41:53.523242 19200 net.cpp:156] Memory required for data: 873665568
I0403 16:41:53.523260 19200 layer_factory.hpp:77] Creating layer inception_4a/5x5
I0403 16:41:53.523288 19200 net.cpp:91] Creating Layer inception_4a/5x5
I0403 16:41:53.523310 19200 net.cpp:425] inception_4a/5x5 <- inception_4a/5x5_reduce
I0403 16:41:53.523336 19200 net.cpp:399] inception_4a/5x5 -> inception_4a/5x5
I0403 16:41:53.524664 19200 net.cpp:141] Setting up inception_4a/5x5
I0403 16:41:53.524698 19200 net.cpp:148] Top shape: 24 48 14 14 (225792)
I0403 16:41:53.524718 19200 net.cpp:156] Memory required for data: 874568736
I0403 16:41:53.524739 19200 layer_factory.hpp:77] Creating layer inception_4a/relu_5x5
I0403 16:41:53.524765 19200 net.cpp:91] Creating Layer inception_4a/relu_5x5
I0403 16:41:53.524786 19200 net.cpp:425] inception_4a/relu_5x5 <- inception_4a/5x5
I0403 16:41:53.524808 19200 net.cpp:386] inception_4a/relu_5x5 -> inception_4a/5x5 (in-place)
I0403 16:41:53.525032 19200 net.cpp:141] Setting up inception_4a/relu_5x5
I0403 16:41:53.525065 19200 net.cpp:148] Top shape: 24 48 14 14 (225792)
I0403 16:41:53.525084 19200 net.cpp:156] Memory required for data: 875471904
I0403 16:41:53.525104 19200 layer_factory.hpp:77] Creating layer inception_4a/pool
I0403 16:41:53.525125 19200 net.cpp:91] Creating Layer inception_4a/pool
I0403 16:41:53.525146 19200 net.cpp:425] inception_4a/pool <- pool3/3x3_s2_pool3/3x3_s2_0_split_3
I0403 16:41:53.525169 19200 net.cpp:399] inception_4a/pool -> inception_4a/pool
I0403 16:41:53.525245 19200 net.cpp:141] Setting up inception_4a/pool
I0403 16:41:53.525274 19200 net.cpp:148] Top shape: 24 480 14 14 (2257920)
I0403 16:41:53.525292 19200 net.cpp:156] Memory required for data: 884503584
I0403 16:41:53.525310 19200 layer_factory.hpp:77] Creating layer inception_4a/pool_proj
I0403 16:41:53.525337 19200 net.cpp:91] Creating Layer inception_4a/pool_proj
I0403 16:41:53.525360 19200 net.cpp:425] inception_4a/pool_proj <- inception_4a/pool
I0403 16:41:53.525388 19200 net.cpp:399] inception_4a/pool_proj -> inception_4a/pool_proj
I0403 16:41:53.526823 19200 net.cpp:141] Setting up inception_4a/pool_proj
I0403 16:41:53.526859 19200 net.cpp:148] Top shape: 24 64 14 14 (301056)
I0403 16:41:53.526895 19200 net.cpp:156] Memory required for data: 885707808
I0403 16:41:53.526921 19200 layer_factory.hpp:77] Creating layer inception_4a/relu_pool_proj
I0403 16:41:53.526947 19200 net.cpp:91] Creating Layer inception_4a/relu_pool_proj
I0403 16:41:53.526970 19200 net.cpp:425] inception_4a/relu_pool_proj <- inception_4a/pool_proj
I0403 16:41:53.526993 19200 net.cpp:386] inception_4a/relu_pool_proj -> inception_4a/pool_proj (in-place)
I0403 16:41:53.527336 19200 net.cpp:141] Setting up inception_4a/relu_pool_proj
I0403 16:41:53.527369 19200 net.cpp:148] Top shape: 24 64 14 14 (301056)
I0403 16:41:53.527390 19200 net.cpp:156] Memory required for data: 886912032
I0403 16:41:53.527408 19200 layer_factory.hpp:77] Creating layer inception_4a/output
I0403 16:41:53.527432 19200 net.cpp:91] Creating Layer inception_4a/output
I0403 16:41:53.527452 19200 net.cpp:425] inception_4a/output <- inception_4a/1x1
I0403 16:41:53.527472 19200 net.cpp:425] inception_4a/output <- inception_4a/3x3
I0403 16:41:53.527493 19200 net.cpp:425] inception_4a/output <- inception_4a/5x5
I0403 16:41:53.527513 19200 net.cpp:425] inception_4a/output <- inception_4a/pool_proj
I0403 16:41:53.527534 19200 net.cpp:399] inception_4a/output -> inception_4a/output
I0403 16:41:53.527595 19200 net.cpp:141] Setting up inception_4a/output
I0403 16:41:53.527624 19200 net.cpp:148] Top shape: 24 512 14 14 (2408448)
I0403 16:41:53.527643 19200 net.cpp:156] Memory required for data: 896545824
I0403 16:41:53.527660 19200 layer_factory.hpp:77] Creating layer inception_4a/output_inception_4a/output_0_split
I0403 16:41:53.527683 19200 net.cpp:91] Creating Layer inception_4a/output_inception_4a/output_0_split
I0403 16:41:53.527703 19200 net.cpp:425] inception_4a/output_inception_4a/output_0_split <- inception_4a/output
I0403 16:41:53.527726 19200 net.cpp:399] inception_4a/output_inception_4a/output_0_split -> inception_4a/output_inception_4a/output_0_split_0
I0403 16:41:53.527755 19200 net.cpp:399] inception_4a/output_inception_4a/output_0_split -> inception_4a/output_inception_4a/output_0_split_1
I0403 16:41:53.527781 19200 net.cpp:399] inception_4a/output_inception_4a/output_0_split -> inception_4a/output_inception_4a/output_0_split_2
I0403 16:41:53.527806 19200 net.cpp:399] inception_4a/output_inception_4a/output_0_split -> inception_4a/output_inception_4a/output_0_split_3
I0403 16:41:53.527835 19200 net.cpp:399] inception_4a/output_inception_4a/output_0_split -> inception_4a/output_inception_4a/output_0_split_4
I0403 16:41:53.527946 19200 net.cpp:141] Setting up inception_4a/output_inception_4a/output_0_split
I0403 16:41:53.527976 19200 net.cpp:148] Top shape: 24 512 14 14 (2408448)
I0403 16:41:53.527997 19200 net.cpp:148] Top shape: 24 512 14 14 (2408448)
I0403 16:41:53.528015 19200 net.cpp:148] Top shape: 24 512 14 14 (2408448)
I0403 16:41:53.528034 19200 net.cpp:148] Top shape: 24 512 14 14 (2408448)
I0403 16:41:53.528053 19200 net.cpp:148] Top shape: 24 512 14 14 (2408448)
I0403 16:41:53.528069 19200 net.cpp:156] Memory required for data: 944714784
I0403 16:41:53.528089 19200 layer_factory.hpp:77] Creating layer loss1/ave_pool
I0403 16:41:53.528110 19200 net.cpp:91] Creating Layer loss1/ave_pool
I0403 16:41:53.528128 19200 net.cpp:425] loss1/ave_pool <- inception_4a/output_inception_4a/output_0_split_0
I0403 16:41:53.528152 19200 net.cpp:399] loss1/ave_pool -> loss1/ave_pool
I0403 16:41:53.528409 19200 net.cpp:141] Setting up loss1/ave_pool
I0403 16:41:53.528440 19200 net.cpp:148] Top shape: 24 512 4 4 (196608)
I0403 16:41:53.528460 19200 net.cpp:156] Memory required for data: 945501216
I0403 16:41:53.528477 19200 layer_factory.hpp:77] Creating layer loss1/conv
I0403 16:41:53.528506 19200 net.cpp:91] Creating Layer loss1/conv
I0403 16:41:53.528528 19200 net.cpp:425] loss1/conv <- loss1/ave_pool
I0403 16:41:53.528551 19200 net.cpp:399] loss1/conv -> loss1/conv
I0403 16:41:53.530272 19200 net.cpp:141] Setting up loss1/conv
I0403 16:41:53.530306 19200 net.cpp:148] Top shape: 24 128 4 4 (49152)
I0403 16:41:53.530326 19200 net.cpp:156] Memory required for data: 945697824
I0403 16:41:53.530369 19200 layer_factory.hpp:77] Creating layer loss1/relu_conv
I0403 16:41:53.530392 19200 net.cpp:91] Creating Layer loss1/relu_conv
I0403 16:41:53.530412 19200 net.cpp:425] loss1/relu_conv <- loss1/conv
I0403 16:41:53.530436 19200 net.cpp:386] loss1/relu_conv -> loss1/conv (in-place)
I0403 16:41:53.530787 19200 net.cpp:141] Setting up loss1/relu_conv
I0403 16:41:53.530819 19200 net.cpp:148] Top shape: 24 128 4 4 (49152)
I0403 16:41:53.530839 19200 net.cpp:156] Memory required for data: 945894432
I0403 16:41:53.530858 19200 layer_factory.hpp:77] Creating layer loss1/fc
I0403 16:41:53.530886 19200 net.cpp:91] Creating Layer loss1/fc
I0403 16:41:53.530910 19200 net.cpp:425] loss1/fc <- loss1/conv
I0403 16:41:53.530936 19200 net.cpp:399] loss1/fc -> loss1/fc
I0403 16:41:53.552721 19200 net.cpp:141] Setting up loss1/fc
I0403 16:41:53.552762 19200 net.cpp:148] Top shape: 24 1024 (24576)
I0403 16:41:53.552783 19200 net.cpp:156] Memory required for data: 945992736
I0403 16:41:53.552806 19200 layer_factory.hpp:77] Creating layer loss1/relu_fc
I0403 16:41:53.552829 19200 net.cpp:91] Creating Layer loss1/relu_fc
I0403 16:41:53.552850 19200 net.cpp:425] loss1/relu_fc <- loss1/fc
I0403 16:41:53.552871 19200 net.cpp:386] loss1/relu_fc -> loss1/fc (in-place)
I0403 16:41:53.553104 19200 net.cpp:141] Setting up loss1/relu_fc
I0403 16:41:53.553139 19200 net.cpp:148] Top shape: 24 1024 (24576)
I0403 16:41:53.553158 19200 net.cpp:156] Memory required for data: 946091040
I0403 16:41:53.553176 19200 layer_factory.hpp:77] Creating layer loss1/drop_fc
I0403 16:41:53.553208 19200 net.cpp:91] Creating Layer loss1/drop_fc
I0403 16:41:53.553231 19200 net.cpp:425] loss1/drop_fc <- loss1/fc
I0403 16:41:53.553252 19200 net.cpp:386] loss1/drop_fc -> loss1/fc (in-place)
I0403 16:41:53.553318 19200 net.cpp:141] Setting up loss1/drop_fc
I0403 16:41:53.553349 19200 net.cpp:148] Top shape: 24 1024 (24576)
I0403 16:41:53.553366 19200 net.cpp:156] Memory required for data: 946189344
I0403 16:41:53.553385 19200 layer_factory.hpp:77] Creating layer loss1/classifier_plantvillage
I0403 16:41:53.553411 19200 net.cpp:91] Creating Layer loss1/classifier_plantvillage
I0403 16:41:53.553432 19200 net.cpp:425] loss1/classifier_plantvillage <- loss1/fc
I0403 16:41:53.553454 19200 net.cpp:399] loss1/classifier_plantvillage -> loss1/classifier_plantvillage
I0403 16:41:53.554533 19200 net.cpp:141] Setting up loss1/classifier_plantvillage
I0403 16:41:53.554574 19200 net.cpp:148] Top shape: 24 38 (912)
I0403 16:41:53.554596 19200 net.cpp:156] Memory required for data: 946192992
I0403 16:41:53.554620 19200 layer_factory.hpp:77] Creating layer loss1/classifier_plantvillage_loss1/classifier_plantvillage_0_split
I0403 16:41:53.554641 19200 net.cpp:91] Creating Layer loss1/classifier_plantvillage_loss1/classifier_plantvillage_0_split
I0403 16:41:53.554662 19200 net.cpp:425] loss1/classifier_plantvillage_loss1/classifier_plantvillage_0_split <- loss1/classifier_plantvillage
I0403 16:41:53.554685 19200 net.cpp:399] loss1/classifier_plantvillage_loss1/classifier_plantvillage_0_split -> loss1/classifier_plantvillage_loss1/classifier_plantvillage_0_split_0
I0403 16:41:53.554713 19200 net.cpp:399] loss1/classifier_plantvillage_loss1/classifier_plantvillage_0_split -> loss1/classifier_plantvillage_loss1/classifier_plantvillage_0_split_1
I0403 16:41:53.554739 19200 net.cpp:399] loss1/classifier_plantvillage_loss1/classifier_plantvillage_0_split -> loss1/classifier_plantvillage_loss1/classifier_plantvillage_0_split_2
I0403 16:41:53.554821 19200 net.cpp:141] Setting up loss1/classifier_plantvillage_loss1/classifier_plantvillage_0_split
I0403 16:41:53.554850 19200 net.cpp:148] Top shape: 24 38 (912)
I0403 16:41:53.554872 19200 net.cpp:148] Top shape: 24 38 (912)
I0403 16:41:53.554890 19200 net.cpp:148] Top shape: 24 38 (912)
I0403 16:41:53.554908 19200 net.cpp:156] Memory required for data: 946203936
I0403 16:41:53.554925 19200 layer_factory.hpp:77] Creating layer inception_4b/1x1
I0403 16:41:53.554950 19200 net.cpp:91] Creating Layer inception_4b/1x1
I0403 16:41:53.554989 19200 net.cpp:425] inception_4b/1x1 <- inception_4a/output_inception_4a/output_0_split_1
I0403 16:41:53.555017 19200 net.cpp:399] inception_4b/1x1 -> inception_4b/1x1
I0403 16:41:53.557013 19200 net.cpp:141] Setting up inception_4b/1x1
I0403 16:41:53.557047 19200 net.cpp:148] Top shape: 24 160 14 14 (752640)
I0403 16:41:53.557067 19200 net.cpp:156] Memory required for data: 949214496
I0403 16:41:53.557090 19200 layer_factory.hpp:77] Creating layer inception_4b/relu_1x1
I0403 16:41:53.557111 19200 net.cpp:91] Creating Layer inception_4b/relu_1x1
I0403 16:41:53.557132 19200 net.cpp:425] inception_4b/relu_1x1 <- inception_4b/1x1
I0403 16:41:53.557155 19200 net.cpp:386] inception_4b/relu_1x1 -> inception_4b/1x1 (in-place)
I0403 16:41:53.557384 19200 net.cpp:141] Setting up inception_4b/relu_1x1
I0403 16:41:53.557415 19200 net.cpp:148] Top shape: 24 160 14 14 (752640)
I0403 16:41:53.557435 19200 net.cpp:156] Memory required for data: 952225056
I0403 16:41:53.557453 19200 layer_factory.hpp:77] Creating layer inception_4b/3x3_reduce
I0403 16:41:53.557481 19200 net.cpp:91] Creating Layer inception_4b/3x3_reduce
I0403 16:41:53.557502 19200 net.cpp:425] inception_4b/3x3_reduce <- inception_4a/output_inception_4a/output_0_split_2
I0403 16:41:53.557533 19200 net.cpp:399] inception_4b/3x3_reduce -> inception_4b/3x3_reduce
I0403 16:41:53.559198 19200 net.cpp:141] Setting up inception_4b/3x3_reduce
I0403 16:41:53.559233 19200 net.cpp:148] Top shape: 24 112 14 14 (526848)
I0403 16:41:53.559253 19200 net.cpp:156] Memory required for data: 954332448
I0403 16:41:53.559278 19200 layer_factory.hpp:77] Creating layer inception_4b/relu_3x3_reduce
I0403 16:41:53.559303 19200 net.cpp:91] Creating Layer inception_4b/relu_3x3_reduce
I0403 16:41:53.559325 19200 net.cpp:425] inception_4b/relu_3x3_reduce <- inception_4b/3x3_reduce
I0403 16:41:53.559347 19200 net.cpp:386] inception_4b/relu_3x3_reduce -> inception_4b/3x3_reduce (in-place)
I0403 16:41:53.559695 19200 net.cpp:141] Setting up inception_4b/relu_3x3_reduce
I0403 16:41:53.559728 19200 net.cpp:148] Top shape: 24 112 14 14 (526848)
I0403 16:41:53.559746 19200 net.cpp:156] Memory required for data: 956439840
I0403 16:41:53.559765 19200 layer_factory.hpp:77] Creating layer inception_4b/3x3
I0403 16:41:53.559795 19200 net.cpp:91] Creating Layer inception_4b/3x3
I0403 16:41:53.559818 19200 net.cpp:425] inception_4b/3x3 <- inception_4b/3x3_reduce
I0403 16:41:53.559844 19200 net.cpp:399] inception_4b/3x3 -> inception_4b/3x3
I0403 16:41:53.563454 19200 net.cpp:141] Setting up inception_4b/3x3
I0403 16:41:53.563493 19200 net.cpp:148] Top shape: 24 224 14 14 (1053696)
I0403 16:41:53.563514 19200 net.cpp:156] Memory required for data: 960654624
I0403 16:41:53.563537 19200 layer_factory.hpp:77] Creating layer inception_4b/relu_3x3
I0403 16:41:53.563561 19200 net.cpp:91] Creating Layer inception_4b/relu_3x3
I0403 16:41:53.563588 19200 net.cpp:425] inception_4b/relu_3x3 <- inception_4b/3x3
I0403 16:41:53.563611 19200 net.cpp:386] inception_4b/relu_3x3 -> inception_4b/3x3 (in-place)
I0403 16:41:53.563840 19200 net.cpp:141] Setting up inception_4b/relu_3x3
I0403 16:41:53.563874 19200 net.cpp:148] Top shape: 24 224 14 14 (1053696)
I0403 16:41:53.563894 19200 net.cpp:156] Memory required for data: 964869408
I0403 16:41:53.563912 19200 layer_factory.hpp:77] Creating layer inception_4b/5x5_reduce
I0403 16:41:53.563941 19200 net.cpp:91] Creating Layer inception_4b/5x5_reduce
I0403 16:41:53.563963 19200 net.cpp:425] inception_4b/5x5_reduce <- inception_4a/output_inception_4a/output_0_split_3
I0403 16:41:53.563989 19200 net.cpp:399] inception_4b/5x5_reduce -> inception_4b/5x5_reduce
I0403 16:41:53.565305 19200 net.cpp:141] Setting up inception_4b/5x5_reduce
I0403 16:41:53.565340 19200 net.cpp:148] Top shape: 24 24 14 14 (112896)
I0403 16:41:53.565359 19200 net.cpp:156] Memory required for data: 965320992
I0403 16:41:53.565383 19200 layer_factory.hpp:77] Creating layer inception_4b/relu_5x5_reduce
I0403 16:41:53.565408 19200 net.cpp:91] Creating Layer inception_4b/relu_5x5_reduce
I0403 16:41:53.565448 19200 net.cpp:425] inception_4b/relu_5x5_reduce <- inception_4b/5x5_reduce
I0403 16:41:53.565471 19200 net.cpp:386] inception_4b/relu_5x5_reduce -> inception_4b/5x5_reduce (in-place)
I0403 16:41:53.565712 19200 net.cpp:141] Setting up inception_4b/relu_5x5_reduce
I0403 16:41:53.565744 19200 net.cpp:148] Top shape: 24 24 14 14 (112896)
I0403 16:41:53.565764 19200 net.cpp:156] Memory required for data: 965772576
I0403 16:41:53.565784 19200 layer_factory.hpp:77] Creating layer inception_4b/5x5
I0403 16:41:53.565810 19200 net.cpp:91] Creating Layer inception_4b/5x5
I0403 16:41:53.565831 19200 net.cpp:425] inception_4b/5x5 <- inception_4b/5x5_reduce
I0403 16:41:53.565860 19200 net.cpp:399] inception_4b/5x5 -> inception_4b/5x5
I0403 16:41:53.567358 19200 net.cpp:141] Setting up inception_4b/5x5
I0403 16:41:53.567394 19200 net.cpp:148] Top shape: 24 64 14 14 (301056)
I0403 16:41:53.567414 19200 net.cpp:156] Memory required for data: 966976800
I0403 16:41:53.567437 19200 layer_factory.hpp:77] Creating layer inception_4b/relu_5x5
I0403 16:41:53.567461 19200 net.cpp:91] Creating Layer inception_4b/relu_5x5
I0403 16:41:53.567481 19200 net.cpp:425] inception_4b/relu_5x5 <- inception_4b/5x5
I0403 16:41:53.567505 19200 net.cpp:386] inception_4b/relu_5x5 -> inception_4b/5x5 (in-place)
I0403 16:41:53.567862 19200 net.cpp:141] Setting up inception_4b/relu_5x5
I0403 16:41:53.567894 19200 net.cpp:148] Top shape: 24 64 14 14 (301056)
I0403 16:41:53.567914 19200 net.cpp:156] Memory required for data: 968181024
I0403 16:41:53.567932 19200 layer_factory.hpp:77] Creating layer inception_4b/pool
I0403 16:41:53.567955 19200 net.cpp:91] Creating Layer inception_4b/pool
I0403 16:41:53.567975 19200 net.cpp:425] inception_4b/pool <- inception_4a/output_inception_4a/output_0_split_4
I0403 16:41:53.568001 19200 net.cpp:399] inception_4b/pool -> inception_4b/pool
I0403 16:41:53.568081 19200 net.cpp:141] Setting up inception_4b/pool
I0403 16:41:53.568110 19200 net.cpp:148] Top shape: 24 512 14 14 (2408448)
I0403 16:41:53.568128 19200 net.cpp:156] Memory required for data: 977814816
I0403 16:41:53.568145 19200 layer_factory.hpp:77] Creating layer inception_4b/pool_proj
I0403 16:41:53.568174 19200 net.cpp:91] Creating Layer inception_4b/pool_proj
I0403 16:41:53.568197 19200 net.cpp:425] inception_4b/pool_proj <- inception_4b/pool
I0403 16:41:53.568222 19200 net.cpp:399] inception_4b/pool_proj -> inception_4b/pool_proj
I0403 16:41:53.569700 19200 net.cpp:141] Setting up inception_4b/pool_proj
I0403 16:41:53.569735 19200 net.cpp:148] Top shape: 24 64 14 14 (301056)
I0403 16:41:53.569753 19200 net.cpp:156] Memory required for data: 979019040
I0403 16:41:53.569778 19200 layer_factory.hpp:77] Creating layer inception_4b/relu_pool_proj
I0403 16:41:53.569800 19200 net.cpp:91] Creating Layer inception_4b/relu_pool_proj
I0403 16:41:53.569821 19200 net.cpp:425] inception_4b/relu_pool_proj <- inception_4b/pool_proj
I0403 16:41:53.569846 19200 net.cpp:386] inception_4b/relu_pool_proj -> inception_4b/pool_proj (in-place)
I0403 16:41:53.570070 19200 net.cpp:141] Setting up inception_4b/relu_pool_proj
I0403 16:41:53.570101 19200 net.cpp:148] Top shape: 24 64 14 14 (301056)
I0403 16:41:53.570119 19200 net.cpp:156] Memory required for data: 980223264
I0403 16:41:53.570138 19200 layer_factory.hpp:77] Creating layer inception_4b/output
I0403 16:41:53.570163 19200 net.cpp:91] Creating Layer inception_4b/output
I0403 16:41:53.570184 19200 net.cpp:425] inception_4b/output <- inception_4b/1x1
I0403 16:41:53.570205 19200 net.cpp:425] inception_4b/output <- inception_4b/3x3
I0403 16:41:53.570226 19200 net.cpp:425] inception_4b/output <- inception_4b/5x5
I0403 16:41:53.570246 19200 net.cpp:425] inception_4b/output <- inception_4b/pool_proj
I0403 16:41:53.570267 19200 net.cpp:399] inception_4b/output -> inception_4b/output
I0403 16:41:53.570325 19200 net.cpp:141] Setting up inception_4b/output
I0403 16:41:53.570355 19200 net.cpp:148] Top shape: 24 512 14 14 (2408448)
I0403 16:41:53.570374 19200 net.cpp:156] Memory required for data: 989857056
I0403 16:41:53.570408 19200 layer_factory.hpp:77] Creating layer inception_4b/output_inception_4b/output_0_split
I0403 16:41:53.570431 19200 net.cpp:91] Creating Layer inception_4b/output_inception_4b/output_0_split
I0403 16:41:53.570451 19200 net.cpp:425] inception_4b/output_inception_4b/output_0_split <- inception_4b/output
I0403 16:41:53.570475 19200 net.cpp:399] inception_4b/output_inception_4b/output_0_split -> inception_4b/output_inception_4b/output_0_split_0
I0403 16:41:53.570503 19200 net.cpp:399] inception_4b/output_inception_4b/output_0_split -> inception_4b/output_inception_4b/output_0_split_1
I0403 16:41:53.570530 19200 net.cpp:399] inception_4b/output_inception_4b/output_0_split -> inception_4b/output_inception_4b/output_0_split_2
I0403 16:41:53.570556 19200 net.cpp:399] inception_4b/output_inception_4b/output_0_split -> inception_4b/output_inception_4b/output_0_split_3
I0403 16:41:53.570662 19200 net.cpp:141] Setting up inception_4b/output_inception_4b/output_0_split
I0403 16:41:53.570695 19200 net.cpp:148] Top shape: 24 512 14 14 (2408448)
I0403 16:41:53.570715 19200 net.cpp:148] Top shape: 24 512 14 14 (2408448)
I0403 16:41:53.570735 19200 net.cpp:148] Top shape: 24 512 14 14 (2408448)
I0403 16:41:53.570755 19200 net.cpp:148] Top shape: 24 512 14 14 (2408448)
I0403 16:41:53.570775 19200 net.cpp:156] Memory required for data: 1028392224
I0403 16:41:53.570792 19200 layer_factory.hpp:77] Creating layer inception_4c/1x1
I0403 16:41:53.570821 19200 net.cpp:91] Creating Layer inception_4c/1x1
I0403 16:41:53.570842 19200 net.cpp:425] inception_4c/1x1 <- inception_4b/output_inception_4b/output_0_split_0
I0403 16:41:53.570868 19200 net.cpp:399] inception_4c/1x1 -> inception_4c/1x1
I0403 16:41:53.572628 19200 net.cpp:141] Setting up inception_4c/1x1
I0403 16:41:53.572662 19200 net.cpp:148] Top shape: 24 128 14 14 (602112)
I0403 16:41:53.572682 19200 net.cpp:156] Memory required for data: 1030800672
I0403 16:41:53.572705 19200 layer_factory.hpp:77] Creating layer inception_4c/relu_1x1
I0403 16:41:53.572731 19200 net.cpp:91] Creating Layer inception_4c/relu_1x1
I0403 16:41:53.572753 19200 net.cpp:425] inception_4c/relu_1x1 <- inception_4c/1x1
I0403 16:41:53.572778 19200 net.cpp:386] inception_4c/relu_1x1 -> inception_4c/1x1 (in-place)
I0403 16:41:53.573005 19200 net.cpp:141] Setting up inception_4c/relu_1x1
I0403 16:41:53.573037 19200 net.cpp:148] Top shape: 24 128 14 14 (602112)
I0403 16:41:53.573056 19200 net.cpp:156] Memory required for data: 1033209120
I0403 16:41:53.573076 19200 layer_factory.hpp:77] Creating layer inception_4c/3x3_reduce
I0403 16:41:53.573102 19200 net.cpp:91] Creating Layer inception_4c/3x3_reduce
I0403 16:41:53.573125 19200 net.cpp:425] inception_4c/3x3_reduce <- inception_4b/output_inception_4b/output_0_split_1
I0403 16:41:53.573149 19200 net.cpp:399] inception_4c/3x3_reduce -> inception_4c/3x3_reduce
I0403 16:41:53.575500 19200 net.cpp:141] Setting up inception_4c/3x3_reduce
I0403 16:41:53.575539 19200 net.cpp:148] Top shape: 24 128 14 14 (602112)
I0403 16:41:53.575562 19200 net.cpp:156] Memory required for data: 1035617568
I0403 16:41:53.575599 19200 layer_factory.hpp:77] Creating layer inception_4c/relu_3x3_reduce
I0403 16:41:53.575625 19200 net.cpp:91] Creating Layer inception_4c/relu_3x3_reduce
I0403 16:41:53.575646 19200 net.cpp:425] inception_4c/relu_3x3_reduce <- inception_4c/3x3_reduce
I0403 16:41:53.575672 19200 net.cpp:386] inception_4c/relu_3x3_reduce -> inception_4c/3x3_reduce (in-place)
I0403 16:41:53.576026 19200 net.cpp:141] Setting up inception_4c/relu_3x3_reduce
I0403 16:41:53.576062 19200 net.cpp:148] Top shape: 24 128 14 14 (602112)
I0403 16:41:53.576082 19200 net.cpp:156] Memory required for data: 1038026016
I0403 16:41:53.576102 19200 layer_factory.hpp:77] Creating layer inception_4c/3x3
I0403 16:41:53.576131 19200 net.cpp:91] Creating Layer inception_4c/3x3
I0403 16:41:53.576154 19200 net.cpp:425] inception_4c/3x3 <- inception_4c/3x3_reduce
I0403 16:41:53.576179 19200 net.cpp:399] inception_4c/3x3 -> inception_4c/3x3
I0403 16:41:53.580539 19200 net.cpp:141] Setting up inception_4c/3x3
I0403 16:41:53.580595 19200 net.cpp:148] Top shape: 24 256 14 14 (1204224)
I0403 16:41:53.580616 19200 net.cpp:156] Memory required for data: 1042842912
I0403 16:41:53.580657 19200 layer_factory.hpp:77] Creating layer inception_4c/relu_3x3
I0403 16:41:53.580682 19200 net.cpp:91] Creating Layer inception_4c/relu_3x3
I0403 16:41:53.580703 19200 net.cpp:425] inception_4c/relu_3x3 <- inception_4c/3x3
I0403 16:41:53.580729 19200 net.cpp:386] inception_4c/relu_3x3 -> inception_4c/3x3 (in-place)
I0403 16:41:53.580961 19200 net.cpp:141] Setting up inception_4c/relu_3x3
I0403 16:41:53.580993 19200 net.cpp:148] Top shape: 24 256 14 14 (1204224)
I0403 16:41:53.581012 19200 net.cpp:156] Memory required for data: 1047659808
I0403 16:41:53.581032 19200 layer_factory.hpp:77] Creating layer inception_4c/5x5_reduce
I0403 16:41:53.581059 19200 net.cpp:91] Creating Layer inception_4c/5x5_reduce
I0403 16:41:53.581081 19200 net.cpp:425] inception_4c/5x5_reduce <- inception_4b/output_inception_4b/output_0_split_2
I0403 16:41:53.581109 19200 net.cpp:399] inception_4c/5x5_reduce -> inception_4c/5x5_reduce
I0403 16:41:53.582437 19200 net.cpp:141] Setting up inception_4c/5x5_reduce
I0403 16:41:53.582471 19200 net.cpp:148] Top shape: 24 24 14 14 (112896)
I0403 16:41:53.582492 19200 net.cpp:156] Memory required for data: 1048111392
I0403 16:41:53.582515 19200 layer_factory.hpp:77] Creating layer inception_4c/relu_5x5_reduce
I0403 16:41:53.582537 19200 net.cpp:91] Creating Layer inception_4c/relu_5x5_reduce
I0403 16:41:53.582562 19200 net.cpp:425] inception_4c/relu_5x5_reduce <- inception_4c/5x5_reduce
I0403 16:41:53.582590 19200 net.cpp:386] inception_4c/relu_5x5_reduce -> inception_4c/5x5_reduce (in-place)
I0403 16:41:53.582820 19200 net.cpp:141] Setting up inception_4c/relu_5x5_reduce
I0403 16:41:53.582851 19200 net.cpp:148] Top shape: 24 24 14 14 (112896)
I0403 16:41:53.582870 19200 net.cpp:156] Memory required for data: 1048562976
I0403 16:41:53.582888 19200 layer_factory.hpp:77] Creating layer inception_4c/5x5
I0403 16:41:53.582916 19200 net.cpp:91] Creating Layer inception_4c/5x5
I0403 16:41:53.582938 19200 net.cpp:425] inception_4c/5x5 <- inception_4c/5x5_reduce
I0403 16:41:53.582965 19200 net.cpp:399] inception_4c/5x5 -> inception_4c/5x5
I0403 16:41:53.584480 19200 net.cpp:141] Setting up inception_4c/5x5
I0403 16:41:53.584513 19200 net.cpp:148] Top shape: 24 64 14 14 (301056)
I0403 16:41:53.584533 19200 net.cpp:156] Memory required for data: 1049767200
I0403 16:41:53.584558 19200 layer_factory.hpp:77] Creating layer inception_4c/relu_5x5
I0403 16:41:53.584589 19200 net.cpp:91] Creating Layer inception_4c/relu_5x5
I0403 16:41:53.584611 19200 net.cpp:425] inception_4c/relu_5x5 <- inception_4c/5x5
I0403 16:41:53.584635 19200 net.cpp:386] inception_4c/relu_5x5 -> inception_4c/5x5 (in-place)
I0403 16:41:53.584985 19200 net.cpp:141] Setting up inception_4c/relu_5x5
I0403 16:41:53.585018 19200 net.cpp:148] Top shape: 24 64 14 14 (301056)
I0403 16:41:53.585038 19200 net.cpp:156] Memory required for data: 1050971424
I0403 16:41:53.585057 19200 layer_factory.hpp:77] Creating layer inception_4c/pool
I0403 16:41:53.585083 19200 net.cpp:91] Creating Layer inception_4c/pool
I0403 16:41:53.585104 19200 net.cpp:425] inception_4c/pool <- inception_4b/output_inception_4b/output_0_split_3
I0403 16:41:53.585129 19200 net.cpp:399] inception_4c/pool -> inception_4c/pool
I0403 16:41:53.585211 19200 net.cpp:141] Setting up inception_4c/pool
I0403 16:41:53.585240 19200 net.cpp:148] Top shape: 24 512 14 14 (2408448)
I0403 16:41:53.585259 19200 net.cpp:156] Memory required for data: 1060605216
I0403 16:41:53.585278 19200 layer_factory.hpp:77] Creating layer inception_4c/pool_proj
I0403 16:41:53.585305 19200 net.cpp:91] Creating Layer inception_4c/pool_proj
I0403 16:41:53.585328 19200 net.cpp:425] inception_4c/pool_proj <- inception_4c/pool
I0403 16:41:53.585355 19200 net.cpp:399] inception_4c/pool_proj -> inception_4c/pool_proj
I0403 16:41:53.586863 19200 net.cpp:141] Setting up inception_4c/pool_proj
I0403 16:41:53.586899 19200 net.cpp:148] Top shape: 24 64 14 14 (301056)
I0403 16:41:53.586935 19200 net.cpp:156] Memory required for data: 1061809440
I0403 16:41:53.586961 19200 layer_factory.hpp:77] Creating layer inception_4c/relu_pool_proj
I0403 16:41:53.586983 19200 net.cpp:91] Creating Layer inception_4c/relu_pool_proj
I0403 16:41:53.587003 19200 net.cpp:425] inception_4c/relu_pool_proj <- inception_4c/pool_proj
I0403 16:41:53.587028 19200 net.cpp:386] inception_4c/relu_pool_proj -> inception_4c/pool_proj (in-place)
I0403 16:41:53.587257 19200 net.cpp:141] Setting up inception_4c/relu_pool_proj
I0403 16:41:53.587288 19200 net.cpp:148] Top shape: 24 64 14 14 (301056)
I0403 16:41:53.587307 19200 net.cpp:156] Memory required for data: 1063013664
I0403 16:41:53.587326 19200 layer_factory.hpp:77] Creating layer inception_4c/output
I0403 16:41:53.587349 19200 net.cpp:91] Creating Layer inception_4c/output
I0403 16:41:53.587370 19200 net.cpp:425] inception_4c/output <- inception_4c/1x1
I0403 16:41:53.587393 19200 net.cpp:425] inception_4c/output <- inception_4c/3x3
I0403 16:41:53.587412 19200 net.cpp:425] inception_4c/output <- inception_4c/5x5
I0403 16:41:53.587433 19200 net.cpp:425] inception_4c/output <- inception_4c/pool_proj
I0403 16:41:53.587455 19200 net.cpp:399] inception_4c/output -> inception_4c/output
I0403 16:41:53.587514 19200 net.cpp:141] Setting up inception_4c/output
I0403 16:41:53.587544 19200 net.cpp:148] Top shape: 24 512 14 14 (2408448)
I0403 16:41:53.587563 19200 net.cpp:156] Memory required for data: 1072647456
I0403 16:41:53.587587 19200 layer_factory.hpp:77] Creating layer inception_4c/output_inception_4c/output_0_split
I0403 16:41:53.587610 19200 net.cpp:91] Creating Layer inception_4c/output_inception_4c/output_0_split
I0403 16:41:53.587628 19200 net.cpp:425] inception_4c/output_inception_4c/output_0_split <- inception_4c/output
I0403 16:41:53.587653 19200 net.cpp:399] inception_4c/output_inception_4c/output_0_split -> inception_4c/output_inception_4c/output_0_split_0
I0403 16:41:53.587680 19200 net.cpp:399] inception_4c/output_inception_4c/output_0_split -> inception_4c/output_inception_4c/output_0_split_1
I0403 16:41:53.587705 19200 net.cpp:399] inception_4c/output_inception_4c/output_0_split -> inception_4c/output_inception_4c/output_0_split_2
I0403 16:41:53.587730 19200 net.cpp:399] inception_4c/output_inception_4c/output_0_split -> inception_4c/output_inception_4c/output_0_split_3
I0403 16:41:53.587833 19200 net.cpp:141] Setting up inception_4c/output_inception_4c/output_0_split
I0403 16:41:53.587867 19200 net.cpp:148] Top shape: 24 512 14 14 (2408448)
I0403 16:41:53.587889 19200 net.cpp:148] Top shape: 24 512 14 14 (2408448)
I0403 16:41:53.587909 19200 net.cpp:148] Top shape: 24 512 14 14 (2408448)
I0403 16:41:53.587929 19200 net.cpp:148] Top shape: 24 512 14 14 (2408448)
I0403 16:41:53.587944 19200 net.cpp:156] Memory required for data: 1111182624
I0403 16:41:53.587962 19200 layer_factory.hpp:77] Creating layer inception_4d/1x1
I0403 16:41:53.587990 19200 net.cpp:91] Creating Layer inception_4d/1x1
I0403 16:41:53.588011 19200 net.cpp:425] inception_4d/1x1 <- inception_4c/output_inception_4c/output_0_split_0
I0403 16:41:53.588035 19200 net.cpp:399] inception_4d/1x1 -> inception_4d/1x1
I0403 16:41:53.589741 19200 net.cpp:141] Setting up inception_4d/1x1
I0403 16:41:53.589781 19200 net.cpp:148] Top shape: 24 112 14 14 (526848)
I0403 16:41:53.589800 19200 net.cpp:156] Memory required for data: 1113290016
I0403 16:41:53.589824 19200 layer_factory.hpp:77] Creating layer inception_4d/relu_1x1
I0403 16:41:53.589848 19200 net.cpp:91] Creating Layer inception_4d/relu_1x1
I0403 16:41:53.589866 19200 net.cpp:425] inception_4d/relu_1x1 <- inception_4d/1x1
I0403 16:41:53.589889 19200 net.cpp:386] inception_4d/relu_1x1 -> inception_4d/1x1 (in-place)
I0403 16:41:53.590123 19200 net.cpp:141] Setting up inception_4d/relu_1x1
I0403 16:41:53.590154 19200 net.cpp:148] Top shape: 24 112 14 14 (526848)
I0403 16:41:53.590173 19200 net.cpp:156] Memory required for data: 1115397408
I0403 16:41:53.590191 19200 layer_factory.hpp:77] Creating layer inception_4d/3x3_reduce
I0403 16:41:53.590236 19200 net.cpp:91] Creating Layer inception_4d/3x3_reduce
I0403 16:41:53.590260 19200 net.cpp:425] inception_4d/3x3_reduce <- inception_4c/output_inception_4c/output_0_split_1
I0403 16:41:53.590286 19200 net.cpp:399] inception_4d/3x3_reduce -> inception_4d/3x3_reduce
I0403 16:41:53.592136 19200 net.cpp:141] Setting up inception_4d/3x3_reduce
I0403 16:41:53.592170 19200 net.cpp:148] Top shape: 24 144 14 14 (677376)
I0403 16:41:53.592190 19200 net.cpp:156] Memory required for data: 1118106912
I0403 16:41:53.592213 19200 layer_factory.hpp:77] Creating layer inception_4d/relu_3x3_reduce
I0403 16:41:53.592237 19200 net.cpp:91] Creating Layer inception_4d/relu_3x3_reduce
I0403 16:41:53.592259 19200 net.cpp:425] inception_4d/relu_3x3_reduce <- inception_4d/3x3_reduce
I0403 16:41:53.592281 19200 net.cpp:386] inception_4d/relu_3x3_reduce -> inception_4d/3x3_reduce (in-place)
I0403 16:41:53.592634 19200 net.cpp:141] Setting up inception_4d/relu_3x3_reduce
I0403 16:41:53.592666 19200 net.cpp:148] Top shape: 24 144 14 14 (677376)
I0403 16:41:53.592687 19200 net.cpp:156] Memory required for data: 1120816416
I0403 16:41:53.592706 19200 layer_factory.hpp:77] Creating layer inception_4d/3x3
I0403 16:41:53.592733 19200 net.cpp:91] Creating Layer inception_4d/3x3
I0403 16:41:53.592757 19200 net.cpp:425] inception_4d/3x3 <- inception_4d/3x3_reduce
I0403 16:41:53.592782 19200 net.cpp:399] inception_4d/3x3 -> inception_4d/3x3
I0403 16:41:53.598033 19200 net.cpp:141] Setting up inception_4d/3x3
I0403 16:41:53.598073 19200 net.cpp:148] Top shape: 24 288 14 14 (1354752)
I0403 16:41:53.598094 19200 net.cpp:156] Memory required for data: 1126235424
I0403 16:41:53.598117 19200 layer_factory.hpp:77] Creating layer inception_4d/relu_3x3
I0403 16:41:53.598140 19200 net.cpp:91] Creating Layer inception_4d/relu_3x3
I0403 16:41:53.598161 19200 net.cpp:425] inception_4d/relu_3x3 <- inception_4d/3x3
I0403 16:41:53.598186 19200 net.cpp:386] inception_4d/relu_3x3 -> inception_4d/3x3 (in-place)
I0403 16:41:53.598413 19200 net.cpp:141] Setting up inception_4d/relu_3x3
I0403 16:41:53.598445 19200 net.cpp:148] Top shape: 24 288 14 14 (1354752)
I0403 16:41:53.598464 19200 net.cpp:156] Memory required for data: 1131654432
I0403 16:41:53.598482 19200 layer_factory.hpp:77] Creating layer inception_4d/5x5_reduce
I0403 16:41:53.598510 19200 net.cpp:91] Creating Layer inception_4d/5x5_reduce
I0403 16:41:53.598531 19200 net.cpp:425] inception_4d/5x5_reduce <- inception_4c/output_inception_4c/output_0_split_2
I0403 16:41:53.598558 19200 net.cpp:399] inception_4d/5x5_reduce -> inception_4d/5x5_reduce
I0403 16:41:53.599961 19200 net.cpp:141] Setting up inception_4d/5x5_reduce
I0403 16:41:53.599999 19200 net.cpp:148] Top shape: 24 32 14 14 (150528)
I0403 16:41:53.600020 19200 net.cpp:156] Memory required for data: 1132256544
I0403 16:41:53.600042 19200 layer_factory.hpp:77] Creating layer inception_4d/relu_5x5_reduce
I0403 16:41:53.600065 19200 net.cpp:91] Creating Layer inception_4d/relu_5x5_reduce
I0403 16:41:53.600085 19200 net.cpp:425] inception_4d/relu_5x5_reduce <- inception_4d/5x5_reduce
I0403 16:41:53.600107 19200 net.cpp:386] inception_4d/relu_5x5_reduce -> inception_4d/5x5_reduce (in-place)
I0403 16:41:53.600347 19200 net.cpp:141] Setting up inception_4d/relu_5x5_reduce
I0403 16:41:53.600378 19200 net.cpp:148] Top shape: 24 32 14 14 (150528)
I0403 16:41:53.600395 19200 net.cpp:156] Memory required for data: 1132858656
I0403 16:41:53.600414 19200 layer_factory.hpp:77] Creating layer inception_4d/5x5
I0403 16:41:53.600440 19200 net.cpp:91] Creating Layer inception_4d/5x5
I0403 16:41:53.600462 19200 net.cpp:425] inception_4d/5x5 <- inception_4d/5x5_reduce
I0403 16:41:53.600491 19200 net.cpp:399] inception_4d/5x5 -> inception_4d/5x5
I0403 16:41:53.602289 19200 net.cpp:141] Setting up inception_4d/5x5
I0403 16:41:53.602324 19200 net.cpp:148] Top shape: 24 64 14 14 (301056)
I0403 16:41:53.602344 19200 net.cpp:156] Memory required for data: 1134062880
I0403 16:41:53.602367 19200 layer_factory.hpp:77] Creating layer inception_4d/relu_5x5
I0403 16:41:53.602411 19200 net.cpp:91] Creating Layer inception_4d/relu_5x5
I0403 16:41:53.602434 19200 net.cpp:425] inception_4d/relu_5x5 <- inception_4d/5x5
I0403 16:41:53.602455 19200 net.cpp:386] inception_4d/relu_5x5 -> inception_4d/5x5 (in-place)
I0403 16:41:53.602833 19200 net.cpp:141] Setting up inception_4d/relu_5x5
I0403 16:41:53.602864 19200 net.cpp:148] Top shape: 24 64 14 14 (301056)
I0403 16:41:53.602885 19200 net.cpp:156] Memory required for data: 1135267104
I0403 16:41:53.602903 19200 layer_factory.hpp:77] Creating layer inception_4d/pool
I0403 16:41:53.602929 19200 net.cpp:91] Creating Layer inception_4d/pool
I0403 16:41:53.602951 19200 net.cpp:425] inception_4d/pool <- inception_4c/output_inception_4c/output_0_split_3
I0403 16:41:53.602973 19200 net.cpp:399] inception_4d/pool -> inception_4d/pool
I0403 16:41:53.603055 19200 net.cpp:141] Setting up inception_4d/pool
I0403 16:41:53.603085 19200 net.cpp:148] Top shape: 24 512 14 14 (2408448)
I0403 16:41:53.603103 19200 net.cpp:156] Memory required for data: 1144900896
I0403 16:41:53.603122 19200 layer_factory.hpp:77] Creating layer inception_4d/pool_proj
I0403 16:41:53.603149 19200 net.cpp:91] Creating Layer inception_4d/pool_proj
I0403 16:41:53.603170 19200 net.cpp:425] inception_4d/pool_proj <- inception_4d/pool
I0403 16:41:53.603196 19200 net.cpp:399] inception_4d/pool_proj -> inception_4d/pool_proj
I0403 16:41:53.605341 19200 net.cpp:141] Setting up inception_4d/pool_proj
I0403 16:41:53.605379 19200 net.cpp:148] Top shape: 24 64 14 14 (301056)
I0403 16:41:53.605401 19200 net.cpp:156] Memory required for data: 1146105120
I0403 16:41:53.605424 19200 layer_factory.hpp:77] Creating layer inception_4d/relu_pool_proj
I0403 16:41:53.605448 19200 net.cpp:91] Creating Layer inception_4d/relu_pool_proj
I0403 16:41:53.605466 19200 net.cpp:425] inception_4d/relu_pool_proj <- inception_4d/pool_proj
I0403 16:41:53.605491 19200 net.cpp:386] inception_4d/relu_pool_proj -> inception_4d/pool_proj (in-place)
I0403 16:41:53.605739 19200 net.cpp:141] Setting up inception_4d/relu_pool_proj
I0403 16:41:53.605772 19200 net.cpp:148] Top shape: 24 64 14 14 (301056)
I0403 16:41:53.605790 19200 net.cpp:156] Memory required for data: 1147309344
I0403 16:41:53.605810 19200 layer_factory.hpp:77] Creating layer inception_4d/output
I0403 16:41:53.605832 19200 net.cpp:91] Creating Layer inception_4d/output
I0403 16:41:53.605851 19200 net.cpp:425] inception_4d/output <- inception_4d/1x1
I0403 16:41:53.605872 19200 net.cpp:425] inception_4d/output <- inception_4d/3x3
I0403 16:41:53.605892 19200 net.cpp:425] inception_4d/output <- inception_4d/5x5
I0403 16:41:53.605913 19200 net.cpp:425] inception_4d/output <- inception_4d/pool_proj
I0403 16:41:53.605937 19200 net.cpp:399] inception_4d/output -> inception_4d/output
I0403 16:41:53.605998 19200 net.cpp:141] Setting up inception_4d/output
I0403 16:41:53.606029 19200 net.cpp:148] Top shape: 24 528 14 14 (2483712)
I0403 16:41:53.606050 19200 net.cpp:156] Memory required for data: 1157244192
I0403 16:41:53.606068 19200 layer_factory.hpp:77] Creating layer inception_4d/output_inception_4d/output_0_split
I0403 16:41:53.606091 19200 net.cpp:91] Creating Layer inception_4d/output_inception_4d/output_0_split
I0403 16:41:53.606112 19200 net.cpp:425] inception_4d/output_inception_4d/output_0_split <- inception_4d/output
I0403 16:41:53.606137 19200 net.cpp:399] inception_4d/output_inception_4d/output_0_split -> inception_4d/output_inception_4d/output_0_split_0
I0403 16:41:53.606165 19200 net.cpp:399] inception_4d/output_inception_4d/output_0_split -> inception_4d/output_inception_4d/output_0_split_1
I0403 16:41:53.606192 19200 net.cpp:399] inception_4d/output_inception_4d/output_0_split -> inception_4d/output_inception_4d/output_0_split_2
I0403 16:41:53.606218 19200 net.cpp:399] inception_4d/output_inception_4d/output_0_split -> inception_4d/output_inception_4d/output_0_split_3
I0403 16:41:53.606245 19200 net.cpp:399] inception_4d/output_inception_4d/output_0_split -> inception_4d/output_inception_4d/output_0_split_4
I0403 16:41:53.606367 19200 net.cpp:141] Setting up inception_4d/output_inception_4d/output_0_split
I0403 16:41:53.606415 19200 net.cpp:148] Top shape: 24 528 14 14 (2483712)
I0403 16:41:53.606438 19200 net.cpp:148] Top shape: 24 528 14 14 (2483712)
I0403 16:41:53.606458 19200 net.cpp:148] Top shape: 24 528 14 14 (2483712)
I0403 16:41:53.606477 19200 net.cpp:148] Top shape: 24 528 14 14 (2483712)
I0403 16:41:53.606497 19200 net.cpp:148] Top shape: 24 528 14 14 (2483712)
I0403 16:41:53.606514 19200 net.cpp:156] Memory required for data: 1206918432
I0403 16:41:53.606533 19200 layer_factory.hpp:77] Creating layer loss2/ave_pool
I0403 16:41:53.606554 19200 net.cpp:91] Creating Layer loss2/ave_pool
I0403 16:41:53.606576 19200 net.cpp:425] loss2/ave_pool <- inception_4d/output_inception_4d/output_0_split_0
I0403 16:41:53.606601 19200 net.cpp:399] loss2/ave_pool -> loss2/ave_pool
I0403 16:41:53.606986 19200 net.cpp:141] Setting up loss2/ave_pool
I0403 16:41:53.607020 19200 net.cpp:148] Top shape: 24 528 4 4 (202752)
I0403 16:41:53.607041 19200 net.cpp:156] Memory required for data: 1207729440
I0403 16:41:53.607060 19200 layer_factory.hpp:77] Creating layer loss2/conv
I0403 16:41:53.607089 19200 net.cpp:91] Creating Layer loss2/conv
I0403 16:41:53.607110 19200 net.cpp:425] loss2/conv <- loss2/ave_pool
I0403 16:41:53.607134 19200 net.cpp:399] loss2/conv -> loss2/conv
I0403 16:41:53.609432 19200 net.cpp:141] Setting up loss2/conv
I0403 16:41:53.609468 19200 net.cpp:148] Top shape: 24 128 4 4 (49152)
I0403 16:41:53.609488 19200 net.cpp:156] Memory required for data: 1207926048
I0403 16:41:53.609510 19200 layer_factory.hpp:77] Creating layer loss2/relu_conv
I0403 16:41:53.609535 19200 net.cpp:91] Creating Layer loss2/relu_conv
I0403 16:41:53.609557 19200 net.cpp:425] loss2/relu_conv <- loss2/conv
I0403 16:41:53.609586 19200 net.cpp:386] loss2/relu_conv -> loss2/conv (in-place)
I0403 16:41:53.609935 19200 net.cpp:141] Setting up loss2/relu_conv
I0403 16:41:53.609967 19200 net.cpp:148] Top shape: 24 128 4 4 (49152)
I0403 16:41:53.609988 19200 net.cpp:156] Memory required for data: 1208122656
I0403 16:41:53.610008 19200 layer_factory.hpp:77] Creating layer loss2/fc
I0403 16:41:53.610033 19200 net.cpp:91] Creating Layer loss2/fc
I0403 16:41:53.610054 19200 net.cpp:425] loss2/fc <- loss2/conv
I0403 16:41:53.610077 19200 net.cpp:399] loss2/fc -> loss2/fc
I0403 16:41:53.631888 19200 net.cpp:141] Setting up loss2/fc
I0403 16:41:53.631930 19200 net.cpp:148] Top shape: 24 1024 (24576)
I0403 16:41:53.631949 19200 net.cpp:156] Memory required for data: 1208220960
I0403 16:41:53.631973 19200 layer_factory.hpp:77] Creating layer loss2/relu_fc
I0403 16:41:53.631996 19200 net.cpp:91] Creating Layer loss2/relu_fc
I0403 16:41:53.632016 19200 net.cpp:425] loss2/relu_fc <- loss2/fc
I0403 16:41:53.632042 19200 net.cpp:386] loss2/relu_fc -> loss2/fc (in-place)
I0403 16:41:53.632412 19200 net.cpp:141] Setting up loss2/relu_fc
I0403 16:41:53.632446 19200 net.cpp:148] Top shape: 24 1024 (24576)
I0403 16:41:53.632464 19200 net.cpp:156] Memory required for data: 1208319264
I0403 16:41:53.632483 19200 layer_factory.hpp:77] Creating layer loss2/drop_fc
I0403 16:41:53.632506 19200 net.cpp:91] Creating Layer loss2/drop_fc
I0403 16:41:53.632526 19200 net.cpp:425] loss2/drop_fc <- loss2/fc
I0403 16:41:53.632551 19200 net.cpp:386] loss2/drop_fc -> loss2/fc (in-place)
I0403 16:41:53.632618 19200 net.cpp:141] Setting up loss2/drop_fc
I0403 16:41:53.632650 19200 net.cpp:148] Top shape: 24 1024 (24576)
I0403 16:41:53.632670 19200 net.cpp:156] Memory required for data: 1208417568
I0403 16:41:53.632689 19200 layer_factory.hpp:77] Creating layer loss2/classifier_plantvillage
I0403 16:41:53.632714 19200 net.cpp:91] Creating Layer loss2/classifier_plantvillage
I0403 16:41:53.632732 19200 net.cpp:425] loss2/classifier_plantvillage <- loss2/fc
I0403 16:41:53.632760 19200 net.cpp:399] loss2/classifier_plantvillage -> loss2/classifier_plantvillage
I0403 16:41:53.633256 19200 net.cpp:141] Setting up loss2/classifier_plantvillage
I0403 16:41:53.633287 19200 net.cpp:148] Top shape: 24 38 (912)
I0403 16:41:53.633306 19200 net.cpp:156] Memory required for data: 1208421216
I0403 16:41:53.633349 19200 layer_factory.hpp:77] Creating layer loss2/classifier_plantvillage_loss2/classifier_plantvillage_0_split
I0403 16:41:53.633376 19200 net.cpp:91] Creating Layer loss2/classifier_plantvillage_loss2/classifier_plantvillage_0_split
I0403 16:41:53.633397 19200 net.cpp:425] loss2/classifier_plantvillage_loss2/classifier_plantvillage_0_split <- loss2/classifier_plantvillage
I0403 16:41:53.633419 19200 net.cpp:399] loss2/classifier_plantvillage_loss2/classifier_plantvillage_0_split -> loss2/classifier_plantvillage_loss2/classifier_plantvillage_0_split_0
I0403 16:41:53.633445 19200 net.cpp:399] loss2/classifier_plantvillage_loss2/classifier_plantvillage_0_split -> loss2/classifier_plantvillage_loss2/classifier_plantvillage_0_split_1
I0403 16:41:53.633471 19200 net.cpp:399] loss2/classifier_plantvillage_loss2/classifier_plantvillage_0_split -> loss2/classifier_plantvillage_loss2/classifier_plantvillage_0_split_2
I0403 16:41:53.633569 19200 net.cpp:141] Setting up loss2/classifier_plantvillage_loss2/classifier_plantvillage_0_split
I0403 16:41:53.633602 19200 net.cpp:148] Top shape: 24 38 (912)
I0403 16:41:53.633623 19200 net.cpp:148] Top shape: 24 38 (912)
I0403 16:41:53.633642 19200 net.cpp:148] Top shape: 24 38 (912)
I0403 16:41:53.633659 19200 net.cpp:156] Memory required for data: 1208432160
I0403 16:41:53.633677 19200 layer_factory.hpp:77] Creating layer inception_4e/1x1
I0403 16:41:53.633705 19200 net.cpp:91] Creating Layer inception_4e/1x1
I0403 16:41:53.633729 19200 net.cpp:425] inception_4e/1x1 <- inception_4d/output_inception_4d/output_0_split_1
I0403 16:41:53.633752 19200 net.cpp:399] inception_4e/1x1 -> inception_4e/1x1
I0403 16:41:53.636006 19200 net.cpp:141] Setting up inception_4e/1x1
I0403 16:41:53.636041 19200 net.cpp:148] Top shape: 24 256 14 14 (1204224)
I0403 16:41:53.636061 19200 net.cpp:156] Memory required for data: 1213249056
I0403 16:41:53.636085 19200 layer_factory.hpp:77] Creating layer inception_4e/relu_1x1
I0403 16:41:53.636111 19200 net.cpp:91] Creating Layer inception_4e/relu_1x1
I0403 16:41:53.636133 19200 net.cpp:425] inception_4e/relu_1x1 <- inception_4e/1x1
I0403 16:41:53.636155 19200 net.cpp:386] inception_4e/relu_1x1 -> inception_4e/1x1 (in-place)
I0403 16:41:53.636518 19200 net.cpp:141] Setting up inception_4e/relu_1x1
I0403 16:41:53.636551 19200 net.cpp:148] Top shape: 24 256 14 14 (1204224)
I0403 16:41:53.636574 19200 net.cpp:156] Memory required for data: 1218065952
I0403 16:41:53.636596 19200 layer_factory.hpp:77] Creating layer inception_4e/3x3_reduce
I0403 16:41:53.636626 19200 net.cpp:91] Creating Layer inception_4e/3x3_reduce
I0403 16:41:53.636647 19200 net.cpp:425] inception_4e/3x3_reduce <- inception_4d/output_inception_4d/output_0_split_2
I0403 16:41:53.636673 19200 net.cpp:399] inception_4e/3x3_reduce -> inception_4e/3x3_reduce
I0403 16:41:53.639232 19200 net.cpp:141] Setting up inception_4e/3x3_reduce
I0403 16:41:53.639267 19200 net.cpp:148] Top shape: 24 160 14 14 (752640)
I0403 16:41:53.639288 19200 net.cpp:156] Memory required for data: 1221076512
I0403 16:41:53.639312 19200 layer_factory.hpp:77] Creating layer inception_4e/relu_3x3_reduce
I0403 16:41:53.639333 19200 net.cpp:91] Creating Layer inception_4e/relu_3x3_reduce
I0403 16:41:53.639353 19200 net.cpp:425] inception_4e/relu_3x3_reduce <- inception_4e/3x3_reduce
I0403 16:41:53.639379 19200 net.cpp:386] inception_4e/relu_3x3_reduce -> inception_4e/3x3_reduce (in-place)
I0403 16:41:53.639616 19200 net.cpp:141] Setting up inception_4e/relu_3x3_reduce
I0403 16:41:53.639647 19200 net.cpp:148] Top shape: 24 160 14 14 (752640)
I0403 16:41:53.639667 19200 net.cpp:156] Memory required for data: 1224087072
I0403 16:41:53.639686 19200 layer_factory.hpp:77] Creating layer inception_4e/3x3
I0403 16:41:53.639714 19200 net.cpp:91] Creating Layer inception_4e/3x3
I0403 16:41:53.639737 19200 net.cpp:425] inception_4e/3x3 <- inception_4e/3x3_reduce
I0403 16:41:53.639762 19200 net.cpp:399] inception_4e/3x3 -> inception_4e/3x3
I0403 16:41:53.645949 19200 net.cpp:141] Setting up inception_4e/3x3
I0403 16:41:53.646001 19200 net.cpp:148] Top shape: 24 320 14 14 (1505280)
I0403 16:41:53.646023 19200 net.cpp:156] Memory required for data: 1230108192
I0403 16:41:53.646046 19200 layer_factory.hpp:77] Creating layer inception_4e/relu_3x3
I0403 16:41:53.646073 19200 net.cpp:91] Creating Layer inception_4e/relu_3x3
I0403 16:41:53.646095 19200 net.cpp:425] inception_4e/relu_3x3 <- inception_4e/3x3
I0403 16:41:53.646116 19200 net.cpp:386] inception_4e/relu_3x3 -> inception_4e/3x3 (in-place)
I0403 16:41:53.646483 19200 net.cpp:141] Setting up inception_4e/relu_3x3
I0403 16:41:53.646519 19200 net.cpp:148] Top shape: 24 320 14 14 (1505280)
I0403 16:41:53.646539 19200 net.cpp:156] Memory required for data: 1236129312
I0403 16:41:53.646558 19200 layer_factory.hpp:77] Creating layer inception_4e/5x5_reduce
I0403 16:41:53.646591 19200 net.cpp:91] Creating Layer inception_4e/5x5_reduce
I0403 16:41:53.646615 19200 net.cpp:425] inception_4e/5x5_reduce <- inception_4d/output_inception_4d/output_0_split_3
I0403 16:41:53.646639 19200 net.cpp:399] inception_4e/5x5_reduce -> inception_4e/5x5_reduce
I0403 16:41:53.647954 19200 net.cpp:141] Setting up inception_4e/5x5_reduce
I0403 16:41:53.647989 19200 net.cpp:148] Top shape: 24 32 14 14 (150528)
I0403 16:41:53.648008 19200 net.cpp:156] Memory required for data: 1236731424
I0403 16:41:53.648032 19200 layer_factory.hpp:77] Creating layer inception_4e/relu_5x5_reduce
I0403 16:41:53.648057 19200 net.cpp:91] Creating Layer inception_4e/relu_5x5_reduce
I0403 16:41:53.648079 19200 net.cpp:425] inception_4e/relu_5x5_reduce <- inception_4e/5x5_reduce
I0403 16:41:53.648100 19200 net.cpp:386] inception_4e/relu_5x5_reduce -> inception_4e/5x5_reduce (in-place)
I0403 16:41:53.648468 19200 net.cpp:141] Setting up inception_4e/relu_5x5_reduce
I0403 16:41:53.648500 19200 net.cpp:148] Top shape: 24 32 14 14 (150528)
I0403 16:41:53.648520 19200 net.cpp:156] Memory required for data: 1237333536
I0403 16:41:53.648538 19200 layer_factory.hpp:77] Creating layer inception_4e/5x5
I0403 16:41:53.648593 19200 net.cpp:91] Creating Layer inception_4e/5x5
I0403 16:41:53.648619 19200 net.cpp:425] inception_4e/5x5 <- inception_4e/5x5_reduce
I0403 16:41:53.648644 19200 net.cpp:399] inception_4e/5x5 -> inception_4e/5x5
I0403 16:41:53.650910 19200 net.cpp:141] Setting up inception_4e/5x5
I0403 16:41:53.650948 19200 net.cpp:148] Top shape: 24 128 14 14 (602112)
I0403 16:41:53.650969 19200 net.cpp:156] Memory required for data: 1239741984
I0403 16:41:53.650992 19200 layer_factory.hpp:77] Creating layer inception_4e/relu_5x5
I0403 16:41:53.651016 19200 net.cpp:91] Creating Layer inception_4e/relu_5x5
I0403 16:41:53.651037 19200 net.cpp:425] inception_4e/relu_5x5 <- inception_4e/5x5
I0403 16:41:53.651062 19200 net.cpp:386] inception_4e/relu_5x5 -> inception_4e/5x5 (in-place)
I0403 16:41:53.651306 19200 net.cpp:141] Setting up inception_4e/relu_5x5
I0403 16:41:53.651337 19200 net.cpp:148] Top shape: 24 128 14 14 (602112)
I0403 16:41:53.651355 19200 net.cpp:156] Memory required for data: 1242150432
I0403 16:41:53.651374 19200 layer_factory.hpp:77] Creating layer inception_4e/pool
I0403 16:41:53.651396 19200 net.cpp:91] Creating Layer inception_4e/pool
I0403 16:41:53.651414 19200 net.cpp:425] inception_4e/pool <- inception_4d/output_inception_4d/output_0_split_4
I0403 16:41:53.651439 19200 net.cpp:399] inception_4e/pool -> inception_4e/pool
I0403 16:41:53.651530 19200 net.cpp:141] Setting up inception_4e/pool
I0403 16:41:53.651559 19200 net.cpp:148] Top shape: 24 528 14 14 (2483712)
I0403 16:41:53.651584 19200 net.cpp:156] Memory required for data: 1252085280
I0403 16:41:53.651604 19200 layer_factory.hpp:77] Creating layer inception_4e/pool_proj
I0403 16:41:53.651633 19200 net.cpp:91] Creating Layer inception_4e/pool_proj
I0403 16:41:53.651654 19200 net.cpp:425] inception_4e/pool_proj <- inception_4e/pool
I0403 16:41:53.651679 19200 net.cpp:399] inception_4e/pool_proj -> inception_4e/pool_proj
I0403 16:41:53.653509 19200 net.cpp:141] Setting up inception_4e/pool_proj
I0403 16:41:53.653547 19200 net.cpp:148] Top shape: 24 128 14 14 (602112)
I0403 16:41:53.653589 19200 net.cpp:156] Memory required for data: 1254493728
I0403 16:41:53.653614 19200 layer_factory.hpp:77] Creating layer inception_4e/relu_pool_proj
I0403 16:41:53.653638 19200 net.cpp:91] Creating Layer inception_4e/relu_pool_proj
I0403 16:41:53.653659 19200 net.cpp:425] inception_4e/relu_pool_proj <- inception_4e/pool_proj
I0403 16:41:53.653684 19200 net.cpp:386] inception_4e/relu_pool_proj -> inception_4e/pool_proj (in-place)
I0403 16:41:53.654044 19200 net.cpp:141] Setting up inception_4e/relu_pool_proj
I0403 16:41:53.654083 19200 net.cpp:148] Top shape: 24 128 14 14 (602112)
I0403 16:41:53.654103 19200 net.cpp:156] Memory required for data: 1256902176
I0403 16:41:53.654122 19200 layer_factory.hpp:77] Creating layer inception_4e/output
I0403 16:41:53.654145 19200 net.cpp:91] Creating Layer inception_4e/output
I0403 16:41:53.654165 19200 net.cpp:425] inception_4e/output <- inception_4e/1x1
I0403 16:41:53.654186 19200 net.cpp:425] inception_4e/output <- inception_4e/3x3
I0403 16:41:53.654207 19200 net.cpp:425] inception_4e/output <- inception_4e/5x5
I0403 16:41:53.654229 19200 net.cpp:425] inception_4e/output <- inception_4e/pool_proj
I0403 16:41:53.654253 19200 net.cpp:399] inception_4e/output -> inception_4e/output
I0403 16:41:53.654315 19200 net.cpp:141] Setting up inception_4e/output
I0403 16:41:53.654345 19200 net.cpp:148] Top shape: 24 832 14 14 (3913728)
I0403 16:41:53.654362 19200 net.cpp:156] Memory required for data: 1272557088
I0403 16:41:53.654381 19200 layer_factory.hpp:77] Creating layer pool4/3x3_s2
I0403 16:41:53.654404 19200 net.cpp:91] Creating Layer pool4/3x3_s2
I0403 16:41:53.654425 19200 net.cpp:425] pool4/3x3_s2 <- inception_4e/output
I0403 16:41:53.654449 19200 net.cpp:399] pool4/3x3_s2 -> pool4/3x3_s2
I0403 16:41:53.654533 19200 net.cpp:141] Setting up pool4/3x3_s2
I0403 16:41:53.654563 19200 net.cpp:148] Top shape: 24 832 7 7 (978432)
I0403 16:41:53.654588 19200 net.cpp:156] Memory required for data: 1276470816
I0403 16:41:53.654608 19200 layer_factory.hpp:77] Creating layer pool4/3x3_s2_pool4/3x3_s2_0_split
I0403 16:41:53.654629 19200 net.cpp:91] Creating Layer pool4/3x3_s2_pool4/3x3_s2_0_split
I0403 16:41:53.654649 19200 net.cpp:425] pool4/3x3_s2_pool4/3x3_s2_0_split <- pool4/3x3_s2
I0403 16:41:53.654672 19200 net.cpp:399] pool4/3x3_s2_pool4/3x3_s2_0_split -> pool4/3x3_s2_pool4/3x3_s2_0_split_0
I0403 16:41:53.654700 19200 net.cpp:399] pool4/3x3_s2_pool4/3x3_s2_0_split -> pool4/3x3_s2_pool4/3x3_s2_0_split_1
I0403 16:41:53.654726 19200 net.cpp:399] pool4/3x3_s2_pool4/3x3_s2_0_split -> pool4/3x3_s2_pool4/3x3_s2_0_split_2
I0403 16:41:53.654752 19200 net.cpp:399] pool4/3x3_s2_pool4/3x3_s2_0_split -> pool4/3x3_s2_pool4/3x3_s2_0_split_3
I0403 16:41:53.654865 19200 net.cpp:141] Setting up pool4/3x3_s2_pool4/3x3_s2_0_split
I0403 16:41:53.654893 19200 net.cpp:148] Top shape: 24 832 7 7 (978432)
I0403 16:41:53.654914 19200 net.cpp:148] Top shape: 24 832 7 7 (978432)
I0403 16:41:53.654934 19200 net.cpp:148] Top shape: 24 832 7 7 (978432)
I0403 16:41:53.654953 19200 net.cpp:148] Top shape: 24 832 7 7 (978432)
I0403 16:41:53.654970 19200 net.cpp:156] Memory required for data: 1292125728
I0403 16:41:53.654989 19200 layer_factory.hpp:77] Creating layer inception_5a/1x1
I0403 16:41:53.655016 19200 net.cpp:91] Creating Layer inception_5a/1x1
I0403 16:41:53.655038 19200 net.cpp:425] inception_5a/1x1 <- pool4/3x3_s2_pool4/3x3_s2_0_split_0
I0403 16:41:53.655066 19200 net.cpp:399] inception_5a/1x1 -> inception_5a/1x1
I0403 16:41:53.658555 19200 net.cpp:141] Setting up inception_5a/1x1
I0403 16:41:53.658596 19200 net.cpp:148] Top shape: 24 256 7 7 (301056)
I0403 16:41:53.658617 19200 net.cpp:156] Memory required for data: 1293329952
I0403 16:41:53.658640 19200 layer_factory.hpp:77] Creating layer inception_5a/relu_1x1
I0403 16:41:53.658663 19200 net.cpp:91] Creating Layer inception_5a/relu_1x1
I0403 16:41:53.658682 19200 net.cpp:425] inception_5a/relu_1x1 <- inception_5a/1x1
I0403 16:41:53.658706 19200 net.cpp:386] inception_5a/relu_1x1 -> inception_5a/1x1 (in-place)
I0403 16:41:53.659090 19200 net.cpp:141] Setting up inception_5a/relu_1x1
I0403 16:41:53.659122 19200 net.cpp:148] Top shape: 24 256 7 7 (301056)
I0403 16:41:53.659142 19200 net.cpp:156] Memory required for data: 1294534176
I0403 16:41:53.659160 19200 layer_factory.hpp:77] Creating layer inception_5a/3x3_reduce
I0403 16:41:53.659188 19200 net.cpp:91] Creating Layer inception_5a/3x3_reduce
I0403 16:41:53.659209 19200 net.cpp:425] inception_5a/3x3_reduce <- pool4/3x3_s2_pool4/3x3_s2_0_split_1
I0403 16:41:53.659235 19200 net.cpp:399] inception_5a/3x3_reduce -> inception_5a/3x3_reduce
I0403 16:41:53.662230 19200 net.cpp:141] Setting up inception_5a/3x3_reduce
I0403 16:41:53.662267 19200 net.cpp:148] Top shape: 24 160 7 7 (188160)
I0403 16:41:53.662287 19200 net.cpp:156] Memory required for data: 1295286816
I0403 16:41:53.662313 19200 layer_factory.hpp:77] Creating layer inception_5a/relu_3x3_reduce
I0403 16:41:53.662338 19200 net.cpp:91] Creating Layer inception_5a/relu_3x3_reduce
I0403 16:41:53.662358 19200 net.cpp:425] inception_5a/relu_3x3_reduce <- inception_5a/3x3_reduce
I0403 16:41:53.662380 19200 net.cpp:386] inception_5a/relu_3x3_reduce -> inception_5a/3x3_reduce (in-place)
I0403 16:41:53.662624 19200 net.cpp:141] Setting up inception_5a/relu_3x3_reduce
I0403 16:41:53.662657 19200 net.cpp:148] Top shape: 24 160 7 7 (188160)
I0403 16:41:53.662674 19200 net.cpp:156] Memory required for data: 1296039456
I0403 16:41:53.662693 19200 layer_factory.hpp:77] Creating layer inception_5a/3x3
I0403 16:41:53.662720 19200 net.cpp:91] Creating Layer inception_5a/3x3
I0403 16:41:53.662744 19200 net.cpp:425] inception_5a/3x3 <- inception_5a/3x3_reduce
I0403 16:41:53.662772 19200 net.cpp:399] inception_5a/3x3 -> inception_5a/3x3
I0403 16:41:53.669006 19200 net.cpp:141] Setting up inception_5a/3x3
I0403 16:41:53.669044 19200 net.cpp:148] Top shape: 24 320 7 7 (376320)
I0403 16:41:53.669064 19200 net.cpp:156] Memory required for data: 1297544736
I0403 16:41:53.669086 19200 layer_factory.hpp:77] Creating layer inception_5a/relu_3x3
I0403 16:41:53.669108 19200 net.cpp:91] Creating Layer inception_5a/relu_3x3
I0403 16:41:53.669129 19200 net.cpp:425] inception_5a/relu_3x3 <- inception_5a/3x3
I0403 16:41:53.669154 19200 net.cpp:386] inception_5a/relu_3x3 -> inception_5a/3x3 (in-place)
I0403 16:41:53.669513 19200 net.cpp:141] Setting up inception_5a/relu_3x3
I0403 16:41:53.669546 19200 net.cpp:148] Top shape: 24 320 7 7 (376320)
I0403 16:41:53.669565 19200 net.cpp:156] Memory required for data: 1299050016
I0403 16:41:53.669590 19200 layer_factory.hpp:77] Creating layer inception_5a/5x5_reduce
I0403 16:41:53.669621 19200 net.cpp:91] Creating Layer inception_5a/5x5_reduce
I0403 16:41:53.669646 19200 net.cpp:425] inception_5a/5x5_reduce <- pool4/3x3_s2_pool4/3x3_s2_0_split_2
I0403 16:41:53.669672 19200 net.cpp:399] inception_5a/5x5_reduce -> inception_5a/5x5_reduce
I0403 16:41:53.671113 19200 net.cpp:141] Setting up inception_5a/5x5_reduce
I0403 16:41:53.671149 19200 net.cpp:148] Top shape: 24 32 7 7 (37632)
I0403 16:41:53.671170 19200 net.cpp:156] Memory required for data: 1299200544
I0403 16:41:53.671193 19200 layer_factory.hpp:77] Creating layer inception_5a/relu_5x5_reduce
I0403 16:41:53.671219 19200 net.cpp:91] Creating Layer inception_5a/relu_5x5_reduce
I0403 16:41:53.671241 19200 net.cpp:425] inception_5a/relu_5x5_reduce <- inception_5a/5x5_reduce
I0403 16:41:53.671263 19200 net.cpp:386] inception_5a/relu_5x5_reduce -> inception_5a/5x5_reduce (in-place)
I0403 16:41:53.671641 19200 net.cpp:141] Setting up inception_5a/relu_5x5_reduce
I0403 16:41:53.671674 19200 net.cpp:148] Top shape: 24 32 7 7 (37632)
I0403 16:41:53.671694 19200 net.cpp:156] Memory required for data: 1299351072
I0403 16:41:53.671711 19200 layer_factory.hpp:77] Creating layer inception_5a/5x5
I0403 16:41:53.671739 19200 net.cpp:91] Creating Layer inception_5a/5x5
I0403 16:41:53.671761 19200 net.cpp:425] inception_5a/5x5 <- inception_5a/5x5_reduce
I0403 16:41:53.671787 19200 net.cpp:399] inception_5a/5x5 -> inception_5a/5x5
I0403 16:41:53.673916 19200 net.cpp:141] Setting up inception_5a/5x5
I0403 16:41:53.673965 19200 net.cpp:148] Top shape: 24 128 7 7 (150528)
I0403 16:41:53.673986 19200 net.cpp:156] Memory required for data: 1299953184
I0403 16:41:53.674010 19200 layer_factory.hpp:77] Creating layer inception_5a/relu_5x5
I0403 16:41:53.674033 19200 net.cpp:91] Creating Layer inception_5a/relu_5x5
I0403 16:41:53.674053 19200 net.cpp:425] inception_5a/relu_5x5 <- inception_5a/5x5
I0403 16:41:53.674078 19200 net.cpp:386] inception_5a/relu_5x5 -> inception_5a/5x5 (in-place)
I0403 16:41:53.674317 19200 net.cpp:141] Setting up inception_5a/relu_5x5
I0403 16:41:53.674350 19200 net.cpp:148] Top shape: 24 128 7 7 (150528)
I0403 16:41:53.674368 19200 net.cpp:156] Memory required for data: 1300555296
I0403 16:41:53.674386 19200 layer_factory.hpp:77] Creating layer inception_5a/pool
I0403 16:41:53.674412 19200 net.cpp:91] Creating Layer inception_5a/pool
I0403 16:41:53.674433 19200 net.cpp:425] inception_5a/pool <- pool4/3x3_s2_pool4/3x3_s2_0_split_3
I0403 16:41:53.674455 19200 net.cpp:399] inception_5a/pool -> inception_5a/pool
I0403 16:41:53.674545 19200 net.cpp:141] Setting up inception_5a/pool
I0403 16:41:53.674587 19200 net.cpp:148] Top shape: 24 832 7 7 (978432)
I0403 16:41:53.674609 19200 net.cpp:156] Memory required for data: 1304469024
I0403 16:41:53.674628 19200 layer_factory.hpp:77] Creating layer inception_5a/pool_proj
I0403 16:41:53.674655 19200 net.cpp:91] Creating Layer inception_5a/pool_proj
I0403 16:41:53.674677 19200 net.cpp:425] inception_5a/pool_proj <- inception_5a/pool
I0403 16:41:53.674705 19200 net.cpp:399] inception_5a/pool_proj -> inception_5a/pool_proj
I0403 16:41:53.677491 19200 net.cpp:141] Setting up inception_5a/pool_proj
I0403 16:41:53.677531 19200 net.cpp:148] Top shape: 24 128 7 7 (150528)
I0403 16:41:53.677551 19200 net.cpp:156] Memory required for data: 1305071136
I0403 16:41:53.677578 19200 layer_factory.hpp:77] Creating layer inception_5a/relu_pool_proj
I0403 16:41:53.677603 19200 net.cpp:91] Creating Layer inception_5a/relu_pool_proj
I0403 16:41:53.677623 19200 net.cpp:425] inception_5a/relu_pool_proj <- inception_5a/pool_proj
I0403 16:41:53.677649 19200 net.cpp:386] inception_5a/relu_pool_proj -> inception_5a/pool_proj (in-place)
I0403 16:41:53.678009 19200 net.cpp:141] Setting up inception_5a/relu_pool_proj
I0403 16:41:53.678042 19200 net.cpp:148] Top shape: 24 128 7 7 (150528)
I0403 16:41:53.678061 19200 net.cpp:156] Memory required for data: 1305673248
I0403 16:41:53.678079 19200 layer_factory.hpp:77] Creating layer inception_5a/output
I0403 16:41:53.678102 19200 net.cpp:91] Creating Layer inception_5a/output
I0403 16:41:53.678122 19200 net.cpp:425] inception_5a/output <- inception_5a/1x1
I0403 16:41:53.678143 19200 net.cpp:425] inception_5a/output <- inception_5a/3x3
I0403 16:41:53.678164 19200 net.cpp:425] inception_5a/output <- inception_5a/5x5
I0403 16:41:53.678184 19200 net.cpp:425] inception_5a/output <- inception_5a/pool_proj
I0403 16:41:53.678205 19200 net.cpp:399] inception_5a/output -> inception_5a/output
I0403 16:41:53.678270 19200 net.cpp:141] Setting up inception_5a/output
I0403 16:41:53.678300 19200 net.cpp:148] Top shape: 24 832 7 7 (978432)
I0403 16:41:53.678320 19200 net.cpp:156] Memory required for data: 1309586976
I0403 16:41:53.678339 19200 layer_factory.hpp:77] Creating layer inception_5a/output_inception_5a/output_0_split
I0403 16:41:53.678362 19200 net.cpp:91] Creating Layer inception_5a/output_inception_5a/output_0_split
I0403 16:41:53.678383 19200 net.cpp:425] inception_5a/output_inception_5a/output_0_split <- inception_5a/output
I0403 16:41:53.678406 19200 net.cpp:399] inception_5a/output_inception_5a/output_0_split -> inception_5a/output_inception_5a/output_0_split_0
I0403 16:41:53.678431 19200 net.cpp:399] inception_5a/output_inception_5a/output_0_split -> inception_5a/output_inception_5a/output_0_split_1
I0403 16:41:53.678457 19200 net.cpp:399] inception_5a/output_inception_5a/output_0_split -> inception_5a/output_inception_5a/output_0_split_2
I0403 16:41:53.678486 19200 net.cpp:399] inception_5a/output_inception_5a/output_0_split -> inception_5a/output_inception_5a/output_0_split_3
I0403 16:41:53.678634 19200 net.cpp:141] Setting up inception_5a/output_inception_5a/output_0_split
I0403 16:41:53.678665 19200 net.cpp:148] Top shape: 24 832 7 7 (978432)
I0403 16:41:53.678685 19200 net.cpp:148] Top shape: 24 832 7 7 (978432)
I0403 16:41:53.678705 19200 net.cpp:148] Top shape: 24 832 7 7 (978432)
I0403 16:41:53.678725 19200 net.cpp:148] Top shape: 24 832 7 7 (978432)
I0403 16:41:53.678745 19200 net.cpp:156] Memory required for data: 1325241888
I0403 16:41:53.678764 19200 layer_factory.hpp:77] Creating layer inception_5b/1x1
I0403 16:41:53.678791 19200 net.cpp:91] Creating Layer inception_5b/1x1
I0403 16:41:53.678813 19200 net.cpp:425] inception_5b/1x1 <- inception_5a/output_inception_5a/output_0_split_0
I0403 16:41:53.678839 19200 net.cpp:399] inception_5b/1x1 -> inception_5b/1x1
I0403 16:41:53.683432 19200 net.cpp:141] Setting up inception_5b/1x1
I0403 16:41:53.683472 19200 net.cpp:148] Top shape: 24 384 7 7 (451584)
I0403 16:41:53.683493 19200 net.cpp:156] Memory required for data: 1327048224
I0403 16:41:53.683516 19200 layer_factory.hpp:77] Creating layer inception_5b/relu_1x1
I0403 16:41:53.683539 19200 net.cpp:91] Creating Layer inception_5b/relu_1x1
I0403 16:41:53.683560 19200 net.cpp:425] inception_5b/relu_1x1 <- inception_5b/1x1
I0403 16:41:53.683591 19200 net.cpp:386] inception_5b/relu_1x1 -> inception_5b/1x1 (in-place)
I0403 16:41:53.683967 19200 net.cpp:141] Setting up inception_5b/relu_1x1
I0403 16:41:53.684002 19200 net.cpp:148] Top shape: 24 384 7 7 (451584)
I0403 16:41:53.684022 19200 net.cpp:156] Memory required for data: 1328854560
I0403 16:41:53.684042 19200 layer_factory.hpp:77] Creating layer inception_5b/3x3_reduce
I0403 16:41:53.684069 19200 net.cpp:91] Creating Layer inception_5b/3x3_reduce
I0403 16:41:53.684092 19200 net.cpp:425] inception_5b/3x3_reduce <- inception_5a/output_inception_5a/output_0_split_1
I0403 16:41:53.684118 19200 net.cpp:399] inception_5b/3x3_reduce -> inception_5b/3x3_reduce
I0403 16:41:53.687368 19200 net.cpp:141] Setting up inception_5b/3x3_reduce
I0403 16:41:53.687408 19200 net.cpp:148] Top shape: 24 192 7 7 (225792)
I0403 16:41:53.687429 19200 net.cpp:156] Memory required for data: 1329757728
I0403 16:41:53.687453 19200 layer_factory.hpp:77] Creating layer inception_5b/relu_3x3_reduce
I0403 16:41:53.687477 19200 net.cpp:91] Creating Layer inception_5b/relu_3x3_reduce
I0403 16:41:53.687499 19200 net.cpp:425] inception_5b/relu_3x3_reduce <- inception_5b/3x3_reduce
I0403 16:41:53.687521 19200 net.cpp:386] inception_5b/relu_3x3_reduce -> inception_5b/3x3_reduce (in-place)
I0403 16:41:53.687765 19200 net.cpp:141] Setting up inception_5b/relu_3x3_reduce
I0403 16:41:53.687796 19200 net.cpp:148] Top shape: 24 192 7 7 (225792)
I0403 16:41:53.687815 19200 net.cpp:156] Memory required for data: 1330660896
I0403 16:41:53.687834 19200 layer_factory.hpp:77] Creating layer inception_5b/3x3
I0403 16:41:53.687861 19200 net.cpp:91] Creating Layer inception_5b/3x3
I0403 16:41:53.687885 19200 net.cpp:425] inception_5b/3x3 <- inception_5b/3x3_reduce
I0403 16:41:53.687911 19200 net.cpp:399] inception_5b/3x3 -> inception_5b/3x3
I0403 16:41:53.696219 19200 net.cpp:141] Setting up inception_5b/3x3
I0403 16:41:53.696257 19200 net.cpp:148] Top shape: 24 384 7 7 (451584)
I0403 16:41:53.696279 19200 net.cpp:156] Memory required for data: 1332467232
I0403 16:41:53.696301 19200 layer_factory.hpp:77] Creating layer inception_5b/relu_3x3
I0403 16:41:53.696326 19200 net.cpp:91] Creating Layer inception_5b/relu_3x3
I0403 16:41:53.696346 19200 net.cpp:425] inception_5b/relu_3x3 <- inception_5b/3x3
I0403 16:41:53.696372 19200 net.cpp:386] inception_5b/relu_3x3 -> inception_5b/3x3 (in-place)
I0403 16:41:53.696746 19200 net.cpp:141] Setting up inception_5b/relu_3x3
I0403 16:41:53.696782 19200 net.cpp:148] Top shape: 24 384 7 7 (451584)
I0403 16:41:53.696800 19200 net.cpp:156] Memory required for data: 1334273568
I0403 16:41:53.696820 19200 layer_factory.hpp:77] Creating layer inception_5b/5x5_reduce
I0403 16:41:53.696866 19200 net.cpp:91] Creating Layer inception_5b/5x5_reduce
I0403 16:41:53.696892 19200 net.cpp:425] inception_5b/5x5_reduce <- inception_5a/output_inception_5a/output_0_split_2
I0403 16:41:53.696918 19200 net.cpp:399] inception_5b/5x5_reduce -> inception_5b/5x5_reduce
I0403 16:41:53.698478 19200 net.cpp:141] Setting up inception_5b/5x5_reduce
I0403 16:41:53.698515 19200 net.cpp:148] Top shape: 24 48 7 7 (56448)
I0403 16:41:53.698536 19200 net.cpp:156] Memory required for data: 1334499360
I0403 16:41:53.698561 19200 layer_factory.hpp:77] Creating layer inception_5b/relu_5x5_reduce
I0403 16:41:53.698590 19200 net.cpp:91] Creating Layer inception_5b/relu_5x5_reduce
I0403 16:41:53.698613 19200 net.cpp:425] inception_5b/relu_5x5_reduce <- inception_5b/5x5_reduce
I0403 16:41:53.698638 19200 net.cpp:386] inception_5b/relu_5x5_reduce -> inception_5b/5x5_reduce (in-place)
I0403 16:41:53.699095 19200 net.cpp:141] Setting up inception_5b/relu_5x5_reduce
I0403 16:41:53.699128 19200 net.cpp:148] Top shape: 24 48 7 7 (56448)
I0403 16:41:53.699148 19200 net.cpp:156] Memory required for data: 1334725152
I0403 16:41:53.699167 19200 layer_factory.hpp:77] Creating layer inception_5b/5x5
I0403 16:41:53.699192 19200 net.cpp:91] Creating Layer inception_5b/5x5
I0403 16:41:53.699211 19200 net.cpp:425] inception_5b/5x5 <- inception_5b/5x5_reduce
I0403 16:41:53.699235 19200 net.cpp:399] inception_5b/5x5 -> inception_5b/5x5
I0403 16:41:53.701788 19200 net.cpp:141] Setting up inception_5b/5x5
I0403 16:41:53.701823 19200 net.cpp:148] Top shape: 24 128 7 7 (150528)
I0403 16:41:53.701844 19200 net.cpp:156] Memory required for data: 1335327264
I0403 16:41:53.701867 19200 layer_factory.hpp:77] Creating layer inception_5b/relu_5x5
I0403 16:41:53.701889 19200 net.cpp:91] Creating Layer inception_5b/relu_5x5
I0403 16:41:53.701910 19200 net.cpp:425] inception_5b/relu_5x5 <- inception_5b/5x5
I0403 16:41:53.701935 19200 net.cpp:386] inception_5b/relu_5x5 -> inception_5b/5x5 (in-place)
I0403 16:41:53.702178 19200 net.cpp:141] Setting up inception_5b/relu_5x5
I0403 16:41:53.702209 19200 net.cpp:148] Top shape: 24 128 7 7 (150528)
I0403 16:41:53.702229 19200 net.cpp:156] Memory required for data: 1335929376
I0403 16:41:53.702247 19200 layer_factory.hpp:77] Creating layer inception_5b/pool
I0403 16:41:53.702272 19200 net.cpp:91] Creating Layer inception_5b/pool
I0403 16:41:53.702293 19200 net.cpp:425] inception_5b/pool <- inception_5a/output_inception_5a/output_0_split_3
I0403 16:41:53.702317 19200 net.cpp:399] inception_5b/pool -> inception_5b/pool
I0403 16:41:53.702409 19200 net.cpp:141] Setting up inception_5b/pool
I0403 16:41:53.702440 19200 net.cpp:148] Top shape: 24 832 7 7 (978432)
I0403 16:41:53.702458 19200 net.cpp:156] Memory required for data: 1339843104
I0403 16:41:53.702477 19200 layer_factory.hpp:77] Creating layer inception_5b/pool_proj
I0403 16:41:53.702505 19200 net.cpp:91] Creating Layer inception_5b/pool_proj
I0403 16:41:53.702527 19200 net.cpp:425] inception_5b/pool_proj <- inception_5b/pool
I0403 16:41:53.702554 19200 net.cpp:399] inception_5b/pool_proj -> inception_5b/pool_proj
I0403 16:41:53.705368 19200 net.cpp:141] Setting up inception_5b/pool_proj
I0403 16:41:53.705409 19200 net.cpp:148] Top shape: 24 128 7 7 (150528)
I0403 16:41:53.705430 19200 net.cpp:156] Memory required for data: 1340445216
I0403 16:41:53.705453 19200 layer_factory.hpp:77] Creating layer inception_5b/relu_pool_proj
I0403 16:41:53.705476 19200 net.cpp:91] Creating Layer inception_5b/relu_pool_proj
I0403 16:41:53.705497 19200 net.cpp:425] inception_5b/relu_pool_proj <- inception_5b/pool_proj
I0403 16:41:53.705523 19200 net.cpp:386] inception_5b/relu_pool_proj -> inception_5b/pool_proj (in-place)
I0403 16:41:53.705902 19200 net.cpp:141] Setting up inception_5b/relu_pool_proj
I0403 16:41:53.705938 19200 net.cpp:148] Top shape: 24 128 7 7 (150528)
I0403 16:41:53.705957 19200 net.cpp:156] Memory required for data: 1341047328
I0403 16:41:53.705976 19200 layer_factory.hpp:77] Creating layer inception_5b/output
I0403 16:41:53.705999 19200 net.cpp:91] Creating Layer inception_5b/output
I0403 16:41:53.706037 19200 net.cpp:425] inception_5b/output <- inception_5b/1x1
I0403 16:41:53.706061 19200 net.cpp:425] inception_5b/output <- inception_5b/3x3
I0403 16:41:53.706082 19200 net.cpp:425] inception_5b/output <- inception_5b/5x5
I0403 16:41:53.706104 19200 net.cpp:425] inception_5b/output <- inception_5b/pool_proj
I0403 16:41:53.706128 19200 net.cpp:399] inception_5b/output -> inception_5b/output
I0403 16:41:53.706194 19200 net.cpp:141] Setting up inception_5b/output
I0403 16:41:53.706223 19200 net.cpp:148] Top shape: 24 1024 7 7 (1204224)
I0403 16:41:53.706243 19200 net.cpp:156] Memory required for data: 1345864224
I0403 16:41:53.706259 19200 layer_factory.hpp:77] Creating layer pool5/7x7_s1
I0403 16:41:53.706285 19200 net.cpp:91] Creating Layer pool5/7x7_s1
I0403 16:41:53.706308 19200 net.cpp:425] pool5/7x7_s1 <- inception_5b/output
I0403 16:41:53.706331 19200 net.cpp:399] pool5/7x7_s1 -> pool5/7x7_s1
I0403 16:41:53.706609 19200 net.cpp:141] Setting up pool5/7x7_s1
I0403 16:41:53.706641 19200 net.cpp:148] Top shape: 24 1024 1 1 (24576)
I0403 16:41:53.706661 19200 net.cpp:156] Memory required for data: 1345962528
I0403 16:41:53.706679 19200 layer_factory.hpp:77] Creating layer pool5/drop_7x7_s1
I0403 16:41:53.706701 19200 net.cpp:91] Creating Layer pool5/drop_7x7_s1
I0403 16:41:53.706722 19200 net.cpp:425] pool5/drop_7x7_s1 <- pool5/7x7_s1
I0403 16:41:53.706746 19200 net.cpp:386] pool5/drop_7x7_s1 -> pool5/7x7_s1 (in-place)
I0403 16:41:53.706811 19200 net.cpp:141] Setting up pool5/drop_7x7_s1
I0403 16:41:53.706845 19200 net.cpp:148] Top shape: 24 1024 1 1 (24576)
I0403 16:41:53.706863 19200 net.cpp:156] Memory required for data: 1346060832
I0403 16:41:53.706882 19200 layer_factory.hpp:77] Creating layer loss3/classifier_plantvillage
I0403 16:41:53.706907 19200 net.cpp:91] Creating Layer loss3/classifier_plantvillage
I0403 16:41:53.706928 19200 net.cpp:425] loss3/classifier_plantvillage <- pool5/7x7_s1
I0403 16:41:53.706955 19200 net.cpp:399] loss3/classifier_plantvillage -> loss3/classifier_plantvillage
I0403 16:41:53.707482 19200 net.cpp:141] Setting up loss3/classifier_plantvillage
I0403 16:41:53.707516 19200 net.cpp:148] Top shape: 24 38 (912)
I0403 16:41:53.707536 19200 net.cpp:156] Memory required for data: 1346064480
I0403 16:41:53.707559 19200 layer_factory.hpp:77] Creating layer loss3/classifier_plantvillage_loss3/classifier_plantvillage_0_split
I0403 16:41:53.707588 19200 net.cpp:91] Creating Layer loss3/classifier_plantvillage_loss3/classifier_plantvillage_0_split
I0403 16:41:53.707610 19200 net.cpp:425] loss3/classifier_plantvillage_loss3/classifier_plantvillage_0_split <- loss3/classifier_plantvillage
I0403 16:41:53.707633 19200 net.cpp:399] loss3/classifier_plantvillage_loss3/classifier_plantvillage_0_split -> loss3/classifier_plantvillage_loss3/classifier_plantvillage_0_split_0
I0403 16:41:53.707659 19200 net.cpp:399] loss3/classifier_plantvillage_loss3/classifier_plantvillage_0_split -> loss3/classifier_plantvillage_loss3/classifier_plantvillage_0_split_1
I0403 16:41:53.707685 19200 net.cpp:399] loss3/classifier_plantvillage_loss3/classifier_plantvillage_0_split -> loss3/classifier_plantvillage_loss3/classifier_plantvillage_0_split_2
I0403 16:41:53.707713 19200 net.cpp:399] loss3/classifier_plantvillage_loss3/classifier_plantvillage_0_split -> loss3/classifier_plantvillage_loss3/classifier_plantvillage_0_split_3
I0403 16:41:53.707844 19200 net.cpp:141] Setting up loss3/classifier_plantvillage_loss3/classifier_plantvillage_0_split
I0403 16:41:53.707873 19200 net.cpp:148] Top shape: 24 38 (912)
I0403 16:41:53.707893 19200 net.cpp:148] Top shape: 24 38 (912)
I0403 16:41:53.707913 19200 net.cpp:148] Top shape: 24 38 (912)
I0403 16:41:53.707933 19200 net.cpp:148] Top shape: 24 38 (912)
I0403 16:41:53.707950 19200 net.cpp:156] Memory required for data: 1346079072
I0403 16:41:53.707969 19200 layer_factory.hpp:77] Creating layer loss1/loss
I0403 16:41:53.707996 19200 net.cpp:91] Creating Layer loss1/loss
I0403 16:41:53.708019 19200 net.cpp:425] loss1/loss <- loss1/classifier_plantvillage_loss1/classifier_plantvillage_0_split_0
I0403 16:41:53.708057 19200 net.cpp:425] loss1/loss <- label_data_1_split_0
…
