…
I0403 16:06:34.507434 17078 net.cpp:313] The NetState phase (1) differed from the phase (0) specified by a rule in layer data
I0403 16:06:34.508821 17078 net.cpp:49] Initializing net from parameters: 
state {
  phase: TEST
}
layer {
  name: "data"
  type: "Data"
  top: "data"
  top: "label"
  include {
    phase: TEST
  }
  transform_param {
    mirror: false
    crop_size: 224
    mean_file: "/home/mohanty/data/final_dataset/lmdb/color-20-80/mean.binaryproto"
  }
  data_param {
    source: "/home/mohanty/data/final_dataset/lmdb/color-20-80/test_db"
    batch_size: 24
    backend: LMDB
  }
}
layer {
  name: "conv1/7x7_s2"
  type: "Convolution"
  bottom: "data"
  top: "conv1/7x7_s2"
  param {
    lr_mult: 1
    decay_mult: 1
  }
  param {
    lr_mult: 2
    decay_mult: 0
  }
  convolution_param {
    num_output: 64
    pad: 3
    kernel_size: 7
    stride: 2
    weight_filler {
      type: "xavier"
      std: 0.1
    }
    bias_filler {
      type: "constant"
      value: 0.2
    }
  }
}
layer {
  name: "conv1/relu_7x7"
  type: "ReLU"
  bottom: "conv1/7x7_s2"
  top: "conv1/7x7_s2"
}
layer {
  name: "pool1/3x3_s2"
  type: "Pooling"
  bottom: "conv1/7x7_s2"
  top: "pool1/3x3_s2"
  pooling_param {
    pool: MAX
    kernel_size: 3
    stride: 2
  }
}
layer {
  name: "pool1/norm1"
  type: "LRN"
  bottom: "pool1/3x3_s2"
  top: "pool1/norm1"
  lrn_param {
    local_size: 5
    alpha: 0.0001
    beta: 0.75
  }
}
layer {
  name: "conv2/3x3_reduce"
  type: "Convolution"
  bottom: "pool1/norm1"
  top: "conv2/3x3_reduce"
  param {
    lr_mult: 1
    decay_mult: 1
  }
  param {
    lr_mult: 2
    decay_mult: 0
  }
  convolution_param {
    num_output: 64
    kernel_size: 1
    weight_filler {
      type: "xavier"
      std: 0.1
    }
    bias_filler {
      type: "constant"
      value: 0.2
    }
  }
}
layer {
  name: "conv2/relu_3x3_reduce"
  type: "ReLU"
  bottom: "conv2/3x3_reduce"
  top: "conv2/3x3_reduce"
}
layer {
  name: "conv2/3x3"
  type: "Convolution"
  bottom: "conv2/3x3_reduce"
  top: "conv2/3x3"
  param {
    lr_mult: 1
    decay_mult: 1
  }
  param {
    lr_mult: 2
    decay_mult: 0
  }
  convolution_param {
    num_output: 192
    pad: 1
    kernel_size: 3
    weight_filler {
      type: "xavier"
      std: 0.03
    }
    bias_filler {
      type: "constant"
      value: 0.2
    }
  }
}
layer {
  name: "conv2/relu_3x3"
  type: "ReLU"
  bottom: "conv2/3x3"
  top: "conv2/3x3"
}
layer {
  name: "conv2/norm2"
  type: "LRN"
  bottom: "conv2/3x3"
  top: "conv2/norm2"
  lrn_param {
    local_size: 5
    alpha: 0.0001
    beta: 0.75
  }
}
layer {
  name: "pool2/3x3_s2"
  type: "Pooling"
  bottom: "conv2/norm2"
  top: "pool2/3x3_s2"
  pooling_param {
    pool: MAX
    kernel_size: 3
    stride: 2
  }
}
layer {
  name: "inception_3a/1x1"
  type: "Convolution"
  bottom: "pool2/3x3_s2"
  top: "inception_3a/1x1"
  param {
    lr_mult: 1
    decay_mult: 1
  }
  param {
    lr_mult: 2
    decay_mult: 0
  }
  convolution_param {
    num_output: 64
    kernel_size: 1
    weight_filler {
      type: "xavier"
      std: 0.03
    }
    bias_filler {
      type: "constant"
      value: 0.2
    }
  }
}
layer {
  name: "inception_3a/relu_1x1"
  type: "ReLU"
  bottom: "inception_3a/1x1"
  top: "inception_3a/1x1"
}
layer {
  name: "inception_3a/3x3_reduce"
  type: "Convolution"
  bottom: "pool2/3x3_s2"
  top: "inception_3a/3x3_reduce"
  param {
    lr_mult: 1
    decay_mult: 1
  }
  param {
    lr_mult: 2
    decay_mult: 0
  }
  convolution_param {
    num_output: 96
    kernel_size: 1
    weight_filler {
      type: "xavier"
      std: 0.09
    }
    bias_filler {
      type: "constant"
      value: 0.2
    }
  }
}
layer {
  name: "inception_3a/relu_3x3_reduce"
  type: "ReLU"
  bottom: "inception_3a/3x3_reduce"
  top: "inception_3a/3x3_reduce"
}
layer {
  name: "inception_3a/3x3"
  type: "Convolution"
  bottom: "inception_3a/3x3_reduce"
  top: "inception_3a/3x3"
  param {
    lr_mult: 1
    decay_mult: 1
  }
  param {
    lr_mult: 2
    decay_mult: 0
  }
  convolution_param {
    num_output: 128
    pad: 1
    kernel_size: 3
    weight_filler {
      type: "xavier"
      std: 0.03
    }
    bias_filler {
      type: "constant"
      value: 0.2
    }
  }
}
layer {
  name: "inception_3a/relu_3x3"
  type: "ReLU"
  bottom: "inception_3a/3x3"
  top: "inception_3a/3x3"
}
layer {
  name: "inception_3a/5x5_reduce"
  type: "Convolution"
  bottom: "pool2/3x3_s2"
  top: "inception_3a/5x5_reduce"
  param {
    lr_mult: 1
    decay_mult: 1
  }
  param {
    lr_mult: 2
    decay_mult: 0
  }
  convolution_param {
    num_output: 16
    kernel_size: 1
    weight_filler {
      type: "xavier"
      std: 0.2
    }
    bias_filler {
      type: "constant"
      value: 0.2
    }
  }
}
layer {
  name: "inception_3a/relu_5x5_reduce"
  type: "ReLU"
  bottom: "inception_3a/5x5_reduce"
  top: "inception_3a/5x5_reduce"
}
layer {
  name: "inception_3a/5x5"
  type: "Convolution"
  bottom: "inception_3a/5x5_reduce"
  top: "inception_3a/5x5"
  param {
    lr_mult: 1
    decay_mult: 1
  }
  param {
    lr_mult: 2
    decay_mult: 0
  }
  convolution_param {
    num_output: 32
    pad: 2
    kernel_size: 5
    weight_filler {
      type: "xavier"
      std: 0.03
    }
    bias_filler {
      type: "constant"
      value: 0.2
    }
  }
}
layer {
  name: "inception_3a/relu_5x5"
  type: "ReLU"
  bottom: "inception_3a/5x5"
  top: "inception_3a/5x5"
}
layer {
  name: "inception_3a/pool"
  type: "Pooling"
  bottom: "pool2/3x3_s2"
  top: "inception_3a/pool"
  pooling_param {
    pool: MAX
    kernel_size: 3
    stride: 1
    pad: 1
  }
}
layer {
  name: "inception_3a/pool_proj"
  type: "Convolution"
  bottom: "inception_3a/pool"
  top: "inception_3a/pool_proj"
  param {
    lr_mult: 1
    decay_mult: 1
  }
  param {
    lr_mult: 2
    decay_mult: 0
  }
  convolution_param {
    num_output: 32
    kernel_size: 1
    weight_filler {
      type: "xavier"
      std: 0.1
    }
    bias_filler {
      type: "constant"
      value: 0.2
    }
  }
}
layer {
  name: "inception_3a/relu_pool_proj"
  type: "ReLU"
  bottom: "inception_3a/pool_proj"
  top: "inception_3a/pool_proj"
}
layer {
  name: "inception_3a/output"
  type: "Concat"
  bottom: "inception_3a/1x1"
  bottom: "inception_3a/3x3"
  bottom: "inception_3a/5x5"
  bottom: "inception_3a/pool_proj"
  top: "inception_3a/output"
}
layer {
  name: "inception_3b/1x1"
  type: "Convolution"
  bottom: "inception_3a/output"
  top: "inception_3b/1x1"
  param {
    lr_mult: 1
    decay_mult: 1
  }
  param {
    lr_mult: 2
    decay_mult: 0
  }
  convolution_param {
    num_output: 128
    kernel_size: 1
    weight_filler {
      type: "xavier"
      std: 0.03
    }
    bias_filler {
      type: "constant"
      value: 0.2
    }
  }
}
layer {
  name: "inception_3b/relu_1x1"
  type: "ReLU"
  bottom: "inception_3b/1x1"
  top: "inception_3b/1x1"
}
layer {
  name: "inception_3b/3x3_reduce"
  type: "Convolution"
  bottom: "inception_3a/output"
  top: "inception_3b/3x3_reduce"
  param {
    lr_mult: 1
    decay_mult: 1
  }
  param {
    lr_mult: 2
    decay_mult: 0
  }
  convolution_param {
    num_output: 128
    kernel_size: 1
    weight_filler {
      type: "xavier"
      std: 0.09
    }
    bias_filler {
      type: "constant"
      value: 0.2
    }
  }
}
layer {
  name: "inception_3b/relu_3x3_reduce"
  type: "ReLU"
  bottom: "inception_3b/3x3_reduce"
  top: "inception_3b/3x3_reduce"
}
layer {
  name: "inception_3b/3x3"
  type: "Convolution"
  bottom: "inception_3b/3x3_reduce"
  top: "inception_3b/3x3"
  param {
    lr_mult: 1
    decay_mult: 1
  }
  param {
    lr_mult: 2
    decay_mult: 0
  }
  convolution_param {
    num_output: 192
    pad: 1
    kernel_size: 3
    weight_filler {
      type: "xavier"
      std: 0.03
    }
    bias_filler {
      type: "constant"
      value: 0.2
    }
  }
}
layer {
  name: "inception_3b/relu_3x3"
  type: "ReLU"
  bottom: "inception_3b/3x3"
  top: "inception_3b/3x3"
}
layer {
  name: "inception_3b/5x5_reduce"
  type: "Convolution"
  bottom: "inception_3a/output"
  top: "inception_3b/5x5_reduce"
  param {
    lr_mult: 1
    decay_mult: 1
  }
  param {
    lr_mult: 2
    decay_mult: 0
  }
  convolution_param {
    num_output: 32
    kernel_size: 1
    weight_filler {
      type: "xavier"
      std: 0.2
    }
    bias_filler {
      type: "constant"
      value: 0.2
    }
  }
}
layer {
  name: "inception_3b/relu_5x5_reduce"
  type: "ReLU"
  bottom: "inception_3b/5x5_reduce"
  top: "inception_3b/5x5_reduce"
}
layer {
  name: "inception_3b/5x5"
  type: "Convolution"
  bottom: "inception_3b/5x5_reduce"
  top: "inception_3b/5x5"
  param {
    lr_mult: 1
    decay_mult: 1
  }
  param {
    lr_mult: 2
    decay_mult: 0
  }
  convolution_param {
    num_output: 96
    pad: 2
    kernel_size: 5
    weight_filler {
      type: "xavier"
      std: 0.03
    }
    bias_filler {
      type: "constant"
      value: 0.2
    }
  }
}
layer {
  name: "inception_3b/relu_5x5"
  type: "ReLU"
  bottom: "inception_3b/5x5"
  top: "inception_3b/5x5"
}
layer {
  name: "inception_3b/pool"
  type: "Pooling"
  bottom: "inception_3a/output"
  top: "inception_3b/pool"
  pooling_param {
    pool: MAX
    kernel_size: 3
    stride: 1
    pad: 1
  }
}
layer {
  name: "inception_3b/pool_proj"
  type: "Convolution"
  bottom: "inception_3b/pool"
  top: "inception_3b/pool_proj"
  param {
    lr_mult: 1
    decay_mult: 1
  }
  param {
    lr_mult: 2
    decay_mult: 0
  }
  convolution_param {
    num_output: 64
    kernel_size: 1
    weight_filler {
      type: "xavier"
      std: 0.1
    }
    bias_filler {
      type: "constant"
      value: 0.2
    }
  }
}
layer {
  name: "inception_3b/relu_pool_proj"
  type: "ReLU"
  bottom: "inception_3b/pool_proj"
  top: "inception_3b/pool_proj"
}
layer {
  name: "inception_3b/output"
  type: "Concat"
  bottom: "inception_3b/1x1"
  bottom: "inception_3b/3x3"
  bottom: "inception_3b/5x5"
  bottom: "inception_3b/pool_proj"
  top: "inception_3b/output"
}
layer {
  name: "pool3/3x3_s2"
  type: "Pooling"
  bottom: "inception_3b/output"
  top: "pool3/3x3_s2"
  pooling_param {
    pool: MAX
    kernel_size: 3
    stride: 2
  }
}
layer {
  name: "inception_4a/1x1"
  type: "Convolution"
  bottom: "pool3/3x3_s2"
  top: "inception_4a/1x1"
  param {
    lr_mult: 1
    decay_mult: 1
  }
  param {
    lr_mult: 2
    decay_mult: 0
  }
  convolution_param {
    num_output: 192
    kernel_size: 1
    weight_filler {
      type: "xavier"
      std: 0.03
    }
    bias_filler {
      type: "constant"
      value: 0.2
    }
  }
}
layer {
  name: "inception_4a/relu_1x1"
  type: "ReLU"
  bottom: "inception_4a/1x1"
  top: "inception_4a/1x1"
}
layer {
  name: "inception_4a/3x3_reduce"
  type: "Convolution"
  bottom: "pool3/3x3_s2"
  top: "inception_4a/3x3_reduce"
  param {
    lr_mult: 1
    decay_mult: 1
  }
  param {
    lr_mult: 2
    decay_mult: 0
  }
  convolution_param {
    num_output: 96
    kernel_size: 1
    weight_filler {
      type: "xavier"
      std: 0.09
    }
    bias_filler {
      type: "constant"
      value: 0.2
    }
  }
}
layer {
  name: "inception_4a/relu_3x3_reduce"
  type: "ReLU"
  bottom: "inception_4a/3x3_reduce"
  top: "inception_4a/3x3_reduce"
}
layer {
  name: "inception_4a/3x3"
  type: "Convolution"
  bottom: "inception_4a/3x3_reduce"
  top: "inception_4a/3x3"
  param {
    lr_mult: 1
    decay_mult: 1
  }
  param {
    lr_mult: 2
    decay_mult: 0
  }
  convolution_param {
    num_output: 208
    pad: 1
    kernel_size: 3
    weight_filler {
      type: "xavier"
      std: 0.03
    }
    bias_filler {
      type: "constant"
      value: 0.2
    }
  }
}
layer {
  name: "inception_4a/relu_3x3"
  type: "ReLU"
  bottom: "inception_4a/3x3"
  top: "inception_4a/3x3"
}
layer {
  name: "inception_4a/5x5_reduce"
  type: "Convolution"
  bottom: "pool3/3x3_s2"
  top: "inception_4a/5x5_reduce"
  param {
    lr_mult: 1
    decay_mult: 1
  }
  param {
    lr_mult: 2
    decay_mult: 0
  }
  convolution_param {
    num_output: 16
    kernel_size: 1
    weight_filler {
      type: "xavier"
      std: 0.2
    }
    bias_filler {
      type: "constant"
      value: 0.2
    }
  }
}
layer {
  name: "inception_4a/relu_5x5_reduce"
  type: "ReLU"
  bottom: "inception_4a/5x5_reduce"
  top: "inception_4a/5x5_reduce"
}
layer {
  name: "inception_4a/5x5"
  type: "Convolution"
  bottom: "inception_4a/5x5_reduce"
  top: "inception_4a/5x5"
  param {
    lr_mult: 1
    decay_mult: 1
  }
  param {
    lr_mult: 2
    decay_mult: 0
  }
  convolution_param {
    num_output: 48
    pad: 2
    kernel_size: 5
    weight_filler {
      type: "xavier"
      std: 0.03
    }
    bias_filler {
      type: "constant"
      value: 0.2
    }
  }
}
layer {
  name: "inception_4a/relu_5x5"
  type: "ReLU"
  bottom: "inception_4a/5x5"
  top: "inception_4a/5x5"
}
layer {
  name: "inception_4a/pool"
  type: "Pooling"
  bottom: "pool3/3x3_s2"
  top: "inception_4a/pool"
  pooling_param {
    pool: MAX
    kernel_size: 3
    stride: 1
    pad: 1
  }
}
layer {
  name: "inception_4a/pool_proj"
  type: "Convolution"
  bottom: "inception_4a/pool"
  top: "inception_4a/pool_proj"
  param {
    lr_mult: 1
    decay_mult: 1
  }
  param {
    lr_mult: 2
    decay_mult: 0
  }
  convolution_param {
    num_output: 64
    kernel_size: 1
    weight_filler {
      type: "xavier"
      std: 0.1
    }
    bias_filler {
      type: "constant"
      value: 0.2
    }
  }
}
layer {
  name: "inception_4a/relu_pool_proj"
  type: "ReLU"
  bottom: "inception_4a/pool_proj"
  top: "inception_4a/pool_proj"
}
layer {
  name: "inception_4a/output"
  type: "Concat"
  bottom: "inception_4a/1x1"
  bottom: "inception_4a/3x3"
  bottom: "inception_4a/5x5"
  bottom: "inception_4a/pool_proj"
  top: "inception_4a/output"
}
layer {
  name: "loss1/ave_pool"
  type: "Pooling"
  bottom: "inception_4a/output"
  top: "loss1/ave_pool"
  pooling_param {
    pool: AVE
    kernel_size: 5
    stride: 3
  }
}
layer {
  name: "loss1/conv"
  type: "Convolution"
  bottom: "loss1/ave_pool"
  top: "loss1/conv"
  param {
    lr_mult: 1
    decay_mult: 1
  }
  param {
    lr_mult: 2
    decay_mult: 0
  }
  convolution_param {
    num_output: 128
    kernel_size: 1
    weight_filler {
      type: "xavier"
      std: 0.08
    }
    bias_filler {
      type: "constant"
      value: 0.2
    }
  }
}
layer {
  name: "loss1/relu_conv"
  type: "ReLU"
  bottom: "loss1/conv"
  top: "loss1/conv"
}
layer {
  name: "loss1/fc"
  type: "InnerProduct"
  bottom: "loss1/conv"
  top: "loss1/fc"
  param {
    lr_mult: 1
    decay_mult: 1
  }
  param {
    lr_mult: 2
    decay_mult: 0
  }
  inner_product_param {
    num_output: 1024
    weight_filler {
      type: "xavier"
      std: 0.02
    }
    bias_filler {
      type: "constant"
      value: 0.2
    }
  }
}
layer {
  name: "loss1/relu_fc"
  type: "ReLU"
  bottom: "loss1/fc"
  top: "loss1/fc"
}
layer {
  name: "loss1/drop_fc"
  type: "Dropout"
  bottom: "loss1/fc"
  top: "loss1/fc"
  dropout_param {
    dropout_ratio: 0.7
  }
}
layer {
  name: "loss1/classifier_plantvillage"
  type: "InnerProduct"
  bottom: "loss1/fc"
  top: "loss1/classifier_plantvillage"
  param {
    lr_mult: 1
    decay_mult: 1
  }
  param {
    lr_mult: 2
    decay_mult: 0
  }
  inner_product_param {
    num_output: 38
    weight_filler {
      type: "xavier"
      std: 0.0009765625
    }
    bias_filler {
      type: "constant"
      value: 0
    }
  }
}
layer {
  name: "inception_4b/1x1"
  type: "Convolution"
  bottom: "inception_4a/output"
  top: "inception_4b/1x1"
  param {
    lr_mult: 1
    decay_mult: 1
  }
  param {
    lr_mult: 2
    decay_mult: 0
  }
  convolution_param {
    num_output: 160
    kernel_size: 1
    weight_filler {
      type: "xavier"
      std: 0.03
    }
    bias_filler {
      type: "constant"
      value: 0.2
    }
  }
}
layer {
  name: "inception_4b/relu_1x1"
  type: "ReLU"
  bottom: "inception_4b/1x1"
  top: "inception_4b/1x1"
}
layer {
  name: "inception_4b/3x3_reduce"
  type: "Convolution"
  bottom: "inception_4a/output"
  top: "inception_4b/3x3_reduce"
  param {
    lr_mult: 1
    decay_mult: 1
  }
  param {
    lr_mult: 2
    decay_mult: 0
  }
  convolution_param {
    num_output: 112
    kernel_size: 1
    weight_filler {
      type: "xavier"
      std: 0.09
    }
    bias_filler {
      type: "constant"
      value: 0.2
    }
  }
}
layer {
  name: "inception_4b/relu_3x3_reduce"
  type: "ReLU"
  bottom: "inception_4b/3x3_reduce"
  top: "inception_4b/3x3_reduce"
}
layer {
  name: "inception_4b/3x3"
  type: "Convolution"
  bottom: "inception_4b/3x3_reduce"
  top: "inception_4b/3x3"
  param {
    lr_mult: 1
    decay_mult: 1
  }
  param {
    lr_mult: 2
    decay_mult: 0
  }
  convolution_param {
    num_output: 224
    pad: 1
    kernel_size: 3
    weight_filler {
      type: "xavier"
      std: 0.03
    }
    bias_filler {
      type: "constant"
      value: 0.2
    }
  }
}
layer {
  name: "inception_4b/relu_3x3"
  type: "ReLU"
  bottom: "inception_4b/3x3"
  top: "inception_4b/3x3"
}
layer {
  name: "inception_4b/5x5_reduce"
  type: "Convolution"
  bottom: "inception_4a/output"
  top: "inception_4b/5x5_reduce"
  param {
    lr_mult: 1
    decay_mult: 1
  }
  param {
    lr_mult: 2
    decay_mult: 0
  }
  convolution_param {
    num_output: 24
    kernel_size: 1
    weight_filler {
      type: "xavier"
      std: 0.2
    }
    bias_filler {
      type: "constant"
      value: 0.2
    }
  }
}
layer {
  name: "inception_4b/relu_5x5_reduce"
  type: "ReLU"
  bottom: "inception_4b/5x5_reduce"
  top: "inception_4b/5x5_reduce"
}
layer {
  name: "inception_4b/5x5"
  type: "Convolution"
  bottom: "inception_4b/5x5_reduce"
  top: "inception_4b/5x5"
  param {
    lr_mult: 1
    decay_mult: 1
  }
  param {
    lr_mult: 2
    decay_mult: 0
  }
  convolution_param {
    num_output: 64
    pad: 2
    kernel_size: 5
    weight_filler {
      type: "xavier"
      std: 0.03
    }
    bias_filler {
      type: "constant"
      value: 0.2
    }
  }
}
layer {
  name: "inception_4b/relu_5x5"
  type: "ReLU"
  bottom: "inception_4b/5x5"
  top: "inception_4b/5x5"
}
layer {
  name: "inception_4b/pool"
  type: "Pooling"
  bottom: "inception_4a/output"
  top: "inception_4b/pool"
  pooling_param {
    pool: MAX
    kernel_size: 3
    stride: 1
    pad: 1
  }
}
layer {
  name: "inception_4b/pool_proj"
  type: "Convolution"
  bottom: "inception_4b/pool"
  top: "inception_4b/pool_proj"
  param {
    lr_mult: 1
    decay_mult: 1
  }
  param {
    lr_mult: 2
    decay_mult: 0
  }
  convolution_param {
    num_output: 64
    kernel_size: 1
    weight_filler {
      type: "xavier"
      std: 0.1
    }
    bias_filler {
      type: "constant"
      value: 0.2
    }
  }
}
layer {
  name: "inception_4b/relu_pool_proj"
  type: "ReLU"
  bottom: "inception_4b/pool_proj"
  top: "inception_4b/pool_proj"
}
layer {
  name: "inception_4b/output"
  type: "Concat"
  bottom: "inception_4b/1x1"
  bottom: "inception_4b/3x3"
  bottom: "inception_4b/5x5"
  bottom: "inception_4b/pool_proj"
  top: "inception_4b/output"
}
layer {
  name: "inception_4c/1x1"
  type: "Convolution"
  bottom: "inception_4b/output"
  top: "inception_4c/1x1"
  param {
    lr_mult: 1
    decay_mult: 1
  }
  param {
    lr_mult: 2
    decay_mult: 0
  }
  convolution_param {
    num_output: 128
    kernel_size: 1
    weight_filler {
      type: "xavier"
      std: 0.03
    }
    bias_filler {
      type: "constant"
      value: 0.2
    }
  }
}
layer {
  name: "inception_4c/relu_1x1"
  type: "ReLU"
  bottom: "inception_4c/1x1"
  top: "inception_4c/1x1"
}
layer {
  name: "inception_4c/3x3_reduce"
  type: "Convolution"
  bottom: "inception_4b/output"
  top: "inception_4c/3x3_reduce"
  param {
    lr_mult: 1
    decay_mult: 1
  }
  param {
    lr_mult: 2
    decay_mult: 0
  }
  convolution_param {
    num_output: 128
    kernel_size: 1
    weight_filler {
      type: "xavier"
      std: 0.09
    }
    bias_filler {
      type: "constant"
      value: 0.2
    }
  }
}
layer {
  name: "inception_4c/relu_3x3_reduce"
  type: "ReLU"
  bottom: "inception_4c/3x3_reduce"
  top: "inception_4c/3x3_reduce"
}
layer {
  name: "inception_4c/3x3"
  type: "Convolution"
  bottom: "inception_4c/3x3_reduce"
  top: "inception_4c/3x3"
  param {
    lr_mult: 1
    decay_mult: 1
  }
  param {
    lr_mult: 2
    decay_mult: 0
  }
  convolution_param {
    num_output: 256
    pad: 1
    kernel_size: 3
    weight_filler {
      type: "xavier"
      std: 0.03
    }
    bias_filler {
      type: "constant"
      value: 0.2
    }
  }
}
layer {
  name: "inception_4c/relu_3x3"
  type: "ReLU"
  bottom: "inception_4c/3x3"
  top: "inception_4c/3x3"
}
layer {
  name: "inception_4c/5x5_reduce"
  type: "Convolution"
  bottom: "inception_4b/output"
  top: "inception_4c/5x5_reduce"
  param {
    lr_mult: 1
    decay_mult: 1
  }
  param {
    lr_mult: 2
    decay_mult: 0
  }
  convolution_param {
    num_output: 24
    kernel_size: 1
    weight_filler {
      type: "xavier"
      std: 0.2
    }
    bias_filler {
      type: "constant"
      value: 0.2
    }
  }
}
layer {
  name: "inception_4c/relu_5x5_reduce"
  type: "ReLU"
  bottom: "inception_4c/5x5_reduce"
  top: "inception_4c/5x5_reduce"
}
layer {
  name: "inception_4c/5x5"
  type: "Convolution"
  bottom: "inception_4c/5x5_reduce"
  top: "inception_4c/5x5"
  param {
    lr_mult: 1
    decay_mult: 1
  }
  param {
    lr_mult: 2
    decay_mult: 0
  }
  convolution_param {
    num_output: 64
    pad: 2
    kernel_size: 5
    weight_filler {
      type: "xavier"
      std: 0.03
    }
    bias_filler {
      type: "constant"
      value: 0.2
    }
  }
}
layer {
  name: "inception_4c/relu_5x5"
  type: "ReLU"
  bottom: "inception_4c/5x5"
  top: "inception_4c/5x5"
}
layer {
  name: "inception_4c/pool"
  type: "Pooling"
  bottom: "inception_4b/output"
  top: "inception_4c/pool"
  pooling_param {
    pool: MAX
    kernel_size: 3
    stride: 1
    pad: 1
  }
}
layer {
  name: "inception_4c/pool_proj"
  type: "Convolution"
  bottom: "inception_4c/pool"
  top: "inception_4c/pool_proj"
  param {
    lr_mult: 1
    decay_mult: 1
  }
  param {
    lr_mult: 2
    decay_mult: 0
  }
  convolution_param {
    num_output: 64
    kernel_size: 1
    weight_filler {
      type: "xavier"
      std: 0.1
    }
    bias_filler {
      type: "constant"
      value: 0.2
    }
  }
}
layer {
  name: "inception_4c/relu_pool_proj"
  type: "ReLU"
  bottom: "inception_4c/pool_proj"
  top: "inception_4c/pool_proj"
}
layer {
  name: "inception_4c/output"
  type: "Concat"
  bottom: "inception_4c/1x1"
  bottom: "inception_4c/3x3"
  bottom: "inception_4c/5x5"
  bottom: "inception_4c/pool_proj"
  top: "inception_4c/output"
}
layer {
  name: "inception_4d/1x1"
  type: "Convolution"
  bottom: "inception_4c/output"
  top: "inception_4d/1x1"
  param {
    lr_mult: 1
    decay_mult: 1
  }
  param {
    lr_mult: 2
    decay_mult: 0
  }
  convolution_param {
    num_output: 112
    kernel_size: 1
    weight_filler {
      type: "xavier"
      std: 0.03
    }
    bias_filler {
      type: "constant"
      value: 0.2
    }
  }
}
layer {
  name: "inception_4d/relu_1x1"
  type: "ReLU"
  bottom: "inception_4d/1x1"
  top: "inception_4d/1x1"
}
layer {
  name: "inception_4d/3x3_reduce"
  type: "Convolution"
  bottom: "inception_4c/output"
  top: "inception_4d/3x3_reduce"
  param {
    lr_mult: 1
    decay_mult: 1
  }
  param {
    lr_mult: 2
    decay_mult: 0
  }
  convolution_param {
    num_output: 144
    kernel_size: 1
    weight_filler {
      type: "xavier"
      std: 0.09
    }
    bias_filler {
      type: "constant"
      value: 0.2
    }
  }
}
layer {
  name: "inception_4d/relu_3x3_reduce"
  type: "ReLU"
  bottom: "inception_4d/3x3_reduce"
  top: "inception_4d/3x3_reduce"
}
layer {
  name: "inception_4d/3x3"
  type: "Convolution"
  bottom: "inception_4d/3x3_reduce"
  top: "inception_4d/3x3"
  param {
    lr_mult: 1
    decay_mult: 1
  }
  param {
    lr_mult: 2
    decay_mult: 0
  }
  convolution_param {
    num_output: 288
    pad: 1
    kernel_size: 3
    weight_filler {
      type: "xavier"
      std: 0.03
    }
    bias_filler {
      type: "constant"
      value: 0.2
    }
  }
}
layer {
  name: "inception_4d/relu_3x3"
  type: "ReLU"
  bottom: "inception_4d/3x3"
  top: "inception_4d/3x3"
}
layer {
  name: "inception_4d/5x5_reduce"
  type: "Convolution"
  bottom: "inception_4c/output"
  top: "inception_4d/5x5_reduce"
  param {
    lr_mult: 1
    decay_mult: 1
  }
  param {
    lr_mult: 2
    decay_mult: 0
  }
  convolution_param {
    num_output: 32
    kernel_size: 1
    weight_filler {
      type: "xavier"
      std: 0.2
    }
    bias_filler {
      type: "constant"
      value: 0.2
    }
  }
}
layer {
  name: "inception_4d/relu_5x5_reduce"
  type: "ReLU"
  bottom: "inception_4d/5x5_reduce"
  top: "inception_4d/5x5_reduce"
}
layer {
  name: "inception_4d/5x5"
  type: "Convolution"
  bottom: "inception_4d/5x5_reduce"
  top: "inception_4d/5x5"
  param {
    lr_mult: 1
    decay_mult: 1
  }
  param {
    lr_mult: 2
    decay_mult: 0
  }
  convolution_param {
    num_output: 64
    pad: 2
    kernel_size: 5
    weight_filler {
      type: "xavier"
      std: 0.03
    }
    bias_filler {
      type: "constant"
      value: 0.2
    }
  }
}
layer {
  name: "inception_4d/relu_5x5"
  type: "ReLU"
  bottom: "inception_4d/5x5"
  top: "inception_4d/5x5"
}
layer {
  name: "inception_4d/pool"
  type: "Pooling"
  bottom: "inception_4c/output"
  top: "inception_4d/pool"
  pooling_param {
    pool: MAX
    kernel_size: 3
    stride: 1
    pad: 1
  }
}
layer {
  name: "inception_4d/pool_proj"
  type: "Convolution"
  bottom: "inception_4d/pool"
  top: "inception_4d/pool_proj"
  param {
    lr_mult: 1
    decay_mult: 1
  }
  param {
    lr_mult: 2
    decay_mult: 0
  }
  convolution_param {
    num_output: 64
    kernel_size: 1
    weight_filler {
      type: "xavier"
      std: 0.1
    }
    bias_filler {
      type: "constant"
      value: 0.2
    }
  }
}
layer {
  name: "inception_4d/relu_pool_proj"
  type: "ReLU"
  bottom: "inception_4d/pool_proj"
  top: "inception_4d/pool_proj"
}
layer {
  name: "inception_4d/output"
  type: "Concat"
  bottom: "inception_4d/1x1"
  bottom: "inception_4d/3x3"
  bottom: "inception_4d/5x5"
  bottom: "inception_4d/pool_proj"
  top: "inception_4d/output"
}
layer {
  name: "loss2/ave_pool"
  type: "Pooling"
  bottom: "inception_4d/output"
  top: "loss2/ave_pool"
  pooling_param {
    pool: AVE
    kernel_size: 5
    stride: 3
  }
}
layer {
  name: "loss2/conv"
  type: "Convolution"
  bottom: "loss2/ave_pool"
  top: "loss2/conv"
  param {
    lr_mult: 1
    decay_mult: 1
  }
  param {
    lr_mult: 2
    decay_mult: 0
  }
  convolution_param {
    num_output: 128
    kernel_size: 1
    weight_filler {
      type: "xavier"
      std: 0.08
    }
    bias_filler {
      type: "constant"
      value: 0.2
    }
  }
}
layer {
  name: "loss2/relu_conv"
  type: "ReLU"
  bottom: "loss2/conv"
  top: "loss2/conv"
}
layer {
  name: "loss2/fc"
  type: "InnerProduct"
  bottom: "loss2/conv"
  top: "loss2/fc"
  param {
    lr_mult: 1
    decay_mult: 1
  }
  param {
    lr_mult: 2
    decay_mult: 0
  }
  inner_product_param {
    num_output: 1024
    weight_filler {
      type: "xavier"
      std: 0.02
    }
    bias_filler {
      type: "constant"
      value: 0.2
    }
  }
}
layer {
  name: "loss2/relu_fc"
  type: "ReLU"
  bottom: "loss2/fc"
  top: "loss2/fc"
}
layer {
  name: "loss2/drop_fc"
  type: "Dropout"
  bottom: "loss2/fc"
  top: "loss2/fc"
  dropout_param {
    dropout_ratio: 0.7
  }
}
layer {
  name: "loss2/classifier_plantvillage"
  type: "InnerProduct"
  bottom: "loss2/fc"
  top: "loss2/classifier_plantvillage"
  param {
    lr_mult: 1
    decay_mult: 1
  }
  param {
    lr_mult: 2
    decay_mult: 0
  }
  inner_product_param {
    num_output: 38
    weight_filler {
      type: "xavier"
      std: 0.0009765625
    }
    bias_filler {
      type: "constant"
      value: 0
    }
  }
}
layer {
  name: "inception_4e/1x1"
  type: "Convolution"
  bottom: "inception_4d/output"
  top: "inception_4e/1x1"
  param {
    lr_mult: 1
    decay_mult: 1
  }
  param {
    lr_mult: 2
    decay_mult: 0
  }
  convolution_param {
    num_output: 256
    kernel_size: 1
    weight_filler {
      type: "xavier"
      std: 0.03
    }
    bias_filler {
      type: "constant"
      value: 0.2
    }
  }
}
layer {
  name: "inception_4e/relu_1x1"
  type: "ReLU"
  bottom: "inception_4e/1x1"
  top: "inception_4e/1x1"
}
layer {
  name: "inception_4e/3x3_reduce"
  type: "Convolution"
  bottom: "inception_4d/output"
  top: "inception_4e/3x3_reduce"
  param {
    lr_mult: 1
    decay_mult: 1
  }
  param {
    lr_mult: 2
    decay_mult: 0
  }
  convolution_param {
    num_output: 160
    kernel_size: 1
    weight_filler {
      type: "xavier"
      std: 0.09
    }
    bias_filler {
      type: "constant"
      value: 0.2
    }
  }
}
layer {
  name: "inception_4e/relu_3x3_reduce"
  type: "ReLU"
  bottom: "inception_4e/3x3_reduce"
  top: "inception_4e/3x3_reduce"
}
layer {
  name: "inception_4e/3x3"
  type: "Convolution"
  bottom: "inception_4e/3x3_reduce"
  top: "inception_4e/3x3"
  param {
    lr_mult: 1
    decay_mult: 1
  }
  param {
    lr_mult: 2
    decay_mult: 0
  }
  convolution_param {
    num_output: 320
    pad: 1
    kernel_size: 3
    weight_filler {
      type: "xavier"
      std: 0.03
    }
    bias_filler {
      type: "constant"
      value: 0.2
    }
  }
}
layer {
  name: "inception_4e/relu_3x3"
  type: "ReLU"
  bottom: "inception_4e/3x3"
  top: "inception_4e/3x3"
}
layer {
  name: "inception_4e/5x5_reduce"
  type: "Convolution"
  bottom: "inception_4d/output"
  top: "inception_4e/5x5_reduce"
  param {
    lr_mult: 1
    decay_mult: 1
  }
  param {
    lr_mult: 2
    decay_mult: 0
  }
  convolution_param {
    num_output: 32
    kernel_size: 1
    weight_filler {
      type: "xavier"
      std: 0.2
    }
    bias_filler {
      type: "constant"
      value: 0.2
    }
  }
}
layer {
  name: "inception_4e/relu_5x5_reduce"
  type: "ReLU"
  bottom: "inception_4e/5x5_reduce"
  top: "inception_4e/5x5_reduce"
}
layer {
  name: "inception_4e/5x5"
  type: "Convolution"
  bottom: "inception_4e/5x5_reduce"
  top: "inception_4e/5x5"
  p
I0403 16:06:34.510401 17078 layer_factory.hpp:77] Creating layer data
I0403 16:06:34.511538 17078 net.cpp:91] Creating Layer data
I0403 16:06:34.511579 17078 net.cpp:399] data -> data
I0403 16:06:34.511642 17078 net.cpp:399] data -> label
I0403 16:06:34.511687 17078 data_transformer.cpp:25] Loading mean file from: /home/mohanty/data/final_dataset/lmdb/color-20-80/mean.binaryproto
I0403 16:06:34.513123 17080 db_lmdb.cpp:38] Opened lmdb /home/mohanty/data/final_dataset/lmdb/color-20-80/test_db
I0403 16:06:34.527582 17078 data_layer.cpp:41] output data size: 24,3,224,224
I0403 16:06:34.559258 17078 net.cpp:141] Setting up data
I0403 16:06:34.559345 17078 net.cpp:148] Top shape: 24 3 224 224 (3612672)
I0403 16:06:34.559373 17078 net.cpp:148] Top shape: 24 (24)
I0403 16:06:34.559392 17078 net.cpp:156] Memory required for data: 14450784
I0403 16:06:34.559424 17078 layer_factory.hpp:77] Creating layer label_data_1_split
I0403 16:06:34.559458 17078 net.cpp:91] Creating Layer label_data_1_split
I0403 16:06:34.559479 17078 net.cpp:425] label_data_1_split <- label
I0403 16:06:34.559519 17078 net.cpp:399] label_data_1_split -> label_data_1_split_0
I0403 16:06:34.559553 17078 net.cpp:399] label_data_1_split -> label_data_1_split_1
I0403 16:06:34.559584 17078 net.cpp:399] label_data_1_split -> label_data_1_split_2
I0403 16:06:34.559612 17078 net.cpp:399] label_data_1_split -> label_data_1_split_3
I0403 16:06:34.559638 17078 net.cpp:399] label_data_1_split -> label_data_1_split_4
I0403 16:06:34.559662 17078 net.cpp:399] label_data_1_split -> label_data_1_split_5
I0403 16:06:34.559687 17078 net.cpp:399] label_data_1_split -> label_data_1_split_6
I0403 16:06:34.559713 17078 net.cpp:399] label_data_1_split -> label_data_1_split_7
I0403 16:06:34.559737 17078 net.cpp:399] label_data_1_split -> label_data_1_split_8
I0403 16:06:34.559762 17078 net.cpp:399] label_data_1_split -> label_data_1_split_9
I0403 16:06:34.559900 17078 net.cpp:141] Setting up label_data_1_split
I0403 16:06:34.559928 17078 net.cpp:148] Top shape: 24 (24)
I0403 16:06:34.559948 17078 net.cpp:148] Top shape: 24 (24)
I0403 16:06:34.559968 17078 net.cpp:148] Top shape: 24 (24)
I0403 16:06:34.559988 17078 net.cpp:148] Top shape: 24 (24)
I0403 16:06:34.560005 17078 net.cpp:148] Top shape: 24 (24)
I0403 16:06:34.560024 17078 net.cpp:148] Top shape: 24 (24)
I0403 16:06:34.560042 17078 net.cpp:148] Top shape: 24 (24)
I0403 16:06:34.560061 17078 net.cpp:148] Top shape: 24 (24)
I0403 16:06:34.560081 17078 net.cpp:148] Top shape: 24 (24)
I0403 16:06:34.560101 17078 net.cpp:148] Top shape: 24 (24)
I0403 16:06:34.560154 17078 net.cpp:156] Memory required for data: 14451744
I0403 16:06:34.560174 17078 layer_factory.hpp:77] Creating layer conv1/7x7_s2
I0403 16:06:34.560214 17078 net.cpp:91] Creating Layer conv1/7x7_s2
I0403 16:06:34.560235 17078 net.cpp:425] conv1/7x7_s2 <- data
I0403 16:06:34.560259 17078 net.cpp:399] conv1/7x7_s2 -> conv1/7x7_s2
I0403 16:06:34.724256 17078 net.cpp:141] Setting up conv1/7x7_s2
I0403 16:06:34.724344 17078 net.cpp:148] Top shape: 24 64 112 112 (19267584)
I0403 16:06:34.724364 17078 net.cpp:156] Memory required for data: 91522080
I0403 16:06:34.724401 17078 layer_factory.hpp:77] Creating layer conv1/relu_7x7
I0403 16:06:34.724433 17078 net.cpp:91] Creating Layer conv1/relu_7x7
I0403 16:06:34.724457 17078 net.cpp:425] conv1/relu_7x7 <- conv1/7x7_s2
I0403 16:06:34.724479 17078 net.cpp:386] conv1/relu_7x7 -> conv1/7x7_s2 (in-place)
I0403 16:06:34.724786 17078 net.cpp:141] Setting up conv1/relu_7x7
I0403 16:06:34.724822 17078 net.cpp:148] Top shape: 24 64 112 112 (19267584)
I0403 16:06:34.724841 17078 net.cpp:156] Memory required for data: 168592416
I0403 16:06:34.724859 17078 layer_factory.hpp:77] Creating layer pool1/3x3_s2
I0403 16:06:34.724890 17078 net.cpp:91] Creating Layer pool1/3x3_s2
I0403 16:06:34.724912 17078 net.cpp:425] pool1/3x3_s2 <- conv1/7x7_s2
I0403 16:06:34.724934 17078 net.cpp:399] pool1/3x3_s2 -> pool1/3x3_s2
I0403 16:06:34.725097 17078 net.cpp:141] Setting up pool1/3x3_s2
I0403 16:06:34.725128 17078 net.cpp:148] Top shape: 24 64 56 56 (4816896)
I0403 16:06:34.725147 17078 net.cpp:156] Memory required for data: 187860000
I0403 16:06:34.725165 17078 layer_factory.hpp:77] Creating layer pool1/norm1
I0403 16:06:34.725195 17078 net.cpp:91] Creating Layer pool1/norm1
I0403 16:06:34.725217 17078 net.cpp:425] pool1/norm1 <- pool1/3x3_s2
I0403 16:06:34.725239 17078 net.cpp:399] pool1/norm1 -> pool1/norm1
I0403 16:06:34.725589 17078 net.cpp:141] Setting up pool1/norm1
I0403 16:06:34.725622 17078 net.cpp:148] Top shape: 24 64 56 56 (4816896)
I0403 16:06:34.725642 17078 net.cpp:156] Memory required for data: 207127584
I0403 16:06:34.725661 17078 layer_factory.hpp:77] Creating layer conv2/3x3_reduce
I0403 16:06:34.725690 17078 net.cpp:91] Creating Layer conv2/3x3_reduce
I0403 16:06:34.725710 17078 net.cpp:425] conv2/3x3_reduce <- pool1/norm1
I0403 16:06:34.725733 17078 net.cpp:399] conv2/3x3_reduce -> conv2/3x3_reduce
I0403 16:06:34.727393 17078 net.cpp:141] Setting up conv2/3x3_reduce
I0403 16:06:34.727432 17078 net.cpp:148] Top shape: 24 64 56 56 (4816896)
I0403 16:06:34.727453 17078 net.cpp:156] Memory required for data: 226395168
I0403 16:06:34.727480 17078 layer_factory.hpp:77] Creating layer conv2/relu_3x3_reduce
I0403 16:06:34.727504 17078 net.cpp:91] Creating Layer conv2/relu_3x3_reduce
I0403 16:06:34.727525 17078 net.cpp:425] conv2/relu_3x3_reduce <- conv2/3x3_reduce
I0403 16:06:34.727550 17078 net.cpp:386] conv2/relu_3x3_reduce -> conv2/3x3_reduce (in-place)
I0403 16:06:34.727874 17078 net.cpp:141] Setting up conv2/relu_3x3_reduce
I0403 16:06:34.727910 17078 net.cpp:148] Top shape: 24 64 56 56 (4816896)
I0403 16:06:34.727931 17078 net.cpp:156] Memory required for data: 245662752
I0403 16:06:34.727949 17078 layer_factory.hpp:77] Creating layer conv2/3x3
I0403 16:06:34.727979 17078 net.cpp:91] Creating Layer conv2/3x3
I0403 16:06:34.728001 17078 net.cpp:425] conv2/3x3 <- conv2/3x3_reduce
I0403 16:06:34.728029 17078 net.cpp:399] conv2/3x3 -> conv2/3x3
I0403 16:06:34.730816 17078 net.cpp:141] Setting up conv2/3x3
I0403 16:06:34.730856 17078 net.cpp:148] Top shape: 24 192 56 56 (14450688)
I0403 16:06:34.730878 17078 net.cpp:156] Memory required for data: 303465504
I0403 16:06:34.730904 17078 layer_factory.hpp:77] Creating layer conv2/relu_3x3
I0403 16:06:34.730928 17078 net.cpp:91] Creating Layer conv2/relu_3x3
I0403 16:06:34.730949 17078 net.cpp:425] conv2/relu_3x3 <- conv2/3x3
I0403 16:06:34.731026 17078 net.cpp:386] conv2/relu_3x3 -> conv2/3x3 (in-place)
I0403 16:06:34.731251 17078 net.cpp:141] Setting up conv2/relu_3x3
I0403 16:06:34.731283 17078 net.cpp:148] Top shape: 24 192 56 56 (14450688)
I0403 16:06:34.731338 17078 net.cpp:156] Memory required for data: 361268256
I0403 16:06:34.731359 17078 layer_factory.hpp:77] Creating layer conv2/norm2
I0403 16:06:34.731384 17078 net.cpp:91] Creating Layer conv2/norm2
I0403 16:06:34.731405 17078 net.cpp:425] conv2/norm2 <- conv2/3x3
I0403 16:06:34.731428 17078 net.cpp:399] conv2/norm2 -> conv2/norm2
I0403 16:06:34.731796 17078 net.cpp:141] Setting up conv2/norm2
I0403 16:06:34.731833 17078 net.cpp:148] Top shape: 24 192 56 56 (14450688)
I0403 16:06:34.731854 17078 net.cpp:156] Memory required for data: 419071008
I0403 16:06:34.731873 17078 layer_factory.hpp:77] Creating layer pool2/3x3_s2
I0403 16:06:34.731895 17078 net.cpp:91] Creating Layer pool2/3x3_s2
I0403 16:06:34.731914 17078 net.cpp:425] pool2/3x3_s2 <- conv2/norm2
I0403 16:06:34.731940 17078 net.cpp:399] pool2/3x3_s2 -> pool2/3x3_s2
I0403 16:06:34.732007 17078 net.cpp:141] Setting up pool2/3x3_s2
I0403 16:06:34.732035 17078 net.cpp:148] Top shape: 24 192 28 28 (3612672)
I0403 16:06:34.732053 17078 net.cpp:156] Memory required for data: 433521696
I0403 16:06:34.732072 17078 layer_factory.hpp:77] Creating layer pool2/3x3_s2_pool2/3x3_s2_0_split
I0403 16:06:34.732097 17078 net.cpp:91] Creating Layer pool2/3x3_s2_pool2/3x3_s2_0_split
I0403 16:06:34.732117 17078 net.cpp:425] pool2/3x3_s2_pool2/3x3_s2_0_split <- pool2/3x3_s2
I0403 16:06:34.732138 17078 net.cpp:399] pool2/3x3_s2_pool2/3x3_s2_0_split -> pool2/3x3_s2_pool2/3x3_s2_0_split_0
I0403 16:06:34.732164 17078 net.cpp:399] pool2/3x3_s2_pool2/3x3_s2_0_split -> pool2/3x3_s2_pool2/3x3_s2_0_split_1
I0403 16:06:34.732189 17078 net.cpp:399] pool2/3x3_s2_pool2/3x3_s2_0_split -> pool2/3x3_s2_pool2/3x3_s2_0_split_2
I0403 16:06:34.732213 17078 net.cpp:399] pool2/3x3_s2_pool2/3x3_s2_0_split -> pool2/3x3_s2_pool2/3x3_s2_0_split_3
I0403 16:06:34.732298 17078 net.cpp:141] Setting up pool2/3x3_s2_pool2/3x3_s2_0_split
I0403 16:06:34.732326 17078 net.cpp:148] Top shape: 24 192 28 28 (3612672)
I0403 16:06:34.732347 17078 net.cpp:148] Top shape: 24 192 28 28 (3612672)
I0403 16:06:34.732367 17078 net.cpp:148] Top shape: 24 192 28 28 (3612672)
I0403 16:06:34.732386 17078 net.cpp:148] Top shape: 24 192 28 28 (3612672)
I0403 16:06:34.732403 17078 net.cpp:156] Memory required for data: 491324448
I0403 16:06:34.732421 17078 layer_factory.hpp:77] Creating layer inception_3a/1x1
I0403 16:06:34.732448 17078 net.cpp:91] Creating Layer inception_3a/1x1
I0403 16:06:34.732470 17078 net.cpp:425] inception_3a/1x1 <- pool2/3x3_s2_pool2/3x3_s2_0_split_0
I0403 16:06:34.732496 17078 net.cpp:399] inception_3a/1x1 -> inception_3a/1x1
I0403 16:06:34.734356 17078 net.cpp:141] Setting up inception_3a/1x1
I0403 16:06:34.734397 17078 net.cpp:148] Top shape: 24 64 28 28 (1204224)
I0403 16:06:34.734418 17078 net.cpp:156] Memory required for data: 496141344
I0403 16:06:34.734442 17078 layer_factory.hpp:77] Creating layer inception_3a/relu_1x1
I0403 16:06:34.734465 17078 net.cpp:91] Creating Layer inception_3a/relu_1x1
I0403 16:06:34.734484 17078 net.cpp:425] inception_3a/relu_1x1 <- inception_3a/1x1
I0403 16:06:34.734508 17078 net.cpp:386] inception_3a/relu_1x1 -> inception_3a/1x1 (in-place)
I0403 16:06:34.734727 17078 net.cpp:141] Setting up inception_3a/relu_1x1
I0403 16:06:34.734760 17078 net.cpp:148] Top shape: 24 64 28 28 (1204224)
I0403 16:06:34.734778 17078 net.cpp:156] Memory required for data: 500958240
I0403 16:06:34.734798 17078 layer_factory.hpp:77] Creating layer inception_3a/3x3_reduce
I0403 16:06:34.734827 17078 net.cpp:91] Creating Layer inception_3a/3x3_reduce
I0403 16:06:34.734849 17078 net.cpp:425] inception_3a/3x3_reduce <- pool2/3x3_s2_pool2/3x3_s2_0_split_1
I0403 16:06:34.734876 17078 net.cpp:399] inception_3a/3x3_reduce -> inception_3a/3x3_reduce
I0403 16:06:34.736934 17078 net.cpp:141] Setting up inception_3a/3x3_reduce
I0403 16:06:34.736974 17078 net.cpp:148] Top shape: 24 96 28 28 (1806336)
I0403 16:06:34.736995 17078 net.cpp:156] Memory required for data: 508183584
I0403 16:06:34.737022 17078 layer_factory.hpp:77] Creating layer inception_3a/relu_3x3_reduce
I0403 16:06:34.737068 17078 net.cpp:91] Creating Layer inception_3a/relu_3x3_reduce
I0403 16:06:34.737092 17078 net.cpp:425] inception_3a/relu_3x3_reduce <- inception_3a/3x3_reduce
I0403 16:06:34.737113 17078 net.cpp:386] inception_3a/relu_3x3_reduce -> inception_3a/3x3_reduce (in-place)
I0403 16:06:34.737408 17078 net.cpp:141] Setting up inception_3a/relu_3x3_reduce
I0403 16:06:34.737443 17078 net.cpp:148] Top shape: 24 96 28 28 (1806336)
I0403 16:06:34.737463 17078 net.cpp:156] Memory required for data: 515408928
I0403 16:06:34.737483 17078 layer_factory.hpp:77] Creating layer inception_3a/3x3
I0403 16:06:34.737510 17078 net.cpp:91] Creating Layer inception_3a/3x3
I0403 16:06:34.737534 17078 net.cpp:425] inception_3a/3x3 <- inception_3a/3x3_reduce
I0403 16:06:34.737557 17078 net.cpp:399] inception_3a/3x3 -> inception_3a/3x3
I0403 16:06:34.739555 17078 net.cpp:141] Setting up inception_3a/3x3
I0403 16:06:34.739596 17078 net.cpp:148] Top shape: 24 128 28 28 (2408448)
I0403 16:06:34.739616 17078 net.cpp:156] Memory required for data: 525042720
I0403 16:06:34.739639 17078 layer_factory.hpp:77] Creating layer inception_3a/relu_3x3
I0403 16:06:34.739665 17078 net.cpp:91] Creating Layer inception_3a/relu_3x3
I0403 16:06:34.739683 17078 net.cpp:425] inception_3a/relu_3x3 <- inception_3a/3x3
I0403 16:06:34.739708 17078 net.cpp:386] inception_3a/relu_3x3 -> inception_3a/3x3 (in-place)
I0403 16:06:34.740037 17078 net.cpp:141] Setting up inception_3a/relu_3x3
I0403 16:06:34.740069 17078 net.cpp:148] Top shape: 24 128 28 28 (2408448)
I0403 16:06:34.740089 17078 net.cpp:156] Memory required for data: 534676512
I0403 16:06:34.740108 17078 layer_factory.hpp:77] Creating layer inception_3a/5x5_reduce
I0403 16:06:34.740136 17078 net.cpp:91] Creating Layer inception_3a/5x5_reduce
I0403 16:06:34.740159 17078 net.cpp:425] inception_3a/5x5_reduce <- pool2/3x3_s2_pool2/3x3_s2_0_split_2
I0403 16:06:34.740185 17078 net.cpp:399] inception_3a/5x5_reduce -> inception_3a/5x5_reduce
I0403 16:06:34.741341 17078 net.cpp:141] Setting up inception_3a/5x5_reduce
I0403 16:06:34.741376 17078 net.cpp:148] Top shape: 24 16 28 28 (301056)
I0403 16:06:34.741396 17078 net.cpp:156] Memory required for data: 535880736
I0403 16:06:34.741418 17078 layer_factory.hpp:77] Creating layer inception_3a/relu_5x5_reduce
I0403 16:06:34.741444 17078 net.cpp:91] Creating Layer inception_3a/relu_5x5_reduce
I0403 16:06:34.741466 17078 net.cpp:425] inception_3a/relu_5x5_reduce <- inception_3a/5x5_reduce
I0403 16:06:34.741487 17078 net.cpp:386] inception_3a/relu_5x5_reduce -> inception_3a/5x5_reduce (in-place)
I0403 16:06:34.741840 17078 net.cpp:141] Setting up inception_3a/relu_5x5_reduce
I0403 16:06:34.741873 17078 net.cpp:148] Top shape: 24 16 28 28 (301056)
I0403 16:06:34.741893 17078 net.cpp:156] Memory required for data: 537084960
I0403 16:06:34.741916 17078 layer_factory.hpp:77] Creating layer inception_3a/5x5
I0403 16:06:34.741945 17078 net.cpp:91] Creating Layer inception_3a/5x5
I0403 16:06:34.741968 17078 net.cpp:425] inception_3a/5x5 <- inception_3a/5x5_reduce
I0403 16:06:34.741994 17078 net.cpp:399] inception_3a/5x5 -> inception_3a/5x5
I0403 16:06:34.743212 17078 net.cpp:141] Setting up inception_3a/5x5
I0403 16:06:34.743247 17078 net.cpp:148] Top shape: 24 32 28 28 (602112)
I0403 16:06:34.743266 17078 net.cpp:156] Memory required for data: 539493408
I0403 16:06:34.743290 17078 layer_factory.hpp:77] Creating layer inception_3a/relu_5x5
I0403 16:06:34.743312 17078 net.cpp:91] Creating Layer inception_3a/relu_5x5
I0403 16:06:34.743333 17078 net.cpp:425] inception_3a/relu_5x5 <- inception_3a/5x5
I0403 16:06:34.743357 17078 net.cpp:386] inception_3a/relu_5x5 -> inception_3a/5x5 (in-place)
I0403 16:06:34.743566 17078 net.cpp:141] Setting up inception_3a/relu_5x5
I0403 16:06:34.743602 17078 net.cpp:148] Top shape: 24 32 28 28 (602112)
I0403 16:06:34.743621 17078 net.cpp:156] Memory required for data: 541901856
I0403 16:06:34.743638 17078 layer_factory.hpp:77] Creating layer inception_3a/pool
I0403 16:06:34.743664 17078 net.cpp:91] Creating Layer inception_3a/pool
I0403 16:06:34.743686 17078 net.cpp:425] inception_3a/pool <- pool2/3x3_s2_pool2/3x3_s2_0_split_3
I0403 16:06:34.743727 17078 net.cpp:399] inception_3a/pool -> inception_3a/pool
I0403 16:06:34.743801 17078 net.cpp:141] Setting up inception_3a/pool
I0403 16:06:34.743830 17078 net.cpp:148] Top shape: 24 192 28 28 (3612672)
I0403 16:06:34.743849 17078 net.cpp:156] Memory required for data: 556352544
I0403 16:06:34.743866 17078 layer_factory.hpp:77] Creating layer inception_3a/pool_proj
I0403 16:06:34.743893 17078 net.cpp:91] Creating Layer inception_3a/pool_proj
I0403 16:06:34.743916 17078 net.cpp:425] inception_3a/pool_proj <- inception_3a/pool
I0403 16:06:34.743942 17078 net.cpp:399] inception_3a/pool_proj -> inception_3a/pool_proj
I0403 16:06:34.745105 17078 net.cpp:141] Setting up inception_3a/pool_proj
I0403 16:06:34.745142 17078 net.cpp:148] Top shape: 24 32 28 28 (602112)
I0403 16:06:34.745162 17078 net.cpp:156] Memory required for data: 558760992
I0403 16:06:34.745189 17078 layer_factory.hpp:77] Creating layer inception_3a/relu_pool_proj
I0403 16:06:34.745215 17078 net.cpp:91] Creating Layer inception_3a/relu_pool_proj
I0403 16:06:34.745237 17078 net.cpp:425] inception_3a/relu_pool_proj <- inception_3a/pool_proj
I0403 16:06:34.745260 17078 net.cpp:386] inception_3a/relu_pool_proj -> inception_3a/pool_proj (in-place)
I0403 16:06:34.745605 17078 net.cpp:141] Setting up inception_3a/relu_pool_proj
I0403 16:06:34.745640 17078 net.cpp:148] Top shape: 24 32 28 28 (602112)
I0403 16:06:34.745659 17078 net.cpp:156] Memory required for data: 561169440
I0403 16:06:34.745677 17078 layer_factory.hpp:77] Creating layer inception_3a/output
I0403 16:06:34.745700 17078 net.cpp:91] Creating Layer inception_3a/output
I0403 16:06:34.745721 17078 net.cpp:425] inception_3a/output <- inception_3a/1x1
I0403 16:06:34.745743 17078 net.cpp:425] inception_3a/output <- inception_3a/3x3
I0403 16:06:34.745762 17078 net.cpp:425] inception_3a/output <- inception_3a/5x5
I0403 16:06:34.745781 17078 net.cpp:425] inception_3a/output <- inception_3a/pool_proj
I0403 16:06:34.745806 17078 net.cpp:399] inception_3a/output -> inception_3a/output
I0403 16:06:34.745867 17078 net.cpp:141] Setting up inception_3a/output
I0403 16:06:34.745899 17078 net.cpp:148] Top shape: 24 256 28 28 (4816896)
I0403 16:06:34.745919 17078 net.cpp:156] Memory required for data: 580437024
I0403 16:06:34.745939 17078 layer_factory.hpp:77] Creating layer inception_3a/output_inception_3a/output_0_split
I0403 16:06:34.745959 17078 net.cpp:91] Creating Layer inception_3a/output_inception_3a/output_0_split
I0403 16:06:34.745978 17078 net.cpp:425] inception_3a/output_inception_3a/output_0_split <- inception_3a/output
I0403 16:06:34.746001 17078 net.cpp:399] inception_3a/output_inception_3a/output_0_split -> inception_3a/output_inception_3a/output_0_split_0
I0403 16:06:34.746026 17078 net.cpp:399] inception_3a/output_inception_3a/output_0_split -> inception_3a/output_inception_3a/output_0_split_1
I0403 16:06:34.746057 17078 net.cpp:399] inception_3a/output_inception_3a/output_0_split -> inception_3a/output_inception_3a/output_0_split_2
I0403 16:06:34.746085 17078 net.cpp:399] inception_3a/output_inception_3a/output_0_split -> inception_3a/output_inception_3a/output_0_split_3
I0403 16:06:34.746177 17078 net.cpp:141] Setting up inception_3a/output_inception_3a/output_0_split
I0403 16:06:34.746209 17078 net.cpp:148] Top shape: 24 256 28 28 (4816896)
I0403 16:06:34.746230 17078 net.cpp:148] Top shape: 24 256 28 28 (4816896)
I0403 16:06:34.746251 17078 net.cpp:148] Top shape: 24 256 28 28 (4816896)
I0403 16:06:34.746270 17078 net.cpp:148] Top shape: 24 256 28 28 (4816896)
I0403 16:06:34.746289 17078 net.cpp:156] Memory required for data: 657507360
I0403 16:06:34.746305 17078 layer_factory.hpp:77] Creating layer inception_3b/1x1
I0403 16:06:34.746332 17078 net.cpp:91] Creating Layer inception_3b/1x1
I0403 16:06:34.746356 17078 net.cpp:425] inception_3b/1x1 <- inception_3a/output_inception_3a/output_0_split_0
I0403 16:06:34.746378 17078 net.cpp:399] inception_3b/1x1 -> inception_3b/1x1
I0403 16:06:34.747759 17078 net.cpp:141] Setting up inception_3b/1x1
I0403 16:06:34.747812 17078 net.cpp:148] Top shape: 24 128 28 28 (2408448)
I0403 16:06:34.747833 17078 net.cpp:156] Memory required for data: 667141152
I0403 16:06:34.747856 17078 layer_factory.hpp:77] Creating layer inception_3b/relu_1x1
I0403 16:06:34.747879 17078 net.cpp:91] Creating Layer inception_3b/relu_1x1
I0403 16:06:34.747900 17078 net.cpp:425] inception_3b/relu_1x1 <- inception_3b/1x1
I0403 16:06:34.747923 17078 net.cpp:386] inception_3b/relu_1x1 -> inception_3b/1x1 (in-place)
I0403 16:06:34.748137 17078 net.cpp:141] Setting up inception_3b/relu_1x1
I0403 16:06:34.748169 17078 net.cpp:148] Top shape: 24 128 28 28 (2408448)
I0403 16:06:34.748189 17078 net.cpp:156] Memory required for data: 676774944
I0403 16:06:34.748208 17078 layer_factory.hpp:77] Creating layer inception_3b/3x3_reduce
I0403 16:06:34.748235 17078 net.cpp:91] Creating Layer inception_3b/3x3_reduce
I0403 16:06:34.748257 17078 net.cpp:425] inception_3b/3x3_reduce <- inception_3a/output_inception_3a/output_0_split_1
I0403 16:06:34.748284 17078 net.cpp:399] inception_3b/3x3_reduce -> inception_3b/3x3_reduce
I0403 16:06:34.749665 17078 net.cpp:141] Setting up inception_3b/3x3_reduce
I0403 16:06:34.749703 17078 net.cpp:148] Top shape: 24 128 28 28 (2408448)
I0403 16:06:34.749725 17078 net.cpp:156] Memory required for data: 686408736
I0403 16:06:34.749748 17078 layer_factory.hpp:77] Creating layer inception_3b/relu_3x3_reduce
I0403 16:06:34.749773 17078 net.cpp:91] Creating Layer inception_3b/relu_3x3_reduce
I0403 16:06:34.749794 17078 net.cpp:425] inception_3b/relu_3x3_reduce <- inception_3b/3x3_reduce
I0403 16:06:34.749814 17078 net.cpp:386] inception_3b/relu_3x3_reduce -> inception_3b/3x3_reduce (in-place)
I0403 16:06:34.750030 17078 net.cpp:141] Setting up inception_3b/relu_3x3_reduce
I0403 16:06:34.750061 17078 net.cpp:148] Top shape: 24 128 28 28 (2408448)
I0403 16:06:34.750079 17078 net.cpp:156] Memory required for data: 696042528
I0403 16:06:34.750098 17078 layer_factory.hpp:77] Creating layer inception_3b/3x3
I0403 16:06:34.750128 17078 net.cpp:91] Creating Layer inception_3b/3x3
I0403 16:06:34.750150 17078 net.cpp:425] inception_3b/3x3 <- inception_3b/3x3_reduce
I0403 16:06:34.750176 17078 net.cpp:399] inception_3b/3x3 -> inception_3b/3x3
I0403 16:06:34.753689 17078 net.cpp:141] Setting up inception_3b/3x3
I0403 16:06:34.753725 17078 net.cpp:148] Top shape: 24 192 28 28 (3612672)
I0403 16:06:34.753744 17078 net.cpp:156] Memory required for data: 710493216
I0403 16:06:34.753767 17078 layer_factory.hpp:77] Creating layer inception_3b/relu_3x3
I0403 16:06:34.753789 17078 net.cpp:91] Creating Layer inception_3b/relu_3x3
I0403 16:06:34.753810 17078 net.cpp:425] inception_3b/relu_3x3 <- inception_3b/3x3
I0403 16:06:34.753834 17078 net.cpp:386] inception_3b/relu_3x3 -> inception_3b/3x3 (in-place)
I0403 16:06:34.754164 17078 net.cpp:141] Setting up inception_3b/relu_3x3
I0403 16:06:34.754197 17078 net.cpp:148] Top shape: 24 192 28 28 (3612672)
I0403 16:06:34.754216 17078 net.cpp:156] Memory required for data: 724943904
I0403 16:06:34.754236 17078 layer_factory.hpp:77] Creating layer inception_3b/5x5_reduce
I0403 16:06:34.754266 17078 net.cpp:91] Creating Layer inception_3b/5x5_reduce
I0403 16:06:34.754287 17078 net.cpp:425] inception_3b/5x5_reduce <- inception_3a/output_inception_3a/output_0_split_2
I0403 16:06:34.754315 17078 net.cpp:399] inception_3b/5x5_reduce -> inception_3b/5x5_reduce
I0403 16:06:34.755527 17078 net.cpp:141] Setting up inception_3b/5x5_reduce
I0403 16:06:34.755561 17078 net.cpp:148] Top shape: 24 32 28 28 (602112)
I0403 16:06:34.755596 17078 net.cpp:156] Memory required for data: 727352352
I0403 16:06:34.755622 17078 layer_factory.hpp:77] Creating layer inception_3b/relu_5x5_reduce
I0403 16:06:34.755647 17078 net.cpp:91] Creating Layer inception_3b/relu_5x5_reduce
I0403 16:06:34.755666 17078 net.cpp:425] inception_3b/relu_5x5_reduce <- inception_3b/5x5_reduce
I0403 16:06:34.755692 17078 net.cpp:386] inception_3b/relu_5x5_reduce -> inception_3b/5x5_reduce (in-place)
I0403 16:06:34.755909 17078 net.cpp:141] Setting up inception_3b/relu_5x5_reduce
I0403 16:06:34.755955 17078 net.cpp:148] Top shape: 24 32 28 28 (602112)
I0403 16:06:34.755975 17078 net.cpp:156] Memory required for data: 729760800
I0403 16:06:34.755993 17078 layer_factory.hpp:77] Creating layer inception_3b/5x5
I0403 16:06:34.756021 17078 net.cpp:91] Creating Layer inception_3b/5x5
I0403 16:06:34.756043 17078 net.cpp:425] inception_3b/5x5 <- inception_3b/5x5_reduce
I0403 16:06:34.756069 17078 net.cpp:399] inception_3b/5x5 -> inception_3b/5x5
I0403 16:06:34.758432 17078 net.cpp:141] Setting up inception_3b/5x5
I0403 16:06:34.758471 17078 net.cpp:148] Top shape: 24 96 28 28 (1806336)
I0403 16:06:34.758492 17078 net.cpp:156] Memory required for data: 736986144
I0403 16:06:34.758515 17078 layer_factory.hpp:77] Creating layer inception_3b/relu_5x5
I0403 16:06:34.758538 17078 net.cpp:91] Creating Layer inception_3b/relu_5x5
I0403 16:06:34.758558 17078 net.cpp:425] inception_3b/relu_5x5 <- inception_3b/5x5
I0403 16:06:34.758586 17078 net.cpp:386] inception_3b/relu_5x5 -> inception_3b/5x5 (in-place)
I0403 16:06:34.758823 17078 net.cpp:141] Setting up inception_3b/relu_5x5
I0403 16:06:34.758855 17078 net.cpp:148] Top shape: 24 96 28 28 (1806336)
I0403 16:06:34.758875 17078 net.cpp:156] Memory required for data: 744211488
I0403 16:06:34.758893 17078 layer_factory.hpp:77] Creating layer inception_3b/pool
I0403 16:06:34.758915 17078 net.cpp:91] Creating Layer inception_3b/pool
I0403 16:06:34.758935 17078 net.cpp:425] inception_3b/pool <- inception_3a/output_inception_3a/output_0_split_3
I0403 16:06:34.758958 17078 net.cpp:399] inception_3b/pool -> inception_3b/pool
I0403 16:06:34.759029 17078 net.cpp:141] Setting up inception_3b/pool
I0403 16:06:34.759063 17078 net.cpp:148] Top shape: 24 256 28 28 (4816896)
I0403 16:06:34.759081 17078 net.cpp:156] Memory required for data: 763479072
I0403 16:06:34.759099 17078 layer_factory.hpp:77] Creating layer inception_3b/pool_proj
I0403 16:06:34.759126 17078 net.cpp:91] Creating Layer inception_3b/pool_proj
I0403 16:06:34.759150 17078 net.cpp:425] inception_3b/pool_proj <- inception_3b/pool
I0403 16:06:34.759172 17078 net.cpp:399] inception_3b/pool_proj -> inception_3b/pool_proj
I0403 16:06:34.760449 17078 net.cpp:141] Setting up inception_3b/pool_proj
I0403 16:06:34.760483 17078 net.cpp:148] Top shape: 24 64 28 28 (1204224)
I0403 16:06:34.760504 17078 net.cpp:156] Memory required for data: 768295968
I0403 16:06:34.760525 17078 layer_factory.hpp:77] Creating layer inception_3b/relu_pool_proj
I0403 16:06:34.760551 17078 net.cpp:91] Creating Layer inception_3b/relu_pool_proj
I0403 16:06:34.760578 17078 net.cpp:425] inception_3b/relu_pool_proj <- inception_3b/pool_proj
I0403 16:06:34.760602 17078 net.cpp:386] inception_3b/relu_pool_proj -> inception_3b/pool_proj (in-place)
I0403 16:06:34.761068 17078 net.cpp:141] Setting up inception_3b/relu_pool_proj
I0403 16:06:34.761101 17078 net.cpp:148] Top shape: 24 64 28 28 (1204224)
I0403 16:06:34.761121 17078 net.cpp:156] Memory required for data: 773112864
I0403 16:06:34.761139 17078 layer_factory.hpp:77] Creating layer inception_3b/output
I0403 16:06:34.761160 17078 net.cpp:91] Creating Layer inception_3b/output
I0403 16:06:34.761180 17078 net.cpp:425] inception_3b/output <- inception_3b/1x1
I0403 16:06:34.761200 17078 net.cpp:425] inception_3b/output <- inception_3b/3x3
I0403 16:06:34.761219 17078 net.cpp:425] inception_3b/output <- inception_3b/5x5
I0403 16:06:34.761239 17078 net.cpp:425] inception_3b/output <- inception_3b/pool_proj
I0403 16:06:34.761262 17078 net.cpp:399] inception_3b/output -> inception_3b/output
I0403 16:06:34.761320 17078 net.cpp:141] Setting up inception_3b/output
I0403 16:06:34.761349 17078 net.cpp:148] Top shape: 24 480 28 28 (9031680)
I0403 16:06:34.761369 17078 net.cpp:156] Memory required for data: 809239584
I0403 16:06:34.761386 17078 layer_factory.hpp:77] Creating layer pool3/3x3_s2
I0403 16:06:34.761409 17078 net.cpp:91] Creating Layer pool3/3x3_s2
I0403 16:06:34.761428 17078 net.cpp:425] pool3/3x3_s2 <- inception_3b/output
I0403 16:06:34.761453 17078 net.cpp:399] pool3/3x3_s2 -> pool3/3x3_s2
I0403 16:06:34.761543 17078 net.cpp:141] Setting up pool3/3x3_s2
I0403 16:06:34.761576 17078 net.cpp:148] Top shape: 24 480 14 14 (2257920)
I0403 16:06:34.761597 17078 net.cpp:156] Memory required for data: 818271264
I0403 16:06:34.761616 17078 layer_factory.hpp:77] Creating layer pool3/3x3_s2_pool3/3x3_s2_0_split
I0403 16:06:34.761639 17078 net.cpp:91] Creating Layer pool3/3x3_s2_pool3/3x3_s2_0_split
I0403 16:06:34.761661 17078 net.cpp:425] pool3/3x3_s2_pool3/3x3_s2_0_split <- pool3/3x3_s2
I0403 16:06:34.761682 17078 net.cpp:399] pool3/3x3_s2_pool3/3x3_s2_0_split -> pool3/3x3_s2_pool3/3x3_s2_0_split_0
I0403 16:06:34.761705 17078 net.cpp:399] pool3/3x3_s2_pool3/3x3_s2_0_split -> pool3/3x3_s2_pool3/3x3_s2_0_split_1
I0403 16:06:34.761734 17078 net.cpp:399] pool3/3x3_s2_pool3/3x3_s2_0_split -> pool3/3x3_s2_pool3/3x3_s2_0_split_2
I0403 16:06:34.761759 17078 net.cpp:399] pool3/3x3_s2_pool3/3x3_s2_0_split -> pool3/3x3_s2_pool3/3x3_s2_0_split_3
I0403 16:06:34.761852 17078 net.cpp:141] Setting up pool3/3x3_s2_pool3/3x3_s2_0_split
I0403 16:06:34.761881 17078 net.cpp:148] Top shape: 24 480 14 14 (2257920)
I0403 16:06:34.761901 17078 net.cpp:148] Top shape: 24 480 14 14 (2257920)
I0403 16:06:34.761921 17078 net.cpp:148] Top shape: 24 480 14 14 (2257920)
I0403 16:06:34.761940 17078 net.cpp:148] Top shape: 24 480 14 14 (2257920)
I0403 16:06:34.761956 17078 net.cpp:156] Memory required for data: 854397984
I0403 16:06:34.761975 17078 layer_factory.hpp:77] Creating layer inception_4a/1x1
I0403 16:06:34.762004 17078 net.cpp:91] Creating Layer inception_4a/1x1
I0403 16:06:34.762027 17078 net.cpp:425] inception_4a/1x1 <- pool3/3x3_s2_pool3/3x3_s2_0_split_0
I0403 16:06:34.762053 17078 net.cpp:399] inception_4a/1x1 -> inception_4a/1x1
I0403 16:06:34.763978 17078 net.cpp:141] Setting up inception_4a/1x1
I0403 16:06:34.764014 17078 net.cpp:148] Top shape: 24 192 14 14 (903168)
I0403 16:06:34.764032 17078 net.cpp:156] Memory required for data: 858010656
I0403 16:06:34.764055 17078 layer_factory.hpp:77] Creating layer inception_4a/relu_1x1
I0403 16:06:34.764081 17078 net.cpp:91] Creating Layer inception_4a/relu_1x1
I0403 16:06:34.764103 17078 net.cpp:425] inception_4a/relu_1x1 <- inception_4a/1x1
I0403 16:06:34.764124 17078 net.cpp:386] inception_4a/relu_1x1 -> inception_4a/1x1 (in-place)
I0403 16:06:34.764341 17078 net.cpp:141] Setting up inception_4a/relu_1x1
I0403 16:06:34.764375 17078 net.cpp:148] Top shape: 24 192 14 14 (903168)
I0403 16:06:34.764395 17078 net.cpp:156] Memory required for data: 861623328
I0403 16:06:34.764412 17078 layer_factory.hpp:77] Creating layer inception_4a/3x3_reduce
I0403 16:06:34.764441 17078 net.cpp:91] Creating Layer inception_4a/3x3_reduce
I0403 16:06:34.764463 17078 net.cpp:425] inception_4a/3x3_reduce <- pool3/3x3_s2_pool3/3x3_s2_0_split_1
I0403 16:06:34.764487 17078 net.cpp:399] inception_4a/3x3_reduce -> inception_4a/3x3_reduce
I0403 16:06:34.766054 17078 net.cpp:141] Setting up inception_4a/3x3_reduce
I0403 16:06:34.766090 17078 net.cpp:148] Top shape: 24 96 14 14 (451584)
I0403 16:06:34.766109 17078 net.cpp:156] Memory required for data: 863429664
I0403 16:06:34.766141 17078 layer_factory.hpp:77] Creating layer inception_4a/relu_3x3_reduce
I0403 16:06:34.766170 17078 net.cpp:91] Creating Layer inception_4a/relu_3x3_reduce
I0403 16:06:34.766191 17078 net.cpp:425] inception_4a/relu_3x3_reduce <- inception_4a/3x3_reduce
I0403 16:06:34.766213 17078 net.cpp:386] inception_4a/relu_3x3_reduce -> inception_4a/3x3_reduce (in-place)
I0403 16:06:34.766429 17078 net.cpp:141] Setting up inception_4a/relu_3x3_reduce
I0403 16:06:34.766463 17078 net.cpp:148] Top shape: 24 96 14 14 (451584)
I0403 16:06:34.766482 17078 net.cpp:156] Memory required for data: 865236000
I0403 16:06:34.766502 17078 layer_factory.hpp:77] Creating layer inception_4a/3x3
I0403 16:06:34.766531 17078 net.cpp:91] Creating Layer inception_4a/3x3
I0403 16:06:34.766553 17078 net.cpp:425] inception_4a/3x3 <- inception_4a/3x3_reduce
I0403 16:06:34.766582 17078 net.cpp:399] inception_4a/3x3 -> inception_4a/3x3
I0403 16:06:34.769816 17078 net.cpp:141] Setting up inception_4a/3x3
I0403 16:06:34.769855 17078 net.cpp:148] Top shape: 24 208 14 14 (978432)
I0403 16:06:34.769876 17078 net.cpp:156] Memory required for data: 869149728
I0403 16:06:34.769901 17078 layer_factory.hpp:77] Creating layer inception_4a/relu_3x3
I0403 16:06:34.769922 17078 net.cpp:91] Creating Layer inception_4a/relu_3x3
I0403 16:06:34.769942 17078 net.cpp:425] inception_4a/relu_3x3 <- inception_4a/3x3
I0403 16:06:34.769963 17078 net.cpp:386] inception_4a/relu_3x3 -> inception_4a/3x3 (in-place)
I0403 16:06:34.770301 17078 net.cpp:141] Setting up inception_4a/relu_3x3
I0403 16:06:34.770336 17078 net.cpp:148] Top shape: 24 208 14 14 (978432)
I0403 16:06:34.770356 17078 net.cpp:156] Memory required for data: 873063456
I0403 16:06:34.770376 17078 layer_factory.hpp:77] Creating layer inception_4a/5x5_reduce
I0403 16:06:34.770403 17078 net.cpp:91] Creating Layer inception_4a/5x5_reduce
I0403 16:06:34.770426 17078 net.cpp:425] inception_4a/5x5_reduce <- pool3/3x3_s2_pool3/3x3_s2_0_split_2
I0403 16:06:34.770449 17078 net.cpp:399] inception_4a/5x5_reduce -> inception_4a/5x5_reduce
I0403 16:06:34.771695 17078 net.cpp:141] Setting up inception_4a/5x5_reduce
I0403 16:06:34.771729 17078 net.cpp:148] Top shape: 24 16 14 14 (75264)
I0403 16:06:34.771750 17078 net.cpp:156] Memory required for data: 873364512
I0403 16:06:34.771773 17078 layer_factory.hpp:77] Creating layer inception_4a/relu_5x5_reduce
I0403 16:06:34.771798 17078 net.cpp:91] Creating Layer inception_4a/relu_5x5_reduce
I0403 16:06:34.771818 17078 net.cpp:425] inception_4a/relu_5x5_reduce <- inception_4a/5x5_reduce
I0403 16:06:34.771842 17078 net.cpp:386] inception_4a/relu_5x5_reduce -> inception_4a/5x5_reduce (in-place)
I0403 16:06:34.772064 17078 net.cpp:141] Setting up inception_4a/relu_5x5_reduce
I0403 16:06:34.772096 17078 net.cpp:148] Top shape: 24 16 14 14 (75264)
I0403 16:06:34.772115 17078 net.cpp:156] Memory required for data: 873665568
I0403 16:06:34.772135 17078 layer_factory.hpp:77] Creating layer inception_4a/5x5
I0403 16:06:34.772164 17078 net.cpp:91] Creating Layer inception_4a/5x5
I0403 16:06:34.772187 17078 net.cpp:425] inception_4a/5x5 <- inception_4a/5x5_reduce
I0403 16:06:34.772214 17078 net.cpp:399] inception_4a/5x5 -> inception_4a/5x5
I0403 16:06:34.773545 17078 net.cpp:141] Setting up inception_4a/5x5
I0403 16:06:34.773583 17078 net.cpp:148] Top shape: 24 48 14 14 (225792)
I0403 16:06:34.773604 17078 net.cpp:156] Memory required for data: 874568736
I0403 16:06:34.773627 17078 layer_factory.hpp:77] Creating layer inception_4a/relu_5x5
I0403 16:06:34.773653 17078 net.cpp:91] Creating Layer inception_4a/relu_5x5
I0403 16:06:34.773675 17078 net.cpp:425] inception_4a/relu_5x5 <- inception_4a/5x5
I0403 16:06:34.773697 17078 net.cpp:386] inception_4a/relu_5x5 -> inception_4a/5x5 (in-place)
I0403 16:06:34.773921 17078 net.cpp:141] Setting up inception_4a/relu_5x5
I0403 16:06:34.773955 17078 net.cpp:148] Top shape: 24 48 14 14 (225792)
I0403 16:06:34.773975 17078 net.cpp:156] Memory required for data: 875471904
I0403 16:06:34.773994 17078 layer_factory.hpp:77] Creating layer inception_4a/pool
I0403 16:06:34.774015 17078 net.cpp:91] Creating Layer inception_4a/pool
I0403 16:06:34.774035 17078 net.cpp:425] inception_4a/pool <- pool3/3x3_s2_pool3/3x3_s2_0_split_3
I0403 16:06:34.774058 17078 net.cpp:399] inception_4a/pool -> inception_4a/pool
I0403 16:06:34.774135 17078 net.cpp:141] Setting up inception_4a/pool
I0403 16:06:34.774164 17078 net.cpp:148] Top shape: 24 480 14 14 (2257920)
I0403 16:06:34.774183 17078 net.cpp:156] Memory required for data: 884503584
I0403 16:06:34.774200 17078 layer_factory.hpp:77] Creating layer inception_4a/pool_proj
I0403 16:06:34.774227 17078 net.cpp:91] Creating Layer inception_4a/pool_proj
I0403 16:06:34.774250 17078 net.cpp:425] inception_4a/pool_proj <- inception_4a/pool
I0403 16:06:34.774276 17078 net.cpp:399] inception_4a/pool_proj -> inception_4a/pool_proj
I0403 16:06:34.775715 17078 net.cpp:141] Setting up inception_4a/pool_proj
I0403 16:06:34.775750 17078 net.cpp:148] Top shape: 24 64 14 14 (301056)
I0403 16:06:34.775790 17078 net.cpp:156] Memory required for data: 885707808
I0403 16:06:34.775815 17078 layer_factory.hpp:77] Creating layer inception_4a/relu_pool_proj
I0403 16:06:34.775842 17078 net.cpp:91] Creating Layer inception_4a/relu_pool_proj
I0403 16:06:34.775866 17078 net.cpp:425] inception_4a/relu_pool_proj <- inception_4a/pool_proj
I0403 16:06:34.775887 17078 net.cpp:386] inception_4a/relu_pool_proj -> inception_4a/pool_proj (in-place)
I0403 16:06:34.776231 17078 net.cpp:141] Setting up inception_4a/relu_pool_proj
I0403 16:06:34.776262 17078 net.cpp:148] Top shape: 24 64 14 14 (301056)
I0403 16:06:34.776281 17078 net.cpp:156] Memory required for data: 886912032
I0403 16:06:34.776300 17078 layer_factory.hpp:77] Creating layer inception_4a/output
I0403 16:06:34.776327 17078 net.cpp:91] Creating Layer inception_4a/output
I0403 16:06:34.776348 17078 net.cpp:425] inception_4a/output <- inception_4a/1x1
I0403 16:06:34.776368 17078 net.cpp:425] inception_4a/output <- inception_4a/3x3
I0403 16:06:34.776388 17078 net.cpp:425] inception_4a/output <- inception_4a/5x5
I0403 16:06:34.776408 17078 net.cpp:425] inception_4a/output <- inception_4a/pool_proj
I0403 16:06:34.776429 17078 net.cpp:399] inception_4a/output -> inception_4a/output
I0403 16:06:34.776487 17078 net.cpp:141] Setting up inception_4a/output
I0403 16:06:34.776517 17078 net.cpp:148] Top shape: 24 512 14 14 (2408448)
I0403 16:06:34.776535 17078 net.cpp:156] Memory required for data: 896545824
I0403 16:06:34.776554 17078 layer_factory.hpp:77] Creating layer inception_4a/output_inception_4a/output_0_split
I0403 16:06:34.776581 17078 net.cpp:91] Creating Layer inception_4a/output_inception_4a/output_0_split
I0403 16:06:34.776602 17078 net.cpp:425] inception_4a/output_inception_4a/output_0_split <- inception_4a/output
I0403 16:06:34.776628 17078 net.cpp:399] inception_4a/output_inception_4a/output_0_split -> inception_4a/output_inception_4a/output_0_split_0
I0403 16:06:34.776654 17078 net.cpp:399] inception_4a/output_inception_4a/output_0_split -> inception_4a/output_inception_4a/output_0_split_1
I0403 16:06:34.776680 17078 net.cpp:399] inception_4a/output_inception_4a/output_0_split -> inception_4a/output_inception_4a/output_0_split_2
I0403 16:06:34.776705 17078 net.cpp:399] inception_4a/output_inception_4a/output_0_split -> inception_4a/output_inception_4a/output_0_split_3
I0403 16:06:34.776731 17078 net.cpp:399] inception_4a/output_inception_4a/output_0_split -> inception_4a/output_inception_4a/output_0_split_4
I0403 16:06:34.776847 17078 net.cpp:141] Setting up inception_4a/output_inception_4a/output_0_split
I0403 16:06:34.776877 17078 net.cpp:148] Top shape: 24 512 14 14 (2408448)
I0403 16:06:34.776900 17078 net.cpp:148] Top shape: 24 512 14 14 (2408448)
I0403 16:06:34.776918 17078 net.cpp:148] Top shape: 24 512 14 14 (2408448)
I0403 16:06:34.776937 17078 net.cpp:148] Top shape: 24 512 14 14 (2408448)
I0403 16:06:34.776957 17078 net.cpp:148] Top shape: 24 512 14 14 (2408448)
I0403 16:06:34.776974 17078 net.cpp:156] Memory required for data: 944714784
I0403 16:06:34.776993 17078 layer_factory.hpp:77] Creating layer loss1/ave_pool
I0403 16:06:34.777014 17078 net.cpp:91] Creating Layer loss1/ave_pool
I0403 16:06:34.777034 17078 net.cpp:425] loss1/ave_pool <- inception_4a/output_inception_4a/output_0_split_0
I0403 16:06:34.777060 17078 net.cpp:399] loss1/ave_pool -> loss1/ave_pool
I0403 16:06:34.777314 17078 net.cpp:141] Setting up loss1/ave_pool
I0403 16:06:34.777346 17078 net.cpp:148] Top shape: 24 512 4 4 (196608)
I0403 16:06:34.777365 17078 net.cpp:156] Memory required for data: 945501216
I0403 16:06:34.777384 17078 layer_factory.hpp:77] Creating layer loss1/conv
I0403 16:06:34.777411 17078 net.cpp:91] Creating Layer loss1/conv
I0403 16:06:34.777433 17078 net.cpp:425] loss1/conv <- loss1/ave_pool
I0403 16:06:34.777459 17078 net.cpp:399] loss1/conv -> loss1/conv
I0403 16:06:34.779193 17078 net.cpp:141] Setting up loss1/conv
I0403 16:06:34.779232 17078 net.cpp:148] Top shape: 24 128 4 4 (49152)
I0403 16:06:34.779252 17078 net.cpp:156] Memory required for data: 945697824
I0403 16:06:34.779292 17078 layer_factory.hpp:77] Creating layer loss1/relu_conv
I0403 16:06:34.779316 17078 net.cpp:91] Creating Layer loss1/relu_conv
I0403 16:06:34.779336 17078 net.cpp:425] loss1/relu_conv <- loss1/conv
I0403 16:06:34.779361 17078 net.cpp:386] loss1/relu_conv -> loss1/conv (in-place)
I0403 16:06:34.779713 17078 net.cpp:141] Setting up loss1/relu_conv
I0403 16:06:34.779750 17078 net.cpp:148] Top shape: 24 128 4 4 (49152)
I0403 16:06:34.779772 17078 net.cpp:156] Memory required for data: 945894432
I0403 16:06:34.779790 17078 layer_factory.hpp:77] Creating layer loss1/fc
I0403 16:06:34.779819 17078 net.cpp:91] Creating Layer loss1/fc
I0403 16:06:34.779841 17078 net.cpp:425] loss1/fc <- loss1/conv
I0403 16:06:34.779866 17078 net.cpp:399] loss1/fc -> loss1/fc
I0403 16:06:34.801666 17078 net.cpp:141] Setting up loss1/fc
I0403 16:06:34.801709 17078 net.cpp:148] Top shape: 24 1024 (24576)
I0403 16:06:34.801730 17078 net.cpp:156] Memory required for data: 945992736
I0403 16:06:34.801754 17078 layer_factory.hpp:77] Creating layer loss1/relu_fc
I0403 16:06:34.801776 17078 net.cpp:91] Creating Layer loss1/relu_fc
I0403 16:06:34.801797 17078 net.cpp:425] loss1/relu_fc <- loss1/fc
I0403 16:06:34.801820 17078 net.cpp:386] loss1/relu_fc -> loss1/fc (in-place)
I0403 16:06:34.802052 17078 net.cpp:141] Setting up loss1/relu_fc
I0403 16:06:34.802086 17078 net.cpp:148] Top shape: 24 1024 (24576)
I0403 16:06:34.802106 17078 net.cpp:156] Memory required for data: 946091040
I0403 16:06:34.802124 17078 layer_factory.hpp:77] Creating layer loss1/drop_fc
I0403 16:06:34.802156 17078 net.cpp:91] Creating Layer loss1/drop_fc
I0403 16:06:34.802177 17078 net.cpp:425] loss1/drop_fc <- loss1/fc
I0403 16:06:34.802199 17078 net.cpp:386] loss1/drop_fc -> loss1/fc (in-place)
I0403 16:06:34.802265 17078 net.cpp:141] Setting up loss1/drop_fc
I0403 16:06:34.802295 17078 net.cpp:148] Top shape: 24 1024 (24576)
I0403 16:06:34.802314 17078 net.cpp:156] Memory required for data: 946189344
I0403 16:06:34.802333 17078 layer_factory.hpp:77] Creating layer loss1/classifier_plantvillage
I0403 16:06:34.802361 17078 net.cpp:91] Creating Layer loss1/classifier_plantvillage
I0403 16:06:34.802383 17078 net.cpp:425] loss1/classifier_plantvillage <- loss1/fc
I0403 16:06:34.802407 17078 net.cpp:399] loss1/classifier_plantvillage -> loss1/classifier_plantvillage
I0403 16:06:34.803488 17078 net.cpp:141] Setting up loss1/classifier_plantvillage
I0403 16:06:34.803527 17078 net.cpp:148] Top shape: 24 38 (912)
I0403 16:06:34.803549 17078 net.cpp:156] Memory required for data: 946192992
I0403 16:06:34.803575 17078 layer_factory.hpp:77] Creating layer loss1/classifier_plantvillage_loss1/classifier_plantvillage_0_split
I0403 16:06:34.803601 17078 net.cpp:91] Creating Layer loss1/classifier_plantvillage_loss1/classifier_plantvillage_0_split
I0403 16:06:34.803622 17078 net.cpp:425] loss1/classifier_plantvillage_loss1/classifier_plantvillage_0_split <- loss1/classifier_plantvillage
I0403 16:06:34.803644 17078 net.cpp:399] loss1/classifier_plantvillage_loss1/classifier_plantvillage_0_split -> loss1/classifier_plantvillage_loss1/classifier_plantvillage_0_split_0
I0403 16:06:34.803669 17078 net.cpp:399] loss1/classifier_plantvillage_loss1/classifier_plantvillage_0_split -> loss1/classifier_plantvillage_loss1/classifier_plantvillage_0_split_1
I0403 16:06:34.803697 17078 net.cpp:399] loss1/classifier_plantvillage_loss1/classifier_plantvillage_0_split -> loss1/classifier_plantvillage_loss1/classifier_plantvillage_0_split_2
I0403 16:06:34.803781 17078 net.cpp:141] Setting up loss1/classifier_plantvillage_loss1/classifier_plantvillage_0_split
I0403 16:06:34.803812 17078 net.cpp:148] Top shape: 24 38 (912)
I0403 16:06:34.803831 17078 net.cpp:148] Top shape: 24 38 (912)
I0403 16:06:34.803850 17078 net.cpp:148] Top shape: 24 38 (912)
I0403 16:06:34.803869 17078 net.cpp:156] Memory required for data: 946203936
I0403 16:06:34.803886 17078 layer_factory.hpp:77] Creating layer inception_4b/1x1
I0403 16:06:34.803911 17078 net.cpp:91] Creating Layer inception_4b/1x1
I0403 16:06:34.803956 17078 net.cpp:425] inception_4b/1x1 <- inception_4a/output_inception_4a/output_0_split_1
I0403 16:06:34.803983 17078 net.cpp:399] inception_4b/1x1 -> inception_4b/1x1
I0403 16:06:34.805994 17078 net.cpp:141] Setting up inception_4b/1x1
I0403 16:06:34.806030 17078 net.cpp:148] Top shape: 24 160 14 14 (752640)
I0403 16:06:34.806051 17078 net.cpp:156] Memory required for data: 949214496
I0403 16:06:34.806073 17078 layer_factory.hpp:77] Creating layer inception_4b/relu_1x1
I0403 16:06:34.806095 17078 net.cpp:91] Creating Layer inception_4b/relu_1x1
I0403 16:06:34.806115 17078 net.cpp:425] inception_4b/relu_1x1 <- inception_4b/1x1
I0403 16:06:34.806139 17078 net.cpp:386] inception_4b/relu_1x1 -> inception_4b/1x1 (in-place)
I0403 16:06:34.806366 17078 net.cpp:141] Setting up inception_4b/relu_1x1
I0403 16:06:34.806397 17078 net.cpp:148] Top shape: 24 160 14 14 (752640)
I0403 16:06:34.806416 17078 net.cpp:156] Memory required for data: 952225056
I0403 16:06:34.806435 17078 layer_factory.hpp:77] Creating layer inception_4b/3x3_reduce
I0403 16:06:34.806463 17078 net.cpp:91] Creating Layer inception_4b/3x3_reduce
I0403 16:06:34.806486 17078 net.cpp:425] inception_4b/3x3_reduce <- inception_4a/output_inception_4a/output_0_split_2
I0403 16:06:34.806512 17078 net.cpp:399] inception_4b/3x3_reduce -> inception_4b/3x3_reduce
I0403 16:06:34.808194 17078 net.cpp:141] Setting up inception_4b/3x3_reduce
I0403 16:06:34.808229 17078 net.cpp:148] Top shape: 24 112 14 14 (526848)
I0403 16:06:34.808249 17078 net.cpp:156] Memory required for data: 954332448
I0403 16:06:34.808272 17078 layer_factory.hpp:77] Creating layer inception_4b/relu_3x3_reduce
I0403 16:06:34.808297 17078 net.cpp:91] Creating Layer inception_4b/relu_3x3_reduce
I0403 16:06:34.808320 17078 net.cpp:425] inception_4b/relu_3x3_reduce <- inception_4b/3x3_reduce
I0403 16:06:34.808342 17078 net.cpp:386] inception_4b/relu_3x3_reduce -> inception_4b/3x3_reduce (in-place)
I0403 16:06:34.808692 17078 net.cpp:141] Setting up inception_4b/relu_3x3_reduce
I0403 16:06:34.808725 17078 net.cpp:148] Top shape: 24 112 14 14 (526848)
I0403 16:06:34.808744 17078 net.cpp:156] Memory required for data: 956439840
I0403 16:06:34.808763 17078 layer_factory.hpp:77] Creating layer inception_4b/3x3
I0403 16:06:34.808790 17078 net.cpp:91] Creating Layer inception_4b/3x3
I0403 16:06:34.808811 17078 net.cpp:425] inception_4b/3x3 <- inception_4b/3x3_reduce
I0403 16:06:34.808840 17078 net.cpp:399] inception_4b/3x3 -> inception_4b/3x3
I0403 16:06:34.812485 17078 net.cpp:141] Setting up inception_4b/3x3
I0403 16:06:34.812522 17078 net.cpp:148] Top shape: 24 224 14 14 (1053696)
I0403 16:06:34.812544 17078 net.cpp:156] Memory required for data: 960654624
I0403 16:06:34.812568 17078 layer_factory.hpp:77] Creating layer inception_4b/relu_3x3
I0403 16:06:34.812599 17078 net.cpp:91] Creating Layer inception_4b/relu_3x3
I0403 16:06:34.812619 17078 net.cpp:425] inception_4b/relu_3x3 <- inception_4b/3x3
I0403 16:06:34.812640 17078 net.cpp:386] inception_4b/relu_3x3 -> inception_4b/3x3 (in-place)
I0403 16:06:34.812867 17078 net.cpp:141] Setting up inception_4b/relu_3x3
I0403 16:06:34.812901 17078 net.cpp:148] Top shape: 24 224 14 14 (1053696)
I0403 16:06:34.812922 17078 net.cpp:156] Memory required for data: 964869408
I0403 16:06:34.812942 17078 layer_factory.hpp:77] Creating layer inception_4b/5x5_reduce
I0403 16:06:34.812968 17078 net.cpp:91] Creating Layer inception_4b/5x5_reduce
I0403 16:06:34.812990 17078 net.cpp:425] inception_4b/5x5_reduce <- inception_4a/output_inception_4a/output_0_split_3
I0403 16:06:34.813014 17078 net.cpp:399] inception_4b/5x5_reduce -> inception_4b/5x5_reduce
I0403 16:06:34.814349 17078 net.cpp:141] Setting up inception_4b/5x5_reduce
I0403 16:06:34.814383 17078 net.cpp:148] Top shape: 24 24 14 14 (112896)
I0403 16:06:34.814404 17078 net.cpp:156] Memory required for data: 965320992
I0403 16:06:34.814427 17078 layer_factory.hpp:77] Creating layer inception_4b/relu_5x5_reduce
I0403 16:06:34.814450 17078 net.cpp:91] Creating Layer inception_4b/relu_5x5_reduce
I0403 16:06:34.814488 17078 net.cpp:425] inception_4b/relu_5x5_reduce <- inception_4b/5x5_reduce
I0403 16:06:34.814514 17078 net.cpp:386] inception_4b/relu_5x5_reduce -> inception_4b/5x5_reduce (in-place)
I0403 16:06:34.814749 17078 net.cpp:141] Setting up inception_4b/relu_5x5_reduce
I0403 16:06:34.814782 17078 net.cpp:148] Top shape: 24 24 14 14 (112896)
I0403 16:06:34.814802 17078 net.cpp:156] Memory required for data: 965772576
I0403 16:06:34.814821 17078 layer_factory.hpp:77] Creating layer inception_4b/5x5
I0403 16:06:34.814848 17078 net.cpp:91] Creating Layer inception_4b/5x5
I0403 16:06:34.814870 17078 net.cpp:425] inception_4b/5x5 <- inception_4b/5x5_reduce
I0403 16:06:34.814898 17078 net.cpp:399] inception_4b/5x5 -> inception_4b/5x5
I0403 16:06:34.816416 17078 net.cpp:141] Setting up inception_4b/5x5
I0403 16:06:34.816452 17078 net.cpp:148] Top shape: 24 64 14 14 (301056)
I0403 16:06:34.816471 17078 net.cpp:156] Memory required for data: 966976800
I0403 16:06:34.816494 17078 layer_factory.hpp:77] Creating layer inception_4b/relu_5x5
I0403 16:06:34.816517 17078 net.cpp:91] Creating Layer inception_4b/relu_5x5
I0403 16:06:34.816537 17078 net.cpp:425] inception_4b/relu_5x5 <- inception_4b/5x5
I0403 16:06:34.816561 17078 net.cpp:386] inception_4b/relu_5x5 -> inception_4b/5x5 (in-place)
I0403 16:06:34.816916 17078 net.cpp:141] Setting up inception_4b/relu_5x5
I0403 16:06:34.816949 17078 net.cpp:148] Top shape: 24 64 14 14 (301056)
I0403 16:06:34.816969 17078 net.cpp:156] Memory required for data: 968181024
I0403 16:06:34.816987 17078 layer_factory.hpp:77] Creating layer inception_4b/pool
I0403 16:06:34.817008 17078 net.cpp:91] Creating Layer inception_4b/pool
I0403 16:06:34.817029 17078 net.cpp:425] inception_4b/pool <- inception_4a/output_inception_4a/output_0_split_4
I0403 16:06:34.817057 17078 net.cpp:399] inception_4b/pool -> inception_4b/pool
I0403 16:06:34.817140 17078 net.cpp:141] Setting up inception_4b/pool
I0403 16:06:34.817169 17078 net.cpp:148] Top shape: 24 512 14 14 (2408448)
I0403 16:06:34.817188 17078 net.cpp:156] Memory required for data: 977814816
I0403 16:06:34.817206 17078 layer_factory.hpp:77] Creating layer inception_4b/pool_proj
I0403 16:06:34.817235 17078 net.cpp:91] Creating Layer inception_4b/pool_proj
I0403 16:06:34.817258 17078 net.cpp:425] inception_4b/pool_proj <- inception_4b/pool
I0403 16:06:34.817282 17078 net.cpp:399] inception_4b/pool_proj -> inception_4b/pool_proj
I0403 16:06:34.818766 17078 net.cpp:141] Setting up inception_4b/pool_proj
I0403 16:06:34.818801 17078 net.cpp:148] Top shape: 24 64 14 14 (301056)
I0403 16:06:34.818821 17078 net.cpp:156] Memory required for data: 979019040
I0403 16:06:34.818843 17078 layer_factory.hpp:77] Creating layer inception_4b/relu_pool_proj
I0403 16:06:34.818867 17078 net.cpp:91] Creating Layer inception_4b/relu_pool_proj
I0403 16:06:34.818887 17078 net.cpp:425] inception_4b/relu_pool_proj <- inception_4b/pool_proj
I0403 16:06:34.818913 17078 net.cpp:386] inception_4b/relu_pool_proj -> inception_4b/pool_proj (in-place)
I0403 16:06:34.819139 17078 net.cpp:141] Setting up inception_4b/relu_pool_proj
I0403 16:06:34.819171 17078 net.cpp:148] Top shape: 24 64 14 14 (301056)
I0403 16:06:34.819190 17078 net.cpp:156] Memory required for data: 980223264
I0403 16:06:34.819210 17078 layer_factory.hpp:77] Creating layer inception_4b/output
I0403 16:06:34.819234 17078 net.cpp:91] Creating Layer inception_4b/output
I0403 16:06:34.819257 17078 net.cpp:425] inception_4b/output <- inception_4b/1x1
I0403 16:06:34.819277 17078 net.cpp:425] inception_4b/output <- inception_4b/3x3
I0403 16:06:34.819296 17078 net.cpp:425] inception_4b/output <- inception_4b/5x5
I0403 16:06:34.819316 17078 net.cpp:425] inception_4b/output <- inception_4b/pool_proj
I0403 16:06:34.819337 17078 net.cpp:399] inception_4b/output -> inception_4b/output
I0403 16:06:34.819401 17078 net.cpp:141] Setting up inception_4b/output
I0403 16:06:34.819430 17078 net.cpp:148] Top shape: 24 512 14 14 (2408448)
I0403 16:06:34.819448 17078 net.cpp:156] Memory required for data: 989857056
I0403 16:06:34.819484 17078 layer_factory.hpp:77] Creating layer inception_4b/output_inception_4b/output_0_split
I0403 16:06:34.819507 17078 net.cpp:91] Creating Layer inception_4b/output_inception_4b/output_0_split
I0403 16:06:34.819527 17078 net.cpp:425] inception_4b/output_inception_4b/output_0_split <- inception_4b/output
I0403 16:06:34.819551 17078 net.cpp:399] inception_4b/output_inception_4b/output_0_split -> inception_4b/output_inception_4b/output_0_split_0
I0403 16:06:34.819583 17078 net.cpp:399] inception_4b/output_inception_4b/output_0_split -> inception_4b/output_inception_4b/output_0_split_1
I0403 16:06:34.819610 17078 net.cpp:399] inception_4b/output_inception_4b/output_0_split -> inception_4b/output_inception_4b/output_0_split_2
I0403 16:06:34.819636 17078 net.cpp:399] inception_4b/output_inception_4b/output_0_split -> inception_4b/output_inception_4b/output_0_split_3
I0403 16:06:34.819737 17078 net.cpp:141] Setting up inception_4b/output_inception_4b/output_0_split
I0403 16:06:34.819771 17078 net.cpp:148] Top shape: 24 512 14 14 (2408448)
I0403 16:06:34.819792 17078 net.cpp:148] Top shape: 24 512 14 14 (2408448)
I0403 16:06:34.819813 17078 net.cpp:148] Top shape: 24 512 14 14 (2408448)
I0403 16:06:34.819831 17078 net.cpp:148] Top shape: 24 512 14 14 (2408448)
I0403 16:06:34.819849 17078 net.cpp:156] Memory required for data: 1028392224
I0403 16:06:34.819866 17078 layer_factory.hpp:77] Creating layer inception_4c/1x1
I0403 16:06:34.819895 17078 net.cpp:91] Creating Layer inception_4c/1x1
I0403 16:06:34.819918 17078 net.cpp:425] inception_4c/1x1 <- inception_4b/output_inception_4b/output_0_split_0
I0403 16:06:34.819943 17078 net.cpp:399] inception_4c/1x1 -> inception_4c/1x1
I0403 16:06:34.821712 17078 net.cpp:141] Setting up inception_4c/1x1
I0403 16:06:34.821746 17078 net.cpp:148] Top shape: 24 128 14 14 (602112)
I0403 16:06:34.821765 17078 net.cpp:156] Memory required for data: 1030800672
I0403 16:06:34.821789 17078 layer_factory.hpp:77] Creating layer inception_4c/relu_1x1
I0403 16:06:34.821815 17078 net.cpp:91] Creating Layer inception_4c/relu_1x1
I0403 16:06:34.821836 17078 net.cpp:425] inception_4c/relu_1x1 <- inception_4c/1x1
I0403 16:06:34.821858 17078 net.cpp:386] inception_4c/relu_1x1 -> inception_4c/1x1 (in-place)
I0403 16:06:34.822085 17078 net.cpp:141] Setting up inception_4c/relu_1x1
I0403 16:06:34.822119 17078 net.cpp:148] Top shape: 24 128 14 14 (602112)
I0403 16:06:34.822140 17078 net.cpp:156] Memory required for data: 1033209120
I0403 16:06:34.822159 17078 layer_factory.hpp:77] Creating layer inception_4c/3x3_reduce
I0403 16:06:34.822187 17078 net.cpp:91] Creating Layer inception_4c/3x3_reduce
I0403 16:06:34.822209 17078 net.cpp:425] inception_4c/3x3_reduce <- inception_4b/output_inception_4b/output_0_split_1
I0403 16:06:34.822233 17078 net.cpp:399] inception_4c/3x3_reduce -> inception_4c/3x3_reduce
I0403 16:06:34.824625 17078 net.cpp:141] Setting up inception_4c/3x3_reduce
I0403 16:06:34.824664 17078 net.cpp:148] Top shape: 24 128 14 14 (602112)
I0403 16:06:34.824687 17078 net.cpp:156] Memory required for data: 1035617568
I0403 16:06:34.824710 17078 layer_factory.hpp:77] Creating layer inception_4c/relu_3x3_reduce
I0403 16:06:34.824733 17078 net.cpp:91] Creating Layer inception_4c/relu_3x3_reduce
I0403 16:06:34.824753 17078 net.cpp:425] inception_4c/relu_3x3_reduce <- inception_4c/3x3_reduce
I0403 16:06:34.824777 17078 net.cpp:386] inception_4c/relu_3x3_reduce -> inception_4c/3x3_reduce (in-place)
I0403 16:06:34.825126 17078 net.cpp:141] Setting up inception_4c/relu_3x3_reduce
I0403 16:06:34.825161 17078 net.cpp:148] Top shape: 24 128 14 14 (602112)
I0403 16:06:34.825181 17078 net.cpp:156] Memory required for data: 1038026016
I0403 16:06:34.825199 17078 layer_factory.hpp:77] Creating layer inception_4c/3x3
I0403 16:06:34.825228 17078 net.cpp:91] Creating Layer inception_4c/3x3
I0403 16:06:34.825251 17078 net.cpp:425] inception_4c/3x3 <- inception_4c/3x3_reduce
I0403 16:06:34.825274 17078 net.cpp:399] inception_4c/3x3 -> inception_4c/3x3
I0403 16:06:34.829674 17078 net.cpp:141] Setting up inception_4c/3x3
I0403 16:06:34.829725 17078 net.cpp:148] Top shape: 24 256 14 14 (1204224)
I0403 16:06:34.829747 17078 net.cpp:156] Memory required for data: 1042842912
I0403 16:06:34.829787 17078 layer_factory.hpp:77] Creating layer inception_4c/relu_3x3
I0403 16:06:34.829813 17078 net.cpp:91] Creating Layer inception_4c/relu_3x3
I0403 16:06:34.829833 17078 net.cpp:425] inception_4c/relu_3x3 <- inception_4c/3x3
I0403 16:06:34.829855 17078 net.cpp:386] inception_4c/relu_3x3 -> inception_4c/3x3 (in-place)
I0403 16:06:34.830085 17078 net.cpp:141] Setting up inception_4c/relu_3x3
I0403 16:06:34.830117 17078 net.cpp:148] Top shape: 24 256 14 14 (1204224)
I0403 16:06:34.830137 17078 net.cpp:156] Memory required for data: 1047659808
I0403 16:06:34.830154 17078 layer_factory.hpp:77] Creating layer inception_4c/5x5_reduce
I0403 16:06:34.830183 17078 net.cpp:91] Creating Layer inception_4c/5x5_reduce
I0403 16:06:34.830205 17078 net.cpp:425] inception_4c/5x5_reduce <- inception_4b/output_inception_4b/output_0_split_2
I0403 16:06:34.830231 17078 net.cpp:399] inception_4c/5x5_reduce -> inception_4c/5x5_reduce
I0403 16:06:34.831581 17078 net.cpp:141] Setting up inception_4c/5x5_reduce
I0403 16:06:34.831617 17078 net.cpp:148] Top shape: 24 24 14 14 (112896)
I0403 16:06:34.831637 17078 net.cpp:156] Memory required for data: 1048111392
I0403 16:06:34.831660 17078 layer_factory.hpp:77] Creating layer inception_4c/relu_5x5_reduce
I0403 16:06:34.831682 17078 net.cpp:91] Creating Layer inception_4c/relu_5x5_reduce
I0403 16:06:34.831703 17078 net.cpp:425] inception_4c/relu_5x5_reduce <- inception_4c/5x5_reduce
I0403 16:06:34.831727 17078 net.cpp:386] inception_4c/relu_5x5_reduce -> inception_4c/5x5_reduce (in-place)
I0403 16:06:34.831959 17078 net.cpp:141] Setting up inception_4c/relu_5x5_reduce
I0403 16:06:34.831990 17078 net.cpp:148] Top shape: 24 24 14 14 (112896)
I0403 16:06:34.832008 17078 net.cpp:156] Memory required for data: 1048562976
I0403 16:06:34.832026 17078 layer_factory.hpp:77] Creating layer inception_4c/5x5
I0403 16:06:34.832053 17078 net.cpp:91] Creating Layer inception_4c/5x5
I0403 16:06:34.832077 17078 net.cpp:425] inception_4c/5x5 <- inception_4c/5x5_reduce
I0403 16:06:34.832103 17078 net.cpp:399] inception_4c/5x5 -> inception_4c/5x5
I0403 16:06:34.833643 17078 net.cpp:141] Setting up inception_4c/5x5
I0403 16:06:34.833678 17078 net.cpp:148] Top shape: 24 64 14 14 (301056)
I0403 16:06:34.833698 17078 net.cpp:156] Memory required for data: 1049767200
I0403 16:06:34.833721 17078 layer_factory.hpp:77] Creating layer inception_4c/relu_5x5
I0403 16:06:34.833746 17078 net.cpp:91] Creating Layer inception_4c/relu_5x5
I0403 16:06:34.833768 17078 net.cpp:425] inception_4c/relu_5x5 <- inception_4c/5x5
I0403 16:06:34.833791 17078 net.cpp:386] inception_4c/relu_5x5 -> inception_4c/5x5 (in-place)
I0403 16:06:34.834146 17078 net.cpp:141] Setting up inception_4c/relu_5x5
I0403 16:06:34.834180 17078 net.cpp:148] Top shape: 24 64 14 14 (301056)
I0403 16:06:34.834199 17078 net.cpp:156] Memory required for data: 1050971424
I0403 16:06:34.834218 17078 layer_factory.hpp:77] Creating layer inception_4c/pool
I0403 16:06:34.834244 17078 net.cpp:91] Creating Layer inception_4c/pool
I0403 16:06:34.834265 17078 net.cpp:425] inception_4c/pool <- inception_4b/output_inception_4b/output_0_split_3
I0403 16:06:34.834288 17078 net.cpp:399] inception_4c/pool -> inception_4c/pool
I0403 16:06:34.834370 17078 net.cpp:141] Setting up inception_4c/pool
I0403 16:06:34.834400 17078 net.cpp:148] Top shape: 24 512 14 14 (2408448)
I0403 16:06:34.834419 17078 net.cpp:156] Memory required for data: 1060605216
I0403 16:06:34.834437 17078 layer_factory.hpp:77] Creating layer inception_4c/pool_proj
I0403 16:06:34.834465 17078 net.cpp:91] Creating Layer inception_4c/pool_proj
I0403 16:06:34.834487 17078 net.cpp:425] inception_4c/pool_proj <- inception_4c/pool
I0403 16:06:34.834512 17078 net.cpp:399] inception_4c/pool_proj -> inception_4c/pool_proj
I0403 16:06:34.836037 17078 net.cpp:141] Setting up inception_4c/pool_proj
I0403 16:06:34.836072 17078 net.cpp:148] Top shape: 24 64 14 14 (301056)
I0403 16:06:34.836108 17078 net.cpp:156] Memory required for data: 1061809440
I0403 16:06:34.836133 17078 layer_factory.hpp:77] Creating layer inception_4c/relu_pool_proj
I0403 16:06:34.836156 17078 net.cpp:91] Creating Layer inception_4c/relu_pool_proj
I0403 16:06:34.836176 17078 net.cpp:425] inception_4c/relu_pool_proj <- inception_4c/pool_proj
I0403 16:06:34.836200 17078 net.cpp:386] inception_4c/relu_pool_proj -> inception_4c/pool_proj (in-place)
I0403 16:06:34.836431 17078 net.cpp:141] Setting up inception_4c/relu_pool_proj
I0403 16:06:34.836462 17078 net.cpp:148] Top shape: 24 64 14 14 (301056)
I0403 16:06:34.836480 17078 net.cpp:156] Memory required for data: 1063013664
I0403 16:06:34.836498 17078 layer_factory.hpp:77] Creating layer inception_4c/output
I0403 16:06:34.836522 17078 net.cpp:91] Creating Layer inception_4c/output
I0403 16:06:34.836544 17078 net.cpp:425] inception_4c/output <- inception_4c/1x1
I0403 16:06:34.836563 17078 net.cpp:425] inception_4c/output <- inception_4c/3x3
I0403 16:06:34.836592 17078 net.cpp:425] inception_4c/output <- inception_4c/5x5
I0403 16:06:34.836613 17078 net.cpp:425] inception_4c/output <- inception_4c/pool_proj
I0403 16:06:34.836635 17078 net.cpp:399] inception_4c/output -> inception_4c/output
I0403 16:06:34.836691 17078 net.cpp:141] Setting up inception_4c/output
I0403 16:06:34.836724 17078 net.cpp:148] Top shape: 24 512 14 14 (2408448)
I0403 16:06:34.836742 17078 net.cpp:156] Memory required for data: 1072647456
I0403 16:06:34.836761 17078 layer_factory.hpp:77] Creating layer inception_4c/output_inception_4c/output_0_split
I0403 16:06:34.836783 17078 net.cpp:91] Creating Layer inception_4c/output_inception_4c/output_0_split
I0403 16:06:34.836802 17078 net.cpp:425] inception_4c/output_inception_4c/output_0_split <- inception_4c/output
I0403 16:06:34.836827 17078 net.cpp:399] inception_4c/output_inception_4c/output_0_split -> inception_4c/output_inception_4c/output_0_split_0
I0403 16:06:34.836853 17078 net.cpp:399] inception_4c/output_inception_4c/output_0_split -> inception_4c/output_inception_4c/output_0_split_1
I0403 16:06:34.836879 17078 net.cpp:399] inception_4c/output_inception_4c/output_0_split -> inception_4c/output_inception_4c/output_0_split_2
I0403 16:06:34.836904 17078 net.cpp:399] inception_4c/output_inception_4c/output_0_split -> inception_4c/output_inception_4c/output_0_split_3
I0403 16:06:34.837007 17078 net.cpp:141] Setting up inception_4c/output_inception_4c/output_0_split
I0403 16:06:34.837039 17078 net.cpp:148] Top shape: 24 512 14 14 (2408448)
I0403 16:06:34.837060 17078 net.cpp:148] Top shape: 24 512 14 14 (2408448)
I0403 16:06:34.837080 17078 net.cpp:148] Top shape: 24 512 14 14 (2408448)
I0403 16:06:34.837100 17078 net.cpp:148] Top shape: 24 512 14 14 (2408448)
I0403 16:06:34.837116 17078 net.cpp:156] Memory required for data: 1111182624
I0403 16:06:34.837133 17078 layer_factory.hpp:77] Creating layer inception_4d/1x1
I0403 16:06:34.837162 17078 net.cpp:91] Creating Layer inception_4d/1x1
I0403 16:06:34.837184 17078 net.cpp:425] inception_4d/1x1 <- inception_4c/output_inception_4c/output_0_split_0
I0403 16:06:34.837208 17078 net.cpp:399] inception_4d/1x1 -> inception_4d/1x1
I0403 16:06:34.838919 17078 net.cpp:141] Setting up inception_4d/1x1
I0403 16:06:34.838958 17078 net.cpp:148] Top shape: 24 112 14 14 (526848)
I0403 16:06:34.838978 17078 net.cpp:156] Memory required for data: 1113290016
I0403 16:06:34.839001 17078 layer_factory.hpp:77] Creating layer inception_4d/relu_1x1
I0403 16:06:34.839025 17078 net.cpp:91] Creating Layer inception_4d/relu_1x1
I0403 16:06:34.839045 17078 net.cpp:425] inception_4d/relu_1x1 <- inception_4d/1x1
I0403 16:06:34.839064 17078 net.cpp:386] inception_4d/relu_1x1 -> inception_4d/1x1 (in-place)
I0403 16:06:34.839293 17078 net.cpp:141] Setting up inception_4d/relu_1x1
I0403 16:06:34.839326 17078 net.cpp:148] Top shape: 24 112 14 14 (526848)
I0403 16:06:34.839346 17078 net.cpp:156] Memory required for data: 1115397408
I0403 16:06:34.839365 17078 layer_factory.hpp:77] Creating layer inception_4d/3x3_reduce
I0403 16:06:34.839411 17078 net.cpp:91] Creating Layer inception_4d/3x3_reduce
I0403 16:06:34.839433 17078 net.cpp:425] inception_4d/3x3_reduce <- inception_4c/output_inception_4c/output_0_split_1
I0403 16:06:34.839459 17078 net.cpp:399] inception_4d/3x3_reduce -> inception_4d/3x3_reduce
I0403 16:06:34.841330 17078 net.cpp:141] Setting up inception_4d/3x3_reduce
I0403 16:06:34.841364 17078 net.cpp:148] Top shape: 24 144 14 14 (677376)
I0403 16:06:34.841384 17078 net.cpp:156] Memory required for data: 1118106912
I0403 16:06:34.841408 17078 layer_factory.hpp:77] Creating layer inception_4d/relu_3x3_reduce
I0403 16:06:34.841434 17078 net.cpp:91] Creating Layer inception_4d/relu_3x3_reduce
I0403 16:06:34.841456 17078 net.cpp:425] inception_4d/relu_3x3_reduce <- inception_4d/3x3_reduce
I0403 16:06:34.841478 17078 net.cpp:386] inception_4d/relu_3x3_reduce -> inception_4d/3x3_reduce (in-place)
I0403 16:06:34.841838 17078 net.cpp:141] Setting up inception_4d/relu_3x3_reduce
I0403 16:06:34.841871 17078 net.cpp:148] Top shape: 24 144 14 14 (677376)
I0403 16:06:34.841891 17078 net.cpp:156] Memory required for data: 1120816416
I0403 16:06:34.841909 17078 layer_factory.hpp:77] Creating layer inception_4d/3x3
I0403 16:06:34.841936 17078 net.cpp:91] Creating Layer inception_4d/3x3
I0403 16:06:34.841958 17078 net.cpp:425] inception_4d/3x3 <- inception_4d/3x3_reduce
I0403 16:06:34.841984 17078 net.cpp:399] inception_4d/3x3 -> inception_4d/3x3
I0403 16:06:34.847254 17078 net.cpp:141] Setting up inception_4d/3x3
I0403 16:06:34.847293 17078 net.cpp:148] Top shape: 24 288 14 14 (1354752)
I0403 16:06:34.847314 17078 net.cpp:156] Memory required for data: 1126235424
I0403 16:06:34.847338 17078 layer_factory.hpp:77] Creating layer inception_4d/relu_3x3
I0403 16:06:34.847360 17078 net.cpp:91] Creating Layer inception_4d/relu_3x3
I0403 16:06:34.847380 17078 net.cpp:425] inception_4d/relu_3x3 <- inception_4d/3x3
I0403 16:06:34.847405 17078 net.cpp:386] inception_4d/relu_3x3 -> inception_4d/3x3 (in-place)
I0403 16:06:34.847645 17078 net.cpp:141] Setting up inception_4d/relu_3x3
I0403 16:06:34.847678 17078 net.cpp:148] Top shape: 24 288 14 14 (1354752)
I0403 16:06:34.847697 17078 net.cpp:156] Memory required for data: 1131654432
I0403 16:06:34.847714 17078 layer_factory.hpp:77] Creating layer inception_4d/5x5_reduce
I0403 16:06:34.847743 17078 net.cpp:91] Creating Layer inception_4d/5x5_reduce
I0403 16:06:34.847765 17078 net.cpp:425] inception_4d/5x5_reduce <- inception_4c/output_inception_4c/output_0_split_2
I0403 16:06:34.847792 17078 net.cpp:399] inception_4d/5x5_reduce -> inception_4d/5x5_reduce
I0403 16:06:34.849203 17078 net.cpp:141] Setting up inception_4d/5x5_reduce
I0403 16:06:34.849241 17078 net.cpp:148] Top shape: 24 32 14 14 (150528)
I0403 16:06:34.849262 17078 net.cpp:156] Memory required for data: 1132256544
I0403 16:06:34.849285 17078 layer_factory.hpp:77] Creating layer inception_4d/relu_5x5_reduce
I0403 16:06:34.849309 17078 net.cpp:91] Creating Layer inception_4d/relu_5x5_reduce
I0403 16:06:34.849330 17078 net.cpp:425] inception_4d/relu_5x5_reduce <- inception_4d/5x5_reduce
I0403 16:06:34.849352 17078 net.cpp:386] inception_4d/relu_5x5_reduce -> inception_4d/5x5_reduce (in-place)
I0403 16:06:34.849596 17078 net.cpp:141] Setting up inception_4d/relu_5x5_reduce
I0403 16:06:34.849628 17078 net.cpp:148] Top shape: 24 32 14 14 (150528)
I0403 16:06:34.849647 17078 net.cpp:156] Memory required for data: 1132858656
I0403 16:06:34.849666 17078 layer_factory.hpp:77] Creating layer inception_4d/5x5
I0403 16:06:34.849694 17078 net.cpp:91] Creating Layer inception_4d/5x5
I0403 16:06:34.849717 17078 net.cpp:425] inception_4d/5x5 <- inception_4d/5x5_reduce
I0403 16:06:34.849743 17078 net.cpp:399] inception_4d/5x5 -> inception_4d/5x5
I0403 16:06:34.851538 17078 net.cpp:141] Setting up inception_4d/5x5
I0403 16:06:34.851579 17078 net.cpp:148] Top shape: 24 64 14 14 (301056)
I0403 16:06:34.851601 17078 net.cpp:156] Memory required for data: 1134062880
I0403 16:06:34.851625 17078 layer_factory.hpp:77] Creating layer inception_4d/relu_5x5
I0403 16:06:34.851668 17078 net.cpp:91] Creating Layer inception_4d/relu_5x5
I0403 16:06:34.851691 17078 net.cpp:425] inception_4d/relu_5x5 <- inception_4d/5x5
I0403 16:06:34.851712 17078 net.cpp:386] inception_4d/relu_5x5 -> inception_4d/5x5 (in-place)
I0403 16:06:34.852082 17078 net.cpp:141] Setting up inception_4d/relu_5x5
I0403 16:06:34.852116 17078 net.cpp:148] Top shape: 24 64 14 14 (301056)
I0403 16:06:34.852135 17078 net.cpp:156] Memory required for data: 1135267104
I0403 16:06:34.852154 17078 layer_factory.hpp:77] Creating layer inception_4d/pool
I0403 16:06:34.852175 17078 net.cpp:91] Creating Layer inception_4d/pool
I0403 16:06:34.852200 17078 net.cpp:425] inception_4d/pool <- inception_4c/output_inception_4c/output_0_split_3
I0403 16:06:34.852223 17078 net.cpp:399] inception_4d/pool -> inception_4d/pool
I0403 16:06:34.852305 17078 net.cpp:141] Setting up inception_4d/pool
I0403 16:06:34.852335 17078 net.cpp:148] Top shape: 24 512 14 14 (2408448)
I0403 16:06:34.852355 17078 net.cpp:156] Memory required for data: 1144900896
I0403 16:06:34.852372 17078 layer_factory.hpp:77] Creating layer inception_4d/pool_proj
I0403 16:06:34.852401 17078 net.cpp:91] Creating Layer inception_4d/pool_proj
I0403 16:06:34.852423 17078 net.cpp:425] inception_4d/pool_proj <- inception_4d/pool
I0403 16:06:34.852449 17078 net.cpp:399] inception_4d/pool_proj -> inception_4d/pool_proj
I0403 16:06:34.854616 17078 net.cpp:141] Setting up inception_4d/pool_proj
I0403 16:06:34.854656 17078 net.cpp:148] Top shape: 24 64 14 14 (301056)
I0403 16:06:34.854677 17078 net.cpp:156] Memory required for data: 1146105120
I0403 16:06:34.854701 17078 layer_factory.hpp:77] Creating layer inception_4d/relu_pool_proj
I0403 16:06:34.854725 17078 net.cpp:91] Creating Layer inception_4d/relu_pool_proj
I0403 16:06:34.854745 17078 net.cpp:425] inception_4d/relu_pool_proj <- inception_4d/pool_proj
I0403 16:06:34.854769 17078 net.cpp:386] inception_4d/relu_pool_proj -> inception_4d/pool_proj (in-place)
I0403 16:06:34.854998 17078 net.cpp:141] Setting up inception_4d/relu_pool_proj
I0403 16:06:34.855031 17078 net.cpp:148] Top shape: 24 64 14 14 (301056)
I0403 16:06:34.855049 17078 net.cpp:156] Memory required for data: 1147309344
I0403 16:06:34.855068 17078 layer_factory.hpp:77] Creating layer inception_4d/output
I0403 16:06:34.855089 17078 net.cpp:91] Creating Layer inception_4d/output
I0403 16:06:34.855109 17078 net.cpp:425] inception_4d/output <- inception_4d/1x1
I0403 16:06:34.855129 17078 net.cpp:425] inception_4d/output <- inception_4d/3x3
I0403 16:06:34.855149 17078 net.cpp:425] inception_4d/output <- inception_4d/5x5
I0403 16:06:34.855170 17078 net.cpp:425] inception_4d/output <- inception_4d/pool_proj
I0403 16:06:34.855193 17078 net.cpp:399] inception_4d/output -> inception_4d/output
I0403 16:06:34.855252 17078 net.cpp:141] Setting up inception_4d/output
I0403 16:06:34.855284 17078 net.cpp:148] Top shape: 24 528 14 14 (2483712)
I0403 16:06:34.855304 17078 net.cpp:156] Memory required for data: 1157244192
I0403 16:06:34.855324 17078 layer_factory.hpp:77] Creating layer inception_4d/output_inception_4d/output_0_split
I0403 16:06:34.855345 17078 net.cpp:91] Creating Layer inception_4d/output_inception_4d/output_0_split
I0403 16:06:34.855365 17078 net.cpp:425] inception_4d/output_inception_4d/output_0_split <- inception_4d/output
I0403 16:06:34.855386 17078 net.cpp:399] inception_4d/output_inception_4d/output_0_split -> inception_4d/output_inception_4d/output_0_split_0
I0403 16:06:34.855413 17078 net.cpp:399] inception_4d/output_inception_4d/output_0_split -> inception_4d/output_inception_4d/output_0_split_1
I0403 16:06:34.855442 17078 net.cpp:399] inception_4d/output_inception_4d/output_0_split -> inception_4d/output_inception_4d/output_0_split_2
I0403 16:06:34.855468 17078 net.cpp:399] inception_4d/output_inception_4d/output_0_split -> inception_4d/output_inception_4d/output_0_split_3
I0403 16:06:34.855494 17078 net.cpp:399] inception_4d/output_inception_4d/output_0_split -> inception_4d/output_inception_4d/output_0_split_4
I0403 16:06:34.855630 17078 net.cpp:141] Setting up inception_4d/output_inception_4d/output_0_split
I0403 16:06:34.855675 17078 net.cpp:148] Top shape: 24 528 14 14 (2483712)
I0403 16:06:34.855705 17078 net.cpp:148] Top shape: 24 528 14 14 (2483712)
I0403 16:06:34.855726 17078 net.cpp:148] Top shape: 24 528 14 14 (2483712)
I0403 16:06:34.855744 17078 net.cpp:148] Top shape: 24 528 14 14 (2483712)
I0403 16:06:34.855764 17078 net.cpp:148] Top shape: 24 528 14 14 (2483712)
I0403 16:06:34.855782 17078 net.cpp:156] Memory required for data: 1206918432
I0403 16:06:34.855800 17078 layer_factory.hpp:77] Creating layer loss2/ave_pool
I0403 16:06:34.855823 17078 net.cpp:91] Creating Layer loss2/ave_pool
I0403 16:06:34.855842 17078 net.cpp:425] loss2/ave_pool <- inception_4d/output_inception_4d/output_0_split_0
I0403 16:06:34.855865 17078 net.cpp:399] loss2/ave_pool -> loss2/ave_pool
I0403 16:06:34.856248 17078 net.cpp:141] Setting up loss2/ave_pool
I0403 16:06:34.856284 17078 net.cpp:148] Top shape: 24 528 4 4 (202752)
I0403 16:06:34.856305 17078 net.cpp:156] Memory required for data: 1207729440
I0403 16:06:34.856324 17078 layer_factory.hpp:77] Creating layer loss2/conv
I0403 16:06:34.856353 17078 net.cpp:91] Creating Layer loss2/conv
I0403 16:06:34.856375 17078 net.cpp:425] loss2/conv <- loss2/ave_pool
I0403 16:06:34.856400 17078 net.cpp:399] loss2/conv -> loss2/conv
I0403 16:06:34.858716 17078 net.cpp:141] Setting up loss2/conv
I0403 16:06:34.858752 17078 net.cpp:148] Top shape: 24 128 4 4 (49152)
I0403 16:06:34.858772 17078 net.cpp:156] Memory required for data: 1207926048
I0403 16:06:34.858795 17078 layer_factory.hpp:77] Creating layer loss2/relu_conv
I0403 16:06:34.858821 17078 net.cpp:91] Creating Layer loss2/relu_conv
I0403 16:06:34.858842 17078 net.cpp:425] loss2/relu_conv <- loss2/conv
I0403 16:06:34.858865 17078 net.cpp:386] loss2/relu_conv -> loss2/conv (in-place)
I0403 16:06:34.859212 17078 net.cpp:141] Setting up loss2/relu_conv
I0403 16:06:34.859246 17078 net.cpp:148] Top shape: 24 128 4 4 (49152)
I0403 16:06:34.859266 17078 net.cpp:156] Memory required for data: 1208122656
I0403 16:06:34.859283 17078 layer_factory.hpp:77] Creating layer loss2/fc
I0403 16:06:34.859309 17078 net.cpp:91] Creating Layer loss2/fc
I0403 16:06:34.859331 17078 net.cpp:425] loss2/fc <- loss2/conv
I0403 16:06:34.859355 17078 net.cpp:399] loss2/fc -> loss2/fc
I0403 16:06:34.881224 17078 net.cpp:141] Setting up loss2/fc
I0403 16:06:34.881265 17078 net.cpp:148] Top shape: 24 1024 (24576)
I0403 16:06:34.881285 17078 net.cpp:156] Memory required for data: 1208220960
I0403 16:06:34.881309 17078 layer_factory.hpp:77] Creating layer loss2/relu_fc
I0403 16:06:34.881331 17078 net.cpp:91] Creating Layer loss2/relu_fc
I0403 16:06:34.881351 17078 net.cpp:425] loss2/relu_fc <- loss2/fc
I0403 16:06:34.881376 17078 net.cpp:386] loss2/relu_fc -> loss2/fc (in-place)
I0403 16:06:34.881748 17078 net.cpp:141] Setting up loss2/relu_fc
I0403 16:06:34.881781 17078 net.cpp:148] Top shape: 24 1024 (24576)
I0403 16:06:34.881800 17078 net.cpp:156] Memory required for data: 1208319264
I0403 16:06:34.881819 17078 layer_factory.hpp:77] Creating layer loss2/drop_fc
I0403 16:06:34.881842 17078 net.cpp:91] Creating Layer loss2/drop_fc
I0403 16:06:34.881862 17078 net.cpp:425] loss2/drop_fc <- loss2/fc
I0403 16:06:34.881886 17078 net.cpp:386] loss2/drop_fc -> loss2/fc (in-place)
I0403 16:06:34.881947 17078 net.cpp:141] Setting up loss2/drop_fc
I0403 16:06:34.881976 17078 net.cpp:148] Top shape: 24 1024 (24576)
I0403 16:06:34.881994 17078 net.cpp:156] Memory required for data: 1208417568
I0403 16:06:34.882014 17078 layer_factory.hpp:77] Creating layer loss2/classifier_plantvillage
I0403 16:06:34.882038 17078 net.cpp:91] Creating Layer loss2/classifier_plantvillage
I0403 16:06:34.882060 17078 net.cpp:425] loss2/classifier_plantvillage <- loss2/fc
I0403 16:06:34.882086 17078 net.cpp:399] loss2/classifier_plantvillage -> loss2/classifier_plantvillage
I0403 16:06:34.882591 17078 net.cpp:141] Setting up loss2/classifier_plantvillage
I0403 16:06:34.882622 17078 net.cpp:148] Top shape: 24 38 (912)
I0403 16:06:34.882642 17078 net.cpp:156] Memory required for data: 1208421216
I0403 16:06:34.882686 17078 layer_factory.hpp:77] Creating layer loss2/classifier_plantvillage_loss2/classifier_plantvillage_0_split
I0403 16:06:34.882711 17078 net.cpp:91] Creating Layer loss2/classifier_plantvillage_loss2/classifier_plantvillage_0_split
I0403 16:06:34.882731 17078 net.cpp:425] loss2/classifier_plantvillage_loss2/classifier_plantvillage_0_split <- loss2/classifier_plantvillage
I0403 16:06:34.882755 17078 net.cpp:399] loss2/classifier_plantvillage_loss2/classifier_plantvillage_0_split -> loss2/classifier_plantvillage_loss2/classifier_plantvillage_0_split_0
I0403 16:06:34.882781 17078 net.cpp:399] loss2/classifier_plantvillage_loss2/classifier_plantvillage_0_split -> loss2/classifier_plantvillage_loss2/classifier_plantvillage_0_split_1
I0403 16:06:34.882807 17078 net.cpp:399] loss2/classifier_plantvillage_loss2/classifier_plantvillage_0_split -> loss2/classifier_plantvillage_loss2/classifier_plantvillage_0_split_2
I0403 16:06:34.882905 17078 net.cpp:141] Setting up loss2/classifier_plantvillage_loss2/classifier_plantvillage_0_split
I0403 16:06:34.882935 17078 net.cpp:148] Top shape: 24 38 (912)
I0403 16:06:34.882956 17078 net.cpp:148] Top shape: 24 38 (912)
I0403 16:06:34.882974 17078 net.cpp:148] Top shape: 24 38 (912)
I0403 16:06:34.882992 17078 net.cpp:156] Memory required for data: 1208432160
I0403 16:06:34.883010 17078 layer_factory.hpp:77] Creating layer inception_4e/1x1
I0403 16:06:34.883038 17078 net.cpp:91] Creating Layer inception_4e/1x1
I0403 16:06:34.883061 17078 net.cpp:425] inception_4e/1x1 <- inception_4d/output_inception_4d/output_0_split_1
I0403 16:06:34.883085 17078 net.cpp:399] inception_4e/1x1 -> inception_4e/1x1
I0403 16:06:34.885340 17078 net.cpp:141] Setting up inception_4e/1x1
I0403 16:06:34.885376 17078 net.cpp:148] Top shape: 24 256 14 14 (1204224)
I0403 16:06:34.885396 17078 net.cpp:156] Memory required for data: 1213249056
I0403 16:06:34.885419 17078 layer_factory.hpp:77] Creating layer inception_4e/relu_1x1
I0403 16:06:34.885444 17078 net.cpp:91] Creating Layer inception_4e/relu_1x1
I0403 16:06:34.885467 17078 net.cpp:425] inception_4e/relu_1x1 <- inception_4e/1x1
I0403 16:06:34.885488 17078 net.cpp:386] inception_4e/relu_1x1 -> inception_4e/1x1 (in-place)
I0403 16:06:34.885859 17078 net.cpp:141] Setting up inception_4e/relu_1x1
I0403 16:06:34.885891 17078 net.cpp:148] Top shape: 24 256 14 14 (1204224)
I0403 16:06:34.885911 17078 net.cpp:156] Memory required for data: 1218065952
I0403 16:06:34.885931 17078 layer_factory.hpp:77] Creating layer inception_4e/3x3_reduce
I0403 16:06:34.885957 17078 net.cpp:91] Creating Layer inception_4e/3x3_reduce
I0403 16:06:34.885980 17078 net.cpp:425] inception_4e/3x3_reduce <- inception_4d/output_inception_4d/output_0_split_2
I0403 16:06:34.886006 17078 net.cpp:399] inception_4e/3x3_reduce -> inception_4e/3x3_reduce
I0403 16:06:34.888605 17078 net.cpp:141] Setting up inception_4e/3x3_reduce
I0403 16:06:34.888641 17078 net.cpp:148] Top shape: 24 160 14 14 (752640)
I0403 16:06:34.888661 17078 net.cpp:156] Memory required for data: 1221076512
I0403 16:06:34.888685 17078 layer_factory.hpp:77] Creating layer inception_4e/relu_3x3_reduce
I0403 16:06:34.888708 17078 net.cpp:91] Creating Layer inception_4e/relu_3x3_reduce
I0403 16:06:34.888728 17078 net.cpp:425] inception_4e/relu_3x3_reduce <- inception_4e/3x3_reduce
I0403 16:06:34.888752 17078 net.cpp:386] inception_4e/relu_3x3_reduce -> inception_4e/3x3_reduce (in-place)
I0403 16:06:34.888985 17078 net.cpp:141] Setting up inception_4e/relu_3x3_reduce
I0403 16:06:34.889017 17078 net.cpp:148] Top shape: 24 160 14 14 (752640)
I0403 16:06:34.889036 17078 net.cpp:156] Memory required for data: 1224087072
I0403 16:06:34.889055 17078 layer_factory.hpp:77] Creating layer inception_4e/3x3
I0403 16:06:34.889082 17078 net.cpp:91] Creating Layer inception_4e/3x3
I0403 16:06:34.889104 17078 net.cpp:425] inception_4e/3x3 <- inception_4e/3x3_reduce
I0403 16:06:34.889130 17078 net.cpp:399] inception_4e/3x3 -> inception_4e/3x3
I0403 16:06:34.895318 17078 net.cpp:141] Setting up inception_4e/3x3
I0403 16:06:34.895369 17078 net.cpp:148] Top shape: 24 320 14 14 (1505280)
I0403 16:06:34.895390 17078 net.cpp:156] Memory required for data: 1230108192
I0403 16:06:34.895413 17078 layer_factory.hpp:77] Creating layer inception_4e/relu_3x3
I0403 16:06:34.895439 17078 net.cpp:91] Creating Layer inception_4e/relu_3x3
I0403 16:06:34.895460 17078 net.cpp:425] inception_4e/relu_3x3 <- inception_4e/3x3
I0403 16:06:34.895483 17078 net.cpp:386] inception_4e/relu_3x3 -> inception_4e/3x3 (in-place)
I0403 16:06:34.895859 17078 net.cpp:141] Setting up inception_4e/relu_3x3
I0403 16:06:34.895895 17078 net.cpp:148] Top shape: 24 320 14 14 (1505280)
I0403 16:06:34.895915 17078 net.cpp:156] Memory required for data: 1236129312
I0403 16:06:34.895934 17078 layer_factory.hpp:77] Creating layer inception_4e/5x5_reduce
I0403 16:06:34.895963 17078 net.cpp:91] Creating Layer inception_4e/5x5_reduce
I0403 16:06:34.895985 17078 net.cpp:425] inception_4e/5x5_reduce <- inception_4d/output_inception_4d/output_0_split_3
I0403 16:06:34.896010 17078 net.cpp:399] inception_4e/5x5_reduce -> inception_4e/5x5_reduce
I0403 16:06:34.897338 17078 net.cpp:141] Setting up inception_4e/5x5_reduce
I0403 16:06:34.897372 17078 net.cpp:148] Top shape: 24 32 14 14 (150528)
I0403 16:06:34.897392 17078 net.cpp:156] Memory required for data: 1236731424
I0403 16:06:34.897415 17078 layer_factory.hpp:77] Creating layer inception_4e/relu_5x5_reduce
I0403 16:06:34.897441 17078 net.cpp:91] Creating Layer inception_4e/relu_5x5_reduce
I0403 16:06:34.897464 17078 net.cpp:425] inception_4e/relu_5x5_reduce <- inception_4e/5x5_reduce
I0403 16:06:34.897485 17078 net.cpp:386] inception_4e/relu_5x5_reduce -> inception_4e/5x5_reduce (in-place)
I0403 16:06:34.897853 17078 net.cpp:141] Setting up inception_4e/relu_5x5_reduce
I0403 16:06:34.897886 17078 net.cpp:148] Top shape: 24 32 14 14 (150528)
I0403 16:06:34.897905 17078 net.cpp:156] Memory required for data: 1237333536
I0403 16:06:34.897924 17078 layer_factory.hpp:77] Creating layer inception_4e/5x5
I0403 16:06:34.897972 17078 net.cpp:91] Creating Layer inception_4e/5x5
I0403 16:06:34.897996 17078 net.cpp:425] inception_4e/5x5 <- inception_4e/5x5_reduce
I0403 16:06:34.898020 17078 net.cpp:399] inception_4e/5x5 -> inception_4e/5x5
I0403 16:06:34.900282 17078 net.cpp:141] Setting up inception_4e/5x5
I0403 16:06:34.900320 17078 net.cpp:148] Top shape: 24 128 14 14 (602112)
I0403 16:06:34.900341 17078 net.cpp:156] Memory required for data: 1239741984
I0403 16:06:34.900364 17078 layer_factory.hpp:77] Creating layer inception_4e/relu_5x5
I0403 16:06:34.900388 17078 net.cpp:91] Creating Layer inception_4e/relu_5x5
I0403 16:06:34.900409 17078 net.cpp:425] inception_4e/relu_5x5 <- inception_4e/5x5
I0403 16:06:34.900434 17078 net.cpp:386] inception_4e/relu_5x5 -> inception_4e/5x5 (in-place)
I0403 16:06:34.900686 17078 net.cpp:141] Setting up inception_4e/relu_5x5
I0403 16:06:34.900719 17078 net.cpp:148] Top shape: 24 128 14 14 (602112)
I0403 16:06:34.900738 17078 net.cpp:156] Memory required for data: 1242150432
I0403 16:06:34.900755 17078 layer_factory.hpp:77] Creating layer inception_4e/pool
I0403 16:06:34.900779 17078 net.cpp:91] Creating Layer inception_4e/pool
I0403 16:06:34.900799 17078 net.cpp:425] inception_4e/pool <- inception_4d/output_inception_4d/output_0_split_4
I0403 16:06:34.900823 17078 net.cpp:399] inception_4e/pool -> inception_4e/pool
I0403 16:06:34.900910 17078 net.cpp:141] Setting up inception_4e/pool
I0403 16:06:34.900940 17078 net.cpp:148] Top shape: 24 528 14 14 (2483712)
I0403 16:06:34.900959 17078 net.cpp:156] Memory required for data: 1252085280
I0403 16:06:34.900977 17078 layer_factory.hpp:77] Creating layer inception_4e/pool_proj
I0403 16:06:34.901005 17078 net.cpp:91] Creating Layer inception_4e/pool_proj
I0403 16:06:34.901027 17078 net.cpp:425] inception_4e/pool_proj <- inception_4e/pool
I0403 16:06:34.901051 17078 net.cpp:399] inception_4e/pool_proj -> inception_4e/pool_proj
I0403 16:06:34.902915 17078 net.cpp:141] Setting up inception_4e/pool_proj
I0403 16:06:34.902956 17078 net.cpp:148] Top shape: 24 128 14 14 (602112)
I0403 16:06:34.902994 17078 net.cpp:156] Memory required for data: 1254493728
I0403 16:06:34.903018 17078 layer_factory.hpp:77] Creating layer inception_4e/relu_pool_proj
I0403 16:06:34.903041 17078 net.cpp:91] Creating Layer inception_4e/relu_pool_proj
I0403 16:06:34.903062 17078 net.cpp:425] inception_4e/relu_pool_proj <- inception_4e/pool_proj
I0403 16:06:34.903086 17078 net.cpp:386] inception_4e/relu_pool_proj -> inception_4e/pool_proj (in-place)
I0403 16:06:34.903445 17078 net.cpp:141] Setting up inception_4e/relu_pool_proj
I0403 16:06:34.903482 17078 net.cpp:148] Top shape: 24 128 14 14 (602112)
I0403 16:06:34.903503 17078 net.cpp:156] Memory required for data: 1256902176
I0403 16:06:34.903522 17078 layer_factory.hpp:77] Creating layer inception_4e/output
I0403 16:06:34.903544 17078 net.cpp:91] Creating Layer inception_4e/output
I0403 16:06:34.903563 17078 net.cpp:425] inception_4e/output <- inception_4e/1x1
I0403 16:06:34.903591 17078 net.cpp:425] inception_4e/output <- inception_4e/3x3
I0403 16:06:34.903614 17078 net.cpp:425] inception_4e/output <- inception_4e/5x5
I0403 16:06:34.903635 17078 net.cpp:425] inception_4e/output <- inception_4e/pool_proj
I0403 16:06:34.903658 17078 net.cpp:399] inception_4e/output -> inception_4e/output
I0403 16:06:34.903720 17078 net.cpp:141] Setting up inception_4e/output
I0403 16:06:34.903749 17078 net.cpp:148] Top shape: 24 832 14 14 (3913728)
I0403 16:06:34.903767 17078 net.cpp:156] Memory required for data: 1272557088
I0403 16:06:34.903785 17078 layer_factory.hpp:77] Creating layer pool4/3x3_s2
I0403 16:06:34.903810 17078 net.cpp:91] Creating Layer pool4/3x3_s2
I0403 16:06:34.903831 17078 net.cpp:425] pool4/3x3_s2 <- inception_4e/output
I0403 16:06:34.903853 17078 net.cpp:399] pool4/3x3_s2 -> pool4/3x3_s2
I0403 16:06:34.903939 17078 net.cpp:141] Setting up pool4/3x3_s2
I0403 16:06:34.903969 17078 net.cpp:148] Top shape: 24 832 7 7 (978432)
I0403 16:06:34.903987 17078 net.cpp:156] Memory required for data: 1276470816
I0403 16:06:34.904006 17078 layer_factory.hpp:77] Creating layer pool4/3x3_s2_pool4/3x3_s2_0_split
I0403 16:06:34.904026 17078 net.cpp:91] Creating Layer pool4/3x3_s2_pool4/3x3_s2_0_split
I0403 16:06:34.904044 17078 net.cpp:425] pool4/3x3_s2_pool4/3x3_s2_0_split <- pool4/3x3_s2
I0403 16:06:34.904068 17078 net.cpp:399] pool4/3x3_s2_pool4/3x3_s2_0_split -> pool4/3x3_s2_pool4/3x3_s2_0_split_0
I0403 16:06:34.904094 17078 net.cpp:399] pool4/3x3_s2_pool4/3x3_s2_0_split -> pool4/3x3_s2_pool4/3x3_s2_0_split_1
I0403 16:06:34.904119 17078 net.cpp:399] pool4/3x3_s2_pool4/3x3_s2_0_split -> pool4/3x3_s2_pool4/3x3_s2_0_split_2
I0403 16:06:34.904145 17078 net.cpp:399] pool4/3x3_s2_pool4/3x3_s2_0_split -> pool4/3x3_s2_pool4/3x3_s2_0_split_3
I0403 16:06:34.904256 17078 net.cpp:141] Setting up pool4/3x3_s2_pool4/3x3_s2_0_split
I0403 16:06:34.904286 17078 net.cpp:148] Top shape: 24 832 7 7 (978432)
I0403 16:06:34.904306 17078 net.cpp:148] Top shape: 24 832 7 7 (978432)
I0403 16:06:34.904325 17078 net.cpp:148] Top shape: 24 832 7 7 (978432)
I0403 16:06:34.904345 17078 net.cpp:148] Top shape: 24 832 7 7 (978432)
I0403 16:06:34.904362 17078 net.cpp:156] Memory required for data: 1292125728
I0403 16:06:34.904381 17078 layer_factory.hpp:77] Creating layer inception_5a/1x1
I0403 16:06:34.904408 17078 net.cpp:91] Creating Layer inception_5a/1x1
I0403 16:06:34.904430 17078 net.cpp:425] inception_5a/1x1 <- pool4/3x3_s2_pool4/3x3_s2_0_split_0
I0403 16:06:34.904456 17078 net.cpp:399] inception_5a/1x1 -> inception_5a/1x1
I0403 16:06:34.907963 17078 net.cpp:141] Setting up inception_5a/1x1
I0403 16:06:34.908000 17078 net.cpp:148] Top shape: 24 256 7 7 (301056)
I0403 16:06:34.908020 17078 net.cpp:156] Memory required for data: 1293329952
I0403 16:06:34.908044 17078 layer_factory.hpp:77] Creating layer inception_5a/relu_1x1
I0403 16:06:34.908066 17078 net.cpp:91] Creating Layer inception_5a/relu_1x1
I0403 16:06:34.908087 17078 net.cpp:425] inception_5a/relu_1x1 <- inception_5a/1x1
I0403 16:06:34.908110 17078 net.cpp:386] inception_5a/relu_1x1 -> inception_5a/1x1 (in-place)
I0403 16:06:34.908493 17078 net.cpp:141] Setting up inception_5a/relu_1x1
I0403 16:06:34.908525 17078 net.cpp:148] Top shape: 24 256 7 7 (301056)
I0403 16:06:34.908545 17078 net.cpp:156] Memory required for data: 1294534176
I0403 16:06:34.908563 17078 layer_factory.hpp:77] Creating layer inception_5a/3x3_reduce
I0403 16:06:34.908599 17078 net.cpp:91] Creating Layer inception_5a/3x3_reduce
I0403 16:06:34.908623 17078 net.cpp:425] inception_5a/3x3_reduce <- pool4/3x3_s2_pool4/3x3_s2_0_split_1
I0403 16:06:34.908649 17078 net.cpp:399] inception_5a/3x3_reduce -> inception_5a/3x3_reduce
I0403 16:06:34.911658 17078 net.cpp:141] Setting up inception_5a/3x3_reduce
I0403 16:06:34.911695 17078 net.cpp:148] Top shape: 24 160 7 7 (188160)
I0403 16:06:34.911715 17078 net.cpp:156] Memory required for data: 1295286816
I0403 16:06:34.911738 17078 layer_factory.hpp:77] Creating layer inception_5a/relu_3x3_reduce
I0403 16:06:34.911763 17078 net.cpp:91] Creating Layer inception_5a/relu_3x3_reduce
I0403 16:06:34.911785 17078 net.cpp:425] inception_5a/relu_3x3_reduce <- inception_5a/3x3_reduce
I0403 16:06:34.911808 17078 net.cpp:386] inception_5a/relu_3x3_reduce -> inception_5a/3x3_reduce (in-place)
I0403 16:06:34.912041 17078 net.cpp:141] Setting up inception_5a/relu_3x3_reduce
I0403 16:06:34.912073 17078 net.cpp:148] Top shape: 24 160 7 7 (188160)
I0403 16:06:34.912092 17078 net.cpp:156] Memory required for data: 1296039456
I0403 16:06:34.912111 17078 layer_factory.hpp:77] Creating layer inception_5a/3x3
I0403 16:06:34.912140 17078 net.cpp:91] Creating Layer inception_5a/3x3
I0403 16:06:34.912163 17078 net.cpp:425] inception_5a/3x3 <- inception_5a/3x3_reduce
I0403 16:06:34.912192 17078 net.cpp:399] inception_5a/3x3 -> inception_5a/3x3
I0403 16:06:34.918443 17078 net.cpp:141] Setting up inception_5a/3x3
I0403 16:06:34.918483 17078 net.cpp:148] Top shape: 24 320 7 7 (376320)
I0403 16:06:34.918504 17078 net.cpp:156] Memory required for data: 1297544736
I0403 16:06:34.918529 17078 layer_factory.hpp:77] Creating layer inception_5a/relu_3x3
I0403 16:06:34.918552 17078 net.cpp:91] Creating Layer inception_5a/relu_3x3
I0403 16:06:34.918579 17078 net.cpp:425] inception_5a/relu_3x3 <- inception_5a/3x3
I0403 16:06:34.918607 17078 net.cpp:386] inception_5a/relu_3x3 -> inception_5a/3x3 (in-place)
I0403 16:06:34.918970 17078 net.cpp:141] Setting up inception_5a/relu_3x3
I0403 16:06:34.919006 17078 net.cpp:148] Top shape: 24 320 7 7 (376320)
I0403 16:06:34.919028 17078 net.cpp:156] Memory required for data: 1299050016
I0403 16:06:34.919045 17078 layer_factory.hpp:77] Creating layer inception_5a/5x5_reduce
I0403 16:06:34.919075 17078 net.cpp:91] Creating Layer inception_5a/5x5_reduce
I0403 16:06:34.919098 17078 net.cpp:425] inception_5a/5x5_reduce <- pool4/3x3_s2_pool4/3x3_s2_0_split_2
I0403 16:06:34.919127 17078 net.cpp:399] inception_5a/5x5_reduce -> inception_5a/5x5_reduce
I0403 16:06:34.920569 17078 net.cpp:141] Setting up inception_5a/5x5_reduce
I0403 16:06:34.920611 17078 net.cpp:148] Top shape: 24 32 7 7 (37632)
I0403 16:06:34.920631 17078 net.cpp:156] Memory required for data: 1299200544
I0403 16:06:34.920655 17078 layer_factory.hpp:77] Creating layer inception_5a/relu_5x5_reduce
I0403 16:06:34.920677 17078 net.cpp:91] Creating Layer inception_5a/relu_5x5_reduce
I0403 16:06:34.920698 17078 net.cpp:425] inception_5a/relu_5x5_reduce <- inception_5a/5x5_reduce
I0403 16:06:34.920723 17078 net.cpp:386] inception_5a/relu_5x5_reduce -> inception_5a/5x5_reduce (in-place)
I0403 16:06:34.921089 17078 net.cpp:141] Setting up inception_5a/relu_5x5_reduce
I0403 16:06:34.921123 17078 net.cpp:148] Top shape: 24 32 7 7 (37632)
I0403 16:06:34.921141 17078 net.cpp:156] Memory required for data: 1299351072
I0403 16:06:34.921160 17078 layer_factory.hpp:77] Creating layer inception_5a/5x5
I0403 16:06:34.921187 17078 net.cpp:91] Creating Layer inception_5a/5x5
I0403 16:06:34.921211 17078 net.cpp:425] inception_5a/5x5 <- inception_5a/5x5_reduce
I0403 16:06:34.921237 17078 net.cpp:399] inception_5a/5x5 -> inception_5a/5x5
I0403 16:06:34.923362 17078 net.cpp:141] Setting up inception_5a/5x5
I0403 16:06:34.923413 17078 net.cpp:148] Top shape: 24 128 7 7 (150528)
I0403 16:06:34.923434 17078 net.cpp:156] Memory required for data: 1299953184
I0403 16:06:34.923457 17078 layer_factory.hpp:77] Creating layer inception_5a/relu_5x5
I0403 16:06:34.923480 17078 net.cpp:91] Creating Layer inception_5a/relu_5x5
I0403 16:06:34.923501 17078 net.cpp:425] inception_5a/relu_5x5 <- inception_5a/5x5
I0403 16:06:34.923524 17078 net.cpp:386] inception_5a/relu_5x5 -> inception_5a/5x5 (in-place)
I0403 16:06:34.923768 17078 net.cpp:141] Setting up inception_5a/relu_5x5
I0403 16:06:34.923800 17078 net.cpp:148] Top shape: 24 128 7 7 (150528)
I0403 16:06:34.923820 17078 net.cpp:156] Memory required for data: 1300555296
I0403 16:06:34.923838 17078 layer_factory.hpp:77] Creating layer inception_5a/pool
I0403 16:06:34.923861 17078 net.cpp:91] Creating Layer inception_5a/pool
I0403 16:06:34.923880 17078 net.cpp:425] inception_5a/pool <- pool4/3x3_s2_pool4/3x3_s2_0_split_3
I0403 16:06:34.923905 17078 net.cpp:399] inception_5a/pool -> inception_5a/pool
I0403 16:06:34.923996 17078 net.cpp:141] Setting up inception_5a/pool
I0403 16:06:34.924027 17078 net.cpp:148] Top shape: 24 832 7 7 (978432)
I0403 16:06:34.924047 17078 net.cpp:156] Memory required for data: 1304469024
I0403 16:06:34.924064 17078 layer_factory.hpp:77] Creating layer inception_5a/pool_proj
I0403 16:06:34.924094 17078 net.cpp:91] Creating Layer inception_5a/pool_proj
I0403 16:06:34.924118 17078 net.cpp:425] inception_5a/pool_proj <- inception_5a/pool
I0403 16:06:34.924144 17078 net.cpp:399] inception_5a/pool_proj -> inception_5a/pool_proj
I0403 16:06:34.926955 17078 net.cpp:141] Setting up inception_5a/pool_proj
I0403 16:06:34.926995 17078 net.cpp:148] Top shape: 24 128 7 7 (150528)
I0403 16:06:34.927016 17078 net.cpp:156] Memory required for data: 1305071136
I0403 16:06:34.927037 17078 layer_factory.hpp:77] Creating layer inception_5a/relu_pool_proj
I0403 16:06:34.927059 17078 net.cpp:91] Creating Layer inception_5a/relu_pool_proj
I0403 16:06:34.927079 17078 net.cpp:425] inception_5a/relu_pool_proj <- inception_5a/pool_proj
I0403 16:06:34.927101 17078 net.cpp:386] inception_5a/relu_pool_proj -> inception_5a/pool_proj (in-place)
I0403 16:06:34.927462 17078 net.cpp:141] Setting up inception_5a/relu_pool_proj
I0403 16:06:34.927500 17078 net.cpp:148] Top shape: 24 128 7 7 (150528)
I0403 16:06:34.927520 17078 net.cpp:156] Memory required for data: 1305673248
I0403 16:06:34.927537 17078 layer_factory.hpp:77] Creating layer inception_5a/output
I0403 16:06:34.927559 17078 net.cpp:91] Creating Layer inception_5a/output
I0403 16:06:34.927587 17078 net.cpp:425] inception_5a/output <- inception_5a/1x1
I0403 16:06:34.927608 17078 net.cpp:425] inception_5a/output <- inception_5a/3x3
I0403 16:06:34.927628 17078 net.cpp:425] inception_5a/output <- inception_5a/5x5
I0403 16:06:34.927649 17078 net.cpp:425] inception_5a/output <- inception_5a/pool_proj
I0403 16:06:34.927669 17078 net.cpp:399] inception_5a/output -> inception_5a/output
I0403 16:06:34.927732 17078 net.cpp:141] Setting up inception_5a/output
I0403 16:06:34.927762 17078 net.cpp:148] Top shape: 24 832 7 7 (978432)
I0403 16:06:34.927781 17078 net.cpp:156] Memory required for data: 1309586976
I0403 16:06:34.927800 17078 layer_factory.hpp:77] Creating layer inception_5a/output_inception_5a/output_0_split
I0403 16:06:34.927824 17078 net.cpp:91] Creating Layer inception_5a/output_inception_5a/output_0_split
I0403 16:06:34.927844 17078 net.cpp:425] inception_5a/output_inception_5a/output_0_split <- inception_5a/output
I0403 16:06:34.927866 17078 net.cpp:399] inception_5a/output_inception_5a/output_0_split -> inception_5a/output_inception_5a/output_0_split_0
I0403 16:06:34.927891 17078 net.cpp:399] inception_5a/output_inception_5a/output_0_split -> inception_5a/output_inception_5a/output_0_split_1
I0403 16:06:34.927918 17078 net.cpp:399] inception_5a/output_inception_5a/output_0_split -> inception_5a/output_inception_5a/output_0_split_2
I0403 16:06:34.927944 17078 net.cpp:399] inception_5a/output_inception_5a/output_0_split -> inception_5a/output_inception_5a/output_0_split_3
I0403 16:06:34.928086 17078 net.cpp:141] Setting up inception_5a/output_inception_5a/output_0_split
I0403 16:06:34.928114 17078 net.cpp:148] Top shape: 24 832 7 7 (978432)
I0403 16:06:34.928135 17078 net.cpp:148] Top shape: 24 832 7 7 (978432)
I0403 16:06:34.928155 17078 net.cpp:148] Top shape: 24 832 7 7 (978432)
I0403 16:06:34.928175 17078 net.cpp:148] Top shape: 24 832 7 7 (978432)
I0403 16:06:34.928194 17078 net.cpp:156] Memory required for data: 1325241888
I0403 16:06:34.928211 17078 layer_factory.hpp:77] Creating layer inception_5b/1x1
I0403 16:06:34.928239 17078 net.cpp:91] Creating Layer inception_5b/1x1
I0403 16:06:34.928261 17078 net.cpp:425] inception_5b/1x1 <- inception_5a/output_inception_5a/output_0_split_0
I0403 16:06:34.928287 17078 net.cpp:399] inception_5b/1x1 -> inception_5b/1x1
I0403 16:06:34.932904 17078 net.cpp:141] Setting up inception_5b/1x1
I0403 16:06:34.932940 17078 net.cpp:148] Top shape: 24 384 7 7 (451584)
I0403 16:06:34.932961 17078 net.cpp:156] Memory required for data: 1327048224
I0403 16:06:34.932984 17078 layer_factory.hpp:77] Creating layer inception_5b/relu_1x1
I0403 16:06:34.933010 17078 net.cpp:91] Creating Layer inception_5b/relu_1x1
I0403 16:06:34.933032 17078 net.cpp:425] inception_5b/relu_1x1 <- inception_5b/1x1
I0403 16:06:34.933053 17078 net.cpp:386] inception_5b/relu_1x1 -> inception_5b/1x1 (in-place)
I0403 16:06:34.933432 17078 net.cpp:141] Setting up inception_5b/relu_1x1
I0403 16:06:34.933465 17078 net.cpp:148] Top shape: 24 384 7 7 (451584)
I0403 16:06:34.933485 17078 net.cpp:156] Memory required for data: 1328854560
I0403 16:06:34.933503 17078 layer_factory.hpp:77] Creating layer inception_5b/3x3_reduce
I0403 16:06:34.933534 17078 net.cpp:91] Creating Layer inception_5b/3x3_reduce
I0403 16:06:34.933557 17078 net.cpp:425] inception_5b/3x3_reduce <- inception_5a/output_inception_5a/output_0_split_1
I0403 16:06:34.933590 17078 net.cpp:399] inception_5b/3x3_reduce -> inception_5b/3x3_reduce
I0403 16:06:34.936852 17078 net.cpp:141] Setting up inception_5b/3x3_reduce
I0403 16:06:34.936892 17078 net.cpp:148] Top shape: 24 192 7 7 (225792)
I0403 16:06:34.936913 17078 net.cpp:156] Memory required for data: 1329757728
I0403 16:06:34.936936 17078 layer_factory.hpp:77] Creating layer inception_5b/relu_3x3_reduce
I0403 16:06:34.936959 17078 net.cpp:91] Creating Layer inception_5b/relu_3x3_reduce
I0403 16:06:34.936980 17078 net.cpp:425] inception_5b/relu_3x3_reduce <- inception_5b/3x3_reduce
I0403 16:06:34.937003 17078 net.cpp:386] inception_5b/relu_3x3_reduce -> inception_5b/3x3_reduce (in-place)
I0403 16:06:34.937247 17078 net.cpp:141] Setting up inception_5b/relu_3x3_reduce
I0403 16:06:34.937278 17078 net.cpp:148] Top shape: 24 192 7 7 (225792)
I0403 16:06:34.937297 17078 net.cpp:156] Memory required for data: 1330660896
I0403 16:06:34.937316 17078 layer_factory.hpp:77] Creating layer inception_5b/3x3
I0403 16:06:34.937345 17078 net.cpp:91] Creating Layer inception_5b/3x3
I0403 16:06:34.937368 17078 net.cpp:425] inception_5b/3x3 <- inception_5b/3x3_reduce
I0403 16:06:34.937396 17078 net.cpp:399] inception_5b/3x3 -> inception_5b/3x3
I0403 16:06:34.945741 17078 net.cpp:141] Setting up inception_5b/3x3
I0403 16:06:34.945780 17078 net.cpp:148] Top shape: 24 384 7 7 (451584)
I0403 16:06:34.945801 17078 net.cpp:156] Memory required for data: 1332467232
I0403 16:06:34.945825 17078 layer_factory.hpp:77] Creating layer inception_5b/relu_3x3
I0403 16:06:34.945849 17078 net.cpp:91] Creating Layer inception_5b/relu_3x3
I0403 16:06:34.945869 17078 net.cpp:425] inception_5b/relu_3x3 <- inception_5b/3x3
I0403 16:06:34.945894 17078 net.cpp:386] inception_5b/relu_3x3 -> inception_5b/3x3 (in-place)
I0403 16:06:34.946259 17078 net.cpp:141] Setting up inception_5b/relu_3x3
I0403 16:06:34.946305 17078 net.cpp:148] Top shape: 24 384 7 7 (451584)
I0403 16:06:34.946323 17078 net.cpp:156] Memory required for data: 1334273568
I0403 16:06:34.946343 17078 layer_factory.hpp:77] Creating layer inception_5b/5x5_reduce
I0403 16:06:34.946390 17078 net.cpp:91] Creating Layer inception_5b/5x5_reduce
I0403 16:06:34.946414 17078 net.cpp:425] inception_5b/5x5_reduce <- inception_5a/output_inception_5a/output_0_split_2
I0403 16:06:34.946439 17078 net.cpp:399] inception_5b/5x5_reduce -> inception_5b/5x5_reduce
I0403 16:06:34.948031 17078 net.cpp:141] Setting up inception_5b/5x5_reduce
I0403 16:06:34.948068 17078 net.cpp:148] Top shape: 24 48 7 7 (56448)
I0403 16:06:34.948091 17078 net.cpp:156] Memory required for data: 1334499360
I0403 16:06:34.948114 17078 layer_factory.hpp:77] Creating layer inception_5b/relu_5x5_reduce
I0403 16:06:34.948137 17078 net.cpp:91] Creating Layer inception_5b/relu_5x5_reduce
I0403 16:06:34.948158 17078 net.cpp:425] inception_5b/relu_5x5_reduce <- inception_5b/5x5_reduce
I0403 16:06:34.948182 17078 net.cpp:386] inception_5b/relu_5x5_reduce -> inception_5b/5x5_reduce (in-place)
I0403 16:06:34.948649 17078 net.cpp:141] Setting up inception_5b/relu_5x5_reduce
I0403 16:06:34.948683 17078 net.cpp:148] Top shape: 24 48 7 7 (56448)
I0403 16:06:34.948703 17078 net.cpp:156] Memory required for data: 1334725152
I0403 16:06:34.948721 17078 layer_factory.hpp:77] Creating layer inception_5b/5x5
I0403 16:06:34.948747 17078 net.cpp:91] Creating Layer inception_5b/5x5
I0403 16:06:34.948768 17078 net.cpp:425] inception_5b/5x5 <- inception_5b/5x5_reduce
I0403 16:06:34.948792 17078 net.cpp:399] inception_5b/5x5 -> inception_5b/5x5
I0403 16:06:34.951328 17078 net.cpp:141] Setting up inception_5b/5x5
I0403 16:06:34.951362 17078 net.cpp:148] Top shape: 24 128 7 7 (150528)
I0403 16:06:34.951383 17078 net.cpp:156] Memory required for data: 1335327264
I0403 16:06:34.951406 17078 layer_factory.hpp:77] Creating layer inception_5b/relu_5x5
I0403 16:06:34.951428 17078 net.cpp:91] Creating Layer inception_5b/relu_5x5
I0403 16:06:34.951449 17078 net.cpp:425] inception_5b/relu_5x5 <- inception_5b/5x5
I0403 16:06:34.951473 17078 net.cpp:386] inception_5b/relu_5x5 -> inception_5b/5x5 (in-place)
I0403 16:06:34.951721 17078 net.cpp:141] Setting up inception_5b/relu_5x5
I0403 16:06:34.951753 17078 net.cpp:148] Top shape: 24 128 7 7 (150528)
I0403 16:06:34.951772 17078 net.cpp:156] Memory required for data: 1335929376
I0403 16:06:34.951791 17078 layer_factory.hpp:77] Creating layer inception_5b/pool
I0403 16:06:34.951815 17078 net.cpp:91] Creating Layer inception_5b/pool
I0403 16:06:34.951838 17078 net.cpp:425] inception_5b/pool <- inception_5a/output_inception_5a/output_0_split_3
I0403 16:06:34.951860 17078 net.cpp:399] inception_5b/pool -> inception_5b/pool
I0403 16:06:34.951951 17078 net.cpp:141] Setting up inception_5b/pool
I0403 16:06:34.951982 17078 net.cpp:148] Top shape: 24 832 7 7 (978432)
I0403 16:06:34.952002 17078 net.cpp:156] Memory required for data: 1339843104
I0403 16:06:34.952019 17078 layer_factory.hpp:77] Creating layer inception_5b/pool_proj
I0403 16:06:34.952046 17078 net.cpp:91] Creating Layer inception_5b/pool_proj
I0403 16:06:34.952069 17078 net.cpp:425] inception_5b/pool_proj <- inception_5b/pool
I0403 16:06:34.952100 17078 net.cpp:399] inception_5b/pool_proj -> inception_5b/pool_proj
I0403 16:06:34.954929 17078 net.cpp:141] Setting up inception_5b/pool_proj
I0403 16:06:34.954968 17078 net.cpp:148] Top shape: 24 128 7 7 (150528)
I0403 16:06:34.954990 17078 net.cpp:156] Memory required for data: 1340445216
I0403 16:06:34.955014 17078 layer_factory.hpp:77] Creating layer inception_5b/relu_pool_proj
I0403 16:06:34.955037 17078 net.cpp:91] Creating Layer inception_5b/relu_pool_proj
I0403 16:06:34.955059 17078 net.cpp:425] inception_5b/relu_pool_proj <- inception_5b/pool_proj
I0403 16:06:34.955083 17078 net.cpp:386] inception_5b/relu_pool_proj -> inception_5b/pool_proj (in-place)
I0403 16:06:34.955446 17078 net.cpp:141] Setting up inception_5b/relu_pool_proj
I0403 16:06:34.955481 17078 net.cpp:148] Top shape: 24 128 7 7 (150528)
I0403 16:06:34.955500 17078 net.cpp:156] Memory required for data: 1341047328
I0403 16:06:34.955519 17078 layer_factory.hpp:77] Creating layer inception_5b/output
I0403 16:06:34.955541 17078 net.cpp:91] Creating Layer inception_5b/output
I0403 16:06:34.955587 17078 net.cpp:425] inception_5b/output <- inception_5b/1x1
I0403 16:06:34.955610 17078 net.cpp:425] inception_5b/output <- inception_5b/3x3
I0403 16:06:34.955632 17078 net.cpp:425] inception_5b/output <- inception_5b/5x5
I0403 16:06:34.955652 17078 net.cpp:425] inception_5b/output <- inception_5b/pool_proj
I0403 16:06:34.955677 17078 net.cpp:399] inception_5b/output -> inception_5b/output
I0403 16:06:34.955742 17078 net.cpp:141] Setting up inception_5b/output
I0403 16:06:34.955771 17078 net.cpp:148] Top shape: 24 1024 7 7 (1204224)
I0403 16:06:34.955790 17078 net.cpp:156] Memory required for data: 1345864224
I0403 16:06:34.955808 17078 layer_factory.hpp:77] Creating layer pool5/7x7_s1
I0403 16:06:34.955834 17078 net.cpp:91] Creating Layer pool5/7x7_s1
I0403 16:06:34.955857 17078 net.cpp:425] pool5/7x7_s1 <- inception_5b/output
I0403 16:06:34.955881 17078 net.cpp:399] pool5/7x7_s1 -> pool5/7x7_s1
I0403 16:06:34.956154 17078 net.cpp:141] Setting up pool5/7x7_s1
I0403 16:06:34.956187 17078 net.cpp:148] Top shape: 24 1024 1 1 (24576)
I0403 16:06:34.956207 17078 net.cpp:156] Memory required for data: 1345962528
I0403 16:06:34.956225 17078 layer_factory.hpp:77] Creating layer pool5/drop_7x7_s1
I0403 16:06:34.956248 17078 net.cpp:91] Creating Layer pool5/drop_7x7_s1
I0403 16:06:34.956269 17078 net.cpp:425] pool5/drop_7x7_s1 <- pool5/7x7_s1
I0403 16:06:34.956293 17078 net.cpp:386] pool5/drop_7x7_s1 -> pool5/7x7_s1 (in-place)
I0403 16:06:34.956356 17078 net.cpp:141] Setting up pool5/drop_7x7_s1
I0403 16:06:34.956384 17078 net.cpp:148] Top shape: 24 1024 1 1 (24576)
I0403 16:06:34.956403 17078 net.cpp:156] Memory required for data: 1346060832
I0403 16:06:34.956421 17078 layer_factory.hpp:77] Creating layer loss3/classifier_plantvillage
I0403 16:06:34.956447 17078 net.cpp:91] Creating Layer loss3/classifier_plantvillage
I0403 16:06:34.956470 17078 net.cpp:425] loss3/classifier_plantvillage <- pool5/7x7_s1
I0403 16:06:34.956496 17078 net.cpp:399] loss3/classifier_plantvillage -> loss3/classifier_plantvillage
I0403 16:06:34.957029 17078 net.cpp:141] Setting up loss3/classifier_plantvillage
I0403 16:06:34.957062 17078 net.cpp:148] Top shape: 24 38 (912)
I0403 16:06:34.957080 17078 net.cpp:156] Memory required for data: 1346064480
I0403 16:06:34.957103 17078 layer_factory.hpp:77] Creating layer loss3/classifier_plantvillage_loss3/classifier_plantvillage_0_split
I0403 16:06:34.957129 17078 net.cpp:91] Creating Layer loss3/classifier_plantvillage_loss3/classifier_plantvillage_0_split
I0403 16:06:34.957149 17078 net.cpp:425] loss3/classifier_plantvillage_loss3/classifier_plantvillage_0_split <- loss3/classifier_plantvillage
I0403 16:06:34.957171 17078 net.cpp:399] loss3/classifier_plantvillage_loss3/classifier_plantvillage_0_split -> loss3/classifier_plantvillage_loss3/classifier_plantvillage_0_split_0
I0403 16:06:34.957195 17078 net.cpp:399] loss3/classifier_plantvillage_loss3/classifier_plantvillage_0_split -> loss3/classifier_plantvillage_loss3/classifier_plantvillage_0_split_1
I0403 16:06:34.957221 17078 net.cpp:399] loss3/classifier_plantvillage_loss3/classifier_plantvillage_0_split -> loss3/classifier_plantvillage_loss3/classifier_plantvillage_0_split_2
I0403 16:06:34.957247 17078 net.cpp:399] loss3/classifier_plantvillage_loss3/classifier_plantvillage_0_split -> loss3/classifier_plantvillage_loss3/classifier_plantvillage_0_split_3
I0403 16:06:34.957376 17078 net.cpp:141] Setting up loss3/classifier_plantvillage_loss3/classifier_plantvillage_0_split
I0403 16:06:34.957404 17078 net.cpp:148] Top shape: 24 38 (912)
I0403 16:06:34.957424 17078 net.cpp:148] Top shape: 24 38 (912)
I0403 16:06:34.957442 17078 net.cpp:148] Top shape: 24 38 (912)
I0403 16:06:34.957461 17078 net.cpp:148] Top shape: 24 38 (912)
I0403 16:06:34.957479 17078 net.cpp:156] Memory required for data: 1346079072
I0403 16:06:34.957496 17078 layer_factory.hpp:77] Creating layer loss1/loss
I0403 16:06:34.957521 17078 net.cpp:91] Creating Layer loss1/loss
I0403 16:06:34.957545 17078 net.cpp:425] loss1/loss <- loss1/classifier_plantvillage_loss1/classifier_plantvillage_0_split_0
I0403 16:06:34.957589 17078 net.cpp:425] loss1/loss <- label_data_1_split_0
…
