…
I0403 17:03:39.658187 20422 net.cpp:313] The NetState phase (1) differed from the phase (0) specified by a rule in layer data
I0403 17:03:39.659308 20422 net.cpp:49] Initializing net from parameters: 
state {
  phase: TEST
}
layer {
  name: "data"
  type: "Data"
  top: "data"
  top: "label"
  include {
    phase: TEST
  }
  transform_param {
    mirror: false
    crop_size: 224
    mean_file: "/home/mohanty/data/final_dataset/lmdb/color-20-80/mean.binaryproto"
  }
  data_param {
    source: "/home/mohanty/data/final_dataset/lmdb/color-20-80/test_db"
    batch_size: 24
    backend: LMDB
  }
}
layer {
  name: "conv1/7x7_s2"
  type: "Convolution"
  bottom: "data"
  top: "conv1/7x7_s2"
  param {
    lr_mult: 1
    decay_mult: 1
  }
  param {
    lr_mult: 2
    decay_mult: 0
  }
  convolution_param {
    num_output: 64
    pad: 3
    kernel_size: 7
    stride: 2
    weight_filler {
      type: "xavier"
      std: 0.1
    }
    bias_filler {
      type: "constant"
      value: 0.2
    }
  }
}
layer {
  name: "conv1/relu_7x7"
  type: "ReLU"
  bottom: "conv1/7x7_s2"
  top: "conv1/7x7_s2"
}
layer {
  name: "pool1/3x3_s2"
  type: "Pooling"
  bottom: "conv1/7x7_s2"
  top: "pool1/3x3_s2"
  pooling_param {
    pool: MAX
    kernel_size: 3
    stride: 2
  }
}
layer {
  name: "pool1/norm1"
  type: "LRN"
  bottom: "pool1/3x3_s2"
  top: "pool1/norm1"
  lrn_param {
    local_size: 5
    alpha: 0.0001
    beta: 0.75
  }
}
layer {
  name: "conv2/3x3_reduce"
  type: "Convolution"
  bottom: "pool1/norm1"
  top: "conv2/3x3_reduce"
  param {
    lr_mult: 1
    decay_mult: 1
  }
  param {
    lr_mult: 2
    decay_mult: 0
  }
  convolution_param {
    num_output: 64
    kernel_size: 1
    weight_filler {
      type: "xavier"
      std: 0.1
    }
    bias_filler {
      type: "constant"
      value: 0.2
    }
  }
}
layer {
  name: "conv2/relu_3x3_reduce"
  type: "ReLU"
  bottom: "conv2/3x3_reduce"
  top: "conv2/3x3_reduce"
}
layer {
  name: "conv2/3x3"
  type: "Convolution"
  bottom: "conv2/3x3_reduce"
  top: "conv2/3x3"
  param {
    lr_mult: 1
    decay_mult: 1
  }
  param {
    lr_mult: 2
    decay_mult: 0
  }
  convolution_param {
    num_output: 192
    pad: 1
    kernel_size: 3
    weight_filler {
      type: "xavier"
      std: 0.03
    }
    bias_filler {
      type: "constant"
      value: 0.2
    }
  }
}
layer {
  name: "conv2/relu_3x3"
  type: "ReLU"
  bottom: "conv2/3x3"
  top: "conv2/3x3"
}
layer {
  name: "conv2/norm2"
  type: "LRN"
  bottom: "conv2/3x3"
  top: "conv2/norm2"
  lrn_param {
    local_size: 5
    alpha: 0.0001
    beta: 0.75
  }
}
layer {
  name: "pool2/3x3_s2"
  type: "Pooling"
  bottom: "conv2/norm2"
  top: "pool2/3x3_s2"
  pooling_param {
    pool: MAX
    kernel_size: 3
    stride: 2
  }
}
layer {
  name: "inception_3a/1x1"
  type: "Convolution"
  bottom: "pool2/3x3_s2"
  top: "inception_3a/1x1"
  param {
    lr_mult: 1
    decay_mult: 1
  }
  param {
    lr_mult: 2
    decay_mult: 0
  }
  convolution_param {
    num_output: 64
    kernel_size: 1
    weight_filler {
      type: "xavier"
      std: 0.03
    }
    bias_filler {
      type: "constant"
      value: 0.2
    }
  }
}
layer {
  name: "inception_3a/relu_1x1"
  type: "ReLU"
  bottom: "inception_3a/1x1"
  top: "inception_3a/1x1"
}
layer {
  name: "inception_3a/3x3_reduce"
  type: "Convolution"
  bottom: "pool2/3x3_s2"
  top: "inception_3a/3x3_reduce"
  param {
    lr_mult: 1
    decay_mult: 1
  }
  param {
    lr_mult: 2
    decay_mult: 0
  }
  convolution_param {
    num_output: 96
    kernel_size: 1
    weight_filler {
      type: "xavier"
      std: 0.09
    }
    bias_filler {
      type: "constant"
      value: 0.2
    }
  }
}
layer {
  name: "inception_3a/relu_3x3_reduce"
  type: "ReLU"
  bottom: "inception_3a/3x3_reduce"
  top: "inception_3a/3x3_reduce"
}
layer {
  name: "inception_3a/3x3"
  type: "Convolution"
  bottom: "inception_3a/3x3_reduce"
  top: "inception_3a/3x3"
  param {
    lr_mult: 1
    decay_mult: 1
  }
  param {
    lr_mult: 2
    decay_mult: 0
  }
  convolution_param {
    num_output: 128
    pad: 1
    kernel_size: 3
    weight_filler {
      type: "xavier"
      std: 0.03
    }
    bias_filler {
      type: "constant"
      value: 0.2
    }
  }
}
layer {
  name: "inception_3a/relu_3x3"
  type: "ReLU"
  bottom: "inception_3a/3x3"
  top: "inception_3a/3x3"
}
layer {
  name: "inception_3a/5x5_reduce"
  type: "Convolution"
  bottom: "pool2/3x3_s2"
  top: "inception_3a/5x5_reduce"
  param {
    lr_mult: 1
    decay_mult: 1
  }
  param {
    lr_mult: 2
    decay_mult: 0
  }
  convolution_param {
    num_output: 16
    kernel_size: 1
    weight_filler {
      type: "xavier"
      std: 0.2
    }
    bias_filler {
      type: "constant"
      value: 0.2
    }
  }
}
layer {
  name: "inception_3a/relu_5x5_reduce"
  type: "ReLU"
  bottom: "inception_3a/5x5_reduce"
  top: "inception_3a/5x5_reduce"
}
layer {
  name: "inception_3a/5x5"
  type: "Convolution"
  bottom: "inception_3a/5x5_reduce"
  top: "inception_3a/5x5"
  param {
    lr_mult: 1
    decay_mult: 1
  }
  param {
    lr_mult: 2
    decay_mult: 0
  }
  convolution_param {
    num_output: 32
    pad: 2
    kernel_size: 5
    weight_filler {
      type: "xavier"
      std: 0.03
    }
    bias_filler {
      type: "constant"
      value: 0.2
    }
  }
}
layer {
  name: "inception_3a/relu_5x5"
  type: "ReLU"
  bottom: "inception_3a/5x5"
  top: "inception_3a/5x5"
}
layer {
  name: "inception_3a/pool"
  type: "Pooling"
  bottom: "pool2/3x3_s2"
  top: "inception_3a/pool"
  pooling_param {
    pool: MAX
    kernel_size: 3
    stride: 1
    pad: 1
  }
}
layer {
  name: "inception_3a/pool_proj"
  type: "Convolution"
  bottom: "inception_3a/pool"
  top: "inception_3a/pool_proj"
  param {
    lr_mult: 1
    decay_mult: 1
  }
  param {
    lr_mult: 2
    decay_mult: 0
  }
  convolution_param {
    num_output: 32
    kernel_size: 1
    weight_filler {
      type: "xavier"
      std: 0.1
    }
    bias_filler {
      type: "constant"
      value: 0.2
    }
  }
}
layer {
  name: "inception_3a/relu_pool_proj"
  type: "ReLU"
  bottom: "inception_3a/pool_proj"
  top: "inception_3a/pool_proj"
}
layer {
  name: "inception_3a/output"
  type: "Concat"
  bottom: "inception_3a/1x1"
  bottom: "inception_3a/3x3"
  bottom: "inception_3a/5x5"
  bottom: "inception_3a/pool_proj"
  top: "inception_3a/output"
}
layer {
  name: "inception_3b/1x1"
  type: "Convolution"
  bottom: "inception_3a/output"
  top: "inception_3b/1x1"
  param {
    lr_mult: 1
    decay_mult: 1
  }
  param {
    lr_mult: 2
    decay_mult: 0
  }
  convolution_param {
    num_output: 128
    kernel_size: 1
    weight_filler {
      type: "xavier"
      std: 0.03
    }
    bias_filler {
      type: "constant"
      value: 0.2
    }
  }
}
layer {
  name: "inception_3b/relu_1x1"
  type: "ReLU"
  bottom: "inception_3b/1x1"
  top: "inception_3b/1x1"
}
layer {
  name: "inception_3b/3x3_reduce"
  type: "Convolution"
  bottom: "inception_3a/output"
  top: "inception_3b/3x3_reduce"
  param {
    lr_mult: 1
    decay_mult: 1
  }
  param {
    lr_mult: 2
    decay_mult: 0
  }
  convolution_param {
    num_output: 128
    kernel_size: 1
    weight_filler {
      type: "xavier"
      std: 0.09
    }
    bias_filler {
      type: "constant"
      value: 0.2
    }
  }
}
layer {
  name: "inception_3b/relu_3x3_reduce"
  type: "ReLU"
  bottom: "inception_3b/3x3_reduce"
  top: "inception_3b/3x3_reduce"
}
layer {
  name: "inception_3b/3x3"
  type: "Convolution"
  bottom: "inception_3b/3x3_reduce"
  top: "inception_3b/3x3"
  param {
    lr_mult: 1
    decay_mult: 1
  }
  param {
    lr_mult: 2
    decay_mult: 0
  }
  convolution_param {
    num_output: 192
    pad: 1
    kernel_size: 3
    weight_filler {
      type: "xavier"
      std: 0.03
    }
    bias_filler {
      type: "constant"
      value: 0.2
    }
  }
}
layer {
  name: "inception_3b/relu_3x3"
  type: "ReLU"
  bottom: "inception_3b/3x3"
  top: "inception_3b/3x3"
}
layer {
  name: "inception_3b/5x5_reduce"
  type: "Convolution"
  bottom: "inception_3a/output"
  top: "inception_3b/5x5_reduce"
  param {
    lr_mult: 1
    decay_mult: 1
  }
  param {
    lr_mult: 2
    decay_mult: 0
  }
  convolution_param {
    num_output: 32
    kernel_size: 1
    weight_filler {
      type: "xavier"
      std: 0.2
    }
    bias_filler {
      type: "constant"
      value: 0.2
    }
  }
}
layer {
  name: "inception_3b/relu_5x5_reduce"
  type: "ReLU"
  bottom: "inception_3b/5x5_reduce"
  top: "inception_3b/5x5_reduce"
}
layer {
  name: "inception_3b/5x5"
  type: "Convolution"
  bottom: "inception_3b/5x5_reduce"
  top: "inception_3b/5x5"
  param {
    lr_mult: 1
    decay_mult: 1
  }
  param {
    lr_mult: 2
    decay_mult: 0
  }
  convolution_param {
    num_output: 96
    pad: 2
    kernel_size: 5
    weight_filler {
      type: "xavier"
      std: 0.03
    }
    bias_filler {
      type: "constant"
      value: 0.2
    }
  }
}
layer {
  name: "inception_3b/relu_5x5"
  type: "ReLU"
  bottom: "inception_3b/5x5"
  top: "inception_3b/5x5"
}
layer {
  name: "inception_3b/pool"
  type: "Pooling"
  bottom: "inception_3a/output"
  top: "inception_3b/pool"
  pooling_param {
    pool: MAX
    kernel_size: 3
    stride: 1
    pad: 1
  }
}
layer {
  name: "inception_3b/pool_proj"
  type: "Convolution"
  bottom: "inception_3b/pool"
  top: "inception_3b/pool_proj"
  param {
    lr_mult: 1
    decay_mult: 1
  }
  param {
    lr_mult: 2
    decay_mult: 0
  }
  convolution_param {
    num_output: 64
    kernel_size: 1
    weight_filler {
      type: "xavier"
      std: 0.1
    }
    bias_filler {
      type: "constant"
      value: 0.2
    }
  }
}
layer {
  name: "inception_3b/relu_pool_proj"
  type: "ReLU"
  bottom: "inception_3b/pool_proj"
  top: "inception_3b/pool_proj"
}
layer {
  name: "inception_3b/output"
  type: "Concat"
  bottom: "inception_3b/1x1"
  bottom: "inception_3b/3x3"
  bottom: "inception_3b/5x5"
  bottom: "inception_3b/pool_proj"
  top: "inception_3b/output"
}
layer {
  name: "pool3/3x3_s2"
  type: "Pooling"
  bottom: "inception_3b/output"
  top: "pool3/3x3_s2"
  pooling_param {
    pool: MAX
    kernel_size: 3
    stride: 2
  }
}
layer {
  name: "inception_4a/1x1"
  type: "Convolution"
  bottom: "pool3/3x3_s2"
  top: "inception_4a/1x1"
  param {
    lr_mult: 1
    decay_mult: 1
  }
  param {
    lr_mult: 2
    decay_mult: 0
  }
  convolution_param {
    num_output: 192
    kernel_size: 1
    weight_filler {
      type: "xavier"
      std: 0.03
    }
    bias_filler {
      type: "constant"
      value: 0.2
    }
  }
}
layer {
  name: "inception_4a/relu_1x1"
  type: "ReLU"
  bottom: "inception_4a/1x1"
  top: "inception_4a/1x1"
}
layer {
  name: "inception_4a/3x3_reduce"
  type: "Convolution"
  bottom: "pool3/3x3_s2"
  top: "inception_4a/3x3_reduce"
  param {
    lr_mult: 1
    decay_mult: 1
  }
  param {
    lr_mult: 2
    decay_mult: 0
  }
  convolution_param {
    num_output: 96
    kernel_size: 1
    weight_filler {
      type: "xavier"
      std: 0.09
    }
    bias_filler {
      type: "constant"
      value: 0.2
    }
  }
}
layer {
  name: "inception_4a/relu_3x3_reduce"
  type: "ReLU"
  bottom: "inception_4a/3x3_reduce"
  top: "inception_4a/3x3_reduce"
}
layer {
  name: "inception_4a/3x3"
  type: "Convolution"
  bottom: "inception_4a/3x3_reduce"
  top: "inception_4a/3x3"
  param {
    lr_mult: 1
    decay_mult: 1
  }
  param {
    lr_mult: 2
    decay_mult: 0
  }
  convolution_param {
    num_output: 208
    pad: 1
    kernel_size: 3
    weight_filler {
      type: "xavier"
      std: 0.03
    }
    bias_filler {
      type: "constant"
      value: 0.2
    }
  }
}
layer {
  name: "inception_4a/relu_3x3"
  type: "ReLU"
  bottom: "inception_4a/3x3"
  top: "inception_4a/3x3"
}
layer {
  name: "inception_4a/5x5_reduce"
  type: "Convolution"
  bottom: "pool3/3x3_s2"
  top: "inception_4a/5x5_reduce"
  param {
    lr_mult: 1
    decay_mult: 1
  }
  param {
    lr_mult: 2
    decay_mult: 0
  }
  convolution_param {
    num_output: 16
    kernel_size: 1
    weight_filler {
      type: "xavier"
      std: 0.2
    }
    bias_filler {
      type: "constant"
      value: 0.2
    }
  }
}
layer {
  name: "inception_4a/relu_5x5_reduce"
  type: "ReLU"
  bottom: "inception_4a/5x5_reduce"
  top: "inception_4a/5x5_reduce"
}
layer {
  name: "inception_4a/5x5"
  type: "Convolution"
  bottom: "inception_4a/5x5_reduce"
  top: "inception_4a/5x5"
  param {
    lr_mult: 1
    decay_mult: 1
  }
  param {
    lr_mult: 2
    decay_mult: 0
  }
  convolution_param {
    num_output: 48
    pad: 2
    kernel_size: 5
    weight_filler {
      type: "xavier"
      std: 0.03
    }
    bias_filler {
      type: "constant"
      value: 0.2
    }
  }
}
layer {
  name: "inception_4a/relu_5x5"
  type: "ReLU"
  bottom: "inception_4a/5x5"
  top: "inception_4a/5x5"
}
layer {
  name: "inception_4a/pool"
  type: "Pooling"
  bottom: "pool3/3x3_s2"
  top: "inception_4a/pool"
  pooling_param {
    pool: MAX
    kernel_size: 3
    stride: 1
    pad: 1
  }
}
layer {
  name: "inception_4a/pool_proj"
  type: "Convolution"
  bottom: "inception_4a/pool"
  top: "inception_4a/pool_proj"
  param {
    lr_mult: 1
    decay_mult: 1
  }
  param {
    lr_mult: 2
    decay_mult: 0
  }
  convolution_param {
    num_output: 64
    kernel_size: 1
    weight_filler {
      type: "xavier"
      std: 0.1
    }
    bias_filler {
      type: "constant"
      value: 0.2
    }
  }
}
layer {
  name: "inception_4a/relu_pool_proj"
  type: "ReLU"
  bottom: "inception_4a/pool_proj"
  top: "inception_4a/pool_proj"
}
layer {
  name: "inception_4a/output"
  type: "Concat"
  bottom: "inception_4a/1x1"
  bottom: "inception_4a/3x3"
  bottom: "inception_4a/5x5"
  bottom: "inception_4a/pool_proj"
  top: "inception_4a/output"
}
layer {
  name: "loss1/ave_pool"
  type: "Pooling"
  bottom: "inception_4a/output"
  top: "loss1/ave_pool"
  pooling_param {
    pool: AVE
    kernel_size: 5
    stride: 3
  }
}
layer {
  name: "loss1/conv"
  type: "Convolution"
  bottom: "loss1/ave_pool"
  top: "loss1/conv"
  param {
    lr_mult: 1
    decay_mult: 1
  }
  param {
    lr_mult: 2
    decay_mult: 0
  }
  convolution_param {
    num_output: 128
    kernel_size: 1
    weight_filler {
      type: "xavier"
      std: 0.08
    }
    bias_filler {
      type: "constant"
      value: 0.2
    }
  }
}
layer {
  name: "loss1/relu_conv"
  type: "ReLU"
  bottom: "loss1/conv"
  top: "loss1/conv"
}
layer {
  name: "loss1/fc"
  type: "InnerProduct"
  bottom: "loss1/conv"
  top: "loss1/fc"
  param {
    lr_mult: 1
    decay_mult: 1
  }
  param {
    lr_mult: 2
    decay_mult: 0
  }
  inner_product_param {
    num_output: 1024
    weight_filler {
      type: "xavier"
      std: 0.02
    }
    bias_filler {
      type: "constant"
      value: 0.2
    }
  }
}
layer {
  name: "loss1/relu_fc"
  type: "ReLU"
  bottom: "loss1/fc"
  top: "loss1/fc"
}
layer {
  name: "loss1/drop_fc"
  type: "Dropout"
  bottom: "loss1/fc"
  top: "loss1/fc"
  dropout_param {
    dropout_ratio: 0.7
  }
}
layer {
  name: "loss1/classifier_plantvillage"
  type: "InnerProduct"
  bottom: "loss1/fc"
  top: "loss1/classifier_plantvillage"
  param {
    lr_mult: 1
    decay_mult: 1
  }
  param {
    lr_mult: 2
    decay_mult: 0
  }
  inner_product_param {
    num_output: 38
    weight_filler {
      type: "xavier"
      std: 0.0009765625
    }
    bias_filler {
      type: "constant"
      value: 0
    }
  }
}
layer {
  name: "inception_4b/1x1"
  type: "Convolution"
  bottom: "inception_4a/output"
  top: "inception_4b/1x1"
  param {
    lr_mult: 1
    decay_mult: 1
  }
  param {
    lr_mult: 2
    decay_mult: 0
  }
  convolution_param {
    num_output: 160
    kernel_size: 1
    weight_filler {
      type: "xavier"
      std: 0.03
    }
    bias_filler {
      type: "constant"
      value: 0.2
    }
  }
}
layer {
  name: "inception_4b/relu_1x1"
  type: "ReLU"
  bottom: "inception_4b/1x1"
  top: "inception_4b/1x1"
}
layer {
  name: "inception_4b/3x3_reduce"
  type: "Convolution"
  bottom: "inception_4a/output"
  top: "inception_4b/3x3_reduce"
  param {
    lr_mult: 1
    decay_mult: 1
  }
  param {
    lr_mult: 2
    decay_mult: 0
  }
  convolution_param {
    num_output: 112
    kernel_size: 1
    weight_filler {
      type: "xavier"
      std: 0.09
    }
    bias_filler {
      type: "constant"
      value: 0.2
    }
  }
}
layer {
  name: "inception_4b/relu_3x3_reduce"
  type: "ReLU"
  bottom: "inception_4b/3x3_reduce"
  top: "inception_4b/3x3_reduce"
}
layer {
  name: "inception_4b/3x3"
  type: "Convolution"
  bottom: "inception_4b/3x3_reduce"
  top: "inception_4b/3x3"
  param {
    lr_mult: 1
    decay_mult: 1
  }
  param {
    lr_mult: 2
    decay_mult: 0
  }
  convolution_param {
    num_output: 224
    pad: 1
    kernel_size: 3
    weight_filler {
      type: "xavier"
      std: 0.03
    }
    bias_filler {
      type: "constant"
      value: 0.2
    }
  }
}
layer {
  name: "inception_4b/relu_3x3"
  type: "ReLU"
  bottom: "inception_4b/3x3"
  top: "inception_4b/3x3"
}
layer {
  name: "inception_4b/5x5_reduce"
  type: "Convolution"
  bottom: "inception_4a/output"
  top: "inception_4b/5x5_reduce"
  param {
    lr_mult: 1
    decay_mult: 1
  }
  param {
    lr_mult: 2
    decay_mult: 0
  }
  convolution_param {
    num_output: 24
    kernel_size: 1
    weight_filler {
      type: "xavier"
      std: 0.2
    }
    bias_filler {
      type: "constant"
      value: 0.2
    }
  }
}
layer {
  name: "inception_4b/relu_5x5_reduce"
  type: "ReLU"
  bottom: "inception_4b/5x5_reduce"
  top: "inception_4b/5x5_reduce"
}
layer {
  name: "inception_4b/5x5"
  type: "Convolution"
  bottom: "inception_4b/5x5_reduce"
  top: "inception_4b/5x5"
  param {
    lr_mult: 1
    decay_mult: 1
  }
  param {
    lr_mult: 2
    decay_mult: 0
  }
  convolution_param {
    num_output: 64
    pad: 2
    kernel_size: 5
    weight_filler {
      type: "xavier"
      std: 0.03
    }
    bias_filler {
      type: "constant"
      value: 0.2
    }
  }
}
layer {
  name: "inception_4b/relu_5x5"
  type: "ReLU"
  bottom: "inception_4b/5x5"
  top: "inception_4b/5x5"
}
layer {
  name: "inception_4b/pool"
  type: "Pooling"
  bottom: "inception_4a/output"
  top: "inception_4b/pool"
  pooling_param {
    pool: MAX
    kernel_size: 3
    stride: 1
    pad: 1
  }
}
layer {
  name: "inception_4b/pool_proj"
  type: "Convolution"
  bottom: "inception_4b/pool"
  top: "inception_4b/pool_proj"
  param {
    lr_mult: 1
    decay_mult: 1
  }
  param {
    lr_mult: 2
    decay_mult: 0
  }
  convolution_param {
    num_output: 64
    kernel_size: 1
    weight_filler {
      type: "xavier"
      std: 0.1
    }
    bias_filler {
      type: "constant"
      value: 0.2
    }
  }
}
layer {
  name: "inception_4b/relu_pool_proj"
  type: "ReLU"
  bottom: "inception_4b/pool_proj"
  top: "inception_4b/pool_proj"
}
layer {
  name: "inception_4b/output"
  type: "Concat"
  bottom: "inception_4b/1x1"
  bottom: "inception_4b/3x3"
  bottom: "inception_4b/5x5"
  bottom: "inception_4b/pool_proj"
  top: "inception_4b/output"
}
layer {
  name: "inception_4c/1x1"
  type: "Convolution"
  bottom: "inception_4b/output"
  top: "inception_4c/1x1"
  param {
    lr_mult: 1
    decay_mult: 1
  }
  param {
    lr_mult: 2
    decay_mult: 0
  }
  convolution_param {
    num_output: 128
    kernel_size: 1
    weight_filler {
      type: "xavier"
      std: 0.03
    }
    bias_filler {
      type: "constant"
      value: 0.2
    }
  }
}
layer {
  name: "inception_4c/relu_1x1"
  type: "ReLU"
  bottom: "inception_4c/1x1"
  top: "inception_4c/1x1"
}
layer {
  name: "inception_4c/3x3_reduce"
  type: "Convolution"
  bottom: "inception_4b/output"
  top: "inception_4c/3x3_reduce"
  param {
    lr_mult: 1
    decay_mult: 1
  }
  param {
    lr_mult: 2
    decay_mult: 0
  }
  convolution_param {
    num_output: 128
    kernel_size: 1
    weight_filler {
      type: "xavier"
      std: 0.09
    }
    bias_filler {
      type: "constant"
      value: 0.2
    }
  }
}
layer {
  name: "inception_4c/relu_3x3_reduce"
  type: "ReLU"
  bottom: "inception_4c/3x3_reduce"
  top: "inception_4c/3x3_reduce"
}
layer {
  name: "inception_4c/3x3"
  type: "Convolution"
  bottom: "inception_4c/3x3_reduce"
  top: "inception_4c/3x3"
  param {
    lr_mult: 1
    decay_mult: 1
  }
  param {
    lr_mult: 2
    decay_mult: 0
  }
  convolution_param {
    num_output: 256
    pad: 1
    kernel_size: 3
    weight_filler {
      type: "xavier"
      std: 0.03
    }
    bias_filler {
      type: "constant"
      value: 0.2
    }
  }
}
layer {
  name: "inception_4c/relu_3x3"
  type: "ReLU"
  bottom: "inception_4c/3x3"
  top: "inception_4c/3x3"
}
layer {
  name: "inception_4c/5x5_reduce"
  type: "Convolution"
  bottom: "inception_4b/output"
  top: "inception_4c/5x5_reduce"
  param {
    lr_mult: 1
    decay_mult: 1
  }
  param {
    lr_mult: 2
    decay_mult: 0
  }
  convolution_param {
    num_output: 24
    kernel_size: 1
    weight_filler {
      type: "xavier"
      std: 0.2
    }
    bias_filler {
      type: "constant"
      value: 0.2
    }
  }
}
layer {
  name: "inception_4c/relu_5x5_reduce"
  type: "ReLU"
  bottom: "inception_4c/5x5_reduce"
  top: "inception_4c/5x5_reduce"
}
layer {
  name: "inception_4c/5x5"
  type: "Convolution"
  bottom: "inception_4c/5x5_reduce"
  top: "inception_4c/5x5"
  param {
    lr_mult: 1
    decay_mult: 1
  }
  param {
    lr_mult: 2
    decay_mult: 0
  }
  convolution_param {
    num_output: 64
    pad: 2
    kernel_size: 5
    weight_filler {
      type: "xavier"
      std: 0.03
    }
    bias_filler {
      type: "constant"
      value: 0.2
    }
  }
}
layer {
  name: "inception_4c/relu_5x5"
  type: "ReLU"
  bottom: "inception_4c/5x5"
  top: "inception_4c/5x5"
}
layer {
  name: "inception_4c/pool"
  type: "Pooling"
  bottom: "inception_4b/output"
  top: "inception_4c/pool"
  pooling_param {
    pool: MAX
    kernel_size: 3
    stride: 1
    pad: 1
  }
}
layer {
  name: "inception_4c/pool_proj"
  type: "Convolution"
  bottom: "inception_4c/pool"
  top: "inception_4c/pool_proj"
  param {
    lr_mult: 1
    decay_mult: 1
  }
  param {
    lr_mult: 2
    decay_mult: 0
  }
  convolution_param {
    num_output: 64
    kernel_size: 1
    weight_filler {
      type: "xavier"
      std: 0.1
    }
    bias_filler {
      type: "constant"
      value: 0.2
    }
  }
}
layer {
  name: "inception_4c/relu_pool_proj"
  type: "ReLU"
  bottom: "inception_4c/pool_proj"
  top: "inception_4c/pool_proj"
}
layer {
  name: "inception_4c/output"
  type: "Concat"
  bottom: "inception_4c/1x1"
  bottom: "inception_4c/3x3"
  bottom: "inception_4c/5x5"
  bottom: "inception_4c/pool_proj"
  top: "inception_4c/output"
}
layer {
  name: "inception_4d/1x1"
  type: "Convolution"
  bottom: "inception_4c/output"
  top: "inception_4d/1x1"
  param {
    lr_mult: 1
    decay_mult: 1
  }
  param {
    lr_mult: 2
    decay_mult: 0
  }
  convolution_param {
    num_output: 112
    kernel_size: 1
    weight_filler {
      type: "xavier"
      std: 0.03
    }
    bias_filler {
      type: "constant"
      value: 0.2
    }
  }
}
layer {
  name: "inception_4d/relu_1x1"
  type: "ReLU"
  bottom: "inception_4d/1x1"
  top: "inception_4d/1x1"
}
layer {
  name: "inception_4d/3x3_reduce"
  type: "Convolution"
  bottom: "inception_4c/output"
  top: "inception_4d/3x3_reduce"
  param {
    lr_mult: 1
    decay_mult: 1
  }
  param {
    lr_mult: 2
    decay_mult: 0
  }
  convolution_param {
    num_output: 144
    kernel_size: 1
    weight_filler {
      type: "xavier"
      std: 0.09
    }
    bias_filler {
      type: "constant"
      value: 0.2
    }
  }
}
layer {
  name: "inception_4d/relu_3x3_reduce"
  type: "ReLU"
  bottom: "inception_4d/3x3_reduce"
  top: "inception_4d/3x3_reduce"
}
layer {
  name: "inception_4d/3x3"
  type: "Convolution"
  bottom: "inception_4d/3x3_reduce"
  top: "inception_4d/3x3"
  param {
    lr_mult: 1
    decay_mult: 1
  }
  param {
    lr_mult: 2
    decay_mult: 0
  }
  convolution_param {
    num_output: 288
    pad: 1
    kernel_size: 3
    weight_filler {
      type: "xavier"
      std: 0.03
    }
    bias_filler {
      type: "constant"
      value: 0.2
    }
  }
}
layer {
  name: "inception_4d/relu_3x3"
  type: "ReLU"
  bottom: "inception_4d/3x3"
  top: "inception_4d/3x3"
}
layer {
  name: "inception_4d/5x5_reduce"
  type: "Convolution"
  bottom: "inception_4c/output"
  top: "inception_4d/5x5_reduce"
  param {
    lr_mult: 1
    decay_mult: 1
  }
  param {
    lr_mult: 2
    decay_mult: 0
  }
  convolution_param {
    num_output: 32
    kernel_size: 1
    weight_filler {
      type: "xavier"
      std: 0.2
    }
    bias_filler {
      type: "constant"
      value: 0.2
    }
  }
}
layer {
  name: "inception_4d/relu_5x5_reduce"
  type: "ReLU"
  bottom: "inception_4d/5x5_reduce"
  top: "inception_4d/5x5_reduce"
}
layer {
  name: "inception_4d/5x5"
  type: "Convolution"
  bottom: "inception_4d/5x5_reduce"
  top: "inception_4d/5x5"
  param {
    lr_mult: 1
    decay_mult: 1
  }
  param {
    lr_mult: 2
    decay_mult: 0
  }
  convolution_param {
    num_output: 64
    pad: 2
    kernel_size: 5
    weight_filler {
      type: "xavier"
      std: 0.03
    }
    bias_filler {
      type: "constant"
      value: 0.2
    }
  }
}
layer {
  name: "inception_4d/relu_5x5"
  type: "ReLU"
  bottom: "inception_4d/5x5"
  top: "inception_4d/5x5"
}
layer {
  name: "inception_4d/pool"
  type: "Pooling"
  bottom: "inception_4c/output"
  top: "inception_4d/pool"
  pooling_param {
    pool: MAX
    kernel_size: 3
    stride: 1
    pad: 1
  }
}
layer {
  name: "inception_4d/pool_proj"
  type: "Convolution"
  bottom: "inception_4d/pool"
  top: "inception_4d/pool_proj"
  param {
    lr_mult: 1
    decay_mult: 1
  }
  param {
    lr_mult: 2
    decay_mult: 0
  }
  convolution_param {
    num_output: 64
    kernel_size: 1
    weight_filler {
      type: "xavier"
      std: 0.1
    }
    bias_filler {
      type: "constant"
      value: 0.2
    }
  }
}
layer {
  name: "inception_4d/relu_pool_proj"
  type: "ReLU"
  bottom: "inception_4d/pool_proj"
  top: "inception_4d/pool_proj"
}
layer {
  name: "inception_4d/output"
  type: "Concat"
  bottom: "inception_4d/1x1"
  bottom: "inception_4d/3x3"
  bottom: "inception_4d/5x5"
  bottom: "inception_4d/pool_proj"
  top: "inception_4d/output"
}
layer {
  name: "loss2/ave_pool"
  type: "Pooling"
  bottom: "inception_4d/output"
  top: "loss2/ave_pool"
  pooling_param {
    pool: AVE
    kernel_size: 5
    stride: 3
  }
}
layer {
  name: "loss2/conv"
  type: "Convolution"
  bottom: "loss2/ave_pool"
  top: "loss2/conv"
  param {
    lr_mult: 1
    decay_mult: 1
  }
  param {
    lr_mult: 2
    decay_mult: 0
  }
  convolution_param {
    num_output: 128
    kernel_size: 1
    weight_filler {
      type: "xavier"
      std: 0.08
    }
    bias_filler {
      type: "constant"
      value: 0.2
    }
  }
}
layer {
  name: "loss2/relu_conv"
  type: "ReLU"
  bottom: "loss2/conv"
  top: "loss2/conv"
}
layer {
  name: "loss2/fc"
  type: "InnerProduct"
  bottom: "loss2/conv"
  top: "loss2/fc"
  param {
    lr_mult: 1
    decay_mult: 1
  }
  param {
    lr_mult: 2
    decay_mult: 0
  }
  inner_product_param {
    num_output: 1024
    weight_filler {
      type: "xavier"
      std: 0.02
    }
    bias_filler {
      type: "constant"
      value: 0.2
    }
  }
}
layer {
  name: "loss2/relu_fc"
  type: "ReLU"
  bottom: "loss2/fc"
  top: "loss2/fc"
}
layer {
  name: "loss2/drop_fc"
  type: "Dropout"
  bottom: "loss2/fc"
  top: "loss2/fc"
  dropout_param {
    dropout_ratio: 0.7
  }
}
layer {
  name: "loss2/classifier_plantvillage"
  type: "InnerProduct"
  bottom: "loss2/fc"
  top: "loss2/classifier_plantvillage"
  param {
    lr_mult: 1
    decay_mult: 1
  }
  param {
    lr_mult: 2
    decay_mult: 0
  }
  inner_product_param {
    num_output: 38
    weight_filler {
      type: "xavier"
      std: 0.0009765625
    }
    bias_filler {
      type: "constant"
      value: 0
    }
  }
}
layer {
  name: "inception_4e/1x1"
  type: "Convolution"
  bottom: "inception_4d/output"
  top: "inception_4e/1x1"
  param {
    lr_mult: 1
    decay_mult: 1
  }
  param {
    lr_mult: 2
    decay_mult: 0
  }
  convolution_param {
    num_output: 256
    kernel_size: 1
    weight_filler {
      type: "xavier"
      std: 0.03
    }
    bias_filler {
      type: "constant"
      value: 0.2
    }
  }
}
layer {
  name: "inception_4e/relu_1x1"
  type: "ReLU"
  bottom: "inception_4e/1x1"
  top: "inception_4e/1x1"
}
layer {
  name: "inception_4e/3x3_reduce"
  type: "Convolution"
  bottom: "inception_4d/output"
  top: "inception_4e/3x3_reduce"
  param {
    lr_mult: 1
    decay_mult: 1
  }
  param {
    lr_mult: 2
    decay_mult: 0
  }
  convolution_param {
    num_output: 160
    kernel_size: 1
    weight_filler {
      type: "xavier"
      std: 0.09
    }
    bias_filler {
      type: "constant"
      value: 0.2
    }
  }
}
layer {
  name: "inception_4e/relu_3x3_reduce"
  type: "ReLU"
  bottom: "inception_4e/3x3_reduce"
  top: "inception_4e/3x3_reduce"
}
layer {
  name: "inception_4e/3x3"
  type: "Convolution"
  bottom: "inception_4e/3x3_reduce"
  top: "inception_4e/3x3"
  param {
    lr_mult: 1
    decay_mult: 1
  }
  param {
    lr_mult: 2
    decay_mult: 0
  }
  convolution_param {
    num_output: 320
    pad: 1
    kernel_size: 3
    weight_filler {
      type: "xavier"
      std: 0.03
    }
    bias_filler {
      type: "constant"
      value: 0.2
    }
  }
}
layer {
  name: "inception_4e/relu_3x3"
  type: "ReLU"
  bottom: "inception_4e/3x3"
  top: "inception_4e/3x3"
}
layer {
  name: "inception_4e/5x5_reduce"
  type: "Convolution"
  bottom: "inception_4d/output"
  top: "inception_4e/5x5_reduce"
  param {
    lr_mult: 1
    decay_mult: 1
  }
  param {
    lr_mult: 2
    decay_mult: 0
  }
  convolution_param {
    num_output: 32
    kernel_size: 1
    weight_filler {
      type: "xavier"
      std: 0.2
    }
    bias_filler {
      type: "constant"
      value: 0.2
    }
  }
}
layer {
  name: "inception_4e/relu_5x5_reduce"
  type: "ReLU"
  bottom: "inception_4e/5x5_reduce"
  top: "inception_4e/5x5_reduce"
}
layer {
  name: "inception_4e/5x5"
  type: "Convolution"
  bottom: "inception_4e/5x5_reduce"
  top: "inception_4e/5x5"
  p
I0403 17:03:39.660549 20422 layer_factory.hpp:77] Creating layer data
I0403 17:03:39.661150 20422 net.cpp:91] Creating Layer data
I0403 17:03:39.661185 20422 net.cpp:399] data -> data
I0403 17:03:39.661234 20422 net.cpp:399] data -> label
I0403 17:03:39.661272 20422 data_transformer.cpp:25] Loading mean file from: /home/mohanty/data/final_dataset/lmdb/color-20-80/mean.binaryproto
I0403 17:03:39.662341 20425 db_lmdb.cpp:38] Opened lmdb /home/mohanty/data/final_dataset/lmdb/color-20-80/test_db
I0403 17:03:39.674136 20422 data_layer.cpp:41] output data size: 24,3,224,224
I0403 17:03:39.700928 20422 net.cpp:141] Setting up data
I0403 17:03:39.701000 20422 net.cpp:148] Top shape: 24 3 224 224 (3612672)
I0403 17:03:39.701023 20422 net.cpp:148] Top shape: 24 (24)
I0403 17:03:39.701040 20422 net.cpp:156] Memory required for data: 14450784
I0403 17:03:39.701067 20422 layer_factory.hpp:77] Creating layer label_data_1_split
I0403 17:03:39.701095 20422 net.cpp:91] Creating Layer label_data_1_split
I0403 17:03:39.701113 20422 net.cpp:425] label_data_1_split <- label
I0403 17:03:39.701146 20422 net.cpp:399] label_data_1_split -> label_data_1_split_0
I0403 17:03:39.701174 20422 net.cpp:399] label_data_1_split -> label_data_1_split_1
I0403 17:03:39.701195 20422 net.cpp:399] label_data_1_split -> label_data_1_split_2
I0403 17:03:39.701217 20422 net.cpp:399] label_data_1_split -> label_data_1_split_3
I0403 17:03:39.701236 20422 net.cpp:399] label_data_1_split -> label_data_1_split_4
I0403 17:03:39.701256 20422 net.cpp:399] label_data_1_split -> label_data_1_split_5
I0403 17:03:39.701277 20422 net.cpp:399] label_data_1_split -> label_data_1_split_6
I0403 17:03:39.701297 20422 net.cpp:399] label_data_1_split -> label_data_1_split_7
I0403 17:03:39.701318 20422 net.cpp:399] label_data_1_split -> label_data_1_split_8
I0403 17:03:39.701339 20422 net.cpp:399] label_data_1_split -> label_data_1_split_9
I0403 17:03:39.701457 20422 net.cpp:141] Setting up label_data_1_split
I0403 17:03:39.701479 20422 net.cpp:148] Top shape: 24 (24)
I0403 17:03:39.701498 20422 net.cpp:148] Top shape: 24 (24)
I0403 17:03:39.701514 20422 net.cpp:148] Top shape: 24 (24)
I0403 17:03:39.701530 20422 net.cpp:148] Top shape: 24 (24)
I0403 17:03:39.701550 20422 net.cpp:148] Top shape: 24 (24)
I0403 17:03:39.701582 20422 net.cpp:148] Top shape: 24 (24)
I0403 17:03:39.701601 20422 net.cpp:148] Top shape: 24 (24)
I0403 17:03:39.701630 20422 net.cpp:148] Top shape: 24 (24)
I0403 17:03:39.701647 20422 net.cpp:148] Top shape: 24 (24)
I0403 17:03:39.701665 20422 net.cpp:148] Top shape: 24 (24)
I0403 17:03:39.701712 20422 net.cpp:156] Memory required for data: 14451744
I0403 17:03:39.701730 20422 layer_factory.hpp:77] Creating layer conv1/7x7_s2
I0403 17:03:39.701761 20422 net.cpp:91] Creating Layer conv1/7x7_s2
I0403 17:03:39.701781 20422 net.cpp:425] conv1/7x7_s2 <- data
I0403 17:03:39.701802 20422 net.cpp:399] conv1/7x7_s2 -> conv1/7x7_s2
I0403 17:03:39.842687 20422 net.cpp:141] Setting up conv1/7x7_s2
I0403 17:03:39.842751 20422 net.cpp:148] Top shape: 24 64 112 112 (19267584)
I0403 17:03:39.842768 20422 net.cpp:156] Memory required for data: 91522080
I0403 17:03:39.842808 20422 layer_factory.hpp:77] Creating layer conv1/relu_7x7
I0403 17:03:39.842836 20422 net.cpp:91] Creating Layer conv1/relu_7x7
I0403 17:03:39.842856 20422 net.cpp:425] conv1/relu_7x7 <- conv1/7x7_s2
I0403 17:03:39.842875 20422 net.cpp:386] conv1/relu_7x7 -> conv1/7x7_s2 (in-place)
I0403 17:03:39.843130 20422 net.cpp:141] Setting up conv1/relu_7x7
I0403 17:03:39.843158 20422 net.cpp:148] Top shape: 24 64 112 112 (19267584)
I0403 17:03:39.843173 20422 net.cpp:156] Memory required for data: 168592416
I0403 17:03:39.843189 20422 layer_factory.hpp:77] Creating layer pool1/3x3_s2
I0403 17:03:39.843214 20422 net.cpp:91] Creating Layer pool1/3x3_s2
I0403 17:03:39.843231 20422 net.cpp:425] pool1/3x3_s2 <- conv1/7x7_s2
I0403 17:03:39.843250 20422 net.cpp:399] pool1/3x3_s2 -> pool1/3x3_s2
I0403 17:03:39.843323 20422 net.cpp:141] Setting up pool1/3x3_s2
I0403 17:03:39.843349 20422 net.cpp:148] Top shape: 24 64 56 56 (4816896)
I0403 17:03:39.843365 20422 net.cpp:156] Memory required for data: 187860000
I0403 17:03:39.843381 20422 layer_factory.hpp:77] Creating layer pool1/norm1
I0403 17:03:39.843405 20422 net.cpp:91] Creating Layer pool1/norm1
I0403 17:03:39.843425 20422 net.cpp:425] pool1/norm1 <- pool1/3x3_s2
I0403 17:03:39.843443 20422 net.cpp:399] pool1/norm1 -> pool1/norm1
I0403 17:03:39.843730 20422 net.cpp:141] Setting up pool1/norm1
I0403 17:03:39.843760 20422 net.cpp:148] Top shape: 24 64 56 56 (4816896)
I0403 17:03:39.843778 20422 net.cpp:156] Memory required for data: 207127584
I0403 17:03:39.843794 20422 layer_factory.hpp:77] Creating layer conv2/3x3_reduce
I0403 17:03:39.843818 20422 net.cpp:91] Creating Layer conv2/3x3_reduce
I0403 17:03:39.843834 20422 net.cpp:425] conv2/3x3_reduce <- pool1/norm1
I0403 17:03:39.843854 20422 net.cpp:399] conv2/3x3_reduce -> conv2/3x3_reduce
I0403 17:03:39.845160 20422 net.cpp:141] Setting up conv2/3x3_reduce
I0403 17:03:39.845191 20422 net.cpp:148] Top shape: 24 64 56 56 (4816896)
I0403 17:03:39.845208 20422 net.cpp:156] Memory required for data: 226395168
I0403 17:03:39.845230 20422 layer_factory.hpp:77] Creating layer conv2/relu_3x3_reduce
I0403 17:03:39.845252 20422 net.cpp:91] Creating Layer conv2/relu_3x3_reduce
I0403 17:03:39.845268 20422 net.cpp:425] conv2/relu_3x3_reduce <- conv2/3x3_reduce
I0403 17:03:39.845285 20422 net.cpp:386] conv2/relu_3x3_reduce -> conv2/3x3_reduce (in-place)
I0403 17:03:39.845546 20422 net.cpp:141] Setting up conv2/relu_3x3_reduce
I0403 17:03:39.845573 20422 net.cpp:148] Top shape: 24 64 56 56 (4816896)
I0403 17:03:39.845589 20422 net.cpp:156] Memory required for data: 245662752
I0403 17:03:39.845608 20422 layer_factory.hpp:77] Creating layer conv2/3x3
I0403 17:03:39.845635 20422 net.cpp:91] Creating Layer conv2/3x3
I0403 17:03:39.845654 20422 net.cpp:425] conv2/3x3 <- conv2/3x3_reduce
I0403 17:03:39.845675 20422 net.cpp:399] conv2/3x3 -> conv2/3x3
I0403 17:03:39.847992 20422 net.cpp:141] Setting up conv2/3x3
I0403 17:03:39.848023 20422 net.cpp:148] Top shape: 24 192 56 56 (14450688)
I0403 17:03:39.848042 20422 net.cpp:156] Memory required for data: 303465504
I0403 17:03:39.848063 20422 layer_factory.hpp:77] Creating layer conv2/relu_3x3
I0403 17:03:39.848085 20422 net.cpp:91] Creating Layer conv2/relu_3x3
I0403 17:03:39.848104 20422 net.cpp:425] conv2/relu_3x3 <- conv2/3x3
I0403 17:03:39.848120 20422 net.cpp:386] conv2/relu_3x3 -> conv2/3x3 (in-place)
I0403 17:03:39.848295 20422 net.cpp:141] Setting up conv2/relu_3x3
I0403 17:03:39.848323 20422 net.cpp:148] Top shape: 24 192 56 56 (14450688)
I0403 17:03:39.848372 20422 net.cpp:156] Memory required for data: 361268256
I0403 17:03:39.848388 20422 layer_factory.hpp:77] Creating layer conv2/norm2
I0403 17:03:39.848407 20422 net.cpp:91] Creating Layer conv2/norm2
I0403 17:03:39.848423 20422 net.cpp:425] conv2/norm2 <- conv2/3x3
I0403 17:03:39.848443 20422 net.cpp:399] conv2/norm2 -> conv2/norm2
I0403 17:03:39.848762 20422 net.cpp:141] Setting up conv2/norm2
I0403 17:03:39.848788 20422 net.cpp:148] Top shape: 24 192 56 56 (14450688)
I0403 17:03:39.848803 20422 net.cpp:156] Memory required for data: 419071008
I0403 17:03:39.848819 20422 layer_factory.hpp:77] Creating layer pool2/3x3_s2
I0403 17:03:39.848836 20422 net.cpp:91] Creating Layer pool2/3x3_s2
I0403 17:03:39.848853 20422 net.cpp:425] pool2/3x3_s2 <- conv2/norm2
I0403 17:03:39.848873 20422 net.cpp:399] pool2/3x3_s2 -> pool2/3x3_s2
I0403 17:03:39.848927 20422 net.cpp:141] Setting up pool2/3x3_s2
I0403 17:03:39.848953 20422 net.cpp:148] Top shape: 24 192 28 28 (3612672)
I0403 17:03:39.848968 20422 net.cpp:156] Memory required for data: 433521696
I0403 17:03:39.848984 20422 layer_factory.hpp:77] Creating layer pool2/3x3_s2_pool2/3x3_s2_0_split
I0403 17:03:39.849001 20422 net.cpp:91] Creating Layer pool2/3x3_s2_pool2/3x3_s2_0_split
I0403 17:03:39.849017 20422 net.cpp:425] pool2/3x3_s2_pool2/3x3_s2_0_split <- pool2/3x3_s2
I0403 17:03:39.849036 20422 net.cpp:399] pool2/3x3_s2_pool2/3x3_s2_0_split -> pool2/3x3_s2_pool2/3x3_s2_0_split_0
I0403 17:03:39.849058 20422 net.cpp:399] pool2/3x3_s2_pool2/3x3_s2_0_split -> pool2/3x3_s2_pool2/3x3_s2_0_split_1
I0403 17:03:39.849081 20422 net.cpp:399] pool2/3x3_s2_pool2/3x3_s2_0_split -> pool2/3x3_s2_pool2/3x3_s2_0_split_2
I0403 17:03:39.849102 20422 net.cpp:399] pool2/3x3_s2_pool2/3x3_s2_0_split -> pool2/3x3_s2_pool2/3x3_s2_0_split_3
I0403 17:03:39.849174 20422 net.cpp:141] Setting up pool2/3x3_s2_pool2/3x3_s2_0_split
I0403 17:03:39.849196 20422 net.cpp:148] Top shape: 24 192 28 28 (3612672)
I0403 17:03:39.849215 20422 net.cpp:148] Top shape: 24 192 28 28 (3612672)
I0403 17:03:39.849231 20422 net.cpp:148] Top shape: 24 192 28 28 (3612672)
I0403 17:03:39.849246 20422 net.cpp:148] Top shape: 24 192 28 28 (3612672)
I0403 17:03:39.849259 20422 net.cpp:156] Memory required for data: 491324448
I0403 17:03:39.849273 20422 layer_factory.hpp:77] Creating layer inception_3a/1x1
I0403 17:03:39.849297 20422 net.cpp:91] Creating Layer inception_3a/1x1
I0403 17:03:39.849314 20422 net.cpp:425] inception_3a/1x1 <- pool2/3x3_s2_pool2/3x3_s2_0_split_0
I0403 17:03:39.849339 20422 net.cpp:399] inception_3a/1x1 -> inception_3a/1x1
I0403 17:03:39.850874 20422 net.cpp:141] Setting up inception_3a/1x1
I0403 17:03:39.850905 20422 net.cpp:148] Top shape: 24 64 28 28 (1204224)
I0403 17:03:39.850922 20422 net.cpp:156] Memory required for data: 496141344
I0403 17:03:39.850942 20422 layer_factory.hpp:77] Creating layer inception_3a/relu_1x1
I0403 17:03:39.850961 20422 net.cpp:91] Creating Layer inception_3a/relu_1x1
I0403 17:03:39.850977 20422 net.cpp:425] inception_3a/relu_1x1 <- inception_3a/1x1
I0403 17:03:39.850999 20422 net.cpp:386] inception_3a/relu_1x1 -> inception_3a/1x1 (in-place)
I0403 17:03:39.851204 20422 net.cpp:141] Setting up inception_3a/relu_1x1
I0403 17:03:39.851232 20422 net.cpp:148] Top shape: 24 64 28 28 (1204224)
I0403 17:03:39.851248 20422 net.cpp:156] Memory required for data: 500958240
I0403 17:03:39.851263 20422 layer_factory.hpp:77] Creating layer inception_3a/3x3_reduce
I0403 17:03:39.851286 20422 net.cpp:91] Creating Layer inception_3a/3x3_reduce
I0403 17:03:39.851305 20422 net.cpp:425] inception_3a/3x3_reduce <- pool2/3x3_s2_pool2/3x3_s2_0_split_1
I0403 17:03:39.851327 20422 net.cpp:399] inception_3a/3x3_reduce -> inception_3a/3x3_reduce
I0403 17:03:39.853024 20422 net.cpp:141] Setting up inception_3a/3x3_reduce
I0403 17:03:39.853054 20422 net.cpp:148] Top shape: 24 96 28 28 (1806336)
I0403 17:03:39.853070 20422 net.cpp:156] Memory required for data: 508183584
I0403 17:03:39.853093 20422 layer_factory.hpp:77] Creating layer inception_3a/relu_3x3_reduce
I0403 17:03:39.853132 20422 net.cpp:91] Creating Layer inception_3a/relu_3x3_reduce
I0403 17:03:39.853152 20422 net.cpp:425] inception_3a/relu_3x3_reduce <- inception_3a/3x3_reduce
I0403 17:03:39.853169 20422 net.cpp:386] inception_3a/relu_3x3_reduce -> inception_3a/3x3_reduce (in-place)
I0403 17:03:39.853353 20422 net.cpp:141] Setting up inception_3a/relu_3x3_reduce
I0403 17:03:39.853379 20422 net.cpp:148] Top shape: 24 96 28 28 (1806336)
I0403 17:03:39.853394 20422 net.cpp:156] Memory required for data: 515408928
I0403 17:03:39.853410 20422 layer_factory.hpp:77] Creating layer inception_3a/3x3
I0403 17:03:39.853433 20422 net.cpp:91] Creating Layer inception_3a/3x3
I0403 17:03:39.853451 20422 net.cpp:425] inception_3a/3x3 <- inception_3a/3x3_reduce
I0403 17:03:39.853472 20422 net.cpp:399] inception_3a/3x3 -> inception_3a/3x3
I0403 17:03:39.855128 20422 net.cpp:141] Setting up inception_3a/3x3
I0403 17:03:39.855156 20422 net.cpp:148] Top shape: 24 128 28 28 (2408448)
I0403 17:03:39.855172 20422 net.cpp:156] Memory required for data: 525042720
I0403 17:03:39.855192 20422 layer_factory.hpp:77] Creating layer inception_3a/relu_3x3
I0403 17:03:39.855213 20422 net.cpp:91] Creating Layer inception_3a/relu_3x3
I0403 17:03:39.855232 20422 net.cpp:425] inception_3a/relu_3x3 <- inception_3a/3x3
I0403 17:03:39.855248 20422 net.cpp:386] inception_3a/relu_3x3 -> inception_3a/3x3 (in-place)
I0403 17:03:39.855522 20422 net.cpp:141] Setting up inception_3a/relu_3x3
I0403 17:03:39.855551 20422 net.cpp:148] Top shape: 24 128 28 28 (2408448)
I0403 17:03:39.855568 20422 net.cpp:156] Memory required for data: 534676512
I0403 17:03:39.855583 20422 layer_factory.hpp:77] Creating layer inception_3a/5x5_reduce
I0403 17:03:39.855609 20422 net.cpp:91] Creating Layer inception_3a/5x5_reduce
I0403 17:03:39.855629 20422 net.cpp:425] inception_3a/5x5_reduce <- pool2/3x3_s2_pool2/3x3_s2_0_split_2
I0403 17:03:39.855651 20422 net.cpp:399] inception_3a/5x5_reduce -> inception_3a/5x5_reduce
I0403 17:03:39.856607 20422 net.cpp:141] Setting up inception_3a/5x5_reduce
I0403 17:03:39.856637 20422 net.cpp:148] Top shape: 24 16 28 28 (301056)
I0403 17:03:39.856652 20422 net.cpp:156] Memory required for data: 535880736
I0403 17:03:39.856672 20422 layer_factory.hpp:77] Creating layer inception_3a/relu_5x5_reduce
I0403 17:03:39.856693 20422 net.cpp:91] Creating Layer inception_3a/relu_5x5_reduce
I0403 17:03:39.856711 20422 net.cpp:425] inception_3a/relu_5x5_reduce <- inception_3a/5x5_reduce
I0403 17:03:39.856729 20422 net.cpp:386] inception_3a/relu_5x5_reduce -> inception_3a/5x5_reduce (in-place)
I0403 17:03:39.857017 20422 net.cpp:141] Setting up inception_3a/relu_5x5_reduce
I0403 17:03:39.857048 20422 net.cpp:148] Top shape: 24 16 28 28 (301056)
I0403 17:03:39.857064 20422 net.cpp:156] Memory required for data: 537084960
I0403 17:03:39.857080 20422 layer_factory.hpp:77] Creating layer inception_3a/5x5
I0403 17:03:39.857102 20422 net.cpp:91] Creating Layer inception_3a/5x5
I0403 17:03:39.857120 20422 net.cpp:425] inception_3a/5x5 <- inception_3a/5x5_reduce
I0403 17:03:39.857139 20422 net.cpp:399] inception_3a/5x5 -> inception_3a/5x5
I0403 17:03:39.858146 20422 net.cpp:141] Setting up inception_3a/5x5
I0403 17:03:39.858175 20422 net.cpp:148] Top shape: 24 32 28 28 (602112)
I0403 17:03:39.858191 20422 net.cpp:156] Memory required for data: 539493408
I0403 17:03:39.858211 20422 layer_factory.hpp:77] Creating layer inception_3a/relu_5x5
I0403 17:03:39.858230 20422 net.cpp:91] Creating Layer inception_3a/relu_5x5
I0403 17:03:39.858247 20422 net.cpp:425] inception_3a/relu_5x5 <- inception_3a/5x5
I0403 17:03:39.858265 20422 net.cpp:386] inception_3a/relu_5x5 -> inception_3a/5x5 (in-place)
I0403 17:03:39.858439 20422 net.cpp:141] Setting up inception_3a/relu_5x5
I0403 17:03:39.858467 20422 net.cpp:148] Top shape: 24 32 28 28 (602112)
I0403 17:03:39.858484 20422 net.cpp:156] Memory required for data: 541901856
I0403 17:03:39.858500 20422 layer_factory.hpp:77] Creating layer inception_3a/pool
I0403 17:03:39.858517 20422 net.cpp:91] Creating Layer inception_3a/pool
I0403 17:03:39.858533 20422 net.cpp:425] inception_3a/pool <- pool2/3x3_s2_pool2/3x3_s2_0_split_3
I0403 17:03:39.858566 20422 net.cpp:399] inception_3a/pool -> inception_3a/pool
I0403 17:03:39.858630 20422 net.cpp:141] Setting up inception_3a/pool
I0403 17:03:39.858656 20422 net.cpp:148] Top shape: 24 192 28 28 (3612672)
I0403 17:03:39.858672 20422 net.cpp:156] Memory required for data: 556352544
I0403 17:03:39.858686 20422 layer_factory.hpp:77] Creating layer inception_3a/pool_proj
I0403 17:03:39.858708 20422 net.cpp:91] Creating Layer inception_3a/pool_proj
I0403 17:03:39.858726 20422 net.cpp:425] inception_3a/pool_proj <- inception_3a/pool
I0403 17:03:39.858748 20422 net.cpp:399] inception_3a/pool_proj -> inception_3a/pool_proj
I0403 17:03:39.859714 20422 net.cpp:141] Setting up inception_3a/pool_proj
I0403 17:03:39.859741 20422 net.cpp:148] Top shape: 24 32 28 28 (602112)
I0403 17:03:39.859757 20422 net.cpp:156] Memory required for data: 558760992
I0403 17:03:39.859779 20422 layer_factory.hpp:77] Creating layer inception_3a/relu_pool_proj
I0403 17:03:39.859803 20422 net.cpp:91] Creating Layer inception_3a/relu_pool_proj
I0403 17:03:39.859822 20422 net.cpp:425] inception_3a/relu_pool_proj <- inception_3a/pool_proj
I0403 17:03:39.859839 20422 net.cpp:386] inception_3a/relu_pool_proj -> inception_3a/pool_proj (in-place)
I0403 17:03:39.860116 20422 net.cpp:141] Setting up inception_3a/relu_pool_proj
I0403 17:03:39.860143 20422 net.cpp:148] Top shape: 24 32 28 28 (602112)
I0403 17:03:39.860162 20422 net.cpp:156] Memory required for data: 561169440
I0403 17:03:39.860177 20422 layer_factory.hpp:77] Creating layer inception_3a/output
I0403 17:03:39.860193 20422 net.cpp:91] Creating Layer inception_3a/output
I0403 17:03:39.860208 20422 net.cpp:425] inception_3a/output <- inception_3a/1x1
I0403 17:03:39.860227 20422 net.cpp:425] inception_3a/output <- inception_3a/3x3
I0403 17:03:39.860244 20422 net.cpp:425] inception_3a/output <- inception_3a/5x5
I0403 17:03:39.860261 20422 net.cpp:425] inception_3a/output <- inception_3a/pool_proj
I0403 17:03:39.860280 20422 net.cpp:399] inception_3a/output -> inception_3a/output
I0403 17:03:39.860328 20422 net.cpp:141] Setting up inception_3a/output
I0403 17:03:39.860353 20422 net.cpp:148] Top shape: 24 256 28 28 (4816896)
I0403 17:03:39.860369 20422 net.cpp:156] Memory required for data: 580437024
I0403 17:03:39.860384 20422 layer_factory.hpp:77] Creating layer inception_3a/output_inception_3a/output_0_split
I0403 17:03:39.860401 20422 net.cpp:91] Creating Layer inception_3a/output_inception_3a/output_0_split
I0403 17:03:39.860417 20422 net.cpp:425] inception_3a/output_inception_3a/output_0_split <- inception_3a/output
I0403 17:03:39.860438 20422 net.cpp:399] inception_3a/output_inception_3a/output_0_split -> inception_3a/output_inception_3a/output_0_split_0
I0403 17:03:39.860460 20422 net.cpp:399] inception_3a/output_inception_3a/output_0_split -> inception_3a/output_inception_3a/output_0_split_1
I0403 17:03:39.860481 20422 net.cpp:399] inception_3a/output_inception_3a/output_0_split -> inception_3a/output_inception_3a/output_0_split_2
I0403 17:03:39.860509 20422 net.cpp:399] inception_3a/output_inception_3a/output_0_split -> inception_3a/output_inception_3a/output_0_split_3
I0403 17:03:39.860584 20422 net.cpp:141] Setting up inception_3a/output_inception_3a/output_0_split
I0403 17:03:39.860626 20422 net.cpp:148] Top shape: 24 256 28 28 (4816896)
I0403 17:03:39.860647 20422 net.cpp:148] Top shape: 24 256 28 28 (4816896)
I0403 17:03:39.860663 20422 net.cpp:148] Top shape: 24 256 28 28 (4816896)
I0403 17:03:39.860682 20422 net.cpp:148] Top shape: 24 256 28 28 (4816896)
I0403 17:03:39.860697 20422 net.cpp:156] Memory required for data: 657507360
I0403 17:03:39.860713 20422 layer_factory.hpp:77] Creating layer inception_3b/1x1
I0403 17:03:39.860735 20422 net.cpp:91] Creating Layer inception_3b/1x1
I0403 17:03:39.860754 20422 net.cpp:425] inception_3b/1x1 <- inception_3a/output_inception_3a/output_0_split_0
I0403 17:03:39.860777 20422 net.cpp:399] inception_3b/1x1 -> inception_3b/1x1
I0403 17:03:39.861999 20422 net.cpp:141] Setting up inception_3b/1x1
I0403 17:03:39.862053 20422 net.cpp:148] Top shape: 24 128 28 28 (2408448)
I0403 17:03:39.862071 20422 net.cpp:156] Memory required for data: 667141152
I0403 17:03:39.862092 20422 layer_factory.hpp:77] Creating layer inception_3b/relu_1x1
I0403 17:03:39.862114 20422 net.cpp:91] Creating Layer inception_3b/relu_1x1
I0403 17:03:39.862133 20422 net.cpp:425] inception_3b/relu_1x1 <- inception_3b/1x1
I0403 17:03:39.862154 20422 net.cpp:386] inception_3b/relu_1x1 -> inception_3b/1x1 (in-place)
I0403 17:03:39.862329 20422 net.cpp:141] Setting up inception_3b/relu_1x1
I0403 17:03:39.862356 20422 net.cpp:148] Top shape: 24 128 28 28 (2408448)
I0403 17:03:39.862371 20422 net.cpp:156] Memory required for data: 676774944
I0403 17:03:39.862387 20422 layer_factory.hpp:77] Creating layer inception_3b/3x3_reduce
I0403 17:03:39.862411 20422 net.cpp:91] Creating Layer inception_3b/3x3_reduce
I0403 17:03:39.862429 20422 net.cpp:425] inception_3b/3x3_reduce <- inception_3a/output_inception_3a/output_0_split_1
I0403 17:03:39.862450 20422 net.cpp:399] inception_3b/3x3_reduce -> inception_3b/3x3_reduce
I0403 17:03:39.863629 20422 net.cpp:141] Setting up inception_3b/3x3_reduce
I0403 17:03:39.863658 20422 net.cpp:148] Top shape: 24 128 28 28 (2408448)
I0403 17:03:39.863674 20422 net.cpp:156] Memory required for data: 686408736
I0403 17:03:39.863694 20422 layer_factory.hpp:77] Creating layer inception_3b/relu_3x3_reduce
I0403 17:03:39.863713 20422 net.cpp:91] Creating Layer inception_3b/relu_3x3_reduce
I0403 17:03:39.863729 20422 net.cpp:425] inception_3b/relu_3x3_reduce <- inception_3b/3x3_reduce
I0403 17:03:39.863749 20422 net.cpp:386] inception_3b/relu_3x3_reduce -> inception_3b/3x3_reduce (in-place)
I0403 17:03:39.863931 20422 net.cpp:141] Setting up inception_3b/relu_3x3_reduce
I0403 17:03:39.863958 20422 net.cpp:148] Top shape: 24 128 28 28 (2408448)
I0403 17:03:39.863973 20422 net.cpp:156] Memory required for data: 696042528
I0403 17:03:39.863989 20422 layer_factory.hpp:77] Creating layer inception_3b/3x3
I0403 17:03:39.864017 20422 net.cpp:91] Creating Layer inception_3b/3x3
I0403 17:03:39.864035 20422 net.cpp:425] inception_3b/3x3 <- inception_3b/3x3_reduce
I0403 17:03:39.864055 20422 net.cpp:399] inception_3b/3x3 -> inception_3b/3x3
I0403 17:03:39.867034 20422 net.cpp:141] Setting up inception_3b/3x3
I0403 17:03:39.867065 20422 net.cpp:148] Top shape: 24 192 28 28 (3612672)
I0403 17:03:39.867084 20422 net.cpp:156] Memory required for data: 710493216
I0403 17:03:39.867102 20422 layer_factory.hpp:77] Creating layer inception_3b/relu_3x3
I0403 17:03:39.867125 20422 net.cpp:91] Creating Layer inception_3b/relu_3x3
I0403 17:03:39.867143 20422 net.cpp:425] inception_3b/relu_3x3 <- inception_3b/3x3
I0403 17:03:39.867162 20422 net.cpp:386] inception_3b/relu_3x3 -> inception_3b/3x3 (in-place)
I0403 17:03:39.867446 20422 net.cpp:141] Setting up inception_3b/relu_3x3
I0403 17:03:39.867475 20422 net.cpp:148] Top shape: 24 192 28 28 (3612672)
I0403 17:03:39.867491 20422 net.cpp:156] Memory required for data: 724943904
I0403 17:03:39.867506 20422 layer_factory.hpp:77] Creating layer inception_3b/5x5_reduce
I0403 17:03:39.867532 20422 net.cpp:91] Creating Layer inception_3b/5x5_reduce
I0403 17:03:39.867553 20422 net.cpp:425] inception_3b/5x5_reduce <- inception_3a/output_inception_3a/output_0_split_2
I0403 17:03:39.867576 20422 net.cpp:399] inception_3b/5x5_reduce -> inception_3b/5x5_reduce
I0403 17:03:39.868593 20422 net.cpp:141] Setting up inception_3b/5x5_reduce
I0403 17:03:39.868628 20422 net.cpp:148] Top shape: 24 32 28 28 (602112)
I0403 17:03:39.868646 20422 net.cpp:156] Memory required for data: 727352352
I0403 17:03:39.868665 20422 layer_factory.hpp:77] Creating layer inception_3b/relu_5x5_reduce
I0403 17:03:39.868686 20422 net.cpp:91] Creating Layer inception_3b/relu_5x5_reduce
I0403 17:03:39.868705 20422 net.cpp:425] inception_3b/relu_5x5_reduce <- inception_3b/5x5_reduce
I0403 17:03:39.868724 20422 net.cpp:386] inception_3b/relu_5x5_reduce -> inception_3b/5x5_reduce (in-place)
I0403 17:03:39.868906 20422 net.cpp:141] Setting up inception_3b/relu_5x5_reduce
I0403 17:03:39.868947 20422 net.cpp:148] Top shape: 24 32 28 28 (602112)
I0403 17:03:39.868965 20422 net.cpp:156] Memory required for data: 729760800
I0403 17:03:39.868983 20422 layer_factory.hpp:77] Creating layer inception_3b/5x5
I0403 17:03:39.869005 20422 net.cpp:91] Creating Layer inception_3b/5x5
I0403 17:03:39.869024 20422 net.cpp:425] inception_3b/5x5 <- inception_3b/5x5_reduce
I0403 17:03:39.869045 20422 net.cpp:399] inception_3b/5x5 -> inception_3b/5x5
I0403 17:03:39.871049 20422 net.cpp:141] Setting up inception_3b/5x5
I0403 17:03:39.871080 20422 net.cpp:148] Top shape: 24 96 28 28 (1806336)
I0403 17:03:39.871096 20422 net.cpp:156] Memory required for data: 736986144
I0403 17:03:39.871115 20422 layer_factory.hpp:77] Creating layer inception_3b/relu_5x5
I0403 17:03:39.871135 20422 net.cpp:91] Creating Layer inception_3b/relu_5x5
I0403 17:03:39.871153 20422 net.cpp:425] inception_3b/relu_5x5 <- inception_3b/5x5
I0403 17:03:39.871175 20422 net.cpp:386] inception_3b/relu_5x5 -> inception_3b/5x5 (in-place)
I0403 17:03:39.871377 20422 net.cpp:141] Setting up inception_3b/relu_5x5
I0403 17:03:39.871403 20422 net.cpp:148] Top shape: 24 96 28 28 (1806336)
I0403 17:03:39.871419 20422 net.cpp:156] Memory required for data: 744211488
I0403 17:03:39.871435 20422 layer_factory.hpp:77] Creating layer inception_3b/pool
I0403 17:03:39.871454 20422 net.cpp:91] Creating Layer inception_3b/pool
I0403 17:03:39.871471 20422 net.cpp:425] inception_3b/pool <- inception_3a/output_inception_3a/output_0_split_3
I0403 17:03:39.871490 20422 net.cpp:399] inception_3b/pool -> inception_3b/pool
I0403 17:03:39.871547 20422 net.cpp:141] Setting up inception_3b/pool
I0403 17:03:39.871572 20422 net.cpp:148] Top shape: 24 256 28 28 (4816896)
I0403 17:03:39.871587 20422 net.cpp:156] Memory required for data: 763479072
I0403 17:03:39.871606 20422 layer_factory.hpp:77] Creating layer inception_3b/pool_proj
I0403 17:03:39.871633 20422 net.cpp:91] Creating Layer inception_3b/pool_proj
I0403 17:03:39.871651 20422 net.cpp:425] inception_3b/pool_proj <- inception_3b/pool
I0403 17:03:39.871675 20422 net.cpp:399] inception_3b/pool_proj -> inception_3b/pool_proj
I0403 17:03:39.872761 20422 net.cpp:141] Setting up inception_3b/pool_proj
I0403 17:03:39.872793 20422 net.cpp:148] Top shape: 24 64 28 28 (1204224)
I0403 17:03:39.872812 20422 net.cpp:156] Memory required for data: 768295968
I0403 17:03:39.872830 20422 layer_factory.hpp:77] Creating layer inception_3b/relu_pool_proj
I0403 17:03:39.872849 20422 net.cpp:91] Creating Layer inception_3b/relu_pool_proj
I0403 17:03:39.872866 20422 net.cpp:425] inception_3b/relu_pool_proj <- inception_3b/pool_proj
I0403 17:03:39.872884 20422 net.cpp:386] inception_3b/relu_pool_proj -> inception_3b/pool_proj (in-place)
I0403 17:03:39.873283 20422 net.cpp:141] Setting up inception_3b/relu_pool_proj
I0403 17:03:39.873312 20422 net.cpp:148] Top shape: 24 64 28 28 (1204224)
I0403 17:03:39.873328 20422 net.cpp:156] Memory required for data: 773112864
I0403 17:03:39.873343 20422 layer_factory.hpp:77] Creating layer inception_3b/output
I0403 17:03:39.873364 20422 net.cpp:91] Creating Layer inception_3b/output
I0403 17:03:39.873381 20422 net.cpp:425] inception_3b/output <- inception_3b/1x1
I0403 17:03:39.873399 20422 net.cpp:425] inception_3b/output <- inception_3b/3x3
I0403 17:03:39.873417 20422 net.cpp:425] inception_3b/output <- inception_3b/5x5
I0403 17:03:39.873435 20422 net.cpp:425] inception_3b/output <- inception_3b/pool_proj
I0403 17:03:39.873451 20422 net.cpp:399] inception_3b/output -> inception_3b/output
I0403 17:03:39.873498 20422 net.cpp:141] Setting up inception_3b/output
I0403 17:03:39.873523 20422 net.cpp:148] Top shape: 24 480 28 28 (9031680)
I0403 17:03:39.873539 20422 net.cpp:156] Memory required for data: 809239584
I0403 17:03:39.873556 20422 layer_factory.hpp:77] Creating layer pool3/3x3_s2
I0403 17:03:39.873574 20422 net.cpp:91] Creating Layer pool3/3x3_s2
I0403 17:03:39.873591 20422 net.cpp:425] pool3/3x3_s2 <- inception_3b/output
I0403 17:03:39.873617 20422 net.cpp:399] pool3/3x3_s2 -> pool3/3x3_s2
I0403 17:03:39.873692 20422 net.cpp:141] Setting up pool3/3x3_s2
I0403 17:03:39.873718 20422 net.cpp:148] Top shape: 24 480 14 14 (2257920)
I0403 17:03:39.873734 20422 net.cpp:156] Memory required for data: 818271264
I0403 17:03:39.873749 20422 layer_factory.hpp:77] Creating layer pool3/3x3_s2_pool3/3x3_s2_0_split
I0403 17:03:39.873769 20422 net.cpp:91] Creating Layer pool3/3x3_s2_pool3/3x3_s2_0_split
I0403 17:03:39.873786 20422 net.cpp:425] pool3/3x3_s2_pool3/3x3_s2_0_split <- pool3/3x3_s2
I0403 17:03:39.873806 20422 net.cpp:399] pool3/3x3_s2_pool3/3x3_s2_0_split -> pool3/3x3_s2_pool3/3x3_s2_0_split_0
I0403 17:03:39.873828 20422 net.cpp:399] pool3/3x3_s2_pool3/3x3_s2_0_split -> pool3/3x3_s2_pool3/3x3_s2_0_split_1
I0403 17:03:39.873850 20422 net.cpp:399] pool3/3x3_s2_pool3/3x3_s2_0_split -> pool3/3x3_s2_pool3/3x3_s2_0_split_2
I0403 17:03:39.873872 20422 net.cpp:399] pool3/3x3_s2_pool3/3x3_s2_0_split -> pool3/3x3_s2_pool3/3x3_s2_0_split_3
I0403 17:03:39.873950 20422 net.cpp:141] Setting up pool3/3x3_s2_pool3/3x3_s2_0_split
I0403 17:03:39.873976 20422 net.cpp:148] Top shape: 24 480 14 14 (2257920)
I0403 17:03:39.873996 20422 net.cpp:148] Top shape: 24 480 14 14 (2257920)
I0403 17:03:39.874011 20422 net.cpp:148] Top shape: 24 480 14 14 (2257920)
I0403 17:03:39.874028 20422 net.cpp:148] Top shape: 24 480 14 14 (2257920)
I0403 17:03:39.874043 20422 net.cpp:156] Memory required for data: 854397984
I0403 17:03:39.874059 20422 layer_factory.hpp:77] Creating layer inception_4a/1x1
I0403 17:03:39.874083 20422 net.cpp:91] Creating Layer inception_4a/1x1
I0403 17:03:39.874100 20422 net.cpp:425] inception_4a/1x1 <- pool3/3x3_s2_pool3/3x3_s2_0_split_0
I0403 17:03:39.874120 20422 net.cpp:399] inception_4a/1x1 -> inception_4a/1x1
I0403 17:03:39.875746 20422 net.cpp:141] Setting up inception_4a/1x1
I0403 17:03:39.875778 20422 net.cpp:148] Top shape: 24 192 14 14 (903168)
I0403 17:03:39.875797 20422 net.cpp:156] Memory required for data: 858010656
I0403 17:03:39.875816 20422 layer_factory.hpp:77] Creating layer inception_4a/relu_1x1
I0403 17:03:39.875835 20422 net.cpp:91] Creating Layer inception_4a/relu_1x1
I0403 17:03:39.875852 20422 net.cpp:425] inception_4a/relu_1x1 <- inception_4a/1x1
I0403 17:03:39.875874 20422 net.cpp:386] inception_4a/relu_1x1 -> inception_4a/1x1 (in-place)
I0403 17:03:39.876060 20422 net.cpp:141] Setting up inception_4a/relu_1x1
I0403 17:03:39.876088 20422 net.cpp:148] Top shape: 24 192 14 14 (903168)
I0403 17:03:39.876103 20422 net.cpp:156] Memory required for data: 861623328
I0403 17:03:39.876118 20422 layer_factory.hpp:77] Creating layer inception_4a/3x3_reduce
I0403 17:03:39.876142 20422 net.cpp:91] Creating Layer inception_4a/3x3_reduce
I0403 17:03:39.876160 20422 net.cpp:425] inception_4a/3x3_reduce <- pool3/3x3_s2_pool3/3x3_s2_0_split_1
I0403 17:03:39.876183 20422 net.cpp:399] inception_4a/3x3_reduce -> inception_4a/3x3_reduce
I0403 17:03:39.877495 20422 net.cpp:141] Setting up inception_4a/3x3_reduce
I0403 17:03:39.877526 20422 net.cpp:148] Top shape: 24 96 14 14 (451584)
I0403 17:03:39.877547 20422 net.cpp:156] Memory required for data: 863429664
I0403 17:03:39.877573 20422 layer_factory.hpp:77] Creating layer inception_4a/relu_3x3_reduce
I0403 17:03:39.877593 20422 net.cpp:91] Creating Layer inception_4a/relu_3x3_reduce
I0403 17:03:39.877616 20422 net.cpp:425] inception_4a/relu_3x3_reduce <- inception_4a/3x3_reduce
I0403 17:03:39.877635 20422 net.cpp:386] inception_4a/relu_3x3_reduce -> inception_4a/3x3_reduce (in-place)
I0403 17:03:39.877820 20422 net.cpp:141] Setting up inception_4a/relu_3x3_reduce
I0403 17:03:39.877846 20422 net.cpp:148] Top shape: 24 96 14 14 (451584)
I0403 17:03:39.877863 20422 net.cpp:156] Memory required for data: 865236000
I0403 17:03:39.877878 20422 layer_factory.hpp:77] Creating layer inception_4a/3x3
I0403 17:03:39.877902 20422 net.cpp:91] Creating Layer inception_4a/3x3
I0403 17:03:39.877923 20422 net.cpp:425] inception_4a/3x3 <- inception_4a/3x3_reduce
I0403 17:03:39.877944 20422 net.cpp:399] inception_4a/3x3 -> inception_4a/3x3
I0403 17:03:39.880699 20422 net.cpp:141] Setting up inception_4a/3x3
I0403 17:03:39.880728 20422 net.cpp:148] Top shape: 24 208 14 14 (978432)
I0403 17:03:39.880746 20422 net.cpp:156] Memory required for data: 869149728
I0403 17:03:39.880765 20422 layer_factory.hpp:77] Creating layer inception_4a/relu_3x3
I0403 17:03:39.880784 20422 net.cpp:91] Creating Layer inception_4a/relu_3x3
I0403 17:03:39.880800 20422 net.cpp:425] inception_4a/relu_3x3 <- inception_4a/3x3
I0403 17:03:39.880820 20422 net.cpp:386] inception_4a/relu_3x3 -> inception_4a/3x3 (in-place)
I0403 17:03:39.881109 20422 net.cpp:141] Setting up inception_4a/relu_3x3
I0403 17:03:39.881137 20422 net.cpp:148] Top shape: 24 208 14 14 (978432)
I0403 17:03:39.881153 20422 net.cpp:156] Memory required for data: 873063456
I0403 17:03:39.881167 20422 layer_factory.hpp:77] Creating layer inception_4a/5x5_reduce
I0403 17:03:39.881191 20422 net.cpp:91] Creating Layer inception_4a/5x5_reduce
I0403 17:03:39.881208 20422 net.cpp:425] inception_4a/5x5_reduce <- pool3/3x3_s2_pool3/3x3_s2_0_split_2
I0403 17:03:39.881232 20422 net.cpp:399] inception_4a/5x5_reduce -> inception_4a/5x5_reduce
I0403 17:03:39.882254 20422 net.cpp:141] Setting up inception_4a/5x5_reduce
I0403 17:03:39.882283 20422 net.cpp:148] Top shape: 24 16 14 14 (75264)
I0403 17:03:39.882299 20422 net.cpp:156] Memory required for data: 873364512
I0403 17:03:39.882318 20422 layer_factory.hpp:77] Creating layer inception_4a/relu_5x5_reduce
I0403 17:03:39.882339 20422 net.cpp:91] Creating Layer inception_4a/relu_5x5_reduce
I0403 17:03:39.882357 20422 net.cpp:425] inception_4a/relu_5x5_reduce <- inception_4a/5x5_reduce
I0403 17:03:39.882376 20422 net.cpp:386] inception_4a/relu_5x5_reduce -> inception_4a/5x5_reduce (in-place)
I0403 17:03:39.882555 20422 net.cpp:141] Setting up inception_4a/relu_5x5_reduce
I0403 17:03:39.882583 20422 net.cpp:148] Top shape: 24 16 14 14 (75264)
I0403 17:03:39.882616 20422 net.cpp:156] Memory required for data: 873665568
I0403 17:03:39.882632 20422 layer_factory.hpp:77] Creating layer inception_4a/5x5
I0403 17:03:39.882652 20422 net.cpp:91] Creating Layer inception_4a/5x5
I0403 17:03:39.882669 20422 net.cpp:425] inception_4a/5x5 <- inception_4a/5x5_reduce
I0403 17:03:39.882689 20422 net.cpp:399] inception_4a/5x5 -> inception_4a/5x5
I0403 17:03:39.883739 20422 net.cpp:141] Setting up inception_4a/5x5
I0403 17:03:39.883767 20422 net.cpp:148] Top shape: 24 48 14 14 (225792)
I0403 17:03:39.883783 20422 net.cpp:156] Memory required for data: 874568736
I0403 17:03:39.883801 20422 layer_factory.hpp:77] Creating layer inception_4a/relu_5x5
I0403 17:03:39.883823 20422 net.cpp:91] Creating Layer inception_4a/relu_5x5
I0403 17:03:39.883841 20422 net.cpp:425] inception_4a/relu_5x5 <- inception_4a/5x5
I0403 17:03:39.883858 20422 net.cpp:386] inception_4a/relu_5x5 -> inception_4a/5x5 (in-place)
I0403 17:03:39.884033 20422 net.cpp:141] Setting up inception_4a/relu_5x5
I0403 17:03:39.884058 20422 net.cpp:148] Top shape: 24 48 14 14 (225792)
I0403 17:03:39.884073 20422 net.cpp:156] Memory required for data: 875471904
I0403 17:03:39.884088 20422 layer_factory.hpp:77] Creating layer inception_4a/pool
I0403 17:03:39.884106 20422 net.cpp:91] Creating Layer inception_4a/pool
I0403 17:03:39.884121 20422 net.cpp:425] inception_4a/pool <- pool3/3x3_s2_pool3/3x3_s2_0_split_3
I0403 17:03:39.884141 20422 net.cpp:399] inception_4a/pool -> inception_4a/pool
I0403 17:03:39.884202 20422 net.cpp:141] Setting up inception_4a/pool
I0403 17:03:39.884225 20422 net.cpp:148] Top shape: 24 480 14 14 (2257920)
I0403 17:03:39.884240 20422 net.cpp:156] Memory required for data: 884503584
I0403 17:03:39.884255 20422 layer_factory.hpp:77] Creating layer inception_4a/pool_proj
I0403 17:03:39.884279 20422 net.cpp:91] Creating Layer inception_4a/pool_proj
I0403 17:03:39.884296 20422 net.cpp:425] inception_4a/pool_proj <- inception_4a/pool
I0403 17:03:39.884315 20422 net.cpp:399] inception_4a/pool_proj -> inception_4a/pool_proj
I0403 17:03:39.885452 20422 net.cpp:141] Setting up inception_4a/pool_proj
I0403 17:03:39.885483 20422 net.cpp:148] Top shape: 24 64 14 14 (301056)
I0403 17:03:39.885514 20422 net.cpp:156] Memory required for data: 885707808
I0403 17:03:39.885534 20422 layer_factory.hpp:77] Creating layer inception_4a/relu_pool_proj
I0403 17:03:39.885555 20422 net.cpp:91] Creating Layer inception_4a/relu_pool_proj
I0403 17:03:39.885572 20422 net.cpp:425] inception_4a/relu_pool_proj <- inception_4a/pool_proj
I0403 17:03:39.885593 20422 net.cpp:386] inception_4a/relu_pool_proj -> inception_4a/pool_proj (in-place)
I0403 17:03:39.885870 20422 net.cpp:141] Setting up inception_4a/relu_pool_proj
I0403 17:03:39.885900 20422 net.cpp:148] Top shape: 24 64 14 14 (301056)
I0403 17:03:39.885916 20422 net.cpp:156] Memory required for data: 886912032
I0403 17:03:39.885931 20422 layer_factory.hpp:77] Creating layer inception_4a/output
I0403 17:03:39.885948 20422 net.cpp:91] Creating Layer inception_4a/output
I0403 17:03:39.885963 20422 net.cpp:425] inception_4a/output <- inception_4a/1x1
I0403 17:03:39.885980 20422 net.cpp:425] inception_4a/output <- inception_4a/3x3
I0403 17:03:39.885996 20422 net.cpp:425] inception_4a/output <- inception_4a/5x5
I0403 17:03:39.886011 20422 net.cpp:425] inception_4a/output <- inception_4a/pool_proj
I0403 17:03:39.886031 20422 net.cpp:399] inception_4a/output -> inception_4a/output
I0403 17:03:39.886075 20422 net.cpp:141] Setting up inception_4a/output
I0403 17:03:39.886098 20422 net.cpp:148] Top shape: 24 512 14 14 (2408448)
I0403 17:03:39.886112 20422 net.cpp:156] Memory required for data: 896545824
I0403 17:03:39.886127 20422 layer_factory.hpp:77] Creating layer inception_4a/output_inception_4a/output_0_split
I0403 17:03:39.886147 20422 net.cpp:91] Creating Layer inception_4a/output_inception_4a/output_0_split
I0403 17:03:39.886163 20422 net.cpp:425] inception_4a/output_inception_4a/output_0_split <- inception_4a/output
I0403 17:03:39.886181 20422 net.cpp:399] inception_4a/output_inception_4a/output_0_split -> inception_4a/output_inception_4a/output_0_split_0
I0403 17:03:39.886201 20422 net.cpp:399] inception_4a/output_inception_4a/output_0_split -> inception_4a/output_inception_4a/output_0_split_1
I0403 17:03:39.886226 20422 net.cpp:399] inception_4a/output_inception_4a/output_0_split -> inception_4a/output_inception_4a/output_0_split_2
I0403 17:03:39.886247 20422 net.cpp:399] inception_4a/output_inception_4a/output_0_split -> inception_4a/output_inception_4a/output_0_split_3
I0403 17:03:39.886267 20422 net.cpp:399] inception_4a/output_inception_4a/output_0_split -> inception_4a/output_inception_4a/output_0_split_4
I0403 17:03:39.886358 20422 net.cpp:141] Setting up inception_4a/output_inception_4a/output_0_split
I0403 17:03:39.886384 20422 net.cpp:148] Top shape: 24 512 14 14 (2408448)
I0403 17:03:39.886400 20422 net.cpp:148] Top shape: 24 512 14 14 (2408448)
I0403 17:03:39.886416 20422 net.cpp:148] Top shape: 24 512 14 14 (2408448)
I0403 17:03:39.886432 20422 net.cpp:148] Top shape: 24 512 14 14 (2408448)
I0403 17:03:39.886447 20422 net.cpp:148] Top shape: 24 512 14 14 (2408448)
I0403 17:03:39.886461 20422 net.cpp:156] Memory required for data: 944714784
I0403 17:03:39.886476 20422 layer_factory.hpp:77] Creating layer loss1/ave_pool
I0403 17:03:39.886495 20422 net.cpp:91] Creating Layer loss1/ave_pool
I0403 17:03:39.886512 20422 net.cpp:425] loss1/ave_pool <- inception_4a/output_inception_4a/output_0_split_0
I0403 17:03:39.886529 20422 net.cpp:399] loss1/ave_pool -> loss1/ave_pool
I0403 17:03:39.886734 20422 net.cpp:141] Setting up loss1/ave_pool
I0403 17:03:39.886761 20422 net.cpp:148] Top shape: 24 512 4 4 (196608)
I0403 17:03:39.886777 20422 net.cpp:156] Memory required for data: 945501216
I0403 17:03:39.886792 20422 layer_factory.hpp:77] Creating layer loss1/conv
I0403 17:03:39.886816 20422 net.cpp:91] Creating Layer loss1/conv
I0403 17:03:39.886833 20422 net.cpp:425] loss1/conv <- loss1/ave_pool
I0403 17:03:39.886852 20422 net.cpp:399] loss1/conv -> loss1/conv
I0403 17:03:39.888206 20422 net.cpp:141] Setting up loss1/conv
I0403 17:03:39.888234 20422 net.cpp:148] Top shape: 24 128 4 4 (49152)
I0403 17:03:39.888252 20422 net.cpp:156] Memory required for data: 945697824
I0403 17:03:39.888284 20422 layer_factory.hpp:77] Creating layer loss1/relu_conv
I0403 17:03:39.888305 20422 net.cpp:91] Creating Layer loss1/relu_conv
I0403 17:03:39.888321 20422 net.cpp:425] loss1/relu_conv <- loss1/conv
I0403 17:03:39.888340 20422 net.cpp:386] loss1/relu_conv -> loss1/conv (in-place)
I0403 17:03:39.888622 20422 net.cpp:141] Setting up loss1/relu_conv
I0403 17:03:39.888648 20422 net.cpp:148] Top shape: 24 128 4 4 (49152)
I0403 17:03:39.888664 20422 net.cpp:156] Memory required for data: 945894432
I0403 17:03:39.888679 20422 layer_factory.hpp:77] Creating layer loss1/fc
I0403 17:03:39.888700 20422 net.cpp:91] Creating Layer loss1/fc
I0403 17:03:39.888720 20422 net.cpp:425] loss1/fc <- loss1/conv
I0403 17:03:39.888741 20422 net.cpp:399] loss1/fc -> loss1/fc
I0403 17:03:39.905915 20422 net.cpp:141] Setting up loss1/fc
I0403 17:03:39.905946 20422 net.cpp:148] Top shape: 24 1024 (24576)
I0403 17:03:39.905963 20422 net.cpp:156] Memory required for data: 945992736
I0403 17:03:39.905982 20422 layer_factory.hpp:77] Creating layer loss1/relu_fc
I0403 17:03:39.905999 20422 net.cpp:91] Creating Layer loss1/relu_fc
I0403 17:03:39.906016 20422 net.cpp:425] loss1/relu_fc <- loss1/fc
I0403 17:03:39.906033 20422 net.cpp:386] loss1/relu_fc -> loss1/fc (in-place)
I0403 17:03:39.906219 20422 net.cpp:141] Setting up loss1/relu_fc
I0403 17:03:39.906244 20422 net.cpp:148] Top shape: 24 1024 (24576)
I0403 17:03:39.906260 20422 net.cpp:156] Memory required for data: 946091040
I0403 17:03:39.906275 20422 layer_factory.hpp:77] Creating layer loss1/drop_fc
I0403 17:03:39.906299 20422 net.cpp:91] Creating Layer loss1/drop_fc
I0403 17:03:39.906317 20422 net.cpp:425] loss1/drop_fc <- loss1/fc
I0403 17:03:39.906337 20422 net.cpp:386] loss1/drop_fc -> loss1/fc (in-place)
I0403 17:03:39.906388 20422 net.cpp:141] Setting up loss1/drop_fc
I0403 17:03:39.906414 20422 net.cpp:148] Top shape: 24 1024 (24576)
I0403 17:03:39.906432 20422 net.cpp:156] Memory required for data: 946189344
I0403 17:03:39.906447 20422 layer_factory.hpp:77] Creating layer loss1/classifier_plantvillage
I0403 17:03:39.906466 20422 net.cpp:91] Creating Layer loss1/classifier_plantvillage
I0403 17:03:39.906483 20422 net.cpp:425] loss1/classifier_plantvillage <- loss1/fc
I0403 17:03:39.906505 20422 net.cpp:399] loss1/classifier_plantvillage -> loss1/classifier_plantvillage
I0403 17:03:39.907441 20422 net.cpp:141] Setting up loss1/classifier_plantvillage
I0403 17:03:39.907469 20422 net.cpp:148] Top shape: 24 38 (912)
I0403 17:03:39.907486 20422 net.cpp:156] Memory required for data: 946192992
I0403 17:03:39.907505 20422 layer_factory.hpp:77] Creating layer loss1/classifier_plantvillage_loss1/classifier_plantvillage_0_split
I0403 17:03:39.907526 20422 net.cpp:91] Creating Layer loss1/classifier_plantvillage_loss1/classifier_plantvillage_0_split
I0403 17:03:39.907542 20422 net.cpp:425] loss1/classifier_plantvillage_loss1/classifier_plantvillage_0_split <- loss1/classifier_plantvillage
I0403 17:03:39.907563 20422 net.cpp:399] loss1/classifier_plantvillage_loss1/classifier_plantvillage_0_split -> loss1/classifier_plantvillage_loss1/classifier_plantvillage_0_split_0
I0403 17:03:39.907587 20422 net.cpp:399] loss1/classifier_plantvillage_loss1/classifier_plantvillage_0_split -> loss1/classifier_plantvillage_loss1/classifier_plantvillage_0_split_1
I0403 17:03:39.907610 20422 net.cpp:399] loss1/classifier_plantvillage_loss1/classifier_plantvillage_0_split -> loss1/classifier_plantvillage_loss1/classifier_plantvillage_0_split_2
I0403 17:03:39.907680 20422 net.cpp:141] Setting up loss1/classifier_plantvillage_loss1/classifier_plantvillage_0_split
I0403 17:03:39.907704 20422 net.cpp:148] Top shape: 24 38 (912)
I0403 17:03:39.907721 20422 net.cpp:148] Top shape: 24 38 (912)
I0403 17:03:39.907737 20422 net.cpp:148] Top shape: 24 38 (912)
I0403 17:03:39.907752 20422 net.cpp:156] Memory required for data: 946203936
I0403 17:03:39.907765 20422 layer_factory.hpp:77] Creating layer inception_4b/1x1
I0403 17:03:39.907788 20422 net.cpp:91] Creating Layer inception_4b/1x1
I0403 17:03:39.907822 20422 net.cpp:425] inception_4b/1x1 <- inception_4a/output_inception_4a/output_0_split_1
I0403 17:03:39.907845 20422 net.cpp:399] inception_4b/1x1 -> inception_4b/1x1
I0403 17:03:39.909492 20422 net.cpp:141] Setting up inception_4b/1x1
I0403 17:03:39.909524 20422 net.cpp:148] Top shape: 24 160 14 14 (752640)
I0403 17:03:39.909543 20422 net.cpp:156] Memory required for data: 949214496
I0403 17:03:39.909561 20422 layer_factory.hpp:77] Creating layer inception_4b/relu_1x1
I0403 17:03:39.909582 20422 net.cpp:91] Creating Layer inception_4b/relu_1x1
I0403 17:03:39.909601 20422 net.cpp:425] inception_4b/relu_1x1 <- inception_4b/1x1
I0403 17:03:39.909624 20422 net.cpp:386] inception_4b/relu_1x1 -> inception_4b/1x1 (in-place)
I0403 17:03:39.909809 20422 net.cpp:141] Setting up inception_4b/relu_1x1
I0403 17:03:39.909838 20422 net.cpp:148] Top shape: 24 160 14 14 (752640)
I0403 17:03:39.909864 20422 net.cpp:156] Memory required for data: 952225056
I0403 17:03:39.909879 20422 layer_factory.hpp:77] Creating layer inception_4b/3x3_reduce
I0403 17:03:39.909899 20422 net.cpp:91] Creating Layer inception_4b/3x3_reduce
I0403 17:03:39.909916 20422 net.cpp:425] inception_4b/3x3_reduce <- inception_4a/output_inception_4a/output_0_split_2
I0403 17:03:39.909940 20422 net.cpp:399] inception_4b/3x3_reduce -> inception_4b/3x3_reduce
I0403 17:03:39.911310 20422 net.cpp:141] Setting up inception_4b/3x3_reduce
I0403 17:03:39.911339 20422 net.cpp:148] Top shape: 24 112 14 14 (526848)
I0403 17:03:39.911355 20422 net.cpp:156] Memory required for data: 954332448
I0403 17:03:39.911373 20422 layer_factory.hpp:77] Creating layer inception_4b/relu_3x3_reduce
I0403 17:03:39.911394 20422 net.cpp:91] Creating Layer inception_4b/relu_3x3_reduce
I0403 17:03:39.911413 20422 net.cpp:425] inception_4b/relu_3x3_reduce <- inception_4b/3x3_reduce
I0403 17:03:39.911432 20422 net.cpp:386] inception_4b/relu_3x3_reduce -> inception_4b/3x3_reduce (in-place)
I0403 17:03:39.911722 20422 net.cpp:141] Setting up inception_4b/relu_3x3_reduce
I0403 17:03:39.911749 20422 net.cpp:148] Top shape: 24 112 14 14 (526848)
I0403 17:03:39.911766 20422 net.cpp:156] Memory required for data: 956439840
I0403 17:03:39.911782 20422 layer_factory.hpp:77] Creating layer inception_4b/3x3
I0403 17:03:39.911804 20422 net.cpp:91] Creating Layer inception_4b/3x3
I0403 17:03:39.911821 20422 net.cpp:425] inception_4b/3x3 <- inception_4b/3x3_reduce
I0403 17:03:39.911844 20422 net.cpp:399] inception_4b/3x3 -> inception_4b/3x3
I0403 17:03:39.914841 20422 net.cpp:141] Setting up inception_4b/3x3
I0403 17:03:39.914872 20422 net.cpp:148] Top shape: 24 224 14 14 (1053696)
I0403 17:03:39.914901 20422 net.cpp:156] Memory required for data: 960654624
I0403 17:03:39.914921 20422 layer_factory.hpp:77] Creating layer inception_4b/relu_3x3
I0403 17:03:39.914939 20422 net.cpp:91] Creating Layer inception_4b/relu_3x3
I0403 17:03:39.914955 20422 net.cpp:425] inception_4b/relu_3x3 <- inception_4b/3x3
I0403 17:03:39.914975 20422 net.cpp:386] inception_4b/relu_3x3 -> inception_4b/3x3 (in-place)
I0403 17:03:39.915159 20422 net.cpp:141] Setting up inception_4b/relu_3x3
I0403 17:03:39.915186 20422 net.cpp:148] Top shape: 24 224 14 14 (1053696)
I0403 17:03:39.915201 20422 net.cpp:156] Memory required for data: 964869408
I0403 17:03:39.915217 20422 layer_factory.hpp:77] Creating layer inception_4b/5x5_reduce
I0403 17:03:39.915240 20422 net.cpp:91] Creating Layer inception_4b/5x5_reduce
I0403 17:03:39.915257 20422 net.cpp:425] inception_4b/5x5_reduce <- inception_4a/output_inception_4a/output_0_split_3
I0403 17:03:39.915280 20422 net.cpp:399] inception_4b/5x5_reduce -> inception_4b/5x5_reduce
I0403 17:03:39.916369 20422 net.cpp:141] Setting up inception_4b/5x5_reduce
I0403 17:03:39.916399 20422 net.cpp:148] Top shape: 24 24 14 14 (112896)
I0403 17:03:39.916414 20422 net.cpp:156] Memory required for data: 965320992
I0403 17:03:39.916434 20422 layer_factory.hpp:77] Creating layer inception_4b/relu_5x5_reduce
I0403 17:03:39.916455 20422 net.cpp:91] Creating Layer inception_4b/relu_5x5_reduce
I0403 17:03:39.916486 20422 net.cpp:425] inception_4b/relu_5x5_reduce <- inception_4b/5x5_reduce
I0403 17:03:39.916504 20422 net.cpp:386] inception_4b/relu_5x5_reduce -> inception_4b/5x5_reduce (in-place)
I0403 17:03:39.916694 20422 net.cpp:141] Setting up inception_4b/relu_5x5_reduce
I0403 17:03:39.916723 20422 net.cpp:148] Top shape: 24 24 14 14 (112896)
I0403 17:03:39.916740 20422 net.cpp:156] Memory required for data: 965772576
I0403 17:03:39.916755 20422 layer_factory.hpp:77] Creating layer inception_4b/5x5
I0403 17:03:39.916779 20422 net.cpp:91] Creating Layer inception_4b/5x5
I0403 17:03:39.916797 20422 net.cpp:425] inception_4b/5x5 <- inception_4b/5x5_reduce
I0403 17:03:39.916817 20422 net.cpp:399] inception_4b/5x5 -> inception_4b/5x5
I0403 17:03:39.918076 20422 net.cpp:141] Setting up inception_4b/5x5
I0403 17:03:39.918105 20422 net.cpp:148] Top shape: 24 64 14 14 (301056)
I0403 17:03:39.918122 20422 net.cpp:156] Memory required for data: 966976800
I0403 17:03:39.918140 20422 layer_factory.hpp:77] Creating layer inception_4b/relu_5x5
I0403 17:03:39.918164 20422 net.cpp:91] Creating Layer inception_4b/relu_5x5
I0403 17:03:39.918181 20422 net.cpp:425] inception_4b/relu_5x5 <- inception_4b/5x5
I0403 17:03:39.918200 20422 net.cpp:386] inception_4b/relu_5x5 -> inception_4b/5x5 (in-place)
I0403 17:03:39.918484 20422 net.cpp:141] Setting up inception_4b/relu_5x5
I0403 17:03:39.918511 20422 net.cpp:148] Top shape: 24 64 14 14 (301056)
I0403 17:03:39.918527 20422 net.cpp:156] Memory required for data: 968181024
I0403 17:03:39.918543 20422 layer_factory.hpp:77] Creating layer inception_4b/pool
I0403 17:03:39.918562 20422 net.cpp:91] Creating Layer inception_4b/pool
I0403 17:03:39.918578 20422 net.cpp:425] inception_4b/pool <- inception_4a/output_inception_4a/output_0_split_4
I0403 17:03:39.918599 20422 net.cpp:399] inception_4b/pool -> inception_4b/pool
I0403 17:03:39.918669 20422 net.cpp:141] Setting up inception_4b/pool
I0403 17:03:39.918694 20422 net.cpp:148] Top shape: 24 512 14 14 (2408448)
I0403 17:03:39.918709 20422 net.cpp:156] Memory required for data: 977814816
I0403 17:03:39.918725 20422 layer_factory.hpp:77] Creating layer inception_4b/pool_proj
I0403 17:03:39.918747 20422 net.cpp:91] Creating Layer inception_4b/pool_proj
I0403 17:03:39.918766 20422 net.cpp:425] inception_4b/pool_proj <- inception_4b/pool
I0403 17:03:39.918786 20422 net.cpp:399] inception_4b/pool_proj -> inception_4b/pool_proj
I0403 17:03:39.919993 20422 net.cpp:141] Setting up inception_4b/pool_proj
I0403 17:03:39.920023 20422 net.cpp:148] Top shape: 24 64 14 14 (301056)
I0403 17:03:39.920039 20422 net.cpp:156] Memory required for data: 979019040
I0403 17:03:39.920058 20422 layer_factory.hpp:77] Creating layer inception_4b/relu_pool_proj
I0403 17:03:39.920078 20422 net.cpp:91] Creating Layer inception_4b/relu_pool_proj
I0403 17:03:39.920096 20422 net.cpp:425] inception_4b/relu_pool_proj <- inception_4b/pool_proj
I0403 17:03:39.920114 20422 net.cpp:386] inception_4b/relu_pool_proj -> inception_4b/pool_proj (in-place)
I0403 17:03:39.920296 20422 net.cpp:141] Setting up inception_4b/relu_pool_proj
I0403 17:03:39.920325 20422 net.cpp:148] Top shape: 24 64 14 14 (301056)
I0403 17:03:39.920341 20422 net.cpp:156] Memory required for data: 980223264
I0403 17:03:39.920356 20422 layer_factory.hpp:77] Creating layer inception_4b/output
I0403 17:03:39.920373 20422 net.cpp:91] Creating Layer inception_4b/output
I0403 17:03:39.920389 20422 net.cpp:425] inception_4b/output <- inception_4b/1x1
I0403 17:03:39.920406 20422 net.cpp:425] inception_4b/output <- inception_4b/3x3
I0403 17:03:39.920423 20422 net.cpp:425] inception_4b/output <- inception_4b/5x5
I0403 17:03:39.920439 20422 net.cpp:425] inception_4b/output <- inception_4b/pool_proj
I0403 17:03:39.920455 20422 net.cpp:399] inception_4b/output -> inception_4b/output
I0403 17:03:39.920501 20422 net.cpp:141] Setting up inception_4b/output
I0403 17:03:39.920526 20422 net.cpp:148] Top shape: 24 512 14 14 (2408448)
I0403 17:03:39.920542 20422 net.cpp:156] Memory required for data: 989857056
I0403 17:03:39.920572 20422 layer_factory.hpp:77] Creating layer inception_4b/output_inception_4b/output_0_split
I0403 17:03:39.920593 20422 net.cpp:91] Creating Layer inception_4b/output_inception_4b/output_0_split
I0403 17:03:39.920615 20422 net.cpp:425] inception_4b/output_inception_4b/output_0_split <- inception_4b/output
I0403 17:03:39.920635 20422 net.cpp:399] inception_4b/output_inception_4b/output_0_split -> inception_4b/output_inception_4b/output_0_split_0
I0403 17:03:39.920656 20422 net.cpp:399] inception_4b/output_inception_4b/output_0_split -> inception_4b/output_inception_4b/output_0_split_1
I0403 17:03:39.920676 20422 net.cpp:399] inception_4b/output_inception_4b/output_0_split -> inception_4b/output_inception_4b/output_0_split_2
I0403 17:03:39.920697 20422 net.cpp:399] inception_4b/output_inception_4b/output_0_split -> inception_4b/output_inception_4b/output_0_split_3
I0403 17:03:39.920783 20422 net.cpp:141] Setting up inception_4b/output_inception_4b/output_0_split
I0403 17:03:39.920809 20422 net.cpp:148] Top shape: 24 512 14 14 (2408448)
I0403 17:03:39.920825 20422 net.cpp:148] Top shape: 24 512 14 14 (2408448)
I0403 17:03:39.920840 20422 net.cpp:148] Top shape: 24 512 14 14 (2408448)
I0403 17:03:39.920856 20422 net.cpp:148] Top shape: 24 512 14 14 (2408448)
I0403 17:03:39.920871 20422 net.cpp:156] Memory required for data: 1028392224
I0403 17:03:39.920884 20422 layer_factory.hpp:77] Creating layer inception_4c/1x1
I0403 17:03:39.920908 20422 net.cpp:91] Creating Layer inception_4c/1x1
I0403 17:03:39.920928 20422 net.cpp:425] inception_4c/1x1 <- inception_4b/output_inception_4b/output_0_split_0
I0403 17:03:39.920948 20422 net.cpp:399] inception_4c/1x1 -> inception_4c/1x1
I0403 17:03:39.922392 20422 net.cpp:141] Setting up inception_4c/1x1
I0403 17:03:39.922425 20422 net.cpp:148] Top shape: 24 128 14 14 (602112)
I0403 17:03:39.922442 20422 net.cpp:156] Memory required for data: 1030800672
I0403 17:03:39.922461 20422 layer_factory.hpp:77] Creating layer inception_4c/relu_1x1
I0403 17:03:39.922482 20422 net.cpp:91] Creating Layer inception_4c/relu_1x1
I0403 17:03:39.922498 20422 net.cpp:425] inception_4c/relu_1x1 <- inception_4c/1x1
I0403 17:03:39.922515 20422 net.cpp:386] inception_4c/relu_1x1 -> inception_4c/1x1 (in-place)
I0403 17:03:39.922708 20422 net.cpp:141] Setting up inception_4c/relu_1x1
I0403 17:03:39.922732 20422 net.cpp:148] Top shape: 24 128 14 14 (602112)
I0403 17:03:39.922749 20422 net.cpp:156] Memory required for data: 1033209120
I0403 17:03:39.922763 20422 layer_factory.hpp:77] Creating layer inception_4c/3x3_reduce
I0403 17:03:39.922786 20422 net.cpp:91] Creating Layer inception_4c/3x3_reduce
I0403 17:03:39.922804 20422 net.cpp:425] inception_4c/3x3_reduce <- inception_4b/output_inception_4b/output_0_split_1
I0403 17:03:39.922826 20422 net.cpp:399] inception_4c/3x3_reduce -> inception_4c/3x3_reduce
I0403 17:03:39.924854 20422 net.cpp:141] Setting up inception_4c/3x3_reduce
I0403 17:03:39.924885 20422 net.cpp:148] Top shape: 24 128 14 14 (602112)
I0403 17:03:39.924901 20422 net.cpp:156] Memory required for data: 1035617568
I0403 17:03:39.924921 20422 layer_factory.hpp:77] Creating layer inception_4c/relu_3x3_reduce
I0403 17:03:39.924942 20422 net.cpp:91] Creating Layer inception_4c/relu_3x3_reduce
I0403 17:03:39.924960 20422 net.cpp:425] inception_4c/relu_3x3_reduce <- inception_4c/3x3_reduce
I0403 17:03:39.924979 20422 net.cpp:386] inception_4c/relu_3x3_reduce -> inception_4c/3x3_reduce (in-place)
I0403 17:03:39.925304 20422 net.cpp:141] Setting up inception_4c/relu_3x3_reduce
I0403 17:03:39.925331 20422 net.cpp:148] Top shape: 24 128 14 14 (602112)
I0403 17:03:39.925348 20422 net.cpp:156] Memory required for data: 1038026016
I0403 17:03:39.925364 20422 layer_factory.hpp:77] Creating layer inception_4c/3x3
I0403 17:03:39.925385 20422 net.cpp:91] Creating Layer inception_4c/3x3
I0403 17:03:39.925415 20422 net.cpp:425] inception_4c/3x3 <- inception_4c/3x3_reduce
I0403 17:03:39.925436 20422 net.cpp:399] inception_4c/3x3 -> inception_4c/3x3
I0403 17:03:39.928951 20422 net.cpp:141] Setting up inception_4c/3x3
I0403 17:03:39.928992 20422 net.cpp:148] Top shape: 24 256 14 14 (1204224)
I0403 17:03:39.929008 20422 net.cpp:156] Memory required for data: 1042842912
I0403 17:03:39.929040 20422 layer_factory.hpp:77] Creating layer inception_4c/relu_3x3
I0403 17:03:39.929064 20422 net.cpp:91] Creating Layer inception_4c/relu_3x3
I0403 17:03:39.929080 20422 net.cpp:425] inception_4c/relu_3x3 <- inception_4c/3x3
I0403 17:03:39.929098 20422 net.cpp:386] inception_4c/relu_3x3 -> inception_4c/3x3 (in-place)
I0403 17:03:39.929280 20422 net.cpp:141] Setting up inception_4c/relu_3x3
I0403 17:03:39.929306 20422 net.cpp:148] Top shape: 24 256 14 14 (1204224)
I0403 17:03:39.929322 20422 net.cpp:156] Memory required for data: 1047659808
I0403 17:03:39.929337 20422 layer_factory.hpp:77] Creating layer inception_4c/5x5_reduce
I0403 17:03:39.929358 20422 net.cpp:91] Creating Layer inception_4c/5x5_reduce
I0403 17:03:39.929374 20422 net.cpp:425] inception_4c/5x5_reduce <- inception_4b/output_inception_4b/output_0_split_2
I0403 17:03:39.929395 20422 net.cpp:399] inception_4c/5x5_reduce -> inception_4c/5x5_reduce
I0403 17:03:39.930461 20422 net.cpp:141] Setting up inception_4c/5x5_reduce
I0403 17:03:39.930490 20422 net.cpp:148] Top shape: 24 24 14 14 (112896)
I0403 17:03:39.930506 20422 net.cpp:156] Memory required for data: 1048111392
I0403 17:03:39.930524 20422 layer_factory.hpp:77] Creating layer inception_4c/relu_5x5_reduce
I0403 17:03:39.930546 20422 net.cpp:91] Creating Layer inception_4c/relu_5x5_reduce
I0403 17:03:39.930563 20422 net.cpp:425] inception_4c/relu_5x5_reduce <- inception_4c/5x5_reduce
I0403 17:03:39.930580 20422 net.cpp:386] inception_4c/relu_5x5_reduce -> inception_4c/5x5_reduce (in-place)
I0403 17:03:39.930766 20422 net.cpp:141] Setting up inception_4c/relu_5x5_reduce
I0403 17:03:39.930791 20422 net.cpp:148] Top shape: 24 24 14 14 (112896)
I0403 17:03:39.930807 20422 net.cpp:156] Memory required for data: 1048562976
I0403 17:03:39.930821 20422 layer_factory.hpp:77] Creating layer inception_4c/5x5
I0403 17:03:39.930845 20422 net.cpp:91] Creating Layer inception_4c/5x5
I0403 17:03:39.930863 20422 net.cpp:425] inception_4c/5x5 <- inception_4c/5x5_reduce
I0403 17:03:39.930883 20422 net.cpp:399] inception_4c/5x5 -> inception_4c/5x5
I0403 17:03:39.932093 20422 net.cpp:141] Setting up inception_4c/5x5
I0403 17:03:39.932123 20422 net.cpp:148] Top shape: 24 64 14 14 (301056)
I0403 17:03:39.932142 20422 net.cpp:156] Memory required for data: 1049767200
I0403 17:03:39.932160 20422 layer_factory.hpp:77] Creating layer inception_4c/relu_5x5
I0403 17:03:39.932178 20422 net.cpp:91] Creating Layer inception_4c/relu_5x5
I0403 17:03:39.932194 20422 net.cpp:425] inception_4c/relu_5x5 <- inception_4c/5x5
I0403 17:03:39.932212 20422 net.cpp:386] inception_4c/relu_5x5 -> inception_4c/5x5 (in-place)
I0403 17:03:39.932497 20422 net.cpp:141] Setting up inception_4c/relu_5x5
I0403 17:03:39.932525 20422 net.cpp:148] Top shape: 24 64 14 14 (301056)
I0403 17:03:39.932541 20422 net.cpp:156] Memory required for data: 1050971424
I0403 17:03:39.932556 20422 layer_factory.hpp:77] Creating layer inception_4c/pool
I0403 17:03:39.932574 20422 net.cpp:91] Creating Layer inception_4c/pool
I0403 17:03:39.932593 20422 net.cpp:425] inception_4c/pool <- inception_4b/output_inception_4b/output_0_split_3
I0403 17:03:39.932616 20422 net.cpp:399] inception_4c/pool -> inception_4c/pool
I0403 17:03:39.932683 20422 net.cpp:141] Setting up inception_4c/pool
I0403 17:03:39.932708 20422 net.cpp:148] Top shape: 24 512 14 14 (2408448)
I0403 17:03:39.932723 20422 net.cpp:156] Memory required for data: 1060605216
I0403 17:03:39.932737 20422 layer_factory.hpp:77] Creating layer inception_4c/pool_proj
I0403 17:03:39.932760 20422 net.cpp:91] Creating Layer inception_4c/pool_proj
I0403 17:03:39.932777 20422 net.cpp:425] inception_4c/pool_proj <- inception_4c/pool
I0403 17:03:39.932797 20422 net.cpp:399] inception_4c/pool_proj -> inception_4c/pool_proj
I0403 17:03:39.934041 20422 net.cpp:141] Setting up inception_4c/pool_proj
I0403 17:03:39.934072 20422 net.cpp:148] Top shape: 24 64 14 14 (301056)
I0403 17:03:39.934113 20422 net.cpp:156] Memory required for data: 1061809440
I0403 17:03:39.934134 20422 layer_factory.hpp:77] Creating layer inception_4c/relu_pool_proj
I0403 17:03:39.934159 20422 net.cpp:91] Creating Layer inception_4c/relu_pool_proj
I0403 17:03:39.934190 20422 net.cpp:425] inception_4c/relu_pool_proj <- inception_4c/pool_proj
I0403 17:03:39.934208 20422 net.cpp:386] inception_4c/relu_pool_proj -> inception_4c/pool_proj (in-place)
I0403 17:03:39.934393 20422 net.cpp:141] Setting up inception_4c/relu_pool_proj
I0403 17:03:39.934432 20422 net.cpp:148] Top shape: 24 64 14 14 (301056)
I0403 17:03:39.934449 20422 net.cpp:156] Memory required for data: 1063013664
I0403 17:03:39.934464 20422 layer_factory.hpp:77] Creating layer inception_4c/output
I0403 17:03:39.934481 20422 net.cpp:91] Creating Layer inception_4c/output
I0403 17:03:39.934496 20422 net.cpp:425] inception_4c/output <- inception_4c/1x1
I0403 17:03:39.934514 20422 net.cpp:425] inception_4c/output <- inception_4c/3x3
I0403 17:03:39.934530 20422 net.cpp:425] inception_4c/output <- inception_4c/5x5
I0403 17:03:39.934545 20422 net.cpp:425] inception_4c/output <- inception_4c/pool_proj
I0403 17:03:39.934562 20422 net.cpp:399] inception_4c/output -> inception_4c/output
I0403 17:03:39.934619 20422 net.cpp:141] Setting up inception_4c/output
I0403 17:03:39.934644 20422 net.cpp:148] Top shape: 24 512 14 14 (2408448)
I0403 17:03:39.934660 20422 net.cpp:156] Memory required for data: 1072647456
I0403 17:03:39.934675 20422 layer_factory.hpp:77] Creating layer inception_4c/output_inception_4c/output_0_split
I0403 17:03:39.934692 20422 net.cpp:91] Creating Layer inception_4c/output_inception_4c/output_0_split
I0403 17:03:39.934712 20422 net.cpp:425] inception_4c/output_inception_4c/output_0_split <- inception_4c/output
I0403 17:03:39.934731 20422 net.cpp:399] inception_4c/output_inception_4c/output_0_split -> inception_4c/output_inception_4c/output_0_split_0
I0403 17:03:39.934749 20422 net.cpp:399] inception_4c/output_inception_4c/output_0_split -> inception_4c/output_inception_4c/output_0_split_1
I0403 17:03:39.934770 20422 net.cpp:399] inception_4c/output_inception_4c/output_0_split -> inception_4c/output_inception_4c/output_0_split_2
I0403 17:03:39.934792 20422 net.cpp:399] inception_4c/output_inception_4c/output_0_split -> inception_4c/output_inception_4c/output_0_split_3
I0403 17:03:39.934875 20422 net.cpp:141] Setting up inception_4c/output_inception_4c/output_0_split
I0403 17:03:39.934898 20422 net.cpp:148] Top shape: 24 512 14 14 (2408448)
I0403 17:03:39.934914 20422 net.cpp:148] Top shape: 24 512 14 14 (2408448)
I0403 17:03:39.934931 20422 net.cpp:148] Top shape: 24 512 14 14 (2408448)
I0403 17:03:39.934947 20422 net.cpp:148] Top shape: 24 512 14 14 (2408448)
I0403 17:03:39.934960 20422 net.cpp:156] Memory required for data: 1111182624
I0403 17:03:39.934975 20422 layer_factory.hpp:77] Creating layer inception_4d/1x1
I0403 17:03:39.934998 20422 net.cpp:91] Creating Layer inception_4d/1x1
I0403 17:03:39.935016 20422 net.cpp:425] inception_4d/1x1 <- inception_4c/output_inception_4c/output_0_split_0
I0403 17:03:39.935037 20422 net.cpp:399] inception_4d/1x1 -> inception_4d/1x1
I0403 17:03:39.936375 20422 net.cpp:141] Setting up inception_4d/1x1
I0403 17:03:39.936403 20422 net.cpp:148] Top shape: 24 112 14 14 (526848)
I0403 17:03:39.936419 20422 net.cpp:156] Memory required for data: 1113290016
I0403 17:03:39.936436 20422 layer_factory.hpp:77] Creating layer inception_4d/relu_1x1
I0403 17:03:39.936453 20422 net.cpp:91] Creating Layer inception_4d/relu_1x1
I0403 17:03:39.936470 20422 net.cpp:425] inception_4d/relu_1x1 <- inception_4d/1x1
I0403 17:03:39.936489 20422 net.cpp:386] inception_4d/relu_1x1 -> inception_4d/1x1 (in-place)
I0403 17:03:39.936678 20422 net.cpp:141] Setting up inception_4d/relu_1x1
I0403 17:03:39.936703 20422 net.cpp:148] Top shape: 24 112 14 14 (526848)
I0403 17:03:39.936718 20422 net.cpp:156] Memory required for data: 1115397408
I0403 17:03:39.936733 20422 layer_factory.hpp:77] Creating layer inception_4d/3x3_reduce
I0403 17:03:39.936770 20422 net.cpp:91] Creating Layer inception_4d/3x3_reduce
I0403 17:03:39.936790 20422 net.cpp:425] inception_4d/3x3_reduce <- inception_4c/output_inception_4c/output_0_split_1
I0403 17:03:39.936811 20422 net.cpp:399] inception_4d/3x3_reduce -> inception_4d/3x3_reduce
I0403 17:03:39.938287 20422 net.cpp:141] Setting up inception_4d/3x3_reduce
I0403 17:03:39.938318 20422 net.cpp:148] Top shape: 24 144 14 14 (677376)
I0403 17:03:39.938334 20422 net.cpp:156] Memory required for data: 1118106912
I0403 17:03:39.938354 20422 layer_factory.hpp:77] Creating layer inception_4d/relu_3x3_reduce
I0403 17:03:39.938370 20422 net.cpp:91] Creating Layer inception_4d/relu_3x3_reduce
I0403 17:03:39.938387 20422 net.cpp:425] inception_4d/relu_3x3_reduce <- inception_4d/3x3_reduce
I0403 17:03:39.938406 20422 net.cpp:386] inception_4d/relu_3x3_reduce -> inception_4d/3x3_reduce (in-place)
I0403 17:03:39.938699 20422 net.cpp:141] Setting up inception_4d/relu_3x3_reduce
I0403 17:03:39.938727 20422 net.cpp:148] Top shape: 24 144 14 14 (677376)
I0403 17:03:39.938745 20422 net.cpp:156] Memory required for data: 1120816416
I0403 17:03:39.938760 20422 layer_factory.hpp:77] Creating layer inception_4d/3x3
I0403 17:03:39.938781 20422 net.cpp:91] Creating Layer inception_4d/3x3
I0403 17:03:39.938798 20422 net.cpp:425] inception_4d/3x3 <- inception_4d/3x3_reduce
I0403 17:03:39.938817 20422 net.cpp:399] inception_4d/3x3 -> inception_4d/3x3
I0403 17:03:39.942956 20422 net.cpp:141] Setting up inception_4d/3x3
I0403 17:03:39.942986 20422 net.cpp:148] Top shape: 24 288 14 14 (1354752)
I0403 17:03:39.943001 20422 net.cpp:156] Memory required for data: 1126235424
I0403 17:03:39.943019 20422 layer_factory.hpp:77] Creating layer inception_4d/relu_3x3
I0403 17:03:39.943038 20422 net.cpp:91] Creating Layer inception_4d/relu_3x3
I0403 17:03:39.943058 20422 net.cpp:425] inception_4d/relu_3x3 <- inception_4d/3x3
I0403 17:03:39.943078 20422 net.cpp:386] inception_4d/relu_3x3 -> inception_4d/3x3 (in-place)
I0403 17:03:39.943259 20422 net.cpp:141] Setting up inception_4d/relu_3x3
I0403 17:03:39.943284 20422 net.cpp:148] Top shape: 24 288 14 14 (1354752)
I0403 17:03:39.943298 20422 net.cpp:156] Memory required for data: 1131654432
I0403 17:03:39.943315 20422 layer_factory.hpp:77] Creating layer inception_4d/5x5_reduce
I0403 17:03:39.943337 20422 net.cpp:91] Creating Layer inception_4d/5x5_reduce
I0403 17:03:39.943354 20422 net.cpp:425] inception_4d/5x5_reduce <- inception_4c/output_inception_4c/output_0_split_2
I0403 17:03:39.943375 20422 net.cpp:399] inception_4d/5x5_reduce -> inception_4d/5x5_reduce
I0403 17:03:39.944504 20422 net.cpp:141] Setting up inception_4d/5x5_reduce
I0403 17:03:39.944531 20422 net.cpp:148] Top shape: 24 32 14 14 (150528)
I0403 17:03:39.944550 20422 net.cpp:156] Memory required for data: 1132256544
I0403 17:03:39.944568 20422 layer_factory.hpp:77] Creating layer inception_4d/relu_5x5_reduce
I0403 17:03:39.944586 20422 net.cpp:91] Creating Layer inception_4d/relu_5x5_reduce
I0403 17:03:39.944612 20422 net.cpp:425] inception_4d/relu_5x5_reduce <- inception_4d/5x5_reduce
I0403 17:03:39.944635 20422 net.cpp:386] inception_4d/relu_5x5_reduce -> inception_4d/5x5_reduce (in-place)
I0403 17:03:39.944820 20422 net.cpp:141] Setting up inception_4d/relu_5x5_reduce
I0403 17:03:39.944846 20422 net.cpp:148] Top shape: 24 32 14 14 (150528)
I0403 17:03:39.944861 20422 net.cpp:156] Memory required for data: 1132858656
I0403 17:03:39.944877 20422 layer_factory.hpp:77] Creating layer inception_4d/5x5
I0403 17:03:39.944900 20422 net.cpp:91] Creating Layer inception_4d/5x5
I0403 17:03:39.944917 20422 net.cpp:425] inception_4d/5x5 <- inception_4d/5x5_reduce
I0403 17:03:39.944938 20422 net.cpp:399] inception_4d/5x5 -> inception_4d/5x5
I0403 17:03:39.946413 20422 net.cpp:141] Setting up inception_4d/5x5
I0403 17:03:39.946441 20422 net.cpp:148] Top shape: 24 64 14 14 (301056)
I0403 17:03:39.946457 20422 net.cpp:156] Memory required for data: 1134062880
I0403 17:03:39.946477 20422 layer_factory.hpp:77] Creating layer inception_4d/relu_5x5
I0403 17:03:39.946513 20422 net.cpp:91] Creating Layer inception_4d/relu_5x5
I0403 17:03:39.946532 20422 net.cpp:425] inception_4d/relu_5x5 <- inception_4d/5x5
I0403 17:03:39.946553 20422 net.cpp:386] inception_4d/relu_5x5 -> inception_4d/5x5 (in-place)
I0403 17:03:39.946861 20422 net.cpp:141] Setting up inception_4d/relu_5x5
I0403 17:03:39.946887 20422 net.cpp:148] Top shape: 24 64 14 14 (301056)
I0403 17:03:39.946903 20422 net.cpp:156] Memory required for data: 1135267104
I0403 17:03:39.946919 20422 layer_factory.hpp:77] Creating layer inception_4d/pool
I0403 17:03:39.946940 20422 net.cpp:91] Creating Layer inception_4d/pool
I0403 17:03:39.946959 20422 net.cpp:425] inception_4d/pool <- inception_4c/output_inception_4c/output_0_split_3
I0403 17:03:39.946977 20422 net.cpp:399] inception_4d/pool -> inception_4d/pool
I0403 17:03:39.947046 20422 net.cpp:141] Setting up inception_4d/pool
I0403 17:03:39.947070 20422 net.cpp:148] Top shape: 24 512 14 14 (2408448)
I0403 17:03:39.947085 20422 net.cpp:156] Memory required for data: 1144900896
I0403 17:03:39.947100 20422 layer_factory.hpp:77] Creating layer inception_4d/pool_proj
I0403 17:03:39.947123 20422 net.cpp:91] Creating Layer inception_4d/pool_proj
I0403 17:03:39.947142 20422 net.cpp:425] inception_4d/pool_proj <- inception_4d/pool
I0403 17:03:39.947165 20422 net.cpp:399] inception_4d/pool_proj -> inception_4d/pool_proj
I0403 17:03:39.948932 20422 net.cpp:141] Setting up inception_4d/pool_proj
I0403 17:03:39.948963 20422 net.cpp:148] Top shape: 24 64 14 14 (301056)
I0403 17:03:39.948979 20422 net.cpp:156] Memory required for data: 1146105120
I0403 17:03:39.948999 20422 layer_factory.hpp:77] Creating layer inception_4d/relu_pool_proj
I0403 17:03:39.949018 20422 net.cpp:91] Creating Layer inception_4d/relu_pool_proj
I0403 17:03:39.949039 20422 net.cpp:425] inception_4d/relu_pool_proj <- inception_4d/pool_proj
I0403 17:03:39.949059 20422 net.cpp:386] inception_4d/relu_pool_proj -> inception_4d/pool_proj (in-place)
I0403 17:03:39.949245 20422 net.cpp:141] Setting up inception_4d/relu_pool_proj
I0403 17:03:39.949272 20422 net.cpp:148] Top shape: 24 64 14 14 (301056)
I0403 17:03:39.949287 20422 net.cpp:156] Memory required for data: 1147309344
I0403 17:03:39.949302 20422 layer_factory.hpp:77] Creating layer inception_4d/output
I0403 17:03:39.949322 20422 net.cpp:91] Creating Layer inception_4d/output
I0403 17:03:39.949340 20422 net.cpp:425] inception_4d/output <- inception_4d/1x1
I0403 17:03:39.949358 20422 net.cpp:425] inception_4d/output <- inception_4d/3x3
I0403 17:03:39.949375 20422 net.cpp:425] inception_4d/output <- inception_4d/5x5
I0403 17:03:39.949393 20422 net.cpp:425] inception_4d/output <- inception_4d/pool_proj
I0403 17:03:39.949409 20422 net.cpp:399] inception_4d/output -> inception_4d/output
I0403 17:03:39.949460 20422 net.cpp:141] Setting up inception_4d/output
I0403 17:03:39.949484 20422 net.cpp:148] Top shape: 24 528 14 14 (2483712)
I0403 17:03:39.949501 20422 net.cpp:156] Memory required for data: 1157244192
I0403 17:03:39.949515 20422 layer_factory.hpp:77] Creating layer inception_4d/output_inception_4d/output_0_split
I0403 17:03:39.949533 20422 net.cpp:91] Creating Layer inception_4d/output_inception_4d/output_0_split
I0403 17:03:39.949551 20422 net.cpp:425] inception_4d/output_inception_4d/output_0_split <- inception_4d/output
I0403 17:03:39.949573 20422 net.cpp:399] inception_4d/output_inception_4d/output_0_split -> inception_4d/output_inception_4d/output_0_split_0
I0403 17:03:39.949595 20422 net.cpp:399] inception_4d/output_inception_4d/output_0_split -> inception_4d/output_inception_4d/output_0_split_1
I0403 17:03:39.949623 20422 net.cpp:399] inception_4d/output_inception_4d/output_0_split -> inception_4d/output_inception_4d/output_0_split_2
I0403 17:03:39.949646 20422 net.cpp:399] inception_4d/output_inception_4d/output_0_split -> inception_4d/output_inception_4d/output_0_split_3
I0403 17:03:39.949667 20422 net.cpp:399] inception_4d/output_inception_4d/output_0_split -> inception_4d/output_inception_4d/output_0_split_4
I0403 17:03:39.949771 20422 net.cpp:141] Setting up inception_4d/output_inception_4d/output_0_split
I0403 17:03:39.949810 20422 net.cpp:148] Top shape: 24 528 14 14 (2483712)
I0403 17:03:39.949828 20422 net.cpp:148] Top shape: 24 528 14 14 (2483712)
I0403 17:03:39.949846 20422 net.cpp:148] Top shape: 24 528 14 14 (2483712)
I0403 17:03:39.949862 20422 net.cpp:148] Top shape: 24 528 14 14 (2483712)
I0403 17:03:39.949877 20422 net.cpp:148] Top shape: 24 528 14 14 (2483712)
I0403 17:03:39.949892 20422 net.cpp:156] Memory required for data: 1206918432
I0403 17:03:39.949906 20422 layer_factory.hpp:77] Creating layer loss2/ave_pool
I0403 17:03:39.949925 20422 net.cpp:91] Creating Layer loss2/ave_pool
I0403 17:03:39.949941 20422 net.cpp:425] loss2/ave_pool <- inception_4d/output_inception_4d/output_0_split_0
I0403 17:03:39.949964 20422 net.cpp:399] loss2/ave_pool -> loss2/ave_pool
I0403 17:03:39.950284 20422 net.cpp:141] Setting up loss2/ave_pool
I0403 17:03:39.950311 20422 net.cpp:148] Top shape: 24 528 4 4 (202752)
I0403 17:03:39.950326 20422 net.cpp:156] Memory required for data: 1207729440
I0403 17:03:39.950342 20422 layer_factory.hpp:77] Creating layer loss2/conv
I0403 17:03:39.950366 20422 net.cpp:91] Creating Layer loss2/conv
I0403 17:03:39.950383 20422 net.cpp:425] loss2/conv <- loss2/ave_pool
I0403 17:03:39.950407 20422 net.cpp:399] loss2/conv -> loss2/conv
I0403 17:03:39.952298 20422 net.cpp:141] Setting up loss2/conv
I0403 17:03:39.952327 20422 net.cpp:148] Top shape: 24 128 4 4 (49152)
I0403 17:03:39.952343 20422 net.cpp:156] Memory required for data: 1207926048
I0403 17:03:39.952361 20422 layer_factory.hpp:77] Creating layer loss2/relu_conv
I0403 17:03:39.952383 20422 net.cpp:91] Creating Layer loss2/relu_conv
I0403 17:03:39.952404 20422 net.cpp:425] loss2/relu_conv <- loss2/conv
I0403 17:03:39.952420 20422 net.cpp:386] loss2/relu_conv -> loss2/conv (in-place)
I0403 17:03:39.952716 20422 net.cpp:141] Setting up loss2/relu_conv
I0403 17:03:39.952744 20422 net.cpp:148] Top shape: 24 128 4 4 (49152)
I0403 17:03:39.952759 20422 net.cpp:156] Memory required for data: 1208122656
I0403 17:03:39.952775 20422 layer_factory.hpp:77] Creating layer loss2/fc
I0403 17:03:39.952795 20422 net.cpp:91] Creating Layer loss2/fc
I0403 17:03:39.952814 20422 net.cpp:425] loss2/fc <- loss2/conv
I0403 17:03:39.952836 20422 net.cpp:399] loss2/fc -> loss2/fc
I0403 17:03:39.970335 20422 net.cpp:141] Setting up loss2/fc
I0403 17:03:39.970369 20422 net.cpp:148] Top shape: 24 1024 (24576)
I0403 17:03:39.970386 20422 net.cpp:156] Memory required for data: 1208220960
I0403 17:03:39.970403 20422 layer_factory.hpp:77] Creating layer loss2/relu_fc
I0403 17:03:39.970422 20422 net.cpp:91] Creating Layer loss2/relu_fc
I0403 17:03:39.970438 20422 net.cpp:425] loss2/relu_fc <- loss2/fc
I0403 17:03:39.970458 20422 net.cpp:386] loss2/relu_fc -> loss2/fc (in-place)
I0403 17:03:39.970760 20422 net.cpp:141] Setting up loss2/relu_fc
I0403 17:03:39.970788 20422 net.cpp:148] Top shape: 24 1024 (24576)
I0403 17:03:39.970803 20422 net.cpp:156] Memory required for data: 1208319264
I0403 17:03:39.970818 20422 layer_factory.hpp:77] Creating layer loss2/drop_fc
I0403 17:03:39.970834 20422 net.cpp:91] Creating Layer loss2/drop_fc
I0403 17:03:39.970850 20422 net.cpp:425] loss2/drop_fc <- loss2/fc
I0403 17:03:39.970870 20422 net.cpp:386] loss2/drop_fc -> loss2/fc (in-place)
I0403 17:03:39.970918 20422 net.cpp:141] Setting up loss2/drop_fc
I0403 17:03:39.970943 20422 net.cpp:148] Top shape: 24 1024 (24576)
I0403 17:03:39.970959 20422 net.cpp:156] Memory required for data: 1208417568
I0403 17:03:39.970974 20422 layer_factory.hpp:77] Creating layer loss2/classifier_plantvillage
I0403 17:03:39.970991 20422 net.cpp:91] Creating Layer loss2/classifier_plantvillage
I0403 17:03:39.971007 20422 net.cpp:425] loss2/classifier_plantvillage <- loss2/fc
I0403 17:03:39.971029 20422 net.cpp:399] loss2/classifier_plantvillage -> loss2/classifier_plantvillage
I0403 17:03:39.971423 20422 net.cpp:141] Setting up loss2/classifier_plantvillage
I0403 17:03:39.971449 20422 net.cpp:148] Top shape: 24 38 (912)
I0403 17:03:39.971463 20422 net.cpp:156] Memory required for data: 1208421216
I0403 17:03:39.971500 20422 layer_factory.hpp:77] Creating layer loss2/classifier_plantvillage_loss2/classifier_plantvillage_0_split
I0403 17:03:39.971523 20422 net.cpp:91] Creating Layer loss2/classifier_plantvillage_loss2/classifier_plantvillage_0_split
I0403 17:03:39.971540 20422 net.cpp:425] loss2/classifier_plantvillage_loss2/classifier_plantvillage_0_split <- loss2/classifier_plantvillage
I0403 17:03:39.971559 20422 net.cpp:399] loss2/classifier_plantvillage_loss2/classifier_plantvillage_0_split -> loss2/classifier_plantvillage_loss2/classifier_plantvillage_0_split_0
I0403 17:03:39.971582 20422 net.cpp:399] loss2/classifier_plantvillage_loss2/classifier_plantvillage_0_split -> loss2/classifier_plantvillage_loss2/classifier_plantvillage_0_split_1
I0403 17:03:39.971607 20422 net.cpp:399] loss2/classifier_plantvillage_loss2/classifier_plantvillage_0_split -> loss2/classifier_plantvillage_loss2/classifier_plantvillage_0_split_2
I0403 17:03:39.971685 20422 net.cpp:141] Setting up loss2/classifier_plantvillage_loss2/classifier_plantvillage_0_split
I0403 17:03:39.971709 20422 net.cpp:148] Top shape: 24 38 (912)
I0403 17:03:39.971726 20422 net.cpp:148] Top shape: 24 38 (912)
I0403 17:03:39.971742 20422 net.cpp:148] Top shape: 24 38 (912)
I0403 17:03:39.971757 20422 net.cpp:156] Memory required for data: 1208432160
I0403 17:03:39.971771 20422 layer_factory.hpp:77] Creating layer inception_4e/1x1
I0403 17:03:39.971792 20422 net.cpp:91] Creating Layer inception_4e/1x1
I0403 17:03:39.971810 20422 net.cpp:425] inception_4e/1x1 <- inception_4d/output_inception_4d/output_0_split_1
I0403 17:03:39.971829 20422 net.cpp:399] inception_4e/1x1 -> inception_4e/1x1
I0403 17:03:39.973637 20422 net.cpp:141] Setting up inception_4e/1x1
I0403 17:03:39.973667 20422 net.cpp:148] Top shape: 24 256 14 14 (1204224)
I0403 17:03:39.973685 20422 net.cpp:156] Memory required for data: 1213249056
I0403 17:03:39.973703 20422 layer_factory.hpp:77] Creating layer inception_4e/relu_1x1
I0403 17:03:39.973722 20422 net.cpp:91] Creating Layer inception_4e/relu_1x1
I0403 17:03:39.973738 20422 net.cpp:425] inception_4e/relu_1x1 <- inception_4e/1x1
I0403 17:03:39.973754 20422 net.cpp:386] inception_4e/relu_1x1 -> inception_4e/1x1 (in-place)
I0403 17:03:39.974045 20422 net.cpp:141] Setting up inception_4e/relu_1x1
I0403 17:03:39.974074 20422 net.cpp:148] Top shape: 24 256 14 14 (1204224)
I0403 17:03:39.974091 20422 net.cpp:156] Memory required for data: 1218065952
I0403 17:03:39.974107 20422 layer_factory.hpp:77] Creating layer inception_4e/3x3_reduce
I0403 17:03:39.974126 20422 net.cpp:91] Creating Layer inception_4e/3x3_reduce
I0403 17:03:39.974143 20422 net.cpp:425] inception_4e/3x3_reduce <- inception_4d/output_inception_4d/output_0_split_2
I0403 17:03:39.974164 20422 net.cpp:399] inception_4e/3x3_reduce -> inception_4e/3x3_reduce
I0403 17:03:39.976239 20422 net.cpp:141] Setting up inception_4e/3x3_reduce
I0403 17:03:39.976269 20422 net.cpp:148] Top shape: 24 160 14 14 (752640)
I0403 17:03:39.976285 20422 net.cpp:156] Memory required for data: 1221076512
I0403 17:03:39.976305 20422 layer_factory.hpp:77] Creating layer inception_4e/relu_3x3_reduce
I0403 17:03:39.976325 20422 net.cpp:91] Creating Layer inception_4e/relu_3x3_reduce
I0403 17:03:39.976342 20422 net.cpp:425] inception_4e/relu_3x3_reduce <- inception_4e/3x3_reduce
I0403 17:03:39.976361 20422 net.cpp:386] inception_4e/relu_3x3_reduce -> inception_4e/3x3_reduce (in-place)
I0403 17:03:39.976542 20422 net.cpp:141] Setting up inception_4e/relu_3x3_reduce
I0403 17:03:39.976570 20422 net.cpp:148] Top shape: 24 160 14 14 (752640)
I0403 17:03:39.976588 20422 net.cpp:156] Memory required for data: 1224087072
I0403 17:03:39.976605 20422 layer_factory.hpp:77] Creating layer inception_4e/3x3
I0403 17:03:39.976629 20422 net.cpp:91] Creating Layer inception_4e/3x3
I0403 17:03:39.976649 20422 net.cpp:425] inception_4e/3x3 <- inception_4e/3x3_reduce
I0403 17:03:39.976667 20422 net.cpp:399] inception_4e/3x3 -> inception_4e/3x3
I0403 17:03:39.981600 20422 net.cpp:141] Setting up inception_4e/3x3
I0403 17:03:39.981647 20422 net.cpp:148] Top shape: 24 320 14 14 (1505280)
I0403 17:03:39.981665 20422 net.cpp:156] Memory required for data: 1230108192
I0403 17:03:39.981683 20422 layer_factory.hpp:77] Creating layer inception_4e/relu_3x3
I0403 17:03:39.981703 20422 net.cpp:91] Creating Layer inception_4e/relu_3x3
I0403 17:03:39.981719 20422 net.cpp:425] inception_4e/relu_3x3 <- inception_4e/3x3
I0403 17:03:39.981735 20422 net.cpp:386] inception_4e/relu_3x3 -> inception_4e/3x3 (in-place)
I0403 17:03:39.982033 20422 net.cpp:141] Setting up inception_4e/relu_3x3
I0403 17:03:39.982060 20422 net.cpp:148] Top shape: 24 320 14 14 (1505280)
I0403 17:03:39.982076 20422 net.cpp:156] Memory required for data: 1236129312
I0403 17:03:39.982090 20422 layer_factory.hpp:77] Creating layer inception_4e/5x5_reduce
I0403 17:03:39.982113 20422 net.cpp:91] Creating Layer inception_4e/5x5_reduce
I0403 17:03:39.982132 20422 net.cpp:425] inception_4e/5x5_reduce <- inception_4d/output_inception_4d/output_0_split_3
I0403 17:03:39.982153 20422 net.cpp:399] inception_4e/5x5_reduce -> inception_4e/5x5_reduce
I0403 17:03:39.983207 20422 net.cpp:141] Setting up inception_4e/5x5_reduce
I0403 17:03:39.983235 20422 net.cpp:148] Top shape: 24 32 14 14 (150528)
I0403 17:03:39.983252 20422 net.cpp:156] Memory required for data: 1236731424
I0403 17:03:39.983268 20422 layer_factory.hpp:77] Creating layer inception_4e/relu_5x5_reduce
I0403 17:03:39.983289 20422 net.cpp:91] Creating Layer inception_4e/relu_5x5_reduce
I0403 17:03:39.983306 20422 net.cpp:425] inception_4e/relu_5x5_reduce <- inception_4e/5x5_reduce
I0403 17:03:39.983324 20422 net.cpp:386] inception_4e/relu_5x5_reduce -> inception_4e/5x5_reduce (in-place)
I0403 17:03:39.983628 20422 net.cpp:141] Setting up inception_4e/relu_5x5_reduce
I0403 17:03:39.983655 20422 net.cpp:148] Top shape: 24 32 14 14 (150528)
I0403 17:03:39.983671 20422 net.cpp:156] Memory required for data: 1237333536
I0403 17:03:39.983687 20422 layer_factory.hpp:77] Creating layer inception_4e/5x5
I0403 17:03:39.983726 20422 net.cpp:91] Creating Layer inception_4e/5x5
I0403 17:03:39.983747 20422 net.cpp:425] inception_4e/5x5 <- inception_4e/5x5_reduce
I0403 17:03:39.983768 20422 net.cpp:399] inception_4e/5x5 -> inception_4e/5x5
I0403 17:03:39.985589 20422 net.cpp:141] Setting up inception_4e/5x5
I0403 17:03:39.985621 20422 net.cpp:148] Top shape: 24 128 14 14 (602112)
I0403 17:03:39.985638 20422 net.cpp:156] Memory required for data: 1239741984
I0403 17:03:39.985658 20422 layer_factory.hpp:77] Creating layer inception_4e/relu_5x5
I0403 17:03:39.985679 20422 net.cpp:91] Creating Layer inception_4e/relu_5x5
I0403 17:03:39.985697 20422 net.cpp:425] inception_4e/relu_5x5 <- inception_4e/5x5
I0403 17:03:39.985713 20422 net.cpp:386] inception_4e/relu_5x5 -> inception_4e/5x5 (in-place)
I0403 17:03:39.985908 20422 net.cpp:141] Setting up inception_4e/relu_5x5
I0403 17:03:39.985934 20422 net.cpp:148] Top shape: 24 128 14 14 (602112)
I0403 17:03:39.985949 20422 net.cpp:156] Memory required for data: 1242150432
I0403 17:03:39.985965 20422 layer_factory.hpp:77] Creating layer inception_4e/pool
I0403 17:03:39.985985 20422 net.cpp:91] Creating Layer inception_4e/pool
I0403 17:03:39.986001 20422 net.cpp:425] inception_4e/pool <- inception_4d/output_inception_4d/output_0_split_4
I0403 17:03:39.986019 20422 net.cpp:399] inception_4e/pool -> inception_4e/pool
I0403 17:03:39.986088 20422 net.cpp:141] Setting up inception_4e/pool
I0403 17:03:39.986114 20422 net.cpp:148] Top shape: 24 528 14 14 (2483712)
I0403 17:03:39.986129 20422 net.cpp:156] Memory required for data: 1252085280
I0403 17:03:39.986143 20422 layer_factory.hpp:77] Creating layer inception_4e/pool_proj
I0403 17:03:39.986166 20422 net.cpp:91] Creating Layer inception_4e/pool_proj
I0403 17:03:39.986183 20422 net.cpp:425] inception_4e/pool_proj <- inception_4e/pool
I0403 17:03:39.986204 20422 net.cpp:399] inception_4e/pool_proj -> inception_4e/pool_proj
I0403 17:03:39.987678 20422 net.cpp:141] Setting up inception_4e/pool_proj
I0403 17:03:39.987705 20422 net.cpp:148] Top shape: 24 128 14 14 (602112)
I0403 17:03:39.987736 20422 net.cpp:156] Memory required for data: 1254493728
I0403 17:03:39.987756 20422 layer_factory.hpp:77] Creating layer inception_4e/relu_pool_proj
I0403 17:03:39.987778 20422 net.cpp:91] Creating Layer inception_4e/relu_pool_proj
I0403 17:03:39.987797 20422 net.cpp:425] inception_4e/relu_pool_proj <- inception_4e/pool_proj
I0403 17:03:39.987817 20422 net.cpp:386] inception_4e/relu_pool_proj -> inception_4e/pool_proj (in-place)
I0403 17:03:39.988106 20422 net.cpp:141] Setting up inception_4e/relu_pool_proj
I0403 17:03:39.988132 20422 net.cpp:148] Top shape: 24 128 14 14 (602112)
I0403 17:03:39.988148 20422 net.cpp:156] Memory required for data: 1256902176
I0403 17:03:39.988163 20422 layer_factory.hpp:77] Creating layer inception_4e/output
I0403 17:03:39.988180 20422 net.cpp:91] Creating Layer inception_4e/output
I0403 17:03:39.988196 20422 net.cpp:425] inception_4e/output <- inception_4e/1x1
I0403 17:03:39.988214 20422 net.cpp:425] inception_4e/output <- inception_4e/3x3
I0403 17:03:39.988229 20422 net.cpp:425] inception_4e/output <- inception_4e/5x5
I0403 17:03:39.988245 20422 net.cpp:425] inception_4e/output <- inception_4e/pool_proj
I0403 17:03:39.988265 20422 net.cpp:399] inception_4e/output -> inception_4e/output
I0403 17:03:39.988315 20422 net.cpp:141] Setting up inception_4e/output
I0403 17:03:39.988343 20422 net.cpp:148] Top shape: 24 832 14 14 (3913728)
I0403 17:03:39.988358 20422 net.cpp:156] Memory required for data: 1272557088
I0403 17:03:39.988373 20422 layer_factory.hpp:77] Creating layer pool4/3x3_s2
I0403 17:03:39.988389 20422 net.cpp:91] Creating Layer pool4/3x3_s2
I0403 17:03:39.988404 20422 net.cpp:425] pool4/3x3_s2 <- inception_4e/output
I0403 17:03:39.988426 20422 net.cpp:399] pool4/3x3_s2 -> pool4/3x3_s2
I0403 17:03:39.988492 20422 net.cpp:141] Setting up pool4/3x3_s2
I0403 17:03:39.988517 20422 net.cpp:148] Top shape: 24 832 7 7 (978432)
I0403 17:03:39.988533 20422 net.cpp:156] Memory required for data: 1276470816
I0403 17:03:39.988548 20422 layer_factory.hpp:77] Creating layer pool4/3x3_s2_pool4/3x3_s2_0_split
I0403 17:03:39.988567 20422 net.cpp:91] Creating Layer pool4/3x3_s2_pool4/3x3_s2_0_split
I0403 17:03:39.988585 20422 net.cpp:425] pool4/3x3_s2_pool4/3x3_s2_0_split <- pool4/3x3_s2
I0403 17:03:39.988606 20422 net.cpp:399] pool4/3x3_s2_pool4/3x3_s2_0_split -> pool4/3x3_s2_pool4/3x3_s2_0_split_0
I0403 17:03:39.988629 20422 net.cpp:399] pool4/3x3_s2_pool4/3x3_s2_0_split -> pool4/3x3_s2_pool4/3x3_s2_0_split_1
I0403 17:03:39.988651 20422 net.cpp:399] pool4/3x3_s2_pool4/3x3_s2_0_split -> pool4/3x3_s2_pool4/3x3_s2_0_split_2
I0403 17:03:39.988674 20422 net.cpp:399] pool4/3x3_s2_pool4/3x3_s2_0_split -> pool4/3x3_s2_pool4/3x3_s2_0_split_3
I0403 17:03:39.988765 20422 net.cpp:141] Setting up pool4/3x3_s2_pool4/3x3_s2_0_split
I0403 17:03:39.988790 20422 net.cpp:148] Top shape: 24 832 7 7 (978432)
I0403 17:03:39.988806 20422 net.cpp:148] Top shape: 24 832 7 7 (978432)
I0403 17:03:39.988821 20422 net.cpp:148] Top shape: 24 832 7 7 (978432)
I0403 17:03:39.988837 20422 net.cpp:148] Top shape: 24 832 7 7 (978432)
I0403 17:03:39.988850 20422 net.cpp:156] Memory required for data: 1292125728
I0403 17:03:39.988865 20422 layer_factory.hpp:77] Creating layer inception_5a/1x1
I0403 17:03:39.988888 20422 net.cpp:91] Creating Layer inception_5a/1x1
I0403 17:03:39.988904 20422 net.cpp:425] inception_5a/1x1 <- pool4/3x3_s2_pool4/3x3_s2_0_split_0
I0403 17:03:39.988926 20422 net.cpp:399] inception_5a/1x1 -> inception_5a/1x1
I0403 17:03:39.991701 20422 net.cpp:141] Setting up inception_5a/1x1
I0403 17:03:39.991730 20422 net.cpp:148] Top shape: 24 256 7 7 (301056)
I0403 17:03:39.991745 20422 net.cpp:156] Memory required for data: 1293329952
I0403 17:03:39.991763 20422 layer_factory.hpp:77] Creating layer inception_5a/relu_1x1
I0403 17:03:39.991783 20422 net.cpp:91] Creating Layer inception_5a/relu_1x1
I0403 17:03:39.991801 20422 net.cpp:425] inception_5a/relu_1x1 <- inception_5a/1x1
I0403 17:03:39.991818 20422 net.cpp:386] inception_5a/relu_1x1 -> inception_5a/1x1 (in-place)
I0403 17:03:39.992128 20422 net.cpp:141] Setting up inception_5a/relu_1x1
I0403 17:03:39.992154 20422 net.cpp:148] Top shape: 24 256 7 7 (301056)
I0403 17:03:39.992171 20422 net.cpp:156] Memory required for data: 1294534176
I0403 17:03:39.992187 20422 layer_factory.hpp:77] Creating layer inception_5a/3x3_reduce
I0403 17:03:39.992208 20422 net.cpp:91] Creating Layer inception_5a/3x3_reduce
I0403 17:03:39.992226 20422 net.cpp:425] inception_5a/3x3_reduce <- pool4/3x3_s2_pool4/3x3_s2_0_split_1
I0403 17:03:39.992249 20422 net.cpp:399] inception_5a/3x3_reduce -> inception_5a/3x3_reduce
I0403 17:03:39.994678 20422 net.cpp:141] Setting up inception_5a/3x3_reduce
I0403 17:03:39.994709 20422 net.cpp:148] Top shape: 24 160 7 7 (188160)
I0403 17:03:39.994727 20422 net.cpp:156] Memory required for data: 1295286816
I0403 17:03:39.994746 20422 layer_factory.hpp:77] Creating layer inception_5a/relu_3x3_reduce
I0403 17:03:39.994765 20422 net.cpp:91] Creating Layer inception_5a/relu_3x3_reduce
I0403 17:03:39.994782 20422 net.cpp:425] inception_5a/relu_3x3_reduce <- inception_5a/3x3_reduce
I0403 17:03:39.994803 20422 net.cpp:386] inception_5a/relu_3x3_reduce -> inception_5a/3x3_reduce (in-place)
I0403 17:03:39.994987 20422 net.cpp:141] Setting up inception_5a/relu_3x3_reduce
I0403 17:03:39.995012 20422 net.cpp:148] Top shape: 24 160 7 7 (188160)
I0403 17:03:39.995028 20422 net.cpp:156] Memory required for data: 1296039456
I0403 17:03:39.995043 20422 layer_factory.hpp:77] Creating layer inception_5a/3x3
I0403 17:03:39.995065 20422 net.cpp:91] Creating Layer inception_5a/3x3
I0403 17:03:39.995085 20422 net.cpp:425] inception_5a/3x3 <- inception_5a/3x3_reduce
I0403 17:03:39.995107 20422 net.cpp:399] inception_5a/3x3 -> inception_5a/3x3
I0403 17:03:40.000020 20422 net.cpp:141] Setting up inception_5a/3x3
I0403 17:03:40.000051 20422 net.cpp:148] Top shape: 24 320 7 7 (376320)
I0403 17:03:40.000066 20422 net.cpp:156] Memory required for data: 1297544736
I0403 17:03:40.000085 20422 layer_factory.hpp:77] Creating layer inception_5a/relu_3x3
I0403 17:03:40.000107 20422 net.cpp:91] Creating Layer inception_5a/relu_3x3
I0403 17:03:40.000124 20422 net.cpp:425] inception_5a/relu_3x3 <- inception_5a/3x3
I0403 17:03:40.000143 20422 net.cpp:386] inception_5a/relu_3x3 -> inception_5a/3x3 (in-place)
I0403 17:03:40.000433 20422 net.cpp:141] Setting up inception_5a/relu_3x3
I0403 17:03:40.000460 20422 net.cpp:148] Top shape: 24 320 7 7 (376320)
I0403 17:03:40.000476 20422 net.cpp:156] Memory required for data: 1299050016
I0403 17:03:40.000504 20422 layer_factory.hpp:77] Creating layer inception_5a/5x5_reduce
I0403 17:03:40.000530 20422 net.cpp:91] Creating Layer inception_5a/5x5_reduce
I0403 17:03:40.000547 20422 net.cpp:425] inception_5a/5x5_reduce <- pool4/3x3_s2_pool4/3x3_s2_0_split_2
I0403 17:03:40.000569 20422 net.cpp:399] inception_5a/5x5_reduce -> inception_5a/5x5_reduce
I0403 17:03:40.001747 20422 net.cpp:141] Setting up inception_5a/5x5_reduce
I0403 17:03:40.001776 20422 net.cpp:148] Top shape: 24 32 7 7 (37632)
I0403 17:03:40.001792 20422 net.cpp:156] Memory required for data: 1299200544
I0403 17:03:40.001811 20422 layer_factory.hpp:77] Creating layer inception_5a/relu_5x5_reduce
I0403 17:03:40.001832 20422 net.cpp:91] Creating Layer inception_5a/relu_5x5_reduce
I0403 17:03:40.001849 20422 net.cpp:425] inception_5a/relu_5x5_reduce <- inception_5a/5x5_reduce
I0403 17:03:40.001868 20422 net.cpp:386] inception_5a/relu_5x5_reduce -> inception_5a/5x5_reduce (in-place)
I0403 17:03:40.002163 20422 net.cpp:141] Setting up inception_5a/relu_5x5_reduce
I0403 17:03:40.002192 20422 net.cpp:148] Top shape: 24 32 7 7 (37632)
I0403 17:03:40.002208 20422 net.cpp:156] Memory required for data: 1299351072
I0403 17:03:40.002224 20422 layer_factory.hpp:77] Creating layer inception_5a/5x5
I0403 17:03:40.002249 20422 net.cpp:91] Creating Layer inception_5a/5x5
I0403 17:03:40.002266 20422 net.cpp:425] inception_5a/5x5 <- inception_5a/5x5_reduce
I0403 17:03:40.002285 20422 net.cpp:399] inception_5a/5x5 -> inception_5a/5x5
I0403 17:03:40.004034 20422 net.cpp:141] Setting up inception_5a/5x5
I0403 17:03:40.004075 20422 net.cpp:148] Top shape: 24 128 7 7 (150528)
I0403 17:03:40.004091 20422 net.cpp:156] Memory required for data: 1299953184
I0403 17:03:40.004109 20422 layer_factory.hpp:77] Creating layer inception_5a/relu_5x5
I0403 17:03:40.004130 20422 net.cpp:91] Creating Layer inception_5a/relu_5x5
I0403 17:03:40.004148 20422 net.cpp:425] inception_5a/relu_5x5 <- inception_5a/5x5
I0403 17:03:40.004166 20422 net.cpp:386] inception_5a/relu_5x5 -> inception_5a/5x5 (in-place)
I0403 17:03:40.004364 20422 net.cpp:141] Setting up inception_5a/relu_5x5
I0403 17:03:40.004390 20422 net.cpp:148] Top shape: 24 128 7 7 (150528)
I0403 17:03:40.004406 20422 net.cpp:156] Memory required for data: 1300555296
I0403 17:03:40.004423 20422 layer_factory.hpp:77] Creating layer inception_5a/pool
I0403 17:03:40.004444 20422 net.cpp:91] Creating Layer inception_5a/pool
I0403 17:03:40.004461 20422 net.cpp:425] inception_5a/pool <- pool4/3x3_s2_pool4/3x3_s2_0_split_3
I0403 17:03:40.004479 20422 net.cpp:399] inception_5a/pool -> inception_5a/pool
I0403 17:03:40.004552 20422 net.cpp:141] Setting up inception_5a/pool
I0403 17:03:40.004576 20422 net.cpp:148] Top shape: 24 832 7 7 (978432)
I0403 17:03:40.004592 20422 net.cpp:156] Memory required for data: 1304469024
I0403 17:03:40.004617 20422 layer_factory.hpp:77] Creating layer inception_5a/pool_proj
I0403 17:03:40.004643 20422 net.cpp:91] Creating Layer inception_5a/pool_proj
I0403 17:03:40.004662 20422 net.cpp:425] inception_5a/pool_proj <- inception_5a/pool
I0403 17:03:40.004683 20422 net.cpp:399] inception_5a/pool_proj -> inception_5a/pool_proj
I0403 17:03:40.006983 20422 net.cpp:141] Setting up inception_5a/pool_proj
I0403 17:03:40.007014 20422 net.cpp:148] Top shape: 24 128 7 7 (150528)
I0403 17:03:40.007030 20422 net.cpp:156] Memory required for data: 1305071136
I0403 17:03:40.007050 20422 layer_factory.hpp:77] Creating layer inception_5a/relu_pool_proj
I0403 17:03:40.007068 20422 net.cpp:91] Creating Layer inception_5a/relu_pool_proj
I0403 17:03:40.007084 20422 net.cpp:425] inception_5a/relu_pool_proj <- inception_5a/pool_proj
I0403 17:03:40.007104 20422 net.cpp:386] inception_5a/relu_pool_proj -> inception_5a/pool_proj (in-place)
I0403 17:03:40.007403 20422 net.cpp:141] Setting up inception_5a/relu_pool_proj
I0403 17:03:40.007431 20422 net.cpp:148] Top shape: 24 128 7 7 (150528)
I0403 17:03:40.007446 20422 net.cpp:156] Memory required for data: 1305673248
I0403 17:03:40.007462 20422 layer_factory.hpp:77] Creating layer inception_5a/output
I0403 17:03:40.007478 20422 net.cpp:91] Creating Layer inception_5a/output
I0403 17:03:40.007495 20422 net.cpp:425] inception_5a/output <- inception_5a/1x1
I0403 17:03:40.007513 20422 net.cpp:425] inception_5a/output <- inception_5a/3x3
I0403 17:03:40.007529 20422 net.cpp:425] inception_5a/output <- inception_5a/5x5
I0403 17:03:40.007550 20422 net.cpp:425] inception_5a/output <- inception_5a/pool_proj
I0403 17:03:40.007570 20422 net.cpp:399] inception_5a/output -> inception_5a/output
I0403 17:03:40.007623 20422 net.cpp:141] Setting up inception_5a/output
I0403 17:03:40.007649 20422 net.cpp:148] Top shape: 24 832 7 7 (978432)
I0403 17:03:40.007666 20422 net.cpp:156] Memory required for data: 1309586976
I0403 17:03:40.007681 20422 layer_factory.hpp:77] Creating layer inception_5a/output_inception_5a/output_0_split
I0403 17:03:40.007699 20422 net.cpp:91] Creating Layer inception_5a/output_inception_5a/output_0_split
I0403 17:03:40.007715 20422 net.cpp:425] inception_5a/output_inception_5a/output_0_split <- inception_5a/output
I0403 17:03:40.007735 20422 net.cpp:399] inception_5a/output_inception_5a/output_0_split -> inception_5a/output_inception_5a/output_0_split_0
I0403 17:03:40.007756 20422 net.cpp:399] inception_5a/output_inception_5a/output_0_split -> inception_5a/output_inception_5a/output_0_split_1
I0403 17:03:40.007779 20422 net.cpp:399] inception_5a/output_inception_5a/output_0_split -> inception_5a/output_inception_5a/output_0_split_2
I0403 17:03:40.007802 20422 net.cpp:399] inception_5a/output_inception_5a/output_0_split -> inception_5a/output_inception_5a/output_0_split_3
I0403 17:03:40.007915 20422 net.cpp:141] Setting up inception_5a/output_inception_5a/output_0_split
I0403 17:03:40.007941 20422 net.cpp:148] Top shape: 24 832 7 7 (978432)
I0403 17:03:40.007957 20422 net.cpp:148] Top shape: 24 832 7 7 (978432)
I0403 17:03:40.007972 20422 net.cpp:148] Top shape: 24 832 7 7 (978432)
I0403 17:03:40.007988 20422 net.cpp:148] Top shape: 24 832 7 7 (978432)
I0403 17:03:40.008002 20422 net.cpp:156] Memory required for data: 1325241888
I0403 17:03:40.008018 20422 layer_factory.hpp:77] Creating layer inception_5b/1x1
I0403 17:03:40.008040 20422 net.cpp:91] Creating Layer inception_5b/1x1
I0403 17:03:40.008059 20422 net.cpp:425] inception_5b/1x1 <- inception_5a/output_inception_5a/output_0_split_0
I0403 17:03:40.008080 20422 net.cpp:399] inception_5b/1x1 -> inception_5b/1x1
I0403 17:03:40.011857 20422 net.cpp:141] Setting up inception_5b/1x1
I0403 17:03:40.011890 20422 net.cpp:148] Top shape: 24 384 7 7 (451584)
I0403 17:03:40.011909 20422 net.cpp:156] Memory required for data: 1327048224
I0403 17:03:40.011926 20422 layer_factory.hpp:77] Creating layer inception_5b/relu_1x1
I0403 17:03:40.011946 20422 net.cpp:91] Creating Layer inception_5b/relu_1x1
I0403 17:03:40.011963 20422 net.cpp:425] inception_5b/relu_1x1 <- inception_5b/1x1
I0403 17:03:40.011984 20422 net.cpp:386] inception_5b/relu_1x1 -> inception_5b/1x1 (in-place)
I0403 17:03:40.012291 20422 net.cpp:141] Setting up inception_5b/relu_1x1
I0403 17:03:40.012320 20422 net.cpp:148] Top shape: 24 384 7 7 (451584)
I0403 17:03:40.012337 20422 net.cpp:156] Memory required for data: 1328854560
I0403 17:03:40.012353 20422 layer_factory.hpp:77] Creating layer inception_5b/3x3_reduce
I0403 17:03:40.012377 20422 net.cpp:91] Creating Layer inception_5b/3x3_reduce
I0403 17:03:40.012394 20422 net.cpp:425] inception_5b/3x3_reduce <- inception_5a/output_inception_5a/output_0_split_1
I0403 17:03:40.012419 20422 net.cpp:399] inception_5b/3x3_reduce -> inception_5b/3x3_reduce
I0403 17:03:40.015142 20422 net.cpp:141] Setting up inception_5b/3x3_reduce
I0403 17:03:40.015172 20422 net.cpp:148] Top shape: 24 192 7 7 (225792)
I0403 17:03:40.015190 20422 net.cpp:156] Memory required for data: 1329757728
I0403 17:03:40.015210 20422 layer_factory.hpp:77] Creating layer inception_5b/relu_3x3_reduce
I0403 17:03:40.015229 20422 net.cpp:91] Creating Layer inception_5b/relu_3x3_reduce
I0403 17:03:40.015246 20422 net.cpp:425] inception_5b/relu_3x3_reduce <- inception_5b/3x3_reduce
I0403 17:03:40.015267 20422 net.cpp:386] inception_5b/relu_3x3_reduce -> inception_5b/3x3_reduce (in-place)
I0403 17:03:40.015460 20422 net.cpp:141] Setting up inception_5b/relu_3x3_reduce
I0403 17:03:40.015486 20422 net.cpp:148] Top shape: 24 192 7 7 (225792)
I0403 17:03:40.015502 20422 net.cpp:156] Memory required for data: 1330660896
I0403 17:03:40.015517 20422 layer_factory.hpp:77] Creating layer inception_5b/3x3
I0403 17:03:40.015539 20422 net.cpp:91] Creating Layer inception_5b/3x3
I0403 17:03:40.015559 20422 net.cpp:425] inception_5b/3x3 <- inception_5b/3x3_reduce
I0403 17:03:40.015580 20422 net.cpp:399] inception_5b/3x3 -> inception_5b/3x3
I0403 17:03:40.022352 20422 net.cpp:141] Setting up inception_5b/3x3
I0403 17:03:40.022382 20422 net.cpp:148] Top shape: 24 384 7 7 (451584)
I0403 17:03:40.022399 20422 net.cpp:156] Memory required for data: 1332467232
I0403 17:03:40.022418 20422 layer_factory.hpp:77] Creating layer inception_5b/relu_3x3
I0403 17:03:40.022436 20422 net.cpp:91] Creating Layer inception_5b/relu_3x3
I0403 17:03:40.022454 20422 net.cpp:425] inception_5b/relu_3x3 <- inception_5b/3x3
I0403 17:03:40.022482 20422 net.cpp:386] inception_5b/relu_3x3 -> inception_5b/3x3 (in-place)
I0403 17:03:40.022783 20422 net.cpp:141] Setting up inception_5b/relu_3x3
I0403 17:03:40.022810 20422 net.cpp:148] Top shape: 24 384 7 7 (451584)
I0403 17:03:40.022826 20422 net.cpp:156] Memory required for data: 1334273568
I0403 17:03:40.022840 20422 layer_factory.hpp:77] Creating layer inception_5b/5x5_reduce
I0403 17:03:40.022879 20422 net.cpp:91] Creating Layer inception_5b/5x5_reduce
I0403 17:03:40.022899 20422 net.cpp:425] inception_5b/5x5_reduce <- inception_5a/output_inception_5a/output_0_split_2
I0403 17:03:40.022922 20422 net.cpp:399] inception_5b/5x5_reduce -> inception_5b/5x5_reduce
I0403 17:03:40.024169 20422 net.cpp:141] Setting up inception_5b/5x5_reduce
I0403 17:03:40.024205 20422 net.cpp:148] Top shape: 24 48 7 7 (56448)
I0403 17:03:40.024222 20422 net.cpp:156] Memory required for data: 1334499360
I0403 17:03:40.024241 20422 layer_factory.hpp:77] Creating layer inception_5b/relu_5x5_reduce
I0403 17:03:40.024262 20422 net.cpp:91] Creating Layer inception_5b/relu_5x5_reduce
I0403 17:03:40.024279 20422 net.cpp:425] inception_5b/relu_5x5_reduce <- inception_5b/5x5_reduce
I0403 17:03:40.024299 20422 net.cpp:386] inception_5b/relu_5x5_reduce -> inception_5b/5x5_reduce (in-place)
I0403 17:03:40.024709 20422 net.cpp:141] Setting up inception_5b/relu_5x5_reduce
I0403 17:03:40.024739 20422 net.cpp:148] Top shape: 24 48 7 7 (56448)
I0403 17:03:40.024755 20422 net.cpp:156] Memory required for data: 1334725152
I0403 17:03:40.024770 20422 layer_factory.hpp:77] Creating layer inception_5b/5x5
I0403 17:03:40.024791 20422 net.cpp:91] Creating Layer inception_5b/5x5
I0403 17:03:40.024811 20422 net.cpp:425] inception_5b/5x5 <- inception_5b/5x5_reduce
I0403 17:03:40.024830 20422 net.cpp:399] inception_5b/5x5 -> inception_5b/5x5
I0403 17:03:40.026913 20422 net.cpp:141] Setting up inception_5b/5x5
I0403 17:03:40.026942 20422 net.cpp:148] Top shape: 24 128 7 7 (150528)
I0403 17:03:40.026959 20422 net.cpp:156] Memory required for data: 1335327264
I0403 17:03:40.026979 20422 layer_factory.hpp:77] Creating layer inception_5b/relu_5x5
I0403 17:03:40.027000 20422 net.cpp:91] Creating Layer inception_5b/relu_5x5
I0403 17:03:40.027019 20422 net.cpp:425] inception_5b/relu_5x5 <- inception_5b/5x5
I0403 17:03:40.027035 20422 net.cpp:386] inception_5b/relu_5x5 -> inception_5b/5x5 (in-place)
I0403 17:03:40.027232 20422 net.cpp:141] Setting up inception_5b/relu_5x5
I0403 17:03:40.027261 20422 net.cpp:148] Top shape: 24 128 7 7 (150528)
I0403 17:03:40.027278 20422 net.cpp:156] Memory required for data: 1335929376
I0403 17:03:40.027294 20422 layer_factory.hpp:77] Creating layer inception_5b/pool
I0403 17:03:40.027312 20422 net.cpp:91] Creating Layer inception_5b/pool
I0403 17:03:40.027329 20422 net.cpp:425] inception_5b/pool <- inception_5a/output_inception_5a/output_0_split_3
I0403 17:03:40.027348 20422 net.cpp:399] inception_5b/pool -> inception_5b/pool
I0403 17:03:40.027423 20422 net.cpp:141] Setting up inception_5b/pool
I0403 17:03:40.027447 20422 net.cpp:148] Top shape: 24 832 7 7 (978432)
I0403 17:03:40.027463 20422 net.cpp:156] Memory required for data: 1339843104
I0403 17:03:40.027478 20422 layer_factory.hpp:77] Creating layer inception_5b/pool_proj
I0403 17:03:40.027499 20422 net.cpp:91] Creating Layer inception_5b/pool_proj
I0403 17:03:40.027519 20422 net.cpp:425] inception_5b/pool_proj <- inception_5b/pool
I0403 17:03:40.027541 20422 net.cpp:399] inception_5b/pool_proj -> inception_5b/pool_proj
I0403 17:03:40.029856 20422 net.cpp:141] Setting up inception_5b/pool_proj
I0403 17:03:40.029886 20422 net.cpp:148] Top shape: 24 128 7 7 (150528)
I0403 17:03:40.029901 20422 net.cpp:156] Memory required for data: 1340445216
I0403 17:03:40.029920 20422 layer_factory.hpp:77] Creating layer inception_5b/relu_pool_proj
I0403 17:03:40.029939 20422 net.cpp:91] Creating Layer inception_5b/relu_pool_proj
I0403 17:03:40.029958 20422 net.cpp:425] inception_5b/relu_pool_proj <- inception_5b/pool_proj
I0403 17:03:40.029975 20422 net.cpp:386] inception_5b/relu_pool_proj -> inception_5b/pool_proj (in-place)
I0403 17:03:40.030268 20422 net.cpp:141] Setting up inception_5b/relu_pool_proj
I0403 17:03:40.030295 20422 net.cpp:148] Top shape: 24 128 7 7 (150528)
I0403 17:03:40.030311 20422 net.cpp:156] Memory required for data: 1341047328
I0403 17:03:40.030326 20422 layer_factory.hpp:77] Creating layer inception_5b/output
I0403 17:03:40.030344 20422 net.cpp:91] Creating Layer inception_5b/output
I0403 17:03:40.030375 20422 net.cpp:425] inception_5b/output <- inception_5b/1x1
I0403 17:03:40.030393 20422 net.cpp:425] inception_5b/output <- inception_5b/3x3
I0403 17:03:40.030410 20422 net.cpp:425] inception_5b/output <- inception_5b/5x5
I0403 17:03:40.030426 20422 net.cpp:425] inception_5b/output <- inception_5b/pool_proj
I0403 17:03:40.030447 20422 net.cpp:399] inception_5b/output -> inception_5b/output
I0403 17:03:40.030496 20422 net.cpp:141] Setting up inception_5b/output
I0403 17:03:40.030522 20422 net.cpp:148] Top shape: 24 1024 7 7 (1204224)
I0403 17:03:40.030539 20422 net.cpp:156] Memory required for data: 1345864224
I0403 17:03:40.030555 20422 layer_factory.hpp:77] Creating layer pool5/7x7_s1
I0403 17:03:40.030573 20422 net.cpp:91] Creating Layer pool5/7x7_s1
I0403 17:03:40.030589 20422 net.cpp:425] pool5/7x7_s1 <- inception_5b/output
I0403 17:03:40.030614 20422 net.cpp:399] pool5/7x7_s1 -> pool5/7x7_s1
I0403 17:03:40.030827 20422 net.cpp:141] Setting up pool5/7x7_s1
I0403 17:03:40.030854 20422 net.cpp:148] Top shape: 24 1024 1 1 (24576)
I0403 17:03:40.030869 20422 net.cpp:156] Memory required for data: 1345962528
I0403 17:03:40.030882 20422 layer_factory.hpp:77] Creating layer pool5/drop_7x7_s1
I0403 17:03:40.030903 20422 net.cpp:91] Creating Layer pool5/drop_7x7_s1
I0403 17:03:40.030921 20422 net.cpp:425] pool5/drop_7x7_s1 <- pool5/7x7_s1
I0403 17:03:40.030938 20422 net.cpp:386] pool5/drop_7x7_s1 -> pool5/7x7_s1 (in-place)
I0403 17:03:40.030987 20422 net.cpp:141] Setting up pool5/drop_7x7_s1
I0403 17:03:40.031013 20422 net.cpp:148] Top shape: 24 1024 1 1 (24576)
I0403 17:03:40.031028 20422 net.cpp:156] Memory required for data: 1346060832
I0403 17:03:40.031043 20422 layer_factory.hpp:77] Creating layer loss3/classifier_plantvillage
I0403 17:03:40.031062 20422 net.cpp:91] Creating Layer loss3/classifier_plantvillage
I0403 17:03:40.031077 20422 net.cpp:425] loss3/classifier_plantvillage <- pool5/7x7_s1
I0403 17:03:40.031097 20422 net.cpp:399] loss3/classifier_plantvillage -> loss3/classifier_plantvillage
I0403 17:03:40.031517 20422 net.cpp:141] Setting up loss3/classifier_plantvillage
I0403 17:03:40.031543 20422 net.cpp:148] Top shape: 24 38 (912)
I0403 17:03:40.031558 20422 net.cpp:156] Memory required for data: 1346064480
I0403 17:03:40.031576 20422 layer_factory.hpp:77] Creating layer loss3/classifier_plantvillage_loss3/classifier_plantvillage_0_split
I0403 17:03:40.031594 20422 net.cpp:91] Creating Layer loss3/classifier_plantvillage_loss3/classifier_plantvillage_0_split
I0403 17:03:40.031615 20422 net.cpp:425] loss3/classifier_plantvillage_loss3/classifier_plantvillage_0_split <- loss3/classifier_plantvillage
I0403 17:03:40.031635 20422 net.cpp:399] loss3/classifier_plantvillage_loss3/classifier_plantvillage_0_split -> loss3/classifier_plantvillage_loss3/classifier_plantvillage_0_split_0
I0403 17:03:40.031658 20422 net.cpp:399] loss3/classifier_plantvillage_loss3/classifier_plantvillage_0_split -> loss3/classifier_plantvillage_loss3/classifier_plantvillage_0_split_1
I0403 17:03:40.031680 20422 net.cpp:399] loss3/classifier_plantvillage_loss3/classifier_plantvillage_0_split -> loss3/classifier_plantvillage_loss3/classifier_plantvillage_0_split_2
I0403 17:03:40.031702 20422 net.cpp:399] loss3/classifier_plantvillage_loss3/classifier_plantvillage_0_split -> loss3/classifier_plantvillage_loss3/classifier_plantvillage_0_split_3
I0403 17:03:40.031803 20422 net.cpp:141] Setting up loss3/classifier_plantvillage_loss3/classifier_plantvillage_0_split
I0403 17:03:40.031826 20422 net.cpp:148] Top shape: 24 38 (912)
I0403 17:03:40.031843 20422 net.cpp:148] Top shape: 24 38 (912)
I0403 17:03:40.031858 20422 net.cpp:148] Top shape: 24 38 (912)
I0403 17:03:40.031874 20422 net.cpp:148] Top shape: 24 38 (912)
I0403 17:03:40.031888 20422 net.cpp:156] Memory required for data: 1346079072
I0403 17:03:40.031903 20422 layer_factory.hpp:77] Creating layer loss1/loss
I0403 17:03:40.031926 20422 net.cpp:91] Creating Layer loss1/loss
I0403 17:03:40.031944 20422 net.cpp:425] loss1/loss <- loss1/classifier_plantvillage_loss1/classifier_plantvillage_0_split_0
I0403 17:03:40.031975 20422 net.cpp:425] loss1/loss <- label_data_1_split_0
…
