…
I0403 16:20:10.534754 17882 net.cpp:313] The NetState phase (1) differed from the phase (0) specified by a rule in layer data
I0403 16:20:10.536629 17882 net.cpp:49] Initializing net from parameters: 
state {
  phase: TEST
}
layer {
  name: "data"
  type: "Data"
  top: "data"
  top: "label"
  include {
    phase: TEST
  }
  transform_param {
    mirror: false
    crop_size: 224
    mean_file: "/home/mohanty/data/final_dataset/lmdb/color-20-80/mean.binaryproto"
  }
  data_param {
    source: "/home/mohanty/data/final_dataset/lmdb/color-20-80/test_db"
    batch_size: 24
    backend: LMDB
  }
}
layer {
  name: "conv1/7x7_s2"
  type: "Convolution"
  bottom: "data"
  top: "conv1/7x7_s2"
  param {
    lr_mult: 1
    decay_mult: 1
  }
  param {
    lr_mult: 2
    decay_mult: 0
  }
  convolution_param {
    num_output: 64
    pad: 3
    kernel_size: 7
    stride: 2
    weight_filler {
      type: "xavier"
      std: 0.1
    }
    bias_filler {
      type: "constant"
      value: 0.2
    }
  }
}
layer {
  name: "conv1/relu_7x7"
  type: "ReLU"
  bottom: "conv1/7x7_s2"
  top: "conv1/7x7_s2"
}
layer {
  name: "pool1/3x3_s2"
  type: "Pooling"
  bottom: "conv1/7x7_s2"
  top: "pool1/3x3_s2"
  pooling_param {
    pool: MAX
    kernel_size: 3
    stride: 2
  }
}
layer {
  name: "pool1/norm1"
  type: "LRN"
  bottom: "pool1/3x3_s2"
  top: "pool1/norm1"
  lrn_param {
    local_size: 5
    alpha: 0.0001
    beta: 0.75
  }
}
layer {
  name: "conv2/3x3_reduce"
  type: "Convolution"
  bottom: "pool1/norm1"
  top: "conv2/3x3_reduce"
  param {
    lr_mult: 1
    decay_mult: 1
  }
  param {
    lr_mult: 2
    decay_mult: 0
  }
  convolution_param {
    num_output: 64
    kernel_size: 1
    weight_filler {
      type: "xavier"
      std: 0.1
    }
    bias_filler {
      type: "constant"
      value: 0.2
    }
  }
}
layer {
  name: "conv2/relu_3x3_reduce"
  type: "ReLU"
  bottom: "conv2/3x3_reduce"
  top: "conv2/3x3_reduce"
}
layer {
  name: "conv2/3x3"
  type: "Convolution"
  bottom: "conv2/3x3_reduce"
  top: "conv2/3x3"
  param {
    lr_mult: 1
    decay_mult: 1
  }
  param {
    lr_mult: 2
    decay_mult: 0
  }
  convolution_param {
    num_output: 192
    pad: 1
    kernel_size: 3
    weight_filler {
      type: "xavier"
      std: 0.03
    }
    bias_filler {
      type: "constant"
      value: 0.2
    }
  }
}
layer {
  name: "conv2/relu_3x3"
  type: "ReLU"
  bottom: "conv2/3x3"
  top: "conv2/3x3"
}
layer {
  name: "conv2/norm2"
  type: "LRN"
  bottom: "conv2/3x3"
  top: "conv2/norm2"
  lrn_param {
    local_size: 5
    alpha: 0.0001
    beta: 0.75
  }
}
layer {
  name: "pool2/3x3_s2"
  type: "Pooling"
  bottom: "conv2/norm2"
  top: "pool2/3x3_s2"
  pooling_param {
    pool: MAX
    kernel_size: 3
    stride: 2
  }
}
layer {
  name: "inception_3a/1x1"
  type: "Convolution"
  bottom: "pool2/3x3_s2"
  top: "inception_3a/1x1"
  param {
    lr_mult: 1
    decay_mult: 1
  }
  param {
    lr_mult: 2
    decay_mult: 0
  }
  convolution_param {
    num_output: 64
    kernel_size: 1
    weight_filler {
      type: "xavier"
      std: 0.03
    }
    bias_filler {
      type: "constant"
      value: 0.2
    }
  }
}
layer {
  name: "inception_3a/relu_1x1"
  type: "ReLU"
  bottom: "inception_3a/1x1"
  top: "inception_3a/1x1"
}
layer {
  name: "inception_3a/3x3_reduce"
  type: "Convolution"
  bottom: "pool2/3x3_s2"
  top: "inception_3a/3x3_reduce"
  param {
    lr_mult: 1
    decay_mult: 1
  }
  param {
    lr_mult: 2
    decay_mult: 0
  }
  convolution_param {
    num_output: 96
    kernel_size: 1
    weight_filler {
      type: "xavier"
      std: 0.09
    }
    bias_filler {
      type: "constant"
      value: 0.2
    }
  }
}
layer {
  name: "inception_3a/relu_3x3_reduce"
  type: "ReLU"
  bottom: "inception_3a/3x3_reduce"
  top: "inception_3a/3x3_reduce"
}
layer {
  name: "inception_3a/3x3"
  type: "Convolution"
  bottom: "inception_3a/3x3_reduce"
  top: "inception_3a/3x3"
  param {
    lr_mult: 1
    decay_mult: 1
  }
  param {
    lr_mult: 2
    decay_mult: 0
  }
  convolution_param {
    num_output: 128
    pad: 1
    kernel_size: 3
    weight_filler {
      type: "xavier"
      std: 0.03
    }
    bias_filler {
      type: "constant"
      value: 0.2
    }
  }
}
layer {
  name: "inception_3a/relu_3x3"
  type: "ReLU"
  bottom: "inception_3a/3x3"
  top: "inception_3a/3x3"
}
layer {
  name: "inception_3a/5x5_reduce"
  type: "Convolution"
  bottom: "pool2/3x3_s2"
  top: "inception_3a/5x5_reduce"
  param {
    lr_mult: 1
    decay_mult: 1
  }
  param {
    lr_mult: 2
    decay_mult: 0
  }
  convolution_param {
    num_output: 16
    kernel_size: 1
    weight_filler {
      type: "xavier"
      std: 0.2
    }
    bias_filler {
      type: "constant"
      value: 0.2
    }
  }
}
layer {
  name: "inception_3a/relu_5x5_reduce"
  type: "ReLU"
  bottom: "inception_3a/5x5_reduce"
  top: "inception_3a/5x5_reduce"
}
layer {
  name: "inception_3a/5x5"
  type: "Convolution"
  bottom: "inception_3a/5x5_reduce"
  top: "inception_3a/5x5"
  param {
    lr_mult: 1
    decay_mult: 1
  }
  param {
    lr_mult: 2
    decay_mult: 0
  }
  convolution_param {
    num_output: 32
    pad: 2
    kernel_size: 5
    weight_filler {
      type: "xavier"
      std: 0.03
    }
    bias_filler {
      type: "constant"
      value: 0.2
    }
  }
}
layer {
  name: "inception_3a/relu_5x5"
  type: "ReLU"
  bottom: "inception_3a/5x5"
  top: "inception_3a/5x5"
}
layer {
  name: "inception_3a/pool"
  type: "Pooling"
  bottom: "pool2/3x3_s2"
  top: "inception_3a/pool"
  pooling_param {
    pool: MAX
    kernel_size: 3
    stride: 1
    pad: 1
  }
}
layer {
  name: "inception_3a/pool_proj"
  type: "Convolution"
  bottom: "inception_3a/pool"
  top: "inception_3a/pool_proj"
  param {
    lr_mult: 1
    decay_mult: 1
  }
  param {
    lr_mult: 2
    decay_mult: 0
  }
  convolution_param {
    num_output: 32
    kernel_size: 1
    weight_filler {
      type: "xavier"
      std: 0.1
    }
    bias_filler {
      type: "constant"
      value: 0.2
    }
  }
}
layer {
  name: "inception_3a/relu_pool_proj"
  type: "ReLU"
  bottom: "inception_3a/pool_proj"
  top: "inception_3a/pool_proj"
}
layer {
  name: "inception_3a/output"
  type: "Concat"
  bottom: "inception_3a/1x1"
  bottom: "inception_3a/3x3"
  bottom: "inception_3a/5x5"
  bottom: "inception_3a/pool_proj"
  top: "inception_3a/output"
}
layer {
  name: "inception_3b/1x1"
  type: "Convolution"
  bottom: "inception_3a/output"
  top: "inception_3b/1x1"
  param {
    lr_mult: 1
    decay_mult: 1
  }
  param {
    lr_mult: 2
    decay_mult: 0
  }
  convolution_param {
    num_output: 128
    kernel_size: 1
    weight_filler {
      type: "xavier"
      std: 0.03
    }
    bias_filler {
      type: "constant"
      value: 0.2
    }
  }
}
layer {
  name: "inception_3b/relu_1x1"
  type: "ReLU"
  bottom: "inception_3b/1x1"
  top: "inception_3b/1x1"
}
layer {
  name: "inception_3b/3x3_reduce"
  type: "Convolution"
  bottom: "inception_3a/output"
  top: "inception_3b/3x3_reduce"
  param {
    lr_mult: 1
    decay_mult: 1
  }
  param {
    lr_mult: 2
    decay_mult: 0
  }
  convolution_param {
    num_output: 128
    kernel_size: 1
    weight_filler {
      type: "xavier"
      std: 0.09
    }
    bias_filler {
      type: "constant"
      value: 0.2
    }
  }
}
layer {
  name: "inception_3b/relu_3x3_reduce"
  type: "ReLU"
  bottom: "inception_3b/3x3_reduce"
  top: "inception_3b/3x3_reduce"
}
layer {
  name: "inception_3b/3x3"
  type: "Convolution"
  bottom: "inception_3b/3x3_reduce"
  top: "inception_3b/3x3"
  param {
    lr_mult: 1
    decay_mult: 1
  }
  param {
    lr_mult: 2
    decay_mult: 0
  }
  convolution_param {
    num_output: 192
    pad: 1
    kernel_size: 3
    weight_filler {
      type: "xavier"
      std: 0.03
    }
    bias_filler {
      type: "constant"
      value: 0.2
    }
  }
}
layer {
  name: "inception_3b/relu_3x3"
  type: "ReLU"
  bottom: "inception_3b/3x3"
  top: "inception_3b/3x3"
}
layer {
  name: "inception_3b/5x5_reduce"
  type: "Convolution"
  bottom: "inception_3a/output"
  top: "inception_3b/5x5_reduce"
  param {
    lr_mult: 1
    decay_mult: 1
  }
  param {
    lr_mult: 2
    decay_mult: 0
  }
  convolution_param {
    num_output: 32
    kernel_size: 1
    weight_filler {
      type: "xavier"
      std: 0.2
    }
    bias_filler {
      type: "constant"
      value: 0.2
    }
  }
}
layer {
  name: "inception_3b/relu_5x5_reduce"
  type: "ReLU"
  bottom: "inception_3b/5x5_reduce"
  top: "inception_3b/5x5_reduce"
}
layer {
  name: "inception_3b/5x5"
  type: "Convolution"
  bottom: "inception_3b/5x5_reduce"
  top: "inception_3b/5x5"
  param {
    lr_mult: 1
    decay_mult: 1
  }
  param {
    lr_mult: 2
    decay_mult: 0
  }
  convolution_param {
    num_output: 96
    pad: 2
    kernel_size: 5
    weight_filler {
      type: "xavier"
      std: 0.03
    }
    bias_filler {
      type: "constant"
      value: 0.2
    }
  }
}
layer {
  name: "inception_3b/relu_5x5"
  type: "ReLU"
  bottom: "inception_3b/5x5"
  top: "inception_3b/5x5"
}
layer {
  name: "inception_3b/pool"
  type: "Pooling"
  bottom: "inception_3a/output"
  top: "inception_3b/pool"
  pooling_param {
    pool: MAX
    kernel_size: 3
    stride: 1
    pad: 1
  }
}
layer {
  name: "inception_3b/pool_proj"
  type: "Convolution"
  bottom: "inception_3b/pool"
  top: "inception_3b/pool_proj"
  param {
    lr_mult: 1
    decay_mult: 1
  }
  param {
    lr_mult: 2
    decay_mult: 0
  }
  convolution_param {
    num_output: 64
    kernel_size: 1
    weight_filler {
      type: "xavier"
      std: 0.1
    }
    bias_filler {
      type: "constant"
      value: 0.2
    }
  }
}
layer {
  name: "inception_3b/relu_pool_proj"
  type: "ReLU"
  bottom: "inception_3b/pool_proj"
  top: "inception_3b/pool_proj"
}
layer {
  name: "inception_3b/output"
  type: "Concat"
  bottom: "inception_3b/1x1"
  bottom: "inception_3b/3x3"
  bottom: "inception_3b/5x5"
  bottom: "inception_3b/pool_proj"
  top: "inception_3b/output"
}
layer {
  name: "pool3/3x3_s2"
  type: "Pooling"
  bottom: "inception_3b/output"
  top: "pool3/3x3_s2"
  pooling_param {
    pool: MAX
    kernel_size: 3
    stride: 2
  }
}
layer {
  name: "inception_4a/1x1"
  type: "Convolution"
  bottom: "pool3/3x3_s2"
  top: "inception_4a/1x1"
  param {
    lr_mult: 1
    decay_mult: 1
  }
  param {
    lr_mult: 2
    decay_mult: 0
  }
  convolution_param {
    num_output: 192
    kernel_size: 1
    weight_filler {
      type: "xavier"
      std: 0.03
    }
    bias_filler {
      type: "constant"
      value: 0.2
    }
  }
}
layer {
  name: "inception_4a/relu_1x1"
  type: "ReLU"
  bottom: "inception_4a/1x1"
  top: "inception_4a/1x1"
}
layer {
  name: "inception_4a/3x3_reduce"
  type: "Convolution"
  bottom: "pool3/3x3_s2"
  top: "inception_4a/3x3_reduce"
  param {
    lr_mult: 1
    decay_mult: 1
  }
  param {
    lr_mult: 2
    decay_mult: 0
  }
  convolution_param {
    num_output: 96
    kernel_size: 1
    weight_filler {
      type: "xavier"
      std: 0.09
    }
    bias_filler {
      type: "constant"
      value: 0.2
    }
  }
}
layer {
  name: "inception_4a/relu_3x3_reduce"
  type: "ReLU"
  bottom: "inception_4a/3x3_reduce"
  top: "inception_4a/3x3_reduce"
}
layer {
  name: "inception_4a/3x3"
  type: "Convolution"
  bottom: "inception_4a/3x3_reduce"
  top: "inception_4a/3x3"
  param {
    lr_mult: 1
    decay_mult: 1
  }
  param {
    lr_mult: 2
    decay_mult: 0
  }
  convolution_param {
    num_output: 208
    pad: 1
    kernel_size: 3
    weight_filler {
      type: "xavier"
      std: 0.03
    }
    bias_filler {
      type: "constant"
      value: 0.2
    }
  }
}
layer {
  name: "inception_4a/relu_3x3"
  type: "ReLU"
  bottom: "inception_4a/3x3"
  top: "inception_4a/3x3"
}
layer {
  name: "inception_4a/5x5_reduce"
  type: "Convolution"
  bottom: "pool3/3x3_s2"
  top: "inception_4a/5x5_reduce"
  param {
    lr_mult: 1
    decay_mult: 1
  }
  param {
    lr_mult: 2
    decay_mult: 0
  }
  convolution_param {
    num_output: 16
    kernel_size: 1
    weight_filler {
      type: "xavier"
      std: 0.2
    }
    bias_filler {
      type: "constant"
      value: 0.2
    }
  }
}
layer {
  name: "inception_4a/relu_5x5_reduce"
  type: "ReLU"
  bottom: "inception_4a/5x5_reduce"
  top: "inception_4a/5x5_reduce"
}
layer {
  name: "inception_4a/5x5"
  type: "Convolution"
  bottom: "inception_4a/5x5_reduce"
  top: "inception_4a/5x5"
  param {
    lr_mult: 1
    decay_mult: 1
  }
  param {
    lr_mult: 2
    decay_mult: 0
  }
  convolution_param {
    num_output: 48
    pad: 2
    kernel_size: 5
    weight_filler {
      type: "xavier"
      std: 0.03
    }
    bias_filler {
      type: "constant"
      value: 0.2
    }
  }
}
layer {
  name: "inception_4a/relu_5x5"
  type: "ReLU"
  bottom: "inception_4a/5x5"
  top: "inception_4a/5x5"
}
layer {
  name: "inception_4a/pool"
  type: "Pooling"
  bottom: "pool3/3x3_s2"
  top: "inception_4a/pool"
  pooling_param {
    pool: MAX
    kernel_size: 3
    stride: 1
    pad: 1
  }
}
layer {
  name: "inception_4a/pool_proj"
  type: "Convolution"
  bottom: "inception_4a/pool"
  top: "inception_4a/pool_proj"
  param {
    lr_mult: 1
    decay_mult: 1
  }
  param {
    lr_mult: 2
    decay_mult: 0
  }
  convolution_param {
    num_output: 64
    kernel_size: 1
    weight_filler {
      type: "xavier"
      std: 0.1
    }
    bias_filler {
      type: "constant"
      value: 0.2
    }
  }
}
layer {
  name: "inception_4a/relu_pool_proj"
  type: "ReLU"
  bottom: "inception_4a/pool_proj"
  top: "inception_4a/pool_proj"
}
layer {
  name: "inception_4a/output"
  type: "Concat"
  bottom: "inception_4a/1x1"
  bottom: "inception_4a/3x3"
  bottom: "inception_4a/5x5"
  bottom: "inception_4a/pool_proj"
  top: "inception_4a/output"
}
layer {
  name: "loss1/ave_pool"
  type: "Pooling"
  bottom: "inception_4a/output"
  top: "loss1/ave_pool"
  pooling_param {
    pool: AVE
    kernel_size: 5
    stride: 3
  }
}
layer {
  name: "loss1/conv"
  type: "Convolution"
  bottom: "loss1/ave_pool"
  top: "loss1/conv"
  param {
    lr_mult: 1
    decay_mult: 1
  }
  param {
    lr_mult: 2
    decay_mult: 0
  }
  convolution_param {
    num_output: 128
    kernel_size: 1
    weight_filler {
      type: "xavier"
      std: 0.08
    }
    bias_filler {
      type: "constant"
      value: 0.2
    }
  }
}
layer {
  name: "loss1/relu_conv"
  type: "ReLU"
  bottom: "loss1/conv"
  top: "loss1/conv"
}
layer {
  name: "loss1/fc"
  type: "InnerProduct"
  bottom: "loss1/conv"
  top: "loss1/fc"
  param {
    lr_mult: 1
    decay_mult: 1
  }
  param {
    lr_mult: 2
    decay_mult: 0
  }
  inner_product_param {
    num_output: 1024
    weight_filler {
      type: "xavier"
      std: 0.02
    }
    bias_filler {
      type: "constant"
      value: 0.2
    }
  }
}
layer {
  name: "loss1/relu_fc"
  type: "ReLU"
  bottom: "loss1/fc"
  top: "loss1/fc"
}
layer {
  name: "loss1/drop_fc"
  type: "Dropout"
  bottom: "loss1/fc"
  top: "loss1/fc"
  dropout_param {
    dropout_ratio: 0.7
  }
}
layer {
  name: "loss1/classifier_plantvillage"
  type: "InnerProduct"
  bottom: "loss1/fc"
  top: "loss1/classifier_plantvillage"
  param {
    lr_mult: 1
    decay_mult: 1
  }
  param {
    lr_mult: 2
    decay_mult: 0
  }
  inner_product_param {
    num_output: 38
    weight_filler {
      type: "xavier"
      std: 0.0009765625
    }
    bias_filler {
      type: "constant"
      value: 0
    }
  }
}
layer {
  name: "inception_4b/1x1"
  type: "Convolution"
  bottom: "inception_4a/output"
  top: "inception_4b/1x1"
  param {
    lr_mult: 1
    decay_mult: 1
  }
  param {
    lr_mult: 2
    decay_mult: 0
  }
  convolution_param {
    num_output: 160
    kernel_size: 1
    weight_filler {
      type: "xavier"
      std: 0.03
    }
    bias_filler {
      type: "constant"
      value: 0.2
    }
  }
}
layer {
  name: "inception_4b/relu_1x1"
  type: "ReLU"
  bottom: "inception_4b/1x1"
  top: "inception_4b/1x1"
}
layer {
  name: "inception_4b/3x3_reduce"
  type: "Convolution"
  bottom: "inception_4a/output"
  top: "inception_4b/3x3_reduce"
  param {
    lr_mult: 1
    decay_mult: 1
  }
  param {
    lr_mult: 2
    decay_mult: 0
  }
  convolution_param {
    num_output: 112
    kernel_size: 1
    weight_filler {
      type: "xavier"
      std: 0.09
    }
    bias_filler {
      type: "constant"
      value: 0.2
    }
  }
}
layer {
  name: "inception_4b/relu_3x3_reduce"
  type: "ReLU"
  bottom: "inception_4b/3x3_reduce"
  top: "inception_4b/3x3_reduce"
}
layer {
  name: "inception_4b/3x3"
  type: "Convolution"
  bottom: "inception_4b/3x3_reduce"
  top: "inception_4b/3x3"
  param {
    lr_mult: 1
    decay_mult: 1
  }
  param {
    lr_mult: 2
    decay_mult: 0
  }
  convolution_param {
    num_output: 224
    pad: 1
    kernel_size: 3
    weight_filler {
      type: "xavier"
      std: 0.03
    }
    bias_filler {
      type: "constant"
      value: 0.2
    }
  }
}
layer {
  name: "inception_4b/relu_3x3"
  type: "ReLU"
  bottom: "inception_4b/3x3"
  top: "inception_4b/3x3"
}
layer {
  name: "inception_4b/5x5_reduce"
  type: "Convolution"
  bottom: "inception_4a/output"
  top: "inception_4b/5x5_reduce"
  param {
    lr_mult: 1
    decay_mult: 1
  }
  param {
    lr_mult: 2
    decay_mult: 0
  }
  convolution_param {
    num_output: 24
    kernel_size: 1
    weight_filler {
      type: "xavier"
      std: 0.2
    }
    bias_filler {
      type: "constant"
      value: 0.2
    }
  }
}
layer {
  name: "inception_4b/relu_5x5_reduce"
  type: "ReLU"
  bottom: "inception_4b/5x5_reduce"
  top: "inception_4b/5x5_reduce"
}
layer {
  name: "inception_4b/5x5"
  type: "Convolution"
  bottom: "inception_4b/5x5_reduce"
  top: "inception_4b/5x5"
  param {
    lr_mult: 1
    decay_mult: 1
  }
  param {
    lr_mult: 2
    decay_mult: 0
  }
  convolution_param {
    num_output: 64
    pad: 2
    kernel_size: 5
    weight_filler {
      type: "xavier"
      std: 0.03
    }
    bias_filler {
      type: "constant"
      value: 0.2
    }
  }
}
layer {
  name: "inception_4b/relu_5x5"
  type: "ReLU"
  bottom: "inception_4b/5x5"
  top: "inception_4b/5x5"
}
layer {
  name: "inception_4b/pool"
  type: "Pooling"
  bottom: "inception_4a/output"
  top: "inception_4b/pool"
  pooling_param {
    pool: MAX
    kernel_size: 3
    stride: 1
    pad: 1
  }
}
layer {
  name: "inception_4b/pool_proj"
  type: "Convolution"
  bottom: "inception_4b/pool"
  top: "inception_4b/pool_proj"
  param {
    lr_mult: 1
    decay_mult: 1
  }
  param {
    lr_mult: 2
    decay_mult: 0
  }
  convolution_param {
    num_output: 64
    kernel_size: 1
    weight_filler {
      type: "xavier"
      std: 0.1
    }
    bias_filler {
      type: "constant"
      value: 0.2
    }
  }
}
layer {
  name: "inception_4b/relu_pool_proj"
  type: "ReLU"
  bottom: "inception_4b/pool_proj"
  top: "inception_4b/pool_proj"
}
layer {
  name: "inception_4b/output"
  type: "Concat"
  bottom: "inception_4b/1x1"
  bottom: "inception_4b/3x3"
  bottom: "inception_4b/5x5"
  bottom: "inception_4b/pool_proj"
  top: "inception_4b/output"
}
layer {
  name: "inception_4c/1x1"
  type: "Convolution"
  bottom: "inception_4b/output"
  top: "inception_4c/1x1"
  param {
    lr_mult: 1
    decay_mult: 1
  }
  param {
    lr_mult: 2
    decay_mult: 0
  }
  convolution_param {
    num_output: 128
    kernel_size: 1
    weight_filler {
      type: "xavier"
      std: 0.03
    }
    bias_filler {
      type: "constant"
      value: 0.2
    }
  }
}
layer {
  name: "inception_4c/relu_1x1"
  type: "ReLU"
  bottom: "inception_4c/1x1"
  top: "inception_4c/1x1"
}
layer {
  name: "inception_4c/3x3_reduce"
  type: "Convolution"
  bottom: "inception_4b/output"
  top: "inception_4c/3x3_reduce"
  param {
    lr_mult: 1
    decay_mult: 1
  }
  param {
    lr_mult: 2
    decay_mult: 0
  }
  convolution_param {
    num_output: 128
    kernel_size: 1
    weight_filler {
      type: "xavier"
      std: 0.09
    }
    bias_filler {
      type: "constant"
      value: 0.2
    }
  }
}
layer {
  name: "inception_4c/relu_3x3_reduce"
  type: "ReLU"
  bottom: "inception_4c/3x3_reduce"
  top: "inception_4c/3x3_reduce"
}
layer {
  name: "inception_4c/3x3"
  type: "Convolution"
  bottom: "inception_4c/3x3_reduce"
  top: "inception_4c/3x3"
  param {
    lr_mult: 1
    decay_mult: 1
  }
  param {
    lr_mult: 2
    decay_mult: 0
  }
  convolution_param {
    num_output: 256
    pad: 1
    kernel_size: 3
    weight_filler {
      type: "xavier"
      std: 0.03
    }
    bias_filler {
      type: "constant"
      value: 0.2
    }
  }
}
layer {
  name: "inception_4c/relu_3x3"
  type: "ReLU"
  bottom: "inception_4c/3x3"
  top: "inception_4c/3x3"
}
layer {
  name: "inception_4c/5x5_reduce"
  type: "Convolution"
  bottom: "inception_4b/output"
  top: "inception_4c/5x5_reduce"
  param {
    lr_mult: 1
    decay_mult: 1
  }
  param {
    lr_mult: 2
    decay_mult: 0
  }
  convolution_param {
    num_output: 24
    kernel_size: 1
    weight_filler {
      type: "xavier"
      std: 0.2
    }
    bias_filler {
      type: "constant"
      value: 0.2
    }
  }
}
layer {
  name: "inception_4c/relu_5x5_reduce"
  type: "ReLU"
  bottom: "inception_4c/5x5_reduce"
  top: "inception_4c/5x5_reduce"
}
layer {
  name: "inception_4c/5x5"
  type: "Convolution"
  bottom: "inception_4c/5x5_reduce"
  top: "inception_4c/5x5"
  param {
    lr_mult: 1
    decay_mult: 1
  }
  param {
    lr_mult: 2
    decay_mult: 0
  }
  convolution_param {
    num_output: 64
    pad: 2
    kernel_size: 5
    weight_filler {
      type: "xavier"
      std: 0.03
    }
    bias_filler {
      type: "constant"
      value: 0.2
    }
  }
}
layer {
  name: "inception_4c/relu_5x5"
  type: "ReLU"
  bottom: "inception_4c/5x5"
  top: "inception_4c/5x5"
}
layer {
  name: "inception_4c/pool"
  type: "Pooling"
  bottom: "inception_4b/output"
  top: "inception_4c/pool"
  pooling_param {
    pool: MAX
    kernel_size: 3
    stride: 1
    pad: 1
  }
}
layer {
  name: "inception_4c/pool_proj"
  type: "Convolution"
  bottom: "inception_4c/pool"
  top: "inception_4c/pool_proj"
  param {
    lr_mult: 1
    decay_mult: 1
  }
  param {
    lr_mult: 2
    decay_mult: 0
  }
  convolution_param {
    num_output: 64
    kernel_size: 1
    weight_filler {
      type: "xavier"
      std: 0.1
    }
    bias_filler {
      type: "constant"
      value: 0.2
    }
  }
}
layer {
  name: "inception_4c/relu_pool_proj"
  type: "ReLU"
  bottom: "inception_4c/pool_proj"
  top: "inception_4c/pool_proj"
}
layer {
  name: "inception_4c/output"
  type: "Concat"
  bottom: "inception_4c/1x1"
  bottom: "inception_4c/3x3"
  bottom: "inception_4c/5x5"
  bottom: "inception_4c/pool_proj"
  top: "inception_4c/output"
}
layer {
  name: "inception_4d/1x1"
  type: "Convolution"
  bottom: "inception_4c/output"
  top: "inception_4d/1x1"
  param {
    lr_mult: 1
    decay_mult: 1
  }
  param {
    lr_mult: 2
    decay_mult: 0
  }
  convolution_param {
    num_output: 112
    kernel_size: 1
    weight_filler {
      type: "xavier"
      std: 0.03
    }
    bias_filler {
      type: "constant"
      value: 0.2
    }
  }
}
layer {
  name: "inception_4d/relu_1x1"
  type: "ReLU"
  bottom: "inception_4d/1x1"
  top: "inception_4d/1x1"
}
layer {
  name: "inception_4d/3x3_reduce"
  type: "Convolution"
  bottom: "inception_4c/output"
  top: "inception_4d/3x3_reduce"
  param {
    lr_mult: 1
    decay_mult: 1
  }
  param {
    lr_mult: 2
    decay_mult: 0
  }
  convolution_param {
    num_output: 144
    kernel_size: 1
    weight_filler {
      type: "xavier"
      std: 0.09
    }
    bias_filler {
      type: "constant"
      value: 0.2
    }
  }
}
layer {
  name: "inception_4d/relu_3x3_reduce"
  type: "ReLU"
  bottom: "inception_4d/3x3_reduce"
  top: "inception_4d/3x3_reduce"
}
layer {
  name: "inception_4d/3x3"
  type: "Convolution"
  bottom: "inception_4d/3x3_reduce"
  top: "inception_4d/3x3"
  param {
    lr_mult: 1
    decay_mult: 1
  }
  param {
    lr_mult: 2
    decay_mult: 0
  }
  convolution_param {
    num_output: 288
    pad: 1
    kernel_size: 3
    weight_filler {
      type: "xavier"
      std: 0.03
    }
    bias_filler {
      type: "constant"
      value: 0.2
    }
  }
}
layer {
  name: "inception_4d/relu_3x3"
  type: "ReLU"
  bottom: "inception_4d/3x3"
  top: "inception_4d/3x3"
}
layer {
  name: "inception_4d/5x5_reduce"
  type: "Convolution"
  bottom: "inception_4c/output"
  top: "inception_4d/5x5_reduce"
  param {
    lr_mult: 1
    decay_mult: 1
  }
  param {
    lr_mult: 2
    decay_mult: 0
  }
  convolution_param {
    num_output: 32
    kernel_size: 1
    weight_filler {
      type: "xavier"
      std: 0.2
    }
    bias_filler {
      type: "constant"
      value: 0.2
    }
  }
}
layer {
  name: "inception_4d/relu_5x5_reduce"
  type: "ReLU"
  bottom: "inception_4d/5x5_reduce"
  top: "inception_4d/5x5_reduce"
}
layer {
  name: "inception_4d/5x5"
  type: "Convolution"
  bottom: "inception_4d/5x5_reduce"
  top: "inception_4d/5x5"
  param {
    lr_mult: 1
    decay_mult: 1
  }
  param {
    lr_mult: 2
    decay_mult: 0
  }
  convolution_param {
    num_output: 64
    pad: 2
    kernel_size: 5
    weight_filler {
      type: "xavier"
      std: 0.03
    }
    bias_filler {
      type: "constant"
      value: 0.2
    }
  }
}
layer {
  name: "inception_4d/relu_5x5"
  type: "ReLU"
  bottom: "inception_4d/5x5"
  top: "inception_4d/5x5"
}
layer {
  name: "inception_4d/pool"
  type: "Pooling"
  bottom: "inception_4c/output"
  top: "inception_4d/pool"
  pooling_param {
    pool: MAX
    kernel_size: 3
    stride: 1
    pad: 1
  }
}
layer {
  name: "inception_4d/pool_proj"
  type: "Convolution"
  bottom: "inception_4d/pool"
  top: "inception_4d/pool_proj"
  param {
    lr_mult: 1
    decay_mult: 1
  }
  param {
    lr_mult: 2
    decay_mult: 0
  }
  convolution_param {
    num_output: 64
    kernel_size: 1
    weight_filler {
      type: "xavier"
      std: 0.1
    }
    bias_filler {
      type: "constant"
      value: 0.2
    }
  }
}
layer {
  name: "inception_4d/relu_pool_proj"
  type: "ReLU"
  bottom: "inception_4d/pool_proj"
  top: "inception_4d/pool_proj"
}
layer {
  name: "inception_4d/output"
  type: "Concat"
  bottom: "inception_4d/1x1"
  bottom: "inception_4d/3x3"
  bottom: "inception_4d/5x5"
  bottom: "inception_4d/pool_proj"
  top: "inception_4d/output"
}
layer {
  name: "loss2/ave_pool"
  type: "Pooling"
  bottom: "inception_4d/output"
  top: "loss2/ave_pool"
  pooling_param {
    pool: AVE
    kernel_size: 5
    stride: 3
  }
}
layer {
  name: "loss2/conv"
  type: "Convolution"
  bottom: "loss2/ave_pool"
  top: "loss2/conv"
  param {
    lr_mult: 1
    decay_mult: 1
  }
  param {
    lr_mult: 2
    decay_mult: 0
  }
  convolution_param {
    num_output: 128
    kernel_size: 1
    weight_filler {
      type: "xavier"
      std: 0.08
    }
    bias_filler {
      type: "constant"
      value: 0.2
    }
  }
}
layer {
  name: "loss2/relu_conv"
  type: "ReLU"
  bottom: "loss2/conv"
  top: "loss2/conv"
}
layer {
  name: "loss2/fc"
  type: "InnerProduct"
  bottom: "loss2/conv"
  top: "loss2/fc"
  param {
    lr_mult: 1
    decay_mult: 1
  }
  param {
    lr_mult: 2
    decay_mult: 0
  }
  inner_product_param {
    num_output: 1024
    weight_filler {
      type: "xavier"
      std: 0.02
    }
    bias_filler {
      type: "constant"
      value: 0.2
    }
  }
}
layer {
  name: "loss2/relu_fc"
  type: "ReLU"
  bottom: "loss2/fc"
  top: "loss2/fc"
}
layer {
  name: "loss2/drop_fc"
  type: "Dropout"
  bottom: "loss2/fc"
  top: "loss2/fc"
  dropout_param {
    dropout_ratio: 0.7
  }
}
layer {
  name: "loss2/classifier_plantvillage"
  type: "InnerProduct"
  bottom: "loss2/fc"
  top: "loss2/classifier_plantvillage"
  param {
    lr_mult: 1
    decay_mult: 1
  }
  param {
    lr_mult: 2
    decay_mult: 0
  }
  inner_product_param {
    num_output: 38
    weight_filler {
      type: "xavier"
      std: 0.0009765625
    }
    bias_filler {
      type: "constant"
      value: 0
    }
  }
}
layer {
  name: "inception_4e/1x1"
  type: "Convolution"
  bottom: "inception_4d/output"
  top: "inception_4e/1x1"
  param {
    lr_mult: 1
    decay_mult: 1
  }
  param {
    lr_mult: 2
    decay_mult: 0
  }
  convolution_param {
    num_output: 256
    kernel_size: 1
    weight_filler {
      type: "xavier"
      std: 0.03
    }
    bias_filler {
      type: "constant"
      value: 0.2
    }
  }
}
layer {
  name: "inception_4e/relu_1x1"
  type: "ReLU"
  bottom: "inception_4e/1x1"
  top: "inception_4e/1x1"
}
layer {
  name: "inception_4e/3x3_reduce"
  type: "Convolution"
  bottom: "inception_4d/output"
  top: "inception_4e/3x3_reduce"
  param {
    lr_mult: 1
    decay_mult: 1
  }
  param {
    lr_mult: 2
    decay_mult: 0
  }
  convolution_param {
    num_output: 160
    kernel_size: 1
    weight_filler {
      type: "xavier"
      std: 0.09
    }
    bias_filler {
      type: "constant"
      value: 0.2
    }
  }
}
layer {
  name: "inception_4e/relu_3x3_reduce"
  type: "ReLU"
  bottom: "inception_4e/3x3_reduce"
  top: "inception_4e/3x3_reduce"
}
layer {
  name: "inception_4e/3x3"
  type: "Convolution"
  bottom: "inception_4e/3x3_reduce"
  top: "inception_4e/3x3"
  param {
    lr_mult: 1
    decay_mult: 1
  }
  param {
    lr_mult: 2
    decay_mult: 0
  }
  convolution_param {
    num_output: 320
    pad: 1
    kernel_size: 3
    weight_filler {
      type: "xavier"
      std: 0.03
    }
    bias_filler {
      type: "constant"
      value: 0.2
    }
  }
}
layer {
  name: "inception_4e/relu_3x3"
  type: "ReLU"
  bottom: "inception_4e/3x3"
  top: "inception_4e/3x3"
}
layer {
  name: "inception_4e/5x5_reduce"
  type: "Convolution"
  bottom: "inception_4d/output"
  top: "inception_4e/5x5_reduce"
  param {
    lr_mult: 1
    decay_mult: 1
  }
  param {
    lr_mult: 2
    decay_mult: 0
  }
  convolution_param {
    num_output: 32
    kernel_size: 1
    weight_filler {
      type: "xavier"
      std: 0.2
    }
    bias_filler {
      type: "constant"
      value: 0.2
    }
  }
}
layer {
  name: "inception_4e/relu_5x5_reduce"
  type: "ReLU"
  bottom: "inception_4e/5x5_reduce"
  top: "inception_4e/5x5_reduce"
}
layer {
  name: "inception_4e/5x5"
  type: "Convolution"
  bottom: "inception_4e/5x5_reduce"
  top: "inception_4e/5x5"
  p
I0403 16:20:10.538233 17882 layer_factory.hpp:77] Creating layer data
I0403 16:20:10.538959 17882 net.cpp:91] Creating Layer data
I0403 16:20:10.539000 17882 net.cpp:399] data -> data
I0403 16:20:10.539062 17882 net.cpp:399] data -> label
I0403 16:20:10.539105 17882 data_transformer.cpp:25] Loading mean file from: /home/mohanty/data/final_dataset/lmdb/color-20-80/mean.binaryproto
I0403 16:20:10.540498 17884 db_lmdb.cpp:38] Opened lmdb /home/mohanty/data/final_dataset/lmdb/color-20-80/test_db
I0403 16:20:10.554934 17882 data_layer.cpp:41] output data size: 24,3,224,224
I0403 16:20:10.586695 17882 net.cpp:141] Setting up data
I0403 16:20:10.586793 17882 net.cpp:148] Top shape: 24 3 224 224 (3612672)
I0403 16:20:10.586832 17882 net.cpp:148] Top shape: 24 (24)
I0403 16:20:10.586850 17882 net.cpp:156] Memory required for data: 14450784
I0403 16:20:10.586882 17882 layer_factory.hpp:77] Creating layer label_data_1_split
I0403 16:20:10.586915 17882 net.cpp:91] Creating Layer label_data_1_split
I0403 16:20:10.586936 17882 net.cpp:425] label_data_1_split <- label
I0403 16:20:10.586977 17882 net.cpp:399] label_data_1_split -> label_data_1_split_0
I0403 16:20:10.587012 17882 net.cpp:399] label_data_1_split -> label_data_1_split_1
I0403 16:20:10.587036 17882 net.cpp:399] label_data_1_split -> label_data_1_split_2
I0403 16:20:10.587062 17882 net.cpp:399] label_data_1_split -> label_data_1_split_3
I0403 16:20:10.587085 17882 net.cpp:399] label_data_1_split -> label_data_1_split_4
I0403 16:20:10.587121 17882 net.cpp:399] label_data_1_split -> label_data_1_split_5
I0403 16:20:10.587143 17882 net.cpp:399] label_data_1_split -> label_data_1_split_6
I0403 16:20:10.587169 17882 net.cpp:399] label_data_1_split -> label_data_1_split_7
I0403 16:20:10.587193 17882 net.cpp:399] label_data_1_split -> label_data_1_split_8
I0403 16:20:10.587216 17882 net.cpp:399] label_data_1_split -> label_data_1_split_9
I0403 16:20:10.587355 17882 net.cpp:141] Setting up label_data_1_split
I0403 16:20:10.587384 17882 net.cpp:148] Top shape: 24 (24)
I0403 16:20:10.587405 17882 net.cpp:148] Top shape: 24 (24)
I0403 16:20:10.587424 17882 net.cpp:148] Top shape: 24 (24)
I0403 16:20:10.587445 17882 net.cpp:148] Top shape: 24 (24)
I0403 16:20:10.587463 17882 net.cpp:148] Top shape: 24 (24)
I0403 16:20:10.587481 17882 net.cpp:148] Top shape: 24 (24)
I0403 16:20:10.587501 17882 net.cpp:148] Top shape: 24 (24)
I0403 16:20:10.587519 17882 net.cpp:148] Top shape: 24 (24)
I0403 16:20:10.587539 17882 net.cpp:148] Top shape: 24 (24)
I0403 16:20:10.587559 17882 net.cpp:148] Top shape: 24 (24)
I0403 16:20:10.587620 17882 net.cpp:156] Memory required for data: 14451744
I0403 16:20:10.587641 17882 layer_factory.hpp:77] Creating layer conv1/7x7_s2
I0403 16:20:10.587679 17882 net.cpp:91] Creating Layer conv1/7x7_s2
I0403 16:20:10.587703 17882 net.cpp:425] conv1/7x7_s2 <- data
I0403 16:20:10.587728 17882 net.cpp:399] conv1/7x7_s2 -> conv1/7x7_s2
I0403 16:20:10.753860 17882 net.cpp:141] Setting up conv1/7x7_s2
I0403 16:20:10.753948 17882 net.cpp:148] Top shape: 24 64 112 112 (19267584)
I0403 16:20:10.753970 17882 net.cpp:156] Memory required for data: 91522080
I0403 16:20:10.754006 17882 layer_factory.hpp:77] Creating layer conv1/relu_7x7
I0403 16:20:10.754040 17882 net.cpp:91] Creating Layer conv1/relu_7x7
I0403 16:20:10.754061 17882 net.cpp:425] conv1/relu_7x7 <- conv1/7x7_s2
I0403 16:20:10.754084 17882 net.cpp:386] conv1/relu_7x7 -> conv1/7x7_s2 (in-place)
I0403 16:20:10.754390 17882 net.cpp:141] Setting up conv1/relu_7x7
I0403 16:20:10.754423 17882 net.cpp:148] Top shape: 24 64 112 112 (19267584)
I0403 16:20:10.754442 17882 net.cpp:156] Memory required for data: 168592416
I0403 16:20:10.754461 17882 layer_factory.hpp:77] Creating layer pool1/3x3_s2
I0403 16:20:10.754492 17882 net.cpp:91] Creating Layer pool1/3x3_s2
I0403 16:20:10.754515 17882 net.cpp:425] pool1/3x3_s2 <- conv1/7x7_s2
I0403 16:20:10.754539 17882 net.cpp:399] pool1/3x3_s2 -> pool1/3x3_s2
I0403 16:20:10.754631 17882 net.cpp:141] Setting up pool1/3x3_s2
I0403 16:20:10.754660 17882 net.cpp:148] Top shape: 24 64 56 56 (4816896)
I0403 16:20:10.754679 17882 net.cpp:156] Memory required for data: 187860000
I0403 16:20:10.754698 17882 layer_factory.hpp:77] Creating layer pool1/norm1
I0403 16:20:10.754729 17882 net.cpp:91] Creating Layer pool1/norm1
I0403 16:20:10.754750 17882 net.cpp:425] pool1/norm1 <- pool1/3x3_s2
I0403 16:20:10.754772 17882 net.cpp:399] pool1/norm1 -> pool1/norm1
I0403 16:20:10.755110 17882 net.cpp:141] Setting up pool1/norm1
I0403 16:20:10.755142 17882 net.cpp:148] Top shape: 24 64 56 56 (4816896)
I0403 16:20:10.755162 17882 net.cpp:156] Memory required for data: 207127584
I0403 16:20:10.755178 17882 layer_factory.hpp:77] Creating layer conv2/3x3_reduce
I0403 16:20:10.755209 17882 net.cpp:91] Creating Layer conv2/3x3_reduce
I0403 16:20:10.755229 17882 net.cpp:425] conv2/3x3_reduce <- pool1/norm1
I0403 16:20:10.755252 17882 net.cpp:399] conv2/3x3_reduce -> conv2/3x3_reduce
I0403 16:20:10.756922 17882 net.cpp:141] Setting up conv2/3x3_reduce
I0403 16:20:10.756958 17882 net.cpp:148] Top shape: 24 64 56 56 (4816896)
I0403 16:20:10.756976 17882 net.cpp:156] Memory required for data: 226395168
I0403 16:20:10.757004 17882 layer_factory.hpp:77] Creating layer conv2/relu_3x3_reduce
I0403 16:20:10.757028 17882 net.cpp:91] Creating Layer conv2/relu_3x3_reduce
I0403 16:20:10.757048 17882 net.cpp:425] conv2/relu_3x3_reduce <- conv2/3x3_reduce
I0403 16:20:10.757069 17882 net.cpp:386] conv2/relu_3x3_reduce -> conv2/3x3_reduce (in-place)
I0403 16:20:10.757395 17882 net.cpp:141] Setting up conv2/relu_3x3_reduce
I0403 16:20:10.757427 17882 net.cpp:148] Top shape: 24 64 56 56 (4816896)
I0403 16:20:10.757447 17882 net.cpp:156] Memory required for data: 245662752
I0403 16:20:10.757465 17882 layer_factory.hpp:77] Creating layer conv2/3x3
I0403 16:20:10.757494 17882 net.cpp:91] Creating Layer conv2/3x3
I0403 16:20:10.757516 17882 net.cpp:425] conv2/3x3 <- conv2/3x3_reduce
I0403 16:20:10.757542 17882 net.cpp:399] conv2/3x3 -> conv2/3x3
I0403 16:20:10.760414 17882 net.cpp:141] Setting up conv2/3x3
I0403 16:20:10.760452 17882 net.cpp:148] Top shape: 24 192 56 56 (14450688)
I0403 16:20:10.760471 17882 net.cpp:156] Memory required for data: 303465504
I0403 16:20:10.760498 17882 layer_factory.hpp:77] Creating layer conv2/relu_3x3
I0403 16:20:10.760524 17882 net.cpp:91] Creating Layer conv2/relu_3x3
I0403 16:20:10.760546 17882 net.cpp:425] conv2/relu_3x3 <- conv2/3x3
I0403 16:20:10.760567 17882 net.cpp:386] conv2/relu_3x3 -> conv2/3x3 (in-place)
I0403 16:20:10.760794 17882 net.cpp:141] Setting up conv2/relu_3x3
I0403 16:20:10.760828 17882 net.cpp:148] Top shape: 24 192 56 56 (14450688)
I0403 16:20:10.760882 17882 net.cpp:156] Memory required for data: 361268256
I0403 16:20:10.760902 17882 layer_factory.hpp:77] Creating layer conv2/norm2
I0403 16:20:10.760924 17882 net.cpp:91] Creating Layer conv2/norm2
I0403 16:20:10.760944 17882 net.cpp:425] conv2/norm2 <- conv2/3x3
I0403 16:20:10.760970 17882 net.cpp:399] conv2/norm2 -> conv2/norm2
I0403 16:20:10.761335 17882 net.cpp:141] Setting up conv2/norm2
I0403 16:20:10.761368 17882 net.cpp:148] Top shape: 24 192 56 56 (14450688)
I0403 16:20:10.761387 17882 net.cpp:156] Memory required for data: 419071008
I0403 16:20:10.761405 17882 layer_factory.hpp:77] Creating layer pool2/3x3_s2
I0403 16:20:10.761428 17882 net.cpp:91] Creating Layer pool2/3x3_s2
I0403 16:20:10.761447 17882 net.cpp:425] pool2/3x3_s2 <- conv2/norm2
I0403 16:20:10.761474 17882 net.cpp:399] pool2/3x3_s2 -> pool2/3x3_s2
I0403 16:20:10.761540 17882 net.cpp:141] Setting up pool2/3x3_s2
I0403 16:20:10.761569 17882 net.cpp:148] Top shape: 24 192 28 28 (3612672)
I0403 16:20:10.761595 17882 net.cpp:156] Memory required for data: 433521696
I0403 16:20:10.761613 17882 layer_factory.hpp:77] Creating layer pool2/3x3_s2_pool2/3x3_s2_0_split
I0403 16:20:10.761639 17882 net.cpp:91] Creating Layer pool2/3x3_s2_pool2/3x3_s2_0_split
I0403 16:20:10.761662 17882 net.cpp:425] pool2/3x3_s2_pool2/3x3_s2_0_split <- pool2/3x3_s2
I0403 16:20:10.761685 17882 net.cpp:399] pool2/3x3_s2_pool2/3x3_s2_0_split -> pool2/3x3_s2_pool2/3x3_s2_0_split_0
I0403 16:20:10.761711 17882 net.cpp:399] pool2/3x3_s2_pool2/3x3_s2_0_split -> pool2/3x3_s2_pool2/3x3_s2_0_split_1
I0403 16:20:10.761734 17882 net.cpp:399] pool2/3x3_s2_pool2/3x3_s2_0_split -> pool2/3x3_s2_pool2/3x3_s2_0_split_2
I0403 16:20:10.761757 17882 net.cpp:399] pool2/3x3_s2_pool2/3x3_s2_0_split -> pool2/3x3_s2_pool2/3x3_s2_0_split_3
I0403 16:20:10.761842 17882 net.cpp:141] Setting up pool2/3x3_s2_pool2/3x3_s2_0_split
I0403 16:20:10.761873 17882 net.cpp:148] Top shape: 24 192 28 28 (3612672)
I0403 16:20:10.761894 17882 net.cpp:148] Top shape: 24 192 28 28 (3612672)
I0403 16:20:10.761914 17882 net.cpp:148] Top shape: 24 192 28 28 (3612672)
I0403 16:20:10.761934 17882 net.cpp:148] Top shape: 24 192 28 28 (3612672)
I0403 16:20:10.761951 17882 net.cpp:156] Memory required for data: 491324448
I0403 16:20:10.761970 17882 layer_factory.hpp:77] Creating layer inception_3a/1x1
I0403 16:20:10.761994 17882 net.cpp:91] Creating Layer inception_3a/1x1
I0403 16:20:10.762015 17882 net.cpp:425] inception_3a/1x1 <- pool2/3x3_s2_pool2/3x3_s2_0_split_0
I0403 16:20:10.762040 17882 net.cpp:399] inception_3a/1x1 -> inception_3a/1x1
I0403 16:20:10.763921 17882 net.cpp:141] Setting up inception_3a/1x1
I0403 16:20:10.763959 17882 net.cpp:148] Top shape: 24 64 28 28 (1204224)
I0403 16:20:10.764025 17882 net.cpp:156] Memory required for data: 496141344
I0403 16:20:10.764050 17882 layer_factory.hpp:77] Creating layer inception_3a/relu_1x1
I0403 16:20:10.764075 17882 net.cpp:91] Creating Layer inception_3a/relu_1x1
I0403 16:20:10.764096 17882 net.cpp:425] inception_3a/relu_1x1 <- inception_3a/1x1
I0403 16:20:10.764117 17882 net.cpp:386] inception_3a/relu_1x1 -> inception_3a/1x1 (in-place)
I0403 16:20:10.764331 17882 net.cpp:141] Setting up inception_3a/relu_1x1
I0403 16:20:10.764363 17882 net.cpp:148] Top shape: 24 64 28 28 (1204224)
I0403 16:20:10.764380 17882 net.cpp:156] Memory required for data: 500958240
I0403 16:20:10.764399 17882 layer_factory.hpp:77] Creating layer inception_3a/3x3_reduce
I0403 16:20:10.764427 17882 net.cpp:91] Creating Layer inception_3a/3x3_reduce
I0403 16:20:10.764449 17882 net.cpp:425] inception_3a/3x3_reduce <- pool2/3x3_s2_pool2/3x3_s2_0_split_1
I0403 16:20:10.764472 17882 net.cpp:399] inception_3a/3x3_reduce -> inception_3a/3x3_reduce
I0403 16:20:10.766536 17882 net.cpp:141] Setting up inception_3a/3x3_reduce
I0403 16:20:10.766577 17882 net.cpp:148] Top shape: 24 96 28 28 (1806336)
I0403 16:20:10.766599 17882 net.cpp:156] Memory required for data: 508183584
I0403 16:20:10.766626 17882 layer_factory.hpp:77] Creating layer inception_3a/relu_3x3_reduce
I0403 16:20:10.766672 17882 net.cpp:91] Creating Layer inception_3a/relu_3x3_reduce
I0403 16:20:10.766695 17882 net.cpp:425] inception_3a/relu_3x3_reduce <- inception_3a/3x3_reduce
I0403 16:20:10.766721 17882 net.cpp:386] inception_3a/relu_3x3_reduce -> inception_3a/3x3_reduce (in-place)
I0403 16:20:10.766942 17882 net.cpp:141] Setting up inception_3a/relu_3x3_reduce
I0403 16:20:10.766973 17882 net.cpp:148] Top shape: 24 96 28 28 (1806336)
I0403 16:20:10.766993 17882 net.cpp:156] Memory required for data: 515408928
I0403 16:20:10.767011 17882 layer_factory.hpp:77] Creating layer inception_3a/3x3
I0403 16:20:10.767040 17882 net.cpp:91] Creating Layer inception_3a/3x3
I0403 16:20:10.767060 17882 net.cpp:425] inception_3a/3x3 <- inception_3a/3x3_reduce
I0403 16:20:10.767087 17882 net.cpp:399] inception_3a/3x3 -> inception_3a/3x3
I0403 16:20:10.769139 17882 net.cpp:141] Setting up inception_3a/3x3
I0403 16:20:10.769173 17882 net.cpp:148] Top shape: 24 128 28 28 (2408448)
I0403 16:20:10.769193 17882 net.cpp:156] Memory required for data: 525042720
I0403 16:20:10.769217 17882 layer_factory.hpp:77] Creating layer inception_3a/relu_3x3
I0403 16:20:10.769243 17882 net.cpp:91] Creating Layer inception_3a/relu_3x3
I0403 16:20:10.769264 17882 net.cpp:425] inception_3a/relu_3x3 <- inception_3a/3x3
I0403 16:20:10.769286 17882 net.cpp:386] inception_3a/relu_3x3 -> inception_3a/3x3 (in-place)
I0403 16:20:10.769619 17882 net.cpp:141] Setting up inception_3a/relu_3x3
I0403 16:20:10.769651 17882 net.cpp:148] Top shape: 24 128 28 28 (2408448)
I0403 16:20:10.769671 17882 net.cpp:156] Memory required for data: 534676512
I0403 16:20:10.769690 17882 layer_factory.hpp:77] Creating layer inception_3a/5x5_reduce
I0403 16:20:10.769718 17882 net.cpp:91] Creating Layer inception_3a/5x5_reduce
I0403 16:20:10.769740 17882 net.cpp:425] inception_3a/5x5_reduce <- pool2/3x3_s2_pool2/3x3_s2_0_split_2
I0403 16:20:10.769767 17882 net.cpp:399] inception_3a/5x5_reduce -> inception_3a/5x5_reduce
I0403 16:20:10.771018 17882 net.cpp:141] Setting up inception_3a/5x5_reduce
I0403 16:20:10.771055 17882 net.cpp:148] Top shape: 24 16 28 28 (301056)
I0403 16:20:10.771076 17882 net.cpp:156] Memory required for data: 535880736
I0403 16:20:10.771100 17882 layer_factory.hpp:77] Creating layer inception_3a/relu_5x5_reduce
I0403 16:20:10.771122 17882 net.cpp:91] Creating Layer inception_3a/relu_5x5_reduce
I0403 16:20:10.771142 17882 net.cpp:425] inception_3a/relu_5x5_reduce <- inception_3a/5x5_reduce
I0403 16:20:10.771164 17882 net.cpp:386] inception_3a/relu_5x5_reduce -> inception_3a/5x5_reduce (in-place)
I0403 16:20:10.771518 17882 net.cpp:141] Setting up inception_3a/relu_5x5_reduce
I0403 16:20:10.771563 17882 net.cpp:148] Top shape: 24 16 28 28 (301056)
I0403 16:20:10.771589 17882 net.cpp:156] Memory required for data: 537084960
I0403 16:20:10.771610 17882 layer_factory.hpp:77] Creating layer inception_3a/5x5
I0403 16:20:10.771636 17882 net.cpp:91] Creating Layer inception_3a/5x5
I0403 16:20:10.771658 17882 net.cpp:425] inception_3a/5x5 <- inception_3a/5x5_reduce
I0403 16:20:10.771685 17882 net.cpp:399] inception_3a/5x5 -> inception_3a/5x5
I0403 16:20:10.772909 17882 net.cpp:141] Setting up inception_3a/5x5
I0403 16:20:10.772943 17882 net.cpp:148] Top shape: 24 32 28 28 (602112)
I0403 16:20:10.772963 17882 net.cpp:156] Memory required for data: 539493408
I0403 16:20:10.772985 17882 layer_factory.hpp:77] Creating layer inception_3a/relu_5x5
I0403 16:20:10.773011 17882 net.cpp:91] Creating Layer inception_3a/relu_5x5
I0403 16:20:10.773032 17882 net.cpp:425] inception_3a/relu_5x5 <- inception_3a/5x5
I0403 16:20:10.773054 17882 net.cpp:386] inception_3a/relu_5x5 -> inception_3a/5x5 (in-place)
I0403 16:20:10.773267 17882 net.cpp:141] Setting up inception_3a/relu_5x5
I0403 16:20:10.773299 17882 net.cpp:148] Top shape: 24 32 28 28 (602112)
I0403 16:20:10.773319 17882 net.cpp:156] Memory required for data: 541901856
I0403 16:20:10.773337 17882 layer_factory.hpp:77] Creating layer inception_3a/pool
I0403 16:20:10.773358 17882 net.cpp:91] Creating Layer inception_3a/pool
I0403 16:20:10.773378 17882 net.cpp:425] inception_3a/pool <- pool2/3x3_s2_pool2/3x3_s2_0_split_3
I0403 16:20:10.773422 17882 net.cpp:399] inception_3a/pool -> inception_3a/pool
I0403 16:20:10.773494 17882 net.cpp:141] Setting up inception_3a/pool
I0403 16:20:10.773522 17882 net.cpp:148] Top shape: 24 192 28 28 (3612672)
I0403 16:20:10.773540 17882 net.cpp:156] Memory required for data: 556352544
I0403 16:20:10.773558 17882 layer_factory.hpp:77] Creating layer inception_3a/pool_proj
I0403 16:20:10.773594 17882 net.cpp:91] Creating Layer inception_3a/pool_proj
I0403 16:20:10.773618 17882 net.cpp:425] inception_3a/pool_proj <- inception_3a/pool
I0403 16:20:10.773646 17882 net.cpp:399] inception_3a/pool_proj -> inception_3a/pool_proj
I0403 16:20:10.774806 17882 net.cpp:141] Setting up inception_3a/pool_proj
I0403 16:20:10.774839 17882 net.cpp:148] Top shape: 24 32 28 28 (602112)
I0403 16:20:10.774858 17882 net.cpp:156] Memory required for data: 558760992
I0403 16:20:10.774888 17882 layer_factory.hpp:77] Creating layer inception_3a/relu_pool_proj
I0403 16:20:10.774914 17882 net.cpp:91] Creating Layer inception_3a/relu_pool_proj
I0403 16:20:10.774933 17882 net.cpp:425] inception_3a/relu_pool_proj <- inception_3a/pool_proj
I0403 16:20:10.774955 17882 net.cpp:386] inception_3a/relu_pool_proj -> inception_3a/pool_proj (in-place)
I0403 16:20:10.775281 17882 net.cpp:141] Setting up inception_3a/relu_pool_proj
I0403 16:20:10.775315 17882 net.cpp:148] Top shape: 24 32 28 28 (602112)
I0403 16:20:10.775332 17882 net.cpp:156] Memory required for data: 561169440
I0403 16:20:10.775352 17882 layer_factory.hpp:77] Creating layer inception_3a/output
I0403 16:20:10.775377 17882 net.cpp:91] Creating Layer inception_3a/output
I0403 16:20:10.775398 17882 net.cpp:425] inception_3a/output <- inception_3a/1x1
I0403 16:20:10.775419 17882 net.cpp:425] inception_3a/output <- inception_3a/3x3
I0403 16:20:10.775439 17882 net.cpp:425] inception_3a/output <- inception_3a/5x5
I0403 16:20:10.775457 17882 net.cpp:425] inception_3a/output <- inception_3a/pool_proj
I0403 16:20:10.775478 17882 net.cpp:399] inception_3a/output -> inception_3a/output
I0403 16:20:10.775537 17882 net.cpp:141] Setting up inception_3a/output
I0403 16:20:10.775566 17882 net.cpp:148] Top shape: 24 256 28 28 (4816896)
I0403 16:20:10.775599 17882 net.cpp:156] Memory required for data: 580437024
I0403 16:20:10.775620 17882 layer_factory.hpp:77] Creating layer inception_3a/output_inception_3a/output_0_split
I0403 16:20:10.775640 17882 net.cpp:91] Creating Layer inception_3a/output_inception_3a/output_0_split
I0403 16:20:10.775660 17882 net.cpp:425] inception_3a/output_inception_3a/output_0_split <- inception_3a/output
I0403 16:20:10.775683 17882 net.cpp:399] inception_3a/output_inception_3a/output_0_split -> inception_3a/output_inception_3a/output_0_split_0
I0403 16:20:10.775709 17882 net.cpp:399] inception_3a/output_inception_3a/output_0_split -> inception_3a/output_inception_3a/output_0_split_1
I0403 16:20:10.775738 17882 net.cpp:399] inception_3a/output_inception_3a/output_0_split -> inception_3a/output_inception_3a/output_0_split_2
I0403 16:20:10.775768 17882 net.cpp:399] inception_3a/output_inception_3a/output_0_split -> inception_3a/output_inception_3a/output_0_split_3
I0403 16:20:10.775859 17882 net.cpp:141] Setting up inception_3a/output_inception_3a/output_0_split
I0403 16:20:10.775888 17882 net.cpp:148] Top shape: 24 256 28 28 (4816896)
I0403 16:20:10.775909 17882 net.cpp:148] Top shape: 24 256 28 28 (4816896)
I0403 16:20:10.775929 17882 net.cpp:148] Top shape: 24 256 28 28 (4816896)
I0403 16:20:10.775949 17882 net.cpp:148] Top shape: 24 256 28 28 (4816896)
I0403 16:20:10.775966 17882 net.cpp:156] Memory required for data: 657507360
I0403 16:20:10.775984 17882 layer_factory.hpp:77] Creating layer inception_3b/1x1
I0403 16:20:10.776010 17882 net.cpp:91] Creating Layer inception_3b/1x1
I0403 16:20:10.776031 17882 net.cpp:425] inception_3b/1x1 <- inception_3a/output_inception_3a/output_0_split_0
I0403 16:20:10.776057 17882 net.cpp:399] inception_3b/1x1 -> inception_3b/1x1
I0403 16:20:10.777434 17882 net.cpp:141] Setting up inception_3b/1x1
I0403 16:20:10.777483 17882 net.cpp:148] Top shape: 24 128 28 28 (2408448)
I0403 16:20:10.777503 17882 net.cpp:156] Memory required for data: 667141152
I0403 16:20:10.777526 17882 layer_factory.hpp:77] Creating layer inception_3b/relu_1x1
I0403 16:20:10.777547 17882 net.cpp:91] Creating Layer inception_3b/relu_1x1
I0403 16:20:10.777567 17882 net.cpp:425] inception_3b/relu_1x1 <- inception_3b/1x1
I0403 16:20:10.777598 17882 net.cpp:386] inception_3b/relu_1x1 -> inception_3b/1x1 (in-place)
I0403 16:20:10.777813 17882 net.cpp:141] Setting up inception_3b/relu_1x1
I0403 16:20:10.777845 17882 net.cpp:148] Top shape: 24 128 28 28 (2408448)
I0403 16:20:10.777863 17882 net.cpp:156] Memory required for data: 676774944
I0403 16:20:10.777881 17882 layer_factory.hpp:77] Creating layer inception_3b/3x3_reduce
I0403 16:20:10.777911 17882 net.cpp:91] Creating Layer inception_3b/3x3_reduce
I0403 16:20:10.777932 17882 net.cpp:425] inception_3b/3x3_reduce <- inception_3a/output_inception_3a/output_0_split_1
I0403 16:20:10.777959 17882 net.cpp:399] inception_3b/3x3_reduce -> inception_3b/3x3_reduce
I0403 16:20:10.779331 17882 net.cpp:141] Setting up inception_3b/3x3_reduce
I0403 16:20:10.779366 17882 net.cpp:148] Top shape: 24 128 28 28 (2408448)
I0403 16:20:10.779386 17882 net.cpp:156] Memory required for data: 686408736
I0403 16:20:10.779407 17882 layer_factory.hpp:77] Creating layer inception_3b/relu_3x3_reduce
I0403 16:20:10.779433 17882 net.cpp:91] Creating Layer inception_3b/relu_3x3_reduce
I0403 16:20:10.779453 17882 net.cpp:425] inception_3b/relu_3x3_reduce <- inception_3b/3x3_reduce
I0403 16:20:10.779475 17882 net.cpp:386] inception_3b/relu_3x3_reduce -> inception_3b/3x3_reduce (in-place)
I0403 16:20:10.779691 17882 net.cpp:141] Setting up inception_3b/relu_3x3_reduce
I0403 16:20:10.779721 17882 net.cpp:148] Top shape: 24 128 28 28 (2408448)
I0403 16:20:10.779741 17882 net.cpp:156] Memory required for data: 696042528
I0403 16:20:10.779758 17882 layer_factory.hpp:77] Creating layer inception_3b/3x3
I0403 16:20:10.779790 17882 net.cpp:91] Creating Layer inception_3b/3x3
I0403 16:20:10.779814 17882 net.cpp:425] inception_3b/3x3 <- inception_3b/3x3_reduce
I0403 16:20:10.779837 17882 net.cpp:399] inception_3b/3x3 -> inception_3b/3x3
I0403 16:20:10.783346 17882 net.cpp:141] Setting up inception_3b/3x3
I0403 16:20:10.783382 17882 net.cpp:148] Top shape: 24 192 28 28 (3612672)
I0403 16:20:10.783401 17882 net.cpp:156] Memory required for data: 710493216
I0403 16:20:10.783426 17882 layer_factory.hpp:77] Creating layer inception_3b/relu_3x3
I0403 16:20:10.783452 17882 net.cpp:91] Creating Layer inception_3b/relu_3x3
I0403 16:20:10.783473 17882 net.cpp:425] inception_3b/relu_3x3 <- inception_3b/3x3
I0403 16:20:10.783494 17882 net.cpp:386] inception_3b/relu_3x3 -> inception_3b/3x3 (in-place)
I0403 16:20:10.783838 17882 net.cpp:141] Setting up inception_3b/relu_3x3
I0403 16:20:10.783871 17882 net.cpp:148] Top shape: 24 192 28 28 (3612672)
I0403 16:20:10.783890 17882 net.cpp:156] Memory required for data: 724943904
I0403 16:20:10.783910 17882 layer_factory.hpp:77] Creating layer inception_3b/5x5_reduce
I0403 16:20:10.783937 17882 net.cpp:91] Creating Layer inception_3b/5x5_reduce
I0403 16:20:10.783958 17882 net.cpp:425] inception_3b/5x5_reduce <- inception_3a/output_inception_3a/output_0_split_2
I0403 16:20:10.783987 17882 net.cpp:399] inception_3b/5x5_reduce -> inception_3b/5x5_reduce
I0403 16:20:10.785193 17882 net.cpp:141] Setting up inception_3b/5x5_reduce
I0403 16:20:10.785228 17882 net.cpp:148] Top shape: 24 32 28 28 (602112)
I0403 16:20:10.785248 17882 net.cpp:156] Memory required for data: 727352352
I0403 16:20:10.785280 17882 layer_factory.hpp:77] Creating layer inception_3b/relu_5x5_reduce
I0403 16:20:10.785305 17882 net.cpp:91] Creating Layer inception_3b/relu_5x5_reduce
I0403 16:20:10.785326 17882 net.cpp:425] inception_3b/relu_5x5_reduce <- inception_3b/5x5_reduce
I0403 16:20:10.785347 17882 net.cpp:386] inception_3b/relu_5x5_reduce -> inception_3b/5x5_reduce (in-place)
I0403 16:20:10.785564 17882 net.cpp:141] Setting up inception_3b/relu_5x5_reduce
I0403 16:20:10.785625 17882 net.cpp:148] Top shape: 24 32 28 28 (602112)
I0403 16:20:10.785646 17882 net.cpp:156] Memory required for data: 729760800
I0403 16:20:10.785666 17882 layer_factory.hpp:77] Creating layer inception_3b/5x5
I0403 16:20:10.785693 17882 net.cpp:91] Creating Layer inception_3b/5x5
I0403 16:20:10.785714 17882 net.cpp:425] inception_3b/5x5 <- inception_3b/5x5_reduce
I0403 16:20:10.785738 17882 net.cpp:399] inception_3b/5x5 -> inception_3b/5x5
I0403 16:20:10.788108 17882 net.cpp:141] Setting up inception_3b/5x5
I0403 16:20:10.788144 17882 net.cpp:148] Top shape: 24 96 28 28 (1806336)
I0403 16:20:10.788164 17882 net.cpp:156] Memory required for data: 736986144
I0403 16:20:10.788188 17882 layer_factory.hpp:77] Creating layer inception_3b/relu_5x5
I0403 16:20:10.788213 17882 net.cpp:91] Creating Layer inception_3b/relu_5x5
I0403 16:20:10.788234 17882 net.cpp:425] inception_3b/relu_5x5 <- inception_3b/5x5
I0403 16:20:10.788255 17882 net.cpp:386] inception_3b/relu_5x5 -> inception_3b/5x5 (in-place)
I0403 16:20:10.788489 17882 net.cpp:141] Setting up inception_3b/relu_5x5
I0403 16:20:10.788521 17882 net.cpp:148] Top shape: 24 96 28 28 (1806336)
I0403 16:20:10.788539 17882 net.cpp:156] Memory required for data: 744211488
I0403 16:20:10.788557 17882 layer_factory.hpp:77] Creating layer inception_3b/pool
I0403 16:20:10.788584 17882 net.cpp:91] Creating Layer inception_3b/pool
I0403 16:20:10.788605 17882 net.cpp:425] inception_3b/pool <- inception_3a/output_inception_3a/output_0_split_3
I0403 16:20:10.788628 17882 net.cpp:399] inception_3b/pool -> inception_3b/pool
I0403 16:20:10.788697 17882 net.cpp:141] Setting up inception_3b/pool
I0403 16:20:10.788725 17882 net.cpp:148] Top shape: 24 256 28 28 (4816896)
I0403 16:20:10.788743 17882 net.cpp:156] Memory required for data: 763479072
I0403 16:20:10.788763 17882 layer_factory.hpp:77] Creating layer inception_3b/pool_proj
I0403 16:20:10.788789 17882 net.cpp:91] Creating Layer inception_3b/pool_proj
I0403 16:20:10.788810 17882 net.cpp:425] inception_3b/pool_proj <- inception_3b/pool
I0403 16:20:10.788837 17882 net.cpp:399] inception_3b/pool_proj -> inception_3b/pool_proj
I0403 16:20:10.790110 17882 net.cpp:141] Setting up inception_3b/pool_proj
I0403 16:20:10.790146 17882 net.cpp:148] Top shape: 24 64 28 28 (1204224)
I0403 16:20:10.790168 17882 net.cpp:156] Memory required for data: 768295968
I0403 16:20:10.790191 17882 layer_factory.hpp:77] Creating layer inception_3b/relu_pool_proj
I0403 16:20:10.790213 17882 net.cpp:91] Creating Layer inception_3b/relu_pool_proj
I0403 16:20:10.790233 17882 net.cpp:425] inception_3b/relu_pool_proj <- inception_3b/pool_proj
I0403 16:20:10.790257 17882 net.cpp:386] inception_3b/relu_pool_proj -> inception_3b/pool_proj (in-place)
I0403 16:20:10.790722 17882 net.cpp:141] Setting up inception_3b/relu_pool_proj
I0403 16:20:10.790757 17882 net.cpp:148] Top shape: 24 64 28 28 (1204224)
I0403 16:20:10.790777 17882 net.cpp:156] Memory required for data: 773112864
I0403 16:20:10.790796 17882 layer_factory.hpp:77] Creating layer inception_3b/output
I0403 16:20:10.790817 17882 net.cpp:91] Creating Layer inception_3b/output
I0403 16:20:10.790837 17882 net.cpp:425] inception_3b/output <- inception_3b/1x1
I0403 16:20:10.790858 17882 net.cpp:425] inception_3b/output <- inception_3b/3x3
I0403 16:20:10.790879 17882 net.cpp:425] inception_3b/output <- inception_3b/5x5
I0403 16:20:10.790897 17882 net.cpp:425] inception_3b/output <- inception_3b/pool_proj
I0403 16:20:10.790918 17882 net.cpp:399] inception_3b/output -> inception_3b/output
I0403 16:20:10.790973 17882 net.cpp:141] Setting up inception_3b/output
I0403 16:20:10.791003 17882 net.cpp:148] Top shape: 24 480 28 28 (9031680)
I0403 16:20:10.791021 17882 net.cpp:156] Memory required for data: 809239584
I0403 16:20:10.791040 17882 layer_factory.hpp:77] Creating layer pool3/3x3_s2
I0403 16:20:10.791064 17882 net.cpp:91] Creating Layer pool3/3x3_s2
I0403 16:20:10.791085 17882 net.cpp:425] pool3/3x3_s2 <- inception_3b/output
I0403 16:20:10.791106 17882 net.cpp:399] pool3/3x3_s2 -> pool3/3x3_s2
I0403 16:20:10.791198 17882 net.cpp:141] Setting up pool3/3x3_s2
I0403 16:20:10.791227 17882 net.cpp:148] Top shape: 24 480 14 14 (2257920)
I0403 16:20:10.791245 17882 net.cpp:156] Memory required for data: 818271264
I0403 16:20:10.791263 17882 layer_factory.hpp:77] Creating layer pool3/3x3_s2_pool3/3x3_s2_0_split
I0403 16:20:10.791285 17882 net.cpp:91] Creating Layer pool3/3x3_s2_pool3/3x3_s2_0_split
I0403 16:20:10.791302 17882 net.cpp:425] pool3/3x3_s2_pool3/3x3_s2_0_split <- pool3/3x3_s2
I0403 16:20:10.791326 17882 net.cpp:399] pool3/3x3_s2_pool3/3x3_s2_0_split -> pool3/3x3_s2_pool3/3x3_s2_0_split_0
I0403 16:20:10.791350 17882 net.cpp:399] pool3/3x3_s2_pool3/3x3_s2_0_split -> pool3/3x3_s2_pool3/3x3_s2_0_split_1
I0403 16:20:10.791375 17882 net.cpp:399] pool3/3x3_s2_pool3/3x3_s2_0_split -> pool3/3x3_s2_pool3/3x3_s2_0_split_2
I0403 16:20:10.791399 17882 net.cpp:399] pool3/3x3_s2_pool3/3x3_s2_0_split -> pool3/3x3_s2_pool3/3x3_s2_0_split_3
I0403 16:20:10.791492 17882 net.cpp:141] Setting up pool3/3x3_s2_pool3/3x3_s2_0_split
I0403 16:20:10.791523 17882 net.cpp:148] Top shape: 24 480 14 14 (2257920)
I0403 16:20:10.791544 17882 net.cpp:148] Top shape: 24 480 14 14 (2257920)
I0403 16:20:10.791565 17882 net.cpp:148] Top shape: 24 480 14 14 (2257920)
I0403 16:20:10.791590 17882 net.cpp:148] Top shape: 24 480 14 14 (2257920)
I0403 16:20:10.791609 17882 net.cpp:156] Memory required for data: 854397984
I0403 16:20:10.791626 17882 layer_factory.hpp:77] Creating layer inception_4a/1x1
I0403 16:20:10.791654 17882 net.cpp:91] Creating Layer inception_4a/1x1
I0403 16:20:10.791677 17882 net.cpp:425] inception_4a/1x1 <- pool3/3x3_s2_pool3/3x3_s2_0_split_0
I0403 16:20:10.791700 17882 net.cpp:399] inception_4a/1x1 -> inception_4a/1x1
I0403 16:20:10.793597 17882 net.cpp:141] Setting up inception_4a/1x1
I0403 16:20:10.793633 17882 net.cpp:148] Top shape: 24 192 14 14 (903168)
I0403 16:20:10.793654 17882 net.cpp:156] Memory required for data: 858010656
I0403 16:20:10.793678 17882 layer_factory.hpp:77] Creating layer inception_4a/relu_1x1
I0403 16:20:10.793700 17882 net.cpp:91] Creating Layer inception_4a/relu_1x1
I0403 16:20:10.793720 17882 net.cpp:425] inception_4a/relu_1x1 <- inception_4a/1x1
I0403 16:20:10.793745 17882 net.cpp:386] inception_4a/relu_1x1 -> inception_4a/1x1 (in-place)
I0403 16:20:10.793962 17882 net.cpp:141] Setting up inception_4a/relu_1x1
I0403 16:20:10.793993 17882 net.cpp:148] Top shape: 24 192 14 14 (903168)
I0403 16:20:10.794011 17882 net.cpp:156] Memory required for data: 861623328
I0403 16:20:10.794030 17882 layer_factory.hpp:77] Creating layer inception_4a/3x3_reduce
I0403 16:20:10.794057 17882 net.cpp:91] Creating Layer inception_4a/3x3_reduce
I0403 16:20:10.794080 17882 net.cpp:425] inception_4a/3x3_reduce <- pool3/3x3_s2_pool3/3x3_s2_0_split_1
I0403 16:20:10.794106 17882 net.cpp:399] inception_4a/3x3_reduce -> inception_4a/3x3_reduce
I0403 16:20:10.795667 17882 net.cpp:141] Setting up inception_4a/3x3_reduce
I0403 16:20:10.795702 17882 net.cpp:148] Top shape: 24 96 14 14 (451584)
I0403 16:20:10.795722 17882 net.cpp:156] Memory required for data: 863429664
I0403 16:20:10.795749 17882 layer_factory.hpp:77] Creating layer inception_4a/relu_3x3_reduce
I0403 16:20:10.795776 17882 net.cpp:91] Creating Layer inception_4a/relu_3x3_reduce
I0403 16:20:10.795799 17882 net.cpp:425] inception_4a/relu_3x3_reduce <- inception_4a/3x3_reduce
I0403 16:20:10.795824 17882 net.cpp:386] inception_4a/relu_3x3_reduce -> inception_4a/3x3_reduce (in-place)
I0403 16:20:10.796042 17882 net.cpp:141] Setting up inception_4a/relu_3x3_reduce
I0403 16:20:10.796073 17882 net.cpp:148] Top shape: 24 96 14 14 (451584)
I0403 16:20:10.796092 17882 net.cpp:156] Memory required for data: 865236000
I0403 16:20:10.796110 17882 layer_factory.hpp:77] Creating layer inception_4a/3x3
I0403 16:20:10.796139 17882 net.cpp:91] Creating Layer inception_4a/3x3
I0403 16:20:10.796160 17882 net.cpp:425] inception_4a/3x3 <- inception_4a/3x3_reduce
I0403 16:20:10.796186 17882 net.cpp:399] inception_4a/3x3 -> inception_4a/3x3
I0403 16:20:10.799427 17882 net.cpp:141] Setting up inception_4a/3x3
I0403 16:20:10.799463 17882 net.cpp:148] Top shape: 24 208 14 14 (978432)
I0403 16:20:10.799482 17882 net.cpp:156] Memory required for data: 869149728
I0403 16:20:10.799505 17882 layer_factory.hpp:77] Creating layer inception_4a/relu_3x3
I0403 16:20:10.799530 17882 net.cpp:91] Creating Layer inception_4a/relu_3x3
I0403 16:20:10.799551 17882 net.cpp:425] inception_4a/relu_3x3 <- inception_4a/3x3
I0403 16:20:10.799576 17882 net.cpp:386] inception_4a/relu_3x3 -> inception_4a/3x3 (in-place)
I0403 16:20:10.799914 17882 net.cpp:141] Setting up inception_4a/relu_3x3
I0403 16:20:10.799947 17882 net.cpp:148] Top shape: 24 208 14 14 (978432)
I0403 16:20:10.799967 17882 net.cpp:156] Memory required for data: 873063456
I0403 16:20:10.799984 17882 layer_factory.hpp:77] Creating layer inception_4a/5x5_reduce
I0403 16:20:10.800014 17882 net.cpp:91] Creating Layer inception_4a/5x5_reduce
I0403 16:20:10.800035 17882 net.cpp:425] inception_4a/5x5_reduce <- pool3/3x3_s2_pool3/3x3_s2_0_split_2
I0403 16:20:10.800063 17882 net.cpp:399] inception_4a/5x5_reduce -> inception_4a/5x5_reduce
I0403 16:20:10.801301 17882 net.cpp:141] Setting up inception_4a/5x5_reduce
I0403 16:20:10.801334 17882 net.cpp:148] Top shape: 24 16 14 14 (75264)
I0403 16:20:10.801353 17882 net.cpp:156] Memory required for data: 873364512
I0403 16:20:10.801376 17882 layer_factory.hpp:77] Creating layer inception_4a/relu_5x5_reduce
I0403 16:20:10.801403 17882 net.cpp:91] Creating Layer inception_4a/relu_5x5_reduce
I0403 16:20:10.801424 17882 net.cpp:425] inception_4a/relu_5x5_reduce <- inception_4a/5x5_reduce
I0403 16:20:10.801445 17882 net.cpp:386] inception_4a/relu_5x5_reduce -> inception_4a/5x5_reduce (in-place)
I0403 16:20:10.801672 17882 net.cpp:141] Setting up inception_4a/relu_5x5_reduce
I0403 16:20:10.801707 17882 net.cpp:148] Top shape: 24 16 14 14 (75264)
I0403 16:20:10.801728 17882 net.cpp:156] Memory required for data: 873665568
I0403 16:20:10.801746 17882 layer_factory.hpp:77] Creating layer inception_4a/5x5
I0403 16:20:10.801774 17882 net.cpp:91] Creating Layer inception_4a/5x5
I0403 16:20:10.801795 17882 net.cpp:425] inception_4a/5x5 <- inception_4a/5x5_reduce
I0403 16:20:10.801818 17882 net.cpp:399] inception_4a/5x5 -> inception_4a/5x5
I0403 16:20:10.803158 17882 net.cpp:141] Setting up inception_4a/5x5
I0403 16:20:10.803195 17882 net.cpp:148] Top shape: 24 48 14 14 (225792)
I0403 16:20:10.803215 17882 net.cpp:156] Memory required for data: 874568736
I0403 16:20:10.803239 17882 layer_factory.hpp:77] Creating layer inception_4a/relu_5x5
I0403 16:20:10.803262 17882 net.cpp:91] Creating Layer inception_4a/relu_5x5
I0403 16:20:10.803282 17882 net.cpp:425] inception_4a/relu_5x5 <- inception_4a/5x5
I0403 16:20:10.803303 17882 net.cpp:386] inception_4a/relu_5x5 -> inception_4a/5x5 (in-place)
I0403 16:20:10.803526 17882 net.cpp:141] Setting up inception_4a/relu_5x5
I0403 16:20:10.803556 17882 net.cpp:148] Top shape: 24 48 14 14 (225792)
I0403 16:20:10.803580 17882 net.cpp:156] Memory required for data: 875471904
I0403 16:20:10.803599 17882 layer_factory.hpp:77] Creating layer inception_4a/pool
I0403 16:20:10.803622 17882 net.cpp:91] Creating Layer inception_4a/pool
I0403 16:20:10.803640 17882 net.cpp:425] inception_4a/pool <- pool3/3x3_s2_pool3/3x3_s2_0_split_3
I0403 16:20:10.803665 17882 net.cpp:399] inception_4a/pool -> inception_4a/pool
I0403 16:20:10.803741 17882 net.cpp:141] Setting up inception_4a/pool
I0403 16:20:10.803773 17882 net.cpp:148] Top shape: 24 480 14 14 (2257920)
I0403 16:20:10.803794 17882 net.cpp:156] Memory required for data: 884503584
I0403 16:20:10.803813 17882 layer_factory.hpp:77] Creating layer inception_4a/pool_proj
I0403 16:20:10.803840 17882 net.cpp:91] Creating Layer inception_4a/pool_proj
I0403 16:20:10.803861 17882 net.cpp:425] inception_4a/pool_proj <- inception_4a/pool
I0403 16:20:10.803886 17882 net.cpp:399] inception_4a/pool_proj -> inception_4a/pool_proj
I0403 16:20:10.805307 17882 net.cpp:141] Setting up inception_4a/pool_proj
I0403 16:20:10.805342 17882 net.cpp:148] Top shape: 24 64 14 14 (301056)
I0403 16:20:10.805380 17882 net.cpp:156] Memory required for data: 885707808
I0403 16:20:10.805407 17882 layer_factory.hpp:77] Creating layer inception_4a/relu_pool_proj
I0403 16:20:10.805428 17882 net.cpp:91] Creating Layer inception_4a/relu_pool_proj
I0403 16:20:10.805449 17882 net.cpp:425] inception_4a/relu_pool_proj <- inception_4a/pool_proj
I0403 16:20:10.805474 17882 net.cpp:386] inception_4a/relu_pool_proj -> inception_4a/pool_proj (in-place)
I0403 16:20:10.805824 17882 net.cpp:141] Setting up inception_4a/relu_pool_proj
I0403 16:20:10.805857 17882 net.cpp:148] Top shape: 24 64 14 14 (301056)
I0403 16:20:10.805877 17882 net.cpp:156] Memory required for data: 886912032
I0403 16:20:10.805896 17882 layer_factory.hpp:77] Creating layer inception_4a/output
I0403 16:20:10.805917 17882 net.cpp:91] Creating Layer inception_4a/output
I0403 16:20:10.805938 17882 net.cpp:425] inception_4a/output <- inception_4a/1x1
I0403 16:20:10.805958 17882 net.cpp:425] inception_4a/output <- inception_4a/3x3
I0403 16:20:10.805977 17882 net.cpp:425] inception_4a/output <- inception_4a/5x5
I0403 16:20:10.805996 17882 net.cpp:425] inception_4a/output <- inception_4a/pool_proj
I0403 16:20:10.806020 17882 net.cpp:399] inception_4a/output -> inception_4a/output
I0403 16:20:10.806076 17882 net.cpp:141] Setting up inception_4a/output
I0403 16:20:10.806104 17882 net.cpp:148] Top shape: 24 512 14 14 (2408448)
I0403 16:20:10.806128 17882 net.cpp:156] Memory required for data: 896545824
I0403 16:20:10.806145 17882 layer_factory.hpp:77] Creating layer inception_4a/output_inception_4a/output_0_split
I0403 16:20:10.806166 17882 net.cpp:91] Creating Layer inception_4a/output_inception_4a/output_0_split
I0403 16:20:10.806185 17882 net.cpp:425] inception_4a/output_inception_4a/output_0_split <- inception_4a/output
I0403 16:20:10.806206 17882 net.cpp:399] inception_4a/output_inception_4a/output_0_split -> inception_4a/output_inception_4a/output_0_split_0
I0403 16:20:10.806231 17882 net.cpp:399] inception_4a/output_inception_4a/output_0_split -> inception_4a/output_inception_4a/output_0_split_1
I0403 16:20:10.806259 17882 net.cpp:399] inception_4a/output_inception_4a/output_0_split -> inception_4a/output_inception_4a/output_0_split_2
I0403 16:20:10.806287 17882 net.cpp:399] inception_4a/output_inception_4a/output_0_split -> inception_4a/output_inception_4a/output_0_split_3
I0403 16:20:10.806311 17882 net.cpp:399] inception_4a/output_inception_4a/output_0_split -> inception_4a/output_inception_4a/output_0_split_4
I0403 16:20:10.806423 17882 net.cpp:141] Setting up inception_4a/output_inception_4a/output_0_split
I0403 16:20:10.806453 17882 net.cpp:148] Top shape: 24 512 14 14 (2408448)
I0403 16:20:10.806473 17882 net.cpp:148] Top shape: 24 512 14 14 (2408448)
I0403 16:20:10.806494 17882 net.cpp:148] Top shape: 24 512 14 14 (2408448)
I0403 16:20:10.806514 17882 net.cpp:148] Top shape: 24 512 14 14 (2408448)
I0403 16:20:10.806534 17882 net.cpp:148] Top shape: 24 512 14 14 (2408448)
I0403 16:20:10.806550 17882 net.cpp:156] Memory required for data: 944714784
I0403 16:20:10.806567 17882 layer_factory.hpp:77] Creating layer loss1/ave_pool
I0403 16:20:10.806599 17882 net.cpp:91] Creating Layer loss1/ave_pool
I0403 16:20:10.806622 17882 net.cpp:425] loss1/ave_pool <- inception_4a/output_inception_4a/output_0_split_0
I0403 16:20:10.806645 17882 net.cpp:399] loss1/ave_pool -> loss1/ave_pool
I0403 16:20:10.806896 17882 net.cpp:141] Setting up loss1/ave_pool
I0403 16:20:10.806928 17882 net.cpp:148] Top shape: 24 512 4 4 (196608)
I0403 16:20:10.806947 17882 net.cpp:156] Memory required for data: 945501216
I0403 16:20:10.806967 17882 layer_factory.hpp:77] Creating layer loss1/conv
I0403 16:20:10.806993 17882 net.cpp:91] Creating Layer loss1/conv
I0403 16:20:10.807014 17882 net.cpp:425] loss1/conv <- loss1/ave_pool
I0403 16:20:10.807040 17882 net.cpp:399] loss1/conv -> loss1/conv
I0403 16:20:10.808758 17882 net.cpp:141] Setting up loss1/conv
I0403 16:20:10.808794 17882 net.cpp:148] Top shape: 24 128 4 4 (49152)
I0403 16:20:10.808812 17882 net.cpp:156] Memory required for data: 945697824
I0403 16:20:10.808854 17882 layer_factory.hpp:77] Creating layer loss1/relu_conv
I0403 16:20:10.808881 17882 net.cpp:91] Creating Layer loss1/relu_conv
I0403 16:20:10.808902 17882 net.cpp:425] loss1/relu_conv <- loss1/conv
I0403 16:20:10.808923 17882 net.cpp:386] loss1/relu_conv -> loss1/conv (in-place)
I0403 16:20:10.809265 17882 net.cpp:141] Setting up loss1/relu_conv
I0403 16:20:10.809298 17882 net.cpp:148] Top shape: 24 128 4 4 (49152)
I0403 16:20:10.809316 17882 net.cpp:156] Memory required for data: 945894432
I0403 16:20:10.809335 17882 layer_factory.hpp:77] Creating layer loss1/fc
I0403 16:20:10.809366 17882 net.cpp:91] Creating Layer loss1/fc
I0403 16:20:10.809389 17882 net.cpp:425] loss1/fc <- loss1/conv
I0403 16:20:10.809412 17882 net.cpp:399] loss1/fc -> loss1/fc
I0403 16:20:10.831210 17882 net.cpp:141] Setting up loss1/fc
I0403 16:20:10.831251 17882 net.cpp:148] Top shape: 24 1024 (24576)
I0403 16:20:10.831271 17882 net.cpp:156] Memory required for data: 945992736
I0403 16:20:10.831295 17882 layer_factory.hpp:77] Creating layer loss1/relu_fc
I0403 16:20:10.831318 17882 net.cpp:91] Creating Layer loss1/relu_fc
I0403 16:20:10.831338 17882 net.cpp:425] loss1/relu_fc <- loss1/fc
I0403 16:20:10.831363 17882 net.cpp:386] loss1/relu_fc -> loss1/fc (in-place)
I0403 16:20:10.831596 17882 net.cpp:141] Setting up loss1/relu_fc
I0403 16:20:10.831627 17882 net.cpp:148] Top shape: 24 1024 (24576)
I0403 16:20:10.831647 17882 net.cpp:156] Memory required for data: 946091040
I0403 16:20:10.831666 17882 layer_factory.hpp:77] Creating layer loss1/drop_fc
I0403 16:20:10.831701 17882 net.cpp:91] Creating Layer loss1/drop_fc
I0403 16:20:10.831723 17882 net.cpp:425] loss1/drop_fc <- loss1/fc
I0403 16:20:10.831744 17882 net.cpp:386] loss1/drop_fc -> loss1/fc (in-place)
I0403 16:20:10.831806 17882 net.cpp:141] Setting up loss1/drop_fc
I0403 16:20:10.831835 17882 net.cpp:148] Top shape: 24 1024 (24576)
I0403 16:20:10.831854 17882 net.cpp:156] Memory required for data: 946189344
I0403 16:20:10.831872 17882 layer_factory.hpp:77] Creating layer loss1/classifier_plantvillage
I0403 16:20:10.831898 17882 net.cpp:91] Creating Layer loss1/classifier_plantvillage
I0403 16:20:10.831919 17882 net.cpp:425] loss1/classifier_plantvillage <- loss1/fc
I0403 16:20:10.831945 17882 net.cpp:399] loss1/classifier_plantvillage -> loss1/classifier_plantvillage
I0403 16:20:10.833031 17882 net.cpp:141] Setting up loss1/classifier_plantvillage
I0403 16:20:10.833066 17882 net.cpp:148] Top shape: 24 38 (912)
I0403 16:20:10.833086 17882 net.cpp:156] Memory required for data: 946192992
I0403 16:20:10.833108 17882 layer_factory.hpp:77] Creating layer loss1/classifier_plantvillage_loss1/classifier_plantvillage_0_split
I0403 16:20:10.833132 17882 net.cpp:91] Creating Layer loss1/classifier_plantvillage_loss1/classifier_plantvillage_0_split
I0403 16:20:10.833153 17882 net.cpp:425] loss1/classifier_plantvillage_loss1/classifier_plantvillage_0_split <- loss1/classifier_plantvillage
I0403 16:20:10.833178 17882 net.cpp:399] loss1/classifier_plantvillage_loss1/classifier_plantvillage_0_split -> loss1/classifier_plantvillage_loss1/classifier_plantvillage_0_split_0
I0403 16:20:10.833204 17882 net.cpp:399] loss1/classifier_plantvillage_loss1/classifier_plantvillage_0_split -> loss1/classifier_plantvillage_loss1/classifier_plantvillage_0_split_1
I0403 16:20:10.833230 17882 net.cpp:399] loss1/classifier_plantvillage_loss1/classifier_plantvillage_0_split -> loss1/classifier_plantvillage_loss1/classifier_plantvillage_0_split_2
I0403 16:20:10.833309 17882 net.cpp:141] Setting up loss1/classifier_plantvillage_loss1/classifier_plantvillage_0_split
I0403 16:20:10.833340 17882 net.cpp:148] Top shape: 24 38 (912)
I0403 16:20:10.833361 17882 net.cpp:148] Top shape: 24 38 (912)
I0403 16:20:10.833381 17882 net.cpp:148] Top shape: 24 38 (912)
I0403 16:20:10.833400 17882 net.cpp:156] Memory required for data: 946203936
I0403 16:20:10.833417 17882 layer_factory.hpp:77] Creating layer inception_4b/1x1
I0403 16:20:10.833442 17882 net.cpp:91] Creating Layer inception_4b/1x1
I0403 16:20:10.833483 17882 net.cpp:425] inception_4b/1x1 <- inception_4a/output_inception_4a/output_0_split_1
I0403 16:20:10.833508 17882 net.cpp:399] inception_4b/1x1 -> inception_4b/1x1
I0403 16:20:10.835505 17882 net.cpp:141] Setting up inception_4b/1x1
I0403 16:20:10.835539 17882 net.cpp:148] Top shape: 24 160 14 14 (752640)
I0403 16:20:10.835559 17882 net.cpp:156] Memory required for data: 949214496
I0403 16:20:10.835598 17882 layer_factory.hpp:77] Creating layer inception_4b/relu_1x1
I0403 16:20:10.835628 17882 net.cpp:91] Creating Layer inception_4b/relu_1x1
I0403 16:20:10.835650 17882 net.cpp:425] inception_4b/relu_1x1 <- inception_4b/1x1
I0403 16:20:10.835672 17882 net.cpp:386] inception_4b/relu_1x1 -> inception_4b/1x1 (in-place)
I0403 16:20:10.835896 17882 net.cpp:141] Setting up inception_4b/relu_1x1
I0403 16:20:10.835927 17882 net.cpp:148] Top shape: 24 160 14 14 (752640)
I0403 16:20:10.835945 17882 net.cpp:156] Memory required for data: 952225056
I0403 16:20:10.835963 17882 layer_factory.hpp:77] Creating layer inception_4b/3x3_reduce
I0403 16:20:10.835991 17882 net.cpp:91] Creating Layer inception_4b/3x3_reduce
I0403 16:20:10.836012 17882 net.cpp:425] inception_4b/3x3_reduce <- inception_4a/output_inception_4a/output_0_split_2
I0403 16:20:10.836037 17882 net.cpp:399] inception_4b/3x3_reduce -> inception_4b/3x3_reduce
I0403 16:20:10.837687 17882 net.cpp:141] Setting up inception_4b/3x3_reduce
I0403 16:20:10.837721 17882 net.cpp:148] Top shape: 24 112 14 14 (526848)
I0403 16:20:10.837741 17882 net.cpp:156] Memory required for data: 954332448
I0403 16:20:10.837764 17882 layer_factory.hpp:77] Creating layer inception_4b/relu_3x3_reduce
I0403 16:20:10.837791 17882 net.cpp:91] Creating Layer inception_4b/relu_3x3_reduce
I0403 16:20:10.837812 17882 net.cpp:425] inception_4b/relu_3x3_reduce <- inception_4b/3x3_reduce
I0403 16:20:10.837836 17882 net.cpp:386] inception_4b/relu_3x3_reduce -> inception_4b/3x3_reduce (in-place)
I0403 16:20:10.838181 17882 net.cpp:141] Setting up inception_4b/relu_3x3_reduce
I0403 16:20:10.838213 17882 net.cpp:148] Top shape: 24 112 14 14 (526848)
I0403 16:20:10.838232 17882 net.cpp:156] Memory required for data: 956439840
I0403 16:20:10.838251 17882 layer_factory.hpp:77] Creating layer inception_4b/3x3
I0403 16:20:10.838280 17882 net.cpp:91] Creating Layer inception_4b/3x3
I0403 16:20:10.838304 17882 net.cpp:425] inception_4b/3x3 <- inception_4b/3x3_reduce
I0403 16:20:10.838326 17882 net.cpp:399] inception_4b/3x3 -> inception_4b/3x3
I0403 16:20:10.841944 17882 net.cpp:141] Setting up inception_4b/3x3
I0403 16:20:10.841982 17882 net.cpp:148] Top shape: 24 224 14 14 (1053696)
I0403 16:20:10.842005 17882 net.cpp:156] Memory required for data: 960654624
I0403 16:20:10.842028 17882 layer_factory.hpp:77] Creating layer inception_4b/relu_3x3
I0403 16:20:10.842051 17882 net.cpp:91] Creating Layer inception_4b/relu_3x3
I0403 16:20:10.842072 17882 net.cpp:425] inception_4b/relu_3x3 <- inception_4b/3x3
I0403 16:20:10.842097 17882 net.cpp:386] inception_4b/relu_3x3 -> inception_4b/3x3 (in-place)
I0403 16:20:10.842317 17882 net.cpp:141] Setting up inception_4b/relu_3x3
I0403 16:20:10.842350 17882 net.cpp:148] Top shape: 24 224 14 14 (1053696)
I0403 16:20:10.842367 17882 net.cpp:156] Memory required for data: 964869408
I0403 16:20:10.842386 17882 layer_factory.hpp:77] Creating layer inception_4b/5x5_reduce
I0403 16:20:10.842412 17882 net.cpp:91] Creating Layer inception_4b/5x5_reduce
I0403 16:20:10.842435 17882 net.cpp:425] inception_4b/5x5_reduce <- inception_4a/output_inception_4a/output_0_split_3
I0403 16:20:10.842463 17882 net.cpp:399] inception_4b/5x5_reduce -> inception_4b/5x5_reduce
I0403 16:20:10.843801 17882 net.cpp:141] Setting up inception_4b/5x5_reduce
I0403 16:20:10.843837 17882 net.cpp:148] Top shape: 24 24 14 14 (112896)
I0403 16:20:10.843857 17882 net.cpp:156] Memory required for data: 965320992
I0403 16:20:10.843879 17882 layer_factory.hpp:77] Creating layer inception_4b/relu_5x5_reduce
I0403 16:20:10.843904 17882 net.cpp:91] Creating Layer inception_4b/relu_5x5_reduce
I0403 16:20:10.843943 17882 net.cpp:425] inception_4b/relu_5x5_reduce <- inception_4b/5x5_reduce
I0403 16:20:10.843966 17882 net.cpp:386] inception_4b/relu_5x5_reduce -> inception_4b/5x5_reduce (in-place)
I0403 16:20:10.844192 17882 net.cpp:141] Setting up inception_4b/relu_5x5_reduce
I0403 16:20:10.844225 17882 net.cpp:148] Top shape: 24 24 14 14 (112896)
I0403 16:20:10.844245 17882 net.cpp:156] Memory required for data: 965772576
I0403 16:20:10.844265 17882 layer_factory.hpp:77] Creating layer inception_4b/5x5
I0403 16:20:10.844292 17882 net.cpp:91] Creating Layer inception_4b/5x5
I0403 16:20:10.844313 17882 net.cpp:425] inception_4b/5x5 <- inception_4b/5x5_reduce
I0403 16:20:10.844337 17882 net.cpp:399] inception_4b/5x5 -> inception_4b/5x5
I0403 16:20:10.845855 17882 net.cpp:141] Setting up inception_4b/5x5
I0403 16:20:10.845890 17882 net.cpp:148] Top shape: 24 64 14 14 (301056)
I0403 16:20:10.845911 17882 net.cpp:156] Memory required for data: 966976800
I0403 16:20:10.845934 17882 layer_factory.hpp:77] Creating layer inception_4b/relu_5x5
I0403 16:20:10.845958 17882 net.cpp:91] Creating Layer inception_4b/relu_5x5
I0403 16:20:10.845980 17882 net.cpp:425] inception_4b/relu_5x5 <- inception_4b/5x5
I0403 16:20:10.846002 17882 net.cpp:386] inception_4b/relu_5x5 -> inception_4b/5x5 (in-place)
I0403 16:20:10.846349 17882 net.cpp:141] Setting up inception_4b/relu_5x5
I0403 16:20:10.846381 17882 net.cpp:148] Top shape: 24 64 14 14 (301056)
I0403 16:20:10.846401 17882 net.cpp:156] Memory required for data: 968181024
I0403 16:20:10.846420 17882 layer_factory.hpp:77] Creating layer inception_4b/pool
I0403 16:20:10.846443 17882 net.cpp:91] Creating Layer inception_4b/pool
I0403 16:20:10.846465 17882 net.cpp:425] inception_4b/pool <- inception_4a/output_inception_4a/output_0_split_4
I0403 16:20:10.846488 17882 net.cpp:399] inception_4b/pool -> inception_4b/pool
I0403 16:20:10.846575 17882 net.cpp:141] Setting up inception_4b/pool
I0403 16:20:10.846606 17882 net.cpp:148] Top shape: 24 512 14 14 (2408448)
I0403 16:20:10.846623 17882 net.cpp:156] Memory required for data: 977814816
I0403 16:20:10.846642 17882 layer_factory.hpp:77] Creating layer inception_4b/pool_proj
I0403 16:20:10.846669 17882 net.cpp:91] Creating Layer inception_4b/pool_proj
I0403 16:20:10.846693 17882 net.cpp:425] inception_4b/pool_proj <- inception_4b/pool
I0403 16:20:10.846719 17882 net.cpp:399] inception_4b/pool_proj -> inception_4b/pool_proj
I0403 16:20:10.848192 17882 net.cpp:141] Setting up inception_4b/pool_proj
I0403 16:20:10.848227 17882 net.cpp:148] Top shape: 24 64 14 14 (301056)
I0403 16:20:10.848245 17882 net.cpp:156] Memory required for data: 979019040
I0403 16:20:10.848269 17882 layer_factory.hpp:77] Creating layer inception_4b/relu_pool_proj
I0403 16:20:10.848296 17882 net.cpp:91] Creating Layer inception_4b/relu_pool_proj
I0403 16:20:10.848318 17882 net.cpp:425] inception_4b/relu_pool_proj <- inception_4b/pool_proj
I0403 16:20:10.848340 17882 net.cpp:386] inception_4b/relu_pool_proj -> inception_4b/pool_proj (in-place)
I0403 16:20:10.848567 17882 net.cpp:141] Setting up inception_4b/relu_pool_proj
I0403 16:20:10.848606 17882 net.cpp:148] Top shape: 24 64 14 14 (301056)
I0403 16:20:10.848626 17882 net.cpp:156] Memory required for data: 980223264
I0403 16:20:10.848645 17882 layer_factory.hpp:77] Creating layer inception_4b/output
I0403 16:20:10.848667 17882 net.cpp:91] Creating Layer inception_4b/output
I0403 16:20:10.848687 17882 net.cpp:425] inception_4b/output <- inception_4b/1x1
I0403 16:20:10.848709 17882 net.cpp:425] inception_4b/output <- inception_4b/3x3
I0403 16:20:10.848728 17882 net.cpp:425] inception_4b/output <- inception_4b/5x5
I0403 16:20:10.848747 17882 net.cpp:425] inception_4b/output <- inception_4b/pool_proj
I0403 16:20:10.848770 17882 net.cpp:399] inception_4b/output -> inception_4b/output
I0403 16:20:10.848826 17882 net.cpp:141] Setting up inception_4b/output
I0403 16:20:10.848856 17882 net.cpp:148] Top shape: 24 512 14 14 (2408448)
I0403 16:20:10.848875 17882 net.cpp:156] Memory required for data: 989857056
I0403 16:20:10.848911 17882 layer_factory.hpp:77] Creating layer inception_4b/output_inception_4b/output_0_split
I0403 16:20:10.848937 17882 net.cpp:91] Creating Layer inception_4b/output_inception_4b/output_0_split
I0403 16:20:10.848958 17882 net.cpp:425] inception_4b/output_inception_4b/output_0_split <- inception_4b/output
I0403 16:20:10.848979 17882 net.cpp:399] inception_4b/output_inception_4b/output_0_split -> inception_4b/output_inception_4b/output_0_split_0
I0403 16:20:10.849005 17882 net.cpp:399] inception_4b/output_inception_4b/output_0_split -> inception_4b/output_inception_4b/output_0_split_1
I0403 16:20:10.849030 17882 net.cpp:399] inception_4b/output_inception_4b/output_0_split -> inception_4b/output_inception_4b/output_0_split_2
I0403 16:20:10.849059 17882 net.cpp:399] inception_4b/output_inception_4b/output_0_split -> inception_4b/output_inception_4b/output_0_split_3
I0403 16:20:10.849162 17882 net.cpp:141] Setting up inception_4b/output_inception_4b/output_0_split
I0403 16:20:10.849191 17882 net.cpp:148] Top shape: 24 512 14 14 (2408448)
I0403 16:20:10.849212 17882 net.cpp:148] Top shape: 24 512 14 14 (2408448)
I0403 16:20:10.849231 17882 net.cpp:148] Top shape: 24 512 14 14 (2408448)
I0403 16:20:10.849251 17882 net.cpp:148] Top shape: 24 512 14 14 (2408448)
I0403 16:20:10.849268 17882 net.cpp:156] Memory required for data: 1028392224
I0403 16:20:10.849285 17882 layer_factory.hpp:77] Creating layer inception_4c/1x1
I0403 16:20:10.849313 17882 net.cpp:91] Creating Layer inception_4c/1x1
I0403 16:20:10.849334 17882 net.cpp:425] inception_4c/1x1 <- inception_4b/output_inception_4b/output_0_split_0
I0403 16:20:10.849360 17882 net.cpp:399] inception_4c/1x1 -> inception_4c/1x1
I0403 16:20:10.851114 17882 net.cpp:141] Setting up inception_4c/1x1
I0403 16:20:10.851152 17882 net.cpp:148] Top shape: 24 128 14 14 (602112)
I0403 16:20:10.851173 17882 net.cpp:156] Memory required for data: 1030800672
I0403 16:20:10.851197 17882 layer_factory.hpp:77] Creating layer inception_4c/relu_1x1
I0403 16:20:10.851219 17882 net.cpp:91] Creating Layer inception_4c/relu_1x1
I0403 16:20:10.851239 17882 net.cpp:425] inception_4c/relu_1x1 <- inception_4c/1x1
I0403 16:20:10.851263 17882 net.cpp:386] inception_4c/relu_1x1 -> inception_4c/1x1 (in-place)
I0403 16:20:10.851492 17882 net.cpp:141] Setting up inception_4c/relu_1x1
I0403 16:20:10.851523 17882 net.cpp:148] Top shape: 24 128 14 14 (602112)
I0403 16:20:10.851543 17882 net.cpp:156] Memory required for data: 1033209120
I0403 16:20:10.851562 17882 layer_factory.hpp:77] Creating layer inception_4c/3x3_reduce
I0403 16:20:10.851596 17882 net.cpp:91] Creating Layer inception_4c/3x3_reduce
I0403 16:20:10.851620 17882 net.cpp:425] inception_4c/3x3_reduce <- inception_4b/output_inception_4b/output_0_split_1
I0403 16:20:10.851647 17882 net.cpp:399] inception_4c/3x3_reduce -> inception_4c/3x3_reduce
I0403 16:20:10.853984 17882 net.cpp:141] Setting up inception_4c/3x3_reduce
I0403 16:20:10.854020 17882 net.cpp:148] Top shape: 24 128 14 14 (602112)
I0403 16:20:10.854039 17882 net.cpp:156] Memory required for data: 1035617568
I0403 16:20:10.854063 17882 layer_factory.hpp:77] Creating layer inception_4c/relu_3x3_reduce
I0403 16:20:10.854089 17882 net.cpp:91] Creating Layer inception_4c/relu_3x3_reduce
I0403 16:20:10.854110 17882 net.cpp:425] inception_4c/relu_3x3_reduce <- inception_4c/3x3_reduce
I0403 16:20:10.854133 17882 net.cpp:386] inception_4c/relu_3x3_reduce -> inception_4c/3x3_reduce (in-place)
I0403 16:20:10.854478 17882 net.cpp:141] Setting up inception_4c/relu_3x3_reduce
I0403 16:20:10.854511 17882 net.cpp:148] Top shape: 24 128 14 14 (602112)
I0403 16:20:10.854531 17882 net.cpp:156] Memory required for data: 1038026016
I0403 16:20:10.854549 17882 layer_factory.hpp:77] Creating layer inception_4c/3x3
I0403 16:20:10.854583 17882 net.cpp:91] Creating Layer inception_4c/3x3
I0403 16:20:10.854607 17882 net.cpp:425] inception_4c/3x3 <- inception_4c/3x3_reduce
I0403 16:20:10.854635 17882 net.cpp:399] inception_4c/3x3 -> inception_4c/3x3
I0403 16:20:10.859037 17882 net.cpp:141] Setting up inception_4c/3x3
I0403 16:20:10.859088 17882 net.cpp:148] Top shape: 24 256 14 14 (1204224)
I0403 16:20:10.859108 17882 net.cpp:156] Memory required for data: 1042842912
I0403 16:20:10.859148 17882 layer_factory.hpp:77] Creating layer inception_4c/relu_3x3
I0403 16:20:10.859176 17882 net.cpp:91] Creating Layer inception_4c/relu_3x3
I0403 16:20:10.859199 17882 net.cpp:425] inception_4c/relu_3x3 <- inception_4c/3x3
I0403 16:20:10.859220 17882 net.cpp:386] inception_4c/relu_3x3 -> inception_4c/3x3 (in-place)
I0403 16:20:10.859447 17882 net.cpp:141] Setting up inception_4c/relu_3x3
I0403 16:20:10.859477 17882 net.cpp:148] Top shape: 24 256 14 14 (1204224)
I0403 16:20:10.859496 17882 net.cpp:156] Memory required for data: 1047659808
I0403 16:20:10.859514 17882 layer_factory.hpp:77] Creating layer inception_4c/5x5_reduce
I0403 16:20:10.859542 17882 net.cpp:91] Creating Layer inception_4c/5x5_reduce
I0403 16:20:10.859567 17882 net.cpp:425] inception_4c/5x5_reduce <- inception_4b/output_inception_4b/output_0_split_2
I0403 16:20:10.859599 17882 net.cpp:399] inception_4c/5x5_reduce -> inception_4c/5x5_reduce
I0403 16:20:10.860930 17882 net.cpp:141] Setting up inception_4c/5x5_reduce
I0403 16:20:10.860965 17882 net.cpp:148] Top shape: 24 24 14 14 (112896)
I0403 16:20:10.860985 17882 net.cpp:156] Memory required for data: 1048111392
I0403 16:20:10.861008 17882 layer_factory.hpp:77] Creating layer inception_4c/relu_5x5_reduce
I0403 16:20:10.861033 17882 net.cpp:91] Creating Layer inception_4c/relu_5x5_reduce
I0403 16:20:10.861055 17882 net.cpp:425] inception_4c/relu_5x5_reduce <- inception_4c/5x5_reduce
I0403 16:20:10.861078 17882 net.cpp:386] inception_4c/relu_5x5_reduce -> inception_4c/5x5_reduce (in-place)
I0403 16:20:10.861305 17882 net.cpp:141] Setting up inception_4c/relu_5x5_reduce
I0403 16:20:10.861340 17882 net.cpp:148] Top shape: 24 24 14 14 (112896)
I0403 16:20:10.861361 17882 net.cpp:156] Memory required for data: 1048562976
I0403 16:20:10.861378 17882 layer_factory.hpp:77] Creating layer inception_4c/5x5
I0403 16:20:10.861405 17882 net.cpp:91] Creating Layer inception_4c/5x5
I0403 16:20:10.861428 17882 net.cpp:425] inception_4c/5x5 <- inception_4c/5x5_reduce
I0403 16:20:10.861450 17882 net.cpp:399] inception_4c/5x5 -> inception_4c/5x5
I0403 16:20:10.862972 17882 net.cpp:141] Setting up inception_4c/5x5
I0403 16:20:10.863009 17882 net.cpp:148] Top shape: 24 64 14 14 (301056)
I0403 16:20:10.863031 17882 net.cpp:156] Memory required for data: 1049767200
I0403 16:20:10.863054 17882 layer_factory.hpp:77] Creating layer inception_4c/relu_5x5
I0403 16:20:10.863076 17882 net.cpp:91] Creating Layer inception_4c/relu_5x5
I0403 16:20:10.863096 17882 net.cpp:425] inception_4c/relu_5x5 <- inception_4c/5x5
I0403 16:20:10.863121 17882 net.cpp:386] inception_4c/relu_5x5 -> inception_4c/5x5 (in-place)
I0403 16:20:10.863471 17882 net.cpp:141] Setting up inception_4c/relu_5x5
I0403 16:20:10.863505 17882 net.cpp:148] Top shape: 24 64 14 14 (301056)
I0403 16:20:10.863528 17882 net.cpp:156] Memory required for data: 1050971424
I0403 16:20:10.863546 17882 layer_factory.hpp:77] Creating layer inception_4c/pool
I0403 16:20:10.863569 17882 net.cpp:91] Creating Layer inception_4c/pool
I0403 16:20:10.863595 17882 net.cpp:425] inception_4c/pool <- inception_4b/output_inception_4b/output_0_split_3
I0403 16:20:10.863622 17882 net.cpp:399] inception_4c/pool -> inception_4c/pool
I0403 16:20:10.863703 17882 net.cpp:141] Setting up inception_4c/pool
I0403 16:20:10.863734 17882 net.cpp:148] Top shape: 24 512 14 14 (2408448)
I0403 16:20:10.863751 17882 net.cpp:156] Memory required for data: 1060605216
I0403 16:20:10.863768 17882 layer_factory.hpp:77] Creating layer inception_4c/pool_proj
I0403 16:20:10.863796 17882 net.cpp:91] Creating Layer inception_4c/pool_proj
I0403 16:20:10.863817 17882 net.cpp:425] inception_4c/pool_proj <- inception_4c/pool
I0403 16:20:10.863843 17882 net.cpp:399] inception_4c/pool_proj -> inception_4c/pool_proj
I0403 16:20:10.865345 17882 net.cpp:141] Setting up inception_4c/pool_proj
I0403 16:20:10.865380 17882 net.cpp:148] Top shape: 24 64 14 14 (301056)
I0403 16:20:10.865416 17882 net.cpp:156] Memory required for data: 1061809440
I0403 16:20:10.865440 17882 layer_factory.hpp:77] Creating layer inception_4c/relu_pool_proj
I0403 16:20:10.865468 17882 net.cpp:91] Creating Layer inception_4c/relu_pool_proj
I0403 16:20:10.865490 17882 net.cpp:425] inception_4c/relu_pool_proj <- inception_4c/pool_proj
I0403 16:20:10.865512 17882 net.cpp:386] inception_4c/relu_pool_proj -> inception_4c/pool_proj (in-place)
I0403 16:20:10.865758 17882 net.cpp:141] Setting up inception_4c/relu_pool_proj
I0403 16:20:10.865793 17882 net.cpp:148] Top shape: 24 64 14 14 (301056)
I0403 16:20:10.865813 17882 net.cpp:156] Memory required for data: 1063013664
I0403 16:20:10.865830 17882 layer_factory.hpp:77] Creating layer inception_4c/output
I0403 16:20:10.865852 17882 net.cpp:91] Creating Layer inception_4c/output
I0403 16:20:10.865871 17882 net.cpp:425] inception_4c/output <- inception_4c/1x1
I0403 16:20:10.865892 17882 net.cpp:425] inception_4c/output <- inception_4c/3x3
I0403 16:20:10.865912 17882 net.cpp:425] inception_4c/output <- inception_4c/5x5
I0403 16:20:10.865932 17882 net.cpp:425] inception_4c/output <- inception_4c/pool_proj
I0403 16:20:10.865952 17882 net.cpp:399] inception_4c/output -> inception_4c/output
I0403 16:20:10.866013 17882 net.cpp:141] Setting up inception_4c/output
I0403 16:20:10.866041 17882 net.cpp:148] Top shape: 24 512 14 14 (2408448)
I0403 16:20:10.866058 17882 net.cpp:156] Memory required for data: 1072647456
I0403 16:20:10.866076 17882 layer_factory.hpp:77] Creating layer inception_4c/output_inception_4c/output_0_split
I0403 16:20:10.866099 17882 net.cpp:91] Creating Layer inception_4c/output_inception_4c/output_0_split
I0403 16:20:10.866118 17882 net.cpp:425] inception_4c/output_inception_4c/output_0_split <- inception_4c/output
I0403 16:20:10.866143 17882 net.cpp:399] inception_4c/output_inception_4c/output_0_split -> inception_4c/output_inception_4c/output_0_split_0
I0403 16:20:10.866168 17882 net.cpp:399] inception_4c/output_inception_4c/output_0_split -> inception_4c/output_inception_4c/output_0_split_1
I0403 16:20:10.866194 17882 net.cpp:399] inception_4c/output_inception_4c/output_0_split -> inception_4c/output_inception_4c/output_0_split_2
I0403 16:20:10.866220 17882 net.cpp:399] inception_4c/output_inception_4c/output_0_split -> inception_4c/output_inception_4c/output_0_split_3
I0403 16:20:10.866327 17882 net.cpp:141] Setting up inception_4c/output_inception_4c/output_0_split
I0403 16:20:10.866356 17882 net.cpp:148] Top shape: 24 512 14 14 (2408448)
I0403 16:20:10.866377 17882 net.cpp:148] Top shape: 24 512 14 14 (2408448)
I0403 16:20:10.866399 17882 net.cpp:148] Top shape: 24 512 14 14 (2408448)
I0403 16:20:10.866417 17882 net.cpp:148] Top shape: 24 512 14 14 (2408448)
I0403 16:20:10.866435 17882 net.cpp:156] Memory required for data: 1111182624
I0403 16:20:10.866452 17882 layer_factory.hpp:77] Creating layer inception_4d/1x1
I0403 16:20:10.866479 17882 net.cpp:91] Creating Layer inception_4d/1x1
I0403 16:20:10.866502 17882 net.cpp:425] inception_4d/1x1 <- inception_4c/output_inception_4c/output_0_split_0
I0403 16:20:10.866528 17882 net.cpp:399] inception_4d/1x1 -> inception_4d/1x1
I0403 16:20:10.868221 17882 net.cpp:141] Setting up inception_4d/1x1
I0403 16:20:10.868255 17882 net.cpp:148] Top shape: 24 112 14 14 (526848)
I0403 16:20:10.868274 17882 net.cpp:156] Memory required for data: 1113290016
I0403 16:20:10.868297 17882 layer_factory.hpp:77] Creating layer inception_4d/relu_1x1
I0403 16:20:10.868319 17882 net.cpp:91] Creating Layer inception_4d/relu_1x1
I0403 16:20:10.868345 17882 net.cpp:425] inception_4d/relu_1x1 <- inception_4d/1x1
I0403 16:20:10.868366 17882 net.cpp:386] inception_4d/relu_1x1 -> inception_4d/1x1 (in-place)
I0403 16:20:10.868600 17882 net.cpp:141] Setting up inception_4d/relu_1x1
I0403 16:20:10.868633 17882 net.cpp:148] Top shape: 24 112 14 14 (526848)
I0403 16:20:10.868651 17882 net.cpp:156] Memory required for data: 1115397408
I0403 16:20:10.868669 17882 layer_factory.hpp:77] Creating layer inception_4d/3x3_reduce
I0403 16:20:10.868712 17882 net.cpp:91] Creating Layer inception_4d/3x3_reduce
I0403 16:20:10.868737 17882 net.cpp:425] inception_4d/3x3_reduce <- inception_4c/output_inception_4c/output_0_split_1
I0403 16:20:10.868764 17882 net.cpp:399] inception_4d/3x3_reduce -> inception_4d/3x3_reduce
I0403 16:20:10.870609 17882 net.cpp:141] Setting up inception_4d/3x3_reduce
I0403 16:20:10.870645 17882 net.cpp:148] Top shape: 24 144 14 14 (677376)
I0403 16:20:10.870666 17882 net.cpp:156] Memory required for data: 1118106912
I0403 16:20:10.870688 17882 layer_factory.hpp:77] Creating layer inception_4d/relu_3x3_reduce
I0403 16:20:10.870712 17882 net.cpp:91] Creating Layer inception_4d/relu_3x3_reduce
I0403 16:20:10.870731 17882 net.cpp:425] inception_4d/relu_3x3_reduce <- inception_4d/3x3_reduce
I0403 16:20:10.870755 17882 net.cpp:386] inception_4d/relu_3x3_reduce -> inception_4d/3x3_reduce (in-place)
I0403 16:20:10.871115 17882 net.cpp:141] Setting up inception_4d/relu_3x3_reduce
I0403 16:20:10.871151 17882 net.cpp:148] Top shape: 24 144 14 14 (677376)
I0403 16:20:10.871171 17882 net.cpp:156] Memory required for data: 1120816416
I0403 16:20:10.871191 17882 layer_factory.hpp:77] Creating layer inception_4d/3x3
I0403 16:20:10.871217 17882 net.cpp:91] Creating Layer inception_4d/3x3
I0403 16:20:10.871238 17882 net.cpp:425] inception_4d/3x3 <- inception_4d/3x3_reduce
I0403 16:20:10.871263 17882 net.cpp:399] inception_4d/3x3 -> inception_4d/3x3
I0403 16:20:10.876539 17882 net.cpp:141] Setting up inception_4d/3x3
I0403 16:20:10.876580 17882 net.cpp:148] Top shape: 24 288 14 14 (1354752)
I0403 16:20:10.876602 17882 net.cpp:156] Memory required for data: 1126235424
I0403 16:20:10.876626 17882 layer_factory.hpp:77] Creating layer inception_4d/relu_3x3
I0403 16:20:10.876648 17882 net.cpp:91] Creating Layer inception_4d/relu_3x3
I0403 16:20:10.876668 17882 net.cpp:425] inception_4d/relu_3x3 <- inception_4d/3x3
I0403 16:20:10.876693 17882 net.cpp:386] inception_4d/relu_3x3 -> inception_4d/3x3 (in-place)
I0403 16:20:10.876922 17882 net.cpp:141] Setting up inception_4d/relu_3x3
I0403 16:20:10.876953 17882 net.cpp:148] Top shape: 24 288 14 14 (1354752)
I0403 16:20:10.876972 17882 net.cpp:156] Memory required for data: 1131654432
I0403 16:20:10.876991 17882 layer_factory.hpp:77] Creating layer inception_4d/5x5_reduce
I0403 16:20:10.877018 17882 net.cpp:91] Creating Layer inception_4d/5x5_reduce
I0403 16:20:10.877039 17882 net.cpp:425] inception_4d/5x5_reduce <- inception_4c/output_inception_4c/output_0_split_2
I0403 16:20:10.877066 17882 net.cpp:399] inception_4d/5x5_reduce -> inception_4d/5x5_reduce
I0403 16:20:10.878474 17882 net.cpp:141] Setting up inception_4d/5x5_reduce
I0403 16:20:10.878509 17882 net.cpp:148] Top shape: 24 32 14 14 (150528)
I0403 16:20:10.878530 17882 net.cpp:156] Memory required for data: 1132256544
I0403 16:20:10.878552 17882 layer_factory.hpp:77] Creating layer inception_4d/relu_5x5_reduce
I0403 16:20:10.878582 17882 net.cpp:91] Creating Layer inception_4d/relu_5x5_reduce
I0403 16:20:10.878607 17882 net.cpp:425] inception_4d/relu_5x5_reduce <- inception_4d/5x5_reduce
I0403 16:20:10.878630 17882 net.cpp:386] inception_4d/relu_5x5_reduce -> inception_4d/5x5_reduce (in-place)
I0403 16:20:10.878864 17882 net.cpp:141] Setting up inception_4d/relu_5x5_reduce
I0403 16:20:10.878893 17882 net.cpp:148] Top shape: 24 32 14 14 (150528)
I0403 16:20:10.878912 17882 net.cpp:156] Memory required for data: 1132858656
I0403 16:20:10.878931 17882 layer_factory.hpp:77] Creating layer inception_4d/5x5
I0403 16:20:10.878957 17882 net.cpp:91] Creating Layer inception_4d/5x5
I0403 16:20:10.878979 17882 net.cpp:425] inception_4d/5x5 <- inception_4d/5x5_reduce
I0403 16:20:10.879005 17882 net.cpp:399] inception_4d/5x5 -> inception_4d/5x5
I0403 16:20:10.880800 17882 net.cpp:141] Setting up inception_4d/5x5
I0403 16:20:10.880834 17882 net.cpp:148] Top shape: 24 64 14 14 (301056)
I0403 16:20:10.880856 17882 net.cpp:156] Memory required for data: 1134062880
I0403 16:20:10.880879 17882 layer_factory.hpp:77] Creating layer inception_4d/relu_5x5
I0403 16:20:10.880923 17882 net.cpp:91] Creating Layer inception_4d/relu_5x5
I0403 16:20:10.880946 17882 net.cpp:425] inception_4d/relu_5x5 <- inception_4d/5x5
I0403 16:20:10.880970 17882 net.cpp:386] inception_4d/relu_5x5 -> inception_4d/5x5 (in-place)
I0403 16:20:10.881335 17882 net.cpp:141] Setting up inception_4d/relu_5x5
I0403 16:20:10.881368 17882 net.cpp:148] Top shape: 24 64 14 14 (301056)
I0403 16:20:10.881386 17882 net.cpp:156] Memory required for data: 1135267104
I0403 16:20:10.881405 17882 layer_factory.hpp:77] Creating layer inception_4d/pool
I0403 16:20:10.881430 17882 net.cpp:91] Creating Layer inception_4d/pool
I0403 16:20:10.881451 17882 net.cpp:425] inception_4d/pool <- inception_4c/output_inception_4c/output_0_split_3
I0403 16:20:10.881475 17882 net.cpp:399] inception_4d/pool -> inception_4d/pool
I0403 16:20:10.881561 17882 net.cpp:141] Setting up inception_4d/pool
I0403 16:20:10.881597 17882 net.cpp:148] Top shape: 24 512 14 14 (2408448)
I0403 16:20:10.881616 17882 net.cpp:156] Memory required for data: 1144900896
I0403 16:20:10.881634 17882 layer_factory.hpp:77] Creating layer inception_4d/pool_proj
I0403 16:20:10.881662 17882 net.cpp:91] Creating Layer inception_4d/pool_proj
I0403 16:20:10.881685 17882 net.cpp:425] inception_4d/pool_proj <- inception_4d/pool
I0403 16:20:10.881711 17882 net.cpp:399] inception_4d/pool_proj -> inception_4d/pool_proj
I0403 16:20:10.883847 17882 net.cpp:141] Setting up inception_4d/pool_proj
I0403 16:20:10.883883 17882 net.cpp:148] Top shape: 24 64 14 14 (301056)
I0403 16:20:10.883903 17882 net.cpp:156] Memory required for data: 1146105120
I0403 16:20:10.883926 17882 layer_factory.hpp:77] Creating layer inception_4d/relu_pool_proj
I0403 16:20:10.883949 17882 net.cpp:91] Creating Layer inception_4d/relu_pool_proj
I0403 16:20:10.883970 17882 net.cpp:425] inception_4d/relu_pool_proj <- inception_4d/pool_proj
I0403 16:20:10.883992 17882 net.cpp:386] inception_4d/relu_pool_proj -> inception_4d/pool_proj (in-place)
I0403 16:20:10.884227 17882 net.cpp:141] Setting up inception_4d/relu_pool_proj
I0403 16:20:10.884258 17882 net.cpp:148] Top shape: 24 64 14 14 (301056)
I0403 16:20:10.884277 17882 net.cpp:156] Memory required for data: 1147309344
I0403 16:20:10.884296 17882 layer_factory.hpp:77] Creating layer inception_4d/output
I0403 16:20:10.884320 17882 net.cpp:91] Creating Layer inception_4d/output
I0403 16:20:10.884341 17882 net.cpp:425] inception_4d/output <- inception_4d/1x1
I0403 16:20:10.884361 17882 net.cpp:425] inception_4d/output <- inception_4d/3x3
I0403 16:20:10.884382 17882 net.cpp:425] inception_4d/output <- inception_4d/5x5
I0403 16:20:10.884402 17882 net.cpp:425] inception_4d/output <- inception_4d/pool_proj
I0403 16:20:10.884423 17882 net.cpp:399] inception_4d/output -> inception_4d/output
I0403 16:20:10.884482 17882 net.cpp:141] Setting up inception_4d/output
I0403 16:20:10.884511 17882 net.cpp:148] Top shape: 24 528 14 14 (2483712)
I0403 16:20:10.884531 17882 net.cpp:156] Memory required for data: 1157244192
I0403 16:20:10.884548 17882 layer_factory.hpp:77] Creating layer inception_4d/output_inception_4d/output_0_split
I0403 16:20:10.884583 17882 net.cpp:91] Creating Layer inception_4d/output_inception_4d/output_0_split
I0403 16:20:10.884608 17882 net.cpp:425] inception_4d/output_inception_4d/output_0_split <- inception_4d/output
I0403 16:20:10.884634 17882 net.cpp:399] inception_4d/output_inception_4d/output_0_split -> inception_4d/output_inception_4d/output_0_split_0
I0403 16:20:10.884661 17882 net.cpp:399] inception_4d/output_inception_4d/output_0_split -> inception_4d/output_inception_4d/output_0_split_1
I0403 16:20:10.884687 17882 net.cpp:399] inception_4d/output_inception_4d/output_0_split -> inception_4d/output_inception_4d/output_0_split_2
I0403 16:20:10.884713 17882 net.cpp:399] inception_4d/output_inception_4d/output_0_split -> inception_4d/output_inception_4d/output_0_split_3
I0403 16:20:10.884737 17882 net.cpp:399] inception_4d/output_inception_4d/output_0_split -> inception_4d/output_inception_4d/output_0_split_4
I0403 16:20:10.884865 17882 net.cpp:141] Setting up inception_4d/output_inception_4d/output_0_split
I0403 16:20:10.884910 17882 net.cpp:148] Top shape: 24 528 14 14 (2483712)
I0403 16:20:10.884932 17882 net.cpp:148] Top shape: 24 528 14 14 (2483712)
I0403 16:20:10.884951 17882 net.cpp:148] Top shape: 24 528 14 14 (2483712)
I0403 16:20:10.884971 17882 net.cpp:148] Top shape: 24 528 14 14 (2483712)
I0403 16:20:10.884990 17882 net.cpp:148] Top shape: 24 528 14 14 (2483712)
I0403 16:20:10.885007 17882 net.cpp:156] Memory required for data: 1206918432
I0403 16:20:10.885025 17882 layer_factory.hpp:77] Creating layer loss2/ave_pool
I0403 16:20:10.885047 17882 net.cpp:91] Creating Layer loss2/ave_pool
I0403 16:20:10.885066 17882 net.cpp:425] loss2/ave_pool <- inception_4d/output_inception_4d/output_0_split_0
I0403 16:20:10.885090 17882 net.cpp:399] loss2/ave_pool -> loss2/ave_pool
I0403 16:20:10.885474 17882 net.cpp:141] Setting up loss2/ave_pool
I0403 16:20:10.885507 17882 net.cpp:148] Top shape: 24 528 4 4 (202752)
I0403 16:20:10.885527 17882 net.cpp:156] Memory required for data: 1207729440
I0403 16:20:10.885547 17882 layer_factory.hpp:77] Creating layer loss2/conv
I0403 16:20:10.885581 17882 net.cpp:91] Creating Layer loss2/conv
I0403 16:20:10.885606 17882 net.cpp:425] loss2/conv <- loss2/ave_pool
I0403 16:20:10.885632 17882 net.cpp:399] loss2/conv -> loss2/conv
I0403 16:20:10.887941 17882 net.cpp:141] Setting up loss2/conv
I0403 16:20:10.887984 17882 net.cpp:148] Top shape: 24 128 4 4 (49152)
I0403 16:20:10.888005 17882 net.cpp:156] Memory required for data: 1207926048
I0403 16:20:10.888030 17882 layer_factory.hpp:77] Creating layer loss2/relu_conv
I0403 16:20:10.888051 17882 net.cpp:91] Creating Layer loss2/relu_conv
I0403 16:20:10.888072 17882 net.cpp:425] loss2/relu_conv <- loss2/conv
I0403 16:20:10.888093 17882 net.cpp:386] loss2/relu_conv -> loss2/conv (in-place)
I0403 16:20:10.888443 17882 net.cpp:141] Setting up loss2/relu_conv
I0403 16:20:10.888478 17882 net.cpp:148] Top shape: 24 128 4 4 (49152)
I0403 16:20:10.888499 17882 net.cpp:156] Memory required for data: 1208122656
I0403 16:20:10.888516 17882 layer_factory.hpp:77] Creating layer loss2/fc
I0403 16:20:10.888540 17882 net.cpp:91] Creating Layer loss2/fc
I0403 16:20:10.888561 17882 net.cpp:425] loss2/fc <- loss2/conv
I0403 16:20:10.888595 17882 net.cpp:399] loss2/fc -> loss2/fc
I0403 16:20:10.910423 17882 net.cpp:141] Setting up loss2/fc
I0403 16:20:10.910462 17882 net.cpp:148] Top shape: 24 1024 (24576)
I0403 16:20:10.910482 17882 net.cpp:156] Memory required for data: 1208220960
I0403 16:20:10.910513 17882 layer_factory.hpp:77] Creating layer loss2/relu_fc
I0403 16:20:10.910539 17882 net.cpp:91] Creating Layer loss2/relu_fc
I0403 16:20:10.910560 17882 net.cpp:425] loss2/relu_fc <- loss2/fc
I0403 16:20:10.910589 17882 net.cpp:386] loss2/relu_fc -> loss2/fc (in-place)
I0403 16:20:10.910960 17882 net.cpp:141] Setting up loss2/relu_fc
I0403 16:20:10.910995 17882 net.cpp:148] Top shape: 24 1024 (24576)
I0403 16:20:10.911013 17882 net.cpp:156] Memory required for data: 1208319264
I0403 16:20:10.911032 17882 layer_factory.hpp:77] Creating layer loss2/drop_fc
I0403 16:20:10.911057 17882 net.cpp:91] Creating Layer loss2/drop_fc
I0403 16:20:10.911079 17882 net.cpp:425] loss2/drop_fc <- loss2/fc
I0403 16:20:10.911101 17882 net.cpp:386] loss2/drop_fc -> loss2/fc (in-place)
I0403 16:20:10.911161 17882 net.cpp:141] Setting up loss2/drop_fc
I0403 16:20:10.911193 17882 net.cpp:148] Top shape: 24 1024 (24576)
I0403 16:20:10.911211 17882 net.cpp:156] Memory required for data: 1208417568
I0403 16:20:10.911231 17882 layer_factory.hpp:77] Creating layer loss2/classifier_plantvillage
I0403 16:20:10.911253 17882 net.cpp:91] Creating Layer loss2/classifier_plantvillage
I0403 16:20:10.911275 17882 net.cpp:425] loss2/classifier_plantvillage <- loss2/fc
I0403 16:20:10.911301 17882 net.cpp:399] loss2/classifier_plantvillage -> loss2/classifier_plantvillage
I0403 16:20:10.911808 17882 net.cpp:141] Setting up loss2/classifier_plantvillage
I0403 16:20:10.911839 17882 net.cpp:148] Top shape: 24 38 (912)
I0403 16:20:10.911857 17882 net.cpp:156] Memory required for data: 1208421216
I0403 16:20:10.911903 17882 layer_factory.hpp:77] Creating layer loss2/classifier_plantvillage_loss2/classifier_plantvillage_0_split
I0403 16:20:10.911927 17882 net.cpp:91] Creating Layer loss2/classifier_plantvillage_loss2/classifier_plantvillage_0_split
I0403 16:20:10.911948 17882 net.cpp:425] loss2/classifier_plantvillage_loss2/classifier_plantvillage_0_split <- loss2/classifier_plantvillage
I0403 16:20:10.911969 17882 net.cpp:399] loss2/classifier_plantvillage_loss2/classifier_plantvillage_0_split -> loss2/classifier_plantvillage_loss2/classifier_plantvillage_0_split_0
I0403 16:20:10.911998 17882 net.cpp:399] loss2/classifier_plantvillage_loss2/classifier_plantvillage_0_split -> loss2/classifier_plantvillage_loss2/classifier_plantvillage_0_split_1
I0403 16:20:10.912024 17882 net.cpp:399] loss2/classifier_plantvillage_loss2/classifier_plantvillage_0_split -> loss2/classifier_plantvillage_loss2/classifier_plantvillage_0_split_2
I0403 16:20:10.912119 17882 net.cpp:141] Setting up loss2/classifier_plantvillage_loss2/classifier_plantvillage_0_split
I0403 16:20:10.912148 17882 net.cpp:148] Top shape: 24 38 (912)
I0403 16:20:10.912169 17882 net.cpp:148] Top shape: 24 38 (912)
I0403 16:20:10.912189 17882 net.cpp:148] Top shape: 24 38 (912)
I0403 16:20:10.912204 17882 net.cpp:156] Memory required for data: 1208432160
I0403 16:20:10.912223 17882 layer_factory.hpp:77] Creating layer inception_4e/1x1
I0403 16:20:10.912250 17882 net.cpp:91] Creating Layer inception_4e/1x1
I0403 16:20:10.912273 17882 net.cpp:425] inception_4e/1x1 <- inception_4d/output_inception_4d/output_0_split_1
I0403 16:20:10.912300 17882 net.cpp:399] inception_4e/1x1 -> inception_4e/1x1
I0403 16:20:10.914542 17882 net.cpp:141] Setting up inception_4e/1x1
I0403 16:20:10.914594 17882 net.cpp:148] Top shape: 24 256 14 14 (1204224)
I0403 16:20:10.914618 17882 net.cpp:156] Memory required for data: 1213249056
I0403 16:20:10.914640 17882 layer_factory.hpp:77] Creating layer inception_4e/relu_1x1
I0403 16:20:10.914664 17882 net.cpp:91] Creating Layer inception_4e/relu_1x1
I0403 16:20:10.914682 17882 net.cpp:425] inception_4e/relu_1x1 <- inception_4e/1x1
I0403 16:20:10.914706 17882 net.cpp:386] inception_4e/relu_1x1 -> inception_4e/1x1 (in-place)
I0403 16:20:10.915066 17882 net.cpp:141] Setting up inception_4e/relu_1x1
I0403 16:20:10.915102 17882 net.cpp:148] Top shape: 24 256 14 14 (1204224)
I0403 16:20:10.915120 17882 net.cpp:156] Memory required for data: 1218065952
I0403 16:20:10.915139 17882 layer_factory.hpp:77] Creating layer inception_4e/3x3_reduce
I0403 16:20:10.915168 17882 net.cpp:91] Creating Layer inception_4e/3x3_reduce
I0403 16:20:10.915189 17882 net.cpp:425] inception_4e/3x3_reduce <- inception_4d/output_inception_4d/output_0_split_2
I0403 16:20:10.915212 17882 net.cpp:399] inception_4e/3x3_reduce -> inception_4e/3x3_reduce
I0403 16:20:10.917805 17882 net.cpp:141] Setting up inception_4e/3x3_reduce
I0403 16:20:10.917841 17882 net.cpp:148] Top shape: 24 160 14 14 (752640)
I0403 16:20:10.917861 17882 net.cpp:156] Memory required for data: 1221076512
I0403 16:20:10.917886 17882 layer_factory.hpp:77] Creating layer inception_4e/relu_3x3_reduce
I0403 16:20:10.917912 17882 net.cpp:91] Creating Layer inception_4e/relu_3x3_reduce
I0403 16:20:10.917932 17882 net.cpp:425] inception_4e/relu_3x3_reduce <- inception_4e/3x3_reduce
I0403 16:20:10.917953 17882 net.cpp:386] inception_4e/relu_3x3_reduce -> inception_4e/3x3_reduce (in-place)
I0403 16:20:10.918189 17882 net.cpp:141] Setting up inception_4e/relu_3x3_reduce
I0403 16:20:10.918222 17882 net.cpp:148] Top shape: 24 160 14 14 (752640)
I0403 16:20:10.918241 17882 net.cpp:156] Memory required for data: 1224087072
I0403 16:20:10.918262 17882 layer_factory.hpp:77] Creating layer inception_4e/3x3
I0403 16:20:10.918288 17882 net.cpp:91] Creating Layer inception_4e/3x3
I0403 16:20:10.918309 17882 net.cpp:425] inception_4e/3x3 <- inception_4e/3x3_reduce
I0403 16:20:10.918334 17882 net.cpp:399] inception_4e/3x3 -> inception_4e/3x3
I0403 16:20:10.924516 17882 net.cpp:141] Setting up inception_4e/3x3
I0403 16:20:10.924583 17882 net.cpp:148] Top shape: 24 320 14 14 (1505280)
I0403 16:20:10.924609 17882 net.cpp:156] Memory required for data: 1230108192
I0403 16:20:10.924634 17882 layer_factory.hpp:77] Creating layer inception_4e/relu_3x3
I0403 16:20:10.924656 17882 net.cpp:91] Creating Layer inception_4e/relu_3x3
I0403 16:20:10.924676 17882 net.cpp:425] inception_4e/relu_3x3 <- inception_4e/3x3
I0403 16:20:10.924700 17882 net.cpp:386] inception_4e/relu_3x3 -> inception_4e/3x3 (in-place)
I0403 16:20:10.925072 17882 net.cpp:141] Setting up inception_4e/relu_3x3
I0403 16:20:10.925107 17882 net.cpp:148] Top shape: 24 320 14 14 (1505280)
I0403 16:20:10.925125 17882 net.cpp:156] Memory required for data: 1236129312
I0403 16:20:10.925144 17882 layer_factory.hpp:77] Creating layer inception_4e/5x5_reduce
I0403 16:20:10.925173 17882 net.cpp:91] Creating Layer inception_4e/5x5_reduce
I0403 16:20:10.925195 17882 net.cpp:425] inception_4e/5x5_reduce <- inception_4d/output_inception_4d/output_0_split_3
I0403 16:20:10.925221 17882 net.cpp:399] inception_4e/5x5_reduce -> inception_4e/5x5_reduce
I0403 16:20:10.926555 17882 net.cpp:141] Setting up inception_4e/5x5_reduce
I0403 16:20:10.926596 17882 net.cpp:148] Top shape: 24 32 14 14 (150528)
I0403 16:20:10.926617 17882 net.cpp:156] Memory required for data: 1236731424
I0403 16:20:10.926641 17882 layer_factory.hpp:77] Creating layer inception_4e/relu_5x5_reduce
I0403 16:20:10.926666 17882 net.cpp:91] Creating Layer inception_4e/relu_5x5_reduce
I0403 16:20:10.926688 17882 net.cpp:425] inception_4e/relu_5x5_reduce <- inception_4e/5x5_reduce
I0403 16:20:10.926710 17882 net.cpp:386] inception_4e/relu_5x5_reduce -> inception_4e/5x5_reduce (in-place)
I0403 16:20:10.927073 17882 net.cpp:141] Setting up inception_4e/relu_5x5_reduce
I0403 16:20:10.927104 17882 net.cpp:148] Top shape: 24 32 14 14 (150528)
I0403 16:20:10.927124 17882 net.cpp:156] Memory required for data: 1237333536
I0403 16:20:10.927141 17882 layer_factory.hpp:77] Creating layer inception_4e/5x5
I0403 16:20:10.927188 17882 net.cpp:91] Creating Layer inception_4e/5x5
I0403 16:20:10.927212 17882 net.cpp:425] inception_4e/5x5 <- inception_4e/5x5_reduce
I0403 16:20:10.927237 17882 net.cpp:399] inception_4e/5x5 -> inception_4e/5x5
I0403 16:20:10.929497 17882 net.cpp:141] Setting up inception_4e/5x5
I0403 16:20:10.929530 17882 net.cpp:148] Top shape: 24 128 14 14 (602112)
I0403 16:20:10.929550 17882 net.cpp:156] Memory required for data: 1239741984
I0403 16:20:10.929580 17882 layer_factory.hpp:77] Creating layer inception_4e/relu_5x5
I0403 16:20:10.929607 17882 net.cpp:91] Creating Layer inception_4e/relu_5x5
I0403 16:20:10.929630 17882 net.cpp:425] inception_4e/relu_5x5 <- inception_4e/5x5
I0403 16:20:10.929651 17882 net.cpp:386] inception_4e/relu_5x5 -> inception_4e/5x5 (in-place)
I0403 16:20:10.929900 17882 net.cpp:141] Setting up inception_4e/relu_5x5
I0403 16:20:10.929934 17882 net.cpp:148] Top shape: 24 128 14 14 (602112)
I0403 16:20:10.929954 17882 net.cpp:156] Memory required for data: 1242150432
I0403 16:20:10.929972 17882 layer_factory.hpp:77] Creating layer inception_4e/pool
I0403 16:20:10.929994 17882 net.cpp:91] Creating Layer inception_4e/pool
I0403 16:20:10.930014 17882 net.cpp:425] inception_4e/pool <- inception_4d/output_inception_4d/output_0_split_4
I0403 16:20:10.930037 17882 net.cpp:399] inception_4e/pool -> inception_4e/pool
I0403 16:20:10.930122 17882 net.cpp:141] Setting up inception_4e/pool
I0403 16:20:10.930151 17882 net.cpp:148] Top shape: 24 528 14 14 (2483712)
I0403 16:20:10.930169 17882 net.cpp:156] Memory required for data: 1252085280
I0403 16:20:10.930188 17882 layer_factory.hpp:77] Creating layer inception_4e/pool_proj
I0403 16:20:10.930217 17882 net.cpp:91] Creating Layer inception_4e/pool_proj
I0403 16:20:10.930238 17882 net.cpp:425] inception_4e/pool_proj <- inception_4e/pool
I0403 16:20:10.930263 17882 net.cpp:399] inception_4e/pool_proj -> inception_4e/pool_proj
I0403 16:20:10.932123 17882 net.cpp:141] Setting up inception_4e/pool_proj
I0403 16:20:10.932158 17882 net.cpp:148] Top shape: 24 128 14 14 (602112)
I0403 16:20:10.932194 17882 net.cpp:156] Memory required for data: 1254493728
I0403 16:20:10.932221 17882 layer_factory.hpp:77] Creating layer inception_4e/relu_pool_proj
I0403 16:20:10.932247 17882 net.cpp:91] Creating Layer inception_4e/relu_pool_proj
I0403 16:20:10.932268 17882 net.cpp:425] inception_4e/relu_pool_proj <- inception_4e/pool_proj
I0403 16:20:10.932291 17882 net.cpp:386] inception_4e/relu_pool_proj -> inception_4e/pool_proj (in-place)
I0403 16:20:10.932662 17882 net.cpp:141] Setting up inception_4e/relu_pool_proj
I0403 16:20:10.932695 17882 net.cpp:148] Top shape: 24 128 14 14 (602112)
I0403 16:20:10.932714 17882 net.cpp:156] Memory required for data: 1256902176
I0403 16:20:10.932734 17882 layer_factory.hpp:77] Creating layer inception_4e/output
I0403 16:20:10.932756 17882 net.cpp:91] Creating Layer inception_4e/output
I0403 16:20:10.932775 17882 net.cpp:425] inception_4e/output <- inception_4e/1x1
I0403 16:20:10.932796 17882 net.cpp:425] inception_4e/output <- inception_4e/3x3
I0403 16:20:10.932816 17882 net.cpp:425] inception_4e/output <- inception_4e/5x5
I0403 16:20:10.932837 17882 net.cpp:425] inception_4e/output <- inception_4e/pool_proj
I0403 16:20:10.932862 17882 net.cpp:399] inception_4e/output -> inception_4e/output
I0403 16:20:10.932922 17882 net.cpp:141] Setting up inception_4e/output
I0403 16:20:10.932955 17882 net.cpp:148] Top shape: 24 832 14 14 (3913728)
I0403 16:20:10.932974 17882 net.cpp:156] Memory required for data: 1272557088
I0403 16:20:10.932992 17882 layer_factory.hpp:77] Creating layer pool4/3x3_s2
I0403 16:20:10.933014 17882 net.cpp:91] Creating Layer pool4/3x3_s2
I0403 16:20:10.933034 17882 net.cpp:425] pool4/3x3_s2 <- inception_4e/output
I0403 16:20:10.933058 17882 net.cpp:399] pool4/3x3_s2 -> pool4/3x3_s2
I0403 16:20:10.933142 17882 net.cpp:141] Setting up pool4/3x3_s2
I0403 16:20:10.933172 17882 net.cpp:148] Top shape: 24 832 7 7 (978432)
I0403 16:20:10.933192 17882 net.cpp:156] Memory required for data: 1276470816
I0403 16:20:10.933209 17882 layer_factory.hpp:77] Creating layer pool4/3x3_s2_pool4/3x3_s2_0_split
I0403 16:20:10.933233 17882 net.cpp:91] Creating Layer pool4/3x3_s2_pool4/3x3_s2_0_split
I0403 16:20:10.933254 17882 net.cpp:425] pool4/3x3_s2_pool4/3x3_s2_0_split <- pool4/3x3_s2
I0403 16:20:10.933275 17882 net.cpp:399] pool4/3x3_s2_pool4/3x3_s2_0_split -> pool4/3x3_s2_pool4/3x3_s2_0_split_0
I0403 16:20:10.933300 17882 net.cpp:399] pool4/3x3_s2_pool4/3x3_s2_0_split -> pool4/3x3_s2_pool4/3x3_s2_0_split_1
I0403 16:20:10.933326 17882 net.cpp:399] pool4/3x3_s2_pool4/3x3_s2_0_split -> pool4/3x3_s2_pool4/3x3_s2_0_split_2
I0403 16:20:10.933352 17882 net.cpp:399] pool4/3x3_s2_pool4/3x3_s2_0_split -> pool4/3x3_s2_pool4/3x3_s2_0_split_3
I0403 16:20:10.933464 17882 net.cpp:141] Setting up pool4/3x3_s2_pool4/3x3_s2_0_split
I0403 16:20:10.933493 17882 net.cpp:148] Top shape: 24 832 7 7 (978432)
I0403 16:20:10.933513 17882 net.cpp:148] Top shape: 24 832 7 7 (978432)
I0403 16:20:10.933532 17882 net.cpp:148] Top shape: 24 832 7 7 (978432)
I0403 16:20:10.933552 17882 net.cpp:148] Top shape: 24 832 7 7 (978432)
I0403 16:20:10.933568 17882 net.cpp:156] Memory required for data: 1292125728
I0403 16:20:10.933595 17882 layer_factory.hpp:77] Creating layer inception_5a/1x1
I0403 16:20:10.933624 17882 net.cpp:91] Creating Layer inception_5a/1x1
I0403 16:20:10.933647 17882 net.cpp:425] inception_5a/1x1 <- pool4/3x3_s2_pool4/3x3_s2_0_split_0
I0403 16:20:10.933673 17882 net.cpp:399] inception_5a/1x1 -> inception_5a/1x1
I0403 16:20:10.937180 17882 net.cpp:141] Setting up inception_5a/1x1
I0403 16:20:10.937216 17882 net.cpp:148] Top shape: 24 256 7 7 (301056)
I0403 16:20:10.937235 17882 net.cpp:156] Memory required for data: 1293329952
I0403 16:20:10.937259 17882 layer_factory.hpp:77] Creating layer inception_5a/relu_1x1
I0403 16:20:10.937284 17882 net.cpp:91] Creating Layer inception_5a/relu_1x1
I0403 16:20:10.937305 17882 net.cpp:425] inception_5a/relu_1x1 <- inception_5a/1x1
I0403 16:20:10.937327 17882 net.cpp:386] inception_5a/relu_1x1 -> inception_5a/1x1 (in-place)
I0403 16:20:10.937718 17882 net.cpp:141] Setting up inception_5a/relu_1x1
I0403 16:20:10.937750 17882 net.cpp:148] Top shape: 24 256 7 7 (301056)
I0403 16:20:10.937770 17882 net.cpp:156] Memory required for data: 1294534176
I0403 16:20:10.937790 17882 layer_factory.hpp:77] Creating layer inception_5a/3x3_reduce
I0403 16:20:10.937819 17882 net.cpp:91] Creating Layer inception_5a/3x3_reduce
I0403 16:20:10.937839 17882 net.cpp:425] inception_5a/3x3_reduce <- pool4/3x3_s2_pool4/3x3_s2_0_split_1
I0403 16:20:10.937866 17882 net.cpp:399] inception_5a/3x3_reduce -> inception_5a/3x3_reduce
I0403 16:20:10.940871 17882 net.cpp:141] Setting up inception_5a/3x3_reduce
I0403 16:20:10.940908 17882 net.cpp:148] Top shape: 24 160 7 7 (188160)
I0403 16:20:10.940928 17882 net.cpp:156] Memory required for data: 1295286816
I0403 16:20:10.940951 17882 layer_factory.hpp:77] Creating layer inception_5a/relu_3x3_reduce
I0403 16:20:10.940974 17882 net.cpp:91] Creating Layer inception_5a/relu_3x3_reduce
I0403 16:20:10.940994 17882 net.cpp:425] inception_5a/relu_3x3_reduce <- inception_5a/3x3_reduce
I0403 16:20:10.941018 17882 net.cpp:386] inception_5a/relu_3x3_reduce -> inception_5a/3x3_reduce (in-place)
I0403 16:20:10.941253 17882 net.cpp:141] Setting up inception_5a/relu_3x3_reduce
I0403 16:20:10.941285 17882 net.cpp:148] Top shape: 24 160 7 7 (188160)
I0403 16:20:10.941303 17882 net.cpp:156] Memory required for data: 1296039456
I0403 16:20:10.941323 17882 layer_factory.hpp:77] Creating layer inception_5a/3x3
I0403 16:20:10.941349 17882 net.cpp:91] Creating Layer inception_5a/3x3
I0403 16:20:10.941371 17882 net.cpp:425] inception_5a/3x3 <- inception_5a/3x3_reduce
I0403 16:20:10.941400 17882 net.cpp:399] inception_5a/3x3 -> inception_5a/3x3
I0403 16:20:10.947645 17882 net.cpp:141] Setting up inception_5a/3x3
I0403 16:20:10.947684 17882 net.cpp:148] Top shape: 24 320 7 7 (376320)
I0403 16:20:10.947703 17882 net.cpp:156] Memory required for data: 1297544736
I0403 16:20:10.947726 17882 layer_factory.hpp:77] Creating layer inception_5a/relu_3x3
I0403 16:20:10.947754 17882 net.cpp:91] Creating Layer inception_5a/relu_3x3
I0403 16:20:10.947777 17882 net.cpp:425] inception_5a/relu_3x3 <- inception_5a/3x3
I0403 16:20:10.947798 17882 net.cpp:386] inception_5a/relu_3x3 -> inception_5a/3x3 (in-place)
I0403 16:20:10.948164 17882 net.cpp:141] Setting up inception_5a/relu_3x3
I0403 16:20:10.948196 17882 net.cpp:148] Top shape: 24 320 7 7 (376320)
I0403 16:20:10.948215 17882 net.cpp:156] Memory required for data: 1299050016
I0403 16:20:10.948235 17882 layer_factory.hpp:77] Creating layer inception_5a/5x5_reduce
I0403 16:20:10.948262 17882 net.cpp:91] Creating Layer inception_5a/5x5_reduce
I0403 16:20:10.948285 17882 net.cpp:425] inception_5a/5x5_reduce <- pool4/3x3_s2_pool4/3x3_s2_0_split_2
I0403 16:20:10.948314 17882 net.cpp:399] inception_5a/5x5_reduce -> inception_5a/5x5_reduce
I0403 16:20:10.949779 17882 net.cpp:141] Setting up inception_5a/5x5_reduce
I0403 16:20:10.949817 17882 net.cpp:148] Top shape: 24 32 7 7 (37632)
I0403 16:20:10.949838 17882 net.cpp:156] Memory required for data: 1299200544
I0403 16:20:10.949862 17882 layer_factory.hpp:77] Creating layer inception_5a/relu_5x5_reduce
I0403 16:20:10.949884 17882 net.cpp:91] Creating Layer inception_5a/relu_5x5_reduce
I0403 16:20:10.949905 17882 net.cpp:425] inception_5a/relu_5x5_reduce <- inception_5a/5x5_reduce
I0403 16:20:10.949928 17882 net.cpp:386] inception_5a/relu_5x5_reduce -> inception_5a/5x5_reduce (in-place)
I0403 16:20:10.950297 17882 net.cpp:141] Setting up inception_5a/relu_5x5_reduce
I0403 16:20:10.950332 17882 net.cpp:148] Top shape: 24 32 7 7 (37632)
I0403 16:20:10.950351 17882 net.cpp:156] Memory required for data: 1299351072
I0403 16:20:10.950371 17882 layer_factory.hpp:77] Creating layer inception_5a/5x5
I0403 16:20:10.950395 17882 net.cpp:91] Creating Layer inception_5a/5x5
I0403 16:20:10.950415 17882 net.cpp:425] inception_5a/5x5 <- inception_5a/5x5_reduce
I0403 16:20:10.950443 17882 net.cpp:399] inception_5a/5x5 -> inception_5a/5x5
I0403 16:20:10.952569 17882 net.cpp:141] Setting up inception_5a/5x5
I0403 16:20:10.952625 17882 net.cpp:148] Top shape: 24 128 7 7 (150528)
I0403 16:20:10.952646 17882 net.cpp:156] Memory required for data: 1299953184
I0403 16:20:10.952671 17882 layer_factory.hpp:77] Creating layer inception_5a/relu_5x5
I0403 16:20:10.952695 17882 net.cpp:91] Creating Layer inception_5a/relu_5x5
I0403 16:20:10.952716 17882 net.cpp:425] inception_5a/relu_5x5 <- inception_5a/5x5
I0403 16:20:10.952738 17882 net.cpp:386] inception_5a/relu_5x5 -> inception_5a/5x5 (in-place)
I0403 16:20:10.952977 17882 net.cpp:141] Setting up inception_5a/relu_5x5
I0403 16:20:10.953012 17882 net.cpp:148] Top shape: 24 128 7 7 (150528)
I0403 16:20:10.953032 17882 net.cpp:156] Memory required for data: 1300555296
I0403 16:20:10.953050 17882 layer_factory.hpp:77] Creating layer inception_5a/pool
I0403 16:20:10.953073 17882 net.cpp:91] Creating Layer inception_5a/pool
I0403 16:20:10.953094 17882 net.cpp:425] inception_5a/pool <- pool4/3x3_s2_pool4/3x3_s2_0_split_3
I0403 16:20:10.953115 17882 net.cpp:399] inception_5a/pool -> inception_5a/pool
I0403 16:20:10.953204 17882 net.cpp:141] Setting up inception_5a/pool
I0403 16:20:10.953234 17882 net.cpp:148] Top shape: 24 832 7 7 (978432)
I0403 16:20:10.953253 17882 net.cpp:156] Memory required for data: 1304469024
I0403 16:20:10.953270 17882 layer_factory.hpp:77] Creating layer inception_5a/pool_proj
I0403 16:20:10.953297 17882 net.cpp:91] Creating Layer inception_5a/pool_proj
I0403 16:20:10.953320 17882 net.cpp:425] inception_5a/pool_proj <- inception_5a/pool
I0403 16:20:10.953346 17882 net.cpp:399] inception_5a/pool_proj -> inception_5a/pool_proj
I0403 16:20:10.956185 17882 net.cpp:141] Setting up inception_5a/pool_proj
I0403 16:20:10.956223 17882 net.cpp:148] Top shape: 24 128 7 7 (150528)
I0403 16:20:10.956243 17882 net.cpp:156] Memory required for data: 1305071136
I0403 16:20:10.956265 17882 layer_factory.hpp:77] Creating layer inception_5a/relu_pool_proj
I0403 16:20:10.956290 17882 net.cpp:91] Creating Layer inception_5a/relu_pool_proj
I0403 16:20:10.956312 17882 net.cpp:425] inception_5a/relu_pool_proj <- inception_5a/pool_proj
I0403 16:20:10.956334 17882 net.cpp:386] inception_5a/relu_pool_proj -> inception_5a/pool_proj (in-place)
I0403 16:20:10.956703 17882 net.cpp:141] Setting up inception_5a/relu_pool_proj
I0403 16:20:10.956737 17882 net.cpp:148] Top shape: 24 128 7 7 (150528)
I0403 16:20:10.956756 17882 net.cpp:156] Memory required for data: 1305673248
I0403 16:20:10.956774 17882 layer_factory.hpp:77] Creating layer inception_5a/output
I0403 16:20:10.956795 17882 net.cpp:91] Creating Layer inception_5a/output
I0403 16:20:10.956815 17882 net.cpp:425] inception_5a/output <- inception_5a/1x1
I0403 16:20:10.956835 17882 net.cpp:425] inception_5a/output <- inception_5a/3x3
I0403 16:20:10.956859 17882 net.cpp:425] inception_5a/output <- inception_5a/5x5
I0403 16:20:10.956881 17882 net.cpp:425] inception_5a/output <- inception_5a/pool_proj
I0403 16:20:10.956900 17882 net.cpp:399] inception_5a/output -> inception_5a/output
I0403 16:20:10.956959 17882 net.cpp:141] Setting up inception_5a/output
I0403 16:20:10.956992 17882 net.cpp:148] Top shape: 24 832 7 7 (978432)
I0403 16:20:10.957011 17882 net.cpp:156] Memory required for data: 1309586976
I0403 16:20:10.957031 17882 layer_factory.hpp:77] Creating layer inception_5a/output_inception_5a/output_0_split
I0403 16:20:10.957053 17882 net.cpp:91] Creating Layer inception_5a/output_inception_5a/output_0_split
I0403 16:20:10.957072 17882 net.cpp:425] inception_5a/output_inception_5a/output_0_split <- inception_5a/output
I0403 16:20:10.957098 17882 net.cpp:399] inception_5a/output_inception_5a/output_0_split -> inception_5a/output_inception_5a/output_0_split_0
I0403 16:20:10.957124 17882 net.cpp:399] inception_5a/output_inception_5a/output_0_split -> inception_5a/output_inception_5a/output_0_split_1
I0403 16:20:10.957149 17882 net.cpp:399] inception_5a/output_inception_5a/output_0_split -> inception_5a/output_inception_5a/output_0_split_2
I0403 16:20:10.957176 17882 net.cpp:399] inception_5a/output_inception_5a/output_0_split -> inception_5a/output_inception_5a/output_0_split_3
I0403 16:20:10.957311 17882 net.cpp:141] Setting up inception_5a/output_inception_5a/output_0_split
I0403 16:20:10.957345 17882 net.cpp:148] Top shape: 24 832 7 7 (978432)
I0403 16:20:10.957366 17882 net.cpp:148] Top shape: 24 832 7 7 (978432)
I0403 16:20:10.957386 17882 net.cpp:148] Top shape: 24 832 7 7 (978432)
I0403 16:20:10.957407 17882 net.cpp:148] Top shape: 24 832 7 7 (978432)
I0403 16:20:10.957424 17882 net.cpp:156] Memory required for data: 1325241888
I0403 16:20:10.957443 17882 layer_factory.hpp:77] Creating layer inception_5b/1x1
I0403 16:20:10.957468 17882 net.cpp:91] Creating Layer inception_5b/1x1
I0403 16:20:10.957489 17882 net.cpp:425] inception_5b/1x1 <- inception_5a/output_inception_5a/output_0_split_0
I0403 16:20:10.957515 17882 net.cpp:399] inception_5b/1x1 -> inception_5b/1x1
I0403 16:20:10.962149 17882 net.cpp:141] Setting up inception_5b/1x1
I0403 16:20:10.962187 17882 net.cpp:148] Top shape: 24 384 7 7 (451584)
I0403 16:20:10.962208 17882 net.cpp:156] Memory required for data: 1327048224
I0403 16:20:10.962231 17882 layer_factory.hpp:77] Creating layer inception_5b/relu_1x1
I0403 16:20:10.962254 17882 net.cpp:91] Creating Layer inception_5b/relu_1x1
I0403 16:20:10.962273 17882 net.cpp:425] inception_5b/relu_1x1 <- inception_5b/1x1
I0403 16:20:10.962296 17882 net.cpp:386] inception_5b/relu_1x1 -> inception_5b/1x1 (in-place)
I0403 16:20:10.962687 17882 net.cpp:141] Setting up inception_5b/relu_1x1
I0403 16:20:10.962720 17882 net.cpp:148] Top shape: 24 384 7 7 (451584)
I0403 16:20:10.962739 17882 net.cpp:156] Memory required for data: 1328854560
I0403 16:20:10.962759 17882 layer_factory.hpp:77] Creating layer inception_5b/3x3_reduce
I0403 16:20:10.962786 17882 net.cpp:91] Creating Layer inception_5b/3x3_reduce
I0403 16:20:10.962810 17882 net.cpp:425] inception_5b/3x3_reduce <- inception_5a/output_inception_5a/output_0_split_1
I0403 16:20:10.962838 17882 net.cpp:399] inception_5b/3x3_reduce -> inception_5b/3x3_reduce
I0403 16:20:10.966120 17882 net.cpp:141] Setting up inception_5b/3x3_reduce
I0403 16:20:10.966156 17882 net.cpp:148] Top shape: 24 192 7 7 (225792)
I0403 16:20:10.966176 17882 net.cpp:156] Memory required for data: 1329757728
I0403 16:20:10.966199 17882 layer_factory.hpp:77] Creating layer inception_5b/relu_3x3_reduce
I0403 16:20:10.966225 17882 net.cpp:91] Creating Layer inception_5b/relu_3x3_reduce
I0403 16:20:10.966246 17882 net.cpp:425] inception_5b/relu_3x3_reduce <- inception_5b/3x3_reduce
I0403 16:20:10.966269 17882 net.cpp:386] inception_5b/relu_3x3_reduce -> inception_5b/3x3_reduce (in-place)
I0403 16:20:10.966508 17882 net.cpp:141] Setting up inception_5b/relu_3x3_reduce
I0403 16:20:10.966541 17882 net.cpp:148] Top shape: 24 192 7 7 (225792)
I0403 16:20:10.966558 17882 net.cpp:156] Memory required for data: 1330660896
I0403 16:20:10.966584 17882 layer_factory.hpp:77] Creating layer inception_5b/3x3
I0403 16:20:10.966614 17882 net.cpp:91] Creating Layer inception_5b/3x3
I0403 16:20:10.966636 17882 net.cpp:425] inception_5b/3x3 <- inception_5b/3x3_reduce
I0403 16:20:10.966665 17882 net.cpp:399] inception_5b/3x3 -> inception_5b/3x3
I0403 16:20:10.975014 17882 net.cpp:141] Setting up inception_5b/3x3
I0403 16:20:10.975051 17882 net.cpp:148] Top shape: 24 384 7 7 (451584)
I0403 16:20:10.975070 17882 net.cpp:156] Memory required for data: 1332467232
I0403 16:20:10.975095 17882 layer_factory.hpp:77] Creating layer inception_5b/relu_3x3
I0403 16:20:10.975121 17882 net.cpp:91] Creating Layer inception_5b/relu_3x3
I0403 16:20:10.975143 17882 net.cpp:425] inception_5b/relu_3x3 <- inception_5b/3x3
I0403 16:20:10.975165 17882 net.cpp:386] inception_5b/relu_3x3 -> inception_5b/3x3 (in-place)
I0403 16:20:10.975530 17882 net.cpp:141] Setting up inception_5b/relu_3x3
I0403 16:20:10.975563 17882 net.cpp:148] Top shape: 24 384 7 7 (451584)
I0403 16:20:10.975590 17882 net.cpp:156] Memory required for data: 1334273568
I0403 16:20:10.975610 17882 layer_factory.hpp:77] Creating layer inception_5b/5x5_reduce
I0403 16:20:10.975658 17882 net.cpp:91] Creating Layer inception_5b/5x5_reduce
I0403 16:20:10.975683 17882 net.cpp:425] inception_5b/5x5_reduce <- inception_5a/output_inception_5a/output_0_split_2
I0403 16:20:10.975713 17882 net.cpp:399] inception_5b/5x5_reduce -> inception_5b/5x5_reduce
I0403 16:20:10.977288 17882 net.cpp:141] Setting up inception_5b/5x5_reduce
I0403 16:20:10.977321 17882 net.cpp:148] Top shape: 24 48 7 7 (56448)
I0403 16:20:10.977340 17882 net.cpp:156] Memory required for data: 1334499360
I0403 16:20:10.977363 17882 layer_factory.hpp:77] Creating layer inception_5b/relu_5x5_reduce
I0403 16:20:10.977386 17882 net.cpp:91] Creating Layer inception_5b/relu_5x5_reduce
I0403 16:20:10.977408 17882 net.cpp:425] inception_5b/relu_5x5_reduce <- inception_5b/5x5_reduce
I0403 16:20:10.977437 17882 net.cpp:386] inception_5b/relu_5x5_reduce -> inception_5b/5x5_reduce (in-place)
I0403 16:20:10.977901 17882 net.cpp:141] Setting up inception_5b/relu_5x5_reduce
I0403 16:20:10.977934 17882 net.cpp:148] Top shape: 24 48 7 7 (56448)
I0403 16:20:10.977953 17882 net.cpp:156] Memory required for data: 1334725152
I0403 16:20:10.977973 17882 layer_factory.hpp:77] Creating layer inception_5b/5x5
I0403 16:20:10.977998 17882 net.cpp:91] Creating Layer inception_5b/5x5
I0403 16:20:10.978019 17882 net.cpp:425] inception_5b/5x5 <- inception_5b/5x5_reduce
I0403 16:20:10.978044 17882 net.cpp:399] inception_5b/5x5 -> inception_5b/5x5
I0403 16:20:10.980595 17882 net.cpp:141] Setting up inception_5b/5x5
I0403 16:20:10.980630 17882 net.cpp:148] Top shape: 24 128 7 7 (150528)
I0403 16:20:10.980649 17882 net.cpp:156] Memory required for data: 1335327264
I0403 16:20:10.980672 17882 layer_factory.hpp:77] Creating layer inception_5b/relu_5x5
I0403 16:20:10.980698 17882 net.cpp:91] Creating Layer inception_5b/relu_5x5
I0403 16:20:10.980721 17882 net.cpp:425] inception_5b/relu_5x5 <- inception_5b/5x5
I0403 16:20:10.980743 17882 net.cpp:386] inception_5b/relu_5x5 -> inception_5b/5x5 (in-place)
I0403 16:20:10.980990 17882 net.cpp:141] Setting up inception_5b/relu_5x5
I0403 16:20:10.981024 17882 net.cpp:148] Top shape: 24 128 7 7 (150528)
I0403 16:20:10.981045 17882 net.cpp:156] Memory required for data: 1335929376
I0403 16:20:10.981063 17882 layer_factory.hpp:77] Creating layer inception_5b/pool
I0403 16:20:10.981084 17882 net.cpp:91] Creating Layer inception_5b/pool
I0403 16:20:10.981106 17882 net.cpp:425] inception_5b/pool <- inception_5a/output_inception_5a/output_0_split_3
I0403 16:20:10.981132 17882 net.cpp:399] inception_5b/pool -> inception_5b/pool
I0403 16:20:10.981221 17882 net.cpp:141] Setting up inception_5b/pool
I0403 16:20:10.981252 17882 net.cpp:148] Top shape: 24 832 7 7 (978432)
I0403 16:20:10.981271 17882 net.cpp:156] Memory required for data: 1339843104
I0403 16:20:10.981287 17882 layer_factory.hpp:77] Creating layer inception_5b/pool_proj
I0403 16:20:10.981315 17882 net.cpp:91] Creating Layer inception_5b/pool_proj
I0403 16:20:10.981338 17882 net.cpp:425] inception_5b/pool_proj <- inception_5b/pool
I0403 16:20:10.981364 17882 net.cpp:399] inception_5b/pool_proj -> inception_5b/pool_proj
I0403 16:20:10.984194 17882 net.cpp:141] Setting up inception_5b/pool_proj
I0403 16:20:10.984232 17882 net.cpp:148] Top shape: 24 128 7 7 (150528)
I0403 16:20:10.984252 17882 net.cpp:156] Memory required for data: 1340445216
I0403 16:20:10.984275 17882 layer_factory.hpp:77] Creating layer inception_5b/relu_pool_proj
I0403 16:20:10.984300 17882 net.cpp:91] Creating Layer inception_5b/relu_pool_proj
I0403 16:20:10.984323 17882 net.cpp:425] inception_5b/relu_pool_proj <- inception_5b/pool_proj
I0403 16:20:10.984346 17882 net.cpp:386] inception_5b/relu_pool_proj -> inception_5b/pool_proj (in-place)
I0403 16:20:10.984724 17882 net.cpp:141] Setting up inception_5b/relu_pool_proj
I0403 16:20:10.984757 17882 net.cpp:148] Top shape: 24 128 7 7 (150528)
I0403 16:20:10.984777 17882 net.cpp:156] Memory required for data: 1341047328
I0403 16:20:10.984796 17882 layer_factory.hpp:77] Creating layer inception_5b/output
I0403 16:20:10.984818 17882 net.cpp:91] Creating Layer inception_5b/output
I0403 16:20:10.984859 17882 net.cpp:425] inception_5b/output <- inception_5b/1x1
I0403 16:20:10.984882 17882 net.cpp:425] inception_5b/output <- inception_5b/3x3
I0403 16:20:10.984902 17882 net.cpp:425] inception_5b/output <- inception_5b/5x5
I0403 16:20:10.984921 17882 net.cpp:425] inception_5b/output <- inception_5b/pool_proj
I0403 16:20:10.984946 17882 net.cpp:399] inception_5b/output -> inception_5b/output
I0403 16:20:10.985013 17882 net.cpp:141] Setting up inception_5b/output
I0403 16:20:10.985044 17882 net.cpp:148] Top shape: 24 1024 7 7 (1204224)
I0403 16:20:10.985062 17882 net.cpp:156] Memory required for data: 1345864224
I0403 16:20:10.985082 17882 layer_factory.hpp:77] Creating layer pool5/7x7_s1
I0403 16:20:10.985105 17882 net.cpp:91] Creating Layer pool5/7x7_s1
I0403 16:20:10.985123 17882 net.cpp:425] pool5/7x7_s1 <- inception_5b/output
I0403 16:20:10.985148 17882 net.cpp:399] pool5/7x7_s1 -> pool5/7x7_s1
I0403 16:20:10.985420 17882 net.cpp:141] Setting up pool5/7x7_s1
I0403 16:20:10.985453 17882 net.cpp:148] Top shape: 24 1024 1 1 (24576)
I0403 16:20:10.985471 17882 net.cpp:156] Memory required for data: 1345962528
I0403 16:20:10.985489 17882 layer_factory.hpp:77] Creating layer pool5/drop_7x7_s1
I0403 16:20:10.985513 17882 net.cpp:91] Creating Layer pool5/drop_7x7_s1
I0403 16:20:10.985535 17882 net.cpp:425] pool5/drop_7x7_s1 <- pool5/7x7_s1
I0403 16:20:10.985558 17882 net.cpp:386] pool5/drop_7x7_s1 -> pool5/7x7_s1 (in-place)
I0403 16:20:10.985630 17882 net.cpp:141] Setting up pool5/drop_7x7_s1
I0403 16:20:10.985659 17882 net.cpp:148] Top shape: 24 1024 1 1 (24576)
I0403 16:20:10.985677 17882 net.cpp:156] Memory required for data: 1346060832
I0403 16:20:10.985697 17882 layer_factory.hpp:77] Creating layer loss3/classifier_plantvillage
I0403 16:20:10.985718 17882 net.cpp:91] Creating Layer loss3/classifier_plantvillage
I0403 16:20:10.985739 17882 net.cpp:425] loss3/classifier_plantvillage <- pool5/7x7_s1
I0403 16:20:10.985765 17882 net.cpp:399] loss3/classifier_plantvillage -> loss3/classifier_plantvillage
I0403 16:20:10.986292 17882 net.cpp:141] Setting up loss3/classifier_plantvillage
I0403 16:20:10.986323 17882 net.cpp:148] Top shape: 24 38 (912)
I0403 16:20:10.986342 17882 net.cpp:156] Memory required for data: 1346064480
I0403 16:20:10.986366 17882 layer_factory.hpp:77] Creating layer loss3/classifier_plantvillage_loss3/classifier_plantvillage_0_split
I0403 16:20:10.986387 17882 net.cpp:91] Creating Layer loss3/classifier_plantvillage_loss3/classifier_plantvillage_0_split
I0403 16:20:10.986408 17882 net.cpp:425] loss3/classifier_plantvillage_loss3/classifier_plantvillage_0_split <- loss3/classifier_plantvillage
I0403 16:20:10.986434 17882 net.cpp:399] loss3/classifier_plantvillage_loss3/classifier_plantvillage_0_split -> loss3/classifier_plantvillage_loss3/classifier_plantvillage_0_split_0
I0403 16:20:10.986461 17882 net.cpp:399] loss3/classifier_plantvillage_loss3/classifier_plantvillage_0_split -> loss3/classifier_plantvillage_loss3/classifier_plantvillage_0_split_1
I0403 16:20:10.986485 17882 net.cpp:399] loss3/classifier_plantvillage_loss3/classifier_plantvillage_0_split -> loss3/classifier_plantvillage_loss3/classifier_plantvillage_0_split_2
I0403 16:20:10.986510 17882 net.cpp:399] loss3/classifier_plantvillage_loss3/classifier_plantvillage_0_split -> loss3/classifier_plantvillage_loss3/classifier_plantvillage_0_split_3
I0403 16:20:10.986644 17882 net.cpp:141] Setting up loss3/classifier_plantvillage_loss3/classifier_plantvillage_0_split
I0403 16:20:10.986675 17882 net.cpp:148] Top shape: 24 38 (912)
I0403 16:20:10.986695 17882 net.cpp:148] Top shape: 24 38 (912)
I0403 16:20:10.986713 17882 net.cpp:148] Top shape: 24 38 (912)
I0403 16:20:10.986732 17882 net.cpp:148] Top shape: 24 38 (912)
I0403 16:20:10.986748 17882 net.cpp:156] Memory required for data: 1346079072
I0403 16:20:10.986766 17882 layer_factory.hpp:77] Creating layer loss1/loss
I0403 16:20:10.986793 17882 net.cpp:91] Creating Layer loss1/loss
I0403 16:20:10.986815 17882 net.cpp:425] loss1/loss <- loss1/classifier_plantvillage_loss1/classifier_plantvillage_0_split_0
I0403 16:20:10.986855 17882 net.cpp:425] loss1/loss <- label_data_1_split_0
…
