…
I0403 16:33:45.153087 18690 net.cpp:313] The NetState phase (1) differed from the phase (0) specified by a rule in layer data
I0403 16:33:45.155855 18690 net.cpp:49] Initializing net from parameters: 
state {
  phase: TEST
}
layer {
  name: "data"
  type: "Data"
  top: "data"
  top: "label"
  include {
    phase: TEST
  }
  transform_param {
    mirror: false
    crop_size: 224
    mean_file: "/home/mohanty/data/final_dataset/lmdb/color-20-80/mean.binaryproto"
  }
  data_param {
    source: "/home/mohanty/data/final_dataset/lmdb/color-20-80/test_db"
    batch_size: 24
    backend: LMDB
  }
}
layer {
  name: "conv1/7x7_s2"
  type: "Convolution"
  bottom: "data"
  top: "conv1/7x7_s2"
  param {
    lr_mult: 1
    decay_mult: 1
  }
  param {
    lr_mult: 2
    decay_mult: 0
  }
  convolution_param {
    num_output: 64
    pad: 3
    kernel_size: 7
    stride: 2
    weight_filler {
      type: "xavier"
      std: 0.1
    }
    bias_filler {
      type: "constant"
      value: 0.2
    }
  }
}
layer {
  name: "conv1/relu_7x7"
  type: "ReLU"
  bottom: "conv1/7x7_s2"
  top: "conv1/7x7_s2"
}
layer {
  name: "pool1/3x3_s2"
  type: "Pooling"
  bottom: "conv1/7x7_s2"
  top: "pool1/3x3_s2"
  pooling_param {
    pool: MAX
    kernel_size: 3
    stride: 2
  }
}
layer {
  name: "pool1/norm1"
  type: "LRN"
  bottom: "pool1/3x3_s2"
  top: "pool1/norm1"
  lrn_param {
    local_size: 5
    alpha: 0.0001
    beta: 0.75
  }
}
layer {
  name: "conv2/3x3_reduce"
  type: "Convolution"
  bottom: "pool1/norm1"
  top: "conv2/3x3_reduce"
  param {
    lr_mult: 1
    decay_mult: 1
  }
  param {
    lr_mult: 2
    decay_mult: 0
  }
  convolution_param {
    num_output: 64
    kernel_size: 1
    weight_filler {
      type: "xavier"
      std: 0.1
    }
    bias_filler {
      type: "constant"
      value: 0.2
    }
  }
}
layer {
  name: "conv2/relu_3x3_reduce"
  type: "ReLU"
  bottom: "conv2/3x3_reduce"
  top: "conv2/3x3_reduce"
}
layer {
  name: "conv2/3x3"
  type: "Convolution"
  bottom: "conv2/3x3_reduce"
  top: "conv2/3x3"
  param {
    lr_mult: 1
    decay_mult: 1
  }
  param {
    lr_mult: 2
    decay_mult: 0
  }
  convolution_param {
    num_output: 192
    pad: 1
    kernel_size: 3
    weight_filler {
      type: "xavier"
      std: 0.03
    }
    bias_filler {
      type: "constant"
      value: 0.2
    }
  }
}
layer {
  name: "conv2/relu_3x3"
  type: "ReLU"
  bottom: "conv2/3x3"
  top: "conv2/3x3"
}
layer {
  name: "conv2/norm2"
  type: "LRN"
  bottom: "conv2/3x3"
  top: "conv2/norm2"
  lrn_param {
    local_size: 5
    alpha: 0.0001
    beta: 0.75
  }
}
layer {
  name: "pool2/3x3_s2"
  type: "Pooling"
  bottom: "conv2/norm2"
  top: "pool2/3x3_s2"
  pooling_param {
    pool: MAX
    kernel_size: 3
    stride: 2
  }
}
layer {
  name: "inception_3a/1x1"
  type: "Convolution"
  bottom: "pool2/3x3_s2"
  top: "inception_3a/1x1"
  param {
    lr_mult: 1
    decay_mult: 1
  }
  param {
    lr_mult: 2
    decay_mult: 0
  }
  convolution_param {
    num_output: 64
    kernel_size: 1
    weight_filler {
      type: "xavier"
      std: 0.03
    }
    bias_filler {
      type: "constant"
      value: 0.2
    }
  }
}
layer {
  name: "inception_3a/relu_1x1"
  type: "ReLU"
  bottom: "inception_3a/1x1"
  top: "inception_3a/1x1"
}
layer {
  name: "inception_3a/3x3_reduce"
  type: "Convolution"
  bottom: "pool2/3x3_s2"
  top: "inception_3a/3x3_reduce"
  param {
    lr_mult: 1
    decay_mult: 1
  }
  param {
    lr_mult: 2
    decay_mult: 0
  }
  convolution_param {
    num_output: 96
    kernel_size: 1
    weight_filler {
      type: "xavier"
      std: 0.09
    }
    bias_filler {
      type: "constant"
      value: 0.2
    }
  }
}
layer {
  name: "inception_3a/relu_3x3_reduce"
  type: "ReLU"
  bottom: "inception_3a/3x3_reduce"
  top: "inception_3a/3x3_reduce"
}
layer {
  name: "inception_3a/3x3"
  type: "Convolution"
  bottom: "inception_3a/3x3_reduce"
  top: "inception_3a/3x3"
  param {
    lr_mult: 1
    decay_mult: 1
  }
  param {
    lr_mult: 2
    decay_mult: 0
  }
  convolution_param {
    num_output: 128
    pad: 1
    kernel_size: 3
    weight_filler {
      type: "xavier"
      std: 0.03
    }
    bias_filler {
      type: "constant"
      value: 0.2
    }
  }
}
layer {
  name: "inception_3a/relu_3x3"
  type: "ReLU"
  bottom: "inception_3a/3x3"
  top: "inception_3a/3x3"
}
layer {
  name: "inception_3a/5x5_reduce"
  type: "Convolution"
  bottom: "pool2/3x3_s2"
  top: "inception_3a/5x5_reduce"
  param {
    lr_mult: 1
    decay_mult: 1
  }
  param {
    lr_mult: 2
    decay_mult: 0
  }
  convolution_param {
    num_output: 16
    kernel_size: 1
    weight_filler {
      type: "xavier"
      std: 0.2
    }
    bias_filler {
      type: "constant"
      value: 0.2
    }
  }
}
layer {
  name: "inception_3a/relu_5x5_reduce"
  type: "ReLU"
  bottom: "inception_3a/5x5_reduce"
  top: "inception_3a/5x5_reduce"
}
layer {
  name: "inception_3a/5x5"
  type: "Convolution"
  bottom: "inception_3a/5x5_reduce"
  top: "inception_3a/5x5"
  param {
    lr_mult: 1
    decay_mult: 1
  }
  param {
    lr_mult: 2
    decay_mult: 0
  }
  convolution_param {
    num_output: 32
    pad: 2
    kernel_size: 5
    weight_filler {
      type: "xavier"
      std: 0.03
    }
    bias_filler {
      type: "constant"
      value: 0.2
    }
  }
}
layer {
  name: "inception_3a/relu_5x5"
  type: "ReLU"
  bottom: "inception_3a/5x5"
  top: "inception_3a/5x5"
}
layer {
  name: "inception_3a/pool"
  type: "Pooling"
  bottom: "pool2/3x3_s2"
  top: "inception_3a/pool"
  pooling_param {
    pool: MAX
    kernel_size: 3
    stride: 1
    pad: 1
  }
}
layer {
  name: "inception_3a/pool_proj"
  type: "Convolution"
  bottom: "inception_3a/pool"
  top: "inception_3a/pool_proj"
  param {
    lr_mult: 1
    decay_mult: 1
  }
  param {
    lr_mult: 2
    decay_mult: 0
  }
  convolution_param {
    num_output: 32
    kernel_size: 1
    weight_filler {
      type: "xavier"
      std: 0.1
    }
    bias_filler {
      type: "constant"
      value: 0.2
    }
  }
}
layer {
  name: "inception_3a/relu_pool_proj"
  type: "ReLU"
  bottom: "inception_3a/pool_proj"
  top: "inception_3a/pool_proj"
}
layer {
  name: "inception_3a/output"
  type: "Concat"
  bottom: "inception_3a/1x1"
  bottom: "inception_3a/3x3"
  bottom: "inception_3a/5x5"
  bottom: "inception_3a/pool_proj"
  top: "inception_3a/output"
}
layer {
  name: "inception_3b/1x1"
  type: "Convolution"
  bottom: "inception_3a/output"
  top: "inception_3b/1x1"
  param {
    lr_mult: 1
    decay_mult: 1
  }
  param {
    lr_mult: 2
    decay_mult: 0
  }
  convolution_param {
    num_output: 128
    kernel_size: 1
    weight_filler {
      type: "xavier"
      std: 0.03
    }
    bias_filler {
      type: "constant"
      value: 0.2
    }
  }
}
layer {
  name: "inception_3b/relu_1x1"
  type: "ReLU"
  bottom: "inception_3b/1x1"
  top: "inception_3b/1x1"
}
layer {
  name: "inception_3b/3x3_reduce"
  type: "Convolution"
  bottom: "inception_3a/output"
  top: "inception_3b/3x3_reduce"
  param {
    lr_mult: 1
    decay_mult: 1
  }
  param {
    lr_mult: 2
    decay_mult: 0
  }
  convolution_param {
    num_output: 128
    kernel_size: 1
    weight_filler {
      type: "xavier"
      std: 0.09
    }
    bias_filler {
      type: "constant"
      value: 0.2
    }
  }
}
layer {
  name: "inception_3b/relu_3x3_reduce"
  type: "ReLU"
  bottom: "inception_3b/3x3_reduce"
  top: "inception_3b/3x3_reduce"
}
layer {
  name: "inception_3b/3x3"
  type: "Convolution"
  bottom: "inception_3b/3x3_reduce"
  top: "inception_3b/3x3"
  param {
    lr_mult: 1
    decay_mult: 1
  }
  param {
    lr_mult: 2
    decay_mult: 0
  }
  convolution_param {
    num_output: 192
    pad: 1
    kernel_size: 3
    weight_filler {
      type: "xavier"
      std: 0.03
    }
    bias_filler {
      type: "constant"
      value: 0.2
    }
  }
}
layer {
  name: "inception_3b/relu_3x3"
  type: "ReLU"
  bottom: "inception_3b/3x3"
  top: "inception_3b/3x3"
}
layer {
  name: "inception_3b/5x5_reduce"
  type: "Convolution"
  bottom: "inception_3a/output"
  top: "inception_3b/5x5_reduce"
  param {
    lr_mult: 1
    decay_mult: 1
  }
  param {
    lr_mult: 2
    decay_mult: 0
  }
  convolution_param {
    num_output: 32
    kernel_size: 1
    weight_filler {
      type: "xavier"
      std: 0.2
    }
    bias_filler {
      type: "constant"
      value: 0.2
    }
  }
}
layer {
  name: "inception_3b/relu_5x5_reduce"
  type: "ReLU"
  bottom: "inception_3b/5x5_reduce"
  top: "inception_3b/5x5_reduce"
}
layer {
  name: "inception_3b/5x5"
  type: "Convolution"
  bottom: "inception_3b/5x5_reduce"
  top: "inception_3b/5x5"
  param {
    lr_mult: 1
    decay_mult: 1
  }
  param {
    lr_mult: 2
    decay_mult: 0
  }
  convolution_param {
    num_output: 96
    pad: 2
    kernel_size: 5
    weight_filler {
      type: "xavier"
      std: 0.03
    }
    bias_filler {
      type: "constant"
      value: 0.2
    }
  }
}
layer {
  name: "inception_3b/relu_5x5"
  type: "ReLU"
  bottom: "inception_3b/5x5"
  top: "inception_3b/5x5"
}
layer {
  name: "inception_3b/pool"
  type: "Pooling"
  bottom: "inception_3a/output"
  top: "inception_3b/pool"
  pooling_param {
    pool: MAX
    kernel_size: 3
    stride: 1
    pad: 1
  }
}
layer {
  name: "inception_3b/pool_proj"
  type: "Convolution"
  bottom: "inception_3b/pool"
  top: "inception_3b/pool_proj"
  param {
    lr_mult: 1
    decay_mult: 1
  }
  param {
    lr_mult: 2
    decay_mult: 0
  }
  convolution_param {
    num_output: 64
    kernel_size: 1
    weight_filler {
      type: "xavier"
      std: 0.1
    }
    bias_filler {
      type: "constant"
      value: 0.2
    }
  }
}
layer {
  name: "inception_3b/relu_pool_proj"
  type: "ReLU"
  bottom: "inception_3b/pool_proj"
  top: "inception_3b/pool_proj"
}
layer {
  name: "inception_3b/output"
  type: "Concat"
  bottom: "inception_3b/1x1"
  bottom: "inception_3b/3x3"
  bottom: "inception_3b/5x5"
  bottom: "inception_3b/pool_proj"
  top: "inception_3b/output"
}
layer {
  name: "pool3/3x3_s2"
  type: "Pooling"
  bottom: "inception_3b/output"
  top: "pool3/3x3_s2"
  pooling_param {
    pool: MAX
    kernel_size: 3
    stride: 2
  }
}
layer {
  name: "inception_4a/1x1"
  type: "Convolution"
  bottom: "pool3/3x3_s2"
  top: "inception_4a/1x1"
  param {
    lr_mult: 1
    decay_mult: 1
  }
  param {
    lr_mult: 2
    decay_mult: 0
  }
  convolution_param {
    num_output: 192
    kernel_size: 1
    weight_filler {
      type: "xavier"
      std: 0.03
    }
    bias_filler {
      type: "constant"
      value: 0.2
    }
  }
}
layer {
  name: "inception_4a/relu_1x1"
  type: "ReLU"
  bottom: "inception_4a/1x1"
  top: "inception_4a/1x1"
}
layer {
  name: "inception_4a/3x3_reduce"
  type: "Convolution"
  bottom: "pool3/3x3_s2"
  top: "inception_4a/3x3_reduce"
  param {
    lr_mult: 1
    decay_mult: 1
  }
  param {
    lr_mult: 2
    decay_mult: 0
  }
  convolution_param {
    num_output: 96
    kernel_size: 1
    weight_filler {
      type: "xavier"
      std: 0.09
    }
    bias_filler {
      type: "constant"
      value: 0.2
    }
  }
}
layer {
  name: "inception_4a/relu_3x3_reduce"
  type: "ReLU"
  bottom: "inception_4a/3x3_reduce"
  top: "inception_4a/3x3_reduce"
}
layer {
  name: "inception_4a/3x3"
  type: "Convolution"
  bottom: "inception_4a/3x3_reduce"
  top: "inception_4a/3x3"
  param {
    lr_mult: 1
    decay_mult: 1
  }
  param {
    lr_mult: 2
    decay_mult: 0
  }
  convolution_param {
    num_output: 208
    pad: 1
    kernel_size: 3
    weight_filler {
      type: "xavier"
      std: 0.03
    }
    bias_filler {
      type: "constant"
      value: 0.2
    }
  }
}
layer {
  name: "inception_4a/relu_3x3"
  type: "ReLU"
  bottom: "inception_4a/3x3"
  top: "inception_4a/3x3"
}
layer {
  name: "inception_4a/5x5_reduce"
  type: "Convolution"
  bottom: "pool3/3x3_s2"
  top: "inception_4a/5x5_reduce"
  param {
    lr_mult: 1
    decay_mult: 1
  }
  param {
    lr_mult: 2
    decay_mult: 0
  }
  convolution_param {
    num_output: 16
    kernel_size: 1
    weight_filler {
      type: "xavier"
      std: 0.2
    }
    bias_filler {
      type: "constant"
      value: 0.2
    }
  }
}
layer {
  name: "inception_4a/relu_5x5_reduce"
  type: "ReLU"
  bottom: "inception_4a/5x5_reduce"
  top: "inception_4a/5x5_reduce"
}
layer {
  name: "inception_4a/5x5"
  type: "Convolution"
  bottom: "inception_4a/5x5_reduce"
  top: "inception_4a/5x5"
  param {
    lr_mult: 1
    decay_mult: 1
  }
  param {
    lr_mult: 2
    decay_mult: 0
  }
  convolution_param {
    num_output: 48
    pad: 2
    kernel_size: 5
    weight_filler {
      type: "xavier"
      std: 0.03
    }
    bias_filler {
      type: "constant"
      value: 0.2
    }
  }
}
layer {
  name: "inception_4a/relu_5x5"
  type: "ReLU"
  bottom: "inception_4a/5x5"
  top: "inception_4a/5x5"
}
layer {
  name: "inception_4a/pool"
  type: "Pooling"
  bottom: "pool3/3x3_s2"
  top: "inception_4a/pool"
  pooling_param {
    pool: MAX
    kernel_size: 3
    stride: 1
    pad: 1
  }
}
layer {
  name: "inception_4a/pool_proj"
  type: "Convolution"
  bottom: "inception_4a/pool"
  top: "inception_4a/pool_proj"
  param {
    lr_mult: 1
    decay_mult: 1
  }
  param {
    lr_mult: 2
    decay_mult: 0
  }
  convolution_param {
    num_output: 64
    kernel_size: 1
    weight_filler {
      type: "xavier"
      std: 0.1
    }
    bias_filler {
      type: "constant"
      value: 0.2
    }
  }
}
layer {
  name: "inception_4a/relu_pool_proj"
  type: "ReLU"
  bottom: "inception_4a/pool_proj"
  top: "inception_4a/pool_proj"
}
layer {
  name: "inception_4a/output"
  type: "Concat"
  bottom: "inception_4a/1x1"
  bottom: "inception_4a/3x3"
  bottom: "inception_4a/5x5"
  bottom: "inception_4a/pool_proj"
  top: "inception_4a/output"
}
layer {
  name: "loss1/ave_pool"
  type: "Pooling"
  bottom: "inception_4a/output"
  top: "loss1/ave_pool"
  pooling_param {
    pool: AVE
    kernel_size: 5
    stride: 3
  }
}
layer {
  name: "loss1/conv"
  type: "Convolution"
  bottom: "loss1/ave_pool"
  top: "loss1/conv"
  param {
    lr_mult: 1
    decay_mult: 1
  }
  param {
    lr_mult: 2
    decay_mult: 0
  }
  convolution_param {
    num_output: 128
    kernel_size: 1
    weight_filler {
      type: "xavier"
      std: 0.08
    }
    bias_filler {
      type: "constant"
      value: 0.2
    }
  }
}
layer {
  name: "loss1/relu_conv"
  type: "ReLU"
  bottom: "loss1/conv"
  top: "loss1/conv"
}
layer {
  name: "loss1/fc"
  type: "InnerProduct"
  bottom: "loss1/conv"
  top: "loss1/fc"
  param {
    lr_mult: 1
    decay_mult: 1
  }
  param {
    lr_mult: 2
    decay_mult: 0
  }
  inner_product_param {
    num_output: 1024
    weight_filler {
      type: "xavier"
      std: 0.02
    }
    bias_filler {
      type: "constant"
      value: 0.2
    }
  }
}
layer {
  name: "loss1/relu_fc"
  type: "ReLU"
  bottom: "loss1/fc"
  top: "loss1/fc"
}
layer {
  name: "loss1/drop_fc"
  type: "Dropout"
  bottom: "loss1/fc"
  top: "loss1/fc"
  dropout_param {
    dropout_ratio: 0.7
  }
}
layer {
  name: "loss1/classifier_plantvillage"
  type: "InnerProduct"
  bottom: "loss1/fc"
  top: "loss1/classifier_plantvillage"
  param {
    lr_mult: 1
    decay_mult: 1
  }
  param {
    lr_mult: 2
    decay_mult: 0
  }
  inner_product_param {
    num_output: 38
    weight_filler {
      type: "xavier"
      std: 0.0009765625
    }
    bias_filler {
      type: "constant"
      value: 0
    }
  }
}
layer {
  name: "inception_4b/1x1"
  type: "Convolution"
  bottom: "inception_4a/output"
  top: "inception_4b/1x1"
  param {
    lr_mult: 1
    decay_mult: 1
  }
  param {
    lr_mult: 2
    decay_mult: 0
  }
  convolution_param {
    num_output: 160
    kernel_size: 1
    weight_filler {
      type: "xavier"
      std: 0.03
    }
    bias_filler {
      type: "constant"
      value: 0.2
    }
  }
}
layer {
  name: "inception_4b/relu_1x1"
  type: "ReLU"
  bottom: "inception_4b/1x1"
  top: "inception_4b/1x1"
}
layer {
  name: "inception_4b/3x3_reduce"
  type: "Convolution"
  bottom: "inception_4a/output"
  top: "inception_4b/3x3_reduce"
  param {
    lr_mult: 1
    decay_mult: 1
  }
  param {
    lr_mult: 2
    decay_mult: 0
  }
  convolution_param {
    num_output: 112
    kernel_size: 1
    weight_filler {
      type: "xavier"
      std: 0.09
    }
    bias_filler {
      type: "constant"
      value: 0.2
    }
  }
}
layer {
  name: "inception_4b/relu_3x3_reduce"
  type: "ReLU"
  bottom: "inception_4b/3x3_reduce"
  top: "inception_4b/3x3_reduce"
}
layer {
  name: "inception_4b/3x3"
  type: "Convolution"
  bottom: "inception_4b/3x3_reduce"
  top: "inception_4b/3x3"
  param {
    lr_mult: 1
    decay_mult: 1
  }
  param {
    lr_mult: 2
    decay_mult: 0
  }
  convolution_param {
    num_output: 224
    pad: 1
    kernel_size: 3
    weight_filler {
      type: "xavier"
      std: 0.03
    }
    bias_filler {
      type: "constant"
      value: 0.2
    }
  }
}
layer {
  name: "inception_4b/relu_3x3"
  type: "ReLU"
  bottom: "inception_4b/3x3"
  top: "inception_4b/3x3"
}
layer {
  name: "inception_4b/5x5_reduce"
  type: "Convolution"
  bottom: "inception_4a/output"
  top: "inception_4b/5x5_reduce"
  param {
    lr_mult: 1
    decay_mult: 1
  }
  param {
    lr_mult: 2
    decay_mult: 0
  }
  convolution_param {
    num_output: 24
    kernel_size: 1
    weight_filler {
      type: "xavier"
      std: 0.2
    }
    bias_filler {
      type: "constant"
      value: 0.2
    }
  }
}
layer {
  name: "inception_4b/relu_5x5_reduce"
  type: "ReLU"
  bottom: "inception_4b/5x5_reduce"
  top: "inception_4b/5x5_reduce"
}
layer {
  name: "inception_4b/5x5"
  type: "Convolution"
  bottom: "inception_4b/5x5_reduce"
  top: "inception_4b/5x5"
  param {
    lr_mult: 1
    decay_mult: 1
  }
  param {
    lr_mult: 2
    decay_mult: 0
  }
  convolution_param {
    num_output: 64
    pad: 2
    kernel_size: 5
    weight_filler {
      type: "xavier"
      std: 0.03
    }
    bias_filler {
      type: "constant"
      value: 0.2
    }
  }
}
layer {
  name: "inception_4b/relu_5x5"
  type: "ReLU"
  bottom: "inception_4b/5x5"
  top: "inception_4b/5x5"
}
layer {
  name: "inception_4b/pool"
  type: "Pooling"
  bottom: "inception_4a/output"
  top: "inception_4b/pool"
  pooling_param {
    pool: MAX
    kernel_size: 3
    stride: 1
    pad: 1
  }
}
layer {
  name: "inception_4b/pool_proj"
  type: "Convolution"
  bottom: "inception_4b/pool"
  top: "inception_4b/pool_proj"
  param {
    lr_mult: 1
    decay_mult: 1
  }
  param {
    lr_mult: 2
    decay_mult: 0
  }
  convolution_param {
    num_output: 64
    kernel_size: 1
    weight_filler {
      type: "xavier"
      std: 0.1
    }
    bias_filler {
      type: "constant"
      value: 0.2
    }
  }
}
layer {
  name: "inception_4b/relu_pool_proj"
  type: "ReLU"
  bottom: "inception_4b/pool_proj"
  top: "inception_4b/pool_proj"
}
layer {
  name: "inception_4b/output"
  type: "Concat"
  bottom: "inception_4b/1x1"
  bottom: "inception_4b/3x3"
  bottom: "inception_4b/5x5"
  bottom: "inception_4b/pool_proj"
  top: "inception_4b/output"
}
layer {
  name: "inception_4c/1x1"
  type: "Convolution"
  bottom: "inception_4b/output"
  top: "inception_4c/1x1"
  param {
    lr_mult: 1
    decay_mult: 1
  }
  param {
    lr_mult: 2
    decay_mult: 0
  }
  convolution_param {
    num_output: 128
    kernel_size: 1
    weight_filler {
      type: "xavier"
      std: 0.03
    }
    bias_filler {
      type: "constant"
      value: 0.2
    }
  }
}
layer {
  name: "inception_4c/relu_1x1"
  type: "ReLU"
  bottom: "inception_4c/1x1"
  top: "inception_4c/1x1"
}
layer {
  name: "inception_4c/3x3_reduce"
  type: "Convolution"
  bottom: "inception_4b/output"
  top: "inception_4c/3x3_reduce"
  param {
    lr_mult: 1
    decay_mult: 1
  }
  param {
    lr_mult: 2
    decay_mult: 0
  }
  convolution_param {
    num_output: 128
    kernel_size: 1
    weight_filler {
      type: "xavier"
      std: 0.09
    }
    bias_filler {
      type: "constant"
      value: 0.2
    }
  }
}
layer {
  name: "inception_4c/relu_3x3_reduce"
  type: "ReLU"
  bottom: "inception_4c/3x3_reduce"
  top: "inception_4c/3x3_reduce"
}
layer {
  name: "inception_4c/3x3"
  type: "Convolution"
  bottom: "inception_4c/3x3_reduce"
  top: "inception_4c/3x3"
  param {
    lr_mult: 1
    decay_mult: 1
  }
  param {
    lr_mult: 2
    decay_mult: 0
  }
  convolution_param {
    num_output: 256
    pad: 1
    kernel_size: 3
    weight_filler {
      type: "xavier"
      std: 0.03
    }
    bias_filler {
      type: "constant"
      value: 0.2
    }
  }
}
layer {
  name: "inception_4c/relu_3x3"
  type: "ReLU"
  bottom: "inception_4c/3x3"
  top: "inception_4c/3x3"
}
layer {
  name: "inception_4c/5x5_reduce"
  type: "Convolution"
  bottom: "inception_4b/output"
  top: "inception_4c/5x5_reduce"
  param {
    lr_mult: 1
    decay_mult: 1
  }
  param {
    lr_mult: 2
    decay_mult: 0
  }
  convolution_param {
    num_output: 24
    kernel_size: 1
    weight_filler {
      type: "xavier"
      std: 0.2
    }
    bias_filler {
      type: "constant"
      value: 0.2
    }
  }
}
layer {
  name: "inception_4c/relu_5x5_reduce"
  type: "ReLU"
  bottom: "inception_4c/5x5_reduce"
  top: "inception_4c/5x5_reduce"
}
layer {
  name: "inception_4c/5x5"
  type: "Convolution"
  bottom: "inception_4c/5x5_reduce"
  top: "inception_4c/5x5"
  param {
    lr_mult: 1
    decay_mult: 1
  }
  param {
    lr_mult: 2
    decay_mult: 0
  }
  convolution_param {
    num_output: 64
    pad: 2
    kernel_size: 5
    weight_filler {
      type: "xavier"
      std: 0.03
    }
    bias_filler {
      type: "constant"
      value: 0.2
    }
  }
}
layer {
  name: "inception_4c/relu_5x5"
  type: "ReLU"
  bottom: "inception_4c/5x5"
  top: "inception_4c/5x5"
}
layer {
  name: "inception_4c/pool"
  type: "Pooling"
  bottom: "inception_4b/output"
  top: "inception_4c/pool"
  pooling_param {
    pool: MAX
    kernel_size: 3
    stride: 1
    pad: 1
  }
}
layer {
  name: "inception_4c/pool_proj"
  type: "Convolution"
  bottom: "inception_4c/pool"
  top: "inception_4c/pool_proj"
  param {
    lr_mult: 1
    decay_mult: 1
  }
  param {
    lr_mult: 2
    decay_mult: 0
  }
  convolution_param {
    num_output: 64
    kernel_size: 1
    weight_filler {
      type: "xavier"
      std: 0.1
    }
    bias_filler {
      type: "constant"
      value: 0.2
    }
  }
}
layer {
  name: "inception_4c/relu_pool_proj"
  type: "ReLU"
  bottom: "inception_4c/pool_proj"
  top: "inception_4c/pool_proj"
}
layer {
  name: "inception_4c/output"
  type: "Concat"
  bottom: "inception_4c/1x1"
  bottom: "inception_4c/3x3"
  bottom: "inception_4c/5x5"
  bottom: "inception_4c/pool_proj"
  top: "inception_4c/output"
}
layer {
  name: "inception_4d/1x1"
  type: "Convolution"
  bottom: "inception_4c/output"
  top: "inception_4d/1x1"
  param {
    lr_mult: 1
    decay_mult: 1
  }
  param {
    lr_mult: 2
    decay_mult: 0
  }
  convolution_param {
    num_output: 112
    kernel_size: 1
    weight_filler {
      type: "xavier"
      std: 0.03
    }
    bias_filler {
      type: "constant"
      value: 0.2
    }
  }
}
layer {
  name: "inception_4d/relu_1x1"
  type: "ReLU"
  bottom: "inception_4d/1x1"
  top: "inception_4d/1x1"
}
layer {
  name: "inception_4d/3x3_reduce"
  type: "Convolution"
  bottom: "inception_4c/output"
  top: "inception_4d/3x3_reduce"
  param {
    lr_mult: 1
    decay_mult: 1
  }
  param {
    lr_mult: 2
    decay_mult: 0
  }
  convolution_param {
    num_output: 144
    kernel_size: 1
    weight_filler {
      type: "xavier"
      std: 0.09
    }
    bias_filler {
      type: "constant"
      value: 0.2
    }
  }
}
layer {
  name: "inception_4d/relu_3x3_reduce"
  type: "ReLU"
  bottom: "inception_4d/3x3_reduce"
  top: "inception_4d/3x3_reduce"
}
layer {
  name: "inception_4d/3x3"
  type: "Convolution"
  bottom: "inception_4d/3x3_reduce"
  top: "inception_4d/3x3"
  param {
    lr_mult: 1
    decay_mult: 1
  }
  param {
    lr_mult: 2
    decay_mult: 0
  }
  convolution_param {
    num_output: 288
    pad: 1
    kernel_size: 3
    weight_filler {
      type: "xavier"
      std: 0.03
    }
    bias_filler {
      type: "constant"
      value: 0.2
    }
  }
}
layer {
  name: "inception_4d/relu_3x3"
  type: "ReLU"
  bottom: "inception_4d/3x3"
  top: "inception_4d/3x3"
}
layer {
  name: "inception_4d/5x5_reduce"
  type: "Convolution"
  bottom: "inception_4c/output"
  top: "inception_4d/5x5_reduce"
  param {
    lr_mult: 1
    decay_mult: 1
  }
  param {
    lr_mult: 2
    decay_mult: 0
  }
  convolution_param {
    num_output: 32
    kernel_size: 1
    weight_filler {
      type: "xavier"
      std: 0.2
    }
    bias_filler {
      type: "constant"
      value: 0.2
    }
  }
}
layer {
  name: "inception_4d/relu_5x5_reduce"
  type: "ReLU"
  bottom: "inception_4d/5x5_reduce"
  top: "inception_4d/5x5_reduce"
}
layer {
  name: "inception_4d/5x5"
  type: "Convolution"
  bottom: "inception_4d/5x5_reduce"
  top: "inception_4d/5x5"
  param {
    lr_mult: 1
    decay_mult: 1
  }
  param {
    lr_mult: 2
    decay_mult: 0
  }
  convolution_param {
    num_output: 64
    pad: 2
    kernel_size: 5
    weight_filler {
      type: "xavier"
      std: 0.03
    }
    bias_filler {
      type: "constant"
      value: 0.2
    }
  }
}
layer {
  name: "inception_4d/relu_5x5"
  type: "ReLU"
  bottom: "inception_4d/5x5"
  top: "inception_4d/5x5"
}
layer {
  name: "inception_4d/pool"
  type: "Pooling"
  bottom: "inception_4c/output"
  top: "inception_4d/pool"
  pooling_param {
    pool: MAX
    kernel_size: 3
    stride: 1
    pad: 1
  }
}
layer {
  name: "inception_4d/pool_proj"
  type: "Convolution"
  bottom: "inception_4d/pool"
  top: "inception_4d/pool_proj"
  param {
    lr_mult: 1
    decay_mult: 1
  }
  param {
    lr_mult: 2
    decay_mult: 0
  }
  convolution_param {
    num_output: 64
    kernel_size: 1
    weight_filler {
      type: "xavier"
      std: 0.1
    }
    bias_filler {
      type: "constant"
      value: 0.2
    }
  }
}
layer {
  name: "inception_4d/relu_pool_proj"
  type: "ReLU"
  bottom: "inception_4d/pool_proj"
  top: "inception_4d/pool_proj"
}
layer {
  name: "inception_4d/output"
  type: "Concat"
  bottom: "inception_4d/1x1"
  bottom: "inception_4d/3x3"
  bottom: "inception_4d/5x5"
  bottom: "inception_4d/pool_proj"
  top: "inception_4d/output"
}
layer {
  name: "loss2/ave_pool"
  type: "Pooling"
  bottom: "inception_4d/output"
  top: "loss2/ave_pool"
  pooling_param {
    pool: AVE
    kernel_size: 5
    stride: 3
  }
}
layer {
  name: "loss2/conv"
  type: "Convolution"
  bottom: "loss2/ave_pool"
  top: "loss2/conv"
  param {
    lr_mult: 1
    decay_mult: 1
  }
  param {
    lr_mult: 2
    decay_mult: 0
  }
  convolution_param {
    num_output: 128
    kernel_size: 1
    weight_filler {
      type: "xavier"
      std: 0.08
    }
    bias_filler {
      type: "constant"
      value: 0.2
    }
  }
}
layer {
  name: "loss2/relu_conv"
  type: "ReLU"
  bottom: "loss2/conv"
  top: "loss2/conv"
}
layer {
  name: "loss2/fc"
  type: "InnerProduct"
  bottom: "loss2/conv"
  top: "loss2/fc"
  param {
    lr_mult: 1
    decay_mult: 1
  }
  param {
    lr_mult: 2
    decay_mult: 0
  }
  inner_product_param {
    num_output: 1024
    weight_filler {
      type: "xavier"
      std: 0.02
    }
    bias_filler {
      type: "constant"
      value: 0.2
    }
  }
}
layer {
  name: "loss2/relu_fc"
  type: "ReLU"
  bottom: "loss2/fc"
  top: "loss2/fc"
}
layer {
  name: "loss2/drop_fc"
  type: "Dropout"
  bottom: "loss2/fc"
  top: "loss2/fc"
  dropout_param {
    dropout_ratio: 0.7
  }
}
layer {
  name: "loss2/classifier_plantvillage"
  type: "InnerProduct"
  bottom: "loss2/fc"
  top: "loss2/classifier_plantvillage"
  param {
    lr_mult: 1
    decay_mult: 1
  }
  param {
    lr_mult: 2
    decay_mult: 0
  }
  inner_product_param {
    num_output: 38
    weight_filler {
      type: "xavier"
      std: 0.0009765625
    }
    bias_filler {
      type: "constant"
      value: 0
    }
  }
}
layer {
  name: "inception_4e/1x1"
  type: "Convolution"
  bottom: "inception_4d/output"
  top: "inception_4e/1x1"
  param {
    lr_mult: 1
    decay_mult: 1
  }
  param {
    lr_mult: 2
    decay_mult: 0
  }
  convolution_param {
    num_output: 256
    kernel_size: 1
    weight_filler {
      type: "xavier"
      std: 0.03
    }
    bias_filler {
      type: "constant"
      value: 0.2
    }
  }
}
layer {
  name: "inception_4e/relu_1x1"
  type: "ReLU"
  bottom: "inception_4e/1x1"
  top: "inception_4e/1x1"
}
layer {
  name: "inception_4e/3x3_reduce"
  type: "Convolution"
  bottom: "inception_4d/output"
  top: "inception_4e/3x3_reduce"
  param {
    lr_mult: 1
    decay_mult: 1
  }
  param {
    lr_mult: 2
    decay_mult: 0
  }
  convolution_param {
    num_output: 160
    kernel_size: 1
    weight_filler {
      type: "xavier"
      std: 0.09
    }
    bias_filler {
      type: "constant"
      value: 0.2
    }
  }
}
layer {
  name: "inception_4e/relu_3x3_reduce"
  type: "ReLU"
  bottom: "inception_4e/3x3_reduce"
  top: "inception_4e/3x3_reduce"
}
layer {
  name: "inception_4e/3x3"
  type: "Convolution"
  bottom: "inception_4e/3x3_reduce"
  top: "inception_4e/3x3"
  param {
    lr_mult: 1
    decay_mult: 1
  }
  param {
    lr_mult: 2
    decay_mult: 0
  }
  convolution_param {
    num_output: 320
    pad: 1
    kernel_size: 3
    weight_filler {
      type: "xavier"
      std: 0.03
    }
    bias_filler {
      type: "constant"
      value: 0.2
    }
  }
}
layer {
  name: "inception_4e/relu_3x3"
  type: "ReLU"
  bottom: "inception_4e/3x3"
  top: "inception_4e/3x3"
}
layer {
  name: "inception_4e/5x5_reduce"
  type: "Convolution"
  bottom: "inception_4d/output"
  top: "inception_4e/5x5_reduce"
  param {
    lr_mult: 1
    decay_mult: 1
  }
  param {
    lr_mult: 2
    decay_mult: 0
  }
  convolution_param {
    num_output: 32
    kernel_size: 1
    weight_filler {
      type: "xavier"
      std: 0.2
    }
    bias_filler {
      type: "constant"
      value: 0.2
    }
  }
}
layer {
  name: "inception_4e/relu_5x5_reduce"
  type: "ReLU"
  bottom: "inception_4e/5x5_reduce"
  top: "inception_4e/5x5_reduce"
}
layer {
  name: "inception_4e/5x5"
  type: "Convolution"
  bottom: "inception_4e/5x5_reduce"
  top: "inception_4e/5x5"
  p
I0403 16:33:45.157424 18690 layer_factory.hpp:77] Creating layer data
I0403 16:33:45.158148 18690 net.cpp:91] Creating Layer data
I0403 16:33:45.158187 18690 net.cpp:399] data -> data
I0403 16:33:45.158247 18690 net.cpp:399] data -> label
I0403 16:33:45.158291 18690 data_transformer.cpp:25] Loading mean file from: /home/mohanty/data/final_dataset/lmdb/color-20-80/mean.binaryproto
I0403 16:33:45.159636 18693 db_lmdb.cpp:38] Opened lmdb /home/mohanty/data/final_dataset/lmdb/color-20-80/test_db
I0403 16:33:45.173775 18690 data_layer.cpp:41] output data size: 24,3,224,224
I0403 16:33:45.205790 18690 net.cpp:141] Setting up data
I0403 16:33:45.205878 18690 net.cpp:148] Top shape: 24 3 224 224 (3612672)
I0403 16:33:45.205906 18690 net.cpp:148] Top shape: 24 (24)
I0403 16:33:45.205925 18690 net.cpp:156] Memory required for data: 14450784
I0403 16:33:45.205958 18690 layer_factory.hpp:77] Creating layer label_data_1_split
I0403 16:33:45.205991 18690 net.cpp:91] Creating Layer label_data_1_split
I0403 16:33:45.206012 18690 net.cpp:425] label_data_1_split <- label
I0403 16:33:45.206051 18690 net.cpp:399] label_data_1_split -> label_data_1_split_0
I0403 16:33:45.206084 18690 net.cpp:399] label_data_1_split -> label_data_1_split_1
I0403 16:33:45.206110 18690 net.cpp:399] label_data_1_split -> label_data_1_split_2
I0403 16:33:45.206136 18690 net.cpp:399] label_data_1_split -> label_data_1_split_3
I0403 16:33:45.206161 18690 net.cpp:399] label_data_1_split -> label_data_1_split_4
I0403 16:33:45.206185 18690 net.cpp:399] label_data_1_split -> label_data_1_split_5
I0403 16:33:45.206208 18690 net.cpp:399] label_data_1_split -> label_data_1_split_6
I0403 16:33:45.206233 18690 net.cpp:399] label_data_1_split -> label_data_1_split_7
I0403 16:33:45.206256 18690 net.cpp:399] label_data_1_split -> label_data_1_split_8
I0403 16:33:45.206280 18690 net.cpp:399] label_data_1_split -> label_data_1_split_9
I0403 16:33:45.206419 18690 net.cpp:141] Setting up label_data_1_split
I0403 16:33:45.206449 18690 net.cpp:148] Top shape: 24 (24)
I0403 16:33:45.206468 18690 net.cpp:148] Top shape: 24 (24)
I0403 16:33:45.206488 18690 net.cpp:148] Top shape: 24 (24)
I0403 16:33:45.206506 18690 net.cpp:148] Top shape: 24 (24)
I0403 16:33:45.206526 18690 net.cpp:148] Top shape: 24 (24)
I0403 16:33:45.206543 18690 net.cpp:148] Top shape: 24 (24)
I0403 16:33:45.206562 18690 net.cpp:148] Top shape: 24 (24)
I0403 16:33:45.206586 18690 net.cpp:148] Top shape: 24 (24)
I0403 16:33:45.206606 18690 net.cpp:148] Top shape: 24 (24)
I0403 16:33:45.206625 18690 net.cpp:148] Top shape: 24 (24)
I0403 16:33:45.206677 18690 net.cpp:156] Memory required for data: 14451744
I0403 16:33:45.206697 18690 layer_factory.hpp:77] Creating layer conv1/7x7_s2
I0403 16:33:45.206735 18690 net.cpp:91] Creating Layer conv1/7x7_s2
I0403 16:33:45.206758 18690 net.cpp:425] conv1/7x7_s2 <- data
I0403 16:33:45.206782 18690 net.cpp:399] conv1/7x7_s2 -> conv1/7x7_s2
I0403 16:33:45.373589 18690 net.cpp:141] Setting up conv1/7x7_s2
I0403 16:33:45.373675 18690 net.cpp:148] Top shape: 24 64 112 112 (19267584)
I0403 16:33:45.373697 18690 net.cpp:156] Memory required for data: 91522080
I0403 16:33:45.373733 18690 layer_factory.hpp:77] Creating layer conv1/relu_7x7
I0403 16:33:45.373777 18690 net.cpp:91] Creating Layer conv1/relu_7x7
I0403 16:33:45.373803 18690 net.cpp:425] conv1/relu_7x7 <- conv1/7x7_s2
I0403 16:33:45.373827 18690 net.cpp:386] conv1/relu_7x7 -> conv1/7x7_s2 (in-place)
I0403 16:33:45.374135 18690 net.cpp:141] Setting up conv1/relu_7x7
I0403 16:33:45.374167 18690 net.cpp:148] Top shape: 24 64 112 112 (19267584)
I0403 16:33:45.374187 18690 net.cpp:156] Memory required for data: 168592416
I0403 16:33:45.374205 18690 layer_factory.hpp:77] Creating layer pool1/3x3_s2
I0403 16:33:45.374236 18690 net.cpp:91] Creating Layer pool1/3x3_s2
I0403 16:33:45.374259 18690 net.cpp:425] pool1/3x3_s2 <- conv1/7x7_s2
I0403 16:33:45.374281 18690 net.cpp:399] pool1/3x3_s2 -> pool1/3x3_s2
I0403 16:33:45.374371 18690 net.cpp:141] Setting up pool1/3x3_s2
I0403 16:33:45.374399 18690 net.cpp:148] Top shape: 24 64 56 56 (4816896)
I0403 16:33:45.374418 18690 net.cpp:156] Memory required for data: 187860000
I0403 16:33:45.374436 18690 layer_factory.hpp:77] Creating layer pool1/norm1
I0403 16:33:45.374465 18690 net.cpp:91] Creating Layer pool1/norm1
I0403 16:33:45.374488 18690 net.cpp:425] pool1/norm1 <- pool1/3x3_s2
I0403 16:33:45.374510 18690 net.cpp:399] pool1/norm1 -> pool1/norm1
I0403 16:33:45.374855 18690 net.cpp:141] Setting up pool1/norm1
I0403 16:33:45.374889 18690 net.cpp:148] Top shape: 24 64 56 56 (4816896)
I0403 16:33:45.374907 18690 net.cpp:156] Memory required for data: 207127584
I0403 16:33:45.374927 18690 layer_factory.hpp:77] Creating layer conv2/3x3_reduce
I0403 16:33:45.374958 18690 net.cpp:91] Creating Layer conv2/3x3_reduce
I0403 16:33:45.374979 18690 net.cpp:425] conv2/3x3_reduce <- pool1/norm1
I0403 16:33:45.375000 18690 net.cpp:399] conv2/3x3_reduce -> conv2/3x3_reduce
I0403 16:33:45.376576 18690 net.cpp:141] Setting up conv2/3x3_reduce
I0403 16:33:45.376613 18690 net.cpp:148] Top shape: 24 64 56 56 (4816896)
I0403 16:33:45.376633 18690 net.cpp:156] Memory required for data: 226395168
I0403 16:33:45.376659 18690 layer_factory.hpp:77] Creating layer conv2/relu_3x3_reduce
I0403 16:33:45.376683 18690 net.cpp:91] Creating Layer conv2/relu_3x3_reduce
I0403 16:33:45.376704 18690 net.cpp:425] conv2/relu_3x3_reduce <- conv2/3x3_reduce
I0403 16:33:45.376724 18690 net.cpp:386] conv2/relu_3x3_reduce -> conv2/3x3_reduce (in-place)
I0403 16:33:45.377032 18690 net.cpp:141] Setting up conv2/relu_3x3_reduce
I0403 16:33:45.377064 18690 net.cpp:148] Top shape: 24 64 56 56 (4816896)
I0403 16:33:45.377084 18690 net.cpp:156] Memory required for data: 245662752
I0403 16:33:45.377101 18690 layer_factory.hpp:77] Creating layer conv2/3x3
I0403 16:33:45.377128 18690 net.cpp:91] Creating Layer conv2/3x3
I0403 16:33:45.377149 18690 net.cpp:425] conv2/3x3 <- conv2/3x3_reduce
I0403 16:33:45.377171 18690 net.cpp:399] conv2/3x3 -> conv2/3x3
I0403 16:33:45.379863 18690 net.cpp:141] Setting up conv2/3x3
I0403 16:33:45.379899 18690 net.cpp:148] Top shape: 24 192 56 56 (14450688)
I0403 16:33:45.379919 18690 net.cpp:156] Memory required for data: 303465504
I0403 16:33:45.379945 18690 layer_factory.hpp:77] Creating layer conv2/relu_3x3
I0403 16:33:45.379967 18690 net.cpp:91] Creating Layer conv2/relu_3x3
I0403 16:33:45.379987 18690 net.cpp:425] conv2/relu_3x3 <- conv2/3x3
I0403 16:33:45.380012 18690 net.cpp:386] conv2/relu_3x3 -> conv2/3x3 (in-place)
I0403 16:33:45.380230 18690 net.cpp:141] Setting up conv2/relu_3x3
I0403 16:33:45.380261 18690 net.cpp:148] Top shape: 24 192 56 56 (14450688)
I0403 16:33:45.380313 18690 net.cpp:156] Memory required for data: 361268256
I0403 16:33:45.380333 18690 layer_factory.hpp:77] Creating layer conv2/norm2
I0403 16:33:45.380358 18690 net.cpp:91] Creating Layer conv2/norm2
I0403 16:33:45.380378 18690 net.cpp:425] conv2/norm2 <- conv2/3x3
I0403 16:33:45.380400 18690 net.cpp:399] conv2/norm2 -> conv2/norm2
I0403 16:33:45.380772 18690 net.cpp:141] Setting up conv2/norm2
I0403 16:33:45.380810 18690 net.cpp:148] Top shape: 24 192 56 56 (14450688)
I0403 16:33:45.380831 18690 net.cpp:156] Memory required for data: 419071008
I0403 16:33:45.380849 18690 layer_factory.hpp:77] Creating layer pool2/3x3_s2
I0403 16:33:45.380872 18690 net.cpp:91] Creating Layer pool2/3x3_s2
I0403 16:33:45.380890 18690 net.cpp:425] pool2/3x3_s2 <- conv2/norm2
I0403 16:33:45.380914 18690 net.cpp:399] pool2/3x3_s2 -> pool2/3x3_s2
I0403 16:33:45.380980 18690 net.cpp:141] Setting up pool2/3x3_s2
I0403 16:33:45.381007 18690 net.cpp:148] Top shape: 24 192 28 28 (3612672)
I0403 16:33:45.381026 18690 net.cpp:156] Memory required for data: 433521696
I0403 16:33:45.381042 18690 layer_factory.hpp:77] Creating layer pool2/3x3_s2_pool2/3x3_s2_0_split
I0403 16:33:45.381067 18690 net.cpp:91] Creating Layer pool2/3x3_s2_pool2/3x3_s2_0_split
I0403 16:33:45.381086 18690 net.cpp:425] pool2/3x3_s2_pool2/3x3_s2_0_split <- pool2/3x3_s2
I0403 16:33:45.381108 18690 net.cpp:399] pool2/3x3_s2_pool2/3x3_s2_0_split -> pool2/3x3_s2_pool2/3x3_s2_0_split_0
I0403 16:33:45.381134 18690 net.cpp:399] pool2/3x3_s2_pool2/3x3_s2_0_split -> pool2/3x3_s2_pool2/3x3_s2_0_split_1
I0403 16:33:45.381157 18690 net.cpp:399] pool2/3x3_s2_pool2/3x3_s2_0_split -> pool2/3x3_s2_pool2/3x3_s2_0_split_2
I0403 16:33:45.381186 18690 net.cpp:399] pool2/3x3_s2_pool2/3x3_s2_0_split -> pool2/3x3_s2_pool2/3x3_s2_0_split_3
I0403 16:33:45.381276 18690 net.cpp:141] Setting up pool2/3x3_s2_pool2/3x3_s2_0_split
I0403 16:33:45.381304 18690 net.cpp:148] Top shape: 24 192 28 28 (3612672)
I0403 16:33:45.381325 18690 net.cpp:148] Top shape: 24 192 28 28 (3612672)
I0403 16:33:45.381345 18690 net.cpp:148] Top shape: 24 192 28 28 (3612672)
I0403 16:33:45.381363 18690 net.cpp:148] Top shape: 24 192 28 28 (3612672)
I0403 16:33:45.381381 18690 net.cpp:156] Memory required for data: 491324448
I0403 16:33:45.381397 18690 layer_factory.hpp:77] Creating layer inception_3a/1x1
I0403 16:33:45.381423 18690 net.cpp:91] Creating Layer inception_3a/1x1
I0403 16:33:45.381444 18690 net.cpp:425] inception_3a/1x1 <- pool2/3x3_s2_pool2/3x3_s2_0_split_0
I0403 16:33:45.381470 18690 net.cpp:399] inception_3a/1x1 -> inception_3a/1x1
I0403 16:33:45.383298 18690 net.cpp:141] Setting up inception_3a/1x1
I0403 16:33:45.383337 18690 net.cpp:148] Top shape: 24 64 28 28 (1204224)
I0403 16:33:45.383358 18690 net.cpp:156] Memory required for data: 496141344
I0403 16:33:45.383381 18690 layer_factory.hpp:77] Creating layer inception_3a/relu_1x1
I0403 16:33:45.383404 18690 net.cpp:91] Creating Layer inception_3a/relu_1x1
I0403 16:33:45.383422 18690 net.cpp:425] inception_3a/relu_1x1 <- inception_3a/1x1
I0403 16:33:45.383446 18690 net.cpp:386] inception_3a/relu_1x1 -> inception_3a/1x1 (in-place)
I0403 16:33:45.383662 18690 net.cpp:141] Setting up inception_3a/relu_1x1
I0403 16:33:45.383694 18690 net.cpp:148] Top shape: 24 64 28 28 (1204224)
I0403 16:33:45.383713 18690 net.cpp:156] Memory required for data: 500958240
I0403 16:33:45.383731 18690 layer_factory.hpp:77] Creating layer inception_3a/3x3_reduce
I0403 16:33:45.383759 18690 net.cpp:91] Creating Layer inception_3a/3x3_reduce
I0403 16:33:45.383780 18690 net.cpp:425] inception_3a/3x3_reduce <- pool2/3x3_s2_pool2/3x3_s2_0_split_1
I0403 16:33:45.383806 18690 net.cpp:399] inception_3a/3x3_reduce -> inception_3a/3x3_reduce
I0403 16:33:45.385824 18690 net.cpp:141] Setting up inception_3a/3x3_reduce
I0403 16:33:45.385861 18690 net.cpp:148] Top shape: 24 96 28 28 (1806336)
I0403 16:33:45.385881 18690 net.cpp:156] Memory required for data: 508183584
I0403 16:33:45.385908 18690 layer_factory.hpp:77] Creating layer inception_3a/relu_3x3_reduce
I0403 16:33:45.385953 18690 net.cpp:91] Creating Layer inception_3a/relu_3x3_reduce
I0403 16:33:45.385977 18690 net.cpp:425] inception_3a/relu_3x3_reduce <- inception_3a/3x3_reduce
I0403 16:33:45.385999 18690 net.cpp:386] inception_3a/relu_3x3_reduce -> inception_3a/3x3_reduce (in-place)
I0403 16:33:45.386215 18690 net.cpp:141] Setting up inception_3a/relu_3x3_reduce
I0403 16:33:45.386250 18690 net.cpp:148] Top shape: 24 96 28 28 (1806336)
I0403 16:33:45.386270 18690 net.cpp:156] Memory required for data: 515408928
I0403 16:33:45.386287 18690 layer_factory.hpp:77] Creating layer inception_3a/3x3
I0403 16:33:45.386315 18690 net.cpp:91] Creating Layer inception_3a/3x3
I0403 16:33:45.386337 18690 net.cpp:425] inception_3a/3x3 <- inception_3a/3x3_reduce
I0403 16:33:45.386359 18690 net.cpp:399] inception_3a/3x3 -> inception_3a/3x3
I0403 16:33:45.388367 18690 net.cpp:141] Setting up inception_3a/3x3
I0403 16:33:45.388402 18690 net.cpp:148] Top shape: 24 128 28 28 (2408448)
I0403 16:33:45.388422 18690 net.cpp:156] Memory required for data: 525042720
I0403 16:33:45.388444 18690 layer_factory.hpp:77] Creating layer inception_3a/relu_3x3
I0403 16:33:45.388470 18690 net.cpp:91] Creating Layer inception_3a/relu_3x3
I0403 16:33:45.388491 18690 net.cpp:425] inception_3a/relu_3x3 <- inception_3a/3x3
I0403 16:33:45.388512 18690 net.cpp:386] inception_3a/relu_3x3 -> inception_3a/3x3 (in-place)
I0403 16:33:45.388857 18690 net.cpp:141] Setting up inception_3a/relu_3x3
I0403 16:33:45.388891 18690 net.cpp:148] Top shape: 24 128 28 28 (2408448)
I0403 16:33:45.388909 18690 net.cpp:156] Memory required for data: 534676512
I0403 16:33:45.388928 18690 layer_factory.hpp:77] Creating layer inception_3a/5x5_reduce
I0403 16:33:45.388959 18690 net.cpp:91] Creating Layer inception_3a/5x5_reduce
I0403 16:33:45.388980 18690 net.cpp:425] inception_3a/5x5_reduce <- pool2/3x3_s2_pool2/3x3_s2_0_split_2
I0403 16:33:45.389008 18690 net.cpp:399] inception_3a/5x5_reduce -> inception_3a/5x5_reduce
I0403 16:33:45.390177 18690 net.cpp:141] Setting up inception_3a/5x5_reduce
I0403 16:33:45.390210 18690 net.cpp:148] Top shape: 24 16 28 28 (301056)
I0403 16:33:45.390230 18690 net.cpp:156] Memory required for data: 535880736
I0403 16:33:45.390254 18690 layer_factory.hpp:77] Creating layer inception_3a/relu_5x5_reduce
I0403 16:33:45.390278 18690 net.cpp:91] Creating Layer inception_3a/relu_5x5_reduce
I0403 16:33:45.390298 18690 net.cpp:425] inception_3a/relu_5x5_reduce <- inception_3a/5x5_reduce
I0403 16:33:45.390321 18690 net.cpp:386] inception_3a/relu_5x5_reduce -> inception_3a/5x5_reduce (in-place)
I0403 16:33:45.390676 18690 net.cpp:141] Setting up inception_3a/relu_5x5_reduce
I0403 16:33:45.390707 18690 net.cpp:148] Top shape: 24 16 28 28 (301056)
I0403 16:33:45.390725 18690 net.cpp:156] Memory required for data: 537084960
I0403 16:33:45.390744 18690 layer_factory.hpp:77] Creating layer inception_3a/5x5
I0403 16:33:45.390771 18690 net.cpp:91] Creating Layer inception_3a/5x5
I0403 16:33:45.390796 18690 net.cpp:425] inception_3a/5x5 <- inception_3a/5x5_reduce
I0403 16:33:45.390822 18690 net.cpp:399] inception_3a/5x5 -> inception_3a/5x5
I0403 16:33:45.392060 18690 net.cpp:141] Setting up inception_3a/5x5
I0403 16:33:45.392093 18690 net.cpp:148] Top shape: 24 32 28 28 (602112)
I0403 16:33:45.392112 18690 net.cpp:156] Memory required for data: 539493408
I0403 16:33:45.392135 18690 layer_factory.hpp:77] Creating layer inception_3a/relu_5x5
I0403 16:33:45.392158 18690 net.cpp:91] Creating Layer inception_3a/relu_5x5
I0403 16:33:45.392177 18690 net.cpp:425] inception_3a/relu_5x5 <- inception_3a/5x5
I0403 16:33:45.392204 18690 net.cpp:386] inception_3a/relu_5x5 -> inception_3a/5x5 (in-place)
I0403 16:33:45.392412 18690 net.cpp:141] Setting up inception_3a/relu_5x5
I0403 16:33:45.392443 18690 net.cpp:148] Top shape: 24 32 28 28 (602112)
I0403 16:33:45.392460 18690 net.cpp:156] Memory required for data: 541901856
I0403 16:33:45.392479 18690 layer_factory.hpp:77] Creating layer inception_3a/pool
I0403 16:33:45.392504 18690 net.cpp:91] Creating Layer inception_3a/pool
I0403 16:33:45.392525 18690 net.cpp:425] inception_3a/pool <- pool2/3x3_s2_pool2/3x3_s2_0_split_3
I0403 16:33:45.392565 18690 net.cpp:399] inception_3a/pool -> inception_3a/pool
I0403 16:33:45.392650 18690 net.cpp:141] Setting up inception_3a/pool
I0403 16:33:45.392680 18690 net.cpp:148] Top shape: 24 192 28 28 (3612672)
I0403 16:33:45.392699 18690 net.cpp:156] Memory required for data: 556352544
I0403 16:33:45.392717 18690 layer_factory.hpp:77] Creating layer inception_3a/pool_proj
I0403 16:33:45.392745 18690 net.cpp:91] Creating Layer inception_3a/pool_proj
I0403 16:33:45.392765 18690 net.cpp:425] inception_3a/pool_proj <- inception_3a/pool
I0403 16:33:45.392792 18690 net.cpp:399] inception_3a/pool_proj -> inception_3a/pool_proj
I0403 16:33:45.393972 18690 net.cpp:141] Setting up inception_3a/pool_proj
I0403 16:33:45.394007 18690 net.cpp:148] Top shape: 24 32 28 28 (602112)
I0403 16:33:45.394026 18690 net.cpp:156] Memory required for data: 558760992
I0403 16:33:45.394055 18690 layer_factory.hpp:77] Creating layer inception_3a/relu_pool_proj
I0403 16:33:45.394083 18690 net.cpp:91] Creating Layer inception_3a/relu_pool_proj
I0403 16:33:45.394104 18690 net.cpp:425] inception_3a/relu_pool_proj <- inception_3a/pool_proj
I0403 16:33:45.394124 18690 net.cpp:386] inception_3a/relu_pool_proj -> inception_3a/pool_proj (in-place)
I0403 16:33:45.394457 18690 net.cpp:141] Setting up inception_3a/relu_pool_proj
I0403 16:33:45.394490 18690 net.cpp:148] Top shape: 24 32 28 28 (602112)
I0403 16:33:45.394508 18690 net.cpp:156] Memory required for data: 561169440
I0403 16:33:45.394527 18690 layer_factory.hpp:77] Creating layer inception_3a/output
I0403 16:33:45.394548 18690 net.cpp:91] Creating Layer inception_3a/output
I0403 16:33:45.394567 18690 net.cpp:425] inception_3a/output <- inception_3a/1x1
I0403 16:33:45.394606 18690 net.cpp:425] inception_3a/output <- inception_3a/3x3
I0403 16:33:45.394629 18690 net.cpp:425] inception_3a/output <- inception_3a/5x5
I0403 16:33:45.394649 18690 net.cpp:425] inception_3a/output <- inception_3a/pool_proj
I0403 16:33:45.394672 18690 net.cpp:399] inception_3a/output -> inception_3a/output
I0403 16:33:45.394729 18690 net.cpp:141] Setting up inception_3a/output
I0403 16:33:45.394762 18690 net.cpp:148] Top shape: 24 256 28 28 (4816896)
I0403 16:33:45.394780 18690 net.cpp:156] Memory required for data: 580437024
I0403 16:33:45.394799 18690 layer_factory.hpp:77] Creating layer inception_3a/output_inception_3a/output_0_split
I0403 16:33:45.394820 18690 net.cpp:91] Creating Layer inception_3a/output_inception_3a/output_0_split
I0403 16:33:45.394839 18690 net.cpp:425] inception_3a/output_inception_3a/output_0_split <- inception_3a/output
I0403 16:33:45.394862 18690 net.cpp:399] inception_3a/output_inception_3a/output_0_split -> inception_3a/output_inception_3a/output_0_split_0
I0403 16:33:45.394888 18690 net.cpp:399] inception_3a/output_inception_3a/output_0_split -> inception_3a/output_inception_3a/output_0_split_1
I0403 16:33:45.394915 18690 net.cpp:399] inception_3a/output_inception_3a/output_0_split -> inception_3a/output_inception_3a/output_0_split_2
I0403 16:33:45.394944 18690 net.cpp:399] inception_3a/output_inception_3a/output_0_split -> inception_3a/output_inception_3a/output_0_split_3
I0403 16:33:45.395073 18690 net.cpp:141] Setting up inception_3a/output_inception_3a/output_0_split
I0403 16:33:45.395102 18690 net.cpp:148] Top shape: 24 256 28 28 (4816896)
I0403 16:33:45.395123 18690 net.cpp:148] Top shape: 24 256 28 28 (4816896)
I0403 16:33:45.395143 18690 net.cpp:148] Top shape: 24 256 28 28 (4816896)
I0403 16:33:45.395161 18690 net.cpp:148] Top shape: 24 256 28 28 (4816896)
I0403 16:33:45.395177 18690 net.cpp:156] Memory required for data: 657507360
I0403 16:33:45.395195 18690 layer_factory.hpp:77] Creating layer inception_3b/1x1
I0403 16:33:45.395222 18690 net.cpp:91] Creating Layer inception_3b/1x1
I0403 16:33:45.395244 18690 net.cpp:425] inception_3b/1x1 <- inception_3a/output_inception_3a/output_0_split_0
I0403 16:33:45.395270 18690 net.cpp:399] inception_3b/1x1 -> inception_3b/1x1
I0403 16:33:45.396661 18690 net.cpp:141] Setting up inception_3b/1x1
I0403 16:33:45.396711 18690 net.cpp:148] Top shape: 24 128 28 28 (2408448)
I0403 16:33:45.396733 18690 net.cpp:156] Memory required for data: 667141152
I0403 16:33:45.396754 18690 layer_factory.hpp:77] Creating layer inception_3b/relu_1x1
I0403 16:33:45.396777 18690 net.cpp:91] Creating Layer inception_3b/relu_1x1
I0403 16:33:45.396797 18690 net.cpp:425] inception_3b/relu_1x1 <- inception_3b/1x1
I0403 16:33:45.396822 18690 net.cpp:386] inception_3b/relu_1x1 -> inception_3b/1x1 (in-place)
I0403 16:33:45.397039 18690 net.cpp:141] Setting up inception_3b/relu_1x1
I0403 16:33:45.397070 18690 net.cpp:148] Top shape: 24 128 28 28 (2408448)
I0403 16:33:45.397089 18690 net.cpp:156] Memory required for data: 676774944
I0403 16:33:45.397107 18690 layer_factory.hpp:77] Creating layer inception_3b/3x3_reduce
I0403 16:33:45.397135 18690 net.cpp:91] Creating Layer inception_3b/3x3_reduce
I0403 16:33:45.397156 18690 net.cpp:425] inception_3b/3x3_reduce <- inception_3a/output_inception_3a/output_0_split_1
I0403 16:33:45.397184 18690 net.cpp:399] inception_3b/3x3_reduce -> inception_3b/3x3_reduce
I0403 16:33:45.398563 18690 net.cpp:141] Setting up inception_3b/3x3_reduce
I0403 16:33:45.398607 18690 net.cpp:148] Top shape: 24 128 28 28 (2408448)
I0403 16:33:45.398629 18690 net.cpp:156] Memory required for data: 686408736
I0403 16:33:45.398653 18690 layer_factory.hpp:77] Creating layer inception_3b/relu_3x3_reduce
I0403 16:33:45.398675 18690 net.cpp:91] Creating Layer inception_3b/relu_3x3_reduce
I0403 16:33:45.398696 18690 net.cpp:425] inception_3b/relu_3x3_reduce <- inception_3b/3x3_reduce
I0403 16:33:45.398721 18690 net.cpp:386] inception_3b/relu_3x3_reduce -> inception_3b/3x3_reduce (in-place)
I0403 16:33:45.398931 18690 net.cpp:141] Setting up inception_3b/relu_3x3_reduce
I0403 16:33:45.398962 18690 net.cpp:148] Top shape: 24 128 28 28 (2408448)
I0403 16:33:45.398980 18690 net.cpp:156] Memory required for data: 696042528
I0403 16:33:45.398999 18690 layer_factory.hpp:77] Creating layer inception_3b/3x3
I0403 16:33:45.399030 18690 net.cpp:91] Creating Layer inception_3b/3x3
I0403 16:33:45.399052 18690 net.cpp:425] inception_3b/3x3 <- inception_3b/3x3_reduce
I0403 16:33:45.399075 18690 net.cpp:399] inception_3b/3x3 -> inception_3b/3x3
I0403 16:33:45.402590 18690 net.cpp:141] Setting up inception_3b/3x3
I0403 16:33:45.402626 18690 net.cpp:148] Top shape: 24 192 28 28 (3612672)
I0403 16:33:45.402645 18690 net.cpp:156] Memory required for data: 710493216
I0403 16:33:45.402668 18690 layer_factory.hpp:77] Creating layer inception_3b/relu_3x3
I0403 16:33:45.402695 18690 net.cpp:91] Creating Layer inception_3b/relu_3x3
I0403 16:33:45.402719 18690 net.cpp:425] inception_3b/relu_3x3 <- inception_3b/3x3
I0403 16:33:45.402740 18690 net.cpp:386] inception_3b/relu_3x3 -> inception_3b/3x3 (in-place)
I0403 16:33:45.403069 18690 net.cpp:141] Setting up inception_3b/relu_3x3
I0403 16:33:45.403101 18690 net.cpp:148] Top shape: 24 192 28 28 (3612672)
I0403 16:33:45.403120 18690 net.cpp:156] Memory required for data: 724943904
I0403 16:33:45.403139 18690 layer_factory.hpp:77] Creating layer inception_3b/5x5_reduce
I0403 16:33:45.403168 18690 net.cpp:91] Creating Layer inception_3b/5x5_reduce
I0403 16:33:45.403190 18690 net.cpp:425] inception_3b/5x5_reduce <- inception_3a/output_inception_3a/output_0_split_2
I0403 16:33:45.403216 18690 net.cpp:399] inception_3b/5x5_reduce -> inception_3b/5x5_reduce
I0403 16:33:45.404413 18690 net.cpp:141] Setting up inception_3b/5x5_reduce
I0403 16:33:45.404448 18690 net.cpp:148] Top shape: 24 32 28 28 (602112)
I0403 16:33:45.404466 18690 net.cpp:156] Memory required for data: 727352352
I0403 16:33:45.404489 18690 layer_factory.hpp:77] Creating layer inception_3b/relu_5x5_reduce
I0403 16:33:45.404510 18690 net.cpp:91] Creating Layer inception_3b/relu_5x5_reduce
I0403 16:33:45.404534 18690 net.cpp:425] inception_3b/relu_5x5_reduce <- inception_3b/5x5_reduce
I0403 16:33:45.404556 18690 net.cpp:386] inception_3b/relu_5x5_reduce -> inception_3b/5x5_reduce (in-place)
I0403 16:33:45.404783 18690 net.cpp:141] Setting up inception_3b/relu_5x5_reduce
I0403 16:33:45.404830 18690 net.cpp:148] Top shape: 24 32 28 28 (602112)
I0403 16:33:45.404850 18690 net.cpp:156] Memory required for data: 729760800
I0403 16:33:45.404868 18690 layer_factory.hpp:77] Creating layer inception_3b/5x5
I0403 16:33:45.404896 18690 net.cpp:91] Creating Layer inception_3b/5x5
I0403 16:33:45.404917 18690 net.cpp:425] inception_3b/5x5 <- inception_3b/5x5_reduce
I0403 16:33:45.404944 18690 net.cpp:399] inception_3b/5x5 -> inception_3b/5x5
I0403 16:33:45.407308 18690 net.cpp:141] Setting up inception_3b/5x5
I0403 16:33:45.407347 18690 net.cpp:148] Top shape: 24 96 28 28 (1806336)
I0403 16:33:45.407369 18690 net.cpp:156] Memory required for data: 736986144
I0403 16:33:45.407392 18690 layer_factory.hpp:77] Creating layer inception_3b/relu_5x5
I0403 16:33:45.407414 18690 net.cpp:91] Creating Layer inception_3b/relu_5x5
I0403 16:33:45.407433 18690 net.cpp:425] inception_3b/relu_5x5 <- inception_3b/5x5
I0403 16:33:45.407459 18690 net.cpp:386] inception_3b/relu_5x5 -> inception_3b/5x5 (in-place)
I0403 16:33:45.407698 18690 net.cpp:141] Setting up inception_3b/relu_5x5
I0403 16:33:45.407729 18690 net.cpp:148] Top shape: 24 96 28 28 (1806336)
I0403 16:33:45.407749 18690 net.cpp:156] Memory required for data: 744211488
I0403 16:33:45.407768 18690 layer_factory.hpp:77] Creating layer inception_3b/pool
I0403 16:33:45.407790 18690 net.cpp:91] Creating Layer inception_3b/pool
I0403 16:33:45.407810 18690 net.cpp:425] inception_3b/pool <- inception_3a/output_inception_3a/output_0_split_3
I0403 16:33:45.407834 18690 net.cpp:399] inception_3b/pool -> inception_3b/pool
I0403 16:33:45.407902 18690 net.cpp:141] Setting up inception_3b/pool
I0403 16:33:45.407929 18690 net.cpp:148] Top shape: 24 256 28 28 (4816896)
I0403 16:33:45.407948 18690 net.cpp:156] Memory required for data: 763479072
I0403 16:33:45.407966 18690 layer_factory.hpp:77] Creating layer inception_3b/pool_proj
I0403 16:33:45.407996 18690 net.cpp:91] Creating Layer inception_3b/pool_proj
I0403 16:33:45.408018 18690 net.cpp:425] inception_3b/pool_proj <- inception_3b/pool
I0403 16:33:45.408042 18690 net.cpp:399] inception_3b/pool_proj -> inception_3b/pool_proj
I0403 16:33:45.409322 18690 net.cpp:141] Setting up inception_3b/pool_proj
I0403 16:33:45.409355 18690 net.cpp:148] Top shape: 24 64 28 28 (1204224)
I0403 16:33:45.409375 18690 net.cpp:156] Memory required for data: 768295968
I0403 16:33:45.409396 18690 layer_factory.hpp:77] Creating layer inception_3b/relu_pool_proj
I0403 16:33:45.409423 18690 net.cpp:91] Creating Layer inception_3b/relu_pool_proj
I0403 16:33:45.409446 18690 net.cpp:425] inception_3b/relu_pool_proj <- inception_3b/pool_proj
I0403 16:33:45.409468 18690 net.cpp:386] inception_3b/relu_pool_proj -> inception_3b/pool_proj (in-place)
I0403 16:33:45.409951 18690 net.cpp:141] Setting up inception_3b/relu_pool_proj
I0403 16:33:45.409983 18690 net.cpp:148] Top shape: 24 64 28 28 (1204224)
I0403 16:33:45.410002 18690 net.cpp:156] Memory required for data: 773112864
I0403 16:33:45.410022 18690 layer_factory.hpp:77] Creating layer inception_3b/output
I0403 16:33:45.410044 18690 net.cpp:91] Creating Layer inception_3b/output
I0403 16:33:45.410064 18690 net.cpp:425] inception_3b/output <- inception_3b/1x1
I0403 16:33:45.410086 18690 net.cpp:425] inception_3b/output <- inception_3b/3x3
I0403 16:33:45.410106 18690 net.cpp:425] inception_3b/output <- inception_3b/5x5
I0403 16:33:45.410125 18690 net.cpp:425] inception_3b/output <- inception_3b/pool_proj
I0403 16:33:45.410145 18690 net.cpp:399] inception_3b/output -> inception_3b/output
I0403 16:33:45.410202 18690 net.cpp:141] Setting up inception_3b/output
I0403 16:33:45.410230 18690 net.cpp:148] Top shape: 24 480 28 28 (9031680)
I0403 16:33:45.410248 18690 net.cpp:156] Memory required for data: 809239584
I0403 16:33:45.410266 18690 layer_factory.hpp:77] Creating layer pool3/3x3_s2
I0403 16:33:45.410287 18690 net.cpp:91] Creating Layer pool3/3x3_s2
I0403 16:33:45.410305 18690 net.cpp:425] pool3/3x3_s2 <- inception_3b/output
I0403 16:33:45.410331 18690 net.cpp:399] pool3/3x3_s2 -> pool3/3x3_s2
I0403 16:33:45.410418 18690 net.cpp:141] Setting up pool3/3x3_s2
I0403 16:33:45.410450 18690 net.cpp:148] Top shape: 24 480 14 14 (2257920)
I0403 16:33:45.410468 18690 net.cpp:156] Memory required for data: 818271264
I0403 16:33:45.410486 18690 layer_factory.hpp:77] Creating layer pool3/3x3_s2_pool3/3x3_s2_0_split
I0403 16:33:45.410507 18690 net.cpp:91] Creating Layer pool3/3x3_s2_pool3/3x3_s2_0_split
I0403 16:33:45.410526 18690 net.cpp:425] pool3/3x3_s2_pool3/3x3_s2_0_split <- pool3/3x3_s2
I0403 16:33:45.410548 18690 net.cpp:399] pool3/3x3_s2_pool3/3x3_s2_0_split -> pool3/3x3_s2_pool3/3x3_s2_0_split_0
I0403 16:33:45.410578 18690 net.cpp:399] pool3/3x3_s2_pool3/3x3_s2_0_split -> pool3/3x3_s2_pool3/3x3_s2_0_split_1
I0403 16:33:45.410609 18690 net.cpp:399] pool3/3x3_s2_pool3/3x3_s2_0_split -> pool3/3x3_s2_pool3/3x3_s2_0_split_2
I0403 16:33:45.410635 18690 net.cpp:399] pool3/3x3_s2_pool3/3x3_s2_0_split -> pool3/3x3_s2_pool3/3x3_s2_0_split_3
I0403 16:33:45.410732 18690 net.cpp:141] Setting up pool3/3x3_s2_pool3/3x3_s2_0_split
I0403 16:33:45.410760 18690 net.cpp:148] Top shape: 24 480 14 14 (2257920)
I0403 16:33:45.410780 18690 net.cpp:148] Top shape: 24 480 14 14 (2257920)
I0403 16:33:45.410800 18690 net.cpp:148] Top shape: 24 480 14 14 (2257920)
I0403 16:33:45.410820 18690 net.cpp:148] Top shape: 24 480 14 14 (2257920)
I0403 16:33:45.410835 18690 net.cpp:156] Memory required for data: 854397984
I0403 16:33:45.410853 18690 layer_factory.hpp:77] Creating layer inception_4a/1x1
I0403 16:33:45.410881 18690 net.cpp:91] Creating Layer inception_4a/1x1
I0403 16:33:45.410902 18690 net.cpp:425] inception_4a/1x1 <- pool3/3x3_s2_pool3/3x3_s2_0_split_0
I0403 16:33:45.410928 18690 net.cpp:399] inception_4a/1x1 -> inception_4a/1x1
I0403 16:33:45.412832 18690 net.cpp:141] Setting up inception_4a/1x1
I0403 16:33:45.412868 18690 net.cpp:148] Top shape: 24 192 14 14 (903168)
I0403 16:33:45.412889 18690 net.cpp:156] Memory required for data: 858010656
I0403 16:33:45.412909 18690 layer_factory.hpp:77] Creating layer inception_4a/relu_1x1
I0403 16:33:45.412935 18690 net.cpp:91] Creating Layer inception_4a/relu_1x1
I0403 16:33:45.412957 18690 net.cpp:425] inception_4a/relu_1x1 <- inception_4a/1x1
I0403 16:33:45.412979 18690 net.cpp:386] inception_4a/relu_1x1 -> inception_4a/1x1 (in-place)
I0403 16:33:45.413193 18690 net.cpp:141] Setting up inception_4a/relu_1x1
I0403 16:33:45.413223 18690 net.cpp:148] Top shape: 24 192 14 14 (903168)
I0403 16:33:45.413242 18690 net.cpp:156] Memory required for data: 861623328
I0403 16:33:45.413260 18690 layer_factory.hpp:77] Creating layer inception_4a/3x3_reduce
I0403 16:33:45.413287 18690 net.cpp:91] Creating Layer inception_4a/3x3_reduce
I0403 16:33:45.413310 18690 net.cpp:425] inception_4a/3x3_reduce <- pool3/3x3_s2_pool3/3x3_s2_0_split_1
I0403 16:33:45.413336 18690 net.cpp:399] inception_4a/3x3_reduce -> inception_4a/3x3_reduce
I0403 16:33:45.414898 18690 net.cpp:141] Setting up inception_4a/3x3_reduce
I0403 16:33:45.414933 18690 net.cpp:148] Top shape: 24 96 14 14 (451584)
I0403 16:33:45.414958 18690 net.cpp:156] Memory required for data: 863429664
I0403 16:33:45.414985 18690 layer_factory.hpp:77] Creating layer inception_4a/relu_3x3_reduce
I0403 16:33:45.415012 18690 net.cpp:91] Creating Layer inception_4a/relu_3x3_reduce
I0403 16:33:45.415035 18690 net.cpp:425] inception_4a/relu_3x3_reduce <- inception_4a/3x3_reduce
I0403 16:33:45.415056 18690 net.cpp:386] inception_4a/relu_3x3_reduce -> inception_4a/3x3_reduce (in-place)
I0403 16:33:45.415274 18690 net.cpp:141] Setting up inception_4a/relu_3x3_reduce
I0403 16:33:45.415308 18690 net.cpp:148] Top shape: 24 96 14 14 (451584)
I0403 16:33:45.415328 18690 net.cpp:156] Memory required for data: 865236000
I0403 16:33:45.415346 18690 layer_factory.hpp:77] Creating layer inception_4a/3x3
I0403 16:33:45.415374 18690 net.cpp:91] Creating Layer inception_4a/3x3
I0403 16:33:45.415395 18690 net.cpp:425] inception_4a/3x3 <- inception_4a/3x3_reduce
I0403 16:33:45.415418 18690 net.cpp:399] inception_4a/3x3 -> inception_4a/3x3
I0403 16:33:45.418669 18690 net.cpp:141] Setting up inception_4a/3x3
I0403 16:33:45.418710 18690 net.cpp:148] Top shape: 24 208 14 14 (978432)
I0403 16:33:45.418731 18690 net.cpp:156] Memory required for data: 869149728
I0403 16:33:45.418756 18690 layer_factory.hpp:77] Creating layer inception_4a/relu_3x3
I0403 16:33:45.418777 18690 net.cpp:91] Creating Layer inception_4a/relu_3x3
I0403 16:33:45.418797 18690 net.cpp:425] inception_4a/relu_3x3 <- inception_4a/3x3
I0403 16:33:45.418822 18690 net.cpp:386] inception_4a/relu_3x3 -> inception_4a/3x3 (in-place)
I0403 16:33:45.419152 18690 net.cpp:141] Setting up inception_4a/relu_3x3
I0403 16:33:45.419188 18690 net.cpp:148] Top shape: 24 208 14 14 (978432)
I0403 16:33:45.419209 18690 net.cpp:156] Memory required for data: 873063456
I0403 16:33:45.419227 18690 layer_factory.hpp:77] Creating layer inception_4a/5x5_reduce
I0403 16:33:45.419260 18690 net.cpp:91] Creating Layer inception_4a/5x5_reduce
I0403 16:33:45.419281 18690 net.cpp:425] inception_4a/5x5_reduce <- pool3/3x3_s2_pool3/3x3_s2_0_split_2
I0403 16:33:45.419306 18690 net.cpp:399] inception_4a/5x5_reduce -> inception_4a/5x5_reduce
I0403 16:33:45.420548 18690 net.cpp:141] Setting up inception_4a/5x5_reduce
I0403 16:33:45.420590 18690 net.cpp:148] Top shape: 24 16 14 14 (75264)
I0403 16:33:45.420611 18690 net.cpp:156] Memory required for data: 873364512
I0403 16:33:45.420634 18690 layer_factory.hpp:77] Creating layer inception_4a/relu_5x5_reduce
I0403 16:33:45.420655 18690 net.cpp:91] Creating Layer inception_4a/relu_5x5_reduce
I0403 16:33:45.420675 18690 net.cpp:425] inception_4a/relu_5x5_reduce <- inception_4a/5x5_reduce
I0403 16:33:45.420699 18690 net.cpp:386] inception_4a/relu_5x5_reduce -> inception_4a/5x5_reduce (in-place)
I0403 16:33:45.420917 18690 net.cpp:141] Setting up inception_4a/relu_5x5_reduce
I0403 16:33:45.420948 18690 net.cpp:148] Top shape: 24 16 14 14 (75264)
I0403 16:33:45.420965 18690 net.cpp:156] Memory required for data: 873665568
I0403 16:33:45.420984 18690 layer_factory.hpp:77] Creating layer inception_4a/5x5
I0403 16:33:45.421012 18690 net.cpp:91] Creating Layer inception_4a/5x5
I0403 16:33:45.421035 18690 net.cpp:425] inception_4a/5x5 <- inception_4a/5x5_reduce
I0403 16:33:45.421061 18690 net.cpp:399] inception_4a/5x5 -> inception_4a/5x5
I0403 16:33:45.422377 18690 net.cpp:141] Setting up inception_4a/5x5
I0403 16:33:45.422412 18690 net.cpp:148] Top shape: 24 48 14 14 (225792)
I0403 16:33:45.422431 18690 net.cpp:156] Memory required for data: 874568736
I0403 16:33:45.422453 18690 layer_factory.hpp:77] Creating layer inception_4a/relu_5x5
I0403 16:33:45.422478 18690 net.cpp:91] Creating Layer inception_4a/relu_5x5
I0403 16:33:45.422499 18690 net.cpp:425] inception_4a/relu_5x5 <- inception_4a/5x5
I0403 16:33:45.422520 18690 net.cpp:386] inception_4a/relu_5x5 -> inception_4a/5x5 (in-place)
I0403 16:33:45.422742 18690 net.cpp:141] Setting up inception_4a/relu_5x5
I0403 16:33:45.422777 18690 net.cpp:148] Top shape: 24 48 14 14 (225792)
I0403 16:33:45.422798 18690 net.cpp:156] Memory required for data: 875471904
I0403 16:33:45.422817 18690 layer_factory.hpp:77] Creating layer inception_4a/pool
I0403 16:33:45.422839 18690 net.cpp:91] Creating Layer inception_4a/pool
I0403 16:33:45.422858 18690 net.cpp:425] inception_4a/pool <- pool3/3x3_s2_pool3/3x3_s2_0_split_3
I0403 16:33:45.422884 18690 net.cpp:399] inception_4a/pool -> inception_4a/pool
I0403 16:33:45.422960 18690 net.cpp:141] Setting up inception_4a/pool
I0403 16:33:45.422991 18690 net.cpp:148] Top shape: 24 480 14 14 (2257920)
I0403 16:33:45.423008 18690 net.cpp:156] Memory required for data: 884503584
I0403 16:33:45.423025 18690 layer_factory.hpp:77] Creating layer inception_4a/pool_proj
I0403 16:33:45.423053 18690 net.cpp:91] Creating Layer inception_4a/pool_proj
I0403 16:33:45.423074 18690 net.cpp:425] inception_4a/pool_proj <- inception_4a/pool
I0403 16:33:45.423102 18690 net.cpp:399] inception_4a/pool_proj -> inception_4a/pool_proj
I0403 16:33:45.424520 18690 net.cpp:141] Setting up inception_4a/pool_proj
I0403 16:33:45.424554 18690 net.cpp:148] Top shape: 24 64 14 14 (301056)
I0403 16:33:45.424607 18690 net.cpp:156] Memory required for data: 885707808
I0403 16:33:45.424633 18690 layer_factory.hpp:77] Creating layer inception_4a/relu_pool_proj
I0403 16:33:45.424660 18690 net.cpp:91] Creating Layer inception_4a/relu_pool_proj
I0403 16:33:45.424681 18690 net.cpp:425] inception_4a/relu_pool_proj <- inception_4a/pool_proj
I0403 16:33:45.424703 18690 net.cpp:386] inception_4a/relu_pool_proj -> inception_4a/pool_proj (in-place)
I0403 16:33:45.425046 18690 net.cpp:141] Setting up inception_4a/relu_pool_proj
I0403 16:33:45.425078 18690 net.cpp:148] Top shape: 24 64 14 14 (301056)
I0403 16:33:45.425097 18690 net.cpp:156] Memory required for data: 886912032
I0403 16:33:45.425115 18690 layer_factory.hpp:77] Creating layer inception_4a/output
I0403 16:33:45.425140 18690 net.cpp:91] Creating Layer inception_4a/output
I0403 16:33:45.425160 18690 net.cpp:425] inception_4a/output <- inception_4a/1x1
I0403 16:33:45.425181 18690 net.cpp:425] inception_4a/output <- inception_4a/3x3
I0403 16:33:45.425201 18690 net.cpp:425] inception_4a/output <- inception_4a/5x5
I0403 16:33:45.425220 18690 net.cpp:425] inception_4a/output <- inception_4a/pool_proj
I0403 16:33:45.425241 18690 net.cpp:399] inception_4a/output -> inception_4a/output
I0403 16:33:45.425299 18690 net.cpp:141] Setting up inception_4a/output
I0403 16:33:45.425328 18690 net.cpp:148] Top shape: 24 512 14 14 (2408448)
I0403 16:33:45.425346 18690 net.cpp:156] Memory required for data: 896545824
I0403 16:33:45.425364 18690 layer_factory.hpp:77] Creating layer inception_4a/output_inception_4a/output_0_split
I0403 16:33:45.425385 18690 net.cpp:91] Creating Layer inception_4a/output_inception_4a/output_0_split
I0403 16:33:45.425405 18690 net.cpp:425] inception_4a/output_inception_4a/output_0_split <- inception_4a/output
I0403 16:33:45.425429 18690 net.cpp:399] inception_4a/output_inception_4a/output_0_split -> inception_4a/output_inception_4a/output_0_split_0
I0403 16:33:45.425456 18690 net.cpp:399] inception_4a/output_inception_4a/output_0_split -> inception_4a/output_inception_4a/output_0_split_1
I0403 16:33:45.425482 18690 net.cpp:399] inception_4a/output_inception_4a/output_0_split -> inception_4a/output_inception_4a/output_0_split_2
I0403 16:33:45.425506 18690 net.cpp:399] inception_4a/output_inception_4a/output_0_split -> inception_4a/output_inception_4a/output_0_split_3
I0403 16:33:45.425530 18690 net.cpp:399] inception_4a/output_inception_4a/output_0_split -> inception_4a/output_inception_4a/output_0_split_4
I0403 16:33:45.425657 18690 net.cpp:141] Setting up inception_4a/output_inception_4a/output_0_split
I0403 16:33:45.425688 18690 net.cpp:148] Top shape: 24 512 14 14 (2408448)
I0403 16:33:45.425707 18690 net.cpp:148] Top shape: 24 512 14 14 (2408448)
I0403 16:33:45.425727 18690 net.cpp:148] Top shape: 24 512 14 14 (2408448)
I0403 16:33:45.425745 18690 net.cpp:148] Top shape: 24 512 14 14 (2408448)
I0403 16:33:45.425765 18690 net.cpp:148] Top shape: 24 512 14 14 (2408448)
I0403 16:33:45.425781 18690 net.cpp:156] Memory required for data: 944714784
I0403 16:33:45.425798 18690 layer_factory.hpp:77] Creating layer loss1/ave_pool
I0403 16:33:45.425820 18690 net.cpp:91] Creating Layer loss1/ave_pool
I0403 16:33:45.425838 18690 net.cpp:425] loss1/ave_pool <- inception_4a/output_inception_4a/output_0_split_0
I0403 16:33:45.425863 18690 net.cpp:399] loss1/ave_pool -> loss1/ave_pool
I0403 16:33:45.426115 18690 net.cpp:141] Setting up loss1/ave_pool
I0403 16:33:45.426147 18690 net.cpp:148] Top shape: 24 512 4 4 (196608)
I0403 16:33:45.426169 18690 net.cpp:156] Memory required for data: 945501216
I0403 16:33:45.426188 18690 layer_factory.hpp:77] Creating layer loss1/conv
I0403 16:33:45.426213 18690 net.cpp:91] Creating Layer loss1/conv
I0403 16:33:45.426234 18690 net.cpp:425] loss1/conv <- loss1/ave_pool
I0403 16:33:45.426259 18690 net.cpp:399] loss1/conv -> loss1/conv
I0403 16:33:45.427968 18690 net.cpp:141] Setting up loss1/conv
I0403 16:33:45.428007 18690 net.cpp:148] Top shape: 24 128 4 4 (49152)
I0403 16:33:45.428028 18690 net.cpp:156] Memory required for data: 945697824
I0403 16:33:45.428068 18690 layer_factory.hpp:77] Creating layer loss1/relu_conv
I0403 16:33:45.428093 18690 net.cpp:91] Creating Layer loss1/relu_conv
I0403 16:33:45.428113 18690 net.cpp:425] loss1/relu_conv <- loss1/conv
I0403 16:33:45.428138 18690 net.cpp:386] loss1/relu_conv -> loss1/conv (in-place)
I0403 16:33:45.428473 18690 net.cpp:141] Setting up loss1/relu_conv
I0403 16:33:45.428508 18690 net.cpp:148] Top shape: 24 128 4 4 (49152)
I0403 16:33:45.428526 18690 net.cpp:156] Memory required for data: 945894432
I0403 16:33:45.428545 18690 layer_factory.hpp:77] Creating layer loss1/fc
I0403 16:33:45.428580 18690 net.cpp:91] Creating Layer loss1/fc
I0403 16:33:45.428604 18690 net.cpp:425] loss1/fc <- loss1/conv
I0403 16:33:45.428632 18690 net.cpp:399] loss1/fc -> loss1/fc
I0403 16:33:45.450507 18690 net.cpp:141] Setting up loss1/fc
I0403 16:33:45.450548 18690 net.cpp:148] Top shape: 24 1024 (24576)
I0403 16:33:45.450568 18690 net.cpp:156] Memory required for data: 945992736
I0403 16:33:45.450599 18690 layer_factory.hpp:77] Creating layer loss1/relu_fc
I0403 16:33:45.450626 18690 net.cpp:91] Creating Layer loss1/relu_fc
I0403 16:33:45.450647 18690 net.cpp:425] loss1/relu_fc <- loss1/fc
I0403 16:33:45.450670 18690 net.cpp:386] loss1/relu_fc -> loss1/fc (in-place)
I0403 16:33:45.450892 18690 net.cpp:141] Setting up loss1/relu_fc
I0403 16:33:45.450924 18690 net.cpp:148] Top shape: 24 1024 (24576)
I0403 16:33:45.450942 18690 net.cpp:156] Memory required for data: 946091040
I0403 16:33:45.450959 18690 layer_factory.hpp:77] Creating layer loss1/drop_fc
I0403 16:33:45.450990 18690 net.cpp:91] Creating Layer loss1/drop_fc
I0403 16:33:45.451012 18690 net.cpp:425] loss1/drop_fc <- loss1/fc
I0403 16:33:45.451037 18690 net.cpp:386] loss1/drop_fc -> loss1/fc (in-place)
I0403 16:33:45.451100 18690 net.cpp:141] Setting up loss1/drop_fc
I0403 16:33:45.451129 18690 net.cpp:148] Top shape: 24 1024 (24576)
I0403 16:33:45.451148 18690 net.cpp:156] Memory required for data: 946189344
I0403 16:33:45.451165 18690 layer_factory.hpp:77] Creating layer loss1/classifier_plantvillage
I0403 16:33:45.451192 18690 net.cpp:91] Creating Layer loss1/classifier_plantvillage
I0403 16:33:45.451213 18690 net.cpp:425] loss1/classifier_plantvillage <- loss1/fc
I0403 16:33:45.451237 18690 net.cpp:399] loss1/classifier_plantvillage -> loss1/classifier_plantvillage
I0403 16:33:45.452318 18690 net.cpp:141] Setting up loss1/classifier_plantvillage
I0403 16:33:45.452353 18690 net.cpp:148] Top shape: 24 38 (912)
I0403 16:33:45.452373 18690 net.cpp:156] Memory required for data: 946192992
I0403 16:33:45.452395 18690 layer_factory.hpp:77] Creating layer loss1/classifier_plantvillage_loss1/classifier_plantvillage_0_split
I0403 16:33:45.452420 18690 net.cpp:91] Creating Layer loss1/classifier_plantvillage_loss1/classifier_plantvillage_0_split
I0403 16:33:45.452441 18690 net.cpp:425] loss1/classifier_plantvillage_loss1/classifier_plantvillage_0_split <- loss1/classifier_plantvillage
I0403 16:33:45.452464 18690 net.cpp:399] loss1/classifier_plantvillage_loss1/classifier_plantvillage_0_split -> loss1/classifier_plantvillage_loss1/classifier_plantvillage_0_split_0
I0403 16:33:45.452493 18690 net.cpp:399] loss1/classifier_plantvillage_loss1/classifier_plantvillage_0_split -> loss1/classifier_plantvillage_loss1/classifier_plantvillage_0_split_1
I0403 16:33:45.452518 18690 net.cpp:399] loss1/classifier_plantvillage_loss1/classifier_plantvillage_0_split -> loss1/classifier_plantvillage_loss1/classifier_plantvillage_0_split_2
I0403 16:33:45.452607 18690 net.cpp:141] Setting up loss1/classifier_plantvillage_loss1/classifier_plantvillage_0_split
I0403 16:33:45.452636 18690 net.cpp:148] Top shape: 24 38 (912)
I0403 16:33:45.452656 18690 net.cpp:148] Top shape: 24 38 (912)
I0403 16:33:45.452675 18690 net.cpp:148] Top shape: 24 38 (912)
I0403 16:33:45.452692 18690 net.cpp:156] Memory required for data: 946203936
I0403 16:33:45.452710 18690 layer_factory.hpp:77] Creating layer inception_4b/1x1
I0403 16:33:45.452739 18690 net.cpp:91] Creating Layer inception_4b/1x1
I0403 16:33:45.452778 18690 net.cpp:425] inception_4b/1x1 <- inception_4a/output_inception_4a/output_0_split_1
I0403 16:33:45.452802 18690 net.cpp:399] inception_4b/1x1 -> inception_4b/1x1
I0403 16:33:45.454804 18690 net.cpp:141] Setting up inception_4b/1x1
I0403 16:33:45.454843 18690 net.cpp:148] Top shape: 24 160 14 14 (752640)
I0403 16:33:45.454864 18690 net.cpp:156] Memory required for data: 949214496
I0403 16:33:45.454886 18690 layer_factory.hpp:77] Creating layer inception_4b/relu_1x1
I0403 16:33:45.454910 18690 net.cpp:91] Creating Layer inception_4b/relu_1x1
I0403 16:33:45.454929 18690 net.cpp:425] inception_4b/relu_1x1 <- inception_4b/1x1
I0403 16:33:45.454953 18690 net.cpp:386] inception_4b/relu_1x1 -> inception_4b/1x1 (in-place)
I0403 16:33:45.455171 18690 net.cpp:141] Setting up inception_4b/relu_1x1
I0403 16:33:45.455204 18690 net.cpp:148] Top shape: 24 160 14 14 (752640)
I0403 16:33:45.455221 18690 net.cpp:156] Memory required for data: 952225056
I0403 16:33:45.455240 18690 layer_factory.hpp:77] Creating layer inception_4b/3x3_reduce
I0403 16:33:45.455270 18690 net.cpp:91] Creating Layer inception_4b/3x3_reduce
I0403 16:33:45.455291 18690 net.cpp:425] inception_4b/3x3_reduce <- inception_4a/output_inception_4a/output_0_split_2
I0403 16:33:45.455319 18690 net.cpp:399] inception_4b/3x3_reduce -> inception_4b/3x3_reduce
I0403 16:33:45.456971 18690 net.cpp:141] Setting up inception_4b/3x3_reduce
I0403 16:33:45.457005 18690 net.cpp:148] Top shape: 24 112 14 14 (526848)
I0403 16:33:45.457025 18690 net.cpp:156] Memory required for data: 954332448
I0403 16:33:45.457047 18690 layer_factory.hpp:77] Creating layer inception_4b/relu_3x3_reduce
I0403 16:33:45.457072 18690 net.cpp:91] Creating Layer inception_4b/relu_3x3_reduce
I0403 16:33:45.457094 18690 net.cpp:425] inception_4b/relu_3x3_reduce <- inception_4b/3x3_reduce
I0403 16:33:45.457118 18690 net.cpp:386] inception_4b/relu_3x3_reduce -> inception_4b/3x3_reduce (in-place)
I0403 16:33:45.457458 18690 net.cpp:141] Setting up inception_4b/relu_3x3_reduce
I0403 16:33:45.457490 18690 net.cpp:148] Top shape: 24 112 14 14 (526848)
I0403 16:33:45.457509 18690 net.cpp:156] Memory required for data: 956439840
I0403 16:33:45.457527 18690 layer_factory.hpp:77] Creating layer inception_4b/3x3
I0403 16:33:45.457556 18690 net.cpp:91] Creating Layer inception_4b/3x3
I0403 16:33:45.457587 18690 net.cpp:425] inception_4b/3x3 <- inception_4b/3x3_reduce
I0403 16:33:45.457617 18690 net.cpp:399] inception_4b/3x3 -> inception_4b/3x3
I0403 16:33:45.461232 18690 net.cpp:141] Setting up inception_4b/3x3
I0403 16:33:45.461268 18690 net.cpp:148] Top shape: 24 224 14 14 (1053696)
I0403 16:33:45.461287 18690 net.cpp:156] Memory required for data: 960654624
I0403 16:33:45.461310 18690 layer_factory.hpp:77] Creating layer inception_4b/relu_3x3
I0403 16:33:45.461336 18690 net.cpp:91] Creating Layer inception_4b/relu_3x3
I0403 16:33:45.461357 18690 net.cpp:425] inception_4b/relu_3x3 <- inception_4b/3x3
I0403 16:33:45.461379 18690 net.cpp:386] inception_4b/relu_3x3 -> inception_4b/3x3 (in-place)
I0403 16:33:45.461607 18690 net.cpp:141] Setting up inception_4b/relu_3x3
I0403 16:33:45.461639 18690 net.cpp:148] Top shape: 24 224 14 14 (1053696)
I0403 16:33:45.461658 18690 net.cpp:156] Memory required for data: 964869408
I0403 16:33:45.461675 18690 layer_factory.hpp:77] Creating layer inception_4b/5x5_reduce
I0403 16:33:45.461702 18690 net.cpp:91] Creating Layer inception_4b/5x5_reduce
I0403 16:33:45.461724 18690 net.cpp:425] inception_4b/5x5_reduce <- inception_4a/output_inception_4a/output_0_split_3
I0403 16:33:45.461755 18690 net.cpp:399] inception_4b/5x5_reduce -> inception_4b/5x5_reduce
I0403 16:33:45.463075 18690 net.cpp:141] Setting up inception_4b/5x5_reduce
I0403 16:33:45.463110 18690 net.cpp:148] Top shape: 24 24 14 14 (112896)
I0403 16:33:45.463129 18690 net.cpp:156] Memory required for data: 965320992
I0403 16:33:45.463152 18690 layer_factory.hpp:77] Creating layer inception_4b/relu_5x5_reduce
I0403 16:33:45.463174 18690 net.cpp:91] Creating Layer inception_4b/relu_5x5_reduce
I0403 16:33:45.463212 18690 net.cpp:425] inception_4b/relu_5x5_reduce <- inception_4b/5x5_reduce
I0403 16:33:45.463238 18690 net.cpp:386] inception_4b/relu_5x5_reduce -> inception_4b/5x5_reduce (in-place)
I0403 16:33:45.463464 18690 net.cpp:141] Setting up inception_4b/relu_5x5_reduce
I0403 16:33:45.463495 18690 net.cpp:148] Top shape: 24 24 14 14 (112896)
I0403 16:33:45.463515 18690 net.cpp:156] Memory required for data: 965772576
I0403 16:33:45.463533 18690 layer_factory.hpp:77] Creating layer inception_4b/5x5
I0403 16:33:45.463560 18690 net.cpp:91] Creating Layer inception_4b/5x5
I0403 16:33:45.463590 18690 net.cpp:425] inception_4b/5x5 <- inception_4b/5x5_reduce
I0403 16:33:45.463618 18690 net.cpp:399] inception_4b/5x5 -> inception_4b/5x5
I0403 16:33:45.465122 18690 net.cpp:141] Setting up inception_4b/5x5
I0403 16:33:45.465160 18690 net.cpp:148] Top shape: 24 64 14 14 (301056)
I0403 16:33:45.465183 18690 net.cpp:156] Memory required for data: 966976800
I0403 16:33:45.465205 18690 layer_factory.hpp:77] Creating layer inception_4b/relu_5x5
I0403 16:33:45.465227 18690 net.cpp:91] Creating Layer inception_4b/relu_5x5
I0403 16:33:45.465248 18690 net.cpp:425] inception_4b/relu_5x5 <- inception_4b/5x5
I0403 16:33:45.465272 18690 net.cpp:386] inception_4b/relu_5x5 -> inception_4b/5x5 (in-place)
I0403 16:33:45.465621 18690 net.cpp:141] Setting up inception_4b/relu_5x5
I0403 16:33:45.465657 18690 net.cpp:148] Top shape: 24 64 14 14 (301056)
I0403 16:33:45.465677 18690 net.cpp:156] Memory required for data: 968181024
I0403 16:33:45.465694 18690 layer_factory.hpp:77] Creating layer inception_4b/pool
I0403 16:33:45.465716 18690 net.cpp:91] Creating Layer inception_4b/pool
I0403 16:33:45.465736 18690 net.cpp:425] inception_4b/pool <- inception_4a/output_inception_4a/output_0_split_4
I0403 16:33:45.465762 18690 net.cpp:399] inception_4b/pool -> inception_4b/pool
I0403 16:33:45.465842 18690 net.cpp:141] Setting up inception_4b/pool
I0403 16:33:45.465874 18690 net.cpp:148] Top shape: 24 512 14 14 (2408448)
I0403 16:33:45.465893 18690 net.cpp:156] Memory required for data: 977814816
I0403 16:33:45.465911 18690 layer_factory.hpp:77] Creating layer inception_4b/pool_proj
I0403 16:33:45.465941 18690 net.cpp:91] Creating Layer inception_4b/pool_proj
I0403 16:33:45.465963 18690 net.cpp:425] inception_4b/pool_proj <- inception_4b/pool
I0403 16:33:45.465986 18690 net.cpp:399] inception_4b/pool_proj -> inception_4b/pool_proj
I0403 16:33:45.467453 18690 net.cpp:141] Setting up inception_4b/pool_proj
I0403 16:33:45.467489 18690 net.cpp:148] Top shape: 24 64 14 14 (301056)
I0403 16:33:45.467507 18690 net.cpp:156] Memory required for data: 979019040
I0403 16:33:45.467530 18690 layer_factory.hpp:77] Creating layer inception_4b/relu_pool_proj
I0403 16:33:45.467551 18690 net.cpp:91] Creating Layer inception_4b/relu_pool_proj
I0403 16:33:45.467583 18690 net.cpp:425] inception_4b/relu_pool_proj <- inception_4b/pool_proj
I0403 16:33:45.467607 18690 net.cpp:386] inception_4b/relu_pool_proj -> inception_4b/pool_proj (in-place)
I0403 16:33:45.467828 18690 net.cpp:141] Setting up inception_4b/relu_pool_proj
I0403 16:33:45.467859 18690 net.cpp:148] Top shape: 24 64 14 14 (301056)
I0403 16:33:45.467877 18690 net.cpp:156] Memory required for data: 980223264
I0403 16:33:45.467895 18690 layer_factory.hpp:77] Creating layer inception_4b/output
I0403 16:33:45.467918 18690 net.cpp:91] Creating Layer inception_4b/output
I0403 16:33:45.467939 18690 net.cpp:425] inception_4b/output <- inception_4b/1x1
I0403 16:33:45.467960 18690 net.cpp:425] inception_4b/output <- inception_4b/3x3
I0403 16:33:45.467980 18690 net.cpp:425] inception_4b/output <- inception_4b/5x5
I0403 16:33:45.467999 18690 net.cpp:425] inception_4b/output <- inception_4b/pool_proj
I0403 16:33:45.468019 18690 net.cpp:399] inception_4b/output -> inception_4b/output
I0403 16:33:45.468077 18690 net.cpp:141] Setting up inception_4b/output
I0403 16:33:45.468107 18690 net.cpp:148] Top shape: 24 512 14 14 (2408448)
I0403 16:33:45.468124 18690 net.cpp:156] Memory required for data: 989857056
I0403 16:33:45.468159 18690 layer_factory.hpp:77] Creating layer inception_4b/output_inception_4b/output_0_split
I0403 16:33:45.468181 18690 net.cpp:91] Creating Layer inception_4b/output_inception_4b/output_0_split
I0403 16:33:45.468201 18690 net.cpp:425] inception_4b/output_inception_4b/output_0_split <- inception_4b/output
I0403 16:33:45.468225 18690 net.cpp:399] inception_4b/output_inception_4b/output_0_split -> inception_4b/output_inception_4b/output_0_split_0
I0403 16:33:45.468252 18690 net.cpp:399] inception_4b/output_inception_4b/output_0_split -> inception_4b/output_inception_4b/output_0_split_1
I0403 16:33:45.468277 18690 net.cpp:399] inception_4b/output_inception_4b/output_0_split -> inception_4b/output_inception_4b/output_0_split_2
I0403 16:33:45.468302 18690 net.cpp:399] inception_4b/output_inception_4b/output_0_split -> inception_4b/output_inception_4b/output_0_split_3
I0403 16:33:45.468406 18690 net.cpp:141] Setting up inception_4b/output_inception_4b/output_0_split
I0403 16:33:45.468438 18690 net.cpp:148] Top shape: 24 512 14 14 (2408448)
I0403 16:33:45.468459 18690 net.cpp:148] Top shape: 24 512 14 14 (2408448)
I0403 16:33:45.468479 18690 net.cpp:148] Top shape: 24 512 14 14 (2408448)
I0403 16:33:45.468498 18690 net.cpp:148] Top shape: 24 512 14 14 (2408448)
I0403 16:33:45.468516 18690 net.cpp:156] Memory required for data: 1028392224
I0403 16:33:45.468533 18690 layer_factory.hpp:77] Creating layer inception_4c/1x1
I0403 16:33:45.468560 18690 net.cpp:91] Creating Layer inception_4c/1x1
I0403 16:33:45.468588 18690 net.cpp:425] inception_4c/1x1 <- inception_4b/output_inception_4b/output_0_split_0
I0403 16:33:45.468613 18690 net.cpp:399] inception_4c/1x1 -> inception_4c/1x1
I0403 16:33:45.470366 18690 net.cpp:141] Setting up inception_4c/1x1
I0403 16:33:45.470399 18690 net.cpp:148] Top shape: 24 128 14 14 (602112)
I0403 16:33:45.470418 18690 net.cpp:156] Memory required for data: 1030800672
I0403 16:33:45.470441 18690 layer_factory.hpp:77] Creating layer inception_4c/relu_1x1
I0403 16:33:45.470468 18690 net.cpp:91] Creating Layer inception_4c/relu_1x1
I0403 16:33:45.470489 18690 net.cpp:425] inception_4c/relu_1x1 <- inception_4c/1x1
I0403 16:33:45.470511 18690 net.cpp:386] inception_4c/relu_1x1 -> inception_4c/1x1 (in-place)
I0403 16:33:45.470746 18690 net.cpp:141] Setting up inception_4c/relu_1x1
I0403 16:33:45.470779 18690 net.cpp:148] Top shape: 24 128 14 14 (602112)
I0403 16:33:45.470798 18690 net.cpp:156] Memory required for data: 1033209120
I0403 16:33:45.470816 18690 layer_factory.hpp:77] Creating layer inception_4c/3x3_reduce
I0403 16:33:45.470844 18690 net.cpp:91] Creating Layer inception_4c/3x3_reduce
I0403 16:33:45.470865 18690 net.cpp:425] inception_4c/3x3_reduce <- inception_4b/output_inception_4b/output_0_split_1
I0403 16:33:45.470890 18690 net.cpp:399] inception_4c/3x3_reduce -> inception_4c/3x3_reduce
I0403 16:33:45.473227 18690 net.cpp:141] Setting up inception_4c/3x3_reduce
I0403 16:33:45.473261 18690 net.cpp:148] Top shape: 24 128 14 14 (602112)
I0403 16:33:45.473283 18690 net.cpp:156] Memory required for data: 1035617568
I0403 16:33:45.473304 18690 layer_factory.hpp:77] Creating layer inception_4c/relu_3x3_reduce
I0403 16:33:45.473326 18690 net.cpp:91] Creating Layer inception_4c/relu_3x3_reduce
I0403 16:33:45.473346 18690 net.cpp:425] inception_4c/relu_3x3_reduce <- inception_4c/3x3_reduce
I0403 16:33:45.473371 18690 net.cpp:386] inception_4c/relu_3x3_reduce -> inception_4c/3x3_reduce (in-place)
I0403 16:33:45.473727 18690 net.cpp:141] Setting up inception_4c/relu_3x3_reduce
I0403 16:33:45.473760 18690 net.cpp:148] Top shape: 24 128 14 14 (602112)
I0403 16:33:45.473778 18690 net.cpp:156] Memory required for data: 1038026016
I0403 16:33:45.473796 18690 layer_factory.hpp:77] Creating layer inception_4c/3x3
I0403 16:33:45.473830 18690 net.cpp:91] Creating Layer inception_4c/3x3
I0403 16:33:45.473852 18690 net.cpp:425] inception_4c/3x3 <- inception_4c/3x3_reduce
I0403 16:33:45.473881 18690 net.cpp:399] inception_4c/3x3 -> inception_4c/3x3
I0403 16:33:45.478263 18690 net.cpp:141] Setting up inception_4c/3x3
I0403 16:33:45.478314 18690 net.cpp:148] Top shape: 24 256 14 14 (1204224)
I0403 16:33:45.478335 18690 net.cpp:156] Memory required for data: 1042842912
I0403 16:33:45.478374 18690 layer_factory.hpp:77] Creating layer inception_4c/relu_3x3
I0403 16:33:45.478399 18690 net.cpp:91] Creating Layer inception_4c/relu_3x3
I0403 16:33:45.478420 18690 net.cpp:425] inception_4c/relu_3x3 <- inception_4c/3x3
I0403 16:33:45.478443 18690 net.cpp:386] inception_4c/relu_3x3 -> inception_4c/3x3 (in-place)
I0403 16:33:45.478675 18690 net.cpp:141] Setting up inception_4c/relu_3x3
I0403 16:33:45.478708 18690 net.cpp:148] Top shape: 24 256 14 14 (1204224)
I0403 16:33:45.478727 18690 net.cpp:156] Memory required for data: 1047659808
I0403 16:33:45.478745 18690 layer_factory.hpp:77] Creating layer inception_4c/5x5_reduce
I0403 16:33:45.478773 18690 net.cpp:91] Creating Layer inception_4c/5x5_reduce
I0403 16:33:45.478796 18690 net.cpp:425] inception_4c/5x5_reduce <- inception_4b/output_inception_4b/output_0_split_2
I0403 16:33:45.478822 18690 net.cpp:399] inception_4c/5x5_reduce -> inception_4c/5x5_reduce
I0403 16:33:45.480183 18690 net.cpp:141] Setting up inception_4c/5x5_reduce
I0403 16:33:45.480218 18690 net.cpp:148] Top shape: 24 24 14 14 (112896)
I0403 16:33:45.480237 18690 net.cpp:156] Memory required for data: 1048111392
I0403 16:33:45.480259 18690 layer_factory.hpp:77] Creating layer inception_4c/relu_5x5_reduce
I0403 16:33:45.480283 18690 net.cpp:91] Creating Layer inception_4c/relu_5x5_reduce
I0403 16:33:45.480303 18690 net.cpp:425] inception_4c/relu_5x5_reduce <- inception_4c/5x5_reduce
I0403 16:33:45.480326 18690 net.cpp:386] inception_4c/relu_5x5_reduce -> inception_4c/5x5_reduce (in-place)
I0403 16:33:45.480556 18690 net.cpp:141] Setting up inception_4c/relu_5x5_reduce
I0403 16:33:45.480593 18690 net.cpp:148] Top shape: 24 24 14 14 (112896)
I0403 16:33:45.480613 18690 net.cpp:156] Memory required for data: 1048562976
I0403 16:33:45.480633 18690 layer_factory.hpp:77] Creating layer inception_4c/5x5
I0403 16:33:45.480660 18690 net.cpp:91] Creating Layer inception_4c/5x5
I0403 16:33:45.480682 18690 net.cpp:425] inception_4c/5x5 <- inception_4c/5x5_reduce
I0403 16:33:45.480708 18690 net.cpp:399] inception_4c/5x5 -> inception_4c/5x5
I0403 16:33:45.482223 18690 net.cpp:141] Setting up inception_4c/5x5
I0403 16:33:45.482257 18690 net.cpp:148] Top shape: 24 64 14 14 (301056)
I0403 16:33:45.482276 18690 net.cpp:156] Memory required for data: 1049767200
I0403 16:33:45.482298 18690 layer_factory.hpp:77] Creating layer inception_4c/relu_5x5
I0403 16:33:45.482324 18690 net.cpp:91] Creating Layer inception_4c/relu_5x5
I0403 16:33:45.482347 18690 net.cpp:425] inception_4c/relu_5x5 <- inception_4c/5x5
I0403 16:33:45.482368 18690 net.cpp:386] inception_4c/relu_5x5 -> inception_4c/5x5 (in-place)
I0403 16:33:45.482722 18690 net.cpp:141] Setting up inception_4c/relu_5x5
I0403 16:33:45.482754 18690 net.cpp:148] Top shape: 24 64 14 14 (301056)
I0403 16:33:45.482774 18690 net.cpp:156] Memory required for data: 1050971424
I0403 16:33:45.482791 18690 layer_factory.hpp:77] Creating layer inception_4c/pool
I0403 16:33:45.482815 18690 net.cpp:91] Creating Layer inception_4c/pool
I0403 16:33:45.482836 18690 net.cpp:425] inception_4c/pool <- inception_4b/output_inception_4b/output_0_split_3
I0403 16:33:45.482858 18690 net.cpp:399] inception_4c/pool -> inception_4c/pool
I0403 16:33:45.482942 18690 net.cpp:141] Setting up inception_4c/pool
I0403 16:33:45.482972 18690 net.cpp:148] Top shape: 24 512 14 14 (2408448)
I0403 16:33:45.482990 18690 net.cpp:156] Memory required for data: 1060605216
I0403 16:33:45.483009 18690 layer_factory.hpp:77] Creating layer inception_4c/pool_proj
I0403 16:33:45.483036 18690 net.cpp:91] Creating Layer inception_4c/pool_proj
I0403 16:33:45.483057 18690 net.cpp:425] inception_4c/pool_proj <- inception_4c/pool
I0403 16:33:45.483083 18690 net.cpp:399] inception_4c/pool_proj -> inception_4c/pool_proj
I0403 16:33:45.484596 18690 net.cpp:141] Setting up inception_4c/pool_proj
I0403 16:33:45.484630 18690 net.cpp:148] Top shape: 24 64 14 14 (301056)
I0403 16:33:45.484668 18690 net.cpp:156] Memory required for data: 1061809440
I0403 16:33:45.484693 18690 layer_factory.hpp:77] Creating layer inception_4c/relu_pool_proj
I0403 16:33:45.484715 18690 net.cpp:91] Creating Layer inception_4c/relu_pool_proj
I0403 16:33:45.484735 18690 net.cpp:425] inception_4c/relu_pool_proj <- inception_4c/pool_proj
I0403 16:33:45.484760 18690 net.cpp:386] inception_4c/relu_pool_proj -> inception_4c/pool_proj (in-place)
I0403 16:33:45.484989 18690 net.cpp:141] Setting up inception_4c/relu_pool_proj
I0403 16:33:45.485021 18690 net.cpp:148] Top shape: 24 64 14 14 (301056)
I0403 16:33:45.485038 18690 net.cpp:156] Memory required for data: 1063013664
I0403 16:33:45.485057 18690 layer_factory.hpp:77] Creating layer inception_4c/output
I0403 16:33:45.485079 18690 net.cpp:91] Creating Layer inception_4c/output
I0403 16:33:45.485096 18690 net.cpp:425] inception_4c/output <- inception_4c/1x1
I0403 16:33:45.485119 18690 net.cpp:425] inception_4c/output <- inception_4c/3x3
I0403 16:33:45.485141 18690 net.cpp:425] inception_4c/output <- inception_4c/5x5
I0403 16:33:45.485162 18690 net.cpp:425] inception_4c/output <- inception_4c/pool_proj
I0403 16:33:45.485183 18690 net.cpp:399] inception_4c/output -> inception_4c/output
I0403 16:33:45.485241 18690 net.cpp:141] Setting up inception_4c/output
I0403 16:33:45.485271 18690 net.cpp:148] Top shape: 24 512 14 14 (2408448)
I0403 16:33:45.485288 18690 net.cpp:156] Memory required for data: 1072647456
I0403 16:33:45.485306 18690 layer_factory.hpp:77] Creating layer inception_4c/output_inception_4c/output_0_split
I0403 16:33:45.485328 18690 net.cpp:91] Creating Layer inception_4c/output_inception_4c/output_0_split
I0403 16:33:45.485347 18690 net.cpp:425] inception_4c/output_inception_4c/output_0_split <- inception_4c/output
I0403 16:33:45.485371 18690 net.cpp:399] inception_4c/output_inception_4c/output_0_split -> inception_4c/output_inception_4c/output_0_split_0
I0403 16:33:45.485396 18690 net.cpp:399] inception_4c/output_inception_4c/output_0_split -> inception_4c/output_inception_4c/output_0_split_1
I0403 16:33:45.485422 18690 net.cpp:399] inception_4c/output_inception_4c/output_0_split -> inception_4c/output_inception_4c/output_0_split_2
I0403 16:33:45.485447 18690 net.cpp:399] inception_4c/output_inception_4c/output_0_split -> inception_4c/output_inception_4c/output_0_split_3
I0403 16:33:45.485558 18690 net.cpp:141] Setting up inception_4c/output_inception_4c/output_0_split
I0403 16:33:45.485595 18690 net.cpp:148] Top shape: 24 512 14 14 (2408448)
I0403 16:33:45.485620 18690 net.cpp:148] Top shape: 24 512 14 14 (2408448)
I0403 16:33:45.485638 18690 net.cpp:148] Top shape: 24 512 14 14 (2408448)
I0403 16:33:45.485656 18690 net.cpp:148] Top shape: 24 512 14 14 (2408448)
I0403 16:33:45.485673 18690 net.cpp:156] Memory required for data: 1111182624
I0403 16:33:45.485692 18690 layer_factory.hpp:77] Creating layer inception_4d/1x1
I0403 16:33:45.485718 18690 net.cpp:91] Creating Layer inception_4d/1x1
I0403 16:33:45.485740 18690 net.cpp:425] inception_4d/1x1 <- inception_4c/output_inception_4c/output_0_split_0
I0403 16:33:45.485764 18690 net.cpp:399] inception_4d/1x1 -> inception_4d/1x1
I0403 16:33:45.487450 18690 net.cpp:141] Setting up inception_4d/1x1
I0403 16:33:45.487488 18690 net.cpp:148] Top shape: 24 112 14 14 (526848)
I0403 16:33:45.487509 18690 net.cpp:156] Memory required for data: 1113290016
I0403 16:33:45.487534 18690 layer_factory.hpp:77] Creating layer inception_4d/relu_1x1
I0403 16:33:45.487556 18690 net.cpp:91] Creating Layer inception_4d/relu_1x1
I0403 16:33:45.487582 18690 net.cpp:425] inception_4d/relu_1x1 <- inception_4d/1x1
I0403 16:33:45.487608 18690 net.cpp:386] inception_4d/relu_1x1 -> inception_4d/1x1 (in-place)
I0403 16:33:45.487838 18690 net.cpp:141] Setting up inception_4d/relu_1x1
I0403 16:33:45.487869 18690 net.cpp:148] Top shape: 24 112 14 14 (526848)
I0403 16:33:45.487885 18690 net.cpp:156] Memory required for data: 1115397408
I0403 16:33:45.487905 18690 layer_factory.hpp:77] Creating layer inception_4d/3x3_reduce
I0403 16:33:45.487949 18690 net.cpp:91] Creating Layer inception_4d/3x3_reduce
I0403 16:33:45.487972 18690 net.cpp:425] inception_4d/3x3_reduce <- inception_4c/output_inception_4c/output_0_split_1
I0403 16:33:45.487998 18690 net.cpp:399] inception_4d/3x3_reduce -> inception_4d/3x3_reduce
I0403 16:33:45.489850 18690 net.cpp:141] Setting up inception_4d/3x3_reduce
I0403 16:33:45.489884 18690 net.cpp:148] Top shape: 24 144 14 14 (677376)
I0403 16:33:45.489903 18690 net.cpp:156] Memory required for data: 1118106912
I0403 16:33:45.489926 18690 layer_factory.hpp:77] Creating layer inception_4d/relu_3x3_reduce
I0403 16:33:45.489950 18690 net.cpp:91] Creating Layer inception_4d/relu_3x3_reduce
I0403 16:33:45.489971 18690 net.cpp:425] inception_4d/relu_3x3_reduce <- inception_4d/3x3_reduce
I0403 16:33:45.489992 18690 net.cpp:386] inception_4d/relu_3x3_reduce -> inception_4d/3x3_reduce (in-place)
I0403 16:33:45.490342 18690 net.cpp:141] Setting up inception_4d/relu_3x3_reduce
I0403 16:33:45.490375 18690 net.cpp:148] Top shape: 24 144 14 14 (677376)
I0403 16:33:45.490393 18690 net.cpp:156] Memory required for data: 1120816416
I0403 16:33:45.490411 18690 layer_factory.hpp:77] Creating layer inception_4d/3x3
I0403 16:33:45.490438 18690 net.cpp:91] Creating Layer inception_4d/3x3
I0403 16:33:45.490458 18690 net.cpp:425] inception_4d/3x3 <- inception_4d/3x3_reduce
I0403 16:33:45.490484 18690 net.cpp:399] inception_4d/3x3 -> inception_4d/3x3
I0403 16:33:45.495735 18690 net.cpp:141] Setting up inception_4d/3x3
I0403 16:33:45.495774 18690 net.cpp:148] Top shape: 24 288 14 14 (1354752)
I0403 16:33:45.495796 18690 net.cpp:156] Memory required for data: 1126235424
I0403 16:33:45.495820 18690 layer_factory.hpp:77] Creating layer inception_4d/relu_3x3
I0403 16:33:45.495842 18690 net.cpp:91] Creating Layer inception_4d/relu_3x3
I0403 16:33:45.495862 18690 net.cpp:425] inception_4d/relu_3x3 <- inception_4d/3x3
I0403 16:33:45.495884 18690 net.cpp:386] inception_4d/relu_3x3 -> inception_4d/3x3 (in-place)
I0403 16:33:45.496112 18690 net.cpp:141] Setting up inception_4d/relu_3x3
I0403 16:33:45.496143 18690 net.cpp:148] Top shape: 24 288 14 14 (1354752)
I0403 16:33:45.496162 18690 net.cpp:156] Memory required for data: 1131654432
I0403 16:33:45.496181 18690 layer_factory.hpp:77] Creating layer inception_4d/5x5_reduce
I0403 16:33:45.496208 18690 net.cpp:91] Creating Layer inception_4d/5x5_reduce
I0403 16:33:45.496230 18690 net.cpp:425] inception_4d/5x5_reduce <- inception_4c/output_inception_4c/output_0_split_2
I0403 16:33:45.496258 18690 net.cpp:399] inception_4d/5x5_reduce -> inception_4d/5x5_reduce
I0403 16:33:45.497659 18690 net.cpp:141] Setting up inception_4d/5x5_reduce
I0403 16:33:45.497699 18690 net.cpp:148] Top shape: 24 32 14 14 (150528)
I0403 16:33:45.497719 18690 net.cpp:156] Memory required for data: 1132256544
I0403 16:33:45.497741 18690 layer_factory.hpp:77] Creating layer inception_4d/relu_5x5_reduce
I0403 16:33:45.497763 18690 net.cpp:91] Creating Layer inception_4d/relu_5x5_reduce
I0403 16:33:45.497784 18690 net.cpp:425] inception_4d/relu_5x5_reduce <- inception_4d/5x5_reduce
I0403 16:33:45.497808 18690 net.cpp:386] inception_4d/relu_5x5_reduce -> inception_4d/5x5_reduce (in-place)
I0403 16:33:45.498040 18690 net.cpp:141] Setting up inception_4d/relu_5x5_reduce
I0403 16:33:45.498071 18690 net.cpp:148] Top shape: 24 32 14 14 (150528)
I0403 16:33:45.498090 18690 net.cpp:156] Memory required for data: 1132858656
I0403 16:33:45.498108 18690 layer_factory.hpp:77] Creating layer inception_4d/5x5
I0403 16:33:45.498136 18690 net.cpp:91] Creating Layer inception_4d/5x5
I0403 16:33:45.498157 18690 net.cpp:425] inception_4d/5x5 <- inception_4d/5x5_reduce
I0403 16:33:45.498184 18690 net.cpp:399] inception_4d/5x5 -> inception_4d/5x5
I0403 16:33:45.500000 18690 net.cpp:141] Setting up inception_4d/5x5
I0403 16:33:45.500033 18690 net.cpp:148] Top shape: 24 64 14 14 (301056)
I0403 16:33:45.500053 18690 net.cpp:156] Memory required for data: 1134062880
I0403 16:33:45.500077 18690 layer_factory.hpp:77] Creating layer inception_4d/relu_5x5
I0403 16:33:45.500120 18690 net.cpp:91] Creating Layer inception_4d/relu_5x5
I0403 16:33:45.500144 18690 net.cpp:425] inception_4d/relu_5x5 <- inception_4d/5x5
I0403 16:33:45.500165 18690 net.cpp:386] inception_4d/relu_5x5 -> inception_4d/5x5 (in-place)
I0403 16:33:45.500531 18690 net.cpp:141] Setting up inception_4d/relu_5x5
I0403 16:33:45.500565 18690 net.cpp:148] Top shape: 24 64 14 14 (301056)
I0403 16:33:45.500591 18690 net.cpp:156] Memory required for data: 1135267104
I0403 16:33:45.500610 18690 layer_factory.hpp:77] Creating layer inception_4d/pool
I0403 16:33:45.500632 18690 net.cpp:91] Creating Layer inception_4d/pool
I0403 16:33:45.500651 18690 net.cpp:425] inception_4d/pool <- inception_4c/output_inception_4c/output_0_split_3
I0403 16:33:45.500676 18690 net.cpp:399] inception_4d/pool -> inception_4d/pool
I0403 16:33:45.500759 18690 net.cpp:141] Setting up inception_4d/pool
I0403 16:33:45.500788 18690 net.cpp:148] Top shape: 24 512 14 14 (2408448)
I0403 16:33:45.500807 18690 net.cpp:156] Memory required for data: 1144900896
I0403 16:33:45.500825 18690 layer_factory.hpp:77] Creating layer inception_4d/pool_proj
I0403 16:33:45.500854 18690 net.cpp:91] Creating Layer inception_4d/pool_proj
I0403 16:33:45.500875 18690 net.cpp:425] inception_4d/pool_proj <- inception_4d/pool
I0403 16:33:45.500898 18690 net.cpp:399] inception_4d/pool_proj -> inception_4d/pool_proj
I0403 16:33:45.503027 18690 net.cpp:141] Setting up inception_4d/pool_proj
I0403 16:33:45.503067 18690 net.cpp:148] Top shape: 24 64 14 14 (301056)
I0403 16:33:45.503087 18690 net.cpp:156] Memory required for data: 1146105120
I0403 16:33:45.503110 18690 layer_factory.hpp:77] Creating layer inception_4d/relu_pool_proj
I0403 16:33:45.503132 18690 net.cpp:91] Creating Layer inception_4d/relu_pool_proj
I0403 16:33:45.503151 18690 net.cpp:425] inception_4d/relu_pool_proj <- inception_4d/pool_proj
I0403 16:33:45.503173 18690 net.cpp:386] inception_4d/relu_pool_proj -> inception_4d/pool_proj (in-place)
I0403 16:33:45.503407 18690 net.cpp:141] Setting up inception_4d/relu_pool_proj
I0403 16:33:45.503438 18690 net.cpp:148] Top shape: 24 64 14 14 (301056)
I0403 16:33:45.503456 18690 net.cpp:156] Memory required for data: 1147309344
I0403 16:33:45.503474 18690 layer_factory.hpp:77] Creating layer inception_4d/output
I0403 16:33:45.503495 18690 net.cpp:91] Creating Layer inception_4d/output
I0403 16:33:45.503515 18690 net.cpp:425] inception_4d/output <- inception_4d/1x1
I0403 16:33:45.503535 18690 net.cpp:425] inception_4d/output <- inception_4d/3x3
I0403 16:33:45.503556 18690 net.cpp:425] inception_4d/output <- inception_4d/5x5
I0403 16:33:45.503583 18690 net.cpp:425] inception_4d/output <- inception_4d/pool_proj
I0403 16:33:45.503610 18690 net.cpp:399] inception_4d/output -> inception_4d/output
I0403 16:33:45.503670 18690 net.cpp:141] Setting up inception_4d/output
I0403 16:33:45.503702 18690 net.cpp:148] Top shape: 24 528 14 14 (2483712)
I0403 16:33:45.503722 18690 net.cpp:156] Memory required for data: 1157244192
I0403 16:33:45.503741 18690 layer_factory.hpp:77] Creating layer inception_4d/output_inception_4d/output_0_split
I0403 16:33:45.503762 18690 net.cpp:91] Creating Layer inception_4d/output_inception_4d/output_0_split
I0403 16:33:45.503782 18690 net.cpp:425] inception_4d/output_inception_4d/output_0_split <- inception_4d/output
I0403 16:33:45.503808 18690 net.cpp:399] inception_4d/output_inception_4d/output_0_split -> inception_4d/output_inception_4d/output_0_split_0
I0403 16:33:45.503834 18690 net.cpp:399] inception_4d/output_inception_4d/output_0_split -> inception_4d/output_inception_4d/output_0_split_1
I0403 16:33:45.503860 18690 net.cpp:399] inception_4d/output_inception_4d/output_0_split -> inception_4d/output_inception_4d/output_0_split_2
I0403 16:33:45.503885 18690 net.cpp:399] inception_4d/output_inception_4d/output_0_split -> inception_4d/output_inception_4d/output_0_split_3
I0403 16:33:45.503909 18690 net.cpp:399] inception_4d/output_inception_4d/output_0_split -> inception_4d/output_inception_4d/output_0_split_4
I0403 16:33:45.504034 18690 net.cpp:141] Setting up inception_4d/output_inception_4d/output_0_split
I0403 16:33:45.504078 18690 net.cpp:148] Top shape: 24 528 14 14 (2483712)
I0403 16:33:45.504099 18690 net.cpp:148] Top shape: 24 528 14 14 (2483712)
I0403 16:33:45.504118 18690 net.cpp:148] Top shape: 24 528 14 14 (2483712)
I0403 16:33:45.504137 18690 net.cpp:148] Top shape: 24 528 14 14 (2483712)
I0403 16:33:45.504156 18690 net.cpp:148] Top shape: 24 528 14 14 (2483712)
I0403 16:33:45.504173 18690 net.cpp:156] Memory required for data: 1206918432
I0403 16:33:45.504189 18690 layer_factory.hpp:77] Creating layer loss2/ave_pool
I0403 16:33:45.504214 18690 net.cpp:91] Creating Layer loss2/ave_pool
I0403 16:33:45.504233 18690 net.cpp:425] loss2/ave_pool <- inception_4d/output_inception_4d/output_0_split_0
I0403 16:33:45.504256 18690 net.cpp:399] loss2/ave_pool -> loss2/ave_pool
I0403 16:33:45.504657 18690 net.cpp:141] Setting up loss2/ave_pool
I0403 16:33:45.504693 18690 net.cpp:148] Top shape: 24 528 4 4 (202752)
I0403 16:33:45.504714 18690 net.cpp:156] Memory required for data: 1207729440
I0403 16:33:45.504734 18690 layer_factory.hpp:77] Creating layer loss2/conv
I0403 16:33:45.504760 18690 net.cpp:91] Creating Layer loss2/conv
I0403 16:33:45.504781 18690 net.cpp:425] loss2/conv <- loss2/ave_pool
I0403 16:33:45.504806 18690 net.cpp:399] loss2/conv -> loss2/conv
I0403 16:33:45.507136 18690 net.cpp:141] Setting up loss2/conv
I0403 16:33:45.507171 18690 net.cpp:148] Top shape: 24 128 4 4 (49152)
I0403 16:33:45.507190 18690 net.cpp:156] Memory required for data: 1207926048
I0403 16:33:45.507213 18690 layer_factory.hpp:77] Creating layer loss2/relu_conv
I0403 16:33:45.507238 18690 net.cpp:91] Creating Layer loss2/relu_conv
I0403 16:33:45.507259 18690 net.cpp:425] loss2/relu_conv <- loss2/conv
I0403 16:33:45.507282 18690 net.cpp:386] loss2/relu_conv -> loss2/conv (in-place)
I0403 16:33:45.507634 18690 net.cpp:141] Setting up loss2/relu_conv
I0403 16:33:45.507668 18690 net.cpp:148] Top shape: 24 128 4 4 (49152)
I0403 16:33:45.507686 18690 net.cpp:156] Memory required for data: 1208122656
I0403 16:33:45.507705 18690 layer_factory.hpp:77] Creating layer loss2/fc
I0403 16:33:45.507730 18690 net.cpp:91] Creating Layer loss2/fc
I0403 16:33:45.507752 18690 net.cpp:425] loss2/fc <- loss2/conv
I0403 16:33:45.507776 18690 net.cpp:399] loss2/fc -> loss2/fc
I0403 16:33:45.529628 18690 net.cpp:141] Setting up loss2/fc
I0403 16:33:45.529671 18690 net.cpp:148] Top shape: 24 1024 (24576)
I0403 16:33:45.529692 18690 net.cpp:156] Memory required for data: 1208220960
I0403 16:33:45.529714 18690 layer_factory.hpp:77] Creating layer loss2/relu_fc
I0403 16:33:45.529737 18690 net.cpp:91] Creating Layer loss2/relu_fc
I0403 16:33:45.529757 18690 net.cpp:425] loss2/relu_fc <- loss2/fc
I0403 16:33:45.529783 18690 net.cpp:386] loss2/relu_fc -> loss2/fc (in-place)
I0403 16:33:45.530146 18690 net.cpp:141] Setting up loss2/relu_fc
I0403 16:33:45.530182 18690 net.cpp:148] Top shape: 24 1024 (24576)
I0403 16:33:45.530201 18690 net.cpp:156] Memory required for data: 1208319264
I0403 16:33:45.530220 18690 layer_factory.hpp:77] Creating layer loss2/drop_fc
I0403 16:33:45.530242 18690 net.cpp:91] Creating Layer loss2/drop_fc
I0403 16:33:45.530262 18690 net.cpp:425] loss2/drop_fc <- loss2/fc
I0403 16:33:45.530287 18690 net.cpp:386] loss2/drop_fc -> loss2/fc (in-place)
I0403 16:33:45.530349 18690 net.cpp:141] Setting up loss2/drop_fc
I0403 16:33:45.530378 18690 net.cpp:148] Top shape: 24 1024 (24576)
I0403 16:33:45.530395 18690 net.cpp:156] Memory required for data: 1208417568
I0403 16:33:45.530413 18690 layer_factory.hpp:77] Creating layer loss2/classifier_plantvillage
I0403 16:33:45.530438 18690 net.cpp:91] Creating Layer loss2/classifier_plantvillage
I0403 16:33:45.530459 18690 net.cpp:425] loss2/classifier_plantvillage <- loss2/fc
I0403 16:33:45.530484 18690 net.cpp:399] loss2/classifier_plantvillage -> loss2/classifier_plantvillage
I0403 16:33:45.530992 18690 net.cpp:141] Setting up loss2/classifier_plantvillage
I0403 16:33:45.531023 18690 net.cpp:148] Top shape: 24 38 (912)
I0403 16:33:45.531041 18690 net.cpp:156] Memory required for data: 1208421216
I0403 16:33:45.531087 18690 layer_factory.hpp:77] Creating layer loss2/classifier_plantvillage_loss2/classifier_plantvillage_0_split
I0403 16:33:45.531114 18690 net.cpp:91] Creating Layer loss2/classifier_plantvillage_loss2/classifier_plantvillage_0_split
I0403 16:33:45.531136 18690 net.cpp:425] loss2/classifier_plantvillage_loss2/classifier_plantvillage_0_split <- loss2/classifier_plantvillage
I0403 16:33:45.531158 18690 net.cpp:399] loss2/classifier_plantvillage_loss2/classifier_plantvillage_0_split -> loss2/classifier_plantvillage_loss2/classifier_plantvillage_0_split_0
I0403 16:33:45.531183 18690 net.cpp:399] loss2/classifier_plantvillage_loss2/classifier_plantvillage_0_split -> loss2/classifier_plantvillage_loss2/classifier_plantvillage_0_split_1
I0403 16:33:45.531209 18690 net.cpp:399] loss2/classifier_plantvillage_loss2/classifier_plantvillage_0_split -> loss2/classifier_plantvillage_loss2/classifier_plantvillage_0_split_2
I0403 16:33:45.531307 18690 net.cpp:141] Setting up loss2/classifier_plantvillage_loss2/classifier_plantvillage_0_split
I0403 16:33:45.531337 18690 net.cpp:148] Top shape: 24 38 (912)
I0403 16:33:45.531357 18690 net.cpp:148] Top shape: 24 38 (912)
I0403 16:33:45.531374 18690 net.cpp:148] Top shape: 24 38 (912)
I0403 16:33:45.531391 18690 net.cpp:156] Memory required for data: 1208432160
I0403 16:33:45.531409 18690 layer_factory.hpp:77] Creating layer inception_4e/1x1
I0403 16:33:45.531433 18690 net.cpp:91] Creating Layer inception_4e/1x1
I0403 16:33:45.531453 18690 net.cpp:425] inception_4e/1x1 <- inception_4d/output_inception_4d/output_0_split_1
I0403 16:33:45.531479 18690 net.cpp:399] inception_4e/1x1 -> inception_4e/1x1
I0403 16:33:45.533736 18690 net.cpp:141] Setting up inception_4e/1x1
I0403 16:33:45.533771 18690 net.cpp:148] Top shape: 24 256 14 14 (1204224)
I0403 16:33:45.533790 18690 net.cpp:156] Memory required for data: 1213249056
I0403 16:33:45.533812 18690 layer_factory.hpp:77] Creating layer inception_4e/relu_1x1
I0403 16:33:45.533838 18690 net.cpp:91] Creating Layer inception_4e/relu_1x1
I0403 16:33:45.533859 18690 net.cpp:425] inception_4e/relu_1x1 <- inception_4e/1x1
I0403 16:33:45.533879 18690 net.cpp:386] inception_4e/relu_1x1 -> inception_4e/1x1 (in-place)
I0403 16:33:45.534240 18690 net.cpp:141] Setting up inception_4e/relu_1x1
I0403 16:33:45.534272 18690 net.cpp:148] Top shape: 24 256 14 14 (1204224)
I0403 16:33:45.534291 18690 net.cpp:156] Memory required for data: 1218065952
I0403 16:33:45.534309 18690 layer_factory.hpp:77] Creating layer inception_4e/3x3_reduce
I0403 16:33:45.534337 18690 net.cpp:91] Creating Layer inception_4e/3x3_reduce
I0403 16:33:45.534358 18690 net.cpp:425] inception_4e/3x3_reduce <- inception_4d/output_inception_4d/output_0_split_2
I0403 16:33:45.534385 18690 net.cpp:399] inception_4e/3x3_reduce -> inception_4e/3x3_reduce
I0403 16:33:45.536978 18690 net.cpp:141] Setting up inception_4e/3x3_reduce
I0403 16:33:45.537015 18690 net.cpp:148] Top shape: 24 160 14 14 (752640)
I0403 16:33:45.537035 18690 net.cpp:156] Memory required for data: 1221076512
I0403 16:33:45.537057 18690 layer_factory.hpp:77] Creating layer inception_4e/relu_3x3_reduce
I0403 16:33:45.537082 18690 net.cpp:91] Creating Layer inception_4e/relu_3x3_reduce
I0403 16:33:45.537103 18690 net.cpp:425] inception_4e/relu_3x3_reduce <- inception_4e/3x3_reduce
I0403 16:33:45.537125 18690 net.cpp:386] inception_4e/relu_3x3_reduce -> inception_4e/3x3_reduce (in-place)
I0403 16:33:45.537356 18690 net.cpp:141] Setting up inception_4e/relu_3x3_reduce
I0403 16:33:45.537387 18690 net.cpp:148] Top shape: 24 160 14 14 (752640)
I0403 16:33:45.537406 18690 net.cpp:156] Memory required for data: 1224087072
I0403 16:33:45.537425 18690 layer_factory.hpp:77] Creating layer inception_4e/3x3
I0403 16:33:45.537452 18690 net.cpp:91] Creating Layer inception_4e/3x3
I0403 16:33:45.537473 18690 net.cpp:425] inception_4e/3x3 <- inception_4e/3x3_reduce
I0403 16:33:45.537500 18690 net.cpp:399] inception_4e/3x3 -> inception_4e/3x3
I0403 16:33:45.543687 18690 net.cpp:141] Setting up inception_4e/3x3
I0403 16:33:45.543738 18690 net.cpp:148] Top shape: 24 320 14 14 (1505280)
I0403 16:33:45.543758 18690 net.cpp:156] Memory required for data: 1230108192
I0403 16:33:45.543781 18690 layer_factory.hpp:77] Creating layer inception_4e/relu_3x3
I0403 16:33:45.543807 18690 net.cpp:91] Creating Layer inception_4e/relu_3x3
I0403 16:33:45.543829 18690 net.cpp:425] inception_4e/relu_3x3 <- inception_4e/3x3
I0403 16:33:45.543851 18690 net.cpp:386] inception_4e/relu_3x3 -> inception_4e/3x3 (in-place)
I0403 16:33:45.544230 18690 net.cpp:141] Setting up inception_4e/relu_3x3
I0403 16:33:45.544266 18690 net.cpp:148] Top shape: 24 320 14 14 (1505280)
I0403 16:33:45.544286 18690 net.cpp:156] Memory required for data: 1236129312
I0403 16:33:45.544304 18690 layer_factory.hpp:77] Creating layer inception_4e/5x5_reduce
I0403 16:33:45.544332 18690 net.cpp:91] Creating Layer inception_4e/5x5_reduce
I0403 16:33:45.544354 18690 net.cpp:425] inception_4e/5x5_reduce <- inception_4d/output_inception_4d/output_0_split_3
I0403 16:33:45.544378 18690 net.cpp:399] inception_4e/5x5_reduce -> inception_4e/5x5_reduce
I0403 16:33:45.545728 18690 net.cpp:141] Setting up inception_4e/5x5_reduce
I0403 16:33:45.545763 18690 net.cpp:148] Top shape: 24 32 14 14 (150528)
I0403 16:33:45.545783 18690 net.cpp:156] Memory required for data: 1236731424
I0403 16:33:45.545805 18690 layer_factory.hpp:77] Creating layer inception_4e/relu_5x5_reduce
I0403 16:33:45.545830 18690 net.cpp:91] Creating Layer inception_4e/relu_5x5_reduce
I0403 16:33:45.545851 18690 net.cpp:425] inception_4e/relu_5x5_reduce <- inception_4e/5x5_reduce
I0403 16:33:45.545872 18690 net.cpp:386] inception_4e/relu_5x5_reduce -> inception_4e/5x5_reduce (in-place)
I0403 16:33:45.546238 18690 net.cpp:141] Setting up inception_4e/relu_5x5_reduce
I0403 16:33:45.546272 18690 net.cpp:148] Top shape: 24 32 14 14 (150528)
I0403 16:33:45.546290 18690 net.cpp:156] Memory required for data: 1237333536
I0403 16:33:45.546308 18690 layer_factory.hpp:77] Creating layer inception_4e/5x5
I0403 16:33:45.546353 18690 net.cpp:91] Creating Layer inception_4e/5x5
I0403 16:33:45.546376 18690 net.cpp:425] inception_4e/5x5 <- inception_4e/5x5_reduce
I0403 16:33:45.546401 18690 net.cpp:399] inception_4e/5x5 -> inception_4e/5x5
I0403 16:33:45.548672 18690 net.cpp:141] Setting up inception_4e/5x5
I0403 16:33:45.548707 18690 net.cpp:148] Top shape: 24 128 14 14 (602112)
I0403 16:33:45.548727 18690 net.cpp:156] Memory required for data: 1239741984
I0403 16:33:45.548750 18690 layer_factory.hpp:77] Creating layer inception_4e/relu_5x5
I0403 16:33:45.548774 18690 net.cpp:91] Creating Layer inception_4e/relu_5x5
I0403 16:33:45.548794 18690 net.cpp:425] inception_4e/relu_5x5 <- inception_4e/5x5
I0403 16:33:45.548817 18690 net.cpp:386] inception_4e/relu_5x5 -> inception_4e/5x5 (in-place)
I0403 16:33:45.549062 18690 net.cpp:141] Setting up inception_4e/relu_5x5
I0403 16:33:45.549093 18690 net.cpp:148] Top shape: 24 128 14 14 (602112)
I0403 16:33:45.549113 18690 net.cpp:156] Memory required for data: 1242150432
I0403 16:33:45.549130 18690 layer_factory.hpp:77] Creating layer inception_4e/pool
I0403 16:33:45.549156 18690 net.cpp:91] Creating Layer inception_4e/pool
I0403 16:33:45.549176 18690 net.cpp:425] inception_4e/pool <- inception_4d/output_inception_4d/output_0_split_4
I0403 16:33:45.549197 18690 net.cpp:399] inception_4e/pool -> inception_4e/pool
I0403 16:33:45.549285 18690 net.cpp:141] Setting up inception_4e/pool
I0403 16:33:45.549314 18690 net.cpp:148] Top shape: 24 528 14 14 (2483712)
I0403 16:33:45.549334 18690 net.cpp:156] Memory required for data: 1252085280
I0403 16:33:45.549351 18690 layer_factory.hpp:77] Creating layer inception_4e/pool_proj
I0403 16:33:45.549377 18690 net.cpp:91] Creating Layer inception_4e/pool_proj
I0403 16:33:45.549398 18690 net.cpp:425] inception_4e/pool_proj <- inception_4e/pool
I0403 16:33:45.549424 18690 net.cpp:399] inception_4e/pool_proj -> inception_4e/pool_proj
I0403 16:33:45.551280 18690 net.cpp:141] Setting up inception_4e/pool_proj
I0403 16:33:45.551318 18690 net.cpp:148] Top shape: 24 128 14 14 (602112)
I0403 16:33:45.551355 18690 net.cpp:156] Memory required for data: 1254493728
I0403 16:33:45.551379 18690 layer_factory.hpp:77] Creating layer inception_4e/relu_pool_proj
I0403 16:33:45.551401 18690 net.cpp:91] Creating Layer inception_4e/relu_pool_proj
I0403 16:33:45.551420 18690 net.cpp:425] inception_4e/relu_pool_proj <- inception_4e/pool_proj
I0403 16:33:45.551445 18690 net.cpp:386] inception_4e/relu_pool_proj -> inception_4e/pool_proj (in-place)
I0403 16:33:45.551810 18690 net.cpp:141] Setting up inception_4e/relu_pool_proj
I0403 16:33:45.551846 18690 net.cpp:148] Top shape: 24 128 14 14 (602112)
I0403 16:33:45.551867 18690 net.cpp:156] Memory required for data: 1256902176
I0403 16:33:45.551885 18690 layer_factory.hpp:77] Creating layer inception_4e/output
I0403 16:33:45.551906 18690 net.cpp:91] Creating Layer inception_4e/output
I0403 16:33:45.551925 18690 net.cpp:425] inception_4e/output <- inception_4e/1x1
I0403 16:33:45.551945 18690 net.cpp:425] inception_4e/output <- inception_4e/3x3
I0403 16:33:45.551965 18690 net.cpp:425] inception_4e/output <- inception_4e/5x5
I0403 16:33:45.551985 18690 net.cpp:425] inception_4e/output <- inception_4e/pool_proj
I0403 16:33:45.552006 18690 net.cpp:399] inception_4e/output -> inception_4e/output
I0403 16:33:45.552067 18690 net.cpp:141] Setting up inception_4e/output
I0403 16:33:45.552098 18690 net.cpp:148] Top shape: 24 832 14 14 (3913728)
I0403 16:33:45.552116 18690 net.cpp:156] Memory required for data: 1272557088
I0403 16:33:45.552134 18690 layer_factory.hpp:77] Creating layer pool4/3x3_s2
I0403 16:33:45.552158 18690 net.cpp:91] Creating Layer pool4/3x3_s2
I0403 16:33:45.552180 18690 net.cpp:425] pool4/3x3_s2 <- inception_4e/output
I0403 16:33:45.552201 18690 net.cpp:399] pool4/3x3_s2 -> pool4/3x3_s2
I0403 16:33:45.552286 18690 net.cpp:141] Setting up pool4/3x3_s2
I0403 16:33:45.552315 18690 net.cpp:148] Top shape: 24 832 7 7 (978432)
I0403 16:33:45.552333 18690 net.cpp:156] Memory required for data: 1276470816
I0403 16:33:45.552351 18690 layer_factory.hpp:77] Creating layer pool4/3x3_s2_pool4/3x3_s2_0_split
I0403 16:33:45.552372 18690 net.cpp:91] Creating Layer pool4/3x3_s2_pool4/3x3_s2_0_split
I0403 16:33:45.552391 18690 net.cpp:425] pool4/3x3_s2_pool4/3x3_s2_0_split <- pool4/3x3_s2
I0403 16:33:45.552414 18690 net.cpp:399] pool4/3x3_s2_pool4/3x3_s2_0_split -> pool4/3x3_s2_pool4/3x3_s2_0_split_0
I0403 16:33:45.552440 18690 net.cpp:399] pool4/3x3_s2_pool4/3x3_s2_0_split -> pool4/3x3_s2_pool4/3x3_s2_0_split_1
I0403 16:33:45.552464 18690 net.cpp:399] pool4/3x3_s2_pool4/3x3_s2_0_split -> pool4/3x3_s2_pool4/3x3_s2_0_split_2
I0403 16:33:45.552489 18690 net.cpp:399] pool4/3x3_s2_pool4/3x3_s2_0_split -> pool4/3x3_s2_pool4/3x3_s2_0_split_3
I0403 16:33:45.552613 18690 net.cpp:141] Setting up pool4/3x3_s2_pool4/3x3_s2_0_split
I0403 16:33:45.552649 18690 net.cpp:148] Top shape: 24 832 7 7 (978432)
I0403 16:33:45.552670 18690 net.cpp:148] Top shape: 24 832 7 7 (978432)
I0403 16:33:45.552688 18690 net.cpp:148] Top shape: 24 832 7 7 (978432)
I0403 16:33:45.552707 18690 net.cpp:148] Top shape: 24 832 7 7 (978432)
I0403 16:33:45.552724 18690 net.cpp:156] Memory required for data: 1292125728
I0403 16:33:45.552742 18690 layer_factory.hpp:77] Creating layer inception_5a/1x1
I0403 16:33:45.552768 18690 net.cpp:91] Creating Layer inception_5a/1x1
I0403 16:33:45.552789 18690 net.cpp:425] inception_5a/1x1 <- pool4/3x3_s2_pool4/3x3_s2_0_split_0
I0403 16:33:45.552813 18690 net.cpp:399] inception_5a/1x1 -> inception_5a/1x1
I0403 16:33:45.556315 18690 net.cpp:141] Setting up inception_5a/1x1
I0403 16:33:45.556351 18690 net.cpp:148] Top shape: 24 256 7 7 (301056)
I0403 16:33:45.556372 18690 net.cpp:156] Memory required for data: 1293329952
I0403 16:33:45.556396 18690 layer_factory.hpp:77] Creating layer inception_5a/relu_1x1
I0403 16:33:45.556416 18690 net.cpp:91] Creating Layer inception_5a/relu_1x1
I0403 16:33:45.556440 18690 net.cpp:425] inception_5a/relu_1x1 <- inception_5a/1x1
I0403 16:33:45.556463 18690 net.cpp:386] inception_5a/relu_1x1 -> inception_5a/1x1 (in-place)
I0403 16:33:45.556849 18690 net.cpp:141] Setting up inception_5a/relu_1x1
I0403 16:33:45.556881 18690 net.cpp:148] Top shape: 24 256 7 7 (301056)
I0403 16:33:45.556901 18690 net.cpp:156] Memory required for data: 1294534176
I0403 16:33:45.556921 18690 layer_factory.hpp:77] Creating layer inception_5a/3x3_reduce
I0403 16:33:45.556946 18690 net.cpp:91] Creating Layer inception_5a/3x3_reduce
I0403 16:33:45.556968 18690 net.cpp:425] inception_5a/3x3_reduce <- pool4/3x3_s2_pool4/3x3_s2_0_split_1
I0403 16:33:45.556995 18690 net.cpp:399] inception_5a/3x3_reduce -> inception_5a/3x3_reduce
I0403 16:33:45.559998 18690 net.cpp:141] Setting up inception_5a/3x3_reduce
I0403 16:33:45.560039 18690 net.cpp:148] Top shape: 24 160 7 7 (188160)
I0403 16:33:45.560060 18690 net.cpp:156] Memory required for data: 1295286816
I0403 16:33:45.560082 18690 layer_factory.hpp:77] Creating layer inception_5a/relu_3x3_reduce
I0403 16:33:45.560104 18690 net.cpp:91] Creating Layer inception_5a/relu_3x3_reduce
I0403 16:33:45.560123 18690 net.cpp:425] inception_5a/relu_3x3_reduce <- inception_5a/3x3_reduce
I0403 16:33:45.560144 18690 net.cpp:386] inception_5a/relu_3x3_reduce -> inception_5a/3x3_reduce (in-place)
I0403 16:33:45.560384 18690 net.cpp:141] Setting up inception_5a/relu_3x3_reduce
I0403 16:33:45.560416 18690 net.cpp:148] Top shape: 24 160 7 7 (188160)
I0403 16:33:45.560433 18690 net.cpp:156] Memory required for data: 1296039456
I0403 16:33:45.560451 18690 layer_factory.hpp:77] Creating layer inception_5a/3x3
I0403 16:33:45.560477 18690 net.cpp:91] Creating Layer inception_5a/3x3
I0403 16:33:45.560498 18690 net.cpp:425] inception_5a/3x3 <- inception_5a/3x3_reduce
I0403 16:33:45.560525 18690 net.cpp:399] inception_5a/3x3 -> inception_5a/3x3
I0403 16:33:45.566767 18690 net.cpp:141] Setting up inception_5a/3x3
I0403 16:33:45.566807 18690 net.cpp:148] Top shape: 24 320 7 7 (376320)
I0403 16:33:45.566826 18690 net.cpp:156] Memory required for data: 1297544736
I0403 16:33:45.566848 18690 layer_factory.hpp:77] Creating layer inception_5a/relu_3x3
I0403 16:33:45.566870 18690 net.cpp:91] Creating Layer inception_5a/relu_3x3
I0403 16:33:45.566890 18690 net.cpp:425] inception_5a/relu_3x3 <- inception_5a/3x3
I0403 16:33:45.566915 18690 net.cpp:386] inception_5a/relu_3x3 -> inception_5a/3x3 (in-place)
I0403 16:33:45.567281 18690 net.cpp:141] Setting up inception_5a/relu_3x3
I0403 16:33:45.567313 18690 net.cpp:148] Top shape: 24 320 7 7 (376320)
I0403 16:33:45.567332 18690 net.cpp:156] Memory required for data: 1299050016
I0403 16:33:45.567349 18690 layer_factory.hpp:77] Creating layer inception_5a/5x5_reduce
I0403 16:33:45.567378 18690 net.cpp:91] Creating Layer inception_5a/5x5_reduce
I0403 16:33:45.567401 18690 net.cpp:425] inception_5a/5x5_reduce <- pool4/3x3_s2_pool4/3x3_s2_0_split_2
I0403 16:33:45.567428 18690 net.cpp:399] inception_5a/5x5_reduce -> inception_5a/5x5_reduce
I0403 16:33:45.568883 18690 net.cpp:141] Setting up inception_5a/5x5_reduce
I0403 16:33:45.568919 18690 net.cpp:148] Top shape: 24 32 7 7 (37632)
I0403 16:33:45.568938 18690 net.cpp:156] Memory required for data: 1299200544
I0403 16:33:45.568961 18690 layer_factory.hpp:77] Creating layer inception_5a/relu_5x5_reduce
I0403 16:33:45.568986 18690 net.cpp:91] Creating Layer inception_5a/relu_5x5_reduce
I0403 16:33:45.569007 18690 net.cpp:425] inception_5a/relu_5x5_reduce <- inception_5a/5x5_reduce
I0403 16:33:45.569028 18690 net.cpp:386] inception_5a/relu_5x5_reduce -> inception_5a/5x5_reduce (in-place)
I0403 16:33:45.569391 18690 net.cpp:141] Setting up inception_5a/relu_5x5_reduce
I0403 16:33:45.569424 18690 net.cpp:148] Top shape: 24 32 7 7 (37632)
I0403 16:33:45.569443 18690 net.cpp:156] Memory required for data: 1299351072
I0403 16:33:45.569461 18690 layer_factory.hpp:77] Creating layer inception_5a/5x5
I0403 16:33:45.569489 18690 net.cpp:91] Creating Layer inception_5a/5x5
I0403 16:33:45.569511 18690 net.cpp:425] inception_5a/5x5 <- inception_5a/5x5_reduce
I0403 16:33:45.569536 18690 net.cpp:399] inception_5a/5x5 -> inception_5a/5x5
I0403 16:33:45.571676 18690 net.cpp:141] Setting up inception_5a/5x5
I0403 16:33:45.571728 18690 net.cpp:148] Top shape: 24 128 7 7 (150528)
I0403 16:33:45.571748 18690 net.cpp:156] Memory required for data: 1299953184
I0403 16:33:45.571770 18690 layer_factory.hpp:77] Creating layer inception_5a/relu_5x5
I0403 16:33:45.571791 18690 net.cpp:91] Creating Layer inception_5a/relu_5x5
I0403 16:33:45.571811 18690 net.cpp:425] inception_5a/relu_5x5 <- inception_5a/5x5
I0403 16:33:45.571835 18690 net.cpp:386] inception_5a/relu_5x5 -> inception_5a/5x5 (in-place)
I0403 16:33:45.572074 18690 net.cpp:141] Setting up inception_5a/relu_5x5
I0403 16:33:45.572105 18690 net.cpp:148] Top shape: 24 128 7 7 (150528)
I0403 16:33:45.572124 18690 net.cpp:156] Memory required for data: 1300555296
I0403 16:33:45.572144 18690 layer_factory.hpp:77] Creating layer inception_5a/pool
I0403 16:33:45.572167 18690 net.cpp:91] Creating Layer inception_5a/pool
I0403 16:33:45.572188 18690 net.cpp:425] inception_5a/pool <- pool4/3x3_s2_pool4/3x3_s2_0_split_3
I0403 16:33:45.572211 18690 net.cpp:399] inception_5a/pool -> inception_5a/pool
I0403 16:33:45.572299 18690 net.cpp:141] Setting up inception_5a/pool
I0403 16:33:45.572329 18690 net.cpp:148] Top shape: 24 832 7 7 (978432)
I0403 16:33:45.572346 18690 net.cpp:156] Memory required for data: 1304469024
I0403 16:33:45.572365 18690 layer_factory.hpp:77] Creating layer inception_5a/pool_proj
I0403 16:33:45.572391 18690 net.cpp:91] Creating Layer inception_5a/pool_proj
I0403 16:33:45.572412 18690 net.cpp:425] inception_5a/pool_proj <- inception_5a/pool
I0403 16:33:45.572438 18690 net.cpp:399] inception_5a/pool_proj -> inception_5a/pool_proj
I0403 16:33:45.575260 18690 net.cpp:141] Setting up inception_5a/pool_proj
I0403 16:33:45.575310 18690 net.cpp:148] Top shape: 24 128 7 7 (150528)
I0403 16:33:45.575331 18690 net.cpp:156] Memory required for data: 1305071136
I0403 16:33:45.575362 18690 layer_factory.hpp:77] Creating layer inception_5a/relu_pool_proj
I0403 16:33:45.575386 18690 net.cpp:91] Creating Layer inception_5a/relu_pool_proj
I0403 16:33:45.575405 18690 net.cpp:425] inception_5a/relu_pool_proj <- inception_5a/pool_proj
I0403 16:33:45.575430 18690 net.cpp:386] inception_5a/relu_pool_proj -> inception_5a/pool_proj (in-place)
I0403 16:33:45.575800 18690 net.cpp:141] Setting up inception_5a/relu_pool_proj
I0403 16:33:45.575837 18690 net.cpp:148] Top shape: 24 128 7 7 (150528)
I0403 16:33:45.575856 18690 net.cpp:156] Memory required for data: 1305673248
I0403 16:33:45.575875 18690 layer_factory.hpp:77] Creating layer inception_5a/output
I0403 16:33:45.575896 18690 net.cpp:91] Creating Layer inception_5a/output
I0403 16:33:45.575916 18690 net.cpp:425] inception_5a/output <- inception_5a/1x1
I0403 16:33:45.575937 18690 net.cpp:425] inception_5a/output <- inception_5a/3x3
I0403 16:33:45.575956 18690 net.cpp:425] inception_5a/output <- inception_5a/5x5
I0403 16:33:45.575975 18690 net.cpp:425] inception_5a/output <- inception_5a/pool_proj
I0403 16:33:45.575999 18690 net.cpp:399] inception_5a/output -> inception_5a/output
I0403 16:33:45.576062 18690 net.cpp:141] Setting up inception_5a/output
I0403 16:33:45.576092 18690 net.cpp:148] Top shape: 24 832 7 7 (978432)
I0403 16:33:45.576110 18690 net.cpp:156] Memory required for data: 1309586976
I0403 16:33:45.576128 18690 layer_factory.hpp:77] Creating layer inception_5a/output_inception_5a/output_0_split
I0403 16:33:45.576151 18690 net.cpp:91] Creating Layer inception_5a/output_inception_5a/output_0_split
I0403 16:33:45.576171 18690 net.cpp:425] inception_5a/output_inception_5a/output_0_split <- inception_5a/output
I0403 16:33:45.576194 18690 net.cpp:399] inception_5a/output_inception_5a/output_0_split -> inception_5a/output_inception_5a/output_0_split_0
I0403 16:33:45.576217 18690 net.cpp:399] inception_5a/output_inception_5a/output_0_split -> inception_5a/output_inception_5a/output_0_split_1
I0403 16:33:45.576246 18690 net.cpp:399] inception_5a/output_inception_5a/output_0_split -> inception_5a/output_inception_5a/output_0_split_2
I0403 16:33:45.576273 18690 net.cpp:399] inception_5a/output_inception_5a/output_0_split -> inception_5a/output_inception_5a/output_0_split_3
I0403 16:33:45.576413 18690 net.cpp:141] Setting up inception_5a/output_inception_5a/output_0_split
I0403 16:33:45.576443 18690 net.cpp:148] Top shape: 24 832 7 7 (978432)
I0403 16:33:45.576463 18690 net.cpp:148] Top shape: 24 832 7 7 (978432)
I0403 16:33:45.576483 18690 net.cpp:148] Top shape: 24 832 7 7 (978432)
I0403 16:33:45.576503 18690 net.cpp:148] Top shape: 24 832 7 7 (978432)
I0403 16:33:45.576519 18690 net.cpp:156] Memory required for data: 1325241888
I0403 16:33:45.576536 18690 layer_factory.hpp:77] Creating layer inception_5b/1x1
I0403 16:33:45.576563 18690 net.cpp:91] Creating Layer inception_5b/1x1
I0403 16:33:45.576596 18690 net.cpp:425] inception_5b/1x1 <- inception_5a/output_inception_5a/output_0_split_0
I0403 16:33:45.576622 18690 net.cpp:399] inception_5b/1x1 -> inception_5b/1x1
I0403 16:33:45.581231 18690 net.cpp:141] Setting up inception_5b/1x1
I0403 16:33:45.581274 18690 net.cpp:148] Top shape: 24 384 7 7 (451584)
I0403 16:33:45.581295 18690 net.cpp:156] Memory required for data: 1327048224
I0403 16:33:45.581317 18690 layer_factory.hpp:77] Creating layer inception_5b/relu_1x1
I0403 16:33:45.581339 18690 net.cpp:91] Creating Layer inception_5b/relu_1x1
I0403 16:33:45.581359 18690 net.cpp:425] inception_5b/relu_1x1 <- inception_5b/1x1
I0403 16:33:45.581382 18690 net.cpp:386] inception_5b/relu_1x1 -> inception_5b/1x1 (in-place)
I0403 16:33:45.581758 18690 net.cpp:141] Setting up inception_5b/relu_1x1
I0403 16:33:45.581794 18690 net.cpp:148] Top shape: 24 384 7 7 (451584)
I0403 16:33:45.581814 18690 net.cpp:156] Memory required for data: 1328854560
I0403 16:33:45.581831 18690 layer_factory.hpp:77] Creating layer inception_5b/3x3_reduce
I0403 16:33:45.581859 18690 net.cpp:91] Creating Layer inception_5b/3x3_reduce
I0403 16:33:45.581881 18690 net.cpp:425] inception_5b/3x3_reduce <- inception_5a/output_inception_5a/output_0_split_1
I0403 16:33:45.581907 18690 net.cpp:399] inception_5b/3x3_reduce -> inception_5b/3x3_reduce
I0403 16:33:45.585178 18690 net.cpp:141] Setting up inception_5b/3x3_reduce
I0403 16:33:45.585218 18690 net.cpp:148] Top shape: 24 192 7 7 (225792)
I0403 16:33:45.585239 18690 net.cpp:156] Memory required for data: 1329757728
I0403 16:33:45.585263 18690 layer_factory.hpp:77] Creating layer inception_5b/relu_3x3_reduce
I0403 16:33:45.585284 18690 net.cpp:91] Creating Layer inception_5b/relu_3x3_reduce
I0403 16:33:45.585305 18690 net.cpp:425] inception_5b/relu_3x3_reduce <- inception_5b/3x3_reduce
I0403 16:33:45.585330 18690 net.cpp:386] inception_5b/relu_3x3_reduce -> inception_5b/3x3_reduce (in-place)
I0403 16:33:45.585563 18690 net.cpp:141] Setting up inception_5b/relu_3x3_reduce
I0403 16:33:45.585602 18690 net.cpp:148] Top shape: 24 192 7 7 (225792)
I0403 16:33:45.585621 18690 net.cpp:156] Memory required for data: 1330660896
I0403 16:33:45.585639 18690 layer_factory.hpp:77] Creating layer inception_5b/3x3
I0403 16:33:45.585666 18690 net.cpp:91] Creating Layer inception_5b/3x3
I0403 16:33:45.585690 18690 net.cpp:425] inception_5b/3x3 <- inception_5b/3x3_reduce
I0403 16:33:45.585717 18690 net.cpp:399] inception_5b/3x3 -> inception_5b/3x3
I0403 16:33:45.594039 18690 net.cpp:141] Setting up inception_5b/3x3
I0403 16:33:45.594079 18690 net.cpp:148] Top shape: 24 384 7 7 (451584)
I0403 16:33:45.594099 18690 net.cpp:156] Memory required for data: 1332467232
I0403 16:33:45.594122 18690 layer_factory.hpp:77] Creating layer inception_5b/relu_3x3
I0403 16:33:45.594146 18690 net.cpp:91] Creating Layer inception_5b/relu_3x3
I0403 16:33:45.594166 18690 net.cpp:425] inception_5b/relu_3x3 <- inception_5b/3x3
I0403 16:33:45.594190 18690 net.cpp:386] inception_5b/relu_3x3 -> inception_5b/3x3 (in-place)
I0403 16:33:45.594552 18690 net.cpp:141] Setting up inception_5b/relu_3x3
I0403 16:33:45.594601 18690 net.cpp:148] Top shape: 24 384 7 7 (451584)
I0403 16:33:45.594624 18690 net.cpp:156] Memory required for data: 1334273568
I0403 16:33:45.594641 18690 layer_factory.hpp:77] Creating layer inception_5b/5x5_reduce
I0403 16:33:45.594689 18690 net.cpp:91] Creating Layer inception_5b/5x5_reduce
I0403 16:33:45.594713 18690 net.cpp:425] inception_5b/5x5_reduce <- inception_5a/output_inception_5a/output_0_split_2
I0403 16:33:45.594738 18690 net.cpp:399] inception_5b/5x5_reduce -> inception_5b/5x5_reduce
I0403 16:33:45.596310 18690 net.cpp:141] Setting up inception_5b/5x5_reduce
I0403 16:33:45.596349 18690 net.cpp:148] Top shape: 24 48 7 7 (56448)
I0403 16:33:45.596370 18690 net.cpp:156] Memory required for data: 1334499360
I0403 16:33:45.596392 18690 layer_factory.hpp:77] Creating layer inception_5b/relu_5x5_reduce
I0403 16:33:45.596415 18690 net.cpp:91] Creating Layer inception_5b/relu_5x5_reduce
I0403 16:33:45.596434 18690 net.cpp:425] inception_5b/relu_5x5_reduce <- inception_5b/5x5_reduce
I0403 16:33:45.596458 18690 net.cpp:386] inception_5b/relu_5x5_reduce -> inception_5b/5x5_reduce (in-place)
I0403 16:33:45.596925 18690 net.cpp:141] Setting up inception_5b/relu_5x5_reduce
I0403 16:33:45.596957 18690 net.cpp:148] Top shape: 24 48 7 7 (56448)
I0403 16:33:45.596976 18690 net.cpp:156] Memory required for data: 1334725152
I0403 16:33:45.596994 18690 layer_factory.hpp:77] Creating layer inception_5b/5x5
I0403 16:33:45.597018 18690 net.cpp:91] Creating Layer inception_5b/5x5
I0403 16:33:45.597039 18690 net.cpp:425] inception_5b/5x5 <- inception_5b/5x5_reduce
I0403 16:33:45.597062 18690 net.cpp:399] inception_5b/5x5 -> inception_5b/5x5
I0403 16:33:45.599606 18690 net.cpp:141] Setting up inception_5b/5x5
I0403 16:33:45.599640 18690 net.cpp:148] Top shape: 24 128 7 7 (150528)
I0403 16:33:45.599660 18690 net.cpp:156] Memory required for data: 1335327264
I0403 16:33:45.599684 18690 layer_factory.hpp:77] Creating layer inception_5b/relu_5x5
I0403 16:33:45.599706 18690 net.cpp:91] Creating Layer inception_5b/relu_5x5
I0403 16:33:45.599730 18690 net.cpp:425] inception_5b/relu_5x5 <- inception_5b/5x5
I0403 16:33:45.599751 18690 net.cpp:386] inception_5b/relu_5x5 -> inception_5b/5x5 (in-place)
I0403 16:33:45.599993 18690 net.cpp:141] Setting up inception_5b/relu_5x5
I0403 16:33:45.600024 18690 net.cpp:148] Top shape: 24 128 7 7 (150528)
I0403 16:33:45.600041 18690 net.cpp:156] Memory required for data: 1335929376
I0403 16:33:45.600059 18690 layer_factory.hpp:77] Creating layer inception_5b/pool
I0403 16:33:45.600083 18690 net.cpp:91] Creating Layer inception_5b/pool
I0403 16:33:45.600105 18690 net.cpp:425] inception_5b/pool <- inception_5a/output_inception_5a/output_0_split_3
I0403 16:33:45.600128 18690 net.cpp:399] inception_5b/pool -> inception_5b/pool
I0403 16:33:45.600220 18690 net.cpp:141] Setting up inception_5b/pool
I0403 16:33:45.600250 18690 net.cpp:148] Top shape: 24 832 7 7 (978432)
I0403 16:33:45.600267 18690 net.cpp:156] Memory required for data: 1339843104
I0403 16:33:45.600286 18690 layer_factory.hpp:77] Creating layer inception_5b/pool_proj
I0403 16:33:45.600311 18690 net.cpp:91] Creating Layer inception_5b/pool_proj
I0403 16:33:45.600333 18690 net.cpp:425] inception_5b/pool_proj <- inception_5b/pool
I0403 16:33:45.600359 18690 net.cpp:399] inception_5b/pool_proj -> inception_5b/pool_proj
I0403 16:33:45.603190 18690 net.cpp:141] Setting up inception_5b/pool_proj
I0403 16:33:45.603227 18690 net.cpp:148] Top shape: 24 128 7 7 (150528)
I0403 16:33:45.603246 18690 net.cpp:156] Memory required for data: 1340445216
I0403 16:33:45.603269 18690 layer_factory.hpp:77] Creating layer inception_5b/relu_pool_proj
I0403 16:33:45.603291 18690 net.cpp:91] Creating Layer inception_5b/relu_pool_proj
I0403 16:33:45.603313 18690 net.cpp:425] inception_5b/relu_pool_proj <- inception_5b/pool_proj
I0403 16:33:45.603338 18690 net.cpp:386] inception_5b/relu_pool_proj -> inception_5b/pool_proj (in-place)
I0403 16:33:45.603713 18690 net.cpp:141] Setting up inception_5b/relu_pool_proj
I0403 16:33:45.603745 18690 net.cpp:148] Top shape: 24 128 7 7 (150528)
I0403 16:33:45.603765 18690 net.cpp:156] Memory required for data: 1341047328
I0403 16:33:45.603782 18690 layer_factory.hpp:77] Creating layer inception_5b/output
I0403 16:33:45.603804 18690 net.cpp:91] Creating Layer inception_5b/output
I0403 16:33:45.603840 18690 net.cpp:425] inception_5b/output <- inception_5b/1x1
I0403 16:33:45.603863 18690 net.cpp:425] inception_5b/output <- inception_5b/3x3
I0403 16:33:45.603883 18690 net.cpp:425] inception_5b/output <- inception_5b/5x5
I0403 16:33:45.603904 18690 net.cpp:425] inception_5b/output <- inception_5b/pool_proj
I0403 16:33:45.603929 18690 net.cpp:399] inception_5b/output -> inception_5b/output
I0403 16:33:45.603992 18690 net.cpp:141] Setting up inception_5b/output
I0403 16:33:45.604022 18690 net.cpp:148] Top shape: 24 1024 7 7 (1204224)
I0403 16:33:45.604044 18690 net.cpp:156] Memory required for data: 1345864224
I0403 16:33:45.604063 18690 layer_factory.hpp:77] Creating layer pool5/7x7_s1
I0403 16:33:45.604084 18690 net.cpp:91] Creating Layer pool5/7x7_s1
I0403 16:33:45.604104 18690 net.cpp:425] pool5/7x7_s1 <- inception_5b/output
I0403 16:33:45.604126 18690 net.cpp:399] pool5/7x7_s1 -> pool5/7x7_s1
I0403 16:33:45.604398 18690 net.cpp:141] Setting up pool5/7x7_s1
I0403 16:33:45.604430 18690 net.cpp:148] Top shape: 24 1024 1 1 (24576)
I0403 16:33:45.604449 18690 net.cpp:156] Memory required for data: 1345962528
I0403 16:33:45.604467 18690 layer_factory.hpp:77] Creating layer pool5/drop_7x7_s1
I0403 16:33:45.604488 18690 net.cpp:91] Creating Layer pool5/drop_7x7_s1
I0403 16:33:45.604507 18690 net.cpp:425] pool5/drop_7x7_s1 <- pool5/7x7_s1
I0403 16:33:45.604532 18690 net.cpp:386] pool5/drop_7x7_s1 -> pool5/7x7_s1 (in-place)
I0403 16:33:45.604607 18690 net.cpp:141] Setting up pool5/drop_7x7_s1
I0403 16:33:45.604640 18690 net.cpp:148] Top shape: 24 1024 1 1 (24576)
I0403 16:33:45.604661 18690 net.cpp:156] Memory required for data: 1346060832
I0403 16:33:45.604679 18690 layer_factory.hpp:77] Creating layer loss3/classifier_plantvillage
I0403 16:33:45.604703 18690 net.cpp:91] Creating Layer loss3/classifier_plantvillage
I0403 16:33:45.604722 18690 net.cpp:425] loss3/classifier_plantvillage <- pool5/7x7_s1
I0403 16:33:45.604748 18690 net.cpp:399] loss3/classifier_plantvillage -> loss3/classifier_plantvillage
I0403 16:33:45.605275 18690 net.cpp:141] Setting up loss3/classifier_plantvillage
I0403 16:33:45.605305 18690 net.cpp:148] Top shape: 24 38 (912)
I0403 16:33:45.605324 18690 net.cpp:156] Memory required for data: 1346064480
I0403 16:33:45.605345 18690 layer_factory.hpp:77] Creating layer loss3/classifier_plantvillage_loss3/classifier_plantvillage_0_split
I0403 16:33:45.605372 18690 net.cpp:91] Creating Layer loss3/classifier_plantvillage_loss3/classifier_plantvillage_0_split
I0403 16:33:45.605394 18690 net.cpp:425] loss3/classifier_plantvillage_loss3/classifier_plantvillage_0_split <- loss3/classifier_plantvillage
I0403 16:33:45.605415 18690 net.cpp:399] loss3/classifier_plantvillage_loss3/classifier_plantvillage_0_split -> loss3/classifier_plantvillage_loss3/classifier_plantvillage_0_split_0
I0403 16:33:45.605439 18690 net.cpp:399] loss3/classifier_plantvillage_loss3/classifier_plantvillage_0_split -> loss3/classifier_plantvillage_loss3/classifier_plantvillage_0_split_1
I0403 16:33:45.605468 18690 net.cpp:399] loss3/classifier_plantvillage_loss3/classifier_plantvillage_0_split -> loss3/classifier_plantvillage_loss3/classifier_plantvillage_0_split_2
I0403 16:33:45.605494 18690 net.cpp:399] loss3/classifier_plantvillage_loss3/classifier_plantvillage_0_split -> loss3/classifier_plantvillage_loss3/classifier_plantvillage_0_split_3
I0403 16:33:45.605630 18690 net.cpp:141] Setting up loss3/classifier_plantvillage_loss3/classifier_plantvillage_0_split
I0403 16:33:45.605659 18690 net.cpp:148] Top shape: 24 38 (912)
I0403 16:33:45.605680 18690 net.cpp:148] Top shape: 24 38 (912)
I0403 16:33:45.605698 18690 net.cpp:148] Top shape: 24 38 (912)
I0403 16:33:45.605716 18690 net.cpp:148] Top shape: 24 38 (912)
I0403 16:33:45.605733 18690 net.cpp:156] Memory required for data: 1346079072
I0403 16:33:45.605751 18690 layer_factory.hpp:77] Creating layer loss1/loss
I0403 16:33:45.605777 18690 net.cpp:91] Creating Layer loss1/loss
I0403 16:33:45.605799 18690 net.cpp:425] loss1/loss <- loss1/classifier_plantvillage_loss1/classifier_plantvillage_0_split_0
I0403 16:33:45.605839 18690 net.cpp:425] loss1/loss <- label_data_1_split_0
…
