…
I0403 16:17:27.895264 17718 net.cpp:313] The NetState phase (1) differed from the phase (0) specified by a rule in layer data
I0403 16:17:27.896878 17718 net.cpp:49] Initializing net from parameters: 
state {
  phase: TEST
}
layer {
  name: "data"
  type: "Data"
  top: "data"
  top: "label"
  include {
    phase: TEST
  }
  transform_param {
    mirror: false
    crop_size: 224
    mean_file: "/home/mohanty/data/final_dataset/lmdb/color-20-80/mean.binaryproto"
  }
  data_param {
    source: "/home/mohanty/data/final_dataset/lmdb/color-20-80/test_db"
    batch_size: 24
    backend: LMDB
  }
}
layer {
  name: "conv1/7x7_s2"
  type: "Convolution"
  bottom: "data"
  top: "conv1/7x7_s2"
  param {
    lr_mult: 1
    decay_mult: 1
  }
  param {
    lr_mult: 2
    decay_mult: 0
  }
  convolution_param {
    num_output: 64
    pad: 3
    kernel_size: 7
    stride: 2
    weight_filler {
      type: "xavier"
      std: 0.1
    }
    bias_filler {
      type: "constant"
      value: 0.2
    }
  }
}
layer {
  name: "conv1/relu_7x7"
  type: "ReLU"
  bottom: "conv1/7x7_s2"
  top: "conv1/7x7_s2"
}
layer {
  name: "pool1/3x3_s2"
  type: "Pooling"
  bottom: "conv1/7x7_s2"
  top: "pool1/3x3_s2"
  pooling_param {
    pool: MAX
    kernel_size: 3
    stride: 2
  }
}
layer {
  name: "pool1/norm1"
  type: "LRN"
  bottom: "pool1/3x3_s2"
  top: "pool1/norm1"
  lrn_param {
    local_size: 5
    alpha: 0.0001
    beta: 0.75
  }
}
layer {
  name: "conv2/3x3_reduce"
  type: "Convolution"
  bottom: "pool1/norm1"
  top: "conv2/3x3_reduce"
  param {
    lr_mult: 1
    decay_mult: 1
  }
  param {
    lr_mult: 2
    decay_mult: 0
  }
  convolution_param {
    num_output: 64
    kernel_size: 1
    weight_filler {
      type: "xavier"
      std: 0.1
    }
    bias_filler {
      type: "constant"
      value: 0.2
    }
  }
}
layer {
  name: "conv2/relu_3x3_reduce"
  type: "ReLU"
  bottom: "conv2/3x3_reduce"
  top: "conv2/3x3_reduce"
}
layer {
  name: "conv2/3x3"
  type: "Convolution"
  bottom: "conv2/3x3_reduce"
  top: "conv2/3x3"
  param {
    lr_mult: 1
    decay_mult: 1
  }
  param {
    lr_mult: 2
    decay_mult: 0
  }
  convolution_param {
    num_output: 192
    pad: 1
    kernel_size: 3
    weight_filler {
      type: "xavier"
      std: 0.03
    }
    bias_filler {
      type: "constant"
      value: 0.2
    }
  }
}
layer {
  name: "conv2/relu_3x3"
  type: "ReLU"
  bottom: "conv2/3x3"
  top: "conv2/3x3"
}
layer {
  name: "conv2/norm2"
  type: "LRN"
  bottom: "conv2/3x3"
  top: "conv2/norm2"
  lrn_param {
    local_size: 5
    alpha: 0.0001
    beta: 0.75
  }
}
layer {
  name: "pool2/3x3_s2"
  type: "Pooling"
  bottom: "conv2/norm2"
  top: "pool2/3x3_s2"
  pooling_param {
    pool: MAX
    kernel_size: 3
    stride: 2
  }
}
layer {
  name: "inception_3a/1x1"
  type: "Convolution"
  bottom: "pool2/3x3_s2"
  top: "inception_3a/1x1"
  param {
    lr_mult: 1
    decay_mult: 1
  }
  param {
    lr_mult: 2
    decay_mult: 0
  }
  convolution_param {
    num_output: 64
    kernel_size: 1
    weight_filler {
      type: "xavier"
      std: 0.03
    }
    bias_filler {
      type: "constant"
      value: 0.2
    }
  }
}
layer {
  name: "inception_3a/relu_1x1"
  type: "ReLU"
  bottom: "inception_3a/1x1"
  top: "inception_3a/1x1"
}
layer {
  name: "inception_3a/3x3_reduce"
  type: "Convolution"
  bottom: "pool2/3x3_s2"
  top: "inception_3a/3x3_reduce"
  param {
    lr_mult: 1
    decay_mult: 1
  }
  param {
    lr_mult: 2
    decay_mult: 0
  }
  convolution_param {
    num_output: 96
    kernel_size: 1
    weight_filler {
      type: "xavier"
      std: 0.09
    }
    bias_filler {
      type: "constant"
      value: 0.2
    }
  }
}
layer {
  name: "inception_3a/relu_3x3_reduce"
  type: "ReLU"
  bottom: "inception_3a/3x3_reduce"
  top: "inception_3a/3x3_reduce"
}
layer {
  name: "inception_3a/3x3"
  type: "Convolution"
  bottom: "inception_3a/3x3_reduce"
  top: "inception_3a/3x3"
  param {
    lr_mult: 1
    decay_mult: 1
  }
  param {
    lr_mult: 2
    decay_mult: 0
  }
  convolution_param {
    num_output: 128
    pad: 1
    kernel_size: 3
    weight_filler {
      type: "xavier"
      std: 0.03
    }
    bias_filler {
      type: "constant"
      value: 0.2
    }
  }
}
layer {
  name: "inception_3a/relu_3x3"
  type: "ReLU"
  bottom: "inception_3a/3x3"
  top: "inception_3a/3x3"
}
layer {
  name: "inception_3a/5x5_reduce"
  type: "Convolution"
  bottom: "pool2/3x3_s2"
  top: "inception_3a/5x5_reduce"
  param {
    lr_mult: 1
    decay_mult: 1
  }
  param {
    lr_mult: 2
    decay_mult: 0
  }
  convolution_param {
    num_output: 16
    kernel_size: 1
    weight_filler {
      type: "xavier"
      std: 0.2
    }
    bias_filler {
      type: "constant"
      value: 0.2
    }
  }
}
layer {
  name: "inception_3a/relu_5x5_reduce"
  type: "ReLU"
  bottom: "inception_3a/5x5_reduce"
  top: "inception_3a/5x5_reduce"
}
layer {
  name: "inception_3a/5x5"
  type: "Convolution"
  bottom: "inception_3a/5x5_reduce"
  top: "inception_3a/5x5"
  param {
    lr_mult: 1
    decay_mult: 1
  }
  param {
    lr_mult: 2
    decay_mult: 0
  }
  convolution_param {
    num_output: 32
    pad: 2
    kernel_size: 5
    weight_filler {
      type: "xavier"
      std: 0.03
    }
    bias_filler {
      type: "constant"
      value: 0.2
    }
  }
}
layer {
  name: "inception_3a/relu_5x5"
  type: "ReLU"
  bottom: "inception_3a/5x5"
  top: "inception_3a/5x5"
}
layer {
  name: "inception_3a/pool"
  type: "Pooling"
  bottom: "pool2/3x3_s2"
  top: "inception_3a/pool"
  pooling_param {
    pool: MAX
    kernel_size: 3
    stride: 1
    pad: 1
  }
}
layer {
  name: "inception_3a/pool_proj"
  type: "Convolution"
  bottom: "inception_3a/pool"
  top: "inception_3a/pool_proj"
  param {
    lr_mult: 1
    decay_mult: 1
  }
  param {
    lr_mult: 2
    decay_mult: 0
  }
  convolution_param {
    num_output: 32
    kernel_size: 1
    weight_filler {
      type: "xavier"
      std: 0.1
    }
    bias_filler {
      type: "constant"
      value: 0.2
    }
  }
}
layer {
  name: "inception_3a/relu_pool_proj"
  type: "ReLU"
  bottom: "inception_3a/pool_proj"
  top: "inception_3a/pool_proj"
}
layer {
  name: "inception_3a/output"
  type: "Concat"
  bottom: "inception_3a/1x1"
  bottom: "inception_3a/3x3"
  bottom: "inception_3a/5x5"
  bottom: "inception_3a/pool_proj"
  top: "inception_3a/output"
}
layer {
  name: "inception_3b/1x1"
  type: "Convolution"
  bottom: "inception_3a/output"
  top: "inception_3b/1x1"
  param {
    lr_mult: 1
    decay_mult: 1
  }
  param {
    lr_mult: 2
    decay_mult: 0
  }
  convolution_param {
    num_output: 128
    kernel_size: 1
    weight_filler {
      type: "xavier"
      std: 0.03
    }
    bias_filler {
      type: "constant"
      value: 0.2
    }
  }
}
layer {
  name: "inception_3b/relu_1x1"
  type: "ReLU"
  bottom: "inception_3b/1x1"
  top: "inception_3b/1x1"
}
layer {
  name: "inception_3b/3x3_reduce"
  type: "Convolution"
  bottom: "inception_3a/output"
  top: "inception_3b/3x3_reduce"
  param {
    lr_mult: 1
    decay_mult: 1
  }
  param {
    lr_mult: 2
    decay_mult: 0
  }
  convolution_param {
    num_output: 128
    kernel_size: 1
    weight_filler {
      type: "xavier"
      std: 0.09
    }
    bias_filler {
      type: "constant"
      value: 0.2
    }
  }
}
layer {
  name: "inception_3b/relu_3x3_reduce"
  type: "ReLU"
  bottom: "inception_3b/3x3_reduce"
  top: "inception_3b/3x3_reduce"
}
layer {
  name: "inception_3b/3x3"
  type: "Convolution"
  bottom: "inception_3b/3x3_reduce"
  top: "inception_3b/3x3"
  param {
    lr_mult: 1
    decay_mult: 1
  }
  param {
    lr_mult: 2
    decay_mult: 0
  }
  convolution_param {
    num_output: 192
    pad: 1
    kernel_size: 3
    weight_filler {
      type: "xavier"
      std: 0.03
    }
    bias_filler {
      type: "constant"
      value: 0.2
    }
  }
}
layer {
  name: "inception_3b/relu_3x3"
  type: "ReLU"
  bottom: "inception_3b/3x3"
  top: "inception_3b/3x3"
}
layer {
  name: "inception_3b/5x5_reduce"
  type: "Convolution"
  bottom: "inception_3a/output"
  top: "inception_3b/5x5_reduce"
  param {
    lr_mult: 1
    decay_mult: 1
  }
  param {
    lr_mult: 2
    decay_mult: 0
  }
  convolution_param {
    num_output: 32
    kernel_size: 1
    weight_filler {
      type: "xavier"
      std: 0.2
    }
    bias_filler {
      type: "constant"
      value: 0.2
    }
  }
}
layer {
  name: "inception_3b/relu_5x5_reduce"
  type: "ReLU"
  bottom: "inception_3b/5x5_reduce"
  top: "inception_3b/5x5_reduce"
}
layer {
  name: "inception_3b/5x5"
  type: "Convolution"
  bottom: "inception_3b/5x5_reduce"
  top: "inception_3b/5x5"
  param {
    lr_mult: 1
    decay_mult: 1
  }
  param {
    lr_mult: 2
    decay_mult: 0
  }
  convolution_param {
    num_output: 96
    pad: 2
    kernel_size: 5
    weight_filler {
      type: "xavier"
      std: 0.03
    }
    bias_filler {
      type: "constant"
      value: 0.2
    }
  }
}
layer {
  name: "inception_3b/relu_5x5"
  type: "ReLU"
  bottom: "inception_3b/5x5"
  top: "inception_3b/5x5"
}
layer {
  name: "inception_3b/pool"
  type: "Pooling"
  bottom: "inception_3a/output"
  top: "inception_3b/pool"
  pooling_param {
    pool: MAX
    kernel_size: 3
    stride: 1
    pad: 1
  }
}
layer {
  name: "inception_3b/pool_proj"
  type: "Convolution"
  bottom: "inception_3b/pool"
  top: "inception_3b/pool_proj"
  param {
    lr_mult: 1
    decay_mult: 1
  }
  param {
    lr_mult: 2
    decay_mult: 0
  }
  convolution_param {
    num_output: 64
    kernel_size: 1
    weight_filler {
      type: "xavier"
      std: 0.1
    }
    bias_filler {
      type: "constant"
      value: 0.2
    }
  }
}
layer {
  name: "inception_3b/relu_pool_proj"
  type: "ReLU"
  bottom: "inception_3b/pool_proj"
  top: "inception_3b/pool_proj"
}
layer {
  name: "inception_3b/output"
  type: "Concat"
  bottom: "inception_3b/1x1"
  bottom: "inception_3b/3x3"
  bottom: "inception_3b/5x5"
  bottom: "inception_3b/pool_proj"
  top: "inception_3b/output"
}
layer {
  name: "pool3/3x3_s2"
  type: "Pooling"
  bottom: "inception_3b/output"
  top: "pool3/3x3_s2"
  pooling_param {
    pool: MAX
    kernel_size: 3
    stride: 2
  }
}
layer {
  name: "inception_4a/1x1"
  type: "Convolution"
  bottom: "pool3/3x3_s2"
  top: "inception_4a/1x1"
  param {
    lr_mult: 1
    decay_mult: 1
  }
  param {
    lr_mult: 2
    decay_mult: 0
  }
  convolution_param {
    num_output: 192
    kernel_size: 1
    weight_filler {
      type: "xavier"
      std: 0.03
    }
    bias_filler {
      type: "constant"
      value: 0.2
    }
  }
}
layer {
  name: "inception_4a/relu_1x1"
  type: "ReLU"
  bottom: "inception_4a/1x1"
  top: "inception_4a/1x1"
}
layer {
  name: "inception_4a/3x3_reduce"
  type: "Convolution"
  bottom: "pool3/3x3_s2"
  top: "inception_4a/3x3_reduce"
  param {
    lr_mult: 1
    decay_mult: 1
  }
  param {
    lr_mult: 2
    decay_mult: 0
  }
  convolution_param {
    num_output: 96
    kernel_size: 1
    weight_filler {
      type: "xavier"
      std: 0.09
    }
    bias_filler {
      type: "constant"
      value: 0.2
    }
  }
}
layer {
  name: "inception_4a/relu_3x3_reduce"
  type: "ReLU"
  bottom: "inception_4a/3x3_reduce"
  top: "inception_4a/3x3_reduce"
}
layer {
  name: "inception_4a/3x3"
  type: "Convolution"
  bottom: "inception_4a/3x3_reduce"
  top: "inception_4a/3x3"
  param {
    lr_mult: 1
    decay_mult: 1
  }
  param {
    lr_mult: 2
    decay_mult: 0
  }
  convolution_param {
    num_output: 208
    pad: 1
    kernel_size: 3
    weight_filler {
      type: "xavier"
      std: 0.03
    }
    bias_filler {
      type: "constant"
      value: 0.2
    }
  }
}
layer {
  name: "inception_4a/relu_3x3"
  type: "ReLU"
  bottom: "inception_4a/3x3"
  top: "inception_4a/3x3"
}
layer {
  name: "inception_4a/5x5_reduce"
  type: "Convolution"
  bottom: "pool3/3x3_s2"
  top: "inception_4a/5x5_reduce"
  param {
    lr_mult: 1
    decay_mult: 1
  }
  param {
    lr_mult: 2
    decay_mult: 0
  }
  convolution_param {
    num_output: 16
    kernel_size: 1
    weight_filler {
      type: "xavier"
      std: 0.2
    }
    bias_filler {
      type: "constant"
      value: 0.2
    }
  }
}
layer {
  name: "inception_4a/relu_5x5_reduce"
  type: "ReLU"
  bottom: "inception_4a/5x5_reduce"
  top: "inception_4a/5x5_reduce"
}
layer {
  name: "inception_4a/5x5"
  type: "Convolution"
  bottom: "inception_4a/5x5_reduce"
  top: "inception_4a/5x5"
  param {
    lr_mult: 1
    decay_mult: 1
  }
  param {
    lr_mult: 2
    decay_mult: 0
  }
  convolution_param {
    num_output: 48
    pad: 2
    kernel_size: 5
    weight_filler {
      type: "xavier"
      std: 0.03
    }
    bias_filler {
      type: "constant"
      value: 0.2
    }
  }
}
layer {
  name: "inception_4a/relu_5x5"
  type: "ReLU"
  bottom: "inception_4a/5x5"
  top: "inception_4a/5x5"
}
layer {
  name: "inception_4a/pool"
  type: "Pooling"
  bottom: "pool3/3x3_s2"
  top: "inception_4a/pool"
  pooling_param {
    pool: MAX
    kernel_size: 3
    stride: 1
    pad: 1
  }
}
layer {
  name: "inception_4a/pool_proj"
  type: "Convolution"
  bottom: "inception_4a/pool"
  top: "inception_4a/pool_proj"
  param {
    lr_mult: 1
    decay_mult: 1
  }
  param {
    lr_mult: 2
    decay_mult: 0
  }
  convolution_param {
    num_output: 64
    kernel_size: 1
    weight_filler {
      type: "xavier"
      std: 0.1
    }
    bias_filler {
      type: "constant"
      value: 0.2
    }
  }
}
layer {
  name: "inception_4a/relu_pool_proj"
  type: "ReLU"
  bottom: "inception_4a/pool_proj"
  top: "inception_4a/pool_proj"
}
layer {
  name: "inception_4a/output"
  type: "Concat"
  bottom: "inception_4a/1x1"
  bottom: "inception_4a/3x3"
  bottom: "inception_4a/5x5"
  bottom: "inception_4a/pool_proj"
  top: "inception_4a/output"
}
layer {
  name: "loss1/ave_pool"
  type: "Pooling"
  bottom: "inception_4a/output"
  top: "loss1/ave_pool"
  pooling_param {
    pool: AVE
    kernel_size: 5
    stride: 3
  }
}
layer {
  name: "loss1/conv"
  type: "Convolution"
  bottom: "loss1/ave_pool"
  top: "loss1/conv"
  param {
    lr_mult: 1
    decay_mult: 1
  }
  param {
    lr_mult: 2
    decay_mult: 0
  }
  convolution_param {
    num_output: 128
    kernel_size: 1
    weight_filler {
      type: "xavier"
      std: 0.08
    }
    bias_filler {
      type: "constant"
      value: 0.2
    }
  }
}
layer {
  name: "loss1/relu_conv"
  type: "ReLU"
  bottom: "loss1/conv"
  top: "loss1/conv"
}
layer {
  name: "loss1/fc"
  type: "InnerProduct"
  bottom: "loss1/conv"
  top: "loss1/fc"
  param {
    lr_mult: 1
    decay_mult: 1
  }
  param {
    lr_mult: 2
    decay_mult: 0
  }
  inner_product_param {
    num_output: 1024
    weight_filler {
      type: "xavier"
      std: 0.02
    }
    bias_filler {
      type: "constant"
      value: 0.2
    }
  }
}
layer {
  name: "loss1/relu_fc"
  type: "ReLU"
  bottom: "loss1/fc"
  top: "loss1/fc"
}
layer {
  name: "loss1/drop_fc"
  type: "Dropout"
  bottom: "loss1/fc"
  top: "loss1/fc"
  dropout_param {
    dropout_ratio: 0.7
  }
}
layer {
  name: "loss1/classifier_plantvillage"
  type: "InnerProduct"
  bottom: "loss1/fc"
  top: "loss1/classifier_plantvillage"
  param {
    lr_mult: 1
    decay_mult: 1
  }
  param {
    lr_mult: 2
    decay_mult: 0
  }
  inner_product_param {
    num_output: 38
    weight_filler {
      type: "xavier"
      std: 0.0009765625
    }
    bias_filler {
      type: "constant"
      value: 0
    }
  }
}
layer {
  name: "inception_4b/1x1"
  type: "Convolution"
  bottom: "inception_4a/output"
  top: "inception_4b/1x1"
  param {
    lr_mult: 1
    decay_mult: 1
  }
  param {
    lr_mult: 2
    decay_mult: 0
  }
  convolution_param {
    num_output: 160
    kernel_size: 1
    weight_filler {
      type: "xavier"
      std: 0.03
    }
    bias_filler {
      type: "constant"
      value: 0.2
    }
  }
}
layer {
  name: "inception_4b/relu_1x1"
  type: "ReLU"
  bottom: "inception_4b/1x1"
  top: "inception_4b/1x1"
}
layer {
  name: "inception_4b/3x3_reduce"
  type: "Convolution"
  bottom: "inception_4a/output"
  top: "inception_4b/3x3_reduce"
  param {
    lr_mult: 1
    decay_mult: 1
  }
  param {
    lr_mult: 2
    decay_mult: 0
  }
  convolution_param {
    num_output: 112
    kernel_size: 1
    weight_filler {
      type: "xavier"
      std: 0.09
    }
    bias_filler {
      type: "constant"
      value: 0.2
    }
  }
}
layer {
  name: "inception_4b/relu_3x3_reduce"
  type: "ReLU"
  bottom: "inception_4b/3x3_reduce"
  top: "inception_4b/3x3_reduce"
}
layer {
  name: "inception_4b/3x3"
  type: "Convolution"
  bottom: "inception_4b/3x3_reduce"
  top: "inception_4b/3x3"
  param {
    lr_mult: 1
    decay_mult: 1
  }
  param {
    lr_mult: 2
    decay_mult: 0
  }
  convolution_param {
    num_output: 224
    pad: 1
    kernel_size: 3
    weight_filler {
      type: "xavier"
      std: 0.03
    }
    bias_filler {
      type: "constant"
      value: 0.2
    }
  }
}
layer {
  name: "inception_4b/relu_3x3"
  type: "ReLU"
  bottom: "inception_4b/3x3"
  top: "inception_4b/3x3"
}
layer {
  name: "inception_4b/5x5_reduce"
  type: "Convolution"
  bottom: "inception_4a/output"
  top: "inception_4b/5x5_reduce"
  param {
    lr_mult: 1
    decay_mult: 1
  }
  param {
    lr_mult: 2
    decay_mult: 0
  }
  convolution_param {
    num_output: 24
    kernel_size: 1
    weight_filler {
      type: "xavier"
      std: 0.2
    }
    bias_filler {
      type: "constant"
      value: 0.2
    }
  }
}
layer {
  name: "inception_4b/relu_5x5_reduce"
  type: "ReLU"
  bottom: "inception_4b/5x5_reduce"
  top: "inception_4b/5x5_reduce"
}
layer {
  name: "inception_4b/5x5"
  type: "Convolution"
  bottom: "inception_4b/5x5_reduce"
  top: "inception_4b/5x5"
  param {
    lr_mult: 1
    decay_mult: 1
  }
  param {
    lr_mult: 2
    decay_mult: 0
  }
  convolution_param {
    num_output: 64
    pad: 2
    kernel_size: 5
    weight_filler {
      type: "xavier"
      std: 0.03
    }
    bias_filler {
      type: "constant"
      value: 0.2
    }
  }
}
layer {
  name: "inception_4b/relu_5x5"
  type: "ReLU"
  bottom: "inception_4b/5x5"
  top: "inception_4b/5x5"
}
layer {
  name: "inception_4b/pool"
  type: "Pooling"
  bottom: "inception_4a/output"
  top: "inception_4b/pool"
  pooling_param {
    pool: MAX
    kernel_size: 3
    stride: 1
    pad: 1
  }
}
layer {
  name: "inception_4b/pool_proj"
  type: "Convolution"
  bottom: "inception_4b/pool"
  top: "inception_4b/pool_proj"
  param {
    lr_mult: 1
    decay_mult: 1
  }
  param {
    lr_mult: 2
    decay_mult: 0
  }
  convolution_param {
    num_output: 64
    kernel_size: 1
    weight_filler {
      type: "xavier"
      std: 0.1
    }
    bias_filler {
      type: "constant"
      value: 0.2
    }
  }
}
layer {
  name: "inception_4b/relu_pool_proj"
  type: "ReLU"
  bottom: "inception_4b/pool_proj"
  top: "inception_4b/pool_proj"
}
layer {
  name: "inception_4b/output"
  type: "Concat"
  bottom: "inception_4b/1x1"
  bottom: "inception_4b/3x3"
  bottom: "inception_4b/5x5"
  bottom: "inception_4b/pool_proj"
  top: "inception_4b/output"
}
layer {
  name: "inception_4c/1x1"
  type: "Convolution"
  bottom: "inception_4b/output"
  top: "inception_4c/1x1"
  param {
    lr_mult: 1
    decay_mult: 1
  }
  param {
    lr_mult: 2
    decay_mult: 0
  }
  convolution_param {
    num_output: 128
    kernel_size: 1
    weight_filler {
      type: "xavier"
      std: 0.03
    }
    bias_filler {
      type: "constant"
      value: 0.2
    }
  }
}
layer {
  name: "inception_4c/relu_1x1"
  type: "ReLU"
  bottom: "inception_4c/1x1"
  top: "inception_4c/1x1"
}
layer {
  name: "inception_4c/3x3_reduce"
  type: "Convolution"
  bottom: "inception_4b/output"
  top: "inception_4c/3x3_reduce"
  param {
    lr_mult: 1
    decay_mult: 1
  }
  param {
    lr_mult: 2
    decay_mult: 0
  }
  convolution_param {
    num_output: 128
    kernel_size: 1
    weight_filler {
      type: "xavier"
      std: 0.09
    }
    bias_filler {
      type: "constant"
      value: 0.2
    }
  }
}
layer {
  name: "inception_4c/relu_3x3_reduce"
  type: "ReLU"
  bottom: "inception_4c/3x3_reduce"
  top: "inception_4c/3x3_reduce"
}
layer {
  name: "inception_4c/3x3"
  type: "Convolution"
  bottom: "inception_4c/3x3_reduce"
  top: "inception_4c/3x3"
  param {
    lr_mult: 1
    decay_mult: 1
  }
  param {
    lr_mult: 2
    decay_mult: 0
  }
  convolution_param {
    num_output: 256
    pad: 1
    kernel_size: 3
    weight_filler {
      type: "xavier"
      std: 0.03
    }
    bias_filler {
      type: "constant"
      value: 0.2
    }
  }
}
layer {
  name: "inception_4c/relu_3x3"
  type: "ReLU"
  bottom: "inception_4c/3x3"
  top: "inception_4c/3x3"
}
layer {
  name: "inception_4c/5x5_reduce"
  type: "Convolution"
  bottom: "inception_4b/output"
  top: "inception_4c/5x5_reduce"
  param {
    lr_mult: 1
    decay_mult: 1
  }
  param {
    lr_mult: 2
    decay_mult: 0
  }
  convolution_param {
    num_output: 24
    kernel_size: 1
    weight_filler {
      type: "xavier"
      std: 0.2
    }
    bias_filler {
      type: "constant"
      value: 0.2
    }
  }
}
layer {
  name: "inception_4c/relu_5x5_reduce"
  type: "ReLU"
  bottom: "inception_4c/5x5_reduce"
  top: "inception_4c/5x5_reduce"
}
layer {
  name: "inception_4c/5x5"
  type: "Convolution"
  bottom: "inception_4c/5x5_reduce"
  top: "inception_4c/5x5"
  param {
    lr_mult: 1
    decay_mult: 1
  }
  param {
    lr_mult: 2
    decay_mult: 0
  }
  convolution_param {
    num_output: 64
    pad: 2
    kernel_size: 5
    weight_filler {
      type: "xavier"
      std: 0.03
    }
    bias_filler {
      type: "constant"
      value: 0.2
    }
  }
}
layer {
  name: "inception_4c/relu_5x5"
  type: "ReLU"
  bottom: "inception_4c/5x5"
  top: "inception_4c/5x5"
}
layer {
  name: "inception_4c/pool"
  type: "Pooling"
  bottom: "inception_4b/output"
  top: "inception_4c/pool"
  pooling_param {
    pool: MAX
    kernel_size: 3
    stride: 1
    pad: 1
  }
}
layer {
  name: "inception_4c/pool_proj"
  type: "Convolution"
  bottom: "inception_4c/pool"
  top: "inception_4c/pool_proj"
  param {
    lr_mult: 1
    decay_mult: 1
  }
  param {
    lr_mult: 2
    decay_mult: 0
  }
  convolution_param {
    num_output: 64
    kernel_size: 1
    weight_filler {
      type: "xavier"
      std: 0.1
    }
    bias_filler {
      type: "constant"
      value: 0.2
    }
  }
}
layer {
  name: "inception_4c/relu_pool_proj"
  type: "ReLU"
  bottom: "inception_4c/pool_proj"
  top: "inception_4c/pool_proj"
}
layer {
  name: "inception_4c/output"
  type: "Concat"
  bottom: "inception_4c/1x1"
  bottom: "inception_4c/3x3"
  bottom: "inception_4c/5x5"
  bottom: "inception_4c/pool_proj"
  top: "inception_4c/output"
}
layer {
  name: "inception_4d/1x1"
  type: "Convolution"
  bottom: "inception_4c/output"
  top: "inception_4d/1x1"
  param {
    lr_mult: 1
    decay_mult: 1
  }
  param {
    lr_mult: 2
    decay_mult: 0
  }
  convolution_param {
    num_output: 112
    kernel_size: 1
    weight_filler {
      type: "xavier"
      std: 0.03
    }
    bias_filler {
      type: "constant"
      value: 0.2
    }
  }
}
layer {
  name: "inception_4d/relu_1x1"
  type: "ReLU"
  bottom: "inception_4d/1x1"
  top: "inception_4d/1x1"
}
layer {
  name: "inception_4d/3x3_reduce"
  type: "Convolution"
  bottom: "inception_4c/output"
  top: "inception_4d/3x3_reduce"
  param {
    lr_mult: 1
    decay_mult: 1
  }
  param {
    lr_mult: 2
    decay_mult: 0
  }
  convolution_param {
    num_output: 144
    kernel_size: 1
    weight_filler {
      type: "xavier"
      std: 0.09
    }
    bias_filler {
      type: "constant"
      value: 0.2
    }
  }
}
layer {
  name: "inception_4d/relu_3x3_reduce"
  type: "ReLU"
  bottom: "inception_4d/3x3_reduce"
  top: "inception_4d/3x3_reduce"
}
layer {
  name: "inception_4d/3x3"
  type: "Convolution"
  bottom: "inception_4d/3x3_reduce"
  top: "inception_4d/3x3"
  param {
    lr_mult: 1
    decay_mult: 1
  }
  param {
    lr_mult: 2
    decay_mult: 0
  }
  convolution_param {
    num_output: 288
    pad: 1
    kernel_size: 3
    weight_filler {
      type: "xavier"
      std: 0.03
    }
    bias_filler {
      type: "constant"
      value: 0.2
    }
  }
}
layer {
  name: "inception_4d/relu_3x3"
  type: "ReLU"
  bottom: "inception_4d/3x3"
  top: "inception_4d/3x3"
}
layer {
  name: "inception_4d/5x5_reduce"
  type: "Convolution"
  bottom: "inception_4c/output"
  top: "inception_4d/5x5_reduce"
  param {
    lr_mult: 1
    decay_mult: 1
  }
  param {
    lr_mult: 2
    decay_mult: 0
  }
  convolution_param {
    num_output: 32
    kernel_size: 1
    weight_filler {
      type: "xavier"
      std: 0.2
    }
    bias_filler {
      type: "constant"
      value: 0.2
    }
  }
}
layer {
  name: "inception_4d/relu_5x5_reduce"
  type: "ReLU"
  bottom: "inception_4d/5x5_reduce"
  top: "inception_4d/5x5_reduce"
}
layer {
  name: "inception_4d/5x5"
  type: "Convolution"
  bottom: "inception_4d/5x5_reduce"
  top: "inception_4d/5x5"
  param {
    lr_mult: 1
    decay_mult: 1
  }
  param {
    lr_mult: 2
    decay_mult: 0
  }
  convolution_param {
    num_output: 64
    pad: 2
    kernel_size: 5
    weight_filler {
      type: "xavier"
      std: 0.03
    }
    bias_filler {
      type: "constant"
      value: 0.2
    }
  }
}
layer {
  name: "inception_4d/relu_5x5"
  type: "ReLU"
  bottom: "inception_4d/5x5"
  top: "inception_4d/5x5"
}
layer {
  name: "inception_4d/pool"
  type: "Pooling"
  bottom: "inception_4c/output"
  top: "inception_4d/pool"
  pooling_param {
    pool: MAX
    kernel_size: 3
    stride: 1
    pad: 1
  }
}
layer {
  name: "inception_4d/pool_proj"
  type: "Convolution"
  bottom: "inception_4d/pool"
  top: "inception_4d/pool_proj"
  param {
    lr_mult: 1
    decay_mult: 1
  }
  param {
    lr_mult: 2
    decay_mult: 0
  }
  convolution_param {
    num_output: 64
    kernel_size: 1
    weight_filler {
      type: "xavier"
      std: 0.1
    }
    bias_filler {
      type: "constant"
      value: 0.2
    }
  }
}
layer {
  name: "inception_4d/relu_pool_proj"
  type: "ReLU"
  bottom: "inception_4d/pool_proj"
  top: "inception_4d/pool_proj"
}
layer {
  name: "inception_4d/output"
  type: "Concat"
  bottom: "inception_4d/1x1"
  bottom: "inception_4d/3x3"
  bottom: "inception_4d/5x5"
  bottom: "inception_4d/pool_proj"
  top: "inception_4d/output"
}
layer {
  name: "loss2/ave_pool"
  type: "Pooling"
  bottom: "inception_4d/output"
  top: "loss2/ave_pool"
  pooling_param {
    pool: AVE
    kernel_size: 5
    stride: 3
  }
}
layer {
  name: "loss2/conv"
  type: "Convolution"
  bottom: "loss2/ave_pool"
  top: "loss2/conv"
  param {
    lr_mult: 1
    decay_mult: 1
  }
  param {
    lr_mult: 2
    decay_mult: 0
  }
  convolution_param {
    num_output: 128
    kernel_size: 1
    weight_filler {
      type: "xavier"
      std: 0.08
    }
    bias_filler {
      type: "constant"
      value: 0.2
    }
  }
}
layer {
  name: "loss2/relu_conv"
  type: "ReLU"
  bottom: "loss2/conv"
  top: "loss2/conv"
}
layer {
  name: "loss2/fc"
  type: "InnerProduct"
  bottom: "loss2/conv"
  top: "loss2/fc"
  param {
    lr_mult: 1
    decay_mult: 1
  }
  param {
    lr_mult: 2
    decay_mult: 0
  }
  inner_product_param {
    num_output: 1024
    weight_filler {
      type: "xavier"
      std: 0.02
    }
    bias_filler {
      type: "constant"
      value: 0.2
    }
  }
}
layer {
  name: "loss2/relu_fc"
  type: "ReLU"
  bottom: "loss2/fc"
  top: "loss2/fc"
}
layer {
  name: "loss2/drop_fc"
  type: "Dropout"
  bottom: "loss2/fc"
  top: "loss2/fc"
  dropout_param {
    dropout_ratio: 0.7
  }
}
layer {
  name: "loss2/classifier_plantvillage"
  type: "InnerProduct"
  bottom: "loss2/fc"
  top: "loss2/classifier_plantvillage"
  param {
    lr_mult: 1
    decay_mult: 1
  }
  param {
    lr_mult: 2
    decay_mult: 0
  }
  inner_product_param {
    num_output: 38
    weight_filler {
      type: "xavier"
      std: 0.0009765625
    }
    bias_filler {
      type: "constant"
      value: 0
    }
  }
}
layer {
  name: "inception_4e/1x1"
  type: "Convolution"
  bottom: "inception_4d/output"
  top: "inception_4e/1x1"
  param {
    lr_mult: 1
    decay_mult: 1
  }
  param {
    lr_mult: 2
    decay_mult: 0
  }
  convolution_param {
    num_output: 256
    kernel_size: 1
    weight_filler {
      type: "xavier"
      std: 0.03
    }
    bias_filler {
      type: "constant"
      value: 0.2
    }
  }
}
layer {
  name: "inception_4e/relu_1x1"
  type: "ReLU"
  bottom: "inception_4e/1x1"
  top: "inception_4e/1x1"
}
layer {
  name: "inception_4e/3x3_reduce"
  type: "Convolution"
  bottom: "inception_4d/output"
  top: "inception_4e/3x3_reduce"
  param {
    lr_mult: 1
    decay_mult: 1
  }
  param {
    lr_mult: 2
    decay_mult: 0
  }
  convolution_param {
    num_output: 160
    kernel_size: 1
    weight_filler {
      type: "xavier"
      std: 0.09
    }
    bias_filler {
      type: "constant"
      value: 0.2
    }
  }
}
layer {
  name: "inception_4e/relu_3x3_reduce"
  type: "ReLU"
  bottom: "inception_4e/3x3_reduce"
  top: "inception_4e/3x3_reduce"
}
layer {
  name: "inception_4e/3x3"
  type: "Convolution"
  bottom: "inception_4e/3x3_reduce"
  top: "inception_4e/3x3"
  param {
    lr_mult: 1
    decay_mult: 1
  }
  param {
    lr_mult: 2
    decay_mult: 0
  }
  convolution_param {
    num_output: 320
    pad: 1
    kernel_size: 3
    weight_filler {
      type: "xavier"
      std: 0.03
    }
    bias_filler {
      type: "constant"
      value: 0.2
    }
  }
}
layer {
  name: "inception_4e/relu_3x3"
  type: "ReLU"
  bottom: "inception_4e/3x3"
  top: "inception_4e/3x3"
}
layer {
  name: "inception_4e/5x5_reduce"
  type: "Convolution"
  bottom: "inception_4d/output"
  top: "inception_4e/5x5_reduce"
  param {
    lr_mult: 1
    decay_mult: 1
  }
  param {
    lr_mult: 2
    decay_mult: 0
  }
  convolution_param {
    num_output: 32
    kernel_size: 1
    weight_filler {
      type: "xavier"
      std: 0.2
    }
    bias_filler {
      type: "constant"
      value: 0.2
    }
  }
}
layer {
  name: "inception_4e/relu_5x5_reduce"
  type: "ReLU"
  bottom: "inception_4e/5x5_reduce"
  top: "inception_4e/5x5_reduce"
}
layer {
  name: "inception_4e/5x5"
  type: "Convolution"
  bottom: "inception_4e/5x5_reduce"
  top: "inception_4e/5x5"
  p
I0403 16:17:27.898437 17718 layer_factory.hpp:77] Creating layer data
I0403 16:17:27.899158 17718 net.cpp:91] Creating Layer data
I0403 16:17:27.899194 17718 net.cpp:399] data -> data
I0403 16:17:27.899256 17718 net.cpp:399] data -> label
I0403 16:17:27.899303 17718 data_transformer.cpp:25] Loading mean file from: /home/mohanty/data/final_dataset/lmdb/color-20-80/mean.binaryproto
I0403 16:17:27.900758 17721 db_lmdb.cpp:38] Opened lmdb /home/mohanty/data/final_dataset/lmdb/color-20-80/test_db
I0403 16:17:27.915081 17718 data_layer.cpp:41] output data size: 24,3,224,224
I0403 16:17:27.946775 17718 net.cpp:141] Setting up data
I0403 16:17:27.946863 17718 net.cpp:148] Top shape: 24 3 224 224 (3612672)
I0403 16:17:27.946890 17718 net.cpp:148] Top shape: 24 (24)
I0403 16:17:27.946910 17718 net.cpp:156] Memory required for data: 14450784
I0403 16:17:27.946943 17718 layer_factory.hpp:77] Creating layer label_data_1_split
I0403 16:17:27.946974 17718 net.cpp:91] Creating Layer label_data_1_split
I0403 16:17:27.946995 17718 net.cpp:425] label_data_1_split <- label
I0403 16:17:27.947034 17718 net.cpp:399] label_data_1_split -> label_data_1_split_0
I0403 16:17:27.947068 17718 net.cpp:399] label_data_1_split -> label_data_1_split_1
I0403 16:17:27.947095 17718 net.cpp:399] label_data_1_split -> label_data_1_split_2
I0403 16:17:27.947123 17718 net.cpp:399] label_data_1_split -> label_data_1_split_3
I0403 16:17:27.947147 17718 net.cpp:399] label_data_1_split -> label_data_1_split_4
I0403 16:17:27.947171 17718 net.cpp:399] label_data_1_split -> label_data_1_split_5
I0403 16:17:27.947196 17718 net.cpp:399] label_data_1_split -> label_data_1_split_6
I0403 16:17:27.947221 17718 net.cpp:399] label_data_1_split -> label_data_1_split_7
I0403 16:17:27.947245 17718 net.cpp:399] label_data_1_split -> label_data_1_split_8
I0403 16:17:27.947269 17718 net.cpp:399] label_data_1_split -> label_data_1_split_9
I0403 16:17:27.947408 17718 net.cpp:141] Setting up label_data_1_split
I0403 16:17:27.947437 17718 net.cpp:148] Top shape: 24 (24)
I0403 16:17:27.947456 17718 net.cpp:148] Top shape: 24 (24)
I0403 16:17:27.947476 17718 net.cpp:148] Top shape: 24 (24)
I0403 16:17:27.947496 17718 net.cpp:148] Top shape: 24 (24)
I0403 16:17:27.947515 17718 net.cpp:148] Top shape: 24 (24)
I0403 16:17:27.947532 17718 net.cpp:148] Top shape: 24 (24)
I0403 16:17:27.947551 17718 net.cpp:148] Top shape: 24 (24)
I0403 16:17:27.947571 17718 net.cpp:148] Top shape: 24 (24)
I0403 16:17:27.947589 17718 net.cpp:148] Top shape: 24 (24)
I0403 16:17:27.947615 17718 net.cpp:148] Top shape: 24 (24)
I0403 16:17:27.947669 17718 net.cpp:156] Memory required for data: 14451744
I0403 16:17:27.947688 17718 layer_factory.hpp:77] Creating layer conv1/7x7_s2
I0403 16:17:27.947727 17718 net.cpp:91] Creating Layer conv1/7x7_s2
I0403 16:17:27.947749 17718 net.cpp:425] conv1/7x7_s2 <- data
I0403 16:17:27.947775 17718 net.cpp:399] conv1/7x7_s2 -> conv1/7x7_s2
I0403 16:17:28.111966 17718 net.cpp:141] Setting up conv1/7x7_s2
I0403 16:17:28.112053 17718 net.cpp:148] Top shape: 24 64 112 112 (19267584)
I0403 16:17:28.112074 17718 net.cpp:156] Memory required for data: 91522080
I0403 16:17:28.112112 17718 layer_factory.hpp:77] Creating layer conv1/relu_7x7
I0403 16:17:28.112144 17718 net.cpp:91] Creating Layer conv1/relu_7x7
I0403 16:17:28.112166 17718 net.cpp:425] conv1/relu_7x7 <- conv1/7x7_s2
I0403 16:17:28.112190 17718 net.cpp:386] conv1/relu_7x7 -> conv1/7x7_s2 (in-place)
I0403 16:17:28.112504 17718 net.cpp:141] Setting up conv1/relu_7x7
I0403 16:17:28.112537 17718 net.cpp:148] Top shape: 24 64 112 112 (19267584)
I0403 16:17:28.112556 17718 net.cpp:156] Memory required for data: 168592416
I0403 16:17:28.112576 17718 layer_factory.hpp:77] Creating layer pool1/3x3_s2
I0403 16:17:28.112609 17718 net.cpp:91] Creating Layer pool1/3x3_s2
I0403 16:17:28.112632 17718 net.cpp:425] pool1/3x3_s2 <- conv1/7x7_s2
I0403 16:17:28.112656 17718 net.cpp:399] pool1/3x3_s2 -> pool1/3x3_s2
I0403 16:17:28.112745 17718 net.cpp:141] Setting up pool1/3x3_s2
I0403 16:17:28.112776 17718 net.cpp:148] Top shape: 24 64 56 56 (4816896)
I0403 16:17:28.112795 17718 net.cpp:156] Memory required for data: 187860000
I0403 16:17:28.112814 17718 layer_factory.hpp:77] Creating layer pool1/norm1
I0403 16:17:28.112843 17718 net.cpp:91] Creating Layer pool1/norm1
I0403 16:17:28.112866 17718 net.cpp:425] pool1/norm1 <- pool1/3x3_s2
I0403 16:17:28.112887 17718 net.cpp:399] pool1/norm1 -> pool1/norm1
I0403 16:17:28.113227 17718 net.cpp:141] Setting up pool1/norm1
I0403 16:17:28.113261 17718 net.cpp:148] Top shape: 24 64 56 56 (4816896)
I0403 16:17:28.113281 17718 net.cpp:156] Memory required for data: 207127584
I0403 16:17:28.113301 17718 layer_factory.hpp:77] Creating layer conv2/3x3_reduce
I0403 16:17:28.113329 17718 net.cpp:91] Creating Layer conv2/3x3_reduce
I0403 16:17:28.113350 17718 net.cpp:425] conv2/3x3_reduce <- pool1/norm1
I0403 16:17:28.113373 17718 net.cpp:399] conv2/3x3_reduce -> conv2/3x3_reduce
I0403 16:17:28.115056 17718 net.cpp:141] Setting up conv2/3x3_reduce
I0403 16:17:28.115097 17718 net.cpp:148] Top shape: 24 64 56 56 (4816896)
I0403 16:17:28.115118 17718 net.cpp:156] Memory required for data: 226395168
I0403 16:17:28.115144 17718 layer_factory.hpp:77] Creating layer conv2/relu_3x3_reduce
I0403 16:17:28.115169 17718 net.cpp:91] Creating Layer conv2/relu_3x3_reduce
I0403 16:17:28.115188 17718 net.cpp:425] conv2/relu_3x3_reduce <- conv2/3x3_reduce
I0403 16:17:28.115209 17718 net.cpp:386] conv2/relu_3x3_reduce -> conv2/3x3_reduce (in-place)
I0403 16:17:28.115535 17718 net.cpp:141] Setting up conv2/relu_3x3_reduce
I0403 16:17:28.115571 17718 net.cpp:148] Top shape: 24 64 56 56 (4816896)
I0403 16:17:28.115591 17718 net.cpp:156] Memory required for data: 245662752
I0403 16:17:28.115624 17718 layer_factory.hpp:77] Creating layer conv2/3x3
I0403 16:17:28.115658 17718 net.cpp:91] Creating Layer conv2/3x3
I0403 16:17:28.115680 17718 net.cpp:425] conv2/3x3 <- conv2/3x3_reduce
I0403 16:17:28.115705 17718 net.cpp:399] conv2/3x3 -> conv2/3x3
I0403 16:17:28.118513 17718 net.cpp:141] Setting up conv2/3x3
I0403 16:17:28.118553 17718 net.cpp:148] Top shape: 24 192 56 56 (14450688)
I0403 16:17:28.118574 17718 net.cpp:156] Memory required for data: 303465504
I0403 16:17:28.118605 17718 layer_factory.hpp:77] Creating layer conv2/relu_3x3
I0403 16:17:28.118630 17718 net.cpp:91] Creating Layer conv2/relu_3x3
I0403 16:17:28.118650 17718 net.cpp:425] conv2/relu_3x3 <- conv2/3x3
I0403 16:17:28.118672 17718 net.cpp:386] conv2/relu_3x3 -> conv2/3x3 (in-place)
I0403 16:17:28.118890 17718 net.cpp:141] Setting up conv2/relu_3x3
I0403 16:17:28.118921 17718 net.cpp:148] Top shape: 24 192 56 56 (14450688)
I0403 16:17:28.118976 17718 net.cpp:156] Memory required for data: 361268256
I0403 16:17:28.118996 17718 layer_factory.hpp:77] Creating layer conv2/norm2
I0403 16:17:28.119022 17718 net.cpp:91] Creating Layer conv2/norm2
I0403 16:17:28.119043 17718 net.cpp:425] conv2/norm2 <- conv2/3x3
I0403 16:17:28.119065 17718 net.cpp:399] conv2/norm2 -> conv2/norm2
I0403 16:17:28.119427 17718 net.cpp:141] Setting up conv2/norm2
I0403 16:17:28.119460 17718 net.cpp:148] Top shape: 24 192 56 56 (14450688)
I0403 16:17:28.119480 17718 net.cpp:156] Memory required for data: 419071008
I0403 16:17:28.119498 17718 layer_factory.hpp:77] Creating layer pool2/3x3_s2
I0403 16:17:28.119523 17718 net.cpp:91] Creating Layer pool2/3x3_s2
I0403 16:17:28.119544 17718 net.cpp:425] pool2/3x3_s2 <- conv2/norm2
I0403 16:17:28.119565 17718 net.cpp:399] pool2/3x3_s2 -> pool2/3x3_s2
I0403 16:17:28.119639 17718 net.cpp:141] Setting up pool2/3x3_s2
I0403 16:17:28.119669 17718 net.cpp:148] Top shape: 24 192 28 28 (3612672)
I0403 16:17:28.119688 17718 net.cpp:156] Memory required for data: 433521696
I0403 16:17:28.119705 17718 layer_factory.hpp:77] Creating layer pool2/3x3_s2_pool2/3x3_s2_0_split
I0403 16:17:28.119727 17718 net.cpp:91] Creating Layer pool2/3x3_s2_pool2/3x3_s2_0_split
I0403 16:17:28.119746 17718 net.cpp:425] pool2/3x3_s2_pool2/3x3_s2_0_split <- pool2/3x3_s2
I0403 16:17:28.119771 17718 net.cpp:399] pool2/3x3_s2_pool2/3x3_s2_0_split -> pool2/3x3_s2_pool2/3x3_s2_0_split_0
I0403 16:17:28.119796 17718 net.cpp:399] pool2/3x3_s2_pool2/3x3_s2_0_split -> pool2/3x3_s2_pool2/3x3_s2_0_split_1
I0403 16:17:28.119820 17718 net.cpp:399] pool2/3x3_s2_pool2/3x3_s2_0_split -> pool2/3x3_s2_pool2/3x3_s2_0_split_2
I0403 16:17:28.119844 17718 net.cpp:399] pool2/3x3_s2_pool2/3x3_s2_0_split -> pool2/3x3_s2_pool2/3x3_s2_0_split_3
I0403 16:17:28.119935 17718 net.cpp:141] Setting up pool2/3x3_s2_pool2/3x3_s2_0_split
I0403 16:17:28.119966 17718 net.cpp:148] Top shape: 24 192 28 28 (3612672)
I0403 16:17:28.119987 17718 net.cpp:148] Top shape: 24 192 28 28 (3612672)
I0403 16:17:28.120007 17718 net.cpp:148] Top shape: 24 192 28 28 (3612672)
I0403 16:17:28.120025 17718 net.cpp:148] Top shape: 24 192 28 28 (3612672)
I0403 16:17:28.120041 17718 net.cpp:156] Memory required for data: 491324448
I0403 16:17:28.120060 17718 layer_factory.hpp:77] Creating layer inception_3a/1x1
I0403 16:17:28.120087 17718 net.cpp:91] Creating Layer inception_3a/1x1
I0403 16:17:28.120110 17718 net.cpp:425] inception_3a/1x1 <- pool2/3x3_s2_pool2/3x3_s2_0_split_0
I0403 16:17:28.120134 17718 net.cpp:399] inception_3a/1x1 -> inception_3a/1x1
I0403 16:17:28.122006 17718 net.cpp:141] Setting up inception_3a/1x1
I0403 16:17:28.122042 17718 net.cpp:148] Top shape: 24 64 28 28 (1204224)
I0403 16:17:28.122062 17718 net.cpp:156] Memory required for data: 496141344
I0403 16:17:28.122084 17718 layer_factory.hpp:77] Creating layer inception_3a/relu_1x1
I0403 16:17:28.122110 17718 net.cpp:91] Creating Layer inception_3a/relu_1x1
I0403 16:17:28.122131 17718 net.cpp:425] inception_3a/relu_1x1 <- inception_3a/1x1
I0403 16:17:28.122153 17718 net.cpp:386] inception_3a/relu_1x1 -> inception_3a/1x1 (in-place)
I0403 16:17:28.122367 17718 net.cpp:141] Setting up inception_3a/relu_1x1
I0403 16:17:28.122398 17718 net.cpp:148] Top shape: 24 64 28 28 (1204224)
I0403 16:17:28.122417 17718 net.cpp:156] Memory required for data: 500958240
I0403 16:17:28.122436 17718 layer_factory.hpp:77] Creating layer inception_3a/3x3_reduce
I0403 16:17:28.122463 17718 net.cpp:91] Creating Layer inception_3a/3x3_reduce
I0403 16:17:28.122486 17718 net.cpp:425] inception_3a/3x3_reduce <- pool2/3x3_s2_pool2/3x3_s2_0_split_1
I0403 16:17:28.122514 17718 net.cpp:399] inception_3a/3x3_reduce -> inception_3a/3x3_reduce
I0403 16:17:28.124526 17718 net.cpp:141] Setting up inception_3a/3x3_reduce
I0403 16:17:28.124565 17718 net.cpp:148] Top shape: 24 96 28 28 (1806336)
I0403 16:17:28.124588 17718 net.cpp:156] Memory required for data: 508183584
I0403 16:17:28.124619 17718 layer_factory.hpp:77] Creating layer inception_3a/relu_3x3_reduce
I0403 16:17:28.124662 17718 net.cpp:91] Creating Layer inception_3a/relu_3x3_reduce
I0403 16:17:28.124686 17718 net.cpp:425] inception_3a/relu_3x3_reduce <- inception_3a/3x3_reduce
I0403 16:17:28.124711 17718 net.cpp:386] inception_3a/relu_3x3_reduce -> inception_3a/3x3_reduce (in-place)
I0403 16:17:28.124933 17718 net.cpp:141] Setting up inception_3a/relu_3x3_reduce
I0403 16:17:28.124965 17718 net.cpp:148] Top shape: 24 96 28 28 (1806336)
I0403 16:17:28.124984 17718 net.cpp:156] Memory required for data: 515408928
I0403 16:17:28.125002 17718 layer_factory.hpp:77] Creating layer inception_3a/3x3
I0403 16:17:28.125030 17718 net.cpp:91] Creating Layer inception_3a/3x3
I0403 16:17:28.125051 17718 net.cpp:425] inception_3a/3x3 <- inception_3a/3x3_reduce
I0403 16:17:28.125078 17718 net.cpp:399] inception_3a/3x3 -> inception_3a/3x3
I0403 16:17:28.127095 17718 net.cpp:141] Setting up inception_3a/3x3
I0403 16:17:28.127135 17718 net.cpp:148] Top shape: 24 128 28 28 (2408448)
I0403 16:17:28.127157 17718 net.cpp:156] Memory required for data: 525042720
I0403 16:17:28.127180 17718 layer_factory.hpp:77] Creating layer inception_3a/relu_3x3
I0403 16:17:28.127202 17718 net.cpp:91] Creating Layer inception_3a/relu_3x3
I0403 16:17:28.127223 17718 net.cpp:425] inception_3a/relu_3x3 <- inception_3a/3x3
I0403 16:17:28.127249 17718 net.cpp:386] inception_3a/relu_3x3 -> inception_3a/3x3 (in-place)
I0403 16:17:28.127584 17718 net.cpp:141] Setting up inception_3a/relu_3x3
I0403 16:17:28.127625 17718 net.cpp:148] Top shape: 24 128 28 28 (2408448)
I0403 16:17:28.127646 17718 net.cpp:156] Memory required for data: 534676512
I0403 16:17:28.127665 17718 layer_factory.hpp:77] Creating layer inception_3a/5x5_reduce
I0403 16:17:28.127692 17718 net.cpp:91] Creating Layer inception_3a/5x5_reduce
I0403 16:17:28.127715 17718 net.cpp:425] inception_3a/5x5_reduce <- pool2/3x3_s2_pool2/3x3_s2_0_split_2
I0403 16:17:28.127739 17718 net.cpp:399] inception_3a/5x5_reduce -> inception_3a/5x5_reduce
I0403 16:17:28.128901 17718 net.cpp:141] Setting up inception_3a/5x5_reduce
I0403 16:17:28.128938 17718 net.cpp:148] Top shape: 24 16 28 28 (301056)
I0403 16:17:28.128959 17718 net.cpp:156] Memory required for data: 535880736
I0403 16:17:28.128983 17718 layer_factory.hpp:77] Creating layer inception_3a/relu_5x5_reduce
I0403 16:17:28.129006 17718 net.cpp:91] Creating Layer inception_3a/relu_5x5_reduce
I0403 16:17:28.129026 17718 net.cpp:425] inception_3a/relu_5x5_reduce <- inception_3a/5x5_reduce
I0403 16:17:28.129051 17718 net.cpp:386] inception_3a/relu_5x5_reduce -> inception_3a/5x5_reduce (in-place)
I0403 16:17:28.129400 17718 net.cpp:141] Setting up inception_3a/relu_5x5_reduce
I0403 16:17:28.129432 17718 net.cpp:148] Top shape: 24 16 28 28 (301056)
I0403 16:17:28.129451 17718 net.cpp:156] Memory required for data: 537084960
I0403 16:17:28.129468 17718 layer_factory.hpp:77] Creating layer inception_3a/5x5
I0403 16:17:28.129498 17718 net.cpp:91] Creating Layer inception_3a/5x5
I0403 16:17:28.129519 17718 net.cpp:425] inception_3a/5x5 <- inception_3a/5x5_reduce
I0403 16:17:28.129544 17718 net.cpp:399] inception_3a/5x5 -> inception_3a/5x5
I0403 16:17:28.130784 17718 net.cpp:141] Setting up inception_3a/5x5
I0403 16:17:28.130821 17718 net.cpp:148] Top shape: 24 32 28 28 (602112)
I0403 16:17:28.130842 17718 net.cpp:156] Memory required for data: 539493408
I0403 16:17:28.130866 17718 layer_factory.hpp:77] Creating layer inception_3a/relu_5x5
I0403 16:17:28.130887 17718 net.cpp:91] Creating Layer inception_3a/relu_5x5
I0403 16:17:28.130908 17718 net.cpp:425] inception_3a/relu_5x5 <- inception_3a/5x5
I0403 16:17:28.130930 17718 net.cpp:386] inception_3a/relu_5x5 -> inception_3a/5x5 (in-place)
I0403 16:17:28.131146 17718 net.cpp:141] Setting up inception_3a/relu_5x5
I0403 16:17:28.131176 17718 net.cpp:148] Top shape: 24 32 28 28 (602112)
I0403 16:17:28.131196 17718 net.cpp:156] Memory required for data: 541901856
I0403 16:17:28.131214 17718 layer_factory.hpp:77] Creating layer inception_3a/pool
I0403 16:17:28.131237 17718 net.cpp:91] Creating Layer inception_3a/pool
I0403 16:17:28.131255 17718 net.cpp:425] inception_3a/pool <- pool2/3x3_s2_pool2/3x3_s2_0_split_3
I0403 16:17:28.131297 17718 net.cpp:399] inception_3a/pool -> inception_3a/pool
I0403 16:17:28.131371 17718 net.cpp:141] Setting up inception_3a/pool
I0403 16:17:28.131400 17718 net.cpp:148] Top shape: 24 192 28 28 (3612672)
I0403 16:17:28.131418 17718 net.cpp:156] Memory required for data: 556352544
I0403 16:17:28.131436 17718 layer_factory.hpp:77] Creating layer inception_3a/pool_proj
I0403 16:17:28.131469 17718 net.cpp:91] Creating Layer inception_3a/pool_proj
I0403 16:17:28.131491 17718 net.cpp:425] inception_3a/pool_proj <- inception_3a/pool
I0403 16:17:28.131515 17718 net.cpp:399] inception_3a/pool_proj -> inception_3a/pool_proj
I0403 16:17:28.132695 17718 net.cpp:141] Setting up inception_3a/pool_proj
I0403 16:17:28.132730 17718 net.cpp:148] Top shape: 24 32 28 28 (602112)
I0403 16:17:28.132750 17718 net.cpp:156] Memory required for data: 558760992
I0403 16:17:28.132779 17718 layer_factory.hpp:77] Creating layer inception_3a/relu_pool_proj
I0403 16:17:28.132805 17718 net.cpp:91] Creating Layer inception_3a/relu_pool_proj
I0403 16:17:28.132827 17718 net.cpp:425] inception_3a/relu_pool_proj <- inception_3a/pool_proj
I0403 16:17:28.132850 17718 net.cpp:386] inception_3a/relu_pool_proj -> inception_3a/pool_proj (in-place)
I0403 16:17:28.133185 17718 net.cpp:141] Setting up inception_3a/relu_pool_proj
I0403 16:17:28.133221 17718 net.cpp:148] Top shape: 24 32 28 28 (602112)
I0403 16:17:28.133241 17718 net.cpp:156] Memory required for data: 561169440
I0403 16:17:28.133260 17718 layer_factory.hpp:77] Creating layer inception_3a/output
I0403 16:17:28.133281 17718 net.cpp:91] Creating Layer inception_3a/output
I0403 16:17:28.133301 17718 net.cpp:425] inception_3a/output <- inception_3a/1x1
I0403 16:17:28.133322 17718 net.cpp:425] inception_3a/output <- inception_3a/3x3
I0403 16:17:28.133342 17718 net.cpp:425] inception_3a/output <- inception_3a/5x5
I0403 16:17:28.133363 17718 net.cpp:425] inception_3a/output <- inception_3a/pool_proj
I0403 16:17:28.133385 17718 net.cpp:399] inception_3a/output -> inception_3a/output
I0403 16:17:28.133441 17718 net.cpp:141] Setting up inception_3a/output
I0403 16:17:28.133471 17718 net.cpp:148] Top shape: 24 256 28 28 (4816896)
I0403 16:17:28.133488 17718 net.cpp:156] Memory required for data: 580437024
I0403 16:17:28.133508 17718 layer_factory.hpp:77] Creating layer inception_3a/output_inception_3a/output_0_split
I0403 16:17:28.133533 17718 net.cpp:91] Creating Layer inception_3a/output_inception_3a/output_0_split
I0403 16:17:28.133554 17718 net.cpp:425] inception_3a/output_inception_3a/output_0_split <- inception_3a/output
I0403 16:17:28.133575 17718 net.cpp:399] inception_3a/output_inception_3a/output_0_split -> inception_3a/output_inception_3a/output_0_split_0
I0403 16:17:28.133599 17718 net.cpp:399] inception_3a/output_inception_3a/output_0_split -> inception_3a/output_inception_3a/output_0_split_1
I0403 16:17:28.133637 17718 net.cpp:399] inception_3a/output_inception_3a/output_0_split -> inception_3a/output_inception_3a/output_0_split_2
I0403 16:17:28.133664 17718 net.cpp:399] inception_3a/output_inception_3a/output_0_split -> inception_3a/output_inception_3a/output_0_split_3
I0403 16:17:28.133754 17718 net.cpp:141] Setting up inception_3a/output_inception_3a/output_0_split
I0403 16:17:28.133782 17718 net.cpp:148] Top shape: 24 256 28 28 (4816896)
I0403 16:17:28.133810 17718 net.cpp:148] Top shape: 24 256 28 28 (4816896)
I0403 16:17:28.133829 17718 net.cpp:148] Top shape: 24 256 28 28 (4816896)
I0403 16:17:28.133848 17718 net.cpp:148] Top shape: 24 256 28 28 (4816896)
I0403 16:17:28.133867 17718 net.cpp:156] Memory required for data: 657507360
I0403 16:17:28.133885 17718 layer_factory.hpp:77] Creating layer inception_3b/1x1
I0403 16:17:28.133913 17718 net.cpp:91] Creating Layer inception_3b/1x1
I0403 16:17:28.133934 17718 net.cpp:425] inception_3b/1x1 <- inception_3a/output_inception_3a/output_0_split_0
I0403 16:17:28.133957 17718 net.cpp:399] inception_3b/1x1 -> inception_3b/1x1
I0403 16:17:28.135342 17718 net.cpp:141] Setting up inception_3b/1x1
I0403 16:17:28.135391 17718 net.cpp:148] Top shape: 24 128 28 28 (2408448)
I0403 16:17:28.135411 17718 net.cpp:156] Memory required for data: 667141152
I0403 16:17:28.135434 17718 layer_factory.hpp:77] Creating layer inception_3b/relu_1x1
I0403 16:17:28.135459 17718 net.cpp:91] Creating Layer inception_3b/relu_1x1
I0403 16:17:28.135479 17718 net.cpp:425] inception_3b/relu_1x1 <- inception_3b/1x1
I0403 16:17:28.135500 17718 net.cpp:386] inception_3b/relu_1x1 -> inception_3b/1x1 (in-place)
I0403 16:17:28.135736 17718 net.cpp:141] Setting up inception_3b/relu_1x1
I0403 16:17:28.135771 17718 net.cpp:148] Top shape: 24 128 28 28 (2408448)
I0403 16:17:28.135792 17718 net.cpp:156] Memory required for data: 676774944
I0403 16:17:28.135809 17718 layer_factory.hpp:77] Creating layer inception_3b/3x3_reduce
I0403 16:17:28.135838 17718 net.cpp:91] Creating Layer inception_3b/3x3_reduce
I0403 16:17:28.135860 17718 net.cpp:425] inception_3b/3x3_reduce <- inception_3a/output_inception_3a/output_0_split_1
I0403 16:17:28.135885 17718 net.cpp:399] inception_3b/3x3_reduce -> inception_3b/3x3_reduce
I0403 16:17:28.137271 17718 net.cpp:141] Setting up inception_3b/3x3_reduce
I0403 16:17:28.137305 17718 net.cpp:148] Top shape: 24 128 28 28 (2408448)
I0403 16:17:28.137326 17718 net.cpp:156] Memory required for data: 686408736
I0403 16:17:28.137347 17718 layer_factory.hpp:77] Creating layer inception_3b/relu_3x3_reduce
I0403 16:17:28.137372 17718 net.cpp:91] Creating Layer inception_3b/relu_3x3_reduce
I0403 16:17:28.137393 17718 net.cpp:425] inception_3b/relu_3x3_reduce <- inception_3b/3x3_reduce
I0403 16:17:28.137415 17718 net.cpp:386] inception_3b/relu_3x3_reduce -> inception_3b/3x3_reduce (in-place)
I0403 16:17:28.137640 17718 net.cpp:141] Setting up inception_3b/relu_3x3_reduce
I0403 16:17:28.137675 17718 net.cpp:148] Top shape: 24 128 28 28 (2408448)
I0403 16:17:28.137694 17718 net.cpp:156] Memory required for data: 696042528
I0403 16:17:28.137713 17718 layer_factory.hpp:77] Creating layer inception_3b/3x3
I0403 16:17:28.137744 17718 net.cpp:91] Creating Layer inception_3b/3x3
I0403 16:17:28.137766 17718 net.cpp:425] inception_3b/3x3 <- inception_3b/3x3_reduce
I0403 16:17:28.137794 17718 net.cpp:399] inception_3b/3x3 -> inception_3b/3x3
I0403 16:17:28.141315 17718 net.cpp:141] Setting up inception_3b/3x3
I0403 16:17:28.141353 17718 net.cpp:148] Top shape: 24 192 28 28 (3612672)
I0403 16:17:28.141373 17718 net.cpp:156] Memory required for data: 710493216
I0403 16:17:28.141396 17718 layer_factory.hpp:77] Creating layer inception_3b/relu_3x3
I0403 16:17:28.141418 17718 net.cpp:91] Creating Layer inception_3b/relu_3x3
I0403 16:17:28.141439 17718 net.cpp:425] inception_3b/relu_3x3 <- inception_3b/3x3
I0403 16:17:28.141465 17718 net.cpp:386] inception_3b/relu_3x3 -> inception_3b/3x3 (in-place)
I0403 16:17:28.141811 17718 net.cpp:141] Setting up inception_3b/relu_3x3
I0403 16:17:28.141846 17718 net.cpp:148] Top shape: 24 192 28 28 (3612672)
I0403 16:17:28.141866 17718 net.cpp:156] Memory required for data: 724943904
I0403 16:17:28.141885 17718 layer_factory.hpp:77] Creating layer inception_3b/5x5_reduce
I0403 16:17:28.141914 17718 net.cpp:91] Creating Layer inception_3b/5x5_reduce
I0403 16:17:28.141937 17718 net.cpp:425] inception_3b/5x5_reduce <- inception_3a/output_inception_3a/output_0_split_2
I0403 16:17:28.141962 17718 net.cpp:399] inception_3b/5x5_reduce -> inception_3b/5x5_reduce
I0403 16:17:28.143175 17718 net.cpp:141] Setting up inception_3b/5x5_reduce
I0403 16:17:28.143213 17718 net.cpp:148] Top shape: 24 32 28 28 (602112)
I0403 16:17:28.143232 17718 net.cpp:156] Memory required for data: 727352352
I0403 16:17:28.143256 17718 layer_factory.hpp:77] Creating layer inception_3b/relu_5x5_reduce
I0403 16:17:28.143278 17718 net.cpp:91] Creating Layer inception_3b/relu_5x5_reduce
I0403 16:17:28.143298 17718 net.cpp:425] inception_3b/relu_5x5_reduce <- inception_3b/5x5_reduce
I0403 16:17:28.143321 17718 net.cpp:386] inception_3b/relu_5x5_reduce -> inception_3b/5x5_reduce (in-place)
I0403 16:17:28.143538 17718 net.cpp:141] Setting up inception_3b/relu_5x5_reduce
I0403 16:17:28.143584 17718 net.cpp:148] Top shape: 24 32 28 28 (602112)
I0403 16:17:28.143609 17718 net.cpp:156] Memory required for data: 729760800
I0403 16:17:28.143630 17718 layer_factory.hpp:77] Creating layer inception_3b/5x5
I0403 16:17:28.143658 17718 net.cpp:91] Creating Layer inception_3b/5x5
I0403 16:17:28.143679 17718 net.cpp:425] inception_3b/5x5 <- inception_3b/5x5_reduce
I0403 16:17:28.143705 17718 net.cpp:399] inception_3b/5x5 -> inception_3b/5x5
I0403 16:17:28.146090 17718 net.cpp:141] Setting up inception_3b/5x5
I0403 16:17:28.146126 17718 net.cpp:148] Top shape: 24 96 28 28 (1806336)
I0403 16:17:28.146147 17718 net.cpp:156] Memory required for data: 736986144
I0403 16:17:28.146170 17718 layer_factory.hpp:77] Creating layer inception_3b/relu_5x5
I0403 16:17:28.146195 17718 net.cpp:91] Creating Layer inception_3b/relu_5x5
I0403 16:17:28.146216 17718 net.cpp:425] inception_3b/relu_5x5 <- inception_3b/5x5
I0403 16:17:28.146239 17718 net.cpp:386] inception_3b/relu_5x5 -> inception_3b/5x5 (in-place)
I0403 16:17:28.146477 17718 net.cpp:141] Setting up inception_3b/relu_5x5
I0403 16:17:28.146508 17718 net.cpp:148] Top shape: 24 96 28 28 (1806336)
I0403 16:17:28.146528 17718 net.cpp:156] Memory required for data: 744211488
I0403 16:17:28.146548 17718 layer_factory.hpp:77] Creating layer inception_3b/pool
I0403 16:17:28.146569 17718 net.cpp:91] Creating Layer inception_3b/pool
I0403 16:17:28.146589 17718 net.cpp:425] inception_3b/pool <- inception_3a/output_inception_3a/output_0_split_3
I0403 16:17:28.146616 17718 net.cpp:399] inception_3b/pool -> inception_3b/pool
I0403 16:17:28.146687 17718 net.cpp:141] Setting up inception_3b/pool
I0403 16:17:28.146716 17718 net.cpp:148] Top shape: 24 256 28 28 (4816896)
I0403 16:17:28.146735 17718 net.cpp:156] Memory required for data: 763479072
I0403 16:17:28.146754 17718 layer_factory.hpp:77] Creating layer inception_3b/pool_proj
I0403 16:17:28.146780 17718 net.cpp:91] Creating Layer inception_3b/pool_proj
I0403 16:17:28.146806 17718 net.cpp:425] inception_3b/pool_proj <- inception_3b/pool
I0403 16:17:28.146828 17718 net.cpp:399] inception_3b/pool_proj -> inception_3b/pool_proj
I0403 16:17:28.148114 17718 net.cpp:141] Setting up inception_3b/pool_proj
I0403 16:17:28.148149 17718 net.cpp:148] Top shape: 24 64 28 28 (1204224)
I0403 16:17:28.148169 17718 net.cpp:156] Memory required for data: 768295968
I0403 16:17:28.148190 17718 layer_factory.hpp:77] Creating layer inception_3b/relu_pool_proj
I0403 16:17:28.148212 17718 net.cpp:91] Creating Layer inception_3b/relu_pool_proj
I0403 16:17:28.148233 17718 net.cpp:425] inception_3b/relu_pool_proj <- inception_3b/pool_proj
I0403 16:17:28.148257 17718 net.cpp:386] inception_3b/relu_pool_proj -> inception_3b/pool_proj (in-place)
I0403 16:17:28.148739 17718 net.cpp:141] Setting up inception_3b/relu_pool_proj
I0403 16:17:28.148772 17718 net.cpp:148] Top shape: 24 64 28 28 (1204224)
I0403 16:17:28.148792 17718 net.cpp:156] Memory required for data: 773112864
I0403 16:17:28.148811 17718 layer_factory.hpp:77] Creating layer inception_3b/output
I0403 16:17:28.148833 17718 net.cpp:91] Creating Layer inception_3b/output
I0403 16:17:28.148851 17718 net.cpp:425] inception_3b/output <- inception_3b/1x1
I0403 16:17:28.148874 17718 net.cpp:425] inception_3b/output <- inception_3b/3x3
I0403 16:17:28.148893 17718 net.cpp:425] inception_3b/output <- inception_3b/5x5
I0403 16:17:28.148913 17718 net.cpp:425] inception_3b/output <- inception_3b/pool_proj
I0403 16:17:28.148937 17718 net.cpp:399] inception_3b/output -> inception_3b/output
I0403 16:17:28.148991 17718 net.cpp:141] Setting up inception_3b/output
I0403 16:17:28.149021 17718 net.cpp:148] Top shape: 24 480 28 28 (9031680)
I0403 16:17:28.149039 17718 net.cpp:156] Memory required for data: 809239584
I0403 16:17:28.149060 17718 layer_factory.hpp:77] Creating layer pool3/3x3_s2
I0403 16:17:28.149083 17718 net.cpp:91] Creating Layer pool3/3x3_s2
I0403 16:17:28.149103 17718 net.cpp:425] pool3/3x3_s2 <- inception_3b/output
I0403 16:17:28.149128 17718 net.cpp:399] pool3/3x3_s2 -> pool3/3x3_s2
I0403 16:17:28.149215 17718 net.cpp:141] Setting up pool3/3x3_s2
I0403 16:17:28.149245 17718 net.cpp:148] Top shape: 24 480 14 14 (2257920)
I0403 16:17:28.149263 17718 net.cpp:156] Memory required for data: 818271264
I0403 16:17:28.149281 17718 layer_factory.hpp:77] Creating layer pool3/3x3_s2_pool3/3x3_s2_0_split
I0403 16:17:28.149304 17718 net.cpp:91] Creating Layer pool3/3x3_s2_pool3/3x3_s2_0_split
I0403 16:17:28.149323 17718 net.cpp:425] pool3/3x3_s2_pool3/3x3_s2_0_split <- pool3/3x3_s2
I0403 16:17:28.149344 17718 net.cpp:399] pool3/3x3_s2_pool3/3x3_s2_0_split -> pool3/3x3_s2_pool3/3x3_s2_0_split_0
I0403 16:17:28.149369 17718 net.cpp:399] pool3/3x3_s2_pool3/3x3_s2_0_split -> pool3/3x3_s2_pool3/3x3_s2_0_split_1
I0403 16:17:28.149395 17718 net.cpp:399] pool3/3x3_s2_pool3/3x3_s2_0_split -> pool3/3x3_s2_pool3/3x3_s2_0_split_2
I0403 16:17:28.149420 17718 net.cpp:399] pool3/3x3_s2_pool3/3x3_s2_0_split -> pool3/3x3_s2_pool3/3x3_s2_0_split_3
I0403 16:17:28.149514 17718 net.cpp:141] Setting up pool3/3x3_s2_pool3/3x3_s2_0_split
I0403 16:17:28.149543 17718 net.cpp:148] Top shape: 24 480 14 14 (2257920)
I0403 16:17:28.149562 17718 net.cpp:148] Top shape: 24 480 14 14 (2257920)
I0403 16:17:28.149581 17718 net.cpp:148] Top shape: 24 480 14 14 (2257920)
I0403 16:17:28.149605 17718 net.cpp:148] Top shape: 24 480 14 14 (2257920)
I0403 16:17:28.149623 17718 net.cpp:156] Memory required for data: 854397984
I0403 16:17:28.149642 17718 layer_factory.hpp:77] Creating layer inception_4a/1x1
I0403 16:17:28.149669 17718 net.cpp:91] Creating Layer inception_4a/1x1
I0403 16:17:28.149690 17718 net.cpp:425] inception_4a/1x1 <- pool3/3x3_s2_pool3/3x3_s2_0_split_0
I0403 16:17:28.149718 17718 net.cpp:399] inception_4a/1x1 -> inception_4a/1x1
I0403 16:17:28.151640 17718 net.cpp:141] Setting up inception_4a/1x1
I0403 16:17:28.151675 17718 net.cpp:148] Top shape: 24 192 14 14 (903168)
I0403 16:17:28.151695 17718 net.cpp:156] Memory required for data: 858010656
I0403 16:17:28.151718 17718 layer_factory.hpp:77] Creating layer inception_4a/relu_1x1
I0403 16:17:28.151744 17718 net.cpp:91] Creating Layer inception_4a/relu_1x1
I0403 16:17:28.151765 17718 net.cpp:425] inception_4a/relu_1x1 <- inception_4a/1x1
I0403 16:17:28.151787 17718 net.cpp:386] inception_4a/relu_1x1 -> inception_4a/1x1 (in-place)
I0403 16:17:28.152006 17718 net.cpp:141] Setting up inception_4a/relu_1x1
I0403 16:17:28.152040 17718 net.cpp:148] Top shape: 24 192 14 14 (903168)
I0403 16:17:28.152061 17718 net.cpp:156] Memory required for data: 861623328
I0403 16:17:28.152079 17718 layer_factory.hpp:77] Creating layer inception_4a/3x3_reduce
I0403 16:17:28.152104 17718 net.cpp:91] Creating Layer inception_4a/3x3_reduce
I0403 16:17:28.152124 17718 net.cpp:425] inception_4a/3x3_reduce <- pool3/3x3_s2_pool3/3x3_s2_0_split_1
I0403 16:17:28.152151 17718 net.cpp:399] inception_4a/3x3_reduce -> inception_4a/3x3_reduce
I0403 16:17:28.153713 17718 net.cpp:141] Setting up inception_4a/3x3_reduce
I0403 16:17:28.153748 17718 net.cpp:148] Top shape: 24 96 14 14 (451584)
I0403 16:17:28.153767 17718 net.cpp:156] Memory required for data: 863429664
I0403 16:17:28.153797 17718 layer_factory.hpp:77] Creating layer inception_4a/relu_3x3_reduce
I0403 16:17:28.153823 17718 net.cpp:91] Creating Layer inception_4a/relu_3x3_reduce
I0403 16:17:28.153843 17718 net.cpp:425] inception_4a/relu_3x3_reduce <- inception_4a/3x3_reduce
I0403 16:17:28.153868 17718 net.cpp:386] inception_4a/relu_3x3_reduce -> inception_4a/3x3_reduce (in-place)
I0403 16:17:28.154093 17718 net.cpp:141] Setting up inception_4a/relu_3x3_reduce
I0403 16:17:28.154125 17718 net.cpp:148] Top shape: 24 96 14 14 (451584)
I0403 16:17:28.154144 17718 net.cpp:156] Memory required for data: 865236000
I0403 16:17:28.154162 17718 layer_factory.hpp:77] Creating layer inception_4a/3x3
I0403 16:17:28.154191 17718 net.cpp:91] Creating Layer inception_4a/3x3
I0403 16:17:28.154212 17718 net.cpp:425] inception_4a/3x3 <- inception_4a/3x3_reduce
I0403 16:17:28.154239 17718 net.cpp:399] inception_4a/3x3 -> inception_4a/3x3
I0403 16:17:28.157634 17718 net.cpp:141] Setting up inception_4a/3x3
I0403 16:17:28.157670 17718 net.cpp:148] Top shape: 24 208 14 14 (978432)
I0403 16:17:28.157690 17718 net.cpp:156] Memory required for data: 869149728
I0403 16:17:28.157711 17718 layer_factory.hpp:77] Creating layer inception_4a/relu_3x3
I0403 16:17:28.157737 17718 net.cpp:91] Creating Layer inception_4a/relu_3x3
I0403 16:17:28.157760 17718 net.cpp:425] inception_4a/relu_3x3 <- inception_4a/3x3
I0403 16:17:28.157783 17718 net.cpp:386] inception_4a/relu_3x3 -> inception_4a/3x3 (in-place)
I0403 16:17:28.158120 17718 net.cpp:141] Setting up inception_4a/relu_3x3
I0403 16:17:28.158154 17718 net.cpp:148] Top shape: 24 208 14 14 (978432)
I0403 16:17:28.158172 17718 net.cpp:156] Memory required for data: 873063456
I0403 16:17:28.158191 17718 layer_factory.hpp:77] Creating layer inception_4a/5x5_reduce
I0403 16:17:28.158223 17718 net.cpp:91] Creating Layer inception_4a/5x5_reduce
I0403 16:17:28.158244 17718 net.cpp:425] inception_4a/5x5_reduce <- pool3/3x3_s2_pool3/3x3_s2_0_split_2
I0403 16:17:28.158269 17718 net.cpp:399] inception_4a/5x5_reduce -> inception_4a/5x5_reduce
I0403 16:17:28.159530 17718 net.cpp:141] Setting up inception_4a/5x5_reduce
I0403 16:17:28.159564 17718 net.cpp:148] Top shape: 24 16 14 14 (75264)
I0403 16:17:28.159584 17718 net.cpp:156] Memory required for data: 873364512
I0403 16:17:28.159615 17718 layer_factory.hpp:77] Creating layer inception_4a/relu_5x5_reduce
I0403 16:17:28.159639 17718 net.cpp:91] Creating Layer inception_4a/relu_5x5_reduce
I0403 16:17:28.159659 17718 net.cpp:425] inception_4a/relu_5x5_reduce <- inception_4a/5x5_reduce
I0403 16:17:28.159679 17718 net.cpp:386] inception_4a/relu_5x5_reduce -> inception_4a/5x5_reduce (in-place)
I0403 16:17:28.159907 17718 net.cpp:141] Setting up inception_4a/relu_5x5_reduce
I0403 16:17:28.159939 17718 net.cpp:148] Top shape: 24 16 14 14 (75264)
I0403 16:17:28.159957 17718 net.cpp:156] Memory required for data: 873665568
I0403 16:17:28.159976 17718 layer_factory.hpp:77] Creating layer inception_4a/5x5
I0403 16:17:28.160002 17718 net.cpp:91] Creating Layer inception_4a/5x5
I0403 16:17:28.160023 17718 net.cpp:425] inception_4a/5x5 <- inception_4a/5x5_reduce
I0403 16:17:28.160050 17718 net.cpp:399] inception_4a/5x5 -> inception_4a/5x5
I0403 16:17:28.161386 17718 net.cpp:141] Setting up inception_4a/5x5
I0403 16:17:28.161419 17718 net.cpp:148] Top shape: 24 48 14 14 (225792)
I0403 16:17:28.161439 17718 net.cpp:156] Memory required for data: 874568736
I0403 16:17:28.161463 17718 layer_factory.hpp:77] Creating layer inception_4a/relu_5x5
I0403 16:17:28.161484 17718 net.cpp:91] Creating Layer inception_4a/relu_5x5
I0403 16:17:28.161504 17718 net.cpp:425] inception_4a/relu_5x5 <- inception_4a/5x5
I0403 16:17:28.161527 17718 net.cpp:386] inception_4a/relu_5x5 -> inception_4a/5x5 (in-place)
I0403 16:17:28.161761 17718 net.cpp:141] Setting up inception_4a/relu_5x5
I0403 16:17:28.161792 17718 net.cpp:148] Top shape: 24 48 14 14 (225792)
I0403 16:17:28.161811 17718 net.cpp:156] Memory required for data: 875471904
I0403 16:17:28.161830 17718 layer_factory.hpp:77] Creating layer inception_4a/pool
I0403 16:17:28.161855 17718 net.cpp:91] Creating Layer inception_4a/pool
I0403 16:17:28.161876 17718 net.cpp:425] inception_4a/pool <- pool3/3x3_s2_pool3/3x3_s2_0_split_3
I0403 16:17:28.161898 17718 net.cpp:399] inception_4a/pool -> inception_4a/pool
I0403 16:17:28.161975 17718 net.cpp:141] Setting up inception_4a/pool
I0403 16:17:28.162006 17718 net.cpp:148] Top shape: 24 480 14 14 (2257920)
I0403 16:17:28.162024 17718 net.cpp:156] Memory required for data: 884503584
I0403 16:17:28.162042 17718 layer_factory.hpp:77] Creating layer inception_4a/pool_proj
I0403 16:17:28.162070 17718 net.cpp:91] Creating Layer inception_4a/pool_proj
I0403 16:17:28.162091 17718 net.cpp:425] inception_4a/pool_proj <- inception_4a/pool
I0403 16:17:28.162118 17718 net.cpp:399] inception_4a/pool_proj -> inception_4a/pool_proj
I0403 16:17:28.163548 17718 net.cpp:141] Setting up inception_4a/pool_proj
I0403 16:17:28.163583 17718 net.cpp:148] Top shape: 24 64 14 14 (301056)
I0403 16:17:28.163626 17718 net.cpp:156] Memory required for data: 885707808
I0403 16:17:28.163651 17718 layer_factory.hpp:77] Creating layer inception_4a/relu_pool_proj
I0403 16:17:28.163678 17718 net.cpp:91] Creating Layer inception_4a/relu_pool_proj
I0403 16:17:28.163699 17718 net.cpp:425] inception_4a/relu_pool_proj <- inception_4a/pool_proj
I0403 16:17:28.163722 17718 net.cpp:386] inception_4a/relu_pool_proj -> inception_4a/pool_proj (in-place)
I0403 16:17:28.164069 17718 net.cpp:141] Setting up inception_4a/relu_pool_proj
I0403 16:17:28.164101 17718 net.cpp:148] Top shape: 24 64 14 14 (301056)
I0403 16:17:28.164121 17718 net.cpp:156] Memory required for data: 886912032
I0403 16:17:28.164140 17718 layer_factory.hpp:77] Creating layer inception_4a/output
I0403 16:17:28.164162 17718 net.cpp:91] Creating Layer inception_4a/output
I0403 16:17:28.164182 17718 net.cpp:425] inception_4a/output <- inception_4a/1x1
I0403 16:17:28.164203 17718 net.cpp:425] inception_4a/output <- inception_4a/3x3
I0403 16:17:28.164228 17718 net.cpp:425] inception_4a/output <- inception_4a/5x5
I0403 16:17:28.164247 17718 net.cpp:425] inception_4a/output <- inception_4a/pool_proj
I0403 16:17:28.164268 17718 net.cpp:399] inception_4a/output -> inception_4a/output
I0403 16:17:28.164322 17718 net.cpp:141] Setting up inception_4a/output
I0403 16:17:28.164353 17718 net.cpp:148] Top shape: 24 512 14 14 (2408448)
I0403 16:17:28.164373 17718 net.cpp:156] Memory required for data: 896545824
I0403 16:17:28.164392 17718 layer_factory.hpp:77] Creating layer inception_4a/output_inception_4a/output_0_split
I0403 16:17:28.164414 17718 net.cpp:91] Creating Layer inception_4a/output_inception_4a/output_0_split
I0403 16:17:28.164433 17718 net.cpp:425] inception_4a/output_inception_4a/output_0_split <- inception_4a/output
I0403 16:17:28.164456 17718 net.cpp:399] inception_4a/output_inception_4a/output_0_split -> inception_4a/output_inception_4a/output_0_split_0
I0403 16:17:28.164482 17718 net.cpp:399] inception_4a/output_inception_4a/output_0_split -> inception_4a/output_inception_4a/output_0_split_1
I0403 16:17:28.164510 17718 net.cpp:399] inception_4a/output_inception_4a/output_0_split -> inception_4a/output_inception_4a/output_0_split_2
I0403 16:17:28.164535 17718 net.cpp:399] inception_4a/output_inception_4a/output_0_split -> inception_4a/output_inception_4a/output_0_split_3
I0403 16:17:28.164558 17718 net.cpp:399] inception_4a/output_inception_4a/output_0_split -> inception_4a/output_inception_4a/output_0_split_4
I0403 16:17:28.164677 17718 net.cpp:141] Setting up inception_4a/output_inception_4a/output_0_split
I0403 16:17:28.164707 17718 net.cpp:148] Top shape: 24 512 14 14 (2408448)
I0403 16:17:28.164731 17718 net.cpp:148] Top shape: 24 512 14 14 (2408448)
I0403 16:17:28.164753 17718 net.cpp:148] Top shape: 24 512 14 14 (2408448)
I0403 16:17:28.164772 17718 net.cpp:148] Top shape: 24 512 14 14 (2408448)
I0403 16:17:28.164791 17718 net.cpp:148] Top shape: 24 512 14 14 (2408448)
I0403 16:17:28.164808 17718 net.cpp:156] Memory required for data: 944714784
I0403 16:17:28.164826 17718 layer_factory.hpp:77] Creating layer loss1/ave_pool
I0403 16:17:28.164849 17718 net.cpp:91] Creating Layer loss1/ave_pool
I0403 16:17:28.164868 17718 net.cpp:425] loss1/ave_pool <- inception_4a/output_inception_4a/output_0_split_0
I0403 16:17:28.164894 17718 net.cpp:399] loss1/ave_pool -> loss1/ave_pool
I0403 16:17:28.165153 17718 net.cpp:141] Setting up loss1/ave_pool
I0403 16:17:28.165185 17718 net.cpp:148] Top shape: 24 512 4 4 (196608)
I0403 16:17:28.165205 17718 net.cpp:156] Memory required for data: 945501216
I0403 16:17:28.165222 17718 layer_factory.hpp:77] Creating layer loss1/conv
I0403 16:17:28.165251 17718 net.cpp:91] Creating Layer loss1/conv
I0403 16:17:28.165272 17718 net.cpp:425] loss1/conv <- loss1/ave_pool
I0403 16:17:28.165299 17718 net.cpp:399] loss1/conv -> loss1/conv
I0403 16:17:28.167124 17718 net.cpp:141] Setting up loss1/conv
I0403 16:17:28.167158 17718 net.cpp:148] Top shape: 24 128 4 4 (49152)
I0403 16:17:28.167178 17718 net.cpp:156] Memory required for data: 945697824
I0403 16:17:28.167218 17718 layer_factory.hpp:77] Creating layer loss1/relu_conv
I0403 16:17:28.167249 17718 net.cpp:91] Creating Layer loss1/relu_conv
I0403 16:17:28.167271 17718 net.cpp:425] loss1/relu_conv <- loss1/conv
I0403 16:17:28.167292 17718 net.cpp:386] loss1/relu_conv -> loss1/conv (in-place)
I0403 16:17:28.167642 17718 net.cpp:141] Setting up loss1/relu_conv
I0403 16:17:28.167675 17718 net.cpp:148] Top shape: 24 128 4 4 (49152)
I0403 16:17:28.167693 17718 net.cpp:156] Memory required for data: 945894432
I0403 16:17:28.167712 17718 layer_factory.hpp:77] Creating layer loss1/fc
I0403 16:17:28.167743 17718 net.cpp:91] Creating Layer loss1/fc
I0403 16:17:28.167767 17718 net.cpp:425] loss1/fc <- loss1/conv
I0403 16:17:28.167791 17718 net.cpp:399] loss1/fc -> loss1/fc
I0403 16:17:28.189566 17718 net.cpp:141] Setting up loss1/fc
I0403 16:17:28.189610 17718 net.cpp:148] Top shape: 24 1024 (24576)
I0403 16:17:28.189631 17718 net.cpp:156] Memory required for data: 945992736
I0403 16:17:28.189656 17718 layer_factory.hpp:77] Creating layer loss1/relu_fc
I0403 16:17:28.189677 17718 net.cpp:91] Creating Layer loss1/relu_fc
I0403 16:17:28.189697 17718 net.cpp:425] loss1/relu_fc <- loss1/fc
I0403 16:17:28.189721 17718 net.cpp:386] loss1/relu_fc -> loss1/fc (in-place)
I0403 16:17:28.189955 17718 net.cpp:141] Setting up loss1/relu_fc
I0403 16:17:28.189990 17718 net.cpp:148] Top shape: 24 1024 (24576)
I0403 16:17:28.190011 17718 net.cpp:156] Memory required for data: 946091040
I0403 16:17:28.190029 17718 layer_factory.hpp:77] Creating layer loss1/drop_fc
I0403 16:17:28.190059 17718 net.cpp:91] Creating Layer loss1/drop_fc
I0403 16:17:28.190080 17718 net.cpp:425] loss1/drop_fc <- loss1/fc
I0403 16:17:28.190104 17718 net.cpp:386] loss1/drop_fc -> loss1/fc (in-place)
I0403 16:17:28.190170 17718 net.cpp:141] Setting up loss1/drop_fc
I0403 16:17:28.190198 17718 net.cpp:148] Top shape: 24 1024 (24576)
I0403 16:17:28.190217 17718 net.cpp:156] Memory required for data: 946189344
I0403 16:17:28.190237 17718 layer_factory.hpp:77] Creating layer loss1/classifier_plantvillage
I0403 16:17:28.190258 17718 net.cpp:91] Creating Layer loss1/classifier_plantvillage
I0403 16:17:28.190277 17718 net.cpp:425] loss1/classifier_plantvillage <- loss1/fc
I0403 16:17:28.190304 17718 net.cpp:399] loss1/classifier_plantvillage -> loss1/classifier_plantvillage
I0403 16:17:28.191391 17718 net.cpp:141] Setting up loss1/classifier_plantvillage
I0403 16:17:28.191427 17718 net.cpp:148] Top shape: 24 38 (912)
I0403 16:17:28.191447 17718 net.cpp:156] Memory required for data: 946192992
I0403 16:17:28.191470 17718 layer_factory.hpp:77] Creating layer loss1/classifier_plantvillage_loss1/classifier_plantvillage_0_split
I0403 16:17:28.191495 17718 net.cpp:91] Creating Layer loss1/classifier_plantvillage_loss1/classifier_plantvillage_0_split
I0403 16:17:28.191516 17718 net.cpp:425] loss1/classifier_plantvillage_loss1/classifier_plantvillage_0_split <- loss1/classifier_plantvillage
I0403 16:17:28.191540 17718 net.cpp:399] loss1/classifier_plantvillage_loss1/classifier_plantvillage_0_split -> loss1/classifier_plantvillage_loss1/classifier_plantvillage_0_split_0
I0403 16:17:28.191566 17718 net.cpp:399] loss1/classifier_plantvillage_loss1/classifier_plantvillage_0_split -> loss1/classifier_plantvillage_loss1/classifier_plantvillage_0_split_1
I0403 16:17:28.191592 17718 net.cpp:399] loss1/classifier_plantvillage_loss1/classifier_plantvillage_0_split -> loss1/classifier_plantvillage_loss1/classifier_plantvillage_0_split_2
I0403 16:17:28.191682 17718 net.cpp:141] Setting up loss1/classifier_plantvillage_loss1/classifier_plantvillage_0_split
I0403 16:17:28.191712 17718 net.cpp:148] Top shape: 24 38 (912)
I0403 16:17:28.191732 17718 net.cpp:148] Top shape: 24 38 (912)
I0403 16:17:28.191752 17718 net.cpp:148] Top shape: 24 38 (912)
I0403 16:17:28.191769 17718 net.cpp:156] Memory required for data: 946203936
I0403 16:17:28.191787 17718 layer_factory.hpp:77] Creating layer inception_4b/1x1
I0403 16:17:28.191815 17718 net.cpp:91] Creating Layer inception_4b/1x1
I0403 16:17:28.191854 17718 net.cpp:425] inception_4b/1x1 <- inception_4a/output_inception_4a/output_0_split_1
I0403 16:17:28.191880 17718 net.cpp:399] inception_4b/1x1 -> inception_4b/1x1
I0403 16:17:28.193886 17718 net.cpp:141] Setting up inception_4b/1x1
I0403 16:17:28.193922 17718 net.cpp:148] Top shape: 24 160 14 14 (752640)
I0403 16:17:28.193943 17718 net.cpp:156] Memory required for data: 949214496
I0403 16:17:28.193965 17718 layer_factory.hpp:77] Creating layer inception_4b/relu_1x1
I0403 16:17:28.193990 17718 net.cpp:91] Creating Layer inception_4b/relu_1x1
I0403 16:17:28.194011 17718 net.cpp:425] inception_4b/relu_1x1 <- inception_4b/1x1
I0403 16:17:28.194033 17718 net.cpp:386] inception_4b/relu_1x1 -> inception_4b/1x1 (in-place)
I0403 16:17:28.194262 17718 net.cpp:141] Setting up inception_4b/relu_1x1
I0403 16:17:28.194293 17718 net.cpp:148] Top shape: 24 160 14 14 (752640)
I0403 16:17:28.194311 17718 net.cpp:156] Memory required for data: 952225056
I0403 16:17:28.194329 17718 layer_factory.hpp:77] Creating layer inception_4b/3x3_reduce
I0403 16:17:28.194360 17718 net.cpp:91] Creating Layer inception_4b/3x3_reduce
I0403 16:17:28.194382 17718 net.cpp:425] inception_4b/3x3_reduce <- inception_4a/output_inception_4a/output_0_split_2
I0403 16:17:28.194408 17718 net.cpp:399] inception_4b/3x3_reduce -> inception_4b/3x3_reduce
I0403 16:17:28.196079 17718 net.cpp:141] Setting up inception_4b/3x3_reduce
I0403 16:17:28.196115 17718 net.cpp:148] Top shape: 24 112 14 14 (526848)
I0403 16:17:28.196135 17718 net.cpp:156] Memory required for data: 954332448
I0403 16:17:28.196156 17718 layer_factory.hpp:77] Creating layer inception_4b/relu_3x3_reduce
I0403 16:17:28.196178 17718 net.cpp:91] Creating Layer inception_4b/relu_3x3_reduce
I0403 16:17:28.196197 17718 net.cpp:425] inception_4b/relu_3x3_reduce <- inception_4b/3x3_reduce
I0403 16:17:28.196223 17718 net.cpp:386] inception_4b/relu_3x3_reduce -> inception_4b/3x3_reduce (in-place)
I0403 16:17:28.196573 17718 net.cpp:141] Setting up inception_4b/relu_3x3_reduce
I0403 16:17:28.196610 17718 net.cpp:148] Top shape: 24 112 14 14 (526848)
I0403 16:17:28.196631 17718 net.cpp:156] Memory required for data: 956439840
I0403 16:17:28.196651 17718 layer_factory.hpp:77] Creating layer inception_4b/3x3
I0403 16:17:28.196679 17718 net.cpp:91] Creating Layer inception_4b/3x3
I0403 16:17:28.196702 17718 net.cpp:425] inception_4b/3x3 <- inception_4b/3x3_reduce
I0403 16:17:28.196729 17718 net.cpp:399] inception_4b/3x3 -> inception_4b/3x3
I0403 16:17:28.200362 17718 net.cpp:141] Setting up inception_4b/3x3
I0403 16:17:28.200399 17718 net.cpp:148] Top shape: 24 224 14 14 (1053696)
I0403 16:17:28.200418 17718 net.cpp:156] Memory required for data: 960654624
I0403 16:17:28.200441 17718 layer_factory.hpp:77] Creating layer inception_4b/relu_3x3
I0403 16:17:28.200466 17718 net.cpp:91] Creating Layer inception_4b/relu_3x3
I0403 16:17:28.200489 17718 net.cpp:425] inception_4b/relu_3x3 <- inception_4b/3x3
I0403 16:17:28.200510 17718 net.cpp:386] inception_4b/relu_3x3 -> inception_4b/3x3 (in-place)
I0403 16:17:28.200744 17718 net.cpp:141] Setting up inception_4b/relu_3x3
I0403 16:17:28.200778 17718 net.cpp:148] Top shape: 24 224 14 14 (1053696)
I0403 16:17:28.200800 17718 net.cpp:156] Memory required for data: 964869408
I0403 16:17:28.200819 17718 layer_factory.hpp:77] Creating layer inception_4b/5x5_reduce
I0403 16:17:28.200847 17718 net.cpp:91] Creating Layer inception_4b/5x5_reduce
I0403 16:17:28.200870 17718 net.cpp:425] inception_4b/5x5_reduce <- inception_4a/output_inception_4a/output_0_split_3
I0403 16:17:28.200893 17718 net.cpp:399] inception_4b/5x5_reduce -> inception_4b/5x5_reduce
I0403 16:17:28.202250 17718 net.cpp:141] Setting up inception_4b/5x5_reduce
I0403 16:17:28.202287 17718 net.cpp:148] Top shape: 24 24 14 14 (112896)
I0403 16:17:28.202308 17718 net.cpp:156] Memory required for data: 965320992
I0403 16:17:28.202332 17718 layer_factory.hpp:77] Creating layer inception_4b/relu_5x5_reduce
I0403 16:17:28.202355 17718 net.cpp:91] Creating Layer inception_4b/relu_5x5_reduce
I0403 16:17:28.202394 17718 net.cpp:425] inception_4b/relu_5x5_reduce <- inception_4b/5x5_reduce
I0403 16:17:28.202419 17718 net.cpp:386] inception_4b/relu_5x5_reduce -> inception_4b/5x5_reduce (in-place)
I0403 16:17:28.202659 17718 net.cpp:141] Setting up inception_4b/relu_5x5_reduce
I0403 16:17:28.202692 17718 net.cpp:148] Top shape: 24 24 14 14 (112896)
I0403 16:17:28.202710 17718 net.cpp:156] Memory required for data: 965772576
I0403 16:17:28.202728 17718 layer_factory.hpp:77] Creating layer inception_4b/5x5
I0403 16:17:28.202759 17718 net.cpp:91] Creating Layer inception_4b/5x5
I0403 16:17:28.202782 17718 net.cpp:425] inception_4b/5x5 <- inception_4b/5x5_reduce
I0403 16:17:28.202811 17718 net.cpp:399] inception_4b/5x5 -> inception_4b/5x5
I0403 16:17:28.204322 17718 net.cpp:141] Setting up inception_4b/5x5
I0403 16:17:28.204356 17718 net.cpp:148] Top shape: 24 64 14 14 (301056)
I0403 16:17:28.204375 17718 net.cpp:156] Memory required for data: 966976800
I0403 16:17:28.204399 17718 layer_factory.hpp:77] Creating layer inception_4b/relu_5x5
I0403 16:17:28.204424 17718 net.cpp:91] Creating Layer inception_4b/relu_5x5
I0403 16:17:28.204447 17718 net.cpp:425] inception_4b/relu_5x5 <- inception_4b/5x5
I0403 16:17:28.204468 17718 net.cpp:386] inception_4b/relu_5x5 -> inception_4b/5x5 (in-place)
I0403 16:17:28.204826 17718 net.cpp:141] Setting up inception_4b/relu_5x5
I0403 16:17:28.204860 17718 net.cpp:148] Top shape: 24 64 14 14 (301056)
I0403 16:17:28.204879 17718 net.cpp:156] Memory required for data: 968181024
I0403 16:17:28.204898 17718 layer_factory.hpp:77] Creating layer inception_4b/pool
I0403 16:17:28.204922 17718 net.cpp:91] Creating Layer inception_4b/pool
I0403 16:17:28.204943 17718 net.cpp:425] inception_4b/pool <- inception_4a/output_inception_4a/output_0_split_4
I0403 16:17:28.204967 17718 net.cpp:399] inception_4b/pool -> inception_4b/pool
I0403 16:17:28.205046 17718 net.cpp:141] Setting up inception_4b/pool
I0403 16:17:28.205076 17718 net.cpp:148] Top shape: 24 512 14 14 (2408448)
I0403 16:17:28.205096 17718 net.cpp:156] Memory required for data: 977814816
I0403 16:17:28.205112 17718 layer_factory.hpp:77] Creating layer inception_4b/pool_proj
I0403 16:17:28.205139 17718 net.cpp:91] Creating Layer inception_4b/pool_proj
I0403 16:17:28.205162 17718 net.cpp:425] inception_4b/pool_proj <- inception_4b/pool
I0403 16:17:28.205188 17718 net.cpp:399] inception_4b/pool_proj -> inception_4b/pool_proj
I0403 16:17:28.206691 17718 net.cpp:141] Setting up inception_4b/pool_proj
I0403 16:17:28.206728 17718 net.cpp:148] Top shape: 24 64 14 14 (301056)
I0403 16:17:28.206749 17718 net.cpp:156] Memory required for data: 979019040
I0403 16:17:28.206773 17718 layer_factory.hpp:77] Creating layer inception_4b/relu_pool_proj
I0403 16:17:28.206794 17718 net.cpp:91] Creating Layer inception_4b/relu_pool_proj
I0403 16:17:28.206815 17718 net.cpp:425] inception_4b/relu_pool_proj <- inception_4b/pool_proj
I0403 16:17:28.206840 17718 net.cpp:386] inception_4b/relu_pool_proj -> inception_4b/pool_proj (in-place)
I0403 16:17:28.207067 17718 net.cpp:141] Setting up inception_4b/relu_pool_proj
I0403 16:17:28.207098 17718 net.cpp:148] Top shape: 24 64 14 14 (301056)
I0403 16:17:28.207116 17718 net.cpp:156] Memory required for data: 980223264
I0403 16:17:28.207134 17718 layer_factory.hpp:77] Creating layer inception_4b/output
I0403 16:17:28.207157 17718 net.cpp:91] Creating Layer inception_4b/output
I0403 16:17:28.207176 17718 net.cpp:425] inception_4b/output <- inception_4b/1x1
I0403 16:17:28.207197 17718 net.cpp:425] inception_4b/output <- inception_4b/3x3
I0403 16:17:28.207218 17718 net.cpp:425] inception_4b/output <- inception_4b/5x5
I0403 16:17:28.207237 17718 net.cpp:425] inception_4b/output <- inception_4b/pool_proj
I0403 16:17:28.207262 17718 net.cpp:399] inception_4b/output -> inception_4b/output
I0403 16:17:28.207317 17718 net.cpp:141] Setting up inception_4b/output
I0403 16:17:28.207350 17718 net.cpp:148] Top shape: 24 512 14 14 (2408448)
I0403 16:17:28.207370 17718 net.cpp:156] Memory required for data: 989857056
I0403 16:17:28.207406 17718 layer_factory.hpp:77] Creating layer inception_4b/output_inception_4b/output_0_split
I0403 16:17:28.207427 17718 net.cpp:91] Creating Layer inception_4b/output_inception_4b/output_0_split
I0403 16:17:28.207447 17718 net.cpp:425] inception_4b/output_inception_4b/output_0_split <- inception_4b/output
I0403 16:17:28.207468 17718 net.cpp:399] inception_4b/output_inception_4b/output_0_split -> inception_4b/output_inception_4b/output_0_split_0
I0403 16:17:28.207496 17718 net.cpp:399] inception_4b/output_inception_4b/output_0_split -> inception_4b/output_inception_4b/output_0_split_1
I0403 16:17:28.207522 17718 net.cpp:399] inception_4b/output_inception_4b/output_0_split -> inception_4b/output_inception_4b/output_0_split_2
I0403 16:17:28.207548 17718 net.cpp:399] inception_4b/output_inception_4b/output_0_split -> inception_4b/output_inception_4b/output_0_split_3
I0403 16:17:28.207660 17718 net.cpp:141] Setting up inception_4b/output_inception_4b/output_0_split
I0403 16:17:28.207690 17718 net.cpp:148] Top shape: 24 512 14 14 (2408448)
I0403 16:17:28.207710 17718 net.cpp:148] Top shape: 24 512 14 14 (2408448)
I0403 16:17:28.207731 17718 net.cpp:148] Top shape: 24 512 14 14 (2408448)
I0403 16:17:28.207751 17718 net.cpp:148] Top shape: 24 512 14 14 (2408448)
I0403 16:17:28.207768 17718 net.cpp:156] Memory required for data: 1028392224
I0403 16:17:28.207787 17718 layer_factory.hpp:77] Creating layer inception_4c/1x1
I0403 16:17:28.207813 17718 net.cpp:91] Creating Layer inception_4c/1x1
I0403 16:17:28.207836 17718 net.cpp:425] inception_4c/1x1 <- inception_4b/output_inception_4b/output_0_split_0
I0403 16:17:28.207861 17718 net.cpp:399] inception_4c/1x1 -> inception_4c/1x1
I0403 16:17:28.209626 17718 net.cpp:141] Setting up inception_4c/1x1
I0403 16:17:28.209661 17718 net.cpp:148] Top shape: 24 128 14 14 (602112)
I0403 16:17:28.209681 17718 net.cpp:156] Memory required for data: 1030800672
I0403 16:17:28.209705 17718 layer_factory.hpp:77] Creating layer inception_4c/relu_1x1
I0403 16:17:28.209728 17718 net.cpp:91] Creating Layer inception_4c/relu_1x1
I0403 16:17:28.209748 17718 net.cpp:425] inception_4c/relu_1x1 <- inception_4c/1x1
I0403 16:17:28.209772 17718 net.cpp:386] inception_4c/relu_1x1 -> inception_4c/1x1 (in-place)
I0403 16:17:28.210005 17718 net.cpp:141] Setting up inception_4c/relu_1x1
I0403 16:17:28.210037 17718 net.cpp:148] Top shape: 24 128 14 14 (602112)
I0403 16:17:28.210057 17718 net.cpp:156] Memory required for data: 1033209120
I0403 16:17:28.210074 17718 layer_factory.hpp:77] Creating layer inception_4c/3x3_reduce
I0403 16:17:28.210103 17718 net.cpp:91] Creating Layer inception_4c/3x3_reduce
I0403 16:17:28.210124 17718 net.cpp:425] inception_4c/3x3_reduce <- inception_4b/output_inception_4b/output_0_split_1
I0403 16:17:28.210151 17718 net.cpp:399] inception_4c/3x3_reduce -> inception_4c/3x3_reduce
I0403 16:17:28.212517 17718 net.cpp:141] Setting up inception_4c/3x3_reduce
I0403 16:17:28.212555 17718 net.cpp:148] Top shape: 24 128 14 14 (602112)
I0403 16:17:28.212576 17718 net.cpp:156] Memory required for data: 1035617568
I0403 16:17:28.212599 17718 layer_factory.hpp:77] Creating layer inception_4c/relu_3x3_reduce
I0403 16:17:28.212628 17718 net.cpp:91] Creating Layer inception_4c/relu_3x3_reduce
I0403 16:17:28.212649 17718 net.cpp:425] inception_4c/relu_3x3_reduce <- inception_4c/3x3_reduce
I0403 16:17:28.212672 17718 net.cpp:386] inception_4c/relu_3x3_reduce -> inception_4c/3x3_reduce (in-place)
I0403 16:17:28.213023 17718 net.cpp:141] Setting up inception_4c/relu_3x3_reduce
I0403 16:17:28.213060 17718 net.cpp:148] Top shape: 24 128 14 14 (602112)
I0403 16:17:28.213081 17718 net.cpp:156] Memory required for data: 1038026016
I0403 16:17:28.213100 17718 layer_factory.hpp:77] Creating layer inception_4c/3x3
I0403 16:17:28.213126 17718 net.cpp:91] Creating Layer inception_4c/3x3
I0403 16:17:28.213148 17718 net.cpp:425] inception_4c/3x3 <- inception_4c/3x3_reduce
I0403 16:17:28.213176 17718 net.cpp:399] inception_4c/3x3 -> inception_4c/3x3
I0403 16:17:28.217609 17718 net.cpp:141] Setting up inception_4c/3x3
I0403 16:17:28.217663 17718 net.cpp:148] Top shape: 24 256 14 14 (1204224)
I0403 16:17:28.217684 17718 net.cpp:156] Memory required for data: 1042842912
I0403 16:17:28.217722 17718 layer_factory.hpp:77] Creating layer inception_4c/relu_3x3
I0403 16:17:28.217748 17718 net.cpp:91] Creating Layer inception_4c/relu_3x3
I0403 16:17:28.217769 17718 net.cpp:425] inception_4c/relu_3x3 <- inception_4c/3x3
I0403 16:17:28.217794 17718 net.cpp:386] inception_4c/relu_3x3 -> inception_4c/3x3 (in-place)
I0403 16:17:28.218020 17718 net.cpp:141] Setting up inception_4c/relu_3x3
I0403 16:17:28.218055 17718 net.cpp:148] Top shape: 24 256 14 14 (1204224)
I0403 16:17:28.218075 17718 net.cpp:156] Memory required for data: 1047659808
I0403 16:17:28.218093 17718 layer_factory.hpp:77] Creating layer inception_4c/5x5_reduce
I0403 16:17:28.218122 17718 net.cpp:91] Creating Layer inception_4c/5x5_reduce
I0403 16:17:28.218144 17718 net.cpp:425] inception_4c/5x5_reduce <- inception_4b/output_inception_4b/output_0_split_2
I0403 16:17:28.218168 17718 net.cpp:399] inception_4c/5x5_reduce -> inception_4c/5x5_reduce
I0403 16:17:28.219511 17718 net.cpp:141] Setting up inception_4c/5x5_reduce
I0403 16:17:28.219548 17718 net.cpp:148] Top shape: 24 24 14 14 (112896)
I0403 16:17:28.219569 17718 net.cpp:156] Memory required for data: 1048111392
I0403 16:17:28.219593 17718 layer_factory.hpp:77] Creating layer inception_4c/relu_5x5_reduce
I0403 16:17:28.219621 17718 net.cpp:91] Creating Layer inception_4c/relu_5x5_reduce
I0403 16:17:28.219642 17718 net.cpp:425] inception_4c/relu_5x5_reduce <- inception_4c/5x5_reduce
I0403 16:17:28.219663 17718 net.cpp:386] inception_4c/relu_5x5_reduce -> inception_4c/5x5_reduce (in-place)
I0403 16:17:28.219902 17718 net.cpp:141] Setting up inception_4c/relu_5x5_reduce
I0403 16:17:28.219933 17718 net.cpp:148] Top shape: 24 24 14 14 (112896)
I0403 16:17:28.219952 17718 net.cpp:156] Memory required for data: 1048562976
I0403 16:17:28.219970 17718 layer_factory.hpp:77] Creating layer inception_4c/5x5
I0403 16:17:28.219997 17718 net.cpp:91] Creating Layer inception_4c/5x5
I0403 16:17:28.220019 17718 net.cpp:425] inception_4c/5x5 <- inception_4c/5x5_reduce
I0403 16:17:28.220046 17718 net.cpp:399] inception_4c/5x5 -> inception_4c/5x5
I0403 16:17:28.221581 17718 net.cpp:141] Setting up inception_4c/5x5
I0403 16:17:28.221621 17718 net.cpp:148] Top shape: 24 64 14 14 (301056)
I0403 16:17:28.221642 17718 net.cpp:156] Memory required for data: 1049767200
I0403 16:17:28.221667 17718 layer_factory.hpp:77] Creating layer inception_4c/relu_5x5
I0403 16:17:28.221688 17718 net.cpp:91] Creating Layer inception_4c/relu_5x5
I0403 16:17:28.221707 17718 net.cpp:425] inception_4c/relu_5x5 <- inception_4c/5x5
I0403 16:17:28.221732 17718 net.cpp:386] inception_4c/relu_5x5 -> inception_4c/5x5 (in-place)
I0403 16:17:28.222090 17718 net.cpp:141] Setting up inception_4c/relu_5x5
I0403 16:17:28.222122 17718 net.cpp:148] Top shape: 24 64 14 14 (301056)
I0403 16:17:28.222141 17718 net.cpp:156] Memory required for data: 1050971424
I0403 16:17:28.222159 17718 layer_factory.hpp:77] Creating layer inception_4c/pool
I0403 16:17:28.222180 17718 net.cpp:91] Creating Layer inception_4c/pool
I0403 16:17:28.222201 17718 net.cpp:425] inception_4c/pool <- inception_4b/output_inception_4b/output_0_split_3
I0403 16:17:28.222226 17718 net.cpp:399] inception_4c/pool -> inception_4c/pool
I0403 16:17:28.222307 17718 net.cpp:141] Setting up inception_4c/pool
I0403 16:17:28.222337 17718 net.cpp:148] Top shape: 24 512 14 14 (2408448)
I0403 16:17:28.222354 17718 net.cpp:156] Memory required for data: 1060605216
I0403 16:17:28.222373 17718 layer_factory.hpp:77] Creating layer inception_4c/pool_proj
I0403 16:17:28.222401 17718 net.cpp:91] Creating Layer inception_4c/pool_proj
I0403 16:17:28.222424 17718 net.cpp:425] inception_4c/pool_proj <- inception_4c/pool
I0403 16:17:28.222447 17718 net.cpp:399] inception_4c/pool_proj -> inception_4c/pool_proj
I0403 16:17:28.223959 17718 net.cpp:141] Setting up inception_4c/pool_proj
I0403 16:17:28.223996 17718 net.cpp:148] Top shape: 24 64 14 14 (301056)
I0403 16:17:28.224032 17718 net.cpp:156] Memory required for data: 1061809440
I0403 16:17:28.224057 17718 layer_factory.hpp:77] Creating layer inception_4c/relu_pool_proj
I0403 16:17:28.224081 17718 net.cpp:91] Creating Layer inception_4c/relu_pool_proj
I0403 16:17:28.224102 17718 net.cpp:425] inception_4c/relu_pool_proj <- inception_4c/pool_proj
I0403 16:17:28.224126 17718 net.cpp:386] inception_4c/relu_pool_proj -> inception_4c/pool_proj (in-place)
I0403 16:17:28.224357 17718 net.cpp:141] Setting up inception_4c/relu_pool_proj
I0403 16:17:28.224388 17718 net.cpp:148] Top shape: 24 64 14 14 (301056)
I0403 16:17:28.224407 17718 net.cpp:156] Memory required for data: 1063013664
I0403 16:17:28.224426 17718 layer_factory.hpp:77] Creating layer inception_4c/output
I0403 16:17:28.224447 17718 net.cpp:91] Creating Layer inception_4c/output
I0403 16:17:28.224467 17718 net.cpp:425] inception_4c/output <- inception_4c/1x1
I0403 16:17:28.224486 17718 net.cpp:425] inception_4c/output <- inception_4c/3x3
I0403 16:17:28.224505 17718 net.cpp:425] inception_4c/output <- inception_4c/5x5
I0403 16:17:28.224525 17718 net.cpp:425] inception_4c/output <- inception_4c/pool_proj
I0403 16:17:28.224548 17718 net.cpp:399] inception_4c/output -> inception_4c/output
I0403 16:17:28.224611 17718 net.cpp:141] Setting up inception_4c/output
I0403 16:17:28.224643 17718 net.cpp:148] Top shape: 24 512 14 14 (2408448)
I0403 16:17:28.224663 17718 net.cpp:156] Memory required for data: 1072647456
I0403 16:17:28.224681 17718 layer_factory.hpp:77] Creating layer inception_4c/output_inception_4c/output_0_split
I0403 16:17:28.224702 17718 net.cpp:91] Creating Layer inception_4c/output_inception_4c/output_0_split
I0403 16:17:28.224721 17718 net.cpp:425] inception_4c/output_inception_4c/output_0_split <- inception_4c/output
I0403 16:17:28.224742 17718 net.cpp:399] inception_4c/output_inception_4c/output_0_split -> inception_4c/output_inception_4c/output_0_split_0
I0403 16:17:28.224767 17718 net.cpp:399] inception_4c/output_inception_4c/output_0_split -> inception_4c/output_inception_4c/output_0_split_1
I0403 16:17:28.224797 17718 net.cpp:399] inception_4c/output_inception_4c/output_0_split -> inception_4c/output_inception_4c/output_0_split_2
I0403 16:17:28.224823 17718 net.cpp:399] inception_4c/output_inception_4c/output_0_split -> inception_4c/output_inception_4c/output_0_split_3
I0403 16:17:28.224931 17718 net.cpp:141] Setting up inception_4c/output_inception_4c/output_0_split
I0403 16:17:28.224961 17718 net.cpp:148] Top shape: 24 512 14 14 (2408448)
I0403 16:17:28.224982 17718 net.cpp:148] Top shape: 24 512 14 14 (2408448)
I0403 16:17:28.225002 17718 net.cpp:148] Top shape: 24 512 14 14 (2408448)
I0403 16:17:28.225021 17718 net.cpp:148] Top shape: 24 512 14 14 (2408448)
I0403 16:17:28.225039 17718 net.cpp:156] Memory required for data: 1111182624
I0403 16:17:28.225056 17718 layer_factory.hpp:77] Creating layer inception_4d/1x1
I0403 16:17:28.225083 17718 net.cpp:91] Creating Layer inception_4d/1x1
I0403 16:17:28.225106 17718 net.cpp:425] inception_4d/1x1 <- inception_4c/output_inception_4c/output_0_split_0
I0403 16:17:28.225132 17718 net.cpp:399] inception_4d/1x1 -> inception_4d/1x1
I0403 16:17:28.226852 17718 net.cpp:141] Setting up inception_4d/1x1
I0403 16:17:28.226887 17718 net.cpp:148] Top shape: 24 112 14 14 (526848)
I0403 16:17:28.226907 17718 net.cpp:156] Memory required for data: 1113290016
I0403 16:17:28.226930 17718 layer_factory.hpp:77] Creating layer inception_4d/relu_1x1
I0403 16:17:28.226956 17718 net.cpp:91] Creating Layer inception_4d/relu_1x1
I0403 16:17:28.226979 17718 net.cpp:425] inception_4d/relu_1x1 <- inception_4d/1x1
I0403 16:17:28.227001 17718 net.cpp:386] inception_4d/relu_1x1 -> inception_4d/1x1 (in-place)
I0403 16:17:28.227231 17718 net.cpp:141] Setting up inception_4d/relu_1x1
I0403 16:17:28.227265 17718 net.cpp:148] Top shape: 24 112 14 14 (526848)
I0403 16:17:28.227284 17718 net.cpp:156] Memory required for data: 1115397408
I0403 16:17:28.227303 17718 layer_factory.hpp:77] Creating layer inception_4d/3x3_reduce
I0403 16:17:28.227349 17718 net.cpp:91] Creating Layer inception_4d/3x3_reduce
I0403 16:17:28.227372 17718 net.cpp:425] inception_4d/3x3_reduce <- inception_4c/output_inception_4c/output_0_split_1
I0403 16:17:28.227397 17718 net.cpp:399] inception_4d/3x3_reduce -> inception_4d/3x3_reduce
I0403 16:17:28.229272 17718 net.cpp:141] Setting up inception_4d/3x3_reduce
I0403 16:17:28.229307 17718 net.cpp:148] Top shape: 24 144 14 14 (677376)
I0403 16:17:28.229326 17718 net.cpp:156] Memory required for data: 1118106912
I0403 16:17:28.229349 17718 layer_factory.hpp:77] Creating layer inception_4d/relu_3x3_reduce
I0403 16:17:28.229374 17718 net.cpp:91] Creating Layer inception_4d/relu_3x3_reduce
I0403 16:17:28.229395 17718 net.cpp:425] inception_4d/relu_3x3_reduce <- inception_4d/3x3_reduce
I0403 16:17:28.229418 17718 net.cpp:386] inception_4d/relu_3x3_reduce -> inception_4d/3x3_reduce (in-place)
I0403 16:17:28.229785 17718 net.cpp:141] Setting up inception_4d/relu_3x3_reduce
I0403 16:17:28.229817 17718 net.cpp:148] Top shape: 24 144 14 14 (677376)
I0403 16:17:28.229836 17718 net.cpp:156] Memory required for data: 1120816416
I0403 16:17:28.229856 17718 layer_factory.hpp:77] Creating layer inception_4d/3x3
I0403 16:17:28.229884 17718 net.cpp:91] Creating Layer inception_4d/3x3
I0403 16:17:28.229907 17718 net.cpp:425] inception_4d/3x3 <- inception_4d/3x3_reduce
I0403 16:17:28.229933 17718 net.cpp:399] inception_4d/3x3 -> inception_4d/3x3
I0403 16:17:28.235190 17718 net.cpp:141] Setting up inception_4d/3x3
I0403 16:17:28.235226 17718 net.cpp:148] Top shape: 24 288 14 14 (1354752)
I0403 16:17:28.235245 17718 net.cpp:156] Memory required for data: 1126235424
I0403 16:17:28.235268 17718 layer_factory.hpp:77] Creating layer inception_4d/relu_3x3
I0403 16:17:28.235293 17718 net.cpp:91] Creating Layer inception_4d/relu_3x3
I0403 16:17:28.235316 17718 net.cpp:425] inception_4d/relu_3x3 <- inception_4d/3x3
I0403 16:17:28.235337 17718 net.cpp:386] inception_4d/relu_3x3 -> inception_4d/3x3 (in-place)
I0403 16:17:28.235569 17718 net.cpp:141] Setting up inception_4d/relu_3x3
I0403 16:17:28.235615 17718 net.cpp:148] Top shape: 24 288 14 14 (1354752)
I0403 16:17:28.235637 17718 net.cpp:156] Memory required for data: 1131654432
I0403 16:17:28.235656 17718 layer_factory.hpp:77] Creating layer inception_4d/5x5_reduce
I0403 16:17:28.235683 17718 net.cpp:91] Creating Layer inception_4d/5x5_reduce
I0403 16:17:28.235705 17718 net.cpp:425] inception_4d/5x5_reduce <- inception_4c/output_inception_4c/output_0_split_2
I0403 16:17:28.235730 17718 net.cpp:399] inception_4d/5x5_reduce -> inception_4d/5x5_reduce
I0403 16:17:28.237155 17718 net.cpp:141] Setting up inception_4d/5x5_reduce
I0403 16:17:28.237190 17718 net.cpp:148] Top shape: 24 32 14 14 (150528)
I0403 16:17:28.237210 17718 net.cpp:156] Memory required for data: 1132256544
I0403 16:17:28.237232 17718 layer_factory.hpp:77] Creating layer inception_4d/relu_5x5_reduce
I0403 16:17:28.237257 17718 net.cpp:91] Creating Layer inception_4d/relu_5x5_reduce
I0403 16:17:28.237278 17718 net.cpp:425] inception_4d/relu_5x5_reduce <- inception_4d/5x5_reduce
I0403 16:17:28.237300 17718 net.cpp:386] inception_4d/relu_5x5_reduce -> inception_4d/5x5_reduce (in-place)
I0403 16:17:28.237534 17718 net.cpp:141] Setting up inception_4d/relu_5x5_reduce
I0403 16:17:28.237570 17718 net.cpp:148] Top shape: 24 32 14 14 (150528)
I0403 16:17:28.237591 17718 net.cpp:156] Memory required for data: 1132858656
I0403 16:17:28.237615 17718 layer_factory.hpp:77] Creating layer inception_4d/5x5
I0403 16:17:28.237645 17718 net.cpp:91] Creating Layer inception_4d/5x5
I0403 16:17:28.237668 17718 net.cpp:425] inception_4d/5x5 <- inception_4d/5x5_reduce
I0403 16:17:28.237692 17718 net.cpp:399] inception_4d/5x5 -> inception_4d/5x5
I0403 16:17:28.239502 17718 net.cpp:141] Setting up inception_4d/5x5
I0403 16:17:28.239537 17718 net.cpp:148] Top shape: 24 64 14 14 (301056)
I0403 16:17:28.239557 17718 net.cpp:156] Memory required for data: 1134062880
I0403 16:17:28.239579 17718 layer_factory.hpp:77] Creating layer inception_4d/relu_5x5
I0403 16:17:28.239625 17718 net.cpp:91] Creating Layer inception_4d/relu_5x5
I0403 16:17:28.239646 17718 net.cpp:425] inception_4d/relu_5x5 <- inception_4d/5x5
I0403 16:17:28.239672 17718 net.cpp:386] inception_4d/relu_5x5 -> inception_4d/5x5 (in-place)
I0403 16:17:28.240041 17718 net.cpp:141] Setting up inception_4d/relu_5x5
I0403 16:17:28.240073 17718 net.cpp:148] Top shape: 24 64 14 14 (301056)
I0403 16:17:28.240092 17718 net.cpp:156] Memory required for data: 1135267104
I0403 16:17:28.240110 17718 layer_factory.hpp:77] Creating layer inception_4d/pool
I0403 16:17:28.240131 17718 net.cpp:91] Creating Layer inception_4d/pool
I0403 16:17:28.240152 17718 net.cpp:425] inception_4d/pool <- inception_4c/output_inception_4c/output_0_split_3
I0403 16:17:28.240178 17718 net.cpp:399] inception_4d/pool -> inception_4d/pool
I0403 16:17:28.240262 17718 net.cpp:141] Setting up inception_4d/pool
I0403 16:17:28.240291 17718 net.cpp:148] Top shape: 24 512 14 14 (2408448)
I0403 16:17:28.240309 17718 net.cpp:156] Memory required for data: 1144900896
I0403 16:17:28.240327 17718 layer_factory.hpp:77] Creating layer inception_4d/pool_proj
I0403 16:17:28.240356 17718 net.cpp:91] Creating Layer inception_4d/pool_proj
I0403 16:17:28.240380 17718 net.cpp:425] inception_4d/pool_proj <- inception_4d/pool
I0403 16:17:28.240403 17718 net.cpp:399] inception_4d/pool_proj -> inception_4d/pool_proj
I0403 16:17:28.242558 17718 net.cpp:141] Setting up inception_4d/pool_proj
I0403 16:17:28.242594 17718 net.cpp:148] Top shape: 24 64 14 14 (301056)
I0403 16:17:28.242619 17718 net.cpp:156] Memory required for data: 1146105120
I0403 16:17:28.242642 17718 layer_factory.hpp:77] Creating layer inception_4d/relu_pool_proj
I0403 16:17:28.242669 17718 net.cpp:91] Creating Layer inception_4d/relu_pool_proj
I0403 16:17:28.242692 17718 net.cpp:425] inception_4d/relu_pool_proj <- inception_4d/pool_proj
I0403 16:17:28.242713 17718 net.cpp:386] inception_4d/relu_pool_proj -> inception_4d/pool_proj (in-place)
I0403 16:17:28.242949 17718 net.cpp:141] Setting up inception_4d/relu_pool_proj
I0403 16:17:28.242982 17718 net.cpp:148] Top shape: 24 64 14 14 (301056)
I0403 16:17:28.243002 17718 net.cpp:156] Memory required for data: 1147309344
I0403 16:17:28.243021 17718 layer_factory.hpp:77] Creating layer inception_4d/output
I0403 16:17:28.243043 17718 net.cpp:91] Creating Layer inception_4d/output
I0403 16:17:28.243062 17718 net.cpp:425] inception_4d/output <- inception_4d/1x1
I0403 16:17:28.243083 17718 net.cpp:425] inception_4d/output <- inception_4d/3x3
I0403 16:17:28.243101 17718 net.cpp:425] inception_4d/output <- inception_4d/5x5
I0403 16:17:28.243121 17718 net.cpp:425] inception_4d/output <- inception_4d/pool_proj
I0403 16:17:28.243146 17718 net.cpp:399] inception_4d/output -> inception_4d/output
I0403 16:17:28.243204 17718 net.cpp:141] Setting up inception_4d/output
I0403 16:17:28.243233 17718 net.cpp:148] Top shape: 24 528 14 14 (2483712)
I0403 16:17:28.243252 17718 net.cpp:156] Memory required for data: 1157244192
I0403 16:17:28.243269 17718 layer_factory.hpp:77] Creating layer inception_4d/output_inception_4d/output_0_split
I0403 16:17:28.243294 17718 net.cpp:91] Creating Layer inception_4d/output_inception_4d/output_0_split
I0403 16:17:28.243314 17718 net.cpp:425] inception_4d/output_inception_4d/output_0_split <- inception_4d/output
I0403 16:17:28.243338 17718 net.cpp:399] inception_4d/output_inception_4d/output_0_split -> inception_4d/output_inception_4d/output_0_split_0
I0403 16:17:28.243363 17718 net.cpp:399] inception_4d/output_inception_4d/output_0_split -> inception_4d/output_inception_4d/output_0_split_1
I0403 16:17:28.243396 17718 net.cpp:399] inception_4d/output_inception_4d/output_0_split -> inception_4d/output_inception_4d/output_0_split_2
I0403 16:17:28.243422 17718 net.cpp:399] inception_4d/output_inception_4d/output_0_split -> inception_4d/output_inception_4d/output_0_split_3
I0403 16:17:28.243446 17718 net.cpp:399] inception_4d/output_inception_4d/output_0_split -> inception_4d/output_inception_4d/output_0_split_4
I0403 16:17:28.243573 17718 net.cpp:141] Setting up inception_4d/output_inception_4d/output_0_split
I0403 16:17:28.243623 17718 net.cpp:148] Top shape: 24 528 14 14 (2483712)
I0403 16:17:28.243646 17718 net.cpp:148] Top shape: 24 528 14 14 (2483712)
I0403 16:17:28.243666 17718 net.cpp:148] Top shape: 24 528 14 14 (2483712)
I0403 16:17:28.243686 17718 net.cpp:148] Top shape: 24 528 14 14 (2483712)
I0403 16:17:28.243705 17718 net.cpp:148] Top shape: 24 528 14 14 (2483712)
I0403 16:17:28.243721 17718 net.cpp:156] Memory required for data: 1206918432
I0403 16:17:28.243741 17718 layer_factory.hpp:77] Creating layer loss2/ave_pool
I0403 16:17:28.243764 17718 net.cpp:91] Creating Layer loss2/ave_pool
I0403 16:17:28.243787 17718 net.cpp:425] loss2/ave_pool <- inception_4d/output_inception_4d/output_0_split_0
I0403 16:17:28.243809 17718 net.cpp:399] loss2/ave_pool -> loss2/ave_pool
I0403 16:17:28.244192 17718 net.cpp:141] Setting up loss2/ave_pool
I0403 16:17:28.244225 17718 net.cpp:148] Top shape: 24 528 4 4 (202752)
I0403 16:17:28.244246 17718 net.cpp:156] Memory required for data: 1207729440
I0403 16:17:28.244264 17718 layer_factory.hpp:77] Creating layer loss2/conv
I0403 16:17:28.244292 17718 net.cpp:91] Creating Layer loss2/conv
I0403 16:17:28.244314 17718 net.cpp:425] loss2/conv <- loss2/ave_pool
I0403 16:17:28.244340 17718 net.cpp:399] loss2/conv -> loss2/conv
I0403 16:17:28.246701 17718 net.cpp:141] Setting up loss2/conv
I0403 16:17:28.246738 17718 net.cpp:148] Top shape: 24 128 4 4 (49152)
I0403 16:17:28.246759 17718 net.cpp:156] Memory required for data: 1207926048
I0403 16:17:28.246783 17718 layer_factory.hpp:77] Creating layer loss2/relu_conv
I0403 16:17:28.246808 17718 net.cpp:91] Creating Layer loss2/relu_conv
I0403 16:17:28.246827 17718 net.cpp:425] loss2/relu_conv <- loss2/conv
I0403 16:17:28.246852 17718 net.cpp:386] loss2/relu_conv -> loss2/conv (in-place)
I0403 16:17:28.247206 17718 net.cpp:141] Setting up loss2/relu_conv
I0403 16:17:28.247242 17718 net.cpp:148] Top shape: 24 128 4 4 (49152)
I0403 16:17:28.247262 17718 net.cpp:156] Memory required for data: 1208122656
I0403 16:17:28.247280 17718 layer_factory.hpp:77] Creating layer loss2/fc
I0403 16:17:28.247303 17718 net.cpp:91] Creating Layer loss2/fc
I0403 16:17:28.247323 17718 net.cpp:425] loss2/fc <- loss2/conv
I0403 16:17:28.247350 17718 net.cpp:399] loss2/fc -> loss2/fc
I0403 16:17:28.269105 17718 net.cpp:141] Setting up loss2/fc
I0403 16:17:28.269148 17718 net.cpp:148] Top shape: 24 1024 (24576)
I0403 16:17:28.269168 17718 net.cpp:156] Memory required for data: 1208220960
I0403 16:17:28.269192 17718 layer_factory.hpp:77] Creating layer loss2/relu_fc
I0403 16:17:28.269217 17718 net.cpp:91] Creating Layer loss2/relu_fc
I0403 16:17:28.269239 17718 net.cpp:425] loss2/relu_fc <- loss2/fc
I0403 16:17:28.269261 17718 net.cpp:386] loss2/relu_fc -> loss2/fc (in-place)
I0403 16:17:28.269639 17718 net.cpp:141] Setting up loss2/relu_fc
I0403 16:17:28.269672 17718 net.cpp:148] Top shape: 24 1024 (24576)
I0403 16:17:28.269691 17718 net.cpp:156] Memory required for data: 1208319264
I0403 16:17:28.269709 17718 layer_factory.hpp:77] Creating layer loss2/drop_fc
I0403 16:17:28.269734 17718 net.cpp:91] Creating Layer loss2/drop_fc
I0403 16:17:28.269757 17718 net.cpp:425] loss2/drop_fc <- loss2/fc
I0403 16:17:28.269779 17718 net.cpp:386] loss2/drop_fc -> loss2/fc (in-place)
I0403 16:17:28.269845 17718 net.cpp:141] Setting up loss2/drop_fc
I0403 16:17:28.269872 17718 net.cpp:148] Top shape: 24 1024 (24576)
I0403 16:17:28.269891 17718 net.cpp:156] Memory required for data: 1208417568
I0403 16:17:28.269909 17718 layer_factory.hpp:77] Creating layer loss2/classifier_plantvillage
I0403 16:17:28.269937 17718 net.cpp:91] Creating Layer loss2/classifier_plantvillage
I0403 16:17:28.269958 17718 net.cpp:425] loss2/classifier_plantvillage <- loss2/fc
I0403 16:17:28.269982 17718 net.cpp:399] loss2/classifier_plantvillage -> loss2/classifier_plantvillage
I0403 16:17:28.270481 17718 net.cpp:141] Setting up loss2/classifier_plantvillage
I0403 16:17:28.270512 17718 net.cpp:148] Top shape: 24 38 (912)
I0403 16:17:28.270531 17718 net.cpp:156] Memory required for data: 1208421216
I0403 16:17:28.270573 17718 layer_factory.hpp:77] Creating layer loss2/classifier_plantvillage_loss2/classifier_plantvillage_0_split
I0403 16:17:28.270597 17718 net.cpp:91] Creating Layer loss2/classifier_plantvillage_loss2/classifier_plantvillage_0_split
I0403 16:17:28.270624 17718 net.cpp:425] loss2/classifier_plantvillage_loss2/classifier_plantvillage_0_split <- loss2/classifier_plantvillage
I0403 16:17:28.270650 17718 net.cpp:399] loss2/classifier_plantvillage_loss2/classifier_plantvillage_0_split -> loss2/classifier_plantvillage_loss2/classifier_plantvillage_0_split_0
I0403 16:17:28.270678 17718 net.cpp:399] loss2/classifier_plantvillage_loss2/classifier_plantvillage_0_split -> loss2/classifier_plantvillage_loss2/classifier_plantvillage_0_split_1
I0403 16:17:28.270704 17718 net.cpp:399] loss2/classifier_plantvillage_loss2/classifier_plantvillage_0_split -> loss2/classifier_plantvillage_loss2/classifier_plantvillage_0_split_2
I0403 16:17:28.270799 17718 net.cpp:141] Setting up loss2/classifier_plantvillage_loss2/classifier_plantvillage_0_split
I0403 16:17:28.270833 17718 net.cpp:148] Top shape: 24 38 (912)
I0403 16:17:28.270855 17718 net.cpp:148] Top shape: 24 38 (912)
I0403 16:17:28.270875 17718 net.cpp:148] Top shape: 24 38 (912)
I0403 16:17:28.270892 17718 net.cpp:156] Memory required for data: 1208432160
I0403 16:17:28.270910 17718 layer_factory.hpp:77] Creating layer inception_4e/1x1
I0403 16:17:28.270934 17718 net.cpp:91] Creating Layer inception_4e/1x1
I0403 16:17:28.270956 17718 net.cpp:425] inception_4e/1x1 <- inception_4d/output_inception_4d/output_0_split_1
I0403 16:17:28.270980 17718 net.cpp:399] inception_4e/1x1 -> inception_4e/1x1
I0403 16:17:28.273241 17718 net.cpp:141] Setting up inception_4e/1x1
I0403 16:17:28.273277 17718 net.cpp:148] Top shape: 24 256 14 14 (1204224)
I0403 16:17:28.273295 17718 net.cpp:156] Memory required for data: 1213249056
I0403 16:17:28.273319 17718 layer_factory.hpp:77] Creating layer inception_4e/relu_1x1
I0403 16:17:28.273340 17718 net.cpp:91] Creating Layer inception_4e/relu_1x1
I0403 16:17:28.273361 17718 net.cpp:425] inception_4e/relu_1x1 <- inception_4e/1x1
I0403 16:17:28.273386 17718 net.cpp:386] inception_4e/relu_1x1 -> inception_4e/1x1 (in-place)
I0403 16:17:28.273757 17718 net.cpp:141] Setting up inception_4e/relu_1x1
I0403 16:17:28.273789 17718 net.cpp:148] Top shape: 24 256 14 14 (1204224)
I0403 16:17:28.273809 17718 net.cpp:156] Memory required for data: 1218065952
I0403 16:17:28.273828 17718 layer_factory.hpp:77] Creating layer inception_4e/3x3_reduce
I0403 16:17:28.273856 17718 net.cpp:91] Creating Layer inception_4e/3x3_reduce
I0403 16:17:28.273880 17718 net.cpp:425] inception_4e/3x3_reduce <- inception_4d/output_inception_4d/output_0_split_2
I0403 16:17:28.273907 17718 net.cpp:399] inception_4e/3x3_reduce -> inception_4e/3x3_reduce
I0403 16:17:28.276517 17718 net.cpp:141] Setting up inception_4e/3x3_reduce
I0403 16:17:28.276556 17718 net.cpp:148] Top shape: 24 160 14 14 (752640)
I0403 16:17:28.276576 17718 net.cpp:156] Memory required for data: 1221076512
I0403 16:17:28.276600 17718 layer_factory.hpp:77] Creating layer inception_4e/relu_3x3_reduce
I0403 16:17:28.276630 17718 net.cpp:91] Creating Layer inception_4e/relu_3x3_reduce
I0403 16:17:28.276653 17718 net.cpp:425] inception_4e/relu_3x3_reduce <- inception_4e/3x3_reduce
I0403 16:17:28.276677 17718 net.cpp:386] inception_4e/relu_3x3_reduce -> inception_4e/3x3_reduce (in-place)
I0403 16:17:28.276917 17718 net.cpp:141] Setting up inception_4e/relu_3x3_reduce
I0403 16:17:28.276949 17718 net.cpp:148] Top shape: 24 160 14 14 (752640)
I0403 16:17:28.276968 17718 net.cpp:156] Memory required for data: 1224087072
I0403 16:17:28.276985 17718 layer_factory.hpp:77] Creating layer inception_4e/3x3
I0403 16:17:28.277014 17718 net.cpp:91] Creating Layer inception_4e/3x3
I0403 16:17:28.277034 17718 net.cpp:425] inception_4e/3x3 <- inception_4e/3x3_reduce
I0403 16:17:28.277062 17718 net.cpp:399] inception_4e/3x3 -> inception_4e/3x3
I0403 16:17:28.283258 17718 net.cpp:141] Setting up inception_4e/3x3
I0403 16:17:28.283308 17718 net.cpp:148] Top shape: 24 320 14 14 (1505280)
I0403 16:17:28.283329 17718 net.cpp:156] Memory required for data: 1230108192
I0403 16:17:28.283352 17718 layer_factory.hpp:77] Creating layer inception_4e/relu_3x3
I0403 16:17:28.283377 17718 net.cpp:91] Creating Layer inception_4e/relu_3x3
I0403 16:17:28.283398 17718 net.cpp:425] inception_4e/relu_3x3 <- inception_4e/3x3
I0403 16:17:28.283421 17718 net.cpp:386] inception_4e/relu_3x3 -> inception_4e/3x3 (in-place)
I0403 16:17:28.283802 17718 net.cpp:141] Setting up inception_4e/relu_3x3
I0403 16:17:28.283834 17718 net.cpp:148] Top shape: 24 320 14 14 (1505280)
I0403 16:17:28.283854 17718 net.cpp:156] Memory required for data: 1236129312
I0403 16:17:28.283874 17718 layer_factory.hpp:77] Creating layer inception_4e/5x5_reduce
I0403 16:17:28.283903 17718 net.cpp:91] Creating Layer inception_4e/5x5_reduce
I0403 16:17:28.283926 17718 net.cpp:425] inception_4e/5x5_reduce <- inception_4d/output_inception_4d/output_0_split_3
I0403 16:17:28.283954 17718 net.cpp:399] inception_4e/5x5_reduce -> inception_4e/5x5_reduce
I0403 16:17:28.285295 17718 net.cpp:141] Setting up inception_4e/5x5_reduce
I0403 16:17:28.285329 17718 net.cpp:148] Top shape: 24 32 14 14 (150528)
I0403 16:17:28.285349 17718 net.cpp:156] Memory required for data: 1236731424
I0403 16:17:28.285373 17718 layer_factory.hpp:77] Creating layer inception_4e/relu_5x5_reduce
I0403 16:17:28.285395 17718 net.cpp:91] Creating Layer inception_4e/relu_5x5_reduce
I0403 16:17:28.285415 17718 net.cpp:425] inception_4e/relu_5x5_reduce <- inception_4e/5x5_reduce
I0403 16:17:28.285439 17718 net.cpp:386] inception_4e/relu_5x5_reduce -> inception_4e/5x5_reduce (in-place)
I0403 16:17:28.285820 17718 net.cpp:141] Setting up inception_4e/relu_5x5_reduce
I0403 16:17:28.285853 17718 net.cpp:148] Top shape: 24 32 14 14 (150528)
I0403 16:17:28.285872 17718 net.cpp:156] Memory required for data: 1237333536
I0403 16:17:28.285890 17718 layer_factory.hpp:77] Creating layer inception_4e/5x5
I0403 16:17:28.285935 17718 net.cpp:91] Creating Layer inception_4e/5x5
I0403 16:17:28.285959 17718 net.cpp:425] inception_4e/5x5 <- inception_4e/5x5_reduce
I0403 16:17:28.285984 17718 net.cpp:399] inception_4e/5x5 -> inception_4e/5x5
I0403 16:17:28.288257 17718 net.cpp:141] Setting up inception_4e/5x5
I0403 16:17:28.288295 17718 net.cpp:148] Top shape: 24 128 14 14 (602112)
I0403 16:17:28.288316 17718 net.cpp:156] Memory required for data: 1239741984
I0403 16:17:28.288339 17718 layer_factory.hpp:77] Creating layer inception_4e/relu_5x5
I0403 16:17:28.288362 17718 net.cpp:91] Creating Layer inception_4e/relu_5x5
I0403 16:17:28.288383 17718 net.cpp:425] inception_4e/relu_5x5 <- inception_4e/5x5
I0403 16:17:28.288404 17718 net.cpp:386] inception_4e/relu_5x5 -> inception_4e/5x5 (in-place)
I0403 16:17:28.288662 17718 net.cpp:141] Setting up inception_4e/relu_5x5
I0403 16:17:28.288697 17718 net.cpp:148] Top shape: 24 128 14 14 (602112)
I0403 16:17:28.288717 17718 net.cpp:156] Memory required for data: 1242150432
I0403 16:17:28.288736 17718 layer_factory.hpp:77] Creating layer inception_4e/pool
I0403 16:17:28.288759 17718 net.cpp:91] Creating Layer inception_4e/pool
I0403 16:17:28.288780 17718 net.cpp:425] inception_4e/pool <- inception_4d/output_inception_4d/output_0_split_4
I0403 16:17:28.288806 17718 net.cpp:399] inception_4e/pool -> inception_4e/pool
I0403 16:17:28.288892 17718 net.cpp:141] Setting up inception_4e/pool
I0403 16:17:28.288924 17718 net.cpp:148] Top shape: 24 528 14 14 (2483712)
I0403 16:17:28.288944 17718 net.cpp:156] Memory required for data: 1252085280
I0403 16:17:28.288962 17718 layer_factory.hpp:77] Creating layer inception_4e/pool_proj
I0403 16:17:28.288990 17718 net.cpp:91] Creating Layer inception_4e/pool_proj
I0403 16:17:28.289012 17718 net.cpp:425] inception_4e/pool_proj <- inception_4e/pool
I0403 16:17:28.289036 17718 net.cpp:399] inception_4e/pool_proj -> inception_4e/pool_proj
I0403 16:17:28.290911 17718 net.cpp:141] Setting up inception_4e/pool_proj
I0403 16:17:28.290946 17718 net.cpp:148] Top shape: 24 128 14 14 (602112)
I0403 16:17:28.290983 17718 net.cpp:156] Memory required for data: 1254493728
I0403 16:17:28.291007 17718 layer_factory.hpp:77] Creating layer inception_4e/relu_pool_proj
I0403 16:17:28.291034 17718 net.cpp:91] Creating Layer inception_4e/relu_pool_proj
I0403 16:17:28.291056 17718 net.cpp:425] inception_4e/relu_pool_proj <- inception_4e/pool_proj
I0403 16:17:28.291079 17718 net.cpp:386] inception_4e/relu_pool_proj -> inception_4e/pool_proj (in-place)
I0403 16:17:28.291450 17718 net.cpp:141] Setting up inception_4e/relu_pool_proj
I0403 16:17:28.291481 17718 net.cpp:148] Top shape: 24 128 14 14 (602112)
I0403 16:17:28.291501 17718 net.cpp:156] Memory required for data: 1256902176
I0403 16:17:28.291520 17718 layer_factory.hpp:77] Creating layer inception_4e/output
I0403 16:17:28.291545 17718 net.cpp:91] Creating Layer inception_4e/output
I0403 16:17:28.291566 17718 net.cpp:425] inception_4e/output <- inception_4e/1x1
I0403 16:17:28.291586 17718 net.cpp:425] inception_4e/output <- inception_4e/3x3
I0403 16:17:28.291611 17718 net.cpp:425] inception_4e/output <- inception_4e/5x5
I0403 16:17:28.291633 17718 net.cpp:425] inception_4e/output <- inception_4e/pool_proj
I0403 16:17:28.291656 17718 net.cpp:399] inception_4e/output -> inception_4e/output
I0403 16:17:28.291719 17718 net.cpp:141] Setting up inception_4e/output
I0403 16:17:28.291749 17718 net.cpp:148] Top shape: 24 832 14 14 (3913728)
I0403 16:17:28.291769 17718 net.cpp:156] Memory required for data: 1272557088
I0403 16:17:28.291786 17718 layer_factory.hpp:77] Creating layer pool4/3x3_s2
I0403 16:17:28.291810 17718 net.cpp:91] Creating Layer pool4/3x3_s2
I0403 16:17:28.291833 17718 net.cpp:425] pool4/3x3_s2 <- inception_4e/output
I0403 16:17:28.291857 17718 net.cpp:399] pool4/3x3_s2 -> pool4/3x3_s2
I0403 16:17:28.291940 17718 net.cpp:141] Setting up pool4/3x3_s2
I0403 16:17:28.291970 17718 net.cpp:148] Top shape: 24 832 7 7 (978432)
I0403 16:17:28.291990 17718 net.cpp:156] Memory required for data: 1276470816
I0403 16:17:28.292007 17718 layer_factory.hpp:77] Creating layer pool4/3x3_s2_pool4/3x3_s2_0_split
I0403 16:17:28.292028 17718 net.cpp:91] Creating Layer pool4/3x3_s2_pool4/3x3_s2_0_split
I0403 16:17:28.292048 17718 net.cpp:425] pool4/3x3_s2_pool4/3x3_s2_0_split <- pool4/3x3_s2
I0403 16:17:28.292073 17718 net.cpp:399] pool4/3x3_s2_pool4/3x3_s2_0_split -> pool4/3x3_s2_pool4/3x3_s2_0_split_0
I0403 16:17:28.292099 17718 net.cpp:399] pool4/3x3_s2_pool4/3x3_s2_0_split -> pool4/3x3_s2_pool4/3x3_s2_0_split_1
I0403 16:17:28.292125 17718 net.cpp:399] pool4/3x3_s2_pool4/3x3_s2_0_split -> pool4/3x3_s2_pool4/3x3_s2_0_split_2
I0403 16:17:28.292150 17718 net.cpp:399] pool4/3x3_s2_pool4/3x3_s2_0_split -> pool4/3x3_s2_pool4/3x3_s2_0_split_3
I0403 16:17:28.292265 17718 net.cpp:141] Setting up pool4/3x3_s2_pool4/3x3_s2_0_split
I0403 16:17:28.292295 17718 net.cpp:148] Top shape: 24 832 7 7 (978432)
I0403 16:17:28.292316 17718 net.cpp:148] Top shape: 24 832 7 7 (978432)
I0403 16:17:28.292335 17718 net.cpp:148] Top shape: 24 832 7 7 (978432)
I0403 16:17:28.292354 17718 net.cpp:148] Top shape: 24 832 7 7 (978432)
I0403 16:17:28.292371 17718 net.cpp:156] Memory required for data: 1292125728
I0403 16:17:28.292389 17718 layer_factory.hpp:77] Creating layer inception_5a/1x1
I0403 16:17:28.292421 17718 net.cpp:91] Creating Layer inception_5a/1x1
I0403 16:17:28.292444 17718 net.cpp:425] inception_5a/1x1 <- pool4/3x3_s2_pool4/3x3_s2_0_split_0
I0403 16:17:28.292469 17718 net.cpp:399] inception_5a/1x1 -> inception_5a/1x1
I0403 16:17:28.295996 17718 net.cpp:141] Setting up inception_5a/1x1
I0403 16:17:28.296036 17718 net.cpp:148] Top shape: 24 256 7 7 (301056)
I0403 16:17:28.296056 17718 net.cpp:156] Memory required for data: 1293329952
I0403 16:17:28.296079 17718 layer_factory.hpp:77] Creating layer inception_5a/relu_1x1
I0403 16:17:28.296103 17718 net.cpp:91] Creating Layer inception_5a/relu_1x1
I0403 16:17:28.296123 17718 net.cpp:425] inception_5a/relu_1x1 <- inception_5a/1x1
I0403 16:17:28.296149 17718 net.cpp:386] inception_5a/relu_1x1 -> inception_5a/1x1 (in-place)
I0403 16:17:28.296531 17718 net.cpp:141] Setting up inception_5a/relu_1x1
I0403 16:17:28.296566 17718 net.cpp:148] Top shape: 24 256 7 7 (301056)
I0403 16:17:28.296586 17718 net.cpp:156] Memory required for data: 1294534176
I0403 16:17:28.296610 17718 layer_factory.hpp:77] Creating layer inception_5a/3x3_reduce
I0403 16:17:28.296639 17718 net.cpp:91] Creating Layer inception_5a/3x3_reduce
I0403 16:17:28.296663 17718 net.cpp:425] inception_5a/3x3_reduce <- pool4/3x3_s2_pool4/3x3_s2_0_split_1
I0403 16:17:28.296687 17718 net.cpp:399] inception_5a/3x3_reduce -> inception_5a/3x3_reduce
I0403 16:17:28.299707 17718 net.cpp:141] Setting up inception_5a/3x3_reduce
I0403 16:17:28.299743 17718 net.cpp:148] Top shape: 24 160 7 7 (188160)
I0403 16:17:28.299763 17718 net.cpp:156] Memory required for data: 1295286816
I0403 16:17:28.299787 17718 layer_factory.hpp:77] Creating layer inception_5a/relu_3x3_reduce
I0403 16:17:28.299813 17718 net.cpp:91] Creating Layer inception_5a/relu_3x3_reduce
I0403 16:17:28.299834 17718 net.cpp:425] inception_5a/relu_3x3_reduce <- inception_5a/3x3_reduce
I0403 16:17:28.299855 17718 net.cpp:386] inception_5a/relu_3x3_reduce -> inception_5a/3x3_reduce (in-place)
I0403 16:17:28.300096 17718 net.cpp:141] Setting up inception_5a/relu_3x3_reduce
I0403 16:17:28.300130 17718 net.cpp:148] Top shape: 24 160 7 7 (188160)
I0403 16:17:28.300151 17718 net.cpp:156] Memory required for data: 1296039456
I0403 16:17:28.300169 17718 layer_factory.hpp:77] Creating layer inception_5a/3x3
I0403 16:17:28.300199 17718 net.cpp:91] Creating Layer inception_5a/3x3
I0403 16:17:28.300220 17718 net.cpp:425] inception_5a/3x3 <- inception_5a/3x3_reduce
I0403 16:17:28.300245 17718 net.cpp:399] inception_5a/3x3 -> inception_5a/3x3
I0403 16:17:28.306488 17718 net.cpp:141] Setting up inception_5a/3x3
I0403 16:17:28.306530 17718 net.cpp:148] Top shape: 24 320 7 7 (376320)
I0403 16:17:28.306551 17718 net.cpp:156] Memory required for data: 1297544736
I0403 16:17:28.306576 17718 layer_factory.hpp:77] Creating layer inception_5a/relu_3x3
I0403 16:17:28.306598 17718 net.cpp:91] Creating Layer inception_5a/relu_3x3
I0403 16:17:28.306624 17718 net.cpp:425] inception_5a/relu_3x3 <- inception_5a/3x3
I0403 16:17:28.306646 17718 net.cpp:386] inception_5a/relu_3x3 -> inception_5a/3x3 (in-place)
I0403 16:17:28.307016 17718 net.cpp:141] Setting up inception_5a/relu_3x3
I0403 16:17:28.307054 17718 net.cpp:148] Top shape: 24 320 7 7 (376320)
I0403 16:17:28.307073 17718 net.cpp:156] Memory required for data: 1299050016
I0403 16:17:28.307091 17718 layer_factory.hpp:77] Creating layer inception_5a/5x5_reduce
I0403 16:17:28.307119 17718 net.cpp:91] Creating Layer inception_5a/5x5_reduce
I0403 16:17:28.307142 17718 net.cpp:425] inception_5a/5x5_reduce <- pool4/3x3_s2_pool4/3x3_s2_0_split_2
I0403 16:17:28.307168 17718 net.cpp:399] inception_5a/5x5_reduce -> inception_5a/5x5_reduce
I0403 16:17:28.308647 17718 net.cpp:141] Setting up inception_5a/5x5_reduce
I0403 16:17:28.308686 17718 net.cpp:148] Top shape: 24 32 7 7 (37632)
I0403 16:17:28.308706 17718 net.cpp:156] Memory required for data: 1299200544
I0403 16:17:28.308728 17718 layer_factory.hpp:77] Creating layer inception_5a/relu_5x5_reduce
I0403 16:17:28.308751 17718 net.cpp:91] Creating Layer inception_5a/relu_5x5_reduce
I0403 16:17:28.308771 17718 net.cpp:425] inception_5a/relu_5x5_reduce <- inception_5a/5x5_reduce
I0403 16:17:28.308797 17718 net.cpp:386] inception_5a/relu_5x5_reduce -> inception_5a/5x5_reduce (in-place)
I0403 16:17:28.309175 17718 net.cpp:141] Setting up inception_5a/relu_5x5_reduce
I0403 16:17:28.309211 17718 net.cpp:148] Top shape: 24 32 7 7 (37632)
I0403 16:17:28.309231 17718 net.cpp:156] Memory required for data: 1299351072
I0403 16:17:28.309250 17718 layer_factory.hpp:77] Creating layer inception_5a/5x5
I0403 16:17:28.309278 17718 net.cpp:91] Creating Layer inception_5a/5x5
I0403 16:17:28.309301 17718 net.cpp:425] inception_5a/5x5 <- inception_5a/5x5_reduce
I0403 16:17:28.309329 17718 net.cpp:399] inception_5a/5x5 -> inception_5a/5x5
I0403 16:17:28.311472 17718 net.cpp:141] Setting up inception_5a/5x5
I0403 16:17:28.311524 17718 net.cpp:148] Top shape: 24 128 7 7 (150528)
I0403 16:17:28.311547 17718 net.cpp:156] Memory required for data: 1299953184
I0403 16:17:28.311569 17718 layer_factory.hpp:77] Creating layer inception_5a/relu_5x5
I0403 16:17:28.311592 17718 net.cpp:91] Creating Layer inception_5a/relu_5x5
I0403 16:17:28.311619 17718 net.cpp:425] inception_5a/relu_5x5 <- inception_5a/5x5
I0403 16:17:28.311642 17718 net.cpp:386] inception_5a/relu_5x5 -> inception_5a/5x5 (in-place)
I0403 16:17:28.311892 17718 net.cpp:141] Setting up inception_5a/relu_5x5
I0403 16:17:28.311924 17718 net.cpp:148] Top shape: 24 128 7 7 (150528)
I0403 16:17:28.311942 17718 net.cpp:156] Memory required for data: 1300555296
I0403 16:17:28.311961 17718 layer_factory.hpp:77] Creating layer inception_5a/pool
I0403 16:17:28.311983 17718 net.cpp:91] Creating Layer inception_5a/pool
I0403 16:17:28.312005 17718 net.cpp:425] inception_5a/pool <- pool4/3x3_s2_pool4/3x3_s2_0_split_3
I0403 16:17:28.312031 17718 net.cpp:399] inception_5a/pool -> inception_5a/pool
I0403 16:17:28.312116 17718 net.cpp:141] Setting up inception_5a/pool
I0403 16:17:28.312149 17718 net.cpp:148] Top shape: 24 832 7 7 (978432)
I0403 16:17:28.312167 17718 net.cpp:156] Memory required for data: 1304469024
I0403 16:17:28.312186 17718 layer_factory.hpp:77] Creating layer inception_5a/pool_proj
I0403 16:17:28.312213 17718 net.cpp:91] Creating Layer inception_5a/pool_proj
I0403 16:17:28.312235 17718 net.cpp:425] inception_5a/pool_proj <- inception_5a/pool
I0403 16:17:28.312259 17718 net.cpp:399] inception_5a/pool_proj -> inception_5a/pool_proj
I0403 16:17:28.315062 17718 net.cpp:141] Setting up inception_5a/pool_proj
I0403 16:17:28.315098 17718 net.cpp:148] Top shape: 24 128 7 7 (150528)
I0403 16:17:28.315119 17718 net.cpp:156] Memory required for data: 1305071136
I0403 16:17:28.315141 17718 layer_factory.hpp:77] Creating layer inception_5a/relu_pool_proj
I0403 16:17:28.315166 17718 net.cpp:91] Creating Layer inception_5a/relu_pool_proj
I0403 16:17:28.315188 17718 net.cpp:425] inception_5a/relu_pool_proj <- inception_5a/pool_proj
I0403 16:17:28.315210 17718 net.cpp:386] inception_5a/relu_pool_proj -> inception_5a/pool_proj (in-place)
I0403 16:17:28.315579 17718 net.cpp:141] Setting up inception_5a/relu_pool_proj
I0403 16:17:28.315624 17718 net.cpp:148] Top shape: 24 128 7 7 (150528)
I0403 16:17:28.315646 17718 net.cpp:156] Memory required for data: 1305673248
I0403 16:17:28.315665 17718 layer_factory.hpp:77] Creating layer inception_5a/output
I0403 16:17:28.315690 17718 net.cpp:91] Creating Layer inception_5a/output
I0403 16:17:28.315711 17718 net.cpp:425] inception_5a/output <- inception_5a/1x1
I0403 16:17:28.315732 17718 net.cpp:425] inception_5a/output <- inception_5a/3x3
I0403 16:17:28.315753 17718 net.cpp:425] inception_5a/output <- inception_5a/5x5
I0403 16:17:28.315774 17718 net.cpp:425] inception_5a/output <- inception_5a/pool_proj
I0403 16:17:28.315796 17718 net.cpp:399] inception_5a/output -> inception_5a/output
I0403 16:17:28.315860 17718 net.cpp:141] Setting up inception_5a/output
I0403 16:17:28.315891 17718 net.cpp:148] Top shape: 24 832 7 7 (978432)
I0403 16:17:28.315909 17718 net.cpp:156] Memory required for data: 1309586976
I0403 16:17:28.315927 17718 layer_factory.hpp:77] Creating layer inception_5a/output_inception_5a/output_0_split
I0403 16:17:28.315949 17718 net.cpp:91] Creating Layer inception_5a/output_inception_5a/output_0_split
I0403 16:17:28.315968 17718 net.cpp:425] inception_5a/output_inception_5a/output_0_split <- inception_5a/output
I0403 16:17:28.315991 17718 net.cpp:399] inception_5a/output_inception_5a/output_0_split -> inception_5a/output_inception_5a/output_0_split_0
I0403 16:17:28.316017 17718 net.cpp:399] inception_5a/output_inception_5a/output_0_split -> inception_5a/output_inception_5a/output_0_split_1
I0403 16:17:28.316043 17718 net.cpp:399] inception_5a/output_inception_5a/output_0_split -> inception_5a/output_inception_5a/output_0_split_2
I0403 16:17:28.316068 17718 net.cpp:399] inception_5a/output_inception_5a/output_0_split -> inception_5a/output_inception_5a/output_0_split_3
I0403 16:17:28.316210 17718 net.cpp:141] Setting up inception_5a/output_inception_5a/output_0_split
I0403 16:17:28.316243 17718 net.cpp:148] Top shape: 24 832 7 7 (978432)
I0403 16:17:28.316265 17718 net.cpp:148] Top shape: 24 832 7 7 (978432)
I0403 16:17:28.316284 17718 net.cpp:148] Top shape: 24 832 7 7 (978432)
I0403 16:17:28.316303 17718 net.cpp:148] Top shape: 24 832 7 7 (978432)
I0403 16:17:28.316320 17718 net.cpp:156] Memory required for data: 1325241888
I0403 16:17:28.316339 17718 layer_factory.hpp:77] Creating layer inception_5b/1x1
I0403 16:17:28.316366 17718 net.cpp:91] Creating Layer inception_5b/1x1
I0403 16:17:28.316390 17718 net.cpp:425] inception_5b/1x1 <- inception_5a/output_inception_5a/output_0_split_0
I0403 16:17:28.316414 17718 net.cpp:399] inception_5b/1x1 -> inception_5b/1x1
I0403 16:17:28.321056 17718 net.cpp:141] Setting up inception_5b/1x1
I0403 16:17:28.321094 17718 net.cpp:148] Top shape: 24 384 7 7 (451584)
I0403 16:17:28.321113 17718 net.cpp:156] Memory required for data: 1327048224
I0403 16:17:28.321136 17718 layer_factory.hpp:77] Creating layer inception_5b/relu_1x1
I0403 16:17:28.321161 17718 net.cpp:91] Creating Layer inception_5b/relu_1x1
I0403 16:17:28.321182 17718 net.cpp:425] inception_5b/relu_1x1 <- inception_5b/1x1
I0403 16:17:28.321205 17718 net.cpp:386] inception_5b/relu_1x1 -> inception_5b/1x1 (in-place)
I0403 16:17:28.321583 17718 net.cpp:141] Setting up inception_5b/relu_1x1
I0403 16:17:28.321622 17718 net.cpp:148] Top shape: 24 384 7 7 (451584)
I0403 16:17:28.321643 17718 net.cpp:156] Memory required for data: 1328854560
I0403 16:17:28.321661 17718 layer_factory.hpp:77] Creating layer inception_5b/3x3_reduce
I0403 16:17:28.321691 17718 net.cpp:91] Creating Layer inception_5b/3x3_reduce
I0403 16:17:28.321714 17718 net.cpp:425] inception_5b/3x3_reduce <- inception_5a/output_inception_5a/output_0_split_1
I0403 16:17:28.321741 17718 net.cpp:399] inception_5b/3x3_reduce -> inception_5b/3x3_reduce
I0403 16:17:28.325031 17718 net.cpp:141] Setting up inception_5b/3x3_reduce
I0403 16:17:28.325068 17718 net.cpp:148] Top shape: 24 192 7 7 (225792)
I0403 16:17:28.325088 17718 net.cpp:156] Memory required for data: 1329757728
I0403 16:17:28.325112 17718 layer_factory.hpp:77] Creating layer inception_5b/relu_3x3_reduce
I0403 16:17:28.325137 17718 net.cpp:91] Creating Layer inception_5b/relu_3x3_reduce
I0403 16:17:28.325160 17718 net.cpp:425] inception_5b/relu_3x3_reduce <- inception_5b/3x3_reduce
I0403 16:17:28.325181 17718 net.cpp:386] inception_5b/relu_3x3_reduce -> inception_5b/3x3_reduce (in-place)
I0403 16:17:28.325424 17718 net.cpp:141] Setting up inception_5b/relu_3x3_reduce
I0403 16:17:28.325459 17718 net.cpp:148] Top shape: 24 192 7 7 (225792)
I0403 16:17:28.325479 17718 net.cpp:156] Memory required for data: 1330660896
I0403 16:17:28.325497 17718 layer_factory.hpp:77] Creating layer inception_5b/3x3
I0403 16:17:28.325525 17718 net.cpp:91] Creating Layer inception_5b/3x3
I0403 16:17:28.325547 17718 net.cpp:425] inception_5b/3x3 <- inception_5b/3x3_reduce
I0403 16:17:28.325572 17718 net.cpp:399] inception_5b/3x3 -> inception_5b/3x3
I0403 16:17:28.333909 17718 net.cpp:141] Setting up inception_5b/3x3
I0403 16:17:28.333945 17718 net.cpp:148] Top shape: 24 384 7 7 (451584)
I0403 16:17:28.333964 17718 net.cpp:156] Memory required for data: 1332467232
I0403 16:17:28.333988 17718 layer_factory.hpp:77] Creating layer inception_5b/relu_3x3
I0403 16:17:28.334015 17718 net.cpp:91] Creating Layer inception_5b/relu_3x3
I0403 16:17:28.334038 17718 net.cpp:425] inception_5b/relu_3x3 <- inception_5b/3x3
I0403 16:17:28.334059 17718 net.cpp:386] inception_5b/relu_3x3 -> inception_5b/3x3 (in-place)
I0403 16:17:28.334430 17718 net.cpp:141] Setting up inception_5b/relu_3x3
I0403 16:17:28.334462 17718 net.cpp:148] Top shape: 24 384 7 7 (451584)
I0403 16:17:28.334481 17718 net.cpp:156] Memory required for data: 1334273568
I0403 16:17:28.334501 17718 layer_factory.hpp:77] Creating layer inception_5b/5x5_reduce
I0403 16:17:28.334549 17718 net.cpp:91] Creating Layer inception_5b/5x5_reduce
I0403 16:17:28.334573 17718 net.cpp:425] inception_5b/5x5_reduce <- inception_5a/output_inception_5a/output_0_split_2
I0403 16:17:28.334599 17718 net.cpp:399] inception_5b/5x5_reduce -> inception_5b/5x5_reduce
I0403 16:17:28.336215 17718 net.cpp:141] Setting up inception_5b/5x5_reduce
I0403 16:17:28.336251 17718 net.cpp:148] Top shape: 24 48 7 7 (56448)
I0403 16:17:28.336271 17718 net.cpp:156] Memory required for data: 1334499360
I0403 16:17:28.336292 17718 layer_factory.hpp:77] Creating layer inception_5b/relu_5x5_reduce
I0403 16:17:28.336323 17718 net.cpp:91] Creating Layer inception_5b/relu_5x5_reduce
I0403 16:17:28.336345 17718 net.cpp:425] inception_5b/relu_5x5_reduce <- inception_5b/5x5_reduce
I0403 16:17:28.336367 17718 net.cpp:386] inception_5b/relu_5x5_reduce -> inception_5b/5x5_reduce (in-place)
I0403 16:17:28.336838 17718 net.cpp:141] Setting up inception_5b/relu_5x5_reduce
I0403 16:17:28.336871 17718 net.cpp:148] Top shape: 24 48 7 7 (56448)
I0403 16:17:28.336890 17718 net.cpp:156] Memory required for data: 1334725152
I0403 16:17:28.336910 17718 layer_factory.hpp:77] Creating layer inception_5b/5x5
I0403 16:17:28.336935 17718 net.cpp:91] Creating Layer inception_5b/5x5
I0403 16:17:28.336956 17718 net.cpp:425] inception_5b/5x5 <- inception_5b/5x5_reduce
I0403 16:17:28.336980 17718 net.cpp:399] inception_5b/5x5 -> inception_5b/5x5
I0403 16:17:28.339522 17718 net.cpp:141] Setting up inception_5b/5x5
I0403 16:17:28.339560 17718 net.cpp:148] Top shape: 24 128 7 7 (150528)
I0403 16:17:28.339581 17718 net.cpp:156] Memory required for data: 1335327264
I0403 16:17:28.339608 17718 layer_factory.hpp:77] Creating layer inception_5b/relu_5x5
I0403 16:17:28.339632 17718 net.cpp:91] Creating Layer inception_5b/relu_5x5
I0403 16:17:28.339653 17718 net.cpp:425] inception_5b/relu_5x5 <- inception_5b/5x5
I0403 16:17:28.339682 17718 net.cpp:386] inception_5b/relu_5x5 -> inception_5b/5x5 (in-place)
I0403 16:17:28.339931 17718 net.cpp:141] Setting up inception_5b/relu_5x5
I0403 16:17:28.339962 17718 net.cpp:148] Top shape: 24 128 7 7 (150528)
I0403 16:17:28.339982 17718 net.cpp:156] Memory required for data: 1335929376
I0403 16:17:28.340001 17718 layer_factory.hpp:77] Creating layer inception_5b/pool
I0403 16:17:28.340023 17718 net.cpp:91] Creating Layer inception_5b/pool
I0403 16:17:28.340044 17718 net.cpp:425] inception_5b/pool <- inception_5a/output_inception_5a/output_0_split_3
I0403 16:17:28.340070 17718 net.cpp:399] inception_5b/pool -> inception_5b/pool
I0403 16:17:28.340159 17718 net.cpp:141] Setting up inception_5b/pool
I0403 16:17:28.340189 17718 net.cpp:148] Top shape: 24 832 7 7 (978432)
I0403 16:17:28.340209 17718 net.cpp:156] Memory required for data: 1339843104
I0403 16:17:28.340229 17718 layer_factory.hpp:77] Creating layer inception_5b/pool_proj
I0403 16:17:28.340257 17718 net.cpp:91] Creating Layer inception_5b/pool_proj
I0403 16:17:28.340279 17718 net.cpp:425] inception_5b/pool_proj <- inception_5b/pool
I0403 16:17:28.340303 17718 net.cpp:399] inception_5b/pool_proj -> inception_5b/pool_proj
I0403 16:17:28.343147 17718 net.cpp:141] Setting up inception_5b/pool_proj
I0403 16:17:28.343189 17718 net.cpp:148] Top shape: 24 128 7 7 (150528)
I0403 16:17:28.343209 17718 net.cpp:156] Memory required for data: 1340445216
I0403 16:17:28.343231 17718 layer_factory.hpp:77] Creating layer inception_5b/relu_pool_proj
I0403 16:17:28.343255 17718 net.cpp:91] Creating Layer inception_5b/relu_pool_proj
I0403 16:17:28.343274 17718 net.cpp:425] inception_5b/relu_pool_proj <- inception_5b/pool_proj
I0403 16:17:28.343297 17718 net.cpp:386] inception_5b/relu_pool_proj -> inception_5b/pool_proj (in-place)
I0403 16:17:28.343672 17718 net.cpp:141] Setting up inception_5b/relu_pool_proj
I0403 16:17:28.343709 17718 net.cpp:148] Top shape: 24 128 7 7 (150528)
I0403 16:17:28.343729 17718 net.cpp:156] Memory required for data: 1341047328
I0403 16:17:28.343749 17718 layer_factory.hpp:77] Creating layer inception_5b/output
I0403 16:17:28.343770 17718 net.cpp:91] Creating Layer inception_5b/output
I0403 16:17:28.343808 17718 net.cpp:425] inception_5b/output <- inception_5b/1x1
I0403 16:17:28.343832 17718 net.cpp:425] inception_5b/output <- inception_5b/3x3
I0403 16:17:28.343853 17718 net.cpp:425] inception_5b/output <- inception_5b/5x5
I0403 16:17:28.343873 17718 net.cpp:425] inception_5b/output <- inception_5b/pool_proj
I0403 16:17:28.343895 17718 net.cpp:399] inception_5b/output -> inception_5b/output
I0403 16:17:28.343961 17718 net.cpp:141] Setting up inception_5b/output
I0403 16:17:28.343991 17718 net.cpp:148] Top shape: 24 1024 7 7 (1204224)
I0403 16:17:28.344012 17718 net.cpp:156] Memory required for data: 1345864224
I0403 16:17:28.344030 17718 layer_factory.hpp:77] Creating layer pool5/7x7_s1
I0403 16:17:28.344053 17718 net.cpp:91] Creating Layer pool5/7x7_s1
I0403 16:17:28.344074 17718 net.cpp:425] pool5/7x7_s1 <- inception_5b/output
I0403 16:17:28.344097 17718 net.cpp:399] pool5/7x7_s1 -> pool5/7x7_s1
I0403 16:17:28.344369 17718 net.cpp:141] Setting up pool5/7x7_s1
I0403 16:17:28.344404 17718 net.cpp:148] Top shape: 24 1024 1 1 (24576)
I0403 16:17:28.344425 17718 net.cpp:156] Memory required for data: 1345962528
I0403 16:17:28.344444 17718 layer_factory.hpp:77] Creating layer pool5/drop_7x7_s1
I0403 16:17:28.344465 17718 net.cpp:91] Creating Layer pool5/drop_7x7_s1
I0403 16:17:28.344485 17718 net.cpp:425] pool5/drop_7x7_s1 <- pool5/7x7_s1
I0403 16:17:28.344507 17718 net.cpp:386] pool5/drop_7x7_s1 -> pool5/7x7_s1 (in-place)
I0403 16:17:28.344571 17718 net.cpp:141] Setting up pool5/drop_7x7_s1
I0403 16:17:28.344600 17718 net.cpp:148] Top shape: 24 1024 1 1 (24576)
I0403 16:17:28.344626 17718 net.cpp:156] Memory required for data: 1346060832
I0403 16:17:28.344645 17718 layer_factory.hpp:77] Creating layer loss3/classifier_plantvillage
I0403 16:17:28.344671 17718 net.cpp:91] Creating Layer loss3/classifier_plantvillage
I0403 16:17:28.344692 17718 net.cpp:425] loss3/classifier_plantvillage <- pool5/7x7_s1
I0403 16:17:28.344715 17718 net.cpp:399] loss3/classifier_plantvillage -> loss3/classifier_plantvillage
I0403 16:17:28.345244 17718 net.cpp:141] Setting up loss3/classifier_plantvillage
I0403 16:17:28.345275 17718 net.cpp:148] Top shape: 24 38 (912)
I0403 16:17:28.345294 17718 net.cpp:156] Memory required for data: 1346064480
I0403 16:17:28.345316 17718 layer_factory.hpp:77] Creating layer loss3/classifier_plantvillage_loss3/classifier_plantvillage_0_split
I0403 16:17:28.345338 17718 net.cpp:91] Creating Layer loss3/classifier_plantvillage_loss3/classifier_plantvillage_0_split
I0403 16:17:28.345357 17718 net.cpp:425] loss3/classifier_plantvillage_loss3/classifier_plantvillage_0_split <- loss3/classifier_plantvillage
I0403 16:17:28.345383 17718 net.cpp:399] loss3/classifier_plantvillage_loss3/classifier_plantvillage_0_split -> loss3/classifier_plantvillage_loss3/classifier_plantvillage_0_split_0
I0403 16:17:28.345412 17718 net.cpp:399] loss3/classifier_plantvillage_loss3/classifier_plantvillage_0_split -> loss3/classifier_plantvillage_loss3/classifier_plantvillage_0_split_1
I0403 16:17:28.345438 17718 net.cpp:399] loss3/classifier_plantvillage_loss3/classifier_plantvillage_0_split -> loss3/classifier_plantvillage_loss3/classifier_plantvillage_0_split_2
I0403 16:17:28.345463 17718 net.cpp:399] loss3/classifier_plantvillage_loss3/classifier_plantvillage_0_split -> loss3/classifier_plantvillage_loss3/classifier_plantvillage_0_split_3
I0403 16:17:28.345594 17718 net.cpp:141] Setting up loss3/classifier_plantvillage_loss3/classifier_plantvillage_0_split
I0403 16:17:28.345638 17718 net.cpp:148] Top shape: 24 38 (912)
I0403 16:17:28.345660 17718 net.cpp:148] Top shape: 24 38 (912)
I0403 16:17:28.345681 17718 net.cpp:148] Top shape: 24 38 (912)
I0403 16:17:28.345700 17718 net.cpp:148] Top shape: 24 38 (912)
I0403 16:17:28.345717 17718 net.cpp:156] Memory required for data: 1346079072
I0403 16:17:28.345736 17718 layer_factory.hpp:77] Creating layer loss1/loss
I0403 16:17:28.345763 17718 net.cpp:91] Creating Layer loss1/loss
I0403 16:17:28.345787 17718 net.cpp:425] loss1/loss <- loss1/classifier_plantvillage_loss1/classifier_plantvillage_0_split_0
I0403 16:17:28.345826 17718 net.cpp:425] loss1/loss <- label_data_1_split_0
…
