…
I0403 16:44:36.445634 19353 net.cpp:313] The NetState phase (1) differed from the phase (0) specified by a rule in layer data
I0403 16:44:36.446873 19353 net.cpp:49] Initializing net from parameters: 
state {
  phase: TEST
}
layer {
  name: "data"
  type: "Data"
  top: "data"
  top: "label"
  include {
    phase: TEST
  }
  transform_param {
    mirror: false
    crop_size: 224
    mean_file: "/home/mohanty/data/final_dataset/lmdb/color-20-80/mean.binaryproto"
  }
  data_param {
    source: "/home/mohanty/data/final_dataset/lmdb/color-20-80/test_db"
    batch_size: 24
    backend: LMDB
  }
}
layer {
  name: "conv1/7x7_s2"
  type: "Convolution"
  bottom: "data"
  top: "conv1/7x7_s2"
  param {
    lr_mult: 1
    decay_mult: 1
  }
  param {
    lr_mult: 2
    decay_mult: 0
  }
  convolution_param {
    num_output: 64
    pad: 3
    kernel_size: 7
    stride: 2
    weight_filler {
      type: "xavier"
      std: 0.1
    }
    bias_filler {
      type: "constant"
      value: 0.2
    }
  }
}
layer {
  name: "conv1/relu_7x7"
  type: "ReLU"
  bottom: "conv1/7x7_s2"
  top: "conv1/7x7_s2"
}
layer {
  name: "pool1/3x3_s2"
  type: "Pooling"
  bottom: "conv1/7x7_s2"
  top: "pool1/3x3_s2"
  pooling_param {
    pool: MAX
    kernel_size: 3
    stride: 2
  }
}
layer {
  name: "pool1/norm1"
  type: "LRN"
  bottom: "pool1/3x3_s2"
  top: "pool1/norm1"
  lrn_param {
    local_size: 5
    alpha: 0.0001
    beta: 0.75
  }
}
layer {
  name: "conv2/3x3_reduce"
  type: "Convolution"
  bottom: "pool1/norm1"
  top: "conv2/3x3_reduce"
  param {
    lr_mult: 1
    decay_mult: 1
  }
  param {
    lr_mult: 2
    decay_mult: 0
  }
  convolution_param {
    num_output: 64
    kernel_size: 1
    weight_filler {
      type: "xavier"
      std: 0.1
    }
    bias_filler {
      type: "constant"
      value: 0.2
    }
  }
}
layer {
  name: "conv2/relu_3x3_reduce"
  type: "ReLU"
  bottom: "conv2/3x3_reduce"
  top: "conv2/3x3_reduce"
}
layer {
  name: "conv2/3x3"
  type: "Convolution"
  bottom: "conv2/3x3_reduce"
  top: "conv2/3x3"
  param {
    lr_mult: 1
    decay_mult: 1
  }
  param {
    lr_mult: 2
    decay_mult: 0
  }
  convolution_param {
    num_output: 192
    pad: 1
    kernel_size: 3
    weight_filler {
      type: "xavier"
      std: 0.03
    }
    bias_filler {
      type: "constant"
      value: 0.2
    }
  }
}
layer {
  name: "conv2/relu_3x3"
  type: "ReLU"
  bottom: "conv2/3x3"
  top: "conv2/3x3"
}
layer {
  name: "conv2/norm2"
  type: "LRN"
  bottom: "conv2/3x3"
  top: "conv2/norm2"
  lrn_param {
    local_size: 5
    alpha: 0.0001
    beta: 0.75
  }
}
layer {
  name: "pool2/3x3_s2"
  type: "Pooling"
  bottom: "conv2/norm2"
  top: "pool2/3x3_s2"
  pooling_param {
    pool: MAX
    kernel_size: 3
    stride: 2
  }
}
layer {
  name: "inception_3a/1x1"
  type: "Convolution"
  bottom: "pool2/3x3_s2"
  top: "inception_3a/1x1"
  param {
    lr_mult: 1
    decay_mult: 1
  }
  param {
    lr_mult: 2
    decay_mult: 0
  }
  convolution_param {
    num_output: 64
    kernel_size: 1
    weight_filler {
      type: "xavier"
      std: 0.03
    }
    bias_filler {
      type: "constant"
      value: 0.2
    }
  }
}
layer {
  name: "inception_3a/relu_1x1"
  type: "ReLU"
  bottom: "inception_3a/1x1"
  top: "inception_3a/1x1"
}
layer {
  name: "inception_3a/3x3_reduce"
  type: "Convolution"
  bottom: "pool2/3x3_s2"
  top: "inception_3a/3x3_reduce"
  param {
    lr_mult: 1
    decay_mult: 1
  }
  param {
    lr_mult: 2
    decay_mult: 0
  }
  convolution_param {
    num_output: 96
    kernel_size: 1
    weight_filler {
      type: "xavier"
      std: 0.09
    }
    bias_filler {
      type: "constant"
      value: 0.2
    }
  }
}
layer {
  name: "inception_3a/relu_3x3_reduce"
  type: "ReLU"
  bottom: "inception_3a/3x3_reduce"
  top: "inception_3a/3x3_reduce"
}
layer {
  name: "inception_3a/3x3"
  type: "Convolution"
  bottom: "inception_3a/3x3_reduce"
  top: "inception_3a/3x3"
  param {
    lr_mult: 1
    decay_mult: 1
  }
  param {
    lr_mult: 2
    decay_mult: 0
  }
  convolution_param {
    num_output: 128
    pad: 1
    kernel_size: 3
    weight_filler {
      type: "xavier"
      std: 0.03
    }
    bias_filler {
      type: "constant"
      value: 0.2
    }
  }
}
layer {
  name: "inception_3a/relu_3x3"
  type: "ReLU"
  bottom: "inception_3a/3x3"
  top: "inception_3a/3x3"
}
layer {
  name: "inception_3a/5x5_reduce"
  type: "Convolution"
  bottom: "pool2/3x3_s2"
  top: "inception_3a/5x5_reduce"
  param {
    lr_mult: 1
    decay_mult: 1
  }
  param {
    lr_mult: 2
    decay_mult: 0
  }
  convolution_param {
    num_output: 16
    kernel_size: 1
    weight_filler {
      type: "xavier"
      std: 0.2
    }
    bias_filler {
      type: "constant"
      value: 0.2
    }
  }
}
layer {
  name: "inception_3a/relu_5x5_reduce"
  type: "ReLU"
  bottom: "inception_3a/5x5_reduce"
  top: "inception_3a/5x5_reduce"
}
layer {
  name: "inception_3a/5x5"
  type: "Convolution"
  bottom: "inception_3a/5x5_reduce"
  top: "inception_3a/5x5"
  param {
    lr_mult: 1
    decay_mult: 1
  }
  param {
    lr_mult: 2
    decay_mult: 0
  }
  convolution_param {
    num_output: 32
    pad: 2
    kernel_size: 5
    weight_filler {
      type: "xavier"
      std: 0.03
    }
    bias_filler {
      type: "constant"
      value: 0.2
    }
  }
}
layer {
  name: "inception_3a/relu_5x5"
  type: "ReLU"
  bottom: "inception_3a/5x5"
  top: "inception_3a/5x5"
}
layer {
  name: "inception_3a/pool"
  type: "Pooling"
  bottom: "pool2/3x3_s2"
  top: "inception_3a/pool"
  pooling_param {
    pool: MAX
    kernel_size: 3
    stride: 1
    pad: 1
  }
}
layer {
  name: "inception_3a/pool_proj"
  type: "Convolution"
  bottom: "inception_3a/pool"
  top: "inception_3a/pool_proj"
  param {
    lr_mult: 1
    decay_mult: 1
  }
  param {
    lr_mult: 2
    decay_mult: 0
  }
  convolution_param {
    num_output: 32
    kernel_size: 1
    weight_filler {
      type: "xavier"
      std: 0.1
    }
    bias_filler {
      type: "constant"
      value: 0.2
    }
  }
}
layer {
  name: "inception_3a/relu_pool_proj"
  type: "ReLU"
  bottom: "inception_3a/pool_proj"
  top: "inception_3a/pool_proj"
}
layer {
  name: "inception_3a/output"
  type: "Concat"
  bottom: "inception_3a/1x1"
  bottom: "inception_3a/3x3"
  bottom: "inception_3a/5x5"
  bottom: "inception_3a/pool_proj"
  top: "inception_3a/output"
}
layer {
  name: "inception_3b/1x1"
  type: "Convolution"
  bottom: "inception_3a/output"
  top: "inception_3b/1x1"
  param {
    lr_mult: 1
    decay_mult: 1
  }
  param {
    lr_mult: 2
    decay_mult: 0
  }
  convolution_param {
    num_output: 128
    kernel_size: 1
    weight_filler {
      type: "xavier"
      std: 0.03
    }
    bias_filler {
      type: "constant"
      value: 0.2
    }
  }
}
layer {
  name: "inception_3b/relu_1x1"
  type: "ReLU"
  bottom: "inception_3b/1x1"
  top: "inception_3b/1x1"
}
layer {
  name: "inception_3b/3x3_reduce"
  type: "Convolution"
  bottom: "inception_3a/output"
  top: "inception_3b/3x3_reduce"
  param {
    lr_mult: 1
    decay_mult: 1
  }
  param {
    lr_mult: 2
    decay_mult: 0
  }
  convolution_param {
    num_output: 128
    kernel_size: 1
    weight_filler {
      type: "xavier"
      std: 0.09
    }
    bias_filler {
      type: "constant"
      value: 0.2
    }
  }
}
layer {
  name: "inception_3b/relu_3x3_reduce"
  type: "ReLU"
  bottom: "inception_3b/3x3_reduce"
  top: "inception_3b/3x3_reduce"
}
layer {
  name: "inception_3b/3x3"
  type: "Convolution"
  bottom: "inception_3b/3x3_reduce"
  top: "inception_3b/3x3"
  param {
    lr_mult: 1
    decay_mult: 1
  }
  param {
    lr_mult: 2
    decay_mult: 0
  }
  convolution_param {
    num_output: 192
    pad: 1
    kernel_size: 3
    weight_filler {
      type: "xavier"
      std: 0.03
    }
    bias_filler {
      type: "constant"
      value: 0.2
    }
  }
}
layer {
  name: "inception_3b/relu_3x3"
  type: "ReLU"
  bottom: "inception_3b/3x3"
  top: "inception_3b/3x3"
}
layer {
  name: "inception_3b/5x5_reduce"
  type: "Convolution"
  bottom: "inception_3a/output"
  top: "inception_3b/5x5_reduce"
  param {
    lr_mult: 1
    decay_mult: 1
  }
  param {
    lr_mult: 2
    decay_mult: 0
  }
  convolution_param {
    num_output: 32
    kernel_size: 1
    weight_filler {
      type: "xavier"
      std: 0.2
    }
    bias_filler {
      type: "constant"
      value: 0.2
    }
  }
}
layer {
  name: "inception_3b/relu_5x5_reduce"
  type: "ReLU"
  bottom: "inception_3b/5x5_reduce"
  top: "inception_3b/5x5_reduce"
}
layer {
  name: "inception_3b/5x5"
  type: "Convolution"
  bottom: "inception_3b/5x5_reduce"
  top: "inception_3b/5x5"
  param {
    lr_mult: 1
    decay_mult: 1
  }
  param {
    lr_mult: 2
    decay_mult: 0
  }
  convolution_param {
    num_output: 96
    pad: 2
    kernel_size: 5
    weight_filler {
      type: "xavier"
      std: 0.03
    }
    bias_filler {
      type: "constant"
      value: 0.2
    }
  }
}
layer {
  name: "inception_3b/relu_5x5"
  type: "ReLU"
  bottom: "inception_3b/5x5"
  top: "inception_3b/5x5"
}
layer {
  name: "inception_3b/pool"
  type: "Pooling"
  bottom: "inception_3a/output"
  top: "inception_3b/pool"
  pooling_param {
    pool: MAX
    kernel_size: 3
    stride: 1
    pad: 1
  }
}
layer {
  name: "inception_3b/pool_proj"
  type: "Convolution"
  bottom: "inception_3b/pool"
  top: "inception_3b/pool_proj"
  param {
    lr_mult: 1
    decay_mult: 1
  }
  param {
    lr_mult: 2
    decay_mult: 0
  }
  convolution_param {
    num_output: 64
    kernel_size: 1
    weight_filler {
      type: "xavier"
      std: 0.1
    }
    bias_filler {
      type: "constant"
      value: 0.2
    }
  }
}
layer {
  name: "inception_3b/relu_pool_proj"
  type: "ReLU"
  bottom: "inception_3b/pool_proj"
  top: "inception_3b/pool_proj"
}
layer {
  name: "inception_3b/output"
  type: "Concat"
  bottom: "inception_3b/1x1"
  bottom: "inception_3b/3x3"
  bottom: "inception_3b/5x5"
  bottom: "inception_3b/pool_proj"
  top: "inception_3b/output"
}
layer {
  name: "pool3/3x3_s2"
  type: "Pooling"
  bottom: "inception_3b/output"
  top: "pool3/3x3_s2"
  pooling_param {
    pool: MAX
    kernel_size: 3
    stride: 2
  }
}
layer {
  name: "inception_4a/1x1"
  type: "Convolution"
  bottom: "pool3/3x3_s2"
  top: "inception_4a/1x1"
  param {
    lr_mult: 1
    decay_mult: 1
  }
  param {
    lr_mult: 2
    decay_mult: 0
  }
  convolution_param {
    num_output: 192
    kernel_size: 1
    weight_filler {
      type: "xavier"
      std: 0.03
    }
    bias_filler {
      type: "constant"
      value: 0.2
    }
  }
}
layer {
  name: "inception_4a/relu_1x1"
  type: "ReLU"
  bottom: "inception_4a/1x1"
  top: "inception_4a/1x1"
}
layer {
  name: "inception_4a/3x3_reduce"
  type: "Convolution"
  bottom: "pool3/3x3_s2"
  top: "inception_4a/3x3_reduce"
  param {
    lr_mult: 1
    decay_mult: 1
  }
  param {
    lr_mult: 2
    decay_mult: 0
  }
  convolution_param {
    num_output: 96
    kernel_size: 1
    weight_filler {
      type: "xavier"
      std: 0.09
    }
    bias_filler {
      type: "constant"
      value: 0.2
    }
  }
}
layer {
  name: "inception_4a/relu_3x3_reduce"
  type: "ReLU"
  bottom: "inception_4a/3x3_reduce"
  top: "inception_4a/3x3_reduce"
}
layer {
  name: "inception_4a/3x3"
  type: "Convolution"
  bottom: "inception_4a/3x3_reduce"
  top: "inception_4a/3x3"
  param {
    lr_mult: 1
    decay_mult: 1
  }
  param {
    lr_mult: 2
    decay_mult: 0
  }
  convolution_param {
    num_output: 208
    pad: 1
    kernel_size: 3
    weight_filler {
      type: "xavier"
      std: 0.03
    }
    bias_filler {
      type: "constant"
      value: 0.2
    }
  }
}
layer {
  name: "inception_4a/relu_3x3"
  type: "ReLU"
  bottom: "inception_4a/3x3"
  top: "inception_4a/3x3"
}
layer {
  name: "inception_4a/5x5_reduce"
  type: "Convolution"
  bottom: "pool3/3x3_s2"
  top: "inception_4a/5x5_reduce"
  param {
    lr_mult: 1
    decay_mult: 1
  }
  param {
    lr_mult: 2
    decay_mult: 0
  }
  convolution_param {
    num_output: 16
    kernel_size: 1
    weight_filler {
      type: "xavier"
      std: 0.2
    }
    bias_filler {
      type: "constant"
      value: 0.2
    }
  }
}
layer {
  name: "inception_4a/relu_5x5_reduce"
  type: "ReLU"
  bottom: "inception_4a/5x5_reduce"
  top: "inception_4a/5x5_reduce"
}
layer {
  name: "inception_4a/5x5"
  type: "Convolution"
  bottom: "inception_4a/5x5_reduce"
  top: "inception_4a/5x5"
  param {
    lr_mult: 1
    decay_mult: 1
  }
  param {
    lr_mult: 2
    decay_mult: 0
  }
  convolution_param {
    num_output: 48
    pad: 2
    kernel_size: 5
    weight_filler {
      type: "xavier"
      std: 0.03
    }
    bias_filler {
      type: "constant"
      value: 0.2
    }
  }
}
layer {
  name: "inception_4a/relu_5x5"
  type: "ReLU"
  bottom: "inception_4a/5x5"
  top: "inception_4a/5x5"
}
layer {
  name: "inception_4a/pool"
  type: "Pooling"
  bottom: "pool3/3x3_s2"
  top: "inception_4a/pool"
  pooling_param {
    pool: MAX
    kernel_size: 3
    stride: 1
    pad: 1
  }
}
layer {
  name: "inception_4a/pool_proj"
  type: "Convolution"
  bottom: "inception_4a/pool"
  top: "inception_4a/pool_proj"
  param {
    lr_mult: 1
    decay_mult: 1
  }
  param {
    lr_mult: 2
    decay_mult: 0
  }
  convolution_param {
    num_output: 64
    kernel_size: 1
    weight_filler {
      type: "xavier"
      std: 0.1
    }
    bias_filler {
      type: "constant"
      value: 0.2
    }
  }
}
layer {
  name: "inception_4a/relu_pool_proj"
  type: "ReLU"
  bottom: "inception_4a/pool_proj"
  top: "inception_4a/pool_proj"
}
layer {
  name: "inception_4a/output"
  type: "Concat"
  bottom: "inception_4a/1x1"
  bottom: "inception_4a/3x3"
  bottom: "inception_4a/5x5"
  bottom: "inception_4a/pool_proj"
  top: "inception_4a/output"
}
layer {
  name: "loss1/ave_pool"
  type: "Pooling"
  bottom: "inception_4a/output"
  top: "loss1/ave_pool"
  pooling_param {
    pool: AVE
    kernel_size: 5
    stride: 3
  }
}
layer {
  name: "loss1/conv"
  type: "Convolution"
  bottom: "loss1/ave_pool"
  top: "loss1/conv"
  param {
    lr_mult: 1
    decay_mult: 1
  }
  param {
    lr_mult: 2
    decay_mult: 0
  }
  convolution_param {
    num_output: 128
    kernel_size: 1
    weight_filler {
      type: "xavier"
      std: 0.08
    }
    bias_filler {
      type: "constant"
      value: 0.2
    }
  }
}
layer {
  name: "loss1/relu_conv"
  type: "ReLU"
  bottom: "loss1/conv"
  top: "loss1/conv"
}
layer {
  name: "loss1/fc"
  type: "InnerProduct"
  bottom: "loss1/conv"
  top: "loss1/fc"
  param {
    lr_mult: 1
    decay_mult: 1
  }
  param {
    lr_mult: 2
    decay_mult: 0
  }
  inner_product_param {
    num_output: 1024
    weight_filler {
      type: "xavier"
      std: 0.02
    }
    bias_filler {
      type: "constant"
      value: 0.2
    }
  }
}
layer {
  name: "loss1/relu_fc"
  type: "ReLU"
  bottom: "loss1/fc"
  top: "loss1/fc"
}
layer {
  name: "loss1/drop_fc"
  type: "Dropout"
  bottom: "loss1/fc"
  top: "loss1/fc"
  dropout_param {
    dropout_ratio: 0.7
  }
}
layer {
  name: "loss1/classifier_plantvillage"
  type: "InnerProduct"
  bottom: "loss1/fc"
  top: "loss1/classifier_plantvillage"
  param {
    lr_mult: 1
    decay_mult: 1
  }
  param {
    lr_mult: 2
    decay_mult: 0
  }
  inner_product_param {
    num_output: 38
    weight_filler {
      type: "xavier"
      std: 0.0009765625
    }
    bias_filler {
      type: "constant"
      value: 0
    }
  }
}
layer {
  name: "inception_4b/1x1"
  type: "Convolution"
  bottom: "inception_4a/output"
  top: "inception_4b/1x1"
  param {
    lr_mult: 1
    decay_mult: 1
  }
  param {
    lr_mult: 2
    decay_mult: 0
  }
  convolution_param {
    num_output: 160
    kernel_size: 1
    weight_filler {
      type: "xavier"
      std: 0.03
    }
    bias_filler {
      type: "constant"
      value: 0.2
    }
  }
}
layer {
  name: "inception_4b/relu_1x1"
  type: "ReLU"
  bottom: "inception_4b/1x1"
  top: "inception_4b/1x1"
}
layer {
  name: "inception_4b/3x3_reduce"
  type: "Convolution"
  bottom: "inception_4a/output"
  top: "inception_4b/3x3_reduce"
  param {
    lr_mult: 1
    decay_mult: 1
  }
  param {
    lr_mult: 2
    decay_mult: 0
  }
  convolution_param {
    num_output: 112
    kernel_size: 1
    weight_filler {
      type: "xavier"
      std: 0.09
    }
    bias_filler {
      type: "constant"
      value: 0.2
    }
  }
}
layer {
  name: "inception_4b/relu_3x3_reduce"
  type: "ReLU"
  bottom: "inception_4b/3x3_reduce"
  top: "inception_4b/3x3_reduce"
}
layer {
  name: "inception_4b/3x3"
  type: "Convolution"
  bottom: "inception_4b/3x3_reduce"
  top: "inception_4b/3x3"
  param {
    lr_mult: 1
    decay_mult: 1
  }
  param {
    lr_mult: 2
    decay_mult: 0
  }
  convolution_param {
    num_output: 224
    pad: 1
    kernel_size: 3
    weight_filler {
      type: "xavier"
      std: 0.03
    }
    bias_filler {
      type: "constant"
      value: 0.2
    }
  }
}
layer {
  name: "inception_4b/relu_3x3"
  type: "ReLU"
  bottom: "inception_4b/3x3"
  top: "inception_4b/3x3"
}
layer {
  name: "inception_4b/5x5_reduce"
  type: "Convolution"
  bottom: "inception_4a/output"
  top: "inception_4b/5x5_reduce"
  param {
    lr_mult: 1
    decay_mult: 1
  }
  param {
    lr_mult: 2
    decay_mult: 0
  }
  convolution_param {
    num_output: 24
    kernel_size: 1
    weight_filler {
      type: "xavier"
      std: 0.2
    }
    bias_filler {
      type: "constant"
      value: 0.2
    }
  }
}
layer {
  name: "inception_4b/relu_5x5_reduce"
  type: "ReLU"
  bottom: "inception_4b/5x5_reduce"
  top: "inception_4b/5x5_reduce"
}
layer {
  name: "inception_4b/5x5"
  type: "Convolution"
  bottom: "inception_4b/5x5_reduce"
  top: "inception_4b/5x5"
  param {
    lr_mult: 1
    decay_mult: 1
  }
  param {
    lr_mult: 2
    decay_mult: 0
  }
  convolution_param {
    num_output: 64
    pad: 2
    kernel_size: 5
    weight_filler {
      type: "xavier"
      std: 0.03
    }
    bias_filler {
      type: "constant"
      value: 0.2
    }
  }
}
layer {
  name: "inception_4b/relu_5x5"
  type: "ReLU"
  bottom: "inception_4b/5x5"
  top: "inception_4b/5x5"
}
layer {
  name: "inception_4b/pool"
  type: "Pooling"
  bottom: "inception_4a/output"
  top: "inception_4b/pool"
  pooling_param {
    pool: MAX
    kernel_size: 3
    stride: 1
    pad: 1
  }
}
layer {
  name: "inception_4b/pool_proj"
  type: "Convolution"
  bottom: "inception_4b/pool"
  top: "inception_4b/pool_proj"
  param {
    lr_mult: 1
    decay_mult: 1
  }
  param {
    lr_mult: 2
    decay_mult: 0
  }
  convolution_param {
    num_output: 64
    kernel_size: 1
    weight_filler {
      type: "xavier"
      std: 0.1
    }
    bias_filler {
      type: "constant"
      value: 0.2
    }
  }
}
layer {
  name: "inception_4b/relu_pool_proj"
  type: "ReLU"
  bottom: "inception_4b/pool_proj"
  top: "inception_4b/pool_proj"
}
layer {
  name: "inception_4b/output"
  type: "Concat"
  bottom: "inception_4b/1x1"
  bottom: "inception_4b/3x3"
  bottom: "inception_4b/5x5"
  bottom: "inception_4b/pool_proj"
  top: "inception_4b/output"
}
layer {
  name: "inception_4c/1x1"
  type: "Convolution"
  bottom: "inception_4b/output"
  top: "inception_4c/1x1"
  param {
    lr_mult: 1
    decay_mult: 1
  }
  param {
    lr_mult: 2
    decay_mult: 0
  }
  convolution_param {
    num_output: 128
    kernel_size: 1
    weight_filler {
      type: "xavier"
      std: 0.03
    }
    bias_filler {
      type: "constant"
      value: 0.2
    }
  }
}
layer {
  name: "inception_4c/relu_1x1"
  type: "ReLU"
  bottom: "inception_4c/1x1"
  top: "inception_4c/1x1"
}
layer {
  name: "inception_4c/3x3_reduce"
  type: "Convolution"
  bottom: "inception_4b/output"
  top: "inception_4c/3x3_reduce"
  param {
    lr_mult: 1
    decay_mult: 1
  }
  param {
    lr_mult: 2
    decay_mult: 0
  }
  convolution_param {
    num_output: 128
    kernel_size: 1
    weight_filler {
      type: "xavier"
      std: 0.09
    }
    bias_filler {
      type: "constant"
      value: 0.2
    }
  }
}
layer {
  name: "inception_4c/relu_3x3_reduce"
  type: "ReLU"
  bottom: "inception_4c/3x3_reduce"
  top: "inception_4c/3x3_reduce"
}
layer {
  name: "inception_4c/3x3"
  type: "Convolution"
  bottom: "inception_4c/3x3_reduce"
  top: "inception_4c/3x3"
  param {
    lr_mult: 1
    decay_mult: 1
  }
  param {
    lr_mult: 2
    decay_mult: 0
  }
  convolution_param {
    num_output: 256
    pad: 1
    kernel_size: 3
    weight_filler {
      type: "xavier"
      std: 0.03
    }
    bias_filler {
      type: "constant"
      value: 0.2
    }
  }
}
layer {
  name: "inception_4c/relu_3x3"
  type: "ReLU"
  bottom: "inception_4c/3x3"
  top: "inception_4c/3x3"
}
layer {
  name: "inception_4c/5x5_reduce"
  type: "Convolution"
  bottom: "inception_4b/output"
  top: "inception_4c/5x5_reduce"
  param {
    lr_mult: 1
    decay_mult: 1
  }
  param {
    lr_mult: 2
    decay_mult: 0
  }
  convolution_param {
    num_output: 24
    kernel_size: 1
    weight_filler {
      type: "xavier"
      std: 0.2
    }
    bias_filler {
      type: "constant"
      value: 0.2
    }
  }
}
layer {
  name: "inception_4c/relu_5x5_reduce"
  type: "ReLU"
  bottom: "inception_4c/5x5_reduce"
  top: "inception_4c/5x5_reduce"
}
layer {
  name: "inception_4c/5x5"
  type: "Convolution"
  bottom: "inception_4c/5x5_reduce"
  top: "inception_4c/5x5"
  param {
    lr_mult: 1
    decay_mult: 1
  }
  param {
    lr_mult: 2
    decay_mult: 0
  }
  convolution_param {
    num_output: 64
    pad: 2
    kernel_size: 5
    weight_filler {
      type: "xavier"
      std: 0.03
    }
    bias_filler {
      type: "constant"
      value: 0.2
    }
  }
}
layer {
  name: "inception_4c/relu_5x5"
  type: "ReLU"
  bottom: "inception_4c/5x5"
  top: "inception_4c/5x5"
}
layer {
  name: "inception_4c/pool"
  type: "Pooling"
  bottom: "inception_4b/output"
  top: "inception_4c/pool"
  pooling_param {
    pool: MAX
    kernel_size: 3
    stride: 1
    pad: 1
  }
}
layer {
  name: "inception_4c/pool_proj"
  type: "Convolution"
  bottom: "inception_4c/pool"
  top: "inception_4c/pool_proj"
  param {
    lr_mult: 1
    decay_mult: 1
  }
  param {
    lr_mult: 2
    decay_mult: 0
  }
  convolution_param {
    num_output: 64
    kernel_size: 1
    weight_filler {
      type: "xavier"
      std: 0.1
    }
    bias_filler {
      type: "constant"
      value: 0.2
    }
  }
}
layer {
  name: "inception_4c/relu_pool_proj"
  type: "ReLU"
  bottom: "inception_4c/pool_proj"
  top: "inception_4c/pool_proj"
}
layer {
  name: "inception_4c/output"
  type: "Concat"
  bottom: "inception_4c/1x1"
  bottom: "inception_4c/3x3"
  bottom: "inception_4c/5x5"
  bottom: "inception_4c/pool_proj"
  top: "inception_4c/output"
}
layer {
  name: "inception_4d/1x1"
  type: "Convolution"
  bottom: "inception_4c/output"
  top: "inception_4d/1x1"
  param {
    lr_mult: 1
    decay_mult: 1
  }
  param {
    lr_mult: 2
    decay_mult: 0
  }
  convolution_param {
    num_output: 112
    kernel_size: 1
    weight_filler {
      type: "xavier"
      std: 0.03
    }
    bias_filler {
      type: "constant"
      value: 0.2
    }
  }
}
layer {
  name: "inception_4d/relu_1x1"
  type: "ReLU"
  bottom: "inception_4d/1x1"
  top: "inception_4d/1x1"
}
layer {
  name: "inception_4d/3x3_reduce"
  type: "Convolution"
  bottom: "inception_4c/output"
  top: "inception_4d/3x3_reduce"
  param {
    lr_mult: 1
    decay_mult: 1
  }
  param {
    lr_mult: 2
    decay_mult: 0
  }
  convolution_param {
    num_output: 144
    kernel_size: 1
    weight_filler {
      type: "xavier"
      std: 0.09
    }
    bias_filler {
      type: "constant"
      value: 0.2
    }
  }
}
layer {
  name: "inception_4d/relu_3x3_reduce"
  type: "ReLU"
  bottom: "inception_4d/3x3_reduce"
  top: "inception_4d/3x3_reduce"
}
layer {
  name: "inception_4d/3x3"
  type: "Convolution"
  bottom: "inception_4d/3x3_reduce"
  top: "inception_4d/3x3"
  param {
    lr_mult: 1
    decay_mult: 1
  }
  param {
    lr_mult: 2
    decay_mult: 0
  }
  convolution_param {
    num_output: 288
    pad: 1
    kernel_size: 3
    weight_filler {
      type: "xavier"
      std: 0.03
    }
    bias_filler {
      type: "constant"
      value: 0.2
    }
  }
}
layer {
  name: "inception_4d/relu_3x3"
  type: "ReLU"
  bottom: "inception_4d/3x3"
  top: "inception_4d/3x3"
}
layer {
  name: "inception_4d/5x5_reduce"
  type: "Convolution"
  bottom: "inception_4c/output"
  top: "inception_4d/5x5_reduce"
  param {
    lr_mult: 1
    decay_mult: 1
  }
  param {
    lr_mult: 2
    decay_mult: 0
  }
  convolution_param {
    num_output: 32
    kernel_size: 1
    weight_filler {
      type: "xavier"
      std: 0.2
    }
    bias_filler {
      type: "constant"
      value: 0.2
    }
  }
}
layer {
  name: "inception_4d/relu_5x5_reduce"
  type: "ReLU"
  bottom: "inception_4d/5x5_reduce"
  top: "inception_4d/5x5_reduce"
}
layer {
  name: "inception_4d/5x5"
  type: "Convolution"
  bottom: "inception_4d/5x5_reduce"
  top: "inception_4d/5x5"
  param {
    lr_mult: 1
    decay_mult: 1
  }
  param {
    lr_mult: 2
    decay_mult: 0
  }
  convolution_param {
    num_output: 64
    pad: 2
    kernel_size: 5
    weight_filler {
      type: "xavier"
      std: 0.03
    }
    bias_filler {
      type: "constant"
      value: 0.2
    }
  }
}
layer {
  name: "inception_4d/relu_5x5"
  type: "ReLU"
  bottom: "inception_4d/5x5"
  top: "inception_4d/5x5"
}
layer {
  name: "inception_4d/pool"
  type: "Pooling"
  bottom: "inception_4c/output"
  top: "inception_4d/pool"
  pooling_param {
    pool: MAX
    kernel_size: 3
    stride: 1
    pad: 1
  }
}
layer {
  name: "inception_4d/pool_proj"
  type: "Convolution"
  bottom: "inception_4d/pool"
  top: "inception_4d/pool_proj"
  param {
    lr_mult: 1
    decay_mult: 1
  }
  param {
    lr_mult: 2
    decay_mult: 0
  }
  convolution_param {
    num_output: 64
    kernel_size: 1
    weight_filler {
      type: "xavier"
      std: 0.1
    }
    bias_filler {
      type: "constant"
      value: 0.2
    }
  }
}
layer {
  name: "inception_4d/relu_pool_proj"
  type: "ReLU"
  bottom: "inception_4d/pool_proj"
  top: "inception_4d/pool_proj"
}
layer {
  name: "inception_4d/output"
  type: "Concat"
  bottom: "inception_4d/1x1"
  bottom: "inception_4d/3x3"
  bottom: "inception_4d/5x5"
  bottom: "inception_4d/pool_proj"
  top: "inception_4d/output"
}
layer {
  name: "loss2/ave_pool"
  type: "Pooling"
  bottom: "inception_4d/output"
  top: "loss2/ave_pool"
  pooling_param {
    pool: AVE
    kernel_size: 5
    stride: 3
  }
}
layer {
  name: "loss2/conv"
  type: "Convolution"
  bottom: "loss2/ave_pool"
  top: "loss2/conv"
  param {
    lr_mult: 1
    decay_mult: 1
  }
  param {
    lr_mult: 2
    decay_mult: 0
  }
  convolution_param {
    num_output: 128
    kernel_size: 1
    weight_filler {
      type: "xavier"
      std: 0.08
    }
    bias_filler {
      type: "constant"
      value: 0.2
    }
  }
}
layer {
  name: "loss2/relu_conv"
  type: "ReLU"
  bottom: "loss2/conv"
  top: "loss2/conv"
}
layer {
  name: "loss2/fc"
  type: "InnerProduct"
  bottom: "loss2/conv"
  top: "loss2/fc"
  param {
    lr_mult: 1
    decay_mult: 1
  }
  param {
    lr_mult: 2
    decay_mult: 0
  }
  inner_product_param {
    num_output: 1024
    weight_filler {
      type: "xavier"
      std: 0.02
    }
    bias_filler {
      type: "constant"
      value: 0.2
    }
  }
}
layer {
  name: "loss2/relu_fc"
  type: "ReLU"
  bottom: "loss2/fc"
  top: "loss2/fc"
}
layer {
  name: "loss2/drop_fc"
  type: "Dropout"
  bottom: "loss2/fc"
  top: "loss2/fc"
  dropout_param {
    dropout_ratio: 0.7
  }
}
layer {
  name: "loss2/classifier_plantvillage"
  type: "InnerProduct"
  bottom: "loss2/fc"
  top: "loss2/classifier_plantvillage"
  param {
    lr_mult: 1
    decay_mult: 1
  }
  param {
    lr_mult: 2
    decay_mult: 0
  }
  inner_product_param {
    num_output: 38
    weight_filler {
      type: "xavier"
      std: 0.0009765625
    }
    bias_filler {
      type: "constant"
      value: 0
    }
  }
}
layer {
  name: "inception_4e/1x1"
  type: "Convolution"
  bottom: "inception_4d/output"
  top: "inception_4e/1x1"
  param {
    lr_mult: 1
    decay_mult: 1
  }
  param {
    lr_mult: 2
    decay_mult: 0
  }
  convolution_param {
    num_output: 256
    kernel_size: 1
    weight_filler {
      type: "xavier"
      std: 0.03
    }
    bias_filler {
      type: "constant"
      value: 0.2
    }
  }
}
layer {
  name: "inception_4e/relu_1x1"
  type: "ReLU"
  bottom: "inception_4e/1x1"
  top: "inception_4e/1x1"
}
layer {
  name: "inception_4e/3x3_reduce"
  type: "Convolution"
  bottom: "inception_4d/output"
  top: "inception_4e/3x3_reduce"
  param {
    lr_mult: 1
    decay_mult: 1
  }
  param {
    lr_mult: 2
    decay_mult: 0
  }
  convolution_param {
    num_output: 160
    kernel_size: 1
    weight_filler {
      type: "xavier"
      std: 0.09
    }
    bias_filler {
      type: "constant"
      value: 0.2
    }
  }
}
layer {
  name: "inception_4e/relu_3x3_reduce"
  type: "ReLU"
  bottom: "inception_4e/3x3_reduce"
  top: "inception_4e/3x3_reduce"
}
layer {
  name: "inception_4e/3x3"
  type: "Convolution"
  bottom: "inception_4e/3x3_reduce"
  top: "inception_4e/3x3"
  param {
    lr_mult: 1
    decay_mult: 1
  }
  param {
    lr_mult: 2
    decay_mult: 0
  }
  convolution_param {
    num_output: 320
    pad: 1
    kernel_size: 3
    weight_filler {
      type: "xavier"
      std: 0.03
    }
    bias_filler {
      type: "constant"
      value: 0.2
    }
  }
}
layer {
  name: "inception_4e/relu_3x3"
  type: "ReLU"
  bottom: "inception_4e/3x3"
  top: "inception_4e/3x3"
}
layer {
  name: "inception_4e/5x5_reduce"
  type: "Convolution"
  bottom: "inception_4d/output"
  top: "inception_4e/5x5_reduce"
  param {
    lr_mult: 1
    decay_mult: 1
  }
  param {
    lr_mult: 2
    decay_mult: 0
  }
  convolution_param {
    num_output: 32
    kernel_size: 1
    weight_filler {
      type: "xavier"
      std: 0.2
    }
    bias_filler {
      type: "constant"
      value: 0.2
    }
  }
}
layer {
  name: "inception_4e/relu_5x5_reduce"
  type: "ReLU"
  bottom: "inception_4e/5x5_reduce"
  top: "inception_4e/5x5_reduce"
}
layer {
  name: "inception_4e/5x5"
  type: "Convolution"
  bottom: "inception_4e/5x5_reduce"
  top: "inception_4e/5x5"
  p
I0403 16:44:36.448366 19353 layer_factory.hpp:77] Creating layer data
I0403 16:44:36.448974 19353 net.cpp:91] Creating Layer data
I0403 16:44:36.449008 19353 net.cpp:399] data -> data
I0403 16:44:36.449060 19353 net.cpp:399] data -> label
I0403 16:44:36.449098 19353 data_transformer.cpp:25] Loading mean file from: /home/mohanty/data/final_dataset/lmdb/color-20-80/mean.binaryproto
I0403 16:44:36.450320 19355 db_lmdb.cpp:38] Opened lmdb /home/mohanty/data/final_dataset/lmdb/color-20-80/test_db
I0403 16:44:36.462419 19353 data_layer.cpp:41] output data size: 24,3,224,224
I0403 16:44:36.489480 19353 net.cpp:141] Setting up data
I0403 16:44:36.489558 19353 net.cpp:148] Top shape: 24 3 224 224 (3612672)
I0403 16:44:36.489583 19353 net.cpp:148] Top shape: 24 (24)
I0403 16:44:36.489598 19353 net.cpp:156] Memory required for data: 14450784
I0403 16:44:36.489630 19353 layer_factory.hpp:77] Creating layer label_data_1_split
I0403 16:44:36.489658 19353 net.cpp:91] Creating Layer label_data_1_split
I0403 16:44:36.489676 19353 net.cpp:425] label_data_1_split <- label
I0403 16:44:36.489708 19353 net.cpp:399] label_data_1_split -> label_data_1_split_0
I0403 16:44:36.489737 19353 net.cpp:399] label_data_1_split -> label_data_1_split_1
I0403 16:44:36.489760 19353 net.cpp:399] label_data_1_split -> label_data_1_split_2
I0403 16:44:36.489781 19353 net.cpp:399] label_data_1_split -> label_data_1_split_3
I0403 16:44:36.489800 19353 net.cpp:399] label_data_1_split -> label_data_1_split_4
I0403 16:44:36.489820 19353 net.cpp:399] label_data_1_split -> label_data_1_split_5
I0403 16:44:36.489840 19353 net.cpp:399] label_data_1_split -> label_data_1_split_6
I0403 16:44:36.489861 19353 net.cpp:399] label_data_1_split -> label_data_1_split_7
I0403 16:44:36.489881 19353 net.cpp:399] label_data_1_split -> label_data_1_split_8
I0403 16:44:36.489902 19353 net.cpp:399] label_data_1_split -> label_data_1_split_9
I0403 16:44:36.490016 19353 net.cpp:141] Setting up label_data_1_split
I0403 16:44:36.490041 19353 net.cpp:148] Top shape: 24 (24)
I0403 16:44:36.490059 19353 net.cpp:148] Top shape: 24 (24)
I0403 16:44:36.490075 19353 net.cpp:148] Top shape: 24 (24)
I0403 16:44:36.490092 19353 net.cpp:148] Top shape: 24 (24)
I0403 16:44:36.490106 19353 net.cpp:148] Top shape: 24 (24)
I0403 16:44:36.490121 19353 net.cpp:148] Top shape: 24 (24)
I0403 16:44:36.490136 19353 net.cpp:148] Top shape: 24 (24)
I0403 16:44:36.490152 19353 net.cpp:148] Top shape: 24 (24)
I0403 16:44:36.490167 19353 net.cpp:148] Top shape: 24 (24)
I0403 16:44:36.490185 19353 net.cpp:148] Top shape: 24 (24)
I0403 16:44:36.490222 19353 net.cpp:156] Memory required for data: 14451744
I0403 16:44:36.490239 19353 layer_factory.hpp:77] Creating layer conv1/7x7_s2
I0403 16:44:36.490270 19353 net.cpp:91] Creating Layer conv1/7x7_s2
I0403 16:44:36.490290 19353 net.cpp:425] conv1/7x7_s2 <- data
I0403 16:44:36.490309 19353 net.cpp:399] conv1/7x7_s2 -> conv1/7x7_s2
I0403 16:44:36.627542 19353 net.cpp:141] Setting up conv1/7x7_s2
I0403 16:44:36.627610 19353 net.cpp:148] Top shape: 24 64 112 112 (19267584)
I0403 16:44:36.627630 19353 net.cpp:156] Memory required for data: 91522080
I0403 16:44:36.627661 19353 layer_factory.hpp:77] Creating layer conv1/relu_7x7
I0403 16:44:36.627691 19353 net.cpp:91] Creating Layer conv1/relu_7x7
I0403 16:44:36.627710 19353 net.cpp:425] conv1/relu_7x7 <- conv1/7x7_s2
I0403 16:44:36.627729 19353 net.cpp:386] conv1/relu_7x7 -> conv1/7x7_s2 (in-place)
I0403 16:44:36.627987 19353 net.cpp:141] Setting up conv1/relu_7x7
I0403 16:44:36.628016 19353 net.cpp:148] Top shape: 24 64 112 112 (19267584)
I0403 16:44:36.628032 19353 net.cpp:156] Memory required for data: 168592416
I0403 16:44:36.628048 19353 layer_factory.hpp:77] Creating layer pool1/3x3_s2
I0403 16:44:36.628073 19353 net.cpp:91] Creating Layer pool1/3x3_s2
I0403 16:44:36.628093 19353 net.cpp:425] pool1/3x3_s2 <- conv1/7x7_s2
I0403 16:44:36.628111 19353 net.cpp:399] pool1/3x3_s2 -> pool1/3x3_s2
I0403 16:44:36.628186 19353 net.cpp:141] Setting up pool1/3x3_s2
I0403 16:44:36.628211 19353 net.cpp:148] Top shape: 24 64 56 56 (4816896)
I0403 16:44:36.628228 19353 net.cpp:156] Memory required for data: 187860000
I0403 16:44:36.628244 19353 layer_factory.hpp:77] Creating layer pool1/norm1
I0403 16:44:36.628269 19353 net.cpp:91] Creating Layer pool1/norm1
I0403 16:44:36.628288 19353 net.cpp:425] pool1/norm1 <- pool1/3x3_s2
I0403 16:44:36.628306 19353 net.cpp:399] pool1/norm1 -> pool1/norm1
I0403 16:44:36.628609 19353 net.cpp:141] Setting up pool1/norm1
I0403 16:44:36.628638 19353 net.cpp:148] Top shape: 24 64 56 56 (4816896)
I0403 16:44:36.628656 19353 net.cpp:156] Memory required for data: 207127584
I0403 16:44:36.628672 19353 layer_factory.hpp:77] Creating layer conv2/3x3_reduce
I0403 16:44:36.628697 19353 net.cpp:91] Creating Layer conv2/3x3_reduce
I0403 16:44:36.628715 19353 net.cpp:425] conv2/3x3_reduce <- pool1/norm1
I0403 16:44:36.628736 19353 net.cpp:399] conv2/3x3_reduce -> conv2/3x3_reduce
I0403 16:44:36.630144 19353 net.cpp:141] Setting up conv2/3x3_reduce
I0403 16:44:36.630175 19353 net.cpp:148] Top shape: 24 64 56 56 (4816896)
I0403 16:44:36.630192 19353 net.cpp:156] Memory required for data: 226395168
I0403 16:44:36.630214 19353 layer_factory.hpp:77] Creating layer conv2/relu_3x3_reduce
I0403 16:44:36.630234 19353 net.cpp:91] Creating Layer conv2/relu_3x3_reduce
I0403 16:44:36.630250 19353 net.cpp:425] conv2/relu_3x3_reduce <- conv2/3x3_reduce
I0403 16:44:36.630269 19353 net.cpp:386] conv2/relu_3x3_reduce -> conv2/3x3_reduce (in-place)
I0403 16:44:36.630527 19353 net.cpp:141] Setting up conv2/relu_3x3_reduce
I0403 16:44:36.630554 19353 net.cpp:148] Top shape: 24 64 56 56 (4816896)
I0403 16:44:36.630571 19353 net.cpp:156] Memory required for data: 245662752
I0403 16:44:36.630587 19353 layer_factory.hpp:77] Creating layer conv2/3x3
I0403 16:44:36.630666 19353 net.cpp:91] Creating Layer conv2/3x3
I0403 16:44:36.630691 19353 net.cpp:425] conv2/3x3 <- conv2/3x3_reduce
I0403 16:44:36.630712 19353 net.cpp:399] conv2/3x3 -> conv2/3x3
I0403 16:44:36.633134 19353 net.cpp:141] Setting up conv2/3x3
I0403 16:44:36.633170 19353 net.cpp:148] Top shape: 24 192 56 56 (14450688)
I0403 16:44:36.633188 19353 net.cpp:156] Memory required for data: 303465504
I0403 16:44:36.633210 19353 layer_factory.hpp:77] Creating layer conv2/relu_3x3
I0403 16:44:36.633231 19353 net.cpp:91] Creating Layer conv2/relu_3x3
I0403 16:44:36.633249 19353 net.cpp:425] conv2/relu_3x3 <- conv2/3x3
I0403 16:44:36.633270 19353 net.cpp:386] conv2/relu_3x3 -> conv2/3x3 (in-place)
I0403 16:44:36.633452 19353 net.cpp:141] Setting up conv2/relu_3x3
I0403 16:44:36.633478 19353 net.cpp:148] Top shape: 24 192 56 56 (14450688)
I0403 16:44:36.633527 19353 net.cpp:156] Memory required for data: 361268256
I0403 16:44:36.633544 19353 layer_factory.hpp:77] Creating layer conv2/norm2
I0403 16:44:36.633566 19353 net.cpp:91] Creating Layer conv2/norm2
I0403 16:44:36.633584 19353 net.cpp:425] conv2/norm2 <- conv2/3x3
I0403 16:44:36.633605 19353 net.cpp:399] conv2/norm2 -> conv2/norm2
I0403 16:44:36.633921 19353 net.cpp:141] Setting up conv2/norm2
I0403 16:44:36.634012 19353 net.cpp:148] Top shape: 24 192 56 56 (14450688)
I0403 16:44:36.634035 19353 net.cpp:156] Memory required for data: 419071008
I0403 16:44:36.634052 19353 layer_factory.hpp:77] Creating layer pool2/3x3_s2
I0403 16:44:36.634073 19353 net.cpp:91] Creating Layer pool2/3x3_s2
I0403 16:44:36.634089 19353 net.cpp:425] pool2/3x3_s2 <- conv2/norm2
I0403 16:44:36.634107 19353 net.cpp:399] pool2/3x3_s2 -> pool2/3x3_s2
I0403 16:44:36.634167 19353 net.cpp:141] Setting up pool2/3x3_s2
I0403 16:44:36.634192 19353 net.cpp:148] Top shape: 24 192 28 28 (3612672)
I0403 16:44:36.634209 19353 net.cpp:156] Memory required for data: 433521696
I0403 16:44:36.634224 19353 layer_factory.hpp:77] Creating layer pool2/3x3_s2_pool2/3x3_s2_0_split
I0403 16:44:36.634243 19353 net.cpp:91] Creating Layer pool2/3x3_s2_pool2/3x3_s2_0_split
I0403 16:44:36.634258 19353 net.cpp:425] pool2/3x3_s2_pool2/3x3_s2_0_split <- pool2/3x3_s2
I0403 16:44:36.634280 19353 net.cpp:399] pool2/3x3_s2_pool2/3x3_s2_0_split -> pool2/3x3_s2_pool2/3x3_s2_0_split_0
I0403 16:44:36.634302 19353 net.cpp:399] pool2/3x3_s2_pool2/3x3_s2_0_split -> pool2/3x3_s2_pool2/3x3_s2_0_split_1
I0403 16:44:36.634325 19353 net.cpp:399] pool2/3x3_s2_pool2/3x3_s2_0_split -> pool2/3x3_s2_pool2/3x3_s2_0_split_2
I0403 16:44:36.634346 19353 net.cpp:399] pool2/3x3_s2_pool2/3x3_s2_0_split -> pool2/3x3_s2_pool2/3x3_s2_0_split_3
I0403 16:44:36.634424 19353 net.cpp:141] Setting up pool2/3x3_s2_pool2/3x3_s2_0_split
I0403 16:44:36.634449 19353 net.cpp:148] Top shape: 24 192 28 28 (3612672)
I0403 16:44:36.634466 19353 net.cpp:148] Top shape: 24 192 28 28 (3612672)
I0403 16:44:36.634482 19353 net.cpp:148] Top shape: 24 192 28 28 (3612672)
I0403 16:44:36.634500 19353 net.cpp:148] Top shape: 24 192 28 28 (3612672)
I0403 16:44:36.634513 19353 net.cpp:156] Memory required for data: 491324448
I0403 16:44:36.634529 19353 layer_factory.hpp:77] Creating layer inception_3a/1x1
I0403 16:44:36.634553 19353 net.cpp:91] Creating Layer inception_3a/1x1
I0403 16:44:36.634572 19353 net.cpp:425] inception_3a/1x1 <- pool2/3x3_s2_pool2/3x3_s2_0_split_0
I0403 16:44:36.634594 19353 net.cpp:399] inception_3a/1x1 -> inception_3a/1x1
I0403 16:44:36.636240 19353 net.cpp:141] Setting up inception_3a/1x1
I0403 16:44:36.636275 19353 net.cpp:148] Top shape: 24 64 28 28 (1204224)
I0403 16:44:36.636293 19353 net.cpp:156] Memory required for data: 496141344
I0403 16:44:36.636313 19353 layer_factory.hpp:77] Creating layer inception_3a/relu_1x1
I0403 16:44:36.636333 19353 net.cpp:91] Creating Layer inception_3a/relu_1x1
I0403 16:44:36.636349 19353 net.cpp:425] inception_3a/relu_1x1 <- inception_3a/1x1
I0403 16:44:36.636370 19353 net.cpp:386] inception_3a/relu_1x1 -> inception_3a/1x1 (in-place)
I0403 16:44:36.636553 19353 net.cpp:141] Setting up inception_3a/relu_1x1
I0403 16:44:36.636580 19353 net.cpp:148] Top shape: 24 64 28 28 (1204224)
I0403 16:44:36.636595 19353 net.cpp:156] Memory required for data: 500958240
I0403 16:44:36.636618 19353 layer_factory.hpp:77] Creating layer inception_3a/3x3_reduce
I0403 16:44:36.636642 19353 net.cpp:91] Creating Layer inception_3a/3x3_reduce
I0403 16:44:36.636662 19353 net.cpp:425] inception_3a/3x3_reduce <- pool2/3x3_s2_pool2/3x3_s2_0_split_1
I0403 16:44:36.636684 19353 net.cpp:399] inception_3a/3x3_reduce -> inception_3a/3x3_reduce
I0403 16:44:36.638466 19353 net.cpp:141] Setting up inception_3a/3x3_reduce
I0403 16:44:36.638500 19353 net.cpp:148] Top shape: 24 96 28 28 (1806336)
I0403 16:44:36.638520 19353 net.cpp:156] Memory required for data: 508183584
I0403 16:44:36.638542 19353 layer_factory.hpp:77] Creating layer inception_3a/relu_3x3_reduce
I0403 16:44:36.638582 19353 net.cpp:91] Creating Layer inception_3a/relu_3x3_reduce
I0403 16:44:36.638607 19353 net.cpp:425] inception_3a/relu_3x3_reduce <- inception_3a/3x3_reduce
I0403 16:44:36.638631 19353 net.cpp:386] inception_3a/relu_3x3_reduce -> inception_3a/3x3_reduce (in-place)
I0403 16:44:36.638824 19353 net.cpp:141] Setting up inception_3a/relu_3x3_reduce
I0403 16:44:36.638854 19353 net.cpp:148] Top shape: 24 96 28 28 (1806336)
I0403 16:44:36.638871 19353 net.cpp:156] Memory required for data: 515408928
I0403 16:44:36.638888 19353 layer_factory.hpp:77] Creating layer inception_3a/3x3
I0403 16:44:36.638911 19353 net.cpp:91] Creating Layer inception_3a/3x3
I0403 16:44:36.638928 19353 net.cpp:425] inception_3a/3x3 <- inception_3a/3x3_reduce
I0403 16:44:36.638952 19353 net.cpp:399] inception_3a/3x3 -> inception_3a/3x3
I0403 16:44:36.640743 19353 net.cpp:141] Setting up inception_3a/3x3
I0403 16:44:36.640775 19353 net.cpp:148] Top shape: 24 128 28 28 (2408448)
I0403 16:44:36.640804 19353 net.cpp:156] Memory required for data: 525042720
I0403 16:44:36.640823 19353 layer_factory.hpp:77] Creating layer inception_3a/relu_3x3
I0403 16:44:36.640842 19353 net.cpp:91] Creating Layer inception_3a/relu_3x3
I0403 16:44:36.640861 19353 net.cpp:425] inception_3a/relu_3x3 <- inception_3a/3x3
I0403 16:44:36.640882 19353 net.cpp:386] inception_3a/relu_3x3 -> inception_3a/3x3 (in-place)
I0403 16:44:36.641166 19353 net.cpp:141] Setting up inception_3a/relu_3x3
I0403 16:44:36.641196 19353 net.cpp:148] Top shape: 24 128 28 28 (2408448)
I0403 16:44:36.641216 19353 net.cpp:156] Memory required for data: 534676512
I0403 16:44:36.641232 19353 layer_factory.hpp:77] Creating layer inception_3a/5x5_reduce
I0403 16:44:36.641257 19353 net.cpp:91] Creating Layer inception_3a/5x5_reduce
I0403 16:44:36.641276 19353 net.cpp:425] inception_3a/5x5_reduce <- pool2/3x3_s2_pool2/3x3_s2_0_split_2
I0403 16:44:36.641299 19353 net.cpp:399] inception_3a/5x5_reduce -> inception_3a/5x5_reduce
I0403 16:44:36.642310 19353 net.cpp:141] Setting up inception_3a/5x5_reduce
I0403 16:44:36.642340 19353 net.cpp:148] Top shape: 24 16 28 28 (301056)
I0403 16:44:36.642357 19353 net.cpp:156] Memory required for data: 535880736
I0403 16:44:36.642377 19353 layer_factory.hpp:77] Creating layer inception_3a/relu_5x5_reduce
I0403 16:44:36.642401 19353 net.cpp:91] Creating Layer inception_3a/relu_5x5_reduce
I0403 16:44:36.642421 19353 net.cpp:425] inception_3a/relu_5x5_reduce <- inception_3a/5x5_reduce
I0403 16:44:36.642441 19353 net.cpp:386] inception_3a/relu_5x5_reduce -> inception_3a/5x5_reduce (in-place)
I0403 16:44:36.642742 19353 net.cpp:141] Setting up inception_3a/relu_5x5_reduce
I0403 16:44:36.642771 19353 net.cpp:148] Top shape: 24 16 28 28 (301056)
I0403 16:44:36.642787 19353 net.cpp:156] Memory required for data: 537084960
I0403 16:44:36.642803 19353 layer_factory.hpp:77] Creating layer inception_3a/5x5
I0403 16:44:36.642828 19353 net.cpp:91] Creating Layer inception_3a/5x5
I0403 16:44:36.642846 19353 net.cpp:425] inception_3a/5x5 <- inception_3a/5x5_reduce
I0403 16:44:36.642869 19353 net.cpp:399] inception_3a/5x5 -> inception_3a/5x5
I0403 16:44:36.643936 19353 net.cpp:141] Setting up inception_3a/5x5
I0403 16:44:36.643970 19353 net.cpp:148] Top shape: 24 32 28 28 (602112)
I0403 16:44:36.643988 19353 net.cpp:156] Memory required for data: 539493408
I0403 16:44:36.644011 19353 layer_factory.hpp:77] Creating layer inception_3a/relu_5x5
I0403 16:44:36.644032 19353 net.cpp:91] Creating Layer inception_3a/relu_5x5
I0403 16:44:36.644049 19353 net.cpp:425] inception_3a/relu_5x5 <- inception_3a/5x5
I0403 16:44:36.644071 19353 net.cpp:386] inception_3a/relu_5x5 -> inception_3a/5x5 (in-place)
I0403 16:44:36.644255 19353 net.cpp:141] Setting up inception_3a/relu_5x5
I0403 16:44:36.644284 19353 net.cpp:148] Top shape: 24 32 28 28 (602112)
I0403 16:44:36.644301 19353 net.cpp:156] Memory required for data: 541901856
I0403 16:44:36.644318 19353 layer_factory.hpp:77] Creating layer inception_3a/pool
I0403 16:44:36.644337 19353 net.cpp:91] Creating Layer inception_3a/pool
I0403 16:44:36.644354 19353 net.cpp:425] inception_3a/pool <- pool2/3x3_s2_pool2/3x3_s2_0_split_3
I0403 16:44:36.644393 19353 net.cpp:399] inception_3a/pool -> inception_3a/pool
I0403 16:44:36.644459 19353 net.cpp:141] Setting up inception_3a/pool
I0403 16:44:36.644485 19353 net.cpp:148] Top shape: 24 192 28 28 (3612672)
I0403 16:44:36.644502 19353 net.cpp:156] Memory required for data: 556352544
I0403 16:44:36.644520 19353 layer_factory.hpp:77] Creating layer inception_3a/pool_proj
I0403 16:44:36.644546 19353 net.cpp:91] Creating Layer inception_3a/pool_proj
I0403 16:44:36.644567 19353 net.cpp:425] inception_3a/pool_proj <- inception_3a/pool
I0403 16:44:36.644587 19353 net.cpp:399] inception_3a/pool_proj -> inception_3a/pool_proj
I0403 16:44:36.645611 19353 net.cpp:141] Setting up inception_3a/pool_proj
I0403 16:44:36.645642 19353 net.cpp:148] Top shape: 24 32 28 28 (602112)
I0403 16:44:36.645659 19353 net.cpp:156] Memory required for data: 558760992
I0403 16:44:36.645687 19353 layer_factory.hpp:77] Creating layer inception_3a/relu_pool_proj
I0403 16:44:36.645712 19353 net.cpp:91] Creating Layer inception_3a/relu_pool_proj
I0403 16:44:36.645731 19353 net.cpp:425] inception_3a/relu_pool_proj <- inception_3a/pool_proj
I0403 16:44:36.645751 19353 net.cpp:386] inception_3a/relu_pool_proj -> inception_3a/pool_proj (in-place)
I0403 16:44:36.646036 19353 net.cpp:141] Setting up inception_3a/relu_pool_proj
I0403 16:44:36.646067 19353 net.cpp:148] Top shape: 24 32 28 28 (602112)
I0403 16:44:36.646085 19353 net.cpp:156] Memory required for data: 561169440
I0403 16:44:36.646100 19353 layer_factory.hpp:77] Creating layer inception_3a/output
I0403 16:44:36.646119 19353 net.cpp:91] Creating Layer inception_3a/output
I0403 16:44:36.646136 19353 net.cpp:425] inception_3a/output <- inception_3a/1x1
I0403 16:44:36.646154 19353 net.cpp:425] inception_3a/output <- inception_3a/3x3
I0403 16:44:36.646172 19353 net.cpp:425] inception_3a/output <- inception_3a/5x5
I0403 16:44:36.646188 19353 net.cpp:425] inception_3a/output <- inception_3a/pool_proj
I0403 16:44:36.646209 19353 net.cpp:399] inception_3a/output -> inception_3a/output
I0403 16:44:36.646258 19353 net.cpp:141] Setting up inception_3a/output
I0403 16:44:36.646283 19353 net.cpp:148] Top shape: 24 256 28 28 (4816896)
I0403 16:44:36.646301 19353 net.cpp:156] Memory required for data: 580437024
I0403 16:44:36.646316 19353 layer_factory.hpp:77] Creating layer inception_3a/output_inception_3a/output_0_split
I0403 16:44:36.646337 19353 net.cpp:91] Creating Layer inception_3a/output_inception_3a/output_0_split
I0403 16:44:36.646355 19353 net.cpp:425] inception_3a/output_inception_3a/output_0_split <- inception_3a/output
I0403 16:44:36.646374 19353 net.cpp:399] inception_3a/output_inception_3a/output_0_split -> inception_3a/output_inception_3a/output_0_split_0
I0403 16:44:36.646399 19353 net.cpp:399] inception_3a/output_inception_3a/output_0_split -> inception_3a/output_inception_3a/output_0_split_1
I0403 16:44:36.646425 19353 net.cpp:399] inception_3a/output_inception_3a/output_0_split -> inception_3a/output_inception_3a/output_0_split_2
I0403 16:44:36.646448 19353 net.cpp:399] inception_3a/output_inception_3a/output_0_split -> inception_3a/output_inception_3a/output_0_split_3
I0403 16:44:36.646528 19353 net.cpp:141] Setting up inception_3a/output_inception_3a/output_0_split
I0403 16:44:36.646556 19353 net.cpp:148] Top shape: 24 256 28 28 (4816896)
I0403 16:44:36.646576 19353 net.cpp:148] Top shape: 24 256 28 28 (4816896)
I0403 16:44:36.646594 19353 net.cpp:148] Top shape: 24 256 28 28 (4816896)
I0403 16:44:36.646617 19353 net.cpp:148] Top shape: 24 256 28 28 (4816896)
I0403 16:44:36.646633 19353 net.cpp:156] Memory required for data: 657507360
I0403 16:44:36.646649 19353 layer_factory.hpp:77] Creating layer inception_3b/1x1
I0403 16:44:36.646673 19353 net.cpp:91] Creating Layer inception_3b/1x1
I0403 16:44:36.646693 19353 net.cpp:425] inception_3b/1x1 <- inception_3a/output_inception_3a/output_0_split_0
I0403 16:44:36.646714 19353 net.cpp:399] inception_3b/1x1 -> inception_3b/1x1
I0403 16:44:36.647920 19353 net.cpp:141] Setting up inception_3b/1x1
I0403 16:44:36.647966 19353 net.cpp:148] Top shape: 24 128 28 28 (2408448)
I0403 16:44:36.647997 19353 net.cpp:156] Memory required for data: 667141152
I0403 16:44:36.648016 19353 layer_factory.hpp:77] Creating layer inception_3b/relu_1x1
I0403 16:44:36.648036 19353 net.cpp:91] Creating Layer inception_3b/relu_1x1
I0403 16:44:36.648052 19353 net.cpp:425] inception_3b/relu_1x1 <- inception_3b/1x1
I0403 16:44:36.648071 19353 net.cpp:386] inception_3b/relu_1x1 -> inception_3b/1x1 (in-place)
I0403 16:44:36.648252 19353 net.cpp:141] Setting up inception_3b/relu_1x1
I0403 16:44:36.648278 19353 net.cpp:148] Top shape: 24 128 28 28 (2408448)
I0403 16:44:36.648294 19353 net.cpp:156] Memory required for data: 676774944
I0403 16:44:36.648309 19353 layer_factory.hpp:77] Creating layer inception_3b/3x3_reduce
I0403 16:44:36.648332 19353 net.cpp:91] Creating Layer inception_3b/3x3_reduce
I0403 16:44:36.648351 19353 net.cpp:425] inception_3b/3x3_reduce <- inception_3a/output_inception_3a/output_0_split_1
I0403 16:44:36.648373 19353 net.cpp:399] inception_3b/3x3_reduce -> inception_3b/3x3_reduce
I0403 16:44:36.649546 19353 net.cpp:141] Setting up inception_3b/3x3_reduce
I0403 16:44:36.649575 19353 net.cpp:148] Top shape: 24 128 28 28 (2408448)
I0403 16:44:36.649591 19353 net.cpp:156] Memory required for data: 686408736
I0403 16:44:36.649616 19353 layer_factory.hpp:77] Creating layer inception_3b/relu_3x3_reduce
I0403 16:44:36.649638 19353 net.cpp:91] Creating Layer inception_3b/relu_3x3_reduce
I0403 16:44:36.649657 19353 net.cpp:425] inception_3b/relu_3x3_reduce <- inception_3b/3x3_reduce
I0403 16:44:36.649677 19353 net.cpp:386] inception_3b/relu_3x3_reduce -> inception_3b/3x3_reduce (in-place)
I0403 16:44:36.649858 19353 net.cpp:141] Setting up inception_3b/relu_3x3_reduce
I0403 16:44:36.649885 19353 net.cpp:148] Top shape: 24 128 28 28 (2408448)
I0403 16:44:36.649901 19353 net.cpp:156] Memory required for data: 696042528
I0403 16:44:36.649916 19353 layer_factory.hpp:77] Creating layer inception_3b/3x3
I0403 16:44:36.649942 19353 net.cpp:91] Creating Layer inception_3b/3x3
I0403 16:44:36.649963 19353 net.cpp:425] inception_3b/3x3 <- inception_3b/3x3_reduce
I0403 16:44:36.649984 19353 net.cpp:399] inception_3b/3x3 -> inception_3b/3x3
I0403 16:44:36.653002 19353 net.cpp:141] Setting up inception_3b/3x3
I0403 16:44:36.653034 19353 net.cpp:148] Top shape: 24 192 28 28 (3612672)
I0403 16:44:36.653053 19353 net.cpp:156] Memory required for data: 710493216
I0403 16:44:36.653074 19353 layer_factory.hpp:77] Creating layer inception_3b/relu_3x3
I0403 16:44:36.653092 19353 net.cpp:91] Creating Layer inception_3b/relu_3x3
I0403 16:44:36.653110 19353 net.cpp:425] inception_3b/relu_3x3 <- inception_3b/3x3
I0403 16:44:36.653133 19353 net.cpp:386] inception_3b/relu_3x3 -> inception_3b/3x3 (in-place)
I0403 16:44:36.653426 19353 net.cpp:141] Setting up inception_3b/relu_3x3
I0403 16:44:36.653456 19353 net.cpp:148] Top shape: 24 192 28 28 (3612672)
I0403 16:44:36.653473 19353 net.cpp:156] Memory required for data: 724943904
I0403 16:44:36.653489 19353 layer_factory.hpp:77] Creating layer inception_3b/5x5_reduce
I0403 16:44:36.653525 19353 net.cpp:91] Creating Layer inception_3b/5x5_reduce
I0403 16:44:36.653543 19353 net.cpp:425] inception_3b/5x5_reduce <- inception_3a/output_inception_3a/output_0_split_2
I0403 16:44:36.653565 19353 net.cpp:399] inception_3b/5x5_reduce -> inception_3b/5x5_reduce
I0403 16:44:36.654556 19353 net.cpp:141] Setting up inception_3b/5x5_reduce
I0403 16:44:36.654587 19353 net.cpp:148] Top shape: 24 32 28 28 (602112)
I0403 16:44:36.654613 19353 net.cpp:156] Memory required for data: 727352352
I0403 16:44:36.654634 19353 layer_factory.hpp:77] Creating layer inception_3b/relu_5x5_reduce
I0403 16:44:36.654654 19353 net.cpp:91] Creating Layer inception_3b/relu_5x5_reduce
I0403 16:44:36.654671 19353 net.cpp:425] inception_3b/relu_5x5_reduce <- inception_3b/5x5_reduce
I0403 16:44:36.654691 19353 net.cpp:386] inception_3b/relu_5x5_reduce -> inception_3b/5x5_reduce (in-place)
I0403 16:44:36.654865 19353 net.cpp:141] Setting up inception_3b/relu_5x5_reduce
I0403 16:44:36.654904 19353 net.cpp:148] Top shape: 24 32 28 28 (602112)
I0403 16:44:36.654920 19353 net.cpp:156] Memory required for data: 729760800
I0403 16:44:36.654935 19353 layer_factory.hpp:77] Creating layer inception_3b/5x5
I0403 16:44:36.654958 19353 net.cpp:91] Creating Layer inception_3b/5x5
I0403 16:44:36.654978 19353 net.cpp:425] inception_3b/5x5 <- inception_3b/5x5_reduce
I0403 16:44:36.654999 19353 net.cpp:399] inception_3b/5x5 -> inception_3b/5x5
I0403 16:44:36.658124 19353 net.cpp:141] Setting up inception_3b/5x5
I0403 16:44:36.658154 19353 net.cpp:148] Top shape: 24 96 28 28 (1806336)
I0403 16:44:36.658170 19353 net.cpp:156] Memory required for data: 736986144
I0403 16:44:36.658188 19353 layer_factory.hpp:77] Creating layer inception_3b/relu_5x5
I0403 16:44:36.658210 19353 net.cpp:91] Creating Layer inception_3b/relu_5x5
I0403 16:44:36.658227 19353 net.cpp:425] inception_3b/relu_5x5 <- inception_3b/5x5
I0403 16:44:36.658246 19353 net.cpp:386] inception_3b/relu_5x5 -> inception_3b/5x5 (in-place)
I0403 16:44:36.658430 19353 net.cpp:141] Setting up inception_3b/relu_5x5
I0403 16:44:36.658457 19353 net.cpp:148] Top shape: 24 96 28 28 (1806336)
I0403 16:44:36.658473 19353 net.cpp:156] Memory required for data: 744211488
I0403 16:44:36.658488 19353 layer_factory.hpp:77] Creating layer inception_3b/pool
I0403 16:44:36.658505 19353 net.cpp:91] Creating Layer inception_3b/pool
I0403 16:44:36.658520 19353 net.cpp:425] inception_3b/pool <- inception_3a/output_inception_3a/output_0_split_3
I0403 16:44:36.658537 19353 net.cpp:399] inception_3b/pool -> inception_3b/pool
I0403 16:44:36.658592 19353 net.cpp:141] Setting up inception_3b/pool
I0403 16:44:36.658623 19353 net.cpp:148] Top shape: 24 256 28 28 (4816896)
I0403 16:44:36.658639 19353 net.cpp:156] Memory required for data: 763479072
I0403 16:44:36.658653 19353 layer_factory.hpp:77] Creating layer inception_3b/pool_proj
I0403 16:44:36.658676 19353 net.cpp:91] Creating Layer inception_3b/pool_proj
I0403 16:44:36.658694 19353 net.cpp:425] inception_3b/pool_proj <- inception_3b/pool
I0403 16:44:36.658713 19353 net.cpp:399] inception_3b/pool_proj -> inception_3b/pool_proj
I0403 16:44:36.659729 19353 net.cpp:141] Setting up inception_3b/pool_proj
I0403 16:44:36.659755 19353 net.cpp:148] Top shape: 24 64 28 28 (1204224)
I0403 16:44:36.659772 19353 net.cpp:156] Memory required for data: 768295968
I0403 16:44:36.659790 19353 layer_factory.hpp:77] Creating layer inception_3b/relu_pool_proj
I0403 16:44:36.659809 19353 net.cpp:91] Creating Layer inception_3b/relu_pool_proj
I0403 16:44:36.659826 19353 net.cpp:425] inception_3b/relu_pool_proj <- inception_3b/pool_proj
I0403 16:44:36.659844 19353 net.cpp:386] inception_3b/relu_pool_proj -> inception_3b/pool_proj (in-place)
I0403 16:44:36.660228 19353 net.cpp:141] Setting up inception_3b/relu_pool_proj
I0403 16:44:36.660254 19353 net.cpp:148] Top shape: 24 64 28 28 (1204224)
I0403 16:44:36.660269 19353 net.cpp:156] Memory required for data: 773112864
I0403 16:44:36.660284 19353 layer_factory.hpp:77] Creating layer inception_3b/output
I0403 16:44:36.660300 19353 net.cpp:91] Creating Layer inception_3b/output
I0403 16:44:36.660316 19353 net.cpp:425] inception_3b/output <- inception_3b/1x1
I0403 16:44:36.660334 19353 net.cpp:425] inception_3b/output <- inception_3b/3x3
I0403 16:44:36.660351 19353 net.cpp:425] inception_3b/output <- inception_3b/5x5
I0403 16:44:36.660364 19353 net.cpp:425] inception_3b/output <- inception_3b/pool_proj
I0403 16:44:36.660383 19353 net.cpp:399] inception_3b/output -> inception_3b/output
I0403 16:44:36.660428 19353 net.cpp:141] Setting up inception_3b/output
I0403 16:44:36.660454 19353 net.cpp:148] Top shape: 24 480 28 28 (9031680)
I0403 16:44:36.660470 19353 net.cpp:156] Memory required for data: 809239584
I0403 16:44:36.660485 19353 layer_factory.hpp:77] Creating layer pool3/3x3_s2
I0403 16:44:36.660501 19353 net.cpp:91] Creating Layer pool3/3x3_s2
I0403 16:44:36.660516 19353 net.cpp:425] pool3/3x3_s2 <- inception_3b/output
I0403 16:44:36.660539 19353 net.cpp:399] pool3/3x3_s2 -> pool3/3x3_s2
I0403 16:44:36.660616 19353 net.cpp:141] Setting up pool3/3x3_s2
I0403 16:44:36.660641 19353 net.cpp:148] Top shape: 24 480 14 14 (2257920)
I0403 16:44:36.660656 19353 net.cpp:156] Memory required for data: 818271264
I0403 16:44:36.660670 19353 layer_factory.hpp:77] Creating layer pool3/3x3_s2_pool3/3x3_s2_0_split
I0403 16:44:36.660689 19353 net.cpp:91] Creating Layer pool3/3x3_s2_pool3/3x3_s2_0_split
I0403 16:44:36.660706 19353 net.cpp:425] pool3/3x3_s2_pool3/3x3_s2_0_split <- pool3/3x3_s2
I0403 16:44:36.660722 19353 net.cpp:399] pool3/3x3_s2_pool3/3x3_s2_0_split -> pool3/3x3_s2_pool3/3x3_s2_0_split_0
I0403 16:44:36.660742 19353 net.cpp:399] pool3/3x3_s2_pool3/3x3_s2_0_split -> pool3/3x3_s2_pool3/3x3_s2_0_split_1
I0403 16:44:36.660763 19353 net.cpp:399] pool3/3x3_s2_pool3/3x3_s2_0_split -> pool3/3x3_s2_pool3/3x3_s2_0_split_2
I0403 16:44:36.660784 19353 net.cpp:399] pool3/3x3_s2_pool3/3x3_s2_0_split -> pool3/3x3_s2_pool3/3x3_s2_0_split_3
I0403 16:44:36.660876 19353 net.cpp:141] Setting up pool3/3x3_s2_pool3/3x3_s2_0_split
I0403 16:44:36.660899 19353 net.cpp:148] Top shape: 24 480 14 14 (2257920)
I0403 16:44:36.660915 19353 net.cpp:148] Top shape: 24 480 14 14 (2257920)
I0403 16:44:36.660931 19353 net.cpp:148] Top shape: 24 480 14 14 (2257920)
I0403 16:44:36.660948 19353 net.cpp:148] Top shape: 24 480 14 14 (2257920)
I0403 16:44:36.660962 19353 net.cpp:156] Memory required for data: 854397984
I0403 16:44:36.660977 19353 layer_factory.hpp:77] Creating layer inception_4a/1x1
I0403 16:44:36.661000 19353 net.cpp:91] Creating Layer inception_4a/1x1
I0403 16:44:36.661018 19353 net.cpp:425] inception_4a/1x1 <- pool3/3x3_s2_pool3/3x3_s2_0_split_0
I0403 16:44:36.661041 19353 net.cpp:399] inception_4a/1x1 -> inception_4a/1x1
I0403 16:44:36.662559 19353 net.cpp:141] Setting up inception_4a/1x1
I0403 16:44:36.662588 19353 net.cpp:148] Top shape: 24 192 14 14 (903168)
I0403 16:44:36.662609 19353 net.cpp:156] Memory required for data: 858010656
I0403 16:44:36.662631 19353 layer_factory.hpp:77] Creating layer inception_4a/relu_1x1
I0403 16:44:36.662652 19353 net.cpp:91] Creating Layer inception_4a/relu_1x1
I0403 16:44:36.662669 19353 net.cpp:425] inception_4a/relu_1x1 <- inception_4a/1x1
I0403 16:44:36.662686 19353 net.cpp:386] inception_4a/relu_1x1 -> inception_4a/1x1 (in-place)
I0403 16:44:36.662858 19353 net.cpp:141] Setting up inception_4a/relu_1x1
I0403 16:44:36.662886 19353 net.cpp:148] Top shape: 24 192 14 14 (903168)
I0403 16:44:36.662904 19353 net.cpp:156] Memory required for data: 861623328
I0403 16:44:36.662919 19353 layer_factory.hpp:77] Creating layer inception_4a/3x3_reduce
I0403 16:44:36.662940 19353 net.cpp:91] Creating Layer inception_4a/3x3_reduce
I0403 16:44:36.662960 19353 net.cpp:425] inception_4a/3x3_reduce <- pool3/3x3_s2_pool3/3x3_s2_0_split_1
I0403 16:44:36.662978 19353 net.cpp:399] inception_4a/3x3_reduce -> inception_4a/3x3_reduce
I0403 16:44:36.664216 19353 net.cpp:141] Setting up inception_4a/3x3_reduce
I0403 16:44:36.664244 19353 net.cpp:148] Top shape: 24 96 14 14 (451584)
I0403 16:44:36.664260 19353 net.cpp:156] Memory required for data: 863429664
I0403 16:44:36.664285 19353 layer_factory.hpp:77] Creating layer inception_4a/relu_3x3_reduce
I0403 16:44:36.664305 19353 net.cpp:91] Creating Layer inception_4a/relu_3x3_reduce
I0403 16:44:36.664322 19353 net.cpp:425] inception_4a/relu_3x3_reduce <- inception_4a/3x3_reduce
I0403 16:44:36.664342 19353 net.cpp:386] inception_4a/relu_3x3_reduce -> inception_4a/3x3_reduce (in-place)
I0403 16:44:36.664513 19353 net.cpp:141] Setting up inception_4a/relu_3x3_reduce
I0403 16:44:36.664543 19353 net.cpp:148] Top shape: 24 96 14 14 (451584)
I0403 16:44:36.664561 19353 net.cpp:156] Memory required for data: 865236000
I0403 16:44:36.664575 19353 layer_factory.hpp:77] Creating layer inception_4a/3x3
I0403 16:44:36.664595 19353 net.cpp:91] Creating Layer inception_4a/3x3
I0403 16:44:36.664624 19353 net.cpp:425] inception_4a/3x3 <- inception_4a/3x3_reduce
I0403 16:44:36.664649 19353 net.cpp:399] inception_4a/3x3 -> inception_4a/3x3
I0403 16:44:36.667220 19353 net.cpp:141] Setting up inception_4a/3x3
I0403 16:44:36.667251 19353 net.cpp:148] Top shape: 24 208 14 14 (978432)
I0403 16:44:36.667268 19353 net.cpp:156] Memory required for data: 869149728
I0403 16:44:36.667286 19353 layer_factory.hpp:77] Creating layer inception_4a/relu_3x3
I0403 16:44:36.667305 19353 net.cpp:91] Creating Layer inception_4a/relu_3x3
I0403 16:44:36.667322 19353 net.cpp:425] inception_4a/relu_3x3 <- inception_4a/3x3
I0403 16:44:36.667342 19353 net.cpp:386] inception_4a/relu_3x3 -> inception_4a/3x3 (in-place)
I0403 16:44:36.667625 19353 net.cpp:141] Setting up inception_4a/relu_3x3
I0403 16:44:36.667655 19353 net.cpp:148] Top shape: 24 208 14 14 (978432)
I0403 16:44:36.667671 19353 net.cpp:156] Memory required for data: 873063456
I0403 16:44:36.667701 19353 layer_factory.hpp:77] Creating layer inception_4a/5x5_reduce
I0403 16:44:36.667726 19353 net.cpp:91] Creating Layer inception_4a/5x5_reduce
I0403 16:44:36.667745 19353 net.cpp:425] inception_4a/5x5_reduce <- pool3/3x3_s2_pool3/3x3_s2_0_split_2
I0403 16:44:36.667765 19353 net.cpp:399] inception_4a/5x5_reduce -> inception_4a/5x5_reduce
I0403 16:44:36.668788 19353 net.cpp:141] Setting up inception_4a/5x5_reduce
I0403 16:44:36.668824 19353 net.cpp:148] Top shape: 24 16 14 14 (75264)
I0403 16:44:36.668843 19353 net.cpp:156] Memory required for data: 873364512
I0403 16:44:36.668861 19353 layer_factory.hpp:77] Creating layer inception_4a/relu_5x5_reduce
I0403 16:44:36.668881 19353 net.cpp:91] Creating Layer inception_4a/relu_5x5_reduce
I0403 16:44:36.668897 19353 net.cpp:425] inception_4a/relu_5x5_reduce <- inception_4a/5x5_reduce
I0403 16:44:36.668917 19353 net.cpp:386] inception_4a/relu_5x5_reduce -> inception_4a/5x5_reduce (in-place)
I0403 16:44:36.669095 19353 net.cpp:141] Setting up inception_4a/relu_5x5_reduce
I0403 16:44:36.669121 19353 net.cpp:148] Top shape: 24 16 14 14 (75264)
I0403 16:44:36.669137 19353 net.cpp:156] Memory required for data: 873665568
I0403 16:44:36.669152 19353 layer_factory.hpp:77] Creating layer inception_4a/5x5
I0403 16:44:36.669173 19353 net.cpp:91] Creating Layer inception_4a/5x5
I0403 16:44:36.669191 19353 net.cpp:425] inception_4a/5x5 <- inception_4a/5x5_reduce
I0403 16:44:36.669214 19353 net.cpp:399] inception_4a/5x5 -> inception_4a/5x5
I0403 16:44:36.670287 19353 net.cpp:141] Setting up inception_4a/5x5
I0403 16:44:36.670316 19353 net.cpp:148] Top shape: 24 48 14 14 (225792)
I0403 16:44:36.670332 19353 net.cpp:156] Memory required for data: 874568736
I0403 16:44:36.670351 19353 layer_factory.hpp:77] Creating layer inception_4a/relu_5x5
I0403 16:44:36.670372 19353 net.cpp:91] Creating Layer inception_4a/relu_5x5
I0403 16:44:36.670387 19353 net.cpp:425] inception_4a/relu_5x5 <- inception_4a/5x5
I0403 16:44:36.670406 19353 net.cpp:386] inception_4a/relu_5x5 -> inception_4a/5x5 (in-place)
I0403 16:44:36.670583 19353 net.cpp:141] Setting up inception_4a/relu_5x5
I0403 16:44:36.670614 19353 net.cpp:148] Top shape: 24 48 14 14 (225792)
I0403 16:44:36.670631 19353 net.cpp:156] Memory required for data: 875471904
I0403 16:44:36.670646 19353 layer_factory.hpp:77] Creating layer inception_4a/pool
I0403 16:44:36.670666 19353 net.cpp:91] Creating Layer inception_4a/pool
I0403 16:44:36.670686 19353 net.cpp:425] inception_4a/pool <- pool3/3x3_s2_pool3/3x3_s2_0_split_3
I0403 16:44:36.670704 19353 net.cpp:399] inception_4a/pool -> inception_4a/pool
I0403 16:44:36.670768 19353 net.cpp:141] Setting up inception_4a/pool
I0403 16:44:36.670794 19353 net.cpp:148] Top shape: 24 480 14 14 (2257920)
I0403 16:44:36.670809 19353 net.cpp:156] Memory required for data: 884503584
I0403 16:44:36.670824 19353 layer_factory.hpp:77] Creating layer inception_4a/pool_proj
I0403 16:44:36.670845 19353 net.cpp:91] Creating Layer inception_4a/pool_proj
I0403 16:44:36.670863 19353 net.cpp:425] inception_4a/pool_proj <- inception_4a/pool
I0403 16:44:36.670886 19353 net.cpp:399] inception_4a/pool_proj -> inception_4a/pool_proj
I0403 16:44:36.672072 19353 net.cpp:141] Setting up inception_4a/pool_proj
I0403 16:44:36.672101 19353 net.cpp:148] Top shape: 24 64 14 14 (301056)
I0403 16:44:36.672134 19353 net.cpp:156] Memory required for data: 885707808
I0403 16:44:36.672154 19353 layer_factory.hpp:77] Creating layer inception_4a/relu_pool_proj
I0403 16:44:36.672176 19353 net.cpp:91] Creating Layer inception_4a/relu_pool_proj
I0403 16:44:36.672194 19353 net.cpp:425] inception_4a/relu_pool_proj <- inception_4a/pool_proj
I0403 16:44:36.672214 19353 net.cpp:386] inception_4a/relu_pool_proj -> inception_4a/pool_proj (in-place)
I0403 16:44:36.672494 19353 net.cpp:141] Setting up inception_4a/relu_pool_proj
I0403 16:44:36.672521 19353 net.cpp:148] Top shape: 24 64 14 14 (301056)
I0403 16:44:36.672538 19353 net.cpp:156] Memory required for data: 886912032
I0403 16:44:36.672552 19353 layer_factory.hpp:77] Creating layer inception_4a/output
I0403 16:44:36.672572 19353 net.cpp:91] Creating Layer inception_4a/output
I0403 16:44:36.672590 19353 net.cpp:425] inception_4a/output <- inception_4a/1x1
I0403 16:44:36.672616 19353 net.cpp:425] inception_4a/output <- inception_4a/3x3
I0403 16:44:36.672634 19353 net.cpp:425] inception_4a/output <- inception_4a/5x5
I0403 16:44:36.672651 19353 net.cpp:425] inception_4a/output <- inception_4a/pool_proj
I0403 16:44:36.672667 19353 net.cpp:399] inception_4a/output -> inception_4a/output
I0403 16:44:36.672713 19353 net.cpp:141] Setting up inception_4a/output
I0403 16:44:36.672737 19353 net.cpp:148] Top shape: 24 512 14 14 (2408448)
I0403 16:44:36.672754 19353 net.cpp:156] Memory required for data: 896545824
I0403 16:44:36.672768 19353 layer_factory.hpp:77] Creating layer inception_4a/output_inception_4a/output_0_split
I0403 16:44:36.672785 19353 net.cpp:91] Creating Layer inception_4a/output_inception_4a/output_0_split
I0403 16:44:36.672813 19353 net.cpp:425] inception_4a/output_inception_4a/output_0_split <- inception_4a/output
I0403 16:44:36.672834 19353 net.cpp:399] inception_4a/output_inception_4a/output_0_split -> inception_4a/output_inception_4a/output_0_split_0
I0403 16:44:36.672857 19353 net.cpp:399] inception_4a/output_inception_4a/output_0_split -> inception_4a/output_inception_4a/output_0_split_1
I0403 16:44:36.672879 19353 net.cpp:399] inception_4a/output_inception_4a/output_0_split -> inception_4a/output_inception_4a/output_0_split_2
I0403 16:44:36.672901 19353 net.cpp:399] inception_4a/output_inception_4a/output_0_split -> inception_4a/output_inception_4a/output_0_split_3
I0403 16:44:36.672924 19353 net.cpp:399] inception_4a/output_inception_4a/output_0_split -> inception_4a/output_inception_4a/output_0_split_4
I0403 16:44:36.673020 19353 net.cpp:141] Setting up inception_4a/output_inception_4a/output_0_split
I0403 16:44:36.673046 19353 net.cpp:148] Top shape: 24 512 14 14 (2408448)
I0403 16:44:36.673065 19353 net.cpp:148] Top shape: 24 512 14 14 (2408448)
I0403 16:44:36.673096 19353 net.cpp:148] Top shape: 24 512 14 14 (2408448)
I0403 16:44:36.673112 19353 net.cpp:148] Top shape: 24 512 14 14 (2408448)
I0403 16:44:36.673128 19353 net.cpp:148] Top shape: 24 512 14 14 (2408448)
I0403 16:44:36.673142 19353 net.cpp:156] Memory required for data: 944714784
I0403 16:44:36.673156 19353 layer_factory.hpp:77] Creating layer loss1/ave_pool
I0403 16:44:36.673174 19353 net.cpp:91] Creating Layer loss1/ave_pool
I0403 16:44:36.673192 19353 net.cpp:425] loss1/ave_pool <- inception_4a/output_inception_4a/output_0_split_0
I0403 16:44:36.673213 19353 net.cpp:399] loss1/ave_pool -> loss1/ave_pool
I0403 16:44:36.673414 19353 net.cpp:141] Setting up loss1/ave_pool
I0403 16:44:36.673441 19353 net.cpp:148] Top shape: 24 512 4 4 (196608)
I0403 16:44:36.673456 19353 net.cpp:156] Memory required for data: 945501216
I0403 16:44:36.673472 19353 layer_factory.hpp:77] Creating layer loss1/conv
I0403 16:44:36.673496 19353 net.cpp:91] Creating Layer loss1/conv
I0403 16:44:36.673513 19353 net.cpp:425] loss1/conv <- loss1/ave_pool
I0403 16:44:36.673535 19353 net.cpp:399] loss1/conv -> loss1/conv
I0403 16:44:36.674960 19353 net.cpp:141] Setting up loss1/conv
I0403 16:44:36.674993 19353 net.cpp:148] Top shape: 24 128 4 4 (49152)
I0403 16:44:36.675010 19353 net.cpp:156] Memory required for data: 945697824
I0403 16:44:36.675045 19353 layer_factory.hpp:77] Creating layer loss1/relu_conv
I0403 16:44:36.675065 19353 net.cpp:91] Creating Layer loss1/relu_conv
I0403 16:44:36.675093 19353 net.cpp:425] loss1/relu_conv <- loss1/conv
I0403 16:44:36.675113 19353 net.cpp:386] loss1/relu_conv -> loss1/conv (in-place)
I0403 16:44:36.675392 19353 net.cpp:141] Setting up loss1/relu_conv
I0403 16:44:36.675421 19353 net.cpp:148] Top shape: 24 128 4 4 (49152)
I0403 16:44:36.675438 19353 net.cpp:156] Memory required for data: 945894432
I0403 16:44:36.675454 19353 layer_factory.hpp:77] Creating layer loss1/fc
I0403 16:44:36.675478 19353 net.cpp:91] Creating Layer loss1/fc
I0403 16:44:36.675495 19353 net.cpp:425] loss1/fc <- loss1/conv
I0403 16:44:36.675516 19353 net.cpp:399] loss1/fc -> loss1/fc
I0403 16:44:36.693166 19353 net.cpp:141] Setting up loss1/fc
I0403 16:44:36.693200 19353 net.cpp:148] Top shape: 24 1024 (24576)
I0403 16:44:36.693215 19353 net.cpp:156] Memory required for data: 945992736
I0403 16:44:36.693233 19353 layer_factory.hpp:77] Creating layer loss1/relu_fc
I0403 16:44:36.693253 19353 net.cpp:91] Creating Layer loss1/relu_fc
I0403 16:44:36.693270 19353 net.cpp:425] loss1/relu_fc <- loss1/fc
I0403 16:44:36.693289 19353 net.cpp:386] loss1/relu_fc -> loss1/fc (in-place)
I0403 16:44:36.693459 19353 net.cpp:141] Setting up loss1/relu_fc
I0403 16:44:36.693486 19353 net.cpp:148] Top shape: 24 1024 (24576)
I0403 16:44:36.693502 19353 net.cpp:156] Memory required for data: 946091040
I0403 16:44:36.693518 19353 layer_factory.hpp:77] Creating layer loss1/drop_fc
I0403 16:44:36.693543 19353 net.cpp:91] Creating Layer loss1/drop_fc
I0403 16:44:36.693562 19353 net.cpp:425] loss1/drop_fc <- loss1/fc
I0403 16:44:36.693578 19353 net.cpp:386] loss1/drop_fc -> loss1/fc (in-place)
I0403 16:44:36.693634 19353 net.cpp:141] Setting up loss1/drop_fc
I0403 16:44:36.693656 19353 net.cpp:148] Top shape: 24 1024 (24576)
I0403 16:44:36.693672 19353 net.cpp:156] Memory required for data: 946189344
I0403 16:44:36.693687 19353 layer_factory.hpp:77] Creating layer loss1/classifier_plantvillage
I0403 16:44:36.693704 19353 net.cpp:91] Creating Layer loss1/classifier_plantvillage
I0403 16:44:36.693719 19353 net.cpp:425] loss1/classifier_plantvillage <- loss1/fc
I0403 16:44:36.693740 19353 net.cpp:399] loss1/classifier_plantvillage -> loss1/classifier_plantvillage
I0403 16:44:36.694599 19353 net.cpp:141] Setting up loss1/classifier_plantvillage
I0403 16:44:36.694638 19353 net.cpp:148] Top shape: 24 38 (912)
I0403 16:44:36.694653 19353 net.cpp:156] Memory required for data: 946192992
I0403 16:44:36.694670 19353 layer_factory.hpp:77] Creating layer loss1/classifier_plantvillage_loss1/classifier_plantvillage_0_split
I0403 16:44:36.694690 19353 net.cpp:91] Creating Layer loss1/classifier_plantvillage_loss1/classifier_plantvillage_0_split
I0403 16:44:36.694708 19353 net.cpp:425] loss1/classifier_plantvillage_loss1/classifier_plantvillage_0_split <- loss1/classifier_plantvillage
I0403 16:44:36.694725 19353 net.cpp:399] loss1/classifier_plantvillage_loss1/classifier_plantvillage_0_split -> loss1/classifier_plantvillage_loss1/classifier_plantvillage_0_split_0
I0403 16:44:36.694746 19353 net.cpp:399] loss1/classifier_plantvillage_loss1/classifier_plantvillage_0_split -> loss1/classifier_plantvillage_loss1/classifier_plantvillage_0_split_1
I0403 16:44:36.694771 19353 net.cpp:399] loss1/classifier_plantvillage_loss1/classifier_plantvillage_0_split -> loss1/classifier_plantvillage_loss1/classifier_plantvillage_0_split_2
I0403 16:44:36.694833 19353 net.cpp:141] Setting up loss1/classifier_plantvillage_loss1/classifier_plantvillage_0_split
I0403 16:44:36.694855 19353 net.cpp:148] Top shape: 24 38 (912)
I0403 16:44:36.694871 19353 net.cpp:148] Top shape: 24 38 (912)
I0403 16:44:36.694886 19353 net.cpp:148] Top shape: 24 38 (912)
I0403 16:44:36.694900 19353 net.cpp:156] Memory required for data: 946203936
I0403 16:44:36.694914 19353 layer_factory.hpp:77] Creating layer inception_4b/1x1
I0403 16:44:36.694937 19353 net.cpp:91] Creating Layer inception_4b/1x1
I0403 16:44:36.694969 19353 net.cpp:425] inception_4b/1x1 <- inception_4a/output_inception_4a/output_0_split_1
I0403 16:44:36.694989 19353 net.cpp:399] inception_4b/1x1 -> inception_4b/1x1
I0403 16:44:36.696558 19353 net.cpp:141] Setting up inception_4b/1x1
I0403 16:44:36.696589 19353 net.cpp:148] Top shape: 24 160 14 14 (752640)
I0403 16:44:36.696610 19353 net.cpp:156] Memory required for data: 949214496
I0403 16:44:36.696630 19353 layer_factory.hpp:77] Creating layer inception_4b/relu_1x1
I0403 16:44:36.696648 19353 net.cpp:91] Creating Layer inception_4b/relu_1x1
I0403 16:44:36.696665 19353 net.cpp:425] inception_4b/relu_1x1 <- inception_4b/1x1
I0403 16:44:36.696684 19353 net.cpp:386] inception_4b/relu_1x1 -> inception_4b/1x1 (in-place)
I0403 16:44:36.696858 19353 net.cpp:141] Setting up inception_4b/relu_1x1
I0403 16:44:36.696883 19353 net.cpp:148] Top shape: 24 160 14 14 (752640)
I0403 16:44:36.696899 19353 net.cpp:156] Memory required for data: 952225056
I0403 16:44:36.696913 19353 layer_factory.hpp:77] Creating layer inception_4b/3x3_reduce
I0403 16:44:36.696938 19353 net.cpp:91] Creating Layer inception_4b/3x3_reduce
I0403 16:44:36.696955 19353 net.cpp:425] inception_4b/3x3_reduce <- inception_4a/output_inception_4a/output_0_split_2
I0403 16:44:36.696977 19353 net.cpp:399] inception_4b/3x3_reduce -> inception_4b/3x3_reduce
I0403 16:44:36.698295 19353 net.cpp:141] Setting up inception_4b/3x3_reduce
I0403 16:44:36.698323 19353 net.cpp:148] Top shape: 24 112 14 14 (526848)
I0403 16:44:36.698338 19353 net.cpp:156] Memory required for data: 954332448
I0403 16:44:36.698354 19353 layer_factory.hpp:77] Creating layer inception_4b/relu_3x3_reduce
I0403 16:44:36.698372 19353 net.cpp:91] Creating Layer inception_4b/relu_3x3_reduce
I0403 16:44:36.698387 19353 net.cpp:425] inception_4b/relu_3x3_reduce <- inception_4b/3x3_reduce
I0403 16:44:36.698407 19353 net.cpp:386] inception_4b/relu_3x3_reduce -> inception_4b/3x3_reduce (in-place)
I0403 16:44:36.698683 19353 net.cpp:141] Setting up inception_4b/relu_3x3_reduce
I0403 16:44:36.698709 19353 net.cpp:148] Top shape: 24 112 14 14 (526848)
I0403 16:44:36.698724 19353 net.cpp:156] Memory required for data: 956439840
I0403 16:44:36.698737 19353 layer_factory.hpp:77] Creating layer inception_4b/3x3
I0403 16:44:36.698758 19353 net.cpp:91] Creating Layer inception_4b/3x3
I0403 16:44:36.698776 19353 net.cpp:425] inception_4b/3x3 <- inception_4b/3x3_reduce
I0403 16:44:36.698808 19353 net.cpp:399] inception_4b/3x3 -> inception_4b/3x3
I0403 16:44:36.701639 19353 net.cpp:141] Setting up inception_4b/3x3
I0403 16:44:36.701668 19353 net.cpp:148] Top shape: 24 224 14 14 (1053696)
I0403 16:44:36.701684 19353 net.cpp:156] Memory required for data: 960654624
I0403 16:44:36.701704 19353 layer_factory.hpp:77] Creating layer inception_4b/relu_3x3
I0403 16:44:36.701722 19353 net.cpp:91] Creating Layer inception_4b/relu_3x3
I0403 16:44:36.701741 19353 net.cpp:425] inception_4b/relu_3x3 <- inception_4b/3x3
I0403 16:44:36.701759 19353 net.cpp:386] inception_4b/relu_3x3 -> inception_4b/3x3 (in-place)
I0403 16:44:36.701942 19353 net.cpp:141] Setting up inception_4b/relu_3x3
I0403 16:44:36.701969 19353 net.cpp:148] Top shape: 24 224 14 14 (1053696)
I0403 16:44:36.701985 19353 net.cpp:156] Memory required for data: 964869408
I0403 16:44:36.702000 19353 layer_factory.hpp:77] Creating layer inception_4b/5x5_reduce
I0403 16:44:36.702024 19353 net.cpp:91] Creating Layer inception_4b/5x5_reduce
I0403 16:44:36.702042 19353 net.cpp:425] inception_4b/5x5_reduce <- inception_4a/output_inception_4a/output_0_split_3
I0403 16:44:36.702060 19353 net.cpp:399] inception_4b/5x5_reduce -> inception_4b/5x5_reduce
I0403 16:44:36.703088 19353 net.cpp:141] Setting up inception_4b/5x5_reduce
I0403 16:44:36.703115 19353 net.cpp:148] Top shape: 24 24 14 14 (112896)
I0403 16:44:36.703130 19353 net.cpp:156] Memory required for data: 965320992
I0403 16:44:36.703148 19353 layer_factory.hpp:77] Creating layer inception_4b/relu_5x5_reduce
I0403 16:44:36.703166 19353 net.cpp:91] Creating Layer inception_4b/relu_5x5_reduce
I0403 16:44:36.703197 19353 net.cpp:425] inception_4b/relu_5x5_reduce <- inception_4b/5x5_reduce
I0403 16:44:36.703217 19353 net.cpp:386] inception_4b/relu_5x5_reduce -> inception_4b/5x5_reduce (in-place)
I0403 16:44:36.703392 19353 net.cpp:141] Setting up inception_4b/relu_5x5_reduce
I0403 16:44:36.703418 19353 net.cpp:148] Top shape: 24 24 14 14 (112896)
I0403 16:44:36.703431 19353 net.cpp:156] Memory required for data: 965772576
I0403 16:44:36.703446 19353 layer_factory.hpp:77] Creating layer inception_4b/5x5
I0403 16:44:36.703467 19353 net.cpp:91] Creating Layer inception_4b/5x5
I0403 16:44:36.703485 19353 net.cpp:425] inception_4b/5x5 <- inception_4b/5x5_reduce
I0403 16:44:36.703505 19353 net.cpp:399] inception_4b/5x5 -> inception_4b/5x5
I0403 16:44:36.704674 19353 net.cpp:141] Setting up inception_4b/5x5
I0403 16:44:36.704702 19353 net.cpp:148] Top shape: 24 64 14 14 (301056)
I0403 16:44:36.704718 19353 net.cpp:156] Memory required for data: 966976800
I0403 16:44:36.704736 19353 layer_factory.hpp:77] Creating layer inception_4b/relu_5x5
I0403 16:44:36.704754 19353 net.cpp:91] Creating Layer inception_4b/relu_5x5
I0403 16:44:36.704771 19353 net.cpp:425] inception_4b/relu_5x5 <- inception_4b/5x5
I0403 16:44:36.704789 19353 net.cpp:386] inception_4b/relu_5x5 -> inception_4b/5x5 (in-place)
I0403 16:44:36.705060 19353 net.cpp:141] Setting up inception_4b/relu_5x5
I0403 16:44:36.705086 19353 net.cpp:148] Top shape: 24 64 14 14 (301056)
I0403 16:44:36.705103 19353 net.cpp:156] Memory required for data: 968181024
I0403 16:44:36.705119 19353 layer_factory.hpp:77] Creating layer inception_4b/pool
I0403 16:44:36.705137 19353 net.cpp:91] Creating Layer inception_4b/pool
I0403 16:44:36.705152 19353 net.cpp:425] inception_4b/pool <- inception_4a/output_inception_4a/output_0_split_4
I0403 16:44:36.705173 19353 net.cpp:399] inception_4b/pool -> inception_4b/pool
I0403 16:44:36.705234 19353 net.cpp:141] Setting up inception_4b/pool
I0403 16:44:36.705256 19353 net.cpp:148] Top shape: 24 512 14 14 (2408448)
I0403 16:44:36.705271 19353 net.cpp:156] Memory required for data: 977814816
I0403 16:44:36.705286 19353 layer_factory.hpp:77] Creating layer inception_4b/pool_proj
I0403 16:44:36.705307 19353 net.cpp:91] Creating Layer inception_4b/pool_proj
I0403 16:44:36.705324 19353 net.cpp:425] inception_4b/pool_proj <- inception_4b/pool
I0403 16:44:36.705344 19353 net.cpp:399] inception_4b/pool_proj -> inception_4b/pool_proj
I0403 16:44:36.706476 19353 net.cpp:141] Setting up inception_4b/pool_proj
I0403 16:44:36.706506 19353 net.cpp:148] Top shape: 24 64 14 14 (301056)
I0403 16:44:36.706522 19353 net.cpp:156] Memory required for data: 979019040
I0403 16:44:36.706539 19353 layer_factory.hpp:77] Creating layer inception_4b/relu_pool_proj
I0403 16:44:36.706557 19353 net.cpp:91] Creating Layer inception_4b/relu_pool_proj
I0403 16:44:36.706573 19353 net.cpp:425] inception_4b/relu_pool_proj <- inception_4b/pool_proj
I0403 16:44:36.706591 19353 net.cpp:386] inception_4b/relu_pool_proj -> inception_4b/pool_proj (in-place)
I0403 16:44:36.706769 19353 net.cpp:141] Setting up inception_4b/relu_pool_proj
I0403 16:44:36.706794 19353 net.cpp:148] Top shape: 24 64 14 14 (301056)
I0403 16:44:36.706809 19353 net.cpp:156] Memory required for data: 980223264
I0403 16:44:36.706822 19353 layer_factory.hpp:77] Creating layer inception_4b/output
I0403 16:44:36.706838 19353 net.cpp:91] Creating Layer inception_4b/output
I0403 16:44:36.706854 19353 net.cpp:425] inception_4b/output <- inception_4b/1x1
I0403 16:44:36.706871 19353 net.cpp:425] inception_4b/output <- inception_4b/3x3
I0403 16:44:36.706887 19353 net.cpp:425] inception_4b/output <- inception_4b/5x5
I0403 16:44:36.706902 19353 net.cpp:425] inception_4b/output <- inception_4b/pool_proj
I0403 16:44:36.706919 19353 net.cpp:399] inception_4b/output -> inception_4b/output
I0403 16:44:36.706965 19353 net.cpp:141] Setting up inception_4b/output
I0403 16:44:36.706989 19353 net.cpp:148] Top shape: 24 512 14 14 (2408448)
I0403 16:44:36.707003 19353 net.cpp:156] Memory required for data: 989857056
I0403 16:44:36.707031 19353 layer_factory.hpp:77] Creating layer inception_4b/output_inception_4b/output_0_split
I0403 16:44:36.707049 19353 net.cpp:91] Creating Layer inception_4b/output_inception_4b/output_0_split
I0403 16:44:36.707064 19353 net.cpp:425] inception_4b/output_inception_4b/output_0_split <- inception_4b/output
I0403 16:44:36.707083 19353 net.cpp:399] inception_4b/output_inception_4b/output_0_split -> inception_4b/output_inception_4b/output_0_split_0
I0403 16:44:36.707105 19353 net.cpp:399] inception_4b/output_inception_4b/output_0_split -> inception_4b/output_inception_4b/output_0_split_1
I0403 16:44:36.707125 19353 net.cpp:399] inception_4b/output_inception_4b/output_0_split -> inception_4b/output_inception_4b/output_0_split_2
I0403 16:44:36.707146 19353 net.cpp:399] inception_4b/output_inception_4b/output_0_split -> inception_4b/output_inception_4b/output_0_split_3
I0403 16:44:36.707227 19353 net.cpp:141] Setting up inception_4b/output_inception_4b/output_0_split
I0403 16:44:36.707249 19353 net.cpp:148] Top shape: 24 512 14 14 (2408448)
I0403 16:44:36.707267 19353 net.cpp:148] Top shape: 24 512 14 14 (2408448)
I0403 16:44:36.707281 19353 net.cpp:148] Top shape: 24 512 14 14 (2408448)
I0403 16:44:36.707296 19353 net.cpp:148] Top shape: 24 512 14 14 (2408448)
I0403 16:44:36.707309 19353 net.cpp:156] Memory required for data: 1028392224
I0403 16:44:36.707324 19353 layer_factory.hpp:77] Creating layer inception_4c/1x1
I0403 16:44:36.707346 19353 net.cpp:91] Creating Layer inception_4c/1x1
I0403 16:44:36.707362 19353 net.cpp:425] inception_4c/1x1 <- inception_4b/output_inception_4b/output_0_split_0
I0403 16:44:36.707381 19353 net.cpp:399] inception_4c/1x1 -> inception_4c/1x1
I0403 16:44:36.708740 19353 net.cpp:141] Setting up inception_4c/1x1
I0403 16:44:36.708767 19353 net.cpp:148] Top shape: 24 128 14 14 (602112)
I0403 16:44:36.708783 19353 net.cpp:156] Memory required for data: 1030800672
I0403 16:44:36.708801 19353 layer_factory.hpp:77] Creating layer inception_4c/relu_1x1
I0403 16:44:36.708819 19353 net.cpp:91] Creating Layer inception_4c/relu_1x1
I0403 16:44:36.708837 19353 net.cpp:425] inception_4c/relu_1x1 <- inception_4c/1x1
I0403 16:44:36.708854 19353 net.cpp:386] inception_4c/relu_1x1 -> inception_4c/1x1 (in-place)
I0403 16:44:36.709024 19353 net.cpp:141] Setting up inception_4c/relu_1x1
I0403 16:44:36.709053 19353 net.cpp:148] Top shape: 24 128 14 14 (602112)
I0403 16:44:36.709070 19353 net.cpp:156] Memory required for data: 1033209120
I0403 16:44:36.709084 19353 layer_factory.hpp:77] Creating layer inception_4c/3x3_reduce
I0403 16:44:36.709105 19353 net.cpp:91] Creating Layer inception_4c/3x3_reduce
I0403 16:44:36.709125 19353 net.cpp:425] inception_4c/3x3_reduce <- inception_4b/output_inception_4b/output_0_split_1
I0403 16:44:36.709143 19353 net.cpp:399] inception_4c/3x3_reduce -> inception_4c/3x3_reduce
I0403 16:44:36.711027 19353 net.cpp:141] Setting up inception_4c/3x3_reduce
I0403 16:44:36.711056 19353 net.cpp:148] Top shape: 24 128 14 14 (602112)
I0403 16:44:36.711073 19353 net.cpp:156] Memory required for data: 1035617568
I0403 16:44:36.711091 19353 layer_factory.hpp:77] Creating layer inception_4c/relu_3x3_reduce
I0403 16:44:36.711108 19353 net.cpp:91] Creating Layer inception_4c/relu_3x3_reduce
I0403 16:44:36.711124 19353 net.cpp:425] inception_4c/relu_3x3_reduce <- inception_4c/3x3_reduce
I0403 16:44:36.711141 19353 net.cpp:386] inception_4c/relu_3x3_reduce -> inception_4c/3x3_reduce (in-place)
I0403 16:44:36.711413 19353 net.cpp:141] Setting up inception_4c/relu_3x3_reduce
I0403 16:44:36.711441 19353 net.cpp:148] Top shape: 24 128 14 14 (602112)
I0403 16:44:36.711457 19353 net.cpp:156] Memory required for data: 1038026016
I0403 16:44:36.711472 19353 layer_factory.hpp:77] Creating layer inception_4c/3x3
I0403 16:44:36.711493 19353 net.cpp:91] Creating Layer inception_4c/3x3
I0403 16:44:36.711513 19353 net.cpp:425] inception_4c/3x3 <- inception_4c/3x3_reduce
I0403 16:44:36.711531 19353 net.cpp:399] inception_4c/3x3 -> inception_4c/3x3
I0403 16:44:36.714939 19353 net.cpp:141] Setting up inception_4c/3x3
I0403 16:44:36.714982 19353 net.cpp:148] Top shape: 24 256 14 14 (1204224)
I0403 16:44:36.714999 19353 net.cpp:156] Memory required for data: 1042842912
I0403 16:44:36.715029 19353 layer_factory.hpp:77] Creating layer inception_4c/relu_3x3
I0403 16:44:36.715050 19353 net.cpp:91] Creating Layer inception_4c/relu_3x3
I0403 16:44:36.715067 19353 net.cpp:425] inception_4c/relu_3x3 <- inception_4c/3x3
I0403 16:44:36.715086 19353 net.cpp:386] inception_4c/relu_3x3 -> inception_4c/3x3 (in-place)
I0403 16:44:36.715256 19353 net.cpp:141] Setting up inception_4c/relu_3x3
I0403 16:44:36.715281 19353 net.cpp:148] Top shape: 24 256 14 14 (1204224)
I0403 16:44:36.715296 19353 net.cpp:156] Memory required for data: 1047659808
I0403 16:44:36.715309 19353 layer_factory.hpp:77] Creating layer inception_4c/5x5_reduce
I0403 16:44:36.715332 19353 net.cpp:91] Creating Layer inception_4c/5x5_reduce
I0403 16:44:36.715350 19353 net.cpp:425] inception_4c/5x5_reduce <- inception_4b/output_inception_4b/output_0_split_2
I0403 16:44:36.715370 19353 net.cpp:399] inception_4c/5x5_reduce -> inception_4c/5x5_reduce
I0403 16:44:36.716399 19353 net.cpp:141] Setting up inception_4c/5x5_reduce
I0403 16:44:36.716426 19353 net.cpp:148] Top shape: 24 24 14 14 (112896)
I0403 16:44:36.716441 19353 net.cpp:156] Memory required for data: 1048111392
I0403 16:44:36.716459 19353 layer_factory.hpp:77] Creating layer inception_4c/relu_5x5_reduce
I0403 16:44:36.716478 19353 net.cpp:91] Creating Layer inception_4c/relu_5x5_reduce
I0403 16:44:36.716493 19353 net.cpp:425] inception_4c/relu_5x5_reduce <- inception_4c/5x5_reduce
I0403 16:44:36.716512 19353 net.cpp:386] inception_4c/relu_5x5_reduce -> inception_4c/5x5_reduce (in-place)
I0403 16:44:36.716725 19353 net.cpp:141] Setting up inception_4c/relu_5x5_reduce
I0403 16:44:36.716752 19353 net.cpp:148] Top shape: 24 24 14 14 (112896)
I0403 16:44:36.716768 19353 net.cpp:156] Memory required for data: 1048562976
I0403 16:44:36.716784 19353 layer_factory.hpp:77] Creating layer inception_4c/5x5
I0403 16:44:36.716806 19353 net.cpp:91] Creating Layer inception_4c/5x5
I0403 16:44:36.716825 19353 net.cpp:425] inception_4c/5x5 <- inception_4c/5x5_reduce
I0403 16:44:36.716846 19353 net.cpp:399] inception_4c/5x5 -> inception_4c/5x5
I0403 16:44:36.718070 19353 net.cpp:141] Setting up inception_4c/5x5
I0403 16:44:36.718098 19353 net.cpp:148] Top shape: 24 64 14 14 (301056)
I0403 16:44:36.718114 19353 net.cpp:156] Memory required for data: 1049767200
I0403 16:44:36.718133 19353 layer_factory.hpp:77] Creating layer inception_4c/relu_5x5
I0403 16:44:36.718153 19353 net.cpp:91] Creating Layer inception_4c/relu_5x5
I0403 16:44:36.718173 19353 net.cpp:425] inception_4c/relu_5x5 <- inception_4c/5x5
I0403 16:44:36.718189 19353 net.cpp:386] inception_4c/relu_5x5 -> inception_4c/5x5 (in-place)
I0403 16:44:36.718472 19353 net.cpp:141] Setting up inception_4c/relu_5x5
I0403 16:44:36.718499 19353 net.cpp:148] Top shape: 24 64 14 14 (301056)
I0403 16:44:36.718514 19353 net.cpp:156] Memory required for data: 1050971424
I0403 16:44:36.718529 19353 layer_factory.hpp:77] Creating layer inception_4c/pool
I0403 16:44:36.718547 19353 net.cpp:91] Creating Layer inception_4c/pool
I0403 16:44:36.718564 19353 net.cpp:425] inception_4c/pool <- inception_4b/output_inception_4b/output_0_split_3
I0403 16:44:36.718585 19353 net.cpp:399] inception_4c/pool -> inception_4c/pool
I0403 16:44:36.718657 19353 net.cpp:141] Setting up inception_4c/pool
I0403 16:44:36.718680 19353 net.cpp:148] Top shape: 24 512 14 14 (2408448)
I0403 16:44:36.718695 19353 net.cpp:156] Memory required for data: 1060605216
I0403 16:44:36.718709 19353 layer_factory.hpp:77] Creating layer inception_4c/pool_proj
I0403 16:44:36.718734 19353 net.cpp:91] Creating Layer inception_4c/pool_proj
I0403 16:44:36.718751 19353 net.cpp:425] inception_4c/pool_proj <- inception_4c/pool
I0403 16:44:36.718773 19353 net.cpp:399] inception_4c/pool_proj -> inception_4c/pool_proj
I0403 16:44:36.719957 19353 net.cpp:141] Setting up inception_4c/pool_proj
I0403 16:44:36.719987 19353 net.cpp:148] Top shape: 24 64 14 14 (301056)
I0403 16:44:36.720018 19353 net.cpp:156] Memory required for data: 1061809440
I0403 16:44:36.720037 19353 layer_factory.hpp:77] Creating layer inception_4c/relu_pool_proj
I0403 16:44:36.720055 19353 net.cpp:91] Creating Layer inception_4c/relu_pool_proj
I0403 16:44:36.720072 19353 net.cpp:425] inception_4c/relu_pool_proj <- inception_4c/pool_proj
I0403 16:44:36.720091 19353 net.cpp:386] inception_4c/relu_pool_proj -> inception_4c/pool_proj (in-place)
I0403 16:44:36.720270 19353 net.cpp:141] Setting up inception_4c/relu_pool_proj
I0403 16:44:36.720295 19353 net.cpp:148] Top shape: 24 64 14 14 (301056)
I0403 16:44:36.720310 19353 net.cpp:156] Memory required for data: 1063013664
I0403 16:44:36.720325 19353 layer_factory.hpp:77] Creating layer inception_4c/output
I0403 16:44:36.720342 19353 net.cpp:91] Creating Layer inception_4c/output
I0403 16:44:36.720357 19353 net.cpp:425] inception_4c/output <- inception_4c/1x1
I0403 16:44:36.720374 19353 net.cpp:425] inception_4c/output <- inception_4c/3x3
I0403 16:44:36.720389 19353 net.cpp:425] inception_4c/output <- inception_4c/5x5
I0403 16:44:36.720405 19353 net.cpp:425] inception_4c/output <- inception_4c/pool_proj
I0403 16:44:36.720425 19353 net.cpp:399] inception_4c/output -> inception_4c/output
I0403 16:44:36.720474 19353 net.cpp:141] Setting up inception_4c/output
I0403 16:44:36.720499 19353 net.cpp:148] Top shape: 24 512 14 14 (2408448)
I0403 16:44:36.720515 19353 net.cpp:156] Memory required for data: 1072647456
I0403 16:44:36.720530 19353 layer_factory.hpp:77] Creating layer inception_4c/output_inception_4c/output_0_split
I0403 16:44:36.720546 19353 net.cpp:91] Creating Layer inception_4c/output_inception_4c/output_0_split
I0403 16:44:36.720561 19353 net.cpp:425] inception_4c/output_inception_4c/output_0_split <- inception_4c/output
I0403 16:44:36.720580 19353 net.cpp:399] inception_4c/output_inception_4c/output_0_split -> inception_4c/output_inception_4c/output_0_split_0
I0403 16:44:36.720607 19353 net.cpp:399] inception_4c/output_inception_4c/output_0_split -> inception_4c/output_inception_4c/output_0_split_1
I0403 16:44:36.720630 19353 net.cpp:399] inception_4c/output_inception_4c/output_0_split -> inception_4c/output_inception_4c/output_0_split_2
I0403 16:44:36.720651 19353 net.cpp:399] inception_4c/output_inception_4c/output_0_split -> inception_4c/output_inception_4c/output_0_split_3
I0403 16:44:36.720737 19353 net.cpp:141] Setting up inception_4c/output_inception_4c/output_0_split
I0403 16:44:36.720762 19353 net.cpp:148] Top shape: 24 512 14 14 (2408448)
I0403 16:44:36.720778 19353 net.cpp:148] Top shape: 24 512 14 14 (2408448)
I0403 16:44:36.720794 19353 net.cpp:148] Top shape: 24 512 14 14 (2408448)
I0403 16:44:36.720810 19353 net.cpp:148] Top shape: 24 512 14 14 (2408448)
I0403 16:44:36.720824 19353 net.cpp:156] Memory required for data: 1111182624
I0403 16:44:36.720837 19353 layer_factory.hpp:77] Creating layer inception_4d/1x1
I0403 16:44:36.720860 19353 net.cpp:91] Creating Layer inception_4d/1x1
I0403 16:44:36.720878 19353 net.cpp:425] inception_4d/1x1 <- inception_4c/output_inception_4c/output_0_split_0
I0403 16:44:36.720897 19353 net.cpp:399] inception_4d/1x1 -> inception_4d/1x1
I0403 16:44:36.722231 19353 net.cpp:141] Setting up inception_4d/1x1
I0403 16:44:36.722259 19353 net.cpp:148] Top shape: 24 112 14 14 (526848)
I0403 16:44:36.722275 19353 net.cpp:156] Memory required for data: 1113290016
I0403 16:44:36.722293 19353 layer_factory.hpp:77] Creating layer inception_4d/relu_1x1
I0403 16:44:36.722313 19353 net.cpp:91] Creating Layer inception_4d/relu_1x1
I0403 16:44:36.722329 19353 net.cpp:425] inception_4d/relu_1x1 <- inception_4d/1x1
I0403 16:44:36.722347 19353 net.cpp:386] inception_4d/relu_1x1 -> inception_4d/1x1 (in-place)
I0403 16:44:36.722524 19353 net.cpp:141] Setting up inception_4d/relu_1x1
I0403 16:44:36.722550 19353 net.cpp:148] Top shape: 24 112 14 14 (526848)
I0403 16:44:36.722565 19353 net.cpp:156] Memory required for data: 1115397408
I0403 16:44:36.722579 19353 layer_factory.hpp:77] Creating layer inception_4d/3x3_reduce
I0403 16:44:36.722621 19353 net.cpp:91] Creating Layer inception_4d/3x3_reduce
I0403 16:44:36.722641 19353 net.cpp:425] inception_4d/3x3_reduce <- inception_4c/output_inception_4c/output_0_split_1
I0403 16:44:36.722663 19353 net.cpp:399] inception_4d/3x3_reduce -> inception_4d/3x3_reduce
I0403 16:44:36.724143 19353 net.cpp:141] Setting up inception_4d/3x3_reduce
I0403 16:44:36.724171 19353 net.cpp:148] Top shape: 24 144 14 14 (677376)
I0403 16:44:36.724187 19353 net.cpp:156] Memory required for data: 1118106912
I0403 16:44:36.724205 19353 layer_factory.hpp:77] Creating layer inception_4d/relu_3x3_reduce
I0403 16:44:36.724225 19353 net.cpp:91] Creating Layer inception_4d/relu_3x3_reduce
I0403 16:44:36.724243 19353 net.cpp:425] inception_4d/relu_3x3_reduce <- inception_4d/3x3_reduce
I0403 16:44:36.724261 19353 net.cpp:386] inception_4d/relu_3x3_reduce -> inception_4d/3x3_reduce (in-place)
I0403 16:44:36.724544 19353 net.cpp:141] Setting up inception_4d/relu_3x3_reduce
I0403 16:44:36.724570 19353 net.cpp:148] Top shape: 24 144 14 14 (677376)
I0403 16:44:36.724586 19353 net.cpp:156] Memory required for data: 1120816416
I0403 16:44:36.724601 19353 layer_factory.hpp:77] Creating layer inception_4d/3x3
I0403 16:44:36.724637 19353 net.cpp:91] Creating Layer inception_4d/3x3
I0403 16:44:36.724656 19353 net.cpp:425] inception_4d/3x3 <- inception_4d/3x3_reduce
I0403 16:44:36.724678 19353 net.cpp:399] inception_4d/3x3 -> inception_4d/3x3
I0403 16:44:36.728842 19353 net.cpp:141] Setting up inception_4d/3x3
I0403 16:44:36.728873 19353 net.cpp:148] Top shape: 24 288 14 14 (1354752)
I0403 16:44:36.728889 19353 net.cpp:156] Memory required for data: 1126235424
I0403 16:44:36.728909 19353 layer_factory.hpp:77] Creating layer inception_4d/relu_3x3
I0403 16:44:36.728926 19353 net.cpp:91] Creating Layer inception_4d/relu_3x3
I0403 16:44:36.728942 19353 net.cpp:425] inception_4d/relu_3x3 <- inception_4d/3x3
I0403 16:44:36.728958 19353 net.cpp:386] inception_4d/relu_3x3 -> inception_4d/3x3 (in-place)
I0403 16:44:36.729138 19353 net.cpp:141] Setting up inception_4d/relu_3x3
I0403 16:44:36.729166 19353 net.cpp:148] Top shape: 24 288 14 14 (1354752)
I0403 16:44:36.729182 19353 net.cpp:156] Memory required for data: 1131654432
I0403 16:44:36.729197 19353 layer_factory.hpp:77] Creating layer inception_4d/5x5_reduce
I0403 16:44:36.729218 19353 net.cpp:91] Creating Layer inception_4d/5x5_reduce
I0403 16:44:36.729235 19353 net.cpp:425] inception_4d/5x5_reduce <- inception_4c/output_inception_4c/output_0_split_2
I0403 16:44:36.729259 19353 net.cpp:399] inception_4d/5x5_reduce -> inception_4d/5x5_reduce
I0403 16:44:36.730376 19353 net.cpp:141] Setting up inception_4d/5x5_reduce
I0403 16:44:36.730403 19353 net.cpp:148] Top shape: 24 32 14 14 (150528)
I0403 16:44:36.730420 19353 net.cpp:156] Memory required for data: 1132256544
I0403 16:44:36.730438 19353 layer_factory.hpp:77] Creating layer inception_4d/relu_5x5_reduce
I0403 16:44:36.730459 19353 net.cpp:91] Creating Layer inception_4d/relu_5x5_reduce
I0403 16:44:36.730478 19353 net.cpp:425] inception_4d/relu_5x5_reduce <- inception_4d/5x5_reduce
I0403 16:44:36.730494 19353 net.cpp:386] inception_4d/relu_5x5_reduce -> inception_4d/5x5_reduce (in-place)
I0403 16:44:36.730685 19353 net.cpp:141] Setting up inception_4d/relu_5x5_reduce
I0403 16:44:36.730710 19353 net.cpp:148] Top shape: 24 32 14 14 (150528)
I0403 16:44:36.730726 19353 net.cpp:156] Memory required for data: 1132858656
I0403 16:44:36.730741 19353 layer_factory.hpp:77] Creating layer inception_4d/5x5
I0403 16:44:36.730762 19353 net.cpp:91] Creating Layer inception_4d/5x5
I0403 16:44:36.730779 19353 net.cpp:425] inception_4d/5x5 <- inception_4d/5x5_reduce
I0403 16:44:36.730801 19353 net.cpp:399] inception_4d/5x5 -> inception_4d/5x5
I0403 16:44:36.732230 19353 net.cpp:141] Setting up inception_4d/5x5
I0403 16:44:36.732257 19353 net.cpp:148] Top shape: 24 64 14 14 (301056)
I0403 16:44:36.732275 19353 net.cpp:156] Memory required for data: 1134062880
I0403 16:44:36.732293 19353 layer_factory.hpp:77] Creating layer inception_4d/relu_5x5
I0403 16:44:36.732326 19353 net.cpp:91] Creating Layer inception_4d/relu_5x5
I0403 16:44:36.732343 19353 net.cpp:425] inception_4d/relu_5x5 <- inception_4d/5x5
I0403 16:44:36.732364 19353 net.cpp:386] inception_4d/relu_5x5 -> inception_4d/5x5 (in-place)
I0403 16:44:36.732667 19353 net.cpp:141] Setting up inception_4d/relu_5x5
I0403 16:44:36.732693 19353 net.cpp:148] Top shape: 24 64 14 14 (301056)
I0403 16:44:36.732708 19353 net.cpp:156] Memory required for data: 1135267104
I0403 16:44:36.732723 19353 layer_factory.hpp:77] Creating layer inception_4d/pool
I0403 16:44:36.732741 19353 net.cpp:91] Creating Layer inception_4d/pool
I0403 16:44:36.732758 19353 net.cpp:425] inception_4d/pool <- inception_4c/output_inception_4c/output_0_split_3
I0403 16:44:36.732779 19353 net.cpp:399] inception_4d/pool -> inception_4d/pool
I0403 16:44:36.732847 19353 net.cpp:141] Setting up inception_4d/pool
I0403 16:44:36.732872 19353 net.cpp:148] Top shape: 24 512 14 14 (2408448)
I0403 16:44:36.732887 19353 net.cpp:156] Memory required for data: 1144900896
I0403 16:44:36.732900 19353 layer_factory.hpp:77] Creating layer inception_4d/pool_proj
I0403 16:44:36.732924 19353 net.cpp:91] Creating Layer inception_4d/pool_proj
I0403 16:44:36.732944 19353 net.cpp:425] inception_4d/pool_proj <- inception_4d/pool
I0403 16:44:36.732962 19353 net.cpp:399] inception_4d/pool_proj -> inception_4d/pool_proj
I0403 16:44:36.734699 19353 net.cpp:141] Setting up inception_4d/pool_proj
I0403 16:44:36.734730 19353 net.cpp:148] Top shape: 24 64 14 14 (301056)
I0403 16:44:36.734747 19353 net.cpp:156] Memory required for data: 1146105120
I0403 16:44:36.734766 19353 layer_factory.hpp:77] Creating layer inception_4d/relu_pool_proj
I0403 16:44:36.734784 19353 net.cpp:91] Creating Layer inception_4d/relu_pool_proj
I0403 16:44:36.734800 19353 net.cpp:425] inception_4d/relu_pool_proj <- inception_4d/pool_proj
I0403 16:44:36.734817 19353 net.cpp:386] inception_4d/relu_pool_proj -> inception_4d/pool_proj (in-place)
I0403 16:44:36.734992 19353 net.cpp:141] Setting up inception_4d/relu_pool_proj
I0403 16:44:36.735018 19353 net.cpp:148] Top shape: 24 64 14 14 (301056)
I0403 16:44:36.735033 19353 net.cpp:156] Memory required for data: 1147309344
I0403 16:44:36.735049 19353 layer_factory.hpp:77] Creating layer inception_4d/output
I0403 16:44:36.735064 19353 net.cpp:91] Creating Layer inception_4d/output
I0403 16:44:36.735079 19353 net.cpp:425] inception_4d/output <- inception_4d/1x1
I0403 16:44:36.735093 19353 net.cpp:425] inception_4d/output <- inception_4d/3x3
I0403 16:44:36.735108 19353 net.cpp:425] inception_4d/output <- inception_4d/5x5
I0403 16:44:36.735124 19353 net.cpp:425] inception_4d/output <- inception_4d/pool_proj
I0403 16:44:36.735146 19353 net.cpp:399] inception_4d/output -> inception_4d/output
I0403 16:44:36.735193 19353 net.cpp:141] Setting up inception_4d/output
I0403 16:44:36.735216 19353 net.cpp:148] Top shape: 24 528 14 14 (2483712)
I0403 16:44:36.735230 19353 net.cpp:156] Memory required for data: 1157244192
I0403 16:44:36.735244 19353 layer_factory.hpp:77] Creating layer inception_4d/output_inception_4d/output_0_split
I0403 16:44:36.735265 19353 net.cpp:91] Creating Layer inception_4d/output_inception_4d/output_0_split
I0403 16:44:36.735280 19353 net.cpp:425] inception_4d/output_inception_4d/output_0_split <- inception_4d/output
I0403 16:44:36.735298 19353 net.cpp:399] inception_4d/output_inception_4d/output_0_split -> inception_4d/output_inception_4d/output_0_split_0
I0403 16:44:36.735322 19353 net.cpp:399] inception_4d/output_inception_4d/output_0_split -> inception_4d/output_inception_4d/output_0_split_1
I0403 16:44:36.735344 19353 net.cpp:399] inception_4d/output_inception_4d/output_0_split -> inception_4d/output_inception_4d/output_0_split_2
I0403 16:44:36.735364 19353 net.cpp:399] inception_4d/output_inception_4d/output_0_split -> inception_4d/output_inception_4d/output_0_split_3
I0403 16:44:36.735383 19353 net.cpp:399] inception_4d/output_inception_4d/output_0_split -> inception_4d/output_inception_4d/output_0_split_4
I0403 16:44:36.735479 19353 net.cpp:141] Setting up inception_4d/output_inception_4d/output_0_split
I0403 16:44:36.735515 19353 net.cpp:148] Top shape: 24 528 14 14 (2483712)
I0403 16:44:36.735532 19353 net.cpp:148] Top shape: 24 528 14 14 (2483712)
I0403 16:44:36.735548 19353 net.cpp:148] Top shape: 24 528 14 14 (2483712)
I0403 16:44:36.735563 19353 net.cpp:148] Top shape: 24 528 14 14 (2483712)
I0403 16:44:36.735577 19353 net.cpp:148] Top shape: 24 528 14 14 (2483712)
I0403 16:44:36.735591 19353 net.cpp:156] Memory required for data: 1206918432
I0403 16:44:36.735611 19353 layer_factory.hpp:77] Creating layer loss2/ave_pool
I0403 16:44:36.735632 19353 net.cpp:91] Creating Layer loss2/ave_pool
I0403 16:44:36.735649 19353 net.cpp:425] loss2/ave_pool <- inception_4d/output_inception_4d/output_0_split_0
I0403 16:44:36.735667 19353 net.cpp:399] loss2/ave_pool -> loss2/ave_pool
I0403 16:44:36.735960 19353 net.cpp:141] Setting up loss2/ave_pool
I0403 16:44:36.735987 19353 net.cpp:148] Top shape: 24 528 4 4 (202752)
I0403 16:44:36.736004 19353 net.cpp:156] Memory required for data: 1207729440
I0403 16:44:36.736019 19353 layer_factory.hpp:77] Creating layer loss2/conv
I0403 16:44:36.736042 19353 net.cpp:91] Creating Layer loss2/conv
I0403 16:44:36.736058 19353 net.cpp:425] loss2/conv <- loss2/ave_pool
I0403 16:44:36.736078 19353 net.cpp:399] loss2/conv -> loss2/conv
I0403 16:44:36.737877 19353 net.cpp:141] Setting up loss2/conv
I0403 16:44:36.737905 19353 net.cpp:148] Top shape: 24 128 4 4 (49152)
I0403 16:44:36.737922 19353 net.cpp:156] Memory required for data: 1207926048
I0403 16:44:36.737941 19353 layer_factory.hpp:77] Creating layer loss2/relu_conv
I0403 16:44:36.737957 19353 net.cpp:91] Creating Layer loss2/relu_conv
I0403 16:44:36.737977 19353 net.cpp:425] loss2/relu_conv <- loss2/conv
I0403 16:44:36.737994 19353 net.cpp:386] loss2/relu_conv -> loss2/conv (in-place)
I0403 16:44:36.738275 19353 net.cpp:141] Setting up loss2/relu_conv
I0403 16:44:36.738301 19353 net.cpp:148] Top shape: 24 128 4 4 (49152)
I0403 16:44:36.738314 19353 net.cpp:156] Memory required for data: 1208122656
I0403 16:44:36.738328 19353 layer_factory.hpp:77] Creating layer loss2/fc
I0403 16:44:36.738346 19353 net.cpp:91] Creating Layer loss2/fc
I0403 16:44:36.738368 19353 net.cpp:425] loss2/fc <- loss2/conv
I0403 16:44:36.738385 19353 net.cpp:399] loss2/fc -> loss2/fc
I0403 16:44:36.755116 19353 net.cpp:141] Setting up loss2/fc
I0403 16:44:36.755147 19353 net.cpp:148] Top shape: 24 1024 (24576)
I0403 16:44:36.755162 19353 net.cpp:156] Memory required for data: 1208220960
I0403 16:44:36.755179 19353 layer_factory.hpp:77] Creating layer loss2/relu_fc
I0403 16:44:36.755199 19353 net.cpp:91] Creating Layer loss2/relu_fc
I0403 16:44:36.755218 19353 net.cpp:425] loss2/relu_fc <- loss2/fc
I0403 16:44:36.755235 19353 net.cpp:386] loss2/relu_fc -> loss2/fc (in-place)
I0403 16:44:36.755525 19353 net.cpp:141] Setting up loss2/relu_fc
I0403 16:44:36.755553 19353 net.cpp:148] Top shape: 24 1024 (24576)
I0403 16:44:36.755570 19353 net.cpp:156] Memory required for data: 1208319264
I0403 16:44:36.755584 19353 layer_factory.hpp:77] Creating layer loss2/drop_fc
I0403 16:44:36.755607 19353 net.cpp:91] Creating Layer loss2/drop_fc
I0403 16:44:36.755625 19353 net.cpp:425] loss2/drop_fc <- loss2/fc
I0403 16:44:36.755643 19353 net.cpp:386] loss2/drop_fc -> loss2/fc (in-place)
I0403 16:44:36.755692 19353 net.cpp:141] Setting up loss2/drop_fc
I0403 16:44:36.755715 19353 net.cpp:148] Top shape: 24 1024 (24576)
I0403 16:44:36.755729 19353 net.cpp:156] Memory required for data: 1208417568
I0403 16:44:36.755743 19353 layer_factory.hpp:77] Creating layer loss2/classifier_plantvillage
I0403 16:44:36.755764 19353 net.cpp:91] Creating Layer loss2/classifier_plantvillage
I0403 16:44:36.755782 19353 net.cpp:425] loss2/classifier_plantvillage <- loss2/fc
I0403 16:44:36.755803 19353 net.cpp:399] loss2/classifier_plantvillage -> loss2/classifier_plantvillage
I0403 16:44:36.756183 19353 net.cpp:141] Setting up loss2/classifier_plantvillage
I0403 16:44:36.756207 19353 net.cpp:148] Top shape: 24 38 (912)
I0403 16:44:36.756222 19353 net.cpp:156] Memory required for data: 1208421216
I0403 16:44:36.756256 19353 layer_factory.hpp:77] Creating layer loss2/classifier_plantvillage_loss2/classifier_plantvillage_0_split
I0403 16:44:36.756275 19353 net.cpp:91] Creating Layer loss2/classifier_plantvillage_loss2/classifier_plantvillage_0_split
I0403 16:44:36.756296 19353 net.cpp:425] loss2/classifier_plantvillage_loss2/classifier_plantvillage_0_split <- loss2/classifier_plantvillage
I0403 16:44:36.756314 19353 net.cpp:399] loss2/classifier_plantvillage_loss2/classifier_plantvillage_0_split -> loss2/classifier_plantvillage_loss2/classifier_plantvillage_0_split_0
I0403 16:44:36.756332 19353 net.cpp:399] loss2/classifier_plantvillage_loss2/classifier_plantvillage_0_split -> loss2/classifier_plantvillage_loss2/classifier_plantvillage_0_split_1
I0403 16:44:36.756352 19353 net.cpp:399] loss2/classifier_plantvillage_loss2/classifier_plantvillage_0_split -> loss2/classifier_plantvillage_loss2/classifier_plantvillage_0_split_2
I0403 16:44:36.756427 19353 net.cpp:141] Setting up loss2/classifier_plantvillage_loss2/classifier_plantvillage_0_split
I0403 16:44:36.756454 19353 net.cpp:148] Top shape: 24 38 (912)
I0403 16:44:36.756472 19353 net.cpp:148] Top shape: 24 38 (912)
I0403 16:44:36.756487 19353 net.cpp:148] Top shape: 24 38 (912)
I0403 16:44:36.756500 19353 net.cpp:156] Memory required for data: 1208432160
I0403 16:44:36.756515 19353 layer_factory.hpp:77] Creating layer inception_4e/1x1
I0403 16:44:36.756534 19353 net.cpp:91] Creating Layer inception_4e/1x1
I0403 16:44:36.756551 19353 net.cpp:425] inception_4e/1x1 <- inception_4d/output_inception_4d/output_0_split_1
I0403 16:44:36.756572 19353 net.cpp:399] inception_4e/1x1 -> inception_4e/1x1
I0403 16:44:36.758327 19353 net.cpp:141] Setting up inception_4e/1x1
I0403 16:44:36.758354 19353 net.cpp:148] Top shape: 24 256 14 14 (1204224)
I0403 16:44:36.758370 19353 net.cpp:156] Memory required for data: 1213249056
I0403 16:44:36.758388 19353 layer_factory.hpp:77] Creating layer inception_4e/relu_1x1
I0403 16:44:36.758404 19353 net.cpp:91] Creating Layer inception_4e/relu_1x1
I0403 16:44:36.758420 19353 net.cpp:425] inception_4e/relu_1x1 <- inception_4e/1x1
I0403 16:44:36.758440 19353 net.cpp:386] inception_4e/relu_1x1 -> inception_4e/1x1 (in-place)
I0403 16:44:36.758729 19353 net.cpp:141] Setting up inception_4e/relu_1x1
I0403 16:44:36.758754 19353 net.cpp:148] Top shape: 24 256 14 14 (1204224)
I0403 16:44:36.758769 19353 net.cpp:156] Memory required for data: 1218065952
I0403 16:44:36.758785 19353 layer_factory.hpp:77] Creating layer inception_4e/3x3_reduce
I0403 16:44:36.758806 19353 net.cpp:91] Creating Layer inception_4e/3x3_reduce
I0403 16:44:36.758824 19353 net.cpp:425] inception_4e/3x3_reduce <- inception_4d/output_inception_4d/output_0_split_2
I0403 16:44:36.758846 19353 net.cpp:399] inception_4e/3x3_reduce -> inception_4e/3x3_reduce
I0403 16:44:36.760849 19353 net.cpp:141] Setting up inception_4e/3x3_reduce
I0403 16:44:36.760879 19353 net.cpp:148] Top shape: 24 160 14 14 (752640)
I0403 16:44:36.760896 19353 net.cpp:156] Memory required for data: 1221076512
I0403 16:44:36.760915 19353 layer_factory.hpp:77] Creating layer inception_4e/relu_3x3_reduce
I0403 16:44:36.760933 19353 net.cpp:91] Creating Layer inception_4e/relu_3x3_reduce
I0403 16:44:36.760949 19353 net.cpp:425] inception_4e/relu_3x3_reduce <- inception_4e/3x3_reduce
I0403 16:44:36.760968 19353 net.cpp:386] inception_4e/relu_3x3_reduce -> inception_4e/3x3_reduce (in-place)
I0403 16:44:36.761143 19353 net.cpp:141] Setting up inception_4e/relu_3x3_reduce
I0403 16:44:36.761168 19353 net.cpp:148] Top shape: 24 160 14 14 (752640)
I0403 16:44:36.761183 19353 net.cpp:156] Memory required for data: 1224087072
I0403 16:44:36.761198 19353 layer_factory.hpp:77] Creating layer inception_4e/3x3
I0403 16:44:36.761219 19353 net.cpp:91] Creating Layer inception_4e/3x3
I0403 16:44:36.761237 19353 net.cpp:425] inception_4e/3x3 <- inception_4e/3x3_reduce
I0403 16:44:36.761257 19353 net.cpp:399] inception_4e/3x3 -> inception_4e/3x3
I0403 16:44:36.766005 19353 net.cpp:141] Setting up inception_4e/3x3
I0403 16:44:36.766046 19353 net.cpp:148] Top shape: 24 320 14 14 (1505280)
I0403 16:44:36.766062 19353 net.cpp:156] Memory required for data: 1230108192
I0403 16:44:36.766080 19353 layer_factory.hpp:77] Creating layer inception_4e/relu_3x3
I0403 16:44:36.766099 19353 net.cpp:91] Creating Layer inception_4e/relu_3x3
I0403 16:44:36.766118 19353 net.cpp:425] inception_4e/relu_3x3 <- inception_4e/3x3
I0403 16:44:36.766134 19353 net.cpp:386] inception_4e/relu_3x3 -> inception_4e/3x3 (in-place)
I0403 16:44:36.766420 19353 net.cpp:141] Setting up inception_4e/relu_3x3
I0403 16:44:36.766446 19353 net.cpp:148] Top shape: 24 320 14 14 (1505280)
I0403 16:44:36.766461 19353 net.cpp:156] Memory required for data: 1236129312
I0403 16:44:36.766475 19353 layer_factory.hpp:77] Creating layer inception_4e/5x5_reduce
I0403 16:44:36.766499 19353 net.cpp:91] Creating Layer inception_4e/5x5_reduce
I0403 16:44:36.766515 19353 net.cpp:425] inception_4e/5x5_reduce <- inception_4d/output_inception_4d/output_0_split_3
I0403 16:44:36.766535 19353 net.cpp:399] inception_4e/5x5_reduce -> inception_4e/5x5_reduce
I0403 16:44:36.767552 19353 net.cpp:141] Setting up inception_4e/5x5_reduce
I0403 16:44:36.767578 19353 net.cpp:148] Top shape: 24 32 14 14 (150528)
I0403 16:44:36.767596 19353 net.cpp:156] Memory required for data: 1236731424
I0403 16:44:36.767619 19353 layer_factory.hpp:77] Creating layer inception_4e/relu_5x5_reduce
I0403 16:44:36.767638 19353 net.cpp:91] Creating Layer inception_4e/relu_5x5_reduce
I0403 16:44:36.767654 19353 net.cpp:425] inception_4e/relu_5x5_reduce <- inception_4e/5x5_reduce
I0403 16:44:36.767673 19353 net.cpp:386] inception_4e/relu_5x5_reduce -> inception_4e/5x5_reduce (in-place)
I0403 16:44:36.767962 19353 net.cpp:141] Setting up inception_4e/relu_5x5_reduce
I0403 16:44:36.767988 19353 net.cpp:148] Top shape: 24 32 14 14 (150528)
I0403 16:44:36.768003 19353 net.cpp:156] Memory required for data: 1237333536
I0403 16:44:36.768018 19353 layer_factory.hpp:77] Creating layer inception_4e/5x5
I0403 16:44:36.768054 19353 net.cpp:91] Creating Layer inception_4e/5x5
I0403 16:44:36.768074 19353 net.cpp:425] inception_4e/5x5 <- inception_4e/5x5_reduce
I0403 16:44:36.768092 19353 net.cpp:399] inception_4e/5x5 -> inception_4e/5x5
I0403 16:44:36.769850 19353 net.cpp:141] Setting up inception_4e/5x5
I0403 16:44:36.769879 19353 net.cpp:148] Top shape: 24 128 14 14 (602112)
I0403 16:44:36.769896 19353 net.cpp:156] Memory required for data: 1239741984
I0403 16:44:36.769914 19353 layer_factory.hpp:77] Creating layer inception_4e/relu_5x5
I0403 16:44:36.769932 19353 net.cpp:91] Creating Layer inception_4e/relu_5x5
I0403 16:44:36.769948 19353 net.cpp:425] inception_4e/relu_5x5 <- inception_4e/5x5
I0403 16:44:36.769966 19353 net.cpp:386] inception_4e/relu_5x5 -> inception_4e/5x5 (in-place)
I0403 16:44:36.770155 19353 net.cpp:141] Setting up inception_4e/relu_5x5
I0403 16:44:36.770179 19353 net.cpp:148] Top shape: 24 128 14 14 (602112)
I0403 16:44:36.770195 19353 net.cpp:156] Memory required for data: 1242150432
I0403 16:44:36.770210 19353 layer_factory.hpp:77] Creating layer inception_4e/pool
I0403 16:44:36.770227 19353 net.cpp:91] Creating Layer inception_4e/pool
I0403 16:44:36.770244 19353 net.cpp:425] inception_4e/pool <- inception_4d/output_inception_4d/output_0_split_4
I0403 16:44:36.770264 19353 net.cpp:399] inception_4e/pool -> inception_4e/pool
I0403 16:44:36.770331 19353 net.cpp:141] Setting up inception_4e/pool
I0403 16:44:36.770357 19353 net.cpp:148] Top shape: 24 528 14 14 (2483712)
I0403 16:44:36.770371 19353 net.cpp:156] Memory required for data: 1252085280
I0403 16:44:36.770386 19353 layer_factory.hpp:77] Creating layer inception_4e/pool_proj
I0403 16:44:36.770408 19353 net.cpp:91] Creating Layer inception_4e/pool_proj
I0403 16:44:36.770426 19353 net.cpp:425] inception_4e/pool_proj <- inception_4e/pool
I0403 16:44:36.770443 19353 net.cpp:399] inception_4e/pool_proj -> inception_4e/pool_proj
I0403 16:44:36.771991 19353 net.cpp:141] Setting up inception_4e/pool_proj
I0403 16:44:36.772022 19353 net.cpp:148] Top shape: 24 128 14 14 (602112)
I0403 16:44:36.772053 19353 net.cpp:156] Memory required for data: 1254493728
I0403 16:44:36.772073 19353 layer_factory.hpp:77] Creating layer inception_4e/relu_pool_proj
I0403 16:44:36.772094 19353 net.cpp:91] Creating Layer inception_4e/relu_pool_proj
I0403 16:44:36.772110 19353 net.cpp:425] inception_4e/relu_pool_proj <- inception_4e/pool_proj
I0403 16:44:36.772140 19353 net.cpp:386] inception_4e/relu_pool_proj -> inception_4e/pool_proj (in-place)
I0403 16:44:36.772425 19353 net.cpp:141] Setting up inception_4e/relu_pool_proj
I0403 16:44:36.772454 19353 net.cpp:148] Top shape: 24 128 14 14 (602112)
I0403 16:44:36.772469 19353 net.cpp:156] Memory required for data: 1256902176
I0403 16:44:36.772485 19353 layer_factory.hpp:77] Creating layer inception_4e/output
I0403 16:44:36.772513 19353 net.cpp:91] Creating Layer inception_4e/output
I0403 16:44:36.772529 19353 net.cpp:425] inception_4e/output <- inception_4e/1x1
I0403 16:44:36.772546 19353 net.cpp:425] inception_4e/output <- inception_4e/3x3
I0403 16:44:36.772562 19353 net.cpp:425] inception_4e/output <- inception_4e/5x5
I0403 16:44:36.772579 19353 net.cpp:425] inception_4e/output <- inception_4e/pool_proj
I0403 16:44:36.772598 19353 net.cpp:399] inception_4e/output -> inception_4e/output
I0403 16:44:36.772657 19353 net.cpp:141] Setting up inception_4e/output
I0403 16:44:36.772682 19353 net.cpp:148] Top shape: 24 832 14 14 (3913728)
I0403 16:44:36.772697 19353 net.cpp:156] Memory required for data: 1272557088
I0403 16:44:36.772712 19353 layer_factory.hpp:77] Creating layer pool4/3x3_s2
I0403 16:44:36.772732 19353 net.cpp:91] Creating Layer pool4/3x3_s2
I0403 16:44:36.772750 19353 net.cpp:425] pool4/3x3_s2 <- inception_4e/output
I0403 16:44:36.772770 19353 net.cpp:399] pool4/3x3_s2 -> pool4/3x3_s2
I0403 16:44:36.772850 19353 net.cpp:141] Setting up pool4/3x3_s2
I0403 16:44:36.772874 19353 net.cpp:148] Top shape: 24 832 7 7 (978432)
I0403 16:44:36.772888 19353 net.cpp:156] Memory required for data: 1276470816
I0403 16:44:36.772903 19353 layer_factory.hpp:77] Creating layer pool4/3x3_s2_pool4/3x3_s2_0_split
I0403 16:44:36.772922 19353 net.cpp:91] Creating Layer pool4/3x3_s2_pool4/3x3_s2_0_split
I0403 16:44:36.772938 19353 net.cpp:425] pool4/3x3_s2_pool4/3x3_s2_0_split <- pool4/3x3_s2
I0403 16:44:36.772956 19353 net.cpp:399] pool4/3x3_s2_pool4/3x3_s2_0_split -> pool4/3x3_s2_pool4/3x3_s2_0_split_0
I0403 16:44:36.772979 19353 net.cpp:399] pool4/3x3_s2_pool4/3x3_s2_0_split -> pool4/3x3_s2_pool4/3x3_s2_0_split_1
I0403 16:44:36.772999 19353 net.cpp:399] pool4/3x3_s2_pool4/3x3_s2_0_split -> pool4/3x3_s2_pool4/3x3_s2_0_split_2
I0403 16:44:36.773020 19353 net.cpp:399] pool4/3x3_s2_pool4/3x3_s2_0_split -> pool4/3x3_s2_pool4/3x3_s2_0_split_3
I0403 16:44:36.773110 19353 net.cpp:141] Setting up pool4/3x3_s2_pool4/3x3_s2_0_split
I0403 16:44:36.773136 19353 net.cpp:148] Top shape: 24 832 7 7 (978432)
I0403 16:44:36.773154 19353 net.cpp:148] Top shape: 24 832 7 7 (978432)
I0403 16:44:36.773170 19353 net.cpp:148] Top shape: 24 832 7 7 (978432)
I0403 16:44:36.773185 19353 net.cpp:148] Top shape: 24 832 7 7 (978432)
I0403 16:44:36.773197 19353 net.cpp:156] Memory required for data: 1292125728
I0403 16:44:36.773211 19353 layer_factory.hpp:77] Creating layer inception_5a/1x1
I0403 16:44:36.773234 19353 net.cpp:91] Creating Layer inception_5a/1x1
I0403 16:44:36.773252 19353 net.cpp:425] inception_5a/1x1 <- pool4/3x3_s2_pool4/3x3_s2_0_split_0
I0403 16:44:36.773272 19353 net.cpp:399] inception_5a/1x1 -> inception_5a/1x1
I0403 16:44:36.776058 19353 net.cpp:141] Setting up inception_5a/1x1
I0403 16:44:36.776090 19353 net.cpp:148] Top shape: 24 256 7 7 (301056)
I0403 16:44:36.776106 19353 net.cpp:156] Memory required for data: 1293329952
I0403 16:44:36.776125 19353 layer_factory.hpp:77] Creating layer inception_5a/relu_1x1
I0403 16:44:36.776145 19353 net.cpp:91] Creating Layer inception_5a/relu_1x1
I0403 16:44:36.776161 19353 net.cpp:425] inception_5a/relu_1x1 <- inception_5a/1x1
I0403 16:44:36.776181 19353 net.cpp:386] inception_5a/relu_1x1 -> inception_5a/1x1 (in-place)
I0403 16:44:36.776484 19353 net.cpp:141] Setting up inception_5a/relu_1x1
I0403 16:44:36.776513 19353 net.cpp:148] Top shape: 24 256 7 7 (301056)
I0403 16:44:36.776530 19353 net.cpp:156] Memory required for data: 1294534176
I0403 16:44:36.776545 19353 layer_factory.hpp:77] Creating layer inception_5a/3x3_reduce
I0403 16:44:36.776566 19353 net.cpp:91] Creating Layer inception_5a/3x3_reduce
I0403 16:44:36.776584 19353 net.cpp:425] inception_5a/3x3_reduce <- pool4/3x3_s2_pool4/3x3_s2_0_split_1
I0403 16:44:36.776608 19353 net.cpp:399] inception_5a/3x3_reduce -> inception_5a/3x3_reduce
I0403 16:44:36.779001 19353 net.cpp:141] Setting up inception_5a/3x3_reduce
I0403 16:44:36.779031 19353 net.cpp:148] Top shape: 24 160 7 7 (188160)
I0403 16:44:36.779047 19353 net.cpp:156] Memory required for data: 1295286816
I0403 16:44:36.779067 19353 layer_factory.hpp:77] Creating layer inception_5a/relu_3x3_reduce
I0403 16:44:36.779085 19353 net.cpp:91] Creating Layer inception_5a/relu_3x3_reduce
I0403 16:44:36.779103 19353 net.cpp:425] inception_5a/relu_3x3_reduce <- inception_5a/3x3_reduce
I0403 16:44:36.779120 19353 net.cpp:386] inception_5a/relu_3x3_reduce -> inception_5a/3x3_reduce (in-place)
I0403 16:44:36.779305 19353 net.cpp:141] Setting up inception_5a/relu_3x3_reduce
I0403 16:44:36.779333 19353 net.cpp:148] Top shape: 24 160 7 7 (188160)
I0403 16:44:36.779350 19353 net.cpp:156] Memory required for data: 1296039456
I0403 16:44:36.779364 19353 layer_factory.hpp:77] Creating layer inception_5a/3x3
I0403 16:44:36.779386 19353 net.cpp:91] Creating Layer inception_5a/3x3
I0403 16:44:36.779405 19353 net.cpp:425] inception_5a/3x3 <- inception_5a/3x3_reduce
I0403 16:44:36.779423 19353 net.cpp:399] inception_5a/3x3 -> inception_5a/3x3
I0403 16:44:36.784351 19353 net.cpp:141] Setting up inception_5a/3x3
I0403 16:44:36.784384 19353 net.cpp:148] Top shape: 24 320 7 7 (376320)
I0403 16:44:36.784400 19353 net.cpp:156] Memory required for data: 1297544736
I0403 16:44:36.784420 19353 layer_factory.hpp:77] Creating layer inception_5a/relu_3x3
I0403 16:44:36.784437 19353 net.cpp:91] Creating Layer inception_5a/relu_3x3
I0403 16:44:36.784453 19353 net.cpp:425] inception_5a/relu_3x3 <- inception_5a/3x3
I0403 16:44:36.784473 19353 net.cpp:386] inception_5a/relu_3x3 -> inception_5a/3x3 (in-place)
I0403 16:44:36.784785 19353 net.cpp:141] Setting up inception_5a/relu_3x3
I0403 16:44:36.784813 19353 net.cpp:148] Top shape: 24 320 7 7 (376320)
I0403 16:44:36.784828 19353 net.cpp:156] Memory required for data: 1299050016
I0403 16:44:36.784843 19353 layer_factory.hpp:77] Creating layer inception_5a/5x5_reduce
I0403 16:44:36.784865 19353 net.cpp:91] Creating Layer inception_5a/5x5_reduce
I0403 16:44:36.784883 19353 net.cpp:425] inception_5a/5x5_reduce <- pool4/3x3_s2_pool4/3x3_s2_0_split_2
I0403 16:44:36.784907 19353 net.cpp:399] inception_5a/5x5_reduce -> inception_5a/5x5_reduce
I0403 16:44:36.786058 19353 net.cpp:141] Setting up inception_5a/5x5_reduce
I0403 16:44:36.786089 19353 net.cpp:148] Top shape: 24 32 7 7 (37632)
I0403 16:44:36.786106 19353 net.cpp:156] Memory required for data: 1299200544
I0403 16:44:36.786125 19353 layer_factory.hpp:77] Creating layer inception_5a/relu_5x5_reduce
I0403 16:44:36.786144 19353 net.cpp:91] Creating Layer inception_5a/relu_5x5_reduce
I0403 16:44:36.786159 19353 net.cpp:425] inception_5a/relu_5x5_reduce <- inception_5a/5x5_reduce
I0403 16:44:36.786181 19353 net.cpp:386] inception_5a/relu_5x5_reduce -> inception_5a/5x5_reduce (in-place)
I0403 16:44:36.786479 19353 net.cpp:141] Setting up inception_5a/relu_5x5_reduce
I0403 16:44:36.786504 19353 net.cpp:148] Top shape: 24 32 7 7 (37632)
I0403 16:44:36.786520 19353 net.cpp:156] Memory required for data: 1299351072
I0403 16:44:36.786535 19353 layer_factory.hpp:77] Creating layer inception_5a/5x5
I0403 16:44:36.786558 19353 net.cpp:91] Creating Layer inception_5a/5x5
I0403 16:44:36.786577 19353 net.cpp:425] inception_5a/5x5 <- inception_5a/5x5_reduce
I0403 16:44:36.786599 19353 net.cpp:399] inception_5a/5x5 -> inception_5a/5x5
I0403 16:44:36.788316 19353 net.cpp:141] Setting up inception_5a/5x5
I0403 16:44:36.788357 19353 net.cpp:148] Top shape: 24 128 7 7 (150528)
I0403 16:44:36.788374 19353 net.cpp:156] Memory required for data: 1299953184
I0403 16:44:36.788391 19353 layer_factory.hpp:77] Creating layer inception_5a/relu_5x5
I0403 16:44:36.788410 19353 net.cpp:91] Creating Layer inception_5a/relu_5x5
I0403 16:44:36.788426 19353 net.cpp:425] inception_5a/relu_5x5 <- inception_5a/5x5
I0403 16:44:36.788446 19353 net.cpp:386] inception_5a/relu_5x5 -> inception_5a/5x5 (in-place)
I0403 16:44:36.788640 19353 net.cpp:141] Setting up inception_5a/relu_5x5
I0403 16:44:36.788664 19353 net.cpp:148] Top shape: 24 128 7 7 (150528)
I0403 16:44:36.788679 19353 net.cpp:156] Memory required for data: 1300555296
I0403 16:44:36.788693 19353 layer_factory.hpp:77] Creating layer inception_5a/pool
I0403 16:44:36.788712 19353 net.cpp:91] Creating Layer inception_5a/pool
I0403 16:44:36.788729 19353 net.cpp:425] inception_5a/pool <- pool4/3x3_s2_pool4/3x3_s2_0_split_3
I0403 16:44:36.788748 19353 net.cpp:399] inception_5a/pool -> inception_5a/pool
I0403 16:44:36.788828 19353 net.cpp:141] Setting up inception_5a/pool
I0403 16:44:36.788852 19353 net.cpp:148] Top shape: 24 832 7 7 (978432)
I0403 16:44:36.788868 19353 net.cpp:156] Memory required for data: 1304469024
I0403 16:44:36.788883 19353 layer_factory.hpp:77] Creating layer inception_5a/pool_proj
I0403 16:44:36.788904 19353 net.cpp:91] Creating Layer inception_5a/pool_proj
I0403 16:44:36.788921 19353 net.cpp:425] inception_5a/pool_proj <- inception_5a/pool
I0403 16:44:36.788944 19353 net.cpp:399] inception_5a/pool_proj -> inception_5a/pool_proj
I0403 16:44:36.791131 19353 net.cpp:141] Setting up inception_5a/pool_proj
I0403 16:44:36.791158 19353 net.cpp:148] Top shape: 24 128 7 7 (150528)
I0403 16:44:36.791174 19353 net.cpp:156] Memory required for data: 1305071136
I0403 16:44:36.791194 19353 layer_factory.hpp:77] Creating layer inception_5a/relu_pool_proj
I0403 16:44:36.791213 19353 net.cpp:91] Creating Layer inception_5a/relu_pool_proj
I0403 16:44:36.791229 19353 net.cpp:425] inception_5a/relu_pool_proj <- inception_5a/pool_proj
I0403 16:44:36.791245 19353 net.cpp:386] inception_5a/relu_pool_proj -> inception_5a/pool_proj (in-place)
I0403 16:44:36.791527 19353 net.cpp:141] Setting up inception_5a/relu_pool_proj
I0403 16:44:36.791553 19353 net.cpp:148] Top shape: 24 128 7 7 (150528)
I0403 16:44:36.791568 19353 net.cpp:156] Memory required for data: 1305673248
I0403 16:44:36.791581 19353 layer_factory.hpp:77] Creating layer inception_5a/output
I0403 16:44:36.791599 19353 net.cpp:91] Creating Layer inception_5a/output
I0403 16:44:36.791622 19353 net.cpp:425] inception_5a/output <- inception_5a/1x1
I0403 16:44:36.791640 19353 net.cpp:425] inception_5a/output <- inception_5a/3x3
I0403 16:44:36.791656 19353 net.cpp:425] inception_5a/output <- inception_5a/5x5
I0403 16:44:36.791672 19353 net.cpp:425] inception_5a/output <- inception_5a/pool_proj
I0403 16:44:36.791687 19353 net.cpp:399] inception_5a/output -> inception_5a/output
I0403 16:44:36.791736 19353 net.cpp:141] Setting up inception_5a/output
I0403 16:44:36.791760 19353 net.cpp:148] Top shape: 24 832 7 7 (978432)
I0403 16:44:36.791774 19353 net.cpp:156] Memory required for data: 1309586976
I0403 16:44:36.791788 19353 layer_factory.hpp:77] Creating layer inception_5a/output_inception_5a/output_0_split
I0403 16:44:36.791805 19353 net.cpp:91] Creating Layer inception_5a/output_inception_5a/output_0_split
I0403 16:44:36.791820 19353 net.cpp:425] inception_5a/output_inception_5a/output_0_split <- inception_5a/output
I0403 16:44:36.791838 19353 net.cpp:399] inception_5a/output_inception_5a/output_0_split -> inception_5a/output_inception_5a/output_0_split_0
I0403 16:44:36.791858 19353 net.cpp:399] inception_5a/output_inception_5a/output_0_split -> inception_5a/output_inception_5a/output_0_split_1
I0403 16:44:36.791879 19353 net.cpp:399] inception_5a/output_inception_5a/output_0_split -> inception_5a/output_inception_5a/output_0_split_2
I0403 16:44:36.791899 19353 net.cpp:399] inception_5a/output_inception_5a/output_0_split -> inception_5a/output_inception_5a/output_0_split_3
I0403 16:44:36.792014 19353 net.cpp:141] Setting up inception_5a/output_inception_5a/output_0_split
I0403 16:44:36.792037 19353 net.cpp:148] Top shape: 24 832 7 7 (978432)
I0403 16:44:36.792053 19353 net.cpp:148] Top shape: 24 832 7 7 (978432)
I0403 16:44:36.792068 19353 net.cpp:148] Top shape: 24 832 7 7 (978432)
I0403 16:44:36.792083 19353 net.cpp:148] Top shape: 24 832 7 7 (978432)
I0403 16:44:36.792096 19353 net.cpp:156] Memory required for data: 1325241888
I0403 16:44:36.792111 19353 layer_factory.hpp:77] Creating layer inception_5b/1x1
I0403 16:44:36.792131 19353 net.cpp:91] Creating Layer inception_5b/1x1
I0403 16:44:36.792148 19353 net.cpp:425] inception_5b/1x1 <- inception_5a/output_inception_5a/output_0_split_0
I0403 16:44:36.792170 19353 net.cpp:399] inception_5b/1x1 -> inception_5b/1x1
I0403 16:44:36.795748 19353 net.cpp:141] Setting up inception_5b/1x1
I0403 16:44:36.795778 19353 net.cpp:148] Top shape: 24 384 7 7 (451584)
I0403 16:44:36.795794 19353 net.cpp:156] Memory required for data: 1327048224
I0403 16:44:36.795812 19353 layer_factory.hpp:77] Creating layer inception_5b/relu_1x1
I0403 16:44:36.795833 19353 net.cpp:91] Creating Layer inception_5b/relu_1x1
I0403 16:44:36.795851 19353 net.cpp:425] inception_5b/relu_1x1 <- inception_5b/1x1
I0403 16:44:36.795868 19353 net.cpp:386] inception_5b/relu_1x1 -> inception_5b/1x1 (in-place)
I0403 16:44:36.796156 19353 net.cpp:141] Setting up inception_5b/relu_1x1
I0403 16:44:36.796181 19353 net.cpp:148] Top shape: 24 384 7 7 (451584)
I0403 16:44:36.796197 19353 net.cpp:156] Memory required for data: 1328854560
I0403 16:44:36.796212 19353 layer_factory.hpp:77] Creating layer inception_5b/3x3_reduce
I0403 16:44:36.796233 19353 net.cpp:91] Creating Layer inception_5b/3x3_reduce
I0403 16:44:36.796252 19353 net.cpp:425] inception_5b/3x3_reduce <- inception_5a/output_inception_5a/output_0_split_1
I0403 16:44:36.796272 19353 net.cpp:399] inception_5b/3x3_reduce -> inception_5b/3x3_reduce
I0403 16:44:36.798815 19353 net.cpp:141] Setting up inception_5b/3x3_reduce
I0403 16:44:36.798843 19353 net.cpp:148] Top shape: 24 192 7 7 (225792)
I0403 16:44:36.798859 19353 net.cpp:156] Memory required for data: 1329757728
I0403 16:44:36.798877 19353 layer_factory.hpp:77] Creating layer inception_5b/relu_3x3_reduce
I0403 16:44:36.798900 19353 net.cpp:91] Creating Layer inception_5b/relu_3x3_reduce
I0403 16:44:36.798918 19353 net.cpp:425] inception_5b/relu_3x3_reduce <- inception_5b/3x3_reduce
I0403 16:44:36.798936 19353 net.cpp:386] inception_5b/relu_3x3_reduce -> inception_5b/3x3_reduce (in-place)
I0403 16:44:36.799118 19353 net.cpp:141] Setting up inception_5b/relu_3x3_reduce
I0403 16:44:36.799144 19353 net.cpp:148] Top shape: 24 192 7 7 (225792)
I0403 16:44:36.799159 19353 net.cpp:156] Memory required for data: 1330660896
I0403 16:44:36.799172 19353 layer_factory.hpp:77] Creating layer inception_5b/3x3
I0403 16:44:36.799193 19353 net.cpp:91] Creating Layer inception_5b/3x3
I0403 16:44:36.799211 19353 net.cpp:425] inception_5b/3x3 <- inception_5b/3x3_reduce
I0403 16:44:36.799234 19353 net.cpp:399] inception_5b/3x3 -> inception_5b/3x3
I0403 16:44:36.805654 19353 net.cpp:141] Setting up inception_5b/3x3
I0403 16:44:36.805681 19353 net.cpp:148] Top shape: 24 384 7 7 (451584)
I0403 16:44:36.805697 19353 net.cpp:156] Memory required for data: 1332467232
I0403 16:44:36.805717 19353 layer_factory.hpp:77] Creating layer inception_5b/relu_3x3
I0403 16:44:36.805737 19353 net.cpp:91] Creating Layer inception_5b/relu_3x3
I0403 16:44:36.805753 19353 net.cpp:425] inception_5b/relu_3x3 <- inception_5b/3x3
I0403 16:44:36.805771 19353 net.cpp:386] inception_5b/relu_3x3 -> inception_5b/3x3 (in-place)
I0403 16:44:36.806056 19353 net.cpp:141] Setting up inception_5b/relu_3x3
I0403 16:44:36.806082 19353 net.cpp:148] Top shape: 24 384 7 7 (451584)
I0403 16:44:36.806098 19353 net.cpp:156] Memory required for data: 1334273568
I0403 16:44:36.806113 19353 layer_factory.hpp:77] Creating layer inception_5b/5x5_reduce
I0403 16:44:36.806151 19353 net.cpp:91] Creating Layer inception_5b/5x5_reduce
I0403 16:44:36.806171 19353 net.cpp:425] inception_5b/5x5_reduce <- inception_5a/output_inception_5a/output_0_split_2
I0403 16:44:36.806190 19353 net.cpp:399] inception_5b/5x5_reduce -> inception_5b/5x5_reduce
I0403 16:44:36.807406 19353 net.cpp:141] Setting up inception_5b/5x5_reduce
I0403 16:44:36.807435 19353 net.cpp:148] Top shape: 24 48 7 7 (56448)
I0403 16:44:36.807452 19353 net.cpp:156] Memory required for data: 1334499360
I0403 16:44:36.807471 19353 layer_factory.hpp:77] Creating layer inception_5b/relu_5x5_reduce
I0403 16:44:36.807488 19353 net.cpp:91] Creating Layer inception_5b/relu_5x5_reduce
I0403 16:44:36.807505 19353 net.cpp:425] inception_5b/relu_5x5_reduce <- inception_5b/5x5_reduce
I0403 16:44:36.807523 19353 net.cpp:386] inception_5b/relu_5x5_reduce -> inception_5b/5x5_reduce (in-place)
I0403 16:44:36.807885 19353 net.cpp:141] Setting up inception_5b/relu_5x5_reduce
I0403 16:44:36.807912 19353 net.cpp:148] Top shape: 24 48 7 7 (56448)
I0403 16:44:36.807926 19353 net.cpp:156] Memory required for data: 1334725152
I0403 16:44:36.807941 19353 layer_factory.hpp:77] Creating layer inception_5b/5x5
I0403 16:44:36.807960 19353 net.cpp:91] Creating Layer inception_5b/5x5
I0403 16:44:36.807976 19353 net.cpp:425] inception_5b/5x5 <- inception_5b/5x5_reduce
I0403 16:44:36.807993 19353 net.cpp:399] inception_5b/5x5 -> inception_5b/5x5
I0403 16:44:36.809939 19353 net.cpp:141] Setting up inception_5b/5x5
I0403 16:44:36.809968 19353 net.cpp:148] Top shape: 24 128 7 7 (150528)
I0403 16:44:36.809984 19353 net.cpp:156] Memory required for data: 1335327264
I0403 16:44:36.810004 19353 layer_factory.hpp:77] Creating layer inception_5b/relu_5x5
I0403 16:44:36.810022 19353 net.cpp:91] Creating Layer inception_5b/relu_5x5
I0403 16:44:36.810036 19353 net.cpp:425] inception_5b/relu_5x5 <- inception_5b/5x5
I0403 16:44:36.810055 19353 net.cpp:386] inception_5b/relu_5x5 -> inception_5b/5x5 (in-place)
I0403 16:44:36.810243 19353 net.cpp:141] Setting up inception_5b/relu_5x5
I0403 16:44:36.810268 19353 net.cpp:148] Top shape: 24 128 7 7 (150528)
I0403 16:44:36.810282 19353 net.cpp:156] Memory required for data: 1335929376
I0403 16:44:36.810297 19353 layer_factory.hpp:77] Creating layer inception_5b/pool
I0403 16:44:36.810314 19353 net.cpp:91] Creating Layer inception_5b/pool
I0403 16:44:36.810329 19353 net.cpp:425] inception_5b/pool <- inception_5a/output_inception_5a/output_0_split_3
I0403 16:44:36.810349 19353 net.cpp:399] inception_5b/pool -> inception_5b/pool
I0403 16:44:36.810420 19353 net.cpp:141] Setting up inception_5b/pool
I0403 16:44:36.810444 19353 net.cpp:148] Top shape: 24 832 7 7 (978432)
I0403 16:44:36.810461 19353 net.cpp:156] Memory required for data: 1339843104
I0403 16:44:36.810474 19353 layer_factory.hpp:77] Creating layer inception_5b/pool_proj
I0403 16:44:36.810497 19353 net.cpp:91] Creating Layer inception_5b/pool_proj
I0403 16:44:36.810514 19353 net.cpp:425] inception_5b/pool_proj <- inception_5b/pool
I0403 16:44:36.810534 19353 net.cpp:399] inception_5b/pool_proj -> inception_5b/pool_proj
I0403 16:44:36.812778 19353 net.cpp:141] Setting up inception_5b/pool_proj
I0403 16:44:36.812809 19353 net.cpp:148] Top shape: 24 128 7 7 (150528)
I0403 16:44:36.812826 19353 net.cpp:156] Memory required for data: 1340445216
I0403 16:44:36.812844 19353 layer_factory.hpp:77] Creating layer inception_5b/relu_pool_proj
I0403 16:44:36.812860 19353 net.cpp:91] Creating Layer inception_5b/relu_pool_proj
I0403 16:44:36.812876 19353 net.cpp:425] inception_5b/relu_pool_proj <- inception_5b/pool_proj
I0403 16:44:36.812893 19353 net.cpp:386] inception_5b/relu_pool_proj -> inception_5b/pool_proj (in-place)
I0403 16:44:36.813179 19353 net.cpp:141] Setting up inception_5b/relu_pool_proj
I0403 16:44:36.813206 19353 net.cpp:148] Top shape: 24 128 7 7 (150528)
I0403 16:44:36.813223 19353 net.cpp:156] Memory required for data: 1341047328
I0403 16:44:36.813238 19353 layer_factory.hpp:77] Creating layer inception_5b/output
I0403 16:44:36.813254 19353 net.cpp:91] Creating Layer inception_5b/output
I0403 16:44:36.813283 19353 net.cpp:425] inception_5b/output <- inception_5b/1x1
I0403 16:44:36.813302 19353 net.cpp:425] inception_5b/output <- inception_5b/3x3
I0403 16:44:36.813318 19353 net.cpp:425] inception_5b/output <- inception_5b/5x5
I0403 16:44:36.813333 19353 net.cpp:425] inception_5b/output <- inception_5b/pool_proj
I0403 16:44:36.813349 19353 net.cpp:399] inception_5b/output -> inception_5b/output
I0403 16:44:36.813401 19353 net.cpp:141] Setting up inception_5b/output
I0403 16:44:36.813426 19353 net.cpp:148] Top shape: 24 1024 7 7 (1204224)
I0403 16:44:36.813441 19353 net.cpp:156] Memory required for data: 1345864224
I0403 16:44:36.813455 19353 layer_factory.hpp:77] Creating layer pool5/7x7_s1
I0403 16:44:36.813474 19353 net.cpp:91] Creating Layer pool5/7x7_s1
I0403 16:44:36.813490 19353 net.cpp:425] pool5/7x7_s1 <- inception_5b/output
I0403 16:44:36.813508 19353 net.cpp:399] pool5/7x7_s1 -> pool5/7x7_s1
I0403 16:44:36.813724 19353 net.cpp:141] Setting up pool5/7x7_s1
I0403 16:44:36.813748 19353 net.cpp:148] Top shape: 24 1024 1 1 (24576)
I0403 16:44:36.813763 19353 net.cpp:156] Memory required for data: 1345962528
I0403 16:44:36.813778 19353 layer_factory.hpp:77] Creating layer pool5/drop_7x7_s1
I0403 16:44:36.813796 19353 net.cpp:91] Creating Layer pool5/drop_7x7_s1
I0403 16:44:36.813810 19353 net.cpp:425] pool5/drop_7x7_s1 <- pool5/7x7_s1
I0403 16:44:36.813829 19353 net.cpp:386] pool5/drop_7x7_s1 -> pool5/7x7_s1 (in-place)
I0403 16:44:36.813879 19353 net.cpp:141] Setting up pool5/drop_7x7_s1
I0403 16:44:36.813902 19353 net.cpp:148] Top shape: 24 1024 1 1 (24576)
I0403 16:44:36.813916 19353 net.cpp:156] Memory required for data: 1346060832
I0403 16:44:36.813930 19353 layer_factory.hpp:77] Creating layer loss3/classifier_plantvillage
I0403 16:44:36.813949 19353 net.cpp:91] Creating Layer loss3/classifier_plantvillage
I0403 16:44:36.813967 19353 net.cpp:425] loss3/classifier_plantvillage <- pool5/7x7_s1
I0403 16:44:36.813988 19353 net.cpp:399] loss3/classifier_plantvillage -> loss3/classifier_plantvillage
I0403 16:44:36.814407 19353 net.cpp:141] Setting up loss3/classifier_plantvillage
I0403 16:44:36.814432 19353 net.cpp:148] Top shape: 24 38 (912)
I0403 16:44:36.814447 19353 net.cpp:156] Memory required for data: 1346064480
I0403 16:44:36.814465 19353 layer_factory.hpp:77] Creating layer loss3/classifier_plantvillage_loss3/classifier_plantvillage_0_split
I0403 16:44:36.814483 19353 net.cpp:91] Creating Layer loss3/classifier_plantvillage_loss3/classifier_plantvillage_0_split
I0403 16:44:36.814499 19353 net.cpp:425] loss3/classifier_plantvillage_loss3/classifier_plantvillage_0_split <- loss3/classifier_plantvillage
I0403 16:44:36.814519 19353 net.cpp:399] loss3/classifier_plantvillage_loss3/classifier_plantvillage_0_split -> loss3/classifier_plantvillage_loss3/classifier_plantvillage_0_split_0
I0403 16:44:36.814540 19353 net.cpp:399] loss3/classifier_plantvillage_loss3/classifier_plantvillage_0_split -> loss3/classifier_plantvillage_loss3/classifier_plantvillage_0_split_1
I0403 16:44:36.814560 19353 net.cpp:399] loss3/classifier_plantvillage_loss3/classifier_plantvillage_0_split -> loss3/classifier_plantvillage_loss3/classifier_plantvillage_0_split_2
I0403 16:44:36.814584 19353 net.cpp:399] loss3/classifier_plantvillage_loss3/classifier_plantvillage_0_split -> loss3/classifier_plantvillage_loss3/classifier_plantvillage_0_split_3
I0403 16:44:36.814697 19353 net.cpp:141] Setting up loss3/classifier_plantvillage_loss3/classifier_plantvillage_0_split
I0403 16:44:36.814733 19353 net.cpp:148] Top shape: 24 38 (912)
I0403 16:44:36.814749 19353 net.cpp:148] Top shape: 24 38 (912)
I0403 16:44:36.814764 19353 net.cpp:148] Top shape: 24 38 (912)
I0403 16:44:36.814779 19353 net.cpp:148] Top shape: 24 38 (912)
I0403 16:44:36.814793 19353 net.cpp:156] Memory required for data: 1346079072
I0403 16:44:36.814807 19353 layer_factory.hpp:77] Creating layer loss1/loss
I0403 16:44:36.814828 19353 net.cpp:91] Creating Layer loss1/loss
I0403 16:44:36.814846 19353 net.cpp:425] loss1/loss <- loss1/classifier_plantvillage_loss1/classifier_plantvillage_0_split_0
I0403 16:44:36.814877 19353 net.cpp:425] loss1/loss <- label_data_1_split_0
…
