…
I0403 16:50:02.665513 19673 net.cpp:313] The NetState phase (1) differed from the phase (0) specified by a rule in layer data
I0403 16:50:02.666970 19673 net.cpp:49] Initializing net from parameters: 
state {
  phase: TEST
}
layer {
  name: "data"
  type: "Data"
  top: "data"
  top: "label"
  include {
    phase: TEST
  }
  transform_param {
    mirror: false
    crop_size: 224
    mean_file: "/home/mohanty/data/final_dataset/lmdb/color-20-80/mean.binaryproto"
  }
  data_param {
    source: "/home/mohanty/data/final_dataset/lmdb/color-20-80/test_db"
    batch_size: 24
    backend: LMDB
  }
}
layer {
  name: "conv1/7x7_s2"
  type: "Convolution"
  bottom: "data"
  top: "conv1/7x7_s2"
  param {
    lr_mult: 1
    decay_mult: 1
  }
  param {
    lr_mult: 2
    decay_mult: 0
  }
  convolution_param {
    num_output: 64
    pad: 3
    kernel_size: 7
    stride: 2
    weight_filler {
      type: "xavier"
      std: 0.1
    }
    bias_filler {
      type: "constant"
      value: 0.2
    }
  }
}
layer {
  name: "conv1/relu_7x7"
  type: "ReLU"
  bottom: "conv1/7x7_s2"
  top: "conv1/7x7_s2"
}
layer {
  name: "pool1/3x3_s2"
  type: "Pooling"
  bottom: "conv1/7x7_s2"
  top: "pool1/3x3_s2"
  pooling_param {
    pool: MAX
    kernel_size: 3
    stride: 2
  }
}
layer {
  name: "pool1/norm1"
  type: "LRN"
  bottom: "pool1/3x3_s2"
  top: "pool1/norm1"
  lrn_param {
    local_size: 5
    alpha: 0.0001
    beta: 0.75
  }
}
layer {
  name: "conv2/3x3_reduce"
  type: "Convolution"
  bottom: "pool1/norm1"
  top: "conv2/3x3_reduce"
  param {
    lr_mult: 1
    decay_mult: 1
  }
  param {
    lr_mult: 2
    decay_mult: 0
  }
  convolution_param {
    num_output: 64
    kernel_size: 1
    weight_filler {
      type: "xavier"
      std: 0.1
    }
    bias_filler {
      type: "constant"
      value: 0.2
    }
  }
}
layer {
  name: "conv2/relu_3x3_reduce"
  type: "ReLU"
  bottom: "conv2/3x3_reduce"
  top: "conv2/3x3_reduce"
}
layer {
  name: "conv2/3x3"
  type: "Convolution"
  bottom: "conv2/3x3_reduce"
  top: "conv2/3x3"
  param {
    lr_mult: 1
    decay_mult: 1
  }
  param {
    lr_mult: 2
    decay_mult: 0
  }
  convolution_param {
    num_output: 192
    pad: 1
    kernel_size: 3
    weight_filler {
      type: "xavier"
      std: 0.03
    }
    bias_filler {
      type: "constant"
      value: 0.2
    }
  }
}
layer {
  name: "conv2/relu_3x3"
  type: "ReLU"
  bottom: "conv2/3x3"
  top: "conv2/3x3"
}
layer {
  name: "conv2/norm2"
  type: "LRN"
  bottom: "conv2/3x3"
  top: "conv2/norm2"
  lrn_param {
    local_size: 5
    alpha: 0.0001
    beta: 0.75
  }
}
layer {
  name: "pool2/3x3_s2"
  type: "Pooling"
  bottom: "conv2/norm2"
  top: "pool2/3x3_s2"
  pooling_param {
    pool: MAX
    kernel_size: 3
    stride: 2
  }
}
layer {
  name: "inception_3a/1x1"
  type: "Convolution"
  bottom: "pool2/3x3_s2"
  top: "inception_3a/1x1"
  param {
    lr_mult: 1
    decay_mult: 1
  }
  param {
    lr_mult: 2
    decay_mult: 0
  }
  convolution_param {
    num_output: 64
    kernel_size: 1
    weight_filler {
      type: "xavier"
      std: 0.03
    }
    bias_filler {
      type: "constant"
      value: 0.2
    }
  }
}
layer {
  name: "inception_3a/relu_1x1"
  type: "ReLU"
  bottom: "inception_3a/1x1"
  top: "inception_3a/1x1"
}
layer {
  name: "inception_3a/3x3_reduce"
  type: "Convolution"
  bottom: "pool2/3x3_s2"
  top: "inception_3a/3x3_reduce"
  param {
    lr_mult: 1
    decay_mult: 1
  }
  param {
    lr_mult: 2
    decay_mult: 0
  }
  convolution_param {
    num_output: 96
    kernel_size: 1
    weight_filler {
      type: "xavier"
      std: 0.09
    }
    bias_filler {
      type: "constant"
      value: 0.2
    }
  }
}
layer {
  name: "inception_3a/relu_3x3_reduce"
  type: "ReLU"
  bottom: "inception_3a/3x3_reduce"
  top: "inception_3a/3x3_reduce"
}
layer {
  name: "inception_3a/3x3"
  type: "Convolution"
  bottom: "inception_3a/3x3_reduce"
  top: "inception_3a/3x3"
  param {
    lr_mult: 1
    decay_mult: 1
  }
  param {
    lr_mult: 2
    decay_mult: 0
  }
  convolution_param {
    num_output: 128
    pad: 1
    kernel_size: 3
    weight_filler {
      type: "xavier"
      std: 0.03
    }
    bias_filler {
      type: "constant"
      value: 0.2
    }
  }
}
layer {
  name: "inception_3a/relu_3x3"
  type: "ReLU"
  bottom: "inception_3a/3x3"
  top: "inception_3a/3x3"
}
layer {
  name: "inception_3a/5x5_reduce"
  type: "Convolution"
  bottom: "pool2/3x3_s2"
  top: "inception_3a/5x5_reduce"
  param {
    lr_mult: 1
    decay_mult: 1
  }
  param {
    lr_mult: 2
    decay_mult: 0
  }
  convolution_param {
    num_output: 16
    kernel_size: 1
    weight_filler {
      type: "xavier"
      std: 0.2
    }
    bias_filler {
      type: "constant"
      value: 0.2
    }
  }
}
layer {
  name: "inception_3a/relu_5x5_reduce"
  type: "ReLU"
  bottom: "inception_3a/5x5_reduce"
  top: "inception_3a/5x5_reduce"
}
layer {
  name: "inception_3a/5x5"
  type: "Convolution"
  bottom: "inception_3a/5x5_reduce"
  top: "inception_3a/5x5"
  param {
    lr_mult: 1
    decay_mult: 1
  }
  param {
    lr_mult: 2
    decay_mult: 0
  }
  convolution_param {
    num_output: 32
    pad: 2
    kernel_size: 5
    weight_filler {
      type: "xavier"
      std: 0.03
    }
    bias_filler {
      type: "constant"
      value: 0.2
    }
  }
}
layer {
  name: "inception_3a/relu_5x5"
  type: "ReLU"
  bottom: "inception_3a/5x5"
  top: "inception_3a/5x5"
}
layer {
  name: "inception_3a/pool"
  type: "Pooling"
  bottom: "pool2/3x3_s2"
  top: "inception_3a/pool"
  pooling_param {
    pool: MAX
    kernel_size: 3
    stride: 1
    pad: 1
  }
}
layer {
  name: "inception_3a/pool_proj"
  type: "Convolution"
  bottom: "inception_3a/pool"
  top: "inception_3a/pool_proj"
  param {
    lr_mult: 1
    decay_mult: 1
  }
  param {
    lr_mult: 2
    decay_mult: 0
  }
  convolution_param {
    num_output: 32
    kernel_size: 1
    weight_filler {
      type: "xavier"
      std: 0.1
    }
    bias_filler {
      type: "constant"
      value: 0.2
    }
  }
}
layer {
  name: "inception_3a/relu_pool_proj"
  type: "ReLU"
  bottom: "inception_3a/pool_proj"
  top: "inception_3a/pool_proj"
}
layer {
  name: "inception_3a/output"
  type: "Concat"
  bottom: "inception_3a/1x1"
  bottom: "inception_3a/3x3"
  bottom: "inception_3a/5x5"
  bottom: "inception_3a/pool_proj"
  top: "inception_3a/output"
}
layer {
  name: "inception_3b/1x1"
  type: "Convolution"
  bottom: "inception_3a/output"
  top: "inception_3b/1x1"
  param {
    lr_mult: 1
    decay_mult: 1
  }
  param {
    lr_mult: 2
    decay_mult: 0
  }
  convolution_param {
    num_output: 128
    kernel_size: 1
    weight_filler {
      type: "xavier"
      std: 0.03
    }
    bias_filler {
      type: "constant"
      value: 0.2
    }
  }
}
layer {
  name: "inception_3b/relu_1x1"
  type: "ReLU"
  bottom: "inception_3b/1x1"
  top: "inception_3b/1x1"
}
layer {
  name: "inception_3b/3x3_reduce"
  type: "Convolution"
  bottom: "inception_3a/output"
  top: "inception_3b/3x3_reduce"
  param {
    lr_mult: 1
    decay_mult: 1
  }
  param {
    lr_mult: 2
    decay_mult: 0
  }
  convolution_param {
    num_output: 128
    kernel_size: 1
    weight_filler {
      type: "xavier"
      std: 0.09
    }
    bias_filler {
      type: "constant"
      value: 0.2
    }
  }
}
layer {
  name: "inception_3b/relu_3x3_reduce"
  type: "ReLU"
  bottom: "inception_3b/3x3_reduce"
  top: "inception_3b/3x3_reduce"
}
layer {
  name: "inception_3b/3x3"
  type: "Convolution"
  bottom: "inception_3b/3x3_reduce"
  top: "inception_3b/3x3"
  param {
    lr_mult: 1
    decay_mult: 1
  }
  param {
    lr_mult: 2
    decay_mult: 0
  }
  convolution_param {
    num_output: 192
    pad: 1
    kernel_size: 3
    weight_filler {
      type: "xavier"
      std: 0.03
    }
    bias_filler {
      type: "constant"
      value: 0.2
    }
  }
}
layer {
  name: "inception_3b/relu_3x3"
  type: "ReLU"
  bottom: "inception_3b/3x3"
  top: "inception_3b/3x3"
}
layer {
  name: "inception_3b/5x5_reduce"
  type: "Convolution"
  bottom: "inception_3a/output"
  top: "inception_3b/5x5_reduce"
  param {
    lr_mult: 1
    decay_mult: 1
  }
  param {
    lr_mult: 2
    decay_mult: 0
  }
  convolution_param {
    num_output: 32
    kernel_size: 1
    weight_filler {
      type: "xavier"
      std: 0.2
    }
    bias_filler {
      type: "constant"
      value: 0.2
    }
  }
}
layer {
  name: "inception_3b/relu_5x5_reduce"
  type: "ReLU"
  bottom: "inception_3b/5x5_reduce"
  top: "inception_3b/5x5_reduce"
}
layer {
  name: "inception_3b/5x5"
  type: "Convolution"
  bottom: "inception_3b/5x5_reduce"
  top: "inception_3b/5x5"
  param {
    lr_mult: 1
    decay_mult: 1
  }
  param {
    lr_mult: 2
    decay_mult: 0
  }
  convolution_param {
    num_output: 96
    pad: 2
    kernel_size: 5
    weight_filler {
      type: "xavier"
      std: 0.03
    }
    bias_filler {
      type: "constant"
      value: 0.2
    }
  }
}
layer {
  name: "inception_3b/relu_5x5"
  type: "ReLU"
  bottom: "inception_3b/5x5"
  top: "inception_3b/5x5"
}
layer {
  name: "inception_3b/pool"
  type: "Pooling"
  bottom: "inception_3a/output"
  top: "inception_3b/pool"
  pooling_param {
    pool: MAX
    kernel_size: 3
    stride: 1
    pad: 1
  }
}
layer {
  name: "inception_3b/pool_proj"
  type: "Convolution"
  bottom: "inception_3b/pool"
  top: "inception_3b/pool_proj"
  param {
    lr_mult: 1
    decay_mult: 1
  }
  param {
    lr_mult: 2
    decay_mult: 0
  }
  convolution_param {
    num_output: 64
    kernel_size: 1
    weight_filler {
      type: "xavier"
      std: 0.1
    }
    bias_filler {
      type: "constant"
      value: 0.2
    }
  }
}
layer {
  name: "inception_3b/relu_pool_proj"
  type: "ReLU"
  bottom: "inception_3b/pool_proj"
  top: "inception_3b/pool_proj"
}
layer {
  name: "inception_3b/output"
  type: "Concat"
  bottom: "inception_3b/1x1"
  bottom: "inception_3b/3x3"
  bottom: "inception_3b/5x5"
  bottom: "inception_3b/pool_proj"
  top: "inception_3b/output"
}
layer {
  name: "pool3/3x3_s2"
  type: "Pooling"
  bottom: "inception_3b/output"
  top: "pool3/3x3_s2"
  pooling_param {
    pool: MAX
    kernel_size: 3
    stride: 2
  }
}
layer {
  name: "inception_4a/1x1"
  type: "Convolution"
  bottom: "pool3/3x3_s2"
  top: "inception_4a/1x1"
  param {
    lr_mult: 1
    decay_mult: 1
  }
  param {
    lr_mult: 2
    decay_mult: 0
  }
  convolution_param {
    num_output: 192
    kernel_size: 1
    weight_filler {
      type: "xavier"
      std: 0.03
    }
    bias_filler {
      type: "constant"
      value: 0.2
    }
  }
}
layer {
  name: "inception_4a/relu_1x1"
  type: "ReLU"
  bottom: "inception_4a/1x1"
  top: "inception_4a/1x1"
}
layer {
  name: "inception_4a/3x3_reduce"
  type: "Convolution"
  bottom: "pool3/3x3_s2"
  top: "inception_4a/3x3_reduce"
  param {
    lr_mult: 1
    decay_mult: 1
  }
  param {
    lr_mult: 2
    decay_mult: 0
  }
  convolution_param {
    num_output: 96
    kernel_size: 1
    weight_filler {
      type: "xavier"
      std: 0.09
    }
    bias_filler {
      type: "constant"
      value: 0.2
    }
  }
}
layer {
  name: "inception_4a/relu_3x3_reduce"
  type: "ReLU"
  bottom: "inception_4a/3x3_reduce"
  top: "inception_4a/3x3_reduce"
}
layer {
  name: "inception_4a/3x3"
  type: "Convolution"
  bottom: "inception_4a/3x3_reduce"
  top: "inception_4a/3x3"
  param {
    lr_mult: 1
    decay_mult: 1
  }
  param {
    lr_mult: 2
    decay_mult: 0
  }
  convolution_param {
    num_output: 208
    pad: 1
    kernel_size: 3
    weight_filler {
      type: "xavier"
      std: 0.03
    }
    bias_filler {
      type: "constant"
      value: 0.2
    }
  }
}
layer {
  name: "inception_4a/relu_3x3"
  type: "ReLU"
  bottom: "inception_4a/3x3"
  top: "inception_4a/3x3"
}
layer {
  name: "inception_4a/5x5_reduce"
  type: "Convolution"
  bottom: "pool3/3x3_s2"
  top: "inception_4a/5x5_reduce"
  param {
    lr_mult: 1
    decay_mult: 1
  }
  param {
    lr_mult: 2
    decay_mult: 0
  }
  convolution_param {
    num_output: 16
    kernel_size: 1
    weight_filler {
      type: "xavier"
      std: 0.2
    }
    bias_filler {
      type: "constant"
      value: 0.2
    }
  }
}
layer {
  name: "inception_4a/relu_5x5_reduce"
  type: "ReLU"
  bottom: "inception_4a/5x5_reduce"
  top: "inception_4a/5x5_reduce"
}
layer {
  name: "inception_4a/5x5"
  type: "Convolution"
  bottom: "inception_4a/5x5_reduce"
  top: "inception_4a/5x5"
  param {
    lr_mult: 1
    decay_mult: 1
  }
  param {
    lr_mult: 2
    decay_mult: 0
  }
  convolution_param {
    num_output: 48
    pad: 2
    kernel_size: 5
    weight_filler {
      type: "xavier"
      std: 0.03
    }
    bias_filler {
      type: "constant"
      value: 0.2
    }
  }
}
layer {
  name: "inception_4a/relu_5x5"
  type: "ReLU"
  bottom: "inception_4a/5x5"
  top: "inception_4a/5x5"
}
layer {
  name: "inception_4a/pool"
  type: "Pooling"
  bottom: "pool3/3x3_s2"
  top: "inception_4a/pool"
  pooling_param {
    pool: MAX
    kernel_size: 3
    stride: 1
    pad: 1
  }
}
layer {
  name: "inception_4a/pool_proj"
  type: "Convolution"
  bottom: "inception_4a/pool"
  top: "inception_4a/pool_proj"
  param {
    lr_mult: 1
    decay_mult: 1
  }
  param {
    lr_mult: 2
    decay_mult: 0
  }
  convolution_param {
    num_output: 64
    kernel_size: 1
    weight_filler {
      type: "xavier"
      std: 0.1
    }
    bias_filler {
      type: "constant"
      value: 0.2
    }
  }
}
layer {
  name: "inception_4a/relu_pool_proj"
  type: "ReLU"
  bottom: "inception_4a/pool_proj"
  top: "inception_4a/pool_proj"
}
layer {
  name: "inception_4a/output"
  type: "Concat"
  bottom: "inception_4a/1x1"
  bottom: "inception_4a/3x3"
  bottom: "inception_4a/5x5"
  bottom: "inception_4a/pool_proj"
  top: "inception_4a/output"
}
layer {
  name: "loss1/ave_pool"
  type: "Pooling"
  bottom: "inception_4a/output"
  top: "loss1/ave_pool"
  pooling_param {
    pool: AVE
    kernel_size: 5
    stride: 3
  }
}
layer {
  name: "loss1/conv"
  type: "Convolution"
  bottom: "loss1/ave_pool"
  top: "loss1/conv"
  param {
    lr_mult: 1
    decay_mult: 1
  }
  param {
    lr_mult: 2
    decay_mult: 0
  }
  convolution_param {
    num_output: 128
    kernel_size: 1
    weight_filler {
      type: "xavier"
      std: 0.08
    }
    bias_filler {
      type: "constant"
      value: 0.2
    }
  }
}
layer {
  name: "loss1/relu_conv"
  type: "ReLU"
  bottom: "loss1/conv"
  top: "loss1/conv"
}
layer {
  name: "loss1/fc"
  type: "InnerProduct"
  bottom: "loss1/conv"
  top: "loss1/fc"
  param {
    lr_mult: 1
    decay_mult: 1
  }
  param {
    lr_mult: 2
    decay_mult: 0
  }
  inner_product_param {
    num_output: 1024
    weight_filler {
      type: "xavier"
      std: 0.02
    }
    bias_filler {
      type: "constant"
      value: 0.2
    }
  }
}
layer {
  name: "loss1/relu_fc"
  type: "ReLU"
  bottom: "loss1/fc"
  top: "loss1/fc"
}
layer {
  name: "loss1/drop_fc"
  type: "Dropout"
  bottom: "loss1/fc"
  top: "loss1/fc"
  dropout_param {
    dropout_ratio: 0.7
  }
}
layer {
  name: "loss1/classifier_plantvillage"
  type: "InnerProduct"
  bottom: "loss1/fc"
  top: "loss1/classifier_plantvillage"
  param {
    lr_mult: 1
    decay_mult: 1
  }
  param {
    lr_mult: 2
    decay_mult: 0
  }
  inner_product_param {
    num_output: 38
    weight_filler {
      type: "xavier"
      std: 0.0009765625
    }
    bias_filler {
      type: "constant"
      value: 0
    }
  }
}
layer {
  name: "inception_4b/1x1"
  type: "Convolution"
  bottom: "inception_4a/output"
  top: "inception_4b/1x1"
  param {
    lr_mult: 1
    decay_mult: 1
  }
  param {
    lr_mult: 2
    decay_mult: 0
  }
  convolution_param {
    num_output: 160
    kernel_size: 1
    weight_filler {
      type: "xavier"
      std: 0.03
    }
    bias_filler {
      type: "constant"
      value: 0.2
    }
  }
}
layer {
  name: "inception_4b/relu_1x1"
  type: "ReLU"
  bottom: "inception_4b/1x1"
  top: "inception_4b/1x1"
}
layer {
  name: "inception_4b/3x3_reduce"
  type: "Convolution"
  bottom: "inception_4a/output"
  top: "inception_4b/3x3_reduce"
  param {
    lr_mult: 1
    decay_mult: 1
  }
  param {
    lr_mult: 2
    decay_mult: 0
  }
  convolution_param {
    num_output: 112
    kernel_size: 1
    weight_filler {
      type: "xavier"
      std: 0.09
    }
    bias_filler {
      type: "constant"
      value: 0.2
    }
  }
}
layer {
  name: "inception_4b/relu_3x3_reduce"
  type: "ReLU"
  bottom: "inception_4b/3x3_reduce"
  top: "inception_4b/3x3_reduce"
}
layer {
  name: "inception_4b/3x3"
  type: "Convolution"
  bottom: "inception_4b/3x3_reduce"
  top: "inception_4b/3x3"
  param {
    lr_mult: 1
    decay_mult: 1
  }
  param {
    lr_mult: 2
    decay_mult: 0
  }
  convolution_param {
    num_output: 224
    pad: 1
    kernel_size: 3
    weight_filler {
      type: "xavier"
      std: 0.03
    }
    bias_filler {
      type: "constant"
      value: 0.2
    }
  }
}
layer {
  name: "inception_4b/relu_3x3"
  type: "ReLU"
  bottom: "inception_4b/3x3"
  top: "inception_4b/3x3"
}
layer {
  name: "inception_4b/5x5_reduce"
  type: "Convolution"
  bottom: "inception_4a/output"
  top: "inception_4b/5x5_reduce"
  param {
    lr_mult: 1
    decay_mult: 1
  }
  param {
    lr_mult: 2
    decay_mult: 0
  }
  convolution_param {
    num_output: 24
    kernel_size: 1
    weight_filler {
      type: "xavier"
      std: 0.2
    }
    bias_filler {
      type: "constant"
      value: 0.2
    }
  }
}
layer {
  name: "inception_4b/relu_5x5_reduce"
  type: "ReLU"
  bottom: "inception_4b/5x5_reduce"
  top: "inception_4b/5x5_reduce"
}
layer {
  name: "inception_4b/5x5"
  type: "Convolution"
  bottom: "inception_4b/5x5_reduce"
  top: "inception_4b/5x5"
  param {
    lr_mult: 1
    decay_mult: 1
  }
  param {
    lr_mult: 2
    decay_mult: 0
  }
  convolution_param {
    num_output: 64
    pad: 2
    kernel_size: 5
    weight_filler {
      type: "xavier"
      std: 0.03
    }
    bias_filler {
      type: "constant"
      value: 0.2
    }
  }
}
layer {
  name: "inception_4b/relu_5x5"
  type: "ReLU"
  bottom: "inception_4b/5x5"
  top: "inception_4b/5x5"
}
layer {
  name: "inception_4b/pool"
  type: "Pooling"
  bottom: "inception_4a/output"
  top: "inception_4b/pool"
  pooling_param {
    pool: MAX
    kernel_size: 3
    stride: 1
    pad: 1
  }
}
layer {
  name: "inception_4b/pool_proj"
  type: "Convolution"
  bottom: "inception_4b/pool"
  top: "inception_4b/pool_proj"
  param {
    lr_mult: 1
    decay_mult: 1
  }
  param {
    lr_mult: 2
    decay_mult: 0
  }
  convolution_param {
    num_output: 64
    kernel_size: 1
    weight_filler {
      type: "xavier"
      std: 0.1
    }
    bias_filler {
      type: "constant"
      value: 0.2
    }
  }
}
layer {
  name: "inception_4b/relu_pool_proj"
  type: "ReLU"
  bottom: "inception_4b/pool_proj"
  top: "inception_4b/pool_proj"
}
layer {
  name: "inception_4b/output"
  type: "Concat"
  bottom: "inception_4b/1x1"
  bottom: "inception_4b/3x3"
  bottom: "inception_4b/5x5"
  bottom: "inception_4b/pool_proj"
  top: "inception_4b/output"
}
layer {
  name: "inception_4c/1x1"
  type: "Convolution"
  bottom: "inception_4b/output"
  top: "inception_4c/1x1"
  param {
    lr_mult: 1
    decay_mult: 1
  }
  param {
    lr_mult: 2
    decay_mult: 0
  }
  convolution_param {
    num_output: 128
    kernel_size: 1
    weight_filler {
      type: "xavier"
      std: 0.03
    }
    bias_filler {
      type: "constant"
      value: 0.2
    }
  }
}
layer {
  name: "inception_4c/relu_1x1"
  type: "ReLU"
  bottom: "inception_4c/1x1"
  top: "inception_4c/1x1"
}
layer {
  name: "inception_4c/3x3_reduce"
  type: "Convolution"
  bottom: "inception_4b/output"
  top: "inception_4c/3x3_reduce"
  param {
    lr_mult: 1
    decay_mult: 1
  }
  param {
    lr_mult: 2
    decay_mult: 0
  }
  convolution_param {
    num_output: 128
    kernel_size: 1
    weight_filler {
      type: "xavier"
      std: 0.09
    }
    bias_filler {
      type: "constant"
      value: 0.2
    }
  }
}
layer {
  name: "inception_4c/relu_3x3_reduce"
  type: "ReLU"
  bottom: "inception_4c/3x3_reduce"
  top: "inception_4c/3x3_reduce"
}
layer {
  name: "inception_4c/3x3"
  type: "Convolution"
  bottom: "inception_4c/3x3_reduce"
  top: "inception_4c/3x3"
  param {
    lr_mult: 1
    decay_mult: 1
  }
  param {
    lr_mult: 2
    decay_mult: 0
  }
  convolution_param {
    num_output: 256
    pad: 1
    kernel_size: 3
    weight_filler {
      type: "xavier"
      std: 0.03
    }
    bias_filler {
      type: "constant"
      value: 0.2
    }
  }
}
layer {
  name: "inception_4c/relu_3x3"
  type: "ReLU"
  bottom: "inception_4c/3x3"
  top: "inception_4c/3x3"
}
layer {
  name: "inception_4c/5x5_reduce"
  type: "Convolution"
  bottom: "inception_4b/output"
  top: "inception_4c/5x5_reduce"
  param {
    lr_mult: 1
    decay_mult: 1
  }
  param {
    lr_mult: 2
    decay_mult: 0
  }
  convolution_param {
    num_output: 24
    kernel_size: 1
    weight_filler {
      type: "xavier"
      std: 0.2
    }
    bias_filler {
      type: "constant"
      value: 0.2
    }
  }
}
layer {
  name: "inception_4c/relu_5x5_reduce"
  type: "ReLU"
  bottom: "inception_4c/5x5_reduce"
  top: "inception_4c/5x5_reduce"
}
layer {
  name: "inception_4c/5x5"
  type: "Convolution"
  bottom: "inception_4c/5x5_reduce"
  top: "inception_4c/5x5"
  param {
    lr_mult: 1
    decay_mult: 1
  }
  param {
    lr_mult: 2
    decay_mult: 0
  }
  convolution_param {
    num_output: 64
    pad: 2
    kernel_size: 5
    weight_filler {
      type: "xavier"
      std: 0.03
    }
    bias_filler {
      type: "constant"
      value: 0.2
    }
  }
}
layer {
  name: "inception_4c/relu_5x5"
  type: "ReLU"
  bottom: "inception_4c/5x5"
  top: "inception_4c/5x5"
}
layer {
  name: "inception_4c/pool"
  type: "Pooling"
  bottom: "inception_4b/output"
  top: "inception_4c/pool"
  pooling_param {
    pool: MAX
    kernel_size: 3
    stride: 1
    pad: 1
  }
}
layer {
  name: "inception_4c/pool_proj"
  type: "Convolution"
  bottom: "inception_4c/pool"
  top: "inception_4c/pool_proj"
  param {
    lr_mult: 1
    decay_mult: 1
  }
  param {
    lr_mult: 2
    decay_mult: 0
  }
  convolution_param {
    num_output: 64
    kernel_size: 1
    weight_filler {
      type: "xavier"
      std: 0.1
    }
    bias_filler {
      type: "constant"
      value: 0.2
    }
  }
}
layer {
  name: "inception_4c/relu_pool_proj"
  type: "ReLU"
  bottom: "inception_4c/pool_proj"
  top: "inception_4c/pool_proj"
}
layer {
  name: "inception_4c/output"
  type: "Concat"
  bottom: "inception_4c/1x1"
  bottom: "inception_4c/3x3"
  bottom: "inception_4c/5x5"
  bottom: "inception_4c/pool_proj"
  top: "inception_4c/output"
}
layer {
  name: "inception_4d/1x1"
  type: "Convolution"
  bottom: "inception_4c/output"
  top: "inception_4d/1x1"
  param {
    lr_mult: 1
    decay_mult: 1
  }
  param {
    lr_mult: 2
    decay_mult: 0
  }
  convolution_param {
    num_output: 112
    kernel_size: 1
    weight_filler {
      type: "xavier"
      std: 0.03
    }
    bias_filler {
      type: "constant"
      value: 0.2
    }
  }
}
layer {
  name: "inception_4d/relu_1x1"
  type: "ReLU"
  bottom: "inception_4d/1x1"
  top: "inception_4d/1x1"
}
layer {
  name: "inception_4d/3x3_reduce"
  type: "Convolution"
  bottom: "inception_4c/output"
  top: "inception_4d/3x3_reduce"
  param {
    lr_mult: 1
    decay_mult: 1
  }
  param {
    lr_mult: 2
    decay_mult: 0
  }
  convolution_param {
    num_output: 144
    kernel_size: 1
    weight_filler {
      type: "xavier"
      std: 0.09
    }
    bias_filler {
      type: "constant"
      value: 0.2
    }
  }
}
layer {
  name: "inception_4d/relu_3x3_reduce"
  type: "ReLU"
  bottom: "inception_4d/3x3_reduce"
  top: "inception_4d/3x3_reduce"
}
layer {
  name: "inception_4d/3x3"
  type: "Convolution"
  bottom: "inception_4d/3x3_reduce"
  top: "inception_4d/3x3"
  param {
    lr_mult: 1
    decay_mult: 1
  }
  param {
    lr_mult: 2
    decay_mult: 0
  }
  convolution_param {
    num_output: 288
    pad: 1
    kernel_size: 3
    weight_filler {
      type: "xavier"
      std: 0.03
    }
    bias_filler {
      type: "constant"
      value: 0.2
    }
  }
}
layer {
  name: "inception_4d/relu_3x3"
  type: "ReLU"
  bottom: "inception_4d/3x3"
  top: "inception_4d/3x3"
}
layer {
  name: "inception_4d/5x5_reduce"
  type: "Convolution"
  bottom: "inception_4c/output"
  top: "inception_4d/5x5_reduce"
  param {
    lr_mult: 1
    decay_mult: 1
  }
  param {
    lr_mult: 2
    decay_mult: 0
  }
  convolution_param {
    num_output: 32
    kernel_size: 1
    weight_filler {
      type: "xavier"
      std: 0.2
    }
    bias_filler {
      type: "constant"
      value: 0.2
    }
  }
}
layer {
  name: "inception_4d/relu_5x5_reduce"
  type: "ReLU"
  bottom: "inception_4d/5x5_reduce"
  top: "inception_4d/5x5_reduce"
}
layer {
  name: "inception_4d/5x5"
  type: "Convolution"
  bottom: "inception_4d/5x5_reduce"
  top: "inception_4d/5x5"
  param {
    lr_mult: 1
    decay_mult: 1
  }
  param {
    lr_mult: 2
    decay_mult: 0
  }
  convolution_param {
    num_output: 64
    pad: 2
    kernel_size: 5
    weight_filler {
      type: "xavier"
      std: 0.03
    }
    bias_filler {
      type: "constant"
      value: 0.2
    }
  }
}
layer {
  name: "inception_4d/relu_5x5"
  type: "ReLU"
  bottom: "inception_4d/5x5"
  top: "inception_4d/5x5"
}
layer {
  name: "inception_4d/pool"
  type: "Pooling"
  bottom: "inception_4c/output"
  top: "inception_4d/pool"
  pooling_param {
    pool: MAX
    kernel_size: 3
    stride: 1
    pad: 1
  }
}
layer {
  name: "inception_4d/pool_proj"
  type: "Convolution"
  bottom: "inception_4d/pool"
  top: "inception_4d/pool_proj"
  param {
    lr_mult: 1
    decay_mult: 1
  }
  param {
    lr_mult: 2
    decay_mult: 0
  }
  convolution_param {
    num_output: 64
    kernel_size: 1
    weight_filler {
      type: "xavier"
      std: 0.1
    }
    bias_filler {
      type: "constant"
      value: 0.2
    }
  }
}
layer {
  name: "inception_4d/relu_pool_proj"
  type: "ReLU"
  bottom: "inception_4d/pool_proj"
  top: "inception_4d/pool_proj"
}
layer {
  name: "inception_4d/output"
  type: "Concat"
  bottom: "inception_4d/1x1"
  bottom: "inception_4d/3x3"
  bottom: "inception_4d/5x5"
  bottom: "inception_4d/pool_proj"
  top: "inception_4d/output"
}
layer {
  name: "loss2/ave_pool"
  type: "Pooling"
  bottom: "inception_4d/output"
  top: "loss2/ave_pool"
  pooling_param {
    pool: AVE
    kernel_size: 5
    stride: 3
  }
}
layer {
  name: "loss2/conv"
  type: "Convolution"
  bottom: "loss2/ave_pool"
  top: "loss2/conv"
  param {
    lr_mult: 1
    decay_mult: 1
  }
  param {
    lr_mult: 2
    decay_mult: 0
  }
  convolution_param {
    num_output: 128
    kernel_size: 1
    weight_filler {
      type: "xavier"
      std: 0.08
    }
    bias_filler {
      type: "constant"
      value: 0.2
    }
  }
}
layer {
  name: "loss2/relu_conv"
  type: "ReLU"
  bottom: "loss2/conv"
  top: "loss2/conv"
}
layer {
  name: "loss2/fc"
  type: "InnerProduct"
  bottom: "loss2/conv"
  top: "loss2/fc"
  param {
    lr_mult: 1
    decay_mult: 1
  }
  param {
    lr_mult: 2
    decay_mult: 0
  }
  inner_product_param {
    num_output: 1024
    weight_filler {
      type: "xavier"
      std: 0.02
    }
    bias_filler {
      type: "constant"
      value: 0.2
    }
  }
}
layer {
  name: "loss2/relu_fc"
  type: "ReLU"
  bottom: "loss2/fc"
  top: "loss2/fc"
}
layer {
  name: "loss2/drop_fc"
  type: "Dropout"
  bottom: "loss2/fc"
  top: "loss2/fc"
  dropout_param {
    dropout_ratio: 0.7
  }
}
layer {
  name: "loss2/classifier_plantvillage"
  type: "InnerProduct"
  bottom: "loss2/fc"
  top: "loss2/classifier_plantvillage"
  param {
    lr_mult: 1
    decay_mult: 1
  }
  param {
    lr_mult: 2
    decay_mult: 0
  }
  inner_product_param {
    num_output: 38
    weight_filler {
      type: "xavier"
      std: 0.0009765625
    }
    bias_filler {
      type: "constant"
      value: 0
    }
  }
}
layer {
  name: "inception_4e/1x1"
  type: "Convolution"
  bottom: "inception_4d/output"
  top: "inception_4e/1x1"
  param {
    lr_mult: 1
    decay_mult: 1
  }
  param {
    lr_mult: 2
    decay_mult: 0
  }
  convolution_param {
    num_output: 256
    kernel_size: 1
    weight_filler {
      type: "xavier"
      std: 0.03
    }
    bias_filler {
      type: "constant"
      value: 0.2
    }
  }
}
layer {
  name: "inception_4e/relu_1x1"
  type: "ReLU"
  bottom: "inception_4e/1x1"
  top: "inception_4e/1x1"
}
layer {
  name: "inception_4e/3x3_reduce"
  type: "Convolution"
  bottom: "inception_4d/output"
  top: "inception_4e/3x3_reduce"
  param {
    lr_mult: 1
    decay_mult: 1
  }
  param {
    lr_mult: 2
    decay_mult: 0
  }
  convolution_param {
    num_output: 160
    kernel_size: 1
    weight_filler {
      type: "xavier"
      std: 0.09
    }
    bias_filler {
      type: "constant"
      value: 0.2
    }
  }
}
layer {
  name: "inception_4e/relu_3x3_reduce"
  type: "ReLU"
  bottom: "inception_4e/3x3_reduce"
  top: "inception_4e/3x3_reduce"
}
layer {
  name: "inception_4e/3x3"
  type: "Convolution"
  bottom: "inception_4e/3x3_reduce"
  top: "inception_4e/3x3"
  param {
    lr_mult: 1
    decay_mult: 1
  }
  param {
    lr_mult: 2
    decay_mult: 0
  }
  convolution_param {
    num_output: 320
    pad: 1
    kernel_size: 3
    weight_filler {
      type: "xavier"
      std: 0.03
    }
    bias_filler {
      type: "constant"
      value: 0.2
    }
  }
}
layer {
  name: "inception_4e/relu_3x3"
  type: "ReLU"
  bottom: "inception_4e/3x3"
  top: "inception_4e/3x3"
}
layer {
  name: "inception_4e/5x5_reduce"
  type: "Convolution"
  bottom: "inception_4d/output"
  top: "inception_4e/5x5_reduce"
  param {
    lr_mult: 1
    decay_mult: 1
  }
  param {
    lr_mult: 2
    decay_mult: 0
  }
  convolution_param {
    num_output: 32
    kernel_size: 1
    weight_filler {
      type: "xavier"
      std: 0.2
    }
    bias_filler {
      type: "constant"
      value: 0.2
    }
  }
}
layer {
  name: "inception_4e/relu_5x5_reduce"
  type: "ReLU"
  bottom: "inception_4e/5x5_reduce"
  top: "inception_4e/5x5_reduce"
}
layer {
  name: "inception_4e/5x5"
  type: "Convolution"
  bottom: "inception_4e/5x5_reduce"
  top: "inception_4e/5x5"
  p
I0403 16:50:02.668627 19673 layer_factory.hpp:77] Creating layer data
I0403 16:50:02.669339 19673 net.cpp:91] Creating Layer data
I0403 16:50:02.669375 19673 net.cpp:399] data -> data
I0403 16:50:02.669437 19673 net.cpp:399] data -> label
I0403 16:50:02.669482 19673 data_transformer.cpp:25] Loading mean file from: /home/mohanty/data/final_dataset/lmdb/color-20-80/mean.binaryproto
I0403 16:50:02.670788 19679 db_lmdb.cpp:38] Opened lmdb /home/mohanty/data/final_dataset/lmdb/color-20-80/test_db
I0403 16:50:02.685044 19673 data_layer.cpp:41] output data size: 24,3,224,224
I0403 16:50:02.716893 19673 net.cpp:141] Setting up data
I0403 16:50:02.717025 19673 net.cpp:148] Top shape: 24 3 224 224 (3612672)
I0403 16:50:02.717058 19673 net.cpp:148] Top shape: 24 (24)
I0403 16:50:02.717080 19673 net.cpp:156] Memory required for data: 14450784
I0403 16:50:02.717114 19673 layer_factory.hpp:77] Creating layer label_data_1_split
I0403 16:50:02.717164 19673 net.cpp:91] Creating Layer label_data_1_split
I0403 16:50:02.717190 19673 net.cpp:425] label_data_1_split <- label
I0403 16:50:02.717236 19673 net.cpp:399] label_data_1_split -> label_data_1_split_0
I0403 16:50:02.717281 19673 net.cpp:399] label_data_1_split -> label_data_1_split_1
I0403 16:50:02.717311 19673 net.cpp:399] label_data_1_split -> label_data_1_split_2
I0403 16:50:02.717342 19673 net.cpp:399] label_data_1_split -> label_data_1_split_3
I0403 16:50:02.717370 19673 net.cpp:399] label_data_1_split -> label_data_1_split_4
I0403 16:50:02.717393 19673 net.cpp:399] label_data_1_split -> label_data_1_split_5
I0403 16:50:02.717429 19673 net.cpp:399] label_data_1_split -> label_data_1_split_6
I0403 16:50:02.717456 19673 net.cpp:399] label_data_1_split -> label_data_1_split_7
I0403 16:50:02.717485 19673 net.cpp:399] label_data_1_split -> label_data_1_split_8
I0403 16:50:02.717511 19673 net.cpp:399] label_data_1_split -> label_data_1_split_9
I0403 16:50:02.717694 19673 net.cpp:141] Setting up label_data_1_split
I0403 16:50:02.717738 19673 net.cpp:148] Top shape: 24 (24)
I0403 16:50:02.717767 19673 net.cpp:148] Top shape: 24 (24)
I0403 16:50:02.717787 19673 net.cpp:148] Top shape: 24 (24)
I0403 16:50:02.717808 19673 net.cpp:148] Top shape: 24 (24)
I0403 16:50:02.717828 19673 net.cpp:148] Top shape: 24 (24)
I0403 16:50:02.717847 19673 net.cpp:148] Top shape: 24 (24)
I0403 16:50:02.717897 19673 net.cpp:148] Top shape: 24 (24)
I0403 16:50:02.717922 19673 net.cpp:148] Top shape: 24 (24)
I0403 16:50:02.717942 19673 net.cpp:148] Top shape: 24 (24)
I0403 16:50:02.717963 19673 net.cpp:148] Top shape: 24 (24)
I0403 16:50:02.718010 19673 net.cpp:156] Memory required for data: 14451744
I0403 16:50:02.718030 19673 layer_factory.hpp:77] Creating layer conv1/7x7_s2
I0403 16:50:02.718113 19673 net.cpp:91] Creating Layer conv1/7x7_s2
I0403 16:50:02.718148 19673 net.cpp:425] conv1/7x7_s2 <- data
I0403 16:50:02.718199 19673 net.cpp:399] conv1/7x7_s2 -> conv1/7x7_s2
I0403 16:50:02.884305 19673 net.cpp:141] Setting up conv1/7x7_s2
I0403 16:50:02.884392 19673 net.cpp:148] Top shape: 24 64 112 112 (19267584)
I0403 16:50:02.884413 19673 net.cpp:156] Memory required for data: 91522080
I0403 16:50:02.884450 19673 layer_factory.hpp:77] Creating layer conv1/relu_7x7
I0403 16:50:02.884482 19673 net.cpp:91] Creating Layer conv1/relu_7x7
I0403 16:50:02.884506 19673 net.cpp:425] conv1/relu_7x7 <- conv1/7x7_s2
I0403 16:50:02.884528 19673 net.cpp:386] conv1/relu_7x7 -> conv1/7x7_s2 (in-place)
I0403 16:50:02.884884 19673 net.cpp:141] Setting up conv1/relu_7x7
I0403 16:50:02.884918 19673 net.cpp:148] Top shape: 24 64 112 112 (19267584)
I0403 16:50:02.884938 19673 net.cpp:156] Memory required for data: 168592416
I0403 16:50:02.884956 19673 layer_factory.hpp:77] Creating layer pool1/3x3_s2
I0403 16:50:02.884987 19673 net.cpp:91] Creating Layer pool1/3x3_s2
I0403 16:50:02.885010 19673 net.cpp:425] pool1/3x3_s2 <- conv1/7x7_s2
I0403 16:50:02.885032 19673 net.cpp:399] pool1/3x3_s2 -> pool1/3x3_s2
I0403 16:50:02.885120 19673 net.cpp:141] Setting up pool1/3x3_s2
I0403 16:50:02.885150 19673 net.cpp:148] Top shape: 24 64 56 56 (4816896)
I0403 16:50:02.885169 19673 net.cpp:156] Memory required for data: 187860000
I0403 16:50:02.885186 19673 layer_factory.hpp:77] Creating layer pool1/norm1
I0403 16:50:02.885216 19673 net.cpp:91] Creating Layer pool1/norm1
I0403 16:50:02.885238 19673 net.cpp:425] pool1/norm1 <- pool1/3x3_s2
I0403 16:50:02.885262 19673 net.cpp:399] pool1/norm1 -> pool1/norm1
I0403 16:50:02.885682 19673 net.cpp:141] Setting up pool1/norm1
I0403 16:50:02.885716 19673 net.cpp:148] Top shape: 24 64 56 56 (4816896)
I0403 16:50:02.885736 19673 net.cpp:156] Memory required for data: 207127584
I0403 16:50:02.885754 19673 layer_factory.hpp:77] Creating layer conv2/3x3_reduce
I0403 16:50:02.885784 19673 net.cpp:91] Creating Layer conv2/3x3_reduce
I0403 16:50:02.885805 19673 net.cpp:425] conv2/3x3_reduce <- pool1/norm1
I0403 16:50:02.885828 19673 net.cpp:399] conv2/3x3_reduce -> conv2/3x3_reduce
I0403 16:50:02.887374 19673 net.cpp:141] Setting up conv2/3x3_reduce
I0403 16:50:02.887410 19673 net.cpp:148] Top shape: 24 64 56 56 (4816896)
I0403 16:50:02.887431 19673 net.cpp:156] Memory required for data: 226395168
I0403 16:50:02.887459 19673 layer_factory.hpp:77] Creating layer conv2/relu_3x3_reduce
I0403 16:50:02.887482 19673 net.cpp:91] Creating Layer conv2/relu_3x3_reduce
I0403 16:50:02.887501 19673 net.cpp:425] conv2/relu_3x3_reduce <- conv2/3x3_reduce
I0403 16:50:02.887522 19673 net.cpp:386] conv2/relu_3x3_reduce -> conv2/3x3_reduce (in-place)
I0403 16:50:02.887827 19673 net.cpp:141] Setting up conv2/relu_3x3_reduce
I0403 16:50:02.887862 19673 net.cpp:148] Top shape: 24 64 56 56 (4816896)
I0403 16:50:02.887881 19673 net.cpp:156] Memory required for data: 245662752
I0403 16:50:02.887899 19673 layer_factory.hpp:77] Creating layer conv2/3x3
I0403 16:50:02.887926 19673 net.cpp:91] Creating Layer conv2/3x3
I0403 16:50:02.887948 19673 net.cpp:425] conv2/3x3 <- conv2/3x3_reduce
I0403 16:50:02.887971 19673 net.cpp:399] conv2/3x3 -> conv2/3x3
I0403 16:50:02.890627 19673 net.cpp:141] Setting up conv2/3x3
I0403 16:50:02.890666 19673 net.cpp:148] Top shape: 24 192 56 56 (14450688)
I0403 16:50:02.890686 19673 net.cpp:156] Memory required for data: 303465504
I0403 16:50:02.890712 19673 layer_factory.hpp:77] Creating layer conv2/relu_3x3
I0403 16:50:02.890734 19673 net.cpp:91] Creating Layer conv2/relu_3x3
I0403 16:50:02.890754 19673 net.cpp:425] conv2/relu_3x3 <- conv2/3x3
I0403 16:50:02.890774 19673 net.cpp:386] conv2/relu_3x3 -> conv2/3x3 (in-place)
I0403 16:50:02.890969 19673 net.cpp:141] Setting up conv2/relu_3x3
I0403 16:50:02.891000 19673 net.cpp:148] Top shape: 24 192 56 56 (14450688)
I0403 16:50:02.891054 19673 net.cpp:156] Memory required for data: 361268256
I0403 16:50:02.891074 19673 layer_factory.hpp:77] Creating layer conv2/norm2
I0403 16:50:02.891098 19673 net.cpp:91] Creating Layer conv2/norm2
I0403 16:50:02.891115 19673 net.cpp:425] conv2/norm2 <- conv2/3x3
I0403 16:50:02.891139 19673 net.cpp:399] conv2/norm2 -> conv2/norm2
I0403 16:50:02.891476 19673 net.cpp:141] Setting up conv2/norm2
I0403 16:50:02.891510 19673 net.cpp:148] Top shape: 24 192 56 56 (14450688)
I0403 16:50:02.891530 19673 net.cpp:156] Memory required for data: 419071008
I0403 16:50:02.891551 19673 layer_factory.hpp:77] Creating layer pool2/3x3_s2
I0403 16:50:02.891578 19673 net.cpp:91] Creating Layer pool2/3x3_s2
I0403 16:50:02.891599 19673 net.cpp:425] pool2/3x3_s2 <- conv2/norm2
I0403 16:50:02.891621 19673 net.cpp:399] pool2/3x3_s2 -> pool2/3x3_s2
I0403 16:50:02.891682 19673 net.cpp:141] Setting up pool2/3x3_s2
I0403 16:50:02.891711 19673 net.cpp:148] Top shape: 24 192 28 28 (3612672)
I0403 16:50:02.891729 19673 net.cpp:156] Memory required for data: 433521696
I0403 16:50:02.891747 19673 layer_factory.hpp:77] Creating layer pool2/3x3_s2_pool2/3x3_s2_0_split
I0403 16:50:02.891769 19673 net.cpp:91] Creating Layer pool2/3x3_s2_pool2/3x3_s2_0_split
I0403 16:50:02.891788 19673 net.cpp:425] pool2/3x3_s2_pool2/3x3_s2_0_split <- pool2/3x3_s2
I0403 16:50:02.891809 19673 net.cpp:399] pool2/3x3_s2_pool2/3x3_s2_0_split -> pool2/3x3_s2_pool2/3x3_s2_0_split_0
I0403 16:50:02.891834 19673 net.cpp:399] pool2/3x3_s2_pool2/3x3_s2_0_split -> pool2/3x3_s2_pool2/3x3_s2_0_split_1
I0403 16:50:02.891857 19673 net.cpp:399] pool2/3x3_s2_pool2/3x3_s2_0_split -> pool2/3x3_s2_pool2/3x3_s2_0_split_2
I0403 16:50:02.891880 19673 net.cpp:399] pool2/3x3_s2_pool2/3x3_s2_0_split -> pool2/3x3_s2_pool2/3x3_s2_0_split_3
I0403 16:50:02.891958 19673 net.cpp:141] Setting up pool2/3x3_s2_pool2/3x3_s2_0_split
I0403 16:50:02.891986 19673 net.cpp:148] Top shape: 24 192 28 28 (3612672)
I0403 16:50:02.892006 19673 net.cpp:148] Top shape: 24 192 28 28 (3612672)
I0403 16:50:02.892027 19673 net.cpp:148] Top shape: 24 192 28 28 (3612672)
I0403 16:50:02.892047 19673 net.cpp:148] Top shape: 24 192 28 28 (3612672)
I0403 16:50:02.892065 19673 net.cpp:156] Memory required for data: 491324448
I0403 16:50:02.892082 19673 layer_factory.hpp:77] Creating layer inception_3a/1x1
I0403 16:50:02.892108 19673 net.cpp:91] Creating Layer inception_3a/1x1
I0403 16:50:02.892127 19673 net.cpp:425] inception_3a/1x1 <- pool2/3x3_s2_pool2/3x3_s2_0_split_0
I0403 16:50:02.892150 19673 net.cpp:399] inception_3a/1x1 -> inception_3a/1x1
I0403 16:50:02.893940 19673 net.cpp:141] Setting up inception_3a/1x1
I0403 16:50:02.893980 19673 net.cpp:148] Top shape: 24 64 28 28 (1204224)
I0403 16:50:02.894001 19673 net.cpp:156] Memory required for data: 496141344
I0403 16:50:02.894024 19673 layer_factory.hpp:77] Creating layer inception_3a/relu_1x1
I0403 16:50:02.894048 19673 net.cpp:91] Creating Layer inception_3a/relu_1x1
I0403 16:50:02.894068 19673 net.cpp:425] inception_3a/relu_1x1 <- inception_3a/1x1
I0403 16:50:02.894090 19673 net.cpp:386] inception_3a/relu_1x1 -> inception_3a/1x1 (in-place)
I0403 16:50:02.894309 19673 net.cpp:141] Setting up inception_3a/relu_1x1
I0403 16:50:02.894342 19673 net.cpp:148] Top shape: 24 64 28 28 (1204224)
I0403 16:50:02.894361 19673 net.cpp:156] Memory required for data: 500958240
I0403 16:50:02.894379 19673 layer_factory.hpp:77] Creating layer inception_3a/3x3_reduce
I0403 16:50:02.894407 19673 net.cpp:91] Creating Layer inception_3a/3x3_reduce
I0403 16:50:02.894429 19673 net.cpp:425] inception_3a/3x3_reduce <- pool2/3x3_s2_pool2/3x3_s2_0_split_1
I0403 16:50:02.894455 19673 net.cpp:399] inception_3a/3x3_reduce -> inception_3a/3x3_reduce
I0403 16:50:02.896464 19673 net.cpp:141] Setting up inception_3a/3x3_reduce
I0403 16:50:02.896500 19673 net.cpp:148] Top shape: 24 96 28 28 (1806336)
I0403 16:50:02.896520 19673 net.cpp:156] Memory required for data: 508183584
I0403 16:50:02.896549 19673 layer_factory.hpp:77] Creating layer inception_3a/relu_3x3_reduce
I0403 16:50:02.896607 19673 net.cpp:91] Creating Layer inception_3a/relu_3x3_reduce
I0403 16:50:02.896631 19673 net.cpp:425] inception_3a/relu_3x3_reduce <- inception_3a/3x3_reduce
I0403 16:50:02.896656 19673 net.cpp:386] inception_3a/relu_3x3_reduce -> inception_3a/3x3_reduce (in-place)
I0403 16:50:02.896879 19673 net.cpp:141] Setting up inception_3a/relu_3x3_reduce
I0403 16:50:02.896911 19673 net.cpp:148] Top shape: 24 96 28 28 (1806336)
I0403 16:50:02.896930 19673 net.cpp:156] Memory required for data: 515408928
I0403 16:50:02.896950 19673 layer_factory.hpp:77] Creating layer inception_3a/3x3
I0403 16:50:02.896980 19673 net.cpp:91] Creating Layer inception_3a/3x3
I0403 16:50:02.897004 19673 net.cpp:425] inception_3a/3x3 <- inception_3a/3x3_reduce
I0403 16:50:02.897029 19673 net.cpp:399] inception_3a/3x3 -> inception_3a/3x3
I0403 16:50:02.899031 19673 net.cpp:141] Setting up inception_3a/3x3
I0403 16:50:02.899068 19673 net.cpp:148] Top shape: 24 128 28 28 (2408448)
I0403 16:50:02.899090 19673 net.cpp:156] Memory required for data: 525042720
I0403 16:50:02.899112 19673 layer_factory.hpp:77] Creating layer inception_3a/relu_3x3
I0403 16:50:02.899135 19673 net.cpp:91] Creating Layer inception_3a/relu_3x3
I0403 16:50:02.899154 19673 net.cpp:425] inception_3a/relu_3x3 <- inception_3a/3x3
I0403 16:50:02.899179 19673 net.cpp:386] inception_3a/relu_3x3 -> inception_3a/3x3 (in-place)
I0403 16:50:02.899507 19673 net.cpp:141] Setting up inception_3a/relu_3x3
I0403 16:50:02.899541 19673 net.cpp:148] Top shape: 24 128 28 28 (2408448)
I0403 16:50:02.899560 19673 net.cpp:156] Memory required for data: 534676512
I0403 16:50:02.899585 19673 layer_factory.hpp:77] Creating layer inception_3a/5x5_reduce
I0403 16:50:02.899615 19673 net.cpp:91] Creating Layer inception_3a/5x5_reduce
I0403 16:50:02.899636 19673 net.cpp:425] inception_3a/5x5_reduce <- pool2/3x3_s2_pool2/3x3_s2_0_split_2
I0403 16:50:02.899662 19673 net.cpp:399] inception_3a/5x5_reduce -> inception_3a/5x5_reduce
I0403 16:50:02.900837 19673 net.cpp:141] Setting up inception_3a/5x5_reduce
I0403 16:50:02.900872 19673 net.cpp:148] Top shape: 24 16 28 28 (301056)
I0403 16:50:02.900892 19673 net.cpp:156] Memory required for data: 535880736
I0403 16:50:02.900915 19673 layer_factory.hpp:77] Creating layer inception_3a/relu_5x5_reduce
I0403 16:50:02.900938 19673 net.cpp:91] Creating Layer inception_3a/relu_5x5_reduce
I0403 16:50:02.900957 19673 net.cpp:425] inception_3a/relu_5x5_reduce <- inception_3a/5x5_reduce
I0403 16:50:02.900981 19673 net.cpp:386] inception_3a/relu_5x5_reduce -> inception_3a/5x5_reduce (in-place)
I0403 16:50:02.901334 19673 net.cpp:141] Setting up inception_3a/relu_5x5_reduce
I0403 16:50:02.901366 19673 net.cpp:148] Top shape: 24 16 28 28 (301056)
I0403 16:50:02.901386 19673 net.cpp:156] Memory required for data: 537084960
I0403 16:50:02.901403 19673 layer_factory.hpp:77] Creating layer inception_3a/5x5
I0403 16:50:02.901434 19673 net.cpp:91] Creating Layer inception_3a/5x5
I0403 16:50:02.901458 19673 net.cpp:425] inception_3a/5x5 <- inception_3a/5x5_reduce
I0403 16:50:02.901484 19673 net.cpp:399] inception_3a/5x5 -> inception_3a/5x5
I0403 16:50:02.902724 19673 net.cpp:141] Setting up inception_3a/5x5
I0403 16:50:02.902763 19673 net.cpp:148] Top shape: 24 32 28 28 (602112)
I0403 16:50:02.902784 19673 net.cpp:156] Memory required for data: 539493408
I0403 16:50:02.902807 19673 layer_factory.hpp:77] Creating layer inception_3a/relu_5x5
I0403 16:50:02.902829 19673 net.cpp:91] Creating Layer inception_3a/relu_5x5
I0403 16:50:02.902848 19673 net.cpp:425] inception_3a/relu_5x5 <- inception_3a/5x5
I0403 16:50:02.902869 19673 net.cpp:386] inception_3a/relu_5x5 -> inception_3a/5x5 (in-place)
I0403 16:50:02.903082 19673 net.cpp:141] Setting up inception_3a/relu_5x5
I0403 16:50:02.903115 19673 net.cpp:148] Top shape: 24 32 28 28 (602112)
I0403 16:50:02.903133 19673 net.cpp:156] Memory required for data: 541901856
I0403 16:50:02.903152 19673 layer_factory.hpp:77] Creating layer inception_3a/pool
I0403 16:50:02.903174 19673 net.cpp:91] Creating Layer inception_3a/pool
I0403 16:50:02.903193 19673 net.cpp:425] inception_3a/pool <- pool2/3x3_s2_pool2/3x3_s2_0_split_3
I0403 16:50:02.903235 19673 net.cpp:399] inception_3a/pool -> inception_3a/pool
I0403 16:50:02.903308 19673 net.cpp:141] Setting up inception_3a/pool
I0403 16:50:02.903340 19673 net.cpp:148] Top shape: 24 192 28 28 (3612672)
I0403 16:50:02.903360 19673 net.cpp:156] Memory required for data: 556352544
I0403 16:50:02.903378 19673 layer_factory.hpp:77] Creating layer inception_3a/pool_proj
I0403 16:50:02.903404 19673 net.cpp:91] Creating Layer inception_3a/pool_proj
I0403 16:50:02.903426 19673 net.cpp:425] inception_3a/pool_proj <- inception_3a/pool
I0403 16:50:02.903450 19673 net.cpp:399] inception_3a/pool_proj -> inception_3a/pool_proj
I0403 16:50:02.904651 19673 net.cpp:141] Setting up inception_3a/pool_proj
I0403 16:50:02.904686 19673 net.cpp:148] Top shape: 24 32 28 28 (602112)
I0403 16:50:02.904706 19673 net.cpp:156] Memory required for data: 558760992
I0403 16:50:02.904733 19673 layer_factory.hpp:77] Creating layer inception_3a/relu_pool_proj
I0403 16:50:02.904758 19673 net.cpp:91] Creating Layer inception_3a/relu_pool_proj
I0403 16:50:02.904778 19673 net.cpp:425] inception_3a/relu_pool_proj <- inception_3a/pool_proj
I0403 16:50:02.904803 19673 net.cpp:386] inception_3a/relu_pool_proj -> inception_3a/pool_proj (in-place)
I0403 16:50:02.905128 19673 net.cpp:141] Setting up inception_3a/relu_pool_proj
I0403 16:50:02.905164 19673 net.cpp:148] Top shape: 24 32 28 28 (602112)
I0403 16:50:02.905184 19673 net.cpp:156] Memory required for data: 561169440
I0403 16:50:02.905202 19673 layer_factory.hpp:77] Creating layer inception_3a/output
I0403 16:50:02.905225 19673 net.cpp:91] Creating Layer inception_3a/output
I0403 16:50:02.905243 19673 net.cpp:425] inception_3a/output <- inception_3a/1x1
I0403 16:50:02.905264 19673 net.cpp:425] inception_3a/output <- inception_3a/3x3
I0403 16:50:02.905283 19673 net.cpp:425] inception_3a/output <- inception_3a/5x5
I0403 16:50:02.905303 19673 net.cpp:425] inception_3a/output <- inception_3a/pool_proj
I0403 16:50:02.905323 19673 net.cpp:399] inception_3a/output -> inception_3a/output
I0403 16:50:02.905385 19673 net.cpp:141] Setting up inception_3a/output
I0403 16:50:02.905414 19673 net.cpp:148] Top shape: 24 256 28 28 (4816896)
I0403 16:50:02.905433 19673 net.cpp:156] Memory required for data: 580437024
I0403 16:50:02.905452 19673 layer_factory.hpp:77] Creating layer inception_3a/output_inception_3a/output_0_split
I0403 16:50:02.905477 19673 net.cpp:91] Creating Layer inception_3a/output_inception_3a/output_0_split
I0403 16:50:02.905494 19673 net.cpp:425] inception_3a/output_inception_3a/output_0_split <- inception_3a/output
I0403 16:50:02.905516 19673 net.cpp:399] inception_3a/output_inception_3a/output_0_split -> inception_3a/output_inception_3a/output_0_split_0
I0403 16:50:02.905540 19673 net.cpp:399] inception_3a/output_inception_3a/output_0_split -> inception_3a/output_inception_3a/output_0_split_1
I0403 16:50:02.905575 19673 net.cpp:399] inception_3a/output_inception_3a/output_0_split -> inception_3a/output_inception_3a/output_0_split_2
I0403 16:50:02.905606 19673 net.cpp:399] inception_3a/output_inception_3a/output_0_split -> inception_3a/output_inception_3a/output_0_split_3
I0403 16:50:02.905697 19673 net.cpp:141] Setting up inception_3a/output_inception_3a/output_0_split
I0403 16:50:02.905726 19673 net.cpp:148] Top shape: 24 256 28 28 (4816896)
I0403 16:50:02.905747 19673 net.cpp:148] Top shape: 24 256 28 28 (4816896)
I0403 16:50:02.905766 19673 net.cpp:148] Top shape: 24 256 28 28 (4816896)
I0403 16:50:02.905786 19673 net.cpp:148] Top shape: 24 256 28 28 (4816896)
I0403 16:50:02.905804 19673 net.cpp:156] Memory required for data: 657507360
I0403 16:50:02.905822 19673 layer_factory.hpp:77] Creating layer inception_3b/1x1
I0403 16:50:02.905851 19673 net.cpp:91] Creating Layer inception_3b/1x1
I0403 16:50:02.905874 19673 net.cpp:425] inception_3b/1x1 <- inception_3a/output_inception_3a/output_0_split_0
I0403 16:50:02.905897 19673 net.cpp:399] inception_3b/1x1 -> inception_3b/1x1
I0403 16:50:02.907270 19673 net.cpp:141] Setting up inception_3b/1x1
I0403 16:50:02.907320 19673 net.cpp:148] Top shape: 24 128 28 28 (2408448)
I0403 16:50:02.907341 19673 net.cpp:156] Memory required for data: 667141152
I0403 16:50:02.907363 19673 layer_factory.hpp:77] Creating layer inception_3b/relu_1x1
I0403 16:50:02.907388 19673 net.cpp:91] Creating Layer inception_3b/relu_1x1
I0403 16:50:02.907409 19673 net.cpp:425] inception_3b/relu_1x1 <- inception_3b/1x1
I0403 16:50:02.907431 19673 net.cpp:386] inception_3b/relu_1x1 -> inception_3b/1x1 (in-place)
I0403 16:50:02.907663 19673 net.cpp:141] Setting up inception_3b/relu_1x1
I0403 16:50:02.907696 19673 net.cpp:148] Top shape: 24 128 28 28 (2408448)
I0403 16:50:02.907714 19673 net.cpp:156] Memory required for data: 676774944
I0403 16:50:02.907732 19673 layer_factory.hpp:77] Creating layer inception_3b/3x3_reduce
I0403 16:50:02.907759 19673 net.cpp:91] Creating Layer inception_3b/3x3_reduce
I0403 16:50:02.907781 19673 net.cpp:425] inception_3b/3x3_reduce <- inception_3a/output_inception_3a/output_0_split_1
I0403 16:50:02.907809 19673 net.cpp:399] inception_3b/3x3_reduce -> inception_3b/3x3_reduce
I0403 16:50:02.909183 19673 net.cpp:141] Setting up inception_3b/3x3_reduce
I0403 16:50:02.909219 19673 net.cpp:148] Top shape: 24 128 28 28 (2408448)
I0403 16:50:02.909237 19673 net.cpp:156] Memory required for data: 686408736
I0403 16:50:02.909260 19673 layer_factory.hpp:77] Creating layer inception_3b/relu_3x3_reduce
I0403 16:50:02.909287 19673 net.cpp:91] Creating Layer inception_3b/relu_3x3_reduce
I0403 16:50:02.909308 19673 net.cpp:425] inception_3b/relu_3x3_reduce <- inception_3b/3x3_reduce
I0403 16:50:02.909330 19673 net.cpp:386] inception_3b/relu_3x3_reduce -> inception_3b/3x3_reduce (in-place)
I0403 16:50:02.909536 19673 net.cpp:141] Setting up inception_3b/relu_3x3_reduce
I0403 16:50:02.909579 19673 net.cpp:148] Top shape: 24 128 28 28 (2408448)
I0403 16:50:02.909600 19673 net.cpp:156] Memory required for data: 696042528
I0403 16:50:02.909618 19673 layer_factory.hpp:77] Creating layer inception_3b/3x3
I0403 16:50:02.909648 19673 net.cpp:91] Creating Layer inception_3b/3x3
I0403 16:50:02.909672 19673 net.cpp:425] inception_3b/3x3 <- inception_3b/3x3_reduce
I0403 16:50:02.909698 19673 net.cpp:399] inception_3b/3x3 -> inception_3b/3x3
I0403 16:50:02.913203 19673 net.cpp:141] Setting up inception_3b/3x3
I0403 16:50:02.913242 19673 net.cpp:148] Top shape: 24 192 28 28 (3612672)
I0403 16:50:02.913262 19673 net.cpp:156] Memory required for data: 710493216
I0403 16:50:02.913285 19673 layer_factory.hpp:77] Creating layer inception_3b/relu_3x3
I0403 16:50:02.913308 19673 net.cpp:91] Creating Layer inception_3b/relu_3x3
I0403 16:50:02.913329 19673 net.cpp:425] inception_3b/relu_3x3 <- inception_3b/3x3
I0403 16:50:02.913353 19673 net.cpp:386] inception_3b/relu_3x3 -> inception_3b/3x3 (in-place)
I0403 16:50:02.913686 19673 net.cpp:141] Setting up inception_3b/relu_3x3
I0403 16:50:02.913720 19673 net.cpp:148] Top shape: 24 192 28 28 (3612672)
I0403 16:50:02.913738 19673 net.cpp:156] Memory required for data: 724943904
I0403 16:50:02.913758 19673 layer_factory.hpp:77] Creating layer inception_3b/5x5_reduce
I0403 16:50:02.913785 19673 net.cpp:91] Creating Layer inception_3b/5x5_reduce
I0403 16:50:02.913807 19673 net.cpp:425] inception_3b/5x5_reduce <- inception_3a/output_inception_3a/output_0_split_2
I0403 16:50:02.913836 19673 net.cpp:399] inception_3b/5x5_reduce -> inception_3b/5x5_reduce
I0403 16:50:02.915045 19673 net.cpp:141] Setting up inception_3b/5x5_reduce
I0403 16:50:02.915081 19673 net.cpp:148] Top shape: 24 32 28 28 (602112)
I0403 16:50:02.915102 19673 net.cpp:156] Memory required for data: 727352352
I0403 16:50:02.915125 19673 layer_factory.hpp:77] Creating layer inception_3b/relu_5x5_reduce
I0403 16:50:02.915148 19673 net.cpp:91] Creating Layer inception_3b/relu_5x5_reduce
I0403 16:50:02.915168 19673 net.cpp:425] inception_3b/relu_5x5_reduce <- inception_3b/5x5_reduce
I0403 16:50:02.915189 19673 net.cpp:386] inception_3b/relu_5x5_reduce -> inception_3b/5x5_reduce (in-place)
I0403 16:50:02.915410 19673 net.cpp:141] Setting up inception_3b/relu_5x5_reduce
I0403 16:50:02.915455 19673 net.cpp:148] Top shape: 24 32 28 28 (602112)
I0403 16:50:02.915475 19673 net.cpp:156] Memory required for data: 729760800
I0403 16:50:02.915494 19673 layer_factory.hpp:77] Creating layer inception_3b/5x5
I0403 16:50:02.915523 19673 net.cpp:91] Creating Layer inception_3b/5x5
I0403 16:50:02.915544 19673 net.cpp:425] inception_3b/5x5 <- inception_3b/5x5_reduce
I0403 16:50:02.915570 19673 net.cpp:399] inception_3b/5x5 -> inception_3b/5x5
I0403 16:50:02.917944 19673 net.cpp:141] Setting up inception_3b/5x5
I0403 16:50:02.917981 19673 net.cpp:148] Top shape: 24 96 28 28 (1806336)
I0403 16:50:02.918000 19673 net.cpp:156] Memory required for data: 736986144
I0403 16:50:02.918022 19673 layer_factory.hpp:77] Creating layer inception_3b/relu_5x5
I0403 16:50:02.918047 19673 net.cpp:91] Creating Layer inception_3b/relu_5x5
I0403 16:50:02.918068 19673 net.cpp:425] inception_3b/relu_5x5 <- inception_3b/5x5
I0403 16:50:02.918090 19673 net.cpp:386] inception_3b/relu_5x5 -> inception_3b/5x5 (in-place)
I0403 16:50:02.918324 19673 net.cpp:141] Setting up inception_3b/relu_5x5
I0403 16:50:02.918356 19673 net.cpp:148] Top shape: 24 96 28 28 (1806336)
I0403 16:50:02.918375 19673 net.cpp:156] Memory required for data: 744211488
I0403 16:50:02.918392 19673 layer_factory.hpp:77] Creating layer inception_3b/pool
I0403 16:50:02.918414 19673 net.cpp:91] Creating Layer inception_3b/pool
I0403 16:50:02.918434 19673 net.cpp:425] inception_3b/pool <- inception_3a/output_inception_3a/output_0_split_3
I0403 16:50:02.918457 19673 net.cpp:399] inception_3b/pool -> inception_3b/pool
I0403 16:50:02.918524 19673 net.cpp:141] Setting up inception_3b/pool
I0403 16:50:02.918555 19673 net.cpp:148] Top shape: 24 256 28 28 (4816896)
I0403 16:50:02.918576 19673 net.cpp:156] Memory required for data: 763479072
I0403 16:50:02.918596 19673 layer_factory.hpp:77] Creating layer inception_3b/pool_proj
I0403 16:50:02.918624 19673 net.cpp:91] Creating Layer inception_3b/pool_proj
I0403 16:50:02.918647 19673 net.cpp:425] inception_3b/pool_proj <- inception_3b/pool
I0403 16:50:02.918673 19673 net.cpp:399] inception_3b/pool_proj -> inception_3b/pool_proj
I0403 16:50:02.919953 19673 net.cpp:141] Setting up inception_3b/pool_proj
I0403 16:50:02.919988 19673 net.cpp:148] Top shape: 24 64 28 28 (1204224)
I0403 16:50:02.920008 19673 net.cpp:156] Memory required for data: 768295968
I0403 16:50:02.920030 19673 layer_factory.hpp:77] Creating layer inception_3b/relu_pool_proj
I0403 16:50:02.920058 19673 net.cpp:91] Creating Layer inception_3b/relu_pool_proj
I0403 16:50:02.920078 19673 net.cpp:425] inception_3b/relu_pool_proj <- inception_3b/pool_proj
I0403 16:50:02.920101 19673 net.cpp:386] inception_3b/relu_pool_proj -> inception_3b/pool_proj (in-place)
I0403 16:50:02.920562 19673 net.cpp:141] Setting up inception_3b/relu_pool_proj
I0403 16:50:02.920609 19673 net.cpp:148] Top shape: 24 64 28 28 (1204224)
I0403 16:50:02.920629 19673 net.cpp:156] Memory required for data: 773112864
I0403 16:50:02.920647 19673 layer_factory.hpp:77] Creating layer inception_3b/output
I0403 16:50:02.920670 19673 net.cpp:91] Creating Layer inception_3b/output
I0403 16:50:02.920688 19673 net.cpp:425] inception_3b/output <- inception_3b/1x1
I0403 16:50:02.920709 19673 net.cpp:425] inception_3b/output <- inception_3b/3x3
I0403 16:50:02.920728 19673 net.cpp:425] inception_3b/output <- inception_3b/5x5
I0403 16:50:02.920747 19673 net.cpp:425] inception_3b/output <- inception_3b/pool_proj
I0403 16:50:02.920771 19673 net.cpp:399] inception_3b/output -> inception_3b/output
I0403 16:50:02.920825 19673 net.cpp:141] Setting up inception_3b/output
I0403 16:50:02.920856 19673 net.cpp:148] Top shape: 24 480 28 28 (9031680)
I0403 16:50:02.920886 19673 net.cpp:156] Memory required for data: 809239584
I0403 16:50:02.920903 19673 layer_factory.hpp:77] Creating layer pool3/3x3_s2
I0403 16:50:02.920925 19673 net.cpp:91] Creating Layer pool3/3x3_s2
I0403 16:50:02.920944 19673 net.cpp:425] pool3/3x3_s2 <- inception_3b/output
I0403 16:50:02.920966 19673 net.cpp:399] pool3/3x3_s2 -> pool3/3x3_s2
I0403 16:50:02.921056 19673 net.cpp:141] Setting up pool3/3x3_s2
I0403 16:50:02.921087 19673 net.cpp:148] Top shape: 24 480 14 14 (2257920)
I0403 16:50:02.921104 19673 net.cpp:156] Memory required for data: 818271264
I0403 16:50:02.921121 19673 layer_factory.hpp:77] Creating layer pool3/3x3_s2_pool3/3x3_s2_0_split
I0403 16:50:02.921142 19673 net.cpp:91] Creating Layer pool3/3x3_s2_pool3/3x3_s2_0_split
I0403 16:50:02.921161 19673 net.cpp:425] pool3/3x3_s2_pool3/3x3_s2_0_split <- pool3/3x3_s2
I0403 16:50:02.921185 19673 net.cpp:399] pool3/3x3_s2_pool3/3x3_s2_0_split -> pool3/3x3_s2_pool3/3x3_s2_0_split_0
I0403 16:50:02.921211 19673 net.cpp:399] pool3/3x3_s2_pool3/3x3_s2_0_split -> pool3/3x3_s2_pool3/3x3_s2_0_split_1
I0403 16:50:02.921236 19673 net.cpp:399] pool3/3x3_s2_pool3/3x3_s2_0_split -> pool3/3x3_s2_pool3/3x3_s2_0_split_2
I0403 16:50:02.921262 19673 net.cpp:399] pool3/3x3_s2_pool3/3x3_s2_0_split -> pool3/3x3_s2_pool3/3x3_s2_0_split_3
I0403 16:50:02.921356 19673 net.cpp:141] Setting up pool3/3x3_s2_pool3/3x3_s2_0_split
I0403 16:50:02.921386 19673 net.cpp:148] Top shape: 24 480 14 14 (2257920)
I0403 16:50:02.921406 19673 net.cpp:148] Top shape: 24 480 14 14 (2257920)
I0403 16:50:02.921425 19673 net.cpp:148] Top shape: 24 480 14 14 (2257920)
I0403 16:50:02.921444 19673 net.cpp:148] Top shape: 24 480 14 14 (2257920)
I0403 16:50:02.921461 19673 net.cpp:156] Memory required for data: 854397984
I0403 16:50:02.921478 19673 layer_factory.hpp:77] Creating layer inception_4a/1x1
I0403 16:50:02.921506 19673 net.cpp:91] Creating Layer inception_4a/1x1
I0403 16:50:02.921527 19673 net.cpp:425] inception_4a/1x1 <- pool3/3x3_s2_pool3/3x3_s2_0_split_0
I0403 16:50:02.921555 19673 net.cpp:399] inception_4a/1x1 -> inception_4a/1x1
I0403 16:50:02.923465 19673 net.cpp:141] Setting up inception_4a/1x1
I0403 16:50:02.923499 19673 net.cpp:148] Top shape: 24 192 14 14 (903168)
I0403 16:50:02.923519 19673 net.cpp:156] Memory required for data: 858010656
I0403 16:50:02.923540 19673 layer_factory.hpp:77] Creating layer inception_4a/relu_1x1
I0403 16:50:02.923566 19673 net.cpp:91] Creating Layer inception_4a/relu_1x1
I0403 16:50:02.923593 19673 net.cpp:425] inception_4a/relu_1x1 <- inception_4a/1x1
I0403 16:50:02.923615 19673 net.cpp:386] inception_4a/relu_1x1 -> inception_4a/1x1 (in-place)
I0403 16:50:02.923835 19673 net.cpp:141] Setting up inception_4a/relu_1x1
I0403 16:50:02.923866 19673 net.cpp:148] Top shape: 24 192 14 14 (903168)
I0403 16:50:02.923885 19673 net.cpp:156] Memory required for data: 861623328
I0403 16:50:02.923902 19673 layer_factory.hpp:77] Creating layer inception_4a/3x3_reduce
I0403 16:50:02.923943 19673 net.cpp:91] Creating Layer inception_4a/3x3_reduce
I0403 16:50:02.923965 19673 net.cpp:425] inception_4a/3x3_reduce <- pool3/3x3_s2_pool3/3x3_s2_0_split_1
I0403 16:50:02.923990 19673 net.cpp:399] inception_4a/3x3_reduce -> inception_4a/3x3_reduce
I0403 16:50:02.925537 19673 net.cpp:141] Setting up inception_4a/3x3_reduce
I0403 16:50:02.925576 19673 net.cpp:148] Top shape: 24 96 14 14 (451584)
I0403 16:50:02.925598 19673 net.cpp:156] Memory required for data: 863429664
I0403 16:50:02.925627 19673 layer_factory.hpp:77] Creating layer inception_4a/relu_3x3_reduce
I0403 16:50:02.925653 19673 net.cpp:91] Creating Layer inception_4a/relu_3x3_reduce
I0403 16:50:02.925674 19673 net.cpp:425] inception_4a/relu_3x3_reduce <- inception_4a/3x3_reduce
I0403 16:50:02.925700 19673 net.cpp:386] inception_4a/relu_3x3_reduce -> inception_4a/3x3_reduce (in-place)
I0403 16:50:02.925918 19673 net.cpp:141] Setting up inception_4a/relu_3x3_reduce
I0403 16:50:02.925950 19673 net.cpp:148] Top shape: 24 96 14 14 (451584)
I0403 16:50:02.925967 19673 net.cpp:156] Memory required for data: 865236000
I0403 16:50:02.925987 19673 layer_factory.hpp:77] Creating layer inception_4a/3x3
I0403 16:50:02.926013 19673 net.cpp:91] Creating Layer inception_4a/3x3
I0403 16:50:02.926036 19673 net.cpp:425] inception_4a/3x3 <- inception_4a/3x3_reduce
I0403 16:50:02.926060 19673 net.cpp:399] inception_4a/3x3 -> inception_4a/3x3
I0403 16:50:02.929306 19673 net.cpp:141] Setting up inception_4a/3x3
I0403 16:50:02.929345 19673 net.cpp:148] Top shape: 24 208 14 14 (978432)
I0403 16:50:02.929366 19673 net.cpp:156] Memory required for data: 869149728
I0403 16:50:02.929389 19673 layer_factory.hpp:77] Creating layer inception_4a/relu_3x3
I0403 16:50:02.929412 19673 net.cpp:91] Creating Layer inception_4a/relu_3x3
I0403 16:50:02.929432 19673 net.cpp:425] inception_4a/relu_3x3 <- inception_4a/3x3
I0403 16:50:02.929453 19673 net.cpp:386] inception_4a/relu_3x3 -> inception_4a/3x3 (in-place)
I0403 16:50:02.929792 19673 net.cpp:141] Setting up inception_4a/relu_3x3
I0403 16:50:02.929828 19673 net.cpp:148] Top shape: 24 208 14 14 (978432)
I0403 16:50:02.929848 19673 net.cpp:156] Memory required for data: 873063456
I0403 16:50:02.929867 19673 layer_factory.hpp:77] Creating layer inception_4a/5x5_reduce
I0403 16:50:02.929893 19673 net.cpp:91] Creating Layer inception_4a/5x5_reduce
I0403 16:50:02.929913 19673 net.cpp:425] inception_4a/5x5_reduce <- pool3/3x3_s2_pool3/3x3_s2_0_split_2
I0403 16:50:02.929939 19673 net.cpp:399] inception_4a/5x5_reduce -> inception_4a/5x5_reduce
I0403 16:50:02.931187 19673 net.cpp:141] Setting up inception_4a/5x5_reduce
I0403 16:50:02.931224 19673 net.cpp:148] Top shape: 24 16 14 14 (75264)
I0403 16:50:02.931246 19673 net.cpp:156] Memory required for data: 873364512
I0403 16:50:02.931269 19673 layer_factory.hpp:77] Creating layer inception_4a/relu_5x5_reduce
I0403 16:50:02.931291 19673 net.cpp:91] Creating Layer inception_4a/relu_5x5_reduce
I0403 16:50:02.931310 19673 net.cpp:425] inception_4a/relu_5x5_reduce <- inception_4a/5x5_reduce
I0403 16:50:02.931332 19673 net.cpp:386] inception_4a/relu_5x5_reduce -> inception_4a/5x5_reduce (in-place)
I0403 16:50:02.931556 19673 net.cpp:141] Setting up inception_4a/relu_5x5_reduce
I0403 16:50:02.931592 19673 net.cpp:148] Top shape: 24 16 14 14 (75264)
I0403 16:50:02.931612 19673 net.cpp:156] Memory required for data: 873665568
I0403 16:50:02.931630 19673 layer_factory.hpp:77] Creating layer inception_4a/5x5
I0403 16:50:02.931658 19673 net.cpp:91] Creating Layer inception_4a/5x5
I0403 16:50:02.931679 19673 net.cpp:425] inception_4a/5x5 <- inception_4a/5x5_reduce
I0403 16:50:02.931705 19673 net.cpp:399] inception_4a/5x5 -> inception_4a/5x5
I0403 16:50:02.933040 19673 net.cpp:141] Setting up inception_4a/5x5
I0403 16:50:02.933075 19673 net.cpp:148] Top shape: 24 48 14 14 (225792)
I0403 16:50:02.933095 19673 net.cpp:156] Memory required for data: 874568736
I0403 16:50:02.933118 19673 layer_factory.hpp:77] Creating layer inception_4a/relu_5x5
I0403 16:50:02.933141 19673 net.cpp:91] Creating Layer inception_4a/relu_5x5
I0403 16:50:02.933162 19673 net.cpp:425] inception_4a/relu_5x5 <- inception_4a/5x5
I0403 16:50:02.933187 19673 net.cpp:386] inception_4a/relu_5x5 -> inception_4a/5x5 (in-place)
I0403 16:50:02.933404 19673 net.cpp:141] Setting up inception_4a/relu_5x5
I0403 16:50:02.933435 19673 net.cpp:148] Top shape: 24 48 14 14 (225792)
I0403 16:50:02.933454 19673 net.cpp:156] Memory required for data: 875471904
I0403 16:50:02.933472 19673 layer_factory.hpp:77] Creating layer inception_4a/pool
I0403 16:50:02.933496 19673 net.cpp:91] Creating Layer inception_4a/pool
I0403 16:50:02.933518 19673 net.cpp:425] inception_4a/pool <- pool3/3x3_s2_pool3/3x3_s2_0_split_3
I0403 16:50:02.933540 19673 net.cpp:399] inception_4a/pool -> inception_4a/pool
I0403 16:50:02.933622 19673 net.cpp:141] Setting up inception_4a/pool
I0403 16:50:02.933652 19673 net.cpp:148] Top shape: 24 480 14 14 (2257920)
I0403 16:50:02.933670 19673 net.cpp:156] Memory required for data: 884503584
I0403 16:50:02.933688 19673 layer_factory.hpp:77] Creating layer inception_4a/pool_proj
I0403 16:50:02.933717 19673 net.cpp:91] Creating Layer inception_4a/pool_proj
I0403 16:50:02.933738 19673 net.cpp:425] inception_4a/pool_proj <- inception_4a/pool
I0403 16:50:02.933765 19673 net.cpp:399] inception_4a/pool_proj -> inception_4a/pool_proj
I0403 16:50:02.935207 19673 net.cpp:141] Setting up inception_4a/pool_proj
I0403 16:50:02.935243 19673 net.cpp:148] Top shape: 24 64 14 14 (301056)
I0403 16:50:02.935281 19673 net.cpp:156] Memory required for data: 885707808
I0403 16:50:02.935305 19673 layer_factory.hpp:77] Creating layer inception_4a/relu_pool_proj
I0403 16:50:02.935330 19673 net.cpp:91] Creating Layer inception_4a/relu_pool_proj
I0403 16:50:02.935353 19673 net.cpp:425] inception_4a/relu_pool_proj <- inception_4a/pool_proj
I0403 16:50:02.935375 19673 net.cpp:386] inception_4a/relu_pool_proj -> inception_4a/pool_proj (in-place)
I0403 16:50:02.935720 19673 net.cpp:141] Setting up inception_4a/relu_pool_proj
I0403 16:50:02.935752 19673 net.cpp:148] Top shape: 24 64 14 14 (301056)
I0403 16:50:02.935771 19673 net.cpp:156] Memory required for data: 886912032
I0403 16:50:02.935791 19673 layer_factory.hpp:77] Creating layer inception_4a/output
I0403 16:50:02.935811 19673 net.cpp:91] Creating Layer inception_4a/output
I0403 16:50:02.935830 19673 net.cpp:425] inception_4a/output <- inception_4a/1x1
I0403 16:50:02.935850 19673 net.cpp:425] inception_4a/output <- inception_4a/3x3
I0403 16:50:02.935870 19673 net.cpp:425] inception_4a/output <- inception_4a/5x5
I0403 16:50:02.935890 19673 net.cpp:425] inception_4a/output <- inception_4a/pool_proj
I0403 16:50:02.935915 19673 net.cpp:399] inception_4a/output -> inception_4a/output
I0403 16:50:02.935973 19673 net.cpp:141] Setting up inception_4a/output
I0403 16:50:02.936003 19673 net.cpp:148] Top shape: 24 512 14 14 (2408448)
I0403 16:50:02.936022 19673 net.cpp:156] Memory required for data: 896545824
I0403 16:50:02.936039 19673 layer_factory.hpp:77] Creating layer inception_4a/output_inception_4a/output_0_split
I0403 16:50:02.936061 19673 net.cpp:91] Creating Layer inception_4a/output_inception_4a/output_0_split
I0403 16:50:02.936080 19673 net.cpp:425] inception_4a/output_inception_4a/output_0_split <- inception_4a/output
I0403 16:50:02.936105 19673 net.cpp:399] inception_4a/output_inception_4a/output_0_split -> inception_4a/output_inception_4a/output_0_split_0
I0403 16:50:02.936132 19673 net.cpp:399] inception_4a/output_inception_4a/output_0_split -> inception_4a/output_inception_4a/output_0_split_1
I0403 16:50:02.936157 19673 net.cpp:399] inception_4a/output_inception_4a/output_0_split -> inception_4a/output_inception_4a/output_0_split_2
I0403 16:50:02.936183 19673 net.cpp:399] inception_4a/output_inception_4a/output_0_split -> inception_4a/output_inception_4a/output_0_split_3
I0403 16:50:02.936208 19673 net.cpp:399] inception_4a/output_inception_4a/output_0_split -> inception_4a/output_inception_4a/output_0_split_4
I0403 16:50:02.936322 19673 net.cpp:141] Setting up inception_4a/output_inception_4a/output_0_split
I0403 16:50:02.936354 19673 net.cpp:148] Top shape: 24 512 14 14 (2408448)
I0403 16:50:02.936377 19673 net.cpp:148] Top shape: 24 512 14 14 (2408448)
I0403 16:50:02.936396 19673 net.cpp:148] Top shape: 24 512 14 14 (2408448)
I0403 16:50:02.936416 19673 net.cpp:148] Top shape: 24 512 14 14 (2408448)
I0403 16:50:02.936436 19673 net.cpp:148] Top shape: 24 512 14 14 (2408448)
I0403 16:50:02.936455 19673 net.cpp:156] Memory required for data: 944714784
I0403 16:50:02.936471 19673 layer_factory.hpp:77] Creating layer loss1/ave_pool
I0403 16:50:02.936493 19673 net.cpp:91] Creating Layer loss1/ave_pool
I0403 16:50:02.936513 19673 net.cpp:425] loss1/ave_pool <- inception_4a/output_inception_4a/output_0_split_0
I0403 16:50:02.936538 19673 net.cpp:399] loss1/ave_pool -> loss1/ave_pool
I0403 16:50:02.936796 19673 net.cpp:141] Setting up loss1/ave_pool
I0403 16:50:02.936828 19673 net.cpp:148] Top shape: 24 512 4 4 (196608)
I0403 16:50:02.936847 19673 net.cpp:156] Memory required for data: 945501216
I0403 16:50:02.936871 19673 layer_factory.hpp:77] Creating layer loss1/conv
I0403 16:50:02.936898 19673 net.cpp:91] Creating Layer loss1/conv
I0403 16:50:02.936919 19673 net.cpp:425] loss1/conv <- loss1/ave_pool
I0403 16:50:02.936946 19673 net.cpp:399] loss1/conv -> loss1/conv
I0403 16:50:02.938666 19673 net.cpp:141] Setting up loss1/conv
I0403 16:50:02.938704 19673 net.cpp:148] Top shape: 24 128 4 4 (49152)
I0403 16:50:02.938724 19673 net.cpp:156] Memory required for data: 945697824
I0403 16:50:02.938766 19673 layer_factory.hpp:77] Creating layer loss1/relu_conv
I0403 16:50:02.938789 19673 net.cpp:91] Creating Layer loss1/relu_conv
I0403 16:50:02.938810 19673 net.cpp:425] loss1/relu_conv <- loss1/conv
I0403 16:50:02.938832 19673 net.cpp:386] loss1/relu_conv -> loss1/conv (in-place)
I0403 16:50:02.939172 19673 net.cpp:141] Setting up loss1/relu_conv
I0403 16:50:02.939209 19673 net.cpp:148] Top shape: 24 128 4 4 (49152)
I0403 16:50:02.939229 19673 net.cpp:156] Memory required for data: 945894432
I0403 16:50:02.939249 19673 layer_factory.hpp:77] Creating layer loss1/fc
I0403 16:50:02.939275 19673 net.cpp:91] Creating Layer loss1/fc
I0403 16:50:02.939297 19673 net.cpp:425] loss1/fc <- loss1/conv
I0403 16:50:02.939323 19673 net.cpp:399] loss1/fc -> loss1/fc
I0403 16:50:02.961256 19673 net.cpp:141] Setting up loss1/fc
I0403 16:50:02.961298 19673 net.cpp:148] Top shape: 24 1024 (24576)
I0403 16:50:02.961319 19673 net.cpp:156] Memory required for data: 945992736
I0403 16:50:02.961343 19673 layer_factory.hpp:77] Creating layer loss1/relu_fc
I0403 16:50:02.961369 19673 net.cpp:91] Creating Layer loss1/relu_fc
I0403 16:50:02.961390 19673 net.cpp:425] loss1/relu_fc <- loss1/fc
I0403 16:50:02.961411 19673 net.cpp:386] loss1/relu_fc -> loss1/fc (in-place)
I0403 16:50:02.961664 19673 net.cpp:141] Setting up loss1/relu_fc
I0403 16:50:02.961696 19673 net.cpp:148] Top shape: 24 1024 (24576)
I0403 16:50:02.961715 19673 net.cpp:156] Memory required for data: 946091040
I0403 16:50:02.961733 19673 layer_factory.hpp:77] Creating layer loss1/drop_fc
I0403 16:50:02.961767 19673 net.cpp:91] Creating Layer loss1/drop_fc
I0403 16:50:02.961799 19673 net.cpp:425] loss1/drop_fc <- loss1/fc
I0403 16:50:02.961822 19673 net.cpp:386] loss1/drop_fc -> loss1/fc (in-place)
I0403 16:50:02.961896 19673 net.cpp:141] Setting up loss1/drop_fc
I0403 16:50:02.961925 19673 net.cpp:148] Top shape: 24 1024 (24576)
I0403 16:50:02.961943 19673 net.cpp:156] Memory required for data: 946189344
I0403 16:50:02.961962 19673 layer_factory.hpp:77] Creating layer loss1/classifier_plantvillage
I0403 16:50:02.961985 19673 net.cpp:91] Creating Layer loss1/classifier_plantvillage
I0403 16:50:02.962004 19673 net.cpp:425] loss1/classifier_plantvillage <- loss1/fc
I0403 16:50:02.962031 19673 net.cpp:399] loss1/classifier_plantvillage -> loss1/classifier_plantvillage
I0403 16:50:02.963136 19673 net.cpp:141] Setting up loss1/classifier_plantvillage
I0403 16:50:02.963184 19673 net.cpp:148] Top shape: 24 38 (912)
I0403 16:50:02.963206 19673 net.cpp:156] Memory required for data: 946192992
I0403 16:50:02.963228 19673 layer_factory.hpp:77] Creating layer loss1/classifier_plantvillage_loss1/classifier_plantvillage_0_split
I0403 16:50:02.963250 19673 net.cpp:91] Creating Layer loss1/classifier_plantvillage_loss1/classifier_plantvillage_0_split
I0403 16:50:02.963269 19673 net.cpp:425] loss1/classifier_plantvillage_loss1/classifier_plantvillage_0_split <- loss1/classifier_plantvillage
I0403 16:50:02.963292 19673 net.cpp:399] loss1/classifier_plantvillage_loss1/classifier_plantvillage_0_split -> loss1/classifier_plantvillage_loss1/classifier_plantvillage_0_split_0
I0403 16:50:02.963317 19673 net.cpp:399] loss1/classifier_plantvillage_loss1/classifier_plantvillage_0_split -> loss1/classifier_plantvillage_loss1/classifier_plantvillage_0_split_1
I0403 16:50:02.963341 19673 net.cpp:399] loss1/classifier_plantvillage_loss1/classifier_plantvillage_0_split -> loss1/classifier_plantvillage_loss1/classifier_plantvillage_0_split_2
I0403 16:50:02.963423 19673 net.cpp:141] Setting up loss1/classifier_plantvillage_loss1/classifier_plantvillage_0_split
I0403 16:50:02.963452 19673 net.cpp:148] Top shape: 24 38 (912)
I0403 16:50:02.963472 19673 net.cpp:148] Top shape: 24 38 (912)
I0403 16:50:02.963491 19673 net.cpp:148] Top shape: 24 38 (912)
I0403 16:50:02.963508 19673 net.cpp:156] Memory required for data: 946203936
I0403 16:50:02.963526 19673 layer_factory.hpp:77] Creating layer inception_4b/1x1
I0403 16:50:02.963551 19673 net.cpp:91] Creating Layer inception_4b/1x1
I0403 16:50:02.963598 19673 net.cpp:425] inception_4b/1x1 <- inception_4a/output_inception_4a/output_0_split_1
I0403 16:50:02.963626 19673 net.cpp:399] inception_4b/1x1 -> inception_4b/1x1
I0403 16:50:02.965694 19673 net.cpp:141] Setting up inception_4b/1x1
I0403 16:50:02.965734 19673 net.cpp:148] Top shape: 24 160 14 14 (752640)
I0403 16:50:02.965755 19673 net.cpp:156] Memory required for data: 949214496
I0403 16:50:02.965777 19673 layer_factory.hpp:77] Creating layer inception_4b/relu_1x1
I0403 16:50:02.965800 19673 net.cpp:91] Creating Layer inception_4b/relu_1x1
I0403 16:50:02.965826 19673 net.cpp:425] inception_4b/relu_1x1 <- inception_4b/1x1
I0403 16:50:02.965847 19673 net.cpp:386] inception_4b/relu_1x1 -> inception_4b/1x1 (in-place)
I0403 16:50:02.966073 19673 net.cpp:141] Setting up inception_4b/relu_1x1
I0403 16:50:02.966115 19673 net.cpp:148] Top shape: 24 160 14 14 (752640)
I0403 16:50:02.966135 19673 net.cpp:156] Memory required for data: 952225056
I0403 16:50:02.966152 19673 layer_factory.hpp:77] Creating layer inception_4b/3x3_reduce
I0403 16:50:02.966187 19673 net.cpp:91] Creating Layer inception_4b/3x3_reduce
I0403 16:50:02.966208 19673 net.cpp:425] inception_4b/3x3_reduce <- inception_4a/output_inception_4a/output_0_split_2
I0403 16:50:02.966235 19673 net.cpp:399] inception_4b/3x3_reduce -> inception_4b/3x3_reduce
I0403 16:50:02.967912 19673 net.cpp:141] Setting up inception_4b/3x3_reduce
I0403 16:50:02.967952 19673 net.cpp:148] Top shape: 24 112 14 14 (526848)
I0403 16:50:02.967973 19673 net.cpp:156] Memory required for data: 954332448
I0403 16:50:02.967995 19673 layer_factory.hpp:77] Creating layer inception_4b/relu_3x3_reduce
I0403 16:50:02.968019 19673 net.cpp:91] Creating Layer inception_4b/relu_3x3_reduce
I0403 16:50:02.968040 19673 net.cpp:425] inception_4b/relu_3x3_reduce <- inception_4b/3x3_reduce
I0403 16:50:02.968065 19673 net.cpp:386] inception_4b/relu_3x3_reduce -> inception_4b/3x3_reduce (in-place)
I0403 16:50:02.968403 19673 net.cpp:141] Setting up inception_4b/relu_3x3_reduce
I0403 16:50:02.968439 19673 net.cpp:148] Top shape: 24 112 14 14 (526848)
I0403 16:50:02.968458 19673 net.cpp:156] Memory required for data: 956439840
I0403 16:50:02.968477 19673 layer_factory.hpp:77] Creating layer inception_4b/3x3
I0403 16:50:02.968504 19673 net.cpp:91] Creating Layer inception_4b/3x3
I0403 16:50:02.968528 19673 net.cpp:425] inception_4b/3x3 <- inception_4b/3x3_reduce
I0403 16:50:02.968556 19673 net.cpp:399] inception_4b/3x3 -> inception_4b/3x3
I0403 16:50:02.972240 19673 net.cpp:141] Setting up inception_4b/3x3
I0403 16:50:02.972277 19673 net.cpp:148] Top shape: 24 224 14 14 (1053696)
I0403 16:50:02.972297 19673 net.cpp:156] Memory required for data: 960654624
I0403 16:50:02.972321 19673 layer_factory.hpp:77] Creating layer inception_4b/relu_3x3
I0403 16:50:02.972355 19673 net.cpp:91] Creating Layer inception_4b/relu_3x3
I0403 16:50:02.972378 19673 net.cpp:425] inception_4b/relu_3x3 <- inception_4b/3x3
I0403 16:50:02.972398 19673 net.cpp:386] inception_4b/relu_3x3 -> inception_4b/3x3 (in-place)
I0403 16:50:02.972630 19673 net.cpp:141] Setting up inception_4b/relu_3x3
I0403 16:50:02.972664 19673 net.cpp:148] Top shape: 24 224 14 14 (1053696)
I0403 16:50:02.972684 19673 net.cpp:156] Memory required for data: 964869408
I0403 16:50:02.972704 19673 layer_factory.hpp:77] Creating layer inception_4b/5x5_reduce
I0403 16:50:02.972731 19673 net.cpp:91] Creating Layer inception_4b/5x5_reduce
I0403 16:50:02.972753 19673 net.cpp:425] inception_4b/5x5_reduce <- inception_4a/output_inception_4a/output_0_split_3
I0403 16:50:02.972777 19673 net.cpp:399] inception_4b/5x5_reduce -> inception_4b/5x5_reduce
I0403 16:50:02.974117 19673 net.cpp:141] Setting up inception_4b/5x5_reduce
I0403 16:50:02.974154 19673 net.cpp:148] Top shape: 24 24 14 14 (112896)
I0403 16:50:02.974174 19673 net.cpp:156] Memory required for data: 965320992
I0403 16:50:02.974197 19673 layer_factory.hpp:77] Creating layer inception_4b/relu_5x5_reduce
I0403 16:50:02.974230 19673 net.cpp:91] Creating Layer inception_4b/relu_5x5_reduce
I0403 16:50:02.974267 19673 net.cpp:425] inception_4b/relu_5x5_reduce <- inception_4b/5x5_reduce
I0403 16:50:02.974293 19673 net.cpp:386] inception_4b/relu_5x5_reduce -> inception_4b/5x5_reduce (in-place)
I0403 16:50:02.974520 19673 net.cpp:141] Setting up inception_4b/relu_5x5_reduce
I0403 16:50:02.974552 19673 net.cpp:148] Top shape: 24 24 14 14 (112896)
I0403 16:50:02.974586 19673 net.cpp:156] Memory required for data: 965772576
I0403 16:50:02.974608 19673 layer_factory.hpp:77] Creating layer inception_4b/5x5
I0403 16:50:02.974637 19673 net.cpp:91] Creating Layer inception_4b/5x5
I0403 16:50:02.974659 19673 net.cpp:425] inception_4b/5x5 <- inception_4b/5x5_reduce
I0403 16:50:02.974685 19673 net.cpp:399] inception_4b/5x5 -> inception_4b/5x5
I0403 16:50:02.976197 19673 net.cpp:141] Setting up inception_4b/5x5
I0403 16:50:02.976235 19673 net.cpp:148] Top shape: 24 64 14 14 (301056)
I0403 16:50:02.976255 19673 net.cpp:156] Memory required for data: 966976800
I0403 16:50:02.976279 19673 layer_factory.hpp:77] Creating layer inception_4b/relu_5x5
I0403 16:50:02.976300 19673 net.cpp:91] Creating Layer inception_4b/relu_5x5
I0403 16:50:02.976320 19673 net.cpp:425] inception_4b/relu_5x5 <- inception_4b/5x5
I0403 16:50:02.976341 19673 net.cpp:386] inception_4b/relu_5x5 -> inception_4b/5x5 (in-place)
I0403 16:50:02.976698 19673 net.cpp:141] Setting up inception_4b/relu_5x5
I0403 16:50:02.976734 19673 net.cpp:148] Top shape: 24 64 14 14 (301056)
I0403 16:50:02.976755 19673 net.cpp:156] Memory required for data: 968181024
I0403 16:50:02.976774 19673 layer_factory.hpp:77] Creating layer inception_4b/pool
I0403 16:50:02.976796 19673 net.cpp:91] Creating Layer inception_4b/pool
I0403 16:50:02.976822 19673 net.cpp:425] inception_4b/pool <- inception_4a/output_inception_4a/output_0_split_4
I0403 16:50:02.976845 19673 net.cpp:399] inception_4b/pool -> inception_4b/pool
I0403 16:50:02.976928 19673 net.cpp:141] Setting up inception_4b/pool
I0403 16:50:02.976958 19673 net.cpp:148] Top shape: 24 512 14 14 (2408448)
I0403 16:50:02.976976 19673 net.cpp:156] Memory required for data: 977814816
I0403 16:50:02.976994 19673 layer_factory.hpp:77] Creating layer inception_4b/pool_proj
I0403 16:50:02.977021 19673 net.cpp:91] Creating Layer inception_4b/pool_proj
I0403 16:50:02.977043 19673 net.cpp:425] inception_4b/pool_proj <- inception_4b/pool
I0403 16:50:02.977069 19673 net.cpp:399] inception_4b/pool_proj -> inception_4b/pool_proj
I0403 16:50:02.978657 19673 net.cpp:141] Setting up inception_4b/pool_proj
I0403 16:50:02.978694 19673 net.cpp:148] Top shape: 24 64 14 14 (301056)
I0403 16:50:02.978714 19673 net.cpp:156] Memory required for data: 979019040
I0403 16:50:02.978736 19673 layer_factory.hpp:77] Creating layer inception_4b/relu_pool_proj
I0403 16:50:02.978760 19673 net.cpp:91] Creating Layer inception_4b/relu_pool_proj
I0403 16:50:02.978780 19673 net.cpp:425] inception_4b/relu_pool_proj <- inception_4b/pool_proj
I0403 16:50:02.978814 19673 net.cpp:386] inception_4b/relu_pool_proj -> inception_4b/pool_proj (in-place)
I0403 16:50:02.979038 19673 net.cpp:141] Setting up inception_4b/relu_pool_proj
I0403 16:50:02.979070 19673 net.cpp:148] Top shape: 24 64 14 14 (301056)
I0403 16:50:02.979089 19673 net.cpp:156] Memory required for data: 980223264
I0403 16:50:02.979115 19673 layer_factory.hpp:77] Creating layer inception_4b/output
I0403 16:50:02.979136 19673 net.cpp:91] Creating Layer inception_4b/output
I0403 16:50:02.979156 19673 net.cpp:425] inception_4b/output <- inception_4b/1x1
I0403 16:50:02.979177 19673 net.cpp:425] inception_4b/output <- inception_4b/3x3
I0403 16:50:02.979197 19673 net.cpp:425] inception_4b/output <- inception_4b/5x5
I0403 16:50:02.979215 19673 net.cpp:425] inception_4b/output <- inception_4b/pool_proj
I0403 16:50:02.979240 19673 net.cpp:399] inception_4b/output -> inception_4b/output
I0403 16:50:02.979296 19673 net.cpp:141] Setting up inception_4b/output
I0403 16:50:02.979328 19673 net.cpp:148] Top shape: 24 512 14 14 (2408448)
I0403 16:50:02.979347 19673 net.cpp:156] Memory required for data: 989857056
I0403 16:50:02.979384 19673 layer_factory.hpp:77] Creating layer inception_4b/output_inception_4b/output_0_split
I0403 16:50:02.979406 19673 net.cpp:91] Creating Layer inception_4b/output_inception_4b/output_0_split
I0403 16:50:02.979425 19673 net.cpp:425] inception_4b/output_inception_4b/output_0_split <- inception_4b/output
I0403 16:50:02.979454 19673 net.cpp:399] inception_4b/output_inception_4b/output_0_split -> inception_4b/output_inception_4b/output_0_split_0
I0403 16:50:02.979480 19673 net.cpp:399] inception_4b/output_inception_4b/output_0_split -> inception_4b/output_inception_4b/output_0_split_1
I0403 16:50:02.979506 19673 net.cpp:399] inception_4b/output_inception_4b/output_0_split -> inception_4b/output_inception_4b/output_0_split_2
I0403 16:50:02.979532 19673 net.cpp:399] inception_4b/output_inception_4b/output_0_split -> inception_4b/output_inception_4b/output_0_split_3
I0403 16:50:02.979642 19673 net.cpp:141] Setting up inception_4b/output_inception_4b/output_0_split
I0403 16:50:02.979671 19673 net.cpp:148] Top shape: 24 512 14 14 (2408448)
I0403 16:50:02.979697 19673 net.cpp:148] Top shape: 24 512 14 14 (2408448)
I0403 16:50:02.979717 19673 net.cpp:148] Top shape: 24 512 14 14 (2408448)
I0403 16:50:02.979737 19673 net.cpp:148] Top shape: 24 512 14 14 (2408448)
I0403 16:50:02.979755 19673 net.cpp:156] Memory required for data: 1028392224
I0403 16:50:02.979773 19673 layer_factory.hpp:77] Creating layer inception_4c/1x1
I0403 16:50:02.979797 19673 net.cpp:91] Creating Layer inception_4c/1x1
I0403 16:50:02.979823 19673 net.cpp:425] inception_4c/1x1 <- inception_4b/output_inception_4b/output_0_split_0
I0403 16:50:02.979851 19673 net.cpp:399] inception_4c/1x1 -> inception_4c/1x1
I0403 16:50:02.981631 19673 net.cpp:141] Setting up inception_4c/1x1
I0403 16:50:02.981667 19673 net.cpp:148] Top shape: 24 128 14 14 (602112)
I0403 16:50:02.981686 19673 net.cpp:156] Memory required for data: 1030800672
I0403 16:50:02.981709 19673 layer_factory.hpp:77] Creating layer inception_4c/relu_1x1
I0403 16:50:02.981734 19673 net.cpp:91] Creating Layer inception_4c/relu_1x1
I0403 16:50:02.981756 19673 net.cpp:425] inception_4c/relu_1x1 <- inception_4c/1x1
I0403 16:50:02.981778 19673 net.cpp:386] inception_4c/relu_1x1 -> inception_4c/1x1 (in-place)
I0403 16:50:02.982007 19673 net.cpp:141] Setting up inception_4c/relu_1x1
I0403 16:50:02.982038 19673 net.cpp:148] Top shape: 24 128 14 14 (602112)
I0403 16:50:02.982058 19673 net.cpp:156] Memory required for data: 1033209120
I0403 16:50:02.982075 19673 layer_factory.hpp:77] Creating layer inception_4c/3x3_reduce
I0403 16:50:02.982105 19673 net.cpp:91] Creating Layer inception_4c/3x3_reduce
I0403 16:50:02.982127 19673 net.cpp:425] inception_4c/3x3_reduce <- inception_4b/output_inception_4b/output_0_split_1
I0403 16:50:02.982151 19673 net.cpp:399] inception_4c/3x3_reduce -> inception_4c/3x3_reduce
I0403 16:50:02.984511 19673 net.cpp:141] Setting up inception_4c/3x3_reduce
I0403 16:50:02.984549 19673 net.cpp:148] Top shape: 24 128 14 14 (602112)
I0403 16:50:02.984568 19673 net.cpp:156] Memory required for data: 1035617568
I0403 16:50:02.984608 19673 layer_factory.hpp:77] Creating layer inception_4c/relu_3x3_reduce
I0403 16:50:02.984635 19673 net.cpp:91] Creating Layer inception_4c/relu_3x3_reduce
I0403 16:50:02.984658 19673 net.cpp:425] inception_4c/relu_3x3_reduce <- inception_4c/3x3_reduce
I0403 16:50:02.984680 19673 net.cpp:386] inception_4c/relu_3x3_reduce -> inception_4c/3x3_reduce (in-place)
I0403 16:50:02.985028 19673 net.cpp:141] Setting up inception_4c/relu_3x3_reduce
I0403 16:50:02.985061 19673 net.cpp:148] Top shape: 24 128 14 14 (602112)
I0403 16:50:02.985080 19673 net.cpp:156] Memory required for data: 1038026016
I0403 16:50:02.985105 19673 layer_factory.hpp:77] Creating layer inception_4c/3x3
I0403 16:50:02.985136 19673 net.cpp:91] Creating Layer inception_4c/3x3
I0403 16:50:02.985159 19673 net.cpp:425] inception_4c/3x3 <- inception_4c/3x3_reduce
I0403 16:50:02.985183 19673 net.cpp:399] inception_4c/3x3 -> inception_4c/3x3
I0403 16:50:02.989594 19673 net.cpp:141] Setting up inception_4c/3x3
I0403 16:50:02.989648 19673 net.cpp:148] Top shape: 24 256 14 14 (1204224)
I0403 16:50:02.989670 19673 net.cpp:156] Memory required for data: 1042842912
I0403 16:50:02.989712 19673 layer_factory.hpp:77] Creating layer inception_4c/relu_3x3
I0403 16:50:02.989738 19673 net.cpp:91] Creating Layer inception_4c/relu_3x3
I0403 16:50:02.989759 19673 net.cpp:425] inception_4c/relu_3x3 <- inception_4c/3x3
I0403 16:50:02.989780 19673 net.cpp:386] inception_4c/relu_3x3 -> inception_4c/3x3 (in-place)
I0403 16:50:02.990005 19673 net.cpp:141] Setting up inception_4c/relu_3x3
I0403 16:50:02.990039 19673 net.cpp:148] Top shape: 24 256 14 14 (1204224)
I0403 16:50:02.990059 19673 net.cpp:156] Memory required for data: 1047659808
I0403 16:50:02.990078 19673 layer_factory.hpp:77] Creating layer inception_4c/5x5_reduce
I0403 16:50:02.990116 19673 net.cpp:91] Creating Layer inception_4c/5x5_reduce
I0403 16:50:02.990139 19673 net.cpp:425] inception_4c/5x5_reduce <- inception_4b/output_inception_4b/output_0_split_2
I0403 16:50:02.990162 19673 net.cpp:399] inception_4c/5x5_reduce -> inception_4c/5x5_reduce
I0403 16:50:02.991523 19673 net.cpp:141] Setting up inception_4c/5x5_reduce
I0403 16:50:02.991561 19673 net.cpp:148] Top shape: 24 24 14 14 (112896)
I0403 16:50:02.991595 19673 net.cpp:156] Memory required for data: 1048111392
I0403 16:50:02.991619 19673 layer_factory.hpp:77] Creating layer inception_4c/relu_5x5_reduce
I0403 16:50:02.991642 19673 net.cpp:91] Creating Layer inception_4c/relu_5x5_reduce
I0403 16:50:02.991662 19673 net.cpp:425] inception_4c/relu_5x5_reduce <- inception_4c/5x5_reduce
I0403 16:50:02.991686 19673 net.cpp:386] inception_4c/relu_5x5_reduce -> inception_4c/5x5_reduce (in-place)
I0403 16:50:02.991921 19673 net.cpp:141] Setting up inception_4c/relu_5x5_reduce
I0403 16:50:02.991953 19673 net.cpp:148] Top shape: 24 24 14 14 (112896)
I0403 16:50:02.991972 19673 net.cpp:156] Memory required for data: 1048562976
I0403 16:50:02.991991 19673 layer_factory.hpp:77] Creating layer inception_4c/5x5
I0403 16:50:02.992018 19673 net.cpp:91] Creating Layer inception_4c/5x5
I0403 16:50:02.992040 19673 net.cpp:425] inception_4c/5x5 <- inception_4c/5x5_reduce
I0403 16:50:02.992066 19673 net.cpp:399] inception_4c/5x5 -> inception_4c/5x5
I0403 16:50:02.993633 19673 net.cpp:141] Setting up inception_4c/5x5
I0403 16:50:02.993669 19673 net.cpp:148] Top shape: 24 64 14 14 (301056)
I0403 16:50:02.993687 19673 net.cpp:156] Memory required for data: 1049767200
I0403 16:50:02.993710 19673 layer_factory.hpp:77] Creating layer inception_4c/relu_5x5
I0403 16:50:02.993736 19673 net.cpp:91] Creating Layer inception_4c/relu_5x5
I0403 16:50:02.993757 19673 net.cpp:425] inception_4c/relu_5x5 <- inception_4c/5x5
I0403 16:50:02.993778 19673 net.cpp:386] inception_4c/relu_5x5 -> inception_4c/5x5 (in-place)
I0403 16:50:02.994145 19673 net.cpp:141] Setting up inception_4c/relu_5x5
I0403 16:50:02.994177 19673 net.cpp:148] Top shape: 24 64 14 14 (301056)
I0403 16:50:02.994197 19673 net.cpp:156] Memory required for data: 1050971424
I0403 16:50:02.994215 19673 layer_factory.hpp:77] Creating layer inception_4c/pool
I0403 16:50:02.994237 19673 net.cpp:91] Creating Layer inception_4c/pool
I0403 16:50:02.994257 19673 net.cpp:425] inception_4c/pool <- inception_4b/output_inception_4b/output_0_split_3
I0403 16:50:02.994284 19673 net.cpp:399] inception_4c/pool -> inception_4c/pool
I0403 16:50:02.994365 19673 net.cpp:141] Setting up inception_4c/pool
I0403 16:50:02.994395 19673 net.cpp:148] Top shape: 24 512 14 14 (2408448)
I0403 16:50:02.994415 19673 net.cpp:156] Memory required for data: 1060605216
I0403 16:50:02.994431 19673 layer_factory.hpp:77] Creating layer inception_4c/pool_proj
I0403 16:50:02.994459 19673 net.cpp:91] Creating Layer inception_4c/pool_proj
I0403 16:50:02.994482 19673 net.cpp:425] inception_4c/pool_proj <- inception_4c/pool
I0403 16:50:02.994509 19673 net.cpp:399] inception_4c/pool_proj -> inception_4c/pool_proj
I0403 16:50:02.996037 19673 net.cpp:141] Setting up inception_4c/pool_proj
I0403 16:50:02.996075 19673 net.cpp:148] Top shape: 24 64 14 14 (301056)
I0403 16:50:02.996121 19673 net.cpp:156] Memory required for data: 1061809440
I0403 16:50:02.996145 19673 layer_factory.hpp:77] Creating layer inception_4c/relu_pool_proj
I0403 16:50:02.996170 19673 net.cpp:91] Creating Layer inception_4c/relu_pool_proj
I0403 16:50:02.996189 19673 net.cpp:425] inception_4c/relu_pool_proj <- inception_4c/pool_proj
I0403 16:50:02.996212 19673 net.cpp:386] inception_4c/relu_pool_proj -> inception_4c/pool_proj (in-place)
I0403 16:50:02.996443 19673 net.cpp:141] Setting up inception_4c/relu_pool_proj
I0403 16:50:02.996474 19673 net.cpp:148] Top shape: 24 64 14 14 (301056)
I0403 16:50:02.996491 19673 net.cpp:156] Memory required for data: 1063013664
I0403 16:50:02.996510 19673 layer_factory.hpp:77] Creating layer inception_4c/output
I0403 16:50:02.996531 19673 net.cpp:91] Creating Layer inception_4c/output
I0403 16:50:02.996551 19673 net.cpp:425] inception_4c/output <- inception_4c/1x1
I0403 16:50:02.996577 19673 net.cpp:425] inception_4c/output <- inception_4c/3x3
I0403 16:50:02.996598 19673 net.cpp:425] inception_4c/output <- inception_4c/5x5
I0403 16:50:02.996619 19673 net.cpp:425] inception_4c/output <- inception_4c/pool_proj
I0403 16:50:02.996642 19673 net.cpp:399] inception_4c/output -> inception_4c/output
I0403 16:50:02.996701 19673 net.cpp:141] Setting up inception_4c/output
I0403 16:50:02.996733 19673 net.cpp:148] Top shape: 24 512 14 14 (2408448)
I0403 16:50:02.996753 19673 net.cpp:156] Memory required for data: 1072647456
I0403 16:50:02.996772 19673 layer_factory.hpp:77] Creating layer inception_4c/output_inception_4c/output_0_split
I0403 16:50:02.996793 19673 net.cpp:91] Creating Layer inception_4c/output_inception_4c/output_0_split
I0403 16:50:02.996812 19673 net.cpp:425] inception_4c/output_inception_4c/output_0_split <- inception_4c/output
I0403 16:50:02.996836 19673 net.cpp:399] inception_4c/output_inception_4c/output_0_split -> inception_4c/output_inception_4c/output_0_split_0
I0403 16:50:02.996861 19673 net.cpp:399] inception_4c/output_inception_4c/output_0_split -> inception_4c/output_inception_4c/output_0_split_1
I0403 16:50:02.996888 19673 net.cpp:399] inception_4c/output_inception_4c/output_0_split -> inception_4c/output_inception_4c/output_0_split_2
I0403 16:50:02.996913 19673 net.cpp:399] inception_4c/output_inception_4c/output_0_split -> inception_4c/output_inception_4c/output_0_split_3
I0403 16:50:02.997019 19673 net.cpp:141] Setting up inception_4c/output_inception_4c/output_0_split
I0403 16:50:02.997047 19673 net.cpp:148] Top shape: 24 512 14 14 (2408448)
I0403 16:50:02.997067 19673 net.cpp:148] Top shape: 24 512 14 14 (2408448)
I0403 16:50:02.997087 19673 net.cpp:148] Top shape: 24 512 14 14 (2408448)
I0403 16:50:02.997107 19673 net.cpp:148] Top shape: 24 512 14 14 (2408448)
I0403 16:50:02.997123 19673 net.cpp:156] Memory required for data: 1111182624
I0403 16:50:02.997140 19673 layer_factory.hpp:77] Creating layer inception_4d/1x1
I0403 16:50:02.997169 19673 net.cpp:91] Creating Layer inception_4d/1x1
I0403 16:50:02.997189 19673 net.cpp:425] inception_4d/1x1 <- inception_4c/output_inception_4c/output_0_split_0
I0403 16:50:02.997217 19673 net.cpp:399] inception_4d/1x1 -> inception_4d/1x1
I0403 16:50:02.998917 19673 net.cpp:141] Setting up inception_4d/1x1
I0403 16:50:02.998952 19673 net.cpp:148] Top shape: 24 112 14 14 (526848)
I0403 16:50:02.998972 19673 net.cpp:156] Memory required for data: 1113290016
I0403 16:50:02.998994 19673 layer_factory.hpp:77] Creating layer inception_4d/relu_1x1
I0403 16:50:02.999020 19673 net.cpp:91] Creating Layer inception_4d/relu_1x1
I0403 16:50:02.999042 19673 net.cpp:425] inception_4d/relu_1x1 <- inception_4d/1x1
I0403 16:50:02.999064 19673 net.cpp:386] inception_4d/relu_1x1 -> inception_4d/1x1 (in-place)
I0403 16:50:02.999295 19673 net.cpp:141] Setting up inception_4d/relu_1x1
I0403 16:50:02.999328 19673 net.cpp:148] Top shape: 24 112 14 14 (526848)
I0403 16:50:02.999348 19673 net.cpp:156] Memory required for data: 1115397408
I0403 16:50:02.999367 19673 layer_factory.hpp:77] Creating layer inception_4d/3x3_reduce
I0403 16:50:02.999413 19673 net.cpp:91] Creating Layer inception_4d/3x3_reduce
I0403 16:50:02.999435 19673 net.cpp:425] inception_4d/3x3_reduce <- inception_4c/output_inception_4c/output_0_split_1
I0403 16:50:02.999460 19673 net.cpp:399] inception_4d/3x3_reduce -> inception_4d/3x3_reduce
I0403 16:50:03.001315 19673 net.cpp:141] Setting up inception_4d/3x3_reduce
I0403 16:50:03.001350 19673 net.cpp:148] Top shape: 24 144 14 14 (677376)
I0403 16:50:03.001369 19673 net.cpp:156] Memory required for data: 1118106912
I0403 16:50:03.001392 19673 layer_factory.hpp:77] Creating layer inception_4d/relu_3x3_reduce
I0403 16:50:03.001417 19673 net.cpp:91] Creating Layer inception_4d/relu_3x3_reduce
I0403 16:50:03.001438 19673 net.cpp:425] inception_4d/relu_3x3_reduce <- inception_4d/3x3_reduce
I0403 16:50:03.001459 19673 net.cpp:386] inception_4d/relu_3x3_reduce -> inception_4d/3x3_reduce (in-place)
I0403 16:50:03.001816 19673 net.cpp:141] Setting up inception_4d/relu_3x3_reduce
I0403 16:50:03.001849 19673 net.cpp:148] Top shape: 24 144 14 14 (677376)
I0403 16:50:03.001869 19673 net.cpp:156] Memory required for data: 1120816416
I0403 16:50:03.001888 19673 layer_factory.hpp:77] Creating layer inception_4d/3x3
I0403 16:50:03.001916 19673 net.cpp:91] Creating Layer inception_4d/3x3
I0403 16:50:03.001940 19673 net.cpp:425] inception_4d/3x3 <- inception_4d/3x3_reduce
I0403 16:50:03.001966 19673 net.cpp:399] inception_4d/3x3 -> inception_4d/3x3
I0403 16:50:03.007266 19673 net.cpp:141] Setting up inception_4d/3x3
I0403 16:50:03.007302 19673 net.cpp:148] Top shape: 24 288 14 14 (1354752)
I0403 16:50:03.007323 19673 net.cpp:156] Memory required for data: 1126235424
I0403 16:50:03.007345 19673 layer_factory.hpp:77] Creating layer inception_4d/relu_3x3
I0403 16:50:03.007370 19673 net.cpp:91] Creating Layer inception_4d/relu_3x3
I0403 16:50:03.007391 19673 net.cpp:425] inception_4d/relu_3x3 <- inception_4d/3x3
I0403 16:50:03.007413 19673 net.cpp:386] inception_4d/relu_3x3 -> inception_4d/3x3 (in-place)
I0403 16:50:03.007652 19673 net.cpp:141] Setting up inception_4d/relu_3x3
I0403 16:50:03.007683 19673 net.cpp:148] Top shape: 24 288 14 14 (1354752)
I0403 16:50:03.007702 19673 net.cpp:156] Memory required for data: 1131654432
I0403 16:50:03.007721 19673 layer_factory.hpp:77] Creating layer inception_4d/5x5_reduce
I0403 16:50:03.007748 19673 net.cpp:91] Creating Layer inception_4d/5x5_reduce
I0403 16:50:03.007771 19673 net.cpp:425] inception_4d/5x5_reduce <- inception_4c/output_inception_4c/output_0_split_2
I0403 16:50:03.007800 19673 net.cpp:399] inception_4d/5x5_reduce -> inception_4d/5x5_reduce
I0403 16:50:03.009219 19673 net.cpp:141] Setting up inception_4d/5x5_reduce
I0403 16:50:03.009254 19673 net.cpp:148] Top shape: 24 32 14 14 (150528)
I0403 16:50:03.009274 19673 net.cpp:156] Memory required for data: 1132256544
I0403 16:50:03.009295 19673 layer_factory.hpp:77] Creating layer inception_4d/relu_5x5_reduce
I0403 16:50:03.009321 19673 net.cpp:91] Creating Layer inception_4d/relu_5x5_reduce
I0403 16:50:03.009342 19673 net.cpp:425] inception_4d/relu_5x5_reduce <- inception_4d/5x5_reduce
I0403 16:50:03.009364 19673 net.cpp:386] inception_4d/relu_5x5_reduce -> inception_4d/5x5_reduce (in-place)
I0403 16:50:03.009606 19673 net.cpp:141] Setting up inception_4d/relu_5x5_reduce
I0403 16:50:03.009640 19673 net.cpp:148] Top shape: 24 32 14 14 (150528)
I0403 16:50:03.009661 19673 net.cpp:156] Memory required for data: 1132858656
I0403 16:50:03.009680 19673 layer_factory.hpp:77] Creating layer inception_4d/5x5
I0403 16:50:03.009706 19673 net.cpp:91] Creating Layer inception_4d/5x5
I0403 16:50:03.009729 19673 net.cpp:425] inception_4d/5x5 <- inception_4d/5x5_reduce
I0403 16:50:03.009752 19673 net.cpp:399] inception_4d/5x5 -> inception_4d/5x5
I0403 16:50:03.011544 19673 net.cpp:141] Setting up inception_4d/5x5
I0403 16:50:03.011590 19673 net.cpp:148] Top shape: 24 64 14 14 (301056)
I0403 16:50:03.011613 19673 net.cpp:156] Memory required for data: 1134062880
I0403 16:50:03.011637 19673 layer_factory.hpp:77] Creating layer inception_4d/relu_5x5
I0403 16:50:03.011678 19673 net.cpp:91] Creating Layer inception_4d/relu_5x5
I0403 16:50:03.011701 19673 net.cpp:425] inception_4d/relu_5x5 <- inception_4d/5x5
I0403 16:50:03.011728 19673 net.cpp:386] inception_4d/relu_5x5 -> inception_4d/5x5 (in-place)
I0403 16:50:03.012089 19673 net.cpp:141] Setting up inception_4d/relu_5x5
I0403 16:50:03.012125 19673 net.cpp:148] Top shape: 24 64 14 14 (301056)
I0403 16:50:03.012145 19673 net.cpp:156] Memory required for data: 1135267104
I0403 16:50:03.012163 19673 layer_factory.hpp:77] Creating layer inception_4d/pool
I0403 16:50:03.012186 19673 net.cpp:91] Creating Layer inception_4d/pool
I0403 16:50:03.012207 19673 net.cpp:425] inception_4d/pool <- inception_4c/output_inception_4c/output_0_split_3
I0403 16:50:03.012233 19673 net.cpp:399] inception_4d/pool -> inception_4d/pool
I0403 16:50:03.012313 19673 net.cpp:141] Setting up inception_4d/pool
I0403 16:50:03.012348 19673 net.cpp:148] Top shape: 24 512 14 14 (2408448)
I0403 16:50:03.012368 19673 net.cpp:156] Memory required for data: 1144900896
I0403 16:50:03.012387 19673 layer_factory.hpp:77] Creating layer inception_4d/pool_proj
I0403 16:50:03.012415 19673 net.cpp:91] Creating Layer inception_4d/pool_proj
I0403 16:50:03.012437 19673 net.cpp:425] inception_4d/pool_proj <- inception_4d/pool
I0403 16:50:03.012461 19673 net.cpp:399] inception_4d/pool_proj -> inception_4d/pool_proj
I0403 16:50:03.014638 19673 net.cpp:141] Setting up inception_4d/pool_proj
I0403 16:50:03.014677 19673 net.cpp:148] Top shape: 24 64 14 14 (301056)
I0403 16:50:03.014696 19673 net.cpp:156] Memory required for data: 1146105120
I0403 16:50:03.014720 19673 layer_factory.hpp:77] Creating layer inception_4d/relu_pool_proj
I0403 16:50:03.014746 19673 net.cpp:91] Creating Layer inception_4d/relu_pool_proj
I0403 16:50:03.014767 19673 net.cpp:425] inception_4d/relu_pool_proj <- inception_4d/pool_proj
I0403 16:50:03.014789 19673 net.cpp:386] inception_4d/relu_pool_proj -> inception_4d/pool_proj (in-place)
I0403 16:50:03.015023 19673 net.cpp:141] Setting up inception_4d/relu_pool_proj
I0403 16:50:03.015055 19673 net.cpp:148] Top shape: 24 64 14 14 (301056)
I0403 16:50:03.015075 19673 net.cpp:156] Memory required for data: 1147309344
I0403 16:50:03.015094 19673 layer_factory.hpp:77] Creating layer inception_4d/output
I0403 16:50:03.015115 19673 net.cpp:91] Creating Layer inception_4d/output
I0403 16:50:03.015136 19673 net.cpp:425] inception_4d/output <- inception_4d/1x1
I0403 16:50:03.015156 19673 net.cpp:425] inception_4d/output <- inception_4d/3x3
I0403 16:50:03.015175 19673 net.cpp:425] inception_4d/output <- inception_4d/5x5
I0403 16:50:03.015197 19673 net.cpp:425] inception_4d/output <- inception_4d/pool_proj
I0403 16:50:03.015220 19673 net.cpp:399] inception_4d/output -> inception_4d/output
I0403 16:50:03.015280 19673 net.cpp:141] Setting up inception_4d/output
I0403 16:50:03.015310 19673 net.cpp:148] Top shape: 24 528 14 14 (2483712)
I0403 16:50:03.015331 19673 net.cpp:156] Memory required for data: 1157244192
I0403 16:50:03.015349 19673 layer_factory.hpp:77] Creating layer inception_4d/output_inception_4d/output_0_split
I0403 16:50:03.015372 19673 net.cpp:91] Creating Layer inception_4d/output_inception_4d/output_0_split
I0403 16:50:03.015393 19673 net.cpp:425] inception_4d/output_inception_4d/output_0_split <- inception_4d/output
I0403 16:50:03.015413 19673 net.cpp:399] inception_4d/output_inception_4d/output_0_split -> inception_4d/output_inception_4d/output_0_split_0
I0403 16:50:03.015439 19673 net.cpp:399] inception_4d/output_inception_4d/output_0_split -> inception_4d/output_inception_4d/output_0_split_1
I0403 16:50:03.015467 19673 net.cpp:399] inception_4d/output_inception_4d/output_0_split -> inception_4d/output_inception_4d/output_0_split_2
I0403 16:50:03.015494 19673 net.cpp:399] inception_4d/output_inception_4d/output_0_split -> inception_4d/output_inception_4d/output_0_split_3
I0403 16:50:03.015519 19673 net.cpp:399] inception_4d/output_inception_4d/output_0_split -> inception_4d/output_inception_4d/output_0_split_4
I0403 16:50:03.015657 19673 net.cpp:141] Setting up inception_4d/output_inception_4d/output_0_split
I0403 16:50:03.015702 19673 net.cpp:148] Top shape: 24 528 14 14 (2483712)
I0403 16:50:03.015724 19673 net.cpp:148] Top shape: 24 528 14 14 (2483712)
I0403 16:50:03.015743 19673 net.cpp:148] Top shape: 24 528 14 14 (2483712)
I0403 16:50:03.015763 19673 net.cpp:148] Top shape: 24 528 14 14 (2483712)
I0403 16:50:03.015781 19673 net.cpp:148] Top shape: 24 528 14 14 (2483712)
I0403 16:50:03.015799 19673 net.cpp:156] Memory required for data: 1206918432
I0403 16:50:03.015817 19673 layer_factory.hpp:77] Creating layer loss2/ave_pool
I0403 16:50:03.015841 19673 net.cpp:91] Creating Layer loss2/ave_pool
I0403 16:50:03.015862 19673 net.cpp:425] loss2/ave_pool <- inception_4d/output_inception_4d/output_0_split_0
I0403 16:50:03.015885 19673 net.cpp:399] loss2/ave_pool -> loss2/ave_pool
I0403 16:50:03.016273 19673 net.cpp:141] Setting up loss2/ave_pool
I0403 16:50:03.016307 19673 net.cpp:148] Top shape: 24 528 4 4 (202752)
I0403 16:50:03.016327 19673 net.cpp:156] Memory required for data: 1207729440
I0403 16:50:03.016345 19673 layer_factory.hpp:77] Creating layer loss2/conv
I0403 16:50:03.016376 19673 net.cpp:91] Creating Layer loss2/conv
I0403 16:50:03.016396 19673 net.cpp:425] loss2/conv <- loss2/ave_pool
I0403 16:50:03.016422 19673 net.cpp:399] loss2/conv -> loss2/conv
I0403 16:50:03.018728 19673 net.cpp:141] Setting up loss2/conv
I0403 16:50:03.018765 19673 net.cpp:148] Top shape: 24 128 4 4 (49152)
I0403 16:50:03.018786 19673 net.cpp:156] Memory required for data: 1207926048
I0403 16:50:03.018810 19673 layer_factory.hpp:77] Creating layer loss2/relu_conv
I0403 16:50:03.018832 19673 net.cpp:91] Creating Layer loss2/relu_conv
I0403 16:50:03.018853 19673 net.cpp:425] loss2/relu_conv <- loss2/conv
I0403 16:50:03.018877 19673 net.cpp:386] loss2/relu_conv -> loss2/conv (in-place)
I0403 16:50:03.019222 19673 net.cpp:141] Setting up loss2/relu_conv
I0403 16:50:03.019256 19673 net.cpp:148] Top shape: 24 128 4 4 (49152)
I0403 16:50:03.019274 19673 net.cpp:156] Memory required for data: 1208122656
I0403 16:50:03.019292 19673 layer_factory.hpp:77] Creating layer loss2/fc
I0403 16:50:03.019315 19673 net.cpp:91] Creating Layer loss2/fc
I0403 16:50:03.019336 19673 net.cpp:425] loss2/fc <- loss2/conv
I0403 16:50:03.019362 19673 net.cpp:399] loss2/fc -> loss2/fc
I0403 16:50:03.041221 19673 net.cpp:141] Setting up loss2/fc
I0403 16:50:03.041262 19673 net.cpp:148] Top shape: 24 1024 (24576)
I0403 16:50:03.041282 19673 net.cpp:156] Memory required for data: 1208220960
I0403 16:50:03.041306 19673 layer_factory.hpp:77] Creating layer loss2/relu_fc
I0403 16:50:03.041328 19673 net.cpp:91] Creating Layer loss2/relu_fc
I0403 16:50:03.041349 19673 net.cpp:425] loss2/relu_fc <- loss2/fc
I0403 16:50:03.041371 19673 net.cpp:386] loss2/relu_fc -> loss2/fc (in-place)
I0403 16:50:03.041741 19673 net.cpp:141] Setting up loss2/relu_fc
I0403 16:50:03.041777 19673 net.cpp:148] Top shape: 24 1024 (24576)
I0403 16:50:03.041797 19673 net.cpp:156] Memory required for data: 1208319264
I0403 16:50:03.041816 19673 layer_factory.hpp:77] Creating layer loss2/drop_fc
I0403 16:50:03.041839 19673 net.cpp:91] Creating Layer loss2/drop_fc
I0403 16:50:03.041860 19673 net.cpp:425] loss2/drop_fc <- loss2/fc
I0403 16:50:03.041882 19673 net.cpp:386] loss2/drop_fc -> loss2/fc (in-place)
I0403 16:50:03.041945 19673 net.cpp:141] Setting up loss2/drop_fc
I0403 16:50:03.041975 19673 net.cpp:148] Top shape: 24 1024 (24576)
I0403 16:50:03.041992 19673 net.cpp:156] Memory required for data: 1208417568
I0403 16:50:03.042011 19673 layer_factory.hpp:77] Creating layer loss2/classifier_plantvillage
I0403 16:50:03.042037 19673 net.cpp:91] Creating Layer loss2/classifier_plantvillage
I0403 16:50:03.042057 19673 net.cpp:425] loss2/classifier_plantvillage <- loss2/fc
I0403 16:50:03.042079 19673 net.cpp:399] loss2/classifier_plantvillage -> loss2/classifier_plantvillage
I0403 16:50:03.042582 19673 net.cpp:141] Setting up loss2/classifier_plantvillage
I0403 16:50:03.042613 19673 net.cpp:148] Top shape: 24 38 (912)
I0403 16:50:03.042631 19673 net.cpp:156] Memory required for data: 1208421216
I0403 16:50:03.042676 19673 layer_factory.hpp:77] Creating layer loss2/classifier_plantvillage_loss2/classifier_plantvillage_0_split
I0403 16:50:03.042701 19673 net.cpp:91] Creating Layer loss2/classifier_plantvillage_loss2/classifier_plantvillage_0_split
I0403 16:50:03.042721 19673 net.cpp:425] loss2/classifier_plantvillage_loss2/classifier_plantvillage_0_split <- loss2/classifier_plantvillage
I0403 16:50:03.042747 19673 net.cpp:399] loss2/classifier_plantvillage_loss2/classifier_plantvillage_0_split -> loss2/classifier_plantvillage_loss2/classifier_plantvillage_0_split_0
I0403 16:50:03.042774 19673 net.cpp:399] loss2/classifier_plantvillage_loss2/classifier_plantvillage_0_split -> loss2/classifier_plantvillage_loss2/classifier_plantvillage_0_split_1
I0403 16:50:03.042799 19673 net.cpp:399] loss2/classifier_plantvillage_loss2/classifier_plantvillage_0_split -> loss2/classifier_plantvillage_loss2/classifier_plantvillage_0_split_2
I0403 16:50:03.042896 19673 net.cpp:141] Setting up loss2/classifier_plantvillage_loss2/classifier_plantvillage_0_split
I0403 16:50:03.042927 19673 net.cpp:148] Top shape: 24 38 (912)
I0403 16:50:03.042948 19673 net.cpp:148] Top shape: 24 38 (912)
I0403 16:50:03.042965 19673 net.cpp:148] Top shape: 24 38 (912)
I0403 16:50:03.042982 19673 net.cpp:156] Memory required for data: 1208432160
I0403 16:50:03.043000 19673 layer_factory.hpp:77] Creating layer inception_4e/1x1
I0403 16:50:03.043028 19673 net.cpp:91] Creating Layer inception_4e/1x1
I0403 16:50:03.043051 19673 net.cpp:425] inception_4e/1x1 <- inception_4d/output_inception_4d/output_0_split_1
I0403 16:50:03.043076 19673 net.cpp:399] inception_4e/1x1 -> inception_4e/1x1
I0403 16:50:03.045343 19673 net.cpp:141] Setting up inception_4e/1x1
I0403 16:50:03.045378 19673 net.cpp:148] Top shape: 24 256 14 14 (1204224)
I0403 16:50:03.045398 19673 net.cpp:156] Memory required for data: 1213249056
I0403 16:50:03.045420 19673 layer_factory.hpp:77] Creating layer inception_4e/relu_1x1
I0403 16:50:03.045446 19673 net.cpp:91] Creating Layer inception_4e/relu_1x1
I0403 16:50:03.045469 19673 net.cpp:425] inception_4e/relu_1x1 <- inception_4e/1x1
I0403 16:50:03.045491 19673 net.cpp:386] inception_4e/relu_1x1 -> inception_4e/1x1 (in-place)
I0403 16:50:03.045862 19673 net.cpp:141] Setting up inception_4e/relu_1x1
I0403 16:50:03.045895 19673 net.cpp:148] Top shape: 24 256 14 14 (1204224)
I0403 16:50:03.045915 19673 net.cpp:156] Memory required for data: 1218065952
I0403 16:50:03.045934 19673 layer_factory.hpp:77] Creating layer inception_4e/3x3_reduce
I0403 16:50:03.045964 19673 net.cpp:91] Creating Layer inception_4e/3x3_reduce
I0403 16:50:03.045984 19673 net.cpp:425] inception_4e/3x3_reduce <- inception_4d/output_inception_4d/output_0_split_2
I0403 16:50:03.046011 19673 net.cpp:399] inception_4e/3x3_reduce -> inception_4e/3x3_reduce
I0403 16:50:03.048606 19673 net.cpp:141] Setting up inception_4e/3x3_reduce
I0403 16:50:03.048643 19673 net.cpp:148] Top shape: 24 160 14 14 (752640)
I0403 16:50:03.048663 19673 net.cpp:156] Memory required for data: 1221076512
I0403 16:50:03.048686 19673 layer_factory.hpp:77] Creating layer inception_4e/relu_3x3_reduce
I0403 16:50:03.048708 19673 net.cpp:91] Creating Layer inception_4e/relu_3x3_reduce
I0403 16:50:03.048729 19673 net.cpp:425] inception_4e/relu_3x3_reduce <- inception_4e/3x3_reduce
I0403 16:50:03.048753 19673 net.cpp:386] inception_4e/relu_3x3_reduce -> inception_4e/3x3_reduce (in-place)
I0403 16:50:03.048986 19673 net.cpp:141] Setting up inception_4e/relu_3x3_reduce
I0403 16:50:03.049018 19673 net.cpp:148] Top shape: 24 160 14 14 (752640)
I0403 16:50:03.049037 19673 net.cpp:156] Memory required for data: 1224087072
I0403 16:50:03.049057 19673 layer_factory.hpp:77] Creating layer inception_4e/3x3
I0403 16:50:03.049084 19673 net.cpp:91] Creating Layer inception_4e/3x3
I0403 16:50:03.049106 19673 net.cpp:425] inception_4e/3x3 <- inception_4e/3x3_reduce
I0403 16:50:03.049132 19673 net.cpp:399] inception_4e/3x3 -> inception_4e/3x3
I0403 16:50:03.055331 19673 net.cpp:141] Setting up inception_4e/3x3
I0403 16:50:03.055382 19673 net.cpp:148] Top shape: 24 320 14 14 (1505280)
I0403 16:50:03.055404 19673 net.cpp:156] Memory required for data: 1230108192
I0403 16:50:03.055428 19673 layer_factory.hpp:77] Creating layer inception_4e/relu_3x3
I0403 16:50:03.055452 19673 net.cpp:91] Creating Layer inception_4e/relu_3x3
I0403 16:50:03.055474 19673 net.cpp:425] inception_4e/relu_3x3 <- inception_4e/3x3
I0403 16:50:03.055495 19673 net.cpp:386] inception_4e/relu_3x3 -> inception_4e/3x3 (in-place)
I0403 16:50:03.055876 19673 net.cpp:141] Setting up inception_4e/relu_3x3
I0403 16:50:03.055909 19673 net.cpp:148] Top shape: 24 320 14 14 (1505280)
I0403 16:50:03.055930 19673 net.cpp:156] Memory required for data: 1236129312
I0403 16:50:03.055949 19673 layer_factory.hpp:77] Creating layer inception_4e/5x5_reduce
I0403 16:50:03.055977 19673 net.cpp:91] Creating Layer inception_4e/5x5_reduce
I0403 16:50:03.055999 19673 net.cpp:425] inception_4e/5x5_reduce <- inception_4d/output_inception_4d/output_0_split_3
I0403 16:50:03.056027 19673 net.cpp:399] inception_4e/5x5_reduce -> inception_4e/5x5_reduce
I0403 16:50:03.057353 19673 net.cpp:141] Setting up inception_4e/5x5_reduce
I0403 16:50:03.057391 19673 net.cpp:148] Top shape: 24 32 14 14 (150528)
I0403 16:50:03.057412 19673 net.cpp:156] Memory required for data: 1236731424
I0403 16:50:03.057435 19673 layer_factory.hpp:77] Creating layer inception_4e/relu_5x5_reduce
I0403 16:50:03.057457 19673 net.cpp:91] Creating Layer inception_4e/relu_5x5_reduce
I0403 16:50:03.057477 19673 net.cpp:425] inception_4e/relu_5x5_reduce <- inception_4e/5x5_reduce
I0403 16:50:03.057502 19673 net.cpp:386] inception_4e/relu_5x5_reduce -> inception_4e/5x5_reduce (in-place)
I0403 16:50:03.057874 19673 net.cpp:141] Setting up inception_4e/relu_5x5_reduce
I0403 16:50:03.057910 19673 net.cpp:148] Top shape: 24 32 14 14 (150528)
I0403 16:50:03.057930 19673 net.cpp:156] Memory required for data: 1237333536
I0403 16:50:03.057950 19673 layer_factory.hpp:77] Creating layer inception_4e/5x5
I0403 16:50:03.057996 19673 net.cpp:91] Creating Layer inception_4e/5x5
I0403 16:50:03.058020 19673 net.cpp:425] inception_4e/5x5 <- inception_4e/5x5_reduce
I0403 16:50:03.058045 19673 net.cpp:399] inception_4e/5x5 -> inception_4e/5x5
I0403 16:50:03.060312 19673 net.cpp:141] Setting up inception_4e/5x5
I0403 16:50:03.060349 19673 net.cpp:148] Top shape: 24 128 14 14 (602112)
I0403 16:50:03.060370 19673 net.cpp:156] Memory required for data: 1239741984
I0403 16:50:03.060395 19673 layer_factory.hpp:77] Creating layer inception_4e/relu_5x5
I0403 16:50:03.060416 19673 net.cpp:91] Creating Layer inception_4e/relu_5x5
I0403 16:50:03.060438 19673 net.cpp:425] inception_4e/relu_5x5 <- inception_4e/5x5
I0403 16:50:03.060462 19673 net.cpp:386] inception_4e/relu_5x5 -> inception_4e/5x5 (in-place)
I0403 16:50:03.060714 19673 net.cpp:141] Setting up inception_4e/relu_5x5
I0403 16:50:03.060746 19673 net.cpp:148] Top shape: 24 128 14 14 (602112)
I0403 16:50:03.060765 19673 net.cpp:156] Memory required for data: 1242150432
I0403 16:50:03.060784 19673 layer_factory.hpp:77] Creating layer inception_4e/pool
I0403 16:50:03.060806 19673 net.cpp:91] Creating Layer inception_4e/pool
I0403 16:50:03.060827 19673 net.cpp:425] inception_4e/pool <- inception_4d/output_inception_4d/output_0_split_4
I0403 16:50:03.060853 19673 net.cpp:399] inception_4e/pool -> inception_4e/pool
I0403 16:50:03.060940 19673 net.cpp:141] Setting up inception_4e/pool
I0403 16:50:03.060971 19673 net.cpp:148] Top shape: 24 528 14 14 (2483712)
I0403 16:50:03.060991 19673 net.cpp:156] Memory required for data: 1252085280
I0403 16:50:03.061008 19673 layer_factory.hpp:77] Creating layer inception_4e/pool_proj
I0403 16:50:03.061039 19673 net.cpp:91] Creating Layer inception_4e/pool_proj
I0403 16:50:03.061063 19673 net.cpp:425] inception_4e/pool_proj <- inception_4e/pool
I0403 16:50:03.061086 19673 net.cpp:399] inception_4e/pool_proj -> inception_4e/pool_proj
I0403 16:50:03.062942 19673 net.cpp:141] Setting up inception_4e/pool_proj
I0403 16:50:03.062978 19673 net.cpp:148] Top shape: 24 128 14 14 (602112)
I0403 16:50:03.063014 19673 net.cpp:156] Memory required for data: 1254493728
I0403 16:50:03.063038 19673 layer_factory.hpp:77] Creating layer inception_4e/relu_pool_proj
I0403 16:50:03.063065 19673 net.cpp:91] Creating Layer inception_4e/relu_pool_proj
I0403 16:50:03.063086 19673 net.cpp:425] inception_4e/relu_pool_proj <- inception_4e/pool_proj
I0403 16:50:03.063108 19673 net.cpp:386] inception_4e/relu_pool_proj -> inception_4e/pool_proj (in-place)
I0403 16:50:03.063469 19673 net.cpp:141] Setting up inception_4e/relu_pool_proj
I0403 16:50:03.063503 19673 net.cpp:148] Top shape: 24 128 14 14 (602112)
I0403 16:50:03.063521 19673 net.cpp:156] Memory required for data: 1256902176
I0403 16:50:03.063540 19673 layer_factory.hpp:77] Creating layer inception_4e/output
I0403 16:50:03.063565 19673 net.cpp:91] Creating Layer inception_4e/output
I0403 16:50:03.063593 19673 net.cpp:425] inception_4e/output <- inception_4e/1x1
I0403 16:50:03.063616 19673 net.cpp:425] inception_4e/output <- inception_4e/3x3
I0403 16:50:03.063637 19673 net.cpp:425] inception_4e/output <- inception_4e/5x5
I0403 16:50:03.063658 19673 net.cpp:425] inception_4e/output <- inception_4e/pool_proj
I0403 16:50:03.063681 19673 net.cpp:399] inception_4e/output -> inception_4e/output
I0403 16:50:03.063743 19673 net.cpp:141] Setting up inception_4e/output
I0403 16:50:03.063772 19673 net.cpp:148] Top shape: 24 832 14 14 (3913728)
I0403 16:50:03.063791 19673 net.cpp:156] Memory required for data: 1272557088
I0403 16:50:03.063809 19673 layer_factory.hpp:77] Creating layer pool4/3x3_s2
I0403 16:50:03.063832 19673 net.cpp:91] Creating Layer pool4/3x3_s2
I0403 16:50:03.063851 19673 net.cpp:425] pool4/3x3_s2 <- inception_4e/output
I0403 16:50:03.063876 19673 net.cpp:399] pool4/3x3_s2 -> pool4/3x3_s2
I0403 16:50:03.063961 19673 net.cpp:141] Setting up pool4/3x3_s2
I0403 16:50:03.063992 19673 net.cpp:148] Top shape: 24 832 7 7 (978432)
I0403 16:50:03.064010 19673 net.cpp:156] Memory required for data: 1276470816
I0403 16:50:03.064029 19673 layer_factory.hpp:77] Creating layer pool4/3x3_s2_pool4/3x3_s2_0_split
I0403 16:50:03.064054 19673 net.cpp:91] Creating Layer pool4/3x3_s2_pool4/3x3_s2_0_split
I0403 16:50:03.064072 19673 net.cpp:425] pool4/3x3_s2_pool4/3x3_s2_0_split <- pool4/3x3_s2
I0403 16:50:03.064096 19673 net.cpp:399] pool4/3x3_s2_pool4/3x3_s2_0_split -> pool4/3x3_s2_pool4/3x3_s2_0_split_0
I0403 16:50:03.064121 19673 net.cpp:399] pool4/3x3_s2_pool4/3x3_s2_0_split -> pool4/3x3_s2_pool4/3x3_s2_0_split_1
I0403 16:50:03.064146 19673 net.cpp:399] pool4/3x3_s2_pool4/3x3_s2_0_split -> pool4/3x3_s2_pool4/3x3_s2_0_split_2
I0403 16:50:03.064172 19673 net.cpp:399] pool4/3x3_s2_pool4/3x3_s2_0_split -> pool4/3x3_s2_pool4/3x3_s2_0_split_3
I0403 16:50:03.064283 19673 net.cpp:141] Setting up pool4/3x3_s2_pool4/3x3_s2_0_split
I0403 16:50:03.064316 19673 net.cpp:148] Top shape: 24 832 7 7 (978432)
I0403 16:50:03.064337 19673 net.cpp:148] Top shape: 24 832 7 7 (978432)
I0403 16:50:03.064357 19673 net.cpp:148] Top shape: 24 832 7 7 (978432)
I0403 16:50:03.064375 19673 net.cpp:148] Top shape: 24 832 7 7 (978432)
I0403 16:50:03.064393 19673 net.cpp:156] Memory required for data: 1292125728
I0403 16:50:03.064411 19673 layer_factory.hpp:77] Creating layer inception_5a/1x1
I0403 16:50:03.064438 19673 net.cpp:91] Creating Layer inception_5a/1x1
I0403 16:50:03.064460 19673 net.cpp:425] inception_5a/1x1 <- pool4/3x3_s2_pool4/3x3_s2_0_split_0
I0403 16:50:03.064482 19673 net.cpp:399] inception_5a/1x1 -> inception_5a/1x1
I0403 16:50:03.068018 19673 net.cpp:141] Setting up inception_5a/1x1
I0403 16:50:03.068058 19673 net.cpp:148] Top shape: 24 256 7 7 (301056)
I0403 16:50:03.068078 19673 net.cpp:156] Memory required for data: 1293329952
I0403 16:50:03.068110 19673 layer_factory.hpp:77] Creating layer inception_5a/relu_1x1
I0403 16:50:03.068133 19673 net.cpp:91] Creating Layer inception_5a/relu_1x1
I0403 16:50:03.068155 19673 net.cpp:425] inception_5a/relu_1x1 <- inception_5a/1x1
I0403 16:50:03.068178 19673 net.cpp:386] inception_5a/relu_1x1 -> inception_5a/1x1 (in-place)
I0403 16:50:03.068565 19673 net.cpp:141] Setting up inception_5a/relu_1x1
I0403 16:50:03.068608 19673 net.cpp:148] Top shape: 24 256 7 7 (301056)
I0403 16:50:03.068629 19673 net.cpp:156] Memory required for data: 1294534176
I0403 16:50:03.068647 19673 layer_factory.hpp:77] Creating layer inception_5a/3x3_reduce
I0403 16:50:03.068676 19673 net.cpp:91] Creating Layer inception_5a/3x3_reduce
I0403 16:50:03.068698 19673 net.cpp:425] inception_5a/3x3_reduce <- pool4/3x3_s2_pool4/3x3_s2_0_split_1
I0403 16:50:03.068722 19673 net.cpp:399] inception_5a/3x3_reduce -> inception_5a/3x3_reduce
I0403 16:50:03.071748 19673 net.cpp:141] Setting up inception_5a/3x3_reduce
I0403 16:50:03.071785 19673 net.cpp:148] Top shape: 24 160 7 7 (188160)
I0403 16:50:03.071806 19673 net.cpp:156] Memory required for data: 1295286816
I0403 16:50:03.071830 19673 layer_factory.hpp:77] Creating layer inception_5a/relu_3x3_reduce
I0403 16:50:03.071856 19673 net.cpp:91] Creating Layer inception_5a/relu_3x3_reduce
I0403 16:50:03.071877 19673 net.cpp:425] inception_5a/relu_3x3_reduce <- inception_5a/3x3_reduce
I0403 16:50:03.071898 19673 net.cpp:386] inception_5a/relu_3x3_reduce -> inception_5a/3x3_reduce (in-place)
I0403 16:50:03.072131 19673 net.cpp:141] Setting up inception_5a/relu_3x3_reduce
I0403 16:50:03.072165 19673 net.cpp:148] Top shape: 24 160 7 7 (188160)
I0403 16:50:03.072185 19673 net.cpp:156] Memory required for data: 1296039456
I0403 16:50:03.072204 19673 layer_factory.hpp:77] Creating layer inception_5a/3x3
I0403 16:50:03.072232 19673 net.cpp:91] Creating Layer inception_5a/3x3
I0403 16:50:03.072255 19673 net.cpp:425] inception_5a/3x3 <- inception_5a/3x3_reduce
I0403 16:50:03.072279 19673 net.cpp:399] inception_5a/3x3 -> inception_5a/3x3
I0403 16:50:03.078603 19673 net.cpp:141] Setting up inception_5a/3x3
I0403 16:50:03.078642 19673 net.cpp:148] Top shape: 24 320 7 7 (376320)
I0403 16:50:03.078665 19673 net.cpp:156] Memory required for data: 1297544736
I0403 16:50:03.078686 19673 layer_factory.hpp:77] Creating layer inception_5a/relu_3x3
I0403 16:50:03.078709 19673 net.cpp:91] Creating Layer inception_5a/relu_3x3
I0403 16:50:03.078728 19673 net.cpp:425] inception_5a/relu_3x3 <- inception_5a/3x3
I0403 16:50:03.078753 19673 net.cpp:386] inception_5a/relu_3x3 -> inception_5a/3x3 (in-place)
I0403 16:50:03.079112 19673 net.cpp:141] Setting up inception_5a/relu_3x3
I0403 16:50:03.079146 19673 net.cpp:148] Top shape: 24 320 7 7 (376320)
I0403 16:50:03.079166 19673 net.cpp:156] Memory required for data: 1299050016
I0403 16:50:03.079185 19673 layer_factory.hpp:77] Creating layer inception_5a/5x5_reduce
I0403 16:50:03.079215 19673 net.cpp:91] Creating Layer inception_5a/5x5_reduce
I0403 16:50:03.079237 19673 net.cpp:425] inception_5a/5x5_reduce <- pool4/3x3_s2_pool4/3x3_s2_0_split_2
I0403 16:50:03.079262 19673 net.cpp:399] inception_5a/5x5_reduce -> inception_5a/5x5_reduce
I0403 16:50:03.080723 19673 net.cpp:141] Setting up inception_5a/5x5_reduce
I0403 16:50:03.080763 19673 net.cpp:148] Top shape: 24 32 7 7 (37632)
I0403 16:50:03.080785 19673 net.cpp:156] Memory required for data: 1299200544
I0403 16:50:03.080807 19673 layer_factory.hpp:77] Creating layer inception_5a/relu_5x5_reduce
I0403 16:50:03.080831 19673 net.cpp:91] Creating Layer inception_5a/relu_5x5_reduce
I0403 16:50:03.080852 19673 net.cpp:425] inception_5a/relu_5x5_reduce <- inception_5a/5x5_reduce
I0403 16:50:03.080878 19673 net.cpp:386] inception_5a/relu_5x5_reduce -> inception_5a/5x5_reduce (in-place)
I0403 16:50:03.081244 19673 net.cpp:141] Setting up inception_5a/relu_5x5_reduce
I0403 16:50:03.081277 19673 net.cpp:148] Top shape: 24 32 7 7 (37632)
I0403 16:50:03.081297 19673 net.cpp:156] Memory required for data: 1299351072
I0403 16:50:03.081315 19673 layer_factory.hpp:77] Creating layer inception_5a/5x5
I0403 16:50:03.081343 19673 net.cpp:91] Creating Layer inception_5a/5x5
I0403 16:50:03.081365 19673 net.cpp:425] inception_5a/5x5 <- inception_5a/5x5_reduce
I0403 16:50:03.081393 19673 net.cpp:399] inception_5a/5x5 -> inception_5a/5x5
I0403 16:50:03.083524 19673 net.cpp:141] Setting up inception_5a/5x5
I0403 16:50:03.083585 19673 net.cpp:148] Top shape: 24 128 7 7 (150528)
I0403 16:50:03.083607 19673 net.cpp:156] Memory required for data: 1299953184
I0403 16:50:03.083631 19673 layer_factory.hpp:77] Creating layer inception_5a/relu_5x5
I0403 16:50:03.083654 19673 net.cpp:91] Creating Layer inception_5a/relu_5x5
I0403 16:50:03.083674 19673 net.cpp:425] inception_5a/relu_5x5 <- inception_5a/5x5
I0403 16:50:03.083698 19673 net.cpp:386] inception_5a/relu_5x5 -> inception_5a/5x5 (in-place)
I0403 16:50:03.083935 19673 net.cpp:141] Setting up inception_5a/relu_5x5
I0403 16:50:03.083967 19673 net.cpp:148] Top shape: 24 128 7 7 (150528)
I0403 16:50:03.083986 19673 net.cpp:156] Memory required for data: 1300555296
I0403 16:50:03.084005 19673 layer_factory.hpp:77] Creating layer inception_5a/pool
I0403 16:50:03.084027 19673 net.cpp:91] Creating Layer inception_5a/pool
I0403 16:50:03.084048 19673 net.cpp:425] inception_5a/pool <- pool4/3x3_s2_pool4/3x3_s2_0_split_3
I0403 16:50:03.084071 19673 net.cpp:399] inception_5a/pool -> inception_5a/pool
I0403 16:50:03.084168 19673 net.cpp:141] Setting up inception_5a/pool
I0403 16:50:03.084197 19673 net.cpp:148] Top shape: 24 832 7 7 (978432)
I0403 16:50:03.084216 19673 net.cpp:156] Memory required for data: 1304469024
I0403 16:50:03.084234 19673 layer_factory.hpp:77] Creating layer inception_5a/pool_proj
I0403 16:50:03.084264 19673 net.cpp:91] Creating Layer inception_5a/pool_proj
I0403 16:50:03.084285 19673 net.cpp:425] inception_5a/pool_proj <- inception_5a/pool
I0403 16:50:03.084309 19673 net.cpp:399] inception_5a/pool_proj -> inception_5a/pool_proj
I0403 16:50:03.087118 19673 net.cpp:141] Setting up inception_5a/pool_proj
I0403 16:50:03.087158 19673 net.cpp:148] Top shape: 24 128 7 7 (150528)
I0403 16:50:03.087179 19673 net.cpp:156] Memory required for data: 1305071136
I0403 16:50:03.087203 19673 layer_factory.hpp:77] Creating layer inception_5a/relu_pool_proj
I0403 16:50:03.087225 19673 net.cpp:91] Creating Layer inception_5a/relu_pool_proj
I0403 16:50:03.087246 19673 net.cpp:425] inception_5a/relu_pool_proj <- inception_5a/pool_proj
I0403 16:50:03.087267 19673 net.cpp:386] inception_5a/relu_pool_proj -> inception_5a/pool_proj (in-place)
I0403 16:50:03.087642 19673 net.cpp:141] Setting up inception_5a/relu_pool_proj
I0403 16:50:03.087679 19673 net.cpp:148] Top shape: 24 128 7 7 (150528)
I0403 16:50:03.087699 19673 net.cpp:156] Memory required for data: 1305673248
I0403 16:50:03.087718 19673 layer_factory.hpp:77] Creating layer inception_5a/output
I0403 16:50:03.087738 19673 net.cpp:91] Creating Layer inception_5a/output
I0403 16:50:03.087759 19673 net.cpp:425] inception_5a/output <- inception_5a/1x1
I0403 16:50:03.087779 19673 net.cpp:425] inception_5a/output <- inception_5a/3x3
I0403 16:50:03.087800 19673 net.cpp:425] inception_5a/output <- inception_5a/5x5
I0403 16:50:03.087821 19673 net.cpp:425] inception_5a/output <- inception_5a/pool_proj
I0403 16:50:03.087841 19673 net.cpp:399] inception_5a/output -> inception_5a/output
I0403 16:50:03.087904 19673 net.cpp:141] Setting up inception_5a/output
I0403 16:50:03.087934 19673 net.cpp:148] Top shape: 24 832 7 7 (978432)
I0403 16:50:03.087952 19673 net.cpp:156] Memory required for data: 1309586976
I0403 16:50:03.087970 19673 layer_factory.hpp:77] Creating layer inception_5a/output_inception_5a/output_0_split
I0403 16:50:03.087991 19673 net.cpp:91] Creating Layer inception_5a/output_inception_5a/output_0_split
I0403 16:50:03.088009 19673 net.cpp:425] inception_5a/output_inception_5a/output_0_split <- inception_5a/output
I0403 16:50:03.088034 19673 net.cpp:399] inception_5a/output_inception_5a/output_0_split -> inception_5a/output_inception_5a/output_0_split_0
I0403 16:50:03.088059 19673 net.cpp:399] inception_5a/output_inception_5a/output_0_split -> inception_5a/output_inception_5a/output_0_split_1
I0403 16:50:03.088084 19673 net.cpp:399] inception_5a/output_inception_5a/output_0_split -> inception_5a/output_inception_5a/output_0_split_2
I0403 16:50:03.088111 19673 net.cpp:399] inception_5a/output_inception_5a/output_0_split -> inception_5a/output_inception_5a/output_0_split_3
I0403 16:50:03.088250 19673 net.cpp:141] Setting up inception_5a/output_inception_5a/output_0_split
I0403 16:50:03.088281 19673 net.cpp:148] Top shape: 24 832 7 7 (978432)
I0403 16:50:03.088301 19673 net.cpp:148] Top shape: 24 832 7 7 (978432)
I0403 16:50:03.088321 19673 net.cpp:148] Top shape: 24 832 7 7 (978432)
I0403 16:50:03.088340 19673 net.cpp:148] Top shape: 24 832 7 7 (978432)
I0403 16:50:03.088356 19673 net.cpp:156] Memory required for data: 1325241888
I0403 16:50:03.088376 19673 layer_factory.hpp:77] Creating layer inception_5b/1x1
I0403 16:50:03.088403 19673 net.cpp:91] Creating Layer inception_5b/1x1
I0403 16:50:03.088425 19673 net.cpp:425] inception_5b/1x1 <- inception_5a/output_inception_5a/output_0_split_0
I0403 16:50:03.088452 19673 net.cpp:399] inception_5b/1x1 -> inception_5b/1x1
I0403 16:50:03.093081 19673 net.cpp:141] Setting up inception_5b/1x1
I0403 16:50:03.093119 19673 net.cpp:148] Top shape: 24 384 7 7 (451584)
I0403 16:50:03.093140 19673 net.cpp:156] Memory required for data: 1327048224
I0403 16:50:03.093163 19673 layer_factory.hpp:77] Creating layer inception_5b/relu_1x1
I0403 16:50:03.093189 19673 net.cpp:91] Creating Layer inception_5b/relu_1x1
I0403 16:50:03.093209 19673 net.cpp:425] inception_5b/relu_1x1 <- inception_5b/1x1
I0403 16:50:03.093230 19673 net.cpp:386] inception_5b/relu_1x1 -> inception_5b/1x1 (in-place)
I0403 16:50:03.093613 19673 net.cpp:141] Setting up inception_5b/relu_1x1
I0403 16:50:03.093647 19673 net.cpp:148] Top shape: 24 384 7 7 (451584)
I0403 16:50:03.093667 19673 net.cpp:156] Memory required for data: 1328854560
I0403 16:50:03.093685 19673 layer_factory.hpp:77] Creating layer inception_5b/3x3_reduce
I0403 16:50:03.093713 19673 net.cpp:91] Creating Layer inception_5b/3x3_reduce
I0403 16:50:03.093735 19673 net.cpp:425] inception_5b/3x3_reduce <- inception_5a/output_inception_5a/output_0_split_1
I0403 16:50:03.093765 19673 net.cpp:399] inception_5b/3x3_reduce -> inception_5b/3x3_reduce
I0403 16:50:03.097045 19673 net.cpp:141] Setting up inception_5b/3x3_reduce
I0403 16:50:03.097082 19673 net.cpp:148] Top shape: 24 192 7 7 (225792)
I0403 16:50:03.097103 19673 net.cpp:156] Memory required for data: 1329757728
I0403 16:50:03.097126 19673 layer_factory.hpp:77] Creating layer inception_5b/relu_3x3_reduce
I0403 16:50:03.097152 19673 net.cpp:91] Creating Layer inception_5b/relu_3x3_reduce
I0403 16:50:03.097172 19673 net.cpp:425] inception_5b/relu_3x3_reduce <- inception_5b/3x3_reduce
I0403 16:50:03.097194 19673 net.cpp:386] inception_5b/relu_3x3_reduce -> inception_5b/3x3_reduce (in-place)
I0403 16:50:03.097434 19673 net.cpp:141] Setting up inception_5b/relu_3x3_reduce
I0403 16:50:03.097468 19673 net.cpp:148] Top shape: 24 192 7 7 (225792)
I0403 16:50:03.097488 19673 net.cpp:156] Memory required for data: 1330660896
I0403 16:50:03.097506 19673 layer_factory.hpp:77] Creating layer inception_5b/3x3
I0403 16:50:03.097537 19673 net.cpp:91] Creating Layer inception_5b/3x3
I0403 16:50:03.097560 19673 net.cpp:425] inception_5b/3x3 <- inception_5b/3x3_reduce
I0403 16:50:03.097592 19673 net.cpp:399] inception_5b/3x3 -> inception_5b/3x3
I0403 16:50:03.105918 19673 net.cpp:141] Setting up inception_5b/3x3
I0403 16:50:03.105957 19673 net.cpp:148] Top shape: 24 384 7 7 (451584)
I0403 16:50:03.105979 19673 net.cpp:156] Memory required for data: 1332467232
I0403 16:50:03.106003 19673 layer_factory.hpp:77] Creating layer inception_5b/relu_3x3
I0403 16:50:03.106025 19673 net.cpp:91] Creating Layer inception_5b/relu_3x3
I0403 16:50:03.106045 19673 net.cpp:425] inception_5b/relu_3x3 <- inception_5b/3x3
I0403 16:50:03.106067 19673 net.cpp:386] inception_5b/relu_3x3 -> inception_5b/3x3 (in-place)
I0403 16:50:03.106433 19673 net.cpp:141] Setting up inception_5b/relu_3x3
I0403 16:50:03.106469 19673 net.cpp:148] Top shape: 24 384 7 7 (451584)
I0403 16:50:03.106490 19673 net.cpp:156] Memory required for data: 1334273568
I0403 16:50:03.106509 19673 layer_factory.hpp:77] Creating layer inception_5b/5x5_reduce
I0403 16:50:03.106555 19673 net.cpp:91] Creating Layer inception_5b/5x5_reduce
I0403 16:50:03.106585 19673 net.cpp:425] inception_5b/5x5_reduce <- inception_5a/output_inception_5a/output_0_split_2
I0403 16:50:03.106614 19673 net.cpp:399] inception_5b/5x5_reduce -> inception_5b/5x5_reduce
I0403 16:50:03.108193 19673 net.cpp:141] Setting up inception_5b/5x5_reduce
I0403 16:50:03.108228 19673 net.cpp:148] Top shape: 24 48 7 7 (56448)
I0403 16:50:03.108248 19673 net.cpp:156] Memory required for data: 1334499360
I0403 16:50:03.108271 19673 layer_factory.hpp:77] Creating layer inception_5b/relu_5x5_reduce
I0403 16:50:03.108297 19673 net.cpp:91] Creating Layer inception_5b/relu_5x5_reduce
I0403 16:50:03.108319 19673 net.cpp:425] inception_5b/relu_5x5_reduce <- inception_5b/5x5_reduce
I0403 16:50:03.108340 19673 net.cpp:386] inception_5b/relu_5x5_reduce -> inception_5b/5x5_reduce (in-place)
I0403 16:50:03.108808 19673 net.cpp:141] Setting up inception_5b/relu_5x5_reduce
I0403 16:50:03.108841 19673 net.cpp:148] Top shape: 24 48 7 7 (56448)
I0403 16:50:03.108860 19673 net.cpp:156] Memory required for data: 1334725152
I0403 16:50:03.108880 19673 layer_factory.hpp:77] Creating layer inception_5b/5x5
I0403 16:50:03.108904 19673 net.cpp:91] Creating Layer inception_5b/5x5
I0403 16:50:03.108927 19673 net.cpp:425] inception_5b/5x5 <- inception_5b/5x5_reduce
I0403 16:50:03.108949 19673 net.cpp:399] inception_5b/5x5 -> inception_5b/5x5
I0403 16:50:03.111492 19673 net.cpp:141] Setting up inception_5b/5x5
I0403 16:50:03.111531 19673 net.cpp:148] Top shape: 24 128 7 7 (150528)
I0403 16:50:03.111552 19673 net.cpp:156] Memory required for data: 1335327264
I0403 16:50:03.111582 19673 layer_factory.hpp:77] Creating layer inception_5b/relu_5x5
I0403 16:50:03.111605 19673 net.cpp:91] Creating Layer inception_5b/relu_5x5
I0403 16:50:03.111626 19673 net.cpp:425] inception_5b/relu_5x5 <- inception_5b/5x5
I0403 16:50:03.111650 19673 net.cpp:386] inception_5b/relu_5x5 -> inception_5b/5x5 (in-place)
I0403 16:50:03.111893 19673 net.cpp:141] Setting up inception_5b/relu_5x5
I0403 16:50:03.111925 19673 net.cpp:148] Top shape: 24 128 7 7 (150528)
I0403 16:50:03.111944 19673 net.cpp:156] Memory required for data: 1335929376
I0403 16:50:03.111961 19673 layer_factory.hpp:77] Creating layer inception_5b/pool
I0403 16:50:03.111982 19673 net.cpp:91] Creating Layer inception_5b/pool
I0403 16:50:03.112004 19673 net.cpp:425] inception_5b/pool <- inception_5a/output_inception_5a/output_0_split_3
I0403 16:50:03.112030 19673 net.cpp:399] inception_5b/pool -> inception_5b/pool
I0403 16:50:03.112120 19673 net.cpp:141] Setting up inception_5b/pool
I0403 16:50:03.112151 19673 net.cpp:148] Top shape: 24 832 7 7 (978432)
I0403 16:50:03.112169 19673 net.cpp:156] Memory required for data: 1339843104
I0403 16:50:03.112186 19673 layer_factory.hpp:77] Creating layer inception_5b/pool_proj
I0403 16:50:03.112213 19673 net.cpp:91] Creating Layer inception_5b/pool_proj
I0403 16:50:03.112234 19673 net.cpp:425] inception_5b/pool_proj <- inception_5b/pool
I0403 16:50:03.112262 19673 net.cpp:399] inception_5b/pool_proj -> inception_5b/pool_proj
I0403 16:50:03.115103 19673 net.cpp:141] Setting up inception_5b/pool_proj
I0403 16:50:03.115140 19673 net.cpp:148] Top shape: 24 128 7 7 (150528)
I0403 16:50:03.115160 19673 net.cpp:156] Memory required for data: 1340445216
I0403 16:50:03.115185 19673 layer_factory.hpp:77] Creating layer inception_5b/relu_pool_proj
I0403 16:50:03.115211 19673 net.cpp:91] Creating Layer inception_5b/relu_pool_proj
I0403 16:50:03.115232 19673 net.cpp:425] inception_5b/relu_pool_proj <- inception_5b/pool_proj
I0403 16:50:03.115255 19673 net.cpp:386] inception_5b/relu_pool_proj -> inception_5b/pool_proj (in-place)
I0403 16:50:03.115631 19673 net.cpp:141] Setting up inception_5b/relu_pool_proj
I0403 16:50:03.115665 19673 net.cpp:148] Top shape: 24 128 7 7 (150528)
I0403 16:50:03.115684 19673 net.cpp:156] Memory required for data: 1341047328
I0403 16:50:03.115703 19673 layer_factory.hpp:77] Creating layer inception_5b/output
I0403 16:50:03.115728 19673 net.cpp:91] Creating Layer inception_5b/output
I0403 16:50:03.115767 19673 net.cpp:425] inception_5b/output <- inception_5b/1x1
I0403 16:50:03.115789 19673 net.cpp:425] inception_5b/output <- inception_5b/3x3
I0403 16:50:03.115818 19673 net.cpp:425] inception_5b/output <- inception_5b/5x5
I0403 16:50:03.115838 19673 net.cpp:425] inception_5b/output <- inception_5b/pool_proj
I0403 16:50:03.115859 19673 net.cpp:399] inception_5b/output -> inception_5b/output
I0403 16:50:03.115924 19673 net.cpp:141] Setting up inception_5b/output
I0403 16:50:03.115954 19673 net.cpp:148] Top shape: 24 1024 7 7 (1204224)
I0403 16:50:03.115973 19673 net.cpp:156] Memory required for data: 1345864224
I0403 16:50:03.115991 19673 layer_factory.hpp:77] Creating layer pool5/7x7_s1
I0403 16:50:03.116016 19673 net.cpp:91] Creating Layer pool5/7x7_s1
I0403 16:50:03.116036 19673 net.cpp:425] pool5/7x7_s1 <- inception_5b/output
I0403 16:50:03.116058 19673 net.cpp:399] pool5/7x7_s1 -> pool5/7x7_s1
I0403 16:50:03.116339 19673 net.cpp:141] Setting up pool5/7x7_s1
I0403 16:50:03.116374 19673 net.cpp:148] Top shape: 24 1024 1 1 (24576)
I0403 16:50:03.116394 19673 net.cpp:156] Memory required for data: 1345962528
I0403 16:50:03.116413 19673 layer_factory.hpp:77] Creating layer pool5/drop_7x7_s1
I0403 16:50:03.116435 19673 net.cpp:91] Creating Layer pool5/drop_7x7_s1
I0403 16:50:03.116454 19673 net.cpp:425] pool5/drop_7x7_s1 <- pool5/7x7_s1
I0403 16:50:03.116478 19673 net.cpp:386] pool5/drop_7x7_s1 -> pool5/7x7_s1 (in-place)
I0403 16:50:03.116541 19673 net.cpp:141] Setting up pool5/drop_7x7_s1
I0403 16:50:03.116569 19673 net.cpp:148] Top shape: 24 1024 1 1 (24576)
I0403 16:50:03.116596 19673 net.cpp:156] Memory required for data: 1346060832
I0403 16:50:03.116616 19673 layer_factory.hpp:77] Creating layer loss3/classifier_plantvillage
I0403 16:50:03.116642 19673 net.cpp:91] Creating Layer loss3/classifier_plantvillage
I0403 16:50:03.116663 19673 net.cpp:425] loss3/classifier_plantvillage <- pool5/7x7_s1
I0403 16:50:03.116691 19673 net.cpp:399] loss3/classifier_plantvillage -> loss3/classifier_plantvillage
I0403 16:50:03.117216 19673 net.cpp:141] Setting up loss3/classifier_plantvillage
I0403 16:50:03.117247 19673 net.cpp:148] Top shape: 24 38 (912)
I0403 16:50:03.117267 19673 net.cpp:156] Memory required for data: 1346064480
I0403 16:50:03.117290 19673 layer_factory.hpp:77] Creating layer loss3/classifier_plantvillage_loss3/classifier_plantvillage_0_split
I0403 16:50:03.117311 19673 net.cpp:91] Creating Layer loss3/classifier_plantvillage_loss3/classifier_plantvillage_0_split
I0403 16:50:03.117338 19673 net.cpp:425] loss3/classifier_plantvillage_loss3/classifier_plantvillage_0_split <- loss3/classifier_plantvillage
I0403 16:50:03.117360 19673 net.cpp:399] loss3/classifier_plantvillage_loss3/classifier_plantvillage_0_split -> loss3/classifier_plantvillage_loss3/classifier_plantvillage_0_split_0
I0403 16:50:03.117384 19673 net.cpp:399] loss3/classifier_plantvillage_loss3/classifier_plantvillage_0_split -> loss3/classifier_plantvillage_loss3/classifier_plantvillage_0_split_1
I0403 16:50:03.117408 19673 net.cpp:399] loss3/classifier_plantvillage_loss3/classifier_plantvillage_0_split -> loss3/classifier_plantvillage_loss3/classifier_plantvillage_0_split_2
I0403 16:50:03.117434 19673 net.cpp:399] loss3/classifier_plantvillage_loss3/classifier_plantvillage_0_split -> loss3/classifier_plantvillage_loss3/classifier_plantvillage_0_split_3
I0403 16:50:03.117558 19673 net.cpp:141] Setting up loss3/classifier_plantvillage_loss3/classifier_plantvillage_0_split
I0403 16:50:03.117599 19673 net.cpp:148] Top shape: 24 38 (912)
I0403 16:50:03.117621 19673 net.cpp:148] Top shape: 24 38 (912)
I0403 16:50:03.117641 19673 net.cpp:148] Top shape: 24 38 (912)
I0403 16:50:03.117660 19673 net.cpp:148] Top shape: 24 38 (912)
I0403 16:50:03.117677 19673 net.cpp:156] Memory required for data: 1346079072
I0403 16:50:03.117694 19673 layer_factory.hpp:77] Creating layer loss1/loss
I0403 16:50:03.117722 19673 net.cpp:91] Creating Layer loss1/loss
I0403 16:50:03.117744 19673 net.cpp:425] loss1/loss <- loss1/classifier_plantvillage_loss1/classifier_plantvillage_0_split_0
I0403 16:50:03.117784 19673 net.cpp:425] loss1/loss <- label_data_1_split_0
…
