…
I0403 16:22:53.426872 18039 net.cpp:313] The NetState phase (1) differed from the phase (0) specified by a rule in layer data
I0403 16:22:53.428021 18039 net.cpp:49] Initializing net from parameters: 
state {
  phase: TEST
}
layer {
  name: "data"
  type: "Data"
  top: "data"
  top: "label"
  include {
    phase: TEST
  }
  transform_param {
    mirror: false
    crop_size: 224
    mean_file: "/home/mohanty/data/final_dataset/lmdb/color-20-80/mean.binaryproto"
  }
  data_param {
    source: "/home/mohanty/data/final_dataset/lmdb/color-20-80/test_db"
    batch_size: 24
    backend: LMDB
  }
}
layer {
  name: "conv1/7x7_s2"
  type: "Convolution"
  bottom: "data"
  top: "conv1/7x7_s2"
  param {
    lr_mult: 1
    decay_mult: 1
  }
  param {
    lr_mult: 2
    decay_mult: 0
  }
  convolution_param {
    num_output: 64
    pad: 3
    kernel_size: 7
    stride: 2
    weight_filler {
      type: "xavier"
      std: 0.1
    }
    bias_filler {
      type: "constant"
      value: 0.2
    }
  }
}
layer {
  name: "conv1/relu_7x7"
  type: "ReLU"
  bottom: "conv1/7x7_s2"
  top: "conv1/7x7_s2"
}
layer {
  name: "pool1/3x3_s2"
  type: "Pooling"
  bottom: "conv1/7x7_s2"
  top: "pool1/3x3_s2"
  pooling_param {
    pool: MAX
    kernel_size: 3
    stride: 2
  }
}
layer {
  name: "pool1/norm1"
  type: "LRN"
  bottom: "pool1/3x3_s2"
  top: "pool1/norm1"
  lrn_param {
    local_size: 5
    alpha: 0.0001
    beta: 0.75
  }
}
layer {
  name: "conv2/3x3_reduce"
  type: "Convolution"
  bottom: "pool1/norm1"
  top: "conv2/3x3_reduce"
  param {
    lr_mult: 1
    decay_mult: 1
  }
  param {
    lr_mult: 2
    decay_mult: 0
  }
  convolution_param {
    num_output: 64
    kernel_size: 1
    weight_filler {
      type: "xavier"
      std: 0.1
    }
    bias_filler {
      type: "constant"
      value: 0.2
    }
  }
}
layer {
  name: "conv2/relu_3x3_reduce"
  type: "ReLU"
  bottom: "conv2/3x3_reduce"
  top: "conv2/3x3_reduce"
}
layer {
  name: "conv2/3x3"
  type: "Convolution"
  bottom: "conv2/3x3_reduce"
  top: "conv2/3x3"
  param {
    lr_mult: 1
    decay_mult: 1
  }
  param {
    lr_mult: 2
    decay_mult: 0
  }
  convolution_param {
    num_output: 192
    pad: 1
    kernel_size: 3
    weight_filler {
      type: "xavier"
      std: 0.03
    }
    bias_filler {
      type: "constant"
      value: 0.2
    }
  }
}
layer {
  name: "conv2/relu_3x3"
  type: "ReLU"
  bottom: "conv2/3x3"
  top: "conv2/3x3"
}
layer {
  name: "conv2/norm2"
  type: "LRN"
  bottom: "conv2/3x3"
  top: "conv2/norm2"
  lrn_param {
    local_size: 5
    alpha: 0.0001
    beta: 0.75
  }
}
layer {
  name: "pool2/3x3_s2"
  type: "Pooling"
  bottom: "conv2/norm2"
  top: "pool2/3x3_s2"
  pooling_param {
    pool: MAX
    kernel_size: 3
    stride: 2
  }
}
layer {
  name: "inception_3a/1x1"
  type: "Convolution"
  bottom: "pool2/3x3_s2"
  top: "inception_3a/1x1"
  param {
    lr_mult: 1
    decay_mult: 1
  }
  param {
    lr_mult: 2
    decay_mult: 0
  }
  convolution_param {
    num_output: 64
    kernel_size: 1
    weight_filler {
      type: "xavier"
      std: 0.03
    }
    bias_filler {
      type: "constant"
      value: 0.2
    }
  }
}
layer {
  name: "inception_3a/relu_1x1"
  type: "ReLU"
  bottom: "inception_3a/1x1"
  top: "inception_3a/1x1"
}
layer {
  name: "inception_3a/3x3_reduce"
  type: "Convolution"
  bottom: "pool2/3x3_s2"
  top: "inception_3a/3x3_reduce"
  param {
    lr_mult: 1
    decay_mult: 1
  }
  param {
    lr_mult: 2
    decay_mult: 0
  }
  convolution_param {
    num_output: 96
    kernel_size: 1
    weight_filler {
      type: "xavier"
      std: 0.09
    }
    bias_filler {
      type: "constant"
      value: 0.2
    }
  }
}
layer {
  name: "inception_3a/relu_3x3_reduce"
  type: "ReLU"
  bottom: "inception_3a/3x3_reduce"
  top: "inception_3a/3x3_reduce"
}
layer {
  name: "inception_3a/3x3"
  type: "Convolution"
  bottom: "inception_3a/3x3_reduce"
  top: "inception_3a/3x3"
  param {
    lr_mult: 1
    decay_mult: 1
  }
  param {
    lr_mult: 2
    decay_mult: 0
  }
  convolution_param {
    num_output: 128
    pad: 1
    kernel_size: 3
    weight_filler {
      type: "xavier"
      std: 0.03
    }
    bias_filler {
      type: "constant"
      value: 0.2
    }
  }
}
layer {
  name: "inception_3a/relu_3x3"
  type: "ReLU"
  bottom: "inception_3a/3x3"
  top: "inception_3a/3x3"
}
layer {
  name: "inception_3a/5x5_reduce"
  type: "Convolution"
  bottom: "pool2/3x3_s2"
  top: "inception_3a/5x5_reduce"
  param {
    lr_mult: 1
    decay_mult: 1
  }
  param {
    lr_mult: 2
    decay_mult: 0
  }
  convolution_param {
    num_output: 16
    kernel_size: 1
    weight_filler {
      type: "xavier"
      std: 0.2
    }
    bias_filler {
      type: "constant"
      value: 0.2
    }
  }
}
layer {
  name: "inception_3a/relu_5x5_reduce"
  type: "ReLU"
  bottom: "inception_3a/5x5_reduce"
  top: "inception_3a/5x5_reduce"
}
layer {
  name: "inception_3a/5x5"
  type: "Convolution"
  bottom: "inception_3a/5x5_reduce"
  top: "inception_3a/5x5"
  param {
    lr_mult: 1
    decay_mult: 1
  }
  param {
    lr_mult: 2
    decay_mult: 0
  }
  convolution_param {
    num_output: 32
    pad: 2
    kernel_size: 5
    weight_filler {
      type: "xavier"
      std: 0.03
    }
    bias_filler {
      type: "constant"
      value: 0.2
    }
  }
}
layer {
  name: "inception_3a/relu_5x5"
  type: "ReLU"
  bottom: "inception_3a/5x5"
  top: "inception_3a/5x5"
}
layer {
  name: "inception_3a/pool"
  type: "Pooling"
  bottom: "pool2/3x3_s2"
  top: "inception_3a/pool"
  pooling_param {
    pool: MAX
    kernel_size: 3
    stride: 1
    pad: 1
  }
}
layer {
  name: "inception_3a/pool_proj"
  type: "Convolution"
  bottom: "inception_3a/pool"
  top: "inception_3a/pool_proj"
  param {
    lr_mult: 1
    decay_mult: 1
  }
  param {
    lr_mult: 2
    decay_mult: 0
  }
  convolution_param {
    num_output: 32
    kernel_size: 1
    weight_filler {
      type: "xavier"
      std: 0.1
    }
    bias_filler {
      type: "constant"
      value: 0.2
    }
  }
}
layer {
  name: "inception_3a/relu_pool_proj"
  type: "ReLU"
  bottom: "inception_3a/pool_proj"
  top: "inception_3a/pool_proj"
}
layer {
  name: "inception_3a/output"
  type: "Concat"
  bottom: "inception_3a/1x1"
  bottom: "inception_3a/3x3"
  bottom: "inception_3a/5x5"
  bottom: "inception_3a/pool_proj"
  top: "inception_3a/output"
}
layer {
  name: "inception_3b/1x1"
  type: "Convolution"
  bottom: "inception_3a/output"
  top: "inception_3b/1x1"
  param {
    lr_mult: 1
    decay_mult: 1
  }
  param {
    lr_mult: 2
    decay_mult: 0
  }
  convolution_param {
    num_output: 128
    kernel_size: 1
    weight_filler {
      type: "xavier"
      std: 0.03
    }
    bias_filler {
      type: "constant"
      value: 0.2
    }
  }
}
layer {
  name: "inception_3b/relu_1x1"
  type: "ReLU"
  bottom: "inception_3b/1x1"
  top: "inception_3b/1x1"
}
layer {
  name: "inception_3b/3x3_reduce"
  type: "Convolution"
  bottom: "inception_3a/output"
  top: "inception_3b/3x3_reduce"
  param {
    lr_mult: 1
    decay_mult: 1
  }
  param {
    lr_mult: 2
    decay_mult: 0
  }
  convolution_param {
    num_output: 128
    kernel_size: 1
    weight_filler {
      type: "xavier"
      std: 0.09
    }
    bias_filler {
      type: "constant"
      value: 0.2
    }
  }
}
layer {
  name: "inception_3b/relu_3x3_reduce"
  type: "ReLU"
  bottom: "inception_3b/3x3_reduce"
  top: "inception_3b/3x3_reduce"
}
layer {
  name: "inception_3b/3x3"
  type: "Convolution"
  bottom: "inception_3b/3x3_reduce"
  top: "inception_3b/3x3"
  param {
    lr_mult: 1
    decay_mult: 1
  }
  param {
    lr_mult: 2
    decay_mult: 0
  }
  convolution_param {
    num_output: 192
    pad: 1
    kernel_size: 3
    weight_filler {
      type: "xavier"
      std: 0.03
    }
    bias_filler {
      type: "constant"
      value: 0.2
    }
  }
}
layer {
  name: "inception_3b/relu_3x3"
  type: "ReLU"
  bottom: "inception_3b/3x3"
  top: "inception_3b/3x3"
}
layer {
  name: "inception_3b/5x5_reduce"
  type: "Convolution"
  bottom: "inception_3a/output"
  top: "inception_3b/5x5_reduce"
  param {
    lr_mult: 1
    decay_mult: 1
  }
  param {
    lr_mult: 2
    decay_mult: 0
  }
  convolution_param {
    num_output: 32
    kernel_size: 1
    weight_filler {
      type: "xavier"
      std: 0.2
    }
    bias_filler {
      type: "constant"
      value: 0.2
    }
  }
}
layer {
  name: "inception_3b/relu_5x5_reduce"
  type: "ReLU"
  bottom: "inception_3b/5x5_reduce"
  top: "inception_3b/5x5_reduce"
}
layer {
  name: "inception_3b/5x5"
  type: "Convolution"
  bottom: "inception_3b/5x5_reduce"
  top: "inception_3b/5x5"
  param {
    lr_mult: 1
    decay_mult: 1
  }
  param {
    lr_mult: 2
    decay_mult: 0
  }
  convolution_param {
    num_output: 96
    pad: 2
    kernel_size: 5
    weight_filler {
      type: "xavier"
      std: 0.03
    }
    bias_filler {
      type: "constant"
      value: 0.2
    }
  }
}
layer {
  name: "inception_3b/relu_5x5"
  type: "ReLU"
  bottom: "inception_3b/5x5"
  top: "inception_3b/5x5"
}
layer {
  name: "inception_3b/pool"
  type: "Pooling"
  bottom: "inception_3a/output"
  top: "inception_3b/pool"
  pooling_param {
    pool: MAX
    kernel_size: 3
    stride: 1
    pad: 1
  }
}
layer {
  name: "inception_3b/pool_proj"
  type: "Convolution"
  bottom: "inception_3b/pool"
  top: "inception_3b/pool_proj"
  param {
    lr_mult: 1
    decay_mult: 1
  }
  param {
    lr_mult: 2
    decay_mult: 0
  }
  convolution_param {
    num_output: 64
    kernel_size: 1
    weight_filler {
      type: "xavier"
      std: 0.1
    }
    bias_filler {
      type: "constant"
      value: 0.2
    }
  }
}
layer {
  name: "inception_3b/relu_pool_proj"
  type: "ReLU"
  bottom: "inception_3b/pool_proj"
  top: "inception_3b/pool_proj"
}
layer {
  name: "inception_3b/output"
  type: "Concat"
  bottom: "inception_3b/1x1"
  bottom: "inception_3b/3x3"
  bottom: "inception_3b/5x5"
  bottom: "inception_3b/pool_proj"
  top: "inception_3b/output"
}
layer {
  name: "pool3/3x3_s2"
  type: "Pooling"
  bottom: "inception_3b/output"
  top: "pool3/3x3_s2"
  pooling_param {
    pool: MAX
    kernel_size: 3
    stride: 2
  }
}
layer {
  name: "inception_4a/1x1"
  type: "Convolution"
  bottom: "pool3/3x3_s2"
  top: "inception_4a/1x1"
  param {
    lr_mult: 1
    decay_mult: 1
  }
  param {
    lr_mult: 2
    decay_mult: 0
  }
  convolution_param {
    num_output: 192
    kernel_size: 1
    weight_filler {
      type: "xavier"
      std: 0.03
    }
    bias_filler {
      type: "constant"
      value: 0.2
    }
  }
}
layer {
  name: "inception_4a/relu_1x1"
  type: "ReLU"
  bottom: "inception_4a/1x1"
  top: "inception_4a/1x1"
}
layer {
  name: "inception_4a/3x3_reduce"
  type: "Convolution"
  bottom: "pool3/3x3_s2"
  top: "inception_4a/3x3_reduce"
  param {
    lr_mult: 1
    decay_mult: 1
  }
  param {
    lr_mult: 2
    decay_mult: 0
  }
  convolution_param {
    num_output: 96
    kernel_size: 1
    weight_filler {
      type: "xavier"
      std: 0.09
    }
    bias_filler {
      type: "constant"
      value: 0.2
    }
  }
}
layer {
  name: "inception_4a/relu_3x3_reduce"
  type: "ReLU"
  bottom: "inception_4a/3x3_reduce"
  top: "inception_4a/3x3_reduce"
}
layer {
  name: "inception_4a/3x3"
  type: "Convolution"
  bottom: "inception_4a/3x3_reduce"
  top: "inception_4a/3x3"
  param {
    lr_mult: 1
    decay_mult: 1
  }
  param {
    lr_mult: 2
    decay_mult: 0
  }
  convolution_param {
    num_output: 208
    pad: 1
    kernel_size: 3
    weight_filler {
      type: "xavier"
      std: 0.03
    }
    bias_filler {
      type: "constant"
      value: 0.2
    }
  }
}
layer {
  name: "inception_4a/relu_3x3"
  type: "ReLU"
  bottom: "inception_4a/3x3"
  top: "inception_4a/3x3"
}
layer {
  name: "inception_4a/5x5_reduce"
  type: "Convolution"
  bottom: "pool3/3x3_s2"
  top: "inception_4a/5x5_reduce"
  param {
    lr_mult: 1
    decay_mult: 1
  }
  param {
    lr_mult: 2
    decay_mult: 0
  }
  convolution_param {
    num_output: 16
    kernel_size: 1
    weight_filler {
      type: "xavier"
      std: 0.2
    }
    bias_filler {
      type: "constant"
      value: 0.2
    }
  }
}
layer {
  name: "inception_4a/relu_5x5_reduce"
  type: "ReLU"
  bottom: "inception_4a/5x5_reduce"
  top: "inception_4a/5x5_reduce"
}
layer {
  name: "inception_4a/5x5"
  type: "Convolution"
  bottom: "inception_4a/5x5_reduce"
  top: "inception_4a/5x5"
  param {
    lr_mult: 1
    decay_mult: 1
  }
  param {
    lr_mult: 2
    decay_mult: 0
  }
  convolution_param {
    num_output: 48
    pad: 2
    kernel_size: 5
    weight_filler {
      type: "xavier"
      std: 0.03
    }
    bias_filler {
      type: "constant"
      value: 0.2
    }
  }
}
layer {
  name: "inception_4a/relu_5x5"
  type: "ReLU"
  bottom: "inception_4a/5x5"
  top: "inception_4a/5x5"
}
layer {
  name: "inception_4a/pool"
  type: "Pooling"
  bottom: "pool3/3x3_s2"
  top: "inception_4a/pool"
  pooling_param {
    pool: MAX
    kernel_size: 3
    stride: 1
    pad: 1
  }
}
layer {
  name: "inception_4a/pool_proj"
  type: "Convolution"
  bottom: "inception_4a/pool"
  top: "inception_4a/pool_proj"
  param {
    lr_mult: 1
    decay_mult: 1
  }
  param {
    lr_mult: 2
    decay_mult: 0
  }
  convolution_param {
    num_output: 64
    kernel_size: 1
    weight_filler {
      type: "xavier"
      std: 0.1
    }
    bias_filler {
      type: "constant"
      value: 0.2
    }
  }
}
layer {
  name: "inception_4a/relu_pool_proj"
  type: "ReLU"
  bottom: "inception_4a/pool_proj"
  top: "inception_4a/pool_proj"
}
layer {
  name: "inception_4a/output"
  type: "Concat"
  bottom: "inception_4a/1x1"
  bottom: "inception_4a/3x3"
  bottom: "inception_4a/5x5"
  bottom: "inception_4a/pool_proj"
  top: "inception_4a/output"
}
layer {
  name: "loss1/ave_pool"
  type: "Pooling"
  bottom: "inception_4a/output"
  top: "loss1/ave_pool"
  pooling_param {
    pool: AVE
    kernel_size: 5
    stride: 3
  }
}
layer {
  name: "loss1/conv"
  type: "Convolution"
  bottom: "loss1/ave_pool"
  top: "loss1/conv"
  param {
    lr_mult: 1
    decay_mult: 1
  }
  param {
    lr_mult: 2
    decay_mult: 0
  }
  convolution_param {
    num_output: 128
    kernel_size: 1
    weight_filler {
      type: "xavier"
      std: 0.08
    }
    bias_filler {
      type: "constant"
      value: 0.2
    }
  }
}
layer {
  name: "loss1/relu_conv"
  type: "ReLU"
  bottom: "loss1/conv"
  top: "loss1/conv"
}
layer {
  name: "loss1/fc"
  type: "InnerProduct"
  bottom: "loss1/conv"
  top: "loss1/fc"
  param {
    lr_mult: 1
    decay_mult: 1
  }
  param {
    lr_mult: 2
    decay_mult: 0
  }
  inner_product_param {
    num_output: 1024
    weight_filler {
      type: "xavier"
      std: 0.02
    }
    bias_filler {
      type: "constant"
      value: 0.2
    }
  }
}
layer {
  name: "loss1/relu_fc"
  type: "ReLU"
  bottom: "loss1/fc"
  top: "loss1/fc"
}
layer {
  name: "loss1/drop_fc"
  type: "Dropout"
  bottom: "loss1/fc"
  top: "loss1/fc"
  dropout_param {
    dropout_ratio: 0.7
  }
}
layer {
  name: "loss1/classifier_plantvillage"
  type: "InnerProduct"
  bottom: "loss1/fc"
  top: "loss1/classifier_plantvillage"
  param {
    lr_mult: 1
    decay_mult: 1
  }
  param {
    lr_mult: 2
    decay_mult: 0
  }
  inner_product_param {
    num_output: 38
    weight_filler {
      type: "xavier"
      std: 0.0009765625
    }
    bias_filler {
      type: "constant"
      value: 0
    }
  }
}
layer {
  name: "inception_4b/1x1"
  type: "Convolution"
  bottom: "inception_4a/output"
  top: "inception_4b/1x1"
  param {
    lr_mult: 1
    decay_mult: 1
  }
  param {
    lr_mult: 2
    decay_mult: 0
  }
  convolution_param {
    num_output: 160
    kernel_size: 1
    weight_filler {
      type: "xavier"
      std: 0.03
    }
    bias_filler {
      type: "constant"
      value: 0.2
    }
  }
}
layer {
  name: "inception_4b/relu_1x1"
  type: "ReLU"
  bottom: "inception_4b/1x1"
  top: "inception_4b/1x1"
}
layer {
  name: "inception_4b/3x3_reduce"
  type: "Convolution"
  bottom: "inception_4a/output"
  top: "inception_4b/3x3_reduce"
  param {
    lr_mult: 1
    decay_mult: 1
  }
  param {
    lr_mult: 2
    decay_mult: 0
  }
  convolution_param {
    num_output: 112
    kernel_size: 1
    weight_filler {
      type: "xavier"
      std: 0.09
    }
    bias_filler {
      type: "constant"
      value: 0.2
    }
  }
}
layer {
  name: "inception_4b/relu_3x3_reduce"
  type: "ReLU"
  bottom: "inception_4b/3x3_reduce"
  top: "inception_4b/3x3_reduce"
}
layer {
  name: "inception_4b/3x3"
  type: "Convolution"
  bottom: "inception_4b/3x3_reduce"
  top: "inception_4b/3x3"
  param {
    lr_mult: 1
    decay_mult: 1
  }
  param {
    lr_mult: 2
    decay_mult: 0
  }
  convolution_param {
    num_output: 224
    pad: 1
    kernel_size: 3
    weight_filler {
      type: "xavier"
      std: 0.03
    }
    bias_filler {
      type: "constant"
      value: 0.2
    }
  }
}
layer {
  name: "inception_4b/relu_3x3"
  type: "ReLU"
  bottom: "inception_4b/3x3"
  top: "inception_4b/3x3"
}
layer {
  name: "inception_4b/5x5_reduce"
  type: "Convolution"
  bottom: "inception_4a/output"
  top: "inception_4b/5x5_reduce"
  param {
    lr_mult: 1
    decay_mult: 1
  }
  param {
    lr_mult: 2
    decay_mult: 0
  }
  convolution_param {
    num_output: 24
    kernel_size: 1
    weight_filler {
      type: "xavier"
      std: 0.2
    }
    bias_filler {
      type: "constant"
      value: 0.2
    }
  }
}
layer {
  name: "inception_4b/relu_5x5_reduce"
  type: "ReLU"
  bottom: "inception_4b/5x5_reduce"
  top: "inception_4b/5x5_reduce"
}
layer {
  name: "inception_4b/5x5"
  type: "Convolution"
  bottom: "inception_4b/5x5_reduce"
  top: "inception_4b/5x5"
  param {
    lr_mult: 1
    decay_mult: 1
  }
  param {
    lr_mult: 2
    decay_mult: 0
  }
  convolution_param {
    num_output: 64
    pad: 2
    kernel_size: 5
    weight_filler {
      type: "xavier"
      std: 0.03
    }
    bias_filler {
      type: "constant"
      value: 0.2
    }
  }
}
layer {
  name: "inception_4b/relu_5x5"
  type: "ReLU"
  bottom: "inception_4b/5x5"
  top: "inception_4b/5x5"
}
layer {
  name: "inception_4b/pool"
  type: "Pooling"
  bottom: "inception_4a/output"
  top: "inception_4b/pool"
  pooling_param {
    pool: MAX
    kernel_size: 3
    stride: 1
    pad: 1
  }
}
layer {
  name: "inception_4b/pool_proj"
  type: "Convolution"
  bottom: "inception_4b/pool"
  top: "inception_4b/pool_proj"
  param {
    lr_mult: 1
    decay_mult: 1
  }
  param {
    lr_mult: 2
    decay_mult: 0
  }
  convolution_param {
    num_output: 64
    kernel_size: 1
    weight_filler {
      type: "xavier"
      std: 0.1
    }
    bias_filler {
      type: "constant"
      value: 0.2
    }
  }
}
layer {
  name: "inception_4b/relu_pool_proj"
  type: "ReLU"
  bottom: "inception_4b/pool_proj"
  top: "inception_4b/pool_proj"
}
layer {
  name: "inception_4b/output"
  type: "Concat"
  bottom: "inception_4b/1x1"
  bottom: "inception_4b/3x3"
  bottom: "inception_4b/5x5"
  bottom: "inception_4b/pool_proj"
  top: "inception_4b/output"
}
layer {
  name: "inception_4c/1x1"
  type: "Convolution"
  bottom: "inception_4b/output"
  top: "inception_4c/1x1"
  param {
    lr_mult: 1
    decay_mult: 1
  }
  param {
    lr_mult: 2
    decay_mult: 0
  }
  convolution_param {
    num_output: 128
    kernel_size: 1
    weight_filler {
      type: "xavier"
      std: 0.03
    }
    bias_filler {
      type: "constant"
      value: 0.2
    }
  }
}
layer {
  name: "inception_4c/relu_1x1"
  type: "ReLU"
  bottom: "inception_4c/1x1"
  top: "inception_4c/1x1"
}
layer {
  name: "inception_4c/3x3_reduce"
  type: "Convolution"
  bottom: "inception_4b/output"
  top: "inception_4c/3x3_reduce"
  param {
    lr_mult: 1
    decay_mult: 1
  }
  param {
    lr_mult: 2
    decay_mult: 0
  }
  convolution_param {
    num_output: 128
    kernel_size: 1
    weight_filler {
      type: "xavier"
      std: 0.09
    }
    bias_filler {
      type: "constant"
      value: 0.2
    }
  }
}
layer {
  name: "inception_4c/relu_3x3_reduce"
  type: "ReLU"
  bottom: "inception_4c/3x3_reduce"
  top: "inception_4c/3x3_reduce"
}
layer {
  name: "inception_4c/3x3"
  type: "Convolution"
  bottom: "inception_4c/3x3_reduce"
  top: "inception_4c/3x3"
  param {
    lr_mult: 1
    decay_mult: 1
  }
  param {
    lr_mult: 2
    decay_mult: 0
  }
  convolution_param {
    num_output: 256
    pad: 1
    kernel_size: 3
    weight_filler {
      type: "xavier"
      std: 0.03
    }
    bias_filler {
      type: "constant"
      value: 0.2
    }
  }
}
layer {
  name: "inception_4c/relu_3x3"
  type: "ReLU"
  bottom: "inception_4c/3x3"
  top: "inception_4c/3x3"
}
layer {
  name: "inception_4c/5x5_reduce"
  type: "Convolution"
  bottom: "inception_4b/output"
  top: "inception_4c/5x5_reduce"
  param {
    lr_mult: 1
    decay_mult: 1
  }
  param {
    lr_mult: 2
    decay_mult: 0
  }
  convolution_param {
    num_output: 24
    kernel_size: 1
    weight_filler {
      type: "xavier"
      std: 0.2
    }
    bias_filler {
      type: "constant"
      value: 0.2
    }
  }
}
layer {
  name: "inception_4c/relu_5x5_reduce"
  type: "ReLU"
  bottom: "inception_4c/5x5_reduce"
  top: "inception_4c/5x5_reduce"
}
layer {
  name: "inception_4c/5x5"
  type: "Convolution"
  bottom: "inception_4c/5x5_reduce"
  top: "inception_4c/5x5"
  param {
    lr_mult: 1
    decay_mult: 1
  }
  param {
    lr_mult: 2
    decay_mult: 0
  }
  convolution_param {
    num_output: 64
    pad: 2
    kernel_size: 5
    weight_filler {
      type: "xavier"
      std: 0.03
    }
    bias_filler {
      type: "constant"
      value: 0.2
    }
  }
}
layer {
  name: "inception_4c/relu_5x5"
  type: "ReLU"
  bottom: "inception_4c/5x5"
  top: "inception_4c/5x5"
}
layer {
  name: "inception_4c/pool"
  type: "Pooling"
  bottom: "inception_4b/output"
  top: "inception_4c/pool"
  pooling_param {
    pool: MAX
    kernel_size: 3
    stride: 1
    pad: 1
  }
}
layer {
  name: "inception_4c/pool_proj"
  type: "Convolution"
  bottom: "inception_4c/pool"
  top: "inception_4c/pool_proj"
  param {
    lr_mult: 1
    decay_mult: 1
  }
  param {
    lr_mult: 2
    decay_mult: 0
  }
  convolution_param {
    num_output: 64
    kernel_size: 1
    weight_filler {
      type: "xavier"
      std: 0.1
    }
    bias_filler {
      type: "constant"
      value: 0.2
    }
  }
}
layer {
  name: "inception_4c/relu_pool_proj"
  type: "ReLU"
  bottom: "inception_4c/pool_proj"
  top: "inception_4c/pool_proj"
}
layer {
  name: "inception_4c/output"
  type: "Concat"
  bottom: "inception_4c/1x1"
  bottom: "inception_4c/3x3"
  bottom: "inception_4c/5x5"
  bottom: "inception_4c/pool_proj"
  top: "inception_4c/output"
}
layer {
  name: "inception_4d/1x1"
  type: "Convolution"
  bottom: "inception_4c/output"
  top: "inception_4d/1x1"
  param {
    lr_mult: 1
    decay_mult: 1
  }
  param {
    lr_mult: 2
    decay_mult: 0
  }
  convolution_param {
    num_output: 112
    kernel_size: 1
    weight_filler {
      type: "xavier"
      std: 0.03
    }
    bias_filler {
      type: "constant"
      value: 0.2
    }
  }
}
layer {
  name: "inception_4d/relu_1x1"
  type: "ReLU"
  bottom: "inception_4d/1x1"
  top: "inception_4d/1x1"
}
layer {
  name: "inception_4d/3x3_reduce"
  type: "Convolution"
  bottom: "inception_4c/output"
  top: "inception_4d/3x3_reduce"
  param {
    lr_mult: 1
    decay_mult: 1
  }
  param {
    lr_mult: 2
    decay_mult: 0
  }
  convolution_param {
    num_output: 144
    kernel_size: 1
    weight_filler {
      type: "xavier"
      std: 0.09
    }
    bias_filler {
      type: "constant"
      value: 0.2
    }
  }
}
layer {
  name: "inception_4d/relu_3x3_reduce"
  type: "ReLU"
  bottom: "inception_4d/3x3_reduce"
  top: "inception_4d/3x3_reduce"
}
layer {
  name: "inception_4d/3x3"
  type: "Convolution"
  bottom: "inception_4d/3x3_reduce"
  top: "inception_4d/3x3"
  param {
    lr_mult: 1
    decay_mult: 1
  }
  param {
    lr_mult: 2
    decay_mult: 0
  }
  convolution_param {
    num_output: 288
    pad: 1
    kernel_size: 3
    weight_filler {
      type: "xavier"
      std: 0.03
    }
    bias_filler {
      type: "constant"
      value: 0.2
    }
  }
}
layer {
  name: "inception_4d/relu_3x3"
  type: "ReLU"
  bottom: "inception_4d/3x3"
  top: "inception_4d/3x3"
}
layer {
  name: "inception_4d/5x5_reduce"
  type: "Convolution"
  bottom: "inception_4c/output"
  top: "inception_4d/5x5_reduce"
  param {
    lr_mult: 1
    decay_mult: 1
  }
  param {
    lr_mult: 2
    decay_mult: 0
  }
  convolution_param {
    num_output: 32
    kernel_size: 1
    weight_filler {
      type: "xavier"
      std: 0.2
    }
    bias_filler {
      type: "constant"
      value: 0.2
    }
  }
}
layer {
  name: "inception_4d/relu_5x5_reduce"
  type: "ReLU"
  bottom: "inception_4d/5x5_reduce"
  top: "inception_4d/5x5_reduce"
}
layer {
  name: "inception_4d/5x5"
  type: "Convolution"
  bottom: "inception_4d/5x5_reduce"
  top: "inception_4d/5x5"
  param {
    lr_mult: 1
    decay_mult: 1
  }
  param {
    lr_mult: 2
    decay_mult: 0
  }
  convolution_param {
    num_output: 64
    pad: 2
    kernel_size: 5
    weight_filler {
      type: "xavier"
      std: 0.03
    }
    bias_filler {
      type: "constant"
      value: 0.2
    }
  }
}
layer {
  name: "inception_4d/relu_5x5"
  type: "ReLU"
  bottom: "inception_4d/5x5"
  top: "inception_4d/5x5"
}
layer {
  name: "inception_4d/pool"
  type: "Pooling"
  bottom: "inception_4c/output"
  top: "inception_4d/pool"
  pooling_param {
    pool: MAX
    kernel_size: 3
    stride: 1
    pad: 1
  }
}
layer {
  name: "inception_4d/pool_proj"
  type: "Convolution"
  bottom: "inception_4d/pool"
  top: "inception_4d/pool_proj"
  param {
    lr_mult: 1
    decay_mult: 1
  }
  param {
    lr_mult: 2
    decay_mult: 0
  }
  convolution_param {
    num_output: 64
    kernel_size: 1
    weight_filler {
      type: "xavier"
      std: 0.1
    }
    bias_filler {
      type: "constant"
      value: 0.2
    }
  }
}
layer {
  name: "inception_4d/relu_pool_proj"
  type: "ReLU"
  bottom: "inception_4d/pool_proj"
  top: "inception_4d/pool_proj"
}
layer {
  name: "inception_4d/output"
  type: "Concat"
  bottom: "inception_4d/1x1"
  bottom: "inception_4d/3x3"
  bottom: "inception_4d/5x5"
  bottom: "inception_4d/pool_proj"
  top: "inception_4d/output"
}
layer {
  name: "loss2/ave_pool"
  type: "Pooling"
  bottom: "inception_4d/output"
  top: "loss2/ave_pool"
  pooling_param {
    pool: AVE
    kernel_size: 5
    stride: 3
  }
}
layer {
  name: "loss2/conv"
  type: "Convolution"
  bottom: "loss2/ave_pool"
  top: "loss2/conv"
  param {
    lr_mult: 1
    decay_mult: 1
  }
  param {
    lr_mult: 2
    decay_mult: 0
  }
  convolution_param {
    num_output: 128
    kernel_size: 1
    weight_filler {
      type: "xavier"
      std: 0.08
    }
    bias_filler {
      type: "constant"
      value: 0.2
    }
  }
}
layer {
  name: "loss2/relu_conv"
  type: "ReLU"
  bottom: "loss2/conv"
  top: "loss2/conv"
}
layer {
  name: "loss2/fc"
  type: "InnerProduct"
  bottom: "loss2/conv"
  top: "loss2/fc"
  param {
    lr_mult: 1
    decay_mult: 1
  }
  param {
    lr_mult: 2
    decay_mult: 0
  }
  inner_product_param {
    num_output: 1024
    weight_filler {
      type: "xavier"
      std: 0.02
    }
    bias_filler {
      type: "constant"
      value: 0.2
    }
  }
}
layer {
  name: "loss2/relu_fc"
  type: "ReLU"
  bottom: "loss2/fc"
  top: "loss2/fc"
}
layer {
  name: "loss2/drop_fc"
  type: "Dropout"
  bottom: "loss2/fc"
  top: "loss2/fc"
  dropout_param {
    dropout_ratio: 0.7
  }
}
layer {
  name: "loss2/classifier_plantvillage"
  type: "InnerProduct"
  bottom: "loss2/fc"
  top: "loss2/classifier_plantvillage"
  param {
    lr_mult: 1
    decay_mult: 1
  }
  param {
    lr_mult: 2
    decay_mult: 0
  }
  inner_product_param {
    num_output: 38
    weight_filler {
      type: "xavier"
      std: 0.0009765625
    }
    bias_filler {
      type: "constant"
      value: 0
    }
  }
}
layer {
  name: "inception_4e/1x1"
  type: "Convolution"
  bottom: "inception_4d/output"
  top: "inception_4e/1x1"
  param {
    lr_mult: 1
    decay_mult: 1
  }
  param {
    lr_mult: 2
    decay_mult: 0
  }
  convolution_param {
    num_output: 256
    kernel_size: 1
    weight_filler {
      type: "xavier"
      std: 0.03
    }
    bias_filler {
      type: "constant"
      value: 0.2
    }
  }
}
layer {
  name: "inception_4e/relu_1x1"
  type: "ReLU"
  bottom: "inception_4e/1x1"
  top: "inception_4e/1x1"
}
layer {
  name: "inception_4e/3x3_reduce"
  type: "Convolution"
  bottom: "inception_4d/output"
  top: "inception_4e/3x3_reduce"
  param {
    lr_mult: 1
    decay_mult: 1
  }
  param {
    lr_mult: 2
    decay_mult: 0
  }
  convolution_param {
    num_output: 160
    kernel_size: 1
    weight_filler {
      type: "xavier"
      std: 0.09
    }
    bias_filler {
      type: "constant"
      value: 0.2
    }
  }
}
layer {
  name: "inception_4e/relu_3x3_reduce"
  type: "ReLU"
  bottom: "inception_4e/3x3_reduce"
  top: "inception_4e/3x3_reduce"
}
layer {
  name: "inception_4e/3x3"
  type: "Convolution"
  bottom: "inception_4e/3x3_reduce"
  top: "inception_4e/3x3"
  param {
    lr_mult: 1
    decay_mult: 1
  }
  param {
    lr_mult: 2
    decay_mult: 0
  }
  convolution_param {
    num_output: 320
    pad: 1
    kernel_size: 3
    weight_filler {
      type: "xavier"
      std: 0.03
    }
    bias_filler {
      type: "constant"
      value: 0.2
    }
  }
}
layer {
  name: "inception_4e/relu_3x3"
  type: "ReLU"
  bottom: "inception_4e/3x3"
  top: "inception_4e/3x3"
}
layer {
  name: "inception_4e/5x5_reduce"
  type: "Convolution"
  bottom: "inception_4d/output"
  top: "inception_4e/5x5_reduce"
  param {
    lr_mult: 1
    decay_mult: 1
  }
  param {
    lr_mult: 2
    decay_mult: 0
  }
  convolution_param {
    num_output: 32
    kernel_size: 1
    weight_filler {
      type: "xavier"
      std: 0.2
    }
    bias_filler {
      type: "constant"
      value: 0.2
    }
  }
}
layer {
  name: "inception_4e/relu_5x5_reduce"
  type: "ReLU"
  bottom: "inception_4e/5x5_reduce"
  top: "inception_4e/5x5_reduce"
}
layer {
  name: "inception_4e/5x5"
  type: "Convolution"
  bottom: "inception_4e/5x5_reduce"
  top: "inception_4e/5x5"
  p
I0403 16:22:53.429308 18039 layer_factory.hpp:77] Creating layer data
I0403 16:22:53.429900 18039 net.cpp:91] Creating Layer data
I0403 16:22:53.429930 18039 net.cpp:399] data -> data
I0403 16:22:53.429981 18039 net.cpp:399] data -> label
I0403 16:22:53.430021 18039 data_transformer.cpp:25] Loading mean file from: /home/mohanty/data/final_dataset/lmdb/color-20-80/mean.binaryproto
I0403 16:22:53.431082 18041 db_lmdb.cpp:38] Opened lmdb /home/mohanty/data/final_dataset/lmdb/color-20-80/test_db
I0403 16:22:53.442900 18039 data_layer.cpp:41] output data size: 24,3,224,224
I0403 16:22:53.468992 18039 net.cpp:141] Setting up data
I0403 16:22:53.469065 18039 net.cpp:148] Top shape: 24 3 224 224 (3612672)
I0403 16:22:53.469089 18039 net.cpp:148] Top shape: 24 (24)
I0403 16:22:53.469105 18039 net.cpp:156] Memory required for data: 14450784
I0403 16:22:53.469131 18039 layer_factory.hpp:77] Creating layer label_data_1_split
I0403 16:22:53.469157 18039 net.cpp:91] Creating Layer label_data_1_split
I0403 16:22:53.469175 18039 net.cpp:425] label_data_1_split <- label
I0403 16:22:53.469208 18039 net.cpp:399] label_data_1_split -> label_data_1_split_0
I0403 16:22:53.469236 18039 net.cpp:399] label_data_1_split -> label_data_1_split_1
I0403 16:22:53.469259 18039 net.cpp:399] label_data_1_split -> label_data_1_split_2
I0403 16:22:53.469280 18039 net.cpp:399] label_data_1_split -> label_data_1_split_3
I0403 16:22:53.469298 18039 net.cpp:399] label_data_1_split -> label_data_1_split_4
I0403 16:22:53.469318 18039 net.cpp:399] label_data_1_split -> label_data_1_split_5
I0403 16:22:53.469338 18039 net.cpp:399] label_data_1_split -> label_data_1_split_6
I0403 16:22:53.469359 18039 net.cpp:399] label_data_1_split -> label_data_1_split_7
I0403 16:22:53.469379 18039 net.cpp:399] label_data_1_split -> label_data_1_split_8
I0403 16:22:53.469398 18039 net.cpp:399] label_data_1_split -> label_data_1_split_9
I0403 16:22:53.469507 18039 net.cpp:141] Setting up label_data_1_split
I0403 16:22:53.469532 18039 net.cpp:148] Top shape: 24 (24)
I0403 16:22:53.469547 18039 net.cpp:148] Top shape: 24 (24)
I0403 16:22:53.469564 18039 net.cpp:148] Top shape: 24 (24)
I0403 16:22:53.469581 18039 net.cpp:148] Top shape: 24 (24)
I0403 16:22:53.469596 18039 net.cpp:148] Top shape: 24 (24)
I0403 16:22:53.469615 18039 net.cpp:148] Top shape: 24 (24)
I0403 16:22:53.469632 18039 net.cpp:148] Top shape: 24 (24)
I0403 16:22:53.469647 18039 net.cpp:148] Top shape: 24 (24)
I0403 16:22:53.469663 18039 net.cpp:148] Top shape: 24 (24)
I0403 16:22:53.469681 18039 net.cpp:148] Top shape: 24 (24)
I0403 16:22:53.469724 18039 net.cpp:156] Memory required for data: 14451744
I0403 16:22:53.469740 18039 layer_factory.hpp:77] Creating layer conv1/7x7_s2
I0403 16:22:53.469771 18039 net.cpp:91] Creating Layer conv1/7x7_s2
I0403 16:22:53.469789 18039 net.cpp:425] conv1/7x7_s2 <- data
I0403 16:22:53.469810 18039 net.cpp:399] conv1/7x7_s2 -> conv1/7x7_s2
I0403 16:22:53.606978 18039 net.cpp:141] Setting up conv1/7x7_s2
I0403 16:22:53.607053 18039 net.cpp:148] Top shape: 24 64 112 112 (19267584)
I0403 16:22:53.607069 18039 net.cpp:156] Memory required for data: 91522080
I0403 16:22:53.607100 18039 layer_factory.hpp:77] Creating layer conv1/relu_7x7
I0403 16:22:53.607127 18039 net.cpp:91] Creating Layer conv1/relu_7x7
I0403 16:22:53.607146 18039 net.cpp:425] conv1/relu_7x7 <- conv1/7x7_s2
I0403 16:22:53.607164 18039 net.cpp:386] conv1/relu_7x7 -> conv1/7x7_s2 (in-place)
I0403 16:22:53.607410 18039 net.cpp:141] Setting up conv1/relu_7x7
I0403 16:22:53.607437 18039 net.cpp:148] Top shape: 24 64 112 112 (19267584)
I0403 16:22:53.607453 18039 net.cpp:156] Memory required for data: 168592416
I0403 16:22:53.607468 18039 layer_factory.hpp:77] Creating layer pool1/3x3_s2
I0403 16:22:53.607494 18039 net.cpp:91] Creating Layer pool1/3x3_s2
I0403 16:22:53.607511 18039 net.cpp:425] pool1/3x3_s2 <- conv1/7x7_s2
I0403 16:22:53.607530 18039 net.cpp:399] pool1/3x3_s2 -> pool1/3x3_s2
I0403 16:22:53.607606 18039 net.cpp:141] Setting up pool1/3x3_s2
I0403 16:22:53.607631 18039 net.cpp:148] Top shape: 24 64 56 56 (4816896)
I0403 16:22:53.607647 18039 net.cpp:156] Memory required for data: 187860000
I0403 16:22:53.607662 18039 layer_factory.hpp:77] Creating layer pool1/norm1
I0403 16:22:53.607686 18039 net.cpp:91] Creating Layer pool1/norm1
I0403 16:22:53.607704 18039 net.cpp:425] pool1/norm1 <- pool1/3x3_s2
I0403 16:22:53.607722 18039 net.cpp:399] pool1/norm1 -> pool1/norm1
I0403 16:22:53.607996 18039 net.cpp:141] Setting up pool1/norm1
I0403 16:22:53.608024 18039 net.cpp:148] Top shape: 24 64 56 56 (4816896)
I0403 16:22:53.608041 18039 net.cpp:156] Memory required for data: 207127584
I0403 16:22:53.608055 18039 layer_factory.hpp:77] Creating layer conv2/3x3_reduce
I0403 16:22:53.608079 18039 net.cpp:91] Creating Layer conv2/3x3_reduce
I0403 16:22:53.608095 18039 net.cpp:425] conv2/3x3_reduce <- pool1/norm1
I0403 16:22:53.608114 18039 net.cpp:399] conv2/3x3_reduce -> conv2/3x3_reduce
I0403 16:22:53.609486 18039 net.cpp:141] Setting up conv2/3x3_reduce
I0403 16:22:53.609515 18039 net.cpp:148] Top shape: 24 64 56 56 (4816896)
I0403 16:22:53.609532 18039 net.cpp:156] Memory required for data: 226395168
I0403 16:22:53.609552 18039 layer_factory.hpp:77] Creating layer conv2/relu_3x3_reduce
I0403 16:22:53.609575 18039 net.cpp:91] Creating Layer conv2/relu_3x3_reduce
I0403 16:22:53.609593 18039 net.cpp:425] conv2/relu_3x3_reduce <- conv2/3x3_reduce
I0403 16:22:53.609617 18039 net.cpp:386] conv2/relu_3x3_reduce -> conv2/3x3_reduce (in-place)
I0403 16:22:53.609874 18039 net.cpp:141] Setting up conv2/relu_3x3_reduce
I0403 16:22:53.609900 18039 net.cpp:148] Top shape: 24 64 56 56 (4816896)
I0403 16:22:53.609915 18039 net.cpp:156] Memory required for data: 245662752
I0403 16:22:53.609930 18039 layer_factory.hpp:77] Creating layer conv2/3x3
I0403 16:22:53.609956 18039 net.cpp:91] Creating Layer conv2/3x3
I0403 16:22:53.609974 18039 net.cpp:425] conv2/3x3 <- conv2/3x3_reduce
I0403 16:22:53.609993 18039 net.cpp:399] conv2/3x3 -> conv2/3x3
I0403 16:22:53.612283 18039 net.cpp:141] Setting up conv2/3x3
I0403 16:22:53.612316 18039 net.cpp:148] Top shape: 24 192 56 56 (14450688)
I0403 16:22:53.612334 18039 net.cpp:156] Memory required for data: 303465504
I0403 16:22:53.612355 18039 layer_factory.hpp:77] Creating layer conv2/relu_3x3
I0403 16:22:53.612375 18039 net.cpp:91] Creating Layer conv2/relu_3x3
I0403 16:22:53.612390 18039 net.cpp:425] conv2/relu_3x3 <- conv2/3x3
I0403 16:22:53.612408 18039 net.cpp:386] conv2/relu_3x3 -> conv2/3x3 (in-place)
I0403 16:22:53.612578 18039 net.cpp:141] Setting up conv2/relu_3x3
I0403 16:22:53.612607 18039 net.cpp:148] Top shape: 24 192 56 56 (14450688)
I0403 16:22:53.612653 18039 net.cpp:156] Memory required for data: 361268256
I0403 16:22:53.612670 18039 layer_factory.hpp:77] Creating layer conv2/norm2
I0403 16:22:53.612689 18039 net.cpp:91] Creating Layer conv2/norm2
I0403 16:22:53.612705 18039 net.cpp:425] conv2/norm2 <- conv2/3x3
I0403 16:22:53.612723 18039 net.cpp:399] conv2/norm2 -> conv2/norm2
I0403 16:22:53.613018 18039 net.cpp:141] Setting up conv2/norm2
I0403 16:22:53.613045 18039 net.cpp:148] Top shape: 24 192 56 56 (14450688)
I0403 16:22:53.613060 18039 net.cpp:156] Memory required for data: 419071008
I0403 16:22:53.613076 18039 layer_factory.hpp:77] Creating layer pool2/3x3_s2
I0403 16:22:53.613095 18039 net.cpp:91] Creating Layer pool2/3x3_s2
I0403 16:22:53.613112 18039 net.cpp:425] pool2/3x3_s2 <- conv2/norm2
I0403 16:22:53.613129 18039 net.cpp:399] pool2/3x3_s2 -> pool2/3x3_s2
I0403 16:22:53.613183 18039 net.cpp:141] Setting up pool2/3x3_s2
I0403 16:22:53.613207 18039 net.cpp:148] Top shape: 24 192 28 28 (3612672)
I0403 16:22:53.613221 18039 net.cpp:156] Memory required for data: 433521696
I0403 16:22:53.613235 18039 layer_factory.hpp:77] Creating layer pool2/3x3_s2_pool2/3x3_s2_0_split
I0403 16:22:53.613252 18039 net.cpp:91] Creating Layer pool2/3x3_s2_pool2/3x3_s2_0_split
I0403 16:22:53.613268 18039 net.cpp:425] pool2/3x3_s2_pool2/3x3_s2_0_split <- pool2/3x3_s2
I0403 16:22:53.613288 18039 net.cpp:399] pool2/3x3_s2_pool2/3x3_s2_0_split -> pool2/3x3_s2_pool2/3x3_s2_0_split_0
I0403 16:22:53.613309 18039 net.cpp:399] pool2/3x3_s2_pool2/3x3_s2_0_split -> pool2/3x3_s2_pool2/3x3_s2_0_split_1
I0403 16:22:53.613330 18039 net.cpp:399] pool2/3x3_s2_pool2/3x3_s2_0_split -> pool2/3x3_s2_pool2/3x3_s2_0_split_2
I0403 16:22:53.613349 18039 net.cpp:399] pool2/3x3_s2_pool2/3x3_s2_0_split -> pool2/3x3_s2_pool2/3x3_s2_0_split_3
I0403 16:22:53.613418 18039 net.cpp:141] Setting up pool2/3x3_s2_pool2/3x3_s2_0_split
I0403 16:22:53.613441 18039 net.cpp:148] Top shape: 24 192 28 28 (3612672)
I0403 16:22:53.613458 18039 net.cpp:148] Top shape: 24 192 28 28 (3612672)
I0403 16:22:53.613474 18039 net.cpp:148] Top shape: 24 192 28 28 (3612672)
I0403 16:22:53.613489 18039 net.cpp:148] Top shape: 24 192 28 28 (3612672)
I0403 16:22:53.613502 18039 net.cpp:156] Memory required for data: 491324448
I0403 16:22:53.613517 18039 layer_factory.hpp:77] Creating layer inception_3a/1x1
I0403 16:22:53.613539 18039 net.cpp:91] Creating Layer inception_3a/1x1
I0403 16:22:53.613559 18039 net.cpp:425] inception_3a/1x1 <- pool2/3x3_s2_pool2/3x3_s2_0_split_0
I0403 16:22:53.613579 18039 net.cpp:399] inception_3a/1x1 -> inception_3a/1x1
I0403 16:22:53.615041 18039 net.cpp:141] Setting up inception_3a/1x1
I0403 16:22:53.615072 18039 net.cpp:148] Top shape: 24 64 28 28 (1204224)
I0403 16:22:53.615089 18039 net.cpp:156] Memory required for data: 496141344
I0403 16:22:53.615108 18039 layer_factory.hpp:77] Creating layer inception_3a/relu_1x1
I0403 16:22:53.615128 18039 net.cpp:91] Creating Layer inception_3a/relu_1x1
I0403 16:22:53.615144 18039 net.cpp:425] inception_3a/relu_1x1 <- inception_3a/1x1
I0403 16:22:53.615160 18039 net.cpp:386] inception_3a/relu_1x1 -> inception_3a/1x1 (in-place)
I0403 16:22:53.615330 18039 net.cpp:141] Setting up inception_3a/relu_1x1
I0403 16:22:53.615357 18039 net.cpp:148] Top shape: 24 64 28 28 (1204224)
I0403 16:22:53.615372 18039 net.cpp:156] Memory required for data: 500958240
I0403 16:22:53.615387 18039 layer_factory.hpp:77] Creating layer inception_3a/3x3_reduce
I0403 16:22:53.615409 18039 net.cpp:91] Creating Layer inception_3a/3x3_reduce
I0403 16:22:53.615428 18039 net.cpp:425] inception_3a/3x3_reduce <- pool2/3x3_s2_pool2/3x3_s2_0_split_1
I0403 16:22:53.615447 18039 net.cpp:399] inception_3a/3x3_reduce -> inception_3a/3x3_reduce
I0403 16:22:53.617065 18039 net.cpp:141] Setting up inception_3a/3x3_reduce
I0403 16:22:53.617094 18039 net.cpp:148] Top shape: 24 96 28 28 (1806336)
I0403 16:22:53.617111 18039 net.cpp:156] Memory required for data: 508183584
I0403 16:22:53.617132 18039 layer_factory.hpp:77] Creating layer inception_3a/relu_3x3_reduce
I0403 16:22:53.617172 18039 net.cpp:91] Creating Layer inception_3a/relu_3x3_reduce
I0403 16:22:53.617190 18039 net.cpp:425] inception_3a/relu_3x3_reduce <- inception_3a/3x3_reduce
I0403 16:22:53.617211 18039 net.cpp:386] inception_3a/relu_3x3_reduce -> inception_3a/3x3_reduce (in-place)
I0403 16:22:53.617388 18039 net.cpp:141] Setting up inception_3a/relu_3x3_reduce
I0403 16:22:53.617413 18039 net.cpp:148] Top shape: 24 96 28 28 (1806336)
I0403 16:22:53.617427 18039 net.cpp:156] Memory required for data: 515408928
I0403 16:22:53.617442 18039 layer_factory.hpp:77] Creating layer inception_3a/3x3
I0403 16:22:53.617465 18039 net.cpp:91] Creating Layer inception_3a/3x3
I0403 16:22:53.617482 18039 net.cpp:425] inception_3a/3x3 <- inception_3a/3x3_reduce
I0403 16:22:53.617506 18039 net.cpp:399] inception_3a/3x3 -> inception_3a/3x3
I0403 16:22:53.619078 18039 net.cpp:141] Setting up inception_3a/3x3
I0403 16:22:53.619108 18039 net.cpp:148] Top shape: 24 128 28 28 (2408448)
I0403 16:22:53.619127 18039 net.cpp:156] Memory required for data: 525042720
I0403 16:22:53.619145 18039 layer_factory.hpp:77] Creating layer inception_3a/relu_3x3
I0403 16:22:53.619164 18039 net.cpp:91] Creating Layer inception_3a/relu_3x3
I0403 16:22:53.619181 18039 net.cpp:425] inception_3a/relu_3x3 <- inception_3a/3x3
I0403 16:22:53.619199 18039 net.cpp:386] inception_3a/relu_3x3 -> inception_3a/3x3 (in-place)
I0403 16:22:53.619459 18039 net.cpp:141] Setting up inception_3a/relu_3x3
I0403 16:22:53.619488 18039 net.cpp:148] Top shape: 24 128 28 28 (2408448)
I0403 16:22:53.619504 18039 net.cpp:156] Memory required for data: 534676512
I0403 16:22:53.619519 18039 layer_factory.hpp:77] Creating layer inception_3a/5x5_reduce
I0403 16:22:53.619542 18039 net.cpp:91] Creating Layer inception_3a/5x5_reduce
I0403 16:22:53.619560 18039 net.cpp:425] inception_3a/5x5_reduce <- pool2/3x3_s2_pool2/3x3_s2_0_split_2
I0403 16:22:53.619580 18039 net.cpp:399] inception_3a/5x5_reduce -> inception_3a/5x5_reduce
I0403 16:22:53.620499 18039 net.cpp:141] Setting up inception_3a/5x5_reduce
I0403 16:22:53.620527 18039 net.cpp:148] Top shape: 24 16 28 28 (301056)
I0403 16:22:53.620543 18039 net.cpp:156] Memory required for data: 535880736
I0403 16:22:53.620560 18039 layer_factory.hpp:77] Creating layer inception_3a/relu_5x5_reduce
I0403 16:22:53.620579 18039 net.cpp:91] Creating Layer inception_3a/relu_5x5_reduce
I0403 16:22:53.620596 18039 net.cpp:425] inception_3a/relu_5x5_reduce <- inception_3a/5x5_reduce
I0403 16:22:53.620621 18039 net.cpp:386] inception_3a/relu_5x5_reduce -> inception_3a/5x5_reduce (in-place)
I0403 16:22:53.620908 18039 net.cpp:141] Setting up inception_3a/relu_5x5_reduce
I0403 16:22:53.620934 18039 net.cpp:148] Top shape: 24 16 28 28 (301056)
I0403 16:22:53.620949 18039 net.cpp:156] Memory required for data: 537084960
I0403 16:22:53.620965 18039 layer_factory.hpp:77] Creating layer inception_3a/5x5
I0403 16:22:53.620987 18039 net.cpp:91] Creating Layer inception_3a/5x5
I0403 16:22:53.621006 18039 net.cpp:425] inception_3a/5x5 <- inception_3a/5x5_reduce
I0403 16:22:53.621026 18039 net.cpp:399] inception_3a/5x5 -> inception_3a/5x5
I0403 16:22:53.621999 18039 net.cpp:141] Setting up inception_3a/5x5
I0403 16:22:53.622028 18039 net.cpp:148] Top shape: 24 32 28 28 (602112)
I0403 16:22:53.622045 18039 net.cpp:156] Memory required for data: 539493408
I0403 16:22:53.622066 18039 layer_factory.hpp:77] Creating layer inception_3a/relu_5x5
I0403 16:22:53.622082 18039 net.cpp:91] Creating Layer inception_3a/relu_5x5
I0403 16:22:53.622097 18039 net.cpp:425] inception_3a/relu_5x5 <- inception_3a/5x5
I0403 16:22:53.622114 18039 net.cpp:386] inception_3a/relu_5x5 -> inception_3a/5x5 (in-place)
I0403 16:22:53.622282 18039 net.cpp:141] Setting up inception_3a/relu_5x5
I0403 16:22:53.622306 18039 net.cpp:148] Top shape: 24 32 28 28 (602112)
I0403 16:22:53.622323 18039 net.cpp:156] Memory required for data: 541901856
I0403 16:22:53.622339 18039 layer_factory.hpp:77] Creating layer inception_3a/pool
I0403 16:22:53.622356 18039 net.cpp:91] Creating Layer inception_3a/pool
I0403 16:22:53.622371 18039 net.cpp:425] inception_3a/pool <- pool2/3x3_s2_pool2/3x3_s2_0_split_3
I0403 16:22:53.622406 18039 net.cpp:399] inception_3a/pool -> inception_3a/pool
I0403 16:22:53.622463 18039 net.cpp:141] Setting up inception_3a/pool
I0403 16:22:53.622503 18039 net.cpp:148] Top shape: 24 192 28 28 (3612672)
I0403 16:22:53.622519 18039 net.cpp:156] Memory required for data: 556352544
I0403 16:22:53.622535 18039 layer_factory.hpp:77] Creating layer inception_3a/pool_proj
I0403 16:22:53.622558 18039 net.cpp:91] Creating Layer inception_3a/pool_proj
I0403 16:22:53.622577 18039 net.cpp:425] inception_3a/pool_proj <- inception_3a/pool
I0403 16:22:53.622596 18039 net.cpp:399] inception_3a/pool_proj -> inception_3a/pool_proj
I0403 16:22:53.623627 18039 net.cpp:141] Setting up inception_3a/pool_proj
I0403 16:22:53.623656 18039 net.cpp:148] Top shape: 24 32 28 28 (602112)
I0403 16:22:53.623672 18039 net.cpp:156] Memory required for data: 558760992
I0403 16:22:53.623698 18039 layer_factory.hpp:77] Creating layer inception_3a/relu_pool_proj
I0403 16:22:53.623719 18039 net.cpp:91] Creating Layer inception_3a/relu_pool_proj
I0403 16:22:53.623736 18039 net.cpp:425] inception_3a/relu_pool_proj <- inception_3a/pool_proj
I0403 16:22:53.623756 18039 net.cpp:386] inception_3a/relu_pool_proj -> inception_3a/pool_proj (in-place)
I0403 16:22:53.624029 18039 net.cpp:141] Setting up inception_3a/relu_pool_proj
I0403 16:22:53.624059 18039 net.cpp:148] Top shape: 24 32 28 28 (602112)
I0403 16:22:53.624075 18039 net.cpp:156] Memory required for data: 561169440
I0403 16:22:53.624091 18039 layer_factory.hpp:77] Creating layer inception_3a/output
I0403 16:22:53.624109 18039 net.cpp:91] Creating Layer inception_3a/output
I0403 16:22:53.624126 18039 net.cpp:425] inception_3a/output <- inception_3a/1x1
I0403 16:22:53.624143 18039 net.cpp:425] inception_3a/output <- inception_3a/3x3
I0403 16:22:53.624160 18039 net.cpp:425] inception_3a/output <- inception_3a/5x5
I0403 16:22:53.624176 18039 net.cpp:425] inception_3a/output <- inception_3a/pool_proj
I0403 16:22:53.624192 18039 net.cpp:399] inception_3a/output -> inception_3a/output
I0403 16:22:53.624241 18039 net.cpp:141] Setting up inception_3a/output
I0403 16:22:53.624266 18039 net.cpp:148] Top shape: 24 256 28 28 (4816896)
I0403 16:22:53.624282 18039 net.cpp:156] Memory required for data: 580437024
I0403 16:22:53.624299 18039 layer_factory.hpp:77] Creating layer inception_3a/output_inception_3a/output_0_split
I0403 16:22:53.624318 18039 net.cpp:91] Creating Layer inception_3a/output_inception_3a/output_0_split
I0403 16:22:53.624335 18039 net.cpp:425] inception_3a/output_inception_3a/output_0_split <- inception_3a/output
I0403 16:22:53.624353 18039 net.cpp:399] inception_3a/output_inception_3a/output_0_split -> inception_3a/output_inception_3a/output_0_split_0
I0403 16:22:53.624373 18039 net.cpp:399] inception_3a/output_inception_3a/output_0_split -> inception_3a/output_inception_3a/output_0_split_1
I0403 16:22:53.624399 18039 net.cpp:399] inception_3a/output_inception_3a/output_0_split -> inception_3a/output_inception_3a/output_0_split_2
I0403 16:22:53.624423 18039 net.cpp:399] inception_3a/output_inception_3a/output_0_split -> inception_3a/output_inception_3a/output_0_split_3
I0403 16:22:53.624497 18039 net.cpp:141] Setting up inception_3a/output_inception_3a/output_0_split
I0403 16:22:53.624521 18039 net.cpp:148] Top shape: 24 256 28 28 (4816896)
I0403 16:22:53.624538 18039 net.cpp:148] Top shape: 24 256 28 28 (4816896)
I0403 16:22:53.624554 18039 net.cpp:148] Top shape: 24 256 28 28 (4816896)
I0403 16:22:53.624570 18039 net.cpp:148] Top shape: 24 256 28 28 (4816896)
I0403 16:22:53.624585 18039 net.cpp:156] Memory required for data: 657507360
I0403 16:22:53.624600 18039 layer_factory.hpp:77] Creating layer inception_3b/1x1
I0403 16:22:53.624630 18039 net.cpp:91] Creating Layer inception_3b/1x1
I0403 16:22:53.624650 18039 net.cpp:425] inception_3b/1x1 <- inception_3a/output_inception_3a/output_0_split_0
I0403 16:22:53.624668 18039 net.cpp:399] inception_3b/1x1 -> inception_3b/1x1
I0403 16:22:53.625798 18039 net.cpp:141] Setting up inception_3b/1x1
I0403 16:22:53.625839 18039 net.cpp:148] Top shape: 24 128 28 28 (2408448)
I0403 16:22:53.625856 18039 net.cpp:156] Memory required for data: 667141152
I0403 16:22:53.625875 18039 layer_factory.hpp:77] Creating layer inception_3b/relu_1x1
I0403 16:22:53.625896 18039 net.cpp:91] Creating Layer inception_3b/relu_1x1
I0403 16:22:53.625915 18039 net.cpp:425] inception_3b/relu_1x1 <- inception_3b/1x1
I0403 16:22:53.625933 18039 net.cpp:386] inception_3b/relu_1x1 -> inception_3b/1x1 (in-place)
I0403 16:22:53.626107 18039 net.cpp:141] Setting up inception_3b/relu_1x1
I0403 16:22:53.626135 18039 net.cpp:148] Top shape: 24 128 28 28 (2408448)
I0403 16:22:53.626152 18039 net.cpp:156] Memory required for data: 676774944
I0403 16:22:53.626168 18039 layer_factory.hpp:77] Creating layer inception_3b/3x3_reduce
I0403 16:22:53.626189 18039 net.cpp:91] Creating Layer inception_3b/3x3_reduce
I0403 16:22:53.626207 18039 net.cpp:425] inception_3b/3x3_reduce <- inception_3a/output_inception_3a/output_0_split_1
I0403 16:22:53.626227 18039 net.cpp:399] inception_3b/3x3_reduce -> inception_3b/3x3_reduce
I0403 16:22:53.627346 18039 net.cpp:141] Setting up inception_3b/3x3_reduce
I0403 16:22:53.627375 18039 net.cpp:148] Top shape: 24 128 28 28 (2408448)
I0403 16:22:53.627393 18039 net.cpp:156] Memory required for data: 686408736
I0403 16:22:53.627411 18039 layer_factory.hpp:77] Creating layer inception_3b/relu_3x3_reduce
I0403 16:22:53.627432 18039 net.cpp:91] Creating Layer inception_3b/relu_3x3_reduce
I0403 16:22:53.627449 18039 net.cpp:425] inception_3b/relu_3x3_reduce <- inception_3b/3x3_reduce
I0403 16:22:53.627467 18039 net.cpp:386] inception_3b/relu_3x3_reduce -> inception_3b/3x3_reduce (in-place)
I0403 16:22:53.627642 18039 net.cpp:141] Setting up inception_3b/relu_3x3_reduce
I0403 16:22:53.627671 18039 net.cpp:148] Top shape: 24 128 28 28 (2408448)
I0403 16:22:53.627686 18039 net.cpp:156] Memory required for data: 696042528
I0403 16:22:53.627701 18039 layer_factory.hpp:77] Creating layer inception_3b/3x3
I0403 16:22:53.627727 18039 net.cpp:91] Creating Layer inception_3b/3x3
I0403 16:22:53.627745 18039 net.cpp:425] inception_3b/3x3 <- inception_3b/3x3_reduce
I0403 16:22:53.627768 18039 net.cpp:399] inception_3b/3x3 -> inception_3b/3x3
I0403 16:22:53.630630 18039 net.cpp:141] Setting up inception_3b/3x3
I0403 16:22:53.630662 18039 net.cpp:148] Top shape: 24 192 28 28 (3612672)
I0403 16:22:53.630681 18039 net.cpp:156] Memory required for data: 710493216
I0403 16:22:53.630699 18039 layer_factory.hpp:77] Creating layer inception_3b/relu_3x3
I0403 16:22:53.630718 18039 net.cpp:91] Creating Layer inception_3b/relu_3x3
I0403 16:22:53.630735 18039 net.cpp:425] inception_3b/relu_3x3 <- inception_3b/3x3
I0403 16:22:53.630753 18039 net.cpp:386] inception_3b/relu_3x3 -> inception_3b/3x3 (in-place)
I0403 16:22:53.631026 18039 net.cpp:141] Setting up inception_3b/relu_3x3
I0403 16:22:53.631057 18039 net.cpp:148] Top shape: 24 192 28 28 (3612672)
I0403 16:22:53.631072 18039 net.cpp:156] Memory required for data: 724943904
I0403 16:22:53.631088 18039 layer_factory.hpp:77] Creating layer inception_3b/5x5_reduce
I0403 16:22:53.631110 18039 net.cpp:91] Creating Layer inception_3b/5x5_reduce
I0403 16:22:53.631129 18039 net.cpp:425] inception_3b/5x5_reduce <- inception_3a/output_inception_3a/output_0_split_2
I0403 16:22:53.631147 18039 net.cpp:399] inception_3b/5x5_reduce -> inception_3b/5x5_reduce
I0403 16:22:53.632122 18039 net.cpp:141] Setting up inception_3b/5x5_reduce
I0403 16:22:53.632153 18039 net.cpp:148] Top shape: 24 32 28 28 (602112)
I0403 16:22:53.632170 18039 net.cpp:156] Memory required for data: 727352352
I0403 16:22:53.632189 18039 layer_factory.hpp:77] Creating layer inception_3b/relu_5x5_reduce
I0403 16:22:53.632210 18039 net.cpp:91] Creating Layer inception_3b/relu_5x5_reduce
I0403 16:22:53.632226 18039 net.cpp:425] inception_3b/relu_5x5_reduce <- inception_3b/5x5_reduce
I0403 16:22:53.632244 18039 net.cpp:386] inception_3b/relu_5x5_reduce -> inception_3b/5x5_reduce (in-place)
I0403 16:22:53.632421 18039 net.cpp:141] Setting up inception_3b/relu_5x5_reduce
I0403 16:22:53.632457 18039 net.cpp:148] Top shape: 24 32 28 28 (602112)
I0403 16:22:53.632473 18039 net.cpp:156] Memory required for data: 729760800
I0403 16:22:53.632489 18039 layer_factory.hpp:77] Creating layer inception_3b/5x5
I0403 16:22:53.632511 18039 net.cpp:91] Creating Layer inception_3b/5x5
I0403 16:22:53.632529 18039 net.cpp:425] inception_3b/5x5 <- inception_3b/5x5_reduce
I0403 16:22:53.632551 18039 net.cpp:399] inception_3b/5x5 -> inception_3b/5x5
I0403 16:22:53.634490 18039 net.cpp:141] Setting up inception_3b/5x5
I0403 16:22:53.634519 18039 net.cpp:148] Top shape: 24 96 28 28 (1806336)
I0403 16:22:53.634536 18039 net.cpp:156] Memory required for data: 736986144
I0403 16:22:53.634557 18039 layer_factory.hpp:77] Creating layer inception_3b/relu_5x5
I0403 16:22:53.634580 18039 net.cpp:91] Creating Layer inception_3b/relu_5x5
I0403 16:22:53.634599 18039 net.cpp:425] inception_3b/relu_5x5 <- inception_3b/5x5
I0403 16:22:53.634623 18039 net.cpp:386] inception_3b/relu_5x5 -> inception_3b/5x5 (in-place)
I0403 16:22:53.634814 18039 net.cpp:141] Setting up inception_3b/relu_5x5
I0403 16:22:53.634840 18039 net.cpp:148] Top shape: 24 96 28 28 (1806336)
I0403 16:22:53.634855 18039 net.cpp:156] Memory required for data: 744211488
I0403 16:22:53.634870 18039 layer_factory.hpp:77] Creating layer inception_3b/pool
I0403 16:22:53.634887 18039 net.cpp:91] Creating Layer inception_3b/pool
I0403 16:22:53.634904 18039 net.cpp:425] inception_3b/pool <- inception_3a/output_inception_3a/output_0_split_3
I0403 16:22:53.634923 18039 net.cpp:399] inception_3b/pool -> inception_3b/pool
I0403 16:22:53.634980 18039 net.cpp:141] Setting up inception_3b/pool
I0403 16:22:53.635004 18039 net.cpp:148] Top shape: 24 256 28 28 (4816896)
I0403 16:22:53.635020 18039 net.cpp:156] Memory required for data: 763479072
I0403 16:22:53.635033 18039 layer_factory.hpp:77] Creating layer inception_3b/pool_proj
I0403 16:22:53.635056 18039 net.cpp:91] Creating Layer inception_3b/pool_proj
I0403 16:22:53.635076 18039 net.cpp:425] inception_3b/pool_proj <- inception_3b/pool
I0403 16:22:53.635097 18039 net.cpp:399] inception_3b/pool_proj -> inception_3b/pool_proj
I0403 16:22:53.636194 18039 net.cpp:141] Setting up inception_3b/pool_proj
I0403 16:22:53.636224 18039 net.cpp:148] Top shape: 24 64 28 28 (1204224)
I0403 16:22:53.636240 18039 net.cpp:156] Memory required for data: 768295968
I0403 16:22:53.636260 18039 layer_factory.hpp:77] Creating layer inception_3b/relu_pool_proj
I0403 16:22:53.636281 18039 net.cpp:91] Creating Layer inception_3b/relu_pool_proj
I0403 16:22:53.636299 18039 net.cpp:425] inception_3b/relu_pool_proj <- inception_3b/pool_proj
I0403 16:22:53.636317 18039 net.cpp:386] inception_3b/relu_pool_proj -> inception_3b/pool_proj (in-place)
I0403 16:22:53.636711 18039 net.cpp:141] Setting up inception_3b/relu_pool_proj
I0403 16:22:53.636739 18039 net.cpp:148] Top shape: 24 64 28 28 (1204224)
I0403 16:22:53.636754 18039 net.cpp:156] Memory required for data: 773112864
I0403 16:22:53.636770 18039 layer_factory.hpp:77] Creating layer inception_3b/output
I0403 16:22:53.636787 18039 net.cpp:91] Creating Layer inception_3b/output
I0403 16:22:53.636806 18039 net.cpp:425] inception_3b/output <- inception_3b/1x1
I0403 16:22:53.636823 18039 net.cpp:425] inception_3b/output <- inception_3b/3x3
I0403 16:22:53.636839 18039 net.cpp:425] inception_3b/output <- inception_3b/5x5
I0403 16:22:53.636855 18039 net.cpp:425] inception_3b/output <- inception_3b/pool_proj
I0403 16:22:53.636874 18039 net.cpp:399] inception_3b/output -> inception_3b/output
I0403 16:22:53.636919 18039 net.cpp:141] Setting up inception_3b/output
I0403 16:22:53.636945 18039 net.cpp:148] Top shape: 24 480 28 28 (9031680)
I0403 16:22:53.636960 18039 net.cpp:156] Memory required for data: 809239584
I0403 16:22:53.636976 18039 layer_factory.hpp:77] Creating layer pool3/3x3_s2
I0403 16:22:53.636993 18039 net.cpp:91] Creating Layer pool3/3x3_s2
I0403 16:22:53.637009 18039 net.cpp:425] pool3/3x3_s2 <- inception_3b/output
I0403 16:22:53.637027 18039 net.cpp:399] pool3/3x3_s2 -> pool3/3x3_s2
I0403 16:22:53.637104 18039 net.cpp:141] Setting up pool3/3x3_s2
I0403 16:22:53.637128 18039 net.cpp:148] Top shape: 24 480 14 14 (2257920)
I0403 16:22:53.637145 18039 net.cpp:156] Memory required for data: 818271264
I0403 16:22:53.637159 18039 layer_factory.hpp:77] Creating layer pool3/3x3_s2_pool3/3x3_s2_0_split
I0403 16:22:53.637176 18039 net.cpp:91] Creating Layer pool3/3x3_s2_pool3/3x3_s2_0_split
I0403 16:22:53.637192 18039 net.cpp:425] pool3/3x3_s2_pool3/3x3_s2_0_split <- pool3/3x3_s2
I0403 16:22:53.637212 18039 net.cpp:399] pool3/3x3_s2_pool3/3x3_s2_0_split -> pool3/3x3_s2_pool3/3x3_s2_0_split_0
I0403 16:22:53.637234 18039 net.cpp:399] pool3/3x3_s2_pool3/3x3_s2_0_split -> pool3/3x3_s2_pool3/3x3_s2_0_split_1
I0403 16:22:53.637256 18039 net.cpp:399] pool3/3x3_s2_pool3/3x3_s2_0_split -> pool3/3x3_s2_pool3/3x3_s2_0_split_2
I0403 16:22:53.637279 18039 net.cpp:399] pool3/3x3_s2_pool3/3x3_s2_0_split -> pool3/3x3_s2_pool3/3x3_s2_0_split_3
I0403 16:22:53.637357 18039 net.cpp:141] Setting up pool3/3x3_s2_pool3/3x3_s2_0_split
I0403 16:22:53.637382 18039 net.cpp:148] Top shape: 24 480 14 14 (2257920)
I0403 16:22:53.637398 18039 net.cpp:148] Top shape: 24 480 14 14 (2257920)
I0403 16:22:53.637415 18039 net.cpp:148] Top shape: 24 480 14 14 (2257920)
I0403 16:22:53.637431 18039 net.cpp:148] Top shape: 24 480 14 14 (2257920)
I0403 16:22:53.637445 18039 net.cpp:156] Memory required for data: 854397984
I0403 16:22:53.637460 18039 layer_factory.hpp:77] Creating layer inception_4a/1x1
I0403 16:22:53.637482 18039 net.cpp:91] Creating Layer inception_4a/1x1
I0403 16:22:53.637501 18039 net.cpp:425] inception_4a/1x1 <- pool3/3x3_s2_pool3/3x3_s2_0_split_0
I0403 16:22:53.637522 18039 net.cpp:399] inception_4a/1x1 -> inception_4a/1x1
I0403 16:22:53.639122 18039 net.cpp:141] Setting up inception_4a/1x1
I0403 16:22:53.639149 18039 net.cpp:148] Top shape: 24 192 14 14 (903168)
I0403 16:22:53.639166 18039 net.cpp:156] Memory required for data: 858010656
I0403 16:22:53.639184 18039 layer_factory.hpp:77] Creating layer inception_4a/relu_1x1
I0403 16:22:53.639205 18039 net.cpp:91] Creating Layer inception_4a/relu_1x1
I0403 16:22:53.639224 18039 net.cpp:425] inception_4a/relu_1x1 <- inception_4a/1x1
I0403 16:22:53.639241 18039 net.cpp:386] inception_4a/relu_1x1 -> inception_4a/1x1 (in-place)
I0403 16:22:53.639416 18039 net.cpp:141] Setting up inception_4a/relu_1x1
I0403 16:22:53.639442 18039 net.cpp:148] Top shape: 24 192 14 14 (903168)
I0403 16:22:53.639456 18039 net.cpp:156] Memory required for data: 861623328
I0403 16:22:53.639472 18039 layer_factory.hpp:77] Creating layer inception_4a/3x3_reduce
I0403 16:22:53.639497 18039 net.cpp:91] Creating Layer inception_4a/3x3_reduce
I0403 16:22:53.639514 18039 net.cpp:425] inception_4a/3x3_reduce <- pool3/3x3_s2_pool3/3x3_s2_0_split_1
I0403 16:22:53.639534 18039 net.cpp:399] inception_4a/3x3_reduce -> inception_4a/3x3_reduce
I0403 16:22:53.640812 18039 net.cpp:141] Setting up inception_4a/3x3_reduce
I0403 16:22:53.640849 18039 net.cpp:148] Top shape: 24 96 14 14 (451584)
I0403 16:22:53.640866 18039 net.cpp:156] Memory required for data: 863429664
I0403 16:22:53.640893 18039 layer_factory.hpp:77] Creating layer inception_4a/relu_3x3_reduce
I0403 16:22:53.640914 18039 net.cpp:91] Creating Layer inception_4a/relu_3x3_reduce
I0403 16:22:53.640933 18039 net.cpp:425] inception_4a/relu_3x3_reduce <- inception_4a/3x3_reduce
I0403 16:22:53.640954 18039 net.cpp:386] inception_4a/relu_3x3_reduce -> inception_4a/3x3_reduce (in-place)
I0403 16:22:53.641150 18039 net.cpp:141] Setting up inception_4a/relu_3x3_reduce
I0403 16:22:53.641175 18039 net.cpp:148] Top shape: 24 96 14 14 (451584)
I0403 16:22:53.641191 18039 net.cpp:156] Memory required for data: 865236000
I0403 16:22:53.641204 18039 layer_factory.hpp:77] Creating layer inception_4a/3x3
I0403 16:22:53.641227 18039 net.cpp:91] Creating Layer inception_4a/3x3
I0403 16:22:53.641247 18039 net.cpp:425] inception_4a/3x3 <- inception_4a/3x3_reduce
I0403 16:22:53.641268 18039 net.cpp:399] inception_4a/3x3 -> inception_4a/3x3
I0403 16:22:53.643870 18039 net.cpp:141] Setting up inception_4a/3x3
I0403 16:22:53.643899 18039 net.cpp:148] Top shape: 24 208 14 14 (978432)
I0403 16:22:53.643915 18039 net.cpp:156] Memory required for data: 869149728
I0403 16:22:53.643934 18039 layer_factory.hpp:77] Creating layer inception_4a/relu_3x3
I0403 16:22:53.643954 18039 net.cpp:91] Creating Layer inception_4a/relu_3x3
I0403 16:22:53.643973 18039 net.cpp:425] inception_4a/relu_3x3 <- inception_4a/3x3
I0403 16:22:53.643991 18039 net.cpp:386] inception_4a/relu_3x3 -> inception_4a/3x3 (in-place)
I0403 16:22:53.644273 18039 net.cpp:141] Setting up inception_4a/relu_3x3
I0403 16:22:53.644300 18039 net.cpp:148] Top shape: 24 208 14 14 (978432)
I0403 16:22:53.644316 18039 net.cpp:156] Memory required for data: 873063456
I0403 16:22:53.644331 18039 layer_factory.hpp:77] Creating layer inception_4a/5x5_reduce
I0403 16:22:53.644354 18039 net.cpp:91] Creating Layer inception_4a/5x5_reduce
I0403 16:22:53.644372 18039 net.cpp:425] inception_4a/5x5_reduce <- pool3/3x3_s2_pool3/3x3_s2_0_split_2
I0403 16:22:53.644394 18039 net.cpp:399] inception_4a/5x5_reduce -> inception_4a/5x5_reduce
I0403 16:22:53.645429 18039 net.cpp:141] Setting up inception_4a/5x5_reduce
I0403 16:22:53.645458 18039 net.cpp:148] Top shape: 24 16 14 14 (75264)
I0403 16:22:53.645475 18039 net.cpp:156] Memory required for data: 873364512
I0403 16:22:53.645494 18039 layer_factory.hpp:77] Creating layer inception_4a/relu_5x5_reduce
I0403 16:22:53.645512 18039 net.cpp:91] Creating Layer inception_4a/relu_5x5_reduce
I0403 16:22:53.645529 18039 net.cpp:425] inception_4a/relu_5x5_reduce <- inception_4a/5x5_reduce
I0403 16:22:53.645546 18039 net.cpp:386] inception_4a/relu_5x5_reduce -> inception_4a/5x5_reduce (in-place)
I0403 16:22:53.645727 18039 net.cpp:141] Setting up inception_4a/relu_5x5_reduce
I0403 16:22:53.645753 18039 net.cpp:148] Top shape: 24 16 14 14 (75264)
I0403 16:22:53.645768 18039 net.cpp:156] Memory required for data: 873665568
I0403 16:22:53.645783 18039 layer_factory.hpp:77] Creating layer inception_4a/5x5
I0403 16:22:53.645805 18039 net.cpp:91] Creating Layer inception_4a/5x5
I0403 16:22:53.645823 18039 net.cpp:425] inception_4a/5x5 <- inception_4a/5x5_reduce
I0403 16:22:53.645844 18039 net.cpp:399] inception_4a/5x5 -> inception_4a/5x5
I0403 16:22:53.646888 18039 net.cpp:141] Setting up inception_4a/5x5
I0403 16:22:53.646914 18039 net.cpp:148] Top shape: 24 48 14 14 (225792)
I0403 16:22:53.646930 18039 net.cpp:156] Memory required for data: 874568736
I0403 16:22:53.646950 18039 layer_factory.hpp:77] Creating layer inception_4a/relu_5x5
I0403 16:22:53.646967 18039 net.cpp:91] Creating Layer inception_4a/relu_5x5
I0403 16:22:53.646982 18039 net.cpp:425] inception_4a/relu_5x5 <- inception_4a/5x5
I0403 16:22:53.647002 18039 net.cpp:386] inception_4a/relu_5x5 -> inception_4a/5x5 (in-place)
I0403 16:22:53.647172 18039 net.cpp:141] Setting up inception_4a/relu_5x5
I0403 16:22:53.647198 18039 net.cpp:148] Top shape: 24 48 14 14 (225792)
I0403 16:22:53.647212 18039 net.cpp:156] Memory required for data: 875471904
I0403 16:22:53.647227 18039 layer_factory.hpp:77] Creating layer inception_4a/pool
I0403 16:22:53.647246 18039 net.cpp:91] Creating Layer inception_4a/pool
I0403 16:22:53.647264 18039 net.cpp:425] inception_4a/pool <- pool3/3x3_s2_pool3/3x3_s2_0_split_3
I0403 16:22:53.647282 18039 net.cpp:399] inception_4a/pool -> inception_4a/pool
I0403 16:22:53.647342 18039 net.cpp:141] Setting up inception_4a/pool
I0403 16:22:53.647367 18039 net.cpp:148] Top shape: 24 480 14 14 (2257920)
I0403 16:22:53.647382 18039 net.cpp:156] Memory required for data: 884503584
I0403 16:22:53.647397 18039 layer_factory.hpp:77] Creating layer inception_4a/pool_proj
I0403 16:22:53.647418 18039 net.cpp:91] Creating Layer inception_4a/pool_proj
I0403 16:22:53.647434 18039 net.cpp:425] inception_4a/pool_proj <- inception_4a/pool
I0403 16:22:53.647455 18039 net.cpp:399] inception_4a/pool_proj -> inception_4a/pool_proj
I0403 16:22:53.648581 18039 net.cpp:141] Setting up inception_4a/pool_proj
I0403 16:22:53.648614 18039 net.cpp:148] Top shape: 24 64 14 14 (301056)
I0403 16:22:53.648645 18039 net.cpp:156] Memory required for data: 885707808
I0403 16:22:53.648665 18039 layer_factory.hpp:77] Creating layer inception_4a/relu_pool_proj
I0403 16:22:53.648686 18039 net.cpp:91] Creating Layer inception_4a/relu_pool_proj
I0403 16:22:53.648705 18039 net.cpp:425] inception_4a/relu_pool_proj <- inception_4a/pool_proj
I0403 16:22:53.648723 18039 net.cpp:386] inception_4a/relu_pool_proj -> inception_4a/pool_proj (in-place)
I0403 16:22:53.648999 18039 net.cpp:141] Setting up inception_4a/relu_pool_proj
I0403 16:22:53.649026 18039 net.cpp:148] Top shape: 24 64 14 14 (301056)
I0403 16:22:53.649042 18039 net.cpp:156] Memory required for data: 886912032
I0403 16:22:53.649057 18039 layer_factory.hpp:77] Creating layer inception_4a/output
I0403 16:22:53.649075 18039 net.cpp:91] Creating Layer inception_4a/output
I0403 16:22:53.649092 18039 net.cpp:425] inception_4a/output <- inception_4a/1x1
I0403 16:22:53.649109 18039 net.cpp:425] inception_4a/output <- inception_4a/3x3
I0403 16:22:53.649126 18039 net.cpp:425] inception_4a/output <- inception_4a/5x5
I0403 16:22:53.649142 18039 net.cpp:425] inception_4a/output <- inception_4a/pool_proj
I0403 16:22:53.649160 18039 net.cpp:399] inception_4a/output -> inception_4a/output
I0403 16:22:53.649205 18039 net.cpp:141] Setting up inception_4a/output
I0403 16:22:53.649232 18039 net.cpp:148] Top shape: 24 512 14 14 (2408448)
I0403 16:22:53.649246 18039 net.cpp:156] Memory required for data: 896545824
I0403 16:22:53.649261 18039 layer_factory.hpp:77] Creating layer inception_4a/output_inception_4a/output_0_split
I0403 16:22:53.649277 18039 net.cpp:91] Creating Layer inception_4a/output_inception_4a/output_0_split
I0403 16:22:53.649293 18039 net.cpp:425] inception_4a/output_inception_4a/output_0_split <- inception_4a/output
I0403 16:22:53.649313 18039 net.cpp:399] inception_4a/output_inception_4a/output_0_split -> inception_4a/output_inception_4a/output_0_split_0
I0403 16:22:53.649335 18039 net.cpp:399] inception_4a/output_inception_4a/output_0_split -> inception_4a/output_inception_4a/output_0_split_1
I0403 16:22:53.649358 18039 net.cpp:399] inception_4a/output_inception_4a/output_0_split -> inception_4a/output_inception_4a/output_0_split_2
I0403 16:22:53.649379 18039 net.cpp:399] inception_4a/output_inception_4a/output_0_split -> inception_4a/output_inception_4a/output_0_split_3
I0403 16:22:53.649399 18039 net.cpp:399] inception_4a/output_inception_4a/output_0_split -> inception_4a/output_inception_4a/output_0_split_4
I0403 16:22:53.649487 18039 net.cpp:141] Setting up inception_4a/output_inception_4a/output_0_split
I0403 16:22:53.649513 18039 net.cpp:148] Top shape: 24 512 14 14 (2408448)
I0403 16:22:53.649531 18039 net.cpp:148] Top shape: 24 512 14 14 (2408448)
I0403 16:22:53.649549 18039 net.cpp:148] Top shape: 24 512 14 14 (2408448)
I0403 16:22:53.649564 18039 net.cpp:148] Top shape: 24 512 14 14 (2408448)
I0403 16:22:53.649579 18039 net.cpp:148] Top shape: 24 512 14 14 (2408448)
I0403 16:22:53.649592 18039 net.cpp:156] Memory required for data: 944714784
I0403 16:22:53.649611 18039 layer_factory.hpp:77] Creating layer loss1/ave_pool
I0403 16:22:53.649632 18039 net.cpp:91] Creating Layer loss1/ave_pool
I0403 16:22:53.649649 18039 net.cpp:425] loss1/ave_pool <- inception_4a/output_inception_4a/output_0_split_0
I0403 16:22:53.649667 18039 net.cpp:399] loss1/ave_pool -> loss1/ave_pool
I0403 16:22:53.649880 18039 net.cpp:141] Setting up loss1/ave_pool
I0403 16:22:53.649907 18039 net.cpp:148] Top shape: 24 512 4 4 (196608)
I0403 16:22:53.649924 18039 net.cpp:156] Memory required for data: 945501216
I0403 16:22:53.649940 18039 layer_factory.hpp:77] Creating layer loss1/conv
I0403 16:22:53.649962 18039 net.cpp:91] Creating Layer loss1/conv
I0403 16:22:53.649981 18039 net.cpp:425] loss1/conv <- loss1/ave_pool
I0403 16:22:53.650002 18039 net.cpp:399] loss1/conv -> loss1/conv
I0403 16:22:53.651370 18039 net.cpp:141] Setting up loss1/conv
I0403 16:22:53.651397 18039 net.cpp:148] Top shape: 24 128 4 4 (49152)
I0403 16:22:53.651417 18039 net.cpp:156] Memory required for data: 945697824
I0403 16:22:53.651449 18039 layer_factory.hpp:77] Creating layer loss1/relu_conv
I0403 16:22:53.651469 18039 net.cpp:91] Creating Layer loss1/relu_conv
I0403 16:22:53.651486 18039 net.cpp:425] loss1/relu_conv <- loss1/conv
I0403 16:22:53.651504 18039 net.cpp:386] loss1/relu_conv -> loss1/conv (in-place)
I0403 16:22:53.651784 18039 net.cpp:141] Setting up loss1/relu_conv
I0403 16:22:53.651811 18039 net.cpp:148] Top shape: 24 128 4 4 (49152)
I0403 16:22:53.651830 18039 net.cpp:156] Memory required for data: 945894432
I0403 16:22:53.651845 18039 layer_factory.hpp:77] Creating layer loss1/fc
I0403 16:22:53.651868 18039 net.cpp:91] Creating Layer loss1/fc
I0403 16:22:53.651886 18039 net.cpp:425] loss1/fc <- loss1/conv
I0403 16:22:53.651907 18039 net.cpp:399] loss1/fc -> loss1/fc
I0403 16:22:53.669528 18039 net.cpp:141] Setting up loss1/fc
I0403 16:22:53.669562 18039 net.cpp:148] Top shape: 24 1024 (24576)
I0403 16:22:53.669579 18039 net.cpp:156] Memory required for data: 945992736
I0403 16:22:53.669597 18039 layer_factory.hpp:77] Creating layer loss1/relu_fc
I0403 16:22:53.669621 18039 net.cpp:91] Creating Layer loss1/relu_fc
I0403 16:22:53.669641 18039 net.cpp:425] loss1/relu_fc <- loss1/fc
I0403 16:22:53.669657 18039 net.cpp:386] loss1/relu_fc -> loss1/fc (in-place)
I0403 16:22:53.669843 18039 net.cpp:141] Setting up loss1/relu_fc
I0403 16:22:53.669868 18039 net.cpp:148] Top shape: 24 1024 (24576)
I0403 16:22:53.669884 18039 net.cpp:156] Memory required for data: 946091040
I0403 16:22:53.669899 18039 layer_factory.hpp:77] Creating layer loss1/drop_fc
I0403 16:22:53.669924 18039 net.cpp:91] Creating Layer loss1/drop_fc
I0403 16:22:53.669942 18039 net.cpp:425] loss1/drop_fc <- loss1/fc
I0403 16:22:53.669960 18039 net.cpp:386] loss1/drop_fc -> loss1/fc (in-place)
I0403 16:22:53.670009 18039 net.cpp:141] Setting up loss1/drop_fc
I0403 16:22:53.670035 18039 net.cpp:148] Top shape: 24 1024 (24576)
I0403 16:22:53.670052 18039 net.cpp:156] Memory required for data: 946189344
I0403 16:22:53.670066 18039 layer_factory.hpp:77] Creating layer loss1/classifier_plantvillage
I0403 16:22:53.670084 18039 net.cpp:91] Creating Layer loss1/classifier_plantvillage
I0403 16:22:53.670100 18039 net.cpp:425] loss1/classifier_plantvillage <- loss1/fc
I0403 16:22:53.670122 18039 net.cpp:399] loss1/classifier_plantvillage -> loss1/classifier_plantvillage
I0403 16:22:53.671000 18039 net.cpp:141] Setting up loss1/classifier_plantvillage
I0403 16:22:53.671030 18039 net.cpp:148] Top shape: 24 38 (912)
I0403 16:22:53.671047 18039 net.cpp:156] Memory required for data: 946192992
I0403 16:22:53.671064 18039 layer_factory.hpp:77] Creating layer loss1/classifier_plantvillage_loss1/classifier_plantvillage_0_split
I0403 16:22:53.671082 18039 net.cpp:91] Creating Layer loss1/classifier_plantvillage_loss1/classifier_plantvillage_0_split
I0403 16:22:53.671098 18039 net.cpp:425] loss1/classifier_plantvillage_loss1/classifier_plantvillage_0_split <- loss1/classifier_plantvillage
I0403 16:22:53.671116 18039 net.cpp:399] loss1/classifier_plantvillage_loss1/classifier_plantvillage_0_split -> loss1/classifier_plantvillage_loss1/classifier_plantvillage_0_split_0
I0403 16:22:53.671136 18039 net.cpp:399] loss1/classifier_plantvillage_loss1/classifier_plantvillage_0_split -> loss1/classifier_plantvillage_loss1/classifier_plantvillage_0_split_1
I0403 16:22:53.671156 18039 net.cpp:399] loss1/classifier_plantvillage_loss1/classifier_plantvillage_0_split -> loss1/classifier_plantvillage_loss1/classifier_plantvillage_0_split_2
I0403 16:22:53.671221 18039 net.cpp:141] Setting up loss1/classifier_plantvillage_loss1/classifier_plantvillage_0_split
I0403 16:22:53.671246 18039 net.cpp:148] Top shape: 24 38 (912)
I0403 16:22:53.671262 18039 net.cpp:148] Top shape: 24 38 (912)
I0403 16:22:53.671277 18039 net.cpp:148] Top shape: 24 38 (912)
I0403 16:22:53.671290 18039 net.cpp:156] Memory required for data: 946203936
I0403 16:22:53.671304 18039 layer_factory.hpp:77] Creating layer inception_4b/1x1
I0403 16:22:53.671324 18039 net.cpp:91] Creating Layer inception_4b/1x1
I0403 16:22:53.671362 18039 net.cpp:425] inception_4b/1x1 <- inception_4a/output_inception_4a/output_0_split_1
I0403 16:22:53.671385 18039 net.cpp:399] inception_4b/1x1 -> inception_4b/1x1
I0403 16:22:53.672977 18039 net.cpp:141] Setting up inception_4b/1x1
I0403 16:22:53.673008 18039 net.cpp:148] Top shape: 24 160 14 14 (752640)
I0403 16:22:53.673025 18039 net.cpp:156] Memory required for data: 949214496
I0403 16:22:53.673043 18039 layer_factory.hpp:77] Creating layer inception_4b/relu_1x1
I0403 16:22:53.673060 18039 net.cpp:91] Creating Layer inception_4b/relu_1x1
I0403 16:22:53.673076 18039 net.cpp:425] inception_4b/relu_1x1 <- inception_4b/1x1
I0403 16:22:53.673094 18039 net.cpp:386] inception_4b/relu_1x1 -> inception_4b/1x1 (in-place)
I0403 16:22:53.673265 18039 net.cpp:141] Setting up inception_4b/relu_1x1
I0403 16:22:53.673291 18039 net.cpp:148] Top shape: 24 160 14 14 (752640)
I0403 16:22:53.673307 18039 net.cpp:156] Memory required for data: 952225056
I0403 16:22:53.673321 18039 layer_factory.hpp:77] Creating layer inception_4b/3x3_reduce
I0403 16:22:53.673342 18039 net.cpp:91] Creating Layer inception_4b/3x3_reduce
I0403 16:22:53.673360 18039 net.cpp:425] inception_4b/3x3_reduce <- inception_4a/output_inception_4a/output_0_split_2
I0403 16:22:53.673382 18039 net.cpp:399] inception_4b/3x3_reduce -> inception_4b/3x3_reduce
I0403 16:22:53.674696 18039 net.cpp:141] Setting up inception_4b/3x3_reduce
I0403 16:22:53.674727 18039 net.cpp:148] Top shape: 24 112 14 14 (526848)
I0403 16:22:53.674744 18039 net.cpp:156] Memory required for data: 954332448
I0403 16:22:53.674762 18039 layer_factory.hpp:77] Creating layer inception_4b/relu_3x3_reduce
I0403 16:22:53.674782 18039 net.cpp:91] Creating Layer inception_4b/relu_3x3_reduce
I0403 16:22:53.674798 18039 net.cpp:425] inception_4b/relu_3x3_reduce <- inception_4b/3x3_reduce
I0403 16:22:53.674818 18039 net.cpp:386] inception_4b/relu_3x3_reduce -> inception_4b/3x3_reduce (in-place)
I0403 16:22:53.675093 18039 net.cpp:141] Setting up inception_4b/relu_3x3_reduce
I0403 16:22:53.675122 18039 net.cpp:148] Top shape: 24 112 14 14 (526848)
I0403 16:22:53.675137 18039 net.cpp:156] Memory required for data: 956439840
I0403 16:22:53.675153 18039 layer_factory.hpp:77] Creating layer inception_4b/3x3
I0403 16:22:53.675173 18039 net.cpp:91] Creating Layer inception_4b/3x3
I0403 16:22:53.675192 18039 net.cpp:425] inception_4b/3x3 <- inception_4b/3x3_reduce
I0403 16:22:53.675211 18039 net.cpp:399] inception_4b/3x3 -> inception_4b/3x3
I0403 16:22:53.678009 18039 net.cpp:141] Setting up inception_4b/3x3
I0403 16:22:53.678037 18039 net.cpp:148] Top shape: 24 224 14 14 (1053696)
I0403 16:22:53.678053 18039 net.cpp:156] Memory required for data: 960654624
I0403 16:22:53.678071 18039 layer_factory.hpp:77] Creating layer inception_4b/relu_3x3
I0403 16:22:53.678092 18039 net.cpp:91] Creating Layer inception_4b/relu_3x3
I0403 16:22:53.678109 18039 net.cpp:425] inception_4b/relu_3x3 <- inception_4b/3x3
I0403 16:22:53.678127 18039 net.cpp:386] inception_4b/relu_3x3 -> inception_4b/3x3 (in-place)
I0403 16:22:53.678298 18039 net.cpp:141] Setting up inception_4b/relu_3x3
I0403 16:22:53.678323 18039 net.cpp:148] Top shape: 24 224 14 14 (1053696)
I0403 16:22:53.678339 18039 net.cpp:156] Memory required for data: 964869408
I0403 16:22:53.678354 18039 layer_factory.hpp:77] Creating layer inception_4b/5x5_reduce
I0403 16:22:53.678377 18039 net.cpp:91] Creating Layer inception_4b/5x5_reduce
I0403 16:22:53.678395 18039 net.cpp:425] inception_4b/5x5_reduce <- inception_4a/output_inception_4a/output_0_split_3
I0403 16:22:53.678414 18039 net.cpp:399] inception_4b/5x5_reduce -> inception_4b/5x5_reduce
I0403 16:22:53.679468 18039 net.cpp:141] Setting up inception_4b/5x5_reduce
I0403 16:22:53.679497 18039 net.cpp:148] Top shape: 24 24 14 14 (112896)
I0403 16:22:53.679514 18039 net.cpp:156] Memory required for data: 965320992
I0403 16:22:53.679533 18039 layer_factory.hpp:77] Creating layer inception_4b/relu_5x5_reduce
I0403 16:22:53.679550 18039 net.cpp:91] Creating Layer inception_4b/relu_5x5_reduce
I0403 16:22:53.679580 18039 net.cpp:425] inception_4b/relu_5x5_reduce <- inception_4b/5x5_reduce
I0403 16:22:53.679606 18039 net.cpp:386] inception_4b/relu_5x5_reduce -> inception_4b/5x5_reduce (in-place)
I0403 16:22:53.679780 18039 net.cpp:141] Setting up inception_4b/relu_5x5_reduce
I0403 16:22:53.679805 18039 net.cpp:148] Top shape: 24 24 14 14 (112896)
I0403 16:22:53.679821 18039 net.cpp:156] Memory required for data: 965772576
I0403 16:22:53.679836 18039 layer_factory.hpp:77] Creating layer inception_4b/5x5
I0403 16:22:53.679857 18039 net.cpp:91] Creating Layer inception_4b/5x5
I0403 16:22:53.679875 18039 net.cpp:425] inception_4b/5x5 <- inception_4b/5x5_reduce
I0403 16:22:53.679896 18039 net.cpp:399] inception_4b/5x5 -> inception_4b/5x5
I0403 16:22:53.681057 18039 net.cpp:141] Setting up inception_4b/5x5
I0403 16:22:53.681087 18039 net.cpp:148] Top shape: 24 64 14 14 (301056)
I0403 16:22:53.681104 18039 net.cpp:156] Memory required for data: 966976800
I0403 16:22:53.681123 18039 layer_factory.hpp:77] Creating layer inception_4b/relu_5x5
I0403 16:22:53.681139 18039 net.cpp:91] Creating Layer inception_4b/relu_5x5
I0403 16:22:53.681154 18039 net.cpp:425] inception_4b/relu_5x5 <- inception_4b/5x5
I0403 16:22:53.681172 18039 net.cpp:386] inception_4b/relu_5x5 -> inception_4b/5x5 (in-place)
I0403 16:22:53.681442 18039 net.cpp:141] Setting up inception_4b/relu_5x5
I0403 16:22:53.681469 18039 net.cpp:148] Top shape: 24 64 14 14 (301056)
I0403 16:22:53.681486 18039 net.cpp:156] Memory required for data: 968181024
I0403 16:22:53.681500 18039 layer_factory.hpp:77] Creating layer inception_4b/pool
I0403 16:22:53.681519 18039 net.cpp:91] Creating Layer inception_4b/pool
I0403 16:22:53.681534 18039 net.cpp:425] inception_4b/pool <- inception_4a/output_inception_4a/output_0_split_4
I0403 16:22:53.681551 18039 net.cpp:399] inception_4b/pool -> inception_4b/pool
I0403 16:22:53.681622 18039 net.cpp:141] Setting up inception_4b/pool
I0403 16:22:53.681645 18039 net.cpp:148] Top shape: 24 512 14 14 (2408448)
I0403 16:22:53.681659 18039 net.cpp:156] Memory required for data: 977814816
I0403 16:22:53.681673 18039 layer_factory.hpp:77] Creating layer inception_4b/pool_proj
I0403 16:22:53.681694 18039 net.cpp:91] Creating Layer inception_4b/pool_proj
I0403 16:22:53.681711 18039 net.cpp:425] inception_4b/pool_proj <- inception_4b/pool
I0403 16:22:53.681732 18039 net.cpp:399] inception_4b/pool_proj -> inception_4b/pool_proj
I0403 16:22:53.682878 18039 net.cpp:141] Setting up inception_4b/pool_proj
I0403 16:22:53.682909 18039 net.cpp:148] Top shape: 24 64 14 14 (301056)
I0403 16:22:53.682925 18039 net.cpp:156] Memory required for data: 979019040
I0403 16:22:53.682943 18039 layer_factory.hpp:77] Creating layer inception_4b/relu_pool_proj
I0403 16:22:53.682961 18039 net.cpp:91] Creating Layer inception_4b/relu_pool_proj
I0403 16:22:53.682978 18039 net.cpp:425] inception_4b/relu_pool_proj <- inception_4b/pool_proj
I0403 16:22:53.682996 18039 net.cpp:386] inception_4b/relu_pool_proj -> inception_4b/pool_proj (in-place)
I0403 16:22:53.683169 18039 net.cpp:141] Setting up inception_4b/relu_pool_proj
I0403 16:22:53.683194 18039 net.cpp:148] Top shape: 24 64 14 14 (301056)
I0403 16:22:53.683208 18039 net.cpp:156] Memory required for data: 980223264
I0403 16:22:53.683223 18039 layer_factory.hpp:77] Creating layer inception_4b/output
I0403 16:22:53.683239 18039 net.cpp:91] Creating Layer inception_4b/output
I0403 16:22:53.683255 18039 net.cpp:425] inception_4b/output <- inception_4b/1x1
I0403 16:22:53.683271 18039 net.cpp:425] inception_4b/output <- inception_4b/3x3
I0403 16:22:53.683286 18039 net.cpp:425] inception_4b/output <- inception_4b/5x5
I0403 16:22:53.683301 18039 net.cpp:425] inception_4b/output <- inception_4b/pool_proj
I0403 16:22:53.683320 18039 net.cpp:399] inception_4b/output -> inception_4b/output
I0403 16:22:53.683364 18039 net.cpp:141] Setting up inception_4b/output
I0403 16:22:53.683389 18039 net.cpp:148] Top shape: 24 512 14 14 (2408448)
I0403 16:22:53.683406 18039 net.cpp:156] Memory required for data: 989857056
I0403 16:22:53.683434 18039 layer_factory.hpp:77] Creating layer inception_4b/output_inception_4b/output_0_split
I0403 16:22:53.683454 18039 net.cpp:91] Creating Layer inception_4b/output_inception_4b/output_0_split
I0403 16:22:53.683468 18039 net.cpp:425] inception_4b/output_inception_4b/output_0_split <- inception_4b/output
I0403 16:22:53.683487 18039 net.cpp:399] inception_4b/output_inception_4b/output_0_split -> inception_4b/output_inception_4b/output_0_split_0
I0403 16:22:53.683508 18039 net.cpp:399] inception_4b/output_inception_4b/output_0_split -> inception_4b/output_inception_4b/output_0_split_1
I0403 16:22:53.683531 18039 net.cpp:399] inception_4b/output_inception_4b/output_0_split -> inception_4b/output_inception_4b/output_0_split_2
I0403 16:22:53.683550 18039 net.cpp:399] inception_4b/output_inception_4b/output_0_split -> inception_4b/output_inception_4b/output_0_split_3
I0403 16:22:53.683635 18039 net.cpp:141] Setting up inception_4b/output_inception_4b/output_0_split
I0403 16:22:53.683658 18039 net.cpp:148] Top shape: 24 512 14 14 (2408448)
I0403 16:22:53.683676 18039 net.cpp:148] Top shape: 24 512 14 14 (2408448)
I0403 16:22:53.683691 18039 net.cpp:148] Top shape: 24 512 14 14 (2408448)
I0403 16:22:53.683707 18039 net.cpp:148] Top shape: 24 512 14 14 (2408448)
I0403 16:22:53.683722 18039 net.cpp:156] Memory required for data: 1028392224
I0403 16:22:53.683737 18039 layer_factory.hpp:77] Creating layer inception_4c/1x1
I0403 16:22:53.683758 18039 net.cpp:91] Creating Layer inception_4c/1x1
I0403 16:22:53.683789 18039 net.cpp:425] inception_4c/1x1 <- inception_4b/output_inception_4b/output_0_split_0
I0403 16:22:53.683809 18039 net.cpp:399] inception_4c/1x1 -> inception_4c/1x1
I0403 16:22:53.685184 18039 net.cpp:141] Setting up inception_4c/1x1
I0403 16:22:53.685212 18039 net.cpp:148] Top shape: 24 128 14 14 (602112)
I0403 16:22:53.685228 18039 net.cpp:156] Memory required for data: 1030800672
I0403 16:22:53.685245 18039 layer_factory.hpp:77] Creating layer inception_4c/relu_1x1
I0403 16:22:53.685264 18039 net.cpp:91] Creating Layer inception_4c/relu_1x1
I0403 16:22:53.685281 18039 net.cpp:425] inception_4c/relu_1x1 <- inception_4c/1x1
I0403 16:22:53.685299 18039 net.cpp:386] inception_4c/relu_1x1 -> inception_4c/1x1 (in-place)
I0403 16:22:53.685470 18039 net.cpp:141] Setting up inception_4c/relu_1x1
I0403 16:22:53.685494 18039 net.cpp:148] Top shape: 24 128 14 14 (602112)
I0403 16:22:53.685509 18039 net.cpp:156] Memory required for data: 1033209120
I0403 16:22:53.685523 18039 layer_factory.hpp:77] Creating layer inception_4c/3x3_reduce
I0403 16:22:53.685544 18039 net.cpp:91] Creating Layer inception_4c/3x3_reduce
I0403 16:22:53.685564 18039 net.cpp:425] inception_4c/3x3_reduce <- inception_4b/output_inception_4b/output_0_split_1
I0403 16:22:53.685583 18039 net.cpp:399] inception_4c/3x3_reduce -> inception_4c/3x3_reduce
I0403 16:22:53.687420 18039 net.cpp:141] Setting up inception_4c/3x3_reduce
I0403 16:22:53.687450 18039 net.cpp:148] Top shape: 24 128 14 14 (602112)
I0403 16:22:53.687466 18039 net.cpp:156] Memory required for data: 1035617568
I0403 16:22:53.687484 18039 layer_factory.hpp:77] Creating layer inception_4c/relu_3x3_reduce
I0403 16:22:53.687505 18039 net.cpp:91] Creating Layer inception_4c/relu_3x3_reduce
I0403 16:22:53.687521 18039 net.cpp:425] inception_4c/relu_3x3_reduce <- inception_4c/3x3_reduce
I0403 16:22:53.687539 18039 net.cpp:386] inception_4c/relu_3x3_reduce -> inception_4c/3x3_reduce (in-place)
I0403 16:22:53.687813 18039 net.cpp:141] Setting up inception_4c/relu_3x3_reduce
I0403 16:22:53.687839 18039 net.cpp:148] Top shape: 24 128 14 14 (602112)
I0403 16:22:53.687854 18039 net.cpp:156] Memory required for data: 1038026016
I0403 16:22:53.687870 18039 layer_factory.hpp:77] Creating layer inception_4c/3x3
I0403 16:22:53.687894 18039 net.cpp:91] Creating Layer inception_4c/3x3
I0403 16:22:53.687913 18039 net.cpp:425] inception_4c/3x3 <- inception_4c/3x3_reduce
I0403 16:22:53.687932 18039 net.cpp:399] inception_4c/3x3 -> inception_4c/3x3
I0403 16:22:53.691386 18039 net.cpp:141] Setting up inception_4c/3x3
I0403 16:22:53.691429 18039 net.cpp:148] Top shape: 24 256 14 14 (1204224)
I0403 16:22:53.691447 18039 net.cpp:156] Memory required for data: 1042842912
I0403 16:22:53.691478 18039 layer_factory.hpp:77] Creating layer inception_4c/relu_3x3
I0403 16:22:53.691498 18039 net.cpp:91] Creating Layer inception_4c/relu_3x3
I0403 16:22:53.691514 18039 net.cpp:425] inception_4c/relu_3x3 <- inception_4c/3x3
I0403 16:22:53.691531 18039 net.cpp:386] inception_4c/relu_3x3 -> inception_4c/3x3 (in-place)
I0403 16:22:53.691709 18039 net.cpp:141] Setting up inception_4c/relu_3x3
I0403 16:22:53.691736 18039 net.cpp:148] Top shape: 24 256 14 14 (1204224)
I0403 16:22:53.691751 18039 net.cpp:156] Memory required for data: 1047659808
I0403 16:22:53.691767 18039 layer_factory.hpp:77] Creating layer inception_4c/5x5_reduce
I0403 16:22:53.691788 18039 net.cpp:91] Creating Layer inception_4c/5x5_reduce
I0403 16:22:53.691807 18039 net.cpp:425] inception_4c/5x5_reduce <- inception_4b/output_inception_4b/output_0_split_2
I0403 16:22:53.691825 18039 net.cpp:399] inception_4c/5x5_reduce -> inception_4c/5x5_reduce
I0403 16:22:53.692901 18039 net.cpp:141] Setting up inception_4c/5x5_reduce
I0403 16:22:53.692931 18039 net.cpp:148] Top shape: 24 24 14 14 (112896)
I0403 16:22:53.692948 18039 net.cpp:156] Memory required for data: 1048111392
I0403 16:22:53.692966 18039 layer_factory.hpp:77] Creating layer inception_4c/relu_5x5_reduce
I0403 16:22:53.692986 18039 net.cpp:91] Creating Layer inception_4c/relu_5x5_reduce
I0403 16:22:53.693001 18039 net.cpp:425] inception_4c/relu_5x5_reduce <- inception_4c/5x5_reduce
I0403 16:22:53.693022 18039 net.cpp:386] inception_4c/relu_5x5_reduce -> inception_4c/5x5_reduce (in-place)
I0403 16:22:53.693209 18039 net.cpp:141] Setting up inception_4c/relu_5x5_reduce
I0403 16:22:53.693233 18039 net.cpp:148] Top shape: 24 24 14 14 (112896)
I0403 16:22:53.693248 18039 net.cpp:156] Memory required for data: 1048562976
I0403 16:22:53.693262 18039 layer_factory.hpp:77] Creating layer inception_4c/5x5
I0403 16:22:53.693284 18039 net.cpp:91] Creating Layer inception_4c/5x5
I0403 16:22:53.693300 18039 net.cpp:425] inception_4c/5x5 <- inception_4c/5x5_reduce
I0403 16:22:53.693320 18039 net.cpp:399] inception_4c/5x5 -> inception_4c/5x5
I0403 16:22:53.694496 18039 net.cpp:141] Setting up inception_4c/5x5
I0403 16:22:53.694525 18039 net.cpp:148] Top shape: 24 64 14 14 (301056)
I0403 16:22:53.694540 18039 net.cpp:156] Memory required for data: 1049767200
I0403 16:22:53.694557 18039 layer_factory.hpp:77] Creating layer inception_4c/relu_5x5
I0403 16:22:53.694577 18039 net.cpp:91] Creating Layer inception_4c/relu_5x5
I0403 16:22:53.694596 18039 net.cpp:425] inception_4c/relu_5x5 <- inception_4c/5x5
I0403 16:22:53.694618 18039 net.cpp:386] inception_4c/relu_5x5 -> inception_4c/5x5 (in-place)
I0403 16:22:53.694892 18039 net.cpp:141] Setting up inception_4c/relu_5x5
I0403 16:22:53.694918 18039 net.cpp:148] Top shape: 24 64 14 14 (301056)
I0403 16:22:53.694933 18039 net.cpp:156] Memory required for data: 1050971424
I0403 16:22:53.694947 18039 layer_factory.hpp:77] Creating layer inception_4c/pool
I0403 16:22:53.694964 18039 net.cpp:91] Creating Layer inception_4c/pool
I0403 16:22:53.694980 18039 net.cpp:425] inception_4c/pool <- inception_4b/output_inception_4b/output_0_split_3
I0403 16:22:53.695000 18039 net.cpp:399] inception_4c/pool -> inception_4c/pool
I0403 16:22:53.695065 18039 net.cpp:141] Setting up inception_4c/pool
I0403 16:22:53.695091 18039 net.cpp:148] Top shape: 24 512 14 14 (2408448)
I0403 16:22:53.695106 18039 net.cpp:156] Memory required for data: 1060605216
I0403 16:22:53.695122 18039 layer_factory.hpp:77] Creating layer inception_4c/pool_proj
I0403 16:22:53.695143 18039 net.cpp:91] Creating Layer inception_4c/pool_proj
I0403 16:22:53.695161 18039 net.cpp:425] inception_4c/pool_proj <- inception_4c/pool
I0403 16:22:53.695180 18039 net.cpp:399] inception_4c/pool_proj -> inception_4c/pool_proj
I0403 16:22:53.696343 18039 net.cpp:141] Setting up inception_4c/pool_proj
I0403 16:22:53.696373 18039 net.cpp:148] Top shape: 24 64 14 14 (301056)
I0403 16:22:53.696403 18039 net.cpp:156] Memory required for data: 1061809440
I0403 16:22:53.696421 18039 layer_factory.hpp:77] Creating layer inception_4c/relu_pool_proj
I0403 16:22:53.696439 18039 net.cpp:91] Creating Layer inception_4c/relu_pool_proj
I0403 16:22:53.696456 18039 net.cpp:425] inception_4c/relu_pool_proj <- inception_4c/pool_proj
I0403 16:22:53.696473 18039 net.cpp:386] inception_4c/relu_pool_proj -> inception_4c/pool_proj (in-place)
I0403 16:22:53.696707 18039 net.cpp:141] Setting up inception_4c/relu_pool_proj
I0403 16:22:53.696732 18039 net.cpp:148] Top shape: 24 64 14 14 (301056)
I0403 16:22:53.696746 18039 net.cpp:156] Memory required for data: 1063013664
I0403 16:22:53.696761 18039 layer_factory.hpp:77] Creating layer inception_4c/output
I0403 16:22:53.696779 18039 net.cpp:91] Creating Layer inception_4c/output
I0403 16:22:53.696794 18039 net.cpp:425] inception_4c/output <- inception_4c/1x1
I0403 16:22:53.696810 18039 net.cpp:425] inception_4c/output <- inception_4c/3x3
I0403 16:22:53.696825 18039 net.cpp:425] inception_4c/output <- inception_4c/5x5
I0403 16:22:53.696841 18039 net.cpp:425] inception_4c/output <- inception_4c/pool_proj
I0403 16:22:53.696859 18039 net.cpp:399] inception_4c/output -> inception_4c/output
I0403 16:22:53.696905 18039 net.cpp:141] Setting up inception_4c/output
I0403 16:22:53.696931 18039 net.cpp:148] Top shape: 24 512 14 14 (2408448)
I0403 16:22:53.696946 18039 net.cpp:156] Memory required for data: 1072647456
I0403 16:22:53.696961 18039 layer_factory.hpp:77] Creating layer inception_4c/output_inception_4c/output_0_split
I0403 16:22:53.696979 18039 net.cpp:91] Creating Layer inception_4c/output_inception_4c/output_0_split
I0403 16:22:53.696993 18039 net.cpp:425] inception_4c/output_inception_4c/output_0_split <- inception_4c/output
I0403 16:22:53.697010 18039 net.cpp:399] inception_4c/output_inception_4c/output_0_split -> inception_4c/output_inception_4c/output_0_split_0
I0403 16:22:53.697034 18039 net.cpp:399] inception_4c/output_inception_4c/output_0_split -> inception_4c/output_inception_4c/output_0_split_1
I0403 16:22:53.697054 18039 net.cpp:399] inception_4c/output_inception_4c/output_0_split -> inception_4c/output_inception_4c/output_0_split_2
I0403 16:22:53.697073 18039 net.cpp:399] inception_4c/output_inception_4c/output_0_split -> inception_4c/output_inception_4c/output_0_split_3
I0403 16:22:53.697154 18039 net.cpp:141] Setting up inception_4c/output_inception_4c/output_0_split
I0403 16:22:53.697176 18039 net.cpp:148] Top shape: 24 512 14 14 (2408448)
I0403 16:22:53.697193 18039 net.cpp:148] Top shape: 24 512 14 14 (2408448)
I0403 16:22:53.697209 18039 net.cpp:148] Top shape: 24 512 14 14 (2408448)
I0403 16:22:53.697223 18039 net.cpp:148] Top shape: 24 512 14 14 (2408448)
I0403 16:22:53.697235 18039 net.cpp:156] Memory required for data: 1111182624
I0403 16:22:53.697249 18039 layer_factory.hpp:77] Creating layer inception_4d/1x1
I0403 16:22:53.697269 18039 net.cpp:91] Creating Layer inception_4d/1x1
I0403 16:22:53.697288 18039 net.cpp:425] inception_4d/1x1 <- inception_4c/output_inception_4c/output_0_split_0
I0403 16:22:53.697309 18039 net.cpp:399] inception_4d/1x1 -> inception_4d/1x1
I0403 16:22:53.698669 18039 net.cpp:141] Setting up inception_4d/1x1
I0403 16:22:53.698698 18039 net.cpp:148] Top shape: 24 112 14 14 (526848)
I0403 16:22:53.698714 18039 net.cpp:156] Memory required for data: 1113290016
I0403 16:22:53.698731 18039 layer_factory.hpp:77] Creating layer inception_4d/relu_1x1
I0403 16:22:53.698753 18039 net.cpp:91] Creating Layer inception_4d/relu_1x1
I0403 16:22:53.698771 18039 net.cpp:425] inception_4d/relu_1x1 <- inception_4d/1x1
I0403 16:22:53.698789 18039 net.cpp:386] inception_4d/relu_1x1 -> inception_4d/1x1 (in-place)
I0403 16:22:53.698976 18039 net.cpp:141] Setting up inception_4d/relu_1x1
I0403 16:22:53.699002 18039 net.cpp:148] Top shape: 24 112 14 14 (526848)
I0403 16:22:53.699018 18039 net.cpp:156] Memory required for data: 1115397408
I0403 16:22:53.699033 18039 layer_factory.hpp:77] Creating layer inception_4d/3x3_reduce
I0403 16:22:53.699069 18039 net.cpp:91] Creating Layer inception_4d/3x3_reduce
I0403 16:22:53.699089 18039 net.cpp:425] inception_4d/3x3_reduce <- inception_4c/output_inception_4c/output_0_split_1
I0403 16:22:53.699107 18039 net.cpp:399] inception_4d/3x3_reduce -> inception_4d/3x3_reduce
I0403 16:22:53.700525 18039 net.cpp:141] Setting up inception_4d/3x3_reduce
I0403 16:22:53.700551 18039 net.cpp:148] Top shape: 24 144 14 14 (677376)
I0403 16:22:53.700567 18039 net.cpp:156] Memory required for data: 1118106912
I0403 16:22:53.700584 18039 layer_factory.hpp:77] Creating layer inception_4d/relu_3x3_reduce
I0403 16:22:53.700606 18039 net.cpp:91] Creating Layer inception_4d/relu_3x3_reduce
I0403 16:22:53.700624 18039 net.cpp:425] inception_4d/relu_3x3_reduce <- inception_4d/3x3_reduce
I0403 16:22:53.700644 18039 net.cpp:386] inception_4d/relu_3x3_reduce -> inception_4d/3x3_reduce (in-place)
I0403 16:22:53.700918 18039 net.cpp:141] Setting up inception_4d/relu_3x3_reduce
I0403 16:22:53.700943 18039 net.cpp:148] Top shape: 24 144 14 14 (677376)
I0403 16:22:53.700958 18039 net.cpp:156] Memory required for data: 1120816416
I0403 16:22:53.700974 18039 layer_factory.hpp:77] Creating layer inception_4d/3x3
I0403 16:22:53.700995 18039 net.cpp:91] Creating Layer inception_4d/3x3
I0403 16:22:53.701012 18039 net.cpp:425] inception_4d/3x3 <- inception_4d/3x3_reduce
I0403 16:22:53.701033 18039 net.cpp:399] inception_4d/3x3 -> inception_4d/3x3
I0403 16:22:53.705088 18039 net.cpp:141] Setting up inception_4d/3x3
I0403 16:22:53.705118 18039 net.cpp:148] Top shape: 24 288 14 14 (1354752)
I0403 16:22:53.705134 18039 net.cpp:156] Memory required for data: 1126235424
I0403 16:22:53.705152 18039 layer_factory.hpp:77] Creating layer inception_4d/relu_3x3
I0403 16:22:53.705175 18039 net.cpp:91] Creating Layer inception_4d/relu_3x3
I0403 16:22:53.705193 18039 net.cpp:425] inception_4d/relu_3x3 <- inception_4d/3x3
I0403 16:22:53.705210 18039 net.cpp:386] inception_4d/relu_3x3 -> inception_4d/3x3 (in-place)
I0403 16:22:53.705382 18039 net.cpp:141] Setting up inception_4d/relu_3x3
I0403 16:22:53.705410 18039 net.cpp:148] Top shape: 24 288 14 14 (1354752)
I0403 16:22:53.705425 18039 net.cpp:156] Memory required for data: 1131654432
I0403 16:22:53.705440 18039 layer_factory.hpp:77] Creating layer inception_4d/5x5_reduce
I0403 16:22:53.705461 18039 net.cpp:91] Creating Layer inception_4d/5x5_reduce
I0403 16:22:53.705479 18039 net.cpp:425] inception_4d/5x5_reduce <- inception_4c/output_inception_4c/output_0_split_2
I0403 16:22:53.705497 18039 net.cpp:399] inception_4d/5x5_reduce -> inception_4d/5x5_reduce
I0403 16:22:53.706591 18039 net.cpp:141] Setting up inception_4d/5x5_reduce
I0403 16:22:53.706636 18039 net.cpp:148] Top shape: 24 32 14 14 (150528)
I0403 16:22:53.706663 18039 net.cpp:156] Memory required for data: 1132256544
I0403 16:22:53.706681 18039 layer_factory.hpp:77] Creating layer inception_4d/relu_5x5_reduce
I0403 16:22:53.706701 18039 net.cpp:91] Creating Layer inception_4d/relu_5x5_reduce
I0403 16:22:53.706719 18039 net.cpp:425] inception_4d/relu_5x5_reduce <- inception_4d/5x5_reduce
I0403 16:22:53.706737 18039 net.cpp:386] inception_4d/relu_5x5_reduce -> inception_4d/5x5_reduce (in-place)
I0403 16:22:53.706943 18039 net.cpp:141] Setting up inception_4d/relu_5x5_reduce
I0403 16:22:53.706971 18039 net.cpp:148] Top shape: 24 32 14 14 (150528)
I0403 16:22:53.706987 18039 net.cpp:156] Memory required for data: 1132858656
I0403 16:22:53.707003 18039 layer_factory.hpp:77] Creating layer inception_4d/5x5
I0403 16:22:53.707026 18039 net.cpp:91] Creating Layer inception_4d/5x5
I0403 16:22:53.707044 18039 net.cpp:425] inception_4d/5x5 <- inception_4d/5x5_reduce
I0403 16:22:53.707077 18039 net.cpp:399] inception_4d/5x5 -> inception_4d/5x5
I0403 16:22:53.708503 18039 net.cpp:141] Setting up inception_4d/5x5
I0403 16:22:53.708534 18039 net.cpp:148] Top shape: 24 64 14 14 (301056)
I0403 16:22:53.708550 18039 net.cpp:156] Memory required for data: 1134062880
I0403 16:22:53.708570 18039 layer_factory.hpp:77] Creating layer inception_4d/relu_5x5
I0403 16:22:53.708606 18039 net.cpp:91] Creating Layer inception_4d/relu_5x5
I0403 16:22:53.708624 18039 net.cpp:425] inception_4d/relu_5x5 <- inception_4d/5x5
I0403 16:22:53.708647 18039 net.cpp:386] inception_4d/relu_5x5 -> inception_4d/5x5 (in-place)
I0403 16:22:53.708940 18039 net.cpp:141] Setting up inception_4d/relu_5x5
I0403 16:22:53.708968 18039 net.cpp:148] Top shape: 24 64 14 14 (301056)
I0403 16:22:53.708986 18039 net.cpp:156] Memory required for data: 1135267104
I0403 16:22:53.709002 18039 layer_factory.hpp:77] Creating layer inception_4d/pool
I0403 16:22:53.709018 18039 net.cpp:91] Creating Layer inception_4d/pool
I0403 16:22:53.709036 18039 net.cpp:425] inception_4d/pool <- inception_4c/output_inception_4c/output_0_split_3
I0403 16:22:53.709058 18039 net.cpp:399] inception_4d/pool -> inception_4d/pool
I0403 16:22:53.709123 18039 net.cpp:141] Setting up inception_4d/pool
I0403 16:22:53.709151 18039 net.cpp:148] Top shape: 24 512 14 14 (2408448)
I0403 16:22:53.709167 18039 net.cpp:156] Memory required for data: 1144900896
I0403 16:22:53.709182 18039 layer_factory.hpp:77] Creating layer inception_4d/pool_proj
I0403 16:22:53.709203 18039 net.cpp:91] Creating Layer inception_4d/pool_proj
I0403 16:22:53.709220 18039 net.cpp:425] inception_4d/pool_proj <- inception_4d/pool
I0403 16:22:53.709241 18039 net.cpp:399] inception_4d/pool_proj -> inception_4d/pool_proj
I0403 16:22:53.710947 18039 net.cpp:141] Setting up inception_4d/pool_proj
I0403 16:22:53.710978 18039 net.cpp:148] Top shape: 24 64 14 14 (301056)
I0403 16:22:53.710994 18039 net.cpp:156] Memory required for data: 1146105120
I0403 16:22:53.711012 18039 layer_factory.hpp:77] Creating layer inception_4d/relu_pool_proj
I0403 16:22:53.711032 18039 net.cpp:91] Creating Layer inception_4d/relu_pool_proj
I0403 16:22:53.711050 18039 net.cpp:425] inception_4d/relu_pool_proj <- inception_4d/pool_proj
I0403 16:22:53.711067 18039 net.cpp:386] inception_4d/relu_pool_proj -> inception_4d/pool_proj (in-place)
I0403 16:22:53.711246 18039 net.cpp:141] Setting up inception_4d/relu_pool_proj
I0403 16:22:53.711273 18039 net.cpp:148] Top shape: 24 64 14 14 (301056)
I0403 16:22:53.711289 18039 net.cpp:156] Memory required for data: 1147309344
I0403 16:22:53.711305 18039 layer_factory.hpp:77] Creating layer inception_4d/output
I0403 16:22:53.711321 18039 net.cpp:91] Creating Layer inception_4d/output
I0403 16:22:53.711336 18039 net.cpp:425] inception_4d/output <- inception_4d/1x1
I0403 16:22:53.711354 18039 net.cpp:425] inception_4d/output <- inception_4d/3x3
I0403 16:22:53.711369 18039 net.cpp:425] inception_4d/output <- inception_4d/5x5
I0403 16:22:53.711385 18039 net.cpp:425] inception_4d/output <- inception_4d/pool_proj
I0403 16:22:53.711402 18039 net.cpp:399] inception_4d/output -> inception_4d/output
I0403 16:22:53.711454 18039 net.cpp:141] Setting up inception_4d/output
I0403 16:22:53.711479 18039 net.cpp:148] Top shape: 24 528 14 14 (2483712)
I0403 16:22:53.711494 18039 net.cpp:156] Memory required for data: 1157244192
I0403 16:22:53.711509 18039 layer_factory.hpp:77] Creating layer inception_4d/output_inception_4d/output_0_split
I0403 16:22:53.711529 18039 net.cpp:91] Creating Layer inception_4d/output_inception_4d/output_0_split
I0403 16:22:53.711546 18039 net.cpp:425] inception_4d/output_inception_4d/output_0_split <- inception_4d/output
I0403 16:22:53.711565 18039 net.cpp:399] inception_4d/output_inception_4d/output_0_split -> inception_4d/output_inception_4d/output_0_split_0
I0403 16:22:53.711585 18039 net.cpp:399] inception_4d/output_inception_4d/output_0_split -> inception_4d/output_inception_4d/output_0_split_1
I0403 16:22:53.711611 18039 net.cpp:399] inception_4d/output_inception_4d/output_0_split -> inception_4d/output_inception_4d/output_0_split_2
I0403 16:22:53.711637 18039 net.cpp:399] inception_4d/output_inception_4d/output_0_split -> inception_4d/output_inception_4d/output_0_split_3
I0403 16:22:53.711658 18039 net.cpp:399] inception_4d/output_inception_4d/output_0_split -> inception_4d/output_inception_4d/output_0_split_4
I0403 16:22:53.711760 18039 net.cpp:141] Setting up inception_4d/output_inception_4d/output_0_split
I0403 16:22:53.711807 18039 net.cpp:148] Top shape: 24 528 14 14 (2483712)
I0403 16:22:53.711827 18039 net.cpp:148] Top shape: 24 528 14 14 (2483712)
I0403 16:22:53.711841 18039 net.cpp:148] Top shape: 24 528 14 14 (2483712)
I0403 16:22:53.711858 18039 net.cpp:148] Top shape: 24 528 14 14 (2483712)
I0403 16:22:53.711872 18039 net.cpp:148] Top shape: 24 528 14 14 (2483712)
I0403 16:22:53.711887 18039 net.cpp:156] Memory required for data: 1206918432
I0403 16:22:53.711902 18039 layer_factory.hpp:77] Creating layer loss2/ave_pool
I0403 16:22:53.711922 18039 net.cpp:91] Creating Layer loss2/ave_pool
I0403 16:22:53.711941 18039 net.cpp:425] loss2/ave_pool <- inception_4d/output_inception_4d/output_0_split_0
I0403 16:22:53.711959 18039 net.cpp:399] loss2/ave_pool -> loss2/ave_pool
I0403 16:22:53.712282 18039 net.cpp:141] Setting up loss2/ave_pool
I0403 16:22:53.712309 18039 net.cpp:148] Top shape: 24 528 4 4 (202752)
I0403 16:22:53.712324 18039 net.cpp:156] Memory required for data: 1207729440
I0403 16:22:53.712340 18039 layer_factory.hpp:77] Creating layer loss2/conv
I0403 16:22:53.712363 18039 net.cpp:91] Creating Layer loss2/conv
I0403 16:22:53.712381 18039 net.cpp:425] loss2/conv <- loss2/ave_pool
I0403 16:22:53.712400 18039 net.cpp:399] loss2/conv -> loss2/conv
I0403 16:22:53.714246 18039 net.cpp:141] Setting up loss2/conv
I0403 16:22:53.714274 18039 net.cpp:148] Top shape: 24 128 4 4 (49152)
I0403 16:22:53.714292 18039 net.cpp:156] Memory required for data: 1207926048
I0403 16:22:53.714309 18039 layer_factory.hpp:77] Creating layer loss2/relu_conv
I0403 16:22:53.714328 18039 net.cpp:91] Creating Layer loss2/relu_conv
I0403 16:22:53.714344 18039 net.cpp:425] loss2/relu_conv <- loss2/conv
I0403 16:22:53.714365 18039 net.cpp:386] loss2/relu_conv -> loss2/conv (in-place)
I0403 16:22:53.714653 18039 net.cpp:141] Setting up loss2/relu_conv
I0403 16:22:53.714680 18039 net.cpp:148] Top shape: 24 128 4 4 (49152)
I0403 16:22:53.714696 18039 net.cpp:156] Memory required for data: 1208122656
I0403 16:22:53.714711 18039 layer_factory.hpp:77] Creating layer loss2/fc
I0403 16:22:53.714730 18039 net.cpp:91] Creating Layer loss2/fc
I0403 16:22:53.714748 18039 net.cpp:425] loss2/fc <- loss2/conv
I0403 16:22:53.714769 18039 net.cpp:399] loss2/fc -> loss2/fc
I0403 16:22:53.731811 18039 net.cpp:141] Setting up loss2/fc
I0403 16:22:53.731848 18039 net.cpp:148] Top shape: 24 1024 (24576)
I0403 16:22:53.731864 18039 net.cpp:156] Memory required for data: 1208220960
I0403 16:22:53.731884 18039 layer_factory.hpp:77] Creating layer loss2/relu_fc
I0403 16:22:53.731902 18039 net.cpp:91] Creating Layer loss2/relu_fc
I0403 16:22:53.731920 18039 net.cpp:425] loss2/relu_fc <- loss2/fc
I0403 16:22:53.731936 18039 net.cpp:386] loss2/relu_fc -> loss2/fc (in-place)
I0403 16:22:53.732237 18039 net.cpp:141] Setting up loss2/relu_fc
I0403 16:22:53.732265 18039 net.cpp:148] Top shape: 24 1024 (24576)
I0403 16:22:53.732281 18039 net.cpp:156] Memory required for data: 1208319264
I0403 16:22:53.732296 18039 layer_factory.hpp:77] Creating layer loss2/drop_fc
I0403 16:22:53.732314 18039 net.cpp:91] Creating Layer loss2/drop_fc
I0403 16:22:53.732332 18039 net.cpp:425] loss2/drop_fc <- loss2/fc
I0403 16:22:53.732350 18039 net.cpp:386] loss2/drop_fc -> loss2/fc (in-place)
I0403 16:22:53.732399 18039 net.cpp:141] Setting up loss2/drop_fc
I0403 16:22:53.732422 18039 net.cpp:148] Top shape: 24 1024 (24576)
I0403 16:22:53.732437 18039 net.cpp:156] Memory required for data: 1208417568
I0403 16:22:53.732451 18039 layer_factory.hpp:77] Creating layer loss2/classifier_plantvillage
I0403 16:22:53.732472 18039 net.cpp:91] Creating Layer loss2/classifier_plantvillage
I0403 16:22:53.732489 18039 net.cpp:425] loss2/classifier_plantvillage <- loss2/fc
I0403 16:22:53.732507 18039 net.cpp:399] loss2/classifier_plantvillage -> loss2/classifier_plantvillage
I0403 16:22:53.732892 18039 net.cpp:141] Setting up loss2/classifier_plantvillage
I0403 16:22:53.732916 18039 net.cpp:148] Top shape: 24 38 (912)
I0403 16:22:53.732931 18039 net.cpp:156] Memory required for data: 1208421216
I0403 16:22:53.732965 18039 layer_factory.hpp:77] Creating layer loss2/classifier_plantvillage_loss2/classifier_plantvillage_0_split
I0403 16:22:53.732985 18039 net.cpp:91] Creating Layer loss2/classifier_plantvillage_loss2/classifier_plantvillage_0_split
I0403 16:22:53.733002 18039 net.cpp:425] loss2/classifier_plantvillage_loss2/classifier_plantvillage_0_split <- loss2/classifier_plantvillage
I0403 16:22:53.733021 18039 net.cpp:399] loss2/classifier_plantvillage_loss2/classifier_plantvillage_0_split -> loss2/classifier_plantvillage_loss2/classifier_plantvillage_0_split_0
I0403 16:22:53.733043 18039 net.cpp:399] loss2/classifier_plantvillage_loss2/classifier_plantvillage_0_split -> loss2/classifier_plantvillage_loss2/classifier_plantvillage_0_split_1
I0403 16:22:53.733064 18039 net.cpp:399] loss2/classifier_plantvillage_loss2/classifier_plantvillage_0_split -> loss2/classifier_plantvillage_loss2/classifier_plantvillage_0_split_2
I0403 16:22:53.733139 18039 net.cpp:141] Setting up loss2/classifier_plantvillage_loss2/classifier_plantvillage_0_split
I0403 16:22:53.733167 18039 net.cpp:148] Top shape: 24 38 (912)
I0403 16:22:53.733183 18039 net.cpp:148] Top shape: 24 38 (912)
I0403 16:22:53.733197 18039 net.cpp:148] Top shape: 24 38 (912)
I0403 16:22:53.733211 18039 net.cpp:156] Memory required for data: 1208432160
I0403 16:22:53.733224 18039 layer_factory.hpp:77] Creating layer inception_4e/1x1
I0403 16:22:53.733247 18039 net.cpp:91] Creating Layer inception_4e/1x1
I0403 16:22:53.733264 18039 net.cpp:425] inception_4e/1x1 <- inception_4d/output_inception_4d/output_0_split_1
I0403 16:22:53.733284 18039 net.cpp:399] inception_4e/1x1 -> inception_4e/1x1
I0403 16:22:53.735018 18039 net.cpp:141] Setting up inception_4e/1x1
I0403 16:22:53.735045 18039 net.cpp:148] Top shape: 24 256 14 14 (1204224)
I0403 16:22:53.735074 18039 net.cpp:156] Memory required for data: 1213249056
I0403 16:22:53.735091 18039 layer_factory.hpp:77] Creating layer inception_4e/relu_1x1
I0403 16:22:53.735110 18039 net.cpp:91] Creating Layer inception_4e/relu_1x1
I0403 16:22:53.735126 18039 net.cpp:425] inception_4e/relu_1x1 <- inception_4e/1x1
I0403 16:22:53.735146 18039 net.cpp:386] inception_4e/relu_1x1 -> inception_4e/1x1 (in-place)
I0403 16:22:53.735424 18039 net.cpp:141] Setting up inception_4e/relu_1x1
I0403 16:22:53.735450 18039 net.cpp:148] Top shape: 24 256 14 14 (1204224)
I0403 16:22:53.735466 18039 net.cpp:156] Memory required for data: 1218065952
I0403 16:22:53.735479 18039 layer_factory.hpp:77] Creating layer inception_4e/3x3_reduce
I0403 16:22:53.735502 18039 net.cpp:91] Creating Layer inception_4e/3x3_reduce
I0403 16:22:53.735520 18039 net.cpp:425] inception_4e/3x3_reduce <- inception_4d/output_inception_4d/output_0_split_2
I0403 16:22:53.735541 18039 net.cpp:399] inception_4e/3x3_reduce -> inception_4e/3x3_reduce
I0403 16:22:53.737581 18039 net.cpp:141] Setting up inception_4e/3x3_reduce
I0403 16:22:53.737615 18039 net.cpp:148] Top shape: 24 160 14 14 (752640)
I0403 16:22:53.737633 18039 net.cpp:156] Memory required for data: 1221076512
I0403 16:22:53.737651 18039 layer_factory.hpp:77] Creating layer inception_4e/relu_3x3_reduce
I0403 16:22:53.737670 18039 net.cpp:91] Creating Layer inception_4e/relu_3x3_reduce
I0403 16:22:53.737686 18039 net.cpp:425] inception_4e/relu_3x3_reduce <- inception_4e/3x3_reduce
I0403 16:22:53.737705 18039 net.cpp:386] inception_4e/relu_3x3_reduce -> inception_4e/3x3_reduce (in-place)
I0403 16:22:53.737884 18039 net.cpp:141] Setting up inception_4e/relu_3x3_reduce
I0403 16:22:53.737910 18039 net.cpp:148] Top shape: 24 160 14 14 (752640)
I0403 16:22:53.737925 18039 net.cpp:156] Memory required for data: 1224087072
I0403 16:22:53.737939 18039 layer_factory.hpp:77] Creating layer inception_4e/3x3
I0403 16:22:53.737960 18039 net.cpp:91] Creating Layer inception_4e/3x3
I0403 16:22:53.737979 18039 net.cpp:425] inception_4e/3x3 <- inception_4e/3x3_reduce
I0403 16:22:53.737999 18039 net.cpp:399] inception_4e/3x3 -> inception_4e/3x3
I0403 16:22:53.742846 18039 net.cpp:141] Setting up inception_4e/3x3
I0403 16:22:53.742890 18039 net.cpp:148] Top shape: 24 320 14 14 (1505280)
I0403 16:22:53.742908 18039 net.cpp:156] Memory required for data: 1230108192
I0403 16:22:53.742928 18039 layer_factory.hpp:77] Creating layer inception_4e/relu_3x3
I0403 16:22:53.742950 18039 net.cpp:91] Creating Layer inception_4e/relu_3x3
I0403 16:22:53.742970 18039 net.cpp:425] inception_4e/relu_3x3 <- inception_4e/3x3
I0403 16:22:53.742990 18039 net.cpp:386] inception_4e/relu_3x3 -> inception_4e/3x3 (in-place)
I0403 16:22:53.743315 18039 net.cpp:141] Setting up inception_4e/relu_3x3
I0403 16:22:53.743342 18039 net.cpp:148] Top shape: 24 320 14 14 (1505280)
I0403 16:22:53.743358 18039 net.cpp:156] Memory required for data: 1236129312
I0403 16:22:53.743372 18039 layer_factory.hpp:77] Creating layer inception_4e/5x5_reduce
I0403 16:22:53.743394 18039 net.cpp:91] Creating Layer inception_4e/5x5_reduce
I0403 16:22:53.743412 18039 net.cpp:425] inception_4e/5x5_reduce <- inception_4d/output_inception_4d/output_0_split_3
I0403 16:22:53.743434 18039 net.cpp:399] inception_4e/5x5_reduce -> inception_4e/5x5_reduce
I0403 16:22:53.744532 18039 net.cpp:141] Setting up inception_4e/5x5_reduce
I0403 16:22:53.744565 18039 net.cpp:148] Top shape: 24 32 14 14 (150528)
I0403 16:22:53.744581 18039 net.cpp:156] Memory required for data: 1236731424
I0403 16:22:53.744599 18039 layer_factory.hpp:77] Creating layer inception_4e/relu_5x5_reduce
I0403 16:22:53.744623 18039 net.cpp:91] Creating Layer inception_4e/relu_5x5_reduce
I0403 16:22:53.744642 18039 net.cpp:425] inception_4e/relu_5x5_reduce <- inception_4e/5x5_reduce
I0403 16:22:53.744663 18039 net.cpp:386] inception_4e/relu_5x5_reduce -> inception_4e/5x5_reduce (in-place)
I0403 16:22:53.744982 18039 net.cpp:141] Setting up inception_4e/relu_5x5_reduce
I0403 16:22:53.745008 18039 net.cpp:148] Top shape: 24 32 14 14 (150528)
I0403 16:22:53.745024 18039 net.cpp:156] Memory required for data: 1237333536
I0403 16:22:53.745039 18039 layer_factory.hpp:77] Creating layer inception_4e/5x5
I0403 16:22:53.745077 18039 net.cpp:91] Creating Layer inception_4e/5x5
I0403 16:22:53.745096 18039 net.cpp:425] inception_4e/5x5 <- inception_4e/5x5_reduce
I0403 16:22:53.745116 18039 net.cpp:399] inception_4e/5x5 -> inception_4e/5x5
I0403 16:22:53.747004 18039 net.cpp:141] Setting up inception_4e/5x5
I0403 16:22:53.747032 18039 net.cpp:148] Top shape: 24 128 14 14 (602112)
I0403 16:22:53.747048 18039 net.cpp:156] Memory required for data: 1239741984
I0403 16:22:53.747078 18039 layer_factory.hpp:77] Creating layer inception_4e/relu_5x5
I0403 16:22:53.747098 18039 net.cpp:91] Creating Layer inception_4e/relu_5x5
I0403 16:22:53.747117 18039 net.cpp:425] inception_4e/relu_5x5 <- inception_4e/5x5
I0403 16:22:53.747133 18039 net.cpp:386] inception_4e/relu_5x5 -> inception_4e/5x5 (in-place)
I0403 16:22:53.747323 18039 net.cpp:141] Setting up inception_4e/relu_5x5
I0403 16:22:53.747347 18039 net.cpp:148] Top shape: 24 128 14 14 (602112)
I0403 16:22:53.747362 18039 net.cpp:156] Memory required for data: 1242150432
I0403 16:22:53.747377 18039 layer_factory.hpp:77] Creating layer inception_4e/pool
I0403 16:22:53.747395 18039 net.cpp:91] Creating Layer inception_4e/pool
I0403 16:22:53.747411 18039 net.cpp:425] inception_4e/pool <- inception_4d/output_inception_4d/output_0_split_4
I0403 16:22:53.747429 18039 net.cpp:399] inception_4e/pool -> inception_4e/pool
I0403 16:22:53.747496 18039 net.cpp:141] Setting up inception_4e/pool
I0403 16:22:53.747532 18039 net.cpp:148] Top shape: 24 528 14 14 (2483712)
I0403 16:22:53.747547 18039 net.cpp:156] Memory required for data: 1252085280
I0403 16:22:53.747562 18039 layer_factory.hpp:77] Creating layer inception_4e/pool_proj
I0403 16:22:53.747599 18039 net.cpp:91] Creating Layer inception_4e/pool_proj
I0403 16:22:53.747622 18039 net.cpp:425] inception_4e/pool_proj <- inception_4e/pool
I0403 16:22:53.747642 18039 net.cpp:399] inception_4e/pool_proj -> inception_4e/pool_proj
I0403 16:22:53.749156 18039 net.cpp:141] Setting up inception_4e/pool_proj
I0403 16:22:53.749183 18039 net.cpp:148] Top shape: 24 128 14 14 (602112)
I0403 16:22:53.749212 18039 net.cpp:156] Memory required for data: 1254493728
I0403 16:22:53.749231 18039 layer_factory.hpp:77] Creating layer inception_4e/relu_pool_proj
I0403 16:22:53.749253 18039 net.cpp:91] Creating Layer inception_4e/relu_pool_proj
I0403 16:22:53.749271 18039 net.cpp:425] inception_4e/relu_pool_proj <- inception_4e/pool_proj
I0403 16:22:53.749289 18039 net.cpp:386] inception_4e/relu_pool_proj -> inception_4e/pool_proj (in-place)
I0403 16:22:53.749609 18039 net.cpp:141] Setting up inception_4e/relu_pool_proj
I0403 16:22:53.749637 18039 net.cpp:148] Top shape: 24 128 14 14 (602112)
I0403 16:22:53.749655 18039 net.cpp:156] Memory required for data: 1256902176
I0403 16:22:53.749671 18039 layer_factory.hpp:77] Creating layer inception_4e/output
I0403 16:22:53.749691 18039 net.cpp:91] Creating Layer inception_4e/output
I0403 16:22:53.749708 18039 net.cpp:425] inception_4e/output <- inception_4e/1x1
I0403 16:22:53.749727 18039 net.cpp:425] inception_4e/output <- inception_4e/3x3
I0403 16:22:53.749743 18039 net.cpp:425] inception_4e/output <- inception_4e/5x5
I0403 16:22:53.749761 18039 net.cpp:425] inception_4e/output <- inception_4e/pool_proj
I0403 16:22:53.749780 18039 net.cpp:399] inception_4e/output -> inception_4e/output
I0403 16:22:53.749845 18039 net.cpp:141] Setting up inception_4e/output
I0403 16:22:53.749881 18039 net.cpp:148] Top shape: 24 832 14 14 (3913728)
I0403 16:22:53.749896 18039 net.cpp:156] Memory required for data: 1272557088
I0403 16:22:53.749910 18039 layer_factory.hpp:77] Creating layer pool4/3x3_s2
I0403 16:22:53.749927 18039 net.cpp:91] Creating Layer pool4/3x3_s2
I0403 16:22:53.749944 18039 net.cpp:425] pool4/3x3_s2 <- inception_4e/output
I0403 16:22:53.749964 18039 net.cpp:399] pool4/3x3_s2 -> pool4/3x3_s2
I0403 16:22:53.750028 18039 net.cpp:141] Setting up pool4/3x3_s2
I0403 16:22:53.750051 18039 net.cpp:148] Top shape: 24 832 7 7 (978432)
I0403 16:22:53.750066 18039 net.cpp:156] Memory required for data: 1276470816
I0403 16:22:53.750080 18039 layer_factory.hpp:77] Creating layer pool4/3x3_s2_pool4/3x3_s2_0_split
I0403 16:22:53.750100 18039 net.cpp:91] Creating Layer pool4/3x3_s2_pool4/3x3_s2_0_split
I0403 16:22:53.750118 18039 net.cpp:425] pool4/3x3_s2_pool4/3x3_s2_0_split <- pool4/3x3_s2
I0403 16:22:53.750136 18039 net.cpp:399] pool4/3x3_s2_pool4/3x3_s2_0_split -> pool4/3x3_s2_pool4/3x3_s2_0_split_0
I0403 16:22:53.750156 18039 net.cpp:399] pool4/3x3_s2_pool4/3x3_s2_0_split -> pool4/3x3_s2_pool4/3x3_s2_0_split_1
I0403 16:22:53.750176 18039 net.cpp:399] pool4/3x3_s2_pool4/3x3_s2_0_split -> pool4/3x3_s2_pool4/3x3_s2_0_split_2
I0403 16:22:53.750196 18039 net.cpp:399] pool4/3x3_s2_pool4/3x3_s2_0_split -> pool4/3x3_s2_pool4/3x3_s2_0_split_3
I0403 16:22:53.750283 18039 net.cpp:141] Setting up pool4/3x3_s2_pool4/3x3_s2_0_split
I0403 16:22:53.750308 18039 net.cpp:148] Top shape: 24 832 7 7 (978432)
I0403 16:22:53.750325 18039 net.cpp:148] Top shape: 24 832 7 7 (978432)
I0403 16:22:53.750340 18039 net.cpp:148] Top shape: 24 832 7 7 (978432)
I0403 16:22:53.750355 18039 net.cpp:148] Top shape: 24 832 7 7 (978432)
I0403 16:22:53.750367 18039 net.cpp:156] Memory required for data: 1292125728
I0403 16:22:53.750382 18039 layer_factory.hpp:77] Creating layer inception_5a/1x1
I0403 16:22:53.750402 18039 net.cpp:91] Creating Layer inception_5a/1x1
I0403 16:22:53.750418 18039 net.cpp:425] inception_5a/1x1 <- pool4/3x3_s2_pool4/3x3_s2_0_split_0
I0403 16:22:53.750438 18039 net.cpp:399] inception_5a/1x1 -> inception_5a/1x1
I0403 16:22:53.753352 18039 net.cpp:141] Setting up inception_5a/1x1
I0403 16:22:53.753384 18039 net.cpp:148] Top shape: 24 256 7 7 (301056)
I0403 16:22:53.753401 18039 net.cpp:156] Memory required for data: 1293329952
I0403 16:22:53.753419 18039 layer_factory.hpp:77] Creating layer inception_5a/relu_1x1
I0403 16:22:53.753437 18039 net.cpp:91] Creating Layer inception_5a/relu_1x1
I0403 16:22:53.753453 18039 net.cpp:425] inception_5a/relu_1x1 <- inception_5a/1x1
I0403 16:22:53.753470 18039 net.cpp:386] inception_5a/relu_1x1 -> inception_5a/1x1 (in-place)
I0403 16:22:53.753818 18039 net.cpp:141] Setting up inception_5a/relu_1x1
I0403 16:22:53.753846 18039 net.cpp:148] Top shape: 24 256 7 7 (301056)
I0403 16:22:53.753864 18039 net.cpp:156] Memory required for data: 1294534176
I0403 16:22:53.753891 18039 layer_factory.hpp:77] Creating layer inception_5a/3x3_reduce
I0403 16:22:53.753912 18039 net.cpp:91] Creating Layer inception_5a/3x3_reduce
I0403 16:22:53.753929 18039 net.cpp:425] inception_5a/3x3_reduce <- pool4/3x3_s2_pool4/3x3_s2_0_split_1
I0403 16:22:53.753949 18039 net.cpp:399] inception_5a/3x3_reduce -> inception_5a/3x3_reduce
I0403 16:22:53.756409 18039 net.cpp:141] Setting up inception_5a/3x3_reduce
I0403 16:22:53.756438 18039 net.cpp:148] Top shape: 24 160 7 7 (188160)
I0403 16:22:53.756456 18039 net.cpp:156] Memory required for data: 1295286816
I0403 16:22:53.756474 18039 layer_factory.hpp:77] Creating layer inception_5a/relu_3x3_reduce
I0403 16:22:53.756494 18039 net.cpp:91] Creating Layer inception_5a/relu_3x3_reduce
I0403 16:22:53.756523 18039 net.cpp:425] inception_5a/relu_3x3_reduce <- inception_5a/3x3_reduce
I0403 16:22:53.756541 18039 net.cpp:386] inception_5a/relu_3x3_reduce -> inception_5a/3x3_reduce (in-place)
I0403 16:22:53.756729 18039 net.cpp:141] Setting up inception_5a/relu_3x3_reduce
I0403 16:22:53.756757 18039 net.cpp:148] Top shape: 24 160 7 7 (188160)
I0403 16:22:53.756773 18039 net.cpp:156] Memory required for data: 1296039456
I0403 16:22:53.756788 18039 layer_factory.hpp:77] Creating layer inception_5a/3x3
I0403 16:22:53.756811 18039 net.cpp:91] Creating Layer inception_5a/3x3
I0403 16:22:53.756830 18039 net.cpp:425] inception_5a/3x3 <- inception_5a/3x3_reduce
I0403 16:22:53.756850 18039 net.cpp:399] inception_5a/3x3 -> inception_5a/3x3
I0403 16:22:53.761696 18039 net.cpp:141] Setting up inception_5a/3x3
I0403 16:22:53.761728 18039 net.cpp:148] Top shape: 24 320 7 7 (376320)
I0403 16:22:53.761744 18039 net.cpp:156] Memory required for data: 1297544736
I0403 16:22:53.761762 18039 layer_factory.hpp:77] Creating layer inception_5a/relu_3x3
I0403 16:22:53.761793 18039 net.cpp:91] Creating Layer inception_5a/relu_3x3
I0403 16:22:53.761811 18039 net.cpp:425] inception_5a/relu_3x3 <- inception_5a/3x3
I0403 16:22:53.761831 18039 net.cpp:386] inception_5a/relu_3x3 -> inception_5a/3x3 (in-place)
I0403 16:22:53.762130 18039 net.cpp:141] Setting up inception_5a/relu_3x3
I0403 16:22:53.762158 18039 net.cpp:148] Top shape: 24 320 7 7 (376320)
I0403 16:22:53.762174 18039 net.cpp:156] Memory required for data: 1299050016
I0403 16:22:53.762189 18039 layer_factory.hpp:77] Creating layer inception_5a/5x5_reduce
I0403 16:22:53.762212 18039 net.cpp:91] Creating Layer inception_5a/5x5_reduce
I0403 16:22:53.762229 18039 net.cpp:425] inception_5a/5x5_reduce <- pool4/3x3_s2_pool4/3x3_s2_0_split_2
I0403 16:22:53.762248 18039 net.cpp:399] inception_5a/5x5_reduce -> inception_5a/5x5_reduce
I0403 16:22:53.763350 18039 net.cpp:141] Setting up inception_5a/5x5_reduce
I0403 16:22:53.763381 18039 net.cpp:148] Top shape: 24 32 7 7 (37632)
I0403 16:22:53.763398 18039 net.cpp:156] Memory required for data: 1299200544
I0403 16:22:53.763417 18039 layer_factory.hpp:77] Creating layer inception_5a/relu_5x5_reduce
I0403 16:22:53.763434 18039 net.cpp:91] Creating Layer inception_5a/relu_5x5_reduce
I0403 16:22:53.763453 18039 net.cpp:425] inception_5a/relu_5x5_reduce <- inception_5a/5x5_reduce
I0403 16:22:53.763471 18039 net.cpp:386] inception_5a/relu_5x5_reduce -> inception_5a/5x5_reduce (in-place)
I0403 16:22:53.763814 18039 net.cpp:141] Setting up inception_5a/relu_5x5_reduce
I0403 16:22:53.763841 18039 net.cpp:148] Top shape: 24 32 7 7 (37632)
I0403 16:22:53.763857 18039 net.cpp:156] Memory required for data: 1299351072
I0403 16:22:53.763873 18039 layer_factory.hpp:77] Creating layer inception_5a/5x5
I0403 16:22:53.763896 18039 net.cpp:91] Creating Layer inception_5a/5x5
I0403 16:22:53.763916 18039 net.cpp:425] inception_5a/5x5 <- inception_5a/5x5_reduce
I0403 16:22:53.763937 18039 net.cpp:399] inception_5a/5x5 -> inception_5a/5x5
I0403 16:22:53.765635 18039 net.cpp:141] Setting up inception_5a/5x5
I0403 16:22:53.765674 18039 net.cpp:148] Top shape: 24 128 7 7 (150528)
I0403 16:22:53.765691 18039 net.cpp:156] Memory required for data: 1299953184
I0403 16:22:53.765712 18039 layer_factory.hpp:77] Creating layer inception_5a/relu_5x5
I0403 16:22:53.765733 18039 net.cpp:91] Creating Layer inception_5a/relu_5x5
I0403 16:22:53.765748 18039 net.cpp:425] inception_5a/relu_5x5 <- inception_5a/5x5
I0403 16:22:53.765765 18039 net.cpp:386] inception_5a/relu_5x5 -> inception_5a/5x5 (in-place)
I0403 16:22:53.765956 18039 net.cpp:141] Setting up inception_5a/relu_5x5
I0403 16:22:53.765981 18039 net.cpp:148] Top shape: 24 128 7 7 (150528)
I0403 16:22:53.765996 18039 net.cpp:156] Memory required for data: 1300555296
I0403 16:22:53.766012 18039 layer_factory.hpp:77] Creating layer inception_5a/pool
I0403 16:22:53.766029 18039 net.cpp:91] Creating Layer inception_5a/pool
I0403 16:22:53.766047 18039 net.cpp:425] inception_5a/pool <- pool4/3x3_s2_pool4/3x3_s2_0_split_3
I0403 16:22:53.766067 18039 net.cpp:399] inception_5a/pool -> inception_5a/pool
I0403 16:22:53.766137 18039 net.cpp:141] Setting up inception_5a/pool
I0403 16:22:53.766161 18039 net.cpp:148] Top shape: 24 832 7 7 (978432)
I0403 16:22:53.766178 18039 net.cpp:156] Memory required for data: 1304469024
I0403 16:22:53.766192 18039 layer_factory.hpp:77] Creating layer inception_5a/pool_proj
I0403 16:22:53.766216 18039 net.cpp:91] Creating Layer inception_5a/pool_proj
I0403 16:22:53.766234 18039 net.cpp:425] inception_5a/pool_proj <- inception_5a/pool
I0403 16:22:53.766254 18039 net.cpp:399] inception_5a/pool_proj -> inception_5a/pool_proj
I0403 16:22:53.768489 18039 net.cpp:141] Setting up inception_5a/pool_proj
I0403 16:22:53.768520 18039 net.cpp:148] Top shape: 24 128 7 7 (150528)
I0403 16:22:53.768537 18039 net.cpp:156] Memory required for data: 1305071136
I0403 16:22:53.768555 18039 layer_factory.hpp:77] Creating layer inception_5a/relu_pool_proj
I0403 16:22:53.768576 18039 net.cpp:91] Creating Layer inception_5a/relu_pool_proj
I0403 16:22:53.768594 18039 net.cpp:425] inception_5a/relu_pool_proj <- inception_5a/pool_proj
I0403 16:22:53.768616 18039 net.cpp:386] inception_5a/relu_pool_proj -> inception_5a/pool_proj (in-place)
I0403 16:22:53.768920 18039 net.cpp:141] Setting up inception_5a/relu_pool_proj
I0403 16:22:53.768949 18039 net.cpp:148] Top shape: 24 128 7 7 (150528)
I0403 16:22:53.768965 18039 net.cpp:156] Memory required for data: 1305673248
I0403 16:22:53.768978 18039 layer_factory.hpp:77] Creating layer inception_5a/output
I0403 16:22:53.768999 18039 net.cpp:91] Creating Layer inception_5a/output
I0403 16:22:53.769016 18039 net.cpp:425] inception_5a/output <- inception_5a/1x1
I0403 16:22:53.769032 18039 net.cpp:425] inception_5a/output <- inception_5a/3x3
I0403 16:22:53.769050 18039 net.cpp:425] inception_5a/output <- inception_5a/5x5
I0403 16:22:53.769078 18039 net.cpp:425] inception_5a/output <- inception_5a/pool_proj
I0403 16:22:53.769096 18039 net.cpp:399] inception_5a/output -> inception_5a/output
I0403 16:22:53.769147 18039 net.cpp:141] Setting up inception_5a/output
I0403 16:22:53.769171 18039 net.cpp:148] Top shape: 24 832 7 7 (978432)
I0403 16:22:53.769186 18039 net.cpp:156] Memory required for data: 1309586976
I0403 16:22:53.769201 18039 layer_factory.hpp:77] Creating layer inception_5a/output_inception_5a/output_0_split
I0403 16:22:53.769217 18039 net.cpp:91] Creating Layer inception_5a/output_inception_5a/output_0_split
I0403 16:22:53.769233 18039 net.cpp:425] inception_5a/output_inception_5a/output_0_split <- inception_5a/output
I0403 16:22:53.769253 18039 net.cpp:399] inception_5a/output_inception_5a/output_0_split -> inception_5a/output_inception_5a/output_0_split_0
I0403 16:22:53.769275 18039 net.cpp:399] inception_5a/output_inception_5a/output_0_split -> inception_5a/output_inception_5a/output_0_split_1
I0403 16:22:53.769295 18039 net.cpp:399] inception_5a/output_inception_5a/output_0_split -> inception_5a/output_inception_5a/output_0_split_2
I0403 16:22:53.769317 18039 net.cpp:399] inception_5a/output_inception_5a/output_0_split -> inception_5a/output_inception_5a/output_0_split_3
I0403 16:22:53.769429 18039 net.cpp:141] Setting up inception_5a/output_inception_5a/output_0_split
I0403 16:22:53.769454 18039 net.cpp:148] Top shape: 24 832 7 7 (978432)
I0403 16:22:53.769469 18039 net.cpp:148] Top shape: 24 832 7 7 (978432)
I0403 16:22:53.769484 18039 net.cpp:148] Top shape: 24 832 7 7 (978432)
I0403 16:22:53.769500 18039 net.cpp:148] Top shape: 24 832 7 7 (978432)
I0403 16:22:53.769515 18039 net.cpp:156] Memory required for data: 1325241888
I0403 16:22:53.769528 18039 layer_factory.hpp:77] Creating layer inception_5b/1x1
I0403 16:22:53.769551 18039 net.cpp:91] Creating Layer inception_5b/1x1
I0403 16:22:53.769568 18039 net.cpp:425] inception_5b/1x1 <- inception_5a/output_inception_5a/output_0_split_0
I0403 16:22:53.769589 18039 net.cpp:399] inception_5b/1x1 -> inception_5b/1x1
I0403 16:22:53.773288 18039 net.cpp:141] Setting up inception_5b/1x1
I0403 16:22:53.773319 18039 net.cpp:148] Top shape: 24 384 7 7 (451584)
I0403 16:22:53.773335 18039 net.cpp:156] Memory required for data: 1327048224
I0403 16:22:53.773355 18039 layer_factory.hpp:77] Creating layer inception_5b/relu_1x1
I0403 16:22:53.773375 18039 net.cpp:91] Creating Layer inception_5b/relu_1x1
I0403 16:22:53.773393 18039 net.cpp:425] inception_5b/relu_1x1 <- inception_5b/1x1
I0403 16:22:53.773411 18039 net.cpp:386] inception_5b/relu_1x1 -> inception_5b/1x1 (in-place)
I0403 16:22:53.773715 18039 net.cpp:141] Setting up inception_5b/relu_1x1
I0403 16:22:53.773742 18039 net.cpp:148] Top shape: 24 384 7 7 (451584)
I0403 16:22:53.773758 18039 net.cpp:156] Memory required for data: 1328854560
I0403 16:22:53.773787 18039 layer_factory.hpp:77] Creating layer inception_5b/3x3_reduce
I0403 16:22:53.773810 18039 net.cpp:91] Creating Layer inception_5b/3x3_reduce
I0403 16:22:53.773829 18039 net.cpp:425] inception_5b/3x3_reduce <- inception_5a/output_inception_5a/output_0_split_1
I0403 16:22:53.773852 18039 net.cpp:399] inception_5b/3x3_reduce -> inception_5b/3x3_reduce
I0403 16:22:53.776473 18039 net.cpp:141] Setting up inception_5b/3x3_reduce
I0403 16:22:53.776504 18039 net.cpp:148] Top shape: 24 192 7 7 (225792)
I0403 16:22:53.776521 18039 net.cpp:156] Memory required for data: 1329757728
I0403 16:22:53.776540 18039 layer_factory.hpp:77] Creating layer inception_5b/relu_3x3_reduce
I0403 16:22:53.776561 18039 net.cpp:91] Creating Layer inception_5b/relu_3x3_reduce
I0403 16:22:53.776579 18039 net.cpp:425] inception_5b/relu_3x3_reduce <- inception_5b/3x3_reduce
I0403 16:22:53.776597 18039 net.cpp:386] inception_5b/relu_3x3_reduce -> inception_5b/3x3_reduce (in-place)
I0403 16:22:53.776803 18039 net.cpp:141] Setting up inception_5b/relu_3x3_reduce
I0403 16:22:53.776830 18039 net.cpp:148] Top shape: 24 192 7 7 (225792)
I0403 16:22:53.776846 18039 net.cpp:156] Memory required for data: 1330660896
I0403 16:22:53.776861 18039 layer_factory.hpp:77] Creating layer inception_5b/3x3
I0403 16:22:53.776885 18039 net.cpp:91] Creating Layer inception_5b/3x3
I0403 16:22:53.776903 18039 net.cpp:425] inception_5b/3x3 <- inception_5b/3x3_reduce
I0403 16:22:53.776923 18039 net.cpp:399] inception_5b/3x3 -> inception_5b/3x3
I0403 16:22:53.783535 18039 net.cpp:141] Setting up inception_5b/3x3
I0403 16:22:53.783565 18039 net.cpp:148] Top shape: 24 384 7 7 (451584)
I0403 16:22:53.783581 18039 net.cpp:156] Memory required for data: 1332467232
I0403 16:22:53.783599 18039 layer_factory.hpp:77] Creating layer inception_5b/relu_3x3
I0403 16:22:53.783625 18039 net.cpp:91] Creating Layer inception_5b/relu_3x3
I0403 16:22:53.783643 18039 net.cpp:425] inception_5b/relu_3x3 <- inception_5b/3x3
I0403 16:22:53.783674 18039 net.cpp:386] inception_5b/relu_3x3 -> inception_5b/3x3 (in-place)
I0403 16:22:53.783973 18039 net.cpp:141] Setting up inception_5b/relu_3x3
I0403 16:22:53.784000 18039 net.cpp:148] Top shape: 24 384 7 7 (451584)
I0403 16:22:53.784015 18039 net.cpp:156] Memory required for data: 1334273568
I0403 16:22:53.784031 18039 layer_factory.hpp:77] Creating layer inception_5b/5x5_reduce
I0403 16:22:53.784081 18039 net.cpp:91] Creating Layer inception_5b/5x5_reduce
I0403 16:22:53.784101 18039 net.cpp:425] inception_5b/5x5_reduce <- inception_5a/output_inception_5a/output_0_split_2
I0403 16:22:53.784121 18039 net.cpp:399] inception_5b/5x5_reduce -> inception_5b/5x5_reduce
I0403 16:22:53.785320 18039 net.cpp:141] Setting up inception_5b/5x5_reduce
I0403 16:22:53.785347 18039 net.cpp:148] Top shape: 24 48 7 7 (56448)
I0403 16:22:53.785363 18039 net.cpp:156] Memory required for data: 1334499360
I0403 16:22:53.785382 18039 layer_factory.hpp:77] Creating layer inception_5b/relu_5x5_reduce
I0403 16:22:53.785403 18039 net.cpp:91] Creating Layer inception_5b/relu_5x5_reduce
I0403 16:22:53.785421 18039 net.cpp:425] inception_5b/relu_5x5_reduce <- inception_5b/5x5_reduce
I0403 16:22:53.785439 18039 net.cpp:386] inception_5b/relu_5x5_reduce -> inception_5b/5x5_reduce (in-place)
I0403 16:22:53.785818 18039 net.cpp:141] Setting up inception_5b/relu_5x5_reduce
I0403 16:22:53.785845 18039 net.cpp:148] Top shape: 24 48 7 7 (56448)
I0403 16:22:53.785861 18039 net.cpp:156] Memory required for data: 1334725152
I0403 16:22:53.785876 18039 layer_factory.hpp:77] Creating layer inception_5b/5x5
I0403 16:22:53.785897 18039 net.cpp:91] Creating Layer inception_5b/5x5
I0403 16:22:53.785913 18039 net.cpp:425] inception_5b/5x5 <- inception_5b/5x5_reduce
I0403 16:22:53.785933 18039 net.cpp:399] inception_5b/5x5 -> inception_5b/5x5
I0403 16:22:53.787889 18039 net.cpp:141] Setting up inception_5b/5x5
I0403 16:22:53.787919 18039 net.cpp:148] Top shape: 24 128 7 7 (150528)
I0403 16:22:53.787936 18039 net.cpp:156] Memory required for data: 1335327264
I0403 16:22:53.787955 18039 layer_factory.hpp:77] Creating layer inception_5b/relu_5x5
I0403 16:22:53.787971 18039 net.cpp:91] Creating Layer inception_5b/relu_5x5
I0403 16:22:53.787988 18039 net.cpp:425] inception_5b/relu_5x5 <- inception_5b/5x5
I0403 16:22:53.788005 18039 net.cpp:386] inception_5b/relu_5x5 -> inception_5b/5x5 (in-place)
I0403 16:22:53.788193 18039 net.cpp:141] Setting up inception_5b/relu_5x5
I0403 16:22:53.788218 18039 net.cpp:148] Top shape: 24 128 7 7 (150528)
I0403 16:22:53.788233 18039 net.cpp:156] Memory required for data: 1335929376
I0403 16:22:53.788249 18039 layer_factory.hpp:77] Creating layer inception_5b/pool
I0403 16:22:53.788266 18039 net.cpp:91] Creating Layer inception_5b/pool
I0403 16:22:53.788282 18039 net.cpp:425] inception_5b/pool <- inception_5a/output_inception_5a/output_0_split_3
I0403 16:22:53.788303 18039 net.cpp:399] inception_5b/pool -> inception_5b/pool
I0403 16:22:53.788372 18039 net.cpp:141] Setting up inception_5b/pool
I0403 16:22:53.788398 18039 net.cpp:148] Top shape: 24 832 7 7 (978432)
I0403 16:22:53.788414 18039 net.cpp:156] Memory required for data: 1339843104
I0403 16:22:53.788429 18039 layer_factory.hpp:77] Creating layer inception_5b/pool_proj
I0403 16:22:53.788450 18039 net.cpp:91] Creating Layer inception_5b/pool_proj
I0403 16:22:53.788467 18039 net.cpp:425] inception_5b/pool_proj <- inception_5b/pool
I0403 16:22:53.788486 18039 net.cpp:399] inception_5b/pool_proj -> inception_5b/pool_proj
I0403 16:22:53.790710 18039 net.cpp:141] Setting up inception_5b/pool_proj
I0403 16:22:53.790740 18039 net.cpp:148] Top shape: 24 128 7 7 (150528)
I0403 16:22:53.790755 18039 net.cpp:156] Memory required for data: 1340445216
I0403 16:22:53.790786 18039 layer_factory.hpp:77] Creating layer inception_5b/relu_pool_proj
I0403 16:22:53.790805 18039 net.cpp:91] Creating Layer inception_5b/relu_pool_proj
I0403 16:22:53.790823 18039 net.cpp:425] inception_5b/relu_pool_proj <- inception_5b/pool_proj
I0403 16:22:53.790843 18039 net.cpp:386] inception_5b/relu_pool_proj -> inception_5b/pool_proj (in-place)
I0403 16:22:53.791149 18039 net.cpp:141] Setting up inception_5b/relu_pool_proj
I0403 16:22:53.791175 18039 net.cpp:148] Top shape: 24 128 7 7 (150528)
I0403 16:22:53.791190 18039 net.cpp:156] Memory required for data: 1341047328
I0403 16:22:53.791204 18039 layer_factory.hpp:77] Creating layer inception_5b/output
I0403 16:22:53.791224 18039 net.cpp:91] Creating Layer inception_5b/output
I0403 16:22:53.791254 18039 net.cpp:425] inception_5b/output <- inception_5b/1x1
I0403 16:22:53.791271 18039 net.cpp:425] inception_5b/output <- inception_5b/3x3
I0403 16:22:53.791287 18039 net.cpp:425] inception_5b/output <- inception_5b/5x5
I0403 16:22:53.791302 18039 net.cpp:425] inception_5b/output <- inception_5b/pool_proj
I0403 16:22:53.791319 18039 net.cpp:399] inception_5b/output -> inception_5b/output
I0403 16:22:53.791371 18039 net.cpp:141] Setting up inception_5b/output
I0403 16:22:53.791395 18039 net.cpp:148] Top shape: 24 1024 7 7 (1204224)
I0403 16:22:53.791410 18039 net.cpp:156] Memory required for data: 1345864224
I0403 16:22:53.791425 18039 layer_factory.hpp:77] Creating layer pool5/7x7_s1
I0403 16:22:53.791441 18039 net.cpp:91] Creating Layer pool5/7x7_s1
I0403 16:22:53.791457 18039 net.cpp:425] pool5/7x7_s1 <- inception_5b/output
I0403 16:22:53.791476 18039 net.cpp:399] pool5/7x7_s1 -> pool5/7x7_s1
I0403 16:22:53.791689 18039 net.cpp:141] Setting up pool5/7x7_s1
I0403 16:22:53.791717 18039 net.cpp:148] Top shape: 24 1024 1 1 (24576)
I0403 16:22:53.791733 18039 net.cpp:156] Memory required for data: 1345962528
I0403 16:22:53.791746 18039 layer_factory.hpp:77] Creating layer pool5/drop_7x7_s1
I0403 16:22:53.791764 18039 net.cpp:91] Creating Layer pool5/drop_7x7_s1
I0403 16:22:53.791781 18039 net.cpp:425] pool5/drop_7x7_s1 <- pool5/7x7_s1
I0403 16:22:53.791800 18039 net.cpp:386] pool5/drop_7x7_s1 -> pool5/7x7_s1 (in-place)
I0403 16:22:53.791851 18039 net.cpp:141] Setting up pool5/drop_7x7_s1
I0403 16:22:53.791874 18039 net.cpp:148] Top shape: 24 1024 1 1 (24576)
I0403 16:22:53.791890 18039 net.cpp:156] Memory required for data: 1346060832
I0403 16:22:53.791903 18039 layer_factory.hpp:77] Creating layer loss3/classifier_plantvillage
I0403 16:22:53.791924 18039 net.cpp:91] Creating Layer loss3/classifier_plantvillage
I0403 16:22:53.791941 18039 net.cpp:425] loss3/classifier_plantvillage <- pool5/7x7_s1
I0403 16:22:53.791960 18039 net.cpp:399] loss3/classifier_plantvillage -> loss3/classifier_plantvillage
I0403 16:22:53.792362 18039 net.cpp:141] Setting up loss3/classifier_plantvillage
I0403 16:22:53.792387 18039 net.cpp:148] Top shape: 24 38 (912)
I0403 16:22:53.792402 18039 net.cpp:156] Memory required for data: 1346064480
I0403 16:22:53.792419 18039 layer_factory.hpp:77] Creating layer loss3/classifier_plantvillage_loss3/classifier_plantvillage_0_split
I0403 16:22:53.792438 18039 net.cpp:91] Creating Layer loss3/classifier_plantvillage_loss3/classifier_plantvillage_0_split
I0403 16:22:53.792454 18039 net.cpp:425] loss3/classifier_plantvillage_loss3/classifier_plantvillage_0_split <- loss3/classifier_plantvillage
I0403 16:22:53.792475 18039 net.cpp:399] loss3/classifier_plantvillage_loss3/classifier_plantvillage_0_split -> loss3/classifier_plantvillage_loss3/classifier_plantvillage_0_split_0
I0403 16:22:53.792496 18039 net.cpp:399] loss3/classifier_plantvillage_loss3/classifier_plantvillage_0_split -> loss3/classifier_plantvillage_loss3/classifier_plantvillage_0_split_1
I0403 16:22:53.792516 18039 net.cpp:399] loss3/classifier_plantvillage_loss3/classifier_plantvillage_0_split -> loss3/classifier_plantvillage_loss3/classifier_plantvillage_0_split_2
I0403 16:22:53.792537 18039 net.cpp:399] loss3/classifier_plantvillage_loss3/classifier_plantvillage_0_split -> loss3/classifier_plantvillage_loss3/classifier_plantvillage_0_split_3
I0403 16:22:53.792651 18039 net.cpp:141] Setting up loss3/classifier_plantvillage_loss3/classifier_plantvillage_0_split
I0403 16:22:53.792675 18039 net.cpp:148] Top shape: 24 38 (912)
I0403 16:22:53.792691 18039 net.cpp:148] Top shape: 24 38 (912)
I0403 16:22:53.792706 18039 net.cpp:148] Top shape: 24 38 (912)
I0403 16:22:53.792721 18039 net.cpp:148] Top shape: 24 38 (912)
I0403 16:22:53.792734 18039 net.cpp:156] Memory required for data: 1346079072
I0403 16:22:53.792748 18039 layer_factory.hpp:77] Creating layer loss1/loss
I0403 16:22:53.792781 18039 net.cpp:91] Creating Layer loss1/loss
I0403 16:22:53.792800 18039 net.cpp:425] loss1/loss <- loss1/classifier_plantvillage_loss1/classifier_plantvillage_0_split_0
I0403 16:22:53.792832 18039 net.cpp:425] loss1/loss <- label_data_1_split_0
…
