…
I0403 16:28:19.423575 18357 net.cpp:313] The NetState phase (1) differed from the phase (0) specified by a rule in layer data
I0403 16:28:19.425552 18357 net.cpp:49] Initializing net from parameters: 
state {
  phase: TEST
}
layer {
  name: "data"
  type: "Data"
  top: "data"
  top: "label"
  include {
    phase: TEST
  }
  transform_param {
    mirror: false
    crop_size: 224
    mean_file: "/home/mohanty/data/final_dataset/lmdb/color-20-80/mean.binaryproto"
  }
  data_param {
    source: "/home/mohanty/data/final_dataset/lmdb/color-20-80/test_db"
    batch_size: 24
    backend: LMDB
  }
}
layer {
  name: "conv1/7x7_s2"
  type: "Convolution"
  bottom: "data"
  top: "conv1/7x7_s2"
  param {
    lr_mult: 1
    decay_mult: 1
  }
  param {
    lr_mult: 2
    decay_mult: 0
  }
  convolution_param {
    num_output: 64
    pad: 3
    kernel_size: 7
    stride: 2
    weight_filler {
      type: "xavier"
      std: 0.1
    }
    bias_filler {
      type: "constant"
      value: 0.2
    }
  }
}
layer {
  name: "conv1/relu_7x7"
  type: "ReLU"
  bottom: "conv1/7x7_s2"
  top: "conv1/7x7_s2"
}
layer {
  name: "pool1/3x3_s2"
  type: "Pooling"
  bottom: "conv1/7x7_s2"
  top: "pool1/3x3_s2"
  pooling_param {
    pool: MAX
    kernel_size: 3
    stride: 2
  }
}
layer {
  name: "pool1/norm1"
  type: "LRN"
  bottom: "pool1/3x3_s2"
  top: "pool1/norm1"
  lrn_param {
    local_size: 5
    alpha: 0.0001
    beta: 0.75
  }
}
layer {
  name: "conv2/3x3_reduce"
  type: "Convolution"
  bottom: "pool1/norm1"
  top: "conv2/3x3_reduce"
  param {
    lr_mult: 1
    decay_mult: 1
  }
  param {
    lr_mult: 2
    decay_mult: 0
  }
  convolution_param {
    num_output: 64
    kernel_size: 1
    weight_filler {
      type: "xavier"
      std: 0.1
    }
    bias_filler {
      type: "constant"
      value: 0.2
    }
  }
}
layer {
  name: "conv2/relu_3x3_reduce"
  type: "ReLU"
  bottom: "conv2/3x3_reduce"
  top: "conv2/3x3_reduce"
}
layer {
  name: "conv2/3x3"
  type: "Convolution"
  bottom: "conv2/3x3_reduce"
  top: "conv2/3x3"
  param {
    lr_mult: 1
    decay_mult: 1
  }
  param {
    lr_mult: 2
    decay_mult: 0
  }
  convolution_param {
    num_output: 192
    pad: 1
    kernel_size: 3
    weight_filler {
      type: "xavier"
      std: 0.03
    }
    bias_filler {
      type: "constant"
      value: 0.2
    }
  }
}
layer {
  name: "conv2/relu_3x3"
  type: "ReLU"
  bottom: "conv2/3x3"
  top: "conv2/3x3"
}
layer {
  name: "conv2/norm2"
  type: "LRN"
  bottom: "conv2/3x3"
  top: "conv2/norm2"
  lrn_param {
    local_size: 5
    alpha: 0.0001
    beta: 0.75
  }
}
layer {
  name: "pool2/3x3_s2"
  type: "Pooling"
  bottom: "conv2/norm2"
  top: "pool2/3x3_s2"
  pooling_param {
    pool: MAX
    kernel_size: 3
    stride: 2
  }
}
layer {
  name: "inception_3a/1x1"
  type: "Convolution"
  bottom: "pool2/3x3_s2"
  top: "inception_3a/1x1"
  param {
    lr_mult: 1
    decay_mult: 1
  }
  param {
    lr_mult: 2
    decay_mult: 0
  }
  convolution_param {
    num_output: 64
    kernel_size: 1
    weight_filler {
      type: "xavier"
      std: 0.03
    }
    bias_filler {
      type: "constant"
      value: 0.2
    }
  }
}
layer {
  name: "inception_3a/relu_1x1"
  type: "ReLU"
  bottom: "inception_3a/1x1"
  top: "inception_3a/1x1"
}
layer {
  name: "inception_3a/3x3_reduce"
  type: "Convolution"
  bottom: "pool2/3x3_s2"
  top: "inception_3a/3x3_reduce"
  param {
    lr_mult: 1
    decay_mult: 1
  }
  param {
    lr_mult: 2
    decay_mult: 0
  }
  convolution_param {
    num_output: 96
    kernel_size: 1
    weight_filler {
      type: "xavier"
      std: 0.09
    }
    bias_filler {
      type: "constant"
      value: 0.2
    }
  }
}
layer {
  name: "inception_3a/relu_3x3_reduce"
  type: "ReLU"
  bottom: "inception_3a/3x3_reduce"
  top: "inception_3a/3x3_reduce"
}
layer {
  name: "inception_3a/3x3"
  type: "Convolution"
  bottom: "inception_3a/3x3_reduce"
  top: "inception_3a/3x3"
  param {
    lr_mult: 1
    decay_mult: 1
  }
  param {
    lr_mult: 2
    decay_mult: 0
  }
  convolution_param {
    num_output: 128
    pad: 1
    kernel_size: 3
    weight_filler {
      type: "xavier"
      std: 0.03
    }
    bias_filler {
      type: "constant"
      value: 0.2
    }
  }
}
layer {
  name: "inception_3a/relu_3x3"
  type: "ReLU"
  bottom: "inception_3a/3x3"
  top: "inception_3a/3x3"
}
layer {
  name: "inception_3a/5x5_reduce"
  type: "Convolution"
  bottom: "pool2/3x3_s2"
  top: "inception_3a/5x5_reduce"
  param {
    lr_mult: 1
    decay_mult: 1
  }
  param {
    lr_mult: 2
    decay_mult: 0
  }
  convolution_param {
    num_output: 16
    kernel_size: 1
    weight_filler {
      type: "xavier"
      std: 0.2
    }
    bias_filler {
      type: "constant"
      value: 0.2
    }
  }
}
layer {
  name: "inception_3a/relu_5x5_reduce"
  type: "ReLU"
  bottom: "inception_3a/5x5_reduce"
  top: "inception_3a/5x5_reduce"
}
layer {
  name: "inception_3a/5x5"
  type: "Convolution"
  bottom: "inception_3a/5x5_reduce"
  top: "inception_3a/5x5"
  param {
    lr_mult: 1
    decay_mult: 1
  }
  param {
    lr_mult: 2
    decay_mult: 0
  }
  convolution_param {
    num_output: 32
    pad: 2
    kernel_size: 5
    weight_filler {
      type: "xavier"
      std: 0.03
    }
    bias_filler {
      type: "constant"
      value: 0.2
    }
  }
}
layer {
  name: "inception_3a/relu_5x5"
  type: "ReLU"
  bottom: "inception_3a/5x5"
  top: "inception_3a/5x5"
}
layer {
  name: "inception_3a/pool"
  type: "Pooling"
  bottom: "pool2/3x3_s2"
  top: "inception_3a/pool"
  pooling_param {
    pool: MAX
    kernel_size: 3
    stride: 1
    pad: 1
  }
}
layer {
  name: "inception_3a/pool_proj"
  type: "Convolution"
  bottom: "inception_3a/pool"
  top: "inception_3a/pool_proj"
  param {
    lr_mult: 1
    decay_mult: 1
  }
  param {
    lr_mult: 2
    decay_mult: 0
  }
  convolution_param {
    num_output: 32
    kernel_size: 1
    weight_filler {
      type: "xavier"
      std: 0.1
    }
    bias_filler {
      type: "constant"
      value: 0.2
    }
  }
}
layer {
  name: "inception_3a/relu_pool_proj"
  type: "ReLU"
  bottom: "inception_3a/pool_proj"
  top: "inception_3a/pool_proj"
}
layer {
  name: "inception_3a/output"
  type: "Concat"
  bottom: "inception_3a/1x1"
  bottom: "inception_3a/3x3"
  bottom: "inception_3a/5x5"
  bottom: "inception_3a/pool_proj"
  top: "inception_3a/output"
}
layer {
  name: "inception_3b/1x1"
  type: "Convolution"
  bottom: "inception_3a/output"
  top: "inception_3b/1x1"
  param {
    lr_mult: 1
    decay_mult: 1
  }
  param {
    lr_mult: 2
    decay_mult: 0
  }
  convolution_param {
    num_output: 128
    kernel_size: 1
    weight_filler {
      type: "xavier"
      std: 0.03
    }
    bias_filler {
      type: "constant"
      value: 0.2
    }
  }
}
layer {
  name: "inception_3b/relu_1x1"
  type: "ReLU"
  bottom: "inception_3b/1x1"
  top: "inception_3b/1x1"
}
layer {
  name: "inception_3b/3x3_reduce"
  type: "Convolution"
  bottom: "inception_3a/output"
  top: "inception_3b/3x3_reduce"
  param {
    lr_mult: 1
    decay_mult: 1
  }
  param {
    lr_mult: 2
    decay_mult: 0
  }
  convolution_param {
    num_output: 128
    kernel_size: 1
    weight_filler {
      type: "xavier"
      std: 0.09
    }
    bias_filler {
      type: "constant"
      value: 0.2
    }
  }
}
layer {
  name: "inception_3b/relu_3x3_reduce"
  type: "ReLU"
  bottom: "inception_3b/3x3_reduce"
  top: "inception_3b/3x3_reduce"
}
layer {
  name: "inception_3b/3x3"
  type: "Convolution"
  bottom: "inception_3b/3x3_reduce"
  top: "inception_3b/3x3"
  param {
    lr_mult: 1
    decay_mult: 1
  }
  param {
    lr_mult: 2
    decay_mult: 0
  }
  convolution_param {
    num_output: 192
    pad: 1
    kernel_size: 3
    weight_filler {
      type: "xavier"
      std: 0.03
    }
    bias_filler {
      type: "constant"
      value: 0.2
    }
  }
}
layer {
  name: "inception_3b/relu_3x3"
  type: "ReLU"
  bottom: "inception_3b/3x3"
  top: "inception_3b/3x3"
}
layer {
  name: "inception_3b/5x5_reduce"
  type: "Convolution"
  bottom: "inception_3a/output"
  top: "inception_3b/5x5_reduce"
  param {
    lr_mult: 1
    decay_mult: 1
  }
  param {
    lr_mult: 2
    decay_mult: 0
  }
  convolution_param {
    num_output: 32
    kernel_size: 1
    weight_filler {
      type: "xavier"
      std: 0.2
    }
    bias_filler {
      type: "constant"
      value: 0.2
    }
  }
}
layer {
  name: "inception_3b/relu_5x5_reduce"
  type: "ReLU"
  bottom: "inception_3b/5x5_reduce"
  top: "inception_3b/5x5_reduce"
}
layer {
  name: "inception_3b/5x5"
  type: "Convolution"
  bottom: "inception_3b/5x5_reduce"
  top: "inception_3b/5x5"
  param {
    lr_mult: 1
    decay_mult: 1
  }
  param {
    lr_mult: 2
    decay_mult: 0
  }
  convolution_param {
    num_output: 96
    pad: 2
    kernel_size: 5
    weight_filler {
      type: "xavier"
      std: 0.03
    }
    bias_filler {
      type: "constant"
      value: 0.2
    }
  }
}
layer {
  name: "inception_3b/relu_5x5"
  type: "ReLU"
  bottom: "inception_3b/5x5"
  top: "inception_3b/5x5"
}
layer {
  name: "inception_3b/pool"
  type: "Pooling"
  bottom: "inception_3a/output"
  top: "inception_3b/pool"
  pooling_param {
    pool: MAX
    kernel_size: 3
    stride: 1
    pad: 1
  }
}
layer {
  name: "inception_3b/pool_proj"
  type: "Convolution"
  bottom: "inception_3b/pool"
  top: "inception_3b/pool_proj"
  param {
    lr_mult: 1
    decay_mult: 1
  }
  param {
    lr_mult: 2
    decay_mult: 0
  }
  convolution_param {
    num_output: 64
    kernel_size: 1
    weight_filler {
      type: "xavier"
      std: 0.1
    }
    bias_filler {
      type: "constant"
      value: 0.2
    }
  }
}
layer {
  name: "inception_3b/relu_pool_proj"
  type: "ReLU"
  bottom: "inception_3b/pool_proj"
  top: "inception_3b/pool_proj"
}
layer {
  name: "inception_3b/output"
  type: "Concat"
  bottom: "inception_3b/1x1"
  bottom: "inception_3b/3x3"
  bottom: "inception_3b/5x5"
  bottom: "inception_3b/pool_proj"
  top: "inception_3b/output"
}
layer {
  name: "pool3/3x3_s2"
  type: "Pooling"
  bottom: "inception_3b/output"
  top: "pool3/3x3_s2"
  pooling_param {
    pool: MAX
    kernel_size: 3
    stride: 2
  }
}
layer {
  name: "inception_4a/1x1"
  type: "Convolution"
  bottom: "pool3/3x3_s2"
  top: "inception_4a/1x1"
  param {
    lr_mult: 1
    decay_mult: 1
  }
  param {
    lr_mult: 2
    decay_mult: 0
  }
  convolution_param {
    num_output: 192
    kernel_size: 1
    weight_filler {
      type: "xavier"
      std: 0.03
    }
    bias_filler {
      type: "constant"
      value: 0.2
    }
  }
}
layer {
  name: "inception_4a/relu_1x1"
  type: "ReLU"
  bottom: "inception_4a/1x1"
  top: "inception_4a/1x1"
}
layer {
  name: "inception_4a/3x3_reduce"
  type: "Convolution"
  bottom: "pool3/3x3_s2"
  top: "inception_4a/3x3_reduce"
  param {
    lr_mult: 1
    decay_mult: 1
  }
  param {
    lr_mult: 2
    decay_mult: 0
  }
  convolution_param {
    num_output: 96
    kernel_size: 1
    weight_filler {
      type: "xavier"
      std: 0.09
    }
    bias_filler {
      type: "constant"
      value: 0.2
    }
  }
}
layer {
  name: "inception_4a/relu_3x3_reduce"
  type: "ReLU"
  bottom: "inception_4a/3x3_reduce"
  top: "inception_4a/3x3_reduce"
}
layer {
  name: "inception_4a/3x3"
  type: "Convolution"
  bottom: "inception_4a/3x3_reduce"
  top: "inception_4a/3x3"
  param {
    lr_mult: 1
    decay_mult: 1
  }
  param {
    lr_mult: 2
    decay_mult: 0
  }
  convolution_param {
    num_output: 208
    pad: 1
    kernel_size: 3
    weight_filler {
      type: "xavier"
      std: 0.03
    }
    bias_filler {
      type: "constant"
      value: 0.2
    }
  }
}
layer {
  name: "inception_4a/relu_3x3"
  type: "ReLU"
  bottom: "inception_4a/3x3"
  top: "inception_4a/3x3"
}
layer {
  name: "inception_4a/5x5_reduce"
  type: "Convolution"
  bottom: "pool3/3x3_s2"
  top: "inception_4a/5x5_reduce"
  param {
    lr_mult: 1
    decay_mult: 1
  }
  param {
    lr_mult: 2
    decay_mult: 0
  }
  convolution_param {
    num_output: 16
    kernel_size: 1
    weight_filler {
      type: "xavier"
      std: 0.2
    }
    bias_filler {
      type: "constant"
      value: 0.2
    }
  }
}
layer {
  name: "inception_4a/relu_5x5_reduce"
  type: "ReLU"
  bottom: "inception_4a/5x5_reduce"
  top: "inception_4a/5x5_reduce"
}
layer {
  name: "inception_4a/5x5"
  type: "Convolution"
  bottom: "inception_4a/5x5_reduce"
  top: "inception_4a/5x5"
  param {
    lr_mult: 1
    decay_mult: 1
  }
  param {
    lr_mult: 2
    decay_mult: 0
  }
  convolution_param {
    num_output: 48
    pad: 2
    kernel_size: 5
    weight_filler {
      type: "xavier"
      std: 0.03
    }
    bias_filler {
      type: "constant"
      value: 0.2
    }
  }
}
layer {
  name: "inception_4a/relu_5x5"
  type: "ReLU"
  bottom: "inception_4a/5x5"
  top: "inception_4a/5x5"
}
layer {
  name: "inception_4a/pool"
  type: "Pooling"
  bottom: "pool3/3x3_s2"
  top: "inception_4a/pool"
  pooling_param {
    pool: MAX
    kernel_size: 3
    stride: 1
    pad: 1
  }
}
layer {
  name: "inception_4a/pool_proj"
  type: "Convolution"
  bottom: "inception_4a/pool"
  top: "inception_4a/pool_proj"
  param {
    lr_mult: 1
    decay_mult: 1
  }
  param {
    lr_mult: 2
    decay_mult: 0
  }
  convolution_param {
    num_output: 64
    kernel_size: 1
    weight_filler {
      type: "xavier"
      std: 0.1
    }
    bias_filler {
      type: "constant"
      value: 0.2
    }
  }
}
layer {
  name: "inception_4a/relu_pool_proj"
  type: "ReLU"
  bottom: "inception_4a/pool_proj"
  top: "inception_4a/pool_proj"
}
layer {
  name: "inception_4a/output"
  type: "Concat"
  bottom: "inception_4a/1x1"
  bottom: "inception_4a/3x3"
  bottom: "inception_4a/5x5"
  bottom: "inception_4a/pool_proj"
  top: "inception_4a/output"
}
layer {
  name: "loss1/ave_pool"
  type: "Pooling"
  bottom: "inception_4a/output"
  top: "loss1/ave_pool"
  pooling_param {
    pool: AVE
    kernel_size: 5
    stride: 3
  }
}
layer {
  name: "loss1/conv"
  type: "Convolution"
  bottom: "loss1/ave_pool"
  top: "loss1/conv"
  param {
    lr_mult: 1
    decay_mult: 1
  }
  param {
    lr_mult: 2
    decay_mult: 0
  }
  convolution_param {
    num_output: 128
    kernel_size: 1
    weight_filler {
      type: "xavier"
      std: 0.08
    }
    bias_filler {
      type: "constant"
      value: 0.2
    }
  }
}
layer {
  name: "loss1/relu_conv"
  type: "ReLU"
  bottom: "loss1/conv"
  top: "loss1/conv"
}
layer {
  name: "loss1/fc"
  type: "InnerProduct"
  bottom: "loss1/conv"
  top: "loss1/fc"
  param {
    lr_mult: 1
    decay_mult: 1
  }
  param {
    lr_mult: 2
    decay_mult: 0
  }
  inner_product_param {
    num_output: 1024
    weight_filler {
      type: "xavier"
      std: 0.02
    }
    bias_filler {
      type: "constant"
      value: 0.2
    }
  }
}
layer {
  name: "loss1/relu_fc"
  type: "ReLU"
  bottom: "loss1/fc"
  top: "loss1/fc"
}
layer {
  name: "loss1/drop_fc"
  type: "Dropout"
  bottom: "loss1/fc"
  top: "loss1/fc"
  dropout_param {
    dropout_ratio: 0.7
  }
}
layer {
  name: "loss1/classifier_plantvillage"
  type: "InnerProduct"
  bottom: "loss1/fc"
  top: "loss1/classifier_plantvillage"
  param {
    lr_mult: 1
    decay_mult: 1
  }
  param {
    lr_mult: 2
    decay_mult: 0
  }
  inner_product_param {
    num_output: 38
    weight_filler {
      type: "xavier"
      std: 0.0009765625
    }
    bias_filler {
      type: "constant"
      value: 0
    }
  }
}
layer {
  name: "inception_4b/1x1"
  type: "Convolution"
  bottom: "inception_4a/output"
  top: "inception_4b/1x1"
  param {
    lr_mult: 1
    decay_mult: 1
  }
  param {
    lr_mult: 2
    decay_mult: 0
  }
  convolution_param {
    num_output: 160
    kernel_size: 1
    weight_filler {
      type: "xavier"
      std: 0.03
    }
    bias_filler {
      type: "constant"
      value: 0.2
    }
  }
}
layer {
  name: "inception_4b/relu_1x1"
  type: "ReLU"
  bottom: "inception_4b/1x1"
  top: "inception_4b/1x1"
}
layer {
  name: "inception_4b/3x3_reduce"
  type: "Convolution"
  bottom: "inception_4a/output"
  top: "inception_4b/3x3_reduce"
  param {
    lr_mult: 1
    decay_mult: 1
  }
  param {
    lr_mult: 2
    decay_mult: 0
  }
  convolution_param {
    num_output: 112
    kernel_size: 1
    weight_filler {
      type: "xavier"
      std: 0.09
    }
    bias_filler {
      type: "constant"
      value: 0.2
    }
  }
}
layer {
  name: "inception_4b/relu_3x3_reduce"
  type: "ReLU"
  bottom: "inception_4b/3x3_reduce"
  top: "inception_4b/3x3_reduce"
}
layer {
  name: "inception_4b/3x3"
  type: "Convolution"
  bottom: "inception_4b/3x3_reduce"
  top: "inception_4b/3x3"
  param {
    lr_mult: 1
    decay_mult: 1
  }
  param {
    lr_mult: 2
    decay_mult: 0
  }
  convolution_param {
    num_output: 224
    pad: 1
    kernel_size: 3
    weight_filler {
      type: "xavier"
      std: 0.03
    }
    bias_filler {
      type: "constant"
      value: 0.2
    }
  }
}
layer {
  name: "inception_4b/relu_3x3"
  type: "ReLU"
  bottom: "inception_4b/3x3"
  top: "inception_4b/3x3"
}
layer {
  name: "inception_4b/5x5_reduce"
  type: "Convolution"
  bottom: "inception_4a/output"
  top: "inception_4b/5x5_reduce"
  param {
    lr_mult: 1
    decay_mult: 1
  }
  param {
    lr_mult: 2
    decay_mult: 0
  }
  convolution_param {
    num_output: 24
    kernel_size: 1
    weight_filler {
      type: "xavier"
      std: 0.2
    }
    bias_filler {
      type: "constant"
      value: 0.2
    }
  }
}
layer {
  name: "inception_4b/relu_5x5_reduce"
  type: "ReLU"
  bottom: "inception_4b/5x5_reduce"
  top: "inception_4b/5x5_reduce"
}
layer {
  name: "inception_4b/5x5"
  type: "Convolution"
  bottom: "inception_4b/5x5_reduce"
  top: "inception_4b/5x5"
  param {
    lr_mult: 1
    decay_mult: 1
  }
  param {
    lr_mult: 2
    decay_mult: 0
  }
  convolution_param {
    num_output: 64
    pad: 2
    kernel_size: 5
    weight_filler {
      type: "xavier"
      std: 0.03
    }
    bias_filler {
      type: "constant"
      value: 0.2
    }
  }
}
layer {
  name: "inception_4b/relu_5x5"
  type: "ReLU"
  bottom: "inception_4b/5x5"
  top: "inception_4b/5x5"
}
layer {
  name: "inception_4b/pool"
  type: "Pooling"
  bottom: "inception_4a/output"
  top: "inception_4b/pool"
  pooling_param {
    pool: MAX
    kernel_size: 3
    stride: 1
    pad: 1
  }
}
layer {
  name: "inception_4b/pool_proj"
  type: "Convolution"
  bottom: "inception_4b/pool"
  top: "inception_4b/pool_proj"
  param {
    lr_mult: 1
    decay_mult: 1
  }
  param {
    lr_mult: 2
    decay_mult: 0
  }
  convolution_param {
    num_output: 64
    kernel_size: 1
    weight_filler {
      type: "xavier"
      std: 0.1
    }
    bias_filler {
      type: "constant"
      value: 0.2
    }
  }
}
layer {
  name: "inception_4b/relu_pool_proj"
  type: "ReLU"
  bottom: "inception_4b/pool_proj"
  top: "inception_4b/pool_proj"
}
layer {
  name: "inception_4b/output"
  type: "Concat"
  bottom: "inception_4b/1x1"
  bottom: "inception_4b/3x3"
  bottom: "inception_4b/5x5"
  bottom: "inception_4b/pool_proj"
  top: "inception_4b/output"
}
layer {
  name: "inception_4c/1x1"
  type: "Convolution"
  bottom: "inception_4b/output"
  top: "inception_4c/1x1"
  param {
    lr_mult: 1
    decay_mult: 1
  }
  param {
    lr_mult: 2
    decay_mult: 0
  }
  convolution_param {
    num_output: 128
    kernel_size: 1
    weight_filler {
      type: "xavier"
      std: 0.03
    }
    bias_filler {
      type: "constant"
      value: 0.2
    }
  }
}
layer {
  name: "inception_4c/relu_1x1"
  type: "ReLU"
  bottom: "inception_4c/1x1"
  top: "inception_4c/1x1"
}
layer {
  name: "inception_4c/3x3_reduce"
  type: "Convolution"
  bottom: "inception_4b/output"
  top: "inception_4c/3x3_reduce"
  param {
    lr_mult: 1
    decay_mult: 1
  }
  param {
    lr_mult: 2
    decay_mult: 0
  }
  convolution_param {
    num_output: 128
    kernel_size: 1
    weight_filler {
      type: "xavier"
      std: 0.09
    }
    bias_filler {
      type: "constant"
      value: 0.2
    }
  }
}
layer {
  name: "inception_4c/relu_3x3_reduce"
  type: "ReLU"
  bottom: "inception_4c/3x3_reduce"
  top: "inception_4c/3x3_reduce"
}
layer {
  name: "inception_4c/3x3"
  type: "Convolution"
  bottom: "inception_4c/3x3_reduce"
  top: "inception_4c/3x3"
  param {
    lr_mult: 1
    decay_mult: 1
  }
  param {
    lr_mult: 2
    decay_mult: 0
  }
  convolution_param {
    num_output: 256
    pad: 1
    kernel_size: 3
    weight_filler {
      type: "xavier"
      std: 0.03
    }
    bias_filler {
      type: "constant"
      value: 0.2
    }
  }
}
layer {
  name: "inception_4c/relu_3x3"
  type: "ReLU"
  bottom: "inception_4c/3x3"
  top: "inception_4c/3x3"
}
layer {
  name: "inception_4c/5x5_reduce"
  type: "Convolution"
  bottom: "inception_4b/output"
  top: "inception_4c/5x5_reduce"
  param {
    lr_mult: 1
    decay_mult: 1
  }
  param {
    lr_mult: 2
    decay_mult: 0
  }
  convolution_param {
    num_output: 24
    kernel_size: 1
    weight_filler {
      type: "xavier"
      std: 0.2
    }
    bias_filler {
      type: "constant"
      value: 0.2
    }
  }
}
layer {
  name: "inception_4c/relu_5x5_reduce"
  type: "ReLU"
  bottom: "inception_4c/5x5_reduce"
  top: "inception_4c/5x5_reduce"
}
layer {
  name: "inception_4c/5x5"
  type: "Convolution"
  bottom: "inception_4c/5x5_reduce"
  top: "inception_4c/5x5"
  param {
    lr_mult: 1
    decay_mult: 1
  }
  param {
    lr_mult: 2
    decay_mult: 0
  }
  convolution_param {
    num_output: 64
    pad: 2
    kernel_size: 5
    weight_filler {
      type: "xavier"
      std: 0.03
    }
    bias_filler {
      type: "constant"
      value: 0.2
    }
  }
}
layer {
  name: "inception_4c/relu_5x5"
  type: "ReLU"
  bottom: "inception_4c/5x5"
  top: "inception_4c/5x5"
}
layer {
  name: "inception_4c/pool"
  type: "Pooling"
  bottom: "inception_4b/output"
  top: "inception_4c/pool"
  pooling_param {
    pool: MAX
    kernel_size: 3
    stride: 1
    pad: 1
  }
}
layer {
  name: "inception_4c/pool_proj"
  type: "Convolution"
  bottom: "inception_4c/pool"
  top: "inception_4c/pool_proj"
  param {
    lr_mult: 1
    decay_mult: 1
  }
  param {
    lr_mult: 2
    decay_mult: 0
  }
  convolution_param {
    num_output: 64
    kernel_size: 1
    weight_filler {
      type: "xavier"
      std: 0.1
    }
    bias_filler {
      type: "constant"
      value: 0.2
    }
  }
}
layer {
  name: "inception_4c/relu_pool_proj"
  type: "ReLU"
  bottom: "inception_4c/pool_proj"
  top: "inception_4c/pool_proj"
}
layer {
  name: "inception_4c/output"
  type: "Concat"
  bottom: "inception_4c/1x1"
  bottom: "inception_4c/3x3"
  bottom: "inception_4c/5x5"
  bottom: "inception_4c/pool_proj"
  top: "inception_4c/output"
}
layer {
  name: "inception_4d/1x1"
  type: "Convolution"
  bottom: "inception_4c/output"
  top: "inception_4d/1x1"
  param {
    lr_mult: 1
    decay_mult: 1
  }
  param {
    lr_mult: 2
    decay_mult: 0
  }
  convolution_param {
    num_output: 112
    kernel_size: 1
    weight_filler {
      type: "xavier"
      std: 0.03
    }
    bias_filler {
      type: "constant"
      value: 0.2
    }
  }
}
layer {
  name: "inception_4d/relu_1x1"
  type: "ReLU"
  bottom: "inception_4d/1x1"
  top: "inception_4d/1x1"
}
layer {
  name: "inception_4d/3x3_reduce"
  type: "Convolution"
  bottom: "inception_4c/output"
  top: "inception_4d/3x3_reduce"
  param {
    lr_mult: 1
    decay_mult: 1
  }
  param {
    lr_mult: 2
    decay_mult: 0
  }
  convolution_param {
    num_output: 144
    kernel_size: 1
    weight_filler {
      type: "xavier"
      std: 0.09
    }
    bias_filler {
      type: "constant"
      value: 0.2
    }
  }
}
layer {
  name: "inception_4d/relu_3x3_reduce"
  type: "ReLU"
  bottom: "inception_4d/3x3_reduce"
  top: "inception_4d/3x3_reduce"
}
layer {
  name: "inception_4d/3x3"
  type: "Convolution"
  bottom: "inception_4d/3x3_reduce"
  top: "inception_4d/3x3"
  param {
    lr_mult: 1
    decay_mult: 1
  }
  param {
    lr_mult: 2
    decay_mult: 0
  }
  convolution_param {
    num_output: 288
    pad: 1
    kernel_size: 3
    weight_filler {
      type: "xavier"
      std: 0.03
    }
    bias_filler {
      type: "constant"
      value: 0.2
    }
  }
}
layer {
  name: "inception_4d/relu_3x3"
  type: "ReLU"
  bottom: "inception_4d/3x3"
  top: "inception_4d/3x3"
}
layer {
  name: "inception_4d/5x5_reduce"
  type: "Convolution"
  bottom: "inception_4c/output"
  top: "inception_4d/5x5_reduce"
  param {
    lr_mult: 1
    decay_mult: 1
  }
  param {
    lr_mult: 2
    decay_mult: 0
  }
  convolution_param {
    num_output: 32
    kernel_size: 1
    weight_filler {
      type: "xavier"
      std: 0.2
    }
    bias_filler {
      type: "constant"
      value: 0.2
    }
  }
}
layer {
  name: "inception_4d/relu_5x5_reduce"
  type: "ReLU"
  bottom: "inception_4d/5x5_reduce"
  top: "inception_4d/5x5_reduce"
}
layer {
  name: "inception_4d/5x5"
  type: "Convolution"
  bottom: "inception_4d/5x5_reduce"
  top: "inception_4d/5x5"
  param {
    lr_mult: 1
    decay_mult: 1
  }
  param {
    lr_mult: 2
    decay_mult: 0
  }
  convolution_param {
    num_output: 64
    pad: 2
    kernel_size: 5
    weight_filler {
      type: "xavier"
      std: 0.03
    }
    bias_filler {
      type: "constant"
      value: 0.2
    }
  }
}
layer {
  name: "inception_4d/relu_5x5"
  type: "ReLU"
  bottom: "inception_4d/5x5"
  top: "inception_4d/5x5"
}
layer {
  name: "inception_4d/pool"
  type: "Pooling"
  bottom: "inception_4c/output"
  top: "inception_4d/pool"
  pooling_param {
    pool: MAX
    kernel_size: 3
    stride: 1
    pad: 1
  }
}
layer {
  name: "inception_4d/pool_proj"
  type: "Convolution"
  bottom: "inception_4d/pool"
  top: "inception_4d/pool_proj"
  param {
    lr_mult: 1
    decay_mult: 1
  }
  param {
    lr_mult: 2
    decay_mult: 0
  }
  convolution_param {
    num_output: 64
    kernel_size: 1
    weight_filler {
      type: "xavier"
      std: 0.1
    }
    bias_filler {
      type: "constant"
      value: 0.2
    }
  }
}
layer {
  name: "inception_4d/relu_pool_proj"
  type: "ReLU"
  bottom: "inception_4d/pool_proj"
  top: "inception_4d/pool_proj"
}
layer {
  name: "inception_4d/output"
  type: "Concat"
  bottom: "inception_4d/1x1"
  bottom: "inception_4d/3x3"
  bottom: "inception_4d/5x5"
  bottom: "inception_4d/pool_proj"
  top: "inception_4d/output"
}
layer {
  name: "loss2/ave_pool"
  type: "Pooling"
  bottom: "inception_4d/output"
  top: "loss2/ave_pool"
  pooling_param {
    pool: AVE
    kernel_size: 5
    stride: 3
  }
}
layer {
  name: "loss2/conv"
  type: "Convolution"
  bottom: "loss2/ave_pool"
  top: "loss2/conv"
  param {
    lr_mult: 1
    decay_mult: 1
  }
  param {
    lr_mult: 2
    decay_mult: 0
  }
  convolution_param {
    num_output: 128
    kernel_size: 1
    weight_filler {
      type: "xavier"
      std: 0.08
    }
    bias_filler {
      type: "constant"
      value: 0.2
    }
  }
}
layer {
  name: "loss2/relu_conv"
  type: "ReLU"
  bottom: "loss2/conv"
  top: "loss2/conv"
}
layer {
  name: "loss2/fc"
  type: "InnerProduct"
  bottom: "loss2/conv"
  top: "loss2/fc"
  param {
    lr_mult: 1
    decay_mult: 1
  }
  param {
    lr_mult: 2
    decay_mult: 0
  }
  inner_product_param {
    num_output: 1024
    weight_filler {
      type: "xavier"
      std: 0.02
    }
    bias_filler {
      type: "constant"
      value: 0.2
    }
  }
}
layer {
  name: "loss2/relu_fc"
  type: "ReLU"
  bottom: "loss2/fc"
  top: "loss2/fc"
}
layer {
  name: "loss2/drop_fc"
  type: "Dropout"
  bottom: "loss2/fc"
  top: "loss2/fc"
  dropout_param {
    dropout_ratio: 0.7
  }
}
layer {
  name: "loss2/classifier_plantvillage"
  type: "InnerProduct"
  bottom: "loss2/fc"
  top: "loss2/classifier_plantvillage"
  param {
    lr_mult: 1
    decay_mult: 1
  }
  param {
    lr_mult: 2
    decay_mult: 0
  }
  inner_product_param {
    num_output: 38
    weight_filler {
      type: "xavier"
      std: 0.0009765625
    }
    bias_filler {
      type: "constant"
      value: 0
    }
  }
}
layer {
  name: "inception_4e/1x1"
  type: "Convolution"
  bottom: "inception_4d/output"
  top: "inception_4e/1x1"
  param {
    lr_mult: 1
    decay_mult: 1
  }
  param {
    lr_mult: 2
    decay_mult: 0
  }
  convolution_param {
    num_output: 256
    kernel_size: 1
    weight_filler {
      type: "xavier"
      std: 0.03
    }
    bias_filler {
      type: "constant"
      value: 0.2
    }
  }
}
layer {
  name: "inception_4e/relu_1x1"
  type: "ReLU"
  bottom: "inception_4e/1x1"
  top: "inception_4e/1x1"
}
layer {
  name: "inception_4e/3x3_reduce"
  type: "Convolution"
  bottom: "inception_4d/output"
  top: "inception_4e/3x3_reduce"
  param {
    lr_mult: 1
    decay_mult: 1
  }
  param {
    lr_mult: 2
    decay_mult: 0
  }
  convolution_param {
    num_output: 160
    kernel_size: 1
    weight_filler {
      type: "xavier"
      std: 0.09
    }
    bias_filler {
      type: "constant"
      value: 0.2
    }
  }
}
layer {
  name: "inception_4e/relu_3x3_reduce"
  type: "ReLU"
  bottom: "inception_4e/3x3_reduce"
  top: "inception_4e/3x3_reduce"
}
layer {
  name: "inception_4e/3x3"
  type: "Convolution"
  bottom: "inception_4e/3x3_reduce"
  top: "inception_4e/3x3"
  param {
    lr_mult: 1
    decay_mult: 1
  }
  param {
    lr_mult: 2
    decay_mult: 0
  }
  convolution_param {
    num_output: 320
    pad: 1
    kernel_size: 3
    weight_filler {
      type: "xavier"
      std: 0.03
    }
    bias_filler {
      type: "constant"
      value: 0.2
    }
  }
}
layer {
  name: "inception_4e/relu_3x3"
  type: "ReLU"
  bottom: "inception_4e/3x3"
  top: "inception_4e/3x3"
}
layer {
  name: "inception_4e/5x5_reduce"
  type: "Convolution"
  bottom: "inception_4d/output"
  top: "inception_4e/5x5_reduce"
  param {
    lr_mult: 1
    decay_mult: 1
  }
  param {
    lr_mult: 2
    decay_mult: 0
  }
  convolution_param {
    num_output: 32
    kernel_size: 1
    weight_filler {
      type: "xavier"
      std: 0.2
    }
    bias_filler {
      type: "constant"
      value: 0.2
    }
  }
}
layer {
  name: "inception_4e/relu_5x5_reduce"
  type: "ReLU"
  bottom: "inception_4e/5x5_reduce"
  top: "inception_4e/5x5_reduce"
}
layer {
  name: "inception_4e/5x5"
  type: "Convolution"
  bottom: "inception_4e/5x5_reduce"
  top: "inception_4e/5x5"
  p
I0403 16:28:19.427299 18357 layer_factory.hpp:77] Creating layer data
I0403 16:28:19.428020 18357 net.cpp:91] Creating Layer data
I0403 16:28:19.428059 18357 net.cpp:399] data -> data
I0403 16:28:19.428120 18357 net.cpp:399] data -> label
I0403 16:28:19.428165 18357 data_transformer.cpp:25] Loading mean file from: /home/mohanty/data/final_dataset/lmdb/color-20-80/mean.binaryproto
I0403 16:28:19.429539 18359 db_lmdb.cpp:38] Opened lmdb /home/mohanty/data/final_dataset/lmdb/color-20-80/test_db
I0403 16:28:19.443922 18357 data_layer.cpp:41] output data size: 24,3,224,224
I0403 16:28:19.476027 18357 net.cpp:141] Setting up data
I0403 16:28:19.476119 18357 net.cpp:148] Top shape: 24 3 224 224 (3612672)
I0403 16:28:19.476146 18357 net.cpp:148] Top shape: 24 (24)
I0403 16:28:19.476163 18357 net.cpp:156] Memory required for data: 14450784
I0403 16:28:19.476197 18357 layer_factory.hpp:77] Creating layer label_data_1_split
I0403 16:28:19.476230 18357 net.cpp:91] Creating Layer label_data_1_split
I0403 16:28:19.476253 18357 net.cpp:425] label_data_1_split <- label
I0403 16:28:19.476292 18357 net.cpp:399] label_data_1_split -> label_data_1_split_0
I0403 16:28:19.476326 18357 net.cpp:399] label_data_1_split -> label_data_1_split_1
I0403 16:28:19.476353 18357 net.cpp:399] label_data_1_split -> label_data_1_split_2
I0403 16:28:19.476380 18357 net.cpp:399] label_data_1_split -> label_data_1_split_3
I0403 16:28:19.476405 18357 net.cpp:399] label_data_1_split -> label_data_1_split_4
I0403 16:28:19.476430 18357 net.cpp:399] label_data_1_split -> label_data_1_split_5
I0403 16:28:19.476454 18357 net.cpp:399] label_data_1_split -> label_data_1_split_6
I0403 16:28:19.476480 18357 net.cpp:399] label_data_1_split -> label_data_1_split_7
I0403 16:28:19.476505 18357 net.cpp:399] label_data_1_split -> label_data_1_split_8
I0403 16:28:19.476529 18357 net.cpp:399] label_data_1_split -> label_data_1_split_9
I0403 16:28:19.476678 18357 net.cpp:141] Setting up label_data_1_split
I0403 16:28:19.476708 18357 net.cpp:148] Top shape: 24 (24)
I0403 16:28:19.476729 18357 net.cpp:148] Top shape: 24 (24)
I0403 16:28:19.476748 18357 net.cpp:148] Top shape: 24 (24)
I0403 16:28:19.476766 18357 net.cpp:148] Top shape: 24 (24)
I0403 16:28:19.476785 18357 net.cpp:148] Top shape: 24 (24)
I0403 16:28:19.476805 18357 net.cpp:148] Top shape: 24 (24)
I0403 16:28:19.476824 18357 net.cpp:148] Top shape: 24 (24)
I0403 16:28:19.476842 18357 net.cpp:148] Top shape: 24 (24)
I0403 16:28:19.476861 18357 net.cpp:148] Top shape: 24 (24)
I0403 16:28:19.476881 18357 net.cpp:148] Top shape: 24 (24)
I0403 16:28:19.476933 18357 net.cpp:156] Memory required for data: 14451744
I0403 16:28:19.476953 18357 layer_factory.hpp:77] Creating layer conv1/7x7_s2
I0403 16:28:19.476991 18357 net.cpp:91] Creating Layer conv1/7x7_s2
I0403 16:28:19.477013 18357 net.cpp:425] conv1/7x7_s2 <- data
I0403 16:28:19.477037 18357 net.cpp:399] conv1/7x7_s2 -> conv1/7x7_s2
I0403 16:28:19.644366 18357 net.cpp:141] Setting up conv1/7x7_s2
I0403 16:28:19.644453 18357 net.cpp:148] Top shape: 24 64 112 112 (19267584)
I0403 16:28:19.644474 18357 net.cpp:156] Memory required for data: 91522080
I0403 16:28:19.644510 18357 layer_factory.hpp:77] Creating layer conv1/relu_7x7
I0403 16:28:19.644542 18357 net.cpp:91] Creating Layer conv1/relu_7x7
I0403 16:28:19.644605 18357 net.cpp:425] conv1/relu_7x7 <- conv1/7x7_s2
I0403 16:28:19.644635 18357 net.cpp:386] conv1/relu_7x7 -> conv1/7x7_s2 (in-place)
I0403 16:28:19.644948 18357 net.cpp:141] Setting up conv1/relu_7x7
I0403 16:28:19.644980 18357 net.cpp:148] Top shape: 24 64 112 112 (19267584)
I0403 16:28:19.644999 18357 net.cpp:156] Memory required for data: 168592416
I0403 16:28:19.645018 18357 layer_factory.hpp:77] Creating layer pool1/3x3_s2
I0403 16:28:19.645050 18357 net.cpp:91] Creating Layer pool1/3x3_s2
I0403 16:28:19.645072 18357 net.cpp:425] pool1/3x3_s2 <- conv1/7x7_s2
I0403 16:28:19.645094 18357 net.cpp:399] pool1/3x3_s2 -> pool1/3x3_s2
I0403 16:28:19.645184 18357 net.cpp:141] Setting up pool1/3x3_s2
I0403 16:28:19.645215 18357 net.cpp:148] Top shape: 24 64 56 56 (4816896)
I0403 16:28:19.645233 18357 net.cpp:156] Memory required for data: 187860000
I0403 16:28:19.645251 18357 layer_factory.hpp:77] Creating layer pool1/norm1
I0403 16:28:19.645280 18357 net.cpp:91] Creating Layer pool1/norm1
I0403 16:28:19.645303 18357 net.cpp:425] pool1/norm1 <- pool1/3x3_s2
I0403 16:28:19.645324 18357 net.cpp:399] pool1/norm1 -> pool1/norm1
I0403 16:28:19.645680 18357 net.cpp:141] Setting up pool1/norm1
I0403 16:28:19.645714 18357 net.cpp:148] Top shape: 24 64 56 56 (4816896)
I0403 16:28:19.645733 18357 net.cpp:156] Memory required for data: 207127584
I0403 16:28:19.645751 18357 layer_factory.hpp:77] Creating layer conv2/3x3_reduce
I0403 16:28:19.645782 18357 net.cpp:91] Creating Layer conv2/3x3_reduce
I0403 16:28:19.645803 18357 net.cpp:425] conv2/3x3_reduce <- pool1/norm1
I0403 16:28:19.645826 18357 net.cpp:399] conv2/3x3_reduce -> conv2/3x3_reduce
I0403 16:28:19.647460 18357 net.cpp:141] Setting up conv2/3x3_reduce
I0403 16:28:19.647496 18357 net.cpp:148] Top shape: 24 64 56 56 (4816896)
I0403 16:28:19.647516 18357 net.cpp:156] Memory required for data: 226395168
I0403 16:28:19.647542 18357 layer_factory.hpp:77] Creating layer conv2/relu_3x3_reduce
I0403 16:28:19.647564 18357 net.cpp:91] Creating Layer conv2/relu_3x3_reduce
I0403 16:28:19.647583 18357 net.cpp:425] conv2/relu_3x3_reduce <- conv2/3x3_reduce
I0403 16:28:19.647613 18357 net.cpp:386] conv2/relu_3x3_reduce -> conv2/3x3_reduce (in-place)
I0403 16:28:19.647936 18357 net.cpp:141] Setting up conv2/relu_3x3_reduce
I0403 16:28:19.647969 18357 net.cpp:148] Top shape: 24 64 56 56 (4816896)
I0403 16:28:19.647989 18357 net.cpp:156] Memory required for data: 245662752
I0403 16:28:19.648007 18357 layer_factory.hpp:77] Creating layer conv2/3x3
I0403 16:28:19.648036 18357 net.cpp:91] Creating Layer conv2/3x3
I0403 16:28:19.648059 18357 net.cpp:425] conv2/3x3 <- conv2/3x3_reduce
I0403 16:28:19.648087 18357 net.cpp:399] conv2/3x3 -> conv2/3x3
I0403 16:28:19.650923 18357 net.cpp:141] Setting up conv2/3x3
I0403 16:28:19.650959 18357 net.cpp:148] Top shape: 24 192 56 56 (14450688)
I0403 16:28:19.650979 18357 net.cpp:156] Memory required for data: 303465504
I0403 16:28:19.651005 18357 layer_factory.hpp:77] Creating layer conv2/relu_3x3
I0403 16:28:19.651029 18357 net.cpp:91] Creating Layer conv2/relu_3x3
I0403 16:28:19.651048 18357 net.cpp:425] conv2/relu_3x3 <- conv2/3x3
I0403 16:28:19.651072 18357 net.cpp:386] conv2/relu_3x3 -> conv2/3x3 (in-place)
I0403 16:28:19.651281 18357 net.cpp:141] Setting up conv2/relu_3x3
I0403 16:28:19.651314 18357 net.cpp:148] Top shape: 24 192 56 56 (14450688)
I0403 16:28:19.651366 18357 net.cpp:156] Memory required for data: 361268256
I0403 16:28:19.651386 18357 layer_factory.hpp:77] Creating layer conv2/norm2
I0403 16:28:19.651412 18357 net.cpp:91] Creating Layer conv2/norm2
I0403 16:28:19.651433 18357 net.cpp:425] conv2/norm2 <- conv2/3x3
I0403 16:28:19.651458 18357 net.cpp:399] conv2/norm2 -> conv2/norm2
I0403 16:28:19.651828 18357 net.cpp:141] Setting up conv2/norm2
I0403 16:28:19.651866 18357 net.cpp:148] Top shape: 24 192 56 56 (14450688)
I0403 16:28:19.651887 18357 net.cpp:156] Memory required for data: 419071008
I0403 16:28:19.651906 18357 layer_factory.hpp:77] Creating layer pool2/3x3_s2
I0403 16:28:19.651927 18357 net.cpp:91] Creating Layer pool2/3x3_s2
I0403 16:28:19.651947 18357 net.cpp:425] pool2/3x3_s2 <- conv2/norm2
I0403 16:28:19.651971 18357 net.cpp:399] pool2/3x3_s2 -> pool2/3x3_s2
I0403 16:28:19.652036 18357 net.cpp:141] Setting up pool2/3x3_s2
I0403 16:28:19.652065 18357 net.cpp:148] Top shape: 24 192 28 28 (3612672)
I0403 16:28:19.652082 18357 net.cpp:156] Memory required for data: 433521696
I0403 16:28:19.652101 18357 layer_factory.hpp:77] Creating layer pool2/3x3_s2_pool2/3x3_s2_0_split
I0403 16:28:19.652124 18357 net.cpp:91] Creating Layer pool2/3x3_s2_pool2/3x3_s2_0_split
I0403 16:28:19.652144 18357 net.cpp:425] pool2/3x3_s2_pool2/3x3_s2_0_split <- pool2/3x3_s2
I0403 16:28:19.652165 18357 net.cpp:399] pool2/3x3_s2_pool2/3x3_s2_0_split -> pool2/3x3_s2_pool2/3x3_s2_0_split_0
I0403 16:28:19.652189 18357 net.cpp:399] pool2/3x3_s2_pool2/3x3_s2_0_split -> pool2/3x3_s2_pool2/3x3_s2_0_split_1
I0403 16:28:19.652216 18357 net.cpp:399] pool2/3x3_s2_pool2/3x3_s2_0_split -> pool2/3x3_s2_pool2/3x3_s2_0_split_2
I0403 16:28:19.652243 18357 net.cpp:399] pool2/3x3_s2_pool2/3x3_s2_0_split -> pool2/3x3_s2_pool2/3x3_s2_0_split_3
I0403 16:28:19.652326 18357 net.cpp:141] Setting up pool2/3x3_s2_pool2/3x3_s2_0_split
I0403 16:28:19.652354 18357 net.cpp:148] Top shape: 24 192 28 28 (3612672)
I0403 16:28:19.652374 18357 net.cpp:148] Top shape: 24 192 28 28 (3612672)
I0403 16:28:19.652392 18357 net.cpp:148] Top shape: 24 192 28 28 (3612672)
I0403 16:28:19.652412 18357 net.cpp:148] Top shape: 24 192 28 28 (3612672)
I0403 16:28:19.652428 18357 net.cpp:156] Memory required for data: 491324448
I0403 16:28:19.652446 18357 layer_factory.hpp:77] Creating layer inception_3a/1x1
I0403 16:28:19.652472 18357 net.cpp:91] Creating Layer inception_3a/1x1
I0403 16:28:19.652493 18357 net.cpp:425] inception_3a/1x1 <- pool2/3x3_s2_pool2/3x3_s2_0_split_0
I0403 16:28:19.652518 18357 net.cpp:399] inception_3a/1x1 -> inception_3a/1x1
I0403 16:28:19.654373 18357 net.cpp:141] Setting up inception_3a/1x1
I0403 16:28:19.654412 18357 net.cpp:148] Top shape: 24 64 28 28 (1204224)
I0403 16:28:19.654434 18357 net.cpp:156] Memory required for data: 496141344
I0403 16:28:19.654458 18357 layer_factory.hpp:77] Creating layer inception_3a/relu_1x1
I0403 16:28:19.654482 18357 net.cpp:91] Creating Layer inception_3a/relu_1x1
I0403 16:28:19.654502 18357 net.cpp:425] inception_3a/relu_1x1 <- inception_3a/1x1
I0403 16:28:19.654526 18357 net.cpp:386] inception_3a/relu_1x1 -> inception_3a/1x1 (in-place)
I0403 16:28:19.654736 18357 net.cpp:141] Setting up inception_3a/relu_1x1
I0403 16:28:19.654769 18357 net.cpp:148] Top shape: 24 64 28 28 (1204224)
I0403 16:28:19.654788 18357 net.cpp:156] Memory required for data: 500958240
I0403 16:28:19.654806 18357 layer_factory.hpp:77] Creating layer inception_3a/3x3_reduce
I0403 16:28:19.654834 18357 net.cpp:91] Creating Layer inception_3a/3x3_reduce
I0403 16:28:19.654855 18357 net.cpp:425] inception_3a/3x3_reduce <- pool2/3x3_s2_pool2/3x3_s2_0_split_1
I0403 16:28:19.654881 18357 net.cpp:399] inception_3a/3x3_reduce -> inception_3a/3x3_reduce
I0403 16:28:19.656915 18357 net.cpp:141] Setting up inception_3a/3x3_reduce
I0403 16:28:19.656952 18357 net.cpp:148] Top shape: 24 96 28 28 (1806336)
I0403 16:28:19.656972 18357 net.cpp:156] Memory required for data: 508183584
I0403 16:28:19.656998 18357 layer_factory.hpp:77] Creating layer inception_3a/relu_3x3_reduce
I0403 16:28:19.657043 18357 net.cpp:91] Creating Layer inception_3a/relu_3x3_reduce
I0403 16:28:19.657066 18357 net.cpp:425] inception_3a/relu_3x3_reduce <- inception_3a/3x3_reduce
I0403 16:28:19.657132 18357 net.cpp:386] inception_3a/relu_3x3_reduce -> inception_3a/3x3_reduce (in-place)
I0403 16:28:19.657352 18357 net.cpp:141] Setting up inception_3a/relu_3x3_reduce
I0403 16:28:19.657387 18357 net.cpp:148] Top shape: 24 96 28 28 (1806336)
I0403 16:28:19.657407 18357 net.cpp:156] Memory required for data: 515408928
I0403 16:28:19.657424 18357 layer_factory.hpp:77] Creating layer inception_3a/3x3
I0403 16:28:19.657452 18357 net.cpp:91] Creating Layer inception_3a/3x3
I0403 16:28:19.657474 18357 net.cpp:425] inception_3a/3x3 <- inception_3a/3x3_reduce
I0403 16:28:19.657497 18357 net.cpp:399] inception_3a/3x3 -> inception_3a/3x3
I0403 16:28:19.659559 18357 net.cpp:141] Setting up inception_3a/3x3
I0403 16:28:19.659595 18357 net.cpp:148] Top shape: 24 128 28 28 (2408448)
I0403 16:28:19.659622 18357 net.cpp:156] Memory required for data: 525042720
I0403 16:28:19.659646 18357 layer_factory.hpp:77] Creating layer inception_3a/relu_3x3
I0403 16:28:19.659669 18357 net.cpp:91] Creating Layer inception_3a/relu_3x3
I0403 16:28:19.659690 18357 net.cpp:425] inception_3a/relu_3x3 <- inception_3a/3x3
I0403 16:28:19.659713 18357 net.cpp:386] inception_3a/relu_3x3 -> inception_3a/3x3 (in-place)
I0403 16:28:19.660043 18357 net.cpp:141] Setting up inception_3a/relu_3x3
I0403 16:28:19.660076 18357 net.cpp:148] Top shape: 24 128 28 28 (2408448)
I0403 16:28:19.660095 18357 net.cpp:156] Memory required for data: 534676512
I0403 16:28:19.660114 18357 layer_factory.hpp:77] Creating layer inception_3a/5x5_reduce
I0403 16:28:19.660140 18357 net.cpp:91] Creating Layer inception_3a/5x5_reduce
I0403 16:28:19.660161 18357 net.cpp:425] inception_3a/5x5_reduce <- pool2/3x3_s2_pool2/3x3_s2_0_split_2
I0403 16:28:19.660188 18357 net.cpp:399] inception_3a/5x5_reduce -> inception_3a/5x5_reduce
I0403 16:28:19.661339 18357 net.cpp:141] Setting up inception_3a/5x5_reduce
I0403 16:28:19.661373 18357 net.cpp:148] Top shape: 24 16 28 28 (301056)
I0403 16:28:19.661393 18357 net.cpp:156] Memory required for data: 535880736
I0403 16:28:19.661415 18357 layer_factory.hpp:77] Creating layer inception_3a/relu_5x5_reduce
I0403 16:28:19.661439 18357 net.cpp:91] Creating Layer inception_3a/relu_5x5_reduce
I0403 16:28:19.661460 18357 net.cpp:425] inception_3a/relu_5x5_reduce <- inception_3a/5x5_reduce
I0403 16:28:19.661483 18357 net.cpp:386] inception_3a/relu_5x5_reduce -> inception_3a/5x5_reduce (in-place)
I0403 16:28:19.661840 18357 net.cpp:141] Setting up inception_3a/relu_5x5_reduce
I0403 16:28:19.661872 18357 net.cpp:148] Top shape: 24 16 28 28 (301056)
I0403 16:28:19.661891 18357 net.cpp:156] Memory required for data: 537084960
I0403 16:28:19.661909 18357 layer_factory.hpp:77] Creating layer inception_3a/5x5
I0403 16:28:19.661936 18357 net.cpp:91] Creating Layer inception_3a/5x5
I0403 16:28:19.661958 18357 net.cpp:425] inception_3a/5x5 <- inception_3a/5x5_reduce
I0403 16:28:19.661984 18357 net.cpp:399] inception_3a/5x5 -> inception_3a/5x5
I0403 16:28:19.663203 18357 net.cpp:141] Setting up inception_3a/5x5
I0403 16:28:19.663236 18357 net.cpp:148] Top shape: 24 32 28 28 (602112)
I0403 16:28:19.663255 18357 net.cpp:156] Memory required for data: 539493408
I0403 16:28:19.663278 18357 layer_factory.hpp:77] Creating layer inception_3a/relu_5x5
I0403 16:28:19.663300 18357 net.cpp:91] Creating Layer inception_3a/relu_5x5
I0403 16:28:19.663321 18357 net.cpp:425] inception_3a/relu_5x5 <- inception_3a/5x5
I0403 16:28:19.663344 18357 net.cpp:386] inception_3a/relu_5x5 -> inception_3a/5x5 (in-place)
I0403 16:28:19.663555 18357 net.cpp:141] Setting up inception_3a/relu_5x5
I0403 16:28:19.663585 18357 net.cpp:148] Top shape: 24 32 28 28 (602112)
I0403 16:28:19.663609 18357 net.cpp:156] Memory required for data: 541901856
I0403 16:28:19.663628 18357 layer_factory.hpp:77] Creating layer inception_3a/pool
I0403 16:28:19.663653 18357 net.cpp:91] Creating Layer inception_3a/pool
I0403 16:28:19.663674 18357 net.cpp:425] inception_3a/pool <- pool2/3x3_s2_pool2/3x3_s2_0_split_3
I0403 16:28:19.663714 18357 net.cpp:399] inception_3a/pool -> inception_3a/pool
I0403 16:28:19.663786 18357 net.cpp:141] Setting up inception_3a/pool
I0403 16:28:19.663815 18357 net.cpp:148] Top shape: 24 192 28 28 (3612672)
I0403 16:28:19.663833 18357 net.cpp:156] Memory required for data: 556352544
I0403 16:28:19.663852 18357 layer_factory.hpp:77] Creating layer inception_3a/pool_proj
I0403 16:28:19.663878 18357 net.cpp:91] Creating Layer inception_3a/pool_proj
I0403 16:28:19.663899 18357 net.cpp:425] inception_3a/pool_proj <- inception_3a/pool
I0403 16:28:19.663926 18357 net.cpp:399] inception_3a/pool_proj -> inception_3a/pool_proj
I0403 16:28:19.665066 18357 net.cpp:141] Setting up inception_3a/pool_proj
I0403 16:28:19.665102 18357 net.cpp:148] Top shape: 24 32 28 28 (602112)
I0403 16:28:19.665122 18357 net.cpp:156] Memory required for data: 558760992
I0403 16:28:19.665148 18357 layer_factory.hpp:77] Creating layer inception_3a/relu_pool_proj
I0403 16:28:19.665174 18357 net.cpp:91] Creating Layer inception_3a/relu_pool_proj
I0403 16:28:19.665196 18357 net.cpp:425] inception_3a/relu_pool_proj <- inception_3a/pool_proj
I0403 16:28:19.665217 18357 net.cpp:386] inception_3a/relu_pool_proj -> inception_3a/pool_proj (in-place)
I0403 16:28:19.665541 18357 net.cpp:141] Setting up inception_3a/relu_pool_proj
I0403 16:28:19.665575 18357 net.cpp:148] Top shape: 24 32 28 28 (602112)
I0403 16:28:19.665593 18357 net.cpp:156] Memory required for data: 561169440
I0403 16:28:19.665627 18357 layer_factory.hpp:77] Creating layer inception_3a/output
I0403 16:28:19.665652 18357 net.cpp:91] Creating Layer inception_3a/output
I0403 16:28:19.665670 18357 net.cpp:425] inception_3a/output <- inception_3a/1x1
I0403 16:28:19.665691 18357 net.cpp:425] inception_3a/output <- inception_3a/3x3
I0403 16:28:19.665710 18357 net.cpp:425] inception_3a/output <- inception_3a/5x5
I0403 16:28:19.665730 18357 net.cpp:425] inception_3a/output <- inception_3a/pool_proj
I0403 16:28:19.665756 18357 net.cpp:399] inception_3a/output -> inception_3a/output
I0403 16:28:19.665813 18357 net.cpp:141] Setting up inception_3a/output
I0403 16:28:19.665845 18357 net.cpp:148] Top shape: 24 256 28 28 (4816896)
I0403 16:28:19.665865 18357 net.cpp:156] Memory required for data: 580437024
I0403 16:28:19.665884 18357 layer_factory.hpp:77] Creating layer inception_3a/output_inception_3a/output_0_split
I0403 16:28:19.665904 18357 net.cpp:91] Creating Layer inception_3a/output_inception_3a/output_0_split
I0403 16:28:19.665923 18357 net.cpp:425] inception_3a/output_inception_3a/output_0_split <- inception_3a/output
I0403 16:28:19.665946 18357 net.cpp:399] inception_3a/output_inception_3a/output_0_split -> inception_3a/output_inception_3a/output_0_split_0
I0403 16:28:19.665972 18357 net.cpp:399] inception_3a/output_inception_3a/output_0_split -> inception_3a/output_inception_3a/output_0_split_1
I0403 16:28:19.666000 18357 net.cpp:399] inception_3a/output_inception_3a/output_0_split -> inception_3a/output_inception_3a/output_0_split_2
I0403 16:28:19.666026 18357 net.cpp:399] inception_3a/output_inception_3a/output_0_split -> inception_3a/output_inception_3a/output_0_split_3
I0403 16:28:19.666116 18357 net.cpp:141] Setting up inception_3a/output_inception_3a/output_0_split
I0403 16:28:19.666143 18357 net.cpp:148] Top shape: 24 256 28 28 (4816896)
I0403 16:28:19.666164 18357 net.cpp:148] Top shape: 24 256 28 28 (4816896)
I0403 16:28:19.666184 18357 net.cpp:148] Top shape: 24 256 28 28 (4816896)
I0403 16:28:19.666203 18357 net.cpp:148] Top shape: 24 256 28 28 (4816896)
I0403 16:28:19.666219 18357 net.cpp:156] Memory required for data: 657507360
I0403 16:28:19.666236 18357 layer_factory.hpp:77] Creating layer inception_3b/1x1
I0403 16:28:19.666265 18357 net.cpp:91] Creating Layer inception_3b/1x1
I0403 16:28:19.666285 18357 net.cpp:425] inception_3b/1x1 <- inception_3a/output_inception_3a/output_0_split_0
I0403 16:28:19.666311 18357 net.cpp:399] inception_3b/1x1 -> inception_3b/1x1
I0403 16:28:19.667673 18357 net.cpp:141] Setting up inception_3b/1x1
I0403 16:28:19.667726 18357 net.cpp:148] Top shape: 24 128 28 28 (2408448)
I0403 16:28:19.667747 18357 net.cpp:156] Memory required for data: 667141152
I0403 16:28:19.667771 18357 layer_factory.hpp:77] Creating layer inception_3b/relu_1x1
I0403 16:28:19.667793 18357 net.cpp:91] Creating Layer inception_3b/relu_1x1
I0403 16:28:19.667814 18357 net.cpp:425] inception_3b/relu_1x1 <- inception_3b/1x1
I0403 16:28:19.667839 18357 net.cpp:386] inception_3b/relu_1x1 -> inception_3b/1x1 (in-place)
I0403 16:28:19.668051 18357 net.cpp:141] Setting up inception_3b/relu_1x1
I0403 16:28:19.668083 18357 net.cpp:148] Top shape: 24 128 28 28 (2408448)
I0403 16:28:19.668102 18357 net.cpp:156] Memory required for data: 676774944
I0403 16:28:19.668119 18357 layer_factory.hpp:77] Creating layer inception_3b/3x3_reduce
I0403 16:28:19.668146 18357 net.cpp:91] Creating Layer inception_3b/3x3_reduce
I0403 16:28:19.668167 18357 net.cpp:425] inception_3b/3x3_reduce <- inception_3a/output_inception_3a/output_0_split_1
I0403 16:28:19.668193 18357 net.cpp:399] inception_3b/3x3_reduce -> inception_3b/3x3_reduce
I0403 16:28:19.669549 18357 net.cpp:141] Setting up inception_3b/3x3_reduce
I0403 16:28:19.669586 18357 net.cpp:148] Top shape: 24 128 28 28 (2408448)
I0403 16:28:19.669612 18357 net.cpp:156] Memory required for data: 686408736
I0403 16:28:19.669637 18357 layer_factory.hpp:77] Creating layer inception_3b/relu_3x3_reduce
I0403 16:28:19.669661 18357 net.cpp:91] Creating Layer inception_3b/relu_3x3_reduce
I0403 16:28:19.669679 18357 net.cpp:425] inception_3b/relu_3x3_reduce <- inception_3b/3x3_reduce
I0403 16:28:19.669704 18357 net.cpp:386] inception_3b/relu_3x3_reduce -> inception_3b/3x3_reduce (in-place)
I0403 16:28:19.669915 18357 net.cpp:141] Setting up inception_3b/relu_3x3_reduce
I0403 16:28:19.669946 18357 net.cpp:148] Top shape: 24 128 28 28 (2408448)
I0403 16:28:19.669965 18357 net.cpp:156] Memory required for data: 696042528
I0403 16:28:19.669984 18357 layer_factory.hpp:77] Creating layer inception_3b/3x3
I0403 16:28:19.670016 18357 net.cpp:91] Creating Layer inception_3b/3x3
I0403 16:28:19.670037 18357 net.cpp:425] inception_3b/3x3 <- inception_3b/3x3_reduce
I0403 16:28:19.670060 18357 net.cpp:399] inception_3b/3x3 -> inception_3b/3x3
I0403 16:28:19.673571 18357 net.cpp:141] Setting up inception_3b/3x3
I0403 16:28:19.673612 18357 net.cpp:148] Top shape: 24 192 28 28 (3612672)
I0403 16:28:19.673634 18357 net.cpp:156] Memory required for data: 710493216
I0403 16:28:19.673656 18357 layer_factory.hpp:77] Creating layer inception_3b/relu_3x3
I0403 16:28:19.673682 18357 net.cpp:91] Creating Layer inception_3b/relu_3x3
I0403 16:28:19.673703 18357 net.cpp:425] inception_3b/relu_3x3 <- inception_3b/3x3
I0403 16:28:19.673724 18357 net.cpp:386] inception_3b/relu_3x3 -> inception_3b/3x3 (in-place)
I0403 16:28:19.674052 18357 net.cpp:141] Setting up inception_3b/relu_3x3
I0403 16:28:19.674084 18357 net.cpp:148] Top shape: 24 192 28 28 (3612672)
I0403 16:28:19.674103 18357 net.cpp:156] Memory required for data: 724943904
I0403 16:28:19.674119 18357 layer_factory.hpp:77] Creating layer inception_3b/5x5_reduce
I0403 16:28:19.674149 18357 net.cpp:91] Creating Layer inception_3b/5x5_reduce
I0403 16:28:19.674171 18357 net.cpp:425] inception_3b/5x5_reduce <- inception_3a/output_inception_3a/output_0_split_2
I0403 16:28:19.674198 18357 net.cpp:399] inception_3b/5x5_reduce -> inception_3b/5x5_reduce
I0403 16:28:19.675403 18357 net.cpp:141] Setting up inception_3b/5x5_reduce
I0403 16:28:19.675438 18357 net.cpp:148] Top shape: 24 32 28 28 (602112)
I0403 16:28:19.675457 18357 net.cpp:156] Memory required for data: 727352352
I0403 16:28:19.675479 18357 layer_factory.hpp:77] Creating layer inception_3b/relu_5x5_reduce
I0403 16:28:19.675504 18357 net.cpp:91] Creating Layer inception_3b/relu_5x5_reduce
I0403 16:28:19.675525 18357 net.cpp:425] inception_3b/relu_5x5_reduce <- inception_3b/5x5_reduce
I0403 16:28:19.675549 18357 net.cpp:386] inception_3b/relu_5x5_reduce -> inception_3b/5x5_reduce (in-place)
I0403 16:28:19.675763 18357 net.cpp:141] Setting up inception_3b/relu_5x5_reduce
I0403 16:28:19.675811 18357 net.cpp:148] Top shape: 24 32 28 28 (602112)
I0403 16:28:19.675830 18357 net.cpp:156] Memory required for data: 729760800
I0403 16:28:19.675848 18357 layer_factory.hpp:77] Creating layer inception_3b/5x5
I0403 16:28:19.675875 18357 net.cpp:91] Creating Layer inception_3b/5x5
I0403 16:28:19.675899 18357 net.cpp:425] inception_3b/5x5 <- inception_3b/5x5_reduce
I0403 16:28:19.675925 18357 net.cpp:399] inception_3b/5x5 -> inception_3b/5x5
I0403 16:28:19.678282 18357 net.cpp:141] Setting up inception_3b/5x5
I0403 16:28:19.678320 18357 net.cpp:148] Top shape: 24 96 28 28 (1806336)
I0403 16:28:19.678340 18357 net.cpp:156] Memory required for data: 736986144
I0403 16:28:19.678364 18357 layer_factory.hpp:77] Creating layer inception_3b/relu_5x5
I0403 16:28:19.678388 18357 net.cpp:91] Creating Layer inception_3b/relu_5x5
I0403 16:28:19.678408 18357 net.cpp:425] inception_3b/relu_5x5 <- inception_3b/5x5
I0403 16:28:19.678432 18357 net.cpp:386] inception_3b/relu_5x5 -> inception_3b/5x5 (in-place)
I0403 16:28:19.678668 18357 net.cpp:141] Setting up inception_3b/relu_5x5
I0403 16:28:19.678699 18357 net.cpp:148] Top shape: 24 96 28 28 (1806336)
I0403 16:28:19.678716 18357 net.cpp:156] Memory required for data: 744211488
I0403 16:28:19.678735 18357 layer_factory.hpp:77] Creating layer inception_3b/pool
I0403 16:28:19.678757 18357 net.cpp:91] Creating Layer inception_3b/pool
I0403 16:28:19.678776 18357 net.cpp:425] inception_3b/pool <- inception_3a/output_inception_3a/output_0_split_3
I0403 16:28:19.678798 18357 net.cpp:399] inception_3b/pool -> inception_3b/pool
I0403 16:28:19.678867 18357 net.cpp:141] Setting up inception_3b/pool
I0403 16:28:19.678895 18357 net.cpp:148] Top shape: 24 256 28 28 (4816896)
I0403 16:28:19.678915 18357 net.cpp:156] Memory required for data: 763479072
I0403 16:28:19.678932 18357 layer_factory.hpp:77] Creating layer inception_3b/pool_proj
I0403 16:28:19.678961 18357 net.cpp:91] Creating Layer inception_3b/pool_proj
I0403 16:28:19.678982 18357 net.cpp:425] inception_3b/pool_proj <- inception_3b/pool
I0403 16:28:19.679005 18357 net.cpp:399] inception_3b/pool_proj -> inception_3b/pool_proj
I0403 16:28:19.680268 18357 net.cpp:141] Setting up inception_3b/pool_proj
I0403 16:28:19.680301 18357 net.cpp:148] Top shape: 24 64 28 28 (1204224)
I0403 16:28:19.680321 18357 net.cpp:156] Memory required for data: 768295968
I0403 16:28:19.680343 18357 layer_factory.hpp:77] Creating layer inception_3b/relu_pool_proj
I0403 16:28:19.680369 18357 net.cpp:91] Creating Layer inception_3b/relu_pool_proj
I0403 16:28:19.680390 18357 net.cpp:425] inception_3b/relu_pool_proj <- inception_3b/pool_proj
I0403 16:28:19.680413 18357 net.cpp:386] inception_3b/relu_pool_proj -> inception_3b/pool_proj (in-place)
I0403 16:28:19.680878 18357 net.cpp:141] Setting up inception_3b/relu_pool_proj
I0403 16:28:19.680912 18357 net.cpp:148] Top shape: 24 64 28 28 (1204224)
I0403 16:28:19.680929 18357 net.cpp:156] Memory required for data: 773112864
I0403 16:28:19.680948 18357 layer_factory.hpp:77] Creating layer inception_3b/output
I0403 16:28:19.680970 18357 net.cpp:91] Creating Layer inception_3b/output
I0403 16:28:19.680990 18357 net.cpp:425] inception_3b/output <- inception_3b/1x1
I0403 16:28:19.681011 18357 net.cpp:425] inception_3b/output <- inception_3b/3x3
I0403 16:28:19.681031 18357 net.cpp:425] inception_3b/output <- inception_3b/5x5
I0403 16:28:19.681051 18357 net.cpp:425] inception_3b/output <- inception_3b/pool_proj
I0403 16:28:19.681072 18357 net.cpp:399] inception_3b/output -> inception_3b/output
I0403 16:28:19.681128 18357 net.cpp:141] Setting up inception_3b/output
I0403 16:28:19.681155 18357 net.cpp:148] Top shape: 24 480 28 28 (9031680)
I0403 16:28:19.681174 18357 net.cpp:156] Memory required for data: 809239584
I0403 16:28:19.681192 18357 layer_factory.hpp:77] Creating layer pool3/3x3_s2
I0403 16:28:19.681215 18357 net.cpp:91] Creating Layer pool3/3x3_s2
I0403 16:28:19.681233 18357 net.cpp:425] pool3/3x3_s2 <- inception_3b/output
I0403 16:28:19.681258 18357 net.cpp:399] pool3/3x3_s2 -> pool3/3x3_s2
I0403 16:28:19.681344 18357 net.cpp:141] Setting up pool3/3x3_s2
I0403 16:28:19.681376 18357 net.cpp:148] Top shape: 24 480 14 14 (2257920)
I0403 16:28:19.681394 18357 net.cpp:156] Memory required for data: 818271264
I0403 16:28:19.681412 18357 layer_factory.hpp:77] Creating layer pool3/3x3_s2_pool3/3x3_s2_0_split
I0403 16:28:19.681433 18357 net.cpp:91] Creating Layer pool3/3x3_s2_pool3/3x3_s2_0_split
I0403 16:28:19.681452 18357 net.cpp:425] pool3/3x3_s2_pool3/3x3_s2_0_split <- pool3/3x3_s2
I0403 16:28:19.681471 18357 net.cpp:399] pool3/3x3_s2_pool3/3x3_s2_0_split -> pool3/3x3_s2_pool3/3x3_s2_0_split_0
I0403 16:28:19.681495 18357 net.cpp:399] pool3/3x3_s2_pool3/3x3_s2_0_split -> pool3/3x3_s2_pool3/3x3_s2_0_split_1
I0403 16:28:19.681522 18357 net.cpp:399] pool3/3x3_s2_pool3/3x3_s2_0_split -> pool3/3x3_s2_pool3/3x3_s2_0_split_2
I0403 16:28:19.681546 18357 net.cpp:399] pool3/3x3_s2_pool3/3x3_s2_0_split -> pool3/3x3_s2_pool3/3x3_s2_0_split_3
I0403 16:28:19.681648 18357 net.cpp:141] Setting up pool3/3x3_s2_pool3/3x3_s2_0_split
I0403 16:28:19.681677 18357 net.cpp:148] Top shape: 24 480 14 14 (2257920)
I0403 16:28:19.681697 18357 net.cpp:148] Top shape: 24 480 14 14 (2257920)
I0403 16:28:19.681715 18357 net.cpp:148] Top shape: 24 480 14 14 (2257920)
I0403 16:28:19.681735 18357 net.cpp:148] Top shape: 24 480 14 14 (2257920)
I0403 16:28:19.681751 18357 net.cpp:156] Memory required for data: 854397984
I0403 16:28:19.681771 18357 layer_factory.hpp:77] Creating layer inception_4a/1x1
I0403 16:28:19.681797 18357 net.cpp:91] Creating Layer inception_4a/1x1
I0403 16:28:19.681819 18357 net.cpp:425] inception_4a/1x1 <- pool3/3x3_s2_pool3/3x3_s2_0_split_0
I0403 16:28:19.681845 18357 net.cpp:399] inception_4a/1x1 -> inception_4a/1x1
I0403 16:28:19.683753 18357 net.cpp:141] Setting up inception_4a/1x1
I0403 16:28:19.683789 18357 net.cpp:148] Top shape: 24 192 14 14 (903168)
I0403 16:28:19.683807 18357 net.cpp:156] Memory required for data: 858010656
I0403 16:28:19.683830 18357 layer_factory.hpp:77] Creating layer inception_4a/relu_1x1
I0403 16:28:19.683854 18357 net.cpp:91] Creating Layer inception_4a/relu_1x1
I0403 16:28:19.683876 18357 net.cpp:425] inception_4a/relu_1x1 <- inception_4a/1x1
I0403 16:28:19.683897 18357 net.cpp:386] inception_4a/relu_1x1 -> inception_4a/1x1 (in-place)
I0403 16:28:19.684106 18357 net.cpp:141] Setting up inception_4a/relu_1x1
I0403 16:28:19.684137 18357 net.cpp:148] Top shape: 24 192 14 14 (903168)
I0403 16:28:19.684156 18357 net.cpp:156] Memory required for data: 861623328
I0403 16:28:19.684175 18357 layer_factory.hpp:77] Creating layer inception_4a/3x3_reduce
I0403 16:28:19.684202 18357 net.cpp:91] Creating Layer inception_4a/3x3_reduce
I0403 16:28:19.684223 18357 net.cpp:425] inception_4a/3x3_reduce <- pool3/3x3_s2_pool3/3x3_s2_0_split_1
I0403 16:28:19.684250 18357 net.cpp:399] inception_4a/3x3_reduce -> inception_4a/3x3_reduce
I0403 16:28:19.685793 18357 net.cpp:141] Setting up inception_4a/3x3_reduce
I0403 16:28:19.685830 18357 net.cpp:148] Top shape: 24 96 14 14 (451584)
I0403 16:28:19.685853 18357 net.cpp:156] Memory required for data: 863429664
I0403 16:28:19.685879 18357 layer_factory.hpp:77] Creating layer inception_4a/relu_3x3_reduce
I0403 16:28:19.685905 18357 net.cpp:91] Creating Layer inception_4a/relu_3x3_reduce
I0403 16:28:19.685926 18357 net.cpp:425] inception_4a/relu_3x3_reduce <- inception_4a/3x3_reduce
I0403 16:28:19.685948 18357 net.cpp:386] inception_4a/relu_3x3_reduce -> inception_4a/3x3_reduce (in-place)
I0403 16:28:19.686158 18357 net.cpp:141] Setting up inception_4a/relu_3x3_reduce
I0403 16:28:19.686192 18357 net.cpp:148] Top shape: 24 96 14 14 (451584)
I0403 16:28:19.686213 18357 net.cpp:156] Memory required for data: 865236000
I0403 16:28:19.686230 18357 layer_factory.hpp:77] Creating layer inception_4a/3x3
I0403 16:28:19.686256 18357 net.cpp:91] Creating Layer inception_4a/3x3
I0403 16:28:19.686280 18357 net.cpp:425] inception_4a/3x3 <- inception_4a/3x3_reduce
I0403 16:28:19.686303 18357 net.cpp:399] inception_4a/3x3 -> inception_4a/3x3
I0403 16:28:19.689513 18357 net.cpp:141] Setting up inception_4a/3x3
I0403 16:28:19.689551 18357 net.cpp:148] Top shape: 24 208 14 14 (978432)
I0403 16:28:19.689573 18357 net.cpp:156] Memory required for data: 869149728
I0403 16:28:19.689595 18357 layer_factory.hpp:77] Creating layer inception_4a/relu_3x3
I0403 16:28:19.689623 18357 net.cpp:91] Creating Layer inception_4a/relu_3x3
I0403 16:28:19.689643 18357 net.cpp:425] inception_4a/relu_3x3 <- inception_4a/3x3
I0403 16:28:19.689669 18357 net.cpp:386] inception_4a/relu_3x3 -> inception_4a/3x3 (in-place)
I0403 16:28:19.690011 18357 net.cpp:141] Setting up inception_4a/relu_3x3
I0403 16:28:19.690045 18357 net.cpp:148] Top shape: 24 208 14 14 (978432)
I0403 16:28:19.690064 18357 net.cpp:156] Memory required for data: 873063456
I0403 16:28:19.690083 18357 layer_factory.hpp:77] Creating layer inception_4a/5x5_reduce
I0403 16:28:19.690111 18357 net.cpp:91] Creating Layer inception_4a/5x5_reduce
I0403 16:28:19.690132 18357 net.cpp:425] inception_4a/5x5_reduce <- pool3/3x3_s2_pool3/3x3_s2_0_split_2
I0403 16:28:19.690157 18357 net.cpp:399] inception_4a/5x5_reduce -> inception_4a/5x5_reduce
I0403 16:28:19.691390 18357 net.cpp:141] Setting up inception_4a/5x5_reduce
I0403 16:28:19.691424 18357 net.cpp:148] Top shape: 24 16 14 14 (75264)
I0403 16:28:19.691443 18357 net.cpp:156] Memory required for data: 873364512
I0403 16:28:19.691467 18357 layer_factory.hpp:77] Creating layer inception_4a/relu_5x5_reduce
I0403 16:28:19.691488 18357 net.cpp:91] Creating Layer inception_4a/relu_5x5_reduce
I0403 16:28:19.691509 18357 net.cpp:425] inception_4a/relu_5x5_reduce <- inception_4a/5x5_reduce
I0403 16:28:19.691534 18357 net.cpp:386] inception_4a/relu_5x5_reduce -> inception_4a/5x5_reduce (in-place)
I0403 16:28:19.691756 18357 net.cpp:141] Setting up inception_4a/relu_5x5_reduce
I0403 16:28:19.691787 18357 net.cpp:148] Top shape: 24 16 14 14 (75264)
I0403 16:28:19.691807 18357 net.cpp:156] Memory required for data: 873665568
I0403 16:28:19.691824 18357 layer_factory.hpp:77] Creating layer inception_4a/5x5
I0403 16:28:19.691851 18357 net.cpp:91] Creating Layer inception_4a/5x5
I0403 16:28:19.691874 18357 net.cpp:425] inception_4a/5x5 <- inception_4a/5x5_reduce
I0403 16:28:19.691900 18357 net.cpp:399] inception_4a/5x5 -> inception_4a/5x5
I0403 16:28:19.693215 18357 net.cpp:141] Setting up inception_4a/5x5
I0403 16:28:19.693250 18357 net.cpp:148] Top shape: 24 48 14 14 (225792)
I0403 16:28:19.693269 18357 net.cpp:156] Memory required for data: 874568736
I0403 16:28:19.693291 18357 layer_factory.hpp:77] Creating layer inception_4a/relu_5x5
I0403 16:28:19.693316 18357 net.cpp:91] Creating Layer inception_4a/relu_5x5
I0403 16:28:19.693338 18357 net.cpp:425] inception_4a/relu_5x5 <- inception_4a/5x5
I0403 16:28:19.693361 18357 net.cpp:386] inception_4a/relu_5x5 -> inception_4a/5x5 (in-place)
I0403 16:28:19.693579 18357 net.cpp:141] Setting up inception_4a/relu_5x5
I0403 16:28:19.693617 18357 net.cpp:148] Top shape: 24 48 14 14 (225792)
I0403 16:28:19.693639 18357 net.cpp:156] Memory required for data: 875471904
I0403 16:28:19.693657 18357 layer_factory.hpp:77] Creating layer inception_4a/pool
I0403 16:28:19.693680 18357 net.cpp:91] Creating Layer inception_4a/pool
I0403 16:28:19.693698 18357 net.cpp:425] inception_4a/pool <- pool3/3x3_s2_pool3/3x3_s2_0_split_3
I0403 16:28:19.693722 18357 net.cpp:399] inception_4a/pool -> inception_4a/pool
I0403 16:28:19.693796 18357 net.cpp:141] Setting up inception_4a/pool
I0403 16:28:19.693826 18357 net.cpp:148] Top shape: 24 480 14 14 (2257920)
I0403 16:28:19.693845 18357 net.cpp:156] Memory required for data: 884503584
I0403 16:28:19.693862 18357 layer_factory.hpp:77] Creating layer inception_4a/pool_proj
I0403 16:28:19.693891 18357 net.cpp:91] Creating Layer inception_4a/pool_proj
I0403 16:28:19.693912 18357 net.cpp:425] inception_4a/pool_proj <- inception_4a/pool
I0403 16:28:19.693938 18357 net.cpp:399] inception_4a/pool_proj -> inception_4a/pool_proj
I0403 16:28:19.695341 18357 net.cpp:141] Setting up inception_4a/pool_proj
I0403 16:28:19.695375 18357 net.cpp:148] Top shape: 24 64 14 14 (301056)
I0403 16:28:19.695416 18357 net.cpp:156] Memory required for data: 885707808
I0403 16:28:19.695441 18357 layer_factory.hpp:77] Creating layer inception_4a/relu_pool_proj
I0403 16:28:19.695463 18357 net.cpp:91] Creating Layer inception_4a/relu_pool_proj
I0403 16:28:19.695483 18357 net.cpp:425] inception_4a/relu_pool_proj <- inception_4a/pool_proj
I0403 16:28:19.695505 18357 net.cpp:386] inception_4a/relu_pool_proj -> inception_4a/pool_proj (in-place)
I0403 16:28:19.695854 18357 net.cpp:141] Setting up inception_4a/relu_pool_proj
I0403 16:28:19.695888 18357 net.cpp:148] Top shape: 24 64 14 14 (301056)
I0403 16:28:19.695911 18357 net.cpp:156] Memory required for data: 886912032
I0403 16:28:19.695931 18357 layer_factory.hpp:77] Creating layer inception_4a/output
I0403 16:28:19.695952 18357 net.cpp:91] Creating Layer inception_4a/output
I0403 16:28:19.695971 18357 net.cpp:425] inception_4a/output <- inception_4a/1x1
I0403 16:28:19.695991 18357 net.cpp:425] inception_4a/output <- inception_4a/3x3
I0403 16:28:19.696012 18357 net.cpp:425] inception_4a/output <- inception_4a/5x5
I0403 16:28:19.696032 18357 net.cpp:425] inception_4a/output <- inception_4a/pool_proj
I0403 16:28:19.696053 18357 net.cpp:399] inception_4a/output -> inception_4a/output
I0403 16:28:19.696110 18357 net.cpp:141] Setting up inception_4a/output
I0403 16:28:19.696140 18357 net.cpp:148] Top shape: 24 512 14 14 (2408448)
I0403 16:28:19.696157 18357 net.cpp:156] Memory required for data: 896545824
I0403 16:28:19.696177 18357 layer_factory.hpp:77] Creating layer inception_4a/output_inception_4a/output_0_split
I0403 16:28:19.696198 18357 net.cpp:91] Creating Layer inception_4a/output_inception_4a/output_0_split
I0403 16:28:19.696221 18357 net.cpp:425] inception_4a/output_inception_4a/output_0_split <- inception_4a/output
I0403 16:28:19.696244 18357 net.cpp:399] inception_4a/output_inception_4a/output_0_split -> inception_4a/output_inception_4a/output_0_split_0
I0403 16:28:19.696269 18357 net.cpp:399] inception_4a/output_inception_4a/output_0_split -> inception_4a/output_inception_4a/output_0_split_1
I0403 16:28:19.696295 18357 net.cpp:399] inception_4a/output_inception_4a/output_0_split -> inception_4a/output_inception_4a/output_0_split_2
I0403 16:28:19.696321 18357 net.cpp:399] inception_4a/output_inception_4a/output_0_split -> inception_4a/output_inception_4a/output_0_split_3
I0403 16:28:19.696346 18357 net.cpp:399] inception_4a/output_inception_4a/output_0_split -> inception_4a/output_inception_4a/output_0_split_4
I0403 16:28:19.696460 18357 net.cpp:141] Setting up inception_4a/output_inception_4a/output_0_split
I0403 16:28:19.696488 18357 net.cpp:148] Top shape: 24 512 14 14 (2408448)
I0403 16:28:19.696508 18357 net.cpp:148] Top shape: 24 512 14 14 (2408448)
I0403 16:28:19.696527 18357 net.cpp:148] Top shape: 24 512 14 14 (2408448)
I0403 16:28:19.696547 18357 net.cpp:148] Top shape: 24 512 14 14 (2408448)
I0403 16:28:19.696566 18357 net.cpp:148] Top shape: 24 512 14 14 (2408448)
I0403 16:28:19.696584 18357 net.cpp:156] Memory required for data: 944714784
I0403 16:28:19.696660 18357 layer_factory.hpp:77] Creating layer loss1/ave_pool
I0403 16:28:19.696689 18357 net.cpp:91] Creating Layer loss1/ave_pool
I0403 16:28:19.696710 18357 net.cpp:425] loss1/ave_pool <- inception_4a/output_inception_4a/output_0_split_0
I0403 16:28:19.696737 18357 net.cpp:399] loss1/ave_pool -> loss1/ave_pool
I0403 16:28:19.696990 18357 net.cpp:141] Setting up loss1/ave_pool
I0403 16:28:19.697024 18357 net.cpp:148] Top shape: 24 512 4 4 (196608)
I0403 16:28:19.697044 18357 net.cpp:156] Memory required for data: 945501216
I0403 16:28:19.697062 18357 layer_factory.hpp:77] Creating layer loss1/conv
I0403 16:28:19.697087 18357 net.cpp:91] Creating Layer loss1/conv
I0403 16:28:19.697108 18357 net.cpp:425] loss1/conv <- loss1/ave_pool
I0403 16:28:19.697136 18357 net.cpp:399] loss1/conv -> loss1/conv
I0403 16:28:19.698848 18357 net.cpp:141] Setting up loss1/conv
I0403 16:28:19.698885 18357 net.cpp:148] Top shape: 24 128 4 4 (49152)
I0403 16:28:19.698906 18357 net.cpp:156] Memory required for data: 945697824
I0403 16:28:19.698946 18357 layer_factory.hpp:77] Creating layer loss1/relu_conv
I0403 16:28:19.698971 18357 net.cpp:91] Creating Layer loss1/relu_conv
I0403 16:28:19.698992 18357 net.cpp:425] loss1/relu_conv <- loss1/conv
I0403 16:28:19.699017 18357 net.cpp:386] loss1/relu_conv -> loss1/conv (in-place)
I0403 16:28:19.699355 18357 net.cpp:141] Setting up loss1/relu_conv
I0403 16:28:19.699391 18357 net.cpp:148] Top shape: 24 128 4 4 (49152)
I0403 16:28:19.699410 18357 net.cpp:156] Memory required for data: 945894432
I0403 16:28:19.699429 18357 layer_factory.hpp:77] Creating layer loss1/fc
I0403 16:28:19.699457 18357 net.cpp:91] Creating Layer loss1/fc
I0403 16:28:19.699479 18357 net.cpp:425] loss1/fc <- loss1/conv
I0403 16:28:19.699506 18357 net.cpp:399] loss1/fc -> loss1/fc
I0403 16:28:19.721309 18357 net.cpp:141] Setting up loss1/fc
I0403 16:28:19.721349 18357 net.cpp:148] Top shape: 24 1024 (24576)
I0403 16:28:19.721369 18357 net.cpp:156] Memory required for data: 945992736
I0403 16:28:19.721391 18357 layer_factory.hpp:77] Creating layer loss1/relu_fc
I0403 16:28:19.721416 18357 net.cpp:91] Creating Layer loss1/relu_fc
I0403 16:28:19.721438 18357 net.cpp:425] loss1/relu_fc <- loss1/fc
I0403 16:28:19.721460 18357 net.cpp:386] loss1/relu_fc -> loss1/fc (in-place)
I0403 16:28:19.721691 18357 net.cpp:141] Setting up loss1/relu_fc
I0403 16:28:19.721721 18357 net.cpp:148] Top shape: 24 1024 (24576)
I0403 16:28:19.721740 18357 net.cpp:156] Memory required for data: 946091040
I0403 16:28:19.721760 18357 layer_factory.hpp:77] Creating layer loss1/drop_fc
I0403 16:28:19.721791 18357 net.cpp:91] Creating Layer loss1/drop_fc
I0403 16:28:19.721814 18357 net.cpp:425] loss1/drop_fc <- loss1/fc
I0403 16:28:19.721842 18357 net.cpp:386] loss1/drop_fc -> loss1/fc (in-place)
I0403 16:28:19.721904 18357 net.cpp:141] Setting up loss1/drop_fc
I0403 16:28:19.721933 18357 net.cpp:148] Top shape: 24 1024 (24576)
I0403 16:28:19.721951 18357 net.cpp:156] Memory required for data: 946189344
I0403 16:28:19.721968 18357 layer_factory.hpp:77] Creating layer loss1/classifier_plantvillage
I0403 16:28:19.721995 18357 net.cpp:91] Creating Layer loss1/classifier_plantvillage
I0403 16:28:19.722018 18357 net.cpp:425] loss1/classifier_plantvillage <- loss1/fc
I0403 16:28:19.722040 18357 net.cpp:399] loss1/classifier_plantvillage -> loss1/classifier_plantvillage
I0403 16:28:19.723126 18357 net.cpp:141] Setting up loss1/classifier_plantvillage
I0403 16:28:19.723163 18357 net.cpp:148] Top shape: 24 38 (912)
I0403 16:28:19.723184 18357 net.cpp:156] Memory required for data: 946192992
I0403 16:28:19.723206 18357 layer_factory.hpp:77] Creating layer loss1/classifier_plantvillage_loss1/classifier_plantvillage_0_split
I0403 16:28:19.723229 18357 net.cpp:91] Creating Layer loss1/classifier_plantvillage_loss1/classifier_plantvillage_0_split
I0403 16:28:19.723248 18357 net.cpp:425] loss1/classifier_plantvillage_loss1/classifier_plantvillage_0_split <- loss1/classifier_plantvillage
I0403 16:28:19.723270 18357 net.cpp:399] loss1/classifier_plantvillage_loss1/classifier_plantvillage_0_split -> loss1/classifier_plantvillage_loss1/classifier_plantvillage_0_split_0
I0403 16:28:19.723300 18357 net.cpp:399] loss1/classifier_plantvillage_loss1/classifier_plantvillage_0_split -> loss1/classifier_plantvillage_loss1/classifier_plantvillage_0_split_1
I0403 16:28:19.723326 18357 net.cpp:399] loss1/classifier_plantvillage_loss1/classifier_plantvillage_0_split -> loss1/classifier_plantvillage_loss1/classifier_plantvillage_0_split_2
I0403 16:28:19.723408 18357 net.cpp:141] Setting up loss1/classifier_plantvillage_loss1/classifier_plantvillage_0_split
I0403 16:28:19.723436 18357 net.cpp:148] Top shape: 24 38 (912)
I0403 16:28:19.723456 18357 net.cpp:148] Top shape: 24 38 (912)
I0403 16:28:19.723474 18357 net.cpp:148] Top shape: 24 38 (912)
I0403 16:28:19.723491 18357 net.cpp:156] Memory required for data: 946203936
I0403 16:28:19.723510 18357 layer_factory.hpp:77] Creating layer inception_4b/1x1
I0403 16:28:19.723537 18357 net.cpp:91] Creating Layer inception_4b/1x1
I0403 16:28:19.723578 18357 net.cpp:425] inception_4b/1x1 <- inception_4a/output_inception_4a/output_0_split_1
I0403 16:28:19.723608 18357 net.cpp:399] inception_4b/1x1 -> inception_4b/1x1
I0403 16:28:19.725594 18357 net.cpp:141] Setting up inception_4b/1x1
I0403 16:28:19.725641 18357 net.cpp:148] Top shape: 24 160 14 14 (752640)
I0403 16:28:19.725662 18357 net.cpp:156] Memory required for data: 949214496
I0403 16:28:19.725685 18357 layer_factory.hpp:77] Creating layer inception_4b/relu_1x1
I0403 16:28:19.725708 18357 net.cpp:91] Creating Layer inception_4b/relu_1x1
I0403 16:28:19.725728 18357 net.cpp:425] inception_4b/relu_1x1 <- inception_4b/1x1
I0403 16:28:19.725752 18357 net.cpp:386] inception_4b/relu_1x1 -> inception_4b/1x1 (in-place)
I0403 16:28:19.725973 18357 net.cpp:141] Setting up inception_4b/relu_1x1
I0403 16:28:19.726004 18357 net.cpp:148] Top shape: 24 160 14 14 (752640)
I0403 16:28:19.726022 18357 net.cpp:156] Memory required for data: 952225056
I0403 16:28:19.726040 18357 layer_factory.hpp:77] Creating layer inception_4b/3x3_reduce
I0403 16:28:19.726069 18357 net.cpp:91] Creating Layer inception_4b/3x3_reduce
I0403 16:28:19.726092 18357 net.cpp:425] inception_4b/3x3_reduce <- inception_4a/output_inception_4a/output_0_split_2
I0403 16:28:19.726119 18357 net.cpp:399] inception_4b/3x3_reduce -> inception_4b/3x3_reduce
I0403 16:28:19.727771 18357 net.cpp:141] Setting up inception_4b/3x3_reduce
I0403 16:28:19.727805 18357 net.cpp:148] Top shape: 24 112 14 14 (526848)
I0403 16:28:19.727824 18357 net.cpp:156] Memory required for data: 954332448
I0403 16:28:19.727849 18357 layer_factory.hpp:77] Creating layer inception_4b/relu_3x3_reduce
I0403 16:28:19.727872 18357 net.cpp:91] Creating Layer inception_4b/relu_3x3_reduce
I0403 16:28:19.727895 18357 net.cpp:425] inception_4b/relu_3x3_reduce <- inception_4b/3x3_reduce
I0403 16:28:19.727915 18357 net.cpp:386] inception_4b/relu_3x3_reduce -> inception_4b/3x3_reduce (in-place)
I0403 16:28:19.728255 18357 net.cpp:141] Setting up inception_4b/relu_3x3_reduce
I0403 16:28:19.728286 18357 net.cpp:148] Top shape: 24 112 14 14 (526848)
I0403 16:28:19.728307 18357 net.cpp:156] Memory required for data: 956439840
I0403 16:28:19.728325 18357 layer_factory.hpp:77] Creating layer inception_4b/3x3
I0403 16:28:19.728353 18357 net.cpp:91] Creating Layer inception_4b/3x3
I0403 16:28:19.728374 18357 net.cpp:425] inception_4b/3x3 <- inception_4b/3x3_reduce
I0403 16:28:19.728400 18357 net.cpp:399] inception_4b/3x3 -> inception_4b/3x3
I0403 16:28:19.731997 18357 net.cpp:141] Setting up inception_4b/3x3
I0403 16:28:19.732034 18357 net.cpp:148] Top shape: 24 224 14 14 (1053696)
I0403 16:28:19.732054 18357 net.cpp:156] Memory required for data: 960654624
I0403 16:28:19.732076 18357 layer_factory.hpp:77] Creating layer inception_4b/relu_3x3
I0403 16:28:19.732101 18357 net.cpp:91] Creating Layer inception_4b/relu_3x3
I0403 16:28:19.732122 18357 net.cpp:425] inception_4b/relu_3x3 <- inception_4b/3x3
I0403 16:28:19.732144 18357 net.cpp:386] inception_4b/relu_3x3 -> inception_4b/3x3 (in-place)
I0403 16:28:19.732370 18357 net.cpp:141] Setting up inception_4b/relu_3x3
I0403 16:28:19.732401 18357 net.cpp:148] Top shape: 24 224 14 14 (1053696)
I0403 16:28:19.732419 18357 net.cpp:156] Memory required for data: 964869408
I0403 16:28:19.732436 18357 layer_factory.hpp:77] Creating layer inception_4b/5x5_reduce
I0403 16:28:19.732463 18357 net.cpp:91] Creating Layer inception_4b/5x5_reduce
I0403 16:28:19.732486 18357 net.cpp:425] inception_4b/5x5_reduce <- inception_4a/output_inception_4a/output_0_split_3
I0403 16:28:19.732513 18357 net.cpp:399] inception_4b/5x5_reduce -> inception_4b/5x5_reduce
I0403 16:28:19.733836 18357 net.cpp:141] Setting up inception_4b/5x5_reduce
I0403 16:28:19.733871 18357 net.cpp:148] Top shape: 24 24 14 14 (112896)
I0403 16:28:19.733891 18357 net.cpp:156] Memory required for data: 965320992
I0403 16:28:19.733911 18357 layer_factory.hpp:77] Creating layer inception_4b/relu_5x5_reduce
I0403 16:28:19.733934 18357 net.cpp:91] Creating Layer inception_4b/relu_5x5_reduce
I0403 16:28:19.733973 18357 net.cpp:425] inception_4b/relu_5x5_reduce <- inception_4b/5x5_reduce
I0403 16:28:19.733999 18357 net.cpp:386] inception_4b/relu_5x5_reduce -> inception_4b/5x5_reduce (in-place)
I0403 16:28:19.734223 18357 net.cpp:141] Setting up inception_4b/relu_5x5_reduce
I0403 16:28:19.734254 18357 net.cpp:148] Top shape: 24 24 14 14 (112896)
I0403 16:28:19.734272 18357 net.cpp:156] Memory required for data: 965772576
I0403 16:28:19.734292 18357 layer_factory.hpp:77] Creating layer inception_4b/5x5
I0403 16:28:19.734318 18357 net.cpp:91] Creating Layer inception_4b/5x5
I0403 16:28:19.734340 18357 net.cpp:425] inception_4b/5x5 <- inception_4b/5x5_reduce
I0403 16:28:19.734366 18357 net.cpp:399] inception_4b/5x5 -> inception_4b/5x5
I0403 16:28:19.735885 18357 net.cpp:141] Setting up inception_4b/5x5
I0403 16:28:19.735919 18357 net.cpp:148] Top shape: 24 64 14 14 (301056)
I0403 16:28:19.735939 18357 net.cpp:156] Memory required for data: 966976800
I0403 16:28:19.735961 18357 layer_factory.hpp:77] Creating layer inception_4b/relu_5x5
I0403 16:28:19.735983 18357 net.cpp:91] Creating Layer inception_4b/relu_5x5
I0403 16:28:19.736006 18357 net.cpp:425] inception_4b/relu_5x5 <- inception_4b/5x5
I0403 16:28:19.736029 18357 net.cpp:386] inception_4b/relu_5x5 -> inception_4b/5x5 (in-place)
I0403 16:28:19.736378 18357 net.cpp:141] Setting up inception_4b/relu_5x5
I0403 16:28:19.736412 18357 net.cpp:148] Top shape: 24 64 14 14 (301056)
I0403 16:28:19.736430 18357 net.cpp:156] Memory required for data: 968181024
I0403 16:28:19.736449 18357 layer_factory.hpp:77] Creating layer inception_4b/pool
I0403 16:28:19.736472 18357 net.cpp:91] Creating Layer inception_4b/pool
I0403 16:28:19.736492 18357 net.cpp:425] inception_4b/pool <- inception_4a/output_inception_4a/output_0_split_4
I0403 16:28:19.736517 18357 net.cpp:399] inception_4b/pool -> inception_4b/pool
I0403 16:28:19.736595 18357 net.cpp:141] Setting up inception_4b/pool
I0403 16:28:19.736634 18357 net.cpp:148] Top shape: 24 512 14 14 (2408448)
I0403 16:28:19.736654 18357 net.cpp:156] Memory required for data: 977814816
I0403 16:28:19.736671 18357 layer_factory.hpp:77] Creating layer inception_4b/pool_proj
I0403 16:28:19.736698 18357 net.cpp:91] Creating Layer inception_4b/pool_proj
I0403 16:28:19.736721 18357 net.cpp:425] inception_4b/pool_proj <- inception_4b/pool
I0403 16:28:19.736742 18357 net.cpp:399] inception_4b/pool_proj -> inception_4b/pool_proj
I0403 16:28:19.738214 18357 net.cpp:141] Setting up inception_4b/pool_proj
I0403 16:28:19.738250 18357 net.cpp:148] Top shape: 24 64 14 14 (301056)
I0403 16:28:19.738268 18357 net.cpp:156] Memory required for data: 979019040
I0403 16:28:19.738291 18357 layer_factory.hpp:77] Creating layer inception_4b/relu_pool_proj
I0403 16:28:19.738317 18357 net.cpp:91] Creating Layer inception_4b/relu_pool_proj
I0403 16:28:19.738337 18357 net.cpp:425] inception_4b/relu_pool_proj <- inception_4b/pool_proj
I0403 16:28:19.738358 18357 net.cpp:386] inception_4b/relu_pool_proj -> inception_4b/pool_proj (in-place)
I0403 16:28:19.738576 18357 net.cpp:141] Setting up inception_4b/relu_pool_proj
I0403 16:28:19.738611 18357 net.cpp:148] Top shape: 24 64 14 14 (301056)
I0403 16:28:19.738632 18357 net.cpp:156] Memory required for data: 980223264
I0403 16:28:19.738651 18357 layer_factory.hpp:77] Creating layer inception_4b/output
I0403 16:28:19.738675 18357 net.cpp:91] Creating Layer inception_4b/output
I0403 16:28:19.738697 18357 net.cpp:425] inception_4b/output <- inception_4b/1x1
I0403 16:28:19.738718 18357 net.cpp:425] inception_4b/output <- inception_4b/3x3
I0403 16:28:19.738737 18357 net.cpp:425] inception_4b/output <- inception_4b/5x5
I0403 16:28:19.738757 18357 net.cpp:425] inception_4b/output <- inception_4b/pool_proj
I0403 16:28:19.738780 18357 net.cpp:399] inception_4b/output -> inception_4b/output
I0403 16:28:19.738838 18357 net.cpp:141] Setting up inception_4b/output
I0403 16:28:19.738867 18357 net.cpp:148] Top shape: 24 512 14 14 (2408448)
I0403 16:28:19.738885 18357 net.cpp:156] Memory required for data: 989857056
I0403 16:28:19.738921 18357 layer_factory.hpp:77] Creating layer inception_4b/output_inception_4b/output_0_split
I0403 16:28:19.738945 18357 net.cpp:91] Creating Layer inception_4b/output_inception_4b/output_0_split
I0403 16:28:19.738965 18357 net.cpp:425] inception_4b/output_inception_4b/output_0_split <- inception_4b/output
I0403 16:28:19.738989 18357 net.cpp:399] inception_4b/output_inception_4b/output_0_split -> inception_4b/output_inception_4b/output_0_split_0
I0403 16:28:19.739015 18357 net.cpp:399] inception_4b/output_inception_4b/output_0_split -> inception_4b/output_inception_4b/output_0_split_1
I0403 16:28:19.739040 18357 net.cpp:399] inception_4b/output_inception_4b/output_0_split -> inception_4b/output_inception_4b/output_0_split_2
I0403 16:28:19.739065 18357 net.cpp:399] inception_4b/output_inception_4b/output_0_split -> inception_4b/output_inception_4b/output_0_split_3
I0403 16:28:19.739169 18357 net.cpp:141] Setting up inception_4b/output_inception_4b/output_0_split
I0403 16:28:19.739202 18357 net.cpp:148] Top shape: 24 512 14 14 (2408448)
I0403 16:28:19.739223 18357 net.cpp:148] Top shape: 24 512 14 14 (2408448)
I0403 16:28:19.739243 18357 net.cpp:148] Top shape: 24 512 14 14 (2408448)
I0403 16:28:19.739262 18357 net.cpp:148] Top shape: 24 512 14 14 (2408448)
I0403 16:28:19.739279 18357 net.cpp:156] Memory required for data: 1028392224
I0403 16:28:19.739296 18357 layer_factory.hpp:77] Creating layer inception_4c/1x1
I0403 16:28:19.739323 18357 net.cpp:91] Creating Layer inception_4c/1x1
I0403 16:28:19.739346 18357 net.cpp:425] inception_4c/1x1 <- inception_4b/output_inception_4b/output_0_split_0
I0403 16:28:19.739368 18357 net.cpp:399] inception_4c/1x1 -> inception_4c/1x1
I0403 16:28:19.741120 18357 net.cpp:141] Setting up inception_4c/1x1
I0403 16:28:19.741156 18357 net.cpp:148] Top shape: 24 128 14 14 (602112)
I0403 16:28:19.741175 18357 net.cpp:156] Memory required for data: 1030800672
I0403 16:28:19.741199 18357 layer_factory.hpp:77] Creating layer inception_4c/relu_1x1
I0403 16:28:19.741224 18357 net.cpp:91] Creating Layer inception_4c/relu_1x1
I0403 16:28:19.741245 18357 net.cpp:425] inception_4c/relu_1x1 <- inception_4c/1x1
I0403 16:28:19.741266 18357 net.cpp:386] inception_4c/relu_1x1 -> inception_4c/1x1 (in-place)
I0403 16:28:19.741488 18357 net.cpp:141] Setting up inception_4c/relu_1x1
I0403 16:28:19.741521 18357 net.cpp:148] Top shape: 24 128 14 14 (602112)
I0403 16:28:19.741540 18357 net.cpp:156] Memory required for data: 1033209120
I0403 16:28:19.741559 18357 layer_factory.hpp:77] Creating layer inception_4c/3x3_reduce
I0403 16:28:19.741585 18357 net.cpp:91] Creating Layer inception_4c/3x3_reduce
I0403 16:28:19.741612 18357 net.cpp:425] inception_4c/3x3_reduce <- inception_4b/output_inception_4b/output_0_split_1
I0403 16:28:19.741641 18357 net.cpp:399] inception_4c/3x3_reduce -> inception_4c/3x3_reduce
I0403 16:28:19.743974 18357 net.cpp:141] Setting up inception_4c/3x3_reduce
I0403 16:28:19.744010 18357 net.cpp:148] Top shape: 24 128 14 14 (602112)
I0403 16:28:19.744031 18357 net.cpp:156] Memory required for data: 1035617568
I0403 16:28:19.744053 18357 layer_factory.hpp:77] Creating layer inception_4c/relu_3x3_reduce
I0403 16:28:19.744074 18357 net.cpp:91] Creating Layer inception_4c/relu_3x3_reduce
I0403 16:28:19.744094 18357 net.cpp:425] inception_4c/relu_3x3_reduce <- inception_4c/3x3_reduce
I0403 16:28:19.744118 18357 net.cpp:386] inception_4c/relu_3x3_reduce -> inception_4c/3x3_reduce (in-place)
I0403 16:28:19.744468 18357 net.cpp:141] Setting up inception_4c/relu_3x3_reduce
I0403 16:28:19.744501 18357 net.cpp:148] Top shape: 24 128 14 14 (602112)
I0403 16:28:19.744521 18357 net.cpp:156] Memory required for data: 1038026016
I0403 16:28:19.744539 18357 layer_factory.hpp:77] Creating layer inception_4c/3x3
I0403 16:28:19.744568 18357 net.cpp:91] Creating Layer inception_4c/3x3
I0403 16:28:19.744590 18357 net.cpp:425] inception_4c/3x3 <- inception_4c/3x3_reduce
I0403 16:28:19.744622 18357 net.cpp:399] inception_4c/3x3 -> inception_4c/3x3
I0403 16:28:19.748993 18357 net.cpp:141] Setting up inception_4c/3x3
I0403 16:28:19.749043 18357 net.cpp:148] Top shape: 24 256 14 14 (1204224)
I0403 16:28:19.749065 18357 net.cpp:156] Memory required for data: 1042842912
I0403 16:28:19.749104 18357 layer_factory.hpp:77] Creating layer inception_4c/relu_3x3
I0403 16:28:19.749130 18357 net.cpp:91] Creating Layer inception_4c/relu_3x3
I0403 16:28:19.749153 18357 net.cpp:425] inception_4c/relu_3x3 <- inception_4c/3x3
I0403 16:28:19.749176 18357 net.cpp:386] inception_4c/relu_3x3 -> inception_4c/3x3 (in-place)
I0403 16:28:19.749397 18357 net.cpp:141] Setting up inception_4c/relu_3x3
I0403 16:28:19.749428 18357 net.cpp:148] Top shape: 24 256 14 14 (1204224)
I0403 16:28:19.749447 18357 net.cpp:156] Memory required for data: 1047659808
I0403 16:28:19.749465 18357 layer_factory.hpp:77] Creating layer inception_4c/5x5_reduce
I0403 16:28:19.749493 18357 net.cpp:91] Creating Layer inception_4c/5x5_reduce
I0403 16:28:19.749516 18357 net.cpp:425] inception_4c/5x5_reduce <- inception_4b/output_inception_4b/output_0_split_2
I0403 16:28:19.749542 18357 net.cpp:399] inception_4c/5x5_reduce -> inception_4c/5x5_reduce
I0403 16:28:19.750880 18357 net.cpp:141] Setting up inception_4c/5x5_reduce
I0403 16:28:19.750915 18357 net.cpp:148] Top shape: 24 24 14 14 (112896)
I0403 16:28:19.750933 18357 net.cpp:156] Memory required for data: 1048111392
I0403 16:28:19.750957 18357 layer_factory.hpp:77] Creating layer inception_4c/relu_5x5_reduce
I0403 16:28:19.750978 18357 net.cpp:91] Creating Layer inception_4c/relu_5x5_reduce
I0403 16:28:19.750998 18357 net.cpp:425] inception_4c/relu_5x5_reduce <- inception_4c/5x5_reduce
I0403 16:28:19.751021 18357 net.cpp:386] inception_4c/relu_5x5_reduce -> inception_4c/5x5_reduce (in-place)
I0403 16:28:19.751248 18357 net.cpp:141] Setting up inception_4c/relu_5x5_reduce
I0403 16:28:19.751279 18357 net.cpp:148] Top shape: 24 24 14 14 (112896)
I0403 16:28:19.751297 18357 net.cpp:156] Memory required for data: 1048562976
I0403 16:28:19.751315 18357 layer_factory.hpp:77] Creating layer inception_4c/5x5
I0403 16:28:19.751341 18357 net.cpp:91] Creating Layer inception_4c/5x5
I0403 16:28:19.751363 18357 net.cpp:425] inception_4c/5x5 <- inception_4c/5x5_reduce
I0403 16:28:19.751390 18357 net.cpp:399] inception_4c/5x5 -> inception_4c/5x5
I0403 16:28:19.752919 18357 net.cpp:141] Setting up inception_4c/5x5
I0403 16:28:19.752954 18357 net.cpp:148] Top shape: 24 64 14 14 (301056)
I0403 16:28:19.752972 18357 net.cpp:156] Memory required for data: 1049767200
I0403 16:28:19.752995 18357 layer_factory.hpp:77] Creating layer inception_4c/relu_5x5
I0403 16:28:19.753021 18357 net.cpp:91] Creating Layer inception_4c/relu_5x5
I0403 16:28:19.753042 18357 net.cpp:425] inception_4c/relu_5x5 <- inception_4c/5x5
I0403 16:28:19.753063 18357 net.cpp:386] inception_4c/relu_5x5 -> inception_4c/5x5 (in-place)
I0403 16:28:19.753418 18357 net.cpp:141] Setting up inception_4c/relu_5x5
I0403 16:28:19.753451 18357 net.cpp:148] Top shape: 24 64 14 14 (301056)
I0403 16:28:19.753470 18357 net.cpp:156] Memory required for data: 1050971424
I0403 16:28:19.753489 18357 layer_factory.hpp:77] Creating layer inception_4c/pool
I0403 16:28:19.753514 18357 net.cpp:91] Creating Layer inception_4c/pool
I0403 16:28:19.753535 18357 net.cpp:425] inception_4c/pool <- inception_4b/output_inception_4b/output_0_split_3
I0403 16:28:19.753557 18357 net.cpp:399] inception_4c/pool -> inception_4c/pool
I0403 16:28:19.753646 18357 net.cpp:141] Setting up inception_4c/pool
I0403 16:28:19.753676 18357 net.cpp:148] Top shape: 24 512 14 14 (2408448)
I0403 16:28:19.753695 18357 net.cpp:156] Memory required for data: 1060605216
I0403 16:28:19.753712 18357 layer_factory.hpp:77] Creating layer inception_4c/pool_proj
I0403 16:28:19.753739 18357 net.cpp:91] Creating Layer inception_4c/pool_proj
I0403 16:28:19.753761 18357 net.cpp:425] inception_4c/pool_proj <- inception_4c/pool
I0403 16:28:19.753787 18357 net.cpp:399] inception_4c/pool_proj -> inception_4c/pool_proj
I0403 16:28:19.755277 18357 net.cpp:141] Setting up inception_4c/pool_proj
I0403 16:28:19.755312 18357 net.cpp:148] Top shape: 24 64 14 14 (301056)
I0403 16:28:19.755349 18357 net.cpp:156] Memory required for data: 1061809440
I0403 16:28:19.755373 18357 layer_factory.hpp:77] Creating layer inception_4c/relu_pool_proj
I0403 16:28:19.755395 18357 net.cpp:91] Creating Layer inception_4c/relu_pool_proj
I0403 16:28:19.755419 18357 net.cpp:425] inception_4c/relu_pool_proj <- inception_4c/pool_proj
I0403 16:28:19.755441 18357 net.cpp:386] inception_4c/relu_pool_proj -> inception_4c/pool_proj (in-place)
I0403 16:28:19.755681 18357 net.cpp:141] Setting up inception_4c/relu_pool_proj
I0403 16:28:19.755712 18357 net.cpp:148] Top shape: 24 64 14 14 (301056)
I0403 16:28:19.755730 18357 net.cpp:156] Memory required for data: 1063013664
I0403 16:28:19.755748 18357 layer_factory.hpp:77] Creating layer inception_4c/output
I0403 16:28:19.755771 18357 net.cpp:91] Creating Layer inception_4c/output
I0403 16:28:19.755792 18357 net.cpp:425] inception_4c/output <- inception_4c/1x1
I0403 16:28:19.755815 18357 net.cpp:425] inception_4c/output <- inception_4c/3x3
I0403 16:28:19.755836 18357 net.cpp:425] inception_4c/output <- inception_4c/5x5
I0403 16:28:19.755856 18357 net.cpp:425] inception_4c/output <- inception_4c/pool_proj
I0403 16:28:19.755877 18357 net.cpp:399] inception_4c/output -> inception_4c/output
I0403 16:28:19.755936 18357 net.cpp:141] Setting up inception_4c/output
I0403 16:28:19.755966 18357 net.cpp:148] Top shape: 24 512 14 14 (2408448)
I0403 16:28:19.755985 18357 net.cpp:156] Memory required for data: 1072647456
I0403 16:28:19.756003 18357 layer_factory.hpp:77] Creating layer inception_4c/output_inception_4c/output_0_split
I0403 16:28:19.756023 18357 net.cpp:91] Creating Layer inception_4c/output_inception_4c/output_0_split
I0403 16:28:19.756042 18357 net.cpp:425] inception_4c/output_inception_4c/output_0_split <- inception_4c/output
I0403 16:28:19.756067 18357 net.cpp:399] inception_4c/output_inception_4c/output_0_split -> inception_4c/output_inception_4c/output_0_split_0
I0403 16:28:19.756093 18357 net.cpp:399] inception_4c/output_inception_4c/output_0_split -> inception_4c/output_inception_4c/output_0_split_1
I0403 16:28:19.756119 18357 net.cpp:399] inception_4c/output_inception_4c/output_0_split -> inception_4c/output_inception_4c/output_0_split_2
I0403 16:28:19.756145 18357 net.cpp:399] inception_4c/output_inception_4c/output_0_split -> inception_4c/output_inception_4c/output_0_split_3
I0403 16:28:19.756253 18357 net.cpp:141] Setting up inception_4c/output_inception_4c/output_0_split
I0403 16:28:19.756284 18357 net.cpp:148] Top shape: 24 512 14 14 (2408448)
I0403 16:28:19.756305 18357 net.cpp:148] Top shape: 24 512 14 14 (2408448)
I0403 16:28:19.756325 18357 net.cpp:148] Top shape: 24 512 14 14 (2408448)
I0403 16:28:19.756345 18357 net.cpp:148] Top shape: 24 512 14 14 (2408448)
I0403 16:28:19.756361 18357 net.cpp:156] Memory required for data: 1111182624
I0403 16:28:19.756378 18357 layer_factory.hpp:77] Creating layer inception_4d/1x1
I0403 16:28:19.756405 18357 net.cpp:91] Creating Layer inception_4d/1x1
I0403 16:28:19.756427 18357 net.cpp:425] inception_4d/1x1 <- inception_4c/output_inception_4c/output_0_split_0
I0403 16:28:19.756450 18357 net.cpp:399] inception_4d/1x1 -> inception_4d/1x1
I0403 16:28:19.758133 18357 net.cpp:141] Setting up inception_4d/1x1
I0403 16:28:19.758170 18357 net.cpp:148] Top shape: 24 112 14 14 (526848)
I0403 16:28:19.758191 18357 net.cpp:156] Memory required for data: 1113290016
I0403 16:28:19.758215 18357 layer_factory.hpp:77] Creating layer inception_4d/relu_1x1
I0403 16:28:19.758236 18357 net.cpp:91] Creating Layer inception_4d/relu_1x1
I0403 16:28:19.758256 18357 net.cpp:425] inception_4d/relu_1x1 <- inception_4d/1x1
I0403 16:28:19.758280 18357 net.cpp:386] inception_4d/relu_1x1 -> inception_4d/1x1 (in-place)
I0403 16:28:19.758507 18357 net.cpp:141] Setting up inception_4d/relu_1x1
I0403 16:28:19.758538 18357 net.cpp:148] Top shape: 24 112 14 14 (526848)
I0403 16:28:19.758558 18357 net.cpp:156] Memory required for data: 1115397408
I0403 16:28:19.758575 18357 layer_factory.hpp:77] Creating layer inception_4d/3x3_reduce
I0403 16:28:19.758625 18357 net.cpp:91] Creating Layer inception_4d/3x3_reduce
I0403 16:28:19.758651 18357 net.cpp:425] inception_4d/3x3_reduce <- inception_4c/output_inception_4c/output_0_split_1
I0403 16:28:19.758677 18357 net.cpp:399] inception_4d/3x3_reduce -> inception_4d/3x3_reduce
I0403 16:28:19.760514 18357 net.cpp:141] Setting up inception_4d/3x3_reduce
I0403 16:28:19.760550 18357 net.cpp:148] Top shape: 24 144 14 14 (677376)
I0403 16:28:19.760570 18357 net.cpp:156] Memory required for data: 1118106912
I0403 16:28:19.760591 18357 layer_factory.hpp:77] Creating layer inception_4d/relu_3x3_reduce
I0403 16:28:19.760624 18357 net.cpp:91] Creating Layer inception_4d/relu_3x3_reduce
I0403 16:28:19.760648 18357 net.cpp:425] inception_4d/relu_3x3_reduce <- inception_4d/3x3_reduce
I0403 16:28:19.760668 18357 net.cpp:386] inception_4d/relu_3x3_reduce -> inception_4d/3x3_reduce (in-place)
I0403 16:28:19.761018 18357 net.cpp:141] Setting up inception_4d/relu_3x3_reduce
I0403 16:28:19.761050 18357 net.cpp:148] Top shape: 24 144 14 14 (677376)
I0403 16:28:19.761070 18357 net.cpp:156] Memory required for data: 1120816416
I0403 16:28:19.761087 18357 layer_factory.hpp:77] Creating layer inception_4d/3x3
I0403 16:28:19.761114 18357 net.cpp:91] Creating Layer inception_4d/3x3
I0403 16:28:19.761137 18357 net.cpp:425] inception_4d/3x3 <- inception_4d/3x3_reduce
I0403 16:28:19.761164 18357 net.cpp:399] inception_4d/3x3 -> inception_4d/3x3
I0403 16:28:19.766412 18357 net.cpp:141] Setting up inception_4d/3x3
I0403 16:28:19.766451 18357 net.cpp:148] Top shape: 24 288 14 14 (1354752)
I0403 16:28:19.766474 18357 net.cpp:156] Memory required for data: 1126235424
I0403 16:28:19.766495 18357 layer_factory.hpp:77] Creating layer inception_4d/relu_3x3
I0403 16:28:19.766518 18357 net.cpp:91] Creating Layer inception_4d/relu_3x3
I0403 16:28:19.766538 18357 net.cpp:425] inception_4d/relu_3x3 <- inception_4d/3x3
I0403 16:28:19.766564 18357 net.cpp:386] inception_4d/relu_3x3 -> inception_4d/3x3 (in-place)
I0403 16:28:19.766793 18357 net.cpp:141] Setting up inception_4d/relu_3x3
I0403 16:28:19.766824 18357 net.cpp:148] Top shape: 24 288 14 14 (1354752)
I0403 16:28:19.766844 18357 net.cpp:156] Memory required for data: 1131654432
I0403 16:28:19.766861 18357 layer_factory.hpp:77] Creating layer inception_4d/5x5_reduce
I0403 16:28:19.766888 18357 net.cpp:91] Creating Layer inception_4d/5x5_reduce
I0403 16:28:19.766911 18357 net.cpp:425] inception_4d/5x5_reduce <- inception_4c/output_inception_4c/output_0_split_2
I0403 16:28:19.766937 18357 net.cpp:399] inception_4d/5x5_reduce -> inception_4d/5x5_reduce
I0403 16:28:19.768338 18357 net.cpp:141] Setting up inception_4d/5x5_reduce
I0403 16:28:19.768375 18357 net.cpp:148] Top shape: 24 32 14 14 (150528)
I0403 16:28:19.768396 18357 net.cpp:156] Memory required for data: 1132256544
I0403 16:28:19.768419 18357 layer_factory.hpp:77] Creating layer inception_4d/relu_5x5_reduce
I0403 16:28:19.768442 18357 net.cpp:91] Creating Layer inception_4d/relu_5x5_reduce
I0403 16:28:19.768462 18357 net.cpp:425] inception_4d/relu_5x5_reduce <- inception_4d/5x5_reduce
I0403 16:28:19.768486 18357 net.cpp:386] inception_4d/relu_5x5_reduce -> inception_4d/5x5_reduce (in-place)
I0403 16:28:19.768723 18357 net.cpp:141] Setting up inception_4d/relu_5x5_reduce
I0403 16:28:19.768754 18357 net.cpp:148] Top shape: 24 32 14 14 (150528)
I0403 16:28:19.768775 18357 net.cpp:156] Memory required for data: 1132858656
I0403 16:28:19.768793 18357 layer_factory.hpp:77] Creating layer inception_4d/5x5
I0403 16:28:19.768821 18357 net.cpp:91] Creating Layer inception_4d/5x5
I0403 16:28:19.768841 18357 net.cpp:425] inception_4d/5x5 <- inception_4d/5x5_reduce
I0403 16:28:19.768868 18357 net.cpp:399] inception_4d/5x5 -> inception_4d/5x5
I0403 16:28:19.770653 18357 net.cpp:141] Setting up inception_4d/5x5
I0403 16:28:19.770686 18357 net.cpp:148] Top shape: 24 64 14 14 (301056)
I0403 16:28:19.770707 18357 net.cpp:156] Memory required for data: 1134062880
I0403 16:28:19.770730 18357 layer_factory.hpp:77] Creating layer inception_4d/relu_5x5
I0403 16:28:19.770774 18357 net.cpp:91] Creating Layer inception_4d/relu_5x5
I0403 16:28:19.770797 18357 net.cpp:425] inception_4d/relu_5x5 <- inception_4d/5x5
I0403 16:28:19.770819 18357 net.cpp:386] inception_4d/relu_5x5 -> inception_4d/5x5 (in-place)
I0403 16:28:19.771183 18357 net.cpp:141] Setting up inception_4d/relu_5x5
I0403 16:28:19.771216 18357 net.cpp:148] Top shape: 24 64 14 14 (301056)
I0403 16:28:19.771234 18357 net.cpp:156] Memory required for data: 1135267104
I0403 16:28:19.771255 18357 layer_factory.hpp:77] Creating layer inception_4d/pool
I0403 16:28:19.771276 18357 net.cpp:91] Creating Layer inception_4d/pool
I0403 16:28:19.771296 18357 net.cpp:425] inception_4d/pool <- inception_4c/output_inception_4c/output_0_split_3
I0403 16:28:19.771319 18357 net.cpp:399] inception_4d/pool -> inception_4d/pool
I0403 16:28:19.771404 18357 net.cpp:141] Setting up inception_4d/pool
I0403 16:28:19.771435 18357 net.cpp:148] Top shape: 24 512 14 14 (2408448)
I0403 16:28:19.771453 18357 net.cpp:156] Memory required for data: 1144900896
I0403 16:28:19.771471 18357 layer_factory.hpp:77] Creating layer inception_4d/pool_proj
I0403 16:28:19.771497 18357 net.cpp:91] Creating Layer inception_4d/pool_proj
I0403 16:28:19.771519 18357 net.cpp:425] inception_4d/pool_proj <- inception_4d/pool
I0403 16:28:19.771545 18357 net.cpp:399] inception_4d/pool_proj -> inception_4d/pool_proj
I0403 16:28:19.773669 18357 net.cpp:141] Setting up inception_4d/pool_proj
I0403 16:28:19.773707 18357 net.cpp:148] Top shape: 24 64 14 14 (301056)
I0403 16:28:19.773728 18357 net.cpp:156] Memory required for data: 1146105120
I0403 16:28:19.773751 18357 layer_factory.hpp:77] Creating layer inception_4d/relu_pool_proj
I0403 16:28:19.773775 18357 net.cpp:91] Creating Layer inception_4d/relu_pool_proj
I0403 16:28:19.773795 18357 net.cpp:425] inception_4d/relu_pool_proj <- inception_4d/pool_proj
I0403 16:28:19.773820 18357 net.cpp:386] inception_4d/relu_pool_proj -> inception_4d/pool_proj (in-place)
I0403 16:28:19.774049 18357 net.cpp:141] Setting up inception_4d/relu_pool_proj
I0403 16:28:19.774080 18357 net.cpp:148] Top shape: 24 64 14 14 (301056)
I0403 16:28:19.774099 18357 net.cpp:156] Memory required for data: 1147309344
I0403 16:28:19.774116 18357 layer_factory.hpp:77] Creating layer inception_4d/output
I0403 16:28:19.774137 18357 net.cpp:91] Creating Layer inception_4d/output
I0403 16:28:19.774158 18357 net.cpp:425] inception_4d/output <- inception_4d/1x1
I0403 16:28:19.774178 18357 net.cpp:425] inception_4d/output <- inception_4d/3x3
I0403 16:28:19.774197 18357 net.cpp:425] inception_4d/output <- inception_4d/5x5
I0403 16:28:19.774217 18357 net.cpp:425] inception_4d/output <- inception_4d/pool_proj
I0403 16:28:19.774241 18357 net.cpp:399] inception_4d/output -> inception_4d/output
I0403 16:28:19.774301 18357 net.cpp:141] Setting up inception_4d/output
I0403 16:28:19.774333 18357 net.cpp:148] Top shape: 24 528 14 14 (2483712)
I0403 16:28:19.774353 18357 net.cpp:156] Memory required for data: 1157244192
I0403 16:28:19.774372 18357 layer_factory.hpp:77] Creating layer inception_4d/output_inception_4d/output_0_split
I0403 16:28:19.774394 18357 net.cpp:91] Creating Layer inception_4d/output_inception_4d/output_0_split
I0403 16:28:19.774412 18357 net.cpp:425] inception_4d/output_inception_4d/output_0_split <- inception_4d/output
I0403 16:28:19.774436 18357 net.cpp:399] inception_4d/output_inception_4d/output_0_split -> inception_4d/output_inception_4d/output_0_split_0
I0403 16:28:19.774463 18357 net.cpp:399] inception_4d/output_inception_4d/output_0_split -> inception_4d/output_inception_4d/output_0_split_1
I0403 16:28:19.774492 18357 net.cpp:399] inception_4d/output_inception_4d/output_0_split -> inception_4d/output_inception_4d/output_0_split_2
I0403 16:28:19.774516 18357 net.cpp:399] inception_4d/output_inception_4d/output_0_split -> inception_4d/output_inception_4d/output_0_split_3
I0403 16:28:19.774541 18357 net.cpp:399] inception_4d/output_inception_4d/output_0_split -> inception_4d/output_inception_4d/output_0_split_4
I0403 16:28:19.774670 18357 net.cpp:141] Setting up inception_4d/output_inception_4d/output_0_split
I0403 16:28:19.774715 18357 net.cpp:148] Top shape: 24 528 14 14 (2483712)
I0403 16:28:19.774740 18357 net.cpp:148] Top shape: 24 528 14 14 (2483712)
I0403 16:28:19.774762 18357 net.cpp:148] Top shape: 24 528 14 14 (2483712)
I0403 16:28:19.774782 18357 net.cpp:148] Top shape: 24 528 14 14 (2483712)
I0403 16:28:19.774802 18357 net.cpp:148] Top shape: 24 528 14 14 (2483712)
I0403 16:28:19.774818 18357 net.cpp:156] Memory required for data: 1206918432
I0403 16:28:19.774837 18357 layer_factory.hpp:77] Creating layer loss2/ave_pool
I0403 16:28:19.774859 18357 net.cpp:91] Creating Layer loss2/ave_pool
I0403 16:28:19.774880 18357 net.cpp:425] loss2/ave_pool <- inception_4d/output_inception_4d/output_0_split_0
I0403 16:28:19.774905 18357 net.cpp:399] loss2/ave_pool -> loss2/ave_pool
I0403 16:28:19.775281 18357 net.cpp:141] Setting up loss2/ave_pool
I0403 16:28:19.775316 18357 net.cpp:148] Top shape: 24 528 4 4 (202752)
I0403 16:28:19.775336 18357 net.cpp:156] Memory required for data: 1207729440
I0403 16:28:19.775354 18357 layer_factory.hpp:77] Creating layer loss2/conv
I0403 16:28:19.775382 18357 net.cpp:91] Creating Layer loss2/conv
I0403 16:28:19.775404 18357 net.cpp:425] loss2/conv <- loss2/ave_pool
I0403 16:28:19.775431 18357 net.cpp:399] loss2/conv -> loss2/conv
I0403 16:28:19.777732 18357 net.cpp:141] Setting up loss2/conv
I0403 16:28:19.777770 18357 net.cpp:148] Top shape: 24 128 4 4 (49152)
I0403 16:28:19.777789 18357 net.cpp:156] Memory required for data: 1207926048
I0403 16:28:19.777812 18357 layer_factory.hpp:77] Creating layer loss2/relu_conv
I0403 16:28:19.777837 18357 net.cpp:91] Creating Layer loss2/relu_conv
I0403 16:28:19.777859 18357 net.cpp:425] loss2/relu_conv <- loss2/conv
I0403 16:28:19.777881 18357 net.cpp:386] loss2/relu_conv -> loss2/conv (in-place)
I0403 16:28:19.778225 18357 net.cpp:141] Setting up loss2/relu_conv
I0403 16:28:19.778257 18357 net.cpp:148] Top shape: 24 128 4 4 (49152)
I0403 16:28:19.778277 18357 net.cpp:156] Memory required for data: 1208122656
I0403 16:28:19.778295 18357 layer_factory.hpp:77] Creating layer loss2/fc
I0403 16:28:19.778322 18357 net.cpp:91] Creating Layer loss2/fc
I0403 16:28:19.778344 18357 net.cpp:425] loss2/fc <- loss2/conv
I0403 16:28:19.778367 18357 net.cpp:399] loss2/fc -> loss2/fc
I0403 16:28:19.800204 18357 net.cpp:141] Setting up loss2/fc
I0403 16:28:19.800243 18357 net.cpp:148] Top shape: 24 1024 (24576)
I0403 16:28:19.800264 18357 net.cpp:156] Memory required for data: 1208220960
I0403 16:28:19.800287 18357 layer_factory.hpp:77] Creating layer loss2/relu_fc
I0403 16:28:19.800309 18357 net.cpp:91] Creating Layer loss2/relu_fc
I0403 16:28:19.800329 18357 net.cpp:425] loss2/relu_fc <- loss2/fc
I0403 16:28:19.800353 18357 net.cpp:386] loss2/relu_fc -> loss2/fc (in-place)
I0403 16:28:19.800729 18357 net.cpp:141] Setting up loss2/relu_fc
I0403 16:28:19.800762 18357 net.cpp:148] Top shape: 24 1024 (24576)
I0403 16:28:19.800781 18357 net.cpp:156] Memory required for data: 1208319264
I0403 16:28:19.800799 18357 layer_factory.hpp:77] Creating layer loss2/drop_fc
I0403 16:28:19.800822 18357 net.cpp:91] Creating Layer loss2/drop_fc
I0403 16:28:19.800842 18357 net.cpp:425] loss2/drop_fc <- loss2/fc
I0403 16:28:19.800866 18357 net.cpp:386] loss2/drop_fc -> loss2/fc (in-place)
I0403 16:28:19.800930 18357 net.cpp:141] Setting up loss2/drop_fc
I0403 16:28:19.800958 18357 net.cpp:148] Top shape: 24 1024 (24576)
I0403 16:28:19.800976 18357 net.cpp:156] Memory required for data: 1208417568
I0403 16:28:19.800994 18357 layer_factory.hpp:77] Creating layer loss2/classifier_plantvillage
I0403 16:28:19.801019 18357 net.cpp:91] Creating Layer loss2/classifier_plantvillage
I0403 16:28:19.801040 18357 net.cpp:425] loss2/classifier_plantvillage <- loss2/fc
I0403 16:28:19.801066 18357 net.cpp:399] loss2/classifier_plantvillage -> loss2/classifier_plantvillage
I0403 16:28:19.801558 18357 net.cpp:141] Setting up loss2/classifier_plantvillage
I0403 16:28:19.801589 18357 net.cpp:148] Top shape: 24 38 (912)
I0403 16:28:19.801612 18357 net.cpp:156] Memory required for data: 1208421216
I0403 16:28:19.801656 18357 layer_factory.hpp:77] Creating layer loss2/classifier_plantvillage_loss2/classifier_plantvillage_0_split
I0403 16:28:19.801683 18357 net.cpp:91] Creating Layer loss2/classifier_plantvillage_loss2/classifier_plantvillage_0_split
I0403 16:28:19.801704 18357 net.cpp:425] loss2/classifier_plantvillage_loss2/classifier_plantvillage_0_split <- loss2/classifier_plantvillage
I0403 16:28:19.801728 18357 net.cpp:399] loss2/classifier_plantvillage_loss2/classifier_plantvillage_0_split -> loss2/classifier_plantvillage_loss2/classifier_plantvillage_0_split_0
I0403 16:28:19.801754 18357 net.cpp:399] loss2/classifier_plantvillage_loss2/classifier_plantvillage_0_split -> loss2/classifier_plantvillage_loss2/classifier_plantvillage_0_split_1
I0403 16:28:19.801781 18357 net.cpp:399] loss2/classifier_plantvillage_loss2/classifier_plantvillage_0_split -> loss2/classifier_plantvillage_loss2/classifier_plantvillage_0_split_2
I0403 16:28:19.801880 18357 net.cpp:141] Setting up loss2/classifier_plantvillage_loss2/classifier_plantvillage_0_split
I0403 16:28:19.801909 18357 net.cpp:148] Top shape: 24 38 (912)
I0403 16:28:19.801929 18357 net.cpp:148] Top shape: 24 38 (912)
I0403 16:28:19.801949 18357 net.cpp:148] Top shape: 24 38 (912)
I0403 16:28:19.801966 18357 net.cpp:156] Memory required for data: 1208432160
I0403 16:28:19.801985 18357 layer_factory.hpp:77] Creating layer inception_4e/1x1
I0403 16:28:19.802009 18357 net.cpp:91] Creating Layer inception_4e/1x1
I0403 16:28:19.802029 18357 net.cpp:425] inception_4e/1x1 <- inception_4d/output_inception_4d/output_0_split_1
I0403 16:28:19.802055 18357 net.cpp:399] inception_4e/1x1 -> inception_4e/1x1
I0403 16:28:19.804280 18357 net.cpp:141] Setting up inception_4e/1x1
I0403 16:28:19.804316 18357 net.cpp:148] Top shape: 24 256 14 14 (1204224)
I0403 16:28:19.804334 18357 net.cpp:156] Memory required for data: 1213249056
I0403 16:28:19.804358 18357 layer_factory.hpp:77] Creating layer inception_4e/relu_1x1
I0403 16:28:19.804383 18357 net.cpp:91] Creating Layer inception_4e/relu_1x1
I0403 16:28:19.804405 18357 net.cpp:425] inception_4e/relu_1x1 <- inception_4e/1x1
I0403 16:28:19.804426 18357 net.cpp:386] inception_4e/relu_1x1 -> inception_4e/1x1 (in-place)
I0403 16:28:19.804788 18357 net.cpp:141] Setting up inception_4e/relu_1x1
I0403 16:28:19.804821 18357 net.cpp:148] Top shape: 24 256 14 14 (1204224)
I0403 16:28:19.804841 18357 net.cpp:156] Memory required for data: 1218065952
I0403 16:28:19.804859 18357 layer_factory.hpp:77] Creating layer inception_4e/3x3_reduce
I0403 16:28:19.804886 18357 net.cpp:91] Creating Layer inception_4e/3x3_reduce
I0403 16:28:19.804908 18357 net.cpp:425] inception_4e/3x3_reduce <- inception_4d/output_inception_4d/output_0_split_2
I0403 16:28:19.804935 18357 net.cpp:399] inception_4e/3x3_reduce -> inception_4e/3x3_reduce
I0403 16:28:19.807509 18357 net.cpp:141] Setting up inception_4e/3x3_reduce
I0403 16:28:19.807545 18357 net.cpp:148] Top shape: 24 160 14 14 (752640)
I0403 16:28:19.807564 18357 net.cpp:156] Memory required for data: 1221076512
I0403 16:28:19.807587 18357 layer_factory.hpp:77] Creating layer inception_4e/relu_3x3_reduce
I0403 16:28:19.807617 18357 net.cpp:91] Creating Layer inception_4e/relu_3x3_reduce
I0403 16:28:19.807641 18357 net.cpp:425] inception_4e/relu_3x3_reduce <- inception_4e/3x3_reduce
I0403 16:28:19.807663 18357 net.cpp:386] inception_4e/relu_3x3_reduce -> inception_4e/3x3_reduce (in-place)
I0403 16:28:19.807890 18357 net.cpp:141] Setting up inception_4e/relu_3x3_reduce
I0403 16:28:19.807922 18357 net.cpp:148] Top shape: 24 160 14 14 (752640)
I0403 16:28:19.807941 18357 net.cpp:156] Memory required for data: 1224087072
I0403 16:28:19.807960 18357 layer_factory.hpp:77] Creating layer inception_4e/3x3
I0403 16:28:19.807988 18357 net.cpp:91] Creating Layer inception_4e/3x3
I0403 16:28:19.808010 18357 net.cpp:425] inception_4e/3x3 <- inception_4e/3x3_reduce
I0403 16:28:19.808037 18357 net.cpp:399] inception_4e/3x3 -> inception_4e/3x3
I0403 16:28:19.814239 18357 net.cpp:141] Setting up inception_4e/3x3
I0403 16:28:19.814291 18357 net.cpp:148] Top shape: 24 320 14 14 (1505280)
I0403 16:28:19.814311 18357 net.cpp:156] Memory required for data: 1230108192
I0403 16:28:19.814334 18357 layer_factory.hpp:77] Creating layer inception_4e/relu_3x3
I0403 16:28:19.814359 18357 net.cpp:91] Creating Layer inception_4e/relu_3x3
I0403 16:28:19.814383 18357 net.cpp:425] inception_4e/relu_3x3 <- inception_4e/3x3
I0403 16:28:19.814404 18357 net.cpp:386] inception_4e/relu_3x3 -> inception_4e/3x3 (in-place)
I0403 16:28:19.814779 18357 net.cpp:141] Setting up inception_4e/relu_3x3
I0403 16:28:19.814813 18357 net.cpp:148] Top shape: 24 320 14 14 (1505280)
I0403 16:28:19.814834 18357 net.cpp:156] Memory required for data: 1236129312
I0403 16:28:19.814853 18357 layer_factory.hpp:77] Creating layer inception_4e/5x5_reduce
I0403 16:28:19.814882 18357 net.cpp:91] Creating Layer inception_4e/5x5_reduce
I0403 16:28:19.814905 18357 net.cpp:425] inception_4e/5x5_reduce <- inception_4d/output_inception_4d/output_0_split_3
I0403 16:28:19.814930 18357 net.cpp:399] inception_4e/5x5_reduce -> inception_4e/5x5_reduce
I0403 16:28:19.816243 18357 net.cpp:141] Setting up inception_4e/5x5_reduce
I0403 16:28:19.816278 18357 net.cpp:148] Top shape: 24 32 14 14 (150528)
I0403 16:28:19.816296 18357 net.cpp:156] Memory required for data: 1236731424
I0403 16:28:19.816319 18357 layer_factory.hpp:77] Creating layer inception_4e/relu_5x5_reduce
I0403 16:28:19.816344 18357 net.cpp:91] Creating Layer inception_4e/relu_5x5_reduce
I0403 16:28:19.816365 18357 net.cpp:425] inception_4e/relu_5x5_reduce <- inception_4e/5x5_reduce
I0403 16:28:19.816386 18357 net.cpp:386] inception_4e/relu_5x5_reduce -> inception_4e/5x5_reduce (in-place)
I0403 16:28:19.816750 18357 net.cpp:141] Setting up inception_4e/relu_5x5_reduce
I0403 16:28:19.816782 18357 net.cpp:148] Top shape: 24 32 14 14 (150528)
I0403 16:28:19.816802 18357 net.cpp:156] Memory required for data: 1237333536
I0403 16:28:19.816820 18357 layer_factory.hpp:77] Creating layer inception_4e/5x5
I0403 16:28:19.816865 18357 net.cpp:91] Creating Layer inception_4e/5x5
I0403 16:28:19.816890 18357 net.cpp:425] inception_4e/5x5 <- inception_4e/5x5_reduce
I0403 16:28:19.816915 18357 net.cpp:399] inception_4e/5x5 -> inception_4e/5x5
I0403 16:28:19.819164 18357 net.cpp:141] Setting up inception_4e/5x5
I0403 16:28:19.819200 18357 net.cpp:148] Top shape: 24 128 14 14 (602112)
I0403 16:28:19.819219 18357 net.cpp:156] Memory required for data: 1239741984
I0403 16:28:19.819243 18357 layer_factory.hpp:77] Creating layer inception_4e/relu_5x5
I0403 16:28:19.819267 18357 net.cpp:91] Creating Layer inception_4e/relu_5x5
I0403 16:28:19.819286 18357 net.cpp:425] inception_4e/relu_5x5 <- inception_4e/5x5
I0403 16:28:19.819310 18357 net.cpp:386] inception_4e/relu_5x5 -> inception_4e/5x5 (in-place)
I0403 16:28:19.819552 18357 net.cpp:141] Setting up inception_4e/relu_5x5
I0403 16:28:19.819584 18357 net.cpp:148] Top shape: 24 128 14 14 (602112)
I0403 16:28:19.819608 18357 net.cpp:156] Memory required for data: 1242150432
I0403 16:28:19.819629 18357 layer_factory.hpp:77] Creating layer inception_4e/pool
I0403 16:28:19.819655 18357 net.cpp:91] Creating Layer inception_4e/pool
I0403 16:28:19.819677 18357 net.cpp:425] inception_4e/pool <- inception_4d/output_inception_4d/output_0_split_4
I0403 16:28:19.819700 18357 net.cpp:399] inception_4e/pool -> inception_4e/pool
I0403 16:28:19.819788 18357 net.cpp:141] Setting up inception_4e/pool
I0403 16:28:19.819818 18357 net.cpp:148] Top shape: 24 528 14 14 (2483712)
I0403 16:28:19.819838 18357 net.cpp:156] Memory required for data: 1252085280
I0403 16:28:19.819854 18357 layer_factory.hpp:77] Creating layer inception_4e/pool_proj
I0403 16:28:19.819882 18357 net.cpp:91] Creating Layer inception_4e/pool_proj
I0403 16:28:19.819905 18357 net.cpp:425] inception_4e/pool_proj <- inception_4e/pool
I0403 16:28:19.819931 18357 net.cpp:399] inception_4e/pool_proj -> inception_4e/pool_proj
I0403 16:28:19.821771 18357 net.cpp:141] Setting up inception_4e/pool_proj
I0403 16:28:19.821810 18357 net.cpp:148] Top shape: 24 128 14 14 (602112)
I0403 16:28:19.821844 18357 net.cpp:156] Memory required for data: 1254493728
I0403 16:28:19.821869 18357 layer_factory.hpp:77] Creating layer inception_4e/relu_pool_proj
I0403 16:28:19.821892 18357 net.cpp:91] Creating Layer inception_4e/relu_pool_proj
I0403 16:28:19.821913 18357 net.cpp:425] inception_4e/relu_pool_proj <- inception_4e/pool_proj
I0403 16:28:19.821938 18357 net.cpp:386] inception_4e/relu_pool_proj -> inception_4e/pool_proj (in-place)
I0403 16:28:19.822299 18357 net.cpp:141] Setting up inception_4e/relu_pool_proj
I0403 16:28:19.822330 18357 net.cpp:148] Top shape: 24 128 14 14 (602112)
I0403 16:28:19.822350 18357 net.cpp:156] Memory required for data: 1256902176
I0403 16:28:19.822368 18357 layer_factory.hpp:77] Creating layer inception_4e/output
I0403 16:28:19.822389 18357 net.cpp:91] Creating Layer inception_4e/output
I0403 16:28:19.822410 18357 net.cpp:425] inception_4e/output <- inception_4e/1x1
I0403 16:28:19.822430 18357 net.cpp:425] inception_4e/output <- inception_4e/3x3
I0403 16:28:19.822450 18357 net.cpp:425] inception_4e/output <- inception_4e/5x5
I0403 16:28:19.822469 18357 net.cpp:425] inception_4e/output <- inception_4e/pool_proj
I0403 16:28:19.822490 18357 net.cpp:399] inception_4e/output -> inception_4e/output
I0403 16:28:19.822553 18357 net.cpp:141] Setting up inception_4e/output
I0403 16:28:19.822584 18357 net.cpp:148] Top shape: 24 832 14 14 (3913728)
I0403 16:28:19.822607 18357 net.cpp:156] Memory required for data: 1272557088
I0403 16:28:19.822628 18357 layer_factory.hpp:77] Creating layer pool4/3x3_s2
I0403 16:28:19.822652 18357 net.cpp:91] Creating Layer pool4/3x3_s2
I0403 16:28:19.822674 18357 net.cpp:425] pool4/3x3_s2 <- inception_4e/output
I0403 16:28:19.822696 18357 net.cpp:399] pool4/3x3_s2 -> pool4/3x3_s2
I0403 16:28:19.822783 18357 net.cpp:141] Setting up pool4/3x3_s2
I0403 16:28:19.822813 18357 net.cpp:148] Top shape: 24 832 7 7 (978432)
I0403 16:28:19.822831 18357 net.cpp:156] Memory required for data: 1276470816
I0403 16:28:19.822849 18357 layer_factory.hpp:77] Creating layer pool4/3x3_s2_pool4/3x3_s2_0_split
I0403 16:28:19.822870 18357 net.cpp:91] Creating Layer pool4/3x3_s2_pool4/3x3_s2_0_split
I0403 16:28:19.822890 18357 net.cpp:425] pool4/3x3_s2_pool4/3x3_s2_0_split <- pool4/3x3_s2
I0403 16:28:19.822914 18357 net.cpp:399] pool4/3x3_s2_pool4/3x3_s2_0_split -> pool4/3x3_s2_pool4/3x3_s2_0_split_0
I0403 16:28:19.822942 18357 net.cpp:399] pool4/3x3_s2_pool4/3x3_s2_0_split -> pool4/3x3_s2_pool4/3x3_s2_0_split_1
I0403 16:28:19.822968 18357 net.cpp:399] pool4/3x3_s2_pool4/3x3_s2_0_split -> pool4/3x3_s2_pool4/3x3_s2_0_split_2
I0403 16:28:19.822993 18357 net.cpp:399] pool4/3x3_s2_pool4/3x3_s2_0_split -> pool4/3x3_s2_pool4/3x3_s2_0_split_3
I0403 16:28:19.823104 18357 net.cpp:141] Setting up pool4/3x3_s2_pool4/3x3_s2_0_split
I0403 16:28:19.823137 18357 net.cpp:148] Top shape: 24 832 7 7 (978432)
I0403 16:28:19.823158 18357 net.cpp:148] Top shape: 24 832 7 7 (978432)
I0403 16:28:19.823178 18357 net.cpp:148] Top shape: 24 832 7 7 (978432)
I0403 16:28:19.823197 18357 net.cpp:148] Top shape: 24 832 7 7 (978432)
I0403 16:28:19.823213 18357 net.cpp:156] Memory required for data: 1292125728
I0403 16:28:19.823231 18357 layer_factory.hpp:77] Creating layer inception_5a/1x1
I0403 16:28:19.823259 18357 net.cpp:91] Creating Layer inception_5a/1x1
I0403 16:28:19.823281 18357 net.cpp:425] inception_5a/1x1 <- pool4/3x3_s2_pool4/3x3_s2_0_split_0
I0403 16:28:19.823307 18357 net.cpp:399] inception_5a/1x1 -> inception_5a/1x1
I0403 16:28:19.826808 18357 net.cpp:141] Setting up inception_5a/1x1
I0403 16:28:19.826844 18357 net.cpp:148] Top shape: 24 256 7 7 (301056)
I0403 16:28:19.826864 18357 net.cpp:156] Memory required for data: 1293329952
I0403 16:28:19.826887 18357 layer_factory.hpp:77] Creating layer inception_5a/relu_1x1
I0403 16:28:19.826913 18357 net.cpp:91] Creating Layer inception_5a/relu_1x1
I0403 16:28:19.826935 18357 net.cpp:425] inception_5a/relu_1x1 <- inception_5a/1x1
I0403 16:28:19.826956 18357 net.cpp:386] inception_5a/relu_1x1 -> inception_5a/1x1 (in-place)
I0403 16:28:19.827335 18357 net.cpp:141] Setting up inception_5a/relu_1x1
I0403 16:28:19.827368 18357 net.cpp:148] Top shape: 24 256 7 7 (301056)
I0403 16:28:19.827386 18357 net.cpp:156] Memory required for data: 1294534176
I0403 16:28:19.827405 18357 layer_factory.hpp:77] Creating layer inception_5a/3x3_reduce
I0403 16:28:19.827432 18357 net.cpp:91] Creating Layer inception_5a/3x3_reduce
I0403 16:28:19.827455 18357 net.cpp:425] inception_5a/3x3_reduce <- pool4/3x3_s2_pool4/3x3_s2_0_split_1
I0403 16:28:19.827483 18357 net.cpp:399] inception_5a/3x3_reduce -> inception_5a/3x3_reduce
I0403 16:28:19.830489 18357 net.cpp:141] Setting up inception_5a/3x3_reduce
I0403 16:28:19.830529 18357 net.cpp:148] Top shape: 24 160 7 7 (188160)
I0403 16:28:19.830550 18357 net.cpp:156] Memory required for data: 1295286816
I0403 16:28:19.830574 18357 layer_factory.hpp:77] Creating layer inception_5a/relu_3x3_reduce
I0403 16:28:19.830597 18357 net.cpp:91] Creating Layer inception_5a/relu_3x3_reduce
I0403 16:28:19.830624 18357 net.cpp:425] inception_5a/relu_3x3_reduce <- inception_5a/3x3_reduce
I0403 16:28:19.830646 18357 net.cpp:386] inception_5a/relu_3x3_reduce -> inception_5a/3x3_reduce (in-place)
I0403 16:28:19.830886 18357 net.cpp:141] Setting up inception_5a/relu_3x3_reduce
I0403 16:28:19.830917 18357 net.cpp:148] Top shape: 24 160 7 7 (188160)
I0403 16:28:19.830936 18357 net.cpp:156] Memory required for data: 1296039456
I0403 16:28:19.830955 18357 layer_factory.hpp:77] Creating layer inception_5a/3x3
I0403 16:28:19.830982 18357 net.cpp:91] Creating Layer inception_5a/3x3
I0403 16:28:19.831004 18357 net.cpp:425] inception_5a/3x3 <- inception_5a/3x3_reduce
I0403 16:28:19.831032 18357 net.cpp:399] inception_5a/3x3 -> inception_5a/3x3
I0403 16:28:19.837263 18357 net.cpp:141] Setting up inception_5a/3x3
I0403 16:28:19.837301 18357 net.cpp:148] Top shape: 24 320 7 7 (376320)
I0403 16:28:19.837322 18357 net.cpp:156] Memory required for data: 1297544736
I0403 16:28:19.837345 18357 layer_factory.hpp:77] Creating layer inception_5a/relu_3x3
I0403 16:28:19.837368 18357 net.cpp:91] Creating Layer inception_5a/relu_3x3
I0403 16:28:19.837388 18357 net.cpp:425] inception_5a/relu_3x3 <- inception_5a/3x3
I0403 16:28:19.837412 18357 net.cpp:386] inception_5a/relu_3x3 -> inception_5a/3x3 (in-place)
I0403 16:28:19.837776 18357 net.cpp:141] Setting up inception_5a/relu_3x3
I0403 16:28:19.837810 18357 net.cpp:148] Top shape: 24 320 7 7 (376320)
I0403 16:28:19.837831 18357 net.cpp:156] Memory required for data: 1299050016
I0403 16:28:19.837848 18357 layer_factory.hpp:77] Creating layer inception_5a/5x5_reduce
I0403 16:28:19.837875 18357 net.cpp:91] Creating Layer inception_5a/5x5_reduce
I0403 16:28:19.837898 18357 net.cpp:425] inception_5a/5x5_reduce <- pool4/3x3_s2_pool4/3x3_s2_0_split_2
I0403 16:28:19.837924 18357 net.cpp:399] inception_5a/5x5_reduce -> inception_5a/5x5_reduce
I0403 16:28:19.839361 18357 net.cpp:141] Setting up inception_5a/5x5_reduce
I0403 16:28:19.839396 18357 net.cpp:148] Top shape: 24 32 7 7 (37632)
I0403 16:28:19.839417 18357 net.cpp:156] Memory required for data: 1299200544
I0403 16:28:19.839440 18357 layer_factory.hpp:77] Creating layer inception_5a/relu_5x5_reduce
I0403 16:28:19.839465 18357 net.cpp:91] Creating Layer inception_5a/relu_5x5_reduce
I0403 16:28:19.839488 18357 net.cpp:425] inception_5a/relu_5x5_reduce <- inception_5a/5x5_reduce
I0403 16:28:19.839509 18357 net.cpp:386] inception_5a/relu_5x5_reduce -> inception_5a/5x5_reduce (in-place)
I0403 16:28:19.839876 18357 net.cpp:141] Setting up inception_5a/relu_5x5_reduce
I0403 16:28:19.839908 18357 net.cpp:148] Top shape: 24 32 7 7 (37632)
I0403 16:28:19.839928 18357 net.cpp:156] Memory required for data: 1299351072
I0403 16:28:19.839946 18357 layer_factory.hpp:77] Creating layer inception_5a/5x5
I0403 16:28:19.839974 18357 net.cpp:91] Creating Layer inception_5a/5x5
I0403 16:28:19.839997 18357 net.cpp:425] inception_5a/5x5 <- inception_5a/5x5_reduce
I0403 16:28:19.840025 18357 net.cpp:399] inception_5a/5x5 -> inception_5a/5x5
I0403 16:28:19.842155 18357 net.cpp:141] Setting up inception_5a/5x5
I0403 16:28:19.842206 18357 net.cpp:148] Top shape: 24 128 7 7 (150528)
I0403 16:28:19.842226 18357 net.cpp:156] Memory required for data: 1299953184
I0403 16:28:19.842248 18357 layer_factory.hpp:77] Creating layer inception_5a/relu_5x5
I0403 16:28:19.842272 18357 net.cpp:91] Creating Layer inception_5a/relu_5x5
I0403 16:28:19.842291 18357 net.cpp:425] inception_5a/relu_5x5 <- inception_5a/5x5
I0403 16:28:19.842317 18357 net.cpp:386] inception_5a/relu_5x5 -> inception_5a/5x5 (in-place)
I0403 16:28:19.842553 18357 net.cpp:141] Setting up inception_5a/relu_5x5
I0403 16:28:19.842584 18357 net.cpp:148] Top shape: 24 128 7 7 (150528)
I0403 16:28:19.842607 18357 net.cpp:156] Memory required for data: 1300555296
I0403 16:28:19.842628 18357 layer_factory.hpp:77] Creating layer inception_5a/pool
I0403 16:28:19.842653 18357 net.cpp:91] Creating Layer inception_5a/pool
I0403 16:28:19.842674 18357 net.cpp:425] inception_5a/pool <- pool4/3x3_s2_pool4/3x3_s2_0_split_3
I0403 16:28:19.842699 18357 net.cpp:399] inception_5a/pool -> inception_5a/pool
I0403 16:28:19.842787 18357 net.cpp:141] Setting up inception_5a/pool
I0403 16:28:19.842816 18357 net.cpp:148] Top shape: 24 832 7 7 (978432)
I0403 16:28:19.842835 18357 net.cpp:156] Memory required for data: 1304469024
I0403 16:28:19.842854 18357 layer_factory.hpp:77] Creating layer inception_5a/pool_proj
I0403 16:28:19.842880 18357 net.cpp:91] Creating Layer inception_5a/pool_proj
I0403 16:28:19.842903 18357 net.cpp:425] inception_5a/pool_proj <- inception_5a/pool
I0403 16:28:19.842931 18357 net.cpp:399] inception_5a/pool_proj -> inception_5a/pool_proj
I0403 16:28:19.845722 18357 net.cpp:141] Setting up inception_5a/pool_proj
I0403 16:28:19.845763 18357 net.cpp:148] Top shape: 24 128 7 7 (150528)
I0403 16:28:19.845784 18357 net.cpp:156] Memory required for data: 1305071136
I0403 16:28:19.845808 18357 layer_factory.hpp:77] Creating layer inception_5a/relu_pool_proj
I0403 16:28:19.845832 18357 net.cpp:91] Creating Layer inception_5a/relu_pool_proj
I0403 16:28:19.845854 18357 net.cpp:425] inception_5a/relu_pool_proj <- inception_5a/pool_proj
I0403 16:28:19.845878 18357 net.cpp:386] inception_5a/relu_pool_proj -> inception_5a/pool_proj (in-place)
I0403 16:28:19.846238 18357 net.cpp:141] Setting up inception_5a/relu_pool_proj
I0403 16:28:19.846273 18357 net.cpp:148] Top shape: 24 128 7 7 (150528)
I0403 16:28:19.846294 18357 net.cpp:156] Memory required for data: 1305673248
I0403 16:28:19.846313 18357 layer_factory.hpp:77] Creating layer inception_5a/output
I0403 16:28:19.846334 18357 net.cpp:91] Creating Layer inception_5a/output
I0403 16:28:19.846354 18357 net.cpp:425] inception_5a/output <- inception_5a/1x1
I0403 16:28:19.846374 18357 net.cpp:425] inception_5a/output <- inception_5a/3x3
I0403 16:28:19.846395 18357 net.cpp:425] inception_5a/output <- inception_5a/5x5
I0403 16:28:19.846415 18357 net.cpp:425] inception_5a/output <- inception_5a/pool_proj
I0403 16:28:19.846439 18357 net.cpp:399] inception_5a/output -> inception_5a/output
I0403 16:28:19.846503 18357 net.cpp:141] Setting up inception_5a/output
I0403 16:28:19.846531 18357 net.cpp:148] Top shape: 24 832 7 7 (978432)
I0403 16:28:19.846550 18357 net.cpp:156] Memory required for data: 1309586976
I0403 16:28:19.846568 18357 layer_factory.hpp:77] Creating layer inception_5a/output_inception_5a/output_0_split
I0403 16:28:19.846595 18357 net.cpp:91] Creating Layer inception_5a/output_inception_5a/output_0_split
I0403 16:28:19.846621 18357 net.cpp:425] inception_5a/output_inception_5a/output_0_split <- inception_5a/output
I0403 16:28:19.846645 18357 net.cpp:399] inception_5a/output_inception_5a/output_0_split -> inception_5a/output_inception_5a/output_0_split_0
I0403 16:28:19.846671 18357 net.cpp:399] inception_5a/output_inception_5a/output_0_split -> inception_5a/output_inception_5a/output_0_split_1
I0403 16:28:19.846699 18357 net.cpp:399] inception_5a/output_inception_5a/output_0_split -> inception_5a/output_inception_5a/output_0_split_2
I0403 16:28:19.846726 18357 net.cpp:399] inception_5a/output_inception_5a/output_0_split -> inception_5a/output_inception_5a/output_0_split_3
I0403 16:28:19.846863 18357 net.cpp:141] Setting up inception_5a/output_inception_5a/output_0_split
I0403 16:28:19.846894 18357 net.cpp:148] Top shape: 24 832 7 7 (978432)
I0403 16:28:19.846914 18357 net.cpp:148] Top shape: 24 832 7 7 (978432)
I0403 16:28:19.846933 18357 net.cpp:148] Top shape: 24 832 7 7 (978432)
I0403 16:28:19.846952 18357 net.cpp:148] Top shape: 24 832 7 7 (978432)
I0403 16:28:19.846969 18357 net.cpp:156] Memory required for data: 1325241888
I0403 16:28:19.846987 18357 layer_factory.hpp:77] Creating layer inception_5b/1x1
I0403 16:28:19.847014 18357 net.cpp:91] Creating Layer inception_5b/1x1
I0403 16:28:19.847036 18357 net.cpp:425] inception_5b/1x1 <- inception_5a/output_inception_5a/output_0_split_0
I0403 16:28:19.847062 18357 net.cpp:399] inception_5b/1x1 -> inception_5b/1x1
I0403 16:28:19.851658 18357 net.cpp:141] Setting up inception_5b/1x1
I0403 16:28:19.851698 18357 net.cpp:148] Top shape: 24 384 7 7 (451584)
I0403 16:28:19.851719 18357 net.cpp:156] Memory required for data: 1327048224
I0403 16:28:19.851742 18357 layer_factory.hpp:77] Creating layer inception_5b/relu_1x1
I0403 16:28:19.851768 18357 net.cpp:91] Creating Layer inception_5b/relu_1x1
I0403 16:28:19.851789 18357 net.cpp:425] inception_5b/relu_1x1 <- inception_5b/1x1
I0403 16:28:19.851811 18357 net.cpp:386] inception_5b/relu_1x1 -> inception_5b/1x1 (in-place)
I0403 16:28:19.852180 18357 net.cpp:141] Setting up inception_5b/relu_1x1
I0403 16:28:19.852216 18357 net.cpp:148] Top shape: 24 384 7 7 (451584)
I0403 16:28:19.852236 18357 net.cpp:156] Memory required for data: 1328854560
I0403 16:28:19.852254 18357 layer_factory.hpp:77] Creating layer inception_5b/3x3_reduce
I0403 16:28:19.852282 18357 net.cpp:91] Creating Layer inception_5b/3x3_reduce
I0403 16:28:19.852304 18357 net.cpp:425] inception_5b/3x3_reduce <- inception_5a/output_inception_5a/output_0_split_1
I0403 16:28:19.852327 18357 net.cpp:399] inception_5b/3x3_reduce -> inception_5b/3x3_reduce
I0403 16:28:19.855572 18357 net.cpp:141] Setting up inception_5b/3x3_reduce
I0403 16:28:19.855624 18357 net.cpp:148] Top shape: 24 192 7 7 (225792)
I0403 16:28:19.855648 18357 net.cpp:156] Memory required for data: 1329757728
I0403 16:28:19.855672 18357 layer_factory.hpp:77] Creating layer inception_5b/relu_3x3_reduce
I0403 16:28:19.855695 18357 net.cpp:91] Creating Layer inception_5b/relu_3x3_reduce
I0403 16:28:19.855717 18357 net.cpp:425] inception_5b/relu_3x3_reduce <- inception_5b/3x3_reduce
I0403 16:28:19.855741 18357 net.cpp:386] inception_5b/relu_3x3_reduce -> inception_5b/3x3_reduce (in-place)
I0403 16:28:19.855976 18357 net.cpp:141] Setting up inception_5b/relu_3x3_reduce
I0403 16:28:19.856009 18357 net.cpp:148] Top shape: 24 192 7 7 (225792)
I0403 16:28:19.856027 18357 net.cpp:156] Memory required for data: 1330660896
I0403 16:28:19.856046 18357 layer_factory.hpp:77] Creating layer inception_5b/3x3
I0403 16:28:19.856072 18357 net.cpp:91] Creating Layer inception_5b/3x3
I0403 16:28:19.856094 18357 net.cpp:425] inception_5b/3x3 <- inception_5b/3x3_reduce
I0403 16:28:19.856122 18357 net.cpp:399] inception_5b/3x3 -> inception_5b/3x3
I0403 16:28:19.864420 18357 net.cpp:141] Setting up inception_5b/3x3
I0403 16:28:19.864459 18357 net.cpp:148] Top shape: 24 384 7 7 (451584)
I0403 16:28:19.864480 18357 net.cpp:156] Memory required for data: 1332467232
I0403 16:28:19.864503 18357 layer_factory.hpp:77] Creating layer inception_5b/relu_3x3
I0403 16:28:19.864526 18357 net.cpp:91] Creating Layer inception_5b/relu_3x3
I0403 16:28:19.864547 18357 net.cpp:425] inception_5b/relu_3x3 <- inception_5b/3x3
I0403 16:28:19.864570 18357 net.cpp:386] inception_5b/relu_3x3 -> inception_5b/3x3 (in-place)
I0403 16:28:19.864938 18357 net.cpp:141] Setting up inception_5b/relu_3x3
I0403 16:28:19.864975 18357 net.cpp:148] Top shape: 24 384 7 7 (451584)
I0403 16:28:19.864996 18357 net.cpp:156] Memory required for data: 1334273568
I0403 16:28:19.865015 18357 layer_factory.hpp:77] Creating layer inception_5b/5x5_reduce
I0403 16:28:19.865061 18357 net.cpp:91] Creating Layer inception_5b/5x5_reduce
I0403 16:28:19.865085 18357 net.cpp:425] inception_5b/5x5_reduce <- inception_5a/output_inception_5a/output_0_split_2
I0403 16:28:19.865109 18357 net.cpp:399] inception_5b/5x5_reduce -> inception_5b/5x5_reduce
I0403 16:28:19.866691 18357 net.cpp:141] Setting up inception_5b/5x5_reduce
I0403 16:28:19.866729 18357 net.cpp:148] Top shape: 24 48 7 7 (56448)
I0403 16:28:19.866749 18357 net.cpp:156] Memory required for data: 1334499360
I0403 16:28:19.866773 18357 layer_factory.hpp:77] Creating layer inception_5b/relu_5x5_reduce
I0403 16:28:19.866796 18357 net.cpp:91] Creating Layer inception_5b/relu_5x5_reduce
I0403 16:28:19.866816 18357 net.cpp:425] inception_5b/relu_5x5_reduce <- inception_5b/5x5_reduce
I0403 16:28:19.866842 18357 net.cpp:386] inception_5b/relu_5x5_reduce -> inception_5b/5x5_reduce (in-place)
I0403 16:28:19.867297 18357 net.cpp:141] Setting up inception_5b/relu_5x5_reduce
I0403 16:28:19.867331 18357 net.cpp:148] Top shape: 24 48 7 7 (56448)
I0403 16:28:19.867350 18357 net.cpp:156] Memory required for data: 1334725152
I0403 16:28:19.867368 18357 layer_factory.hpp:77] Creating layer inception_5b/5x5
I0403 16:28:19.867394 18357 net.cpp:91] Creating Layer inception_5b/5x5
I0403 16:28:19.867416 18357 net.cpp:425] inception_5b/5x5 <- inception_5b/5x5_reduce
I0403 16:28:19.867440 18357 net.cpp:399] inception_5b/5x5 -> inception_5b/5x5
I0403 16:28:19.869968 18357 net.cpp:141] Setting up inception_5b/5x5
I0403 16:28:19.870002 18357 net.cpp:148] Top shape: 24 128 7 7 (150528)
I0403 16:28:19.870021 18357 net.cpp:156] Memory required for data: 1335327264
I0403 16:28:19.870044 18357 layer_factory.hpp:77] Creating layer inception_5b/relu_5x5
I0403 16:28:19.870069 18357 net.cpp:91] Creating Layer inception_5b/relu_5x5
I0403 16:28:19.870091 18357 net.cpp:425] inception_5b/relu_5x5 <- inception_5b/5x5
I0403 16:28:19.870113 18357 net.cpp:386] inception_5b/relu_5x5 -> inception_5b/5x5 (in-place)
I0403 16:28:19.870352 18357 net.cpp:141] Setting up inception_5b/relu_5x5
I0403 16:28:19.870383 18357 net.cpp:148] Top shape: 24 128 7 7 (150528)
I0403 16:28:19.870403 18357 net.cpp:156] Memory required for data: 1335929376
I0403 16:28:19.870420 18357 layer_factory.hpp:77] Creating layer inception_5b/pool
I0403 16:28:19.870445 18357 net.cpp:91] Creating Layer inception_5b/pool
I0403 16:28:19.870465 18357 net.cpp:425] inception_5b/pool <- inception_5a/output_inception_5a/output_0_split_3
I0403 16:28:19.870489 18357 net.cpp:399] inception_5b/pool -> inception_5b/pool
I0403 16:28:19.870580 18357 net.cpp:141] Setting up inception_5b/pool
I0403 16:28:19.870615 18357 net.cpp:148] Top shape: 24 832 7 7 (978432)
I0403 16:28:19.870635 18357 net.cpp:156] Memory required for data: 1339843104
I0403 16:28:19.870653 18357 layer_factory.hpp:77] Creating layer inception_5b/pool_proj
I0403 16:28:19.870681 18357 net.cpp:91] Creating Layer inception_5b/pool_proj
I0403 16:28:19.870702 18357 net.cpp:425] inception_5b/pool_proj <- inception_5b/pool
I0403 16:28:19.870728 18357 net.cpp:399] inception_5b/pool_proj -> inception_5b/pool_proj
I0403 16:28:19.873544 18357 net.cpp:141] Setting up inception_5b/pool_proj
I0403 16:28:19.873580 18357 net.cpp:148] Top shape: 24 128 7 7 (150528)
I0403 16:28:19.873605 18357 net.cpp:156] Memory required for data: 1340445216
I0403 16:28:19.873631 18357 layer_factory.hpp:77] Creating layer inception_5b/relu_pool_proj
I0403 16:28:19.873654 18357 net.cpp:91] Creating Layer inception_5b/relu_pool_proj
I0403 16:28:19.873674 18357 net.cpp:425] inception_5b/relu_pool_proj <- inception_5b/pool_proj
I0403 16:28:19.873699 18357 net.cpp:386] inception_5b/relu_pool_proj -> inception_5b/pool_proj (in-place)
I0403 16:28:19.874071 18357 net.cpp:141] Setting up inception_5b/relu_pool_proj
I0403 16:28:19.874104 18357 net.cpp:148] Top shape: 24 128 7 7 (150528)
I0403 16:28:19.874124 18357 net.cpp:156] Memory required for data: 1341047328
I0403 16:28:19.874141 18357 layer_factory.hpp:77] Creating layer inception_5b/output
I0403 16:28:19.874162 18357 net.cpp:91] Creating Layer inception_5b/output
I0403 16:28:19.874200 18357 net.cpp:425] inception_5b/output <- inception_5b/1x1
I0403 16:28:19.874224 18357 net.cpp:425] inception_5b/output <- inception_5b/3x3
I0403 16:28:19.874245 18357 net.cpp:425] inception_5b/output <- inception_5b/5x5
I0403 16:28:19.874265 18357 net.cpp:425] inception_5b/output <- inception_5b/pool_proj
I0403 16:28:19.874290 18357 net.cpp:399] inception_5b/output -> inception_5b/output
I0403 16:28:19.874354 18357 net.cpp:141] Setting up inception_5b/output
I0403 16:28:19.874387 18357 net.cpp:148] Top shape: 24 1024 7 7 (1204224)
I0403 16:28:19.874407 18357 net.cpp:156] Memory required for data: 1345864224
I0403 16:28:19.874425 18357 layer_factory.hpp:77] Creating layer pool5/7x7_s1
I0403 16:28:19.874449 18357 net.cpp:91] Creating Layer pool5/7x7_s1
I0403 16:28:19.874469 18357 net.cpp:425] pool5/7x7_s1 <- inception_5b/output
I0403 16:28:19.874490 18357 net.cpp:399] pool5/7x7_s1 -> pool5/7x7_s1
I0403 16:28:19.874765 18357 net.cpp:141] Setting up pool5/7x7_s1
I0403 16:28:19.874797 18357 net.cpp:148] Top shape: 24 1024 1 1 (24576)
I0403 16:28:19.874815 18357 net.cpp:156] Memory required for data: 1345962528
I0403 16:28:19.874835 18357 layer_factory.hpp:77] Creating layer pool5/drop_7x7_s1
I0403 16:28:19.874856 18357 net.cpp:91] Creating Layer pool5/drop_7x7_s1
I0403 16:28:19.874876 18357 net.cpp:425] pool5/drop_7x7_s1 <- pool5/7x7_s1
I0403 16:28:19.874899 18357 net.cpp:386] pool5/drop_7x7_s1 -> pool5/7x7_s1 (in-place)
I0403 16:28:19.874963 18357 net.cpp:141] Setting up pool5/drop_7x7_s1
I0403 16:28:19.874994 18357 net.cpp:148] Top shape: 24 1024 1 1 (24576)
I0403 16:28:19.875013 18357 net.cpp:156] Memory required for data: 1346060832
I0403 16:28:19.875032 18357 layer_factory.hpp:77] Creating layer loss3/classifier_plantvillage
I0403 16:28:19.875053 18357 net.cpp:91] Creating Layer loss3/classifier_plantvillage
I0403 16:28:19.875072 18357 net.cpp:425] loss3/classifier_plantvillage <- pool5/7x7_s1
I0403 16:28:19.875098 18357 net.cpp:399] loss3/classifier_plantvillage -> loss3/classifier_plantvillage
I0403 16:28:19.875658 18357 net.cpp:141] Setting up loss3/classifier_plantvillage
I0403 16:28:19.875699 18357 net.cpp:148] Top shape: 24 38 (912)
I0403 16:28:19.875718 18357 net.cpp:156] Memory required for data: 1346064480
I0403 16:28:19.875741 18357 layer_factory.hpp:77] Creating layer loss3/classifier_plantvillage_loss3/classifier_plantvillage_0_split
I0403 16:28:19.875767 18357 net.cpp:91] Creating Layer loss3/classifier_plantvillage_loss3/classifier_plantvillage_0_split
I0403 16:28:19.875790 18357 net.cpp:425] loss3/classifier_plantvillage_loss3/classifier_plantvillage_0_split <- loss3/classifier_plantvillage
I0403 16:28:19.875813 18357 net.cpp:399] loss3/classifier_plantvillage_loss3/classifier_plantvillage_0_split -> loss3/classifier_plantvillage_loss3/classifier_plantvillage_0_split_0
I0403 16:28:19.875839 18357 net.cpp:399] loss3/classifier_plantvillage_loss3/classifier_plantvillage_0_split -> loss3/classifier_plantvillage_loss3/classifier_plantvillage_0_split_1
I0403 16:28:19.875870 18357 net.cpp:399] loss3/classifier_plantvillage_loss3/classifier_plantvillage_0_split -> loss3/classifier_plantvillage_loss3/classifier_plantvillage_0_split_2
I0403 16:28:19.875896 18357 net.cpp:399] loss3/classifier_plantvillage_loss3/classifier_plantvillage_0_split -> loss3/classifier_plantvillage_loss3/classifier_plantvillage_0_split_3
I0403 16:28:19.876034 18357 net.cpp:141] Setting up loss3/classifier_plantvillage_loss3/classifier_plantvillage_0_split
I0403 16:28:19.876063 18357 net.cpp:148] Top shape: 24 38 (912)
I0403 16:28:19.876083 18357 net.cpp:148] Top shape: 24 38 (912)
I0403 16:28:19.876103 18357 net.cpp:148] Top shape: 24 38 (912)
I0403 16:28:19.876124 18357 net.cpp:148] Top shape: 24 38 (912)
I0403 16:28:19.876142 18357 net.cpp:156] Memory required for data: 1346079072
I0403 16:28:19.876160 18357 layer_factory.hpp:77] Creating layer loss1/loss
I0403 16:28:19.876185 18357 net.cpp:91] Creating Layer loss1/loss
I0403 16:28:19.876207 18357 net.cpp:425] loss1/loss <- loss1/classifier_plantvillage_loss1/classifier_plantvillage_0_split_0
I0403 16:28:19.876246 18357 net.cpp:425] loss1/loss <- label_data_1_split_0
…
