…
I0403 16:12:02.865670 17400 net.cpp:313] The NetState phase (1) differed from the phase (0) specified by a rule in layer data
I0403 16:12:02.867100 17400 net.cpp:49] Initializing net from parameters: 
state {
  phase: TEST
}
layer {
  name: "data"
  type: "Data"
  top: "data"
  top: "label"
  include {
    phase: TEST
  }
  transform_param {
    mirror: false
    crop_size: 224
    mean_file: "/home/mohanty/data/final_dataset/lmdb/color-20-80/mean.binaryproto"
  }
  data_param {
    source: "/home/mohanty/data/final_dataset/lmdb/color-20-80/test_db"
    batch_size: 24
    backend: LMDB
  }
}
layer {
  name: "conv1/7x7_s2"
  type: "Convolution"
  bottom: "data"
  top: "conv1/7x7_s2"
  param {
    lr_mult: 1
    decay_mult: 1
  }
  param {
    lr_mult: 2
    decay_mult: 0
  }
  convolution_param {
    num_output: 64
    pad: 3
    kernel_size: 7
    stride: 2
    weight_filler {
      type: "xavier"
      std: 0.1
    }
    bias_filler {
      type: "constant"
      value: 0.2
    }
  }
}
layer {
  name: "conv1/relu_7x7"
  type: "ReLU"
  bottom: "conv1/7x7_s2"
  top: "conv1/7x7_s2"
}
layer {
  name: "pool1/3x3_s2"
  type: "Pooling"
  bottom: "conv1/7x7_s2"
  top: "pool1/3x3_s2"
  pooling_param {
    pool: MAX
    kernel_size: 3
    stride: 2
  }
}
layer {
  name: "pool1/norm1"
  type: "LRN"
  bottom: "pool1/3x3_s2"
  top: "pool1/norm1"
  lrn_param {
    local_size: 5
    alpha: 0.0001
    beta: 0.75
  }
}
layer {
  name: "conv2/3x3_reduce"
  type: "Convolution"
  bottom: "pool1/norm1"
  top: "conv2/3x3_reduce"
  param {
    lr_mult: 1
    decay_mult: 1
  }
  param {
    lr_mult: 2
    decay_mult: 0
  }
  convolution_param {
    num_output: 64
    kernel_size: 1
    weight_filler {
      type: "xavier"
      std: 0.1
    }
    bias_filler {
      type: "constant"
      value: 0.2
    }
  }
}
layer {
  name: "conv2/relu_3x3_reduce"
  type: "ReLU"
  bottom: "conv2/3x3_reduce"
  top: "conv2/3x3_reduce"
}
layer {
  name: "conv2/3x3"
  type: "Convolution"
  bottom: "conv2/3x3_reduce"
  top: "conv2/3x3"
  param {
    lr_mult: 1
    decay_mult: 1
  }
  param {
    lr_mult: 2
    decay_mult: 0
  }
  convolution_param {
    num_output: 192
    pad: 1
    kernel_size: 3
    weight_filler {
      type: "xavier"
      std: 0.03
    }
    bias_filler {
      type: "constant"
      value: 0.2
    }
  }
}
layer {
  name: "conv2/relu_3x3"
  type: "ReLU"
  bottom: "conv2/3x3"
  top: "conv2/3x3"
}
layer {
  name: "conv2/norm2"
  type: "LRN"
  bottom: "conv2/3x3"
  top: "conv2/norm2"
  lrn_param {
    local_size: 5
    alpha: 0.0001
    beta: 0.75
  }
}
layer {
  name: "pool2/3x3_s2"
  type: "Pooling"
  bottom: "conv2/norm2"
  top: "pool2/3x3_s2"
  pooling_param {
    pool: MAX
    kernel_size: 3
    stride: 2
  }
}
layer {
  name: "inception_3a/1x1"
  type: "Convolution"
  bottom: "pool2/3x3_s2"
  top: "inception_3a/1x1"
  param {
    lr_mult: 1
    decay_mult: 1
  }
  param {
    lr_mult: 2
    decay_mult: 0
  }
  convolution_param {
    num_output: 64
    kernel_size: 1
    weight_filler {
      type: "xavier"
      std: 0.03
    }
    bias_filler {
      type: "constant"
      value: 0.2
    }
  }
}
layer {
  name: "inception_3a/relu_1x1"
  type: "ReLU"
  bottom: "inception_3a/1x1"
  top: "inception_3a/1x1"
}
layer {
  name: "inception_3a/3x3_reduce"
  type: "Convolution"
  bottom: "pool2/3x3_s2"
  top: "inception_3a/3x3_reduce"
  param {
    lr_mult: 1
    decay_mult: 1
  }
  param {
    lr_mult: 2
    decay_mult: 0
  }
  convolution_param {
    num_output: 96
    kernel_size: 1
    weight_filler {
      type: "xavier"
      std: 0.09
    }
    bias_filler {
      type: "constant"
      value: 0.2
    }
  }
}
layer {
  name: "inception_3a/relu_3x3_reduce"
  type: "ReLU"
  bottom: "inception_3a/3x3_reduce"
  top: "inception_3a/3x3_reduce"
}
layer {
  name: "inception_3a/3x3"
  type: "Convolution"
  bottom: "inception_3a/3x3_reduce"
  top: "inception_3a/3x3"
  param {
    lr_mult: 1
    decay_mult: 1
  }
  param {
    lr_mult: 2
    decay_mult: 0
  }
  convolution_param {
    num_output: 128
    pad: 1
    kernel_size: 3
    weight_filler {
      type: "xavier"
      std: 0.03
    }
    bias_filler {
      type: "constant"
      value: 0.2
    }
  }
}
layer {
  name: "inception_3a/relu_3x3"
  type: "ReLU"
  bottom: "inception_3a/3x3"
  top: "inception_3a/3x3"
}
layer {
  name: "inception_3a/5x5_reduce"
  type: "Convolution"
  bottom: "pool2/3x3_s2"
  top: "inception_3a/5x5_reduce"
  param {
    lr_mult: 1
    decay_mult: 1
  }
  param {
    lr_mult: 2
    decay_mult: 0
  }
  convolution_param {
    num_output: 16
    kernel_size: 1
    weight_filler {
      type: "xavier"
      std: 0.2
    }
    bias_filler {
      type: "constant"
      value: 0.2
    }
  }
}
layer {
  name: "inception_3a/relu_5x5_reduce"
  type: "ReLU"
  bottom: "inception_3a/5x5_reduce"
  top: "inception_3a/5x5_reduce"
}
layer {
  name: "inception_3a/5x5"
  type: "Convolution"
  bottom: "inception_3a/5x5_reduce"
  top: "inception_3a/5x5"
  param {
    lr_mult: 1
    decay_mult: 1
  }
  param {
    lr_mult: 2
    decay_mult: 0
  }
  convolution_param {
    num_output: 32
    pad: 2
    kernel_size: 5
    weight_filler {
      type: "xavier"
      std: 0.03
    }
    bias_filler {
      type: "constant"
      value: 0.2
    }
  }
}
layer {
  name: "inception_3a/relu_5x5"
  type: "ReLU"
  bottom: "inception_3a/5x5"
  top: "inception_3a/5x5"
}
layer {
  name: "inception_3a/pool"
  type: "Pooling"
  bottom: "pool2/3x3_s2"
  top: "inception_3a/pool"
  pooling_param {
    pool: MAX
    kernel_size: 3
    stride: 1
    pad: 1
  }
}
layer {
  name: "inception_3a/pool_proj"
  type: "Convolution"
  bottom: "inception_3a/pool"
  top: "inception_3a/pool_proj"
  param {
    lr_mult: 1
    decay_mult: 1
  }
  param {
    lr_mult: 2
    decay_mult: 0
  }
  convolution_param {
    num_output: 32
    kernel_size: 1
    weight_filler {
      type: "xavier"
      std: 0.1
    }
    bias_filler {
      type: "constant"
      value: 0.2
    }
  }
}
layer {
  name: "inception_3a/relu_pool_proj"
  type: "ReLU"
  bottom: "inception_3a/pool_proj"
  top: "inception_3a/pool_proj"
}
layer {
  name: "inception_3a/output"
  type: "Concat"
  bottom: "inception_3a/1x1"
  bottom: "inception_3a/3x3"
  bottom: "inception_3a/5x5"
  bottom: "inception_3a/pool_proj"
  top: "inception_3a/output"
}
layer {
  name: "inception_3b/1x1"
  type: "Convolution"
  bottom: "inception_3a/output"
  top: "inception_3b/1x1"
  param {
    lr_mult: 1
    decay_mult: 1
  }
  param {
    lr_mult: 2
    decay_mult: 0
  }
  convolution_param {
    num_output: 128
    kernel_size: 1
    weight_filler {
      type: "xavier"
      std: 0.03
    }
    bias_filler {
      type: "constant"
      value: 0.2
    }
  }
}
layer {
  name: "inception_3b/relu_1x1"
  type: "ReLU"
  bottom: "inception_3b/1x1"
  top: "inception_3b/1x1"
}
layer {
  name: "inception_3b/3x3_reduce"
  type: "Convolution"
  bottom: "inception_3a/output"
  top: "inception_3b/3x3_reduce"
  param {
    lr_mult: 1
    decay_mult: 1
  }
  param {
    lr_mult: 2
    decay_mult: 0
  }
  convolution_param {
    num_output: 128
    kernel_size: 1
    weight_filler {
      type: "xavier"
      std: 0.09
    }
    bias_filler {
      type: "constant"
      value: 0.2
    }
  }
}
layer {
  name: "inception_3b/relu_3x3_reduce"
  type: "ReLU"
  bottom: "inception_3b/3x3_reduce"
  top: "inception_3b/3x3_reduce"
}
layer {
  name: "inception_3b/3x3"
  type: "Convolution"
  bottom: "inception_3b/3x3_reduce"
  top: "inception_3b/3x3"
  param {
    lr_mult: 1
    decay_mult: 1
  }
  param {
    lr_mult: 2
    decay_mult: 0
  }
  convolution_param {
    num_output: 192
    pad: 1
    kernel_size: 3
    weight_filler {
      type: "xavier"
      std: 0.03
    }
    bias_filler {
      type: "constant"
      value: 0.2
    }
  }
}
layer {
  name: "inception_3b/relu_3x3"
  type: "ReLU"
  bottom: "inception_3b/3x3"
  top: "inception_3b/3x3"
}
layer {
  name: "inception_3b/5x5_reduce"
  type: "Convolution"
  bottom: "inception_3a/output"
  top: "inception_3b/5x5_reduce"
  param {
    lr_mult: 1
    decay_mult: 1
  }
  param {
    lr_mult: 2
    decay_mult: 0
  }
  convolution_param {
    num_output: 32
    kernel_size: 1
    weight_filler {
      type: "xavier"
      std: 0.2
    }
    bias_filler {
      type: "constant"
      value: 0.2
    }
  }
}
layer {
  name: "inception_3b/relu_5x5_reduce"
  type: "ReLU"
  bottom: "inception_3b/5x5_reduce"
  top: "inception_3b/5x5_reduce"
}
layer {
  name: "inception_3b/5x5"
  type: "Convolution"
  bottom: "inception_3b/5x5_reduce"
  top: "inception_3b/5x5"
  param {
    lr_mult: 1
    decay_mult: 1
  }
  param {
    lr_mult: 2
    decay_mult: 0
  }
  convolution_param {
    num_output: 96
    pad: 2
    kernel_size: 5
    weight_filler {
      type: "xavier"
      std: 0.03
    }
    bias_filler {
      type: "constant"
      value: 0.2
    }
  }
}
layer {
  name: "inception_3b/relu_5x5"
  type: "ReLU"
  bottom: "inception_3b/5x5"
  top: "inception_3b/5x5"
}
layer {
  name: "inception_3b/pool"
  type: "Pooling"
  bottom: "inception_3a/output"
  top: "inception_3b/pool"
  pooling_param {
    pool: MAX
    kernel_size: 3
    stride: 1
    pad: 1
  }
}
layer {
  name: "inception_3b/pool_proj"
  type: "Convolution"
  bottom: "inception_3b/pool"
  top: "inception_3b/pool_proj"
  param {
    lr_mult: 1
    decay_mult: 1
  }
  param {
    lr_mult: 2
    decay_mult: 0
  }
  convolution_param {
    num_output: 64
    kernel_size: 1
    weight_filler {
      type: "xavier"
      std: 0.1
    }
    bias_filler {
      type: "constant"
      value: 0.2
    }
  }
}
layer {
  name: "inception_3b/relu_pool_proj"
  type: "ReLU"
  bottom: "inception_3b/pool_proj"
  top: "inception_3b/pool_proj"
}
layer {
  name: "inception_3b/output"
  type: "Concat"
  bottom: "inception_3b/1x1"
  bottom: "inception_3b/3x3"
  bottom: "inception_3b/5x5"
  bottom: "inception_3b/pool_proj"
  top: "inception_3b/output"
}
layer {
  name: "pool3/3x3_s2"
  type: "Pooling"
  bottom: "inception_3b/output"
  top: "pool3/3x3_s2"
  pooling_param {
    pool: MAX
    kernel_size: 3
    stride: 2
  }
}
layer {
  name: "inception_4a/1x1"
  type: "Convolution"
  bottom: "pool3/3x3_s2"
  top: "inception_4a/1x1"
  param {
    lr_mult: 1
    decay_mult: 1
  }
  param {
    lr_mult: 2
    decay_mult: 0
  }
  convolution_param {
    num_output: 192
    kernel_size: 1
    weight_filler {
      type: "xavier"
      std: 0.03
    }
    bias_filler {
      type: "constant"
      value: 0.2
    }
  }
}
layer {
  name: "inception_4a/relu_1x1"
  type: "ReLU"
  bottom: "inception_4a/1x1"
  top: "inception_4a/1x1"
}
layer {
  name: "inception_4a/3x3_reduce"
  type: "Convolution"
  bottom: "pool3/3x3_s2"
  top: "inception_4a/3x3_reduce"
  param {
    lr_mult: 1
    decay_mult: 1
  }
  param {
    lr_mult: 2
    decay_mult: 0
  }
  convolution_param {
    num_output: 96
    kernel_size: 1
    weight_filler {
      type: "xavier"
      std: 0.09
    }
    bias_filler {
      type: "constant"
      value: 0.2
    }
  }
}
layer {
  name: "inception_4a/relu_3x3_reduce"
  type: "ReLU"
  bottom: "inception_4a/3x3_reduce"
  top: "inception_4a/3x3_reduce"
}
layer {
  name: "inception_4a/3x3"
  type: "Convolution"
  bottom: "inception_4a/3x3_reduce"
  top: "inception_4a/3x3"
  param {
    lr_mult: 1
    decay_mult: 1
  }
  param {
    lr_mult: 2
    decay_mult: 0
  }
  convolution_param {
    num_output: 208
    pad: 1
    kernel_size: 3
    weight_filler {
      type: "xavier"
      std: 0.03
    }
    bias_filler {
      type: "constant"
      value: 0.2
    }
  }
}
layer {
  name: "inception_4a/relu_3x3"
  type: "ReLU"
  bottom: "inception_4a/3x3"
  top: "inception_4a/3x3"
}
layer {
  name: "inception_4a/5x5_reduce"
  type: "Convolution"
  bottom: "pool3/3x3_s2"
  top: "inception_4a/5x5_reduce"
  param {
    lr_mult: 1
    decay_mult: 1
  }
  param {
    lr_mult: 2
    decay_mult: 0
  }
  convolution_param {
    num_output: 16
    kernel_size: 1
    weight_filler {
      type: "xavier"
      std: 0.2
    }
    bias_filler {
      type: "constant"
      value: 0.2
    }
  }
}
layer {
  name: "inception_4a/relu_5x5_reduce"
  type: "ReLU"
  bottom: "inception_4a/5x5_reduce"
  top: "inception_4a/5x5_reduce"
}
layer {
  name: "inception_4a/5x5"
  type: "Convolution"
  bottom: "inception_4a/5x5_reduce"
  top: "inception_4a/5x5"
  param {
    lr_mult: 1
    decay_mult: 1
  }
  param {
    lr_mult: 2
    decay_mult: 0
  }
  convolution_param {
    num_output: 48
    pad: 2
    kernel_size: 5
    weight_filler {
      type: "xavier"
      std: 0.03
    }
    bias_filler {
      type: "constant"
      value: 0.2
    }
  }
}
layer {
  name: "inception_4a/relu_5x5"
  type: "ReLU"
  bottom: "inception_4a/5x5"
  top: "inception_4a/5x5"
}
layer {
  name: "inception_4a/pool"
  type: "Pooling"
  bottom: "pool3/3x3_s2"
  top: "inception_4a/pool"
  pooling_param {
    pool: MAX
    kernel_size: 3
    stride: 1
    pad: 1
  }
}
layer {
  name: "inception_4a/pool_proj"
  type: "Convolution"
  bottom: "inception_4a/pool"
  top: "inception_4a/pool_proj"
  param {
    lr_mult: 1
    decay_mult: 1
  }
  param {
    lr_mult: 2
    decay_mult: 0
  }
  convolution_param {
    num_output: 64
    kernel_size: 1
    weight_filler {
      type: "xavier"
      std: 0.1
    }
    bias_filler {
      type: "constant"
      value: 0.2
    }
  }
}
layer {
  name: "inception_4a/relu_pool_proj"
  type: "ReLU"
  bottom: "inception_4a/pool_proj"
  top: "inception_4a/pool_proj"
}
layer {
  name: "inception_4a/output"
  type: "Concat"
  bottom: "inception_4a/1x1"
  bottom: "inception_4a/3x3"
  bottom: "inception_4a/5x5"
  bottom: "inception_4a/pool_proj"
  top: "inception_4a/output"
}
layer {
  name: "loss1/ave_pool"
  type: "Pooling"
  bottom: "inception_4a/output"
  top: "loss1/ave_pool"
  pooling_param {
    pool: AVE
    kernel_size: 5
    stride: 3
  }
}
layer {
  name: "loss1/conv"
  type: "Convolution"
  bottom: "loss1/ave_pool"
  top: "loss1/conv"
  param {
    lr_mult: 1
    decay_mult: 1
  }
  param {
    lr_mult: 2
    decay_mult: 0
  }
  convolution_param {
    num_output: 128
    kernel_size: 1
    weight_filler {
      type: "xavier"
      std: 0.08
    }
    bias_filler {
      type: "constant"
      value: 0.2
    }
  }
}
layer {
  name: "loss1/relu_conv"
  type: "ReLU"
  bottom: "loss1/conv"
  top: "loss1/conv"
}
layer {
  name: "loss1/fc"
  type: "InnerProduct"
  bottom: "loss1/conv"
  top: "loss1/fc"
  param {
    lr_mult: 1
    decay_mult: 1
  }
  param {
    lr_mult: 2
    decay_mult: 0
  }
  inner_product_param {
    num_output: 1024
    weight_filler {
      type: "xavier"
      std: 0.02
    }
    bias_filler {
      type: "constant"
      value: 0.2
    }
  }
}
layer {
  name: "loss1/relu_fc"
  type: "ReLU"
  bottom: "loss1/fc"
  top: "loss1/fc"
}
layer {
  name: "loss1/drop_fc"
  type: "Dropout"
  bottom: "loss1/fc"
  top: "loss1/fc"
  dropout_param {
    dropout_ratio: 0.7
  }
}
layer {
  name: "loss1/classifier_plantvillage"
  type: "InnerProduct"
  bottom: "loss1/fc"
  top: "loss1/classifier_plantvillage"
  param {
    lr_mult: 1
    decay_mult: 1
  }
  param {
    lr_mult: 2
    decay_mult: 0
  }
  inner_product_param {
    num_output: 38
    weight_filler {
      type: "xavier"
      std: 0.0009765625
    }
    bias_filler {
      type: "constant"
      value: 0
    }
  }
}
layer {
  name: "inception_4b/1x1"
  type: "Convolution"
  bottom: "inception_4a/output"
  top: "inception_4b/1x1"
  param {
    lr_mult: 1
    decay_mult: 1
  }
  param {
    lr_mult: 2
    decay_mult: 0
  }
  convolution_param {
    num_output: 160
    kernel_size: 1
    weight_filler {
      type: "xavier"
      std: 0.03
    }
    bias_filler {
      type: "constant"
      value: 0.2
    }
  }
}
layer {
  name: "inception_4b/relu_1x1"
  type: "ReLU"
  bottom: "inception_4b/1x1"
  top: "inception_4b/1x1"
}
layer {
  name: "inception_4b/3x3_reduce"
  type: "Convolution"
  bottom: "inception_4a/output"
  top: "inception_4b/3x3_reduce"
  param {
    lr_mult: 1
    decay_mult: 1
  }
  param {
    lr_mult: 2
    decay_mult: 0
  }
  convolution_param {
    num_output: 112
    kernel_size: 1
    weight_filler {
      type: "xavier"
      std: 0.09
    }
    bias_filler {
      type: "constant"
      value: 0.2
    }
  }
}
layer {
  name: "inception_4b/relu_3x3_reduce"
  type: "ReLU"
  bottom: "inception_4b/3x3_reduce"
  top: "inception_4b/3x3_reduce"
}
layer {
  name: "inception_4b/3x3"
  type: "Convolution"
  bottom: "inception_4b/3x3_reduce"
  top: "inception_4b/3x3"
  param {
    lr_mult: 1
    decay_mult: 1
  }
  param {
    lr_mult: 2
    decay_mult: 0
  }
  convolution_param {
    num_output: 224
    pad: 1
    kernel_size: 3
    weight_filler {
      type: "xavier"
      std: 0.03
    }
    bias_filler {
      type: "constant"
      value: 0.2
    }
  }
}
layer {
  name: "inception_4b/relu_3x3"
  type: "ReLU"
  bottom: "inception_4b/3x3"
  top: "inception_4b/3x3"
}
layer {
  name: "inception_4b/5x5_reduce"
  type: "Convolution"
  bottom: "inception_4a/output"
  top: "inception_4b/5x5_reduce"
  param {
    lr_mult: 1
    decay_mult: 1
  }
  param {
    lr_mult: 2
    decay_mult: 0
  }
  convolution_param {
    num_output: 24
    kernel_size: 1
    weight_filler {
      type: "xavier"
      std: 0.2
    }
    bias_filler {
      type: "constant"
      value: 0.2
    }
  }
}
layer {
  name: "inception_4b/relu_5x5_reduce"
  type: "ReLU"
  bottom: "inception_4b/5x5_reduce"
  top: "inception_4b/5x5_reduce"
}
layer {
  name: "inception_4b/5x5"
  type: "Convolution"
  bottom: "inception_4b/5x5_reduce"
  top: "inception_4b/5x5"
  param {
    lr_mult: 1
    decay_mult: 1
  }
  param {
    lr_mult: 2
    decay_mult: 0
  }
  convolution_param {
    num_output: 64
    pad: 2
    kernel_size: 5
    weight_filler {
      type: "xavier"
      std: 0.03
    }
    bias_filler {
      type: "constant"
      value: 0.2
    }
  }
}
layer {
  name: "inception_4b/relu_5x5"
  type: "ReLU"
  bottom: "inception_4b/5x5"
  top: "inception_4b/5x5"
}
layer {
  name: "inception_4b/pool"
  type: "Pooling"
  bottom: "inception_4a/output"
  top: "inception_4b/pool"
  pooling_param {
    pool: MAX
    kernel_size: 3
    stride: 1
    pad: 1
  }
}
layer {
  name: "inception_4b/pool_proj"
  type: "Convolution"
  bottom: "inception_4b/pool"
  top: "inception_4b/pool_proj"
  param {
    lr_mult: 1
    decay_mult: 1
  }
  param {
    lr_mult: 2
    decay_mult: 0
  }
  convolution_param {
    num_output: 64
    kernel_size: 1
    weight_filler {
      type: "xavier"
      std: 0.1
    }
    bias_filler {
      type: "constant"
      value: 0.2
    }
  }
}
layer {
  name: "inception_4b/relu_pool_proj"
  type: "ReLU"
  bottom: "inception_4b/pool_proj"
  top: "inception_4b/pool_proj"
}
layer {
  name: "inception_4b/output"
  type: "Concat"
  bottom: "inception_4b/1x1"
  bottom: "inception_4b/3x3"
  bottom: "inception_4b/5x5"
  bottom: "inception_4b/pool_proj"
  top: "inception_4b/output"
}
layer {
  name: "inception_4c/1x1"
  type: "Convolution"
  bottom: "inception_4b/output"
  top: "inception_4c/1x1"
  param {
    lr_mult: 1
    decay_mult: 1
  }
  param {
    lr_mult: 2
    decay_mult: 0
  }
  convolution_param {
    num_output: 128
    kernel_size: 1
    weight_filler {
      type: "xavier"
      std: 0.03
    }
    bias_filler {
      type: "constant"
      value: 0.2
    }
  }
}
layer {
  name: "inception_4c/relu_1x1"
  type: "ReLU"
  bottom: "inception_4c/1x1"
  top: "inception_4c/1x1"
}
layer {
  name: "inception_4c/3x3_reduce"
  type: "Convolution"
  bottom: "inception_4b/output"
  top: "inception_4c/3x3_reduce"
  param {
    lr_mult: 1
    decay_mult: 1
  }
  param {
    lr_mult: 2
    decay_mult: 0
  }
  convolution_param {
    num_output: 128
    kernel_size: 1
    weight_filler {
      type: "xavier"
      std: 0.09
    }
    bias_filler {
      type: "constant"
      value: 0.2
    }
  }
}
layer {
  name: "inception_4c/relu_3x3_reduce"
  type: "ReLU"
  bottom: "inception_4c/3x3_reduce"
  top: "inception_4c/3x3_reduce"
}
layer {
  name: "inception_4c/3x3"
  type: "Convolution"
  bottom: "inception_4c/3x3_reduce"
  top: "inception_4c/3x3"
  param {
    lr_mult: 1
    decay_mult: 1
  }
  param {
    lr_mult: 2
    decay_mult: 0
  }
  convolution_param {
    num_output: 256
    pad: 1
    kernel_size: 3
    weight_filler {
      type: "xavier"
      std: 0.03
    }
    bias_filler {
      type: "constant"
      value: 0.2
    }
  }
}
layer {
  name: "inception_4c/relu_3x3"
  type: "ReLU"
  bottom: "inception_4c/3x3"
  top: "inception_4c/3x3"
}
layer {
  name: "inception_4c/5x5_reduce"
  type: "Convolution"
  bottom: "inception_4b/output"
  top: "inception_4c/5x5_reduce"
  param {
    lr_mult: 1
    decay_mult: 1
  }
  param {
    lr_mult: 2
    decay_mult: 0
  }
  convolution_param {
    num_output: 24
    kernel_size: 1
    weight_filler {
      type: "xavier"
      std: 0.2
    }
    bias_filler {
      type: "constant"
      value: 0.2
    }
  }
}
layer {
  name: "inception_4c/relu_5x5_reduce"
  type: "ReLU"
  bottom: "inception_4c/5x5_reduce"
  top: "inception_4c/5x5_reduce"
}
layer {
  name: "inception_4c/5x5"
  type: "Convolution"
  bottom: "inception_4c/5x5_reduce"
  top: "inception_4c/5x5"
  param {
    lr_mult: 1
    decay_mult: 1
  }
  param {
    lr_mult: 2
    decay_mult: 0
  }
  convolution_param {
    num_output: 64
    pad: 2
    kernel_size: 5
    weight_filler {
      type: "xavier"
      std: 0.03
    }
    bias_filler {
      type: "constant"
      value: 0.2
    }
  }
}
layer {
  name: "inception_4c/relu_5x5"
  type: "ReLU"
  bottom: "inception_4c/5x5"
  top: "inception_4c/5x5"
}
layer {
  name: "inception_4c/pool"
  type: "Pooling"
  bottom: "inception_4b/output"
  top: "inception_4c/pool"
  pooling_param {
    pool: MAX
    kernel_size: 3
    stride: 1
    pad: 1
  }
}
layer {
  name: "inception_4c/pool_proj"
  type: "Convolution"
  bottom: "inception_4c/pool"
  top: "inception_4c/pool_proj"
  param {
    lr_mult: 1
    decay_mult: 1
  }
  param {
    lr_mult: 2
    decay_mult: 0
  }
  convolution_param {
    num_output: 64
    kernel_size: 1
    weight_filler {
      type: "xavier"
      std: 0.1
    }
    bias_filler {
      type: "constant"
      value: 0.2
    }
  }
}
layer {
  name: "inception_4c/relu_pool_proj"
  type: "ReLU"
  bottom: "inception_4c/pool_proj"
  top: "inception_4c/pool_proj"
}
layer {
  name: "inception_4c/output"
  type: "Concat"
  bottom: "inception_4c/1x1"
  bottom: "inception_4c/3x3"
  bottom: "inception_4c/5x5"
  bottom: "inception_4c/pool_proj"
  top: "inception_4c/output"
}
layer {
  name: "inception_4d/1x1"
  type: "Convolution"
  bottom: "inception_4c/output"
  top: "inception_4d/1x1"
  param {
    lr_mult: 1
    decay_mult: 1
  }
  param {
    lr_mult: 2
    decay_mult: 0
  }
  convolution_param {
    num_output: 112
    kernel_size: 1
    weight_filler {
      type: "xavier"
      std: 0.03
    }
    bias_filler {
      type: "constant"
      value: 0.2
    }
  }
}
layer {
  name: "inception_4d/relu_1x1"
  type: "ReLU"
  bottom: "inception_4d/1x1"
  top: "inception_4d/1x1"
}
layer {
  name: "inception_4d/3x3_reduce"
  type: "Convolution"
  bottom: "inception_4c/output"
  top: "inception_4d/3x3_reduce"
  param {
    lr_mult: 1
    decay_mult: 1
  }
  param {
    lr_mult: 2
    decay_mult: 0
  }
  convolution_param {
    num_output: 144
    kernel_size: 1
    weight_filler {
      type: "xavier"
      std: 0.09
    }
    bias_filler {
      type: "constant"
      value: 0.2
    }
  }
}
layer {
  name: "inception_4d/relu_3x3_reduce"
  type: "ReLU"
  bottom: "inception_4d/3x3_reduce"
  top: "inception_4d/3x3_reduce"
}
layer {
  name: "inception_4d/3x3"
  type: "Convolution"
  bottom: "inception_4d/3x3_reduce"
  top: "inception_4d/3x3"
  param {
    lr_mult: 1
    decay_mult: 1
  }
  param {
    lr_mult: 2
    decay_mult: 0
  }
  convolution_param {
    num_output: 288
    pad: 1
    kernel_size: 3
    weight_filler {
      type: "xavier"
      std: 0.03
    }
    bias_filler {
      type: "constant"
      value: 0.2
    }
  }
}
layer {
  name: "inception_4d/relu_3x3"
  type: "ReLU"
  bottom: "inception_4d/3x3"
  top: "inception_4d/3x3"
}
layer {
  name: "inception_4d/5x5_reduce"
  type: "Convolution"
  bottom: "inception_4c/output"
  top: "inception_4d/5x5_reduce"
  param {
    lr_mult: 1
    decay_mult: 1
  }
  param {
    lr_mult: 2
    decay_mult: 0
  }
  convolution_param {
    num_output: 32
    kernel_size: 1
    weight_filler {
      type: "xavier"
      std: 0.2
    }
    bias_filler {
      type: "constant"
      value: 0.2
    }
  }
}
layer {
  name: "inception_4d/relu_5x5_reduce"
  type: "ReLU"
  bottom: "inception_4d/5x5_reduce"
  top: "inception_4d/5x5_reduce"
}
layer {
  name: "inception_4d/5x5"
  type: "Convolution"
  bottom: "inception_4d/5x5_reduce"
  top: "inception_4d/5x5"
  param {
    lr_mult: 1
    decay_mult: 1
  }
  param {
    lr_mult: 2
    decay_mult: 0
  }
  convolution_param {
    num_output: 64
    pad: 2
    kernel_size: 5
    weight_filler {
      type: "xavier"
      std: 0.03
    }
    bias_filler {
      type: "constant"
      value: 0.2
    }
  }
}
layer {
  name: "inception_4d/relu_5x5"
  type: "ReLU"
  bottom: "inception_4d/5x5"
  top: "inception_4d/5x5"
}
layer {
  name: "inception_4d/pool"
  type: "Pooling"
  bottom: "inception_4c/output"
  top: "inception_4d/pool"
  pooling_param {
    pool: MAX
    kernel_size: 3
    stride: 1
    pad: 1
  }
}
layer {
  name: "inception_4d/pool_proj"
  type: "Convolution"
  bottom: "inception_4d/pool"
  top: "inception_4d/pool_proj"
  param {
    lr_mult: 1
    decay_mult: 1
  }
  param {
    lr_mult: 2
    decay_mult: 0
  }
  convolution_param {
    num_output: 64
    kernel_size: 1
    weight_filler {
      type: "xavier"
      std: 0.1
    }
    bias_filler {
      type: "constant"
      value: 0.2
    }
  }
}
layer {
  name: "inception_4d/relu_pool_proj"
  type: "ReLU"
  bottom: "inception_4d/pool_proj"
  top: "inception_4d/pool_proj"
}
layer {
  name: "inception_4d/output"
  type: "Concat"
  bottom: "inception_4d/1x1"
  bottom: "inception_4d/3x3"
  bottom: "inception_4d/5x5"
  bottom: "inception_4d/pool_proj"
  top: "inception_4d/output"
}
layer {
  name: "loss2/ave_pool"
  type: "Pooling"
  bottom: "inception_4d/output"
  top: "loss2/ave_pool"
  pooling_param {
    pool: AVE
    kernel_size: 5
    stride: 3
  }
}
layer {
  name: "loss2/conv"
  type: "Convolution"
  bottom: "loss2/ave_pool"
  top: "loss2/conv"
  param {
    lr_mult: 1
    decay_mult: 1
  }
  param {
    lr_mult: 2
    decay_mult: 0
  }
  convolution_param {
    num_output: 128
    kernel_size: 1
    weight_filler {
      type: "xavier"
      std: 0.08
    }
    bias_filler {
      type: "constant"
      value: 0.2
    }
  }
}
layer {
  name: "loss2/relu_conv"
  type: "ReLU"
  bottom: "loss2/conv"
  top: "loss2/conv"
}
layer {
  name: "loss2/fc"
  type: "InnerProduct"
  bottom: "loss2/conv"
  top: "loss2/fc"
  param {
    lr_mult: 1
    decay_mult: 1
  }
  param {
    lr_mult: 2
    decay_mult: 0
  }
  inner_product_param {
    num_output: 1024
    weight_filler {
      type: "xavier"
      std: 0.02
    }
    bias_filler {
      type: "constant"
      value: 0.2
    }
  }
}
layer {
  name: "loss2/relu_fc"
  type: "ReLU"
  bottom: "loss2/fc"
  top: "loss2/fc"
}
layer {
  name: "loss2/drop_fc"
  type: "Dropout"
  bottom: "loss2/fc"
  top: "loss2/fc"
  dropout_param {
    dropout_ratio: 0.7
  }
}
layer {
  name: "loss2/classifier_plantvillage"
  type: "InnerProduct"
  bottom: "loss2/fc"
  top: "loss2/classifier_plantvillage"
  param {
    lr_mult: 1
    decay_mult: 1
  }
  param {
    lr_mult: 2
    decay_mult: 0
  }
  inner_product_param {
    num_output: 38
    weight_filler {
      type: "xavier"
      std: 0.0009765625
    }
    bias_filler {
      type: "constant"
      value: 0
    }
  }
}
layer {
  name: "inception_4e/1x1"
  type: "Convolution"
  bottom: "inception_4d/output"
  top: "inception_4e/1x1"
  param {
    lr_mult: 1
    decay_mult: 1
  }
  param {
    lr_mult: 2
    decay_mult: 0
  }
  convolution_param {
    num_output: 256
    kernel_size: 1
    weight_filler {
      type: "xavier"
      std: 0.03
    }
    bias_filler {
      type: "constant"
      value: 0.2
    }
  }
}
layer {
  name: "inception_4e/relu_1x1"
  type: "ReLU"
  bottom: "inception_4e/1x1"
  top: "inception_4e/1x1"
}
layer {
  name: "inception_4e/3x3_reduce"
  type: "Convolution"
  bottom: "inception_4d/output"
  top: "inception_4e/3x3_reduce"
  param {
    lr_mult: 1
    decay_mult: 1
  }
  param {
    lr_mult: 2
    decay_mult: 0
  }
  convolution_param {
    num_output: 160
    kernel_size: 1
    weight_filler {
      type: "xavier"
      std: 0.09
    }
    bias_filler {
      type: "constant"
      value: 0.2
    }
  }
}
layer {
  name: "inception_4e/relu_3x3_reduce"
  type: "ReLU"
  bottom: "inception_4e/3x3_reduce"
  top: "inception_4e/3x3_reduce"
}
layer {
  name: "inception_4e/3x3"
  type: "Convolution"
  bottom: "inception_4e/3x3_reduce"
  top: "inception_4e/3x3"
  param {
    lr_mult: 1
    decay_mult: 1
  }
  param {
    lr_mult: 2
    decay_mult: 0
  }
  convolution_param {
    num_output: 320
    pad: 1
    kernel_size: 3
    weight_filler {
      type: "xavier"
      std: 0.03
    }
    bias_filler {
      type: "constant"
      value: 0.2
    }
  }
}
layer {
  name: "inception_4e/relu_3x3"
  type: "ReLU"
  bottom: "inception_4e/3x3"
  top: "inception_4e/3x3"
}
layer {
  name: "inception_4e/5x5_reduce"
  type: "Convolution"
  bottom: "inception_4d/output"
  top: "inception_4e/5x5_reduce"
  param {
    lr_mult: 1
    decay_mult: 1
  }
  param {
    lr_mult: 2
    decay_mult: 0
  }
  convolution_param {
    num_output: 32
    kernel_size: 1
    weight_filler {
      type: "xavier"
      std: 0.2
    }
    bias_filler {
      type: "constant"
      value: 0.2
    }
  }
}
layer {
  name: "inception_4e/relu_5x5_reduce"
  type: "ReLU"
  bottom: "inception_4e/5x5_reduce"
  top: "inception_4e/5x5_reduce"
}
layer {
  name: "inception_4e/5x5"
  type: "Convolution"
  bottom: "inception_4e/5x5_reduce"
  top: "inception_4e/5x5"
  p
I0403 16:12:02.868746 17400 layer_factory.hpp:77] Creating layer data
I0403 16:12:02.869462 17400 net.cpp:91] Creating Layer data
I0403 16:12:02.869503 17400 net.cpp:399] data -> data
I0403 16:12:02.869565 17400 net.cpp:399] data -> label
I0403 16:12:02.869616 17400 data_transformer.cpp:25] Loading mean file from: /home/mohanty/data/final_dataset/lmdb/color-20-80/mean.binaryproto
I0403 16:12:02.870987 17403 db_lmdb.cpp:38] Opened lmdb /home/mohanty/data/final_dataset/lmdb/color-20-80/test_db
I0403 16:12:02.885299 17400 data_layer.cpp:41] output data size: 24,3,224,224
I0403 16:12:02.917409 17400 net.cpp:141] Setting up data
I0403 16:12:02.917495 17400 net.cpp:148] Top shape: 24 3 224 224 (3612672)
I0403 16:12:02.917523 17400 net.cpp:148] Top shape: 24 (24)
I0403 16:12:02.917543 17400 net.cpp:156] Memory required for data: 14450784
I0403 16:12:02.917575 17400 layer_factory.hpp:77] Creating layer label_data_1_split
I0403 16:12:02.917613 17400 net.cpp:91] Creating Layer label_data_1_split
I0403 16:12:02.917639 17400 net.cpp:425] label_data_1_split <- label
I0403 16:12:02.917677 17400 net.cpp:399] label_data_1_split -> label_data_1_split_0
I0403 16:12:02.917712 17400 net.cpp:399] label_data_1_split -> label_data_1_split_1
I0403 16:12:02.917739 17400 net.cpp:399] label_data_1_split -> label_data_1_split_2
I0403 16:12:02.917767 17400 net.cpp:399] label_data_1_split -> label_data_1_split_3
I0403 16:12:02.917791 17400 net.cpp:399] label_data_1_split -> label_data_1_split_4
I0403 16:12:02.917819 17400 net.cpp:399] label_data_1_split -> label_data_1_split_5
I0403 16:12:02.917842 17400 net.cpp:399] label_data_1_split -> label_data_1_split_6
I0403 16:12:02.917867 17400 net.cpp:399] label_data_1_split -> label_data_1_split_7
I0403 16:12:02.917892 17400 net.cpp:399] label_data_1_split -> label_data_1_split_8
I0403 16:12:02.917917 17400 net.cpp:399] label_data_1_split -> label_data_1_split_9
I0403 16:12:02.918054 17400 net.cpp:141] Setting up label_data_1_split
I0403 16:12:02.918084 17400 net.cpp:148] Top shape: 24 (24)
I0403 16:12:02.918105 17400 net.cpp:148] Top shape: 24 (24)
I0403 16:12:02.918125 17400 net.cpp:148] Top shape: 24 (24)
I0403 16:12:02.918145 17400 net.cpp:148] Top shape: 24 (24)
I0403 16:12:02.918164 17400 net.cpp:148] Top shape: 24 (24)
I0403 16:12:02.918184 17400 net.cpp:148] Top shape: 24 (24)
I0403 16:12:02.918203 17400 net.cpp:148] Top shape: 24 (24)
I0403 16:12:02.918223 17400 net.cpp:148] Top shape: 24 (24)
I0403 16:12:02.918243 17400 net.cpp:148] Top shape: 24 (24)
I0403 16:12:02.918264 17400 net.cpp:148] Top shape: 24 (24)
I0403 16:12:02.918318 17400 net.cpp:156] Memory required for data: 14451744
I0403 16:12:02.918339 17400 layer_factory.hpp:77] Creating layer conv1/7x7_s2
I0403 16:12:02.918376 17400 net.cpp:91] Creating Layer conv1/7x7_s2
I0403 16:12:02.918401 17400 net.cpp:425] conv1/7x7_s2 <- data
I0403 16:12:02.918426 17400 net.cpp:399] conv1/7x7_s2 -> conv1/7x7_s2
I0403 16:12:03.084347 17400 net.cpp:141] Setting up conv1/7x7_s2
I0403 16:12:03.084435 17400 net.cpp:148] Top shape: 24 64 112 112 (19267584)
I0403 16:12:03.084458 17400 net.cpp:156] Memory required for data: 91522080
I0403 16:12:03.084499 17400 layer_factory.hpp:77] Creating layer conv1/relu_7x7
I0403 16:12:03.084532 17400 net.cpp:91] Creating Layer conv1/relu_7x7
I0403 16:12:03.084556 17400 net.cpp:425] conv1/relu_7x7 <- conv1/7x7_s2
I0403 16:12:03.084580 17400 net.cpp:386] conv1/relu_7x7 -> conv1/7x7_s2 (in-place)
I0403 16:12:03.084918 17400 net.cpp:141] Setting up conv1/relu_7x7
I0403 16:12:03.084951 17400 net.cpp:148] Top shape: 24 64 112 112 (19267584)
I0403 16:12:03.085057 17400 net.cpp:156] Memory required for data: 168592416
I0403 16:12:03.085080 17400 layer_factory.hpp:77] Creating layer pool1/3x3_s2
I0403 16:12:03.085114 17400 net.cpp:91] Creating Layer pool1/3x3_s2
I0403 16:12:03.085135 17400 net.cpp:425] pool1/3x3_s2 <- conv1/7x7_s2
I0403 16:12:03.085158 17400 net.cpp:399] pool1/3x3_s2 -> pool1/3x3_s2
I0403 16:12:03.085256 17400 net.cpp:141] Setting up pool1/3x3_s2
I0403 16:12:03.085286 17400 net.cpp:148] Top shape: 24 64 56 56 (4816896)
I0403 16:12:03.085305 17400 net.cpp:156] Memory required for data: 187860000
I0403 16:12:03.085325 17400 layer_factory.hpp:77] Creating layer pool1/norm1
I0403 16:12:03.085357 17400 net.cpp:91] Creating Layer pool1/norm1
I0403 16:12:03.085379 17400 net.cpp:425] pool1/norm1 <- pool1/3x3_s2
I0403 16:12:03.085402 17400 net.cpp:399] pool1/norm1 -> pool1/norm1
I0403 16:12:03.085785 17400 net.cpp:141] Setting up pool1/norm1
I0403 16:12:03.085819 17400 net.cpp:148] Top shape: 24 64 56 56 (4816896)
I0403 16:12:03.085839 17400 net.cpp:156] Memory required for data: 207127584
I0403 16:12:03.085858 17400 layer_factory.hpp:77] Creating layer conv2/3x3_reduce
I0403 16:12:03.085897 17400 net.cpp:91] Creating Layer conv2/3x3_reduce
I0403 16:12:03.085919 17400 net.cpp:425] conv2/3x3_reduce <- pool1/norm1
I0403 16:12:03.085943 17400 net.cpp:399] conv2/3x3_reduce -> conv2/3x3_reduce
I0403 16:12:03.087671 17400 net.cpp:141] Setting up conv2/3x3_reduce
I0403 16:12:03.087707 17400 net.cpp:148] Top shape: 24 64 56 56 (4816896)
I0403 16:12:03.087728 17400 net.cpp:156] Memory required for data: 226395168
I0403 16:12:03.087754 17400 layer_factory.hpp:77] Creating layer conv2/relu_3x3_reduce
I0403 16:12:03.087781 17400 net.cpp:91] Creating Layer conv2/relu_3x3_reduce
I0403 16:12:03.087803 17400 net.cpp:425] conv2/relu_3x3_reduce <- conv2/3x3_reduce
I0403 16:12:03.087826 17400 net.cpp:386] conv2/relu_3x3_reduce -> conv2/3x3_reduce (in-place)
I0403 16:12:03.088153 17400 net.cpp:141] Setting up conv2/relu_3x3_reduce
I0403 16:12:03.088187 17400 net.cpp:148] Top shape: 24 64 56 56 (4816896)
I0403 16:12:03.088207 17400 net.cpp:156] Memory required for data: 245662752
I0403 16:12:03.088225 17400 layer_factory.hpp:77] Creating layer conv2/3x3
I0403 16:12:03.088255 17400 net.cpp:91] Creating Layer conv2/3x3
I0403 16:12:03.088279 17400 net.cpp:425] conv2/3x3 <- conv2/3x3_reduce
I0403 16:12:03.088307 17400 net.cpp:399] conv2/3x3 -> conv2/3x3
I0403 16:12:03.091111 17400 net.cpp:141] Setting up conv2/3x3
I0403 16:12:03.091150 17400 net.cpp:148] Top shape: 24 192 56 56 (14450688)
I0403 16:12:03.091200 17400 net.cpp:156] Memory required for data: 303465504
I0403 16:12:03.091233 17400 layer_factory.hpp:77] Creating layer conv2/relu_3x3
I0403 16:12:03.091259 17400 net.cpp:91] Creating Layer conv2/relu_3x3
I0403 16:12:03.091282 17400 net.cpp:425] conv2/relu_3x3 <- conv2/3x3
I0403 16:12:03.091303 17400 net.cpp:386] conv2/relu_3x3 -> conv2/3x3 (in-place)
I0403 16:12:03.091519 17400 net.cpp:141] Setting up conv2/relu_3x3
I0403 16:12:03.091552 17400 net.cpp:148] Top shape: 24 192 56 56 (14450688)
I0403 16:12:03.091611 17400 net.cpp:156] Memory required for data: 361268256
I0403 16:12:03.091632 17400 layer_factory.hpp:77] Creating layer conv2/norm2
I0403 16:12:03.091658 17400 net.cpp:91] Creating Layer conv2/norm2
I0403 16:12:03.091680 17400 net.cpp:425] conv2/norm2 <- conv2/3x3
I0403 16:12:03.091704 17400 net.cpp:399] conv2/norm2 -> conv2/norm2
I0403 16:12:03.092085 17400 net.cpp:141] Setting up conv2/norm2
I0403 16:12:03.092121 17400 net.cpp:148] Top shape: 24 192 56 56 (14450688)
I0403 16:12:03.092142 17400 net.cpp:156] Memory required for data: 419071008
I0403 16:12:03.092162 17400 layer_factory.hpp:77] Creating layer pool2/3x3_s2
I0403 16:12:03.092185 17400 net.cpp:91] Creating Layer pool2/3x3_s2
I0403 16:12:03.092203 17400 net.cpp:425] pool2/3x3_s2 <- conv2/norm2
I0403 16:12:03.092229 17400 net.cpp:399] pool2/3x3_s2 -> pool2/3x3_s2
I0403 16:12:03.092298 17400 net.cpp:141] Setting up pool2/3x3_s2
I0403 16:12:03.092329 17400 net.cpp:148] Top shape: 24 192 28 28 (3612672)
I0403 16:12:03.092350 17400 net.cpp:156] Memory required for data: 433521696
I0403 16:12:03.092368 17400 layer_factory.hpp:77] Creating layer pool2/3x3_s2_pool2/3x3_s2_0_split
I0403 16:12:03.092391 17400 net.cpp:91] Creating Layer pool2/3x3_s2_pool2/3x3_s2_0_split
I0403 16:12:03.092411 17400 net.cpp:425] pool2/3x3_s2_pool2/3x3_s2_0_split <- pool2/3x3_s2
I0403 16:12:03.092432 17400 net.cpp:399] pool2/3x3_s2_pool2/3x3_s2_0_split -> pool2/3x3_s2_pool2/3x3_s2_0_split_0
I0403 16:12:03.092458 17400 net.cpp:399] pool2/3x3_s2_pool2/3x3_s2_0_split -> pool2/3x3_s2_pool2/3x3_s2_0_split_1
I0403 16:12:03.092486 17400 net.cpp:399] pool2/3x3_s2_pool2/3x3_s2_0_split -> pool2/3x3_s2_pool2/3x3_s2_0_split_2
I0403 16:12:03.092514 17400 net.cpp:399] pool2/3x3_s2_pool2/3x3_s2_0_split -> pool2/3x3_s2_pool2/3x3_s2_0_split_3
I0403 16:12:03.092600 17400 net.cpp:141] Setting up pool2/3x3_s2_pool2/3x3_s2_0_split
I0403 16:12:03.092634 17400 net.cpp:148] Top shape: 24 192 28 28 (3612672)
I0403 16:12:03.092655 17400 net.cpp:148] Top shape: 24 192 28 28 (3612672)
I0403 16:12:03.092676 17400 net.cpp:148] Top shape: 24 192 28 28 (3612672)
I0403 16:12:03.092696 17400 net.cpp:148] Top shape: 24 192 28 28 (3612672)
I0403 16:12:03.092715 17400 net.cpp:156] Memory required for data: 491324448
I0403 16:12:03.092732 17400 layer_factory.hpp:77] Creating layer inception_3a/1x1
I0403 16:12:03.092759 17400 net.cpp:91] Creating Layer inception_3a/1x1
I0403 16:12:03.092782 17400 net.cpp:425] inception_3a/1x1 <- pool2/3x3_s2_pool2/3x3_s2_0_split_0
I0403 16:12:03.092810 17400 net.cpp:399] inception_3a/1x1 -> inception_3a/1x1
I0403 16:12:03.094689 17400 net.cpp:141] Setting up inception_3a/1x1
I0403 16:12:03.094727 17400 net.cpp:148] Top shape: 24 64 28 28 (1204224)
I0403 16:12:03.094749 17400 net.cpp:156] Memory required for data: 496141344
I0403 16:12:03.094774 17400 layer_factory.hpp:77] Creating layer inception_3a/relu_1x1
I0403 16:12:03.094796 17400 net.cpp:91] Creating Layer inception_3a/relu_1x1
I0403 16:12:03.094816 17400 net.cpp:425] inception_3a/relu_1x1 <- inception_3a/1x1
I0403 16:12:03.094841 17400 net.cpp:386] inception_3a/relu_1x1 -> inception_3a/1x1 (in-place)
I0403 16:12:03.095052 17400 net.cpp:141] Setting up inception_3a/relu_1x1
I0403 16:12:03.095083 17400 net.cpp:148] Top shape: 24 64 28 28 (1204224)
I0403 16:12:03.095101 17400 net.cpp:156] Memory required for data: 500958240
I0403 16:12:03.095120 17400 layer_factory.hpp:77] Creating layer inception_3a/3x3_reduce
I0403 16:12:03.095147 17400 net.cpp:91] Creating Layer inception_3a/3x3_reduce
I0403 16:12:03.095170 17400 net.cpp:425] inception_3a/3x3_reduce <- pool2/3x3_s2_pool2/3x3_s2_0_split_1
I0403 16:12:03.095196 17400 net.cpp:399] inception_3a/3x3_reduce -> inception_3a/3x3_reduce
I0403 16:12:03.097309 17400 net.cpp:141] Setting up inception_3a/3x3_reduce
I0403 16:12:03.097347 17400 net.cpp:148] Top shape: 24 96 28 28 (1806336)
I0403 16:12:03.097368 17400 net.cpp:156] Memory required for data: 508183584
I0403 16:12:03.097394 17400 layer_factory.hpp:77] Creating layer inception_3a/relu_3x3_reduce
I0403 16:12:03.097441 17400 net.cpp:91] Creating Layer inception_3a/relu_3x3_reduce
I0403 16:12:03.097465 17400 net.cpp:425] inception_3a/relu_3x3_reduce <- inception_3a/3x3_reduce
I0403 16:12:03.097487 17400 net.cpp:386] inception_3a/relu_3x3_reduce -> inception_3a/3x3_reduce (in-place)
I0403 16:12:03.097714 17400 net.cpp:141] Setting up inception_3a/relu_3x3_reduce
I0403 16:12:03.097749 17400 net.cpp:148] Top shape: 24 96 28 28 (1806336)
I0403 16:12:03.097771 17400 net.cpp:156] Memory required for data: 515408928
I0403 16:12:03.097790 17400 layer_factory.hpp:77] Creating layer inception_3a/3x3
I0403 16:12:03.097820 17400 net.cpp:91] Creating Layer inception_3a/3x3
I0403 16:12:03.097841 17400 net.cpp:425] inception_3a/3x3 <- inception_3a/3x3_reduce
I0403 16:12:03.097868 17400 net.cpp:399] inception_3a/3x3 -> inception_3a/3x3
I0403 16:12:03.099879 17400 net.cpp:141] Setting up inception_3a/3x3
I0403 16:12:03.099915 17400 net.cpp:148] Top shape: 24 128 28 28 (2408448)
I0403 16:12:03.099936 17400 net.cpp:156] Memory required for data: 525042720
I0403 16:12:03.099958 17400 layer_factory.hpp:77] Creating layer inception_3a/relu_3x3
I0403 16:12:03.099985 17400 net.cpp:91] Creating Layer inception_3a/relu_3x3
I0403 16:12:03.100008 17400 net.cpp:425] inception_3a/relu_3x3 <- inception_3a/3x3
I0403 16:12:03.100029 17400 net.cpp:386] inception_3a/relu_3x3 -> inception_3a/3x3 (in-place)
I0403 16:12:03.100363 17400 net.cpp:141] Setting up inception_3a/relu_3x3
I0403 16:12:03.100396 17400 net.cpp:148] Top shape: 24 128 28 28 (2408448)
I0403 16:12:03.100415 17400 net.cpp:156] Memory required for data: 534676512
I0403 16:12:03.100435 17400 layer_factory.hpp:77] Creating layer inception_3a/5x5_reduce
I0403 16:12:03.100463 17400 net.cpp:91] Creating Layer inception_3a/5x5_reduce
I0403 16:12:03.100486 17400 net.cpp:425] inception_3a/5x5_reduce <- pool2/3x3_s2_pool2/3x3_s2_0_split_2
I0403 16:12:03.100512 17400 net.cpp:399] inception_3a/5x5_reduce -> inception_3a/5x5_reduce
I0403 16:12:03.101675 17400 net.cpp:141] Setting up inception_3a/5x5_reduce
I0403 16:12:03.101711 17400 net.cpp:148] Top shape: 24 16 28 28 (301056)
I0403 16:12:03.101732 17400 net.cpp:156] Memory required for data: 535880736
I0403 16:12:03.101755 17400 layer_factory.hpp:77] Creating layer inception_3a/relu_5x5_reduce
I0403 16:12:03.101780 17400 net.cpp:91] Creating Layer inception_3a/relu_5x5_reduce
I0403 16:12:03.101802 17400 net.cpp:425] inception_3a/relu_5x5_reduce <- inception_3a/5x5_reduce
I0403 16:12:03.101824 17400 net.cpp:386] inception_3a/relu_5x5_reduce -> inception_3a/5x5_reduce (in-place)
I0403 16:12:03.102171 17400 net.cpp:141] Setting up inception_3a/relu_5x5_reduce
I0403 16:12:03.102205 17400 net.cpp:148] Top shape: 24 16 28 28 (301056)
I0403 16:12:03.102222 17400 net.cpp:156] Memory required for data: 537084960
I0403 16:12:03.102241 17400 layer_factory.hpp:77] Creating layer inception_3a/5x5
I0403 16:12:03.102272 17400 net.cpp:91] Creating Layer inception_3a/5x5
I0403 16:12:03.102295 17400 net.cpp:425] inception_3a/5x5 <- inception_3a/5x5_reduce
I0403 16:12:03.102320 17400 net.cpp:399] inception_3a/5x5 -> inception_3a/5x5
I0403 16:12:03.103544 17400 net.cpp:141] Setting up inception_3a/5x5
I0403 16:12:03.103579 17400 net.cpp:148] Top shape: 24 32 28 28 (602112)
I0403 16:12:03.103597 17400 net.cpp:156] Memory required for data: 539493408
I0403 16:12:03.103627 17400 layer_factory.hpp:77] Creating layer inception_3a/relu_5x5
I0403 16:12:03.103652 17400 net.cpp:91] Creating Layer inception_3a/relu_5x5
I0403 16:12:03.103672 17400 net.cpp:425] inception_3a/relu_5x5 <- inception_3a/5x5
I0403 16:12:03.103696 17400 net.cpp:386] inception_3a/relu_5x5 -> inception_3a/5x5 (in-place)
I0403 16:12:03.103912 17400 net.cpp:141] Setting up inception_3a/relu_5x5
I0403 16:12:03.103943 17400 net.cpp:148] Top shape: 24 32 28 28 (602112)
I0403 16:12:03.103962 17400 net.cpp:156] Memory required for data: 541901856
I0403 16:12:03.103981 17400 layer_factory.hpp:77] Creating layer inception_3a/pool
I0403 16:12:03.104007 17400 net.cpp:91] Creating Layer inception_3a/pool
I0403 16:12:03.104027 17400 net.cpp:425] inception_3a/pool <- pool2/3x3_s2_pool2/3x3_s2_0_split_3
I0403 16:12:03.104068 17400 net.cpp:399] inception_3a/pool -> inception_3a/pool
I0403 16:12:03.104153 17400 net.cpp:141] Setting up inception_3a/pool
I0403 16:12:03.104182 17400 net.cpp:148] Top shape: 24 192 28 28 (3612672)
I0403 16:12:03.104202 17400 net.cpp:156] Memory required for data: 556352544
I0403 16:12:03.104219 17400 layer_factory.hpp:77] Creating layer inception_3a/pool_proj
I0403 16:12:03.104248 17400 net.cpp:91] Creating Layer inception_3a/pool_proj
I0403 16:12:03.104270 17400 net.cpp:425] inception_3a/pool_proj <- inception_3a/pool
I0403 16:12:03.104298 17400 net.cpp:399] inception_3a/pool_proj -> inception_3a/pool_proj
I0403 16:12:03.105475 17400 net.cpp:141] Setting up inception_3a/pool_proj
I0403 16:12:03.105512 17400 net.cpp:148] Top shape: 24 32 28 28 (602112)
I0403 16:12:03.105532 17400 net.cpp:156] Memory required for data: 558760992
I0403 16:12:03.105561 17400 layer_factory.hpp:77] Creating layer inception_3a/relu_pool_proj
I0403 16:12:03.105587 17400 net.cpp:91] Creating Layer inception_3a/relu_pool_proj
I0403 16:12:03.105625 17400 net.cpp:425] inception_3a/relu_pool_proj <- inception_3a/pool_proj
I0403 16:12:03.105653 17400 net.cpp:386] inception_3a/relu_pool_proj -> inception_3a/pool_proj (in-place)
I0403 16:12:03.106001 17400 net.cpp:141] Setting up inception_3a/relu_pool_proj
I0403 16:12:03.106034 17400 net.cpp:148] Top shape: 24 32 28 28 (602112)
I0403 16:12:03.106053 17400 net.cpp:156] Memory required for data: 561169440
I0403 16:12:03.106072 17400 layer_factory.hpp:77] Creating layer inception_3a/output
I0403 16:12:03.106104 17400 net.cpp:91] Creating Layer inception_3a/output
I0403 16:12:03.106123 17400 net.cpp:425] inception_3a/output <- inception_3a/1x1
I0403 16:12:03.106143 17400 net.cpp:425] inception_3a/output <- inception_3a/3x3
I0403 16:12:03.106163 17400 net.cpp:425] inception_3a/output <- inception_3a/5x5
I0403 16:12:03.106184 17400 net.cpp:425] inception_3a/output <- inception_3a/pool_proj
I0403 16:12:03.106207 17400 net.cpp:399] inception_3a/output -> inception_3a/output
I0403 16:12:03.106269 17400 net.cpp:141] Setting up inception_3a/output
I0403 16:12:03.106298 17400 net.cpp:148] Top shape: 24 256 28 28 (4816896)
I0403 16:12:03.106317 17400 net.cpp:156] Memory required for data: 580437024
I0403 16:12:03.106335 17400 layer_factory.hpp:77] Creating layer inception_3a/output_inception_3a/output_0_split
I0403 16:12:03.106358 17400 net.cpp:91] Creating Layer inception_3a/output_inception_3a/output_0_split
I0403 16:12:03.106377 17400 net.cpp:425] inception_3a/output_inception_3a/output_0_split <- inception_3a/output
I0403 16:12:03.106401 17400 net.cpp:399] inception_3a/output_inception_3a/output_0_split -> inception_3a/output_inception_3a/output_0_split_0
I0403 16:12:03.106428 17400 net.cpp:399] inception_3a/output_inception_3a/output_0_split -> inception_3a/output_inception_3a/output_0_split_1
I0403 16:12:03.106457 17400 net.cpp:399] inception_3a/output_inception_3a/output_0_split -> inception_3a/output_inception_3a/output_0_split_2
I0403 16:12:03.106483 17400 net.cpp:399] inception_3a/output_inception_3a/output_0_split -> inception_3a/output_inception_3a/output_0_split_3
I0403 16:12:03.106580 17400 net.cpp:141] Setting up inception_3a/output_inception_3a/output_0_split
I0403 16:12:03.106612 17400 net.cpp:148] Top shape: 24 256 28 28 (4816896)
I0403 16:12:03.106636 17400 net.cpp:148] Top shape: 24 256 28 28 (4816896)
I0403 16:12:03.106657 17400 net.cpp:148] Top shape: 24 256 28 28 (4816896)
I0403 16:12:03.106676 17400 net.cpp:148] Top shape: 24 256 28 28 (4816896)
I0403 16:12:03.106693 17400 net.cpp:156] Memory required for data: 657507360
I0403 16:12:03.106711 17400 layer_factory.hpp:77] Creating layer inception_3b/1x1
I0403 16:12:03.106739 17400 net.cpp:91] Creating Layer inception_3b/1x1
I0403 16:12:03.106762 17400 net.cpp:425] inception_3b/1x1 <- inception_3a/output_inception_3a/output_0_split_0
I0403 16:12:03.106789 17400 net.cpp:399] inception_3b/1x1 -> inception_3b/1x1
I0403 16:12:03.108183 17400 net.cpp:141] Setting up inception_3b/1x1
I0403 16:12:03.108232 17400 net.cpp:148] Top shape: 24 128 28 28 (2408448)
I0403 16:12:03.108253 17400 net.cpp:156] Memory required for data: 667141152
I0403 16:12:03.108275 17400 layer_factory.hpp:77] Creating layer inception_3b/relu_1x1
I0403 16:12:03.108299 17400 net.cpp:91] Creating Layer inception_3b/relu_1x1
I0403 16:12:03.108319 17400 net.cpp:425] inception_3b/relu_1x1 <- inception_3b/1x1
I0403 16:12:03.108348 17400 net.cpp:386] inception_3b/relu_1x1 -> inception_3b/1x1 (in-place)
I0403 16:12:03.108564 17400 net.cpp:141] Setting up inception_3b/relu_1x1
I0403 16:12:03.108595 17400 net.cpp:148] Top shape: 24 128 28 28 (2408448)
I0403 16:12:03.108620 17400 net.cpp:156] Memory required for data: 676774944
I0403 16:12:03.108639 17400 layer_factory.hpp:77] Creating layer inception_3b/3x3_reduce
I0403 16:12:03.108669 17400 net.cpp:91] Creating Layer inception_3b/3x3_reduce
I0403 16:12:03.108692 17400 net.cpp:425] inception_3b/3x3_reduce <- inception_3a/output_inception_3a/output_0_split_1
I0403 16:12:03.108719 17400 net.cpp:399] inception_3b/3x3_reduce -> inception_3b/3x3_reduce
I0403 16:12:03.110100 17400 net.cpp:141] Setting up inception_3b/3x3_reduce
I0403 16:12:03.110134 17400 net.cpp:148] Top shape: 24 128 28 28 (2408448)
I0403 16:12:03.110154 17400 net.cpp:156] Memory required for data: 686408736
I0403 16:12:03.110178 17400 layer_factory.hpp:77] Creating layer inception_3b/relu_3x3_reduce
I0403 16:12:03.110201 17400 net.cpp:91] Creating Layer inception_3b/relu_3x3_reduce
I0403 16:12:03.110222 17400 net.cpp:425] inception_3b/relu_3x3_reduce <- inception_3b/3x3_reduce
I0403 16:12:03.110246 17400 net.cpp:386] inception_3b/relu_3x3_reduce -> inception_3b/3x3_reduce (in-place)
I0403 16:12:03.110461 17400 net.cpp:141] Setting up inception_3b/relu_3x3_reduce
I0403 16:12:03.110492 17400 net.cpp:148] Top shape: 24 128 28 28 (2408448)
I0403 16:12:03.110510 17400 net.cpp:156] Memory required for data: 696042528
I0403 16:12:03.110529 17400 layer_factory.hpp:77] Creating layer inception_3b/3x3
I0403 16:12:03.110561 17400 net.cpp:91] Creating Layer inception_3b/3x3
I0403 16:12:03.110584 17400 net.cpp:425] inception_3b/3x3 <- inception_3b/3x3_reduce
I0403 16:12:03.110615 17400 net.cpp:399] inception_3b/3x3 -> inception_3b/3x3
I0403 16:12:03.114127 17400 net.cpp:141] Setting up inception_3b/3x3
I0403 16:12:03.114163 17400 net.cpp:148] Top shape: 24 192 28 28 (3612672)
I0403 16:12:03.114184 17400 net.cpp:156] Memory required for data: 710493216
I0403 16:12:03.114207 17400 layer_factory.hpp:77] Creating layer inception_3b/relu_3x3
I0403 16:12:03.114233 17400 net.cpp:91] Creating Layer inception_3b/relu_3x3
I0403 16:12:03.114256 17400 net.cpp:425] inception_3b/relu_3x3 <- inception_3b/3x3
I0403 16:12:03.114279 17400 net.cpp:386] inception_3b/relu_3x3 -> inception_3b/3x3 (in-place)
I0403 16:12:03.114614 17400 net.cpp:141] Setting up inception_3b/relu_3x3
I0403 16:12:03.114648 17400 net.cpp:148] Top shape: 24 192 28 28 (3612672)
I0403 16:12:03.114666 17400 net.cpp:156] Memory required for data: 724943904
I0403 16:12:03.114686 17400 layer_factory.hpp:77] Creating layer inception_3b/5x5_reduce
I0403 16:12:03.114716 17400 net.cpp:91] Creating Layer inception_3b/5x5_reduce
I0403 16:12:03.114737 17400 net.cpp:425] inception_3b/5x5_reduce <- inception_3a/output_inception_3a/output_0_split_2
I0403 16:12:03.114764 17400 net.cpp:399] inception_3b/5x5_reduce -> inception_3b/5x5_reduce
I0403 16:12:03.115991 17400 net.cpp:141] Setting up inception_3b/5x5_reduce
I0403 16:12:03.116027 17400 net.cpp:148] Top shape: 24 32 28 28 (602112)
I0403 16:12:03.116047 17400 net.cpp:156] Memory required for data: 727352352
I0403 16:12:03.116070 17400 layer_factory.hpp:77] Creating layer inception_3b/relu_5x5_reduce
I0403 16:12:03.116106 17400 net.cpp:91] Creating Layer inception_3b/relu_5x5_reduce
I0403 16:12:03.116127 17400 net.cpp:425] inception_3b/relu_5x5_reduce <- inception_3b/5x5_reduce
I0403 16:12:03.116149 17400 net.cpp:386] inception_3b/relu_5x5_reduce -> inception_3b/5x5_reduce (in-place)
I0403 16:12:03.116365 17400 net.cpp:141] Setting up inception_3b/relu_5x5_reduce
I0403 16:12:03.116413 17400 net.cpp:148] Top shape: 24 32 28 28 (602112)
I0403 16:12:03.116436 17400 net.cpp:156] Memory required for data: 729760800
I0403 16:12:03.116454 17400 layer_factory.hpp:77] Creating layer inception_3b/5x5
I0403 16:12:03.116479 17400 net.cpp:91] Creating Layer inception_3b/5x5
I0403 16:12:03.116500 17400 net.cpp:425] inception_3b/5x5 <- inception_3b/5x5_reduce
I0403 16:12:03.116528 17400 net.cpp:399] inception_3b/5x5 -> inception_3b/5x5
I0403 16:12:03.118911 17400 net.cpp:141] Setting up inception_3b/5x5
I0403 16:12:03.118948 17400 net.cpp:148] Top shape: 24 96 28 28 (1806336)
I0403 16:12:03.118969 17400 net.cpp:156] Memory required for data: 736986144
I0403 16:12:03.118993 17400 layer_factory.hpp:77] Creating layer inception_3b/relu_5x5
I0403 16:12:03.119015 17400 net.cpp:91] Creating Layer inception_3b/relu_5x5
I0403 16:12:03.119035 17400 net.cpp:425] inception_3b/relu_5x5 <- inception_3b/5x5
I0403 16:12:03.119061 17400 net.cpp:386] inception_3b/relu_5x5 -> inception_3b/5x5 (in-place)
I0403 16:12:03.119300 17400 net.cpp:141] Setting up inception_3b/relu_5x5
I0403 16:12:03.119331 17400 net.cpp:148] Top shape: 24 96 28 28 (1806336)
I0403 16:12:03.119350 17400 net.cpp:156] Memory required for data: 744211488
I0403 16:12:03.119369 17400 layer_factory.hpp:77] Creating layer inception_3b/pool
I0403 16:12:03.119392 17400 net.cpp:91] Creating Layer inception_3b/pool
I0403 16:12:03.119413 17400 net.cpp:425] inception_3b/pool <- inception_3a/output_inception_3a/output_0_split_3
I0403 16:12:03.119436 17400 net.cpp:399] inception_3b/pool -> inception_3b/pool
I0403 16:12:03.119508 17400 net.cpp:141] Setting up inception_3b/pool
I0403 16:12:03.119536 17400 net.cpp:148] Top shape: 24 256 28 28 (4816896)
I0403 16:12:03.119556 17400 net.cpp:156] Memory required for data: 763479072
I0403 16:12:03.119575 17400 layer_factory.hpp:77] Creating layer inception_3b/pool_proj
I0403 16:12:03.119606 17400 net.cpp:91] Creating Layer inception_3b/pool_proj
I0403 16:12:03.119632 17400 net.cpp:425] inception_3b/pool_proj <- inception_3b/pool
I0403 16:12:03.119657 17400 net.cpp:399] inception_3b/pool_proj -> inception_3b/pool_proj
I0403 16:12:03.120955 17400 net.cpp:141] Setting up inception_3b/pool_proj
I0403 16:12:03.120992 17400 net.cpp:148] Top shape: 24 64 28 28 (1204224)
I0403 16:12:03.121013 17400 net.cpp:156] Memory required for data: 768295968
I0403 16:12:03.121038 17400 layer_factory.hpp:77] Creating layer inception_3b/relu_pool_proj
I0403 16:12:03.121062 17400 net.cpp:91] Creating Layer inception_3b/relu_pool_proj
I0403 16:12:03.121083 17400 net.cpp:425] inception_3b/relu_pool_proj <- inception_3b/pool_proj
I0403 16:12:03.121104 17400 net.cpp:386] inception_3b/relu_pool_proj -> inception_3b/pool_proj (in-place)
I0403 16:12:03.121585 17400 net.cpp:141] Setting up inception_3b/relu_pool_proj
I0403 16:12:03.121626 17400 net.cpp:148] Top shape: 24 64 28 28 (1204224)
I0403 16:12:03.121646 17400 net.cpp:156] Memory required for data: 773112864
I0403 16:12:03.121665 17400 layer_factory.hpp:77] Creating layer inception_3b/output
I0403 16:12:03.121690 17400 net.cpp:91] Creating Layer inception_3b/output
I0403 16:12:03.121711 17400 net.cpp:425] inception_3b/output <- inception_3b/1x1
I0403 16:12:03.121732 17400 net.cpp:425] inception_3b/output <- inception_3b/3x3
I0403 16:12:03.121752 17400 net.cpp:425] inception_3b/output <- inception_3b/5x5
I0403 16:12:03.121773 17400 net.cpp:425] inception_3b/output <- inception_3b/pool_proj
I0403 16:12:03.121795 17400 net.cpp:399] inception_3b/output -> inception_3b/output
I0403 16:12:03.121852 17400 net.cpp:141] Setting up inception_3b/output
I0403 16:12:03.121881 17400 net.cpp:148] Top shape: 24 480 28 28 (9031680)
I0403 16:12:03.121899 17400 net.cpp:156] Memory required for data: 809239584
I0403 16:12:03.121918 17400 layer_factory.hpp:77] Creating layer pool3/3x3_s2
I0403 16:12:03.121940 17400 net.cpp:91] Creating Layer pool3/3x3_s2
I0403 16:12:03.121961 17400 net.cpp:425] pool3/3x3_s2 <- inception_3b/output
I0403 16:12:03.121986 17400 net.cpp:399] pool3/3x3_s2 -> pool3/3x3_s2
I0403 16:12:03.122076 17400 net.cpp:141] Setting up pool3/3x3_s2
I0403 16:12:03.122105 17400 net.cpp:148] Top shape: 24 480 14 14 (2257920)
I0403 16:12:03.122124 17400 net.cpp:156] Memory required for data: 818271264
I0403 16:12:03.122143 17400 layer_factory.hpp:77] Creating layer pool3/3x3_s2_pool3/3x3_s2_0_split
I0403 16:12:03.122167 17400 net.cpp:91] Creating Layer pool3/3x3_s2_pool3/3x3_s2_0_split
I0403 16:12:03.122189 17400 net.cpp:425] pool3/3x3_s2_pool3/3x3_s2_0_split <- pool3/3x3_s2
I0403 16:12:03.122213 17400 net.cpp:399] pool3/3x3_s2_pool3/3x3_s2_0_split -> pool3/3x3_s2_pool3/3x3_s2_0_split_0
I0403 16:12:03.122238 17400 net.cpp:399] pool3/3x3_s2_pool3/3x3_s2_0_split -> pool3/3x3_s2_pool3/3x3_s2_0_split_1
I0403 16:12:03.122264 17400 net.cpp:399] pool3/3x3_s2_pool3/3x3_s2_0_split -> pool3/3x3_s2_pool3/3x3_s2_0_split_2
I0403 16:12:03.122290 17400 net.cpp:399] pool3/3x3_s2_pool3/3x3_s2_0_split -> pool3/3x3_s2_pool3/3x3_s2_0_split_3
I0403 16:12:03.122385 17400 net.cpp:141] Setting up pool3/3x3_s2_pool3/3x3_s2_0_split
I0403 16:12:03.122417 17400 net.cpp:148] Top shape: 24 480 14 14 (2257920)
I0403 16:12:03.122440 17400 net.cpp:148] Top shape: 24 480 14 14 (2257920)
I0403 16:12:03.122459 17400 net.cpp:148] Top shape: 24 480 14 14 (2257920)
I0403 16:12:03.122478 17400 net.cpp:148] Top shape: 24 480 14 14 (2257920)
I0403 16:12:03.122495 17400 net.cpp:156] Memory required for data: 854397984
I0403 16:12:03.122514 17400 layer_factory.hpp:77] Creating layer inception_4a/1x1
I0403 16:12:03.122539 17400 net.cpp:91] Creating Layer inception_4a/1x1
I0403 16:12:03.122560 17400 net.cpp:425] inception_4a/1x1 <- pool3/3x3_s2_pool3/3x3_s2_0_split_0
I0403 16:12:03.122588 17400 net.cpp:399] inception_4a/1x1 -> inception_4a/1x1
I0403 16:12:03.124517 17400 net.cpp:141] Setting up inception_4a/1x1
I0403 16:12:03.124555 17400 net.cpp:148] Top shape: 24 192 14 14 (903168)
I0403 16:12:03.124577 17400 net.cpp:156] Memory required for data: 858010656
I0403 16:12:03.124600 17400 layer_factory.hpp:77] Creating layer inception_4a/relu_1x1
I0403 16:12:03.124640 17400 net.cpp:91] Creating Layer inception_4a/relu_1x1
I0403 16:12:03.124662 17400 net.cpp:425] inception_4a/relu_1x1 <- inception_4a/1x1
I0403 16:12:03.124685 17400 net.cpp:386] inception_4a/relu_1x1 -> inception_4a/1x1 (in-place)
I0403 16:12:03.124907 17400 net.cpp:141] Setting up inception_4a/relu_1x1
I0403 16:12:03.124938 17400 net.cpp:148] Top shape: 24 192 14 14 (903168)
I0403 16:12:03.124955 17400 net.cpp:156] Memory required for data: 861623328
I0403 16:12:03.124974 17400 layer_factory.hpp:77] Creating layer inception_4a/3x3_reduce
I0403 16:12:03.125002 17400 net.cpp:91] Creating Layer inception_4a/3x3_reduce
I0403 16:12:03.125023 17400 net.cpp:425] inception_4a/3x3_reduce <- pool3/3x3_s2_pool3/3x3_s2_0_split_1
I0403 16:12:03.125051 17400 net.cpp:399] inception_4a/3x3_reduce -> inception_4a/3x3_reduce
I0403 16:12:03.126618 17400 net.cpp:141] Setting up inception_4a/3x3_reduce
I0403 16:12:03.126655 17400 net.cpp:148] Top shape: 24 96 14 14 (451584)
I0403 16:12:03.126677 17400 net.cpp:156] Memory required for data: 863429664
I0403 16:12:03.126708 17400 layer_factory.hpp:77] Creating layer inception_4a/relu_3x3_reduce
I0403 16:12:03.126732 17400 net.cpp:91] Creating Layer inception_4a/relu_3x3_reduce
I0403 16:12:03.126754 17400 net.cpp:425] inception_4a/relu_3x3_reduce <- inception_4a/3x3_reduce
I0403 16:12:03.126776 17400 net.cpp:386] inception_4a/relu_3x3_reduce -> inception_4a/3x3_reduce (in-place)
I0403 16:12:03.126997 17400 net.cpp:141] Setting up inception_4a/relu_3x3_reduce
I0403 16:12:03.127032 17400 net.cpp:148] Top shape: 24 96 14 14 (451584)
I0403 16:12:03.127053 17400 net.cpp:156] Memory required for data: 865236000
I0403 16:12:03.127070 17400 layer_factory.hpp:77] Creating layer inception_4a/3x3
I0403 16:12:03.127099 17400 net.cpp:91] Creating Layer inception_4a/3x3
I0403 16:12:03.127120 17400 net.cpp:425] inception_4a/3x3 <- inception_4a/3x3_reduce
I0403 16:12:03.127147 17400 net.cpp:399] inception_4a/3x3 -> inception_4a/3x3
I0403 16:12:03.130400 17400 net.cpp:141] Setting up inception_4a/3x3
I0403 16:12:03.130436 17400 net.cpp:148] Top shape: 24 208 14 14 (978432)
I0403 16:12:03.130457 17400 net.cpp:156] Memory required for data: 869149728
I0403 16:12:03.130481 17400 layer_factory.hpp:77] Creating layer inception_4a/relu_3x3
I0403 16:12:03.130503 17400 net.cpp:91] Creating Layer inception_4a/relu_3x3
I0403 16:12:03.130523 17400 net.cpp:425] inception_4a/relu_3x3 <- inception_4a/3x3
I0403 16:12:03.130548 17400 net.cpp:386] inception_4a/relu_3x3 -> inception_4a/3x3 (in-place)
I0403 16:12:03.130894 17400 net.cpp:141] Setting up inception_4a/relu_3x3
I0403 16:12:03.130928 17400 net.cpp:148] Top shape: 24 208 14 14 (978432)
I0403 16:12:03.130946 17400 net.cpp:156] Memory required for data: 873063456
I0403 16:12:03.130965 17400 layer_factory.hpp:77] Creating layer inception_4a/5x5_reduce
I0403 16:12:03.130993 17400 net.cpp:91] Creating Layer inception_4a/5x5_reduce
I0403 16:12:03.131016 17400 net.cpp:425] inception_4a/5x5_reduce <- pool3/3x3_s2_pool3/3x3_s2_0_split_2
I0403 16:12:03.131043 17400 net.cpp:399] inception_4a/5x5_reduce -> inception_4a/5x5_reduce
I0403 16:12:03.132302 17400 net.cpp:141] Setting up inception_4a/5x5_reduce
I0403 16:12:03.132336 17400 net.cpp:148] Top shape: 24 16 14 14 (75264)
I0403 16:12:03.132356 17400 net.cpp:156] Memory required for data: 873364512
I0403 16:12:03.132378 17400 layer_factory.hpp:77] Creating layer inception_4a/relu_5x5_reduce
I0403 16:12:03.132400 17400 net.cpp:91] Creating Layer inception_4a/relu_5x5_reduce
I0403 16:12:03.132421 17400 net.cpp:425] inception_4a/relu_5x5_reduce <- inception_4a/5x5_reduce
I0403 16:12:03.132446 17400 net.cpp:386] inception_4a/relu_5x5_reduce -> inception_4a/5x5_reduce (in-place)
I0403 16:12:03.132669 17400 net.cpp:141] Setting up inception_4a/relu_5x5_reduce
I0403 16:12:03.132701 17400 net.cpp:148] Top shape: 24 16 14 14 (75264)
I0403 16:12:03.132720 17400 net.cpp:156] Memory required for data: 873665568
I0403 16:12:03.132740 17400 layer_factory.hpp:77] Creating layer inception_4a/5x5
I0403 16:12:03.132768 17400 net.cpp:91] Creating Layer inception_4a/5x5
I0403 16:12:03.132792 17400 net.cpp:425] inception_4a/5x5 <- inception_4a/5x5_reduce
I0403 16:12:03.132819 17400 net.cpp:399] inception_4a/5x5 -> inception_4a/5x5
I0403 16:12:03.134140 17400 net.cpp:141] Setting up inception_4a/5x5
I0403 16:12:03.134174 17400 net.cpp:148] Top shape: 24 48 14 14 (225792)
I0403 16:12:03.134194 17400 net.cpp:156] Memory required for data: 874568736
I0403 16:12:03.134217 17400 layer_factory.hpp:77] Creating layer inception_4a/relu_5x5
I0403 16:12:03.134243 17400 net.cpp:91] Creating Layer inception_4a/relu_5x5
I0403 16:12:03.134265 17400 net.cpp:425] inception_4a/relu_5x5 <- inception_4a/5x5
I0403 16:12:03.134287 17400 net.cpp:386] inception_4a/relu_5x5 -> inception_4a/5x5 (in-place)
I0403 16:12:03.134510 17400 net.cpp:141] Setting up inception_4a/relu_5x5
I0403 16:12:03.134542 17400 net.cpp:148] Top shape: 24 48 14 14 (225792)
I0403 16:12:03.134562 17400 net.cpp:156] Memory required for data: 875471904
I0403 16:12:03.134580 17400 layer_factory.hpp:77] Creating layer inception_4a/pool
I0403 16:12:03.134618 17400 net.cpp:91] Creating Layer inception_4a/pool
I0403 16:12:03.134642 17400 net.cpp:425] inception_4a/pool <- pool3/3x3_s2_pool3/3x3_s2_0_split_3
I0403 16:12:03.134670 17400 net.cpp:399] inception_4a/pool -> inception_4a/pool
I0403 16:12:03.134747 17400 net.cpp:141] Setting up inception_4a/pool
I0403 16:12:03.134778 17400 net.cpp:148] Top shape: 24 480 14 14 (2257920)
I0403 16:12:03.134795 17400 net.cpp:156] Memory required for data: 884503584
I0403 16:12:03.134814 17400 layer_factory.hpp:77] Creating layer inception_4a/pool_proj
I0403 16:12:03.134842 17400 net.cpp:91] Creating Layer inception_4a/pool_proj
I0403 16:12:03.134865 17400 net.cpp:425] inception_4a/pool_proj <- inception_4a/pool
I0403 16:12:03.134888 17400 net.cpp:399] inception_4a/pool_proj -> inception_4a/pool_proj
I0403 16:12:03.136319 17400 net.cpp:141] Setting up inception_4a/pool_proj
I0403 16:12:03.136358 17400 net.cpp:148] Top shape: 24 64 14 14 (301056)
I0403 16:12:03.136394 17400 net.cpp:156] Memory required for data: 885707808
I0403 16:12:03.136418 17400 layer_factory.hpp:77] Creating layer inception_4a/relu_pool_proj
I0403 16:12:03.136441 17400 net.cpp:91] Creating Layer inception_4a/relu_pool_proj
I0403 16:12:03.136462 17400 net.cpp:425] inception_4a/relu_pool_proj <- inception_4a/pool_proj
I0403 16:12:03.136488 17400 net.cpp:386] inception_4a/relu_pool_proj -> inception_4a/pool_proj (in-place)
I0403 16:12:03.136845 17400 net.cpp:141] Setting up inception_4a/relu_pool_proj
I0403 16:12:03.136881 17400 net.cpp:148] Top shape: 24 64 14 14 (301056)
I0403 16:12:03.136903 17400 net.cpp:156] Memory required for data: 886912032
I0403 16:12:03.136922 17400 layer_factory.hpp:77] Creating layer inception_4a/output
I0403 16:12:03.136945 17400 net.cpp:91] Creating Layer inception_4a/output
I0403 16:12:03.136965 17400 net.cpp:425] inception_4a/output <- inception_4a/1x1
I0403 16:12:03.136986 17400 net.cpp:425] inception_4a/output <- inception_4a/3x3
I0403 16:12:03.137008 17400 net.cpp:425] inception_4a/output <- inception_4a/5x5
I0403 16:12:03.137028 17400 net.cpp:425] inception_4a/output <- inception_4a/pool_proj
I0403 16:12:03.137050 17400 net.cpp:399] inception_4a/output -> inception_4a/output
I0403 16:12:03.137107 17400 net.cpp:141] Setting up inception_4a/output
I0403 16:12:03.137136 17400 net.cpp:148] Top shape: 24 512 14 14 (2408448)
I0403 16:12:03.137156 17400 net.cpp:156] Memory required for data: 896545824
I0403 16:12:03.137176 17400 layer_factory.hpp:77] Creating layer inception_4a/output_inception_4a/output_0_split
I0403 16:12:03.137197 17400 net.cpp:91] Creating Layer inception_4a/output_inception_4a/output_0_split
I0403 16:12:03.137218 17400 net.cpp:425] inception_4a/output_inception_4a/output_0_split <- inception_4a/output
I0403 16:12:03.137244 17400 net.cpp:399] inception_4a/output_inception_4a/output_0_split -> inception_4a/output_inception_4a/output_0_split_0
I0403 16:12:03.137271 17400 net.cpp:399] inception_4a/output_inception_4a/output_0_split -> inception_4a/output_inception_4a/output_0_split_1
I0403 16:12:03.137300 17400 net.cpp:399] inception_4a/output_inception_4a/output_0_split -> inception_4a/output_inception_4a/output_0_split_2
I0403 16:12:03.137329 17400 net.cpp:399] inception_4a/output_inception_4a/output_0_split -> inception_4a/output_inception_4a/output_0_split_3
I0403 16:12:03.137356 17400 net.cpp:399] inception_4a/output_inception_4a/output_0_split -> inception_4a/output_inception_4a/output_0_split_4
I0403 16:12:03.137468 17400 net.cpp:141] Setting up inception_4a/output_inception_4a/output_0_split
I0403 16:12:03.137498 17400 net.cpp:148] Top shape: 24 512 14 14 (2408448)
I0403 16:12:03.137521 17400 net.cpp:148] Top shape: 24 512 14 14 (2408448)
I0403 16:12:03.137540 17400 net.cpp:148] Top shape: 24 512 14 14 (2408448)
I0403 16:12:03.137559 17400 net.cpp:148] Top shape: 24 512 14 14 (2408448)
I0403 16:12:03.137579 17400 net.cpp:148] Top shape: 24 512 14 14 (2408448)
I0403 16:12:03.137596 17400 net.cpp:156] Memory required for data: 944714784
I0403 16:12:03.137624 17400 layer_factory.hpp:77] Creating layer loss1/ave_pool
I0403 16:12:03.137648 17400 net.cpp:91] Creating Layer loss1/ave_pool
I0403 16:12:03.137668 17400 net.cpp:425] loss1/ave_pool <- inception_4a/output_inception_4a/output_0_split_0
I0403 16:12:03.137694 17400 net.cpp:399] loss1/ave_pool -> loss1/ave_pool
I0403 16:12:03.137956 17400 net.cpp:141] Setting up loss1/ave_pool
I0403 16:12:03.137994 17400 net.cpp:148] Top shape: 24 512 4 4 (196608)
I0403 16:12:03.138015 17400 net.cpp:156] Memory required for data: 945501216
I0403 16:12:03.138033 17400 layer_factory.hpp:77] Creating layer loss1/conv
I0403 16:12:03.138068 17400 net.cpp:91] Creating Layer loss1/conv
I0403 16:12:03.138090 17400 net.cpp:425] loss1/conv <- loss1/ave_pool
I0403 16:12:03.138114 17400 net.cpp:399] loss1/conv -> loss1/conv
I0403 16:12:03.139842 17400 net.cpp:141] Setting up loss1/conv
I0403 16:12:03.139876 17400 net.cpp:148] Top shape: 24 128 4 4 (49152)
I0403 16:12:03.139899 17400 net.cpp:156] Memory required for data: 945697824
I0403 16:12:03.139938 17400 layer_factory.hpp:77] Creating layer loss1/relu_conv
I0403 16:12:03.139963 17400 net.cpp:91] Creating Layer loss1/relu_conv
I0403 16:12:03.139983 17400 net.cpp:425] loss1/relu_conv <- loss1/conv
I0403 16:12:03.140009 17400 net.cpp:386] loss1/relu_conv -> loss1/conv (in-place)
I0403 16:12:03.140360 17400 net.cpp:141] Setting up loss1/relu_conv
I0403 16:12:03.140393 17400 net.cpp:148] Top shape: 24 128 4 4 (49152)
I0403 16:12:03.140413 17400 net.cpp:156] Memory required for data: 945894432
I0403 16:12:03.140431 17400 layer_factory.hpp:77] Creating layer loss1/fc
I0403 16:12:03.140460 17400 net.cpp:91] Creating Layer loss1/fc
I0403 16:12:03.140483 17400 net.cpp:425] loss1/fc <- loss1/conv
I0403 16:12:03.140511 17400 net.cpp:399] loss1/fc -> loss1/fc
I0403 16:12:03.162451 17400 net.cpp:141] Setting up loss1/fc
I0403 16:12:03.162492 17400 net.cpp:148] Top shape: 24 1024 (24576)
I0403 16:12:03.162514 17400 net.cpp:156] Memory required for data: 945992736
I0403 16:12:03.162538 17400 layer_factory.hpp:77] Creating layer loss1/relu_fc
I0403 16:12:03.162560 17400 net.cpp:91] Creating Layer loss1/relu_fc
I0403 16:12:03.162581 17400 net.cpp:425] loss1/relu_fc <- loss1/fc
I0403 16:12:03.162611 17400 net.cpp:386] loss1/relu_fc -> loss1/fc (in-place)
I0403 16:12:03.162844 17400 net.cpp:141] Setting up loss1/relu_fc
I0403 16:12:03.162876 17400 net.cpp:148] Top shape: 24 1024 (24576)
I0403 16:12:03.162895 17400 net.cpp:156] Memory required for data: 946091040
I0403 16:12:03.162914 17400 layer_factory.hpp:77] Creating layer loss1/drop_fc
I0403 16:12:03.162947 17400 net.cpp:91] Creating Layer loss1/drop_fc
I0403 16:12:03.162971 17400 net.cpp:425] loss1/drop_fc <- loss1/fc
I0403 16:12:03.162997 17400 net.cpp:386] loss1/drop_fc -> loss1/fc (in-place)
I0403 16:12:03.163059 17400 net.cpp:141] Setting up loss1/drop_fc
I0403 16:12:03.163089 17400 net.cpp:148] Top shape: 24 1024 (24576)
I0403 16:12:03.163108 17400 net.cpp:156] Memory required for data: 946189344
I0403 16:12:03.163127 17400 layer_factory.hpp:77] Creating layer loss1/classifier_plantvillage
I0403 16:12:03.163156 17400 net.cpp:91] Creating Layer loss1/classifier_plantvillage
I0403 16:12:03.163178 17400 net.cpp:425] loss1/classifier_plantvillage <- loss1/fc
I0403 16:12:03.163202 17400 net.cpp:399] loss1/classifier_plantvillage -> loss1/classifier_plantvillage
I0403 16:12:03.164295 17400 net.cpp:141] Setting up loss1/classifier_plantvillage
I0403 16:12:03.164330 17400 net.cpp:148] Top shape: 24 38 (912)
I0403 16:12:03.164350 17400 net.cpp:156] Memory required for data: 946192992
I0403 16:12:03.164371 17400 layer_factory.hpp:77] Creating layer loss1/classifier_plantvillage_loss1/classifier_plantvillage_0_split
I0403 16:12:03.164396 17400 net.cpp:91] Creating Layer loss1/classifier_plantvillage_loss1/classifier_plantvillage_0_split
I0403 16:12:03.164417 17400 net.cpp:425] loss1/classifier_plantvillage_loss1/classifier_plantvillage_0_split <- loss1/classifier_plantvillage
I0403 16:12:03.164443 17400 net.cpp:399] loss1/classifier_plantvillage_loss1/classifier_plantvillage_0_split -> loss1/classifier_plantvillage_loss1/classifier_plantvillage_0_split_0
I0403 16:12:03.164469 17400 net.cpp:399] loss1/classifier_plantvillage_loss1/classifier_plantvillage_0_split -> loss1/classifier_plantvillage_loss1/classifier_plantvillage_0_split_1
I0403 16:12:03.164495 17400 net.cpp:399] loss1/classifier_plantvillage_loss1/classifier_plantvillage_0_split -> loss1/classifier_plantvillage_loss1/classifier_plantvillage_0_split_2
I0403 16:12:03.164577 17400 net.cpp:141] Setting up loss1/classifier_plantvillage_loss1/classifier_plantvillage_0_split
I0403 16:12:03.164619 17400 net.cpp:148] Top shape: 24 38 (912)
I0403 16:12:03.164644 17400 net.cpp:148] Top shape: 24 38 (912)
I0403 16:12:03.164664 17400 net.cpp:148] Top shape: 24 38 (912)
I0403 16:12:03.164681 17400 net.cpp:156] Memory required for data: 946203936
I0403 16:12:03.164700 17400 layer_factory.hpp:77] Creating layer inception_4b/1x1
I0403 16:12:03.164726 17400 net.cpp:91] Creating Layer inception_4b/1x1
I0403 16:12:03.164767 17400 net.cpp:425] inception_4b/1x1 <- inception_4a/output_inception_4a/output_0_split_1
I0403 16:12:03.164794 17400 net.cpp:399] inception_4b/1x1 -> inception_4b/1x1
I0403 16:12:03.166806 17400 net.cpp:141] Setting up inception_4b/1x1
I0403 16:12:03.166842 17400 net.cpp:148] Top shape: 24 160 14 14 (752640)
I0403 16:12:03.166862 17400 net.cpp:156] Memory required for data: 949214496
I0403 16:12:03.166885 17400 layer_factory.hpp:77] Creating layer inception_4b/relu_1x1
I0403 16:12:03.166908 17400 net.cpp:91] Creating Layer inception_4b/relu_1x1
I0403 16:12:03.166929 17400 net.cpp:425] inception_4b/relu_1x1 <- inception_4b/1x1
I0403 16:12:03.166955 17400 net.cpp:386] inception_4b/relu_1x1 -> inception_4b/1x1 (in-place)
I0403 16:12:03.167173 17400 net.cpp:141] Setting up inception_4b/relu_1x1
I0403 16:12:03.167204 17400 net.cpp:148] Top shape: 24 160 14 14 (752640)
I0403 16:12:03.167223 17400 net.cpp:156] Memory required for data: 952225056
I0403 16:12:03.167243 17400 layer_factory.hpp:77] Creating layer inception_4b/3x3_reduce
I0403 16:12:03.167270 17400 net.cpp:91] Creating Layer inception_4b/3x3_reduce
I0403 16:12:03.167294 17400 net.cpp:425] inception_4b/3x3_reduce <- inception_4a/output_inception_4a/output_0_split_2
I0403 16:12:03.167321 17400 net.cpp:399] inception_4b/3x3_reduce -> inception_4b/3x3_reduce
I0403 16:12:03.168998 17400 net.cpp:141] Setting up inception_4b/3x3_reduce
I0403 16:12:03.169034 17400 net.cpp:148] Top shape: 24 112 14 14 (526848)
I0403 16:12:03.169054 17400 net.cpp:156] Memory required for data: 954332448
I0403 16:12:03.169076 17400 layer_factory.hpp:77] Creating layer inception_4b/relu_3x3_reduce
I0403 16:12:03.169105 17400 net.cpp:91] Creating Layer inception_4b/relu_3x3_reduce
I0403 16:12:03.169126 17400 net.cpp:425] inception_4b/relu_3x3_reduce <- inception_4b/3x3_reduce
I0403 16:12:03.169149 17400 net.cpp:386] inception_4b/relu_3x3_reduce -> inception_4b/3x3_reduce (in-place)
I0403 16:12:03.169492 17400 net.cpp:141] Setting up inception_4b/relu_3x3_reduce
I0403 16:12:03.169525 17400 net.cpp:148] Top shape: 24 112 14 14 (526848)
I0403 16:12:03.169544 17400 net.cpp:156] Memory required for data: 956439840
I0403 16:12:03.169564 17400 layer_factory.hpp:77] Creating layer inception_4b/3x3
I0403 16:12:03.169591 17400 net.cpp:91] Creating Layer inception_4b/3x3
I0403 16:12:03.169621 17400 net.cpp:425] inception_4b/3x3 <- inception_4b/3x3_reduce
I0403 16:12:03.169649 17400 net.cpp:399] inception_4b/3x3 -> inception_4b/3x3
I0403 16:12:03.173287 17400 net.cpp:141] Setting up inception_4b/3x3
I0403 16:12:03.173328 17400 net.cpp:148] Top shape: 24 224 14 14 (1053696)
I0403 16:12:03.173349 17400 net.cpp:156] Memory required for data: 960654624
I0403 16:12:03.173373 17400 layer_factory.hpp:77] Creating layer inception_4b/relu_3x3
I0403 16:12:03.173396 17400 net.cpp:91] Creating Layer inception_4b/relu_3x3
I0403 16:12:03.173416 17400 net.cpp:425] inception_4b/relu_3x3 <- inception_4b/3x3
I0403 16:12:03.173439 17400 net.cpp:386] inception_4b/relu_3x3 -> inception_4b/3x3 (in-place)
I0403 16:12:03.173676 17400 net.cpp:141] Setting up inception_4b/relu_3x3
I0403 16:12:03.173708 17400 net.cpp:148] Top shape: 24 224 14 14 (1053696)
I0403 16:12:03.173727 17400 net.cpp:156] Memory required for data: 964869408
I0403 16:12:03.173748 17400 layer_factory.hpp:77] Creating layer inception_4b/5x5_reduce
I0403 16:12:03.173776 17400 net.cpp:91] Creating Layer inception_4b/5x5_reduce
I0403 16:12:03.173799 17400 net.cpp:425] inception_4b/5x5_reduce <- inception_4a/output_inception_4a/output_0_split_3
I0403 16:12:03.173826 17400 net.cpp:399] inception_4b/5x5_reduce -> inception_4b/5x5_reduce
I0403 16:12:03.175169 17400 net.cpp:141] Setting up inception_4b/5x5_reduce
I0403 16:12:03.175204 17400 net.cpp:148] Top shape: 24 24 14 14 (112896)
I0403 16:12:03.175225 17400 net.cpp:156] Memory required for data: 965320992
I0403 16:12:03.175248 17400 layer_factory.hpp:77] Creating layer inception_4b/relu_5x5_reduce
I0403 16:12:03.175274 17400 net.cpp:91] Creating Layer inception_4b/relu_5x5_reduce
I0403 16:12:03.175313 17400 net.cpp:425] inception_4b/relu_5x5_reduce <- inception_4b/5x5_reduce
I0403 16:12:03.175335 17400 net.cpp:386] inception_4b/relu_5x5_reduce -> inception_4b/5x5_reduce (in-place)
I0403 16:12:03.175562 17400 net.cpp:141] Setting up inception_4b/relu_5x5_reduce
I0403 16:12:03.175593 17400 net.cpp:148] Top shape: 24 24 14 14 (112896)
I0403 16:12:03.175621 17400 net.cpp:156] Memory required for data: 965772576
I0403 16:12:03.175642 17400 layer_factory.hpp:77] Creating layer inception_4b/5x5
I0403 16:12:03.175670 17400 net.cpp:91] Creating Layer inception_4b/5x5
I0403 16:12:03.175694 17400 net.cpp:425] inception_4b/5x5 <- inception_4b/5x5_reduce
I0403 16:12:03.175719 17400 net.cpp:399] inception_4b/5x5 -> inception_4b/5x5
I0403 16:12:03.177211 17400 net.cpp:141] Setting up inception_4b/5x5
I0403 16:12:03.177245 17400 net.cpp:148] Top shape: 24 64 14 14 (301056)
I0403 16:12:03.177265 17400 net.cpp:156] Memory required for data: 966976800
I0403 16:12:03.177289 17400 layer_factory.hpp:77] Creating layer inception_4b/relu_5x5
I0403 16:12:03.177310 17400 net.cpp:91] Creating Layer inception_4b/relu_5x5
I0403 16:12:03.177331 17400 net.cpp:425] inception_4b/relu_5x5 <- inception_4b/5x5
I0403 16:12:03.177356 17400 net.cpp:386] inception_4b/relu_5x5 -> inception_4b/5x5 (in-place)
I0403 16:12:03.177713 17400 net.cpp:141] Setting up inception_4b/relu_5x5
I0403 16:12:03.177747 17400 net.cpp:148] Top shape: 24 64 14 14 (301056)
I0403 16:12:03.177767 17400 net.cpp:156] Memory required for data: 968181024
I0403 16:12:03.177790 17400 layer_factory.hpp:77] Creating layer inception_4b/pool
I0403 16:12:03.177813 17400 net.cpp:91] Creating Layer inception_4b/pool
I0403 16:12:03.177834 17400 net.cpp:425] inception_4b/pool <- inception_4a/output_inception_4a/output_0_split_4
I0403 16:12:03.177861 17400 net.cpp:399] inception_4b/pool -> inception_4b/pool
I0403 16:12:03.177942 17400 net.cpp:141] Setting up inception_4b/pool
I0403 16:12:03.177970 17400 net.cpp:148] Top shape: 24 512 14 14 (2408448)
I0403 16:12:03.177990 17400 net.cpp:156] Memory required for data: 977814816
I0403 16:12:03.178009 17400 layer_factory.hpp:77] Creating layer inception_4b/pool_proj
I0403 16:12:03.178040 17400 net.cpp:91] Creating Layer inception_4b/pool_proj
I0403 16:12:03.178072 17400 net.cpp:425] inception_4b/pool_proj <- inception_4b/pool
I0403 16:12:03.178097 17400 net.cpp:399] inception_4b/pool_proj -> inception_4b/pool_proj
I0403 16:12:03.179561 17400 net.cpp:141] Setting up inception_4b/pool_proj
I0403 16:12:03.179596 17400 net.cpp:148] Top shape: 24 64 14 14 (301056)
I0403 16:12:03.179625 17400 net.cpp:156] Memory required for data: 979019040
I0403 16:12:03.179649 17400 layer_factory.hpp:77] Creating layer inception_4b/relu_pool_proj
I0403 16:12:03.179674 17400 net.cpp:91] Creating Layer inception_4b/relu_pool_proj
I0403 16:12:03.179697 17400 net.cpp:425] inception_4b/relu_pool_proj <- inception_4b/pool_proj
I0403 16:12:03.179719 17400 net.cpp:386] inception_4b/relu_pool_proj -> inception_4b/pool_proj (in-place)
I0403 16:12:03.179941 17400 net.cpp:141] Setting up inception_4b/relu_pool_proj
I0403 16:12:03.179975 17400 net.cpp:148] Top shape: 24 64 14 14 (301056)
I0403 16:12:03.179994 17400 net.cpp:156] Memory required for data: 980223264
I0403 16:12:03.180013 17400 layer_factory.hpp:77] Creating layer inception_4b/output
I0403 16:12:03.180037 17400 net.cpp:91] Creating Layer inception_4b/output
I0403 16:12:03.180065 17400 net.cpp:425] inception_4b/output <- inception_4b/1x1
I0403 16:12:03.180085 17400 net.cpp:425] inception_4b/output <- inception_4b/3x3
I0403 16:12:03.180104 17400 net.cpp:425] inception_4b/output <- inception_4b/5x5
I0403 16:12:03.180124 17400 net.cpp:425] inception_4b/output <- inception_4b/pool_proj
I0403 16:12:03.180146 17400 net.cpp:399] inception_4b/output -> inception_4b/output
I0403 16:12:03.180204 17400 net.cpp:141] Setting up inception_4b/output
I0403 16:12:03.180234 17400 net.cpp:148] Top shape: 24 512 14 14 (2408448)
I0403 16:12:03.180253 17400 net.cpp:156] Memory required for data: 989857056
I0403 16:12:03.180289 17400 layer_factory.hpp:77] Creating layer inception_4b/output_inception_4b/output_0_split
I0403 16:12:03.180312 17400 net.cpp:91] Creating Layer inception_4b/output_inception_4b/output_0_split
I0403 16:12:03.180332 17400 net.cpp:425] inception_4b/output_inception_4b/output_0_split <- inception_4b/output
I0403 16:12:03.180358 17400 net.cpp:399] inception_4b/output_inception_4b/output_0_split -> inception_4b/output_inception_4b/output_0_split_0
I0403 16:12:03.180385 17400 net.cpp:399] inception_4b/output_inception_4b/output_0_split -> inception_4b/output_inception_4b/output_0_split_1
I0403 16:12:03.180411 17400 net.cpp:399] inception_4b/output_inception_4b/output_0_split -> inception_4b/output_inception_4b/output_0_split_2
I0403 16:12:03.180436 17400 net.cpp:399] inception_4b/output_inception_4b/output_0_split -> inception_4b/output_inception_4b/output_0_split_3
I0403 16:12:03.180539 17400 net.cpp:141] Setting up inception_4b/output_inception_4b/output_0_split
I0403 16:12:03.180567 17400 net.cpp:148] Top shape: 24 512 14 14 (2408448)
I0403 16:12:03.180589 17400 net.cpp:148] Top shape: 24 512 14 14 (2408448)
I0403 16:12:03.180620 17400 net.cpp:148] Top shape: 24 512 14 14 (2408448)
I0403 16:12:03.180642 17400 net.cpp:148] Top shape: 24 512 14 14 (2408448)
I0403 16:12:03.180660 17400 net.cpp:156] Memory required for data: 1028392224
I0403 16:12:03.180680 17400 layer_factory.hpp:77] Creating layer inception_4c/1x1
I0403 16:12:03.180707 17400 net.cpp:91] Creating Layer inception_4c/1x1
I0403 16:12:03.180730 17400 net.cpp:425] inception_4c/1x1 <- inception_4b/output_inception_4b/output_0_split_0
I0403 16:12:03.180757 17400 net.cpp:399] inception_4c/1x1 -> inception_4c/1x1
I0403 16:12:03.182521 17400 net.cpp:141] Setting up inception_4c/1x1
I0403 16:12:03.182561 17400 net.cpp:148] Top shape: 24 128 14 14 (602112)
I0403 16:12:03.182582 17400 net.cpp:156] Memory required for data: 1030800672
I0403 16:12:03.182613 17400 layer_factory.hpp:77] Creating layer inception_4c/relu_1x1
I0403 16:12:03.182638 17400 net.cpp:91] Creating Layer inception_4c/relu_1x1
I0403 16:12:03.182659 17400 net.cpp:425] inception_4c/relu_1x1 <- inception_4c/1x1
I0403 16:12:03.182682 17400 net.cpp:386] inception_4c/relu_1x1 -> inception_4c/1x1 (in-place)
I0403 16:12:03.182906 17400 net.cpp:141] Setting up inception_4c/relu_1x1
I0403 16:12:03.182940 17400 net.cpp:148] Top shape: 24 128 14 14 (602112)
I0403 16:12:03.182960 17400 net.cpp:156] Memory required for data: 1033209120
I0403 16:12:03.182978 17400 layer_factory.hpp:77] Creating layer inception_4c/3x3_reduce
I0403 16:12:03.183007 17400 net.cpp:91] Creating Layer inception_4c/3x3_reduce
I0403 16:12:03.183028 17400 net.cpp:425] inception_4c/3x3_reduce <- inception_4b/output_inception_4b/output_0_split_1
I0403 16:12:03.183056 17400 net.cpp:399] inception_4c/3x3_reduce -> inception_4c/3x3_reduce
I0403 16:12:03.185413 17400 net.cpp:141] Setting up inception_4c/3x3_reduce
I0403 16:12:03.185449 17400 net.cpp:148] Top shape: 24 128 14 14 (602112)
I0403 16:12:03.185469 17400 net.cpp:156] Memory required for data: 1035617568
I0403 16:12:03.185503 17400 layer_factory.hpp:77] Creating layer inception_4c/relu_3x3_reduce
I0403 16:12:03.185525 17400 net.cpp:91] Creating Layer inception_4c/relu_3x3_reduce
I0403 16:12:03.185549 17400 net.cpp:425] inception_4c/relu_3x3_reduce <- inception_4c/3x3_reduce
I0403 16:12:03.185572 17400 net.cpp:386] inception_4c/relu_3x3_reduce -> inception_4c/3x3_reduce (in-place)
I0403 16:12:03.185930 17400 net.cpp:141] Setting up inception_4c/relu_3x3_reduce
I0403 16:12:03.185963 17400 net.cpp:148] Top shape: 24 128 14 14 (602112)
I0403 16:12:03.185984 17400 net.cpp:156] Memory required for data: 1038026016
I0403 16:12:03.186004 17400 layer_factory.hpp:77] Creating layer inception_4c/3x3
I0403 16:12:03.186033 17400 net.cpp:91] Creating Layer inception_4c/3x3
I0403 16:12:03.186054 17400 net.cpp:425] inception_4c/3x3 <- inception_4c/3x3_reduce
I0403 16:12:03.186082 17400 net.cpp:399] inception_4c/3x3 -> inception_4c/3x3
I0403 16:12:03.190459 17400 net.cpp:141] Setting up inception_4c/3x3
I0403 16:12:03.190510 17400 net.cpp:148] Top shape: 24 256 14 14 (1204224)
I0403 16:12:03.190533 17400 net.cpp:156] Memory required for data: 1042842912
I0403 16:12:03.190573 17400 layer_factory.hpp:77] Creating layer inception_4c/relu_3x3
I0403 16:12:03.190605 17400 net.cpp:91] Creating Layer inception_4c/relu_3x3
I0403 16:12:03.190630 17400 net.cpp:425] inception_4c/relu_3x3 <- inception_4c/3x3
I0403 16:12:03.190652 17400 net.cpp:386] inception_4c/relu_3x3 -> inception_4c/3x3 (in-place)
I0403 16:12:03.190877 17400 net.cpp:141] Setting up inception_4c/relu_3x3
I0403 16:12:03.190909 17400 net.cpp:148] Top shape: 24 256 14 14 (1204224)
I0403 16:12:03.190928 17400 net.cpp:156] Memory required for data: 1047659808
I0403 16:12:03.190948 17400 layer_factory.hpp:77] Creating layer inception_4c/5x5_reduce
I0403 16:12:03.190974 17400 net.cpp:91] Creating Layer inception_4c/5x5_reduce
I0403 16:12:03.190997 17400 net.cpp:425] inception_4c/5x5_reduce <- inception_4b/output_inception_4b/output_0_split_2
I0403 16:12:03.191025 17400 net.cpp:399] inception_4c/5x5_reduce -> inception_4c/5x5_reduce
I0403 16:12:03.192361 17400 net.cpp:141] Setting up inception_4c/5x5_reduce
I0403 16:12:03.192396 17400 net.cpp:148] Top shape: 24 24 14 14 (112896)
I0403 16:12:03.192417 17400 net.cpp:156] Memory required for data: 1048111392
I0403 16:12:03.192440 17400 layer_factory.hpp:77] Creating layer inception_4c/relu_5x5_reduce
I0403 16:12:03.192466 17400 net.cpp:91] Creating Layer inception_4c/relu_5x5_reduce
I0403 16:12:03.192488 17400 net.cpp:425] inception_4c/relu_5x5_reduce <- inception_4c/5x5_reduce
I0403 16:12:03.192510 17400 net.cpp:386] inception_4c/relu_5x5_reduce -> inception_4c/5x5_reduce (in-place)
I0403 16:12:03.192744 17400 net.cpp:141] Setting up inception_4c/relu_5x5_reduce
I0403 16:12:03.192776 17400 net.cpp:148] Top shape: 24 24 14 14 (112896)
I0403 16:12:03.192795 17400 net.cpp:156] Memory required for data: 1048562976
I0403 16:12:03.192814 17400 layer_factory.hpp:77] Creating layer inception_4c/5x5
I0403 16:12:03.192843 17400 net.cpp:91] Creating Layer inception_4c/5x5
I0403 16:12:03.192867 17400 net.cpp:425] inception_4c/5x5 <- inception_4c/5x5_reduce
I0403 16:12:03.192893 17400 net.cpp:399] inception_4c/5x5 -> inception_4c/5x5
I0403 16:12:03.194411 17400 net.cpp:141] Setting up inception_4c/5x5
I0403 16:12:03.194445 17400 net.cpp:148] Top shape: 24 64 14 14 (301056)
I0403 16:12:03.194469 17400 net.cpp:156] Memory required for data: 1049767200
I0403 16:12:03.194502 17400 layer_factory.hpp:77] Creating layer inception_4c/relu_5x5
I0403 16:12:03.194526 17400 net.cpp:91] Creating Layer inception_4c/relu_5x5
I0403 16:12:03.194546 17400 net.cpp:425] inception_4c/relu_5x5 <- inception_4c/5x5
I0403 16:12:03.194569 17400 net.cpp:386] inception_4c/relu_5x5 -> inception_4c/5x5 (in-place)
I0403 16:12:03.194944 17400 net.cpp:141] Setting up inception_4c/relu_5x5
I0403 16:12:03.194980 17400 net.cpp:148] Top shape: 24 64 14 14 (301056)
I0403 16:12:03.195003 17400 net.cpp:156] Memory required for data: 1050971424
I0403 16:12:03.195021 17400 layer_factory.hpp:77] Creating layer inception_4c/pool
I0403 16:12:03.195044 17400 net.cpp:91] Creating Layer inception_4c/pool
I0403 16:12:03.195065 17400 net.cpp:425] inception_4c/pool <- inception_4b/output_inception_4b/output_0_split_3
I0403 16:12:03.195086 17400 net.cpp:399] inception_4c/pool -> inception_4c/pool
I0403 16:12:03.195168 17400 net.cpp:141] Setting up inception_4c/pool
I0403 16:12:03.195197 17400 net.cpp:148] Top shape: 24 512 14 14 (2408448)
I0403 16:12:03.195217 17400 net.cpp:156] Memory required for data: 1060605216
I0403 16:12:03.195235 17400 layer_factory.hpp:77] Creating layer inception_4c/pool_proj
I0403 16:12:03.195263 17400 net.cpp:91] Creating Layer inception_4c/pool_proj
I0403 16:12:03.195286 17400 net.cpp:425] inception_4c/pool_proj <- inception_4c/pool
I0403 16:12:03.195312 17400 net.cpp:399] inception_4c/pool_proj -> inception_4c/pool_proj
I0403 16:12:03.196830 17400 net.cpp:141] Setting up inception_4c/pool_proj
I0403 16:12:03.196866 17400 net.cpp:148] Top shape: 24 64 14 14 (301056)
I0403 16:12:03.196902 17400 net.cpp:156] Memory required for data: 1061809440
I0403 16:12:03.196928 17400 layer_factory.hpp:77] Creating layer inception_4c/relu_pool_proj
I0403 16:12:03.196954 17400 net.cpp:91] Creating Layer inception_4c/relu_pool_proj
I0403 16:12:03.196975 17400 net.cpp:425] inception_4c/relu_pool_proj <- inception_4c/pool_proj
I0403 16:12:03.196998 17400 net.cpp:386] inception_4c/relu_pool_proj -> inception_4c/pool_proj (in-place)
I0403 16:12:03.197223 17400 net.cpp:141] Setting up inception_4c/relu_pool_proj
I0403 16:12:03.197254 17400 net.cpp:148] Top shape: 24 64 14 14 (301056)
I0403 16:12:03.197278 17400 net.cpp:156] Memory required for data: 1063013664
I0403 16:12:03.197298 17400 layer_factory.hpp:77] Creating layer inception_4c/output
I0403 16:12:03.197319 17400 net.cpp:91] Creating Layer inception_4c/output
I0403 16:12:03.197340 17400 net.cpp:425] inception_4c/output <- inception_4c/1x1
I0403 16:12:03.197360 17400 net.cpp:425] inception_4c/output <- inception_4c/3x3
I0403 16:12:03.197381 17400 net.cpp:425] inception_4c/output <- inception_4c/5x5
I0403 16:12:03.197402 17400 net.cpp:425] inception_4c/output <- inception_4c/pool_proj
I0403 16:12:03.197423 17400 net.cpp:399] inception_4c/output -> inception_4c/output
I0403 16:12:03.197482 17400 net.cpp:141] Setting up inception_4c/output
I0403 16:12:03.197512 17400 net.cpp:148] Top shape: 24 512 14 14 (2408448)
I0403 16:12:03.197530 17400 net.cpp:156] Memory required for data: 1072647456
I0403 16:12:03.197548 17400 layer_factory.hpp:77] Creating layer inception_4c/output_inception_4c/output_0_split
I0403 16:12:03.197571 17400 net.cpp:91] Creating Layer inception_4c/output_inception_4c/output_0_split
I0403 16:12:03.197589 17400 net.cpp:425] inception_4c/output_inception_4c/output_0_split <- inception_4c/output
I0403 16:12:03.197621 17400 net.cpp:399] inception_4c/output_inception_4c/output_0_split -> inception_4c/output_inception_4c/output_0_split_0
I0403 16:12:03.197650 17400 net.cpp:399] inception_4c/output_inception_4c/output_0_split -> inception_4c/output_inception_4c/output_0_split_1
I0403 16:12:03.197677 17400 net.cpp:399] inception_4c/output_inception_4c/output_0_split -> inception_4c/output_inception_4c/output_0_split_2
I0403 16:12:03.197703 17400 net.cpp:399] inception_4c/output_inception_4c/output_0_split -> inception_4c/output_inception_4c/output_0_split_3
I0403 16:12:03.197808 17400 net.cpp:141] Setting up inception_4c/output_inception_4c/output_0_split
I0403 16:12:03.197836 17400 net.cpp:148] Top shape: 24 512 14 14 (2408448)
I0403 16:12:03.197859 17400 net.cpp:148] Top shape: 24 512 14 14 (2408448)
I0403 16:12:03.197878 17400 net.cpp:148] Top shape: 24 512 14 14 (2408448)
I0403 16:12:03.197897 17400 net.cpp:148] Top shape: 24 512 14 14 (2408448)
I0403 16:12:03.197916 17400 net.cpp:156] Memory required for data: 1111182624
I0403 16:12:03.197934 17400 layer_factory.hpp:77] Creating layer inception_4d/1x1
I0403 16:12:03.197964 17400 net.cpp:91] Creating Layer inception_4d/1x1
I0403 16:12:03.197986 17400 net.cpp:425] inception_4d/1x1 <- inception_4c/output_inception_4c/output_0_split_0
I0403 16:12:03.198014 17400 net.cpp:399] inception_4d/1x1 -> inception_4d/1x1
I0403 16:12:03.199723 17400 net.cpp:141] Setting up inception_4d/1x1
I0403 16:12:03.199760 17400 net.cpp:148] Top shape: 24 112 14 14 (526848)
I0403 16:12:03.199790 17400 net.cpp:156] Memory required for data: 1113290016
I0403 16:12:03.199815 17400 layer_factory.hpp:77] Creating layer inception_4d/relu_1x1
I0403 16:12:03.199836 17400 net.cpp:91] Creating Layer inception_4d/relu_1x1
I0403 16:12:03.199856 17400 net.cpp:425] inception_4d/relu_1x1 <- inception_4d/1x1
I0403 16:12:03.199880 17400 net.cpp:386] inception_4d/relu_1x1 -> inception_4d/1x1 (in-place)
I0403 16:12:03.200112 17400 net.cpp:141] Setting up inception_4d/relu_1x1
I0403 16:12:03.200144 17400 net.cpp:148] Top shape: 24 112 14 14 (526848)
I0403 16:12:03.200161 17400 net.cpp:156] Memory required for data: 1115397408
I0403 16:12:03.200181 17400 layer_factory.hpp:77] Creating layer inception_4d/3x3_reduce
I0403 16:12:03.200224 17400 net.cpp:91] Creating Layer inception_4d/3x3_reduce
I0403 16:12:03.200248 17400 net.cpp:425] inception_4d/3x3_reduce <- inception_4c/output_inception_4c/output_0_split_1
I0403 16:12:03.200278 17400 net.cpp:399] inception_4d/3x3_reduce -> inception_4d/3x3_reduce
I0403 16:12:03.202138 17400 net.cpp:141] Setting up inception_4d/3x3_reduce
I0403 16:12:03.202173 17400 net.cpp:148] Top shape: 24 144 14 14 (677376)
I0403 16:12:03.202193 17400 net.cpp:156] Memory required for data: 1118106912
I0403 16:12:03.202216 17400 layer_factory.hpp:77] Creating layer inception_4d/relu_3x3_reduce
I0403 16:12:03.202241 17400 net.cpp:91] Creating Layer inception_4d/relu_3x3_reduce
I0403 16:12:03.202265 17400 net.cpp:425] inception_4d/relu_3x3_reduce <- inception_4d/3x3_reduce
I0403 16:12:03.202286 17400 net.cpp:386] inception_4d/relu_3x3_reduce -> inception_4d/3x3_reduce (in-place)
I0403 16:12:03.202648 17400 net.cpp:141] Setting up inception_4d/relu_3x3_reduce
I0403 16:12:03.202682 17400 net.cpp:148] Top shape: 24 144 14 14 (677376)
I0403 16:12:03.202702 17400 net.cpp:156] Memory required for data: 1120816416
I0403 16:12:03.202720 17400 layer_factory.hpp:77] Creating layer inception_4d/3x3
I0403 16:12:03.202751 17400 net.cpp:91] Creating Layer inception_4d/3x3
I0403 16:12:03.202775 17400 net.cpp:425] inception_4d/3x3 <- inception_4d/3x3_reduce
I0403 16:12:03.202800 17400 net.cpp:399] inception_4d/3x3 -> inception_4d/3x3
I0403 16:12:03.208098 17400 net.cpp:141] Setting up inception_4d/3x3
I0403 16:12:03.208137 17400 net.cpp:148] Top shape: 24 288 14 14 (1354752)
I0403 16:12:03.208158 17400 net.cpp:156] Memory required for data: 1126235424
I0403 16:12:03.208183 17400 layer_factory.hpp:77] Creating layer inception_4d/relu_3x3
I0403 16:12:03.208205 17400 net.cpp:91] Creating Layer inception_4d/relu_3x3
I0403 16:12:03.208226 17400 net.cpp:425] inception_4d/relu_3x3 <- inception_4d/3x3
I0403 16:12:03.208252 17400 net.cpp:386] inception_4d/relu_3x3 -> inception_4d/3x3 (in-place)
I0403 16:12:03.208482 17400 net.cpp:141] Setting up inception_4d/relu_3x3
I0403 16:12:03.208513 17400 net.cpp:148] Top shape: 24 288 14 14 (1354752)
I0403 16:12:03.208531 17400 net.cpp:156] Memory required for data: 1131654432
I0403 16:12:03.208549 17400 layer_factory.hpp:77] Creating layer inception_4d/5x5_reduce
I0403 16:12:03.208576 17400 net.cpp:91] Creating Layer inception_4d/5x5_reduce
I0403 16:12:03.208600 17400 net.cpp:425] inception_4d/5x5_reduce <- inception_4c/output_inception_4c/output_0_split_2
I0403 16:12:03.208639 17400 net.cpp:399] inception_4d/5x5_reduce -> inception_4d/5x5_reduce
I0403 16:12:03.210047 17400 net.cpp:141] Setting up inception_4d/5x5_reduce
I0403 16:12:03.210083 17400 net.cpp:148] Top shape: 24 32 14 14 (150528)
I0403 16:12:03.210103 17400 net.cpp:156] Memory required for data: 1132256544
I0403 16:12:03.210126 17400 layer_factory.hpp:77] Creating layer inception_4d/relu_5x5_reduce
I0403 16:12:03.210149 17400 net.cpp:91] Creating Layer inception_4d/relu_5x5_reduce
I0403 16:12:03.210170 17400 net.cpp:425] inception_4d/relu_5x5_reduce <- inception_4d/5x5_reduce
I0403 16:12:03.210194 17400 net.cpp:386] inception_4d/relu_5x5_reduce -> inception_4d/5x5_reduce (in-place)
I0403 16:12:03.210433 17400 net.cpp:141] Setting up inception_4d/relu_5x5_reduce
I0403 16:12:03.210464 17400 net.cpp:148] Top shape: 24 32 14 14 (150528)
I0403 16:12:03.210482 17400 net.cpp:156] Memory required for data: 1132858656
I0403 16:12:03.210501 17400 layer_factory.hpp:77] Creating layer inception_4d/5x5
I0403 16:12:03.210533 17400 net.cpp:91] Creating Layer inception_4d/5x5
I0403 16:12:03.210556 17400 net.cpp:425] inception_4d/5x5 <- inception_4d/5x5_reduce
I0403 16:12:03.210583 17400 net.cpp:399] inception_4d/5x5 -> inception_4d/5x5
I0403 16:12:03.212409 17400 net.cpp:141] Setting up inception_4d/5x5
I0403 16:12:03.212443 17400 net.cpp:148] Top shape: 24 64 14 14 (301056)
I0403 16:12:03.212463 17400 net.cpp:156] Memory required for data: 1134062880
I0403 16:12:03.212486 17400 layer_factory.hpp:77] Creating layer inception_4d/relu_5x5
I0403 16:12:03.212529 17400 net.cpp:91] Creating Layer inception_4d/relu_5x5
I0403 16:12:03.212553 17400 net.cpp:425] inception_4d/relu_5x5 <- inception_4d/5x5
I0403 16:12:03.212575 17400 net.cpp:386] inception_4d/relu_5x5 -> inception_4d/5x5 (in-place)
I0403 16:12:03.212954 17400 net.cpp:141] Setting up inception_4d/relu_5x5
I0403 16:12:03.212987 17400 net.cpp:148] Top shape: 24 64 14 14 (301056)
I0403 16:12:03.213007 17400 net.cpp:156] Memory required for data: 1135267104
I0403 16:12:03.213027 17400 layer_factory.hpp:77] Creating layer inception_4d/pool
I0403 16:12:03.213052 17400 net.cpp:91] Creating Layer inception_4d/pool
I0403 16:12:03.213073 17400 net.cpp:425] inception_4d/pool <- inception_4c/output_inception_4c/output_0_split_3
I0403 16:12:03.213096 17400 net.cpp:399] inception_4d/pool -> inception_4d/pool
I0403 16:12:03.213181 17400 net.cpp:141] Setting up inception_4d/pool
I0403 16:12:03.213210 17400 net.cpp:148] Top shape: 24 512 14 14 (2408448)
I0403 16:12:03.213229 17400 net.cpp:156] Memory required for data: 1144900896
I0403 16:12:03.213249 17400 layer_factory.hpp:77] Creating layer inception_4d/pool_proj
I0403 16:12:03.213277 17400 net.cpp:91] Creating Layer inception_4d/pool_proj
I0403 16:12:03.213300 17400 net.cpp:425] inception_4d/pool_proj <- inception_4d/pool
I0403 16:12:03.213327 17400 net.cpp:399] inception_4d/pool_proj -> inception_4d/pool_proj
I0403 16:12:03.215481 17400 net.cpp:141] Setting up inception_4d/pool_proj
I0403 16:12:03.215520 17400 net.cpp:148] Top shape: 24 64 14 14 (301056)
I0403 16:12:03.215543 17400 net.cpp:156] Memory required for data: 1146105120
I0403 16:12:03.215567 17400 layer_factory.hpp:77] Creating layer inception_4d/relu_pool_proj
I0403 16:12:03.215590 17400 net.cpp:91] Creating Layer inception_4d/relu_pool_proj
I0403 16:12:03.215620 17400 net.cpp:425] inception_4d/relu_pool_proj <- inception_4d/pool_proj
I0403 16:12:03.215647 17400 net.cpp:386] inception_4d/relu_pool_proj -> inception_4d/pool_proj (in-place)
I0403 16:12:03.215888 17400 net.cpp:141] Setting up inception_4d/relu_pool_proj
I0403 16:12:03.215920 17400 net.cpp:148] Top shape: 24 64 14 14 (301056)
I0403 16:12:03.215939 17400 net.cpp:156] Memory required for data: 1147309344
I0403 16:12:03.215958 17400 layer_factory.hpp:77] Creating layer inception_4d/output
I0403 16:12:03.215981 17400 net.cpp:91] Creating Layer inception_4d/output
I0403 16:12:03.215999 17400 net.cpp:425] inception_4d/output <- inception_4d/1x1
I0403 16:12:03.216022 17400 net.cpp:425] inception_4d/output <- inception_4d/3x3
I0403 16:12:03.216042 17400 net.cpp:425] inception_4d/output <- inception_4d/5x5
I0403 16:12:03.216069 17400 net.cpp:425] inception_4d/output <- inception_4d/pool_proj
I0403 16:12:03.216092 17400 net.cpp:399] inception_4d/output -> inception_4d/output
I0403 16:12:03.216156 17400 net.cpp:141] Setting up inception_4d/output
I0403 16:12:03.216186 17400 net.cpp:148] Top shape: 24 528 14 14 (2483712)
I0403 16:12:03.216203 17400 net.cpp:156] Memory required for data: 1157244192
I0403 16:12:03.216223 17400 layer_factory.hpp:77] Creating layer inception_4d/output_inception_4d/output_0_split
I0403 16:12:03.216244 17400 net.cpp:91] Creating Layer inception_4d/output_inception_4d/output_0_split
I0403 16:12:03.216264 17400 net.cpp:425] inception_4d/output_inception_4d/output_0_split <- inception_4d/output
I0403 16:12:03.216290 17400 net.cpp:399] inception_4d/output_inception_4d/output_0_split -> inception_4d/output_inception_4d/output_0_split_0
I0403 16:12:03.216320 17400 net.cpp:399] inception_4d/output_inception_4d/output_0_split -> inception_4d/output_inception_4d/output_0_split_1
I0403 16:12:03.216346 17400 net.cpp:399] inception_4d/output_inception_4d/output_0_split -> inception_4d/output_inception_4d/output_0_split_2
I0403 16:12:03.216373 17400 net.cpp:399] inception_4d/output_inception_4d/output_0_split -> inception_4d/output_inception_4d/output_0_split_3
I0403 16:12:03.216398 17400 net.cpp:399] inception_4d/output_inception_4d/output_0_split -> inception_4d/output_inception_4d/output_0_split_4
I0403 16:12:03.216526 17400 net.cpp:141] Setting up inception_4d/output_inception_4d/output_0_split
I0403 16:12:03.216572 17400 net.cpp:148] Top shape: 24 528 14 14 (2483712)
I0403 16:12:03.216596 17400 net.cpp:148] Top shape: 24 528 14 14 (2483712)
I0403 16:12:03.216625 17400 net.cpp:148] Top shape: 24 528 14 14 (2483712)
I0403 16:12:03.216647 17400 net.cpp:148] Top shape: 24 528 14 14 (2483712)
I0403 16:12:03.216668 17400 net.cpp:148] Top shape: 24 528 14 14 (2483712)
I0403 16:12:03.216686 17400 net.cpp:156] Memory required for data: 1206918432
I0403 16:12:03.216704 17400 layer_factory.hpp:77] Creating layer loss2/ave_pool
I0403 16:12:03.216727 17400 net.cpp:91] Creating Layer loss2/ave_pool
I0403 16:12:03.216748 17400 net.cpp:425] loss2/ave_pool <- inception_4d/output_inception_4d/output_0_split_0
I0403 16:12:03.216774 17400 net.cpp:399] loss2/ave_pool -> loss2/ave_pool
I0403 16:12:03.217159 17400 net.cpp:141] Setting up loss2/ave_pool
I0403 16:12:03.217192 17400 net.cpp:148] Top shape: 24 528 4 4 (202752)
I0403 16:12:03.217212 17400 net.cpp:156] Memory required for data: 1207729440
I0403 16:12:03.217231 17400 layer_factory.hpp:77] Creating layer loss2/conv
I0403 16:12:03.217259 17400 net.cpp:91] Creating Layer loss2/conv
I0403 16:12:03.217283 17400 net.cpp:425] loss2/conv <- loss2/ave_pool
I0403 16:12:03.217309 17400 net.cpp:399] loss2/conv -> loss2/conv
I0403 16:12:03.219624 17400 net.cpp:141] Setting up loss2/conv
I0403 16:12:03.219660 17400 net.cpp:148] Top shape: 24 128 4 4 (49152)
I0403 16:12:03.219681 17400 net.cpp:156] Memory required for data: 1207926048
I0403 16:12:03.219704 17400 layer_factory.hpp:77] Creating layer loss2/relu_conv
I0403 16:12:03.219730 17400 net.cpp:91] Creating Layer loss2/relu_conv
I0403 16:12:03.219753 17400 net.cpp:425] loss2/relu_conv <- loss2/conv
I0403 16:12:03.219785 17400 net.cpp:386] loss2/relu_conv -> loss2/conv (in-place)
I0403 16:12:03.220144 17400 net.cpp:141] Setting up loss2/relu_conv
I0403 16:12:03.220177 17400 net.cpp:148] Top shape: 24 128 4 4 (49152)
I0403 16:12:03.220197 17400 net.cpp:156] Memory required for data: 1208122656
I0403 16:12:03.220216 17400 layer_factory.hpp:77] Creating layer loss2/fc
I0403 16:12:03.220242 17400 net.cpp:91] Creating Layer loss2/fc
I0403 16:12:03.220265 17400 net.cpp:425] loss2/fc <- loss2/conv
I0403 16:12:03.220293 17400 net.cpp:399] loss2/fc -> loss2/fc
I0403 16:12:03.242152 17400 net.cpp:141] Setting up loss2/fc
I0403 16:12:03.242199 17400 net.cpp:148] Top shape: 24 1024 (24576)
I0403 16:12:03.242220 17400 net.cpp:156] Memory required for data: 1208220960
I0403 16:12:03.242244 17400 layer_factory.hpp:77] Creating layer loss2/relu_fc
I0403 16:12:03.242270 17400 net.cpp:91] Creating Layer loss2/relu_fc
I0403 16:12:03.242291 17400 net.cpp:425] loss2/relu_fc <- loss2/fc
I0403 16:12:03.242318 17400 net.cpp:386] loss2/relu_fc -> loss2/fc (in-place)
I0403 16:12:03.242712 17400 net.cpp:141] Setting up loss2/relu_fc
I0403 16:12:03.242745 17400 net.cpp:148] Top shape: 24 1024 (24576)
I0403 16:12:03.242766 17400 net.cpp:156] Memory required for data: 1208319264
I0403 16:12:03.242787 17400 layer_factory.hpp:77] Creating layer loss2/drop_fc
I0403 16:12:03.242810 17400 net.cpp:91] Creating Layer loss2/drop_fc
I0403 16:12:03.242830 17400 net.cpp:425] loss2/drop_fc <- loss2/fc
I0403 16:12:03.242856 17400 net.cpp:386] loss2/drop_fc -> loss2/fc (in-place)
I0403 16:12:03.242919 17400 net.cpp:141] Setting up loss2/drop_fc
I0403 16:12:03.242952 17400 net.cpp:148] Top shape: 24 1024 (24576)
I0403 16:12:03.242974 17400 net.cpp:156] Memory required for data: 1208417568
I0403 16:12:03.242993 17400 layer_factory.hpp:77] Creating layer loss2/classifier_plantvillage
I0403 16:12:03.243017 17400 net.cpp:91] Creating Layer loss2/classifier_plantvillage
I0403 16:12:03.243038 17400 net.cpp:425] loss2/classifier_plantvillage <- loss2/fc
I0403 16:12:03.243067 17400 net.cpp:399] loss2/classifier_plantvillage -> loss2/classifier_plantvillage
I0403 16:12:03.243571 17400 net.cpp:141] Setting up loss2/classifier_plantvillage
I0403 16:12:03.243612 17400 net.cpp:148] Top shape: 24 38 (912)
I0403 16:12:03.243634 17400 net.cpp:156] Memory required for data: 1208421216
I0403 16:12:03.243677 17400 layer_factory.hpp:77] Creating layer loss2/classifier_plantvillage_loss2/classifier_plantvillage_0_split
I0403 16:12:03.243705 17400 net.cpp:91] Creating Layer loss2/classifier_plantvillage_loss2/classifier_plantvillage_0_split
I0403 16:12:03.243727 17400 net.cpp:425] loss2/classifier_plantvillage_loss2/classifier_plantvillage_0_split <- loss2/classifier_plantvillage
I0403 16:12:03.243751 17400 net.cpp:399] loss2/classifier_plantvillage_loss2/classifier_plantvillage_0_split -> loss2/classifier_plantvillage_loss2/classifier_plantvillage_0_split_0
I0403 16:12:03.243777 17400 net.cpp:399] loss2/classifier_plantvillage_loss2/classifier_plantvillage_0_split -> loss2/classifier_plantvillage_loss2/classifier_plantvillage_0_split_1
I0403 16:12:03.243810 17400 net.cpp:399] loss2/classifier_plantvillage_loss2/classifier_plantvillage_0_split -> loss2/classifier_plantvillage_loss2/classifier_plantvillage_0_split_2
I0403 16:12:03.243908 17400 net.cpp:141] Setting up loss2/classifier_plantvillage_loss2/classifier_plantvillage_0_split
I0403 16:12:03.243939 17400 net.cpp:148] Top shape: 24 38 (912)
I0403 16:12:03.243959 17400 net.cpp:148] Top shape: 24 38 (912)
I0403 16:12:03.243980 17400 net.cpp:148] Top shape: 24 38 (912)
I0403 16:12:03.243999 17400 net.cpp:156] Memory required for data: 1208432160
I0403 16:12:03.244019 17400 layer_factory.hpp:77] Creating layer inception_4e/1x1
I0403 16:12:03.244048 17400 net.cpp:91] Creating Layer inception_4e/1x1
I0403 16:12:03.244071 17400 net.cpp:425] inception_4e/1x1 <- inception_4d/output_inception_4d/output_0_split_1
I0403 16:12:03.244096 17400 net.cpp:399] inception_4e/1x1 -> inception_4e/1x1
I0403 16:12:03.246377 17400 net.cpp:141] Setting up inception_4e/1x1
I0403 16:12:03.246413 17400 net.cpp:148] Top shape: 24 256 14 14 (1204224)
I0403 16:12:03.246438 17400 net.cpp:156] Memory required for data: 1213249056
I0403 16:12:03.246461 17400 layer_factory.hpp:77] Creating layer inception_4e/relu_1x1
I0403 16:12:03.246487 17400 net.cpp:91] Creating Layer inception_4e/relu_1x1
I0403 16:12:03.246508 17400 net.cpp:425] inception_4e/relu_1x1 <- inception_4e/1x1
I0403 16:12:03.246531 17400 net.cpp:386] inception_4e/relu_1x1 -> inception_4e/1x1 (in-place)
I0403 16:12:03.246898 17400 net.cpp:141] Setting up inception_4e/relu_1x1
I0403 16:12:03.246932 17400 net.cpp:148] Top shape: 24 256 14 14 (1204224)
I0403 16:12:03.246951 17400 net.cpp:156] Memory required for data: 1218065952
I0403 16:12:03.246973 17400 layer_factory.hpp:77] Creating layer inception_4e/3x3_reduce
I0403 16:12:03.247000 17400 net.cpp:91] Creating Layer inception_4e/3x3_reduce
I0403 16:12:03.247022 17400 net.cpp:425] inception_4e/3x3_reduce <- inception_4d/output_inception_4d/output_0_split_2
I0403 16:12:03.247050 17400 net.cpp:399] inception_4e/3x3_reduce -> inception_4e/3x3_reduce
I0403 16:12:03.249649 17400 net.cpp:141] Setting up inception_4e/3x3_reduce
I0403 16:12:03.249686 17400 net.cpp:148] Top shape: 24 160 14 14 (752640)
I0403 16:12:03.249706 17400 net.cpp:156] Memory required for data: 1221076512
I0403 16:12:03.249729 17400 layer_factory.hpp:77] Creating layer inception_4e/relu_3x3_reduce
I0403 16:12:03.249755 17400 net.cpp:91] Creating Layer inception_4e/relu_3x3_reduce
I0403 16:12:03.249778 17400 net.cpp:425] inception_4e/relu_3x3_reduce <- inception_4e/3x3_reduce
I0403 16:12:03.249800 17400 net.cpp:386] inception_4e/relu_3x3_reduce -> inception_4e/3x3_reduce (in-place)
I0403 16:12:03.250032 17400 net.cpp:141] Setting up inception_4e/relu_3x3_reduce
I0403 16:12:03.250066 17400 net.cpp:148] Top shape: 24 160 14 14 (752640)
I0403 16:12:03.250087 17400 net.cpp:156] Memory required for data: 1224087072
I0403 16:12:03.250105 17400 layer_factory.hpp:77] Creating layer inception_4e/3x3
I0403 16:12:03.250133 17400 net.cpp:91] Creating Layer inception_4e/3x3
I0403 16:12:03.250155 17400 net.cpp:425] inception_4e/3x3 <- inception_4e/3x3_reduce
I0403 16:12:03.250181 17400 net.cpp:399] inception_4e/3x3 -> inception_4e/3x3
I0403 16:12:03.256386 17400 net.cpp:141] Setting up inception_4e/3x3
I0403 16:12:03.256441 17400 net.cpp:148] Top shape: 24 320 14 14 (1505280)
I0403 16:12:03.256464 17400 net.cpp:156] Memory required for data: 1230108192
I0403 16:12:03.256487 17400 layer_factory.hpp:77] Creating layer inception_4e/relu_3x3
I0403 16:12:03.256511 17400 net.cpp:91] Creating Layer inception_4e/relu_3x3
I0403 16:12:03.256532 17400 net.cpp:425] inception_4e/relu_3x3 <- inception_4e/3x3
I0403 16:12:03.256556 17400 net.cpp:386] inception_4e/relu_3x3 -> inception_4e/3x3 (in-place)
I0403 16:12:03.256942 17400 net.cpp:141] Setting up inception_4e/relu_3x3
I0403 16:12:03.256976 17400 net.cpp:148] Top shape: 24 320 14 14 (1505280)
I0403 16:12:03.256996 17400 net.cpp:156] Memory required for data: 1236129312
I0403 16:12:03.257015 17400 layer_factory.hpp:77] Creating layer inception_4e/5x5_reduce
I0403 16:12:03.257045 17400 net.cpp:91] Creating Layer inception_4e/5x5_reduce
I0403 16:12:03.257069 17400 net.cpp:425] inception_4e/5x5_reduce <- inception_4d/output_inception_4d/output_0_split_3
I0403 16:12:03.257107 17400 net.cpp:399] inception_4e/5x5_reduce -> inception_4e/5x5_reduce
I0403 16:12:03.258443 17400 net.cpp:141] Setting up inception_4e/5x5_reduce
I0403 16:12:03.258479 17400 net.cpp:148] Top shape: 24 32 14 14 (150528)
I0403 16:12:03.258499 17400 net.cpp:156] Memory required for data: 1236731424
I0403 16:12:03.258523 17400 layer_factory.hpp:77] Creating layer inception_4e/relu_5x5_reduce
I0403 16:12:03.258549 17400 net.cpp:91] Creating Layer inception_4e/relu_5x5_reduce
I0403 16:12:03.258572 17400 net.cpp:425] inception_4e/relu_5x5_reduce <- inception_4e/5x5_reduce
I0403 16:12:03.258594 17400 net.cpp:386] inception_4e/relu_5x5_reduce -> inception_4e/5x5_reduce (in-place)
I0403 16:12:03.258970 17400 net.cpp:141] Setting up inception_4e/relu_5x5_reduce
I0403 16:12:03.259003 17400 net.cpp:148] Top shape: 24 32 14 14 (150528)
I0403 16:12:03.259022 17400 net.cpp:156] Memory required for data: 1237333536
I0403 16:12:03.259042 17400 layer_factory.hpp:77] Creating layer inception_4e/5x5
I0403 16:12:03.259089 17400 net.cpp:91] Creating Layer inception_4e/5x5
I0403 16:12:03.259114 17400 net.cpp:425] inception_4e/5x5 <- inception_4e/5x5_reduce
I0403 16:12:03.259138 17400 net.cpp:399] inception_4e/5x5 -> inception_4e/5x5
I0403 16:12:03.261418 17400 net.cpp:141] Setting up inception_4e/5x5
I0403 16:12:03.261454 17400 net.cpp:148] Top shape: 24 128 14 14 (602112)
I0403 16:12:03.261474 17400 net.cpp:156] Memory required for data: 1239741984
I0403 16:12:03.261499 17400 layer_factory.hpp:77] Creating layer inception_4e/relu_5x5
I0403 16:12:03.261526 17400 net.cpp:91] Creating Layer inception_4e/relu_5x5
I0403 16:12:03.261549 17400 net.cpp:425] inception_4e/relu_5x5 <- inception_4e/5x5
I0403 16:12:03.261571 17400 net.cpp:386] inception_4e/relu_5x5 -> inception_4e/5x5 (in-place)
I0403 16:12:03.261823 17400 net.cpp:141] Setting up inception_4e/relu_5x5
I0403 16:12:03.261855 17400 net.cpp:148] Top shape: 24 128 14 14 (602112)
I0403 16:12:03.261875 17400 net.cpp:156] Memory required for data: 1242150432
I0403 16:12:03.261894 17400 layer_factory.hpp:77] Creating layer inception_4e/pool
I0403 16:12:03.261919 17400 net.cpp:91] Creating Layer inception_4e/pool
I0403 16:12:03.261941 17400 net.cpp:425] inception_4e/pool <- inception_4d/output_inception_4d/output_0_split_4
I0403 16:12:03.261965 17400 net.cpp:399] inception_4e/pool -> inception_4e/pool
I0403 16:12:03.262055 17400 net.cpp:141] Setting up inception_4e/pool
I0403 16:12:03.262085 17400 net.cpp:148] Top shape: 24 528 14 14 (2483712)
I0403 16:12:03.262104 17400 net.cpp:156] Memory required for data: 1252085280
I0403 16:12:03.262123 17400 layer_factory.hpp:77] Creating layer inception_4e/pool_proj
I0403 16:12:03.262151 17400 net.cpp:91] Creating Layer inception_4e/pool_proj
I0403 16:12:03.262172 17400 net.cpp:425] inception_4e/pool_proj <- inception_4e/pool
I0403 16:12:03.262198 17400 net.cpp:399] inception_4e/pool_proj -> inception_4e/pool_proj
I0403 16:12:03.264073 17400 net.cpp:141] Setting up inception_4e/pool_proj
I0403 16:12:03.264112 17400 net.cpp:148] Top shape: 24 128 14 14 (602112)
I0403 16:12:03.264149 17400 net.cpp:156] Memory required for data: 1254493728
I0403 16:12:03.264174 17400 layer_factory.hpp:77] Creating layer inception_4e/relu_pool_proj
I0403 16:12:03.264199 17400 net.cpp:91] Creating Layer inception_4e/relu_pool_proj
I0403 16:12:03.264219 17400 net.cpp:425] inception_4e/relu_pool_proj <- inception_4e/pool_proj
I0403 16:12:03.264245 17400 net.cpp:386] inception_4e/relu_pool_proj -> inception_4e/pool_proj (in-place)
I0403 16:12:03.264616 17400 net.cpp:141] Setting up inception_4e/relu_pool_proj
I0403 16:12:03.264649 17400 net.cpp:148] Top shape: 24 128 14 14 (602112)
I0403 16:12:03.264669 17400 net.cpp:156] Memory required for data: 1256902176
I0403 16:12:03.264688 17400 layer_factory.hpp:77] Creating layer inception_4e/output
I0403 16:12:03.264710 17400 net.cpp:91] Creating Layer inception_4e/output
I0403 16:12:03.264730 17400 net.cpp:425] inception_4e/output <- inception_4e/1x1
I0403 16:12:03.264752 17400 net.cpp:425] inception_4e/output <- inception_4e/3x3
I0403 16:12:03.264772 17400 net.cpp:425] inception_4e/output <- inception_4e/5x5
I0403 16:12:03.264792 17400 net.cpp:425] inception_4e/output <- inception_4e/pool_proj
I0403 16:12:03.264823 17400 net.cpp:399] inception_4e/output -> inception_4e/output
I0403 16:12:03.264888 17400 net.cpp:141] Setting up inception_4e/output
I0403 16:12:03.264916 17400 net.cpp:148] Top shape: 24 832 14 14 (3913728)
I0403 16:12:03.264935 17400 net.cpp:156] Memory required for data: 1272557088
I0403 16:12:03.264955 17400 layer_factory.hpp:77] Creating layer pool4/3x3_s2
I0403 16:12:03.264978 17400 net.cpp:91] Creating Layer pool4/3x3_s2
I0403 16:12:03.265000 17400 net.cpp:425] pool4/3x3_s2 <- inception_4e/output
I0403 16:12:03.265030 17400 net.cpp:399] pool4/3x3_s2 -> pool4/3x3_s2
I0403 16:12:03.265113 17400 net.cpp:141] Setting up pool4/3x3_s2
I0403 16:12:03.265144 17400 net.cpp:148] Top shape: 24 832 7 7 (978432)
I0403 16:12:03.265163 17400 net.cpp:156] Memory required for data: 1276470816
I0403 16:12:03.265182 17400 layer_factory.hpp:77] Creating layer pool4/3x3_s2_pool4/3x3_s2_0_split
I0403 16:12:03.265205 17400 net.cpp:91] Creating Layer pool4/3x3_s2_pool4/3x3_s2_0_split
I0403 16:12:03.265228 17400 net.cpp:425] pool4/3x3_s2_pool4/3x3_s2_0_split <- pool4/3x3_s2
I0403 16:12:03.265249 17400 net.cpp:399] pool4/3x3_s2_pool4/3x3_s2_0_split -> pool4/3x3_s2_pool4/3x3_s2_0_split_0
I0403 16:12:03.265275 17400 net.cpp:399] pool4/3x3_s2_pool4/3x3_s2_0_split -> pool4/3x3_s2_pool4/3x3_s2_0_split_1
I0403 16:12:03.265300 17400 net.cpp:399] pool4/3x3_s2_pool4/3x3_s2_0_split -> pool4/3x3_s2_pool4/3x3_s2_0_split_2
I0403 16:12:03.265326 17400 net.cpp:399] pool4/3x3_s2_pool4/3x3_s2_0_split -> pool4/3x3_s2_pool4/3x3_s2_0_split_3
I0403 16:12:03.265440 17400 net.cpp:141] Setting up pool4/3x3_s2_pool4/3x3_s2_0_split
I0403 16:12:03.265470 17400 net.cpp:148] Top shape: 24 832 7 7 (978432)
I0403 16:12:03.265491 17400 net.cpp:148] Top shape: 24 832 7 7 (978432)
I0403 16:12:03.265511 17400 net.cpp:148] Top shape: 24 832 7 7 (978432)
I0403 16:12:03.265532 17400 net.cpp:148] Top shape: 24 832 7 7 (978432)
I0403 16:12:03.265549 17400 net.cpp:156] Memory required for data: 1292125728
I0403 16:12:03.265568 17400 layer_factory.hpp:77] Creating layer inception_5a/1x1
I0403 16:12:03.265596 17400 net.cpp:91] Creating Layer inception_5a/1x1
I0403 16:12:03.265626 17400 net.cpp:425] inception_5a/1x1 <- pool4/3x3_s2_pool4/3x3_s2_0_split_0
I0403 16:12:03.265655 17400 net.cpp:399] inception_5a/1x1 -> inception_5a/1x1
I0403 16:12:03.269186 17400 net.cpp:141] Setting up inception_5a/1x1
I0403 16:12:03.269223 17400 net.cpp:148] Top shape: 24 256 7 7 (301056)
I0403 16:12:03.269243 17400 net.cpp:156] Memory required for data: 1293329952
I0403 16:12:03.269268 17400 layer_factory.hpp:77] Creating layer inception_5a/relu_1x1
I0403 16:12:03.269294 17400 net.cpp:91] Creating Layer inception_5a/relu_1x1
I0403 16:12:03.269316 17400 net.cpp:425] inception_5a/relu_1x1 <- inception_5a/1x1
I0403 16:12:03.269340 17400 net.cpp:386] inception_5a/relu_1x1 -> inception_5a/1x1 (in-place)
I0403 16:12:03.269727 17400 net.cpp:141] Setting up inception_5a/relu_1x1
I0403 16:12:03.269760 17400 net.cpp:148] Top shape: 24 256 7 7 (301056)
I0403 16:12:03.269779 17400 net.cpp:156] Memory required for data: 1294534176
I0403 16:12:03.269798 17400 layer_factory.hpp:77] Creating layer inception_5a/3x3_reduce
I0403 16:12:03.269826 17400 net.cpp:91] Creating Layer inception_5a/3x3_reduce
I0403 16:12:03.269850 17400 net.cpp:425] inception_5a/3x3_reduce <- pool4/3x3_s2_pool4/3x3_s2_0_split_1
I0403 16:12:03.269877 17400 net.cpp:399] inception_5a/3x3_reduce -> inception_5a/3x3_reduce
I0403 16:12:03.272903 17400 net.cpp:141] Setting up inception_5a/3x3_reduce
I0403 16:12:03.272943 17400 net.cpp:148] Top shape: 24 160 7 7 (188160)
I0403 16:12:03.272964 17400 net.cpp:156] Memory required for data: 1295286816
I0403 16:12:03.272987 17400 layer_factory.hpp:77] Creating layer inception_5a/relu_3x3_reduce
I0403 16:12:03.273010 17400 net.cpp:91] Creating Layer inception_5a/relu_3x3_reduce
I0403 16:12:03.273031 17400 net.cpp:425] inception_5a/relu_3x3_reduce <- inception_5a/3x3_reduce
I0403 16:12:03.273058 17400 net.cpp:386] inception_5a/relu_3x3_reduce -> inception_5a/3x3_reduce (in-place)
I0403 16:12:03.273299 17400 net.cpp:141] Setting up inception_5a/relu_3x3_reduce
I0403 16:12:03.273331 17400 net.cpp:148] Top shape: 24 160 7 7 (188160)
I0403 16:12:03.273350 17400 net.cpp:156] Memory required for data: 1296039456
I0403 16:12:03.273370 17400 layer_factory.hpp:77] Creating layer inception_5a/3x3
I0403 16:12:03.273397 17400 net.cpp:91] Creating Layer inception_5a/3x3
I0403 16:12:03.273422 17400 net.cpp:425] inception_5a/3x3 <- inception_5a/3x3_reduce
I0403 16:12:03.273449 17400 net.cpp:399] inception_5a/3x3 -> inception_5a/3x3
I0403 16:12:03.280861 17400 net.cpp:141] Setting up inception_5a/3x3
I0403 16:12:03.280899 17400 net.cpp:148] Top shape: 24 320 7 7 (376320)
I0403 16:12:03.280918 17400 net.cpp:156] Memory required for data: 1297544736
I0403 16:12:03.280942 17400 layer_factory.hpp:77] Creating layer inception_5a/relu_3x3
I0403 16:12:03.280968 17400 net.cpp:91] Creating Layer inception_5a/relu_3x3
I0403 16:12:03.280992 17400 net.cpp:425] inception_5a/relu_3x3 <- inception_5a/3x3
I0403 16:12:03.281013 17400 net.cpp:386] inception_5a/relu_3x3 -> inception_5a/3x3 (in-place)
I0403 16:12:03.281374 17400 net.cpp:141] Setting up inception_5a/relu_3x3
I0403 16:12:03.281407 17400 net.cpp:148] Top shape: 24 320 7 7 (376320)
I0403 16:12:03.281426 17400 net.cpp:156] Memory required for data: 1299050016
I0403 16:12:03.281445 17400 layer_factory.hpp:77] Creating layer inception_5a/5x5_reduce
I0403 16:12:03.281473 17400 net.cpp:91] Creating Layer inception_5a/5x5_reduce
I0403 16:12:03.281497 17400 net.cpp:425] inception_5a/5x5_reduce <- pool4/3x3_s2_pool4/3x3_s2_0_split_2
I0403 16:12:03.281524 17400 net.cpp:399] inception_5a/5x5_reduce -> inception_5a/5x5_reduce
I0403 16:12:03.282989 17400 net.cpp:141] Setting up inception_5a/5x5_reduce
I0403 16:12:03.283025 17400 net.cpp:148] Top shape: 24 32 7 7 (37632)
I0403 16:12:03.283046 17400 net.cpp:156] Memory required for data: 1299200544
I0403 16:12:03.283068 17400 layer_factory.hpp:77] Creating layer inception_5a/relu_5x5_reduce
I0403 16:12:03.283094 17400 net.cpp:91] Creating Layer inception_5a/relu_5x5_reduce
I0403 16:12:03.283118 17400 net.cpp:425] inception_5a/relu_5x5_reduce <- inception_5a/5x5_reduce
I0403 16:12:03.283140 17400 net.cpp:386] inception_5a/relu_5x5_reduce -> inception_5a/5x5_reduce (in-place)
I0403 16:12:03.283510 17400 net.cpp:141] Setting up inception_5a/relu_5x5_reduce
I0403 16:12:03.283543 17400 net.cpp:148] Top shape: 24 32 7 7 (37632)
I0403 16:12:03.283562 17400 net.cpp:156] Memory required for data: 1299351072
I0403 16:12:03.283581 17400 layer_factory.hpp:77] Creating layer inception_5a/5x5
I0403 16:12:03.283620 17400 net.cpp:91] Creating Layer inception_5a/5x5
I0403 16:12:03.283645 17400 net.cpp:425] inception_5a/5x5 <- inception_5a/5x5_reduce
I0403 16:12:03.283674 17400 net.cpp:399] inception_5a/5x5 -> inception_5a/5x5
I0403 16:12:03.285830 17400 net.cpp:141] Setting up inception_5a/5x5
I0403 16:12:03.285878 17400 net.cpp:148] Top shape: 24 128 7 7 (150528)
I0403 16:12:03.285899 17400 net.cpp:156] Memory required for data: 1299953184
I0403 16:12:03.285923 17400 layer_factory.hpp:77] Creating layer inception_5a/relu_5x5
I0403 16:12:03.285948 17400 net.cpp:91] Creating Layer inception_5a/relu_5x5
I0403 16:12:03.285971 17400 net.cpp:425] inception_5a/relu_5x5 <- inception_5a/5x5
I0403 16:12:03.285994 17400 net.cpp:386] inception_5a/relu_5x5 -> inception_5a/5x5 (in-place)
I0403 16:12:03.286234 17400 net.cpp:141] Setting up inception_5a/relu_5x5
I0403 16:12:03.286267 17400 net.cpp:148] Top shape: 24 128 7 7 (150528)
I0403 16:12:03.286284 17400 net.cpp:156] Memory required for data: 1300555296
I0403 16:12:03.286303 17400 layer_factory.hpp:77] Creating layer inception_5a/pool
I0403 16:12:03.286329 17400 net.cpp:91] Creating Layer inception_5a/pool
I0403 16:12:03.286350 17400 net.cpp:425] inception_5a/pool <- pool4/3x3_s2_pool4/3x3_s2_0_split_3
I0403 16:12:03.286375 17400 net.cpp:399] inception_5a/pool -> inception_5a/pool
I0403 16:12:03.286464 17400 net.cpp:141] Setting up inception_5a/pool
I0403 16:12:03.286494 17400 net.cpp:148] Top shape: 24 832 7 7 (978432)
I0403 16:12:03.286512 17400 net.cpp:156] Memory required for data: 1304469024
I0403 16:12:03.286530 17400 layer_factory.hpp:77] Creating layer inception_5a/pool_proj
I0403 16:12:03.286558 17400 net.cpp:91] Creating Layer inception_5a/pool_proj
I0403 16:12:03.286581 17400 net.cpp:425] inception_5a/pool_proj <- inception_5a/pool
I0403 16:12:03.286613 17400 net.cpp:399] inception_5a/pool_proj -> inception_5a/pool_proj
I0403 16:12:03.289425 17400 net.cpp:141] Setting up inception_5a/pool_proj
I0403 16:12:03.289463 17400 net.cpp:148] Top shape: 24 128 7 7 (150528)
I0403 16:12:03.289482 17400 net.cpp:156] Memory required for data: 1305071136
I0403 16:12:03.289506 17400 layer_factory.hpp:77] Creating layer inception_5a/relu_pool_proj
I0403 16:12:03.289528 17400 net.cpp:91] Creating Layer inception_5a/relu_pool_proj
I0403 16:12:03.289551 17400 net.cpp:425] inception_5a/relu_pool_proj <- inception_5a/pool_proj
I0403 16:12:03.289577 17400 net.cpp:386] inception_5a/relu_pool_proj -> inception_5a/pool_proj (in-place)
I0403 16:12:03.289958 17400 net.cpp:141] Setting up inception_5a/relu_pool_proj
I0403 16:12:03.289991 17400 net.cpp:148] Top shape: 24 128 7 7 (150528)
I0403 16:12:03.290011 17400 net.cpp:156] Memory required for data: 1305673248
I0403 16:12:03.290031 17400 layer_factory.hpp:77] Creating layer inception_5a/output
I0403 16:12:03.290053 17400 net.cpp:91] Creating Layer inception_5a/output
I0403 16:12:03.290074 17400 net.cpp:425] inception_5a/output <- inception_5a/1x1
I0403 16:12:03.290094 17400 net.cpp:425] inception_5a/output <- inception_5a/3x3
I0403 16:12:03.290115 17400 net.cpp:425] inception_5a/output <- inception_5a/5x5
I0403 16:12:03.290135 17400 net.cpp:425] inception_5a/output <- inception_5a/pool_proj
I0403 16:12:03.290159 17400 net.cpp:399] inception_5a/output -> inception_5a/output
I0403 16:12:03.290222 17400 net.cpp:141] Setting up inception_5a/output
I0403 16:12:03.290256 17400 net.cpp:148] Top shape: 24 832 7 7 (978432)
I0403 16:12:03.290276 17400 net.cpp:156] Memory required for data: 1309586976
I0403 16:12:03.290295 17400 layer_factory.hpp:77] Creating layer inception_5a/output_inception_5a/output_0_split
I0403 16:12:03.290318 17400 net.cpp:91] Creating Layer inception_5a/output_inception_5a/output_0_split
I0403 16:12:03.290338 17400 net.cpp:425] inception_5a/output_inception_5a/output_0_split <- inception_5a/output
I0403 16:12:03.290359 17400 net.cpp:399] inception_5a/output_inception_5a/output_0_split -> inception_5a/output_inception_5a/output_0_split_0
I0403 16:12:03.290386 17400 net.cpp:399] inception_5a/output_inception_5a/output_0_split -> inception_5a/output_inception_5a/output_0_split_1
I0403 16:12:03.290417 17400 net.cpp:399] inception_5a/output_inception_5a/output_0_split -> inception_5a/output_inception_5a/output_0_split_2
I0403 16:12:03.290444 17400 net.cpp:399] inception_5a/output_inception_5a/output_0_split -> inception_5a/output_inception_5a/output_0_split_3
I0403 16:12:03.290586 17400 net.cpp:141] Setting up inception_5a/output_inception_5a/output_0_split
I0403 16:12:03.290622 17400 net.cpp:148] Top shape: 24 832 7 7 (978432)
I0403 16:12:03.290643 17400 net.cpp:148] Top shape: 24 832 7 7 (978432)
I0403 16:12:03.290664 17400 net.cpp:148] Top shape: 24 832 7 7 (978432)
I0403 16:12:03.290685 17400 net.cpp:148] Top shape: 24 832 7 7 (978432)
I0403 16:12:03.290702 17400 net.cpp:156] Memory required for data: 1325241888
I0403 16:12:03.290721 17400 layer_factory.hpp:77] Creating layer inception_5b/1x1
I0403 16:12:03.290750 17400 net.cpp:91] Creating Layer inception_5b/1x1
I0403 16:12:03.290773 17400 net.cpp:425] inception_5b/1x1 <- inception_5a/output_inception_5a/output_0_split_0
I0403 16:12:03.290801 17400 net.cpp:399] inception_5b/1x1 -> inception_5b/1x1
I0403 16:12:03.295450 17400 net.cpp:141] Setting up inception_5b/1x1
I0403 16:12:03.295491 17400 net.cpp:148] Top shape: 24 384 7 7 (451584)
I0403 16:12:03.295512 17400 net.cpp:156] Memory required for data: 1327048224
I0403 16:12:03.295536 17400 layer_factory.hpp:77] Creating layer inception_5b/relu_1x1
I0403 16:12:03.295562 17400 net.cpp:91] Creating Layer inception_5b/relu_1x1
I0403 16:12:03.295583 17400 net.cpp:425] inception_5b/relu_1x1 <- inception_5b/1x1
I0403 16:12:03.295614 17400 net.cpp:386] inception_5b/relu_1x1 -> inception_5b/1x1 (in-place)
I0403 16:12:03.295990 17400 net.cpp:141] Setting up inception_5b/relu_1x1
I0403 16:12:03.296025 17400 net.cpp:148] Top shape: 24 384 7 7 (451584)
I0403 16:12:03.296046 17400 net.cpp:156] Memory required for data: 1328854560
I0403 16:12:03.296066 17400 layer_factory.hpp:77] Creating layer inception_5b/3x3_reduce
I0403 16:12:03.296093 17400 net.cpp:91] Creating Layer inception_5b/3x3_reduce
I0403 16:12:03.296116 17400 net.cpp:425] inception_5b/3x3_reduce <- inception_5a/output_inception_5a/output_0_split_1
I0403 16:12:03.296142 17400 net.cpp:399] inception_5b/3x3_reduce -> inception_5b/3x3_reduce
I0403 16:12:03.299427 17400 net.cpp:141] Setting up inception_5b/3x3_reduce
I0403 16:12:03.299464 17400 net.cpp:148] Top shape: 24 192 7 7 (225792)
I0403 16:12:03.299484 17400 net.cpp:156] Memory required for data: 1329757728
I0403 16:12:03.299509 17400 layer_factory.hpp:77] Creating layer inception_5b/relu_3x3_reduce
I0403 16:12:03.299531 17400 net.cpp:91] Creating Layer inception_5b/relu_3x3_reduce
I0403 16:12:03.299554 17400 net.cpp:425] inception_5b/relu_3x3_reduce <- inception_5b/3x3_reduce
I0403 16:12:03.299579 17400 net.cpp:386] inception_5b/relu_3x3_reduce -> inception_5b/3x3_reduce (in-place)
I0403 16:12:03.299829 17400 net.cpp:141] Setting up inception_5b/relu_3x3_reduce
I0403 16:12:03.299861 17400 net.cpp:148] Top shape: 24 192 7 7 (225792)
I0403 16:12:03.299880 17400 net.cpp:156] Memory required for data: 1330660896
I0403 16:12:03.299899 17400 layer_factory.hpp:77] Creating layer inception_5b/3x3
I0403 16:12:03.299928 17400 net.cpp:91] Creating Layer inception_5b/3x3
I0403 16:12:03.299950 17400 net.cpp:425] inception_5b/3x3 <- inception_5b/3x3_reduce
I0403 16:12:03.299978 17400 net.cpp:399] inception_5b/3x3 -> inception_5b/3x3
I0403 16:12:03.308362 17400 net.cpp:141] Setting up inception_5b/3x3
I0403 16:12:03.308399 17400 net.cpp:148] Top shape: 24 384 7 7 (451584)
I0403 16:12:03.308419 17400 net.cpp:156] Memory required for data: 1332467232
I0403 16:12:03.308444 17400 layer_factory.hpp:77] Creating layer inception_5b/relu_3x3
I0403 16:12:03.308465 17400 net.cpp:91] Creating Layer inception_5b/relu_3x3
I0403 16:12:03.308485 17400 net.cpp:425] inception_5b/relu_3x3 <- inception_5b/3x3
I0403 16:12:03.308509 17400 net.cpp:386] inception_5b/relu_3x3 -> inception_5b/3x3 (in-place)
I0403 16:12:03.308897 17400 net.cpp:141] Setting up inception_5b/relu_3x3
I0403 16:12:03.308930 17400 net.cpp:148] Top shape: 24 384 7 7 (451584)
I0403 16:12:03.308948 17400 net.cpp:156] Memory required for data: 1334273568
I0403 16:12:03.308969 17400 layer_factory.hpp:77] Creating layer inception_5b/5x5_reduce
I0403 16:12:03.309015 17400 net.cpp:91] Creating Layer inception_5b/5x5_reduce
I0403 16:12:03.309041 17400 net.cpp:425] inception_5b/5x5_reduce <- inception_5a/output_inception_5a/output_0_split_2
I0403 16:12:03.309070 17400 net.cpp:399] inception_5b/5x5_reduce -> inception_5b/5x5_reduce
I0403 16:12:03.310672 17400 net.cpp:141] Setting up inception_5b/5x5_reduce
I0403 16:12:03.310708 17400 net.cpp:148] Top shape: 24 48 7 7 (56448)
I0403 16:12:03.310729 17400 net.cpp:156] Memory required for data: 1334499360
I0403 16:12:03.310750 17400 layer_factory.hpp:77] Creating layer inception_5b/relu_5x5_reduce
I0403 16:12:03.310773 17400 net.cpp:91] Creating Layer inception_5b/relu_5x5_reduce
I0403 16:12:03.310794 17400 net.cpp:425] inception_5b/relu_5x5_reduce <- inception_5b/5x5_reduce
I0403 16:12:03.310819 17400 net.cpp:386] inception_5b/relu_5x5_reduce -> inception_5b/5x5_reduce (in-place)
I0403 16:12:03.311275 17400 net.cpp:141] Setting up inception_5b/relu_5x5_reduce
I0403 16:12:03.311310 17400 net.cpp:148] Top shape: 24 48 7 7 (56448)
I0403 16:12:03.311328 17400 net.cpp:156] Memory required for data: 1334725152
I0403 16:12:03.311347 17400 layer_factory.hpp:77] Creating layer inception_5b/5x5
I0403 16:12:03.311373 17400 net.cpp:91] Creating Layer inception_5b/5x5
I0403 16:12:03.311395 17400 net.cpp:425] inception_5b/5x5 <- inception_5b/5x5_reduce
I0403 16:12:03.311420 17400 net.cpp:399] inception_5b/5x5 -> inception_5b/5x5
I0403 16:12:03.313978 17400 net.cpp:141] Setting up inception_5b/5x5
I0403 16:12:03.314013 17400 net.cpp:148] Top shape: 24 128 7 7 (150528)
I0403 16:12:03.314034 17400 net.cpp:156] Memory required for data: 1335327264
I0403 16:12:03.314059 17400 layer_factory.hpp:77] Creating layer inception_5b/relu_5x5
I0403 16:12:03.314084 17400 net.cpp:91] Creating Layer inception_5b/relu_5x5
I0403 16:12:03.314105 17400 net.cpp:425] inception_5b/relu_5x5 <- inception_5b/5x5
I0403 16:12:03.314128 17400 net.cpp:386] inception_5b/relu_5x5 -> inception_5b/5x5 (in-place)
I0403 16:12:03.314370 17400 net.cpp:141] Setting up inception_5b/relu_5x5
I0403 16:12:03.314401 17400 net.cpp:148] Top shape: 24 128 7 7 (150528)
I0403 16:12:03.314424 17400 net.cpp:156] Memory required for data: 1335929376
I0403 16:12:03.314443 17400 layer_factory.hpp:77] Creating layer inception_5b/pool
I0403 16:12:03.314465 17400 net.cpp:91] Creating Layer inception_5b/pool
I0403 16:12:03.314487 17400 net.cpp:425] inception_5b/pool <- inception_5a/output_inception_5a/output_0_split_3
I0403 16:12:03.314512 17400 net.cpp:399] inception_5b/pool -> inception_5b/pool
I0403 16:12:03.314617 17400 net.cpp:141] Setting up inception_5b/pool
I0403 16:12:03.314649 17400 net.cpp:148] Top shape: 24 832 7 7 (978432)
I0403 16:12:03.314667 17400 net.cpp:156] Memory required for data: 1339843104
I0403 16:12:03.314687 17400 layer_factory.hpp:77] Creating layer inception_5b/pool_proj
I0403 16:12:03.314714 17400 net.cpp:91] Creating Layer inception_5b/pool_proj
I0403 16:12:03.314738 17400 net.cpp:425] inception_5b/pool_proj <- inception_5b/pool
I0403 16:12:03.314764 17400 net.cpp:399] inception_5b/pool_proj -> inception_5b/pool_proj
I0403 16:12:03.317595 17400 net.cpp:141] Setting up inception_5b/pool_proj
I0403 16:12:03.317639 17400 net.cpp:148] Top shape: 24 128 7 7 (150528)
I0403 16:12:03.317662 17400 net.cpp:156] Memory required for data: 1340445216
I0403 16:12:03.317685 17400 layer_factory.hpp:77] Creating layer inception_5b/relu_pool_proj
I0403 16:12:03.317710 17400 net.cpp:91] Creating Layer inception_5b/relu_pool_proj
I0403 16:12:03.317734 17400 net.cpp:425] inception_5b/relu_pool_proj <- inception_5b/pool_proj
I0403 16:12:03.317756 17400 net.cpp:386] inception_5b/relu_pool_proj -> inception_5b/pool_proj (in-place)
I0403 16:12:03.318133 17400 net.cpp:141] Setting up inception_5b/relu_pool_proj
I0403 16:12:03.318166 17400 net.cpp:148] Top shape: 24 128 7 7 (150528)
I0403 16:12:03.318186 17400 net.cpp:156] Memory required for data: 1341047328
I0403 16:12:03.318205 17400 layer_factory.hpp:77] Creating layer inception_5b/output
I0403 16:12:03.318228 17400 net.cpp:91] Creating Layer inception_5b/output
I0403 16:12:03.318266 17400 net.cpp:425] inception_5b/output <- inception_5b/1x1
I0403 16:12:03.318289 17400 net.cpp:425] inception_5b/output <- inception_5b/3x3
I0403 16:12:03.318310 17400 net.cpp:425] inception_5b/output <- inception_5b/5x5
I0403 16:12:03.318331 17400 net.cpp:425] inception_5b/output <- inception_5b/pool_proj
I0403 16:12:03.318356 17400 net.cpp:399] inception_5b/output -> inception_5b/output
I0403 16:12:03.318423 17400 net.cpp:141] Setting up inception_5b/output
I0403 16:12:03.318456 17400 net.cpp:148] Top shape: 24 1024 7 7 (1204224)
I0403 16:12:03.318477 17400 net.cpp:156] Memory required for data: 1345864224
I0403 16:12:03.318496 17400 layer_factory.hpp:77] Creating layer pool5/7x7_s1
I0403 16:12:03.318519 17400 net.cpp:91] Creating Layer pool5/7x7_s1
I0403 16:12:03.318542 17400 net.cpp:425] pool5/7x7_s1 <- inception_5b/output
I0403 16:12:03.318569 17400 net.cpp:399] pool5/7x7_s1 -> pool5/7x7_s1
I0403 16:12:03.318848 17400 net.cpp:141] Setting up pool5/7x7_s1
I0403 16:12:03.318881 17400 net.cpp:148] Top shape: 24 1024 1 1 (24576)
I0403 16:12:03.318900 17400 net.cpp:156] Memory required for data: 1345962528
I0403 16:12:03.318919 17400 layer_factory.hpp:77] Creating layer pool5/drop_7x7_s1
I0403 16:12:03.318943 17400 net.cpp:91] Creating Layer pool5/drop_7x7_s1
I0403 16:12:03.318964 17400 net.cpp:425] pool5/drop_7x7_s1 <- pool5/7x7_s1
I0403 16:12:03.318989 17400 net.cpp:386] pool5/drop_7x7_s1 -> pool5/7x7_s1 (in-place)
I0403 16:12:03.319052 17400 net.cpp:141] Setting up pool5/drop_7x7_s1
I0403 16:12:03.319085 17400 net.cpp:148] Top shape: 24 1024 1 1 (24576)
I0403 16:12:03.319104 17400 net.cpp:156] Memory required for data: 1346060832
I0403 16:12:03.319124 17400 layer_factory.hpp:77] Creating layer loss3/classifier_plantvillage
I0403 16:12:03.319149 17400 net.cpp:91] Creating Layer loss3/classifier_plantvillage
I0403 16:12:03.319169 17400 net.cpp:425] loss3/classifier_plantvillage <- pool5/7x7_s1
I0403 16:12:03.319195 17400 net.cpp:399] loss3/classifier_plantvillage -> loss3/classifier_plantvillage
I0403 16:12:03.319725 17400 net.cpp:141] Setting up loss3/classifier_plantvillage
I0403 16:12:03.319759 17400 net.cpp:148] Top shape: 24 38 (912)
I0403 16:12:03.319779 17400 net.cpp:156] Memory required for data: 1346064480
I0403 16:12:03.319802 17400 layer_factory.hpp:77] Creating layer loss3/classifier_plantvillage_loss3/classifier_plantvillage_0_split
I0403 16:12:03.319825 17400 net.cpp:91] Creating Layer loss3/classifier_plantvillage_loss3/classifier_plantvillage_0_split
I0403 16:12:03.319846 17400 net.cpp:425] loss3/classifier_plantvillage_loss3/classifier_plantvillage_0_split <- loss3/classifier_plantvillage
I0403 16:12:03.319869 17400 net.cpp:399] loss3/classifier_plantvillage_loss3/classifier_plantvillage_0_split -> loss3/classifier_plantvillage_loss3/classifier_plantvillage_0_split_0
I0403 16:12:03.319895 17400 net.cpp:399] loss3/classifier_plantvillage_loss3/classifier_plantvillage_0_split -> loss3/classifier_plantvillage_loss3/classifier_plantvillage_0_split_1
I0403 16:12:03.319926 17400 net.cpp:399] loss3/classifier_plantvillage_loss3/classifier_plantvillage_0_split -> loss3/classifier_plantvillage_loss3/classifier_plantvillage_0_split_2
I0403 16:12:03.319952 17400 net.cpp:399] loss3/classifier_plantvillage_loss3/classifier_plantvillage_0_split -> loss3/classifier_plantvillage_loss3/classifier_plantvillage_0_split_3
I0403 16:12:03.320082 17400 net.cpp:141] Setting up loss3/classifier_plantvillage_loss3/classifier_plantvillage_0_split
I0403 16:12:03.320112 17400 net.cpp:148] Top shape: 24 38 (912)
I0403 16:12:03.320133 17400 net.cpp:148] Top shape: 24 38 (912)
I0403 16:12:03.320154 17400 net.cpp:148] Top shape: 24 38 (912)
I0403 16:12:03.320173 17400 net.cpp:148] Top shape: 24 38 (912)
I0403 16:12:03.320193 17400 net.cpp:156] Memory required for data: 1346079072
I0403 16:12:03.320211 17400 layer_factory.hpp:77] Creating layer loss1/loss
I0403 16:12:03.320240 17400 net.cpp:91] Creating Layer loss1/loss
I0403 16:12:03.320262 17400 net.cpp:425] loss1/loss <- loss1/classifier_plantvillage_loss1/classifier_plantvillage_0_split_0
I0403 16:12:03.320302 17400 net.cpp:425] loss1/loss <- label_data_1_split_0
…
