…
I0403 16:58:13.479754 20158 net.cpp:313] The NetState phase (1) differed from the phase (0) specified by a rule in layer data
I0403 16:58:13.482681 20158 net.cpp:49] Initializing net from parameters: 
state {
  phase: TEST
}
layer {
  name: "data"
  type: "Data"
  top: "data"
  top: "label"
  include {
    phase: TEST
  }
  transform_param {
    mirror: false
    crop_size: 224
    mean_file: "/home/mohanty/data/final_dataset/lmdb/color-20-80/mean.binaryproto"
  }
  data_param {
    source: "/home/mohanty/data/final_dataset/lmdb/color-20-80/test_db"
    batch_size: 24
    backend: LMDB
  }
}
layer {
  name: "conv1/7x7_s2"
  type: "Convolution"
  bottom: "data"
  top: "conv1/7x7_s2"
  param {
    lr_mult: 1
    decay_mult: 1
  }
  param {
    lr_mult: 2
    decay_mult: 0
  }
  convolution_param {
    num_output: 64
    pad: 3
    kernel_size: 7
    stride: 2
    weight_filler {
      type: "xavier"
      std: 0.1
    }
    bias_filler {
      type: "constant"
      value: 0.2
    }
  }
}
layer {
  name: "conv1/relu_7x7"
  type: "ReLU"
  bottom: "conv1/7x7_s2"
  top: "conv1/7x7_s2"
}
layer {
  name: "pool1/3x3_s2"
  type: "Pooling"
  bottom: "conv1/7x7_s2"
  top: "pool1/3x3_s2"
  pooling_param {
    pool: MAX
    kernel_size: 3
    stride: 2
  }
}
layer {
  name: "pool1/norm1"
  type: "LRN"
  bottom: "pool1/3x3_s2"
  top: "pool1/norm1"
  lrn_param {
    local_size: 5
    alpha: 0.0001
    beta: 0.75
  }
}
layer {
  name: "conv2/3x3_reduce"
  type: "Convolution"
  bottom: "pool1/norm1"
  top: "conv2/3x3_reduce"
  param {
    lr_mult: 1
    decay_mult: 1
  }
  param {
    lr_mult: 2
    decay_mult: 0
  }
  convolution_param {
    num_output: 64
    kernel_size: 1
    weight_filler {
      type: "xavier"
      std: 0.1
    }
    bias_filler {
      type: "constant"
      value: 0.2
    }
  }
}
layer {
  name: "conv2/relu_3x3_reduce"
  type: "ReLU"
  bottom: "conv2/3x3_reduce"
  top: "conv2/3x3_reduce"
}
layer {
  name: "conv2/3x3"
  type: "Convolution"
  bottom: "conv2/3x3_reduce"
  top: "conv2/3x3"
  param {
    lr_mult: 1
    decay_mult: 1
  }
  param {
    lr_mult: 2
    decay_mult: 0
  }
  convolution_param {
    num_output: 192
    pad: 1
    kernel_size: 3
    weight_filler {
      type: "xavier"
      std: 0.03
    }
    bias_filler {
      type: "constant"
      value: 0.2
    }
  }
}
layer {
  name: "conv2/relu_3x3"
  type: "ReLU"
  bottom: "conv2/3x3"
  top: "conv2/3x3"
}
layer {
  name: "conv2/norm2"
  type: "LRN"
  bottom: "conv2/3x3"
  top: "conv2/norm2"
  lrn_param {
    local_size: 5
    alpha: 0.0001
    beta: 0.75
  }
}
layer {
  name: "pool2/3x3_s2"
  type: "Pooling"
  bottom: "conv2/norm2"
  top: "pool2/3x3_s2"
  pooling_param {
    pool: MAX
    kernel_size: 3
    stride: 2
  }
}
layer {
  name: "inception_3a/1x1"
  type: "Convolution"
  bottom: "pool2/3x3_s2"
  top: "inception_3a/1x1"
  param {
    lr_mult: 1
    decay_mult: 1
  }
  param {
    lr_mult: 2
    decay_mult: 0
  }
  convolution_param {
    num_output: 64
    kernel_size: 1
    weight_filler {
      type: "xavier"
      std: 0.03
    }
    bias_filler {
      type: "constant"
      value: 0.2
    }
  }
}
layer {
  name: "inception_3a/relu_1x1"
  type: "ReLU"
  bottom: "inception_3a/1x1"
  top: "inception_3a/1x1"
}
layer {
  name: "inception_3a/3x3_reduce"
  type: "Convolution"
  bottom: "pool2/3x3_s2"
  top: "inception_3a/3x3_reduce"
  param {
    lr_mult: 1
    decay_mult: 1
  }
  param {
    lr_mult: 2
    decay_mult: 0
  }
  convolution_param {
    num_output: 96
    kernel_size: 1
    weight_filler {
      type: "xavier"
      std: 0.09
    }
    bias_filler {
      type: "constant"
      value: 0.2
    }
  }
}
layer {
  name: "inception_3a/relu_3x3_reduce"
  type: "ReLU"
  bottom: "inception_3a/3x3_reduce"
  top: "inception_3a/3x3_reduce"
}
layer {
  name: "inception_3a/3x3"
  type: "Convolution"
  bottom: "inception_3a/3x3_reduce"
  top: "inception_3a/3x3"
  param {
    lr_mult: 1
    decay_mult: 1
  }
  param {
    lr_mult: 2
    decay_mult: 0
  }
  convolution_param {
    num_output: 128
    pad: 1
    kernel_size: 3
    weight_filler {
      type: "xavier"
      std: 0.03
    }
    bias_filler {
      type: "constant"
      value: 0.2
    }
  }
}
layer {
  name: "inception_3a/relu_3x3"
  type: "ReLU"
  bottom: "inception_3a/3x3"
  top: "inception_3a/3x3"
}
layer {
  name: "inception_3a/5x5_reduce"
  type: "Convolution"
  bottom: "pool2/3x3_s2"
  top: "inception_3a/5x5_reduce"
  param {
    lr_mult: 1
    decay_mult: 1
  }
  param {
    lr_mult: 2
    decay_mult: 0
  }
  convolution_param {
    num_output: 16
    kernel_size: 1
    weight_filler {
      type: "xavier"
      std: 0.2
    }
    bias_filler {
      type: "constant"
      value: 0.2
    }
  }
}
layer {
  name: "inception_3a/relu_5x5_reduce"
  type: "ReLU"
  bottom: "inception_3a/5x5_reduce"
  top: "inception_3a/5x5_reduce"
}
layer {
  name: "inception_3a/5x5"
  type: "Convolution"
  bottom: "inception_3a/5x5_reduce"
  top: "inception_3a/5x5"
  param {
    lr_mult: 1
    decay_mult: 1
  }
  param {
    lr_mult: 2
    decay_mult: 0
  }
  convolution_param {
    num_output: 32
    pad: 2
    kernel_size: 5
    weight_filler {
      type: "xavier"
      std: 0.03
    }
    bias_filler {
      type: "constant"
      value: 0.2
    }
  }
}
layer {
  name: "inception_3a/relu_5x5"
  type: "ReLU"
  bottom: "inception_3a/5x5"
  top: "inception_3a/5x5"
}
layer {
  name: "inception_3a/pool"
  type: "Pooling"
  bottom: "pool2/3x3_s2"
  top: "inception_3a/pool"
  pooling_param {
    pool: MAX
    kernel_size: 3
    stride: 1
    pad: 1
  }
}
layer {
  name: "inception_3a/pool_proj"
  type: "Convolution"
  bottom: "inception_3a/pool"
  top: "inception_3a/pool_proj"
  param {
    lr_mult: 1
    decay_mult: 1
  }
  param {
    lr_mult: 2
    decay_mult: 0
  }
  convolution_param {
    num_output: 32
    kernel_size: 1
    weight_filler {
      type: "xavier"
      std: 0.1
    }
    bias_filler {
      type: "constant"
      value: 0.2
    }
  }
}
layer {
  name: "inception_3a/relu_pool_proj"
  type: "ReLU"
  bottom: "inception_3a/pool_proj"
  top: "inception_3a/pool_proj"
}
layer {
  name: "inception_3a/output"
  type: "Concat"
  bottom: "inception_3a/1x1"
  bottom: "inception_3a/3x3"
  bottom: "inception_3a/5x5"
  bottom: "inception_3a/pool_proj"
  top: "inception_3a/output"
}
layer {
  name: "inception_3b/1x1"
  type: "Convolution"
  bottom: "inception_3a/output"
  top: "inception_3b/1x1"
  param {
    lr_mult: 1
    decay_mult: 1
  }
  param {
    lr_mult: 2
    decay_mult: 0
  }
  convolution_param {
    num_output: 128
    kernel_size: 1
    weight_filler {
      type: "xavier"
      std: 0.03
    }
    bias_filler {
      type: "constant"
      value: 0.2
    }
  }
}
layer {
  name: "inception_3b/relu_1x1"
  type: "ReLU"
  bottom: "inception_3b/1x1"
  top: "inception_3b/1x1"
}
layer {
  name: "inception_3b/3x3_reduce"
  type: "Convolution"
  bottom: "inception_3a/output"
  top: "inception_3b/3x3_reduce"
  param {
    lr_mult: 1
    decay_mult: 1
  }
  param {
    lr_mult: 2
    decay_mult: 0
  }
  convolution_param {
    num_output: 128
    kernel_size: 1
    weight_filler {
      type: "xavier"
      std: 0.09
    }
    bias_filler {
      type: "constant"
      value: 0.2
    }
  }
}
layer {
  name: "inception_3b/relu_3x3_reduce"
  type: "ReLU"
  bottom: "inception_3b/3x3_reduce"
  top: "inception_3b/3x3_reduce"
}
layer {
  name: "inception_3b/3x3"
  type: "Convolution"
  bottom: "inception_3b/3x3_reduce"
  top: "inception_3b/3x3"
  param {
    lr_mult: 1
    decay_mult: 1
  }
  param {
    lr_mult: 2
    decay_mult: 0
  }
  convolution_param {
    num_output: 192
    pad: 1
    kernel_size: 3
    weight_filler {
      type: "xavier"
      std: 0.03
    }
    bias_filler {
      type: "constant"
      value: 0.2
    }
  }
}
layer {
  name: "inception_3b/relu_3x3"
  type: "ReLU"
  bottom: "inception_3b/3x3"
  top: "inception_3b/3x3"
}
layer {
  name: "inception_3b/5x5_reduce"
  type: "Convolution"
  bottom: "inception_3a/output"
  top: "inception_3b/5x5_reduce"
  param {
    lr_mult: 1
    decay_mult: 1
  }
  param {
    lr_mult: 2
    decay_mult: 0
  }
  convolution_param {
    num_output: 32
    kernel_size: 1
    weight_filler {
      type: "xavier"
      std: 0.2
    }
    bias_filler {
      type: "constant"
      value: 0.2
    }
  }
}
layer {
  name: "inception_3b/relu_5x5_reduce"
  type: "ReLU"
  bottom: "inception_3b/5x5_reduce"
  top: "inception_3b/5x5_reduce"
}
layer {
  name: "inception_3b/5x5"
  type: "Convolution"
  bottom: "inception_3b/5x5_reduce"
  top: "inception_3b/5x5"
  param {
    lr_mult: 1
    decay_mult: 1
  }
  param {
    lr_mult: 2
    decay_mult: 0
  }
  convolution_param {
    num_output: 96
    pad: 2
    kernel_size: 5
    weight_filler {
      type: "xavier"
      std: 0.03
    }
    bias_filler {
      type: "constant"
      value: 0.2
    }
  }
}
layer {
  name: "inception_3b/relu_5x5"
  type: "ReLU"
  bottom: "inception_3b/5x5"
  top: "inception_3b/5x5"
}
layer {
  name: "inception_3b/pool"
  type: "Pooling"
  bottom: "inception_3a/output"
  top: "inception_3b/pool"
  pooling_param {
    pool: MAX
    kernel_size: 3
    stride: 1
    pad: 1
  }
}
layer {
  name: "inception_3b/pool_proj"
  type: "Convolution"
  bottom: "inception_3b/pool"
  top: "inception_3b/pool_proj"
  param {
    lr_mult: 1
    decay_mult: 1
  }
  param {
    lr_mult: 2
    decay_mult: 0
  }
  convolution_param {
    num_output: 64
    kernel_size: 1
    weight_filler {
      type: "xavier"
      std: 0.1
    }
    bias_filler {
      type: "constant"
      value: 0.2
    }
  }
}
layer {
  name: "inception_3b/relu_pool_proj"
  type: "ReLU"
  bottom: "inception_3b/pool_proj"
  top: "inception_3b/pool_proj"
}
layer {
  name: "inception_3b/output"
  type: "Concat"
  bottom: "inception_3b/1x1"
  bottom: "inception_3b/3x3"
  bottom: "inception_3b/5x5"
  bottom: "inception_3b/pool_proj"
  top: "inception_3b/output"
}
layer {
  name: "pool3/3x3_s2"
  type: "Pooling"
  bottom: "inception_3b/output"
  top: "pool3/3x3_s2"
  pooling_param {
    pool: MAX
    kernel_size: 3
    stride: 2
  }
}
layer {
  name: "inception_4a/1x1"
  type: "Convolution"
  bottom: "pool3/3x3_s2"
  top: "inception_4a/1x1"
  param {
    lr_mult: 1
    decay_mult: 1
  }
  param {
    lr_mult: 2
    decay_mult: 0
  }
  convolution_param {
    num_output: 192
    kernel_size: 1
    weight_filler {
      type: "xavier"
      std: 0.03
    }
    bias_filler {
      type: "constant"
      value: 0.2
    }
  }
}
layer {
  name: "inception_4a/relu_1x1"
  type: "ReLU"
  bottom: "inception_4a/1x1"
  top: "inception_4a/1x1"
}
layer {
  name: "inception_4a/3x3_reduce"
  type: "Convolution"
  bottom: "pool3/3x3_s2"
  top: "inception_4a/3x3_reduce"
  param {
    lr_mult: 1
    decay_mult: 1
  }
  param {
    lr_mult: 2
    decay_mult: 0
  }
  convolution_param {
    num_output: 96
    kernel_size: 1
    weight_filler {
      type: "xavier"
      std: 0.09
    }
    bias_filler {
      type: "constant"
      value: 0.2
    }
  }
}
layer {
  name: "inception_4a/relu_3x3_reduce"
  type: "ReLU"
  bottom: "inception_4a/3x3_reduce"
  top: "inception_4a/3x3_reduce"
}
layer {
  name: "inception_4a/3x3"
  type: "Convolution"
  bottom: "inception_4a/3x3_reduce"
  top: "inception_4a/3x3"
  param {
    lr_mult: 1
    decay_mult: 1
  }
  param {
    lr_mult: 2
    decay_mult: 0
  }
  convolution_param {
    num_output: 208
    pad: 1
    kernel_size: 3
    weight_filler {
      type: "xavier"
      std: 0.03
    }
    bias_filler {
      type: "constant"
      value: 0.2
    }
  }
}
layer {
  name: "inception_4a/relu_3x3"
  type: "ReLU"
  bottom: "inception_4a/3x3"
  top: "inception_4a/3x3"
}
layer {
  name: "inception_4a/5x5_reduce"
  type: "Convolution"
  bottom: "pool3/3x3_s2"
  top: "inception_4a/5x5_reduce"
  param {
    lr_mult: 1
    decay_mult: 1
  }
  param {
    lr_mult: 2
    decay_mult: 0
  }
  convolution_param {
    num_output: 16
    kernel_size: 1
    weight_filler {
      type: "xavier"
      std: 0.2
    }
    bias_filler {
      type: "constant"
      value: 0.2
    }
  }
}
layer {
  name: "inception_4a/relu_5x5_reduce"
  type: "ReLU"
  bottom: "inception_4a/5x5_reduce"
  top: "inception_4a/5x5_reduce"
}
layer {
  name: "inception_4a/5x5"
  type: "Convolution"
  bottom: "inception_4a/5x5_reduce"
  top: "inception_4a/5x5"
  param {
    lr_mult: 1
    decay_mult: 1
  }
  param {
    lr_mult: 2
    decay_mult: 0
  }
  convolution_param {
    num_output: 48
    pad: 2
    kernel_size: 5
    weight_filler {
      type: "xavier"
      std: 0.03
    }
    bias_filler {
      type: "constant"
      value: 0.2
    }
  }
}
layer {
  name: "inception_4a/relu_5x5"
  type: "ReLU"
  bottom: "inception_4a/5x5"
  top: "inception_4a/5x5"
}
layer {
  name: "inception_4a/pool"
  type: "Pooling"
  bottom: "pool3/3x3_s2"
  top: "inception_4a/pool"
  pooling_param {
    pool: MAX
    kernel_size: 3
    stride: 1
    pad: 1
  }
}
layer {
  name: "inception_4a/pool_proj"
  type: "Convolution"
  bottom: "inception_4a/pool"
  top: "inception_4a/pool_proj"
  param {
    lr_mult: 1
    decay_mult: 1
  }
  param {
    lr_mult: 2
    decay_mult: 0
  }
  convolution_param {
    num_output: 64
    kernel_size: 1
    weight_filler {
      type: "xavier"
      std: 0.1
    }
    bias_filler {
      type: "constant"
      value: 0.2
    }
  }
}
layer {
  name: "inception_4a/relu_pool_proj"
  type: "ReLU"
  bottom: "inception_4a/pool_proj"
  top: "inception_4a/pool_proj"
}
layer {
  name: "inception_4a/output"
  type: "Concat"
  bottom: "inception_4a/1x1"
  bottom: "inception_4a/3x3"
  bottom: "inception_4a/5x5"
  bottom: "inception_4a/pool_proj"
  top: "inception_4a/output"
}
layer {
  name: "loss1/ave_pool"
  type: "Pooling"
  bottom: "inception_4a/output"
  top: "loss1/ave_pool"
  pooling_param {
    pool: AVE
    kernel_size: 5
    stride: 3
  }
}
layer {
  name: "loss1/conv"
  type: "Convolution"
  bottom: "loss1/ave_pool"
  top: "loss1/conv"
  param {
    lr_mult: 1
    decay_mult: 1
  }
  param {
    lr_mult: 2
    decay_mult: 0
  }
  convolution_param {
    num_output: 128
    kernel_size: 1
    weight_filler {
      type: "xavier"
      std: 0.08
    }
    bias_filler {
      type: "constant"
      value: 0.2
    }
  }
}
layer {
  name: "loss1/relu_conv"
  type: "ReLU"
  bottom: "loss1/conv"
  top: "loss1/conv"
}
layer {
  name: "loss1/fc"
  type: "InnerProduct"
  bottom: "loss1/conv"
  top: "loss1/fc"
  param {
    lr_mult: 1
    decay_mult: 1
  }
  param {
    lr_mult: 2
    decay_mult: 0
  }
  inner_product_param {
    num_output: 1024
    weight_filler {
      type: "xavier"
      std: 0.02
    }
    bias_filler {
      type: "constant"
      value: 0.2
    }
  }
}
layer {
  name: "loss1/relu_fc"
  type: "ReLU"
  bottom: "loss1/fc"
  top: "loss1/fc"
}
layer {
  name: "loss1/drop_fc"
  type: "Dropout"
  bottom: "loss1/fc"
  top: "loss1/fc"
  dropout_param {
    dropout_ratio: 0.7
  }
}
layer {
  name: "loss1/classifier_plantvillage"
  type: "InnerProduct"
  bottom: "loss1/fc"
  top: "loss1/classifier_plantvillage"
  param {
    lr_mult: 1
    decay_mult: 1
  }
  param {
    lr_mult: 2
    decay_mult: 0
  }
  inner_product_param {
    num_output: 38
    weight_filler {
      type: "xavier"
      std: 0.0009765625
    }
    bias_filler {
      type: "constant"
      value: 0
    }
  }
}
layer {
  name: "inception_4b/1x1"
  type: "Convolution"
  bottom: "inception_4a/output"
  top: "inception_4b/1x1"
  param {
    lr_mult: 1
    decay_mult: 1
  }
  param {
    lr_mult: 2
    decay_mult: 0
  }
  convolution_param {
    num_output: 160
    kernel_size: 1
    weight_filler {
      type: "xavier"
      std: 0.03
    }
    bias_filler {
      type: "constant"
      value: 0.2
    }
  }
}
layer {
  name: "inception_4b/relu_1x1"
  type: "ReLU"
  bottom: "inception_4b/1x1"
  top: "inception_4b/1x1"
}
layer {
  name: "inception_4b/3x3_reduce"
  type: "Convolution"
  bottom: "inception_4a/output"
  top: "inception_4b/3x3_reduce"
  param {
    lr_mult: 1
    decay_mult: 1
  }
  param {
    lr_mult: 2
    decay_mult: 0
  }
  convolution_param {
    num_output: 112
    kernel_size: 1
    weight_filler {
      type: "xavier"
      std: 0.09
    }
    bias_filler {
      type: "constant"
      value: 0.2
    }
  }
}
layer {
  name: "inception_4b/relu_3x3_reduce"
  type: "ReLU"
  bottom: "inception_4b/3x3_reduce"
  top: "inception_4b/3x3_reduce"
}
layer {
  name: "inception_4b/3x3"
  type: "Convolution"
  bottom: "inception_4b/3x3_reduce"
  top: "inception_4b/3x3"
  param {
    lr_mult: 1
    decay_mult: 1
  }
  param {
    lr_mult: 2
    decay_mult: 0
  }
  convolution_param {
    num_output: 224
    pad: 1
    kernel_size: 3
    weight_filler {
      type: "xavier"
      std: 0.03
    }
    bias_filler {
      type: "constant"
      value: 0.2
    }
  }
}
layer {
  name: "inception_4b/relu_3x3"
  type: "ReLU"
  bottom: "inception_4b/3x3"
  top: "inception_4b/3x3"
}
layer {
  name: "inception_4b/5x5_reduce"
  type: "Convolution"
  bottom: "inception_4a/output"
  top: "inception_4b/5x5_reduce"
  param {
    lr_mult: 1
    decay_mult: 1
  }
  param {
    lr_mult: 2
    decay_mult: 0
  }
  convolution_param {
    num_output: 24
    kernel_size: 1
    weight_filler {
      type: "xavier"
      std: 0.2
    }
    bias_filler {
      type: "constant"
      value: 0.2
    }
  }
}
layer {
  name: "inception_4b/relu_5x5_reduce"
  type: "ReLU"
  bottom: "inception_4b/5x5_reduce"
  top: "inception_4b/5x5_reduce"
}
layer {
  name: "inception_4b/5x5"
  type: "Convolution"
  bottom: "inception_4b/5x5_reduce"
  top: "inception_4b/5x5"
  param {
    lr_mult: 1
    decay_mult: 1
  }
  param {
    lr_mult: 2
    decay_mult: 0
  }
  convolution_param {
    num_output: 64
    pad: 2
    kernel_size: 5
    weight_filler {
      type: "xavier"
      std: 0.03
    }
    bias_filler {
      type: "constant"
      value: 0.2
    }
  }
}
layer {
  name: "inception_4b/relu_5x5"
  type: "ReLU"
  bottom: "inception_4b/5x5"
  top: "inception_4b/5x5"
}
layer {
  name: "inception_4b/pool"
  type: "Pooling"
  bottom: "inception_4a/output"
  top: "inception_4b/pool"
  pooling_param {
    pool: MAX
    kernel_size: 3
    stride: 1
    pad: 1
  }
}
layer {
  name: "inception_4b/pool_proj"
  type: "Convolution"
  bottom: "inception_4b/pool"
  top: "inception_4b/pool_proj"
  param {
    lr_mult: 1
    decay_mult: 1
  }
  param {
    lr_mult: 2
    decay_mult: 0
  }
  convolution_param {
    num_output: 64
    kernel_size: 1
    weight_filler {
      type: "xavier"
      std: 0.1
    }
    bias_filler {
      type: "constant"
      value: 0.2
    }
  }
}
layer {
  name: "inception_4b/relu_pool_proj"
  type: "ReLU"
  bottom: "inception_4b/pool_proj"
  top: "inception_4b/pool_proj"
}
layer {
  name: "inception_4b/output"
  type: "Concat"
  bottom: "inception_4b/1x1"
  bottom: "inception_4b/3x3"
  bottom: "inception_4b/5x5"
  bottom: "inception_4b/pool_proj"
  top: "inception_4b/output"
}
layer {
  name: "inception_4c/1x1"
  type: "Convolution"
  bottom: "inception_4b/output"
  top: "inception_4c/1x1"
  param {
    lr_mult: 1
    decay_mult: 1
  }
  param {
    lr_mult: 2
    decay_mult: 0
  }
  convolution_param {
    num_output: 128
    kernel_size: 1
    weight_filler {
      type: "xavier"
      std: 0.03
    }
    bias_filler {
      type: "constant"
      value: 0.2
    }
  }
}
layer {
  name: "inception_4c/relu_1x1"
  type: "ReLU"
  bottom: "inception_4c/1x1"
  top: "inception_4c/1x1"
}
layer {
  name: "inception_4c/3x3_reduce"
  type: "Convolution"
  bottom: "inception_4b/output"
  top: "inception_4c/3x3_reduce"
  param {
    lr_mult: 1
    decay_mult: 1
  }
  param {
    lr_mult: 2
    decay_mult: 0
  }
  convolution_param {
    num_output: 128
    kernel_size: 1
    weight_filler {
      type: "xavier"
      std: 0.09
    }
    bias_filler {
      type: "constant"
      value: 0.2
    }
  }
}
layer {
  name: "inception_4c/relu_3x3_reduce"
  type: "ReLU"
  bottom: "inception_4c/3x3_reduce"
  top: "inception_4c/3x3_reduce"
}
layer {
  name: "inception_4c/3x3"
  type: "Convolution"
  bottom: "inception_4c/3x3_reduce"
  top: "inception_4c/3x3"
  param {
    lr_mult: 1
    decay_mult: 1
  }
  param {
    lr_mult: 2
    decay_mult: 0
  }
  convolution_param {
    num_output: 256
    pad: 1
    kernel_size: 3
    weight_filler {
      type: "xavier"
      std: 0.03
    }
    bias_filler {
      type: "constant"
      value: 0.2
    }
  }
}
layer {
  name: "inception_4c/relu_3x3"
  type: "ReLU"
  bottom: "inception_4c/3x3"
  top: "inception_4c/3x3"
}
layer {
  name: "inception_4c/5x5_reduce"
  type: "Convolution"
  bottom: "inception_4b/output"
  top: "inception_4c/5x5_reduce"
  param {
    lr_mult: 1
    decay_mult: 1
  }
  param {
    lr_mult: 2
    decay_mult: 0
  }
  convolution_param {
    num_output: 24
    kernel_size: 1
    weight_filler {
      type: "xavier"
      std: 0.2
    }
    bias_filler {
      type: "constant"
      value: 0.2
    }
  }
}
layer {
  name: "inception_4c/relu_5x5_reduce"
  type: "ReLU"
  bottom: "inception_4c/5x5_reduce"
  top: "inception_4c/5x5_reduce"
}
layer {
  name: "inception_4c/5x5"
  type: "Convolution"
  bottom: "inception_4c/5x5_reduce"
  top: "inception_4c/5x5"
  param {
    lr_mult: 1
    decay_mult: 1
  }
  param {
    lr_mult: 2
    decay_mult: 0
  }
  convolution_param {
    num_output: 64
    pad: 2
    kernel_size: 5
    weight_filler {
      type: "xavier"
      std: 0.03
    }
    bias_filler {
      type: "constant"
      value: 0.2
    }
  }
}
layer {
  name: "inception_4c/relu_5x5"
  type: "ReLU"
  bottom: "inception_4c/5x5"
  top: "inception_4c/5x5"
}
layer {
  name: "inception_4c/pool"
  type: "Pooling"
  bottom: "inception_4b/output"
  top: "inception_4c/pool"
  pooling_param {
    pool: MAX
    kernel_size: 3
    stride: 1
    pad: 1
  }
}
layer {
  name: "inception_4c/pool_proj"
  type: "Convolution"
  bottom: "inception_4c/pool"
  top: "inception_4c/pool_proj"
  param {
    lr_mult: 1
    decay_mult: 1
  }
  param {
    lr_mult: 2
    decay_mult: 0
  }
  convolution_param {
    num_output: 64
    kernel_size: 1
    weight_filler {
      type: "xavier"
      std: 0.1
    }
    bias_filler {
      type: "constant"
      value: 0.2
    }
  }
}
layer {
  name: "inception_4c/relu_pool_proj"
  type: "ReLU"
  bottom: "inception_4c/pool_proj"
  top: "inception_4c/pool_proj"
}
layer {
  name: "inception_4c/output"
  type: "Concat"
  bottom: "inception_4c/1x1"
  bottom: "inception_4c/3x3"
  bottom: "inception_4c/5x5"
  bottom: "inception_4c/pool_proj"
  top: "inception_4c/output"
}
layer {
  name: "inception_4d/1x1"
  type: "Convolution"
  bottom: "inception_4c/output"
  top: "inception_4d/1x1"
  param {
    lr_mult: 1
    decay_mult: 1
  }
  param {
    lr_mult: 2
    decay_mult: 0
  }
  convolution_param {
    num_output: 112
    kernel_size: 1
    weight_filler {
      type: "xavier"
      std: 0.03
    }
    bias_filler {
      type: "constant"
      value: 0.2
    }
  }
}
layer {
  name: "inception_4d/relu_1x1"
  type: "ReLU"
  bottom: "inception_4d/1x1"
  top: "inception_4d/1x1"
}
layer {
  name: "inception_4d/3x3_reduce"
  type: "Convolution"
  bottom: "inception_4c/output"
  top: "inception_4d/3x3_reduce"
  param {
    lr_mult: 1
    decay_mult: 1
  }
  param {
    lr_mult: 2
    decay_mult: 0
  }
  convolution_param {
    num_output: 144
    kernel_size: 1
    weight_filler {
      type: "xavier"
      std: 0.09
    }
    bias_filler {
      type: "constant"
      value: 0.2
    }
  }
}
layer {
  name: "inception_4d/relu_3x3_reduce"
  type: "ReLU"
  bottom: "inception_4d/3x3_reduce"
  top: "inception_4d/3x3_reduce"
}
layer {
  name: "inception_4d/3x3"
  type: "Convolution"
  bottom: "inception_4d/3x3_reduce"
  top: "inception_4d/3x3"
  param {
    lr_mult: 1
    decay_mult: 1
  }
  param {
    lr_mult: 2
    decay_mult: 0
  }
  convolution_param {
    num_output: 288
    pad: 1
    kernel_size: 3
    weight_filler {
      type: "xavier"
      std: 0.03
    }
    bias_filler {
      type: "constant"
      value: 0.2
    }
  }
}
layer {
  name: "inception_4d/relu_3x3"
  type: "ReLU"
  bottom: "inception_4d/3x3"
  top: "inception_4d/3x3"
}
layer {
  name: "inception_4d/5x5_reduce"
  type: "Convolution"
  bottom: "inception_4c/output"
  top: "inception_4d/5x5_reduce"
  param {
    lr_mult: 1
    decay_mult: 1
  }
  param {
    lr_mult: 2
    decay_mult: 0
  }
  convolution_param {
    num_output: 32
    kernel_size: 1
    weight_filler {
      type: "xavier"
      std: 0.2
    }
    bias_filler {
      type: "constant"
      value: 0.2
    }
  }
}
layer {
  name: "inception_4d/relu_5x5_reduce"
  type: "ReLU"
  bottom: "inception_4d/5x5_reduce"
  top: "inception_4d/5x5_reduce"
}
layer {
  name: "inception_4d/5x5"
  type: "Convolution"
  bottom: "inception_4d/5x5_reduce"
  top: "inception_4d/5x5"
  param {
    lr_mult: 1
    decay_mult: 1
  }
  param {
    lr_mult: 2
    decay_mult: 0
  }
  convolution_param {
    num_output: 64
    pad: 2
    kernel_size: 5
    weight_filler {
      type: "xavier"
      std: 0.03
    }
    bias_filler {
      type: "constant"
      value: 0.2
    }
  }
}
layer {
  name: "inception_4d/relu_5x5"
  type: "ReLU"
  bottom: "inception_4d/5x5"
  top: "inception_4d/5x5"
}
layer {
  name: "inception_4d/pool"
  type: "Pooling"
  bottom: "inception_4c/output"
  top: "inception_4d/pool"
  pooling_param {
    pool: MAX
    kernel_size: 3
    stride: 1
    pad: 1
  }
}
layer {
  name: "inception_4d/pool_proj"
  type: "Convolution"
  bottom: "inception_4d/pool"
  top: "inception_4d/pool_proj"
  param {
    lr_mult: 1
    decay_mult: 1
  }
  param {
    lr_mult: 2
    decay_mult: 0
  }
  convolution_param {
    num_output: 64
    kernel_size: 1
    weight_filler {
      type: "xavier"
      std: 0.1
    }
    bias_filler {
      type: "constant"
      value: 0.2
    }
  }
}
layer {
  name: "inception_4d/relu_pool_proj"
  type: "ReLU"
  bottom: "inception_4d/pool_proj"
  top: "inception_4d/pool_proj"
}
layer {
  name: "inception_4d/output"
  type: "Concat"
  bottom: "inception_4d/1x1"
  bottom: "inception_4d/3x3"
  bottom: "inception_4d/5x5"
  bottom: "inception_4d/pool_proj"
  top: "inception_4d/output"
}
layer {
  name: "loss2/ave_pool"
  type: "Pooling"
  bottom: "inception_4d/output"
  top: "loss2/ave_pool"
  pooling_param {
    pool: AVE
    kernel_size: 5
    stride: 3
  }
}
layer {
  name: "loss2/conv"
  type: "Convolution"
  bottom: "loss2/ave_pool"
  top: "loss2/conv"
  param {
    lr_mult: 1
    decay_mult: 1
  }
  param {
    lr_mult: 2
    decay_mult: 0
  }
  convolution_param {
    num_output: 128
    kernel_size: 1
    weight_filler {
      type: "xavier"
      std: 0.08
    }
    bias_filler {
      type: "constant"
      value: 0.2
    }
  }
}
layer {
  name: "loss2/relu_conv"
  type: "ReLU"
  bottom: "loss2/conv"
  top: "loss2/conv"
}
layer {
  name: "loss2/fc"
  type: "InnerProduct"
  bottom: "loss2/conv"
  top: "loss2/fc"
  param {
    lr_mult: 1
    decay_mult: 1
  }
  param {
    lr_mult: 2
    decay_mult: 0
  }
  inner_product_param {
    num_output: 1024
    weight_filler {
      type: "xavier"
      std: 0.02
    }
    bias_filler {
      type: "constant"
      value: 0.2
    }
  }
}
layer {
  name: "loss2/relu_fc"
  type: "ReLU"
  bottom: "loss2/fc"
  top: "loss2/fc"
}
layer {
  name: "loss2/drop_fc"
  type: "Dropout"
  bottom: "loss2/fc"
  top: "loss2/fc"
  dropout_param {
    dropout_ratio: 0.7
  }
}
layer {
  name: "loss2/classifier_plantvillage"
  type: "InnerProduct"
  bottom: "loss2/fc"
  top: "loss2/classifier_plantvillage"
  param {
    lr_mult: 1
    decay_mult: 1
  }
  param {
    lr_mult: 2
    decay_mult: 0
  }
  inner_product_param {
    num_output: 38
    weight_filler {
      type: "xavier"
      std: 0.0009765625
    }
    bias_filler {
      type: "constant"
      value: 0
    }
  }
}
layer {
  name: "inception_4e/1x1"
  type: "Convolution"
  bottom: "inception_4d/output"
  top: "inception_4e/1x1"
  param {
    lr_mult: 1
    decay_mult: 1
  }
  param {
    lr_mult: 2
    decay_mult: 0
  }
  convolution_param {
    num_output: 256
    kernel_size: 1
    weight_filler {
      type: "xavier"
      std: 0.03
    }
    bias_filler {
      type: "constant"
      value: 0.2
    }
  }
}
layer {
  name: "inception_4e/relu_1x1"
  type: "ReLU"
  bottom: "inception_4e/1x1"
  top: "inception_4e/1x1"
}
layer {
  name: "inception_4e/3x3_reduce"
  type: "Convolution"
  bottom: "inception_4d/output"
  top: "inception_4e/3x3_reduce"
  param {
    lr_mult: 1
    decay_mult: 1
  }
  param {
    lr_mult: 2
    decay_mult: 0
  }
  convolution_param {
    num_output: 160
    kernel_size: 1
    weight_filler {
      type: "xavier"
      std: 0.09
    }
    bias_filler {
      type: "constant"
      value: 0.2
    }
  }
}
layer {
  name: "inception_4e/relu_3x3_reduce"
  type: "ReLU"
  bottom: "inception_4e/3x3_reduce"
  top: "inception_4e/3x3_reduce"
}
layer {
  name: "inception_4e/3x3"
  type: "Convolution"
  bottom: "inception_4e/3x3_reduce"
  top: "inception_4e/3x3"
  param {
    lr_mult: 1
    decay_mult: 1
  }
  param {
    lr_mult: 2
    decay_mult: 0
  }
  convolution_param {
    num_output: 320
    pad: 1
    kernel_size: 3
    weight_filler {
      type: "xavier"
      std: 0.03
    }
    bias_filler {
      type: "constant"
      value: 0.2
    }
  }
}
layer {
  name: "inception_4e/relu_3x3"
  type: "ReLU"
  bottom: "inception_4e/3x3"
  top: "inception_4e/3x3"
}
layer {
  name: "inception_4e/5x5_reduce"
  type: "Convolution"
  bottom: "inception_4d/output"
  top: "inception_4e/5x5_reduce"
  param {
    lr_mult: 1
    decay_mult: 1
  }
  param {
    lr_mult: 2
    decay_mult: 0
  }
  convolution_param {
    num_output: 32
    kernel_size: 1
    weight_filler {
      type: "xavier"
      std: 0.2
    }
    bias_filler {
      type: "constant"
      value: 0.2
    }
  }
}
layer {
  name: "inception_4e/relu_5x5_reduce"
  type: "ReLU"
  bottom: "inception_4e/5x5_reduce"
  top: "inception_4e/5x5_reduce"
}
layer {
  name: "inception_4e/5x5"
  type: "Convolution"
  bottom: "inception_4e/5x5_reduce"
  top: "inception_4e/5x5"
  p
I0403 16:58:13.485646 20158 layer_factory.hpp:77] Creating layer data
I0403 16:58:13.487160 20158 net.cpp:91] Creating Layer data
I0403 16:58:13.487238 20158 net.cpp:399] data -> data
I0403 16:58:13.487357 20158 net.cpp:399] data -> label
I0403 16:58:13.487445 20158 data_transformer.cpp:25] Loading mean file from: /home/mohanty/data/final_dataset/lmdb/color-20-80/mean.binaryproto
I0403 16:58:13.489380 20162 db_lmdb.cpp:38] Opened lmdb /home/mohanty/data/final_dataset/lmdb/color-20-80/test_db
I0403 16:58:13.504786 20158 data_layer.cpp:41] output data size: 24,3,224,224
I0403 16:58:13.531183 20158 net.cpp:141] Setting up data
I0403 16:58:13.531260 20158 net.cpp:148] Top shape: 24 3 224 224 (3612672)
I0403 16:58:13.531281 20158 net.cpp:148] Top shape: 24 (24)
I0403 16:58:13.531296 20158 net.cpp:156] Memory required for data: 14450784
I0403 16:58:13.531323 20158 layer_factory.hpp:77] Creating layer label_data_1_split
I0403 16:58:13.531349 20158 net.cpp:91] Creating Layer label_data_1_split
I0403 16:58:13.531368 20158 net.cpp:425] label_data_1_split <- label
I0403 16:58:13.531401 20158 net.cpp:399] label_data_1_split -> label_data_1_split_0
I0403 16:58:13.531427 20158 net.cpp:399] label_data_1_split -> label_data_1_split_1
I0403 16:58:13.531448 20158 net.cpp:399] label_data_1_split -> label_data_1_split_2
I0403 16:58:13.531468 20158 net.cpp:399] label_data_1_split -> label_data_1_split_3
I0403 16:58:13.531488 20158 net.cpp:399] label_data_1_split -> label_data_1_split_4
I0403 16:58:13.531507 20158 net.cpp:399] label_data_1_split -> label_data_1_split_5
I0403 16:58:13.531527 20158 net.cpp:399] label_data_1_split -> label_data_1_split_6
I0403 16:58:13.531545 20158 net.cpp:399] label_data_1_split -> label_data_1_split_7
I0403 16:58:13.531564 20158 net.cpp:399] label_data_1_split -> label_data_1_split_8
I0403 16:58:13.531589 20158 net.cpp:399] label_data_1_split -> label_data_1_split_9
I0403 16:58:13.531702 20158 net.cpp:141] Setting up label_data_1_split
I0403 16:58:13.531726 20158 net.cpp:148] Top shape: 24 (24)
I0403 16:58:13.531743 20158 net.cpp:148] Top shape: 24 (24)
I0403 16:58:13.531757 20158 net.cpp:148] Top shape: 24 (24)
I0403 16:58:13.531772 20158 net.cpp:148] Top shape: 24 (24)
I0403 16:58:13.531787 20158 net.cpp:148] Top shape: 24 (24)
I0403 16:58:13.531802 20158 net.cpp:148] Top shape: 24 (24)
I0403 16:58:13.531818 20158 net.cpp:148] Top shape: 24 (24)
I0403 16:58:13.531833 20158 net.cpp:148] Top shape: 24 (24)
I0403 16:58:13.531848 20158 net.cpp:148] Top shape: 24 (24)
I0403 16:58:13.531862 20158 net.cpp:148] Top shape: 24 (24)
I0403 16:58:13.531899 20158 net.cpp:156] Memory required for data: 14451744
I0403 16:58:13.531915 20158 layer_factory.hpp:77] Creating layer conv1/7x7_s2
I0403 16:58:13.531945 20158 net.cpp:91] Creating Layer conv1/7x7_s2
I0403 16:58:13.531963 20158 net.cpp:425] conv1/7x7_s2 <- data
I0403 16:58:13.531983 20158 net.cpp:399] conv1/7x7_s2 -> conv1/7x7_s2
I0403 16:58:13.666882 20158 net.cpp:141] Setting up conv1/7x7_s2
I0403 16:58:13.666957 20158 net.cpp:148] Top shape: 24 64 112 112 (19267584)
I0403 16:58:13.666975 20158 net.cpp:156] Memory required for data: 91522080
I0403 16:58:13.667006 20158 layer_factory.hpp:77] Creating layer conv1/relu_7x7
I0403 16:58:13.667035 20158 net.cpp:91] Creating Layer conv1/relu_7x7
I0403 16:58:13.667054 20158 net.cpp:425] conv1/relu_7x7 <- conv1/7x7_s2
I0403 16:58:13.667078 20158 net.cpp:386] conv1/relu_7x7 -> conv1/7x7_s2 (in-place)
I0403 16:58:13.667353 20158 net.cpp:141] Setting up conv1/relu_7x7
I0403 16:58:13.667382 20158 net.cpp:148] Top shape: 24 64 112 112 (19267584)
I0403 16:58:13.667399 20158 net.cpp:156] Memory required for data: 168592416
I0403 16:58:13.667414 20158 layer_factory.hpp:77] Creating layer pool1/3x3_s2
I0403 16:58:13.667439 20158 net.cpp:91] Creating Layer pool1/3x3_s2
I0403 16:58:13.667457 20158 net.cpp:425] pool1/3x3_s2 <- conv1/7x7_s2
I0403 16:58:13.667479 20158 net.cpp:399] pool1/3x3_s2 -> pool1/3x3_s2
I0403 16:58:13.667553 20158 net.cpp:141] Setting up pool1/3x3_s2
I0403 16:58:13.667582 20158 net.cpp:148] Top shape: 24 64 56 56 (4816896)
I0403 16:58:13.667598 20158 net.cpp:156] Memory required for data: 187860000
I0403 16:58:13.667613 20158 layer_factory.hpp:77] Creating layer pool1/norm1
I0403 16:58:13.667639 20158 net.cpp:91] Creating Layer pool1/norm1
I0403 16:58:13.667656 20158 net.cpp:425] pool1/norm1 <- pool1/3x3_s2
I0403 16:58:13.667680 20158 net.cpp:399] pool1/norm1 -> pool1/norm1
I0403 16:58:13.668006 20158 net.cpp:141] Setting up pool1/norm1
I0403 16:58:13.668035 20158 net.cpp:148] Top shape: 24 64 56 56 (4816896)
I0403 16:58:13.668051 20158 net.cpp:156] Memory required for data: 207127584
I0403 16:58:13.668066 20158 layer_factory.hpp:77] Creating layer conv2/3x3_reduce
I0403 16:58:13.668093 20158 net.cpp:91] Creating Layer conv2/3x3_reduce
I0403 16:58:13.668112 20158 net.cpp:425] conv2/3x3_reduce <- pool1/norm1
I0403 16:58:13.668133 20158 net.cpp:399] conv2/3x3_reduce -> conv2/3x3_reduce
I0403 16:58:13.669541 20158 net.cpp:141] Setting up conv2/3x3_reduce
I0403 16:58:13.669575 20158 net.cpp:148] Top shape: 24 64 56 56 (4816896)
I0403 16:58:13.669594 20158 net.cpp:156] Memory required for data: 226395168
I0403 16:58:13.669615 20158 layer_factory.hpp:77] Creating layer conv2/relu_3x3_reduce
I0403 16:58:13.669636 20158 net.cpp:91] Creating Layer conv2/relu_3x3_reduce
I0403 16:58:13.669652 20158 net.cpp:425] conv2/relu_3x3_reduce <- conv2/3x3_reduce
I0403 16:58:13.669670 20158 net.cpp:386] conv2/relu_3x3_reduce -> conv2/3x3_reduce (in-place)
I0403 16:58:13.669935 20158 net.cpp:141] Setting up conv2/relu_3x3_reduce
I0403 16:58:13.669962 20158 net.cpp:148] Top shape: 24 64 56 56 (4816896)
I0403 16:58:13.669977 20158 net.cpp:156] Memory required for data: 245662752
I0403 16:58:13.669993 20158 layer_factory.hpp:77] Creating layer conv2/3x3
I0403 16:58:13.670019 20158 net.cpp:91] Creating Layer conv2/3x3
I0403 16:58:13.670037 20158 net.cpp:425] conv2/3x3 <- conv2/3x3_reduce
I0403 16:58:13.670056 20158 net.cpp:399] conv2/3x3 -> conv2/3x3
I0403 16:58:13.672377 20158 net.cpp:141] Setting up conv2/3x3
I0403 16:58:13.672410 20158 net.cpp:148] Top shape: 24 192 56 56 (14450688)
I0403 16:58:13.672426 20158 net.cpp:156] Memory required for data: 303465504
I0403 16:58:13.672448 20158 layer_factory.hpp:77] Creating layer conv2/relu_3x3
I0403 16:58:13.672471 20158 net.cpp:91] Creating Layer conv2/relu_3x3
I0403 16:58:13.672488 20158 net.cpp:425] conv2/relu_3x3 <- conv2/3x3
I0403 16:58:13.672508 20158 net.cpp:386] conv2/relu_3x3 -> conv2/3x3 (in-place)
I0403 16:58:13.672701 20158 net.cpp:141] Setting up conv2/relu_3x3
I0403 16:58:13.672727 20158 net.cpp:148] Top shape: 24 192 56 56 (14450688)
I0403 16:58:13.672775 20158 net.cpp:156] Memory required for data: 361268256
I0403 16:58:13.672791 20158 layer_factory.hpp:77] Creating layer conv2/norm2
I0403 16:58:13.672811 20158 net.cpp:91] Creating Layer conv2/norm2
I0403 16:58:13.672862 20158 net.cpp:425] conv2/norm2 <- conv2/3x3
I0403 16:58:13.672888 20158 net.cpp:399] conv2/norm2 -> conv2/norm2
I0403 16:58:13.673197 20158 net.cpp:141] Setting up conv2/norm2
I0403 16:58:13.673225 20158 net.cpp:148] Top shape: 24 192 56 56 (14450688)
I0403 16:58:13.673241 20158 net.cpp:156] Memory required for data: 419071008
I0403 16:58:13.673256 20158 layer_factory.hpp:77] Creating layer pool2/3x3_s2
I0403 16:58:13.673274 20158 net.cpp:91] Creating Layer pool2/3x3_s2
I0403 16:58:13.673290 20158 net.cpp:425] pool2/3x3_s2 <- conv2/norm2
I0403 16:58:13.673312 20158 net.cpp:399] pool2/3x3_s2 -> pool2/3x3_s2
I0403 16:58:13.673367 20158 net.cpp:141] Setting up pool2/3x3_s2
I0403 16:58:13.673389 20158 net.cpp:148] Top shape: 24 192 28 28 (3612672)
I0403 16:58:13.673405 20158 net.cpp:156] Memory required for data: 433521696
I0403 16:58:13.673420 20158 layer_factory.hpp:77] Creating layer pool2/3x3_s2_pool2/3x3_s2_0_split
I0403 16:58:13.673440 20158 net.cpp:91] Creating Layer pool2/3x3_s2_pool2/3x3_s2_0_split
I0403 16:58:13.673457 20158 net.cpp:425] pool2/3x3_s2_pool2/3x3_s2_0_split <- pool2/3x3_s2
I0403 16:58:13.673478 20158 net.cpp:399] pool2/3x3_s2_pool2/3x3_s2_0_split -> pool2/3x3_s2_pool2/3x3_s2_0_split_0
I0403 16:58:13.673499 20158 net.cpp:399] pool2/3x3_s2_pool2/3x3_s2_0_split -> pool2/3x3_s2_pool2/3x3_s2_0_split_1
I0403 16:58:13.673519 20158 net.cpp:399] pool2/3x3_s2_pool2/3x3_s2_0_split -> pool2/3x3_s2_pool2/3x3_s2_0_split_2
I0403 16:58:13.673538 20158 net.cpp:399] pool2/3x3_s2_pool2/3x3_s2_0_split -> pool2/3x3_s2_pool2/3x3_s2_0_split_3
I0403 16:58:13.673611 20158 net.cpp:141] Setting up pool2/3x3_s2_pool2/3x3_s2_0_split
I0403 16:58:13.673637 20158 net.cpp:148] Top shape: 24 192 28 28 (3612672)
I0403 16:58:13.673655 20158 net.cpp:148] Top shape: 24 192 28 28 (3612672)
I0403 16:58:13.673672 20158 net.cpp:148] Top shape: 24 192 28 28 (3612672)
I0403 16:58:13.673687 20158 net.cpp:148] Top shape: 24 192 28 28 (3612672)
I0403 16:58:13.673699 20158 net.cpp:156] Memory required for data: 491324448
I0403 16:58:13.673714 20158 layer_factory.hpp:77] Creating layer inception_3a/1x1
I0403 16:58:13.673737 20158 net.cpp:91] Creating Layer inception_3a/1x1
I0403 16:58:13.673753 20158 net.cpp:425] inception_3a/1x1 <- pool2/3x3_s2_pool2/3x3_s2_0_split_0
I0403 16:58:13.673773 20158 net.cpp:399] inception_3a/1x1 -> inception_3a/1x1
I0403 16:58:13.675297 20158 net.cpp:141] Setting up inception_3a/1x1
I0403 16:58:13.675326 20158 net.cpp:148] Top shape: 24 64 28 28 (1204224)
I0403 16:58:13.675343 20158 net.cpp:156] Memory required for data: 496141344
I0403 16:58:13.675361 20158 layer_factory.hpp:77] Creating layer inception_3a/relu_1x1
I0403 16:58:13.675384 20158 net.cpp:91] Creating Layer inception_3a/relu_1x1
I0403 16:58:13.675400 20158 net.cpp:425] inception_3a/relu_1x1 <- inception_3a/1x1
I0403 16:58:13.675417 20158 net.cpp:386] inception_3a/relu_1x1 -> inception_3a/1x1 (in-place)
I0403 16:58:13.675595 20158 net.cpp:141] Setting up inception_3a/relu_1x1
I0403 16:58:13.675622 20158 net.cpp:148] Top shape: 24 64 28 28 (1204224)
I0403 16:58:13.675637 20158 net.cpp:156] Memory required for data: 500958240
I0403 16:58:13.675653 20158 layer_factory.hpp:77] Creating layer inception_3a/3x3_reduce
I0403 16:58:13.675676 20158 net.cpp:91] Creating Layer inception_3a/3x3_reduce
I0403 16:58:13.675693 20158 net.cpp:425] inception_3a/3x3_reduce <- pool2/3x3_s2_pool2/3x3_s2_0_split_1
I0403 16:58:13.675712 20158 net.cpp:399] inception_3a/3x3_reduce -> inception_3a/3x3_reduce
I0403 16:58:13.677382 20158 net.cpp:141] Setting up inception_3a/3x3_reduce
I0403 16:58:13.677412 20158 net.cpp:148] Top shape: 24 96 28 28 (1806336)
I0403 16:58:13.677429 20158 net.cpp:156] Memory required for data: 508183584
I0403 16:58:13.677451 20158 layer_factory.hpp:77] Creating layer inception_3a/relu_3x3_reduce
I0403 16:58:13.677490 20158 net.cpp:91] Creating Layer inception_3a/relu_3x3_reduce
I0403 16:58:13.677510 20158 net.cpp:425] inception_3a/relu_3x3_reduce <- inception_3a/3x3_reduce
I0403 16:58:13.677531 20158 net.cpp:386] inception_3a/relu_3x3_reduce -> inception_3a/3x3_reduce (in-place)
I0403 16:58:13.677729 20158 net.cpp:141] Setting up inception_3a/relu_3x3_reduce
I0403 16:58:13.677757 20158 net.cpp:148] Top shape: 24 96 28 28 (1806336)
I0403 16:58:13.677772 20158 net.cpp:156] Memory required for data: 515408928
I0403 16:58:13.677786 20158 layer_factory.hpp:77] Creating layer inception_3a/3x3
I0403 16:58:13.677810 20158 net.cpp:91] Creating Layer inception_3a/3x3
I0403 16:58:13.677829 20158 net.cpp:425] inception_3a/3x3 <- inception_3a/3x3_reduce
I0403 16:58:13.677850 20158 net.cpp:399] inception_3a/3x3 -> inception_3a/3x3
I0403 16:58:13.679476 20158 net.cpp:141] Setting up inception_3a/3x3
I0403 16:58:13.679504 20158 net.cpp:148] Top shape: 24 128 28 28 (2408448)
I0403 16:58:13.679524 20158 net.cpp:156] Memory required for data: 525042720
I0403 16:58:13.679543 20158 layer_factory.hpp:77] Creating layer inception_3a/relu_3x3
I0403 16:58:13.679560 20158 net.cpp:91] Creating Layer inception_3a/relu_3x3
I0403 16:58:13.679580 20158 net.cpp:425] inception_3a/relu_3x3 <- inception_3a/3x3
I0403 16:58:13.679600 20158 net.cpp:386] inception_3a/relu_3x3 -> inception_3a/3x3 (in-place)
I0403 16:58:13.679870 20158 net.cpp:141] Setting up inception_3a/relu_3x3
I0403 16:58:13.679899 20158 net.cpp:148] Top shape: 24 128 28 28 (2408448)
I0403 16:58:13.679916 20158 net.cpp:156] Memory required for data: 534676512
I0403 16:58:13.679931 20158 layer_factory.hpp:77] Creating layer inception_3a/5x5_reduce
I0403 16:58:13.679951 20158 net.cpp:91] Creating Layer inception_3a/5x5_reduce
I0403 16:58:13.679968 20158 net.cpp:425] inception_3a/5x5_reduce <- pool2/3x3_s2_pool2/3x3_s2_0_split_2
I0403 16:58:13.679989 20158 net.cpp:399] inception_3a/5x5_reduce -> inception_3a/5x5_reduce
I0403 16:58:13.680932 20158 net.cpp:141] Setting up inception_3a/5x5_reduce
I0403 16:58:13.680963 20158 net.cpp:148] Top shape: 24 16 28 28 (301056)
I0403 16:58:13.680980 20158 net.cpp:156] Memory required for data: 535880736
I0403 16:58:13.680999 20158 layer_factory.hpp:77] Creating layer inception_3a/relu_5x5_reduce
I0403 16:58:13.681017 20158 net.cpp:91] Creating Layer inception_3a/relu_5x5_reduce
I0403 16:58:13.681032 20158 net.cpp:425] inception_3a/relu_5x5_reduce <- inception_3a/5x5_reduce
I0403 16:58:13.681051 20158 net.cpp:386] inception_3a/relu_5x5_reduce -> inception_3a/5x5_reduce (in-place)
I0403 16:58:13.681339 20158 net.cpp:141] Setting up inception_3a/relu_5x5_reduce
I0403 16:58:13.681366 20158 net.cpp:148] Top shape: 24 16 28 28 (301056)
I0403 16:58:13.681381 20158 net.cpp:156] Memory required for data: 537084960
I0403 16:58:13.681396 20158 layer_factory.hpp:77] Creating layer inception_3a/5x5
I0403 16:58:13.681417 20158 net.cpp:91] Creating Layer inception_3a/5x5
I0403 16:58:13.681435 20158 net.cpp:425] inception_3a/5x5 <- inception_3a/5x5_reduce
I0403 16:58:13.681457 20158 net.cpp:399] inception_3a/5x5 -> inception_3a/5x5
I0403 16:58:13.682456 20158 net.cpp:141] Setting up inception_3a/5x5
I0403 16:58:13.682483 20158 net.cpp:148] Top shape: 24 32 28 28 (602112)
I0403 16:58:13.682499 20158 net.cpp:156] Memory required for data: 539493408
I0403 16:58:13.682518 20158 layer_factory.hpp:77] Creating layer inception_3a/relu_5x5
I0403 16:58:13.682539 20158 net.cpp:91] Creating Layer inception_3a/relu_5x5
I0403 16:58:13.682557 20158 net.cpp:425] inception_3a/relu_5x5 <- inception_3a/5x5
I0403 16:58:13.682579 20158 net.cpp:386] inception_3a/relu_5x5 -> inception_3a/5x5 (in-place)
I0403 16:58:13.682754 20158 net.cpp:141] Setting up inception_3a/relu_5x5
I0403 16:58:13.682780 20158 net.cpp:148] Top shape: 24 32 28 28 (602112)
I0403 16:58:13.682798 20158 net.cpp:156] Memory required for data: 541901856
I0403 16:58:13.682824 20158 layer_factory.hpp:77] Creating layer inception_3a/pool
I0403 16:58:13.682842 20158 net.cpp:91] Creating Layer inception_3a/pool
I0403 16:58:13.682859 20158 net.cpp:425] inception_3a/pool <- pool2/3x3_s2_pool2/3x3_s2_0_split_3
I0403 16:58:13.682896 20158 net.cpp:399] inception_3a/pool -> inception_3a/pool
I0403 16:58:13.682956 20158 net.cpp:141] Setting up inception_3a/pool
I0403 16:58:13.682981 20158 net.cpp:148] Top shape: 24 192 28 28 (3612672)
I0403 16:58:13.682997 20158 net.cpp:156] Memory required for data: 556352544
I0403 16:58:13.683012 20158 layer_factory.hpp:77] Creating layer inception_3a/pool_proj
I0403 16:58:13.683034 20158 net.cpp:91] Creating Layer inception_3a/pool_proj
I0403 16:58:13.683053 20158 net.cpp:425] inception_3a/pool_proj <- inception_3a/pool
I0403 16:58:13.683078 20158 net.cpp:399] inception_3a/pool_proj -> inception_3a/pool_proj
I0403 16:58:13.684041 20158 net.cpp:141] Setting up inception_3a/pool_proj
I0403 16:58:13.684068 20158 net.cpp:148] Top shape: 24 32 28 28 (602112)
I0403 16:58:13.684084 20158 net.cpp:156] Memory required for data: 558760992
I0403 16:58:13.684109 20158 layer_factory.hpp:77] Creating layer inception_3a/relu_pool_proj
I0403 16:58:13.684130 20158 net.cpp:91] Creating Layer inception_3a/relu_pool_proj
I0403 16:58:13.684147 20158 net.cpp:425] inception_3a/relu_pool_proj <- inception_3a/pool_proj
I0403 16:58:13.684165 20158 net.cpp:386] inception_3a/relu_pool_proj -> inception_3a/pool_proj (in-place)
I0403 16:58:13.684437 20158 net.cpp:141] Setting up inception_3a/relu_pool_proj
I0403 16:58:13.684463 20158 net.cpp:148] Top shape: 24 32 28 28 (602112)
I0403 16:58:13.684481 20158 net.cpp:156] Memory required for data: 561169440
I0403 16:58:13.684496 20158 layer_factory.hpp:77] Creating layer inception_3a/output
I0403 16:58:13.684514 20158 net.cpp:91] Creating Layer inception_3a/output
I0403 16:58:13.684530 20158 net.cpp:425] inception_3a/output <- inception_3a/1x1
I0403 16:58:13.684546 20158 net.cpp:425] inception_3a/output <- inception_3a/3x3
I0403 16:58:13.684563 20158 net.cpp:425] inception_3a/output <- inception_3a/5x5
I0403 16:58:13.684584 20158 net.cpp:425] inception_3a/output <- inception_3a/pool_proj
I0403 16:58:13.684602 20158 net.cpp:399] inception_3a/output -> inception_3a/output
I0403 16:58:13.684651 20158 net.cpp:141] Setting up inception_3a/output
I0403 16:58:13.684675 20158 net.cpp:148] Top shape: 24 256 28 28 (4816896)
I0403 16:58:13.684689 20158 net.cpp:156] Memory required for data: 580437024
I0403 16:58:13.684703 20158 layer_factory.hpp:77] Creating layer inception_3a/output_inception_3a/output_0_split
I0403 16:58:13.684720 20158 net.cpp:91] Creating Layer inception_3a/output_inception_3a/output_0_split
I0403 16:58:13.684736 20158 net.cpp:425] inception_3a/output_inception_3a/output_0_split <- inception_3a/output
I0403 16:58:13.684756 20158 net.cpp:399] inception_3a/output_inception_3a/output_0_split -> inception_3a/output_inception_3a/output_0_split_0
I0403 16:58:13.684777 20158 net.cpp:399] inception_3a/output_inception_3a/output_0_split -> inception_3a/output_inception_3a/output_0_split_1
I0403 16:58:13.684803 20158 net.cpp:399] inception_3a/output_inception_3a/output_0_split -> inception_3a/output_inception_3a/output_0_split_2
I0403 16:58:13.684824 20158 net.cpp:399] inception_3a/output_inception_3a/output_0_split -> inception_3a/output_inception_3a/output_0_split_3
I0403 16:58:13.684900 20158 net.cpp:141] Setting up inception_3a/output_inception_3a/output_0_split
I0403 16:58:13.684923 20158 net.cpp:148] Top shape: 24 256 28 28 (4816896)
I0403 16:58:13.684940 20158 net.cpp:148] Top shape: 24 256 28 28 (4816896)
I0403 16:58:13.684957 20158 net.cpp:148] Top shape: 24 256 28 28 (4816896)
I0403 16:58:13.684972 20158 net.cpp:148] Top shape: 24 256 28 28 (4816896)
I0403 16:58:13.684984 20158 net.cpp:156] Memory required for data: 657507360
I0403 16:58:13.684998 20158 layer_factory.hpp:77] Creating layer inception_3b/1x1
I0403 16:58:13.685020 20158 net.cpp:91] Creating Layer inception_3b/1x1
I0403 16:58:13.685039 20158 net.cpp:425] inception_3b/1x1 <- inception_3a/output_inception_3a/output_0_split_0
I0403 16:58:13.685060 20158 net.cpp:399] inception_3b/1x1 -> inception_3b/1x1
I0403 16:58:13.686197 20158 net.cpp:141] Setting up inception_3b/1x1
I0403 16:58:13.686238 20158 net.cpp:148] Top shape: 24 128 28 28 (2408448)
I0403 16:58:13.686254 20158 net.cpp:156] Memory required for data: 667141152
I0403 16:58:13.686271 20158 layer_factory.hpp:77] Creating layer inception_3b/relu_1x1
I0403 16:58:13.686291 20158 net.cpp:91] Creating Layer inception_3b/relu_1x1
I0403 16:58:13.686310 20158 net.cpp:425] inception_3b/relu_1x1 <- inception_3b/1x1
I0403 16:58:13.686327 20158 net.cpp:386] inception_3b/relu_1x1 -> inception_3b/1x1 (in-place)
I0403 16:58:13.686499 20158 net.cpp:141] Setting up inception_3b/relu_1x1
I0403 16:58:13.686527 20158 net.cpp:148] Top shape: 24 128 28 28 (2408448)
I0403 16:58:13.686543 20158 net.cpp:156] Memory required for data: 676774944
I0403 16:58:13.686558 20158 layer_factory.hpp:77] Creating layer inception_3b/3x3_reduce
I0403 16:58:13.686583 20158 net.cpp:91] Creating Layer inception_3b/3x3_reduce
I0403 16:58:13.686601 20158 net.cpp:425] inception_3b/3x3_reduce <- inception_3a/output_inception_3a/output_0_split_1
I0403 16:58:13.686622 20158 net.cpp:399] inception_3b/3x3_reduce -> inception_3b/3x3_reduce
I0403 16:58:13.687788 20158 net.cpp:141] Setting up inception_3b/3x3_reduce
I0403 16:58:13.687818 20158 net.cpp:148] Top shape: 24 128 28 28 (2408448)
I0403 16:58:13.687832 20158 net.cpp:156] Memory required for data: 686408736
I0403 16:58:13.687850 20158 layer_factory.hpp:77] Creating layer inception_3b/relu_3x3_reduce
I0403 16:58:13.687870 20158 net.cpp:91] Creating Layer inception_3b/relu_3x3_reduce
I0403 16:58:13.687886 20158 net.cpp:425] inception_3b/relu_3x3_reduce <- inception_3b/3x3_reduce
I0403 16:58:13.687902 20158 net.cpp:386] inception_3b/relu_3x3_reduce -> inception_3b/3x3_reduce (in-place)
I0403 16:58:13.688074 20158 net.cpp:141] Setting up inception_3b/relu_3x3_reduce
I0403 16:58:13.688099 20158 net.cpp:148] Top shape: 24 128 28 28 (2408448)
I0403 16:58:13.688114 20158 net.cpp:156] Memory required for data: 696042528
I0403 16:58:13.688129 20158 layer_factory.hpp:77] Creating layer inception_3b/3x3
I0403 16:58:13.688154 20158 net.cpp:91] Creating Layer inception_3b/3x3
I0403 16:58:13.688171 20158 net.cpp:425] inception_3b/3x3 <- inception_3b/3x3_reduce
I0403 16:58:13.688192 20158 net.cpp:399] inception_3b/3x3 -> inception_3b/3x3
I0403 16:58:13.690990 20158 net.cpp:141] Setting up inception_3b/3x3
I0403 16:58:13.691020 20158 net.cpp:148] Top shape: 24 192 28 28 (3612672)
I0403 16:58:13.691038 20158 net.cpp:156] Memory required for data: 710493216
I0403 16:58:13.691056 20158 layer_factory.hpp:77] Creating layer inception_3b/relu_3x3
I0403 16:58:13.691073 20158 net.cpp:91] Creating Layer inception_3b/relu_3x3
I0403 16:58:13.691088 20158 net.cpp:425] inception_3b/relu_3x3 <- inception_3b/3x3
I0403 16:58:13.691104 20158 net.cpp:386] inception_3b/relu_3x3 -> inception_3b/3x3 (in-place)
I0403 16:58:13.691375 20158 net.cpp:141] Setting up inception_3b/relu_3x3
I0403 16:58:13.691401 20158 net.cpp:148] Top shape: 24 192 28 28 (3612672)
I0403 16:58:13.691419 20158 net.cpp:156] Memory required for data: 724943904
I0403 16:58:13.691433 20158 layer_factory.hpp:77] Creating layer inception_3b/5x5_reduce
I0403 16:58:13.691453 20158 net.cpp:91] Creating Layer inception_3b/5x5_reduce
I0403 16:58:13.691469 20158 net.cpp:425] inception_3b/5x5_reduce <- inception_3a/output_inception_3a/output_0_split_2
I0403 16:58:13.691489 20158 net.cpp:399] inception_3b/5x5_reduce -> inception_3b/5x5_reduce
I0403 16:58:13.692445 20158 net.cpp:141] Setting up inception_3b/5x5_reduce
I0403 16:58:13.692473 20158 net.cpp:148] Top shape: 24 32 28 28 (602112)
I0403 16:58:13.692489 20158 net.cpp:156] Memory required for data: 727352352
I0403 16:58:13.692507 20158 layer_factory.hpp:77] Creating layer inception_3b/relu_5x5_reduce
I0403 16:58:13.692525 20158 net.cpp:91] Creating Layer inception_3b/relu_5x5_reduce
I0403 16:58:13.692543 20158 net.cpp:425] inception_3b/relu_5x5_reduce <- inception_3b/5x5_reduce
I0403 16:58:13.692559 20158 net.cpp:386] inception_3b/relu_5x5_reduce -> inception_3b/5x5_reduce (in-place)
I0403 16:58:13.692736 20158 net.cpp:141] Setting up inception_3b/relu_5x5_reduce
I0403 16:58:13.692775 20158 net.cpp:148] Top shape: 24 32 28 28 (602112)
I0403 16:58:13.692791 20158 net.cpp:156] Memory required for data: 729760800
I0403 16:58:13.692806 20158 layer_factory.hpp:77] Creating layer inception_3b/5x5
I0403 16:58:13.692828 20158 net.cpp:91] Creating Layer inception_3b/5x5
I0403 16:58:13.692845 20158 net.cpp:425] inception_3b/5x5 <- inception_3b/5x5_reduce
I0403 16:58:13.692864 20158 net.cpp:399] inception_3b/5x5 -> inception_3b/5x5
I0403 16:58:13.694757 20158 net.cpp:141] Setting up inception_3b/5x5
I0403 16:58:13.694787 20158 net.cpp:148] Top shape: 24 96 28 28 (1806336)
I0403 16:58:13.694803 20158 net.cpp:156] Memory required for data: 736986144
I0403 16:58:13.694821 20158 layer_factory.hpp:77] Creating layer inception_3b/relu_5x5
I0403 16:58:13.694841 20158 net.cpp:91] Creating Layer inception_3b/relu_5x5
I0403 16:58:13.694859 20158 net.cpp:425] inception_3b/relu_5x5 <- inception_3b/5x5
I0403 16:58:13.694877 20158 net.cpp:386] inception_3b/relu_5x5 -> inception_3b/5x5 (in-place)
I0403 16:58:13.695063 20158 net.cpp:141] Setting up inception_3b/relu_5x5
I0403 16:58:13.695088 20158 net.cpp:148] Top shape: 24 96 28 28 (1806336)
I0403 16:58:13.695103 20158 net.cpp:156] Memory required for data: 744211488
I0403 16:58:13.695117 20158 layer_factory.hpp:77] Creating layer inception_3b/pool
I0403 16:58:13.695135 20158 net.cpp:91] Creating Layer inception_3b/pool
I0403 16:58:13.695152 20158 net.cpp:425] inception_3b/pool <- inception_3a/output_inception_3a/output_0_split_3
I0403 16:58:13.695168 20158 net.cpp:399] inception_3b/pool -> inception_3b/pool
I0403 16:58:13.695222 20158 net.cpp:141] Setting up inception_3b/pool
I0403 16:58:13.695245 20158 net.cpp:148] Top shape: 24 256 28 28 (4816896)
I0403 16:58:13.695261 20158 net.cpp:156] Memory required for data: 763479072
I0403 16:58:13.695276 20158 layer_factory.hpp:77] Creating layer inception_3b/pool_proj
I0403 16:58:13.695297 20158 net.cpp:91] Creating Layer inception_3b/pool_proj
I0403 16:58:13.695314 20158 net.cpp:425] inception_3b/pool_proj <- inception_3b/pool
I0403 16:58:13.695334 20158 net.cpp:399] inception_3b/pool_proj -> inception_3b/pool_proj
I0403 16:58:13.696393 20158 net.cpp:141] Setting up inception_3b/pool_proj
I0403 16:58:13.696421 20158 net.cpp:148] Top shape: 24 64 28 28 (1204224)
I0403 16:58:13.696439 20158 net.cpp:156] Memory required for data: 768295968
I0403 16:58:13.696456 20158 layer_factory.hpp:77] Creating layer inception_3b/relu_pool_proj
I0403 16:58:13.696473 20158 net.cpp:91] Creating Layer inception_3b/relu_pool_proj
I0403 16:58:13.696490 20158 net.cpp:425] inception_3b/relu_pool_proj <- inception_3b/pool_proj
I0403 16:58:13.696507 20158 net.cpp:386] inception_3b/relu_pool_proj -> inception_3b/pool_proj (in-place)
I0403 16:58:13.696880 20158 net.cpp:141] Setting up inception_3b/relu_pool_proj
I0403 16:58:13.696908 20158 net.cpp:148] Top shape: 24 64 28 28 (1204224)
I0403 16:58:13.696924 20158 net.cpp:156] Memory required for data: 773112864
I0403 16:58:13.696938 20158 layer_factory.hpp:77] Creating layer inception_3b/output
I0403 16:58:13.696955 20158 net.cpp:91] Creating Layer inception_3b/output
I0403 16:58:13.696969 20158 net.cpp:425] inception_3b/output <- inception_3b/1x1
I0403 16:58:13.696985 20158 net.cpp:425] inception_3b/output <- inception_3b/3x3
I0403 16:58:13.697000 20158 net.cpp:425] inception_3b/output <- inception_3b/5x5
I0403 16:58:13.697016 20158 net.cpp:425] inception_3b/output <- inception_3b/pool_proj
I0403 16:58:13.697032 20158 net.cpp:399] inception_3b/output -> inception_3b/output
I0403 16:58:13.697075 20158 net.cpp:141] Setting up inception_3b/output
I0403 16:58:13.697098 20158 net.cpp:148] Top shape: 24 480 28 28 (9031680)
I0403 16:58:13.697113 20158 net.cpp:156] Memory required for data: 809239584
I0403 16:58:13.697125 20158 layer_factory.hpp:77] Creating layer pool3/3x3_s2
I0403 16:58:13.697144 20158 net.cpp:91] Creating Layer pool3/3x3_s2
I0403 16:58:13.697160 20158 net.cpp:425] pool3/3x3_s2 <- inception_3b/output
I0403 16:58:13.697178 20158 net.cpp:399] pool3/3x3_s2 -> pool3/3x3_s2
I0403 16:58:13.697247 20158 net.cpp:141] Setting up pool3/3x3_s2
I0403 16:58:13.697271 20158 net.cpp:148] Top shape: 24 480 14 14 (2257920)
I0403 16:58:13.697286 20158 net.cpp:156] Memory required for data: 818271264
I0403 16:58:13.697300 20158 layer_factory.hpp:77] Creating layer pool3/3x3_s2_pool3/3x3_s2_0_split
I0403 16:58:13.697316 20158 net.cpp:91] Creating Layer pool3/3x3_s2_pool3/3x3_s2_0_split
I0403 16:58:13.697330 20158 net.cpp:425] pool3/3x3_s2_pool3/3x3_s2_0_split <- pool3/3x3_s2
I0403 16:58:13.697350 20158 net.cpp:399] pool3/3x3_s2_pool3/3x3_s2_0_split -> pool3/3x3_s2_pool3/3x3_s2_0_split_0
I0403 16:58:13.697370 20158 net.cpp:399] pool3/3x3_s2_pool3/3x3_s2_0_split -> pool3/3x3_s2_pool3/3x3_s2_0_split_1
I0403 16:58:13.697387 20158 net.cpp:399] pool3/3x3_s2_pool3/3x3_s2_0_split -> pool3/3x3_s2_pool3/3x3_s2_0_split_2
I0403 16:58:13.697407 20158 net.cpp:399] pool3/3x3_s2_pool3/3x3_s2_0_split -> pool3/3x3_s2_pool3/3x3_s2_0_split_3
I0403 16:58:13.697480 20158 net.cpp:141] Setting up pool3/3x3_s2_pool3/3x3_s2_0_split
I0403 16:58:13.697505 20158 net.cpp:148] Top shape: 24 480 14 14 (2257920)
I0403 16:58:13.697522 20158 net.cpp:148] Top shape: 24 480 14 14 (2257920)
I0403 16:58:13.697537 20158 net.cpp:148] Top shape: 24 480 14 14 (2257920)
I0403 16:58:13.697551 20158 net.cpp:148] Top shape: 24 480 14 14 (2257920)
I0403 16:58:13.697564 20158 net.cpp:156] Memory required for data: 854397984
I0403 16:58:13.697582 20158 layer_factory.hpp:77] Creating layer inception_4a/1x1
I0403 16:58:13.697605 20158 net.cpp:91] Creating Layer inception_4a/1x1
I0403 16:58:13.697623 20158 net.cpp:425] inception_4a/1x1 <- pool3/3x3_s2_pool3/3x3_s2_0_split_0
I0403 16:58:13.697641 20158 net.cpp:399] inception_4a/1x1 -> inception_4a/1x1
I0403 16:58:13.699141 20158 net.cpp:141] Setting up inception_4a/1x1
I0403 16:58:13.699168 20158 net.cpp:148] Top shape: 24 192 14 14 (903168)
I0403 16:58:13.699183 20158 net.cpp:156] Memory required for data: 858010656
I0403 16:58:13.699201 20158 layer_factory.hpp:77] Creating layer inception_4a/relu_1x1
I0403 16:58:13.699218 20158 net.cpp:91] Creating Layer inception_4a/relu_1x1
I0403 16:58:13.699234 20158 net.cpp:425] inception_4a/relu_1x1 <- inception_4a/1x1
I0403 16:58:13.699254 20158 net.cpp:386] inception_4a/relu_1x1 -> inception_4a/1x1 (in-place)
I0403 16:58:13.699419 20158 net.cpp:141] Setting up inception_4a/relu_1x1
I0403 16:58:13.699443 20158 net.cpp:148] Top shape: 24 192 14 14 (903168)
I0403 16:58:13.699457 20158 net.cpp:156] Memory required for data: 861623328
I0403 16:58:13.699471 20158 layer_factory.hpp:77] Creating layer inception_4a/3x3_reduce
I0403 16:58:13.699492 20158 net.cpp:91] Creating Layer inception_4a/3x3_reduce
I0403 16:58:13.699509 20158 net.cpp:425] inception_4a/3x3_reduce <- pool3/3x3_s2_pool3/3x3_s2_0_split_1
I0403 16:58:13.699529 20158 net.cpp:399] inception_4a/3x3_reduce -> inception_4a/3x3_reduce
I0403 16:58:13.700784 20158 net.cpp:141] Setting up inception_4a/3x3_reduce
I0403 16:58:13.700812 20158 net.cpp:148] Top shape: 24 96 14 14 (451584)
I0403 16:58:13.700829 20158 net.cpp:156] Memory required for data: 863429664
I0403 16:58:13.700853 20158 layer_factory.hpp:77] Creating layer inception_4a/relu_3x3_reduce
I0403 16:58:13.700875 20158 net.cpp:91] Creating Layer inception_4a/relu_3x3_reduce
I0403 16:58:13.700891 20158 net.cpp:425] inception_4a/relu_3x3_reduce <- inception_4a/3x3_reduce
I0403 16:58:13.700911 20158 net.cpp:386] inception_4a/relu_3x3_reduce -> inception_4a/3x3_reduce (in-place)
I0403 16:58:13.701094 20158 net.cpp:141] Setting up inception_4a/relu_3x3_reduce
I0403 16:58:13.701119 20158 net.cpp:148] Top shape: 24 96 14 14 (451584)
I0403 16:58:13.701134 20158 net.cpp:156] Memory required for data: 865236000
I0403 16:58:13.701149 20158 layer_factory.hpp:77] Creating layer inception_4a/3x3
I0403 16:58:13.701170 20158 net.cpp:91] Creating Layer inception_4a/3x3
I0403 16:58:13.701187 20158 net.cpp:425] inception_4a/3x3 <- inception_4a/3x3_reduce
I0403 16:58:13.701210 20158 net.cpp:399] inception_4a/3x3 -> inception_4a/3x3
I0403 16:58:13.703791 20158 net.cpp:141] Setting up inception_4a/3x3
I0403 16:58:13.703819 20158 net.cpp:148] Top shape: 24 208 14 14 (978432)
I0403 16:58:13.703835 20158 net.cpp:156] Memory required for data: 869149728
I0403 16:58:13.703852 20158 layer_factory.hpp:77] Creating layer inception_4a/relu_3x3
I0403 16:58:13.703872 20158 net.cpp:91] Creating Layer inception_4a/relu_3x3
I0403 16:58:13.703891 20158 net.cpp:425] inception_4a/relu_3x3 <- inception_4a/3x3
I0403 16:58:13.703907 20158 net.cpp:386] inception_4a/relu_3x3 -> inception_4a/3x3 (in-place)
I0403 16:58:13.704181 20158 net.cpp:141] Setting up inception_4a/relu_3x3
I0403 16:58:13.704208 20158 net.cpp:148] Top shape: 24 208 14 14 (978432)
I0403 16:58:13.704223 20158 net.cpp:156] Memory required for data: 873063456
I0403 16:58:13.704238 20158 layer_factory.hpp:77] Creating layer inception_4a/5x5_reduce
I0403 16:58:13.704259 20158 net.cpp:91] Creating Layer inception_4a/5x5_reduce
I0403 16:58:13.704278 20158 net.cpp:425] inception_4a/5x5_reduce <- pool3/3x3_s2_pool3/3x3_s2_0_split_2
I0403 16:58:13.704299 20158 net.cpp:399] inception_4a/5x5_reduce -> inception_4a/5x5_reduce
I0403 16:58:13.705293 20158 net.cpp:141] Setting up inception_4a/5x5_reduce
I0403 16:58:13.705322 20158 net.cpp:148] Top shape: 24 16 14 14 (75264)
I0403 16:58:13.705337 20158 net.cpp:156] Memory required for data: 873364512
I0403 16:58:13.705354 20158 layer_factory.hpp:77] Creating layer inception_4a/relu_5x5_reduce
I0403 16:58:13.705374 20158 net.cpp:91] Creating Layer inception_4a/relu_5x5_reduce
I0403 16:58:13.705391 20158 net.cpp:425] inception_4a/relu_5x5_reduce <- inception_4a/5x5_reduce
I0403 16:58:13.705410 20158 net.cpp:386] inception_4a/relu_5x5_reduce -> inception_4a/5x5_reduce (in-place)
I0403 16:58:13.705595 20158 net.cpp:141] Setting up inception_4a/relu_5x5_reduce
I0403 16:58:13.705623 20158 net.cpp:148] Top shape: 24 16 14 14 (75264)
I0403 16:58:13.705639 20158 net.cpp:156] Memory required for data: 873665568
I0403 16:58:13.705654 20158 layer_factory.hpp:77] Creating layer inception_4a/5x5
I0403 16:58:13.705675 20158 net.cpp:91] Creating Layer inception_4a/5x5
I0403 16:58:13.705693 20158 net.cpp:425] inception_4a/5x5 <- inception_4a/5x5_reduce
I0403 16:58:13.705711 20158 net.cpp:399] inception_4a/5x5 -> inception_4a/5x5
I0403 16:58:13.706763 20158 net.cpp:141] Setting up inception_4a/5x5
I0403 16:58:13.706794 20158 net.cpp:148] Top shape: 24 48 14 14 (225792)
I0403 16:58:13.706810 20158 net.cpp:156] Memory required for data: 874568736
I0403 16:58:13.706830 20158 layer_factory.hpp:77] Creating layer inception_4a/relu_5x5
I0403 16:58:13.706847 20158 net.cpp:91] Creating Layer inception_4a/relu_5x5
I0403 16:58:13.706864 20158 net.cpp:425] inception_4a/relu_5x5 <- inception_4a/5x5
I0403 16:58:13.706884 20158 net.cpp:386] inception_4a/relu_5x5 -> inception_4a/5x5 (in-place)
I0403 16:58:13.707059 20158 net.cpp:141] Setting up inception_4a/relu_5x5
I0403 16:58:13.707084 20158 net.cpp:148] Top shape: 24 48 14 14 (225792)
I0403 16:58:13.707099 20158 net.cpp:156] Memory required for data: 875471904
I0403 16:58:13.707113 20158 layer_factory.hpp:77] Creating layer inception_4a/pool
I0403 16:58:13.707132 20158 net.cpp:91] Creating Layer inception_4a/pool
I0403 16:58:13.707149 20158 net.cpp:425] inception_4a/pool <- pool3/3x3_s2_pool3/3x3_s2_0_split_3
I0403 16:58:13.707170 20158 net.cpp:399] inception_4a/pool -> inception_4a/pool
I0403 16:58:13.707231 20158 net.cpp:141] Setting up inception_4a/pool
I0403 16:58:13.707253 20158 net.cpp:148] Top shape: 24 480 14 14 (2257920)
I0403 16:58:13.707268 20158 net.cpp:156] Memory required for data: 884503584
I0403 16:58:13.707283 20158 layer_factory.hpp:77] Creating layer inception_4a/pool_proj
I0403 16:58:13.707304 20158 net.cpp:91] Creating Layer inception_4a/pool_proj
I0403 16:58:13.707322 20158 net.cpp:425] inception_4a/pool_proj <- inception_4a/pool
I0403 16:58:13.707342 20158 net.cpp:399] inception_4a/pool_proj -> inception_4a/pool_proj
I0403 16:58:13.708463 20158 net.cpp:141] Setting up inception_4a/pool_proj
I0403 16:58:13.708492 20158 net.cpp:148] Top shape: 24 64 14 14 (301056)
I0403 16:58:13.708521 20158 net.cpp:156] Memory required for data: 885707808
I0403 16:58:13.708541 20158 layer_factory.hpp:77] Creating layer inception_4a/relu_pool_proj
I0403 16:58:13.708559 20158 net.cpp:91] Creating Layer inception_4a/relu_pool_proj
I0403 16:58:13.708580 20158 net.cpp:425] inception_4a/relu_pool_proj <- inception_4a/pool_proj
I0403 16:58:13.708602 20158 net.cpp:386] inception_4a/relu_pool_proj -> inception_4a/pool_proj (in-place)
I0403 16:58:13.708878 20158 net.cpp:141] Setting up inception_4a/relu_pool_proj
I0403 16:58:13.708904 20158 net.cpp:148] Top shape: 24 64 14 14 (301056)
I0403 16:58:13.708920 20158 net.cpp:156] Memory required for data: 886912032
I0403 16:58:13.708935 20158 layer_factory.hpp:77] Creating layer inception_4a/output
I0403 16:58:13.708951 20158 net.cpp:91] Creating Layer inception_4a/output
I0403 16:58:13.708966 20158 net.cpp:425] inception_4a/output <- inception_4a/1x1
I0403 16:58:13.708981 20158 net.cpp:425] inception_4a/output <- inception_4a/3x3
I0403 16:58:13.708997 20158 net.cpp:425] inception_4a/output <- inception_4a/5x5
I0403 16:58:13.709013 20158 net.cpp:425] inception_4a/output <- inception_4a/pool_proj
I0403 16:58:13.709034 20158 net.cpp:399] inception_4a/output -> inception_4a/output
I0403 16:58:13.709079 20158 net.cpp:141] Setting up inception_4a/output
I0403 16:58:13.709105 20158 net.cpp:148] Top shape: 24 512 14 14 (2408448)
I0403 16:58:13.709120 20158 net.cpp:156] Memory required for data: 896545824
I0403 16:58:13.709136 20158 layer_factory.hpp:77] Creating layer inception_4a/output_inception_4a/output_0_split
I0403 16:58:13.709151 20158 net.cpp:91] Creating Layer inception_4a/output_inception_4a/output_0_split
I0403 16:58:13.709167 20158 net.cpp:425] inception_4a/output_inception_4a/output_0_split <- inception_4a/output
I0403 16:58:13.709183 20158 net.cpp:399] inception_4a/output_inception_4a/output_0_split -> inception_4a/output_inception_4a/output_0_split_0
I0403 16:58:13.709205 20158 net.cpp:399] inception_4a/output_inception_4a/output_0_split -> inception_4a/output_inception_4a/output_0_split_1
I0403 16:58:13.709228 20158 net.cpp:399] inception_4a/output_inception_4a/output_0_split -> inception_4a/output_inception_4a/output_0_split_2
I0403 16:58:13.709247 20158 net.cpp:399] inception_4a/output_inception_4a/output_0_split -> inception_4a/output_inception_4a/output_0_split_3
I0403 16:58:13.709266 20158 net.cpp:399] inception_4a/output_inception_4a/output_0_split -> inception_4a/output_inception_4a/output_0_split_4
I0403 16:58:13.709357 20158 net.cpp:141] Setting up inception_4a/output_inception_4a/output_0_split
I0403 16:58:13.709379 20158 net.cpp:148] Top shape: 24 512 14 14 (2408448)
I0403 16:58:13.709396 20158 net.cpp:148] Top shape: 24 512 14 14 (2408448)
I0403 16:58:13.709411 20158 net.cpp:148] Top shape: 24 512 14 14 (2408448)
I0403 16:58:13.709426 20158 net.cpp:148] Top shape: 24 512 14 14 (2408448)
I0403 16:58:13.709440 20158 net.cpp:148] Top shape: 24 512 14 14 (2408448)
I0403 16:58:13.709455 20158 net.cpp:156] Memory required for data: 944714784
I0403 16:58:13.709470 20158 layer_factory.hpp:77] Creating layer loss1/ave_pool
I0403 16:58:13.709488 20158 net.cpp:91] Creating Layer loss1/ave_pool
I0403 16:58:13.709503 20158 net.cpp:425] loss1/ave_pool <- inception_4a/output_inception_4a/output_0_split_0
I0403 16:58:13.709520 20158 net.cpp:399] loss1/ave_pool -> loss1/ave_pool
I0403 16:58:13.709724 20158 net.cpp:141] Setting up loss1/ave_pool
I0403 16:58:13.709750 20158 net.cpp:148] Top shape: 24 512 4 4 (196608)
I0403 16:58:13.709765 20158 net.cpp:156] Memory required for data: 945501216
I0403 16:58:13.709780 20158 layer_factory.hpp:77] Creating layer loss1/conv
I0403 16:58:13.709802 20158 net.cpp:91] Creating Layer loss1/conv
I0403 16:58:13.709820 20158 net.cpp:425] loss1/conv <- loss1/ave_pool
I0403 16:58:13.709841 20158 net.cpp:399] loss1/conv -> loss1/conv
I0403 16:58:13.711190 20158 net.cpp:141] Setting up loss1/conv
I0403 16:58:13.711220 20158 net.cpp:148] Top shape: 24 128 4 4 (49152)
I0403 16:58:13.711235 20158 net.cpp:156] Memory required for data: 945697824
I0403 16:58:13.711267 20158 layer_factory.hpp:77] Creating layer loss1/relu_conv
I0403 16:58:13.711288 20158 net.cpp:91] Creating Layer loss1/relu_conv
I0403 16:58:13.711305 20158 net.cpp:425] loss1/relu_conv <- loss1/conv
I0403 16:58:13.711323 20158 net.cpp:386] loss1/relu_conv -> loss1/conv (in-place)
I0403 16:58:13.711601 20158 net.cpp:141] Setting up loss1/relu_conv
I0403 16:58:13.711627 20158 net.cpp:148] Top shape: 24 128 4 4 (49152)
I0403 16:58:13.711642 20158 net.cpp:156] Memory required for data: 945894432
I0403 16:58:13.711658 20158 layer_factory.hpp:77] Creating layer loss1/fc
I0403 16:58:13.711681 20158 net.cpp:91] Creating Layer loss1/fc
I0403 16:58:13.711700 20158 net.cpp:425] loss1/fc <- loss1/conv
I0403 16:58:13.711719 20158 net.cpp:399] loss1/fc -> loss1/fc
I0403 16:58:13.728652 20158 net.cpp:141] Setting up loss1/fc
I0403 16:58:13.728683 20158 net.cpp:148] Top shape: 24 1024 (24576)
I0403 16:58:13.728699 20158 net.cpp:156] Memory required for data: 945992736
I0403 16:58:13.728716 20158 layer_factory.hpp:77] Creating layer loss1/relu_fc
I0403 16:58:13.728734 20158 net.cpp:91] Creating Layer loss1/relu_fc
I0403 16:58:13.728749 20158 net.cpp:425] loss1/relu_fc <- loss1/fc
I0403 16:58:13.728768 20158 net.cpp:386] loss1/relu_fc -> loss1/fc (in-place)
I0403 16:58:13.728958 20158 net.cpp:141] Setting up loss1/relu_fc
I0403 16:58:13.728984 20158 net.cpp:148] Top shape: 24 1024 (24576)
I0403 16:58:13.728998 20158 net.cpp:156] Memory required for data: 946091040
I0403 16:58:13.729012 20158 layer_factory.hpp:77] Creating layer loss1/drop_fc
I0403 16:58:13.729038 20158 net.cpp:91] Creating Layer loss1/drop_fc
I0403 16:58:13.729056 20158 net.cpp:425] loss1/drop_fc <- loss1/fc
I0403 16:58:13.729075 20158 net.cpp:386] loss1/drop_fc -> loss1/fc (in-place)
I0403 16:58:13.729135 20158 net.cpp:141] Setting up loss1/drop_fc
I0403 16:58:13.729161 20158 net.cpp:148] Top shape: 24 1024 (24576)
I0403 16:58:13.729176 20158 net.cpp:156] Memory required for data: 946189344
I0403 16:58:13.729190 20158 layer_factory.hpp:77] Creating layer loss1/classifier_plantvillage
I0403 16:58:13.729208 20158 net.cpp:91] Creating Layer loss1/classifier_plantvillage
I0403 16:58:13.729224 20158 net.cpp:425] loss1/classifier_plantvillage <- loss1/fc
I0403 16:58:13.729244 20158 net.cpp:399] loss1/classifier_plantvillage -> loss1/classifier_plantvillage
I0403 16:58:13.730093 20158 net.cpp:141] Setting up loss1/classifier_plantvillage
I0403 16:58:13.730119 20158 net.cpp:148] Top shape: 24 38 (912)
I0403 16:58:13.730136 20158 net.cpp:156] Memory required for data: 946192992
I0403 16:58:13.730154 20158 layer_factory.hpp:77] Creating layer loss1/classifier_plantvillage_loss1/classifier_plantvillage_0_split
I0403 16:58:13.730175 20158 net.cpp:91] Creating Layer loss1/classifier_plantvillage_loss1/classifier_plantvillage_0_split
I0403 16:58:13.730192 20158 net.cpp:425] loss1/classifier_plantvillage_loss1/classifier_plantvillage_0_split <- loss1/classifier_plantvillage
I0403 16:58:13.730209 20158 net.cpp:399] loss1/classifier_plantvillage_loss1/classifier_plantvillage_0_split -> loss1/classifier_plantvillage_loss1/classifier_plantvillage_0_split_0
I0403 16:58:13.730228 20158 net.cpp:399] loss1/classifier_plantvillage_loss1/classifier_plantvillage_0_split -> loss1/classifier_plantvillage_loss1/classifier_plantvillage_0_split_1
I0403 16:58:13.730248 20158 net.cpp:399] loss1/classifier_plantvillage_loss1/classifier_plantvillage_0_split -> loss1/classifier_plantvillage_loss1/classifier_plantvillage_0_split_2
I0403 16:58:13.730310 20158 net.cpp:141] Setting up loss1/classifier_plantvillage_loss1/classifier_plantvillage_0_split
I0403 16:58:13.730335 20158 net.cpp:148] Top shape: 24 38 (912)
I0403 16:58:13.730352 20158 net.cpp:148] Top shape: 24 38 (912)
I0403 16:58:13.730367 20158 net.cpp:148] Top shape: 24 38 (912)
I0403 16:58:13.730381 20158 net.cpp:156] Memory required for data: 946203936
I0403 16:58:13.730393 20158 layer_factory.hpp:77] Creating layer inception_4b/1x1
I0403 16:58:13.730412 20158 net.cpp:91] Creating Layer inception_4b/1x1
I0403 16:58:13.730443 20158 net.cpp:425] inception_4b/1x1 <- inception_4a/output_inception_4a/output_0_split_1
I0403 16:58:13.730463 20158 net.cpp:399] inception_4b/1x1 -> inception_4b/1x1
I0403 16:58:13.732036 20158 net.cpp:141] Setting up inception_4b/1x1
I0403 16:58:13.732064 20158 net.cpp:148] Top shape: 24 160 14 14 (752640)
I0403 16:58:13.732080 20158 net.cpp:156] Memory required for data: 949214496
I0403 16:58:13.732098 20158 layer_factory.hpp:77] Creating layer inception_4b/relu_1x1
I0403 16:58:13.732117 20158 net.cpp:91] Creating Layer inception_4b/relu_1x1
I0403 16:58:13.732134 20158 net.cpp:425] inception_4b/relu_1x1 <- inception_4b/1x1
I0403 16:58:13.732151 20158 net.cpp:386] inception_4b/relu_1x1 -> inception_4b/1x1 (in-place)
I0403 16:58:13.732321 20158 net.cpp:141] Setting up inception_4b/relu_1x1
I0403 16:58:13.732347 20158 net.cpp:148] Top shape: 24 160 14 14 (752640)
I0403 16:58:13.732363 20158 net.cpp:156] Memory required for data: 952225056
I0403 16:58:13.732377 20158 layer_factory.hpp:77] Creating layer inception_4b/3x3_reduce
I0403 16:58:13.732398 20158 net.cpp:91] Creating Layer inception_4b/3x3_reduce
I0403 16:58:13.732414 20158 net.cpp:425] inception_4b/3x3_reduce <- inception_4a/output_inception_4a/output_0_split_2
I0403 16:58:13.732434 20158 net.cpp:399] inception_4b/3x3_reduce -> inception_4b/3x3_reduce
I0403 16:58:13.733711 20158 net.cpp:141] Setting up inception_4b/3x3_reduce
I0403 16:58:13.733741 20158 net.cpp:148] Top shape: 24 112 14 14 (526848)
I0403 16:58:13.733757 20158 net.cpp:156] Memory required for data: 954332448
I0403 16:58:13.733773 20158 layer_factory.hpp:77] Creating layer inception_4b/relu_3x3_reduce
I0403 16:58:13.733791 20158 net.cpp:91] Creating Layer inception_4b/relu_3x3_reduce
I0403 16:58:13.733808 20158 net.cpp:425] inception_4b/relu_3x3_reduce <- inception_4b/3x3_reduce
I0403 16:58:13.733826 20158 net.cpp:386] inception_4b/relu_3x3_reduce -> inception_4b/3x3_reduce (in-place)
I0403 16:58:13.734096 20158 net.cpp:141] Setting up inception_4b/relu_3x3_reduce
I0403 16:58:13.734123 20158 net.cpp:148] Top shape: 24 112 14 14 (526848)
I0403 16:58:13.734138 20158 net.cpp:156] Memory required for data: 956439840
I0403 16:58:13.734153 20158 layer_factory.hpp:77] Creating layer inception_4b/3x3
I0403 16:58:13.734175 20158 net.cpp:91] Creating Layer inception_4b/3x3
I0403 16:58:13.734192 20158 net.cpp:425] inception_4b/3x3 <- inception_4b/3x3_reduce
I0403 16:58:13.734210 20158 net.cpp:399] inception_4b/3x3 -> inception_4b/3x3
I0403 16:58:13.737030 20158 net.cpp:141] Setting up inception_4b/3x3
I0403 16:58:13.737058 20158 net.cpp:148] Top shape: 24 224 14 14 (1053696)
I0403 16:58:13.737073 20158 net.cpp:156] Memory required for data: 960654624
I0403 16:58:13.737092 20158 layer_factory.hpp:77] Creating layer inception_4b/relu_3x3
I0403 16:58:13.737112 20158 net.cpp:91] Creating Layer inception_4b/relu_3x3
I0403 16:58:13.737129 20158 net.cpp:425] inception_4b/relu_3x3 <- inception_4b/3x3
I0403 16:58:13.737146 20158 net.cpp:386] inception_4b/relu_3x3 -> inception_4b/3x3 (in-place)
I0403 16:58:13.737316 20158 net.cpp:141] Setting up inception_4b/relu_3x3
I0403 16:58:13.737341 20158 net.cpp:148] Top shape: 24 224 14 14 (1053696)
I0403 16:58:13.737355 20158 net.cpp:156] Memory required for data: 964869408
I0403 16:58:13.737370 20158 layer_factory.hpp:77] Creating layer inception_4b/5x5_reduce
I0403 16:58:13.737390 20158 net.cpp:91] Creating Layer inception_4b/5x5_reduce
I0403 16:58:13.737406 20158 net.cpp:425] inception_4b/5x5_reduce <- inception_4a/output_inception_4a/output_0_split_3
I0403 16:58:13.737427 20158 net.cpp:399] inception_4b/5x5_reduce -> inception_4b/5x5_reduce
I0403 16:58:13.738451 20158 net.cpp:141] Setting up inception_4b/5x5_reduce
I0403 16:58:13.738477 20158 net.cpp:148] Top shape: 24 24 14 14 (112896)
I0403 16:58:13.738492 20158 net.cpp:156] Memory required for data: 965320992
I0403 16:58:13.738510 20158 layer_factory.hpp:77] Creating layer inception_4b/relu_5x5_reduce
I0403 16:58:13.738529 20158 net.cpp:91] Creating Layer inception_4b/relu_5x5_reduce
I0403 16:58:13.738559 20158 net.cpp:425] inception_4b/relu_5x5_reduce <- inception_4b/5x5_reduce
I0403 16:58:13.738580 20158 net.cpp:386] inception_4b/relu_5x5_reduce -> inception_4b/5x5_reduce (in-place)
I0403 16:58:13.738759 20158 net.cpp:141] Setting up inception_4b/relu_5x5_reduce
I0403 16:58:13.738782 20158 net.cpp:148] Top shape: 24 24 14 14 (112896)
I0403 16:58:13.738798 20158 net.cpp:156] Memory required for data: 965772576
I0403 16:58:13.738812 20158 layer_factory.hpp:77] Creating layer inception_4b/5x5
I0403 16:58:13.738832 20158 net.cpp:91] Creating Layer inception_4b/5x5
I0403 16:58:13.738849 20158 net.cpp:425] inception_4b/5x5 <- inception_4b/5x5_reduce
I0403 16:58:13.738870 20158 net.cpp:399] inception_4b/5x5 -> inception_4b/5x5
I0403 16:58:13.740032 20158 net.cpp:141] Setting up inception_4b/5x5
I0403 16:58:13.740059 20158 net.cpp:148] Top shape: 24 64 14 14 (301056)
I0403 16:58:13.740075 20158 net.cpp:156] Memory required for data: 966976800
I0403 16:58:13.740092 20158 layer_factory.hpp:77] Creating layer inception_4b/relu_5x5
I0403 16:58:13.740113 20158 net.cpp:91] Creating Layer inception_4b/relu_5x5
I0403 16:58:13.740128 20158 net.cpp:425] inception_4b/relu_5x5 <- inception_4b/5x5
I0403 16:58:13.740145 20158 net.cpp:386] inception_4b/relu_5x5 -> inception_4b/5x5 (in-place)
I0403 16:58:13.740417 20158 net.cpp:141] Setting up inception_4b/relu_5x5
I0403 16:58:13.740442 20158 net.cpp:148] Top shape: 24 64 14 14 (301056)
I0403 16:58:13.740456 20158 net.cpp:156] Memory required for data: 968181024
I0403 16:58:13.740470 20158 layer_factory.hpp:77] Creating layer inception_4b/pool
I0403 16:58:13.740490 20158 net.cpp:91] Creating Layer inception_4b/pool
I0403 16:58:13.740516 20158 net.cpp:425] inception_4b/pool <- inception_4a/output_inception_4a/output_0_split_4
I0403 16:58:13.740535 20158 net.cpp:399] inception_4b/pool -> inception_4b/pool
I0403 16:58:13.740600 20158 net.cpp:141] Setting up inception_4b/pool
I0403 16:58:13.740623 20158 net.cpp:148] Top shape: 24 512 14 14 (2408448)
I0403 16:58:13.740638 20158 net.cpp:156] Memory required for data: 977814816
I0403 16:58:13.740653 20158 layer_factory.hpp:77] Creating layer inception_4b/pool_proj
I0403 16:58:13.740674 20158 net.cpp:91] Creating Layer inception_4b/pool_proj
I0403 16:58:13.740691 20158 net.cpp:425] inception_4b/pool_proj <- inception_4b/pool
I0403 16:58:13.740711 20158 net.cpp:399] inception_4b/pool_proj -> inception_4b/pool_proj
I0403 16:58:13.741854 20158 net.cpp:141] Setting up inception_4b/pool_proj
I0403 16:58:13.741881 20158 net.cpp:148] Top shape: 24 64 14 14 (301056)
I0403 16:58:13.741896 20158 net.cpp:156] Memory required for data: 979019040
I0403 16:58:13.741914 20158 layer_factory.hpp:77] Creating layer inception_4b/relu_pool_proj
I0403 16:58:13.741936 20158 net.cpp:91] Creating Layer inception_4b/relu_pool_proj
I0403 16:58:13.741952 20158 net.cpp:425] inception_4b/relu_pool_proj <- inception_4b/pool_proj
I0403 16:58:13.741968 20158 net.cpp:386] inception_4b/relu_pool_proj -> inception_4b/pool_proj (in-place)
I0403 16:58:13.742142 20158 net.cpp:141] Setting up inception_4b/relu_pool_proj
I0403 16:58:13.742169 20158 net.cpp:148] Top shape: 24 64 14 14 (301056)
I0403 16:58:13.742183 20158 net.cpp:156] Memory required for data: 980223264
I0403 16:58:13.742198 20158 layer_factory.hpp:77] Creating layer inception_4b/output
I0403 16:58:13.742214 20158 net.cpp:91] Creating Layer inception_4b/output
I0403 16:58:13.742229 20158 net.cpp:425] inception_4b/output <- inception_4b/1x1
I0403 16:58:13.742244 20158 net.cpp:425] inception_4b/output <- inception_4b/3x3
I0403 16:58:13.742260 20158 net.cpp:425] inception_4b/output <- inception_4b/5x5
I0403 16:58:13.742275 20158 net.cpp:425] inception_4b/output <- inception_4b/pool_proj
I0403 16:58:13.742293 20158 net.cpp:399] inception_4b/output -> inception_4b/output
I0403 16:58:13.742337 20158 net.cpp:141] Setting up inception_4b/output
I0403 16:58:13.742360 20158 net.cpp:148] Top shape: 24 512 14 14 (2408448)
I0403 16:58:13.742374 20158 net.cpp:156] Memory required for data: 989857056
I0403 16:58:13.742403 20158 layer_factory.hpp:77] Creating layer inception_4b/output_inception_4b/output_0_split
I0403 16:58:13.742422 20158 net.cpp:91] Creating Layer inception_4b/output_inception_4b/output_0_split
I0403 16:58:13.742439 20158 net.cpp:425] inception_4b/output_inception_4b/output_0_split <- inception_4b/output
I0403 16:58:13.742458 20158 net.cpp:399] inception_4b/output_inception_4b/output_0_split -> inception_4b/output_inception_4b/output_0_split_0
I0403 16:58:13.742477 20158 net.cpp:399] inception_4b/output_inception_4b/output_0_split -> inception_4b/output_inception_4b/output_0_split_1
I0403 16:58:13.742499 20158 net.cpp:399] inception_4b/output_inception_4b/output_0_split -> inception_4b/output_inception_4b/output_0_split_2
I0403 16:58:13.742521 20158 net.cpp:399] inception_4b/output_inception_4b/output_0_split -> inception_4b/output_inception_4b/output_0_split_3
I0403 16:58:13.742605 20158 net.cpp:141] Setting up inception_4b/output_inception_4b/output_0_split
I0403 16:58:13.742630 20158 net.cpp:148] Top shape: 24 512 14 14 (2408448)
I0403 16:58:13.742645 20158 net.cpp:148] Top shape: 24 512 14 14 (2408448)
I0403 16:58:13.742660 20158 net.cpp:148] Top shape: 24 512 14 14 (2408448)
I0403 16:58:13.742674 20158 net.cpp:148] Top shape: 24 512 14 14 (2408448)
I0403 16:58:13.742687 20158 net.cpp:156] Memory required for data: 1028392224
I0403 16:58:13.742702 20158 layer_factory.hpp:77] Creating layer inception_4c/1x1
I0403 16:58:13.742722 20158 net.cpp:91] Creating Layer inception_4c/1x1
I0403 16:58:13.742740 20158 net.cpp:425] inception_4c/1x1 <- inception_4b/output_inception_4b/output_0_split_0
I0403 16:58:13.742761 20158 net.cpp:399] inception_4c/1x1 -> inception_4c/1x1
I0403 16:58:13.744113 20158 net.cpp:141] Setting up inception_4c/1x1
I0403 16:58:13.744143 20158 net.cpp:148] Top shape: 24 128 14 14 (602112)
I0403 16:58:13.744160 20158 net.cpp:156] Memory required for data: 1030800672
I0403 16:58:13.744179 20158 layer_factory.hpp:77] Creating layer inception_4c/relu_1x1
I0403 16:58:13.744196 20158 net.cpp:91] Creating Layer inception_4c/relu_1x1
I0403 16:58:13.744212 20158 net.cpp:425] inception_4c/relu_1x1 <- inception_4c/1x1
I0403 16:58:13.744231 20158 net.cpp:386] inception_4c/relu_1x1 -> inception_4c/1x1 (in-place)
I0403 16:58:13.744402 20158 net.cpp:141] Setting up inception_4c/relu_1x1
I0403 16:58:13.744427 20158 net.cpp:148] Top shape: 24 128 14 14 (602112)
I0403 16:58:13.744441 20158 net.cpp:156] Memory required for data: 1033209120
I0403 16:58:13.744456 20158 layer_factory.hpp:77] Creating layer inception_4c/3x3_reduce
I0403 16:58:13.744475 20158 net.cpp:91] Creating Layer inception_4c/3x3_reduce
I0403 16:58:13.744493 20158 net.cpp:425] inception_4c/3x3_reduce <- inception_4b/output_inception_4b/output_0_split_1
I0403 16:58:13.744513 20158 net.cpp:399] inception_4c/3x3_reduce -> inception_4c/3x3_reduce
I0403 16:58:13.746345 20158 net.cpp:141] Setting up inception_4c/3x3_reduce
I0403 16:58:13.746372 20158 net.cpp:148] Top shape: 24 128 14 14 (602112)
I0403 16:58:13.746388 20158 net.cpp:156] Memory required for data: 1035617568
I0403 16:58:13.746407 20158 layer_factory.hpp:77] Creating layer inception_4c/relu_3x3_reduce
I0403 16:58:13.746425 20158 net.cpp:91] Creating Layer inception_4c/relu_3x3_reduce
I0403 16:58:13.746444 20158 net.cpp:425] inception_4c/relu_3x3_reduce <- inception_4c/3x3_reduce
I0403 16:58:13.746460 20158 net.cpp:386] inception_4c/relu_3x3_reduce -> inception_4c/3x3_reduce (in-place)
I0403 16:58:13.746733 20158 net.cpp:141] Setting up inception_4c/relu_3x3_reduce
I0403 16:58:13.746759 20158 net.cpp:148] Top shape: 24 128 14 14 (602112)
I0403 16:58:13.746774 20158 net.cpp:156] Memory required for data: 1038026016
I0403 16:58:13.746789 20158 layer_factory.hpp:77] Creating layer inception_4c/3x3
I0403 16:58:13.746824 20158 net.cpp:91] Creating Layer inception_4c/3x3
I0403 16:58:13.746842 20158 net.cpp:425] inception_4c/3x3 <- inception_4c/3x3_reduce
I0403 16:58:13.746865 20158 net.cpp:399] inception_4c/3x3 -> inception_4c/3x3
I0403 16:58:13.750408 20158 net.cpp:141] Setting up inception_4c/3x3
I0403 16:58:13.750449 20158 net.cpp:148] Top shape: 24 256 14 14 (1204224)
I0403 16:58:13.750466 20158 net.cpp:156] Memory required for data: 1042842912
I0403 16:58:13.750499 20158 layer_factory.hpp:77] Creating layer inception_4c/relu_3x3
I0403 16:58:13.750521 20158 net.cpp:91] Creating Layer inception_4c/relu_3x3
I0403 16:58:13.750538 20158 net.cpp:425] inception_4c/relu_3x3 <- inception_4c/3x3
I0403 16:58:13.750555 20158 net.cpp:386] inception_4c/relu_3x3 -> inception_4c/3x3 (in-place)
I0403 16:58:13.750736 20158 net.cpp:141] Setting up inception_4c/relu_3x3
I0403 16:58:13.750761 20158 net.cpp:148] Top shape: 24 256 14 14 (1204224)
I0403 16:58:13.750777 20158 net.cpp:156] Memory required for data: 1047659808
I0403 16:58:13.750790 20158 layer_factory.hpp:77] Creating layer inception_4c/5x5_reduce
I0403 16:58:13.750814 20158 net.cpp:91] Creating Layer inception_4c/5x5_reduce
I0403 16:58:13.750833 20158 net.cpp:425] inception_4c/5x5_reduce <- inception_4b/output_inception_4b/output_0_split_2
I0403 16:58:13.750852 20158 net.cpp:399] inception_4c/5x5_reduce -> inception_4c/5x5_reduce
I0403 16:58:13.751919 20158 net.cpp:141] Setting up inception_4c/5x5_reduce
I0403 16:58:13.751946 20158 net.cpp:148] Top shape: 24 24 14 14 (112896)
I0403 16:58:13.751961 20158 net.cpp:156] Memory required for data: 1048111392
I0403 16:58:13.751979 20158 layer_factory.hpp:77] Creating layer inception_4c/relu_5x5_reduce
I0403 16:58:13.751999 20158 net.cpp:91] Creating Layer inception_4c/relu_5x5_reduce
I0403 16:58:13.752017 20158 net.cpp:425] inception_4c/relu_5x5_reduce <- inception_4c/5x5_reduce
I0403 16:58:13.752033 20158 net.cpp:386] inception_4c/relu_5x5_reduce -> inception_4c/5x5_reduce (in-place)
I0403 16:58:13.752213 20158 net.cpp:141] Setting up inception_4c/relu_5x5_reduce
I0403 16:58:13.752241 20158 net.cpp:148] Top shape: 24 24 14 14 (112896)
I0403 16:58:13.752256 20158 net.cpp:156] Memory required for data: 1048562976
I0403 16:58:13.752271 20158 layer_factory.hpp:77] Creating layer inception_4c/5x5
I0403 16:58:13.752292 20158 net.cpp:91] Creating Layer inception_4c/5x5
I0403 16:58:13.752311 20158 net.cpp:425] inception_4c/5x5 <- inception_4c/5x5_reduce
I0403 16:58:13.752332 20158 net.cpp:399] inception_4c/5x5 -> inception_4c/5x5
I0403 16:58:13.753538 20158 net.cpp:141] Setting up inception_4c/5x5
I0403 16:58:13.753568 20158 net.cpp:148] Top shape: 24 64 14 14 (301056)
I0403 16:58:13.753590 20158 net.cpp:156] Memory required for data: 1049767200
I0403 16:58:13.753608 20158 layer_factory.hpp:77] Creating layer inception_4c/relu_5x5
I0403 16:58:13.753628 20158 net.cpp:91] Creating Layer inception_4c/relu_5x5
I0403 16:58:13.753644 20158 net.cpp:425] inception_4c/relu_5x5 <- inception_4c/5x5
I0403 16:58:13.753664 20158 net.cpp:386] inception_4c/relu_5x5 -> inception_4c/5x5 (in-place)
I0403 16:58:13.753942 20158 net.cpp:141] Setting up inception_4c/relu_5x5
I0403 16:58:13.753970 20158 net.cpp:148] Top shape: 24 64 14 14 (301056)
I0403 16:58:13.753986 20158 net.cpp:156] Memory required for data: 1050971424
I0403 16:58:13.754003 20158 layer_factory.hpp:77] Creating layer inception_4c/pool
I0403 16:58:13.754019 20158 net.cpp:91] Creating Layer inception_4c/pool
I0403 16:58:13.754034 20158 net.cpp:425] inception_4c/pool <- inception_4b/output_inception_4b/output_0_split_3
I0403 16:58:13.754053 20158 net.cpp:399] inception_4c/pool -> inception_4c/pool
I0403 16:58:13.754117 20158 net.cpp:141] Setting up inception_4c/pool
I0403 16:58:13.754139 20158 net.cpp:148] Top shape: 24 512 14 14 (2408448)
I0403 16:58:13.754154 20158 net.cpp:156] Memory required for data: 1060605216
I0403 16:58:13.754169 20158 layer_factory.hpp:77] Creating layer inception_4c/pool_proj
I0403 16:58:13.754191 20158 net.cpp:91] Creating Layer inception_4c/pool_proj
I0403 16:58:13.754209 20158 net.cpp:425] inception_4c/pool_proj <- inception_4c/pool
I0403 16:58:13.754228 20158 net.cpp:399] inception_4c/pool_proj -> inception_4c/pool_proj
I0403 16:58:13.755409 20158 net.cpp:141] Setting up inception_4c/pool_proj
I0403 16:58:13.755436 20158 net.cpp:148] Top shape: 24 64 14 14 (301056)
I0403 16:58:13.755466 20158 net.cpp:156] Memory required for data: 1061809440
I0403 16:58:13.755486 20158 layer_factory.hpp:77] Creating layer inception_4c/relu_pool_proj
I0403 16:58:13.755506 20158 net.cpp:91] Creating Layer inception_4c/relu_pool_proj
I0403 16:58:13.755522 20158 net.cpp:425] inception_4c/relu_pool_proj <- inception_4c/pool_proj
I0403 16:58:13.755539 20158 net.cpp:386] inception_4c/relu_pool_proj -> inception_4c/pool_proj (in-place)
I0403 16:58:13.755728 20158 net.cpp:141] Setting up inception_4c/relu_pool_proj
I0403 16:58:13.755756 20158 net.cpp:148] Top shape: 24 64 14 14 (301056)
I0403 16:58:13.755774 20158 net.cpp:156] Memory required for data: 1063013664
I0403 16:58:13.755789 20158 layer_factory.hpp:77] Creating layer inception_4c/output
I0403 16:58:13.755805 20158 net.cpp:91] Creating Layer inception_4c/output
I0403 16:58:13.755820 20158 net.cpp:425] inception_4c/output <- inception_4c/1x1
I0403 16:58:13.755836 20158 net.cpp:425] inception_4c/output <- inception_4c/3x3
I0403 16:58:13.755852 20158 net.cpp:425] inception_4c/output <- inception_4c/5x5
I0403 16:58:13.755867 20158 net.cpp:425] inception_4c/output <- inception_4c/pool_proj
I0403 16:58:13.755887 20158 net.cpp:399] inception_4c/output -> inception_4c/output
I0403 16:58:13.755931 20158 net.cpp:141] Setting up inception_4c/output
I0403 16:58:13.755955 20158 net.cpp:148] Top shape: 24 512 14 14 (2408448)
I0403 16:58:13.755970 20158 net.cpp:156] Memory required for data: 1072647456
I0403 16:58:13.755983 20158 layer_factory.hpp:77] Creating layer inception_4c/output_inception_4c/output_0_split
I0403 16:58:13.756002 20158 net.cpp:91] Creating Layer inception_4c/output_inception_4c/output_0_split
I0403 16:58:13.756019 20158 net.cpp:425] inception_4c/output_inception_4c/output_0_split <- inception_4c/output
I0403 16:58:13.756036 20158 net.cpp:399] inception_4c/output_inception_4c/output_0_split -> inception_4c/output_inception_4c/output_0_split_0
I0403 16:58:13.756057 20158 net.cpp:399] inception_4c/output_inception_4c/output_0_split -> inception_4c/output_inception_4c/output_0_split_1
I0403 16:58:13.756077 20158 net.cpp:399] inception_4c/output_inception_4c/output_0_split -> inception_4c/output_inception_4c/output_0_split_2
I0403 16:58:13.756100 20158 net.cpp:399] inception_4c/output_inception_4c/output_0_split -> inception_4c/output_inception_4c/output_0_split_3
I0403 16:58:13.756187 20158 net.cpp:141] Setting up inception_4c/output_inception_4c/output_0_split
I0403 16:58:13.756211 20158 net.cpp:148] Top shape: 24 512 14 14 (2408448)
I0403 16:58:13.756227 20158 net.cpp:148] Top shape: 24 512 14 14 (2408448)
I0403 16:58:13.756242 20158 net.cpp:148] Top shape: 24 512 14 14 (2408448)
I0403 16:58:13.756256 20158 net.cpp:148] Top shape: 24 512 14 14 (2408448)
I0403 16:58:13.756270 20158 net.cpp:156] Memory required for data: 1111182624
I0403 16:58:13.756284 20158 layer_factory.hpp:77] Creating layer inception_4d/1x1
I0403 16:58:13.756306 20158 net.cpp:91] Creating Layer inception_4d/1x1
I0403 16:58:13.756325 20158 net.cpp:425] inception_4d/1x1 <- inception_4c/output_inception_4c/output_0_split_0
I0403 16:58:13.756345 20158 net.cpp:399] inception_4d/1x1 -> inception_4d/1x1
I0403 16:58:13.757681 20158 net.cpp:141] Setting up inception_4d/1x1
I0403 16:58:13.757709 20158 net.cpp:148] Top shape: 24 112 14 14 (526848)
I0403 16:58:13.757725 20158 net.cpp:156] Memory required for data: 1113290016
I0403 16:58:13.757743 20158 layer_factory.hpp:77] Creating layer inception_4d/relu_1x1
I0403 16:58:13.757762 20158 net.cpp:91] Creating Layer inception_4d/relu_1x1
I0403 16:58:13.757778 20158 net.cpp:425] inception_4d/relu_1x1 <- inception_4d/1x1
I0403 16:58:13.757810 20158 net.cpp:386] inception_4d/relu_1x1 -> inception_4d/1x1 (in-place)
I0403 16:58:13.757992 20158 net.cpp:141] Setting up inception_4d/relu_1x1
I0403 16:58:13.758016 20158 net.cpp:148] Top shape: 24 112 14 14 (526848)
I0403 16:58:13.758031 20158 net.cpp:156] Memory required for data: 1115397408
I0403 16:58:13.758046 20158 layer_factory.hpp:77] Creating layer inception_4d/3x3_reduce
I0403 16:58:13.758083 20158 net.cpp:91] Creating Layer inception_4d/3x3_reduce
I0403 16:58:13.758116 20158 net.cpp:425] inception_4d/3x3_reduce <- inception_4c/output_inception_4c/output_0_split_1
I0403 16:58:13.758134 20158 net.cpp:399] inception_4d/3x3_reduce -> inception_4d/3x3_reduce
I0403 16:58:13.759600 20158 net.cpp:141] Setting up inception_4d/3x3_reduce
I0403 16:58:13.759629 20158 net.cpp:148] Top shape: 24 144 14 14 (677376)
I0403 16:58:13.759645 20158 net.cpp:156] Memory required for data: 1118106912
I0403 16:58:13.759663 20158 layer_factory.hpp:77] Creating layer inception_4d/relu_3x3_reduce
I0403 16:58:13.759680 20158 net.cpp:91] Creating Layer inception_4d/relu_3x3_reduce
I0403 16:58:13.759697 20158 net.cpp:425] inception_4d/relu_3x3_reduce <- inception_4d/3x3_reduce
I0403 16:58:13.759716 20158 net.cpp:386] inception_4d/relu_3x3_reduce -> inception_4d/3x3_reduce (in-place)
I0403 16:58:13.759997 20158 net.cpp:141] Setting up inception_4d/relu_3x3_reduce
I0403 16:58:13.760023 20158 net.cpp:148] Top shape: 24 144 14 14 (677376)
I0403 16:58:13.760038 20158 net.cpp:156] Memory required for data: 1120816416
I0403 16:58:13.760052 20158 layer_factory.hpp:77] Creating layer inception_4d/3x3
I0403 16:58:13.760074 20158 net.cpp:91] Creating Layer inception_4d/3x3
I0403 16:58:13.760092 20158 net.cpp:425] inception_4d/3x3 <- inception_4d/3x3_reduce
I0403 16:58:13.760113 20158 net.cpp:399] inception_4d/3x3 -> inception_4d/3x3
I0403 16:58:13.764317 20158 net.cpp:141] Setting up inception_4d/3x3
I0403 16:58:13.764358 20158 net.cpp:148] Top shape: 24 288 14 14 (1354752)
I0403 16:58:13.764375 20158 net.cpp:156] Memory required for data: 1126235424
I0403 16:58:13.764394 20158 layer_factory.hpp:77] Creating layer inception_4d/relu_3x3
I0403 16:58:13.764413 20158 net.cpp:91] Creating Layer inception_4d/relu_3x3
I0403 16:58:13.764431 20158 net.cpp:425] inception_4d/relu_3x3 <- inception_4d/3x3
I0403 16:58:13.764449 20158 net.cpp:386] inception_4d/relu_3x3 -> inception_4d/3x3 (in-place)
I0403 16:58:13.764652 20158 net.cpp:141] Setting up inception_4d/relu_3x3
I0403 16:58:13.764679 20158 net.cpp:148] Top shape: 24 288 14 14 (1354752)
I0403 16:58:13.764694 20158 net.cpp:156] Memory required for data: 1131654432
I0403 16:58:13.764709 20158 layer_factory.hpp:77] Creating layer inception_4d/5x5_reduce
I0403 16:58:13.764729 20158 net.cpp:91] Creating Layer inception_4d/5x5_reduce
I0403 16:58:13.764745 20158 net.cpp:425] inception_4d/5x5_reduce <- inception_4c/output_inception_4c/output_0_split_2
I0403 16:58:13.764768 20158 net.cpp:399] inception_4d/5x5_reduce -> inception_4d/5x5_reduce
I0403 16:58:13.765882 20158 net.cpp:141] Setting up inception_4d/5x5_reduce
I0403 16:58:13.765909 20158 net.cpp:148] Top shape: 24 32 14 14 (150528)
I0403 16:58:13.765924 20158 net.cpp:156] Memory required for data: 1132256544
I0403 16:58:13.765943 20158 layer_factory.hpp:77] Creating layer inception_4d/relu_5x5_reduce
I0403 16:58:13.765961 20158 net.cpp:91] Creating Layer inception_4d/relu_5x5_reduce
I0403 16:58:13.765980 20158 net.cpp:425] inception_4d/relu_5x5_reduce <- inception_4d/5x5_reduce
I0403 16:58:13.765996 20158 net.cpp:386] inception_4d/relu_5x5_reduce -> inception_4d/5x5_reduce (in-place)
I0403 16:58:13.766175 20158 net.cpp:141] Setting up inception_4d/relu_5x5_reduce
I0403 16:58:13.766198 20158 net.cpp:148] Top shape: 24 32 14 14 (150528)
I0403 16:58:13.766213 20158 net.cpp:156] Memory required for data: 1132858656
I0403 16:58:13.766227 20158 layer_factory.hpp:77] Creating layer inception_4d/5x5
I0403 16:58:13.766248 20158 net.cpp:91] Creating Layer inception_4d/5x5
I0403 16:58:13.766266 20158 net.cpp:425] inception_4d/5x5 <- inception_4d/5x5_reduce
I0403 16:58:13.766285 20158 net.cpp:399] inception_4d/5x5 -> inception_4d/5x5
I0403 16:58:13.767688 20158 net.cpp:141] Setting up inception_4d/5x5
I0403 16:58:13.767714 20158 net.cpp:148] Top shape: 24 64 14 14 (301056)
I0403 16:58:13.767729 20158 net.cpp:156] Memory required for data: 1134062880
I0403 16:58:13.767747 20158 layer_factory.hpp:77] Creating layer inception_4d/relu_5x5
I0403 16:58:13.767781 20158 net.cpp:91] Creating Layer inception_4d/relu_5x5
I0403 16:58:13.767802 20158 net.cpp:425] inception_4d/relu_5x5 <- inception_4d/5x5
I0403 16:58:13.767817 20158 net.cpp:386] inception_4d/relu_5x5 -> inception_4d/5x5 (in-place)
I0403 16:58:13.768105 20158 net.cpp:141] Setting up inception_4d/relu_5x5
I0403 16:58:13.768131 20158 net.cpp:148] Top shape: 24 64 14 14 (301056)
I0403 16:58:13.768146 20158 net.cpp:156] Memory required for data: 1135267104
I0403 16:58:13.768160 20158 layer_factory.hpp:77] Creating layer inception_4d/pool
I0403 16:58:13.768179 20158 net.cpp:91] Creating Layer inception_4d/pool
I0403 16:58:13.768195 20158 net.cpp:425] inception_4d/pool <- inception_4c/output_inception_4c/output_0_split_3
I0403 16:58:13.768215 20158 net.cpp:399] inception_4d/pool -> inception_4d/pool
I0403 16:58:13.768278 20158 net.cpp:141] Setting up inception_4d/pool
I0403 16:58:13.768302 20158 net.cpp:148] Top shape: 24 512 14 14 (2408448)
I0403 16:58:13.768317 20158 net.cpp:156] Memory required for data: 1144900896
I0403 16:58:13.768332 20158 layer_factory.hpp:77] Creating layer inception_4d/pool_proj
I0403 16:58:13.768352 20158 net.cpp:91] Creating Layer inception_4d/pool_proj
I0403 16:58:13.768369 20158 net.cpp:425] inception_4d/pool_proj <- inception_4d/pool
I0403 16:58:13.768389 20158 net.cpp:399] inception_4d/pool_proj -> inception_4d/pool_proj
I0403 16:58:13.770054 20158 net.cpp:141] Setting up inception_4d/pool_proj
I0403 16:58:13.770083 20158 net.cpp:148] Top shape: 24 64 14 14 (301056)
I0403 16:58:13.770098 20158 net.cpp:156] Memory required for data: 1146105120
I0403 16:58:13.770117 20158 layer_factory.hpp:77] Creating layer inception_4d/relu_pool_proj
I0403 16:58:13.770138 20158 net.cpp:91] Creating Layer inception_4d/relu_pool_proj
I0403 16:58:13.770153 20158 net.cpp:425] inception_4d/relu_pool_proj <- inception_4d/pool_proj
I0403 16:58:13.770170 20158 net.cpp:386] inception_4d/relu_pool_proj -> inception_4d/pool_proj (in-place)
I0403 16:58:13.770345 20158 net.cpp:141] Setting up inception_4d/relu_pool_proj
I0403 16:58:13.770372 20158 net.cpp:148] Top shape: 24 64 14 14 (301056)
I0403 16:58:13.770387 20158 net.cpp:156] Memory required for data: 1147309344
I0403 16:58:13.770401 20158 layer_factory.hpp:77] Creating layer inception_4d/output
I0403 16:58:13.770417 20158 net.cpp:91] Creating Layer inception_4d/output
I0403 16:58:13.770432 20158 net.cpp:425] inception_4d/output <- inception_4d/1x1
I0403 16:58:13.770448 20158 net.cpp:425] inception_4d/output <- inception_4d/3x3
I0403 16:58:13.770464 20158 net.cpp:425] inception_4d/output <- inception_4d/5x5
I0403 16:58:13.770480 20158 net.cpp:425] inception_4d/output <- inception_4d/pool_proj
I0403 16:58:13.770496 20158 net.cpp:399] inception_4d/output -> inception_4d/output
I0403 16:58:13.770541 20158 net.cpp:141] Setting up inception_4d/output
I0403 16:58:13.770565 20158 net.cpp:148] Top shape: 24 528 14 14 (2483712)
I0403 16:58:13.770583 20158 net.cpp:156] Memory required for data: 1157244192
I0403 16:58:13.770599 20158 layer_factory.hpp:77] Creating layer inception_4d/output_inception_4d/output_0_split
I0403 16:58:13.770617 20158 net.cpp:91] Creating Layer inception_4d/output_inception_4d/output_0_split
I0403 16:58:13.770634 20158 net.cpp:425] inception_4d/output_inception_4d/output_0_split <- inception_4d/output
I0403 16:58:13.770651 20158 net.cpp:399] inception_4d/output_inception_4d/output_0_split -> inception_4d/output_inception_4d/output_0_split_0
I0403 16:58:13.770671 20158 net.cpp:399] inception_4d/output_inception_4d/output_0_split -> inception_4d/output_inception_4d/output_0_split_1
I0403 16:58:13.770691 20158 net.cpp:399] inception_4d/output_inception_4d/output_0_split -> inception_4d/output_inception_4d/output_0_split_2
I0403 16:58:13.770712 20158 net.cpp:399] inception_4d/output_inception_4d/output_0_split -> inception_4d/output_inception_4d/output_0_split_3
I0403 16:58:13.770732 20158 net.cpp:399] inception_4d/output_inception_4d/output_0_split -> inception_4d/output_inception_4d/output_0_split_4
I0403 16:58:13.770833 20158 net.cpp:141] Setting up inception_4d/output_inception_4d/output_0_split
I0403 16:58:13.770869 20158 net.cpp:148] Top shape: 24 528 14 14 (2483712)
I0403 16:58:13.770885 20158 net.cpp:148] Top shape: 24 528 14 14 (2483712)
I0403 16:58:13.770901 20158 net.cpp:148] Top shape: 24 528 14 14 (2483712)
I0403 16:58:13.770916 20158 net.cpp:148] Top shape: 24 528 14 14 (2483712)
I0403 16:58:13.770931 20158 net.cpp:148] Top shape: 24 528 14 14 (2483712)
I0403 16:58:13.770944 20158 net.cpp:156] Memory required for data: 1206918432
I0403 16:58:13.770958 20158 layer_factory.hpp:77] Creating layer loss2/ave_pool
I0403 16:58:13.770975 20158 net.cpp:91] Creating Layer loss2/ave_pool
I0403 16:58:13.770989 20158 net.cpp:425] loss2/ave_pool <- inception_4d/output_inception_4d/output_0_split_0
I0403 16:58:13.771009 20158 net.cpp:399] loss2/ave_pool -> loss2/ave_pool
I0403 16:58:13.771306 20158 net.cpp:141] Setting up loss2/ave_pool
I0403 16:58:13.771332 20158 net.cpp:148] Top shape: 24 528 4 4 (202752)
I0403 16:58:13.771347 20158 net.cpp:156] Memory required for data: 1207729440
I0403 16:58:13.771361 20158 layer_factory.hpp:77] Creating layer loss2/conv
I0403 16:58:13.771383 20158 net.cpp:91] Creating Layer loss2/conv
I0403 16:58:13.771400 20158 net.cpp:425] loss2/conv <- loss2/ave_pool
I0403 16:58:13.771420 20158 net.cpp:399] loss2/conv -> loss2/conv
I0403 16:58:13.773206 20158 net.cpp:141] Setting up loss2/conv
I0403 16:58:13.773236 20158 net.cpp:148] Top shape: 24 128 4 4 (49152)
I0403 16:58:13.773252 20158 net.cpp:156] Memory required for data: 1207926048
I0403 16:58:13.773270 20158 layer_factory.hpp:77] Creating layer loss2/relu_conv
I0403 16:58:13.773288 20158 net.cpp:91] Creating Layer loss2/relu_conv
I0403 16:58:13.773303 20158 net.cpp:425] loss2/relu_conv <- loss2/conv
I0403 16:58:13.773320 20158 net.cpp:386] loss2/relu_conv -> loss2/conv (in-place)
I0403 16:58:13.773594 20158 net.cpp:141] Setting up loss2/relu_conv
I0403 16:58:13.773623 20158 net.cpp:148] Top shape: 24 128 4 4 (49152)
I0403 16:58:13.773639 20158 net.cpp:156] Memory required for data: 1208122656
I0403 16:58:13.773653 20158 layer_factory.hpp:77] Creating layer loss2/fc
I0403 16:58:13.773671 20158 net.cpp:91] Creating Layer loss2/fc
I0403 16:58:13.773687 20158 net.cpp:425] loss2/fc <- loss2/conv
I0403 16:58:13.773707 20158 net.cpp:399] loss2/fc -> loss2/fc
I0403 16:58:13.790424 20158 net.cpp:141] Setting up loss2/fc
I0403 16:58:13.790457 20158 net.cpp:148] Top shape: 24 1024 (24576)
I0403 16:58:13.790473 20158 net.cpp:156] Memory required for data: 1208220960
I0403 16:58:13.790493 20158 layer_factory.hpp:77] Creating layer loss2/relu_fc
I0403 16:58:13.790511 20158 net.cpp:91] Creating Layer loss2/relu_fc
I0403 16:58:13.790527 20158 net.cpp:425] loss2/relu_fc <- loss2/fc
I0403 16:58:13.790544 20158 net.cpp:386] loss2/relu_fc -> loss2/fc (in-place)
I0403 16:58:13.790827 20158 net.cpp:141] Setting up loss2/relu_fc
I0403 16:58:13.790853 20158 net.cpp:148] Top shape: 24 1024 (24576)
I0403 16:58:13.790868 20158 net.cpp:156] Memory required for data: 1208319264
I0403 16:58:13.790884 20158 layer_factory.hpp:77] Creating layer loss2/drop_fc
I0403 16:58:13.790904 20158 net.cpp:91] Creating Layer loss2/drop_fc
I0403 16:58:13.790920 20158 net.cpp:425] loss2/drop_fc <- loss2/fc
I0403 16:58:13.790936 20158 net.cpp:386] loss2/drop_fc -> loss2/fc (in-place)
I0403 16:58:13.790982 20158 net.cpp:141] Setting up loss2/drop_fc
I0403 16:58:13.791005 20158 net.cpp:148] Top shape: 24 1024 (24576)
I0403 16:58:13.791020 20158 net.cpp:156] Memory required for data: 1208417568
I0403 16:58:13.791034 20158 layer_factory.hpp:77] Creating layer loss2/classifier_plantvillage
I0403 16:58:13.791052 20158 net.cpp:91] Creating Layer loss2/classifier_plantvillage
I0403 16:58:13.791067 20158 net.cpp:425] loss2/classifier_plantvillage <- loss2/fc
I0403 16:58:13.791086 20158 net.cpp:399] loss2/classifier_plantvillage -> loss2/classifier_plantvillage
I0403 16:58:13.791465 20158 net.cpp:141] Setting up loss2/classifier_plantvillage
I0403 16:58:13.791488 20158 net.cpp:148] Top shape: 24 38 (912)
I0403 16:58:13.791503 20158 net.cpp:156] Memory required for data: 1208421216
I0403 16:58:13.791537 20158 layer_factory.hpp:77] Creating layer loss2/classifier_plantvillage_loss2/classifier_plantvillage_0_split
I0403 16:58:13.791554 20158 net.cpp:91] Creating Layer loss2/classifier_plantvillage_loss2/classifier_plantvillage_0_split
I0403 16:58:13.791574 20158 net.cpp:425] loss2/classifier_plantvillage_loss2/classifier_plantvillage_0_split <- loss2/classifier_plantvillage
I0403 16:58:13.791592 20158 net.cpp:399] loss2/classifier_plantvillage_loss2/classifier_plantvillage_0_split -> loss2/classifier_plantvillage_loss2/classifier_plantvillage_0_split_0
I0403 16:58:13.791615 20158 net.cpp:399] loss2/classifier_plantvillage_loss2/classifier_plantvillage_0_split -> loss2/classifier_plantvillage_loss2/classifier_plantvillage_0_split_1
I0403 16:58:13.791637 20158 net.cpp:399] loss2/classifier_plantvillage_loss2/classifier_plantvillage_0_split -> loss2/classifier_plantvillage_loss2/classifier_plantvillage_0_split_2
I0403 16:58:13.791710 20158 net.cpp:141] Setting up loss2/classifier_plantvillage_loss2/classifier_plantvillage_0_split
I0403 16:58:13.791735 20158 net.cpp:148] Top shape: 24 38 (912)
I0403 16:58:13.791752 20158 net.cpp:148] Top shape: 24 38 (912)
I0403 16:58:13.791767 20158 net.cpp:148] Top shape: 24 38 (912)
I0403 16:58:13.791780 20158 net.cpp:156] Memory required for data: 1208432160
I0403 16:58:13.791795 20158 layer_factory.hpp:77] Creating layer inception_4e/1x1
I0403 16:58:13.791813 20158 net.cpp:91] Creating Layer inception_4e/1x1
I0403 16:58:13.791829 20158 net.cpp:425] inception_4e/1x1 <- inception_4d/output_inception_4d/output_0_split_1
I0403 16:58:13.791849 20158 net.cpp:399] inception_4e/1x1 -> inception_4e/1x1
I0403 16:58:13.793560 20158 net.cpp:141] Setting up inception_4e/1x1
I0403 16:58:13.793592 20158 net.cpp:148] Top shape: 24 256 14 14 (1204224)
I0403 16:58:13.793611 20158 net.cpp:156] Memory required for data: 1213249056
I0403 16:58:13.793628 20158 layer_factory.hpp:77] Creating layer inception_4e/relu_1x1
I0403 16:58:13.793644 20158 net.cpp:91] Creating Layer inception_4e/relu_1x1
I0403 16:58:13.793659 20158 net.cpp:425] inception_4e/relu_1x1 <- inception_4e/1x1
I0403 16:58:13.793678 20158 net.cpp:386] inception_4e/relu_1x1 -> inception_4e/1x1 (in-place)
I0403 16:58:13.793959 20158 net.cpp:141] Setting up inception_4e/relu_1x1
I0403 16:58:13.793987 20158 net.cpp:148] Top shape: 24 256 14 14 (1204224)
I0403 16:58:13.794003 20158 net.cpp:156] Memory required for data: 1218065952
I0403 16:58:13.794018 20158 layer_factory.hpp:77] Creating layer inception_4e/3x3_reduce
I0403 16:58:13.794039 20158 net.cpp:91] Creating Layer inception_4e/3x3_reduce
I0403 16:58:13.794055 20158 net.cpp:425] inception_4e/3x3_reduce <- inception_4d/output_inception_4d/output_0_split_2
I0403 16:58:13.794073 20158 net.cpp:399] inception_4e/3x3_reduce -> inception_4e/3x3_reduce
I0403 16:58:13.796114 20158 net.cpp:141] Setting up inception_4e/3x3_reduce
I0403 16:58:13.796145 20158 net.cpp:148] Top shape: 24 160 14 14 (752640)
I0403 16:58:13.796161 20158 net.cpp:156] Memory required for data: 1221076512
I0403 16:58:13.796180 20158 layer_factory.hpp:77] Creating layer inception_4e/relu_3x3_reduce
I0403 16:58:13.796196 20158 net.cpp:91] Creating Layer inception_4e/relu_3x3_reduce
I0403 16:58:13.796212 20158 net.cpp:425] inception_4e/relu_3x3_reduce <- inception_4e/3x3_reduce
I0403 16:58:13.796229 20158 net.cpp:386] inception_4e/relu_3x3_reduce -> inception_4e/3x3_reduce (in-place)
I0403 16:58:13.796406 20158 net.cpp:141] Setting up inception_4e/relu_3x3_reduce
I0403 16:58:13.796433 20158 net.cpp:148] Top shape: 24 160 14 14 (752640)
I0403 16:58:13.796448 20158 net.cpp:156] Memory required for data: 1224087072
I0403 16:58:13.796463 20158 layer_factory.hpp:77] Creating layer inception_4e/3x3
I0403 16:58:13.796483 20158 net.cpp:91] Creating Layer inception_4e/3x3
I0403 16:58:13.796501 20158 net.cpp:425] inception_4e/3x3 <- inception_4e/3x3_reduce
I0403 16:58:13.796519 20158 net.cpp:399] inception_4e/3x3 -> inception_4e/3x3
I0403 16:58:13.801306 20158 net.cpp:141] Setting up inception_4e/3x3
I0403 16:58:13.801348 20158 net.cpp:148] Top shape: 24 320 14 14 (1505280)
I0403 16:58:13.801367 20158 net.cpp:156] Memory required for data: 1230108192
I0403 16:58:13.801385 20158 layer_factory.hpp:77] Creating layer inception_4e/relu_3x3
I0403 16:58:13.801403 20158 net.cpp:91] Creating Layer inception_4e/relu_3x3
I0403 16:58:13.801419 20158 net.cpp:425] inception_4e/relu_3x3 <- inception_4e/3x3
I0403 16:58:13.801440 20158 net.cpp:386] inception_4e/relu_3x3 -> inception_4e/3x3 (in-place)
I0403 16:58:13.801729 20158 net.cpp:141] Setting up inception_4e/relu_3x3
I0403 16:58:13.801755 20158 net.cpp:148] Top shape: 24 320 14 14 (1505280)
I0403 16:58:13.801770 20158 net.cpp:156] Memory required for data: 1236129312
I0403 16:58:13.801784 20158 layer_factory.hpp:77] Creating layer inception_4e/5x5_reduce
I0403 16:58:13.801807 20158 net.cpp:91] Creating Layer inception_4e/5x5_reduce
I0403 16:58:13.801826 20158 net.cpp:425] inception_4e/5x5_reduce <- inception_4d/output_inception_4d/output_0_split_3
I0403 16:58:13.801847 20158 net.cpp:399] inception_4e/5x5_reduce -> inception_4e/5x5_reduce
I0403 16:58:13.802881 20158 net.cpp:141] Setting up inception_4e/5x5_reduce
I0403 16:58:13.802907 20158 net.cpp:148] Top shape: 24 32 14 14 (150528)
I0403 16:58:13.802923 20158 net.cpp:156] Memory required for data: 1236731424
I0403 16:58:13.802942 20158 layer_factory.hpp:77] Creating layer inception_4e/relu_5x5_reduce
I0403 16:58:13.802961 20158 net.cpp:91] Creating Layer inception_4e/relu_5x5_reduce
I0403 16:58:13.802979 20158 net.cpp:425] inception_4e/relu_5x5_reduce <- inception_4e/5x5_reduce
I0403 16:58:13.802996 20158 net.cpp:386] inception_4e/relu_5x5_reduce -> inception_4e/5x5_reduce (in-place)
I0403 16:58:13.803287 20158 net.cpp:141] Setting up inception_4e/relu_5x5_reduce
I0403 16:58:13.803313 20158 net.cpp:148] Top shape: 24 32 14 14 (150528)
I0403 16:58:13.803328 20158 net.cpp:156] Memory required for data: 1237333536
I0403 16:58:13.803344 20158 layer_factory.hpp:77] Creating layer inception_4e/5x5
I0403 16:58:13.803381 20158 net.cpp:91] Creating Layer inception_4e/5x5
I0403 16:58:13.803400 20158 net.cpp:425] inception_4e/5x5 <- inception_4e/5x5_reduce
I0403 16:58:13.803419 20158 net.cpp:399] inception_4e/5x5 -> inception_4e/5x5
I0403 16:58:13.805200 20158 net.cpp:141] Setting up inception_4e/5x5
I0403 16:58:13.805228 20158 net.cpp:148] Top shape: 24 128 14 14 (602112)
I0403 16:58:13.805244 20158 net.cpp:156] Memory required for data: 1239741984
I0403 16:58:13.805263 20158 layer_factory.hpp:77] Creating layer inception_4e/relu_5x5
I0403 16:58:13.805285 20158 net.cpp:91] Creating Layer inception_4e/relu_5x5
I0403 16:58:13.805301 20158 net.cpp:425] inception_4e/relu_5x5 <- inception_4e/5x5
I0403 16:58:13.805317 20158 net.cpp:386] inception_4e/relu_5x5 -> inception_4e/5x5 (in-place)
I0403 16:58:13.805507 20158 net.cpp:141] Setting up inception_4e/relu_5x5
I0403 16:58:13.805534 20158 net.cpp:148] Top shape: 24 128 14 14 (602112)
I0403 16:58:13.805551 20158 net.cpp:156] Memory required for data: 1242150432
I0403 16:58:13.805565 20158 layer_factory.hpp:77] Creating layer inception_4e/pool
I0403 16:58:13.805594 20158 net.cpp:91] Creating Layer inception_4e/pool
I0403 16:58:13.805614 20158 net.cpp:425] inception_4e/pool <- inception_4d/output_inception_4d/output_0_split_4
I0403 16:58:13.805632 20158 net.cpp:399] inception_4e/pool -> inception_4e/pool
I0403 16:58:13.805701 20158 net.cpp:141] Setting up inception_4e/pool
I0403 16:58:13.805726 20158 net.cpp:148] Top shape: 24 528 14 14 (2483712)
I0403 16:58:13.805742 20158 net.cpp:156] Memory required for data: 1252085280
I0403 16:58:13.805757 20158 layer_factory.hpp:77] Creating layer inception_4e/pool_proj
I0403 16:58:13.805778 20158 net.cpp:91] Creating Layer inception_4e/pool_proj
I0403 16:58:13.805796 20158 net.cpp:425] inception_4e/pool_proj <- inception_4e/pool
I0403 16:58:13.805816 20158 net.cpp:399] inception_4e/pool_proj -> inception_4e/pool_proj
I0403 16:58:13.807274 20158 net.cpp:141] Setting up inception_4e/pool_proj
I0403 16:58:13.807302 20158 net.cpp:148] Top shape: 24 128 14 14 (602112)
I0403 16:58:13.807332 20158 net.cpp:156] Memory required for data: 1254493728
I0403 16:58:13.807351 20158 layer_factory.hpp:77] Creating layer inception_4e/relu_pool_proj
I0403 16:58:13.807371 20158 net.cpp:91] Creating Layer inception_4e/relu_pool_proj
I0403 16:58:13.807387 20158 net.cpp:425] inception_4e/relu_pool_proj <- inception_4e/pool_proj
I0403 16:58:13.807405 20158 net.cpp:386] inception_4e/relu_pool_proj -> inception_4e/pool_proj (in-place)
I0403 16:58:13.807694 20158 net.cpp:141] Setting up inception_4e/relu_pool_proj
I0403 16:58:13.807720 20158 net.cpp:148] Top shape: 24 128 14 14 (602112)
I0403 16:58:13.807736 20158 net.cpp:156] Memory required for data: 1256902176
I0403 16:58:13.807750 20158 layer_factory.hpp:77] Creating layer inception_4e/output
I0403 16:58:13.807767 20158 net.cpp:91] Creating Layer inception_4e/output
I0403 16:58:13.807782 20158 net.cpp:425] inception_4e/output <- inception_4e/1x1
I0403 16:58:13.807801 20158 net.cpp:425] inception_4e/output <- inception_4e/3x3
I0403 16:58:13.807816 20158 net.cpp:425] inception_4e/output <- inception_4e/5x5
I0403 16:58:13.807832 20158 net.cpp:425] inception_4e/output <- inception_4e/pool_proj
I0403 16:58:13.807850 20158 net.cpp:399] inception_4e/output -> inception_4e/output
I0403 16:58:13.807900 20158 net.cpp:141] Setting up inception_4e/output
I0403 16:58:13.807925 20158 net.cpp:148] Top shape: 24 832 14 14 (3913728)
I0403 16:58:13.807940 20158 net.cpp:156] Memory required for data: 1272557088
I0403 16:58:13.807955 20158 layer_factory.hpp:77] Creating layer pool4/3x3_s2
I0403 16:58:13.807971 20158 net.cpp:91] Creating Layer pool4/3x3_s2
I0403 16:58:13.807986 20158 net.cpp:425] pool4/3x3_s2 <- inception_4e/output
I0403 16:58:13.808006 20158 net.cpp:399] pool4/3x3_s2 -> pool4/3x3_s2
I0403 16:58:13.808073 20158 net.cpp:141] Setting up pool4/3x3_s2
I0403 16:58:13.808096 20158 net.cpp:148] Top shape: 24 832 7 7 (978432)
I0403 16:58:13.808111 20158 net.cpp:156] Memory required for data: 1276470816
I0403 16:58:13.808126 20158 layer_factory.hpp:77] Creating layer pool4/3x3_s2_pool4/3x3_s2_0_split
I0403 16:58:13.808145 20158 net.cpp:91] Creating Layer pool4/3x3_s2_pool4/3x3_s2_0_split
I0403 16:58:13.808161 20158 net.cpp:425] pool4/3x3_s2_pool4/3x3_s2_0_split <- pool4/3x3_s2
I0403 16:58:13.808178 20158 net.cpp:399] pool4/3x3_s2_pool4/3x3_s2_0_split -> pool4/3x3_s2_pool4/3x3_s2_0_split_0
I0403 16:58:13.808199 20158 net.cpp:399] pool4/3x3_s2_pool4/3x3_s2_0_split -> pool4/3x3_s2_pool4/3x3_s2_0_split_1
I0403 16:58:13.808221 20158 net.cpp:399] pool4/3x3_s2_pool4/3x3_s2_0_split -> pool4/3x3_s2_pool4/3x3_s2_0_split_2
I0403 16:58:13.808243 20158 net.cpp:399] pool4/3x3_s2_pool4/3x3_s2_0_split -> pool4/3x3_s2_pool4/3x3_s2_0_split_3
I0403 16:58:13.808329 20158 net.cpp:141] Setting up pool4/3x3_s2_pool4/3x3_s2_0_split
I0403 16:58:13.808352 20158 net.cpp:148] Top shape: 24 832 7 7 (978432)
I0403 16:58:13.808368 20158 net.cpp:148] Top shape: 24 832 7 7 (978432)
I0403 16:58:13.808383 20158 net.cpp:148] Top shape: 24 832 7 7 (978432)
I0403 16:58:13.808399 20158 net.cpp:148] Top shape: 24 832 7 7 (978432)
I0403 16:58:13.808413 20158 net.cpp:156] Memory required for data: 1292125728
I0403 16:58:13.808428 20158 layer_factory.hpp:77] Creating layer inception_5a/1x1
I0403 16:58:13.808449 20158 net.cpp:91] Creating Layer inception_5a/1x1
I0403 16:58:13.808466 20158 net.cpp:425] inception_5a/1x1 <- pool4/3x3_s2_pool4/3x3_s2_0_split_0
I0403 16:58:13.808487 20158 net.cpp:399] inception_5a/1x1 -> inception_5a/1x1
I0403 16:58:13.811297 20158 net.cpp:141] Setting up inception_5a/1x1
I0403 16:58:13.811327 20158 net.cpp:148] Top shape: 24 256 7 7 (301056)
I0403 16:58:13.811343 20158 net.cpp:156] Memory required for data: 1293329952
I0403 16:58:13.811362 20158 layer_factory.hpp:77] Creating layer inception_5a/relu_1x1
I0403 16:58:13.811381 20158 net.cpp:91] Creating Layer inception_5a/relu_1x1
I0403 16:58:13.811398 20158 net.cpp:425] inception_5a/relu_1x1 <- inception_5a/1x1
I0403 16:58:13.811414 20158 net.cpp:386] inception_5a/relu_1x1 -> inception_5a/1x1 (in-place)
I0403 16:58:13.811725 20158 net.cpp:141] Setting up inception_5a/relu_1x1
I0403 16:58:13.811751 20158 net.cpp:148] Top shape: 24 256 7 7 (301056)
I0403 16:58:13.811766 20158 net.cpp:156] Memory required for data: 1294534176
I0403 16:58:13.811780 20158 layer_factory.hpp:77] Creating layer inception_5a/3x3_reduce
I0403 16:58:13.811802 20158 net.cpp:91] Creating Layer inception_5a/3x3_reduce
I0403 16:58:13.811821 20158 net.cpp:425] inception_5a/3x3_reduce <- pool4/3x3_s2_pool4/3x3_s2_0_split_1
I0403 16:58:13.811843 20158 net.cpp:399] inception_5a/3x3_reduce -> inception_5a/3x3_reduce
I0403 16:58:13.814241 20158 net.cpp:141] Setting up inception_5a/3x3_reduce
I0403 16:58:13.814270 20158 net.cpp:148] Top shape: 24 160 7 7 (188160)
I0403 16:58:13.814285 20158 net.cpp:156] Memory required for data: 1295286816
I0403 16:58:13.814303 20158 layer_factory.hpp:77] Creating layer inception_5a/relu_3x3_reduce
I0403 16:58:13.814322 20158 net.cpp:91] Creating Layer inception_5a/relu_3x3_reduce
I0403 16:58:13.814339 20158 net.cpp:425] inception_5a/relu_3x3_reduce <- inception_5a/3x3_reduce
I0403 16:58:13.814359 20158 net.cpp:386] inception_5a/relu_3x3_reduce -> inception_5a/3x3_reduce (in-place)
I0403 16:58:13.814543 20158 net.cpp:141] Setting up inception_5a/relu_3x3_reduce
I0403 16:58:13.814568 20158 net.cpp:148] Top shape: 24 160 7 7 (188160)
I0403 16:58:13.814589 20158 net.cpp:156] Memory required for data: 1296039456
I0403 16:58:13.814604 20158 layer_factory.hpp:77] Creating layer inception_5a/3x3
I0403 16:58:13.814627 20158 net.cpp:91] Creating Layer inception_5a/3x3
I0403 16:58:13.814646 20158 net.cpp:425] inception_5a/3x3 <- inception_5a/3x3_reduce
I0403 16:58:13.814669 20158 net.cpp:399] inception_5a/3x3 -> inception_5a/3x3
I0403 16:58:13.819638 20158 net.cpp:141] Setting up inception_5a/3x3
I0403 16:58:13.819669 20158 net.cpp:148] Top shape: 24 320 7 7 (376320)
I0403 16:58:13.819685 20158 net.cpp:156] Memory required for data: 1297544736
I0403 16:58:13.819703 20158 layer_factory.hpp:77] Creating layer inception_5a/relu_3x3
I0403 16:58:13.819723 20158 net.cpp:91] Creating Layer inception_5a/relu_3x3
I0403 16:58:13.819741 20158 net.cpp:425] inception_5a/relu_3x3 <- inception_5a/3x3
I0403 16:58:13.819758 20158 net.cpp:386] inception_5a/relu_3x3 -> inception_5a/3x3 (in-place)
I0403 16:58:13.820053 20158 net.cpp:141] Setting up inception_5a/relu_3x3
I0403 16:58:13.820078 20158 net.cpp:148] Top shape: 24 320 7 7 (376320)
I0403 16:58:13.820093 20158 net.cpp:156] Memory required for data: 1299050016
I0403 16:58:13.820107 20158 layer_factory.hpp:77] Creating layer inception_5a/5x5_reduce
I0403 16:58:13.820132 20158 net.cpp:91] Creating Layer inception_5a/5x5_reduce
I0403 16:58:13.820152 20158 net.cpp:425] inception_5a/5x5_reduce <- pool4/3x3_s2_pool4/3x3_s2_0_split_2
I0403 16:58:13.820169 20158 net.cpp:399] inception_5a/5x5_reduce -> inception_5a/5x5_reduce
I0403 16:58:13.821280 20158 net.cpp:141] Setting up inception_5a/5x5_reduce
I0403 16:58:13.821310 20158 net.cpp:148] Top shape: 24 32 7 7 (37632)
I0403 16:58:13.821324 20158 net.cpp:156] Memory required for data: 1299200544
I0403 16:58:13.821343 20158 layer_factory.hpp:77] Creating layer inception_5a/relu_5x5_reduce
I0403 16:58:13.821362 20158 net.cpp:91] Creating Layer inception_5a/relu_5x5_reduce
I0403 16:58:13.821377 20158 net.cpp:425] inception_5a/relu_5x5_reduce <- inception_5a/5x5_reduce
I0403 16:58:13.821394 20158 net.cpp:386] inception_5a/relu_5x5_reduce -> inception_5a/5x5_reduce (in-place)
I0403 16:58:13.821684 20158 net.cpp:141] Setting up inception_5a/relu_5x5_reduce
I0403 16:58:13.821713 20158 net.cpp:148] Top shape: 24 32 7 7 (37632)
I0403 16:58:13.821728 20158 net.cpp:156] Memory required for data: 1299351072
I0403 16:58:13.821743 20158 layer_factory.hpp:77] Creating layer inception_5a/5x5
I0403 16:58:13.821763 20158 net.cpp:91] Creating Layer inception_5a/5x5
I0403 16:58:13.821781 20158 net.cpp:425] inception_5a/5x5 <- inception_5a/5x5_reduce
I0403 16:58:13.821800 20158 net.cpp:399] inception_5a/5x5 -> inception_5a/5x5
I0403 16:58:13.823431 20158 net.cpp:141] Setting up inception_5a/5x5
I0403 16:58:13.823469 20158 net.cpp:148] Top shape: 24 128 7 7 (150528)
I0403 16:58:13.823487 20158 net.cpp:156] Memory required for data: 1299953184
I0403 16:58:13.823504 20158 layer_factory.hpp:77] Creating layer inception_5a/relu_5x5
I0403 16:58:13.823524 20158 net.cpp:91] Creating Layer inception_5a/relu_5x5
I0403 16:58:13.823540 20158 net.cpp:425] inception_5a/relu_5x5 <- inception_5a/5x5
I0403 16:58:13.823557 20158 net.cpp:386] inception_5a/relu_5x5 -> inception_5a/5x5 (in-place)
I0403 16:58:13.823740 20158 net.cpp:141] Setting up inception_5a/relu_5x5
I0403 16:58:13.823767 20158 net.cpp:148] Top shape: 24 128 7 7 (150528)
I0403 16:58:13.823783 20158 net.cpp:156] Memory required for data: 1300555296
I0403 16:58:13.823798 20158 layer_factory.hpp:77] Creating layer inception_5a/pool
I0403 16:58:13.823817 20158 net.cpp:91] Creating Layer inception_5a/pool
I0403 16:58:13.823832 20158 net.cpp:425] inception_5a/pool <- pool4/3x3_s2_pool4/3x3_s2_0_split_3
I0403 16:58:13.823851 20158 net.cpp:399] inception_5a/pool -> inception_5a/pool
I0403 16:58:13.823922 20158 net.cpp:141] Setting up inception_5a/pool
I0403 16:58:13.823945 20158 net.cpp:148] Top shape: 24 832 7 7 (978432)
I0403 16:58:13.823961 20158 net.cpp:156] Memory required for data: 1304469024
I0403 16:58:13.823974 20158 layer_factory.hpp:77] Creating layer inception_5a/pool_proj
I0403 16:58:13.823997 20158 net.cpp:91] Creating Layer inception_5a/pool_proj
I0403 16:58:13.824015 20158 net.cpp:425] inception_5a/pool_proj <- inception_5a/pool
I0403 16:58:13.824033 20158 net.cpp:399] inception_5a/pool_proj -> inception_5a/pool_proj
I0403 16:58:13.826216 20158 net.cpp:141] Setting up inception_5a/pool_proj
I0403 16:58:13.826246 20158 net.cpp:148] Top shape: 24 128 7 7 (150528)
I0403 16:58:13.826261 20158 net.cpp:156] Memory required for data: 1305071136
I0403 16:58:13.826278 20158 layer_factory.hpp:77] Creating layer inception_5a/relu_pool_proj
I0403 16:58:13.826297 20158 net.cpp:91] Creating Layer inception_5a/relu_pool_proj
I0403 16:58:13.826314 20158 net.cpp:425] inception_5a/relu_pool_proj <- inception_5a/pool_proj
I0403 16:58:13.826333 20158 net.cpp:386] inception_5a/relu_pool_proj -> inception_5a/pool_proj (in-place)
I0403 16:58:13.826624 20158 net.cpp:141] Setting up inception_5a/relu_pool_proj
I0403 16:58:13.826649 20158 net.cpp:148] Top shape: 24 128 7 7 (150528)
I0403 16:58:13.826664 20158 net.cpp:156] Memory required for data: 1305673248
I0403 16:58:13.826678 20158 layer_factory.hpp:77] Creating layer inception_5a/output
I0403 16:58:13.826699 20158 net.cpp:91] Creating Layer inception_5a/output
I0403 16:58:13.826715 20158 net.cpp:425] inception_5a/output <- inception_5a/1x1
I0403 16:58:13.826732 20158 net.cpp:425] inception_5a/output <- inception_5a/3x3
I0403 16:58:13.826747 20158 net.cpp:425] inception_5a/output <- inception_5a/5x5
I0403 16:58:13.826763 20158 net.cpp:425] inception_5a/output <- inception_5a/pool_proj
I0403 16:58:13.826779 20158 net.cpp:399] inception_5a/output -> inception_5a/output
I0403 16:58:13.826828 20158 net.cpp:141] Setting up inception_5a/output
I0403 16:58:13.826853 20158 net.cpp:148] Top shape: 24 832 7 7 (978432)
I0403 16:58:13.826869 20158 net.cpp:156] Memory required for data: 1309586976
I0403 16:58:13.826884 20158 layer_factory.hpp:77] Creating layer inception_5a/output_inception_5a/output_0_split
I0403 16:58:13.826900 20158 net.cpp:91] Creating Layer inception_5a/output_inception_5a/output_0_split
I0403 16:58:13.826915 20158 net.cpp:425] inception_5a/output_inception_5a/output_0_split <- inception_5a/output
I0403 16:58:13.826935 20158 net.cpp:399] inception_5a/output_inception_5a/output_0_split -> inception_5a/output_inception_5a/output_0_split_0
I0403 16:58:13.826956 20158 net.cpp:399] inception_5a/output_inception_5a/output_0_split -> inception_5a/output_inception_5a/output_0_split_1
I0403 16:58:13.826977 20158 net.cpp:399] inception_5a/output_inception_5a/output_0_split -> inception_5a/output_inception_5a/output_0_split_2
I0403 16:58:13.826997 20158 net.cpp:399] inception_5a/output_inception_5a/output_0_split -> inception_5a/output_inception_5a/output_0_split_3
I0403 16:58:13.827102 20158 net.cpp:141] Setting up inception_5a/output_inception_5a/output_0_split
I0403 16:58:13.827128 20158 net.cpp:148] Top shape: 24 832 7 7 (978432)
I0403 16:58:13.827144 20158 net.cpp:148] Top shape: 24 832 7 7 (978432)
I0403 16:58:13.827160 20158 net.cpp:148] Top shape: 24 832 7 7 (978432)
I0403 16:58:13.827175 20158 net.cpp:148] Top shape: 24 832 7 7 (978432)
I0403 16:58:13.827188 20158 net.cpp:156] Memory required for data: 1325241888
I0403 16:58:13.827201 20158 layer_factory.hpp:77] Creating layer inception_5b/1x1
I0403 16:58:13.827222 20158 net.cpp:91] Creating Layer inception_5b/1x1
I0403 16:58:13.827240 20158 net.cpp:425] inception_5b/1x1 <- inception_5a/output_inception_5a/output_0_split_0
I0403 16:58:13.827260 20158 net.cpp:399] inception_5b/1x1 -> inception_5b/1x1
I0403 16:58:13.830879 20158 net.cpp:141] Setting up inception_5b/1x1
I0403 16:58:13.830907 20158 net.cpp:148] Top shape: 24 384 7 7 (451584)
I0403 16:58:13.830922 20158 net.cpp:156] Memory required for data: 1327048224
I0403 16:58:13.830940 20158 layer_factory.hpp:77] Creating layer inception_5b/relu_1x1
I0403 16:58:13.830957 20158 net.cpp:91] Creating Layer inception_5b/relu_1x1
I0403 16:58:13.830973 20158 net.cpp:425] inception_5b/relu_1x1 <- inception_5b/1x1
I0403 16:58:13.830992 20158 net.cpp:386] inception_5b/relu_1x1 -> inception_5b/1x1 (in-place)
I0403 16:58:13.831284 20158 net.cpp:141] Setting up inception_5b/relu_1x1
I0403 16:58:13.831310 20158 net.cpp:148] Top shape: 24 384 7 7 (451584)
I0403 16:58:13.831324 20158 net.cpp:156] Memory required for data: 1328854560
I0403 16:58:13.831338 20158 layer_factory.hpp:77] Creating layer inception_5b/3x3_reduce
I0403 16:58:13.831359 20158 net.cpp:91] Creating Layer inception_5b/3x3_reduce
I0403 16:58:13.831377 20158 net.cpp:425] inception_5b/3x3_reduce <- inception_5a/output_inception_5a/output_0_split_1
I0403 16:58:13.831399 20158 net.cpp:399] inception_5b/3x3_reduce -> inception_5b/3x3_reduce
I0403 16:58:13.833950 20158 net.cpp:141] Setting up inception_5b/3x3_reduce
I0403 16:58:13.833977 20158 net.cpp:148] Top shape: 24 192 7 7 (225792)
I0403 16:58:13.833992 20158 net.cpp:156] Memory required for data: 1329757728
I0403 16:58:13.834012 20158 layer_factory.hpp:77] Creating layer inception_5b/relu_3x3_reduce
I0403 16:58:13.834033 20158 net.cpp:91] Creating Layer inception_5b/relu_3x3_reduce
I0403 16:58:13.834048 20158 net.cpp:425] inception_5b/relu_3x3_reduce <- inception_5b/3x3_reduce
I0403 16:58:13.834065 20158 net.cpp:386] inception_5b/relu_3x3_reduce -> inception_5b/3x3_reduce (in-place)
I0403 16:58:13.834246 20158 net.cpp:141] Setting up inception_5b/relu_3x3_reduce
I0403 16:58:13.834271 20158 net.cpp:148] Top shape: 24 192 7 7 (225792)
I0403 16:58:13.834285 20158 net.cpp:156] Memory required for data: 1330660896
I0403 16:58:13.834300 20158 layer_factory.hpp:77] Creating layer inception_5b/3x3
I0403 16:58:13.834322 20158 net.cpp:91] Creating Layer inception_5b/3x3
I0403 16:58:13.834339 20158 net.cpp:425] inception_5b/3x3 <- inception_5b/3x3_reduce
I0403 16:58:13.834357 20158 net.cpp:399] inception_5b/3x3 -> inception_5b/3x3
I0403 16:58:13.840802 20158 net.cpp:141] Setting up inception_5b/3x3
I0403 16:58:13.840831 20158 net.cpp:148] Top shape: 24 384 7 7 (451584)
I0403 16:58:13.840847 20158 net.cpp:156] Memory required for data: 1332467232
I0403 16:58:13.840863 20158 layer_factory.hpp:77] Creating layer inception_5b/relu_3x3
I0403 16:58:13.840883 20158 net.cpp:91] Creating Layer inception_5b/relu_3x3
I0403 16:58:13.840900 20158 net.cpp:425] inception_5b/relu_3x3 <- inception_5b/3x3
I0403 16:58:13.840919 20158 net.cpp:386] inception_5b/relu_3x3 -> inception_5b/3x3 (in-place)
I0403 16:58:13.841204 20158 net.cpp:141] Setting up inception_5b/relu_3x3
I0403 16:58:13.841229 20158 net.cpp:148] Top shape: 24 384 7 7 (451584)
I0403 16:58:13.841244 20158 net.cpp:156] Memory required for data: 1334273568
I0403 16:58:13.841259 20158 layer_factory.hpp:77] Creating layer inception_5b/5x5_reduce
I0403 16:58:13.841295 20158 net.cpp:91] Creating Layer inception_5b/5x5_reduce
I0403 16:58:13.841315 20158 net.cpp:425] inception_5b/5x5_reduce <- inception_5a/output_inception_5a/output_0_split_2
I0403 16:58:13.841336 20158 net.cpp:399] inception_5b/5x5_reduce -> inception_5b/5x5_reduce
I0403 16:58:13.842556 20158 net.cpp:141] Setting up inception_5b/5x5_reduce
I0403 16:58:13.842589 20158 net.cpp:148] Top shape: 24 48 7 7 (56448)
I0403 16:58:13.842607 20158 net.cpp:156] Memory required for data: 1334499360
I0403 16:58:13.842624 20158 layer_factory.hpp:77] Creating layer inception_5b/relu_5x5_reduce
I0403 16:58:13.842643 20158 net.cpp:91] Creating Layer inception_5b/relu_5x5_reduce
I0403 16:58:13.842661 20158 net.cpp:425] inception_5b/relu_5x5_reduce <- inception_5b/5x5_reduce
I0403 16:58:13.842679 20158 net.cpp:386] inception_5b/relu_5x5_reduce -> inception_5b/5x5_reduce (in-place)
I0403 16:58:13.843068 20158 net.cpp:141] Setting up inception_5b/relu_5x5_reduce
I0403 16:58:13.843096 20158 net.cpp:148] Top shape: 24 48 7 7 (56448)
I0403 16:58:13.843109 20158 net.cpp:156] Memory required for data: 1334725152
I0403 16:58:13.843124 20158 layer_factory.hpp:77] Creating layer inception_5b/5x5
I0403 16:58:13.843143 20158 net.cpp:91] Creating Layer inception_5b/5x5
I0403 16:58:13.843161 20158 net.cpp:425] inception_5b/5x5 <- inception_5b/5x5_reduce
I0403 16:58:13.843179 20158 net.cpp:399] inception_5b/5x5 -> inception_5b/5x5
I0403 16:58:13.845168 20158 net.cpp:141] Setting up inception_5b/5x5
I0403 16:58:13.845196 20158 net.cpp:148] Top shape: 24 128 7 7 (150528)
I0403 16:58:13.845211 20158 net.cpp:156] Memory required for data: 1335327264
I0403 16:58:13.845228 20158 layer_factory.hpp:77] Creating layer inception_5b/relu_5x5
I0403 16:58:13.845248 20158 net.cpp:91] Creating Layer inception_5b/relu_5x5
I0403 16:58:13.845265 20158 net.cpp:425] inception_5b/relu_5x5 <- inception_5b/5x5
I0403 16:58:13.845283 20158 net.cpp:386] inception_5b/relu_5x5 -> inception_5b/5x5 (in-place)
I0403 16:58:13.845468 20158 net.cpp:141] Setting up inception_5b/relu_5x5
I0403 16:58:13.845495 20158 net.cpp:148] Top shape: 24 128 7 7 (150528)
I0403 16:58:13.845510 20158 net.cpp:156] Memory required for data: 1335929376
I0403 16:58:13.845525 20158 layer_factory.hpp:77] Creating layer inception_5b/pool
I0403 16:58:13.845542 20158 net.cpp:91] Creating Layer inception_5b/pool
I0403 16:58:13.845557 20158 net.cpp:425] inception_5b/pool <- inception_5a/output_inception_5a/output_0_split_3
I0403 16:58:13.845583 20158 net.cpp:399] inception_5b/pool -> inception_5b/pool
I0403 16:58:13.845656 20158 net.cpp:141] Setting up inception_5b/pool
I0403 16:58:13.845679 20158 net.cpp:148] Top shape: 24 832 7 7 (978432)
I0403 16:58:13.845695 20158 net.cpp:156] Memory required for data: 1339843104
I0403 16:58:13.845708 20158 layer_factory.hpp:77] Creating layer inception_5b/pool_proj
I0403 16:58:13.845731 20158 net.cpp:91] Creating Layer inception_5b/pool_proj
I0403 16:58:13.845746 20158 net.cpp:425] inception_5b/pool_proj <- inception_5b/pool
I0403 16:58:13.845767 20158 net.cpp:399] inception_5b/pool_proj -> inception_5b/pool_proj
I0403 16:58:13.847982 20158 net.cpp:141] Setting up inception_5b/pool_proj
I0403 16:58:13.848011 20158 net.cpp:148] Top shape: 24 128 7 7 (150528)
I0403 16:58:13.848027 20158 net.cpp:156] Memory required for data: 1340445216
I0403 16:58:13.848047 20158 layer_factory.hpp:77] Creating layer inception_5b/relu_pool_proj
I0403 16:58:13.848079 20158 net.cpp:91] Creating Layer inception_5b/relu_pool_proj
I0403 16:58:13.848096 20158 net.cpp:425] inception_5b/relu_pool_proj <- inception_5b/pool_proj
I0403 16:58:13.848114 20158 net.cpp:386] inception_5b/relu_pool_proj -> inception_5b/pool_proj (in-place)
I0403 16:58:13.848395 20158 net.cpp:141] Setting up inception_5b/relu_pool_proj
I0403 16:58:13.848423 20158 net.cpp:148] Top shape: 24 128 7 7 (150528)
I0403 16:58:13.848436 20158 net.cpp:156] Memory required for data: 1341047328
I0403 16:58:13.848451 20158 layer_factory.hpp:77] Creating layer inception_5b/output
I0403 16:58:13.848469 20158 net.cpp:91] Creating Layer inception_5b/output
I0403 16:58:13.848497 20158 net.cpp:425] inception_5b/output <- inception_5b/1x1
I0403 16:58:13.848517 20158 net.cpp:425] inception_5b/output <- inception_5b/3x3
I0403 16:58:13.848536 20158 net.cpp:425] inception_5b/output <- inception_5b/5x5
I0403 16:58:13.848551 20158 net.cpp:425] inception_5b/output <- inception_5b/pool_proj
I0403 16:58:13.848569 20158 net.cpp:399] inception_5b/output -> inception_5b/output
I0403 16:58:13.848628 20158 net.cpp:141] Setting up inception_5b/output
I0403 16:58:13.848652 20158 net.cpp:148] Top shape: 24 1024 7 7 (1204224)
I0403 16:58:13.848667 20158 net.cpp:156] Memory required for data: 1345864224
I0403 16:58:13.848682 20158 layer_factory.hpp:77] Creating layer pool5/7x7_s1
I0403 16:58:13.848700 20158 net.cpp:91] Creating Layer pool5/7x7_s1
I0403 16:58:13.848714 20158 net.cpp:425] pool5/7x7_s1 <- inception_5b/output
I0403 16:58:13.848734 20158 net.cpp:399] pool5/7x7_s1 -> pool5/7x7_s1
I0403 16:58:13.848942 20158 net.cpp:141] Setting up pool5/7x7_s1
I0403 16:58:13.848966 20158 net.cpp:148] Top shape: 24 1024 1 1 (24576)
I0403 16:58:13.848981 20158 net.cpp:156] Memory required for data: 1345962528
I0403 16:58:13.848996 20158 layer_factory.hpp:77] Creating layer pool5/drop_7x7_s1
I0403 16:58:13.849015 20158 net.cpp:91] Creating Layer pool5/drop_7x7_s1
I0403 16:58:13.849032 20158 net.cpp:425] pool5/drop_7x7_s1 <- pool5/7x7_s1
I0403 16:58:13.849051 20158 net.cpp:386] pool5/drop_7x7_s1 -> pool5/7x7_s1 (in-place)
I0403 16:58:13.849100 20158 net.cpp:141] Setting up pool5/drop_7x7_s1
I0403 16:58:13.849123 20158 net.cpp:148] Top shape: 24 1024 1 1 (24576)
I0403 16:58:13.849136 20158 net.cpp:156] Memory required for data: 1346060832
I0403 16:58:13.849150 20158 layer_factory.hpp:77] Creating layer loss3/classifier_plantvillage
I0403 16:58:13.849167 20158 net.cpp:91] Creating Layer loss3/classifier_plantvillage
I0403 16:58:13.849182 20158 net.cpp:425] loss3/classifier_plantvillage <- pool5/7x7_s1
I0403 16:58:13.849202 20158 net.cpp:399] loss3/classifier_plantvillage -> loss3/classifier_plantvillage
I0403 16:58:13.849635 20158 net.cpp:141] Setting up loss3/classifier_plantvillage
I0403 16:58:13.849673 20158 net.cpp:148] Top shape: 24 38 (912)
I0403 16:58:13.849688 20158 net.cpp:156] Memory required for data: 1346064480
I0403 16:58:13.849705 20158 layer_factory.hpp:77] Creating layer loss3/classifier_plantvillage_loss3/classifier_plantvillage_0_split
I0403 16:58:13.849723 20158 net.cpp:91] Creating Layer loss3/classifier_plantvillage_loss3/classifier_plantvillage_0_split
I0403 16:58:13.849740 20158 net.cpp:425] loss3/classifier_plantvillage_loss3/classifier_plantvillage_0_split <- loss3/classifier_plantvillage
I0403 16:58:13.849759 20158 net.cpp:399] loss3/classifier_plantvillage_loss3/classifier_plantvillage_0_split -> loss3/classifier_plantvillage_loss3/classifier_plantvillage_0_split_0
I0403 16:58:13.849781 20158 net.cpp:399] loss3/classifier_plantvillage_loss3/classifier_plantvillage_0_split -> loss3/classifier_plantvillage_loss3/classifier_plantvillage_0_split_1
I0403 16:58:13.849802 20158 net.cpp:399] loss3/classifier_plantvillage_loss3/classifier_plantvillage_0_split -> loss3/classifier_plantvillage_loss3/classifier_plantvillage_0_split_2
I0403 16:58:13.849824 20158 net.cpp:399] loss3/classifier_plantvillage_loss3/classifier_plantvillage_0_split -> loss3/classifier_plantvillage_loss3/classifier_plantvillage_0_split_3
I0403 16:58:13.849938 20158 net.cpp:141] Setting up loss3/classifier_plantvillage_loss3/classifier_plantvillage_0_split
I0403 16:58:13.849962 20158 net.cpp:148] Top shape: 24 38 (912)
I0403 16:58:13.849977 20158 net.cpp:148] Top shape: 24 38 (912)
I0403 16:58:13.849992 20158 net.cpp:148] Top shape: 24 38 (912)
I0403 16:58:13.850008 20158 net.cpp:148] Top shape: 24 38 (912)
I0403 16:58:13.850023 20158 net.cpp:156] Memory required for data: 1346079072
I0403 16:58:13.850038 20158 layer_factory.hpp:77] Creating layer loss1/loss
I0403 16:58:13.850059 20158 net.cpp:91] Creating Layer loss1/loss
I0403 16:58:13.850075 20158 net.cpp:425] loss1/loss <- loss1/classifier_plantvillage_loss1/classifier_plantvillage_0_split_0
I0403 16:58:13.850106 20158 net.cpp:425] loss1/loss <- label_data_1_split_0
…
